…
I0403 15:19:29.367337  2960 net.cpp:313] The NetState phase (1) differed from the phase (0) specified by a rule in layer data
I0403 15:19:29.368499  2960 net.cpp:49] Initializing net from parameters: 
state {
  phase: TEST
}
layer {
  name: "data"
  type: "Data"
  top: "data"
  top: "label"
  include {
    phase: TEST
  }
  transform_param {
    mirror: false
    crop_size: 224
    mean_file: "/home/mohanty/data/final_dataset/lmdb/grayscale-50-50/mean.binaryproto"
  }
  data_param {
    source: "/home/mohanty/data/final_dataset/lmdb/grayscale-50-50/test_db"
    batch_size: 24
    backend: LMDB
  }
}
layer {
  name: "conv1/7x7_s2"
  type: "Convolution"
  bottom: "data"
  top: "conv1/7x7_s2"
  param {
    lr_mult: 1
    decay_mult: 1
  }
  param {
    lr_mult: 2
    decay_mult: 0
  }
  convolution_param {
    num_output: 64
    pad: 3
    kernel_size: 7
    stride: 2
    weight_filler {
      type: "xavier"
      std: 0.1
    }
    bias_filler {
      type: "constant"
      value: 0.2
    }
  }
}
layer {
  name: "conv1/relu_7x7"
  type: "ReLU"
  bottom: "conv1/7x7_s2"
  top: "conv1/7x7_s2"
}
layer {
  name: "pool1/3x3_s2"
  type: "Pooling"
  bottom: "conv1/7x7_s2"
  top: "pool1/3x3_s2"
  pooling_param {
    pool: MAX
    kernel_size: 3
    stride: 2
  }
}
layer {
  name: "pool1/norm1"
  type: "LRN"
  bottom: "pool1/3x3_s2"
  top: "pool1/norm1"
  lrn_param {
    local_size: 5
    alpha: 0.0001
    beta: 0.75
  }
}
layer {
  name: "conv2/3x3_reduce"
  type: "Convolution"
  bottom: "pool1/norm1"
  top: "conv2/3x3_reduce"
  param {
    lr_mult: 1
    decay_mult: 1
  }
  param {
    lr_mult: 2
    decay_mult: 0
  }
  convolution_param {
    num_output: 64
    kernel_size: 1
    weight_filler {
      type: "xavier"
      std: 0.1
    }
    bias_filler {
      type: "constant"
      value: 0.2
    }
  }
}
layer {
  name: "conv2/relu_3x3_reduce"
  type: "ReLU"
  bottom: "conv2/3x3_reduce"
  top: "conv2/3x3_reduce"
}
layer {
  name: "conv2/3x3"
  type: "Convolution"
  bottom: "conv2/3x3_reduce"
  top: "conv2/3x3"
  param {
    lr_mult: 1
    decay_mult: 1
  }
  param {
    lr_mult: 2
    decay_mult: 0
  }
  convolution_param {
    num_output: 192
    pad: 1
    kernel_size: 3
    weight_filler {
      type: "xavier"
      std: 0.03
    }
    bias_filler {
      type: "constant"
      value: 0.2
    }
  }
}
layer {
  name: "conv2/relu_3x3"
  type: "ReLU"
  bottom: "conv2/3x3"
  top: "conv2/3x3"
}
layer {
  name: "conv2/norm2"
  type: "LRN"
  bottom: "conv2/3x3"
  top: "conv2/norm2"
  lrn_param {
    local_size: 5
    alpha: 0.0001
    beta: 0.75
  }
}
layer {
  name: "pool2/3x3_s2"
  type: "Pooling"
  bottom: "conv2/norm2"
  top: "pool2/3x3_s2"
  pooling_param {
    pool: MAX
    kernel_size: 3
    stride: 2
  }
}
layer {
  name: "inception_3a/1x1"
  type: "Convolution"
  bottom: "pool2/3x3_s2"
  top: "inception_3a/1x1"
  param {
    lr_mult: 1
    decay_mult: 1
  }
  param {
    lr_mult: 2
    decay_mult: 0
  }
  convolution_param {
    num_output: 64
    kernel_size: 1
    weight_filler {
      type: "xavier"
      std: 0.03
    }
    bias_filler {
      type: "constant"
      value: 0.2
    }
  }
}
layer {
  name: "inception_3a/relu_1x1"
  type: "ReLU"
  bottom: "inception_3a/1x1"
  top: "inception_3a/1x1"
}
layer {
  name: "inception_3a/3x3_reduce"
  type: "Convolution"
  bottom: "pool2/3x3_s2"
  top: "inception_3a/3x3_reduce"
  param {
    lr_mult: 1
    decay_mult: 1
  }
  param {
    lr_mult: 2
    decay_mult: 0
  }
  convolution_param {
    num_output: 96
    kernel_size: 1
    weight_filler {
      type: "xavier"
      std: 0.09
    }
    bias_filler {
      type: "constant"
      value: 0.2
    }
  }
}
layer {
  name: "inception_3a/relu_3x3_reduce"
  type: "ReLU"
  bottom: "inception_3a/3x3_reduce"
  top: "inception_3a/3x3_reduce"
}
layer {
  name: "inception_3a/3x3"
  type: "Convolution"
  bottom: "inception_3a/3x3_reduce"
  top: "inception_3a/3x3"
  param {
    lr_mult: 1
    decay_mult: 1
  }
  param {
    lr_mult: 2
    decay_mult: 0
  }
  convolution_param {
    num_output: 128
    pad: 1
    kernel_size: 3
    weight_filler {
      type: "xavier"
      std: 0.03
    }
    bias_filler {
      type: "constant"
      value: 0.2
    }
  }
}
layer {
  name: "inception_3a/relu_3x3"
  type: "ReLU"
  bottom: "inception_3a/3x3"
  top: "inception_3a/3x3"
}
layer {
  name: "inception_3a/5x5_reduce"
  type: "Convolution"
  bottom: "pool2/3x3_s2"
  top: "inception_3a/5x5_reduce"
  param {
    lr_mult: 1
    decay_mult: 1
  }
  param {
    lr_mult: 2
    decay_mult: 0
  }
  convolution_param {
    num_output: 16
    kernel_size: 1
    weight_filler {
      type: "xavier"
      std: 0.2
    }
    bias_filler {
      type: "constant"
      value: 0.2
    }
  }
}
layer {
  name: "inception_3a/relu_5x5_reduce"
  type: "ReLU"
  bottom: "inception_3a/5x5_reduce"
  top: "inception_3a/5x5_reduce"
}
layer {
  name: "inception_3a/5x5"
  type: "Convolution"
  bottom: "inception_3a/5x5_reduce"
  top: "inception_3a/5x5"
  param {
    lr_mult: 1
    decay_mult: 1
  }
  param {
    lr_mult: 2
    decay_mult: 0
  }
  convolution_param {
    num_output: 32
    pad: 2
    kernel_size: 5
    weight_filler {
      type: "xavier"
      std: 0.03
    }
    bias_filler {
      type: "constant"
      value: 0.2
    }
  }
}
layer {
  name: "inception_3a/relu_5x5"
  type: "ReLU"
  bottom: "inception_3a/5x5"
  top: "inception_3a/5x5"
}
layer {
  name: "inception_3a/pool"
  type: "Pooling"
  bottom: "pool2/3x3_s2"
  top: "inception_3a/pool"
  pooling_param {
    pool: MAX
    kernel_size: 3
    stride: 1
    pad: 1
  }
}
layer {
  name: "inception_3a/pool_proj"
  type: "Convolution"
  bottom: "inception_3a/pool"
  top: "inception_3a/pool_proj"
  param {
    lr_mult: 1
    decay_mult: 1
  }
  param {
    lr_mult: 2
    decay_mult: 0
  }
  convolution_param {
    num_output: 32
    kernel_size: 1
    weight_filler {
      type: "xavier"
      std: 0.1
    }
    bias_filler {
      type: "constant"
      value: 0.2
    }
  }
}
layer {
  name: "inception_3a/relu_pool_proj"
  type: "ReLU"
  bottom: "inception_3a/pool_proj"
  top: "inception_3a/pool_proj"
}
layer {
  name: "inception_3a/output"
  type: "Concat"
  bottom: "inception_3a/1x1"
  bottom: "inception_3a/3x3"
  bottom: "inception_3a/5x5"
  bottom: "inception_3a/pool_proj"
  top: "inception_3a/output"
}
layer {
  name: "inception_3b/1x1"
  type: "Convolution"
  bottom: "inception_3a/output"
  top: "inception_3b/1x1"
  param {
    lr_mult: 1
    decay_mult: 1
  }
  param {
    lr_mult: 2
    decay_mult: 0
  }
  convolution_param {
    num_output: 128
    kernel_size: 1
    weight_filler {
      type: "xavier"
      std: 0.03
    }
    bias_filler {
      type: "constant"
      value: 0.2
    }
  }
}
layer {
  name: "inception_3b/relu_1x1"
  type: "ReLU"
  bottom: "inception_3b/1x1"
  top: "inception_3b/1x1"
}
layer {
  name: "inception_3b/3x3_reduce"
  type: "Convolution"
  bottom: "inception_3a/output"
  top: "inception_3b/3x3_reduce"
  param {
    lr_mult: 1
    decay_mult: 1
  }
  param {
    lr_mult: 2
    decay_mult: 0
  }
  convolution_param {
    num_output: 128
    kernel_size: 1
    weight_filler {
      type: "xavier"
      std: 0.09
    }
    bias_filler {
      type: "constant"
      value: 0.2
    }
  }
}
layer {
  name: "inception_3b/relu_3x3_reduce"
  type: "ReLU"
  bottom: "inception_3b/3x3_reduce"
  top: "inception_3b/3x3_reduce"
}
layer {
  name: "inception_3b/3x3"
  type: "Convolution"
  bottom: "inception_3b/3x3_reduce"
  top: "inception_3b/3x3"
  param {
    lr_mult: 1
    decay_mult: 1
  }
  param {
    lr_mult: 2
    decay_mult: 0
  }
  convolution_param {
    num_output: 192
    pad: 1
    kernel_size: 3
    weight_filler {
      type: "xavier"
      std: 0.03
    }
    bias_filler {
      type: "constant"
      value: 0.2
    }
  }
}
layer {
  name: "inception_3b/relu_3x3"
  type: "ReLU"
  bottom: "inception_3b/3x3"
  top: "inception_3b/3x3"
}
layer {
  name: "inception_3b/5x5_reduce"
  type: "Convolution"
  bottom: "inception_3a/output"
  top: "inception_3b/5x5_reduce"
  param {
    lr_mult: 1
    decay_mult: 1
  }
  param {
    lr_mult: 2
    decay_mult: 0
  }
  convolution_param {
    num_output: 32
    kernel_size: 1
    weight_filler {
      type: "xavier"
      std: 0.2
    }
    bias_filler {
      type: "constant"
      value: 0.2
    }
  }
}
layer {
  name: "inception_3b/relu_5x5_reduce"
  type: "ReLU"
  bottom: "inception_3b/5x5_reduce"
  top: "inception_3b/5x5_reduce"
}
layer {
  name: "inception_3b/5x5"
  type: "Convolution"
  bottom: "inception_3b/5x5_reduce"
  top: "inception_3b/5x5"
  param {
    lr_mult: 1
    decay_mult: 1
  }
  param {
    lr_mult: 2
    decay_mult: 0
  }
  convolution_param {
    num_output: 96
    pad: 2
    kernel_size: 5
    weight_filler {
      type: "xavier"
      std: 0.03
    }
    bias_filler {
      type: "constant"
      value: 0.2
    }
  }
}
layer {
  name: "inception_3b/relu_5x5"
  type: "ReLU"
  bottom: "inception_3b/5x5"
  top: "inception_3b/5x5"
}
layer {
  name: "inception_3b/pool"
  type: "Pooling"
  bottom: "inception_3a/output"
  top: "inception_3b/pool"
  pooling_param {
    pool: MAX
    kernel_size: 3
    stride: 1
    pad: 1
  }
}
layer {
  name: "inception_3b/pool_proj"
  type: "Convolution"
  bottom: "inception_3b/pool"
  top: "inception_3b/pool_proj"
  param {
    lr_mult: 1
    decay_mult: 1
  }
  param {
    lr_mult: 2
    decay_mult: 0
  }
  convolution_param {
    num_output: 64
    kernel_size: 1
    weight_filler {
      type: "xavier"
      std: 0.1
    }
    bias_filler {
      type: "constant"
      value: 0.2
    }
  }
}
layer {
  name: "inception_3b/relu_pool_proj"
  type: "ReLU"
  bottom: "inception_3b/pool_proj"
  top: "inception_3b/pool_proj"
}
layer {
  name: "inception_3b/output"
  type: "Concat"
  bottom: "inception_3b/1x1"
  bottom: "inception_3b/3x3"
  bottom: "inception_3b/5x5"
  bottom: "inception_3b/pool_proj"
  top: "inception_3b/output"
}
layer {
  name: "pool3/3x3_s2"
  type: "Pooling"
  bottom: "inception_3b/output"
  top: "pool3/3x3_s2"
  pooling_param {
    pool: MAX
    kernel_size: 3
    stride: 2
  }
}
layer {
  name: "inception_4a/1x1"
  type: "Convolution"
  bottom: "pool3/3x3_s2"
  top: "inception_4a/1x1"
  param {
    lr_mult: 1
    decay_mult: 1
  }
  param {
    lr_mult: 2
    decay_mult: 0
  }
  convolution_param {
    num_output: 192
    kernel_size: 1
    weight_filler {
      type: "xavier"
      std: 0.03
    }
    bias_filler {
      type: "constant"
      value: 0.2
    }
  }
}
layer {
  name: "inception_4a/relu_1x1"
  type: "ReLU"
  bottom: "inception_4a/1x1"
  top: "inception_4a/1x1"
}
layer {
  name: "inception_4a/3x3_reduce"
  type: "Convolution"
  bottom: "pool3/3x3_s2"
  top: "inception_4a/3x3_reduce"
  param {
    lr_mult: 1
    decay_mult: 1
  }
  param {
    lr_mult: 2
    decay_mult: 0
  }
  convolution_param {
    num_output: 96
    kernel_size: 1
    weight_filler {
      type: "xavier"
      std: 0.09
    }
    bias_filler {
      type: "constant"
      value: 0.2
    }
  }
}
layer {
  name: "inception_4a/relu_3x3_reduce"
  type: "ReLU"
  bottom: "inception_4a/3x3_reduce"
  top: "inception_4a/3x3_reduce"
}
layer {
  name: "inception_4a/3x3"
  type: "Convolution"
  bottom: "inception_4a/3x3_reduce"
  top: "inception_4a/3x3"
  param {
    lr_mult: 1
    decay_mult: 1
  }
  param {
    lr_mult: 2
    decay_mult: 0
  }
  convolution_param {
    num_output: 208
    pad: 1
    kernel_size: 3
    weight_filler {
      type: "xavier"
      std: 0.03
    }
    bias_filler {
      type: "constant"
      value: 0.2
    }
  }
}
layer {
  name: "inception_4a/relu_3x3"
  type: "ReLU"
  bottom: "inception_4a/3x3"
  top: "inception_4a/3x3"
}
layer {
  name: "inception_4a/5x5_reduce"
  type: "Convolution"
  bottom: "pool3/3x3_s2"
  top: "inception_4a/5x5_reduce"
  param {
    lr_mult: 1
    decay_mult: 1
  }
  param {
    lr_mult: 2
    decay_mult: 0
  }
  convolution_param {
    num_output: 16
    kernel_size: 1
    weight_filler {
      type: "xavier"
      std: 0.2
    }
    bias_filler {
      type: "constant"
      value: 0.2
    }
  }
}
layer {
  name: "inception_4a/relu_5x5_reduce"
  type: "ReLU"
  bottom: "inception_4a/5x5_reduce"
  top: "inception_4a/5x5_reduce"
}
layer {
  name: "inception_4a/5x5"
  type: "Convolution"
  bottom: "inception_4a/5x5_reduce"
  top: "inception_4a/5x5"
  param {
    lr_mult: 1
    decay_mult: 1
  }
  param {
    lr_mult: 2
    decay_mult: 0
  }
  convolution_param {
    num_output: 48
    pad: 2
    kernel_size: 5
    weight_filler {
      type: "xavier"
      std: 0.03
    }
    bias_filler {
      type: "constant"
      value: 0.2
    }
  }
}
layer {
  name: "inception_4a/relu_5x5"
  type: "ReLU"
  bottom: "inception_4a/5x5"
  top: "inception_4a/5x5"
}
layer {
  name: "inception_4a/pool"
  type: "Pooling"
  bottom: "pool3/3x3_s2"
  top: "inception_4a/pool"
  pooling_param {
    pool: MAX
    kernel_size: 3
    stride: 1
    pad: 1
  }
}
layer {
  name: "inception_4a/pool_proj"
  type: "Convolution"
  bottom: "inception_4a/pool"
  top: "inception_4a/pool_proj"
  param {
    lr_mult: 1
    decay_mult: 1
  }
  param {
    lr_mult: 2
    decay_mult: 0
  }
  convolution_param {
    num_output: 64
    kernel_size: 1
    weight_filler {
      type: "xavier"
      std: 0.1
    }
    bias_filler {
      type: "constant"
      value: 0.2
    }
  }
}
layer {
  name: "inception_4a/relu_pool_proj"
  type: "ReLU"
  bottom: "inception_4a/pool_proj"
  top: "inception_4a/pool_proj"
}
layer {
  name: "inception_4a/output"
  type: "Concat"
  bottom: "inception_4a/1x1"
  bottom: "inception_4a/3x3"
  bottom: "inception_4a/5x5"
  bottom: "inception_4a/pool_proj"
  top: "inception_4a/output"
}
layer {
  name: "loss1/ave_pool"
  type: "Pooling"
  bottom: "inception_4a/output"
  top: "loss1/ave_pool"
  pooling_param {
    pool: AVE
    kernel_size: 5
    stride: 3
  }
}
layer {
  name: "loss1/conv"
  type: "Convolution"
  bottom: "loss1/ave_pool"
  top: "loss1/conv"
  param {
    lr_mult: 1
    decay_mult: 1
  }
  param {
    lr_mult: 2
    decay_mult: 0
  }
  convolution_param {
    num_output: 128
    kernel_size: 1
    weight_filler {
      type: "xavier"
      std: 0.08
    }
    bias_filler {
      type: "constant"
      value: 0.2
    }
  }
}
layer {
  name: "loss1/relu_conv"
  type: "ReLU"
  bottom: "loss1/conv"
  top: "loss1/conv"
}
layer {
  name: "loss1/fc"
  type: "InnerProduct"
  bottom: "loss1/conv"
  top: "loss1/fc"
  param {
    lr_mult: 1
    decay_mult: 1
  }
  param {
    lr_mult: 2
    decay_mult: 0
  }
  inner_product_param {
    num_output: 1024
    weight_filler {
      type: "xavier"
      std: 0.02
    }
    bias_filler {
      type: "constant"
      value: 0.2
    }
  }
}
layer {
  name: "loss1/relu_fc"
  type: "ReLU"
  bottom: "loss1/fc"
  top: "loss1/fc"
}
layer {
  name: "loss1/drop_fc"
  type: "Dropout"
  bottom: "loss1/fc"
  top: "loss1/fc"
  dropout_param {
    dropout_ratio: 0.7
  }
}
layer {
  name: "loss1/classifier_plantvillage"
  type: "InnerProduct"
  bottom: "loss1/fc"
  top: "loss1/classifier_plantvillage"
  param {
    lr_mult: 1
    decay_mult: 1
  }
  param {
    lr_mult: 2
    decay_mult: 0
  }
  inner_product_param {
    num_output: 38
    weight_filler {
      type: "xavier"
      std: 0.0009765625
    }
    bias_filler {
      type: "constant"
      value: 0
    }
  }
}
layer {
  name: "inception_4b/1x1"
  type: "Convolution"
  bottom: "inception_4a/output"
  top: "inception_4b/1x1"
  param {
    lr_mult: 1
    decay_mult: 1
  }
  param {
    lr_mult: 2
    decay_mult: 0
  }
  convolution_param {
    num_output: 160
    kernel_size: 1
    weight_filler {
      type: "xavier"
      std: 0.03
    }
    bias_filler {
      type: "constant"
      value: 0.2
    }
  }
}
layer {
  name: "inception_4b/relu_1x1"
  type: "ReLU"
  bottom: "inception_4b/1x1"
  top: "inception_4b/1x1"
}
layer {
  name: "inception_4b/3x3_reduce"
  type: "Convolution"
  bottom: "inception_4a/output"
  top: "inception_4b/3x3_reduce"
  param {
    lr_mult: 1
    decay_mult: 1
  }
  param {
    lr_mult: 2
    decay_mult: 0
  }
  convolution_param {
    num_output: 112
    kernel_size: 1
    weight_filler {
      type: "xavier"
      std: 0.09
    }
    bias_filler {
      type: "constant"
      value: 0.2
    }
  }
}
layer {
  name: "inception_4b/relu_3x3_reduce"
  type: "ReLU"
  bottom: "inception_4b/3x3_reduce"
  top: "inception_4b/3x3_reduce"
}
layer {
  name: "inception_4b/3x3"
  type: "Convolution"
  bottom: "inception_4b/3x3_reduce"
  top: "inception_4b/3x3"
  param {
    lr_mult: 1
    decay_mult: 1
  }
  param {
    lr_mult: 2
    decay_mult: 0
  }
  convolution_param {
    num_output: 224
    pad: 1
    kernel_size: 3
    weight_filler {
      type: "xavier"
      std: 0.03
    }
    bias_filler {
      type: "constant"
      value: 0.2
    }
  }
}
layer {
  name: "inception_4b/relu_3x3"
  type: "ReLU"
  bottom: "inception_4b/3x3"
  top: "inception_4b/3x3"
}
layer {
  name: "inception_4b/5x5_reduce"
  type: "Convolution"
  bottom: "inception_4a/output"
  top: "inception_4b/5x5_reduce"
  param {
    lr_mult: 1
    decay_mult: 1
  }
  param {
    lr_mult: 2
    decay_mult: 0
  }
  convolution_param {
    num_output: 24
    kernel_size: 1
    weight_filler {
      type: "xavier"
      std: 0.2
    }
    bias_filler {
      type: "constant"
      value: 0.2
    }
  }
}
layer {
  name: "inception_4b/relu_5x5_reduce"
  type: "ReLU"
  bottom: "inception_4b/5x5_reduce"
  top: "inception_4b/5x5_reduce"
}
layer {
  name: "inception_4b/5x5"
  type: "Convolution"
  bottom: "inception_4b/5x5_reduce"
  top: "inception_4b/5x5"
  param {
    lr_mult: 1
    decay_mult: 1
  }
  param {
    lr_mult: 2
    decay_mult: 0
  }
  convolution_param {
    num_output: 64
    pad: 2
    kernel_size: 5
    weight_filler {
      type: "xavier"
      std: 0.03
    }
    bias_filler {
      type: "constant"
      value: 0.2
    }
  }
}
layer {
  name: "inception_4b/relu_5x5"
  type: "ReLU"
  bottom: "inception_4b/5x5"
  top: "inception_4b/5x5"
}
layer {
  name: "inception_4b/pool"
  type: "Pooling"
  bottom: "inception_4a/output"
  top: "inception_4b/pool"
  pooling_param {
    pool: MAX
    kernel_size: 3
    stride: 1
    pad: 1
  }
}
layer {
  name: "inception_4b/pool_proj"
  type: "Convolution"
  bottom: "inception_4b/pool"
  top: "inception_4b/pool_proj"
  param {
    lr_mult: 1
    decay_mult: 1
  }
  param {
    lr_mult: 2
    decay_mult: 0
  }
  convolution_param {
    num_output: 64
    kernel_size: 1
    weight_filler {
      type: "xavier"
      std: 0.1
    }
    bias_filler {
      type: "constant"
      value: 0.2
    }
  }
}
layer {
  name: "inception_4b/relu_pool_proj"
  type: "ReLU"
  bottom: "inception_4b/pool_proj"
  top: "inception_4b/pool_proj"
}
layer {
  name: "inception_4b/output"
  type: "Concat"
  bottom: "inception_4b/1x1"
  bottom: "inception_4b/3x3"
  bottom: "inception_4b/5x5"
  bottom: "inception_4b/pool_proj"
  top: "inception_4b/output"
}
layer {
  name: "inception_4c/1x1"
  type: "Convolution"
  bottom: "inception_4b/output"
  top: "inception_4c/1x1"
  param {
    lr_mult: 1
    decay_mult: 1
  }
  param {
    lr_mult: 2
    decay_mult: 0
  }
  convolution_param {
    num_output: 128
    kernel_size: 1
    weight_filler {
      type: "xavier"
      std: 0.03
    }
    bias_filler {
      type: "constant"
      value: 0.2
    }
  }
}
layer {
  name: "inception_4c/relu_1x1"
  type: "ReLU"
  bottom: "inception_4c/1x1"
  top: "inception_4c/1x1"
}
layer {
  name: "inception_4c/3x3_reduce"
  type: "Convolution"
  bottom: "inception_4b/output"
  top: "inception_4c/3x3_reduce"
  param {
    lr_mult: 1
    decay_mult: 1
  }
  param {
    lr_mult: 2
    decay_mult: 0
  }
  convolution_param {
    num_output: 128
    kernel_size: 1
    weight_filler {
      type: "xavier"
      std: 0.09
    }
    bias_filler {
      type: "constant"
      value: 0.2
    }
  }
}
layer {
  name: "inception_4c/relu_3x3_reduce"
  type: "ReLU"
  bottom: "inception_4c/3x3_reduce"
  top: "inception_4c/3x3_reduce"
}
layer {
  name: "inception_4c/3x3"
  type: "Convolution"
  bottom: "inception_4c/3x3_reduce"
  top: "inception_4c/3x3"
  param {
    lr_mult: 1
    decay_mult: 1
  }
  param {
    lr_mult: 2
    decay_mult: 0
  }
  convolution_param {
    num_output: 256
    pad: 1
    kernel_size: 3
    weight_filler {
      type: "xavier"
      std: 0.03
    }
    bias_filler {
      type: "constant"
      value: 0.2
    }
  }
}
layer {
  name: "inception_4c/relu_3x3"
  type: "ReLU"
  bottom: "inception_4c/3x3"
  top: "inception_4c/3x3"
}
layer {
  name: "inception_4c/5x5_reduce"
  type: "Convolution"
  bottom: "inception_4b/output"
  top: "inception_4c/5x5_reduce"
  param {
    lr_mult: 1
    decay_mult: 1
  }
  param {
    lr_mult: 2
    decay_mult: 0
  }
  convolution_param {
    num_output: 24
    kernel_size: 1
    weight_filler {
      type: "xavier"
      std: 0.2
    }
    bias_filler {
      type: "constant"
      value: 0.2
    }
  }
}
layer {
  name: "inception_4c/relu_5x5_reduce"
  type: "ReLU"
  bottom: "inception_4c/5x5_reduce"
  top: "inception_4c/5x5_reduce"
}
layer {
  name: "inception_4c/5x5"
  type: "Convolution"
  bottom: "inception_4c/5x5_reduce"
  top: "inception_4c/5x5"
  param {
    lr_mult: 1
    decay_mult: 1
  }
  param {
    lr_mult: 2
    decay_mult: 0
  }
  convolution_param {
    num_output: 64
    pad: 2
    kernel_size: 5
    weight_filler {
      type: "xavier"
      std: 0.03
    }
    bias_filler {
      type: "constant"
      value: 0.2
    }
  }
}
layer {
  name: "inception_4c/relu_5x5"
  type: "ReLU"
  bottom: "inception_4c/5x5"
  top: "inception_4c/5x5"
}
layer {
  name: "inception_4c/pool"
  type: "Pooling"
  bottom: "inception_4b/output"
  top: "inception_4c/pool"
  pooling_param {
    pool: MAX
    kernel_size: 3
    stride: 1
    pad: 1
  }
}
layer {
  name: "inception_4c/pool_proj"
  type: "Convolution"
  bottom: "inception_4c/pool"
  top: "inception_4c/pool_proj"
  param {
    lr_mult: 1
    decay_mult: 1
  }
  param {
    lr_mult: 2
    decay_mult: 0
  }
  convolution_param {
    num_output: 64
    kernel_size: 1
    weight_filler {
      type: "xavier"
      std: 0.1
    }
    bias_filler {
      type: "constant"
      value: 0.2
    }
  }
}
layer {
  name: "inception_4c/relu_pool_proj"
  type: "ReLU"
  bottom: "inception_4c/pool_proj"
  top: "inception_4c/pool_proj"
}
layer {
  name: "inception_4c/output"
  type: "Concat"
  bottom: "inception_4c/1x1"
  bottom: "inception_4c/3x3"
  bottom: "inception_4c/5x5"
  bottom: "inception_4c/pool_proj"
  top: "inception_4c/output"
}
layer {
  name: "inception_4d/1x1"
  type: "Convolution"
  bottom: "inception_4c/output"
  top: "inception_4d/1x1"
  param {
    lr_mult: 1
    decay_mult: 1
  }
  param {
    lr_mult: 2
    decay_mult: 0
  }
  convolution_param {
    num_output: 112
    kernel_size: 1
    weight_filler {
      type: "xavier"
      std: 0.03
    }
    bias_filler {
      type: "constant"
      value: 0.2
    }
  }
}
layer {
  name: "inception_4d/relu_1x1"
  type: "ReLU"
  bottom: "inception_4d/1x1"
  top: "inception_4d/1x1"
}
layer {
  name: "inception_4d/3x3_reduce"
  type: "Convolution"
  bottom: "inception_4c/output"
  top: "inception_4d/3x3_reduce"
  param {
    lr_mult: 1
    decay_mult: 1
  }
  param {
    lr_mult: 2
    decay_mult: 0
  }
  convolution_param {
    num_output: 144
    kernel_size: 1
    weight_filler {
      type: "xavier"
      std: 0.09
    }
    bias_filler {
      type: "constant"
      value: 0.2
    }
  }
}
layer {
  name: "inception_4d/relu_3x3_reduce"
  type: "ReLU"
  bottom: "inception_4d/3x3_reduce"
  top: "inception_4d/3x3_reduce"
}
layer {
  name: "inception_4d/3x3"
  type: "Convolution"
  bottom: "inception_4d/3x3_reduce"
  top: "inception_4d/3x3"
  param {
    lr_mult: 1
    decay_mult: 1
  }
  param {
    lr_mult: 2
    decay_mult: 0
  }
  convolution_param {
    num_output: 288
    pad: 1
    kernel_size: 3
    weight_filler {
      type: "xavier"
      std: 0.03
    }
    bias_filler {
      type: "constant"
      value: 0.2
    }
  }
}
layer {
  name: "inception_4d/relu_3x3"
  type: "ReLU"
  bottom: "inception_4d/3x3"
  top: "inception_4d/3x3"
}
layer {
  name: "inception_4d/5x5_reduce"
  type: "Convolution"
  bottom: "inception_4c/output"
  top: "inception_4d/5x5_reduce"
  param {
    lr_mult: 1
    decay_mult: 1
  }
  param {
    lr_mult: 2
    decay_mult: 0
  }
  convolution_param {
    num_output: 32
    kernel_size: 1
    weight_filler {
      type: "xavier"
      std: 0.2
    }
    bias_filler {
      type: "constant"
      value: 0.2
    }
  }
}
layer {
  name: "inception_4d/relu_5x5_reduce"
  type: "ReLU"
  bottom: "inception_4d/5x5_reduce"
  top: "inception_4d/5x5_reduce"
}
layer {
  name: "inception_4d/5x5"
  type: "Convolution"
  bottom: "inception_4d/5x5_reduce"
  top: "inception_4d/5x5"
  param {
    lr_mult: 1
    decay_mult: 1
  }
  param {
    lr_mult: 2
    decay_mult: 0
  }
  convolution_param {
    num_output: 64
    pad: 2
    kernel_size: 5
    weight_filler {
      type: "xavier"
      std: 0.03
    }
    bias_filler {
      type: "constant"
      value: 0.2
    }
  }
}
layer {
  name: "inception_4d/relu_5x5"
  type: "ReLU"
  bottom: "inception_4d/5x5"
  top: "inception_4d/5x5"
}
layer {
  name: "inception_4d/pool"
  type: "Pooling"
  bottom: "inception_4c/output"
  top: "inception_4d/pool"
  pooling_param {
    pool: MAX
    kernel_size: 3
    stride: 1
    pad: 1
  }
}
layer {
  name: "inception_4d/pool_proj"
  type: "Convolution"
  bottom: "inception_4d/pool"
  top: "inception_4d/pool_proj"
  param {
    lr_mult: 1
    decay_mult: 1
  }
  param {
    lr_mult: 2
    decay_mult: 0
  }
  convolution_param {
    num_output: 64
    kernel_size: 1
    weight_filler {
      type: "xavier"
      std: 0.1
    }
    bias_filler {
      type: "constant"
      value: 0.2
    }
  }
}
layer {
  name: "inception_4d/relu_pool_proj"
  type: "ReLU"
  bottom: "inception_4d/pool_proj"
  top: "inception_4d/pool_proj"
}
layer {
  name: "inception_4d/output"
  type: "Concat"
  bottom: "inception_4d/1x1"
  bottom: "inception_4d/3x3"
  bottom: "inception_4d/5x5"
  bottom: "inception_4d/pool_proj"
  top: "inception_4d/output"
}
layer {
  name: "loss2/ave_pool"
  type: "Pooling"
  bottom: "inception_4d/output"
  top: "loss2/ave_pool"
  pooling_param {
    pool: AVE
    kernel_size: 5
    stride: 3
  }
}
layer {
  name: "loss2/conv"
  type: "Convolution"
  bottom: "loss2/ave_pool"
  top: "loss2/conv"
  param {
    lr_mult: 1
    decay_mult: 1
  }
  param {
    lr_mult: 2
    decay_mult: 0
  }
  convolution_param {
    num_output: 128
    kernel_size: 1
    weight_filler {
      type: "xavier"
      std: 0.08
    }
    bias_filler {
      type: "constant"
      value: 0.2
    }
  }
}
layer {
  name: "loss2/relu_conv"
  type: "ReLU"
  bottom: "loss2/conv"
  top: "loss2/conv"
}
layer {
  name: "loss2/fc"
  type: "InnerProduct"
  bottom: "loss2/conv"
  top: "loss2/fc"
  param {
    lr_mult: 1
    decay_mult: 1
  }
  param {
    lr_mult: 2
    decay_mult: 0
  }
  inner_product_param {
    num_output: 1024
    weight_filler {
      type: "xavier"
      std: 0.02
    }
    bias_filler {
      type: "constant"
      value: 0.2
    }
  }
}
layer {
  name: "loss2/relu_fc"
  type: "ReLU"
  bottom: "loss2/fc"
  top: "loss2/fc"
}
layer {
  name: "loss2/drop_fc"
  type: "Dropout"
  bottom: "loss2/fc"
  top: "loss2/fc"
  dropout_param {
    dropout_ratio: 0.7
  }
}
layer {
  name: "loss2/classifier_plantvillage"
  type: "InnerProduct"
  bottom: "loss2/fc"
  top: "loss2/classifier_plantvillage"
  param {
    lr_mult: 1
    decay_mult: 1
  }
  param {
    lr_mult: 2
    decay_mult: 0
  }
  inner_product_param {
    num_output: 38
    weight_filler {
      type: "xavier"
      std: 0.0009765625
    }
    bias_filler {
      type: "constant"
      value: 0
    }
  }
}
layer {
  name: "inception_4e/1x1"
  type: "Convolution"
  bottom: "inception_4d/output"
  top: "inception_4e/1x1"
  param {
    lr_mult: 1
    decay_mult: 1
  }
  param {
    lr_mult: 2
    decay_mult: 0
  }
  convolution_param {
    num_output: 256
    kernel_size: 1
    weight_filler {
      type: "xavier"
      std: 0.03
    }
    bias_filler {
      type: "constant"
      value: 0.2
    }
  }
}
layer {
  name: "inception_4e/relu_1x1"
  type: "ReLU"
  bottom: "inception_4e/1x1"
  top: "inception_4e/1x1"
}
layer {
  name: "inception_4e/3x3_reduce"
  type: "Convolution"
  bottom: "inception_4d/output"
  top: "inception_4e/3x3_reduce"
  param {
    lr_mult: 1
    decay_mult: 1
  }
  param {
    lr_mult: 2
    decay_mult: 0
  }
  convolution_param {
    num_output: 160
    kernel_size: 1
    weight_filler {
      type: "xavier"
      std: 0.09
    }
    bias_filler {
      type: "constant"
      value: 0.2
    }
  }
}
layer {
  name: "inception_4e/relu_3x3_reduce"
  type: "ReLU"
  bottom: "inception_4e/3x3_reduce"
  top: "inception_4e/3x3_reduce"
}
layer {
  name: "inception_4e/3x3"
  type: "Convolution"
  bottom: "inception_4e/3x3_reduce"
  top: "inception_4e/3x3"
  param {
    lr_mult: 1
    decay_mult: 1
  }
  param {
    lr_mult: 2
    decay_mult: 0
  }
  convolution_param {
    num_output: 320
    pad: 1
    kernel_size: 3
    weight_filler {
      type: "xavier"
      std: 0.03
    }
    bias_filler {
      type: "constant"
      value: 0.2
    }
  }
}
layer {
  name: "inception_4e/relu_3x3"
  type: "ReLU"
  bottom: "inception_4e/3x3"
  top: "inception_4e/3x3"
}
layer {
  name: "inception_4e/5x5_reduce"
  type: "Convolution"
  bottom: "inception_4d/output"
  top: "inception_4e/5x5_reduce"
  param {
    lr_mult: 1
    decay_mult: 1
  }
  param {
    lr_mult: 2
    decay_mult: 0
  }
  convolution_param {
    num_output: 32
    kernel_size: 1
    weight_filler {
      type: "xavier"
      std: 0.2
    }
    bias_filler {
      type: "constant"
      value: 0.2
    }
  }
}
layer {
  name: "inception_4e/relu_5x5_reduce"
  type: "ReLU"
  bottom: "inception_4e/5x5_reduce"
  top: "inception_4e/5x5_reduce"
}
layer {
  name: "inception_4e/5x5"
  type: "Convolution"
  bottom: "inception_4e/5x5_reduce"
  top: "inception_4e/
I0403 15:19:29.369890  2960 layer_factory.hpp:77] Creating layer data
I0403 15:19:29.370534  2960 net.cpp:91] Creating Layer data
I0403 15:19:29.370566  2960 net.cpp:399] data -> data
I0403 15:19:29.370620  2960 net.cpp:399] data -> label
I0403 15:19:29.370656  2960 data_transformer.cpp:25] Loading mean file from: /home/mohanty/data/final_dataset/lmdb/grayscale-50-50/mean.binaryproto
I0403 15:19:29.373785  2965 db_lmdb.cpp:38] Opened lmdb /home/mohanty/data/final_dataset/lmdb/grayscale-50-50/test_db
I0403 15:19:29.384052  2960 data_layer.cpp:41] output data size: 24,3,224,224
I0403 15:19:29.412147  2960 net.cpp:141] Setting up data
I0403 15:19:29.412236  2960 net.cpp:148] Top shape: 24 3 224 224 (3612672)
I0403 15:19:29.412271  2960 net.cpp:148] Top shape: 24 (24)
I0403 15:19:29.412287  2960 net.cpp:156] Memory required for data: 14450784
I0403 15:19:29.412315  2960 layer_factory.hpp:77] Creating layer label_data_1_split
I0403 15:19:29.412341  2960 net.cpp:91] Creating Layer label_data_1_split
I0403 15:19:29.412359  2960 net.cpp:425] label_data_1_split <- label
I0403 15:19:29.412391  2960 net.cpp:399] label_data_1_split -> label_data_1_split_0
I0403 15:19:29.412420  2960 net.cpp:399] label_data_1_split -> label_data_1_split_1
I0403 15:19:29.412441  2960 net.cpp:399] label_data_1_split -> label_data_1_split_2
I0403 15:19:29.412463  2960 net.cpp:399] label_data_1_split -> label_data_1_split_3
I0403 15:19:29.412493  2960 net.cpp:399] label_data_1_split -> label_data_1_split_4
I0403 15:19:29.412513  2960 net.cpp:399] label_data_1_split -> label_data_1_split_5
I0403 15:19:29.412533  2960 net.cpp:399] label_data_1_split -> label_data_1_split_6
I0403 15:19:29.412554  2960 net.cpp:399] label_data_1_split -> label_data_1_split_7
I0403 15:19:29.412575  2960 net.cpp:399] label_data_1_split -> label_data_1_split_8
I0403 15:19:29.412595  2960 net.cpp:399] label_data_1_split -> label_data_1_split_9
I0403 15:19:29.412719  2960 net.cpp:141] Setting up label_data_1_split
I0403 15:19:29.412742  2960 net.cpp:148] Top shape: 24 (24)
I0403 15:19:29.412760  2960 net.cpp:148] Top shape: 24 (24)
I0403 15:19:29.412778  2960 net.cpp:148] Top shape: 24 (24)
I0403 15:19:29.412794  2960 net.cpp:148] Top shape: 24 (24)
I0403 15:19:29.412811  2960 net.cpp:148] Top shape: 24 (24)
I0403 15:19:29.412827  2960 net.cpp:148] Top shape: 24 (24)
I0403 15:19:29.412842  2960 net.cpp:148] Top shape: 24 (24)
I0403 15:19:29.412858  2960 net.cpp:148] Top shape: 24 (24)
I0403 15:19:29.412874  2960 net.cpp:148] Top shape: 24 (24)
I0403 15:19:29.412892  2960 net.cpp:148] Top shape: 24 (24)
I0403 15:19:29.412931  2960 net.cpp:156] Memory required for data: 14451744
I0403 15:19:29.412947  2960 layer_factory.hpp:77] Creating layer conv1/7x7_s2
I0403 15:19:29.412981  2960 net.cpp:91] Creating Layer conv1/7x7_s2
I0403 15:19:29.413000  2960 net.cpp:425] conv1/7x7_s2 <- data
I0403 15:19:29.413020  2960 net.cpp:399] conv1/7x7_s2 -> conv1/7x7_s2
I0403 15:19:29.555966  2960 net.cpp:141] Setting up conv1/7x7_s2
I0403 15:19:29.556053  2960 net.cpp:148] Top shape: 24 64 112 112 (19267584)
I0403 15:19:29.556072  2960 net.cpp:156] Memory required for data: 91522080
I0403 15:19:29.556104  2960 layer_factory.hpp:77] Creating layer conv1/relu_7x7
I0403 15:19:29.556131  2960 net.cpp:91] Creating Layer conv1/relu_7x7
I0403 15:19:29.556150  2960 net.cpp:425] conv1/relu_7x7 <- conv1/7x7_s2
I0403 15:19:29.556169  2960 net.cpp:386] conv1/relu_7x7 -> conv1/7x7_s2 (in-place)
I0403 15:19:29.556443  2960 net.cpp:141] Setting up conv1/relu_7x7
I0403 15:19:29.556471  2960 net.cpp:148] Top shape: 24 64 112 112 (19267584)
I0403 15:19:29.556488  2960 net.cpp:156] Memory required for data: 168592416
I0403 15:19:29.556504  2960 layer_factory.hpp:77] Creating layer pool1/3x3_s2
I0403 15:19:29.556529  2960 net.cpp:91] Creating Layer pool1/3x3_s2
I0403 15:19:29.556548  2960 net.cpp:425] pool1/3x3_s2 <- conv1/7x7_s2
I0403 15:19:29.556568  2960 net.cpp:399] pool1/3x3_s2 -> pool1/3x3_s2
I0403 15:19:29.556646  2960 net.cpp:141] Setting up pool1/3x3_s2
I0403 15:19:29.556673  2960 net.cpp:148] Top shape: 24 64 56 56 (4816896)
I0403 15:19:29.556687  2960 net.cpp:156] Memory required for data: 187860000
I0403 15:19:29.556702  2960 layer_factory.hpp:77] Creating layer pool1/norm1
I0403 15:19:29.556728  2960 net.cpp:91] Creating Layer pool1/norm1
I0403 15:19:29.556746  2960 net.cpp:425] pool1/norm1 <- pool1/3x3_s2
I0403 15:19:29.556766  2960 net.cpp:399] pool1/norm1 -> pool1/norm1
I0403 15:19:29.557096  2960 net.cpp:141] Setting up pool1/norm1
I0403 15:19:29.557124  2960 net.cpp:148] Top shape: 24 64 56 56 (4816896)
I0403 15:19:29.557140  2960 net.cpp:156] Memory required for data: 207127584
I0403 15:19:29.557157  2960 layer_factory.hpp:77] Creating layer conv2/3x3_reduce
I0403 15:19:29.557181  2960 net.cpp:91] Creating Layer conv2/3x3_reduce
I0403 15:19:29.557199  2960 net.cpp:425] conv2/3x3_reduce <- pool1/norm1
I0403 15:19:29.557219  2960 net.cpp:399] conv2/3x3_reduce -> conv2/3x3_reduce
I0403 15:19:29.558604  2960 net.cpp:141] Setting up conv2/3x3_reduce
I0403 15:19:29.558634  2960 net.cpp:148] Top shape: 24 64 56 56 (4816896)
I0403 15:19:29.558653  2960 net.cpp:156] Memory required for data: 226395168
I0403 15:19:29.558715  2960 layer_factory.hpp:77] Creating layer conv2/relu_3x3_reduce
I0403 15:19:29.558738  2960 net.cpp:91] Creating Layer conv2/relu_3x3_reduce
I0403 15:19:29.558754  2960 net.cpp:425] conv2/relu_3x3_reduce <- conv2/3x3_reduce
I0403 15:19:29.558773  2960 net.cpp:386] conv2/relu_3x3_reduce -> conv2/3x3_reduce (in-place)
I0403 15:19:29.559037  2960 net.cpp:141] Setting up conv2/relu_3x3_reduce
I0403 15:19:29.559065  2960 net.cpp:148] Top shape: 24 64 56 56 (4816896)
I0403 15:19:29.559082  2960 net.cpp:156] Memory required for data: 245662752
I0403 15:19:29.559098  2960 layer_factory.hpp:77] Creating layer conv2/3x3
I0403 15:19:29.559119  2960 net.cpp:91] Creating Layer conv2/3x3
I0403 15:19:29.559137  2960 net.cpp:425] conv2/3x3 <- conv2/3x3_reduce
I0403 15:19:29.559156  2960 net.cpp:399] conv2/3x3 -> conv2/3x3
I0403 15:19:29.561547  2960 net.cpp:141] Setting up conv2/3x3
I0403 15:19:29.561578  2960 net.cpp:148] Top shape: 24 192 56 56 (14450688)
I0403 15:19:29.561594  2960 net.cpp:156] Memory required for data: 303465504
I0403 15:19:29.561617  2960 layer_factory.hpp:77] Creating layer conv2/relu_3x3
I0403 15:19:29.561637  2960 net.cpp:91] Creating Layer conv2/relu_3x3
I0403 15:19:29.561655  2960 net.cpp:425] conv2/relu_3x3 <- conv2/3x3
I0403 15:19:29.561672  2960 net.cpp:386] conv2/relu_3x3 -> conv2/3x3 (in-place)
I0403 15:19:29.561841  2960 net.cpp:141] Setting up conv2/relu_3x3
I0403 15:19:29.561868  2960 net.cpp:148] Top shape: 24 192 56 56 (14450688)
I0403 15:19:29.561920  2960 net.cpp:156] Memory required for data: 361268256
I0403 15:19:29.561938  2960 layer_factory.hpp:77] Creating layer conv2/norm2
I0403 15:19:29.561957  2960 net.cpp:91] Creating Layer conv2/norm2
I0403 15:19:29.561975  2960 net.cpp:425] conv2/norm2 <- conv2/3x3
I0403 15:19:29.561993  2960 net.cpp:399] conv2/norm2 -> conv2/norm2
I0403 15:19:29.562348  2960 net.cpp:141] Setting up conv2/norm2
I0403 15:19:29.562376  2960 net.cpp:148] Top shape: 24 192 56 56 (14450688)
I0403 15:19:29.562393  2960 net.cpp:156] Memory required for data: 419071008
I0403 15:19:29.562409  2960 layer_factory.hpp:77] Creating layer pool2/3x3_s2
I0403 15:19:29.562427  2960 net.cpp:91] Creating Layer pool2/3x3_s2
I0403 15:19:29.562444  2960 net.cpp:425] pool2/3x3_s2 <- conv2/norm2
I0403 15:19:29.562463  2960 net.cpp:399] pool2/3x3_s2 -> pool2/3x3_s2
I0403 15:19:29.562516  2960 net.cpp:141] Setting up pool2/3x3_s2
I0403 15:19:29.562541  2960 net.cpp:148] Top shape: 24 192 28 28 (3612672)
I0403 15:19:29.562556  2960 net.cpp:156] Memory required for data: 433521696
I0403 15:19:29.562572  2960 layer_factory.hpp:77] Creating layer pool2/3x3_s2_pool2/3x3_s2_0_split
I0403 15:19:29.562590  2960 net.cpp:91] Creating Layer pool2/3x3_s2_pool2/3x3_s2_0_split
I0403 15:19:29.562608  2960 net.cpp:425] pool2/3x3_s2_pool2/3x3_s2_0_split <- pool2/3x3_s2
I0403 15:19:29.562624  2960 net.cpp:399] pool2/3x3_s2_pool2/3x3_s2_0_split -> pool2/3x3_s2_pool2/3x3_s2_0_split_0
I0403 15:19:29.562645  2960 net.cpp:399] pool2/3x3_s2_pool2/3x3_s2_0_split -> pool2/3x3_s2_pool2/3x3_s2_0_split_1
I0403 15:19:29.562665  2960 net.cpp:399] pool2/3x3_s2_pool2/3x3_s2_0_split -> pool2/3x3_s2_pool2/3x3_s2_0_split_2
I0403 15:19:29.562685  2960 net.cpp:399] pool2/3x3_s2_pool2/3x3_s2_0_split -> pool2/3x3_s2_pool2/3x3_s2_0_split_3
I0403 15:19:29.562752  2960 net.cpp:141] Setting up pool2/3x3_s2_pool2/3x3_s2_0_split
I0403 15:19:29.562775  2960 net.cpp:148] Top shape: 24 192 28 28 (3612672)
I0403 15:19:29.562793  2960 net.cpp:148] Top shape: 24 192 28 28 (3612672)
I0403 15:19:29.562810  2960 net.cpp:148] Top shape: 24 192 28 28 (3612672)
I0403 15:19:29.562827  2960 net.cpp:148] Top shape: 24 192 28 28 (3612672)
I0403 15:19:29.562842  2960 net.cpp:156] Memory required for data: 491324448
I0403 15:19:29.562856  2960 layer_factory.hpp:77] Creating layer inception_3a/1x1
I0403 15:19:29.562877  2960 net.cpp:91] Creating Layer inception_3a/1x1
I0403 15:19:29.562894  2960 net.cpp:425] inception_3a/1x1 <- pool2/3x3_s2_pool2/3x3_s2_0_split_0
I0403 15:19:29.562917  2960 net.cpp:399] inception_3a/1x1 -> inception_3a/1x1
I0403 15:19:29.564585  2960 net.cpp:141] Setting up inception_3a/1x1
I0403 15:19:29.564620  2960 net.cpp:148] Top shape: 24 64 28 28 (1204224)
I0403 15:19:29.564637  2960 net.cpp:156] Memory required for data: 496141344
I0403 15:19:29.564657  2960 layer_factory.hpp:77] Creating layer inception_3a/relu_1x1
I0403 15:19:29.564677  2960 net.cpp:91] Creating Layer inception_3a/relu_1x1
I0403 15:19:29.564693  2960 net.cpp:425] inception_3a/relu_1x1 <- inception_3a/1x1
I0403 15:19:29.564714  2960 net.cpp:386] inception_3a/relu_1x1 -> inception_3a/1x1 (in-place)
I0403 15:19:29.564898  2960 net.cpp:141] Setting up inception_3a/relu_1x1
I0403 15:19:29.564925  2960 net.cpp:148] Top shape: 24 64 28 28 (1204224)
I0403 15:19:29.564940  2960 net.cpp:156] Memory required for data: 500958240
I0403 15:19:29.564955  2960 layer_factory.hpp:77] Creating layer inception_3a/3x3_reduce
I0403 15:19:29.564978  2960 net.cpp:91] Creating Layer inception_3a/3x3_reduce
I0403 15:19:29.564997  2960 net.cpp:425] inception_3a/3x3_reduce <- pool2/3x3_s2_pool2/3x3_s2_0_split_1
I0403 15:19:29.565019  2960 net.cpp:399] inception_3a/3x3_reduce -> inception_3a/3x3_reduce
I0403 15:19:29.566850  2960 net.cpp:141] Setting up inception_3a/3x3_reduce
I0403 15:19:29.566884  2960 net.cpp:148] Top shape: 24 96 28 28 (1806336)
I0403 15:19:29.566900  2960 net.cpp:156] Memory required for data: 508183584
I0403 15:19:29.566922  2960 layer_factory.hpp:77] Creating layer inception_3a/relu_3x3_reduce
I0403 15:19:29.566957  2960 net.cpp:91] Creating Layer inception_3a/relu_3x3_reduce
I0403 15:19:29.566975  2960 net.cpp:425] inception_3a/relu_3x3_reduce <- inception_3a/3x3_reduce
I0403 15:19:29.566997  2960 net.cpp:386] inception_3a/relu_3x3_reduce -> inception_3a/3x3_reduce (in-place)
I0403 15:19:29.567183  2960 net.cpp:141] Setting up inception_3a/relu_3x3_reduce
I0403 15:19:29.567224  2960 net.cpp:148] Top shape: 24 96 28 28 (1806336)
I0403 15:19:29.567240  2960 net.cpp:156] Memory required for data: 515408928
I0403 15:19:29.567255  2960 layer_factory.hpp:77] Creating layer inception_3a/3x3
I0403 15:19:29.567282  2960 net.cpp:91] Creating Layer inception_3a/3x3
I0403 15:19:29.567302  2960 net.cpp:425] inception_3a/3x3 <- inception_3a/3x3_reduce
I0403 15:19:29.567323  2960 net.cpp:399] inception_3a/3x3 -> inception_3a/3x3
I0403 15:19:29.569063  2960 net.cpp:141] Setting up inception_3a/3x3
I0403 15:19:29.569092  2960 net.cpp:148] Top shape: 24 128 28 28 (2408448)
I0403 15:19:29.569109  2960 net.cpp:156] Memory required for data: 525042720
I0403 15:19:29.569167  2960 layer_factory.hpp:77] Creating layer inception_3a/relu_3x3
I0403 15:19:29.569192  2960 net.cpp:91] Creating Layer inception_3a/relu_3x3
I0403 15:19:29.569208  2960 net.cpp:425] inception_3a/relu_3x3 <- inception_3a/3x3
I0403 15:19:29.569229  2960 net.cpp:386] inception_3a/relu_3x3 -> inception_3a/3x3 (in-place)
I0403 15:19:29.569514  2960 net.cpp:141] Setting up inception_3a/relu_3x3
I0403 15:19:29.569542  2960 net.cpp:148] Top shape: 24 128 28 28 (2408448)
I0403 15:19:29.569557  2960 net.cpp:156] Memory required for data: 534676512
I0403 15:19:29.569572  2960 layer_factory.hpp:77] Creating layer inception_3a/5x5_reduce
I0403 15:19:29.569596  2960 net.cpp:91] Creating Layer inception_3a/5x5_reduce
I0403 15:19:29.569613  2960 net.cpp:425] inception_3a/5x5_reduce <- pool2/3x3_s2_pool2/3x3_s2_0_split_2
I0403 15:19:29.569635  2960 net.cpp:399] inception_3a/5x5_reduce -> inception_3a/5x5_reduce
I0403 15:19:29.570648  2960 net.cpp:141] Setting up inception_3a/5x5_reduce
I0403 15:19:29.570677  2960 net.cpp:148] Top shape: 24 16 28 28 (301056)
I0403 15:19:29.570693  2960 net.cpp:156] Memory required for data: 535880736
I0403 15:19:29.570711  2960 layer_factory.hpp:77] Creating layer inception_3a/relu_5x5_reduce
I0403 15:19:29.570731  2960 net.cpp:91] Creating Layer inception_3a/relu_5x5_reduce
I0403 15:19:29.570749  2960 net.cpp:425] inception_3a/relu_5x5_reduce <- inception_3a/5x5_reduce
I0403 15:19:29.570766  2960 net.cpp:386] inception_3a/relu_5x5_reduce -> inception_3a/5x5_reduce (in-place)
I0403 15:19:29.571130  2960 net.cpp:141] Setting up inception_3a/relu_5x5_reduce
I0403 15:19:29.571156  2960 net.cpp:148] Top shape: 24 16 28 28 (301056)
I0403 15:19:29.571171  2960 net.cpp:156] Memory required for data: 537084960
I0403 15:19:29.571188  2960 layer_factory.hpp:77] Creating layer inception_3a/5x5
I0403 15:19:29.571211  2960 net.cpp:91] Creating Layer inception_3a/5x5
I0403 15:19:29.571229  2960 net.cpp:425] inception_3a/5x5 <- inception_3a/5x5_reduce
I0403 15:19:29.571250  2960 net.cpp:399] inception_3a/5x5 -> inception_3a/5x5
I0403 15:19:29.572296  2960 net.cpp:141] Setting up inception_3a/5x5
I0403 15:19:29.572327  2960 net.cpp:148] Top shape: 24 32 28 28 (602112)
I0403 15:19:29.572345  2960 net.cpp:156] Memory required for data: 539493408
I0403 15:19:29.572363  2960 layer_factory.hpp:77] Creating layer inception_3a/relu_5x5
I0403 15:19:29.572381  2960 net.cpp:91] Creating Layer inception_3a/relu_5x5
I0403 15:19:29.572396  2960 net.cpp:425] inception_3a/relu_5x5 <- inception_3a/5x5
I0403 15:19:29.572417  2960 net.cpp:386] inception_3a/relu_5x5 -> inception_3a/5x5 (in-place)
I0403 15:19:29.572598  2960 net.cpp:141] Setting up inception_3a/relu_5x5
I0403 15:19:29.572624  2960 net.cpp:148] Top shape: 24 32 28 28 (602112)
I0403 15:19:29.572639  2960 net.cpp:156] Memory required for data: 541901856
I0403 15:19:29.572654  2960 layer_factory.hpp:77] Creating layer inception_3a/pool
I0403 15:19:29.572672  2960 net.cpp:91] Creating Layer inception_3a/pool
I0403 15:19:29.572701  2960 net.cpp:425] inception_3a/pool <- pool2/3x3_s2_pool2/3x3_s2_0_split_3
I0403 15:19:29.572723  2960 net.cpp:399] inception_3a/pool -> inception_3a/pool
I0403 15:19:29.572782  2960 net.cpp:141] Setting up inception_3a/pool
I0403 15:19:29.572806  2960 net.cpp:148] Top shape: 24 192 28 28 (3612672)
I0403 15:19:29.572821  2960 net.cpp:156] Memory required for data: 556352544
I0403 15:19:29.572836  2960 layer_factory.hpp:77] Creating layer inception_3a/pool_proj
I0403 15:19:29.572860  2960 net.cpp:91] Creating Layer inception_3a/pool_proj
I0403 15:19:29.572878  2960 net.cpp:425] inception_3a/pool_proj <- inception_3a/pool
I0403 15:19:29.572897  2960 net.cpp:399] inception_3a/pool_proj -> inception_3a/pool_proj
I0403 15:19:29.573885  2960 net.cpp:141] Setting up inception_3a/pool_proj
I0403 15:19:29.573915  2960 net.cpp:148] Top shape: 24 32 28 28 (602112)
I0403 15:19:29.573931  2960 net.cpp:156] Memory required for data: 558760992
I0403 15:19:29.573956  2960 layer_factory.hpp:77] Creating layer inception_3a/relu_pool_proj
I0403 15:19:29.573979  2960 net.cpp:91] Creating Layer inception_3a/relu_pool_proj
I0403 15:19:29.573997  2960 net.cpp:425] inception_3a/relu_pool_proj <- inception_3a/pool_proj
I0403 15:19:29.574014  2960 net.cpp:386] inception_3a/relu_pool_proj -> inception_3a/pool_proj (in-place)
I0403 15:19:29.574311  2960 net.cpp:141] Setting up inception_3a/relu_pool_proj
I0403 15:19:29.574339  2960 net.cpp:148] Top shape: 24 32 28 28 (602112)
I0403 15:19:29.574355  2960 net.cpp:156] Memory required for data: 561169440
I0403 15:19:29.574370  2960 layer_factory.hpp:77] Creating layer inception_3a/output
I0403 15:19:29.574388  2960 net.cpp:91] Creating Layer inception_3a/output
I0403 15:19:29.574404  2960 net.cpp:425] inception_3a/output <- inception_3a/1x1
I0403 15:19:29.574421  2960 net.cpp:425] inception_3a/output <- inception_3a/3x3
I0403 15:19:29.574440  2960 net.cpp:425] inception_3a/output <- inception_3a/5x5
I0403 15:19:29.574456  2960 net.cpp:425] inception_3a/output <- inception_3a/pool_proj
I0403 15:19:29.574477  2960 net.cpp:399] inception_3a/output -> inception_3a/output
I0403 15:19:29.574527  2960 net.cpp:141] Setting up inception_3a/output
I0403 15:19:29.574550  2960 net.cpp:148] Top shape: 24 256 28 28 (4816896)
I0403 15:19:29.574566  2960 net.cpp:156] Memory required for data: 580437024
I0403 15:19:29.574581  2960 layer_factory.hpp:77] Creating layer inception_3a/output_inception_3a/output_0_split
I0403 15:19:29.574602  2960 net.cpp:91] Creating Layer inception_3a/output_inception_3a/output_0_split
I0403 15:19:29.574620  2960 net.cpp:425] inception_3a/output_inception_3a/output_0_split <- inception_3a/output
I0403 15:19:29.574638  2960 net.cpp:399] inception_3a/output_inception_3a/output_0_split -> inception_3a/output_inception_3a/output_0_split_0
I0403 15:19:29.574661  2960 net.cpp:399] inception_3a/output_inception_3a/output_0_split -> inception_3a/output_inception_3a/output_0_split_1
I0403 15:19:29.574687  2960 net.cpp:399] inception_3a/output_inception_3a/output_0_split -> inception_3a/output_inception_3a/output_0_split_2
I0403 15:19:29.574708  2960 net.cpp:399] inception_3a/output_inception_3a/output_0_split -> inception_3a/output_inception_3a/output_0_split_3
I0403 15:19:29.574787  2960 net.cpp:141] Setting up inception_3a/output_inception_3a/output_0_split
I0403 15:19:29.574815  2960 net.cpp:148] Top shape: 24 256 28 28 (4816896)
I0403 15:19:29.574833  2960 net.cpp:148] Top shape: 24 256 28 28 (4816896)
I0403 15:19:29.574851  2960 net.cpp:148] Top shape: 24 256 28 28 (4816896)
I0403 15:19:29.574867  2960 net.cpp:148] Top shape: 24 256 28 28 (4816896)
I0403 15:19:29.574882  2960 net.cpp:156] Memory required for data: 657507360
I0403 15:19:29.574898  2960 layer_factory.hpp:77] Creating layer inception_3b/1x1
I0403 15:19:29.574923  2960 net.cpp:91] Creating Layer inception_3b/1x1
I0403 15:19:29.574941  2960 net.cpp:425] inception_3b/1x1 <- inception_3a/output_inception_3a/output_0_split_0
I0403 15:19:29.574964  2960 net.cpp:399] inception_3b/1x1 -> inception_3b/1x1
I0403 15:19:29.576171  2960 net.cpp:141] Setting up inception_3b/1x1
I0403 15:19:29.576216  2960 net.cpp:148] Top shape: 24 128 28 28 (2408448)
I0403 15:19:29.576233  2960 net.cpp:156] Memory required for data: 667141152
I0403 15:19:29.576253  2960 layer_factory.hpp:77] Creating layer inception_3b/relu_1x1
I0403 15:19:29.576275  2960 net.cpp:91] Creating Layer inception_3b/relu_1x1
I0403 15:19:29.576294  2960 net.cpp:425] inception_3b/relu_1x1 <- inception_3b/1x1
I0403 15:19:29.576313  2960 net.cpp:386] inception_3b/relu_1x1 -> inception_3b/1x1 (in-place)
I0403 15:19:29.576503  2960 net.cpp:141] Setting up inception_3b/relu_1x1
I0403 15:19:29.576529  2960 net.cpp:148] Top shape: 24 128 28 28 (2408448)
I0403 15:19:29.576545  2960 net.cpp:156] Memory required for data: 676774944
I0403 15:19:29.576560  2960 layer_factory.hpp:77] Creating layer inception_3b/3x3_reduce
I0403 15:19:29.576582  2960 net.cpp:91] Creating Layer inception_3b/3x3_reduce
I0403 15:19:29.576601  2960 net.cpp:425] inception_3b/3x3_reduce <- inception_3a/output_inception_3a/output_0_split_1
I0403 15:19:29.576624  2960 net.cpp:399] inception_3b/3x3_reduce -> inception_3b/3x3_reduce
I0403 15:19:29.577816  2960 net.cpp:141] Setting up inception_3b/3x3_reduce
I0403 15:19:29.577847  2960 net.cpp:148] Top shape: 24 128 28 28 (2408448)
I0403 15:19:29.577862  2960 net.cpp:156] Memory required for data: 686408736
I0403 15:19:29.577884  2960 layer_factory.hpp:77] Creating layer inception_3b/relu_3x3_reduce
I0403 15:19:29.577904  2960 net.cpp:91] Creating Layer inception_3b/relu_3x3_reduce
I0403 15:19:29.577921  2960 net.cpp:425] inception_3b/relu_3x3_reduce <- inception_3b/3x3_reduce
I0403 15:19:29.577939  2960 net.cpp:386] inception_3b/relu_3x3_reduce -> inception_3b/3x3_reduce (in-place)
I0403 15:19:29.578125  2960 net.cpp:141] Setting up inception_3b/relu_3x3_reduce
I0403 15:19:29.578151  2960 net.cpp:148] Top shape: 24 128 28 28 (2408448)
I0403 15:19:29.578167  2960 net.cpp:156] Memory required for data: 696042528
I0403 15:19:29.578183  2960 layer_factory.hpp:77] Creating layer inception_3b/3x3
I0403 15:19:29.578210  2960 net.cpp:91] Creating Layer inception_3b/3x3
I0403 15:19:29.578228  2960 net.cpp:425] inception_3b/3x3 <- inception_3b/3x3_reduce
I0403 15:19:29.578248  2960 net.cpp:399] inception_3b/3x3 -> inception_3b/3x3
I0403 15:19:29.581317  2960 net.cpp:141] Setting up inception_3b/3x3
I0403 15:19:29.581349  2960 net.cpp:148] Top shape: 24 192 28 28 (3612672)
I0403 15:19:29.581367  2960 net.cpp:156] Memory required for data: 710493216
I0403 15:19:29.581387  2960 layer_factory.hpp:77] Creating layer inception_3b/relu_3x3
I0403 15:19:29.581405  2960 net.cpp:91] Creating Layer inception_3b/relu_3x3
I0403 15:19:29.581423  2960 net.cpp:425] inception_3b/relu_3x3 <- inception_3b/3x3
I0403 15:19:29.581442  2960 net.cpp:386] inception_3b/relu_3x3 -> inception_3b/3x3 (in-place)
I0403 15:19:29.581734  2960 net.cpp:141] Setting up inception_3b/relu_3x3
I0403 15:19:29.581761  2960 net.cpp:148] Top shape: 24 192 28 28 (3612672)
I0403 15:19:29.581779  2960 net.cpp:156] Memory required for data: 724943904
I0403 15:19:29.581794  2960 layer_factory.hpp:77] Creating layer inception_3b/5x5_reduce
I0403 15:19:29.581818  2960 net.cpp:91] Creating Layer inception_3b/5x5_reduce
I0403 15:19:29.581837  2960 net.cpp:425] inception_3b/5x5_reduce <- inception_3a/output_inception_3a/output_0_split_2
I0403 15:19:29.581859  2960 net.cpp:399] inception_3b/5x5_reduce -> inception_3b/5x5_reduce
I0403 15:19:29.582921  2960 net.cpp:141] Setting up inception_3b/5x5_reduce
I0403 15:19:29.582952  2960 net.cpp:148] Top shape: 24 32 28 28 (602112)
I0403 15:19:29.582968  2960 net.cpp:156] Memory required for data: 727352352
I0403 15:19:29.582988  2960 layer_factory.hpp:77] Creating layer inception_3b/relu_5x5_reduce
I0403 15:19:29.583006  2960 net.cpp:91] Creating Layer inception_3b/relu_5x5_reduce
I0403 15:19:29.583024  2960 net.cpp:425] inception_3b/relu_5x5_reduce <- inception_3b/5x5_reduce
I0403 15:19:29.583044  2960 net.cpp:386] inception_3b/relu_5x5_reduce -> inception_3b/5x5_reduce (in-place)
I0403 15:19:29.583240  2960 net.cpp:141] Setting up inception_3b/relu_5x5_reduce
I0403 15:19:29.583266  2960 net.cpp:148] Top shape: 24 32 28 28 (602112)
I0403 15:19:29.583286  2960 net.cpp:156] Memory required for data: 729760800
I0403 15:19:29.583302  2960 layer_factory.hpp:77] Creating layer inception_3b/5x5
I0403 15:19:29.583324  2960 net.cpp:91] Creating Layer inception_3b/5x5
I0403 15:19:29.583343  2960 net.cpp:425] inception_3b/5x5 <- inception_3b/5x5_reduce
I0403 15:19:29.583364  2960 net.cpp:399] inception_3b/5x5 -> inception_3b/5x5
I0403 15:19:29.585357  2960 net.cpp:141] Setting up inception_3b/5x5
I0403 15:19:29.585387  2960 net.cpp:148] Top shape: 24 96 28 28 (1806336)
I0403 15:19:29.585403  2960 net.cpp:156] Memory required for data: 736986144
I0403 15:19:29.585422  2960 layer_factory.hpp:77] Creating layer inception_3b/relu_5x5
I0403 15:19:29.585443  2960 net.cpp:91] Creating Layer inception_3b/relu_5x5
I0403 15:19:29.585460  2960 net.cpp:425] inception_3b/relu_5x5 <- inception_3b/5x5
I0403 15:19:29.585477  2960 net.cpp:386] inception_3b/relu_5x5 -> inception_3b/5x5 (in-place)
I0403 15:19:29.585675  2960 net.cpp:141] Setting up inception_3b/relu_5x5
I0403 15:19:29.585700  2960 net.cpp:148] Top shape: 24 96 28 28 (1806336)
I0403 15:19:29.585716  2960 net.cpp:156] Memory required for data: 744211488
I0403 15:19:29.585731  2960 layer_factory.hpp:77] Creating layer inception_3b/pool
I0403 15:19:29.585748  2960 net.cpp:91] Creating Layer inception_3b/pool
I0403 15:19:29.585765  2960 net.cpp:425] inception_3b/pool <- inception_3a/output_inception_3a/output_0_split_3
I0403 15:19:29.585783  2960 net.cpp:399] inception_3b/pool -> inception_3b/pool
I0403 15:19:29.585840  2960 net.cpp:141] Setting up inception_3b/pool
I0403 15:19:29.585863  2960 net.cpp:148] Top shape: 24 256 28 28 (4816896)
I0403 15:19:29.585878  2960 net.cpp:156] Memory required for data: 763479072
I0403 15:19:29.585892  2960 layer_factory.hpp:77] Creating layer inception_3b/pool_proj
I0403 15:19:29.585916  2960 net.cpp:91] Creating Layer inception_3b/pool_proj
I0403 15:19:29.585934  2960 net.cpp:425] inception_3b/pool_proj <- inception_3b/pool
I0403 15:19:29.585954  2960 net.cpp:399] inception_3b/pool_proj -> inception_3b/pool_proj
I0403 15:19:29.587060  2960 net.cpp:141] Setting up inception_3b/pool_proj
I0403 15:19:29.587088  2960 net.cpp:148] Top shape: 24 64 28 28 (1204224)
I0403 15:19:29.587105  2960 net.cpp:156] Memory required for data: 768295968
I0403 15:19:29.587123  2960 layer_factory.hpp:77] Creating layer inception_3b/relu_pool_proj
I0403 15:19:29.587146  2960 net.cpp:91] Creating Layer inception_3b/relu_pool_proj
I0403 15:19:29.587162  2960 net.cpp:425] inception_3b/relu_pool_proj <- inception_3b/pool_proj
I0403 15:19:29.587180  2960 net.cpp:386] inception_3b/relu_pool_proj -> inception_3b/pool_proj (in-place)
I0403 15:19:29.587610  2960 net.cpp:141] Setting up inception_3b/relu_pool_proj
I0403 15:19:29.587637  2960 net.cpp:148] Top shape: 24 64 28 28 (1204224)
I0403 15:19:29.587653  2960 net.cpp:156] Memory required for data: 773112864
I0403 15:19:29.587668  2960 layer_factory.hpp:77] Creating layer inception_3b/output
I0403 15:19:29.587687  2960 net.cpp:91] Creating Layer inception_3b/output
I0403 15:19:29.587703  2960 net.cpp:425] inception_3b/output <- inception_3b/1x1
I0403 15:19:29.587720  2960 net.cpp:425] inception_3b/output <- inception_3b/3x3
I0403 15:19:29.587740  2960 net.cpp:425] inception_3b/output <- inception_3b/5x5
I0403 15:19:29.587757  2960 net.cpp:425] inception_3b/output <- inception_3b/pool_proj
I0403 15:19:29.587776  2960 net.cpp:399] inception_3b/output -> inception_3b/output
I0403 15:19:29.587821  2960 net.cpp:141] Setting up inception_3b/output
I0403 15:19:29.587847  2960 net.cpp:148] Top shape: 24 480 28 28 (9031680)
I0403 15:19:29.587864  2960 net.cpp:156] Memory required for data: 809239584
I0403 15:19:29.587879  2960 layer_factory.hpp:77] Creating layer pool3/3x3_s2
I0403 15:19:29.587898  2960 net.cpp:91] Creating Layer pool3/3x3_s2
I0403 15:19:29.587914  2960 net.cpp:425] pool3/3x3_s2 <- inception_3b/output
I0403 15:19:29.587952  2960 net.cpp:399] pool3/3x3_s2 -> pool3/3x3_s2
I0403 15:19:29.588013  2960 net.cpp:141] Setting up pool3/3x3_s2
I0403 15:19:29.588038  2960 net.cpp:148] Top shape: 24 480 14 14 (2257920)
I0403 15:19:29.588053  2960 net.cpp:156] Memory required for data: 818271264
I0403 15:19:29.588068  2960 layer_factory.hpp:77] Creating layer pool3/3x3_s2_pool3/3x3_s2_0_split
I0403 15:19:29.588089  2960 net.cpp:91] Creating Layer pool3/3x3_s2_pool3/3x3_s2_0_split
I0403 15:19:29.588105  2960 net.cpp:425] pool3/3x3_s2_pool3/3x3_s2_0_split <- pool3/3x3_s2
I0403 15:19:29.588124  2960 net.cpp:399] pool3/3x3_s2_pool3/3x3_s2_0_split -> pool3/3x3_s2_pool3/3x3_s2_0_split_0
I0403 15:19:29.588143  2960 net.cpp:399] pool3/3x3_s2_pool3/3x3_s2_0_split -> pool3/3x3_s2_pool3/3x3_s2_0_split_1
I0403 15:19:29.588165  2960 net.cpp:399] pool3/3x3_s2_pool3/3x3_s2_0_split -> pool3/3x3_s2_pool3/3x3_s2_0_split_2
I0403 15:19:29.588188  2960 net.cpp:399] pool3/3x3_s2_pool3/3x3_s2_0_split -> pool3/3x3_s2_pool3/3x3_s2_0_split_3
I0403 15:19:29.588274  2960 net.cpp:141] Setting up pool3/3x3_s2_pool3/3x3_s2_0_split
I0403 15:19:29.588299  2960 net.cpp:148] Top shape: 24 480 14 14 (2257920)
I0403 15:19:29.588317  2960 net.cpp:148] Top shape: 24 480 14 14 (2257920)
I0403 15:19:29.588335  2960 net.cpp:148] Top shape: 24 480 14 14 (2257920)
I0403 15:19:29.588351  2960 net.cpp:148] Top shape: 24 480 14 14 (2257920)
I0403 15:19:29.588366  2960 net.cpp:156] Memory required for data: 854397984
I0403 15:19:29.588381  2960 layer_factory.hpp:77] Creating layer inception_4a/1x1
I0403 15:19:29.588403  2960 net.cpp:91] Creating Layer inception_4a/1x1
I0403 15:19:29.588423  2960 net.cpp:425] inception_4a/1x1 <- pool3/3x3_s2_pool3/3x3_s2_0_split_0
I0403 15:19:29.588445  2960 net.cpp:399] inception_4a/1x1 -> inception_4a/1x1
I0403 15:19:29.590083  2960 net.cpp:141] Setting up inception_4a/1x1
I0403 15:19:29.590111  2960 net.cpp:148] Top shape: 24 192 14 14 (903168)
I0403 15:19:29.590127  2960 net.cpp:156] Memory required for data: 858010656
I0403 15:19:29.590145  2960 layer_factory.hpp:77] Creating layer inception_4a/relu_1x1
I0403 15:19:29.590167  2960 net.cpp:91] Creating Layer inception_4a/relu_1x1
I0403 15:19:29.590185  2960 net.cpp:425] inception_4a/relu_1x1 <- inception_4a/1x1
I0403 15:19:29.590203  2960 net.cpp:386] inception_4a/relu_1x1 -> inception_4a/1x1 (in-place)
I0403 15:19:29.590404  2960 net.cpp:141] Setting up inception_4a/relu_1x1
I0403 15:19:29.590436  2960 net.cpp:148] Top shape: 24 192 14 14 (903168)
I0403 15:19:29.590452  2960 net.cpp:156] Memory required for data: 861623328
I0403 15:19:29.590467  2960 layer_factory.hpp:77] Creating layer inception_4a/3x3_reduce
I0403 15:19:29.590490  2960 net.cpp:91] Creating Layer inception_4a/3x3_reduce
I0403 15:19:29.590508  2960 net.cpp:425] inception_4a/3x3_reduce <- pool3/3x3_s2_pool3/3x3_s2_0_split_1
I0403 15:19:29.590528  2960 net.cpp:399] inception_4a/3x3_reduce -> inception_4a/3x3_reduce
I0403 15:19:29.591845  2960 net.cpp:141] Setting up inception_4a/3x3_reduce
I0403 15:19:29.591872  2960 net.cpp:148] Top shape: 24 96 14 14 (451584)
I0403 15:19:29.591888  2960 net.cpp:156] Memory required for data: 863429664
I0403 15:19:29.591913  2960 layer_factory.hpp:77] Creating layer inception_4a/relu_3x3_reduce
I0403 15:19:29.591934  2960 net.cpp:91] Creating Layer inception_4a/relu_3x3_reduce
I0403 15:19:29.591951  2960 net.cpp:425] inception_4a/relu_3x3_reduce <- inception_4a/3x3_reduce
I0403 15:19:29.591971  2960 net.cpp:386] inception_4a/relu_3x3_reduce -> inception_4a/3x3_reduce (in-place)
I0403 15:19:29.592150  2960 net.cpp:141] Setting up inception_4a/relu_3x3_reduce
I0403 15:19:29.592178  2960 net.cpp:148] Top shape: 24 96 14 14 (451584)
I0403 15:19:29.592195  2960 net.cpp:156] Memory required for data: 865236000
I0403 15:19:29.592208  2960 layer_factory.hpp:77] Creating layer inception_4a/3x3
I0403 15:19:29.592231  2960 net.cpp:91] Creating Layer inception_4a/3x3
I0403 15:19:29.592249  2960 net.cpp:425] inception_4a/3x3 <- inception_4a/3x3_reduce
I0403 15:19:29.592268  2960 net.cpp:399] inception_4a/3x3 -> inception_4a/3x3
I0403 15:19:29.595017  2960 net.cpp:141] Setting up inception_4a/3x3
I0403 15:19:29.595049  2960 net.cpp:148] Top shape: 24 208 14 14 (978432)
I0403 15:19:29.595067  2960 net.cpp:156] Memory required for data: 869149728
I0403 15:19:29.595085  2960 layer_factory.hpp:77] Creating layer inception_4a/relu_3x3
I0403 15:19:29.595103  2960 net.cpp:91] Creating Layer inception_4a/relu_3x3
I0403 15:19:29.595120  2960 net.cpp:425] inception_4a/relu_3x3 <- inception_4a/3x3
I0403 15:19:29.595142  2960 net.cpp:386] inception_4a/relu_3x3 -> inception_4a/3x3 (in-place)
I0403 15:19:29.595446  2960 net.cpp:141] Setting up inception_4a/relu_3x3
I0403 15:19:29.595477  2960 net.cpp:148] Top shape: 24 208 14 14 (978432)
I0403 15:19:29.595494  2960 net.cpp:156] Memory required for data: 873063456
I0403 15:19:29.595510  2960 layer_factory.hpp:77] Creating layer inception_4a/5x5_reduce
I0403 15:19:29.595535  2960 net.cpp:91] Creating Layer inception_4a/5x5_reduce
I0403 15:19:29.595553  2960 net.cpp:425] inception_4a/5x5_reduce <- pool3/3x3_s2_pool3/3x3_s2_0_split_2
I0403 15:19:29.595585  2960 net.cpp:399] inception_4a/5x5_reduce -> inception_4a/5x5_reduce
I0403 15:19:29.596635  2960 net.cpp:141] Setting up inception_4a/5x5_reduce
I0403 15:19:29.596667  2960 net.cpp:148] Top shape: 24 16 14 14 (75264)
I0403 15:19:29.596683  2960 net.cpp:156] Memory required for data: 873364512
I0403 15:19:29.596703  2960 layer_factory.hpp:77] Creating layer inception_4a/relu_5x5_reduce
I0403 15:19:29.596720  2960 net.cpp:91] Creating Layer inception_4a/relu_5x5_reduce
I0403 15:19:29.596736  2960 net.cpp:425] inception_4a/relu_5x5_reduce <- inception_4a/5x5_reduce
I0403 15:19:29.596756  2960 net.cpp:386] inception_4a/relu_5x5_reduce -> inception_4a/5x5_reduce (in-place)
I0403 15:19:29.596942  2960 net.cpp:141] Setting up inception_4a/relu_5x5_reduce
I0403 15:19:29.596968  2960 net.cpp:148] Top shape: 24 16 14 14 (75264)
I0403 15:19:29.596982  2960 net.cpp:156] Memory required for data: 873665568
I0403 15:19:29.596997  2960 layer_factory.hpp:77] Creating layer inception_4a/5x5
I0403 15:19:29.597019  2960 net.cpp:91] Creating Layer inception_4a/5x5
I0403 15:19:29.597038  2960 net.cpp:425] inception_4a/5x5 <- inception_4a/5x5_reduce
I0403 15:19:29.597059  2960 net.cpp:399] inception_4a/5x5 -> inception_4a/5x5
I0403 15:19:29.598186  2960 net.cpp:141] Setting up inception_4a/5x5
I0403 15:19:29.598214  2960 net.cpp:148] Top shape: 24 48 14 14 (225792)
I0403 15:19:29.598230  2960 net.cpp:156] Memory required for data: 874568736
I0403 15:19:29.598249  2960 layer_factory.hpp:77] Creating layer inception_4a/relu_5x5
I0403 15:19:29.598274  2960 net.cpp:91] Creating Layer inception_4a/relu_5x5
I0403 15:19:29.598306  2960 net.cpp:425] inception_4a/relu_5x5 <- inception_4a/5x5
I0403 15:19:29.598325  2960 net.cpp:386] inception_4a/relu_5x5 -> inception_4a/5x5 (in-place)
I0403 15:19:29.598516  2960 net.cpp:141] Setting up inception_4a/relu_5x5
I0403 15:19:29.598543  2960 net.cpp:148] Top shape: 24 48 14 14 (225792)
I0403 15:19:29.598559  2960 net.cpp:156] Memory required for data: 875471904
I0403 15:19:29.598585  2960 layer_factory.hpp:77] Creating layer inception_4a/pool
I0403 15:19:29.598606  2960 net.cpp:91] Creating Layer inception_4a/pool
I0403 15:19:29.598623  2960 net.cpp:425] inception_4a/pool <- pool3/3x3_s2_pool3/3x3_s2_0_split_3
I0403 15:19:29.598642  2960 net.cpp:399] inception_4a/pool -> inception_4a/pool
I0403 15:19:29.598703  2960 net.cpp:141] Setting up inception_4a/pool
I0403 15:19:29.598727  2960 net.cpp:148] Top shape: 24 480 14 14 (2257920)
I0403 15:19:29.598742  2960 net.cpp:156] Memory required for data: 884503584
I0403 15:19:29.598757  2960 layer_factory.hpp:77] Creating layer inception_4a/pool_proj
I0403 15:19:29.598778  2960 net.cpp:91] Creating Layer inception_4a/pool_proj
I0403 15:19:29.598796  2960 net.cpp:425] inception_4a/pool_proj <- inception_4a/pool
I0403 15:19:29.598819  2960 net.cpp:399] inception_4a/pool_proj -> inception_4a/pool_proj
I0403 15:19:29.600054  2960 net.cpp:141] Setting up inception_4a/pool_proj
I0403 15:19:29.600082  2960 net.cpp:148] Top shape: 24 64 14 14 (301056)
I0403 15:19:29.600113  2960 net.cpp:156] Memory required for data: 885707808
I0403 15:19:29.600133  2960 layer_factory.hpp:77] Creating layer inception_4a/relu_pool_proj
I0403 15:19:29.600155  2960 net.cpp:91] Creating Layer inception_4a/relu_pool_proj
I0403 15:19:29.600173  2960 net.cpp:425] inception_4a/relu_pool_proj <- inception_4a/pool_proj
I0403 15:19:29.600193  2960 net.cpp:386] inception_4a/relu_pool_proj -> inception_4a/pool_proj (in-place)
I0403 15:19:29.600486  2960 net.cpp:141] Setting up inception_4a/relu_pool_proj
I0403 15:19:29.600513  2960 net.cpp:148] Top shape: 24 64 14 14 (301056)
I0403 15:19:29.600528  2960 net.cpp:156] Memory required for data: 886912032
I0403 15:19:29.600543  2960 layer_factory.hpp:77] Creating layer inception_4a/output
I0403 15:19:29.600564  2960 net.cpp:91] Creating Layer inception_4a/output
I0403 15:19:29.600580  2960 net.cpp:425] inception_4a/output <- inception_4a/1x1
I0403 15:19:29.600597  2960 net.cpp:425] inception_4a/output <- inception_4a/3x3
I0403 15:19:29.600613  2960 net.cpp:425] inception_4a/output <- inception_4a/5x5
I0403 15:19:29.600630  2960 net.cpp:425] inception_4a/output <- inception_4a/pool_proj
I0403 15:19:29.600646  2960 net.cpp:399] inception_4a/output -> inception_4a/output
I0403 15:19:29.600694  2960 net.cpp:141] Setting up inception_4a/output
I0403 15:19:29.600718  2960 net.cpp:148] Top shape: 24 512 14 14 (2408448)
I0403 15:19:29.600733  2960 net.cpp:156] Memory required for data: 896545824
I0403 15:19:29.600749  2960 layer_factory.hpp:77] Creating layer inception_4a/output_inception_4a/output_0_split
I0403 15:19:29.600765  2960 net.cpp:91] Creating Layer inception_4a/output_inception_4a/output_0_split
I0403 15:19:29.600781  2960 net.cpp:425] inception_4a/output_inception_4a/output_0_split <- inception_4a/output
I0403 15:19:29.600801  2960 net.cpp:399] inception_4a/output_inception_4a/output_0_split -> inception_4a/output_inception_4a/output_0_split_0
I0403 15:19:29.600822  2960 net.cpp:399] inception_4a/output_inception_4a/output_0_split -> inception_4a/output_inception_4a/output_0_split_1
I0403 15:19:29.600843  2960 net.cpp:399] inception_4a/output_inception_4a/output_0_split -> inception_4a/output_inception_4a/output_0_split_2
I0403 15:19:29.600864  2960 net.cpp:399] inception_4a/output_inception_4a/output_0_split -> inception_4a/output_inception_4a/output_0_split_3
I0403 15:19:29.600884  2960 net.cpp:399] inception_4a/output_inception_4a/output_0_split -> inception_4a/output_inception_4a/output_0_split_4
I0403 15:19:29.600978  2960 net.cpp:141] Setting up inception_4a/output_inception_4a/output_0_split
I0403 15:19:29.601002  2960 net.cpp:148] Top shape: 24 512 14 14 (2408448)
I0403 15:19:29.601022  2960 net.cpp:148] Top shape: 24 512 14 14 (2408448)
I0403 15:19:29.601038  2960 net.cpp:148] Top shape: 24 512 14 14 (2408448)
I0403 15:19:29.601054  2960 net.cpp:148] Top shape: 24 512 14 14 (2408448)
I0403 15:19:29.601070  2960 net.cpp:148] Top shape: 24 512 14 14 (2408448)
I0403 15:19:29.601084  2960 net.cpp:156] Memory required for data: 944714784
I0403 15:19:29.601099  2960 layer_factory.hpp:77] Creating layer loss1/ave_pool
I0403 15:19:29.601116  2960 net.cpp:91] Creating Layer loss1/ave_pool
I0403 15:19:29.601133  2960 net.cpp:425] loss1/ave_pool <- inception_4a/output_inception_4a/output_0_split_0
I0403 15:19:29.601153  2960 net.cpp:399] loss1/ave_pool -> loss1/ave_pool
I0403 15:19:29.601374  2960 net.cpp:141] Setting up loss1/ave_pool
I0403 15:19:29.601402  2960 net.cpp:148] Top shape: 24 512 4 4 (196608)
I0403 15:19:29.601416  2960 net.cpp:156] Memory required for data: 945501216
I0403 15:19:29.601431  2960 layer_factory.hpp:77] Creating layer loss1/conv
I0403 15:19:29.601454  2960 net.cpp:91] Creating Layer loss1/conv
I0403 15:19:29.601472  2960 net.cpp:425] loss1/conv <- loss1/ave_pool
I0403 15:19:29.601493  2960 net.cpp:399] loss1/conv -> loss1/conv
I0403 15:19:29.602954  2960 net.cpp:141] Setting up loss1/conv
I0403 15:19:29.602987  2960 net.cpp:148] Top shape: 24 128 4 4 (49152)
I0403 15:19:29.603016  2960 net.cpp:156] Memory required for data: 945697824
I0403 15:19:29.603036  2960 layer_factory.hpp:77] Creating layer loss1/relu_conv
I0403 15:19:29.603055  2960 net.cpp:91] Creating Layer loss1/relu_conv
I0403 15:19:29.603071  2960 net.cpp:425] loss1/relu_conv <- loss1/conv
I0403 15:19:29.603091  2960 net.cpp:386] loss1/relu_conv -> loss1/conv (in-place)
I0403 15:19:29.603402  2960 net.cpp:141] Setting up loss1/relu_conv
I0403 15:19:29.603433  2960 net.cpp:148] Top shape: 24 128 4 4 (49152)
I0403 15:19:29.603449  2960 net.cpp:156] Memory required for data: 945894432
I0403 15:19:29.603466  2960 layer_factory.hpp:77] Creating layer loss1/fc
I0403 15:19:29.603489  2960 net.cpp:91] Creating Layer loss1/fc
I0403 15:19:29.603508  2960 net.cpp:425] loss1/fc <- loss1/conv
I0403 15:19:29.603531  2960 net.cpp:399] loss1/fc -> loss1/fc
I0403 15:19:29.621389  2960 net.cpp:141] Setting up loss1/fc
I0403 15:19:29.621434  2960 net.cpp:148] Top shape: 24 1024 (24576)
I0403 15:19:29.621449  2960 net.cpp:156] Memory required for data: 945992736
I0403 15:19:29.621467  2960 layer_factory.hpp:77] Creating layer loss1/relu_fc
I0403 15:19:29.621487  2960 net.cpp:91] Creating Layer loss1/relu_fc
I0403 15:19:29.621505  2960 net.cpp:425] loss1/relu_fc <- loss1/fc
I0403 15:19:29.621521  2960 net.cpp:386] loss1/relu_fc -> loss1/fc (in-place)
I0403 15:19:29.621714  2960 net.cpp:141] Setting up loss1/relu_fc
I0403 15:19:29.621740  2960 net.cpp:148] Top shape: 24 1024 (24576)
I0403 15:19:29.621755  2960 net.cpp:156] Memory required for data: 946091040
I0403 15:19:29.621770  2960 layer_factory.hpp:77] Creating layer loss1/drop_fc
I0403 15:19:29.621796  2960 net.cpp:91] Creating Layer loss1/drop_fc
I0403 15:19:29.621812  2960 net.cpp:425] loss1/drop_fc <- loss1/fc
I0403 15:19:29.621829  2960 net.cpp:386] loss1/drop_fc -> loss1/fc (in-place)
I0403 15:19:29.621881  2960 net.cpp:141] Setting up loss1/drop_fc
I0403 15:19:29.621903  2960 net.cpp:148] Top shape: 24 1024 (24576)
I0403 15:19:29.621917  2960 net.cpp:156] Memory required for data: 946189344
I0403 15:19:29.621932  2960 layer_factory.hpp:77] Creating layer loss1/classifier_plantvillage
I0403 15:19:29.621948  2960 net.cpp:91] Creating Layer loss1/classifier_plantvillage
I0403 15:19:29.621964  2960 net.cpp:425] loss1/classifier_plantvillage <- loss1/fc
I0403 15:19:29.621985  2960 net.cpp:399] loss1/classifier_plantvillage -> loss1/classifier_plantvillage
I0403 15:19:29.622910  2960 net.cpp:141] Setting up loss1/classifier_plantvillage
I0403 15:19:29.622937  2960 net.cpp:148] Top shape: 24 38 (912)
I0403 15:19:29.622952  2960 net.cpp:156] Memory required for data: 946192992
I0403 15:19:29.622969  2960 layer_factory.hpp:77] Creating layer loss1/classifier_plantvillage_loss1/classifier_plantvillage_0_split
I0403 15:19:29.622989  2960 net.cpp:91] Creating Layer loss1/classifier_plantvillage_loss1/classifier_plantvillage_0_split
I0403 15:19:29.623004  2960 net.cpp:425] loss1/classifier_plantvillage_loss1/classifier_plantvillage_0_split <- loss1/classifier_plantvillage
I0403 15:19:29.623021  2960 net.cpp:399] loss1/classifier_plantvillage_loss1/classifier_plantvillage_0_split -> loss1/classifier_plantvillage_loss1/classifier_plantvillage_0_split_0
I0403 15:19:29.623041  2960 net.cpp:399] loss1/classifier_plantvillage_loss1/classifier_plantvillage_0_split -> loss1/classifier_plantvillage_loss1/classifier_plantvillage_0_split_1
I0403 15:19:29.623064  2960 net.cpp:399] loss1/classifier_plantvillage_loss1/classifier_plantvillage_0_split -> loss1/classifier_plantvillage_loss1/classifier_plantvillage_0_split_2
I0403 15:19:29.623129  2960 net.cpp:141] Setting up loss1/classifier_plantvillage_loss1/classifier_plantvillage_0_split
I0403 15:19:29.623152  2960 net.cpp:148] Top shape: 24 38 (912)
I0403 15:19:29.623167  2960 net.cpp:148] Top shape: 24 38 (912)
I0403 15:19:29.623183  2960 net.cpp:148] Top shape: 24 38 (912)
I0403 15:19:29.623196  2960 net.cpp:156] Memory required for data: 946203936
I0403 15:19:29.623210  2960 layer_factory.hpp:77] Creating layer inception_4b/1x1
I0403 15:19:29.623231  2960 net.cpp:91] Creating Layer inception_4b/1x1
I0403 15:19:29.623265  2960 net.cpp:425] inception_4b/1x1 <- inception_4a/output_inception_4a/output_0_split_1
I0403 15:19:29.623301  2960 net.cpp:399] inception_4b/1x1 -> inception_4b/1x1
I0403 15:19:29.624996  2960 net.cpp:141] Setting up inception_4b/1x1
I0403 15:19:29.625027  2960 net.cpp:148] Top shape: 24 160 14 14 (752640)
I0403 15:19:29.625043  2960 net.cpp:156] Memory required for data: 949214496
I0403 15:19:29.625061  2960 layer_factory.hpp:77] Creating layer inception_4b/relu_1x1
I0403 15:19:29.625077  2960 net.cpp:91] Creating Layer inception_4b/relu_1x1
I0403 15:19:29.625093  2960 net.cpp:425] inception_4b/relu_1x1 <- inception_4b/1x1
I0403 15:19:29.625113  2960 net.cpp:386] inception_4b/relu_1x1 -> inception_4b/1x1 (in-place)
I0403 15:19:29.625293  2960 net.cpp:141] Setting up inception_4b/relu_1x1
I0403 15:19:29.625316  2960 net.cpp:148] Top shape: 24 160 14 14 (752640)
I0403 15:19:29.625330  2960 net.cpp:156] Memory required for data: 952225056
I0403 15:19:29.625344  2960 layer_factory.hpp:77] Creating layer inception_4b/3x3_reduce
I0403 15:19:29.625368  2960 net.cpp:91] Creating Layer inception_4b/3x3_reduce
I0403 15:19:29.625386  2960 net.cpp:425] inception_4b/3x3_reduce <- inception_4a/output_inception_4a/output_0_split_2
I0403 15:19:29.625406  2960 net.cpp:399] inception_4b/3x3_reduce -> inception_4b/3x3_reduce
I0403 15:19:29.626745  2960 net.cpp:141] Setting up inception_4b/3x3_reduce
I0403 15:19:29.626772  2960 net.cpp:148] Top shape: 24 112 14 14 (526848)
I0403 15:19:29.626787  2960 net.cpp:156] Memory required for data: 954332448
I0403 15:19:29.626806  2960 layer_factory.hpp:77] Creating layer inception_4b/relu_3x3_reduce
I0403 15:19:29.626824  2960 net.cpp:91] Creating Layer inception_4b/relu_3x3_reduce
I0403 15:19:29.626839  2960 net.cpp:425] inception_4b/relu_3x3_reduce <- inception_4b/3x3_reduce
I0403 15:19:29.626858  2960 net.cpp:386] inception_4b/relu_3x3_reduce -> inception_4b/3x3_reduce (in-place)
I0403 15:19:29.627146  2960 net.cpp:141] Setting up inception_4b/relu_3x3_reduce
I0403 15:19:29.627172  2960 net.cpp:148] Top shape: 24 112 14 14 (526848)
I0403 15:19:29.627189  2960 net.cpp:156] Memory required for data: 956439840
I0403 15:19:29.627204  2960 layer_factory.hpp:77] Creating layer inception_4b/3x3
I0403 15:19:29.627226  2960 net.cpp:91] Creating Layer inception_4b/3x3
I0403 15:19:29.627243  2960 net.cpp:425] inception_4b/3x3 <- inception_4b/3x3_reduce
I0403 15:19:29.627264  2960 net.cpp:399] inception_4b/3x3 -> inception_4b/3x3
I0403 15:19:29.630219  2960 net.cpp:141] Setting up inception_4b/3x3
I0403 15:19:29.630249  2960 net.cpp:148] Top shape: 24 224 14 14 (1053696)
I0403 15:19:29.630264  2960 net.cpp:156] Memory required for data: 960654624
I0403 15:19:29.630300  2960 layer_factory.hpp:77] Creating layer inception_4b/relu_3x3
I0403 15:19:29.630321  2960 net.cpp:91] Creating Layer inception_4b/relu_3x3
I0403 15:19:29.630338  2960 net.cpp:425] inception_4b/relu_3x3 <- inception_4b/3x3
I0403 15:19:29.630355  2960 net.cpp:386] inception_4b/relu_3x3 -> inception_4b/3x3 (in-place)
I0403 15:19:29.630539  2960 net.cpp:141] Setting up inception_4b/relu_3x3
I0403 15:19:29.630578  2960 net.cpp:148] Top shape: 24 224 14 14 (1053696)
I0403 15:19:29.630594  2960 net.cpp:156] Memory required for data: 964869408
I0403 15:19:29.630607  2960 layer_factory.hpp:77] Creating layer inception_4b/5x5_reduce
I0403 15:19:29.630628  2960 net.cpp:91] Creating Layer inception_4b/5x5_reduce
I0403 15:19:29.630645  2960 net.cpp:425] inception_4b/5x5_reduce <- inception_4a/output_inception_4a/output_0_split_3
I0403 15:19:29.630666  2960 net.cpp:399] inception_4b/5x5_reduce -> inception_4b/5x5_reduce
I0403 15:19:29.631749  2960 net.cpp:141] Setting up inception_4b/5x5_reduce
I0403 15:19:29.631775  2960 net.cpp:148] Top shape: 24 24 14 14 (112896)
I0403 15:19:29.631791  2960 net.cpp:156] Memory required for data: 965320992
I0403 15:19:29.631808  2960 layer_factory.hpp:77] Creating layer inception_4b/relu_5x5_reduce
I0403 15:19:29.631825  2960 net.cpp:91] Creating Layer inception_4b/relu_5x5_reduce
I0403 15:19:29.631855  2960 net.cpp:425] inception_4b/relu_5x5_reduce <- inception_4b/5x5_reduce
I0403 15:19:29.631875  2960 net.cpp:386] inception_4b/relu_5x5_reduce -> inception_4b/5x5_reduce (in-place)
I0403 15:19:29.632055  2960 net.cpp:141] Setting up inception_4b/relu_5x5_reduce
I0403 15:19:29.632079  2960 net.cpp:148] Top shape: 24 24 14 14 (112896)
I0403 15:19:29.632093  2960 net.cpp:156] Memory required for data: 965772576
I0403 15:19:29.632107  2960 layer_factory.hpp:77] Creating layer inception_4b/5x5
I0403 15:19:29.632128  2960 net.cpp:91] Creating Layer inception_4b/5x5
I0403 15:19:29.632145  2960 net.cpp:425] inception_4b/5x5 <- inception_4b/5x5_reduce
I0403 15:19:29.632166  2960 net.cpp:399] inception_4b/5x5 -> inception_4b/5x5
I0403 15:19:29.633363  2960 net.cpp:141] Setting up inception_4b/5x5
I0403 15:19:29.633393  2960 net.cpp:148] Top shape: 24 64 14 14 (301056)
I0403 15:19:29.633409  2960 net.cpp:156] Memory required for data: 966976800
I0403 15:19:29.633426  2960 layer_factory.hpp:77] Creating layer inception_4b/relu_5x5
I0403 15:19:29.633443  2960 net.cpp:91] Creating Layer inception_4b/relu_5x5
I0403 15:19:29.633460  2960 net.cpp:425] inception_4b/relu_5x5 <- inception_4b/5x5
I0403 15:19:29.633478  2960 net.cpp:386] inception_4b/relu_5x5 -> inception_4b/5x5 (in-place)
I0403 15:19:29.633755  2960 net.cpp:141] Setting up inception_4b/relu_5x5
I0403 15:19:29.633782  2960 net.cpp:148] Top shape: 24 64 14 14 (301056)
I0403 15:19:29.633798  2960 net.cpp:156] Memory required for data: 968181024
I0403 15:19:29.633812  2960 layer_factory.hpp:77] Creating layer inception_4b/pool
I0403 15:19:29.633831  2960 net.cpp:91] Creating Layer inception_4b/pool
I0403 15:19:29.633846  2960 net.cpp:425] inception_4b/pool <- inception_4a/output_inception_4a/output_0_split_4
I0403 15:19:29.633865  2960 net.cpp:399] inception_4b/pool -> inception_4b/pool
I0403 15:19:29.633926  2960 net.cpp:141] Setting up inception_4b/pool
I0403 15:19:29.633949  2960 net.cpp:148] Top shape: 24 512 14 14 (2408448)
I0403 15:19:29.633963  2960 net.cpp:156] Memory required for data: 977814816
I0403 15:19:29.633977  2960 layer_factory.hpp:77] Creating layer inception_4b/pool_proj
I0403 15:19:29.633998  2960 net.cpp:91] Creating Layer inception_4b/pool_proj
I0403 15:19:29.634016  2960 net.cpp:425] inception_4b/pool_proj <- inception_4b/pool
I0403 15:19:29.634035  2960 net.cpp:399] inception_4b/pool_proj -> inception_4b/pool_proj
I0403 15:19:29.635197  2960 net.cpp:141] Setting up inception_4b/pool_proj
I0403 15:19:29.635227  2960 net.cpp:148] Top shape: 24 64 14 14 (301056)
I0403 15:19:29.635243  2960 net.cpp:156] Memory required for data: 979019040
I0403 15:19:29.635262  2960 layer_factory.hpp:77] Creating layer inception_4b/relu_pool_proj
I0403 15:19:29.635295  2960 net.cpp:91] Creating Layer inception_4b/relu_pool_proj
I0403 15:19:29.635314  2960 net.cpp:425] inception_4b/relu_pool_proj <- inception_4b/pool_proj
I0403 15:19:29.635334  2960 net.cpp:386] inception_4b/relu_pool_proj -> inception_4b/pool_proj (in-place)
I0403 15:19:29.635514  2960 net.cpp:141] Setting up inception_4b/relu_pool_proj
I0403 15:19:29.635540  2960 net.cpp:148] Top shape: 24 64 14 14 (301056)
I0403 15:19:29.635555  2960 net.cpp:156] Memory required for data: 980223264
I0403 15:19:29.635582  2960 layer_factory.hpp:77] Creating layer inception_4b/output
I0403 15:19:29.635599  2960 net.cpp:91] Creating Layer inception_4b/output
I0403 15:19:29.635613  2960 net.cpp:425] inception_4b/output <- inception_4b/1x1
I0403 15:19:29.635629  2960 net.cpp:425] inception_4b/output <- inception_4b/3x3
I0403 15:19:29.635645  2960 net.cpp:425] inception_4b/output <- inception_4b/5x5
I0403 15:19:29.635660  2960 net.cpp:425] inception_4b/output <- inception_4b/pool_proj
I0403 15:19:29.635679  2960 net.cpp:399] inception_4b/output -> inception_4b/output
I0403 15:19:29.635725  2960 net.cpp:141] Setting up inception_4b/output
I0403 15:19:29.635747  2960 net.cpp:148] Top shape: 24 512 14 14 (2408448)
I0403 15:19:29.635762  2960 net.cpp:156] Memory required for data: 989857056
I0403 15:19:29.635789  2960 layer_factory.hpp:77] Creating layer inception_4b/output_inception_4b/output_0_split
I0403 15:19:29.635807  2960 net.cpp:91] Creating Layer inception_4b/output_inception_4b/output_0_split
I0403 15:19:29.635823  2960 net.cpp:425] inception_4b/output_inception_4b/output_0_split <- inception_4b/output
I0403 15:19:29.635841  2960 net.cpp:399] inception_4b/output_inception_4b/output_0_split -> inception_4b/output_inception_4b/output_0_split_0
I0403 15:19:29.635861  2960 net.cpp:399] inception_4b/output_inception_4b/output_0_split -> inception_4b/output_inception_4b/output_0_split_1
I0403 15:19:29.635881  2960 net.cpp:399] inception_4b/output_inception_4b/output_0_split -> inception_4b/output_inception_4b/output_0_split_2
I0403 15:19:29.635901  2960 net.cpp:399] inception_4b/output_inception_4b/output_0_split -> inception_4b/output_inception_4b/output_0_split_3
I0403 15:19:29.635982  2960 net.cpp:141] Setting up inception_4b/output_inception_4b/output_0_split
I0403 15:19:29.636008  2960 net.cpp:148] Top shape: 24 512 14 14 (2408448)
I0403 15:19:29.636024  2960 net.cpp:148] Top shape: 24 512 14 14 (2408448)
I0403 15:19:29.636039  2960 net.cpp:148] Top shape: 24 512 14 14 (2408448)
I0403 15:19:29.636054  2960 net.cpp:148] Top shape: 24 512 14 14 (2408448)
I0403 15:19:29.636068  2960 net.cpp:156] Memory required for data: 1028392224
I0403 15:19:29.636082  2960 layer_factory.hpp:77] Creating layer inception_4c/1x1
I0403 15:19:29.636103  2960 net.cpp:91] Creating Layer inception_4c/1x1
I0403 15:19:29.636137  2960 net.cpp:425] inception_4c/1x1 <- inception_4b/output_inception_4b/output_0_split_0
I0403 15:19:29.636157  2960 net.cpp:399] inception_4c/1x1 -> inception_4c/1x1
I0403 15:19:29.637624  2960 net.cpp:141] Setting up inception_4c/1x1
I0403 15:19:29.637652  2960 net.cpp:148] Top shape: 24 128 14 14 (602112)
I0403 15:19:29.637668  2960 net.cpp:156] Memory required for data: 1030800672
I0403 15:19:29.637687  2960 layer_factory.hpp:77] Creating layer inception_4c/relu_1x1
I0403 15:19:29.637708  2960 net.cpp:91] Creating Layer inception_4c/relu_1x1
I0403 15:19:29.637725  2960 net.cpp:425] inception_4c/relu_1x1 <- inception_4c/1x1
I0403 15:19:29.637743  2960 net.cpp:386] inception_4c/relu_1x1 -> inception_4c/1x1 (in-place)
I0403 15:19:29.637925  2960 net.cpp:141] Setting up inception_4c/relu_1x1
I0403 15:19:29.637953  2960 net.cpp:148] Top shape: 24 128 14 14 (602112)
I0403 15:19:29.637969  2960 net.cpp:156] Memory required for data: 1033209120
I0403 15:19:29.637984  2960 layer_factory.hpp:77] Creating layer inception_4c/3x3_reduce
I0403 15:19:29.638005  2960 net.cpp:91] Creating Layer inception_4c/3x3_reduce
I0403 15:19:29.638023  2960 net.cpp:425] inception_4c/3x3_reduce <- inception_4b/output_inception_4b/output_0_split_1
I0403 15:19:29.638042  2960 net.cpp:399] inception_4c/3x3_reduce -> inception_4c/3x3_reduce
I0403 15:19:29.640045  2960 net.cpp:141] Setting up inception_4c/3x3_reduce
I0403 15:19:29.640077  2960 net.cpp:148] Top shape: 24 128 14 14 (602112)
I0403 15:19:29.640095  2960 net.cpp:156] Memory required for data: 1035617568
I0403 15:19:29.640113  2960 layer_factory.hpp:77] Creating layer inception_4c/relu_3x3_reduce
I0403 15:19:29.640131  2960 net.cpp:91] Creating Layer inception_4c/relu_3x3_reduce
I0403 15:19:29.640148  2960 net.cpp:425] inception_4c/relu_3x3_reduce <- inception_4c/3x3_reduce
I0403 15:19:29.640164  2960 net.cpp:386] inception_4c/relu_3x3_reduce -> inception_4c/3x3_reduce (in-place)
I0403 15:19:29.640468  2960 net.cpp:141] Setting up inception_4c/relu_3x3_reduce
I0403 15:19:29.640497  2960 net.cpp:148] Top shape: 24 128 14 14 (602112)
I0403 15:19:29.640513  2960 net.cpp:156] Memory required for data: 1038026016
I0403 15:19:29.640528  2960 layer_factory.hpp:77] Creating layer inception_4c/3x3
I0403 15:19:29.640552  2960 net.cpp:91] Creating Layer inception_4c/3x3
I0403 15:19:29.640570  2960 net.cpp:425] inception_4c/3x3 <- inception_4c/3x3_reduce
I0403 15:19:29.640588  2960 net.cpp:399] inception_4c/3x3 -> inception_4c/3x3
I0403 15:19:29.644235  2960 net.cpp:141] Setting up inception_4c/3x3
I0403 15:19:29.644281  2960 net.cpp:148] Top shape: 24 256 14 14 (1204224)
I0403 15:19:29.644300  2960 net.cpp:156] Memory required for data: 1042842912
I0403 15:19:29.644331  2960 layer_factory.hpp:77] Creating layer inception_4c/relu_3x3
I0403 15:19:29.644351  2960 net.cpp:91] Creating Layer inception_4c/relu_3x3
I0403 15:19:29.644369  2960 net.cpp:425] inception_4c/relu_3x3 <- inception_4c/3x3
I0403 15:19:29.644388  2960 net.cpp:386] inception_4c/relu_3x3 -> inception_4c/3x3 (in-place)
I0403 15:19:29.644573  2960 net.cpp:141] Setting up inception_4c/relu_3x3
I0403 15:19:29.644599  2960 net.cpp:148] Top shape: 24 256 14 14 (1204224)
I0403 15:19:29.644613  2960 net.cpp:156] Memory required for data: 1047659808
I0403 15:19:29.644629  2960 layer_factory.hpp:77] Creating layer inception_4c/5x5_reduce
I0403 15:19:29.644651  2960 net.cpp:91] Creating Layer inception_4c/5x5_reduce
I0403 15:19:29.644670  2960 net.cpp:425] inception_4c/5x5_reduce <- inception_4b/output_inception_4b/output_0_split_2
I0403 15:19:29.644690  2960 net.cpp:399] inception_4c/5x5_reduce -> inception_4c/5x5_reduce
I0403 15:19:29.645833  2960 net.cpp:141] Setting up inception_4c/5x5_reduce
I0403 15:19:29.645861  2960 net.cpp:148] Top shape: 24 24 14 14 (112896)
I0403 15:19:29.645877  2960 net.cpp:156] Memory required for data: 1048111392
I0403 15:19:29.645896  2960 layer_factory.hpp:77] Creating layer inception_4c/relu_5x5_reduce
I0403 15:19:29.645915  2960 net.cpp:91] Creating Layer inception_4c/relu_5x5_reduce
I0403 15:19:29.645931  2960 net.cpp:425] inception_4c/relu_5x5_reduce <- inception_4c/5x5_reduce
I0403 15:19:29.645951  2960 net.cpp:386] inception_4c/relu_5x5_reduce -> inception_4c/5x5_reduce (in-place)
I0403 15:19:29.646142  2960 net.cpp:141] Setting up inception_4c/relu_5x5_reduce
I0403 15:19:29.646168  2960 net.cpp:148] Top shape: 24 24 14 14 (112896)
I0403 15:19:29.646185  2960 net.cpp:156] Memory required for data: 1048562976
I0403 15:19:29.646201  2960 layer_factory.hpp:77] Creating layer inception_4c/5x5
I0403 15:19:29.646224  2960 net.cpp:91] Creating Layer inception_4c/5x5
I0403 15:19:29.646242  2960 net.cpp:425] inception_4c/5x5 <- inception_4c/5x5_reduce
I0403 15:19:29.646263  2960 net.cpp:399] inception_4c/5x5 -> inception_4c/5x5
I0403 15:19:29.647591  2960 net.cpp:141] Setting up inception_4c/5x5
I0403 15:19:29.647619  2960 net.cpp:148] Top shape: 24 64 14 14 (301056)
I0403 15:19:29.647634  2960 net.cpp:156] Memory required for data: 1049767200
I0403 15:19:29.647652  2960 layer_factory.hpp:77] Creating layer inception_4c/relu_5x5
I0403 15:19:29.647672  2960 net.cpp:91] Creating Layer inception_4c/relu_5x5
I0403 15:19:29.647689  2960 net.cpp:425] inception_4c/relu_5x5 <- inception_4c/5x5
I0403 15:19:29.647706  2960 net.cpp:386] inception_4c/relu_5x5 -> inception_4c/5x5 (in-place)
I0403 15:19:29.647995  2960 net.cpp:141] Setting up inception_4c/relu_5x5
I0403 15:19:29.648020  2960 net.cpp:148] Top shape: 24 64 14 14 (301056)
I0403 15:19:29.648036  2960 net.cpp:156] Memory required for data: 1050971424
I0403 15:19:29.648051  2960 layer_factory.hpp:77] Creating layer inception_4c/pool
I0403 15:19:29.648067  2960 net.cpp:91] Creating Layer inception_4c/pool
I0403 15:19:29.648084  2960 net.cpp:425] inception_4c/pool <- inception_4b/output_inception_4b/output_0_split_3
I0403 15:19:29.648103  2960 net.cpp:399] inception_4c/pool -> inception_4c/pool
I0403 15:19:29.648172  2960 net.cpp:141] Setting up inception_4c/pool
I0403 15:19:29.648197  2960 net.cpp:148] Top shape: 24 512 14 14 (2408448)
I0403 15:19:29.648211  2960 net.cpp:156] Memory required for data: 1060605216
I0403 15:19:29.648226  2960 layer_factory.hpp:77] Creating layer inception_4c/pool_proj
I0403 15:19:29.648247  2960 net.cpp:91] Creating Layer inception_4c/pool_proj
I0403 15:19:29.648265  2960 net.cpp:425] inception_4c/pool_proj <- inception_4c/pool
I0403 15:19:29.648291  2960 net.cpp:399] inception_4c/pool_proj -> inception_4c/pool_proj
I0403 15:19:29.649514  2960 net.cpp:141] Setting up inception_4c/pool_proj
I0403 15:19:29.649544  2960 net.cpp:148] Top shape: 24 64 14 14 (301056)
I0403 15:19:29.649574  2960 net.cpp:156] Memory required for data: 1061809440
I0403 15:19:29.649595  2960 layer_factory.hpp:77] Creating layer inception_4c/relu_pool_proj
I0403 15:19:29.649612  2960 net.cpp:91] Creating Layer inception_4c/relu_pool_proj
I0403 15:19:29.649628  2960 net.cpp:425] inception_4c/relu_pool_proj <- inception_4c/pool_proj
I0403 15:19:29.649648  2960 net.cpp:386] inception_4c/relu_pool_proj -> inception_4c/pool_proj (in-place)
I0403 15:19:29.649834  2960 net.cpp:141] Setting up inception_4c/relu_pool_proj
I0403 15:19:29.649860  2960 net.cpp:148] Top shape: 24 64 14 14 (301056)
I0403 15:19:29.649874  2960 net.cpp:156] Memory required for data: 1063013664
I0403 15:19:29.649888  2960 layer_factory.hpp:77] Creating layer inception_4c/output
I0403 15:19:29.649905  2960 net.cpp:91] Creating Layer inception_4c/output
I0403 15:19:29.649920  2960 net.cpp:425] inception_4c/output <- inception_4c/1x1
I0403 15:19:29.649936  2960 net.cpp:425] inception_4c/output <- inception_4c/3x3
I0403 15:19:29.649952  2960 net.cpp:425] inception_4c/output <- inception_4c/5x5
I0403 15:19:29.649967  2960 net.cpp:425] inception_4c/output <- inception_4c/pool_proj
I0403 15:19:29.649986  2960 net.cpp:399] inception_4c/output -> inception_4c/output
I0403 15:19:29.650035  2960 net.cpp:141] Setting up inception_4c/output
I0403 15:19:29.650058  2960 net.cpp:148] Top shape: 24 512 14 14 (2408448)
I0403 15:19:29.650073  2960 net.cpp:156] Memory required for data: 1072647456
I0403 15:19:29.650087  2960 layer_factory.hpp:77] Creating layer inception_4c/output_inception_4c/output_0_split
I0403 15:19:29.650104  2960 net.cpp:91] Creating Layer inception_4c/output_inception_4c/output_0_split
I0403 15:19:29.650120  2960 net.cpp:425] inception_4c/output_inception_4c/output_0_split <- inception_4c/output
I0403 15:19:29.650140  2960 net.cpp:399] inception_4c/output_inception_4c/output_0_split -> inception_4c/output_inception_4c/output_0_split_0
I0403 15:19:29.650161  2960 net.cpp:399] inception_4c/output_inception_4c/output_0_split -> inception_4c/output_inception_4c/output_0_split_1
I0403 15:19:29.650180  2960 net.cpp:399] inception_4c/output_inception_4c/output_0_split -> inception_4c/output_inception_4c/output_0_split_2
I0403 15:19:29.650200  2960 net.cpp:399] inception_4c/output_inception_4c/output_0_split -> inception_4c/output_inception_4c/output_0_split_3
I0403 15:19:29.650291  2960 net.cpp:141] Setting up inception_4c/output_inception_4c/output_0_split
I0403 15:19:29.650315  2960 net.cpp:148] Top shape: 24 512 14 14 (2408448)
I0403 15:19:29.650331  2960 net.cpp:148] Top shape: 24 512 14 14 (2408448)
I0403 15:19:29.650346  2960 net.cpp:148] Top shape: 24 512 14 14 (2408448)
I0403 15:19:29.650362  2960 net.cpp:148] Top shape: 24 512 14 14 (2408448)
I0403 15:19:29.650375  2960 net.cpp:156] Memory required for data: 1111182624
I0403 15:19:29.650389  2960 layer_factory.hpp:77] Creating layer inception_4d/1x1
I0403 15:19:29.650413  2960 net.cpp:91] Creating Layer inception_4d/1x1
I0403 15:19:29.650430  2960 net.cpp:425] inception_4d/1x1 <- inception_4c/output_inception_4c/output_0_split_0
I0403 15:19:29.650449  2960 net.cpp:399] inception_4d/1x1 -> inception_4d/1x1
I0403 15:19:29.651862  2960 net.cpp:141] Setting up inception_4d/1x1
I0403 15:19:29.651890  2960 net.cpp:148] Top shape: 24 112 14 14 (526848)
I0403 15:19:29.651906  2960 net.cpp:156] Memory required for data: 1113290016
I0403 15:19:29.651924  2960 layer_factory.hpp:77] Creating layer inception_4d/relu_1x1
I0403 15:19:29.651943  2960 net.cpp:91] Creating Layer inception_4d/relu_1x1
I0403 15:19:29.651962  2960 net.cpp:425] inception_4d/relu_1x1 <- inception_4d/1x1
I0403 15:19:29.651978  2960 net.cpp:386] inception_4d/relu_1x1 -> inception_4d/1x1 (in-place)
I0403 15:19:29.652168  2960 net.cpp:141] Setting up inception_4d/relu_1x1
I0403 15:19:29.652194  2960 net.cpp:148] Top shape: 24 112 14 14 (526848)
I0403 15:19:29.652207  2960 net.cpp:156] Memory required for data: 1115397408
I0403 15:19:29.652222  2960 layer_factory.hpp:77] Creating layer inception_4d/3x3_reduce
I0403 15:19:29.652257  2960 net.cpp:91] Creating Layer inception_4d/3x3_reduce
I0403 15:19:29.652287  2960 net.cpp:425] inception_4d/3x3_reduce <- inception_4c/output_inception_4c/output_0_split_1
I0403 15:19:29.652312  2960 net.cpp:399] inception_4d/3x3_reduce -> inception_4d/3x3_reduce
I0403 15:19:29.653828  2960 net.cpp:141] Setting up inception_4d/3x3_reduce
I0403 15:19:29.653856  2960 net.cpp:148] Top shape: 24 144 14 14 (677376)
I0403 15:19:29.653870  2960 net.cpp:156] Memory required for data: 1118106912
I0403 15:19:29.653887  2960 layer_factory.hpp:77] Creating layer inception_4d/relu_3x3_reduce
I0403 15:19:29.653908  2960 net.cpp:91] Creating Layer inception_4d/relu_3x3_reduce
I0403 15:19:29.653924  2960 net.cpp:425] inception_4d/relu_3x3_reduce <- inception_4d/3x3_reduce
I0403 15:19:29.653941  2960 net.cpp:386] inception_4d/relu_3x3_reduce -> inception_4d/3x3_reduce (in-place)
I0403 15:19:29.654232  2960 net.cpp:141] Setting up inception_4d/relu_3x3_reduce
I0403 15:19:29.654258  2960 net.cpp:148] Top shape: 24 144 14 14 (677376)
I0403 15:19:29.654291  2960 net.cpp:156] Memory required for data: 1120816416
I0403 15:19:29.654307  2960 layer_factory.hpp:77] Creating layer inception_4d/3x3
I0403 15:19:29.654343  2960 net.cpp:91] Creating Layer inception_4d/3x3
I0403 15:19:29.654362  2960 net.cpp:425] inception_4d/3x3 <- inception_4d/3x3_reduce
I0403 15:19:29.654384  2960 net.cpp:399] inception_4d/3x3 -> inception_4d/3x3
I0403 15:19:29.658634  2960 net.cpp:141] Setting up inception_4d/3x3
I0403 15:19:29.658666  2960 net.cpp:148] Top shape: 24 288 14 14 (1354752)
I0403 15:19:29.658682  2960 net.cpp:156] Memory required for data: 1126235424
I0403 15:19:29.658700  2960 layer_factory.hpp:77] Creating layer inception_4d/relu_3x3
I0403 15:19:29.658717  2960 net.cpp:91] Creating Layer inception_4d/relu_3x3
I0403 15:19:29.658733  2960 net.cpp:425] inception_4d/relu_3x3 <- inception_4d/3x3
I0403 15:19:29.658749  2960 net.cpp:386] inception_4d/relu_3x3 -> inception_4d/3x3 (in-place)
I0403 15:19:29.658932  2960 net.cpp:141] Setting up inception_4d/relu_3x3
I0403 15:19:29.658957  2960 net.cpp:148] Top shape: 24 288 14 14 (1354752)
I0403 15:19:29.658970  2960 net.cpp:156] Memory required for data: 1131654432
I0403 15:19:29.658984  2960 layer_factory.hpp:77] Creating layer inception_4d/5x5_reduce
I0403 15:19:29.659006  2960 net.cpp:91] Creating Layer inception_4d/5x5_reduce
I0403 15:19:29.659024  2960 net.cpp:425] inception_4d/5x5_reduce <- inception_4c/output_inception_4c/output_0_split_2
I0403 15:19:29.659045  2960 net.cpp:399] inception_4d/5x5_reduce -> inception_4d/5x5_reduce
I0403 15:19:29.660193  2960 net.cpp:141] Setting up inception_4d/5x5_reduce
I0403 15:19:29.660220  2960 net.cpp:148] Top shape: 24 32 14 14 (150528)
I0403 15:19:29.660235  2960 net.cpp:156] Memory required for data: 1132256544
I0403 15:19:29.660253  2960 layer_factory.hpp:77] Creating layer inception_4d/relu_5x5_reduce
I0403 15:19:29.660275  2960 net.cpp:91] Creating Layer inception_4d/relu_5x5_reduce
I0403 15:19:29.660293  2960 net.cpp:425] inception_4d/relu_5x5_reduce <- inception_4d/5x5_reduce
I0403 15:19:29.660310  2960 net.cpp:386] inception_4d/relu_5x5_reduce -> inception_4d/5x5_reduce (in-place)
I0403 15:19:29.660497  2960 net.cpp:141] Setting up inception_4d/relu_5x5_reduce
I0403 15:19:29.660521  2960 net.cpp:148] Top shape: 24 32 14 14 (150528)
I0403 15:19:29.660536  2960 net.cpp:156] Memory required for data: 1132858656
I0403 15:19:29.660549  2960 layer_factory.hpp:77] Creating layer inception_4d/5x5
I0403 15:19:29.660570  2960 net.cpp:91] Creating Layer inception_4d/5x5
I0403 15:19:29.660588  2960 net.cpp:425] inception_4d/5x5 <- inception_4d/5x5_reduce
I0403 15:19:29.660607  2960 net.cpp:399] inception_4d/5x5 -> inception_4d/5x5
I0403 15:19:29.662045  2960 net.cpp:141] Setting up inception_4d/5x5
I0403 15:19:29.662071  2960 net.cpp:148] Top shape: 24 64 14 14 (301056)
I0403 15:19:29.662087  2960 net.cpp:156] Memory required for data: 1134062880
I0403 15:19:29.662106  2960 layer_factory.hpp:77] Creating layer inception_4d/relu_5x5
I0403 15:19:29.662138  2960 net.cpp:91] Creating Layer inception_4d/relu_5x5
I0403 15:19:29.662154  2960 net.cpp:425] inception_4d/relu_5x5 <- inception_4d/5x5
I0403 15:19:29.662173  2960 net.cpp:386] inception_4d/relu_5x5 -> inception_4d/5x5 (in-place)
I0403 15:19:29.662500  2960 net.cpp:141] Setting up inception_4d/relu_5x5
I0403 15:19:29.662528  2960 net.cpp:148] Top shape: 24 64 14 14 (301056)
I0403 15:19:29.662546  2960 net.cpp:156] Memory required for data: 1135267104
I0403 15:19:29.662564  2960 layer_factory.hpp:77] Creating layer inception_4d/pool
I0403 15:19:29.662592  2960 net.cpp:91] Creating Layer inception_4d/pool
I0403 15:19:29.662608  2960 net.cpp:425] inception_4d/pool <- inception_4c/output_inception_4c/output_0_split_3
I0403 15:19:29.662628  2960 net.cpp:399] inception_4d/pool -> inception_4d/pool
I0403 15:19:29.662693  2960 net.cpp:141] Setting up inception_4d/pool
I0403 15:19:29.662719  2960 net.cpp:148] Top shape: 24 512 14 14 (2408448)
I0403 15:19:29.662732  2960 net.cpp:156] Memory required for data: 1144900896
I0403 15:19:29.662746  2960 layer_factory.hpp:77] Creating layer inception_4d/pool_proj
I0403 15:19:29.662776  2960 net.cpp:91] Creating Layer inception_4d/pool_proj
I0403 15:19:29.662799  2960 net.cpp:425] inception_4d/pool_proj <- inception_4d/pool
I0403 15:19:29.662818  2960 net.cpp:399] inception_4d/pool_proj -> inception_4d/pool_proj
I0403 15:19:29.664587  2960 net.cpp:141] Setting up inception_4d/pool_proj
I0403 15:19:29.664618  2960 net.cpp:148] Top shape: 24 64 14 14 (301056)
I0403 15:19:29.664634  2960 net.cpp:156] Memory required for data: 1146105120
I0403 15:19:29.664652  2960 layer_factory.hpp:77] Creating layer inception_4d/relu_pool_proj
I0403 15:19:29.664670  2960 net.cpp:91] Creating Layer inception_4d/relu_pool_proj
I0403 15:19:29.664686  2960 net.cpp:425] inception_4d/relu_pool_proj <- inception_4d/pool_proj
I0403 15:19:29.664705  2960 net.cpp:386] inception_4d/relu_pool_proj -> inception_4d/pool_proj (in-place)
I0403 15:19:29.664892  2960 net.cpp:141] Setting up inception_4d/relu_pool_proj
I0403 15:19:29.664917  2960 net.cpp:148] Top shape: 24 64 14 14 (301056)
I0403 15:19:29.664932  2960 net.cpp:156] Memory required for data: 1147309344
I0403 15:19:29.664947  2960 layer_factory.hpp:77] Creating layer inception_4d/output
I0403 15:19:29.664964  2960 net.cpp:91] Creating Layer inception_4d/output
I0403 15:19:29.664979  2960 net.cpp:425] inception_4d/output <- inception_4d/1x1
I0403 15:19:29.664996  2960 net.cpp:425] inception_4d/output <- inception_4d/3x3
I0403 15:19:29.665012  2960 net.cpp:425] inception_4d/output <- inception_4d/5x5
I0403 15:19:29.665027  2960 net.cpp:425] inception_4d/output <- inception_4d/pool_proj
I0403 15:19:29.665046  2960 net.cpp:399] inception_4d/output -> inception_4d/output
I0403 15:19:29.665093  2960 net.cpp:141] Setting up inception_4d/output
I0403 15:19:29.665117  2960 net.cpp:148] Top shape: 24 528 14 14 (2483712)
I0403 15:19:29.665132  2960 net.cpp:156] Memory required for data: 1157244192
I0403 15:19:29.665145  2960 layer_factory.hpp:77] Creating layer inception_4d/output_inception_4d/output_0_split
I0403 15:19:29.665165  2960 net.cpp:91] Creating Layer inception_4d/output_inception_4d/output_0_split
I0403 15:19:29.665181  2960 net.cpp:425] inception_4d/output_inception_4d/output_0_split <- inception_4d/output
I0403 15:19:29.665202  2960 net.cpp:399] inception_4d/output_inception_4d/output_0_split -> inception_4d/output_inception_4d/output_0_split_0
I0403 15:19:29.665225  2960 net.cpp:399] inception_4d/output_inception_4d/output_0_split -> inception_4d/output_inception_4d/output_0_split_1
I0403 15:19:29.665246  2960 net.cpp:399] inception_4d/output_inception_4d/output_0_split -> inception_4d/output_inception_4d/output_0_split_2
I0403 15:19:29.665266  2960 net.cpp:399] inception_4d/output_inception_4d/output_0_split -> inception_4d/output_inception_4d/output_0_split_3
I0403 15:19:29.665292  2960 net.cpp:399] inception_4d/output_inception_4d/output_0_split -> inception_4d/output_inception_4d/output_0_split_4
I0403 15:19:29.665393  2960 net.cpp:141] Setting up inception_4d/output_inception_4d/output_0_split
I0403 15:19:29.665431  2960 net.cpp:148] Top shape: 24 528 14 14 (2483712)
I0403 15:19:29.665448  2960 net.cpp:148] Top shape: 24 528 14 14 (2483712)
I0403 15:19:29.665464  2960 net.cpp:148] Top shape: 24 528 14 14 (2483712)
I0403 15:19:29.665479  2960 net.cpp:148] Top shape: 24 528 14 14 (2483712)
I0403 15:19:29.665494  2960 net.cpp:148] Top shape: 24 528 14 14 (2483712)
I0403 15:19:29.665508  2960 net.cpp:156] Memory required for data: 1206918432
I0403 15:19:29.665523  2960 layer_factory.hpp:77] Creating layer loss2/ave_pool
I0403 15:19:29.665542  2960 net.cpp:91] Creating Layer loss2/ave_pool
I0403 15:19:29.665560  2960 net.cpp:425] loss2/ave_pool <- inception_4d/output_inception_4d/output_0_split_0
I0403 15:19:29.665577  2960 net.cpp:399] loss2/ave_pool -> loss2/ave_pool
I0403 15:19:29.665889  2960 net.cpp:141] Setting up loss2/ave_pool
I0403 15:19:29.665917  2960 net.cpp:148] Top shape: 24 528 4 4 (202752)
I0403 15:19:29.665933  2960 net.cpp:156] Memory required for data: 1207729440
I0403 15:19:29.665949  2960 layer_factory.hpp:77] Creating layer loss2/conv
I0403 15:19:29.665971  2960 net.cpp:91] Creating Layer loss2/conv
I0403 15:19:29.665989  2960 net.cpp:425] loss2/conv <- loss2/ave_pool
I0403 15:19:29.666009  2960 net.cpp:399] loss2/conv -> loss2/conv
I0403 15:19:29.667912  2960 net.cpp:141] Setting up loss2/conv
I0403 15:19:29.667940  2960 net.cpp:148] Top shape: 24 128 4 4 (49152)
I0403 15:19:29.667956  2960 net.cpp:156] Memory required for data: 1207926048
I0403 15:19:29.667974  2960 layer_factory.hpp:77] Creating layer loss2/relu_conv
I0403 15:19:29.667994  2960 net.cpp:91] Creating Layer loss2/relu_conv
I0403 15:19:29.668012  2960 net.cpp:425] loss2/relu_conv <- loss2/conv
I0403 15:19:29.668030  2960 net.cpp:386] loss2/relu_conv -> loss2/conv (in-place)
I0403 15:19:29.668321  2960 net.cpp:141] Setting up loss2/relu_conv
I0403 15:19:29.668347  2960 net.cpp:148] Top shape: 24 128 4 4 (49152)
I0403 15:19:29.668362  2960 net.cpp:156] Memory required for data: 1208122656
I0403 15:19:29.668376  2960 layer_factory.hpp:77] Creating layer loss2/fc
I0403 15:19:29.668400  2960 net.cpp:91] Creating Layer loss2/fc
I0403 15:19:29.668417  2960 net.cpp:425] loss2/fc <- loss2/conv
I0403 15:19:29.668437  2960 net.cpp:399] loss2/fc -> loss2/fc
I0403 15:19:29.686316  2960 net.cpp:141] Setting up loss2/fc
I0403 15:19:29.686373  2960 net.cpp:148] Top shape: 24 1024 (24576)
I0403 15:19:29.686389  2960 net.cpp:156] Memory required for data: 1208220960
I0403 15:19:29.686409  2960 layer_factory.hpp:77] Creating layer loss2/relu_fc
I0403 15:19:29.686431  2960 net.cpp:91] Creating Layer loss2/relu_fc
I0403 15:19:29.686450  2960 net.cpp:425] loss2/relu_fc <- loss2/fc
I0403 15:19:29.686483  2960 net.cpp:386] loss2/relu_fc -> loss2/fc (in-place)
I0403 15:19:29.686831  2960 net.cpp:141] Setting up loss2/relu_fc
I0403 15:19:29.686859  2960 net.cpp:148] Top shape: 24 1024 (24576)
I0403 15:19:29.686875  2960 net.cpp:156] Memory required for data: 1208319264
I0403 15:19:29.686890  2960 layer_factory.hpp:77] Creating layer loss2/drop_fc
I0403 15:19:29.686909  2960 net.cpp:91] Creating Layer loss2/drop_fc
I0403 15:19:29.686924  2960 net.cpp:425] loss2/drop_fc <- loss2/fc
I0403 15:19:29.686944  2960 net.cpp:386] loss2/drop_fc -> loss2/fc (in-place)
I0403 15:19:29.686993  2960 net.cpp:141] Setting up loss2/drop_fc
I0403 15:19:29.687016  2960 net.cpp:148] Top shape: 24 1024 (24576)
I0403 15:19:29.687031  2960 net.cpp:156] Memory required for data: 1208417568
I0403 15:19:29.687046  2960 layer_factory.hpp:77] Creating layer loss2/classifier_plantvillage
I0403 15:19:29.687068  2960 net.cpp:91] Creating Layer loss2/classifier_plantvillage
I0403 15:19:29.687085  2960 net.cpp:425] loss2/classifier_plantvillage <- loss2/fc
I0403 15:19:29.687106  2960 net.cpp:399] loss2/classifier_plantvillage -> loss2/classifier_plantvillage
I0403 15:19:29.687566  2960 net.cpp:141] Setting up loss2/classifier_plantvillage
I0403 15:19:29.687593  2960 net.cpp:148] Top shape: 24 38 (912)
I0403 15:19:29.687636  2960 net.cpp:156] Memory required for data: 1208421216
I0403 15:19:29.687656  2960 layer_factory.hpp:77] Creating layer loss2/classifier_plantvillage_loss2/classifier_plantvillage_0_split
I0403 15:19:29.687690  2960 net.cpp:91] Creating Layer loss2/classifier_plantvillage_loss2/classifier_plantvillage_0_split
I0403 15:19:29.687707  2960 net.cpp:425] loss2/classifier_plantvillage_loss2/classifier_plantvillage_0_split <- loss2/classifier_plantvillage
I0403 15:19:29.687726  2960 net.cpp:399] loss2/classifier_plantvillage_loss2/classifier_plantvillage_0_split -> loss2/classifier_plantvillage_loss2/classifier_plantvillage_0_split_0
I0403 15:19:29.687748  2960 net.cpp:399] loss2/classifier_plantvillage_loss2/classifier_plantvillage_0_split -> loss2/classifier_plantvillage_loss2/classifier_plantvillage_0_split_1
I0403 15:19:29.687769  2960 net.cpp:399] loss2/classifier_plantvillage_loss2/classifier_plantvillage_0_split -> loss2/classifier_plantvillage_loss2/classifier_plantvillage_0_split_2
I0403 15:19:29.687852  2960 net.cpp:141] Setting up loss2/classifier_plantvillage_loss2/classifier_plantvillage_0_split
I0403 15:19:29.687876  2960 net.cpp:148] Top shape: 24 38 (912)
I0403 15:19:29.687893  2960 net.cpp:148] Top shape: 24 38 (912)
I0403 15:19:29.687909  2960 net.cpp:148] Top shape: 24 38 (912)
I0403 15:19:29.687923  2960 net.cpp:156] Memory required for data: 1208432160
I0403 15:19:29.687938  2960 layer_factory.hpp:77] Creating layer inception_4e/1x1
I0403 15:19:29.687959  2960 net.cpp:91] Creating Layer inception_4e/1x1
I0403 15:19:29.687976  2960 net.cpp:425] inception_4e/1x1 <- inception_4d/output_inception_4d/output_0_split_1
I0403 15:19:29.687999  2960 net.cpp:399] inception_4e/1x1 -> inception_4e/1x1
I0403 15:19:29.689951  2960 net.cpp:141] Setting up inception_4e/1x1
I0403 15:19:29.689980  2960 net.cpp:148] Top shape: 24 256 14 14 (1204224)
I0403 15:19:29.689996  2960 net.cpp:156] Memory required for data: 1213249056
I0403 15:19:29.690016  2960 layer_factory.hpp:77] Creating layer inception_4e/relu_1x1
I0403 15:19:29.690035  2960 net.cpp:91] Creating Layer inception_4e/relu_1x1
I0403 15:19:29.690053  2960 net.cpp:425] inception_4e/relu_1x1 <- inception_4e/1x1
I0403 15:19:29.690070  2960 net.cpp:386] inception_4e/relu_1x1 -> inception_4e/1x1 (in-place)
I0403 15:19:29.690382  2960 net.cpp:141] Setting up inception_4e/relu_1x1
I0403 15:19:29.690409  2960 net.cpp:148] Top shape: 24 256 14 14 (1204224)
I0403 15:19:29.690424  2960 net.cpp:156] Memory required for data: 1218065952
I0403 15:19:29.690439  2960 layer_factory.hpp:77] Creating layer inception_4e/3x3_reduce
I0403 15:19:29.690464  2960 net.cpp:91] Creating Layer inception_4e/3x3_reduce
I0403 15:19:29.690481  2960 net.cpp:425] inception_4e/3x3_reduce <- inception_4d/output_inception_4d/output_0_split_2
I0403 15:19:29.690505  2960 net.cpp:399] inception_4e/3x3_reduce -> inception_4e/3x3_reduce
I0403 15:19:29.692786  2960 net.cpp:141] Setting up inception_4e/3x3_reduce
I0403 15:19:29.692816  2960 net.cpp:148] Top shape: 24 160 14 14 (752640)
I0403 15:19:29.692831  2960 net.cpp:156] Memory required for data: 1221076512
I0403 15:19:29.692850  2960 layer_factory.hpp:77] Creating layer inception_4e/relu_3x3_reduce
I0403 15:19:29.692868  2960 net.cpp:91] Creating Layer inception_4e/relu_3x3_reduce
I0403 15:19:29.692885  2960 net.cpp:425] inception_4e/relu_3x3_reduce <- inception_4e/3x3_reduce
I0403 15:19:29.692905  2960 net.cpp:386] inception_4e/relu_3x3_reduce -> inception_4e/3x3_reduce (in-place)
I0403 15:19:29.693099  2960 net.cpp:141] Setting up inception_4e/relu_3x3_reduce
I0403 15:19:29.693125  2960 net.cpp:148] Top shape: 24 160 14 14 (752640)
I0403 15:19:29.693140  2960 net.cpp:156] Memory required for data: 1224087072
I0403 15:19:29.693155  2960 layer_factory.hpp:77] Creating layer inception_4e/3x3
I0403 15:19:29.693177  2960 net.cpp:91] Creating Layer inception_4e/3x3
I0403 15:19:29.693195  2960 net.cpp:425] inception_4e/3x3 <- inception_4e/3x3_reduce
I0403 15:19:29.693217  2960 net.cpp:399] inception_4e/3x3 -> inception_4e/3x3
I0403 15:19:29.698413  2960 net.cpp:141] Setting up inception_4e/3x3
I0403 15:19:29.698456  2960 net.cpp:148] Top shape: 24 320 14 14 (1505280)
I0403 15:19:29.698472  2960 net.cpp:156] Memory required for data: 1230108192
I0403 15:19:29.698492  2960 layer_factory.hpp:77] Creating layer inception_4e/relu_3x3
I0403 15:19:29.698513  2960 net.cpp:91] Creating Layer inception_4e/relu_3x3
I0403 15:19:29.698529  2960 net.cpp:425] inception_4e/relu_3x3 <- inception_4e/3x3
I0403 15:19:29.698549  2960 net.cpp:386] inception_4e/relu_3x3 -> inception_4e/3x3 (in-place)
I0403 15:19:29.698863  2960 net.cpp:141] Setting up inception_4e/relu_3x3
I0403 15:19:29.698889  2960 net.cpp:148] Top shape: 24 320 14 14 (1505280)
I0403 15:19:29.698905  2960 net.cpp:156] Memory required for data: 1236129312
I0403 15:19:29.698920  2960 layer_factory.hpp:77] Creating layer inception_4e/5x5_reduce
I0403 15:19:29.698945  2960 net.cpp:91] Creating Layer inception_4e/5x5_reduce
I0403 15:19:29.698964  2960 net.cpp:425] inception_4e/5x5_reduce <- inception_4d/output_inception_4d/output_0_split_3
I0403 15:19:29.698983  2960 net.cpp:399] inception_4e/5x5_reduce -> inception_4e/5x5_reduce
I0403 15:19:29.700095  2960 net.cpp:141] Setting up inception_4e/5x5_reduce
I0403 15:19:29.700124  2960 net.cpp:148] Top shape: 24 32 14 14 (150528)
I0403 15:19:29.700140  2960 net.cpp:156] Memory required for data: 1236731424
I0403 15:19:29.700158  2960 layer_factory.hpp:77] Creating layer inception_4e/relu_5x5_reduce
I0403 15:19:29.700177  2960 net.cpp:91] Creating Layer inception_4e/relu_5x5_reduce
I0403 15:19:29.700193  2960 net.cpp:425] inception_4e/relu_5x5_reduce <- inception_4e/5x5_reduce
I0403 15:19:29.700213  2960 net.cpp:386] inception_4e/relu_5x5_reduce -> inception_4e/5x5_reduce (in-place)
I0403 15:19:29.700553  2960 net.cpp:141] Setting up inception_4e/relu_5x5_reduce
I0403 15:19:29.700593  2960 net.cpp:148] Top shape: 24 32 14 14 (150528)
I0403 15:19:29.700608  2960 net.cpp:156] Memory required for data: 1237333536
I0403 15:19:29.700623  2960 layer_factory.hpp:77] Creating layer inception_4e/5x5
I0403 15:19:29.700665  2960 net.cpp:91] Creating Layer inception_4e/5x5
I0403 15:19:29.700685  2960 net.cpp:425] inception_4e/5x5 <- inception_4e/5x5_reduce
I0403 15:19:29.700706  2960 net.cpp:399] inception_4e/5x5 -> inception_4e/5x5
I0403 15:19:29.702680  2960 net.cpp:141] Setting up inception_4e/5x5
I0403 15:19:29.702711  2960 net.cpp:148] Top shape: 24 128 14 14 (602112)
I0403 15:19:29.702728  2960 net.cpp:156] Memory required for data: 1239741984
I0403 15:19:29.702747  2960 layer_factory.hpp:77] Creating layer inception_4e/relu_5x5
I0403 15:19:29.702765  2960 net.cpp:91] Creating Layer inception_4e/relu_5x5
I0403 15:19:29.702781  2960 net.cpp:425] inception_4e/relu_5x5 <- inception_4e/5x5
I0403 15:19:29.702801  2960 net.cpp:386] inception_4e/relu_5x5 -> inception_4e/5x5 (in-place)
I0403 15:19:29.703002  2960 net.cpp:141] Setting up inception_4e/relu_5x5
I0403 15:19:29.703027  2960 net.cpp:148] Top shape: 24 128 14 14 (602112)
I0403 15:19:29.703042  2960 net.cpp:156] Memory required for data: 1242150432
I0403 15:19:29.703055  2960 layer_factory.hpp:77] Creating layer inception_4e/pool
I0403 15:19:29.703073  2960 net.cpp:91] Creating Layer inception_4e/pool
I0403 15:19:29.703089  2960 net.cpp:425] inception_4e/pool <- inception_4d/output_inception_4d/output_0_split_4
I0403 15:19:29.703111  2960 net.cpp:399] inception_4e/pool -> inception_4e/pool
I0403 15:19:29.703182  2960 net.cpp:141] Setting up inception_4e/pool
I0403 15:19:29.703207  2960 net.cpp:148] Top shape: 24 528 14 14 (2483712)
I0403 15:19:29.703222  2960 net.cpp:156] Memory required for data: 1252085280
I0403 15:19:29.703235  2960 layer_factory.hpp:77] Creating layer inception_4e/pool_proj
I0403 15:19:29.703258  2960 net.cpp:91] Creating Layer inception_4e/pool_proj
I0403 15:19:29.703279  2960 net.cpp:425] inception_4e/pool_proj <- inception_4e/pool
I0403 15:19:29.703302  2960 net.cpp:399] inception_4e/pool_proj -> inception_4e/pool_proj
I0403 15:19:29.704848  2960 net.cpp:141] Setting up inception_4e/pool_proj
I0403 15:19:29.704888  2960 net.cpp:148] Top shape: 24 128 14 14 (602112)
I0403 15:19:29.704905  2960 net.cpp:156] Memory required for data: 1254493728
I0403 15:19:29.704923  2960 layer_factory.hpp:77] Creating layer inception_4e/relu_pool_proj
I0403 15:19:29.704942  2960 net.cpp:91] Creating Layer inception_4e/relu_pool_proj
I0403 15:19:29.704958  2960 net.cpp:425] inception_4e/relu_pool_proj <- inception_4e/pool_proj
I0403 15:19:29.704975  2960 net.cpp:386] inception_4e/relu_pool_proj -> inception_4e/pool_proj (in-place)
I0403 15:19:29.705278  2960 net.cpp:141] Setting up inception_4e/relu_pool_proj
I0403 15:19:29.705309  2960 net.cpp:148] Top shape: 24 128 14 14 (602112)
I0403 15:19:29.705325  2960 net.cpp:156] Memory required for data: 1256902176
I0403 15:19:29.705340  2960 layer_factory.hpp:77] Creating layer inception_4e/output
I0403 15:19:29.705358  2960 net.cpp:91] Creating Layer inception_4e/output
I0403 15:19:29.705373  2960 net.cpp:425] inception_4e/output <- inception_4e/1x1
I0403 15:19:29.705389  2960 net.cpp:425] inception_4e/output <- inception_4e/3x3
I0403 15:19:29.705404  2960 net.cpp:425] inception_4e/output <- inception_4e/5x5
I0403 15:19:29.705420  2960 net.cpp:425] inception_4e/output <- inception_4e/pool_proj
I0403 15:19:29.705436  2960 net.cpp:399] inception_4e/output -> inception_4e/output
I0403 15:19:29.705488  2960 net.cpp:141] Setting up inception_4e/output
I0403 15:19:29.705525  2960 net.cpp:148] Top shape: 24 832 14 14 (3913728)
I0403 15:19:29.705539  2960 net.cpp:156] Memory required for data: 1272557088
I0403 15:19:29.705554  2960 layer_factory.hpp:77] Creating layer pool4/3x3_s2
I0403 15:19:29.705574  2960 net.cpp:91] Creating Layer pool4/3x3_s2
I0403 15:19:29.705591  2960 net.cpp:425] pool4/3x3_s2 <- inception_4e/output
I0403 15:19:29.705610  2960 net.cpp:399] pool4/3x3_s2 -> pool4/3x3_s2
I0403 15:19:29.705679  2960 net.cpp:141] Setting up pool4/3x3_s2
I0403 15:19:29.705704  2960 net.cpp:148] Top shape: 24 832 7 7 (978432)
I0403 15:19:29.705719  2960 net.cpp:156] Memory required for data: 1276470816
I0403 15:19:29.705734  2960 layer_factory.hpp:77] Creating layer pool4/3x3_s2_pool4/3x3_s2_0_split
I0403 15:19:29.705751  2960 net.cpp:91] Creating Layer pool4/3x3_s2_pool4/3x3_s2_0_split
I0403 15:19:29.705778  2960 net.cpp:425] pool4/3x3_s2_pool4/3x3_s2_0_split <- pool4/3x3_s2
I0403 15:19:29.705798  2960 net.cpp:399] pool4/3x3_s2_pool4/3x3_s2_0_split -> pool4/3x3_s2_pool4/3x3_s2_0_split_0
I0403 15:19:29.705819  2960 net.cpp:399] pool4/3x3_s2_pool4/3x3_s2_0_split -> pool4/3x3_s2_pool4/3x3_s2_0_split_1
I0403 15:19:29.705839  2960 net.cpp:399] pool4/3x3_s2_pool4/3x3_s2_0_split -> pool4/3x3_s2_pool4/3x3_s2_0_split_2
I0403 15:19:29.705859  2960 net.cpp:399] pool4/3x3_s2_pool4/3x3_s2_0_split -> pool4/3x3_s2_pool4/3x3_s2_0_split_3
I0403 15:19:29.705948  2960 net.cpp:141] Setting up pool4/3x3_s2_pool4/3x3_s2_0_split
I0403 15:19:29.705974  2960 net.cpp:148] Top shape: 24 832 7 7 (978432)
I0403 15:19:29.705991  2960 net.cpp:148] Top shape: 24 832 7 7 (978432)
I0403 15:19:29.706007  2960 net.cpp:148] Top shape: 24 832 7 7 (978432)
I0403 15:19:29.706023  2960 net.cpp:148] Top shape: 24 832 7 7 (978432)
I0403 15:19:29.706037  2960 net.cpp:156] Memory required for data: 1292125728
I0403 15:19:29.706050  2960 layer_factory.hpp:77] Creating layer inception_5a/1x1
I0403 15:19:29.706084  2960 net.cpp:91] Creating Layer inception_5a/1x1
I0403 15:19:29.706101  2960 net.cpp:425] inception_5a/1x1 <- pool4/3x3_s2_pool4/3x3_s2_0_split_0
I0403 15:19:29.706120  2960 net.cpp:399] inception_5a/1x1 -> inception_5a/1x1
I0403 15:19:29.708940  2960 net.cpp:141] Setting up inception_5a/1x1
I0403 15:19:29.708971  2960 net.cpp:148] Top shape: 24 256 7 7 (301056)
I0403 15:19:29.708986  2960 net.cpp:156] Memory required for data: 1293329952
I0403 15:19:29.709004  2960 layer_factory.hpp:77] Creating layer inception_5a/relu_1x1
I0403 15:19:29.709022  2960 net.cpp:91] Creating Layer inception_5a/relu_1x1
I0403 15:19:29.709038  2960 net.cpp:425] inception_5a/relu_1x1 <- inception_5a/1x1
I0403 15:19:29.709056  2960 net.cpp:386] inception_5a/relu_1x1 -> inception_5a/1x1 (in-place)
I0403 15:19:29.709367  2960 net.cpp:141] Setting up inception_5a/relu_1x1
I0403 15:19:29.709395  2960 net.cpp:148] Top shape: 24 256 7 7 (301056)
I0403 15:19:29.709410  2960 net.cpp:156] Memory required for data: 1294534176
I0403 15:19:29.709425  2960 layer_factory.hpp:77] Creating layer inception_5a/3x3_reduce
I0403 15:19:29.709446  2960 net.cpp:91] Creating Layer inception_5a/3x3_reduce
I0403 15:19:29.709463  2960 net.cpp:425] inception_5a/3x3_reduce <- pool4/3x3_s2_pool4/3x3_s2_0_split_1
I0403 15:19:29.709484  2960 net.cpp:399] inception_5a/3x3_reduce -> inception_5a/3x3_reduce
I0403 15:19:29.711872  2960 net.cpp:141] Setting up inception_5a/3x3_reduce
I0403 15:19:29.711900  2960 net.cpp:148] Top shape: 24 160 7 7 (188160)
I0403 15:19:29.711915  2960 net.cpp:156] Memory required for data: 1295286816
I0403 15:19:29.711933  2960 layer_factory.hpp:77] Creating layer inception_5a/relu_3x3_reduce
I0403 15:19:29.711954  2960 net.cpp:91] Creating Layer inception_5a/relu_3x3_reduce
I0403 15:19:29.711969  2960 net.cpp:425] inception_5a/relu_3x3_reduce <- inception_5a/3x3_reduce
I0403 15:19:29.711987  2960 net.cpp:386] inception_5a/relu_3x3_reduce -> inception_5a/3x3_reduce (in-place)
I0403 15:19:29.712180  2960 net.cpp:141] Setting up inception_5a/relu_3x3_reduce
I0403 15:19:29.712206  2960 net.cpp:148] Top shape: 24 160 7 7 (188160)
I0403 15:19:29.712221  2960 net.cpp:156] Memory required for data: 1296039456
I0403 15:19:29.712235  2960 layer_factory.hpp:77] Creating layer inception_5a/3x3
I0403 15:19:29.712256  2960 net.cpp:91] Creating Layer inception_5a/3x3
I0403 15:19:29.712296  2960 net.cpp:425] inception_5a/3x3 <- inception_5a/3x3_reduce
I0403 15:19:29.712318  2960 net.cpp:399] inception_5a/3x3 -> inception_5a/3x3
I0403 15:19:29.717346  2960 net.cpp:141] Setting up inception_5a/3x3
I0403 15:19:29.717375  2960 net.cpp:148] Top shape: 24 320 7 7 (376320)
I0403 15:19:29.717391  2960 net.cpp:156] Memory required for data: 1297544736
I0403 15:19:29.717409  2960 layer_factory.hpp:77] Creating layer inception_5a/relu_3x3
I0403 15:19:29.717427  2960 net.cpp:91] Creating Layer inception_5a/relu_3x3
I0403 15:19:29.717442  2960 net.cpp:425] inception_5a/relu_3x3 <- inception_5a/3x3
I0403 15:19:29.717461  2960 net.cpp:386] inception_5a/relu_3x3 -> inception_5a/3x3 (in-place)
I0403 15:19:29.717756  2960 net.cpp:141] Setting up inception_5a/relu_3x3
I0403 15:19:29.717782  2960 net.cpp:148] Top shape: 24 320 7 7 (376320)
I0403 15:19:29.717797  2960 net.cpp:156] Memory required for data: 1299050016
I0403 15:19:29.717810  2960 layer_factory.hpp:77] Creating layer inception_5a/5x5_reduce
I0403 15:19:29.717831  2960 net.cpp:91] Creating Layer inception_5a/5x5_reduce
I0403 15:19:29.717849  2960 net.cpp:425] inception_5a/5x5_reduce <- pool4/3x3_s2_pool4/3x3_s2_0_split_2
I0403 15:19:29.717870  2960 net.cpp:399] inception_5a/5x5_reduce -> inception_5a/5x5_reduce
I0403 15:19:29.719018  2960 net.cpp:141] Setting up inception_5a/5x5_reduce
I0403 15:19:29.719048  2960 net.cpp:148] Top shape: 24 32 7 7 (37632)
I0403 15:19:29.719063  2960 net.cpp:156] Memory required for data: 1299200544
I0403 15:19:29.719081  2960 layer_factory.hpp:77] Creating layer inception_5a/relu_5x5_reduce
I0403 15:19:29.719099  2960 net.cpp:91] Creating Layer inception_5a/relu_5x5_reduce
I0403 15:19:29.719117  2960 net.cpp:425] inception_5a/relu_5x5_reduce <- inception_5a/5x5_reduce
I0403 15:19:29.719135  2960 net.cpp:386] inception_5a/relu_5x5_reduce -> inception_5a/5x5_reduce (in-place)
I0403 15:19:29.719445  2960 net.cpp:141] Setting up inception_5a/relu_5x5_reduce
I0403 15:19:29.719471  2960 net.cpp:148] Top shape: 24 32 7 7 (37632)
I0403 15:19:29.719485  2960 net.cpp:156] Memory required for data: 1299351072
I0403 15:19:29.719501  2960 layer_factory.hpp:77] Creating layer inception_5a/5x5
I0403 15:19:29.719521  2960 net.cpp:91] Creating Layer inception_5a/5x5
I0403 15:19:29.719538  2960 net.cpp:425] inception_5a/5x5 <- inception_5a/5x5_reduce
I0403 15:19:29.719559  2960 net.cpp:399] inception_5a/5x5 -> inception_5a/5x5
I0403 15:19:29.721282  2960 net.cpp:141] Setting up inception_5a/5x5
I0403 15:19:29.721321  2960 net.cpp:148] Top shape: 24 128 7 7 (150528)
I0403 15:19:29.721338  2960 net.cpp:156] Memory required for data: 1299953184
I0403 15:19:29.721354  2960 layer_factory.hpp:77] Creating layer inception_5a/relu_5x5
I0403 15:19:29.721372  2960 net.cpp:91] Creating Layer inception_5a/relu_5x5
I0403 15:19:29.721388  2960 net.cpp:425] inception_5a/relu_5x5 <- inception_5a/5x5
I0403 15:19:29.721406  2960 net.cpp:386] inception_5a/relu_5x5 -> inception_5a/5x5 (in-place)
I0403 15:19:29.721597  2960 net.cpp:141] Setting up inception_5a/relu_5x5
I0403 15:19:29.721621  2960 net.cpp:148] Top shape: 24 128 7 7 (150528)
I0403 15:19:29.721635  2960 net.cpp:156] Memory required for data: 1300555296
I0403 15:19:29.721650  2960 layer_factory.hpp:77] Creating layer inception_5a/pool
I0403 15:19:29.721668  2960 net.cpp:91] Creating Layer inception_5a/pool
I0403 15:19:29.721685  2960 net.cpp:425] inception_5a/pool <- pool4/3x3_s2_pool4/3x3_s2_0_split_3
I0403 15:19:29.721704  2960 net.cpp:399] inception_5a/pool -> inception_5a/pool
I0403 15:19:29.721771  2960 net.cpp:141] Setting up inception_5a/pool
I0403 15:19:29.721794  2960 net.cpp:148] Top shape: 24 832 7 7 (978432)
I0403 15:19:29.721808  2960 net.cpp:156] Memory required for data: 1304469024
I0403 15:19:29.721822  2960 layer_factory.hpp:77] Creating layer inception_5a/pool_proj
I0403 15:19:29.721843  2960 net.cpp:91] Creating Layer inception_5a/pool_proj
I0403 15:19:29.721860  2960 net.cpp:425] inception_5a/pool_proj <- inception_5a/pool
I0403 15:19:29.721880  2960 net.cpp:399] inception_5a/pool_proj -> inception_5a/pool_proj
I0403 15:19:29.724148  2960 net.cpp:141] Setting up inception_5a/pool_proj
I0403 15:19:29.724179  2960 net.cpp:148] Top shape: 24 128 7 7 (150528)
I0403 15:19:29.724195  2960 net.cpp:156] Memory required for data: 1305071136
I0403 15:19:29.724212  2960 layer_factory.hpp:77] Creating layer inception_5a/relu_pool_proj
I0403 15:19:29.724230  2960 net.cpp:91] Creating Layer inception_5a/relu_pool_proj
I0403 15:19:29.724244  2960 net.cpp:425] inception_5a/relu_pool_proj <- inception_5a/pool_proj
I0403 15:19:29.724263  2960 net.cpp:386] inception_5a/relu_pool_proj -> inception_5a/pool_proj (in-place)
I0403 15:19:29.724591  2960 net.cpp:141] Setting up inception_5a/relu_pool_proj
I0403 15:19:29.724618  2960 net.cpp:148] Top shape: 24 128 7 7 (150528)
I0403 15:19:29.724634  2960 net.cpp:156] Memory required for data: 1305673248
I0403 15:19:29.724649  2960 layer_factory.hpp:77] Creating layer inception_5a/output
I0403 15:19:29.724665  2960 net.cpp:91] Creating Layer inception_5a/output
I0403 15:19:29.724680  2960 net.cpp:425] inception_5a/output <- inception_5a/1x1
I0403 15:19:29.724696  2960 net.cpp:425] inception_5a/output <- inception_5a/3x3
I0403 15:19:29.724712  2960 net.cpp:425] inception_5a/output <- inception_5a/5x5
I0403 15:19:29.724727  2960 net.cpp:425] inception_5a/output <- inception_5a/pool_proj
I0403 15:19:29.724745  2960 net.cpp:399] inception_5a/output -> inception_5a/output
I0403 15:19:29.724794  2960 net.cpp:141] Setting up inception_5a/output
I0403 15:19:29.724817  2960 net.cpp:148] Top shape: 24 832 7 7 (978432)
I0403 15:19:29.724831  2960 net.cpp:156] Memory required for data: 1309586976
I0403 15:19:29.724845  2960 layer_factory.hpp:77] Creating layer inception_5a/output_inception_5a/output_0_split
I0403 15:19:29.724861  2960 net.cpp:91] Creating Layer inception_5a/output_inception_5a/output_0_split
I0403 15:19:29.724876  2960 net.cpp:425] inception_5a/output_inception_5a/output_0_split <- inception_5a/output
I0403 15:19:29.724896  2960 net.cpp:399] inception_5a/output_inception_5a/output_0_split -> inception_5a/output_inception_5a/output_0_split_0
I0403 15:19:29.724916  2960 net.cpp:399] inception_5a/output_inception_5a/output_0_split -> inception_5a/output_inception_5a/output_0_split_1
I0403 15:19:29.724936  2960 net.cpp:399] inception_5a/output_inception_5a/output_0_split -> inception_5a/output_inception_5a/output_0_split_2
I0403 15:19:29.724959  2960 net.cpp:399] inception_5a/output_inception_5a/output_0_split -> inception_5a/output_inception_5a/output_0_split_3
I0403 15:19:29.725067  2960 net.cpp:141] Setting up inception_5a/output_inception_5a/output_0_split
I0403 15:19:29.725090  2960 net.cpp:148] Top shape: 24 832 7 7 (978432)
I0403 15:19:29.725106  2960 net.cpp:148] Top shape: 24 832 7 7 (978432)
I0403 15:19:29.725121  2960 net.cpp:148] Top shape: 24 832 7 7 (978432)
I0403 15:19:29.725136  2960 net.cpp:148] Top shape: 24 832 7 7 (978432)
I0403 15:19:29.725149  2960 net.cpp:156] Memory required for data: 1325241888
I0403 15:19:29.725164  2960 layer_factory.hpp:77] Creating layer inception_5b/1x1
I0403 15:19:29.725185  2960 net.cpp:91] Creating Layer inception_5b/1x1
I0403 15:19:29.725203  2960 net.cpp:425] inception_5b/1x1 <- inception_5a/output_inception_5a/output_0_split_0
I0403 15:19:29.725224  2960 net.cpp:399] inception_5b/1x1 -> inception_5b/1x1
I0403 15:19:29.728938  2960 net.cpp:141] Setting up inception_5b/1x1
I0403 15:19:29.728970  2960 net.cpp:148] Top shape: 24 384 7 7 (451584)
I0403 15:19:29.728987  2960 net.cpp:156] Memory required for data: 1327048224
I0403 15:19:29.729006  2960 layer_factory.hpp:77] Creating layer inception_5b/relu_1x1
I0403 15:19:29.729023  2960 net.cpp:91] Creating Layer inception_5b/relu_1x1
I0403 15:19:29.729039  2960 net.cpp:425] inception_5b/relu_1x1 <- inception_5b/1x1
I0403 15:19:29.729056  2960 net.cpp:386] inception_5b/relu_1x1 -> inception_5b/1x1 (in-place)
I0403 15:19:29.729365  2960 net.cpp:141] Setting up inception_5b/relu_1x1
I0403 15:19:29.729392  2960 net.cpp:148] Top shape: 24 384 7 7 (451584)
I0403 15:19:29.729409  2960 net.cpp:156] Memory required for data: 1328854560
I0403 15:19:29.729423  2960 layer_factory.hpp:77] Creating layer inception_5b/3x3_reduce
I0403 15:19:29.729444  2960 net.cpp:91] Creating Layer inception_5b/3x3_reduce
I0403 15:19:29.729460  2960 net.cpp:425] inception_5b/3x3_reduce <- inception_5a/output_inception_5a/output_0_split_1
I0403 15:19:29.729480  2960 net.cpp:399] inception_5b/3x3_reduce -> inception_5b/3x3_reduce
I0403 15:19:29.732100  2960 net.cpp:141] Setting up inception_5b/3x3_reduce
I0403 15:19:29.732127  2960 net.cpp:148] Top shape: 24 192 7 7 (225792)
I0403 15:19:29.732143  2960 net.cpp:156] Memory required for data: 1329757728
I0403 15:19:29.732161  2960 layer_factory.hpp:77] Creating layer inception_5b/relu_3x3_reduce
I0403 15:19:29.732180  2960 net.cpp:91] Creating Layer inception_5b/relu_3x3_reduce
I0403 15:19:29.732197  2960 net.cpp:425] inception_5b/relu_3x3_reduce <- inception_5b/3x3_reduce
I0403 15:19:29.732213  2960 net.cpp:386] inception_5b/relu_3x3_reduce -> inception_5b/3x3_reduce (in-place)
I0403 15:19:29.732432  2960 net.cpp:141] Setting up inception_5b/relu_3x3_reduce
I0403 15:19:29.732458  2960 net.cpp:148] Top shape: 24 192 7 7 (225792)
I0403 15:19:29.732473  2960 net.cpp:156] Memory required for data: 1330660896
I0403 15:19:29.732488  2960 layer_factory.hpp:77] Creating layer inception_5b/3x3
I0403 15:19:29.732511  2960 net.cpp:91] Creating Layer inception_5b/3x3
I0403 15:19:29.732529  2960 net.cpp:425] inception_5b/3x3 <- inception_5b/3x3_reduce
I0403 15:19:29.732552  2960 net.cpp:399] inception_5b/3x3 -> inception_5b/3x3
I0403 15:19:29.739181  2960 net.cpp:141] Setting up inception_5b/3x3
I0403 15:19:29.739209  2960 net.cpp:148] Top shape: 24 384 7 7 (451584)
I0403 15:19:29.739225  2960 net.cpp:156] Memory required for data: 1332467232
I0403 15:19:29.739243  2960 layer_factory.hpp:77] Creating layer inception_5b/relu_3x3
I0403 15:19:29.739260  2960 net.cpp:91] Creating Layer inception_5b/relu_3x3
I0403 15:19:29.739281  2960 net.cpp:425] inception_5b/relu_3x3 <- inception_5b/3x3
I0403 15:19:29.739302  2960 net.cpp:386] inception_5b/relu_3x3 -> inception_5b/3x3 (in-place)
I0403 15:19:29.739599  2960 net.cpp:141] Setting up inception_5b/relu_3x3
I0403 15:19:29.739626  2960 net.cpp:148] Top shape: 24 384 7 7 (451584)
I0403 15:19:29.739641  2960 net.cpp:156] Memory required for data: 1334273568
I0403 15:19:29.739655  2960 layer_factory.hpp:77] Creating layer inception_5b/5x5_reduce
I0403 15:19:29.739692  2960 net.cpp:91] Creating Layer inception_5b/5x5_reduce
I0403 15:19:29.739711  2960 net.cpp:425] inception_5b/5x5_reduce <- inception_5a/output_inception_5a/output_0_split_2
I0403 15:19:29.739729  2960 net.cpp:399] inception_5b/5x5_reduce -> inception_5b/5x5_reduce
I0403 15:19:29.741034  2960 net.cpp:141] Setting up inception_5b/5x5_reduce
I0403 15:19:29.741065  2960 net.cpp:148] Top shape: 24 48 7 7 (56448)
I0403 15:19:29.741081  2960 net.cpp:156] Memory required for data: 1334499360
I0403 15:19:29.741098  2960 layer_factory.hpp:77] Creating layer inception_5b/relu_5x5_reduce
I0403 15:19:29.741117  2960 net.cpp:91] Creating Layer inception_5b/relu_5x5_reduce
I0403 15:19:29.741133  2960 net.cpp:425] inception_5b/relu_5x5_reduce <- inception_5b/5x5_reduce
I0403 15:19:29.741152  2960 net.cpp:386] inception_5b/relu_5x5_reduce -> inception_5b/5x5_reduce (in-place)
I0403 15:19:29.741533  2960 net.cpp:141] Setting up inception_5b/relu_5x5_reduce
I0403 15:19:29.741559  2960 net.cpp:148] Top shape: 24 48 7 7 (56448)
I0403 15:19:29.741575  2960 net.cpp:156] Memory required for data: 1334725152
I0403 15:19:29.741590  2960 layer_factory.hpp:77] Creating layer inception_5b/5x5
I0403 15:19:29.741611  2960 net.cpp:91] Creating Layer inception_5b/5x5
I0403 15:19:29.741627  2960 net.cpp:425] inception_5b/5x5 <- inception_5b/5x5_reduce
I0403 15:19:29.741647  2960 net.cpp:399] inception_5b/5x5 -> inception_5b/5x5
I0403 15:19:29.743726  2960 net.cpp:141] Setting up inception_5b/5x5
I0403 15:19:29.743757  2960 net.cpp:148] Top shape: 24 128 7 7 (150528)
I0403 15:19:29.743772  2960 net.cpp:156] Memory required for data: 1335327264
I0403 15:19:29.743790  2960 layer_factory.hpp:77] Creating layer inception_5b/relu_5x5
I0403 15:19:29.743808  2960 net.cpp:91] Creating Layer inception_5b/relu_5x5
I0403 15:19:29.743824  2960 net.cpp:425] inception_5b/relu_5x5 <- inception_5b/5x5
I0403 15:19:29.743844  2960 net.cpp:386] inception_5b/relu_5x5 -> inception_5b/5x5 (in-place)
I0403 15:19:29.744045  2960 net.cpp:141] Setting up inception_5b/relu_5x5
I0403 15:19:29.744070  2960 net.cpp:148] Top shape: 24 128 7 7 (150528)
I0403 15:19:29.744084  2960 net.cpp:156] Memory required for data: 1335929376
I0403 15:19:29.744099  2960 layer_factory.hpp:77] Creating layer inception_5b/pool
I0403 15:19:29.744117  2960 net.cpp:91] Creating Layer inception_5b/pool
I0403 15:19:29.744132  2960 net.cpp:425] inception_5b/pool <- inception_5a/output_inception_5a/output_0_split_3
I0403 15:19:29.744153  2960 net.cpp:399] inception_5b/pool -> inception_5b/pool
I0403 15:19:29.744227  2960 net.cpp:141] Setting up inception_5b/pool
I0403 15:19:29.744251  2960 net.cpp:148] Top shape: 24 832 7 7 (978432)
I0403 15:19:29.744266  2960 net.cpp:156] Memory required for data: 1339843104
I0403 15:19:29.744299  2960 layer_factory.hpp:77] Creating layer inception_5b/pool_proj
I0403 15:19:29.744323  2960 net.cpp:91] Creating Layer inception_5b/pool_proj
I0403 15:19:29.744341  2960 net.cpp:425] inception_5b/pool_proj <- inception_5b/pool
I0403 15:19:29.744362  2960 net.cpp:399] inception_5b/pool_proj -> inception_5b/pool_proj
I0403 15:19:29.746717  2960 net.cpp:141] Setting up inception_5b/pool_proj
I0403 15:19:29.746748  2960 net.cpp:148] Top shape: 24 128 7 7 (150528)
I0403 15:19:29.746765  2960 net.cpp:156] Memory required for data: 1340445216
I0403 15:19:29.746783  2960 layer_factory.hpp:77] Creating layer inception_5b/relu_pool_proj
I0403 15:19:29.746800  2960 net.cpp:91] Creating Layer inception_5b/relu_pool_proj
I0403 15:19:29.746816  2960 net.cpp:425] inception_5b/relu_pool_proj <- inception_5b/pool_proj
I0403 15:19:29.746834  2960 net.cpp:386] inception_5b/relu_pool_proj -> inception_5b/pool_proj (in-place)
I0403 15:19:29.747144  2960 net.cpp:141] Setting up inception_5b/relu_pool_proj
I0403 15:19:29.747172  2960 net.cpp:148] Top shape: 24 128 7 7 (150528)
I0403 15:19:29.747190  2960 net.cpp:156] Memory required for data: 1341047328
I0403 15:19:29.747205  2960 layer_factory.hpp:77] Creating layer inception_5b/output
I0403 15:19:29.747222  2960 net.cpp:91] Creating Layer inception_5b/output
I0403 15:19:29.747251  2960 net.cpp:425] inception_5b/output <- inception_5b/1x1
I0403 15:19:29.747269  2960 net.cpp:425] inception_5b/output <- inception_5b/3x3
I0403 15:19:29.747292  2960 net.cpp:425] inception_5b/output <- inception_5b/5x5
I0403 15:19:29.747308  2960 net.cpp:425] inception_5b/output <- inception_5b/pool_proj
I0403 15:19:29.747324  2960 net.cpp:399] inception_5b/output -> inception_5b/output
I0403 15:19:29.747377  2960 net.cpp:141] Setting up inception_5b/output
I0403 15:19:29.747402  2960 net.cpp:148] Top shape: 24 1024 7 7 (1204224)
I0403 15:19:29.747417  2960 net.cpp:156] Memory required for data: 1345864224
I0403 15:19:29.747431  2960 layer_factory.hpp:77] Creating layer pool5/7x7_s1
I0403 15:19:29.747452  2960 net.cpp:91] Creating Layer pool5/7x7_s1
I0403 15:19:29.747467  2960 net.cpp:425] pool5/7x7_s1 <- inception_5b/output
I0403 15:19:29.747485  2960 net.cpp:399] pool5/7x7_s1 -> pool5/7x7_s1
I0403 15:19:29.747705  2960 net.cpp:141] Setting up pool5/7x7_s1
I0403 15:19:29.747730  2960 net.cpp:148] Top shape: 24 1024 1 1 (24576)
I0403 15:19:29.747745  2960 net.cpp:156] Memory required for data: 1345962528
I0403 15:19:29.747761  2960 layer_factory.hpp:77] Creating layer pool5/drop_7x7_s1
I0403 15:19:29.747777  2960 net.cpp:91] Creating Layer pool5/drop_7x7_s1
I0403 15:19:29.747792  2960 net.cpp:425] pool5/drop_7x7_s1 <- pool5/7x7_s1
I0403 15:19:29.747812  2960 net.cpp:386] pool5/drop_7x7_s1 -> pool5/7x7_s1 (in-place)
I0403 15:19:29.747861  2960 net.cpp:141] Setting up pool5/drop_7x7_s1
I0403 15:19:29.747884  2960 net.cpp:148] Top shape: 24 1024 1 1 (24576)
I0403 15:19:29.747902  2960 net.cpp:156] Memory required for data: 1346060832
I0403 15:19:29.747917  2960 layer_factory.hpp:77] Creating layer loss3/classifier_plantvillage
I0403 15:19:29.747936  2960 net.cpp:91] Creating Layer loss3/classifier_plantvillage
I0403 15:19:29.747952  2960 net.cpp:425] loss3/classifier_plantvillage <- pool5/7x7_s1
I0403 15:19:29.747972  2960 net.cpp:399] loss3/classifier_plantvillage -> loss3/classifier_plantvillage
I0403 15:19:29.748425  2960 net.cpp:141] Setting up loss3/classifier_plantvillage
I0403 15:19:29.748451  2960 net.cpp:148] Top shape: 24 38 (912)
I0403 15:19:29.748466  2960 net.cpp:156] Memory required for data: 1346064480
I0403 15:19:29.748484  2960 layer_factory.hpp:77] Creating layer loss3/classifier_plantvillage_loss3/classifier_plantvillage_0_split
I0403 15:19:29.748505  2960 net.cpp:91] Creating Layer loss3/classifier_plantvillage_loss3/classifier_plantvillage_0_split
I0403 15:19:29.748523  2960 net.cpp:425] loss3/classifier_plantvillage_loss3/classifier_plantvillage_0_split <- loss3/classifier_plantvillage
I0403 15:19:29.748541  2960 net.cpp:399] loss3/classifier_plantvillage_loss3/classifier_plantvillage_0_split -> loss3/classifier_plantvillage_loss3/classifier_plantvillage_0_split_0
I0403 15:19:29.748563  2960 net.cpp:399] loss3/classifier_plantvillage_loss3/classifier_plantvillage_0_split -> loss3/classifier_plantvillage_loss3/classifier_plantvillage_0_split_1
I0403 15:19:29.748594  2960 net.cpp:399] loss3/classifier_plantvillage_loss3/classifier_plantvillage_0_split -> loss3/classifier_plantvillage_loss3/classifier_plantvillage_0_split_2
I0403 15:19:29.748620  2960 net.cpp:399] loss3/classifier_plantvillage_loss3/classifier_plantvillage_0_split -> loss3/classifier_plantvillage_loss3/classifier_plantvillage_0_split_3
I0403 15:19:29.748725  2960 net.cpp:141] Setting up loss3/classifier_plantvillage_loss3/classifier_plantvillage_0_split
I0403 15:19:29.748749  2960 net.cpp:148] Top shape: 24 38 (912)
I0403 15:19:29.748764  2960 net.cpp:148] Top shape: 24 38 (912)
I0403 15:19:29.748780  2960 net.cpp:148] Top shape: 24 38 (912)
I0403 15:19:29.748795  2960 net.cpp:148] Top shape: 24 38 (912)
I0403 15:19:29.748808  2960 net.cpp:156] Memory required for data: 1346079072
I0403 15:19:29.748823  2960 layer_factory.hpp:77] Creating layer loss1/loss
I0403 15:19:29.748844  2960 net.cpp:91] Creating Layer loss1/loss
I0403 15:19:29.748862  2960 net.cpp:425] loss1/loss <- loss1/classifier_plantvillage_loss1/classifier_plantvillage_0_split_0
I0403 15:19:29.748893  2960 net.cpp:425] loss1/loss <- label_data_1_split_0
…
