…
I0403 15:23:01.563902  3025 net.cpp:313] The NetState phase (1) differed from the phase (0) specified by a rule in layer data
I0403 15:23:01.565012  3025 net.cpp:49] Initializing net from parameters: 
state {
  phase: TEST
}
layer {
  name: "data"
  type: "Data"
  top: "data"
  top: "label"
  include {
    phase: TEST
  }
  transform_param {
    mirror: false
    crop_size: 224
    mean_file: "/home/mohanty/data/final_dataset/lmdb/grayscale-50-50/mean.binaryproto"
  }
  data_param {
    source: "/home/mohanty/data/final_dataset/lmdb/grayscale-50-50/test_db"
    batch_size: 24
    backend: LMDB
  }
}
layer {
  name: "conv1/7x7_s2"
  type: "Convolution"
  bottom: "data"
  top: "conv1/7x7_s2"
  param {
    lr_mult: 1
    decay_mult: 1
  }
  param {
    lr_mult: 2
    decay_mult: 0
  }
  convolution_param {
    num_output: 64
    pad: 3
    kernel_size: 7
    stride: 2
    weight_filler {
      type: "xavier"
      std: 0.1
    }
    bias_filler {
      type: "constant"
      value: 0.2
    }
  }
}
layer {
  name: "conv1/relu_7x7"
  type: "ReLU"
  bottom: "conv1/7x7_s2"
  top: "conv1/7x7_s2"
}
layer {
  name: "pool1/3x3_s2"
  type: "Pooling"
  bottom: "conv1/7x7_s2"
  top: "pool1/3x3_s2"
  pooling_param {
    pool: MAX
    kernel_size: 3
    stride: 2
  }
}
layer {
  name: "pool1/norm1"
  type: "LRN"
  bottom: "pool1/3x3_s2"
  top: "pool1/norm1"
  lrn_param {
    local_size: 5
    alpha: 0.0001
    beta: 0.75
  }
}
layer {
  name: "conv2/3x3_reduce"
  type: "Convolution"
  bottom: "pool1/norm1"
  top: "conv2/3x3_reduce"
  param {
    lr_mult: 1
    decay_mult: 1
  }
  param {
    lr_mult: 2
    decay_mult: 0
  }
  convolution_param {
    num_output: 64
    kernel_size: 1
    weight_filler {
      type: "xavier"
      std: 0.1
    }
    bias_filler {
      type: "constant"
      value: 0.2
    }
  }
}
layer {
  name: "conv2/relu_3x3_reduce"
  type: "ReLU"
  bottom: "conv2/3x3_reduce"
  top: "conv2/3x3_reduce"
}
layer {
  name: "conv2/3x3"
  type: "Convolution"
  bottom: "conv2/3x3_reduce"
  top: "conv2/3x3"
  param {
    lr_mult: 1
    decay_mult: 1
  }
  param {
    lr_mult: 2
    decay_mult: 0
  }
  convolution_param {
    num_output: 192
    pad: 1
    kernel_size: 3
    weight_filler {
      type: "xavier"
      std: 0.03
    }
    bias_filler {
      type: "constant"
      value: 0.2
    }
  }
}
layer {
  name: "conv2/relu_3x3"
  type: "ReLU"
  bottom: "conv2/3x3"
  top: "conv2/3x3"
}
layer {
  name: "conv2/norm2"
  type: "LRN"
  bottom: "conv2/3x3"
  top: "conv2/norm2"
  lrn_param {
    local_size: 5
    alpha: 0.0001
    beta: 0.75
  }
}
layer {
  name: "pool2/3x3_s2"
  type: "Pooling"
  bottom: "conv2/norm2"
  top: "pool2/3x3_s2"
  pooling_param {
    pool: MAX
    kernel_size: 3
    stride: 2
  }
}
layer {
  name: "inception_3a/1x1"
  type: "Convolution"
  bottom: "pool2/3x3_s2"
  top: "inception_3a/1x1"
  param {
    lr_mult: 1
    decay_mult: 1
  }
  param {
    lr_mult: 2
    decay_mult: 0
  }
  convolution_param {
    num_output: 64
    kernel_size: 1
    weight_filler {
      type: "xavier"
      std: 0.03
    }
    bias_filler {
      type: "constant"
      value: 0.2
    }
  }
}
layer {
  name: "inception_3a/relu_1x1"
  type: "ReLU"
  bottom: "inception_3a/1x1"
  top: "inception_3a/1x1"
}
layer {
  name: "inception_3a/3x3_reduce"
  type: "Convolution"
  bottom: "pool2/3x3_s2"
  top: "inception_3a/3x3_reduce"
  param {
    lr_mult: 1
    decay_mult: 1
  }
  param {
    lr_mult: 2
    decay_mult: 0
  }
  convolution_param {
    num_output: 96
    kernel_size: 1
    weight_filler {
      type: "xavier"
      std: 0.09
    }
    bias_filler {
      type: "constant"
      value: 0.2
    }
  }
}
layer {
  name: "inception_3a/relu_3x3_reduce"
  type: "ReLU"
  bottom: "inception_3a/3x3_reduce"
  top: "inception_3a/3x3_reduce"
}
layer {
  name: "inception_3a/3x3"
  type: "Convolution"
  bottom: "inception_3a/3x3_reduce"
  top: "inception_3a/3x3"
  param {
    lr_mult: 1
    decay_mult: 1
  }
  param {
    lr_mult: 2
    decay_mult: 0
  }
  convolution_param {
    num_output: 128
    pad: 1
    kernel_size: 3
    weight_filler {
      type: "xavier"
      std: 0.03
    }
    bias_filler {
      type: "constant"
      value: 0.2
    }
  }
}
layer {
  name: "inception_3a/relu_3x3"
  type: "ReLU"
  bottom: "inception_3a/3x3"
  top: "inception_3a/3x3"
}
layer {
  name: "inception_3a/5x5_reduce"
  type: "Convolution"
  bottom: "pool2/3x3_s2"
  top: "inception_3a/5x5_reduce"
  param {
    lr_mult: 1
    decay_mult: 1
  }
  param {
    lr_mult: 2
    decay_mult: 0
  }
  convolution_param {
    num_output: 16
    kernel_size: 1
    weight_filler {
      type: "xavier"
      std: 0.2
    }
    bias_filler {
      type: "constant"
      value: 0.2
    }
  }
}
layer {
  name: "inception_3a/relu_5x5_reduce"
  type: "ReLU"
  bottom: "inception_3a/5x5_reduce"
  top: "inception_3a/5x5_reduce"
}
layer {
  name: "inception_3a/5x5"
  type: "Convolution"
  bottom: "inception_3a/5x5_reduce"
  top: "inception_3a/5x5"
  param {
    lr_mult: 1
    decay_mult: 1
  }
  param {
    lr_mult: 2
    decay_mult: 0
  }
  convolution_param {
    num_output: 32
    pad: 2
    kernel_size: 5
    weight_filler {
      type: "xavier"
      std: 0.03
    }
    bias_filler {
      type: "constant"
      value: 0.2
    }
  }
}
layer {
  name: "inception_3a/relu_5x5"
  type: "ReLU"
  bottom: "inception_3a/5x5"
  top: "inception_3a/5x5"
}
layer {
  name: "inception_3a/pool"
  type: "Pooling"
  bottom: "pool2/3x3_s2"
  top: "inception_3a/pool"
  pooling_param {
    pool: MAX
    kernel_size: 3
    stride: 1
    pad: 1
  }
}
layer {
  name: "inception_3a/pool_proj"
  type: "Convolution"
  bottom: "inception_3a/pool"
  top: "inception_3a/pool_proj"
  param {
    lr_mult: 1
    decay_mult: 1
  }
  param {
    lr_mult: 2
    decay_mult: 0
  }
  convolution_param {
    num_output: 32
    kernel_size: 1
    weight_filler {
      type: "xavier"
      std: 0.1
    }
    bias_filler {
      type: "constant"
      value: 0.2
    }
  }
}
layer {
  name: "inception_3a/relu_pool_proj"
  type: "ReLU"
  bottom: "inception_3a/pool_proj"
  top: "inception_3a/pool_proj"
}
layer {
  name: "inception_3a/output"
  type: "Concat"
  bottom: "inception_3a/1x1"
  bottom: "inception_3a/3x3"
  bottom: "inception_3a/5x5"
  bottom: "inception_3a/pool_proj"
  top: "inception_3a/output"
}
layer {
  name: "inception_3b/1x1"
  type: "Convolution"
  bottom: "inception_3a/output"
  top: "inception_3b/1x1"
  param {
    lr_mult: 1
    decay_mult: 1
  }
  param {
    lr_mult: 2
    decay_mult: 0
  }
  convolution_param {
    num_output: 128
    kernel_size: 1
    weight_filler {
      type: "xavier"
      std: 0.03
    }
    bias_filler {
      type: "constant"
      value: 0.2
    }
  }
}
layer {
  name: "inception_3b/relu_1x1"
  type: "ReLU"
  bottom: "inception_3b/1x1"
  top: "inception_3b/1x1"
}
layer {
  name: "inception_3b/3x3_reduce"
  type: "Convolution"
  bottom: "inception_3a/output"
  top: "inception_3b/3x3_reduce"
  param {
    lr_mult: 1
    decay_mult: 1
  }
  param {
    lr_mult: 2
    decay_mult: 0
  }
  convolution_param {
    num_output: 128
    kernel_size: 1
    weight_filler {
      type: "xavier"
      std: 0.09
    }
    bias_filler {
      type: "constant"
      value: 0.2
    }
  }
}
layer {
  name: "inception_3b/relu_3x3_reduce"
  type: "ReLU"
  bottom: "inception_3b/3x3_reduce"
  top: "inception_3b/3x3_reduce"
}
layer {
  name: "inception_3b/3x3"
  type: "Convolution"
  bottom: "inception_3b/3x3_reduce"
  top: "inception_3b/3x3"
  param {
    lr_mult: 1
    decay_mult: 1
  }
  param {
    lr_mult: 2
    decay_mult: 0
  }
  convolution_param {
    num_output: 192
    pad: 1
    kernel_size: 3
    weight_filler {
      type: "xavier"
      std: 0.03
    }
    bias_filler {
      type: "constant"
      value: 0.2
    }
  }
}
layer {
  name: "inception_3b/relu_3x3"
  type: "ReLU"
  bottom: "inception_3b/3x3"
  top: "inception_3b/3x3"
}
layer {
  name: "inception_3b/5x5_reduce"
  type: "Convolution"
  bottom: "inception_3a/output"
  top: "inception_3b/5x5_reduce"
  param {
    lr_mult: 1
    decay_mult: 1
  }
  param {
    lr_mult: 2
    decay_mult: 0
  }
  convolution_param {
    num_output: 32
    kernel_size: 1
    weight_filler {
      type: "xavier"
      std: 0.2
    }
    bias_filler {
      type: "constant"
      value: 0.2
    }
  }
}
layer {
  name: "inception_3b/relu_5x5_reduce"
  type: "ReLU"
  bottom: "inception_3b/5x5_reduce"
  top: "inception_3b/5x5_reduce"
}
layer {
  name: "inception_3b/5x5"
  type: "Convolution"
  bottom: "inception_3b/5x5_reduce"
  top: "inception_3b/5x5"
  param {
    lr_mult: 1
    decay_mult: 1
  }
  param {
    lr_mult: 2
    decay_mult: 0
  }
  convolution_param {
    num_output: 96
    pad: 2
    kernel_size: 5
    weight_filler {
      type: "xavier"
      std: 0.03
    }
    bias_filler {
      type: "constant"
      value: 0.2
    }
  }
}
layer {
  name: "inception_3b/relu_5x5"
  type: "ReLU"
  bottom: "inception_3b/5x5"
  top: "inception_3b/5x5"
}
layer {
  name: "inception_3b/pool"
  type: "Pooling"
  bottom: "inception_3a/output"
  top: "inception_3b/pool"
  pooling_param {
    pool: MAX
    kernel_size: 3
    stride: 1
    pad: 1
  }
}
layer {
  name: "inception_3b/pool_proj"
  type: "Convolution"
  bottom: "inception_3b/pool"
  top: "inception_3b/pool_proj"
  param {
    lr_mult: 1
    decay_mult: 1
  }
  param {
    lr_mult: 2
    decay_mult: 0
  }
  convolution_param {
    num_output: 64
    kernel_size: 1
    weight_filler {
      type: "xavier"
      std: 0.1
    }
    bias_filler {
      type: "constant"
      value: 0.2
    }
  }
}
layer {
  name: "inception_3b/relu_pool_proj"
  type: "ReLU"
  bottom: "inception_3b/pool_proj"
  top: "inception_3b/pool_proj"
}
layer {
  name: "inception_3b/output"
  type: "Concat"
  bottom: "inception_3b/1x1"
  bottom: "inception_3b/3x3"
  bottom: "inception_3b/5x5"
  bottom: "inception_3b/pool_proj"
  top: "inception_3b/output"
}
layer {
  name: "pool3/3x3_s2"
  type: "Pooling"
  bottom: "inception_3b/output"
  top: "pool3/3x3_s2"
  pooling_param {
    pool: MAX
    kernel_size: 3
    stride: 2
  }
}
layer {
  name: "inception_4a/1x1"
  type: "Convolution"
  bottom: "pool3/3x3_s2"
  top: "inception_4a/1x1"
  param {
    lr_mult: 1
    decay_mult: 1
  }
  param {
    lr_mult: 2
    decay_mult: 0
  }
  convolution_param {
    num_output: 192
    kernel_size: 1
    weight_filler {
      type: "xavier"
      std: 0.03
    }
    bias_filler {
      type: "constant"
      value: 0.2
    }
  }
}
layer {
  name: "inception_4a/relu_1x1"
  type: "ReLU"
  bottom: "inception_4a/1x1"
  top: "inception_4a/1x1"
}
layer {
  name: "inception_4a/3x3_reduce"
  type: "Convolution"
  bottom: "pool3/3x3_s2"
  top: "inception_4a/3x3_reduce"
  param {
    lr_mult: 1
    decay_mult: 1
  }
  param {
    lr_mult: 2
    decay_mult: 0
  }
  convolution_param {
    num_output: 96
    kernel_size: 1
    weight_filler {
      type: "xavier"
      std: 0.09
    }
    bias_filler {
      type: "constant"
      value: 0.2
    }
  }
}
layer {
  name: "inception_4a/relu_3x3_reduce"
  type: "ReLU"
  bottom: "inception_4a/3x3_reduce"
  top: "inception_4a/3x3_reduce"
}
layer {
  name: "inception_4a/3x3"
  type: "Convolution"
  bottom: "inception_4a/3x3_reduce"
  top: "inception_4a/3x3"
  param {
    lr_mult: 1
    decay_mult: 1
  }
  param {
    lr_mult: 2
    decay_mult: 0
  }
  convolution_param {
    num_output: 208
    pad: 1
    kernel_size: 3
    weight_filler {
      type: "xavier"
      std: 0.03
    }
    bias_filler {
      type: "constant"
      value: 0.2
    }
  }
}
layer {
  name: "inception_4a/relu_3x3"
  type: "ReLU"
  bottom: "inception_4a/3x3"
  top: "inception_4a/3x3"
}
layer {
  name: "inception_4a/5x5_reduce"
  type: "Convolution"
  bottom: "pool3/3x3_s2"
  top: "inception_4a/5x5_reduce"
  param {
    lr_mult: 1
    decay_mult: 1
  }
  param {
    lr_mult: 2
    decay_mult: 0
  }
  convolution_param {
    num_output: 16
    kernel_size: 1
    weight_filler {
      type: "xavier"
      std: 0.2
    }
    bias_filler {
      type: "constant"
      value: 0.2
    }
  }
}
layer {
  name: "inception_4a/relu_5x5_reduce"
  type: "ReLU"
  bottom: "inception_4a/5x5_reduce"
  top: "inception_4a/5x5_reduce"
}
layer {
  name: "inception_4a/5x5"
  type: "Convolution"
  bottom: "inception_4a/5x5_reduce"
  top: "inception_4a/5x5"
  param {
    lr_mult: 1
    decay_mult: 1
  }
  param {
    lr_mult: 2
    decay_mult: 0
  }
  convolution_param {
    num_output: 48
    pad: 2
    kernel_size: 5
    weight_filler {
      type: "xavier"
      std: 0.03
    }
    bias_filler {
      type: "constant"
      value: 0.2
    }
  }
}
layer {
  name: "inception_4a/relu_5x5"
  type: "ReLU"
  bottom: "inception_4a/5x5"
  top: "inception_4a/5x5"
}
layer {
  name: "inception_4a/pool"
  type: "Pooling"
  bottom: "pool3/3x3_s2"
  top: "inception_4a/pool"
  pooling_param {
    pool: MAX
    kernel_size: 3
    stride: 1
    pad: 1
  }
}
layer {
  name: "inception_4a/pool_proj"
  type: "Convolution"
  bottom: "inception_4a/pool"
  top: "inception_4a/pool_proj"
  param {
    lr_mult: 1
    decay_mult: 1
  }
  param {
    lr_mult: 2
    decay_mult: 0
  }
  convolution_param {
    num_output: 64
    kernel_size: 1
    weight_filler {
      type: "xavier"
      std: 0.1
    }
    bias_filler {
      type: "constant"
      value: 0.2
    }
  }
}
layer {
  name: "inception_4a/relu_pool_proj"
  type: "ReLU"
  bottom: "inception_4a/pool_proj"
  top: "inception_4a/pool_proj"
}
layer {
  name: "inception_4a/output"
  type: "Concat"
  bottom: "inception_4a/1x1"
  bottom: "inception_4a/3x3"
  bottom: "inception_4a/5x5"
  bottom: "inception_4a/pool_proj"
  top: "inception_4a/output"
}
layer {
  name: "loss1/ave_pool"
  type: "Pooling"
  bottom: "inception_4a/output"
  top: "loss1/ave_pool"
  pooling_param {
    pool: AVE
    kernel_size: 5
    stride: 3
  }
}
layer {
  name: "loss1/conv"
  type: "Convolution"
  bottom: "loss1/ave_pool"
  top: "loss1/conv"
  param {
    lr_mult: 1
    decay_mult: 1
  }
  param {
    lr_mult: 2
    decay_mult: 0
  }
  convolution_param {
    num_output: 128
    kernel_size: 1
    weight_filler {
      type: "xavier"
      std: 0.08
    }
    bias_filler {
      type: "constant"
      value: 0.2
    }
  }
}
layer {
  name: "loss1/relu_conv"
  type: "ReLU"
  bottom: "loss1/conv"
  top: "loss1/conv"
}
layer {
  name: "loss1/fc"
  type: "InnerProduct"
  bottom: "loss1/conv"
  top: "loss1/fc"
  param {
    lr_mult: 1
    decay_mult: 1
  }
  param {
    lr_mult: 2
    decay_mult: 0
  }
  inner_product_param {
    num_output: 1024
    weight_filler {
      type: "xavier"
      std: 0.02
    }
    bias_filler {
      type: "constant"
      value: 0.2
    }
  }
}
layer {
  name: "loss1/relu_fc"
  type: "ReLU"
  bottom: "loss1/fc"
  top: "loss1/fc"
}
layer {
  name: "loss1/drop_fc"
  type: "Dropout"
  bottom: "loss1/fc"
  top: "loss1/fc"
  dropout_param {
    dropout_ratio: 0.7
  }
}
layer {
  name: "loss1/classifier_plantvillage"
  type: "InnerProduct"
  bottom: "loss1/fc"
  top: "loss1/classifier_plantvillage"
  param {
    lr_mult: 1
    decay_mult: 1
  }
  param {
    lr_mult: 2
    decay_mult: 0
  }
  inner_product_param {
    num_output: 38
    weight_filler {
      type: "xavier"
      std: 0.0009765625
    }
    bias_filler {
      type: "constant"
      value: 0
    }
  }
}
layer {
  name: "inception_4b/1x1"
  type: "Convolution"
  bottom: "inception_4a/output"
  top: "inception_4b/1x1"
  param {
    lr_mult: 1
    decay_mult: 1
  }
  param {
    lr_mult: 2
    decay_mult: 0
  }
  convolution_param {
    num_output: 160
    kernel_size: 1
    weight_filler {
      type: "xavier"
      std: 0.03
    }
    bias_filler {
      type: "constant"
      value: 0.2
    }
  }
}
layer {
  name: "inception_4b/relu_1x1"
  type: "ReLU"
  bottom: "inception_4b/1x1"
  top: "inception_4b/1x1"
}
layer {
  name: "inception_4b/3x3_reduce"
  type: "Convolution"
  bottom: "inception_4a/output"
  top: "inception_4b/3x3_reduce"
  param {
    lr_mult: 1
    decay_mult: 1
  }
  param {
    lr_mult: 2
    decay_mult: 0
  }
  convolution_param {
    num_output: 112
    kernel_size: 1
    weight_filler {
      type: "xavier"
      std: 0.09
    }
    bias_filler {
      type: "constant"
      value: 0.2
    }
  }
}
layer {
  name: "inception_4b/relu_3x3_reduce"
  type: "ReLU"
  bottom: "inception_4b/3x3_reduce"
  top: "inception_4b/3x3_reduce"
}
layer {
  name: "inception_4b/3x3"
  type: "Convolution"
  bottom: "inception_4b/3x3_reduce"
  top: "inception_4b/3x3"
  param {
    lr_mult: 1
    decay_mult: 1
  }
  param {
    lr_mult: 2
    decay_mult: 0
  }
  convolution_param {
    num_output: 224
    pad: 1
    kernel_size: 3
    weight_filler {
      type: "xavier"
      std: 0.03
    }
    bias_filler {
      type: "constant"
      value: 0.2
    }
  }
}
layer {
  name: "inception_4b/relu_3x3"
  type: "ReLU"
  bottom: "inception_4b/3x3"
  top: "inception_4b/3x3"
}
layer {
  name: "inception_4b/5x5_reduce"
  type: "Convolution"
  bottom: "inception_4a/output"
  top: "inception_4b/5x5_reduce"
  param {
    lr_mult: 1
    decay_mult: 1
  }
  param {
    lr_mult: 2
    decay_mult: 0
  }
  convolution_param {
    num_output: 24
    kernel_size: 1
    weight_filler {
      type: "xavier"
      std: 0.2
    }
    bias_filler {
      type: "constant"
      value: 0.2
    }
  }
}
layer {
  name: "inception_4b/relu_5x5_reduce"
  type: "ReLU"
  bottom: "inception_4b/5x5_reduce"
  top: "inception_4b/5x5_reduce"
}
layer {
  name: "inception_4b/5x5"
  type: "Convolution"
  bottom: "inception_4b/5x5_reduce"
  top: "inception_4b/5x5"
  param {
    lr_mult: 1
    decay_mult: 1
  }
  param {
    lr_mult: 2
    decay_mult: 0
  }
  convolution_param {
    num_output: 64
    pad: 2
    kernel_size: 5
    weight_filler {
      type: "xavier"
      std: 0.03
    }
    bias_filler {
      type: "constant"
      value: 0.2
    }
  }
}
layer {
  name: "inception_4b/relu_5x5"
  type: "ReLU"
  bottom: "inception_4b/5x5"
  top: "inception_4b/5x5"
}
layer {
  name: "inception_4b/pool"
  type: "Pooling"
  bottom: "inception_4a/output"
  top: "inception_4b/pool"
  pooling_param {
    pool: MAX
    kernel_size: 3
    stride: 1
    pad: 1
  }
}
layer {
  name: "inception_4b/pool_proj"
  type: "Convolution"
  bottom: "inception_4b/pool"
  top: "inception_4b/pool_proj"
  param {
    lr_mult: 1
    decay_mult: 1
  }
  param {
    lr_mult: 2
    decay_mult: 0
  }
  convolution_param {
    num_output: 64
    kernel_size: 1
    weight_filler {
      type: "xavier"
      std: 0.1
    }
    bias_filler {
      type: "constant"
      value: 0.2
    }
  }
}
layer {
  name: "inception_4b/relu_pool_proj"
  type: "ReLU"
  bottom: "inception_4b/pool_proj"
  top: "inception_4b/pool_proj"
}
layer {
  name: "inception_4b/output"
  type: "Concat"
  bottom: "inception_4b/1x1"
  bottom: "inception_4b/3x3"
  bottom: "inception_4b/5x5"
  bottom: "inception_4b/pool_proj"
  top: "inception_4b/output"
}
layer {
  name: "inception_4c/1x1"
  type: "Convolution"
  bottom: "inception_4b/output"
  top: "inception_4c/1x1"
  param {
    lr_mult: 1
    decay_mult: 1
  }
  param {
    lr_mult: 2
    decay_mult: 0
  }
  convolution_param {
    num_output: 128
    kernel_size: 1
    weight_filler {
      type: "xavier"
      std: 0.03
    }
    bias_filler {
      type: "constant"
      value: 0.2
    }
  }
}
layer {
  name: "inception_4c/relu_1x1"
  type: "ReLU"
  bottom: "inception_4c/1x1"
  top: "inception_4c/1x1"
}
layer {
  name: "inception_4c/3x3_reduce"
  type: "Convolution"
  bottom: "inception_4b/output"
  top: "inception_4c/3x3_reduce"
  param {
    lr_mult: 1
    decay_mult: 1
  }
  param {
    lr_mult: 2
    decay_mult: 0
  }
  convolution_param {
    num_output: 128
    kernel_size: 1
    weight_filler {
      type: "xavier"
      std: 0.09
    }
    bias_filler {
      type: "constant"
      value: 0.2
    }
  }
}
layer {
  name: "inception_4c/relu_3x3_reduce"
  type: "ReLU"
  bottom: "inception_4c/3x3_reduce"
  top: "inception_4c/3x3_reduce"
}
layer {
  name: "inception_4c/3x3"
  type: "Convolution"
  bottom: "inception_4c/3x3_reduce"
  top: "inception_4c/3x3"
  param {
    lr_mult: 1
    decay_mult: 1
  }
  param {
    lr_mult: 2
    decay_mult: 0
  }
  convolution_param {
    num_output: 256
    pad: 1
    kernel_size: 3
    weight_filler {
      type: "xavier"
      std: 0.03
    }
    bias_filler {
      type: "constant"
      value: 0.2
    }
  }
}
layer {
  name: "inception_4c/relu_3x3"
  type: "ReLU"
  bottom: "inception_4c/3x3"
  top: "inception_4c/3x3"
}
layer {
  name: "inception_4c/5x5_reduce"
  type: "Convolution"
  bottom: "inception_4b/output"
  top: "inception_4c/5x5_reduce"
  param {
    lr_mult: 1
    decay_mult: 1
  }
  param {
    lr_mult: 2
    decay_mult: 0
  }
  convolution_param {
    num_output: 24
    kernel_size: 1
    weight_filler {
      type: "xavier"
      std: 0.2
    }
    bias_filler {
      type: "constant"
      value: 0.2
    }
  }
}
layer {
  name: "inception_4c/relu_5x5_reduce"
  type: "ReLU"
  bottom: "inception_4c/5x5_reduce"
  top: "inception_4c/5x5_reduce"
}
layer {
  name: "inception_4c/5x5"
  type: "Convolution"
  bottom: "inception_4c/5x5_reduce"
  top: "inception_4c/5x5"
  param {
    lr_mult: 1
    decay_mult: 1
  }
  param {
    lr_mult: 2
    decay_mult: 0
  }
  convolution_param {
    num_output: 64
    pad: 2
    kernel_size: 5
    weight_filler {
      type: "xavier"
      std: 0.03
    }
    bias_filler {
      type: "constant"
      value: 0.2
    }
  }
}
layer {
  name: "inception_4c/relu_5x5"
  type: "ReLU"
  bottom: "inception_4c/5x5"
  top: "inception_4c/5x5"
}
layer {
  name: "inception_4c/pool"
  type: "Pooling"
  bottom: "inception_4b/output"
  top: "inception_4c/pool"
  pooling_param {
    pool: MAX
    kernel_size: 3
    stride: 1
    pad: 1
  }
}
layer {
  name: "inception_4c/pool_proj"
  type: "Convolution"
  bottom: "inception_4c/pool"
  top: "inception_4c/pool_proj"
  param {
    lr_mult: 1
    decay_mult: 1
  }
  param {
    lr_mult: 2
    decay_mult: 0
  }
  convolution_param {
    num_output: 64
    kernel_size: 1
    weight_filler {
      type: "xavier"
      std: 0.1
    }
    bias_filler {
      type: "constant"
      value: 0.2
    }
  }
}
layer {
  name: "inception_4c/relu_pool_proj"
  type: "ReLU"
  bottom: "inception_4c/pool_proj"
  top: "inception_4c/pool_proj"
}
layer {
  name: "inception_4c/output"
  type: "Concat"
  bottom: "inception_4c/1x1"
  bottom: "inception_4c/3x3"
  bottom: "inception_4c/5x5"
  bottom: "inception_4c/pool_proj"
  top: "inception_4c/output"
}
layer {
  name: "inception_4d/1x1"
  type: "Convolution"
  bottom: "inception_4c/output"
  top: "inception_4d/1x1"
  param {
    lr_mult: 1
    decay_mult: 1
  }
  param {
    lr_mult: 2
    decay_mult: 0
  }
  convolution_param {
    num_output: 112
    kernel_size: 1
    weight_filler {
      type: "xavier"
      std: 0.03
    }
    bias_filler {
      type: "constant"
      value: 0.2
    }
  }
}
layer {
  name: "inception_4d/relu_1x1"
  type: "ReLU"
  bottom: "inception_4d/1x1"
  top: "inception_4d/1x1"
}
layer {
  name: "inception_4d/3x3_reduce"
  type: "Convolution"
  bottom: "inception_4c/output"
  top: "inception_4d/3x3_reduce"
  param {
    lr_mult: 1
    decay_mult: 1
  }
  param {
    lr_mult: 2
    decay_mult: 0
  }
  convolution_param {
    num_output: 144
    kernel_size: 1
    weight_filler {
      type: "xavier"
      std: 0.09
    }
    bias_filler {
      type: "constant"
      value: 0.2
    }
  }
}
layer {
  name: "inception_4d/relu_3x3_reduce"
  type: "ReLU"
  bottom: "inception_4d/3x3_reduce"
  top: "inception_4d/3x3_reduce"
}
layer {
  name: "inception_4d/3x3"
  type: "Convolution"
  bottom: "inception_4d/3x3_reduce"
  top: "inception_4d/3x3"
  param {
    lr_mult: 1
    decay_mult: 1
  }
  param {
    lr_mult: 2
    decay_mult: 0
  }
  convolution_param {
    num_output: 288
    pad: 1
    kernel_size: 3
    weight_filler {
      type: "xavier"
      std: 0.03
    }
    bias_filler {
      type: "constant"
      value: 0.2
    }
  }
}
layer {
  name: "inception_4d/relu_3x3"
  type: "ReLU"
  bottom: "inception_4d/3x3"
  top: "inception_4d/3x3"
}
layer {
  name: "inception_4d/5x5_reduce"
  type: "Convolution"
  bottom: "inception_4c/output"
  top: "inception_4d/5x5_reduce"
  param {
    lr_mult: 1
    decay_mult: 1
  }
  param {
    lr_mult: 2
    decay_mult: 0
  }
  convolution_param {
    num_output: 32
    kernel_size: 1
    weight_filler {
      type: "xavier"
      std: 0.2
    }
    bias_filler {
      type: "constant"
      value: 0.2
    }
  }
}
layer {
  name: "inception_4d/relu_5x5_reduce"
  type: "ReLU"
  bottom: "inception_4d/5x5_reduce"
  top: "inception_4d/5x5_reduce"
}
layer {
  name: "inception_4d/5x5"
  type: "Convolution"
  bottom: "inception_4d/5x5_reduce"
  top: "inception_4d/5x5"
  param {
    lr_mult: 1
    decay_mult: 1
  }
  param {
    lr_mult: 2
    decay_mult: 0
  }
  convolution_param {
    num_output: 64
    pad: 2
    kernel_size: 5
    weight_filler {
      type: "xavier"
      std: 0.03
    }
    bias_filler {
      type: "constant"
      value: 0.2
    }
  }
}
layer {
  name: "inception_4d/relu_5x5"
  type: "ReLU"
  bottom: "inception_4d/5x5"
  top: "inception_4d/5x5"
}
layer {
  name: "inception_4d/pool"
  type: "Pooling"
  bottom: "inception_4c/output"
  top: "inception_4d/pool"
  pooling_param {
    pool: MAX
    kernel_size: 3
    stride: 1
    pad: 1
  }
}
layer {
  name: "inception_4d/pool_proj"
  type: "Convolution"
  bottom: "inception_4d/pool"
  top: "inception_4d/pool_proj"
  param {
    lr_mult: 1
    decay_mult: 1
  }
  param {
    lr_mult: 2
    decay_mult: 0
  }
  convolution_param {
    num_output: 64
    kernel_size: 1
    weight_filler {
      type: "xavier"
      std: 0.1
    }
    bias_filler {
      type: "constant"
      value: 0.2
    }
  }
}
layer {
  name: "inception_4d/relu_pool_proj"
  type: "ReLU"
  bottom: "inception_4d/pool_proj"
  top: "inception_4d/pool_proj"
}
layer {
  name: "inception_4d/output"
  type: "Concat"
  bottom: "inception_4d/1x1"
  bottom: "inception_4d/3x3"
  bottom: "inception_4d/5x5"
  bottom: "inception_4d/pool_proj"
  top: "inception_4d/output"
}
layer {
  name: "loss2/ave_pool"
  type: "Pooling"
  bottom: "inception_4d/output"
  top: "loss2/ave_pool"
  pooling_param {
    pool: AVE
    kernel_size: 5
    stride: 3
  }
}
layer {
  name: "loss2/conv"
  type: "Convolution"
  bottom: "loss2/ave_pool"
  top: "loss2/conv"
  param {
    lr_mult: 1
    decay_mult: 1
  }
  param {
    lr_mult: 2
    decay_mult: 0
  }
  convolution_param {
    num_output: 128
    kernel_size: 1
    weight_filler {
      type: "xavier"
      std: 0.08
    }
    bias_filler {
      type: "constant"
      value: 0.2
    }
  }
}
layer {
  name: "loss2/relu_conv"
  type: "ReLU"
  bottom: "loss2/conv"
  top: "loss2/conv"
}
layer {
  name: "loss2/fc"
  type: "InnerProduct"
  bottom: "loss2/conv"
  top: "loss2/fc"
  param {
    lr_mult: 1
    decay_mult: 1
  }
  param {
    lr_mult: 2
    decay_mult: 0
  }
  inner_product_param {
    num_output: 1024
    weight_filler {
      type: "xavier"
      std: 0.02
    }
    bias_filler {
      type: "constant"
      value: 0.2
    }
  }
}
layer {
  name: "loss2/relu_fc"
  type: "ReLU"
  bottom: "loss2/fc"
  top: "loss2/fc"
}
layer {
  name: "loss2/drop_fc"
  type: "Dropout"
  bottom: "loss2/fc"
  top: "loss2/fc"
  dropout_param {
    dropout_ratio: 0.7
  }
}
layer {
  name: "loss2/classifier_plantvillage"
  type: "InnerProduct"
  bottom: "loss2/fc"
  top: "loss2/classifier_plantvillage"
  param {
    lr_mult: 1
    decay_mult: 1
  }
  param {
    lr_mult: 2
    decay_mult: 0
  }
  inner_product_param {
    num_output: 38
    weight_filler {
      type: "xavier"
      std: 0.0009765625
    }
    bias_filler {
      type: "constant"
      value: 0
    }
  }
}
layer {
  name: "inception_4e/1x1"
  type: "Convolution"
  bottom: "inception_4d/output"
  top: "inception_4e/1x1"
  param {
    lr_mult: 1
    decay_mult: 1
  }
  param {
    lr_mult: 2
    decay_mult: 0
  }
  convolution_param {
    num_output: 256
    kernel_size: 1
    weight_filler {
      type: "xavier"
      std: 0.03
    }
    bias_filler {
      type: "constant"
      value: 0.2
    }
  }
}
layer {
  name: "inception_4e/relu_1x1"
  type: "ReLU"
  bottom: "inception_4e/1x1"
  top: "inception_4e/1x1"
}
layer {
  name: "inception_4e/3x3_reduce"
  type: "Convolution"
  bottom: "inception_4d/output"
  top: "inception_4e/3x3_reduce"
  param {
    lr_mult: 1
    decay_mult: 1
  }
  param {
    lr_mult: 2
    decay_mult: 0
  }
  convolution_param {
    num_output: 160
    kernel_size: 1
    weight_filler {
      type: "xavier"
      std: 0.09
    }
    bias_filler {
      type: "constant"
      value: 0.2
    }
  }
}
layer {
  name: "inception_4e/relu_3x3_reduce"
  type: "ReLU"
  bottom: "inception_4e/3x3_reduce"
  top: "inception_4e/3x3_reduce"
}
layer {
  name: "inception_4e/3x3"
  type: "Convolution"
  bottom: "inception_4e/3x3_reduce"
  top: "inception_4e/3x3"
  param {
    lr_mult: 1
    decay_mult: 1
  }
  param {
    lr_mult: 2
    decay_mult: 0
  }
  convolution_param {
    num_output: 320
    pad: 1
    kernel_size: 3
    weight_filler {
      type: "xavier"
      std: 0.03
    }
    bias_filler {
      type: "constant"
      value: 0.2
    }
  }
}
layer {
  name: "inception_4e/relu_3x3"
  type: "ReLU"
  bottom: "inception_4e/3x3"
  top: "inception_4e/3x3"
}
layer {
  name: "inception_4e/5x5_reduce"
  type: "Convolution"
  bottom: "inception_4d/output"
  top: "inception_4e/5x5_reduce"
  param {
    lr_mult: 1
    decay_mult: 1
  }
  param {
    lr_mult: 2
    decay_mult: 0
  }
  convolution_param {
    num_output: 32
    kernel_size: 1
    weight_filler {
      type: "xavier"
      std: 0.2
    }
    bias_filler {
      type: "constant"
      value: 0.2
    }
  }
}
layer {
  name: "inception_4e/relu_5x5_reduce"
  type: "ReLU"
  bottom: "inception_4e/5x5_reduce"
  top: "inception_4e/5x5_reduce"
}
layer {
  name: "inception_4e/5x5"
  type: "Convolution"
  bottom: "inception_4e/5x5_reduce"
  top: "inception_4e/
I0403 15:23:01.566395  3025 layer_factory.hpp:77] Creating layer data
I0403 15:23:01.566967  3025 net.cpp:91] Creating Layer data
I0403 15:23:01.566999  3025 net.cpp:399] data -> data
I0403 15:23:01.567047  3025 net.cpp:399] data -> label
I0403 15:23:01.567082  3025 data_transformer.cpp:25] Loading mean file from: /home/mohanty/data/final_dataset/lmdb/grayscale-50-50/mean.binaryproto
I0403 15:23:01.569864  3028 db_lmdb.cpp:38] Opened lmdb /home/mohanty/data/final_dataset/lmdb/grayscale-50-50/test_db
I0403 15:23:01.579754  3025 data_layer.cpp:41] output data size: 24,3,224,224
I0403 15:23:01.606112  3025 net.cpp:141] Setting up data
I0403 15:23:01.606197  3025 net.cpp:148] Top shape: 24 3 224 224 (3612672)
I0403 15:23:01.606220  3025 net.cpp:148] Top shape: 24 (24)
I0403 15:23:01.606235  3025 net.cpp:156] Memory required for data: 14450784
I0403 15:23:01.606266  3025 layer_factory.hpp:77] Creating layer label_data_1_split
I0403 15:23:01.606293  3025 net.cpp:91] Creating Layer label_data_1_split
I0403 15:23:01.606312  3025 net.cpp:425] label_data_1_split <- label
I0403 15:23:01.606343  3025 net.cpp:399] label_data_1_split -> label_data_1_split_0
I0403 15:23:01.606369  3025 net.cpp:399] label_data_1_split -> label_data_1_split_1
I0403 15:23:01.606390  3025 net.cpp:399] label_data_1_split -> label_data_1_split_2
I0403 15:23:01.606411  3025 net.cpp:399] label_data_1_split -> label_data_1_split_3
I0403 15:23:01.606432  3025 net.cpp:399] label_data_1_split -> label_data_1_split_4
I0403 15:23:01.606451  3025 net.cpp:399] label_data_1_split -> label_data_1_split_5
I0403 15:23:01.606472  3025 net.cpp:399] label_data_1_split -> label_data_1_split_6
I0403 15:23:01.606492  3025 net.cpp:399] label_data_1_split -> label_data_1_split_7
I0403 15:23:01.606513  3025 net.cpp:399] label_data_1_split -> label_data_1_split_8
I0403 15:23:01.606533  3025 net.cpp:399] label_data_1_split -> label_data_1_split_9
I0403 15:23:01.606649  3025 net.cpp:141] Setting up label_data_1_split
I0403 15:23:01.606673  3025 net.cpp:148] Top shape: 24 (24)
I0403 15:23:01.606690  3025 net.cpp:148] Top shape: 24 (24)
I0403 15:23:01.606706  3025 net.cpp:148] Top shape: 24 (24)
I0403 15:23:01.606721  3025 net.cpp:148] Top shape: 24 (24)
I0403 15:23:01.606737  3025 net.cpp:148] Top shape: 24 (24)
I0403 15:23:01.606753  3025 net.cpp:148] Top shape: 24 (24)
I0403 15:23:01.606770  3025 net.cpp:148] Top shape: 24 (24)
I0403 15:23:01.606786  3025 net.cpp:148] Top shape: 24 (24)
I0403 15:23:01.606801  3025 net.cpp:148] Top shape: 24 (24)
I0403 15:23:01.606817  3025 net.cpp:148] Top shape: 24 (24)
I0403 15:23:01.606861  3025 net.cpp:156] Memory required for data: 14451744
I0403 15:23:01.606878  3025 layer_factory.hpp:77] Creating layer conv1/7x7_s2
I0403 15:23:01.606910  3025 net.cpp:91] Creating Layer conv1/7x7_s2
I0403 15:23:01.606927  3025 net.cpp:425] conv1/7x7_s2 <- data
I0403 15:23:01.606947  3025 net.cpp:399] conv1/7x7_s2 -> conv1/7x7_s2
I0403 15:23:01.744599  3025 net.cpp:141] Setting up conv1/7x7_s2
I0403 15:23:01.744688  3025 net.cpp:148] Top shape: 24 64 112 112 (19267584)
I0403 15:23:01.744704  3025 net.cpp:156] Memory required for data: 91522080
I0403 15:23:01.744735  3025 layer_factory.hpp:77] Creating layer conv1/relu_7x7
I0403 15:23:01.744761  3025 net.cpp:91] Creating Layer conv1/relu_7x7
I0403 15:23:01.744779  3025 net.cpp:425] conv1/relu_7x7 <- conv1/7x7_s2
I0403 15:23:01.744799  3025 net.cpp:386] conv1/relu_7x7 -> conv1/7x7_s2 (in-place)
I0403 15:23:01.745054  3025 net.cpp:141] Setting up conv1/relu_7x7
I0403 15:23:01.745080  3025 net.cpp:148] Top shape: 24 64 112 112 (19267584)
I0403 15:23:01.745095  3025 net.cpp:156] Memory required for data: 168592416
I0403 15:23:01.745111  3025 layer_factory.hpp:77] Creating layer pool1/3x3_s2
I0403 15:23:01.745136  3025 net.cpp:91] Creating Layer pool1/3x3_s2
I0403 15:23:01.745152  3025 net.cpp:425] pool1/3x3_s2 <- conv1/7x7_s2
I0403 15:23:01.745172  3025 net.cpp:399] pool1/3x3_s2 -> pool1/3x3_s2
I0403 15:23:01.745249  3025 net.cpp:141] Setting up pool1/3x3_s2
I0403 15:23:01.745272  3025 net.cpp:148] Top shape: 24 64 56 56 (4816896)
I0403 15:23:01.745287  3025 net.cpp:156] Memory required for data: 187860000
I0403 15:23:01.745302  3025 layer_factory.hpp:77] Creating layer pool1/norm1
I0403 15:23:01.745326  3025 net.cpp:91] Creating Layer pool1/norm1
I0403 15:23:01.745343  3025 net.cpp:425] pool1/norm1 <- pool1/3x3_s2
I0403 15:23:01.745362  3025 net.cpp:399] pool1/norm1 -> pool1/norm1
I0403 15:23:01.745661  3025 net.cpp:141] Setting up pool1/norm1
I0403 15:23:01.745687  3025 net.cpp:148] Top shape: 24 64 56 56 (4816896)
I0403 15:23:01.745705  3025 net.cpp:156] Memory required for data: 207127584
I0403 15:23:01.745720  3025 layer_factory.hpp:77] Creating layer conv2/3x3_reduce
I0403 15:23:01.745745  3025 net.cpp:91] Creating Layer conv2/3x3_reduce
I0403 15:23:01.745761  3025 net.cpp:425] conv2/3x3_reduce <- pool1/norm1
I0403 15:23:01.745782  3025 net.cpp:399] conv2/3x3_reduce -> conv2/3x3_reduce
I0403 15:23:01.747153  3025 net.cpp:141] Setting up conv2/3x3_reduce
I0403 15:23:01.747184  3025 net.cpp:148] Top shape: 24 64 56 56 (4816896)
I0403 15:23:01.747200  3025 net.cpp:156] Memory required for data: 226395168
I0403 15:23:01.747220  3025 layer_factory.hpp:77] Creating layer conv2/relu_3x3_reduce
I0403 15:23:01.747242  3025 net.cpp:91] Creating Layer conv2/relu_3x3_reduce
I0403 15:23:01.747259  3025 net.cpp:425] conv2/relu_3x3_reduce <- conv2/3x3_reduce
I0403 15:23:01.747280  3025 net.cpp:386] conv2/relu_3x3_reduce -> conv2/3x3_reduce (in-place)
I0403 15:23:01.747547  3025 net.cpp:141] Setting up conv2/relu_3x3_reduce
I0403 15:23:01.747575  3025 net.cpp:148] Top shape: 24 64 56 56 (4816896)
I0403 15:23:01.747589  3025 net.cpp:156] Memory required for data: 245662752
I0403 15:23:01.747604  3025 layer_factory.hpp:77] Creating layer conv2/3x3
I0403 15:23:01.747629  3025 net.cpp:91] Creating Layer conv2/3x3
I0403 15:23:01.747648  3025 net.cpp:425] conv2/3x3 <- conv2/3x3_reduce
I0403 15:23:01.747669  3025 net.cpp:399] conv2/3x3 -> conv2/3x3
I0403 15:23:01.749972  3025 net.cpp:141] Setting up conv2/3x3
I0403 15:23:01.750001  3025 net.cpp:148] Top shape: 24 192 56 56 (14450688)
I0403 15:23:01.750017  3025 net.cpp:156] Memory required for data: 303465504
I0403 15:23:01.750038  3025 layer_factory.hpp:77] Creating layer conv2/relu_3x3
I0403 15:23:01.750057  3025 net.cpp:91] Creating Layer conv2/relu_3x3
I0403 15:23:01.750073  3025 net.cpp:425] conv2/relu_3x3 <- conv2/3x3
I0403 15:23:01.750092  3025 net.cpp:386] conv2/relu_3x3 -> conv2/3x3 (in-place)
I0403 15:23:01.750268  3025 net.cpp:141] Setting up conv2/relu_3x3
I0403 15:23:01.750296  3025 net.cpp:148] Top shape: 24 192 56 56 (14450688)
I0403 15:23:01.750341  3025 net.cpp:156] Memory required for data: 361268256
I0403 15:23:01.750357  3025 layer_factory.hpp:77] Creating layer conv2/norm2
I0403 15:23:01.750375  3025 net.cpp:91] Creating Layer conv2/norm2
I0403 15:23:01.750391  3025 net.cpp:425] conv2/norm2 <- conv2/3x3
I0403 15:23:01.750411  3025 net.cpp:399] conv2/norm2 -> conv2/norm2
I0403 15:23:01.750716  3025 net.cpp:141] Setting up conv2/norm2
I0403 15:23:01.750742  3025 net.cpp:148] Top shape: 24 192 56 56 (14450688)
I0403 15:23:01.750757  3025 net.cpp:156] Memory required for data: 419071008
I0403 15:23:01.750773  3025 layer_factory.hpp:77] Creating layer pool2/3x3_s2
I0403 15:23:01.750790  3025 net.cpp:91] Creating Layer pool2/3x3_s2
I0403 15:23:01.750807  3025 net.cpp:425] pool2/3x3_s2 <- conv2/norm2
I0403 15:23:01.750829  3025 net.cpp:399] pool2/3x3_s2 -> pool2/3x3_s2
I0403 15:23:01.750882  3025 net.cpp:141] Setting up pool2/3x3_s2
I0403 15:23:01.750905  3025 net.cpp:148] Top shape: 24 192 28 28 (3612672)
I0403 15:23:01.750921  3025 net.cpp:156] Memory required for data: 433521696
I0403 15:23:01.750936  3025 layer_factory.hpp:77] Creating layer pool2/3x3_s2_pool2/3x3_s2_0_split
I0403 15:23:01.750957  3025 net.cpp:91] Creating Layer pool2/3x3_s2_pool2/3x3_s2_0_split
I0403 15:23:01.750972  3025 net.cpp:425] pool2/3x3_s2_pool2/3x3_s2_0_split <- pool2/3x3_s2
I0403 15:23:01.750990  3025 net.cpp:399] pool2/3x3_s2_pool2/3x3_s2_0_split -> pool2/3x3_s2_pool2/3x3_s2_0_split_0
I0403 15:23:01.751011  3025 net.cpp:399] pool2/3x3_s2_pool2/3x3_s2_0_split -> pool2/3x3_s2_pool2/3x3_s2_0_split_1
I0403 15:23:01.751034  3025 net.cpp:399] pool2/3x3_s2_pool2/3x3_s2_0_split -> pool2/3x3_s2_pool2/3x3_s2_0_split_2
I0403 15:23:01.751052  3025 net.cpp:399] pool2/3x3_s2_pool2/3x3_s2_0_split -> pool2/3x3_s2_pool2/3x3_s2_0_split_3
I0403 15:23:01.751121  3025 net.cpp:141] Setting up pool2/3x3_s2_pool2/3x3_s2_0_split
I0403 15:23:01.751143  3025 net.cpp:148] Top shape: 24 192 28 28 (3612672)
I0403 15:23:01.751160  3025 net.cpp:148] Top shape: 24 192 28 28 (3612672)
I0403 15:23:01.751176  3025 net.cpp:148] Top shape: 24 192 28 28 (3612672)
I0403 15:23:01.751193  3025 net.cpp:148] Top shape: 24 192 28 28 (3612672)
I0403 15:23:01.751206  3025 net.cpp:156] Memory required for data: 491324448
I0403 15:23:01.751221  3025 layer_factory.hpp:77] Creating layer inception_3a/1x1
I0403 15:23:01.751247  3025 net.cpp:91] Creating Layer inception_3a/1x1
I0403 15:23:01.751266  3025 net.cpp:425] inception_3a/1x1 <- pool2/3x3_s2_pool2/3x3_s2_0_split_0
I0403 15:23:01.751287  3025 net.cpp:399] inception_3a/1x1 -> inception_3a/1x1
I0403 15:23:01.752810  3025 net.cpp:141] Setting up inception_3a/1x1
I0403 15:23:01.752840  3025 net.cpp:148] Top shape: 24 64 28 28 (1204224)
I0403 15:23:01.752856  3025 net.cpp:156] Memory required for data: 496141344
I0403 15:23:01.752874  3025 layer_factory.hpp:77] Creating layer inception_3a/relu_1x1
I0403 15:23:01.752894  3025 net.cpp:91] Creating Layer inception_3a/relu_1x1
I0403 15:23:01.752917  3025 net.cpp:425] inception_3a/relu_1x1 <- inception_3a/1x1
I0403 15:23:01.752938  3025 net.cpp:386] inception_3a/relu_1x1 -> inception_3a/1x1 (in-place)
I0403 15:23:01.753110  3025 net.cpp:141] Setting up inception_3a/relu_1x1
I0403 15:23:01.753134  3025 net.cpp:148] Top shape: 24 64 28 28 (1204224)
I0403 15:23:01.753149  3025 net.cpp:156] Memory required for data: 500958240
I0403 15:23:01.753164  3025 layer_factory.hpp:77] Creating layer inception_3a/3x3_reduce
I0403 15:23:01.753186  3025 net.cpp:91] Creating Layer inception_3a/3x3_reduce
I0403 15:23:01.753203  3025 net.cpp:425] inception_3a/3x3_reduce <- pool2/3x3_s2_pool2/3x3_s2_0_split_1
I0403 15:23:01.753224  3025 net.cpp:399] inception_3a/3x3_reduce -> inception_3a/3x3_reduce
I0403 15:23:01.754909  3025 net.cpp:141] Setting up inception_3a/3x3_reduce
I0403 15:23:01.754937  3025 net.cpp:148] Top shape: 24 96 28 28 (1806336)
I0403 15:23:01.754952  3025 net.cpp:156] Memory required for data: 508183584
I0403 15:23:01.754973  3025 layer_factory.hpp:77] Creating layer inception_3a/relu_3x3_reduce
I0403 15:23:01.755010  3025 net.cpp:91] Creating Layer inception_3a/relu_3x3_reduce
I0403 15:23:01.755028  3025 net.cpp:425] inception_3a/relu_3x3_reduce <- inception_3a/3x3_reduce
I0403 15:23:01.755045  3025 net.cpp:386] inception_3a/relu_3x3_reduce -> inception_3a/3x3_reduce (in-place)
I0403 15:23:01.755223  3025 net.cpp:141] Setting up inception_3a/relu_3x3_reduce
I0403 15:23:01.755252  3025 net.cpp:148] Top shape: 24 96 28 28 (1806336)
I0403 15:23:01.755269  3025 net.cpp:156] Memory required for data: 515408928
I0403 15:23:01.755283  3025 layer_factory.hpp:77] Creating layer inception_3a/3x3
I0403 15:23:01.755306  3025 net.cpp:91] Creating Layer inception_3a/3x3
I0403 15:23:01.755323  3025 net.cpp:425] inception_3a/3x3 <- inception_3a/3x3_reduce
I0403 15:23:01.755347  3025 net.cpp:399] inception_3a/3x3 -> inception_3a/3x3
I0403 15:23:01.756973  3025 net.cpp:141] Setting up inception_3a/3x3
I0403 15:23:01.757001  3025 net.cpp:148] Top shape: 24 128 28 28 (2408448)
I0403 15:23:01.757016  3025 net.cpp:156] Memory required for data: 525042720
I0403 15:23:01.757035  3025 layer_factory.hpp:77] Creating layer inception_3a/relu_3x3
I0403 15:23:01.757055  3025 net.cpp:91] Creating Layer inception_3a/relu_3x3
I0403 15:23:01.757072  3025 net.cpp:425] inception_3a/relu_3x3 <- inception_3a/3x3
I0403 15:23:01.757091  3025 net.cpp:386] inception_3a/relu_3x3 -> inception_3a/3x3 (in-place)
I0403 15:23:01.757365  3025 net.cpp:141] Setting up inception_3a/relu_3x3
I0403 15:23:01.757392  3025 net.cpp:148] Top shape: 24 128 28 28 (2408448)
I0403 15:23:01.757407  3025 net.cpp:156] Memory required for data: 534676512
I0403 15:23:01.757421  3025 layer_factory.hpp:77] Creating layer inception_3a/5x5_reduce
I0403 15:23:01.757447  3025 net.cpp:91] Creating Layer inception_3a/5x5_reduce
I0403 15:23:01.757463  3025 net.cpp:425] inception_3a/5x5_reduce <- pool2/3x3_s2_pool2/3x3_s2_0_split_2
I0403 15:23:01.757484  3025 net.cpp:399] inception_3a/5x5_reduce -> inception_3a/5x5_reduce
I0403 15:23:01.758473  3025 net.cpp:141] Setting up inception_3a/5x5_reduce
I0403 15:23:01.758502  3025 net.cpp:148] Top shape: 24 16 28 28 (301056)
I0403 15:23:01.758517  3025 net.cpp:156] Memory required for data: 535880736
I0403 15:23:01.758535  3025 layer_factory.hpp:77] Creating layer inception_3a/relu_5x5_reduce
I0403 15:23:01.758555  3025 net.cpp:91] Creating Layer inception_3a/relu_5x5_reduce
I0403 15:23:01.758572  3025 net.cpp:425] inception_3a/relu_5x5_reduce <- inception_3a/5x5_reduce
I0403 15:23:01.758589  3025 net.cpp:386] inception_3a/relu_5x5_reduce -> inception_3a/5x5_reduce (in-place)
I0403 15:23:01.758884  3025 net.cpp:141] Setting up inception_3a/relu_5x5_reduce
I0403 15:23:01.758913  3025 net.cpp:148] Top shape: 24 16 28 28 (301056)
I0403 15:23:01.758927  3025 net.cpp:156] Memory required for data: 537084960
I0403 15:23:01.758942  3025 layer_factory.hpp:77] Creating layer inception_3a/5x5
I0403 15:23:01.758965  3025 net.cpp:91] Creating Layer inception_3a/5x5
I0403 15:23:01.758982  3025 net.cpp:425] inception_3a/5x5 <- inception_3a/5x5_reduce
I0403 15:23:01.759001  3025 net.cpp:399] inception_3a/5x5 -> inception_3a/5x5
I0403 15:23:01.760013  3025 net.cpp:141] Setting up inception_3a/5x5
I0403 15:23:01.760040  3025 net.cpp:148] Top shape: 24 32 28 28 (602112)
I0403 15:23:01.760054  3025 net.cpp:156] Memory required for data: 539493408
I0403 15:23:01.760072  3025 layer_factory.hpp:77] Creating layer inception_3a/relu_5x5
I0403 15:23:01.760092  3025 net.cpp:91] Creating Layer inception_3a/relu_5x5
I0403 15:23:01.760109  3025 net.cpp:425] inception_3a/relu_5x5 <- inception_3a/5x5
I0403 15:23:01.760126  3025 net.cpp:386] inception_3a/relu_5x5 -> inception_3a/5x5 (in-place)
I0403 15:23:01.760296  3025 net.cpp:141] Setting up inception_3a/relu_5x5
I0403 15:23:01.760320  3025 net.cpp:148] Top shape: 24 32 28 28 (602112)
I0403 15:23:01.760334  3025 net.cpp:156] Memory required for data: 541901856
I0403 15:23:01.760349  3025 layer_factory.hpp:77] Creating layer inception_3a/pool
I0403 15:23:01.760367  3025 net.cpp:91] Creating Layer inception_3a/pool
I0403 15:23:01.760396  3025 net.cpp:425] inception_3a/pool <- pool2/3x3_s2_pool2/3x3_s2_0_split_3
I0403 15:23:01.760416  3025 net.cpp:399] inception_3a/pool -> inception_3a/pool
I0403 15:23:01.760473  3025 net.cpp:141] Setting up inception_3a/pool
I0403 15:23:01.760494  3025 net.cpp:148] Top shape: 24 192 28 28 (3612672)
I0403 15:23:01.760509  3025 net.cpp:156] Memory required for data: 556352544
I0403 15:23:01.760522  3025 layer_factory.hpp:77] Creating layer inception_3a/pool_proj
I0403 15:23:01.760543  3025 net.cpp:91] Creating Layer inception_3a/pool_proj
I0403 15:23:01.760560  3025 net.cpp:425] inception_3a/pool_proj <- inception_3a/pool
I0403 15:23:01.760581  3025 net.cpp:399] inception_3a/pool_proj -> inception_3a/pool_proj
I0403 15:23:01.761509  3025 net.cpp:141] Setting up inception_3a/pool_proj
I0403 15:23:01.761538  3025 net.cpp:148] Top shape: 24 32 28 28 (602112)
I0403 15:23:01.761554  3025 net.cpp:156] Memory required for data: 558760992
I0403 15:23:01.761574  3025 layer_factory.hpp:77] Creating layer inception_3a/relu_pool_proj
I0403 15:23:01.761595  3025 net.cpp:91] Creating Layer inception_3a/relu_pool_proj
I0403 15:23:01.761610  3025 net.cpp:425] inception_3a/relu_pool_proj <- inception_3a/pool_proj
I0403 15:23:01.761627  3025 net.cpp:386] inception_3a/relu_pool_proj -> inception_3a/pool_proj (in-place)
I0403 15:23:01.761890  3025 net.cpp:141] Setting up inception_3a/relu_pool_proj
I0403 15:23:01.761915  3025 net.cpp:148] Top shape: 24 32 28 28 (602112)
I0403 15:23:01.761930  3025 net.cpp:156] Memory required for data: 561169440
I0403 15:23:01.761945  3025 layer_factory.hpp:77] Creating layer inception_3a/output
I0403 15:23:01.761962  3025 net.cpp:91] Creating Layer inception_3a/output
I0403 15:23:01.761979  3025 net.cpp:425] inception_3a/output <- inception_3a/1x1
I0403 15:23:01.761996  3025 net.cpp:425] inception_3a/output <- inception_3a/3x3
I0403 15:23:01.762012  3025 net.cpp:425] inception_3a/output <- inception_3a/5x5
I0403 15:23:01.762027  3025 net.cpp:425] inception_3a/output <- inception_3a/pool_proj
I0403 15:23:01.762044  3025 net.cpp:399] inception_3a/output -> inception_3a/output
I0403 15:23:01.762087  3025 net.cpp:141] Setting up inception_3a/output
I0403 15:23:01.762111  3025 net.cpp:148] Top shape: 24 256 28 28 (4816896)
I0403 15:23:01.762126  3025 net.cpp:156] Memory required for data: 580437024
I0403 15:23:01.762140  3025 layer_factory.hpp:77] Creating layer inception_3a/output_inception_3a/output_0_split
I0403 15:23:01.762157  3025 net.cpp:91] Creating Layer inception_3a/output_inception_3a/output_0_split
I0403 15:23:01.762171  3025 net.cpp:425] inception_3a/output_inception_3a/output_0_split <- inception_3a/output
I0403 15:23:01.762190  3025 net.cpp:399] inception_3a/output_inception_3a/output_0_split -> inception_3a/output_inception_3a/output_0_split_0
I0403 15:23:01.762210  3025 net.cpp:399] inception_3a/output_inception_3a/output_0_split -> inception_3a/output_inception_3a/output_0_split_1
I0403 15:23:01.762233  3025 net.cpp:399] inception_3a/output_inception_3a/output_0_split -> inception_3a/output_inception_3a/output_0_split_2
I0403 15:23:01.762256  3025 net.cpp:399] inception_3a/output_inception_3a/output_0_split -> inception_3a/output_inception_3a/output_0_split_3
I0403 15:23:01.762329  3025 net.cpp:141] Setting up inception_3a/output_inception_3a/output_0_split
I0403 15:23:01.762351  3025 net.cpp:148] Top shape: 24 256 28 28 (4816896)
I0403 15:23:01.762367  3025 net.cpp:148] Top shape: 24 256 28 28 (4816896)
I0403 15:23:01.762383  3025 net.cpp:148] Top shape: 24 256 28 28 (4816896)
I0403 15:23:01.762398  3025 net.cpp:148] Top shape: 24 256 28 28 (4816896)
I0403 15:23:01.762413  3025 net.cpp:156] Memory required for data: 657507360
I0403 15:23:01.762426  3025 layer_factory.hpp:77] Creating layer inception_3b/1x1
I0403 15:23:01.762449  3025 net.cpp:91] Creating Layer inception_3b/1x1
I0403 15:23:01.762465  3025 net.cpp:425] inception_3b/1x1 <- inception_3a/output_inception_3a/output_0_split_0
I0403 15:23:01.762485  3025 net.cpp:399] inception_3b/1x1 -> inception_3b/1x1
I0403 15:23:01.763592  3025 net.cpp:141] Setting up inception_3b/1x1
I0403 15:23:01.763629  3025 net.cpp:148] Top shape: 24 128 28 28 (2408448)
I0403 15:23:01.763645  3025 net.cpp:156] Memory required for data: 667141152
I0403 15:23:01.763662  3025 layer_factory.hpp:77] Creating layer inception_3b/relu_1x1
I0403 15:23:01.763680  3025 net.cpp:91] Creating Layer inception_3b/relu_1x1
I0403 15:23:01.763695  3025 net.cpp:425] inception_3b/relu_1x1 <- inception_3b/1x1
I0403 15:23:01.763715  3025 net.cpp:386] inception_3b/relu_1x1 -> inception_3b/1x1 (in-place)
I0403 15:23:01.763885  3025 net.cpp:141] Setting up inception_3b/relu_1x1
I0403 15:23:01.763907  3025 net.cpp:148] Top shape: 24 128 28 28 (2408448)
I0403 15:23:01.763922  3025 net.cpp:156] Memory required for data: 676774944
I0403 15:23:01.763936  3025 layer_factory.hpp:77] Creating layer inception_3b/3x3_reduce
I0403 15:23:01.763959  3025 net.cpp:91] Creating Layer inception_3b/3x3_reduce
I0403 15:23:01.763977  3025 net.cpp:425] inception_3b/3x3_reduce <- inception_3a/output_inception_3a/output_0_split_1
I0403 15:23:01.763996  3025 net.cpp:399] inception_3b/3x3_reduce -> inception_3b/3x3_reduce
I0403 15:23:01.765101  3025 net.cpp:141] Setting up inception_3b/3x3_reduce
I0403 15:23:01.765130  3025 net.cpp:148] Top shape: 24 128 28 28 (2408448)
I0403 15:23:01.765146  3025 net.cpp:156] Memory required for data: 686408736
I0403 15:23:01.765164  3025 layer_factory.hpp:77] Creating layer inception_3b/relu_3x3_reduce
I0403 15:23:01.765182  3025 net.cpp:91] Creating Layer inception_3b/relu_3x3_reduce
I0403 15:23:01.765197  3025 net.cpp:425] inception_3b/relu_3x3_reduce <- inception_3b/3x3_reduce
I0403 15:23:01.765214  3025 net.cpp:386] inception_3b/relu_3x3_reduce -> inception_3b/3x3_reduce (in-place)
I0403 15:23:01.765416  3025 net.cpp:141] Setting up inception_3b/relu_3x3_reduce
I0403 15:23:01.765442  3025 net.cpp:148] Top shape: 24 128 28 28 (2408448)
I0403 15:23:01.765458  3025 net.cpp:156] Memory required for data: 696042528
I0403 15:23:01.765475  3025 layer_factory.hpp:77] Creating layer inception_3b/3x3
I0403 15:23:01.765501  3025 net.cpp:91] Creating Layer inception_3b/3x3
I0403 15:23:01.765519  3025 net.cpp:425] inception_3b/3x3 <- inception_3b/3x3_reduce
I0403 15:23:01.765539  3025 net.cpp:399] inception_3b/3x3 -> inception_3b/3x3
I0403 15:23:01.768435  3025 net.cpp:141] Setting up inception_3b/3x3
I0403 15:23:01.768465  3025 net.cpp:148] Top shape: 24 192 28 28 (3612672)
I0403 15:23:01.768481  3025 net.cpp:156] Memory required for data: 710493216
I0403 15:23:01.768498  3025 layer_factory.hpp:77] Creating layer inception_3b/relu_3x3
I0403 15:23:01.768518  3025 net.cpp:91] Creating Layer inception_3b/relu_3x3
I0403 15:23:01.768534  3025 net.cpp:425] inception_3b/relu_3x3 <- inception_3b/3x3
I0403 15:23:01.768553  3025 net.cpp:386] inception_3b/relu_3x3 -> inception_3b/3x3 (in-place)
I0403 15:23:01.768826  3025 net.cpp:141] Setting up inception_3b/relu_3x3
I0403 15:23:01.768851  3025 net.cpp:148] Top shape: 24 192 28 28 (3612672)
I0403 15:23:01.768867  3025 net.cpp:156] Memory required for data: 724943904
I0403 15:23:01.768882  3025 layer_factory.hpp:77] Creating layer inception_3b/5x5_reduce
I0403 15:23:01.768904  3025 net.cpp:91] Creating Layer inception_3b/5x5_reduce
I0403 15:23:01.768923  3025 net.cpp:425] inception_3b/5x5_reduce <- inception_3a/output_inception_3a/output_0_split_2
I0403 15:23:01.768944  3025 net.cpp:399] inception_3b/5x5_reduce -> inception_3b/5x5_reduce
I0403 15:23:01.769955  3025 net.cpp:141] Setting up inception_3b/5x5_reduce
I0403 15:23:01.769984  3025 net.cpp:148] Top shape: 24 32 28 28 (602112)
I0403 15:23:01.770000  3025 net.cpp:156] Memory required for data: 727352352
I0403 15:23:01.770020  3025 layer_factory.hpp:77] Creating layer inception_3b/relu_5x5_reduce
I0403 15:23:01.770041  3025 net.cpp:91] Creating Layer inception_3b/relu_5x5_reduce
I0403 15:23:01.770058  3025 net.cpp:425] inception_3b/relu_5x5_reduce <- inception_3b/5x5_reduce
I0403 15:23:01.770076  3025 net.cpp:386] inception_3b/relu_5x5_reduce -> inception_3b/5x5_reduce (in-place)
I0403 15:23:01.770277  3025 net.cpp:141] Setting up inception_3b/relu_5x5_reduce
I0403 15:23:01.770303  3025 net.cpp:148] Top shape: 24 32 28 28 (602112)
I0403 15:23:01.770318  3025 net.cpp:156] Memory required for data: 729760800
I0403 15:23:01.770334  3025 layer_factory.hpp:77] Creating layer inception_3b/5x5
I0403 15:23:01.770357  3025 net.cpp:91] Creating Layer inception_3b/5x5
I0403 15:23:01.770376  3025 net.cpp:425] inception_3b/5x5 <- inception_3b/5x5_reduce
I0403 15:23:01.770395  3025 net.cpp:399] inception_3b/5x5 -> inception_3b/5x5
I0403 15:23:01.772406  3025 net.cpp:141] Setting up inception_3b/5x5
I0403 15:23:01.772439  3025 net.cpp:148] Top shape: 24 96 28 28 (1806336)
I0403 15:23:01.772455  3025 net.cpp:156] Memory required for data: 736986144
I0403 15:23:01.772475  3025 layer_factory.hpp:77] Creating layer inception_3b/relu_5x5
I0403 15:23:01.772493  3025 net.cpp:91] Creating Layer inception_3b/relu_5x5
I0403 15:23:01.772510  3025 net.cpp:425] inception_3b/relu_5x5 <- inception_3b/5x5
I0403 15:23:01.772531  3025 net.cpp:386] inception_3b/relu_5x5 -> inception_3b/5x5 (in-place)
I0403 15:23:01.772722  3025 net.cpp:141] Setting up inception_3b/relu_5x5
I0403 15:23:01.772748  3025 net.cpp:148] Top shape: 24 96 28 28 (1806336)
I0403 15:23:01.772764  3025 net.cpp:156] Memory required for data: 744211488
I0403 15:23:01.772779  3025 layer_factory.hpp:77] Creating layer inception_3b/pool
I0403 15:23:01.772797  3025 net.cpp:91] Creating Layer inception_3b/pool
I0403 15:23:01.772814  3025 net.cpp:425] inception_3b/pool <- inception_3a/output_inception_3a/output_0_split_3
I0403 15:23:01.772832  3025 net.cpp:399] inception_3b/pool -> inception_3b/pool
I0403 15:23:01.772892  3025 net.cpp:141] Setting up inception_3b/pool
I0403 15:23:01.772915  3025 net.cpp:148] Top shape: 24 256 28 28 (4816896)
I0403 15:23:01.772930  3025 net.cpp:156] Memory required for data: 763479072
I0403 15:23:01.772945  3025 layer_factory.hpp:77] Creating layer inception_3b/pool_proj
I0403 15:23:01.772969  3025 net.cpp:91] Creating Layer inception_3b/pool_proj
I0403 15:23:01.772986  3025 net.cpp:425] inception_3b/pool_proj <- inception_3b/pool
I0403 15:23:01.773007  3025 net.cpp:399] inception_3b/pool_proj -> inception_3b/pool_proj
I0403 15:23:01.774094  3025 net.cpp:141] Setting up inception_3b/pool_proj
I0403 15:23:01.774122  3025 net.cpp:148] Top shape: 24 64 28 28 (1204224)
I0403 15:23:01.774139  3025 net.cpp:156] Memory required for data: 768295968
I0403 15:23:01.774158  3025 layer_factory.hpp:77] Creating layer inception_3b/relu_pool_proj
I0403 15:23:01.774178  3025 net.cpp:91] Creating Layer inception_3b/relu_pool_proj
I0403 15:23:01.774196  3025 net.cpp:425] inception_3b/relu_pool_proj <- inception_3b/pool_proj
I0403 15:23:01.774214  3025 net.cpp:386] inception_3b/relu_pool_proj -> inception_3b/pool_proj (in-place)
I0403 15:23:01.774618  3025 net.cpp:141] Setting up inception_3b/relu_pool_proj
I0403 15:23:01.774646  3025 net.cpp:148] Top shape: 24 64 28 28 (1204224)
I0403 15:23:01.774662  3025 net.cpp:156] Memory required for data: 773112864
I0403 15:23:01.774678  3025 layer_factory.hpp:77] Creating layer inception_3b/output
I0403 15:23:01.774698  3025 net.cpp:91] Creating Layer inception_3b/output
I0403 15:23:01.774715  3025 net.cpp:425] inception_3b/output <- inception_3b/1x1
I0403 15:23:01.774734  3025 net.cpp:425] inception_3b/output <- inception_3b/3x3
I0403 15:23:01.774749  3025 net.cpp:425] inception_3b/output <- inception_3b/5x5
I0403 15:23:01.774766  3025 net.cpp:425] inception_3b/output <- inception_3b/pool_proj
I0403 15:23:01.774783  3025 net.cpp:399] inception_3b/output -> inception_3b/output
I0403 15:23:01.774829  3025 net.cpp:141] Setting up inception_3b/output
I0403 15:23:01.774853  3025 net.cpp:148] Top shape: 24 480 28 28 (9031680)
I0403 15:23:01.774868  3025 net.cpp:156] Memory required for data: 809239584
I0403 15:23:01.774884  3025 layer_factory.hpp:77] Creating layer pool3/3x3_s2
I0403 15:23:01.774902  3025 net.cpp:91] Creating Layer pool3/3x3_s2
I0403 15:23:01.774919  3025 net.cpp:425] pool3/3x3_s2 <- inception_3b/output
I0403 15:23:01.774955  3025 net.cpp:399] pool3/3x3_s2 -> pool3/3x3_s2
I0403 15:23:01.775014  3025 net.cpp:141] Setting up pool3/3x3_s2
I0403 15:23:01.775039  3025 net.cpp:148] Top shape: 24 480 14 14 (2257920)
I0403 15:23:01.775054  3025 net.cpp:156] Memory required for data: 818271264
I0403 15:23:01.775070  3025 layer_factory.hpp:77] Creating layer pool3/3x3_s2_pool3/3x3_s2_0_split
I0403 15:23:01.775087  3025 net.cpp:91] Creating Layer pool3/3x3_s2_pool3/3x3_s2_0_split
I0403 15:23:01.775102  3025 net.cpp:425] pool3/3x3_s2_pool3/3x3_s2_0_split <- pool3/3x3_s2
I0403 15:23:01.775120  3025 net.cpp:399] pool3/3x3_s2_pool3/3x3_s2_0_split -> pool3/3x3_s2_pool3/3x3_s2_0_split_0
I0403 15:23:01.775142  3025 net.cpp:399] pool3/3x3_s2_pool3/3x3_s2_0_split -> pool3/3x3_s2_pool3/3x3_s2_0_split_1
I0403 15:23:01.775163  3025 net.cpp:399] pool3/3x3_s2_pool3/3x3_s2_0_split -> pool3/3x3_s2_pool3/3x3_s2_0_split_2
I0403 15:23:01.775184  3025 net.cpp:399] pool3/3x3_s2_pool3/3x3_s2_0_split -> pool3/3x3_s2_pool3/3x3_s2_0_split_3
I0403 15:23:01.775269  3025 net.cpp:141] Setting up pool3/3x3_s2_pool3/3x3_s2_0_split
I0403 15:23:01.775292  3025 net.cpp:148] Top shape: 24 480 14 14 (2257920)
I0403 15:23:01.775310  3025 net.cpp:148] Top shape: 24 480 14 14 (2257920)
I0403 15:23:01.775326  3025 net.cpp:148] Top shape: 24 480 14 14 (2257920)
I0403 15:23:01.775341  3025 net.cpp:148] Top shape: 24 480 14 14 (2257920)
I0403 15:23:01.775355  3025 net.cpp:156] Memory required for data: 854397984
I0403 15:23:01.775372  3025 layer_factory.hpp:77] Creating layer inception_4a/1x1
I0403 15:23:01.775395  3025 net.cpp:91] Creating Layer inception_4a/1x1
I0403 15:23:01.775414  3025 net.cpp:425] inception_4a/1x1 <- pool3/3x3_s2_pool3/3x3_s2_0_split_0
I0403 15:23:01.775434  3025 net.cpp:399] inception_4a/1x1 -> inception_4a/1x1
I0403 15:23:01.777032  3025 net.cpp:141] Setting up inception_4a/1x1
I0403 15:23:01.777062  3025 net.cpp:148] Top shape: 24 192 14 14 (903168)
I0403 15:23:01.777079  3025 net.cpp:156] Memory required for data: 858010656
I0403 15:23:01.777099  3025 layer_factory.hpp:77] Creating layer inception_4a/relu_1x1
I0403 15:23:01.777117  3025 net.cpp:91] Creating Layer inception_4a/relu_1x1
I0403 15:23:01.777132  3025 net.cpp:425] inception_4a/relu_1x1 <- inception_4a/1x1
I0403 15:23:01.777153  3025 net.cpp:386] inception_4a/relu_1x1 -> inception_4a/1x1 (in-place)
I0403 15:23:01.777338  3025 net.cpp:141] Setting up inception_4a/relu_1x1
I0403 15:23:01.777364  3025 net.cpp:148] Top shape: 24 192 14 14 (903168)
I0403 15:23:01.777379  3025 net.cpp:156] Memory required for data: 861623328
I0403 15:23:01.777395  3025 layer_factory.hpp:77] Creating layer inception_4a/3x3_reduce
I0403 15:23:01.777417  3025 net.cpp:91] Creating Layer inception_4a/3x3_reduce
I0403 15:23:01.777436  3025 net.cpp:425] inception_4a/3x3_reduce <- pool3/3x3_s2_pool3/3x3_s2_0_split_1
I0403 15:23:01.777458  3025 net.cpp:399] inception_4a/3x3_reduce -> inception_4a/3x3_reduce
I0403 15:23:01.778765  3025 net.cpp:141] Setting up inception_4a/3x3_reduce
I0403 15:23:01.778795  3025 net.cpp:148] Top shape: 24 96 14 14 (451584)
I0403 15:23:01.778812  3025 net.cpp:156] Memory required for data: 863429664
I0403 15:23:01.778836  3025 layer_factory.hpp:77] Creating layer inception_4a/relu_3x3_reduce
I0403 15:23:01.778857  3025 net.cpp:91] Creating Layer inception_4a/relu_3x3_reduce
I0403 15:23:01.778874  3025 net.cpp:425] inception_4a/relu_3x3_reduce <- inception_4a/3x3_reduce
I0403 15:23:01.778892  3025 net.cpp:386] inception_4a/relu_3x3_reduce -> inception_4a/3x3_reduce (in-place)
I0403 15:23:01.779073  3025 net.cpp:141] Setting up inception_4a/relu_3x3_reduce
I0403 15:23:01.779099  3025 net.cpp:148] Top shape: 24 96 14 14 (451584)
I0403 15:23:01.779114  3025 net.cpp:156] Memory required for data: 865236000
I0403 15:23:01.779129  3025 layer_factory.hpp:77] Creating layer inception_4a/3x3
I0403 15:23:01.779152  3025 net.cpp:91] Creating Layer inception_4a/3x3
I0403 15:23:01.779170  3025 net.cpp:425] inception_4a/3x3 <- inception_4a/3x3_reduce
I0403 15:23:01.779191  3025 net.cpp:399] inception_4a/3x3 -> inception_4a/3x3
I0403 15:23:01.781929  3025 net.cpp:141] Setting up inception_4a/3x3
I0403 15:23:01.781957  3025 net.cpp:148] Top shape: 24 208 14 14 (978432)
I0403 15:23:01.781973  3025 net.cpp:156] Memory required for data: 869149728
I0403 15:23:01.781992  3025 layer_factory.hpp:77] Creating layer inception_4a/relu_3x3
I0403 15:23:01.782011  3025 net.cpp:91] Creating Layer inception_4a/relu_3x3
I0403 15:23:01.782027  3025 net.cpp:425] inception_4a/relu_3x3 <- inception_4a/3x3
I0403 15:23:01.782047  3025 net.cpp:386] inception_4a/relu_3x3 -> inception_4a/3x3 (in-place)
I0403 15:23:01.782340  3025 net.cpp:141] Setting up inception_4a/relu_3x3
I0403 15:23:01.782366  3025 net.cpp:148] Top shape: 24 208 14 14 (978432)
I0403 15:23:01.782382  3025 net.cpp:156] Memory required for data: 873063456
I0403 15:23:01.782397  3025 layer_factory.hpp:77] Creating layer inception_4a/5x5_reduce
I0403 15:23:01.782421  3025 net.cpp:91] Creating Layer inception_4a/5x5_reduce
I0403 15:23:01.782441  3025 net.cpp:425] inception_4a/5x5_reduce <- pool3/3x3_s2_pool3/3x3_s2_0_split_2
I0403 15:23:01.782462  3025 net.cpp:399] inception_4a/5x5_reduce -> inception_4a/5x5_reduce
I0403 15:23:01.783527  3025 net.cpp:141] Setting up inception_4a/5x5_reduce
I0403 15:23:01.783556  3025 net.cpp:148] Top shape: 24 16 14 14 (75264)
I0403 15:23:01.783573  3025 net.cpp:156] Memory required for data: 873364512
I0403 15:23:01.783592  3025 layer_factory.hpp:77] Creating layer inception_4a/relu_5x5_reduce
I0403 15:23:01.783614  3025 net.cpp:91] Creating Layer inception_4a/relu_5x5_reduce
I0403 15:23:01.783632  3025 net.cpp:425] inception_4a/relu_5x5_reduce <- inception_4a/5x5_reduce
I0403 15:23:01.783661  3025 net.cpp:386] inception_4a/relu_5x5_reduce -> inception_4a/5x5_reduce (in-place)
I0403 15:23:01.783841  3025 net.cpp:141] Setting up inception_4a/relu_5x5_reduce
I0403 15:23:01.783867  3025 net.cpp:148] Top shape: 24 16 14 14 (75264)
I0403 15:23:01.783882  3025 net.cpp:156] Memory required for data: 873665568
I0403 15:23:01.783897  3025 layer_factory.hpp:77] Creating layer inception_4a/5x5
I0403 15:23:01.783921  3025 net.cpp:91] Creating Layer inception_4a/5x5
I0403 15:23:01.783938  3025 net.cpp:425] inception_4a/5x5 <- inception_4a/5x5_reduce
I0403 15:23:01.783972  3025 net.cpp:399] inception_4a/5x5 -> inception_4a/5x5
I0403 15:23:01.785049  3025 net.cpp:141] Setting up inception_4a/5x5
I0403 15:23:01.785076  3025 net.cpp:148] Top shape: 24 48 14 14 (225792)
I0403 15:23:01.785091  3025 net.cpp:156] Memory required for data: 874568736
I0403 15:23:01.785109  3025 layer_factory.hpp:77] Creating layer inception_4a/relu_5x5
I0403 15:23:01.785130  3025 net.cpp:91] Creating Layer inception_4a/relu_5x5
I0403 15:23:01.785146  3025 net.cpp:425] inception_4a/relu_5x5 <- inception_4a/5x5
I0403 15:23:01.785164  3025 net.cpp:386] inception_4a/relu_5x5 -> inception_4a/5x5 (in-place)
I0403 15:23:01.785344  3025 net.cpp:141] Setting up inception_4a/relu_5x5
I0403 15:23:01.785374  3025 net.cpp:148] Top shape: 24 48 14 14 (225792)
I0403 15:23:01.785389  3025 net.cpp:156] Memory required for data: 875471904
I0403 15:23:01.785404  3025 layer_factory.hpp:77] Creating layer inception_4a/pool
I0403 15:23:01.785421  3025 net.cpp:91] Creating Layer inception_4a/pool
I0403 15:23:01.785439  3025 net.cpp:425] inception_4a/pool <- pool3/3x3_s2_pool3/3x3_s2_0_split_3
I0403 15:23:01.785459  3025 net.cpp:399] inception_4a/pool -> inception_4a/pool
I0403 15:23:01.785518  3025 net.cpp:141] Setting up inception_4a/pool
I0403 15:23:01.785542  3025 net.cpp:148] Top shape: 24 480 14 14 (2257920)
I0403 15:23:01.785557  3025 net.cpp:156] Memory required for data: 884503584
I0403 15:23:01.785570  3025 layer_factory.hpp:77] Creating layer inception_4a/pool_proj
I0403 15:23:01.785593  3025 net.cpp:91] Creating Layer inception_4a/pool_proj
I0403 15:23:01.785609  3025 net.cpp:425] inception_4a/pool_proj <- inception_4a/pool
I0403 15:23:01.785630  3025 net.cpp:399] inception_4a/pool_proj -> inception_4a/pool_proj
I0403 15:23:01.786785  3025 net.cpp:141] Setting up inception_4a/pool_proj
I0403 15:23:01.786818  3025 net.cpp:148] Top shape: 24 64 14 14 (301056)
I0403 15:23:01.786847  3025 net.cpp:156] Memory required for data: 885707808
I0403 15:23:01.786867  3025 layer_factory.hpp:77] Creating layer inception_4a/relu_pool_proj
I0403 15:23:01.786885  3025 net.cpp:91] Creating Layer inception_4a/relu_pool_proj
I0403 15:23:01.786901  3025 net.cpp:425] inception_4a/relu_pool_proj <- inception_4a/pool_proj
I0403 15:23:01.786918  3025 net.cpp:386] inception_4a/relu_pool_proj -> inception_4a/pool_proj (in-place)
I0403 15:23:01.787199  3025 net.cpp:141] Setting up inception_4a/relu_pool_proj
I0403 15:23:01.787226  3025 net.cpp:148] Top shape: 24 64 14 14 (301056)
I0403 15:23:01.787245  3025 net.cpp:156] Memory required for data: 886912032
I0403 15:23:01.787261  3025 layer_factory.hpp:77] Creating layer inception_4a/output
I0403 15:23:01.787279  3025 net.cpp:91] Creating Layer inception_4a/output
I0403 15:23:01.787295  3025 net.cpp:425] inception_4a/output <- inception_4a/1x1
I0403 15:23:01.787312  3025 net.cpp:425] inception_4a/output <- inception_4a/3x3
I0403 15:23:01.787328  3025 net.cpp:425] inception_4a/output <- inception_4a/5x5
I0403 15:23:01.787344  3025 net.cpp:425] inception_4a/output <- inception_4a/pool_proj
I0403 15:23:01.787361  3025 net.cpp:399] inception_4a/output -> inception_4a/output
I0403 15:23:01.787408  3025 net.cpp:141] Setting up inception_4a/output
I0403 15:23:01.787431  3025 net.cpp:148] Top shape: 24 512 14 14 (2408448)
I0403 15:23:01.787446  3025 net.cpp:156] Memory required for data: 896545824
I0403 15:23:01.787461  3025 layer_factory.hpp:77] Creating layer inception_4a/output_inception_4a/output_0_split
I0403 15:23:01.787482  3025 net.cpp:91] Creating Layer inception_4a/output_inception_4a/output_0_split
I0403 15:23:01.787497  3025 net.cpp:425] inception_4a/output_inception_4a/output_0_split <- inception_4a/output
I0403 15:23:01.787514  3025 net.cpp:399] inception_4a/output_inception_4a/output_0_split -> inception_4a/output_inception_4a/output_0_split_0
I0403 15:23:01.787534  3025 net.cpp:399] inception_4a/output_inception_4a/output_0_split -> inception_4a/output_inception_4a/output_0_split_1
I0403 15:23:01.787554  3025 net.cpp:399] inception_4a/output_inception_4a/output_0_split -> inception_4a/output_inception_4a/output_0_split_2
I0403 15:23:01.787575  3025 net.cpp:399] inception_4a/output_inception_4a/output_0_split -> inception_4a/output_inception_4a/output_0_split_3
I0403 15:23:01.787597  3025 net.cpp:399] inception_4a/output_inception_4a/output_0_split -> inception_4a/output_inception_4a/output_0_split_4
I0403 15:23:01.787690  3025 net.cpp:141] Setting up inception_4a/output_inception_4a/output_0_split
I0403 15:23:01.787714  3025 net.cpp:148] Top shape: 24 512 14 14 (2408448)
I0403 15:23:01.787729  3025 net.cpp:148] Top shape: 24 512 14 14 (2408448)
I0403 15:23:01.787745  3025 net.cpp:148] Top shape: 24 512 14 14 (2408448)
I0403 15:23:01.787761  3025 net.cpp:148] Top shape: 24 512 14 14 (2408448)
I0403 15:23:01.787777  3025 net.cpp:148] Top shape: 24 512 14 14 (2408448)
I0403 15:23:01.787791  3025 net.cpp:156] Memory required for data: 944714784
I0403 15:23:01.787806  3025 layer_factory.hpp:77] Creating layer loss1/ave_pool
I0403 15:23:01.787823  3025 net.cpp:91] Creating Layer loss1/ave_pool
I0403 15:23:01.787842  3025 net.cpp:425] loss1/ave_pool <- inception_4a/output_inception_4a/output_0_split_0
I0403 15:23:01.787860  3025 net.cpp:399] loss1/ave_pool -> loss1/ave_pool
I0403 15:23:01.788064  3025 net.cpp:141] Setting up loss1/ave_pool
I0403 15:23:01.788090  3025 net.cpp:148] Top shape: 24 512 4 4 (196608)
I0403 15:23:01.788106  3025 net.cpp:156] Memory required for data: 945501216
I0403 15:23:01.788120  3025 layer_factory.hpp:77] Creating layer loss1/conv
I0403 15:23:01.788143  3025 net.cpp:91] Creating Layer loss1/conv
I0403 15:23:01.788161  3025 net.cpp:425] loss1/conv <- loss1/ave_pool
I0403 15:23:01.788179  3025 net.cpp:399] loss1/conv -> loss1/conv
I0403 15:23:01.789585  3025 net.cpp:141] Setting up loss1/conv
I0403 15:23:01.789613  3025 net.cpp:148] Top shape: 24 128 4 4 (49152)
I0403 15:23:01.789641  3025 net.cpp:156] Memory required for data: 945697824
I0403 15:23:01.789660  3025 layer_factory.hpp:77] Creating layer loss1/relu_conv
I0403 15:23:01.789680  3025 net.cpp:91] Creating Layer loss1/relu_conv
I0403 15:23:01.789695  3025 net.cpp:425] loss1/relu_conv <- loss1/conv
I0403 15:23:01.789715  3025 net.cpp:386] loss1/relu_conv -> loss1/conv (in-place)
I0403 15:23:01.789991  3025 net.cpp:141] Setting up loss1/relu_conv
I0403 15:23:01.790017  3025 net.cpp:148] Top shape: 24 128 4 4 (49152)
I0403 15:23:01.790032  3025 net.cpp:156] Memory required for data: 945894432
I0403 15:23:01.790047  3025 layer_factory.hpp:77] Creating layer loss1/fc
I0403 15:23:01.790071  3025 net.cpp:91] Creating Layer loss1/fc
I0403 15:23:01.790087  3025 net.cpp:425] loss1/fc <- loss1/conv
I0403 15:23:01.790109  3025 net.cpp:399] loss1/fc -> loss1/fc
I0403 15:23:01.807782  3025 net.cpp:141] Setting up loss1/fc
I0403 15:23:01.807817  3025 net.cpp:148] Top shape: 24 1024 (24576)
I0403 15:23:01.807833  3025 net.cpp:156] Memory required for data: 945992736
I0403 15:23:01.807852  3025 layer_factory.hpp:77] Creating layer loss1/relu_fc
I0403 15:23:01.807874  3025 net.cpp:91] Creating Layer loss1/relu_fc
I0403 15:23:01.807893  3025 net.cpp:425] loss1/relu_fc <- loss1/fc
I0403 15:23:01.807910  3025 net.cpp:386] loss1/relu_fc -> loss1/fc (in-place)
I0403 15:23:01.808120  3025 net.cpp:141] Setting up loss1/relu_fc
I0403 15:23:01.808143  3025 net.cpp:148] Top shape: 24 1024 (24576)
I0403 15:23:01.808158  3025 net.cpp:156] Memory required for data: 946091040
I0403 15:23:01.808174  3025 layer_factory.hpp:77] Creating layer loss1/drop_fc
I0403 15:23:01.808202  3025 net.cpp:91] Creating Layer loss1/drop_fc
I0403 15:23:01.808219  3025 net.cpp:425] loss1/drop_fc <- loss1/fc
I0403 15:23:01.808243  3025 net.cpp:386] loss1/drop_fc -> loss1/fc (in-place)
I0403 15:23:01.808297  3025 net.cpp:141] Setting up loss1/drop_fc
I0403 15:23:01.808320  3025 net.cpp:148] Top shape: 24 1024 (24576)
I0403 15:23:01.808336  3025 net.cpp:156] Memory required for data: 946189344
I0403 15:23:01.808351  3025 layer_factory.hpp:77] Creating layer loss1/classifier_plantvillage
I0403 15:23:01.808377  3025 net.cpp:91] Creating Layer loss1/classifier_plantvillage
I0403 15:23:01.808394  3025 net.cpp:425] loss1/classifier_plantvillage <- loss1/fc
I0403 15:23:01.808414  3025 net.cpp:399] loss1/classifier_plantvillage -> loss1/classifier_plantvillage
I0403 15:23:01.809346  3025 net.cpp:141] Setting up loss1/classifier_plantvillage
I0403 15:23:01.809376  3025 net.cpp:148] Top shape: 24 38 (912)
I0403 15:23:01.809391  3025 net.cpp:156] Memory required for data: 946192992
I0403 15:23:01.809411  3025 layer_factory.hpp:77] Creating layer loss1/classifier_plantvillage_loss1/classifier_plantvillage_0_split
I0403 15:23:01.809428  3025 net.cpp:91] Creating Layer loss1/classifier_plantvillage_loss1/classifier_plantvillage_0_split
I0403 15:23:01.809443  3025 net.cpp:425] loss1/classifier_plantvillage_loss1/classifier_plantvillage_0_split <- loss1/classifier_plantvillage
I0403 15:23:01.809463  3025 net.cpp:399] loss1/classifier_plantvillage_loss1/classifier_plantvillage_0_split -> loss1/classifier_plantvillage_loss1/classifier_plantvillage_0_split_0
I0403 15:23:01.809484  3025 net.cpp:399] loss1/classifier_plantvillage_loss1/classifier_plantvillage_0_split -> loss1/classifier_plantvillage_loss1/classifier_plantvillage_0_split_1
I0403 15:23:01.809504  3025 net.cpp:399] loss1/classifier_plantvillage_loss1/classifier_plantvillage_0_split -> loss1/classifier_plantvillage_loss1/classifier_plantvillage_0_split_2
I0403 15:23:01.809567  3025 net.cpp:141] Setting up loss1/classifier_plantvillage_loss1/classifier_plantvillage_0_split
I0403 15:23:01.809590  3025 net.cpp:148] Top shape: 24 38 (912)
I0403 15:23:01.809607  3025 net.cpp:148] Top shape: 24 38 (912)
I0403 15:23:01.809622  3025 net.cpp:148] Top shape: 24 38 (912)
I0403 15:23:01.809635  3025 net.cpp:156] Memory required for data: 946203936
I0403 15:23:01.809649  3025 layer_factory.hpp:77] Creating layer inception_4b/1x1
I0403 15:23:01.809674  3025 net.cpp:91] Creating Layer inception_4b/1x1
I0403 15:23:01.809711  3025 net.cpp:425] inception_4b/1x1 <- inception_4a/output_inception_4a/output_0_split_1
I0403 15:23:01.809739  3025 net.cpp:399] inception_4b/1x1 -> inception_4b/1x1
I0403 15:23:01.811404  3025 net.cpp:141] Setting up inception_4b/1x1
I0403 15:23:01.811434  3025 net.cpp:148] Top shape: 24 160 14 14 (752640)
I0403 15:23:01.811450  3025 net.cpp:156] Memory required for data: 949214496
I0403 15:23:01.811467  3025 layer_factory.hpp:77] Creating layer inception_4b/relu_1x1
I0403 15:23:01.811488  3025 net.cpp:91] Creating Layer inception_4b/relu_1x1
I0403 15:23:01.811506  3025 net.cpp:425] inception_4b/relu_1x1 <- inception_4b/1x1
I0403 15:23:01.811522  3025 net.cpp:386] inception_4b/relu_1x1 -> inception_4b/1x1 (in-place)
I0403 15:23:01.811704  3025 net.cpp:141] Setting up inception_4b/relu_1x1
I0403 15:23:01.811728  3025 net.cpp:148] Top shape: 24 160 14 14 (752640)
I0403 15:23:01.811743  3025 net.cpp:156] Memory required for data: 952225056
I0403 15:23:01.811758  3025 layer_factory.hpp:77] Creating layer inception_4b/3x3_reduce
I0403 15:23:01.811779  3025 net.cpp:91] Creating Layer inception_4b/3x3_reduce
I0403 15:23:01.811796  3025 net.cpp:425] inception_4b/3x3_reduce <- inception_4a/output_inception_4a/output_0_split_2
I0403 15:23:01.811817  3025 net.cpp:399] inception_4b/3x3_reduce -> inception_4b/3x3_reduce
I0403 15:23:01.813123  3025 net.cpp:141] Setting up inception_4b/3x3_reduce
I0403 15:23:01.813150  3025 net.cpp:148] Top shape: 24 112 14 14 (526848)
I0403 15:23:01.813166  3025 net.cpp:156] Memory required for data: 954332448
I0403 15:23:01.813184  3025 layer_factory.hpp:77] Creating layer inception_4b/relu_3x3_reduce
I0403 15:23:01.813204  3025 net.cpp:91] Creating Layer inception_4b/relu_3x3_reduce
I0403 15:23:01.813220  3025 net.cpp:425] inception_4b/relu_3x3_reduce <- inception_4b/3x3_reduce
I0403 15:23:01.813236  3025 net.cpp:386] inception_4b/relu_3x3_reduce -> inception_4b/3x3_reduce (in-place)
I0403 15:23:01.813561  3025 net.cpp:141] Setting up inception_4b/relu_3x3_reduce
I0403 15:23:01.813588  3025 net.cpp:148] Top shape: 24 112 14 14 (526848)
I0403 15:23:01.813616  3025 net.cpp:156] Memory required for data: 956439840
I0403 15:23:01.813632  3025 layer_factory.hpp:77] Creating layer inception_4b/3x3
I0403 15:23:01.813654  3025 net.cpp:91] Creating Layer inception_4b/3x3
I0403 15:23:01.813673  3025 net.cpp:425] inception_4b/3x3 <- inception_4b/3x3_reduce
I0403 15:23:01.813694  3025 net.cpp:399] inception_4b/3x3 -> inception_4b/3x3
I0403 15:23:01.816732  3025 net.cpp:141] Setting up inception_4b/3x3
I0403 15:23:01.816763  3025 net.cpp:148] Top shape: 24 224 14 14 (1053696)
I0403 15:23:01.816781  3025 net.cpp:156] Memory required for data: 960654624
I0403 15:23:01.816798  3025 layer_factory.hpp:77] Creating layer inception_4b/relu_3x3
I0403 15:23:01.816817  3025 net.cpp:91] Creating Layer inception_4b/relu_3x3
I0403 15:23:01.816833  3025 net.cpp:425] inception_4b/relu_3x3 <- inception_4b/3x3
I0403 15:23:01.816851  3025 net.cpp:386] inception_4b/relu_3x3 -> inception_4b/3x3 (in-place)
I0403 15:23:01.817031  3025 net.cpp:141] Setting up inception_4b/relu_3x3
I0403 15:23:01.817057  3025 net.cpp:148] Top shape: 24 224 14 14 (1053696)
I0403 15:23:01.817072  3025 net.cpp:156] Memory required for data: 964869408
I0403 15:23:01.817086  3025 layer_factory.hpp:77] Creating layer inception_4b/5x5_reduce
I0403 15:23:01.817108  3025 net.cpp:91] Creating Layer inception_4b/5x5_reduce
I0403 15:23:01.817126  3025 net.cpp:425] inception_4b/5x5_reduce <- inception_4a/output_inception_4a/output_0_split_3
I0403 15:23:01.817148  3025 net.cpp:399] inception_4b/5x5_reduce -> inception_4b/5x5_reduce
I0403 15:23:01.818231  3025 net.cpp:141] Setting up inception_4b/5x5_reduce
I0403 15:23:01.818261  3025 net.cpp:148] Top shape: 24 24 14 14 (112896)
I0403 15:23:01.818277  3025 net.cpp:156] Memory required for data: 965320992
I0403 15:23:01.818296  3025 layer_factory.hpp:77] Creating layer inception_4b/relu_5x5_reduce
I0403 15:23:01.818316  3025 net.cpp:91] Creating Layer inception_4b/relu_5x5_reduce
I0403 15:23:01.818346  3025 net.cpp:425] inception_4b/relu_5x5_reduce <- inception_4b/5x5_reduce
I0403 15:23:01.818366  3025 net.cpp:386] inception_4b/relu_5x5_reduce -> inception_4b/5x5_reduce (in-place)
I0403 15:23:01.818544  3025 net.cpp:141] Setting up inception_4b/relu_5x5_reduce
I0403 15:23:01.818572  3025 net.cpp:148] Top shape: 24 24 14 14 (112896)
I0403 15:23:01.818588  3025 net.cpp:156] Memory required for data: 965772576
I0403 15:23:01.818601  3025 layer_factory.hpp:77] Creating layer inception_4b/5x5
I0403 15:23:01.818621  3025 net.cpp:91] Creating Layer inception_4b/5x5
I0403 15:23:01.818639  3025 net.cpp:425] inception_4b/5x5 <- inception_4b/5x5_reduce
I0403 15:23:01.818658  3025 net.cpp:399] inception_4b/5x5 -> inception_4b/5x5
I0403 15:23:01.819890  3025 net.cpp:141] Setting up inception_4b/5x5
I0403 15:23:01.819918  3025 net.cpp:148] Top shape: 24 64 14 14 (301056)
I0403 15:23:01.819934  3025 net.cpp:156] Memory required for data: 966976800
I0403 15:23:01.819952  3025 layer_factory.hpp:77] Creating layer inception_4b/relu_5x5
I0403 15:23:01.819972  3025 net.cpp:91] Creating Layer inception_4b/relu_5x5
I0403 15:23:01.819990  3025 net.cpp:425] inception_4b/relu_5x5 <- inception_4b/5x5
I0403 15:23:01.820008  3025 net.cpp:386] inception_4b/relu_5x5 -> inception_4b/5x5 (in-place)
I0403 15:23:01.820297  3025 net.cpp:141] Setting up inception_4b/relu_5x5
I0403 15:23:01.820323  3025 net.cpp:148] Top shape: 24 64 14 14 (301056)
I0403 15:23:01.820338  3025 net.cpp:156] Memory required for data: 968181024
I0403 15:23:01.820353  3025 layer_factory.hpp:77] Creating layer inception_4b/pool
I0403 15:23:01.820371  3025 net.cpp:91] Creating Layer inception_4b/pool
I0403 15:23:01.820387  3025 net.cpp:425] inception_4b/pool <- inception_4a/output_inception_4a/output_0_split_4
I0403 15:23:01.820408  3025 net.cpp:399] inception_4b/pool -> inception_4b/pool
I0403 15:23:01.820472  3025 net.cpp:141] Setting up inception_4b/pool
I0403 15:23:01.820498  3025 net.cpp:148] Top shape: 24 512 14 14 (2408448)
I0403 15:23:01.820513  3025 net.cpp:156] Memory required for data: 977814816
I0403 15:23:01.820528  3025 layer_factory.hpp:77] Creating layer inception_4b/pool_proj
I0403 15:23:01.820550  3025 net.cpp:91] Creating Layer inception_4b/pool_proj
I0403 15:23:01.820569  3025 net.cpp:425] inception_4b/pool_proj <- inception_4b/pool
I0403 15:23:01.820586  3025 net.cpp:399] inception_4b/pool_proj -> inception_4b/pool_proj
I0403 15:23:01.821789  3025 net.cpp:141] Setting up inception_4b/pool_proj
I0403 15:23:01.821816  3025 net.cpp:148] Top shape: 24 64 14 14 (301056)
I0403 15:23:01.821832  3025 net.cpp:156] Memory required for data: 979019040
I0403 15:23:01.821851  3025 layer_factory.hpp:77] Creating layer inception_4b/relu_pool_proj
I0403 15:23:01.821869  3025 net.cpp:91] Creating Layer inception_4b/relu_pool_proj
I0403 15:23:01.821887  3025 net.cpp:425] inception_4b/relu_pool_proj <- inception_4b/pool_proj
I0403 15:23:01.821903  3025 net.cpp:386] inception_4b/relu_pool_proj -> inception_4b/pool_proj (in-place)
I0403 15:23:01.822082  3025 net.cpp:141] Setting up inception_4b/relu_pool_proj
I0403 15:23:01.822106  3025 net.cpp:148] Top shape: 24 64 14 14 (301056)
I0403 15:23:01.822120  3025 net.cpp:156] Memory required for data: 980223264
I0403 15:23:01.822135  3025 layer_factory.hpp:77] Creating layer inception_4b/output
I0403 15:23:01.822154  3025 net.cpp:91] Creating Layer inception_4b/output
I0403 15:23:01.822170  3025 net.cpp:425] inception_4b/output <- inception_4b/1x1
I0403 15:23:01.822187  3025 net.cpp:425] inception_4b/output <- inception_4b/3x3
I0403 15:23:01.822203  3025 net.cpp:425] inception_4b/output <- inception_4b/5x5
I0403 15:23:01.822219  3025 net.cpp:425] inception_4b/output <- inception_4b/pool_proj
I0403 15:23:01.822237  3025 net.cpp:399] inception_4b/output -> inception_4b/output
I0403 15:23:01.822288  3025 net.cpp:141] Setting up inception_4b/output
I0403 15:23:01.822310  3025 net.cpp:148] Top shape: 24 512 14 14 (2408448)
I0403 15:23:01.822325  3025 net.cpp:156] Memory required for data: 989857056
I0403 15:23:01.822353  3025 layer_factory.hpp:77] Creating layer inception_4b/output_inception_4b/output_0_split
I0403 15:23:01.822383  3025 net.cpp:91] Creating Layer inception_4b/output_inception_4b/output_0_split
I0403 15:23:01.822402  3025 net.cpp:425] inception_4b/output_inception_4b/output_0_split <- inception_4b/output
I0403 15:23:01.822422  3025 net.cpp:399] inception_4b/output_inception_4b/output_0_split -> inception_4b/output_inception_4b/output_0_split_0
I0403 15:23:01.822443  3025 net.cpp:399] inception_4b/output_inception_4b/output_0_split -> inception_4b/output_inception_4b/output_0_split_1
I0403 15:23:01.822463  3025 net.cpp:399] inception_4b/output_inception_4b/output_0_split -> inception_4b/output_inception_4b/output_0_split_2
I0403 15:23:01.822484  3025 net.cpp:399] inception_4b/output_inception_4b/output_0_split -> inception_4b/output_inception_4b/output_0_split_3
I0403 15:23:01.822571  3025 net.cpp:141] Setting up inception_4b/output_inception_4b/output_0_split
I0403 15:23:01.822597  3025 net.cpp:148] Top shape: 24 512 14 14 (2408448)
I0403 15:23:01.822614  3025 net.cpp:148] Top shape: 24 512 14 14 (2408448)
I0403 15:23:01.822630  3025 net.cpp:148] Top shape: 24 512 14 14 (2408448)
I0403 15:23:01.822648  3025 net.cpp:148] Top shape: 24 512 14 14 (2408448)
I0403 15:23:01.822661  3025 net.cpp:156] Memory required for data: 1028392224
I0403 15:23:01.822676  3025 layer_factory.hpp:77] Creating layer inception_4c/1x1
I0403 15:23:01.822700  3025 net.cpp:91] Creating Layer inception_4c/1x1
I0403 15:23:01.822717  3025 net.cpp:425] inception_4c/1x1 <- inception_4b/output_inception_4b/output_0_split_0
I0403 15:23:01.822739  3025 net.cpp:399] inception_4c/1x1 -> inception_4c/1x1
I0403 15:23:01.824218  3025 net.cpp:141] Setting up inception_4c/1x1
I0403 15:23:01.824249  3025 net.cpp:148] Top shape: 24 128 14 14 (602112)
I0403 15:23:01.824280  3025 net.cpp:156] Memory required for data: 1030800672
I0403 15:23:01.824298  3025 layer_factory.hpp:77] Creating layer inception_4c/relu_1x1
I0403 15:23:01.824321  3025 net.cpp:91] Creating Layer inception_4c/relu_1x1
I0403 15:23:01.824338  3025 net.cpp:425] inception_4c/relu_1x1 <- inception_4c/1x1
I0403 15:23:01.824357  3025 net.cpp:386] inception_4c/relu_1x1 -> inception_4c/1x1 (in-place)
I0403 15:23:01.824540  3025 net.cpp:141] Setting up inception_4c/relu_1x1
I0403 15:23:01.824566  3025 net.cpp:148] Top shape: 24 128 14 14 (602112)
I0403 15:23:01.824594  3025 net.cpp:156] Memory required for data: 1033209120
I0403 15:23:01.824609  3025 layer_factory.hpp:77] Creating layer inception_4c/3x3_reduce
I0403 15:23:01.824630  3025 net.cpp:91] Creating Layer inception_4c/3x3_reduce
I0403 15:23:01.824648  3025 net.cpp:425] inception_4c/3x3_reduce <- inception_4b/output_inception_4b/output_0_split_1
I0403 15:23:01.824669  3025 net.cpp:399] inception_4c/3x3_reduce -> inception_4c/3x3_reduce
I0403 15:23:01.826673  3025 net.cpp:141] Setting up inception_4c/3x3_reduce
I0403 15:23:01.826702  3025 net.cpp:148] Top shape: 24 128 14 14 (602112)
I0403 15:23:01.826717  3025 net.cpp:156] Memory required for data: 1035617568
I0403 15:23:01.826736  3025 layer_factory.hpp:77] Creating layer inception_4c/relu_3x3_reduce
I0403 15:23:01.826753  3025 net.cpp:91] Creating Layer inception_4c/relu_3x3_reduce
I0403 15:23:01.826769  3025 net.cpp:425] inception_4c/relu_3x3_reduce <- inception_4c/3x3_reduce
I0403 15:23:01.826789  3025 net.cpp:386] inception_4c/relu_3x3_reduce -> inception_4c/3x3_reduce (in-place)
I0403 15:23:01.827081  3025 net.cpp:141] Setting up inception_4c/relu_3x3_reduce
I0403 15:23:01.827107  3025 net.cpp:148] Top shape: 24 128 14 14 (602112)
I0403 15:23:01.827122  3025 net.cpp:156] Memory required for data: 1038026016
I0403 15:23:01.827137  3025 layer_factory.hpp:77] Creating layer inception_4c/3x3
I0403 15:23:01.827160  3025 net.cpp:91] Creating Layer inception_4c/3x3
I0403 15:23:01.827178  3025 net.cpp:425] inception_4c/3x3 <- inception_4c/3x3_reduce
I0403 15:23:01.827200  3025 net.cpp:399] inception_4c/3x3 -> inception_4c/3x3
I0403 15:23:01.830837  3025 net.cpp:141] Setting up inception_4c/3x3
I0403 15:23:01.830878  3025 net.cpp:148] Top shape: 24 256 14 14 (1204224)
I0403 15:23:01.830894  3025 net.cpp:156] Memory required for data: 1042842912
I0403 15:23:01.830926  3025 layer_factory.hpp:77] Creating layer inception_4c/relu_3x3
I0403 15:23:01.830948  3025 net.cpp:91] Creating Layer inception_4c/relu_3x3
I0403 15:23:01.830966  3025 net.cpp:425] inception_4c/relu_3x3 <- inception_4c/3x3
I0403 15:23:01.830983  3025 net.cpp:386] inception_4c/relu_3x3 -> inception_4c/3x3 (in-place)
I0403 15:23:01.831162  3025 net.cpp:141] Setting up inception_4c/relu_3x3
I0403 15:23:01.831187  3025 net.cpp:148] Top shape: 24 256 14 14 (1204224)
I0403 15:23:01.831202  3025 net.cpp:156] Memory required for data: 1047659808
I0403 15:23:01.831218  3025 layer_factory.hpp:77] Creating layer inception_4c/5x5_reduce
I0403 15:23:01.831244  3025 net.cpp:91] Creating Layer inception_4c/5x5_reduce
I0403 15:23:01.831264  3025 net.cpp:425] inception_4c/5x5_reduce <- inception_4b/output_inception_4b/output_0_split_2
I0403 15:23:01.831285  3025 net.cpp:399] inception_4c/5x5_reduce -> inception_4c/5x5_reduce
I0403 15:23:01.832412  3025 net.cpp:141] Setting up inception_4c/5x5_reduce
I0403 15:23:01.832442  3025 net.cpp:148] Top shape: 24 24 14 14 (112896)
I0403 15:23:01.832456  3025 net.cpp:156] Memory required for data: 1048111392
I0403 15:23:01.832474  3025 layer_factory.hpp:77] Creating layer inception_4c/relu_5x5_reduce
I0403 15:23:01.832494  3025 net.cpp:91] Creating Layer inception_4c/relu_5x5_reduce
I0403 15:23:01.832510  3025 net.cpp:425] inception_4c/relu_5x5_reduce <- inception_4c/5x5_reduce
I0403 15:23:01.832528  3025 net.cpp:386] inception_4c/relu_5x5_reduce -> inception_4c/5x5_reduce (in-place)
I0403 15:23:01.832705  3025 net.cpp:141] Setting up inception_4c/relu_5x5_reduce
I0403 15:23:01.832728  3025 net.cpp:148] Top shape: 24 24 14 14 (112896)
I0403 15:23:01.832742  3025 net.cpp:156] Memory required for data: 1048562976
I0403 15:23:01.832756  3025 layer_factory.hpp:77] Creating layer inception_4c/5x5
I0403 15:23:01.832778  3025 net.cpp:91] Creating Layer inception_4c/5x5
I0403 15:23:01.832795  3025 net.cpp:425] inception_4c/5x5 <- inception_4c/5x5_reduce
I0403 15:23:01.832815  3025 net.cpp:399] inception_4c/5x5 -> inception_4c/5x5
I0403 15:23:01.834023  3025 net.cpp:141] Setting up inception_4c/5x5
I0403 15:23:01.834050  3025 net.cpp:148] Top shape: 24 64 14 14 (301056)
I0403 15:23:01.834065  3025 net.cpp:156] Memory required for data: 1049767200
I0403 15:23:01.834084  3025 layer_factory.hpp:77] Creating layer inception_4c/relu_5x5
I0403 15:23:01.834103  3025 net.cpp:91] Creating Layer inception_4c/relu_5x5
I0403 15:23:01.834120  3025 net.cpp:425] inception_4c/relu_5x5 <- inception_4c/5x5
I0403 15:23:01.834136  3025 net.cpp:386] inception_4c/relu_5x5 -> inception_4c/5x5 (in-place)
I0403 15:23:01.834417  3025 net.cpp:141] Setting up inception_4c/relu_5x5
I0403 15:23:01.834445  3025 net.cpp:148] Top shape: 24 64 14 14 (301056)
I0403 15:23:01.834460  3025 net.cpp:156] Memory required for data: 1050971424
I0403 15:23:01.834475  3025 layer_factory.hpp:77] Creating layer inception_4c/pool
I0403 15:23:01.834496  3025 net.cpp:91] Creating Layer inception_4c/pool
I0403 15:23:01.834511  3025 net.cpp:425] inception_4c/pool <- inception_4b/output_inception_4b/output_0_split_3
I0403 15:23:01.834529  3025 net.cpp:399] inception_4c/pool -> inception_4c/pool
I0403 15:23:01.834594  3025 net.cpp:141] Setting up inception_4c/pool
I0403 15:23:01.834616  3025 net.cpp:148] Top shape: 24 512 14 14 (2408448)
I0403 15:23:01.834631  3025 net.cpp:156] Memory required for data: 1060605216
I0403 15:23:01.834645  3025 layer_factory.hpp:77] Creating layer inception_4c/pool_proj
I0403 15:23:01.834667  3025 net.cpp:91] Creating Layer inception_4c/pool_proj
I0403 15:23:01.834684  3025 net.cpp:425] inception_4c/pool_proj <- inception_4c/pool
I0403 15:23:01.834705  3025 net.cpp:399] inception_4c/pool_proj -> inception_4c/pool_proj
I0403 15:23:01.835886  3025 net.cpp:141] Setting up inception_4c/pool_proj
I0403 15:23:01.835912  3025 net.cpp:148] Top shape: 24 64 14 14 (301056)
I0403 15:23:01.835940  3025 net.cpp:156] Memory required for data: 1061809440
I0403 15:23:01.835959  3025 layer_factory.hpp:77] Creating layer inception_4c/relu_pool_proj
I0403 15:23:01.835979  3025 net.cpp:91] Creating Layer inception_4c/relu_pool_proj
I0403 15:23:01.835996  3025 net.cpp:425] inception_4c/relu_pool_proj <- inception_4c/pool_proj
I0403 15:23:01.836014  3025 net.cpp:386] inception_4c/relu_pool_proj -> inception_4c/pool_proj (in-place)
I0403 15:23:01.836187  3025 net.cpp:141] Setting up inception_4c/relu_pool_proj
I0403 15:23:01.836211  3025 net.cpp:148] Top shape: 24 64 14 14 (301056)
I0403 15:23:01.836225  3025 net.cpp:156] Memory required for data: 1063013664
I0403 15:23:01.836242  3025 layer_factory.hpp:77] Creating layer inception_4c/output
I0403 15:23:01.836263  3025 net.cpp:91] Creating Layer inception_4c/output
I0403 15:23:01.836279  3025 net.cpp:425] inception_4c/output <- inception_4c/1x1
I0403 15:23:01.836297  3025 net.cpp:425] inception_4c/output <- inception_4c/3x3
I0403 15:23:01.836313  3025 net.cpp:425] inception_4c/output <- inception_4c/5x5
I0403 15:23:01.836328  3025 net.cpp:425] inception_4c/output <- inception_4c/pool_proj
I0403 15:23:01.836344  3025 net.cpp:399] inception_4c/output -> inception_4c/output
I0403 15:23:01.836390  3025 net.cpp:141] Setting up inception_4c/output
I0403 15:23:01.836412  3025 net.cpp:148] Top shape: 24 512 14 14 (2408448)
I0403 15:23:01.836426  3025 net.cpp:156] Memory required for data: 1072647456
I0403 15:23:01.836442  3025 layer_factory.hpp:77] Creating layer inception_4c/output_inception_4c/output_0_split
I0403 15:23:01.836458  3025 net.cpp:91] Creating Layer inception_4c/output_inception_4c/output_0_split
I0403 15:23:01.836473  3025 net.cpp:425] inception_4c/output_inception_4c/output_0_split <- inception_4c/output
I0403 15:23:01.836493  3025 net.cpp:399] inception_4c/output_inception_4c/output_0_split -> inception_4c/output_inception_4c/output_0_split_0
I0403 15:23:01.836513  3025 net.cpp:399] inception_4c/output_inception_4c/output_0_split -> inception_4c/output_inception_4c/output_0_split_1
I0403 15:23:01.836532  3025 net.cpp:399] inception_4c/output_inception_4c/output_0_split -> inception_4c/output_inception_4c/output_0_split_2
I0403 15:23:01.836552  3025 net.cpp:399] inception_4c/output_inception_4c/output_0_split -> inception_4c/output_inception_4c/output_0_split_3
I0403 15:23:01.836637  3025 net.cpp:141] Setting up inception_4c/output_inception_4c/output_0_split
I0403 15:23:01.836663  3025 net.cpp:148] Top shape: 24 512 14 14 (2408448)
I0403 15:23:01.836678  3025 net.cpp:148] Top shape: 24 512 14 14 (2408448)
I0403 15:23:01.836694  3025 net.cpp:148] Top shape: 24 512 14 14 (2408448)
I0403 15:23:01.836709  3025 net.cpp:148] Top shape: 24 512 14 14 (2408448)
I0403 15:23:01.836724  3025 net.cpp:156] Memory required for data: 1111182624
I0403 15:23:01.836737  3025 layer_factory.hpp:77] Creating layer inception_4d/1x1
I0403 15:23:01.836758  3025 net.cpp:91] Creating Layer inception_4d/1x1
I0403 15:23:01.836776  3025 net.cpp:425] inception_4d/1x1 <- inception_4c/output_inception_4c/output_0_split_0
I0403 15:23:01.836793  3025 net.cpp:399] inception_4d/1x1 -> inception_4d/1x1
I0403 15:23:01.838129  3025 net.cpp:141] Setting up inception_4d/1x1
I0403 15:23:01.838157  3025 net.cpp:148] Top shape: 24 112 14 14 (526848)
I0403 15:23:01.838173  3025 net.cpp:156] Memory required for data: 1113290016
I0403 15:23:01.838191  3025 layer_factory.hpp:77] Creating layer inception_4d/relu_1x1
I0403 15:23:01.838209  3025 net.cpp:91] Creating Layer inception_4d/relu_1x1
I0403 15:23:01.838224  3025 net.cpp:425] inception_4d/relu_1x1 <- inception_4d/1x1
I0403 15:23:01.838246  3025 net.cpp:386] inception_4d/relu_1x1 -> inception_4d/1x1 (in-place)
I0403 15:23:01.838428  3025 net.cpp:141] Setting up inception_4d/relu_1x1
I0403 15:23:01.838451  3025 net.cpp:148] Top shape: 24 112 14 14 (526848)
I0403 15:23:01.838465  3025 net.cpp:156] Memory required for data: 1115397408
I0403 15:23:01.838480  3025 layer_factory.hpp:77] Creating layer inception_4d/3x3_reduce
I0403 15:23:01.838515  3025 net.cpp:91] Creating Layer inception_4d/3x3_reduce
I0403 15:23:01.838532  3025 net.cpp:425] inception_4d/3x3_reduce <- inception_4c/output_inception_4c/output_0_split_1
I0403 15:23:01.838554  3025 net.cpp:399] inception_4d/3x3_reduce -> inception_4d/3x3_reduce
I0403 15:23:01.840034  3025 net.cpp:141] Setting up inception_4d/3x3_reduce
I0403 15:23:01.840064  3025 net.cpp:148] Top shape: 24 144 14 14 (677376)
I0403 15:23:01.840080  3025 net.cpp:156] Memory required for data: 1118106912
I0403 15:23:01.840097  3025 layer_factory.hpp:77] Creating layer inception_4d/relu_3x3_reduce
I0403 15:23:01.840116  3025 net.cpp:91] Creating Layer inception_4d/relu_3x3_reduce
I0403 15:23:01.840131  3025 net.cpp:425] inception_4d/relu_3x3_reduce <- inception_4d/3x3_reduce
I0403 15:23:01.840147  3025 net.cpp:386] inception_4d/relu_3x3_reduce -> inception_4d/3x3_reduce (in-place)
I0403 15:23:01.840432  3025 net.cpp:141] Setting up inception_4d/relu_3x3_reduce
I0403 15:23:01.840461  3025 net.cpp:148] Top shape: 24 144 14 14 (677376)
I0403 15:23:01.840476  3025 net.cpp:156] Memory required for data: 1120816416
I0403 15:23:01.840490  3025 layer_factory.hpp:77] Creating layer inception_4d/3x3
I0403 15:23:01.840512  3025 net.cpp:91] Creating Layer inception_4d/3x3
I0403 15:23:01.840530  3025 net.cpp:425] inception_4d/3x3 <- inception_4d/3x3_reduce
I0403 15:23:01.840549  3025 net.cpp:399] inception_4d/3x3 -> inception_4d/3x3
I0403 15:23:01.844683  3025 net.cpp:141] Setting up inception_4d/3x3
I0403 15:23:01.844712  3025 net.cpp:148] Top shape: 24 288 14 14 (1354752)
I0403 15:23:01.844727  3025 net.cpp:156] Memory required for data: 1126235424
I0403 15:23:01.844745  3025 layer_factory.hpp:77] Creating layer inception_4d/relu_3x3
I0403 15:23:01.844763  3025 net.cpp:91] Creating Layer inception_4d/relu_3x3
I0403 15:23:01.844779  3025 net.cpp:425] inception_4d/relu_3x3 <- inception_4d/3x3
I0403 15:23:01.844799  3025 net.cpp:386] inception_4d/relu_3x3 -> inception_4d/3x3 (in-place)
I0403 15:23:01.844976  3025 net.cpp:141] Setting up inception_4d/relu_3x3
I0403 15:23:01.845000  3025 net.cpp:148] Top shape: 24 288 14 14 (1354752)
I0403 15:23:01.845016  3025 net.cpp:156] Memory required for data: 1131654432
I0403 15:23:01.845031  3025 layer_factory.hpp:77] Creating layer inception_4d/5x5_reduce
I0403 15:23:01.845052  3025 net.cpp:91] Creating Layer inception_4d/5x5_reduce
I0403 15:23:01.845068  3025 net.cpp:425] inception_4d/5x5_reduce <- inception_4c/output_inception_4c/output_0_split_2
I0403 15:23:01.845089  3025 net.cpp:399] inception_4d/5x5_reduce -> inception_4d/5x5_reduce
I0403 15:23:01.846246  3025 net.cpp:141] Setting up inception_4d/5x5_reduce
I0403 15:23:01.846274  3025 net.cpp:148] Top shape: 24 32 14 14 (150528)
I0403 15:23:01.846290  3025 net.cpp:156] Memory required for data: 1132256544
I0403 15:23:01.846308  3025 layer_factory.hpp:77] Creating layer inception_4d/relu_5x5_reduce
I0403 15:23:01.846326  3025 net.cpp:91] Creating Layer inception_4d/relu_5x5_reduce
I0403 15:23:01.846341  3025 net.cpp:425] inception_4d/relu_5x5_reduce <- inception_4d/5x5_reduce
I0403 15:23:01.846360  3025 net.cpp:386] inception_4d/relu_5x5_reduce -> inception_4d/5x5_reduce (in-place)
I0403 15:23:01.846545  3025 net.cpp:141] Setting up inception_4d/relu_5x5_reduce
I0403 15:23:01.846570  3025 net.cpp:148] Top shape: 24 32 14 14 (150528)
I0403 15:23:01.846583  3025 net.cpp:156] Memory required for data: 1132858656
I0403 15:23:01.846598  3025 layer_factory.hpp:77] Creating layer inception_4d/5x5
I0403 15:23:01.846621  3025 net.cpp:91] Creating Layer inception_4d/5x5
I0403 15:23:01.846637  3025 net.cpp:425] inception_4d/5x5 <- inception_4d/5x5_reduce
I0403 15:23:01.846658  3025 net.cpp:399] inception_4d/5x5 -> inception_4d/5x5
I0403 15:23:01.848090  3025 net.cpp:141] Setting up inception_4d/5x5
I0403 15:23:01.848117  3025 net.cpp:148] Top shape: 24 64 14 14 (301056)
I0403 15:23:01.848132  3025 net.cpp:156] Memory required for data: 1134062880
I0403 15:23:01.848151  3025 layer_factory.hpp:77] Creating layer inception_4d/relu_5x5
I0403 15:23:01.848186  3025 net.cpp:91] Creating Layer inception_4d/relu_5x5
I0403 15:23:01.848202  3025 net.cpp:425] inception_4d/relu_5x5 <- inception_4d/5x5
I0403 15:23:01.848220  3025 net.cpp:386] inception_4d/relu_5x5 -> inception_4d/5x5 (in-place)
I0403 15:23:01.848515  3025 net.cpp:141] Setting up inception_4d/relu_5x5
I0403 15:23:01.848541  3025 net.cpp:148] Top shape: 24 64 14 14 (301056)
I0403 15:23:01.848556  3025 net.cpp:156] Memory required for data: 1135267104
I0403 15:23:01.848570  3025 layer_factory.hpp:77] Creating layer inception_4d/pool
I0403 15:23:01.848589  3025 net.cpp:91] Creating Layer inception_4d/pool
I0403 15:23:01.848606  3025 net.cpp:425] inception_4d/pool <- inception_4c/output_inception_4c/output_0_split_3
I0403 15:23:01.848623  3025 net.cpp:399] inception_4d/pool -> inception_4d/pool
I0403 15:23:01.848691  3025 net.cpp:141] Setting up inception_4d/pool
I0403 15:23:01.848713  3025 net.cpp:148] Top shape: 24 512 14 14 (2408448)
I0403 15:23:01.848727  3025 net.cpp:156] Memory required for data: 1144900896
I0403 15:23:01.848742  3025 layer_factory.hpp:77] Creating layer inception_4d/pool_proj
I0403 15:23:01.848763  3025 net.cpp:91] Creating Layer inception_4d/pool_proj
I0403 15:23:01.848780  3025 net.cpp:425] inception_4d/pool_proj <- inception_4d/pool
I0403 15:23:01.848801  3025 net.cpp:399] inception_4d/pool_proj -> inception_4d/pool_proj
I0403 15:23:01.850561  3025 net.cpp:141] Setting up inception_4d/pool_proj
I0403 15:23:01.850592  3025 net.cpp:148] Top shape: 24 64 14 14 (301056)
I0403 15:23:01.850620  3025 net.cpp:156] Memory required for data: 1146105120
I0403 15:23:01.850638  3025 layer_factory.hpp:77] Creating layer inception_4d/relu_pool_proj
I0403 15:23:01.850656  3025 net.cpp:91] Creating Layer inception_4d/relu_pool_proj
I0403 15:23:01.850672  3025 net.cpp:425] inception_4d/relu_pool_proj <- inception_4d/pool_proj
I0403 15:23:01.850692  3025 net.cpp:386] inception_4d/relu_pool_proj -> inception_4d/pool_proj (in-place)
I0403 15:23:01.850878  3025 net.cpp:141] Setting up inception_4d/relu_pool_proj
I0403 15:23:01.850903  3025 net.cpp:148] Top shape: 24 64 14 14 (301056)
I0403 15:23:01.850917  3025 net.cpp:156] Memory required for data: 1147309344
I0403 15:23:01.850931  3025 layer_factory.hpp:77] Creating layer inception_4d/output
I0403 15:23:01.850951  3025 net.cpp:91] Creating Layer inception_4d/output
I0403 15:23:01.850967  3025 net.cpp:425] inception_4d/output <- inception_4d/1x1
I0403 15:23:01.850986  3025 net.cpp:425] inception_4d/output <- inception_4d/3x3
I0403 15:23:01.851001  3025 net.cpp:425] inception_4d/output <- inception_4d/5x5
I0403 15:23:01.851017  3025 net.cpp:425] inception_4d/output <- inception_4d/pool_proj
I0403 15:23:01.851034  3025 net.cpp:399] inception_4d/output -> inception_4d/output
I0403 15:23:01.851080  3025 net.cpp:141] Setting up inception_4d/output
I0403 15:23:01.851106  3025 net.cpp:148] Top shape: 24 528 14 14 (2483712)
I0403 15:23:01.851121  3025 net.cpp:156] Memory required for data: 1157244192
I0403 15:23:01.851137  3025 layer_factory.hpp:77] Creating layer inception_4d/output_inception_4d/output_0_split
I0403 15:23:01.851155  3025 net.cpp:91] Creating Layer inception_4d/output_inception_4d/output_0_split
I0403 15:23:01.851171  3025 net.cpp:425] inception_4d/output_inception_4d/output_0_split <- inception_4d/output
I0403 15:23:01.851191  3025 net.cpp:399] inception_4d/output_inception_4d/output_0_split -> inception_4d/output_inception_4d/output_0_split_0
I0403 15:23:01.851212  3025 net.cpp:399] inception_4d/output_inception_4d/output_0_split -> inception_4d/output_inception_4d/output_0_split_1
I0403 15:23:01.851232  3025 net.cpp:399] inception_4d/output_inception_4d/output_0_split -> inception_4d/output_inception_4d/output_0_split_2
I0403 15:23:01.851258  3025 net.cpp:399] inception_4d/output_inception_4d/output_0_split -> inception_4d/output_inception_4d/output_0_split_3
I0403 15:23:01.851277  3025 net.cpp:399] inception_4d/output_inception_4d/output_0_split -> inception_4d/output_inception_4d/output_0_split_4
I0403 15:23:01.851380  3025 net.cpp:141] Setting up inception_4d/output_inception_4d/output_0_split
I0403 15:23:01.851415  3025 net.cpp:148] Top shape: 24 528 14 14 (2483712)
I0403 15:23:01.851436  3025 net.cpp:148] Top shape: 24 528 14 14 (2483712)
I0403 15:23:01.851454  3025 net.cpp:148] Top shape: 24 528 14 14 (2483712)
I0403 15:23:01.851469  3025 net.cpp:148] Top shape: 24 528 14 14 (2483712)
I0403 15:23:01.851485  3025 net.cpp:148] Top shape: 24 528 14 14 (2483712)
I0403 15:23:01.851498  3025 net.cpp:156] Memory required for data: 1206918432
I0403 15:23:01.851513  3025 layer_factory.hpp:77] Creating layer loss2/ave_pool
I0403 15:23:01.851531  3025 net.cpp:91] Creating Layer loss2/ave_pool
I0403 15:23:01.851547  3025 net.cpp:425] loss2/ave_pool <- inception_4d/output_inception_4d/output_0_split_0
I0403 15:23:01.851567  3025 net.cpp:399] loss2/ave_pool -> loss2/ave_pool
I0403 15:23:01.851881  3025 net.cpp:141] Setting up loss2/ave_pool
I0403 15:23:01.851907  3025 net.cpp:148] Top shape: 24 528 4 4 (202752)
I0403 15:23:01.851922  3025 net.cpp:156] Memory required for data: 1207729440
I0403 15:23:01.851936  3025 layer_factory.hpp:77] Creating layer loss2/conv
I0403 15:23:01.851959  3025 net.cpp:91] Creating Layer loss2/conv
I0403 15:23:01.851977  3025 net.cpp:425] loss2/conv <- loss2/ave_pool
I0403 15:23:01.851999  3025 net.cpp:399] loss2/conv -> loss2/conv
I0403 15:23:01.853904  3025 net.cpp:141] Setting up loss2/conv
I0403 15:23:01.853932  3025 net.cpp:148] Top shape: 24 128 4 4 (49152)
I0403 15:23:01.853948  3025 net.cpp:156] Memory required for data: 1207926048
I0403 15:23:01.853967  3025 layer_factory.hpp:77] Creating layer loss2/relu_conv
I0403 15:23:01.853988  3025 net.cpp:91] Creating Layer loss2/relu_conv
I0403 15:23:01.854006  3025 net.cpp:425] loss2/relu_conv <- loss2/conv
I0403 15:23:01.854023  3025 net.cpp:386] loss2/relu_conv -> loss2/conv (in-place)
I0403 15:23:01.854320  3025 net.cpp:141] Setting up loss2/relu_conv
I0403 15:23:01.854346  3025 net.cpp:148] Top shape: 24 128 4 4 (49152)
I0403 15:23:01.854360  3025 net.cpp:156] Memory required for data: 1208122656
I0403 15:23:01.854375  3025 layer_factory.hpp:77] Creating layer loss2/fc
I0403 15:23:01.854396  3025 net.cpp:91] Creating Layer loss2/fc
I0403 15:23:01.854413  3025 net.cpp:425] loss2/fc <- loss2/conv
I0403 15:23:01.854431  3025 net.cpp:399] loss2/fc -> loss2/fc
I0403 15:23:01.872439  3025 net.cpp:141] Setting up loss2/fc
I0403 15:23:01.872498  3025 net.cpp:148] Top shape: 24 1024 (24576)
I0403 15:23:01.872514  3025 net.cpp:156] Memory required for data: 1208220960
I0403 15:23:01.872534  3025 layer_factory.hpp:77] Creating layer loss2/relu_fc
I0403 15:23:01.872552  3025 net.cpp:91] Creating Layer loss2/relu_fc
I0403 15:23:01.872570  3025 net.cpp:425] loss2/relu_fc <- loss2/fc
I0403 15:23:01.872591  3025 net.cpp:386] loss2/relu_fc -> loss2/fc (in-place)
I0403 15:23:01.872925  3025 net.cpp:141] Setting up loss2/relu_fc
I0403 15:23:01.872951  3025 net.cpp:148] Top shape: 24 1024 (24576)
I0403 15:23:01.872967  3025 net.cpp:156] Memory required for data: 1208319264
I0403 15:23:01.872982  3025 layer_factory.hpp:77] Creating layer loss2/drop_fc
I0403 15:23:01.873002  3025 net.cpp:91] Creating Layer loss2/drop_fc
I0403 15:23:01.873018  3025 net.cpp:425] loss2/drop_fc <- loss2/fc
I0403 15:23:01.873039  3025 net.cpp:386] loss2/drop_fc -> loss2/fc (in-place)
I0403 15:23:01.873090  3025 net.cpp:141] Setting up loss2/drop_fc
I0403 15:23:01.873116  3025 net.cpp:148] Top shape: 24 1024 (24576)
I0403 15:23:01.873132  3025 net.cpp:156] Memory required for data: 1208417568
I0403 15:23:01.873147  3025 layer_factory.hpp:77] Creating layer loss2/classifier_plantvillage
I0403 15:23:01.873167  3025 net.cpp:91] Creating Layer loss2/classifier_plantvillage
I0403 15:23:01.873183  3025 net.cpp:425] loss2/classifier_plantvillage <- loss2/fc
I0403 15:23:01.873203  3025 net.cpp:399] loss2/classifier_plantvillage -> loss2/classifier_plantvillage
I0403 15:23:01.873625  3025 net.cpp:141] Setting up loss2/classifier_plantvillage
I0403 15:23:01.873651  3025 net.cpp:148] Top shape: 24 38 (912)
I0403 15:23:01.873684  3025 net.cpp:156] Memory required for data: 1208421216
I0403 15:23:01.873704  3025 layer_factory.hpp:77] Creating layer loss2/classifier_plantvillage_loss2/classifier_plantvillage_0_split
I0403 15:23:01.873723  3025 net.cpp:91] Creating Layer loss2/classifier_plantvillage_loss2/classifier_plantvillage_0_split
I0403 15:23:01.873739  3025 net.cpp:425] loss2/classifier_plantvillage_loss2/classifier_plantvillage_0_split <- loss2/classifier_plantvillage
I0403 15:23:01.873755  3025 net.cpp:399] loss2/classifier_plantvillage_loss2/classifier_plantvillage_0_split -> loss2/classifier_plantvillage_loss2/classifier_plantvillage_0_split_0
I0403 15:23:01.873775  3025 net.cpp:399] loss2/classifier_plantvillage_loss2/classifier_plantvillage_0_split -> loss2/classifier_plantvillage_loss2/classifier_plantvillage_0_split_1
I0403 15:23:01.873796  3025 net.cpp:399] loss2/classifier_plantvillage_loss2/classifier_plantvillage_0_split -> loss2/classifier_plantvillage_loss2/classifier_plantvillage_0_split_2
I0403 15:23:01.873874  3025 net.cpp:141] Setting up loss2/classifier_plantvillage_loss2/classifier_plantvillage_0_split
I0403 15:23:01.873898  3025 net.cpp:148] Top shape: 24 38 (912)
I0403 15:23:01.873914  3025 net.cpp:148] Top shape: 24 38 (912)
I0403 15:23:01.873929  3025 net.cpp:148] Top shape: 24 38 (912)
I0403 15:23:01.873944  3025 net.cpp:156] Memory required for data: 1208432160
I0403 15:23:01.873957  3025 layer_factory.hpp:77] Creating layer inception_4e/1x1
I0403 15:23:01.873978  3025 net.cpp:91] Creating Layer inception_4e/1x1
I0403 15:23:01.873996  3025 net.cpp:425] inception_4e/1x1 <- inception_4d/output_inception_4d/output_0_split_1
I0403 15:23:01.874017  3025 net.cpp:399] inception_4e/1x1 -> inception_4e/1x1
I0403 15:23:01.875875  3025 net.cpp:141] Setting up inception_4e/1x1
I0403 15:23:01.875902  3025 net.cpp:148] Top shape: 24 256 14 14 (1204224)
I0403 15:23:01.875918  3025 net.cpp:156] Memory required for data: 1213249056
I0403 15:23:01.875937  3025 layer_factory.hpp:77] Creating layer inception_4e/relu_1x1
I0403 15:23:01.875957  3025 net.cpp:91] Creating Layer inception_4e/relu_1x1
I0403 15:23:01.875974  3025 net.cpp:425] inception_4e/relu_1x1 <- inception_4e/1x1
I0403 15:23:01.875991  3025 net.cpp:386] inception_4e/relu_1x1 -> inception_4e/1x1 (in-place)
I0403 15:23:01.876292  3025 net.cpp:141] Setting up inception_4e/relu_1x1
I0403 15:23:01.876318  3025 net.cpp:148] Top shape: 24 256 14 14 (1204224)
I0403 15:23:01.876333  3025 net.cpp:156] Memory required for data: 1218065952
I0403 15:23:01.876348  3025 layer_factory.hpp:77] Creating layer inception_4e/3x3_reduce
I0403 15:23:01.876370  3025 net.cpp:91] Creating Layer inception_4e/3x3_reduce
I0403 15:23:01.876390  3025 net.cpp:425] inception_4e/3x3_reduce <- inception_4d/output_inception_4d/output_0_split_2
I0403 15:23:01.876410  3025 net.cpp:399] inception_4e/3x3_reduce -> inception_4e/3x3_reduce
I0403 15:23:01.878548  3025 net.cpp:141] Setting up inception_4e/3x3_reduce
I0403 15:23:01.878577  3025 net.cpp:148] Top shape: 24 160 14 14 (752640)
I0403 15:23:01.878593  3025 net.cpp:156] Memory required for data: 1221076512
I0403 15:23:01.878612  3025 layer_factory.hpp:77] Creating layer inception_4e/relu_3x3_reduce
I0403 15:23:01.878633  3025 net.cpp:91] Creating Layer inception_4e/relu_3x3_reduce
I0403 15:23:01.878649  3025 net.cpp:425] inception_4e/relu_3x3_reduce <- inception_4e/3x3_reduce
I0403 15:23:01.878667  3025 net.cpp:386] inception_4e/relu_3x3_reduce -> inception_4e/3x3_reduce (in-place)
I0403 15:23:01.878854  3025 net.cpp:141] Setting up inception_4e/relu_3x3_reduce
I0403 15:23:01.878880  3025 net.cpp:148] Top shape: 24 160 14 14 (752640)
I0403 15:23:01.878893  3025 net.cpp:156] Memory required for data: 1224087072
I0403 15:23:01.878908  3025 layer_factory.hpp:77] Creating layer inception_4e/3x3
I0403 15:23:01.878932  3025 net.cpp:91] Creating Layer inception_4e/3x3
I0403 15:23:01.878949  3025 net.cpp:425] inception_4e/3x3 <- inception_4e/3x3_reduce
I0403 15:23:01.878968  3025 net.cpp:399] inception_4e/3x3 -> inception_4e/3x3
I0403 15:23:01.883991  3025 net.cpp:141] Setting up inception_4e/3x3
I0403 15:23:01.884033  3025 net.cpp:148] Top shape: 24 320 14 14 (1505280)
I0403 15:23:01.884049  3025 net.cpp:156] Memory required for data: 1230108192
I0403 15:23:01.884068  3025 layer_factory.hpp:77] Creating layer inception_4e/relu_3x3
I0403 15:23:01.884088  3025 net.cpp:91] Creating Layer inception_4e/relu_3x3
I0403 15:23:01.884105  3025 net.cpp:425] inception_4e/relu_3x3 <- inception_4e/3x3
I0403 15:23:01.884124  3025 net.cpp:386] inception_4e/relu_3x3 -> inception_4e/3x3 (in-place)
I0403 15:23:01.884436  3025 net.cpp:141] Setting up inception_4e/relu_3x3
I0403 15:23:01.884465  3025 net.cpp:148] Top shape: 24 320 14 14 (1505280)
I0403 15:23:01.884481  3025 net.cpp:156] Memory required for data: 1236129312
I0403 15:23:01.884496  3025 layer_factory.hpp:77] Creating layer inception_4e/5x5_reduce
I0403 15:23:01.884519  3025 net.cpp:91] Creating Layer inception_4e/5x5_reduce
I0403 15:23:01.884537  3025 net.cpp:425] inception_4e/5x5_reduce <- inception_4d/output_inception_4d/output_0_split_3
I0403 15:23:01.884557  3025 net.cpp:399] inception_4e/5x5_reduce -> inception_4e/5x5_reduce
I0403 15:23:01.885644  3025 net.cpp:141] Setting up inception_4e/5x5_reduce
I0403 15:23:01.885671  3025 net.cpp:148] Top shape: 24 32 14 14 (150528)
I0403 15:23:01.885687  3025 net.cpp:156] Memory required for data: 1236731424
I0403 15:23:01.885705  3025 layer_factory.hpp:77] Creating layer inception_4e/relu_5x5_reduce
I0403 15:23:01.885725  3025 net.cpp:91] Creating Layer inception_4e/relu_5x5_reduce
I0403 15:23:01.885742  3025 net.cpp:425] inception_4e/relu_5x5_reduce <- inception_4e/5x5_reduce
I0403 15:23:01.885759  3025 net.cpp:386] inception_4e/relu_5x5_reduce -> inception_4e/5x5_reduce (in-place)
I0403 15:23:01.886061  3025 net.cpp:141] Setting up inception_4e/relu_5x5_reduce
I0403 15:23:01.886086  3025 net.cpp:148] Top shape: 24 32 14 14 (150528)
I0403 15:23:01.886101  3025 net.cpp:156] Memory required for data: 1237333536
I0403 15:23:01.886116  3025 layer_factory.hpp:77] Creating layer inception_4e/5x5
I0403 15:23:01.886154  3025 net.cpp:91] Creating Layer inception_4e/5x5
I0403 15:23:01.886173  3025 net.cpp:425] inception_4e/5x5 <- inception_4e/5x5_reduce
I0403 15:23:01.886196  3025 net.cpp:399] inception_4e/5x5 -> inception_4e/5x5
I0403 15:23:01.888080  3025 net.cpp:141] Setting up inception_4e/5x5
I0403 15:23:01.888108  3025 net.cpp:148] Top shape: 24 128 14 14 (602112)
I0403 15:23:01.888123  3025 net.cpp:156] Memory required for data: 1239741984
I0403 15:23:01.888142  3025 layer_factory.hpp:77] Creating layer inception_4e/relu_5x5
I0403 15:23:01.888161  3025 net.cpp:91] Creating Layer inception_4e/relu_5x5
I0403 15:23:01.888177  3025 net.cpp:425] inception_4e/relu_5x5 <- inception_4e/5x5
I0403 15:23:01.888197  3025 net.cpp:386] inception_4e/relu_5x5 -> inception_4e/5x5 (in-place)
I0403 15:23:01.888399  3025 net.cpp:141] Setting up inception_4e/relu_5x5
I0403 15:23:01.888425  3025 net.cpp:148] Top shape: 24 128 14 14 (602112)
I0403 15:23:01.888440  3025 net.cpp:156] Memory required for data: 1242150432
I0403 15:23:01.888454  3025 layer_factory.hpp:77] Creating layer inception_4e/pool
I0403 15:23:01.888476  3025 net.cpp:91] Creating Layer inception_4e/pool
I0403 15:23:01.888492  3025 net.cpp:425] inception_4e/pool <- inception_4d/output_inception_4d/output_0_split_4
I0403 15:23:01.888512  3025 net.cpp:399] inception_4e/pool -> inception_4e/pool
I0403 15:23:01.888583  3025 net.cpp:141] Setting up inception_4e/pool
I0403 15:23:01.888607  3025 net.cpp:148] Top shape: 24 528 14 14 (2483712)
I0403 15:23:01.888622  3025 net.cpp:156] Memory required for data: 1252085280
I0403 15:23:01.888636  3025 layer_factory.hpp:77] Creating layer inception_4e/pool_proj
I0403 15:23:01.888659  3025 net.cpp:91] Creating Layer inception_4e/pool_proj
I0403 15:23:01.888675  3025 net.cpp:425] inception_4e/pool_proj <- inception_4e/pool
I0403 15:23:01.888697  3025 net.cpp:399] inception_4e/pool_proj -> inception_4e/pool_proj
I0403 15:23:01.890213  3025 net.cpp:141] Setting up inception_4e/pool_proj
I0403 15:23:01.890254  3025 net.cpp:148] Top shape: 24 128 14 14 (602112)
I0403 15:23:01.890271  3025 net.cpp:156] Memory required for data: 1254493728
I0403 15:23:01.890290  3025 layer_factory.hpp:77] Creating layer inception_4e/relu_pool_proj
I0403 15:23:01.890308  3025 net.cpp:91] Creating Layer inception_4e/relu_pool_proj
I0403 15:23:01.890324  3025 net.cpp:425] inception_4e/relu_pool_proj <- inception_4e/pool_proj
I0403 15:23:01.890344  3025 net.cpp:386] inception_4e/relu_pool_proj -> inception_4e/pool_proj (in-place)
I0403 15:23:01.890640  3025 net.cpp:141] Setting up inception_4e/relu_pool_proj
I0403 15:23:01.890666  3025 net.cpp:148] Top shape: 24 128 14 14 (602112)
I0403 15:23:01.890681  3025 net.cpp:156] Memory required for data: 1256902176
I0403 15:23:01.890696  3025 layer_factory.hpp:77] Creating layer inception_4e/output
I0403 15:23:01.890713  3025 net.cpp:91] Creating Layer inception_4e/output
I0403 15:23:01.890729  3025 net.cpp:425] inception_4e/output <- inception_4e/1x1
I0403 15:23:01.890745  3025 net.cpp:425] inception_4e/output <- inception_4e/3x3
I0403 15:23:01.890761  3025 net.cpp:425] inception_4e/output <- inception_4e/5x5
I0403 15:23:01.890777  3025 net.cpp:425] inception_4e/output <- inception_4e/pool_proj
I0403 15:23:01.890796  3025 net.cpp:399] inception_4e/output -> inception_4e/output
I0403 15:23:01.890846  3025 net.cpp:141] Setting up inception_4e/output
I0403 15:23:01.890872  3025 net.cpp:148] Top shape: 24 832 14 14 (3913728)
I0403 15:23:01.890887  3025 net.cpp:156] Memory required for data: 1272557088
I0403 15:23:01.890902  3025 layer_factory.hpp:77] Creating layer pool4/3x3_s2
I0403 15:23:01.890918  3025 net.cpp:91] Creating Layer pool4/3x3_s2
I0403 15:23:01.890934  3025 net.cpp:425] pool4/3x3_s2 <- inception_4e/output
I0403 15:23:01.890954  3025 net.cpp:399] pool4/3x3_s2 -> pool4/3x3_s2
I0403 15:23:01.891021  3025 net.cpp:141] Setting up pool4/3x3_s2
I0403 15:23:01.891044  3025 net.cpp:148] Top shape: 24 832 7 7 (978432)
I0403 15:23:01.891058  3025 net.cpp:156] Memory required for data: 1276470816
I0403 15:23:01.891072  3025 layer_factory.hpp:77] Creating layer pool4/3x3_s2_pool4/3x3_s2_0_split
I0403 15:23:01.891090  3025 net.cpp:91] Creating Layer pool4/3x3_s2_pool4/3x3_s2_0_split
I0403 15:23:01.891106  3025 net.cpp:425] pool4/3x3_s2_pool4/3x3_s2_0_split <- pool4/3x3_s2
I0403 15:23:01.891127  3025 net.cpp:399] pool4/3x3_s2_pool4/3x3_s2_0_split -> pool4/3x3_s2_pool4/3x3_s2_0_split_0
I0403 15:23:01.891149  3025 net.cpp:399] pool4/3x3_s2_pool4/3x3_s2_0_split -> pool4/3x3_s2_pool4/3x3_s2_0_split_1
I0403 15:23:01.891168  3025 net.cpp:399] pool4/3x3_s2_pool4/3x3_s2_0_split -> pool4/3x3_s2_pool4/3x3_s2_0_split_2
I0403 15:23:01.891191  3025 net.cpp:399] pool4/3x3_s2_pool4/3x3_s2_0_split -> pool4/3x3_s2_pool4/3x3_s2_0_split_3
I0403 15:23:01.891288  3025 net.cpp:141] Setting up pool4/3x3_s2_pool4/3x3_s2_0_split
I0403 15:23:01.891311  3025 net.cpp:148] Top shape: 24 832 7 7 (978432)
I0403 15:23:01.891329  3025 net.cpp:148] Top shape: 24 832 7 7 (978432)
I0403 15:23:01.891345  3025 net.cpp:148] Top shape: 24 832 7 7 (978432)
I0403 15:23:01.891360  3025 net.cpp:148] Top shape: 24 832 7 7 (978432)
I0403 15:23:01.891374  3025 net.cpp:156] Memory required for data: 1292125728
I0403 15:23:01.891388  3025 layer_factory.hpp:77] Creating layer inception_5a/1x1
I0403 15:23:01.891412  3025 net.cpp:91] Creating Layer inception_5a/1x1
I0403 15:23:01.891428  3025 net.cpp:425] inception_5a/1x1 <- pool4/3x3_s2_pool4/3x3_s2_0_split_0
I0403 15:23:01.891450  3025 net.cpp:399] inception_5a/1x1 -> inception_5a/1x1
I0403 15:23:01.894326  3025 net.cpp:141] Setting up inception_5a/1x1
I0403 15:23:01.894356  3025 net.cpp:148] Top shape: 24 256 7 7 (301056)
I0403 15:23:01.894377  3025 net.cpp:156] Memory required for data: 1293329952
I0403 15:23:01.894397  3025 layer_factory.hpp:77] Creating layer inception_5a/relu_1x1
I0403 15:23:01.894419  3025 net.cpp:91] Creating Layer inception_5a/relu_1x1
I0403 15:23:01.894438  3025 net.cpp:425] inception_5a/relu_1x1 <- inception_5a/1x1
I0403 15:23:01.894454  3025 net.cpp:386] inception_5a/relu_1x1 -> inception_5a/1x1 (in-place)
I0403 15:23:01.894767  3025 net.cpp:141] Setting up inception_5a/relu_1x1
I0403 15:23:01.894793  3025 net.cpp:148] Top shape: 24 256 7 7 (301056)
I0403 15:23:01.894809  3025 net.cpp:156] Memory required for data: 1294534176
I0403 15:23:01.894824  3025 layer_factory.hpp:77] Creating layer inception_5a/3x3_reduce
I0403 15:23:01.894846  3025 net.cpp:91] Creating Layer inception_5a/3x3_reduce
I0403 15:23:01.894865  3025 net.cpp:425] inception_5a/3x3_reduce <- pool4/3x3_s2_pool4/3x3_s2_0_split_1
I0403 15:23:01.894886  3025 net.cpp:399] inception_5a/3x3_reduce -> inception_5a/3x3_reduce
I0403 15:23:01.897356  3025 net.cpp:141] Setting up inception_5a/3x3_reduce
I0403 15:23:01.897388  3025 net.cpp:148] Top shape: 24 160 7 7 (188160)
I0403 15:23:01.897404  3025 net.cpp:156] Memory required for data: 1295286816
I0403 15:23:01.897423  3025 layer_factory.hpp:77] Creating layer inception_5a/relu_3x3_reduce
I0403 15:23:01.897442  3025 net.cpp:91] Creating Layer inception_5a/relu_3x3_reduce
I0403 15:23:01.897459  3025 net.cpp:425] inception_5a/relu_3x3_reduce <- inception_5a/3x3_reduce
I0403 15:23:01.897478  3025 net.cpp:386] inception_5a/relu_3x3_reduce -> inception_5a/3x3_reduce (in-place)
I0403 15:23:01.897668  3025 net.cpp:141] Setting up inception_5a/relu_3x3_reduce
I0403 15:23:01.897693  3025 net.cpp:148] Top shape: 24 160 7 7 (188160)
I0403 15:23:01.897709  3025 net.cpp:156] Memory required for data: 1296039456
I0403 15:23:01.897724  3025 layer_factory.hpp:77] Creating layer inception_5a/3x3
I0403 15:23:01.897747  3025 net.cpp:91] Creating Layer inception_5a/3x3
I0403 15:23:01.897765  3025 net.cpp:425] inception_5a/3x3 <- inception_5a/3x3_reduce
I0403 15:23:01.897788  3025 net.cpp:399] inception_5a/3x3 -> inception_5a/3x3
I0403 15:23:01.902740  3025 net.cpp:141] Setting up inception_5a/3x3
I0403 15:23:01.902770  3025 net.cpp:148] Top shape: 24 320 7 7 (376320)
I0403 15:23:01.902784  3025 net.cpp:156] Memory required for data: 1297544736
I0403 15:23:01.902802  3025 layer_factory.hpp:77] Creating layer inception_5a/relu_3x3
I0403 15:23:01.902820  3025 net.cpp:91] Creating Layer inception_5a/relu_3x3
I0403 15:23:01.902837  3025 net.cpp:425] inception_5a/relu_3x3 <- inception_5a/3x3
I0403 15:23:01.902855  3025 net.cpp:386] inception_5a/relu_3x3 -> inception_5a/3x3 (in-place)
I0403 15:23:01.903146  3025 net.cpp:141] Setting up inception_5a/relu_3x3
I0403 15:23:01.903172  3025 net.cpp:148] Top shape: 24 320 7 7 (376320)
I0403 15:23:01.903185  3025 net.cpp:156] Memory required for data: 1299050016
I0403 15:23:01.903200  3025 layer_factory.hpp:77] Creating layer inception_5a/5x5_reduce
I0403 15:23:01.903223  3025 net.cpp:91] Creating Layer inception_5a/5x5_reduce
I0403 15:23:01.903249  3025 net.cpp:425] inception_5a/5x5_reduce <- pool4/3x3_s2_pool4/3x3_s2_0_split_2
I0403 15:23:01.903272  3025 net.cpp:399] inception_5a/5x5_reduce -> inception_5a/5x5_reduce
I0403 15:23:01.904428  3025 net.cpp:141] Setting up inception_5a/5x5_reduce
I0403 15:23:01.904458  3025 net.cpp:148] Top shape: 24 32 7 7 (37632)
I0403 15:23:01.904474  3025 net.cpp:156] Memory required for data: 1299200544
I0403 15:23:01.904491  3025 layer_factory.hpp:77] Creating layer inception_5a/relu_5x5_reduce
I0403 15:23:01.904510  3025 net.cpp:91] Creating Layer inception_5a/relu_5x5_reduce
I0403 15:23:01.904525  3025 net.cpp:425] inception_5a/relu_5x5_reduce <- inception_5a/5x5_reduce
I0403 15:23:01.904542  3025 net.cpp:386] inception_5a/relu_5x5_reduce -> inception_5a/5x5_reduce (in-place)
I0403 15:23:01.904832  3025 net.cpp:141] Setting up inception_5a/relu_5x5_reduce
I0403 15:23:01.904857  3025 net.cpp:148] Top shape: 24 32 7 7 (37632)
I0403 15:23:01.904871  3025 net.cpp:156] Memory required for data: 1299351072
I0403 15:23:01.904886  3025 layer_factory.hpp:77] Creating layer inception_5a/5x5
I0403 15:23:01.904908  3025 net.cpp:91] Creating Layer inception_5a/5x5
I0403 15:23:01.904925  3025 net.cpp:425] inception_5a/5x5 <- inception_5a/5x5_reduce
I0403 15:23:01.904947  3025 net.cpp:399] inception_5a/5x5 -> inception_5a/5x5
I0403 15:23:01.906669  3025 net.cpp:141] Setting up inception_5a/5x5
I0403 15:23:01.906708  3025 net.cpp:148] Top shape: 24 128 7 7 (150528)
I0403 15:23:01.906723  3025 net.cpp:156] Memory required for data: 1299953184
I0403 15:23:01.906740  3025 layer_factory.hpp:77] Creating layer inception_5a/relu_5x5
I0403 15:23:01.906759  3025 net.cpp:91] Creating Layer inception_5a/relu_5x5
I0403 15:23:01.906774  3025 net.cpp:425] inception_5a/relu_5x5 <- inception_5a/5x5
I0403 15:23:01.906793  3025 net.cpp:386] inception_5a/relu_5x5 -> inception_5a/5x5 (in-place)
I0403 15:23:01.906978  3025 net.cpp:141] Setting up inception_5a/relu_5x5
I0403 15:23:01.907003  3025 net.cpp:148] Top shape: 24 128 7 7 (150528)
I0403 15:23:01.907017  3025 net.cpp:156] Memory required for data: 1300555296
I0403 15:23:01.907032  3025 layer_factory.hpp:77] Creating layer inception_5a/pool
I0403 15:23:01.907052  3025 net.cpp:91] Creating Layer inception_5a/pool
I0403 15:23:01.907068  3025 net.cpp:425] inception_5a/pool <- pool4/3x3_s2_pool4/3x3_s2_0_split_3
I0403 15:23:01.907085  3025 net.cpp:399] inception_5a/pool -> inception_5a/pool
I0403 15:23:01.907155  3025 net.cpp:141] Setting up inception_5a/pool
I0403 15:23:01.907178  3025 net.cpp:148] Top shape: 24 832 7 7 (978432)
I0403 15:23:01.907192  3025 net.cpp:156] Memory required for data: 1304469024
I0403 15:23:01.907207  3025 layer_factory.hpp:77] Creating layer inception_5a/pool_proj
I0403 15:23:01.907227  3025 net.cpp:91] Creating Layer inception_5a/pool_proj
I0403 15:23:01.907249  3025 net.cpp:425] inception_5a/pool_proj <- inception_5a/pool
I0403 15:23:01.907270  3025 net.cpp:399] inception_5a/pool_proj -> inception_5a/pool_proj
I0403 15:23:01.909589  3025 net.cpp:141] Setting up inception_5a/pool_proj
I0403 15:23:01.909620  3025 net.cpp:148] Top shape: 24 128 7 7 (150528)
I0403 15:23:01.909634  3025 net.cpp:156] Memory required for data: 1305071136
I0403 15:23:01.909653  3025 layer_factory.hpp:77] Creating layer inception_5a/relu_pool_proj
I0403 15:23:01.909672  3025 net.cpp:91] Creating Layer inception_5a/relu_pool_proj
I0403 15:23:01.909687  3025 net.cpp:425] inception_5a/relu_pool_proj <- inception_5a/pool_proj
I0403 15:23:01.909708  3025 net.cpp:386] inception_5a/relu_pool_proj -> inception_5a/pool_proj (in-place)
I0403 15:23:01.910006  3025 net.cpp:141] Setting up inception_5a/relu_pool_proj
I0403 15:23:01.910032  3025 net.cpp:148] Top shape: 24 128 7 7 (150528)
I0403 15:23:01.910046  3025 net.cpp:156] Memory required for data: 1305673248
I0403 15:23:01.910061  3025 layer_factory.hpp:77] Creating layer inception_5a/output
I0403 15:23:01.910079  3025 net.cpp:91] Creating Layer inception_5a/output
I0403 15:23:01.910094  3025 net.cpp:425] inception_5a/output <- inception_5a/1x1
I0403 15:23:01.910110  3025 net.cpp:425] inception_5a/output <- inception_5a/3x3
I0403 15:23:01.910127  3025 net.cpp:425] inception_5a/output <- inception_5a/5x5
I0403 15:23:01.910143  3025 net.cpp:425] inception_5a/output <- inception_5a/pool_proj
I0403 15:23:01.910162  3025 net.cpp:399] inception_5a/output -> inception_5a/output
I0403 15:23:01.910212  3025 net.cpp:141] Setting up inception_5a/output
I0403 15:23:01.910235  3025 net.cpp:148] Top shape: 24 832 7 7 (978432)
I0403 15:23:01.910254  3025 net.cpp:156] Memory required for data: 1309586976
I0403 15:23:01.910269  3025 layer_factory.hpp:77] Creating layer inception_5a/output_inception_5a/output_0_split
I0403 15:23:01.910290  3025 net.cpp:91] Creating Layer inception_5a/output_inception_5a/output_0_split
I0403 15:23:01.910306  3025 net.cpp:425] inception_5a/output_inception_5a/output_0_split <- inception_5a/output
I0403 15:23:01.910323  3025 net.cpp:399] inception_5a/output_inception_5a/output_0_split -> inception_5a/output_inception_5a/output_0_split_0
I0403 15:23:01.910346  3025 net.cpp:399] inception_5a/output_inception_5a/output_0_split -> inception_5a/output_inception_5a/output_0_split_1
I0403 15:23:01.910367  3025 net.cpp:399] inception_5a/output_inception_5a/output_0_split -> inception_5a/output_inception_5a/output_0_split_2
I0403 15:23:01.910388  3025 net.cpp:399] inception_5a/output_inception_5a/output_0_split -> inception_5a/output_inception_5a/output_0_split_3
I0403 15:23:01.910501  3025 net.cpp:141] Setting up inception_5a/output_inception_5a/output_0_split
I0403 15:23:01.910524  3025 net.cpp:148] Top shape: 24 832 7 7 (978432)
I0403 15:23:01.910540  3025 net.cpp:148] Top shape: 24 832 7 7 (978432)
I0403 15:23:01.910557  3025 net.cpp:148] Top shape: 24 832 7 7 (978432)
I0403 15:23:01.910573  3025 net.cpp:148] Top shape: 24 832 7 7 (978432)
I0403 15:23:01.910586  3025 net.cpp:156] Memory required for data: 1325241888
I0403 15:23:01.910600  3025 layer_factory.hpp:77] Creating layer inception_5b/1x1
I0403 15:23:01.910622  3025 net.cpp:91] Creating Layer inception_5b/1x1
I0403 15:23:01.910640  3025 net.cpp:425] inception_5b/1x1 <- inception_5a/output_inception_5a/output_0_split_0
I0403 15:23:01.910660  3025 net.cpp:399] inception_5b/1x1 -> inception_5b/1x1
I0403 15:23:01.914461  3025 net.cpp:141] Setting up inception_5b/1x1
I0403 15:23:01.914494  3025 net.cpp:148] Top shape: 24 384 7 7 (451584)
I0403 15:23:01.914510  3025 net.cpp:156] Memory required for data: 1327048224
I0403 15:23:01.914530  3025 layer_factory.hpp:77] Creating layer inception_5b/relu_1x1
I0403 15:23:01.914547  3025 net.cpp:91] Creating Layer inception_5b/relu_1x1
I0403 15:23:01.914563  3025 net.cpp:425] inception_5b/relu_1x1 <- inception_5b/1x1
I0403 15:23:01.914582  3025 net.cpp:386] inception_5b/relu_1x1 -> inception_5b/1x1 (in-place)
I0403 15:23:01.914893  3025 net.cpp:141] Setting up inception_5b/relu_1x1
I0403 15:23:01.914921  3025 net.cpp:148] Top shape: 24 384 7 7 (451584)
I0403 15:23:01.914937  3025 net.cpp:156] Memory required for data: 1328854560
I0403 15:23:01.914952  3025 layer_factory.hpp:77] Creating layer inception_5b/3x3_reduce
I0403 15:23:01.914974  3025 net.cpp:91] Creating Layer inception_5b/3x3_reduce
I0403 15:23:01.914993  3025 net.cpp:425] inception_5b/3x3_reduce <- inception_5a/output_inception_5a/output_0_split_1
I0403 15:23:01.915015  3025 net.cpp:399] inception_5b/3x3_reduce -> inception_5b/3x3_reduce
I0403 15:23:01.917716  3025 net.cpp:141] Setting up inception_5b/3x3_reduce
I0403 15:23:01.917747  3025 net.cpp:148] Top shape: 24 192 7 7 (225792)
I0403 15:23:01.917763  3025 net.cpp:156] Memory required for data: 1329757728
I0403 15:23:01.917781  3025 layer_factory.hpp:77] Creating layer inception_5b/relu_3x3_reduce
I0403 15:23:01.917799  3025 net.cpp:91] Creating Layer inception_5b/relu_3x3_reduce
I0403 15:23:01.917816  3025 net.cpp:425] inception_5b/relu_3x3_reduce <- inception_5b/3x3_reduce
I0403 15:23:01.917836  3025 net.cpp:386] inception_5b/relu_3x3_reduce -> inception_5b/3x3_reduce (in-place)
I0403 15:23:01.918028  3025 net.cpp:141] Setting up inception_5b/relu_3x3_reduce
I0403 15:23:01.918053  3025 net.cpp:148] Top shape: 24 192 7 7 (225792)
I0403 15:23:01.918068  3025 net.cpp:156] Memory required for data: 1330660896
I0403 15:23:01.918082  3025 layer_factory.hpp:77] Creating layer inception_5b/3x3
I0403 15:23:01.918104  3025 net.cpp:91] Creating Layer inception_5b/3x3
I0403 15:23:01.918123  3025 net.cpp:425] inception_5b/3x3 <- inception_5b/3x3_reduce
I0403 15:23:01.918144  3025 net.cpp:399] inception_5b/3x3 -> inception_5b/3x3
I0403 15:23:01.924911  3025 net.cpp:141] Setting up inception_5b/3x3
I0403 15:23:01.924939  3025 net.cpp:148] Top shape: 24 384 7 7 (451584)
I0403 15:23:01.924955  3025 net.cpp:156] Memory required for data: 1332467232
I0403 15:23:01.924974  3025 layer_factory.hpp:77] Creating layer inception_5b/relu_3x3
I0403 15:23:01.924993  3025 net.cpp:91] Creating Layer inception_5b/relu_3x3
I0403 15:23:01.925009  3025 net.cpp:425] inception_5b/relu_3x3 <- inception_5b/3x3
I0403 15:23:01.925029  3025 net.cpp:386] inception_5b/relu_3x3 -> inception_5b/3x3 (in-place)
I0403 15:23:01.925333  3025 net.cpp:141] Setting up inception_5b/relu_3x3
I0403 15:23:01.925359  3025 net.cpp:148] Top shape: 24 384 7 7 (451584)
I0403 15:23:01.925374  3025 net.cpp:156] Memory required for data: 1334273568
I0403 15:23:01.925390  3025 layer_factory.hpp:77] Creating layer inception_5b/5x5_reduce
I0403 15:23:01.925431  3025 net.cpp:91] Creating Layer inception_5b/5x5_reduce
I0403 15:23:01.925449  3025 net.cpp:425] inception_5b/5x5_reduce <- inception_5a/output_inception_5a/output_0_split_2
I0403 15:23:01.925472  3025 net.cpp:399] inception_5b/5x5_reduce -> inception_5b/5x5_reduce
I0403 15:23:01.926800  3025 net.cpp:141] Setting up inception_5b/5x5_reduce
I0403 15:23:01.926826  3025 net.cpp:148] Top shape: 24 48 7 7 (56448)
I0403 15:23:01.926841  3025 net.cpp:156] Memory required for data: 1334499360
I0403 15:23:01.926859  3025 layer_factory.hpp:77] Creating layer inception_5b/relu_5x5_reduce
I0403 15:23:01.926877  3025 net.cpp:91] Creating Layer inception_5b/relu_5x5_reduce
I0403 15:23:01.926894  3025 net.cpp:425] inception_5b/relu_5x5_reduce <- inception_5b/5x5_reduce
I0403 15:23:01.926913  3025 net.cpp:386] inception_5b/relu_5x5_reduce -> inception_5b/5x5_reduce (in-place)
I0403 15:23:01.927287  3025 net.cpp:141] Setting up inception_5b/relu_5x5_reduce
I0403 15:23:01.927314  3025 net.cpp:148] Top shape: 24 48 7 7 (56448)
I0403 15:23:01.927327  3025 net.cpp:156] Memory required for data: 1334725152
I0403 15:23:01.927342  3025 layer_factory.hpp:77] Creating layer inception_5b/5x5
I0403 15:23:01.927362  3025 net.cpp:91] Creating Layer inception_5b/5x5
I0403 15:23:01.927378  3025 net.cpp:425] inception_5b/5x5 <- inception_5b/5x5_reduce
I0403 15:23:01.927397  3025 net.cpp:399] inception_5b/5x5 -> inception_5b/5x5
I0403 15:23:01.929422  3025 net.cpp:141] Setting up inception_5b/5x5
I0403 15:23:01.929450  3025 net.cpp:148] Top shape: 24 128 7 7 (150528)
I0403 15:23:01.929464  3025 net.cpp:156] Memory required for data: 1335327264
I0403 15:23:01.929482  3025 layer_factory.hpp:77] Creating layer inception_5b/relu_5x5
I0403 15:23:01.929502  3025 net.cpp:91] Creating Layer inception_5b/relu_5x5
I0403 15:23:01.929518  3025 net.cpp:425] inception_5b/relu_5x5 <- inception_5b/5x5
I0403 15:23:01.929535  3025 net.cpp:386] inception_5b/relu_5x5 -> inception_5b/5x5 (in-place)
I0403 15:23:01.929725  3025 net.cpp:141] Setting up inception_5b/relu_5x5
I0403 15:23:01.929749  3025 net.cpp:148] Top shape: 24 128 7 7 (150528)
I0403 15:23:01.929764  3025 net.cpp:156] Memory required for data: 1335929376
I0403 15:23:01.929779  3025 layer_factory.hpp:77] Creating layer inception_5b/pool
I0403 15:23:01.929797  3025 net.cpp:91] Creating Layer inception_5b/pool
I0403 15:23:01.929814  3025 net.cpp:425] inception_5b/pool <- inception_5a/output_inception_5a/output_0_split_3
I0403 15:23:01.929832  3025 net.cpp:399] inception_5b/pool -> inception_5b/pool
I0403 15:23:01.929904  3025 net.cpp:141] Setting up inception_5b/pool
I0403 15:23:01.929927  3025 net.cpp:148] Top shape: 24 832 7 7 (978432)
I0403 15:23:01.929941  3025 net.cpp:156] Memory required for data: 1339843104
I0403 15:23:01.929955  3025 layer_factory.hpp:77] Creating layer inception_5b/pool_proj
I0403 15:23:01.929977  3025 net.cpp:91] Creating Layer inception_5b/pool_proj
I0403 15:23:01.929994  3025 net.cpp:425] inception_5b/pool_proj <- inception_5b/pool
I0403 15:23:01.930016  3025 net.cpp:399] inception_5b/pool_proj -> inception_5b/pool_proj
I0403 15:23:01.932292  3025 net.cpp:141] Setting up inception_5b/pool_proj
I0403 15:23:01.932320  3025 net.cpp:148] Top shape: 24 128 7 7 (150528)
I0403 15:23:01.932335  3025 net.cpp:156] Memory required for data: 1340445216
I0403 15:23:01.932353  3025 layer_factory.hpp:77] Creating layer inception_5b/relu_pool_proj
I0403 15:23:01.932373  3025 net.cpp:91] Creating Layer inception_5b/relu_pool_proj
I0403 15:23:01.932389  3025 net.cpp:425] inception_5b/relu_pool_proj <- inception_5b/pool_proj
I0403 15:23:01.932407  3025 net.cpp:386] inception_5b/relu_pool_proj -> inception_5b/pool_proj (in-place)
I0403 15:23:01.932706  3025 net.cpp:141] Setting up inception_5b/relu_pool_proj
I0403 15:23:01.932732  3025 net.cpp:148] Top shape: 24 128 7 7 (150528)
I0403 15:23:01.932746  3025 net.cpp:156] Memory required for data: 1341047328
I0403 15:23:01.932761  3025 layer_factory.hpp:77] Creating layer inception_5b/output
I0403 15:23:01.932778  3025 net.cpp:91] Creating Layer inception_5b/output
I0403 15:23:01.932807  3025 net.cpp:425] inception_5b/output <- inception_5b/1x1
I0403 15:23:01.932826  3025 net.cpp:425] inception_5b/output <- inception_5b/3x3
I0403 15:23:01.932842  3025 net.cpp:425] inception_5b/output <- inception_5b/5x5
I0403 15:23:01.932857  3025 net.cpp:425] inception_5b/output <- inception_5b/pool_proj
I0403 15:23:01.932876  3025 net.cpp:399] inception_5b/output -> inception_5b/output
I0403 15:23:01.932926  3025 net.cpp:141] Setting up inception_5b/output
I0403 15:23:01.932951  3025 net.cpp:148] Top shape: 24 1024 7 7 (1204224)
I0403 15:23:01.932966  3025 net.cpp:156] Memory required for data: 1345864224
I0403 15:23:01.932981  3025 layer_factory.hpp:77] Creating layer pool5/7x7_s1
I0403 15:23:01.932998  3025 net.cpp:91] Creating Layer pool5/7x7_s1
I0403 15:23:01.933014  3025 net.cpp:425] pool5/7x7_s1 <- inception_5b/output
I0403 15:23:01.933032  3025 net.cpp:399] pool5/7x7_s1 -> pool5/7x7_s1
I0403 15:23:01.933255  3025 net.cpp:141] Setting up pool5/7x7_s1
I0403 15:23:01.933281  3025 net.cpp:148] Top shape: 24 1024 1 1 (24576)
I0403 15:23:01.933295  3025 net.cpp:156] Memory required for data: 1345962528
I0403 15:23:01.933310  3025 layer_factory.hpp:77] Creating layer pool5/drop_7x7_s1
I0403 15:23:01.933327  3025 net.cpp:91] Creating Layer pool5/drop_7x7_s1
I0403 15:23:01.933343  3025 net.cpp:425] pool5/drop_7x7_s1 <- pool5/7x7_s1
I0403 15:23:01.933362  3025 net.cpp:386] pool5/drop_7x7_s1 -> pool5/7x7_s1 (in-place)
I0403 15:23:01.933411  3025 net.cpp:141] Setting up pool5/drop_7x7_s1
I0403 15:23:01.933439  3025 net.cpp:148] Top shape: 24 1024 1 1 (24576)
I0403 15:23:01.933454  3025 net.cpp:156] Memory required for data: 1346060832
I0403 15:23:01.933468  3025 layer_factory.hpp:77] Creating layer loss3/classifier_plantvillage
I0403 15:23:01.933487  3025 net.cpp:91] Creating Layer loss3/classifier_plantvillage
I0403 15:23:01.933502  3025 net.cpp:425] loss3/classifier_plantvillage <- pool5/7x7_s1
I0403 15:23:01.933522  3025 net.cpp:399] loss3/classifier_plantvillage -> loss3/classifier_plantvillage
I0403 15:23:01.933940  3025 net.cpp:141] Setting up loss3/classifier_plantvillage
I0403 15:23:01.933964  3025 net.cpp:148] Top shape: 24 38 (912)
I0403 15:23:01.933979  3025 net.cpp:156] Memory required for data: 1346064480
I0403 15:23:01.933997  3025 layer_factory.hpp:77] Creating layer loss3/classifier_plantvillage_loss3/classifier_plantvillage_0_split
I0403 15:23:01.934018  3025 net.cpp:91] Creating Layer loss3/classifier_plantvillage_loss3/classifier_plantvillage_0_split
I0403 15:23:01.934034  3025 net.cpp:425] loss3/classifier_plantvillage_loss3/classifier_plantvillage_0_split <- loss3/classifier_plantvillage
I0403 15:23:01.934051  3025 net.cpp:399] loss3/classifier_plantvillage_loss3/classifier_plantvillage_0_split -> loss3/classifier_plantvillage_loss3/classifier_plantvillage_0_split_0
I0403 15:23:01.934073  3025 net.cpp:399] loss3/classifier_plantvillage_loss3/classifier_plantvillage_0_split -> loss3/classifier_plantvillage_loss3/classifier_plantvillage_0_split_1
I0403 15:23:01.934093  3025 net.cpp:399] loss3/classifier_plantvillage_loss3/classifier_plantvillage_0_split -> loss3/classifier_plantvillage_loss3/classifier_plantvillage_0_split_2
I0403 15:23:01.934113  3025 net.cpp:399] loss3/classifier_plantvillage_loss3/classifier_plantvillage_0_split -> loss3/classifier_plantvillage_loss3/classifier_plantvillage_0_split_3
I0403 15:23:01.934211  3025 net.cpp:141] Setting up loss3/classifier_plantvillage_loss3/classifier_plantvillage_0_split
I0403 15:23:01.934233  3025 net.cpp:148] Top shape: 24 38 (912)
I0403 15:23:01.934253  3025 net.cpp:148] Top shape: 24 38 (912)
I0403 15:23:01.934269  3025 net.cpp:148] Top shape: 24 38 (912)
I0403 15:23:01.934284  3025 net.cpp:148] Top shape: 24 38 (912)
I0403 15:23:01.934298  3025 net.cpp:156] Memory required for data: 1346079072
I0403 15:23:01.934312  3025 layer_factory.hpp:77] Creating layer loss1/loss
I0403 15:23:01.934334  3025 net.cpp:91] Creating Layer loss1/loss
I0403 15:23:01.934351  3025 net.cpp:425] loss1/loss <- loss1/classifier_plantvillage_loss1/classifier_plantvillage_0_split_0
I0403 15:23:01.934381  3025 net.cpp:425] loss1/loss <- label_data_1_split_0
…
