…
I0403 15:37:07.435039  3292 net.cpp:313] The NetState phase (1) differed from the phase (0) specified by a rule in layer data
I0403 15:37:07.436240  3292 net.cpp:49] Initializing net from parameters: 
state {
  phase: TEST
}
layer {
  name: "data"
  type: "Data"
  top: "data"
  top: "label"
  include {
    phase: TEST
  }
  transform_param {
    mirror: false
    crop_size: 224
    mean_file: "/home/mohanty/data/final_dataset/lmdb/grayscale-50-50/mean.binaryproto"
  }
  data_param {
    source: "/home/mohanty/data/final_dataset/lmdb/grayscale-50-50/test_db"
    batch_size: 24
    backend: LMDB
  }
}
layer {
  name: "conv1/7x7_s2"
  type: "Convolution"
  bottom: "data"
  top: "conv1/7x7_s2"
  param {
    lr_mult: 1
    decay_mult: 1
  }
  param {
    lr_mult: 2
    decay_mult: 0
  }
  convolution_param {
    num_output: 64
    pad: 3
    kernel_size: 7
    stride: 2
    weight_filler {
      type: "xavier"
      std: 0.1
    }
    bias_filler {
      type: "constant"
      value: 0.2
    }
  }
}
layer {
  name: "conv1/relu_7x7"
  type: "ReLU"
  bottom: "conv1/7x7_s2"
  top: "conv1/7x7_s2"
}
layer {
  name: "pool1/3x3_s2"
  type: "Pooling"
  bottom: "conv1/7x7_s2"
  top: "pool1/3x3_s2"
  pooling_param {
    pool: MAX
    kernel_size: 3
    stride: 2
  }
}
layer {
  name: "pool1/norm1"
  type: "LRN"
  bottom: "pool1/3x3_s2"
  top: "pool1/norm1"
  lrn_param {
    local_size: 5
    alpha: 0.0001
    beta: 0.75
  }
}
layer {
  name: "conv2/3x3_reduce"
  type: "Convolution"
  bottom: "pool1/norm1"
  top: "conv2/3x3_reduce"
  param {
    lr_mult: 1
    decay_mult: 1
  }
  param {
    lr_mult: 2
    decay_mult: 0
  }
  convolution_param {
    num_output: 64
    kernel_size: 1
    weight_filler {
      type: "xavier"
      std: 0.1
    }
    bias_filler {
      type: "constant"
      value: 0.2
    }
  }
}
layer {
  name: "conv2/relu_3x3_reduce"
  type: "ReLU"
  bottom: "conv2/3x3_reduce"
  top: "conv2/3x3_reduce"
}
layer {
  name: "conv2/3x3"
  type: "Convolution"
  bottom: "conv2/3x3_reduce"
  top: "conv2/3x3"
  param {
    lr_mult: 1
    decay_mult: 1
  }
  param {
    lr_mult: 2
    decay_mult: 0
  }
  convolution_param {
    num_output: 192
    pad: 1
    kernel_size: 3
    weight_filler {
      type: "xavier"
      std: 0.03
    }
    bias_filler {
      type: "constant"
      value: 0.2
    }
  }
}
layer {
  name: "conv2/relu_3x3"
  type: "ReLU"
  bottom: "conv2/3x3"
  top: "conv2/3x3"
}
layer {
  name: "conv2/norm2"
  type: "LRN"
  bottom: "conv2/3x3"
  top: "conv2/norm2"
  lrn_param {
    local_size: 5
    alpha: 0.0001
    beta: 0.75
  }
}
layer {
  name: "pool2/3x3_s2"
  type: "Pooling"
  bottom: "conv2/norm2"
  top: "pool2/3x3_s2"
  pooling_param {
    pool: MAX
    kernel_size: 3
    stride: 2
  }
}
layer {
  name: "inception_3a/1x1"
  type: "Convolution"
  bottom: "pool2/3x3_s2"
  top: "inception_3a/1x1"
  param {
    lr_mult: 1
    decay_mult: 1
  }
  param {
    lr_mult: 2
    decay_mult: 0
  }
  convolution_param {
    num_output: 64
    kernel_size: 1
    weight_filler {
      type: "xavier"
      std: 0.03
    }
    bias_filler {
      type: "constant"
      value: 0.2
    }
  }
}
layer {
  name: "inception_3a/relu_1x1"
  type: "ReLU"
  bottom: "inception_3a/1x1"
  top: "inception_3a/1x1"
}
layer {
  name: "inception_3a/3x3_reduce"
  type: "Convolution"
  bottom: "pool2/3x3_s2"
  top: "inception_3a/3x3_reduce"
  param {
    lr_mult: 1
    decay_mult: 1
  }
  param {
    lr_mult: 2
    decay_mult: 0
  }
  convolution_param {
    num_output: 96
    kernel_size: 1
    weight_filler {
      type: "xavier"
      std: 0.09
    }
    bias_filler {
      type: "constant"
      value: 0.2
    }
  }
}
layer {
  name: "inception_3a/relu_3x3_reduce"
  type: "ReLU"
  bottom: "inception_3a/3x3_reduce"
  top: "inception_3a/3x3_reduce"
}
layer {
  name: "inception_3a/3x3"
  type: "Convolution"
  bottom: "inception_3a/3x3_reduce"
  top: "inception_3a/3x3"
  param {
    lr_mult: 1
    decay_mult: 1
  }
  param {
    lr_mult: 2
    decay_mult: 0
  }
  convolution_param {
    num_output: 128
    pad: 1
    kernel_size: 3
    weight_filler {
      type: "xavier"
      std: 0.03
    }
    bias_filler {
      type: "constant"
      value: 0.2
    }
  }
}
layer {
  name: "inception_3a/relu_3x3"
  type: "ReLU"
  bottom: "inception_3a/3x3"
  top: "inception_3a/3x3"
}
layer {
  name: "inception_3a/5x5_reduce"
  type: "Convolution"
  bottom: "pool2/3x3_s2"
  top: "inception_3a/5x5_reduce"
  param {
    lr_mult: 1
    decay_mult: 1
  }
  param {
    lr_mult: 2
    decay_mult: 0
  }
  convolution_param {
    num_output: 16
    kernel_size: 1
    weight_filler {
      type: "xavier"
      std: 0.2
    }
    bias_filler {
      type: "constant"
      value: 0.2
    }
  }
}
layer {
  name: "inception_3a/relu_5x5_reduce"
  type: "ReLU"
  bottom: "inception_3a/5x5_reduce"
  top: "inception_3a/5x5_reduce"
}
layer {
  name: "inception_3a/5x5"
  type: "Convolution"
  bottom: "inception_3a/5x5_reduce"
  top: "inception_3a/5x5"
  param {
    lr_mult: 1
    decay_mult: 1
  }
  param {
    lr_mult: 2
    decay_mult: 0
  }
  convolution_param {
    num_output: 32
    pad: 2
    kernel_size: 5
    weight_filler {
      type: "xavier"
      std: 0.03
    }
    bias_filler {
      type: "constant"
      value: 0.2
    }
  }
}
layer {
  name: "inception_3a/relu_5x5"
  type: "ReLU"
  bottom: "inception_3a/5x5"
  top: "inception_3a/5x5"
}
layer {
  name: "inception_3a/pool"
  type: "Pooling"
  bottom: "pool2/3x3_s2"
  top: "inception_3a/pool"
  pooling_param {
    pool: MAX
    kernel_size: 3
    stride: 1
    pad: 1
  }
}
layer {
  name: "inception_3a/pool_proj"
  type: "Convolution"
  bottom: "inception_3a/pool"
  top: "inception_3a/pool_proj"
  param {
    lr_mult: 1
    decay_mult: 1
  }
  param {
    lr_mult: 2
    decay_mult: 0
  }
  convolution_param {
    num_output: 32
    kernel_size: 1
    weight_filler {
      type: "xavier"
      std: 0.1
    }
    bias_filler {
      type: "constant"
      value: 0.2
    }
  }
}
layer {
  name: "inception_3a/relu_pool_proj"
  type: "ReLU"
  bottom: "inception_3a/pool_proj"
  top: "inception_3a/pool_proj"
}
layer {
  name: "inception_3a/output"
  type: "Concat"
  bottom: "inception_3a/1x1"
  bottom: "inception_3a/3x3"
  bottom: "inception_3a/5x5"
  bottom: "inception_3a/pool_proj"
  top: "inception_3a/output"
}
layer {
  name: "inception_3b/1x1"
  type: "Convolution"
  bottom: "inception_3a/output"
  top: "inception_3b/1x1"
  param {
    lr_mult: 1
    decay_mult: 1
  }
  param {
    lr_mult: 2
    decay_mult: 0
  }
  convolution_param {
    num_output: 128
    kernel_size: 1
    weight_filler {
      type: "xavier"
      std: 0.03
    }
    bias_filler {
      type: "constant"
      value: 0.2
    }
  }
}
layer {
  name: "inception_3b/relu_1x1"
  type: "ReLU"
  bottom: "inception_3b/1x1"
  top: "inception_3b/1x1"
}
layer {
  name: "inception_3b/3x3_reduce"
  type: "Convolution"
  bottom: "inception_3a/output"
  top: "inception_3b/3x3_reduce"
  param {
    lr_mult: 1
    decay_mult: 1
  }
  param {
    lr_mult: 2
    decay_mult: 0
  }
  convolution_param {
    num_output: 128
    kernel_size: 1
    weight_filler {
      type: "xavier"
      std: 0.09
    }
    bias_filler {
      type: "constant"
      value: 0.2
    }
  }
}
layer {
  name: "inception_3b/relu_3x3_reduce"
  type: "ReLU"
  bottom: "inception_3b/3x3_reduce"
  top: "inception_3b/3x3_reduce"
}
layer {
  name: "inception_3b/3x3"
  type: "Convolution"
  bottom: "inception_3b/3x3_reduce"
  top: "inception_3b/3x3"
  param {
    lr_mult: 1
    decay_mult: 1
  }
  param {
    lr_mult: 2
    decay_mult: 0
  }
  convolution_param {
    num_output: 192
    pad: 1
    kernel_size: 3
    weight_filler {
      type: "xavier"
      std: 0.03
    }
    bias_filler {
      type: "constant"
      value: 0.2
    }
  }
}
layer {
  name: "inception_3b/relu_3x3"
  type: "ReLU"
  bottom: "inception_3b/3x3"
  top: "inception_3b/3x3"
}
layer {
  name: "inception_3b/5x5_reduce"
  type: "Convolution"
  bottom: "inception_3a/output"
  top: "inception_3b/5x5_reduce"
  param {
    lr_mult: 1
    decay_mult: 1
  }
  param {
    lr_mult: 2
    decay_mult: 0
  }
  convolution_param {
    num_output: 32
    kernel_size: 1
    weight_filler {
      type: "xavier"
      std: 0.2
    }
    bias_filler {
      type: "constant"
      value: 0.2
    }
  }
}
layer {
  name: "inception_3b/relu_5x5_reduce"
  type: "ReLU"
  bottom: "inception_3b/5x5_reduce"
  top: "inception_3b/5x5_reduce"
}
layer {
  name: "inception_3b/5x5"
  type: "Convolution"
  bottom: "inception_3b/5x5_reduce"
  top: "inception_3b/5x5"
  param {
    lr_mult: 1
    decay_mult: 1
  }
  param {
    lr_mult: 2
    decay_mult: 0
  }
  convolution_param {
    num_output: 96
    pad: 2
    kernel_size: 5
    weight_filler {
      type: "xavier"
      std: 0.03
    }
    bias_filler {
      type: "constant"
      value: 0.2
    }
  }
}
layer {
  name: "inception_3b/relu_5x5"
  type: "ReLU"
  bottom: "inception_3b/5x5"
  top: "inception_3b/5x5"
}
layer {
  name: "inception_3b/pool"
  type: "Pooling"
  bottom: "inception_3a/output"
  top: "inception_3b/pool"
  pooling_param {
    pool: MAX
    kernel_size: 3
    stride: 1
    pad: 1
  }
}
layer {
  name: "inception_3b/pool_proj"
  type: "Convolution"
  bottom: "inception_3b/pool"
  top: "inception_3b/pool_proj"
  param {
    lr_mult: 1
    decay_mult: 1
  }
  param {
    lr_mult: 2
    decay_mult: 0
  }
  convolution_param {
    num_output: 64
    kernel_size: 1
    weight_filler {
      type: "xavier"
      std: 0.1
    }
    bias_filler {
      type: "constant"
      value: 0.2
    }
  }
}
layer {
  name: "inception_3b/relu_pool_proj"
  type: "ReLU"
  bottom: "inception_3b/pool_proj"
  top: "inception_3b/pool_proj"
}
layer {
  name: "inception_3b/output"
  type: "Concat"
  bottom: "inception_3b/1x1"
  bottom: "inception_3b/3x3"
  bottom: "inception_3b/5x5"
  bottom: "inception_3b/pool_proj"
  top: "inception_3b/output"
}
layer {
  name: "pool3/3x3_s2"
  type: "Pooling"
  bottom: "inception_3b/output"
  top: "pool3/3x3_s2"
  pooling_param {
    pool: MAX
    kernel_size: 3
    stride: 2
  }
}
layer {
  name: "inception_4a/1x1"
  type: "Convolution"
  bottom: "pool3/3x3_s2"
  top: "inception_4a/1x1"
  param {
    lr_mult: 1
    decay_mult: 1
  }
  param {
    lr_mult: 2
    decay_mult: 0
  }
  convolution_param {
    num_output: 192
    kernel_size: 1
    weight_filler {
      type: "xavier"
      std: 0.03
    }
    bias_filler {
      type: "constant"
      value: 0.2
    }
  }
}
layer {
  name: "inception_4a/relu_1x1"
  type: "ReLU"
  bottom: "inception_4a/1x1"
  top: "inception_4a/1x1"
}
layer {
  name: "inception_4a/3x3_reduce"
  type: "Convolution"
  bottom: "pool3/3x3_s2"
  top: "inception_4a/3x3_reduce"
  param {
    lr_mult: 1
    decay_mult: 1
  }
  param {
    lr_mult: 2
    decay_mult: 0
  }
  convolution_param {
    num_output: 96
    kernel_size: 1
    weight_filler {
      type: "xavier"
      std: 0.09
    }
    bias_filler {
      type: "constant"
      value: 0.2
    }
  }
}
layer {
  name: "inception_4a/relu_3x3_reduce"
  type: "ReLU"
  bottom: "inception_4a/3x3_reduce"
  top: "inception_4a/3x3_reduce"
}
layer {
  name: "inception_4a/3x3"
  type: "Convolution"
  bottom: "inception_4a/3x3_reduce"
  top: "inception_4a/3x3"
  param {
    lr_mult: 1
    decay_mult: 1
  }
  param {
    lr_mult: 2
    decay_mult: 0
  }
  convolution_param {
    num_output: 208
    pad: 1
    kernel_size: 3
    weight_filler {
      type: "xavier"
      std: 0.03
    }
    bias_filler {
      type: "constant"
      value: 0.2
    }
  }
}
layer {
  name: "inception_4a/relu_3x3"
  type: "ReLU"
  bottom: "inception_4a/3x3"
  top: "inception_4a/3x3"
}
layer {
  name: "inception_4a/5x5_reduce"
  type: "Convolution"
  bottom: "pool3/3x3_s2"
  top: "inception_4a/5x5_reduce"
  param {
    lr_mult: 1
    decay_mult: 1
  }
  param {
    lr_mult: 2
    decay_mult: 0
  }
  convolution_param {
    num_output: 16
    kernel_size: 1
    weight_filler {
      type: "xavier"
      std: 0.2
    }
    bias_filler {
      type: "constant"
      value: 0.2
    }
  }
}
layer {
  name: "inception_4a/relu_5x5_reduce"
  type: "ReLU"
  bottom: "inception_4a/5x5_reduce"
  top: "inception_4a/5x5_reduce"
}
layer {
  name: "inception_4a/5x5"
  type: "Convolution"
  bottom: "inception_4a/5x5_reduce"
  top: "inception_4a/5x5"
  param {
    lr_mult: 1
    decay_mult: 1
  }
  param {
    lr_mult: 2
    decay_mult: 0
  }
  convolution_param {
    num_output: 48
    pad: 2
    kernel_size: 5
    weight_filler {
      type: "xavier"
      std: 0.03
    }
    bias_filler {
      type: "constant"
      value: 0.2
    }
  }
}
layer {
  name: "inception_4a/relu_5x5"
  type: "ReLU"
  bottom: "inception_4a/5x5"
  top: "inception_4a/5x5"
}
layer {
  name: "inception_4a/pool"
  type: "Pooling"
  bottom: "pool3/3x3_s2"
  top: "inception_4a/pool"
  pooling_param {
    pool: MAX
    kernel_size: 3
    stride: 1
    pad: 1
  }
}
layer {
  name: "inception_4a/pool_proj"
  type: "Convolution"
  bottom: "inception_4a/pool"
  top: "inception_4a/pool_proj"
  param {
    lr_mult: 1
    decay_mult: 1
  }
  param {
    lr_mult: 2
    decay_mult: 0
  }
  convolution_param {
    num_output: 64
    kernel_size: 1
    weight_filler {
      type: "xavier"
      std: 0.1
    }
    bias_filler {
      type: "constant"
      value: 0.2
    }
  }
}
layer {
  name: "inception_4a/relu_pool_proj"
  type: "ReLU"
  bottom: "inception_4a/pool_proj"
  top: "inception_4a/pool_proj"
}
layer {
  name: "inception_4a/output"
  type: "Concat"
  bottom: "inception_4a/1x1"
  bottom: "inception_4a/3x3"
  bottom: "inception_4a/5x5"
  bottom: "inception_4a/pool_proj"
  top: "inception_4a/output"
}
layer {
  name: "loss1/ave_pool"
  type: "Pooling"
  bottom: "inception_4a/output"
  top: "loss1/ave_pool"
  pooling_param {
    pool: AVE
    kernel_size: 5
    stride: 3
  }
}
layer {
  name: "loss1/conv"
  type: "Convolution"
  bottom: "loss1/ave_pool"
  top: "loss1/conv"
  param {
    lr_mult: 1
    decay_mult: 1
  }
  param {
    lr_mult: 2
    decay_mult: 0
  }
  convolution_param {
    num_output: 128
    kernel_size: 1
    weight_filler {
      type: "xavier"
      std: 0.08
    }
    bias_filler {
      type: "constant"
      value: 0.2
    }
  }
}
layer {
  name: "loss1/relu_conv"
  type: "ReLU"
  bottom: "loss1/conv"
  top: "loss1/conv"
}
layer {
  name: "loss1/fc"
  type: "InnerProduct"
  bottom: "loss1/conv"
  top: "loss1/fc"
  param {
    lr_mult: 1
    decay_mult: 1
  }
  param {
    lr_mult: 2
    decay_mult: 0
  }
  inner_product_param {
    num_output: 1024
    weight_filler {
      type: "xavier"
      std: 0.02
    }
    bias_filler {
      type: "constant"
      value: 0.2
    }
  }
}
layer {
  name: "loss1/relu_fc"
  type: "ReLU"
  bottom: "loss1/fc"
  top: "loss1/fc"
}
layer {
  name: "loss1/drop_fc"
  type: "Dropout"
  bottom: "loss1/fc"
  top: "loss1/fc"
  dropout_param {
    dropout_ratio: 0.7
  }
}
layer {
  name: "loss1/classifier_plantvillage"
  type: "InnerProduct"
  bottom: "loss1/fc"
  top: "loss1/classifier_plantvillage"
  param {
    lr_mult: 1
    decay_mult: 1
  }
  param {
    lr_mult: 2
    decay_mult: 0
  }
  inner_product_param {
    num_output: 38
    weight_filler {
      type: "xavier"
      std: 0.0009765625
    }
    bias_filler {
      type: "constant"
      value: 0
    }
  }
}
layer {
  name: "inception_4b/1x1"
  type: "Convolution"
  bottom: "inception_4a/output"
  top: "inception_4b/1x1"
  param {
    lr_mult: 1
    decay_mult: 1
  }
  param {
    lr_mult: 2
    decay_mult: 0
  }
  convolution_param {
    num_output: 160
    kernel_size: 1
    weight_filler {
      type: "xavier"
      std: 0.03
    }
    bias_filler {
      type: "constant"
      value: 0.2
    }
  }
}
layer {
  name: "inception_4b/relu_1x1"
  type: "ReLU"
  bottom: "inception_4b/1x1"
  top: "inception_4b/1x1"
}
layer {
  name: "inception_4b/3x3_reduce"
  type: "Convolution"
  bottom: "inception_4a/output"
  top: "inception_4b/3x3_reduce"
  param {
    lr_mult: 1
    decay_mult: 1
  }
  param {
    lr_mult: 2
    decay_mult: 0
  }
  convolution_param {
    num_output: 112
    kernel_size: 1
    weight_filler {
      type: "xavier"
      std: 0.09
    }
    bias_filler {
      type: "constant"
      value: 0.2
    }
  }
}
layer {
  name: "inception_4b/relu_3x3_reduce"
  type: "ReLU"
  bottom: "inception_4b/3x3_reduce"
  top: "inception_4b/3x3_reduce"
}
layer {
  name: "inception_4b/3x3"
  type: "Convolution"
  bottom: "inception_4b/3x3_reduce"
  top: "inception_4b/3x3"
  param {
    lr_mult: 1
    decay_mult: 1
  }
  param {
    lr_mult: 2
    decay_mult: 0
  }
  convolution_param {
    num_output: 224
    pad: 1
    kernel_size: 3
    weight_filler {
      type: "xavier"
      std: 0.03
    }
    bias_filler {
      type: "constant"
      value: 0.2
    }
  }
}
layer {
  name: "inception_4b/relu_3x3"
  type: "ReLU"
  bottom: "inception_4b/3x3"
  top: "inception_4b/3x3"
}
layer {
  name: "inception_4b/5x5_reduce"
  type: "Convolution"
  bottom: "inception_4a/output"
  top: "inception_4b/5x5_reduce"
  param {
    lr_mult: 1
    decay_mult: 1
  }
  param {
    lr_mult: 2
    decay_mult: 0
  }
  convolution_param {
    num_output: 24
    kernel_size: 1
    weight_filler {
      type: "xavier"
      std: 0.2
    }
    bias_filler {
      type: "constant"
      value: 0.2
    }
  }
}
layer {
  name: "inception_4b/relu_5x5_reduce"
  type: "ReLU"
  bottom: "inception_4b/5x5_reduce"
  top: "inception_4b/5x5_reduce"
}
layer {
  name: "inception_4b/5x5"
  type: "Convolution"
  bottom: "inception_4b/5x5_reduce"
  top: "inception_4b/5x5"
  param {
    lr_mult: 1
    decay_mult: 1
  }
  param {
    lr_mult: 2
    decay_mult: 0
  }
  convolution_param {
    num_output: 64
    pad: 2
    kernel_size: 5
    weight_filler {
      type: "xavier"
      std: 0.03
    }
    bias_filler {
      type: "constant"
      value: 0.2
    }
  }
}
layer {
  name: "inception_4b/relu_5x5"
  type: "ReLU"
  bottom: "inception_4b/5x5"
  top: "inception_4b/5x5"
}
layer {
  name: "inception_4b/pool"
  type: "Pooling"
  bottom: "inception_4a/output"
  top: "inception_4b/pool"
  pooling_param {
    pool: MAX
    kernel_size: 3
    stride: 1
    pad: 1
  }
}
layer {
  name: "inception_4b/pool_proj"
  type: "Convolution"
  bottom: "inception_4b/pool"
  top: "inception_4b/pool_proj"
  param {
    lr_mult: 1
    decay_mult: 1
  }
  param {
    lr_mult: 2
    decay_mult: 0
  }
  convolution_param {
    num_output: 64
    kernel_size: 1
    weight_filler {
      type: "xavier"
      std: 0.1
    }
    bias_filler {
      type: "constant"
      value: 0.2
    }
  }
}
layer {
  name: "inception_4b/relu_pool_proj"
  type: "ReLU"
  bottom: "inception_4b/pool_proj"
  top: "inception_4b/pool_proj"
}
layer {
  name: "inception_4b/output"
  type: "Concat"
  bottom: "inception_4b/1x1"
  bottom: "inception_4b/3x3"
  bottom: "inception_4b/5x5"
  bottom: "inception_4b/pool_proj"
  top: "inception_4b/output"
}
layer {
  name: "inception_4c/1x1"
  type: "Convolution"
  bottom: "inception_4b/output"
  top: "inception_4c/1x1"
  param {
    lr_mult: 1
    decay_mult: 1
  }
  param {
    lr_mult: 2
    decay_mult: 0
  }
  convolution_param {
    num_output: 128
    kernel_size: 1
    weight_filler {
      type: "xavier"
      std: 0.03
    }
    bias_filler {
      type: "constant"
      value: 0.2
    }
  }
}
layer {
  name: "inception_4c/relu_1x1"
  type: "ReLU"
  bottom: "inception_4c/1x1"
  top: "inception_4c/1x1"
}
layer {
  name: "inception_4c/3x3_reduce"
  type: "Convolution"
  bottom: "inception_4b/output"
  top: "inception_4c/3x3_reduce"
  param {
    lr_mult: 1
    decay_mult: 1
  }
  param {
    lr_mult: 2
    decay_mult: 0
  }
  convolution_param {
    num_output: 128
    kernel_size: 1
    weight_filler {
      type: "xavier"
      std: 0.09
    }
    bias_filler {
      type: "constant"
      value: 0.2
    }
  }
}
layer {
  name: "inception_4c/relu_3x3_reduce"
  type: "ReLU"
  bottom: "inception_4c/3x3_reduce"
  top: "inception_4c/3x3_reduce"
}
layer {
  name: "inception_4c/3x3"
  type: "Convolution"
  bottom: "inception_4c/3x3_reduce"
  top: "inception_4c/3x3"
  param {
    lr_mult: 1
    decay_mult: 1
  }
  param {
    lr_mult: 2
    decay_mult: 0
  }
  convolution_param {
    num_output: 256
    pad: 1
    kernel_size: 3
    weight_filler {
      type: "xavier"
      std: 0.03
    }
    bias_filler {
      type: "constant"
      value: 0.2
    }
  }
}
layer {
  name: "inception_4c/relu_3x3"
  type: "ReLU"
  bottom: "inception_4c/3x3"
  top: "inception_4c/3x3"
}
layer {
  name: "inception_4c/5x5_reduce"
  type: "Convolution"
  bottom: "inception_4b/output"
  top: "inception_4c/5x5_reduce"
  param {
    lr_mult: 1
    decay_mult: 1
  }
  param {
    lr_mult: 2
    decay_mult: 0
  }
  convolution_param {
    num_output: 24
    kernel_size: 1
    weight_filler {
      type: "xavier"
      std: 0.2
    }
    bias_filler {
      type: "constant"
      value: 0.2
    }
  }
}
layer {
  name: "inception_4c/relu_5x5_reduce"
  type: "ReLU"
  bottom: "inception_4c/5x5_reduce"
  top: "inception_4c/5x5_reduce"
}
layer {
  name: "inception_4c/5x5"
  type: "Convolution"
  bottom: "inception_4c/5x5_reduce"
  top: "inception_4c/5x5"
  param {
    lr_mult: 1
    decay_mult: 1
  }
  param {
    lr_mult: 2
    decay_mult: 0
  }
  convolution_param {
    num_output: 64
    pad: 2
    kernel_size: 5
    weight_filler {
      type: "xavier"
      std: 0.03
    }
    bias_filler {
      type: "constant"
      value: 0.2
    }
  }
}
layer {
  name: "inception_4c/relu_5x5"
  type: "ReLU"
  bottom: "inception_4c/5x5"
  top: "inception_4c/5x5"
}
layer {
  name: "inception_4c/pool"
  type: "Pooling"
  bottom: "inception_4b/output"
  top: "inception_4c/pool"
  pooling_param {
    pool: MAX
    kernel_size: 3
    stride: 1
    pad: 1
  }
}
layer {
  name: "inception_4c/pool_proj"
  type: "Convolution"
  bottom: "inception_4c/pool"
  top: "inception_4c/pool_proj"
  param {
    lr_mult: 1
    decay_mult: 1
  }
  param {
    lr_mult: 2
    decay_mult: 0
  }
  convolution_param {
    num_output: 64
    kernel_size: 1
    weight_filler {
      type: "xavier"
      std: 0.1
    }
    bias_filler {
      type: "constant"
      value: 0.2
    }
  }
}
layer {
  name: "inception_4c/relu_pool_proj"
  type: "ReLU"
  bottom: "inception_4c/pool_proj"
  top: "inception_4c/pool_proj"
}
layer {
  name: "inception_4c/output"
  type: "Concat"
  bottom: "inception_4c/1x1"
  bottom: "inception_4c/3x3"
  bottom: "inception_4c/5x5"
  bottom: "inception_4c/pool_proj"
  top: "inception_4c/output"
}
layer {
  name: "inception_4d/1x1"
  type: "Convolution"
  bottom: "inception_4c/output"
  top: "inception_4d/1x1"
  param {
    lr_mult: 1
    decay_mult: 1
  }
  param {
    lr_mult: 2
    decay_mult: 0
  }
  convolution_param {
    num_output: 112
    kernel_size: 1
    weight_filler {
      type: "xavier"
      std: 0.03
    }
    bias_filler {
      type: "constant"
      value: 0.2
    }
  }
}
layer {
  name: "inception_4d/relu_1x1"
  type: "ReLU"
  bottom: "inception_4d/1x1"
  top: "inception_4d/1x1"
}
layer {
  name: "inception_4d/3x3_reduce"
  type: "Convolution"
  bottom: "inception_4c/output"
  top: "inception_4d/3x3_reduce"
  param {
    lr_mult: 1
    decay_mult: 1
  }
  param {
    lr_mult: 2
    decay_mult: 0
  }
  convolution_param {
    num_output: 144
    kernel_size: 1
    weight_filler {
      type: "xavier"
      std: 0.09
    }
    bias_filler {
      type: "constant"
      value: 0.2
    }
  }
}
layer {
  name: "inception_4d/relu_3x3_reduce"
  type: "ReLU"
  bottom: "inception_4d/3x3_reduce"
  top: "inception_4d/3x3_reduce"
}
layer {
  name: "inception_4d/3x3"
  type: "Convolution"
  bottom: "inception_4d/3x3_reduce"
  top: "inception_4d/3x3"
  param {
    lr_mult: 1
    decay_mult: 1
  }
  param {
    lr_mult: 2
    decay_mult: 0
  }
  convolution_param {
    num_output: 288
    pad: 1
    kernel_size: 3
    weight_filler {
      type: "xavier"
      std: 0.03
    }
    bias_filler {
      type: "constant"
      value: 0.2
    }
  }
}
layer {
  name: "inception_4d/relu_3x3"
  type: "ReLU"
  bottom: "inception_4d/3x3"
  top: "inception_4d/3x3"
}
layer {
  name: "inception_4d/5x5_reduce"
  type: "Convolution"
  bottom: "inception_4c/output"
  top: "inception_4d/5x5_reduce"
  param {
    lr_mult: 1
    decay_mult: 1
  }
  param {
    lr_mult: 2
    decay_mult: 0
  }
  convolution_param {
    num_output: 32
    kernel_size: 1
    weight_filler {
      type: "xavier"
      std: 0.2
    }
    bias_filler {
      type: "constant"
      value: 0.2
    }
  }
}
layer {
  name: "inception_4d/relu_5x5_reduce"
  type: "ReLU"
  bottom: "inception_4d/5x5_reduce"
  top: "inception_4d/5x5_reduce"
}
layer {
  name: "inception_4d/5x5"
  type: "Convolution"
  bottom: "inception_4d/5x5_reduce"
  top: "inception_4d/5x5"
  param {
    lr_mult: 1
    decay_mult: 1
  }
  param {
    lr_mult: 2
    decay_mult: 0
  }
  convolution_param {
    num_output: 64
    pad: 2
    kernel_size: 5
    weight_filler {
      type: "xavier"
      std: 0.03
    }
    bias_filler {
      type: "constant"
      value: 0.2
    }
  }
}
layer {
  name: "inception_4d/relu_5x5"
  type: "ReLU"
  bottom: "inception_4d/5x5"
  top: "inception_4d/5x5"
}
layer {
  name: "inception_4d/pool"
  type: "Pooling"
  bottom: "inception_4c/output"
  top: "inception_4d/pool"
  pooling_param {
    pool: MAX
    kernel_size: 3
    stride: 1
    pad: 1
  }
}
layer {
  name: "inception_4d/pool_proj"
  type: "Convolution"
  bottom: "inception_4d/pool"
  top: "inception_4d/pool_proj"
  param {
    lr_mult: 1
    decay_mult: 1
  }
  param {
    lr_mult: 2
    decay_mult: 0
  }
  convolution_param {
    num_output: 64
    kernel_size: 1
    weight_filler {
      type: "xavier"
      std: 0.1
    }
    bias_filler {
      type: "constant"
      value: 0.2
    }
  }
}
layer {
  name: "inception_4d/relu_pool_proj"
  type: "ReLU"
  bottom: "inception_4d/pool_proj"
  top: "inception_4d/pool_proj"
}
layer {
  name: "inception_4d/output"
  type: "Concat"
  bottom: "inception_4d/1x1"
  bottom: "inception_4d/3x3"
  bottom: "inception_4d/5x5"
  bottom: "inception_4d/pool_proj"
  top: "inception_4d/output"
}
layer {
  name: "loss2/ave_pool"
  type: "Pooling"
  bottom: "inception_4d/output"
  top: "loss2/ave_pool"
  pooling_param {
    pool: AVE
    kernel_size: 5
    stride: 3
  }
}
layer {
  name: "loss2/conv"
  type: "Convolution"
  bottom: "loss2/ave_pool"
  top: "loss2/conv"
  param {
    lr_mult: 1
    decay_mult: 1
  }
  param {
    lr_mult: 2
    decay_mult: 0
  }
  convolution_param {
    num_output: 128
    kernel_size: 1
    weight_filler {
      type: "xavier"
      std: 0.08
    }
    bias_filler {
      type: "constant"
      value: 0.2
    }
  }
}
layer {
  name: "loss2/relu_conv"
  type: "ReLU"
  bottom: "loss2/conv"
  top: "loss2/conv"
}
layer {
  name: "loss2/fc"
  type: "InnerProduct"
  bottom: "loss2/conv"
  top: "loss2/fc"
  param {
    lr_mult: 1
    decay_mult: 1
  }
  param {
    lr_mult: 2
    decay_mult: 0
  }
  inner_product_param {
    num_output: 1024
    weight_filler {
      type: "xavier"
      std: 0.02
    }
    bias_filler {
      type: "constant"
      value: 0.2
    }
  }
}
layer {
  name: "loss2/relu_fc"
  type: "ReLU"
  bottom: "loss2/fc"
  top: "loss2/fc"
}
layer {
  name: "loss2/drop_fc"
  type: "Dropout"
  bottom: "loss2/fc"
  top: "loss2/fc"
  dropout_param {
    dropout_ratio: 0.7
  }
}
layer {
  name: "loss2/classifier_plantvillage"
  type: "InnerProduct"
  bottom: "loss2/fc"
  top: "loss2/classifier_plantvillage"
  param {
    lr_mult: 1
    decay_mult: 1
  }
  param {
    lr_mult: 2
    decay_mult: 0
  }
  inner_product_param {
    num_output: 38
    weight_filler {
      type: "xavier"
      std: 0.0009765625
    }
    bias_filler {
      type: "constant"
      value: 0
    }
  }
}
layer {
  name: "inception_4e/1x1"
  type: "Convolution"
  bottom: "inception_4d/output"
  top: "inception_4e/1x1"
  param {
    lr_mult: 1
    decay_mult: 1
  }
  param {
    lr_mult: 2
    decay_mult: 0
  }
  convolution_param {
    num_output: 256
    kernel_size: 1
    weight_filler {
      type: "xavier"
      std: 0.03
    }
    bias_filler {
      type: "constant"
      value: 0.2
    }
  }
}
layer {
  name: "inception_4e/relu_1x1"
  type: "ReLU"
  bottom: "inception_4e/1x1"
  top: "inception_4e/1x1"
}
layer {
  name: "inception_4e/3x3_reduce"
  type: "Convolution"
  bottom: "inception_4d/output"
  top: "inception_4e/3x3_reduce"
  param {
    lr_mult: 1
    decay_mult: 1
  }
  param {
    lr_mult: 2
    decay_mult: 0
  }
  convolution_param {
    num_output: 160
    kernel_size: 1
    weight_filler {
      type: "xavier"
      std: 0.09
    }
    bias_filler {
      type: "constant"
      value: 0.2
    }
  }
}
layer {
  name: "inception_4e/relu_3x3_reduce"
  type: "ReLU"
  bottom: "inception_4e/3x3_reduce"
  top: "inception_4e/3x3_reduce"
}
layer {
  name: "inception_4e/3x3"
  type: "Convolution"
  bottom: "inception_4e/3x3_reduce"
  top: "inception_4e/3x3"
  param {
    lr_mult: 1
    decay_mult: 1
  }
  param {
    lr_mult: 2
    decay_mult: 0
  }
  convolution_param {
    num_output: 320
    pad: 1
    kernel_size: 3
    weight_filler {
      type: "xavier"
      std: 0.03
    }
    bias_filler {
      type: "constant"
      value: 0.2
    }
  }
}
layer {
  name: "inception_4e/relu_3x3"
  type: "ReLU"
  bottom: "inception_4e/3x3"
  top: "inception_4e/3x3"
}
layer {
  name: "inception_4e/5x5_reduce"
  type: "Convolution"
  bottom: "inception_4d/output"
  top: "inception_4e/5x5_reduce"
  param {
    lr_mult: 1
    decay_mult: 1
  }
  param {
    lr_mult: 2
    decay_mult: 0
  }
  convolution_param {
    num_output: 32
    kernel_size: 1
    weight_filler {
      type: "xavier"
      std: 0.2
    }
    bias_filler {
      type: "constant"
      value: 0.2
    }
  }
}
layer {
  name: "inception_4e/relu_5x5_reduce"
  type: "ReLU"
  bottom: "inception_4e/5x5_reduce"
  top: "inception_4e/5x5_reduce"
}
layer {
  name: "inception_4e/5x5"
  type: "Convolution"
  bottom: "inception_4e/5x5_reduce"
  top: "inception_4e/
I0403 15:37:07.437629  3292 layer_factory.hpp:77] Creating layer data
I0403 15:37:07.438236  3292 net.cpp:91] Creating Layer data
I0403 15:37:07.438266  3292 net.cpp:399] data -> data
I0403 15:37:07.438323  3292 net.cpp:399] data -> label
I0403 15:37:07.438359  3292 data_transformer.cpp:25] Loading mean file from: /home/mohanty/data/final_dataset/lmdb/grayscale-50-50/mean.binaryproto
I0403 15:37:07.440891  3295 db_lmdb.cpp:38] Opened lmdb /home/mohanty/data/final_dataset/lmdb/grayscale-50-50/test_db
I0403 15:37:07.451690  3292 data_layer.cpp:41] output data size: 24,3,224,224
I0403 15:37:07.478775  3292 net.cpp:141] Setting up data
I0403 15:37:07.478857  3292 net.cpp:148] Top shape: 24 3 224 224 (3612672)
I0403 15:37:07.478879  3292 net.cpp:148] Top shape: 24 (24)
I0403 15:37:07.478894  3292 net.cpp:156] Memory required for data: 14450784
I0403 15:37:07.478920  3292 layer_factory.hpp:77] Creating layer label_data_1_split
I0403 15:37:07.478945  3292 net.cpp:91] Creating Layer label_data_1_split
I0403 15:37:07.478963  3292 net.cpp:425] label_data_1_split <- label
I0403 15:37:07.478994  3292 net.cpp:399] label_data_1_split -> label_data_1_split_0
I0403 15:37:07.479022  3292 net.cpp:399] label_data_1_split -> label_data_1_split_1
I0403 15:37:07.479043  3292 net.cpp:399] label_data_1_split -> label_data_1_split_2
I0403 15:37:07.479063  3292 net.cpp:399] label_data_1_split -> label_data_1_split_3
I0403 15:37:07.479082  3292 net.cpp:399] label_data_1_split -> label_data_1_split_4
I0403 15:37:07.479102  3292 net.cpp:399] label_data_1_split -> label_data_1_split_5
I0403 15:37:07.479121  3292 net.cpp:399] label_data_1_split -> label_data_1_split_6
I0403 15:37:07.479142  3292 net.cpp:399] label_data_1_split -> label_data_1_split_7
I0403 15:37:07.479161  3292 net.cpp:399] label_data_1_split -> label_data_1_split_8
I0403 15:37:07.479182  3292 net.cpp:399] label_data_1_split -> label_data_1_split_9
I0403 15:37:07.479298  3292 net.cpp:141] Setting up label_data_1_split
I0403 15:37:07.479322  3292 net.cpp:148] Top shape: 24 (24)
I0403 15:37:07.479339  3292 net.cpp:148] Top shape: 24 (24)
I0403 15:37:07.479354  3292 net.cpp:148] Top shape: 24 (24)
I0403 15:37:07.479369  3292 net.cpp:148] Top shape: 24 (24)
I0403 15:37:07.479385  3292 net.cpp:148] Top shape: 24 (24)
I0403 15:37:07.479400  3292 net.cpp:148] Top shape: 24 (24)
I0403 15:37:07.479415  3292 net.cpp:148] Top shape: 24 (24)
I0403 15:37:07.479431  3292 net.cpp:148] Top shape: 24 (24)
I0403 15:37:07.479446  3292 net.cpp:148] Top shape: 24 (24)
I0403 15:37:07.479462  3292 net.cpp:148] Top shape: 24 (24)
I0403 15:37:07.479504  3292 net.cpp:156] Memory required for data: 14451744
I0403 15:37:07.479521  3292 layer_factory.hpp:77] Creating layer conv1/7x7_s2
I0403 15:37:07.479552  3292 net.cpp:91] Creating Layer conv1/7x7_s2
I0403 15:37:07.479570  3292 net.cpp:425] conv1/7x7_s2 <- data
I0403 15:37:07.479589  3292 net.cpp:399] conv1/7x7_s2 -> conv1/7x7_s2
I0403 15:37:07.619029  3292 net.cpp:141] Setting up conv1/7x7_s2
I0403 15:37:07.619118  3292 net.cpp:148] Top shape: 24 64 112 112 (19267584)
I0403 15:37:07.619137  3292 net.cpp:156] Memory required for data: 91522080
I0403 15:37:07.619168  3292 layer_factory.hpp:77] Creating layer conv1/relu_7x7
I0403 15:37:07.619199  3292 net.cpp:91] Creating Layer conv1/relu_7x7
I0403 15:37:07.619220  3292 net.cpp:425] conv1/relu_7x7 <- conv1/7x7_s2
I0403 15:37:07.619238  3292 net.cpp:386] conv1/relu_7x7 -> conv1/7x7_s2 (in-place)
I0403 15:37:07.619519  3292 net.cpp:141] Setting up conv1/relu_7x7
I0403 15:37:07.619547  3292 net.cpp:148] Top shape: 24 64 112 112 (19267584)
I0403 15:37:07.619565  3292 net.cpp:156] Memory required for data: 168592416
I0403 15:37:07.619580  3292 layer_factory.hpp:77] Creating layer pool1/3x3_s2
I0403 15:37:07.619606  3292 net.cpp:91] Creating Layer pool1/3x3_s2
I0403 15:37:07.619626  3292 net.cpp:425] pool1/3x3_s2 <- conv1/7x7_s2
I0403 15:37:07.619644  3292 net.cpp:399] pool1/3x3_s2 -> pool1/3x3_s2
I0403 15:37:07.619719  3292 net.cpp:141] Setting up pool1/3x3_s2
I0403 15:37:07.619743  3292 net.cpp:148] Top shape: 24 64 56 56 (4816896)
I0403 15:37:07.619760  3292 net.cpp:156] Memory required for data: 187860000
I0403 15:37:07.619774  3292 layer_factory.hpp:77] Creating layer pool1/norm1
I0403 15:37:07.619801  3292 net.cpp:91] Creating Layer pool1/norm1
I0403 15:37:07.619817  3292 net.cpp:425] pool1/norm1 <- pool1/3x3_s2
I0403 15:37:07.619837  3292 net.cpp:399] pool1/norm1 -> pool1/norm1
I0403 15:37:07.620126  3292 net.cpp:141] Setting up pool1/norm1
I0403 15:37:07.620153  3292 net.cpp:148] Top shape: 24 64 56 56 (4816896)
I0403 15:37:07.620169  3292 net.cpp:156] Memory required for data: 207127584
I0403 15:37:07.620187  3292 layer_factory.hpp:77] Creating layer conv2/3x3_reduce
I0403 15:37:07.620213  3292 net.cpp:91] Creating Layer conv2/3x3_reduce
I0403 15:37:07.620230  3292 net.cpp:425] conv2/3x3_reduce <- pool1/norm1
I0403 15:37:07.620249  3292 net.cpp:399] conv2/3x3_reduce -> conv2/3x3_reduce
I0403 15:37:07.621616  3292 net.cpp:141] Setting up conv2/3x3_reduce
I0403 15:37:07.621647  3292 net.cpp:148] Top shape: 24 64 56 56 (4816896)
I0403 15:37:07.621665  3292 net.cpp:156] Memory required for data: 226395168
I0403 15:37:07.621690  3292 layer_factory.hpp:77] Creating layer conv2/relu_3x3_reduce
I0403 15:37:07.621711  3292 net.cpp:91] Creating Layer conv2/relu_3x3_reduce
I0403 15:37:07.621726  3292 net.cpp:425] conv2/relu_3x3_reduce <- conv2/3x3_reduce
I0403 15:37:07.621744  3292 net.cpp:386] conv2/relu_3x3_reduce -> conv2/3x3_reduce (in-place)
I0403 15:37:07.622017  3292 net.cpp:141] Setting up conv2/relu_3x3_reduce
I0403 15:37:07.622045  3292 net.cpp:148] Top shape: 24 64 56 56 (4816896)
I0403 15:37:07.622061  3292 net.cpp:156] Memory required for data: 245662752
I0403 15:37:07.622076  3292 layer_factory.hpp:77] Creating layer conv2/3x3
I0403 15:37:07.622103  3292 net.cpp:91] Creating Layer conv2/3x3
I0403 15:37:07.622122  3292 net.cpp:425] conv2/3x3 <- conv2/3x3_reduce
I0403 15:37:07.622144  3292 net.cpp:399] conv2/3x3 -> conv2/3x3
I0403 15:37:07.624498  3292 net.cpp:141] Setting up conv2/3x3
I0403 15:37:07.624531  3292 net.cpp:148] Top shape: 24 192 56 56 (14450688)
I0403 15:37:07.624547  3292 net.cpp:156] Memory required for data: 303465504
I0403 15:37:07.624572  3292 layer_factory.hpp:77] Creating layer conv2/relu_3x3
I0403 15:37:07.624593  3292 net.cpp:91] Creating Layer conv2/relu_3x3
I0403 15:37:07.624609  3292 net.cpp:425] conv2/relu_3x3 <- conv2/3x3
I0403 15:37:07.624639  3292 net.cpp:386] conv2/relu_3x3 -> conv2/3x3 (in-place)
I0403 15:37:07.624822  3292 net.cpp:141] Setting up conv2/relu_3x3
I0403 15:37:07.624851  3292 net.cpp:148] Top shape: 24 192 56 56 (14450688)
I0403 15:37:07.624897  3292 net.cpp:156] Memory required for data: 361268256
I0403 15:37:07.624915  3292 layer_factory.hpp:77] Creating layer conv2/norm2
I0403 15:37:07.624939  3292 net.cpp:91] Creating Layer conv2/norm2
I0403 15:37:07.624958  3292 net.cpp:425] conv2/norm2 <- conv2/3x3
I0403 15:37:07.624976  3292 net.cpp:399] conv2/norm2 -> conv2/norm2
I0403 15:37:07.625332  3292 net.cpp:141] Setting up conv2/norm2
I0403 15:37:07.625362  3292 net.cpp:148] Top shape: 24 192 56 56 (14450688)
I0403 15:37:07.625378  3292 net.cpp:156] Memory required for data: 419071008
I0403 15:37:07.625394  3292 layer_factory.hpp:77] Creating layer pool2/3x3_s2
I0403 15:37:07.625416  3292 net.cpp:91] Creating Layer pool2/3x3_s2
I0403 15:37:07.625433  3292 net.cpp:425] pool2/3x3_s2 <- conv2/norm2
I0403 15:37:07.625453  3292 net.cpp:399] pool2/3x3_s2 -> pool2/3x3_s2
I0403 15:37:07.625519  3292 net.cpp:141] Setting up pool2/3x3_s2
I0403 15:37:07.625543  3292 net.cpp:148] Top shape: 24 192 28 28 (3612672)
I0403 15:37:07.625558  3292 net.cpp:156] Memory required for data: 433521696
I0403 15:37:07.625574  3292 layer_factory.hpp:77] Creating layer pool2/3x3_s2_pool2/3x3_s2_0_split
I0403 15:37:07.625593  3292 net.cpp:91] Creating Layer pool2/3x3_s2_pool2/3x3_s2_0_split
I0403 15:37:07.625610  3292 net.cpp:425] pool2/3x3_s2_pool2/3x3_s2_0_split <- pool2/3x3_s2
I0403 15:37:07.625630  3292 net.cpp:399] pool2/3x3_s2_pool2/3x3_s2_0_split -> pool2/3x3_s2_pool2/3x3_s2_0_split_0
I0403 15:37:07.625653  3292 net.cpp:399] pool2/3x3_s2_pool2/3x3_s2_0_split -> pool2/3x3_s2_pool2/3x3_s2_0_split_1
I0403 15:37:07.625674  3292 net.cpp:399] pool2/3x3_s2_pool2/3x3_s2_0_split -> pool2/3x3_s2_pool2/3x3_s2_0_split_2
I0403 15:37:07.625694  3292 net.cpp:399] pool2/3x3_s2_pool2/3x3_s2_0_split -> pool2/3x3_s2_pool2/3x3_s2_0_split_3
I0403 15:37:07.625769  3292 net.cpp:141] Setting up pool2/3x3_s2_pool2/3x3_s2_0_split
I0403 15:37:07.625795  3292 net.cpp:148] Top shape: 24 192 28 28 (3612672)
I0403 15:37:07.625813  3292 net.cpp:148] Top shape: 24 192 28 28 (3612672)
I0403 15:37:07.625831  3292 net.cpp:148] Top shape: 24 192 28 28 (3612672)
I0403 15:37:07.625847  3292 net.cpp:148] Top shape: 24 192 28 28 (3612672)
I0403 15:37:07.625862  3292 net.cpp:156] Memory required for data: 491324448
I0403 15:37:07.625877  3292 layer_factory.hpp:77] Creating layer inception_3a/1x1
I0403 15:37:07.625902  3292 net.cpp:91] Creating Layer inception_3a/1x1
I0403 15:37:07.625921  3292 net.cpp:425] inception_3a/1x1 <- pool2/3x3_s2_pool2/3x3_s2_0_split_0
I0403 15:37:07.625941  3292 net.cpp:399] inception_3a/1x1 -> inception_3a/1x1
I0403 15:37:07.627548  3292 net.cpp:141] Setting up inception_3a/1x1
I0403 15:37:07.627579  3292 net.cpp:148] Top shape: 24 64 28 28 (1204224)
I0403 15:37:07.627596  3292 net.cpp:156] Memory required for data: 496141344
I0403 15:37:07.627616  3292 layer_factory.hpp:77] Creating layer inception_3a/relu_1x1
I0403 15:37:07.627638  3292 net.cpp:91] Creating Layer inception_3a/relu_1x1
I0403 15:37:07.627657  3292 net.cpp:425] inception_3a/relu_1x1 <- inception_3a/1x1
I0403 15:37:07.627676  3292 net.cpp:386] inception_3a/relu_1x1 -> inception_3a/1x1 (in-place)
I0403 15:37:07.627857  3292 net.cpp:141] Setting up inception_3a/relu_1x1
I0403 15:37:07.627889  3292 net.cpp:148] Top shape: 24 64 28 28 (1204224)
I0403 15:37:07.627907  3292 net.cpp:156] Memory required for data: 500958240
I0403 15:37:07.627924  3292 layer_factory.hpp:77] Creating layer inception_3a/3x3_reduce
I0403 15:37:07.627950  3292 net.cpp:91] Creating Layer inception_3a/3x3_reduce
I0403 15:37:07.627970  3292 net.cpp:425] inception_3a/3x3_reduce <- pool2/3x3_s2_pool2/3x3_s2_0_split_1
I0403 15:37:07.627990  3292 net.cpp:399] inception_3a/3x3_reduce -> inception_3a/3x3_reduce
I0403 15:37:07.629788  3292 net.cpp:141] Setting up inception_3a/3x3_reduce
I0403 15:37:07.629822  3292 net.cpp:148] Top shape: 24 96 28 28 (1806336)
I0403 15:37:07.629839  3292 net.cpp:156] Memory required for data: 508183584
I0403 15:37:07.629865  3292 layer_factory.hpp:77] Creating layer inception_3a/relu_3x3_reduce
I0403 15:37:07.629902  3292 net.cpp:91] Creating Layer inception_3a/relu_3x3_reduce
I0403 15:37:07.629921  3292 net.cpp:425] inception_3a/relu_3x3_reduce <- inception_3a/3x3_reduce
I0403 15:37:07.629941  3292 net.cpp:386] inception_3a/relu_3x3_reduce -> inception_3a/3x3_reduce (in-place)
I0403 15:37:07.630132  3292 net.cpp:141] Setting up inception_3a/relu_3x3_reduce
I0403 15:37:07.630157  3292 net.cpp:148] Top shape: 24 96 28 28 (1806336)
I0403 15:37:07.630172  3292 net.cpp:156] Memory required for data: 515408928
I0403 15:37:07.630190  3292 layer_factory.hpp:77] Creating layer inception_3a/3x3
I0403 15:37:07.630213  3292 net.cpp:91] Creating Layer inception_3a/3x3
I0403 15:37:07.630231  3292 net.cpp:425] inception_3a/3x3 <- inception_3a/3x3_reduce
I0403 15:37:07.630254  3292 net.cpp:399] inception_3a/3x3 -> inception_3a/3x3
I0403 15:37:07.631952  3292 net.cpp:141] Setting up inception_3a/3x3
I0403 15:37:07.631979  3292 net.cpp:148] Top shape: 24 128 28 28 (2408448)
I0403 15:37:07.631995  3292 net.cpp:156] Memory required for data: 525042720
I0403 15:37:07.632014  3292 layer_factory.hpp:77] Creating layer inception_3a/relu_3x3
I0403 15:37:07.632035  3292 net.cpp:91] Creating Layer inception_3a/relu_3x3
I0403 15:37:07.632050  3292 net.cpp:425] inception_3a/relu_3x3 <- inception_3a/3x3
I0403 15:37:07.632068  3292 net.cpp:386] inception_3a/relu_3x3 -> inception_3a/3x3 (in-place)
I0403 15:37:07.632352  3292 net.cpp:141] Setting up inception_3a/relu_3x3
I0403 15:37:07.632380  3292 net.cpp:148] Top shape: 24 128 28 28 (2408448)
I0403 15:37:07.632395  3292 net.cpp:156] Memory required for data: 534676512
I0403 15:37:07.632410  3292 layer_factory.hpp:77] Creating layer inception_3a/5x5_reduce
I0403 15:37:07.632446  3292 net.cpp:91] Creating Layer inception_3a/5x5_reduce
I0403 15:37:07.632463  3292 net.cpp:425] inception_3a/5x5_reduce <- pool2/3x3_s2_pool2/3x3_s2_0_split_2
I0403 15:37:07.632483  3292 net.cpp:399] inception_3a/5x5_reduce -> inception_3a/5x5_reduce
I0403 15:37:07.633456  3292 net.cpp:141] Setting up inception_3a/5x5_reduce
I0403 15:37:07.633486  3292 net.cpp:148] Top shape: 24 16 28 28 (301056)
I0403 15:37:07.633503  3292 net.cpp:156] Memory required for data: 535880736
I0403 15:37:07.633522  3292 layer_factory.hpp:77] Creating layer inception_3a/relu_5x5_reduce
I0403 15:37:07.633540  3292 net.cpp:91] Creating Layer inception_3a/relu_5x5_reduce
I0403 15:37:07.633556  3292 net.cpp:425] inception_3a/relu_5x5_reduce <- inception_3a/5x5_reduce
I0403 15:37:07.633580  3292 net.cpp:386] inception_3a/relu_5x5_reduce -> inception_3a/5x5_reduce (in-place)
I0403 15:37:07.633877  3292 net.cpp:141] Setting up inception_3a/relu_5x5_reduce
I0403 15:37:07.633905  3292 net.cpp:148] Top shape: 24 16 28 28 (301056)
I0403 15:37:07.633921  3292 net.cpp:156] Memory required for data: 537084960
I0403 15:37:07.633936  3292 layer_factory.hpp:77] Creating layer inception_3a/5x5
I0403 15:37:07.633958  3292 net.cpp:91] Creating Layer inception_3a/5x5
I0403 15:37:07.633975  3292 net.cpp:425] inception_3a/5x5 <- inception_3a/5x5_reduce
I0403 15:37:07.633997  3292 net.cpp:399] inception_3a/5x5 -> inception_3a/5x5
I0403 15:37:07.635036  3292 net.cpp:141] Setting up inception_3a/5x5
I0403 15:37:07.635066  3292 net.cpp:148] Top shape: 24 32 28 28 (602112)
I0403 15:37:07.635081  3292 net.cpp:156] Memory required for data: 539493408
I0403 15:37:07.635099  3292 layer_factory.hpp:77] Creating layer inception_3a/relu_5x5
I0403 15:37:07.635120  3292 net.cpp:91] Creating Layer inception_3a/relu_5x5
I0403 15:37:07.635138  3292 net.cpp:425] inception_3a/relu_5x5 <- inception_3a/5x5
I0403 15:37:07.635156  3292 net.cpp:386] inception_3a/relu_5x5 -> inception_3a/5x5 (in-place)
I0403 15:37:07.635337  3292 net.cpp:141] Setting up inception_3a/relu_5x5
I0403 15:37:07.635365  3292 net.cpp:148] Top shape: 24 32 28 28 (602112)
I0403 15:37:07.635382  3292 net.cpp:156] Memory required for data: 541901856
I0403 15:37:07.635397  3292 layer_factory.hpp:77] Creating layer inception_3a/pool
I0403 15:37:07.635416  3292 net.cpp:91] Creating Layer inception_3a/pool
I0403 15:37:07.635447  3292 net.cpp:425] inception_3a/pool <- pool2/3x3_s2_pool2/3x3_s2_0_split_3
I0403 15:37:07.635469  3292 net.cpp:399] inception_3a/pool -> inception_3a/pool
I0403 15:37:07.635529  3292 net.cpp:141] Setting up inception_3a/pool
I0403 15:37:07.635552  3292 net.cpp:148] Top shape: 24 192 28 28 (3612672)
I0403 15:37:07.635567  3292 net.cpp:156] Memory required for data: 556352544
I0403 15:37:07.635582  3292 layer_factory.hpp:77] Creating layer inception_3a/pool_proj
I0403 15:37:07.635607  3292 net.cpp:91] Creating Layer inception_3a/pool_proj
I0403 15:37:07.635625  3292 net.cpp:425] inception_3a/pool_proj <- inception_3a/pool
I0403 15:37:07.635645  3292 net.cpp:399] inception_3a/pool_proj -> inception_3a/pool_proj
I0403 15:37:07.636662  3292 net.cpp:141] Setting up inception_3a/pool_proj
I0403 15:37:07.636690  3292 net.cpp:148] Top shape: 24 32 28 28 (602112)
I0403 15:37:07.636706  3292 net.cpp:156] Memory required for data: 558760992
I0403 15:37:07.636731  3292 layer_factory.hpp:77] Creating layer inception_3a/relu_pool_proj
I0403 15:37:07.636752  3292 net.cpp:91] Creating Layer inception_3a/relu_pool_proj
I0403 15:37:07.636770  3292 net.cpp:425] inception_3a/relu_pool_proj <- inception_3a/pool_proj
I0403 15:37:07.636790  3292 net.cpp:386] inception_3a/relu_pool_proj -> inception_3a/pool_proj (in-place)
I0403 15:37:07.637069  3292 net.cpp:141] Setting up inception_3a/relu_pool_proj
I0403 15:37:07.637097  3292 net.cpp:148] Top shape: 24 32 28 28 (602112)
I0403 15:37:07.637114  3292 net.cpp:156] Memory required for data: 561169440
I0403 15:37:07.637128  3292 layer_factory.hpp:77] Creating layer inception_3a/output
I0403 15:37:07.637150  3292 net.cpp:91] Creating Layer inception_3a/output
I0403 15:37:07.637168  3292 net.cpp:425] inception_3a/output <- inception_3a/1x1
I0403 15:37:07.637188  3292 net.cpp:425] inception_3a/output <- inception_3a/3x3
I0403 15:37:07.637203  3292 net.cpp:425] inception_3a/output <- inception_3a/5x5
I0403 15:37:07.637219  3292 net.cpp:425] inception_3a/output <- inception_3a/pool_proj
I0403 15:37:07.637236  3292 net.cpp:399] inception_3a/output -> inception_3a/output
I0403 15:37:07.637292  3292 net.cpp:141] Setting up inception_3a/output
I0403 15:37:07.637316  3292 net.cpp:148] Top shape: 24 256 28 28 (4816896)
I0403 15:37:07.637332  3292 net.cpp:156] Memory required for data: 580437024
I0403 15:37:07.637347  3292 layer_factory.hpp:77] Creating layer inception_3a/output_inception_3a/output_0_split
I0403 15:37:07.637364  3292 net.cpp:91] Creating Layer inception_3a/output_inception_3a/output_0_split
I0403 15:37:07.637380  3292 net.cpp:425] inception_3a/output_inception_3a/output_0_split <- inception_3a/output
I0403 15:37:07.637401  3292 net.cpp:399] inception_3a/output_inception_3a/output_0_split -> inception_3a/output_inception_3a/output_0_split_0
I0403 15:37:07.637423  3292 net.cpp:399] inception_3a/output_inception_3a/output_0_split -> inception_3a/output_inception_3a/output_0_split_1
I0403 15:37:07.637450  3292 net.cpp:399] inception_3a/output_inception_3a/output_0_split -> inception_3a/output_inception_3a/output_0_split_2
I0403 15:37:07.637473  3292 net.cpp:399] inception_3a/output_inception_3a/output_0_split -> inception_3a/output_inception_3a/output_0_split_3
I0403 15:37:07.637547  3292 net.cpp:141] Setting up inception_3a/output_inception_3a/output_0_split
I0403 15:37:07.637570  3292 net.cpp:148] Top shape: 24 256 28 28 (4816896)
I0403 15:37:07.637591  3292 net.cpp:148] Top shape: 24 256 28 28 (4816896)
I0403 15:37:07.637609  3292 net.cpp:148] Top shape: 24 256 28 28 (4816896)
I0403 15:37:07.637624  3292 net.cpp:148] Top shape: 24 256 28 28 (4816896)
I0403 15:37:07.637639  3292 net.cpp:156] Memory required for data: 657507360
I0403 15:37:07.637655  3292 layer_factory.hpp:77] Creating layer inception_3b/1x1
I0403 15:37:07.637675  3292 net.cpp:91] Creating Layer inception_3b/1x1
I0403 15:37:07.637692  3292 net.cpp:425] inception_3b/1x1 <- inception_3a/output_inception_3a/output_0_split_0
I0403 15:37:07.637713  3292 net.cpp:399] inception_3b/1x1 -> inception_3b/1x1
I0403 15:37:07.638869  3292 net.cpp:141] Setting up inception_3b/1x1
I0403 15:37:07.638908  3292 net.cpp:148] Top shape: 24 128 28 28 (2408448)
I0403 15:37:07.638926  3292 net.cpp:156] Memory required for data: 667141152
I0403 15:37:07.638944  3292 layer_factory.hpp:77] Creating layer inception_3b/relu_1x1
I0403 15:37:07.638965  3292 net.cpp:91] Creating Layer inception_3b/relu_1x1
I0403 15:37:07.638983  3292 net.cpp:425] inception_3b/relu_1x1 <- inception_3b/1x1
I0403 15:37:07.639000  3292 net.cpp:386] inception_3b/relu_1x1 -> inception_3b/1x1 (in-place)
I0403 15:37:07.639178  3292 net.cpp:141] Setting up inception_3b/relu_1x1
I0403 15:37:07.639204  3292 net.cpp:148] Top shape: 24 128 28 28 (2408448)
I0403 15:37:07.639219  3292 net.cpp:156] Memory required for data: 676774944
I0403 15:37:07.639235  3292 layer_factory.hpp:77] Creating layer inception_3b/3x3_reduce
I0403 15:37:07.639258  3292 net.cpp:91] Creating Layer inception_3b/3x3_reduce
I0403 15:37:07.639281  3292 net.cpp:425] inception_3b/3x3_reduce <- inception_3a/output_inception_3a/output_0_split_1
I0403 15:37:07.639302  3292 net.cpp:399] inception_3b/3x3_reduce -> inception_3b/3x3_reduce
I0403 15:37:07.640451  3292 net.cpp:141] Setting up inception_3b/3x3_reduce
I0403 15:37:07.640480  3292 net.cpp:148] Top shape: 24 128 28 28 (2408448)
I0403 15:37:07.640496  3292 net.cpp:156] Memory required for data: 686408736
I0403 15:37:07.640514  3292 layer_factory.hpp:77] Creating layer inception_3b/relu_3x3_reduce
I0403 15:37:07.640535  3292 net.cpp:91] Creating Layer inception_3b/relu_3x3_reduce
I0403 15:37:07.640553  3292 net.cpp:425] inception_3b/relu_3x3_reduce <- inception_3b/3x3_reduce
I0403 15:37:07.640571  3292 net.cpp:386] inception_3b/relu_3x3_reduce -> inception_3b/3x3_reduce (in-place)
I0403 15:37:07.640748  3292 net.cpp:141] Setting up inception_3b/relu_3x3_reduce
I0403 15:37:07.640775  3292 net.cpp:148] Top shape: 24 128 28 28 (2408448)
I0403 15:37:07.640791  3292 net.cpp:156] Memory required for data: 696042528
I0403 15:37:07.640806  3292 layer_factory.hpp:77] Creating layer inception_3b/3x3
I0403 15:37:07.640831  3292 net.cpp:91] Creating Layer inception_3b/3x3
I0403 15:37:07.640849  3292 net.cpp:425] inception_3b/3x3 <- inception_3b/3x3_reduce
I0403 15:37:07.640871  3292 net.cpp:399] inception_3b/3x3 -> inception_3b/3x3
I0403 15:37:07.643856  3292 net.cpp:141] Setting up inception_3b/3x3
I0403 15:37:07.643887  3292 net.cpp:148] Top shape: 24 192 28 28 (3612672)
I0403 15:37:07.643903  3292 net.cpp:156] Memory required for data: 710493216
I0403 15:37:07.643923  3292 layer_factory.hpp:77] Creating layer inception_3b/relu_3x3
I0403 15:37:07.643944  3292 net.cpp:91] Creating Layer inception_3b/relu_3x3
I0403 15:37:07.643962  3292 net.cpp:425] inception_3b/relu_3x3 <- inception_3b/3x3
I0403 15:37:07.643980  3292 net.cpp:386] inception_3b/relu_3x3 -> inception_3b/3x3 (in-place)
I0403 15:37:07.644269  3292 net.cpp:141] Setting up inception_3b/relu_3x3
I0403 15:37:07.644300  3292 net.cpp:148] Top shape: 24 192 28 28 (3612672)
I0403 15:37:07.644317  3292 net.cpp:156] Memory required for data: 724943904
I0403 15:37:07.644333  3292 layer_factory.hpp:77] Creating layer inception_3b/5x5_reduce
I0403 15:37:07.644359  3292 net.cpp:91] Creating Layer inception_3b/5x5_reduce
I0403 15:37:07.644378  3292 net.cpp:425] inception_3b/5x5_reduce <- inception_3a/output_inception_3a/output_0_split_2
I0403 15:37:07.644399  3292 net.cpp:399] inception_3b/5x5_reduce -> inception_3b/5x5_reduce
I0403 15:37:07.645439  3292 net.cpp:141] Setting up inception_3b/5x5_reduce
I0403 15:37:07.645468  3292 net.cpp:148] Top shape: 24 32 28 28 (602112)
I0403 15:37:07.645498  3292 net.cpp:156] Memory required for data: 727352352
I0403 15:37:07.645516  3292 layer_factory.hpp:77] Creating layer inception_3b/relu_5x5_reduce
I0403 15:37:07.645537  3292 net.cpp:91] Creating Layer inception_3b/relu_5x5_reduce
I0403 15:37:07.645555  3292 net.cpp:425] inception_3b/relu_5x5_reduce <- inception_3b/5x5_reduce
I0403 15:37:07.645573  3292 net.cpp:386] inception_3b/relu_5x5_reduce -> inception_3b/5x5_reduce (in-place)
I0403 15:37:07.645771  3292 net.cpp:141] Setting up inception_3b/relu_5x5_reduce
I0403 15:37:07.645797  3292 net.cpp:148] Top shape: 24 32 28 28 (602112)
I0403 15:37:07.645812  3292 net.cpp:156] Memory required for data: 729760800
I0403 15:37:07.645826  3292 layer_factory.hpp:77] Creating layer inception_3b/5x5
I0403 15:37:07.645849  3292 net.cpp:91] Creating Layer inception_3b/5x5
I0403 15:37:07.645867  3292 net.cpp:425] inception_3b/5x5 <- inception_3b/5x5_reduce
I0403 15:37:07.645889  3292 net.cpp:399] inception_3b/5x5 -> inception_3b/5x5
I0403 15:37:07.647893  3292 net.cpp:141] Setting up inception_3b/5x5
I0403 15:37:07.647923  3292 net.cpp:148] Top shape: 24 96 28 28 (1806336)
I0403 15:37:07.647940  3292 net.cpp:156] Memory required for data: 736986144
I0403 15:37:07.647959  3292 layer_factory.hpp:77] Creating layer inception_3b/relu_5x5
I0403 15:37:07.647980  3292 net.cpp:91] Creating Layer inception_3b/relu_5x5
I0403 15:37:07.647997  3292 net.cpp:425] inception_3b/relu_5x5 <- inception_3b/5x5
I0403 15:37:07.648016  3292 net.cpp:386] inception_3b/relu_5x5 -> inception_3b/5x5 (in-place)
I0403 15:37:07.648213  3292 net.cpp:141] Setting up inception_3b/relu_5x5
I0403 15:37:07.648239  3292 net.cpp:148] Top shape: 24 96 28 28 (1806336)
I0403 15:37:07.648255  3292 net.cpp:156] Memory required for data: 744211488
I0403 15:37:07.648274  3292 layer_factory.hpp:77] Creating layer inception_3b/pool
I0403 15:37:07.648294  3292 net.cpp:91] Creating Layer inception_3b/pool
I0403 15:37:07.648311  3292 net.cpp:425] inception_3b/pool <- inception_3a/output_inception_3a/output_0_split_3
I0403 15:37:07.648330  3292 net.cpp:399] inception_3b/pool -> inception_3b/pool
I0403 15:37:07.648387  3292 net.cpp:141] Setting up inception_3b/pool
I0403 15:37:07.648411  3292 net.cpp:148] Top shape: 24 256 28 28 (4816896)
I0403 15:37:07.648425  3292 net.cpp:156] Memory required for data: 763479072
I0403 15:37:07.648440  3292 layer_factory.hpp:77] Creating layer inception_3b/pool_proj
I0403 15:37:07.648463  3292 net.cpp:91] Creating Layer inception_3b/pool_proj
I0403 15:37:07.648481  3292 net.cpp:425] inception_3b/pool_proj <- inception_3b/pool
I0403 15:37:07.648502  3292 net.cpp:399] inception_3b/pool_proj -> inception_3b/pool_proj
I0403 15:37:07.649585  3292 net.cpp:141] Setting up inception_3b/pool_proj
I0403 15:37:07.649613  3292 net.cpp:148] Top shape: 24 64 28 28 (1204224)
I0403 15:37:07.649629  3292 net.cpp:156] Memory required for data: 768295968
I0403 15:37:07.649647  3292 layer_factory.hpp:77] Creating layer inception_3b/relu_pool_proj
I0403 15:37:07.649667  3292 net.cpp:91] Creating Layer inception_3b/relu_pool_proj
I0403 15:37:07.649683  3292 net.cpp:425] inception_3b/relu_pool_proj <- inception_3b/pool_proj
I0403 15:37:07.649703  3292 net.cpp:386] inception_3b/relu_pool_proj -> inception_3b/pool_proj (in-place)
I0403 15:37:07.650115  3292 net.cpp:141] Setting up inception_3b/relu_pool_proj
I0403 15:37:07.650144  3292 net.cpp:148] Top shape: 24 64 28 28 (1204224)
I0403 15:37:07.650161  3292 net.cpp:156] Memory required for data: 773112864
I0403 15:37:07.650177  3292 layer_factory.hpp:77] Creating layer inception_3b/output
I0403 15:37:07.650197  3292 net.cpp:91] Creating Layer inception_3b/output
I0403 15:37:07.650213  3292 net.cpp:425] inception_3b/output <- inception_3b/1x1
I0403 15:37:07.650229  3292 net.cpp:425] inception_3b/output <- inception_3b/3x3
I0403 15:37:07.650245  3292 net.cpp:425] inception_3b/output <- inception_3b/5x5
I0403 15:37:07.650261  3292 net.cpp:425] inception_3b/output <- inception_3b/pool_proj
I0403 15:37:07.650286  3292 net.cpp:399] inception_3b/output -> inception_3b/output
I0403 15:37:07.650333  3292 net.cpp:141] Setting up inception_3b/output
I0403 15:37:07.650357  3292 net.cpp:148] Top shape: 24 480 28 28 (9031680)
I0403 15:37:07.650372  3292 net.cpp:156] Memory required for data: 809239584
I0403 15:37:07.650387  3292 layer_factory.hpp:77] Creating layer pool3/3x3_s2
I0403 15:37:07.650406  3292 net.cpp:91] Creating Layer pool3/3x3_s2
I0403 15:37:07.650424  3292 net.cpp:425] pool3/3x3_s2 <- inception_3b/output
I0403 15:37:07.650456  3292 net.cpp:399] pool3/3x3_s2 -> pool3/3x3_s2
I0403 15:37:07.650518  3292 net.cpp:141] Setting up pool3/3x3_s2
I0403 15:37:07.650542  3292 net.cpp:148] Top shape: 24 480 14 14 (2257920)
I0403 15:37:07.650557  3292 net.cpp:156] Memory required for data: 818271264
I0403 15:37:07.650573  3292 layer_factory.hpp:77] Creating layer pool3/3x3_s2_pool3/3x3_s2_0_split
I0403 15:37:07.650589  3292 net.cpp:91] Creating Layer pool3/3x3_s2_pool3/3x3_s2_0_split
I0403 15:37:07.650605  3292 net.cpp:425] pool3/3x3_s2_pool3/3x3_s2_0_split <- pool3/3x3_s2
I0403 15:37:07.650625  3292 net.cpp:399] pool3/3x3_s2_pool3/3x3_s2_0_split -> pool3/3x3_s2_pool3/3x3_s2_0_split_0
I0403 15:37:07.650646  3292 net.cpp:399] pool3/3x3_s2_pool3/3x3_s2_0_split -> pool3/3x3_s2_pool3/3x3_s2_0_split_1
I0403 15:37:07.650666  3292 net.cpp:399] pool3/3x3_s2_pool3/3x3_s2_0_split -> pool3/3x3_s2_pool3/3x3_s2_0_split_2
I0403 15:37:07.650686  3292 net.cpp:399] pool3/3x3_s2_pool3/3x3_s2_0_split -> pool3/3x3_s2_pool3/3x3_s2_0_split_3
I0403 15:37:07.650766  3292 net.cpp:141] Setting up pool3/3x3_s2_pool3/3x3_s2_0_split
I0403 15:37:07.650790  3292 net.cpp:148] Top shape: 24 480 14 14 (2257920)
I0403 15:37:07.650807  3292 net.cpp:148] Top shape: 24 480 14 14 (2257920)
I0403 15:37:07.650823  3292 net.cpp:148] Top shape: 24 480 14 14 (2257920)
I0403 15:37:07.650840  3292 net.cpp:148] Top shape: 24 480 14 14 (2257920)
I0403 15:37:07.650854  3292 net.cpp:156] Memory required for data: 854397984
I0403 15:37:07.650868  3292 layer_factory.hpp:77] Creating layer inception_4a/1x1
I0403 15:37:07.650892  3292 net.cpp:91] Creating Layer inception_4a/1x1
I0403 15:37:07.650908  3292 net.cpp:425] inception_4a/1x1 <- pool3/3x3_s2_pool3/3x3_s2_0_split_0
I0403 15:37:07.650931  3292 net.cpp:399] inception_4a/1x1 -> inception_4a/1x1
I0403 15:37:07.652544  3292 net.cpp:141] Setting up inception_4a/1x1
I0403 15:37:07.652573  3292 net.cpp:148] Top shape: 24 192 14 14 (903168)
I0403 15:37:07.652590  3292 net.cpp:156] Memory required for data: 858010656
I0403 15:37:07.652608  3292 layer_factory.hpp:77] Creating layer inception_4a/relu_1x1
I0403 15:37:07.652626  3292 net.cpp:91] Creating Layer inception_4a/relu_1x1
I0403 15:37:07.652643  3292 net.cpp:425] inception_4a/relu_1x1 <- inception_4a/1x1
I0403 15:37:07.652663  3292 net.cpp:386] inception_4a/relu_1x1 -> inception_4a/1x1 (in-place)
I0403 15:37:07.652843  3292 net.cpp:141] Setting up inception_4a/relu_1x1
I0403 15:37:07.652868  3292 net.cpp:148] Top shape: 24 192 14 14 (903168)
I0403 15:37:07.652884  3292 net.cpp:156] Memory required for data: 861623328
I0403 15:37:07.652899  3292 layer_factory.hpp:77] Creating layer inception_4a/3x3_reduce
I0403 15:37:07.652921  3292 net.cpp:91] Creating Layer inception_4a/3x3_reduce
I0403 15:37:07.652940  3292 net.cpp:425] inception_4a/3x3_reduce <- pool3/3x3_s2_pool3/3x3_s2_0_split_1
I0403 15:37:07.652961  3292 net.cpp:399] inception_4a/3x3_reduce -> inception_4a/3x3_reduce
I0403 15:37:07.654247  3292 net.cpp:141] Setting up inception_4a/3x3_reduce
I0403 15:37:07.654278  3292 net.cpp:148] Top shape: 24 96 14 14 (451584)
I0403 15:37:07.654294  3292 net.cpp:156] Memory required for data: 863429664
I0403 15:37:07.654320  3292 layer_factory.hpp:77] Creating layer inception_4a/relu_3x3_reduce
I0403 15:37:07.654340  3292 net.cpp:91] Creating Layer inception_4a/relu_3x3_reduce
I0403 15:37:07.654356  3292 net.cpp:425] inception_4a/relu_3x3_reduce <- inception_4a/3x3_reduce
I0403 15:37:07.654376  3292 net.cpp:386] inception_4a/relu_3x3_reduce -> inception_4a/3x3_reduce (in-place)
I0403 15:37:07.654549  3292 net.cpp:141] Setting up inception_4a/relu_3x3_reduce
I0403 15:37:07.654574  3292 net.cpp:148] Top shape: 24 96 14 14 (451584)
I0403 15:37:07.654588  3292 net.cpp:156] Memory required for data: 865236000
I0403 15:37:07.654603  3292 layer_factory.hpp:77] Creating layer inception_4a/3x3
I0403 15:37:07.654625  3292 net.cpp:91] Creating Layer inception_4a/3x3
I0403 15:37:07.654642  3292 net.cpp:425] inception_4a/3x3 <- inception_4a/3x3_reduce
I0403 15:37:07.654664  3292 net.cpp:399] inception_4a/3x3 -> inception_4a/3x3
I0403 15:37:07.657318  3292 net.cpp:141] Setting up inception_4a/3x3
I0403 15:37:07.657347  3292 net.cpp:148] Top shape: 24 208 14 14 (978432)
I0403 15:37:07.657363  3292 net.cpp:156] Memory required for data: 869149728
I0403 15:37:07.657382  3292 layer_factory.hpp:77] Creating layer inception_4a/relu_3x3
I0403 15:37:07.657402  3292 net.cpp:91] Creating Layer inception_4a/relu_3x3
I0403 15:37:07.657419  3292 net.cpp:425] inception_4a/relu_3x3 <- inception_4a/3x3
I0403 15:37:07.657436  3292 net.cpp:386] inception_4a/relu_3x3 -> inception_4a/3x3 (in-place)
I0403 15:37:07.657712  3292 net.cpp:141] Setting up inception_4a/relu_3x3
I0403 15:37:07.657738  3292 net.cpp:148] Top shape: 24 208 14 14 (978432)
I0403 15:37:07.657753  3292 net.cpp:156] Memory required for data: 873063456
I0403 15:37:07.657768  3292 layer_factory.hpp:77] Creating layer inception_4a/5x5_reduce
I0403 15:37:07.657790  3292 net.cpp:91] Creating Layer inception_4a/5x5_reduce
I0403 15:37:07.657809  3292 net.cpp:425] inception_4a/5x5_reduce <- pool3/3x3_s2_pool3/3x3_s2_0_split_2
I0403 15:37:07.657830  3292 net.cpp:399] inception_4a/5x5_reduce -> inception_4a/5x5_reduce
I0403 15:37:07.658841  3292 net.cpp:141] Setting up inception_4a/5x5_reduce
I0403 15:37:07.658869  3292 net.cpp:148] Top shape: 24 16 14 14 (75264)
I0403 15:37:07.658885  3292 net.cpp:156] Memory required for data: 873364512
I0403 15:37:07.658902  3292 layer_factory.hpp:77] Creating layer inception_4a/relu_5x5_reduce
I0403 15:37:07.658922  3292 net.cpp:91] Creating Layer inception_4a/relu_5x5_reduce
I0403 15:37:07.658938  3292 net.cpp:425] inception_4a/relu_5x5_reduce <- inception_4a/5x5_reduce
I0403 15:37:07.658956  3292 net.cpp:386] inception_4a/relu_5x5_reduce -> inception_4a/5x5_reduce (in-place)
I0403 15:37:07.659132  3292 net.cpp:141] Setting up inception_4a/relu_5x5_reduce
I0403 15:37:07.659157  3292 net.cpp:148] Top shape: 24 16 14 14 (75264)
I0403 15:37:07.659173  3292 net.cpp:156] Memory required for data: 873665568
I0403 15:37:07.659190  3292 layer_factory.hpp:77] Creating layer inception_4a/5x5
I0403 15:37:07.659211  3292 net.cpp:91] Creating Layer inception_4a/5x5
I0403 15:37:07.659229  3292 net.cpp:425] inception_4a/5x5 <- inception_4a/5x5_reduce
I0403 15:37:07.659250  3292 net.cpp:399] inception_4a/5x5 -> inception_4a/5x5
I0403 15:37:07.660346  3292 net.cpp:141] Setting up inception_4a/5x5
I0403 15:37:07.660377  3292 net.cpp:148] Top shape: 24 48 14 14 (225792)
I0403 15:37:07.660393  3292 net.cpp:156] Memory required for data: 874568736
I0403 15:37:07.660413  3292 layer_factory.hpp:77] Creating layer inception_4a/relu_5x5
I0403 15:37:07.660431  3292 net.cpp:91] Creating Layer inception_4a/relu_5x5
I0403 15:37:07.660447  3292 net.cpp:425] inception_4a/relu_5x5 <- inception_4a/5x5
I0403 15:37:07.660468  3292 net.cpp:386] inception_4a/relu_5x5 -> inception_4a/5x5 (in-place)
I0403 15:37:07.660662  3292 net.cpp:141] Setting up inception_4a/relu_5x5
I0403 15:37:07.660686  3292 net.cpp:148] Top shape: 24 48 14 14 (225792)
I0403 15:37:07.660701  3292 net.cpp:156] Memory required for data: 875471904
I0403 15:37:07.660715  3292 layer_factory.hpp:77] Creating layer inception_4a/pool
I0403 15:37:07.660733  3292 net.cpp:91] Creating Layer inception_4a/pool
I0403 15:37:07.660749  3292 net.cpp:425] inception_4a/pool <- pool3/3x3_s2_pool3/3x3_s2_0_split_3
I0403 15:37:07.660769  3292 net.cpp:399] inception_4a/pool -> inception_4a/pool
I0403 15:37:07.660830  3292 net.cpp:141] Setting up inception_4a/pool
I0403 15:37:07.660853  3292 net.cpp:148] Top shape: 24 480 14 14 (2257920)
I0403 15:37:07.660867  3292 net.cpp:156] Memory required for data: 884503584
I0403 15:37:07.660881  3292 layer_factory.hpp:77] Creating layer inception_4a/pool_proj
I0403 15:37:07.660904  3292 net.cpp:91] Creating Layer inception_4a/pool_proj
I0403 15:37:07.660923  3292 net.cpp:425] inception_4a/pool_proj <- inception_4a/pool
I0403 15:37:07.660941  3292 net.cpp:399] inception_4a/pool_proj -> inception_4a/pool_proj
I0403 15:37:07.662093  3292 net.cpp:141] Setting up inception_4a/pool_proj
I0403 15:37:07.662122  3292 net.cpp:148] Top shape: 24 64 14 14 (301056)
I0403 15:37:07.662150  3292 net.cpp:156] Memory required for data: 885707808
I0403 15:37:07.662170  3292 layer_factory.hpp:77] Creating layer inception_4a/relu_pool_proj
I0403 15:37:07.662191  3292 net.cpp:91] Creating Layer inception_4a/relu_pool_proj
I0403 15:37:07.662207  3292 net.cpp:425] inception_4a/relu_pool_proj <- inception_4a/pool_proj
I0403 15:37:07.662226  3292 net.cpp:386] inception_4a/relu_pool_proj -> inception_4a/pool_proj (in-place)
I0403 15:37:07.662519  3292 net.cpp:141] Setting up inception_4a/relu_pool_proj
I0403 15:37:07.662545  3292 net.cpp:148] Top shape: 24 64 14 14 (301056)
I0403 15:37:07.662560  3292 net.cpp:156] Memory required for data: 886912032
I0403 15:37:07.662575  3292 layer_factory.hpp:77] Creating layer inception_4a/output
I0403 15:37:07.662593  3292 net.cpp:91] Creating Layer inception_4a/output
I0403 15:37:07.662609  3292 net.cpp:425] inception_4a/output <- inception_4a/1x1
I0403 15:37:07.662626  3292 net.cpp:425] inception_4a/output <- inception_4a/3x3
I0403 15:37:07.662642  3292 net.cpp:425] inception_4a/output <- inception_4a/5x5
I0403 15:37:07.662657  3292 net.cpp:425] inception_4a/output <- inception_4a/pool_proj
I0403 15:37:07.662677  3292 net.cpp:399] inception_4a/output -> inception_4a/output
I0403 15:37:07.662721  3292 net.cpp:141] Setting up inception_4a/output
I0403 15:37:07.662746  3292 net.cpp:148] Top shape: 24 512 14 14 (2408448)
I0403 15:37:07.662761  3292 net.cpp:156] Memory required for data: 896545824
I0403 15:37:07.662775  3292 layer_factory.hpp:77] Creating layer inception_4a/output_inception_4a/output_0_split
I0403 15:37:07.662792  3292 net.cpp:91] Creating Layer inception_4a/output_inception_4a/output_0_split
I0403 15:37:07.662808  3292 net.cpp:425] inception_4a/output_inception_4a/output_0_split <- inception_4a/output
I0403 15:37:07.662828  3292 net.cpp:399] inception_4a/output_inception_4a/output_0_split -> inception_4a/output_inception_4a/output_0_split_0
I0403 15:37:07.662848  3292 net.cpp:399] inception_4a/output_inception_4a/output_0_split -> inception_4a/output_inception_4a/output_0_split_1
I0403 15:37:07.662870  3292 net.cpp:399] inception_4a/output_inception_4a/output_0_split -> inception_4a/output_inception_4a/output_0_split_2
I0403 15:37:07.662891  3292 net.cpp:399] inception_4a/output_inception_4a/output_0_split -> inception_4a/output_inception_4a/output_0_split_3
I0403 15:37:07.662910  3292 net.cpp:399] inception_4a/output_inception_4a/output_0_split -> inception_4a/output_inception_4a/output_0_split_4
I0403 15:37:07.663000  3292 net.cpp:141] Setting up inception_4a/output_inception_4a/output_0_split
I0403 15:37:07.663024  3292 net.cpp:148] Top shape: 24 512 14 14 (2408448)
I0403 15:37:07.663040  3292 net.cpp:148] Top shape: 24 512 14 14 (2408448)
I0403 15:37:07.663056  3292 net.cpp:148] Top shape: 24 512 14 14 (2408448)
I0403 15:37:07.663072  3292 net.cpp:148] Top shape: 24 512 14 14 (2408448)
I0403 15:37:07.663087  3292 net.cpp:148] Top shape: 24 512 14 14 (2408448)
I0403 15:37:07.663101  3292 net.cpp:156] Memory required for data: 944714784
I0403 15:37:07.663115  3292 layer_factory.hpp:77] Creating layer loss1/ave_pool
I0403 15:37:07.663136  3292 net.cpp:91] Creating Layer loss1/ave_pool
I0403 15:37:07.663152  3292 net.cpp:425] loss1/ave_pool <- inception_4a/output_inception_4a/output_0_split_0
I0403 15:37:07.663171  3292 net.cpp:399] loss1/ave_pool -> loss1/ave_pool
I0403 15:37:07.663383  3292 net.cpp:141] Setting up loss1/ave_pool
I0403 15:37:07.663408  3292 net.cpp:148] Top shape: 24 512 4 4 (196608)
I0403 15:37:07.663424  3292 net.cpp:156] Memory required for data: 945501216
I0403 15:37:07.663439  3292 layer_factory.hpp:77] Creating layer loss1/conv
I0403 15:37:07.663460  3292 net.cpp:91] Creating Layer loss1/conv
I0403 15:37:07.663477  3292 net.cpp:425] loss1/conv <- loss1/ave_pool
I0403 15:37:07.663498  3292 net.cpp:399] loss1/conv -> loss1/conv
I0403 15:37:07.664924  3292 net.cpp:141] Setting up loss1/conv
I0403 15:37:07.664954  3292 net.cpp:148] Top shape: 24 128 4 4 (49152)
I0403 15:37:07.664984  3292 net.cpp:156] Memory required for data: 945697824
I0403 15:37:07.665005  3292 layer_factory.hpp:77] Creating layer loss1/relu_conv
I0403 15:37:07.665025  3292 net.cpp:91] Creating Layer loss1/relu_conv
I0403 15:37:07.665043  3292 net.cpp:425] loss1/relu_conv <- loss1/conv
I0403 15:37:07.665060  3292 net.cpp:386] loss1/relu_conv -> loss1/conv (in-place)
I0403 15:37:07.665390  3292 net.cpp:141] Setting up loss1/relu_conv
I0403 15:37:07.665416  3292 net.cpp:148] Top shape: 24 128 4 4 (49152)
I0403 15:37:07.665432  3292 net.cpp:156] Memory required for data: 945894432
I0403 15:37:07.665448  3292 layer_factory.hpp:77] Creating layer loss1/fc
I0403 15:37:07.665474  3292 net.cpp:91] Creating Layer loss1/fc
I0403 15:37:07.665493  3292 net.cpp:425] loss1/fc <- loss1/conv
I0403 15:37:07.665518  3292 net.cpp:399] loss1/fc -> loss1/fc
I0403 15:37:07.685322  3292 net.cpp:141] Setting up loss1/fc
I0403 15:37:07.685354  3292 net.cpp:148] Top shape: 24 1024 (24576)
I0403 15:37:07.685371  3292 net.cpp:156] Memory required for data: 945992736
I0403 15:37:07.685391  3292 layer_factory.hpp:77] Creating layer loss1/relu_fc
I0403 15:37:07.685411  3292 net.cpp:91] Creating Layer loss1/relu_fc
I0403 15:37:07.685428  3292 net.cpp:425] loss1/relu_fc <- loss1/fc
I0403 15:37:07.685448  3292 net.cpp:386] loss1/relu_fc -> loss1/fc (in-place)
I0403 15:37:07.685647  3292 net.cpp:141] Setting up loss1/relu_fc
I0403 15:37:07.685672  3292 net.cpp:148] Top shape: 24 1024 (24576)
I0403 15:37:07.685686  3292 net.cpp:156] Memory required for data: 946091040
I0403 15:37:07.685701  3292 layer_factory.hpp:77] Creating layer loss1/drop_fc
I0403 15:37:07.685735  3292 net.cpp:91] Creating Layer loss1/drop_fc
I0403 15:37:07.685755  3292 net.cpp:425] loss1/drop_fc <- loss1/fc
I0403 15:37:07.685772  3292 net.cpp:386] loss1/drop_fc -> loss1/fc (in-place)
I0403 15:37:07.685823  3292 net.cpp:141] Setting up loss1/drop_fc
I0403 15:37:07.685850  3292 net.cpp:148] Top shape: 24 1024 (24576)
I0403 15:37:07.685866  3292 net.cpp:156] Memory required for data: 946189344
I0403 15:37:07.685883  3292 layer_factory.hpp:77] Creating layer loss1/classifier_plantvillage
I0403 15:37:07.685901  3292 net.cpp:91] Creating Layer loss1/classifier_plantvillage
I0403 15:37:07.685917  3292 net.cpp:425] loss1/classifier_plantvillage <- loss1/fc
I0403 15:37:07.685940  3292 net.cpp:399] loss1/classifier_plantvillage -> loss1/classifier_plantvillage
I0403 15:37:07.686878  3292 net.cpp:141] Setting up loss1/classifier_plantvillage
I0403 15:37:07.686908  3292 net.cpp:148] Top shape: 24 38 (912)
I0403 15:37:07.686923  3292 net.cpp:156] Memory required for data: 946192992
I0403 15:37:07.686942  3292 layer_factory.hpp:77] Creating layer loss1/classifier_plantvillage_loss1/classifier_plantvillage_0_split
I0403 15:37:07.686961  3292 net.cpp:91] Creating Layer loss1/classifier_plantvillage_loss1/classifier_plantvillage_0_split
I0403 15:37:07.686978  3292 net.cpp:425] loss1/classifier_plantvillage_loss1/classifier_plantvillage_0_split <- loss1/classifier_plantvillage
I0403 15:37:07.686998  3292 net.cpp:399] loss1/classifier_plantvillage_loss1/classifier_plantvillage_0_split -> loss1/classifier_plantvillage_loss1/classifier_plantvillage_0_split_0
I0403 15:37:07.687021  3292 net.cpp:399] loss1/classifier_plantvillage_loss1/classifier_plantvillage_0_split -> loss1/classifier_plantvillage_loss1/classifier_plantvillage_0_split_1
I0403 15:37:07.687041  3292 net.cpp:399] loss1/classifier_plantvillage_loss1/classifier_plantvillage_0_split -> loss1/classifier_plantvillage_loss1/classifier_plantvillage_0_split_2
I0403 15:37:07.687114  3292 net.cpp:141] Setting up loss1/classifier_plantvillage_loss1/classifier_plantvillage_0_split
I0403 15:37:07.687139  3292 net.cpp:148] Top shape: 24 38 (912)
I0403 15:37:07.687157  3292 net.cpp:148] Top shape: 24 38 (912)
I0403 15:37:07.687175  3292 net.cpp:148] Top shape: 24 38 (912)
I0403 15:37:07.687189  3292 net.cpp:156] Memory required for data: 946203936
I0403 15:37:07.687203  3292 layer_factory.hpp:77] Creating layer inception_4b/1x1
I0403 15:37:07.687227  3292 net.cpp:91] Creating Layer inception_4b/1x1
I0403 15:37:07.687261  3292 net.cpp:425] inception_4b/1x1 <- inception_4a/output_inception_4a/output_0_split_1
I0403 15:37:07.687288  3292 net.cpp:399] inception_4b/1x1 -> inception_4b/1x1
I0403 15:37:07.688999  3292 net.cpp:141] Setting up inception_4b/1x1
I0403 15:37:07.689029  3292 net.cpp:148] Top shape: 24 160 14 14 (752640)
I0403 15:37:07.689045  3292 net.cpp:156] Memory required for data: 949214496
I0403 15:37:07.689064  3292 layer_factory.hpp:77] Creating layer inception_4b/relu_1x1
I0403 15:37:07.689086  3292 net.cpp:91] Creating Layer inception_4b/relu_1x1
I0403 15:37:07.689103  3292 net.cpp:425] inception_4b/relu_1x1 <- inception_4b/1x1
I0403 15:37:07.689121  3292 net.cpp:386] inception_4b/relu_1x1 -> inception_4b/1x1 (in-place)
I0403 15:37:07.689311  3292 net.cpp:141] Setting up inception_4b/relu_1x1
I0403 15:37:07.689339  3292 net.cpp:148] Top shape: 24 160 14 14 (752640)
I0403 15:37:07.689355  3292 net.cpp:156] Memory required for data: 952225056
I0403 15:37:07.689370  3292 layer_factory.hpp:77] Creating layer inception_4b/3x3_reduce
I0403 15:37:07.689395  3292 net.cpp:91] Creating Layer inception_4b/3x3_reduce
I0403 15:37:07.689414  3292 net.cpp:425] inception_4b/3x3_reduce <- inception_4a/output_inception_4a/output_0_split_2
I0403 15:37:07.689434  3292 net.cpp:399] inception_4b/3x3_reduce -> inception_4b/3x3_reduce
I0403 15:37:07.690819  3292 net.cpp:141] Setting up inception_4b/3x3_reduce
I0403 15:37:07.690850  3292 net.cpp:148] Top shape: 24 112 14 14 (526848)
I0403 15:37:07.690867  3292 net.cpp:156] Memory required for data: 954332448
I0403 15:37:07.690886  3292 layer_factory.hpp:77] Creating layer inception_4b/relu_3x3_reduce
I0403 15:37:07.690906  3292 net.cpp:91] Creating Layer inception_4b/relu_3x3_reduce
I0403 15:37:07.690922  3292 net.cpp:425] inception_4b/relu_3x3_reduce <- inception_4b/3x3_reduce
I0403 15:37:07.690939  3292 net.cpp:386] inception_4b/relu_3x3_reduce -> inception_4b/3x3_reduce (in-place)
I0403 15:37:07.691226  3292 net.cpp:141] Setting up inception_4b/relu_3x3_reduce
I0403 15:37:07.691256  3292 net.cpp:148] Top shape: 24 112 14 14 (526848)
I0403 15:37:07.691289  3292 net.cpp:156] Memory required for data: 956439840
I0403 15:37:07.691308  3292 layer_factory.hpp:77] Creating layer inception_4b/3x3
I0403 15:37:07.691331  3292 net.cpp:91] Creating Layer inception_4b/3x3
I0403 15:37:07.691350  3292 net.cpp:425] inception_4b/3x3 <- inception_4b/3x3_reduce
I0403 15:37:07.691370  3292 net.cpp:399] inception_4b/3x3 -> inception_4b/3x3
I0403 15:37:07.694499  3292 net.cpp:141] Setting up inception_4b/3x3
I0403 15:37:07.694528  3292 net.cpp:148] Top shape: 24 224 14 14 (1053696)
I0403 15:37:07.694545  3292 net.cpp:156] Memory required for data: 960654624
I0403 15:37:07.694564  3292 layer_factory.hpp:77] Creating layer inception_4b/relu_3x3
I0403 15:37:07.694583  3292 net.cpp:91] Creating Layer inception_4b/relu_3x3
I0403 15:37:07.694599  3292 net.cpp:425] inception_4b/relu_3x3 <- inception_4b/3x3
I0403 15:37:07.694620  3292 net.cpp:386] inception_4b/relu_3x3 -> inception_4b/3x3 (in-place)
I0403 15:37:07.694804  3292 net.cpp:141] Setting up inception_4b/relu_3x3
I0403 15:37:07.694830  3292 net.cpp:148] Top shape: 24 224 14 14 (1053696)
I0403 15:37:07.694845  3292 net.cpp:156] Memory required for data: 964869408
I0403 15:37:07.694860  3292 layer_factory.hpp:77] Creating layer inception_4b/5x5_reduce
I0403 15:37:07.694882  3292 net.cpp:91] Creating Layer inception_4b/5x5_reduce
I0403 15:37:07.694900  3292 net.cpp:425] inception_4b/5x5_reduce <- inception_4a/output_inception_4a/output_0_split_3
I0403 15:37:07.694924  3292 net.cpp:399] inception_4b/5x5_reduce -> inception_4b/5x5_reduce
I0403 15:37:07.696043  3292 net.cpp:141] Setting up inception_4b/5x5_reduce
I0403 15:37:07.696075  3292 net.cpp:148] Top shape: 24 24 14 14 (112896)
I0403 15:37:07.696091  3292 net.cpp:156] Memory required for data: 965320992
I0403 15:37:07.696111  3292 layer_factory.hpp:77] Creating layer inception_4b/relu_5x5_reduce
I0403 15:37:07.696130  3292 net.cpp:91] Creating Layer inception_4b/relu_5x5_reduce
I0403 15:37:07.696161  3292 net.cpp:425] inception_4b/relu_5x5_reduce <- inception_4b/5x5_reduce
I0403 15:37:07.696182  3292 net.cpp:386] inception_4b/relu_5x5_reduce -> inception_4b/5x5_reduce (in-place)
I0403 15:37:07.696379  3292 net.cpp:141] Setting up inception_4b/relu_5x5_reduce
I0403 15:37:07.696408  3292 net.cpp:148] Top shape: 24 24 14 14 (112896)
I0403 15:37:07.696424  3292 net.cpp:156] Memory required for data: 965772576
I0403 15:37:07.696439  3292 layer_factory.hpp:77] Creating layer inception_4b/5x5
I0403 15:37:07.696462  3292 net.cpp:91] Creating Layer inception_4b/5x5
I0403 15:37:07.696480  3292 net.cpp:425] inception_4b/5x5 <- inception_4b/5x5_reduce
I0403 15:37:07.696499  3292 net.cpp:399] inception_4b/5x5 -> inception_4b/5x5
I0403 15:37:07.697763  3292 net.cpp:141] Setting up inception_4b/5x5
I0403 15:37:07.697793  3292 net.cpp:148] Top shape: 24 64 14 14 (301056)
I0403 15:37:07.697808  3292 net.cpp:156] Memory required for data: 966976800
I0403 15:37:07.697826  3292 layer_factory.hpp:77] Creating layer inception_4b/relu_5x5
I0403 15:37:07.697849  3292 net.cpp:91] Creating Layer inception_4b/relu_5x5
I0403 15:37:07.697866  3292 net.cpp:425] inception_4b/relu_5x5 <- inception_4b/5x5
I0403 15:37:07.697885  3292 net.cpp:386] inception_4b/relu_5x5 -> inception_4b/5x5 (in-place)
I0403 15:37:07.698175  3292 net.cpp:141] Setting up inception_4b/relu_5x5
I0403 15:37:07.698204  3292 net.cpp:148] Top shape: 24 64 14 14 (301056)
I0403 15:37:07.698218  3292 net.cpp:156] Memory required for data: 968181024
I0403 15:37:07.698233  3292 layer_factory.hpp:77] Creating layer inception_4b/pool
I0403 15:37:07.698256  3292 net.cpp:91] Creating Layer inception_4b/pool
I0403 15:37:07.698278  3292 net.cpp:425] inception_4b/pool <- inception_4a/output_inception_4a/output_0_split_4
I0403 15:37:07.698299  3292 net.cpp:399] inception_4b/pool -> inception_4b/pool
I0403 15:37:07.698366  3292 net.cpp:141] Setting up inception_4b/pool
I0403 15:37:07.698391  3292 net.cpp:148] Top shape: 24 512 14 14 (2408448)
I0403 15:37:07.698406  3292 net.cpp:156] Memory required for data: 977814816
I0403 15:37:07.698421  3292 layer_factory.hpp:77] Creating layer inception_4b/pool_proj
I0403 15:37:07.698443  3292 net.cpp:91] Creating Layer inception_4b/pool_proj
I0403 15:37:07.698460  3292 net.cpp:425] inception_4b/pool_proj <- inception_4b/pool
I0403 15:37:07.698482  3292 net.cpp:399] inception_4b/pool_proj -> inception_4b/pool_proj
I0403 15:37:07.699720  3292 net.cpp:141] Setting up inception_4b/pool_proj
I0403 15:37:07.699748  3292 net.cpp:148] Top shape: 24 64 14 14 (301056)
I0403 15:37:07.699764  3292 net.cpp:156] Memory required for data: 979019040
I0403 15:37:07.699784  3292 layer_factory.hpp:77] Creating layer inception_4b/relu_pool_proj
I0403 15:37:07.699803  3292 net.cpp:91] Creating Layer inception_4b/relu_pool_proj
I0403 15:37:07.699820  3292 net.cpp:425] inception_4b/relu_pool_proj <- inception_4b/pool_proj
I0403 15:37:07.699838  3292 net.cpp:386] inception_4b/relu_pool_proj -> inception_4b/pool_proj (in-place)
I0403 15:37:07.700026  3292 net.cpp:141] Setting up inception_4b/relu_pool_proj
I0403 15:37:07.700050  3292 net.cpp:148] Top shape: 24 64 14 14 (301056)
I0403 15:37:07.700065  3292 net.cpp:156] Memory required for data: 980223264
I0403 15:37:07.700080  3292 layer_factory.hpp:77] Creating layer inception_4b/output
I0403 15:37:07.700098  3292 net.cpp:91] Creating Layer inception_4b/output
I0403 15:37:07.700114  3292 net.cpp:425] inception_4b/output <- inception_4b/1x1
I0403 15:37:07.700131  3292 net.cpp:425] inception_4b/output <- inception_4b/3x3
I0403 15:37:07.700147  3292 net.cpp:425] inception_4b/output <- inception_4b/5x5
I0403 15:37:07.700163  3292 net.cpp:425] inception_4b/output <- inception_4b/pool_proj
I0403 15:37:07.700183  3292 net.cpp:399] inception_4b/output -> inception_4b/output
I0403 15:37:07.700230  3292 net.cpp:141] Setting up inception_4b/output
I0403 15:37:07.700256  3292 net.cpp:148] Top shape: 24 512 14 14 (2408448)
I0403 15:37:07.700278  3292 net.cpp:156] Memory required for data: 989857056
I0403 15:37:07.700309  3292 layer_factory.hpp:77] Creating layer inception_4b/output_inception_4b/output_0_split
I0403 15:37:07.700327  3292 net.cpp:91] Creating Layer inception_4b/output_inception_4b/output_0_split
I0403 15:37:07.700345  3292 net.cpp:425] inception_4b/output_inception_4b/output_0_split <- inception_4b/output
I0403 15:37:07.700361  3292 net.cpp:399] inception_4b/output_inception_4b/output_0_split -> inception_4b/output_inception_4b/output_0_split_0
I0403 15:37:07.700382  3292 net.cpp:399] inception_4b/output_inception_4b/output_0_split -> inception_4b/output_inception_4b/output_0_split_1
I0403 15:37:07.700403  3292 net.cpp:399] inception_4b/output_inception_4b/output_0_split -> inception_4b/output_inception_4b/output_0_split_2
I0403 15:37:07.700426  3292 net.cpp:399] inception_4b/output_inception_4b/output_0_split -> inception_4b/output_inception_4b/output_0_split_3
I0403 15:37:07.700515  3292 net.cpp:141] Setting up inception_4b/output_inception_4b/output_0_split
I0403 15:37:07.700538  3292 net.cpp:148] Top shape: 24 512 14 14 (2408448)
I0403 15:37:07.700556  3292 net.cpp:148] Top shape: 24 512 14 14 (2408448)
I0403 15:37:07.700572  3292 net.cpp:148] Top shape: 24 512 14 14 (2408448)
I0403 15:37:07.700587  3292 net.cpp:148] Top shape: 24 512 14 14 (2408448)
I0403 15:37:07.700600  3292 net.cpp:156] Memory required for data: 1028392224
I0403 15:37:07.700616  3292 layer_factory.hpp:77] Creating layer inception_4c/1x1
I0403 15:37:07.700639  3292 net.cpp:91] Creating Layer inception_4c/1x1
I0403 15:37:07.700656  3292 net.cpp:425] inception_4c/1x1 <- inception_4b/output_inception_4b/output_0_split_0
I0403 15:37:07.700678  3292 net.cpp:399] inception_4c/1x1 -> inception_4c/1x1
I0403 15:37:07.702154  3292 net.cpp:141] Setting up inception_4c/1x1
I0403 15:37:07.702183  3292 net.cpp:148] Top shape: 24 128 14 14 (602112)
I0403 15:37:07.702199  3292 net.cpp:156] Memory required for data: 1030800672
I0403 15:37:07.702219  3292 layer_factory.hpp:77] Creating layer inception_4c/relu_1x1
I0403 15:37:07.702236  3292 net.cpp:91] Creating Layer inception_4c/relu_1x1
I0403 15:37:07.702253  3292 net.cpp:425] inception_4c/relu_1x1 <- inception_4c/1x1
I0403 15:37:07.702286  3292 net.cpp:386] inception_4c/relu_1x1 -> inception_4c/1x1 (in-place)
I0403 15:37:07.702476  3292 net.cpp:141] Setting up inception_4c/relu_1x1
I0403 15:37:07.702502  3292 net.cpp:148] Top shape: 24 128 14 14 (602112)
I0403 15:37:07.702517  3292 net.cpp:156] Memory required for data: 1033209120
I0403 15:37:07.702532  3292 layer_factory.hpp:77] Creating layer inception_4c/3x3_reduce
I0403 15:37:07.702554  3292 net.cpp:91] Creating Layer inception_4c/3x3_reduce
I0403 15:37:07.702572  3292 net.cpp:425] inception_4c/3x3_reduce <- inception_4b/output_inception_4b/output_0_split_1
I0403 15:37:07.702594  3292 net.cpp:399] inception_4c/3x3_reduce -> inception_4c/3x3_reduce
I0403 15:37:07.704617  3292 net.cpp:141] Setting up inception_4c/3x3_reduce
I0403 15:37:07.704646  3292 net.cpp:148] Top shape: 24 128 14 14 (602112)
I0403 15:37:07.704663  3292 net.cpp:156] Memory required for data: 1035617568
I0403 15:37:07.704680  3292 layer_factory.hpp:77] Creating layer inception_4c/relu_3x3_reduce
I0403 15:37:07.704700  3292 net.cpp:91] Creating Layer inception_4c/relu_3x3_reduce
I0403 15:37:07.704717  3292 net.cpp:425] inception_4c/relu_3x3_reduce <- inception_4c/3x3_reduce
I0403 15:37:07.704735  3292 net.cpp:386] inception_4c/relu_3x3_reduce -> inception_4c/3x3_reduce (in-place)
I0403 15:37:07.705019  3292 net.cpp:141] Setting up inception_4c/relu_3x3_reduce
I0403 15:37:07.705045  3292 net.cpp:148] Top shape: 24 128 14 14 (602112)
I0403 15:37:07.705060  3292 net.cpp:156] Memory required for data: 1038026016
I0403 15:37:07.705075  3292 layer_factory.hpp:77] Creating layer inception_4c/3x3
I0403 15:37:07.705097  3292 net.cpp:91] Creating Layer inception_4c/3x3
I0403 15:37:07.705114  3292 net.cpp:425] inception_4c/3x3 <- inception_4c/3x3_reduce
I0403 15:37:07.705137  3292 net.cpp:399] inception_4c/3x3 -> inception_4c/3x3
I0403 15:37:07.708762  3292 net.cpp:141] Setting up inception_4c/3x3
I0403 15:37:07.708804  3292 net.cpp:148] Top shape: 24 256 14 14 (1204224)
I0403 15:37:07.708822  3292 net.cpp:156] Memory required for data: 1042842912
I0403 15:37:07.708853  3292 layer_factory.hpp:77] Creating layer inception_4c/relu_3x3
I0403 15:37:07.708876  3292 net.cpp:91] Creating Layer inception_4c/relu_3x3
I0403 15:37:07.708894  3292 net.cpp:425] inception_4c/relu_3x3 <- inception_4c/3x3
I0403 15:37:07.708910  3292 net.cpp:386] inception_4c/relu_3x3 -> inception_4c/3x3 (in-place)
I0403 15:37:07.709089  3292 net.cpp:141] Setting up inception_4c/relu_3x3
I0403 15:37:07.709115  3292 net.cpp:148] Top shape: 24 256 14 14 (1204224)
I0403 15:37:07.709131  3292 net.cpp:156] Memory required for data: 1047659808
I0403 15:37:07.709146  3292 layer_factory.hpp:77] Creating layer inception_4c/5x5_reduce
I0403 15:37:07.709166  3292 net.cpp:91] Creating Layer inception_4c/5x5_reduce
I0403 15:37:07.709182  3292 net.cpp:425] inception_4c/5x5_reduce <- inception_4b/output_inception_4b/output_0_split_2
I0403 15:37:07.709204  3292 net.cpp:399] inception_4c/5x5_reduce -> inception_4c/5x5_reduce
I0403 15:37:07.710306  3292 net.cpp:141] Setting up inception_4c/5x5_reduce
I0403 15:37:07.710335  3292 net.cpp:148] Top shape: 24 24 14 14 (112896)
I0403 15:37:07.710353  3292 net.cpp:156] Memory required for data: 1048111392
I0403 15:37:07.710372  3292 layer_factory.hpp:77] Creating layer inception_4c/relu_5x5_reduce
I0403 15:37:07.710391  3292 net.cpp:91] Creating Layer inception_4c/relu_5x5_reduce
I0403 15:37:07.710407  3292 net.cpp:425] inception_4c/relu_5x5_reduce <- inception_4c/5x5_reduce
I0403 15:37:07.710424  3292 net.cpp:386] inception_4c/relu_5x5_reduce -> inception_4c/5x5_reduce (in-place)
I0403 15:37:07.710608  3292 net.cpp:141] Setting up inception_4c/relu_5x5_reduce
I0403 15:37:07.710634  3292 net.cpp:148] Top shape: 24 24 14 14 (112896)
I0403 15:37:07.710650  3292 net.cpp:156] Memory required for data: 1048562976
I0403 15:37:07.710664  3292 layer_factory.hpp:77] Creating layer inception_4c/5x5
I0403 15:37:07.710686  3292 net.cpp:91] Creating Layer inception_4c/5x5
I0403 15:37:07.710703  3292 net.cpp:425] inception_4c/5x5 <- inception_4c/5x5_reduce
I0403 15:37:07.710722  3292 net.cpp:399] inception_4c/5x5 -> inception_4c/5x5
I0403 15:37:07.711978  3292 net.cpp:141] Setting up inception_4c/5x5
I0403 15:37:07.712007  3292 net.cpp:148] Top shape: 24 64 14 14 (301056)
I0403 15:37:07.712021  3292 net.cpp:156] Memory required for data: 1049767200
I0403 15:37:07.712039  3292 layer_factory.hpp:77] Creating layer inception_4c/relu_5x5
I0403 15:37:07.712057  3292 net.cpp:91] Creating Layer inception_4c/relu_5x5
I0403 15:37:07.712074  3292 net.cpp:425] inception_4c/relu_5x5 <- inception_4c/5x5
I0403 15:37:07.712093  3292 net.cpp:386] inception_4c/relu_5x5 -> inception_4c/5x5 (in-place)
I0403 15:37:07.712399  3292 net.cpp:141] Setting up inception_4c/relu_5x5
I0403 15:37:07.712425  3292 net.cpp:148] Top shape: 24 64 14 14 (301056)
I0403 15:37:07.712440  3292 net.cpp:156] Memory required for data: 1050971424
I0403 15:37:07.712455  3292 layer_factory.hpp:77] Creating layer inception_4c/pool
I0403 15:37:07.712473  3292 net.cpp:91] Creating Layer inception_4c/pool
I0403 15:37:07.712491  3292 net.cpp:425] inception_4c/pool <- inception_4b/output_inception_4b/output_0_split_3
I0403 15:37:07.712512  3292 net.cpp:399] inception_4c/pool -> inception_4c/pool
I0403 15:37:07.712579  3292 net.cpp:141] Setting up inception_4c/pool
I0403 15:37:07.712602  3292 net.cpp:148] Top shape: 24 512 14 14 (2408448)
I0403 15:37:07.712616  3292 net.cpp:156] Memory required for data: 1060605216
I0403 15:37:07.712631  3292 layer_factory.hpp:77] Creating layer inception_4c/pool_proj
I0403 15:37:07.712654  3292 net.cpp:91] Creating Layer inception_4c/pool_proj
I0403 15:37:07.712673  3292 net.cpp:425] inception_4c/pool_proj <- inception_4c/pool
I0403 15:37:07.712692  3292 net.cpp:399] inception_4c/pool_proj -> inception_4c/pool_proj
I0403 15:37:07.713927  3292 net.cpp:141] Setting up inception_4c/pool_proj
I0403 15:37:07.713955  3292 net.cpp:148] Top shape: 24 64 14 14 (301056)
I0403 15:37:07.713984  3292 net.cpp:156] Memory required for data: 1061809440
I0403 15:37:07.714004  3292 layer_factory.hpp:77] Creating layer inception_4c/relu_pool_proj
I0403 15:37:07.714025  3292 net.cpp:91] Creating Layer inception_4c/relu_pool_proj
I0403 15:37:07.714041  3292 net.cpp:425] inception_4c/relu_pool_proj <- inception_4c/pool_proj
I0403 15:37:07.714059  3292 net.cpp:386] inception_4c/relu_pool_proj -> inception_4c/pool_proj (in-place)
I0403 15:37:07.714241  3292 net.cpp:141] Setting up inception_4c/relu_pool_proj
I0403 15:37:07.714267  3292 net.cpp:148] Top shape: 24 64 14 14 (301056)
I0403 15:37:07.714289  3292 net.cpp:156] Memory required for data: 1063013664
I0403 15:37:07.714305  3292 layer_factory.hpp:77] Creating layer inception_4c/output
I0403 15:37:07.714323  3292 net.cpp:91] Creating Layer inception_4c/output
I0403 15:37:07.714337  3292 net.cpp:425] inception_4c/output <- inception_4c/1x1
I0403 15:37:07.714354  3292 net.cpp:425] inception_4c/output <- inception_4c/3x3
I0403 15:37:07.714370  3292 net.cpp:425] inception_4c/output <- inception_4c/5x5
I0403 15:37:07.714386  3292 net.cpp:425] inception_4c/output <- inception_4c/pool_proj
I0403 15:37:07.714403  3292 net.cpp:399] inception_4c/output -> inception_4c/output
I0403 15:37:07.714450  3292 net.cpp:141] Setting up inception_4c/output
I0403 15:37:07.714474  3292 net.cpp:148] Top shape: 24 512 14 14 (2408448)
I0403 15:37:07.714488  3292 net.cpp:156] Memory required for data: 1072647456
I0403 15:37:07.714504  3292 layer_factory.hpp:77] Creating layer inception_4c/output_inception_4c/output_0_split
I0403 15:37:07.714522  3292 net.cpp:91] Creating Layer inception_4c/output_inception_4c/output_0_split
I0403 15:37:07.714540  3292 net.cpp:425] inception_4c/output_inception_4c/output_0_split <- inception_4c/output
I0403 15:37:07.714556  3292 net.cpp:399] inception_4c/output_inception_4c/output_0_split -> inception_4c/output_inception_4c/output_0_split_0
I0403 15:37:07.714576  3292 net.cpp:399] inception_4c/output_inception_4c/output_0_split -> inception_4c/output_inception_4c/output_0_split_1
I0403 15:37:07.714596  3292 net.cpp:399] inception_4c/output_inception_4c/output_0_split -> inception_4c/output_inception_4c/output_0_split_2
I0403 15:37:07.714619  3292 net.cpp:399] inception_4c/output_inception_4c/output_0_split -> inception_4c/output_inception_4c/output_0_split_3
I0403 15:37:07.714709  3292 net.cpp:141] Setting up inception_4c/output_inception_4c/output_0_split
I0403 15:37:07.714733  3292 net.cpp:148] Top shape: 24 512 14 14 (2408448)
I0403 15:37:07.714750  3292 net.cpp:148] Top shape: 24 512 14 14 (2408448)
I0403 15:37:07.714764  3292 net.cpp:148] Top shape: 24 512 14 14 (2408448)
I0403 15:37:07.714781  3292 net.cpp:148] Top shape: 24 512 14 14 (2408448)
I0403 15:37:07.714793  3292 net.cpp:156] Memory required for data: 1111182624
I0403 15:37:07.714807  3292 layer_factory.hpp:77] Creating layer inception_4d/1x1
I0403 15:37:07.714829  3292 net.cpp:91] Creating Layer inception_4d/1x1
I0403 15:37:07.714848  3292 net.cpp:425] inception_4d/1x1 <- inception_4c/output_inception_4c/output_0_split_0
I0403 15:37:07.714869  3292 net.cpp:399] inception_4d/1x1 -> inception_4d/1x1
I0403 15:37:07.716253  3292 net.cpp:141] Setting up inception_4d/1x1
I0403 15:37:07.716285  3292 net.cpp:148] Top shape: 24 112 14 14 (526848)
I0403 15:37:07.716302  3292 net.cpp:156] Memory required for data: 1113290016
I0403 15:37:07.716321  3292 layer_factory.hpp:77] Creating layer inception_4d/relu_1x1
I0403 15:37:07.716341  3292 net.cpp:91] Creating Layer inception_4d/relu_1x1
I0403 15:37:07.716366  3292 net.cpp:425] inception_4d/relu_1x1 <- inception_4d/1x1
I0403 15:37:07.716384  3292 net.cpp:386] inception_4d/relu_1x1 -> inception_4d/1x1 (in-place)
I0403 15:37:07.716568  3292 net.cpp:141] Setting up inception_4d/relu_1x1
I0403 15:37:07.716593  3292 net.cpp:148] Top shape: 24 112 14 14 (526848)
I0403 15:37:07.716608  3292 net.cpp:156] Memory required for data: 1115397408
I0403 15:37:07.716622  3292 layer_factory.hpp:77] Creating layer inception_4d/3x3_reduce
I0403 15:37:07.716658  3292 net.cpp:91] Creating Layer inception_4d/3x3_reduce
I0403 15:37:07.716677  3292 net.cpp:425] inception_4d/3x3_reduce <- inception_4c/output_inception_4c/output_0_split_1
I0403 15:37:07.716698  3292 net.cpp:399] inception_4d/3x3_reduce -> inception_4d/3x3_reduce
I0403 15:37:07.718261  3292 net.cpp:141] Setting up inception_4d/3x3_reduce
I0403 15:37:07.718298  3292 net.cpp:148] Top shape: 24 144 14 14 (677376)
I0403 15:37:07.718315  3292 net.cpp:156] Memory required for data: 1118106912
I0403 15:37:07.718335  3292 layer_factory.hpp:77] Creating layer inception_4d/relu_3x3_reduce
I0403 15:37:07.718353  3292 net.cpp:91] Creating Layer inception_4d/relu_3x3_reduce
I0403 15:37:07.718371  3292 net.cpp:425] inception_4d/relu_3x3_reduce <- inception_4d/3x3_reduce
I0403 15:37:07.718391  3292 net.cpp:386] inception_4d/relu_3x3_reduce -> inception_4d/3x3_reduce (in-place)
I0403 15:37:07.718688  3292 net.cpp:141] Setting up inception_4d/relu_3x3_reduce
I0403 15:37:07.718716  3292 net.cpp:148] Top shape: 24 144 14 14 (677376)
I0403 15:37:07.718732  3292 net.cpp:156] Memory required for data: 1120816416
I0403 15:37:07.718749  3292 layer_factory.hpp:77] Creating layer inception_4d/3x3
I0403 15:37:07.718771  3292 net.cpp:91] Creating Layer inception_4d/3x3
I0403 15:37:07.718789  3292 net.cpp:425] inception_4d/3x3 <- inception_4d/3x3_reduce
I0403 15:37:07.718811  3292 net.cpp:399] inception_4d/3x3 -> inception_4d/3x3
I0403 15:37:07.723105  3292 net.cpp:141] Setting up inception_4d/3x3
I0403 15:37:07.723135  3292 net.cpp:148] Top shape: 24 288 14 14 (1354752)
I0403 15:37:07.723151  3292 net.cpp:156] Memory required for data: 1126235424
I0403 15:37:07.723170  3292 layer_factory.hpp:77] Creating layer inception_4d/relu_3x3
I0403 15:37:07.723191  3292 net.cpp:91] Creating Layer inception_4d/relu_3x3
I0403 15:37:07.723208  3292 net.cpp:425] inception_4d/relu_3x3 <- inception_4d/3x3
I0403 15:37:07.723227  3292 net.cpp:386] inception_4d/relu_3x3 -> inception_4d/3x3 (in-place)
I0403 15:37:07.723418  3292 net.cpp:141] Setting up inception_4d/relu_3x3
I0403 15:37:07.723443  3292 net.cpp:148] Top shape: 24 288 14 14 (1354752)
I0403 15:37:07.723459  3292 net.cpp:156] Memory required for data: 1131654432
I0403 15:37:07.723472  3292 layer_factory.hpp:77] Creating layer inception_4d/5x5_reduce
I0403 15:37:07.723495  3292 net.cpp:91] Creating Layer inception_4d/5x5_reduce
I0403 15:37:07.723513  3292 net.cpp:425] inception_4d/5x5_reduce <- inception_4c/output_inception_4c/output_0_split_2
I0403 15:37:07.723532  3292 net.cpp:399] inception_4d/5x5_reduce -> inception_4d/5x5_reduce
I0403 15:37:07.724695  3292 net.cpp:141] Setting up inception_4d/5x5_reduce
I0403 15:37:07.724722  3292 net.cpp:148] Top shape: 24 32 14 14 (150528)
I0403 15:37:07.724750  3292 net.cpp:156] Memory required for data: 1132256544
I0403 15:37:07.724769  3292 layer_factory.hpp:77] Creating layer inception_4d/relu_5x5_reduce
I0403 15:37:07.724791  3292 net.cpp:91] Creating Layer inception_4d/relu_5x5_reduce
I0403 15:37:07.724809  3292 net.cpp:425] inception_4d/relu_5x5_reduce <- inception_4d/5x5_reduce
I0403 15:37:07.724828  3292 net.cpp:386] inception_4d/relu_5x5_reduce -> inception_4d/5x5_reduce (in-place)
I0403 15:37:07.725036  3292 net.cpp:141] Setting up inception_4d/relu_5x5_reduce
I0403 15:37:07.725066  3292 net.cpp:148] Top shape: 24 32 14 14 (150528)
I0403 15:37:07.725082  3292 net.cpp:156] Memory required for data: 1132858656
I0403 15:37:07.725098  3292 layer_factory.hpp:77] Creating layer inception_4d/5x5
I0403 15:37:07.725119  3292 net.cpp:91] Creating Layer inception_4d/5x5
I0403 15:37:07.725137  3292 net.cpp:425] inception_4d/5x5 <- inception_4d/5x5_reduce
I0403 15:37:07.725160  3292 net.cpp:399] inception_4d/5x5 -> inception_4d/5x5
I0403 15:37:07.726727  3292 net.cpp:141] Setting up inception_4d/5x5
I0403 15:37:07.726758  3292 net.cpp:148] Top shape: 24 64 14 14 (301056)
I0403 15:37:07.726774  3292 net.cpp:156] Memory required for data: 1134062880
I0403 15:37:07.726794  3292 layer_factory.hpp:77] Creating layer inception_4d/relu_5x5
I0403 15:37:07.726826  3292 net.cpp:91] Creating Layer inception_4d/relu_5x5
I0403 15:37:07.726843  3292 net.cpp:425] inception_4d/relu_5x5 <- inception_4d/5x5
I0403 15:37:07.726861  3292 net.cpp:386] inception_4d/relu_5x5 -> inception_4d/5x5 (in-place)
I0403 15:37:07.727170  3292 net.cpp:141] Setting up inception_4d/relu_5x5
I0403 15:37:07.727200  3292 net.cpp:148] Top shape: 24 64 14 14 (301056)
I0403 15:37:07.727216  3292 net.cpp:156] Memory required for data: 1135267104
I0403 15:37:07.727231  3292 layer_factory.hpp:77] Creating layer inception_4d/pool
I0403 15:37:07.727248  3292 net.cpp:91] Creating Layer inception_4d/pool
I0403 15:37:07.727264  3292 net.cpp:425] inception_4d/pool <- inception_4c/output_inception_4c/output_0_split_3
I0403 15:37:07.727288  3292 net.cpp:399] inception_4d/pool -> inception_4d/pool
I0403 15:37:07.727357  3292 net.cpp:141] Setting up inception_4d/pool
I0403 15:37:07.727381  3292 net.cpp:148] Top shape: 24 512 14 14 (2408448)
I0403 15:37:07.727396  3292 net.cpp:156] Memory required for data: 1144900896
I0403 15:37:07.727411  3292 layer_factory.hpp:77] Creating layer inception_4d/pool_proj
I0403 15:37:07.727432  3292 net.cpp:91] Creating Layer inception_4d/pool_proj
I0403 15:37:07.727450  3292 net.cpp:425] inception_4d/pool_proj <- inception_4d/pool
I0403 15:37:07.727471  3292 net.cpp:399] inception_4d/pool_proj -> inception_4d/pool_proj
I0403 15:37:07.729238  3292 net.cpp:141] Setting up inception_4d/pool_proj
I0403 15:37:07.729269  3292 net.cpp:148] Top shape: 24 64 14 14 (301056)
I0403 15:37:07.729290  3292 net.cpp:156] Memory required for data: 1146105120
I0403 15:37:07.729310  3292 layer_factory.hpp:77] Creating layer inception_4d/relu_pool_proj
I0403 15:37:07.729331  3292 net.cpp:91] Creating Layer inception_4d/relu_pool_proj
I0403 15:37:07.729347  3292 net.cpp:425] inception_4d/relu_pool_proj <- inception_4d/pool_proj
I0403 15:37:07.729365  3292 net.cpp:386] inception_4d/relu_pool_proj -> inception_4d/pool_proj (in-place)
I0403 15:37:07.729553  3292 net.cpp:141] Setting up inception_4d/relu_pool_proj
I0403 15:37:07.729578  3292 net.cpp:148] Top shape: 24 64 14 14 (301056)
I0403 15:37:07.729593  3292 net.cpp:156] Memory required for data: 1147309344
I0403 15:37:07.729607  3292 layer_factory.hpp:77] Creating layer inception_4d/output
I0403 15:37:07.729626  3292 net.cpp:91] Creating Layer inception_4d/output
I0403 15:37:07.729643  3292 net.cpp:425] inception_4d/output <- inception_4d/1x1
I0403 15:37:07.729660  3292 net.cpp:425] inception_4d/output <- inception_4d/3x3
I0403 15:37:07.729676  3292 net.cpp:425] inception_4d/output <- inception_4d/5x5
I0403 15:37:07.729692  3292 net.cpp:425] inception_4d/output <- inception_4d/pool_proj
I0403 15:37:07.729708  3292 net.cpp:399] inception_4d/output -> inception_4d/output
I0403 15:37:07.729758  3292 net.cpp:141] Setting up inception_4d/output
I0403 15:37:07.729781  3292 net.cpp:148] Top shape: 24 528 14 14 (2483712)
I0403 15:37:07.729796  3292 net.cpp:156] Memory required for data: 1157244192
I0403 15:37:07.729811  3292 layer_factory.hpp:77] Creating layer inception_4d/output_inception_4d/output_0_split
I0403 15:37:07.729828  3292 net.cpp:91] Creating Layer inception_4d/output_inception_4d/output_0_split
I0403 15:37:07.729845  3292 net.cpp:425] inception_4d/output_inception_4d/output_0_split <- inception_4d/output
I0403 15:37:07.729863  3292 net.cpp:399] inception_4d/output_inception_4d/output_0_split -> inception_4d/output_inception_4d/output_0_split_0
I0403 15:37:07.729885  3292 net.cpp:399] inception_4d/output_inception_4d/output_0_split -> inception_4d/output_inception_4d/output_0_split_1
I0403 15:37:07.729907  3292 net.cpp:399] inception_4d/output_inception_4d/output_0_split -> inception_4d/output_inception_4d/output_0_split_2
I0403 15:37:07.729930  3292 net.cpp:399] inception_4d/output_inception_4d/output_0_split -> inception_4d/output_inception_4d/output_0_split_3
I0403 15:37:07.729953  3292 net.cpp:399] inception_4d/output_inception_4d/output_0_split -> inception_4d/output_inception_4d/output_0_split_4
I0403 15:37:07.730056  3292 net.cpp:141] Setting up inception_4d/output_inception_4d/output_0_split
I0403 15:37:07.730093  3292 net.cpp:148] Top shape: 24 528 14 14 (2483712)
I0403 15:37:07.730108  3292 net.cpp:148] Top shape: 24 528 14 14 (2483712)
I0403 15:37:07.730124  3292 net.cpp:148] Top shape: 24 528 14 14 (2483712)
I0403 15:37:07.730140  3292 net.cpp:148] Top shape: 24 528 14 14 (2483712)
I0403 15:37:07.730155  3292 net.cpp:148] Top shape: 24 528 14 14 (2483712)
I0403 15:37:07.730170  3292 net.cpp:156] Memory required for data: 1206918432
I0403 15:37:07.730183  3292 layer_factory.hpp:77] Creating layer loss2/ave_pool
I0403 15:37:07.730201  3292 net.cpp:91] Creating Layer loss2/ave_pool
I0403 15:37:07.730217  3292 net.cpp:425] loss2/ave_pool <- inception_4d/output_inception_4d/output_0_split_0
I0403 15:37:07.730238  3292 net.cpp:399] loss2/ave_pool -> loss2/ave_pool
I0403 15:37:07.730561  3292 net.cpp:141] Setting up loss2/ave_pool
I0403 15:37:07.730588  3292 net.cpp:148] Top shape: 24 528 4 4 (202752)
I0403 15:37:07.730603  3292 net.cpp:156] Memory required for data: 1207729440
I0403 15:37:07.730618  3292 layer_factory.hpp:77] Creating layer loss2/conv
I0403 15:37:07.730640  3292 net.cpp:91] Creating Layer loss2/conv
I0403 15:37:07.730659  3292 net.cpp:425] loss2/conv <- loss2/ave_pool
I0403 15:37:07.730679  3292 net.cpp:399] loss2/conv -> loss2/conv
I0403 15:37:07.732585  3292 net.cpp:141] Setting up loss2/conv
I0403 15:37:07.732617  3292 net.cpp:148] Top shape: 24 128 4 4 (49152)
I0403 15:37:07.732633  3292 net.cpp:156] Memory required for data: 1207926048
I0403 15:37:07.732651  3292 layer_factory.hpp:77] Creating layer loss2/relu_conv
I0403 15:37:07.732669  3292 net.cpp:91] Creating Layer loss2/relu_conv
I0403 15:37:07.732686  3292 net.cpp:425] loss2/relu_conv <- loss2/conv
I0403 15:37:07.732704  3292 net.cpp:386] loss2/relu_conv -> loss2/conv (in-place)
I0403 15:37:07.732991  3292 net.cpp:141] Setting up loss2/relu_conv
I0403 15:37:07.733022  3292 net.cpp:148] Top shape: 24 128 4 4 (49152)
I0403 15:37:07.733038  3292 net.cpp:156] Memory required for data: 1208122656
I0403 15:37:07.733053  3292 layer_factory.hpp:77] Creating layer loss2/fc
I0403 15:37:07.733072  3292 net.cpp:91] Creating Layer loss2/fc
I0403 15:37:07.733088  3292 net.cpp:425] loss2/fc <- loss2/conv
I0403 15:37:07.733110  3292 net.cpp:399] loss2/fc -> loss2/fc
I0403 15:37:07.750509  3292 net.cpp:141] Setting up loss2/fc
I0403 15:37:07.750545  3292 net.cpp:148] Top shape: 24 1024 (24576)
I0403 15:37:07.750561  3292 net.cpp:156] Memory required for data: 1208220960
I0403 15:37:07.750579  3292 layer_factory.hpp:77] Creating layer loss2/relu_fc
I0403 15:37:07.750599  3292 net.cpp:91] Creating Layer loss2/relu_fc
I0403 15:37:07.750617  3292 net.cpp:425] loss2/relu_fc <- loss2/fc
I0403 15:37:07.750633  3292 net.cpp:386] loss2/relu_fc -> loss2/fc (in-place)
I0403 15:37:07.750928  3292 net.cpp:141] Setting up loss2/relu_fc
I0403 15:37:07.750953  3292 net.cpp:148] Top shape: 24 1024 (24576)
I0403 15:37:07.750968  3292 net.cpp:156] Memory required for data: 1208319264
I0403 15:37:07.750983  3292 layer_factory.hpp:77] Creating layer loss2/drop_fc
I0403 15:37:07.751003  3292 net.cpp:91] Creating Layer loss2/drop_fc
I0403 15:37:07.751019  3292 net.cpp:425] loss2/drop_fc <- loss2/fc
I0403 15:37:07.751035  3292 net.cpp:386] loss2/drop_fc -> loss2/fc (in-place)
I0403 15:37:07.751085  3292 net.cpp:141] Setting up loss2/drop_fc
I0403 15:37:07.751107  3292 net.cpp:148] Top shape: 24 1024 (24576)
I0403 15:37:07.751121  3292 net.cpp:156] Memory required for data: 1208417568
I0403 15:37:07.751135  3292 layer_factory.hpp:77] Creating layer loss2/classifier_plantvillage
I0403 15:37:07.751152  3292 net.cpp:91] Creating Layer loss2/classifier_plantvillage
I0403 15:37:07.751168  3292 net.cpp:425] loss2/classifier_plantvillage <- loss2/fc
I0403 15:37:07.751188  3292 net.cpp:399] loss2/classifier_plantvillage -> loss2/classifier_plantvillage
I0403 15:37:07.751590  3292 net.cpp:141] Setting up loss2/classifier_plantvillage
I0403 15:37:07.751613  3292 net.cpp:148] Top shape: 24 38 (912)
I0403 15:37:07.751643  3292 net.cpp:156] Memory required for data: 1208421216
I0403 15:37:07.751662  3292 layer_factory.hpp:77] Creating layer loss2/classifier_plantvillage_loss2/classifier_plantvillage_0_split
I0403 15:37:07.751679  3292 net.cpp:91] Creating Layer loss2/classifier_plantvillage_loss2/classifier_plantvillage_0_split
I0403 15:37:07.751694  3292 net.cpp:425] loss2/classifier_plantvillage_loss2/classifier_plantvillage_0_split <- loss2/classifier_plantvillage
I0403 15:37:07.751714  3292 net.cpp:399] loss2/classifier_plantvillage_loss2/classifier_plantvillage_0_split -> loss2/classifier_plantvillage_loss2/classifier_plantvillage_0_split_0
I0403 15:37:07.751734  3292 net.cpp:399] loss2/classifier_plantvillage_loss2/classifier_plantvillage_0_split -> loss2/classifier_plantvillage_loss2/classifier_plantvillage_0_split_1
I0403 15:37:07.751755  3292 net.cpp:399] loss2/classifier_plantvillage_loss2/classifier_plantvillage_0_split -> loss2/classifier_plantvillage_loss2/classifier_plantvillage_0_split_2
I0403 15:37:07.751829  3292 net.cpp:141] Setting up loss2/classifier_plantvillage_loss2/classifier_plantvillage_0_split
I0403 15:37:07.751852  3292 net.cpp:148] Top shape: 24 38 (912)
I0403 15:37:07.751868  3292 net.cpp:148] Top shape: 24 38 (912)
I0403 15:37:07.751883  3292 net.cpp:148] Top shape: 24 38 (912)
I0403 15:37:07.751895  3292 net.cpp:156] Memory required for data: 1208432160
I0403 15:37:07.751909  3292 layer_factory.hpp:77] Creating layer inception_4e/1x1
I0403 15:37:07.751931  3292 net.cpp:91] Creating Layer inception_4e/1x1
I0403 15:37:07.751948  3292 net.cpp:425] inception_4e/1x1 <- inception_4d/output_inception_4d/output_0_split_1
I0403 15:37:07.751966  3292 net.cpp:399] inception_4e/1x1 -> inception_4e/1x1
I0403 15:37:07.753779  3292 net.cpp:141] Setting up inception_4e/1x1
I0403 15:37:07.753809  3292 net.cpp:148] Top shape: 24 256 14 14 (1204224)
I0403 15:37:07.753825  3292 net.cpp:156] Memory required for data: 1213249056
I0403 15:37:07.753844  3292 layer_factory.hpp:77] Creating layer inception_4e/relu_1x1
I0403 15:37:07.753861  3292 net.cpp:91] Creating Layer inception_4e/relu_1x1
I0403 15:37:07.753877  3292 net.cpp:425] inception_4e/relu_1x1 <- inception_4e/1x1
I0403 15:37:07.753895  3292 net.cpp:386] inception_4e/relu_1x1 -> inception_4e/1x1 (in-place)
I0403 15:37:07.754189  3292 net.cpp:141] Setting up inception_4e/relu_1x1
I0403 15:37:07.754216  3292 net.cpp:148] Top shape: 24 256 14 14 (1204224)
I0403 15:37:07.754232  3292 net.cpp:156] Memory required for data: 1218065952
I0403 15:37:07.754247  3292 layer_factory.hpp:77] Creating layer inception_4e/3x3_reduce
I0403 15:37:07.754268  3292 net.cpp:91] Creating Layer inception_4e/3x3_reduce
I0403 15:37:07.754292  3292 net.cpp:425] inception_4e/3x3_reduce <- inception_4d/output_inception_4d/output_0_split_2
I0403 15:37:07.754314  3292 net.cpp:399] inception_4e/3x3_reduce -> inception_4e/3x3_reduce
I0403 15:37:07.756402  3292 net.cpp:141] Setting up inception_4e/3x3_reduce
I0403 15:37:07.756430  3292 net.cpp:148] Top shape: 24 160 14 14 (752640)
I0403 15:37:07.756445  3292 net.cpp:156] Memory required for data: 1221076512
I0403 15:37:07.756464  3292 layer_factory.hpp:77] Creating layer inception_4e/relu_3x3_reduce
I0403 15:37:07.756490  3292 net.cpp:91] Creating Layer inception_4e/relu_3x3_reduce
I0403 15:37:07.756507  3292 net.cpp:425] inception_4e/relu_3x3_reduce <- inception_4e/3x3_reduce
I0403 15:37:07.756536  3292 net.cpp:386] inception_4e/relu_3x3_reduce -> inception_4e/3x3_reduce (in-place)
I0403 15:37:07.756727  3292 net.cpp:141] Setting up inception_4e/relu_3x3_reduce
I0403 15:37:07.756752  3292 net.cpp:148] Top shape: 24 160 14 14 (752640)
I0403 15:37:07.756767  3292 net.cpp:156] Memory required for data: 1224087072
I0403 15:37:07.756781  3292 layer_factory.hpp:77] Creating layer inception_4e/3x3
I0403 15:37:07.756803  3292 net.cpp:91] Creating Layer inception_4e/3x3
I0403 15:37:07.756821  3292 net.cpp:425] inception_4e/3x3 <- inception_4e/3x3_reduce
I0403 15:37:07.756855  3292 net.cpp:399] inception_4e/3x3 -> inception_4e/3x3
I0403 15:37:07.761782  3292 net.cpp:141] Setting up inception_4e/3x3
I0403 15:37:07.761822  3292 net.cpp:148] Top shape: 24 320 14 14 (1505280)
I0403 15:37:07.761838  3292 net.cpp:156] Memory required for data: 1230108192
I0403 15:37:07.761857  3292 layer_factory.hpp:77] Creating layer inception_4e/relu_3x3
I0403 15:37:07.761873  3292 net.cpp:91] Creating Layer inception_4e/relu_3x3
I0403 15:37:07.761890  3292 net.cpp:425] inception_4e/relu_3x3 <- inception_4e/3x3
I0403 15:37:07.761909  3292 net.cpp:386] inception_4e/relu_3x3 -> inception_4e/3x3 (in-place)
I0403 15:37:07.762204  3292 net.cpp:141] Setting up inception_4e/relu_3x3
I0403 15:37:07.762229  3292 net.cpp:148] Top shape: 24 320 14 14 (1505280)
I0403 15:37:07.762244  3292 net.cpp:156] Memory required for data: 1236129312
I0403 15:37:07.762259  3292 layer_factory.hpp:77] Creating layer inception_4e/5x5_reduce
I0403 15:37:07.762293  3292 net.cpp:91] Creating Layer inception_4e/5x5_reduce
I0403 15:37:07.762312  3292 net.cpp:425] inception_4e/5x5_reduce <- inception_4d/output_inception_4d/output_0_split_3
I0403 15:37:07.762333  3292 net.cpp:399] inception_4e/5x5_reduce -> inception_4e/5x5_reduce
I0403 15:37:07.763380  3292 net.cpp:141] Setting up inception_4e/5x5_reduce
I0403 15:37:07.763409  3292 net.cpp:148] Top shape: 24 32 14 14 (150528)
I0403 15:37:07.763424  3292 net.cpp:156] Memory required for data: 1236731424
I0403 15:37:07.763442  3292 layer_factory.hpp:77] Creating layer inception_4e/relu_5x5_reduce
I0403 15:37:07.763460  3292 net.cpp:91] Creating Layer inception_4e/relu_5x5_reduce
I0403 15:37:07.763476  3292 net.cpp:425] inception_4e/relu_5x5_reduce <- inception_4e/5x5_reduce
I0403 15:37:07.763492  3292 net.cpp:386] inception_4e/relu_5x5_reduce -> inception_4e/5x5_reduce (in-place)
I0403 15:37:07.763784  3292 net.cpp:141] Setting up inception_4e/relu_5x5_reduce
I0403 15:37:07.763811  3292 net.cpp:148] Top shape: 24 32 14 14 (150528)
I0403 15:37:07.763828  3292 net.cpp:156] Memory required for data: 1237333536
I0403 15:37:07.763841  3292 layer_factory.hpp:77] Creating layer inception_4e/5x5
I0403 15:37:07.763880  3292 net.cpp:91] Creating Layer inception_4e/5x5
I0403 15:37:07.763898  3292 net.cpp:425] inception_4e/5x5 <- inception_4e/5x5_reduce
I0403 15:37:07.763918  3292 net.cpp:399] inception_4e/5x5 -> inception_4e/5x5
I0403 15:37:07.765734  3292 net.cpp:141] Setting up inception_4e/5x5
I0403 15:37:07.765761  3292 net.cpp:148] Top shape: 24 128 14 14 (602112)
I0403 15:37:07.765776  3292 net.cpp:156] Memory required for data: 1239741984
I0403 15:37:07.765795  3292 layer_factory.hpp:77] Creating layer inception_4e/relu_5x5
I0403 15:37:07.765815  3292 net.cpp:91] Creating Layer inception_4e/relu_5x5
I0403 15:37:07.765831  3292 net.cpp:425] inception_4e/relu_5x5 <- inception_4e/5x5
I0403 15:37:07.765848  3292 net.cpp:386] inception_4e/relu_5x5 -> inception_4e/5x5 (in-place)
I0403 15:37:07.766041  3292 net.cpp:141] Setting up inception_4e/relu_5x5
I0403 15:37:07.766067  3292 net.cpp:148] Top shape: 24 128 14 14 (602112)
I0403 15:37:07.766082  3292 net.cpp:156] Memory required for data: 1242150432
I0403 15:37:07.766095  3292 layer_factory.hpp:77] Creating layer inception_4e/pool
I0403 15:37:07.766113  3292 net.cpp:91] Creating Layer inception_4e/pool
I0403 15:37:07.766129  3292 net.cpp:425] inception_4e/pool <- inception_4d/output_inception_4d/output_0_split_4
I0403 15:37:07.766149  3292 net.cpp:399] inception_4e/pool -> inception_4e/pool
I0403 15:37:07.766216  3292 net.cpp:141] Setting up inception_4e/pool
I0403 15:37:07.766238  3292 net.cpp:148] Top shape: 24 528 14 14 (2483712)
I0403 15:37:07.766252  3292 net.cpp:156] Memory required for data: 1252085280
I0403 15:37:07.766266  3292 layer_factory.hpp:77] Creating layer inception_4e/pool_proj
I0403 15:37:07.766295  3292 net.cpp:91] Creating Layer inception_4e/pool_proj
I0403 15:37:07.766312  3292 net.cpp:425] inception_4e/pool_proj <- inception_4e/pool
I0403 15:37:07.766333  3292 net.cpp:399] inception_4e/pool_proj -> inception_4e/pool_proj
I0403 15:37:07.767807  3292 net.cpp:141] Setting up inception_4e/pool_proj
I0403 15:37:07.767845  3292 net.cpp:148] Top shape: 24 128 14 14 (602112)
I0403 15:37:07.767860  3292 net.cpp:156] Memory required for data: 1254493728
I0403 15:37:07.767879  3292 layer_factory.hpp:77] Creating layer inception_4e/relu_pool_proj
I0403 15:37:07.767899  3292 net.cpp:91] Creating Layer inception_4e/relu_pool_proj
I0403 15:37:07.767915  3292 net.cpp:425] inception_4e/relu_pool_proj <- inception_4e/pool_proj
I0403 15:37:07.767932  3292 net.cpp:386] inception_4e/relu_pool_proj -> inception_4e/pool_proj (in-place)
I0403 15:37:07.768235  3292 net.cpp:141] Setting up inception_4e/relu_pool_proj
I0403 15:37:07.768261  3292 net.cpp:148] Top shape: 24 128 14 14 (602112)
I0403 15:37:07.768283  3292 net.cpp:156] Memory required for data: 1256902176
I0403 15:37:07.768299  3292 layer_factory.hpp:77] Creating layer inception_4e/output
I0403 15:37:07.768332  3292 net.cpp:91] Creating Layer inception_4e/output
I0403 15:37:07.768348  3292 net.cpp:425] inception_4e/output <- inception_4e/1x1
I0403 15:37:07.768365  3292 net.cpp:425] inception_4e/output <- inception_4e/3x3
I0403 15:37:07.768380  3292 net.cpp:425] inception_4e/output <- inception_4e/5x5
I0403 15:37:07.768395  3292 net.cpp:425] inception_4e/output <- inception_4e/pool_proj
I0403 15:37:07.768412  3292 net.cpp:399] inception_4e/output -> inception_4e/output
I0403 15:37:07.768461  3292 net.cpp:141] Setting up inception_4e/output
I0403 15:37:07.768484  3292 net.cpp:148] Top shape: 24 832 14 14 (3913728)
I0403 15:37:07.768498  3292 net.cpp:156] Memory required for data: 1272557088
I0403 15:37:07.768513  3292 layer_factory.hpp:77] Creating layer pool4/3x3_s2
I0403 15:37:07.768530  3292 net.cpp:91] Creating Layer pool4/3x3_s2
I0403 15:37:07.768545  3292 net.cpp:425] pool4/3x3_s2 <- inception_4e/output
I0403 15:37:07.768565  3292 net.cpp:399] pool4/3x3_s2 -> pool4/3x3_s2
I0403 15:37:07.768630  3292 net.cpp:141] Setting up pool4/3x3_s2
I0403 15:37:07.768656  3292 net.cpp:148] Top shape: 24 832 7 7 (978432)
I0403 15:37:07.768671  3292 net.cpp:156] Memory required for data: 1276470816
I0403 15:37:07.768685  3292 layer_factory.hpp:77] Creating layer pool4/3x3_s2_pool4/3x3_s2_0_split
I0403 15:37:07.768702  3292 net.cpp:91] Creating Layer pool4/3x3_s2_pool4/3x3_s2_0_split
I0403 15:37:07.768718  3292 net.cpp:425] pool4/3x3_s2_pool4/3x3_s2_0_split <- pool4/3x3_s2
I0403 15:37:07.768734  3292 net.cpp:399] pool4/3x3_s2_pool4/3x3_s2_0_split -> pool4/3x3_s2_pool4/3x3_s2_0_split_0
I0403 15:37:07.768754  3292 net.cpp:399] pool4/3x3_s2_pool4/3x3_s2_0_split -> pool4/3x3_s2_pool4/3x3_s2_0_split_1
I0403 15:37:07.768775  3292 net.cpp:399] pool4/3x3_s2_pool4/3x3_s2_0_split -> pool4/3x3_s2_pool4/3x3_s2_0_split_2
I0403 15:37:07.768796  3292 net.cpp:399] pool4/3x3_s2_pool4/3x3_s2_0_split -> pool4/3x3_s2_pool4/3x3_s2_0_split_3
I0403 15:37:07.768887  3292 net.cpp:141] Setting up pool4/3x3_s2_pool4/3x3_s2_0_split
I0403 15:37:07.768909  3292 net.cpp:148] Top shape: 24 832 7 7 (978432)
I0403 15:37:07.768924  3292 net.cpp:148] Top shape: 24 832 7 7 (978432)
I0403 15:37:07.768939  3292 net.cpp:148] Top shape: 24 832 7 7 (978432)
I0403 15:37:07.768954  3292 net.cpp:148] Top shape: 24 832 7 7 (978432)
I0403 15:37:07.768968  3292 net.cpp:156] Memory required for data: 1292125728
I0403 15:37:07.768982  3292 layer_factory.hpp:77] Creating layer inception_5a/1x1
I0403 15:37:07.769003  3292 net.cpp:91] Creating Layer inception_5a/1x1
I0403 15:37:07.769021  3292 net.cpp:425] inception_5a/1x1 <- pool4/3x3_s2_pool4/3x3_s2_0_split_0
I0403 15:37:07.769042  3292 net.cpp:399] inception_5a/1x1 -> inception_5a/1x1
I0403 15:37:07.771872  3292 net.cpp:141] Setting up inception_5a/1x1
I0403 15:37:07.771901  3292 net.cpp:148] Top shape: 24 256 7 7 (301056)
I0403 15:37:07.771917  3292 net.cpp:156] Memory required for data: 1293329952
I0403 15:37:07.771935  3292 layer_factory.hpp:77] Creating layer inception_5a/relu_1x1
I0403 15:37:07.771955  3292 net.cpp:91] Creating Layer inception_5a/relu_1x1
I0403 15:37:07.771973  3292 net.cpp:425] inception_5a/relu_1x1 <- inception_5a/1x1
I0403 15:37:07.771991  3292 net.cpp:386] inception_5a/relu_1x1 -> inception_5a/1x1 (in-place)
I0403 15:37:07.772342  3292 net.cpp:141] Setting up inception_5a/relu_1x1
I0403 15:37:07.772383  3292 net.cpp:148] Top shape: 24 256 7 7 (301056)
I0403 15:37:07.772399  3292 net.cpp:156] Memory required for data: 1294534176
I0403 15:37:07.772415  3292 layer_factory.hpp:77] Creating layer inception_5a/3x3_reduce
I0403 15:37:07.772440  3292 net.cpp:91] Creating Layer inception_5a/3x3_reduce
I0403 15:37:07.772460  3292 net.cpp:425] inception_5a/3x3_reduce <- pool4/3x3_s2_pool4/3x3_s2_0_split_1
I0403 15:37:07.772481  3292 net.cpp:399] inception_5a/3x3_reduce -> inception_5a/3x3_reduce
I0403 15:37:07.775043  3292 net.cpp:141] Setting up inception_5a/3x3_reduce
I0403 15:37:07.775074  3292 net.cpp:148] Top shape: 24 160 7 7 (188160)
I0403 15:37:07.775089  3292 net.cpp:156] Memory required for data: 1295286816
I0403 15:37:07.775109  3292 layer_factory.hpp:77] Creating layer inception_5a/relu_3x3_reduce
I0403 15:37:07.775130  3292 net.cpp:91] Creating Layer inception_5a/relu_3x3_reduce
I0403 15:37:07.775148  3292 net.cpp:425] inception_5a/relu_3x3_reduce <- inception_5a/3x3_reduce
I0403 15:37:07.775166  3292 net.cpp:386] inception_5a/relu_3x3_reduce -> inception_5a/3x3_reduce (in-place)
I0403 15:37:07.775367  3292 net.cpp:141] Setting up inception_5a/relu_3x3_reduce
I0403 15:37:07.775393  3292 net.cpp:148] Top shape: 24 160 7 7 (188160)
I0403 15:37:07.775408  3292 net.cpp:156] Memory required for data: 1296039456
I0403 15:37:07.775423  3292 layer_factory.hpp:77] Creating layer inception_5a/3x3
I0403 15:37:07.775447  3292 net.cpp:91] Creating Layer inception_5a/3x3
I0403 15:37:07.775468  3292 net.cpp:425] inception_5a/3x3 <- inception_5a/3x3_reduce
I0403 15:37:07.775488  3292 net.cpp:399] inception_5a/3x3 -> inception_5a/3x3
I0403 15:37:07.780702  3292 net.cpp:141] Setting up inception_5a/3x3
I0403 15:37:07.780733  3292 net.cpp:148] Top shape: 24 320 7 7 (376320)
I0403 15:37:07.780750  3292 net.cpp:156] Memory required for data: 1297544736
I0403 15:37:07.780769  3292 layer_factory.hpp:77] Creating layer inception_5a/relu_3x3
I0403 15:37:07.780791  3292 net.cpp:91] Creating Layer inception_5a/relu_3x3
I0403 15:37:07.780808  3292 net.cpp:425] inception_5a/relu_3x3 <- inception_5a/3x3
I0403 15:37:07.780827  3292 net.cpp:386] inception_5a/relu_3x3 -> inception_5a/3x3 (in-place)
I0403 15:37:07.781134  3292 net.cpp:141] Setting up inception_5a/relu_3x3
I0403 15:37:07.781162  3292 net.cpp:148] Top shape: 24 320 7 7 (376320)
I0403 15:37:07.781177  3292 net.cpp:156] Memory required for data: 1299050016
I0403 15:37:07.781193  3292 layer_factory.hpp:77] Creating layer inception_5a/5x5_reduce
I0403 15:37:07.781215  3292 net.cpp:91] Creating Layer inception_5a/5x5_reduce
I0403 15:37:07.781234  3292 net.cpp:425] inception_5a/5x5_reduce <- pool4/3x3_s2_pool4/3x3_s2_0_split_2
I0403 15:37:07.781258  3292 net.cpp:399] inception_5a/5x5_reduce -> inception_5a/5x5_reduce
I0403 15:37:07.782498  3292 net.cpp:141] Setting up inception_5a/5x5_reduce
I0403 15:37:07.782531  3292 net.cpp:148] Top shape: 24 32 7 7 (37632)
I0403 15:37:07.782548  3292 net.cpp:156] Memory required for data: 1299200544
I0403 15:37:07.782567  3292 layer_factory.hpp:77] Creating layer inception_5a/relu_5x5_reduce
I0403 15:37:07.782585  3292 net.cpp:91] Creating Layer inception_5a/relu_5x5_reduce
I0403 15:37:07.782603  3292 net.cpp:425] inception_5a/relu_5x5_reduce <- inception_5a/5x5_reduce
I0403 15:37:07.782623  3292 net.cpp:386] inception_5a/relu_5x5_reduce -> inception_5a/5x5_reduce (in-place)
I0403 15:37:07.782934  3292 net.cpp:141] Setting up inception_5a/relu_5x5_reduce
I0403 15:37:07.782963  3292 net.cpp:148] Top shape: 24 32 7 7 (37632)
I0403 15:37:07.782979  3292 net.cpp:156] Memory required for data: 1299351072
I0403 15:37:07.782994  3292 layer_factory.hpp:77] Creating layer inception_5a/5x5
I0403 15:37:07.783018  3292 net.cpp:91] Creating Layer inception_5a/5x5
I0403 15:37:07.783036  3292 net.cpp:425] inception_5a/5x5 <- inception_5a/5x5_reduce
I0403 15:37:07.783056  3292 net.cpp:399] inception_5a/5x5 -> inception_5a/5x5
I0403 15:37:07.784868  3292 net.cpp:141] Setting up inception_5a/5x5
I0403 15:37:07.784910  3292 net.cpp:148] Top shape: 24 128 7 7 (150528)
I0403 15:37:07.784926  3292 net.cpp:156] Memory required for data: 1299953184
I0403 15:37:07.784946  3292 layer_factory.hpp:77] Creating layer inception_5a/relu_5x5
I0403 15:37:07.784967  3292 net.cpp:91] Creating Layer inception_5a/relu_5x5
I0403 15:37:07.784986  3292 net.cpp:425] inception_5a/relu_5x5 <- inception_5a/5x5
I0403 15:37:07.785003  3292 net.cpp:386] inception_5a/relu_5x5 -> inception_5a/5x5 (in-place)
I0403 15:37:07.785202  3292 net.cpp:141] Setting up inception_5a/relu_5x5
I0403 15:37:07.785229  3292 net.cpp:148] Top shape: 24 128 7 7 (150528)
I0403 15:37:07.785245  3292 net.cpp:156] Memory required for data: 1300555296
I0403 15:37:07.785260  3292 layer_factory.hpp:77] Creating layer inception_5a/pool
I0403 15:37:07.785285  3292 net.cpp:91] Creating Layer inception_5a/pool
I0403 15:37:07.785303  3292 net.cpp:425] inception_5a/pool <- pool4/3x3_s2_pool4/3x3_s2_0_split_3
I0403 15:37:07.785326  3292 net.cpp:399] inception_5a/pool -> inception_5a/pool
I0403 15:37:07.785401  3292 net.cpp:141] Setting up inception_5a/pool
I0403 15:37:07.785426  3292 net.cpp:148] Top shape: 24 832 7 7 (978432)
I0403 15:37:07.785440  3292 net.cpp:156] Memory required for data: 1304469024
I0403 15:37:07.785455  3292 layer_factory.hpp:77] Creating layer inception_5a/pool_proj
I0403 15:37:07.785478  3292 net.cpp:91] Creating Layer inception_5a/pool_proj
I0403 15:37:07.785497  3292 net.cpp:425] inception_5a/pool_proj <- inception_5a/pool
I0403 15:37:07.785519  3292 net.cpp:399] inception_5a/pool_proj -> inception_5a/pool_proj
I0403 15:37:07.787909  3292 net.cpp:141] Setting up inception_5a/pool_proj
I0403 15:37:07.787940  3292 net.cpp:148] Top shape: 24 128 7 7 (150528)
I0403 15:37:07.787956  3292 net.cpp:156] Memory required for data: 1305071136
I0403 15:37:07.787976  3292 layer_factory.hpp:77] Creating layer inception_5a/relu_pool_proj
I0403 15:37:07.787997  3292 net.cpp:91] Creating Layer inception_5a/relu_pool_proj
I0403 15:37:07.788014  3292 net.cpp:425] inception_5a/relu_pool_proj <- inception_5a/pool_proj
I0403 15:37:07.788033  3292 net.cpp:386] inception_5a/relu_pool_proj -> inception_5a/pool_proj (in-place)
I0403 15:37:07.788347  3292 net.cpp:141] Setting up inception_5a/relu_pool_proj
I0403 15:37:07.788373  3292 net.cpp:148] Top shape: 24 128 7 7 (150528)
I0403 15:37:07.788389  3292 net.cpp:156] Memory required for data: 1305673248
I0403 15:37:07.788405  3292 layer_factory.hpp:77] Creating layer inception_5a/output
I0403 15:37:07.788424  3292 net.cpp:91] Creating Layer inception_5a/output
I0403 15:37:07.788439  3292 net.cpp:425] inception_5a/output <- inception_5a/1x1
I0403 15:37:07.788457  3292 net.cpp:425] inception_5a/output <- inception_5a/3x3
I0403 15:37:07.788473  3292 net.cpp:425] inception_5a/output <- inception_5a/5x5
I0403 15:37:07.788489  3292 net.cpp:425] inception_5a/output <- inception_5a/pool_proj
I0403 15:37:07.788509  3292 net.cpp:399] inception_5a/output -> inception_5a/output
I0403 15:37:07.788565  3292 net.cpp:141] Setting up inception_5a/output
I0403 15:37:07.788589  3292 net.cpp:148] Top shape: 24 832 7 7 (978432)
I0403 15:37:07.788604  3292 net.cpp:156] Memory required for data: 1309586976
I0403 15:37:07.788619  3292 layer_factory.hpp:77] Creating layer inception_5a/output_inception_5a/output_0_split
I0403 15:37:07.788637  3292 net.cpp:91] Creating Layer inception_5a/output_inception_5a/output_0_split
I0403 15:37:07.788653  3292 net.cpp:425] inception_5a/output_inception_5a/output_0_split <- inception_5a/output
I0403 15:37:07.788674  3292 net.cpp:399] inception_5a/output_inception_5a/output_0_split -> inception_5a/output_inception_5a/output_0_split_0
I0403 15:37:07.788696  3292 net.cpp:399] inception_5a/output_inception_5a/output_0_split -> inception_5a/output_inception_5a/output_0_split_1
I0403 15:37:07.788717  3292 net.cpp:399] inception_5a/output_inception_5a/output_0_split -> inception_5a/output_inception_5a/output_0_split_2
I0403 15:37:07.788738  3292 net.cpp:399] inception_5a/output_inception_5a/output_0_split -> inception_5a/output_inception_5a/output_0_split_3
I0403 15:37:07.788856  3292 net.cpp:141] Setting up inception_5a/output_inception_5a/output_0_split
I0403 15:37:07.788882  3292 net.cpp:148] Top shape: 24 832 7 7 (978432)
I0403 15:37:07.788899  3292 net.cpp:148] Top shape: 24 832 7 7 (978432)
I0403 15:37:07.788915  3292 net.cpp:148] Top shape: 24 832 7 7 (978432)
I0403 15:37:07.788931  3292 net.cpp:148] Top shape: 24 832 7 7 (978432)
I0403 15:37:07.788946  3292 net.cpp:156] Memory required for data: 1325241888
I0403 15:37:07.788961  3292 layer_factory.hpp:77] Creating layer inception_5b/1x1
I0403 15:37:07.788983  3292 net.cpp:91] Creating Layer inception_5b/1x1
I0403 15:37:07.789001  3292 net.cpp:425] inception_5b/1x1 <- inception_5a/output_inception_5a/output_0_split_0
I0403 15:37:07.789021  3292 net.cpp:399] inception_5b/1x1 -> inception_5b/1x1
I0403 15:37:07.792965  3292 net.cpp:141] Setting up inception_5b/1x1
I0403 15:37:07.792995  3292 net.cpp:148] Top shape: 24 384 7 7 (451584)
I0403 15:37:07.793011  3292 net.cpp:156] Memory required for data: 1327048224
I0403 15:37:07.793030  3292 layer_factory.hpp:77] Creating layer inception_5b/relu_1x1
I0403 15:37:07.793051  3292 net.cpp:91] Creating Layer inception_5b/relu_1x1
I0403 15:37:07.793068  3292 net.cpp:425] inception_5b/relu_1x1 <- inception_5b/1x1
I0403 15:37:07.793086  3292 net.cpp:386] inception_5b/relu_1x1 -> inception_5b/1x1 (in-place)
I0403 15:37:07.793398  3292 net.cpp:141] Setting up inception_5b/relu_1x1
I0403 15:37:07.793424  3292 net.cpp:148] Top shape: 24 384 7 7 (451584)
I0403 15:37:07.793439  3292 net.cpp:156] Memory required for data: 1328854560
I0403 15:37:07.793454  3292 layer_factory.hpp:77] Creating layer inception_5b/3x3_reduce
I0403 15:37:07.793478  3292 net.cpp:91] Creating Layer inception_5b/3x3_reduce
I0403 15:37:07.793495  3292 net.cpp:425] inception_5b/3x3_reduce <- inception_5a/output_inception_5a/output_0_split_1
I0403 15:37:07.793517  3292 net.cpp:399] inception_5b/3x3_reduce -> inception_5b/3x3_reduce
I0403 15:37:07.796205  3292 net.cpp:141] Setting up inception_5b/3x3_reduce
I0403 15:37:07.796234  3292 net.cpp:148] Top shape: 24 192 7 7 (225792)
I0403 15:37:07.796250  3292 net.cpp:156] Memory required for data: 1329757728
I0403 15:37:07.796268  3292 layer_factory.hpp:77] Creating layer inception_5b/relu_3x3_reduce
I0403 15:37:07.796296  3292 net.cpp:91] Creating Layer inception_5b/relu_3x3_reduce
I0403 15:37:07.796314  3292 net.cpp:425] inception_5b/relu_3x3_reduce <- inception_5b/3x3_reduce
I0403 15:37:07.796332  3292 net.cpp:386] inception_5b/relu_3x3_reduce -> inception_5b/3x3_reduce (in-place)
I0403 15:37:07.796531  3292 net.cpp:141] Setting up inception_5b/relu_3x3_reduce
I0403 15:37:07.796558  3292 net.cpp:148] Top shape: 24 192 7 7 (225792)
I0403 15:37:07.796573  3292 net.cpp:156] Memory required for data: 1330660896
I0403 15:37:07.796588  3292 layer_factory.hpp:77] Creating layer inception_5b/3x3
I0403 15:37:07.796608  3292 net.cpp:91] Creating Layer inception_5b/3x3
I0403 15:37:07.796625  3292 net.cpp:425] inception_5b/3x3 <- inception_5b/3x3_reduce
I0403 15:37:07.796646  3292 net.cpp:399] inception_5b/3x3 -> inception_5b/3x3
I0403 15:37:07.803416  3292 net.cpp:141] Setting up inception_5b/3x3
I0403 15:37:07.803447  3292 net.cpp:148] Top shape: 24 384 7 7 (451584)
I0403 15:37:07.803463  3292 net.cpp:156] Memory required for data: 1332467232
I0403 15:37:07.803483  3292 layer_factory.hpp:77] Creating layer inception_5b/relu_3x3
I0403 15:37:07.803503  3292 net.cpp:91] Creating Layer inception_5b/relu_3x3
I0403 15:37:07.803519  3292 net.cpp:425] inception_5b/relu_3x3 <- inception_5b/3x3
I0403 15:37:07.803536  3292 net.cpp:386] inception_5b/relu_3x3 -> inception_5b/3x3 (in-place)
I0403 15:37:07.803838  3292 net.cpp:141] Setting up inception_5b/relu_3x3
I0403 15:37:07.803864  3292 net.cpp:148] Top shape: 24 384 7 7 (451584)
I0403 15:37:07.803879  3292 net.cpp:156] Memory required for data: 1334273568
I0403 15:37:07.803894  3292 layer_factory.hpp:77] Creating layer inception_5b/5x5_reduce
I0403 15:37:07.803933  3292 net.cpp:91] Creating Layer inception_5b/5x5_reduce
I0403 15:37:07.803952  3292 net.cpp:425] inception_5b/5x5_reduce <- inception_5a/output_inception_5a/output_0_split_2
I0403 15:37:07.803975  3292 net.cpp:399] inception_5b/5x5_reduce -> inception_5b/5x5_reduce
I0403 15:37:07.805284  3292 net.cpp:141] Setting up inception_5b/5x5_reduce
I0403 15:37:07.805312  3292 net.cpp:148] Top shape: 24 48 7 7 (56448)
I0403 15:37:07.805328  3292 net.cpp:156] Memory required for data: 1334499360
I0403 15:37:07.805346  3292 layer_factory.hpp:77] Creating layer inception_5b/relu_5x5_reduce
I0403 15:37:07.805366  3292 net.cpp:91] Creating Layer inception_5b/relu_5x5_reduce
I0403 15:37:07.805383  3292 net.cpp:425] inception_5b/relu_5x5_reduce <- inception_5b/5x5_reduce
I0403 15:37:07.805402  3292 net.cpp:386] inception_5b/relu_5x5_reduce -> inception_5b/5x5_reduce (in-place)
I0403 15:37:07.805778  3292 net.cpp:141] Setting up inception_5b/relu_5x5_reduce
I0403 15:37:07.805804  3292 net.cpp:148] Top shape: 24 48 7 7 (56448)
I0403 15:37:07.805820  3292 net.cpp:156] Memory required for data: 1334725152
I0403 15:37:07.805835  3292 layer_factory.hpp:77] Creating layer inception_5b/5x5
I0403 15:37:07.805868  3292 net.cpp:91] Creating Layer inception_5b/5x5
I0403 15:37:07.805886  3292 net.cpp:425] inception_5b/5x5 <- inception_5b/5x5_reduce
I0403 15:37:07.805905  3292 net.cpp:399] inception_5b/5x5 -> inception_5b/5x5
I0403 15:37:07.808064  3292 net.cpp:141] Setting up inception_5b/5x5
I0403 15:37:07.808094  3292 net.cpp:148] Top shape: 24 128 7 7 (150528)
I0403 15:37:07.808109  3292 net.cpp:156] Memory required for data: 1335327264
I0403 15:37:07.808126  3292 layer_factory.hpp:77] Creating layer inception_5b/relu_5x5
I0403 15:37:07.808146  3292 net.cpp:91] Creating Layer inception_5b/relu_5x5
I0403 15:37:07.808163  3292 net.cpp:425] inception_5b/relu_5x5 <- inception_5b/5x5
I0403 15:37:07.808181  3292 net.cpp:386] inception_5b/relu_5x5 -> inception_5b/5x5 (in-place)
I0403 15:37:07.808384  3292 net.cpp:141] Setting up inception_5b/relu_5x5
I0403 15:37:07.808409  3292 net.cpp:148] Top shape: 24 128 7 7 (150528)
I0403 15:37:07.808424  3292 net.cpp:156] Memory required for data: 1335929376
I0403 15:37:07.808439  3292 layer_factory.hpp:77] Creating layer inception_5b/pool
I0403 15:37:07.808457  3292 net.cpp:91] Creating Layer inception_5b/pool
I0403 15:37:07.808475  3292 net.cpp:425] inception_5b/pool <- inception_5a/output_inception_5a/output_0_split_3
I0403 15:37:07.808495  3292 net.cpp:399] inception_5b/pool -> inception_5b/pool
I0403 15:37:07.808568  3292 net.cpp:141] Setting up inception_5b/pool
I0403 15:37:07.808593  3292 net.cpp:148] Top shape: 24 832 7 7 (978432)
I0403 15:37:07.808607  3292 net.cpp:156] Memory required for data: 1339843104
I0403 15:37:07.808621  3292 layer_factory.hpp:77] Creating layer inception_5b/pool_proj
I0403 15:37:07.808646  3292 net.cpp:91] Creating Layer inception_5b/pool_proj
I0403 15:37:07.808665  3292 net.cpp:425] inception_5b/pool_proj <- inception_5b/pool
I0403 15:37:07.808683  3292 net.cpp:399] inception_5b/pool_proj -> inception_5b/pool_proj
I0403 15:37:07.810997  3292 net.cpp:141] Setting up inception_5b/pool_proj
I0403 15:37:07.811027  3292 net.cpp:148] Top shape: 24 128 7 7 (150528)
I0403 15:37:07.811041  3292 net.cpp:156] Memory required for data: 1340445216
I0403 15:37:07.811059  3292 layer_factory.hpp:77] Creating layer inception_5b/relu_pool_proj
I0403 15:37:07.811079  3292 net.cpp:91] Creating Layer inception_5b/relu_pool_proj
I0403 15:37:07.811095  3292 net.cpp:425] inception_5b/relu_pool_proj <- inception_5b/pool_proj
I0403 15:37:07.811112  3292 net.cpp:386] inception_5b/relu_pool_proj -> inception_5b/pool_proj (in-place)
I0403 15:37:07.811432  3292 net.cpp:141] Setting up inception_5b/relu_pool_proj
I0403 15:37:07.811460  3292 net.cpp:148] Top shape: 24 128 7 7 (150528)
I0403 15:37:07.811475  3292 net.cpp:156] Memory required for data: 1341047328
I0403 15:37:07.811489  3292 layer_factory.hpp:77] Creating layer inception_5b/output
I0403 15:37:07.811509  3292 net.cpp:91] Creating Layer inception_5b/output
I0403 15:37:07.811553  3292 net.cpp:425] inception_5b/output <- inception_5b/1x1
I0403 15:37:07.811570  3292 net.cpp:425] inception_5b/output <- inception_5b/3x3
I0403 15:37:07.811585  3292 net.cpp:425] inception_5b/output <- inception_5b/5x5
I0403 15:37:07.811601  3292 net.cpp:425] inception_5b/output <- inception_5b/pool_proj
I0403 15:37:07.811619  3292 net.cpp:399] inception_5b/output -> inception_5b/output
I0403 15:37:07.811671  3292 net.cpp:141] Setting up inception_5b/output
I0403 15:37:07.811694  3292 net.cpp:148] Top shape: 24 1024 7 7 (1204224)
I0403 15:37:07.811708  3292 net.cpp:156] Memory required for data: 1345864224
I0403 15:37:07.811723  3292 layer_factory.hpp:77] Creating layer pool5/7x7_s1
I0403 15:37:07.811740  3292 net.cpp:91] Creating Layer pool5/7x7_s1
I0403 15:37:07.811756  3292 net.cpp:425] pool5/7x7_s1 <- inception_5b/output
I0403 15:37:07.811776  3292 net.cpp:399] pool5/7x7_s1 -> pool5/7x7_s1
I0403 15:37:07.811992  3292 net.cpp:141] Setting up pool5/7x7_s1
I0403 15:37:07.812018  3292 net.cpp:148] Top shape: 24 1024 1 1 (24576)
I0403 15:37:07.812034  3292 net.cpp:156] Memory required for data: 1345962528
I0403 15:37:07.812049  3292 layer_factory.hpp:77] Creating layer pool5/drop_7x7_s1
I0403 15:37:07.812067  3292 net.cpp:91] Creating Layer pool5/drop_7x7_s1
I0403 15:37:07.812083  3292 net.cpp:425] pool5/drop_7x7_s1 <- pool5/7x7_s1
I0403 15:37:07.812099  3292 net.cpp:386] pool5/drop_7x7_s1 -> pool5/7x7_s1 (in-place)
I0403 15:37:07.812150  3292 net.cpp:141] Setting up pool5/drop_7x7_s1
I0403 15:37:07.812173  3292 net.cpp:148] Top shape: 24 1024 1 1 (24576)
I0403 15:37:07.812187  3292 net.cpp:156] Memory required for data: 1346060832
I0403 15:37:07.812201  3292 layer_factory.hpp:77] Creating layer loss3/classifier_plantvillage
I0403 15:37:07.812222  3292 net.cpp:91] Creating Layer loss3/classifier_plantvillage
I0403 15:37:07.812239  3292 net.cpp:425] loss3/classifier_plantvillage <- pool5/7x7_s1
I0403 15:37:07.812258  3292 net.cpp:399] loss3/classifier_plantvillage -> loss3/classifier_plantvillage
I0403 15:37:07.812688  3292 net.cpp:141] Setting up loss3/classifier_plantvillage
I0403 15:37:07.812713  3292 net.cpp:148] Top shape: 24 38 (912)
I0403 15:37:07.812727  3292 net.cpp:156] Memory required for data: 1346064480
I0403 15:37:07.812746  3292 layer_factory.hpp:77] Creating layer loss3/classifier_plantvillage_loss3/classifier_plantvillage_0_split
I0403 15:37:07.812763  3292 net.cpp:91] Creating Layer loss3/classifier_plantvillage_loss3/classifier_plantvillage_0_split
I0403 15:37:07.812779  3292 net.cpp:425] loss3/classifier_plantvillage_loss3/classifier_plantvillage_0_split <- loss3/classifier_plantvillage
I0403 15:37:07.812799  3292 net.cpp:399] loss3/classifier_plantvillage_loss3/classifier_plantvillage_0_split -> loss3/classifier_plantvillage_loss3/classifier_plantvillage_0_split_0
I0403 15:37:07.812820  3292 net.cpp:399] loss3/classifier_plantvillage_loss3/classifier_plantvillage_0_split -> loss3/classifier_plantvillage_loss3/classifier_plantvillage_0_split_1
I0403 15:37:07.812840  3292 net.cpp:399] loss3/classifier_plantvillage_loss3/classifier_plantvillage_0_split -> loss3/classifier_plantvillage_loss3/classifier_plantvillage_0_split_2
I0403 15:37:07.812860  3292 net.cpp:399] loss3/classifier_plantvillage_loss3/classifier_plantvillage_0_split -> loss3/classifier_plantvillage_loss3/classifier_plantvillage_0_split_3
I0403 15:37:07.812961  3292 net.cpp:141] Setting up loss3/classifier_plantvillage_loss3/classifier_plantvillage_0_split
I0403 15:37:07.812988  3292 net.cpp:148] Top shape: 24 38 (912)
I0403 15:37:07.813004  3292 net.cpp:148] Top shape: 24 38 (912)
I0403 15:37:07.813020  3292 net.cpp:148] Top shape: 24 38 (912)
I0403 15:37:07.813035  3292 net.cpp:148] Top shape: 24 38 (912)
I0403 15:37:07.813048  3292 net.cpp:156] Memory required for data: 1346079072
I0403 15:37:07.813062  3292 layer_factory.hpp:77] Creating layer loss1/loss
I0403 15:37:07.813083  3292 net.cpp:91] Creating Layer loss1/loss
I0403 15:37:07.813100  3292 net.cpp:425] loss1/loss <- loss1/classifier_plantvillage_loss1/classifier_plantvillage_0_split_0
I0403 15:37:07.813133  3292 net.cpp:425] loss1/loss <- label_data_1_split_0
…
