…
I0403 15:31:49.875425  3192 net.cpp:313] The NetState phase (1) differed from the phase (0) specified by a rule in layer data
I0403 15:31:49.876596  3192 net.cpp:49] Initializing net from parameters: 
state {
  phase: TEST
}
layer {
  name: "data"
  type: "Data"
  top: "data"
  top: "label"
  include {
    phase: TEST
  }
  transform_param {
    mirror: false
    crop_size: 224
    mean_file: "/home/mohanty/data/final_dataset/lmdb/grayscale-50-50/mean.binaryproto"
  }
  data_param {
    source: "/home/mohanty/data/final_dataset/lmdb/grayscale-50-50/test_db"
    batch_size: 24
    backend: LMDB
  }
}
layer {
  name: "conv1/7x7_s2"
  type: "Convolution"
  bottom: "data"
  top: "conv1/7x7_s2"
  param {
    lr_mult: 1
    decay_mult: 1
  }
  param {
    lr_mult: 2
    decay_mult: 0
  }
  convolution_param {
    num_output: 64
    pad: 3
    kernel_size: 7
    stride: 2
    weight_filler {
      type: "xavier"
      std: 0.1
    }
    bias_filler {
      type: "constant"
      value: 0.2
    }
  }
}
layer {
  name: "conv1/relu_7x7"
  type: "ReLU"
  bottom: "conv1/7x7_s2"
  top: "conv1/7x7_s2"
}
layer {
  name: "pool1/3x3_s2"
  type: "Pooling"
  bottom: "conv1/7x7_s2"
  top: "pool1/3x3_s2"
  pooling_param {
    pool: MAX
    kernel_size: 3
    stride: 2
  }
}
layer {
  name: "pool1/norm1"
  type: "LRN"
  bottom: "pool1/3x3_s2"
  top: "pool1/norm1"
  lrn_param {
    local_size: 5
    alpha: 0.0001
    beta: 0.75
  }
}
layer {
  name: "conv2/3x3_reduce"
  type: "Convolution"
  bottom: "pool1/norm1"
  top: "conv2/3x3_reduce"
  param {
    lr_mult: 1
    decay_mult: 1
  }
  param {
    lr_mult: 2
    decay_mult: 0
  }
  convolution_param {
    num_output: 64
    kernel_size: 1
    weight_filler {
      type: "xavier"
      std: 0.1
    }
    bias_filler {
      type: "constant"
      value: 0.2
    }
  }
}
layer {
  name: "conv2/relu_3x3_reduce"
  type: "ReLU"
  bottom: "conv2/3x3_reduce"
  top: "conv2/3x3_reduce"
}
layer {
  name: "conv2/3x3"
  type: "Convolution"
  bottom: "conv2/3x3_reduce"
  top: "conv2/3x3"
  param {
    lr_mult: 1
    decay_mult: 1
  }
  param {
    lr_mult: 2
    decay_mult: 0
  }
  convolution_param {
    num_output: 192
    pad: 1
    kernel_size: 3
    weight_filler {
      type: "xavier"
      std: 0.03
    }
    bias_filler {
      type: "constant"
      value: 0.2
    }
  }
}
layer {
  name: "conv2/relu_3x3"
  type: "ReLU"
  bottom: "conv2/3x3"
  top: "conv2/3x3"
}
layer {
  name: "conv2/norm2"
  type: "LRN"
  bottom: "conv2/3x3"
  top: "conv2/norm2"
  lrn_param {
    local_size: 5
    alpha: 0.0001
    beta: 0.75
  }
}
layer {
  name: "pool2/3x3_s2"
  type: "Pooling"
  bottom: "conv2/norm2"
  top: "pool2/3x3_s2"
  pooling_param {
    pool: MAX
    kernel_size: 3
    stride: 2
  }
}
layer {
  name: "inception_3a/1x1"
  type: "Convolution"
  bottom: "pool2/3x3_s2"
  top: "inception_3a/1x1"
  param {
    lr_mult: 1
    decay_mult: 1
  }
  param {
    lr_mult: 2
    decay_mult: 0
  }
  convolution_param {
    num_output: 64
    kernel_size: 1
    weight_filler {
      type: "xavier"
      std: 0.03
    }
    bias_filler {
      type: "constant"
      value: 0.2
    }
  }
}
layer {
  name: "inception_3a/relu_1x1"
  type: "ReLU"
  bottom: "inception_3a/1x1"
  top: "inception_3a/1x1"
}
layer {
  name: "inception_3a/3x3_reduce"
  type: "Convolution"
  bottom: "pool2/3x3_s2"
  top: "inception_3a/3x3_reduce"
  param {
    lr_mult: 1
    decay_mult: 1
  }
  param {
    lr_mult: 2
    decay_mult: 0
  }
  convolution_param {
    num_output: 96
    kernel_size: 1
    weight_filler {
      type: "xavier"
      std: 0.09
    }
    bias_filler {
      type: "constant"
      value: 0.2
    }
  }
}
layer {
  name: "inception_3a/relu_3x3_reduce"
  type: "ReLU"
  bottom: "inception_3a/3x3_reduce"
  top: "inception_3a/3x3_reduce"
}
layer {
  name: "inception_3a/3x3"
  type: "Convolution"
  bottom: "inception_3a/3x3_reduce"
  top: "inception_3a/3x3"
  param {
    lr_mult: 1
    decay_mult: 1
  }
  param {
    lr_mult: 2
    decay_mult: 0
  }
  convolution_param {
    num_output: 128
    pad: 1
    kernel_size: 3
    weight_filler {
      type: "xavier"
      std: 0.03
    }
    bias_filler {
      type: "constant"
      value: 0.2
    }
  }
}
layer {
  name: "inception_3a/relu_3x3"
  type: "ReLU"
  bottom: "inception_3a/3x3"
  top: "inception_3a/3x3"
}
layer {
  name: "inception_3a/5x5_reduce"
  type: "Convolution"
  bottom: "pool2/3x3_s2"
  top: "inception_3a/5x5_reduce"
  param {
    lr_mult: 1
    decay_mult: 1
  }
  param {
    lr_mult: 2
    decay_mult: 0
  }
  convolution_param {
    num_output: 16
    kernel_size: 1
    weight_filler {
      type: "xavier"
      std: 0.2
    }
    bias_filler {
      type: "constant"
      value: 0.2
    }
  }
}
layer {
  name: "inception_3a/relu_5x5_reduce"
  type: "ReLU"
  bottom: "inception_3a/5x5_reduce"
  top: "inception_3a/5x5_reduce"
}
layer {
  name: "inception_3a/5x5"
  type: "Convolution"
  bottom: "inception_3a/5x5_reduce"
  top: "inception_3a/5x5"
  param {
    lr_mult: 1
    decay_mult: 1
  }
  param {
    lr_mult: 2
    decay_mult: 0
  }
  convolution_param {
    num_output: 32
    pad: 2
    kernel_size: 5
    weight_filler {
      type: "xavier"
      std: 0.03
    }
    bias_filler {
      type: "constant"
      value: 0.2
    }
  }
}
layer {
  name: "inception_3a/relu_5x5"
  type: "ReLU"
  bottom: "inception_3a/5x5"
  top: "inception_3a/5x5"
}
layer {
  name: "inception_3a/pool"
  type: "Pooling"
  bottom: "pool2/3x3_s2"
  top: "inception_3a/pool"
  pooling_param {
    pool: MAX
    kernel_size: 3
    stride: 1
    pad: 1
  }
}
layer {
  name: "inception_3a/pool_proj"
  type: "Convolution"
  bottom: "inception_3a/pool"
  top: "inception_3a/pool_proj"
  param {
    lr_mult: 1
    decay_mult: 1
  }
  param {
    lr_mult: 2
    decay_mult: 0
  }
  convolution_param {
    num_output: 32
    kernel_size: 1
    weight_filler {
      type: "xavier"
      std: 0.1
    }
    bias_filler {
      type: "constant"
      value: 0.2
    }
  }
}
layer {
  name: "inception_3a/relu_pool_proj"
  type: "ReLU"
  bottom: "inception_3a/pool_proj"
  top: "inception_3a/pool_proj"
}
layer {
  name: "inception_3a/output"
  type: "Concat"
  bottom: "inception_3a/1x1"
  bottom: "inception_3a/3x3"
  bottom: "inception_3a/5x5"
  bottom: "inception_3a/pool_proj"
  top: "inception_3a/output"
}
layer {
  name: "inception_3b/1x1"
  type: "Convolution"
  bottom: "inception_3a/output"
  top: "inception_3b/1x1"
  param {
    lr_mult: 1
    decay_mult: 1
  }
  param {
    lr_mult: 2
    decay_mult: 0
  }
  convolution_param {
    num_output: 128
    kernel_size: 1
    weight_filler {
      type: "xavier"
      std: 0.03
    }
    bias_filler {
      type: "constant"
      value: 0.2
    }
  }
}
layer {
  name: "inception_3b/relu_1x1"
  type: "ReLU"
  bottom: "inception_3b/1x1"
  top: "inception_3b/1x1"
}
layer {
  name: "inception_3b/3x3_reduce"
  type: "Convolution"
  bottom: "inception_3a/output"
  top: "inception_3b/3x3_reduce"
  param {
    lr_mult: 1
    decay_mult: 1
  }
  param {
    lr_mult: 2
    decay_mult: 0
  }
  convolution_param {
    num_output: 128
    kernel_size: 1
    weight_filler {
      type: "xavier"
      std: 0.09
    }
    bias_filler {
      type: "constant"
      value: 0.2
    }
  }
}
layer {
  name: "inception_3b/relu_3x3_reduce"
  type: "ReLU"
  bottom: "inception_3b/3x3_reduce"
  top: "inception_3b/3x3_reduce"
}
layer {
  name: "inception_3b/3x3"
  type: "Convolution"
  bottom: "inception_3b/3x3_reduce"
  top: "inception_3b/3x3"
  param {
    lr_mult: 1
    decay_mult: 1
  }
  param {
    lr_mult: 2
    decay_mult: 0
  }
  convolution_param {
    num_output: 192
    pad: 1
    kernel_size: 3
    weight_filler {
      type: "xavier"
      std: 0.03
    }
    bias_filler {
      type: "constant"
      value: 0.2
    }
  }
}
layer {
  name: "inception_3b/relu_3x3"
  type: "ReLU"
  bottom: "inception_3b/3x3"
  top: "inception_3b/3x3"
}
layer {
  name: "inception_3b/5x5_reduce"
  type: "Convolution"
  bottom: "inception_3a/output"
  top: "inception_3b/5x5_reduce"
  param {
    lr_mult: 1
    decay_mult: 1
  }
  param {
    lr_mult: 2
    decay_mult: 0
  }
  convolution_param {
    num_output: 32
    kernel_size: 1
    weight_filler {
      type: "xavier"
      std: 0.2
    }
    bias_filler {
      type: "constant"
      value: 0.2
    }
  }
}
layer {
  name: "inception_3b/relu_5x5_reduce"
  type: "ReLU"
  bottom: "inception_3b/5x5_reduce"
  top: "inception_3b/5x5_reduce"
}
layer {
  name: "inception_3b/5x5"
  type: "Convolution"
  bottom: "inception_3b/5x5_reduce"
  top: "inception_3b/5x5"
  param {
    lr_mult: 1
    decay_mult: 1
  }
  param {
    lr_mult: 2
    decay_mult: 0
  }
  convolution_param {
    num_output: 96
    pad: 2
    kernel_size: 5
    weight_filler {
      type: "xavier"
      std: 0.03
    }
    bias_filler {
      type: "constant"
      value: 0.2
    }
  }
}
layer {
  name: "inception_3b/relu_5x5"
  type: "ReLU"
  bottom: "inception_3b/5x5"
  top: "inception_3b/5x5"
}
layer {
  name: "inception_3b/pool"
  type: "Pooling"
  bottom: "inception_3a/output"
  top: "inception_3b/pool"
  pooling_param {
    pool: MAX
    kernel_size: 3
    stride: 1
    pad: 1
  }
}
layer {
  name: "inception_3b/pool_proj"
  type: "Convolution"
  bottom: "inception_3b/pool"
  top: "inception_3b/pool_proj"
  param {
    lr_mult: 1
    decay_mult: 1
  }
  param {
    lr_mult: 2
    decay_mult: 0
  }
  convolution_param {
    num_output: 64
    kernel_size: 1
    weight_filler {
      type: "xavier"
      std: 0.1
    }
    bias_filler {
      type: "constant"
      value: 0.2
    }
  }
}
layer {
  name: "inception_3b/relu_pool_proj"
  type: "ReLU"
  bottom: "inception_3b/pool_proj"
  top: "inception_3b/pool_proj"
}
layer {
  name: "inception_3b/output"
  type: "Concat"
  bottom: "inception_3b/1x1"
  bottom: "inception_3b/3x3"
  bottom: "inception_3b/5x5"
  bottom: "inception_3b/pool_proj"
  top: "inception_3b/output"
}
layer {
  name: "pool3/3x3_s2"
  type: "Pooling"
  bottom: "inception_3b/output"
  top: "pool3/3x3_s2"
  pooling_param {
    pool: MAX
    kernel_size: 3
    stride: 2
  }
}
layer {
  name: "inception_4a/1x1"
  type: "Convolution"
  bottom: "pool3/3x3_s2"
  top: "inception_4a/1x1"
  param {
    lr_mult: 1
    decay_mult: 1
  }
  param {
    lr_mult: 2
    decay_mult: 0
  }
  convolution_param {
    num_output: 192
    kernel_size: 1
    weight_filler {
      type: "xavier"
      std: 0.03
    }
    bias_filler {
      type: "constant"
      value: 0.2
    }
  }
}
layer {
  name: "inception_4a/relu_1x1"
  type: "ReLU"
  bottom: "inception_4a/1x1"
  top: "inception_4a/1x1"
}
layer {
  name: "inception_4a/3x3_reduce"
  type: "Convolution"
  bottom: "pool3/3x3_s2"
  top: "inception_4a/3x3_reduce"
  param {
    lr_mult: 1
    decay_mult: 1
  }
  param {
    lr_mult: 2
    decay_mult: 0
  }
  convolution_param {
    num_output: 96
    kernel_size: 1
    weight_filler {
      type: "xavier"
      std: 0.09
    }
    bias_filler {
      type: "constant"
      value: 0.2
    }
  }
}
layer {
  name: "inception_4a/relu_3x3_reduce"
  type: "ReLU"
  bottom: "inception_4a/3x3_reduce"
  top: "inception_4a/3x3_reduce"
}
layer {
  name: "inception_4a/3x3"
  type: "Convolution"
  bottom: "inception_4a/3x3_reduce"
  top: "inception_4a/3x3"
  param {
    lr_mult: 1
    decay_mult: 1
  }
  param {
    lr_mult: 2
    decay_mult: 0
  }
  convolution_param {
    num_output: 208
    pad: 1
    kernel_size: 3
    weight_filler {
      type: "xavier"
      std: 0.03
    }
    bias_filler {
      type: "constant"
      value: 0.2
    }
  }
}
layer {
  name: "inception_4a/relu_3x3"
  type: "ReLU"
  bottom: "inception_4a/3x3"
  top: "inception_4a/3x3"
}
layer {
  name: "inception_4a/5x5_reduce"
  type: "Convolution"
  bottom: "pool3/3x3_s2"
  top: "inception_4a/5x5_reduce"
  param {
    lr_mult: 1
    decay_mult: 1
  }
  param {
    lr_mult: 2
    decay_mult: 0
  }
  convolution_param {
    num_output: 16
    kernel_size: 1
    weight_filler {
      type: "xavier"
      std: 0.2
    }
    bias_filler {
      type: "constant"
      value: 0.2
    }
  }
}
layer {
  name: "inception_4a/relu_5x5_reduce"
  type: "ReLU"
  bottom: "inception_4a/5x5_reduce"
  top: "inception_4a/5x5_reduce"
}
layer {
  name: "inception_4a/5x5"
  type: "Convolution"
  bottom: "inception_4a/5x5_reduce"
  top: "inception_4a/5x5"
  param {
    lr_mult: 1
    decay_mult: 1
  }
  param {
    lr_mult: 2
    decay_mult: 0
  }
  convolution_param {
    num_output: 48
    pad: 2
    kernel_size: 5
    weight_filler {
      type: "xavier"
      std: 0.03
    }
    bias_filler {
      type: "constant"
      value: 0.2
    }
  }
}
layer {
  name: "inception_4a/relu_5x5"
  type: "ReLU"
  bottom: "inception_4a/5x5"
  top: "inception_4a/5x5"
}
layer {
  name: "inception_4a/pool"
  type: "Pooling"
  bottom: "pool3/3x3_s2"
  top: "inception_4a/pool"
  pooling_param {
    pool: MAX
    kernel_size: 3
    stride: 1
    pad: 1
  }
}
layer {
  name: "inception_4a/pool_proj"
  type: "Convolution"
  bottom: "inception_4a/pool"
  top: "inception_4a/pool_proj"
  param {
    lr_mult: 1
    decay_mult: 1
  }
  param {
    lr_mult: 2
    decay_mult: 0
  }
  convolution_param {
    num_output: 64
    kernel_size: 1
    weight_filler {
      type: "xavier"
      std: 0.1
    }
    bias_filler {
      type: "constant"
      value: 0.2
    }
  }
}
layer {
  name: "inception_4a/relu_pool_proj"
  type: "ReLU"
  bottom: "inception_4a/pool_proj"
  top: "inception_4a/pool_proj"
}
layer {
  name: "inception_4a/output"
  type: "Concat"
  bottom: "inception_4a/1x1"
  bottom: "inception_4a/3x3"
  bottom: "inception_4a/5x5"
  bottom: "inception_4a/pool_proj"
  top: "inception_4a/output"
}
layer {
  name: "loss1/ave_pool"
  type: "Pooling"
  bottom: "inception_4a/output"
  top: "loss1/ave_pool"
  pooling_param {
    pool: AVE
    kernel_size: 5
    stride: 3
  }
}
layer {
  name: "loss1/conv"
  type: "Convolution"
  bottom: "loss1/ave_pool"
  top: "loss1/conv"
  param {
    lr_mult: 1
    decay_mult: 1
  }
  param {
    lr_mult: 2
    decay_mult: 0
  }
  convolution_param {
    num_output: 128
    kernel_size: 1
    weight_filler {
      type: "xavier"
      std: 0.08
    }
    bias_filler {
      type: "constant"
      value: 0.2
    }
  }
}
layer {
  name: "loss1/relu_conv"
  type: "ReLU"
  bottom: "loss1/conv"
  top: "loss1/conv"
}
layer {
  name: "loss1/fc"
  type: "InnerProduct"
  bottom: "loss1/conv"
  top: "loss1/fc"
  param {
    lr_mult: 1
    decay_mult: 1
  }
  param {
    lr_mult: 2
    decay_mult: 0
  }
  inner_product_param {
    num_output: 1024
    weight_filler {
      type: "xavier"
      std: 0.02
    }
    bias_filler {
      type: "constant"
      value: 0.2
    }
  }
}
layer {
  name: "loss1/relu_fc"
  type: "ReLU"
  bottom: "loss1/fc"
  top: "loss1/fc"
}
layer {
  name: "loss1/drop_fc"
  type: "Dropout"
  bottom: "loss1/fc"
  top: "loss1/fc"
  dropout_param {
    dropout_ratio: 0.7
  }
}
layer {
  name: "loss1/classifier_plantvillage"
  type: "InnerProduct"
  bottom: "loss1/fc"
  top: "loss1/classifier_plantvillage"
  param {
    lr_mult: 1
    decay_mult: 1
  }
  param {
    lr_mult: 2
    decay_mult: 0
  }
  inner_product_param {
    num_output: 38
    weight_filler {
      type: "xavier"
      std: 0.0009765625
    }
    bias_filler {
      type: "constant"
      value: 0
    }
  }
}
layer {
  name: "inception_4b/1x1"
  type: "Convolution"
  bottom: "inception_4a/output"
  top: "inception_4b/1x1"
  param {
    lr_mult: 1
    decay_mult: 1
  }
  param {
    lr_mult: 2
    decay_mult: 0
  }
  convolution_param {
    num_output: 160
    kernel_size: 1
    weight_filler {
      type: "xavier"
      std: 0.03
    }
    bias_filler {
      type: "constant"
      value: 0.2
    }
  }
}
layer {
  name: "inception_4b/relu_1x1"
  type: "ReLU"
  bottom: "inception_4b/1x1"
  top: "inception_4b/1x1"
}
layer {
  name: "inception_4b/3x3_reduce"
  type: "Convolution"
  bottom: "inception_4a/output"
  top: "inception_4b/3x3_reduce"
  param {
    lr_mult: 1
    decay_mult: 1
  }
  param {
    lr_mult: 2
    decay_mult: 0
  }
  convolution_param {
    num_output: 112
    kernel_size: 1
    weight_filler {
      type: "xavier"
      std: 0.09
    }
    bias_filler {
      type: "constant"
      value: 0.2
    }
  }
}
layer {
  name: "inception_4b/relu_3x3_reduce"
  type: "ReLU"
  bottom: "inception_4b/3x3_reduce"
  top: "inception_4b/3x3_reduce"
}
layer {
  name: "inception_4b/3x3"
  type: "Convolution"
  bottom: "inception_4b/3x3_reduce"
  top: "inception_4b/3x3"
  param {
    lr_mult: 1
    decay_mult: 1
  }
  param {
    lr_mult: 2
    decay_mult: 0
  }
  convolution_param {
    num_output: 224
    pad: 1
    kernel_size: 3
    weight_filler {
      type: "xavier"
      std: 0.03
    }
    bias_filler {
      type: "constant"
      value: 0.2
    }
  }
}
layer {
  name: "inception_4b/relu_3x3"
  type: "ReLU"
  bottom: "inception_4b/3x3"
  top: "inception_4b/3x3"
}
layer {
  name: "inception_4b/5x5_reduce"
  type: "Convolution"
  bottom: "inception_4a/output"
  top: "inception_4b/5x5_reduce"
  param {
    lr_mult: 1
    decay_mult: 1
  }
  param {
    lr_mult: 2
    decay_mult: 0
  }
  convolution_param {
    num_output: 24
    kernel_size: 1
    weight_filler {
      type: "xavier"
      std: 0.2
    }
    bias_filler {
      type: "constant"
      value: 0.2
    }
  }
}
layer {
  name: "inception_4b/relu_5x5_reduce"
  type: "ReLU"
  bottom: "inception_4b/5x5_reduce"
  top: "inception_4b/5x5_reduce"
}
layer {
  name: "inception_4b/5x5"
  type: "Convolution"
  bottom: "inception_4b/5x5_reduce"
  top: "inception_4b/5x5"
  param {
    lr_mult: 1
    decay_mult: 1
  }
  param {
    lr_mult: 2
    decay_mult: 0
  }
  convolution_param {
    num_output: 64
    pad: 2
    kernel_size: 5
    weight_filler {
      type: "xavier"
      std: 0.03
    }
    bias_filler {
      type: "constant"
      value: 0.2
    }
  }
}
layer {
  name: "inception_4b/relu_5x5"
  type: "ReLU"
  bottom: "inception_4b/5x5"
  top: "inception_4b/5x5"
}
layer {
  name: "inception_4b/pool"
  type: "Pooling"
  bottom: "inception_4a/output"
  top: "inception_4b/pool"
  pooling_param {
    pool: MAX
    kernel_size: 3
    stride: 1
    pad: 1
  }
}
layer {
  name: "inception_4b/pool_proj"
  type: "Convolution"
  bottom: "inception_4b/pool"
  top: "inception_4b/pool_proj"
  param {
    lr_mult: 1
    decay_mult: 1
  }
  param {
    lr_mult: 2
    decay_mult: 0
  }
  convolution_param {
    num_output: 64
    kernel_size: 1
    weight_filler {
      type: "xavier"
      std: 0.1
    }
    bias_filler {
      type: "constant"
      value: 0.2
    }
  }
}
layer {
  name: "inception_4b/relu_pool_proj"
  type: "ReLU"
  bottom: "inception_4b/pool_proj"
  top: "inception_4b/pool_proj"
}
layer {
  name: "inception_4b/output"
  type: "Concat"
  bottom: "inception_4b/1x1"
  bottom: "inception_4b/3x3"
  bottom: "inception_4b/5x5"
  bottom: "inception_4b/pool_proj"
  top: "inception_4b/output"
}
layer {
  name: "inception_4c/1x1"
  type: "Convolution"
  bottom: "inception_4b/output"
  top: "inception_4c/1x1"
  param {
    lr_mult: 1
    decay_mult: 1
  }
  param {
    lr_mult: 2
    decay_mult: 0
  }
  convolution_param {
    num_output: 128
    kernel_size: 1
    weight_filler {
      type: "xavier"
      std: 0.03
    }
    bias_filler {
      type: "constant"
      value: 0.2
    }
  }
}
layer {
  name: "inception_4c/relu_1x1"
  type: "ReLU"
  bottom: "inception_4c/1x1"
  top: "inception_4c/1x1"
}
layer {
  name: "inception_4c/3x3_reduce"
  type: "Convolution"
  bottom: "inception_4b/output"
  top: "inception_4c/3x3_reduce"
  param {
    lr_mult: 1
    decay_mult: 1
  }
  param {
    lr_mult: 2
    decay_mult: 0
  }
  convolution_param {
    num_output: 128
    kernel_size: 1
    weight_filler {
      type: "xavier"
      std: 0.09
    }
    bias_filler {
      type: "constant"
      value: 0.2
    }
  }
}
layer {
  name: "inception_4c/relu_3x3_reduce"
  type: "ReLU"
  bottom: "inception_4c/3x3_reduce"
  top: "inception_4c/3x3_reduce"
}
layer {
  name: "inception_4c/3x3"
  type: "Convolution"
  bottom: "inception_4c/3x3_reduce"
  top: "inception_4c/3x3"
  param {
    lr_mult: 1
    decay_mult: 1
  }
  param {
    lr_mult: 2
    decay_mult: 0
  }
  convolution_param {
    num_output: 256
    pad: 1
    kernel_size: 3
    weight_filler {
      type: "xavier"
      std: 0.03
    }
    bias_filler {
      type: "constant"
      value: 0.2
    }
  }
}
layer {
  name: "inception_4c/relu_3x3"
  type: "ReLU"
  bottom: "inception_4c/3x3"
  top: "inception_4c/3x3"
}
layer {
  name: "inception_4c/5x5_reduce"
  type: "Convolution"
  bottom: "inception_4b/output"
  top: "inception_4c/5x5_reduce"
  param {
    lr_mult: 1
    decay_mult: 1
  }
  param {
    lr_mult: 2
    decay_mult: 0
  }
  convolution_param {
    num_output: 24
    kernel_size: 1
    weight_filler {
      type: "xavier"
      std: 0.2
    }
    bias_filler {
      type: "constant"
      value: 0.2
    }
  }
}
layer {
  name: "inception_4c/relu_5x5_reduce"
  type: "ReLU"
  bottom: "inception_4c/5x5_reduce"
  top: "inception_4c/5x5_reduce"
}
layer {
  name: "inception_4c/5x5"
  type: "Convolution"
  bottom: "inception_4c/5x5_reduce"
  top: "inception_4c/5x5"
  param {
    lr_mult: 1
    decay_mult: 1
  }
  param {
    lr_mult: 2
    decay_mult: 0
  }
  convolution_param {
    num_output: 64
    pad: 2
    kernel_size: 5
    weight_filler {
      type: "xavier"
      std: 0.03
    }
    bias_filler {
      type: "constant"
      value: 0.2
    }
  }
}
layer {
  name: "inception_4c/relu_5x5"
  type: "ReLU"
  bottom: "inception_4c/5x5"
  top: "inception_4c/5x5"
}
layer {
  name: "inception_4c/pool"
  type: "Pooling"
  bottom: "inception_4b/output"
  top: "inception_4c/pool"
  pooling_param {
    pool: MAX
    kernel_size: 3
    stride: 1
    pad: 1
  }
}
layer {
  name: "inception_4c/pool_proj"
  type: "Convolution"
  bottom: "inception_4c/pool"
  top: "inception_4c/pool_proj"
  param {
    lr_mult: 1
    decay_mult: 1
  }
  param {
    lr_mult: 2
    decay_mult: 0
  }
  convolution_param {
    num_output: 64
    kernel_size: 1
    weight_filler {
      type: "xavier"
      std: 0.1
    }
    bias_filler {
      type: "constant"
      value: 0.2
    }
  }
}
layer {
  name: "inception_4c/relu_pool_proj"
  type: "ReLU"
  bottom: "inception_4c/pool_proj"
  top: "inception_4c/pool_proj"
}
layer {
  name: "inception_4c/output"
  type: "Concat"
  bottom: "inception_4c/1x1"
  bottom: "inception_4c/3x3"
  bottom: "inception_4c/5x5"
  bottom: "inception_4c/pool_proj"
  top: "inception_4c/output"
}
layer {
  name: "inception_4d/1x1"
  type: "Convolution"
  bottom: "inception_4c/output"
  top: "inception_4d/1x1"
  param {
    lr_mult: 1
    decay_mult: 1
  }
  param {
    lr_mult: 2
    decay_mult: 0
  }
  convolution_param {
    num_output: 112
    kernel_size: 1
    weight_filler {
      type: "xavier"
      std: 0.03
    }
    bias_filler {
      type: "constant"
      value: 0.2
    }
  }
}
layer {
  name: "inception_4d/relu_1x1"
  type: "ReLU"
  bottom: "inception_4d/1x1"
  top: "inception_4d/1x1"
}
layer {
  name: "inception_4d/3x3_reduce"
  type: "Convolution"
  bottom: "inception_4c/output"
  top: "inception_4d/3x3_reduce"
  param {
    lr_mult: 1
    decay_mult: 1
  }
  param {
    lr_mult: 2
    decay_mult: 0
  }
  convolution_param {
    num_output: 144
    kernel_size: 1
    weight_filler {
      type: "xavier"
      std: 0.09
    }
    bias_filler {
      type: "constant"
      value: 0.2
    }
  }
}
layer {
  name: "inception_4d/relu_3x3_reduce"
  type: "ReLU"
  bottom: "inception_4d/3x3_reduce"
  top: "inception_4d/3x3_reduce"
}
layer {
  name: "inception_4d/3x3"
  type: "Convolution"
  bottom: "inception_4d/3x3_reduce"
  top: "inception_4d/3x3"
  param {
    lr_mult: 1
    decay_mult: 1
  }
  param {
    lr_mult: 2
    decay_mult: 0
  }
  convolution_param {
    num_output: 288
    pad: 1
    kernel_size: 3
    weight_filler {
      type: "xavier"
      std: 0.03
    }
    bias_filler {
      type: "constant"
      value: 0.2
    }
  }
}
layer {
  name: "inception_4d/relu_3x3"
  type: "ReLU"
  bottom: "inception_4d/3x3"
  top: "inception_4d/3x3"
}
layer {
  name: "inception_4d/5x5_reduce"
  type: "Convolution"
  bottom: "inception_4c/output"
  top: "inception_4d/5x5_reduce"
  param {
    lr_mult: 1
    decay_mult: 1
  }
  param {
    lr_mult: 2
    decay_mult: 0
  }
  convolution_param {
    num_output: 32
    kernel_size: 1
    weight_filler {
      type: "xavier"
      std: 0.2
    }
    bias_filler {
      type: "constant"
      value: 0.2
    }
  }
}
layer {
  name: "inception_4d/relu_5x5_reduce"
  type: "ReLU"
  bottom: "inception_4d/5x5_reduce"
  top: "inception_4d/5x5_reduce"
}
layer {
  name: "inception_4d/5x5"
  type: "Convolution"
  bottom: "inception_4d/5x5_reduce"
  top: "inception_4d/5x5"
  param {
    lr_mult: 1
    decay_mult: 1
  }
  param {
    lr_mult: 2
    decay_mult: 0
  }
  convolution_param {
    num_output: 64
    pad: 2
    kernel_size: 5
    weight_filler {
      type: "xavier"
      std: 0.03
    }
    bias_filler {
      type: "constant"
      value: 0.2
    }
  }
}
layer {
  name: "inception_4d/relu_5x5"
  type: "ReLU"
  bottom: "inception_4d/5x5"
  top: "inception_4d/5x5"
}
layer {
  name: "inception_4d/pool"
  type: "Pooling"
  bottom: "inception_4c/output"
  top: "inception_4d/pool"
  pooling_param {
    pool: MAX
    kernel_size: 3
    stride: 1
    pad: 1
  }
}
layer {
  name: "inception_4d/pool_proj"
  type: "Convolution"
  bottom: "inception_4d/pool"
  top: "inception_4d/pool_proj"
  param {
    lr_mult: 1
    decay_mult: 1
  }
  param {
    lr_mult: 2
    decay_mult: 0
  }
  convolution_param {
    num_output: 64
    kernel_size: 1
    weight_filler {
      type: "xavier"
      std: 0.1
    }
    bias_filler {
      type: "constant"
      value: 0.2
    }
  }
}
layer {
  name: "inception_4d/relu_pool_proj"
  type: "ReLU"
  bottom: "inception_4d/pool_proj"
  top: "inception_4d/pool_proj"
}
layer {
  name: "inception_4d/output"
  type: "Concat"
  bottom: "inception_4d/1x1"
  bottom: "inception_4d/3x3"
  bottom: "inception_4d/5x5"
  bottom: "inception_4d/pool_proj"
  top: "inception_4d/output"
}
layer {
  name: "loss2/ave_pool"
  type: "Pooling"
  bottom: "inception_4d/output"
  top: "loss2/ave_pool"
  pooling_param {
    pool: AVE
    kernel_size: 5
    stride: 3
  }
}
layer {
  name: "loss2/conv"
  type: "Convolution"
  bottom: "loss2/ave_pool"
  top: "loss2/conv"
  param {
    lr_mult: 1
    decay_mult: 1
  }
  param {
    lr_mult: 2
    decay_mult: 0
  }
  convolution_param {
    num_output: 128
    kernel_size: 1
    weight_filler {
      type: "xavier"
      std: 0.08
    }
    bias_filler {
      type: "constant"
      value: 0.2
    }
  }
}
layer {
  name: "loss2/relu_conv"
  type: "ReLU"
  bottom: "loss2/conv"
  top: "loss2/conv"
}
layer {
  name: "loss2/fc"
  type: "InnerProduct"
  bottom: "loss2/conv"
  top: "loss2/fc"
  param {
    lr_mult: 1
    decay_mult: 1
  }
  param {
    lr_mult: 2
    decay_mult: 0
  }
  inner_product_param {
    num_output: 1024
    weight_filler {
      type: "xavier"
      std: 0.02
    }
    bias_filler {
      type: "constant"
      value: 0.2
    }
  }
}
layer {
  name: "loss2/relu_fc"
  type: "ReLU"
  bottom: "loss2/fc"
  top: "loss2/fc"
}
layer {
  name: "loss2/drop_fc"
  type: "Dropout"
  bottom: "loss2/fc"
  top: "loss2/fc"
  dropout_param {
    dropout_ratio: 0.7
  }
}
layer {
  name: "loss2/classifier_plantvillage"
  type: "InnerProduct"
  bottom: "loss2/fc"
  top: "loss2/classifier_plantvillage"
  param {
    lr_mult: 1
    decay_mult: 1
  }
  param {
    lr_mult: 2
    decay_mult: 0
  }
  inner_product_param {
    num_output: 38
    weight_filler {
      type: "xavier"
      std: 0.0009765625
    }
    bias_filler {
      type: "constant"
      value: 0
    }
  }
}
layer {
  name: "inception_4e/1x1"
  type: "Convolution"
  bottom: "inception_4d/output"
  top: "inception_4e/1x1"
  param {
    lr_mult: 1
    decay_mult: 1
  }
  param {
    lr_mult: 2
    decay_mult: 0
  }
  convolution_param {
    num_output: 256
    kernel_size: 1
    weight_filler {
      type: "xavier"
      std: 0.03
    }
    bias_filler {
      type: "constant"
      value: 0.2
    }
  }
}
layer {
  name: "inception_4e/relu_1x1"
  type: "ReLU"
  bottom: "inception_4e/1x1"
  top: "inception_4e/1x1"
}
layer {
  name: "inception_4e/3x3_reduce"
  type: "Convolution"
  bottom: "inception_4d/output"
  top: "inception_4e/3x3_reduce"
  param {
    lr_mult: 1
    decay_mult: 1
  }
  param {
    lr_mult: 2
    decay_mult: 0
  }
  convolution_param {
    num_output: 160
    kernel_size: 1
    weight_filler {
      type: "xavier"
      std: 0.09
    }
    bias_filler {
      type: "constant"
      value: 0.2
    }
  }
}
layer {
  name: "inception_4e/relu_3x3_reduce"
  type: "ReLU"
  bottom: "inception_4e/3x3_reduce"
  top: "inception_4e/3x3_reduce"
}
layer {
  name: "inception_4e/3x3"
  type: "Convolution"
  bottom: "inception_4e/3x3_reduce"
  top: "inception_4e/3x3"
  param {
    lr_mult: 1
    decay_mult: 1
  }
  param {
    lr_mult: 2
    decay_mult: 0
  }
  convolution_param {
    num_output: 320
    pad: 1
    kernel_size: 3
    weight_filler {
      type: "xavier"
      std: 0.03
    }
    bias_filler {
      type: "constant"
      value: 0.2
    }
  }
}
layer {
  name: "inception_4e/relu_3x3"
  type: "ReLU"
  bottom: "inception_4e/3x3"
  top: "inception_4e/3x3"
}
layer {
  name: "inception_4e/5x5_reduce"
  type: "Convolution"
  bottom: "inception_4d/output"
  top: "inception_4e/5x5_reduce"
  param {
    lr_mult: 1
    decay_mult: 1
  }
  param {
    lr_mult: 2
    decay_mult: 0
  }
  convolution_param {
    num_output: 32
    kernel_size: 1
    weight_filler {
      type: "xavier"
      std: 0.2
    }
    bias_filler {
      type: "constant"
      value: 0.2
    }
  }
}
layer {
  name: "inception_4e/relu_5x5_reduce"
  type: "ReLU"
  bottom: "inception_4e/5x5_reduce"
  top: "inception_4e/5x5_reduce"
}
layer {
  name: "inception_4e/5x5"
  type: "Convolution"
  bottom: "inception_4e/5x5_reduce"
  top: "inception_4e/
I0403 15:31:49.877902  3192 layer_factory.hpp:77] Creating layer data
I0403 15:31:49.878514  3192 net.cpp:91] Creating Layer data
I0403 15:31:49.878548  3192 net.cpp:399] data -> data
I0403 15:31:49.878600  3192 net.cpp:399] data -> label
I0403 15:31:49.878638  3192 data_transformer.cpp:25] Loading mean file from: /home/mohanty/data/final_dataset/lmdb/grayscale-50-50/mean.binaryproto
I0403 15:31:49.881314  3196 db_lmdb.cpp:38] Opened lmdb /home/mohanty/data/final_dataset/lmdb/grayscale-50-50/test_db
I0403 15:31:49.892217  3192 data_layer.cpp:41] output data size: 24,3,224,224
I0403 15:31:49.920595  3192 net.cpp:141] Setting up data
I0403 15:31:49.920663  3192 net.cpp:148] Top shape: 24 3 224 224 (3612672)
I0403 15:31:49.920687  3192 net.cpp:148] Top shape: 24 (24)
I0403 15:31:49.920702  3192 net.cpp:156] Memory required for data: 14450784
I0403 15:31:49.920730  3192 layer_factory.hpp:77] Creating layer label_data_1_split
I0403 15:31:49.920756  3192 net.cpp:91] Creating Layer label_data_1_split
I0403 15:31:49.920775  3192 net.cpp:425] label_data_1_split <- label
I0403 15:31:49.920807  3192 net.cpp:399] label_data_1_split -> label_data_1_split_0
I0403 15:31:49.920835  3192 net.cpp:399] label_data_1_split -> label_data_1_split_1
I0403 15:31:49.920857  3192 net.cpp:399] label_data_1_split -> label_data_1_split_2
I0403 15:31:49.920878  3192 net.cpp:399] label_data_1_split -> label_data_1_split_3
I0403 15:31:49.920899  3192 net.cpp:399] label_data_1_split -> label_data_1_split_4
I0403 15:31:49.920919  3192 net.cpp:399] label_data_1_split -> label_data_1_split_5
I0403 15:31:49.920940  3192 net.cpp:399] label_data_1_split -> label_data_1_split_6
I0403 15:31:49.920961  3192 net.cpp:399] label_data_1_split -> label_data_1_split_7
I0403 15:31:49.920980  3192 net.cpp:399] label_data_1_split -> label_data_1_split_8
I0403 15:31:49.921001  3192 net.cpp:399] label_data_1_split -> label_data_1_split_9
I0403 15:31:49.921118  3192 net.cpp:141] Setting up label_data_1_split
I0403 15:31:49.921141  3192 net.cpp:148] Top shape: 24 (24)
I0403 15:31:49.921171  3192 net.cpp:148] Top shape: 24 (24)
I0403 15:31:49.921188  3192 net.cpp:148] Top shape: 24 (24)
I0403 15:31:49.921205  3192 net.cpp:148] Top shape: 24 (24)
I0403 15:31:49.921221  3192 net.cpp:148] Top shape: 24 (24)
I0403 15:31:49.921236  3192 net.cpp:148] Top shape: 24 (24)
I0403 15:31:49.921257  3192 net.cpp:148] Top shape: 24 (24)
I0403 15:31:49.921275  3192 net.cpp:148] Top shape: 24 (24)
I0403 15:31:49.921291  3192 net.cpp:148] Top shape: 24 (24)
I0403 15:31:49.921308  3192 net.cpp:148] Top shape: 24 (24)
I0403 15:31:49.921353  3192 net.cpp:156] Memory required for data: 14451744
I0403 15:31:49.921370  3192 layer_factory.hpp:77] Creating layer conv1/7x7_s2
I0403 15:31:49.921403  3192 net.cpp:91] Creating Layer conv1/7x7_s2
I0403 15:31:49.921423  3192 net.cpp:425] conv1/7x7_s2 <- data
I0403 15:31:49.921457  3192 net.cpp:399] conv1/7x7_s2 -> conv1/7x7_s2
I0403 15:31:50.060709  3192 net.cpp:141] Setting up conv1/7x7_s2
I0403 15:31:50.060842  3192 net.cpp:148] Top shape: 24 64 112 112 (19267584)
I0403 15:31:50.060861  3192 net.cpp:156] Memory required for data: 91522080
I0403 15:31:50.060892  3192 layer_factory.hpp:77] Creating layer conv1/relu_7x7
I0403 15:31:50.060921  3192 net.cpp:91] Creating Layer conv1/relu_7x7
I0403 15:31:50.060940  3192 net.cpp:425] conv1/relu_7x7 <- conv1/7x7_s2
I0403 15:31:50.060959  3192 net.cpp:386] conv1/relu_7x7 -> conv1/7x7_s2 (in-place)
I0403 15:31:50.061219  3192 net.cpp:141] Setting up conv1/relu_7x7
I0403 15:31:50.061250  3192 net.cpp:148] Top shape: 24 64 112 112 (19267584)
I0403 15:31:50.061267  3192 net.cpp:156] Memory required for data: 168592416
I0403 15:31:50.061285  3192 layer_factory.hpp:77] Creating layer pool1/3x3_s2
I0403 15:31:50.061311  3192 net.cpp:91] Creating Layer pool1/3x3_s2
I0403 15:31:50.061328  3192 net.cpp:425] pool1/3x3_s2 <- conv1/7x7_s2
I0403 15:31:50.061347  3192 net.cpp:399] pool1/3x3_s2 -> pool1/3x3_s2
I0403 15:31:50.061421  3192 net.cpp:141] Setting up pool1/3x3_s2
I0403 15:31:50.061446  3192 net.cpp:148] Top shape: 24 64 56 56 (4816896)
I0403 15:31:50.061461  3192 net.cpp:156] Memory required for data: 187860000
I0403 15:31:50.061477  3192 layer_factory.hpp:77] Creating layer pool1/norm1
I0403 15:31:50.061502  3192 net.cpp:91] Creating Layer pool1/norm1
I0403 15:31:50.061519  3192 net.cpp:425] pool1/norm1 <- pool1/3x3_s2
I0403 15:31:50.061539  3192 net.cpp:399] pool1/norm1 -> pool1/norm1
I0403 15:31:50.061831  3192 net.cpp:141] Setting up pool1/norm1
I0403 15:31:50.061858  3192 net.cpp:148] Top shape: 24 64 56 56 (4816896)
I0403 15:31:50.061874  3192 net.cpp:156] Memory required for data: 207127584
I0403 15:31:50.061890  3192 layer_factory.hpp:77] Creating layer conv2/3x3_reduce
I0403 15:31:50.061914  3192 net.cpp:91] Creating Layer conv2/3x3_reduce
I0403 15:31:50.061933  3192 net.cpp:425] conv2/3x3_reduce <- pool1/norm1
I0403 15:31:50.061951  3192 net.cpp:399] conv2/3x3_reduce -> conv2/3x3_reduce
I0403 15:31:50.063346  3192 net.cpp:141] Setting up conv2/3x3_reduce
I0403 15:31:50.063377  3192 net.cpp:148] Top shape: 24 64 56 56 (4816896)
I0403 15:31:50.063395  3192 net.cpp:156] Memory required for data: 226395168
I0403 15:31:50.063416  3192 layer_factory.hpp:77] Creating layer conv2/relu_3x3_reduce
I0403 15:31:50.063436  3192 net.cpp:91] Creating Layer conv2/relu_3x3_reduce
I0403 15:31:50.063453  3192 net.cpp:425] conv2/relu_3x3_reduce <- conv2/3x3_reduce
I0403 15:31:50.063472  3192 net.cpp:386] conv2/relu_3x3_reduce -> conv2/3x3_reduce (in-place)
I0403 15:31:50.063733  3192 net.cpp:141] Setting up conv2/relu_3x3_reduce
I0403 15:31:50.063762  3192 net.cpp:148] Top shape: 24 64 56 56 (4816896)
I0403 15:31:50.063781  3192 net.cpp:156] Memory required for data: 245662752
I0403 15:31:50.063796  3192 layer_factory.hpp:77] Creating layer conv2/3x3
I0403 15:31:50.063819  3192 net.cpp:91] Creating Layer conv2/3x3
I0403 15:31:50.063838  3192 net.cpp:425] conv2/3x3 <- conv2/3x3_reduce
I0403 15:31:50.063858  3192 net.cpp:399] conv2/3x3 -> conv2/3x3
I0403 15:31:50.066208  3192 net.cpp:141] Setting up conv2/3x3
I0403 15:31:50.066243  3192 net.cpp:148] Top shape: 24 192 56 56 (14450688)
I0403 15:31:50.066263  3192 net.cpp:156] Memory required for data: 303465504
I0403 15:31:50.066287  3192 layer_factory.hpp:77] Creating layer conv2/relu_3x3
I0403 15:31:50.066306  3192 net.cpp:91] Creating Layer conv2/relu_3x3
I0403 15:31:50.066324  3192 net.cpp:425] conv2/relu_3x3 <- conv2/3x3
I0403 15:31:50.066344  3192 net.cpp:386] conv2/relu_3x3 -> conv2/3x3 (in-place)
I0403 15:31:50.066506  3192 net.cpp:141] Setting up conv2/relu_3x3
I0403 15:31:50.066534  3192 net.cpp:148] Top shape: 24 192 56 56 (14450688)
I0403 15:31:50.066579  3192 net.cpp:156] Memory required for data: 361268256
I0403 15:31:50.066596  3192 layer_factory.hpp:77] Creating layer conv2/norm2
I0403 15:31:50.066614  3192 net.cpp:91] Creating Layer conv2/norm2
I0403 15:31:50.066630  3192 net.cpp:425] conv2/norm2 <- conv2/3x3
I0403 15:31:50.066649  3192 net.cpp:399] conv2/norm2 -> conv2/norm2
I0403 15:31:50.066941  3192 net.cpp:141] Setting up conv2/norm2
I0403 15:31:50.066969  3192 net.cpp:148] Top shape: 24 192 56 56 (14450688)
I0403 15:31:50.066984  3192 net.cpp:156] Memory required for data: 419071008
I0403 15:31:50.067000  3192 layer_factory.hpp:77] Creating layer pool2/3x3_s2
I0403 15:31:50.067018  3192 net.cpp:91] Creating Layer pool2/3x3_s2
I0403 15:31:50.067035  3192 net.cpp:425] pool2/3x3_s2 <- conv2/norm2
I0403 15:31:50.067054  3192 net.cpp:399] pool2/3x3_s2 -> pool2/3x3_s2
I0403 15:31:50.067107  3192 net.cpp:141] Setting up pool2/3x3_s2
I0403 15:31:50.067131  3192 net.cpp:148] Top shape: 24 192 28 28 (3612672)
I0403 15:31:50.067145  3192 net.cpp:156] Memory required for data: 433521696
I0403 15:31:50.067162  3192 layer_factory.hpp:77] Creating layer pool2/3x3_s2_pool2/3x3_s2_0_split
I0403 15:31:50.067179  3192 net.cpp:91] Creating Layer pool2/3x3_s2_pool2/3x3_s2_0_split
I0403 15:31:50.067195  3192 net.cpp:425] pool2/3x3_s2_pool2/3x3_s2_0_split <- pool2/3x3_s2
I0403 15:31:50.067214  3192 net.cpp:399] pool2/3x3_s2_pool2/3x3_s2_0_split -> pool2/3x3_s2_pool2/3x3_s2_0_split_0
I0403 15:31:50.067234  3192 net.cpp:399] pool2/3x3_s2_pool2/3x3_s2_0_split -> pool2/3x3_s2_pool2/3x3_s2_0_split_1
I0403 15:31:50.067260  3192 net.cpp:399] pool2/3x3_s2_pool2/3x3_s2_0_split -> pool2/3x3_s2_pool2/3x3_s2_0_split_2
I0403 15:31:50.067281  3192 net.cpp:399] pool2/3x3_s2_pool2/3x3_s2_0_split -> pool2/3x3_s2_pool2/3x3_s2_0_split_3
I0403 15:31:50.067348  3192 net.cpp:141] Setting up pool2/3x3_s2_pool2/3x3_s2_0_split
I0403 15:31:50.067371  3192 net.cpp:148] Top shape: 24 192 28 28 (3612672)
I0403 15:31:50.067389  3192 net.cpp:148] Top shape: 24 192 28 28 (3612672)
I0403 15:31:50.067404  3192 net.cpp:148] Top shape: 24 192 28 28 (3612672)
I0403 15:31:50.067421  3192 net.cpp:148] Top shape: 24 192 28 28 (3612672)
I0403 15:31:50.067435  3192 net.cpp:156] Memory required for data: 491324448
I0403 15:31:50.067451  3192 layer_factory.hpp:77] Creating layer inception_3a/1x1
I0403 15:31:50.067473  3192 net.cpp:91] Creating Layer inception_3a/1x1
I0403 15:31:50.067490  3192 net.cpp:425] inception_3a/1x1 <- pool2/3x3_s2_pool2/3x3_s2_0_split_0
I0403 15:31:50.067509  3192 net.cpp:399] inception_3a/1x1 -> inception_3a/1x1
I0403 15:31:50.069080  3192 net.cpp:141] Setting up inception_3a/1x1
I0403 15:31:50.069111  3192 net.cpp:148] Top shape: 24 64 28 28 (1204224)
I0403 15:31:50.069128  3192 net.cpp:156] Memory required for data: 496141344
I0403 15:31:50.069149  3192 layer_factory.hpp:77] Creating layer inception_3a/relu_1x1
I0403 15:31:50.069167  3192 net.cpp:91] Creating Layer inception_3a/relu_1x1
I0403 15:31:50.069185  3192 net.cpp:425] inception_3a/relu_1x1 <- inception_3a/1x1
I0403 15:31:50.069203  3192 net.cpp:386] inception_3a/relu_1x1 -> inception_3a/1x1 (in-place)
I0403 15:31:50.069372  3192 net.cpp:141] Setting up inception_3a/relu_1x1
I0403 15:31:50.069401  3192 net.cpp:148] Top shape: 24 64 28 28 (1204224)
I0403 15:31:50.069416  3192 net.cpp:156] Memory required for data: 500958240
I0403 15:31:50.069432  3192 layer_factory.hpp:77] Creating layer inception_3a/3x3_reduce
I0403 15:31:50.069453  3192 net.cpp:91] Creating Layer inception_3a/3x3_reduce
I0403 15:31:50.069473  3192 net.cpp:425] inception_3a/3x3_reduce <- pool2/3x3_s2_pool2/3x3_s2_0_split_1
I0403 15:31:50.069494  3192 net.cpp:399] inception_3a/3x3_reduce -> inception_3a/3x3_reduce
I0403 15:31:50.071133  3192 net.cpp:141] Setting up inception_3a/3x3_reduce
I0403 15:31:50.071166  3192 net.cpp:148] Top shape: 24 96 28 28 (1806336)
I0403 15:31:50.071182  3192 net.cpp:156] Memory required for data: 508183584
I0403 15:31:50.071205  3192 layer_factory.hpp:77] Creating layer inception_3a/relu_3x3_reduce
I0403 15:31:50.071246  3192 net.cpp:91] Creating Layer inception_3a/relu_3x3_reduce
I0403 15:31:50.071266  3192 net.cpp:425] inception_3a/relu_3x3_reduce <- inception_3a/3x3_reduce
I0403 15:31:50.071285  3192 net.cpp:386] inception_3a/relu_3x3_reduce -> inception_3a/3x3_reduce (in-place)
I0403 15:31:50.071460  3192 net.cpp:141] Setting up inception_3a/relu_3x3_reduce
I0403 15:31:50.071487  3192 net.cpp:148] Top shape: 24 96 28 28 (1806336)
I0403 15:31:50.071503  3192 net.cpp:156] Memory required for data: 515408928
I0403 15:31:50.071519  3192 layer_factory.hpp:77] Creating layer inception_3a/3x3
I0403 15:31:50.071542  3192 net.cpp:91] Creating Layer inception_3a/3x3
I0403 15:31:50.071557  3192 net.cpp:425] inception_3a/3x3 <- inception_3a/3x3_reduce
I0403 15:31:50.071580  3192 net.cpp:399] inception_3a/3x3 -> inception_3a/3x3
I0403 15:31:50.073266  3192 net.cpp:141] Setting up inception_3a/3x3
I0403 15:31:50.073299  3192 net.cpp:148] Top shape: 24 128 28 28 (2408448)
I0403 15:31:50.073318  3192 net.cpp:156] Memory required for data: 525042720
I0403 15:31:50.073338  3192 layer_factory.hpp:77] Creating layer inception_3a/relu_3x3
I0403 15:31:50.073356  3192 net.cpp:91] Creating Layer inception_3a/relu_3x3
I0403 15:31:50.073372  3192 net.cpp:425] inception_3a/relu_3x3 <- inception_3a/3x3
I0403 15:31:50.073391  3192 net.cpp:386] inception_3a/relu_3x3 -> inception_3a/3x3 (in-place)
I0403 15:31:50.073670  3192 net.cpp:141] Setting up inception_3a/relu_3x3
I0403 15:31:50.073700  3192 net.cpp:148] Top shape: 24 128 28 28 (2408448)
I0403 15:31:50.073719  3192 net.cpp:156] Memory required for data: 534676512
I0403 15:31:50.073734  3192 layer_factory.hpp:77] Creating layer inception_3a/5x5_reduce
I0403 15:31:50.073757  3192 net.cpp:91] Creating Layer inception_3a/5x5_reduce
I0403 15:31:50.073776  3192 net.cpp:425] inception_3a/5x5_reduce <- pool2/3x3_s2_pool2/3x3_s2_0_split_2
I0403 15:31:50.073796  3192 net.cpp:399] inception_3a/5x5_reduce -> inception_3a/5x5_reduce
I0403 15:31:50.074766  3192 net.cpp:141] Setting up inception_3a/5x5_reduce
I0403 15:31:50.074798  3192 net.cpp:148] Top shape: 24 16 28 28 (301056)
I0403 15:31:50.074817  3192 net.cpp:156] Memory required for data: 535880736
I0403 15:31:50.074838  3192 layer_factory.hpp:77] Creating layer inception_3a/relu_5x5_reduce
I0403 15:31:50.074857  3192 net.cpp:91] Creating Layer inception_3a/relu_5x5_reduce
I0403 15:31:50.074874  3192 net.cpp:425] inception_3a/relu_5x5_reduce <- inception_3a/5x5_reduce
I0403 15:31:50.074895  3192 net.cpp:386] inception_3a/relu_5x5_reduce -> inception_3a/5x5_reduce (in-place)
I0403 15:31:50.075203  3192 net.cpp:141] Setting up inception_3a/relu_5x5_reduce
I0403 15:31:50.075230  3192 net.cpp:148] Top shape: 24 16 28 28 (301056)
I0403 15:31:50.075250  3192 net.cpp:156] Memory required for data: 537084960
I0403 15:31:50.075268  3192 layer_factory.hpp:77] Creating layer inception_3a/5x5
I0403 15:31:50.075290  3192 net.cpp:91] Creating Layer inception_3a/5x5
I0403 15:31:50.075309  3192 net.cpp:425] inception_3a/5x5 <- inception_3a/5x5_reduce
I0403 15:31:50.075331  3192 net.cpp:399] inception_3a/5x5 -> inception_3a/5x5
I0403 15:31:50.076370  3192 net.cpp:141] Setting up inception_3a/5x5
I0403 15:31:50.076400  3192 net.cpp:148] Top shape: 24 32 28 28 (602112)
I0403 15:31:50.076421  3192 net.cpp:156] Memory required for data: 539493408
I0403 15:31:50.076441  3192 layer_factory.hpp:77] Creating layer inception_3a/relu_5x5
I0403 15:31:50.076459  3192 net.cpp:91] Creating Layer inception_3a/relu_5x5
I0403 15:31:50.076477  3192 net.cpp:425] inception_3a/relu_5x5 <- inception_3a/5x5
I0403 15:31:50.076495  3192 net.cpp:386] inception_3a/relu_5x5 -> inception_3a/5x5 (in-place)
I0403 15:31:50.076671  3192 net.cpp:141] Setting up inception_3a/relu_5x5
I0403 15:31:50.076699  3192 net.cpp:148] Top shape: 24 32 28 28 (602112)
I0403 15:31:50.076715  3192 net.cpp:156] Memory required for data: 541901856
I0403 15:31:50.076730  3192 layer_factory.hpp:77] Creating layer inception_3a/pool
I0403 15:31:50.076750  3192 net.cpp:91] Creating Layer inception_3a/pool
I0403 15:31:50.076781  3192 net.cpp:425] inception_3a/pool <- pool2/3x3_s2_pool2/3x3_s2_0_split_3
I0403 15:31:50.076803  3192 net.cpp:399] inception_3a/pool -> inception_3a/pool
I0403 15:31:50.076864  3192 net.cpp:141] Setting up inception_3a/pool
I0403 15:31:50.076890  3192 net.cpp:148] Top shape: 24 192 28 28 (3612672)
I0403 15:31:50.076906  3192 net.cpp:156] Memory required for data: 556352544
I0403 15:31:50.076921  3192 layer_factory.hpp:77] Creating layer inception_3a/pool_proj
I0403 15:31:50.076941  3192 net.cpp:91] Creating Layer inception_3a/pool_proj
I0403 15:31:50.076958  3192 net.cpp:425] inception_3a/pool_proj <- inception_3a/pool
I0403 15:31:50.076979  3192 net.cpp:399] inception_3a/pool_proj -> inception_3a/pool_proj
I0403 15:31:50.077998  3192 net.cpp:141] Setting up inception_3a/pool_proj
I0403 15:31:50.078028  3192 net.cpp:148] Top shape: 24 32 28 28 (602112)
I0403 15:31:50.078045  3192 net.cpp:156] Memory required for data: 558760992
I0403 15:31:50.078070  3192 layer_factory.hpp:77] Creating layer inception_3a/relu_pool_proj
I0403 15:31:50.078089  3192 net.cpp:91] Creating Layer inception_3a/relu_pool_proj
I0403 15:31:50.078106  3192 net.cpp:425] inception_3a/relu_pool_proj <- inception_3a/pool_proj
I0403 15:31:50.078126  3192 net.cpp:386] inception_3a/relu_pool_proj -> inception_3a/pool_proj (in-place)
I0403 15:31:50.078413  3192 net.cpp:141] Setting up inception_3a/relu_pool_proj
I0403 15:31:50.078444  3192 net.cpp:148] Top shape: 24 32 28 28 (602112)
I0403 15:31:50.078459  3192 net.cpp:156] Memory required for data: 561169440
I0403 15:31:50.078475  3192 layer_factory.hpp:77] Creating layer inception_3a/output
I0403 15:31:50.078495  3192 net.cpp:91] Creating Layer inception_3a/output
I0403 15:31:50.078510  3192 net.cpp:425] inception_3a/output <- inception_3a/1x1
I0403 15:31:50.078528  3192 net.cpp:425] inception_3a/output <- inception_3a/3x3
I0403 15:31:50.078546  3192 net.cpp:425] inception_3a/output <- inception_3a/5x5
I0403 15:31:50.078562  3192 net.cpp:425] inception_3a/output <- inception_3a/pool_proj
I0403 15:31:50.078579  3192 net.cpp:399] inception_3a/output -> inception_3a/output
I0403 15:31:50.078627  3192 net.cpp:141] Setting up inception_3a/output
I0403 15:31:50.078651  3192 net.cpp:148] Top shape: 24 256 28 28 (4816896)
I0403 15:31:50.078666  3192 net.cpp:156] Memory required for data: 580437024
I0403 15:31:50.078681  3192 layer_factory.hpp:77] Creating layer inception_3a/output_inception_3a/output_0_split
I0403 15:31:50.078701  3192 net.cpp:91] Creating Layer inception_3a/output_inception_3a/output_0_split
I0403 15:31:50.078717  3192 net.cpp:425] inception_3a/output_inception_3a/output_0_split <- inception_3a/output
I0403 15:31:50.078735  3192 net.cpp:399] inception_3a/output_inception_3a/output_0_split -> inception_3a/output_inception_3a/output_0_split_0
I0403 15:31:50.078755  3192 net.cpp:399] inception_3a/output_inception_3a/output_0_split -> inception_3a/output_inception_3a/output_0_split_1
I0403 15:31:50.078783  3192 net.cpp:399] inception_3a/output_inception_3a/output_0_split -> inception_3a/output_inception_3a/output_0_split_2
I0403 15:31:50.078806  3192 net.cpp:399] inception_3a/output_inception_3a/output_0_split -> inception_3a/output_inception_3a/output_0_split_3
I0403 15:31:50.078882  3192 net.cpp:141] Setting up inception_3a/output_inception_3a/output_0_split
I0403 15:31:50.078907  3192 net.cpp:148] Top shape: 24 256 28 28 (4816896)
I0403 15:31:50.078924  3192 net.cpp:148] Top shape: 24 256 28 28 (4816896)
I0403 15:31:50.078940  3192 net.cpp:148] Top shape: 24 256 28 28 (4816896)
I0403 15:31:50.078956  3192 net.cpp:148] Top shape: 24 256 28 28 (4816896)
I0403 15:31:50.078970  3192 net.cpp:156] Memory required for data: 657507360
I0403 15:31:50.078985  3192 layer_factory.hpp:77] Creating layer inception_3b/1x1
I0403 15:31:50.079008  3192 net.cpp:91] Creating Layer inception_3b/1x1
I0403 15:31:50.079027  3192 net.cpp:425] inception_3b/1x1 <- inception_3a/output_inception_3a/output_0_split_0
I0403 15:31:50.079046  3192 net.cpp:399] inception_3b/1x1 -> inception_3b/1x1
I0403 15:31:50.080209  3192 net.cpp:141] Setting up inception_3b/1x1
I0403 15:31:50.080253  3192 net.cpp:148] Top shape: 24 128 28 28 (2408448)
I0403 15:31:50.080271  3192 net.cpp:156] Memory required for data: 667141152
I0403 15:31:50.080291  3192 layer_factory.hpp:77] Creating layer inception_3b/relu_1x1
I0403 15:31:50.080312  3192 net.cpp:91] Creating Layer inception_3b/relu_1x1
I0403 15:31:50.080330  3192 net.cpp:425] inception_3b/relu_1x1 <- inception_3b/1x1
I0403 15:31:50.080348  3192 net.cpp:386] inception_3b/relu_1x1 -> inception_3b/1x1 (in-place)
I0403 15:31:50.080526  3192 net.cpp:141] Setting up inception_3b/relu_1x1
I0403 15:31:50.080554  3192 net.cpp:148] Top shape: 24 128 28 28 (2408448)
I0403 15:31:50.080569  3192 net.cpp:156] Memory required for data: 676774944
I0403 15:31:50.080585  3192 layer_factory.hpp:77] Creating layer inception_3b/3x3_reduce
I0403 15:31:50.080608  3192 net.cpp:91] Creating Layer inception_3b/3x3_reduce
I0403 15:31:50.080626  3192 net.cpp:425] inception_3b/3x3_reduce <- inception_3a/output_inception_3a/output_0_split_1
I0403 15:31:50.080646  3192 net.cpp:399] inception_3b/3x3_reduce -> inception_3b/3x3_reduce
I0403 15:31:50.081823  3192 net.cpp:141] Setting up inception_3b/3x3_reduce
I0403 15:31:50.081852  3192 net.cpp:148] Top shape: 24 128 28 28 (2408448)
I0403 15:31:50.081869  3192 net.cpp:156] Memory required for data: 686408736
I0403 15:31:50.081889  3192 layer_factory.hpp:77] Creating layer inception_3b/relu_3x3_reduce
I0403 15:31:50.081912  3192 net.cpp:91] Creating Layer inception_3b/relu_3x3_reduce
I0403 15:31:50.081929  3192 net.cpp:425] inception_3b/relu_3x3_reduce <- inception_3b/3x3_reduce
I0403 15:31:50.081948  3192 net.cpp:386] inception_3b/relu_3x3_reduce -> inception_3b/3x3_reduce (in-place)
I0403 15:31:50.082124  3192 net.cpp:141] Setting up inception_3b/relu_3x3_reduce
I0403 15:31:50.082151  3192 net.cpp:148] Top shape: 24 128 28 28 (2408448)
I0403 15:31:50.082167  3192 net.cpp:156] Memory required for data: 696042528
I0403 15:31:50.082183  3192 layer_factory.hpp:77] Creating layer inception_3b/3x3
I0403 15:31:50.082209  3192 net.cpp:91] Creating Layer inception_3b/3x3
I0403 15:31:50.082228  3192 net.cpp:425] inception_3b/3x3 <- inception_3b/3x3_reduce
I0403 15:31:50.082263  3192 net.cpp:399] inception_3b/3x3 -> inception_3b/3x3
I0403 15:31:50.085229  3192 net.cpp:141] Setting up inception_3b/3x3
I0403 15:31:50.085265  3192 net.cpp:148] Top shape: 24 192 28 28 (3612672)
I0403 15:31:50.085283  3192 net.cpp:156] Memory required for data: 710493216
I0403 15:31:50.085302  3192 layer_factory.hpp:77] Creating layer inception_3b/relu_3x3
I0403 15:31:50.085321  3192 net.cpp:91] Creating Layer inception_3b/relu_3x3
I0403 15:31:50.085337  3192 net.cpp:425] inception_3b/relu_3x3 <- inception_3b/3x3
I0403 15:31:50.085355  3192 net.cpp:386] inception_3b/relu_3x3 -> inception_3b/3x3 (in-place)
I0403 15:31:50.085649  3192 net.cpp:141] Setting up inception_3b/relu_3x3
I0403 15:31:50.085678  3192 net.cpp:148] Top shape: 24 192 28 28 (3612672)
I0403 15:31:50.085695  3192 net.cpp:156] Memory required for data: 724943904
I0403 15:31:50.085711  3192 layer_factory.hpp:77] Creating layer inception_3b/5x5_reduce
I0403 15:31:50.085733  3192 net.cpp:91] Creating Layer inception_3b/5x5_reduce
I0403 15:31:50.085750  3192 net.cpp:425] inception_3b/5x5_reduce <- inception_3a/output_inception_3a/output_0_split_2
I0403 15:31:50.085770  3192 net.cpp:399] inception_3b/5x5_reduce -> inception_3b/5x5_reduce
I0403 15:31:50.086787  3192 net.cpp:141] Setting up inception_3b/5x5_reduce
I0403 15:31:50.086819  3192 net.cpp:148] Top shape: 24 32 28 28 (602112)
I0403 15:31:50.086838  3192 net.cpp:156] Memory required for data: 727352352
I0403 15:31:50.086856  3192 layer_factory.hpp:77] Creating layer inception_3b/relu_5x5_reduce
I0403 15:31:50.086875  3192 net.cpp:91] Creating Layer inception_3b/relu_5x5_reduce
I0403 15:31:50.086892  3192 net.cpp:425] inception_3b/relu_5x5_reduce <- inception_3b/5x5_reduce
I0403 15:31:50.086910  3192 net.cpp:386] inception_3b/relu_5x5_reduce -> inception_3b/5x5_reduce (in-place)
I0403 15:31:50.087106  3192 net.cpp:141] Setting up inception_3b/relu_5x5_reduce
I0403 15:31:50.087134  3192 net.cpp:148] Top shape: 24 32 28 28 (602112)
I0403 15:31:50.087152  3192 net.cpp:156] Memory required for data: 729760800
I0403 15:31:50.087167  3192 layer_factory.hpp:77] Creating layer inception_3b/5x5
I0403 15:31:50.087190  3192 net.cpp:91] Creating Layer inception_3b/5x5
I0403 15:31:50.087208  3192 net.cpp:425] inception_3b/5x5 <- inception_3b/5x5_reduce
I0403 15:31:50.087230  3192 net.cpp:399] inception_3b/5x5 -> inception_3b/5x5
I0403 15:31:50.089223  3192 net.cpp:141] Setting up inception_3b/5x5
I0403 15:31:50.089257  3192 net.cpp:148] Top shape: 24 96 28 28 (1806336)
I0403 15:31:50.089275  3192 net.cpp:156] Memory required for data: 736986144
I0403 15:31:50.089294  3192 layer_factory.hpp:77] Creating layer inception_3b/relu_5x5
I0403 15:31:50.089315  3192 net.cpp:91] Creating Layer inception_3b/relu_5x5
I0403 15:31:50.089331  3192 net.cpp:425] inception_3b/relu_5x5 <- inception_3b/5x5
I0403 15:31:50.089349  3192 net.cpp:386] inception_3b/relu_5x5 -> inception_3b/5x5 (in-place)
I0403 15:31:50.089545  3192 net.cpp:141] Setting up inception_3b/relu_5x5
I0403 15:31:50.089570  3192 net.cpp:148] Top shape: 24 96 28 28 (1806336)
I0403 15:31:50.089584  3192 net.cpp:156] Memory required for data: 744211488
I0403 15:31:50.089598  3192 layer_factory.hpp:77] Creating layer inception_3b/pool
I0403 15:31:50.089617  3192 net.cpp:91] Creating Layer inception_3b/pool
I0403 15:31:50.089632  3192 net.cpp:425] inception_3b/pool <- inception_3a/output_inception_3a/output_0_split_3
I0403 15:31:50.089650  3192 net.cpp:399] inception_3b/pool -> inception_3b/pool
I0403 15:31:50.089706  3192 net.cpp:141] Setting up inception_3b/pool
I0403 15:31:50.089728  3192 net.cpp:148] Top shape: 24 256 28 28 (4816896)
I0403 15:31:50.089743  3192 net.cpp:156] Memory required for data: 763479072
I0403 15:31:50.089757  3192 layer_factory.hpp:77] Creating layer inception_3b/pool_proj
I0403 15:31:50.089779  3192 net.cpp:91] Creating Layer inception_3b/pool_proj
I0403 15:31:50.089797  3192 net.cpp:425] inception_3b/pool_proj <- inception_3b/pool
I0403 15:31:50.089818  3192 net.cpp:399] inception_3b/pool_proj -> inception_3b/pool_proj
I0403 15:31:50.090867  3192 net.cpp:141] Setting up inception_3b/pool_proj
I0403 15:31:50.090893  3192 net.cpp:148] Top shape: 24 64 28 28 (1204224)
I0403 15:31:50.090910  3192 net.cpp:156] Memory required for data: 768295968
I0403 15:31:50.090929  3192 layer_factory.hpp:77] Creating layer inception_3b/relu_pool_proj
I0403 15:31:50.090945  3192 net.cpp:91] Creating Layer inception_3b/relu_pool_proj
I0403 15:31:50.090961  3192 net.cpp:425] inception_3b/relu_pool_proj <- inception_3b/pool_proj
I0403 15:31:50.090981  3192 net.cpp:386] inception_3b/relu_pool_proj -> inception_3b/pool_proj (in-place)
I0403 15:31:50.091377  3192 net.cpp:141] Setting up inception_3b/relu_pool_proj
I0403 15:31:50.091403  3192 net.cpp:148] Top shape: 24 64 28 28 (1204224)
I0403 15:31:50.091418  3192 net.cpp:156] Memory required for data: 773112864
I0403 15:31:50.091433  3192 layer_factory.hpp:77] Creating layer inception_3b/output
I0403 15:31:50.091450  3192 net.cpp:91] Creating Layer inception_3b/output
I0403 15:31:50.091465  3192 net.cpp:425] inception_3b/output <- inception_3b/1x1
I0403 15:31:50.091482  3192 net.cpp:425] inception_3b/output <- inception_3b/3x3
I0403 15:31:50.091498  3192 net.cpp:425] inception_3b/output <- inception_3b/5x5
I0403 15:31:50.091514  3192 net.cpp:425] inception_3b/output <- inception_3b/pool_proj
I0403 15:31:50.091533  3192 net.cpp:399] inception_3b/output -> inception_3b/output
I0403 15:31:50.091578  3192 net.cpp:141] Setting up inception_3b/output
I0403 15:31:50.091600  3192 net.cpp:148] Top shape: 24 480 28 28 (9031680)
I0403 15:31:50.091619  3192 net.cpp:156] Memory required for data: 809239584
I0403 15:31:50.091634  3192 layer_factory.hpp:77] Creating layer pool3/3x3_s2
I0403 15:31:50.091651  3192 net.cpp:91] Creating Layer pool3/3x3_s2
I0403 15:31:50.091666  3192 net.cpp:425] pool3/3x3_s2 <- inception_3b/output
I0403 15:31:50.091699  3192 net.cpp:399] pool3/3x3_s2 -> pool3/3x3_s2
I0403 15:31:50.091759  3192 net.cpp:141] Setting up pool3/3x3_s2
I0403 15:31:50.091783  3192 net.cpp:148] Top shape: 24 480 14 14 (2257920)
I0403 15:31:50.091797  3192 net.cpp:156] Memory required for data: 818271264
I0403 15:31:50.091812  3192 layer_factory.hpp:77] Creating layer pool3/3x3_s2_pool3/3x3_s2_0_split
I0403 15:31:50.091830  3192 net.cpp:91] Creating Layer pool3/3x3_s2_pool3/3x3_s2_0_split
I0403 15:31:50.091845  3192 net.cpp:425] pool3/3x3_s2_pool3/3x3_s2_0_split <- pool3/3x3_s2
I0403 15:31:50.091864  3192 net.cpp:399] pool3/3x3_s2_pool3/3x3_s2_0_split -> pool3/3x3_s2_pool3/3x3_s2_0_split_0
I0403 15:31:50.091884  3192 net.cpp:399] pool3/3x3_s2_pool3/3x3_s2_0_split -> pool3/3x3_s2_pool3/3x3_s2_0_split_1
I0403 15:31:50.091905  3192 net.cpp:399] pool3/3x3_s2_pool3/3x3_s2_0_split -> pool3/3x3_s2_pool3/3x3_s2_0_split_2
I0403 15:31:50.091924  3192 net.cpp:399] pool3/3x3_s2_pool3/3x3_s2_0_split -> pool3/3x3_s2_pool3/3x3_s2_0_split_3
I0403 15:31:50.092000  3192 net.cpp:141] Setting up pool3/3x3_s2_pool3/3x3_s2_0_split
I0403 15:31:50.092025  3192 net.cpp:148] Top shape: 24 480 14 14 (2257920)
I0403 15:31:50.092042  3192 net.cpp:148] Top shape: 24 480 14 14 (2257920)
I0403 15:31:50.092058  3192 net.cpp:148] Top shape: 24 480 14 14 (2257920)
I0403 15:31:50.092074  3192 net.cpp:148] Top shape: 24 480 14 14 (2257920)
I0403 15:31:50.092088  3192 net.cpp:156] Memory required for data: 854397984
I0403 15:31:50.092103  3192 layer_factory.hpp:77] Creating layer inception_4a/1x1
I0403 15:31:50.092124  3192 net.cpp:91] Creating Layer inception_4a/1x1
I0403 15:31:50.092141  3192 net.cpp:425] inception_4a/1x1 <- pool3/3x3_s2_pool3/3x3_s2_0_split_0
I0403 15:31:50.092162  3192 net.cpp:399] inception_4a/1x1 -> inception_4a/1x1
I0403 15:31:50.093745  3192 net.cpp:141] Setting up inception_4a/1x1
I0403 15:31:50.093775  3192 net.cpp:148] Top shape: 24 192 14 14 (903168)
I0403 15:31:50.093791  3192 net.cpp:156] Memory required for data: 858010656
I0403 15:31:50.093808  3192 layer_factory.hpp:77] Creating layer inception_4a/relu_1x1
I0403 15:31:50.093829  3192 net.cpp:91] Creating Layer inception_4a/relu_1x1
I0403 15:31:50.093847  3192 net.cpp:425] inception_4a/relu_1x1 <- inception_4a/1x1
I0403 15:31:50.093865  3192 net.cpp:386] inception_4a/relu_1x1 -> inception_4a/1x1 (in-place)
I0403 15:31:50.094048  3192 net.cpp:141] Setting up inception_4a/relu_1x1
I0403 15:31:50.094071  3192 net.cpp:148] Top shape: 24 192 14 14 (903168)
I0403 15:31:50.094086  3192 net.cpp:156] Memory required for data: 861623328
I0403 15:31:50.094100  3192 layer_factory.hpp:77] Creating layer inception_4a/3x3_reduce
I0403 15:31:50.094123  3192 net.cpp:91] Creating Layer inception_4a/3x3_reduce
I0403 15:31:50.094141  3192 net.cpp:425] inception_4a/3x3_reduce <- pool3/3x3_s2_pool3/3x3_s2_0_split_1
I0403 15:31:50.094163  3192 net.cpp:399] inception_4a/3x3_reduce -> inception_4a/3x3_reduce
I0403 15:31:50.095434  3192 net.cpp:141] Setting up inception_4a/3x3_reduce
I0403 15:31:50.095463  3192 net.cpp:148] Top shape: 24 96 14 14 (451584)
I0403 15:31:50.095482  3192 net.cpp:156] Memory required for data: 863429664
I0403 15:31:50.095507  3192 layer_factory.hpp:77] Creating layer inception_4a/relu_3x3_reduce
I0403 15:31:50.095526  3192 net.cpp:91] Creating Layer inception_4a/relu_3x3_reduce
I0403 15:31:50.095543  3192 net.cpp:425] inception_4a/relu_3x3_reduce <- inception_4a/3x3_reduce
I0403 15:31:50.095563  3192 net.cpp:386] inception_4a/relu_3x3_reduce -> inception_4a/3x3_reduce (in-place)
I0403 15:31:50.095736  3192 net.cpp:141] Setting up inception_4a/relu_3x3_reduce
I0403 15:31:50.095760  3192 net.cpp:148] Top shape: 24 96 14 14 (451584)
I0403 15:31:50.095775  3192 net.cpp:156] Memory required for data: 865236000
I0403 15:31:50.095790  3192 layer_factory.hpp:77] Creating layer inception_4a/3x3
I0403 15:31:50.095813  3192 net.cpp:91] Creating Layer inception_4a/3x3
I0403 15:31:50.095830  3192 net.cpp:425] inception_4a/3x3 <- inception_4a/3x3_reduce
I0403 15:31:50.095851  3192 net.cpp:399] inception_4a/3x3 -> inception_4a/3x3
I0403 15:31:50.098537  3192 net.cpp:141] Setting up inception_4a/3x3
I0403 15:31:50.098567  3192 net.cpp:148] Top shape: 24 208 14 14 (978432)
I0403 15:31:50.098583  3192 net.cpp:156] Memory required for data: 869149728
I0403 15:31:50.098603  3192 layer_factory.hpp:77] Creating layer inception_4a/relu_3x3
I0403 15:31:50.098625  3192 net.cpp:91] Creating Layer inception_4a/relu_3x3
I0403 15:31:50.098644  3192 net.cpp:425] inception_4a/relu_3x3 <- inception_4a/3x3
I0403 15:31:50.098661  3192 net.cpp:386] inception_4a/relu_3x3 -> inception_4a/3x3 (in-place)
I0403 15:31:50.098934  3192 net.cpp:141] Setting up inception_4a/relu_3x3
I0403 15:31:50.098961  3192 net.cpp:148] Top shape: 24 208 14 14 (978432)
I0403 15:31:50.098978  3192 net.cpp:156] Memory required for data: 873063456
I0403 15:31:50.098994  3192 layer_factory.hpp:77] Creating layer inception_4a/5x5_reduce
I0403 15:31:50.099017  3192 net.cpp:91] Creating Layer inception_4a/5x5_reduce
I0403 15:31:50.099035  3192 net.cpp:425] inception_4a/5x5_reduce <- pool3/3x3_s2_pool3/3x3_s2_0_split_2
I0403 15:31:50.099057  3192 net.cpp:399] inception_4a/5x5_reduce -> inception_4a/5x5_reduce
I0403 15:31:50.100106  3192 net.cpp:141] Setting up inception_4a/5x5_reduce
I0403 15:31:50.100133  3192 net.cpp:148] Top shape: 24 16 14 14 (75264)
I0403 15:31:50.100149  3192 net.cpp:156] Memory required for data: 873364512
I0403 15:31:50.100168  3192 layer_factory.hpp:77] Creating layer inception_4a/relu_5x5_reduce
I0403 15:31:50.100188  3192 net.cpp:91] Creating Layer inception_4a/relu_5x5_reduce
I0403 15:31:50.100205  3192 net.cpp:425] inception_4a/relu_5x5_reduce <- inception_4a/5x5_reduce
I0403 15:31:50.100222  3192 net.cpp:386] inception_4a/relu_5x5_reduce -> inception_4a/5x5_reduce (in-place)
I0403 15:31:50.100404  3192 net.cpp:141] Setting up inception_4a/relu_5x5_reduce
I0403 15:31:50.100430  3192 net.cpp:148] Top shape: 24 16 14 14 (75264)
I0403 15:31:50.100446  3192 net.cpp:156] Memory required for data: 873665568
I0403 15:31:50.100461  3192 layer_factory.hpp:77] Creating layer inception_4a/5x5
I0403 15:31:50.100483  3192 net.cpp:91] Creating Layer inception_4a/5x5
I0403 15:31:50.100500  3192 net.cpp:425] inception_4a/5x5 <- inception_4a/5x5_reduce
I0403 15:31:50.100519  3192 net.cpp:399] inception_4a/5x5 -> inception_4a/5x5
I0403 15:31:50.101596  3192 net.cpp:141] Setting up inception_4a/5x5
I0403 15:31:50.101624  3192 net.cpp:148] Top shape: 24 48 14 14 (225792)
I0403 15:31:50.101641  3192 net.cpp:156] Memory required for data: 874568736
I0403 15:31:50.101661  3192 layer_factory.hpp:77] Creating layer inception_4a/relu_5x5
I0403 15:31:50.101680  3192 net.cpp:91] Creating Layer inception_4a/relu_5x5
I0403 15:31:50.101696  3192 net.cpp:425] inception_4a/relu_5x5 <- inception_4a/5x5
I0403 15:31:50.101717  3192 net.cpp:386] inception_4a/relu_5x5 -> inception_4a/5x5 (in-place)
I0403 15:31:50.101894  3192 net.cpp:141] Setting up inception_4a/relu_5x5
I0403 15:31:50.101919  3192 net.cpp:148] Top shape: 24 48 14 14 (225792)
I0403 15:31:50.101934  3192 net.cpp:156] Memory required for data: 875471904
I0403 15:31:50.101949  3192 layer_factory.hpp:77] Creating layer inception_4a/pool
I0403 15:31:50.101969  3192 net.cpp:91] Creating Layer inception_4a/pool
I0403 15:31:50.101985  3192 net.cpp:425] inception_4a/pool <- pool3/3x3_s2_pool3/3x3_s2_0_split_3
I0403 15:31:50.102004  3192 net.cpp:399] inception_4a/pool -> inception_4a/pool
I0403 15:31:50.102066  3192 net.cpp:141] Setting up inception_4a/pool
I0403 15:31:50.102089  3192 net.cpp:148] Top shape: 24 480 14 14 (2257920)
I0403 15:31:50.102103  3192 net.cpp:156] Memory required for data: 884503584
I0403 15:31:50.102118  3192 layer_factory.hpp:77] Creating layer inception_4a/pool_proj
I0403 15:31:50.102140  3192 net.cpp:91] Creating Layer inception_4a/pool_proj
I0403 15:31:50.102157  3192 net.cpp:425] inception_4a/pool_proj <- inception_4a/pool
I0403 15:31:50.102179  3192 net.cpp:399] inception_4a/pool_proj -> inception_4a/pool_proj
I0403 15:31:50.103341  3192 net.cpp:141] Setting up inception_4a/pool_proj
I0403 15:31:50.103370  3192 net.cpp:148] Top shape: 24 64 14 14 (301056)
I0403 15:31:50.103401  3192 net.cpp:156] Memory required for data: 885707808
I0403 15:31:50.103422  3192 layer_factory.hpp:77] Creating layer inception_4a/relu_pool_proj
I0403 15:31:50.103442  3192 net.cpp:91] Creating Layer inception_4a/relu_pool_proj
I0403 15:31:50.103459  3192 net.cpp:425] inception_4a/relu_pool_proj <- inception_4a/pool_proj
I0403 15:31:50.103482  3192 net.cpp:386] inception_4a/relu_pool_proj -> inception_4a/pool_proj (in-place)
I0403 15:31:50.103762  3192 net.cpp:141] Setting up inception_4a/relu_pool_proj
I0403 15:31:50.103790  3192 net.cpp:148] Top shape: 24 64 14 14 (301056)
I0403 15:31:50.103806  3192 net.cpp:156] Memory required for data: 886912032
I0403 15:31:50.103822  3192 layer_factory.hpp:77] Creating layer inception_4a/output
I0403 15:31:50.103840  3192 net.cpp:91] Creating Layer inception_4a/output
I0403 15:31:50.103857  3192 net.cpp:425] inception_4a/output <- inception_4a/1x1
I0403 15:31:50.103873  3192 net.cpp:425] inception_4a/output <- inception_4a/3x3
I0403 15:31:50.103890  3192 net.cpp:425] inception_4a/output <- inception_4a/5x5
I0403 15:31:50.103906  3192 net.cpp:425] inception_4a/output <- inception_4a/pool_proj
I0403 15:31:50.103925  3192 net.cpp:399] inception_4a/output -> inception_4a/output
I0403 15:31:50.103970  3192 net.cpp:141] Setting up inception_4a/output
I0403 15:31:50.103994  3192 net.cpp:148] Top shape: 24 512 14 14 (2408448)
I0403 15:31:50.104009  3192 net.cpp:156] Memory required for data: 896545824
I0403 15:31:50.104024  3192 layer_factory.hpp:77] Creating layer inception_4a/output_inception_4a/output_0_split
I0403 15:31:50.104041  3192 net.cpp:91] Creating Layer inception_4a/output_inception_4a/output_0_split
I0403 15:31:50.104058  3192 net.cpp:425] inception_4a/output_inception_4a/output_0_split <- inception_4a/output
I0403 15:31:50.104076  3192 net.cpp:399] inception_4a/output_inception_4a/output_0_split -> inception_4a/output_inception_4a/output_0_split_0
I0403 15:31:50.104099  3192 net.cpp:399] inception_4a/output_inception_4a/output_0_split -> inception_4a/output_inception_4a/output_0_split_1
I0403 15:31:50.104121  3192 net.cpp:399] inception_4a/output_inception_4a/output_0_split -> inception_4a/output_inception_4a/output_0_split_2
I0403 15:31:50.104143  3192 net.cpp:399] inception_4a/output_inception_4a/output_0_split -> inception_4a/output_inception_4a/output_0_split_3
I0403 15:31:50.104163  3192 net.cpp:399] inception_4a/output_inception_4a/output_0_split -> inception_4a/output_inception_4a/output_0_split_4
I0403 15:31:50.104261  3192 net.cpp:141] Setting up inception_4a/output_inception_4a/output_0_split
I0403 15:31:50.104285  3192 net.cpp:148] Top shape: 24 512 14 14 (2408448)
I0403 15:31:50.104305  3192 net.cpp:148] Top shape: 24 512 14 14 (2408448)
I0403 15:31:50.104321  3192 net.cpp:148] Top shape: 24 512 14 14 (2408448)
I0403 15:31:50.104338  3192 net.cpp:148] Top shape: 24 512 14 14 (2408448)
I0403 15:31:50.104353  3192 net.cpp:148] Top shape: 24 512 14 14 (2408448)
I0403 15:31:50.104367  3192 net.cpp:156] Memory required for data: 944714784
I0403 15:31:50.104382  3192 layer_factory.hpp:77] Creating layer loss1/ave_pool
I0403 15:31:50.104400  3192 net.cpp:91] Creating Layer loss1/ave_pool
I0403 15:31:50.104416  3192 net.cpp:425] loss1/ave_pool <- inception_4a/output_inception_4a/output_0_split_0
I0403 15:31:50.104434  3192 net.cpp:399] loss1/ave_pool -> loss1/ave_pool
I0403 15:31:50.104640  3192 net.cpp:141] Setting up loss1/ave_pool
I0403 15:31:50.104665  3192 net.cpp:148] Top shape: 24 512 4 4 (196608)
I0403 15:31:50.104679  3192 net.cpp:156] Memory required for data: 945501216
I0403 15:31:50.104693  3192 layer_factory.hpp:77] Creating layer loss1/conv
I0403 15:31:50.104717  3192 net.cpp:91] Creating Layer loss1/conv
I0403 15:31:50.104733  3192 net.cpp:425] loss1/conv <- loss1/ave_pool
I0403 15:31:50.104753  3192 net.cpp:399] loss1/conv -> loss1/conv
I0403 15:31:50.106154  3192 net.cpp:141] Setting up loss1/conv
I0403 15:31:50.106184  3192 net.cpp:148] Top shape: 24 128 4 4 (49152)
I0403 15:31:50.106215  3192 net.cpp:156] Memory required for data: 945697824
I0403 15:31:50.106236  3192 layer_factory.hpp:77] Creating layer loss1/relu_conv
I0403 15:31:50.106264  3192 net.cpp:91] Creating Layer loss1/relu_conv
I0403 15:31:50.106283  3192 net.cpp:425] loss1/relu_conv <- loss1/conv
I0403 15:31:50.106302  3192 net.cpp:386] loss1/relu_conv -> loss1/conv (in-place)
I0403 15:31:50.106583  3192 net.cpp:141] Setting up loss1/relu_conv
I0403 15:31:50.106609  3192 net.cpp:148] Top shape: 24 128 4 4 (49152)
I0403 15:31:50.106624  3192 net.cpp:156] Memory required for data: 945894432
I0403 15:31:50.106639  3192 layer_factory.hpp:77] Creating layer loss1/fc
I0403 15:31:50.106667  3192 net.cpp:91] Creating Layer loss1/fc
I0403 15:31:50.106684  3192 net.cpp:425] loss1/fc <- loss1/conv
I0403 15:31:50.106703  3192 net.cpp:399] loss1/fc -> loss1/fc
I0403 15:31:50.123872  3192 net.cpp:141] Setting up loss1/fc
I0403 15:31:50.123905  3192 net.cpp:148] Top shape: 24 1024 (24576)
I0403 15:31:50.123921  3192 net.cpp:156] Memory required for data: 945992736
I0403 15:31:50.123941  3192 layer_factory.hpp:77] Creating layer loss1/relu_fc
I0403 15:31:50.123960  3192 net.cpp:91] Creating Layer loss1/relu_fc
I0403 15:31:50.123975  3192 net.cpp:425] loss1/relu_fc <- loss1/fc
I0403 15:31:50.123994  3192 net.cpp:386] loss1/relu_fc -> loss1/fc (in-place)
I0403 15:31:50.124176  3192 net.cpp:141] Setting up loss1/relu_fc
I0403 15:31:50.124202  3192 net.cpp:148] Top shape: 24 1024 (24576)
I0403 15:31:50.124218  3192 net.cpp:156] Memory required for data: 946091040
I0403 15:31:50.124233  3192 layer_factory.hpp:77] Creating layer loss1/drop_fc
I0403 15:31:50.124264  3192 net.cpp:91] Creating Layer loss1/drop_fc
I0403 15:31:50.124282  3192 net.cpp:425] loss1/drop_fc <- loss1/fc
I0403 15:31:50.124300  3192 net.cpp:386] loss1/drop_fc -> loss1/fc (in-place)
I0403 15:31:50.124348  3192 net.cpp:141] Setting up loss1/drop_fc
I0403 15:31:50.124374  3192 net.cpp:148] Top shape: 24 1024 (24576)
I0403 15:31:50.124389  3192 net.cpp:156] Memory required for data: 946189344
I0403 15:31:50.124405  3192 layer_factory.hpp:77] Creating layer loss1/classifier_plantvillage
I0403 15:31:50.124423  3192 net.cpp:91] Creating Layer loss1/classifier_plantvillage
I0403 15:31:50.124439  3192 net.cpp:425] loss1/classifier_plantvillage <- loss1/fc
I0403 15:31:50.124457  3192 net.cpp:399] loss1/classifier_plantvillage -> loss1/classifier_plantvillage
I0403 15:31:50.125334  3192 net.cpp:141] Setting up loss1/classifier_plantvillage
I0403 15:31:50.125361  3192 net.cpp:148] Top shape: 24 38 (912)
I0403 15:31:50.125380  3192 net.cpp:156] Memory required for data: 946192992
I0403 15:31:50.125398  3192 layer_factory.hpp:77] Creating layer loss1/classifier_plantvillage_loss1/classifier_plantvillage_0_split
I0403 15:31:50.125418  3192 net.cpp:91] Creating Layer loss1/classifier_plantvillage_loss1/classifier_plantvillage_0_split
I0403 15:31:50.125435  3192 net.cpp:425] loss1/classifier_plantvillage_loss1/classifier_plantvillage_0_split <- loss1/classifier_plantvillage
I0403 15:31:50.125452  3192 net.cpp:399] loss1/classifier_plantvillage_loss1/classifier_plantvillage_0_split -> loss1/classifier_plantvillage_loss1/classifier_plantvillage_0_split_0
I0403 15:31:50.125473  3192 net.cpp:399] loss1/classifier_plantvillage_loss1/classifier_plantvillage_0_split -> loss1/classifier_plantvillage_loss1/classifier_plantvillage_0_split_1
I0403 15:31:50.125494  3192 net.cpp:399] loss1/classifier_plantvillage_loss1/classifier_plantvillage_0_split -> loss1/classifier_plantvillage_loss1/classifier_plantvillage_0_split_2
I0403 15:31:50.125558  3192 net.cpp:141] Setting up loss1/classifier_plantvillage_loss1/classifier_plantvillage_0_split
I0403 15:31:50.125582  3192 net.cpp:148] Top shape: 24 38 (912)
I0403 15:31:50.125599  3192 net.cpp:148] Top shape: 24 38 (912)
I0403 15:31:50.125614  3192 net.cpp:148] Top shape: 24 38 (912)
I0403 15:31:50.125628  3192 net.cpp:156] Memory required for data: 946203936
I0403 15:31:50.125643  3192 layer_factory.hpp:77] Creating layer inception_4b/1x1
I0403 15:31:50.125663  3192 net.cpp:91] Creating Layer inception_4b/1x1
I0403 15:31:50.125694  3192 net.cpp:425] inception_4b/1x1 <- inception_4a/output_inception_4a/output_0_split_1
I0403 15:31:50.125715  3192 net.cpp:399] inception_4b/1x1 -> inception_4b/1x1
I0403 15:31:50.127315  3192 net.cpp:141] Setting up inception_4b/1x1
I0403 15:31:50.127344  3192 net.cpp:148] Top shape: 24 160 14 14 (752640)
I0403 15:31:50.127362  3192 net.cpp:156] Memory required for data: 949214496
I0403 15:31:50.127380  3192 layer_factory.hpp:77] Creating layer inception_4b/relu_1x1
I0403 15:31:50.127400  3192 net.cpp:91] Creating Layer inception_4b/relu_1x1
I0403 15:31:50.127416  3192 net.cpp:425] inception_4b/relu_1x1 <- inception_4b/1x1
I0403 15:31:50.127434  3192 net.cpp:386] inception_4b/relu_1x1 -> inception_4b/1x1 (in-place)
I0403 15:31:50.127610  3192 net.cpp:141] Setting up inception_4b/relu_1x1
I0403 15:31:50.127637  3192 net.cpp:148] Top shape: 24 160 14 14 (752640)
I0403 15:31:50.127653  3192 net.cpp:156] Memory required for data: 952225056
I0403 15:31:50.127668  3192 layer_factory.hpp:77] Creating layer inception_4b/3x3_reduce
I0403 15:31:50.127689  3192 net.cpp:91] Creating Layer inception_4b/3x3_reduce
I0403 15:31:50.127707  3192 net.cpp:425] inception_4b/3x3_reduce <- inception_4a/output_inception_4a/output_0_split_2
I0403 15:31:50.127725  3192 net.cpp:399] inception_4b/3x3_reduce -> inception_4b/3x3_reduce
I0403 15:31:50.129035  3192 net.cpp:141] Setting up inception_4b/3x3_reduce
I0403 15:31:50.129066  3192 net.cpp:148] Top shape: 24 112 14 14 (526848)
I0403 15:31:50.129084  3192 net.cpp:156] Memory required for data: 954332448
I0403 15:31:50.129103  3192 layer_factory.hpp:77] Creating layer inception_4b/relu_3x3_reduce
I0403 15:31:50.129122  3192 net.cpp:91] Creating Layer inception_4b/relu_3x3_reduce
I0403 15:31:50.129139  3192 net.cpp:425] inception_4b/relu_3x3_reduce <- inception_4b/3x3_reduce
I0403 15:31:50.129159  3192 net.cpp:386] inception_4b/relu_3x3_reduce -> inception_4b/3x3_reduce (in-place)
I0403 15:31:50.129436  3192 net.cpp:141] Setting up inception_4b/relu_3x3_reduce
I0403 15:31:50.129462  3192 net.cpp:148] Top shape: 24 112 14 14 (526848)
I0403 15:31:50.129478  3192 net.cpp:156] Memory required for data: 956439840
I0403 15:31:50.129493  3192 layer_factory.hpp:77] Creating layer inception_4b/3x3
I0403 15:31:50.129515  3192 net.cpp:91] Creating Layer inception_4b/3x3
I0403 15:31:50.129533  3192 net.cpp:425] inception_4b/3x3 <- inception_4b/3x3_reduce
I0403 15:31:50.129551  3192 net.cpp:399] inception_4b/3x3 -> inception_4b/3x3
I0403 15:31:50.132437  3192 net.cpp:141] Setting up inception_4b/3x3
I0403 15:31:50.132467  3192 net.cpp:148] Top shape: 24 224 14 14 (1053696)
I0403 15:31:50.132484  3192 net.cpp:156] Memory required for data: 960654624
I0403 15:31:50.132503  3192 layer_factory.hpp:77] Creating layer inception_4b/relu_3x3
I0403 15:31:50.132524  3192 net.cpp:91] Creating Layer inception_4b/relu_3x3
I0403 15:31:50.132542  3192 net.cpp:425] inception_4b/relu_3x3 <- inception_4b/3x3
I0403 15:31:50.132561  3192 net.cpp:386] inception_4b/relu_3x3 -> inception_4b/3x3 (in-place)
I0403 15:31:50.132737  3192 net.cpp:141] Setting up inception_4b/relu_3x3
I0403 15:31:50.132761  3192 net.cpp:148] Top shape: 24 224 14 14 (1053696)
I0403 15:31:50.132776  3192 net.cpp:156] Memory required for data: 964869408
I0403 15:31:50.132791  3192 layer_factory.hpp:77] Creating layer inception_4b/5x5_reduce
I0403 15:31:50.132812  3192 net.cpp:91] Creating Layer inception_4b/5x5_reduce
I0403 15:31:50.132833  3192 net.cpp:425] inception_4b/5x5_reduce <- inception_4a/output_inception_4a/output_0_split_3
I0403 15:31:50.132851  3192 net.cpp:399] inception_4b/5x5_reduce -> inception_4b/5x5_reduce
I0403 15:31:50.133906  3192 net.cpp:141] Setting up inception_4b/5x5_reduce
I0403 15:31:50.133934  3192 net.cpp:148] Top shape: 24 24 14 14 (112896)
I0403 15:31:50.133950  3192 net.cpp:156] Memory required for data: 965320992
I0403 15:31:50.133968  3192 layer_factory.hpp:77] Creating layer inception_4b/relu_5x5_reduce
I0403 15:31:50.133990  3192 net.cpp:91] Creating Layer inception_4b/relu_5x5_reduce
I0403 15:31:50.134018  3192 net.cpp:425] inception_4b/relu_5x5_reduce <- inception_4b/5x5_reduce
I0403 15:31:50.134037  3192 net.cpp:386] inception_4b/relu_5x5_reduce -> inception_4b/5x5_reduce (in-place)
I0403 15:31:50.134214  3192 net.cpp:141] Setting up inception_4b/relu_5x5_reduce
I0403 15:31:50.134238  3192 net.cpp:148] Top shape: 24 24 14 14 (112896)
I0403 15:31:50.134258  3192 net.cpp:156] Memory required for data: 965772576
I0403 15:31:50.134273  3192 layer_factory.hpp:77] Creating layer inception_4b/5x5
I0403 15:31:50.134294  3192 net.cpp:91] Creating Layer inception_4b/5x5
I0403 15:31:50.134311  3192 net.cpp:425] inception_4b/5x5 <- inception_4b/5x5_reduce
I0403 15:31:50.134332  3192 net.cpp:399] inception_4b/5x5 -> inception_4b/5x5
I0403 15:31:50.135520  3192 net.cpp:141] Setting up inception_4b/5x5
I0403 15:31:50.135548  3192 net.cpp:148] Top shape: 24 64 14 14 (301056)
I0403 15:31:50.135565  3192 net.cpp:156] Memory required for data: 966976800
I0403 15:31:50.135582  3192 layer_factory.hpp:77] Creating layer inception_4b/relu_5x5
I0403 15:31:50.135606  3192 net.cpp:91] Creating Layer inception_4b/relu_5x5
I0403 15:31:50.135622  3192 net.cpp:425] inception_4b/relu_5x5 <- inception_4b/5x5
I0403 15:31:50.135640  3192 net.cpp:386] inception_4b/relu_5x5 -> inception_4b/5x5 (in-place)
I0403 15:31:50.135916  3192 net.cpp:141] Setting up inception_4b/relu_5x5
I0403 15:31:50.135942  3192 net.cpp:148] Top shape: 24 64 14 14 (301056)
I0403 15:31:50.135957  3192 net.cpp:156] Memory required for data: 968181024
I0403 15:31:50.135972  3192 layer_factory.hpp:77] Creating layer inception_4b/pool
I0403 15:31:50.135992  3192 net.cpp:91] Creating Layer inception_4b/pool
I0403 15:31:50.136008  3192 net.cpp:425] inception_4b/pool <- inception_4a/output_inception_4a/output_0_split_4
I0403 15:31:50.136026  3192 net.cpp:399] inception_4b/pool -> inception_4b/pool
I0403 15:31:50.136090  3192 net.cpp:141] Setting up inception_4b/pool
I0403 15:31:50.136112  3192 net.cpp:148] Top shape: 24 512 14 14 (2408448)
I0403 15:31:50.136127  3192 net.cpp:156] Memory required for data: 977814816
I0403 15:31:50.136142  3192 layer_factory.hpp:77] Creating layer inception_4b/pool_proj
I0403 15:31:50.136163  3192 net.cpp:91] Creating Layer inception_4b/pool_proj
I0403 15:31:50.136181  3192 net.cpp:425] inception_4b/pool_proj <- inception_4b/pool
I0403 15:31:50.136201  3192 net.cpp:399] inception_4b/pool_proj -> inception_4b/pool_proj
I0403 15:31:50.137403  3192 net.cpp:141] Setting up inception_4b/pool_proj
I0403 15:31:50.137435  3192 net.cpp:148] Top shape: 24 64 14 14 (301056)
I0403 15:31:50.137454  3192 net.cpp:156] Memory required for data: 979019040
I0403 15:31:50.137472  3192 layer_factory.hpp:77] Creating layer inception_4b/relu_pool_proj
I0403 15:31:50.137490  3192 net.cpp:91] Creating Layer inception_4b/relu_pool_proj
I0403 15:31:50.137508  3192 net.cpp:425] inception_4b/relu_pool_proj <- inception_4b/pool_proj
I0403 15:31:50.137527  3192 net.cpp:386] inception_4b/relu_pool_proj -> inception_4b/pool_proj (in-place)
I0403 15:31:50.137707  3192 net.cpp:141] Setting up inception_4b/relu_pool_proj
I0403 15:31:50.137734  3192 net.cpp:148] Top shape: 24 64 14 14 (301056)
I0403 15:31:50.137751  3192 net.cpp:156] Memory required for data: 980223264
I0403 15:31:50.137768  3192 layer_factory.hpp:77] Creating layer inception_4b/output
I0403 15:31:50.137786  3192 net.cpp:91] Creating Layer inception_4b/output
I0403 15:31:50.137802  3192 net.cpp:425] inception_4b/output <- inception_4b/1x1
I0403 15:31:50.137820  3192 net.cpp:425] inception_4b/output <- inception_4b/3x3
I0403 15:31:50.137837  3192 net.cpp:425] inception_4b/output <- inception_4b/5x5
I0403 15:31:50.137855  3192 net.cpp:425] inception_4b/output <- inception_4b/pool_proj
I0403 15:31:50.137874  3192 net.cpp:399] inception_4b/output -> inception_4b/output
I0403 15:31:50.137920  3192 net.cpp:141] Setting up inception_4b/output
I0403 15:31:50.137945  3192 net.cpp:148] Top shape: 24 512 14 14 (2408448)
I0403 15:31:50.137961  3192 net.cpp:156] Memory required for data: 989857056
I0403 15:31:50.137992  3192 layer_factory.hpp:77] Creating layer inception_4b/output_inception_4b/output_0_split
I0403 15:31:50.138013  3192 net.cpp:91] Creating Layer inception_4b/output_inception_4b/output_0_split
I0403 15:31:50.138031  3192 net.cpp:425] inception_4b/output_inception_4b/output_0_split <- inception_4b/output
I0403 15:31:50.138051  3192 net.cpp:399] inception_4b/output_inception_4b/output_0_split -> inception_4b/output_inception_4b/output_0_split_0
I0403 15:31:50.138070  3192 net.cpp:399] inception_4b/output_inception_4b/output_0_split -> inception_4b/output_inception_4b/output_0_split_1
I0403 15:31:50.138097  3192 net.cpp:399] inception_4b/output_inception_4b/output_0_split -> inception_4b/output_inception_4b/output_0_split_2
I0403 15:31:50.138119  3192 net.cpp:399] inception_4b/output_inception_4b/output_0_split -> inception_4b/output_inception_4b/output_0_split_3
I0403 15:31:50.138206  3192 net.cpp:141] Setting up inception_4b/output_inception_4b/output_0_split
I0403 15:31:50.138231  3192 net.cpp:148] Top shape: 24 512 14 14 (2408448)
I0403 15:31:50.138253  3192 net.cpp:148] Top shape: 24 512 14 14 (2408448)
I0403 15:31:50.138270  3192 net.cpp:148] Top shape: 24 512 14 14 (2408448)
I0403 15:31:50.138288  3192 net.cpp:148] Top shape: 24 512 14 14 (2408448)
I0403 15:31:50.138303  3192 net.cpp:156] Memory required for data: 1028392224
I0403 15:31:50.138319  3192 layer_factory.hpp:77] Creating layer inception_4c/1x1
I0403 15:31:50.138342  3192 net.cpp:91] Creating Layer inception_4c/1x1
I0403 15:31:50.138360  3192 net.cpp:425] inception_4c/1x1 <- inception_4b/output_inception_4b/output_0_split_0
I0403 15:31:50.138381  3192 net.cpp:399] inception_4c/1x1 -> inception_4c/1x1
I0403 15:31:50.139814  3192 net.cpp:141] Setting up inception_4c/1x1
I0403 15:31:50.139844  3192 net.cpp:148] Top shape: 24 128 14 14 (602112)
I0403 15:31:50.139861  3192 net.cpp:156] Memory required for data: 1030800672
I0403 15:31:50.139880  3192 layer_factory.hpp:77] Creating layer inception_4c/relu_1x1
I0403 15:31:50.139897  3192 net.cpp:91] Creating Layer inception_4c/relu_1x1
I0403 15:31:50.139914  3192 net.cpp:425] inception_4c/relu_1x1 <- inception_4c/1x1
I0403 15:31:50.139935  3192 net.cpp:386] inception_4c/relu_1x1 -> inception_4c/1x1 (in-place)
I0403 15:31:50.140116  3192 net.cpp:141] Setting up inception_4c/relu_1x1
I0403 15:31:50.140141  3192 net.cpp:148] Top shape: 24 128 14 14 (602112)
I0403 15:31:50.140156  3192 net.cpp:156] Memory required for data: 1033209120
I0403 15:31:50.140172  3192 layer_factory.hpp:77] Creating layer inception_4c/3x3_reduce
I0403 15:31:50.140193  3192 net.cpp:91] Creating Layer inception_4c/3x3_reduce
I0403 15:31:50.140211  3192 net.cpp:425] inception_4c/3x3_reduce <- inception_4b/output_inception_4b/output_0_split_1
I0403 15:31:50.140233  3192 net.cpp:399] inception_4c/3x3_reduce -> inception_4c/3x3_reduce
I0403 15:31:50.142169  3192 net.cpp:141] Setting up inception_4c/3x3_reduce
I0403 15:31:50.142199  3192 net.cpp:148] Top shape: 24 128 14 14 (602112)
I0403 15:31:50.142218  3192 net.cpp:156] Memory required for data: 1035617568
I0403 15:31:50.142237  3192 layer_factory.hpp:77] Creating layer inception_4c/relu_3x3_reduce
I0403 15:31:50.142271  3192 net.cpp:91] Creating Layer inception_4c/relu_3x3_reduce
I0403 15:31:50.142289  3192 net.cpp:425] inception_4c/relu_3x3_reduce <- inception_4c/3x3_reduce
I0403 15:31:50.142307  3192 net.cpp:386] inception_4c/relu_3x3_reduce -> inception_4c/3x3_reduce (in-place)
I0403 15:31:50.142595  3192 net.cpp:141] Setting up inception_4c/relu_3x3_reduce
I0403 15:31:50.142621  3192 net.cpp:148] Top shape: 24 128 14 14 (602112)
I0403 15:31:50.142638  3192 net.cpp:156] Memory required for data: 1038026016
I0403 15:31:50.142653  3192 layer_factory.hpp:77] Creating layer inception_4c/3x3
I0403 15:31:50.142678  3192 net.cpp:91] Creating Layer inception_4c/3x3
I0403 15:31:50.142696  3192 net.cpp:425] inception_4c/3x3 <- inception_4c/3x3_reduce
I0403 15:31:50.142719  3192 net.cpp:399] inception_4c/3x3 -> inception_4c/3x3
I0403 15:31:50.146319  3192 net.cpp:141] Setting up inception_4c/3x3
I0403 15:31:50.146363  3192 net.cpp:148] Top shape: 24 256 14 14 (1204224)
I0403 15:31:50.146384  3192 net.cpp:156] Memory required for data: 1042842912
I0403 15:31:50.146416  3192 layer_factory.hpp:77] Creating layer inception_4c/relu_3x3
I0403 15:31:50.146437  3192 net.cpp:91] Creating Layer inception_4c/relu_3x3
I0403 15:31:50.146455  3192 net.cpp:425] inception_4c/relu_3x3 <- inception_4c/3x3
I0403 15:31:50.146473  3192 net.cpp:386] inception_4c/relu_3x3 -> inception_4c/3x3 (in-place)
I0403 15:31:50.146654  3192 net.cpp:141] Setting up inception_4c/relu_3x3
I0403 15:31:50.146682  3192 net.cpp:148] Top shape: 24 256 14 14 (1204224)
I0403 15:31:50.146697  3192 net.cpp:156] Memory required for data: 1047659808
I0403 15:31:50.146713  3192 layer_factory.hpp:77] Creating layer inception_4c/5x5_reduce
I0403 15:31:50.146739  3192 net.cpp:91] Creating Layer inception_4c/5x5_reduce
I0403 15:31:50.146757  3192 net.cpp:425] inception_4c/5x5_reduce <- inception_4b/output_inception_4b/output_0_split_2
I0403 15:31:50.146778  3192 net.cpp:399] inception_4c/5x5_reduce -> inception_4c/5x5_reduce
I0403 15:31:50.147866  3192 net.cpp:141] Setting up inception_4c/5x5_reduce
I0403 15:31:50.147894  3192 net.cpp:148] Top shape: 24 24 14 14 (112896)
I0403 15:31:50.147910  3192 net.cpp:156] Memory required for data: 1048111392
I0403 15:31:50.147929  3192 layer_factory.hpp:77] Creating layer inception_4c/relu_5x5_reduce
I0403 15:31:50.147950  3192 net.cpp:91] Creating Layer inception_4c/relu_5x5_reduce
I0403 15:31:50.147969  3192 net.cpp:425] inception_4c/relu_5x5_reduce <- inception_4c/5x5_reduce
I0403 15:31:50.147987  3192 net.cpp:386] inception_4c/relu_5x5_reduce -> inception_4c/5x5_reduce (in-place)
I0403 15:31:50.148172  3192 net.cpp:141] Setting up inception_4c/relu_5x5_reduce
I0403 15:31:50.148196  3192 net.cpp:148] Top shape: 24 24 14 14 (112896)
I0403 15:31:50.148213  3192 net.cpp:156] Memory required for data: 1048562976
I0403 15:31:50.148228  3192 layer_factory.hpp:77] Creating layer inception_4c/5x5
I0403 15:31:50.148255  3192 net.cpp:91] Creating Layer inception_4c/5x5
I0403 15:31:50.148274  3192 net.cpp:425] inception_4c/5x5 <- inception_4c/5x5_reduce
I0403 15:31:50.148295  3192 net.cpp:399] inception_4c/5x5 -> inception_4c/5x5
I0403 15:31:50.149539  3192 net.cpp:141] Setting up inception_4c/5x5
I0403 15:31:50.149570  3192 net.cpp:148] Top shape: 24 64 14 14 (301056)
I0403 15:31:50.149588  3192 net.cpp:156] Memory required for data: 1049767200
I0403 15:31:50.149608  3192 layer_factory.hpp:77] Creating layer inception_4c/relu_5x5
I0403 15:31:50.149628  3192 net.cpp:91] Creating Layer inception_4c/relu_5x5
I0403 15:31:50.149646  3192 net.cpp:425] inception_4c/relu_5x5 <- inception_4c/5x5
I0403 15:31:50.149667  3192 net.cpp:386] inception_4c/relu_5x5 -> inception_4c/5x5 (in-place)
I0403 15:31:50.149955  3192 net.cpp:141] Setting up inception_4c/relu_5x5
I0403 15:31:50.149984  3192 net.cpp:148] Top shape: 24 64 14 14 (301056)
I0403 15:31:50.150002  3192 net.cpp:156] Memory required for data: 1050971424
I0403 15:31:50.150017  3192 layer_factory.hpp:77] Creating layer inception_4c/pool
I0403 15:31:50.150034  3192 net.cpp:91] Creating Layer inception_4c/pool
I0403 15:31:50.150051  3192 net.cpp:425] inception_4c/pool <- inception_4b/output_inception_4b/output_0_split_3
I0403 15:31:50.150073  3192 net.cpp:399] inception_4c/pool -> inception_4c/pool
I0403 15:31:50.150138  3192 net.cpp:141] Setting up inception_4c/pool
I0403 15:31:50.150164  3192 net.cpp:148] Top shape: 24 512 14 14 (2408448)
I0403 15:31:50.150180  3192 net.cpp:156] Memory required for data: 1060605216
I0403 15:31:50.150195  3192 layer_factory.hpp:77] Creating layer inception_4c/pool_proj
I0403 15:31:50.150218  3192 net.cpp:91] Creating Layer inception_4c/pool_proj
I0403 15:31:50.150236  3192 net.cpp:425] inception_4c/pool_proj <- inception_4c/pool
I0403 15:31:50.150260  3192 net.cpp:399] inception_4c/pool_proj -> inception_4c/pool_proj
I0403 15:31:50.151474  3192 net.cpp:141] Setting up inception_4c/pool_proj
I0403 15:31:50.151506  3192 net.cpp:148] Top shape: 24 64 14 14 (301056)
I0403 15:31:50.151540  3192 net.cpp:156] Memory required for data: 1061809440
I0403 15:31:50.151561  3192 layer_factory.hpp:77] Creating layer inception_4c/relu_pool_proj
I0403 15:31:50.151581  3192 net.cpp:91] Creating Layer inception_4c/relu_pool_proj
I0403 15:31:50.151598  3192 net.cpp:425] inception_4c/relu_pool_proj <- inception_4c/pool_proj
I0403 15:31:50.151618  3192 net.cpp:386] inception_4c/relu_pool_proj -> inception_4c/pool_proj (in-place)
I0403 15:31:50.151798  3192 net.cpp:141] Setting up inception_4c/relu_pool_proj
I0403 15:31:50.151825  3192 net.cpp:148] Top shape: 24 64 14 14 (301056)
I0403 15:31:50.151841  3192 net.cpp:156] Memory required for data: 1063013664
I0403 15:31:50.151857  3192 layer_factory.hpp:77] Creating layer inception_4c/output
I0403 15:31:50.151876  3192 net.cpp:91] Creating Layer inception_4c/output
I0403 15:31:50.151893  3192 net.cpp:425] inception_4c/output <- inception_4c/1x1
I0403 15:31:50.151911  3192 net.cpp:425] inception_4c/output <- inception_4c/3x3
I0403 15:31:50.151927  3192 net.cpp:425] inception_4c/output <- inception_4c/5x5
I0403 15:31:50.151944  3192 net.cpp:425] inception_4c/output <- inception_4c/pool_proj
I0403 15:31:50.151965  3192 net.cpp:399] inception_4c/output -> inception_4c/output
I0403 15:31:50.152014  3192 net.cpp:141] Setting up inception_4c/output
I0403 15:31:50.152039  3192 net.cpp:148] Top shape: 24 512 14 14 (2408448)
I0403 15:31:50.152053  3192 net.cpp:156] Memory required for data: 1072647456
I0403 15:31:50.152068  3192 layer_factory.hpp:77] Creating layer inception_4c/output_inception_4c/output_0_split
I0403 15:31:50.152088  3192 net.cpp:91] Creating Layer inception_4c/output_inception_4c/output_0_split
I0403 15:31:50.152106  3192 net.cpp:425] inception_4c/output_inception_4c/output_0_split <- inception_4c/output
I0403 15:31:50.152123  3192 net.cpp:399] inception_4c/output_inception_4c/output_0_split -> inception_4c/output_inception_4c/output_0_split_0
I0403 15:31:50.152144  3192 net.cpp:399] inception_4c/output_inception_4c/output_0_split -> inception_4c/output_inception_4c/output_0_split_1
I0403 15:31:50.152168  3192 net.cpp:399] inception_4c/output_inception_4c/output_0_split -> inception_4c/output_inception_4c/output_0_split_2
I0403 15:31:50.152190  3192 net.cpp:399] inception_4c/output_inception_4c/output_0_split -> inception_4c/output_inception_4c/output_0_split_3
I0403 15:31:50.152289  3192 net.cpp:141] Setting up inception_4c/output_inception_4c/output_0_split
I0403 15:31:50.152314  3192 net.cpp:148] Top shape: 24 512 14 14 (2408448)
I0403 15:31:50.152330  3192 net.cpp:148] Top shape: 24 512 14 14 (2408448)
I0403 15:31:50.152346  3192 net.cpp:148] Top shape: 24 512 14 14 (2408448)
I0403 15:31:50.152362  3192 net.cpp:148] Top shape: 24 512 14 14 (2408448)
I0403 15:31:50.152376  3192 net.cpp:156] Memory required for data: 1111182624
I0403 15:31:50.152391  3192 layer_factory.hpp:77] Creating layer inception_4d/1x1
I0403 15:31:50.152413  3192 net.cpp:91] Creating Layer inception_4d/1x1
I0403 15:31:50.152431  3192 net.cpp:425] inception_4d/1x1 <- inception_4c/output_inception_4c/output_0_split_0
I0403 15:31:50.152452  3192 net.cpp:399] inception_4d/1x1 -> inception_4d/1x1
I0403 15:31:50.153851  3192 net.cpp:141] Setting up inception_4d/1x1
I0403 15:31:50.153879  3192 net.cpp:148] Top shape: 24 112 14 14 (526848)
I0403 15:31:50.153898  3192 net.cpp:156] Memory required for data: 1113290016
I0403 15:31:50.153916  3192 layer_factory.hpp:77] Creating layer inception_4d/relu_1x1
I0403 15:31:50.153937  3192 net.cpp:91] Creating Layer inception_4d/relu_1x1
I0403 15:31:50.153955  3192 net.cpp:425] inception_4d/relu_1x1 <- inception_4d/1x1
I0403 15:31:50.153975  3192 net.cpp:386] inception_4d/relu_1x1 -> inception_4d/1x1 (in-place)
I0403 15:31:50.154162  3192 net.cpp:141] Setting up inception_4d/relu_1x1
I0403 15:31:50.154188  3192 net.cpp:148] Top shape: 24 112 14 14 (526848)
I0403 15:31:50.154203  3192 net.cpp:156] Memory required for data: 1115397408
I0403 15:31:50.154222  3192 layer_factory.hpp:77] Creating layer inception_4d/3x3_reduce
I0403 15:31:50.154263  3192 net.cpp:91] Creating Layer inception_4d/3x3_reduce
I0403 15:31:50.154284  3192 net.cpp:425] inception_4d/3x3_reduce <- inception_4c/output_inception_4c/output_0_split_1
I0403 15:31:50.154302  3192 net.cpp:399] inception_4d/3x3_reduce -> inception_4d/3x3_reduce
I0403 15:31:50.155822  3192 net.cpp:141] Setting up inception_4d/3x3_reduce
I0403 15:31:50.155850  3192 net.cpp:148] Top shape: 24 144 14 14 (677376)
I0403 15:31:50.155867  3192 net.cpp:156] Memory required for data: 1118106912
I0403 15:31:50.155885  3192 layer_factory.hpp:77] Creating layer inception_4d/relu_3x3_reduce
I0403 15:31:50.155903  3192 net.cpp:91] Creating Layer inception_4d/relu_3x3_reduce
I0403 15:31:50.155920  3192 net.cpp:425] inception_4d/relu_3x3_reduce <- inception_4d/3x3_reduce
I0403 15:31:50.155941  3192 net.cpp:386] inception_4d/relu_3x3_reduce -> inception_4d/3x3_reduce (in-place)
I0403 15:31:50.156235  3192 net.cpp:141] Setting up inception_4d/relu_3x3_reduce
I0403 15:31:50.156265  3192 net.cpp:148] Top shape: 24 144 14 14 (677376)
I0403 15:31:50.156280  3192 net.cpp:156] Memory required for data: 1120816416
I0403 15:31:50.156296  3192 layer_factory.hpp:77] Creating layer inception_4d/3x3
I0403 15:31:50.156318  3192 net.cpp:91] Creating Layer inception_4d/3x3
I0403 15:31:50.156335  3192 net.cpp:425] inception_4d/3x3 <- inception_4d/3x3_reduce
I0403 15:31:50.156357  3192 net.cpp:399] inception_4d/3x3 -> inception_4d/3x3
I0403 15:31:50.160609  3192 net.cpp:141] Setting up inception_4d/3x3
I0403 15:31:50.160640  3192 net.cpp:148] Top shape: 24 288 14 14 (1354752)
I0403 15:31:50.160656  3192 net.cpp:156] Memory required for data: 1126235424
I0403 15:31:50.160676  3192 layer_factory.hpp:77] Creating layer inception_4d/relu_3x3
I0403 15:31:50.160696  3192 net.cpp:91] Creating Layer inception_4d/relu_3x3
I0403 15:31:50.160714  3192 net.cpp:425] inception_4d/relu_3x3 <- inception_4d/3x3
I0403 15:31:50.160733  3192 net.cpp:386] inception_4d/relu_3x3 -> inception_4d/3x3 (in-place)
I0403 15:31:50.160915  3192 net.cpp:141] Setting up inception_4d/relu_3x3
I0403 15:31:50.160943  3192 net.cpp:148] Top shape: 24 288 14 14 (1354752)
I0403 15:31:50.160961  3192 net.cpp:156] Memory required for data: 1131654432
I0403 15:31:50.160977  3192 layer_factory.hpp:77] Creating layer inception_4d/5x5_reduce
I0403 15:31:50.161000  3192 net.cpp:91] Creating Layer inception_4d/5x5_reduce
I0403 15:31:50.161018  3192 net.cpp:425] inception_4d/5x5_reduce <- inception_4c/output_inception_4c/output_0_split_2
I0403 15:31:50.161038  3192 net.cpp:399] inception_4d/5x5_reduce -> inception_4d/5x5_reduce
I0403 15:31:50.162192  3192 net.cpp:141] Setting up inception_4d/5x5_reduce
I0403 15:31:50.162222  3192 net.cpp:148] Top shape: 24 32 14 14 (150528)
I0403 15:31:50.162247  3192 net.cpp:156] Memory required for data: 1132256544
I0403 15:31:50.162271  3192 layer_factory.hpp:77] Creating layer inception_4d/relu_5x5_reduce
I0403 15:31:50.162293  3192 net.cpp:91] Creating Layer inception_4d/relu_5x5_reduce
I0403 15:31:50.162310  3192 net.cpp:425] inception_4d/relu_5x5_reduce <- inception_4d/5x5_reduce
I0403 15:31:50.162329  3192 net.cpp:386] inception_4d/relu_5x5_reduce -> inception_4d/5x5_reduce (in-place)
I0403 15:31:50.162516  3192 net.cpp:141] Setting up inception_4d/relu_5x5_reduce
I0403 15:31:50.162542  3192 net.cpp:148] Top shape: 24 32 14 14 (150528)
I0403 15:31:50.162559  3192 net.cpp:156] Memory required for data: 1132858656
I0403 15:31:50.162575  3192 layer_factory.hpp:77] Creating layer inception_4d/5x5
I0403 15:31:50.162598  3192 net.cpp:91] Creating Layer inception_4d/5x5
I0403 15:31:50.162616  3192 net.cpp:425] inception_4d/5x5 <- inception_4d/5x5_reduce
I0403 15:31:50.162634  3192 net.cpp:399] inception_4d/5x5 -> inception_4d/5x5
I0403 15:31:50.164121  3192 net.cpp:141] Setting up inception_4d/5x5
I0403 15:31:50.164152  3192 net.cpp:148] Top shape: 24 64 14 14 (301056)
I0403 15:31:50.164170  3192 net.cpp:156] Memory required for data: 1134062880
I0403 15:31:50.164191  3192 layer_factory.hpp:77] Creating layer inception_4d/relu_5x5
I0403 15:31:50.164227  3192 net.cpp:91] Creating Layer inception_4d/relu_5x5
I0403 15:31:50.164249  3192 net.cpp:425] inception_4d/relu_5x5 <- inception_4d/5x5
I0403 15:31:50.164271  3192 net.cpp:386] inception_4d/relu_5x5 -> inception_4d/5x5 (in-place)
I0403 15:31:50.164572  3192 net.cpp:141] Setting up inception_4d/relu_5x5
I0403 15:31:50.164602  3192 net.cpp:148] Top shape: 24 64 14 14 (301056)
I0403 15:31:50.164618  3192 net.cpp:156] Memory required for data: 1135267104
I0403 15:31:50.164633  3192 layer_factory.hpp:77] Creating layer inception_4d/pool
I0403 15:31:50.164650  3192 net.cpp:91] Creating Layer inception_4d/pool
I0403 15:31:50.164667  3192 net.cpp:425] inception_4d/pool <- inception_4c/output_inception_4c/output_0_split_3
I0403 15:31:50.164687  3192 net.cpp:399] inception_4d/pool -> inception_4d/pool
I0403 15:31:50.164753  3192 net.cpp:141] Setting up inception_4d/pool
I0403 15:31:50.164778  3192 net.cpp:148] Top shape: 24 512 14 14 (2408448)
I0403 15:31:50.164793  3192 net.cpp:156] Memory required for data: 1144900896
I0403 15:31:50.164808  3192 layer_factory.hpp:77] Creating layer inception_4d/pool_proj
I0403 15:31:50.164829  3192 net.cpp:91] Creating Layer inception_4d/pool_proj
I0403 15:31:50.164846  3192 net.cpp:425] inception_4d/pool_proj <- inception_4d/pool
I0403 15:31:50.164867  3192 net.cpp:399] inception_4d/pool_proj -> inception_4d/pool_proj
I0403 15:31:50.166674  3192 net.cpp:141] Setting up inception_4d/pool_proj
I0403 15:31:50.166704  3192 net.cpp:148] Top shape: 24 64 14 14 (301056)
I0403 15:31:50.166721  3192 net.cpp:156] Memory required for data: 1146105120
I0403 15:31:50.166740  3192 layer_factory.hpp:77] Creating layer inception_4d/relu_pool_proj
I0403 15:31:50.166761  3192 net.cpp:91] Creating Layer inception_4d/relu_pool_proj
I0403 15:31:50.166779  3192 net.cpp:425] inception_4d/relu_pool_proj <- inception_4d/pool_proj
I0403 15:31:50.166806  3192 net.cpp:386] inception_4d/relu_pool_proj -> inception_4d/pool_proj (in-place)
I0403 15:31:50.166995  3192 net.cpp:141] Setting up inception_4d/relu_pool_proj
I0403 15:31:50.167023  3192 net.cpp:148] Top shape: 24 64 14 14 (301056)
I0403 15:31:50.167039  3192 net.cpp:156] Memory required for data: 1147309344
I0403 15:31:50.167057  3192 layer_factory.hpp:77] Creating layer inception_4d/output
I0403 15:31:50.167073  3192 net.cpp:91] Creating Layer inception_4d/output
I0403 15:31:50.167089  3192 net.cpp:425] inception_4d/output <- inception_4d/1x1
I0403 15:31:50.167106  3192 net.cpp:425] inception_4d/output <- inception_4d/3x3
I0403 15:31:50.167122  3192 net.cpp:425] inception_4d/output <- inception_4d/5x5
I0403 15:31:50.167140  3192 net.cpp:425] inception_4d/output <- inception_4d/pool_proj
I0403 15:31:50.167156  3192 net.cpp:399] inception_4d/output -> inception_4d/output
I0403 15:31:50.167206  3192 net.cpp:141] Setting up inception_4d/output
I0403 15:31:50.167228  3192 net.cpp:148] Top shape: 24 528 14 14 (2483712)
I0403 15:31:50.167248  3192 net.cpp:156] Memory required for data: 1157244192
I0403 15:31:50.167263  3192 layer_factory.hpp:77] Creating layer inception_4d/output_inception_4d/output_0_split
I0403 15:31:50.167284  3192 net.cpp:91] Creating Layer inception_4d/output_inception_4d/output_0_split
I0403 15:31:50.167300  3192 net.cpp:425] inception_4d/output_inception_4d/output_0_split <- inception_4d/output
I0403 15:31:50.167318  3192 net.cpp:399] inception_4d/output_inception_4d/output_0_split -> inception_4d/output_inception_4d/output_0_split_0
I0403 15:31:50.167338  3192 net.cpp:399] inception_4d/output_inception_4d/output_0_split -> inception_4d/output_inception_4d/output_0_split_1
I0403 15:31:50.167361  3192 net.cpp:399] inception_4d/output_inception_4d/output_0_split -> inception_4d/output_inception_4d/output_0_split_2
I0403 15:31:50.167382  3192 net.cpp:399] inception_4d/output_inception_4d/output_0_split -> inception_4d/output_inception_4d/output_0_split_3
I0403 15:31:50.167405  3192 net.cpp:399] inception_4d/output_inception_4d/output_0_split -> inception_4d/output_inception_4d/output_0_split_4
I0403 15:31:50.167512  3192 net.cpp:141] Setting up inception_4d/output_inception_4d/output_0_split
I0403 15:31:50.167547  3192 net.cpp:148] Top shape: 24 528 14 14 (2483712)
I0403 15:31:50.167564  3192 net.cpp:148] Top shape: 24 528 14 14 (2483712)
I0403 15:31:50.167580  3192 net.cpp:148] Top shape: 24 528 14 14 (2483712)
I0403 15:31:50.167596  3192 net.cpp:148] Top shape: 24 528 14 14 (2483712)
I0403 15:31:50.167613  3192 net.cpp:148] Top shape: 24 528 14 14 (2483712)
I0403 15:31:50.167626  3192 net.cpp:156] Memory required for data: 1206918432
I0403 15:31:50.167641  3192 layer_factory.hpp:77] Creating layer loss2/ave_pool
I0403 15:31:50.167659  3192 net.cpp:91] Creating Layer loss2/ave_pool
I0403 15:31:50.167678  3192 net.cpp:425] loss2/ave_pool <- inception_4d/output_inception_4d/output_0_split_0
I0403 15:31:50.167697  3192 net.cpp:399] loss2/ave_pool -> loss2/ave_pool
I0403 15:31:50.168014  3192 net.cpp:141] Setting up loss2/ave_pool
I0403 15:31:50.168040  3192 net.cpp:148] Top shape: 24 528 4 4 (202752)
I0403 15:31:50.168056  3192 net.cpp:156] Memory required for data: 1207729440
I0403 15:31:50.168071  3192 layer_factory.hpp:77] Creating layer loss2/conv
I0403 15:31:50.168092  3192 net.cpp:91] Creating Layer loss2/conv
I0403 15:31:50.168110  3192 net.cpp:425] loss2/conv <- loss2/ave_pool
I0403 15:31:50.168133  3192 net.cpp:399] loss2/conv -> loss2/conv
I0403 15:31:50.170040  3192 net.cpp:141] Setting up loss2/conv
I0403 15:31:50.170073  3192 net.cpp:148] Top shape: 24 128 4 4 (49152)
I0403 15:31:50.170091  3192 net.cpp:156] Memory required for data: 1207926048
I0403 15:31:50.170111  3192 layer_factory.hpp:77] Creating layer loss2/relu_conv
I0403 15:31:50.170131  3192 net.cpp:91] Creating Layer loss2/relu_conv
I0403 15:31:50.170148  3192 net.cpp:425] loss2/relu_conv <- loss2/conv
I0403 15:31:50.170166  3192 net.cpp:386] loss2/relu_conv -> loss2/conv (in-place)
I0403 15:31:50.170462  3192 net.cpp:141] Setting up loss2/relu_conv
I0403 15:31:50.170491  3192 net.cpp:148] Top shape: 24 128 4 4 (49152)
I0403 15:31:50.170507  3192 net.cpp:156] Memory required for data: 1208122656
I0403 15:31:50.170523  3192 layer_factory.hpp:77] Creating layer loss2/fc
I0403 15:31:50.170542  3192 net.cpp:91] Creating Layer loss2/fc
I0403 15:31:50.170559  3192 net.cpp:425] loss2/fc <- loss2/conv
I0403 15:31:50.170580  3192 net.cpp:399] loss2/fc -> loss2/fc
I0403 15:31:50.188429  3192 net.cpp:141] Setting up loss2/fc
I0403 15:31:50.188463  3192 net.cpp:148] Top shape: 24 1024 (24576)
I0403 15:31:50.188482  3192 net.cpp:156] Memory required for data: 1208220960
I0403 15:31:50.188503  3192 layer_factory.hpp:77] Creating layer loss2/relu_fc
I0403 15:31:50.188520  3192 net.cpp:91] Creating Layer loss2/relu_fc
I0403 15:31:50.188537  3192 net.cpp:425] loss2/relu_fc <- loss2/fc
I0403 15:31:50.188555  3192 net.cpp:386] loss2/relu_fc -> loss2/fc (in-place)
I0403 15:31:50.188868  3192 net.cpp:141] Setting up loss2/relu_fc
I0403 15:31:50.188895  3192 net.cpp:148] Top shape: 24 1024 (24576)
I0403 15:31:50.188911  3192 net.cpp:156] Memory required for data: 1208319264
I0403 15:31:50.188928  3192 layer_factory.hpp:77] Creating layer loss2/drop_fc
I0403 15:31:50.188948  3192 net.cpp:91] Creating Layer loss2/drop_fc
I0403 15:31:50.188966  3192 net.cpp:425] loss2/drop_fc <- loss2/fc
I0403 15:31:50.188983  3192 net.cpp:386] loss2/drop_fc -> loss2/fc (in-place)
I0403 15:31:50.189034  3192 net.cpp:141] Setting up loss2/drop_fc
I0403 15:31:50.189057  3192 net.cpp:148] Top shape: 24 1024 (24576)
I0403 15:31:50.189072  3192 net.cpp:156] Memory required for data: 1208417568
I0403 15:31:50.189086  3192 layer_factory.hpp:77] Creating layer loss2/classifier_plantvillage
I0403 15:31:50.189107  3192 net.cpp:91] Creating Layer loss2/classifier_plantvillage
I0403 15:31:50.189126  3192 net.cpp:425] loss2/classifier_plantvillage <- loss2/fc
I0403 15:31:50.189143  3192 net.cpp:399] loss2/classifier_plantvillage -> loss2/classifier_plantvillage
I0403 15:31:50.189559  3192 net.cpp:141] Setting up loss2/classifier_plantvillage
I0403 15:31:50.189584  3192 net.cpp:148] Top shape: 24 38 (912)
I0403 15:31:50.189620  3192 net.cpp:156] Memory required for data: 1208421216
I0403 15:31:50.189640  3192 layer_factory.hpp:77] Creating layer loss2/classifier_plantvillage_loss2/classifier_plantvillage_0_split
I0403 15:31:50.189657  3192 net.cpp:91] Creating Layer loss2/classifier_plantvillage_loss2/classifier_plantvillage_0_split
I0403 15:31:50.189674  3192 net.cpp:425] loss2/classifier_plantvillage_loss2/classifier_plantvillage_0_split <- loss2/classifier_plantvillage
I0403 15:31:50.189694  3192 net.cpp:399] loss2/classifier_plantvillage_loss2/classifier_plantvillage_0_split -> loss2/classifier_plantvillage_loss2/classifier_plantvillage_0_split_0
I0403 15:31:50.189716  3192 net.cpp:399] loss2/classifier_plantvillage_loss2/classifier_plantvillage_0_split -> loss2/classifier_plantvillage_loss2/classifier_plantvillage_0_split_1
I0403 15:31:50.189738  3192 net.cpp:399] loss2/classifier_plantvillage_loss2/classifier_plantvillage_0_split -> loss2/classifier_plantvillage_loss2/classifier_plantvillage_0_split_2
I0403 15:31:50.189816  3192 net.cpp:141] Setting up loss2/classifier_plantvillage_loss2/classifier_plantvillage_0_split
I0403 15:31:50.189842  3192 net.cpp:148] Top shape: 24 38 (912)
I0403 15:31:50.189858  3192 net.cpp:148] Top shape: 24 38 (912)
I0403 15:31:50.189874  3192 net.cpp:148] Top shape: 24 38 (912)
I0403 15:31:50.189889  3192 net.cpp:156] Memory required for data: 1208432160
I0403 15:31:50.189904  3192 layer_factory.hpp:77] Creating layer inception_4e/1x1
I0403 15:31:50.189927  3192 net.cpp:91] Creating Layer inception_4e/1x1
I0403 15:31:50.189945  3192 net.cpp:425] inception_4e/1x1 <- inception_4d/output_inception_4d/output_0_split_1
I0403 15:31:50.189965  3192 net.cpp:399] inception_4e/1x1 -> inception_4e/1x1
I0403 15:31:50.191805  3192 net.cpp:141] Setting up inception_4e/1x1
I0403 15:31:50.191838  3192 net.cpp:148] Top shape: 24 256 14 14 (1204224)
I0403 15:31:50.191854  3192 net.cpp:156] Memory required for data: 1213249056
I0403 15:31:50.191874  3192 layer_factory.hpp:77] Creating layer inception_4e/relu_1x1
I0403 15:31:50.191892  3192 net.cpp:91] Creating Layer inception_4e/relu_1x1
I0403 15:31:50.191910  3192 net.cpp:425] inception_4e/relu_1x1 <- inception_4e/1x1
I0403 15:31:50.191931  3192 net.cpp:386] inception_4e/relu_1x1 -> inception_4e/1x1 (in-place)
I0403 15:31:50.192227  3192 net.cpp:141] Setting up inception_4e/relu_1x1
I0403 15:31:50.192266  3192 net.cpp:148] Top shape: 24 256 14 14 (1204224)
I0403 15:31:50.192286  3192 net.cpp:156] Memory required for data: 1218065952
I0403 15:31:50.192301  3192 layer_factory.hpp:77] Creating layer inception_4e/3x3_reduce
I0403 15:31:50.192322  3192 net.cpp:91] Creating Layer inception_4e/3x3_reduce
I0403 15:31:50.192339  3192 net.cpp:425] inception_4e/3x3_reduce <- inception_4d/output_inception_4d/output_0_split_2
I0403 15:31:50.192359  3192 net.cpp:399] inception_4e/3x3_reduce -> inception_4e/3x3_reduce
I0403 15:31:50.194490  3192 net.cpp:141] Setting up inception_4e/3x3_reduce
I0403 15:31:50.194522  3192 net.cpp:148] Top shape: 24 160 14 14 (752640)
I0403 15:31:50.194540  3192 net.cpp:156] Memory required for data: 1221076512
I0403 15:31:50.194560  3192 layer_factory.hpp:77] Creating layer inception_4e/relu_3x3_reduce
I0403 15:31:50.194578  3192 net.cpp:91] Creating Layer inception_4e/relu_3x3_reduce
I0403 15:31:50.194597  3192 net.cpp:425] inception_4e/relu_3x3_reduce <- inception_4e/3x3_reduce
I0403 15:31:50.194614  3192 net.cpp:386] inception_4e/relu_3x3_reduce -> inception_4e/3x3_reduce (in-place)
I0403 15:31:50.194803  3192 net.cpp:141] Setting up inception_4e/relu_3x3_reduce
I0403 15:31:50.194828  3192 net.cpp:148] Top shape: 24 160 14 14 (752640)
I0403 15:31:50.194844  3192 net.cpp:156] Memory required for data: 1224087072
I0403 15:31:50.194859  3192 layer_factory.hpp:77] Creating layer inception_4e/3x3
I0403 15:31:50.194881  3192 net.cpp:91] Creating Layer inception_4e/3x3
I0403 15:31:50.194898  3192 net.cpp:425] inception_4e/3x3 <- inception_4e/3x3_reduce
I0403 15:31:50.194921  3192 net.cpp:399] inception_4e/3x3 -> inception_4e/3x3
I0403 15:31:50.199968  3192 net.cpp:141] Setting up inception_4e/3x3
I0403 15:31:50.200011  3192 net.cpp:148] Top shape: 24 320 14 14 (1505280)
I0403 15:31:50.200029  3192 net.cpp:156] Memory required for data: 1230108192
I0403 15:31:50.200048  3192 layer_factory.hpp:77] Creating layer inception_4e/relu_3x3
I0403 15:31:50.200068  3192 net.cpp:91] Creating Layer inception_4e/relu_3x3
I0403 15:31:50.200090  3192 net.cpp:425] inception_4e/relu_3x3 <- inception_4e/3x3
I0403 15:31:50.200109  3192 net.cpp:386] inception_4e/relu_3x3 -> inception_4e/3x3 (in-place)
I0403 15:31:50.200415  3192 net.cpp:141] Setting up inception_4e/relu_3x3
I0403 15:31:50.200443  3192 net.cpp:148] Top shape: 24 320 14 14 (1505280)
I0403 15:31:50.200459  3192 net.cpp:156] Memory required for data: 1236129312
I0403 15:31:50.200475  3192 layer_factory.hpp:77] Creating layer inception_4e/5x5_reduce
I0403 15:31:50.200498  3192 net.cpp:91] Creating Layer inception_4e/5x5_reduce
I0403 15:31:50.200516  3192 net.cpp:425] inception_4e/5x5_reduce <- inception_4d/output_inception_4d/output_0_split_3
I0403 15:31:50.200538  3192 net.cpp:399] inception_4e/5x5_reduce -> inception_4e/5x5_reduce
I0403 15:31:50.201624  3192 net.cpp:141] Setting up inception_4e/5x5_reduce
I0403 15:31:50.201655  3192 net.cpp:148] Top shape: 24 32 14 14 (150528)
I0403 15:31:50.201673  3192 net.cpp:156] Memory required for data: 1236731424
I0403 15:31:50.201692  3192 layer_factory.hpp:77] Creating layer inception_4e/relu_5x5_reduce
I0403 15:31:50.201711  3192 net.cpp:91] Creating Layer inception_4e/relu_5x5_reduce
I0403 15:31:50.201730  3192 net.cpp:425] inception_4e/relu_5x5_reduce <- inception_4e/5x5_reduce
I0403 15:31:50.201750  3192 net.cpp:386] inception_4e/relu_5x5_reduce -> inception_4e/5x5_reduce (in-place)
I0403 15:31:50.202054  3192 net.cpp:141] Setting up inception_4e/relu_5x5_reduce
I0403 15:31:50.202083  3192 net.cpp:148] Top shape: 24 32 14 14 (150528)
I0403 15:31:50.202100  3192 net.cpp:156] Memory required for data: 1237333536
I0403 15:31:50.202117  3192 layer_factory.hpp:77] Creating layer inception_4e/5x5
I0403 15:31:50.202157  3192 net.cpp:91] Creating Layer inception_4e/5x5
I0403 15:31:50.202174  3192 net.cpp:425] inception_4e/5x5 <- inception_4e/5x5_reduce
I0403 15:31:50.202194  3192 net.cpp:399] inception_4e/5x5 -> inception_4e/5x5
I0403 15:31:50.204053  3192 net.cpp:141] Setting up inception_4e/5x5
I0403 15:31:50.204082  3192 net.cpp:148] Top shape: 24 128 14 14 (602112)
I0403 15:31:50.204100  3192 net.cpp:156] Memory required for data: 1239741984
I0403 15:31:50.204120  3192 layer_factory.hpp:77] Creating layer inception_4e/relu_5x5
I0403 15:31:50.204141  3192 net.cpp:91] Creating Layer inception_4e/relu_5x5
I0403 15:31:50.204159  3192 net.cpp:425] inception_4e/relu_5x5 <- inception_4e/5x5
I0403 15:31:50.204179  3192 net.cpp:386] inception_4e/relu_5x5 -> inception_4e/5x5 (in-place)
I0403 15:31:50.204380  3192 net.cpp:141] Setting up inception_4e/relu_5x5
I0403 15:31:50.204409  3192 net.cpp:148] Top shape: 24 128 14 14 (602112)
I0403 15:31:50.204427  3192 net.cpp:156] Memory required for data: 1242150432
I0403 15:31:50.204442  3192 layer_factory.hpp:77] Creating layer inception_4e/pool
I0403 15:31:50.204462  3192 net.cpp:91] Creating Layer inception_4e/pool
I0403 15:31:50.204478  3192 net.cpp:425] inception_4e/pool <- inception_4d/output_inception_4d/output_0_split_4
I0403 15:31:50.204499  3192 net.cpp:399] inception_4e/pool -> inception_4e/pool
I0403 15:31:50.204572  3192 net.cpp:141] Setting up inception_4e/pool
I0403 15:31:50.204597  3192 net.cpp:148] Top shape: 24 528 14 14 (2483712)
I0403 15:31:50.204613  3192 net.cpp:156] Memory required for data: 1252085280
I0403 15:31:50.204628  3192 layer_factory.hpp:77] Creating layer inception_4e/pool_proj
I0403 15:31:50.204653  3192 net.cpp:91] Creating Layer inception_4e/pool_proj
I0403 15:31:50.204670  3192 net.cpp:425] inception_4e/pool_proj <- inception_4e/pool
I0403 15:31:50.204690  3192 net.cpp:399] inception_4e/pool_proj -> inception_4e/pool_proj
I0403 15:31:50.206192  3192 net.cpp:141] Setting up inception_4e/pool_proj
I0403 15:31:50.206233  3192 net.cpp:148] Top shape: 24 128 14 14 (602112)
I0403 15:31:50.206255  3192 net.cpp:156] Memory required for data: 1254493728
I0403 15:31:50.206275  3192 layer_factory.hpp:77] Creating layer inception_4e/relu_pool_proj
I0403 15:31:50.206296  3192 net.cpp:91] Creating Layer inception_4e/relu_pool_proj
I0403 15:31:50.206315  3192 net.cpp:425] inception_4e/relu_pool_proj <- inception_4e/pool_proj
I0403 15:31:50.206333  3192 net.cpp:386] inception_4e/relu_pool_proj -> inception_4e/pool_proj (in-place)
I0403 15:31:50.206629  3192 net.cpp:141] Setting up inception_4e/relu_pool_proj
I0403 15:31:50.206655  3192 net.cpp:148] Top shape: 24 128 14 14 (602112)
I0403 15:31:50.206671  3192 net.cpp:156] Memory required for data: 1256902176
I0403 15:31:50.206686  3192 layer_factory.hpp:77] Creating layer inception_4e/output
I0403 15:31:50.206704  3192 net.cpp:91] Creating Layer inception_4e/output
I0403 15:31:50.206720  3192 net.cpp:425] inception_4e/output <- inception_4e/1x1
I0403 15:31:50.206738  3192 net.cpp:425] inception_4e/output <- inception_4e/3x3
I0403 15:31:50.206756  3192 net.cpp:425] inception_4e/output <- inception_4e/5x5
I0403 15:31:50.206773  3192 net.cpp:425] inception_4e/output <- inception_4e/pool_proj
I0403 15:31:50.206790  3192 net.cpp:399] inception_4e/output -> inception_4e/output
I0403 15:31:50.206841  3192 net.cpp:141] Setting up inception_4e/output
I0403 15:31:50.206866  3192 net.cpp:148] Top shape: 24 832 14 14 (3913728)
I0403 15:31:50.206879  3192 net.cpp:156] Memory required for data: 1272557088
I0403 15:31:50.206894  3192 layer_factory.hpp:77] Creating layer pool4/3x3_s2
I0403 15:31:50.206912  3192 net.cpp:91] Creating Layer pool4/3x3_s2
I0403 15:31:50.206928  3192 net.cpp:425] pool4/3x3_s2 <- inception_4e/output
I0403 15:31:50.206948  3192 net.cpp:399] pool4/3x3_s2 -> pool4/3x3_s2
I0403 15:31:50.207016  3192 net.cpp:141] Setting up pool4/3x3_s2
I0403 15:31:50.207039  3192 net.cpp:148] Top shape: 24 832 7 7 (978432)
I0403 15:31:50.207054  3192 net.cpp:156] Memory required for data: 1276470816
I0403 15:31:50.207068  3192 layer_factory.hpp:77] Creating layer pool4/3x3_s2_pool4/3x3_s2_0_split
I0403 15:31:50.207088  3192 net.cpp:91] Creating Layer pool4/3x3_s2_pool4/3x3_s2_0_split
I0403 15:31:50.207105  3192 net.cpp:425] pool4/3x3_s2_pool4/3x3_s2_0_split <- pool4/3x3_s2
I0403 15:31:50.207124  3192 net.cpp:399] pool4/3x3_s2_pool4/3x3_s2_0_split -> pool4/3x3_s2_pool4/3x3_s2_0_split_0
I0403 15:31:50.207147  3192 net.cpp:399] pool4/3x3_s2_pool4/3x3_s2_0_split -> pool4/3x3_s2_pool4/3x3_s2_0_split_1
I0403 15:31:50.207167  3192 net.cpp:399] pool4/3x3_s2_pool4/3x3_s2_0_split -> pool4/3x3_s2_pool4/3x3_s2_0_split_2
I0403 15:31:50.207188  3192 net.cpp:399] pool4/3x3_s2_pool4/3x3_s2_0_split -> pool4/3x3_s2_pool4/3x3_s2_0_split_3
I0403 15:31:50.207284  3192 net.cpp:141] Setting up pool4/3x3_s2_pool4/3x3_s2_0_split
I0403 15:31:50.207309  3192 net.cpp:148] Top shape: 24 832 7 7 (978432)
I0403 15:31:50.207324  3192 net.cpp:148] Top shape: 24 832 7 7 (978432)
I0403 15:31:50.207340  3192 net.cpp:148] Top shape: 24 832 7 7 (978432)
I0403 15:31:50.207356  3192 net.cpp:148] Top shape: 24 832 7 7 (978432)
I0403 15:31:50.207370  3192 net.cpp:156] Memory required for data: 1292125728
I0403 15:31:50.207384  3192 layer_factory.hpp:77] Creating layer inception_5a/1x1
I0403 15:31:50.207406  3192 net.cpp:91] Creating Layer inception_5a/1x1
I0403 15:31:50.207424  3192 net.cpp:425] inception_5a/1x1 <- pool4/3x3_s2_pool4/3x3_s2_0_split_0
I0403 15:31:50.207445  3192 net.cpp:399] inception_5a/1x1 -> inception_5a/1x1
I0403 15:31:50.210307  3192 net.cpp:141] Setting up inception_5a/1x1
I0403 15:31:50.210340  3192 net.cpp:148] Top shape: 24 256 7 7 (301056)
I0403 15:31:50.210360  3192 net.cpp:156] Memory required for data: 1293329952
I0403 15:31:50.210378  3192 layer_factory.hpp:77] Creating layer inception_5a/relu_1x1
I0403 15:31:50.210397  3192 net.cpp:91] Creating Layer inception_5a/relu_1x1
I0403 15:31:50.210415  3192 net.cpp:425] inception_5a/relu_1x1 <- inception_5a/1x1
I0403 15:31:50.210434  3192 net.cpp:386] inception_5a/relu_1x1 -> inception_5a/1x1 (in-place)
I0403 15:31:50.210752  3192 net.cpp:141] Setting up inception_5a/relu_1x1
I0403 15:31:50.210783  3192 net.cpp:148] Top shape: 24 256 7 7 (301056)
I0403 15:31:50.210799  3192 net.cpp:156] Memory required for data: 1294534176
I0403 15:31:50.210814  3192 layer_factory.hpp:77] Creating layer inception_5a/3x3_reduce
I0403 15:31:50.210835  3192 net.cpp:91] Creating Layer inception_5a/3x3_reduce
I0403 15:31:50.210851  3192 net.cpp:425] inception_5a/3x3_reduce <- pool4/3x3_s2_pool4/3x3_s2_0_split_1
I0403 15:31:50.210873  3192 net.cpp:399] inception_5a/3x3_reduce -> inception_5a/3x3_reduce
I0403 15:31:50.213345  3192 net.cpp:141] Setting up inception_5a/3x3_reduce
I0403 15:31:50.213376  3192 net.cpp:148] Top shape: 24 160 7 7 (188160)
I0403 15:31:50.213392  3192 net.cpp:156] Memory required for data: 1295286816
I0403 15:31:50.213412  3192 layer_factory.hpp:77] Creating layer inception_5a/relu_3x3_reduce
I0403 15:31:50.213433  3192 net.cpp:91] Creating Layer inception_5a/relu_3x3_reduce
I0403 15:31:50.213452  3192 net.cpp:425] inception_5a/relu_3x3_reduce <- inception_5a/3x3_reduce
I0403 15:31:50.213470  3192 net.cpp:386] inception_5a/relu_3x3_reduce -> inception_5a/3x3_reduce (in-place)
I0403 15:31:50.213657  3192 net.cpp:141] Setting up inception_5a/relu_3x3_reduce
I0403 15:31:50.213683  3192 net.cpp:148] Top shape: 24 160 7 7 (188160)
I0403 15:31:50.213701  3192 net.cpp:156] Memory required for data: 1296039456
I0403 15:31:50.213718  3192 layer_factory.hpp:77] Creating layer inception_5a/3x3
I0403 15:31:50.213738  3192 net.cpp:91] Creating Layer inception_5a/3x3
I0403 15:31:50.213757  3192 net.cpp:425] inception_5a/3x3 <- inception_5a/3x3_reduce
I0403 15:31:50.213779  3192 net.cpp:399] inception_5a/3x3 -> inception_5a/3x3
I0403 15:31:50.218844  3192 net.cpp:141] Setting up inception_5a/3x3
I0403 15:31:50.218876  3192 net.cpp:148] Top shape: 24 320 7 7 (376320)
I0403 15:31:50.218894  3192 net.cpp:156] Memory required for data: 1297544736
I0403 15:31:50.218914  3192 layer_factory.hpp:77] Creating layer inception_5a/relu_3x3
I0403 15:31:50.218935  3192 net.cpp:91] Creating Layer inception_5a/relu_3x3
I0403 15:31:50.218951  3192 net.cpp:425] inception_5a/relu_3x3 <- inception_5a/3x3
I0403 15:31:50.218971  3192 net.cpp:386] inception_5a/relu_3x3 -> inception_5a/3x3 (in-place)
I0403 15:31:50.219269  3192 net.cpp:141] Setting up inception_5a/relu_3x3
I0403 15:31:50.219295  3192 net.cpp:148] Top shape: 24 320 7 7 (376320)
I0403 15:31:50.219310  3192 net.cpp:156] Memory required for data: 1299050016
I0403 15:31:50.219326  3192 layer_factory.hpp:77] Creating layer inception_5a/5x5_reduce
I0403 15:31:50.219350  3192 net.cpp:91] Creating Layer inception_5a/5x5_reduce
I0403 15:31:50.219368  3192 net.cpp:425] inception_5a/5x5_reduce <- pool4/3x3_s2_pool4/3x3_s2_0_split_2
I0403 15:31:50.219388  3192 net.cpp:399] inception_5a/5x5_reduce -> inception_5a/5x5_reduce
I0403 15:31:50.220569  3192 net.cpp:141] Setting up inception_5a/5x5_reduce
I0403 15:31:50.220602  3192 net.cpp:148] Top shape: 24 32 7 7 (37632)
I0403 15:31:50.220619  3192 net.cpp:156] Memory required for data: 1299200544
I0403 15:31:50.220639  3192 layer_factory.hpp:77] Creating layer inception_5a/relu_5x5_reduce
I0403 15:31:50.220656  3192 net.cpp:91] Creating Layer inception_5a/relu_5x5_reduce
I0403 15:31:50.220674  3192 net.cpp:425] inception_5a/relu_5x5_reduce <- inception_5a/5x5_reduce
I0403 15:31:50.220690  3192 net.cpp:386] inception_5a/relu_5x5_reduce -> inception_5a/5x5_reduce (in-place)
I0403 15:31:50.220993  3192 net.cpp:141] Setting up inception_5a/relu_5x5_reduce
I0403 15:31:50.221020  3192 net.cpp:148] Top shape: 24 32 7 7 (37632)
I0403 15:31:50.221037  3192 net.cpp:156] Memory required for data: 1299351072
I0403 15:31:50.221052  3192 layer_factory.hpp:77] Creating layer inception_5a/5x5
I0403 15:31:50.221073  3192 net.cpp:91] Creating Layer inception_5a/5x5
I0403 15:31:50.221092  3192 net.cpp:425] inception_5a/5x5 <- inception_5a/5x5_reduce
I0403 15:31:50.221112  3192 net.cpp:399] inception_5a/5x5 -> inception_5a/5x5
I0403 15:31:50.222853  3192 net.cpp:141] Setting up inception_5a/5x5
I0403 15:31:50.222895  3192 net.cpp:148] Top shape: 24 128 7 7 (150528)
I0403 15:31:50.222913  3192 net.cpp:156] Memory required for data: 1299953184
I0403 15:31:50.222932  3192 layer_factory.hpp:77] Creating layer inception_5a/relu_5x5
I0403 15:31:50.222954  3192 net.cpp:91] Creating Layer inception_5a/relu_5x5
I0403 15:31:50.222972  3192 net.cpp:425] inception_5a/relu_5x5 <- inception_5a/5x5
I0403 15:31:50.222991  3192 net.cpp:386] inception_5a/relu_5x5 -> inception_5a/5x5 (in-place)
I0403 15:31:50.223184  3192 net.cpp:141] Setting up inception_5a/relu_5x5
I0403 15:31:50.223209  3192 net.cpp:148] Top shape: 24 128 7 7 (150528)
I0403 15:31:50.223224  3192 net.cpp:156] Memory required for data: 1300555296
I0403 15:31:50.223245  3192 layer_factory.hpp:77] Creating layer inception_5a/pool
I0403 15:31:50.223273  3192 net.cpp:91] Creating Layer inception_5a/pool
I0403 15:31:50.223290  3192 net.cpp:425] inception_5a/pool <- pool4/3x3_s2_pool4/3x3_s2_0_split_3
I0403 15:31:50.223312  3192 net.cpp:399] inception_5a/pool -> inception_5a/pool
I0403 15:31:50.223390  3192 net.cpp:141] Setting up inception_5a/pool
I0403 15:31:50.223414  3192 net.cpp:148] Top shape: 24 832 7 7 (978432)
I0403 15:31:50.223428  3192 net.cpp:156] Memory required for data: 1304469024
I0403 15:31:50.223443  3192 layer_factory.hpp:77] Creating layer inception_5a/pool_proj
I0403 15:31:50.223467  3192 net.cpp:91] Creating Layer inception_5a/pool_proj
I0403 15:31:50.223485  3192 net.cpp:425] inception_5a/pool_proj <- inception_5a/pool
I0403 15:31:50.223505  3192 net.cpp:399] inception_5a/pool_proj -> inception_5a/pool_proj
I0403 15:31:50.225802  3192 net.cpp:141] Setting up inception_5a/pool_proj
I0403 15:31:50.225833  3192 net.cpp:148] Top shape: 24 128 7 7 (150528)
I0403 15:31:50.225850  3192 net.cpp:156] Memory required for data: 1305071136
I0403 15:31:50.225869  3192 layer_factory.hpp:77] Creating layer inception_5a/relu_pool_proj
I0403 15:31:50.225890  3192 net.cpp:91] Creating Layer inception_5a/relu_pool_proj
I0403 15:31:50.225908  3192 net.cpp:425] inception_5a/relu_pool_proj <- inception_5a/pool_proj
I0403 15:31:50.225925  3192 net.cpp:386] inception_5a/relu_pool_proj -> inception_5a/pool_proj (in-place)
I0403 15:31:50.226248  3192 net.cpp:141] Setting up inception_5a/relu_pool_proj
I0403 15:31:50.226276  3192 net.cpp:148] Top shape: 24 128 7 7 (150528)
I0403 15:31:50.226294  3192 net.cpp:156] Memory required for data: 1305673248
I0403 15:31:50.226311  3192 layer_factory.hpp:77] Creating layer inception_5a/output
I0403 15:31:50.226332  3192 net.cpp:91] Creating Layer inception_5a/output
I0403 15:31:50.226351  3192 net.cpp:425] inception_5a/output <- inception_5a/1x1
I0403 15:31:50.226369  3192 net.cpp:425] inception_5a/output <- inception_5a/3x3
I0403 15:31:50.226387  3192 net.cpp:425] inception_5a/output <- inception_5a/5x5
I0403 15:31:50.226404  3192 net.cpp:425] inception_5a/output <- inception_5a/pool_proj
I0403 15:31:50.226423  3192 net.cpp:399] inception_5a/output -> inception_5a/output
I0403 15:31:50.226480  3192 net.cpp:141] Setting up inception_5a/output
I0403 15:31:50.226505  3192 net.cpp:148] Top shape: 24 832 7 7 (978432)
I0403 15:31:50.226521  3192 net.cpp:156] Memory required for data: 1309586976
I0403 15:31:50.226538  3192 layer_factory.hpp:77] Creating layer inception_5a/output_inception_5a/output_0_split
I0403 15:31:50.226557  3192 net.cpp:91] Creating Layer inception_5a/output_inception_5a/output_0_split
I0403 15:31:50.226574  3192 net.cpp:425] inception_5a/output_inception_5a/output_0_split <- inception_5a/output
I0403 15:31:50.226595  3192 net.cpp:399] inception_5a/output_inception_5a/output_0_split -> inception_5a/output_inception_5a/output_0_split_0
I0403 15:31:50.226618  3192 net.cpp:399] inception_5a/output_inception_5a/output_0_split -> inception_5a/output_inception_5a/output_0_split_1
I0403 15:31:50.226639  3192 net.cpp:399] inception_5a/output_inception_5a/output_0_split -> inception_5a/output_inception_5a/output_0_split_2
I0403 15:31:50.226661  3192 net.cpp:399] inception_5a/output_inception_5a/output_0_split -> inception_5a/output_inception_5a/output_0_split_3
I0403 15:31:50.226778  3192 net.cpp:141] Setting up inception_5a/output_inception_5a/output_0_split
I0403 15:31:50.226806  3192 net.cpp:148] Top shape: 24 832 7 7 (978432)
I0403 15:31:50.226825  3192 net.cpp:148] Top shape: 24 832 7 7 (978432)
I0403 15:31:50.226843  3192 net.cpp:148] Top shape: 24 832 7 7 (978432)
I0403 15:31:50.226861  3192 net.cpp:148] Top shape: 24 832 7 7 (978432)
I0403 15:31:50.226876  3192 net.cpp:156] Memory required for data: 1325241888
I0403 15:31:50.226891  3192 layer_factory.hpp:77] Creating layer inception_5b/1x1
I0403 15:31:50.226915  3192 net.cpp:91] Creating Layer inception_5b/1x1
I0403 15:31:50.226935  3192 net.cpp:425] inception_5b/1x1 <- inception_5a/output_inception_5a/output_0_split_0
I0403 15:31:50.226956  3192 net.cpp:399] inception_5b/1x1 -> inception_5b/1x1
I0403 15:31:50.230857  3192 net.cpp:141] Setting up inception_5b/1x1
I0403 15:31:50.230890  3192 net.cpp:148] Top shape: 24 384 7 7 (451584)
I0403 15:31:50.230906  3192 net.cpp:156] Memory required for data: 1327048224
I0403 15:31:50.230927  3192 layer_factory.hpp:77] Creating layer inception_5b/relu_1x1
I0403 15:31:50.230948  3192 net.cpp:91] Creating Layer inception_5b/relu_1x1
I0403 15:31:50.230968  3192 net.cpp:425] inception_5b/relu_1x1 <- inception_5b/1x1
I0403 15:31:50.230988  3192 net.cpp:386] inception_5b/relu_1x1 -> inception_5b/1x1 (in-place)
I0403 15:31:50.231315  3192 net.cpp:141] Setting up inception_5b/relu_1x1
I0403 15:31:50.231343  3192 net.cpp:148] Top shape: 24 384 7 7 (451584)
I0403 15:31:50.231359  3192 net.cpp:156] Memory required for data: 1328854560
I0403 15:31:50.231374  3192 layer_factory.hpp:77] Creating layer inception_5b/3x3_reduce
I0403 15:31:50.231397  3192 net.cpp:91] Creating Layer inception_5b/3x3_reduce
I0403 15:31:50.231416  3192 net.cpp:425] inception_5b/3x3_reduce <- inception_5a/output_inception_5a/output_0_split_1
I0403 15:31:50.231439  3192 net.cpp:399] inception_5b/3x3_reduce -> inception_5b/3x3_reduce
I0403 15:31:50.234199  3192 net.cpp:141] Setting up inception_5b/3x3_reduce
I0403 15:31:50.234230  3192 net.cpp:148] Top shape: 24 192 7 7 (225792)
I0403 15:31:50.234252  3192 net.cpp:156] Memory required for data: 1329757728
I0403 15:31:50.234273  3192 layer_factory.hpp:77] Creating layer inception_5b/relu_3x3_reduce
I0403 15:31:50.234297  3192 net.cpp:91] Creating Layer inception_5b/relu_3x3_reduce
I0403 15:31:50.234315  3192 net.cpp:425] inception_5b/relu_3x3_reduce <- inception_5b/3x3_reduce
I0403 15:31:50.234336  3192 net.cpp:386] inception_5b/relu_3x3_reduce -> inception_5b/3x3_reduce (in-place)
I0403 15:31:50.234535  3192 net.cpp:141] Setting up inception_5b/relu_3x3_reduce
I0403 15:31:50.234560  3192 net.cpp:148] Top shape: 24 192 7 7 (225792)
I0403 15:31:50.234576  3192 net.cpp:156] Memory required for data: 1330660896
I0403 15:31:50.234591  3192 layer_factory.hpp:77] Creating layer inception_5b/3x3
I0403 15:31:50.234616  3192 net.cpp:91] Creating Layer inception_5b/3x3
I0403 15:31:50.234634  3192 net.cpp:425] inception_5b/3x3 <- inception_5b/3x3_reduce
I0403 15:31:50.234654  3192 net.cpp:399] inception_5b/3x3 -> inception_5b/3x3
I0403 15:31:50.241618  3192 net.cpp:141] Setting up inception_5b/3x3
I0403 15:31:50.241649  3192 net.cpp:148] Top shape: 24 384 7 7 (451584)
I0403 15:31:50.241667  3192 net.cpp:156] Memory required for data: 1332467232
I0403 15:31:50.241685  3192 layer_factory.hpp:77] Creating layer inception_5b/relu_3x3
I0403 15:31:50.241706  3192 net.cpp:91] Creating Layer inception_5b/relu_3x3
I0403 15:31:50.241724  3192 net.cpp:425] inception_5b/relu_3x3 <- inception_5b/3x3
I0403 15:31:50.241742  3192 net.cpp:386] inception_5b/relu_3x3 -> inception_5b/3x3 (in-place)
I0403 15:31:50.242051  3192 net.cpp:141] Setting up inception_5b/relu_3x3
I0403 15:31:50.242079  3192 net.cpp:148] Top shape: 24 384 7 7 (451584)
I0403 15:31:50.242095  3192 net.cpp:156] Memory required for data: 1334273568
I0403 15:31:50.242111  3192 layer_factory.hpp:77] Creating layer inception_5b/5x5_reduce
I0403 15:31:50.242152  3192 net.cpp:91] Creating Layer inception_5b/5x5_reduce
I0403 15:31:50.242172  3192 net.cpp:425] inception_5b/5x5_reduce <- inception_5a/output_inception_5a/output_0_split_2
I0403 15:31:50.242194  3192 net.cpp:399] inception_5b/5x5_reduce -> inception_5b/5x5_reduce
I0403 15:31:50.243533  3192 net.cpp:141] Setting up inception_5b/5x5_reduce
I0403 15:31:50.243562  3192 net.cpp:148] Top shape: 24 48 7 7 (56448)
I0403 15:31:50.243579  3192 net.cpp:156] Memory required for data: 1334499360
I0403 15:31:50.243600  3192 layer_factory.hpp:77] Creating layer inception_5b/relu_5x5_reduce
I0403 15:31:50.243621  3192 net.cpp:91] Creating Layer inception_5b/relu_5x5_reduce
I0403 15:31:50.243638  3192 net.cpp:425] inception_5b/relu_5x5_reduce <- inception_5b/5x5_reduce
I0403 15:31:50.243656  3192 net.cpp:386] inception_5b/relu_5x5_reduce -> inception_5b/5x5_reduce (in-place)
I0403 15:31:50.244045  3192 net.cpp:141] Setting up inception_5b/relu_5x5_reduce
I0403 15:31:50.244074  3192 net.cpp:148] Top shape: 24 48 7 7 (56448)
I0403 15:31:50.244089  3192 net.cpp:156] Memory required for data: 1334725152
I0403 15:31:50.244105  3192 layer_factory.hpp:77] Creating layer inception_5b/5x5
I0403 15:31:50.244127  3192 net.cpp:91] Creating Layer inception_5b/5x5
I0403 15:31:50.244144  3192 net.cpp:425] inception_5b/5x5 <- inception_5b/5x5_reduce
I0403 15:31:50.244163  3192 net.cpp:399] inception_5b/5x5 -> inception_5b/5x5
I0403 15:31:50.246331  3192 net.cpp:141] Setting up inception_5b/5x5
I0403 15:31:50.246364  3192 net.cpp:148] Top shape: 24 128 7 7 (150528)
I0403 15:31:50.246382  3192 net.cpp:156] Memory required for data: 1335327264
I0403 15:31:50.246402  3192 layer_factory.hpp:77] Creating layer inception_5b/relu_5x5
I0403 15:31:50.246422  3192 net.cpp:91] Creating Layer inception_5b/relu_5x5
I0403 15:31:50.246439  3192 net.cpp:425] inception_5b/relu_5x5 <- inception_5b/5x5
I0403 15:31:50.246459  3192 net.cpp:386] inception_5b/relu_5x5 -> inception_5b/5x5 (in-place)
I0403 15:31:50.246661  3192 net.cpp:141] Setting up inception_5b/relu_5x5
I0403 15:31:50.246691  3192 net.cpp:148] Top shape: 24 128 7 7 (150528)
I0403 15:31:50.246709  3192 net.cpp:156] Memory required for data: 1335929376
I0403 15:31:50.246726  3192 layer_factory.hpp:77] Creating layer inception_5b/pool
I0403 15:31:50.246744  3192 net.cpp:91] Creating Layer inception_5b/pool
I0403 15:31:50.246762  3192 net.cpp:425] inception_5b/pool <- inception_5a/output_inception_5a/output_0_split_3
I0403 15:31:50.246783  3192 net.cpp:399] inception_5b/pool -> inception_5b/pool
I0403 15:31:50.246860  3192 net.cpp:141] Setting up inception_5b/pool
I0403 15:31:50.246886  3192 net.cpp:148] Top shape: 24 832 7 7 (978432)
I0403 15:31:50.246902  3192 net.cpp:156] Memory required for data: 1339843104
I0403 15:31:50.246918  3192 layer_factory.hpp:77] Creating layer inception_5b/pool_proj
I0403 15:31:50.246940  3192 net.cpp:91] Creating Layer inception_5b/pool_proj
I0403 15:31:50.246959  3192 net.cpp:425] inception_5b/pool_proj <- inception_5b/pool
I0403 15:31:50.246978  3192 net.cpp:399] inception_5b/pool_proj -> inception_5b/pool_proj
I0403 15:31:50.249382  3192 net.cpp:141] Setting up inception_5b/pool_proj
I0403 15:31:50.249413  3192 net.cpp:148] Top shape: 24 128 7 7 (150528)
I0403 15:31:50.249431  3192 net.cpp:156] Memory required for data: 1340445216
I0403 15:31:50.249451  3192 layer_factory.hpp:77] Creating layer inception_5b/relu_pool_proj
I0403 15:31:50.249475  3192 net.cpp:91] Creating Layer inception_5b/relu_pool_proj
I0403 15:31:50.249493  3192 net.cpp:425] inception_5b/relu_pool_proj <- inception_5b/pool_proj
I0403 15:31:50.249512  3192 net.cpp:386] inception_5b/relu_pool_proj -> inception_5b/pool_proj (in-place)
I0403 15:31:50.249821  3192 net.cpp:141] Setting up inception_5b/relu_pool_proj
I0403 15:31:50.249850  3192 net.cpp:148] Top shape: 24 128 7 7 (150528)
I0403 15:31:50.249866  3192 net.cpp:156] Memory required for data: 1341047328
I0403 15:31:50.249882  3192 layer_factory.hpp:77] Creating layer inception_5b/output
I0403 15:31:50.249902  3192 net.cpp:91] Creating Layer inception_5b/output
I0403 15:31:50.249936  3192 net.cpp:425] inception_5b/output <- inception_5b/1x1
I0403 15:31:50.249955  3192 net.cpp:425] inception_5b/output <- inception_5b/3x3
I0403 15:31:50.249974  3192 net.cpp:425] inception_5b/output <- inception_5b/5x5
I0403 15:31:50.249992  3192 net.cpp:425] inception_5b/output <- inception_5b/pool_proj
I0403 15:31:50.250012  3192 net.cpp:399] inception_5b/output -> inception_5b/output
I0403 15:31:50.250068  3192 net.cpp:141] Setting up inception_5b/output
I0403 15:31:50.250092  3192 net.cpp:148] Top shape: 24 1024 7 7 (1204224)
I0403 15:31:50.250108  3192 net.cpp:156] Memory required for data: 1345864224
I0403 15:31:50.250123  3192 layer_factory.hpp:77] Creating layer pool5/7x7_s1
I0403 15:31:50.250141  3192 net.cpp:91] Creating Layer pool5/7x7_s1
I0403 15:31:50.250157  3192 net.cpp:425] pool5/7x7_s1 <- inception_5b/output
I0403 15:31:50.250179  3192 net.cpp:399] pool5/7x7_s1 -> pool5/7x7_s1
I0403 15:31:50.250409  3192 net.cpp:141] Setting up pool5/7x7_s1
I0403 15:31:50.250435  3192 net.cpp:148] Top shape: 24 1024 1 1 (24576)
I0403 15:31:50.250450  3192 net.cpp:156] Memory required for data: 1345962528
I0403 15:31:50.250468  3192 layer_factory.hpp:77] Creating layer pool5/drop_7x7_s1
I0403 15:31:50.250489  3192 net.cpp:91] Creating Layer pool5/drop_7x7_s1
I0403 15:31:50.250506  3192 net.cpp:425] pool5/drop_7x7_s1 <- pool5/7x7_s1
I0403 15:31:50.250524  3192 net.cpp:386] pool5/drop_7x7_s1 -> pool5/7x7_s1 (in-place)
I0403 15:31:50.250577  3192 net.cpp:141] Setting up pool5/drop_7x7_s1
I0403 15:31:50.250602  3192 net.cpp:148] Top shape: 24 1024 1 1 (24576)
I0403 15:31:50.250617  3192 net.cpp:156] Memory required for data: 1346060832
I0403 15:31:50.250633  3192 layer_factory.hpp:77] Creating layer loss3/classifier_plantvillage
I0403 15:31:50.250655  3192 net.cpp:91] Creating Layer loss3/classifier_plantvillage
I0403 15:31:50.250674  3192 net.cpp:425] loss3/classifier_plantvillage <- pool5/7x7_s1
I0403 15:31:50.250692  3192 net.cpp:399] loss3/classifier_plantvillage -> loss3/classifier_plantvillage
I0403 15:31:50.251142  3192 net.cpp:141] Setting up loss3/classifier_plantvillage
I0403 15:31:50.251168  3192 net.cpp:148] Top shape: 24 38 (912)
I0403 15:31:50.251183  3192 net.cpp:156] Memory required for data: 1346064480
I0403 15:31:50.251202  3192 layer_factory.hpp:77] Creating layer loss3/classifier_plantvillage_loss3/classifier_plantvillage_0_split
I0403 15:31:50.251220  3192 net.cpp:91] Creating Layer loss3/classifier_plantvillage_loss3/classifier_plantvillage_0_split
I0403 15:31:50.251237  3192 net.cpp:425] loss3/classifier_plantvillage_loss3/classifier_plantvillage_0_split <- loss3/classifier_plantvillage
I0403 15:31:50.251265  3192 net.cpp:399] loss3/classifier_plantvillage_loss3/classifier_plantvillage_0_split -> loss3/classifier_plantvillage_loss3/classifier_plantvillage_0_split_0
I0403 15:31:50.251287  3192 net.cpp:399] loss3/classifier_plantvillage_loss3/classifier_plantvillage_0_split -> loss3/classifier_plantvillage_loss3/classifier_plantvillage_0_split_1
I0403 15:31:50.251308  3192 net.cpp:399] loss3/classifier_plantvillage_loss3/classifier_plantvillage_0_split -> loss3/classifier_plantvillage_loss3/classifier_plantvillage_0_split_2
I0403 15:31:50.251332  3192 net.cpp:399] loss3/classifier_plantvillage_loss3/classifier_plantvillage_0_split -> loss3/classifier_plantvillage_loss3/classifier_plantvillage_0_split_3
I0403 15:31:50.251438  3192 net.cpp:141] Setting up loss3/classifier_plantvillage_loss3/classifier_plantvillage_0_split
I0403 15:31:50.251462  3192 net.cpp:148] Top shape: 24 38 (912)
I0403 15:31:50.251478  3192 net.cpp:148] Top shape: 24 38 (912)
I0403 15:31:50.251495  3192 net.cpp:148] Top shape: 24 38 (912)
I0403 15:31:50.251512  3192 net.cpp:148] Top shape: 24 38 (912)
I0403 15:31:50.251525  3192 net.cpp:156] Memory required for data: 1346079072
I0403 15:31:50.251541  3192 layer_factory.hpp:77] Creating layer loss1/loss
I0403 15:31:50.251564  3192 net.cpp:91] Creating Layer loss1/loss
I0403 15:31:50.251581  3192 net.cpp:425] loss1/loss <- loss1/classifier_plantvillage_loss1/classifier_plantvillage_0_split_0
I0403 15:31:50.251613  3192 net.cpp:425] loss1/loss <- label_data_1_split_0
…
