…
I0403 15:12:27.494292  2802 net.cpp:313] The NetState phase (1) differed from the phase (0) specified by a rule in layer data
I0403 15:12:27.495445  2802 net.cpp:49] Initializing net from parameters: 
state {
  phase: TEST
}
layer {
  name: "data"
  type: "Data"
  top: "data"
  top: "label"
  include {
    phase: TEST
  }
  transform_param {
    mirror: false
    crop_size: 224
    mean_file: "/home/mohanty/data/final_dataset/lmdb/grayscale-50-50/mean.binaryproto"
  }
  data_param {
    source: "/home/mohanty/data/final_dataset/lmdb/grayscale-50-50/test_db"
    batch_size: 24
    backend: LMDB
  }
}
layer {
  name: "conv1/7x7_s2"
  type: "Convolution"
  bottom: "data"
  top: "conv1/7x7_s2"
  param {
    lr_mult: 1
    decay_mult: 1
  }
  param {
    lr_mult: 2
    decay_mult: 0
  }
  convolution_param {
    num_output: 64
    pad: 3
    kernel_size: 7
    stride: 2
    weight_filler {
      type: "xavier"
      std: 0.1
    }
    bias_filler {
      type: "constant"
      value: 0.2
    }
  }
}
layer {
  name: "conv1/relu_7x7"
  type: "ReLU"
  bottom: "conv1/7x7_s2"
  top: "conv1/7x7_s2"
}
layer {
  name: "pool1/3x3_s2"
  type: "Pooling"
  bottom: "conv1/7x7_s2"
  top: "pool1/3x3_s2"
  pooling_param {
    pool: MAX
    kernel_size: 3
    stride: 2
  }
}
layer {
  name: "pool1/norm1"
  type: "LRN"
  bottom: "pool1/3x3_s2"
  top: "pool1/norm1"
  lrn_param {
    local_size: 5
    alpha: 0.0001
    beta: 0.75
  }
}
layer {
  name: "conv2/3x3_reduce"
  type: "Convolution"
  bottom: "pool1/norm1"
  top: "conv2/3x3_reduce"
  param {
    lr_mult: 1
    decay_mult: 1
  }
  param {
    lr_mult: 2
    decay_mult: 0
  }
  convolution_param {
    num_output: 64
    kernel_size: 1
    weight_filler {
      type: "xavier"
      std: 0.1
    }
    bias_filler {
      type: "constant"
      value: 0.2
    }
  }
}
layer {
  name: "conv2/relu_3x3_reduce"
  type: "ReLU"
  bottom: "conv2/3x3_reduce"
  top: "conv2/3x3_reduce"
}
layer {
  name: "conv2/3x3"
  type: "Convolution"
  bottom: "conv2/3x3_reduce"
  top: "conv2/3x3"
  param {
    lr_mult: 1
    decay_mult: 1
  }
  param {
    lr_mult: 2
    decay_mult: 0
  }
  convolution_param {
    num_output: 192
    pad: 1
    kernel_size: 3
    weight_filler {
      type: "xavier"
      std: 0.03
    }
    bias_filler {
      type: "constant"
      value: 0.2
    }
  }
}
layer {
  name: "conv2/relu_3x3"
  type: "ReLU"
  bottom: "conv2/3x3"
  top: "conv2/3x3"
}
layer {
  name: "conv2/norm2"
  type: "LRN"
  bottom: "conv2/3x3"
  top: "conv2/norm2"
  lrn_param {
    local_size: 5
    alpha: 0.0001
    beta: 0.75
  }
}
layer {
  name: "pool2/3x3_s2"
  type: "Pooling"
  bottom: "conv2/norm2"
  top: "pool2/3x3_s2"
  pooling_param {
    pool: MAX
    kernel_size: 3
    stride: 2
  }
}
layer {
  name: "inception_3a/1x1"
  type: "Convolution"
  bottom: "pool2/3x3_s2"
  top: "inception_3a/1x1"
  param {
    lr_mult: 1
    decay_mult: 1
  }
  param {
    lr_mult: 2
    decay_mult: 0
  }
  convolution_param {
    num_output: 64
    kernel_size: 1
    weight_filler {
      type: "xavier"
      std: 0.03
    }
    bias_filler {
      type: "constant"
      value: 0.2
    }
  }
}
layer {
  name: "inception_3a/relu_1x1"
  type: "ReLU"
  bottom: "inception_3a/1x1"
  top: "inception_3a/1x1"
}
layer {
  name: "inception_3a/3x3_reduce"
  type: "Convolution"
  bottom: "pool2/3x3_s2"
  top: "inception_3a/3x3_reduce"
  param {
    lr_mult: 1
    decay_mult: 1
  }
  param {
    lr_mult: 2
    decay_mult: 0
  }
  convolution_param {
    num_output: 96
    kernel_size: 1
    weight_filler {
      type: "xavier"
      std: 0.09
    }
    bias_filler {
      type: "constant"
      value: 0.2
    }
  }
}
layer {
  name: "inception_3a/relu_3x3_reduce"
  type: "ReLU"
  bottom: "inception_3a/3x3_reduce"
  top: "inception_3a/3x3_reduce"
}
layer {
  name: "inception_3a/3x3"
  type: "Convolution"
  bottom: "inception_3a/3x3_reduce"
  top: "inception_3a/3x3"
  param {
    lr_mult: 1
    decay_mult: 1
  }
  param {
    lr_mult: 2
    decay_mult: 0
  }
  convolution_param {
    num_output: 128
    pad: 1
    kernel_size: 3
    weight_filler {
      type: "xavier"
      std: 0.03
    }
    bias_filler {
      type: "constant"
      value: 0.2
    }
  }
}
layer {
  name: "inception_3a/relu_3x3"
  type: "ReLU"
  bottom: "inception_3a/3x3"
  top: "inception_3a/3x3"
}
layer {
  name: "inception_3a/5x5_reduce"
  type: "Convolution"
  bottom: "pool2/3x3_s2"
  top: "inception_3a/5x5_reduce"
  param {
    lr_mult: 1
    decay_mult: 1
  }
  param {
    lr_mult: 2
    decay_mult: 0
  }
  convolution_param {
    num_output: 16
    kernel_size: 1
    weight_filler {
      type: "xavier"
      std: 0.2
    }
    bias_filler {
      type: "constant"
      value: 0.2
    }
  }
}
layer {
  name: "inception_3a/relu_5x5_reduce"
  type: "ReLU"
  bottom: "inception_3a/5x5_reduce"
  top: "inception_3a/5x5_reduce"
}
layer {
  name: "inception_3a/5x5"
  type: "Convolution"
  bottom: "inception_3a/5x5_reduce"
  top: "inception_3a/5x5"
  param {
    lr_mult: 1
    decay_mult: 1
  }
  param {
    lr_mult: 2
    decay_mult: 0
  }
  convolution_param {
    num_output: 32
    pad: 2
    kernel_size: 5
    weight_filler {
      type: "xavier"
      std: 0.03
    }
    bias_filler {
      type: "constant"
      value: 0.2
    }
  }
}
layer {
  name: "inception_3a/relu_5x5"
  type: "ReLU"
  bottom: "inception_3a/5x5"
  top: "inception_3a/5x5"
}
layer {
  name: "inception_3a/pool"
  type: "Pooling"
  bottom: "pool2/3x3_s2"
  top: "inception_3a/pool"
  pooling_param {
    pool: MAX
    kernel_size: 3
    stride: 1
    pad: 1
  }
}
layer {
  name: "inception_3a/pool_proj"
  type: "Convolution"
  bottom: "inception_3a/pool"
  top: "inception_3a/pool_proj"
  param {
    lr_mult: 1
    decay_mult: 1
  }
  param {
    lr_mult: 2
    decay_mult: 0
  }
  convolution_param {
    num_output: 32
    kernel_size: 1
    weight_filler {
      type: "xavier"
      std: 0.1
    }
    bias_filler {
      type: "constant"
      value: 0.2
    }
  }
}
layer {
  name: "inception_3a/relu_pool_proj"
  type: "ReLU"
  bottom: "inception_3a/pool_proj"
  top: "inception_3a/pool_proj"
}
layer {
  name: "inception_3a/output"
  type: "Concat"
  bottom: "inception_3a/1x1"
  bottom: "inception_3a/3x3"
  bottom: "inception_3a/5x5"
  bottom: "inception_3a/pool_proj"
  top: "inception_3a/output"
}
layer {
  name: "inception_3b/1x1"
  type: "Convolution"
  bottom: "inception_3a/output"
  top: "inception_3b/1x1"
  param {
    lr_mult: 1
    decay_mult: 1
  }
  param {
    lr_mult: 2
    decay_mult: 0
  }
  convolution_param {
    num_output: 128
    kernel_size: 1
    weight_filler {
      type: "xavier"
      std: 0.03
    }
    bias_filler {
      type: "constant"
      value: 0.2
    }
  }
}
layer {
  name: "inception_3b/relu_1x1"
  type: "ReLU"
  bottom: "inception_3b/1x1"
  top: "inception_3b/1x1"
}
layer {
  name: "inception_3b/3x3_reduce"
  type: "Convolution"
  bottom: "inception_3a/output"
  top: "inception_3b/3x3_reduce"
  param {
    lr_mult: 1
    decay_mult: 1
  }
  param {
    lr_mult: 2
    decay_mult: 0
  }
  convolution_param {
    num_output: 128
    kernel_size: 1
    weight_filler {
      type: "xavier"
      std: 0.09
    }
    bias_filler {
      type: "constant"
      value: 0.2
    }
  }
}
layer {
  name: "inception_3b/relu_3x3_reduce"
  type: "ReLU"
  bottom: "inception_3b/3x3_reduce"
  top: "inception_3b/3x3_reduce"
}
layer {
  name: "inception_3b/3x3"
  type: "Convolution"
  bottom: "inception_3b/3x3_reduce"
  top: "inception_3b/3x3"
  param {
    lr_mult: 1
    decay_mult: 1
  }
  param {
    lr_mult: 2
    decay_mult: 0
  }
  convolution_param {
    num_output: 192
    pad: 1
    kernel_size: 3
    weight_filler {
      type: "xavier"
      std: 0.03
    }
    bias_filler {
      type: "constant"
      value: 0.2
    }
  }
}
layer {
  name: "inception_3b/relu_3x3"
  type: "ReLU"
  bottom: "inception_3b/3x3"
  top: "inception_3b/3x3"
}
layer {
  name: "inception_3b/5x5_reduce"
  type: "Convolution"
  bottom: "inception_3a/output"
  top: "inception_3b/5x5_reduce"
  param {
    lr_mult: 1
    decay_mult: 1
  }
  param {
    lr_mult: 2
    decay_mult: 0
  }
  convolution_param {
    num_output: 32
    kernel_size: 1
    weight_filler {
      type: "xavier"
      std: 0.2
    }
    bias_filler {
      type: "constant"
      value: 0.2
    }
  }
}
layer {
  name: "inception_3b/relu_5x5_reduce"
  type: "ReLU"
  bottom: "inception_3b/5x5_reduce"
  top: "inception_3b/5x5_reduce"
}
layer {
  name: "inception_3b/5x5"
  type: "Convolution"
  bottom: "inception_3b/5x5_reduce"
  top: "inception_3b/5x5"
  param {
    lr_mult: 1
    decay_mult: 1
  }
  param {
    lr_mult: 2
    decay_mult: 0
  }
  convolution_param {
    num_output: 96
    pad: 2
    kernel_size: 5
    weight_filler {
      type: "xavier"
      std: 0.03
    }
    bias_filler {
      type: "constant"
      value: 0.2
    }
  }
}
layer {
  name: "inception_3b/relu_5x5"
  type: "ReLU"
  bottom: "inception_3b/5x5"
  top: "inception_3b/5x5"
}
layer {
  name: "inception_3b/pool"
  type: "Pooling"
  bottom: "inception_3a/output"
  top: "inception_3b/pool"
  pooling_param {
    pool: MAX
    kernel_size: 3
    stride: 1
    pad: 1
  }
}
layer {
  name: "inception_3b/pool_proj"
  type: "Convolution"
  bottom: "inception_3b/pool"
  top: "inception_3b/pool_proj"
  param {
    lr_mult: 1
    decay_mult: 1
  }
  param {
    lr_mult: 2
    decay_mult: 0
  }
  convolution_param {
    num_output: 64
    kernel_size: 1
    weight_filler {
      type: "xavier"
      std: 0.1
    }
    bias_filler {
      type: "constant"
      value: 0.2
    }
  }
}
layer {
  name: "inception_3b/relu_pool_proj"
  type: "ReLU"
  bottom: "inception_3b/pool_proj"
  top: "inception_3b/pool_proj"
}
layer {
  name: "inception_3b/output"
  type: "Concat"
  bottom: "inception_3b/1x1"
  bottom: "inception_3b/3x3"
  bottom: "inception_3b/5x5"
  bottom: "inception_3b/pool_proj"
  top: "inception_3b/output"
}
layer {
  name: "pool3/3x3_s2"
  type: "Pooling"
  bottom: "inception_3b/output"
  top: "pool3/3x3_s2"
  pooling_param {
    pool: MAX
    kernel_size: 3
    stride: 2
  }
}
layer {
  name: "inception_4a/1x1"
  type: "Convolution"
  bottom: "pool3/3x3_s2"
  top: "inception_4a/1x1"
  param {
    lr_mult: 1
    decay_mult: 1
  }
  param {
    lr_mult: 2
    decay_mult: 0
  }
  convolution_param {
    num_output: 192
    kernel_size: 1
    weight_filler {
      type: "xavier"
      std: 0.03
    }
    bias_filler {
      type: "constant"
      value: 0.2
    }
  }
}
layer {
  name: "inception_4a/relu_1x1"
  type: "ReLU"
  bottom: "inception_4a/1x1"
  top: "inception_4a/1x1"
}
layer {
  name: "inception_4a/3x3_reduce"
  type: "Convolution"
  bottom: "pool3/3x3_s2"
  top: "inception_4a/3x3_reduce"
  param {
    lr_mult: 1
    decay_mult: 1
  }
  param {
    lr_mult: 2
    decay_mult: 0
  }
  convolution_param {
    num_output: 96
    kernel_size: 1
    weight_filler {
      type: "xavier"
      std: 0.09
    }
    bias_filler {
      type: "constant"
      value: 0.2
    }
  }
}
layer {
  name: "inception_4a/relu_3x3_reduce"
  type: "ReLU"
  bottom: "inception_4a/3x3_reduce"
  top: "inception_4a/3x3_reduce"
}
layer {
  name: "inception_4a/3x3"
  type: "Convolution"
  bottom: "inception_4a/3x3_reduce"
  top: "inception_4a/3x3"
  param {
    lr_mult: 1
    decay_mult: 1
  }
  param {
    lr_mult: 2
    decay_mult: 0
  }
  convolution_param {
    num_output: 208
    pad: 1
    kernel_size: 3
    weight_filler {
      type: "xavier"
      std: 0.03
    }
    bias_filler {
      type: "constant"
      value: 0.2
    }
  }
}
layer {
  name: "inception_4a/relu_3x3"
  type: "ReLU"
  bottom: "inception_4a/3x3"
  top: "inception_4a/3x3"
}
layer {
  name: "inception_4a/5x5_reduce"
  type: "Convolution"
  bottom: "pool3/3x3_s2"
  top: "inception_4a/5x5_reduce"
  param {
    lr_mult: 1
    decay_mult: 1
  }
  param {
    lr_mult: 2
    decay_mult: 0
  }
  convolution_param {
    num_output: 16
    kernel_size: 1
    weight_filler {
      type: "xavier"
      std: 0.2
    }
    bias_filler {
      type: "constant"
      value: 0.2
    }
  }
}
layer {
  name: "inception_4a/relu_5x5_reduce"
  type: "ReLU"
  bottom: "inception_4a/5x5_reduce"
  top: "inception_4a/5x5_reduce"
}
layer {
  name: "inception_4a/5x5"
  type: "Convolution"
  bottom: "inception_4a/5x5_reduce"
  top: "inception_4a/5x5"
  param {
    lr_mult: 1
    decay_mult: 1
  }
  param {
    lr_mult: 2
    decay_mult: 0
  }
  convolution_param {
    num_output: 48
    pad: 2
    kernel_size: 5
    weight_filler {
      type: "xavier"
      std: 0.03
    }
    bias_filler {
      type: "constant"
      value: 0.2
    }
  }
}
layer {
  name: "inception_4a/relu_5x5"
  type: "ReLU"
  bottom: "inception_4a/5x5"
  top: "inception_4a/5x5"
}
layer {
  name: "inception_4a/pool"
  type: "Pooling"
  bottom: "pool3/3x3_s2"
  top: "inception_4a/pool"
  pooling_param {
    pool: MAX
    kernel_size: 3
    stride: 1
    pad: 1
  }
}
layer {
  name: "inception_4a/pool_proj"
  type: "Convolution"
  bottom: "inception_4a/pool"
  top: "inception_4a/pool_proj"
  param {
    lr_mult: 1
    decay_mult: 1
  }
  param {
    lr_mult: 2
    decay_mult: 0
  }
  convolution_param {
    num_output: 64
    kernel_size: 1
    weight_filler {
      type: "xavier"
      std: 0.1
    }
    bias_filler {
      type: "constant"
      value: 0.2
    }
  }
}
layer {
  name: "inception_4a/relu_pool_proj"
  type: "ReLU"
  bottom: "inception_4a/pool_proj"
  top: "inception_4a/pool_proj"
}
layer {
  name: "inception_4a/output"
  type: "Concat"
  bottom: "inception_4a/1x1"
  bottom: "inception_4a/3x3"
  bottom: "inception_4a/5x5"
  bottom: "inception_4a/pool_proj"
  top: "inception_4a/output"
}
layer {
  name: "loss1/ave_pool"
  type: "Pooling"
  bottom: "inception_4a/output"
  top: "loss1/ave_pool"
  pooling_param {
    pool: AVE
    kernel_size: 5
    stride: 3
  }
}
layer {
  name: "loss1/conv"
  type: "Convolution"
  bottom: "loss1/ave_pool"
  top: "loss1/conv"
  param {
    lr_mult: 1
    decay_mult: 1
  }
  param {
    lr_mult: 2
    decay_mult: 0
  }
  convolution_param {
    num_output: 128
    kernel_size: 1
    weight_filler {
      type: "xavier"
      std: 0.08
    }
    bias_filler {
      type: "constant"
      value: 0.2
    }
  }
}
layer {
  name: "loss1/relu_conv"
  type: "ReLU"
  bottom: "loss1/conv"
  top: "loss1/conv"
}
layer {
  name: "loss1/fc"
  type: "InnerProduct"
  bottom: "loss1/conv"
  top: "loss1/fc"
  param {
    lr_mult: 1
    decay_mult: 1
  }
  param {
    lr_mult: 2
    decay_mult: 0
  }
  inner_product_param {
    num_output: 1024
    weight_filler {
      type: "xavier"
      std: 0.02
    }
    bias_filler {
      type: "constant"
      value: 0.2
    }
  }
}
layer {
  name: "loss1/relu_fc"
  type: "ReLU"
  bottom: "loss1/fc"
  top: "loss1/fc"
}
layer {
  name: "loss1/drop_fc"
  type: "Dropout"
  bottom: "loss1/fc"
  top: "loss1/fc"
  dropout_param {
    dropout_ratio: 0.7
  }
}
layer {
  name: "loss1/classifier_plantvillage"
  type: "InnerProduct"
  bottom: "loss1/fc"
  top: "loss1/classifier_plantvillage"
  param {
    lr_mult: 1
    decay_mult: 1
  }
  param {
    lr_mult: 2
    decay_mult: 0
  }
  inner_product_param {
    num_output: 38
    weight_filler {
      type: "xavier"
      std: 0.0009765625
    }
    bias_filler {
      type: "constant"
      value: 0
    }
  }
}
layer {
  name: "inception_4b/1x1"
  type: "Convolution"
  bottom: "inception_4a/output"
  top: "inception_4b/1x1"
  param {
    lr_mult: 1
    decay_mult: 1
  }
  param {
    lr_mult: 2
    decay_mult: 0
  }
  convolution_param {
    num_output: 160
    kernel_size: 1
    weight_filler {
      type: "xavier"
      std: 0.03
    }
    bias_filler {
      type: "constant"
      value: 0.2
    }
  }
}
layer {
  name: "inception_4b/relu_1x1"
  type: "ReLU"
  bottom: "inception_4b/1x1"
  top: "inception_4b/1x1"
}
layer {
  name: "inception_4b/3x3_reduce"
  type: "Convolution"
  bottom: "inception_4a/output"
  top: "inception_4b/3x3_reduce"
  param {
    lr_mult: 1
    decay_mult: 1
  }
  param {
    lr_mult: 2
    decay_mult: 0
  }
  convolution_param {
    num_output: 112
    kernel_size: 1
    weight_filler {
      type: "xavier"
      std: 0.09
    }
    bias_filler {
      type: "constant"
      value: 0.2
    }
  }
}
layer {
  name: "inception_4b/relu_3x3_reduce"
  type: "ReLU"
  bottom: "inception_4b/3x3_reduce"
  top: "inception_4b/3x3_reduce"
}
layer {
  name: "inception_4b/3x3"
  type: "Convolution"
  bottom: "inception_4b/3x3_reduce"
  top: "inception_4b/3x3"
  param {
    lr_mult: 1
    decay_mult: 1
  }
  param {
    lr_mult: 2
    decay_mult: 0
  }
  convolution_param {
    num_output: 224
    pad: 1
    kernel_size: 3
    weight_filler {
      type: "xavier"
      std: 0.03
    }
    bias_filler {
      type: "constant"
      value: 0.2
    }
  }
}
layer {
  name: "inception_4b/relu_3x3"
  type: "ReLU"
  bottom: "inception_4b/3x3"
  top: "inception_4b/3x3"
}
layer {
  name: "inception_4b/5x5_reduce"
  type: "Convolution"
  bottom: "inception_4a/output"
  top: "inception_4b/5x5_reduce"
  param {
    lr_mult: 1
    decay_mult: 1
  }
  param {
    lr_mult: 2
    decay_mult: 0
  }
  convolution_param {
    num_output: 24
    kernel_size: 1
    weight_filler {
      type: "xavier"
      std: 0.2
    }
    bias_filler {
      type: "constant"
      value: 0.2
    }
  }
}
layer {
  name: "inception_4b/relu_5x5_reduce"
  type: "ReLU"
  bottom: "inception_4b/5x5_reduce"
  top: "inception_4b/5x5_reduce"
}
layer {
  name: "inception_4b/5x5"
  type: "Convolution"
  bottom: "inception_4b/5x5_reduce"
  top: "inception_4b/5x5"
  param {
    lr_mult: 1
    decay_mult: 1
  }
  param {
    lr_mult: 2
    decay_mult: 0
  }
  convolution_param {
    num_output: 64
    pad: 2
    kernel_size: 5
    weight_filler {
      type: "xavier"
      std: 0.03
    }
    bias_filler {
      type: "constant"
      value: 0.2
    }
  }
}
layer {
  name: "inception_4b/relu_5x5"
  type: "ReLU"
  bottom: "inception_4b/5x5"
  top: "inception_4b/5x5"
}
layer {
  name: "inception_4b/pool"
  type: "Pooling"
  bottom: "inception_4a/output"
  top: "inception_4b/pool"
  pooling_param {
    pool: MAX
    kernel_size: 3
    stride: 1
    pad: 1
  }
}
layer {
  name: "inception_4b/pool_proj"
  type: "Convolution"
  bottom: "inception_4b/pool"
  top: "inception_4b/pool_proj"
  param {
    lr_mult: 1
    decay_mult: 1
  }
  param {
    lr_mult: 2
    decay_mult: 0
  }
  convolution_param {
    num_output: 64
    kernel_size: 1
    weight_filler {
      type: "xavier"
      std: 0.1
    }
    bias_filler {
      type: "constant"
      value: 0.2
    }
  }
}
layer {
  name: "inception_4b/relu_pool_proj"
  type: "ReLU"
  bottom: "inception_4b/pool_proj"
  top: "inception_4b/pool_proj"
}
layer {
  name: "inception_4b/output"
  type: "Concat"
  bottom: "inception_4b/1x1"
  bottom: "inception_4b/3x3"
  bottom: "inception_4b/5x5"
  bottom: "inception_4b/pool_proj"
  top: "inception_4b/output"
}
layer {
  name: "inception_4c/1x1"
  type: "Convolution"
  bottom: "inception_4b/output"
  top: "inception_4c/1x1"
  param {
    lr_mult: 1
    decay_mult: 1
  }
  param {
    lr_mult: 2
    decay_mult: 0
  }
  convolution_param {
    num_output: 128
    kernel_size: 1
    weight_filler {
      type: "xavier"
      std: 0.03
    }
    bias_filler {
      type: "constant"
      value: 0.2
    }
  }
}
layer {
  name: "inception_4c/relu_1x1"
  type: "ReLU"
  bottom: "inception_4c/1x1"
  top: "inception_4c/1x1"
}
layer {
  name: "inception_4c/3x3_reduce"
  type: "Convolution"
  bottom: "inception_4b/output"
  top: "inception_4c/3x3_reduce"
  param {
    lr_mult: 1
    decay_mult: 1
  }
  param {
    lr_mult: 2
    decay_mult: 0
  }
  convolution_param {
    num_output: 128
    kernel_size: 1
    weight_filler {
      type: "xavier"
      std: 0.09
    }
    bias_filler {
      type: "constant"
      value: 0.2
    }
  }
}
layer {
  name: "inception_4c/relu_3x3_reduce"
  type: "ReLU"
  bottom: "inception_4c/3x3_reduce"
  top: "inception_4c/3x3_reduce"
}
layer {
  name: "inception_4c/3x3"
  type: "Convolution"
  bottom: "inception_4c/3x3_reduce"
  top: "inception_4c/3x3"
  param {
    lr_mult: 1
    decay_mult: 1
  }
  param {
    lr_mult: 2
    decay_mult: 0
  }
  convolution_param {
    num_output: 256
    pad: 1
    kernel_size: 3
    weight_filler {
      type: "xavier"
      std: 0.03
    }
    bias_filler {
      type: "constant"
      value: 0.2
    }
  }
}
layer {
  name: "inception_4c/relu_3x3"
  type: "ReLU"
  bottom: "inception_4c/3x3"
  top: "inception_4c/3x3"
}
layer {
  name: "inception_4c/5x5_reduce"
  type: "Convolution"
  bottom: "inception_4b/output"
  top: "inception_4c/5x5_reduce"
  param {
    lr_mult: 1
    decay_mult: 1
  }
  param {
    lr_mult: 2
    decay_mult: 0
  }
  convolution_param {
    num_output: 24
    kernel_size: 1
    weight_filler {
      type: "xavier"
      std: 0.2
    }
    bias_filler {
      type: "constant"
      value: 0.2
    }
  }
}
layer {
  name: "inception_4c/relu_5x5_reduce"
  type: "ReLU"
  bottom: "inception_4c/5x5_reduce"
  top: "inception_4c/5x5_reduce"
}
layer {
  name: "inception_4c/5x5"
  type: "Convolution"
  bottom: "inception_4c/5x5_reduce"
  top: "inception_4c/5x5"
  param {
    lr_mult: 1
    decay_mult: 1
  }
  param {
    lr_mult: 2
    decay_mult: 0
  }
  convolution_param {
    num_output: 64
    pad: 2
    kernel_size: 5
    weight_filler {
      type: "xavier"
      std: 0.03
    }
    bias_filler {
      type: "constant"
      value: 0.2
    }
  }
}
layer {
  name: "inception_4c/relu_5x5"
  type: "ReLU"
  bottom: "inception_4c/5x5"
  top: "inception_4c/5x5"
}
layer {
  name: "inception_4c/pool"
  type: "Pooling"
  bottom: "inception_4b/output"
  top: "inception_4c/pool"
  pooling_param {
    pool: MAX
    kernel_size: 3
    stride: 1
    pad: 1
  }
}
layer {
  name: "inception_4c/pool_proj"
  type: "Convolution"
  bottom: "inception_4c/pool"
  top: "inception_4c/pool_proj"
  param {
    lr_mult: 1
    decay_mult: 1
  }
  param {
    lr_mult: 2
    decay_mult: 0
  }
  convolution_param {
    num_output: 64
    kernel_size: 1
    weight_filler {
      type: "xavier"
      std: 0.1
    }
    bias_filler {
      type: "constant"
      value: 0.2
    }
  }
}
layer {
  name: "inception_4c/relu_pool_proj"
  type: "ReLU"
  bottom: "inception_4c/pool_proj"
  top: "inception_4c/pool_proj"
}
layer {
  name: "inception_4c/output"
  type: "Concat"
  bottom: "inception_4c/1x1"
  bottom: "inception_4c/3x3"
  bottom: "inception_4c/5x5"
  bottom: "inception_4c/pool_proj"
  top: "inception_4c/output"
}
layer {
  name: "inception_4d/1x1"
  type: "Convolution"
  bottom: "inception_4c/output"
  top: "inception_4d/1x1"
  param {
    lr_mult: 1
    decay_mult: 1
  }
  param {
    lr_mult: 2
    decay_mult: 0
  }
  convolution_param {
    num_output: 112
    kernel_size: 1
    weight_filler {
      type: "xavier"
      std: 0.03
    }
    bias_filler {
      type: "constant"
      value: 0.2
    }
  }
}
layer {
  name: "inception_4d/relu_1x1"
  type: "ReLU"
  bottom: "inception_4d/1x1"
  top: "inception_4d/1x1"
}
layer {
  name: "inception_4d/3x3_reduce"
  type: "Convolution"
  bottom: "inception_4c/output"
  top: "inception_4d/3x3_reduce"
  param {
    lr_mult: 1
    decay_mult: 1
  }
  param {
    lr_mult: 2
    decay_mult: 0
  }
  convolution_param {
    num_output: 144
    kernel_size: 1
    weight_filler {
      type: "xavier"
      std: 0.09
    }
    bias_filler {
      type: "constant"
      value: 0.2
    }
  }
}
layer {
  name: "inception_4d/relu_3x3_reduce"
  type: "ReLU"
  bottom: "inception_4d/3x3_reduce"
  top: "inception_4d/3x3_reduce"
}
layer {
  name: "inception_4d/3x3"
  type: "Convolution"
  bottom: "inception_4d/3x3_reduce"
  top: "inception_4d/3x3"
  param {
    lr_mult: 1
    decay_mult: 1
  }
  param {
    lr_mult: 2
    decay_mult: 0
  }
  convolution_param {
    num_output: 288
    pad: 1
    kernel_size: 3
    weight_filler {
      type: "xavier"
      std: 0.03
    }
    bias_filler {
      type: "constant"
      value: 0.2
    }
  }
}
layer {
  name: "inception_4d/relu_3x3"
  type: "ReLU"
  bottom: "inception_4d/3x3"
  top: "inception_4d/3x3"
}
layer {
  name: "inception_4d/5x5_reduce"
  type: "Convolution"
  bottom: "inception_4c/output"
  top: "inception_4d/5x5_reduce"
  param {
    lr_mult: 1
    decay_mult: 1
  }
  param {
    lr_mult: 2
    decay_mult: 0
  }
  convolution_param {
    num_output: 32
    kernel_size: 1
    weight_filler {
      type: "xavier"
      std: 0.2
    }
    bias_filler {
      type: "constant"
      value: 0.2
    }
  }
}
layer {
  name: "inception_4d/relu_5x5_reduce"
  type: "ReLU"
  bottom: "inception_4d/5x5_reduce"
  top: "inception_4d/5x5_reduce"
}
layer {
  name: "inception_4d/5x5"
  type: "Convolution"
  bottom: "inception_4d/5x5_reduce"
  top: "inception_4d/5x5"
  param {
    lr_mult: 1
    decay_mult: 1
  }
  param {
    lr_mult: 2
    decay_mult: 0
  }
  convolution_param {
    num_output: 64
    pad: 2
    kernel_size: 5
    weight_filler {
      type: "xavier"
      std: 0.03
    }
    bias_filler {
      type: "constant"
      value: 0.2
    }
  }
}
layer {
  name: "inception_4d/relu_5x5"
  type: "ReLU"
  bottom: "inception_4d/5x5"
  top: "inception_4d/5x5"
}
layer {
  name: "inception_4d/pool"
  type: "Pooling"
  bottom: "inception_4c/output"
  top: "inception_4d/pool"
  pooling_param {
    pool: MAX
    kernel_size: 3
    stride: 1
    pad: 1
  }
}
layer {
  name: "inception_4d/pool_proj"
  type: "Convolution"
  bottom: "inception_4d/pool"
  top: "inception_4d/pool_proj"
  param {
    lr_mult: 1
    decay_mult: 1
  }
  param {
    lr_mult: 2
    decay_mult: 0
  }
  convolution_param {
    num_output: 64
    kernel_size: 1
    weight_filler {
      type: "xavier"
      std: 0.1
    }
    bias_filler {
      type: "constant"
      value: 0.2
    }
  }
}
layer {
  name: "inception_4d/relu_pool_proj"
  type: "ReLU"
  bottom: "inception_4d/pool_proj"
  top: "inception_4d/pool_proj"
}
layer {
  name: "inception_4d/output"
  type: "Concat"
  bottom: "inception_4d/1x1"
  bottom: "inception_4d/3x3"
  bottom: "inception_4d/5x5"
  bottom: "inception_4d/pool_proj"
  top: "inception_4d/output"
}
layer {
  name: "loss2/ave_pool"
  type: "Pooling"
  bottom: "inception_4d/output"
  top: "loss2/ave_pool"
  pooling_param {
    pool: AVE
    kernel_size: 5
    stride: 3
  }
}
layer {
  name: "loss2/conv"
  type: "Convolution"
  bottom: "loss2/ave_pool"
  top: "loss2/conv"
  param {
    lr_mult: 1
    decay_mult: 1
  }
  param {
    lr_mult: 2
    decay_mult: 0
  }
  convolution_param {
    num_output: 128
    kernel_size: 1
    weight_filler {
      type: "xavier"
      std: 0.08
    }
    bias_filler {
      type: "constant"
      value: 0.2
    }
  }
}
layer {
  name: "loss2/relu_conv"
  type: "ReLU"
  bottom: "loss2/conv"
  top: "loss2/conv"
}
layer {
  name: "loss2/fc"
  type: "InnerProduct"
  bottom: "loss2/conv"
  top: "loss2/fc"
  param {
    lr_mult: 1
    decay_mult: 1
  }
  param {
    lr_mult: 2
    decay_mult: 0
  }
  inner_product_param {
    num_output: 1024
    weight_filler {
      type: "xavier"
      std: 0.02
    }
    bias_filler {
      type: "constant"
      value: 0.2
    }
  }
}
layer {
  name: "loss2/relu_fc"
  type: "ReLU"
  bottom: "loss2/fc"
  top: "loss2/fc"
}
layer {
  name: "loss2/drop_fc"
  type: "Dropout"
  bottom: "loss2/fc"
  top: "loss2/fc"
  dropout_param {
    dropout_ratio: 0.7
  }
}
layer {
  name: "loss2/classifier_plantvillage"
  type: "InnerProduct"
  bottom: "loss2/fc"
  top: "loss2/classifier_plantvillage"
  param {
    lr_mult: 1
    decay_mult: 1
  }
  param {
    lr_mult: 2
    decay_mult: 0
  }
  inner_product_param {
    num_output: 38
    weight_filler {
      type: "xavier"
      std: 0.0009765625
    }
    bias_filler {
      type: "constant"
      value: 0
    }
  }
}
layer {
  name: "inception_4e/1x1"
  type: "Convolution"
  bottom: "inception_4d/output"
  top: "inception_4e/1x1"
  param {
    lr_mult: 1
    decay_mult: 1
  }
  param {
    lr_mult: 2
    decay_mult: 0
  }
  convolution_param {
    num_output: 256
    kernel_size: 1
    weight_filler {
      type: "xavier"
      std: 0.03
    }
    bias_filler {
      type: "constant"
      value: 0.2
    }
  }
}
layer {
  name: "inception_4e/relu_1x1"
  type: "ReLU"
  bottom: "inception_4e/1x1"
  top: "inception_4e/1x1"
}
layer {
  name: "inception_4e/3x3_reduce"
  type: "Convolution"
  bottom: "inception_4d/output"
  top: "inception_4e/3x3_reduce"
  param {
    lr_mult: 1
    decay_mult: 1
  }
  param {
    lr_mult: 2
    decay_mult: 0
  }
  convolution_param {
    num_output: 160
    kernel_size: 1
    weight_filler {
      type: "xavier"
      std: 0.09
    }
    bias_filler {
      type: "constant"
      value: 0.2
    }
  }
}
layer {
  name: "inception_4e/relu_3x3_reduce"
  type: "ReLU"
  bottom: "inception_4e/3x3_reduce"
  top: "inception_4e/3x3_reduce"
}
layer {
  name: "inception_4e/3x3"
  type: "Convolution"
  bottom: "inception_4e/3x3_reduce"
  top: "inception_4e/3x3"
  param {
    lr_mult: 1
    decay_mult: 1
  }
  param {
    lr_mult: 2
    decay_mult: 0
  }
  convolution_param {
    num_output: 320
    pad: 1
    kernel_size: 3
    weight_filler {
      type: "xavier"
      std: 0.03
    }
    bias_filler {
      type: "constant"
      value: 0.2
    }
  }
}
layer {
  name: "inception_4e/relu_3x3"
  type: "ReLU"
  bottom: "inception_4e/3x3"
  top: "inception_4e/3x3"
}
layer {
  name: "inception_4e/5x5_reduce"
  type: "Convolution"
  bottom: "inception_4d/output"
  top: "inception_4e/5x5_reduce"
  param {
    lr_mult: 1
    decay_mult: 1
  }
  param {
    lr_mult: 2
    decay_mult: 0
  }
  convolution_param {
    num_output: 32
    kernel_size: 1
    weight_filler {
      type: "xavier"
      std: 0.2
    }
    bias_filler {
      type: "constant"
      value: 0.2
    }
  }
}
layer {
  name: "inception_4e/relu_5x5_reduce"
  type: "ReLU"
  bottom: "inception_4e/5x5_reduce"
  top: "inception_4e/5x5_reduce"
}
layer {
  name: "inception_4e/5x5"
  type: "Convolution"
  bottom: "inception_4e/5x5_reduce"
  top: "inception_4e/
I0403 15:12:27.496709  2802 layer_factory.hpp:77] Creating layer data
I0403 15:12:27.497333  2802 net.cpp:91] Creating Layer data
I0403 15:12:27.497365  2802 net.cpp:399] data -> data
I0403 15:12:27.497416  2802 net.cpp:399] data -> label
I0403 15:12:27.497452  2802 data_transformer.cpp:25] Loading mean file from: /home/mohanty/data/final_dataset/lmdb/grayscale-50-50/mean.binaryproto
I0403 15:12:27.500573  2812 db_lmdb.cpp:38] Opened lmdb /home/mohanty/data/final_dataset/lmdb/grayscale-50-50/test_db
I0403 15:12:27.510905  2802 data_layer.cpp:41] output data size: 24,3,224,224
I0403 15:12:27.538552  2802 net.cpp:141] Setting up data
I0403 15:12:27.538668  2802 net.cpp:148] Top shape: 24 3 224 224 (3612672)
I0403 15:12:27.538691  2802 net.cpp:148] Top shape: 24 (24)
I0403 15:12:27.538708  2802 net.cpp:156] Memory required for data: 14450784
I0403 15:12:27.538736  2802 layer_factory.hpp:77] Creating layer label_data_1_split
I0403 15:12:27.538763  2802 net.cpp:91] Creating Layer label_data_1_split
I0403 15:12:27.538781  2802 net.cpp:425] label_data_1_split <- label
I0403 15:12:27.538813  2802 net.cpp:399] label_data_1_split -> label_data_1_split_0
I0403 15:12:27.538841  2802 net.cpp:399] label_data_1_split -> label_data_1_split_1
I0403 15:12:27.538863  2802 net.cpp:399] label_data_1_split -> label_data_1_split_2
I0403 15:12:27.538885  2802 net.cpp:399] label_data_1_split -> label_data_1_split_3
I0403 15:12:27.538905  2802 net.cpp:399] label_data_1_split -> label_data_1_split_4
I0403 15:12:27.538926  2802 net.cpp:399] label_data_1_split -> label_data_1_split_5
I0403 15:12:27.538946  2802 net.cpp:399] label_data_1_split -> label_data_1_split_6
I0403 15:12:27.538967  2802 net.cpp:399] label_data_1_split -> label_data_1_split_7
I0403 15:12:27.538987  2802 net.cpp:399] label_data_1_split -> label_data_1_split_8
I0403 15:12:27.539008  2802 net.cpp:399] label_data_1_split -> label_data_1_split_9
I0403 15:12:27.539127  2802 net.cpp:141] Setting up label_data_1_split
I0403 15:12:27.539151  2802 net.cpp:148] Top shape: 24 (24)
I0403 15:12:27.539170  2802 net.cpp:148] Top shape: 24 (24)
I0403 15:12:27.539186  2802 net.cpp:148] Top shape: 24 (24)
I0403 15:12:27.539202  2802 net.cpp:148] Top shape: 24 (24)
I0403 15:12:27.539222  2802 net.cpp:148] Top shape: 24 (24)
I0403 15:12:27.539238  2802 net.cpp:148] Top shape: 24 (24)
I0403 15:12:27.539255  2802 net.cpp:148] Top shape: 24 (24)
I0403 15:12:27.539278  2802 net.cpp:148] Top shape: 24 (24)
I0403 15:12:27.539297  2802 net.cpp:148] Top shape: 24 (24)
I0403 15:12:27.539324  2802 net.cpp:148] Top shape: 24 (24)
I0403 15:12:27.539371  2802 net.cpp:156] Memory required for data: 14451744
I0403 15:12:27.539387  2802 layer_factory.hpp:77] Creating layer conv1/7x7_s2
I0403 15:12:27.539419  2802 net.cpp:91] Creating Layer conv1/7x7_s2
I0403 15:12:27.539438  2802 net.cpp:425] conv1/7x7_s2 <- data
I0403 15:12:27.539458  2802 net.cpp:399] conv1/7x7_s2 -> conv1/7x7_s2
I0403 15:12:27.678997  2802 net.cpp:141] Setting up conv1/7x7_s2
I0403 15:12:27.679085  2802 net.cpp:148] Top shape: 24 64 112 112 (19267584)
I0403 15:12:27.679103  2802 net.cpp:156] Memory required for data: 91522080
I0403 15:12:27.679133  2802 layer_factory.hpp:77] Creating layer conv1/relu_7x7
I0403 15:12:27.679160  2802 net.cpp:91] Creating Layer conv1/relu_7x7
I0403 15:12:27.679179  2802 net.cpp:425] conv1/relu_7x7 <- conv1/7x7_s2
I0403 15:12:27.679198  2802 net.cpp:386] conv1/relu_7x7 -> conv1/7x7_s2 (in-place)
I0403 15:12:27.679458  2802 net.cpp:141] Setting up conv1/relu_7x7
I0403 15:12:27.679497  2802 net.cpp:148] Top shape: 24 64 112 112 (19267584)
I0403 15:12:27.679512  2802 net.cpp:156] Memory required for data: 168592416
I0403 15:12:27.679527  2802 layer_factory.hpp:77] Creating layer pool1/3x3_s2
I0403 15:12:27.679561  2802 net.cpp:91] Creating Layer pool1/3x3_s2
I0403 15:12:27.679580  2802 net.cpp:425] pool1/3x3_s2 <- conv1/7x7_s2
I0403 15:12:27.679606  2802 net.cpp:399] pool1/3x3_s2 -> pool1/3x3_s2
I0403 15:12:27.679682  2802 net.cpp:141] Setting up pool1/3x3_s2
I0403 15:12:27.679707  2802 net.cpp:148] Top shape: 24 64 56 56 (4816896)
I0403 15:12:27.679721  2802 net.cpp:156] Memory required for data: 187860000
I0403 15:12:27.679736  2802 layer_factory.hpp:77] Creating layer pool1/norm1
I0403 15:12:27.679766  2802 net.cpp:91] Creating Layer pool1/norm1
I0403 15:12:27.679785  2802 net.cpp:425] pool1/norm1 <- pool1/3x3_s2
I0403 15:12:27.679802  2802 net.cpp:399] pool1/norm1 -> pool1/norm1
I0403 15:12:27.680094  2802 net.cpp:141] Setting up pool1/norm1
I0403 15:12:27.680122  2802 net.cpp:148] Top shape: 24 64 56 56 (4816896)
I0403 15:12:27.680143  2802 net.cpp:156] Memory required for data: 207127584
I0403 15:12:27.680161  2802 layer_factory.hpp:77] Creating layer conv2/3x3_reduce
I0403 15:12:27.680188  2802 net.cpp:91] Creating Layer conv2/3x3_reduce
I0403 15:12:27.680212  2802 net.cpp:425] conv2/3x3_reduce <- pool1/norm1
I0403 15:12:27.680232  2802 net.cpp:399] conv2/3x3_reduce -> conv2/3x3_reduce
I0403 15:12:27.681619  2802 net.cpp:141] Setting up conv2/3x3_reduce
I0403 15:12:27.681649  2802 net.cpp:148] Top shape: 24 64 56 56 (4816896)
I0403 15:12:27.681665  2802 net.cpp:156] Memory required for data: 226395168
I0403 15:12:27.681687  2802 layer_factory.hpp:77] Creating layer conv2/relu_3x3_reduce
I0403 15:12:27.681706  2802 net.cpp:91] Creating Layer conv2/relu_3x3_reduce
I0403 15:12:27.681722  2802 net.cpp:425] conv2/relu_3x3_reduce <- conv2/3x3_reduce
I0403 15:12:27.681740  2802 net.cpp:386] conv2/relu_3x3_reduce -> conv2/3x3_reduce (in-place)
I0403 15:12:27.681998  2802 net.cpp:141] Setting up conv2/relu_3x3_reduce
I0403 15:12:27.682025  2802 net.cpp:148] Top shape: 24 64 56 56 (4816896)
I0403 15:12:27.682041  2802 net.cpp:156] Memory required for data: 245662752
I0403 15:12:27.682056  2802 layer_factory.hpp:77] Creating layer conv2/3x3
I0403 15:12:27.682080  2802 net.cpp:91] Creating Layer conv2/3x3
I0403 15:12:27.682096  2802 net.cpp:425] conv2/3x3 <- conv2/3x3_reduce
I0403 15:12:27.682116  2802 net.cpp:399] conv2/3x3 -> conv2/3x3
I0403 15:12:27.684381  2802 net.cpp:141] Setting up conv2/3x3
I0403 15:12:27.684412  2802 net.cpp:148] Top shape: 24 192 56 56 (14450688)
I0403 15:12:27.684428  2802 net.cpp:156] Memory required for data: 303465504
I0403 15:12:27.684450  2802 layer_factory.hpp:77] Creating layer conv2/relu_3x3
I0403 15:12:27.684469  2802 net.cpp:91] Creating Layer conv2/relu_3x3
I0403 15:12:27.684485  2802 net.cpp:425] conv2/relu_3x3 <- conv2/3x3
I0403 15:12:27.684504  2802 net.cpp:386] conv2/relu_3x3 -> conv2/3x3 (in-place)
I0403 15:12:27.684664  2802 net.cpp:141] Setting up conv2/relu_3x3
I0403 15:12:27.684689  2802 net.cpp:148] Top shape: 24 192 56 56 (14450688)
I0403 15:12:27.684723  2802 net.cpp:156] Memory required for data: 361268256
I0403 15:12:27.684741  2802 layer_factory.hpp:77] Creating layer conv2/norm2
I0403 15:12:27.684759  2802 net.cpp:91] Creating Layer conv2/norm2
I0403 15:12:27.684775  2802 net.cpp:425] conv2/norm2 <- conv2/3x3
I0403 15:12:27.684794  2802 net.cpp:399] conv2/norm2 -> conv2/norm2
I0403 15:12:27.685082  2802 net.cpp:141] Setting up conv2/norm2
I0403 15:12:27.685109  2802 net.cpp:148] Top shape: 24 192 56 56 (14450688)
I0403 15:12:27.685125  2802 net.cpp:156] Memory required for data: 419071008
I0403 15:12:27.685140  2802 layer_factory.hpp:77] Creating layer pool2/3x3_s2
I0403 15:12:27.685158  2802 net.cpp:91] Creating Layer pool2/3x3_s2
I0403 15:12:27.685174  2802 net.cpp:425] pool2/3x3_s2 <- conv2/norm2
I0403 15:12:27.685194  2802 net.cpp:399] pool2/3x3_s2 -> pool2/3x3_s2
I0403 15:12:27.685245  2802 net.cpp:141] Setting up pool2/3x3_s2
I0403 15:12:27.685268  2802 net.cpp:148] Top shape: 24 192 28 28 (3612672)
I0403 15:12:27.685291  2802 net.cpp:156] Memory required for data: 433521696
I0403 15:12:27.685305  2802 layer_factory.hpp:77] Creating layer pool2/3x3_s2_pool2/3x3_s2_0_split
I0403 15:12:27.685323  2802 net.cpp:91] Creating Layer pool2/3x3_s2_pool2/3x3_s2_0_split
I0403 15:12:27.685339  2802 net.cpp:425] pool2/3x3_s2_pool2/3x3_s2_0_split <- pool2/3x3_s2
I0403 15:12:27.685358  2802 net.cpp:399] pool2/3x3_s2_pool2/3x3_s2_0_split -> pool2/3x3_s2_pool2/3x3_s2_0_split_0
I0403 15:12:27.685376  2802 net.cpp:399] pool2/3x3_s2_pool2/3x3_s2_0_split -> pool2/3x3_s2_pool2/3x3_s2_0_split_1
I0403 15:12:27.685397  2802 net.cpp:399] pool2/3x3_s2_pool2/3x3_s2_0_split -> pool2/3x3_s2_pool2/3x3_s2_0_split_2
I0403 15:12:27.685417  2802 net.cpp:399] pool2/3x3_s2_pool2/3x3_s2_0_split -> pool2/3x3_s2_pool2/3x3_s2_0_split_3
I0403 15:12:27.685482  2802 net.cpp:141] Setting up pool2/3x3_s2_pool2/3x3_s2_0_split
I0403 15:12:27.685505  2802 net.cpp:148] Top shape: 24 192 28 28 (3612672)
I0403 15:12:27.685523  2802 net.cpp:148] Top shape: 24 192 28 28 (3612672)
I0403 15:12:27.685549  2802 net.cpp:148] Top shape: 24 192 28 28 (3612672)
I0403 15:12:27.685564  2802 net.cpp:148] Top shape: 24 192 28 28 (3612672)
I0403 15:12:27.685580  2802 net.cpp:156] Memory required for data: 491324448
I0403 15:12:27.685595  2802 layer_factory.hpp:77] Creating layer inception_3a/1x1
I0403 15:12:27.685616  2802 net.cpp:91] Creating Layer inception_3a/1x1
I0403 15:12:27.685632  2802 net.cpp:425] inception_3a/1x1 <- pool2/3x3_s2_pool2/3x3_s2_0_split_0
I0403 15:12:27.685650  2802 net.cpp:399] inception_3a/1x1 -> inception_3a/1x1
I0403 15:12:27.687221  2802 net.cpp:141] Setting up inception_3a/1x1
I0403 15:12:27.687253  2802 net.cpp:148] Top shape: 24 64 28 28 (1204224)
I0403 15:12:27.687274  2802 net.cpp:156] Memory required for data: 496141344
I0403 15:12:27.687296  2802 layer_factory.hpp:77] Creating layer inception_3a/relu_1x1
I0403 15:12:27.687316  2802 net.cpp:91] Creating Layer inception_3a/relu_1x1
I0403 15:12:27.687332  2802 net.cpp:425] inception_3a/relu_1x1 <- inception_3a/1x1
I0403 15:12:27.687350  2802 net.cpp:386] inception_3a/relu_1x1 -> inception_3a/1x1 (in-place)
I0403 15:12:27.687546  2802 net.cpp:141] Setting up inception_3a/relu_1x1
I0403 15:12:27.687573  2802 net.cpp:148] Top shape: 24 64 28 28 (1204224)
I0403 15:12:27.687590  2802 net.cpp:156] Memory required for data: 500958240
I0403 15:12:27.687605  2802 layer_factory.hpp:77] Creating layer inception_3a/3x3_reduce
I0403 15:12:27.687629  2802 net.cpp:91] Creating Layer inception_3a/3x3_reduce
I0403 15:12:27.687646  2802 net.cpp:425] inception_3a/3x3_reduce <- pool2/3x3_s2_pool2/3x3_s2_0_split_1
I0403 15:12:27.687669  2802 net.cpp:399] inception_3a/3x3_reduce -> inception_3a/3x3_reduce
I0403 15:12:27.689486  2802 net.cpp:141] Setting up inception_3a/3x3_reduce
I0403 15:12:27.689517  2802 net.cpp:148] Top shape: 24 96 28 28 (1806336)
I0403 15:12:27.689533  2802 net.cpp:156] Memory required for data: 508183584
I0403 15:12:27.689559  2802 layer_factory.hpp:77] Creating layer inception_3a/relu_3x3_reduce
I0403 15:12:27.689596  2802 net.cpp:91] Creating Layer inception_3a/relu_3x3_reduce
I0403 15:12:27.689615  2802 net.cpp:425] inception_3a/relu_3x3_reduce <- inception_3a/3x3_reduce
I0403 15:12:27.689636  2802 net.cpp:386] inception_3a/relu_3x3_reduce -> inception_3a/3x3_reduce (in-place)
I0403 15:12:27.689839  2802 net.cpp:141] Setting up inception_3a/relu_3x3_reduce
I0403 15:12:27.689865  2802 net.cpp:148] Top shape: 24 96 28 28 (1806336)
I0403 15:12:27.689880  2802 net.cpp:156] Memory required for data: 515408928
I0403 15:12:27.689896  2802 layer_factory.hpp:77] Creating layer inception_3a/3x3
I0403 15:12:27.689920  2802 net.cpp:91] Creating Layer inception_3a/3x3
I0403 15:12:27.689944  2802 net.cpp:425] inception_3a/3x3 <- inception_3a/3x3_reduce
I0403 15:12:27.689963  2802 net.cpp:399] inception_3a/3x3 -> inception_3a/3x3
I0403 15:12:27.691701  2802 net.cpp:141] Setting up inception_3a/3x3
I0403 15:12:27.691732  2802 net.cpp:148] Top shape: 24 128 28 28 (2408448)
I0403 15:12:27.691750  2802 net.cpp:156] Memory required for data: 525042720
I0403 15:12:27.691769  2802 layer_factory.hpp:77] Creating layer inception_3a/relu_3x3
I0403 15:12:27.691788  2802 net.cpp:91] Creating Layer inception_3a/relu_3x3
I0403 15:12:27.691804  2802 net.cpp:425] inception_3a/relu_3x3 <- inception_3a/3x3
I0403 15:12:27.691834  2802 net.cpp:386] inception_3a/relu_3x3 -> inception_3a/3x3 (in-place)
I0403 15:12:27.692116  2802 net.cpp:141] Setting up inception_3a/relu_3x3
I0403 15:12:27.692147  2802 net.cpp:148] Top shape: 24 128 28 28 (2408448)
I0403 15:12:27.692162  2802 net.cpp:156] Memory required for data: 534676512
I0403 15:12:27.692178  2802 layer_factory.hpp:77] Creating layer inception_3a/5x5_reduce
I0403 15:12:27.692201  2802 net.cpp:91] Creating Layer inception_3a/5x5_reduce
I0403 15:12:27.692219  2802 net.cpp:425] inception_3a/5x5_reduce <- pool2/3x3_s2_pool2/3x3_s2_0_split_2
I0403 15:12:27.692241  2802 net.cpp:399] inception_3a/5x5_reduce -> inception_3a/5x5_reduce
I0403 15:12:27.693250  2802 net.cpp:141] Setting up inception_3a/5x5_reduce
I0403 15:12:27.693286  2802 net.cpp:148] Top shape: 24 16 28 28 (301056)
I0403 15:12:27.693305  2802 net.cpp:156] Memory required for data: 535880736
I0403 15:12:27.693325  2802 layer_factory.hpp:77] Creating layer inception_3a/relu_5x5_reduce
I0403 15:12:27.693343  2802 net.cpp:91] Creating Layer inception_3a/relu_5x5_reduce
I0403 15:12:27.693359  2802 net.cpp:425] inception_3a/relu_5x5_reduce <- inception_3a/5x5_reduce
I0403 15:12:27.693382  2802 net.cpp:386] inception_3a/relu_5x5_reduce -> inception_3a/5x5_reduce (in-place)
I0403 15:12:27.693699  2802 net.cpp:141] Setting up inception_3a/relu_5x5_reduce
I0403 15:12:27.693727  2802 net.cpp:148] Top shape: 24 16 28 28 (301056)
I0403 15:12:27.693742  2802 net.cpp:156] Memory required for data: 537084960
I0403 15:12:27.693758  2802 layer_factory.hpp:77] Creating layer inception_3a/5x5
I0403 15:12:27.693783  2802 net.cpp:91] Creating Layer inception_3a/5x5
I0403 15:12:27.693800  2802 net.cpp:425] inception_3a/5x5 <- inception_3a/5x5_reduce
I0403 15:12:27.693825  2802 net.cpp:399] inception_3a/5x5 -> inception_3a/5x5
I0403 15:12:27.694880  2802 net.cpp:141] Setting up inception_3a/5x5
I0403 15:12:27.694913  2802 net.cpp:148] Top shape: 24 32 28 28 (602112)
I0403 15:12:27.694931  2802 net.cpp:156] Memory required for data: 539493408
I0403 15:12:27.694950  2802 layer_factory.hpp:77] Creating layer inception_3a/relu_5x5
I0403 15:12:27.694969  2802 net.cpp:91] Creating Layer inception_3a/relu_5x5
I0403 15:12:27.694985  2802 net.cpp:425] inception_3a/relu_5x5 <- inception_3a/5x5
I0403 15:12:27.695003  2802 net.cpp:386] inception_3a/relu_5x5 -> inception_3a/5x5 (in-place)
I0403 15:12:27.695184  2802 net.cpp:141] Setting up inception_3a/relu_5x5
I0403 15:12:27.695210  2802 net.cpp:148] Top shape: 24 32 28 28 (602112)
I0403 15:12:27.695225  2802 net.cpp:156] Memory required for data: 541901856
I0403 15:12:27.695241  2802 layer_factory.hpp:77] Creating layer inception_3a/pool
I0403 15:12:27.695261  2802 net.cpp:91] Creating Layer inception_3a/pool
I0403 15:12:27.695297  2802 net.cpp:425] inception_3a/pool <- pool2/3x3_s2_pool2/3x3_s2_0_split_3
I0403 15:12:27.695322  2802 net.cpp:399] inception_3a/pool -> inception_3a/pool
I0403 15:12:27.695381  2802 net.cpp:141] Setting up inception_3a/pool
I0403 15:12:27.695408  2802 net.cpp:148] Top shape: 24 192 28 28 (3612672)
I0403 15:12:27.695425  2802 net.cpp:156] Memory required for data: 556352544
I0403 15:12:27.695441  2802 layer_factory.hpp:77] Creating layer inception_3a/pool_proj
I0403 15:12:27.695464  2802 net.cpp:91] Creating Layer inception_3a/pool_proj
I0403 15:12:27.695482  2802 net.cpp:425] inception_3a/pool_proj <- inception_3a/pool
I0403 15:12:27.695502  2802 net.cpp:399] inception_3a/pool_proj -> inception_3a/pool_proj
I0403 15:12:27.696516  2802 net.cpp:141] Setting up inception_3a/pool_proj
I0403 15:12:27.696547  2802 net.cpp:148] Top shape: 24 32 28 28 (602112)
I0403 15:12:27.696563  2802 net.cpp:156] Memory required for data: 558760992
I0403 15:12:27.696588  2802 layer_factory.hpp:77] Creating layer inception_3a/relu_pool_proj
I0403 15:12:27.696609  2802 net.cpp:91] Creating Layer inception_3a/relu_pool_proj
I0403 15:12:27.696625  2802 net.cpp:425] inception_3a/relu_pool_proj <- inception_3a/pool_proj
I0403 15:12:27.696645  2802 net.cpp:386] inception_3a/relu_pool_proj -> inception_3a/pool_proj (in-place)
I0403 15:12:27.696955  2802 net.cpp:141] Setting up inception_3a/relu_pool_proj
I0403 15:12:27.696986  2802 net.cpp:148] Top shape: 24 32 28 28 (602112)
I0403 15:12:27.697002  2802 net.cpp:156] Memory required for data: 561169440
I0403 15:12:27.697017  2802 layer_factory.hpp:77] Creating layer inception_3a/output
I0403 15:12:27.697036  2802 net.cpp:91] Creating Layer inception_3a/output
I0403 15:12:27.697053  2802 net.cpp:425] inception_3a/output <- inception_3a/1x1
I0403 15:12:27.697072  2802 net.cpp:425] inception_3a/output <- inception_3a/3x3
I0403 15:12:27.697088  2802 net.cpp:425] inception_3a/output <- inception_3a/5x5
I0403 15:12:27.697105  2802 net.cpp:425] inception_3a/output <- inception_3a/pool_proj
I0403 15:12:27.697123  2802 net.cpp:399] inception_3a/output -> inception_3a/output
I0403 15:12:27.697172  2802 net.cpp:141] Setting up inception_3a/output
I0403 15:12:27.697198  2802 net.cpp:148] Top shape: 24 256 28 28 (4816896)
I0403 15:12:27.697213  2802 net.cpp:156] Memory required for data: 580437024
I0403 15:12:27.697232  2802 layer_factory.hpp:77] Creating layer inception_3a/output_inception_3a/output_0_split
I0403 15:12:27.697253  2802 net.cpp:91] Creating Layer inception_3a/output_inception_3a/output_0_split
I0403 15:12:27.697274  2802 net.cpp:425] inception_3a/output_inception_3a/output_0_split <- inception_3a/output
I0403 15:12:27.697295  2802 net.cpp:399] inception_3a/output_inception_3a/output_0_split -> inception_3a/output_inception_3a/output_0_split_0
I0403 15:12:27.697316  2802 net.cpp:399] inception_3a/output_inception_3a/output_0_split -> inception_3a/output_inception_3a/output_0_split_1
I0403 15:12:27.697353  2802 net.cpp:399] inception_3a/output_inception_3a/output_0_split -> inception_3a/output_inception_3a/output_0_split_2
I0403 15:12:27.697376  2802 net.cpp:399] inception_3a/output_inception_3a/output_0_split -> inception_3a/output_inception_3a/output_0_split_3
I0403 15:12:27.697455  2802 net.cpp:141] Setting up inception_3a/output_inception_3a/output_0_split
I0403 15:12:27.697479  2802 net.cpp:148] Top shape: 24 256 28 28 (4816896)
I0403 15:12:27.697495  2802 net.cpp:148] Top shape: 24 256 28 28 (4816896)
I0403 15:12:27.697512  2802 net.cpp:148] Top shape: 24 256 28 28 (4816896)
I0403 15:12:27.697527  2802 net.cpp:148] Top shape: 24 256 28 28 (4816896)
I0403 15:12:27.697541  2802 net.cpp:156] Memory required for data: 657507360
I0403 15:12:27.697557  2802 layer_factory.hpp:77] Creating layer inception_3b/1x1
I0403 15:12:27.697581  2802 net.cpp:91] Creating Layer inception_3b/1x1
I0403 15:12:27.697598  2802 net.cpp:425] inception_3b/1x1 <- inception_3a/output_inception_3a/output_0_split_0
I0403 15:12:27.697618  2802 net.cpp:399] inception_3b/1x1 -> inception_3b/1x1
I0403 15:12:27.698773  2802 net.cpp:141] Setting up inception_3b/1x1
I0403 15:12:27.698813  2802 net.cpp:148] Top shape: 24 128 28 28 (2408448)
I0403 15:12:27.698832  2802 net.cpp:156] Memory required for data: 667141152
I0403 15:12:27.698850  2802 layer_factory.hpp:77] Creating layer inception_3b/relu_1x1
I0403 15:12:27.698870  2802 net.cpp:91] Creating Layer inception_3b/relu_1x1
I0403 15:12:27.698889  2802 net.cpp:425] inception_3b/relu_1x1 <- inception_3b/1x1
I0403 15:12:27.698906  2802 net.cpp:386] inception_3b/relu_1x1 -> inception_3b/1x1 (in-place)
I0403 15:12:27.699085  2802 net.cpp:141] Setting up inception_3b/relu_1x1
I0403 15:12:27.699110  2802 net.cpp:148] Top shape: 24 128 28 28 (2408448)
I0403 15:12:27.699126  2802 net.cpp:156] Memory required for data: 676774944
I0403 15:12:27.699141  2802 layer_factory.hpp:77] Creating layer inception_3b/3x3_reduce
I0403 15:12:27.699163  2802 net.cpp:91] Creating Layer inception_3b/3x3_reduce
I0403 15:12:27.699180  2802 net.cpp:425] inception_3b/3x3_reduce <- inception_3a/output_inception_3a/output_0_split_1
I0403 15:12:27.699203  2802 net.cpp:399] inception_3b/3x3_reduce -> inception_3b/3x3_reduce
I0403 15:12:27.700359  2802 net.cpp:141] Setting up inception_3b/3x3_reduce
I0403 15:12:27.700388  2802 net.cpp:148] Top shape: 24 128 28 28 (2408448)
I0403 15:12:27.700403  2802 net.cpp:156] Memory required for data: 686408736
I0403 15:12:27.700423  2802 layer_factory.hpp:77] Creating layer inception_3b/relu_3x3_reduce
I0403 15:12:27.700444  2802 net.cpp:91] Creating Layer inception_3b/relu_3x3_reduce
I0403 15:12:27.700461  2802 net.cpp:425] inception_3b/relu_3x3_reduce <- inception_3b/3x3_reduce
I0403 15:12:27.700479  2802 net.cpp:386] inception_3b/relu_3x3_reduce -> inception_3b/3x3_reduce (in-place)
I0403 15:12:27.700654  2802 net.cpp:141] Setting up inception_3b/relu_3x3_reduce
I0403 15:12:27.700681  2802 net.cpp:148] Top shape: 24 128 28 28 (2408448)
I0403 15:12:27.700696  2802 net.cpp:156] Memory required for data: 696042528
I0403 15:12:27.700712  2802 layer_factory.hpp:77] Creating layer inception_3b/3x3
I0403 15:12:27.700739  2802 net.cpp:91] Creating Layer inception_3b/3x3
I0403 15:12:27.700757  2802 net.cpp:425] inception_3b/3x3 <- inception_3b/3x3_reduce
I0403 15:12:27.700779  2802 net.cpp:399] inception_3b/3x3 -> inception_3b/3x3
I0403 15:12:27.703745  2802 net.cpp:141] Setting up inception_3b/3x3
I0403 15:12:27.703778  2802 net.cpp:148] Top shape: 24 192 28 28 (3612672)
I0403 15:12:27.703794  2802 net.cpp:156] Memory required for data: 710493216
I0403 15:12:27.703814  2802 layer_factory.hpp:77] Creating layer inception_3b/relu_3x3
I0403 15:12:27.703832  2802 net.cpp:91] Creating Layer inception_3b/relu_3x3
I0403 15:12:27.703848  2802 net.cpp:425] inception_3b/relu_3x3 <- inception_3b/3x3
I0403 15:12:27.703868  2802 net.cpp:386] inception_3b/relu_3x3 -> inception_3b/3x3 (in-place)
I0403 15:12:27.704147  2802 net.cpp:141] Setting up inception_3b/relu_3x3
I0403 15:12:27.704175  2802 net.cpp:148] Top shape: 24 192 28 28 (3612672)
I0403 15:12:27.704191  2802 net.cpp:156] Memory required for data: 724943904
I0403 15:12:27.704207  2802 layer_factory.hpp:77] Creating layer inception_3b/5x5_reduce
I0403 15:12:27.704231  2802 net.cpp:91] Creating Layer inception_3b/5x5_reduce
I0403 15:12:27.704248  2802 net.cpp:425] inception_3b/5x5_reduce <- inception_3a/output_inception_3a/output_0_split_2
I0403 15:12:27.704275  2802 net.cpp:399] inception_3b/5x5_reduce -> inception_3b/5x5_reduce
I0403 15:12:27.705281  2802 net.cpp:141] Setting up inception_3b/5x5_reduce
I0403 15:12:27.705313  2802 net.cpp:148] Top shape: 24 32 28 28 (602112)
I0403 15:12:27.705329  2802 net.cpp:156] Memory required for data: 727352352
I0403 15:12:27.705348  2802 layer_factory.hpp:77] Creating layer inception_3b/relu_5x5_reduce
I0403 15:12:27.705368  2802 net.cpp:91] Creating Layer inception_3b/relu_5x5_reduce
I0403 15:12:27.705384  2802 net.cpp:425] inception_3b/relu_5x5_reduce <- inception_3b/5x5_reduce
I0403 15:12:27.705402  2802 net.cpp:386] inception_3b/relu_5x5_reduce -> inception_3b/5x5_reduce (in-place)
I0403 15:12:27.705600  2802 net.cpp:141] Setting up inception_3b/relu_5x5_reduce
I0403 15:12:27.705626  2802 net.cpp:148] Top shape: 24 32 28 28 (602112)
I0403 15:12:27.705641  2802 net.cpp:156] Memory required for data: 729760800
I0403 15:12:27.705656  2802 layer_factory.hpp:77] Creating layer inception_3b/5x5
I0403 15:12:27.705678  2802 net.cpp:91] Creating Layer inception_3b/5x5
I0403 15:12:27.705696  2802 net.cpp:425] inception_3b/5x5 <- inception_3b/5x5_reduce
I0403 15:12:27.705718  2802 net.cpp:399] inception_3b/5x5 -> inception_3b/5x5
I0403 15:12:27.707727  2802 net.cpp:141] Setting up inception_3b/5x5
I0403 15:12:27.707756  2802 net.cpp:148] Top shape: 24 96 28 28 (1806336)
I0403 15:12:27.707780  2802 net.cpp:156] Memory required for data: 736986144
I0403 15:12:27.707799  2802 layer_factory.hpp:77] Creating layer inception_3b/relu_5x5
I0403 15:12:27.707819  2802 net.cpp:91] Creating Layer inception_3b/relu_5x5
I0403 15:12:27.707836  2802 net.cpp:425] inception_3b/relu_5x5 <- inception_3b/5x5
I0403 15:12:27.707854  2802 net.cpp:386] inception_3b/relu_5x5 -> inception_3b/5x5 (in-place)
I0403 15:12:27.708042  2802 net.cpp:141] Setting up inception_3b/relu_5x5
I0403 15:12:27.708067  2802 net.cpp:148] Top shape: 24 96 28 28 (1806336)
I0403 15:12:27.708082  2802 net.cpp:156] Memory required for data: 744211488
I0403 15:12:27.708096  2802 layer_factory.hpp:77] Creating layer inception_3b/pool
I0403 15:12:27.708114  2802 net.cpp:91] Creating Layer inception_3b/pool
I0403 15:12:27.708130  2802 net.cpp:425] inception_3b/pool <- inception_3a/output_inception_3a/output_0_split_3
I0403 15:12:27.708148  2802 net.cpp:399] inception_3b/pool -> inception_3b/pool
I0403 15:12:27.708204  2802 net.cpp:141] Setting up inception_3b/pool
I0403 15:12:27.708227  2802 net.cpp:148] Top shape: 24 256 28 28 (4816896)
I0403 15:12:27.708241  2802 net.cpp:156] Memory required for data: 763479072
I0403 15:12:27.708256  2802 layer_factory.hpp:77] Creating layer inception_3b/pool_proj
I0403 15:12:27.708283  2802 net.cpp:91] Creating Layer inception_3b/pool_proj
I0403 15:12:27.708302  2802 net.cpp:425] inception_3b/pool_proj <- inception_3b/pool
I0403 15:12:27.708323  2802 net.cpp:399] inception_3b/pool_proj -> inception_3b/pool_proj
I0403 15:12:27.709410  2802 net.cpp:141] Setting up inception_3b/pool_proj
I0403 15:12:27.709439  2802 net.cpp:148] Top shape: 24 64 28 28 (1204224)
I0403 15:12:27.709453  2802 net.cpp:156] Memory required for data: 768295968
I0403 15:12:27.709471  2802 layer_factory.hpp:77] Creating layer inception_3b/relu_pool_proj
I0403 15:12:27.709491  2802 net.cpp:91] Creating Layer inception_3b/relu_pool_proj
I0403 15:12:27.709508  2802 net.cpp:425] inception_3b/relu_pool_proj <- inception_3b/pool_proj
I0403 15:12:27.709527  2802 net.cpp:386] inception_3b/relu_pool_proj -> inception_3b/pool_proj (in-place)
I0403 15:12:27.709949  2802 net.cpp:141] Setting up inception_3b/relu_pool_proj
I0403 15:12:27.709975  2802 net.cpp:148] Top shape: 24 64 28 28 (1204224)
I0403 15:12:27.709990  2802 net.cpp:156] Memory required for data: 773112864
I0403 15:12:27.710005  2802 layer_factory.hpp:77] Creating layer inception_3b/output
I0403 15:12:27.710023  2802 net.cpp:91] Creating Layer inception_3b/output
I0403 15:12:27.710039  2802 net.cpp:425] inception_3b/output <- inception_3b/1x1
I0403 15:12:27.710057  2802 net.cpp:425] inception_3b/output <- inception_3b/3x3
I0403 15:12:27.710073  2802 net.cpp:425] inception_3b/output <- inception_3b/5x5
I0403 15:12:27.710091  2802 net.cpp:425] inception_3b/output <- inception_3b/pool_proj
I0403 15:12:27.710110  2802 net.cpp:399] inception_3b/output -> inception_3b/output
I0403 15:12:27.710155  2802 net.cpp:141] Setting up inception_3b/output
I0403 15:12:27.710196  2802 net.cpp:148] Top shape: 24 480 28 28 (9031680)
I0403 15:12:27.710211  2802 net.cpp:156] Memory required for data: 809239584
I0403 15:12:27.710224  2802 layer_factory.hpp:77] Creating layer pool3/3x3_s2
I0403 15:12:27.710242  2802 net.cpp:91] Creating Layer pool3/3x3_s2
I0403 15:12:27.710258  2802 net.cpp:425] pool3/3x3_s2 <- inception_3b/output
I0403 15:12:27.710296  2802 net.cpp:399] pool3/3x3_s2 -> pool3/3x3_s2
I0403 15:12:27.710356  2802 net.cpp:141] Setting up pool3/3x3_s2
I0403 15:12:27.710379  2802 net.cpp:148] Top shape: 24 480 14 14 (2257920)
I0403 15:12:27.710394  2802 net.cpp:156] Memory required for data: 818271264
I0403 15:12:27.710409  2802 layer_factory.hpp:77] Creating layer pool3/3x3_s2_pool3/3x3_s2_0_split
I0403 15:12:27.710427  2802 net.cpp:91] Creating Layer pool3/3x3_s2_pool3/3x3_s2_0_split
I0403 15:12:27.710441  2802 net.cpp:425] pool3/3x3_s2_pool3/3x3_s2_0_split <- pool3/3x3_s2
I0403 15:12:27.710461  2802 net.cpp:399] pool3/3x3_s2_pool3/3x3_s2_0_split -> pool3/3x3_s2_pool3/3x3_s2_0_split_0
I0403 15:12:27.710481  2802 net.cpp:399] pool3/3x3_s2_pool3/3x3_s2_0_split -> pool3/3x3_s2_pool3/3x3_s2_0_split_1
I0403 15:12:27.710501  2802 net.cpp:399] pool3/3x3_s2_pool3/3x3_s2_0_split -> pool3/3x3_s2_pool3/3x3_s2_0_split_2
I0403 15:12:27.710523  2802 net.cpp:399] pool3/3x3_s2_pool3/3x3_s2_0_split -> pool3/3x3_s2_pool3/3x3_s2_0_split_3
I0403 15:12:27.710600  2802 net.cpp:141] Setting up pool3/3x3_s2_pool3/3x3_s2_0_split
I0403 15:12:27.710623  2802 net.cpp:148] Top shape: 24 480 14 14 (2257920)
I0403 15:12:27.710639  2802 net.cpp:148] Top shape: 24 480 14 14 (2257920)
I0403 15:12:27.710654  2802 net.cpp:148] Top shape: 24 480 14 14 (2257920)
I0403 15:12:27.710670  2802 net.cpp:148] Top shape: 24 480 14 14 (2257920)
I0403 15:12:27.710685  2802 net.cpp:156] Memory required for data: 854397984
I0403 15:12:27.710700  2802 layer_factory.hpp:77] Creating layer inception_4a/1x1
I0403 15:12:27.710721  2802 net.cpp:91] Creating Layer inception_4a/1x1
I0403 15:12:27.710738  2802 net.cpp:425] inception_4a/1x1 <- pool3/3x3_s2_pool3/3x3_s2_0_split_0
I0403 15:12:27.710759  2802 net.cpp:399] inception_4a/1x1 -> inception_4a/1x1
I0403 15:12:27.712335  2802 net.cpp:141] Setting up inception_4a/1x1
I0403 15:12:27.712363  2802 net.cpp:148] Top shape: 24 192 14 14 (903168)
I0403 15:12:27.712378  2802 net.cpp:156] Memory required for data: 858010656
I0403 15:12:27.712396  2802 layer_factory.hpp:77] Creating layer inception_4a/relu_1x1
I0403 15:12:27.712416  2802 net.cpp:91] Creating Layer inception_4a/relu_1x1
I0403 15:12:27.712433  2802 net.cpp:425] inception_4a/relu_1x1 <- inception_4a/1x1
I0403 15:12:27.712450  2802 net.cpp:386] inception_4a/relu_1x1 -> inception_4a/1x1 (in-place)
I0403 15:12:27.712627  2802 net.cpp:141] Setting up inception_4a/relu_1x1
I0403 15:12:27.712651  2802 net.cpp:148] Top shape: 24 192 14 14 (903168)
I0403 15:12:27.712666  2802 net.cpp:156] Memory required for data: 861623328
I0403 15:12:27.712682  2802 layer_factory.hpp:77] Creating layer inception_4a/3x3_reduce
I0403 15:12:27.712705  2802 net.cpp:91] Creating Layer inception_4a/3x3_reduce
I0403 15:12:27.712723  2802 net.cpp:425] inception_4a/3x3_reduce <- pool3/3x3_s2_pool3/3x3_s2_0_split_1
I0403 15:12:27.712741  2802 net.cpp:399] inception_4a/3x3_reduce -> inception_4a/3x3_reduce
I0403 15:12:27.714007  2802 net.cpp:141] Setting up inception_4a/3x3_reduce
I0403 15:12:27.714035  2802 net.cpp:148] Top shape: 24 96 14 14 (451584)
I0403 15:12:27.714051  2802 net.cpp:156] Memory required for data: 863429664
I0403 15:12:27.714076  2802 layer_factory.hpp:77] Creating layer inception_4a/relu_3x3_reduce
I0403 15:12:27.714095  2802 net.cpp:91] Creating Layer inception_4a/relu_3x3_reduce
I0403 15:12:27.714112  2802 net.cpp:425] inception_4a/relu_3x3_reduce <- inception_4a/3x3_reduce
I0403 15:12:27.714131  2802 net.cpp:386] inception_4a/relu_3x3_reduce -> inception_4a/3x3_reduce (in-place)
I0403 15:12:27.714310  2802 net.cpp:141] Setting up inception_4a/relu_3x3_reduce
I0403 15:12:27.714335  2802 net.cpp:148] Top shape: 24 96 14 14 (451584)
I0403 15:12:27.714350  2802 net.cpp:156] Memory required for data: 865236000
I0403 15:12:27.714365  2802 layer_factory.hpp:77] Creating layer inception_4a/3x3
I0403 15:12:27.714387  2802 net.cpp:91] Creating Layer inception_4a/3x3
I0403 15:12:27.714406  2802 net.cpp:425] inception_4a/3x3 <- inception_4a/3x3_reduce
I0403 15:12:27.714426  2802 net.cpp:399] inception_4a/3x3 -> inception_4a/3x3
I0403 15:12:27.717074  2802 net.cpp:141] Setting up inception_4a/3x3
I0403 15:12:27.717104  2802 net.cpp:148] Top shape: 24 208 14 14 (978432)
I0403 15:12:27.717120  2802 net.cpp:156] Memory required for data: 869149728
I0403 15:12:27.717139  2802 layer_factory.hpp:77] Creating layer inception_4a/relu_3x3
I0403 15:12:27.717157  2802 net.cpp:91] Creating Layer inception_4a/relu_3x3
I0403 15:12:27.717173  2802 net.cpp:425] inception_4a/relu_3x3 <- inception_4a/3x3
I0403 15:12:27.717192  2802 net.cpp:386] inception_4a/relu_3x3 -> inception_4a/3x3 (in-place)
I0403 15:12:27.717470  2802 net.cpp:141] Setting up inception_4a/relu_3x3
I0403 15:12:27.717499  2802 net.cpp:148] Top shape: 24 208 14 14 (978432)
I0403 15:12:27.717514  2802 net.cpp:156] Memory required for data: 873063456
I0403 15:12:27.717530  2802 layer_factory.hpp:77] Creating layer inception_4a/5x5_reduce
I0403 15:12:27.717550  2802 net.cpp:91] Creating Layer inception_4a/5x5_reduce
I0403 15:12:27.717566  2802 net.cpp:425] inception_4a/5x5_reduce <- pool3/3x3_s2_pool3/3x3_s2_0_split_2
I0403 15:12:27.717588  2802 net.cpp:399] inception_4a/5x5_reduce -> inception_4a/5x5_reduce
I0403 15:12:27.718612  2802 net.cpp:141] Setting up inception_4a/5x5_reduce
I0403 15:12:27.718641  2802 net.cpp:148] Top shape: 24 16 14 14 (75264)
I0403 15:12:27.718655  2802 net.cpp:156] Memory required for data: 873364512
I0403 15:12:27.718673  2802 layer_factory.hpp:77] Creating layer inception_4a/relu_5x5_reduce
I0403 15:12:27.718690  2802 net.cpp:91] Creating Layer inception_4a/relu_5x5_reduce
I0403 15:12:27.718706  2802 net.cpp:425] inception_4a/relu_5x5_reduce <- inception_4a/5x5_reduce
I0403 15:12:27.718724  2802 net.cpp:386] inception_4a/relu_5x5_reduce -> inception_4a/5x5_reduce (in-place)
I0403 15:12:27.718895  2802 net.cpp:141] Setting up inception_4a/relu_5x5_reduce
I0403 15:12:27.718919  2802 net.cpp:148] Top shape: 24 16 14 14 (75264)
I0403 15:12:27.718933  2802 net.cpp:156] Memory required for data: 873665568
I0403 15:12:27.718947  2802 layer_factory.hpp:77] Creating layer inception_4a/5x5
I0403 15:12:27.718969  2802 net.cpp:91] Creating Layer inception_4a/5x5
I0403 15:12:27.718986  2802 net.cpp:425] inception_4a/5x5 <- inception_4a/5x5_reduce
I0403 15:12:27.719007  2802 net.cpp:399] inception_4a/5x5 -> inception_4a/5x5
I0403 15:12:27.720053  2802 net.cpp:141] Setting up inception_4a/5x5
I0403 15:12:27.720079  2802 net.cpp:148] Top shape: 24 48 14 14 (225792)
I0403 15:12:27.720094  2802 net.cpp:156] Memory required for data: 874568736
I0403 15:12:27.720113  2802 layer_factory.hpp:77] Creating layer inception_4a/relu_5x5
I0403 15:12:27.720130  2802 net.cpp:91] Creating Layer inception_4a/relu_5x5
I0403 15:12:27.720146  2802 net.cpp:425] inception_4a/relu_5x5 <- inception_4a/5x5
I0403 15:12:27.720165  2802 net.cpp:386] inception_4a/relu_5x5 -> inception_4a/5x5 (in-place)
I0403 15:12:27.720338  2802 net.cpp:141] Setting up inception_4a/relu_5x5
I0403 15:12:27.720362  2802 net.cpp:148] Top shape: 24 48 14 14 (225792)
I0403 15:12:27.720377  2802 net.cpp:156] Memory required for data: 875471904
I0403 15:12:27.720392  2802 layer_factory.hpp:77] Creating layer inception_4a/pool
I0403 15:12:27.720412  2802 net.cpp:91] Creating Layer inception_4a/pool
I0403 15:12:27.720428  2802 net.cpp:425] inception_4a/pool <- pool3/3x3_s2_pool3/3x3_s2_0_split_3
I0403 15:12:27.720446  2802 net.cpp:399] inception_4a/pool -> inception_4a/pool
I0403 15:12:27.720505  2802 net.cpp:141] Setting up inception_4a/pool
I0403 15:12:27.720528  2802 net.cpp:148] Top shape: 24 480 14 14 (2257920)
I0403 15:12:27.720542  2802 net.cpp:156] Memory required for data: 884503584
I0403 15:12:27.720556  2802 layer_factory.hpp:77] Creating layer inception_4a/pool_proj
I0403 15:12:27.720577  2802 net.cpp:91] Creating Layer inception_4a/pool_proj
I0403 15:12:27.720594  2802 net.cpp:425] inception_4a/pool_proj <- inception_4a/pool
I0403 15:12:27.720615  2802 net.cpp:399] inception_4a/pool_proj -> inception_4a/pool_proj
I0403 15:12:27.721787  2802 net.cpp:141] Setting up inception_4a/pool_proj
I0403 15:12:27.721817  2802 net.cpp:148] Top shape: 24 64 14 14 (301056)
I0403 15:12:27.721848  2802 net.cpp:156] Memory required for data: 885707808
I0403 15:12:27.721868  2802 layer_factory.hpp:77] Creating layer inception_4a/relu_pool_proj
I0403 15:12:27.721889  2802 net.cpp:91] Creating Layer inception_4a/relu_pool_proj
I0403 15:12:27.721905  2802 net.cpp:425] inception_4a/relu_pool_proj <- inception_4a/pool_proj
I0403 15:12:27.721923  2802 net.cpp:386] inception_4a/relu_pool_proj -> inception_4a/pool_proj (in-place)
I0403 15:12:27.722204  2802 net.cpp:141] Setting up inception_4a/relu_pool_proj
I0403 15:12:27.722230  2802 net.cpp:148] Top shape: 24 64 14 14 (301056)
I0403 15:12:27.722244  2802 net.cpp:156] Memory required for data: 886912032
I0403 15:12:27.722259  2802 layer_factory.hpp:77] Creating layer inception_4a/output
I0403 15:12:27.722288  2802 net.cpp:91] Creating Layer inception_4a/output
I0403 15:12:27.722307  2802 net.cpp:425] inception_4a/output <- inception_4a/1x1
I0403 15:12:27.722323  2802 net.cpp:425] inception_4a/output <- inception_4a/3x3
I0403 15:12:27.722340  2802 net.cpp:425] inception_4a/output <- inception_4a/5x5
I0403 15:12:27.722357  2802 net.cpp:425] inception_4a/output <- inception_4a/pool_proj
I0403 15:12:27.722375  2802 net.cpp:399] inception_4a/output -> inception_4a/output
I0403 15:12:27.722421  2802 net.cpp:141] Setting up inception_4a/output
I0403 15:12:27.722445  2802 net.cpp:148] Top shape: 24 512 14 14 (2408448)
I0403 15:12:27.722460  2802 net.cpp:156] Memory required for data: 896545824
I0403 15:12:27.722475  2802 layer_factory.hpp:77] Creating layer inception_4a/output_inception_4a/output_0_split
I0403 15:12:27.722491  2802 net.cpp:91] Creating Layer inception_4a/output_inception_4a/output_0_split
I0403 15:12:27.722506  2802 net.cpp:425] inception_4a/output_inception_4a/output_0_split <- inception_4a/output
I0403 15:12:27.722527  2802 net.cpp:399] inception_4a/output_inception_4a/output_0_split -> inception_4a/output_inception_4a/output_0_split_0
I0403 15:12:27.722548  2802 net.cpp:399] inception_4a/output_inception_4a/output_0_split -> inception_4a/output_inception_4a/output_0_split_1
I0403 15:12:27.722568  2802 net.cpp:399] inception_4a/output_inception_4a/output_0_split -> inception_4a/output_inception_4a/output_0_split_2
I0403 15:12:27.722589  2802 net.cpp:399] inception_4a/output_inception_4a/output_0_split -> inception_4a/output_inception_4a/output_0_split_3
I0403 15:12:27.722609  2802 net.cpp:399] inception_4a/output_inception_4a/output_0_split -> inception_4a/output_inception_4a/output_0_split_4
I0403 15:12:27.722703  2802 net.cpp:141] Setting up inception_4a/output_inception_4a/output_0_split
I0403 15:12:27.722729  2802 net.cpp:148] Top shape: 24 512 14 14 (2408448)
I0403 15:12:27.722745  2802 net.cpp:148] Top shape: 24 512 14 14 (2408448)
I0403 15:12:27.722761  2802 net.cpp:148] Top shape: 24 512 14 14 (2408448)
I0403 15:12:27.722776  2802 net.cpp:148] Top shape: 24 512 14 14 (2408448)
I0403 15:12:27.722792  2802 net.cpp:148] Top shape: 24 512 14 14 (2408448)
I0403 15:12:27.722806  2802 net.cpp:156] Memory required for data: 944714784
I0403 15:12:27.722820  2802 layer_factory.hpp:77] Creating layer loss1/ave_pool
I0403 15:12:27.722838  2802 net.cpp:91] Creating Layer loss1/ave_pool
I0403 15:12:27.722853  2802 net.cpp:425] loss1/ave_pool <- inception_4a/output_inception_4a/output_0_split_0
I0403 15:12:27.722873  2802 net.cpp:399] loss1/ave_pool -> loss1/ave_pool
I0403 15:12:27.723080  2802 net.cpp:141] Setting up loss1/ave_pool
I0403 15:12:27.723106  2802 net.cpp:148] Top shape: 24 512 4 4 (196608)
I0403 15:12:27.723120  2802 net.cpp:156] Memory required for data: 945501216
I0403 15:12:27.723135  2802 layer_factory.hpp:77] Creating layer loss1/conv
I0403 15:12:27.723157  2802 net.cpp:91] Creating Layer loss1/conv
I0403 15:12:27.723175  2802 net.cpp:425] loss1/conv <- loss1/ave_pool
I0403 15:12:27.723194  2802 net.cpp:399] loss1/conv -> loss1/conv
I0403 15:12:27.724609  2802 net.cpp:141] Setting up loss1/conv
I0403 15:12:27.724640  2802 net.cpp:148] Top shape: 24 128 4 4 (49152)
I0403 15:12:27.724668  2802 net.cpp:156] Memory required for data: 945697824
I0403 15:12:27.724689  2802 layer_factory.hpp:77] Creating layer loss1/relu_conv
I0403 15:12:27.724706  2802 net.cpp:91] Creating Layer loss1/relu_conv
I0403 15:12:27.724722  2802 net.cpp:425] loss1/relu_conv <- loss1/conv
I0403 15:12:27.724740  2802 net.cpp:386] loss1/relu_conv -> loss1/conv (in-place)
I0403 15:12:27.725023  2802 net.cpp:141] Setting up loss1/relu_conv
I0403 15:12:27.725051  2802 net.cpp:148] Top shape: 24 128 4 4 (49152)
I0403 15:12:27.725067  2802 net.cpp:156] Memory required for data: 945894432
I0403 15:12:27.725082  2802 layer_factory.hpp:77] Creating layer loss1/fc
I0403 15:12:27.725106  2802 net.cpp:91] Creating Layer loss1/fc
I0403 15:12:27.725123  2802 net.cpp:425] loss1/fc <- loss1/conv
I0403 15:12:27.725144  2802 net.cpp:399] loss1/fc -> loss1/fc
I0403 15:12:27.742902  2802 net.cpp:141] Setting up loss1/fc
I0403 15:12:27.742936  2802 net.cpp:148] Top shape: 24 1024 (24576)
I0403 15:12:27.742951  2802 net.cpp:156] Memory required for data: 945992736
I0403 15:12:27.742969  2802 layer_factory.hpp:77] Creating layer loss1/relu_fc
I0403 15:12:27.742990  2802 net.cpp:91] Creating Layer loss1/relu_fc
I0403 15:12:27.743005  2802 net.cpp:425] loss1/relu_fc <- loss1/fc
I0403 15:12:27.743022  2802 net.cpp:386] loss1/relu_fc -> loss1/fc (in-place)
I0403 15:12:27.743201  2802 net.cpp:141] Setting up loss1/relu_fc
I0403 15:12:27.743227  2802 net.cpp:148] Top shape: 24 1024 (24576)
I0403 15:12:27.743240  2802 net.cpp:156] Memory required for data: 946091040
I0403 15:12:27.743254  2802 layer_factory.hpp:77] Creating layer loss1/drop_fc
I0403 15:12:27.743284  2802 net.cpp:91] Creating Layer loss1/drop_fc
I0403 15:12:27.743302  2802 net.cpp:425] loss1/drop_fc <- loss1/fc
I0403 15:12:27.743320  2802 net.cpp:386] loss1/drop_fc -> loss1/fc (in-place)
I0403 15:12:27.743371  2802 net.cpp:141] Setting up loss1/drop_fc
I0403 15:12:27.743393  2802 net.cpp:148] Top shape: 24 1024 (24576)
I0403 15:12:27.743407  2802 net.cpp:156] Memory required for data: 946189344
I0403 15:12:27.743422  2802 layer_factory.hpp:77] Creating layer loss1/classifier_plantvillage
I0403 15:12:27.743439  2802 net.cpp:91] Creating Layer loss1/classifier_plantvillage
I0403 15:12:27.743455  2802 net.cpp:425] loss1/classifier_plantvillage <- loss1/fc
I0403 15:12:27.743476  2802 net.cpp:399] loss1/classifier_plantvillage -> loss1/classifier_plantvillage
I0403 15:12:27.744350  2802 net.cpp:141] Setting up loss1/classifier_plantvillage
I0403 15:12:27.744379  2802 net.cpp:148] Top shape: 24 38 (912)
I0403 15:12:27.744395  2802 net.cpp:156] Memory required for data: 946192992
I0403 15:12:27.744411  2802 layer_factory.hpp:77] Creating layer loss1/classifier_plantvillage_loss1/classifier_plantvillage_0_split
I0403 15:12:27.744431  2802 net.cpp:91] Creating Layer loss1/classifier_plantvillage_loss1/classifier_plantvillage_0_split
I0403 15:12:27.744446  2802 net.cpp:425] loss1/classifier_plantvillage_loss1/classifier_plantvillage_0_split <- loss1/classifier_plantvillage
I0403 15:12:27.744463  2802 net.cpp:399] loss1/classifier_plantvillage_loss1/classifier_plantvillage_0_split -> loss1/classifier_plantvillage_loss1/classifier_plantvillage_0_split_0
I0403 15:12:27.744482  2802 net.cpp:399] loss1/classifier_plantvillage_loss1/classifier_plantvillage_0_split -> loss1/classifier_plantvillage_loss1/classifier_plantvillage_0_split_1
I0403 15:12:27.744503  2802 net.cpp:399] loss1/classifier_plantvillage_loss1/classifier_plantvillage_0_split -> loss1/classifier_plantvillage_loss1/classifier_plantvillage_0_split_2
I0403 15:12:27.744567  2802 net.cpp:141] Setting up loss1/classifier_plantvillage_loss1/classifier_plantvillage_0_split
I0403 15:12:27.744590  2802 net.cpp:148] Top shape: 24 38 (912)
I0403 15:12:27.744606  2802 net.cpp:148] Top shape: 24 38 (912)
I0403 15:12:27.744621  2802 net.cpp:148] Top shape: 24 38 (912)
I0403 15:12:27.744633  2802 net.cpp:156] Memory required for data: 946203936
I0403 15:12:27.744648  2802 layer_factory.hpp:77] Creating layer inception_4b/1x1
I0403 15:12:27.744668  2802 net.cpp:91] Creating Layer inception_4b/1x1
I0403 15:12:27.744699  2802 net.cpp:425] inception_4b/1x1 <- inception_4a/output_inception_4a/output_0_split_1
I0403 15:12:27.744721  2802 net.cpp:399] inception_4b/1x1 -> inception_4b/1x1
I0403 15:12:27.746316  2802 net.cpp:141] Setting up inception_4b/1x1
I0403 15:12:27.746345  2802 net.cpp:148] Top shape: 24 160 14 14 (752640)
I0403 15:12:27.746361  2802 net.cpp:156] Memory required for data: 949214496
I0403 15:12:27.746379  2802 layer_factory.hpp:77] Creating layer inception_4b/relu_1x1
I0403 15:12:27.746397  2802 net.cpp:91] Creating Layer inception_4b/relu_1x1
I0403 15:12:27.746412  2802 net.cpp:425] inception_4b/relu_1x1 <- inception_4b/1x1
I0403 15:12:27.746429  2802 net.cpp:386] inception_4b/relu_1x1 -> inception_4b/1x1 (in-place)
I0403 15:12:27.746603  2802 net.cpp:141] Setting up inception_4b/relu_1x1
I0403 15:12:27.746628  2802 net.cpp:148] Top shape: 24 160 14 14 (752640)
I0403 15:12:27.746641  2802 net.cpp:156] Memory required for data: 952225056
I0403 15:12:27.746655  2802 layer_factory.hpp:77] Creating layer inception_4b/3x3_reduce
I0403 15:12:27.746676  2802 net.cpp:91] Creating Layer inception_4b/3x3_reduce
I0403 15:12:27.746693  2802 net.cpp:425] inception_4b/3x3_reduce <- inception_4a/output_inception_4a/output_0_split_2
I0403 15:12:27.746714  2802 net.cpp:399] inception_4b/3x3_reduce -> inception_4b/3x3_reduce
I0403 15:12:27.748016  2802 net.cpp:141] Setting up inception_4b/3x3_reduce
I0403 15:12:27.748046  2802 net.cpp:148] Top shape: 24 112 14 14 (526848)
I0403 15:12:27.748062  2802 net.cpp:156] Memory required for data: 954332448
I0403 15:12:27.748080  2802 layer_factory.hpp:77] Creating layer inception_4b/relu_3x3_reduce
I0403 15:12:27.748098  2802 net.cpp:91] Creating Layer inception_4b/relu_3x3_reduce
I0403 15:12:27.748114  2802 net.cpp:425] inception_4b/relu_3x3_reduce <- inception_4b/3x3_reduce
I0403 15:12:27.748132  2802 net.cpp:386] inception_4b/relu_3x3_reduce -> inception_4b/3x3_reduce (in-place)
I0403 15:12:27.748409  2802 net.cpp:141] Setting up inception_4b/relu_3x3_reduce
I0403 15:12:27.748435  2802 net.cpp:148] Top shape: 24 112 14 14 (526848)
I0403 15:12:27.748450  2802 net.cpp:156] Memory required for data: 956439840
I0403 15:12:27.748466  2802 layer_factory.hpp:77] Creating layer inception_4b/3x3
I0403 15:12:27.748487  2802 net.cpp:91] Creating Layer inception_4b/3x3
I0403 15:12:27.748503  2802 net.cpp:425] inception_4b/3x3 <- inception_4b/3x3_reduce
I0403 15:12:27.748527  2802 net.cpp:399] inception_4b/3x3 -> inception_4b/3x3
I0403 15:12:27.751395  2802 net.cpp:141] Setting up inception_4b/3x3
I0403 15:12:27.751423  2802 net.cpp:148] Top shape: 24 224 14 14 (1053696)
I0403 15:12:27.751438  2802 net.cpp:156] Memory required for data: 960654624
I0403 15:12:27.751456  2802 layer_factory.hpp:77] Creating layer inception_4b/relu_3x3
I0403 15:12:27.751477  2802 net.cpp:91] Creating Layer inception_4b/relu_3x3
I0403 15:12:27.751492  2802 net.cpp:425] inception_4b/relu_3x3 <- inception_4b/3x3
I0403 15:12:27.751509  2802 net.cpp:386] inception_4b/relu_3x3 -> inception_4b/3x3 (in-place)
I0403 15:12:27.751682  2802 net.cpp:141] Setting up inception_4b/relu_3x3
I0403 15:12:27.751706  2802 net.cpp:148] Top shape: 24 224 14 14 (1053696)
I0403 15:12:27.751720  2802 net.cpp:156] Memory required for data: 964869408
I0403 15:12:27.751735  2802 layer_factory.hpp:77] Creating layer inception_4b/5x5_reduce
I0403 15:12:27.751759  2802 net.cpp:91] Creating Layer inception_4b/5x5_reduce
I0403 15:12:27.751775  2802 net.cpp:425] inception_4b/5x5_reduce <- inception_4a/output_inception_4a/output_0_split_3
I0403 15:12:27.751793  2802 net.cpp:399] inception_4b/5x5_reduce -> inception_4b/5x5_reduce
I0403 15:12:27.752902  2802 net.cpp:141] Setting up inception_4b/5x5_reduce
I0403 15:12:27.752931  2802 net.cpp:148] Top shape: 24 24 14 14 (112896)
I0403 15:12:27.752959  2802 net.cpp:156] Memory required for data: 965320992
I0403 15:12:27.752977  2802 layer_factory.hpp:77] Creating layer inception_4b/relu_5x5_reduce
I0403 15:12:27.752995  2802 net.cpp:91] Creating Layer inception_4b/relu_5x5_reduce
I0403 15:12:27.753024  2802 net.cpp:425] inception_4b/relu_5x5_reduce <- inception_4b/5x5_reduce
I0403 15:12:27.753046  2802 net.cpp:386] inception_4b/relu_5x5_reduce -> inception_4b/5x5_reduce (in-place)
I0403 15:12:27.753221  2802 net.cpp:141] Setting up inception_4b/relu_5x5_reduce
I0403 15:12:27.753245  2802 net.cpp:148] Top shape: 24 24 14 14 (112896)
I0403 15:12:27.753259  2802 net.cpp:156] Memory required for data: 965772576
I0403 15:12:27.753278  2802 layer_factory.hpp:77] Creating layer inception_4b/5x5
I0403 15:12:27.753301  2802 net.cpp:91] Creating Layer inception_4b/5x5
I0403 15:12:27.753319  2802 net.cpp:425] inception_4b/5x5 <- inception_4b/5x5_reduce
I0403 15:12:27.753340  2802 net.cpp:399] inception_4b/5x5 -> inception_4b/5x5
I0403 15:12:27.754540  2802 net.cpp:141] Setting up inception_4b/5x5
I0403 15:12:27.754570  2802 net.cpp:148] Top shape: 24 64 14 14 (301056)
I0403 15:12:27.754585  2802 net.cpp:156] Memory required for data: 966976800
I0403 15:12:27.754603  2802 layer_factory.hpp:77] Creating layer inception_4b/relu_5x5
I0403 15:12:27.754621  2802 net.cpp:91] Creating Layer inception_4b/relu_5x5
I0403 15:12:27.754637  2802 net.cpp:425] inception_4b/relu_5x5 <- inception_4b/5x5
I0403 15:12:27.754653  2802 net.cpp:386] inception_4b/relu_5x5 -> inception_4b/5x5 (in-place)
I0403 15:12:27.754931  2802 net.cpp:141] Setting up inception_4b/relu_5x5
I0403 15:12:27.754959  2802 net.cpp:148] Top shape: 24 64 14 14 (301056)
I0403 15:12:27.754974  2802 net.cpp:156] Memory required for data: 968181024
I0403 15:12:27.754988  2802 layer_factory.hpp:77] Creating layer inception_4b/pool
I0403 15:12:27.755005  2802 net.cpp:91] Creating Layer inception_4b/pool
I0403 15:12:27.755023  2802 net.cpp:425] inception_4b/pool <- inception_4a/output_inception_4a/output_0_split_4
I0403 15:12:27.755040  2802 net.cpp:399] inception_4b/pool -> inception_4b/pool
I0403 15:12:27.755105  2802 net.cpp:141] Setting up inception_4b/pool
I0403 15:12:27.755127  2802 net.cpp:148] Top shape: 24 512 14 14 (2408448)
I0403 15:12:27.755142  2802 net.cpp:156] Memory required for data: 977814816
I0403 15:12:27.755156  2802 layer_factory.hpp:77] Creating layer inception_4b/pool_proj
I0403 15:12:27.755178  2802 net.cpp:91] Creating Layer inception_4b/pool_proj
I0403 15:12:27.755195  2802 net.cpp:425] inception_4b/pool_proj <- inception_4b/pool
I0403 15:12:27.755215  2802 net.cpp:399] inception_4b/pool_proj -> inception_4b/pool_proj
I0403 15:12:27.756386  2802 net.cpp:141] Setting up inception_4b/pool_proj
I0403 15:12:27.756415  2802 net.cpp:148] Top shape: 24 64 14 14 (301056)
I0403 15:12:27.756430  2802 net.cpp:156] Memory required for data: 979019040
I0403 15:12:27.756448  2802 layer_factory.hpp:77] Creating layer inception_4b/relu_pool_proj
I0403 15:12:27.756466  2802 net.cpp:91] Creating Layer inception_4b/relu_pool_proj
I0403 15:12:27.756482  2802 net.cpp:425] inception_4b/relu_pool_proj <- inception_4b/pool_proj
I0403 15:12:27.756501  2802 net.cpp:386] inception_4b/relu_pool_proj -> inception_4b/pool_proj (in-place)
I0403 15:12:27.756676  2802 net.cpp:141] Setting up inception_4b/relu_pool_proj
I0403 15:12:27.756700  2802 net.cpp:148] Top shape: 24 64 14 14 (301056)
I0403 15:12:27.756714  2802 net.cpp:156] Memory required for data: 980223264
I0403 15:12:27.756729  2802 layer_factory.hpp:77] Creating layer inception_4b/output
I0403 15:12:27.756747  2802 net.cpp:91] Creating Layer inception_4b/output
I0403 15:12:27.756762  2802 net.cpp:425] inception_4b/output <- inception_4b/1x1
I0403 15:12:27.756778  2802 net.cpp:425] inception_4b/output <- inception_4b/3x3
I0403 15:12:27.756794  2802 net.cpp:425] inception_4b/output <- inception_4b/5x5
I0403 15:12:27.756809  2802 net.cpp:425] inception_4b/output <- inception_4b/pool_proj
I0403 15:12:27.756829  2802 net.cpp:399] inception_4b/output -> inception_4b/output
I0403 15:12:27.756872  2802 net.cpp:141] Setting up inception_4b/output
I0403 15:12:27.756897  2802 net.cpp:148] Top shape: 24 512 14 14 (2408448)
I0403 15:12:27.756911  2802 net.cpp:156] Memory required for data: 989857056
I0403 15:12:27.756939  2802 layer_factory.hpp:77] Creating layer inception_4b/output_inception_4b/output_0_split
I0403 15:12:27.756958  2802 net.cpp:91] Creating Layer inception_4b/output_inception_4b/output_0_split
I0403 15:12:27.756973  2802 net.cpp:425] inception_4b/output_inception_4b/output_0_split <- inception_4b/output
I0403 15:12:27.756991  2802 net.cpp:399] inception_4b/output_inception_4b/output_0_split -> inception_4b/output_inception_4b/output_0_split_0
I0403 15:12:27.757012  2802 net.cpp:399] inception_4b/output_inception_4b/output_0_split -> inception_4b/output_inception_4b/output_0_split_1
I0403 15:12:27.757032  2802 net.cpp:399] inception_4b/output_inception_4b/output_0_split -> inception_4b/output_inception_4b/output_0_split_2
I0403 15:12:27.757051  2802 net.cpp:399] inception_4b/output_inception_4b/output_0_split -> inception_4b/output_inception_4b/output_0_split_3
I0403 15:12:27.757133  2802 net.cpp:141] Setting up inception_4b/output_inception_4b/output_0_split
I0403 15:12:27.757156  2802 net.cpp:148] Top shape: 24 512 14 14 (2408448)
I0403 15:12:27.757176  2802 net.cpp:148] Top shape: 24 512 14 14 (2408448)
I0403 15:12:27.757192  2802 net.cpp:148] Top shape: 24 512 14 14 (2408448)
I0403 15:12:27.757207  2802 net.cpp:148] Top shape: 24 512 14 14 (2408448)
I0403 15:12:27.757222  2802 net.cpp:156] Memory required for data: 1028392224
I0403 15:12:27.757236  2802 layer_factory.hpp:77] Creating layer inception_4c/1x1
I0403 15:12:27.757256  2802 net.cpp:91] Creating Layer inception_4c/1x1
I0403 15:12:27.757275  2802 net.cpp:425] inception_4c/1x1 <- inception_4b/output_inception_4b/output_0_split_0
I0403 15:12:27.757298  2802 net.cpp:399] inception_4c/1x1 -> inception_4c/1x1
I0403 15:12:27.758688  2802 net.cpp:141] Setting up inception_4c/1x1
I0403 15:12:27.758715  2802 net.cpp:148] Top shape: 24 128 14 14 (602112)
I0403 15:12:27.758730  2802 net.cpp:156] Memory required for data: 1030800672
I0403 15:12:27.758749  2802 layer_factory.hpp:77] Creating layer inception_4c/relu_1x1
I0403 15:12:27.758769  2802 net.cpp:91] Creating Layer inception_4c/relu_1x1
I0403 15:12:27.758785  2802 net.cpp:425] inception_4c/relu_1x1 <- inception_4c/1x1
I0403 15:12:27.758802  2802 net.cpp:386] inception_4c/relu_1x1 -> inception_4c/1x1 (in-place)
I0403 15:12:27.758975  2802 net.cpp:141] Setting up inception_4c/relu_1x1
I0403 15:12:27.758999  2802 net.cpp:148] Top shape: 24 128 14 14 (602112)
I0403 15:12:27.759013  2802 net.cpp:156] Memory required for data: 1033209120
I0403 15:12:27.759027  2802 layer_factory.hpp:77] Creating layer inception_4c/3x3_reduce
I0403 15:12:27.759049  2802 net.cpp:91] Creating Layer inception_4c/3x3_reduce
I0403 15:12:27.759066  2802 net.cpp:425] inception_4c/3x3_reduce <- inception_4b/output_inception_4b/output_0_split_1
I0403 15:12:27.759085  2802 net.cpp:399] inception_4c/3x3_reduce -> inception_4c/3x3_reduce
I0403 15:12:27.760965  2802 net.cpp:141] Setting up inception_4c/3x3_reduce
I0403 15:12:27.760993  2802 net.cpp:148] Top shape: 24 128 14 14 (602112)
I0403 15:12:27.761008  2802 net.cpp:156] Memory required for data: 1035617568
I0403 15:12:27.761026  2802 layer_factory.hpp:77] Creating layer inception_4c/relu_3x3_reduce
I0403 15:12:27.761046  2802 net.cpp:91] Creating Layer inception_4c/relu_3x3_reduce
I0403 15:12:27.761062  2802 net.cpp:425] inception_4c/relu_3x3_reduce <- inception_4c/3x3_reduce
I0403 15:12:27.761078  2802 net.cpp:386] inception_4c/relu_3x3_reduce -> inception_4c/3x3_reduce (in-place)
I0403 15:12:27.761363  2802 net.cpp:141] Setting up inception_4c/relu_3x3_reduce
I0403 15:12:27.761387  2802 net.cpp:148] Top shape: 24 128 14 14 (602112)
I0403 15:12:27.761402  2802 net.cpp:156] Memory required for data: 1038026016
I0403 15:12:27.761416  2802 layer_factory.hpp:77] Creating layer inception_4c/3x3
I0403 15:12:27.761441  2802 net.cpp:91] Creating Layer inception_4c/3x3
I0403 15:12:27.761458  2802 net.cpp:425] inception_4c/3x3 <- inception_4c/3x3_reduce
I0403 15:12:27.761477  2802 net.cpp:399] inception_4c/3x3 -> inception_4c/3x3
I0403 15:12:27.764964  2802 net.cpp:141] Setting up inception_4c/3x3
I0403 15:12:27.765007  2802 net.cpp:148] Top shape: 24 256 14 14 (1204224)
I0403 15:12:27.765023  2802 net.cpp:156] Memory required for data: 1042842912
I0403 15:12:27.765054  2802 layer_factory.hpp:77] Creating layer inception_4c/relu_3x3
I0403 15:12:27.765074  2802 net.cpp:91] Creating Layer inception_4c/relu_3x3
I0403 15:12:27.765090  2802 net.cpp:425] inception_4c/relu_3x3 <- inception_4c/3x3
I0403 15:12:27.765107  2802 net.cpp:386] inception_4c/relu_3x3 -> inception_4c/3x3 (in-place)
I0403 15:12:27.765306  2802 net.cpp:141] Setting up inception_4c/relu_3x3
I0403 15:12:27.765336  2802 net.cpp:148] Top shape: 24 256 14 14 (1204224)
I0403 15:12:27.765350  2802 net.cpp:156] Memory required for data: 1047659808
I0403 15:12:27.765365  2802 layer_factory.hpp:77] Creating layer inception_4c/5x5_reduce
I0403 15:12:27.765388  2802 net.cpp:91] Creating Layer inception_4c/5x5_reduce
I0403 15:12:27.765408  2802 net.cpp:425] inception_4c/5x5_reduce <- inception_4b/output_inception_4b/output_0_split_2
I0403 15:12:27.765426  2802 net.cpp:399] inception_4c/5x5_reduce -> inception_4c/5x5_reduce
I0403 15:12:27.766494  2802 net.cpp:141] Setting up inception_4c/5x5_reduce
I0403 15:12:27.766523  2802 net.cpp:148] Top shape: 24 24 14 14 (112896)
I0403 15:12:27.766538  2802 net.cpp:156] Memory required for data: 1048111392
I0403 15:12:27.766556  2802 layer_factory.hpp:77] Creating layer inception_4c/relu_5x5_reduce
I0403 15:12:27.766574  2802 net.cpp:91] Creating Layer inception_4c/relu_5x5_reduce
I0403 15:12:27.766589  2802 net.cpp:425] inception_4c/relu_5x5_reduce <- inception_4c/5x5_reduce
I0403 15:12:27.766608  2802 net.cpp:386] inception_4c/relu_5x5_reduce -> inception_4c/5x5_reduce (in-place)
I0403 15:12:27.766788  2802 net.cpp:141] Setting up inception_4c/relu_5x5_reduce
I0403 15:12:27.766811  2802 net.cpp:148] Top shape: 24 24 14 14 (112896)
I0403 15:12:27.766825  2802 net.cpp:156] Memory required for data: 1048562976
I0403 15:12:27.766839  2802 layer_factory.hpp:77] Creating layer inception_4c/5x5
I0403 15:12:27.766861  2802 net.cpp:91] Creating Layer inception_4c/5x5
I0403 15:12:27.766878  2802 net.cpp:425] inception_4c/5x5 <- inception_4c/5x5_reduce
I0403 15:12:27.766898  2802 net.cpp:399] inception_4c/5x5 -> inception_4c/5x5
I0403 15:12:27.768106  2802 net.cpp:141] Setting up inception_4c/5x5
I0403 15:12:27.768132  2802 net.cpp:148] Top shape: 24 64 14 14 (301056)
I0403 15:12:27.768147  2802 net.cpp:156] Memory required for data: 1049767200
I0403 15:12:27.768165  2802 layer_factory.hpp:77] Creating layer inception_4c/relu_5x5
I0403 15:12:27.768185  2802 net.cpp:91] Creating Layer inception_4c/relu_5x5
I0403 15:12:27.768203  2802 net.cpp:425] inception_4c/relu_5x5 <- inception_4c/5x5
I0403 15:12:27.768223  2802 net.cpp:386] inception_4c/relu_5x5 -> inception_4c/5x5 (in-place)
I0403 15:12:27.768507  2802 net.cpp:141] Setting up inception_4c/relu_5x5
I0403 15:12:27.768533  2802 net.cpp:148] Top shape: 24 64 14 14 (301056)
I0403 15:12:27.768549  2802 net.cpp:156] Memory required for data: 1050971424
I0403 15:12:27.768565  2802 layer_factory.hpp:77] Creating layer inception_4c/pool
I0403 15:12:27.768584  2802 net.cpp:91] Creating Layer inception_4c/pool
I0403 15:12:27.768599  2802 net.cpp:425] inception_4c/pool <- inception_4b/output_inception_4b/output_0_split_3
I0403 15:12:27.768620  2802 net.cpp:399] inception_4c/pool -> inception_4c/pool
I0403 15:12:27.768683  2802 net.cpp:141] Setting up inception_4c/pool
I0403 15:12:27.768710  2802 net.cpp:148] Top shape: 24 512 14 14 (2408448)
I0403 15:12:27.768724  2802 net.cpp:156] Memory required for data: 1060605216
I0403 15:12:27.768739  2802 layer_factory.hpp:77] Creating layer inception_4c/pool_proj
I0403 15:12:27.768760  2802 net.cpp:91] Creating Layer inception_4c/pool_proj
I0403 15:12:27.768779  2802 net.cpp:425] inception_4c/pool_proj <- inception_4c/pool
I0403 15:12:27.768807  2802 net.cpp:399] inception_4c/pool_proj -> inception_4c/pool_proj
I0403 15:12:27.770083  2802 net.cpp:141] Setting up inception_4c/pool_proj
I0403 15:12:27.770115  2802 net.cpp:148] Top shape: 24 64 14 14 (301056)
I0403 15:12:27.770145  2802 net.cpp:156] Memory required for data: 1061809440
I0403 15:12:27.770166  2802 layer_factory.hpp:77] Creating layer inception_4c/relu_pool_proj
I0403 15:12:27.770184  2802 net.cpp:91] Creating Layer inception_4c/relu_pool_proj
I0403 15:12:27.770201  2802 net.cpp:425] inception_4c/relu_pool_proj <- inception_4c/pool_proj
I0403 15:12:27.770220  2802 net.cpp:386] inception_4c/relu_pool_proj -> inception_4c/pool_proj (in-place)
I0403 15:12:27.770416  2802 net.cpp:141] Setting up inception_4c/relu_pool_proj
I0403 15:12:27.770443  2802 net.cpp:148] Top shape: 24 64 14 14 (301056)
I0403 15:12:27.770458  2802 net.cpp:156] Memory required for data: 1063013664
I0403 15:12:27.770474  2802 layer_factory.hpp:77] Creating layer inception_4c/output
I0403 15:12:27.770493  2802 net.cpp:91] Creating Layer inception_4c/output
I0403 15:12:27.770509  2802 net.cpp:425] inception_4c/output <- inception_4c/1x1
I0403 15:12:27.770526  2802 net.cpp:425] inception_4c/output <- inception_4c/3x3
I0403 15:12:27.770545  2802 net.cpp:425] inception_4c/output <- inception_4c/5x5
I0403 15:12:27.770561  2802 net.cpp:425] inception_4c/output <- inception_4c/pool_proj
I0403 15:12:27.770581  2802 net.cpp:399] inception_4c/output -> inception_4c/output
I0403 15:12:27.770628  2802 net.cpp:141] Setting up inception_4c/output
I0403 15:12:27.770654  2802 net.cpp:148] Top shape: 24 512 14 14 (2408448)
I0403 15:12:27.770670  2802 net.cpp:156] Memory required for data: 1072647456
I0403 15:12:27.770685  2802 layer_factory.hpp:77] Creating layer inception_4c/output_inception_4c/output_0_split
I0403 15:12:27.770704  2802 net.cpp:91] Creating Layer inception_4c/output_inception_4c/output_0_split
I0403 15:12:27.770720  2802 net.cpp:425] inception_4c/output_inception_4c/output_0_split <- inception_4c/output
I0403 15:12:27.770740  2802 net.cpp:399] inception_4c/output_inception_4c/output_0_split -> inception_4c/output_inception_4c/output_0_split_0
I0403 15:12:27.770761  2802 net.cpp:399] inception_4c/output_inception_4c/output_0_split -> inception_4c/output_inception_4c/output_0_split_1
I0403 15:12:27.770781  2802 net.cpp:399] inception_4c/output_inception_4c/output_0_split -> inception_4c/output_inception_4c/output_0_split_2
I0403 15:12:27.770802  2802 net.cpp:399] inception_4c/output_inception_4c/output_0_split -> inception_4c/output_inception_4c/output_0_split_3
I0403 15:12:27.770889  2802 net.cpp:141] Setting up inception_4c/output_inception_4c/output_0_split
I0403 15:12:27.770913  2802 net.cpp:148] Top shape: 24 512 14 14 (2408448)
I0403 15:12:27.770931  2802 net.cpp:148] Top shape: 24 512 14 14 (2408448)
I0403 15:12:27.770946  2802 net.cpp:148] Top shape: 24 512 14 14 (2408448)
I0403 15:12:27.770962  2802 net.cpp:148] Top shape: 24 512 14 14 (2408448)
I0403 15:12:27.770977  2802 net.cpp:156] Memory required for data: 1111182624
I0403 15:12:27.770992  2802 layer_factory.hpp:77] Creating layer inception_4d/1x1
I0403 15:12:27.771013  2802 net.cpp:91] Creating Layer inception_4d/1x1
I0403 15:12:27.771031  2802 net.cpp:425] inception_4d/1x1 <- inception_4c/output_inception_4c/output_0_split_0
I0403 15:12:27.771054  2802 net.cpp:399] inception_4d/1x1 -> inception_4d/1x1
I0403 15:12:27.772490  2802 net.cpp:141] Setting up inception_4d/1x1
I0403 15:12:27.772519  2802 net.cpp:148] Top shape: 24 112 14 14 (526848)
I0403 15:12:27.772536  2802 net.cpp:156] Memory required for data: 1113290016
I0403 15:12:27.772554  2802 layer_factory.hpp:77] Creating layer inception_4d/relu_1x1
I0403 15:12:27.772575  2802 net.cpp:91] Creating Layer inception_4d/relu_1x1
I0403 15:12:27.772593  2802 net.cpp:425] inception_4d/relu_1x1 <- inception_4d/1x1
I0403 15:12:27.772611  2802 net.cpp:386] inception_4d/relu_1x1 -> inception_4d/1x1 (in-place)
I0403 15:12:27.772802  2802 net.cpp:141] Setting up inception_4d/relu_1x1
I0403 15:12:27.772830  2802 net.cpp:148] Top shape: 24 112 14 14 (526848)
I0403 15:12:27.772845  2802 net.cpp:156] Memory required for data: 1115397408
I0403 15:12:27.772861  2802 layer_factory.hpp:77] Creating layer inception_4d/3x3_reduce
I0403 15:12:27.772897  2802 net.cpp:91] Creating Layer inception_4d/3x3_reduce
I0403 15:12:27.772917  2802 net.cpp:425] inception_4d/3x3_reduce <- inception_4c/output_inception_4c/output_0_split_1
I0403 15:12:27.772936  2802 net.cpp:399] inception_4d/3x3_reduce -> inception_4d/3x3_reduce
I0403 15:12:27.774509  2802 net.cpp:141] Setting up inception_4d/3x3_reduce
I0403 15:12:27.774538  2802 net.cpp:148] Top shape: 24 144 14 14 (677376)
I0403 15:12:27.774554  2802 net.cpp:156] Memory required for data: 1118106912
I0403 15:12:27.774574  2802 layer_factory.hpp:77] Creating layer inception_4d/relu_3x3_reduce
I0403 15:12:27.774595  2802 net.cpp:91] Creating Layer inception_4d/relu_3x3_reduce
I0403 15:12:27.774611  2802 net.cpp:425] inception_4d/relu_3x3_reduce <- inception_4d/3x3_reduce
I0403 15:12:27.774629  2802 net.cpp:386] inception_4d/relu_3x3_reduce -> inception_4d/3x3_reduce (in-place)
I0403 15:12:27.774927  2802 net.cpp:141] Setting up inception_4d/relu_3x3_reduce
I0403 15:12:27.774955  2802 net.cpp:148] Top shape: 24 144 14 14 (677376)
I0403 15:12:27.774969  2802 net.cpp:156] Memory required for data: 1120816416
I0403 15:12:27.774984  2802 layer_factory.hpp:77] Creating layer inception_4d/3x3
I0403 15:12:27.775008  2802 net.cpp:91] Creating Layer inception_4d/3x3
I0403 15:12:27.775027  2802 net.cpp:425] inception_4d/3x3 <- inception_4d/3x3_reduce
I0403 15:12:27.775048  2802 net.cpp:399] inception_4d/3x3 -> inception_4d/3x3
I0403 15:12:27.779428  2802 net.cpp:141] Setting up inception_4d/3x3
I0403 15:12:27.779458  2802 net.cpp:148] Top shape: 24 288 14 14 (1354752)
I0403 15:12:27.779474  2802 net.cpp:156] Memory required for data: 1126235424
I0403 15:12:27.779494  2802 layer_factory.hpp:77] Creating layer inception_4d/relu_3x3
I0403 15:12:27.779515  2802 net.cpp:91] Creating Layer inception_4d/relu_3x3
I0403 15:12:27.779532  2802 net.cpp:425] inception_4d/relu_3x3 <- inception_4d/3x3
I0403 15:12:27.779551  2802 net.cpp:386] inception_4d/relu_3x3 -> inception_4d/3x3 (in-place)
I0403 15:12:27.779738  2802 net.cpp:141] Setting up inception_4d/relu_3x3
I0403 15:12:27.779767  2802 net.cpp:148] Top shape: 24 288 14 14 (1354752)
I0403 15:12:27.779781  2802 net.cpp:156] Memory required for data: 1131654432
I0403 15:12:27.779796  2802 layer_factory.hpp:77] Creating layer inception_4d/5x5_reduce
I0403 15:12:27.779819  2802 net.cpp:91] Creating Layer inception_4d/5x5_reduce
I0403 15:12:27.779837  2802 net.cpp:425] inception_4d/5x5_reduce <- inception_4c/output_inception_4c/output_0_split_2
I0403 15:12:27.779860  2802 net.cpp:399] inception_4d/5x5_reduce -> inception_4d/5x5_reduce
I0403 15:12:27.781040  2802 net.cpp:141] Setting up inception_4d/5x5_reduce
I0403 15:12:27.781069  2802 net.cpp:148] Top shape: 24 32 14 14 (150528)
I0403 15:12:27.781085  2802 net.cpp:156] Memory required for data: 1132256544
I0403 15:12:27.781105  2802 layer_factory.hpp:77] Creating layer inception_4d/relu_5x5_reduce
I0403 15:12:27.781126  2802 net.cpp:91] Creating Layer inception_4d/relu_5x5_reduce
I0403 15:12:27.781142  2802 net.cpp:425] inception_4d/relu_5x5_reduce <- inception_4d/5x5_reduce
I0403 15:12:27.781162  2802 net.cpp:386] inception_4d/relu_5x5_reduce -> inception_4d/5x5_reduce (in-place)
I0403 15:12:27.781359  2802 net.cpp:141] Setting up inception_4d/relu_5x5_reduce
I0403 15:12:27.781388  2802 net.cpp:148] Top shape: 24 32 14 14 (150528)
I0403 15:12:27.781402  2802 net.cpp:156] Memory required for data: 1132858656
I0403 15:12:27.781419  2802 layer_factory.hpp:77] Creating layer inception_4d/5x5
I0403 15:12:27.781442  2802 net.cpp:91] Creating Layer inception_4d/5x5
I0403 15:12:27.781461  2802 net.cpp:425] inception_4d/5x5 <- inception_4d/5x5_reduce
I0403 15:12:27.781481  2802 net.cpp:399] inception_4d/5x5 -> inception_4d/5x5
I0403 15:12:27.783010  2802 net.cpp:141] Setting up inception_4d/5x5
I0403 15:12:27.783041  2802 net.cpp:148] Top shape: 24 64 14 14 (301056)
I0403 15:12:27.783057  2802 net.cpp:156] Memory required for data: 1134062880
I0403 15:12:27.783077  2802 layer_factory.hpp:77] Creating layer inception_4d/relu_5x5
I0403 15:12:27.783112  2802 net.cpp:91] Creating Layer inception_4d/relu_5x5
I0403 15:12:27.783129  2802 net.cpp:425] inception_4d/relu_5x5 <- inception_4d/5x5
I0403 15:12:27.783150  2802 net.cpp:386] inception_4d/relu_5x5 -> inception_4d/5x5 (in-place)
I0403 15:12:27.783469  2802 net.cpp:141] Setting up inception_4d/relu_5x5
I0403 15:12:27.783499  2802 net.cpp:148] Top shape: 24 64 14 14 (301056)
I0403 15:12:27.783515  2802 net.cpp:156] Memory required for data: 1135267104
I0403 15:12:27.783531  2802 layer_factory.hpp:77] Creating layer inception_4d/pool
I0403 15:12:27.783550  2802 net.cpp:91] Creating Layer inception_4d/pool
I0403 15:12:27.783566  2802 net.cpp:425] inception_4d/pool <- inception_4c/output_inception_4c/output_0_split_3
I0403 15:12:27.783587  2802 net.cpp:399] inception_4d/pool -> inception_4d/pool
I0403 15:12:27.783656  2802 net.cpp:141] Setting up inception_4d/pool
I0403 15:12:27.783684  2802 net.cpp:148] Top shape: 24 512 14 14 (2408448)
I0403 15:12:27.783699  2802 net.cpp:156] Memory required for data: 1144900896
I0403 15:12:27.783715  2802 layer_factory.hpp:77] Creating layer inception_4d/pool_proj
I0403 15:12:27.783740  2802 net.cpp:91] Creating Layer inception_4d/pool_proj
I0403 15:12:27.783757  2802 net.cpp:425] inception_4d/pool_proj <- inception_4d/pool
I0403 15:12:27.783776  2802 net.cpp:399] inception_4d/pool_proj -> inception_4d/pool_proj
I0403 15:12:27.785598  2802 net.cpp:141] Setting up inception_4d/pool_proj
I0403 15:12:27.785629  2802 net.cpp:148] Top shape: 24 64 14 14 (301056)
I0403 15:12:27.785645  2802 net.cpp:156] Memory required for data: 1146105120
I0403 15:12:27.785665  2802 layer_factory.hpp:77] Creating layer inception_4d/relu_pool_proj
I0403 15:12:27.785686  2802 net.cpp:91] Creating Layer inception_4d/relu_pool_proj
I0403 15:12:27.785702  2802 net.cpp:425] inception_4d/relu_pool_proj <- inception_4d/pool_proj
I0403 15:12:27.785720  2802 net.cpp:386] inception_4d/relu_pool_proj -> inception_4d/pool_proj (in-place)
I0403 15:12:27.785909  2802 net.cpp:141] Setting up inception_4d/relu_pool_proj
I0403 15:12:27.785936  2802 net.cpp:148] Top shape: 24 64 14 14 (301056)
I0403 15:12:27.785951  2802 net.cpp:156] Memory required for data: 1147309344
I0403 15:12:27.785966  2802 layer_factory.hpp:77] Creating layer inception_4d/output
I0403 15:12:27.785984  2802 net.cpp:91] Creating Layer inception_4d/output
I0403 15:12:27.786000  2802 net.cpp:425] inception_4d/output <- inception_4d/1x1
I0403 15:12:27.786017  2802 net.cpp:425] inception_4d/output <- inception_4d/3x3
I0403 15:12:27.786034  2802 net.cpp:425] inception_4d/output <- inception_4d/5x5
I0403 15:12:27.786051  2802 net.cpp:425] inception_4d/output <- inception_4d/pool_proj
I0403 15:12:27.786068  2802 net.cpp:399] inception_4d/output -> inception_4d/output
I0403 15:12:27.786119  2802 net.cpp:141] Setting up inception_4d/output
I0403 15:12:27.786144  2802 net.cpp:148] Top shape: 24 528 14 14 (2483712)
I0403 15:12:27.786159  2802 net.cpp:156] Memory required for data: 1157244192
I0403 15:12:27.786173  2802 layer_factory.hpp:77] Creating layer inception_4d/output_inception_4d/output_0_split
I0403 15:12:27.786195  2802 net.cpp:91] Creating Layer inception_4d/output_inception_4d/output_0_split
I0403 15:12:27.786211  2802 net.cpp:425] inception_4d/output_inception_4d/output_0_split <- inception_4d/output
I0403 15:12:27.786231  2802 net.cpp:399] inception_4d/output_inception_4d/output_0_split -> inception_4d/output_inception_4d/output_0_split_0
I0403 15:12:27.786252  2802 net.cpp:399] inception_4d/output_inception_4d/output_0_split -> inception_4d/output_inception_4d/output_0_split_1
I0403 15:12:27.786279  2802 net.cpp:399] inception_4d/output_inception_4d/output_0_split -> inception_4d/output_inception_4d/output_0_split_2
I0403 15:12:27.786303  2802 net.cpp:399] inception_4d/output_inception_4d/output_0_split -> inception_4d/output_inception_4d/output_0_split_3
I0403 15:12:27.786324  2802 net.cpp:399] inception_4d/output_inception_4d/output_0_split -> inception_4d/output_inception_4d/output_0_split_4
I0403 15:12:27.786432  2802 net.cpp:141] Setting up inception_4d/output_inception_4d/output_0_split
I0403 15:12:27.786469  2802 net.cpp:148] Top shape: 24 528 14 14 (2483712)
I0403 15:12:27.786486  2802 net.cpp:148] Top shape: 24 528 14 14 (2483712)
I0403 15:12:27.786502  2802 net.cpp:148] Top shape: 24 528 14 14 (2483712)
I0403 15:12:27.786519  2802 net.cpp:148] Top shape: 24 528 14 14 (2483712)
I0403 15:12:27.786535  2802 net.cpp:148] Top shape: 24 528 14 14 (2483712)
I0403 15:12:27.786548  2802 net.cpp:156] Memory required for data: 1206918432
I0403 15:12:27.786563  2802 layer_factory.hpp:77] Creating layer loss2/ave_pool
I0403 15:12:27.786584  2802 net.cpp:91] Creating Layer loss2/ave_pool
I0403 15:12:27.786602  2802 net.cpp:425] loss2/ave_pool <- inception_4d/output_inception_4d/output_0_split_0
I0403 15:12:27.786622  2802 net.cpp:399] loss2/ave_pool -> loss2/ave_pool
I0403 15:12:27.786953  2802 net.cpp:141] Setting up loss2/ave_pool
I0403 15:12:27.786980  2802 net.cpp:148] Top shape: 24 528 4 4 (202752)
I0403 15:12:27.786996  2802 net.cpp:156] Memory required for data: 1207729440
I0403 15:12:27.787012  2802 layer_factory.hpp:77] Creating layer loss2/conv
I0403 15:12:27.787036  2802 net.cpp:91] Creating Layer loss2/conv
I0403 15:12:27.787055  2802 net.cpp:425] loss2/conv <- loss2/ave_pool
I0403 15:12:27.787075  2802 net.cpp:399] loss2/conv -> loss2/conv
I0403 15:12:27.789022  2802 net.cpp:141] Setting up loss2/conv
I0403 15:12:27.789050  2802 net.cpp:148] Top shape: 24 128 4 4 (49152)
I0403 15:12:27.789067  2802 net.cpp:156] Memory required for data: 1207926048
I0403 15:12:27.789084  2802 layer_factory.hpp:77] Creating layer loss2/relu_conv
I0403 15:12:27.789103  2802 net.cpp:91] Creating Layer loss2/relu_conv
I0403 15:12:27.789119  2802 net.cpp:425] loss2/relu_conv <- loss2/conv
I0403 15:12:27.789139  2802 net.cpp:386] loss2/relu_conv -> loss2/conv (in-place)
I0403 15:12:27.789430  2802 net.cpp:141] Setting up loss2/relu_conv
I0403 15:12:27.789458  2802 net.cpp:148] Top shape: 24 128 4 4 (49152)
I0403 15:12:27.789472  2802 net.cpp:156] Memory required for data: 1208122656
I0403 15:12:27.789487  2802 layer_factory.hpp:77] Creating layer loss2/fc
I0403 15:12:27.789507  2802 net.cpp:91] Creating Layer loss2/fc
I0403 15:12:27.789523  2802 net.cpp:425] loss2/fc <- loss2/conv
I0403 15:12:27.789543  2802 net.cpp:399] loss2/fc -> loss2/fc
I0403 15:12:27.807556  2802 net.cpp:141] Setting up loss2/fc
I0403 15:12:27.807613  2802 net.cpp:148] Top shape: 24 1024 (24576)
I0403 15:12:27.807629  2802 net.cpp:156] Memory required for data: 1208220960
I0403 15:12:27.807649  2802 layer_factory.hpp:77] Creating layer loss2/relu_fc
I0403 15:12:27.807668  2802 net.cpp:91] Creating Layer loss2/relu_fc
I0403 15:12:27.807685  2802 net.cpp:425] loss2/relu_fc <- loss2/fc
I0403 15:12:27.807703  2802 net.cpp:386] loss2/relu_fc -> loss2/fc (in-place)
I0403 15:12:27.808032  2802 net.cpp:141] Setting up loss2/relu_fc
I0403 15:12:27.808060  2802 net.cpp:148] Top shape: 24 1024 (24576)
I0403 15:12:27.808075  2802 net.cpp:156] Memory required for data: 1208319264
I0403 15:12:27.808090  2802 layer_factory.hpp:77] Creating layer loss2/drop_fc
I0403 15:12:27.808109  2802 net.cpp:91] Creating Layer loss2/drop_fc
I0403 15:12:27.808125  2802 net.cpp:425] loss2/drop_fc <- loss2/fc
I0403 15:12:27.808140  2802 net.cpp:386] loss2/drop_fc -> loss2/fc (in-place)
I0403 15:12:27.808192  2802 net.cpp:141] Setting up loss2/drop_fc
I0403 15:12:27.808214  2802 net.cpp:148] Top shape: 24 1024 (24576)
I0403 15:12:27.808228  2802 net.cpp:156] Memory required for data: 1208417568
I0403 15:12:27.808243  2802 layer_factory.hpp:77] Creating layer loss2/classifier_plantvillage
I0403 15:12:27.808264  2802 net.cpp:91] Creating Layer loss2/classifier_plantvillage
I0403 15:12:27.808284  2802 net.cpp:425] loss2/classifier_plantvillage <- loss2/fc
I0403 15:12:27.808303  2802 net.cpp:399] loss2/classifier_plantvillage -> loss2/classifier_plantvillage
I0403 15:12:27.808706  2802 net.cpp:141] Setting up loss2/classifier_plantvillage
I0403 15:12:27.808730  2802 net.cpp:148] Top shape: 24 38 (912)
I0403 15:12:27.808768  2802 net.cpp:156] Memory required for data: 1208421216
I0403 15:12:27.808786  2802 layer_factory.hpp:77] Creating layer loss2/classifier_plantvillage_loss2/classifier_plantvillage_0_split
I0403 15:12:27.808805  2802 net.cpp:91] Creating Layer loss2/classifier_plantvillage_loss2/classifier_plantvillage_0_split
I0403 15:12:27.808820  2802 net.cpp:425] loss2/classifier_plantvillage_loss2/classifier_plantvillage_0_split <- loss2/classifier_plantvillage
I0403 15:12:27.808841  2802 net.cpp:399] loss2/classifier_plantvillage_loss2/classifier_plantvillage_0_split -> loss2/classifier_plantvillage_loss2/classifier_plantvillage_0_split_0
I0403 15:12:27.808862  2802 net.cpp:399] loss2/classifier_plantvillage_loss2/classifier_plantvillage_0_split -> loss2/classifier_plantvillage_loss2/classifier_plantvillage_0_split_1
I0403 15:12:27.808882  2802 net.cpp:399] loss2/classifier_plantvillage_loss2/classifier_plantvillage_0_split -> loss2/classifier_plantvillage_loss2/classifier_plantvillage_0_split_2
I0403 15:12:27.808960  2802 net.cpp:141] Setting up loss2/classifier_plantvillage_loss2/classifier_plantvillage_0_split
I0403 15:12:27.808984  2802 net.cpp:148] Top shape: 24 38 (912)
I0403 15:12:27.808998  2802 net.cpp:148] Top shape: 24 38 (912)
I0403 15:12:27.809013  2802 net.cpp:148] Top shape: 24 38 (912)
I0403 15:12:27.809026  2802 net.cpp:156] Memory required for data: 1208432160
I0403 15:12:27.809041  2802 layer_factory.hpp:77] Creating layer inception_4e/1x1
I0403 15:12:27.809062  2802 net.cpp:91] Creating Layer inception_4e/1x1
I0403 15:12:27.809080  2802 net.cpp:425] inception_4e/1x1 <- inception_4d/output_inception_4d/output_0_split_1
I0403 15:12:27.809099  2802 net.cpp:399] inception_4e/1x1 -> inception_4e/1x1
I0403 15:12:27.810909  2802 net.cpp:141] Setting up inception_4e/1x1
I0403 15:12:27.810935  2802 net.cpp:148] Top shape: 24 256 14 14 (1204224)
I0403 15:12:27.810950  2802 net.cpp:156] Memory required for data: 1213249056
I0403 15:12:27.810968  2802 layer_factory.hpp:77] Creating layer inception_4e/relu_1x1
I0403 15:12:27.810986  2802 net.cpp:91] Creating Layer inception_4e/relu_1x1
I0403 15:12:27.811003  2802 net.cpp:425] inception_4e/relu_1x1 <- inception_4e/1x1
I0403 15:12:27.811020  2802 net.cpp:386] inception_4e/relu_1x1 -> inception_4e/1x1 (in-place)
I0403 15:12:27.811329  2802 net.cpp:141] Setting up inception_4e/relu_1x1
I0403 15:12:27.811355  2802 net.cpp:148] Top shape: 24 256 14 14 (1204224)
I0403 15:12:27.811372  2802 net.cpp:156] Memory required for data: 1218065952
I0403 15:12:27.811386  2802 layer_factory.hpp:77] Creating layer inception_4e/3x3_reduce
I0403 15:12:27.811410  2802 net.cpp:91] Creating Layer inception_4e/3x3_reduce
I0403 15:12:27.811429  2802 net.cpp:425] inception_4e/3x3_reduce <- inception_4d/output_inception_4d/output_0_split_2
I0403 15:12:27.811450  2802 net.cpp:399] inception_4e/3x3_reduce -> inception_4e/3x3_reduce
I0403 15:12:27.813542  2802 net.cpp:141] Setting up inception_4e/3x3_reduce
I0403 15:12:27.813570  2802 net.cpp:148] Top shape: 24 160 14 14 (752640)
I0403 15:12:27.813586  2802 net.cpp:156] Memory required for data: 1221076512
I0403 15:12:27.813604  2802 layer_factory.hpp:77] Creating layer inception_4e/relu_3x3_reduce
I0403 15:12:27.813622  2802 net.cpp:91] Creating Layer inception_4e/relu_3x3_reduce
I0403 15:12:27.813637  2802 net.cpp:425] inception_4e/relu_3x3_reduce <- inception_4e/3x3_reduce
I0403 15:12:27.813657  2802 net.cpp:386] inception_4e/relu_3x3_reduce -> inception_4e/3x3_reduce (in-place)
I0403 15:12:27.813838  2802 net.cpp:141] Setting up inception_4e/relu_3x3_reduce
I0403 15:12:27.813861  2802 net.cpp:148] Top shape: 24 160 14 14 (752640)
I0403 15:12:27.813876  2802 net.cpp:156] Memory required for data: 1224087072
I0403 15:12:27.813890  2802 layer_factory.hpp:77] Creating layer inception_4e/3x3
I0403 15:12:27.813912  2802 net.cpp:91] Creating Layer inception_4e/3x3
I0403 15:12:27.813928  2802 net.cpp:425] inception_4e/3x3 <- inception_4e/3x3_reduce
I0403 15:12:27.813948  2802 net.cpp:399] inception_4e/3x3 -> inception_4e/3x3
I0403 15:12:27.818900  2802 net.cpp:141] Setting up inception_4e/3x3
I0403 15:12:27.818940  2802 net.cpp:148] Top shape: 24 320 14 14 (1505280)
I0403 15:12:27.818956  2802 net.cpp:156] Memory required for data: 1230108192
I0403 15:12:27.818974  2802 layer_factory.hpp:77] Creating layer inception_4e/relu_3x3
I0403 15:12:27.818994  2802 net.cpp:91] Creating Layer inception_4e/relu_3x3
I0403 15:12:27.819011  2802 net.cpp:425] inception_4e/relu_3x3 <- inception_4e/3x3
I0403 15:12:27.819030  2802 net.cpp:386] inception_4e/relu_3x3 -> inception_4e/3x3 (in-place)
I0403 15:12:27.819326  2802 net.cpp:141] Setting up inception_4e/relu_3x3
I0403 15:12:27.819351  2802 net.cpp:148] Top shape: 24 320 14 14 (1505280)
I0403 15:12:27.819365  2802 net.cpp:156] Memory required for data: 1236129312
I0403 15:12:27.819380  2802 layer_factory.hpp:77] Creating layer inception_4e/5x5_reduce
I0403 15:12:27.819402  2802 net.cpp:91] Creating Layer inception_4e/5x5_reduce
I0403 15:12:27.819419  2802 net.cpp:425] inception_4e/5x5_reduce <- inception_4d/output_inception_4d/output_0_split_3
I0403 15:12:27.819442  2802 net.cpp:399] inception_4e/5x5_reduce -> inception_4e/5x5_reduce
I0403 15:12:27.820518  2802 net.cpp:141] Setting up inception_4e/5x5_reduce
I0403 15:12:27.820547  2802 net.cpp:148] Top shape: 24 32 14 14 (150528)
I0403 15:12:27.820562  2802 net.cpp:156] Memory required for data: 1236731424
I0403 15:12:27.820580  2802 layer_factory.hpp:77] Creating layer inception_4e/relu_5x5_reduce
I0403 15:12:27.820598  2802 net.cpp:91] Creating Layer inception_4e/relu_5x5_reduce
I0403 15:12:27.820614  2802 net.cpp:425] inception_4e/relu_5x5_reduce <- inception_4e/5x5_reduce
I0403 15:12:27.820633  2802 net.cpp:386] inception_4e/relu_5x5_reduce -> inception_4e/5x5_reduce (in-place)
I0403 15:12:27.820924  2802 net.cpp:141] Setting up inception_4e/relu_5x5_reduce
I0403 15:12:27.820950  2802 net.cpp:148] Top shape: 24 32 14 14 (150528)
I0403 15:12:27.820966  2802 net.cpp:156] Memory required for data: 1237333536
I0403 15:12:27.820979  2802 layer_factory.hpp:77] Creating layer inception_4e/5x5
I0403 15:12:27.821017  2802 net.cpp:91] Creating Layer inception_4e/5x5
I0403 15:12:27.821035  2802 net.cpp:425] inception_4e/5x5 <- inception_4e/5x5_reduce
I0403 15:12:27.821054  2802 net.cpp:399] inception_4e/5x5 -> inception_4e/5x5
I0403 15:12:27.822912  2802 net.cpp:141] Setting up inception_4e/5x5
I0403 15:12:27.822940  2802 net.cpp:148] Top shape: 24 128 14 14 (602112)
I0403 15:12:27.822957  2802 net.cpp:156] Memory required for data: 1239741984
I0403 15:12:27.822978  2802 layer_factory.hpp:77] Creating layer inception_4e/relu_5x5
I0403 15:12:27.822996  2802 net.cpp:91] Creating Layer inception_4e/relu_5x5
I0403 15:12:27.823014  2802 net.cpp:425] inception_4e/relu_5x5 <- inception_4e/5x5
I0403 15:12:27.823042  2802 net.cpp:386] inception_4e/relu_5x5 -> inception_4e/5x5 (in-place)
I0403 15:12:27.823246  2802 net.cpp:141] Setting up inception_4e/relu_5x5
I0403 15:12:27.823284  2802 net.cpp:148] Top shape: 24 128 14 14 (602112)
I0403 15:12:27.823317  2802 net.cpp:156] Memory required for data: 1242150432
I0403 15:12:27.823333  2802 layer_factory.hpp:77] Creating layer inception_4e/pool
I0403 15:12:27.823354  2802 net.cpp:91] Creating Layer inception_4e/pool
I0403 15:12:27.823382  2802 net.cpp:425] inception_4e/pool <- inception_4d/output_inception_4d/output_0_split_4
I0403 15:12:27.823405  2802 net.cpp:399] inception_4e/pool -> inception_4e/pool
I0403 15:12:27.823480  2802 net.cpp:141] Setting up inception_4e/pool
I0403 15:12:27.823505  2802 net.cpp:148] Top shape: 24 528 14 14 (2483712)
I0403 15:12:27.823521  2802 net.cpp:156] Memory required for data: 1252085280
I0403 15:12:27.823539  2802 layer_factory.hpp:77] Creating layer inception_4e/pool_proj
I0403 15:12:27.823565  2802 net.cpp:91] Creating Layer inception_4e/pool_proj
I0403 15:12:27.823596  2802 net.cpp:425] inception_4e/pool_proj <- inception_4e/pool
I0403 15:12:27.823614  2802 net.cpp:399] inception_4e/pool_proj -> inception_4e/pool_proj
I0403 15:12:27.825103  2802 net.cpp:141] Setting up inception_4e/pool_proj
I0403 15:12:27.825141  2802 net.cpp:148] Top shape: 24 128 14 14 (602112)
I0403 15:12:27.825156  2802 net.cpp:156] Memory required for data: 1254493728
I0403 15:12:27.825175  2802 layer_factory.hpp:77] Creating layer inception_4e/relu_pool_proj
I0403 15:12:27.825194  2802 net.cpp:91] Creating Layer inception_4e/relu_pool_proj
I0403 15:12:27.825212  2802 net.cpp:425] inception_4e/relu_pool_proj <- inception_4e/pool_proj
I0403 15:12:27.825228  2802 net.cpp:386] inception_4e/relu_pool_proj -> inception_4e/pool_proj (in-place)
I0403 15:12:27.825578  2802 net.cpp:141] Setting up inception_4e/relu_pool_proj
I0403 15:12:27.825608  2802 net.cpp:148] Top shape: 24 128 14 14 (602112)
I0403 15:12:27.825628  2802 net.cpp:156] Memory required for data: 1256902176
I0403 15:12:27.825647  2802 layer_factory.hpp:77] Creating layer inception_4e/output
I0403 15:12:27.825669  2802 net.cpp:91] Creating Layer inception_4e/output
I0403 15:12:27.825686  2802 net.cpp:425] inception_4e/output <- inception_4e/1x1
I0403 15:12:27.825706  2802 net.cpp:425] inception_4e/output <- inception_4e/3x3
I0403 15:12:27.825728  2802 net.cpp:425] inception_4e/output <- inception_4e/5x5
I0403 15:12:27.825745  2802 net.cpp:425] inception_4e/output <- inception_4e/pool_proj
I0403 15:12:27.825764  2802 net.cpp:399] inception_4e/output -> inception_4e/output
I0403 15:12:27.825821  2802 net.cpp:141] Setting up inception_4e/output
I0403 15:12:27.825846  2802 net.cpp:148] Top shape: 24 832 14 14 (3913728)
I0403 15:12:27.825863  2802 net.cpp:156] Memory required for data: 1272557088
I0403 15:12:27.825883  2802 layer_factory.hpp:77] Creating layer pool4/3x3_s2
I0403 15:12:27.825902  2802 net.cpp:91] Creating Layer pool4/3x3_s2
I0403 15:12:27.825919  2802 net.cpp:425] pool4/3x3_s2 <- inception_4e/output
I0403 15:12:27.825942  2802 net.cpp:399] pool4/3x3_s2 -> pool4/3x3_s2
I0403 15:12:27.826014  2802 net.cpp:141] Setting up pool4/3x3_s2
I0403 15:12:27.826040  2802 net.cpp:148] Top shape: 24 832 7 7 (978432)
I0403 15:12:27.826055  2802 net.cpp:156] Memory required for data: 1276470816
I0403 15:12:27.826074  2802 layer_factory.hpp:77] Creating layer pool4/3x3_s2_pool4/3x3_s2_0_split
I0403 15:12:27.826099  2802 net.cpp:91] Creating Layer pool4/3x3_s2_pool4/3x3_s2_0_split
I0403 15:12:27.826117  2802 net.cpp:425] pool4/3x3_s2_pool4/3x3_s2_0_split <- pool4/3x3_s2
I0403 15:12:27.826139  2802 net.cpp:399] pool4/3x3_s2_pool4/3x3_s2_0_split -> pool4/3x3_s2_pool4/3x3_s2_0_split_0
I0403 15:12:27.826165  2802 net.cpp:399] pool4/3x3_s2_pool4/3x3_s2_0_split -> pool4/3x3_s2_pool4/3x3_s2_0_split_1
I0403 15:12:27.826187  2802 net.cpp:399] pool4/3x3_s2_pool4/3x3_s2_0_split -> pool4/3x3_s2_pool4/3x3_s2_0_split_2
I0403 15:12:27.826208  2802 net.cpp:399] pool4/3x3_s2_pool4/3x3_s2_0_split -> pool4/3x3_s2_pool4/3x3_s2_0_split_3
I0403 15:12:27.826313  2802 net.cpp:141] Setting up pool4/3x3_s2_pool4/3x3_s2_0_split
I0403 15:12:27.826344  2802 net.cpp:148] Top shape: 24 832 7 7 (978432)
I0403 15:12:27.826361  2802 net.cpp:148] Top shape: 24 832 7 7 (978432)
I0403 15:12:27.826380  2802 net.cpp:148] Top shape: 24 832 7 7 (978432)
I0403 15:12:27.826403  2802 net.cpp:148] Top shape: 24 832 7 7 (978432)
I0403 15:12:27.826418  2802 net.cpp:156] Memory required for data: 1292125728
I0403 15:12:27.826434  2802 layer_factory.hpp:77] Creating layer inception_5a/1x1
I0403 15:12:27.826458  2802 net.cpp:91] Creating Layer inception_5a/1x1
I0403 15:12:27.826477  2802 net.cpp:425] inception_5a/1x1 <- pool4/3x3_s2_pool4/3x3_s2_0_split_0
I0403 15:12:27.826498  2802 net.cpp:399] inception_5a/1x1 -> inception_5a/1x1
I0403 15:12:27.829488  2802 net.cpp:141] Setting up inception_5a/1x1
I0403 15:12:27.829520  2802 net.cpp:148] Top shape: 24 256 7 7 (301056)
I0403 15:12:27.829536  2802 net.cpp:156] Memory required for data: 1293329952
I0403 15:12:27.829556  2802 layer_factory.hpp:77] Creating layer inception_5a/relu_1x1
I0403 15:12:27.829574  2802 net.cpp:91] Creating Layer inception_5a/relu_1x1
I0403 15:12:27.829591  2802 net.cpp:425] inception_5a/relu_1x1 <- inception_5a/1x1
I0403 15:12:27.829612  2802 net.cpp:386] inception_5a/relu_1x1 -> inception_5a/1x1 (in-place)
I0403 15:12:27.829934  2802 net.cpp:141] Setting up inception_5a/relu_1x1
I0403 15:12:27.829963  2802 net.cpp:148] Top shape: 24 256 7 7 (301056)
I0403 15:12:27.829979  2802 net.cpp:156] Memory required for data: 1294534176
I0403 15:12:27.829995  2802 layer_factory.hpp:77] Creating layer inception_5a/3x3_reduce
I0403 15:12:27.830018  2802 net.cpp:91] Creating Layer inception_5a/3x3_reduce
I0403 15:12:27.830036  2802 net.cpp:425] inception_5a/3x3_reduce <- pool4/3x3_s2_pool4/3x3_s2_0_split_1
I0403 15:12:27.830056  2802 net.cpp:399] inception_5a/3x3_reduce -> inception_5a/3x3_reduce
I0403 15:12:27.832618  2802 net.cpp:141] Setting up inception_5a/3x3_reduce
I0403 15:12:27.832648  2802 net.cpp:148] Top shape: 24 160 7 7 (188160)
I0403 15:12:27.832664  2802 net.cpp:156] Memory required for data: 1295286816
I0403 15:12:27.832684  2802 layer_factory.hpp:77] Creating layer inception_5a/relu_3x3_reduce
I0403 15:12:27.832705  2802 net.cpp:91] Creating Layer inception_5a/relu_3x3_reduce
I0403 15:12:27.832722  2802 net.cpp:425] inception_5a/relu_3x3_reduce <- inception_5a/3x3_reduce
I0403 15:12:27.832741  2802 net.cpp:386] inception_5a/relu_3x3_reduce -> inception_5a/3x3_reduce (in-place)
I0403 15:12:27.832936  2802 net.cpp:141] Setting up inception_5a/relu_3x3_reduce
I0403 15:12:27.832963  2802 net.cpp:148] Top shape: 24 160 7 7 (188160)
I0403 15:12:27.832979  2802 net.cpp:156] Memory required for data: 1296039456
I0403 15:12:27.832995  2802 layer_factory.hpp:77] Creating layer inception_5a/3x3
I0403 15:12:27.833019  2802 net.cpp:91] Creating Layer inception_5a/3x3
I0403 15:12:27.833037  2802 net.cpp:425] inception_5a/3x3 <- inception_5a/3x3_reduce
I0403 15:12:27.833057  2802 net.cpp:399] inception_5a/3x3 -> inception_5a/3x3
I0403 15:12:27.838253  2802 net.cpp:141] Setting up inception_5a/3x3
I0403 15:12:27.838289  2802 net.cpp:148] Top shape: 24 320 7 7 (376320)
I0403 15:12:27.838307  2802 net.cpp:156] Memory required for data: 1297544736
I0403 15:12:27.838327  2802 layer_factory.hpp:77] Creating layer inception_5a/relu_3x3
I0403 15:12:27.838346  2802 net.cpp:91] Creating Layer inception_5a/relu_3x3
I0403 15:12:27.838363  2802 net.cpp:425] inception_5a/relu_3x3 <- inception_5a/3x3
I0403 15:12:27.838383  2802 net.cpp:386] inception_5a/relu_3x3 -> inception_5a/3x3 (in-place)
I0403 15:12:27.838688  2802 net.cpp:141] Setting up inception_5a/relu_3x3
I0403 15:12:27.838717  2802 net.cpp:148] Top shape: 24 320 7 7 (376320)
I0403 15:12:27.838733  2802 net.cpp:156] Memory required for data: 1299050016
I0403 15:12:27.838748  2802 layer_factory.hpp:77] Creating layer inception_5a/5x5_reduce
I0403 15:12:27.838773  2802 net.cpp:91] Creating Layer inception_5a/5x5_reduce
I0403 15:12:27.838791  2802 net.cpp:425] inception_5a/5x5_reduce <- pool4/3x3_s2_pool4/3x3_s2_0_split_2
I0403 15:12:27.838811  2802 net.cpp:399] inception_5a/5x5_reduce -> inception_5a/5x5_reduce
I0403 15:12:27.840026  2802 net.cpp:141] Setting up inception_5a/5x5_reduce
I0403 15:12:27.840059  2802 net.cpp:148] Top shape: 24 32 7 7 (37632)
I0403 15:12:27.840075  2802 net.cpp:156] Memory required for data: 1299200544
I0403 15:12:27.840095  2802 layer_factory.hpp:77] Creating layer inception_5a/relu_5x5_reduce
I0403 15:12:27.840112  2802 net.cpp:91] Creating Layer inception_5a/relu_5x5_reduce
I0403 15:12:27.840129  2802 net.cpp:425] inception_5a/relu_5x5_reduce <- inception_5a/5x5_reduce
I0403 15:12:27.840152  2802 net.cpp:386] inception_5a/relu_5x5_reduce -> inception_5a/5x5_reduce (in-place)
I0403 15:12:27.840467  2802 net.cpp:141] Setting up inception_5a/relu_5x5_reduce
I0403 15:12:27.840494  2802 net.cpp:148] Top shape: 24 32 7 7 (37632)
I0403 15:12:27.840509  2802 net.cpp:156] Memory required for data: 1299351072
I0403 15:12:27.840525  2802 layer_factory.hpp:77] Creating layer inception_5a/5x5
I0403 15:12:27.840548  2802 net.cpp:91] Creating Layer inception_5a/5x5
I0403 15:12:27.840566  2802 net.cpp:425] inception_5a/5x5 <- inception_5a/5x5_reduce
I0403 15:12:27.840589  2802 net.cpp:399] inception_5a/5x5 -> inception_5a/5x5
I0403 15:12:27.842376  2802 net.cpp:141] Setting up inception_5a/5x5
I0403 15:12:27.842419  2802 net.cpp:148] Top shape: 24 128 7 7 (150528)
I0403 15:12:27.842439  2802 net.cpp:156] Memory required for data: 1299953184
I0403 15:12:27.842458  2802 layer_factory.hpp:77] Creating layer inception_5a/relu_5x5
I0403 15:12:27.842475  2802 net.cpp:91] Creating Layer inception_5a/relu_5x5
I0403 15:12:27.842492  2802 net.cpp:425] inception_5a/relu_5x5 <- inception_5a/5x5
I0403 15:12:27.842512  2802 net.cpp:386] inception_5a/relu_5x5 -> inception_5a/5x5 (in-place)
I0403 15:12:27.842711  2802 net.cpp:141] Setting up inception_5a/relu_5x5
I0403 15:12:27.842736  2802 net.cpp:148] Top shape: 24 128 7 7 (150528)
I0403 15:12:27.842751  2802 net.cpp:156] Memory required for data: 1300555296
I0403 15:12:27.842767  2802 layer_factory.hpp:77] Creating layer inception_5a/pool
I0403 15:12:27.842787  2802 net.cpp:91] Creating Layer inception_5a/pool
I0403 15:12:27.842803  2802 net.cpp:425] inception_5a/pool <- pool4/3x3_s2_pool4/3x3_s2_0_split_3
I0403 15:12:27.842823  2802 net.cpp:399] inception_5a/pool -> inception_5a/pool
I0403 15:12:27.842897  2802 net.cpp:141] Setting up inception_5a/pool
I0403 15:12:27.842922  2802 net.cpp:148] Top shape: 24 832 7 7 (978432)
I0403 15:12:27.842937  2802 net.cpp:156] Memory required for data: 1304469024
I0403 15:12:27.842952  2802 layer_factory.hpp:77] Creating layer inception_5a/pool_proj
I0403 15:12:27.842977  2802 net.cpp:91] Creating Layer inception_5a/pool_proj
I0403 15:12:27.842993  2802 net.cpp:425] inception_5a/pool_proj <- inception_5a/pool
I0403 15:12:27.843014  2802 net.cpp:399] inception_5a/pool_proj -> inception_5a/pool_proj
I0403 15:12:27.845410  2802 net.cpp:141] Setting up inception_5a/pool_proj
I0403 15:12:27.845443  2802 net.cpp:148] Top shape: 24 128 7 7 (150528)
I0403 15:12:27.845459  2802 net.cpp:156] Memory required for data: 1305071136
I0403 15:12:27.845477  2802 layer_factory.hpp:77] Creating layer inception_5a/relu_pool_proj
I0403 15:12:27.845495  2802 net.cpp:91] Creating Layer inception_5a/relu_pool_proj
I0403 15:12:27.845513  2802 net.cpp:425] inception_5a/relu_pool_proj <- inception_5a/pool_proj
I0403 15:12:27.845530  2802 net.cpp:386] inception_5a/relu_pool_proj -> inception_5a/pool_proj (in-place)
I0403 15:12:27.845831  2802 net.cpp:141] Setting up inception_5a/relu_pool_proj
I0403 15:12:27.845860  2802 net.cpp:148] Top shape: 24 128 7 7 (150528)
I0403 15:12:27.845875  2802 net.cpp:156] Memory required for data: 1305673248
I0403 15:12:27.845890  2802 layer_factory.hpp:77] Creating layer inception_5a/output
I0403 15:12:27.845907  2802 net.cpp:91] Creating Layer inception_5a/output
I0403 15:12:27.845923  2802 net.cpp:425] inception_5a/output <- inception_5a/1x1
I0403 15:12:27.845940  2802 net.cpp:425] inception_5a/output <- inception_5a/3x3
I0403 15:12:27.845957  2802 net.cpp:425] inception_5a/output <- inception_5a/5x5
I0403 15:12:27.845973  2802 net.cpp:425] inception_5a/output <- inception_5a/pool_proj
I0403 15:12:27.845988  2802 net.cpp:399] inception_5a/output -> inception_5a/output
I0403 15:12:27.846040  2802 net.cpp:141] Setting up inception_5a/output
I0403 15:12:27.846065  2802 net.cpp:148] Top shape: 24 832 7 7 (978432)
I0403 15:12:27.846078  2802 net.cpp:156] Memory required for data: 1309586976
I0403 15:12:27.846093  2802 layer_factory.hpp:77] Creating layer inception_5a/output_inception_5a/output_0_split
I0403 15:12:27.846109  2802 net.cpp:91] Creating Layer inception_5a/output_inception_5a/output_0_split
I0403 15:12:27.846125  2802 net.cpp:425] inception_5a/output_inception_5a/output_0_split <- inception_5a/output
I0403 15:12:27.846144  2802 net.cpp:399] inception_5a/output_inception_5a/output_0_split -> inception_5a/output_inception_5a/output_0_split_0
I0403 15:12:27.846166  2802 net.cpp:399] inception_5a/output_inception_5a/output_0_split -> inception_5a/output_inception_5a/output_0_split_1
I0403 15:12:27.846186  2802 net.cpp:399] inception_5a/output_inception_5a/output_0_split -> inception_5a/output_inception_5a/output_0_split_2
I0403 15:12:27.846207  2802 net.cpp:399] inception_5a/output_inception_5a/output_0_split -> inception_5a/output_inception_5a/output_0_split_3
I0403 15:12:27.846326  2802 net.cpp:141] Setting up inception_5a/output_inception_5a/output_0_split
I0403 15:12:27.846351  2802 net.cpp:148] Top shape: 24 832 7 7 (978432)
I0403 15:12:27.846369  2802 net.cpp:148] Top shape: 24 832 7 7 (978432)
I0403 15:12:27.846385  2802 net.cpp:148] Top shape: 24 832 7 7 (978432)
I0403 15:12:27.846400  2802 net.cpp:148] Top shape: 24 832 7 7 (978432)
I0403 15:12:27.846413  2802 net.cpp:156] Memory required for data: 1325241888
I0403 15:12:27.846427  2802 layer_factory.hpp:77] Creating layer inception_5b/1x1
I0403 15:12:27.846451  2802 net.cpp:91] Creating Layer inception_5b/1x1
I0403 15:12:27.846468  2802 net.cpp:425] inception_5b/1x1 <- inception_5a/output_inception_5a/output_0_split_0
I0403 15:12:27.846489  2802 net.cpp:399] inception_5b/1x1 -> inception_5b/1x1
I0403 15:12:27.850255  2802 net.cpp:141] Setting up inception_5b/1x1
I0403 15:12:27.850288  2802 net.cpp:148] Top shape: 24 384 7 7 (451584)
I0403 15:12:27.850306  2802 net.cpp:156] Memory required for data: 1327048224
I0403 15:12:27.850323  2802 layer_factory.hpp:77] Creating layer inception_5b/relu_1x1
I0403 15:12:27.850343  2802 net.cpp:91] Creating Layer inception_5b/relu_1x1
I0403 15:12:27.850361  2802 net.cpp:425] inception_5b/relu_1x1 <- inception_5b/1x1
I0403 15:12:27.850378  2802 net.cpp:386] inception_5b/relu_1x1 -> inception_5b/1x1 (in-place)
I0403 15:12:27.850687  2802 net.cpp:141] Setting up inception_5b/relu_1x1
I0403 15:12:27.850713  2802 net.cpp:148] Top shape: 24 384 7 7 (451584)
I0403 15:12:27.850728  2802 net.cpp:156] Memory required for data: 1328854560
I0403 15:12:27.850741  2802 layer_factory.hpp:77] Creating layer inception_5b/3x3_reduce
I0403 15:12:27.850764  2802 net.cpp:91] Creating Layer inception_5b/3x3_reduce
I0403 15:12:27.850782  2802 net.cpp:425] inception_5b/3x3_reduce <- inception_5a/output_inception_5a/output_0_split_1
I0403 15:12:27.850805  2802 net.cpp:399] inception_5b/3x3_reduce -> inception_5b/3x3_reduce
I0403 15:12:27.853515  2802 net.cpp:141] Setting up inception_5b/3x3_reduce
I0403 15:12:27.853545  2802 net.cpp:148] Top shape: 24 192 7 7 (225792)
I0403 15:12:27.853560  2802 net.cpp:156] Memory required for data: 1329757728
I0403 15:12:27.853579  2802 layer_factory.hpp:77] Creating layer inception_5b/relu_3x3_reduce
I0403 15:12:27.853600  2802 net.cpp:91] Creating Layer inception_5b/relu_3x3_reduce
I0403 15:12:27.853617  2802 net.cpp:425] inception_5b/relu_3x3_reduce <- inception_5b/3x3_reduce
I0403 15:12:27.853636  2802 net.cpp:386] inception_5b/relu_3x3_reduce -> inception_5b/3x3_reduce (in-place)
I0403 15:12:27.853837  2802 net.cpp:141] Setting up inception_5b/relu_3x3_reduce
I0403 15:12:27.853864  2802 net.cpp:148] Top shape: 24 192 7 7 (225792)
I0403 15:12:27.853879  2802 net.cpp:156] Memory required for data: 1330660896
I0403 15:12:27.853894  2802 layer_factory.hpp:77] Creating layer inception_5b/3x3
I0403 15:12:27.853916  2802 net.cpp:91] Creating Layer inception_5b/3x3
I0403 15:12:27.853934  2802 net.cpp:425] inception_5b/3x3 <- inception_5b/3x3_reduce
I0403 15:12:27.853953  2802 net.cpp:399] inception_5b/3x3 -> inception_5b/3x3
I0403 15:12:27.860831  2802 net.cpp:141] Setting up inception_5b/3x3
I0403 15:12:27.860864  2802 net.cpp:148] Top shape: 24 384 7 7 (451584)
I0403 15:12:27.860882  2802 net.cpp:156] Memory required for data: 1332467232
I0403 15:12:27.860901  2802 layer_factory.hpp:77] Creating layer inception_5b/relu_3x3
I0403 15:12:27.860919  2802 net.cpp:91] Creating Layer inception_5b/relu_3x3
I0403 15:12:27.860936  2802 net.cpp:425] inception_5b/relu_3x3 <- inception_5b/3x3
I0403 15:12:27.860954  2802 net.cpp:386] inception_5b/relu_3x3 -> inception_5b/3x3 (in-place)
I0403 15:12:27.861263  2802 net.cpp:141] Setting up inception_5b/relu_3x3
I0403 15:12:27.861296  2802 net.cpp:148] Top shape: 24 384 7 7 (451584)
I0403 15:12:27.861313  2802 net.cpp:156] Memory required for data: 1334273568
I0403 15:12:27.861330  2802 layer_factory.hpp:77] Creating layer inception_5b/5x5_reduce
I0403 15:12:27.861366  2802 net.cpp:91] Creating Layer inception_5b/5x5_reduce
I0403 15:12:27.861384  2802 net.cpp:425] inception_5b/5x5_reduce <- inception_5a/output_inception_5a/output_0_split_2
I0403 15:12:27.861407  2802 net.cpp:399] inception_5b/5x5_reduce -> inception_5b/5x5_reduce
I0403 15:12:27.862736  2802 net.cpp:141] Setting up inception_5b/5x5_reduce
I0403 15:12:27.862766  2802 net.cpp:148] Top shape: 24 48 7 7 (56448)
I0403 15:12:27.862782  2802 net.cpp:156] Memory required for data: 1334499360
I0403 15:12:27.862800  2802 layer_factory.hpp:77] Creating layer inception_5b/relu_5x5_reduce
I0403 15:12:27.862820  2802 net.cpp:91] Creating Layer inception_5b/relu_5x5_reduce
I0403 15:12:27.862838  2802 net.cpp:425] inception_5b/relu_5x5_reduce <- inception_5b/5x5_reduce
I0403 15:12:27.862856  2802 net.cpp:386] inception_5b/relu_5x5_reduce -> inception_5b/5x5_reduce (in-place)
I0403 15:12:27.863243  2802 net.cpp:141] Setting up inception_5b/relu_5x5_reduce
I0403 15:12:27.863281  2802 net.cpp:148] Top shape: 24 48 7 7 (56448)
I0403 15:12:27.863299  2802 net.cpp:156] Memory required for data: 1334725152
I0403 15:12:27.863314  2802 layer_factory.hpp:77] Creating layer inception_5b/5x5
I0403 15:12:27.863335  2802 net.cpp:91] Creating Layer inception_5b/5x5
I0403 15:12:27.863353  2802 net.cpp:425] inception_5b/5x5 <- inception_5b/5x5_reduce
I0403 15:12:27.863373  2802 net.cpp:399] inception_5b/5x5 -> inception_5b/5x5
I0403 15:12:27.865506  2802 net.cpp:141] Setting up inception_5b/5x5
I0403 15:12:27.865537  2802 net.cpp:148] Top shape: 24 128 7 7 (150528)
I0403 15:12:27.865555  2802 net.cpp:156] Memory required for data: 1335327264
I0403 15:12:27.865573  2802 layer_factory.hpp:77] Creating layer inception_5b/relu_5x5
I0403 15:12:27.865592  2802 net.cpp:91] Creating Layer inception_5b/relu_5x5
I0403 15:12:27.865609  2802 net.cpp:425] inception_5b/relu_5x5 <- inception_5b/5x5
I0403 15:12:27.865629  2802 net.cpp:386] inception_5b/relu_5x5 -> inception_5b/5x5 (in-place)
I0403 15:12:27.865831  2802 net.cpp:141] Setting up inception_5b/relu_5x5
I0403 15:12:27.865856  2802 net.cpp:148] Top shape: 24 128 7 7 (150528)
I0403 15:12:27.865871  2802 net.cpp:156] Memory required for data: 1335929376
I0403 15:12:27.865886  2802 layer_factory.hpp:77] Creating layer inception_5b/pool
I0403 15:12:27.865906  2802 net.cpp:91] Creating Layer inception_5b/pool
I0403 15:12:27.865922  2802 net.cpp:425] inception_5b/pool <- inception_5a/output_inception_5a/output_0_split_3
I0403 15:12:27.865943  2802 net.cpp:399] inception_5b/pool -> inception_5b/pool
I0403 15:12:27.866020  2802 net.cpp:141] Setting up inception_5b/pool
I0403 15:12:27.866044  2802 net.cpp:148] Top shape: 24 832 7 7 (978432)
I0403 15:12:27.866060  2802 net.cpp:156] Memory required for data: 1339843104
I0403 15:12:27.866075  2802 layer_factory.hpp:77] Creating layer inception_5b/pool_proj
I0403 15:12:27.866097  2802 net.cpp:91] Creating Layer inception_5b/pool_proj
I0403 15:12:27.866116  2802 net.cpp:425] inception_5b/pool_proj <- inception_5b/pool
I0403 15:12:27.866137  2802 net.cpp:399] inception_5b/pool_proj -> inception_5b/pool_proj
I0403 15:12:27.868563  2802 net.cpp:141] Setting up inception_5b/pool_proj
I0403 15:12:27.868594  2802 net.cpp:148] Top shape: 24 128 7 7 (150528)
I0403 15:12:27.868610  2802 net.cpp:156] Memory required for data: 1340445216
I0403 15:12:27.868630  2802 layer_factory.hpp:77] Creating layer inception_5b/relu_pool_proj
I0403 15:12:27.868651  2802 net.cpp:91] Creating Layer inception_5b/relu_pool_proj
I0403 15:12:27.868669  2802 net.cpp:425] inception_5b/relu_pool_proj <- inception_5b/pool_proj
I0403 15:12:27.868688  2802 net.cpp:386] inception_5b/relu_pool_proj -> inception_5b/pool_proj (in-place)
I0403 15:12:27.868996  2802 net.cpp:141] Setting up inception_5b/relu_pool_proj
I0403 15:12:27.869024  2802 net.cpp:148] Top shape: 24 128 7 7 (150528)
I0403 15:12:27.869040  2802 net.cpp:156] Memory required for data: 1341047328
I0403 15:12:27.869055  2802 layer_factory.hpp:77] Creating layer inception_5b/output
I0403 15:12:27.869076  2802 net.cpp:91] Creating Layer inception_5b/output
I0403 15:12:27.869107  2802 net.cpp:425] inception_5b/output <- inception_5b/1x1
I0403 15:12:27.869125  2802 net.cpp:425] inception_5b/output <- inception_5b/3x3
I0403 15:12:27.869143  2802 net.cpp:425] inception_5b/output <- inception_5b/5x5
I0403 15:12:27.869159  2802 net.cpp:425] inception_5b/output <- inception_5b/pool_proj
I0403 15:12:27.869179  2802 net.cpp:399] inception_5b/output -> inception_5b/output
I0403 15:12:27.869233  2802 net.cpp:141] Setting up inception_5b/output
I0403 15:12:27.869258  2802 net.cpp:148] Top shape: 24 1024 7 7 (1204224)
I0403 15:12:27.869278  2802 net.cpp:156] Memory required for data: 1345864224
I0403 15:12:27.869294  2802 layer_factory.hpp:77] Creating layer pool5/7x7_s1
I0403 15:12:27.869315  2802 net.cpp:91] Creating Layer pool5/7x7_s1
I0403 15:12:27.869333  2802 net.cpp:425] pool5/7x7_s1 <- inception_5b/output
I0403 15:12:27.869352  2802 net.cpp:399] pool5/7x7_s1 -> pool5/7x7_s1
I0403 15:12:27.869576  2802 net.cpp:141] Setting up pool5/7x7_s1
I0403 15:12:27.869606  2802 net.cpp:148] Top shape: 24 1024 1 1 (24576)
I0403 15:12:27.869621  2802 net.cpp:156] Memory required for data: 1345962528
I0403 15:12:27.869637  2802 layer_factory.hpp:77] Creating layer pool5/drop_7x7_s1
I0403 15:12:27.869657  2802 net.cpp:91] Creating Layer pool5/drop_7x7_s1
I0403 15:12:27.869673  2802 net.cpp:425] pool5/drop_7x7_s1 <- pool5/7x7_s1
I0403 15:12:27.869693  2802 net.cpp:386] pool5/drop_7x7_s1 -> pool5/7x7_s1 (in-place)
I0403 15:12:27.869745  2802 net.cpp:141] Setting up pool5/drop_7x7_s1
I0403 15:12:27.869770  2802 net.cpp:148] Top shape: 24 1024 1 1 (24576)
I0403 15:12:27.869784  2802 net.cpp:156] Memory required for data: 1346060832
I0403 15:12:27.869801  2802 layer_factory.hpp:77] Creating layer loss3/classifier_plantvillage
I0403 15:12:27.869824  2802 net.cpp:91] Creating Layer loss3/classifier_plantvillage
I0403 15:12:27.869843  2802 net.cpp:425] loss3/classifier_plantvillage <- pool5/7x7_s1
I0403 15:12:27.869865  2802 net.cpp:399] loss3/classifier_plantvillage -> loss3/classifier_plantvillage
I0403 15:12:27.870316  2802 net.cpp:141] Setting up loss3/classifier_plantvillage
I0403 15:12:27.870342  2802 net.cpp:148] Top shape: 24 38 (912)
I0403 15:12:27.870357  2802 net.cpp:156] Memory required for data: 1346064480
I0403 15:12:27.870375  2802 layer_factory.hpp:77] Creating layer loss3/classifier_plantvillage_loss3/classifier_plantvillage_0_split
I0403 15:12:27.870393  2802 net.cpp:91] Creating Layer loss3/classifier_plantvillage_loss3/classifier_plantvillage_0_split
I0403 15:12:27.870415  2802 net.cpp:425] loss3/classifier_plantvillage_loss3/classifier_plantvillage_0_split <- loss3/classifier_plantvillage
I0403 15:12:27.870435  2802 net.cpp:399] loss3/classifier_plantvillage_loss3/classifier_plantvillage_0_split -> loss3/classifier_plantvillage_loss3/classifier_plantvillage_0_split_0
I0403 15:12:27.870456  2802 net.cpp:399] loss3/classifier_plantvillage_loss3/classifier_plantvillage_0_split -> loss3/classifier_plantvillage_loss3/classifier_plantvillage_0_split_1
I0403 15:12:27.870477  2802 net.cpp:399] loss3/classifier_plantvillage_loss3/classifier_plantvillage_0_split -> loss3/classifier_plantvillage_loss3/classifier_plantvillage_0_split_2
I0403 15:12:27.870499  2802 net.cpp:399] loss3/classifier_plantvillage_loss3/classifier_plantvillage_0_split -> loss3/classifier_plantvillage_loss3/classifier_plantvillage_0_split_3
I0403 15:12:27.870604  2802 net.cpp:141] Setting up loss3/classifier_plantvillage_loss3/classifier_plantvillage_0_split
I0403 15:12:27.870628  2802 net.cpp:148] Top shape: 24 38 (912)
I0403 15:12:27.870645  2802 net.cpp:148] Top shape: 24 38 (912)
I0403 15:12:27.870661  2802 net.cpp:148] Top shape: 24 38 (912)
I0403 15:12:27.870677  2802 net.cpp:148] Top shape: 24 38 (912)
I0403 15:12:27.870692  2802 net.cpp:156] Memory required for data: 1346079072
I0403 15:12:27.870707  2802 layer_factory.hpp:77] Creating layer loss1/loss
I0403 15:12:27.870729  2802 net.cpp:91] Creating Layer loss1/loss
I0403 15:12:27.870748  2802 net.cpp:425] loss1/loss <- loss1/classifier_plantvillage_loss1/classifier_plantvillage_0_split_0
I0403 15:12:27.870780  2802 net.cpp:425] loss1/loss <- label_data_1_split_0
…
