…
I0403 15:33:35.004005  3222 net.cpp:313] The NetState phase (1) differed from the phase (0) specified by a rule in layer data
I0403 15:33:35.005182  3222 net.cpp:49] Initializing net from parameters: 
state {
  phase: TEST
}
layer {
  name: "data"
  type: "Data"
  top: "data"
  top: "label"
  include {
    phase: TEST
  }
  transform_param {
    mirror: false
    crop_size: 224
    mean_file: "/home/mohanty/data/final_dataset/lmdb/grayscale-50-50/mean.binaryproto"
  }
  data_param {
    source: "/home/mohanty/data/final_dataset/lmdb/grayscale-50-50/test_db"
    batch_size: 24
    backend: LMDB
  }
}
layer {
  name: "conv1/7x7_s2"
  type: "Convolution"
  bottom: "data"
  top: "conv1/7x7_s2"
  param {
    lr_mult: 1
    decay_mult: 1
  }
  param {
    lr_mult: 2
    decay_mult: 0
  }
  convolution_param {
    num_output: 64
    pad: 3
    kernel_size: 7
    stride: 2
    weight_filler {
      type: "xavier"
      std: 0.1
    }
    bias_filler {
      type: "constant"
      value: 0.2
    }
  }
}
layer {
  name: "conv1/relu_7x7"
  type: "ReLU"
  bottom: "conv1/7x7_s2"
  top: "conv1/7x7_s2"
}
layer {
  name: "pool1/3x3_s2"
  type: "Pooling"
  bottom: "conv1/7x7_s2"
  top: "pool1/3x3_s2"
  pooling_param {
    pool: MAX
    kernel_size: 3
    stride: 2
  }
}
layer {
  name: "pool1/norm1"
  type: "LRN"
  bottom: "pool1/3x3_s2"
  top: "pool1/norm1"
  lrn_param {
    local_size: 5
    alpha: 0.0001
    beta: 0.75
  }
}
layer {
  name: "conv2/3x3_reduce"
  type: "Convolution"
  bottom: "pool1/norm1"
  top: "conv2/3x3_reduce"
  param {
    lr_mult: 1
    decay_mult: 1
  }
  param {
    lr_mult: 2
    decay_mult: 0
  }
  convolution_param {
    num_output: 64
    kernel_size: 1
    weight_filler {
      type: "xavier"
      std: 0.1
    }
    bias_filler {
      type: "constant"
      value: 0.2
    }
  }
}
layer {
  name: "conv2/relu_3x3_reduce"
  type: "ReLU"
  bottom: "conv2/3x3_reduce"
  top: "conv2/3x3_reduce"
}
layer {
  name: "conv2/3x3"
  type: "Convolution"
  bottom: "conv2/3x3_reduce"
  top: "conv2/3x3"
  param {
    lr_mult: 1
    decay_mult: 1
  }
  param {
    lr_mult: 2
    decay_mult: 0
  }
  convolution_param {
    num_output: 192
    pad: 1
    kernel_size: 3
    weight_filler {
      type: "xavier"
      std: 0.03
    }
    bias_filler {
      type: "constant"
      value: 0.2
    }
  }
}
layer {
  name: "conv2/relu_3x3"
  type: "ReLU"
  bottom: "conv2/3x3"
  top: "conv2/3x3"
}
layer {
  name: "conv2/norm2"
  type: "LRN"
  bottom: "conv2/3x3"
  top: "conv2/norm2"
  lrn_param {
    local_size: 5
    alpha: 0.0001
    beta: 0.75
  }
}
layer {
  name: "pool2/3x3_s2"
  type: "Pooling"
  bottom: "conv2/norm2"
  top: "pool2/3x3_s2"
  pooling_param {
    pool: MAX
    kernel_size: 3
    stride: 2
  }
}
layer {
  name: "inception_3a/1x1"
  type: "Convolution"
  bottom: "pool2/3x3_s2"
  top: "inception_3a/1x1"
  param {
    lr_mult: 1
    decay_mult: 1
  }
  param {
    lr_mult: 2
    decay_mult: 0
  }
  convolution_param {
    num_output: 64
    kernel_size: 1
    weight_filler {
      type: "xavier"
      std: 0.03
    }
    bias_filler {
      type: "constant"
      value: 0.2
    }
  }
}
layer {
  name: "inception_3a/relu_1x1"
  type: "ReLU"
  bottom: "inception_3a/1x1"
  top: "inception_3a/1x1"
}
layer {
  name: "inception_3a/3x3_reduce"
  type: "Convolution"
  bottom: "pool2/3x3_s2"
  top: "inception_3a/3x3_reduce"
  param {
    lr_mult: 1
    decay_mult: 1
  }
  param {
    lr_mult: 2
    decay_mult: 0
  }
  convolution_param {
    num_output: 96
    kernel_size: 1
    weight_filler {
      type: "xavier"
      std: 0.09
    }
    bias_filler {
      type: "constant"
      value: 0.2
    }
  }
}
layer {
  name: "inception_3a/relu_3x3_reduce"
  type: "ReLU"
  bottom: "inception_3a/3x3_reduce"
  top: "inception_3a/3x3_reduce"
}
layer {
  name: "inception_3a/3x3"
  type: "Convolution"
  bottom: "inception_3a/3x3_reduce"
  top: "inception_3a/3x3"
  param {
    lr_mult: 1
    decay_mult: 1
  }
  param {
    lr_mult: 2
    decay_mult: 0
  }
  convolution_param {
    num_output: 128
    pad: 1
    kernel_size: 3
    weight_filler {
      type: "xavier"
      std: 0.03
    }
    bias_filler {
      type: "constant"
      value: 0.2
    }
  }
}
layer {
  name: "inception_3a/relu_3x3"
  type: "ReLU"
  bottom: "inception_3a/3x3"
  top: "inception_3a/3x3"
}
layer {
  name: "inception_3a/5x5_reduce"
  type: "Convolution"
  bottom: "pool2/3x3_s2"
  top: "inception_3a/5x5_reduce"
  param {
    lr_mult: 1
    decay_mult: 1
  }
  param {
    lr_mult: 2
    decay_mult: 0
  }
  convolution_param {
    num_output: 16
    kernel_size: 1
    weight_filler {
      type: "xavier"
      std: 0.2
    }
    bias_filler {
      type: "constant"
      value: 0.2
    }
  }
}
layer {
  name: "inception_3a/relu_5x5_reduce"
  type: "ReLU"
  bottom: "inception_3a/5x5_reduce"
  top: "inception_3a/5x5_reduce"
}
layer {
  name: "inception_3a/5x5"
  type: "Convolution"
  bottom: "inception_3a/5x5_reduce"
  top: "inception_3a/5x5"
  param {
    lr_mult: 1
    decay_mult: 1
  }
  param {
    lr_mult: 2
    decay_mult: 0
  }
  convolution_param {
    num_output: 32
    pad: 2
    kernel_size: 5
    weight_filler {
      type: "xavier"
      std: 0.03
    }
    bias_filler {
      type: "constant"
      value: 0.2
    }
  }
}
layer {
  name: "inception_3a/relu_5x5"
  type: "ReLU"
  bottom: "inception_3a/5x5"
  top: "inception_3a/5x5"
}
layer {
  name: "inception_3a/pool"
  type: "Pooling"
  bottom: "pool2/3x3_s2"
  top: "inception_3a/pool"
  pooling_param {
    pool: MAX
    kernel_size: 3
    stride: 1
    pad: 1
  }
}
layer {
  name: "inception_3a/pool_proj"
  type: "Convolution"
  bottom: "inception_3a/pool"
  top: "inception_3a/pool_proj"
  param {
    lr_mult: 1
    decay_mult: 1
  }
  param {
    lr_mult: 2
    decay_mult: 0
  }
  convolution_param {
    num_output: 32
    kernel_size: 1
    weight_filler {
      type: "xavier"
      std: 0.1
    }
    bias_filler {
      type: "constant"
      value: 0.2
    }
  }
}
layer {
  name: "inception_3a/relu_pool_proj"
  type: "ReLU"
  bottom: "inception_3a/pool_proj"
  top: "inception_3a/pool_proj"
}
layer {
  name: "inception_3a/output"
  type: "Concat"
  bottom: "inception_3a/1x1"
  bottom: "inception_3a/3x3"
  bottom: "inception_3a/5x5"
  bottom: "inception_3a/pool_proj"
  top: "inception_3a/output"
}
layer {
  name: "inception_3b/1x1"
  type: "Convolution"
  bottom: "inception_3a/output"
  top: "inception_3b/1x1"
  param {
    lr_mult: 1
    decay_mult: 1
  }
  param {
    lr_mult: 2
    decay_mult: 0
  }
  convolution_param {
    num_output: 128
    kernel_size: 1
    weight_filler {
      type: "xavier"
      std: 0.03
    }
    bias_filler {
      type: "constant"
      value: 0.2
    }
  }
}
layer {
  name: "inception_3b/relu_1x1"
  type: "ReLU"
  bottom: "inception_3b/1x1"
  top: "inception_3b/1x1"
}
layer {
  name: "inception_3b/3x3_reduce"
  type: "Convolution"
  bottom: "inception_3a/output"
  top: "inception_3b/3x3_reduce"
  param {
    lr_mult: 1
    decay_mult: 1
  }
  param {
    lr_mult: 2
    decay_mult: 0
  }
  convolution_param {
    num_output: 128
    kernel_size: 1
    weight_filler {
      type: "xavier"
      std: 0.09
    }
    bias_filler {
      type: "constant"
      value: 0.2
    }
  }
}
layer {
  name: "inception_3b/relu_3x3_reduce"
  type: "ReLU"
  bottom: "inception_3b/3x3_reduce"
  top: "inception_3b/3x3_reduce"
}
layer {
  name: "inception_3b/3x3"
  type: "Convolution"
  bottom: "inception_3b/3x3_reduce"
  top: "inception_3b/3x3"
  param {
    lr_mult: 1
    decay_mult: 1
  }
  param {
    lr_mult: 2
    decay_mult: 0
  }
  convolution_param {
    num_output: 192
    pad: 1
    kernel_size: 3
    weight_filler {
      type: "xavier"
      std: 0.03
    }
    bias_filler {
      type: "constant"
      value: 0.2
    }
  }
}
layer {
  name: "inception_3b/relu_3x3"
  type: "ReLU"
  bottom: "inception_3b/3x3"
  top: "inception_3b/3x3"
}
layer {
  name: "inception_3b/5x5_reduce"
  type: "Convolution"
  bottom: "inception_3a/output"
  top: "inception_3b/5x5_reduce"
  param {
    lr_mult: 1
    decay_mult: 1
  }
  param {
    lr_mult: 2
    decay_mult: 0
  }
  convolution_param {
    num_output: 32
    kernel_size: 1
    weight_filler {
      type: "xavier"
      std: 0.2
    }
    bias_filler {
      type: "constant"
      value: 0.2
    }
  }
}
layer {
  name: "inception_3b/relu_5x5_reduce"
  type: "ReLU"
  bottom: "inception_3b/5x5_reduce"
  top: "inception_3b/5x5_reduce"
}
layer {
  name: "inception_3b/5x5"
  type: "Convolution"
  bottom: "inception_3b/5x5_reduce"
  top: "inception_3b/5x5"
  param {
    lr_mult: 1
    decay_mult: 1
  }
  param {
    lr_mult: 2
    decay_mult: 0
  }
  convolution_param {
    num_output: 96
    pad: 2
    kernel_size: 5
    weight_filler {
      type: "xavier"
      std: 0.03
    }
    bias_filler {
      type: "constant"
      value: 0.2
    }
  }
}
layer {
  name: "inception_3b/relu_5x5"
  type: "ReLU"
  bottom: "inception_3b/5x5"
  top: "inception_3b/5x5"
}
layer {
  name: "inception_3b/pool"
  type: "Pooling"
  bottom: "inception_3a/output"
  top: "inception_3b/pool"
  pooling_param {
    pool: MAX
    kernel_size: 3
    stride: 1
    pad: 1
  }
}
layer {
  name: "inception_3b/pool_proj"
  type: "Convolution"
  bottom: "inception_3b/pool"
  top: "inception_3b/pool_proj"
  param {
    lr_mult: 1
    decay_mult: 1
  }
  param {
    lr_mult: 2
    decay_mult: 0
  }
  convolution_param {
    num_output: 64
    kernel_size: 1
    weight_filler {
      type: "xavier"
      std: 0.1
    }
    bias_filler {
      type: "constant"
      value: 0.2
    }
  }
}
layer {
  name: "inception_3b/relu_pool_proj"
  type: "ReLU"
  bottom: "inception_3b/pool_proj"
  top: "inception_3b/pool_proj"
}
layer {
  name: "inception_3b/output"
  type: "Concat"
  bottom: "inception_3b/1x1"
  bottom: "inception_3b/3x3"
  bottom: "inception_3b/5x5"
  bottom: "inception_3b/pool_proj"
  top: "inception_3b/output"
}
layer {
  name: "pool3/3x3_s2"
  type: "Pooling"
  bottom: "inception_3b/output"
  top: "pool3/3x3_s2"
  pooling_param {
    pool: MAX
    kernel_size: 3
    stride: 2
  }
}
layer {
  name: "inception_4a/1x1"
  type: "Convolution"
  bottom: "pool3/3x3_s2"
  top: "inception_4a/1x1"
  param {
    lr_mult: 1
    decay_mult: 1
  }
  param {
    lr_mult: 2
    decay_mult: 0
  }
  convolution_param {
    num_output: 192
    kernel_size: 1
    weight_filler {
      type: "xavier"
      std: 0.03
    }
    bias_filler {
      type: "constant"
      value: 0.2
    }
  }
}
layer {
  name: "inception_4a/relu_1x1"
  type: "ReLU"
  bottom: "inception_4a/1x1"
  top: "inception_4a/1x1"
}
layer {
  name: "inception_4a/3x3_reduce"
  type: "Convolution"
  bottom: "pool3/3x3_s2"
  top: "inception_4a/3x3_reduce"
  param {
    lr_mult: 1
    decay_mult: 1
  }
  param {
    lr_mult: 2
    decay_mult: 0
  }
  convolution_param {
    num_output: 96
    kernel_size: 1
    weight_filler {
      type: "xavier"
      std: 0.09
    }
    bias_filler {
      type: "constant"
      value: 0.2
    }
  }
}
layer {
  name: "inception_4a/relu_3x3_reduce"
  type: "ReLU"
  bottom: "inception_4a/3x3_reduce"
  top: "inception_4a/3x3_reduce"
}
layer {
  name: "inception_4a/3x3"
  type: "Convolution"
  bottom: "inception_4a/3x3_reduce"
  top: "inception_4a/3x3"
  param {
    lr_mult: 1
    decay_mult: 1
  }
  param {
    lr_mult: 2
    decay_mult: 0
  }
  convolution_param {
    num_output: 208
    pad: 1
    kernel_size: 3
    weight_filler {
      type: "xavier"
      std: 0.03
    }
    bias_filler {
      type: "constant"
      value: 0.2
    }
  }
}
layer {
  name: "inception_4a/relu_3x3"
  type: "ReLU"
  bottom: "inception_4a/3x3"
  top: "inception_4a/3x3"
}
layer {
  name: "inception_4a/5x5_reduce"
  type: "Convolution"
  bottom: "pool3/3x3_s2"
  top: "inception_4a/5x5_reduce"
  param {
    lr_mult: 1
    decay_mult: 1
  }
  param {
    lr_mult: 2
    decay_mult: 0
  }
  convolution_param {
    num_output: 16
    kernel_size: 1
    weight_filler {
      type: "xavier"
      std: 0.2
    }
    bias_filler {
      type: "constant"
      value: 0.2
    }
  }
}
layer {
  name: "inception_4a/relu_5x5_reduce"
  type: "ReLU"
  bottom: "inception_4a/5x5_reduce"
  top: "inception_4a/5x5_reduce"
}
layer {
  name: "inception_4a/5x5"
  type: "Convolution"
  bottom: "inception_4a/5x5_reduce"
  top: "inception_4a/5x5"
  param {
    lr_mult: 1
    decay_mult: 1
  }
  param {
    lr_mult: 2
    decay_mult: 0
  }
  convolution_param {
    num_output: 48
    pad: 2
    kernel_size: 5
    weight_filler {
      type: "xavier"
      std: 0.03
    }
    bias_filler {
      type: "constant"
      value: 0.2
    }
  }
}
layer {
  name: "inception_4a/relu_5x5"
  type: "ReLU"
  bottom: "inception_4a/5x5"
  top: "inception_4a/5x5"
}
layer {
  name: "inception_4a/pool"
  type: "Pooling"
  bottom: "pool3/3x3_s2"
  top: "inception_4a/pool"
  pooling_param {
    pool: MAX
    kernel_size: 3
    stride: 1
    pad: 1
  }
}
layer {
  name: "inception_4a/pool_proj"
  type: "Convolution"
  bottom: "inception_4a/pool"
  top: "inception_4a/pool_proj"
  param {
    lr_mult: 1
    decay_mult: 1
  }
  param {
    lr_mult: 2
    decay_mult: 0
  }
  convolution_param {
    num_output: 64
    kernel_size: 1
    weight_filler {
      type: "xavier"
      std: 0.1
    }
    bias_filler {
      type: "constant"
      value: 0.2
    }
  }
}
layer {
  name: "inception_4a/relu_pool_proj"
  type: "ReLU"
  bottom: "inception_4a/pool_proj"
  top: "inception_4a/pool_proj"
}
layer {
  name: "inception_4a/output"
  type: "Concat"
  bottom: "inception_4a/1x1"
  bottom: "inception_4a/3x3"
  bottom: "inception_4a/5x5"
  bottom: "inception_4a/pool_proj"
  top: "inception_4a/output"
}
layer {
  name: "loss1/ave_pool"
  type: "Pooling"
  bottom: "inception_4a/output"
  top: "loss1/ave_pool"
  pooling_param {
    pool: AVE
    kernel_size: 5
    stride: 3
  }
}
layer {
  name: "loss1/conv"
  type: "Convolution"
  bottom: "loss1/ave_pool"
  top: "loss1/conv"
  param {
    lr_mult: 1
    decay_mult: 1
  }
  param {
    lr_mult: 2
    decay_mult: 0
  }
  convolution_param {
    num_output: 128
    kernel_size: 1
    weight_filler {
      type: "xavier"
      std: 0.08
    }
    bias_filler {
      type: "constant"
      value: 0.2
    }
  }
}
layer {
  name: "loss1/relu_conv"
  type: "ReLU"
  bottom: "loss1/conv"
  top: "loss1/conv"
}
layer {
  name: "loss1/fc"
  type: "InnerProduct"
  bottom: "loss1/conv"
  top: "loss1/fc"
  param {
    lr_mult: 1
    decay_mult: 1
  }
  param {
    lr_mult: 2
    decay_mult: 0
  }
  inner_product_param {
    num_output: 1024
    weight_filler {
      type: "xavier"
      std: 0.02
    }
    bias_filler {
      type: "constant"
      value: 0.2
    }
  }
}
layer {
  name: "loss1/relu_fc"
  type: "ReLU"
  bottom: "loss1/fc"
  top: "loss1/fc"
}
layer {
  name: "loss1/drop_fc"
  type: "Dropout"
  bottom: "loss1/fc"
  top: "loss1/fc"
  dropout_param {
    dropout_ratio: 0.7
  }
}
layer {
  name: "loss1/classifier_plantvillage"
  type: "InnerProduct"
  bottom: "loss1/fc"
  top: "loss1/classifier_plantvillage"
  param {
    lr_mult: 1
    decay_mult: 1
  }
  param {
    lr_mult: 2
    decay_mult: 0
  }
  inner_product_param {
    num_output: 38
    weight_filler {
      type: "xavier"
      std: 0.0009765625
    }
    bias_filler {
      type: "constant"
      value: 0
    }
  }
}
layer {
  name: "inception_4b/1x1"
  type: "Convolution"
  bottom: "inception_4a/output"
  top: "inception_4b/1x1"
  param {
    lr_mult: 1
    decay_mult: 1
  }
  param {
    lr_mult: 2
    decay_mult: 0
  }
  convolution_param {
    num_output: 160
    kernel_size: 1
    weight_filler {
      type: "xavier"
      std: 0.03
    }
    bias_filler {
      type: "constant"
      value: 0.2
    }
  }
}
layer {
  name: "inception_4b/relu_1x1"
  type: "ReLU"
  bottom: "inception_4b/1x1"
  top: "inception_4b/1x1"
}
layer {
  name: "inception_4b/3x3_reduce"
  type: "Convolution"
  bottom: "inception_4a/output"
  top: "inception_4b/3x3_reduce"
  param {
    lr_mult: 1
    decay_mult: 1
  }
  param {
    lr_mult: 2
    decay_mult: 0
  }
  convolution_param {
    num_output: 112
    kernel_size: 1
    weight_filler {
      type: "xavier"
      std: 0.09
    }
    bias_filler {
      type: "constant"
      value: 0.2
    }
  }
}
layer {
  name: "inception_4b/relu_3x3_reduce"
  type: "ReLU"
  bottom: "inception_4b/3x3_reduce"
  top: "inception_4b/3x3_reduce"
}
layer {
  name: "inception_4b/3x3"
  type: "Convolution"
  bottom: "inception_4b/3x3_reduce"
  top: "inception_4b/3x3"
  param {
    lr_mult: 1
    decay_mult: 1
  }
  param {
    lr_mult: 2
    decay_mult: 0
  }
  convolution_param {
    num_output: 224
    pad: 1
    kernel_size: 3
    weight_filler {
      type: "xavier"
      std: 0.03
    }
    bias_filler {
      type: "constant"
      value: 0.2
    }
  }
}
layer {
  name: "inception_4b/relu_3x3"
  type: "ReLU"
  bottom: "inception_4b/3x3"
  top: "inception_4b/3x3"
}
layer {
  name: "inception_4b/5x5_reduce"
  type: "Convolution"
  bottom: "inception_4a/output"
  top: "inception_4b/5x5_reduce"
  param {
    lr_mult: 1
    decay_mult: 1
  }
  param {
    lr_mult: 2
    decay_mult: 0
  }
  convolution_param {
    num_output: 24
    kernel_size: 1
    weight_filler {
      type: "xavier"
      std: 0.2
    }
    bias_filler {
      type: "constant"
      value: 0.2
    }
  }
}
layer {
  name: "inception_4b/relu_5x5_reduce"
  type: "ReLU"
  bottom: "inception_4b/5x5_reduce"
  top: "inception_4b/5x5_reduce"
}
layer {
  name: "inception_4b/5x5"
  type: "Convolution"
  bottom: "inception_4b/5x5_reduce"
  top: "inception_4b/5x5"
  param {
    lr_mult: 1
    decay_mult: 1
  }
  param {
    lr_mult: 2
    decay_mult: 0
  }
  convolution_param {
    num_output: 64
    pad: 2
    kernel_size: 5
    weight_filler {
      type: "xavier"
      std: 0.03
    }
    bias_filler {
      type: "constant"
      value: 0.2
    }
  }
}
layer {
  name: "inception_4b/relu_5x5"
  type: "ReLU"
  bottom: "inception_4b/5x5"
  top: "inception_4b/5x5"
}
layer {
  name: "inception_4b/pool"
  type: "Pooling"
  bottom: "inception_4a/output"
  top: "inception_4b/pool"
  pooling_param {
    pool: MAX
    kernel_size: 3
    stride: 1
    pad: 1
  }
}
layer {
  name: "inception_4b/pool_proj"
  type: "Convolution"
  bottom: "inception_4b/pool"
  top: "inception_4b/pool_proj"
  param {
    lr_mult: 1
    decay_mult: 1
  }
  param {
    lr_mult: 2
    decay_mult: 0
  }
  convolution_param {
    num_output: 64
    kernel_size: 1
    weight_filler {
      type: "xavier"
      std: 0.1
    }
    bias_filler {
      type: "constant"
      value: 0.2
    }
  }
}
layer {
  name: "inception_4b/relu_pool_proj"
  type: "ReLU"
  bottom: "inception_4b/pool_proj"
  top: "inception_4b/pool_proj"
}
layer {
  name: "inception_4b/output"
  type: "Concat"
  bottom: "inception_4b/1x1"
  bottom: "inception_4b/3x3"
  bottom: "inception_4b/5x5"
  bottom: "inception_4b/pool_proj"
  top: "inception_4b/output"
}
layer {
  name: "inception_4c/1x1"
  type: "Convolution"
  bottom: "inception_4b/output"
  top: "inception_4c/1x1"
  param {
    lr_mult: 1
    decay_mult: 1
  }
  param {
    lr_mult: 2
    decay_mult: 0
  }
  convolution_param {
    num_output: 128
    kernel_size: 1
    weight_filler {
      type: "xavier"
      std: 0.03
    }
    bias_filler {
      type: "constant"
      value: 0.2
    }
  }
}
layer {
  name: "inception_4c/relu_1x1"
  type: "ReLU"
  bottom: "inception_4c/1x1"
  top: "inception_4c/1x1"
}
layer {
  name: "inception_4c/3x3_reduce"
  type: "Convolution"
  bottom: "inception_4b/output"
  top: "inception_4c/3x3_reduce"
  param {
    lr_mult: 1
    decay_mult: 1
  }
  param {
    lr_mult: 2
    decay_mult: 0
  }
  convolution_param {
    num_output: 128
    kernel_size: 1
    weight_filler {
      type: "xavier"
      std: 0.09
    }
    bias_filler {
      type: "constant"
      value: 0.2
    }
  }
}
layer {
  name: "inception_4c/relu_3x3_reduce"
  type: "ReLU"
  bottom: "inception_4c/3x3_reduce"
  top: "inception_4c/3x3_reduce"
}
layer {
  name: "inception_4c/3x3"
  type: "Convolution"
  bottom: "inception_4c/3x3_reduce"
  top: "inception_4c/3x3"
  param {
    lr_mult: 1
    decay_mult: 1
  }
  param {
    lr_mult: 2
    decay_mult: 0
  }
  convolution_param {
    num_output: 256
    pad: 1
    kernel_size: 3
    weight_filler {
      type: "xavier"
      std: 0.03
    }
    bias_filler {
      type: "constant"
      value: 0.2
    }
  }
}
layer {
  name: "inception_4c/relu_3x3"
  type: "ReLU"
  bottom: "inception_4c/3x3"
  top: "inception_4c/3x3"
}
layer {
  name: "inception_4c/5x5_reduce"
  type: "Convolution"
  bottom: "inception_4b/output"
  top: "inception_4c/5x5_reduce"
  param {
    lr_mult: 1
    decay_mult: 1
  }
  param {
    lr_mult: 2
    decay_mult: 0
  }
  convolution_param {
    num_output: 24
    kernel_size: 1
    weight_filler {
      type: "xavier"
      std: 0.2
    }
    bias_filler {
      type: "constant"
      value: 0.2
    }
  }
}
layer {
  name: "inception_4c/relu_5x5_reduce"
  type: "ReLU"
  bottom: "inception_4c/5x5_reduce"
  top: "inception_4c/5x5_reduce"
}
layer {
  name: "inception_4c/5x5"
  type: "Convolution"
  bottom: "inception_4c/5x5_reduce"
  top: "inception_4c/5x5"
  param {
    lr_mult: 1
    decay_mult: 1
  }
  param {
    lr_mult: 2
    decay_mult: 0
  }
  convolution_param {
    num_output: 64
    pad: 2
    kernel_size: 5
    weight_filler {
      type: "xavier"
      std: 0.03
    }
    bias_filler {
      type: "constant"
      value: 0.2
    }
  }
}
layer {
  name: "inception_4c/relu_5x5"
  type: "ReLU"
  bottom: "inception_4c/5x5"
  top: "inception_4c/5x5"
}
layer {
  name: "inception_4c/pool"
  type: "Pooling"
  bottom: "inception_4b/output"
  top: "inception_4c/pool"
  pooling_param {
    pool: MAX
    kernel_size: 3
    stride: 1
    pad: 1
  }
}
layer {
  name: "inception_4c/pool_proj"
  type: "Convolution"
  bottom: "inception_4c/pool"
  top: "inception_4c/pool_proj"
  param {
    lr_mult: 1
    decay_mult: 1
  }
  param {
    lr_mult: 2
    decay_mult: 0
  }
  convolution_param {
    num_output: 64
    kernel_size: 1
    weight_filler {
      type: "xavier"
      std: 0.1
    }
    bias_filler {
      type: "constant"
      value: 0.2
    }
  }
}
layer {
  name: "inception_4c/relu_pool_proj"
  type: "ReLU"
  bottom: "inception_4c/pool_proj"
  top: "inception_4c/pool_proj"
}
layer {
  name: "inception_4c/output"
  type: "Concat"
  bottom: "inception_4c/1x1"
  bottom: "inception_4c/3x3"
  bottom: "inception_4c/5x5"
  bottom: "inception_4c/pool_proj"
  top: "inception_4c/output"
}
layer {
  name: "inception_4d/1x1"
  type: "Convolution"
  bottom: "inception_4c/output"
  top: "inception_4d/1x1"
  param {
    lr_mult: 1
    decay_mult: 1
  }
  param {
    lr_mult: 2
    decay_mult: 0
  }
  convolution_param {
    num_output: 112
    kernel_size: 1
    weight_filler {
      type: "xavier"
      std: 0.03
    }
    bias_filler {
      type: "constant"
      value: 0.2
    }
  }
}
layer {
  name: "inception_4d/relu_1x1"
  type: "ReLU"
  bottom: "inception_4d/1x1"
  top: "inception_4d/1x1"
}
layer {
  name: "inception_4d/3x3_reduce"
  type: "Convolution"
  bottom: "inception_4c/output"
  top: "inception_4d/3x3_reduce"
  param {
    lr_mult: 1
    decay_mult: 1
  }
  param {
    lr_mult: 2
    decay_mult: 0
  }
  convolution_param {
    num_output: 144
    kernel_size: 1
    weight_filler {
      type: "xavier"
      std: 0.09
    }
    bias_filler {
      type: "constant"
      value: 0.2
    }
  }
}
layer {
  name: "inception_4d/relu_3x3_reduce"
  type: "ReLU"
  bottom: "inception_4d/3x3_reduce"
  top: "inception_4d/3x3_reduce"
}
layer {
  name: "inception_4d/3x3"
  type: "Convolution"
  bottom: "inception_4d/3x3_reduce"
  top: "inception_4d/3x3"
  param {
    lr_mult: 1
    decay_mult: 1
  }
  param {
    lr_mult: 2
    decay_mult: 0
  }
  convolution_param {
    num_output: 288
    pad: 1
    kernel_size: 3
    weight_filler {
      type: "xavier"
      std: 0.03
    }
    bias_filler {
      type: "constant"
      value: 0.2
    }
  }
}
layer {
  name: "inception_4d/relu_3x3"
  type: "ReLU"
  bottom: "inception_4d/3x3"
  top: "inception_4d/3x3"
}
layer {
  name: "inception_4d/5x5_reduce"
  type: "Convolution"
  bottom: "inception_4c/output"
  top: "inception_4d/5x5_reduce"
  param {
    lr_mult: 1
    decay_mult: 1
  }
  param {
    lr_mult: 2
    decay_mult: 0
  }
  convolution_param {
    num_output: 32
    kernel_size: 1
    weight_filler {
      type: "xavier"
      std: 0.2
    }
    bias_filler {
      type: "constant"
      value: 0.2
    }
  }
}
layer {
  name: "inception_4d/relu_5x5_reduce"
  type: "ReLU"
  bottom: "inception_4d/5x5_reduce"
  top: "inception_4d/5x5_reduce"
}
layer {
  name: "inception_4d/5x5"
  type: "Convolution"
  bottom: "inception_4d/5x5_reduce"
  top: "inception_4d/5x5"
  param {
    lr_mult: 1
    decay_mult: 1
  }
  param {
    lr_mult: 2
    decay_mult: 0
  }
  convolution_param {
    num_output: 64
    pad: 2
    kernel_size: 5
    weight_filler {
      type: "xavier"
      std: 0.03
    }
    bias_filler {
      type: "constant"
      value: 0.2
    }
  }
}
layer {
  name: "inception_4d/relu_5x5"
  type: "ReLU"
  bottom: "inception_4d/5x5"
  top: "inception_4d/5x5"
}
layer {
  name: "inception_4d/pool"
  type: "Pooling"
  bottom: "inception_4c/output"
  top: "inception_4d/pool"
  pooling_param {
    pool: MAX
    kernel_size: 3
    stride: 1
    pad: 1
  }
}
layer {
  name: "inception_4d/pool_proj"
  type: "Convolution"
  bottom: "inception_4d/pool"
  top: "inception_4d/pool_proj"
  param {
    lr_mult: 1
    decay_mult: 1
  }
  param {
    lr_mult: 2
    decay_mult: 0
  }
  convolution_param {
    num_output: 64
    kernel_size: 1
    weight_filler {
      type: "xavier"
      std: 0.1
    }
    bias_filler {
      type: "constant"
      value: 0.2
    }
  }
}
layer {
  name: "inception_4d/relu_pool_proj"
  type: "ReLU"
  bottom: "inception_4d/pool_proj"
  top: "inception_4d/pool_proj"
}
layer {
  name: "inception_4d/output"
  type: "Concat"
  bottom: "inception_4d/1x1"
  bottom: "inception_4d/3x3"
  bottom: "inception_4d/5x5"
  bottom: "inception_4d/pool_proj"
  top: "inception_4d/output"
}
layer {
  name: "loss2/ave_pool"
  type: "Pooling"
  bottom: "inception_4d/output"
  top: "loss2/ave_pool"
  pooling_param {
    pool: AVE
    kernel_size: 5
    stride: 3
  }
}
layer {
  name: "loss2/conv"
  type: "Convolution"
  bottom: "loss2/ave_pool"
  top: "loss2/conv"
  param {
    lr_mult: 1
    decay_mult: 1
  }
  param {
    lr_mult: 2
    decay_mult: 0
  }
  convolution_param {
    num_output: 128
    kernel_size: 1
    weight_filler {
      type: "xavier"
      std: 0.08
    }
    bias_filler {
      type: "constant"
      value: 0.2
    }
  }
}
layer {
  name: "loss2/relu_conv"
  type: "ReLU"
  bottom: "loss2/conv"
  top: "loss2/conv"
}
layer {
  name: "loss2/fc"
  type: "InnerProduct"
  bottom: "loss2/conv"
  top: "loss2/fc"
  param {
    lr_mult: 1
    decay_mult: 1
  }
  param {
    lr_mult: 2
    decay_mult: 0
  }
  inner_product_param {
    num_output: 1024
    weight_filler {
      type: "xavier"
      std: 0.02
    }
    bias_filler {
      type: "constant"
      value: 0.2
    }
  }
}
layer {
  name: "loss2/relu_fc"
  type: "ReLU"
  bottom: "loss2/fc"
  top: "loss2/fc"
}
layer {
  name: "loss2/drop_fc"
  type: "Dropout"
  bottom: "loss2/fc"
  top: "loss2/fc"
  dropout_param {
    dropout_ratio: 0.7
  }
}
layer {
  name: "loss2/classifier_plantvillage"
  type: "InnerProduct"
  bottom: "loss2/fc"
  top: "loss2/classifier_plantvillage"
  param {
    lr_mult: 1
    decay_mult: 1
  }
  param {
    lr_mult: 2
    decay_mult: 0
  }
  inner_product_param {
    num_output: 38
    weight_filler {
      type: "xavier"
      std: 0.0009765625
    }
    bias_filler {
      type: "constant"
      value: 0
    }
  }
}
layer {
  name: "inception_4e/1x1"
  type: "Convolution"
  bottom: "inception_4d/output"
  top: "inception_4e/1x1"
  param {
    lr_mult: 1
    decay_mult: 1
  }
  param {
    lr_mult: 2
    decay_mult: 0
  }
  convolution_param {
    num_output: 256
    kernel_size: 1
    weight_filler {
      type: "xavier"
      std: 0.03
    }
    bias_filler {
      type: "constant"
      value: 0.2
    }
  }
}
layer {
  name: "inception_4e/relu_1x1"
  type: "ReLU"
  bottom: "inception_4e/1x1"
  top: "inception_4e/1x1"
}
layer {
  name: "inception_4e/3x3_reduce"
  type: "Convolution"
  bottom: "inception_4d/output"
  top: "inception_4e/3x3_reduce"
  param {
    lr_mult: 1
    decay_mult: 1
  }
  param {
    lr_mult: 2
    decay_mult: 0
  }
  convolution_param {
    num_output: 160
    kernel_size: 1
    weight_filler {
      type: "xavier"
      std: 0.09
    }
    bias_filler {
      type: "constant"
      value: 0.2
    }
  }
}
layer {
  name: "inception_4e/relu_3x3_reduce"
  type: "ReLU"
  bottom: "inception_4e/3x3_reduce"
  top: "inception_4e/3x3_reduce"
}
layer {
  name: "inception_4e/3x3"
  type: "Convolution"
  bottom: "inception_4e/3x3_reduce"
  top: "inception_4e/3x3"
  param {
    lr_mult: 1
    decay_mult: 1
  }
  param {
    lr_mult: 2
    decay_mult: 0
  }
  convolution_param {
    num_output: 320
    pad: 1
    kernel_size: 3
    weight_filler {
      type: "xavier"
      std: 0.03
    }
    bias_filler {
      type: "constant"
      value: 0.2
    }
  }
}
layer {
  name: "inception_4e/relu_3x3"
  type: "ReLU"
  bottom: "inception_4e/3x3"
  top: "inception_4e/3x3"
}
layer {
  name: "inception_4e/5x5_reduce"
  type: "Convolution"
  bottom: "inception_4d/output"
  top: "inception_4e/5x5_reduce"
  param {
    lr_mult: 1
    decay_mult: 1
  }
  param {
    lr_mult: 2
    decay_mult: 0
  }
  convolution_param {
    num_output: 32
    kernel_size: 1
    weight_filler {
      type: "xavier"
      std: 0.2
    }
    bias_filler {
      type: "constant"
      value: 0.2
    }
  }
}
layer {
  name: "inception_4e/relu_5x5_reduce"
  type: "ReLU"
  bottom: "inception_4e/5x5_reduce"
  top: "inception_4e/5x5_reduce"
}
layer {
  name: "inception_4e/5x5"
  type: "Convolution"
  bottom: "inception_4e/5x5_reduce"
  top: "inception_4e/
I0403 15:33:35.006562  3222 layer_factory.hpp:77] Creating layer data
I0403 15:33:35.007189  3222 net.cpp:91] Creating Layer data
I0403 15:33:35.007222  3222 net.cpp:399] data -> data
I0403 15:33:35.007279  3222 net.cpp:399] data -> label
I0403 15:33:35.007319  3222 data_transformer.cpp:25] Loading mean file from: /home/mohanty/data/final_dataset/lmdb/grayscale-50-50/mean.binaryproto
I0403 15:33:35.009629  3225 db_lmdb.cpp:38] Opened lmdb /home/mohanty/data/final_dataset/lmdb/grayscale-50-50/test_db
I0403 15:33:35.020946  3222 data_layer.cpp:41] output data size: 24,3,224,224
I0403 15:33:35.049670  3222 net.cpp:141] Setting up data
I0403 15:33:35.049767  3222 net.cpp:148] Top shape: 24 3 224 224 (3612672)
I0403 15:33:35.049789  3222 net.cpp:148] Top shape: 24 (24)
I0403 15:33:35.049805  3222 net.cpp:156] Memory required for data: 14450784
I0403 15:33:35.049834  3222 layer_factory.hpp:77] Creating layer label_data_1_split
I0403 15:33:35.049860  3222 net.cpp:91] Creating Layer label_data_1_split
I0403 15:33:35.049880  3222 net.cpp:425] label_data_1_split <- label
I0403 15:33:35.049911  3222 net.cpp:399] label_data_1_split -> label_data_1_split_0
I0403 15:33:35.049939  3222 net.cpp:399] label_data_1_split -> label_data_1_split_1
I0403 15:33:35.049962  3222 net.cpp:399] label_data_1_split -> label_data_1_split_2
I0403 15:33:35.049983  3222 net.cpp:399] label_data_1_split -> label_data_1_split_3
I0403 15:33:35.050004  3222 net.cpp:399] label_data_1_split -> label_data_1_split_4
I0403 15:33:35.050025  3222 net.cpp:399] label_data_1_split -> label_data_1_split_5
I0403 15:33:35.050046  3222 net.cpp:399] label_data_1_split -> label_data_1_split_6
I0403 15:33:35.050068  3222 net.cpp:399] label_data_1_split -> label_data_1_split_7
I0403 15:33:35.050089  3222 net.cpp:399] label_data_1_split -> label_data_1_split_8
I0403 15:33:35.050112  3222 net.cpp:399] label_data_1_split -> label_data_1_split_9
I0403 15:33:35.050235  3222 net.cpp:141] Setting up label_data_1_split
I0403 15:33:35.050263  3222 net.cpp:148] Top shape: 24 (24)
I0403 15:33:35.050282  3222 net.cpp:148] Top shape: 24 (24)
I0403 15:33:35.050297  3222 net.cpp:148] Top shape: 24 (24)
I0403 15:33:35.050314  3222 net.cpp:148] Top shape: 24 (24)
I0403 15:33:35.050331  3222 net.cpp:148] Top shape: 24 (24)
I0403 15:33:35.050348  3222 net.cpp:148] Top shape: 24 (24)
I0403 15:33:35.050364  3222 net.cpp:148] Top shape: 24 (24)
I0403 15:33:35.050381  3222 net.cpp:148] Top shape: 24 (24)
I0403 15:33:35.050397  3222 net.cpp:148] Top shape: 24 (24)
I0403 15:33:35.050415  3222 net.cpp:148] Top shape: 24 (24)
I0403 15:33:35.050459  3222 net.cpp:156] Memory required for data: 14451744
I0403 15:33:35.050477  3222 layer_factory.hpp:77] Creating layer conv1/7x7_s2
I0403 15:33:35.050509  3222 net.cpp:91] Creating Layer conv1/7x7_s2
I0403 15:33:35.050529  3222 net.cpp:425] conv1/7x7_s2 <- data
I0403 15:33:35.050549  3222 net.cpp:399] conv1/7x7_s2 -> conv1/7x7_s2
I0403 15:33:35.191510  3222 net.cpp:141] Setting up conv1/7x7_s2
I0403 15:33:35.191601  3222 net.cpp:148] Top shape: 24 64 112 112 (19267584)
I0403 15:33:35.191620  3222 net.cpp:156] Memory required for data: 91522080
I0403 15:33:35.191653  3222 layer_factory.hpp:77] Creating layer conv1/relu_7x7
I0403 15:33:35.191681  3222 net.cpp:91] Creating Layer conv1/relu_7x7
I0403 15:33:35.191700  3222 net.cpp:425] conv1/relu_7x7 <- conv1/7x7_s2
I0403 15:33:35.191720  3222 net.cpp:386] conv1/relu_7x7 -> conv1/7x7_s2 (in-place)
I0403 15:33:35.192003  3222 net.cpp:141] Setting up conv1/relu_7x7
I0403 15:33:35.192030  3222 net.cpp:148] Top shape: 24 64 112 112 (19267584)
I0403 15:33:35.192047  3222 net.cpp:156] Memory required for data: 168592416
I0403 15:33:35.192064  3222 layer_factory.hpp:77] Creating layer pool1/3x3_s2
I0403 15:33:35.192090  3222 net.cpp:91] Creating Layer pool1/3x3_s2
I0403 15:33:35.192108  3222 net.cpp:425] pool1/3x3_s2 <- conv1/7x7_s2
I0403 15:33:35.192128  3222 net.cpp:399] pool1/3x3_s2 -> pool1/3x3_s2
I0403 15:33:35.192203  3222 net.cpp:141] Setting up pool1/3x3_s2
I0403 15:33:35.192229  3222 net.cpp:148] Top shape: 24 64 56 56 (4816896)
I0403 15:33:35.192245  3222 net.cpp:156] Memory required for data: 187860000
I0403 15:33:35.192260  3222 layer_factory.hpp:77] Creating layer pool1/norm1
I0403 15:33:35.192297  3222 net.cpp:91] Creating Layer pool1/norm1
I0403 15:33:35.192317  3222 net.cpp:425] pool1/norm1 <- pool1/3x3_s2
I0403 15:33:35.192337  3222 net.cpp:399] pool1/norm1 -> pool1/norm1
I0403 15:33:35.192633  3222 net.cpp:141] Setting up pool1/norm1
I0403 15:33:35.192662  3222 net.cpp:148] Top shape: 24 64 56 56 (4816896)
I0403 15:33:35.192679  3222 net.cpp:156] Memory required for data: 207127584
I0403 15:33:35.192695  3222 layer_factory.hpp:77] Creating layer conv2/3x3_reduce
I0403 15:33:35.192720  3222 net.cpp:91] Creating Layer conv2/3x3_reduce
I0403 15:33:35.192739  3222 net.cpp:425] conv2/3x3_reduce <- pool1/norm1
I0403 15:33:35.192757  3222 net.cpp:399] conv2/3x3_reduce -> conv2/3x3_reduce
I0403 15:33:35.194138  3222 net.cpp:141] Setting up conv2/3x3_reduce
I0403 15:33:35.194169  3222 net.cpp:148] Top shape: 24 64 56 56 (4816896)
I0403 15:33:35.194188  3222 net.cpp:156] Memory required for data: 226395168
I0403 15:33:35.194211  3222 layer_factory.hpp:77] Creating layer conv2/relu_3x3_reduce
I0403 15:33:35.194231  3222 net.cpp:91] Creating Layer conv2/relu_3x3_reduce
I0403 15:33:35.194248  3222 net.cpp:425] conv2/relu_3x3_reduce <- conv2/3x3_reduce
I0403 15:33:35.194267  3222 net.cpp:386] conv2/relu_3x3_reduce -> conv2/3x3_reduce (in-place)
I0403 15:33:35.194530  3222 net.cpp:141] Setting up conv2/relu_3x3_reduce
I0403 15:33:35.194560  3222 net.cpp:148] Top shape: 24 64 56 56 (4816896)
I0403 15:33:35.194574  3222 net.cpp:156] Memory required for data: 245662752
I0403 15:33:35.194591  3222 layer_factory.hpp:77] Creating layer conv2/3x3
I0403 15:33:35.194614  3222 net.cpp:91] Creating Layer conv2/3x3
I0403 15:33:35.194633  3222 net.cpp:425] conv2/3x3 <- conv2/3x3_reduce
I0403 15:33:35.194651  3222 net.cpp:399] conv2/3x3 -> conv2/3x3
I0403 15:33:35.196981  3222 net.cpp:141] Setting up conv2/3x3
I0403 15:33:35.197013  3222 net.cpp:148] Top shape: 24 192 56 56 (14450688)
I0403 15:33:35.197031  3222 net.cpp:156] Memory required for data: 303465504
I0403 15:33:35.197053  3222 layer_factory.hpp:77] Creating layer conv2/relu_3x3
I0403 15:33:35.197075  3222 net.cpp:91] Creating Layer conv2/relu_3x3
I0403 15:33:35.197093  3222 net.cpp:425] conv2/relu_3x3 <- conv2/3x3
I0403 15:33:35.197113  3222 net.cpp:386] conv2/relu_3x3 -> conv2/3x3 (in-place)
I0403 15:33:35.197299  3222 net.cpp:141] Setting up conv2/relu_3x3
I0403 15:33:35.197327  3222 net.cpp:148] Top shape: 24 192 56 56 (14450688)
I0403 15:33:35.197376  3222 net.cpp:156] Memory required for data: 361268256
I0403 15:33:35.197393  3222 layer_factory.hpp:77] Creating layer conv2/norm2
I0403 15:33:35.197413  3222 net.cpp:91] Creating Layer conv2/norm2
I0403 15:33:35.197430  3222 net.cpp:425] conv2/norm2 <- conv2/3x3
I0403 15:33:35.197453  3222 net.cpp:399] conv2/norm2 -> conv2/norm2
I0403 15:33:35.197772  3222 net.cpp:141] Setting up conv2/norm2
I0403 15:33:35.197800  3222 net.cpp:148] Top shape: 24 192 56 56 (14450688)
I0403 15:33:35.197816  3222 net.cpp:156] Memory required for data: 419071008
I0403 15:33:35.197834  3222 layer_factory.hpp:77] Creating layer pool2/3x3_s2
I0403 15:33:35.197852  3222 net.cpp:91] Creating Layer pool2/3x3_s2
I0403 15:33:35.197870  3222 net.cpp:425] pool2/3x3_s2 <- conv2/norm2
I0403 15:33:35.197890  3222 net.cpp:399] pool2/3x3_s2 -> pool2/3x3_s2
I0403 15:33:35.197948  3222 net.cpp:141] Setting up pool2/3x3_s2
I0403 15:33:35.197973  3222 net.cpp:148] Top shape: 24 192 28 28 (3612672)
I0403 15:33:35.197988  3222 net.cpp:156] Memory required for data: 433521696
I0403 15:33:35.198004  3222 layer_factory.hpp:77] Creating layer pool2/3x3_s2_pool2/3x3_s2_0_split
I0403 15:33:35.198025  3222 net.cpp:91] Creating Layer pool2/3x3_s2_pool2/3x3_s2_0_split
I0403 15:33:35.198042  3222 net.cpp:425] pool2/3x3_s2_pool2/3x3_s2_0_split <- pool2/3x3_s2
I0403 15:33:35.198065  3222 net.cpp:399] pool2/3x3_s2_pool2/3x3_s2_0_split -> pool2/3x3_s2_pool2/3x3_s2_0_split_0
I0403 15:33:35.198086  3222 net.cpp:399] pool2/3x3_s2_pool2/3x3_s2_0_split -> pool2/3x3_s2_pool2/3x3_s2_0_split_1
I0403 15:33:35.198107  3222 net.cpp:399] pool2/3x3_s2_pool2/3x3_s2_0_split -> pool2/3x3_s2_pool2/3x3_s2_0_split_2
I0403 15:33:35.198128  3222 net.cpp:399] pool2/3x3_s2_pool2/3x3_s2_0_split -> pool2/3x3_s2_pool2/3x3_s2_0_split_3
I0403 15:33:35.198202  3222 net.cpp:141] Setting up pool2/3x3_s2_pool2/3x3_s2_0_split
I0403 15:33:35.198230  3222 net.cpp:148] Top shape: 24 192 28 28 (3612672)
I0403 15:33:35.198247  3222 net.cpp:148] Top shape: 24 192 28 28 (3612672)
I0403 15:33:35.198264  3222 net.cpp:148] Top shape: 24 192 28 28 (3612672)
I0403 15:33:35.198287  3222 net.cpp:148] Top shape: 24 192 28 28 (3612672)
I0403 15:33:35.198304  3222 net.cpp:156] Memory required for data: 491324448
I0403 15:33:35.198319  3222 layer_factory.hpp:77] Creating layer inception_3a/1x1
I0403 15:33:35.198341  3222 net.cpp:91] Creating Layer inception_3a/1x1
I0403 15:33:35.198359  3222 net.cpp:425] inception_3a/1x1 <- pool2/3x3_s2_pool2/3x3_s2_0_split_0
I0403 15:33:35.198380  3222 net.cpp:399] inception_3a/1x1 -> inception_3a/1x1
I0403 15:33:35.200004  3222 net.cpp:141] Setting up inception_3a/1x1
I0403 15:33:35.200037  3222 net.cpp:148] Top shape: 24 64 28 28 (1204224)
I0403 15:33:35.200053  3222 net.cpp:156] Memory required for data: 496141344
I0403 15:33:35.200074  3222 layer_factory.hpp:77] Creating layer inception_3a/relu_1x1
I0403 15:33:35.200096  3222 net.cpp:91] Creating Layer inception_3a/relu_1x1
I0403 15:33:35.200114  3222 net.cpp:425] inception_3a/relu_1x1 <- inception_3a/1x1
I0403 15:33:35.200132  3222 net.cpp:386] inception_3a/relu_1x1 -> inception_3a/1x1 (in-place)
I0403 15:33:35.200323  3222 net.cpp:141] Setting up inception_3a/relu_1x1
I0403 15:33:35.200350  3222 net.cpp:148] Top shape: 24 64 28 28 (1204224)
I0403 15:33:35.200366  3222 net.cpp:156] Memory required for data: 500958240
I0403 15:33:35.200381  3222 layer_factory.hpp:77] Creating layer inception_3a/3x3_reduce
I0403 15:33:35.200409  3222 net.cpp:91] Creating Layer inception_3a/3x3_reduce
I0403 15:33:35.200428  3222 net.cpp:425] inception_3a/3x3_reduce <- pool2/3x3_s2_pool2/3x3_s2_0_split_1
I0403 15:33:35.200448  3222 net.cpp:399] inception_3a/3x3_reduce -> inception_3a/3x3_reduce
I0403 15:33:35.202230  3222 net.cpp:141] Setting up inception_3a/3x3_reduce
I0403 15:33:35.202261  3222 net.cpp:148] Top shape: 24 96 28 28 (1806336)
I0403 15:33:35.202291  3222 net.cpp:156] Memory required for data: 508183584
I0403 15:33:35.202316  3222 layer_factory.hpp:77] Creating layer inception_3a/relu_3x3_reduce
I0403 15:33:35.202358  3222 net.cpp:91] Creating Layer inception_3a/relu_3x3_reduce
I0403 15:33:35.202378  3222 net.cpp:425] inception_3a/relu_3x3_reduce <- inception_3a/3x3_reduce
I0403 15:33:35.202407  3222 net.cpp:386] inception_3a/relu_3x3_reduce -> inception_3a/3x3_reduce (in-place)
I0403 15:33:35.202628  3222 net.cpp:141] Setting up inception_3a/relu_3x3_reduce
I0403 15:33:35.202656  3222 net.cpp:148] Top shape: 24 96 28 28 (1806336)
I0403 15:33:35.202672  3222 net.cpp:156] Memory required for data: 515408928
I0403 15:33:35.202687  3222 layer_factory.hpp:77] Creating layer inception_3a/3x3
I0403 15:33:35.202713  3222 net.cpp:91] Creating Layer inception_3a/3x3
I0403 15:33:35.202730  3222 net.cpp:425] inception_3a/3x3 <- inception_3a/3x3_reduce
I0403 15:33:35.202754  3222 net.cpp:399] inception_3a/3x3 -> inception_3a/3x3
I0403 15:33:35.204509  3222 net.cpp:141] Setting up inception_3a/3x3
I0403 15:33:35.204538  3222 net.cpp:148] Top shape: 24 128 28 28 (2408448)
I0403 15:33:35.204555  3222 net.cpp:156] Memory required for data: 525042720
I0403 15:33:35.204576  3222 layer_factory.hpp:77] Creating layer inception_3a/relu_3x3
I0403 15:33:35.204597  3222 net.cpp:91] Creating Layer inception_3a/relu_3x3
I0403 15:33:35.204614  3222 net.cpp:425] inception_3a/relu_3x3 <- inception_3a/3x3
I0403 15:33:35.204632  3222 net.cpp:386] inception_3a/relu_3x3 -> inception_3a/3x3 (in-place)
I0403 15:33:35.204923  3222 net.cpp:141] Setting up inception_3a/relu_3x3
I0403 15:33:35.204952  3222 net.cpp:148] Top shape: 24 128 28 28 (2408448)
I0403 15:33:35.204967  3222 net.cpp:156] Memory required for data: 534676512
I0403 15:33:35.204983  3222 layer_factory.hpp:77] Creating layer inception_3a/5x5_reduce
I0403 15:33:35.205008  3222 net.cpp:91] Creating Layer inception_3a/5x5_reduce
I0403 15:33:35.205025  3222 net.cpp:425] inception_3a/5x5_reduce <- pool2/3x3_s2_pool2/3x3_s2_0_split_2
I0403 15:33:35.205049  3222 net.cpp:399] inception_3a/5x5_reduce -> inception_3a/5x5_reduce
I0403 15:33:35.206053  3222 net.cpp:141] Setting up inception_3a/5x5_reduce
I0403 15:33:35.206084  3222 net.cpp:148] Top shape: 24 16 28 28 (301056)
I0403 15:33:35.206102  3222 net.cpp:156] Memory required for data: 535880736
I0403 15:33:35.206121  3222 layer_factory.hpp:77] Creating layer inception_3a/relu_5x5_reduce
I0403 15:33:35.206140  3222 net.cpp:91] Creating Layer inception_3a/relu_5x5_reduce
I0403 15:33:35.206157  3222 net.cpp:425] inception_3a/relu_5x5_reduce <- inception_3a/5x5_reduce
I0403 15:33:35.206176  3222 net.cpp:386] inception_3a/relu_5x5_reduce -> inception_3a/5x5_reduce (in-place)
I0403 15:33:35.206490  3222 net.cpp:141] Setting up inception_3a/relu_5x5_reduce
I0403 15:33:35.206521  3222 net.cpp:148] Top shape: 24 16 28 28 (301056)
I0403 15:33:35.206537  3222 net.cpp:156] Memory required for data: 537084960
I0403 15:33:35.206552  3222 layer_factory.hpp:77] Creating layer inception_3a/5x5
I0403 15:33:35.206576  3222 net.cpp:91] Creating Layer inception_3a/5x5
I0403 15:33:35.206594  3222 net.cpp:425] inception_3a/5x5 <- inception_3a/5x5_reduce
I0403 15:33:35.206617  3222 net.cpp:399] inception_3a/5x5 -> inception_3a/5x5
I0403 15:33:35.207679  3222 net.cpp:141] Setting up inception_3a/5x5
I0403 15:33:35.207707  3222 net.cpp:148] Top shape: 24 32 28 28 (602112)
I0403 15:33:35.207723  3222 net.cpp:156] Memory required for data: 539493408
I0403 15:33:35.207743  3222 layer_factory.hpp:77] Creating layer inception_3a/relu_5x5
I0403 15:33:35.207765  3222 net.cpp:91] Creating Layer inception_3a/relu_5x5
I0403 15:33:35.207782  3222 net.cpp:425] inception_3a/relu_5x5 <- inception_3a/5x5
I0403 15:33:35.207800  3222 net.cpp:386] inception_3a/relu_5x5 -> inception_3a/5x5 (in-place)
I0403 15:33:35.207984  3222 net.cpp:141] Setting up inception_3a/relu_5x5
I0403 15:33:35.208012  3222 net.cpp:148] Top shape: 24 32 28 28 (602112)
I0403 15:33:35.208029  3222 net.cpp:156] Memory required for data: 541901856
I0403 15:33:35.208045  3222 layer_factory.hpp:77] Creating layer inception_3a/pool
I0403 15:33:35.208065  3222 net.cpp:91] Creating Layer inception_3a/pool
I0403 15:33:35.208096  3222 net.cpp:425] inception_3a/pool <- pool2/3x3_s2_pool2/3x3_s2_0_split_3
I0403 15:33:35.208119  3222 net.cpp:399] inception_3a/pool -> inception_3a/pool
I0403 15:33:35.208183  3222 net.cpp:141] Setting up inception_3a/pool
I0403 15:33:35.208206  3222 net.cpp:148] Top shape: 24 192 28 28 (3612672)
I0403 15:33:35.208222  3222 net.cpp:156] Memory required for data: 556352544
I0403 15:33:35.208237  3222 layer_factory.hpp:77] Creating layer inception_3a/pool_proj
I0403 15:33:35.208261  3222 net.cpp:91] Creating Layer inception_3a/pool_proj
I0403 15:33:35.208286  3222 net.cpp:425] inception_3a/pool_proj <- inception_3a/pool
I0403 15:33:35.208310  3222 net.cpp:399] inception_3a/pool_proj -> inception_3a/pool_proj
I0403 15:33:35.209321  3222 net.cpp:141] Setting up inception_3a/pool_proj
I0403 15:33:35.209349  3222 net.cpp:148] Top shape: 24 32 28 28 (602112)
I0403 15:33:35.209367  3222 net.cpp:156] Memory required for data: 558760992
I0403 15:33:35.209391  3222 layer_factory.hpp:77] Creating layer inception_3a/relu_pool_proj
I0403 15:33:35.209413  3222 net.cpp:91] Creating Layer inception_3a/relu_pool_proj
I0403 15:33:35.209429  3222 net.cpp:425] inception_3a/relu_pool_proj <- inception_3a/pool_proj
I0403 15:33:35.209447  3222 net.cpp:386] inception_3a/relu_pool_proj -> inception_3a/pool_proj (in-place)
I0403 15:33:35.209731  3222 net.cpp:141] Setting up inception_3a/relu_pool_proj
I0403 15:33:35.209759  3222 net.cpp:148] Top shape: 24 32 28 28 (602112)
I0403 15:33:35.209775  3222 net.cpp:156] Memory required for data: 561169440
I0403 15:33:35.209791  3222 layer_factory.hpp:77] Creating layer inception_3a/output
I0403 15:33:35.209813  3222 net.cpp:91] Creating Layer inception_3a/output
I0403 15:33:35.209830  3222 net.cpp:425] inception_3a/output <- inception_3a/1x1
I0403 15:33:35.209848  3222 net.cpp:425] inception_3a/output <- inception_3a/3x3
I0403 15:33:35.209867  3222 net.cpp:425] inception_3a/output <- inception_3a/5x5
I0403 15:33:35.209882  3222 net.cpp:425] inception_3a/output <- inception_3a/pool_proj
I0403 15:33:35.209900  3222 net.cpp:399] inception_3a/output -> inception_3a/output
I0403 15:33:35.209951  3222 net.cpp:141] Setting up inception_3a/output
I0403 15:33:35.209976  3222 net.cpp:148] Top shape: 24 256 28 28 (4816896)
I0403 15:33:35.209991  3222 net.cpp:156] Memory required for data: 580437024
I0403 15:33:35.210007  3222 layer_factory.hpp:77] Creating layer inception_3a/output_inception_3a/output_0_split
I0403 15:33:35.210026  3222 net.cpp:91] Creating Layer inception_3a/output_inception_3a/output_0_split
I0403 15:33:35.210042  3222 net.cpp:425] inception_3a/output_inception_3a/output_0_split <- inception_3a/output
I0403 15:33:35.210062  3222 net.cpp:399] inception_3a/output_inception_3a/output_0_split -> inception_3a/output_inception_3a/output_0_split_0
I0403 15:33:35.210084  3222 net.cpp:399] inception_3a/output_inception_3a/output_0_split -> inception_3a/output_inception_3a/output_0_split_1
I0403 15:33:35.210110  3222 net.cpp:399] inception_3a/output_inception_3a/output_0_split -> inception_3a/output_inception_3a/output_0_split_2
I0403 15:33:35.210134  3222 net.cpp:399] inception_3a/output_inception_3a/output_0_split -> inception_3a/output_inception_3a/output_0_split_3
I0403 15:33:35.210213  3222 net.cpp:141] Setting up inception_3a/output_inception_3a/output_0_split
I0403 15:33:35.210237  3222 net.cpp:148] Top shape: 24 256 28 28 (4816896)
I0403 15:33:35.210255  3222 net.cpp:148] Top shape: 24 256 28 28 (4816896)
I0403 15:33:35.210278  3222 net.cpp:148] Top shape: 24 256 28 28 (4816896)
I0403 15:33:35.210295  3222 net.cpp:148] Top shape: 24 256 28 28 (4816896)
I0403 15:33:35.210310  3222 net.cpp:156] Memory required for data: 657507360
I0403 15:33:35.210326  3222 layer_factory.hpp:77] Creating layer inception_3b/1x1
I0403 15:33:35.210350  3222 net.cpp:91] Creating Layer inception_3b/1x1
I0403 15:33:35.210368  3222 net.cpp:425] inception_3b/1x1 <- inception_3a/output_inception_3a/output_0_split_0
I0403 15:33:35.210394  3222 net.cpp:399] inception_3b/1x1 -> inception_3b/1x1
I0403 15:33:35.211588  3222 net.cpp:141] Setting up inception_3b/1x1
I0403 15:33:35.211629  3222 net.cpp:148] Top shape: 24 128 28 28 (2408448)
I0403 15:33:35.211647  3222 net.cpp:156] Memory required for data: 667141152
I0403 15:33:35.211668  3222 layer_factory.hpp:77] Creating layer inception_3b/relu_1x1
I0403 15:33:35.211688  3222 net.cpp:91] Creating Layer inception_3b/relu_1x1
I0403 15:33:35.211705  3222 net.cpp:425] inception_3b/relu_1x1 <- inception_3b/1x1
I0403 15:33:35.211724  3222 net.cpp:386] inception_3b/relu_1x1 -> inception_3b/1x1 (in-place)
I0403 15:33:35.211910  3222 net.cpp:141] Setting up inception_3b/relu_1x1
I0403 15:33:35.211937  3222 net.cpp:148] Top shape: 24 128 28 28 (2408448)
I0403 15:33:35.211953  3222 net.cpp:156] Memory required for data: 676774944
I0403 15:33:35.211968  3222 layer_factory.hpp:77] Creating layer inception_3b/3x3_reduce
I0403 15:33:35.211992  3222 net.cpp:91] Creating Layer inception_3b/3x3_reduce
I0403 15:33:35.212012  3222 net.cpp:425] inception_3b/3x3_reduce <- inception_3a/output_inception_3a/output_0_split_1
I0403 15:33:35.212033  3222 net.cpp:399] inception_3b/3x3_reduce -> inception_3b/3x3_reduce
I0403 15:33:35.213232  3222 net.cpp:141] Setting up inception_3b/3x3_reduce
I0403 15:33:35.213260  3222 net.cpp:148] Top shape: 24 128 28 28 (2408448)
I0403 15:33:35.213282  3222 net.cpp:156] Memory required for data: 686408736
I0403 15:33:35.213304  3222 layer_factory.hpp:77] Creating layer inception_3b/relu_3x3_reduce
I0403 15:33:35.213325  3222 net.cpp:91] Creating Layer inception_3b/relu_3x3_reduce
I0403 15:33:35.213343  3222 net.cpp:425] inception_3b/relu_3x3_reduce <- inception_3b/3x3_reduce
I0403 15:33:35.213362  3222 net.cpp:386] inception_3b/relu_3x3_reduce -> inception_3b/3x3_reduce (in-place)
I0403 15:33:35.213542  3222 net.cpp:141] Setting up inception_3b/relu_3x3_reduce
I0403 15:33:35.213568  3222 net.cpp:148] Top shape: 24 128 28 28 (2408448)
I0403 15:33:35.213583  3222 net.cpp:156] Memory required for data: 696042528
I0403 15:33:35.213599  3222 layer_factory.hpp:77] Creating layer inception_3b/3x3
I0403 15:33:35.213627  3222 net.cpp:91] Creating Layer inception_3b/3x3
I0403 15:33:35.213645  3222 net.cpp:425] inception_3b/3x3 <- inception_3b/3x3_reduce
I0403 15:33:35.213666  3222 net.cpp:399] inception_3b/3x3 -> inception_3b/3x3
I0403 15:33:35.216763  3222 net.cpp:141] Setting up inception_3b/3x3
I0403 15:33:35.216794  3222 net.cpp:148] Top shape: 24 192 28 28 (3612672)
I0403 15:33:35.216810  3222 net.cpp:156] Memory required for data: 710493216
I0403 15:33:35.216830  3222 layer_factory.hpp:77] Creating layer inception_3b/relu_3x3
I0403 15:33:35.216852  3222 net.cpp:91] Creating Layer inception_3b/relu_3x3
I0403 15:33:35.216871  3222 net.cpp:425] inception_3b/relu_3x3 <- inception_3b/3x3
I0403 15:33:35.216889  3222 net.cpp:386] inception_3b/relu_3x3 -> inception_3b/3x3 (in-place)
I0403 15:33:35.217185  3222 net.cpp:141] Setting up inception_3b/relu_3x3
I0403 15:33:35.217212  3222 net.cpp:148] Top shape: 24 192 28 28 (3612672)
I0403 15:33:35.217228  3222 net.cpp:156] Memory required for data: 724943904
I0403 15:33:35.217245  3222 layer_factory.hpp:77] Creating layer inception_3b/5x5_reduce
I0403 15:33:35.217269  3222 net.cpp:91] Creating Layer inception_3b/5x5_reduce
I0403 15:33:35.217295  3222 net.cpp:425] inception_3b/5x5_reduce <- inception_3a/output_inception_3a/output_0_split_2
I0403 15:33:35.217319  3222 net.cpp:399] inception_3b/5x5_reduce -> inception_3b/5x5_reduce
I0403 15:33:35.218374  3222 net.cpp:141] Setting up inception_3b/5x5_reduce
I0403 15:33:35.218402  3222 net.cpp:148] Top shape: 24 32 28 28 (602112)
I0403 15:33:35.218420  3222 net.cpp:156] Memory required for data: 727352352
I0403 15:33:35.218438  3222 layer_factory.hpp:77] Creating layer inception_3b/relu_5x5_reduce
I0403 15:33:35.218461  3222 net.cpp:91] Creating Layer inception_3b/relu_5x5_reduce
I0403 15:33:35.218478  3222 net.cpp:425] inception_3b/relu_5x5_reduce <- inception_3b/5x5_reduce
I0403 15:33:35.218497  3222 net.cpp:386] inception_3b/relu_5x5_reduce -> inception_3b/5x5_reduce (in-place)
I0403 15:33:35.218699  3222 net.cpp:141] Setting up inception_3b/relu_5x5_reduce
I0403 15:33:35.218730  3222 net.cpp:148] Top shape: 24 32 28 28 (602112)
I0403 15:33:35.218747  3222 net.cpp:156] Memory required for data: 729760800
I0403 15:33:35.218763  3222 layer_factory.hpp:77] Creating layer inception_3b/5x5
I0403 15:33:35.218786  3222 net.cpp:91] Creating Layer inception_3b/5x5
I0403 15:33:35.218806  3222 net.cpp:425] inception_3b/5x5 <- inception_3b/5x5_reduce
I0403 15:33:35.218825  3222 net.cpp:399] inception_3b/5x5 -> inception_3b/5x5
I0403 15:33:35.220890  3222 net.cpp:141] Setting up inception_3b/5x5
I0403 15:33:35.220921  3222 net.cpp:148] Top shape: 24 96 28 28 (1806336)
I0403 15:33:35.220938  3222 net.cpp:156] Memory required for data: 736986144
I0403 15:33:35.220958  3222 layer_factory.hpp:77] Creating layer inception_3b/relu_5x5
I0403 15:33:35.220979  3222 net.cpp:91] Creating Layer inception_3b/relu_5x5
I0403 15:33:35.220998  3222 net.cpp:425] inception_3b/relu_5x5 <- inception_3b/5x5
I0403 15:33:35.221016  3222 net.cpp:386] inception_3b/relu_5x5 -> inception_3b/5x5 (in-place)
I0403 15:33:35.221220  3222 net.cpp:141] Setting up inception_3b/relu_5x5
I0403 15:33:35.221246  3222 net.cpp:148] Top shape: 24 96 28 28 (1806336)
I0403 15:33:35.221261  3222 net.cpp:156] Memory required for data: 744211488
I0403 15:33:35.221284  3222 layer_factory.hpp:77] Creating layer inception_3b/pool
I0403 15:33:35.221307  3222 net.cpp:91] Creating Layer inception_3b/pool
I0403 15:33:35.221323  3222 net.cpp:425] inception_3b/pool <- inception_3a/output_inception_3a/output_0_split_3
I0403 15:33:35.221343  3222 net.cpp:399] inception_3b/pool -> inception_3b/pool
I0403 15:33:35.221401  3222 net.cpp:141] Setting up inception_3b/pool
I0403 15:33:35.221426  3222 net.cpp:148] Top shape: 24 256 28 28 (4816896)
I0403 15:33:35.221441  3222 net.cpp:156] Memory required for data: 763479072
I0403 15:33:35.221457  3222 layer_factory.hpp:77] Creating layer inception_3b/pool_proj
I0403 15:33:35.221480  3222 net.cpp:91] Creating Layer inception_3b/pool_proj
I0403 15:33:35.221499  3222 net.cpp:425] inception_3b/pool_proj <- inception_3b/pool
I0403 15:33:35.221521  3222 net.cpp:399] inception_3b/pool_proj -> inception_3b/pool_proj
I0403 15:33:35.222640  3222 net.cpp:141] Setting up inception_3b/pool_proj
I0403 15:33:35.222672  3222 net.cpp:148] Top shape: 24 64 28 28 (1204224)
I0403 15:33:35.222690  3222 net.cpp:156] Memory required for data: 768295968
I0403 15:33:35.222709  3222 layer_factory.hpp:77] Creating layer inception_3b/relu_pool_proj
I0403 15:33:35.222729  3222 net.cpp:91] Creating Layer inception_3b/relu_pool_proj
I0403 15:33:35.222746  3222 net.cpp:425] inception_3b/relu_pool_proj <- inception_3b/pool_proj
I0403 15:33:35.222766  3222 net.cpp:386] inception_3b/relu_pool_proj -> inception_3b/pool_proj (in-place)
I0403 15:33:35.223191  3222 net.cpp:141] Setting up inception_3b/relu_pool_proj
I0403 15:33:35.223220  3222 net.cpp:148] Top shape: 24 64 28 28 (1204224)
I0403 15:33:35.223237  3222 net.cpp:156] Memory required for data: 773112864
I0403 15:33:35.223253  3222 layer_factory.hpp:77] Creating layer inception_3b/output
I0403 15:33:35.223275  3222 net.cpp:91] Creating Layer inception_3b/output
I0403 15:33:35.223294  3222 net.cpp:425] inception_3b/output <- inception_3b/1x1
I0403 15:33:35.223311  3222 net.cpp:425] inception_3b/output <- inception_3b/3x3
I0403 15:33:35.223327  3222 net.cpp:425] inception_3b/output <- inception_3b/5x5
I0403 15:33:35.223345  3222 net.cpp:425] inception_3b/output <- inception_3b/pool_proj
I0403 15:33:35.223362  3222 net.cpp:399] inception_3b/output -> inception_3b/output
I0403 15:33:35.223409  3222 net.cpp:141] Setting up inception_3b/output
I0403 15:33:35.223438  3222 net.cpp:148] Top shape: 24 480 28 28 (9031680)
I0403 15:33:35.223453  3222 net.cpp:156] Memory required for data: 809239584
I0403 15:33:35.223469  3222 layer_factory.hpp:77] Creating layer pool3/3x3_s2
I0403 15:33:35.223489  3222 net.cpp:91] Creating Layer pool3/3x3_s2
I0403 15:33:35.223505  3222 net.cpp:425] pool3/3x3_s2 <- inception_3b/output
I0403 15:33:35.223539  3222 net.cpp:399] pool3/3x3_s2 -> pool3/3x3_s2
I0403 15:33:35.223600  3222 net.cpp:141] Setting up pool3/3x3_s2
I0403 15:33:35.223624  3222 net.cpp:148] Top shape: 24 480 14 14 (2257920)
I0403 15:33:35.223640  3222 net.cpp:156] Memory required for data: 818271264
I0403 15:33:35.223655  3222 layer_factory.hpp:77] Creating layer pool3/3x3_s2_pool3/3x3_s2_0_split
I0403 15:33:35.223673  3222 net.cpp:91] Creating Layer pool3/3x3_s2_pool3/3x3_s2_0_split
I0403 15:33:35.223688  3222 net.cpp:425] pool3/3x3_s2_pool3/3x3_s2_0_split <- pool3/3x3_s2
I0403 15:33:35.223708  3222 net.cpp:399] pool3/3x3_s2_pool3/3x3_s2_0_split -> pool3/3x3_s2_pool3/3x3_s2_0_split_0
I0403 15:33:35.223729  3222 net.cpp:399] pool3/3x3_s2_pool3/3x3_s2_0_split -> pool3/3x3_s2_pool3/3x3_s2_0_split_1
I0403 15:33:35.223750  3222 net.cpp:399] pool3/3x3_s2_pool3/3x3_s2_0_split -> pool3/3x3_s2_pool3/3x3_s2_0_split_2
I0403 15:33:35.223772  3222 net.cpp:399] pool3/3x3_s2_pool3/3x3_s2_0_split -> pool3/3x3_s2_pool3/3x3_s2_0_split_3
I0403 15:33:35.223850  3222 net.cpp:141] Setting up pool3/3x3_s2_pool3/3x3_s2_0_split
I0403 15:33:35.223875  3222 net.cpp:148] Top shape: 24 480 14 14 (2257920)
I0403 15:33:35.223892  3222 net.cpp:148] Top shape: 24 480 14 14 (2257920)
I0403 15:33:35.223909  3222 net.cpp:148] Top shape: 24 480 14 14 (2257920)
I0403 15:33:35.223925  3222 net.cpp:148] Top shape: 24 480 14 14 (2257920)
I0403 15:33:35.223940  3222 net.cpp:156] Memory required for data: 854397984
I0403 15:33:35.223955  3222 layer_factory.hpp:77] Creating layer inception_4a/1x1
I0403 15:33:35.223978  3222 net.cpp:91] Creating Layer inception_4a/1x1
I0403 15:33:35.223996  3222 net.cpp:425] inception_4a/1x1 <- pool3/3x3_s2_pool3/3x3_s2_0_split_0
I0403 15:33:35.224015  3222 net.cpp:399] inception_4a/1x1 -> inception_4a/1x1
I0403 15:33:35.225622  3222 net.cpp:141] Setting up inception_4a/1x1
I0403 15:33:35.225652  3222 net.cpp:148] Top shape: 24 192 14 14 (903168)
I0403 15:33:35.225671  3222 net.cpp:156] Memory required for data: 858010656
I0403 15:33:35.225689  3222 layer_factory.hpp:77] Creating layer inception_4a/relu_1x1
I0403 15:33:35.225708  3222 net.cpp:91] Creating Layer inception_4a/relu_1x1
I0403 15:33:35.225723  3222 net.cpp:425] inception_4a/relu_1x1 <- inception_4a/1x1
I0403 15:33:35.225744  3222 net.cpp:386] inception_4a/relu_1x1 -> inception_4a/1x1 (in-place)
I0403 15:33:35.225922  3222 net.cpp:141] Setting up inception_4a/relu_1x1
I0403 15:33:35.225949  3222 net.cpp:148] Top shape: 24 192 14 14 (903168)
I0403 15:33:35.225963  3222 net.cpp:156] Memory required for data: 861623328
I0403 15:33:35.225978  3222 layer_factory.hpp:77] Creating layer inception_4a/3x3_reduce
I0403 15:33:35.226004  3222 net.cpp:91] Creating Layer inception_4a/3x3_reduce
I0403 15:33:35.226022  3222 net.cpp:425] inception_4a/3x3_reduce <- pool3/3x3_s2_pool3/3x3_s2_0_split_1
I0403 15:33:35.226044  3222 net.cpp:399] inception_4a/3x3_reduce -> inception_4a/3x3_reduce
I0403 15:33:35.227356  3222 net.cpp:141] Setting up inception_4a/3x3_reduce
I0403 15:33:35.227385  3222 net.cpp:148] Top shape: 24 96 14 14 (451584)
I0403 15:33:35.227401  3222 net.cpp:156] Memory required for data: 863429664
I0403 15:33:35.227427  3222 layer_factory.hpp:77] Creating layer inception_4a/relu_3x3_reduce
I0403 15:33:35.227447  3222 net.cpp:91] Creating Layer inception_4a/relu_3x3_reduce
I0403 15:33:35.227463  3222 net.cpp:425] inception_4a/relu_3x3_reduce <- inception_4a/3x3_reduce
I0403 15:33:35.227483  3222 net.cpp:386] inception_4a/relu_3x3_reduce -> inception_4a/3x3_reduce (in-place)
I0403 15:33:35.227663  3222 net.cpp:141] Setting up inception_4a/relu_3x3_reduce
I0403 15:33:35.227689  3222 net.cpp:148] Top shape: 24 96 14 14 (451584)
I0403 15:33:35.227705  3222 net.cpp:156] Memory required for data: 865236000
I0403 15:33:35.227720  3222 layer_factory.hpp:77] Creating layer inception_4a/3x3
I0403 15:33:35.227742  3222 net.cpp:91] Creating Layer inception_4a/3x3
I0403 15:33:35.227761  3222 net.cpp:425] inception_4a/3x3 <- inception_4a/3x3_reduce
I0403 15:33:35.227782  3222 net.cpp:399] inception_4a/3x3 -> inception_4a/3x3
I0403 15:33:35.230523  3222 net.cpp:141] Setting up inception_4a/3x3
I0403 15:33:35.230552  3222 net.cpp:148] Top shape: 24 208 14 14 (978432)
I0403 15:33:35.230569  3222 net.cpp:156] Memory required for data: 869149728
I0403 15:33:35.230588  3222 layer_factory.hpp:77] Creating layer inception_4a/relu_3x3
I0403 15:33:35.230609  3222 net.cpp:91] Creating Layer inception_4a/relu_3x3
I0403 15:33:35.230628  3222 net.cpp:425] inception_4a/relu_3x3 <- inception_4a/3x3
I0403 15:33:35.230645  3222 net.cpp:386] inception_4a/relu_3x3 -> inception_4a/3x3 (in-place)
I0403 15:33:35.230937  3222 net.cpp:141] Setting up inception_4a/relu_3x3
I0403 15:33:35.230963  3222 net.cpp:148] Top shape: 24 208 14 14 (978432)
I0403 15:33:35.230979  3222 net.cpp:156] Memory required for data: 873063456
I0403 15:33:35.230994  3222 layer_factory.hpp:77] Creating layer inception_4a/5x5_reduce
I0403 15:33:35.231019  3222 net.cpp:91] Creating Layer inception_4a/5x5_reduce
I0403 15:33:35.231035  3222 net.cpp:425] inception_4a/5x5_reduce <- pool3/3x3_s2_pool3/3x3_s2_0_split_2
I0403 15:33:35.231057  3222 net.cpp:399] inception_4a/5x5_reduce -> inception_4a/5x5_reduce
I0403 15:33:35.232097  3222 net.cpp:141] Setting up inception_4a/5x5_reduce
I0403 15:33:35.232125  3222 net.cpp:148] Top shape: 24 16 14 14 (75264)
I0403 15:33:35.232141  3222 net.cpp:156] Memory required for data: 873364512
I0403 15:33:35.232161  3222 layer_factory.hpp:77] Creating layer inception_4a/relu_5x5_reduce
I0403 15:33:35.232182  3222 net.cpp:91] Creating Layer inception_4a/relu_5x5_reduce
I0403 15:33:35.232198  3222 net.cpp:425] inception_4a/relu_5x5_reduce <- inception_4a/5x5_reduce
I0403 15:33:35.232216  3222 net.cpp:386] inception_4a/relu_5x5_reduce -> inception_4a/5x5_reduce (in-place)
I0403 15:33:35.232410  3222 net.cpp:141] Setting up inception_4a/relu_5x5_reduce
I0403 15:33:35.232439  3222 net.cpp:148] Top shape: 24 16 14 14 (75264)
I0403 15:33:35.232455  3222 net.cpp:156] Memory required for data: 873665568
I0403 15:33:35.232470  3222 layer_factory.hpp:77] Creating layer inception_4a/5x5
I0403 15:33:35.232493  3222 net.cpp:91] Creating Layer inception_4a/5x5
I0403 15:33:35.232511  3222 net.cpp:425] inception_4a/5x5 <- inception_4a/5x5_reduce
I0403 15:33:35.232530  3222 net.cpp:399] inception_4a/5x5 -> inception_4a/5x5
I0403 15:33:35.233635  3222 net.cpp:141] Setting up inception_4a/5x5
I0403 15:33:35.233666  3222 net.cpp:148] Top shape: 24 48 14 14 (225792)
I0403 15:33:35.233682  3222 net.cpp:156] Memory required for data: 874568736
I0403 15:33:35.233702  3222 layer_factory.hpp:77] Creating layer inception_4a/relu_5x5
I0403 15:33:35.233721  3222 net.cpp:91] Creating Layer inception_4a/relu_5x5
I0403 15:33:35.233736  3222 net.cpp:425] inception_4a/relu_5x5 <- inception_4a/5x5
I0403 15:33:35.233753  3222 net.cpp:386] inception_4a/relu_5x5 -> inception_4a/5x5 (in-place)
I0403 15:33:35.233937  3222 net.cpp:141] Setting up inception_4a/relu_5x5
I0403 15:33:35.233963  3222 net.cpp:148] Top shape: 24 48 14 14 (225792)
I0403 15:33:35.233978  3222 net.cpp:156] Memory required for data: 875471904
I0403 15:33:35.233994  3222 layer_factory.hpp:77] Creating layer inception_4a/pool
I0403 15:33:35.234011  3222 net.cpp:91] Creating Layer inception_4a/pool
I0403 15:33:35.234028  3222 net.cpp:425] inception_4a/pool <- pool3/3x3_s2_pool3/3x3_s2_0_split_3
I0403 15:33:35.234050  3222 net.cpp:399] inception_4a/pool -> inception_4a/pool
I0403 15:33:35.234110  3222 net.cpp:141] Setting up inception_4a/pool
I0403 15:33:35.234138  3222 net.cpp:148] Top shape: 24 480 14 14 (2257920)
I0403 15:33:35.234153  3222 net.cpp:156] Memory required for data: 884503584
I0403 15:33:35.234181  3222 layer_factory.hpp:77] Creating layer inception_4a/pool_proj
I0403 15:33:35.234205  3222 net.cpp:91] Creating Layer inception_4a/pool_proj
I0403 15:33:35.234223  3222 net.cpp:425] inception_4a/pool_proj <- inception_4a/pool
I0403 15:33:35.234242  3222 net.cpp:399] inception_4a/pool_proj -> inception_4a/pool_proj
I0403 15:33:35.235450  3222 net.cpp:141] Setting up inception_4a/pool_proj
I0403 15:33:35.235481  3222 net.cpp:148] Top shape: 24 64 14 14 (301056)
I0403 15:33:35.235510  3222 net.cpp:156] Memory required for data: 885707808
I0403 15:33:35.235532  3222 layer_factory.hpp:77] Creating layer inception_4a/relu_pool_proj
I0403 15:33:35.235549  3222 net.cpp:91] Creating Layer inception_4a/relu_pool_proj
I0403 15:33:35.235565  3222 net.cpp:425] inception_4a/relu_pool_proj <- inception_4a/pool_proj
I0403 15:33:35.235587  3222 net.cpp:386] inception_4a/relu_pool_proj -> inception_4a/pool_proj (in-place)
I0403 15:33:35.235874  3222 net.cpp:141] Setting up inception_4a/relu_pool_proj
I0403 15:33:35.235901  3222 net.cpp:148] Top shape: 24 64 14 14 (301056)
I0403 15:33:35.235918  3222 net.cpp:156] Memory required for data: 886912032
I0403 15:33:35.235934  3222 layer_factory.hpp:77] Creating layer inception_4a/output
I0403 15:33:35.235951  3222 net.cpp:91] Creating Layer inception_4a/output
I0403 15:33:35.235970  3222 net.cpp:425] inception_4a/output <- inception_4a/1x1
I0403 15:33:35.235986  3222 net.cpp:425] inception_4a/output <- inception_4a/3x3
I0403 15:33:35.236003  3222 net.cpp:425] inception_4a/output <- inception_4a/5x5
I0403 15:33:35.236019  3222 net.cpp:425] inception_4a/output <- inception_4a/pool_proj
I0403 15:33:35.236039  3222 net.cpp:399] inception_4a/output -> inception_4a/output
I0403 15:33:35.236085  3222 net.cpp:141] Setting up inception_4a/output
I0403 15:33:35.236109  3222 net.cpp:148] Top shape: 24 512 14 14 (2408448)
I0403 15:33:35.236127  3222 net.cpp:156] Memory required for data: 896545824
I0403 15:33:35.236145  3222 layer_factory.hpp:77] Creating layer inception_4a/output_inception_4a/output_0_split
I0403 15:33:35.236162  3222 net.cpp:91] Creating Layer inception_4a/output_inception_4a/output_0_split
I0403 15:33:35.236178  3222 net.cpp:425] inception_4a/output_inception_4a/output_0_split <- inception_4a/output
I0403 15:33:35.236209  3222 net.cpp:399] inception_4a/output_inception_4a/output_0_split -> inception_4a/output_inception_4a/output_0_split_0
I0403 15:33:35.236232  3222 net.cpp:399] inception_4a/output_inception_4a/output_0_split -> inception_4a/output_inception_4a/output_0_split_1
I0403 15:33:35.236256  3222 net.cpp:399] inception_4a/output_inception_4a/output_0_split -> inception_4a/output_inception_4a/output_0_split_2
I0403 15:33:35.236286  3222 net.cpp:399] inception_4a/output_inception_4a/output_0_split -> inception_4a/output_inception_4a/output_0_split_3
I0403 15:33:35.236310  3222 net.cpp:399] inception_4a/output_inception_4a/output_0_split -> inception_4a/output_inception_4a/output_0_split_4
I0403 15:33:35.236408  3222 net.cpp:141] Setting up inception_4a/output_inception_4a/output_0_split
I0403 15:33:35.236433  3222 net.cpp:148] Top shape: 24 512 14 14 (2408448)
I0403 15:33:35.236451  3222 net.cpp:148] Top shape: 24 512 14 14 (2408448)
I0403 15:33:35.236469  3222 net.cpp:148] Top shape: 24 512 14 14 (2408448)
I0403 15:33:35.236486  3222 net.cpp:148] Top shape: 24 512 14 14 (2408448)
I0403 15:33:35.236502  3222 net.cpp:148] Top shape: 24 512 14 14 (2408448)
I0403 15:33:35.236517  3222 net.cpp:156] Memory required for data: 944714784
I0403 15:33:35.236533  3222 layer_factory.hpp:77] Creating layer loss1/ave_pool
I0403 15:33:35.236554  3222 net.cpp:91] Creating Layer loss1/ave_pool
I0403 15:33:35.236572  3222 net.cpp:425] loss1/ave_pool <- inception_4a/output_inception_4a/output_0_split_0
I0403 15:33:35.236591  3222 net.cpp:399] loss1/ave_pool -> loss1/ave_pool
I0403 15:33:35.236811  3222 net.cpp:141] Setting up loss1/ave_pool
I0403 15:33:35.236838  3222 net.cpp:148] Top shape: 24 512 4 4 (196608)
I0403 15:33:35.236855  3222 net.cpp:156] Memory required for data: 945501216
I0403 15:33:35.236871  3222 layer_factory.hpp:77] Creating layer loss1/conv
I0403 15:33:35.236894  3222 net.cpp:91] Creating Layer loss1/conv
I0403 15:33:35.236913  3222 net.cpp:425] loss1/conv <- loss1/ave_pool
I0403 15:33:35.236935  3222 net.cpp:399] loss1/conv -> loss1/conv
I0403 15:33:35.238427  3222 net.cpp:141] Setting up loss1/conv
I0403 15:33:35.238457  3222 net.cpp:148] Top shape: 24 128 4 4 (49152)
I0403 15:33:35.238488  3222 net.cpp:156] Memory required for data: 945697824
I0403 15:33:35.238509  3222 layer_factory.hpp:77] Creating layer loss1/relu_conv
I0403 15:33:35.238531  3222 net.cpp:91] Creating Layer loss1/relu_conv
I0403 15:33:35.238549  3222 net.cpp:425] loss1/relu_conv <- loss1/conv
I0403 15:33:35.238567  3222 net.cpp:386] loss1/relu_conv -> loss1/conv (in-place)
I0403 15:33:35.238862  3222 net.cpp:141] Setting up loss1/relu_conv
I0403 15:33:35.238890  3222 net.cpp:148] Top shape: 24 128 4 4 (49152)
I0403 15:33:35.238906  3222 net.cpp:156] Memory required for data: 945894432
I0403 15:33:35.238922  3222 layer_factory.hpp:77] Creating layer loss1/fc
I0403 15:33:35.238950  3222 net.cpp:91] Creating Layer loss1/fc
I0403 15:33:35.238968  3222 net.cpp:425] loss1/fc <- loss1/conv
I0403 15:33:35.238988  3222 net.cpp:399] loss1/fc -> loss1/fc
I0403 15:33:35.257789  3222 net.cpp:141] Setting up loss1/fc
I0403 15:33:35.257822  3222 net.cpp:148] Top shape: 24 1024 (24576)
I0403 15:33:35.257839  3222 net.cpp:156] Memory required for data: 945992736
I0403 15:33:35.257860  3222 layer_factory.hpp:77] Creating layer loss1/relu_fc
I0403 15:33:35.257880  3222 net.cpp:91] Creating Layer loss1/relu_fc
I0403 15:33:35.257899  3222 net.cpp:425] loss1/relu_fc <- loss1/fc
I0403 15:33:35.257920  3222 net.cpp:386] loss1/relu_fc -> loss1/fc (in-place)
I0403 15:33:35.258128  3222 net.cpp:141] Setting up loss1/relu_fc
I0403 15:33:35.258154  3222 net.cpp:148] Top shape: 24 1024 (24576)
I0403 15:33:35.258170  3222 net.cpp:156] Memory required for data: 946091040
I0403 15:33:35.258186  3222 layer_factory.hpp:77] Creating layer loss1/drop_fc
I0403 15:33:35.258216  3222 net.cpp:91] Creating Layer loss1/drop_fc
I0403 15:33:35.258236  3222 net.cpp:425] loss1/drop_fc <- loss1/fc
I0403 15:33:35.258255  3222 net.cpp:386] loss1/drop_fc -> loss1/fc (in-place)
I0403 15:33:35.258314  3222 net.cpp:141] Setting up loss1/drop_fc
I0403 15:33:35.258342  3222 net.cpp:148] Top shape: 24 1024 (24576)
I0403 15:33:35.258359  3222 net.cpp:156] Memory required for data: 946189344
I0403 15:33:35.258375  3222 layer_factory.hpp:77] Creating layer loss1/classifier_plantvillage
I0403 15:33:35.258396  3222 net.cpp:91] Creating Layer loss1/classifier_plantvillage
I0403 15:33:35.258414  3222 net.cpp:425] loss1/classifier_plantvillage <- loss1/fc
I0403 15:33:35.258435  3222 net.cpp:399] loss1/classifier_plantvillage -> loss1/classifier_plantvillage
I0403 15:33:35.259397  3222 net.cpp:141] Setting up loss1/classifier_plantvillage
I0403 15:33:35.259428  3222 net.cpp:148] Top shape: 24 38 (912)
I0403 15:33:35.259445  3222 net.cpp:156] Memory required for data: 946192992
I0403 15:33:35.259464  3222 layer_factory.hpp:77] Creating layer loss1/classifier_plantvillage_loss1/classifier_plantvillage_0_split
I0403 15:33:35.259485  3222 net.cpp:91] Creating Layer loss1/classifier_plantvillage_loss1/classifier_plantvillage_0_split
I0403 15:33:35.259502  3222 net.cpp:425] loss1/classifier_plantvillage_loss1/classifier_plantvillage_0_split <- loss1/classifier_plantvillage
I0403 15:33:35.259524  3222 net.cpp:399] loss1/classifier_plantvillage_loss1/classifier_plantvillage_0_split -> loss1/classifier_plantvillage_loss1/classifier_plantvillage_0_split_0
I0403 15:33:35.259546  3222 net.cpp:399] loss1/classifier_plantvillage_loss1/classifier_plantvillage_0_split -> loss1/classifier_plantvillage_loss1/classifier_plantvillage_0_split_1
I0403 15:33:35.259567  3222 net.cpp:399] loss1/classifier_plantvillage_loss1/classifier_plantvillage_0_split -> loss1/classifier_plantvillage_loss1/classifier_plantvillage_0_split_2
I0403 15:33:35.259637  3222 net.cpp:141] Setting up loss1/classifier_plantvillage_loss1/classifier_plantvillage_0_split
I0403 15:33:35.259665  3222 net.cpp:148] Top shape: 24 38 (912)
I0403 15:33:35.259682  3222 net.cpp:148] Top shape: 24 38 (912)
I0403 15:33:35.259699  3222 net.cpp:148] Top shape: 24 38 (912)
I0403 15:33:35.259714  3222 net.cpp:156] Memory required for data: 946203936
I0403 15:33:35.259730  3222 layer_factory.hpp:77] Creating layer inception_4b/1x1
I0403 15:33:35.259752  3222 net.cpp:91] Creating Layer inception_4b/1x1
I0403 15:33:35.259788  3222 net.cpp:425] inception_4b/1x1 <- inception_4a/output_inception_4a/output_0_split_1
I0403 15:33:35.259810  3222 net.cpp:399] inception_4b/1x1 -> inception_4b/1x1
I0403 15:33:35.261582  3222 net.cpp:141] Setting up inception_4b/1x1
I0403 15:33:35.261613  3222 net.cpp:148] Top shape: 24 160 14 14 (752640)
I0403 15:33:35.261629  3222 net.cpp:156] Memory required for data: 949214496
I0403 15:33:35.261649  3222 layer_factory.hpp:77] Creating layer inception_4b/relu_1x1
I0403 15:33:35.261672  3222 net.cpp:91] Creating Layer inception_4b/relu_1x1
I0403 15:33:35.261690  3222 net.cpp:425] inception_4b/relu_1x1 <- inception_4b/1x1
I0403 15:33:35.261710  3222 net.cpp:386] inception_4b/relu_1x1 -> inception_4b/1x1 (in-place)
I0403 15:33:35.261904  3222 net.cpp:141] Setting up inception_4b/relu_1x1
I0403 15:33:35.261934  3222 net.cpp:148] Top shape: 24 160 14 14 (752640)
I0403 15:33:35.261950  3222 net.cpp:156] Memory required for data: 952225056
I0403 15:33:35.261965  3222 layer_factory.hpp:77] Creating layer inception_4b/3x3_reduce
I0403 15:33:35.261989  3222 net.cpp:91] Creating Layer inception_4b/3x3_reduce
I0403 15:33:35.262008  3222 net.cpp:425] inception_4b/3x3_reduce <- inception_4a/output_inception_4a/output_0_split_2
I0403 15:33:35.262029  3222 net.cpp:399] inception_4b/3x3_reduce -> inception_4b/3x3_reduce
I0403 15:33:35.263475  3222 net.cpp:141] Setting up inception_4b/3x3_reduce
I0403 15:33:35.263505  3222 net.cpp:148] Top shape: 24 112 14 14 (526848)
I0403 15:33:35.263522  3222 net.cpp:156] Memory required for data: 954332448
I0403 15:33:35.263542  3222 layer_factory.hpp:77] Creating layer inception_4b/relu_3x3_reduce
I0403 15:33:35.263566  3222 net.cpp:91] Creating Layer inception_4b/relu_3x3_reduce
I0403 15:33:35.263583  3222 net.cpp:425] inception_4b/relu_3x3_reduce <- inception_4b/3x3_reduce
I0403 15:33:35.263602  3222 net.cpp:386] inception_4b/relu_3x3_reduce -> inception_4b/3x3_reduce (in-place)
I0403 15:33:35.263902  3222 net.cpp:141] Setting up inception_4b/relu_3x3_reduce
I0403 15:33:35.263929  3222 net.cpp:148] Top shape: 24 112 14 14 (526848)
I0403 15:33:35.263947  3222 net.cpp:156] Memory required for data: 956439840
I0403 15:33:35.263962  3222 layer_factory.hpp:77] Creating layer inception_4b/3x3
I0403 15:33:35.263988  3222 net.cpp:91] Creating Layer inception_4b/3x3
I0403 15:33:35.264006  3222 net.cpp:425] inception_4b/3x3 <- inception_4b/3x3_reduce
I0403 15:33:35.264027  3222 net.cpp:399] inception_4b/3x3 -> inception_4b/3x3
I0403 15:33:35.267179  3222 net.cpp:141] Setting up inception_4b/3x3
I0403 15:33:35.267210  3222 net.cpp:148] Top shape: 24 224 14 14 (1053696)
I0403 15:33:35.267225  3222 net.cpp:156] Memory required for data: 960654624
I0403 15:33:35.267246  3222 layer_factory.hpp:77] Creating layer inception_4b/relu_3x3
I0403 15:33:35.267266  3222 net.cpp:91] Creating Layer inception_4b/relu_3x3
I0403 15:33:35.267290  3222 net.cpp:425] inception_4b/relu_3x3 <- inception_4b/3x3
I0403 15:33:35.267313  3222 net.cpp:386] inception_4b/relu_3x3 -> inception_4b/3x3 (in-place)
I0403 15:33:35.267508  3222 net.cpp:141] Setting up inception_4b/relu_3x3
I0403 15:33:35.267534  3222 net.cpp:148] Top shape: 24 224 14 14 (1053696)
I0403 15:33:35.267550  3222 net.cpp:156] Memory required for data: 964869408
I0403 15:33:35.267565  3222 layer_factory.hpp:77] Creating layer inception_4b/5x5_reduce
I0403 15:33:35.267590  3222 net.cpp:91] Creating Layer inception_4b/5x5_reduce
I0403 15:33:35.267608  3222 net.cpp:425] inception_4b/5x5_reduce <- inception_4a/output_inception_4a/output_0_split_3
I0403 15:33:35.267632  3222 net.cpp:399] inception_4b/5x5_reduce -> inception_4b/5x5_reduce
I0403 15:33:35.268784  3222 net.cpp:141] Setting up inception_4b/5x5_reduce
I0403 15:33:35.268812  3222 net.cpp:148] Top shape: 24 24 14 14 (112896)
I0403 15:33:35.268829  3222 net.cpp:156] Memory required for data: 965320992
I0403 15:33:35.268848  3222 layer_factory.hpp:77] Creating layer inception_4b/relu_5x5_reduce
I0403 15:33:35.268870  3222 net.cpp:91] Creating Layer inception_4b/relu_5x5_reduce
I0403 15:33:35.268903  3222 net.cpp:425] inception_4b/relu_5x5_reduce <- inception_4b/5x5_reduce
I0403 15:33:35.268923  3222 net.cpp:386] inception_4b/relu_5x5_reduce -> inception_4b/5x5_reduce (in-place)
I0403 15:33:35.269115  3222 net.cpp:141] Setting up inception_4b/relu_5x5_reduce
I0403 15:33:35.269145  3222 net.cpp:148] Top shape: 24 24 14 14 (112896)
I0403 15:33:35.269160  3222 net.cpp:156] Memory required for data: 965772576
I0403 15:33:35.269176  3222 layer_factory.hpp:77] Creating layer inception_4b/5x5
I0403 15:33:35.269199  3222 net.cpp:91] Creating Layer inception_4b/5x5
I0403 15:33:35.269219  3222 net.cpp:425] inception_4b/5x5 <- inception_4b/5x5_reduce
I0403 15:33:35.269242  3222 net.cpp:399] inception_4b/5x5 -> inception_4b/5x5
I0403 15:33:35.270552  3222 net.cpp:141] Setting up inception_4b/5x5
I0403 15:33:35.270582  3222 net.cpp:148] Top shape: 24 64 14 14 (301056)
I0403 15:33:35.270598  3222 net.cpp:156] Memory required for data: 966976800
I0403 15:33:35.270618  3222 layer_factory.hpp:77] Creating layer inception_4b/relu_5x5
I0403 15:33:35.270639  3222 net.cpp:91] Creating Layer inception_4b/relu_5x5
I0403 15:33:35.270658  3222 net.cpp:425] inception_4b/relu_5x5 <- inception_4b/5x5
I0403 15:33:35.270676  3222 net.cpp:386] inception_4b/relu_5x5 -> inception_4b/5x5 (in-place)
I0403 15:33:35.270978  3222 net.cpp:141] Setting up inception_4b/relu_5x5
I0403 15:33:35.271006  3222 net.cpp:148] Top shape: 24 64 14 14 (301056)
I0403 15:33:35.271023  3222 net.cpp:156] Memory required for data: 968181024
I0403 15:33:35.271039  3222 layer_factory.hpp:77] Creating layer inception_4b/pool
I0403 15:33:35.271060  3222 net.cpp:91] Creating Layer inception_4b/pool
I0403 15:33:35.271080  3222 net.cpp:425] inception_4b/pool <- inception_4a/output_inception_4a/output_0_split_4
I0403 15:33:35.271100  3222 net.cpp:399] inception_4b/pool -> inception_4b/pool
I0403 15:33:35.271172  3222 net.cpp:141] Setting up inception_4b/pool
I0403 15:33:35.271196  3222 net.cpp:148] Top shape: 24 512 14 14 (2408448)
I0403 15:33:35.271212  3222 net.cpp:156] Memory required for data: 977814816
I0403 15:33:35.271229  3222 layer_factory.hpp:77] Creating layer inception_4b/pool_proj
I0403 15:33:35.271252  3222 net.cpp:91] Creating Layer inception_4b/pool_proj
I0403 15:33:35.271277  3222 net.cpp:425] inception_4b/pool_proj <- inception_4b/pool
I0403 15:33:35.271302  3222 net.cpp:399] inception_4b/pool_proj -> inception_4b/pool_proj
I0403 15:33:35.272584  3222 net.cpp:141] Setting up inception_4b/pool_proj
I0403 15:33:35.272614  3222 net.cpp:148] Top shape: 24 64 14 14 (301056)
I0403 15:33:35.272631  3222 net.cpp:156] Memory required for data: 979019040
I0403 15:33:35.272651  3222 layer_factory.hpp:77] Creating layer inception_4b/relu_pool_proj
I0403 15:33:35.272673  3222 net.cpp:91] Creating Layer inception_4b/relu_pool_proj
I0403 15:33:35.272691  3222 net.cpp:425] inception_4b/relu_pool_proj <- inception_4b/pool_proj
I0403 15:33:35.272711  3222 net.cpp:386] inception_4b/relu_pool_proj -> inception_4b/pool_proj (in-place)
I0403 15:33:35.272902  3222 net.cpp:141] Setting up inception_4b/relu_pool_proj
I0403 15:33:35.272933  3222 net.cpp:148] Top shape: 24 64 14 14 (301056)
I0403 15:33:35.272948  3222 net.cpp:156] Memory required for data: 980223264
I0403 15:33:35.272964  3222 layer_factory.hpp:77] Creating layer inception_4b/output
I0403 15:33:35.272984  3222 net.cpp:91] Creating Layer inception_4b/output
I0403 15:33:35.273000  3222 net.cpp:425] inception_4b/output <- inception_4b/1x1
I0403 15:33:35.273020  3222 net.cpp:425] inception_4b/output <- inception_4b/3x3
I0403 15:33:35.273036  3222 net.cpp:425] inception_4b/output <- inception_4b/5x5
I0403 15:33:35.273053  3222 net.cpp:425] inception_4b/output <- inception_4b/pool_proj
I0403 15:33:35.273074  3222 net.cpp:399] inception_4b/output -> inception_4b/output
I0403 15:33:35.273123  3222 net.cpp:141] Setting up inception_4b/output
I0403 15:33:35.273147  3222 net.cpp:148] Top shape: 24 512 14 14 (2408448)
I0403 15:33:35.273164  3222 net.cpp:156] Memory required for data: 989857056
I0403 15:33:35.273195  3222 layer_factory.hpp:77] Creating layer inception_4b/output_inception_4b/output_0_split
I0403 15:33:35.273216  3222 net.cpp:91] Creating Layer inception_4b/output_inception_4b/output_0_split
I0403 15:33:35.273234  3222 net.cpp:425] inception_4b/output_inception_4b/output_0_split <- inception_4b/output
I0403 15:33:35.273254  3222 net.cpp:399] inception_4b/output_inception_4b/output_0_split -> inception_4b/output_inception_4b/output_0_split_0
I0403 15:33:35.273282  3222 net.cpp:399] inception_4b/output_inception_4b/output_0_split -> inception_4b/output_inception_4b/output_0_split_1
I0403 15:33:35.273308  3222 net.cpp:399] inception_4b/output_inception_4b/output_0_split -> inception_4b/output_inception_4b/output_0_split_2
I0403 15:33:35.273331  3222 net.cpp:399] inception_4b/output_inception_4b/output_0_split -> inception_4b/output_inception_4b/output_0_split_3
I0403 15:33:35.273422  3222 net.cpp:141] Setting up inception_4b/output_inception_4b/output_0_split
I0403 15:33:35.273448  3222 net.cpp:148] Top shape: 24 512 14 14 (2408448)
I0403 15:33:35.273466  3222 net.cpp:148] Top shape: 24 512 14 14 (2408448)
I0403 15:33:35.273483  3222 net.cpp:148] Top shape: 24 512 14 14 (2408448)
I0403 15:33:35.273500  3222 net.cpp:148] Top shape: 24 512 14 14 (2408448)
I0403 15:33:35.273516  3222 net.cpp:156] Memory required for data: 1028392224
I0403 15:33:35.273532  3222 layer_factory.hpp:77] Creating layer inception_4c/1x1
I0403 15:33:35.273556  3222 net.cpp:91] Creating Layer inception_4c/1x1
I0403 15:33:35.273576  3222 net.cpp:425] inception_4c/1x1 <- inception_4b/output_inception_4b/output_0_split_0
I0403 15:33:35.273597  3222 net.cpp:399] inception_4c/1x1 -> inception_4c/1x1
I0403 15:33:35.275126  3222 net.cpp:141] Setting up inception_4c/1x1
I0403 15:33:35.275159  3222 net.cpp:148] Top shape: 24 128 14 14 (602112)
I0403 15:33:35.275177  3222 net.cpp:156] Memory required for data: 1030800672
I0403 15:33:35.275197  3222 layer_factory.hpp:77] Creating layer inception_4c/relu_1x1
I0403 15:33:35.275215  3222 net.cpp:91] Creating Layer inception_4c/relu_1x1
I0403 15:33:35.275233  3222 net.cpp:425] inception_4c/relu_1x1 <- inception_4c/1x1
I0403 15:33:35.275254  3222 net.cpp:386] inception_4c/relu_1x1 -> inception_4c/1x1 (in-place)
I0403 15:33:35.275450  3222 net.cpp:141] Setting up inception_4c/relu_1x1
I0403 15:33:35.275477  3222 net.cpp:148] Top shape: 24 128 14 14 (602112)
I0403 15:33:35.275493  3222 net.cpp:156] Memory required for data: 1033209120
I0403 15:33:35.275509  3222 layer_factory.hpp:77] Creating layer inception_4c/3x3_reduce
I0403 15:33:35.275533  3222 net.cpp:91] Creating Layer inception_4c/3x3_reduce
I0403 15:33:35.275552  3222 net.cpp:425] inception_4c/3x3_reduce <- inception_4b/output_inception_4b/output_0_split_1
I0403 15:33:35.275574  3222 net.cpp:399] inception_4c/3x3_reduce -> inception_4c/3x3_reduce
I0403 15:33:35.277631  3222 net.cpp:141] Setting up inception_4c/3x3_reduce
I0403 15:33:35.277660  3222 net.cpp:148] Top shape: 24 128 14 14 (602112)
I0403 15:33:35.277678  3222 net.cpp:156] Memory required for data: 1035617568
I0403 15:33:35.277696  3222 layer_factory.hpp:77] Creating layer inception_4c/relu_3x3_reduce
I0403 15:33:35.277719  3222 net.cpp:91] Creating Layer inception_4c/relu_3x3_reduce
I0403 15:33:35.277735  3222 net.cpp:425] inception_4c/relu_3x3_reduce <- inception_4c/3x3_reduce
I0403 15:33:35.277755  3222 net.cpp:386] inception_4c/relu_3x3_reduce -> inception_4c/3x3_reduce (in-place)
I0403 15:33:35.278064  3222 net.cpp:141] Setting up inception_4c/relu_3x3_reduce
I0403 15:33:35.278091  3222 net.cpp:148] Top shape: 24 128 14 14 (602112)
I0403 15:33:35.278107  3222 net.cpp:156] Memory required for data: 1038026016
I0403 15:33:35.278123  3222 layer_factory.hpp:77] Creating layer inception_4c/3x3
I0403 15:33:35.278147  3222 net.cpp:91] Creating Layer inception_4c/3x3
I0403 15:33:35.278167  3222 net.cpp:425] inception_4c/3x3 <- inception_4c/3x3_reduce
I0403 15:33:35.278190  3222 net.cpp:399] inception_4c/3x3 -> inception_4c/3x3
I0403 15:33:35.282016  3222 net.cpp:141] Setting up inception_4c/3x3
I0403 15:33:35.282060  3222 net.cpp:148] Top shape: 24 256 14 14 (1204224)
I0403 15:33:35.282078  3222 net.cpp:156] Memory required for data: 1042842912
I0403 15:33:35.282111  3222 layer_factory.hpp:77] Creating layer inception_4c/relu_3x3
I0403 15:33:35.282135  3222 net.cpp:91] Creating Layer inception_4c/relu_3x3
I0403 15:33:35.282153  3222 net.cpp:425] inception_4c/relu_3x3 <- inception_4c/3x3
I0403 15:33:35.282171  3222 net.cpp:386] inception_4c/relu_3x3 -> inception_4c/3x3 (in-place)
I0403 15:33:35.282384  3222 net.cpp:141] Setting up inception_4c/relu_3x3
I0403 15:33:35.282412  3222 net.cpp:148] Top shape: 24 256 14 14 (1204224)
I0403 15:33:35.282428  3222 net.cpp:156] Memory required for data: 1047659808
I0403 15:33:35.282444  3222 layer_factory.hpp:77] Creating layer inception_4c/5x5_reduce
I0403 15:33:35.282470  3222 net.cpp:91] Creating Layer inception_4c/5x5_reduce
I0403 15:33:35.282490  3222 net.cpp:425] inception_4c/5x5_reduce <- inception_4b/output_inception_4b/output_0_split_2
I0403 15:33:35.282510  3222 net.cpp:399] inception_4c/5x5_reduce -> inception_4c/5x5_reduce
I0403 15:33:35.283668  3222 net.cpp:141] Setting up inception_4c/5x5_reduce
I0403 15:33:35.283699  3222 net.cpp:148] Top shape: 24 24 14 14 (112896)
I0403 15:33:35.283715  3222 net.cpp:156] Memory required for data: 1048111392
I0403 15:33:35.283735  3222 layer_factory.hpp:77] Creating layer inception_4c/relu_5x5_reduce
I0403 15:33:35.283756  3222 net.cpp:91] Creating Layer inception_4c/relu_5x5_reduce
I0403 15:33:35.283776  3222 net.cpp:425] inception_4c/relu_5x5_reduce <- inception_4c/5x5_reduce
I0403 15:33:35.283794  3222 net.cpp:386] inception_4c/relu_5x5_reduce -> inception_4c/5x5_reduce (in-place)
I0403 15:33:35.283987  3222 net.cpp:141] Setting up inception_4c/relu_5x5_reduce
I0403 15:33:35.284014  3222 net.cpp:148] Top shape: 24 24 14 14 (112896)
I0403 15:33:35.284032  3222 net.cpp:156] Memory required for data: 1048562976
I0403 15:33:35.284049  3222 layer_factory.hpp:77] Creating layer inception_4c/5x5
I0403 15:33:35.284072  3222 net.cpp:91] Creating Layer inception_4c/5x5
I0403 15:33:35.284090  3222 net.cpp:425] inception_4c/5x5 <- inception_4c/5x5_reduce
I0403 15:33:35.284111  3222 net.cpp:399] inception_4c/5x5 -> inception_4c/5x5
I0403 15:33:35.285440  3222 net.cpp:141] Setting up inception_4c/5x5
I0403 15:33:35.285471  3222 net.cpp:148] Top shape: 24 64 14 14 (301056)
I0403 15:33:35.285490  3222 net.cpp:156] Memory required for data: 1049767200
I0403 15:33:35.285509  3222 layer_factory.hpp:77] Creating layer inception_4c/relu_5x5
I0403 15:33:35.285528  3222 net.cpp:91] Creating Layer inception_4c/relu_5x5
I0403 15:33:35.285545  3222 net.cpp:425] inception_4c/relu_5x5 <- inception_4c/5x5
I0403 15:33:35.285567  3222 net.cpp:386] inception_4c/relu_5x5 -> inception_4c/5x5 (in-place)
I0403 15:33:35.285871  3222 net.cpp:141] Setting up inception_4c/relu_5x5
I0403 15:33:35.285900  3222 net.cpp:148] Top shape: 24 64 14 14 (301056)
I0403 15:33:35.285917  3222 net.cpp:156] Memory required for data: 1050971424
I0403 15:33:35.285933  3222 layer_factory.hpp:77] Creating layer inception_4c/pool
I0403 15:33:35.285953  3222 net.cpp:91] Creating Layer inception_4c/pool
I0403 15:33:35.285969  3222 net.cpp:425] inception_4c/pool <- inception_4b/output_inception_4b/output_0_split_3
I0403 15:33:35.285991  3222 net.cpp:399] inception_4c/pool -> inception_4c/pool
I0403 15:33:35.286065  3222 net.cpp:141] Setting up inception_4c/pool
I0403 15:33:35.286092  3222 net.cpp:148] Top shape: 24 512 14 14 (2408448)
I0403 15:33:35.286106  3222 net.cpp:156] Memory required for data: 1060605216
I0403 15:33:35.286123  3222 layer_factory.hpp:77] Creating layer inception_4c/pool_proj
I0403 15:33:35.286146  3222 net.cpp:91] Creating Layer inception_4c/pool_proj
I0403 15:33:35.286164  3222 net.cpp:425] inception_4c/pool_proj <- inception_4c/pool
I0403 15:33:35.286186  3222 net.cpp:399] inception_4c/pool_proj -> inception_4c/pool_proj
I0403 15:33:35.287489  3222 net.cpp:141] Setting up inception_4c/pool_proj
I0403 15:33:35.287518  3222 net.cpp:148] Top shape: 24 64 14 14 (301056)
I0403 15:33:35.287549  3222 net.cpp:156] Memory required for data: 1061809440
I0403 15:33:35.287569  3222 layer_factory.hpp:77] Creating layer inception_4c/relu_pool_proj
I0403 15:33:35.287592  3222 net.cpp:91] Creating Layer inception_4c/relu_pool_proj
I0403 15:33:35.287611  3222 net.cpp:425] inception_4c/relu_pool_proj <- inception_4c/pool_proj
I0403 15:33:35.287629  3222 net.cpp:386] inception_4c/relu_pool_proj -> inception_4c/pool_proj (in-place)
I0403 15:33:35.287824  3222 net.cpp:141] Setting up inception_4c/relu_pool_proj
I0403 15:33:35.287853  3222 net.cpp:148] Top shape: 24 64 14 14 (301056)
I0403 15:33:35.287871  3222 net.cpp:156] Memory required for data: 1063013664
I0403 15:33:35.287888  3222 layer_factory.hpp:77] Creating layer inception_4c/output
I0403 15:33:35.287905  3222 net.cpp:91] Creating Layer inception_4c/output
I0403 15:33:35.287921  3222 net.cpp:425] inception_4c/output <- inception_4c/1x1
I0403 15:33:35.287940  3222 net.cpp:425] inception_4c/output <- inception_4c/3x3
I0403 15:33:35.287956  3222 net.cpp:425] inception_4c/output <- inception_4c/5x5
I0403 15:33:35.287974  3222 net.cpp:425] inception_4c/output <- inception_4c/pool_proj
I0403 15:33:35.287994  3222 net.cpp:399] inception_4c/output -> inception_4c/output
I0403 15:33:35.288043  3222 net.cpp:141] Setting up inception_4c/output
I0403 15:33:35.288067  3222 net.cpp:148] Top shape: 24 512 14 14 (2408448)
I0403 15:33:35.288084  3222 net.cpp:156] Memory required for data: 1072647456
I0403 15:33:35.288100  3222 layer_factory.hpp:77] Creating layer inception_4c/output_inception_4c/output_0_split
I0403 15:33:35.288120  3222 net.cpp:91] Creating Layer inception_4c/output_inception_4c/output_0_split
I0403 15:33:35.288137  3222 net.cpp:425] inception_4c/output_inception_4c/output_0_split <- inception_4c/output
I0403 15:33:35.288156  3222 net.cpp:399] inception_4c/output_inception_4c/output_0_split -> inception_4c/output_inception_4c/output_0_split_0
I0403 15:33:35.288177  3222 net.cpp:399] inception_4c/output_inception_4c/output_0_split -> inception_4c/output_inception_4c/output_0_split_1
I0403 15:33:35.288198  3222 net.cpp:399] inception_4c/output_inception_4c/output_0_split -> inception_4c/output_inception_4c/output_0_split_2
I0403 15:33:35.288223  3222 net.cpp:399] inception_4c/output_inception_4c/output_0_split -> inception_4c/output_inception_4c/output_0_split_3
I0403 15:33:35.288336  3222 net.cpp:141] Setting up inception_4c/output_inception_4c/output_0_split
I0403 15:33:35.288362  3222 net.cpp:148] Top shape: 24 512 14 14 (2408448)
I0403 15:33:35.288379  3222 net.cpp:148] Top shape: 24 512 14 14 (2408448)
I0403 15:33:35.288395  3222 net.cpp:148] Top shape: 24 512 14 14 (2408448)
I0403 15:33:35.288413  3222 net.cpp:148] Top shape: 24 512 14 14 (2408448)
I0403 15:33:35.288427  3222 net.cpp:156] Memory required for data: 1111182624
I0403 15:33:35.288444  3222 layer_factory.hpp:77] Creating layer inception_4d/1x1
I0403 15:33:35.288466  3222 net.cpp:91] Creating Layer inception_4d/1x1
I0403 15:33:35.288486  3222 net.cpp:425] inception_4d/1x1 <- inception_4c/output_inception_4c/output_0_split_0
I0403 15:33:35.288507  3222 net.cpp:399] inception_4d/1x1 -> inception_4d/1x1
I0403 15:33:35.289983  3222 net.cpp:141] Setting up inception_4d/1x1
I0403 15:33:35.290012  3222 net.cpp:148] Top shape: 24 112 14 14 (526848)
I0403 15:33:35.290029  3222 net.cpp:156] Memory required for data: 1113290016
I0403 15:33:35.290048  3222 layer_factory.hpp:77] Creating layer inception_4d/relu_1x1
I0403 15:33:35.290071  3222 net.cpp:91] Creating Layer inception_4d/relu_1x1
I0403 15:33:35.290088  3222 net.cpp:425] inception_4d/relu_1x1 <- inception_4d/1x1
I0403 15:33:35.290107  3222 net.cpp:386] inception_4d/relu_1x1 -> inception_4d/1x1 (in-place)
I0403 15:33:35.290310  3222 net.cpp:141] Setting up inception_4d/relu_1x1
I0403 15:33:35.290336  3222 net.cpp:148] Top shape: 24 112 14 14 (526848)
I0403 15:33:35.290352  3222 net.cpp:156] Memory required for data: 1115397408
I0403 15:33:35.290369  3222 layer_factory.hpp:77] Creating layer inception_4d/3x3_reduce
I0403 15:33:35.290410  3222 net.cpp:91] Creating Layer inception_4d/3x3_reduce
I0403 15:33:35.290429  3222 net.cpp:425] inception_4d/3x3_reduce <- inception_4c/output_inception_4c/output_0_split_1
I0403 15:33:35.290452  3222 net.cpp:399] inception_4d/3x3_reduce -> inception_4d/3x3_reduce
I0403 15:33:35.292068  3222 net.cpp:141] Setting up inception_4d/3x3_reduce
I0403 15:33:35.292098  3222 net.cpp:148] Top shape: 24 144 14 14 (677376)
I0403 15:33:35.292114  3222 net.cpp:156] Memory required for data: 1118106912
I0403 15:33:35.292135  3222 layer_factory.hpp:77] Creating layer inception_4d/relu_3x3_reduce
I0403 15:33:35.292153  3222 net.cpp:91] Creating Layer inception_4d/relu_3x3_reduce
I0403 15:33:35.292171  3222 net.cpp:425] inception_4d/relu_3x3_reduce <- inception_4d/3x3_reduce
I0403 15:33:35.292191  3222 net.cpp:386] inception_4d/relu_3x3_reduce -> inception_4d/3x3_reduce (in-place)
I0403 15:33:35.292513  3222 net.cpp:141] Setting up inception_4d/relu_3x3_reduce
I0403 15:33:35.292541  3222 net.cpp:148] Top shape: 24 144 14 14 (677376)
I0403 15:33:35.292558  3222 net.cpp:156] Memory required for data: 1120816416
I0403 15:33:35.292574  3222 layer_factory.hpp:77] Creating layer inception_4d/3x3
I0403 15:33:35.292598  3222 net.cpp:91] Creating Layer inception_4d/3x3
I0403 15:33:35.292618  3222 net.cpp:425] inception_4d/3x3 <- inception_4d/3x3_reduce
I0403 15:33:35.292639  3222 net.cpp:399] inception_4d/3x3 -> inception_4d/3x3
I0403 15:33:35.297158  3222 net.cpp:141] Setting up inception_4d/3x3
I0403 15:33:35.297188  3222 net.cpp:148] Top shape: 24 288 14 14 (1354752)
I0403 15:33:35.297205  3222 net.cpp:156] Memory required for data: 1126235424
I0403 15:33:35.297225  3222 layer_factory.hpp:77] Creating layer inception_4d/relu_3x3
I0403 15:33:35.297247  3222 net.cpp:91] Creating Layer inception_4d/relu_3x3
I0403 15:33:35.297265  3222 net.cpp:425] inception_4d/relu_3x3 <- inception_4d/3x3
I0403 15:33:35.297291  3222 net.cpp:386] inception_4d/relu_3x3 -> inception_4d/3x3 (in-place)
I0403 15:33:35.297487  3222 net.cpp:141] Setting up inception_4d/relu_3x3
I0403 15:33:35.297514  3222 net.cpp:148] Top shape: 24 288 14 14 (1354752)
I0403 15:33:35.297533  3222 net.cpp:156] Memory required for data: 1131654432
I0403 15:33:35.297549  3222 layer_factory.hpp:77] Creating layer inception_4d/5x5_reduce
I0403 15:33:35.297570  3222 net.cpp:91] Creating Layer inception_4d/5x5_reduce
I0403 15:33:35.297588  3222 net.cpp:425] inception_4d/5x5_reduce <- inception_4c/output_inception_4c/output_0_split_2
I0403 15:33:35.297611  3222 net.cpp:399] inception_4d/5x5_reduce -> inception_4d/5x5_reduce
I0403 15:33:35.298836  3222 net.cpp:141] Setting up inception_4d/5x5_reduce
I0403 15:33:35.298866  3222 net.cpp:148] Top shape: 24 32 14 14 (150528)
I0403 15:33:35.298882  3222 net.cpp:156] Memory required for data: 1132256544
I0403 15:33:35.298902  3222 layer_factory.hpp:77] Creating layer inception_4d/relu_5x5_reduce
I0403 15:33:35.298924  3222 net.cpp:91] Creating Layer inception_4d/relu_5x5_reduce
I0403 15:33:35.298943  3222 net.cpp:425] inception_4d/relu_5x5_reduce <- inception_4d/5x5_reduce
I0403 15:33:35.298961  3222 net.cpp:386] inception_4d/relu_5x5_reduce -> inception_4d/5x5_reduce (in-place)
I0403 15:33:35.299163  3222 net.cpp:141] Setting up inception_4d/relu_5x5_reduce
I0403 15:33:35.299190  3222 net.cpp:148] Top shape: 24 32 14 14 (150528)
I0403 15:33:35.299206  3222 net.cpp:156] Memory required for data: 1132858656
I0403 15:33:35.299221  3222 layer_factory.hpp:77] Creating layer inception_4d/5x5
I0403 15:33:35.299245  3222 net.cpp:91] Creating Layer inception_4d/5x5
I0403 15:33:35.299263  3222 net.cpp:425] inception_4d/5x5 <- inception_4d/5x5_reduce
I0403 15:33:35.299291  3222 net.cpp:399] inception_4d/5x5 -> inception_4d/5x5
I0403 15:33:35.300864  3222 net.cpp:141] Setting up inception_4d/5x5
I0403 15:33:35.300894  3222 net.cpp:148] Top shape: 24 64 14 14 (301056)
I0403 15:33:35.300911  3222 net.cpp:156] Memory required for data: 1134062880
I0403 15:33:35.300931  3222 layer_factory.hpp:77] Creating layer inception_4d/relu_5x5
I0403 15:33:35.300968  3222 net.cpp:91] Creating Layer inception_4d/relu_5x5
I0403 15:33:35.300987  3222 net.cpp:425] inception_4d/relu_5x5 <- inception_4d/5x5
I0403 15:33:35.301007  3222 net.cpp:386] inception_4d/relu_5x5 -> inception_4d/5x5 (in-place)
I0403 15:33:35.301333  3222 net.cpp:141] Setting up inception_4d/relu_5x5
I0403 15:33:35.301362  3222 net.cpp:148] Top shape: 24 64 14 14 (301056)
I0403 15:33:35.301378  3222 net.cpp:156] Memory required for data: 1135267104
I0403 15:33:35.301393  3222 layer_factory.hpp:77] Creating layer inception_4d/pool
I0403 15:33:35.301416  3222 net.cpp:91] Creating Layer inception_4d/pool
I0403 15:33:35.301434  3222 net.cpp:425] inception_4d/pool <- inception_4c/output_inception_4c/output_0_split_3
I0403 15:33:35.301455  3222 net.cpp:399] inception_4d/pool -> inception_4d/pool
I0403 15:33:35.301527  3222 net.cpp:141] Setting up inception_4d/pool
I0403 15:33:35.301553  3222 net.cpp:148] Top shape: 24 512 14 14 (2408448)
I0403 15:33:35.301569  3222 net.cpp:156] Memory required for data: 1144900896
I0403 15:33:35.301585  3222 layer_factory.hpp:77] Creating layer inception_4d/pool_proj
I0403 15:33:35.301609  3222 net.cpp:91] Creating Layer inception_4d/pool_proj
I0403 15:33:35.301627  3222 net.cpp:425] inception_4d/pool_proj <- inception_4d/pool
I0403 15:33:35.301650  3222 net.cpp:399] inception_4d/pool_proj -> inception_4d/pool_proj
I0403 15:33:35.303525  3222 net.cpp:141] Setting up inception_4d/pool_proj
I0403 15:33:35.303556  3222 net.cpp:148] Top shape: 24 64 14 14 (301056)
I0403 15:33:35.303572  3222 net.cpp:156] Memory required for data: 1146105120
I0403 15:33:35.303592  3222 layer_factory.hpp:77] Creating layer inception_4d/relu_pool_proj
I0403 15:33:35.303614  3222 net.cpp:91] Creating Layer inception_4d/relu_pool_proj
I0403 15:33:35.303632  3222 net.cpp:425] inception_4d/relu_pool_proj <- inception_4d/pool_proj
I0403 15:33:35.303652  3222 net.cpp:386] inception_4d/relu_pool_proj -> inception_4d/pool_proj (in-place)
I0403 15:33:35.303846  3222 net.cpp:141] Setting up inception_4d/relu_pool_proj
I0403 15:33:35.303874  3222 net.cpp:148] Top shape: 24 64 14 14 (301056)
I0403 15:33:35.303892  3222 net.cpp:156] Memory required for data: 1147309344
I0403 15:33:35.303910  3222 layer_factory.hpp:77] Creating layer inception_4d/output
I0403 15:33:35.303928  3222 net.cpp:91] Creating Layer inception_4d/output
I0403 15:33:35.303946  3222 net.cpp:425] inception_4d/output <- inception_4d/1x1
I0403 15:33:35.303962  3222 net.cpp:425] inception_4d/output <- inception_4d/3x3
I0403 15:33:35.303980  3222 net.cpp:425] inception_4d/output <- inception_4d/5x5
I0403 15:33:35.303997  3222 net.cpp:425] inception_4d/output <- inception_4d/pool_proj
I0403 15:33:35.304016  3222 net.cpp:399] inception_4d/output -> inception_4d/output
I0403 15:33:35.304069  3222 net.cpp:141] Setting up inception_4d/output
I0403 15:33:35.304093  3222 net.cpp:148] Top shape: 24 528 14 14 (2483712)
I0403 15:33:35.304110  3222 net.cpp:156] Memory required for data: 1157244192
I0403 15:33:35.304126  3222 layer_factory.hpp:77] Creating layer inception_4d/output_inception_4d/output_0_split
I0403 15:33:35.304144  3222 net.cpp:91] Creating Layer inception_4d/output_inception_4d/output_0_split
I0403 15:33:35.304164  3222 net.cpp:425] inception_4d/output_inception_4d/output_0_split <- inception_4d/output
I0403 15:33:35.304184  3222 net.cpp:399] inception_4d/output_inception_4d/output_0_split -> inception_4d/output_inception_4d/output_0_split_0
I0403 15:33:35.304206  3222 net.cpp:399] inception_4d/output_inception_4d/output_0_split -> inception_4d/output_inception_4d/output_0_split_1
I0403 15:33:35.304229  3222 net.cpp:399] inception_4d/output_inception_4d/output_0_split -> inception_4d/output_inception_4d/output_0_split_2
I0403 15:33:35.304250  3222 net.cpp:399] inception_4d/output_inception_4d/output_0_split -> inception_4d/output_inception_4d/output_0_split_3
I0403 15:33:35.304280  3222 net.cpp:399] inception_4d/output_inception_4d/output_0_split -> inception_4d/output_inception_4d/output_0_split_4
I0403 15:33:35.304394  3222 net.cpp:141] Setting up inception_4d/output_inception_4d/output_0_split
I0403 15:33:35.304432  3222 net.cpp:148] Top shape: 24 528 14 14 (2483712)
I0403 15:33:35.304450  3222 net.cpp:148] Top shape: 24 528 14 14 (2483712)
I0403 15:33:35.304467  3222 net.cpp:148] Top shape: 24 528 14 14 (2483712)
I0403 15:33:35.304484  3222 net.cpp:148] Top shape: 24 528 14 14 (2483712)
I0403 15:33:35.304502  3222 net.cpp:148] Top shape: 24 528 14 14 (2483712)
I0403 15:33:35.304517  3222 net.cpp:156] Memory required for data: 1206918432
I0403 15:33:35.304533  3222 layer_factory.hpp:77] Creating layer loss2/ave_pool
I0403 15:33:35.304551  3222 net.cpp:91] Creating Layer loss2/ave_pool
I0403 15:33:35.304569  3222 net.cpp:425] loss2/ave_pool <- inception_4d/output_inception_4d/output_0_split_0
I0403 15:33:35.304591  3222 net.cpp:399] loss2/ave_pool -> loss2/ave_pool
I0403 15:33:35.304926  3222 net.cpp:141] Setting up loss2/ave_pool
I0403 15:33:35.304955  3222 net.cpp:148] Top shape: 24 528 4 4 (202752)
I0403 15:33:35.304971  3222 net.cpp:156] Memory required for data: 1207729440
I0403 15:33:35.304987  3222 layer_factory.hpp:77] Creating layer loss2/conv
I0403 15:33:35.305011  3222 net.cpp:91] Creating Layer loss2/conv
I0403 15:33:35.305029  3222 net.cpp:425] loss2/conv <- loss2/ave_pool
I0403 15:33:35.305052  3222 net.cpp:399] loss2/conv -> loss2/conv
I0403 15:33:35.307085  3222 net.cpp:141] Setting up loss2/conv
I0403 15:33:35.307117  3222 net.cpp:148] Top shape: 24 128 4 4 (49152)
I0403 15:33:35.307135  3222 net.cpp:156] Memory required for data: 1207926048
I0403 15:33:35.307155  3222 layer_factory.hpp:77] Creating layer loss2/relu_conv
I0403 15:33:35.307174  3222 net.cpp:91] Creating Layer loss2/relu_conv
I0403 15:33:35.307193  3222 net.cpp:425] loss2/relu_conv <- loss2/conv
I0403 15:33:35.307210  3222 net.cpp:386] loss2/relu_conv -> loss2/conv (in-place)
I0403 15:33:35.307533  3222 net.cpp:141] Setting up loss2/relu_conv
I0403 15:33:35.307574  3222 net.cpp:148] Top shape: 24 128 4 4 (49152)
I0403 15:33:35.307591  3222 net.cpp:156] Memory required for data: 1208122656
I0403 15:33:35.307607  3222 layer_factory.hpp:77] Creating layer loss2/fc
I0403 15:33:35.307627  3222 net.cpp:91] Creating Layer loss2/fc
I0403 15:33:35.307644  3222 net.cpp:425] loss2/fc <- loss2/conv
I0403 15:33:35.307667  3222 net.cpp:399] loss2/fc -> loss2/fc
I0403 15:33:35.325840  3222 net.cpp:141] Setting up loss2/fc
I0403 15:33:35.325871  3222 net.cpp:148] Top shape: 24 1024 (24576)
I0403 15:33:35.325888  3222 net.cpp:156] Memory required for data: 1208220960
I0403 15:33:35.325907  3222 layer_factory.hpp:77] Creating layer loss2/relu_fc
I0403 15:33:35.325928  3222 net.cpp:91] Creating Layer loss2/relu_fc
I0403 15:33:35.325947  3222 net.cpp:425] loss2/relu_fc <- loss2/fc
I0403 15:33:35.325964  3222 net.cpp:386] loss2/relu_fc -> loss2/fc (in-place)
I0403 15:33:35.326277  3222 net.cpp:141] Setting up loss2/relu_fc
I0403 15:33:35.326303  3222 net.cpp:148] Top shape: 24 1024 (24576)
I0403 15:33:35.326319  3222 net.cpp:156] Memory required for data: 1208319264
I0403 15:33:35.326335  3222 layer_factory.hpp:77] Creating layer loss2/drop_fc
I0403 15:33:35.326356  3222 net.cpp:91] Creating Layer loss2/drop_fc
I0403 15:33:35.326375  3222 net.cpp:425] loss2/drop_fc <- loss2/fc
I0403 15:33:35.326393  3222 net.cpp:386] loss2/drop_fc -> loss2/fc (in-place)
I0403 15:33:35.326447  3222 net.cpp:141] Setting up loss2/drop_fc
I0403 15:33:35.326470  3222 net.cpp:148] Top shape: 24 1024 (24576)
I0403 15:33:35.326485  3222 net.cpp:156] Memory required for data: 1208417568
I0403 15:33:35.326500  3222 layer_factory.hpp:77] Creating layer loss2/classifier_plantvillage
I0403 15:33:35.326519  3222 net.cpp:91] Creating Layer loss2/classifier_plantvillage
I0403 15:33:35.326536  3222 net.cpp:425] loss2/classifier_plantvillage <- loss2/fc
I0403 15:33:35.326558  3222 net.cpp:399] loss2/classifier_plantvillage -> loss2/classifier_plantvillage
I0403 15:33:35.326974  3222 net.cpp:141] Setting up loss2/classifier_plantvillage
I0403 15:33:35.327000  3222 net.cpp:148] Top shape: 24 38 (912)
I0403 15:33:35.327033  3222 net.cpp:156] Memory required for data: 1208421216
I0403 15:33:35.327054  3222 layer_factory.hpp:77] Creating layer loss2/classifier_plantvillage_loss2/classifier_plantvillage_0_split
I0403 15:33:35.327072  3222 net.cpp:91] Creating Layer loss2/classifier_plantvillage_loss2/classifier_plantvillage_0_split
I0403 15:33:35.327090  3222 net.cpp:425] loss2/classifier_plantvillage_loss2/classifier_plantvillage_0_split <- loss2/classifier_plantvillage
I0403 15:33:35.327107  3222 net.cpp:399] loss2/classifier_plantvillage_loss2/classifier_plantvillage_0_split -> loss2/classifier_plantvillage_loss2/classifier_plantvillage_0_split_0
I0403 15:33:35.327131  3222 net.cpp:399] loss2/classifier_plantvillage_loss2/classifier_plantvillage_0_split -> loss2/classifier_plantvillage_loss2/classifier_plantvillage_0_split_1
I0403 15:33:35.327153  3222 net.cpp:399] loss2/classifier_plantvillage_loss2/classifier_plantvillage_0_split -> loss2/classifier_plantvillage_loss2/classifier_plantvillage_0_split_2
I0403 15:33:35.327234  3222 net.cpp:141] Setting up loss2/classifier_plantvillage_loss2/classifier_plantvillage_0_split
I0403 15:33:35.327258  3222 net.cpp:148] Top shape: 24 38 (912)
I0403 15:33:35.327282  3222 net.cpp:148] Top shape: 24 38 (912)
I0403 15:33:35.327301  3222 net.cpp:148] Top shape: 24 38 (912)
I0403 15:33:35.327314  3222 net.cpp:156] Memory required for data: 1208432160
I0403 15:33:35.327329  3222 layer_factory.hpp:77] Creating layer inception_4e/1x1
I0403 15:33:35.327350  3222 net.cpp:91] Creating Layer inception_4e/1x1
I0403 15:33:35.327368  3222 net.cpp:425] inception_4e/1x1 <- inception_4d/output_inception_4d/output_0_split_1
I0403 15:33:35.327390  3222 net.cpp:399] inception_4e/1x1 -> inception_4e/1x1
I0403 15:33:35.329221  3222 net.cpp:141] Setting up inception_4e/1x1
I0403 15:33:35.329251  3222 net.cpp:148] Top shape: 24 256 14 14 (1204224)
I0403 15:33:35.329267  3222 net.cpp:156] Memory required for data: 1213249056
I0403 15:33:35.329293  3222 layer_factory.hpp:77] Creating layer inception_4e/relu_1x1
I0403 15:33:35.329313  3222 net.cpp:91] Creating Layer inception_4e/relu_1x1
I0403 15:33:35.329329  3222 net.cpp:425] inception_4e/relu_1x1 <- inception_4e/1x1
I0403 15:33:35.329347  3222 net.cpp:386] inception_4e/relu_1x1 -> inception_4e/1x1 (in-place)
I0403 15:33:35.329643  3222 net.cpp:141] Setting up inception_4e/relu_1x1
I0403 15:33:35.329670  3222 net.cpp:148] Top shape: 24 256 14 14 (1204224)
I0403 15:33:35.329685  3222 net.cpp:156] Memory required for data: 1218065952
I0403 15:33:35.329701  3222 layer_factory.hpp:77] Creating layer inception_4e/3x3_reduce
I0403 15:33:35.329725  3222 net.cpp:91] Creating Layer inception_4e/3x3_reduce
I0403 15:33:35.329741  3222 net.cpp:425] inception_4e/3x3_reduce <- inception_4d/output_inception_4d/output_0_split_2
I0403 15:33:35.329761  3222 net.cpp:399] inception_4e/3x3_reduce -> inception_4e/3x3_reduce
I0403 15:33:35.331933  3222 net.cpp:141] Setting up inception_4e/3x3_reduce
I0403 15:33:35.331961  3222 net.cpp:148] Top shape: 24 160 14 14 (752640)
I0403 15:33:35.331980  3222 net.cpp:156] Memory required for data: 1221076512
I0403 15:33:35.332000  3222 layer_factory.hpp:77] Creating layer inception_4e/relu_3x3_reduce
I0403 15:33:35.332018  3222 net.cpp:91] Creating Layer inception_4e/relu_3x3_reduce
I0403 15:33:35.332046  3222 net.cpp:425] inception_4e/relu_3x3_reduce <- inception_4e/3x3_reduce
I0403 15:33:35.332063  3222 net.cpp:386] inception_4e/relu_3x3_reduce -> inception_4e/3x3_reduce (in-place)
I0403 15:33:35.332259  3222 net.cpp:141] Setting up inception_4e/relu_3x3_reduce
I0403 15:33:35.332296  3222 net.cpp:148] Top shape: 24 160 14 14 (752640)
I0403 15:33:35.332314  3222 net.cpp:156] Memory required for data: 1224087072
I0403 15:33:35.332329  3222 layer_factory.hpp:77] Creating layer inception_4e/3x3
I0403 15:33:35.332351  3222 net.cpp:91] Creating Layer inception_4e/3x3
I0403 15:33:35.332370  3222 net.cpp:425] inception_4e/3x3 <- inception_4e/3x3_reduce
I0403 15:33:35.332388  3222 net.cpp:399] inception_4e/3x3 -> inception_4e/3x3
I0403 15:33:35.337268  3222 net.cpp:141] Setting up inception_4e/3x3
I0403 15:33:35.337317  3222 net.cpp:148] Top shape: 24 320 14 14 (1505280)
I0403 15:33:35.337334  3222 net.cpp:156] Memory required for data: 1230108192
I0403 15:33:35.337352  3222 layer_factory.hpp:77] Creating layer inception_4e/relu_3x3
I0403 15:33:35.337370  3222 net.cpp:91] Creating Layer inception_4e/relu_3x3
I0403 15:33:35.337385  3222 net.cpp:425] inception_4e/relu_3x3 <- inception_4e/3x3
I0403 15:33:35.337404  3222 net.cpp:386] inception_4e/relu_3x3 -> inception_4e/3x3 (in-place)
I0403 15:33:35.337702  3222 net.cpp:141] Setting up inception_4e/relu_3x3
I0403 15:33:35.337726  3222 net.cpp:148] Top shape: 24 320 14 14 (1505280)
I0403 15:33:35.337743  3222 net.cpp:156] Memory required for data: 1236129312
I0403 15:33:35.337756  3222 layer_factory.hpp:77] Creating layer inception_4e/5x5_reduce
I0403 15:33:35.337780  3222 net.cpp:91] Creating Layer inception_4e/5x5_reduce
I0403 15:33:35.337797  3222 net.cpp:425] inception_4e/5x5_reduce <- inception_4d/output_inception_4d/output_0_split_3
I0403 15:33:35.337817  3222 net.cpp:399] inception_4e/5x5_reduce -> inception_4e/5x5_reduce
I0403 15:33:35.338865  3222 net.cpp:141] Setting up inception_4e/5x5_reduce
I0403 15:33:35.338892  3222 net.cpp:148] Top shape: 24 32 14 14 (150528)
I0403 15:33:35.338907  3222 net.cpp:156] Memory required for data: 1236731424
I0403 15:33:35.338925  3222 layer_factory.hpp:77] Creating layer inception_4e/relu_5x5_reduce
I0403 15:33:35.338945  3222 net.cpp:91] Creating Layer inception_4e/relu_5x5_reduce
I0403 15:33:35.338961  3222 net.cpp:425] inception_4e/relu_5x5_reduce <- inception_4e/5x5_reduce
I0403 15:33:35.338979  3222 net.cpp:386] inception_4e/relu_5x5_reduce -> inception_4e/5x5_reduce (in-place)
I0403 15:33:35.339280  3222 net.cpp:141] Setting up inception_4e/relu_5x5_reduce
I0403 15:33:35.339305  3222 net.cpp:148] Top shape: 24 32 14 14 (150528)
I0403 15:33:35.339321  3222 net.cpp:156] Memory required for data: 1237333536
I0403 15:33:35.339336  3222 layer_factory.hpp:77] Creating layer inception_4e/5x5
I0403 15:33:35.339375  3222 net.cpp:91] Creating Layer inception_4e/5x5
I0403 15:33:35.339395  3222 net.cpp:425] inception_4e/5x5 <- inception_4e/5x5_reduce
I0403 15:33:35.339413  3222 net.cpp:399] inception_4e/5x5 -> inception_4e/5x5
I0403 15:33:35.341212  3222 net.cpp:141] Setting up inception_4e/5x5
I0403 15:33:35.341240  3222 net.cpp:148] Top shape: 24 128 14 14 (602112)
I0403 15:33:35.341256  3222 net.cpp:156] Memory required for data: 1239741984
I0403 15:33:35.341280  3222 layer_factory.hpp:77] Creating layer inception_4e/relu_5x5
I0403 15:33:35.341302  3222 net.cpp:91] Creating Layer inception_4e/relu_5x5
I0403 15:33:35.341320  3222 net.cpp:425] inception_4e/relu_5x5 <- inception_4e/5x5
I0403 15:33:35.341336  3222 net.cpp:386] inception_4e/relu_5x5 -> inception_4e/5x5 (in-place)
I0403 15:33:35.341527  3222 net.cpp:141] Setting up inception_4e/relu_5x5
I0403 15:33:35.341570  3222 net.cpp:148] Top shape: 24 128 14 14 (602112)
I0403 15:33:35.341590  3222 net.cpp:156] Memory required for data: 1242150432
I0403 15:33:35.341614  3222 layer_factory.hpp:77] Creating layer inception_4e/pool
I0403 15:33:35.341639  3222 net.cpp:91] Creating Layer inception_4e/pool
I0403 15:33:35.341655  3222 net.cpp:425] inception_4e/pool <- inception_4d/output_inception_4d/output_0_split_4
I0403 15:33:35.341675  3222 net.cpp:399] inception_4e/pool -> inception_4e/pool
I0403 15:33:35.341753  3222 net.cpp:141] Setting up inception_4e/pool
I0403 15:33:35.341776  3222 net.cpp:148] Top shape: 24 528 14 14 (2483712)
I0403 15:33:35.341791  3222 net.cpp:156] Memory required for data: 1252085280
I0403 15:33:35.341807  3222 layer_factory.hpp:77] Creating layer inception_4e/pool_proj
I0403 15:33:35.341830  3222 net.cpp:91] Creating Layer inception_4e/pool_proj
I0403 15:33:35.341859  3222 net.cpp:425] inception_4e/pool_proj <- inception_4e/pool
I0403 15:33:35.341879  3222 net.cpp:399] inception_4e/pool_proj -> inception_4e/pool_proj
I0403 15:33:35.343410  3222 net.cpp:141] Setting up inception_4e/pool_proj
I0403 15:33:35.343451  3222 net.cpp:148] Top shape: 24 128 14 14 (602112)
I0403 15:33:35.343475  3222 net.cpp:156] Memory required for data: 1254493728
I0403 15:33:35.343493  3222 layer_factory.hpp:77] Creating layer inception_4e/relu_pool_proj
I0403 15:33:35.343514  3222 net.cpp:91] Creating Layer inception_4e/relu_pool_proj
I0403 15:33:35.343530  3222 net.cpp:425] inception_4e/relu_pool_proj <- inception_4e/pool_proj
I0403 15:33:35.343549  3222 net.cpp:386] inception_4e/relu_pool_proj -> inception_4e/pool_proj (in-place)
I0403 15:33:35.343842  3222 net.cpp:141] Setting up inception_4e/relu_pool_proj
I0403 15:33:35.343868  3222 net.cpp:148] Top shape: 24 128 14 14 (602112)
I0403 15:33:35.343883  3222 net.cpp:156] Memory required for data: 1256902176
I0403 15:33:35.343900  3222 layer_factory.hpp:77] Creating layer inception_4e/output
I0403 15:33:35.343919  3222 net.cpp:91] Creating Layer inception_4e/output
I0403 15:33:35.343933  3222 net.cpp:425] inception_4e/output <- inception_4e/1x1
I0403 15:33:35.343950  3222 net.cpp:425] inception_4e/output <- inception_4e/3x3
I0403 15:33:35.343966  3222 net.cpp:425] inception_4e/output <- inception_4e/5x5
I0403 15:33:35.343983  3222 net.cpp:425] inception_4e/output <- inception_4e/pool_proj
I0403 15:33:35.344003  3222 net.cpp:399] inception_4e/output -> inception_4e/output
I0403 15:33:35.344056  3222 net.cpp:141] Setting up inception_4e/output
I0403 15:33:35.344080  3222 net.cpp:148] Top shape: 24 832 14 14 (3913728)
I0403 15:33:35.344095  3222 net.cpp:156] Memory required for data: 1272557088
I0403 15:33:35.344110  3222 layer_factory.hpp:77] Creating layer pool4/3x3_s2
I0403 15:33:35.344128  3222 net.cpp:91] Creating Layer pool4/3x3_s2
I0403 15:33:35.344144  3222 net.cpp:425] pool4/3x3_s2 <- inception_4e/output
I0403 15:33:35.344166  3222 net.cpp:399] pool4/3x3_s2 -> pool4/3x3_s2
I0403 15:33:35.344233  3222 net.cpp:141] Setting up pool4/3x3_s2
I0403 15:33:35.344257  3222 net.cpp:148] Top shape: 24 832 7 7 (978432)
I0403 15:33:35.344280  3222 net.cpp:156] Memory required for data: 1276470816
I0403 15:33:35.344311  3222 layer_factory.hpp:77] Creating layer pool4/3x3_s2_pool4/3x3_s2_0_split
I0403 15:33:35.344334  3222 net.cpp:91] Creating Layer pool4/3x3_s2_pool4/3x3_s2_0_split
I0403 15:33:35.344352  3222 net.cpp:425] pool4/3x3_s2_pool4/3x3_s2_0_split <- pool4/3x3_s2
I0403 15:33:35.344369  3222 net.cpp:399] pool4/3x3_s2_pool4/3x3_s2_0_split -> pool4/3x3_s2_pool4/3x3_s2_0_split_0
I0403 15:33:35.344390  3222 net.cpp:399] pool4/3x3_s2_pool4/3x3_s2_0_split -> pool4/3x3_s2_pool4/3x3_s2_0_split_1
I0403 15:33:35.344414  3222 net.cpp:399] pool4/3x3_s2_pool4/3x3_s2_0_split -> pool4/3x3_s2_pool4/3x3_s2_0_split_2
I0403 15:33:35.344435  3222 net.cpp:399] pool4/3x3_s2_pool4/3x3_s2_0_split -> pool4/3x3_s2_pool4/3x3_s2_0_split_3
I0403 15:33:35.344530  3222 net.cpp:141] Setting up pool4/3x3_s2_pool4/3x3_s2_0_split
I0403 15:33:35.344554  3222 net.cpp:148] Top shape: 24 832 7 7 (978432)
I0403 15:33:35.344571  3222 net.cpp:148] Top shape: 24 832 7 7 (978432)
I0403 15:33:35.344588  3222 net.cpp:148] Top shape: 24 832 7 7 (978432)
I0403 15:33:35.344604  3222 net.cpp:148] Top shape: 24 832 7 7 (978432)
I0403 15:33:35.344619  3222 net.cpp:156] Memory required for data: 1292125728
I0403 15:33:35.344633  3222 layer_factory.hpp:77] Creating layer inception_5a/1x1
I0403 15:33:35.344656  3222 net.cpp:91] Creating Layer inception_5a/1x1
I0403 15:33:35.344674  3222 net.cpp:425] inception_5a/1x1 <- pool4/3x3_s2_pool4/3x3_s2_0_split_0
I0403 15:33:35.344696  3222 net.cpp:399] inception_5a/1x1 -> inception_5a/1x1
I0403 15:33:35.347673  3222 net.cpp:141] Setting up inception_5a/1x1
I0403 15:33:35.347705  3222 net.cpp:148] Top shape: 24 256 7 7 (301056)
I0403 15:33:35.347733  3222 net.cpp:156] Memory required for data: 1293329952
I0403 15:33:35.347753  3222 layer_factory.hpp:77] Creating layer inception_5a/relu_1x1
I0403 15:33:35.347774  3222 net.cpp:91] Creating Layer inception_5a/relu_1x1
I0403 15:33:35.347805  3222 net.cpp:425] inception_5a/relu_1x1 <- inception_5a/1x1
I0403 15:33:35.347823  3222 net.cpp:386] inception_5a/relu_1x1 -> inception_5a/1x1 (in-place)
I0403 15:33:35.348158  3222 net.cpp:141] Setting up inception_5a/relu_1x1
I0403 15:33:35.348186  3222 net.cpp:148] Top shape: 24 256 7 7 (301056)
I0403 15:33:35.348203  3222 net.cpp:156] Memory required for data: 1294534176
I0403 15:33:35.348219  3222 layer_factory.hpp:77] Creating layer inception_5a/3x3_reduce
I0403 15:33:35.348243  3222 net.cpp:91] Creating Layer inception_5a/3x3_reduce
I0403 15:33:35.348263  3222 net.cpp:425] inception_5a/3x3_reduce <- pool4/3x3_s2_pool4/3x3_s2_0_split_1
I0403 15:33:35.348294  3222 net.cpp:399] inception_5a/3x3_reduce -> inception_5a/3x3_reduce
I0403 15:33:35.350849  3222 net.cpp:141] Setting up inception_5a/3x3_reduce
I0403 15:33:35.350879  3222 net.cpp:148] Top shape: 24 160 7 7 (188160)
I0403 15:33:35.350896  3222 net.cpp:156] Memory required for data: 1295286816
I0403 15:33:35.350915  3222 layer_factory.hpp:77] Creating layer inception_5a/relu_3x3_reduce
I0403 15:33:35.350934  3222 net.cpp:91] Creating Layer inception_5a/relu_3x3_reduce
I0403 15:33:35.350950  3222 net.cpp:425] inception_5a/relu_3x3_reduce <- inception_5a/3x3_reduce
I0403 15:33:35.350971  3222 net.cpp:386] inception_5a/relu_3x3_reduce -> inception_5a/3x3_reduce (in-place)
I0403 15:33:35.351164  3222 net.cpp:141] Setting up inception_5a/relu_3x3_reduce
I0403 15:33:35.351189  3222 net.cpp:148] Top shape: 24 160 7 7 (188160)
I0403 15:33:35.351205  3222 net.cpp:156] Memory required for data: 1296039456
I0403 15:33:35.351220  3222 layer_factory.hpp:77] Creating layer inception_5a/3x3
I0403 15:33:35.351244  3222 net.cpp:91] Creating Layer inception_5a/3x3
I0403 15:33:35.351263  3222 net.cpp:425] inception_5a/3x3 <- inception_5a/3x3_reduce
I0403 15:33:35.351292  3222 net.cpp:399] inception_5a/3x3 -> inception_5a/3x3
I0403 15:33:35.356560  3222 net.cpp:141] Setting up inception_5a/3x3
I0403 15:33:35.356591  3222 net.cpp:148] Top shape: 24 320 7 7 (376320)
I0403 15:33:35.356608  3222 net.cpp:156] Memory required for data: 1297544736
I0403 15:33:35.356627  3222 layer_factory.hpp:77] Creating layer inception_5a/relu_3x3
I0403 15:33:35.356649  3222 net.cpp:91] Creating Layer inception_5a/relu_3x3
I0403 15:33:35.356667  3222 net.cpp:425] inception_5a/relu_3x3 <- inception_5a/3x3
I0403 15:33:35.356686  3222 net.cpp:386] inception_5a/relu_3x3 -> inception_5a/3x3 (in-place)
I0403 15:33:35.356991  3222 net.cpp:141] Setting up inception_5a/relu_3x3
I0403 15:33:35.357017  3222 net.cpp:148] Top shape: 24 320 7 7 (376320)
I0403 15:33:35.357033  3222 net.cpp:156] Memory required for data: 1299050016
I0403 15:33:35.357049  3222 layer_factory.hpp:77] Creating layer inception_5a/5x5_reduce
I0403 15:33:35.357072  3222 net.cpp:91] Creating Layer inception_5a/5x5_reduce
I0403 15:33:35.357091  3222 net.cpp:425] inception_5a/5x5_reduce <- pool4/3x3_s2_pool4/3x3_s2_0_split_2
I0403 15:33:35.357115  3222 net.cpp:399] inception_5a/5x5_reduce -> inception_5a/5x5_reduce
I0403 15:33:35.358345  3222 net.cpp:141] Setting up inception_5a/5x5_reduce
I0403 15:33:35.358376  3222 net.cpp:148] Top shape: 24 32 7 7 (37632)
I0403 15:33:35.358393  3222 net.cpp:156] Memory required for data: 1299200544
I0403 15:33:35.358412  3222 layer_factory.hpp:77] Creating layer inception_5a/relu_5x5_reduce
I0403 15:33:35.358431  3222 net.cpp:91] Creating Layer inception_5a/relu_5x5_reduce
I0403 15:33:35.358448  3222 net.cpp:425] inception_5a/relu_5x5_reduce <- inception_5a/5x5_reduce
I0403 15:33:35.358466  3222 net.cpp:386] inception_5a/relu_5x5_reduce -> inception_5a/5x5_reduce (in-place)
I0403 15:33:35.358777  3222 net.cpp:141] Setting up inception_5a/relu_5x5_reduce
I0403 15:33:35.358806  3222 net.cpp:148] Top shape: 24 32 7 7 (37632)
I0403 15:33:35.358824  3222 net.cpp:156] Memory required for data: 1299351072
I0403 15:33:35.358839  3222 layer_factory.hpp:77] Creating layer inception_5a/5x5
I0403 15:33:35.358862  3222 net.cpp:91] Creating Layer inception_5a/5x5
I0403 15:33:35.358881  3222 net.cpp:425] inception_5a/5x5 <- inception_5a/5x5_reduce
I0403 15:33:35.358901  3222 net.cpp:399] inception_5a/5x5 -> inception_5a/5x5
I0403 15:33:35.360756  3222 net.cpp:141] Setting up inception_5a/5x5
I0403 15:33:35.360800  3222 net.cpp:148] Top shape: 24 128 7 7 (150528)
I0403 15:33:35.360817  3222 net.cpp:156] Memory required for data: 1299953184
I0403 15:33:35.360837  3222 layer_factory.hpp:77] Creating layer inception_5a/relu_5x5
I0403 15:33:35.360858  3222 net.cpp:91] Creating Layer inception_5a/relu_5x5
I0403 15:33:35.360877  3222 net.cpp:425] inception_5a/relu_5x5 <- inception_5a/5x5
I0403 15:33:35.360895  3222 net.cpp:386] inception_5a/relu_5x5 -> inception_5a/5x5 (in-place)
I0403 15:33:35.361099  3222 net.cpp:141] Setting up inception_5a/relu_5x5
I0403 15:33:35.361126  3222 net.cpp:148] Top shape: 24 128 7 7 (150528)
I0403 15:33:35.361143  3222 net.cpp:156] Memory required for data: 1300555296
I0403 15:33:35.361160  3222 layer_factory.hpp:77] Creating layer inception_5a/pool
I0403 15:33:35.361179  3222 net.cpp:91] Creating Layer inception_5a/pool
I0403 15:33:35.361196  3222 net.cpp:425] inception_5a/pool <- pool4/3x3_s2_pool4/3x3_s2_0_split_3
I0403 15:33:35.361217  3222 net.cpp:399] inception_5a/pool -> inception_5a/pool
I0403 15:33:35.361302  3222 net.cpp:141] Setting up inception_5a/pool
I0403 15:33:35.361327  3222 net.cpp:148] Top shape: 24 832 7 7 (978432)
I0403 15:33:35.361343  3222 net.cpp:156] Memory required for data: 1304469024
I0403 15:33:35.361359  3222 layer_factory.hpp:77] Creating layer inception_5a/pool_proj
I0403 15:33:35.361382  3222 net.cpp:91] Creating Layer inception_5a/pool_proj
I0403 15:33:35.361402  3222 net.cpp:425] inception_5a/pool_proj <- inception_5a/pool
I0403 15:33:35.361424  3222 net.cpp:399] inception_5a/pool_proj -> inception_5a/pool_proj
I0403 15:33:35.363873  3222 net.cpp:141] Setting up inception_5a/pool_proj
I0403 15:33:35.363903  3222 net.cpp:148] Top shape: 24 128 7 7 (150528)
I0403 15:33:35.363919  3222 net.cpp:156] Memory required for data: 1305071136
I0403 15:33:35.363939  3222 layer_factory.hpp:77] Creating layer inception_5a/relu_pool_proj
I0403 15:33:35.363960  3222 net.cpp:91] Creating Layer inception_5a/relu_pool_proj
I0403 15:33:35.363977  3222 net.cpp:425] inception_5a/relu_pool_proj <- inception_5a/pool_proj
I0403 15:33:35.363996  3222 net.cpp:386] inception_5a/relu_pool_proj -> inception_5a/pool_proj (in-place)
I0403 15:33:35.364310  3222 net.cpp:141] Setting up inception_5a/relu_pool_proj
I0403 15:33:35.364336  3222 net.cpp:148] Top shape: 24 128 7 7 (150528)
I0403 15:33:35.364351  3222 net.cpp:156] Memory required for data: 1305673248
I0403 15:33:35.364367  3222 layer_factory.hpp:77] Creating layer inception_5a/output
I0403 15:33:35.364385  3222 net.cpp:91] Creating Layer inception_5a/output
I0403 15:33:35.364405  3222 net.cpp:425] inception_5a/output <- inception_5a/1x1
I0403 15:33:35.364423  3222 net.cpp:425] inception_5a/output <- inception_5a/3x3
I0403 15:33:35.364439  3222 net.cpp:425] inception_5a/output <- inception_5a/5x5
I0403 15:33:35.364456  3222 net.cpp:425] inception_5a/output <- inception_5a/pool_proj
I0403 15:33:35.364475  3222 net.cpp:399] inception_5a/output -> inception_5a/output
I0403 15:33:35.364526  3222 net.cpp:141] Setting up inception_5a/output
I0403 15:33:35.364552  3222 net.cpp:148] Top shape: 24 832 7 7 (978432)
I0403 15:33:35.364568  3222 net.cpp:156] Memory required for data: 1309586976
I0403 15:33:35.364584  3222 layer_factory.hpp:77] Creating layer inception_5a/output_inception_5a/output_0_split
I0403 15:33:35.364603  3222 net.cpp:91] Creating Layer inception_5a/output_inception_5a/output_0_split
I0403 15:33:35.364619  3222 net.cpp:425] inception_5a/output_inception_5a/output_0_split <- inception_5a/output
I0403 15:33:35.364639  3222 net.cpp:399] inception_5a/output_inception_5a/output_0_split -> inception_5a/output_inception_5a/output_0_split_0
I0403 15:33:35.364661  3222 net.cpp:399] inception_5a/output_inception_5a/output_0_split -> inception_5a/output_inception_5a/output_0_split_1
I0403 15:33:35.364683  3222 net.cpp:399] inception_5a/output_inception_5a/output_0_split -> inception_5a/output_inception_5a/output_0_split_2
I0403 15:33:35.364706  3222 net.cpp:399] inception_5a/output_inception_5a/output_0_split -> inception_5a/output_inception_5a/output_0_split_3
I0403 15:33:35.364821  3222 net.cpp:141] Setting up inception_5a/output_inception_5a/output_0_split
I0403 15:33:35.364848  3222 net.cpp:148] Top shape: 24 832 7 7 (978432)
I0403 15:33:35.364866  3222 net.cpp:148] Top shape: 24 832 7 7 (978432)
I0403 15:33:35.364883  3222 net.cpp:148] Top shape: 24 832 7 7 (978432)
I0403 15:33:35.364900  3222 net.cpp:148] Top shape: 24 832 7 7 (978432)
I0403 15:33:35.364914  3222 net.cpp:156] Memory required for data: 1325241888
I0403 15:33:35.364930  3222 layer_factory.hpp:77] Creating layer inception_5b/1x1
I0403 15:33:35.364953  3222 net.cpp:91] Creating Layer inception_5b/1x1
I0403 15:33:35.364971  3222 net.cpp:425] inception_5b/1x1 <- inception_5a/output_inception_5a/output_0_split_0
I0403 15:33:35.364992  3222 net.cpp:399] inception_5b/1x1 -> inception_5b/1x1
I0403 15:33:35.368912  3222 net.cpp:141] Setting up inception_5b/1x1
I0403 15:33:35.368942  3222 net.cpp:148] Top shape: 24 384 7 7 (451584)
I0403 15:33:35.368959  3222 net.cpp:156] Memory required for data: 1327048224
I0403 15:33:35.368978  3222 layer_factory.hpp:77] Creating layer inception_5b/relu_1x1
I0403 15:33:35.368998  3222 net.cpp:91] Creating Layer inception_5b/relu_1x1
I0403 15:33:35.369014  3222 net.cpp:425] inception_5b/relu_1x1 <- inception_5b/1x1
I0403 15:33:35.369035  3222 net.cpp:386] inception_5b/relu_1x1 -> inception_5b/1x1 (in-place)
I0403 15:33:35.369359  3222 net.cpp:141] Setting up inception_5b/relu_1x1
I0403 15:33:35.369385  3222 net.cpp:148] Top shape: 24 384 7 7 (451584)
I0403 15:33:35.369402  3222 net.cpp:156] Memory required for data: 1328854560
I0403 15:33:35.369417  3222 layer_factory.hpp:77] Creating layer inception_5b/3x3_reduce
I0403 15:33:35.369441  3222 net.cpp:91] Creating Layer inception_5b/3x3_reduce
I0403 15:33:35.369459  3222 net.cpp:425] inception_5b/3x3_reduce <- inception_5a/output_inception_5a/output_0_split_1
I0403 15:33:35.369482  3222 net.cpp:399] inception_5b/3x3_reduce -> inception_5b/3x3_reduce
I0403 15:33:35.372236  3222 net.cpp:141] Setting up inception_5b/3x3_reduce
I0403 15:33:35.372267  3222 net.cpp:148] Top shape: 24 192 7 7 (225792)
I0403 15:33:35.372298  3222 net.cpp:156] Memory required for data: 1329757728
I0403 15:33:35.372318  3222 layer_factory.hpp:77] Creating layer inception_5b/relu_3x3_reduce
I0403 15:33:35.372339  3222 net.cpp:91] Creating Layer inception_5b/relu_3x3_reduce
I0403 15:33:35.372357  3222 net.cpp:425] inception_5b/relu_3x3_reduce <- inception_5b/3x3_reduce
I0403 15:33:35.372375  3222 net.cpp:386] inception_5b/relu_3x3_reduce -> inception_5b/3x3_reduce (in-place)
I0403 15:33:35.372572  3222 net.cpp:141] Setting up inception_5b/relu_3x3_reduce
I0403 15:33:35.372598  3222 net.cpp:148] Top shape: 24 192 7 7 (225792)
I0403 15:33:35.372613  3222 net.cpp:156] Memory required for data: 1330660896
I0403 15:33:35.372629  3222 layer_factory.hpp:77] Creating layer inception_5b/3x3
I0403 15:33:35.372654  3222 net.cpp:91] Creating Layer inception_5b/3x3
I0403 15:33:35.372673  3222 net.cpp:425] inception_5b/3x3 <- inception_5b/3x3_reduce
I0403 15:33:35.372694  3222 net.cpp:399] inception_5b/3x3 -> inception_5b/3x3
I0403 15:33:35.379638  3222 net.cpp:141] Setting up inception_5b/3x3
I0403 15:33:35.379668  3222 net.cpp:148] Top shape: 24 384 7 7 (451584)
I0403 15:33:35.379684  3222 net.cpp:156] Memory required for data: 1332467232
I0403 15:33:35.379703  3222 layer_factory.hpp:77] Creating layer inception_5b/relu_3x3
I0403 15:33:35.379725  3222 net.cpp:91] Creating Layer inception_5b/relu_3x3
I0403 15:33:35.379742  3222 net.cpp:425] inception_5b/relu_3x3 <- inception_5b/3x3
I0403 15:33:35.379761  3222 net.cpp:386] inception_5b/relu_3x3 -> inception_5b/3x3 (in-place)
I0403 15:33:35.380074  3222 net.cpp:141] Setting up inception_5b/relu_3x3
I0403 15:33:35.380101  3222 net.cpp:148] Top shape: 24 384 7 7 (451584)
I0403 15:33:35.380117  3222 net.cpp:156] Memory required for data: 1334273568
I0403 15:33:35.380133  3222 layer_factory.hpp:77] Creating layer inception_5b/5x5_reduce
I0403 15:33:35.380175  3222 net.cpp:91] Creating Layer inception_5b/5x5_reduce
I0403 15:33:35.380195  3222 net.cpp:425] inception_5b/5x5_reduce <- inception_5a/output_inception_5a/output_0_split_2
I0403 15:33:35.380218  3222 net.cpp:399] inception_5b/5x5_reduce -> inception_5b/5x5_reduce
I0403 15:33:35.381556  3222 net.cpp:141] Setting up inception_5b/5x5_reduce
I0403 15:33:35.381583  3222 net.cpp:148] Top shape: 24 48 7 7 (56448)
I0403 15:33:35.381598  3222 net.cpp:156] Memory required for data: 1334499360
I0403 15:33:35.381618  3222 layer_factory.hpp:77] Creating layer inception_5b/relu_5x5_reduce
I0403 15:33:35.381639  3222 net.cpp:91] Creating Layer inception_5b/relu_5x5_reduce
I0403 15:33:35.381656  3222 net.cpp:425] inception_5b/relu_5x5_reduce <- inception_5b/5x5_reduce
I0403 15:33:35.381674  3222 net.cpp:386] inception_5b/relu_5x5_reduce -> inception_5b/5x5_reduce (in-place)
I0403 15:33:35.382050  3222 net.cpp:141] Setting up inception_5b/relu_5x5_reduce
I0403 15:33:35.382076  3222 net.cpp:148] Top shape: 24 48 7 7 (56448)
I0403 15:33:35.382091  3222 net.cpp:156] Memory required for data: 1334725152
I0403 15:33:35.382107  3222 layer_factory.hpp:77] Creating layer inception_5b/5x5
I0403 15:33:35.382127  3222 net.cpp:91] Creating Layer inception_5b/5x5
I0403 15:33:35.382143  3222 net.cpp:425] inception_5b/5x5 <- inception_5b/5x5_reduce
I0403 15:33:35.382163  3222 net.cpp:399] inception_5b/5x5 -> inception_5b/5x5
I0403 15:33:35.384269  3222 net.cpp:141] Setting up inception_5b/5x5
I0403 15:33:35.384304  3222 net.cpp:148] Top shape: 24 128 7 7 (150528)
I0403 15:33:35.384318  3222 net.cpp:156] Memory required for data: 1335327264
I0403 15:33:35.384337  3222 layer_factory.hpp:77] Creating layer inception_5b/relu_5x5
I0403 15:33:35.384359  3222 net.cpp:91] Creating Layer inception_5b/relu_5x5
I0403 15:33:35.384377  3222 net.cpp:425] inception_5b/relu_5x5 <- inception_5b/5x5
I0403 15:33:35.384394  3222 net.cpp:386] inception_5b/relu_5x5 -> inception_5b/5x5 (in-place)
I0403 15:33:35.384591  3222 net.cpp:141] Setting up inception_5b/relu_5x5
I0403 15:33:35.384618  3222 net.cpp:148] Top shape: 24 128 7 7 (150528)
I0403 15:33:35.384634  3222 net.cpp:156] Memory required for data: 1335929376
I0403 15:33:35.384649  3222 layer_factory.hpp:77] Creating layer inception_5b/pool
I0403 15:33:35.384667  3222 net.cpp:91] Creating Layer inception_5b/pool
I0403 15:33:35.384683  3222 net.cpp:425] inception_5b/pool <- inception_5a/output_inception_5a/output_0_split_3
I0403 15:33:35.384704  3222 net.cpp:399] inception_5b/pool -> inception_5b/pool
I0403 15:33:35.384778  3222 net.cpp:141] Setting up inception_5b/pool
I0403 15:33:35.384801  3222 net.cpp:148] Top shape: 24 832 7 7 (978432)
I0403 15:33:35.384816  3222 net.cpp:156] Memory required for data: 1339843104
I0403 15:33:35.384830  3222 layer_factory.hpp:77] Creating layer inception_5b/pool_proj
I0403 15:33:35.384852  3222 net.cpp:91] Creating Layer inception_5b/pool_proj
I0403 15:33:35.384871  3222 net.cpp:425] inception_5b/pool_proj <- inception_5b/pool
I0403 15:33:35.384891  3222 net.cpp:399] inception_5b/pool_proj -> inception_5b/pool_proj
I0403 15:33:35.387219  3222 net.cpp:141] Setting up inception_5b/pool_proj
I0403 15:33:35.387249  3222 net.cpp:148] Top shape: 24 128 7 7 (150528)
I0403 15:33:35.387265  3222 net.cpp:156] Memory required for data: 1340445216
I0403 15:33:35.387292  3222 layer_factory.hpp:77] Creating layer inception_5b/relu_pool_proj
I0403 15:33:35.387313  3222 net.cpp:91] Creating Layer inception_5b/relu_pool_proj
I0403 15:33:35.387331  3222 net.cpp:425] inception_5b/relu_pool_proj <- inception_5b/pool_proj
I0403 15:33:35.387347  3222 net.cpp:386] inception_5b/relu_pool_proj -> inception_5b/pool_proj (in-place)
I0403 15:33:35.387648  3222 net.cpp:141] Setting up inception_5b/relu_pool_proj
I0403 15:33:35.387675  3222 net.cpp:148] Top shape: 24 128 7 7 (150528)
I0403 15:33:35.387689  3222 net.cpp:156] Memory required for data: 1341047328
I0403 15:33:35.387704  3222 layer_factory.hpp:77] Creating layer inception_5b/output
I0403 15:33:35.387722  3222 net.cpp:91] Creating Layer inception_5b/output
I0403 15:33:35.387753  3222 net.cpp:425] inception_5b/output <- inception_5b/1x1
I0403 15:33:35.387771  3222 net.cpp:425] inception_5b/output <- inception_5b/3x3
I0403 15:33:35.387789  3222 net.cpp:425] inception_5b/output <- inception_5b/5x5
I0403 15:33:35.387804  3222 net.cpp:425] inception_5b/output <- inception_5b/pool_proj
I0403 15:33:35.387825  3222 net.cpp:399] inception_5b/output -> inception_5b/output
I0403 15:33:35.387878  3222 net.cpp:141] Setting up inception_5b/output
I0403 15:33:35.387902  3222 net.cpp:148] Top shape: 24 1024 7 7 (1204224)
I0403 15:33:35.387917  3222 net.cpp:156] Memory required for data: 1345864224
I0403 15:33:35.387933  3222 layer_factory.hpp:77] Creating layer pool5/7x7_s1
I0403 15:33:35.387950  3222 net.cpp:91] Creating Layer pool5/7x7_s1
I0403 15:33:35.387966  3222 net.cpp:425] pool5/7x7_s1 <- inception_5b/output
I0403 15:33:35.387987  3222 net.cpp:399] pool5/7x7_s1 -> pool5/7x7_s1
I0403 15:33:35.388206  3222 net.cpp:141] Setting up pool5/7x7_s1
I0403 15:33:35.388231  3222 net.cpp:148] Top shape: 24 1024 1 1 (24576)
I0403 15:33:35.388245  3222 net.cpp:156] Memory required for data: 1345962528
I0403 15:33:35.388260  3222 layer_factory.hpp:77] Creating layer pool5/drop_7x7_s1
I0403 15:33:35.388288  3222 net.cpp:91] Creating Layer pool5/drop_7x7_s1
I0403 15:33:35.388306  3222 net.cpp:425] pool5/drop_7x7_s1 <- pool5/7x7_s1
I0403 15:33:35.388324  3222 net.cpp:386] pool5/drop_7x7_s1 -> pool5/7x7_s1 (in-place)
I0403 15:33:35.388376  3222 net.cpp:141] Setting up pool5/drop_7x7_s1
I0403 15:33:35.388399  3222 net.cpp:148] Top shape: 24 1024 1 1 (24576)
I0403 15:33:35.388414  3222 net.cpp:156] Memory required for data: 1346060832
I0403 15:33:35.388429  3222 layer_factory.hpp:77] Creating layer loss3/classifier_plantvillage
I0403 15:33:35.388449  3222 net.cpp:91] Creating Layer loss3/classifier_plantvillage
I0403 15:33:35.388465  3222 net.cpp:425] loss3/classifier_plantvillage <- pool5/7x7_s1
I0403 15:33:35.388486  3222 net.cpp:399] loss3/classifier_plantvillage -> loss3/classifier_plantvillage
I0403 15:33:35.388921  3222 net.cpp:141] Setting up loss3/classifier_plantvillage
I0403 15:33:35.388945  3222 net.cpp:148] Top shape: 24 38 (912)
I0403 15:33:35.388959  3222 net.cpp:156] Memory required for data: 1346064480
I0403 15:33:35.388978  3222 layer_factory.hpp:77] Creating layer loss3/classifier_plantvillage_loss3/classifier_plantvillage_0_split
I0403 15:33:35.388996  3222 net.cpp:91] Creating Layer loss3/classifier_plantvillage_loss3/classifier_plantvillage_0_split
I0403 15:33:35.389011  3222 net.cpp:425] loss3/classifier_plantvillage_loss3/classifier_plantvillage_0_split <- loss3/classifier_plantvillage
I0403 15:33:35.389032  3222 net.cpp:399] loss3/classifier_plantvillage_loss3/classifier_plantvillage_0_split -> loss3/classifier_plantvillage_loss3/classifier_plantvillage_0_split_0
I0403 15:33:35.389053  3222 net.cpp:399] loss3/classifier_plantvillage_loss3/classifier_plantvillage_0_split -> loss3/classifier_plantvillage_loss3/classifier_plantvillage_0_split_1
I0403 15:33:35.389075  3222 net.cpp:399] loss3/classifier_plantvillage_loss3/classifier_plantvillage_0_split -> loss3/classifier_plantvillage_loss3/classifier_plantvillage_0_split_2
I0403 15:33:35.389094  3222 net.cpp:399] loss3/classifier_plantvillage_loss3/classifier_plantvillage_0_split -> loss3/classifier_plantvillage_loss3/classifier_plantvillage_0_split_3
I0403 15:33:35.389199  3222 net.cpp:141] Setting up loss3/classifier_plantvillage_loss3/classifier_plantvillage_0_split
I0403 15:33:35.389222  3222 net.cpp:148] Top shape: 24 38 (912)
I0403 15:33:35.389240  3222 net.cpp:148] Top shape: 24 38 (912)
I0403 15:33:35.389255  3222 net.cpp:148] Top shape: 24 38 (912)
I0403 15:33:35.389276  3222 net.cpp:148] Top shape: 24 38 (912)
I0403 15:33:35.389292  3222 net.cpp:156] Memory required for data: 1346079072
I0403 15:33:35.389307  3222 layer_factory.hpp:77] Creating layer loss1/loss
I0403 15:33:35.389328  3222 net.cpp:91] Creating Layer loss1/loss
I0403 15:33:35.389346  3222 net.cpp:425] loss1/loss <- loss1/classifier_plantvillage_loss1/classifier_plantvillage_0_split_0
I0403 15:33:35.389377  3222 net.cpp:425] loss1/loss <- label_data_1_split_0
…
