…
I0403 15:15:59.311610  2890 net.cpp:313] The NetState phase (1) differed from the phase (0) specified by a rule in layer data
I0403 15:15:59.312827  2890 net.cpp:49] Initializing net from parameters: 
state {
  phase: TEST
}
layer {
  name: "data"
  type: "Data"
  top: "data"
  top: "label"
  include {
    phase: TEST
  }
  transform_param {
    mirror: false
    crop_size: 224
    mean_file: "/home/mohanty/data/final_dataset/lmdb/grayscale-50-50/mean.binaryproto"
  }
  data_param {
    source: "/home/mohanty/data/final_dataset/lmdb/grayscale-50-50/test_db"
    batch_size: 24
    backend: LMDB
  }
}
layer {
  name: "conv1/7x7_s2"
  type: "Convolution"
  bottom: "data"
  top: "conv1/7x7_s2"
  param {
    lr_mult: 1
    decay_mult: 1
  }
  param {
    lr_mult: 2
    decay_mult: 0
  }
  convolution_param {
    num_output: 64
    pad: 3
    kernel_size: 7
    stride: 2
    weight_filler {
      type: "xavier"
      std: 0.1
    }
    bias_filler {
      type: "constant"
      value: 0.2
    }
  }
}
layer {
  name: "conv1/relu_7x7"
  type: "ReLU"
  bottom: "conv1/7x7_s2"
  top: "conv1/7x7_s2"
}
layer {
  name: "pool1/3x3_s2"
  type: "Pooling"
  bottom: "conv1/7x7_s2"
  top: "pool1/3x3_s2"
  pooling_param {
    pool: MAX
    kernel_size: 3
    stride: 2
  }
}
layer {
  name: "pool1/norm1"
  type: "LRN"
  bottom: "pool1/3x3_s2"
  top: "pool1/norm1"
  lrn_param {
    local_size: 5
    alpha: 0.0001
    beta: 0.75
  }
}
layer {
  name: "conv2/3x3_reduce"
  type: "Convolution"
  bottom: "pool1/norm1"
  top: "conv2/3x3_reduce"
  param {
    lr_mult: 1
    decay_mult: 1
  }
  param {
    lr_mult: 2
    decay_mult: 0
  }
  convolution_param {
    num_output: 64
    kernel_size: 1
    weight_filler {
      type: "xavier"
      std: 0.1
    }
    bias_filler {
      type: "constant"
      value: 0.2
    }
  }
}
layer {
  name: "conv2/relu_3x3_reduce"
  type: "ReLU"
  bottom: "conv2/3x3_reduce"
  top: "conv2/3x3_reduce"
}
layer {
  name: "conv2/3x3"
  type: "Convolution"
  bottom: "conv2/3x3_reduce"
  top: "conv2/3x3"
  param {
    lr_mult: 1
    decay_mult: 1
  }
  param {
    lr_mult: 2
    decay_mult: 0
  }
  convolution_param {
    num_output: 192
    pad: 1
    kernel_size: 3
    weight_filler {
      type: "xavier"
      std: 0.03
    }
    bias_filler {
      type: "constant"
      value: 0.2
    }
  }
}
layer {
  name: "conv2/relu_3x3"
  type: "ReLU"
  bottom: "conv2/3x3"
  top: "conv2/3x3"
}
layer {
  name: "conv2/norm2"
  type: "LRN"
  bottom: "conv2/3x3"
  top: "conv2/norm2"
  lrn_param {
    local_size: 5
    alpha: 0.0001
    beta: 0.75
  }
}
layer {
  name: "pool2/3x3_s2"
  type: "Pooling"
  bottom: "conv2/norm2"
  top: "pool2/3x3_s2"
  pooling_param {
    pool: MAX
    kernel_size: 3
    stride: 2
  }
}
layer {
  name: "inception_3a/1x1"
  type: "Convolution"
  bottom: "pool2/3x3_s2"
  top: "inception_3a/1x1"
  param {
    lr_mult: 1
    decay_mult: 1
  }
  param {
    lr_mult: 2
    decay_mult: 0
  }
  convolution_param {
    num_output: 64
    kernel_size: 1
    weight_filler {
      type: "xavier"
      std: 0.03
    }
    bias_filler {
      type: "constant"
      value: 0.2
    }
  }
}
layer {
  name: "inception_3a/relu_1x1"
  type: "ReLU"
  bottom: "inception_3a/1x1"
  top: "inception_3a/1x1"
}
layer {
  name: "inception_3a/3x3_reduce"
  type: "Convolution"
  bottom: "pool2/3x3_s2"
  top: "inception_3a/3x3_reduce"
  param {
    lr_mult: 1
    decay_mult: 1
  }
  param {
    lr_mult: 2
    decay_mult: 0
  }
  convolution_param {
    num_output: 96
    kernel_size: 1
    weight_filler {
      type: "xavier"
      std: 0.09
    }
    bias_filler {
      type: "constant"
      value: 0.2
    }
  }
}
layer {
  name: "inception_3a/relu_3x3_reduce"
  type: "ReLU"
  bottom: "inception_3a/3x3_reduce"
  top: "inception_3a/3x3_reduce"
}
layer {
  name: "inception_3a/3x3"
  type: "Convolution"
  bottom: "inception_3a/3x3_reduce"
  top: "inception_3a/3x3"
  param {
    lr_mult: 1
    decay_mult: 1
  }
  param {
    lr_mult: 2
    decay_mult: 0
  }
  convolution_param {
    num_output: 128
    pad: 1
    kernel_size: 3
    weight_filler {
      type: "xavier"
      std: 0.03
    }
    bias_filler {
      type: "constant"
      value: 0.2
    }
  }
}
layer {
  name: "inception_3a/relu_3x3"
  type: "ReLU"
  bottom: "inception_3a/3x3"
  top: "inception_3a/3x3"
}
layer {
  name: "inception_3a/5x5_reduce"
  type: "Convolution"
  bottom: "pool2/3x3_s2"
  top: "inception_3a/5x5_reduce"
  param {
    lr_mult: 1
    decay_mult: 1
  }
  param {
    lr_mult: 2
    decay_mult: 0
  }
  convolution_param {
    num_output: 16
    kernel_size: 1
    weight_filler {
      type: "xavier"
      std: 0.2
    }
    bias_filler {
      type: "constant"
      value: 0.2
    }
  }
}
layer {
  name: "inception_3a/relu_5x5_reduce"
  type: "ReLU"
  bottom: "inception_3a/5x5_reduce"
  top: "inception_3a/5x5_reduce"
}
layer {
  name: "inception_3a/5x5"
  type: "Convolution"
  bottom: "inception_3a/5x5_reduce"
  top: "inception_3a/5x5"
  param {
    lr_mult: 1
    decay_mult: 1
  }
  param {
    lr_mult: 2
    decay_mult: 0
  }
  convolution_param {
    num_output: 32
    pad: 2
    kernel_size: 5
    weight_filler {
      type: "xavier"
      std: 0.03
    }
    bias_filler {
      type: "constant"
      value: 0.2
    }
  }
}
layer {
  name: "inception_3a/relu_5x5"
  type: "ReLU"
  bottom: "inception_3a/5x5"
  top: "inception_3a/5x5"
}
layer {
  name: "inception_3a/pool"
  type: "Pooling"
  bottom: "pool2/3x3_s2"
  top: "inception_3a/pool"
  pooling_param {
    pool: MAX
    kernel_size: 3
    stride: 1
    pad: 1
  }
}
layer {
  name: "inception_3a/pool_proj"
  type: "Convolution"
  bottom: "inception_3a/pool"
  top: "inception_3a/pool_proj"
  param {
    lr_mult: 1
    decay_mult: 1
  }
  param {
    lr_mult: 2
    decay_mult: 0
  }
  convolution_param {
    num_output: 32
    kernel_size: 1
    weight_filler {
      type: "xavier"
      std: 0.1
    }
    bias_filler {
      type: "constant"
      value: 0.2
    }
  }
}
layer {
  name: "inception_3a/relu_pool_proj"
  type: "ReLU"
  bottom: "inception_3a/pool_proj"
  top: "inception_3a/pool_proj"
}
layer {
  name: "inception_3a/output"
  type: "Concat"
  bottom: "inception_3a/1x1"
  bottom: "inception_3a/3x3"
  bottom: "inception_3a/5x5"
  bottom: "inception_3a/pool_proj"
  top: "inception_3a/output"
}
layer {
  name: "inception_3b/1x1"
  type: "Convolution"
  bottom: "inception_3a/output"
  top: "inception_3b/1x1"
  param {
    lr_mult: 1
    decay_mult: 1
  }
  param {
    lr_mult: 2
    decay_mult: 0
  }
  convolution_param {
    num_output: 128
    kernel_size: 1
    weight_filler {
      type: "xavier"
      std: 0.03
    }
    bias_filler {
      type: "constant"
      value: 0.2
    }
  }
}
layer {
  name: "inception_3b/relu_1x1"
  type: "ReLU"
  bottom: "inception_3b/1x1"
  top: "inception_3b/1x1"
}
layer {
  name: "inception_3b/3x3_reduce"
  type: "Convolution"
  bottom: "inception_3a/output"
  top: "inception_3b/3x3_reduce"
  param {
    lr_mult: 1
    decay_mult: 1
  }
  param {
    lr_mult: 2
    decay_mult: 0
  }
  convolution_param {
    num_output: 128
    kernel_size: 1
    weight_filler {
      type: "xavier"
      std: 0.09
    }
    bias_filler {
      type: "constant"
      value: 0.2
    }
  }
}
layer {
  name: "inception_3b/relu_3x3_reduce"
  type: "ReLU"
  bottom: "inception_3b/3x3_reduce"
  top: "inception_3b/3x3_reduce"
}
layer {
  name: "inception_3b/3x3"
  type: "Convolution"
  bottom: "inception_3b/3x3_reduce"
  top: "inception_3b/3x3"
  param {
    lr_mult: 1
    decay_mult: 1
  }
  param {
    lr_mult: 2
    decay_mult: 0
  }
  convolution_param {
    num_output: 192
    pad: 1
    kernel_size: 3
    weight_filler {
      type: "xavier"
      std: 0.03
    }
    bias_filler {
      type: "constant"
      value: 0.2
    }
  }
}
layer {
  name: "inception_3b/relu_3x3"
  type: "ReLU"
  bottom: "inception_3b/3x3"
  top: "inception_3b/3x3"
}
layer {
  name: "inception_3b/5x5_reduce"
  type: "Convolution"
  bottom: "inception_3a/output"
  top: "inception_3b/5x5_reduce"
  param {
    lr_mult: 1
    decay_mult: 1
  }
  param {
    lr_mult: 2
    decay_mult: 0
  }
  convolution_param {
    num_output: 32
    kernel_size: 1
    weight_filler {
      type: "xavier"
      std: 0.2
    }
    bias_filler {
      type: "constant"
      value: 0.2
    }
  }
}
layer {
  name: "inception_3b/relu_5x5_reduce"
  type: "ReLU"
  bottom: "inception_3b/5x5_reduce"
  top: "inception_3b/5x5_reduce"
}
layer {
  name: "inception_3b/5x5"
  type: "Convolution"
  bottom: "inception_3b/5x5_reduce"
  top: "inception_3b/5x5"
  param {
    lr_mult: 1
    decay_mult: 1
  }
  param {
    lr_mult: 2
    decay_mult: 0
  }
  convolution_param {
    num_output: 96
    pad: 2
    kernel_size: 5
    weight_filler {
      type: "xavier"
      std: 0.03
    }
    bias_filler {
      type: "constant"
      value: 0.2
    }
  }
}
layer {
  name: "inception_3b/relu_5x5"
  type: "ReLU"
  bottom: "inception_3b/5x5"
  top: "inception_3b/5x5"
}
layer {
  name: "inception_3b/pool"
  type: "Pooling"
  bottom: "inception_3a/output"
  top: "inception_3b/pool"
  pooling_param {
    pool: MAX
    kernel_size: 3
    stride: 1
    pad: 1
  }
}
layer {
  name: "inception_3b/pool_proj"
  type: "Convolution"
  bottom: "inception_3b/pool"
  top: "inception_3b/pool_proj"
  param {
    lr_mult: 1
    decay_mult: 1
  }
  param {
    lr_mult: 2
    decay_mult: 0
  }
  convolution_param {
    num_output: 64
    kernel_size: 1
    weight_filler {
      type: "xavier"
      std: 0.1
    }
    bias_filler {
      type: "constant"
      value: 0.2
    }
  }
}
layer {
  name: "inception_3b/relu_pool_proj"
  type: "ReLU"
  bottom: "inception_3b/pool_proj"
  top: "inception_3b/pool_proj"
}
layer {
  name: "inception_3b/output"
  type: "Concat"
  bottom: "inception_3b/1x1"
  bottom: "inception_3b/3x3"
  bottom: "inception_3b/5x5"
  bottom: "inception_3b/pool_proj"
  top: "inception_3b/output"
}
layer {
  name: "pool3/3x3_s2"
  type: "Pooling"
  bottom: "inception_3b/output"
  top: "pool3/3x3_s2"
  pooling_param {
    pool: MAX
    kernel_size: 3
    stride: 2
  }
}
layer {
  name: "inception_4a/1x1"
  type: "Convolution"
  bottom: "pool3/3x3_s2"
  top: "inception_4a/1x1"
  param {
    lr_mult: 1
    decay_mult: 1
  }
  param {
    lr_mult: 2
    decay_mult: 0
  }
  convolution_param {
    num_output: 192
    kernel_size: 1
    weight_filler {
      type: "xavier"
      std: 0.03
    }
    bias_filler {
      type: "constant"
      value: 0.2
    }
  }
}
layer {
  name: "inception_4a/relu_1x1"
  type: "ReLU"
  bottom: "inception_4a/1x1"
  top: "inception_4a/1x1"
}
layer {
  name: "inception_4a/3x3_reduce"
  type: "Convolution"
  bottom: "pool3/3x3_s2"
  top: "inception_4a/3x3_reduce"
  param {
    lr_mult: 1
    decay_mult: 1
  }
  param {
    lr_mult: 2
    decay_mult: 0
  }
  convolution_param {
    num_output: 96
    kernel_size: 1
    weight_filler {
      type: "xavier"
      std: 0.09
    }
    bias_filler {
      type: "constant"
      value: 0.2
    }
  }
}
layer {
  name: "inception_4a/relu_3x3_reduce"
  type: "ReLU"
  bottom: "inception_4a/3x3_reduce"
  top: "inception_4a/3x3_reduce"
}
layer {
  name: "inception_4a/3x3"
  type: "Convolution"
  bottom: "inception_4a/3x3_reduce"
  top: "inception_4a/3x3"
  param {
    lr_mult: 1
    decay_mult: 1
  }
  param {
    lr_mult: 2
    decay_mult: 0
  }
  convolution_param {
    num_output: 208
    pad: 1
    kernel_size: 3
    weight_filler {
      type: "xavier"
      std: 0.03
    }
    bias_filler {
      type: "constant"
      value: 0.2
    }
  }
}
layer {
  name: "inception_4a/relu_3x3"
  type: "ReLU"
  bottom: "inception_4a/3x3"
  top: "inception_4a/3x3"
}
layer {
  name: "inception_4a/5x5_reduce"
  type: "Convolution"
  bottom: "pool3/3x3_s2"
  top: "inception_4a/5x5_reduce"
  param {
    lr_mult: 1
    decay_mult: 1
  }
  param {
    lr_mult: 2
    decay_mult: 0
  }
  convolution_param {
    num_output: 16
    kernel_size: 1
    weight_filler {
      type: "xavier"
      std: 0.2
    }
    bias_filler {
      type: "constant"
      value: 0.2
    }
  }
}
layer {
  name: "inception_4a/relu_5x5_reduce"
  type: "ReLU"
  bottom: "inception_4a/5x5_reduce"
  top: "inception_4a/5x5_reduce"
}
layer {
  name: "inception_4a/5x5"
  type: "Convolution"
  bottom: "inception_4a/5x5_reduce"
  top: "inception_4a/5x5"
  param {
    lr_mult: 1
    decay_mult: 1
  }
  param {
    lr_mult: 2
    decay_mult: 0
  }
  convolution_param {
    num_output: 48
    pad: 2
    kernel_size: 5
    weight_filler {
      type: "xavier"
      std: 0.03
    }
    bias_filler {
      type: "constant"
      value: 0.2
    }
  }
}
layer {
  name: "inception_4a/relu_5x5"
  type: "ReLU"
  bottom: "inception_4a/5x5"
  top: "inception_4a/5x5"
}
layer {
  name: "inception_4a/pool"
  type: "Pooling"
  bottom: "pool3/3x3_s2"
  top: "inception_4a/pool"
  pooling_param {
    pool: MAX
    kernel_size: 3
    stride: 1
    pad: 1
  }
}
layer {
  name: "inception_4a/pool_proj"
  type: "Convolution"
  bottom: "inception_4a/pool"
  top: "inception_4a/pool_proj"
  param {
    lr_mult: 1
    decay_mult: 1
  }
  param {
    lr_mult: 2
    decay_mult: 0
  }
  convolution_param {
    num_output: 64
    kernel_size: 1
    weight_filler {
      type: "xavier"
      std: 0.1
    }
    bias_filler {
      type: "constant"
      value: 0.2
    }
  }
}
layer {
  name: "inception_4a/relu_pool_proj"
  type: "ReLU"
  bottom: "inception_4a/pool_proj"
  top: "inception_4a/pool_proj"
}
layer {
  name: "inception_4a/output"
  type: "Concat"
  bottom: "inception_4a/1x1"
  bottom: "inception_4a/3x3"
  bottom: "inception_4a/5x5"
  bottom: "inception_4a/pool_proj"
  top: "inception_4a/output"
}
layer {
  name: "loss1/ave_pool"
  type: "Pooling"
  bottom: "inception_4a/output"
  top: "loss1/ave_pool"
  pooling_param {
    pool: AVE
    kernel_size: 5
    stride: 3
  }
}
layer {
  name: "loss1/conv"
  type: "Convolution"
  bottom: "loss1/ave_pool"
  top: "loss1/conv"
  param {
    lr_mult: 1
    decay_mult: 1
  }
  param {
    lr_mult: 2
    decay_mult: 0
  }
  convolution_param {
    num_output: 128
    kernel_size: 1
    weight_filler {
      type: "xavier"
      std: 0.08
    }
    bias_filler {
      type: "constant"
      value: 0.2
    }
  }
}
layer {
  name: "loss1/relu_conv"
  type: "ReLU"
  bottom: "loss1/conv"
  top: "loss1/conv"
}
layer {
  name: "loss1/fc"
  type: "InnerProduct"
  bottom: "loss1/conv"
  top: "loss1/fc"
  param {
    lr_mult: 1
    decay_mult: 1
  }
  param {
    lr_mult: 2
    decay_mult: 0
  }
  inner_product_param {
    num_output: 1024
    weight_filler {
      type: "xavier"
      std: 0.02
    }
    bias_filler {
      type: "constant"
      value: 0.2
    }
  }
}
layer {
  name: "loss1/relu_fc"
  type: "ReLU"
  bottom: "loss1/fc"
  top: "loss1/fc"
}
layer {
  name: "loss1/drop_fc"
  type: "Dropout"
  bottom: "loss1/fc"
  top: "loss1/fc"
  dropout_param {
    dropout_ratio: 0.7
  }
}
layer {
  name: "loss1/classifier_plantvillage"
  type: "InnerProduct"
  bottom: "loss1/fc"
  top: "loss1/classifier_plantvillage"
  param {
    lr_mult: 1
    decay_mult: 1
  }
  param {
    lr_mult: 2
    decay_mult: 0
  }
  inner_product_param {
    num_output: 38
    weight_filler {
      type: "xavier"
      std: 0.0009765625
    }
    bias_filler {
      type: "constant"
      value: 0
    }
  }
}
layer {
  name: "inception_4b/1x1"
  type: "Convolution"
  bottom: "inception_4a/output"
  top: "inception_4b/1x1"
  param {
    lr_mult: 1
    decay_mult: 1
  }
  param {
    lr_mult: 2
    decay_mult: 0
  }
  convolution_param {
    num_output: 160
    kernel_size: 1
    weight_filler {
      type: "xavier"
      std: 0.03
    }
    bias_filler {
      type: "constant"
      value: 0.2
    }
  }
}
layer {
  name: "inception_4b/relu_1x1"
  type: "ReLU"
  bottom: "inception_4b/1x1"
  top: "inception_4b/1x1"
}
layer {
  name: "inception_4b/3x3_reduce"
  type: "Convolution"
  bottom: "inception_4a/output"
  top: "inception_4b/3x3_reduce"
  param {
    lr_mult: 1
    decay_mult: 1
  }
  param {
    lr_mult: 2
    decay_mult: 0
  }
  convolution_param {
    num_output: 112
    kernel_size: 1
    weight_filler {
      type: "xavier"
      std: 0.09
    }
    bias_filler {
      type: "constant"
      value: 0.2
    }
  }
}
layer {
  name: "inception_4b/relu_3x3_reduce"
  type: "ReLU"
  bottom: "inception_4b/3x3_reduce"
  top: "inception_4b/3x3_reduce"
}
layer {
  name: "inception_4b/3x3"
  type: "Convolution"
  bottom: "inception_4b/3x3_reduce"
  top: "inception_4b/3x3"
  param {
    lr_mult: 1
    decay_mult: 1
  }
  param {
    lr_mult: 2
    decay_mult: 0
  }
  convolution_param {
    num_output: 224
    pad: 1
    kernel_size: 3
    weight_filler {
      type: "xavier"
      std: 0.03
    }
    bias_filler {
      type: "constant"
      value: 0.2
    }
  }
}
layer {
  name: "inception_4b/relu_3x3"
  type: "ReLU"
  bottom: "inception_4b/3x3"
  top: "inception_4b/3x3"
}
layer {
  name: "inception_4b/5x5_reduce"
  type: "Convolution"
  bottom: "inception_4a/output"
  top: "inception_4b/5x5_reduce"
  param {
    lr_mult: 1
    decay_mult: 1
  }
  param {
    lr_mult: 2
    decay_mult: 0
  }
  convolution_param {
    num_output: 24
    kernel_size: 1
    weight_filler {
      type: "xavier"
      std: 0.2
    }
    bias_filler {
      type: "constant"
      value: 0.2
    }
  }
}
layer {
  name: "inception_4b/relu_5x5_reduce"
  type: "ReLU"
  bottom: "inception_4b/5x5_reduce"
  top: "inception_4b/5x5_reduce"
}
layer {
  name: "inception_4b/5x5"
  type: "Convolution"
  bottom: "inception_4b/5x5_reduce"
  top: "inception_4b/5x5"
  param {
    lr_mult: 1
    decay_mult: 1
  }
  param {
    lr_mult: 2
    decay_mult: 0
  }
  convolution_param {
    num_output: 64
    pad: 2
    kernel_size: 5
    weight_filler {
      type: "xavier"
      std: 0.03
    }
    bias_filler {
      type: "constant"
      value: 0.2
    }
  }
}
layer {
  name: "inception_4b/relu_5x5"
  type: "ReLU"
  bottom: "inception_4b/5x5"
  top: "inception_4b/5x5"
}
layer {
  name: "inception_4b/pool"
  type: "Pooling"
  bottom: "inception_4a/output"
  top: "inception_4b/pool"
  pooling_param {
    pool: MAX
    kernel_size: 3
    stride: 1
    pad: 1
  }
}
layer {
  name: "inception_4b/pool_proj"
  type: "Convolution"
  bottom: "inception_4b/pool"
  top: "inception_4b/pool_proj"
  param {
    lr_mult: 1
    decay_mult: 1
  }
  param {
    lr_mult: 2
    decay_mult: 0
  }
  convolution_param {
    num_output: 64
    kernel_size: 1
    weight_filler {
      type: "xavier"
      std: 0.1
    }
    bias_filler {
      type: "constant"
      value: 0.2
    }
  }
}
layer {
  name: "inception_4b/relu_pool_proj"
  type: "ReLU"
  bottom: "inception_4b/pool_proj"
  top: "inception_4b/pool_proj"
}
layer {
  name: "inception_4b/output"
  type: "Concat"
  bottom: "inception_4b/1x1"
  bottom: "inception_4b/3x3"
  bottom: "inception_4b/5x5"
  bottom: "inception_4b/pool_proj"
  top: "inception_4b/output"
}
layer {
  name: "inception_4c/1x1"
  type: "Convolution"
  bottom: "inception_4b/output"
  top: "inception_4c/1x1"
  param {
    lr_mult: 1
    decay_mult: 1
  }
  param {
    lr_mult: 2
    decay_mult: 0
  }
  convolution_param {
    num_output: 128
    kernel_size: 1
    weight_filler {
      type: "xavier"
      std: 0.03
    }
    bias_filler {
      type: "constant"
      value: 0.2
    }
  }
}
layer {
  name: "inception_4c/relu_1x1"
  type: "ReLU"
  bottom: "inception_4c/1x1"
  top: "inception_4c/1x1"
}
layer {
  name: "inception_4c/3x3_reduce"
  type: "Convolution"
  bottom: "inception_4b/output"
  top: "inception_4c/3x3_reduce"
  param {
    lr_mult: 1
    decay_mult: 1
  }
  param {
    lr_mult: 2
    decay_mult: 0
  }
  convolution_param {
    num_output: 128
    kernel_size: 1
    weight_filler {
      type: "xavier"
      std: 0.09
    }
    bias_filler {
      type: "constant"
      value: 0.2
    }
  }
}
layer {
  name: "inception_4c/relu_3x3_reduce"
  type: "ReLU"
  bottom: "inception_4c/3x3_reduce"
  top: "inception_4c/3x3_reduce"
}
layer {
  name: "inception_4c/3x3"
  type: "Convolution"
  bottom: "inception_4c/3x3_reduce"
  top: "inception_4c/3x3"
  param {
    lr_mult: 1
    decay_mult: 1
  }
  param {
    lr_mult: 2
    decay_mult: 0
  }
  convolution_param {
    num_output: 256
    pad: 1
    kernel_size: 3
    weight_filler {
      type: "xavier"
      std: 0.03
    }
    bias_filler {
      type: "constant"
      value: 0.2
    }
  }
}
layer {
  name: "inception_4c/relu_3x3"
  type: "ReLU"
  bottom: "inception_4c/3x3"
  top: "inception_4c/3x3"
}
layer {
  name: "inception_4c/5x5_reduce"
  type: "Convolution"
  bottom: "inception_4b/output"
  top: "inception_4c/5x5_reduce"
  param {
    lr_mult: 1
    decay_mult: 1
  }
  param {
    lr_mult: 2
    decay_mult: 0
  }
  convolution_param {
    num_output: 24
    kernel_size: 1
    weight_filler {
      type: "xavier"
      std: 0.2
    }
    bias_filler {
      type: "constant"
      value: 0.2
    }
  }
}
layer {
  name: "inception_4c/relu_5x5_reduce"
  type: "ReLU"
  bottom: "inception_4c/5x5_reduce"
  top: "inception_4c/5x5_reduce"
}
layer {
  name: "inception_4c/5x5"
  type: "Convolution"
  bottom: "inception_4c/5x5_reduce"
  top: "inception_4c/5x5"
  param {
    lr_mult: 1
    decay_mult: 1
  }
  param {
    lr_mult: 2
    decay_mult: 0
  }
  convolution_param {
    num_output: 64
    pad: 2
    kernel_size: 5
    weight_filler {
      type: "xavier"
      std: 0.03
    }
    bias_filler {
      type: "constant"
      value: 0.2
    }
  }
}
layer {
  name: "inception_4c/relu_5x5"
  type: "ReLU"
  bottom: "inception_4c/5x5"
  top: "inception_4c/5x5"
}
layer {
  name: "inception_4c/pool"
  type: "Pooling"
  bottom: "inception_4b/output"
  top: "inception_4c/pool"
  pooling_param {
    pool: MAX
    kernel_size: 3
    stride: 1
    pad: 1
  }
}
layer {
  name: "inception_4c/pool_proj"
  type: "Convolution"
  bottom: "inception_4c/pool"
  top: "inception_4c/pool_proj"
  param {
    lr_mult: 1
    decay_mult: 1
  }
  param {
    lr_mult: 2
    decay_mult: 0
  }
  convolution_param {
    num_output: 64
    kernel_size: 1
    weight_filler {
      type: "xavier"
      std: 0.1
    }
    bias_filler {
      type: "constant"
      value: 0.2
    }
  }
}
layer {
  name: "inception_4c/relu_pool_proj"
  type: "ReLU"
  bottom: "inception_4c/pool_proj"
  top: "inception_4c/pool_proj"
}
layer {
  name: "inception_4c/output"
  type: "Concat"
  bottom: "inception_4c/1x1"
  bottom: "inception_4c/3x3"
  bottom: "inception_4c/5x5"
  bottom: "inception_4c/pool_proj"
  top: "inception_4c/output"
}
layer {
  name: "inception_4d/1x1"
  type: "Convolution"
  bottom: "inception_4c/output"
  top: "inception_4d/1x1"
  param {
    lr_mult: 1
    decay_mult: 1
  }
  param {
    lr_mult: 2
    decay_mult: 0
  }
  convolution_param {
    num_output: 112
    kernel_size: 1
    weight_filler {
      type: "xavier"
      std: 0.03
    }
    bias_filler {
      type: "constant"
      value: 0.2
    }
  }
}
layer {
  name: "inception_4d/relu_1x1"
  type: "ReLU"
  bottom: "inception_4d/1x1"
  top: "inception_4d/1x1"
}
layer {
  name: "inception_4d/3x3_reduce"
  type: "Convolution"
  bottom: "inception_4c/output"
  top: "inception_4d/3x3_reduce"
  param {
    lr_mult: 1
    decay_mult: 1
  }
  param {
    lr_mult: 2
    decay_mult: 0
  }
  convolution_param {
    num_output: 144
    kernel_size: 1
    weight_filler {
      type: "xavier"
      std: 0.09
    }
    bias_filler {
      type: "constant"
      value: 0.2
    }
  }
}
layer {
  name: "inception_4d/relu_3x3_reduce"
  type: "ReLU"
  bottom: "inception_4d/3x3_reduce"
  top: "inception_4d/3x3_reduce"
}
layer {
  name: "inception_4d/3x3"
  type: "Convolution"
  bottom: "inception_4d/3x3_reduce"
  top: "inception_4d/3x3"
  param {
    lr_mult: 1
    decay_mult: 1
  }
  param {
    lr_mult: 2
    decay_mult: 0
  }
  convolution_param {
    num_output: 288
    pad: 1
    kernel_size: 3
    weight_filler {
      type: "xavier"
      std: 0.03
    }
    bias_filler {
      type: "constant"
      value: 0.2
    }
  }
}
layer {
  name: "inception_4d/relu_3x3"
  type: "ReLU"
  bottom: "inception_4d/3x3"
  top: "inception_4d/3x3"
}
layer {
  name: "inception_4d/5x5_reduce"
  type: "Convolution"
  bottom: "inception_4c/output"
  top: "inception_4d/5x5_reduce"
  param {
    lr_mult: 1
    decay_mult: 1
  }
  param {
    lr_mult: 2
    decay_mult: 0
  }
  convolution_param {
    num_output: 32
    kernel_size: 1
    weight_filler {
      type: "xavier"
      std: 0.2
    }
    bias_filler {
      type: "constant"
      value: 0.2
    }
  }
}
layer {
  name: "inception_4d/relu_5x5_reduce"
  type: "ReLU"
  bottom: "inception_4d/5x5_reduce"
  top: "inception_4d/5x5_reduce"
}
layer {
  name: "inception_4d/5x5"
  type: "Convolution"
  bottom: "inception_4d/5x5_reduce"
  top: "inception_4d/5x5"
  param {
    lr_mult: 1
    decay_mult: 1
  }
  param {
    lr_mult: 2
    decay_mult: 0
  }
  convolution_param {
    num_output: 64
    pad: 2
    kernel_size: 5
    weight_filler {
      type: "xavier"
      std: 0.03
    }
    bias_filler {
      type: "constant"
      value: 0.2
    }
  }
}
layer {
  name: "inception_4d/relu_5x5"
  type: "ReLU"
  bottom: "inception_4d/5x5"
  top: "inception_4d/5x5"
}
layer {
  name: "inception_4d/pool"
  type: "Pooling"
  bottom: "inception_4c/output"
  top: "inception_4d/pool"
  pooling_param {
    pool: MAX
    kernel_size: 3
    stride: 1
    pad: 1
  }
}
layer {
  name: "inception_4d/pool_proj"
  type: "Convolution"
  bottom: "inception_4d/pool"
  top: "inception_4d/pool_proj"
  param {
    lr_mult: 1
    decay_mult: 1
  }
  param {
    lr_mult: 2
    decay_mult: 0
  }
  convolution_param {
    num_output: 64
    kernel_size: 1
    weight_filler {
      type: "xavier"
      std: 0.1
    }
    bias_filler {
      type: "constant"
      value: 0.2
    }
  }
}
layer {
  name: "inception_4d/relu_pool_proj"
  type: "ReLU"
  bottom: "inception_4d/pool_proj"
  top: "inception_4d/pool_proj"
}
layer {
  name: "inception_4d/output"
  type: "Concat"
  bottom: "inception_4d/1x1"
  bottom: "inception_4d/3x3"
  bottom: "inception_4d/5x5"
  bottom: "inception_4d/pool_proj"
  top: "inception_4d/output"
}
layer {
  name: "loss2/ave_pool"
  type: "Pooling"
  bottom: "inception_4d/output"
  top: "loss2/ave_pool"
  pooling_param {
    pool: AVE
    kernel_size: 5
    stride: 3
  }
}
layer {
  name: "loss2/conv"
  type: "Convolution"
  bottom: "loss2/ave_pool"
  top: "loss2/conv"
  param {
    lr_mult: 1
    decay_mult: 1
  }
  param {
    lr_mult: 2
    decay_mult: 0
  }
  convolution_param {
    num_output: 128
    kernel_size: 1
    weight_filler {
      type: "xavier"
      std: 0.08
    }
    bias_filler {
      type: "constant"
      value: 0.2
    }
  }
}
layer {
  name: "loss2/relu_conv"
  type: "ReLU"
  bottom: "loss2/conv"
  top: "loss2/conv"
}
layer {
  name: "loss2/fc"
  type: "InnerProduct"
  bottom: "loss2/conv"
  top: "loss2/fc"
  param {
    lr_mult: 1
    decay_mult: 1
  }
  param {
    lr_mult: 2
    decay_mult: 0
  }
  inner_product_param {
    num_output: 1024
    weight_filler {
      type: "xavier"
      std: 0.02
    }
    bias_filler {
      type: "constant"
      value: 0.2
    }
  }
}
layer {
  name: "loss2/relu_fc"
  type: "ReLU"
  bottom: "loss2/fc"
  top: "loss2/fc"
}
layer {
  name: "loss2/drop_fc"
  type: "Dropout"
  bottom: "loss2/fc"
  top: "loss2/fc"
  dropout_param {
    dropout_ratio: 0.7
  }
}
layer {
  name: "loss2/classifier_plantvillage"
  type: "InnerProduct"
  bottom: "loss2/fc"
  top: "loss2/classifier_plantvillage"
  param {
    lr_mult: 1
    decay_mult: 1
  }
  param {
    lr_mult: 2
    decay_mult: 0
  }
  inner_product_param {
    num_output: 38
    weight_filler {
      type: "xavier"
      std: 0.0009765625
    }
    bias_filler {
      type: "constant"
      value: 0
    }
  }
}
layer {
  name: "inception_4e/1x1"
  type: "Convolution"
  bottom: "inception_4d/output"
  top: "inception_4e/1x1"
  param {
    lr_mult: 1
    decay_mult: 1
  }
  param {
    lr_mult: 2
    decay_mult: 0
  }
  convolution_param {
    num_output: 256
    kernel_size: 1
    weight_filler {
      type: "xavier"
      std: 0.03
    }
    bias_filler {
      type: "constant"
      value: 0.2
    }
  }
}
layer {
  name: "inception_4e/relu_1x1"
  type: "ReLU"
  bottom: "inception_4e/1x1"
  top: "inception_4e/1x1"
}
layer {
  name: "inception_4e/3x3_reduce"
  type: "Convolution"
  bottom: "inception_4d/output"
  top: "inception_4e/3x3_reduce"
  param {
    lr_mult: 1
    decay_mult: 1
  }
  param {
    lr_mult: 2
    decay_mult: 0
  }
  convolution_param {
    num_output: 160
    kernel_size: 1
    weight_filler {
      type: "xavier"
      std: 0.09
    }
    bias_filler {
      type: "constant"
      value: 0.2
    }
  }
}
layer {
  name: "inception_4e/relu_3x3_reduce"
  type: "ReLU"
  bottom: "inception_4e/3x3_reduce"
  top: "inception_4e/3x3_reduce"
}
layer {
  name: "inception_4e/3x3"
  type: "Convolution"
  bottom: "inception_4e/3x3_reduce"
  top: "inception_4e/3x3"
  param {
    lr_mult: 1
    decay_mult: 1
  }
  param {
    lr_mult: 2
    decay_mult: 0
  }
  convolution_param {
    num_output: 320
    pad: 1
    kernel_size: 3
    weight_filler {
      type: "xavier"
      std: 0.03
    }
    bias_filler {
      type: "constant"
      value: 0.2
    }
  }
}
layer {
  name: "inception_4e/relu_3x3"
  type: "ReLU"
  bottom: "inception_4e/3x3"
  top: "inception_4e/3x3"
}
layer {
  name: "inception_4e/5x5_reduce"
  type: "Convolution"
  bottom: "inception_4d/output"
  top: "inception_4e/5x5_reduce"
  param {
    lr_mult: 1
    decay_mult: 1
  }
  param {
    lr_mult: 2
    decay_mult: 0
  }
  convolution_param {
    num_output: 32
    kernel_size: 1
    weight_filler {
      type: "xavier"
      std: 0.2
    }
    bias_filler {
      type: "constant"
      value: 0.2
    }
  }
}
layer {
  name: "inception_4e/relu_5x5_reduce"
  type: "ReLU"
  bottom: "inception_4e/5x5_reduce"
  top: "inception_4e/5x5_reduce"
}
layer {
  name: "inception_4e/5x5"
  type: "Convolution"
  bottom: "inception_4e/5x5_reduce"
  top: "inception_4e/
I0403 15:15:59.314193  2890 layer_factory.hpp:77] Creating layer data
I0403 15:15:59.314822  2890 net.cpp:91] Creating Layer data
I0403 15:15:59.314854  2890 net.cpp:399] data -> data
I0403 15:15:59.314906  2890 net.cpp:399] data -> label
I0403 15:15:59.314946  2890 data_transformer.cpp:25] Loading mean file from: /home/mohanty/data/final_dataset/lmdb/grayscale-50-50/mean.binaryproto
I0403 15:15:59.317670  2895 db_lmdb.cpp:38] Opened lmdb /home/mohanty/data/final_dataset/lmdb/grayscale-50-50/test_db
I0403 15:15:59.328646  2890 data_layer.cpp:41] output data size: 24,3,224,224
I0403 15:15:59.355994  2890 net.cpp:141] Setting up data
I0403 15:15:59.356078  2890 net.cpp:148] Top shape: 24 3 224 224 (3612672)
I0403 15:15:59.356101  2890 net.cpp:148] Top shape: 24 (24)
I0403 15:15:59.356117  2890 net.cpp:156] Memory required for data: 14450784
I0403 15:15:59.356147  2890 layer_factory.hpp:77] Creating layer label_data_1_split
I0403 15:15:59.356173  2890 net.cpp:91] Creating Layer label_data_1_split
I0403 15:15:59.356191  2890 net.cpp:425] label_data_1_split <- label
I0403 15:15:59.356223  2890 net.cpp:399] label_data_1_split -> label_data_1_split_0
I0403 15:15:59.356256  2890 net.cpp:399] label_data_1_split -> label_data_1_split_1
I0403 15:15:59.356278  2890 net.cpp:399] label_data_1_split -> label_data_1_split_2
I0403 15:15:59.356300  2890 net.cpp:399] label_data_1_split -> label_data_1_split_3
I0403 15:15:59.356320  2890 net.cpp:399] label_data_1_split -> label_data_1_split_4
I0403 15:15:59.356340  2890 net.cpp:399] label_data_1_split -> label_data_1_split_5
I0403 15:15:59.356360  2890 net.cpp:399] label_data_1_split -> label_data_1_split_6
I0403 15:15:59.356381  2890 net.cpp:399] label_data_1_split -> label_data_1_split_7
I0403 15:15:59.356401  2890 net.cpp:399] label_data_1_split -> label_data_1_split_8
I0403 15:15:59.356422  2890 net.cpp:399] label_data_1_split -> label_data_1_split_9
I0403 15:15:59.356541  2890 net.cpp:141] Setting up label_data_1_split
I0403 15:15:59.356564  2890 net.cpp:148] Top shape: 24 (24)
I0403 15:15:59.356582  2890 net.cpp:148] Top shape: 24 (24)
I0403 15:15:59.356598  2890 net.cpp:148] Top shape: 24 (24)
I0403 15:15:59.356614  2890 net.cpp:148] Top shape: 24 (24)
I0403 15:15:59.356631  2890 net.cpp:148] Top shape: 24 (24)
I0403 15:15:59.356647  2890 net.cpp:148] Top shape: 24 (24)
I0403 15:15:59.356663  2890 net.cpp:148] Top shape: 24 (24)
I0403 15:15:59.356679  2890 net.cpp:148] Top shape: 24 (24)
I0403 15:15:59.356695  2890 net.cpp:148] Top shape: 24 (24)
I0403 15:15:59.356712  2890 net.cpp:148] Top shape: 24 (24)
I0403 15:15:59.356757  2890 net.cpp:156] Memory required for data: 14451744
I0403 15:15:59.356775  2890 layer_factory.hpp:77] Creating layer conv1/7x7_s2
I0403 15:15:59.356806  2890 net.cpp:91] Creating Layer conv1/7x7_s2
I0403 15:15:59.356825  2890 net.cpp:425] conv1/7x7_s2 <- data
I0403 15:15:59.356845  2890 net.cpp:399] conv1/7x7_s2 -> conv1/7x7_s2
I0403 15:15:59.499198  2890 net.cpp:141] Setting up conv1/7x7_s2
I0403 15:15:59.499294  2890 net.cpp:148] Top shape: 24 64 112 112 (19267584)
I0403 15:15:59.499312  2890 net.cpp:156] Memory required for data: 91522080
I0403 15:15:59.499344  2890 layer_factory.hpp:77] Creating layer conv1/relu_7x7
I0403 15:15:59.499373  2890 net.cpp:91] Creating Layer conv1/relu_7x7
I0403 15:15:59.499394  2890 net.cpp:425] conv1/relu_7x7 <- conv1/7x7_s2
I0403 15:15:59.499419  2890 net.cpp:386] conv1/relu_7x7 -> conv1/7x7_s2 (in-place)
I0403 15:15:59.499692  2890 net.cpp:141] Setting up conv1/relu_7x7
I0403 15:15:59.499721  2890 net.cpp:148] Top shape: 24 64 112 112 (19267584)
I0403 15:15:59.499737  2890 net.cpp:156] Memory required for data: 168592416
I0403 15:15:59.499752  2890 layer_factory.hpp:77] Creating layer pool1/3x3_s2
I0403 15:15:59.499778  2890 net.cpp:91] Creating Layer pool1/3x3_s2
I0403 15:15:59.499797  2890 net.cpp:425] pool1/3x3_s2 <- conv1/7x7_s2
I0403 15:15:59.499816  2890 net.cpp:399] pool1/3x3_s2 -> pool1/3x3_s2
I0403 15:15:59.499892  2890 net.cpp:141] Setting up pool1/3x3_s2
I0403 15:15:59.499917  2890 net.cpp:148] Top shape: 24 64 56 56 (4816896)
I0403 15:15:59.499933  2890 net.cpp:156] Memory required for data: 187860000
I0403 15:15:59.499949  2890 layer_factory.hpp:77] Creating layer pool1/norm1
I0403 15:15:59.499974  2890 net.cpp:91] Creating Layer pool1/norm1
I0403 15:15:59.499991  2890 net.cpp:425] pool1/norm1 <- pool1/3x3_s2
I0403 15:15:59.500010  2890 net.cpp:399] pool1/norm1 -> pool1/norm1
I0403 15:15:59.500313  2890 net.cpp:141] Setting up pool1/norm1
I0403 15:15:59.500342  2890 net.cpp:148] Top shape: 24 64 56 56 (4816896)
I0403 15:15:59.500358  2890 net.cpp:156] Memory required for data: 207127584
I0403 15:15:59.500375  2890 layer_factory.hpp:77] Creating layer conv2/3x3_reduce
I0403 15:15:59.500401  2890 net.cpp:91] Creating Layer conv2/3x3_reduce
I0403 15:15:59.500416  2890 net.cpp:425] conv2/3x3_reduce <- pool1/norm1
I0403 15:15:59.500435  2890 net.cpp:399] conv2/3x3_reduce -> conv2/3x3_reduce
I0403 15:15:59.501816  2890 net.cpp:141] Setting up conv2/3x3_reduce
I0403 15:15:59.501845  2890 net.cpp:148] Top shape: 24 64 56 56 (4816896)
I0403 15:15:59.501863  2890 net.cpp:156] Memory required for data: 226395168
I0403 15:15:59.501885  2890 layer_factory.hpp:77] Creating layer conv2/relu_3x3_reduce
I0403 15:15:59.501905  2890 net.cpp:91] Creating Layer conv2/relu_3x3_reduce
I0403 15:15:59.501921  2890 net.cpp:425] conv2/relu_3x3_reduce <- conv2/3x3_reduce
I0403 15:15:59.501940  2890 net.cpp:386] conv2/relu_3x3_reduce -> conv2/3x3_reduce (in-place)
I0403 15:15:59.502202  2890 net.cpp:141] Setting up conv2/relu_3x3_reduce
I0403 15:15:59.502229  2890 net.cpp:148] Top shape: 24 64 56 56 (4816896)
I0403 15:15:59.502251  2890 net.cpp:156] Memory required for data: 245662752
I0403 15:15:59.502267  2890 layer_factory.hpp:77] Creating layer conv2/3x3
I0403 15:15:59.502290  2890 net.cpp:91] Creating Layer conv2/3x3
I0403 15:15:59.502308  2890 net.cpp:425] conv2/3x3 <- conv2/3x3_reduce
I0403 15:15:59.502327  2890 net.cpp:399] conv2/3x3 -> conv2/3x3
I0403 15:15:59.504678  2890 net.cpp:141] Setting up conv2/3x3
I0403 15:15:59.504710  2890 net.cpp:148] Top shape: 24 192 56 56 (14450688)
I0403 15:15:59.504727  2890 net.cpp:156] Memory required for data: 303465504
I0403 15:15:59.504750  2890 layer_factory.hpp:77] Creating layer conv2/relu_3x3
I0403 15:15:59.504773  2890 net.cpp:91] Creating Layer conv2/relu_3x3
I0403 15:15:59.504791  2890 net.cpp:425] conv2/relu_3x3 <- conv2/3x3
I0403 15:15:59.504812  2890 net.cpp:386] conv2/relu_3x3 -> conv2/3x3 (in-place)
I0403 15:15:59.504984  2890 net.cpp:141] Setting up conv2/relu_3x3
I0403 15:15:59.505012  2890 net.cpp:148] Top shape: 24 192 56 56 (14450688)
I0403 15:15:59.505058  2890 net.cpp:156] Memory required for data: 361268256
I0403 15:15:59.505074  2890 layer_factory.hpp:77] Creating layer conv2/norm2
I0403 15:15:59.505094  2890 net.cpp:91] Creating Layer conv2/norm2
I0403 15:15:59.505110  2890 net.cpp:425] conv2/norm2 <- conv2/3x3
I0403 15:15:59.505128  2890 net.cpp:399] conv2/norm2 -> conv2/norm2
I0403 15:15:59.505450  2890 net.cpp:141] Setting up conv2/norm2
I0403 15:15:59.505480  2890 net.cpp:148] Top shape: 24 192 56 56 (14450688)
I0403 15:15:59.505496  2890 net.cpp:156] Memory required for data: 419071008
I0403 15:15:59.505511  2890 layer_factory.hpp:77] Creating layer pool2/3x3_s2
I0403 15:15:59.505530  2890 net.cpp:91] Creating Layer pool2/3x3_s2
I0403 15:15:59.505550  2890 net.cpp:425] pool2/3x3_s2 <- conv2/norm2
I0403 15:15:59.505569  2890 net.cpp:399] pool2/3x3_s2 -> pool2/3x3_s2
I0403 15:15:59.505625  2890 net.cpp:141] Setting up pool2/3x3_s2
I0403 15:15:59.505648  2890 net.cpp:148] Top shape: 24 192 28 28 (3612672)
I0403 15:15:59.505664  2890 net.cpp:156] Memory required for data: 433521696
I0403 15:15:59.505679  2890 layer_factory.hpp:77] Creating layer pool2/3x3_s2_pool2/3x3_s2_0_split
I0403 15:15:59.505697  2890 net.cpp:91] Creating Layer pool2/3x3_s2_pool2/3x3_s2_0_split
I0403 15:15:59.505713  2890 net.cpp:425] pool2/3x3_s2_pool2/3x3_s2_0_split <- pool2/3x3_s2
I0403 15:15:59.505734  2890 net.cpp:399] pool2/3x3_s2_pool2/3x3_s2_0_split -> pool2/3x3_s2_pool2/3x3_s2_0_split_0
I0403 15:15:59.505756  2890 net.cpp:399] pool2/3x3_s2_pool2/3x3_s2_0_split -> pool2/3x3_s2_pool2/3x3_s2_0_split_1
I0403 15:15:59.505776  2890 net.cpp:399] pool2/3x3_s2_pool2/3x3_s2_0_split -> pool2/3x3_s2_pool2/3x3_s2_0_split_2
I0403 15:15:59.505796  2890 net.cpp:399] pool2/3x3_s2_pool2/3x3_s2_0_split -> pool2/3x3_s2_pool2/3x3_s2_0_split_3
I0403 15:15:59.505868  2890 net.cpp:141] Setting up pool2/3x3_s2_pool2/3x3_s2_0_split
I0403 15:15:59.505892  2890 net.cpp:148] Top shape: 24 192 28 28 (3612672)
I0403 15:15:59.505909  2890 net.cpp:148] Top shape: 24 192 28 28 (3612672)
I0403 15:15:59.505925  2890 net.cpp:148] Top shape: 24 192 28 28 (3612672)
I0403 15:15:59.505941  2890 net.cpp:148] Top shape: 24 192 28 28 (3612672)
I0403 15:15:59.505956  2890 net.cpp:156] Memory required for data: 491324448
I0403 15:15:59.505972  2890 layer_factory.hpp:77] Creating layer inception_3a/1x1
I0403 15:15:59.506000  2890 net.cpp:91] Creating Layer inception_3a/1x1
I0403 15:15:59.506019  2890 net.cpp:425] inception_3a/1x1 <- pool2/3x3_s2_pool2/3x3_s2_0_split_0
I0403 15:15:59.506041  2890 net.cpp:399] inception_3a/1x1 -> inception_3a/1x1
I0403 15:15:59.507669  2890 net.cpp:141] Setting up inception_3a/1x1
I0403 15:15:59.507700  2890 net.cpp:148] Top shape: 24 64 28 28 (1204224)
I0403 15:15:59.507716  2890 net.cpp:156] Memory required for data: 496141344
I0403 15:15:59.507735  2890 layer_factory.hpp:77] Creating layer inception_3a/relu_1x1
I0403 15:15:59.507756  2890 net.cpp:91] Creating Layer inception_3a/relu_1x1
I0403 15:15:59.507773  2890 net.cpp:425] inception_3a/relu_1x1 <- inception_3a/1x1
I0403 15:15:59.507792  2890 net.cpp:386] inception_3a/relu_1x1 -> inception_3a/1x1 (in-place)
I0403 15:15:59.507968  2890 net.cpp:141] Setting up inception_3a/relu_1x1
I0403 15:15:59.507997  2890 net.cpp:148] Top shape: 24 64 28 28 (1204224)
I0403 15:15:59.508013  2890 net.cpp:156] Memory required for data: 500958240
I0403 15:15:59.508028  2890 layer_factory.hpp:77] Creating layer inception_3a/3x3_reduce
I0403 15:15:59.508050  2890 net.cpp:91] Creating Layer inception_3a/3x3_reduce
I0403 15:15:59.508069  2890 net.cpp:425] inception_3a/3x3_reduce <- pool2/3x3_s2_pool2/3x3_s2_0_split_1
I0403 15:15:59.508087  2890 net.cpp:399] inception_3a/3x3_reduce -> inception_3a/3x3_reduce
I0403 15:15:59.509820  2890 net.cpp:141] Setting up inception_3a/3x3_reduce
I0403 15:15:59.509850  2890 net.cpp:148] Top shape: 24 96 28 28 (1806336)
I0403 15:15:59.509866  2890 net.cpp:156] Memory required for data: 508183584
I0403 15:15:59.509891  2890 layer_factory.hpp:77] Creating layer inception_3a/relu_3x3_reduce
I0403 15:15:59.509925  2890 net.cpp:91] Creating Layer inception_3a/relu_3x3_reduce
I0403 15:15:59.509943  2890 net.cpp:425] inception_3a/relu_3x3_reduce <- inception_3a/3x3_reduce
I0403 15:15:59.509960  2890 net.cpp:386] inception_3a/relu_3x3_reduce -> inception_3a/3x3_reduce (in-place)
I0403 15:15:59.510151  2890 net.cpp:141] Setting up inception_3a/relu_3x3_reduce
I0403 15:15:59.510176  2890 net.cpp:148] Top shape: 24 96 28 28 (1806336)
I0403 15:15:59.510191  2890 net.cpp:156] Memory required for data: 515408928
I0403 15:15:59.510206  2890 layer_factory.hpp:77] Creating layer inception_3a/3x3
I0403 15:15:59.510231  2890 net.cpp:91] Creating Layer inception_3a/3x3
I0403 15:15:59.510252  2890 net.cpp:425] inception_3a/3x3 <- inception_3a/3x3_reduce
I0403 15:15:59.510275  2890 net.cpp:399] inception_3a/3x3 -> inception_3a/3x3
I0403 15:15:59.511947  2890 net.cpp:141] Setting up inception_3a/3x3
I0403 15:15:59.511976  2890 net.cpp:148] Top shape: 24 128 28 28 (2408448)
I0403 15:15:59.511992  2890 net.cpp:156] Memory required for data: 525042720
I0403 15:15:59.512012  2890 layer_factory.hpp:77] Creating layer inception_3a/relu_3x3
I0403 15:15:59.512032  2890 net.cpp:91] Creating Layer inception_3a/relu_3x3
I0403 15:15:59.512048  2890 net.cpp:425] inception_3a/relu_3x3 <- inception_3a/3x3
I0403 15:15:59.512066  2890 net.cpp:386] inception_3a/relu_3x3 -> inception_3a/3x3 (in-place)
I0403 15:15:59.512349  2890 net.cpp:141] Setting up inception_3a/relu_3x3
I0403 15:15:59.512377  2890 net.cpp:148] Top shape: 24 128 28 28 (2408448)
I0403 15:15:59.512392  2890 net.cpp:156] Memory required for data: 534676512
I0403 15:15:59.512408  2890 layer_factory.hpp:77] Creating layer inception_3a/5x5_reduce
I0403 15:15:59.512431  2890 net.cpp:91] Creating Layer inception_3a/5x5_reduce
I0403 15:15:59.512449  2890 net.cpp:425] inception_3a/5x5_reduce <- pool2/3x3_s2_pool2/3x3_s2_0_split_2
I0403 15:15:59.512471  2890 net.cpp:399] inception_3a/5x5_reduce -> inception_3a/5x5_reduce
I0403 15:15:59.513500  2890 net.cpp:141] Setting up inception_3a/5x5_reduce
I0403 15:15:59.513531  2890 net.cpp:148] Top shape: 24 16 28 28 (301056)
I0403 15:15:59.513548  2890 net.cpp:156] Memory required for data: 535880736
I0403 15:15:59.513567  2890 layer_factory.hpp:77] Creating layer inception_3a/relu_5x5_reduce
I0403 15:15:59.513586  2890 net.cpp:91] Creating Layer inception_3a/relu_5x5_reduce
I0403 15:15:59.513602  2890 net.cpp:425] inception_3a/relu_5x5_reduce <- inception_3a/5x5_reduce
I0403 15:15:59.513623  2890 net.cpp:386] inception_3a/relu_5x5_reduce -> inception_3a/5x5_reduce (in-place)
I0403 15:15:59.513922  2890 net.cpp:141] Setting up inception_3a/relu_5x5_reduce
I0403 15:15:59.513952  2890 net.cpp:148] Top shape: 24 16 28 28 (301056)
I0403 15:15:59.513967  2890 net.cpp:156] Memory required for data: 537084960
I0403 15:15:59.513983  2890 layer_factory.hpp:77] Creating layer inception_3a/5x5
I0403 15:15:59.514005  2890 net.cpp:91] Creating Layer inception_3a/5x5
I0403 15:15:59.514024  2890 net.cpp:425] inception_3a/5x5 <- inception_3a/5x5_reduce
I0403 15:15:59.514044  2890 net.cpp:399] inception_3a/5x5 -> inception_3a/5x5
I0403 15:15:59.515074  2890 net.cpp:141] Setting up inception_3a/5x5
I0403 15:15:59.515101  2890 net.cpp:148] Top shape: 24 32 28 28 (602112)
I0403 15:15:59.515117  2890 net.cpp:156] Memory required for data: 539493408
I0403 15:15:59.515136  2890 layer_factory.hpp:77] Creating layer inception_3a/relu_5x5
I0403 15:15:59.515156  2890 net.cpp:91] Creating Layer inception_3a/relu_5x5
I0403 15:15:59.515173  2890 net.cpp:425] inception_3a/relu_5x5 <- inception_3a/5x5
I0403 15:15:59.515192  2890 net.cpp:386] inception_3a/relu_5x5 -> inception_3a/5x5 (in-place)
I0403 15:15:59.515373  2890 net.cpp:141] Setting up inception_3a/relu_5x5
I0403 15:15:59.515400  2890 net.cpp:148] Top shape: 24 32 28 28 (602112)
I0403 15:15:59.515416  2890 net.cpp:156] Memory required for data: 541901856
I0403 15:15:59.515432  2890 layer_factory.hpp:77] Creating layer inception_3a/pool
I0403 15:15:59.515450  2890 net.cpp:91] Creating Layer inception_3a/pool
I0403 15:15:59.515480  2890 net.cpp:425] inception_3a/pool <- pool2/3x3_s2_pool2/3x3_s2_0_split_3
I0403 15:15:59.515502  2890 net.cpp:399] inception_3a/pool -> inception_3a/pool
I0403 15:15:59.515560  2890 net.cpp:141] Setting up inception_3a/pool
I0403 15:15:59.515583  2890 net.cpp:148] Top shape: 24 192 28 28 (3612672)
I0403 15:15:59.515599  2890 net.cpp:156] Memory required for data: 556352544
I0403 15:15:59.515615  2890 layer_factory.hpp:77] Creating layer inception_3a/pool_proj
I0403 15:15:59.515638  2890 net.cpp:91] Creating Layer inception_3a/pool_proj
I0403 15:15:59.515656  2890 net.cpp:425] inception_3a/pool_proj <- inception_3a/pool
I0403 15:15:59.515678  2890 net.cpp:399] inception_3a/pool_proj -> inception_3a/pool_proj
I0403 15:15:59.516660  2890 net.cpp:141] Setting up inception_3a/pool_proj
I0403 15:15:59.516690  2890 net.cpp:148] Top shape: 24 32 28 28 (602112)
I0403 15:15:59.516705  2890 net.cpp:156] Memory required for data: 558760992
I0403 15:15:59.516729  2890 layer_factory.hpp:77] Creating layer inception_3a/relu_pool_proj
I0403 15:15:59.516749  2890 net.cpp:91] Creating Layer inception_3a/relu_pool_proj
I0403 15:15:59.516765  2890 net.cpp:425] inception_3a/relu_pool_proj <- inception_3a/pool_proj
I0403 15:15:59.516785  2890 net.cpp:386] inception_3a/relu_pool_proj -> inception_3a/pool_proj (in-place)
I0403 15:15:59.517065  2890 net.cpp:141] Setting up inception_3a/relu_pool_proj
I0403 15:15:59.517091  2890 net.cpp:148] Top shape: 24 32 28 28 (602112)
I0403 15:15:59.517107  2890 net.cpp:156] Memory required for data: 561169440
I0403 15:15:59.517122  2890 layer_factory.hpp:77] Creating layer inception_3a/output
I0403 15:15:59.517141  2890 net.cpp:91] Creating Layer inception_3a/output
I0403 15:15:59.517158  2890 net.cpp:425] inception_3a/output <- inception_3a/1x1
I0403 15:15:59.517175  2890 net.cpp:425] inception_3a/output <- inception_3a/3x3
I0403 15:15:59.517191  2890 net.cpp:425] inception_3a/output <- inception_3a/5x5
I0403 15:15:59.517207  2890 net.cpp:425] inception_3a/output <- inception_3a/pool_proj
I0403 15:15:59.517225  2890 net.cpp:399] inception_3a/output -> inception_3a/output
I0403 15:15:59.517293  2890 net.cpp:141] Setting up inception_3a/output
I0403 15:15:59.517318  2890 net.cpp:148] Top shape: 24 256 28 28 (4816896)
I0403 15:15:59.517333  2890 net.cpp:156] Memory required for data: 580437024
I0403 15:15:59.517349  2890 layer_factory.hpp:77] Creating layer inception_3a/output_inception_3a/output_0_split
I0403 15:15:59.517367  2890 net.cpp:91] Creating Layer inception_3a/output_inception_3a/output_0_split
I0403 15:15:59.517384  2890 net.cpp:425] inception_3a/output_inception_3a/output_0_split <- inception_3a/output
I0403 15:15:59.517405  2890 net.cpp:399] inception_3a/output_inception_3a/output_0_split -> inception_3a/output_inception_3a/output_0_split_0
I0403 15:15:59.517426  2890 net.cpp:399] inception_3a/output_inception_3a/output_0_split -> inception_3a/output_inception_3a/output_0_split_1
I0403 15:15:59.517452  2890 net.cpp:399] inception_3a/output_inception_3a/output_0_split -> inception_3a/output_inception_3a/output_0_split_2
I0403 15:15:59.517474  2890 net.cpp:399] inception_3a/output_inception_3a/output_0_split -> inception_3a/output_inception_3a/output_0_split_3
I0403 15:15:59.517551  2890 net.cpp:141] Setting up inception_3a/output_inception_3a/output_0_split
I0403 15:15:59.517575  2890 net.cpp:148] Top shape: 24 256 28 28 (4816896)
I0403 15:15:59.517596  2890 net.cpp:148] Top shape: 24 256 28 28 (4816896)
I0403 15:15:59.517613  2890 net.cpp:148] Top shape: 24 256 28 28 (4816896)
I0403 15:15:59.517630  2890 net.cpp:148] Top shape: 24 256 28 28 (4816896)
I0403 15:15:59.517645  2890 net.cpp:156] Memory required for data: 657507360
I0403 15:15:59.517660  2890 layer_factory.hpp:77] Creating layer inception_3b/1x1
I0403 15:15:59.517683  2890 net.cpp:91] Creating Layer inception_3b/1x1
I0403 15:15:59.517699  2890 net.cpp:425] inception_3b/1x1 <- inception_3a/output_inception_3a/output_0_split_0
I0403 15:15:59.517722  2890 net.cpp:399] inception_3b/1x1 -> inception_3b/1x1
I0403 15:15:59.518931  2890 net.cpp:141] Setting up inception_3b/1x1
I0403 15:15:59.518973  2890 net.cpp:148] Top shape: 24 128 28 28 (2408448)
I0403 15:15:59.518990  2890 net.cpp:156] Memory required for data: 667141152
I0403 15:15:59.519009  2890 layer_factory.hpp:77] Creating layer inception_3b/relu_1x1
I0403 15:15:59.519032  2890 net.cpp:91] Creating Layer inception_3b/relu_1x1
I0403 15:15:59.519048  2890 net.cpp:425] inception_3b/relu_1x1 <- inception_3b/1x1
I0403 15:15:59.519069  2890 net.cpp:386] inception_3b/relu_1x1 -> inception_3b/1x1 (in-place)
I0403 15:15:59.519258  2890 net.cpp:141] Setting up inception_3b/relu_1x1
I0403 15:15:59.519284  2890 net.cpp:148] Top shape: 24 128 28 28 (2408448)
I0403 15:15:59.519299  2890 net.cpp:156] Memory required for data: 676774944
I0403 15:15:59.519315  2890 layer_factory.hpp:77] Creating layer inception_3b/3x3_reduce
I0403 15:15:59.519342  2890 net.cpp:91] Creating Layer inception_3b/3x3_reduce
I0403 15:15:59.519361  2890 net.cpp:425] inception_3b/3x3_reduce <- inception_3a/output_inception_3a/output_0_split_1
I0403 15:15:59.519381  2890 net.cpp:399] inception_3b/3x3_reduce -> inception_3b/3x3_reduce
I0403 15:15:59.520584  2890 net.cpp:141] Setting up inception_3b/3x3_reduce
I0403 15:15:59.520613  2890 net.cpp:148] Top shape: 24 128 28 28 (2408448)
I0403 15:15:59.520629  2890 net.cpp:156] Memory required for data: 686408736
I0403 15:15:59.520649  2890 layer_factory.hpp:77] Creating layer inception_3b/relu_3x3_reduce
I0403 15:15:59.520670  2890 net.cpp:91] Creating Layer inception_3b/relu_3x3_reduce
I0403 15:15:59.520687  2890 net.cpp:425] inception_3b/relu_3x3_reduce <- inception_3b/3x3_reduce
I0403 15:15:59.520706  2890 net.cpp:386] inception_3b/relu_3x3_reduce -> inception_3b/3x3_reduce (in-place)
I0403 15:15:59.520889  2890 net.cpp:141] Setting up inception_3b/relu_3x3_reduce
I0403 15:15:59.520915  2890 net.cpp:148] Top shape: 24 128 28 28 (2408448)
I0403 15:15:59.520933  2890 net.cpp:156] Memory required for data: 696042528
I0403 15:15:59.520951  2890 layer_factory.hpp:77] Creating layer inception_3b/3x3
I0403 15:15:59.520975  2890 net.cpp:91] Creating Layer inception_3b/3x3
I0403 15:15:59.520993  2890 net.cpp:425] inception_3b/3x3 <- inception_3b/3x3_reduce
I0403 15:15:59.521016  2890 net.cpp:399] inception_3b/3x3 -> inception_3b/3x3
I0403 15:15:59.524080  2890 net.cpp:141] Setting up inception_3b/3x3
I0403 15:15:59.524111  2890 net.cpp:148] Top shape: 24 192 28 28 (3612672)
I0403 15:15:59.524128  2890 net.cpp:156] Memory required for data: 710493216
I0403 15:15:59.524148  2890 layer_factory.hpp:77] Creating layer inception_3b/relu_3x3
I0403 15:15:59.524173  2890 net.cpp:91] Creating Layer inception_3b/relu_3x3
I0403 15:15:59.524190  2890 net.cpp:425] inception_3b/relu_3x3 <- inception_3b/3x3
I0403 15:15:59.524209  2890 net.cpp:386] inception_3b/relu_3x3 -> inception_3b/3x3 (in-place)
I0403 15:15:59.524503  2890 net.cpp:141] Setting up inception_3b/relu_3x3
I0403 15:15:59.524533  2890 net.cpp:148] Top shape: 24 192 28 28 (3612672)
I0403 15:15:59.524547  2890 net.cpp:156] Memory required for data: 724943904
I0403 15:15:59.524564  2890 layer_factory.hpp:77] Creating layer inception_3b/5x5_reduce
I0403 15:15:59.524590  2890 net.cpp:91] Creating Layer inception_3b/5x5_reduce
I0403 15:15:59.524610  2890 net.cpp:425] inception_3b/5x5_reduce <- inception_3a/output_inception_3a/output_0_split_2
I0403 15:15:59.524631  2890 net.cpp:399] inception_3b/5x5_reduce -> inception_3b/5x5_reduce
I0403 15:15:59.525672  2890 net.cpp:141] Setting up inception_3b/5x5_reduce
I0403 15:15:59.525701  2890 net.cpp:148] Top shape: 24 32 28 28 (602112)
I0403 15:15:59.525717  2890 net.cpp:156] Memory required for data: 727352352
I0403 15:15:59.525738  2890 layer_factory.hpp:77] Creating layer inception_3b/relu_5x5_reduce
I0403 15:15:59.525759  2890 net.cpp:91] Creating Layer inception_3b/relu_5x5_reduce
I0403 15:15:59.525777  2890 net.cpp:425] inception_3b/relu_5x5_reduce <- inception_3b/5x5_reduce
I0403 15:15:59.525796  2890 net.cpp:386] inception_3b/relu_5x5_reduce -> inception_3b/5x5_reduce (in-place)
I0403 15:15:59.525996  2890 net.cpp:141] Setting up inception_3b/relu_5x5_reduce
I0403 15:15:59.526026  2890 net.cpp:148] Top shape: 24 32 28 28 (602112)
I0403 15:15:59.526043  2890 net.cpp:156] Memory required for data: 729760800
I0403 15:15:59.526058  2890 layer_factory.hpp:77] Creating layer inception_3b/5x5
I0403 15:15:59.526082  2890 net.cpp:91] Creating Layer inception_3b/5x5
I0403 15:15:59.526101  2890 net.cpp:425] inception_3b/5x5 <- inception_3b/5x5_reduce
I0403 15:15:59.526123  2890 net.cpp:399] inception_3b/5x5 -> inception_3b/5x5
I0403 15:15:59.528182  2890 net.cpp:141] Setting up inception_3b/5x5
I0403 15:15:59.528213  2890 net.cpp:148] Top shape: 24 96 28 28 (1806336)
I0403 15:15:59.528229  2890 net.cpp:156] Memory required for data: 736986144
I0403 15:15:59.528254  2890 layer_factory.hpp:77] Creating layer inception_3b/relu_5x5
I0403 15:15:59.528277  2890 net.cpp:91] Creating Layer inception_3b/relu_5x5
I0403 15:15:59.528296  2890 net.cpp:425] inception_3b/relu_5x5 <- inception_3b/5x5
I0403 15:15:59.528316  2890 net.cpp:386] inception_3b/relu_5x5 -> inception_3b/5x5 (in-place)
I0403 15:15:59.528517  2890 net.cpp:141] Setting up inception_3b/relu_5x5
I0403 15:15:59.528543  2890 net.cpp:148] Top shape: 24 96 28 28 (1806336)
I0403 15:15:59.528558  2890 net.cpp:156] Memory required for data: 744211488
I0403 15:15:59.528575  2890 layer_factory.hpp:77] Creating layer inception_3b/pool
I0403 15:15:59.528594  2890 net.cpp:91] Creating Layer inception_3b/pool
I0403 15:15:59.528611  2890 net.cpp:425] inception_3b/pool <- inception_3a/output_inception_3a/output_0_split_3
I0403 15:15:59.528630  2890 net.cpp:399] inception_3b/pool -> inception_3b/pool
I0403 15:15:59.528688  2890 net.cpp:141] Setting up inception_3b/pool
I0403 15:15:59.528714  2890 net.cpp:148] Top shape: 24 256 28 28 (4816896)
I0403 15:15:59.528730  2890 net.cpp:156] Memory required for data: 763479072
I0403 15:15:59.528746  2890 layer_factory.hpp:77] Creating layer inception_3b/pool_proj
I0403 15:15:59.528769  2890 net.cpp:91] Creating Layer inception_3b/pool_proj
I0403 15:15:59.528789  2890 net.cpp:425] inception_3b/pool_proj <- inception_3b/pool
I0403 15:15:59.528811  2890 net.cpp:399] inception_3b/pool_proj -> inception_3b/pool_proj
I0403 15:15:59.529917  2890 net.cpp:141] Setting up inception_3b/pool_proj
I0403 15:15:59.529947  2890 net.cpp:148] Top shape: 24 64 28 28 (1204224)
I0403 15:15:59.529963  2890 net.cpp:156] Memory required for data: 768295968
I0403 15:15:59.529983  2890 layer_factory.hpp:77] Creating layer inception_3b/relu_pool_proj
I0403 15:15:59.530002  2890 net.cpp:91] Creating Layer inception_3b/relu_pool_proj
I0403 15:15:59.530019  2890 net.cpp:425] inception_3b/relu_pool_proj <- inception_3b/pool_proj
I0403 15:15:59.530040  2890 net.cpp:386] inception_3b/relu_pool_proj -> inception_3b/pool_proj (in-place)
I0403 15:15:59.530457  2890 net.cpp:141] Setting up inception_3b/relu_pool_proj
I0403 15:15:59.530490  2890 net.cpp:148] Top shape: 24 64 28 28 (1204224)
I0403 15:15:59.530509  2890 net.cpp:156] Memory required for data: 773112864
I0403 15:15:59.530525  2890 layer_factory.hpp:77] Creating layer inception_3b/output
I0403 15:15:59.530544  2890 net.cpp:91] Creating Layer inception_3b/output
I0403 15:15:59.530560  2890 net.cpp:425] inception_3b/output <- inception_3b/1x1
I0403 15:15:59.530578  2890 net.cpp:425] inception_3b/output <- inception_3b/3x3
I0403 15:15:59.530596  2890 net.cpp:425] inception_3b/output <- inception_3b/5x5
I0403 15:15:59.530612  2890 net.cpp:425] inception_3b/output <- inception_3b/pool_proj
I0403 15:15:59.530629  2890 net.cpp:399] inception_3b/output -> inception_3b/output
I0403 15:15:59.530678  2890 net.cpp:141] Setting up inception_3b/output
I0403 15:15:59.530701  2890 net.cpp:148] Top shape: 24 480 28 28 (9031680)
I0403 15:15:59.530719  2890 net.cpp:156] Memory required for data: 809239584
I0403 15:15:59.530733  2890 layer_factory.hpp:77] Creating layer pool3/3x3_s2
I0403 15:15:59.530755  2890 net.cpp:91] Creating Layer pool3/3x3_s2
I0403 15:15:59.530772  2890 net.cpp:425] pool3/3x3_s2 <- inception_3b/output
I0403 15:15:59.530807  2890 net.cpp:399] pool3/3x3_s2 -> pool3/3x3_s2
I0403 15:15:59.530869  2890 net.cpp:141] Setting up pool3/3x3_s2
I0403 15:15:59.530894  2890 net.cpp:148] Top shape: 24 480 14 14 (2257920)
I0403 15:15:59.530908  2890 net.cpp:156] Memory required for data: 818271264
I0403 15:15:59.530925  2890 layer_factory.hpp:77] Creating layer pool3/3x3_s2_pool3/3x3_s2_0_split
I0403 15:15:59.530942  2890 net.cpp:91] Creating Layer pool3/3x3_s2_pool3/3x3_s2_0_split
I0403 15:15:59.530958  2890 net.cpp:425] pool3/3x3_s2_pool3/3x3_s2_0_split <- pool3/3x3_s2
I0403 15:15:59.530978  2890 net.cpp:399] pool3/3x3_s2_pool3/3x3_s2_0_split -> pool3/3x3_s2_pool3/3x3_s2_0_split_0
I0403 15:15:59.531000  2890 net.cpp:399] pool3/3x3_s2_pool3/3x3_s2_0_split -> pool3/3x3_s2_pool3/3x3_s2_0_split_1
I0403 15:15:59.531020  2890 net.cpp:399] pool3/3x3_s2_pool3/3x3_s2_0_split -> pool3/3x3_s2_pool3/3x3_s2_0_split_2
I0403 15:15:59.531040  2890 net.cpp:399] pool3/3x3_s2_pool3/3x3_s2_0_split -> pool3/3x3_s2_pool3/3x3_s2_0_split_3
I0403 15:15:59.531118  2890 net.cpp:141] Setting up pool3/3x3_s2_pool3/3x3_s2_0_split
I0403 15:15:59.531144  2890 net.cpp:148] Top shape: 24 480 14 14 (2257920)
I0403 15:15:59.531162  2890 net.cpp:148] Top shape: 24 480 14 14 (2257920)
I0403 15:15:59.531178  2890 net.cpp:148] Top shape: 24 480 14 14 (2257920)
I0403 15:15:59.531194  2890 net.cpp:148] Top shape: 24 480 14 14 (2257920)
I0403 15:15:59.531209  2890 net.cpp:156] Memory required for data: 854397984
I0403 15:15:59.531224  2890 layer_factory.hpp:77] Creating layer inception_4a/1x1
I0403 15:15:59.531251  2890 net.cpp:91] Creating Layer inception_4a/1x1
I0403 15:15:59.531271  2890 net.cpp:425] inception_4a/1x1 <- pool3/3x3_s2_pool3/3x3_s2_0_split_0
I0403 15:15:59.531294  2890 net.cpp:399] inception_4a/1x1 -> inception_4a/1x1
I0403 15:15:59.532943  2890 net.cpp:141] Setting up inception_4a/1x1
I0403 15:15:59.532971  2890 net.cpp:148] Top shape: 24 192 14 14 (903168)
I0403 15:15:59.532989  2890 net.cpp:156] Memory required for data: 858010656
I0403 15:15:59.533009  2890 layer_factory.hpp:77] Creating layer inception_4a/relu_1x1
I0403 15:15:59.533026  2890 net.cpp:91] Creating Layer inception_4a/relu_1x1
I0403 15:15:59.533043  2890 net.cpp:425] inception_4a/relu_1x1 <- inception_4a/1x1
I0403 15:15:59.533063  2890 net.cpp:386] inception_4a/relu_1x1 -> inception_4a/1x1 (in-place)
I0403 15:15:59.533262  2890 net.cpp:141] Setting up inception_4a/relu_1x1
I0403 15:15:59.533288  2890 net.cpp:148] Top shape: 24 192 14 14 (903168)
I0403 15:15:59.533303  2890 net.cpp:156] Memory required for data: 861623328
I0403 15:15:59.533319  2890 layer_factory.hpp:77] Creating layer inception_4a/3x3_reduce
I0403 15:15:59.533344  2890 net.cpp:91] Creating Layer inception_4a/3x3_reduce
I0403 15:15:59.533361  2890 net.cpp:425] inception_4a/3x3_reduce <- pool3/3x3_s2_pool3/3x3_s2_0_split_1
I0403 15:15:59.533385  2890 net.cpp:399] inception_4a/3x3_reduce -> inception_4a/3x3_reduce
I0403 15:15:59.534724  2890 net.cpp:141] Setting up inception_4a/3x3_reduce
I0403 15:15:59.534755  2890 net.cpp:148] Top shape: 24 96 14 14 (451584)
I0403 15:15:59.534772  2890 net.cpp:156] Memory required for data: 863429664
I0403 15:15:59.534800  2890 layer_factory.hpp:77] Creating layer inception_4a/relu_3x3_reduce
I0403 15:15:59.534819  2890 net.cpp:91] Creating Layer inception_4a/relu_3x3_reduce
I0403 15:15:59.534837  2890 net.cpp:425] inception_4a/relu_3x3_reduce <- inception_4a/3x3_reduce
I0403 15:15:59.534855  2890 net.cpp:386] inception_4a/relu_3x3_reduce -> inception_4a/3x3_reduce (in-place)
I0403 15:15:59.535044  2890 net.cpp:141] Setting up inception_4a/relu_3x3_reduce
I0403 15:15:59.535069  2890 net.cpp:148] Top shape: 24 96 14 14 (451584)
I0403 15:15:59.535085  2890 net.cpp:156] Memory required for data: 865236000
I0403 15:15:59.535100  2890 layer_factory.hpp:77] Creating layer inception_4a/3x3
I0403 15:15:59.535123  2890 net.cpp:91] Creating Layer inception_4a/3x3
I0403 15:15:59.535142  2890 net.cpp:425] inception_4a/3x3 <- inception_4a/3x3_reduce
I0403 15:15:59.535166  2890 net.cpp:399] inception_4a/3x3 -> inception_4a/3x3
I0403 15:15:59.538033  2890 net.cpp:141] Setting up inception_4a/3x3
I0403 15:15:59.538061  2890 net.cpp:148] Top shape: 24 208 14 14 (978432)
I0403 15:15:59.538077  2890 net.cpp:156] Memory required for data: 869149728
I0403 15:15:59.538097  2890 layer_factory.hpp:77] Creating layer inception_4a/relu_3x3
I0403 15:15:59.538118  2890 net.cpp:91] Creating Layer inception_4a/relu_3x3
I0403 15:15:59.538136  2890 net.cpp:425] inception_4a/relu_3x3 <- inception_4a/3x3
I0403 15:15:59.538153  2890 net.cpp:386] inception_4a/relu_3x3 -> inception_4a/3x3 (in-place)
I0403 15:15:59.538444  2890 net.cpp:141] Setting up inception_4a/relu_3x3
I0403 15:15:59.538473  2890 net.cpp:148] Top shape: 24 208 14 14 (978432)
I0403 15:15:59.538488  2890 net.cpp:156] Memory required for data: 873063456
I0403 15:15:59.538503  2890 layer_factory.hpp:77] Creating layer inception_4a/5x5_reduce
I0403 15:15:59.538527  2890 net.cpp:91] Creating Layer inception_4a/5x5_reduce
I0403 15:15:59.538544  2890 net.cpp:425] inception_4a/5x5_reduce <- pool3/3x3_s2_pool3/3x3_s2_0_split_2
I0403 15:15:59.538568  2890 net.cpp:399] inception_4a/5x5_reduce -> inception_4a/5x5_reduce
I0403 15:15:59.539613  2890 net.cpp:141] Setting up inception_4a/5x5_reduce
I0403 15:15:59.539641  2890 net.cpp:148] Top shape: 24 16 14 14 (75264)
I0403 15:15:59.539657  2890 net.cpp:156] Memory required for data: 873364512
I0403 15:15:59.539676  2890 layer_factory.hpp:77] Creating layer inception_4a/relu_5x5_reduce
I0403 15:15:59.539696  2890 net.cpp:91] Creating Layer inception_4a/relu_5x5_reduce
I0403 15:15:59.539716  2890 net.cpp:425] inception_4a/relu_5x5_reduce <- inception_4a/5x5_reduce
I0403 15:15:59.539733  2890 net.cpp:386] inception_4a/relu_5x5_reduce -> inception_4a/5x5_reduce (in-place)
I0403 15:15:59.539916  2890 net.cpp:141] Setting up inception_4a/relu_5x5_reduce
I0403 15:15:59.539944  2890 net.cpp:148] Top shape: 24 16 14 14 (75264)
I0403 15:15:59.539959  2890 net.cpp:156] Memory required for data: 873665568
I0403 15:15:59.539975  2890 layer_factory.hpp:77] Creating layer inception_4a/5x5
I0403 15:15:59.539999  2890 net.cpp:91] Creating Layer inception_4a/5x5
I0403 15:15:59.540016  2890 net.cpp:425] inception_4a/5x5 <- inception_4a/5x5_reduce
I0403 15:15:59.540036  2890 net.cpp:399] inception_4a/5x5 -> inception_4a/5x5
I0403 15:15:59.541146  2890 net.cpp:141] Setting up inception_4a/5x5
I0403 15:15:59.541177  2890 net.cpp:148] Top shape: 24 48 14 14 (225792)
I0403 15:15:59.541193  2890 net.cpp:156] Memory required for data: 874568736
I0403 15:15:59.541213  2890 layer_factory.hpp:77] Creating layer inception_4a/relu_5x5
I0403 15:15:59.541231  2890 net.cpp:91] Creating Layer inception_4a/relu_5x5
I0403 15:15:59.541252  2890 net.cpp:425] inception_4a/relu_5x5 <- inception_4a/5x5
I0403 15:15:59.541275  2890 net.cpp:386] inception_4a/relu_5x5 -> inception_4a/5x5 (in-place)
I0403 15:15:59.541458  2890 net.cpp:141] Setting up inception_4a/relu_5x5
I0403 15:15:59.541483  2890 net.cpp:148] Top shape: 24 48 14 14 (225792)
I0403 15:15:59.541498  2890 net.cpp:156] Memory required for data: 875471904
I0403 15:15:59.541514  2890 layer_factory.hpp:77] Creating layer inception_4a/pool
I0403 15:15:59.541532  2890 net.cpp:91] Creating Layer inception_4a/pool
I0403 15:15:59.541549  2890 net.cpp:425] inception_4a/pool <- pool3/3x3_s2_pool3/3x3_s2_0_split_3
I0403 15:15:59.541570  2890 net.cpp:399] inception_4a/pool -> inception_4a/pool
I0403 15:15:59.541632  2890 net.cpp:141] Setting up inception_4a/pool
I0403 15:15:59.541656  2890 net.cpp:148] Top shape: 24 480 14 14 (2257920)
I0403 15:15:59.541672  2890 net.cpp:156] Memory required for data: 884503584
I0403 15:15:59.541687  2890 layer_factory.hpp:77] Creating layer inception_4a/pool_proj
I0403 15:15:59.541712  2890 net.cpp:91] Creating Layer inception_4a/pool_proj
I0403 15:15:59.541729  2890 net.cpp:425] inception_4a/pool_proj <- inception_4a/pool
I0403 15:15:59.541749  2890 net.cpp:399] inception_4a/pool_proj -> inception_4a/pool_proj
I0403 15:15:59.542937  2890 net.cpp:141] Setting up inception_4a/pool_proj
I0403 15:15:59.542968  2890 net.cpp:148] Top shape: 24 64 14 14 (301056)
I0403 15:15:59.543001  2890 net.cpp:156] Memory required for data: 885707808
I0403 15:15:59.543021  2890 layer_factory.hpp:77] Creating layer inception_4a/relu_pool_proj
I0403 15:15:59.543040  2890 net.cpp:91] Creating Layer inception_4a/relu_pool_proj
I0403 15:15:59.543056  2890 net.cpp:425] inception_4a/relu_pool_proj <- inception_4a/pool_proj
I0403 15:15:59.543077  2890 net.cpp:386] inception_4a/relu_pool_proj -> inception_4a/pool_proj (in-place)
I0403 15:15:59.543375  2890 net.cpp:141] Setting up inception_4a/relu_pool_proj
I0403 15:15:59.543404  2890 net.cpp:148] Top shape: 24 64 14 14 (301056)
I0403 15:15:59.543421  2890 net.cpp:156] Memory required for data: 886912032
I0403 15:15:59.543437  2890 layer_factory.hpp:77] Creating layer inception_4a/output
I0403 15:15:59.543454  2890 net.cpp:91] Creating Layer inception_4a/output
I0403 15:15:59.543472  2890 net.cpp:425] inception_4a/output <- inception_4a/1x1
I0403 15:15:59.543488  2890 net.cpp:425] inception_4a/output <- inception_4a/3x3
I0403 15:15:59.543504  2890 net.cpp:425] inception_4a/output <- inception_4a/5x5
I0403 15:15:59.543521  2890 net.cpp:425] inception_4a/output <- inception_4a/pool_proj
I0403 15:15:59.543541  2890 net.cpp:399] inception_4a/output -> inception_4a/output
I0403 15:15:59.543586  2890 net.cpp:141] Setting up inception_4a/output
I0403 15:15:59.543609  2890 net.cpp:148] Top shape: 24 512 14 14 (2408448)
I0403 15:15:59.543624  2890 net.cpp:156] Memory required for data: 896545824
I0403 15:15:59.543639  2890 layer_factory.hpp:77] Creating layer inception_4a/output_inception_4a/output_0_split
I0403 15:15:59.543660  2890 net.cpp:91] Creating Layer inception_4a/output_inception_4a/output_0_split
I0403 15:15:59.543676  2890 net.cpp:425] inception_4a/output_inception_4a/output_0_split <- inception_4a/output
I0403 15:15:59.543695  2890 net.cpp:399] inception_4a/output_inception_4a/output_0_split -> inception_4a/output_inception_4a/output_0_split_0
I0403 15:15:59.543718  2890 net.cpp:399] inception_4a/output_inception_4a/output_0_split -> inception_4a/output_inception_4a/output_0_split_1
I0403 15:15:59.543740  2890 net.cpp:399] inception_4a/output_inception_4a/output_0_split -> inception_4a/output_inception_4a/output_0_split_2
I0403 15:15:59.543761  2890 net.cpp:399] inception_4a/output_inception_4a/output_0_split -> inception_4a/output_inception_4a/output_0_split_3
I0403 15:15:59.543781  2890 net.cpp:399] inception_4a/output_inception_4a/output_0_split -> inception_4a/output_inception_4a/output_0_split_4
I0403 15:15:59.543876  2890 net.cpp:141] Setting up inception_4a/output_inception_4a/output_0_split
I0403 15:15:59.543900  2890 net.cpp:148] Top shape: 24 512 14 14 (2408448)
I0403 15:15:59.543916  2890 net.cpp:148] Top shape: 24 512 14 14 (2408448)
I0403 15:15:59.543932  2890 net.cpp:148] Top shape: 24 512 14 14 (2408448)
I0403 15:15:59.543948  2890 net.cpp:148] Top shape: 24 512 14 14 (2408448)
I0403 15:15:59.543964  2890 net.cpp:148] Top shape: 24 512 14 14 (2408448)
I0403 15:15:59.543978  2890 net.cpp:156] Memory required for data: 944714784
I0403 15:15:59.543993  2890 layer_factory.hpp:77] Creating layer loss1/ave_pool
I0403 15:15:59.544014  2890 net.cpp:91] Creating Layer loss1/ave_pool
I0403 15:15:59.544031  2890 net.cpp:425] loss1/ave_pool <- inception_4a/output_inception_4a/output_0_split_0
I0403 15:15:59.544049  2890 net.cpp:399] loss1/ave_pool -> loss1/ave_pool
I0403 15:15:59.544265  2890 net.cpp:141] Setting up loss1/ave_pool
I0403 15:15:59.544291  2890 net.cpp:148] Top shape: 24 512 4 4 (196608)
I0403 15:15:59.544307  2890 net.cpp:156] Memory required for data: 945501216
I0403 15:15:59.544322  2890 layer_factory.hpp:77] Creating layer loss1/conv
I0403 15:15:59.544345  2890 net.cpp:91] Creating Layer loss1/conv
I0403 15:15:59.544363  2890 net.cpp:425] loss1/conv <- loss1/ave_pool
I0403 15:15:59.544384  2890 net.cpp:399] loss1/conv -> loss1/conv
I0403 15:15:59.545824  2890 net.cpp:141] Setting up loss1/conv
I0403 15:15:59.545851  2890 net.cpp:148] Top shape: 24 128 4 4 (49152)
I0403 15:15:59.545882  2890 net.cpp:156] Memory required for data: 945697824
I0403 15:15:59.545903  2890 layer_factory.hpp:77] Creating layer loss1/relu_conv
I0403 15:15:59.545925  2890 net.cpp:91] Creating Layer loss1/relu_conv
I0403 15:15:59.545943  2890 net.cpp:425] loss1/relu_conv <- loss1/conv
I0403 15:15:59.545960  2890 net.cpp:386] loss1/relu_conv -> loss1/conv (in-place)
I0403 15:15:59.546254  2890 net.cpp:141] Setting up loss1/relu_conv
I0403 15:15:59.546282  2890 net.cpp:148] Top shape: 24 128 4 4 (49152)
I0403 15:15:59.546296  2890 net.cpp:156] Memory required for data: 945894432
I0403 15:15:59.546313  2890 layer_factory.hpp:77] Creating layer loss1/fc
I0403 15:15:59.546339  2890 net.cpp:91] Creating Layer loss1/fc
I0403 15:15:59.546357  2890 net.cpp:425] loss1/fc <- loss1/conv
I0403 15:15:59.546377  2890 net.cpp:399] loss1/fc -> loss1/fc
I0403 15:15:59.564846  2890 net.cpp:141] Setting up loss1/fc
I0403 15:15:59.564882  2890 net.cpp:148] Top shape: 24 1024 (24576)
I0403 15:15:59.564900  2890 net.cpp:156] Memory required for data: 945992736
I0403 15:15:59.564920  2890 layer_factory.hpp:77] Creating layer loss1/relu_fc
I0403 15:15:59.564940  2890 net.cpp:91] Creating Layer loss1/relu_fc
I0403 15:15:59.564957  2890 net.cpp:425] loss1/relu_fc <- loss1/fc
I0403 15:15:59.564980  2890 net.cpp:386] loss1/relu_fc -> loss1/fc (in-place)
I0403 15:15:59.565188  2890 net.cpp:141] Setting up loss1/relu_fc
I0403 15:15:59.565215  2890 net.cpp:148] Top shape: 24 1024 (24576)
I0403 15:15:59.565232  2890 net.cpp:156] Memory required for data: 946091040
I0403 15:15:59.565253  2890 layer_factory.hpp:77] Creating layer loss1/drop_fc
I0403 15:15:59.565284  2890 net.cpp:91] Creating Layer loss1/drop_fc
I0403 15:15:59.565304  2890 net.cpp:425] loss1/drop_fc <- loss1/fc
I0403 15:15:59.565322  2890 net.cpp:386] loss1/drop_fc -> loss1/fc (in-place)
I0403 15:15:59.565376  2890 net.cpp:141] Setting up loss1/drop_fc
I0403 15:15:59.565403  2890 net.cpp:148] Top shape: 24 1024 (24576)
I0403 15:15:59.565420  2890 net.cpp:156] Memory required for data: 946189344
I0403 15:15:59.565436  2890 layer_factory.hpp:77] Creating layer loss1/classifier_plantvillage
I0403 15:15:59.565455  2890 net.cpp:91] Creating Layer loss1/classifier_plantvillage
I0403 15:15:59.565472  2890 net.cpp:425] loss1/classifier_plantvillage <- loss1/fc
I0403 15:15:59.565495  2890 net.cpp:399] loss1/classifier_plantvillage -> loss1/classifier_plantvillage
I0403 15:15:59.566470  2890 net.cpp:141] Setting up loss1/classifier_plantvillage
I0403 15:15:59.566499  2890 net.cpp:148] Top shape: 24 38 (912)
I0403 15:15:59.566516  2890 net.cpp:156] Memory required for data: 946192992
I0403 15:15:59.566535  2890 layer_factory.hpp:77] Creating layer loss1/classifier_plantvillage_loss1/classifier_plantvillage_0_split
I0403 15:15:59.566555  2890 net.cpp:91] Creating Layer loss1/classifier_plantvillage_loss1/classifier_plantvillage_0_split
I0403 15:15:59.566572  2890 net.cpp:425] loss1/classifier_plantvillage_loss1/classifier_plantvillage_0_split <- loss1/classifier_plantvillage
I0403 15:15:59.566593  2890 net.cpp:399] loss1/classifier_plantvillage_loss1/classifier_plantvillage_0_split -> loss1/classifier_plantvillage_loss1/classifier_plantvillage_0_split_0
I0403 15:15:59.566617  2890 net.cpp:399] loss1/classifier_plantvillage_loss1/classifier_plantvillage_0_split -> loss1/classifier_plantvillage_loss1/classifier_plantvillage_0_split_1
I0403 15:15:59.566638  2890 net.cpp:399] loss1/classifier_plantvillage_loss1/classifier_plantvillage_0_split -> loss1/classifier_plantvillage_loss1/classifier_plantvillage_0_split_2
I0403 15:15:59.566710  2890 net.cpp:141] Setting up loss1/classifier_plantvillage_loss1/classifier_plantvillage_0_split
I0403 15:15:59.566735  2890 net.cpp:148] Top shape: 24 38 (912)
I0403 15:15:59.566752  2890 net.cpp:148] Top shape: 24 38 (912)
I0403 15:15:59.566769  2890 net.cpp:148] Top shape: 24 38 (912)
I0403 15:15:59.566784  2890 net.cpp:156] Memory required for data: 946203936
I0403 15:15:59.566799  2890 layer_factory.hpp:77] Creating layer inception_4b/1x1
I0403 15:15:59.566823  2890 net.cpp:91] Creating Layer inception_4b/1x1
I0403 15:15:59.566864  2890 net.cpp:425] inception_4b/1x1 <- inception_4a/output_inception_4a/output_0_split_1
I0403 15:15:59.566884  2890 net.cpp:399] inception_4b/1x1 -> inception_4b/1x1
I0403 15:15:59.568653  2890 net.cpp:141] Setting up inception_4b/1x1
I0403 15:15:59.568684  2890 net.cpp:148] Top shape: 24 160 14 14 (752640)
I0403 15:15:59.568701  2890 net.cpp:156] Memory required for data: 949214496
I0403 15:15:59.568722  2890 layer_factory.hpp:77] Creating layer inception_4b/relu_1x1
I0403 15:15:59.568742  2890 net.cpp:91] Creating Layer inception_4b/relu_1x1
I0403 15:15:59.568760  2890 net.cpp:425] inception_4b/relu_1x1 <- inception_4b/1x1
I0403 15:15:59.568779  2890 net.cpp:386] inception_4b/relu_1x1 -> inception_4b/1x1 (in-place)
I0403 15:15:59.568970  2890 net.cpp:141] Setting up inception_4b/relu_1x1
I0403 15:15:59.569000  2890 net.cpp:148] Top shape: 24 160 14 14 (752640)
I0403 15:15:59.569016  2890 net.cpp:156] Memory required for data: 952225056
I0403 15:15:59.569034  2890 layer_factory.hpp:77] Creating layer inception_4b/3x3_reduce
I0403 15:15:59.569059  2890 net.cpp:91] Creating Layer inception_4b/3x3_reduce
I0403 15:15:59.569079  2890 net.cpp:425] inception_4b/3x3_reduce <- inception_4a/output_inception_4a/output_0_split_2
I0403 15:15:59.569100  2890 net.cpp:399] inception_4b/3x3_reduce -> inception_4b/3x3_reduce
I0403 15:15:59.570541  2890 net.cpp:141] Setting up inception_4b/3x3_reduce
I0403 15:15:59.570574  2890 net.cpp:148] Top shape: 24 112 14 14 (526848)
I0403 15:15:59.570591  2890 net.cpp:156] Memory required for data: 954332448
I0403 15:15:59.570613  2890 layer_factory.hpp:77] Creating layer inception_4b/relu_3x3_reduce
I0403 15:15:59.570633  2890 net.cpp:91] Creating Layer inception_4b/relu_3x3_reduce
I0403 15:15:59.570657  2890 net.cpp:425] inception_4b/relu_3x3_reduce <- inception_4b/3x3_reduce
I0403 15:15:59.570675  2890 net.cpp:386] inception_4b/relu_3x3_reduce -> inception_4b/3x3_reduce (in-place)
I0403 15:15:59.570976  2890 net.cpp:141] Setting up inception_4b/relu_3x3_reduce
I0403 15:15:59.571008  2890 net.cpp:148] Top shape: 24 112 14 14 (526848)
I0403 15:15:59.571025  2890 net.cpp:156] Memory required for data: 956439840
I0403 15:15:59.571041  2890 layer_factory.hpp:77] Creating layer inception_4b/3x3
I0403 15:15:59.571065  2890 net.cpp:91] Creating Layer inception_4b/3x3
I0403 15:15:59.571084  2890 net.cpp:425] inception_4b/3x3 <- inception_4b/3x3_reduce
I0403 15:15:59.571105  2890 net.cpp:399] inception_4b/3x3 -> inception_4b/3x3
I0403 15:15:59.574266  2890 net.cpp:141] Setting up inception_4b/3x3
I0403 15:15:59.574296  2890 net.cpp:148] Top shape: 24 224 14 14 (1053696)
I0403 15:15:59.574313  2890 net.cpp:156] Memory required for data: 960654624
I0403 15:15:59.574332  2890 layer_factory.hpp:77] Creating layer inception_4b/relu_3x3
I0403 15:15:59.574352  2890 net.cpp:91] Creating Layer inception_4b/relu_3x3
I0403 15:15:59.574369  2890 net.cpp:425] inception_4b/relu_3x3 <- inception_4b/3x3
I0403 15:15:59.574389  2890 net.cpp:386] inception_4b/relu_3x3 -> inception_4b/3x3 (in-place)
I0403 15:15:59.574584  2890 net.cpp:141] Setting up inception_4b/relu_3x3
I0403 15:15:59.574615  2890 net.cpp:148] Top shape: 24 224 14 14 (1053696)
I0403 15:15:59.574630  2890 net.cpp:156] Memory required for data: 964869408
I0403 15:15:59.574647  2890 layer_factory.hpp:77] Creating layer inception_4b/5x5_reduce
I0403 15:15:59.574671  2890 net.cpp:91] Creating Layer inception_4b/5x5_reduce
I0403 15:15:59.574690  2890 net.cpp:425] inception_4b/5x5_reduce <- inception_4a/output_inception_4a/output_0_split_3
I0403 15:15:59.574714  2890 net.cpp:399] inception_4b/5x5_reduce -> inception_4b/5x5_reduce
I0403 15:15:59.575870  2890 net.cpp:141] Setting up inception_4b/5x5_reduce
I0403 15:15:59.575901  2890 net.cpp:148] Top shape: 24 24 14 14 (112896)
I0403 15:15:59.575917  2890 net.cpp:156] Memory required for data: 965320992
I0403 15:15:59.575937  2890 layer_factory.hpp:77] Creating layer inception_4b/relu_5x5_reduce
I0403 15:15:59.575961  2890 net.cpp:91] Creating Layer inception_4b/relu_5x5_reduce
I0403 15:15:59.575995  2890 net.cpp:425] inception_4b/relu_5x5_reduce <- inception_4b/5x5_reduce
I0403 15:15:59.576015  2890 net.cpp:386] inception_4b/relu_5x5_reduce -> inception_4b/5x5_reduce (in-place)
I0403 15:15:59.576212  2890 net.cpp:141] Setting up inception_4b/relu_5x5_reduce
I0403 15:15:59.576246  2890 net.cpp:148] Top shape: 24 24 14 14 (112896)
I0403 15:15:59.576263  2890 net.cpp:156] Memory required for data: 965772576
I0403 15:15:59.576278  2890 layer_factory.hpp:77] Creating layer inception_4b/5x5
I0403 15:15:59.576303  2890 net.cpp:91] Creating Layer inception_4b/5x5
I0403 15:15:59.576319  2890 net.cpp:425] inception_4b/5x5 <- inception_4b/5x5_reduce
I0403 15:15:59.576339  2890 net.cpp:399] inception_4b/5x5 -> inception_4b/5x5
I0403 15:15:59.577647  2890 net.cpp:141] Setting up inception_4b/5x5
I0403 15:15:59.577677  2890 net.cpp:148] Top shape: 24 64 14 14 (301056)
I0403 15:15:59.577692  2890 net.cpp:156] Memory required for data: 966976800
I0403 15:15:59.577713  2890 layer_factory.hpp:77] Creating layer inception_4b/relu_5x5
I0403 15:15:59.577733  2890 net.cpp:91] Creating Layer inception_4b/relu_5x5
I0403 15:15:59.577751  2890 net.cpp:425] inception_4b/relu_5x5 <- inception_4b/5x5
I0403 15:15:59.577769  2890 net.cpp:386] inception_4b/relu_5x5 -> inception_4b/5x5 (in-place)
I0403 15:15:59.578059  2890 net.cpp:141] Setting up inception_4b/relu_5x5
I0403 15:15:59.578086  2890 net.cpp:148] Top shape: 24 64 14 14 (301056)
I0403 15:15:59.578102  2890 net.cpp:156] Memory required for data: 968181024
I0403 15:15:59.578117  2890 layer_factory.hpp:77] Creating layer inception_4b/pool
I0403 15:15:59.578140  2890 net.cpp:91] Creating Layer inception_4b/pool
I0403 15:15:59.578157  2890 net.cpp:425] inception_4b/pool <- inception_4a/output_inception_4a/output_0_split_4
I0403 15:15:59.578177  2890 net.cpp:399] inception_4b/pool -> inception_4b/pool
I0403 15:15:59.578250  2890 net.cpp:141] Setting up inception_4b/pool
I0403 15:15:59.578275  2890 net.cpp:148] Top shape: 24 512 14 14 (2408448)
I0403 15:15:59.578291  2890 net.cpp:156] Memory required for data: 977814816
I0403 15:15:59.578306  2890 layer_factory.hpp:77] Creating layer inception_4b/pool_proj
I0403 15:15:59.578330  2890 net.cpp:91] Creating Layer inception_4b/pool_proj
I0403 15:15:59.578347  2890 net.cpp:425] inception_4b/pool_proj <- inception_4b/pool
I0403 15:15:59.578369  2890 net.cpp:399] inception_4b/pool_proj -> inception_4b/pool_proj
I0403 15:15:59.579619  2890 net.cpp:141] Setting up inception_4b/pool_proj
I0403 15:15:59.579648  2890 net.cpp:148] Top shape: 24 64 14 14 (301056)
I0403 15:15:59.579664  2890 net.cpp:156] Memory required for data: 979019040
I0403 15:15:59.579684  2890 layer_factory.hpp:77] Creating layer inception_4b/relu_pool_proj
I0403 15:15:59.579709  2890 net.cpp:91] Creating Layer inception_4b/relu_pool_proj
I0403 15:15:59.579726  2890 net.cpp:425] inception_4b/relu_pool_proj <- inception_4b/pool_proj
I0403 15:15:59.579746  2890 net.cpp:386] inception_4b/relu_pool_proj -> inception_4b/pool_proj (in-place)
I0403 15:15:59.579931  2890 net.cpp:141] Setting up inception_4b/relu_pool_proj
I0403 15:15:59.579960  2890 net.cpp:148] Top shape: 24 64 14 14 (301056)
I0403 15:15:59.579975  2890 net.cpp:156] Memory required for data: 980223264
I0403 15:15:59.579990  2890 layer_factory.hpp:77] Creating layer inception_4b/output
I0403 15:15:59.580008  2890 net.cpp:91] Creating Layer inception_4b/output
I0403 15:15:59.580024  2890 net.cpp:425] inception_4b/output <- inception_4b/1x1
I0403 15:15:59.580042  2890 net.cpp:425] inception_4b/output <- inception_4b/3x3
I0403 15:15:59.580060  2890 net.cpp:425] inception_4b/output <- inception_4b/5x5
I0403 15:15:59.580076  2890 net.cpp:425] inception_4b/output <- inception_4b/pool_proj
I0403 15:15:59.580093  2890 net.cpp:399] inception_4b/output -> inception_4b/output
I0403 15:15:59.580142  2890 net.cpp:141] Setting up inception_4b/output
I0403 15:15:59.580166  2890 net.cpp:148] Top shape: 24 512 14 14 (2408448)
I0403 15:15:59.580181  2890 net.cpp:156] Memory required for data: 989857056
I0403 15:15:59.580211  2890 layer_factory.hpp:77] Creating layer inception_4b/output_inception_4b/output_0_split
I0403 15:15:59.580232  2890 net.cpp:91] Creating Layer inception_4b/output_inception_4b/output_0_split
I0403 15:15:59.580253  2890 net.cpp:425] inception_4b/output_inception_4b/output_0_split <- inception_4b/output
I0403 15:15:59.580274  2890 net.cpp:399] inception_4b/output_inception_4b/output_0_split -> inception_4b/output_inception_4b/output_0_split_0
I0403 15:15:59.580294  2890 net.cpp:399] inception_4b/output_inception_4b/output_0_split -> inception_4b/output_inception_4b/output_0_split_1
I0403 15:15:59.580315  2890 net.cpp:399] inception_4b/output_inception_4b/output_0_split -> inception_4b/output_inception_4b/output_0_split_2
I0403 15:15:59.580338  2890 net.cpp:399] inception_4b/output_inception_4b/output_0_split -> inception_4b/output_inception_4b/output_0_split_3
I0403 15:15:59.580428  2890 net.cpp:141] Setting up inception_4b/output_inception_4b/output_0_split
I0403 15:15:59.580453  2890 net.cpp:148] Top shape: 24 512 14 14 (2408448)
I0403 15:15:59.580471  2890 net.cpp:148] Top shape: 24 512 14 14 (2408448)
I0403 15:15:59.580487  2890 net.cpp:148] Top shape: 24 512 14 14 (2408448)
I0403 15:15:59.580503  2890 net.cpp:148] Top shape: 24 512 14 14 (2408448)
I0403 15:15:59.580518  2890 net.cpp:156] Memory required for data: 1028392224
I0403 15:15:59.580533  2890 layer_factory.hpp:77] Creating layer inception_4c/1x1
I0403 15:15:59.580554  2890 net.cpp:91] Creating Layer inception_4c/1x1
I0403 15:15:59.580572  2890 net.cpp:425] inception_4c/1x1 <- inception_4b/output_inception_4b/output_0_split_0
I0403 15:15:59.580595  2890 net.cpp:399] inception_4c/1x1 -> inception_4c/1x1
I0403 15:15:59.582079  2890 net.cpp:141] Setting up inception_4c/1x1
I0403 15:15:59.582108  2890 net.cpp:148] Top shape: 24 128 14 14 (602112)
I0403 15:15:59.582124  2890 net.cpp:156] Memory required for data: 1030800672
I0403 15:15:59.582144  2890 layer_factory.hpp:77] Creating layer inception_4c/relu_1x1
I0403 15:15:59.582162  2890 net.cpp:91] Creating Layer inception_4c/relu_1x1
I0403 15:15:59.582178  2890 net.cpp:425] inception_4c/relu_1x1 <- inception_4c/1x1
I0403 15:15:59.582198  2890 net.cpp:386] inception_4c/relu_1x1 -> inception_4c/1x1 (in-place)
I0403 15:15:59.582392  2890 net.cpp:141] Setting up inception_4c/relu_1x1
I0403 15:15:59.582418  2890 net.cpp:148] Top shape: 24 128 14 14 (602112)
I0403 15:15:59.582433  2890 net.cpp:156] Memory required for data: 1033209120
I0403 15:15:59.582450  2890 layer_factory.hpp:77] Creating layer inception_4c/3x3_reduce
I0403 15:15:59.582474  2890 net.cpp:91] Creating Layer inception_4c/3x3_reduce
I0403 15:15:59.582492  2890 net.cpp:425] inception_4c/3x3_reduce <- inception_4b/output_inception_4b/output_0_split_1
I0403 15:15:59.582515  2890 net.cpp:399] inception_4c/3x3_reduce -> inception_4c/3x3_reduce
I0403 15:15:59.587606  2890 net.cpp:141] Setting up inception_4c/3x3_reduce
I0403 15:15:59.587636  2890 net.cpp:148] Top shape: 24 128 14 14 (602112)
I0403 15:15:59.587651  2890 net.cpp:156] Memory required for data: 1035617568
I0403 15:15:59.587671  2890 layer_factory.hpp:77] Creating layer inception_4c/relu_3x3_reduce
I0403 15:15:59.587692  2890 net.cpp:91] Creating Layer inception_4c/relu_3x3_reduce
I0403 15:15:59.587710  2890 net.cpp:425] inception_4c/relu_3x3_reduce <- inception_4c/3x3_reduce
I0403 15:15:59.587728  2890 net.cpp:386] inception_4c/relu_3x3_reduce -> inception_4c/3x3_reduce (in-place)
I0403 15:15:59.588024  2890 net.cpp:141] Setting up inception_4c/relu_3x3_reduce
I0403 15:15:59.588052  2890 net.cpp:148] Top shape: 24 128 14 14 (602112)
I0403 15:15:59.588068  2890 net.cpp:156] Memory required for data: 1038026016
I0403 15:15:59.588084  2890 layer_factory.hpp:77] Creating layer inception_4c/3x3
I0403 15:15:59.588107  2890 net.cpp:91] Creating Layer inception_4c/3x3
I0403 15:15:59.588125  2890 net.cpp:425] inception_4c/3x3 <- inception_4c/3x3_reduce
I0403 15:15:59.588148  2890 net.cpp:399] inception_4c/3x3 -> inception_4c/3x3
I0403 15:15:59.591914  2890 net.cpp:141] Setting up inception_4c/3x3
I0403 15:15:59.591958  2890 net.cpp:148] Top shape: 24 256 14 14 (1204224)
I0403 15:15:59.591974  2890 net.cpp:156] Memory required for data: 1042842912
I0403 15:15:59.592006  2890 layer_factory.hpp:77] Creating layer inception_4c/relu_3x3
I0403 15:15:59.592031  2890 net.cpp:91] Creating Layer inception_4c/relu_3x3
I0403 15:15:59.592047  2890 net.cpp:425] inception_4c/relu_3x3 <- inception_4c/3x3
I0403 15:15:59.592066  2890 net.cpp:386] inception_4c/relu_3x3 -> inception_4c/3x3 (in-place)
I0403 15:15:59.592265  2890 net.cpp:141] Setting up inception_4c/relu_3x3
I0403 15:15:59.592291  2890 net.cpp:148] Top shape: 24 256 14 14 (1204224)
I0403 15:15:59.592309  2890 net.cpp:156] Memory required for data: 1047659808
I0403 15:15:59.592325  2890 layer_factory.hpp:77] Creating layer inception_4c/5x5_reduce
I0403 15:15:59.592345  2890 net.cpp:91] Creating Layer inception_4c/5x5_reduce
I0403 15:15:59.592362  2890 net.cpp:425] inception_4c/5x5_reduce <- inception_4b/output_inception_4b/output_0_split_2
I0403 15:15:59.592386  2890 net.cpp:399] inception_4c/5x5_reduce -> inception_4c/5x5_reduce
I0403 15:15:59.593518  2890 net.cpp:141] Setting up inception_4c/5x5_reduce
I0403 15:15:59.593545  2890 net.cpp:148] Top shape: 24 24 14 14 (112896)
I0403 15:15:59.593561  2890 net.cpp:156] Memory required for data: 1048111392
I0403 15:15:59.593580  2890 layer_factory.hpp:77] Creating layer inception_4c/relu_5x5_reduce
I0403 15:15:59.593600  2890 net.cpp:91] Creating Layer inception_4c/relu_5x5_reduce
I0403 15:15:59.593618  2890 net.cpp:425] inception_4c/relu_5x5_reduce <- inception_4c/5x5_reduce
I0403 15:15:59.593636  2890 net.cpp:386] inception_4c/relu_5x5_reduce -> inception_4c/5x5_reduce (in-place)
I0403 15:15:59.593828  2890 net.cpp:141] Setting up inception_4c/relu_5x5_reduce
I0403 15:15:59.593857  2890 net.cpp:148] Top shape: 24 24 14 14 (112896)
I0403 15:15:59.593871  2890 net.cpp:156] Memory required for data: 1048562976
I0403 15:15:59.593886  2890 layer_factory.hpp:77] Creating layer inception_4c/5x5
I0403 15:15:59.593909  2890 net.cpp:91] Creating Layer inception_4c/5x5
I0403 15:15:59.593927  2890 net.cpp:425] inception_4c/5x5 <- inception_4c/5x5_reduce
I0403 15:15:59.593946  2890 net.cpp:399] inception_4c/5x5 -> inception_4c/5x5
I0403 15:15:59.595245  2890 net.cpp:141] Setting up inception_4c/5x5
I0403 15:15:59.595276  2890 net.cpp:148] Top shape: 24 64 14 14 (301056)
I0403 15:15:59.595293  2890 net.cpp:156] Memory required for data: 1049767200
I0403 15:15:59.595311  2890 layer_factory.hpp:77] Creating layer inception_4c/relu_5x5
I0403 15:15:59.595330  2890 net.cpp:91] Creating Layer inception_4c/relu_5x5
I0403 15:15:59.595347  2890 net.cpp:425] inception_4c/relu_5x5 <- inception_4c/5x5
I0403 15:15:59.595367  2890 net.cpp:386] inception_4c/relu_5x5 -> inception_4c/5x5 (in-place)
I0403 15:15:59.595665  2890 net.cpp:141] Setting up inception_4c/relu_5x5
I0403 15:15:59.595693  2890 net.cpp:148] Top shape: 24 64 14 14 (301056)
I0403 15:15:59.595710  2890 net.cpp:156] Memory required for data: 1050971424
I0403 15:15:59.595726  2890 layer_factory.hpp:77] Creating layer inception_4c/pool
I0403 15:15:59.595743  2890 net.cpp:91] Creating Layer inception_4c/pool
I0403 15:15:59.595760  2890 net.cpp:425] inception_4c/pool <- inception_4b/output_inception_4b/output_0_split_3
I0403 15:15:59.595782  2890 net.cpp:399] inception_4c/pool -> inception_4c/pool
I0403 15:15:59.595850  2890 net.cpp:141] Setting up inception_4c/pool
I0403 15:15:59.595876  2890 net.cpp:148] Top shape: 24 512 14 14 (2408448)
I0403 15:15:59.595891  2890 net.cpp:156] Memory required for data: 1060605216
I0403 15:15:59.595906  2890 layer_factory.hpp:77] Creating layer inception_4c/pool_proj
I0403 15:15:59.595929  2890 net.cpp:91] Creating Layer inception_4c/pool_proj
I0403 15:15:59.595947  2890 net.cpp:425] inception_4c/pool_proj <- inception_4c/pool
I0403 15:15:59.595966  2890 net.cpp:399] inception_4c/pool_proj -> inception_4c/pool_proj
I0403 15:15:59.597230  2890 net.cpp:141] Setting up inception_4c/pool_proj
I0403 15:15:59.597261  2890 net.cpp:148] Top shape: 24 64 14 14 (301056)
I0403 15:15:59.597291  2890 net.cpp:156] Memory required for data: 1061809440
I0403 15:15:59.597311  2890 layer_factory.hpp:77] Creating layer inception_4c/relu_pool_proj
I0403 15:15:59.597332  2890 net.cpp:91] Creating Layer inception_4c/relu_pool_proj
I0403 15:15:59.597348  2890 net.cpp:425] inception_4c/relu_pool_proj <- inception_4c/pool_proj
I0403 15:15:59.597365  2890 net.cpp:386] inception_4c/relu_pool_proj -> inception_4c/pool_proj (in-place)
I0403 15:15:59.597548  2890 net.cpp:141] Setting up inception_4c/relu_pool_proj
I0403 15:15:59.597575  2890 net.cpp:148] Top shape: 24 64 14 14 (301056)
I0403 15:15:59.597590  2890 net.cpp:156] Memory required for data: 1063013664
I0403 15:15:59.597605  2890 layer_factory.hpp:77] Creating layer inception_4c/output
I0403 15:15:59.597622  2890 net.cpp:91] Creating Layer inception_4c/output
I0403 15:15:59.597637  2890 net.cpp:425] inception_4c/output <- inception_4c/1x1
I0403 15:15:59.597653  2890 net.cpp:425] inception_4c/output <- inception_4c/3x3
I0403 15:15:59.597669  2890 net.cpp:425] inception_4c/output <- inception_4c/5x5
I0403 15:15:59.597684  2890 net.cpp:425] inception_4c/output <- inception_4c/pool_proj
I0403 15:15:59.597702  2890 net.cpp:399] inception_4c/output -> inception_4c/output
I0403 15:15:59.597749  2890 net.cpp:141] Setting up inception_4c/output
I0403 15:15:59.597772  2890 net.cpp:148] Top shape: 24 512 14 14 (2408448)
I0403 15:15:59.597786  2890 net.cpp:156] Memory required for data: 1072647456
I0403 15:15:59.597800  2890 layer_factory.hpp:77] Creating layer inception_4c/output_inception_4c/output_0_split
I0403 15:15:59.597820  2890 net.cpp:91] Creating Layer inception_4c/output_inception_4c/output_0_split
I0403 15:15:59.597836  2890 net.cpp:425] inception_4c/output_inception_4c/output_0_split <- inception_4c/output
I0403 15:15:59.597852  2890 net.cpp:399] inception_4c/output_inception_4c/output_0_split -> inception_4c/output_inception_4c/output_0_split_0
I0403 15:15:59.597872  2890 net.cpp:399] inception_4c/output_inception_4c/output_0_split -> inception_4c/output_inception_4c/output_0_split_1
I0403 15:15:59.597892  2890 net.cpp:399] inception_4c/output_inception_4c/output_0_split -> inception_4c/output_inception_4c/output_0_split_2
I0403 15:15:59.597914  2890 net.cpp:399] inception_4c/output_inception_4c/output_0_split -> inception_4c/output_inception_4c/output_0_split_3
I0403 15:15:59.598002  2890 net.cpp:141] Setting up inception_4c/output_inception_4c/output_0_split
I0403 15:15:59.598026  2890 net.cpp:148] Top shape: 24 512 14 14 (2408448)
I0403 15:15:59.598042  2890 net.cpp:148] Top shape: 24 512 14 14 (2408448)
I0403 15:15:59.598057  2890 net.cpp:148] Top shape: 24 512 14 14 (2408448)
I0403 15:15:59.598073  2890 net.cpp:148] Top shape: 24 512 14 14 (2408448)
I0403 15:15:59.598085  2890 net.cpp:156] Memory required for data: 1111182624
I0403 15:15:59.598100  2890 layer_factory.hpp:77] Creating layer inception_4d/1x1
I0403 15:15:59.598121  2890 net.cpp:91] Creating Layer inception_4d/1x1
I0403 15:15:59.598139  2890 net.cpp:425] inception_4d/1x1 <- inception_4c/output_inception_4c/output_0_split_0
I0403 15:15:59.598160  2890 net.cpp:399] inception_4d/1x1 -> inception_4d/1x1
I0403 15:15:59.599555  2890 net.cpp:141] Setting up inception_4d/1x1
I0403 15:15:59.599582  2890 net.cpp:148] Top shape: 24 112 14 14 (526848)
I0403 15:15:59.599598  2890 net.cpp:156] Memory required for data: 1113290016
I0403 15:15:59.599617  2890 layer_factory.hpp:77] Creating layer inception_4d/relu_1x1
I0403 15:15:59.599634  2890 net.cpp:91] Creating Layer inception_4d/relu_1x1
I0403 15:15:59.599650  2890 net.cpp:425] inception_4d/relu_1x1 <- inception_4d/1x1
I0403 15:15:59.599670  2890 net.cpp:386] inception_4d/relu_1x1 -> inception_4d/1x1 (in-place)
I0403 15:15:59.599855  2890 net.cpp:141] Setting up inception_4d/relu_1x1
I0403 15:15:59.599879  2890 net.cpp:148] Top shape: 24 112 14 14 (526848)
I0403 15:15:59.599895  2890 net.cpp:156] Memory required for data: 1115397408
I0403 15:15:59.599910  2890 layer_factory.hpp:77] Creating layer inception_4d/3x3_reduce
I0403 15:15:59.599946  2890 net.cpp:91] Creating Layer inception_4d/3x3_reduce
I0403 15:15:59.599964  2890 net.cpp:425] inception_4d/3x3_reduce <- inception_4c/output_inception_4c/output_0_split_1
I0403 15:15:59.599985  2890 net.cpp:399] inception_4d/3x3_reduce -> inception_4d/3x3_reduce
I0403 15:15:59.601502  2890 net.cpp:141] Setting up inception_4d/3x3_reduce
I0403 15:15:59.601531  2890 net.cpp:148] Top shape: 24 144 14 14 (677376)
I0403 15:15:59.601547  2890 net.cpp:156] Memory required for data: 1118106912
I0403 15:15:59.601567  2890 layer_factory.hpp:77] Creating layer inception_4d/relu_3x3_reduce
I0403 15:15:59.601583  2890 net.cpp:91] Creating Layer inception_4d/relu_3x3_reduce
I0403 15:15:59.601599  2890 net.cpp:425] inception_4d/relu_3x3_reduce <- inception_4d/3x3_reduce
I0403 15:15:59.601619  2890 net.cpp:386] inception_4d/relu_3x3_reduce -> inception_4d/3x3_reduce (in-place)
I0403 15:15:59.601909  2890 net.cpp:141] Setting up inception_4d/relu_3x3_reduce
I0403 15:15:59.601938  2890 net.cpp:148] Top shape: 24 144 14 14 (677376)
I0403 15:15:59.601953  2890 net.cpp:156] Memory required for data: 1120816416
I0403 15:15:59.601969  2890 layer_factory.hpp:77] Creating layer inception_4d/3x3
I0403 15:15:59.601992  2890 net.cpp:91] Creating Layer inception_4d/3x3
I0403 15:15:59.602010  2890 net.cpp:425] inception_4d/3x3 <- inception_4d/3x3_reduce
I0403 15:15:59.602028  2890 net.cpp:399] inception_4d/3x3 -> inception_4d/3x3
I0403 15:15:59.606428  2890 net.cpp:141] Setting up inception_4d/3x3
I0403 15:15:59.606458  2890 net.cpp:148] Top shape: 24 288 14 14 (1354752)
I0403 15:15:59.606474  2890 net.cpp:156] Memory required for data: 1126235424
I0403 15:15:59.606493  2890 layer_factory.hpp:77] Creating layer inception_4d/relu_3x3
I0403 15:15:59.606513  2890 net.cpp:91] Creating Layer inception_4d/relu_3x3
I0403 15:15:59.606530  2890 net.cpp:425] inception_4d/relu_3x3 <- inception_4d/3x3
I0403 15:15:59.606549  2890 net.cpp:386] inception_4d/relu_3x3 -> inception_4d/3x3 (in-place)
I0403 15:15:59.606739  2890 net.cpp:141] Setting up inception_4d/relu_3x3
I0403 15:15:59.606763  2890 net.cpp:148] Top shape: 24 288 14 14 (1354752)
I0403 15:15:59.606780  2890 net.cpp:156] Memory required for data: 1131654432
I0403 15:15:59.606794  2890 layer_factory.hpp:77] Creating layer inception_4d/5x5_reduce
I0403 15:15:59.606818  2890 net.cpp:91] Creating Layer inception_4d/5x5_reduce
I0403 15:15:59.606835  2890 net.cpp:425] inception_4d/5x5_reduce <- inception_4c/output_inception_4c/output_0_split_2
I0403 15:15:59.606855  2890 net.cpp:399] inception_4d/5x5_reduce -> inception_4d/5x5_reduce
I0403 15:15:59.608045  2890 net.cpp:141] Setting up inception_4d/5x5_reduce
I0403 15:15:59.608073  2890 net.cpp:148] Top shape: 24 32 14 14 (150528)
I0403 15:15:59.608089  2890 net.cpp:156] Memory required for data: 1132256544
I0403 15:15:59.608108  2890 layer_factory.hpp:77] Creating layer inception_4d/relu_5x5_reduce
I0403 15:15:59.608129  2890 net.cpp:91] Creating Layer inception_4d/relu_5x5_reduce
I0403 15:15:59.608146  2890 net.cpp:425] inception_4d/relu_5x5_reduce <- inception_4d/5x5_reduce
I0403 15:15:59.608165  2890 net.cpp:386] inception_4d/relu_5x5_reduce -> inception_4d/5x5_reduce (in-place)
I0403 15:15:59.608366  2890 net.cpp:141] Setting up inception_4d/relu_5x5_reduce
I0403 15:15:59.608391  2890 net.cpp:148] Top shape: 24 32 14 14 (150528)
I0403 15:15:59.608405  2890 net.cpp:156] Memory required for data: 1132858656
I0403 15:15:59.608420  2890 layer_factory.hpp:77] Creating layer inception_4d/5x5
I0403 15:15:59.608443  2890 net.cpp:91] Creating Layer inception_4d/5x5
I0403 15:15:59.608461  2890 net.cpp:425] inception_4d/5x5 <- inception_4d/5x5_reduce
I0403 15:15:59.608484  2890 net.cpp:399] inception_4d/5x5 -> inception_4d/5x5
I0403 15:15:59.610079  2890 net.cpp:141] Setting up inception_4d/5x5
I0403 15:15:59.610110  2890 net.cpp:148] Top shape: 24 64 14 14 (301056)
I0403 15:15:59.610127  2890 net.cpp:156] Memory required for data: 1134062880
I0403 15:15:59.610147  2890 layer_factory.hpp:77] Creating layer inception_4d/relu_5x5
I0403 15:15:59.610183  2890 net.cpp:91] Creating Layer inception_4d/relu_5x5
I0403 15:15:59.610203  2890 net.cpp:425] inception_4d/relu_5x5 <- inception_4d/5x5
I0403 15:15:59.610222  2890 net.cpp:386] inception_4d/relu_5x5 -> inception_4d/5x5 (in-place)
I0403 15:15:59.610549  2890 net.cpp:141] Setting up inception_4d/relu_5x5
I0403 15:15:59.610580  2890 net.cpp:148] Top shape: 24 64 14 14 (301056)
I0403 15:15:59.610596  2890 net.cpp:156] Memory required for data: 1135267104
I0403 15:15:59.610625  2890 layer_factory.hpp:77] Creating layer inception_4d/pool
I0403 15:15:59.610643  2890 net.cpp:91] Creating Layer inception_4d/pool
I0403 15:15:59.610661  2890 net.cpp:425] inception_4d/pool <- inception_4c/output_inception_4c/output_0_split_3
I0403 15:15:59.610678  2890 net.cpp:399] inception_4d/pool -> inception_4d/pool
I0403 15:15:59.610749  2890 net.cpp:141] Setting up inception_4d/pool
I0403 15:15:59.610772  2890 net.cpp:148] Top shape: 24 512 14 14 (2408448)
I0403 15:15:59.610787  2890 net.cpp:156] Memory required for data: 1144900896
I0403 15:15:59.610802  2890 layer_factory.hpp:77] Creating layer inception_4d/pool_proj
I0403 15:15:59.610826  2890 net.cpp:91] Creating Layer inception_4d/pool_proj
I0403 15:15:59.610843  2890 net.cpp:425] inception_4d/pool_proj <- inception_4d/pool
I0403 15:15:59.610864  2890 net.cpp:399] inception_4d/pool_proj -> inception_4d/pool_proj
I0403 15:15:59.612707  2890 net.cpp:141] Setting up inception_4d/pool_proj
I0403 15:15:59.612737  2890 net.cpp:148] Top shape: 24 64 14 14 (301056)
I0403 15:15:59.612752  2890 net.cpp:156] Memory required for data: 1146105120
I0403 15:15:59.612771  2890 layer_factory.hpp:77] Creating layer inception_4d/relu_pool_proj
I0403 15:15:59.612792  2890 net.cpp:91] Creating Layer inception_4d/relu_pool_proj
I0403 15:15:59.612809  2890 net.cpp:425] inception_4d/relu_pool_proj <- inception_4d/pool_proj
I0403 15:15:59.612828  2890 net.cpp:386] inception_4d/relu_pool_proj -> inception_4d/pool_proj (in-place)
I0403 15:15:59.613020  2890 net.cpp:141] Setting up inception_4d/relu_pool_proj
I0403 15:15:59.613045  2890 net.cpp:148] Top shape: 24 64 14 14 (301056)
I0403 15:15:59.613061  2890 net.cpp:156] Memory required for data: 1147309344
I0403 15:15:59.613076  2890 layer_factory.hpp:77] Creating layer inception_4d/output
I0403 15:15:59.613096  2890 net.cpp:91] Creating Layer inception_4d/output
I0403 15:15:59.613113  2890 net.cpp:425] inception_4d/output <- inception_4d/1x1
I0403 15:15:59.613131  2890 net.cpp:425] inception_4d/output <- inception_4d/3x3
I0403 15:15:59.613147  2890 net.cpp:425] inception_4d/output <- inception_4d/5x5
I0403 15:15:59.613163  2890 net.cpp:425] inception_4d/output <- inception_4d/pool_proj
I0403 15:15:59.613181  2890 net.cpp:399] inception_4d/output -> inception_4d/output
I0403 15:15:59.613232  2890 net.cpp:141] Setting up inception_4d/output
I0403 15:15:59.613260  2890 net.cpp:148] Top shape: 24 528 14 14 (2483712)
I0403 15:15:59.613276  2890 net.cpp:156] Memory required for data: 1157244192
I0403 15:15:59.613291  2890 layer_factory.hpp:77] Creating layer inception_4d/output_inception_4d/output_0_split
I0403 15:15:59.613309  2890 net.cpp:91] Creating Layer inception_4d/output_inception_4d/output_0_split
I0403 15:15:59.613325  2890 net.cpp:425] inception_4d/output_inception_4d/output_0_split <- inception_4d/output
I0403 15:15:59.613345  2890 net.cpp:399] inception_4d/output_inception_4d/output_0_split -> inception_4d/output_inception_4d/output_0_split_0
I0403 15:15:59.613368  2890 net.cpp:399] inception_4d/output_inception_4d/output_0_split -> inception_4d/output_inception_4d/output_0_split_1
I0403 15:15:59.613389  2890 net.cpp:399] inception_4d/output_inception_4d/output_0_split -> inception_4d/output_inception_4d/output_0_split_2
I0403 15:15:59.613410  2890 net.cpp:399] inception_4d/output_inception_4d/output_0_split -> inception_4d/output_inception_4d/output_0_split_3
I0403 15:15:59.613435  2890 net.cpp:399] inception_4d/output_inception_4d/output_0_split -> inception_4d/output_inception_4d/output_0_split_4
I0403 15:15:59.613541  2890 net.cpp:141] Setting up inception_4d/output_inception_4d/output_0_split
I0403 15:15:59.613577  2890 net.cpp:148] Top shape: 24 528 14 14 (2483712)
I0403 15:15:59.613595  2890 net.cpp:148] Top shape: 24 528 14 14 (2483712)
I0403 15:15:59.613610  2890 net.cpp:148] Top shape: 24 528 14 14 (2483712)
I0403 15:15:59.613626  2890 net.cpp:148] Top shape: 24 528 14 14 (2483712)
I0403 15:15:59.613642  2890 net.cpp:148] Top shape: 24 528 14 14 (2483712)
I0403 15:15:59.613656  2890 net.cpp:156] Memory required for data: 1206918432
I0403 15:15:59.613672  2890 layer_factory.hpp:77] Creating layer loss2/ave_pool
I0403 15:15:59.613688  2890 net.cpp:91] Creating Layer loss2/ave_pool
I0403 15:15:59.613705  2890 net.cpp:425] loss2/ave_pool <- inception_4d/output_inception_4d/output_0_split_0
I0403 15:15:59.613726  2890 net.cpp:399] loss2/ave_pool -> loss2/ave_pool
I0403 15:15:59.614049  2890 net.cpp:141] Setting up loss2/ave_pool
I0403 15:15:59.614075  2890 net.cpp:148] Top shape: 24 528 4 4 (202752)
I0403 15:15:59.614091  2890 net.cpp:156] Memory required for data: 1207729440
I0403 15:15:59.614106  2890 layer_factory.hpp:77] Creating layer loss2/conv
I0403 15:15:59.614130  2890 net.cpp:91] Creating Layer loss2/conv
I0403 15:15:59.614148  2890 net.cpp:425] loss2/conv <- loss2/ave_pool
I0403 15:15:59.614169  2890 net.cpp:399] loss2/conv -> loss2/conv
I0403 15:15:59.616117  2890 net.cpp:141] Setting up loss2/conv
I0403 15:15:59.616145  2890 net.cpp:148] Top shape: 24 128 4 4 (49152)
I0403 15:15:59.616161  2890 net.cpp:156] Memory required for data: 1207926048
I0403 15:15:59.616183  2890 layer_factory.hpp:77] Creating layer loss2/relu_conv
I0403 15:15:59.616202  2890 net.cpp:91] Creating Layer loss2/relu_conv
I0403 15:15:59.616221  2890 net.cpp:425] loss2/relu_conv <- loss2/conv
I0403 15:15:59.616243  2890 net.cpp:386] loss2/relu_conv -> loss2/conv (in-place)
I0403 15:15:59.616544  2890 net.cpp:141] Setting up loss2/relu_conv
I0403 15:15:59.616570  2890 net.cpp:148] Top shape: 24 128 4 4 (49152)
I0403 15:15:59.616586  2890 net.cpp:156] Memory required for data: 1208122656
I0403 15:15:59.616602  2890 layer_factory.hpp:77] Creating layer loss2/fc
I0403 15:15:59.616624  2890 net.cpp:91] Creating Layer loss2/fc
I0403 15:15:59.616641  2890 net.cpp:425] loss2/fc <- loss2/conv
I0403 15:15:59.616664  2890 net.cpp:399] loss2/fc -> loss2/fc
I0403 15:15:59.634387  2890 net.cpp:141] Setting up loss2/fc
I0403 15:15:59.634420  2890 net.cpp:148] Top shape: 24 1024 (24576)
I0403 15:15:59.634435  2890 net.cpp:156] Memory required for data: 1208220960
I0403 15:15:59.634454  2890 layer_factory.hpp:77] Creating layer loss2/relu_fc
I0403 15:15:59.634474  2890 net.cpp:91] Creating Layer loss2/relu_fc
I0403 15:15:59.634491  2890 net.cpp:425] loss2/relu_fc <- loss2/fc
I0403 15:15:59.634508  2890 net.cpp:386] loss2/relu_fc -> loss2/fc (in-place)
I0403 15:15:59.634806  2890 net.cpp:141] Setting up loss2/relu_fc
I0403 15:15:59.634832  2890 net.cpp:148] Top shape: 24 1024 (24576)
I0403 15:15:59.634847  2890 net.cpp:156] Memory required for data: 1208319264
I0403 15:15:59.634862  2890 layer_factory.hpp:77] Creating layer loss2/drop_fc
I0403 15:15:59.634882  2890 net.cpp:91] Creating Layer loss2/drop_fc
I0403 15:15:59.634899  2890 net.cpp:425] loss2/drop_fc <- loss2/fc
I0403 15:15:59.634917  2890 net.cpp:386] loss2/drop_fc -> loss2/fc (in-place)
I0403 15:15:59.634968  2890 net.cpp:141] Setting up loss2/drop_fc
I0403 15:15:59.634990  2890 net.cpp:148] Top shape: 24 1024 (24576)
I0403 15:15:59.635005  2890 net.cpp:156] Memory required for data: 1208417568
I0403 15:15:59.635020  2890 layer_factory.hpp:77] Creating layer loss2/classifier_plantvillage
I0403 15:15:59.635037  2890 net.cpp:91] Creating Layer loss2/classifier_plantvillage
I0403 15:15:59.635053  2890 net.cpp:425] loss2/classifier_plantvillage <- loss2/fc
I0403 15:15:59.635076  2890 net.cpp:399] loss2/classifier_plantvillage -> loss2/classifier_plantvillage
I0403 15:15:59.635483  2890 net.cpp:141] Setting up loss2/classifier_plantvillage
I0403 15:15:59.635507  2890 net.cpp:148] Top shape: 24 38 (912)
I0403 15:15:59.635536  2890 net.cpp:156] Memory required for data: 1208421216
I0403 15:15:59.635555  2890 layer_factory.hpp:77] Creating layer loss2/classifier_plantvillage_loss2/classifier_plantvillage_0_split
I0403 15:15:59.635577  2890 net.cpp:91] Creating Layer loss2/classifier_plantvillage_loss2/classifier_plantvillage_0_split
I0403 15:15:59.635594  2890 net.cpp:425] loss2/classifier_plantvillage_loss2/classifier_plantvillage_0_split <- loss2/classifier_plantvillage
I0403 15:15:59.635614  2890 net.cpp:399] loss2/classifier_plantvillage_loss2/classifier_plantvillage_0_split -> loss2/classifier_plantvillage_loss2/classifier_plantvillage_0_split_0
I0403 15:15:59.635634  2890 net.cpp:399] loss2/classifier_plantvillage_loss2/classifier_plantvillage_0_split -> loss2/classifier_plantvillage_loss2/classifier_plantvillage_0_split_1
I0403 15:15:59.635655  2890 net.cpp:399] loss2/classifier_plantvillage_loss2/classifier_plantvillage_0_split -> loss2/classifier_plantvillage_loss2/classifier_plantvillage_0_split_2
I0403 15:15:59.635732  2890 net.cpp:141] Setting up loss2/classifier_plantvillage_loss2/classifier_plantvillage_0_split
I0403 15:15:59.635756  2890 net.cpp:148] Top shape: 24 38 (912)
I0403 15:15:59.635771  2890 net.cpp:148] Top shape: 24 38 (912)
I0403 15:15:59.635787  2890 net.cpp:148] Top shape: 24 38 (912)
I0403 15:15:59.635800  2890 net.cpp:156] Memory required for data: 1208432160
I0403 15:15:59.635814  2890 layer_factory.hpp:77] Creating layer inception_4e/1x1
I0403 15:15:59.635836  2890 net.cpp:91] Creating Layer inception_4e/1x1
I0403 15:15:59.635854  2890 net.cpp:425] inception_4e/1x1 <- inception_4d/output_inception_4d/output_0_split_1
I0403 15:15:59.635872  2890 net.cpp:399] inception_4e/1x1 -> inception_4e/1x1
I0403 15:15:59.637697  2890 net.cpp:141] Setting up inception_4e/1x1
I0403 15:15:59.637727  2890 net.cpp:148] Top shape: 24 256 14 14 (1204224)
I0403 15:15:59.637742  2890 net.cpp:156] Memory required for data: 1213249056
I0403 15:15:59.637760  2890 layer_factory.hpp:77] Creating layer inception_4e/relu_1x1
I0403 15:15:59.637778  2890 net.cpp:91] Creating Layer inception_4e/relu_1x1
I0403 15:15:59.637794  2890 net.cpp:425] inception_4e/relu_1x1 <- inception_4e/1x1
I0403 15:15:59.637811  2890 net.cpp:386] inception_4e/relu_1x1 -> inception_4e/1x1 (in-place)
I0403 15:15:59.638108  2890 net.cpp:141] Setting up inception_4e/relu_1x1
I0403 15:15:59.638136  2890 net.cpp:148] Top shape: 24 256 14 14 (1204224)
I0403 15:15:59.638152  2890 net.cpp:156] Memory required for data: 1218065952
I0403 15:15:59.638167  2890 layer_factory.hpp:77] Creating layer inception_4e/3x3_reduce
I0403 15:15:59.638190  2890 net.cpp:91] Creating Layer inception_4e/3x3_reduce
I0403 15:15:59.638207  2890 net.cpp:425] inception_4e/3x3_reduce <- inception_4d/output_inception_4d/output_0_split_2
I0403 15:15:59.638226  2890 net.cpp:399] inception_4e/3x3_reduce -> inception_4e/3x3_reduce
I0403 15:15:59.640388  2890 net.cpp:141] Setting up inception_4e/3x3_reduce
I0403 15:15:59.640418  2890 net.cpp:148] Top shape: 24 160 14 14 (752640)
I0403 15:15:59.640432  2890 net.cpp:156] Memory required for data: 1221076512
I0403 15:15:59.640451  2890 layer_factory.hpp:77] Creating layer inception_4e/relu_3x3_reduce
I0403 15:15:59.640472  2890 net.cpp:91] Creating Layer inception_4e/relu_3x3_reduce
I0403 15:15:59.640501  2890 net.cpp:425] inception_4e/relu_3x3_reduce <- inception_4e/3x3_reduce
I0403 15:15:59.640519  2890 net.cpp:386] inception_4e/relu_3x3_reduce -> inception_4e/3x3_reduce (in-place)
I0403 15:15:59.640710  2890 net.cpp:141] Setting up inception_4e/relu_3x3_reduce
I0403 15:15:59.640735  2890 net.cpp:148] Top shape: 24 160 14 14 (752640)
I0403 15:15:59.640750  2890 net.cpp:156] Memory required for data: 1224087072
I0403 15:15:59.640765  2890 layer_factory.hpp:77] Creating layer inception_4e/3x3
I0403 15:15:59.640787  2890 net.cpp:91] Creating Layer inception_4e/3x3
I0403 15:15:59.640805  2890 net.cpp:425] inception_4e/3x3 <- inception_4e/3x3_reduce
I0403 15:15:59.640826  2890 net.cpp:399] inception_4e/3x3 -> inception_4e/3x3
I0403 15:15:59.645835  2890 net.cpp:141] Setting up inception_4e/3x3
I0403 15:15:59.645877  2890 net.cpp:148] Top shape: 24 320 14 14 (1505280)
I0403 15:15:59.645902  2890 net.cpp:156] Memory required for data: 1230108192
I0403 15:15:59.645922  2890 layer_factory.hpp:77] Creating layer inception_4e/relu_3x3
I0403 15:15:59.645941  2890 net.cpp:91] Creating Layer inception_4e/relu_3x3
I0403 15:15:59.645956  2890 net.cpp:425] inception_4e/relu_3x3 <- inception_4e/3x3
I0403 15:15:59.645975  2890 net.cpp:386] inception_4e/relu_3x3 -> inception_4e/3x3 (in-place)
I0403 15:15:59.646302  2890 net.cpp:141] Setting up inception_4e/relu_3x3
I0403 15:15:59.646329  2890 net.cpp:148] Top shape: 24 320 14 14 (1505280)
I0403 15:15:59.646345  2890 net.cpp:156] Memory required for data: 1236129312
I0403 15:15:59.646361  2890 layer_factory.hpp:77] Creating layer inception_4e/5x5_reduce
I0403 15:15:59.646385  2890 net.cpp:91] Creating Layer inception_4e/5x5_reduce
I0403 15:15:59.646404  2890 net.cpp:425] inception_4e/5x5_reduce <- inception_4d/output_inception_4d/output_0_split_3
I0403 15:15:59.646426  2890 net.cpp:399] inception_4e/5x5_reduce -> inception_4e/5x5_reduce
I0403 15:15:59.647538  2890 net.cpp:141] Setting up inception_4e/5x5_reduce
I0403 15:15:59.647569  2890 net.cpp:148] Top shape: 24 32 14 14 (150528)
I0403 15:15:59.647586  2890 net.cpp:156] Memory required for data: 1236731424
I0403 15:15:59.647605  2890 layer_factory.hpp:77] Creating layer inception_4e/relu_5x5_reduce
I0403 15:15:59.647624  2890 net.cpp:91] Creating Layer inception_4e/relu_5x5_reduce
I0403 15:15:59.647640  2890 net.cpp:425] inception_4e/relu_5x5_reduce <- inception_4e/5x5_reduce
I0403 15:15:59.647658  2890 net.cpp:386] inception_4e/relu_5x5_reduce -> inception_4e/5x5_reduce (in-place)
I0403 15:15:59.647967  2890 net.cpp:141] Setting up inception_4e/relu_5x5_reduce
I0403 15:15:59.647996  2890 net.cpp:148] Top shape: 24 32 14 14 (150528)
I0403 15:15:59.648012  2890 net.cpp:156] Memory required for data: 1237333536
I0403 15:15:59.648028  2890 layer_factory.hpp:77] Creating layer inception_4e/5x5
I0403 15:15:59.648067  2890 net.cpp:91] Creating Layer inception_4e/5x5
I0403 15:15:59.648087  2890 net.cpp:425] inception_4e/5x5 <- inception_4e/5x5_reduce
I0403 15:15:59.648108  2890 net.cpp:399] inception_4e/5x5 -> inception_4e/5x5
I0403 15:15:59.650020  2890 net.cpp:141] Setting up inception_4e/5x5
I0403 15:15:59.650048  2890 net.cpp:148] Top shape: 24 128 14 14 (602112)
I0403 15:15:59.650064  2890 net.cpp:156] Memory required for data: 1239741984
I0403 15:15:59.650084  2890 layer_factory.hpp:77] Creating layer inception_4e/relu_5x5
I0403 15:15:59.650104  2890 net.cpp:91] Creating Layer inception_4e/relu_5x5
I0403 15:15:59.650122  2890 net.cpp:425] inception_4e/relu_5x5 <- inception_4e/5x5
I0403 15:15:59.650141  2890 net.cpp:386] inception_4e/relu_5x5 -> inception_4e/5x5 (in-place)
I0403 15:15:59.650352  2890 net.cpp:141] Setting up inception_4e/relu_5x5
I0403 15:15:59.650380  2890 net.cpp:148] Top shape: 24 128 14 14 (602112)
I0403 15:15:59.650396  2890 net.cpp:156] Memory required for data: 1242150432
I0403 15:15:59.650411  2890 layer_factory.hpp:77] Creating layer inception_4e/pool
I0403 15:15:59.650430  2890 net.cpp:91] Creating Layer inception_4e/pool
I0403 15:15:59.650446  2890 net.cpp:425] inception_4e/pool <- inception_4d/output_inception_4d/output_0_split_4
I0403 15:15:59.650467  2890 net.cpp:399] inception_4e/pool -> inception_4e/pool
I0403 15:15:59.650538  2890 net.cpp:141] Setting up inception_4e/pool
I0403 15:15:59.650563  2890 net.cpp:148] Top shape: 24 528 14 14 (2483712)
I0403 15:15:59.650578  2890 net.cpp:156] Memory required for data: 1252085280
I0403 15:15:59.650593  2890 layer_factory.hpp:77] Creating layer inception_4e/pool_proj
I0403 15:15:59.650615  2890 net.cpp:91] Creating Layer inception_4e/pool_proj
I0403 15:15:59.650634  2890 net.cpp:425] inception_4e/pool_proj <- inception_4e/pool
I0403 15:15:59.650655  2890 net.cpp:399] inception_4e/pool_proj -> inception_4e/pool_proj
I0403 15:15:59.652212  2890 net.cpp:141] Setting up inception_4e/pool_proj
I0403 15:15:59.652262  2890 net.cpp:148] Top shape: 24 128 14 14 (602112)
I0403 15:15:59.652279  2890 net.cpp:156] Memory required for data: 1254493728
I0403 15:15:59.652298  2890 layer_factory.hpp:77] Creating layer inception_4e/relu_pool_proj
I0403 15:15:59.652320  2890 net.cpp:91] Creating Layer inception_4e/relu_pool_proj
I0403 15:15:59.652338  2890 net.cpp:425] inception_4e/relu_pool_proj <- inception_4e/pool_proj
I0403 15:15:59.652355  2890 net.cpp:386] inception_4e/relu_pool_proj -> inception_4e/pool_proj (in-place)
I0403 15:15:59.652659  2890 net.cpp:141] Setting up inception_4e/relu_pool_proj
I0403 15:15:59.652686  2890 net.cpp:148] Top shape: 24 128 14 14 (602112)
I0403 15:15:59.652701  2890 net.cpp:156] Memory required for data: 1256902176
I0403 15:15:59.652716  2890 layer_factory.hpp:77] Creating layer inception_4e/output
I0403 15:15:59.652734  2890 net.cpp:91] Creating Layer inception_4e/output
I0403 15:15:59.652755  2890 net.cpp:425] inception_4e/output <- inception_4e/1x1
I0403 15:15:59.652771  2890 net.cpp:425] inception_4e/output <- inception_4e/3x3
I0403 15:15:59.652788  2890 net.cpp:425] inception_4e/output <- inception_4e/5x5
I0403 15:15:59.652804  2890 net.cpp:425] inception_4e/output <- inception_4e/pool_proj
I0403 15:15:59.652822  2890 net.cpp:399] inception_4e/output -> inception_4e/output
I0403 15:15:59.652873  2890 net.cpp:141] Setting up inception_4e/output
I0403 15:15:59.652899  2890 net.cpp:148] Top shape: 24 832 14 14 (3913728)
I0403 15:15:59.652915  2890 net.cpp:156] Memory required for data: 1272557088
I0403 15:15:59.652928  2890 layer_factory.hpp:77] Creating layer pool4/3x3_s2
I0403 15:15:59.652946  2890 net.cpp:91] Creating Layer pool4/3x3_s2
I0403 15:15:59.652962  2890 net.cpp:425] pool4/3x3_s2 <- inception_4e/output
I0403 15:15:59.652983  2890 net.cpp:399] pool4/3x3_s2 -> pool4/3x3_s2
I0403 15:15:59.653053  2890 net.cpp:141] Setting up pool4/3x3_s2
I0403 15:15:59.653079  2890 net.cpp:148] Top shape: 24 832 7 7 (978432)
I0403 15:15:59.653095  2890 net.cpp:156] Memory required for data: 1276470816
I0403 15:15:59.653111  2890 layer_factory.hpp:77] Creating layer pool4/3x3_s2_pool4/3x3_s2_0_split
I0403 15:15:59.653128  2890 net.cpp:91] Creating Layer pool4/3x3_s2_pool4/3x3_s2_0_split
I0403 15:15:59.653146  2890 net.cpp:425] pool4/3x3_s2_pool4/3x3_s2_0_split <- pool4/3x3_s2
I0403 15:15:59.653163  2890 net.cpp:399] pool4/3x3_s2_pool4/3x3_s2_0_split -> pool4/3x3_s2_pool4/3x3_s2_0_split_0
I0403 15:15:59.653184  2890 net.cpp:399] pool4/3x3_s2_pool4/3x3_s2_0_split -> pool4/3x3_s2_pool4/3x3_s2_0_split_1
I0403 15:15:59.653206  2890 net.cpp:399] pool4/3x3_s2_pool4/3x3_s2_0_split -> pool4/3x3_s2_pool4/3x3_s2_0_split_2
I0403 15:15:59.653228  2890 net.cpp:399] pool4/3x3_s2_pool4/3x3_s2_0_split -> pool4/3x3_s2_pool4/3x3_s2_0_split_3
I0403 15:15:59.653328  2890 net.cpp:141] Setting up pool4/3x3_s2_pool4/3x3_s2_0_split
I0403 15:15:59.653352  2890 net.cpp:148] Top shape: 24 832 7 7 (978432)
I0403 15:15:59.653369  2890 net.cpp:148] Top shape: 24 832 7 7 (978432)
I0403 15:15:59.653386  2890 net.cpp:148] Top shape: 24 832 7 7 (978432)
I0403 15:15:59.653401  2890 net.cpp:148] Top shape: 24 832 7 7 (978432)
I0403 15:15:59.653415  2890 net.cpp:156] Memory required for data: 1292125728
I0403 15:15:59.653430  2890 layer_factory.hpp:77] Creating layer inception_5a/1x1
I0403 15:15:59.653453  2890 net.cpp:91] Creating Layer inception_5a/1x1
I0403 15:15:59.653471  2890 net.cpp:425] inception_5a/1x1 <- pool4/3x3_s2_pool4/3x3_s2_0_split_0
I0403 15:15:59.653493  2890 net.cpp:399] inception_5a/1x1 -> inception_5a/1x1
I0403 15:15:59.656450  2890 net.cpp:141] Setting up inception_5a/1x1
I0403 15:15:59.656478  2890 net.cpp:148] Top shape: 24 256 7 7 (301056)
I0403 15:15:59.656493  2890 net.cpp:156] Memory required for data: 1293329952
I0403 15:15:59.656512  2890 layer_factory.hpp:77] Creating layer inception_5a/relu_1x1
I0403 15:15:59.656533  2890 net.cpp:91] Creating Layer inception_5a/relu_1x1
I0403 15:15:59.656550  2890 net.cpp:425] inception_5a/relu_1x1 <- inception_5a/1x1
I0403 15:15:59.656569  2890 net.cpp:386] inception_5a/relu_1x1 -> inception_5a/1x1 (in-place)
I0403 15:15:59.656899  2890 net.cpp:141] Setting up inception_5a/relu_1x1
I0403 15:15:59.656926  2890 net.cpp:148] Top shape: 24 256 7 7 (301056)
I0403 15:15:59.656941  2890 net.cpp:156] Memory required for data: 1294534176
I0403 15:15:59.656956  2890 layer_factory.hpp:77] Creating layer inception_5a/3x3_reduce
I0403 15:15:59.656980  2890 net.cpp:91] Creating Layer inception_5a/3x3_reduce
I0403 15:15:59.657001  2890 net.cpp:425] inception_5a/3x3_reduce <- pool4/3x3_s2_pool4/3x3_s2_0_split_1
I0403 15:15:59.657021  2890 net.cpp:399] inception_5a/3x3_reduce -> inception_5a/3x3_reduce
I0403 15:15:59.659566  2890 net.cpp:141] Setting up inception_5a/3x3_reduce
I0403 15:15:59.659597  2890 net.cpp:148] Top shape: 24 160 7 7 (188160)
I0403 15:15:59.659613  2890 net.cpp:156] Memory required for data: 1295286816
I0403 15:15:59.659632  2890 layer_factory.hpp:77] Creating layer inception_5a/relu_3x3_reduce
I0403 15:15:59.659656  2890 net.cpp:91] Creating Layer inception_5a/relu_3x3_reduce
I0403 15:15:59.659674  2890 net.cpp:425] inception_5a/relu_3x3_reduce <- inception_5a/3x3_reduce
I0403 15:15:59.659692  2890 net.cpp:386] inception_5a/relu_3x3_reduce -> inception_5a/3x3_reduce (in-place)
I0403 15:15:59.659886  2890 net.cpp:141] Setting up inception_5a/relu_3x3_reduce
I0403 15:15:59.659911  2890 net.cpp:148] Top shape: 24 160 7 7 (188160)
I0403 15:15:59.659926  2890 net.cpp:156] Memory required for data: 1296039456
I0403 15:15:59.659941  2890 layer_factory.hpp:77] Creating layer inception_5a/3x3
I0403 15:15:59.659965  2890 net.cpp:91] Creating Layer inception_5a/3x3
I0403 15:15:59.659981  2890 net.cpp:425] inception_5a/3x3 <- inception_5a/3x3_reduce
I0403 15:15:59.660004  2890 net.cpp:399] inception_5a/3x3 -> inception_5a/3x3
I0403 15:15:59.665375  2890 net.cpp:141] Setting up inception_5a/3x3
I0403 15:15:59.665407  2890 net.cpp:148] Top shape: 24 320 7 7 (376320)
I0403 15:15:59.665424  2890 net.cpp:156] Memory required for data: 1297544736
I0403 15:15:59.665444  2890 layer_factory.hpp:77] Creating layer inception_5a/relu_3x3
I0403 15:15:59.665467  2890 net.cpp:91] Creating Layer inception_5a/relu_3x3
I0403 15:15:59.665484  2890 net.cpp:425] inception_5a/relu_3x3 <- inception_5a/3x3
I0403 15:15:59.665503  2890 net.cpp:386] inception_5a/relu_3x3 -> inception_5a/3x3 (in-place)
I0403 15:15:59.665818  2890 net.cpp:141] Setting up inception_5a/relu_3x3
I0403 15:15:59.665846  2890 net.cpp:148] Top shape: 24 320 7 7 (376320)
I0403 15:15:59.665863  2890 net.cpp:156] Memory required for data: 1299050016
I0403 15:15:59.665879  2890 layer_factory.hpp:77] Creating layer inception_5a/5x5_reduce
I0403 15:15:59.665902  2890 net.cpp:91] Creating Layer inception_5a/5x5_reduce
I0403 15:15:59.665921  2890 net.cpp:425] inception_5a/5x5_reduce <- pool4/3x3_s2_pool4/3x3_s2_0_split_2
I0403 15:15:59.665945  2890 net.cpp:399] inception_5a/5x5_reduce -> inception_5a/5x5_reduce
I0403 15:15:59.667203  2890 net.cpp:141] Setting up inception_5a/5x5_reduce
I0403 15:15:59.667233  2890 net.cpp:148] Top shape: 24 32 7 7 (37632)
I0403 15:15:59.667254  2890 net.cpp:156] Memory required for data: 1299200544
I0403 15:15:59.667275  2890 layer_factory.hpp:77] Creating layer inception_5a/relu_5x5_reduce
I0403 15:15:59.667296  2890 net.cpp:91] Creating Layer inception_5a/relu_5x5_reduce
I0403 15:15:59.667314  2890 net.cpp:425] inception_5a/relu_5x5_reduce <- inception_5a/5x5_reduce
I0403 15:15:59.667331  2890 net.cpp:386] inception_5a/relu_5x5_reduce -> inception_5a/5x5_reduce (in-place)
I0403 15:15:59.667650  2890 net.cpp:141] Setting up inception_5a/relu_5x5_reduce
I0403 15:15:59.667680  2890 net.cpp:148] Top shape: 24 32 7 7 (37632)
I0403 15:15:59.667698  2890 net.cpp:156] Memory required for data: 1299351072
I0403 15:15:59.667714  2890 layer_factory.hpp:77] Creating layer inception_5a/5x5
I0403 15:15:59.667737  2890 net.cpp:91] Creating Layer inception_5a/5x5
I0403 15:15:59.667757  2890 net.cpp:425] inception_5a/5x5 <- inception_5a/5x5_reduce
I0403 15:15:59.667778  2890 net.cpp:399] inception_5a/5x5 -> inception_5a/5x5
I0403 15:15:59.669626  2890 net.cpp:141] Setting up inception_5a/5x5
I0403 15:15:59.669669  2890 net.cpp:148] Top shape: 24 128 7 7 (150528)
I0403 15:15:59.669685  2890 net.cpp:156] Memory required for data: 1299953184
I0403 15:15:59.669705  2890 layer_factory.hpp:77] Creating layer inception_5a/relu_5x5
I0403 15:15:59.669726  2890 net.cpp:91] Creating Layer inception_5a/relu_5x5
I0403 15:15:59.669744  2890 net.cpp:425] inception_5a/relu_5x5 <- inception_5a/5x5
I0403 15:15:59.669764  2890 net.cpp:386] inception_5a/relu_5x5 -> inception_5a/5x5 (in-place)
I0403 15:15:59.669970  2890 net.cpp:141] Setting up inception_5a/relu_5x5
I0403 15:15:59.669998  2890 net.cpp:148] Top shape: 24 128 7 7 (150528)
I0403 15:15:59.670016  2890 net.cpp:156] Memory required for data: 1300555296
I0403 15:15:59.670032  2890 layer_factory.hpp:77] Creating layer inception_5a/pool
I0403 15:15:59.670049  2890 net.cpp:91] Creating Layer inception_5a/pool
I0403 15:15:59.670066  2890 net.cpp:425] inception_5a/pool <- pool4/3x3_s2_pool4/3x3_s2_0_split_3
I0403 15:15:59.670088  2890 net.cpp:399] inception_5a/pool -> inception_5a/pool
I0403 15:15:59.670162  2890 net.cpp:141] Setting up inception_5a/pool
I0403 15:15:59.670187  2890 net.cpp:148] Top shape: 24 832 7 7 (978432)
I0403 15:15:59.670202  2890 net.cpp:156] Memory required for data: 1304469024
I0403 15:15:59.670220  2890 layer_factory.hpp:77] Creating layer inception_5a/pool_proj
I0403 15:15:59.670248  2890 net.cpp:91] Creating Layer inception_5a/pool_proj
I0403 15:15:59.670267  2890 net.cpp:425] inception_5a/pool_proj <- inception_5a/pool
I0403 15:15:59.670289  2890 net.cpp:399] inception_5a/pool_proj -> inception_5a/pool_proj
I0403 15:15:59.672749  2890 net.cpp:141] Setting up inception_5a/pool_proj
I0403 15:15:59.672780  2890 net.cpp:148] Top shape: 24 128 7 7 (150528)
I0403 15:15:59.672796  2890 net.cpp:156] Memory required for data: 1305071136
I0403 15:15:59.672816  2890 layer_factory.hpp:77] Creating layer inception_5a/relu_pool_proj
I0403 15:15:59.672837  2890 net.cpp:91] Creating Layer inception_5a/relu_pool_proj
I0403 15:15:59.672855  2890 net.cpp:425] inception_5a/relu_pool_proj <- inception_5a/pool_proj
I0403 15:15:59.672874  2890 net.cpp:386] inception_5a/relu_pool_proj -> inception_5a/pool_proj (in-place)
I0403 15:15:59.673195  2890 net.cpp:141] Setting up inception_5a/relu_pool_proj
I0403 15:15:59.673224  2890 net.cpp:148] Top shape: 24 128 7 7 (150528)
I0403 15:15:59.673243  2890 net.cpp:156] Memory required for data: 1305673248
I0403 15:15:59.673262  2890 layer_factory.hpp:77] Creating layer inception_5a/output
I0403 15:15:59.673281  2890 net.cpp:91] Creating Layer inception_5a/output
I0403 15:15:59.673298  2890 net.cpp:425] inception_5a/output <- inception_5a/1x1
I0403 15:15:59.673316  2890 net.cpp:425] inception_5a/output <- inception_5a/3x3
I0403 15:15:59.673333  2890 net.cpp:425] inception_5a/output <- inception_5a/5x5
I0403 15:15:59.673351  2890 net.cpp:425] inception_5a/output <- inception_5a/pool_proj
I0403 15:15:59.673372  2890 net.cpp:399] inception_5a/output -> inception_5a/output
I0403 15:15:59.673430  2890 net.cpp:141] Setting up inception_5a/output
I0403 15:15:59.673455  2890 net.cpp:148] Top shape: 24 832 7 7 (978432)
I0403 15:15:59.673470  2890 net.cpp:156] Memory required for data: 1309586976
I0403 15:15:59.673486  2890 layer_factory.hpp:77] Creating layer inception_5a/output_inception_5a/output_0_split
I0403 15:15:59.673506  2890 net.cpp:91] Creating Layer inception_5a/output_inception_5a/output_0_split
I0403 15:15:59.673522  2890 net.cpp:425] inception_5a/output_inception_5a/output_0_split <- inception_5a/output
I0403 15:15:59.673543  2890 net.cpp:399] inception_5a/output_inception_5a/output_0_split -> inception_5a/output_inception_5a/output_0_split_0
I0403 15:15:59.673566  2890 net.cpp:399] inception_5a/output_inception_5a/output_0_split -> inception_5a/output_inception_5a/output_0_split_1
I0403 15:15:59.673588  2890 net.cpp:399] inception_5a/output_inception_5a/output_0_split -> inception_5a/output_inception_5a/output_0_split_2
I0403 15:15:59.673609  2890 net.cpp:399] inception_5a/output_inception_5a/output_0_split -> inception_5a/output_inception_5a/output_0_split_3
I0403 15:15:59.673730  2890 net.cpp:141] Setting up inception_5a/output_inception_5a/output_0_split
I0403 15:15:59.673755  2890 net.cpp:148] Top shape: 24 832 7 7 (978432)
I0403 15:15:59.673774  2890 net.cpp:148] Top shape: 24 832 7 7 (978432)
I0403 15:15:59.673790  2890 net.cpp:148] Top shape: 24 832 7 7 (978432)
I0403 15:15:59.673806  2890 net.cpp:148] Top shape: 24 832 7 7 (978432)
I0403 15:15:59.673820  2890 net.cpp:156] Memory required for data: 1325241888
I0403 15:15:59.673835  2890 layer_factory.hpp:77] Creating layer inception_5b/1x1
I0403 15:15:59.673861  2890 net.cpp:91] Creating Layer inception_5b/1x1
I0403 15:15:59.673879  2890 net.cpp:425] inception_5b/1x1 <- inception_5a/output_inception_5a/output_0_split_0
I0403 15:15:59.673899  2890 net.cpp:399] inception_5b/1x1 -> inception_5b/1x1
I0403 15:15:59.677923  2890 net.cpp:141] Setting up inception_5b/1x1
I0403 15:15:59.677954  2890 net.cpp:148] Top shape: 24 384 7 7 (451584)
I0403 15:15:59.677971  2890 net.cpp:156] Memory required for data: 1327048224
I0403 15:15:59.677991  2890 layer_factory.hpp:77] Creating layer inception_5b/relu_1x1
I0403 15:15:59.678012  2890 net.cpp:91] Creating Layer inception_5b/relu_1x1
I0403 15:15:59.678030  2890 net.cpp:425] inception_5b/relu_1x1 <- inception_5b/1x1
I0403 15:15:59.678050  2890 net.cpp:386] inception_5b/relu_1x1 -> inception_5b/1x1 (in-place)
I0403 15:15:59.678381  2890 net.cpp:141] Setting up inception_5b/relu_1x1
I0403 15:15:59.678409  2890 net.cpp:148] Top shape: 24 384 7 7 (451584)
I0403 15:15:59.678426  2890 net.cpp:156] Memory required for data: 1328854560
I0403 15:15:59.678442  2890 layer_factory.hpp:77] Creating layer inception_5b/3x3_reduce
I0403 15:15:59.678465  2890 net.cpp:91] Creating Layer inception_5b/3x3_reduce
I0403 15:15:59.678483  2890 net.cpp:425] inception_5b/3x3_reduce <- inception_5a/output_inception_5a/output_0_split_1
I0403 15:15:59.678508  2890 net.cpp:399] inception_5b/3x3_reduce -> inception_5b/3x3_reduce
I0403 15:15:59.681311  2890 net.cpp:141] Setting up inception_5b/3x3_reduce
I0403 15:15:59.681342  2890 net.cpp:148] Top shape: 24 192 7 7 (225792)
I0403 15:15:59.681359  2890 net.cpp:156] Memory required for data: 1329757728
I0403 15:15:59.681377  2890 layer_factory.hpp:77] Creating layer inception_5b/relu_3x3_reduce
I0403 15:15:59.681398  2890 net.cpp:91] Creating Layer inception_5b/relu_3x3_reduce
I0403 15:15:59.681416  2890 net.cpp:425] inception_5b/relu_3x3_reduce <- inception_5b/3x3_reduce
I0403 15:15:59.681435  2890 net.cpp:386] inception_5b/relu_3x3_reduce -> inception_5b/3x3_reduce (in-place)
I0403 15:15:59.681632  2890 net.cpp:141] Setting up inception_5b/relu_3x3_reduce
I0403 15:15:59.681658  2890 net.cpp:148] Top shape: 24 192 7 7 (225792)
I0403 15:15:59.681674  2890 net.cpp:156] Memory required for data: 1330660896
I0403 15:15:59.681689  2890 layer_factory.hpp:77] Creating layer inception_5b/3x3
I0403 15:15:59.681710  2890 net.cpp:91] Creating Layer inception_5b/3x3
I0403 15:15:59.681728  2890 net.cpp:425] inception_5b/3x3 <- inception_5b/3x3_reduce
I0403 15:15:59.681751  2890 net.cpp:399] inception_5b/3x3 -> inception_5b/3x3
I0403 15:15:59.688591  2890 net.cpp:141] Setting up inception_5b/3x3
I0403 15:15:59.688618  2890 net.cpp:148] Top shape: 24 384 7 7 (451584)
I0403 15:15:59.688634  2890 net.cpp:156] Memory required for data: 1332467232
I0403 15:15:59.688652  2890 layer_factory.hpp:77] Creating layer inception_5b/relu_3x3
I0403 15:15:59.688673  2890 net.cpp:91] Creating Layer inception_5b/relu_3x3
I0403 15:15:59.688689  2890 net.cpp:425] inception_5b/relu_3x3 <- inception_5b/3x3
I0403 15:15:59.688707  2890 net.cpp:386] inception_5b/relu_3x3 -> inception_5b/3x3 (in-place)
I0403 15:15:59.689007  2890 net.cpp:141] Setting up inception_5b/relu_3x3
I0403 15:15:59.689033  2890 net.cpp:148] Top shape: 24 384 7 7 (451584)
I0403 15:15:59.689049  2890 net.cpp:156] Memory required for data: 1334273568
I0403 15:15:59.689064  2890 layer_factory.hpp:77] Creating layer inception_5b/5x5_reduce
I0403 15:15:59.689101  2890 net.cpp:91] Creating Layer inception_5b/5x5_reduce
I0403 15:15:59.689121  2890 net.cpp:425] inception_5b/5x5_reduce <- inception_5a/output_inception_5a/output_0_split_2
I0403 15:15:59.689143  2890 net.cpp:399] inception_5b/5x5_reduce -> inception_5b/5x5_reduce
I0403 15:15:59.690435  2890 net.cpp:141] Setting up inception_5b/5x5_reduce
I0403 15:15:59.690462  2890 net.cpp:148] Top shape: 24 48 7 7 (56448)
I0403 15:15:59.690479  2890 net.cpp:156] Memory required for data: 1334499360
I0403 15:15:59.690496  2890 layer_factory.hpp:77] Creating layer inception_5b/relu_5x5_reduce
I0403 15:15:59.690517  2890 net.cpp:91] Creating Layer inception_5b/relu_5x5_reduce
I0403 15:15:59.690533  2890 net.cpp:425] inception_5b/relu_5x5_reduce <- inception_5b/5x5_reduce
I0403 15:15:59.690551  2890 net.cpp:386] inception_5b/relu_5x5_reduce -> inception_5b/5x5_reduce (in-place)
I0403 15:15:59.690929  2890 net.cpp:141] Setting up inception_5b/relu_5x5_reduce
I0403 15:15:59.690956  2890 net.cpp:148] Top shape: 24 48 7 7 (56448)
I0403 15:15:59.690971  2890 net.cpp:156] Memory required for data: 1334725152
I0403 15:15:59.690986  2890 layer_factory.hpp:77] Creating layer inception_5b/5x5
I0403 15:15:59.691007  2890 net.cpp:91] Creating Layer inception_5b/5x5
I0403 15:15:59.691023  2890 net.cpp:425] inception_5b/5x5 <- inception_5b/5x5_reduce
I0403 15:15:59.691042  2890 net.cpp:399] inception_5b/5x5 -> inception_5b/5x5
I0403 15:15:59.693135  2890 net.cpp:141] Setting up inception_5b/5x5
I0403 15:15:59.693162  2890 net.cpp:148] Top shape: 24 128 7 7 (150528)
I0403 15:15:59.693178  2890 net.cpp:156] Memory required for data: 1335327264
I0403 15:15:59.693197  2890 layer_factory.hpp:77] Creating layer inception_5b/relu_5x5
I0403 15:15:59.693218  2890 net.cpp:91] Creating Layer inception_5b/relu_5x5
I0403 15:15:59.693236  2890 net.cpp:425] inception_5b/relu_5x5 <- inception_5b/5x5
I0403 15:15:59.693259  2890 net.cpp:386] inception_5b/relu_5x5 -> inception_5b/5x5 (in-place)
I0403 15:15:59.693457  2890 net.cpp:141] Setting up inception_5b/relu_5x5
I0403 15:15:59.693485  2890 net.cpp:148] Top shape: 24 128 7 7 (150528)
I0403 15:15:59.693500  2890 net.cpp:156] Memory required for data: 1335929376
I0403 15:15:59.693514  2890 layer_factory.hpp:77] Creating layer inception_5b/pool
I0403 15:15:59.693532  2890 net.cpp:91] Creating Layer inception_5b/pool
I0403 15:15:59.693548  2890 net.cpp:425] inception_5b/pool <- inception_5a/output_inception_5a/output_0_split_3
I0403 15:15:59.693568  2890 net.cpp:399] inception_5b/pool -> inception_5b/pool
I0403 15:15:59.693642  2890 net.cpp:141] Setting up inception_5b/pool
I0403 15:15:59.693665  2890 net.cpp:148] Top shape: 24 832 7 7 (978432)
I0403 15:15:59.693681  2890 net.cpp:156] Memory required for data: 1339843104
I0403 15:15:59.693694  2890 layer_factory.hpp:77] Creating layer inception_5b/pool_proj
I0403 15:15:59.693717  2890 net.cpp:91] Creating Layer inception_5b/pool_proj
I0403 15:15:59.693734  2890 net.cpp:425] inception_5b/pool_proj <- inception_5b/pool
I0403 15:15:59.693753  2890 net.cpp:399] inception_5b/pool_proj -> inception_5b/pool_proj
I0403 15:15:59.696072  2890 net.cpp:141] Setting up inception_5b/pool_proj
I0403 15:15:59.696101  2890 net.cpp:148] Top shape: 24 128 7 7 (150528)
I0403 15:15:59.696117  2890 net.cpp:156] Memory required for data: 1340445216
I0403 15:15:59.696136  2890 layer_factory.hpp:77] Creating layer inception_5b/relu_pool_proj
I0403 15:15:59.696156  2890 net.cpp:91] Creating Layer inception_5b/relu_pool_proj
I0403 15:15:59.696173  2890 net.cpp:425] inception_5b/relu_pool_proj <- inception_5b/pool_proj
I0403 15:15:59.696190  2890 net.cpp:386] inception_5b/relu_pool_proj -> inception_5b/pool_proj (in-place)
I0403 15:15:59.696513  2890 net.cpp:141] Setting up inception_5b/relu_pool_proj
I0403 15:15:59.696540  2890 net.cpp:148] Top shape: 24 128 7 7 (150528)
I0403 15:15:59.696555  2890 net.cpp:156] Memory required for data: 1341047328
I0403 15:15:59.696571  2890 layer_factory.hpp:77] Creating layer inception_5b/output
I0403 15:15:59.696593  2890 net.cpp:91] Creating Layer inception_5b/output
I0403 15:15:59.696624  2890 net.cpp:425] inception_5b/output <- inception_5b/1x1
I0403 15:15:59.696653  2890 net.cpp:425] inception_5b/output <- inception_5b/3x3
I0403 15:15:59.696669  2890 net.cpp:425] inception_5b/output <- inception_5b/5x5
I0403 15:15:59.696686  2890 net.cpp:425] inception_5b/output <- inception_5b/pool_proj
I0403 15:15:59.696715  2890 net.cpp:399] inception_5b/output -> inception_5b/output
I0403 15:15:59.696773  2890 net.cpp:141] Setting up inception_5b/output
I0403 15:15:59.696797  2890 net.cpp:148] Top shape: 24 1024 7 7 (1204224)
I0403 15:15:59.696812  2890 net.cpp:156] Memory required for data: 1345864224
I0403 15:15:59.696827  2890 layer_factory.hpp:77] Creating layer pool5/7x7_s1
I0403 15:15:59.696846  2890 net.cpp:91] Creating Layer pool5/7x7_s1
I0403 15:15:59.696861  2890 net.cpp:425] pool5/7x7_s1 <- inception_5b/output
I0403 15:15:59.696882  2890 net.cpp:399] pool5/7x7_s1 -> pool5/7x7_s1
I0403 15:15:59.697116  2890 net.cpp:141] Setting up pool5/7x7_s1
I0403 15:15:59.697141  2890 net.cpp:148] Top shape: 24 1024 1 1 (24576)
I0403 15:15:59.697156  2890 net.cpp:156] Memory required for data: 1345962528
I0403 15:15:59.697170  2890 layer_factory.hpp:77] Creating layer pool5/drop_7x7_s1
I0403 15:15:59.697190  2890 net.cpp:91] Creating Layer pool5/drop_7x7_s1
I0403 15:15:59.697208  2890 net.cpp:425] pool5/drop_7x7_s1 <- pool5/7x7_s1
I0403 15:15:59.697226  2890 net.cpp:386] pool5/drop_7x7_s1 -> pool5/7x7_s1 (in-place)
I0403 15:15:59.697281  2890 net.cpp:141] Setting up pool5/drop_7x7_s1
I0403 15:15:59.697305  2890 net.cpp:148] Top shape: 24 1024 1 1 (24576)
I0403 15:15:59.697319  2890 net.cpp:156] Memory required for data: 1346060832
I0403 15:15:59.697335  2890 layer_factory.hpp:77] Creating layer loss3/classifier_plantvillage
I0403 15:15:59.697355  2890 net.cpp:91] Creating Layer loss3/classifier_plantvillage
I0403 15:15:59.697373  2890 net.cpp:425] loss3/classifier_plantvillage <- pool5/7x7_s1
I0403 15:15:59.697392  2890 net.cpp:399] loss3/classifier_plantvillage -> loss3/classifier_plantvillage
I0403 15:15:59.697819  2890 net.cpp:141] Setting up loss3/classifier_plantvillage
I0403 15:15:59.697844  2890 net.cpp:148] Top shape: 24 38 (912)
I0403 15:15:59.697859  2890 net.cpp:156] Memory required for data: 1346064480
I0403 15:15:59.697876  2890 layer_factory.hpp:77] Creating layer loss3/classifier_plantvillage_loss3/classifier_plantvillage_0_split
I0403 15:15:59.697893  2890 net.cpp:91] Creating Layer loss3/classifier_plantvillage_loss3/classifier_plantvillage_0_split
I0403 15:15:59.697909  2890 net.cpp:425] loss3/classifier_plantvillage_loss3/classifier_plantvillage_0_split <- loss3/classifier_plantvillage
I0403 15:15:59.697929  2890 net.cpp:399] loss3/classifier_plantvillage_loss3/classifier_plantvillage_0_split -> loss3/classifier_plantvillage_loss3/classifier_plantvillage_0_split_0
I0403 15:15:59.697952  2890 net.cpp:399] loss3/classifier_plantvillage_loss3/classifier_plantvillage_0_split -> loss3/classifier_plantvillage_loss3/classifier_plantvillage_0_split_1
I0403 15:15:59.697971  2890 net.cpp:399] loss3/classifier_plantvillage_loss3/classifier_plantvillage_0_split -> loss3/classifier_plantvillage_loss3/classifier_plantvillage_0_split_2
I0403 15:15:59.697993  2890 net.cpp:399] loss3/classifier_plantvillage_loss3/classifier_plantvillage_0_split -> loss3/classifier_plantvillage_loss3/classifier_plantvillage_0_split_3
I0403 15:15:59.698096  2890 net.cpp:141] Setting up loss3/classifier_plantvillage_loss3/classifier_plantvillage_0_split
I0403 15:15:59.698122  2890 net.cpp:148] Top shape: 24 38 (912)
I0403 15:15:59.698138  2890 net.cpp:148] Top shape: 24 38 (912)
I0403 15:15:59.698154  2890 net.cpp:148] Top shape: 24 38 (912)
I0403 15:15:59.698169  2890 net.cpp:148] Top shape: 24 38 (912)
I0403 15:15:59.698184  2890 net.cpp:156] Memory required for data: 1346079072
I0403 15:15:59.698197  2890 layer_factory.hpp:77] Creating layer loss1/loss
I0403 15:15:59.698221  2890 net.cpp:91] Creating Layer loss1/loss
I0403 15:15:59.698238  2890 net.cpp:425] loss1/loss <- loss1/classifier_plantvillage_loss1/classifier_plantvillage_0_split_0
I0403 15:15:59.698273  2890 net.cpp:425] loss1/loss <- label_data_1_split_0
…
