…
I0403 15:44:10.285807  3421 net.cpp:313] The NetState phase (1) differed from the phase (0) specified by a rule in layer data
I0403 15:44:10.287044  3421 net.cpp:49] Initializing net from parameters: 
state {
  phase: TEST
}
layer {
  name: "data"
  type: "Data"
  top: "data"
  top: "label"
  include {
    phase: TEST
  }
  transform_param {
    mirror: false
    crop_size: 224
    mean_file: "/home/mohanty/data/final_dataset/lmdb/grayscale-50-50/mean.binaryproto"
  }
  data_param {
    source: "/home/mohanty/data/final_dataset/lmdb/grayscale-50-50/test_db"
    batch_size: 24
    backend: LMDB
  }
}
layer {
  name: "conv1/7x7_s2"
  type: "Convolution"
  bottom: "data"
  top: "conv1/7x7_s2"
  param {
    lr_mult: 1
    decay_mult: 1
  }
  param {
    lr_mult: 2
    decay_mult: 0
  }
  convolution_param {
    num_output: 64
    pad: 3
    kernel_size: 7
    stride: 2
    weight_filler {
      type: "xavier"
      std: 0.1
    }
    bias_filler {
      type: "constant"
      value: 0.2
    }
  }
}
layer {
  name: "conv1/relu_7x7"
  type: "ReLU"
  bottom: "conv1/7x7_s2"
  top: "conv1/7x7_s2"
}
layer {
  name: "pool1/3x3_s2"
  type: "Pooling"
  bottom: "conv1/7x7_s2"
  top: "pool1/3x3_s2"
  pooling_param {
    pool: MAX
    kernel_size: 3
    stride: 2
  }
}
layer {
  name: "pool1/norm1"
  type: "LRN"
  bottom: "pool1/3x3_s2"
  top: "pool1/norm1"
  lrn_param {
    local_size: 5
    alpha: 0.0001
    beta: 0.75
  }
}
layer {
  name: "conv2/3x3_reduce"
  type: "Convolution"
  bottom: "pool1/norm1"
  top: "conv2/3x3_reduce"
  param {
    lr_mult: 1
    decay_mult: 1
  }
  param {
    lr_mult: 2
    decay_mult: 0
  }
  convolution_param {
    num_output: 64
    kernel_size: 1
    weight_filler {
      type: "xavier"
      std: 0.1
    }
    bias_filler {
      type: "constant"
      value: 0.2
    }
  }
}
layer {
  name: "conv2/relu_3x3_reduce"
  type: "ReLU"
  bottom: "conv2/3x3_reduce"
  top: "conv2/3x3_reduce"
}
layer {
  name: "conv2/3x3"
  type: "Convolution"
  bottom: "conv2/3x3_reduce"
  top: "conv2/3x3"
  param {
    lr_mult: 1
    decay_mult: 1
  }
  param {
    lr_mult: 2
    decay_mult: 0
  }
  convolution_param {
    num_output: 192
    pad: 1
    kernel_size: 3
    weight_filler {
      type: "xavier"
      std: 0.03
    }
    bias_filler {
      type: "constant"
      value: 0.2
    }
  }
}
layer {
  name: "conv2/relu_3x3"
  type: "ReLU"
  bottom: "conv2/3x3"
  top: "conv2/3x3"
}
layer {
  name: "conv2/norm2"
  type: "LRN"
  bottom: "conv2/3x3"
  top: "conv2/norm2"
  lrn_param {
    local_size: 5
    alpha: 0.0001
    beta: 0.75
  }
}
layer {
  name: "pool2/3x3_s2"
  type: "Pooling"
  bottom: "conv2/norm2"
  top: "pool2/3x3_s2"
  pooling_param {
    pool: MAX
    kernel_size: 3
    stride: 2
  }
}
layer {
  name: "inception_3a/1x1"
  type: "Convolution"
  bottom: "pool2/3x3_s2"
  top: "inception_3a/1x1"
  param {
    lr_mult: 1
    decay_mult: 1
  }
  param {
    lr_mult: 2
    decay_mult: 0
  }
  convolution_param {
    num_output: 64
    kernel_size: 1
    weight_filler {
      type: "xavier"
      std: 0.03
    }
    bias_filler {
      type: "constant"
      value: 0.2
    }
  }
}
layer {
  name: "inception_3a/relu_1x1"
  type: "ReLU"
  bottom: "inception_3a/1x1"
  top: "inception_3a/1x1"
}
layer {
  name: "inception_3a/3x3_reduce"
  type: "Convolution"
  bottom: "pool2/3x3_s2"
  top: "inception_3a/3x3_reduce"
  param {
    lr_mult: 1
    decay_mult: 1
  }
  param {
    lr_mult: 2
    decay_mult: 0
  }
  convolution_param {
    num_output: 96
    kernel_size: 1
    weight_filler {
      type: "xavier"
      std: 0.09
    }
    bias_filler {
      type: "constant"
      value: 0.2
    }
  }
}
layer {
  name: "inception_3a/relu_3x3_reduce"
  type: "ReLU"
  bottom: "inception_3a/3x3_reduce"
  top: "inception_3a/3x3_reduce"
}
layer {
  name: "inception_3a/3x3"
  type: "Convolution"
  bottom: "inception_3a/3x3_reduce"
  top: "inception_3a/3x3"
  param {
    lr_mult: 1
    decay_mult: 1
  }
  param {
    lr_mult: 2
    decay_mult: 0
  }
  convolution_param {
    num_output: 128
    pad: 1
    kernel_size: 3
    weight_filler {
      type: "xavier"
      std: 0.03
    }
    bias_filler {
      type: "constant"
      value: 0.2
    }
  }
}
layer {
  name: "inception_3a/relu_3x3"
  type: "ReLU"
  bottom: "inception_3a/3x3"
  top: "inception_3a/3x3"
}
layer {
  name: "inception_3a/5x5_reduce"
  type: "Convolution"
  bottom: "pool2/3x3_s2"
  top: "inception_3a/5x5_reduce"
  param {
    lr_mult: 1
    decay_mult: 1
  }
  param {
    lr_mult: 2
    decay_mult: 0
  }
  convolution_param {
    num_output: 16
    kernel_size: 1
    weight_filler {
      type: "xavier"
      std: 0.2
    }
    bias_filler {
      type: "constant"
      value: 0.2
    }
  }
}
layer {
  name: "inception_3a/relu_5x5_reduce"
  type: "ReLU"
  bottom: "inception_3a/5x5_reduce"
  top: "inception_3a/5x5_reduce"
}
layer {
  name: "inception_3a/5x5"
  type: "Convolution"
  bottom: "inception_3a/5x5_reduce"
  top: "inception_3a/5x5"
  param {
    lr_mult: 1
    decay_mult: 1
  }
  param {
    lr_mult: 2
    decay_mult: 0
  }
  convolution_param {
    num_output: 32
    pad: 2
    kernel_size: 5
    weight_filler {
      type: "xavier"
      std: 0.03
    }
    bias_filler {
      type: "constant"
      value: 0.2
    }
  }
}
layer {
  name: "inception_3a/relu_5x5"
  type: "ReLU"
  bottom: "inception_3a/5x5"
  top: "inception_3a/5x5"
}
layer {
  name: "inception_3a/pool"
  type: "Pooling"
  bottom: "pool2/3x3_s2"
  top: "inception_3a/pool"
  pooling_param {
    pool: MAX
    kernel_size: 3
    stride: 1
    pad: 1
  }
}
layer {
  name: "inception_3a/pool_proj"
  type: "Convolution"
  bottom: "inception_3a/pool"
  top: "inception_3a/pool_proj"
  param {
    lr_mult: 1
    decay_mult: 1
  }
  param {
    lr_mult: 2
    decay_mult: 0
  }
  convolution_param {
    num_output: 32
    kernel_size: 1
    weight_filler {
      type: "xavier"
      std: 0.1
    }
    bias_filler {
      type: "constant"
      value: 0.2
    }
  }
}
layer {
  name: "inception_3a/relu_pool_proj"
  type: "ReLU"
  bottom: "inception_3a/pool_proj"
  top: "inception_3a/pool_proj"
}
layer {
  name: "inception_3a/output"
  type: "Concat"
  bottom: "inception_3a/1x1"
  bottom: "inception_3a/3x3"
  bottom: "inception_3a/5x5"
  bottom: "inception_3a/pool_proj"
  top: "inception_3a/output"
}
layer {
  name: "inception_3b/1x1"
  type: "Convolution"
  bottom: "inception_3a/output"
  top: "inception_3b/1x1"
  param {
    lr_mult: 1
    decay_mult: 1
  }
  param {
    lr_mult: 2
    decay_mult: 0
  }
  convolution_param {
    num_output: 128
    kernel_size: 1
    weight_filler {
      type: "xavier"
      std: 0.03
    }
    bias_filler {
      type: "constant"
      value: 0.2
    }
  }
}
layer {
  name: "inception_3b/relu_1x1"
  type: "ReLU"
  bottom: "inception_3b/1x1"
  top: "inception_3b/1x1"
}
layer {
  name: "inception_3b/3x3_reduce"
  type: "Convolution"
  bottom: "inception_3a/output"
  top: "inception_3b/3x3_reduce"
  param {
    lr_mult: 1
    decay_mult: 1
  }
  param {
    lr_mult: 2
    decay_mult: 0
  }
  convolution_param {
    num_output: 128
    kernel_size: 1
    weight_filler {
      type: "xavier"
      std: 0.09
    }
    bias_filler {
      type: "constant"
      value: 0.2
    }
  }
}
layer {
  name: "inception_3b/relu_3x3_reduce"
  type: "ReLU"
  bottom: "inception_3b/3x3_reduce"
  top: "inception_3b/3x3_reduce"
}
layer {
  name: "inception_3b/3x3"
  type: "Convolution"
  bottom: "inception_3b/3x3_reduce"
  top: "inception_3b/3x3"
  param {
    lr_mult: 1
    decay_mult: 1
  }
  param {
    lr_mult: 2
    decay_mult: 0
  }
  convolution_param {
    num_output: 192
    pad: 1
    kernel_size: 3
    weight_filler {
      type: "xavier"
      std: 0.03
    }
    bias_filler {
      type: "constant"
      value: 0.2
    }
  }
}
layer {
  name: "inception_3b/relu_3x3"
  type: "ReLU"
  bottom: "inception_3b/3x3"
  top: "inception_3b/3x3"
}
layer {
  name: "inception_3b/5x5_reduce"
  type: "Convolution"
  bottom: "inception_3a/output"
  top: "inception_3b/5x5_reduce"
  param {
    lr_mult: 1
    decay_mult: 1
  }
  param {
    lr_mult: 2
    decay_mult: 0
  }
  convolution_param {
    num_output: 32
    kernel_size: 1
    weight_filler {
      type: "xavier"
      std: 0.2
    }
    bias_filler {
      type: "constant"
      value: 0.2
    }
  }
}
layer {
  name: "inception_3b/relu_5x5_reduce"
  type: "ReLU"
  bottom: "inception_3b/5x5_reduce"
  top: "inception_3b/5x5_reduce"
}
layer {
  name: "inception_3b/5x5"
  type: "Convolution"
  bottom: "inception_3b/5x5_reduce"
  top: "inception_3b/5x5"
  param {
    lr_mult: 1
    decay_mult: 1
  }
  param {
    lr_mult: 2
    decay_mult: 0
  }
  convolution_param {
    num_output: 96
    pad: 2
    kernel_size: 5
    weight_filler {
      type: "xavier"
      std: 0.03
    }
    bias_filler {
      type: "constant"
      value: 0.2
    }
  }
}
layer {
  name: "inception_3b/relu_5x5"
  type: "ReLU"
  bottom: "inception_3b/5x5"
  top: "inception_3b/5x5"
}
layer {
  name: "inception_3b/pool"
  type: "Pooling"
  bottom: "inception_3a/output"
  top: "inception_3b/pool"
  pooling_param {
    pool: MAX
    kernel_size: 3
    stride: 1
    pad: 1
  }
}
layer {
  name: "inception_3b/pool_proj"
  type: "Convolution"
  bottom: "inception_3b/pool"
  top: "inception_3b/pool_proj"
  param {
    lr_mult: 1
    decay_mult: 1
  }
  param {
    lr_mult: 2
    decay_mult: 0
  }
  convolution_param {
    num_output: 64
    kernel_size: 1
    weight_filler {
      type: "xavier"
      std: 0.1
    }
    bias_filler {
      type: "constant"
      value: 0.2
    }
  }
}
layer {
  name: "inception_3b/relu_pool_proj"
  type: "ReLU"
  bottom: "inception_3b/pool_proj"
  top: "inception_3b/pool_proj"
}
layer {
  name: "inception_3b/output"
  type: "Concat"
  bottom: "inception_3b/1x1"
  bottom: "inception_3b/3x3"
  bottom: "inception_3b/5x5"
  bottom: "inception_3b/pool_proj"
  top: "inception_3b/output"
}
layer {
  name: "pool3/3x3_s2"
  type: "Pooling"
  bottom: "inception_3b/output"
  top: "pool3/3x3_s2"
  pooling_param {
    pool: MAX
    kernel_size: 3
    stride: 2
  }
}
layer {
  name: "inception_4a/1x1"
  type: "Convolution"
  bottom: "pool3/3x3_s2"
  top: "inception_4a/1x1"
  param {
    lr_mult: 1
    decay_mult: 1
  }
  param {
    lr_mult: 2
    decay_mult: 0
  }
  convolution_param {
    num_output: 192
    kernel_size: 1
    weight_filler {
      type: "xavier"
      std: 0.03
    }
    bias_filler {
      type: "constant"
      value: 0.2
    }
  }
}
layer {
  name: "inception_4a/relu_1x1"
  type: "ReLU"
  bottom: "inception_4a/1x1"
  top: "inception_4a/1x1"
}
layer {
  name: "inception_4a/3x3_reduce"
  type: "Convolution"
  bottom: "pool3/3x3_s2"
  top: "inception_4a/3x3_reduce"
  param {
    lr_mult: 1
    decay_mult: 1
  }
  param {
    lr_mult: 2
    decay_mult: 0
  }
  convolution_param {
    num_output: 96
    kernel_size: 1
    weight_filler {
      type: "xavier"
      std: 0.09
    }
    bias_filler {
      type: "constant"
      value: 0.2
    }
  }
}
layer {
  name: "inception_4a/relu_3x3_reduce"
  type: "ReLU"
  bottom: "inception_4a/3x3_reduce"
  top: "inception_4a/3x3_reduce"
}
layer {
  name: "inception_4a/3x3"
  type: "Convolution"
  bottom: "inception_4a/3x3_reduce"
  top: "inception_4a/3x3"
  param {
    lr_mult: 1
    decay_mult: 1
  }
  param {
    lr_mult: 2
    decay_mult: 0
  }
  convolution_param {
    num_output: 208
    pad: 1
    kernel_size: 3
    weight_filler {
      type: "xavier"
      std: 0.03
    }
    bias_filler {
      type: "constant"
      value: 0.2
    }
  }
}
layer {
  name: "inception_4a/relu_3x3"
  type: "ReLU"
  bottom: "inception_4a/3x3"
  top: "inception_4a/3x3"
}
layer {
  name: "inception_4a/5x5_reduce"
  type: "Convolution"
  bottom: "pool3/3x3_s2"
  top: "inception_4a/5x5_reduce"
  param {
    lr_mult: 1
    decay_mult: 1
  }
  param {
    lr_mult: 2
    decay_mult: 0
  }
  convolution_param {
    num_output: 16
    kernel_size: 1
    weight_filler {
      type: "xavier"
      std: 0.2
    }
    bias_filler {
      type: "constant"
      value: 0.2
    }
  }
}
layer {
  name: "inception_4a/relu_5x5_reduce"
  type: "ReLU"
  bottom: "inception_4a/5x5_reduce"
  top: "inception_4a/5x5_reduce"
}
layer {
  name: "inception_4a/5x5"
  type: "Convolution"
  bottom: "inception_4a/5x5_reduce"
  top: "inception_4a/5x5"
  param {
    lr_mult: 1
    decay_mult: 1
  }
  param {
    lr_mult: 2
    decay_mult: 0
  }
  convolution_param {
    num_output: 48
    pad: 2
    kernel_size: 5
    weight_filler {
      type: "xavier"
      std: 0.03
    }
    bias_filler {
      type: "constant"
      value: 0.2
    }
  }
}
layer {
  name: "inception_4a/relu_5x5"
  type: "ReLU"
  bottom: "inception_4a/5x5"
  top: "inception_4a/5x5"
}
layer {
  name: "inception_4a/pool"
  type: "Pooling"
  bottom: "pool3/3x3_s2"
  top: "inception_4a/pool"
  pooling_param {
    pool: MAX
    kernel_size: 3
    stride: 1
    pad: 1
  }
}
layer {
  name: "inception_4a/pool_proj"
  type: "Convolution"
  bottom: "inception_4a/pool"
  top: "inception_4a/pool_proj"
  param {
    lr_mult: 1
    decay_mult: 1
  }
  param {
    lr_mult: 2
    decay_mult: 0
  }
  convolution_param {
    num_output: 64
    kernel_size: 1
    weight_filler {
      type: "xavier"
      std: 0.1
    }
    bias_filler {
      type: "constant"
      value: 0.2
    }
  }
}
layer {
  name: "inception_4a/relu_pool_proj"
  type: "ReLU"
  bottom: "inception_4a/pool_proj"
  top: "inception_4a/pool_proj"
}
layer {
  name: "inception_4a/output"
  type: "Concat"
  bottom: "inception_4a/1x1"
  bottom: "inception_4a/3x3"
  bottom: "inception_4a/5x5"
  bottom: "inception_4a/pool_proj"
  top: "inception_4a/output"
}
layer {
  name: "loss1/ave_pool"
  type: "Pooling"
  bottom: "inception_4a/output"
  top: "loss1/ave_pool"
  pooling_param {
    pool: AVE
    kernel_size: 5
    stride: 3
  }
}
layer {
  name: "loss1/conv"
  type: "Convolution"
  bottom: "loss1/ave_pool"
  top: "loss1/conv"
  param {
    lr_mult: 1
    decay_mult: 1
  }
  param {
    lr_mult: 2
    decay_mult: 0
  }
  convolution_param {
    num_output: 128
    kernel_size: 1
    weight_filler {
      type: "xavier"
      std: 0.08
    }
    bias_filler {
      type: "constant"
      value: 0.2
    }
  }
}
layer {
  name: "loss1/relu_conv"
  type: "ReLU"
  bottom: "loss1/conv"
  top: "loss1/conv"
}
layer {
  name: "loss1/fc"
  type: "InnerProduct"
  bottom: "loss1/conv"
  top: "loss1/fc"
  param {
    lr_mult: 1
    decay_mult: 1
  }
  param {
    lr_mult: 2
    decay_mult: 0
  }
  inner_product_param {
    num_output: 1024
    weight_filler {
      type: "xavier"
      std: 0.02
    }
    bias_filler {
      type: "constant"
      value: 0.2
    }
  }
}
layer {
  name: "loss1/relu_fc"
  type: "ReLU"
  bottom: "loss1/fc"
  top: "loss1/fc"
}
layer {
  name: "loss1/drop_fc"
  type: "Dropout"
  bottom: "loss1/fc"
  top: "loss1/fc"
  dropout_param {
    dropout_ratio: 0.7
  }
}
layer {
  name: "loss1/classifier_plantvillage"
  type: "InnerProduct"
  bottom: "loss1/fc"
  top: "loss1/classifier_plantvillage"
  param {
    lr_mult: 1
    decay_mult: 1
  }
  param {
    lr_mult: 2
    decay_mult: 0
  }
  inner_product_param {
    num_output: 38
    weight_filler {
      type: "xavier"
      std: 0.0009765625
    }
    bias_filler {
      type: "constant"
      value: 0
    }
  }
}
layer {
  name: "inception_4b/1x1"
  type: "Convolution"
  bottom: "inception_4a/output"
  top: "inception_4b/1x1"
  param {
    lr_mult: 1
    decay_mult: 1
  }
  param {
    lr_mult: 2
    decay_mult: 0
  }
  convolution_param {
    num_output: 160
    kernel_size: 1
    weight_filler {
      type: "xavier"
      std: 0.03
    }
    bias_filler {
      type: "constant"
      value: 0.2
    }
  }
}
layer {
  name: "inception_4b/relu_1x1"
  type: "ReLU"
  bottom: "inception_4b/1x1"
  top: "inception_4b/1x1"
}
layer {
  name: "inception_4b/3x3_reduce"
  type: "Convolution"
  bottom: "inception_4a/output"
  top: "inception_4b/3x3_reduce"
  param {
    lr_mult: 1
    decay_mult: 1
  }
  param {
    lr_mult: 2
    decay_mult: 0
  }
  convolution_param {
    num_output: 112
    kernel_size: 1
    weight_filler {
      type: "xavier"
      std: 0.09
    }
    bias_filler {
      type: "constant"
      value: 0.2
    }
  }
}
layer {
  name: "inception_4b/relu_3x3_reduce"
  type: "ReLU"
  bottom: "inception_4b/3x3_reduce"
  top: "inception_4b/3x3_reduce"
}
layer {
  name: "inception_4b/3x3"
  type: "Convolution"
  bottom: "inception_4b/3x3_reduce"
  top: "inception_4b/3x3"
  param {
    lr_mult: 1
    decay_mult: 1
  }
  param {
    lr_mult: 2
    decay_mult: 0
  }
  convolution_param {
    num_output: 224
    pad: 1
    kernel_size: 3
    weight_filler {
      type: "xavier"
      std: 0.03
    }
    bias_filler {
      type: "constant"
      value: 0.2
    }
  }
}
layer {
  name: "inception_4b/relu_3x3"
  type: "ReLU"
  bottom: "inception_4b/3x3"
  top: "inception_4b/3x3"
}
layer {
  name: "inception_4b/5x5_reduce"
  type: "Convolution"
  bottom: "inception_4a/output"
  top: "inception_4b/5x5_reduce"
  param {
    lr_mult: 1
    decay_mult: 1
  }
  param {
    lr_mult: 2
    decay_mult: 0
  }
  convolution_param {
    num_output: 24
    kernel_size: 1
    weight_filler {
      type: "xavier"
      std: 0.2
    }
    bias_filler {
      type: "constant"
      value: 0.2
    }
  }
}
layer {
  name: "inception_4b/relu_5x5_reduce"
  type: "ReLU"
  bottom: "inception_4b/5x5_reduce"
  top: "inception_4b/5x5_reduce"
}
layer {
  name: "inception_4b/5x5"
  type: "Convolution"
  bottom: "inception_4b/5x5_reduce"
  top: "inception_4b/5x5"
  param {
    lr_mult: 1
    decay_mult: 1
  }
  param {
    lr_mult: 2
    decay_mult: 0
  }
  convolution_param {
    num_output: 64
    pad: 2
    kernel_size: 5
    weight_filler {
      type: "xavier"
      std: 0.03
    }
    bias_filler {
      type: "constant"
      value: 0.2
    }
  }
}
layer {
  name: "inception_4b/relu_5x5"
  type: "ReLU"
  bottom: "inception_4b/5x5"
  top: "inception_4b/5x5"
}
layer {
  name: "inception_4b/pool"
  type: "Pooling"
  bottom: "inception_4a/output"
  top: "inception_4b/pool"
  pooling_param {
    pool: MAX
    kernel_size: 3
    stride: 1
    pad: 1
  }
}
layer {
  name: "inception_4b/pool_proj"
  type: "Convolution"
  bottom: "inception_4b/pool"
  top: "inception_4b/pool_proj"
  param {
    lr_mult: 1
    decay_mult: 1
  }
  param {
    lr_mult: 2
    decay_mult: 0
  }
  convolution_param {
    num_output: 64
    kernel_size: 1
    weight_filler {
      type: "xavier"
      std: 0.1
    }
    bias_filler {
      type: "constant"
      value: 0.2
    }
  }
}
layer {
  name: "inception_4b/relu_pool_proj"
  type: "ReLU"
  bottom: "inception_4b/pool_proj"
  top: "inception_4b/pool_proj"
}
layer {
  name: "inception_4b/output"
  type: "Concat"
  bottom: "inception_4b/1x1"
  bottom: "inception_4b/3x3"
  bottom: "inception_4b/5x5"
  bottom: "inception_4b/pool_proj"
  top: "inception_4b/output"
}
layer {
  name: "inception_4c/1x1"
  type: "Convolution"
  bottom: "inception_4b/output"
  top: "inception_4c/1x1"
  param {
    lr_mult: 1
    decay_mult: 1
  }
  param {
    lr_mult: 2
    decay_mult: 0
  }
  convolution_param {
    num_output: 128
    kernel_size: 1
    weight_filler {
      type: "xavier"
      std: 0.03
    }
    bias_filler {
      type: "constant"
      value: 0.2
    }
  }
}
layer {
  name: "inception_4c/relu_1x1"
  type: "ReLU"
  bottom: "inception_4c/1x1"
  top: "inception_4c/1x1"
}
layer {
  name: "inception_4c/3x3_reduce"
  type: "Convolution"
  bottom: "inception_4b/output"
  top: "inception_4c/3x3_reduce"
  param {
    lr_mult: 1
    decay_mult: 1
  }
  param {
    lr_mult: 2
    decay_mult: 0
  }
  convolution_param {
    num_output: 128
    kernel_size: 1
    weight_filler {
      type: "xavier"
      std: 0.09
    }
    bias_filler {
      type: "constant"
      value: 0.2
    }
  }
}
layer {
  name: "inception_4c/relu_3x3_reduce"
  type: "ReLU"
  bottom: "inception_4c/3x3_reduce"
  top: "inception_4c/3x3_reduce"
}
layer {
  name: "inception_4c/3x3"
  type: "Convolution"
  bottom: "inception_4c/3x3_reduce"
  top: "inception_4c/3x3"
  param {
    lr_mult: 1
    decay_mult: 1
  }
  param {
    lr_mult: 2
    decay_mult: 0
  }
  convolution_param {
    num_output: 256
    pad: 1
    kernel_size: 3
    weight_filler {
      type: "xavier"
      std: 0.03
    }
    bias_filler {
      type: "constant"
      value: 0.2
    }
  }
}
layer {
  name: "inception_4c/relu_3x3"
  type: "ReLU"
  bottom: "inception_4c/3x3"
  top: "inception_4c/3x3"
}
layer {
  name: "inception_4c/5x5_reduce"
  type: "Convolution"
  bottom: "inception_4b/output"
  top: "inception_4c/5x5_reduce"
  param {
    lr_mult: 1
    decay_mult: 1
  }
  param {
    lr_mult: 2
    decay_mult: 0
  }
  convolution_param {
    num_output: 24
    kernel_size: 1
    weight_filler {
      type: "xavier"
      std: 0.2
    }
    bias_filler {
      type: "constant"
      value: 0.2
    }
  }
}
layer {
  name: "inception_4c/relu_5x5_reduce"
  type: "ReLU"
  bottom: "inception_4c/5x5_reduce"
  top: "inception_4c/5x5_reduce"
}
layer {
  name: "inception_4c/5x5"
  type: "Convolution"
  bottom: "inception_4c/5x5_reduce"
  top: "inception_4c/5x5"
  param {
    lr_mult: 1
    decay_mult: 1
  }
  param {
    lr_mult: 2
    decay_mult: 0
  }
  convolution_param {
    num_output: 64
    pad: 2
    kernel_size: 5
    weight_filler {
      type: "xavier"
      std: 0.03
    }
    bias_filler {
      type: "constant"
      value: 0.2
    }
  }
}
layer {
  name: "inception_4c/relu_5x5"
  type: "ReLU"
  bottom: "inception_4c/5x5"
  top: "inception_4c/5x5"
}
layer {
  name: "inception_4c/pool"
  type: "Pooling"
  bottom: "inception_4b/output"
  top: "inception_4c/pool"
  pooling_param {
    pool: MAX
    kernel_size: 3
    stride: 1
    pad: 1
  }
}
layer {
  name: "inception_4c/pool_proj"
  type: "Convolution"
  bottom: "inception_4c/pool"
  top: "inception_4c/pool_proj"
  param {
    lr_mult: 1
    decay_mult: 1
  }
  param {
    lr_mult: 2
    decay_mult: 0
  }
  convolution_param {
    num_output: 64
    kernel_size: 1
    weight_filler {
      type: "xavier"
      std: 0.1
    }
    bias_filler {
      type: "constant"
      value: 0.2
    }
  }
}
layer {
  name: "inception_4c/relu_pool_proj"
  type: "ReLU"
  bottom: "inception_4c/pool_proj"
  top: "inception_4c/pool_proj"
}
layer {
  name: "inception_4c/output"
  type: "Concat"
  bottom: "inception_4c/1x1"
  bottom: "inception_4c/3x3"
  bottom: "inception_4c/5x5"
  bottom: "inception_4c/pool_proj"
  top: "inception_4c/output"
}
layer {
  name: "inception_4d/1x1"
  type: "Convolution"
  bottom: "inception_4c/output"
  top: "inception_4d/1x1"
  param {
    lr_mult: 1
    decay_mult: 1
  }
  param {
    lr_mult: 2
    decay_mult: 0
  }
  convolution_param {
    num_output: 112
    kernel_size: 1
    weight_filler {
      type: "xavier"
      std: 0.03
    }
    bias_filler {
      type: "constant"
      value: 0.2
    }
  }
}
layer {
  name: "inception_4d/relu_1x1"
  type: "ReLU"
  bottom: "inception_4d/1x1"
  top: "inception_4d/1x1"
}
layer {
  name: "inception_4d/3x3_reduce"
  type: "Convolution"
  bottom: "inception_4c/output"
  top: "inception_4d/3x3_reduce"
  param {
    lr_mult: 1
    decay_mult: 1
  }
  param {
    lr_mult: 2
    decay_mult: 0
  }
  convolution_param {
    num_output: 144
    kernel_size: 1
    weight_filler {
      type: "xavier"
      std: 0.09
    }
    bias_filler {
      type: "constant"
      value: 0.2
    }
  }
}
layer {
  name: "inception_4d/relu_3x3_reduce"
  type: "ReLU"
  bottom: "inception_4d/3x3_reduce"
  top: "inception_4d/3x3_reduce"
}
layer {
  name: "inception_4d/3x3"
  type: "Convolution"
  bottom: "inception_4d/3x3_reduce"
  top: "inception_4d/3x3"
  param {
    lr_mult: 1
    decay_mult: 1
  }
  param {
    lr_mult: 2
    decay_mult: 0
  }
  convolution_param {
    num_output: 288
    pad: 1
    kernel_size: 3
    weight_filler {
      type: "xavier"
      std: 0.03
    }
    bias_filler {
      type: "constant"
      value: 0.2
    }
  }
}
layer {
  name: "inception_4d/relu_3x3"
  type: "ReLU"
  bottom: "inception_4d/3x3"
  top: "inception_4d/3x3"
}
layer {
  name: "inception_4d/5x5_reduce"
  type: "Convolution"
  bottom: "inception_4c/output"
  top: "inception_4d/5x5_reduce"
  param {
    lr_mult: 1
    decay_mult: 1
  }
  param {
    lr_mult: 2
    decay_mult: 0
  }
  convolution_param {
    num_output: 32
    kernel_size: 1
    weight_filler {
      type: "xavier"
      std: 0.2
    }
    bias_filler {
      type: "constant"
      value: 0.2
    }
  }
}
layer {
  name: "inception_4d/relu_5x5_reduce"
  type: "ReLU"
  bottom: "inception_4d/5x5_reduce"
  top: "inception_4d/5x5_reduce"
}
layer {
  name: "inception_4d/5x5"
  type: "Convolution"
  bottom: "inception_4d/5x5_reduce"
  top: "inception_4d/5x5"
  param {
    lr_mult: 1
    decay_mult: 1
  }
  param {
    lr_mult: 2
    decay_mult: 0
  }
  convolution_param {
    num_output: 64
    pad: 2
    kernel_size: 5
    weight_filler {
      type: "xavier"
      std: 0.03
    }
    bias_filler {
      type: "constant"
      value: 0.2
    }
  }
}
layer {
  name: "inception_4d/relu_5x5"
  type: "ReLU"
  bottom: "inception_4d/5x5"
  top: "inception_4d/5x5"
}
layer {
  name: "inception_4d/pool"
  type: "Pooling"
  bottom: "inception_4c/output"
  top: "inception_4d/pool"
  pooling_param {
    pool: MAX
    kernel_size: 3
    stride: 1
    pad: 1
  }
}
layer {
  name: "inception_4d/pool_proj"
  type: "Convolution"
  bottom: "inception_4d/pool"
  top: "inception_4d/pool_proj"
  param {
    lr_mult: 1
    decay_mult: 1
  }
  param {
    lr_mult: 2
    decay_mult: 0
  }
  convolution_param {
    num_output: 64
    kernel_size: 1
    weight_filler {
      type: "xavier"
      std: 0.1
    }
    bias_filler {
      type: "constant"
      value: 0.2
    }
  }
}
layer {
  name: "inception_4d/relu_pool_proj"
  type: "ReLU"
  bottom: "inception_4d/pool_proj"
  top: "inception_4d/pool_proj"
}
layer {
  name: "inception_4d/output"
  type: "Concat"
  bottom: "inception_4d/1x1"
  bottom: "inception_4d/3x3"
  bottom: "inception_4d/5x5"
  bottom: "inception_4d/pool_proj"
  top: "inception_4d/output"
}
layer {
  name: "loss2/ave_pool"
  type: "Pooling"
  bottom: "inception_4d/output"
  top: "loss2/ave_pool"
  pooling_param {
    pool: AVE
    kernel_size: 5
    stride: 3
  }
}
layer {
  name: "loss2/conv"
  type: "Convolution"
  bottom: "loss2/ave_pool"
  top: "loss2/conv"
  param {
    lr_mult: 1
    decay_mult: 1
  }
  param {
    lr_mult: 2
    decay_mult: 0
  }
  convolution_param {
    num_output: 128
    kernel_size: 1
    weight_filler {
      type: "xavier"
      std: 0.08
    }
    bias_filler {
      type: "constant"
      value: 0.2
    }
  }
}
layer {
  name: "loss2/relu_conv"
  type: "ReLU"
  bottom: "loss2/conv"
  top: "loss2/conv"
}
layer {
  name: "loss2/fc"
  type: "InnerProduct"
  bottom: "loss2/conv"
  top: "loss2/fc"
  param {
    lr_mult: 1
    decay_mult: 1
  }
  param {
    lr_mult: 2
    decay_mult: 0
  }
  inner_product_param {
    num_output: 1024
    weight_filler {
      type: "xavier"
      std: 0.02
    }
    bias_filler {
      type: "constant"
      value: 0.2
    }
  }
}
layer {
  name: "loss2/relu_fc"
  type: "ReLU"
  bottom: "loss2/fc"
  top: "loss2/fc"
}
layer {
  name: "loss2/drop_fc"
  type: "Dropout"
  bottom: "loss2/fc"
  top: "loss2/fc"
  dropout_param {
    dropout_ratio: 0.7
  }
}
layer {
  name: "loss2/classifier_plantvillage"
  type: "InnerProduct"
  bottom: "loss2/fc"
  top: "loss2/classifier_plantvillage"
  param {
    lr_mult: 1
    decay_mult: 1
  }
  param {
    lr_mult: 2
    decay_mult: 0
  }
  inner_product_param {
    num_output: 38
    weight_filler {
      type: "xavier"
      std: 0.0009765625
    }
    bias_filler {
      type: "constant"
      value: 0
    }
  }
}
layer {
  name: "inception_4e/1x1"
  type: "Convolution"
  bottom: "inception_4d/output"
  top: "inception_4e/1x1"
  param {
    lr_mult: 1
    decay_mult: 1
  }
  param {
    lr_mult: 2
    decay_mult: 0
  }
  convolution_param {
    num_output: 256
    kernel_size: 1
    weight_filler {
      type: "xavier"
      std: 0.03
    }
    bias_filler {
      type: "constant"
      value: 0.2
    }
  }
}
layer {
  name: "inception_4e/relu_1x1"
  type: "ReLU"
  bottom: "inception_4e/1x1"
  top: "inception_4e/1x1"
}
layer {
  name: "inception_4e/3x3_reduce"
  type: "Convolution"
  bottom: "inception_4d/output"
  top: "inception_4e/3x3_reduce"
  param {
    lr_mult: 1
    decay_mult: 1
  }
  param {
    lr_mult: 2
    decay_mult: 0
  }
  convolution_param {
    num_output: 160
    kernel_size: 1
    weight_filler {
      type: "xavier"
      std: 0.09
    }
    bias_filler {
      type: "constant"
      value: 0.2
    }
  }
}
layer {
  name: "inception_4e/relu_3x3_reduce"
  type: "ReLU"
  bottom: "inception_4e/3x3_reduce"
  top: "inception_4e/3x3_reduce"
}
layer {
  name: "inception_4e/3x3"
  type: "Convolution"
  bottom: "inception_4e/3x3_reduce"
  top: "inception_4e/3x3"
  param {
    lr_mult: 1
    decay_mult: 1
  }
  param {
    lr_mult: 2
    decay_mult: 0
  }
  convolution_param {
    num_output: 320
    pad: 1
    kernel_size: 3
    weight_filler {
      type: "xavier"
      std: 0.03
    }
    bias_filler {
      type: "constant"
      value: 0.2
    }
  }
}
layer {
  name: "inception_4e/relu_3x3"
  type: "ReLU"
  bottom: "inception_4e/3x3"
  top: "inception_4e/3x3"
}
layer {
  name: "inception_4e/5x5_reduce"
  type: "Convolution"
  bottom: "inception_4d/output"
  top: "inception_4e/5x5_reduce"
  param {
    lr_mult: 1
    decay_mult: 1
  }
  param {
    lr_mult: 2
    decay_mult: 0
  }
  convolution_param {
    num_output: 32
    kernel_size: 1
    weight_filler {
      type: "xavier"
      std: 0.2
    }
    bias_filler {
      type: "constant"
      value: 0.2
    }
  }
}
layer {
  name: "inception_4e/relu_5x5_reduce"
  type: "ReLU"
  bottom: "inception_4e/5x5_reduce"
  top: "inception_4e/5x5_reduce"
}
layer {
  name: "inception_4e/5x5"
  type: "Convolution"
  bottom: "inception_4e/5x5_reduce"
  top: "inception_4e/
I0403 15:44:10.288324  3421 layer_factory.hpp:77] Creating layer data
I0403 15:44:10.288954  3421 net.cpp:91] Creating Layer data
I0403 15:44:10.288987  3421 net.cpp:399] data -> data
I0403 15:44:10.289041  3421 net.cpp:399] data -> label
I0403 15:44:10.289077  3421 data_transformer.cpp:25] Loading mean file from: /home/mohanty/data/final_dataset/lmdb/grayscale-50-50/mean.binaryproto
I0403 15:44:10.292224  3424 db_lmdb.cpp:38] Opened lmdb /home/mohanty/data/final_dataset/lmdb/grayscale-50-50/test_db
I0403 15:44:10.302736  3421 data_layer.cpp:41] output data size: 24,3,224,224
I0403 15:44:10.329877  3421 net.cpp:141] Setting up data
I0403 15:44:10.329965  3421 net.cpp:148] Top shape: 24 3 224 224 (3612672)
I0403 15:44:10.329989  3421 net.cpp:148] Top shape: 24 (24)
I0403 15:44:10.330006  3421 net.cpp:156] Memory required for data: 14450784
I0403 15:44:10.330034  3421 layer_factory.hpp:77] Creating layer label_data_1_split
I0403 15:44:10.330061  3421 net.cpp:91] Creating Layer label_data_1_split
I0403 15:44:10.330080  3421 net.cpp:425] label_data_1_split <- label
I0403 15:44:10.330112  3421 net.cpp:399] label_data_1_split -> label_data_1_split_0
I0403 15:44:10.330142  3421 net.cpp:399] label_data_1_split -> label_data_1_split_1
I0403 15:44:10.330163  3421 net.cpp:399] label_data_1_split -> label_data_1_split_2
I0403 15:44:10.330188  3421 net.cpp:399] label_data_1_split -> label_data_1_split_3
I0403 15:44:10.330207  3421 net.cpp:399] label_data_1_split -> label_data_1_split_4
I0403 15:44:10.330229  3421 net.cpp:399] label_data_1_split -> label_data_1_split_5
I0403 15:44:10.330253  3421 net.cpp:399] label_data_1_split -> label_data_1_split_6
I0403 15:44:10.330277  3421 net.cpp:399] label_data_1_split -> label_data_1_split_7
I0403 15:44:10.330298  3421 net.cpp:399] label_data_1_split -> label_data_1_split_8
I0403 15:44:10.330318  3421 net.cpp:399] label_data_1_split -> label_data_1_split_9
I0403 15:44:10.330435  3421 net.cpp:141] Setting up label_data_1_split
I0403 15:44:10.330458  3421 net.cpp:148] Top shape: 24 (24)
I0403 15:44:10.330476  3421 net.cpp:148] Top shape: 24 (24)
I0403 15:44:10.330492  3421 net.cpp:148] Top shape: 24 (24)
I0403 15:44:10.330508  3421 net.cpp:148] Top shape: 24 (24)
I0403 15:44:10.330524  3421 net.cpp:148] Top shape: 24 (24)
I0403 15:44:10.330549  3421 net.cpp:148] Top shape: 24 (24)
I0403 15:44:10.330565  3421 net.cpp:148] Top shape: 24 (24)
I0403 15:44:10.330580  3421 net.cpp:148] Top shape: 24 (24)
I0403 15:44:10.330610  3421 net.cpp:148] Top shape: 24 (24)
I0403 15:44:10.330626  3421 net.cpp:148] Top shape: 24 (24)
I0403 15:44:10.330672  3421 net.cpp:156] Memory required for data: 14451744
I0403 15:44:10.330687  3421 layer_factory.hpp:77] Creating layer conv1/7x7_s2
I0403 15:44:10.330720  3421 net.cpp:91] Creating Layer conv1/7x7_s2
I0403 15:44:10.330739  3421 net.cpp:425] conv1/7x7_s2 <- data
I0403 15:44:10.330760  3421 net.cpp:399] conv1/7x7_s2 -> conv1/7x7_s2
I0403 15:44:10.474095  3421 net.cpp:141] Setting up conv1/7x7_s2
I0403 15:44:10.474187  3421 net.cpp:148] Top shape: 24 64 112 112 (19267584)
I0403 15:44:10.474267  3421 net.cpp:156] Memory required for data: 91522080
I0403 15:44:10.474308  3421 layer_factory.hpp:77] Creating layer conv1/relu_7x7
I0403 15:44:10.474339  3421 net.cpp:91] Creating Layer conv1/relu_7x7
I0403 15:44:10.474361  3421 net.cpp:425] conv1/relu_7x7 <- conv1/7x7_s2
I0403 15:44:10.474381  3421 net.cpp:386] conv1/relu_7x7 -> conv1/7x7_s2 (in-place)
I0403 15:44:10.474673  3421 net.cpp:141] Setting up conv1/relu_7x7
I0403 15:44:10.474701  3421 net.cpp:148] Top shape: 24 64 112 112 (19267584)
I0403 15:44:10.474717  3421 net.cpp:156] Memory required for data: 168592416
I0403 15:44:10.474733  3421 layer_factory.hpp:77] Creating layer pool1/3x3_s2
I0403 15:44:10.474761  3421 net.cpp:91] Creating Layer pool1/3x3_s2
I0403 15:44:10.474781  3421 net.cpp:425] pool1/3x3_s2 <- conv1/7x7_s2
I0403 15:44:10.474800  3421 net.cpp:399] pool1/3x3_s2 -> pool1/3x3_s2
I0403 15:44:10.474881  3421 net.cpp:141] Setting up pool1/3x3_s2
I0403 15:44:10.474906  3421 net.cpp:148] Top shape: 24 64 56 56 (4816896)
I0403 15:44:10.474921  3421 net.cpp:156] Memory required for data: 187860000
I0403 15:44:10.474937  3421 layer_factory.hpp:77] Creating layer pool1/norm1
I0403 15:44:10.474964  3421 net.cpp:91] Creating Layer pool1/norm1
I0403 15:44:10.474983  3421 net.cpp:425] pool1/norm1 <- pool1/3x3_s2
I0403 15:44:10.475003  3421 net.cpp:399] pool1/norm1 -> pool1/norm1
I0403 15:44:10.475319  3421 net.cpp:141] Setting up pool1/norm1
I0403 15:44:10.475348  3421 net.cpp:148] Top shape: 24 64 56 56 (4816896)
I0403 15:44:10.475364  3421 net.cpp:156] Memory required for data: 207127584
I0403 15:44:10.475380  3421 layer_factory.hpp:77] Creating layer conv2/3x3_reduce
I0403 15:44:10.475409  3421 net.cpp:91] Creating Layer conv2/3x3_reduce
I0403 15:44:10.475427  3421 net.cpp:425] conv2/3x3_reduce <- pool1/norm1
I0403 15:44:10.475453  3421 net.cpp:399] conv2/3x3_reduce -> conv2/3x3_reduce
I0403 15:44:10.476943  3421 net.cpp:141] Setting up conv2/3x3_reduce
I0403 15:44:10.476979  3421 net.cpp:148] Top shape: 24 64 56 56 (4816896)
I0403 15:44:10.476999  3421 net.cpp:156] Memory required for data: 226395168
I0403 15:44:10.477021  3421 layer_factory.hpp:77] Creating layer conv2/relu_3x3_reduce
I0403 15:44:10.477042  3421 net.cpp:91] Creating Layer conv2/relu_3x3_reduce
I0403 15:44:10.477059  3421 net.cpp:425] conv2/relu_3x3_reduce <- conv2/3x3_reduce
I0403 15:44:10.477080  3421 net.cpp:386] conv2/relu_3x3_reduce -> conv2/3x3_reduce (in-place)
I0403 15:44:10.477365  3421 net.cpp:141] Setting up conv2/relu_3x3_reduce
I0403 15:44:10.477398  3421 net.cpp:148] Top shape: 24 64 56 56 (4816896)
I0403 15:44:10.477416  3421 net.cpp:156] Memory required for data: 245662752
I0403 15:44:10.477434  3421 layer_factory.hpp:77] Creating layer conv2/3x3
I0403 15:44:10.477459  3421 net.cpp:91] Creating Layer conv2/3x3
I0403 15:44:10.477480  3421 net.cpp:425] conv2/3x3 <- conv2/3x3_reduce
I0403 15:44:10.477504  3421 net.cpp:399] conv2/3x3 -> conv2/3x3
I0403 15:44:10.480003  3421 net.cpp:141] Setting up conv2/3x3
I0403 15:44:10.480038  3421 net.cpp:148] Top shape: 24 192 56 56 (14450688)
I0403 15:44:10.480058  3421 net.cpp:156] Memory required for data: 303465504
I0403 15:44:10.480082  3421 layer_factory.hpp:77] Creating layer conv2/relu_3x3
I0403 15:44:10.480103  3421 net.cpp:91] Creating Layer conv2/relu_3x3
I0403 15:44:10.480121  3421 net.cpp:425] conv2/relu_3x3 <- conv2/3x3
I0403 15:44:10.480144  3421 net.cpp:386] conv2/relu_3x3 -> conv2/3x3 (in-place)
I0403 15:44:10.480334  3421 net.cpp:141] Setting up conv2/relu_3x3
I0403 15:44:10.480362  3421 net.cpp:148] Top shape: 24 192 56 56 (14450688)
I0403 15:44:10.480412  3421 net.cpp:156] Memory required for data: 361268256
I0403 15:44:10.480428  3421 layer_factory.hpp:77] Creating layer conv2/norm2
I0403 15:44:10.480450  3421 net.cpp:91] Creating Layer conv2/norm2
I0403 15:44:10.480468  3421 net.cpp:425] conv2/norm2 <- conv2/3x3
I0403 15:44:10.480489  3421 net.cpp:399] conv2/norm2 -> conv2/norm2
I0403 15:44:10.480808  3421 net.cpp:141] Setting up conv2/norm2
I0403 15:44:10.480839  3421 net.cpp:148] Top shape: 24 192 56 56 (14450688)
I0403 15:44:10.480855  3421 net.cpp:156] Memory required for data: 419071008
I0403 15:44:10.480871  3421 layer_factory.hpp:77] Creating layer pool2/3x3_s2
I0403 15:44:10.480890  3421 net.cpp:91] Creating Layer pool2/3x3_s2
I0403 15:44:10.480907  3421 net.cpp:425] pool2/3x3_s2 <- conv2/norm2
I0403 15:44:10.480928  3421 net.cpp:399] pool2/3x3_s2 -> pool2/3x3_s2
I0403 15:44:10.480983  3421 net.cpp:141] Setting up pool2/3x3_s2
I0403 15:44:10.481008  3421 net.cpp:148] Top shape: 24 192 28 28 (3612672)
I0403 15:44:10.481024  3421 net.cpp:156] Memory required for data: 433521696
I0403 15:44:10.481040  3421 layer_factory.hpp:77] Creating layer pool2/3x3_s2_pool2/3x3_s2_0_split
I0403 15:44:10.481061  3421 net.cpp:91] Creating Layer pool2/3x3_s2_pool2/3x3_s2_0_split
I0403 15:44:10.481077  3421 net.cpp:425] pool2/3x3_s2_pool2/3x3_s2_0_split <- pool2/3x3_s2
I0403 15:44:10.481096  3421 net.cpp:399] pool2/3x3_s2_pool2/3x3_s2_0_split -> pool2/3x3_s2_pool2/3x3_s2_0_split_0
I0403 15:44:10.481117  3421 net.cpp:399] pool2/3x3_s2_pool2/3x3_s2_0_split -> pool2/3x3_s2_pool2/3x3_s2_0_split_1
I0403 15:44:10.481137  3421 net.cpp:399] pool2/3x3_s2_pool2/3x3_s2_0_split -> pool2/3x3_s2_pool2/3x3_s2_0_split_2
I0403 15:44:10.481160  3421 net.cpp:399] pool2/3x3_s2_pool2/3x3_s2_0_split -> pool2/3x3_s2_pool2/3x3_s2_0_split_3
I0403 15:44:10.481290  3421 net.cpp:141] Setting up pool2/3x3_s2_pool2/3x3_s2_0_split
I0403 15:44:10.481317  3421 net.cpp:148] Top shape: 24 192 28 28 (3612672)
I0403 15:44:10.481334  3421 net.cpp:148] Top shape: 24 192 28 28 (3612672)
I0403 15:44:10.481351  3421 net.cpp:148] Top shape: 24 192 28 28 (3612672)
I0403 15:44:10.481369  3421 net.cpp:148] Top shape: 24 192 28 28 (3612672)
I0403 15:44:10.481384  3421 net.cpp:156] Memory required for data: 491324448
I0403 15:44:10.481398  3421 layer_factory.hpp:77] Creating layer inception_3a/1x1
I0403 15:44:10.481422  3421 net.cpp:91] Creating Layer inception_3a/1x1
I0403 15:44:10.481441  3421 net.cpp:425] inception_3a/1x1 <- pool2/3x3_s2_pool2/3x3_s2_0_split_0
I0403 15:44:10.481463  3421 net.cpp:399] inception_3a/1x1 -> inception_3a/1x1
I0403 15:44:10.483116  3421 net.cpp:141] Setting up inception_3a/1x1
I0403 15:44:10.483147  3421 net.cpp:148] Top shape: 24 64 28 28 (1204224)
I0403 15:44:10.483165  3421 net.cpp:156] Memory required for data: 496141344
I0403 15:44:10.483186  3421 layer_factory.hpp:77] Creating layer inception_3a/relu_1x1
I0403 15:44:10.483206  3421 net.cpp:91] Creating Layer inception_3a/relu_1x1
I0403 15:44:10.483222  3421 net.cpp:425] inception_3a/relu_1x1 <- inception_3a/1x1
I0403 15:44:10.483247  3421 net.cpp:386] inception_3a/relu_1x1 -> inception_3a/1x1 (in-place)
I0403 15:44:10.483438  3421 net.cpp:141] Setting up inception_3a/relu_1x1
I0403 15:44:10.483464  3421 net.cpp:148] Top shape: 24 64 28 28 (1204224)
I0403 15:44:10.483481  3421 net.cpp:156] Memory required for data: 500958240
I0403 15:44:10.483497  3421 layer_factory.hpp:77] Creating layer inception_3a/3x3_reduce
I0403 15:44:10.483521  3421 net.cpp:91] Creating Layer inception_3a/3x3_reduce
I0403 15:44:10.483541  3421 net.cpp:425] inception_3a/3x3_reduce <- pool2/3x3_s2_pool2/3x3_s2_0_split_1
I0403 15:44:10.483564  3421 net.cpp:399] inception_3a/3x3_reduce -> inception_3a/3x3_reduce
I0403 15:44:10.485343  3421 net.cpp:141] Setting up inception_3a/3x3_reduce
I0403 15:44:10.485378  3421 net.cpp:148] Top shape: 24 96 28 28 (1806336)
I0403 15:44:10.485397  3421 net.cpp:156] Memory required for data: 508183584
I0403 15:44:10.485421  3421 layer_factory.hpp:77] Creating layer inception_3a/relu_3x3_reduce
I0403 15:44:10.485461  3421 net.cpp:91] Creating Layer inception_3a/relu_3x3_reduce
I0403 15:44:10.485481  3421 net.cpp:425] inception_3a/relu_3x3_reduce <- inception_3a/3x3_reduce
I0403 15:44:10.485501  3421 net.cpp:386] inception_3a/relu_3x3_reduce -> inception_3a/3x3_reduce (in-place)
I0403 15:44:10.485689  3421 net.cpp:141] Setting up inception_3a/relu_3x3_reduce
I0403 15:44:10.485718  3421 net.cpp:148] Top shape: 24 96 28 28 (1806336)
I0403 15:44:10.485734  3421 net.cpp:156] Memory required for data: 515408928
I0403 15:44:10.485750  3421 layer_factory.hpp:77] Creating layer inception_3a/3x3
I0403 15:44:10.485775  3421 net.cpp:91] Creating Layer inception_3a/3x3
I0403 15:44:10.485793  3421 net.cpp:425] inception_3a/3x3 <- inception_3a/3x3_reduce
I0403 15:44:10.485812  3421 net.cpp:399] inception_3a/3x3 -> inception_3a/3x3
I0403 15:44:10.487579  3421 net.cpp:141] Setting up inception_3a/3x3
I0403 15:44:10.487608  3421 net.cpp:148] Top shape: 24 128 28 28 (2408448)
I0403 15:44:10.487624  3421 net.cpp:156] Memory required for data: 525042720
I0403 15:44:10.487643  3421 layer_factory.hpp:77] Creating layer inception_3a/relu_3x3
I0403 15:44:10.487660  3421 net.cpp:91] Creating Layer inception_3a/relu_3x3
I0403 15:44:10.487675  3421 net.cpp:425] inception_3a/relu_3x3 <- inception_3a/3x3
I0403 15:44:10.487694  3421 net.cpp:386] inception_3a/relu_3x3 -> inception_3a/3x3 (in-place)
I0403 15:44:10.487987  3421 net.cpp:141] Setting up inception_3a/relu_3x3
I0403 15:44:10.488013  3421 net.cpp:148] Top shape: 24 128 28 28 (2408448)
I0403 15:44:10.488029  3421 net.cpp:156] Memory required for data: 534676512
I0403 15:44:10.488044  3421 layer_factory.hpp:77] Creating layer inception_3a/5x5_reduce
I0403 15:44:10.488066  3421 net.cpp:91] Creating Layer inception_3a/5x5_reduce
I0403 15:44:10.488083  3421 net.cpp:425] inception_3a/5x5_reduce <- pool2/3x3_s2_pool2/3x3_s2_0_split_2
I0403 15:44:10.488103  3421 net.cpp:399] inception_3a/5x5_reduce -> inception_3a/5x5_reduce
I0403 15:44:10.489056  3421 net.cpp:141] Setting up inception_3a/5x5_reduce
I0403 15:44:10.489084  3421 net.cpp:148] Top shape: 24 16 28 28 (301056)
I0403 15:44:10.489099  3421 net.cpp:156] Memory required for data: 535880736
I0403 15:44:10.489116  3421 layer_factory.hpp:77] Creating layer inception_3a/relu_5x5_reduce
I0403 15:44:10.489136  3421 net.cpp:91] Creating Layer inception_3a/relu_5x5_reduce
I0403 15:44:10.489152  3421 net.cpp:425] inception_3a/relu_5x5_reduce <- inception_3a/5x5_reduce
I0403 15:44:10.489171  3421 net.cpp:386] inception_3a/relu_5x5_reduce -> inception_3a/5x5_reduce (in-place)
I0403 15:44:10.489470  3421 net.cpp:141] Setting up inception_3a/relu_5x5_reduce
I0403 15:44:10.489496  3421 net.cpp:148] Top shape: 24 16 28 28 (301056)
I0403 15:44:10.489511  3421 net.cpp:156] Memory required for data: 537084960
I0403 15:44:10.489526  3421 layer_factory.hpp:77] Creating layer inception_3a/5x5
I0403 15:44:10.489547  3421 net.cpp:91] Creating Layer inception_3a/5x5
I0403 15:44:10.489567  3421 net.cpp:425] inception_3a/5x5 <- inception_3a/5x5_reduce
I0403 15:44:10.489585  3421 net.cpp:399] inception_3a/5x5 -> inception_3a/5x5
I0403 15:44:10.490588  3421 net.cpp:141] Setting up inception_3a/5x5
I0403 15:44:10.490615  3421 net.cpp:148] Top shape: 24 32 28 28 (602112)
I0403 15:44:10.490631  3421 net.cpp:156] Memory required for data: 539493408
I0403 15:44:10.490649  3421 layer_factory.hpp:77] Creating layer inception_3a/relu_5x5
I0403 15:44:10.490667  3421 net.cpp:91] Creating Layer inception_3a/relu_5x5
I0403 15:44:10.490684  3421 net.cpp:425] inception_3a/relu_5x5 <- inception_3a/5x5
I0403 15:44:10.490703  3421 net.cpp:386] inception_3a/relu_5x5 -> inception_3a/5x5 (in-place)
I0403 15:44:10.490875  3421 net.cpp:141] Setting up inception_3a/relu_5x5
I0403 15:44:10.490898  3421 net.cpp:148] Top shape: 24 32 28 28 (602112)
I0403 15:44:10.490913  3421 net.cpp:156] Memory required for data: 541901856
I0403 15:44:10.490927  3421 layer_factory.hpp:77] Creating layer inception_3a/pool
I0403 15:44:10.490947  3421 net.cpp:91] Creating Layer inception_3a/pool
I0403 15:44:10.490978  3421 net.cpp:425] inception_3a/pool <- pool2/3x3_s2_pool2/3x3_s2_0_split_3
I0403 15:44:10.490996  3421 net.cpp:399] inception_3a/pool -> inception_3a/pool
I0403 15:44:10.491055  3421 net.cpp:141] Setting up inception_3a/pool
I0403 15:44:10.491077  3421 net.cpp:148] Top shape: 24 192 28 28 (3612672)
I0403 15:44:10.491092  3421 net.cpp:156] Memory required for data: 556352544
I0403 15:44:10.491107  3421 layer_factory.hpp:77] Creating layer inception_3a/pool_proj
I0403 15:44:10.491129  3421 net.cpp:91] Creating Layer inception_3a/pool_proj
I0403 15:44:10.491147  3421 net.cpp:425] inception_3a/pool_proj <- inception_3a/pool
I0403 15:44:10.491168  3421 net.cpp:399] inception_3a/pool_proj -> inception_3a/pool_proj
I0403 15:44:10.492117  3421 net.cpp:141] Setting up inception_3a/pool_proj
I0403 15:44:10.492149  3421 net.cpp:148] Top shape: 24 32 28 28 (602112)
I0403 15:44:10.492166  3421 net.cpp:156] Memory required for data: 558760992
I0403 15:44:10.492190  3421 layer_factory.hpp:77] Creating layer inception_3a/relu_pool_proj
I0403 15:44:10.492211  3421 net.cpp:91] Creating Layer inception_3a/relu_pool_proj
I0403 15:44:10.492228  3421 net.cpp:425] inception_3a/relu_pool_proj <- inception_3a/pool_proj
I0403 15:44:10.492269  3421 net.cpp:386] inception_3a/relu_pool_proj -> inception_3a/pool_proj (in-place)
I0403 15:44:10.492563  3421 net.cpp:141] Setting up inception_3a/relu_pool_proj
I0403 15:44:10.492589  3421 net.cpp:148] Top shape: 24 32 28 28 (602112)
I0403 15:44:10.492604  3421 net.cpp:156] Memory required for data: 561169440
I0403 15:44:10.492620  3421 layer_factory.hpp:77] Creating layer inception_3a/output
I0403 15:44:10.492637  3421 net.cpp:91] Creating Layer inception_3a/output
I0403 15:44:10.492652  3421 net.cpp:425] inception_3a/output <- inception_3a/1x1
I0403 15:44:10.492668  3421 net.cpp:425] inception_3a/output <- inception_3a/3x3
I0403 15:44:10.492683  3421 net.cpp:425] inception_3a/output <- inception_3a/5x5
I0403 15:44:10.492698  3421 net.cpp:425] inception_3a/output <- inception_3a/pool_proj
I0403 15:44:10.492717  3421 net.cpp:399] inception_3a/output -> inception_3a/output
I0403 15:44:10.492763  3421 net.cpp:141] Setting up inception_3a/output
I0403 15:44:10.492789  3421 net.cpp:148] Top shape: 24 256 28 28 (4816896)
I0403 15:44:10.492805  3421 net.cpp:156] Memory required for data: 580437024
I0403 15:44:10.492818  3421 layer_factory.hpp:77] Creating layer inception_3a/output_inception_3a/output_0_split
I0403 15:44:10.492836  3421 net.cpp:91] Creating Layer inception_3a/output_inception_3a/output_0_split
I0403 15:44:10.492851  3421 net.cpp:425] inception_3a/output_inception_3a/output_0_split <- inception_3a/output
I0403 15:44:10.492867  3421 net.cpp:399] inception_3a/output_inception_3a/output_0_split -> inception_3a/output_inception_3a/output_0_split_0
I0403 15:44:10.492889  3421 net.cpp:399] inception_3a/output_inception_3a/output_0_split -> inception_3a/output_inception_3a/output_0_split_1
I0403 15:44:10.492913  3421 net.cpp:399] inception_3a/output_inception_3a/output_0_split -> inception_3a/output_inception_3a/output_0_split_2
I0403 15:44:10.492933  3421 net.cpp:399] inception_3a/output_inception_3a/output_0_split -> inception_3a/output_inception_3a/output_0_split_3
I0403 15:44:10.493006  3421 net.cpp:141] Setting up inception_3a/output_inception_3a/output_0_split
I0403 15:44:10.493031  3421 net.cpp:148] Top shape: 24 256 28 28 (4816896)
I0403 15:44:10.493049  3421 net.cpp:148] Top shape: 24 256 28 28 (4816896)
I0403 15:44:10.493065  3421 net.cpp:148] Top shape: 24 256 28 28 (4816896)
I0403 15:44:10.493080  3421 net.cpp:148] Top shape: 24 256 28 28 (4816896)
I0403 15:44:10.493094  3421 net.cpp:156] Memory required for data: 657507360
I0403 15:44:10.493108  3421 layer_factory.hpp:77] Creating layer inception_3b/1x1
I0403 15:44:10.493130  3421 net.cpp:91] Creating Layer inception_3b/1x1
I0403 15:44:10.493149  3421 net.cpp:425] inception_3b/1x1 <- inception_3a/output_inception_3a/output_0_split_0
I0403 15:44:10.493170  3421 net.cpp:399] inception_3b/1x1 -> inception_3b/1x1
I0403 15:44:10.494294  3421 net.cpp:141] Setting up inception_3b/1x1
I0403 15:44:10.494335  3421 net.cpp:148] Top shape: 24 128 28 28 (2408448)
I0403 15:44:10.494352  3421 net.cpp:156] Memory required for data: 667141152
I0403 15:44:10.494371  3421 layer_factory.hpp:77] Creating layer inception_3b/relu_1x1
I0403 15:44:10.494390  3421 net.cpp:91] Creating Layer inception_3b/relu_1x1
I0403 15:44:10.494405  3421 net.cpp:425] inception_3b/relu_1x1 <- inception_3b/1x1
I0403 15:44:10.494428  3421 net.cpp:386] inception_3b/relu_1x1 -> inception_3b/1x1 (in-place)
I0403 15:44:10.494601  3421 net.cpp:141] Setting up inception_3b/relu_1x1
I0403 15:44:10.494626  3421 net.cpp:148] Top shape: 24 128 28 28 (2408448)
I0403 15:44:10.494639  3421 net.cpp:156] Memory required for data: 676774944
I0403 15:44:10.494654  3421 layer_factory.hpp:77] Creating layer inception_3b/3x3_reduce
I0403 15:44:10.494676  3421 net.cpp:91] Creating Layer inception_3b/3x3_reduce
I0403 15:44:10.494693  3421 net.cpp:425] inception_3b/3x3_reduce <- inception_3a/output_inception_3a/output_0_split_1
I0403 15:44:10.494714  3421 net.cpp:399] inception_3b/3x3_reduce -> inception_3b/3x3_reduce
I0403 15:44:10.495833  3421 net.cpp:141] Setting up inception_3b/3x3_reduce
I0403 15:44:10.495863  3421 net.cpp:148] Top shape: 24 128 28 28 (2408448)
I0403 15:44:10.495880  3421 net.cpp:156] Memory required for data: 686408736
I0403 15:44:10.495900  3421 layer_factory.hpp:77] Creating layer inception_3b/relu_3x3_reduce
I0403 15:44:10.495918  3421 net.cpp:91] Creating Layer inception_3b/relu_3x3_reduce
I0403 15:44:10.495934  3421 net.cpp:425] inception_3b/relu_3x3_reduce <- inception_3b/3x3_reduce
I0403 15:44:10.495954  3421 net.cpp:386] inception_3b/relu_3x3_reduce -> inception_3b/3x3_reduce (in-place)
I0403 15:44:10.496126  3421 net.cpp:141] Setting up inception_3b/relu_3x3_reduce
I0403 15:44:10.496152  3421 net.cpp:148] Top shape: 24 128 28 28 (2408448)
I0403 15:44:10.496176  3421 net.cpp:156] Memory required for data: 696042528
I0403 15:44:10.496191  3421 layer_factory.hpp:77] Creating layer inception_3b/3x3
I0403 15:44:10.496215  3421 net.cpp:91] Creating Layer inception_3b/3x3
I0403 15:44:10.496233  3421 net.cpp:425] inception_3b/3x3 <- inception_3b/3x3_reduce
I0403 15:44:10.496258  3421 net.cpp:399] inception_3b/3x3 -> inception_3b/3x3
I0403 15:44:10.499137  3421 net.cpp:141] Setting up inception_3b/3x3
I0403 15:44:10.499168  3421 net.cpp:148] Top shape: 24 192 28 28 (3612672)
I0403 15:44:10.499186  3421 net.cpp:156] Memory required for data: 710493216
I0403 15:44:10.499207  3421 layer_factory.hpp:77] Creating layer inception_3b/relu_3x3
I0403 15:44:10.499224  3421 net.cpp:91] Creating Layer inception_3b/relu_3x3
I0403 15:44:10.499244  3421 net.cpp:425] inception_3b/relu_3x3 <- inception_3b/3x3
I0403 15:44:10.499267  3421 net.cpp:386] inception_3b/relu_3x3 -> inception_3b/3x3 (in-place)
I0403 15:44:10.499546  3421 net.cpp:141] Setting up inception_3b/relu_3x3
I0403 15:44:10.499572  3421 net.cpp:148] Top shape: 24 192 28 28 (3612672)
I0403 15:44:10.499589  3421 net.cpp:156] Memory required for data: 724943904
I0403 15:44:10.499605  3421 layer_factory.hpp:77] Creating layer inception_3b/5x5_reduce
I0403 15:44:10.499627  3421 net.cpp:91] Creating Layer inception_3b/5x5_reduce
I0403 15:44:10.499646  3421 net.cpp:425] inception_3b/5x5_reduce <- inception_3a/output_inception_3a/output_0_split_2
I0403 15:44:10.499670  3421 net.cpp:399] inception_3b/5x5_reduce -> inception_3b/5x5_reduce
I0403 15:44:10.500663  3421 net.cpp:141] Setting up inception_3b/5x5_reduce
I0403 15:44:10.500692  3421 net.cpp:148] Top shape: 24 32 28 28 (602112)
I0403 15:44:10.500708  3421 net.cpp:156] Memory required for data: 727352352
I0403 15:44:10.500727  3421 layer_factory.hpp:77] Creating layer inception_3b/relu_5x5_reduce
I0403 15:44:10.500746  3421 net.cpp:91] Creating Layer inception_3b/relu_5x5_reduce
I0403 15:44:10.500763  3421 net.cpp:425] inception_3b/relu_5x5_reduce <- inception_3b/5x5_reduce
I0403 15:44:10.500783  3421 net.cpp:386] inception_3b/relu_5x5_reduce -> inception_3b/5x5_reduce (in-place)
I0403 15:44:10.500973  3421 net.cpp:141] Setting up inception_3b/relu_5x5_reduce
I0403 15:44:10.500999  3421 net.cpp:148] Top shape: 24 32 28 28 (602112)
I0403 15:44:10.501015  3421 net.cpp:156] Memory required for data: 729760800
I0403 15:44:10.501030  3421 layer_factory.hpp:77] Creating layer inception_3b/5x5
I0403 15:44:10.501054  3421 net.cpp:91] Creating Layer inception_3b/5x5
I0403 15:44:10.501071  3421 net.cpp:425] inception_3b/5x5 <- inception_3b/5x5_reduce
I0403 15:44:10.501093  3421 net.cpp:399] inception_3b/5x5 -> inception_3b/5x5
I0403 15:44:10.503064  3421 net.cpp:141] Setting up inception_3b/5x5
I0403 15:44:10.503096  3421 net.cpp:148] Top shape: 24 96 28 28 (1806336)
I0403 15:44:10.503115  3421 net.cpp:156] Memory required for data: 736986144
I0403 15:44:10.503134  3421 layer_factory.hpp:77] Creating layer inception_3b/relu_5x5
I0403 15:44:10.503154  3421 net.cpp:91] Creating Layer inception_3b/relu_5x5
I0403 15:44:10.503172  3421 net.cpp:425] inception_3b/relu_5x5 <- inception_3b/5x5
I0403 15:44:10.503193  3421 net.cpp:386] inception_3b/relu_5x5 -> inception_3b/5x5 (in-place)
I0403 15:44:10.503386  3421 net.cpp:141] Setting up inception_3b/relu_5x5
I0403 15:44:10.503412  3421 net.cpp:148] Top shape: 24 96 28 28 (1806336)
I0403 15:44:10.503428  3421 net.cpp:156] Memory required for data: 744211488
I0403 15:44:10.503444  3421 layer_factory.hpp:77] Creating layer inception_3b/pool
I0403 15:44:10.503463  3421 net.cpp:91] Creating Layer inception_3b/pool
I0403 15:44:10.503479  3421 net.cpp:425] inception_3b/pool <- inception_3a/output_inception_3a/output_0_split_3
I0403 15:44:10.503497  3421 net.cpp:399] inception_3b/pool -> inception_3b/pool
I0403 15:44:10.503553  3421 net.cpp:141] Setting up inception_3b/pool
I0403 15:44:10.503581  3421 net.cpp:148] Top shape: 24 256 28 28 (4816896)
I0403 15:44:10.503597  3421 net.cpp:156] Memory required for data: 763479072
I0403 15:44:10.503612  3421 layer_factory.hpp:77] Creating layer inception_3b/pool_proj
I0403 15:44:10.503634  3421 net.cpp:91] Creating Layer inception_3b/pool_proj
I0403 15:44:10.503654  3421 net.cpp:425] inception_3b/pool_proj <- inception_3b/pool
I0403 15:44:10.503672  3421 net.cpp:399] inception_3b/pool_proj -> inception_3b/pool_proj
I0403 15:44:10.504724  3421 net.cpp:141] Setting up inception_3b/pool_proj
I0403 15:44:10.504752  3421 net.cpp:148] Top shape: 24 64 28 28 (1204224)
I0403 15:44:10.504768  3421 net.cpp:156] Memory required for data: 768295968
I0403 15:44:10.504786  3421 layer_factory.hpp:77] Creating layer inception_3b/relu_pool_proj
I0403 15:44:10.504806  3421 net.cpp:91] Creating Layer inception_3b/relu_pool_proj
I0403 15:44:10.504823  3421 net.cpp:425] inception_3b/relu_pool_proj <- inception_3b/pool_proj
I0403 15:44:10.504840  3421 net.cpp:386] inception_3b/relu_pool_proj -> inception_3b/pool_proj (in-place)
I0403 15:44:10.505244  3421 net.cpp:141] Setting up inception_3b/relu_pool_proj
I0403 15:44:10.505278  3421 net.cpp:148] Top shape: 24 64 28 28 (1204224)
I0403 15:44:10.505295  3421 net.cpp:156] Memory required for data: 773112864
I0403 15:44:10.505309  3421 layer_factory.hpp:77] Creating layer inception_3b/output
I0403 15:44:10.505331  3421 net.cpp:91] Creating Layer inception_3b/output
I0403 15:44:10.505347  3421 net.cpp:425] inception_3b/output <- inception_3b/1x1
I0403 15:44:10.505363  3421 net.cpp:425] inception_3b/output <- inception_3b/3x3
I0403 15:44:10.505378  3421 net.cpp:425] inception_3b/output <- inception_3b/5x5
I0403 15:44:10.505394  3421 net.cpp:425] inception_3b/output <- inception_3b/pool_proj
I0403 15:44:10.505414  3421 net.cpp:399] inception_3b/output -> inception_3b/output
I0403 15:44:10.505460  3421 net.cpp:141] Setting up inception_3b/output
I0403 15:44:10.505483  3421 net.cpp:148] Top shape: 24 480 28 28 (9031680)
I0403 15:44:10.505497  3421 net.cpp:156] Memory required for data: 809239584
I0403 15:44:10.505512  3421 layer_factory.hpp:77] Creating layer pool3/3x3_s2
I0403 15:44:10.505529  3421 net.cpp:91] Creating Layer pool3/3x3_s2
I0403 15:44:10.505545  3421 net.cpp:425] pool3/3x3_s2 <- inception_3b/output
I0403 15:44:10.505580  3421 net.cpp:399] pool3/3x3_s2 -> pool3/3x3_s2
I0403 15:44:10.505648  3421 net.cpp:141] Setting up pool3/3x3_s2
I0403 15:44:10.505672  3421 net.cpp:148] Top shape: 24 480 14 14 (2257920)
I0403 15:44:10.505686  3421 net.cpp:156] Memory required for data: 818271264
I0403 15:44:10.505702  3421 layer_factory.hpp:77] Creating layer pool3/3x3_s2_pool3/3x3_s2_0_split
I0403 15:44:10.505720  3421 net.cpp:91] Creating Layer pool3/3x3_s2_pool3/3x3_s2_0_split
I0403 15:44:10.505736  3421 net.cpp:425] pool3/3x3_s2_pool3/3x3_s2_0_split <- pool3/3x3_s2
I0403 15:44:10.505754  3421 net.cpp:399] pool3/3x3_s2_pool3/3x3_s2_0_split -> pool3/3x3_s2_pool3/3x3_s2_0_split_0
I0403 15:44:10.505775  3421 net.cpp:399] pool3/3x3_s2_pool3/3x3_s2_0_split -> pool3/3x3_s2_pool3/3x3_s2_0_split_1
I0403 15:44:10.505796  3421 net.cpp:399] pool3/3x3_s2_pool3/3x3_s2_0_split -> pool3/3x3_s2_pool3/3x3_s2_0_split_2
I0403 15:44:10.505816  3421 net.cpp:399] pool3/3x3_s2_pool3/3x3_s2_0_split -> pool3/3x3_s2_pool3/3x3_s2_0_split_3
I0403 15:44:10.505892  3421 net.cpp:141] Setting up pool3/3x3_s2_pool3/3x3_s2_0_split
I0403 15:44:10.505914  3421 net.cpp:148] Top shape: 24 480 14 14 (2257920)
I0403 15:44:10.505930  3421 net.cpp:148] Top shape: 24 480 14 14 (2257920)
I0403 15:44:10.505945  3421 net.cpp:148] Top shape: 24 480 14 14 (2257920)
I0403 15:44:10.505960  3421 net.cpp:148] Top shape: 24 480 14 14 (2257920)
I0403 15:44:10.505975  3421 net.cpp:156] Memory required for data: 854397984
I0403 15:44:10.505990  3421 layer_factory.hpp:77] Creating layer inception_4a/1x1
I0403 15:44:10.506011  3421 net.cpp:91] Creating Layer inception_4a/1x1
I0403 15:44:10.506027  3421 net.cpp:425] inception_4a/1x1 <- pool3/3x3_s2_pool3/3x3_s2_0_split_0
I0403 15:44:10.506048  3421 net.cpp:399] inception_4a/1x1 -> inception_4a/1x1
I0403 15:44:10.507613  3421 net.cpp:141] Setting up inception_4a/1x1
I0403 15:44:10.507642  3421 net.cpp:148] Top shape: 24 192 14 14 (903168)
I0403 15:44:10.507661  3421 net.cpp:156] Memory required for data: 858010656
I0403 15:44:10.507681  3421 layer_factory.hpp:77] Creating layer inception_4a/relu_1x1
I0403 15:44:10.507701  3421 net.cpp:91] Creating Layer inception_4a/relu_1x1
I0403 15:44:10.507717  3421 net.cpp:425] inception_4a/relu_1x1 <- inception_4a/1x1
I0403 15:44:10.507735  3421 net.cpp:386] inception_4a/relu_1x1 -> inception_4a/1x1 (in-place)
I0403 15:44:10.507910  3421 net.cpp:141] Setting up inception_4a/relu_1x1
I0403 15:44:10.507936  3421 net.cpp:148] Top shape: 24 192 14 14 (903168)
I0403 15:44:10.507952  3421 net.cpp:156] Memory required for data: 861623328
I0403 15:44:10.507967  3421 layer_factory.hpp:77] Creating layer inception_4a/3x3_reduce
I0403 15:44:10.507989  3421 net.cpp:91] Creating Layer inception_4a/3x3_reduce
I0403 15:44:10.508007  3421 net.cpp:425] inception_4a/3x3_reduce <- pool3/3x3_s2_pool3/3x3_s2_0_split_1
I0403 15:44:10.508025  3421 net.cpp:399] inception_4a/3x3_reduce -> inception_4a/3x3_reduce
I0403 15:44:10.509299  3421 net.cpp:141] Setting up inception_4a/3x3_reduce
I0403 15:44:10.509327  3421 net.cpp:148] Top shape: 24 96 14 14 (451584)
I0403 15:44:10.509344  3421 net.cpp:156] Memory required for data: 863429664
I0403 15:44:10.509371  3421 layer_factory.hpp:77] Creating layer inception_4a/relu_3x3_reduce
I0403 15:44:10.509392  3421 net.cpp:91] Creating Layer inception_4a/relu_3x3_reduce
I0403 15:44:10.509412  3421 net.cpp:425] inception_4a/relu_3x3_reduce <- inception_4a/3x3_reduce
I0403 15:44:10.509430  3421 net.cpp:386] inception_4a/relu_3x3_reduce -> inception_4a/3x3_reduce (in-place)
I0403 15:44:10.509604  3421 net.cpp:141] Setting up inception_4a/relu_3x3_reduce
I0403 15:44:10.509632  3421 net.cpp:148] Top shape: 24 96 14 14 (451584)
I0403 15:44:10.509651  3421 net.cpp:156] Memory required for data: 865236000
I0403 15:44:10.509667  3421 layer_factory.hpp:77] Creating layer inception_4a/3x3
I0403 15:44:10.509688  3421 net.cpp:91] Creating Layer inception_4a/3x3
I0403 15:44:10.509706  3421 net.cpp:425] inception_4a/3x3 <- inception_4a/3x3_reduce
I0403 15:44:10.509726  3421 net.cpp:399] inception_4a/3x3 -> inception_4a/3x3
I0403 15:44:10.512392  3421 net.cpp:141] Setting up inception_4a/3x3
I0403 15:44:10.512425  3421 net.cpp:148] Top shape: 24 208 14 14 (978432)
I0403 15:44:10.512442  3421 net.cpp:156] Memory required for data: 869149728
I0403 15:44:10.512462  3421 layer_factory.hpp:77] Creating layer inception_4a/relu_3x3
I0403 15:44:10.512481  3421 net.cpp:91] Creating Layer inception_4a/relu_3x3
I0403 15:44:10.512498  3421 net.cpp:425] inception_4a/relu_3x3 <- inception_4a/3x3
I0403 15:44:10.512519  3421 net.cpp:386] inception_4a/relu_3x3 -> inception_4a/3x3 (in-place)
I0403 15:44:10.512801  3421 net.cpp:141] Setting up inception_4a/relu_3x3
I0403 15:44:10.512830  3421 net.cpp:148] Top shape: 24 208 14 14 (978432)
I0403 15:44:10.512846  3421 net.cpp:156] Memory required for data: 873063456
I0403 15:44:10.512861  3421 layer_factory.hpp:77] Creating layer inception_4a/5x5_reduce
I0403 15:44:10.512884  3421 net.cpp:91] Creating Layer inception_4a/5x5_reduce
I0403 15:44:10.512904  3421 net.cpp:425] inception_4a/5x5_reduce <- pool3/3x3_s2_pool3/3x3_s2_0_split_2
I0403 15:44:10.512926  3421 net.cpp:399] inception_4a/5x5_reduce -> inception_4a/5x5_reduce
I0403 15:44:10.513942  3421 net.cpp:141] Setting up inception_4a/5x5_reduce
I0403 15:44:10.513970  3421 net.cpp:148] Top shape: 24 16 14 14 (75264)
I0403 15:44:10.513988  3421 net.cpp:156] Memory required for data: 873364512
I0403 15:44:10.514005  3421 layer_factory.hpp:77] Creating layer inception_4a/relu_5x5_reduce
I0403 15:44:10.514024  3421 net.cpp:91] Creating Layer inception_4a/relu_5x5_reduce
I0403 15:44:10.514040  3421 net.cpp:425] inception_4a/relu_5x5_reduce <- inception_4a/5x5_reduce
I0403 15:44:10.514061  3421 net.cpp:386] inception_4a/relu_5x5_reduce -> inception_4a/5x5_reduce (in-place)
I0403 15:44:10.514243  3421 net.cpp:141] Setting up inception_4a/relu_5x5_reduce
I0403 15:44:10.514268  3421 net.cpp:148] Top shape: 24 16 14 14 (75264)
I0403 15:44:10.514283  3421 net.cpp:156] Memory required for data: 873665568
I0403 15:44:10.514298  3421 layer_factory.hpp:77] Creating layer inception_4a/5x5
I0403 15:44:10.514320  3421 net.cpp:91] Creating Layer inception_4a/5x5
I0403 15:44:10.514338  3421 net.cpp:425] inception_4a/5x5 <- inception_4a/5x5_reduce
I0403 15:44:10.514359  3421 net.cpp:399] inception_4a/5x5 -> inception_4a/5x5
I0403 15:44:10.515445  3421 net.cpp:141] Setting up inception_4a/5x5
I0403 15:44:10.515472  3421 net.cpp:148] Top shape: 24 48 14 14 (225792)
I0403 15:44:10.515488  3421 net.cpp:156] Memory required for data: 874568736
I0403 15:44:10.515506  3421 layer_factory.hpp:77] Creating layer inception_4a/relu_5x5
I0403 15:44:10.515527  3421 net.cpp:91] Creating Layer inception_4a/relu_5x5
I0403 15:44:10.515544  3421 net.cpp:425] inception_4a/relu_5x5 <- inception_4a/5x5
I0403 15:44:10.515563  3421 net.cpp:386] inception_4a/relu_5x5 -> inception_4a/5x5 (in-place)
I0403 15:44:10.515739  3421 net.cpp:141] Setting up inception_4a/relu_5x5
I0403 15:44:10.515766  3421 net.cpp:148] Top shape: 24 48 14 14 (225792)
I0403 15:44:10.515782  3421 net.cpp:156] Memory required for data: 875471904
I0403 15:44:10.515797  3421 layer_factory.hpp:77] Creating layer inception_4a/pool
I0403 15:44:10.515815  3421 net.cpp:91] Creating Layer inception_4a/pool
I0403 15:44:10.515831  3421 net.cpp:425] inception_4a/pool <- pool3/3x3_s2_pool3/3x3_s2_0_split_3
I0403 15:44:10.515848  3421 net.cpp:399] inception_4a/pool -> inception_4a/pool
I0403 15:44:10.515910  3421 net.cpp:141] Setting up inception_4a/pool
I0403 15:44:10.515933  3421 net.cpp:148] Top shape: 24 480 14 14 (2257920)
I0403 15:44:10.515949  3421 net.cpp:156] Memory required for data: 884503584
I0403 15:44:10.515962  3421 layer_factory.hpp:77] Creating layer inception_4a/pool_proj
I0403 15:44:10.515985  3421 net.cpp:91] Creating Layer inception_4a/pool_proj
I0403 15:44:10.516000  3421 net.cpp:425] inception_4a/pool_proj <- inception_4a/pool
I0403 15:44:10.516021  3421 net.cpp:399] inception_4a/pool_proj -> inception_4a/pool_proj
I0403 15:44:10.517199  3421 net.cpp:141] Setting up inception_4a/pool_proj
I0403 15:44:10.517230  3421 net.cpp:148] Top shape: 24 64 14 14 (301056)
I0403 15:44:10.517266  3421 net.cpp:156] Memory required for data: 885707808
I0403 15:44:10.517287  3421 layer_factory.hpp:77] Creating layer inception_4a/relu_pool_proj
I0403 15:44:10.517309  3421 net.cpp:91] Creating Layer inception_4a/relu_pool_proj
I0403 15:44:10.517328  3421 net.cpp:425] inception_4a/relu_pool_proj <- inception_4a/pool_proj
I0403 15:44:10.517344  3421 net.cpp:386] inception_4a/relu_pool_proj -> inception_4a/pool_proj (in-place)
I0403 15:44:10.517627  3421 net.cpp:141] Setting up inception_4a/relu_pool_proj
I0403 15:44:10.517652  3421 net.cpp:148] Top shape: 24 64 14 14 (301056)
I0403 15:44:10.517668  3421 net.cpp:156] Memory required for data: 886912032
I0403 15:44:10.517683  3421 layer_factory.hpp:77] Creating layer inception_4a/output
I0403 15:44:10.517702  3421 net.cpp:91] Creating Layer inception_4a/output
I0403 15:44:10.517719  3421 net.cpp:425] inception_4a/output <- inception_4a/1x1
I0403 15:44:10.517735  3421 net.cpp:425] inception_4a/output <- inception_4a/3x3
I0403 15:44:10.517750  3421 net.cpp:425] inception_4a/output <- inception_4a/5x5
I0403 15:44:10.517766  3421 net.cpp:425] inception_4a/output <- inception_4a/pool_proj
I0403 15:44:10.517782  3421 net.cpp:399] inception_4a/output -> inception_4a/output
I0403 15:44:10.517829  3421 net.cpp:141] Setting up inception_4a/output
I0403 15:44:10.517853  3421 net.cpp:148] Top shape: 24 512 14 14 (2408448)
I0403 15:44:10.517868  3421 net.cpp:156] Memory required for data: 896545824
I0403 15:44:10.517881  3421 layer_factory.hpp:77] Creating layer inception_4a/output_inception_4a/output_0_split
I0403 15:44:10.517899  3421 net.cpp:91] Creating Layer inception_4a/output_inception_4a/output_0_split
I0403 15:44:10.517915  3421 net.cpp:425] inception_4a/output_inception_4a/output_0_split <- inception_4a/output
I0403 15:44:10.517935  3421 net.cpp:399] inception_4a/output_inception_4a/output_0_split -> inception_4a/output_inception_4a/output_0_split_0
I0403 15:44:10.517956  3421 net.cpp:399] inception_4a/output_inception_4a/output_0_split -> inception_4a/output_inception_4a/output_0_split_1
I0403 15:44:10.517976  3421 net.cpp:399] inception_4a/output_inception_4a/output_0_split -> inception_4a/output_inception_4a/output_0_split_2
I0403 15:44:10.517997  3421 net.cpp:399] inception_4a/output_inception_4a/output_0_split -> inception_4a/output_inception_4a/output_0_split_3
I0403 15:44:10.518019  3421 net.cpp:399] inception_4a/output_inception_4a/output_0_split -> inception_4a/output_inception_4a/output_0_split_4
I0403 15:44:10.518112  3421 net.cpp:141] Setting up inception_4a/output_inception_4a/output_0_split
I0403 15:44:10.518136  3421 net.cpp:148] Top shape: 24 512 14 14 (2408448)
I0403 15:44:10.518152  3421 net.cpp:148] Top shape: 24 512 14 14 (2408448)
I0403 15:44:10.518168  3421 net.cpp:148] Top shape: 24 512 14 14 (2408448)
I0403 15:44:10.518185  3421 net.cpp:148] Top shape: 24 512 14 14 (2408448)
I0403 15:44:10.518201  3421 net.cpp:148] Top shape: 24 512 14 14 (2408448)
I0403 15:44:10.518215  3421 net.cpp:156] Memory required for data: 944714784
I0403 15:44:10.518229  3421 layer_factory.hpp:77] Creating layer loss1/ave_pool
I0403 15:44:10.518251  3421 net.cpp:91] Creating Layer loss1/ave_pool
I0403 15:44:10.518268  3421 net.cpp:425] loss1/ave_pool <- inception_4a/output_inception_4a/output_0_split_0
I0403 15:44:10.518288  3421 net.cpp:399] loss1/ave_pool -> loss1/ave_pool
I0403 15:44:10.518493  3421 net.cpp:141] Setting up loss1/ave_pool
I0403 15:44:10.518519  3421 net.cpp:148] Top shape: 24 512 4 4 (196608)
I0403 15:44:10.518534  3421 net.cpp:156] Memory required for data: 945501216
I0403 15:44:10.518548  3421 layer_factory.hpp:77] Creating layer loss1/conv
I0403 15:44:10.518573  3421 net.cpp:91] Creating Layer loss1/conv
I0403 15:44:10.518591  3421 net.cpp:425] loss1/conv <- loss1/ave_pool
I0403 15:44:10.518610  3421 net.cpp:399] loss1/conv -> loss1/conv
I0403 15:44:10.520007  3421 net.cpp:141] Setting up loss1/conv
I0403 15:44:10.520036  3421 net.cpp:148] Top shape: 24 128 4 4 (49152)
I0403 15:44:10.520066  3421 net.cpp:156] Memory required for data: 945697824
I0403 15:44:10.520087  3421 layer_factory.hpp:77] Creating layer loss1/relu_conv
I0403 15:44:10.520105  3421 net.cpp:91] Creating Layer loss1/relu_conv
I0403 15:44:10.520122  3421 net.cpp:425] loss1/relu_conv <- loss1/conv
I0403 15:44:10.520143  3421 net.cpp:386] loss1/relu_conv -> loss1/conv (in-place)
I0403 15:44:10.520427  3421 net.cpp:141] Setting up loss1/relu_conv
I0403 15:44:10.520455  3421 net.cpp:148] Top shape: 24 128 4 4 (49152)
I0403 15:44:10.520470  3421 net.cpp:156] Memory required for data: 945894432
I0403 15:44:10.520485  3421 layer_factory.hpp:77] Creating layer loss1/fc
I0403 15:44:10.520510  3421 net.cpp:91] Creating Layer loss1/fc
I0403 15:44:10.520529  3421 net.cpp:425] loss1/fc <- loss1/conv
I0403 15:44:10.520550  3421 net.cpp:399] loss1/fc -> loss1/fc
I0403 15:44:10.538303  3421 net.cpp:141] Setting up loss1/fc
I0403 15:44:10.538341  3421 net.cpp:148] Top shape: 24 1024 (24576)
I0403 15:44:10.538358  3421 net.cpp:156] Memory required for data: 945992736
I0403 15:44:10.538378  3421 layer_factory.hpp:77] Creating layer loss1/relu_fc
I0403 15:44:10.538398  3421 net.cpp:91] Creating Layer loss1/relu_fc
I0403 15:44:10.538415  3421 net.cpp:425] loss1/relu_fc <- loss1/fc
I0403 15:44:10.538434  3421 net.cpp:386] loss1/relu_fc -> loss1/fc (in-place)
I0403 15:44:10.538637  3421 net.cpp:141] Setting up loss1/relu_fc
I0403 15:44:10.538666  3421 net.cpp:148] Top shape: 24 1024 (24576)
I0403 15:44:10.538682  3421 net.cpp:156] Memory required for data: 946091040
I0403 15:44:10.538698  3421 layer_factory.hpp:77] Creating layer loss1/drop_fc
I0403 15:44:10.538727  3421 net.cpp:91] Creating Layer loss1/drop_fc
I0403 15:44:10.538745  3421 net.cpp:425] loss1/drop_fc <- loss1/fc
I0403 15:44:10.538763  3421 net.cpp:386] loss1/drop_fc -> loss1/fc (in-place)
I0403 15:44:10.538817  3421 net.cpp:141] Setting up loss1/drop_fc
I0403 15:44:10.538841  3421 net.cpp:148] Top shape: 24 1024 (24576)
I0403 15:44:10.538856  3421 net.cpp:156] Memory required for data: 946189344
I0403 15:44:10.538872  3421 layer_factory.hpp:77] Creating layer loss1/classifier_plantvillage
I0403 15:44:10.538894  3421 net.cpp:91] Creating Layer loss1/classifier_plantvillage
I0403 15:44:10.538913  3421 net.cpp:425] loss1/classifier_plantvillage <- loss1/fc
I0403 15:44:10.538931  3421 net.cpp:399] loss1/classifier_plantvillage -> loss1/classifier_plantvillage
I0403 15:44:10.539893  3421 net.cpp:141] Setting up loss1/classifier_plantvillage
I0403 15:44:10.539926  3421 net.cpp:148] Top shape: 24 38 (912)
I0403 15:44:10.539942  3421 net.cpp:156] Memory required for data: 946192992
I0403 15:44:10.539961  3421 layer_factory.hpp:77] Creating layer loss1/classifier_plantvillage_loss1/classifier_plantvillage_0_split
I0403 15:44:10.539980  3421 net.cpp:91] Creating Layer loss1/classifier_plantvillage_loss1/classifier_plantvillage_0_split
I0403 15:44:10.539999  3421 net.cpp:425] loss1/classifier_plantvillage_loss1/classifier_plantvillage_0_split <- loss1/classifier_plantvillage
I0403 15:44:10.540016  3421 net.cpp:399] loss1/classifier_plantvillage_loss1/classifier_plantvillage_0_split -> loss1/classifier_plantvillage_loss1/classifier_plantvillage_0_split_0
I0403 15:44:10.540036  3421 net.cpp:399] loss1/classifier_plantvillage_loss1/classifier_plantvillage_0_split -> loss1/classifier_plantvillage_loss1/classifier_plantvillage_0_split_1
I0403 15:44:10.540060  3421 net.cpp:399] loss1/classifier_plantvillage_loss1/classifier_plantvillage_0_split -> loss1/classifier_plantvillage_loss1/classifier_plantvillage_0_split_2
I0403 15:44:10.540128  3421 net.cpp:141] Setting up loss1/classifier_plantvillage_loss1/classifier_plantvillage_0_split
I0403 15:44:10.540153  3421 net.cpp:148] Top shape: 24 38 (912)
I0403 15:44:10.540169  3421 net.cpp:148] Top shape: 24 38 (912)
I0403 15:44:10.540186  3421 net.cpp:148] Top shape: 24 38 (912)
I0403 15:44:10.540200  3421 net.cpp:156] Memory required for data: 946203936
I0403 15:44:10.540215  3421 layer_factory.hpp:77] Creating layer inception_4b/1x1
I0403 15:44:10.540235  3421 net.cpp:91] Creating Layer inception_4b/1x1
I0403 15:44:10.540276  3421 net.cpp:425] inception_4b/1x1 <- inception_4a/output_inception_4a/output_0_split_1
I0403 15:44:10.540299  3421 net.cpp:399] inception_4b/1x1 -> inception_4b/1x1
I0403 15:44:10.541988  3421 net.cpp:141] Setting up inception_4b/1x1
I0403 15:44:10.542019  3421 net.cpp:148] Top shape: 24 160 14 14 (752640)
I0403 15:44:10.542035  3421 net.cpp:156] Memory required for data: 949214496
I0403 15:44:10.542054  3421 layer_factory.hpp:77] Creating layer inception_4b/relu_1x1
I0403 15:44:10.542073  3421 net.cpp:91] Creating Layer inception_4b/relu_1x1
I0403 15:44:10.542091  3421 net.cpp:425] inception_4b/relu_1x1 <- inception_4b/1x1
I0403 15:44:10.542114  3421 net.cpp:386] inception_4b/relu_1x1 -> inception_4b/1x1 (in-place)
I0403 15:44:10.542320  3421 net.cpp:141] Setting up inception_4b/relu_1x1
I0403 15:44:10.542347  3421 net.cpp:148] Top shape: 24 160 14 14 (752640)
I0403 15:44:10.542364  3421 net.cpp:156] Memory required for data: 952225056
I0403 15:44:10.542379  3421 layer_factory.hpp:77] Creating layer inception_4b/3x3_reduce
I0403 15:44:10.542402  3421 net.cpp:91] Creating Layer inception_4b/3x3_reduce
I0403 15:44:10.542421  3421 net.cpp:425] inception_4b/3x3_reduce <- inception_4a/output_inception_4a/output_0_split_2
I0403 15:44:10.542443  3421 net.cpp:399] inception_4b/3x3_reduce -> inception_4b/3x3_reduce
I0403 15:44:10.543843  3421 net.cpp:141] Setting up inception_4b/3x3_reduce
I0403 15:44:10.543874  3421 net.cpp:148] Top shape: 24 112 14 14 (526848)
I0403 15:44:10.543890  3421 net.cpp:156] Memory required for data: 954332448
I0403 15:44:10.543910  3421 layer_factory.hpp:77] Creating layer inception_4b/relu_3x3_reduce
I0403 15:44:10.543933  3421 net.cpp:91] Creating Layer inception_4b/relu_3x3_reduce
I0403 15:44:10.543951  3421 net.cpp:425] inception_4b/relu_3x3_reduce <- inception_4b/3x3_reduce
I0403 15:44:10.543970  3421 net.cpp:386] inception_4b/relu_3x3_reduce -> inception_4b/3x3_reduce (in-place)
I0403 15:44:10.544267  3421 net.cpp:141] Setting up inception_4b/relu_3x3_reduce
I0403 15:44:10.544296  3421 net.cpp:148] Top shape: 24 112 14 14 (526848)
I0403 15:44:10.544313  3421 net.cpp:156] Memory required for data: 956439840
I0403 15:44:10.544330  3421 layer_factory.hpp:77] Creating layer inception_4b/3x3
I0403 15:44:10.544354  3421 net.cpp:91] Creating Layer inception_4b/3x3
I0403 15:44:10.544373  3421 net.cpp:425] inception_4b/3x3 <- inception_4b/3x3_reduce
I0403 15:44:10.544397  3421 net.cpp:399] inception_4b/3x3 -> inception_4b/3x3
I0403 15:44:10.547461  3421 net.cpp:141] Setting up inception_4b/3x3
I0403 15:44:10.547495  3421 net.cpp:148] Top shape: 24 224 14 14 (1053696)
I0403 15:44:10.547514  3421 net.cpp:156] Memory required for data: 960654624
I0403 15:44:10.547534  3421 layer_factory.hpp:77] Creating layer inception_4b/relu_3x3
I0403 15:44:10.547554  3421 net.cpp:91] Creating Layer inception_4b/relu_3x3
I0403 15:44:10.547571  3421 net.cpp:425] inception_4b/relu_3x3 <- inception_4b/3x3
I0403 15:44:10.547588  3421 net.cpp:386] inception_4b/relu_3x3 -> inception_4b/3x3 (in-place)
I0403 15:44:10.547776  3421 net.cpp:141] Setting up inception_4b/relu_3x3
I0403 15:44:10.547804  3421 net.cpp:148] Top shape: 24 224 14 14 (1053696)
I0403 15:44:10.547821  3421 net.cpp:156] Memory required for data: 964869408
I0403 15:44:10.547837  3421 layer_factory.hpp:77] Creating layer inception_4b/5x5_reduce
I0403 15:44:10.547859  3421 net.cpp:91] Creating Layer inception_4b/5x5_reduce
I0403 15:44:10.547878  3421 net.cpp:425] inception_4b/5x5_reduce <- inception_4a/output_inception_4a/output_0_split_3
I0403 15:44:10.547899  3421 net.cpp:399] inception_4b/5x5_reduce -> inception_4b/5x5_reduce
I0403 15:44:10.549010  3421 net.cpp:141] Setting up inception_4b/5x5_reduce
I0403 15:44:10.549041  3421 net.cpp:148] Top shape: 24 24 14 14 (112896)
I0403 15:44:10.549058  3421 net.cpp:156] Memory required for data: 965320992
I0403 15:44:10.549077  3421 layer_factory.hpp:77] Creating layer inception_4b/relu_5x5_reduce
I0403 15:44:10.549099  3421 net.cpp:91] Creating Layer inception_4b/relu_5x5_reduce
I0403 15:44:10.549132  3421 net.cpp:425] inception_4b/relu_5x5_reduce <- inception_4b/5x5_reduce
I0403 15:44:10.549152  3421 net.cpp:386] inception_4b/relu_5x5_reduce -> inception_4b/5x5_reduce (in-place)
I0403 15:44:10.549343  3421 net.cpp:141] Setting up inception_4b/relu_5x5_reduce
I0403 15:44:10.549370  3421 net.cpp:148] Top shape: 24 24 14 14 (112896)
I0403 15:44:10.549384  3421 net.cpp:156] Memory required for data: 965772576
I0403 15:44:10.549399  3421 layer_factory.hpp:77] Creating layer inception_4b/5x5
I0403 15:44:10.549422  3421 net.cpp:91] Creating Layer inception_4b/5x5
I0403 15:44:10.549440  3421 net.cpp:425] inception_4b/5x5 <- inception_4b/5x5_reduce
I0403 15:44:10.549463  3421 net.cpp:399] inception_4b/5x5 -> inception_4b/5x5
I0403 15:44:10.550731  3421 net.cpp:141] Setting up inception_4b/5x5
I0403 15:44:10.550761  3421 net.cpp:148] Top shape: 24 64 14 14 (301056)
I0403 15:44:10.550777  3421 net.cpp:156] Memory required for data: 966976800
I0403 15:44:10.550797  3421 layer_factory.hpp:77] Creating layer inception_4b/relu_5x5
I0403 15:44:10.550817  3421 net.cpp:91] Creating Layer inception_4b/relu_5x5
I0403 15:44:10.550833  3421 net.cpp:425] inception_4b/relu_5x5 <- inception_4b/5x5
I0403 15:44:10.550854  3421 net.cpp:386] inception_4b/relu_5x5 -> inception_4b/5x5 (in-place)
I0403 15:44:10.551149  3421 net.cpp:141] Setting up inception_4b/relu_5x5
I0403 15:44:10.551177  3421 net.cpp:148] Top shape: 24 64 14 14 (301056)
I0403 15:44:10.551194  3421 net.cpp:156] Memory required for data: 968181024
I0403 15:44:10.551210  3421 layer_factory.hpp:77] Creating layer inception_4b/pool
I0403 15:44:10.551229  3421 net.cpp:91] Creating Layer inception_4b/pool
I0403 15:44:10.551254  3421 net.cpp:425] inception_4b/pool <- inception_4a/output_inception_4a/output_0_split_4
I0403 15:44:10.551280  3421 net.cpp:399] inception_4b/pool -> inception_4b/pool
I0403 15:44:10.551349  3421 net.cpp:141] Setting up inception_4b/pool
I0403 15:44:10.551375  3421 net.cpp:148] Top shape: 24 512 14 14 (2408448)
I0403 15:44:10.551391  3421 net.cpp:156] Memory required for data: 977814816
I0403 15:44:10.551409  3421 layer_factory.hpp:77] Creating layer inception_4b/pool_proj
I0403 15:44:10.551434  3421 net.cpp:91] Creating Layer inception_4b/pool_proj
I0403 15:44:10.551452  3421 net.cpp:425] inception_4b/pool_proj <- inception_4b/pool
I0403 15:44:10.551471  3421 net.cpp:399] inception_4b/pool_proj -> inception_4b/pool_proj
I0403 15:44:10.552717  3421 net.cpp:141] Setting up inception_4b/pool_proj
I0403 15:44:10.552747  3421 net.cpp:148] Top shape: 24 64 14 14 (301056)
I0403 15:44:10.552762  3421 net.cpp:156] Memory required for data: 979019040
I0403 15:44:10.552781  3421 layer_factory.hpp:77] Creating layer inception_4b/relu_pool_proj
I0403 15:44:10.552800  3421 net.cpp:91] Creating Layer inception_4b/relu_pool_proj
I0403 15:44:10.552817  3421 net.cpp:425] inception_4b/relu_pool_proj <- inception_4b/pool_proj
I0403 15:44:10.552839  3421 net.cpp:386] inception_4b/relu_pool_proj -> inception_4b/pool_proj (in-place)
I0403 15:44:10.553023  3421 net.cpp:141] Setting up inception_4b/relu_pool_proj
I0403 15:44:10.553050  3421 net.cpp:148] Top shape: 24 64 14 14 (301056)
I0403 15:44:10.553066  3421 net.cpp:156] Memory required for data: 980223264
I0403 15:44:10.553082  3421 layer_factory.hpp:77] Creating layer inception_4b/output
I0403 15:44:10.553102  3421 net.cpp:91] Creating Layer inception_4b/output
I0403 15:44:10.553120  3421 net.cpp:425] inception_4b/output <- inception_4b/1x1
I0403 15:44:10.553138  3421 net.cpp:425] inception_4b/output <- inception_4b/3x3
I0403 15:44:10.553153  3421 net.cpp:425] inception_4b/output <- inception_4b/5x5
I0403 15:44:10.553169  3421 net.cpp:425] inception_4b/output <- inception_4b/pool_proj
I0403 15:44:10.553189  3421 net.cpp:399] inception_4b/output -> inception_4b/output
I0403 15:44:10.553238  3421 net.cpp:141] Setting up inception_4b/output
I0403 15:44:10.553278  3421 net.cpp:148] Top shape: 24 512 14 14 (2408448)
I0403 15:44:10.553294  3421 net.cpp:156] Memory required for data: 989857056
I0403 15:44:10.553334  3421 layer_factory.hpp:77] Creating layer inception_4b/output_inception_4b/output_0_split
I0403 15:44:10.553354  3421 net.cpp:91] Creating Layer inception_4b/output_inception_4b/output_0_split
I0403 15:44:10.553370  3421 net.cpp:425] inception_4b/output_inception_4b/output_0_split <- inception_4b/output
I0403 15:44:10.553390  3421 net.cpp:399] inception_4b/output_inception_4b/output_0_split -> inception_4b/output_inception_4b/output_0_split_0
I0403 15:44:10.553413  3421 net.cpp:399] inception_4b/output_inception_4b/output_0_split -> inception_4b/output_inception_4b/output_0_split_1
I0403 15:44:10.553434  3421 net.cpp:399] inception_4b/output_inception_4b/output_0_split -> inception_4b/output_inception_4b/output_0_split_2
I0403 15:44:10.553455  3421 net.cpp:399] inception_4b/output_inception_4b/output_0_split -> inception_4b/output_inception_4b/output_0_split_3
I0403 15:44:10.553541  3421 net.cpp:141] Setting up inception_4b/output_inception_4b/output_0_split
I0403 15:44:10.553568  3421 net.cpp:148] Top shape: 24 512 14 14 (2408448)
I0403 15:44:10.553586  3421 net.cpp:148] Top shape: 24 512 14 14 (2408448)
I0403 15:44:10.553611  3421 net.cpp:148] Top shape: 24 512 14 14 (2408448)
I0403 15:44:10.553627  3421 net.cpp:148] Top shape: 24 512 14 14 (2408448)
I0403 15:44:10.553642  3421 net.cpp:156] Memory required for data: 1028392224
I0403 15:44:10.553656  3421 layer_factory.hpp:77] Creating layer inception_4c/1x1
I0403 15:44:10.553678  3421 net.cpp:91] Creating Layer inception_4c/1x1
I0403 15:44:10.553697  3421 net.cpp:425] inception_4c/1x1 <- inception_4b/output_inception_4b/output_0_split_0
I0403 15:44:10.553719  3421 net.cpp:399] inception_4c/1x1 -> inception_4c/1x1
I0403 15:44:10.555212  3421 net.cpp:141] Setting up inception_4c/1x1
I0403 15:44:10.555246  3421 net.cpp:148] Top shape: 24 128 14 14 (602112)
I0403 15:44:10.555266  3421 net.cpp:156] Memory required for data: 1030800672
I0403 15:44:10.555285  3421 layer_factory.hpp:77] Creating layer inception_4c/relu_1x1
I0403 15:44:10.555308  3421 net.cpp:91] Creating Layer inception_4c/relu_1x1
I0403 15:44:10.555326  3421 net.cpp:425] inception_4c/relu_1x1 <- inception_4c/1x1
I0403 15:44:10.555346  3421 net.cpp:386] inception_4c/relu_1x1 -> inception_4c/1x1 (in-place)
I0403 15:44:10.555531  3421 net.cpp:141] Setting up inception_4c/relu_1x1
I0403 15:44:10.555559  3421 net.cpp:148] Top shape: 24 128 14 14 (602112)
I0403 15:44:10.555575  3421 net.cpp:156] Memory required for data: 1033209120
I0403 15:44:10.555591  3421 layer_factory.hpp:77] Creating layer inception_4c/3x3_reduce
I0403 15:44:10.555614  3421 net.cpp:91] Creating Layer inception_4c/3x3_reduce
I0403 15:44:10.555632  3421 net.cpp:425] inception_4c/3x3_reduce <- inception_4b/output_inception_4b/output_0_split_1
I0403 15:44:10.555652  3421 net.cpp:399] inception_4c/3x3_reduce -> inception_4c/3x3_reduce
I0403 15:44:10.557646  3421 net.cpp:141] Setting up inception_4c/3x3_reduce
I0403 15:44:10.557678  3421 net.cpp:148] Top shape: 24 128 14 14 (602112)
I0403 15:44:10.557698  3421 net.cpp:156] Memory required for data: 1035617568
I0403 15:44:10.557719  3421 layer_factory.hpp:77] Creating layer inception_4c/relu_3x3_reduce
I0403 15:44:10.557739  3421 net.cpp:91] Creating Layer inception_4c/relu_3x3_reduce
I0403 15:44:10.557755  3421 net.cpp:425] inception_4c/relu_3x3_reduce <- inception_4c/3x3_reduce
I0403 15:44:10.557776  3421 net.cpp:386] inception_4c/relu_3x3_reduce -> inception_4c/3x3_reduce (in-place)
I0403 15:44:10.558073  3421 net.cpp:141] Setting up inception_4c/relu_3x3_reduce
I0403 15:44:10.558104  3421 net.cpp:148] Top shape: 24 128 14 14 (602112)
I0403 15:44:10.558122  3421 net.cpp:156] Memory required for data: 1038026016
I0403 15:44:10.558138  3421 layer_factory.hpp:77] Creating layer inception_4c/3x3
I0403 15:44:10.558163  3421 net.cpp:91] Creating Layer inception_4c/3x3
I0403 15:44:10.558184  3421 net.cpp:425] inception_4c/3x3 <- inception_4c/3x3_reduce
I0403 15:44:10.558207  3421 net.cpp:399] inception_4c/3x3 -> inception_4c/3x3
I0403 15:44:10.561923  3421 net.cpp:141] Setting up inception_4c/3x3
I0403 15:44:10.561966  3421 net.cpp:148] Top shape: 24 256 14 14 (1204224)
I0403 15:44:10.561985  3421 net.cpp:156] Memory required for data: 1042842912
I0403 15:44:10.562019  3421 layer_factory.hpp:77] Creating layer inception_4c/relu_3x3
I0403 15:44:10.562041  3421 net.cpp:91] Creating Layer inception_4c/relu_3x3
I0403 15:44:10.562058  3421 net.cpp:425] inception_4c/relu_3x3 <- inception_4c/3x3
I0403 15:44:10.562078  3421 net.cpp:386] inception_4c/relu_3x3 -> inception_4c/3x3 (in-place)
I0403 15:44:10.562280  3421 net.cpp:141] Setting up inception_4c/relu_3x3
I0403 15:44:10.562306  3421 net.cpp:148] Top shape: 24 256 14 14 (1204224)
I0403 15:44:10.562322  3421 net.cpp:156] Memory required for data: 1047659808
I0403 15:44:10.562338  3421 layer_factory.hpp:77] Creating layer inception_4c/5x5_reduce
I0403 15:44:10.562361  3421 net.cpp:91] Creating Layer inception_4c/5x5_reduce
I0403 15:44:10.562378  3421 net.cpp:425] inception_4c/5x5_reduce <- inception_4b/output_inception_4b/output_0_split_2
I0403 15:44:10.562404  3421 net.cpp:399] inception_4c/5x5_reduce -> inception_4c/5x5_reduce
I0403 15:44:10.563537  3421 net.cpp:141] Setting up inception_4c/5x5_reduce
I0403 15:44:10.563566  3421 net.cpp:148] Top shape: 24 24 14 14 (112896)
I0403 15:44:10.563583  3421 net.cpp:156] Memory required for data: 1048111392
I0403 15:44:10.563602  3421 layer_factory.hpp:77] Creating layer inception_4c/relu_5x5_reduce
I0403 15:44:10.563621  3421 net.cpp:91] Creating Layer inception_4c/relu_5x5_reduce
I0403 15:44:10.563640  3421 net.cpp:425] inception_4c/relu_5x5_reduce <- inception_4c/5x5_reduce
I0403 15:44:10.563658  3421 net.cpp:386] inception_4c/relu_5x5_reduce -> inception_4c/5x5_reduce (in-place)
I0403 15:44:10.563845  3421 net.cpp:141] Setting up inception_4c/relu_5x5_reduce
I0403 15:44:10.563870  3421 net.cpp:148] Top shape: 24 24 14 14 (112896)
I0403 15:44:10.563885  3421 net.cpp:156] Memory required for data: 1048562976
I0403 15:44:10.563900  3421 layer_factory.hpp:77] Creating layer inception_4c/5x5
I0403 15:44:10.563923  3421 net.cpp:91] Creating Layer inception_4c/5x5
I0403 15:44:10.563941  3421 net.cpp:425] inception_4c/5x5 <- inception_4c/5x5_reduce
I0403 15:44:10.563963  3421 net.cpp:399] inception_4c/5x5 -> inception_4c/5x5
I0403 15:44:10.565274  3421 net.cpp:141] Setting up inception_4c/5x5
I0403 15:44:10.565305  3421 net.cpp:148] Top shape: 24 64 14 14 (301056)
I0403 15:44:10.565322  3421 net.cpp:156] Memory required for data: 1049767200
I0403 15:44:10.565342  3421 layer_factory.hpp:77] Creating layer inception_4c/relu_5x5
I0403 15:44:10.565364  3421 net.cpp:91] Creating Layer inception_4c/relu_5x5
I0403 15:44:10.565382  3421 net.cpp:425] inception_4c/relu_5x5 <- inception_4c/5x5
I0403 15:44:10.565402  3421 net.cpp:386] inception_4c/relu_5x5 -> inception_4c/5x5 (in-place)
I0403 15:44:10.565716  3421 net.cpp:141] Setting up inception_4c/relu_5x5
I0403 15:44:10.565744  3421 net.cpp:148] Top shape: 24 64 14 14 (301056)
I0403 15:44:10.565760  3421 net.cpp:156] Memory required for data: 1050971424
I0403 15:44:10.565776  3421 layer_factory.hpp:77] Creating layer inception_4c/pool
I0403 15:44:10.565796  3421 net.cpp:91] Creating Layer inception_4c/pool
I0403 15:44:10.565814  3421 net.cpp:425] inception_4c/pool <- inception_4b/output_inception_4b/output_0_split_3
I0403 15:44:10.565832  3421 net.cpp:399] inception_4c/pool -> inception_4c/pool
I0403 15:44:10.565901  3421 net.cpp:141] Setting up inception_4c/pool
I0403 15:44:10.565925  3421 net.cpp:148] Top shape: 24 512 14 14 (2408448)
I0403 15:44:10.565940  3421 net.cpp:156] Memory required for data: 1060605216
I0403 15:44:10.565955  3421 layer_factory.hpp:77] Creating layer inception_4c/pool_proj
I0403 15:44:10.565979  3421 net.cpp:91] Creating Layer inception_4c/pool_proj
I0403 15:44:10.565995  3421 net.cpp:425] inception_4c/pool_proj <- inception_4c/pool
I0403 15:44:10.566016  3421 net.cpp:399] inception_4c/pool_proj -> inception_4c/pool_proj
I0403 15:44:10.567289  3421 net.cpp:141] Setting up inception_4c/pool_proj
I0403 15:44:10.567319  3421 net.cpp:148] Top shape: 24 64 14 14 (301056)
I0403 15:44:10.567351  3421 net.cpp:156] Memory required for data: 1061809440
I0403 15:44:10.567371  3421 layer_factory.hpp:77] Creating layer inception_4c/relu_pool_proj
I0403 15:44:10.567389  3421 net.cpp:91] Creating Layer inception_4c/relu_pool_proj
I0403 15:44:10.567406  3421 net.cpp:425] inception_4c/relu_pool_proj <- inception_4c/pool_proj
I0403 15:44:10.567427  3421 net.cpp:386] inception_4c/relu_pool_proj -> inception_4c/pool_proj (in-place)
I0403 15:44:10.567618  3421 net.cpp:141] Setting up inception_4c/relu_pool_proj
I0403 15:44:10.567646  3421 net.cpp:148] Top shape: 24 64 14 14 (301056)
I0403 15:44:10.567662  3421 net.cpp:156] Memory required for data: 1063013664
I0403 15:44:10.567677  3421 layer_factory.hpp:77] Creating layer inception_4c/output
I0403 15:44:10.567698  3421 net.cpp:91] Creating Layer inception_4c/output
I0403 15:44:10.567714  3421 net.cpp:425] inception_4c/output <- inception_4c/1x1
I0403 15:44:10.567731  3421 net.cpp:425] inception_4c/output <- inception_4c/3x3
I0403 15:44:10.567749  3421 net.cpp:425] inception_4c/output <- inception_4c/5x5
I0403 15:44:10.567764  3421 net.cpp:425] inception_4c/output <- inception_4c/pool_proj
I0403 15:44:10.567781  3421 net.cpp:399] inception_4c/output -> inception_4c/output
I0403 15:44:10.567831  3421 net.cpp:141] Setting up inception_4c/output
I0403 15:44:10.567854  3421 net.cpp:148] Top shape: 24 512 14 14 (2408448)
I0403 15:44:10.567869  3421 net.cpp:156] Memory required for data: 1072647456
I0403 15:44:10.567884  3421 layer_factory.hpp:77] Creating layer inception_4c/output_inception_4c/output_0_split
I0403 15:44:10.567903  3421 net.cpp:91] Creating Layer inception_4c/output_inception_4c/output_0_split
I0403 15:44:10.567919  3421 net.cpp:425] inception_4c/output_inception_4c/output_0_split <- inception_4c/output
I0403 15:44:10.567939  3421 net.cpp:399] inception_4c/output_inception_4c/output_0_split -> inception_4c/output_inception_4c/output_0_split_0
I0403 15:44:10.567960  3421 net.cpp:399] inception_4c/output_inception_4c/output_0_split -> inception_4c/output_inception_4c/output_0_split_1
I0403 15:44:10.567981  3421 net.cpp:399] inception_4c/output_inception_4c/output_0_split -> inception_4c/output_inception_4c/output_0_split_2
I0403 15:44:10.568002  3421 net.cpp:399] inception_4c/output_inception_4c/output_0_split -> inception_4c/output_inception_4c/output_0_split_3
I0403 15:44:10.568089  3421 net.cpp:141] Setting up inception_4c/output_inception_4c/output_0_split
I0403 15:44:10.568115  3421 net.cpp:148] Top shape: 24 512 14 14 (2408448)
I0403 15:44:10.568132  3421 net.cpp:148] Top shape: 24 512 14 14 (2408448)
I0403 15:44:10.568150  3421 net.cpp:148] Top shape: 24 512 14 14 (2408448)
I0403 15:44:10.568166  3421 net.cpp:148] Top shape: 24 512 14 14 (2408448)
I0403 15:44:10.568182  3421 net.cpp:156] Memory required for data: 1111182624
I0403 15:44:10.568197  3421 layer_factory.hpp:77] Creating layer inception_4d/1x1
I0403 15:44:10.568220  3421 net.cpp:91] Creating Layer inception_4d/1x1
I0403 15:44:10.568243  3421 net.cpp:425] inception_4d/1x1 <- inception_4c/output_inception_4c/output_0_split_0
I0403 15:44:10.568264  3421 net.cpp:399] inception_4d/1x1 -> inception_4d/1x1
I0403 15:44:10.569694  3421 net.cpp:141] Setting up inception_4d/1x1
I0403 15:44:10.569727  3421 net.cpp:148] Top shape: 24 112 14 14 (526848)
I0403 15:44:10.569746  3421 net.cpp:156] Memory required for data: 1113290016
I0403 15:44:10.569766  3421 layer_factory.hpp:77] Creating layer inception_4d/relu_1x1
I0403 15:44:10.569783  3421 net.cpp:91] Creating Layer inception_4d/relu_1x1
I0403 15:44:10.569802  3421 net.cpp:425] inception_4d/relu_1x1 <- inception_4d/1x1
I0403 15:44:10.569819  3421 net.cpp:386] inception_4d/relu_1x1 -> inception_4d/1x1 (in-place)
I0403 15:44:10.570010  3421 net.cpp:141] Setting up inception_4d/relu_1x1
I0403 15:44:10.570037  3421 net.cpp:148] Top shape: 24 112 14 14 (526848)
I0403 15:44:10.570053  3421 net.cpp:156] Memory required for data: 1115397408
I0403 15:44:10.570070  3421 layer_factory.hpp:77] Creating layer inception_4d/3x3_reduce
I0403 15:44:10.570106  3421 net.cpp:91] Creating Layer inception_4d/3x3_reduce
I0403 15:44:10.570127  3421 net.cpp:425] inception_4d/3x3_reduce <- inception_4c/output_inception_4c/output_0_split_1
I0403 15:44:10.570152  3421 net.cpp:399] inception_4d/3x3_reduce -> inception_4d/3x3_reduce
I0403 15:44:10.571718  3421 net.cpp:141] Setting up inception_4d/3x3_reduce
I0403 15:44:10.571746  3421 net.cpp:148] Top shape: 24 144 14 14 (677376)
I0403 15:44:10.571763  3421 net.cpp:156] Memory required for data: 1118106912
I0403 15:44:10.571780  3421 layer_factory.hpp:77] Creating layer inception_4d/relu_3x3_reduce
I0403 15:44:10.571801  3421 net.cpp:91] Creating Layer inception_4d/relu_3x3_reduce
I0403 15:44:10.571820  3421 net.cpp:425] inception_4d/relu_3x3_reduce <- inception_4d/3x3_reduce
I0403 15:44:10.571841  3421 net.cpp:386] inception_4d/relu_3x3_reduce -> inception_4d/3x3_reduce (in-place)
I0403 15:44:10.572140  3421 net.cpp:141] Setting up inception_4d/relu_3x3_reduce
I0403 15:44:10.572167  3421 net.cpp:148] Top shape: 24 144 14 14 (677376)
I0403 15:44:10.572196  3421 net.cpp:156] Memory required for data: 1120816416
I0403 15:44:10.572211  3421 layer_factory.hpp:77] Creating layer inception_4d/3x3
I0403 15:44:10.572237  3421 net.cpp:91] Creating Layer inception_4d/3x3
I0403 15:44:10.572273  3421 net.cpp:425] inception_4d/3x3 <- inception_4d/3x3_reduce
I0403 15:44:10.572299  3421 net.cpp:399] inception_4d/3x3 -> inception_4d/3x3
I0403 15:44:10.576668  3421 net.cpp:141] Setting up inception_4d/3x3
I0403 15:44:10.576701  3421 net.cpp:148] Top shape: 24 288 14 14 (1354752)
I0403 15:44:10.576719  3421 net.cpp:156] Memory required for data: 1126235424
I0403 15:44:10.576737  3421 layer_factory.hpp:77] Creating layer inception_4d/relu_3x3
I0403 15:44:10.576756  3421 net.cpp:91] Creating Layer inception_4d/relu_3x3
I0403 15:44:10.576773  3421 net.cpp:425] inception_4d/relu_3x3 <- inception_4d/3x3
I0403 15:44:10.576794  3421 net.cpp:386] inception_4d/relu_3x3 -> inception_4d/3x3 (in-place)
I0403 15:44:10.576980  3421 net.cpp:141] Setting up inception_4d/relu_3x3
I0403 15:44:10.577006  3421 net.cpp:148] Top shape: 24 288 14 14 (1354752)
I0403 15:44:10.577021  3421 net.cpp:156] Memory required for data: 1131654432
I0403 15:44:10.577038  3421 layer_factory.hpp:77] Creating layer inception_4d/5x5_reduce
I0403 15:44:10.577059  3421 net.cpp:91] Creating Layer inception_4d/5x5_reduce
I0403 15:44:10.577078  3421 net.cpp:425] inception_4d/5x5_reduce <- inception_4c/output_inception_4c/output_0_split_2
I0403 15:44:10.577100  3421 net.cpp:399] inception_4d/5x5_reduce -> inception_4d/5x5_reduce
I0403 15:44:10.578274  3421 net.cpp:141] Setting up inception_4d/5x5_reduce
I0403 15:44:10.578304  3421 net.cpp:148] Top shape: 24 32 14 14 (150528)
I0403 15:44:10.578320  3421 net.cpp:156] Memory required for data: 1132256544
I0403 15:44:10.578338  3421 layer_factory.hpp:77] Creating layer inception_4d/relu_5x5_reduce
I0403 15:44:10.578356  3421 net.cpp:91] Creating Layer inception_4d/relu_5x5_reduce
I0403 15:44:10.578373  3421 net.cpp:425] inception_4d/relu_5x5_reduce <- inception_4d/5x5_reduce
I0403 15:44:10.578392  3421 net.cpp:386] inception_4d/relu_5x5_reduce -> inception_4d/5x5_reduce (in-place)
I0403 15:44:10.578586  3421 net.cpp:141] Setting up inception_4d/relu_5x5_reduce
I0403 15:44:10.578610  3421 net.cpp:148] Top shape: 24 32 14 14 (150528)
I0403 15:44:10.578625  3421 net.cpp:156] Memory required for data: 1132858656
I0403 15:44:10.578640  3421 layer_factory.hpp:77] Creating layer inception_4d/5x5
I0403 15:44:10.578662  3421 net.cpp:91] Creating Layer inception_4d/5x5
I0403 15:44:10.578680  3421 net.cpp:425] inception_4d/5x5 <- inception_4d/5x5_reduce
I0403 15:44:10.578701  3421 net.cpp:399] inception_4d/5x5 -> inception_4d/5x5
I0403 15:44:10.580181  3421 net.cpp:141] Setting up inception_4d/5x5
I0403 15:44:10.580209  3421 net.cpp:148] Top shape: 24 64 14 14 (301056)
I0403 15:44:10.580225  3421 net.cpp:156] Memory required for data: 1134062880
I0403 15:44:10.580247  3421 layer_factory.hpp:77] Creating layer inception_4d/relu_5x5
I0403 15:44:10.580283  3421 net.cpp:91] Creating Layer inception_4d/relu_5x5
I0403 15:44:10.580302  3421 net.cpp:425] inception_4d/relu_5x5 <- inception_4d/5x5
I0403 15:44:10.580319  3421 net.cpp:386] inception_4d/relu_5x5 -> inception_4d/5x5 (in-place)
I0403 15:44:10.580621  3421 net.cpp:141] Setting up inception_4d/relu_5x5
I0403 15:44:10.580646  3421 net.cpp:148] Top shape: 24 64 14 14 (301056)
I0403 15:44:10.580662  3421 net.cpp:156] Memory required for data: 1135267104
I0403 15:44:10.580677  3421 layer_factory.hpp:77] Creating layer inception_4d/pool
I0403 15:44:10.580695  3421 net.cpp:91] Creating Layer inception_4d/pool
I0403 15:44:10.580713  3421 net.cpp:425] inception_4d/pool <- inception_4c/output_inception_4c/output_0_split_3
I0403 15:44:10.580731  3421 net.cpp:399] inception_4d/pool -> inception_4d/pool
I0403 15:44:10.580799  3421 net.cpp:141] Setting up inception_4d/pool
I0403 15:44:10.580823  3421 net.cpp:148] Top shape: 24 512 14 14 (2408448)
I0403 15:44:10.580837  3421 net.cpp:156] Memory required for data: 1144900896
I0403 15:44:10.580852  3421 layer_factory.hpp:77] Creating layer inception_4d/pool_proj
I0403 15:44:10.580873  3421 net.cpp:91] Creating Layer inception_4d/pool_proj
I0403 15:44:10.580890  3421 net.cpp:425] inception_4d/pool_proj <- inception_4d/pool
I0403 15:44:10.580912  3421 net.cpp:399] inception_4d/pool_proj -> inception_4d/pool_proj
I0403 15:44:10.582723  3421 net.cpp:141] Setting up inception_4d/pool_proj
I0403 15:44:10.582756  3421 net.cpp:148] Top shape: 24 64 14 14 (301056)
I0403 15:44:10.582775  3421 net.cpp:156] Memory required for data: 1146105120
I0403 15:44:10.582794  3421 layer_factory.hpp:77] Creating layer inception_4d/relu_pool_proj
I0403 15:44:10.582813  3421 net.cpp:91] Creating Layer inception_4d/relu_pool_proj
I0403 15:44:10.582831  3421 net.cpp:425] inception_4d/relu_pool_proj <- inception_4d/pool_proj
I0403 15:44:10.582851  3421 net.cpp:386] inception_4d/relu_pool_proj -> inception_4d/pool_proj (in-place)
I0403 15:44:10.583035  3421 net.cpp:141] Setting up inception_4d/relu_pool_proj
I0403 15:44:10.583060  3421 net.cpp:148] Top shape: 24 64 14 14 (301056)
I0403 15:44:10.583076  3421 net.cpp:156] Memory required for data: 1147309344
I0403 15:44:10.583091  3421 layer_factory.hpp:77] Creating layer inception_4d/output
I0403 15:44:10.583107  3421 net.cpp:91] Creating Layer inception_4d/output
I0403 15:44:10.583122  3421 net.cpp:425] inception_4d/output <- inception_4d/1x1
I0403 15:44:10.583139  3421 net.cpp:425] inception_4d/output <- inception_4d/3x3
I0403 15:44:10.583155  3421 net.cpp:425] inception_4d/output <- inception_4d/5x5
I0403 15:44:10.583170  3421 net.cpp:425] inception_4d/output <- inception_4d/pool_proj
I0403 15:44:10.583191  3421 net.cpp:399] inception_4d/output -> inception_4d/output
I0403 15:44:10.583243  3421 net.cpp:141] Setting up inception_4d/output
I0403 15:44:10.583269  3421 net.cpp:148] Top shape: 24 528 14 14 (2483712)
I0403 15:44:10.583286  3421 net.cpp:156] Memory required for data: 1157244192
I0403 15:44:10.583299  3421 layer_factory.hpp:77] Creating layer inception_4d/output_inception_4d/output_0_split
I0403 15:44:10.583317  3421 net.cpp:91] Creating Layer inception_4d/output_inception_4d/output_0_split
I0403 15:44:10.583333  3421 net.cpp:425] inception_4d/output_inception_4d/output_0_split <- inception_4d/output
I0403 15:44:10.583353  3421 net.cpp:399] inception_4d/output_inception_4d/output_0_split -> inception_4d/output_inception_4d/output_0_split_0
I0403 15:44:10.583375  3421 net.cpp:399] inception_4d/output_inception_4d/output_0_split -> inception_4d/output_inception_4d/output_0_split_1
I0403 15:44:10.583397  3421 net.cpp:399] inception_4d/output_inception_4d/output_0_split -> inception_4d/output_inception_4d/output_0_split_2
I0403 15:44:10.583418  3421 net.cpp:399] inception_4d/output_inception_4d/output_0_split -> inception_4d/output_inception_4d/output_0_split_3
I0403 15:44:10.583438  3421 net.cpp:399] inception_4d/output_inception_4d/output_0_split -> inception_4d/output_inception_4d/output_0_split_4
I0403 15:44:10.583540  3421 net.cpp:141] Setting up inception_4d/output_inception_4d/output_0_split
I0403 15:44:10.583578  3421 net.cpp:148] Top shape: 24 528 14 14 (2483712)
I0403 15:44:10.583596  3421 net.cpp:148] Top shape: 24 528 14 14 (2483712)
I0403 15:44:10.583613  3421 net.cpp:148] Top shape: 24 528 14 14 (2483712)
I0403 15:44:10.583628  3421 net.cpp:148] Top shape: 24 528 14 14 (2483712)
I0403 15:44:10.583643  3421 net.cpp:148] Top shape: 24 528 14 14 (2483712)
I0403 15:44:10.583657  3421 net.cpp:156] Memory required for data: 1206918432
I0403 15:44:10.583673  3421 layer_factory.hpp:77] Creating layer loss2/ave_pool
I0403 15:44:10.583689  3421 net.cpp:91] Creating Layer loss2/ave_pool
I0403 15:44:10.583705  3421 net.cpp:425] loss2/ave_pool <- inception_4d/output_inception_4d/output_0_split_0
I0403 15:44:10.583724  3421 net.cpp:399] loss2/ave_pool -> loss2/ave_pool
I0403 15:44:10.584035  3421 net.cpp:141] Setting up loss2/ave_pool
I0403 15:44:10.584064  3421 net.cpp:148] Top shape: 24 528 4 4 (202752)
I0403 15:44:10.584079  3421 net.cpp:156] Memory required for data: 1207729440
I0403 15:44:10.584095  3421 layer_factory.hpp:77] Creating layer loss2/conv
I0403 15:44:10.584116  3421 net.cpp:91] Creating Layer loss2/conv
I0403 15:44:10.584134  3421 net.cpp:425] loss2/conv <- loss2/ave_pool
I0403 15:44:10.584153  3421 net.cpp:399] loss2/conv -> loss2/conv
I0403 15:44:10.586038  3421 net.cpp:141] Setting up loss2/conv
I0403 15:44:10.586067  3421 net.cpp:148] Top shape: 24 128 4 4 (49152)
I0403 15:44:10.586084  3421 net.cpp:156] Memory required for data: 1207926048
I0403 15:44:10.586103  3421 layer_factory.hpp:77] Creating layer loss2/relu_conv
I0403 15:44:10.586124  3421 net.cpp:91] Creating Layer loss2/relu_conv
I0403 15:44:10.586143  3421 net.cpp:425] loss2/relu_conv <- loss2/conv
I0403 15:44:10.586159  3421 net.cpp:386] loss2/relu_conv -> loss2/conv (in-place)
I0403 15:44:10.586462  3421 net.cpp:141] Setting up loss2/relu_conv
I0403 15:44:10.586489  3421 net.cpp:148] Top shape: 24 128 4 4 (49152)
I0403 15:44:10.586504  3421 net.cpp:156] Memory required for data: 1208122656
I0403 15:44:10.586519  3421 layer_factory.hpp:77] Creating layer loss2/fc
I0403 15:44:10.586550  3421 net.cpp:91] Creating Layer loss2/fc
I0403 15:44:10.586567  3421 net.cpp:425] loss2/fc <- loss2/conv
I0403 15:44:10.586585  3421 net.cpp:399] loss2/fc -> loss2/fc
I0403 15:44:10.604238  3421 net.cpp:141] Setting up loss2/fc
I0403 15:44:10.604276  3421 net.cpp:148] Top shape: 24 1024 (24576)
I0403 15:44:10.604295  3421 net.cpp:156] Memory required for data: 1208220960
I0403 15:44:10.604315  3421 layer_factory.hpp:77] Creating layer loss2/relu_fc
I0403 15:44:10.604332  3421 net.cpp:91] Creating Layer loss2/relu_fc
I0403 15:44:10.604351  3421 net.cpp:425] loss2/relu_fc <- loss2/fc
I0403 15:44:10.604370  3421 net.cpp:386] loss2/relu_fc -> loss2/fc (in-place)
I0403 15:44:10.604679  3421 net.cpp:141] Setting up loss2/relu_fc
I0403 15:44:10.604707  3421 net.cpp:148] Top shape: 24 1024 (24576)
I0403 15:44:10.604723  3421 net.cpp:156] Memory required for data: 1208319264
I0403 15:44:10.604738  3421 layer_factory.hpp:77] Creating layer loss2/drop_fc
I0403 15:44:10.604756  3421 net.cpp:91] Creating Layer loss2/drop_fc
I0403 15:44:10.604773  3421 net.cpp:425] loss2/drop_fc <- loss2/fc
I0403 15:44:10.604794  3421 net.cpp:386] loss2/drop_fc -> loss2/fc (in-place)
I0403 15:44:10.604843  3421 net.cpp:141] Setting up loss2/drop_fc
I0403 15:44:10.604868  3421 net.cpp:148] Top shape: 24 1024 (24576)
I0403 15:44:10.604884  3421 net.cpp:156] Memory required for data: 1208417568
I0403 15:44:10.604899  3421 layer_factory.hpp:77] Creating layer loss2/classifier_plantvillage
I0403 15:44:10.604918  3421 net.cpp:91] Creating Layer loss2/classifier_plantvillage
I0403 15:44:10.604933  3421 net.cpp:425] loss2/classifier_plantvillage <- loss2/fc
I0403 15:44:10.604954  3421 net.cpp:399] loss2/classifier_plantvillage -> loss2/classifier_plantvillage
I0403 15:44:10.605381  3421 net.cpp:141] Setting up loss2/classifier_plantvillage
I0403 15:44:10.605406  3421 net.cpp:148] Top shape: 24 38 (912)
I0403 15:44:10.605437  3421 net.cpp:156] Memory required for data: 1208421216
I0403 15:44:10.605456  3421 layer_factory.hpp:77] Creating layer loss2/classifier_plantvillage_loss2/classifier_plantvillage_0_split
I0403 15:44:10.605476  3421 net.cpp:91] Creating Layer loss2/classifier_plantvillage_loss2/classifier_plantvillage_0_split
I0403 15:44:10.605494  3421 net.cpp:425] loss2/classifier_plantvillage_loss2/classifier_plantvillage_0_split <- loss2/classifier_plantvillage
I0403 15:44:10.605512  3421 net.cpp:399] loss2/classifier_plantvillage_loss2/classifier_plantvillage_0_split -> loss2/classifier_plantvillage_loss2/classifier_plantvillage_0_split_0
I0403 15:44:10.605531  3421 net.cpp:399] loss2/classifier_plantvillage_loss2/classifier_plantvillage_0_split -> loss2/classifier_plantvillage_loss2/classifier_plantvillage_0_split_1
I0403 15:44:10.605551  3421 net.cpp:399] loss2/classifier_plantvillage_loss2/classifier_plantvillage_0_split -> loss2/classifier_plantvillage_loss2/classifier_plantvillage_0_split_2
I0403 15:44:10.605638  3421 net.cpp:141] Setting up loss2/classifier_plantvillage_loss2/classifier_plantvillage_0_split
I0403 15:44:10.605661  3421 net.cpp:148] Top shape: 24 38 (912)
I0403 15:44:10.605677  3421 net.cpp:148] Top shape: 24 38 (912)
I0403 15:44:10.605695  3421 net.cpp:148] Top shape: 24 38 (912)
I0403 15:44:10.605707  3421 net.cpp:156] Memory required for data: 1208432160
I0403 15:44:10.605722  3421 layer_factory.hpp:77] Creating layer inception_4e/1x1
I0403 15:44:10.605744  3421 net.cpp:91] Creating Layer inception_4e/1x1
I0403 15:44:10.605762  3421 net.cpp:425] inception_4e/1x1 <- inception_4d/output_inception_4d/output_0_split_1
I0403 15:44:10.605782  3421 net.cpp:399] inception_4e/1x1 -> inception_4e/1x1
I0403 15:44:10.607600  3421 net.cpp:141] Setting up inception_4e/1x1
I0403 15:44:10.607630  3421 net.cpp:148] Top shape: 24 256 14 14 (1204224)
I0403 15:44:10.607647  3421 net.cpp:156] Memory required for data: 1213249056
I0403 15:44:10.607666  3421 layer_factory.hpp:77] Creating layer inception_4e/relu_1x1
I0403 15:44:10.607688  3421 net.cpp:91] Creating Layer inception_4e/relu_1x1
I0403 15:44:10.607705  3421 net.cpp:425] inception_4e/relu_1x1 <- inception_4e/1x1
I0403 15:44:10.607723  3421 net.cpp:386] inception_4e/relu_1x1 -> inception_4e/1x1 (in-place)
I0403 15:44:10.608026  3421 net.cpp:141] Setting up inception_4e/relu_1x1
I0403 15:44:10.608052  3421 net.cpp:148] Top shape: 24 256 14 14 (1204224)
I0403 15:44:10.608067  3421 net.cpp:156] Memory required for data: 1218065952
I0403 15:44:10.608083  3421 layer_factory.hpp:77] Creating layer inception_4e/3x3_reduce
I0403 15:44:10.608105  3421 net.cpp:91] Creating Layer inception_4e/3x3_reduce
I0403 15:44:10.608122  3421 net.cpp:425] inception_4e/3x3_reduce <- inception_4d/output_inception_4d/output_0_split_2
I0403 15:44:10.608144  3421 net.cpp:399] inception_4e/3x3_reduce -> inception_4e/3x3_reduce
I0403 15:44:10.610265  3421 net.cpp:141] Setting up inception_4e/3x3_reduce
I0403 15:44:10.610296  3421 net.cpp:148] Top shape: 24 160 14 14 (752640)
I0403 15:44:10.610313  3421 net.cpp:156] Memory required for data: 1221076512
I0403 15:44:10.610332  3421 layer_factory.hpp:77] Creating layer inception_4e/relu_3x3_reduce
I0403 15:44:10.610352  3421 net.cpp:91] Creating Layer inception_4e/relu_3x3_reduce
I0403 15:44:10.610369  3421 net.cpp:425] inception_4e/relu_3x3_reduce <- inception_4e/3x3_reduce
I0403 15:44:10.610391  3421 net.cpp:386] inception_4e/relu_3x3_reduce -> inception_4e/3x3_reduce (in-place)
I0403 15:44:10.610576  3421 net.cpp:141] Setting up inception_4e/relu_3x3_reduce
I0403 15:44:10.610602  3421 net.cpp:148] Top shape: 24 160 14 14 (752640)
I0403 15:44:10.610617  3421 net.cpp:156] Memory required for data: 1224087072
I0403 15:44:10.610633  3421 layer_factory.hpp:77] Creating layer inception_4e/3x3
I0403 15:44:10.610656  3421 net.cpp:91] Creating Layer inception_4e/3x3
I0403 15:44:10.610673  3421 net.cpp:425] inception_4e/3x3 <- inception_4e/3x3_reduce
I0403 15:44:10.610694  3421 net.cpp:399] inception_4e/3x3 -> inception_4e/3x3
I0403 15:44:10.615687  3421 net.cpp:141] Setting up inception_4e/3x3
I0403 15:44:10.615730  3421 net.cpp:148] Top shape: 24 320 14 14 (1505280)
I0403 15:44:10.615746  3421 net.cpp:156] Memory required for data: 1230108192
I0403 15:44:10.615767  3421 layer_factory.hpp:77] Creating layer inception_4e/relu_3x3
I0403 15:44:10.615789  3421 net.cpp:91] Creating Layer inception_4e/relu_3x3
I0403 15:44:10.615806  3421 net.cpp:425] inception_4e/relu_3x3 <- inception_4e/3x3
I0403 15:44:10.615823  3421 net.cpp:386] inception_4e/relu_3x3 -> inception_4e/3x3 (in-place)
I0403 15:44:10.616122  3421 net.cpp:141] Setting up inception_4e/relu_3x3
I0403 15:44:10.616153  3421 net.cpp:148] Top shape: 24 320 14 14 (1505280)
I0403 15:44:10.616178  3421 net.cpp:156] Memory required for data: 1236129312
I0403 15:44:10.616192  3421 layer_factory.hpp:77] Creating layer inception_4e/5x5_reduce
I0403 15:44:10.616215  3421 net.cpp:91] Creating Layer inception_4e/5x5_reduce
I0403 15:44:10.616233  3421 net.cpp:425] inception_4e/5x5_reduce <- inception_4d/output_inception_4d/output_0_split_3
I0403 15:44:10.616258  3421 net.cpp:399] inception_4e/5x5_reduce -> inception_4e/5x5_reduce
I0403 15:44:10.617332  3421 net.cpp:141] Setting up inception_4e/5x5_reduce
I0403 15:44:10.617362  3421 net.cpp:148] Top shape: 24 32 14 14 (150528)
I0403 15:44:10.617378  3421 net.cpp:156] Memory required for data: 1236731424
I0403 15:44:10.617398  3421 layer_factory.hpp:77] Creating layer inception_4e/relu_5x5_reduce
I0403 15:44:10.617419  3421 net.cpp:91] Creating Layer inception_4e/relu_5x5_reduce
I0403 15:44:10.617435  3421 net.cpp:425] inception_4e/relu_5x5_reduce <- inception_4e/5x5_reduce
I0403 15:44:10.617454  3421 net.cpp:386] inception_4e/relu_5x5_reduce -> inception_4e/5x5_reduce (in-place)
I0403 15:44:10.617753  3421 net.cpp:141] Setting up inception_4e/relu_5x5_reduce
I0403 15:44:10.617779  3421 net.cpp:148] Top shape: 24 32 14 14 (150528)
I0403 15:44:10.617794  3421 net.cpp:156] Memory required for data: 1237333536
I0403 15:44:10.617810  3421 layer_factory.hpp:77] Creating layer inception_4e/5x5
I0403 15:44:10.617847  3421 net.cpp:91] Creating Layer inception_4e/5x5
I0403 15:44:10.617867  3421 net.cpp:425] inception_4e/5x5 <- inception_4e/5x5_reduce
I0403 15:44:10.617887  3421 net.cpp:399] inception_4e/5x5 -> inception_4e/5x5
I0403 15:44:10.619737  3421 net.cpp:141] Setting up inception_4e/5x5
I0403 15:44:10.619768  3421 net.cpp:148] Top shape: 24 128 14 14 (602112)
I0403 15:44:10.619786  3421 net.cpp:156] Memory required for data: 1239741984
I0403 15:44:10.619804  3421 layer_factory.hpp:77] Creating layer inception_4e/relu_5x5
I0403 15:44:10.619823  3421 net.cpp:91] Creating Layer inception_4e/relu_5x5
I0403 15:44:10.619842  3421 net.cpp:425] inception_4e/relu_5x5 <- inception_4e/5x5
I0403 15:44:10.619861  3421 net.cpp:386] inception_4e/relu_5x5 -> inception_4e/5x5 (in-place)
I0403 15:44:10.620060  3421 net.cpp:141] Setting up inception_4e/relu_5x5
I0403 15:44:10.620085  3421 net.cpp:148] Top shape: 24 128 14 14 (602112)
I0403 15:44:10.620102  3421 net.cpp:156] Memory required for data: 1242150432
I0403 15:44:10.620117  3421 layer_factory.hpp:77] Creating layer inception_4e/pool
I0403 15:44:10.620138  3421 net.cpp:91] Creating Layer inception_4e/pool
I0403 15:44:10.620154  3421 net.cpp:425] inception_4e/pool <- inception_4d/output_inception_4d/output_0_split_4
I0403 15:44:10.620172  3421 net.cpp:399] inception_4e/pool -> inception_4e/pool
I0403 15:44:10.620249  3421 net.cpp:141] Setting up inception_4e/pool
I0403 15:44:10.620273  3421 net.cpp:148] Top shape: 24 528 14 14 (2483712)
I0403 15:44:10.620288  3421 net.cpp:156] Memory required for data: 1252085280
I0403 15:44:10.620303  3421 layer_factory.hpp:77] Creating layer inception_4e/pool_proj
I0403 15:44:10.620326  3421 net.cpp:91] Creating Layer inception_4e/pool_proj
I0403 15:44:10.620343  3421 net.cpp:425] inception_4e/pool_proj <- inception_4e/pool
I0403 15:44:10.620363  3421 net.cpp:399] inception_4e/pool_proj -> inception_4e/pool_proj
I0403 15:44:10.621865  3421 net.cpp:141] Setting up inception_4e/pool_proj
I0403 15:44:10.621907  3421 net.cpp:148] Top shape: 24 128 14 14 (602112)
I0403 15:44:10.621927  3421 net.cpp:156] Memory required for data: 1254493728
I0403 15:44:10.621945  3421 layer_factory.hpp:77] Creating layer inception_4e/relu_pool_proj
I0403 15:44:10.621964  3421 net.cpp:91] Creating Layer inception_4e/relu_pool_proj
I0403 15:44:10.621981  3421 net.cpp:425] inception_4e/relu_pool_proj <- inception_4e/pool_proj
I0403 15:44:10.622001  3421 net.cpp:386] inception_4e/relu_pool_proj -> inception_4e/pool_proj (in-place)
I0403 15:44:10.622308  3421 net.cpp:141] Setting up inception_4e/relu_pool_proj
I0403 15:44:10.622336  3421 net.cpp:148] Top shape: 24 128 14 14 (602112)
I0403 15:44:10.622354  3421 net.cpp:156] Memory required for data: 1256902176
I0403 15:44:10.622369  3421 layer_factory.hpp:77] Creating layer inception_4e/output
I0403 15:44:10.622385  3421 net.cpp:91] Creating Layer inception_4e/output
I0403 15:44:10.622401  3421 net.cpp:425] inception_4e/output <- inception_4e/1x1
I0403 15:44:10.622417  3421 net.cpp:425] inception_4e/output <- inception_4e/3x3
I0403 15:44:10.622433  3421 net.cpp:425] inception_4e/output <- inception_4e/5x5
I0403 15:44:10.622449  3421 net.cpp:425] inception_4e/output <- inception_4e/pool_proj
I0403 15:44:10.622468  3421 net.cpp:399] inception_4e/output -> inception_4e/output
I0403 15:44:10.622519  3421 net.cpp:141] Setting up inception_4e/output
I0403 15:44:10.622551  3421 net.cpp:148] Top shape: 24 832 14 14 (3913728)
I0403 15:44:10.622567  3421 net.cpp:156] Memory required for data: 1272557088
I0403 15:44:10.622581  3421 layer_factory.hpp:77] Creating layer pool4/3x3_s2
I0403 15:44:10.622601  3421 net.cpp:91] Creating Layer pool4/3x3_s2
I0403 15:44:10.622618  3421 net.cpp:425] pool4/3x3_s2 <- inception_4e/output
I0403 15:44:10.622637  3421 net.cpp:399] pool4/3x3_s2 -> pool4/3x3_s2
I0403 15:44:10.622709  3421 net.cpp:141] Setting up pool4/3x3_s2
I0403 15:44:10.622732  3421 net.cpp:148] Top shape: 24 832 7 7 (978432)
I0403 15:44:10.622747  3421 net.cpp:156] Memory required for data: 1276470816
I0403 15:44:10.622762  3421 layer_factory.hpp:77] Creating layer pool4/3x3_s2_pool4/3x3_s2_0_split
I0403 15:44:10.622779  3421 net.cpp:91] Creating Layer pool4/3x3_s2_pool4/3x3_s2_0_split
I0403 15:44:10.622795  3421 net.cpp:425] pool4/3x3_s2_pool4/3x3_s2_0_split <- pool4/3x3_s2
I0403 15:44:10.622815  3421 net.cpp:399] pool4/3x3_s2_pool4/3x3_s2_0_split -> pool4/3x3_s2_pool4/3x3_s2_0_split_0
I0403 15:44:10.622836  3421 net.cpp:399] pool4/3x3_s2_pool4/3x3_s2_0_split -> pool4/3x3_s2_pool4/3x3_s2_0_split_1
I0403 15:44:10.622856  3421 net.cpp:399] pool4/3x3_s2_pool4/3x3_s2_0_split -> pool4/3x3_s2_pool4/3x3_s2_0_split_2
I0403 15:44:10.622876  3421 net.cpp:399] pool4/3x3_s2_pool4/3x3_s2_0_split -> pool4/3x3_s2_pool4/3x3_s2_0_split_3
I0403 15:44:10.622967  3421 net.cpp:141] Setting up pool4/3x3_s2_pool4/3x3_s2_0_split
I0403 15:44:10.622989  3421 net.cpp:148] Top shape: 24 832 7 7 (978432)
I0403 15:44:10.623006  3421 net.cpp:148] Top shape: 24 832 7 7 (978432)
I0403 15:44:10.623021  3421 net.cpp:148] Top shape: 24 832 7 7 (978432)
I0403 15:44:10.623037  3421 net.cpp:148] Top shape: 24 832 7 7 (978432)
I0403 15:44:10.623050  3421 net.cpp:156] Memory required for data: 1292125728
I0403 15:44:10.623065  3421 layer_factory.hpp:77] Creating layer inception_5a/1x1
I0403 15:44:10.623087  3421 net.cpp:91] Creating Layer inception_5a/1x1
I0403 15:44:10.623106  3421 net.cpp:425] inception_5a/1x1 <- pool4/3x3_s2_pool4/3x3_s2_0_split_0
I0403 15:44:10.623127  3421 net.cpp:399] inception_5a/1x1 -> inception_5a/1x1
I0403 15:44:10.626025  3421 net.cpp:141] Setting up inception_5a/1x1
I0403 15:44:10.626056  3421 net.cpp:148] Top shape: 24 256 7 7 (301056)
I0403 15:44:10.626075  3421 net.cpp:156] Memory required for data: 1293329952
I0403 15:44:10.626093  3421 layer_factory.hpp:77] Creating layer inception_5a/relu_1x1
I0403 15:44:10.626113  3421 net.cpp:91] Creating Layer inception_5a/relu_1x1
I0403 15:44:10.626133  3421 net.cpp:425] inception_5a/relu_1x1 <- inception_5a/1x1
I0403 15:44:10.626155  3421 net.cpp:386] inception_5a/relu_1x1 -> inception_5a/1x1 (in-place)
I0403 15:44:10.626485  3421 net.cpp:141] Setting up inception_5a/relu_1x1
I0403 15:44:10.626515  3421 net.cpp:148] Top shape: 24 256 7 7 (301056)
I0403 15:44:10.626533  3421 net.cpp:156] Memory required for data: 1294534176
I0403 15:44:10.626549  3421 layer_factory.hpp:77] Creating layer inception_5a/3x3_reduce
I0403 15:44:10.626572  3421 net.cpp:91] Creating Layer inception_5a/3x3_reduce
I0403 15:44:10.626591  3421 net.cpp:425] inception_5a/3x3_reduce <- pool4/3x3_s2_pool4/3x3_s2_0_split_1
I0403 15:44:10.626615  3421 net.cpp:399] inception_5a/3x3_reduce -> inception_5a/3x3_reduce
I0403 15:44:10.629142  3421 net.cpp:141] Setting up inception_5a/3x3_reduce
I0403 15:44:10.629176  3421 net.cpp:148] Top shape: 24 160 7 7 (188160)
I0403 15:44:10.629197  3421 net.cpp:156] Memory required for data: 1295286816
I0403 15:44:10.629217  3421 layer_factory.hpp:77] Creating layer inception_5a/relu_3x3_reduce
I0403 15:44:10.629238  3421 net.cpp:91] Creating Layer inception_5a/relu_3x3_reduce
I0403 15:44:10.629262  3421 net.cpp:425] inception_5a/relu_3x3_reduce <- inception_5a/3x3_reduce
I0403 15:44:10.629284  3421 net.cpp:386] inception_5a/relu_3x3_reduce -> inception_5a/3x3_reduce (in-place)
I0403 15:44:10.629478  3421 net.cpp:141] Setting up inception_5a/relu_3x3_reduce
I0403 15:44:10.629506  3421 net.cpp:148] Top shape: 24 160 7 7 (188160)
I0403 15:44:10.629521  3421 net.cpp:156] Memory required for data: 1296039456
I0403 15:44:10.629537  3421 layer_factory.hpp:77] Creating layer inception_5a/3x3
I0403 15:44:10.629562  3421 net.cpp:91] Creating Layer inception_5a/3x3
I0403 15:44:10.629581  3421 net.cpp:425] inception_5a/3x3 <- inception_5a/3x3_reduce
I0403 15:44:10.629604  3421 net.cpp:399] inception_5a/3x3 -> inception_5a/3x3
I0403 15:44:10.634845  3421 net.cpp:141] Setting up inception_5a/3x3
I0403 15:44:10.634877  3421 net.cpp:148] Top shape: 24 320 7 7 (376320)
I0403 15:44:10.634894  3421 net.cpp:156] Memory required for data: 1297544736
I0403 15:44:10.634914  3421 layer_factory.hpp:77] Creating layer inception_5a/relu_3x3
I0403 15:44:10.634934  3421 net.cpp:91] Creating Layer inception_5a/relu_3x3
I0403 15:44:10.634982  3421 net.cpp:425] inception_5a/relu_3x3 <- inception_5a/3x3
I0403 15:44:10.635004  3421 net.cpp:386] inception_5a/relu_3x3 -> inception_5a/3x3 (in-place)
I0403 15:44:10.635334  3421 net.cpp:141] Setting up inception_5a/relu_3x3
I0403 15:44:10.635360  3421 net.cpp:148] Top shape: 24 320 7 7 (376320)
I0403 15:44:10.635376  3421 net.cpp:156] Memory required for data: 1299050016
I0403 15:44:10.635392  3421 layer_factory.hpp:77] Creating layer inception_5a/5x5_reduce
I0403 15:44:10.635416  3421 net.cpp:91] Creating Layer inception_5a/5x5_reduce
I0403 15:44:10.635435  3421 net.cpp:425] inception_5a/5x5_reduce <- pool4/3x3_s2_pool4/3x3_s2_0_split_2
I0403 15:44:10.635457  3421 net.cpp:399] inception_5a/5x5_reduce -> inception_5a/5x5_reduce
I0403 15:44:10.636674  3421 net.cpp:141] Setting up inception_5a/5x5_reduce
I0403 15:44:10.636705  3421 net.cpp:148] Top shape: 24 32 7 7 (37632)
I0403 15:44:10.636723  3421 net.cpp:156] Memory required for data: 1299200544
I0403 15:44:10.636742  3421 layer_factory.hpp:77] Creating layer inception_5a/relu_5x5_reduce
I0403 15:44:10.636764  3421 net.cpp:91] Creating Layer inception_5a/relu_5x5_reduce
I0403 15:44:10.636783  3421 net.cpp:425] inception_5a/relu_5x5_reduce <- inception_5a/5x5_reduce
I0403 15:44:10.636803  3421 net.cpp:386] inception_5a/relu_5x5_reduce -> inception_5a/5x5_reduce (in-place)
I0403 15:44:10.637117  3421 net.cpp:141] Setting up inception_5a/relu_5x5_reduce
I0403 15:44:10.637145  3421 net.cpp:148] Top shape: 24 32 7 7 (37632)
I0403 15:44:10.637162  3421 net.cpp:156] Memory required for data: 1299351072
I0403 15:44:10.637178  3421 layer_factory.hpp:77] Creating layer inception_5a/5x5
I0403 15:44:10.637204  3421 net.cpp:91] Creating Layer inception_5a/5x5
I0403 15:44:10.637223  3421 net.cpp:425] inception_5a/5x5 <- inception_5a/5x5_reduce
I0403 15:44:10.637250  3421 net.cpp:399] inception_5a/5x5 -> inception_5a/5x5
I0403 15:44:10.639040  3421 net.cpp:141] Setting up inception_5a/5x5
I0403 15:44:10.639084  3421 net.cpp:148] Top shape: 24 128 7 7 (150528)
I0403 15:44:10.639101  3421 net.cpp:156] Memory required for data: 1299953184
I0403 15:44:10.639120  3421 layer_factory.hpp:77] Creating layer inception_5a/relu_5x5
I0403 15:44:10.639140  3421 net.cpp:91] Creating Layer inception_5a/relu_5x5
I0403 15:44:10.639158  3421 net.cpp:425] inception_5a/relu_5x5 <- inception_5a/5x5
I0403 15:44:10.639180  3421 net.cpp:386] inception_5a/relu_5x5 -> inception_5a/5x5 (in-place)
I0403 15:44:10.639382  3421 net.cpp:141] Setting up inception_5a/relu_5x5
I0403 15:44:10.639408  3421 net.cpp:148] Top shape: 24 128 7 7 (150528)
I0403 15:44:10.639423  3421 net.cpp:156] Memory required for data: 1300555296
I0403 15:44:10.639438  3421 layer_factory.hpp:77] Creating layer inception_5a/pool
I0403 15:44:10.639459  3421 net.cpp:91] Creating Layer inception_5a/pool
I0403 15:44:10.639477  3421 net.cpp:425] inception_5a/pool <- pool4/3x3_s2_pool4/3x3_s2_0_split_3
I0403 15:44:10.639497  3421 net.cpp:399] inception_5a/pool -> inception_5a/pool
I0403 15:44:10.639585  3421 net.cpp:141] Setting up inception_5a/pool
I0403 15:44:10.639611  3421 net.cpp:148] Top shape: 24 832 7 7 (978432)
I0403 15:44:10.639627  3421 net.cpp:156] Memory required for data: 1304469024
I0403 15:44:10.639642  3421 layer_factory.hpp:77] Creating layer inception_5a/pool_proj
I0403 15:44:10.639665  3421 net.cpp:91] Creating Layer inception_5a/pool_proj
I0403 15:44:10.639684  3421 net.cpp:425] inception_5a/pool_proj <- inception_5a/pool
I0403 15:44:10.639706  3421 net.cpp:399] inception_5a/pool_proj -> inception_5a/pool_proj
I0403 15:44:10.642072  3421 net.cpp:141] Setting up inception_5a/pool_proj
I0403 15:44:10.642107  3421 net.cpp:148] Top shape: 24 128 7 7 (150528)
I0403 15:44:10.642123  3421 net.cpp:156] Memory required for data: 1305071136
I0403 15:44:10.642143  3421 layer_factory.hpp:77] Creating layer inception_5a/relu_pool_proj
I0403 15:44:10.642163  3421 net.cpp:91] Creating Layer inception_5a/relu_pool_proj
I0403 15:44:10.642180  3421 net.cpp:425] inception_5a/relu_pool_proj <- inception_5a/pool_proj
I0403 15:44:10.642201  3421 net.cpp:386] inception_5a/relu_pool_proj -> inception_5a/pool_proj (in-place)
I0403 15:44:10.642520  3421 net.cpp:141] Setting up inception_5a/relu_pool_proj
I0403 15:44:10.642549  3421 net.cpp:148] Top shape: 24 128 7 7 (150528)
I0403 15:44:10.642565  3421 net.cpp:156] Memory required for data: 1305673248
I0403 15:44:10.642580  3421 layer_factory.hpp:77] Creating layer inception_5a/output
I0403 15:44:10.642598  3421 net.cpp:91] Creating Layer inception_5a/output
I0403 15:44:10.642614  3421 net.cpp:425] inception_5a/output <- inception_5a/1x1
I0403 15:44:10.642632  3421 net.cpp:425] inception_5a/output <- inception_5a/3x3
I0403 15:44:10.642648  3421 net.cpp:425] inception_5a/output <- inception_5a/5x5
I0403 15:44:10.642665  3421 net.cpp:425] inception_5a/output <- inception_5a/pool_proj
I0403 15:44:10.642683  3421 net.cpp:399] inception_5a/output -> inception_5a/output
I0403 15:44:10.642736  3421 net.cpp:141] Setting up inception_5a/output
I0403 15:44:10.642760  3421 net.cpp:148] Top shape: 24 832 7 7 (978432)
I0403 15:44:10.642776  3421 net.cpp:156] Memory required for data: 1309586976
I0403 15:44:10.642791  3421 layer_factory.hpp:77] Creating layer inception_5a/output_inception_5a/output_0_split
I0403 15:44:10.642812  3421 net.cpp:91] Creating Layer inception_5a/output_inception_5a/output_0_split
I0403 15:44:10.642829  3421 net.cpp:425] inception_5a/output_inception_5a/output_0_split <- inception_5a/output
I0403 15:44:10.642848  3421 net.cpp:399] inception_5a/output_inception_5a/output_0_split -> inception_5a/output_inception_5a/output_0_split_0
I0403 15:44:10.642869  3421 net.cpp:399] inception_5a/output_inception_5a/output_0_split -> inception_5a/output_inception_5a/output_0_split_1
I0403 15:44:10.642890  3421 net.cpp:399] inception_5a/output_inception_5a/output_0_split -> inception_5a/output_inception_5a/output_0_split_2
I0403 15:44:10.642915  3421 net.cpp:399] inception_5a/output_inception_5a/output_0_split -> inception_5a/output_inception_5a/output_0_split_3
I0403 15:44:10.643033  3421 net.cpp:141] Setting up inception_5a/output_inception_5a/output_0_split
I0403 15:44:10.643057  3421 net.cpp:148] Top shape: 24 832 7 7 (978432)
I0403 15:44:10.643074  3421 net.cpp:148] Top shape: 24 832 7 7 (978432)
I0403 15:44:10.643091  3421 net.cpp:148] Top shape: 24 832 7 7 (978432)
I0403 15:44:10.643107  3421 net.cpp:148] Top shape: 24 832 7 7 (978432)
I0403 15:44:10.643121  3421 net.cpp:156] Memory required for data: 1325241888
I0403 15:44:10.643136  3421 layer_factory.hpp:77] Creating layer inception_5b/1x1
I0403 15:44:10.643159  3421 net.cpp:91] Creating Layer inception_5b/1x1
I0403 15:44:10.643178  3421 net.cpp:425] inception_5b/1x1 <- inception_5a/output_inception_5a/output_0_split_0
I0403 15:44:10.643200  3421 net.cpp:399] inception_5b/1x1 -> inception_5b/1x1
I0403 15:44:10.647084  3421 net.cpp:141] Setting up inception_5b/1x1
I0403 15:44:10.647119  3421 net.cpp:148] Top shape: 24 384 7 7 (451584)
I0403 15:44:10.647136  3421 net.cpp:156] Memory required for data: 1327048224
I0403 15:44:10.647158  3421 layer_factory.hpp:77] Creating layer inception_5b/relu_1x1
I0403 15:44:10.647177  3421 net.cpp:91] Creating Layer inception_5b/relu_1x1
I0403 15:44:10.647195  3421 net.cpp:425] inception_5b/relu_1x1 <- inception_5b/1x1
I0403 15:44:10.647217  3421 net.cpp:386] inception_5b/relu_1x1 -> inception_5b/1x1 (in-place)
I0403 15:44:10.647536  3421 net.cpp:141] Setting up inception_5b/relu_1x1
I0403 15:44:10.647565  3421 net.cpp:148] Top shape: 24 384 7 7 (451584)
I0403 15:44:10.647583  3421 net.cpp:156] Memory required for data: 1328854560
I0403 15:44:10.647598  3421 layer_factory.hpp:77] Creating layer inception_5b/3x3_reduce
I0403 15:44:10.647621  3421 net.cpp:91] Creating Layer inception_5b/3x3_reduce
I0403 15:44:10.647639  3421 net.cpp:425] inception_5b/3x3_reduce <- inception_5a/output_inception_5a/output_0_split_1
I0403 15:44:10.647658  3421 net.cpp:399] inception_5b/3x3_reduce -> inception_5b/3x3_reduce
I0403 15:44:10.650414  3421 net.cpp:141] Setting up inception_5b/3x3_reduce
I0403 15:44:10.650447  3421 net.cpp:148] Top shape: 24 192 7 7 (225792)
I0403 15:44:10.650466  3421 net.cpp:156] Memory required for data: 1329757728
I0403 15:44:10.650486  3421 layer_factory.hpp:77] Creating layer inception_5b/relu_3x3_reduce
I0403 15:44:10.650506  3421 net.cpp:91] Creating Layer inception_5b/relu_3x3_reduce
I0403 15:44:10.650524  3421 net.cpp:425] inception_5b/relu_3x3_reduce <- inception_5b/3x3_reduce
I0403 15:44:10.650544  3421 net.cpp:386] inception_5b/relu_3x3_reduce -> inception_5b/3x3_reduce (in-place)
I0403 15:44:10.650743  3421 net.cpp:141] Setting up inception_5b/relu_3x3_reduce
I0403 15:44:10.650770  3421 net.cpp:148] Top shape: 24 192 7 7 (225792)
I0403 15:44:10.650786  3421 net.cpp:156] Memory required for data: 1330660896
I0403 15:44:10.650801  3421 layer_factory.hpp:77] Creating layer inception_5b/3x3
I0403 15:44:10.650825  3421 net.cpp:91] Creating Layer inception_5b/3x3
I0403 15:44:10.650842  3421 net.cpp:425] inception_5b/3x3 <- inception_5b/3x3_reduce
I0403 15:44:10.650866  3421 net.cpp:399] inception_5b/3x3 -> inception_5b/3x3
I0403 15:44:10.657807  3421 net.cpp:141] Setting up inception_5b/3x3
I0403 15:44:10.657841  3421 net.cpp:148] Top shape: 24 384 7 7 (451584)
I0403 15:44:10.657860  3421 net.cpp:156] Memory required for data: 1332467232
I0403 15:44:10.657881  3421 layer_factory.hpp:77] Creating layer inception_5b/relu_3x3
I0403 15:44:10.657899  3421 net.cpp:91] Creating Layer inception_5b/relu_3x3
I0403 15:44:10.657918  3421 net.cpp:425] inception_5b/relu_3x3 <- inception_5b/3x3
I0403 15:44:10.657940  3421 net.cpp:386] inception_5b/relu_3x3 -> inception_5b/3x3 (in-place)
I0403 15:44:10.658254  3421 net.cpp:141] Setting up inception_5b/relu_3x3
I0403 15:44:10.658282  3421 net.cpp:148] Top shape: 24 384 7 7 (451584)
I0403 15:44:10.658298  3421 net.cpp:156] Memory required for data: 1334273568
I0403 15:44:10.658313  3421 layer_factory.hpp:77] Creating layer inception_5b/5x5_reduce
I0403 15:44:10.658354  3421 net.cpp:91] Creating Layer inception_5b/5x5_reduce
I0403 15:44:10.658376  3421 net.cpp:425] inception_5b/5x5_reduce <- inception_5a/output_inception_5a/output_0_split_2
I0403 15:44:10.658398  3421 net.cpp:399] inception_5b/5x5_reduce -> inception_5b/5x5_reduce
I0403 15:44:10.659735  3421 net.cpp:141] Setting up inception_5b/5x5_reduce
I0403 15:44:10.659768  3421 net.cpp:148] Top shape: 24 48 7 7 (56448)
I0403 15:44:10.659786  3421 net.cpp:156] Memory required for data: 1334499360
I0403 15:44:10.659806  3421 layer_factory.hpp:77] Creating layer inception_5b/relu_5x5_reduce
I0403 15:44:10.659826  3421 net.cpp:91] Creating Layer inception_5b/relu_5x5_reduce
I0403 15:44:10.659843  3421 net.cpp:425] inception_5b/relu_5x5_reduce <- inception_5b/5x5_reduce
I0403 15:44:10.659863  3421 net.cpp:386] inception_5b/relu_5x5_reduce -> inception_5b/5x5_reduce (in-place)
I0403 15:44:10.660254  3421 net.cpp:141] Setting up inception_5b/relu_5x5_reduce
I0403 15:44:10.660281  3421 net.cpp:148] Top shape: 24 48 7 7 (56448)
I0403 15:44:10.660298  3421 net.cpp:156] Memory required for data: 1334725152
I0403 15:44:10.660313  3421 layer_factory.hpp:77] Creating layer inception_5b/5x5
I0403 15:44:10.660334  3421 net.cpp:91] Creating Layer inception_5b/5x5
I0403 15:44:10.660353  3421 net.cpp:425] inception_5b/5x5 <- inception_5b/5x5_reduce
I0403 15:44:10.660372  3421 net.cpp:399] inception_5b/5x5 -> inception_5b/5x5
I0403 15:44:10.662528  3421 net.cpp:141] Setting up inception_5b/5x5
I0403 15:44:10.662557  3421 net.cpp:148] Top shape: 24 128 7 7 (150528)
I0403 15:44:10.662574  3421 net.cpp:156] Memory required for data: 1335327264
I0403 15:44:10.662592  3421 layer_factory.hpp:77] Creating layer inception_5b/relu_5x5
I0403 15:44:10.662611  3421 net.cpp:91] Creating Layer inception_5b/relu_5x5
I0403 15:44:10.662628  3421 net.cpp:425] inception_5b/relu_5x5 <- inception_5b/5x5
I0403 15:44:10.662649  3421 net.cpp:386] inception_5b/relu_5x5 -> inception_5b/5x5 (in-place)
I0403 15:44:10.662849  3421 net.cpp:141] Setting up inception_5b/relu_5x5
I0403 15:44:10.662873  3421 net.cpp:148] Top shape: 24 128 7 7 (150528)
I0403 15:44:10.662889  3421 net.cpp:156] Memory required for data: 1335929376
I0403 15:44:10.662904  3421 layer_factory.hpp:77] Creating layer inception_5b/pool
I0403 15:44:10.662926  3421 net.cpp:91] Creating Layer inception_5b/pool
I0403 15:44:10.662943  3421 net.cpp:425] inception_5b/pool <- inception_5a/output_inception_5a/output_0_split_3
I0403 15:44:10.662962  3421 net.cpp:399] inception_5b/pool -> inception_5b/pool
I0403 15:44:10.663038  3421 net.cpp:141] Setting up inception_5b/pool
I0403 15:44:10.663063  3421 net.cpp:148] Top shape: 24 832 7 7 (978432)
I0403 15:44:10.663077  3421 net.cpp:156] Memory required for data: 1339843104
I0403 15:44:10.663092  3421 layer_factory.hpp:77] Creating layer inception_5b/pool_proj
I0403 15:44:10.663115  3421 net.cpp:91] Creating Layer inception_5b/pool_proj
I0403 15:44:10.663133  3421 net.cpp:425] inception_5b/pool_proj <- inception_5b/pool
I0403 15:44:10.663156  3421 net.cpp:399] inception_5b/pool_proj -> inception_5b/pool_proj
I0403 15:44:10.665562  3421 net.cpp:141] Setting up inception_5b/pool_proj
I0403 15:44:10.665594  3421 net.cpp:148] Top shape: 24 128 7 7 (150528)
I0403 15:44:10.665611  3421 net.cpp:156] Memory required for data: 1340445216
I0403 15:44:10.665632  3421 layer_factory.hpp:77] Creating layer inception_5b/relu_pool_proj
I0403 15:44:10.665649  3421 net.cpp:91] Creating Layer inception_5b/relu_pool_proj
I0403 15:44:10.665668  3421 net.cpp:425] inception_5b/relu_pool_proj <- inception_5b/pool_proj
I0403 15:44:10.665689  3421 net.cpp:386] inception_5b/relu_pool_proj -> inception_5b/pool_proj (in-place)
I0403 15:44:10.665998  3421 net.cpp:141] Setting up inception_5b/relu_pool_proj
I0403 15:44:10.666028  3421 net.cpp:148] Top shape: 24 128 7 7 (150528)
I0403 15:44:10.666045  3421 net.cpp:156] Memory required for data: 1341047328
I0403 15:44:10.666061  3421 layer_factory.hpp:77] Creating layer inception_5b/output
I0403 15:44:10.666079  3421 net.cpp:91] Creating Layer inception_5b/output
I0403 15:44:10.666112  3421 net.cpp:425] inception_5b/output <- inception_5b/1x1
I0403 15:44:10.666132  3421 net.cpp:425] inception_5b/output <- inception_5b/3x3
I0403 15:44:10.666148  3421 net.cpp:425] inception_5b/output <- inception_5b/5x5
I0403 15:44:10.666165  3421 net.cpp:425] inception_5b/output <- inception_5b/pool_proj
I0403 15:44:10.666187  3421 net.cpp:399] inception_5b/output -> inception_5b/output
I0403 15:44:10.666244  3421 net.cpp:141] Setting up inception_5b/output
I0403 15:44:10.666276  3421 net.cpp:148] Top shape: 24 1024 7 7 (1204224)
I0403 15:44:10.666293  3421 net.cpp:156] Memory required for data: 1345864224
I0403 15:44:10.666308  3421 layer_factory.hpp:77] Creating layer pool5/7x7_s1
I0403 15:44:10.666329  3421 net.cpp:91] Creating Layer pool5/7x7_s1
I0403 15:44:10.666347  3421 net.cpp:425] pool5/7x7_s1 <- inception_5b/output
I0403 15:44:10.666365  3421 net.cpp:399] pool5/7x7_s1 -> pool5/7x7_s1
I0403 15:44:10.666589  3421 net.cpp:141] Setting up pool5/7x7_s1
I0403 15:44:10.666615  3421 net.cpp:148] Top shape: 24 1024 1 1 (24576)
I0403 15:44:10.666630  3421 net.cpp:156] Memory required for data: 1345962528
I0403 15:44:10.666645  3421 layer_factory.hpp:77] Creating layer pool5/drop_7x7_s1
I0403 15:44:10.666662  3421 net.cpp:91] Creating Layer pool5/drop_7x7_s1
I0403 15:44:10.666677  3421 net.cpp:425] pool5/drop_7x7_s1 <- pool5/7x7_s1
I0403 15:44:10.666697  3421 net.cpp:386] pool5/drop_7x7_s1 -> pool5/7x7_s1 (in-place)
I0403 15:44:10.666748  3421 net.cpp:141] Setting up pool5/drop_7x7_s1
I0403 15:44:10.666772  3421 net.cpp:148] Top shape: 24 1024 1 1 (24576)
I0403 15:44:10.666788  3421 net.cpp:156] Memory required for data: 1346060832
I0403 15:44:10.666803  3421 layer_factory.hpp:77] Creating layer loss3/classifier_plantvillage
I0403 15:44:10.666822  3421 net.cpp:91] Creating Layer loss3/classifier_plantvillage
I0403 15:44:10.666839  3421 net.cpp:425] loss3/classifier_plantvillage <- pool5/7x7_s1
I0403 15:44:10.666860  3421 net.cpp:399] loss3/classifier_plantvillage -> loss3/classifier_plantvillage
I0403 15:44:10.667304  3421 net.cpp:141] Setting up loss3/classifier_plantvillage
I0403 15:44:10.667331  3421 net.cpp:148] Top shape: 24 38 (912)
I0403 15:44:10.667348  3421 net.cpp:156] Memory required for data: 1346064480
I0403 15:44:10.667366  3421 layer_factory.hpp:77] Creating layer loss3/classifier_plantvillage_loss3/classifier_plantvillage_0_split
I0403 15:44:10.667384  3421 net.cpp:91] Creating Layer loss3/classifier_plantvillage_loss3/classifier_plantvillage_0_split
I0403 15:44:10.667400  3421 net.cpp:425] loss3/classifier_plantvillage_loss3/classifier_plantvillage_0_split <- loss3/classifier_plantvillage
I0403 15:44:10.667418  3421 net.cpp:399] loss3/classifier_plantvillage_loss3/classifier_plantvillage_0_split -> loss3/classifier_plantvillage_loss3/classifier_plantvillage_0_split_0
I0403 15:44:10.667438  3421 net.cpp:399] loss3/classifier_plantvillage_loss3/classifier_plantvillage_0_split -> loss3/classifier_plantvillage_loss3/classifier_plantvillage_0_split_1
I0403 15:44:10.667457  3421 net.cpp:399] loss3/classifier_plantvillage_loss3/classifier_plantvillage_0_split -> loss3/classifier_plantvillage_loss3/classifier_plantvillage_0_split_2
I0403 15:44:10.667479  3421 net.cpp:399] loss3/classifier_plantvillage_loss3/classifier_plantvillage_0_split -> loss3/classifier_plantvillage_loss3/classifier_plantvillage_0_split_3
I0403 15:44:10.667590  3421 net.cpp:141] Setting up loss3/classifier_plantvillage_loss3/classifier_plantvillage_0_split
I0403 15:44:10.667613  3421 net.cpp:148] Top shape: 24 38 (912)
I0403 15:44:10.667629  3421 net.cpp:148] Top shape: 24 38 (912)
I0403 15:44:10.667644  3421 net.cpp:148] Top shape: 24 38 (912)
I0403 15:44:10.667659  3421 net.cpp:148] Top shape: 24 38 (912)
I0403 15:44:10.667673  3421 net.cpp:156] Memory required for data: 1346079072
I0403 15:44:10.667687  3421 layer_factory.hpp:77] Creating layer loss1/loss
I0403 15:44:10.667709  3421 net.cpp:91] Creating Layer loss1/loss
I0403 15:44:10.667727  3421 net.cpp:425] loss1/loss <- loss1/classifier_plantvillage_loss1/classifier_plantvillage_0_split_0
I0403 15:44:10.667760  3421 net.cpp:425] loss1/loss <- label_data_1_split_0
…
