…
I0403 15:05:25.144709  2641 net.cpp:313] The NetState phase (1) differed from the phase (0) specified by a rule in layer data
I0403 15:05:25.145814  2641 net.cpp:49] Initializing net from parameters: 
state {
  phase: TEST
}
layer {
  name: "data"
  type: "Data"
  top: "data"
  top: "label"
  include {
    phase: TEST
  }
  transform_param {
    mirror: false
    crop_size: 224
    mean_file: "/home/mohanty/data/final_dataset/lmdb/grayscale-50-50/mean.binaryproto"
  }
  data_param {
    source: "/home/mohanty/data/final_dataset/lmdb/grayscale-50-50/test_db"
    batch_size: 24
    backend: LMDB
  }
}
layer {
  name: "conv1/7x7_s2"
  type: "Convolution"
  bottom: "data"
  top: "conv1/7x7_s2"
  param {
    lr_mult: 1
    decay_mult: 1
  }
  param {
    lr_mult: 2
    decay_mult: 0
  }
  convolution_param {
    num_output: 64
    pad: 3
    kernel_size: 7
    stride: 2
    weight_filler {
      type: "xavier"
      std: 0.1
    }
    bias_filler {
      type: "constant"
      value: 0.2
    }
  }
}
layer {
  name: "conv1/relu_7x7"
  type: "ReLU"
  bottom: "conv1/7x7_s2"
  top: "conv1/7x7_s2"
}
layer {
  name: "pool1/3x3_s2"
  type: "Pooling"
  bottom: "conv1/7x7_s2"
  top: "pool1/3x3_s2"
  pooling_param {
    pool: MAX
    kernel_size: 3
    stride: 2
  }
}
layer {
  name: "pool1/norm1"
  type: "LRN"
  bottom: "pool1/3x3_s2"
  top: "pool1/norm1"
  lrn_param {
    local_size: 5
    alpha: 0.0001
    beta: 0.75
  }
}
layer {
  name: "conv2/3x3_reduce"
  type: "Convolution"
  bottom: "pool1/norm1"
  top: "conv2/3x3_reduce"
  param {
    lr_mult: 1
    decay_mult: 1
  }
  param {
    lr_mult: 2
    decay_mult: 0
  }
  convolution_param {
    num_output: 64
    kernel_size: 1
    weight_filler {
      type: "xavier"
      std: 0.1
    }
    bias_filler {
      type: "constant"
      value: 0.2
    }
  }
}
layer {
  name: "conv2/relu_3x3_reduce"
  type: "ReLU"
  bottom: "conv2/3x3_reduce"
  top: "conv2/3x3_reduce"
}
layer {
  name: "conv2/3x3"
  type: "Convolution"
  bottom: "conv2/3x3_reduce"
  top: "conv2/3x3"
  param {
    lr_mult: 1
    decay_mult: 1
  }
  param {
    lr_mult: 2
    decay_mult: 0
  }
  convolution_param {
    num_output: 192
    pad: 1
    kernel_size: 3
    weight_filler {
      type: "xavier"
      std: 0.03
    }
    bias_filler {
      type: "constant"
      value: 0.2
    }
  }
}
layer {
  name: "conv2/relu_3x3"
  type: "ReLU"
  bottom: "conv2/3x3"
  top: "conv2/3x3"
}
layer {
  name: "conv2/norm2"
  type: "LRN"
  bottom: "conv2/3x3"
  top: "conv2/norm2"
  lrn_param {
    local_size: 5
    alpha: 0.0001
    beta: 0.75
  }
}
layer {
  name: "pool2/3x3_s2"
  type: "Pooling"
  bottom: "conv2/norm2"
  top: "pool2/3x3_s2"
  pooling_param {
    pool: MAX
    kernel_size: 3
    stride: 2
  }
}
layer {
  name: "inception_3a/1x1"
  type: "Convolution"
  bottom: "pool2/3x3_s2"
  top: "inception_3a/1x1"
  param {
    lr_mult: 1
    decay_mult: 1
  }
  param {
    lr_mult: 2
    decay_mult: 0
  }
  convolution_param {
    num_output: 64
    kernel_size: 1
    weight_filler {
      type: "xavier"
      std: 0.03
    }
    bias_filler {
      type: "constant"
      value: 0.2
    }
  }
}
layer {
  name: "inception_3a/relu_1x1"
  type: "ReLU"
  bottom: "inception_3a/1x1"
  top: "inception_3a/1x1"
}
layer {
  name: "inception_3a/3x3_reduce"
  type: "Convolution"
  bottom: "pool2/3x3_s2"
  top: "inception_3a/3x3_reduce"
  param {
    lr_mult: 1
    decay_mult: 1
  }
  param {
    lr_mult: 2
    decay_mult: 0
  }
  convolution_param {
    num_output: 96
    kernel_size: 1
    weight_filler {
      type: "xavier"
      std: 0.09
    }
    bias_filler {
      type: "constant"
      value: 0.2
    }
  }
}
layer {
  name: "inception_3a/relu_3x3_reduce"
  type: "ReLU"
  bottom: "inception_3a/3x3_reduce"
  top: "inception_3a/3x3_reduce"
}
layer {
  name: "inception_3a/3x3"
  type: "Convolution"
  bottom: "inception_3a/3x3_reduce"
  top: "inception_3a/3x3"
  param {
    lr_mult: 1
    decay_mult: 1
  }
  param {
    lr_mult: 2
    decay_mult: 0
  }
  convolution_param {
    num_output: 128
    pad: 1
    kernel_size: 3
    weight_filler {
      type: "xavier"
      std: 0.03
    }
    bias_filler {
      type: "constant"
      value: 0.2
    }
  }
}
layer {
  name: "inception_3a/relu_3x3"
  type: "ReLU"
  bottom: "inception_3a/3x3"
  top: "inception_3a/3x3"
}
layer {
  name: "inception_3a/5x5_reduce"
  type: "Convolution"
  bottom: "pool2/3x3_s2"
  top: "inception_3a/5x5_reduce"
  param {
    lr_mult: 1
    decay_mult: 1
  }
  param {
    lr_mult: 2
    decay_mult: 0
  }
  convolution_param {
    num_output: 16
    kernel_size: 1
    weight_filler {
      type: "xavier"
      std: 0.2
    }
    bias_filler {
      type: "constant"
      value: 0.2
    }
  }
}
layer {
  name: "inception_3a/relu_5x5_reduce"
  type: "ReLU"
  bottom: "inception_3a/5x5_reduce"
  top: "inception_3a/5x5_reduce"
}
layer {
  name: "inception_3a/5x5"
  type: "Convolution"
  bottom: "inception_3a/5x5_reduce"
  top: "inception_3a/5x5"
  param {
    lr_mult: 1
    decay_mult: 1
  }
  param {
    lr_mult: 2
    decay_mult: 0
  }
  convolution_param {
    num_output: 32
    pad: 2
    kernel_size: 5
    weight_filler {
      type: "xavier"
      std: 0.03
    }
    bias_filler {
      type: "constant"
      value: 0.2
    }
  }
}
layer {
  name: "inception_3a/relu_5x5"
  type: "ReLU"
  bottom: "inception_3a/5x5"
  top: "inception_3a/5x5"
}
layer {
  name: "inception_3a/pool"
  type: "Pooling"
  bottom: "pool2/3x3_s2"
  top: "inception_3a/pool"
  pooling_param {
    pool: MAX
    kernel_size: 3
    stride: 1
    pad: 1
  }
}
layer {
  name: "inception_3a/pool_proj"
  type: "Convolution"
  bottom: "inception_3a/pool"
  top: "inception_3a/pool_proj"
  param {
    lr_mult: 1
    decay_mult: 1
  }
  param {
    lr_mult: 2
    decay_mult: 0
  }
  convolution_param {
    num_output: 32
    kernel_size: 1
    weight_filler {
      type: "xavier"
      std: 0.1
    }
    bias_filler {
      type: "constant"
      value: 0.2
    }
  }
}
layer {
  name: "inception_3a/relu_pool_proj"
  type: "ReLU"
  bottom: "inception_3a/pool_proj"
  top: "inception_3a/pool_proj"
}
layer {
  name: "inception_3a/output"
  type: "Concat"
  bottom: "inception_3a/1x1"
  bottom: "inception_3a/3x3"
  bottom: "inception_3a/5x5"
  bottom: "inception_3a/pool_proj"
  top: "inception_3a/output"
}
layer {
  name: "inception_3b/1x1"
  type: "Convolution"
  bottom: "inception_3a/output"
  top: "inception_3b/1x1"
  param {
    lr_mult: 1
    decay_mult: 1
  }
  param {
    lr_mult: 2
    decay_mult: 0
  }
  convolution_param {
    num_output: 128
    kernel_size: 1
    weight_filler {
      type: "xavier"
      std: 0.03
    }
    bias_filler {
      type: "constant"
      value: 0.2
    }
  }
}
layer {
  name: "inception_3b/relu_1x1"
  type: "ReLU"
  bottom: "inception_3b/1x1"
  top: "inception_3b/1x1"
}
layer {
  name: "inception_3b/3x3_reduce"
  type: "Convolution"
  bottom: "inception_3a/output"
  top: "inception_3b/3x3_reduce"
  param {
    lr_mult: 1
    decay_mult: 1
  }
  param {
    lr_mult: 2
    decay_mult: 0
  }
  convolution_param {
    num_output: 128
    kernel_size: 1
    weight_filler {
      type: "xavier"
      std: 0.09
    }
    bias_filler {
      type: "constant"
      value: 0.2
    }
  }
}
layer {
  name: "inception_3b/relu_3x3_reduce"
  type: "ReLU"
  bottom: "inception_3b/3x3_reduce"
  top: "inception_3b/3x3_reduce"
}
layer {
  name: "inception_3b/3x3"
  type: "Convolution"
  bottom: "inception_3b/3x3_reduce"
  top: "inception_3b/3x3"
  param {
    lr_mult: 1
    decay_mult: 1
  }
  param {
    lr_mult: 2
    decay_mult: 0
  }
  convolution_param {
    num_output: 192
    pad: 1
    kernel_size: 3
    weight_filler {
      type: "xavier"
      std: 0.03
    }
    bias_filler {
      type: "constant"
      value: 0.2
    }
  }
}
layer {
  name: "inception_3b/relu_3x3"
  type: "ReLU"
  bottom: "inception_3b/3x3"
  top: "inception_3b/3x3"
}
layer {
  name: "inception_3b/5x5_reduce"
  type: "Convolution"
  bottom: "inception_3a/output"
  top: "inception_3b/5x5_reduce"
  param {
    lr_mult: 1
    decay_mult: 1
  }
  param {
    lr_mult: 2
    decay_mult: 0
  }
  convolution_param {
    num_output: 32
    kernel_size: 1
    weight_filler {
      type: "xavier"
      std: 0.2
    }
    bias_filler {
      type: "constant"
      value: 0.2
    }
  }
}
layer {
  name: "inception_3b/relu_5x5_reduce"
  type: "ReLU"
  bottom: "inception_3b/5x5_reduce"
  top: "inception_3b/5x5_reduce"
}
layer {
  name: "inception_3b/5x5"
  type: "Convolution"
  bottom: "inception_3b/5x5_reduce"
  top: "inception_3b/5x5"
  param {
    lr_mult: 1
    decay_mult: 1
  }
  param {
    lr_mult: 2
    decay_mult: 0
  }
  convolution_param {
    num_output: 96
    pad: 2
    kernel_size: 5
    weight_filler {
      type: "xavier"
      std: 0.03
    }
    bias_filler {
      type: "constant"
      value: 0.2
    }
  }
}
layer {
  name: "inception_3b/relu_5x5"
  type: "ReLU"
  bottom: "inception_3b/5x5"
  top: "inception_3b/5x5"
}
layer {
  name: "inception_3b/pool"
  type: "Pooling"
  bottom: "inception_3a/output"
  top: "inception_3b/pool"
  pooling_param {
    pool: MAX
    kernel_size: 3
    stride: 1
    pad: 1
  }
}
layer {
  name: "inception_3b/pool_proj"
  type: "Convolution"
  bottom: "inception_3b/pool"
  top: "inception_3b/pool_proj"
  param {
    lr_mult: 1
    decay_mult: 1
  }
  param {
    lr_mult: 2
    decay_mult: 0
  }
  convolution_param {
    num_output: 64
    kernel_size: 1
    weight_filler {
      type: "xavier"
      std: 0.1
    }
    bias_filler {
      type: "constant"
      value: 0.2
    }
  }
}
layer {
  name: "inception_3b/relu_pool_proj"
  type: "ReLU"
  bottom: "inception_3b/pool_proj"
  top: "inception_3b/pool_proj"
}
layer {
  name: "inception_3b/output"
  type: "Concat"
  bottom: "inception_3b/1x1"
  bottom: "inception_3b/3x3"
  bottom: "inception_3b/5x5"
  bottom: "inception_3b/pool_proj"
  top: "inception_3b/output"
}
layer {
  name: "pool3/3x3_s2"
  type: "Pooling"
  bottom: "inception_3b/output"
  top: "pool3/3x3_s2"
  pooling_param {
    pool: MAX
    kernel_size: 3
    stride: 2
  }
}
layer {
  name: "inception_4a/1x1"
  type: "Convolution"
  bottom: "pool3/3x3_s2"
  top: "inception_4a/1x1"
  param {
    lr_mult: 1
    decay_mult: 1
  }
  param {
    lr_mult: 2
    decay_mult: 0
  }
  convolution_param {
    num_output: 192
    kernel_size: 1
    weight_filler {
      type: "xavier"
      std: 0.03
    }
    bias_filler {
      type: "constant"
      value: 0.2
    }
  }
}
layer {
  name: "inception_4a/relu_1x1"
  type: "ReLU"
  bottom: "inception_4a/1x1"
  top: "inception_4a/1x1"
}
layer {
  name: "inception_4a/3x3_reduce"
  type: "Convolution"
  bottom: "pool3/3x3_s2"
  top: "inception_4a/3x3_reduce"
  param {
    lr_mult: 1
    decay_mult: 1
  }
  param {
    lr_mult: 2
    decay_mult: 0
  }
  convolution_param {
    num_output: 96
    kernel_size: 1
    weight_filler {
      type: "xavier"
      std: 0.09
    }
    bias_filler {
      type: "constant"
      value: 0.2
    }
  }
}
layer {
  name: "inception_4a/relu_3x3_reduce"
  type: "ReLU"
  bottom: "inception_4a/3x3_reduce"
  top: "inception_4a/3x3_reduce"
}
layer {
  name: "inception_4a/3x3"
  type: "Convolution"
  bottom: "inception_4a/3x3_reduce"
  top: "inception_4a/3x3"
  param {
    lr_mult: 1
    decay_mult: 1
  }
  param {
    lr_mult: 2
    decay_mult: 0
  }
  convolution_param {
    num_output: 208
    pad: 1
    kernel_size: 3
    weight_filler {
      type: "xavier"
      std: 0.03
    }
    bias_filler {
      type: "constant"
      value: 0.2
    }
  }
}
layer {
  name: "inception_4a/relu_3x3"
  type: "ReLU"
  bottom: "inception_4a/3x3"
  top: "inception_4a/3x3"
}
layer {
  name: "inception_4a/5x5_reduce"
  type: "Convolution"
  bottom: "pool3/3x3_s2"
  top: "inception_4a/5x5_reduce"
  param {
    lr_mult: 1
    decay_mult: 1
  }
  param {
    lr_mult: 2
    decay_mult: 0
  }
  convolution_param {
    num_output: 16
    kernel_size: 1
    weight_filler {
      type: "xavier"
      std: 0.2
    }
    bias_filler {
      type: "constant"
      value: 0.2
    }
  }
}
layer {
  name: "inception_4a/relu_5x5_reduce"
  type: "ReLU"
  bottom: "inception_4a/5x5_reduce"
  top: "inception_4a/5x5_reduce"
}
layer {
  name: "inception_4a/5x5"
  type: "Convolution"
  bottom: "inception_4a/5x5_reduce"
  top: "inception_4a/5x5"
  param {
    lr_mult: 1
    decay_mult: 1
  }
  param {
    lr_mult: 2
    decay_mult: 0
  }
  convolution_param {
    num_output: 48
    pad: 2
    kernel_size: 5
    weight_filler {
      type: "xavier"
      std: 0.03
    }
    bias_filler {
      type: "constant"
      value: 0.2
    }
  }
}
layer {
  name: "inception_4a/relu_5x5"
  type: "ReLU"
  bottom: "inception_4a/5x5"
  top: "inception_4a/5x5"
}
layer {
  name: "inception_4a/pool"
  type: "Pooling"
  bottom: "pool3/3x3_s2"
  top: "inception_4a/pool"
  pooling_param {
    pool: MAX
    kernel_size: 3
    stride: 1
    pad: 1
  }
}
layer {
  name: "inception_4a/pool_proj"
  type: "Convolution"
  bottom: "inception_4a/pool"
  top: "inception_4a/pool_proj"
  param {
    lr_mult: 1
    decay_mult: 1
  }
  param {
    lr_mult: 2
    decay_mult: 0
  }
  convolution_param {
    num_output: 64
    kernel_size: 1
    weight_filler {
      type: "xavier"
      std: 0.1
    }
    bias_filler {
      type: "constant"
      value: 0.2
    }
  }
}
layer {
  name: "inception_4a/relu_pool_proj"
  type: "ReLU"
  bottom: "inception_4a/pool_proj"
  top: "inception_4a/pool_proj"
}
layer {
  name: "inception_4a/output"
  type: "Concat"
  bottom: "inception_4a/1x1"
  bottom: "inception_4a/3x3"
  bottom: "inception_4a/5x5"
  bottom: "inception_4a/pool_proj"
  top: "inception_4a/output"
}
layer {
  name: "loss1/ave_pool"
  type: "Pooling"
  bottom: "inception_4a/output"
  top: "loss1/ave_pool"
  pooling_param {
    pool: AVE
    kernel_size: 5
    stride: 3
  }
}
layer {
  name: "loss1/conv"
  type: "Convolution"
  bottom: "loss1/ave_pool"
  top: "loss1/conv"
  param {
    lr_mult: 1
    decay_mult: 1
  }
  param {
    lr_mult: 2
    decay_mult: 0
  }
  convolution_param {
    num_output: 128
    kernel_size: 1
    weight_filler {
      type: "xavier"
      std: 0.08
    }
    bias_filler {
      type: "constant"
      value: 0.2
    }
  }
}
layer {
  name: "loss1/relu_conv"
  type: "ReLU"
  bottom: "loss1/conv"
  top: "loss1/conv"
}
layer {
  name: "loss1/fc"
  type: "InnerProduct"
  bottom: "loss1/conv"
  top: "loss1/fc"
  param {
    lr_mult: 1
    decay_mult: 1
  }
  param {
    lr_mult: 2
    decay_mult: 0
  }
  inner_product_param {
    num_output: 1024
    weight_filler {
      type: "xavier"
      std: 0.02
    }
    bias_filler {
      type: "constant"
      value: 0.2
    }
  }
}
layer {
  name: "loss1/relu_fc"
  type: "ReLU"
  bottom: "loss1/fc"
  top: "loss1/fc"
}
layer {
  name: "loss1/drop_fc"
  type: "Dropout"
  bottom: "loss1/fc"
  top: "loss1/fc"
  dropout_param {
    dropout_ratio: 0.7
  }
}
layer {
  name: "loss1/classifier_plantvillage"
  type: "InnerProduct"
  bottom: "loss1/fc"
  top: "loss1/classifier_plantvillage"
  param {
    lr_mult: 1
    decay_mult: 1
  }
  param {
    lr_mult: 2
    decay_mult: 0
  }
  inner_product_param {
    num_output: 38
    weight_filler {
      type: "xavier"
      std: 0.0009765625
    }
    bias_filler {
      type: "constant"
      value: 0
    }
  }
}
layer {
  name: "inception_4b/1x1"
  type: "Convolution"
  bottom: "inception_4a/output"
  top: "inception_4b/1x1"
  param {
    lr_mult: 1
    decay_mult: 1
  }
  param {
    lr_mult: 2
    decay_mult: 0
  }
  convolution_param {
    num_output: 160
    kernel_size: 1
    weight_filler {
      type: "xavier"
      std: 0.03
    }
    bias_filler {
      type: "constant"
      value: 0.2
    }
  }
}
layer {
  name: "inception_4b/relu_1x1"
  type: "ReLU"
  bottom: "inception_4b/1x1"
  top: "inception_4b/1x1"
}
layer {
  name: "inception_4b/3x3_reduce"
  type: "Convolution"
  bottom: "inception_4a/output"
  top: "inception_4b/3x3_reduce"
  param {
    lr_mult: 1
    decay_mult: 1
  }
  param {
    lr_mult: 2
    decay_mult: 0
  }
  convolution_param {
    num_output: 112
    kernel_size: 1
    weight_filler {
      type: "xavier"
      std: 0.09
    }
    bias_filler {
      type: "constant"
      value: 0.2
    }
  }
}
layer {
  name: "inception_4b/relu_3x3_reduce"
  type: "ReLU"
  bottom: "inception_4b/3x3_reduce"
  top: "inception_4b/3x3_reduce"
}
layer {
  name: "inception_4b/3x3"
  type: "Convolution"
  bottom: "inception_4b/3x3_reduce"
  top: "inception_4b/3x3"
  param {
    lr_mult: 1
    decay_mult: 1
  }
  param {
    lr_mult: 2
    decay_mult: 0
  }
  convolution_param {
    num_output: 224
    pad: 1
    kernel_size: 3
    weight_filler {
      type: "xavier"
      std: 0.03
    }
    bias_filler {
      type: "constant"
      value: 0.2
    }
  }
}
layer {
  name: "inception_4b/relu_3x3"
  type: "ReLU"
  bottom: "inception_4b/3x3"
  top: "inception_4b/3x3"
}
layer {
  name: "inception_4b/5x5_reduce"
  type: "Convolution"
  bottom: "inception_4a/output"
  top: "inception_4b/5x5_reduce"
  param {
    lr_mult: 1
    decay_mult: 1
  }
  param {
    lr_mult: 2
    decay_mult: 0
  }
  convolution_param {
    num_output: 24
    kernel_size: 1
    weight_filler {
      type: "xavier"
      std: 0.2
    }
    bias_filler {
      type: "constant"
      value: 0.2
    }
  }
}
layer {
  name: "inception_4b/relu_5x5_reduce"
  type: "ReLU"
  bottom: "inception_4b/5x5_reduce"
  top: "inception_4b/5x5_reduce"
}
layer {
  name: "inception_4b/5x5"
  type: "Convolution"
  bottom: "inception_4b/5x5_reduce"
  top: "inception_4b/5x5"
  param {
    lr_mult: 1
    decay_mult: 1
  }
  param {
    lr_mult: 2
    decay_mult: 0
  }
  convolution_param {
    num_output: 64
    pad: 2
    kernel_size: 5
    weight_filler {
      type: "xavier"
      std: 0.03
    }
    bias_filler {
      type: "constant"
      value: 0.2
    }
  }
}
layer {
  name: "inception_4b/relu_5x5"
  type: "ReLU"
  bottom: "inception_4b/5x5"
  top: "inception_4b/5x5"
}
layer {
  name: "inception_4b/pool"
  type: "Pooling"
  bottom: "inception_4a/output"
  top: "inception_4b/pool"
  pooling_param {
    pool: MAX
    kernel_size: 3
    stride: 1
    pad: 1
  }
}
layer {
  name: "inception_4b/pool_proj"
  type: "Convolution"
  bottom: "inception_4b/pool"
  top: "inception_4b/pool_proj"
  param {
    lr_mult: 1
    decay_mult: 1
  }
  param {
    lr_mult: 2
    decay_mult: 0
  }
  convolution_param {
    num_output: 64
    kernel_size: 1
    weight_filler {
      type: "xavier"
      std: 0.1
    }
    bias_filler {
      type: "constant"
      value: 0.2
    }
  }
}
layer {
  name: "inception_4b/relu_pool_proj"
  type: "ReLU"
  bottom: "inception_4b/pool_proj"
  top: "inception_4b/pool_proj"
}
layer {
  name: "inception_4b/output"
  type: "Concat"
  bottom: "inception_4b/1x1"
  bottom: "inception_4b/3x3"
  bottom: "inception_4b/5x5"
  bottom: "inception_4b/pool_proj"
  top: "inception_4b/output"
}
layer {
  name: "inception_4c/1x1"
  type: "Convolution"
  bottom: "inception_4b/output"
  top: "inception_4c/1x1"
  param {
    lr_mult: 1
    decay_mult: 1
  }
  param {
    lr_mult: 2
    decay_mult: 0
  }
  convolution_param {
    num_output: 128
    kernel_size: 1
    weight_filler {
      type: "xavier"
      std: 0.03
    }
    bias_filler {
      type: "constant"
      value: 0.2
    }
  }
}
layer {
  name: "inception_4c/relu_1x1"
  type: "ReLU"
  bottom: "inception_4c/1x1"
  top: "inception_4c/1x1"
}
layer {
  name: "inception_4c/3x3_reduce"
  type: "Convolution"
  bottom: "inception_4b/output"
  top: "inception_4c/3x3_reduce"
  param {
    lr_mult: 1
    decay_mult: 1
  }
  param {
    lr_mult: 2
    decay_mult: 0
  }
  convolution_param {
    num_output: 128
    kernel_size: 1
    weight_filler {
      type: "xavier"
      std: 0.09
    }
    bias_filler {
      type: "constant"
      value: 0.2
    }
  }
}
layer {
  name: "inception_4c/relu_3x3_reduce"
  type: "ReLU"
  bottom: "inception_4c/3x3_reduce"
  top: "inception_4c/3x3_reduce"
}
layer {
  name: "inception_4c/3x3"
  type: "Convolution"
  bottom: "inception_4c/3x3_reduce"
  top: "inception_4c/3x3"
  param {
    lr_mult: 1
    decay_mult: 1
  }
  param {
    lr_mult: 2
    decay_mult: 0
  }
  convolution_param {
    num_output: 256
    pad: 1
    kernel_size: 3
    weight_filler {
      type: "xavier"
      std: 0.03
    }
    bias_filler {
      type: "constant"
      value: 0.2
    }
  }
}
layer {
  name: "inception_4c/relu_3x3"
  type: "ReLU"
  bottom: "inception_4c/3x3"
  top: "inception_4c/3x3"
}
layer {
  name: "inception_4c/5x5_reduce"
  type: "Convolution"
  bottom: "inception_4b/output"
  top: "inception_4c/5x5_reduce"
  param {
    lr_mult: 1
    decay_mult: 1
  }
  param {
    lr_mult: 2
    decay_mult: 0
  }
  convolution_param {
    num_output: 24
    kernel_size: 1
    weight_filler {
      type: "xavier"
      std: 0.2
    }
    bias_filler {
      type: "constant"
      value: 0.2
    }
  }
}
layer {
  name: "inception_4c/relu_5x5_reduce"
  type: "ReLU"
  bottom: "inception_4c/5x5_reduce"
  top: "inception_4c/5x5_reduce"
}
layer {
  name: "inception_4c/5x5"
  type: "Convolution"
  bottom: "inception_4c/5x5_reduce"
  top: "inception_4c/5x5"
  param {
    lr_mult: 1
    decay_mult: 1
  }
  param {
    lr_mult: 2
    decay_mult: 0
  }
  convolution_param {
    num_output: 64
    pad: 2
    kernel_size: 5
    weight_filler {
      type: "xavier"
      std: 0.03
    }
    bias_filler {
      type: "constant"
      value: 0.2
    }
  }
}
layer {
  name: "inception_4c/relu_5x5"
  type: "ReLU"
  bottom: "inception_4c/5x5"
  top: "inception_4c/5x5"
}
layer {
  name: "inception_4c/pool"
  type: "Pooling"
  bottom: "inception_4b/output"
  top: "inception_4c/pool"
  pooling_param {
    pool: MAX
    kernel_size: 3
    stride: 1
    pad: 1
  }
}
layer {
  name: "inception_4c/pool_proj"
  type: "Convolution"
  bottom: "inception_4c/pool"
  top: "inception_4c/pool_proj"
  param {
    lr_mult: 1
    decay_mult: 1
  }
  param {
    lr_mult: 2
    decay_mult: 0
  }
  convolution_param {
    num_output: 64
    kernel_size: 1
    weight_filler {
      type: "xavier"
      std: 0.1
    }
    bias_filler {
      type: "constant"
      value: 0.2
    }
  }
}
layer {
  name: "inception_4c/relu_pool_proj"
  type: "ReLU"
  bottom: "inception_4c/pool_proj"
  top: "inception_4c/pool_proj"
}
layer {
  name: "inception_4c/output"
  type: "Concat"
  bottom: "inception_4c/1x1"
  bottom: "inception_4c/3x3"
  bottom: "inception_4c/5x5"
  bottom: "inception_4c/pool_proj"
  top: "inception_4c/output"
}
layer {
  name: "inception_4d/1x1"
  type: "Convolution"
  bottom: "inception_4c/output"
  top: "inception_4d/1x1"
  param {
    lr_mult: 1
    decay_mult: 1
  }
  param {
    lr_mult: 2
    decay_mult: 0
  }
  convolution_param {
    num_output: 112
    kernel_size: 1
    weight_filler {
      type: "xavier"
      std: 0.03
    }
    bias_filler {
      type: "constant"
      value: 0.2
    }
  }
}
layer {
  name: "inception_4d/relu_1x1"
  type: "ReLU"
  bottom: "inception_4d/1x1"
  top: "inception_4d/1x1"
}
layer {
  name: "inception_4d/3x3_reduce"
  type: "Convolution"
  bottom: "inception_4c/output"
  top: "inception_4d/3x3_reduce"
  param {
    lr_mult: 1
    decay_mult: 1
  }
  param {
    lr_mult: 2
    decay_mult: 0
  }
  convolution_param {
    num_output: 144
    kernel_size: 1
    weight_filler {
      type: "xavier"
      std: 0.09
    }
    bias_filler {
      type: "constant"
      value: 0.2
    }
  }
}
layer {
  name: "inception_4d/relu_3x3_reduce"
  type: "ReLU"
  bottom: "inception_4d/3x3_reduce"
  top: "inception_4d/3x3_reduce"
}
layer {
  name: "inception_4d/3x3"
  type: "Convolution"
  bottom: "inception_4d/3x3_reduce"
  top: "inception_4d/3x3"
  param {
    lr_mult: 1
    decay_mult: 1
  }
  param {
    lr_mult: 2
    decay_mult: 0
  }
  convolution_param {
    num_output: 288
    pad: 1
    kernel_size: 3
    weight_filler {
      type: "xavier"
      std: 0.03
    }
    bias_filler {
      type: "constant"
      value: 0.2
    }
  }
}
layer {
  name: "inception_4d/relu_3x3"
  type: "ReLU"
  bottom: "inception_4d/3x3"
  top: "inception_4d/3x3"
}
layer {
  name: "inception_4d/5x5_reduce"
  type: "Convolution"
  bottom: "inception_4c/output"
  top: "inception_4d/5x5_reduce"
  param {
    lr_mult: 1
    decay_mult: 1
  }
  param {
    lr_mult: 2
    decay_mult: 0
  }
  convolution_param {
    num_output: 32
    kernel_size: 1
    weight_filler {
      type: "xavier"
      std: 0.2
    }
    bias_filler {
      type: "constant"
      value: 0.2
    }
  }
}
layer {
  name: "inception_4d/relu_5x5_reduce"
  type: "ReLU"
  bottom: "inception_4d/5x5_reduce"
  top: "inception_4d/5x5_reduce"
}
layer {
  name: "inception_4d/5x5"
  type: "Convolution"
  bottom: "inception_4d/5x5_reduce"
  top: "inception_4d/5x5"
  param {
    lr_mult: 1
    decay_mult: 1
  }
  param {
    lr_mult: 2
    decay_mult: 0
  }
  convolution_param {
    num_output: 64
    pad: 2
    kernel_size: 5
    weight_filler {
      type: "xavier"
      std: 0.03
    }
    bias_filler {
      type: "constant"
      value: 0.2
    }
  }
}
layer {
  name: "inception_4d/relu_5x5"
  type: "ReLU"
  bottom: "inception_4d/5x5"
  top: "inception_4d/5x5"
}
layer {
  name: "inception_4d/pool"
  type: "Pooling"
  bottom: "inception_4c/output"
  top: "inception_4d/pool"
  pooling_param {
    pool: MAX
    kernel_size: 3
    stride: 1
    pad: 1
  }
}
layer {
  name: "inception_4d/pool_proj"
  type: "Convolution"
  bottom: "inception_4d/pool"
  top: "inception_4d/pool_proj"
  param {
    lr_mult: 1
    decay_mult: 1
  }
  param {
    lr_mult: 2
    decay_mult: 0
  }
  convolution_param {
    num_output: 64
    kernel_size: 1
    weight_filler {
      type: "xavier"
      std: 0.1
    }
    bias_filler {
      type: "constant"
      value: 0.2
    }
  }
}
layer {
  name: "inception_4d/relu_pool_proj"
  type: "ReLU"
  bottom: "inception_4d/pool_proj"
  top: "inception_4d/pool_proj"
}
layer {
  name: "inception_4d/output"
  type: "Concat"
  bottom: "inception_4d/1x1"
  bottom: "inception_4d/3x3"
  bottom: "inception_4d/5x5"
  bottom: "inception_4d/pool_proj"
  top: "inception_4d/output"
}
layer {
  name: "loss2/ave_pool"
  type: "Pooling"
  bottom: "inception_4d/output"
  top: "loss2/ave_pool"
  pooling_param {
    pool: AVE
    kernel_size: 5
    stride: 3
  }
}
layer {
  name: "loss2/conv"
  type: "Convolution"
  bottom: "loss2/ave_pool"
  top: "loss2/conv"
  param {
    lr_mult: 1
    decay_mult: 1
  }
  param {
    lr_mult: 2
    decay_mult: 0
  }
  convolution_param {
    num_output: 128
    kernel_size: 1
    weight_filler {
      type: "xavier"
      std: 0.08
    }
    bias_filler {
      type: "constant"
      value: 0.2
    }
  }
}
layer {
  name: "loss2/relu_conv"
  type: "ReLU"
  bottom: "loss2/conv"
  top: "loss2/conv"
}
layer {
  name: "loss2/fc"
  type: "InnerProduct"
  bottom: "loss2/conv"
  top: "loss2/fc"
  param {
    lr_mult: 1
    decay_mult: 1
  }
  param {
    lr_mult: 2
    decay_mult: 0
  }
  inner_product_param {
    num_output: 1024
    weight_filler {
      type: "xavier"
      std: 0.02
    }
    bias_filler {
      type: "constant"
      value: 0.2
    }
  }
}
layer {
  name: "loss2/relu_fc"
  type: "ReLU"
  bottom: "loss2/fc"
  top: "loss2/fc"
}
layer {
  name: "loss2/drop_fc"
  type: "Dropout"
  bottom: "loss2/fc"
  top: "loss2/fc"
  dropout_param {
    dropout_ratio: 0.7
  }
}
layer {
  name: "loss2/classifier_plantvillage"
  type: "InnerProduct"
  bottom: "loss2/fc"
  top: "loss2/classifier_plantvillage"
  param {
    lr_mult: 1
    decay_mult: 1
  }
  param {
    lr_mult: 2
    decay_mult: 0
  }
  inner_product_param {
    num_output: 38
    weight_filler {
      type: "xavier"
      std: 0.0009765625
    }
    bias_filler {
      type: "constant"
      value: 0
    }
  }
}
layer {
  name: "inception_4e/1x1"
  type: "Convolution"
  bottom: "inception_4d/output"
  top: "inception_4e/1x1"
  param {
    lr_mult: 1
    decay_mult: 1
  }
  param {
    lr_mult: 2
    decay_mult: 0
  }
  convolution_param {
    num_output: 256
    kernel_size: 1
    weight_filler {
      type: "xavier"
      std: 0.03
    }
    bias_filler {
      type: "constant"
      value: 0.2
    }
  }
}
layer {
  name: "inception_4e/relu_1x1"
  type: "ReLU"
  bottom: "inception_4e/1x1"
  top: "inception_4e/1x1"
}
layer {
  name: "inception_4e/3x3_reduce"
  type: "Convolution"
  bottom: "inception_4d/output"
  top: "inception_4e/3x3_reduce"
  param {
    lr_mult: 1
    decay_mult: 1
  }
  param {
    lr_mult: 2
    decay_mult: 0
  }
  convolution_param {
    num_output: 160
    kernel_size: 1
    weight_filler {
      type: "xavier"
      std: 0.09
    }
    bias_filler {
      type: "constant"
      value: 0.2
    }
  }
}
layer {
  name: "inception_4e/relu_3x3_reduce"
  type: "ReLU"
  bottom: "inception_4e/3x3_reduce"
  top: "inception_4e/3x3_reduce"
}
layer {
  name: "inception_4e/3x3"
  type: "Convolution"
  bottom: "inception_4e/3x3_reduce"
  top: "inception_4e/3x3"
  param {
    lr_mult: 1
    decay_mult: 1
  }
  param {
    lr_mult: 2
    decay_mult: 0
  }
  convolution_param {
    num_output: 320
    pad: 1
    kernel_size: 3
    weight_filler {
      type: "xavier"
      std: 0.03
    }
    bias_filler {
      type: "constant"
      value: 0.2
    }
  }
}
layer {
  name: "inception_4e/relu_3x3"
  type: "ReLU"
  bottom: "inception_4e/3x3"
  top: "inception_4e/3x3"
}
layer {
  name: "inception_4e/5x5_reduce"
  type: "Convolution"
  bottom: "inception_4d/output"
  top: "inception_4e/5x5_reduce"
  param {
    lr_mult: 1
    decay_mult: 1
  }
  param {
    lr_mult: 2
    decay_mult: 0
  }
  convolution_param {
    num_output: 32
    kernel_size: 1
    weight_filler {
      type: "xavier"
      std: 0.2
    }
    bias_filler {
      type: "constant"
      value: 0.2
    }
  }
}
layer {
  name: "inception_4e/relu_5x5_reduce"
  type: "ReLU"
  bottom: "inception_4e/5x5_reduce"
  top: "inception_4e/5x5_reduce"
}
layer {
  name: "inception_4e/5x5"
  type: "Convolution"
  bottom: "inception_4e/5x5_reduce"
  top: "inception_4e/
I0403 15:05:25.147099  2641 layer_factory.hpp:77] Creating layer data
I0403 15:05:25.147702  2641 net.cpp:91] Creating Layer data
I0403 15:05:25.147732  2641 net.cpp:399] data -> data
I0403 15:05:25.147794  2641 net.cpp:399] data -> label
I0403 15:05:25.147830  2641 data_transformer.cpp:25] Loading mean file from: /home/mohanty/data/final_dataset/lmdb/grayscale-50-50/mean.binaryproto
I0403 15:05:25.152700  2644 db_lmdb.cpp:38] Opened lmdb /home/mohanty/data/final_dataset/lmdb/grayscale-50-50/test_db
I0403 15:05:25.161204  2641 data_layer.cpp:41] output data size: 24,3,224,224
I0403 15:05:25.187798  2641 net.cpp:141] Setting up data
I0403 15:05:25.187876  2641 net.cpp:148] Top shape: 24 3 224 224 (3612672)
I0403 15:05:25.187898  2641 net.cpp:148] Top shape: 24 (24)
I0403 15:05:25.187913  2641 net.cpp:156] Memory required for data: 14450784
I0403 15:05:25.187939  2641 layer_factory.hpp:77] Creating layer label_data_1_split
I0403 15:05:25.187965  2641 net.cpp:91] Creating Layer label_data_1_split
I0403 15:05:25.187983  2641 net.cpp:425] label_data_1_split <- label
I0403 15:05:25.188014  2641 net.cpp:399] label_data_1_split -> label_data_1_split_0
I0403 15:05:25.188040  2641 net.cpp:399] label_data_1_split -> label_data_1_split_1
I0403 15:05:25.188060  2641 net.cpp:399] label_data_1_split -> label_data_1_split_2
I0403 15:05:25.188081  2641 net.cpp:399] label_data_1_split -> label_data_1_split_3
I0403 15:05:25.188100  2641 net.cpp:399] label_data_1_split -> label_data_1_split_4
I0403 15:05:25.188120  2641 net.cpp:399] label_data_1_split -> label_data_1_split_5
I0403 15:05:25.188140  2641 net.cpp:399] label_data_1_split -> label_data_1_split_6
I0403 15:05:25.188160  2641 net.cpp:399] label_data_1_split -> label_data_1_split_7
I0403 15:05:25.188179  2641 net.cpp:399] label_data_1_split -> label_data_1_split_8
I0403 15:05:25.188199  2641 net.cpp:399] label_data_1_split -> label_data_1_split_9
I0403 15:05:25.188320  2641 net.cpp:141] Setting up label_data_1_split
I0403 15:05:25.188344  2641 net.cpp:148] Top shape: 24 (24)
I0403 15:05:25.188361  2641 net.cpp:148] Top shape: 24 (24)
I0403 15:05:25.188377  2641 net.cpp:148] Top shape: 24 (24)
I0403 15:05:25.188392  2641 net.cpp:148] Top shape: 24 (24)
I0403 15:05:25.188407  2641 net.cpp:148] Top shape: 24 (24)
I0403 15:05:25.188423  2641 net.cpp:148] Top shape: 24 (24)
I0403 15:05:25.188439  2641 net.cpp:148] Top shape: 24 (24)
I0403 15:05:25.188454  2641 net.cpp:148] Top shape: 24 (24)
I0403 15:05:25.188469  2641 net.cpp:148] Top shape: 24 (24)
I0403 15:05:25.188484  2641 net.cpp:148] Top shape: 24 (24)
I0403 15:05:25.188527  2641 net.cpp:156] Memory required for data: 14451744
I0403 15:05:25.188544  2641 layer_factory.hpp:77] Creating layer conv1/7x7_s2
I0403 15:05:25.188575  2641 net.cpp:91] Creating Layer conv1/7x7_s2
I0403 15:05:25.188592  2641 net.cpp:425] conv1/7x7_s2 <- data
I0403 15:05:25.188612  2641 net.cpp:399] conv1/7x7_s2 -> conv1/7x7_s2
I0403 15:05:25.327821  2641 net.cpp:141] Setting up conv1/7x7_s2
I0403 15:05:25.327888  2641 net.cpp:148] Top shape: 24 64 112 112 (19267584)
I0403 15:05:25.327905  2641 net.cpp:156] Memory required for data: 91522080
I0403 15:05:25.327937  2641 layer_factory.hpp:77] Creating layer conv1/relu_7x7
I0403 15:05:25.327965  2641 net.cpp:91] Creating Layer conv1/relu_7x7
I0403 15:05:25.327983  2641 net.cpp:425] conv1/relu_7x7 <- conv1/7x7_s2
I0403 15:05:25.328001  2641 net.cpp:386] conv1/relu_7x7 -> conv1/7x7_s2 (in-place)
I0403 15:05:25.328256  2641 net.cpp:141] Setting up conv1/relu_7x7
I0403 15:05:25.328284  2641 net.cpp:148] Top shape: 24 64 112 112 (19267584)
I0403 15:05:25.328299  2641 net.cpp:156] Memory required for data: 168592416
I0403 15:05:25.328313  2641 layer_factory.hpp:77] Creating layer pool1/3x3_s2
I0403 15:05:25.328384  2641 net.cpp:91] Creating Layer pool1/3x3_s2
I0403 15:05:25.328405  2641 net.cpp:425] pool1/3x3_s2 <- conv1/7x7_s2
I0403 15:05:25.328424  2641 net.cpp:399] pool1/3x3_s2 -> pool1/3x3_s2
I0403 15:05:25.328496  2641 net.cpp:141] Setting up pool1/3x3_s2
I0403 15:05:25.328521  2641 net.cpp:148] Top shape: 24 64 56 56 (4816896)
I0403 15:05:25.328536  2641 net.cpp:156] Memory required for data: 187860000
I0403 15:05:25.328550  2641 layer_factory.hpp:77] Creating layer pool1/norm1
I0403 15:05:25.328574  2641 net.cpp:91] Creating Layer pool1/norm1
I0403 15:05:25.328591  2641 net.cpp:425] pool1/norm1 <- pool1/3x3_s2
I0403 15:05:25.328609  2641 net.cpp:399] pool1/norm1 -> pool1/norm1
I0403 15:05:25.328888  2641 net.cpp:141] Setting up pool1/norm1
I0403 15:05:25.328915  2641 net.cpp:148] Top shape: 24 64 56 56 (4816896)
I0403 15:05:25.328930  2641 net.cpp:156] Memory required for data: 207127584
I0403 15:05:25.328945  2641 layer_factory.hpp:77] Creating layer conv2/3x3_reduce
I0403 15:05:25.328969  2641 net.cpp:91] Creating Layer conv2/3x3_reduce
I0403 15:05:25.328985  2641 net.cpp:425] conv2/3x3_reduce <- pool1/norm1
I0403 15:05:25.329005  2641 net.cpp:399] conv2/3x3_reduce -> conv2/3x3_reduce
I0403 15:05:25.330384  2641 net.cpp:141] Setting up conv2/3x3_reduce
I0403 15:05:25.330415  2641 net.cpp:148] Top shape: 24 64 56 56 (4816896)
I0403 15:05:25.330430  2641 net.cpp:156] Memory required for data: 226395168
I0403 15:05:25.330451  2641 layer_factory.hpp:77] Creating layer conv2/relu_3x3_reduce
I0403 15:05:25.330471  2641 net.cpp:91] Creating Layer conv2/relu_3x3_reduce
I0403 15:05:25.330487  2641 net.cpp:425] conv2/relu_3x3_reduce <- conv2/3x3_reduce
I0403 15:05:25.330503  2641 net.cpp:386] conv2/relu_3x3_reduce -> conv2/3x3_reduce (in-place)
I0403 15:05:25.330757  2641 net.cpp:141] Setting up conv2/relu_3x3_reduce
I0403 15:05:25.330783  2641 net.cpp:148] Top shape: 24 64 56 56 (4816896)
I0403 15:05:25.330799  2641 net.cpp:156] Memory required for data: 245662752
I0403 15:05:25.330814  2641 layer_factory.hpp:77] Creating layer conv2/3x3
I0403 15:05:25.330837  2641 net.cpp:91] Creating Layer conv2/3x3
I0403 15:05:25.330853  2641 net.cpp:425] conv2/3x3 <- conv2/3x3_reduce
I0403 15:05:25.330871  2641 net.cpp:399] conv2/3x3 -> conv2/3x3
I0403 15:05:25.333148  2641 net.cpp:141] Setting up conv2/3x3
I0403 15:05:25.333178  2641 net.cpp:148] Top shape: 24 192 56 56 (14450688)
I0403 15:05:25.333195  2641 net.cpp:156] Memory required for data: 303465504
I0403 15:05:25.333252  2641 layer_factory.hpp:77] Creating layer conv2/relu_3x3
I0403 15:05:25.333274  2641 net.cpp:91] Creating Layer conv2/relu_3x3
I0403 15:05:25.333290  2641 net.cpp:425] conv2/relu_3x3 <- conv2/3x3
I0403 15:05:25.333310  2641 net.cpp:386] conv2/relu_3x3 -> conv2/3x3 (in-place)
I0403 15:05:25.333487  2641 net.cpp:141] Setting up conv2/relu_3x3
I0403 15:05:25.333513  2641 net.cpp:148] Top shape: 24 192 56 56 (14450688)
I0403 15:05:25.333554  2641 net.cpp:156] Memory required for data: 361268256
I0403 15:05:25.333570  2641 layer_factory.hpp:77] Creating layer conv2/norm2
I0403 15:05:25.333590  2641 net.cpp:91] Creating Layer conv2/norm2
I0403 15:05:25.333606  2641 net.cpp:425] conv2/norm2 <- conv2/3x3
I0403 15:05:25.333624  2641 net.cpp:399] conv2/norm2 -> conv2/norm2
I0403 15:05:25.333936  2641 net.cpp:141] Setting up conv2/norm2
I0403 15:05:25.333966  2641 net.cpp:148] Top shape: 24 192 56 56 (14450688)
I0403 15:05:25.333982  2641 net.cpp:156] Memory required for data: 419071008
I0403 15:05:25.333997  2641 layer_factory.hpp:77] Creating layer pool2/3x3_s2
I0403 15:05:25.334014  2641 net.cpp:91] Creating Layer pool2/3x3_s2
I0403 15:05:25.334029  2641 net.cpp:425] pool2/3x3_s2 <- conv2/norm2
I0403 15:05:25.334049  2641 net.cpp:399] pool2/3x3_s2 -> pool2/3x3_s2
I0403 15:05:25.334103  2641 net.cpp:141] Setting up pool2/3x3_s2
I0403 15:05:25.334126  2641 net.cpp:148] Top shape: 24 192 28 28 (3612672)
I0403 15:05:25.334141  2641 net.cpp:156] Memory required for data: 433521696
I0403 15:05:25.334156  2641 layer_factory.hpp:77] Creating layer pool2/3x3_s2_pool2/3x3_s2_0_split
I0403 15:05:25.334177  2641 net.cpp:91] Creating Layer pool2/3x3_s2_pool2/3x3_s2_0_split
I0403 15:05:25.334192  2641 net.cpp:425] pool2/3x3_s2_pool2/3x3_s2_0_split <- pool2/3x3_s2
I0403 15:05:25.334209  2641 net.cpp:399] pool2/3x3_s2_pool2/3x3_s2_0_split -> pool2/3x3_s2_pool2/3x3_s2_0_split_0
I0403 15:05:25.334229  2641 net.cpp:399] pool2/3x3_s2_pool2/3x3_s2_0_split -> pool2/3x3_s2_pool2/3x3_s2_0_split_1
I0403 15:05:25.334257  2641 net.cpp:399] pool2/3x3_s2_pool2/3x3_s2_0_split -> pool2/3x3_s2_pool2/3x3_s2_0_split_2
I0403 15:05:25.334280  2641 net.cpp:399] pool2/3x3_s2_pool2/3x3_s2_0_split -> pool2/3x3_s2_pool2/3x3_s2_0_split_3
I0403 15:05:25.334349  2641 net.cpp:141] Setting up pool2/3x3_s2_pool2/3x3_s2_0_split
I0403 15:05:25.334372  2641 net.cpp:148] Top shape: 24 192 28 28 (3612672)
I0403 15:05:25.334388  2641 net.cpp:148] Top shape: 24 192 28 28 (3612672)
I0403 15:05:25.334404  2641 net.cpp:148] Top shape: 24 192 28 28 (3612672)
I0403 15:05:25.334419  2641 net.cpp:148] Top shape: 24 192 28 28 (3612672)
I0403 15:05:25.334434  2641 net.cpp:156] Memory required for data: 491324448
I0403 15:05:25.334447  2641 layer_factory.hpp:77] Creating layer inception_3a/1x1
I0403 15:05:25.334470  2641 net.cpp:91] Creating Layer inception_3a/1x1
I0403 15:05:25.334486  2641 net.cpp:425] inception_3a/1x1 <- pool2/3x3_s2_pool2/3x3_s2_0_split_0
I0403 15:05:25.334507  2641 net.cpp:399] inception_3a/1x1 -> inception_3a/1x1
I0403 15:05:25.336072  2641 net.cpp:141] Setting up inception_3a/1x1
I0403 15:05:25.336104  2641 net.cpp:148] Top shape: 24 64 28 28 (1204224)
I0403 15:05:25.336120  2641 net.cpp:156] Memory required for data: 496141344
I0403 15:05:25.336140  2641 layer_factory.hpp:77] Creating layer inception_3a/relu_1x1
I0403 15:05:25.336158  2641 net.cpp:91] Creating Layer inception_3a/relu_1x1
I0403 15:05:25.336174  2641 net.cpp:425] inception_3a/relu_1x1 <- inception_3a/1x1
I0403 15:05:25.336194  2641 net.cpp:386] inception_3a/relu_1x1 -> inception_3a/1x1 (in-place)
I0403 15:05:25.336374  2641 net.cpp:141] Setting up inception_3a/relu_1x1
I0403 15:05:25.336398  2641 net.cpp:148] Top shape: 24 64 28 28 (1204224)
I0403 15:05:25.336413  2641 net.cpp:156] Memory required for data: 500958240
I0403 15:05:25.336428  2641 layer_factory.hpp:77] Creating layer inception_3a/3x3_reduce
I0403 15:05:25.336452  2641 net.cpp:91] Creating Layer inception_3a/3x3_reduce
I0403 15:05:25.336469  2641 net.cpp:425] inception_3a/3x3_reduce <- pool2/3x3_s2_pool2/3x3_s2_0_split_1
I0403 15:05:25.336490  2641 net.cpp:399] inception_3a/3x3_reduce -> inception_3a/3x3_reduce
I0403 15:05:25.338225  2641 net.cpp:141] Setting up inception_3a/3x3_reduce
I0403 15:05:25.338258  2641 net.cpp:148] Top shape: 24 96 28 28 (1806336)
I0403 15:05:25.338274  2641 net.cpp:156] Memory required for data: 508183584
I0403 15:05:25.338295  2641 layer_factory.hpp:77] Creating layer inception_3a/relu_3x3_reduce
I0403 15:05:25.338332  2641 net.cpp:91] Creating Layer inception_3a/relu_3x3_reduce
I0403 15:05:25.338351  2641 net.cpp:425] inception_3a/relu_3x3_reduce <- inception_3a/3x3_reduce
I0403 15:05:25.338368  2641 net.cpp:386] inception_3a/relu_3x3_reduce -> inception_3a/3x3_reduce (in-place)
I0403 15:05:25.338551  2641 net.cpp:141] Setting up inception_3a/relu_3x3_reduce
I0403 15:05:25.338578  2641 net.cpp:148] Top shape: 24 96 28 28 (1806336)
I0403 15:05:25.338593  2641 net.cpp:156] Memory required for data: 515408928
I0403 15:05:25.338608  2641 layer_factory.hpp:77] Creating layer inception_3a/3x3
I0403 15:05:25.338630  2641 net.cpp:91] Creating Layer inception_3a/3x3
I0403 15:05:25.338647  2641 net.cpp:425] inception_3a/3x3 <- inception_3a/3x3_reduce
I0403 15:05:25.338666  2641 net.cpp:399] inception_3a/3x3 -> inception_3a/3x3
I0403 15:05:25.340318  2641 net.cpp:141] Setting up inception_3a/3x3
I0403 15:05:25.340348  2641 net.cpp:148] Top shape: 24 128 28 28 (2408448)
I0403 15:05:25.340363  2641 net.cpp:156] Memory required for data: 525042720
I0403 15:05:25.340381  2641 layer_factory.hpp:77] Creating layer inception_3a/relu_3x3
I0403 15:05:25.340401  2641 net.cpp:91] Creating Layer inception_3a/relu_3x3
I0403 15:05:25.340418  2641 net.cpp:425] inception_3a/relu_3x3 <- inception_3a/3x3
I0403 15:05:25.340436  2641 net.cpp:386] inception_3a/relu_3x3 -> inception_3a/3x3 (in-place)
I0403 15:05:25.340708  2641 net.cpp:141] Setting up inception_3a/relu_3x3
I0403 15:05:25.340734  2641 net.cpp:148] Top shape: 24 128 28 28 (2408448)
I0403 15:05:25.340749  2641 net.cpp:156] Memory required for data: 534676512
I0403 15:05:25.340764  2641 layer_factory.hpp:77] Creating layer inception_3a/5x5_reduce
I0403 15:05:25.340785  2641 net.cpp:91] Creating Layer inception_3a/5x5_reduce
I0403 15:05:25.340803  2641 net.cpp:425] inception_3a/5x5_reduce <- pool2/3x3_s2_pool2/3x3_s2_0_split_2
I0403 15:05:25.340824  2641 net.cpp:399] inception_3a/5x5_reduce -> inception_3a/5x5_reduce
I0403 15:05:25.341778  2641 net.cpp:141] Setting up inception_3a/5x5_reduce
I0403 15:05:25.341805  2641 net.cpp:148] Top shape: 24 16 28 28 (301056)
I0403 15:05:25.341820  2641 net.cpp:156] Memory required for data: 535880736
I0403 15:05:25.341840  2641 layer_factory.hpp:77] Creating layer inception_3a/relu_5x5_reduce
I0403 15:05:25.341859  2641 net.cpp:91] Creating Layer inception_3a/relu_5x5_reduce
I0403 15:05:25.341876  2641 net.cpp:425] inception_3a/relu_5x5_reduce <- inception_3a/5x5_reduce
I0403 15:05:25.341893  2641 net.cpp:386] inception_3a/relu_5x5_reduce -> inception_3a/5x5_reduce (in-place)
I0403 15:05:25.342191  2641 net.cpp:141] Setting up inception_3a/relu_5x5_reduce
I0403 15:05:25.342217  2641 net.cpp:148] Top shape: 24 16 28 28 (301056)
I0403 15:05:25.342232  2641 net.cpp:156] Memory required for data: 537084960
I0403 15:05:25.342259  2641 layer_factory.hpp:77] Creating layer inception_3a/5x5
I0403 15:05:25.342284  2641 net.cpp:91] Creating Layer inception_3a/5x5
I0403 15:05:25.342301  2641 net.cpp:425] inception_3a/5x5 <- inception_3a/5x5_reduce
I0403 15:05:25.342322  2641 net.cpp:399] inception_3a/5x5 -> inception_3a/5x5
I0403 15:05:25.343327  2641 net.cpp:141] Setting up inception_3a/5x5
I0403 15:05:25.343353  2641 net.cpp:148] Top shape: 24 32 28 28 (602112)
I0403 15:05:25.343369  2641 net.cpp:156] Memory required for data: 539493408
I0403 15:05:25.343389  2641 layer_factory.hpp:77] Creating layer inception_3a/relu_5x5
I0403 15:05:25.343406  2641 net.cpp:91] Creating Layer inception_3a/relu_5x5
I0403 15:05:25.343422  2641 net.cpp:425] inception_3a/relu_5x5 <- inception_3a/5x5
I0403 15:05:25.343441  2641 net.cpp:386] inception_3a/relu_5x5 -> inception_3a/5x5 (in-place)
I0403 15:05:25.343621  2641 net.cpp:141] Setting up inception_3a/relu_5x5
I0403 15:05:25.343647  2641 net.cpp:148] Top shape: 24 32 28 28 (602112)
I0403 15:05:25.343662  2641 net.cpp:156] Memory required for data: 541901856
I0403 15:05:25.343675  2641 layer_factory.hpp:77] Creating layer inception_3a/pool
I0403 15:05:25.343695  2641 net.cpp:91] Creating Layer inception_3a/pool
I0403 15:05:25.343727  2641 net.cpp:425] inception_3a/pool <- pool2/3x3_s2_pool2/3x3_s2_0_split_3
I0403 15:05:25.343746  2641 net.cpp:399] inception_3a/pool -> inception_3a/pool
I0403 15:05:25.343804  2641 net.cpp:141] Setting up inception_3a/pool
I0403 15:05:25.343827  2641 net.cpp:148] Top shape: 24 192 28 28 (3612672)
I0403 15:05:25.343842  2641 net.cpp:156] Memory required for data: 556352544
I0403 15:05:25.343857  2641 layer_factory.hpp:77] Creating layer inception_3a/pool_proj
I0403 15:05:25.343878  2641 net.cpp:91] Creating Layer inception_3a/pool_proj
I0403 15:05:25.343895  2641 net.cpp:425] inception_3a/pool_proj <- inception_3a/pool
I0403 15:05:25.343916  2641 net.cpp:399] inception_3a/pool_proj -> inception_3a/pool_proj
I0403 15:05:25.344924  2641 net.cpp:141] Setting up inception_3a/pool_proj
I0403 15:05:25.344955  2641 net.cpp:148] Top shape: 24 32 28 28 (602112)
I0403 15:05:25.344972  2641 net.cpp:156] Memory required for data: 558760992
I0403 15:05:25.344995  2641 layer_factory.hpp:77] Creating layer inception_3a/relu_pool_proj
I0403 15:05:25.345017  2641 net.cpp:91] Creating Layer inception_3a/relu_pool_proj
I0403 15:05:25.345036  2641 net.cpp:425] inception_3a/relu_pool_proj <- inception_3a/pool_proj
I0403 15:05:25.345053  2641 net.cpp:386] inception_3a/relu_pool_proj -> inception_3a/pool_proj (in-place)
I0403 15:05:25.345340  2641 net.cpp:141] Setting up inception_3a/relu_pool_proj
I0403 15:05:25.345367  2641 net.cpp:148] Top shape: 24 32 28 28 (602112)
I0403 15:05:25.345383  2641 net.cpp:156] Memory required for data: 561169440
I0403 15:05:25.345398  2641 layer_factory.hpp:77] Creating layer inception_3a/output
I0403 15:05:25.345417  2641 net.cpp:91] Creating Layer inception_3a/output
I0403 15:05:25.345433  2641 net.cpp:425] inception_3a/output <- inception_3a/1x1
I0403 15:05:25.345450  2641 net.cpp:425] inception_3a/output <- inception_3a/3x3
I0403 15:05:25.345466  2641 net.cpp:425] inception_3a/output <- inception_3a/5x5
I0403 15:05:25.345481  2641 net.cpp:425] inception_3a/output <- inception_3a/pool_proj
I0403 15:05:25.345501  2641 net.cpp:399] inception_3a/output -> inception_3a/output
I0403 15:05:25.345548  2641 net.cpp:141] Setting up inception_3a/output
I0403 15:05:25.345574  2641 net.cpp:148] Top shape: 24 256 28 28 (4816896)
I0403 15:05:25.345590  2641 net.cpp:156] Memory required for data: 580437024
I0403 15:05:25.345607  2641 layer_factory.hpp:77] Creating layer inception_3a/output_inception_3a/output_0_split
I0403 15:05:25.345623  2641 net.cpp:91] Creating Layer inception_3a/output_inception_3a/output_0_split
I0403 15:05:25.345639  2641 net.cpp:425] inception_3a/output_inception_3a/output_0_split <- inception_3a/output
I0403 15:05:25.345659  2641 net.cpp:399] inception_3a/output_inception_3a/output_0_split -> inception_3a/output_inception_3a/output_0_split_0
I0403 15:05:25.345681  2641 net.cpp:399] inception_3a/output_inception_3a/output_0_split -> inception_3a/output_inception_3a/output_0_split_1
I0403 15:05:25.345705  2641 net.cpp:399] inception_3a/output_inception_3a/output_0_split -> inception_3a/output_inception_3a/output_0_split_2
I0403 15:05:25.345726  2641 net.cpp:399] inception_3a/output_inception_3a/output_0_split -> inception_3a/output_inception_3a/output_0_split_3
I0403 15:05:25.345803  2641 net.cpp:141] Setting up inception_3a/output_inception_3a/output_0_split
I0403 15:05:25.345826  2641 net.cpp:148] Top shape: 24 256 28 28 (4816896)
I0403 15:05:25.345844  2641 net.cpp:148] Top shape: 24 256 28 28 (4816896)
I0403 15:05:25.345860  2641 net.cpp:148] Top shape: 24 256 28 28 (4816896)
I0403 15:05:25.345876  2641 net.cpp:148] Top shape: 24 256 28 28 (4816896)
I0403 15:05:25.345890  2641 net.cpp:156] Memory required for data: 657507360
I0403 15:05:25.345906  2641 layer_factory.hpp:77] Creating layer inception_3b/1x1
I0403 15:05:25.345928  2641 net.cpp:91] Creating Layer inception_3b/1x1
I0403 15:05:25.345947  2641 net.cpp:425] inception_3b/1x1 <- inception_3a/output_inception_3a/output_0_split_0
I0403 15:05:25.345968  2641 net.cpp:399] inception_3b/1x1 -> inception_3b/1x1
I0403 15:05:25.347143  2641 net.cpp:141] Setting up inception_3b/1x1
I0403 15:05:25.347203  2641 net.cpp:148] Top shape: 24 128 28 28 (2408448)
I0403 15:05:25.347220  2641 net.cpp:156] Memory required for data: 667141152
I0403 15:05:25.347245  2641 layer_factory.hpp:77] Creating layer inception_3b/relu_1x1
I0403 15:05:25.347275  2641 net.cpp:91] Creating Layer inception_3b/relu_1x1
I0403 15:05:25.347292  2641 net.cpp:425] inception_3b/relu_1x1 <- inception_3b/1x1
I0403 15:05:25.347313  2641 net.cpp:386] inception_3b/relu_1x1 -> inception_3b/1x1 (in-place)
I0403 15:05:25.347501  2641 net.cpp:141] Setting up inception_3b/relu_1x1
I0403 15:05:25.347528  2641 net.cpp:148] Top shape: 24 128 28 28 (2408448)
I0403 15:05:25.347553  2641 net.cpp:156] Memory required for data: 676774944
I0403 15:05:25.347568  2641 layer_factory.hpp:77] Creating layer inception_3b/3x3_reduce
I0403 15:05:25.347591  2641 net.cpp:91] Creating Layer inception_3b/3x3_reduce
I0403 15:05:25.347610  2641 net.cpp:425] inception_3b/3x3_reduce <- inception_3a/output_inception_3a/output_0_split_1
I0403 15:05:25.347633  2641 net.cpp:399] inception_3b/3x3_reduce -> inception_3b/3x3_reduce
I0403 15:05:25.348837  2641 net.cpp:141] Setting up inception_3b/3x3_reduce
I0403 15:05:25.348868  2641 net.cpp:148] Top shape: 24 128 28 28 (2408448)
I0403 15:05:25.348886  2641 net.cpp:156] Memory required for data: 686408736
I0403 15:05:25.348906  2641 layer_factory.hpp:77] Creating layer inception_3b/relu_3x3_reduce
I0403 15:05:25.348924  2641 net.cpp:91] Creating Layer inception_3b/relu_3x3_reduce
I0403 15:05:25.348942  2641 net.cpp:425] inception_3b/relu_3x3_reduce <- inception_3b/3x3_reduce
I0403 15:05:25.348963  2641 net.cpp:386] inception_3b/relu_3x3_reduce -> inception_3b/3x3_reduce (in-place)
I0403 15:05:25.349148  2641 net.cpp:141] Setting up inception_3b/relu_3x3_reduce
I0403 15:05:25.349174  2641 net.cpp:148] Top shape: 24 128 28 28 (2408448)
I0403 15:05:25.349190  2641 net.cpp:156] Memory required for data: 696042528
I0403 15:05:25.349206  2641 layer_factory.hpp:77] Creating layer inception_3b/3x3
I0403 15:05:25.349233  2641 net.cpp:91] Creating Layer inception_3b/3x3
I0403 15:05:25.349257  2641 net.cpp:425] inception_3b/3x3 <- inception_3b/3x3_reduce
I0403 15:05:25.349278  2641 net.cpp:399] inception_3b/3x3 -> inception_3b/3x3
I0403 15:05:25.352301  2641 net.cpp:141] Setting up inception_3b/3x3
I0403 15:05:25.352331  2641 net.cpp:148] Top shape: 24 192 28 28 (3612672)
I0403 15:05:25.352347  2641 net.cpp:156] Memory required for data: 710493216
I0403 15:05:25.352366  2641 layer_factory.hpp:77] Creating layer inception_3b/relu_3x3
I0403 15:05:25.352388  2641 net.cpp:91] Creating Layer inception_3b/relu_3x3
I0403 15:05:25.352406  2641 net.cpp:425] inception_3b/relu_3x3 <- inception_3b/3x3
I0403 15:05:25.352422  2641 net.cpp:386] inception_3b/relu_3x3 -> inception_3b/3x3 (in-place)
I0403 15:05:25.352705  2641 net.cpp:141] Setting up inception_3b/relu_3x3
I0403 15:05:25.352731  2641 net.cpp:148] Top shape: 24 192 28 28 (3612672)
I0403 15:05:25.352747  2641 net.cpp:156] Memory required for data: 724943904
I0403 15:05:25.352762  2641 layer_factory.hpp:77] Creating layer inception_3b/5x5_reduce
I0403 15:05:25.352788  2641 net.cpp:91] Creating Layer inception_3b/5x5_reduce
I0403 15:05:25.352807  2641 net.cpp:425] inception_3b/5x5_reduce <- inception_3a/output_inception_3a/output_0_split_2
I0403 15:05:25.352829  2641 net.cpp:399] inception_3b/5x5_reduce -> inception_3b/5x5_reduce
I0403 15:05:25.353845  2641 net.cpp:141] Setting up inception_3b/5x5_reduce
I0403 15:05:25.353873  2641 net.cpp:148] Top shape: 24 32 28 28 (602112)
I0403 15:05:25.353889  2641 net.cpp:156] Memory required for data: 727352352
I0403 15:05:25.353909  2641 layer_factory.hpp:77] Creating layer inception_3b/relu_5x5_reduce
I0403 15:05:25.353927  2641 net.cpp:91] Creating Layer inception_3b/relu_5x5_reduce
I0403 15:05:25.353947  2641 net.cpp:425] inception_3b/relu_5x5_reduce <- inception_3b/5x5_reduce
I0403 15:05:25.353965  2641 net.cpp:386] inception_3b/relu_5x5_reduce -> inception_3b/5x5_reduce (in-place)
I0403 15:05:25.354161  2641 net.cpp:141] Setting up inception_3b/relu_5x5_reduce
I0403 15:05:25.354187  2641 net.cpp:148] Top shape: 24 32 28 28 (602112)
I0403 15:05:25.354202  2641 net.cpp:156] Memory required for data: 729760800
I0403 15:05:25.354219  2641 layer_factory.hpp:77] Creating layer inception_3b/5x5
I0403 15:05:25.354245  2641 net.cpp:91] Creating Layer inception_3b/5x5
I0403 15:05:25.354265  2641 net.cpp:425] inception_3b/5x5 <- inception_3b/5x5_reduce
I0403 15:05:25.354287  2641 net.cpp:399] inception_3b/5x5 -> inception_3b/5x5
I0403 15:05:25.356304  2641 net.cpp:141] Setting up inception_3b/5x5
I0403 15:05:25.356336  2641 net.cpp:148] Top shape: 24 96 28 28 (1806336)
I0403 15:05:25.356353  2641 net.cpp:156] Memory required for data: 736986144
I0403 15:05:25.356372  2641 layer_factory.hpp:77] Creating layer inception_3b/relu_5x5
I0403 15:05:25.356391  2641 net.cpp:91] Creating Layer inception_3b/relu_5x5
I0403 15:05:25.356408  2641 net.cpp:425] inception_3b/relu_5x5 <- inception_3b/5x5
I0403 15:05:25.356429  2641 net.cpp:386] inception_3b/relu_5x5 -> inception_3b/5x5 (in-place)
I0403 15:05:25.356627  2641 net.cpp:141] Setting up inception_3b/relu_5x5
I0403 15:05:25.356654  2641 net.cpp:148] Top shape: 24 96 28 28 (1806336)
I0403 15:05:25.356670  2641 net.cpp:156] Memory required for data: 744211488
I0403 15:05:25.356686  2641 layer_factory.hpp:77] Creating layer inception_3b/pool
I0403 15:05:25.356704  2641 net.cpp:91] Creating Layer inception_3b/pool
I0403 15:05:25.356722  2641 net.cpp:425] inception_3b/pool <- inception_3a/output_inception_3a/output_0_split_3
I0403 15:05:25.356741  2641 net.cpp:399] inception_3b/pool -> inception_3b/pool
I0403 15:05:25.356798  2641 net.cpp:141] Setting up inception_3b/pool
I0403 15:05:25.356822  2641 net.cpp:148] Top shape: 24 256 28 28 (4816896)
I0403 15:05:25.356837  2641 net.cpp:156] Memory required for data: 763479072
I0403 15:05:25.356851  2641 layer_factory.hpp:77] Creating layer inception_3b/pool_proj
I0403 15:05:25.356876  2641 net.cpp:91] Creating Layer inception_3b/pool_proj
I0403 15:05:25.356894  2641 net.cpp:425] inception_3b/pool_proj <- inception_3b/pool
I0403 15:05:25.356915  2641 net.cpp:399] inception_3b/pool_proj -> inception_3b/pool_proj
I0403 15:05:25.357992  2641 net.cpp:141] Setting up inception_3b/pool_proj
I0403 15:05:25.358022  2641 net.cpp:148] Top shape: 24 64 28 28 (1204224)
I0403 15:05:25.358039  2641 net.cpp:156] Memory required for data: 768295968
I0403 15:05:25.358058  2641 layer_factory.hpp:77] Creating layer inception_3b/relu_pool_proj
I0403 15:05:25.358080  2641 net.cpp:91] Creating Layer inception_3b/relu_pool_proj
I0403 15:05:25.358099  2641 net.cpp:425] inception_3b/relu_pool_proj <- inception_3b/pool_proj
I0403 15:05:25.358119  2641 net.cpp:386] inception_3b/relu_pool_proj -> inception_3b/pool_proj (in-place)
I0403 15:05:25.358522  2641 net.cpp:141] Setting up inception_3b/relu_pool_proj
I0403 15:05:25.358551  2641 net.cpp:148] Top shape: 24 64 28 28 (1204224)
I0403 15:05:25.358566  2641 net.cpp:156] Memory required for data: 773112864
I0403 15:05:25.358583  2641 layer_factory.hpp:77] Creating layer inception_3b/output
I0403 15:05:25.358603  2641 net.cpp:91] Creating Layer inception_3b/output
I0403 15:05:25.358621  2641 net.cpp:425] inception_3b/output <- inception_3b/1x1
I0403 15:05:25.358640  2641 net.cpp:425] inception_3b/output <- inception_3b/3x3
I0403 15:05:25.358656  2641 net.cpp:425] inception_3b/output <- inception_3b/5x5
I0403 15:05:25.358674  2641 net.cpp:425] inception_3b/output <- inception_3b/pool_proj
I0403 15:05:25.358691  2641 net.cpp:399] inception_3b/output -> inception_3b/output
I0403 15:05:25.358737  2641 net.cpp:141] Setting up inception_3b/output
I0403 15:05:25.358762  2641 net.cpp:148] Top shape: 24 480 28 28 (9031680)
I0403 15:05:25.358777  2641 net.cpp:156] Memory required for data: 809239584
I0403 15:05:25.358791  2641 layer_factory.hpp:77] Creating layer pool3/3x3_s2
I0403 15:05:25.358809  2641 net.cpp:91] Creating Layer pool3/3x3_s2
I0403 15:05:25.358825  2641 net.cpp:425] pool3/3x3_s2 <- inception_3b/output
I0403 15:05:25.358861  2641 net.cpp:399] pool3/3x3_s2 -> pool3/3x3_s2
I0403 15:05:25.358922  2641 net.cpp:141] Setting up pool3/3x3_s2
I0403 15:05:25.358948  2641 net.cpp:148] Top shape: 24 480 14 14 (2257920)
I0403 15:05:25.358964  2641 net.cpp:156] Memory required for data: 818271264
I0403 15:05:25.358980  2641 layer_factory.hpp:77] Creating layer pool3/3x3_s2_pool3/3x3_s2_0_split
I0403 15:05:25.358999  2641 net.cpp:91] Creating Layer pool3/3x3_s2_pool3/3x3_s2_0_split
I0403 15:05:25.359014  2641 net.cpp:425] pool3/3x3_s2_pool3/3x3_s2_0_split <- pool3/3x3_s2
I0403 15:05:25.359031  2641 net.cpp:399] pool3/3x3_s2_pool3/3x3_s2_0_split -> pool3/3x3_s2_pool3/3x3_s2_0_split_0
I0403 15:05:25.359051  2641 net.cpp:399] pool3/3x3_s2_pool3/3x3_s2_0_split -> pool3/3x3_s2_pool3/3x3_s2_0_split_1
I0403 15:05:25.359076  2641 net.cpp:399] pool3/3x3_s2_pool3/3x3_s2_0_split -> pool3/3x3_s2_pool3/3x3_s2_0_split_2
I0403 15:05:25.359098  2641 net.cpp:399] pool3/3x3_s2_pool3/3x3_s2_0_split -> pool3/3x3_s2_pool3/3x3_s2_0_split_3
I0403 15:05:25.359177  2641 net.cpp:141] Setting up pool3/3x3_s2_pool3/3x3_s2_0_split
I0403 15:05:25.359201  2641 net.cpp:148] Top shape: 24 480 14 14 (2257920)
I0403 15:05:25.359220  2641 net.cpp:148] Top shape: 24 480 14 14 (2257920)
I0403 15:05:25.359236  2641 net.cpp:148] Top shape: 24 480 14 14 (2257920)
I0403 15:05:25.359266  2641 net.cpp:148] Top shape: 24 480 14 14 (2257920)
I0403 15:05:25.359282  2641 net.cpp:156] Memory required for data: 854397984
I0403 15:05:25.359297  2641 layer_factory.hpp:77] Creating layer inception_4a/1x1
I0403 15:05:25.359319  2641 net.cpp:91] Creating Layer inception_4a/1x1
I0403 15:05:25.359338  2641 net.cpp:425] inception_4a/1x1 <- pool3/3x3_s2_pool3/3x3_s2_0_split_0
I0403 15:05:25.359360  2641 net.cpp:399] inception_4a/1x1 -> inception_4a/1x1
I0403 15:05:25.360972  2641 net.cpp:141] Setting up inception_4a/1x1
I0403 15:05:25.361001  2641 net.cpp:148] Top shape: 24 192 14 14 (903168)
I0403 15:05:25.361017  2641 net.cpp:156] Memory required for data: 858010656
I0403 15:05:25.361037  2641 layer_factory.hpp:77] Creating layer inception_4a/relu_1x1
I0403 15:05:25.361058  2641 net.cpp:91] Creating Layer inception_4a/relu_1x1
I0403 15:05:25.361076  2641 net.cpp:425] inception_4a/relu_1x1 <- inception_4a/1x1
I0403 15:05:25.361095  2641 net.cpp:386] inception_4a/relu_1x1 -> inception_4a/1x1 (in-place)
I0403 15:05:25.361281  2641 net.cpp:141] Setting up inception_4a/relu_1x1
I0403 15:05:25.361307  2641 net.cpp:148] Top shape: 24 192 14 14 (903168)
I0403 15:05:25.361322  2641 net.cpp:156] Memory required for data: 861623328
I0403 15:05:25.361338  2641 layer_factory.hpp:77] Creating layer inception_4a/3x3_reduce
I0403 15:05:25.361361  2641 net.cpp:91] Creating Layer inception_4a/3x3_reduce
I0403 15:05:25.361380  2641 net.cpp:425] inception_4a/3x3_reduce <- pool3/3x3_s2_pool3/3x3_s2_0_split_1
I0403 15:05:25.361402  2641 net.cpp:399] inception_4a/3x3_reduce -> inception_4a/3x3_reduce
I0403 15:05:25.362715  2641 net.cpp:141] Setting up inception_4a/3x3_reduce
I0403 15:05:25.362745  2641 net.cpp:148] Top shape: 24 96 14 14 (451584)
I0403 15:05:25.362762  2641 net.cpp:156] Memory required for data: 863429664
I0403 15:05:25.362787  2641 layer_factory.hpp:77] Creating layer inception_4a/relu_3x3_reduce
I0403 15:05:25.362808  2641 net.cpp:91] Creating Layer inception_4a/relu_3x3_reduce
I0403 15:05:25.362826  2641 net.cpp:425] inception_4a/relu_3x3_reduce <- inception_4a/3x3_reduce
I0403 15:05:25.362845  2641 net.cpp:386] inception_4a/relu_3x3_reduce -> inception_4a/3x3_reduce (in-place)
I0403 15:05:25.363023  2641 net.cpp:141] Setting up inception_4a/relu_3x3_reduce
I0403 15:05:25.363051  2641 net.cpp:148] Top shape: 24 96 14 14 (451584)
I0403 15:05:25.363075  2641 net.cpp:156] Memory required for data: 865236000
I0403 15:05:25.363090  2641 layer_factory.hpp:77] Creating layer inception_4a/3x3
I0403 15:05:25.363113  2641 net.cpp:91] Creating Layer inception_4a/3x3
I0403 15:05:25.363131  2641 net.cpp:425] inception_4a/3x3 <- inception_4a/3x3_reduce
I0403 15:05:25.363152  2641 net.cpp:399] inception_4a/3x3 -> inception_4a/3x3
I0403 15:05:25.365906  2641 net.cpp:141] Setting up inception_4a/3x3
I0403 15:05:25.365939  2641 net.cpp:148] Top shape: 24 208 14 14 (978432)
I0403 15:05:25.365957  2641 net.cpp:156] Memory required for data: 869149728
I0403 15:05:25.365975  2641 layer_factory.hpp:77] Creating layer inception_4a/relu_3x3
I0403 15:05:25.365993  2641 net.cpp:91] Creating Layer inception_4a/relu_3x3
I0403 15:05:25.366009  2641 net.cpp:425] inception_4a/relu_3x3 <- inception_4a/3x3
I0403 15:05:25.366029  2641 net.cpp:386] inception_4a/relu_3x3 -> inception_4a/3x3 (in-place)
I0403 15:05:25.366312  2641 net.cpp:141] Setting up inception_4a/relu_3x3
I0403 15:05:25.366341  2641 net.cpp:148] Top shape: 24 208 14 14 (978432)
I0403 15:05:25.366358  2641 net.cpp:156] Memory required for data: 873063456
I0403 15:05:25.366374  2641 layer_factory.hpp:77] Creating layer inception_4a/5x5_reduce
I0403 15:05:25.366399  2641 net.cpp:91] Creating Layer inception_4a/5x5_reduce
I0403 15:05:25.366415  2641 net.cpp:425] inception_4a/5x5_reduce <- pool3/3x3_s2_pool3/3x3_s2_0_split_2
I0403 15:05:25.366436  2641 net.cpp:399] inception_4a/5x5_reduce -> inception_4a/5x5_reduce
I0403 15:05:25.367450  2641 net.cpp:141] Setting up inception_4a/5x5_reduce
I0403 15:05:25.367480  2641 net.cpp:148] Top shape: 24 16 14 14 (75264)
I0403 15:05:25.367494  2641 net.cpp:156] Memory required for data: 873364512
I0403 15:05:25.367514  2641 layer_factory.hpp:77] Creating layer inception_4a/relu_5x5_reduce
I0403 15:05:25.367532  2641 net.cpp:91] Creating Layer inception_4a/relu_5x5_reduce
I0403 15:05:25.367552  2641 net.cpp:425] inception_4a/relu_5x5_reduce <- inception_4a/5x5_reduce
I0403 15:05:25.367571  2641 net.cpp:386] inception_4a/relu_5x5_reduce -> inception_4a/5x5_reduce (in-place)
I0403 15:05:25.367750  2641 net.cpp:141] Setting up inception_4a/relu_5x5_reduce
I0403 15:05:25.367775  2641 net.cpp:148] Top shape: 24 16 14 14 (75264)
I0403 15:05:25.367791  2641 net.cpp:156] Memory required for data: 873665568
I0403 15:05:25.367806  2641 layer_factory.hpp:77] Creating layer inception_4a/5x5
I0403 15:05:25.367828  2641 net.cpp:91] Creating Layer inception_4a/5x5
I0403 15:05:25.367846  2641 net.cpp:425] inception_4a/5x5 <- inception_4a/5x5_reduce
I0403 15:05:25.367868  2641 net.cpp:399] inception_4a/5x5 -> inception_4a/5x5
I0403 15:05:25.368949  2641 net.cpp:141] Setting up inception_4a/5x5
I0403 15:05:25.368978  2641 net.cpp:148] Top shape: 24 48 14 14 (225792)
I0403 15:05:25.368993  2641 net.cpp:156] Memory required for data: 874568736
I0403 15:05:25.369011  2641 layer_factory.hpp:77] Creating layer inception_4a/relu_5x5
I0403 15:05:25.369034  2641 net.cpp:91] Creating Layer inception_4a/relu_5x5
I0403 15:05:25.369050  2641 net.cpp:425] inception_4a/relu_5x5 <- inception_4a/5x5
I0403 15:05:25.369068  2641 net.cpp:386] inception_4a/relu_5x5 -> inception_4a/5x5 (in-place)
I0403 15:05:25.369247  2641 net.cpp:141] Setting up inception_4a/relu_5x5
I0403 15:05:25.369277  2641 net.cpp:148] Top shape: 24 48 14 14 (225792)
I0403 15:05:25.369294  2641 net.cpp:156] Memory required for data: 875471904
I0403 15:05:25.369309  2641 layer_factory.hpp:77] Creating layer inception_4a/pool
I0403 15:05:25.369328  2641 net.cpp:91] Creating Layer inception_4a/pool
I0403 15:05:25.369343  2641 net.cpp:425] inception_4a/pool <- pool3/3x3_s2_pool3/3x3_s2_0_split_3
I0403 15:05:25.369365  2641 net.cpp:399] inception_4a/pool -> inception_4a/pool
I0403 15:05:25.369426  2641 net.cpp:141] Setting up inception_4a/pool
I0403 15:05:25.369449  2641 net.cpp:148] Top shape: 24 480 14 14 (2257920)
I0403 15:05:25.369463  2641 net.cpp:156] Memory required for data: 884503584
I0403 15:05:25.369478  2641 layer_factory.hpp:77] Creating layer inception_4a/pool_proj
I0403 15:05:25.369500  2641 net.cpp:91] Creating Layer inception_4a/pool_proj
I0403 15:05:25.369518  2641 net.cpp:425] inception_4a/pool_proj <- inception_4a/pool
I0403 15:05:25.369539  2641 net.cpp:399] inception_4a/pool_proj -> inception_4a/pool_proj
I0403 15:05:25.370698  2641 net.cpp:141] Setting up inception_4a/pool_proj
I0403 15:05:25.370726  2641 net.cpp:148] Top shape: 24 64 14 14 (301056)
I0403 15:05:25.370759  2641 net.cpp:156] Memory required for data: 885707808
I0403 15:05:25.370779  2641 layer_factory.hpp:77] Creating layer inception_4a/relu_pool_proj
I0403 15:05:25.370797  2641 net.cpp:91] Creating Layer inception_4a/relu_pool_proj
I0403 15:05:25.370815  2641 net.cpp:425] inception_4a/relu_pool_proj <- inception_4a/pool_proj
I0403 15:05:25.370831  2641 net.cpp:386] inception_4a/relu_pool_proj -> inception_4a/pool_proj (in-place)
I0403 15:05:25.371129  2641 net.cpp:141] Setting up inception_4a/relu_pool_proj
I0403 15:05:25.371155  2641 net.cpp:148] Top shape: 24 64 14 14 (301056)
I0403 15:05:25.371175  2641 net.cpp:156] Memory required for data: 886912032
I0403 15:05:25.371191  2641 layer_factory.hpp:77] Creating layer inception_4a/output
I0403 15:05:25.371209  2641 net.cpp:91] Creating Layer inception_4a/output
I0403 15:05:25.371225  2641 net.cpp:425] inception_4a/output <- inception_4a/1x1
I0403 15:05:25.371248  2641 net.cpp:425] inception_4a/output <- inception_4a/3x3
I0403 15:05:25.371266  2641 net.cpp:425] inception_4a/output <- inception_4a/5x5
I0403 15:05:25.371284  2641 net.cpp:425] inception_4a/output <- inception_4a/pool_proj
I0403 15:05:25.371301  2641 net.cpp:399] inception_4a/output -> inception_4a/output
I0403 15:05:25.371348  2641 net.cpp:141] Setting up inception_4a/output
I0403 15:05:25.371372  2641 net.cpp:148] Top shape: 24 512 14 14 (2408448)
I0403 15:05:25.371387  2641 net.cpp:156] Memory required for data: 896545824
I0403 15:05:25.371403  2641 layer_factory.hpp:77] Creating layer inception_4a/output_inception_4a/output_0_split
I0403 15:05:25.371422  2641 net.cpp:91] Creating Layer inception_4a/output_inception_4a/output_0_split
I0403 15:05:25.371440  2641 net.cpp:425] inception_4a/output_inception_4a/output_0_split <- inception_4a/output
I0403 15:05:25.371459  2641 net.cpp:399] inception_4a/output_inception_4a/output_0_split -> inception_4a/output_inception_4a/output_0_split_0
I0403 15:05:25.371481  2641 net.cpp:399] inception_4a/output_inception_4a/output_0_split -> inception_4a/output_inception_4a/output_0_split_1
I0403 15:05:25.371502  2641 net.cpp:399] inception_4a/output_inception_4a/output_0_split -> inception_4a/output_inception_4a/output_0_split_2
I0403 15:05:25.371525  2641 net.cpp:399] inception_4a/output_inception_4a/output_0_split -> inception_4a/output_inception_4a/output_0_split_3
I0403 15:05:25.371544  2641 net.cpp:399] inception_4a/output_inception_4a/output_0_split -> inception_4a/output_inception_4a/output_0_split_4
I0403 15:05:25.371642  2641 net.cpp:141] Setting up inception_4a/output_inception_4a/output_0_split
I0403 15:05:25.371666  2641 net.cpp:148] Top shape: 24 512 14 14 (2408448)
I0403 15:05:25.371685  2641 net.cpp:148] Top shape: 24 512 14 14 (2408448)
I0403 15:05:25.371701  2641 net.cpp:148] Top shape: 24 512 14 14 (2408448)
I0403 15:05:25.371717  2641 net.cpp:148] Top shape: 24 512 14 14 (2408448)
I0403 15:05:25.371733  2641 net.cpp:148] Top shape: 24 512 14 14 (2408448)
I0403 15:05:25.371747  2641 net.cpp:156] Memory required for data: 944714784
I0403 15:05:25.371763  2641 layer_factory.hpp:77] Creating layer loss1/ave_pool
I0403 15:05:25.371781  2641 net.cpp:91] Creating Layer loss1/ave_pool
I0403 15:05:25.371796  2641 net.cpp:425] loss1/ave_pool <- inception_4a/output_inception_4a/output_0_split_0
I0403 15:05:25.371817  2641 net.cpp:399] loss1/ave_pool -> loss1/ave_pool
I0403 15:05:25.372028  2641 net.cpp:141] Setting up loss1/ave_pool
I0403 15:05:25.372057  2641 net.cpp:148] Top shape: 24 512 4 4 (196608)
I0403 15:05:25.372073  2641 net.cpp:156] Memory required for data: 945501216
I0403 15:05:25.372089  2641 layer_factory.hpp:77] Creating layer loss1/conv
I0403 15:05:25.372110  2641 net.cpp:91] Creating Layer loss1/conv
I0403 15:05:25.372128  2641 net.cpp:425] loss1/conv <- loss1/ave_pool
I0403 15:05:25.372148  2641 net.cpp:399] loss1/conv -> loss1/conv
I0403 15:05:25.373605  2641 net.cpp:141] Setting up loss1/conv
I0403 15:05:25.373636  2641 net.cpp:148] Top shape: 24 128 4 4 (49152)
I0403 15:05:25.373666  2641 net.cpp:156] Memory required for data: 945697824
I0403 15:05:25.373687  2641 layer_factory.hpp:77] Creating layer loss1/relu_conv
I0403 15:05:25.373704  2641 net.cpp:91] Creating Layer loss1/relu_conv
I0403 15:05:25.373720  2641 net.cpp:425] loss1/relu_conv <- loss1/conv
I0403 15:05:25.373740  2641 net.cpp:386] loss1/relu_conv -> loss1/conv (in-place)
I0403 15:05:25.374028  2641 net.cpp:141] Setting up loss1/relu_conv
I0403 15:05:25.374056  2641 net.cpp:148] Top shape: 24 128 4 4 (49152)
I0403 15:05:25.374073  2641 net.cpp:156] Memory required for data: 945894432
I0403 15:05:25.374089  2641 layer_factory.hpp:77] Creating layer loss1/fc
I0403 15:05:25.374112  2641 net.cpp:91] Creating Layer loss1/fc
I0403 15:05:25.374130  2641 net.cpp:425] loss1/fc <- loss1/conv
I0403 15:05:25.374152  2641 net.cpp:399] loss1/fc -> loss1/fc
I0403 15:05:25.392987  2641 net.cpp:141] Setting up loss1/fc
I0403 15:05:25.393055  2641 net.cpp:148] Top shape: 24 1024 (24576)
I0403 15:05:25.393074  2641 net.cpp:156] Memory required for data: 945992736
I0403 15:05:25.393095  2641 layer_factory.hpp:77] Creating layer loss1/relu_fc
I0403 15:05:25.393118  2641 net.cpp:91] Creating Layer loss1/relu_fc
I0403 15:05:25.393137  2641 net.cpp:425] loss1/relu_fc <- loss1/fc
I0403 15:05:25.393157  2641 net.cpp:386] loss1/relu_fc -> loss1/fc (in-place)
I0403 15:05:25.393395  2641 net.cpp:141] Setting up loss1/relu_fc
I0403 15:05:25.393422  2641 net.cpp:148] Top shape: 24 1024 (24576)
I0403 15:05:25.393438  2641 net.cpp:156] Memory required for data: 946091040
I0403 15:05:25.393465  2641 layer_factory.hpp:77] Creating layer loss1/drop_fc
I0403 15:05:25.393494  2641 net.cpp:91] Creating Layer loss1/drop_fc
I0403 15:05:25.393513  2641 net.cpp:425] loss1/drop_fc <- loss1/fc
I0403 15:05:25.393533  2641 net.cpp:386] loss1/drop_fc -> loss1/fc (in-place)
I0403 15:05:25.393587  2641 net.cpp:141] Setting up loss1/drop_fc
I0403 15:05:25.393611  2641 net.cpp:148] Top shape: 24 1024 (24576)
I0403 15:05:25.393626  2641 net.cpp:156] Memory required for data: 946189344
I0403 15:05:25.393642  2641 layer_factory.hpp:77] Creating layer loss1/classifier_plantvillage
I0403 15:05:25.393667  2641 net.cpp:91] Creating Layer loss1/classifier_plantvillage
I0403 15:05:25.393685  2641 net.cpp:425] loss1/classifier_plantvillage <- loss1/fc
I0403 15:05:25.393704  2641 net.cpp:399] loss1/classifier_plantvillage -> loss1/classifier_plantvillage
I0403 15:05:25.394683  2641 net.cpp:141] Setting up loss1/classifier_plantvillage
I0403 15:05:25.394716  2641 net.cpp:148] Top shape: 24 38 (912)
I0403 15:05:25.394732  2641 net.cpp:156] Memory required for data: 946192992
I0403 15:05:25.394752  2641 layer_factory.hpp:77] Creating layer loss1/classifier_plantvillage_loss1/classifier_plantvillage_0_split
I0403 15:05:25.394770  2641 net.cpp:91] Creating Layer loss1/classifier_plantvillage_loss1/classifier_plantvillage_0_split
I0403 15:05:25.394788  2641 net.cpp:425] loss1/classifier_plantvillage_loss1/classifier_plantvillage_0_split <- loss1/classifier_plantvillage
I0403 15:05:25.394805  2641 net.cpp:399] loss1/classifier_plantvillage_loss1/classifier_plantvillage_0_split -> loss1/classifier_plantvillage_loss1/classifier_plantvillage_0_split_0
I0403 15:05:25.394830  2641 net.cpp:399] loss1/classifier_plantvillage_loss1/classifier_plantvillage_0_split -> loss1/classifier_plantvillage_loss1/classifier_plantvillage_0_split_1
I0403 15:05:25.394851  2641 net.cpp:399] loss1/classifier_plantvillage_loss1/classifier_plantvillage_0_split -> loss1/classifier_plantvillage_loss1/classifier_plantvillage_0_split_2
I0403 15:05:25.394920  2641 net.cpp:141] Setting up loss1/classifier_plantvillage_loss1/classifier_plantvillage_0_split
I0403 15:05:25.394943  2641 net.cpp:148] Top shape: 24 38 (912)
I0403 15:05:25.394960  2641 net.cpp:148] Top shape: 24 38 (912)
I0403 15:05:25.394976  2641 net.cpp:148] Top shape: 24 38 (912)
I0403 15:05:25.394991  2641 net.cpp:156] Memory required for data: 946203936
I0403 15:05:25.395006  2641 layer_factory.hpp:77] Creating layer inception_4b/1x1
I0403 15:05:25.395030  2641 net.cpp:91] Creating Layer inception_4b/1x1
I0403 15:05:25.395072  2641 net.cpp:425] inception_4b/1x1 <- inception_4a/output_inception_4a/output_0_split_1
I0403 15:05:25.395093  2641 net.cpp:399] inception_4b/1x1 -> inception_4b/1x1
I0403 15:05:25.396838  2641 net.cpp:141] Setting up inception_4b/1x1
I0403 15:05:25.396869  2641 net.cpp:148] Top shape: 24 160 14 14 (752640)
I0403 15:05:25.396886  2641 net.cpp:156] Memory required for data: 949214496
I0403 15:05:25.396906  2641 layer_factory.hpp:77] Creating layer inception_4b/relu_1x1
I0403 15:05:25.396925  2641 net.cpp:91] Creating Layer inception_4b/relu_1x1
I0403 15:05:25.396941  2641 net.cpp:425] inception_4b/relu_1x1 <- inception_4b/1x1
I0403 15:05:25.396962  2641 net.cpp:386] inception_4b/relu_1x1 -> inception_4b/1x1 (in-place)
I0403 15:05:25.397146  2641 net.cpp:141] Setting up inception_4b/relu_1x1
I0403 15:05:25.397171  2641 net.cpp:148] Top shape: 24 160 14 14 (752640)
I0403 15:05:25.397186  2641 net.cpp:156] Memory required for data: 952225056
I0403 15:05:25.397202  2641 layer_factory.hpp:77] Creating layer inception_4b/3x3_reduce
I0403 15:05:25.397228  2641 net.cpp:91] Creating Layer inception_4b/3x3_reduce
I0403 15:05:25.397253  2641 net.cpp:425] inception_4b/3x3_reduce <- inception_4a/output_inception_4a/output_0_split_2
I0403 15:05:25.397275  2641 net.cpp:399] inception_4b/3x3_reduce -> inception_4b/3x3_reduce
I0403 15:05:25.398666  2641 net.cpp:141] Setting up inception_4b/3x3_reduce
I0403 15:05:25.398694  2641 net.cpp:148] Top shape: 24 112 14 14 (526848)
I0403 15:05:25.398710  2641 net.cpp:156] Memory required for data: 954332448
I0403 15:05:25.398730  2641 layer_factory.hpp:77] Creating layer inception_4b/relu_3x3_reduce
I0403 15:05:25.398751  2641 net.cpp:91] Creating Layer inception_4b/relu_3x3_reduce
I0403 15:05:25.398767  2641 net.cpp:425] inception_4b/relu_3x3_reduce <- inception_4b/3x3_reduce
I0403 15:05:25.398785  2641 net.cpp:386] inception_4b/relu_3x3_reduce -> inception_4b/3x3_reduce (in-place)
I0403 15:05:25.399073  2641 net.cpp:141] Setting up inception_4b/relu_3x3_reduce
I0403 15:05:25.399101  2641 net.cpp:148] Top shape: 24 112 14 14 (526848)
I0403 15:05:25.399116  2641 net.cpp:156] Memory required for data: 956439840
I0403 15:05:25.399132  2641 layer_factory.hpp:77] Creating layer inception_4b/3x3
I0403 15:05:25.399155  2641 net.cpp:91] Creating Layer inception_4b/3x3
I0403 15:05:25.399173  2641 net.cpp:425] inception_4b/3x3 <- inception_4b/3x3_reduce
I0403 15:05:25.399195  2641 net.cpp:399] inception_4b/3x3 -> inception_4b/3x3
I0403 15:05:25.402281  2641 net.cpp:141] Setting up inception_4b/3x3
I0403 15:05:25.402309  2641 net.cpp:148] Top shape: 24 224 14 14 (1053696)
I0403 15:05:25.402324  2641 net.cpp:156] Memory required for data: 960654624
I0403 15:05:25.402343  2641 layer_factory.hpp:77] Creating layer inception_4b/relu_3x3
I0403 15:05:25.402364  2641 net.cpp:91] Creating Layer inception_4b/relu_3x3
I0403 15:05:25.402380  2641 net.cpp:425] inception_4b/relu_3x3 <- inception_4b/3x3
I0403 15:05:25.402398  2641 net.cpp:386] inception_4b/relu_3x3 -> inception_4b/3x3 (in-place)
I0403 15:05:25.402582  2641 net.cpp:141] Setting up inception_4b/relu_3x3
I0403 15:05:25.402607  2641 net.cpp:148] Top shape: 24 224 14 14 (1053696)
I0403 15:05:25.402622  2641 net.cpp:156] Memory required for data: 964869408
I0403 15:05:25.402638  2641 layer_factory.hpp:77] Creating layer inception_4b/5x5_reduce
I0403 15:05:25.402660  2641 net.cpp:91] Creating Layer inception_4b/5x5_reduce
I0403 15:05:25.402678  2641 net.cpp:425] inception_4b/5x5_reduce <- inception_4a/output_inception_4a/output_0_split_3
I0403 15:05:25.402700  2641 net.cpp:399] inception_4b/5x5_reduce -> inception_4b/5x5_reduce
I0403 15:05:25.403805  2641 net.cpp:141] Setting up inception_4b/5x5_reduce
I0403 15:05:25.403832  2641 net.cpp:148] Top shape: 24 24 14 14 (112896)
I0403 15:05:25.403848  2641 net.cpp:156] Memory required for data: 965320992
I0403 15:05:25.403867  2641 layer_factory.hpp:77] Creating layer inception_4b/relu_5x5_reduce
I0403 15:05:25.403885  2641 net.cpp:91] Creating Layer inception_4b/relu_5x5_reduce
I0403 15:05:25.403915  2641 net.cpp:425] inception_4b/relu_5x5_reduce <- inception_4b/5x5_reduce
I0403 15:05:25.403936  2641 net.cpp:386] inception_4b/relu_5x5_reduce -> inception_4b/5x5_reduce (in-place)
I0403 15:05:25.404122  2641 net.cpp:141] Setting up inception_4b/relu_5x5_reduce
I0403 15:05:25.404147  2641 net.cpp:148] Top shape: 24 24 14 14 (112896)
I0403 15:05:25.404162  2641 net.cpp:156] Memory required for data: 965772576
I0403 15:05:25.404177  2641 layer_factory.hpp:77] Creating layer inception_4b/5x5
I0403 15:05:25.404199  2641 net.cpp:91] Creating Layer inception_4b/5x5
I0403 15:05:25.404219  2641 net.cpp:425] inception_4b/5x5 <- inception_4b/5x5_reduce
I0403 15:05:25.404244  2641 net.cpp:399] inception_4b/5x5 -> inception_4b/5x5
I0403 15:05:25.405478  2641 net.cpp:141] Setting up inception_4b/5x5
I0403 15:05:25.405508  2641 net.cpp:148] Top shape: 24 64 14 14 (301056)
I0403 15:05:25.405524  2641 net.cpp:156] Memory required for data: 966976800
I0403 15:05:25.405542  2641 layer_factory.hpp:77] Creating layer inception_4b/relu_5x5
I0403 15:05:25.405560  2641 net.cpp:91] Creating Layer inception_4b/relu_5x5
I0403 15:05:25.405576  2641 net.cpp:425] inception_4b/relu_5x5 <- inception_4b/5x5
I0403 15:05:25.405596  2641 net.cpp:386] inception_4b/relu_5x5 -> inception_4b/5x5 (in-place)
I0403 15:05:25.405879  2641 net.cpp:141] Setting up inception_4b/relu_5x5
I0403 15:05:25.405906  2641 net.cpp:148] Top shape: 24 64 14 14 (301056)
I0403 15:05:25.405922  2641 net.cpp:156] Memory required for data: 968181024
I0403 15:05:25.405937  2641 layer_factory.hpp:77] Creating layer inception_4b/pool
I0403 15:05:25.405956  2641 net.cpp:91] Creating Layer inception_4b/pool
I0403 15:05:25.405972  2641 net.cpp:425] inception_4b/pool <- inception_4a/output_inception_4a/output_0_split_4
I0403 15:05:25.405992  2641 net.cpp:399] inception_4b/pool -> inception_4b/pool
I0403 15:05:25.406056  2641 net.cpp:141] Setting up inception_4b/pool
I0403 15:05:25.406081  2641 net.cpp:148] Top shape: 24 512 14 14 (2408448)
I0403 15:05:25.406097  2641 net.cpp:156] Memory required for data: 977814816
I0403 15:05:25.406112  2641 layer_factory.hpp:77] Creating layer inception_4b/pool_proj
I0403 15:05:25.406134  2641 net.cpp:91] Creating Layer inception_4b/pool_proj
I0403 15:05:25.406152  2641 net.cpp:425] inception_4b/pool_proj <- inception_4b/pool
I0403 15:05:25.406170  2641 net.cpp:399] inception_4b/pool_proj -> inception_4b/pool_proj
I0403 15:05:25.407393  2641 net.cpp:141] Setting up inception_4b/pool_proj
I0403 15:05:25.407421  2641 net.cpp:148] Top shape: 24 64 14 14 (301056)
I0403 15:05:25.407438  2641 net.cpp:156] Memory required for data: 979019040
I0403 15:05:25.407455  2641 layer_factory.hpp:77] Creating layer inception_4b/relu_pool_proj
I0403 15:05:25.407475  2641 net.cpp:91] Creating Layer inception_4b/relu_pool_proj
I0403 15:05:25.407493  2641 net.cpp:425] inception_4b/relu_pool_proj <- inception_4b/pool_proj
I0403 15:05:25.407510  2641 net.cpp:386] inception_4b/relu_pool_proj -> inception_4b/pool_proj (in-place)
I0403 15:05:25.407691  2641 net.cpp:141] Setting up inception_4b/relu_pool_proj
I0403 15:05:25.407716  2641 net.cpp:148] Top shape: 24 64 14 14 (301056)
I0403 15:05:25.407734  2641 net.cpp:156] Memory required for data: 980223264
I0403 15:05:25.407750  2641 layer_factory.hpp:77] Creating layer inception_4b/output
I0403 15:05:25.407770  2641 net.cpp:91] Creating Layer inception_4b/output
I0403 15:05:25.407794  2641 net.cpp:425] inception_4b/output <- inception_4b/1x1
I0403 15:05:25.407811  2641 net.cpp:425] inception_4b/output <- inception_4b/3x3
I0403 15:05:25.407831  2641 net.cpp:425] inception_4b/output <- inception_4b/5x5
I0403 15:05:25.407847  2641 net.cpp:425] inception_4b/output <- inception_4b/pool_proj
I0403 15:05:25.407865  2641 net.cpp:399] inception_4b/output -> inception_4b/output
I0403 15:05:25.407912  2641 net.cpp:141] Setting up inception_4b/output
I0403 15:05:25.407934  2641 net.cpp:148] Top shape: 24 512 14 14 (2408448)
I0403 15:05:25.407949  2641 net.cpp:156] Memory required for data: 989857056
I0403 15:05:25.407977  2641 layer_factory.hpp:77] Creating layer inception_4b/output_inception_4b/output_0_split
I0403 15:05:25.407997  2641 net.cpp:91] Creating Layer inception_4b/output_inception_4b/output_0_split
I0403 15:05:25.408012  2641 net.cpp:425] inception_4b/output_inception_4b/output_0_split <- inception_4b/output
I0403 15:05:25.408032  2641 net.cpp:399] inception_4b/output_inception_4b/output_0_split -> inception_4b/output_inception_4b/output_0_split_0
I0403 15:05:25.408052  2641 net.cpp:399] inception_4b/output_inception_4b/output_0_split -> inception_4b/output_inception_4b/output_0_split_1
I0403 15:05:25.408073  2641 net.cpp:399] inception_4b/output_inception_4b/output_0_split -> inception_4b/output_inception_4b/output_0_split_2
I0403 15:05:25.408098  2641 net.cpp:399] inception_4b/output_inception_4b/output_0_split -> inception_4b/output_inception_4b/output_0_split_3
I0403 15:05:25.408188  2641 net.cpp:141] Setting up inception_4b/output_inception_4b/output_0_split
I0403 15:05:25.408216  2641 net.cpp:148] Top shape: 24 512 14 14 (2408448)
I0403 15:05:25.408236  2641 net.cpp:148] Top shape: 24 512 14 14 (2408448)
I0403 15:05:25.408258  2641 net.cpp:148] Top shape: 24 512 14 14 (2408448)
I0403 15:05:25.408274  2641 net.cpp:148] Top shape: 24 512 14 14 (2408448)
I0403 15:05:25.408288  2641 net.cpp:156] Memory required for data: 1028392224
I0403 15:05:25.408303  2641 layer_factory.hpp:77] Creating layer inception_4c/1x1
I0403 15:05:25.408325  2641 net.cpp:91] Creating Layer inception_4c/1x1
I0403 15:05:25.408342  2641 net.cpp:425] inception_4c/1x1 <- inception_4b/output_inception_4b/output_0_split_0
I0403 15:05:25.408360  2641 net.cpp:399] inception_4c/1x1 -> inception_4c/1x1
I0403 15:05:25.409801  2641 net.cpp:141] Setting up inception_4c/1x1
I0403 15:05:25.409828  2641 net.cpp:148] Top shape: 24 128 14 14 (602112)
I0403 15:05:25.409843  2641 net.cpp:156] Memory required for data: 1030800672
I0403 15:05:25.409862  2641 layer_factory.hpp:77] Creating layer inception_4c/relu_1x1
I0403 15:05:25.409883  2641 net.cpp:91] Creating Layer inception_4c/relu_1x1
I0403 15:05:25.409899  2641 net.cpp:425] inception_4c/relu_1x1 <- inception_4c/1x1
I0403 15:05:25.409917  2641 net.cpp:386] inception_4c/relu_1x1 -> inception_4c/1x1 (in-place)
I0403 15:05:25.410097  2641 net.cpp:141] Setting up inception_4c/relu_1x1
I0403 15:05:25.410125  2641 net.cpp:148] Top shape: 24 128 14 14 (602112)
I0403 15:05:25.410140  2641 net.cpp:156] Memory required for data: 1033209120
I0403 15:05:25.410156  2641 layer_factory.hpp:77] Creating layer inception_4c/3x3_reduce
I0403 15:05:25.410176  2641 net.cpp:91] Creating Layer inception_4c/3x3_reduce
I0403 15:05:25.410193  2641 net.cpp:425] inception_4c/3x3_reduce <- inception_4b/output_inception_4b/output_0_split_1
I0403 15:05:25.410215  2641 net.cpp:399] inception_4c/3x3_reduce -> inception_4c/3x3_reduce
I0403 15:05:25.412142  2641 net.cpp:141] Setting up inception_4c/3x3_reduce
I0403 15:05:25.412169  2641 net.cpp:148] Top shape: 24 128 14 14 (602112)
I0403 15:05:25.412185  2641 net.cpp:156] Memory required for data: 1035617568
I0403 15:05:25.412204  2641 layer_factory.hpp:77] Creating layer inception_4c/relu_3x3_reduce
I0403 15:05:25.412223  2641 net.cpp:91] Creating Layer inception_4c/relu_3x3_reduce
I0403 15:05:25.412238  2641 net.cpp:425] inception_4c/relu_3x3_reduce <- inception_4c/3x3_reduce
I0403 15:05:25.412271  2641 net.cpp:386] inception_4c/relu_3x3_reduce -> inception_4c/3x3_reduce (in-place)
I0403 15:05:25.412551  2641 net.cpp:141] Setting up inception_4c/relu_3x3_reduce
I0403 15:05:25.412577  2641 net.cpp:148] Top shape: 24 128 14 14 (602112)
I0403 15:05:25.412591  2641 net.cpp:156] Memory required for data: 1038026016
I0403 15:05:25.412606  2641 layer_factory.hpp:77] Creating layer inception_4c/3x3
I0403 15:05:25.412629  2641 net.cpp:91] Creating Layer inception_4c/3x3
I0403 15:05:25.412645  2641 net.cpp:425] inception_4c/3x3 <- inception_4c/3x3_reduce
I0403 15:05:25.412667  2641 net.cpp:399] inception_4c/3x3 -> inception_4c/3x3
I0403 15:05:25.416167  2641 net.cpp:141] Setting up inception_4c/3x3
I0403 15:05:25.416208  2641 net.cpp:148] Top shape: 24 256 14 14 (1204224)
I0403 15:05:25.416225  2641 net.cpp:156] Memory required for data: 1042842912
I0403 15:05:25.416261  2641 layer_factory.hpp:77] Creating layer inception_4c/relu_3x3
I0403 15:05:25.416282  2641 net.cpp:91] Creating Layer inception_4c/relu_3x3
I0403 15:05:25.416301  2641 net.cpp:425] inception_4c/relu_3x3 <- inception_4c/3x3
I0403 15:05:25.416317  2641 net.cpp:386] inception_4c/relu_3x3 -> inception_4c/3x3 (in-place)
I0403 15:05:25.416493  2641 net.cpp:141] Setting up inception_4c/relu_3x3
I0403 15:05:25.416517  2641 net.cpp:148] Top shape: 24 256 14 14 (1204224)
I0403 15:05:25.416532  2641 net.cpp:156] Memory required for data: 1047659808
I0403 15:05:25.416546  2641 layer_factory.hpp:77] Creating layer inception_4c/5x5_reduce
I0403 15:05:25.416568  2641 net.cpp:91] Creating Layer inception_4c/5x5_reduce
I0403 15:05:25.416586  2641 net.cpp:425] inception_4c/5x5_reduce <- inception_4b/output_inception_4b/output_0_split_2
I0403 15:05:25.416607  2641 net.cpp:399] inception_4c/5x5_reduce -> inception_4c/5x5_reduce
I0403 15:05:25.417675  2641 net.cpp:141] Setting up inception_4c/5x5_reduce
I0403 15:05:25.417702  2641 net.cpp:148] Top shape: 24 24 14 14 (112896)
I0403 15:05:25.417717  2641 net.cpp:156] Memory required for data: 1048111392
I0403 15:05:25.417734  2641 layer_factory.hpp:77] Creating layer inception_4c/relu_5x5_reduce
I0403 15:05:25.417752  2641 net.cpp:91] Creating Layer inception_4c/relu_5x5_reduce
I0403 15:05:25.417768  2641 net.cpp:425] inception_4c/relu_5x5_reduce <- inception_4c/5x5_reduce
I0403 15:05:25.417786  2641 net.cpp:386] inception_4c/relu_5x5_reduce -> inception_4c/5x5_reduce (in-place)
I0403 15:05:25.417968  2641 net.cpp:141] Setting up inception_4c/relu_5x5_reduce
I0403 15:05:25.417991  2641 net.cpp:148] Top shape: 24 24 14 14 (112896)
I0403 15:05:25.418005  2641 net.cpp:156] Memory required for data: 1048562976
I0403 15:05:25.418020  2641 layer_factory.hpp:77] Creating layer inception_4c/5x5
I0403 15:05:25.418041  2641 net.cpp:91] Creating Layer inception_4c/5x5
I0403 15:05:25.418057  2641 net.cpp:425] inception_4c/5x5 <- inception_4c/5x5_reduce
I0403 15:05:25.418078  2641 net.cpp:399] inception_4c/5x5 -> inception_4c/5x5
I0403 15:05:25.419312  2641 net.cpp:141] Setting up inception_4c/5x5
I0403 15:05:25.419339  2641 net.cpp:148] Top shape: 24 64 14 14 (301056)
I0403 15:05:25.419354  2641 net.cpp:156] Memory required for data: 1049767200
I0403 15:05:25.419373  2641 layer_factory.hpp:77] Creating layer inception_4c/relu_5x5
I0403 15:05:25.419392  2641 net.cpp:91] Creating Layer inception_4c/relu_5x5
I0403 15:05:25.419409  2641 net.cpp:425] inception_4c/relu_5x5 <- inception_4c/5x5
I0403 15:05:25.419426  2641 net.cpp:386] inception_4c/relu_5x5 -> inception_4c/5x5 (in-place)
I0403 15:05:25.419708  2641 net.cpp:141] Setting up inception_4c/relu_5x5
I0403 15:05:25.419734  2641 net.cpp:148] Top shape: 24 64 14 14 (301056)
I0403 15:05:25.419749  2641 net.cpp:156] Memory required for data: 1050971424
I0403 15:05:25.419764  2641 layer_factory.hpp:77] Creating layer inception_4c/pool
I0403 15:05:25.419782  2641 net.cpp:91] Creating Layer inception_4c/pool
I0403 15:05:25.419800  2641 net.cpp:425] inception_4c/pool <- inception_4b/output_inception_4b/output_0_split_3
I0403 15:05:25.419816  2641 net.cpp:399] inception_4c/pool -> inception_4c/pool
I0403 15:05:25.419881  2641 net.cpp:141] Setting up inception_4c/pool
I0403 15:05:25.419904  2641 net.cpp:148] Top shape: 24 512 14 14 (2408448)
I0403 15:05:25.419919  2641 net.cpp:156] Memory required for data: 1060605216
I0403 15:05:25.419934  2641 layer_factory.hpp:77] Creating layer inception_4c/pool_proj
I0403 15:05:25.419955  2641 net.cpp:91] Creating Layer inception_4c/pool_proj
I0403 15:05:25.419971  2641 net.cpp:425] inception_4c/pool_proj <- inception_4c/pool
I0403 15:05:25.419991  2641 net.cpp:399] inception_4c/pool_proj -> inception_4c/pool_proj
I0403 15:05:25.421190  2641 net.cpp:141] Setting up inception_4c/pool_proj
I0403 15:05:25.421218  2641 net.cpp:148] Top shape: 24 64 14 14 (301056)
I0403 15:05:25.421250  2641 net.cpp:156] Memory required for data: 1061809440
I0403 15:05:25.421270  2641 layer_factory.hpp:77] Creating layer inception_4c/relu_pool_proj
I0403 15:05:25.421288  2641 net.cpp:91] Creating Layer inception_4c/relu_pool_proj
I0403 15:05:25.421308  2641 net.cpp:425] inception_4c/relu_pool_proj <- inception_4c/pool_proj
I0403 15:05:25.421324  2641 net.cpp:386] inception_4c/relu_pool_proj -> inception_4c/pool_proj (in-place)
I0403 15:05:25.421504  2641 net.cpp:141] Setting up inception_4c/relu_pool_proj
I0403 15:05:25.421540  2641 net.cpp:148] Top shape: 24 64 14 14 (301056)
I0403 15:05:25.421555  2641 net.cpp:156] Memory required for data: 1063013664
I0403 15:05:25.421569  2641 layer_factory.hpp:77] Creating layer inception_4c/output
I0403 15:05:25.421589  2641 net.cpp:91] Creating Layer inception_4c/output
I0403 15:05:25.421607  2641 net.cpp:425] inception_4c/output <- inception_4c/1x1
I0403 15:05:25.421622  2641 net.cpp:425] inception_4c/output <- inception_4c/3x3
I0403 15:05:25.421638  2641 net.cpp:425] inception_4c/output <- inception_4c/5x5
I0403 15:05:25.421654  2641 net.cpp:425] inception_4c/output <- inception_4c/pool_proj
I0403 15:05:25.421671  2641 net.cpp:399] inception_4c/output -> inception_4c/output
I0403 15:05:25.421720  2641 net.cpp:141] Setting up inception_4c/output
I0403 15:05:25.421742  2641 net.cpp:148] Top shape: 24 512 14 14 (2408448)
I0403 15:05:25.421757  2641 net.cpp:156] Memory required for data: 1072647456
I0403 15:05:25.421772  2641 layer_factory.hpp:77] Creating layer inception_4c/output_inception_4c/output_0_split
I0403 15:05:25.421790  2641 net.cpp:91] Creating Layer inception_4c/output_inception_4c/output_0_split
I0403 15:05:25.421805  2641 net.cpp:425] inception_4c/output_inception_4c/output_0_split <- inception_4c/output
I0403 15:05:25.421825  2641 net.cpp:399] inception_4c/output_inception_4c/output_0_split -> inception_4c/output_inception_4c/output_0_split_0
I0403 15:05:25.421847  2641 net.cpp:399] inception_4c/output_inception_4c/output_0_split -> inception_4c/output_inception_4c/output_0_split_1
I0403 15:05:25.421869  2641 net.cpp:399] inception_4c/output_inception_4c/output_0_split -> inception_4c/output_inception_4c/output_0_split_2
I0403 15:05:25.421888  2641 net.cpp:399] inception_4c/output_inception_4c/output_0_split -> inception_4c/output_inception_4c/output_0_split_3
I0403 15:05:25.421979  2641 net.cpp:141] Setting up inception_4c/output_inception_4c/output_0_split
I0403 15:05:25.422005  2641 net.cpp:148] Top shape: 24 512 14 14 (2408448)
I0403 15:05:25.422024  2641 net.cpp:148] Top shape: 24 512 14 14 (2408448)
I0403 15:05:25.422039  2641 net.cpp:148] Top shape: 24 512 14 14 (2408448)
I0403 15:05:25.422054  2641 net.cpp:148] Top shape: 24 512 14 14 (2408448)
I0403 15:05:25.422067  2641 net.cpp:156] Memory required for data: 1111182624
I0403 15:05:25.422081  2641 layer_factory.hpp:77] Creating layer inception_4d/1x1
I0403 15:05:25.422103  2641 net.cpp:91] Creating Layer inception_4d/1x1
I0403 15:05:25.422122  2641 net.cpp:425] inception_4d/1x1 <- inception_4c/output_inception_4c/output_0_split_0
I0403 15:05:25.422140  2641 net.cpp:399] inception_4d/1x1 -> inception_4d/1x1
I0403 15:05:25.423552  2641 net.cpp:141] Setting up inception_4d/1x1
I0403 15:05:25.423581  2641 net.cpp:148] Top shape: 24 112 14 14 (526848)
I0403 15:05:25.423598  2641 net.cpp:156] Memory required for data: 1113290016
I0403 15:05:25.423616  2641 layer_factory.hpp:77] Creating layer inception_4d/relu_1x1
I0403 15:05:25.423634  2641 net.cpp:91] Creating Layer inception_4d/relu_1x1
I0403 15:05:25.423650  2641 net.cpp:425] inception_4d/relu_1x1 <- inception_4d/1x1
I0403 15:05:25.423667  2641 net.cpp:386] inception_4d/relu_1x1 -> inception_4d/1x1 (in-place)
I0403 15:05:25.423848  2641 net.cpp:141] Setting up inception_4d/relu_1x1
I0403 15:05:25.423872  2641 net.cpp:148] Top shape: 24 112 14 14 (526848)
I0403 15:05:25.423887  2641 net.cpp:156] Memory required for data: 1115397408
I0403 15:05:25.423902  2641 layer_factory.hpp:77] Creating layer inception_4d/3x3_reduce
I0403 15:05:25.423936  2641 net.cpp:91] Creating Layer inception_4d/3x3_reduce
I0403 15:05:25.423954  2641 net.cpp:425] inception_4d/3x3_reduce <- inception_4c/output_inception_4c/output_0_split_1
I0403 15:05:25.423975  2641 net.cpp:399] inception_4d/3x3_reduce -> inception_4d/3x3_reduce
I0403 15:05:25.425470  2641 net.cpp:141] Setting up inception_4d/3x3_reduce
I0403 15:05:25.425498  2641 net.cpp:148] Top shape: 24 144 14 14 (677376)
I0403 15:05:25.425513  2641 net.cpp:156] Memory required for data: 1118106912
I0403 15:05:25.425530  2641 layer_factory.hpp:77] Creating layer inception_4d/relu_3x3_reduce
I0403 15:05:25.425550  2641 net.cpp:91] Creating Layer inception_4d/relu_3x3_reduce
I0403 15:05:25.425566  2641 net.cpp:425] inception_4d/relu_3x3_reduce <- inception_4d/3x3_reduce
I0403 15:05:25.425585  2641 net.cpp:386] inception_4d/relu_3x3_reduce -> inception_4d/3x3_reduce (in-place)
I0403 15:05:25.425869  2641 net.cpp:141] Setting up inception_4d/relu_3x3_reduce
I0403 15:05:25.425894  2641 net.cpp:148] Top shape: 24 144 14 14 (677376)
I0403 15:05:25.425909  2641 net.cpp:156] Memory required for data: 1120816416
I0403 15:05:25.425923  2641 layer_factory.hpp:77] Creating layer inception_4d/3x3
I0403 15:05:25.425945  2641 net.cpp:91] Creating Layer inception_4d/3x3
I0403 15:05:25.425963  2641 net.cpp:425] inception_4d/3x3 <- inception_4d/3x3_reduce
I0403 15:05:25.425983  2641 net.cpp:399] inception_4d/3x3 -> inception_4d/3x3
I0403 15:05:25.430258  2641 net.cpp:141] Setting up inception_4d/3x3
I0403 15:05:25.430289  2641 net.cpp:148] Top shape: 24 288 14 14 (1354752)
I0403 15:05:25.430306  2641 net.cpp:156] Memory required for data: 1126235424
I0403 15:05:25.430325  2641 layer_factory.hpp:77] Creating layer inception_4d/relu_3x3
I0403 15:05:25.430343  2641 net.cpp:91] Creating Layer inception_4d/relu_3x3
I0403 15:05:25.430359  2641 net.cpp:425] inception_4d/relu_3x3 <- inception_4d/3x3
I0403 15:05:25.430379  2641 net.cpp:386] inception_4d/relu_3x3 -> inception_4d/3x3 (in-place)
I0403 15:05:25.430570  2641 net.cpp:141] Setting up inception_4d/relu_3x3
I0403 15:05:25.430594  2641 net.cpp:148] Top shape: 24 288 14 14 (1354752)
I0403 15:05:25.430609  2641 net.cpp:156] Memory required for data: 1131654432
I0403 15:05:25.430624  2641 layer_factory.hpp:77] Creating layer inception_4d/5x5_reduce
I0403 15:05:25.430646  2641 net.cpp:91] Creating Layer inception_4d/5x5_reduce
I0403 15:05:25.430665  2641 net.cpp:425] inception_4d/5x5_reduce <- inception_4c/output_inception_4c/output_0_split_2
I0403 15:05:25.430686  2641 net.cpp:399] inception_4d/5x5_reduce -> inception_4d/5x5_reduce
I0403 15:05:25.431861  2641 net.cpp:141] Setting up inception_4d/5x5_reduce
I0403 15:05:25.431891  2641 net.cpp:148] Top shape: 24 32 14 14 (150528)
I0403 15:05:25.431907  2641 net.cpp:156] Memory required for data: 1132256544
I0403 15:05:25.431926  2641 layer_factory.hpp:77] Creating layer inception_4d/relu_5x5_reduce
I0403 15:05:25.431944  2641 net.cpp:91] Creating Layer inception_4d/relu_5x5_reduce
I0403 15:05:25.431960  2641 net.cpp:425] inception_4d/relu_5x5_reduce <- inception_4d/5x5_reduce
I0403 15:05:25.431980  2641 net.cpp:386] inception_4d/relu_5x5_reduce -> inception_4d/5x5_reduce (in-place)
I0403 15:05:25.432173  2641 net.cpp:141] Setting up inception_4d/relu_5x5_reduce
I0403 15:05:25.432198  2641 net.cpp:148] Top shape: 24 32 14 14 (150528)
I0403 15:05:25.432214  2641 net.cpp:156] Memory required for data: 1132858656
I0403 15:05:25.432229  2641 layer_factory.hpp:77] Creating layer inception_4d/5x5
I0403 15:05:25.432260  2641 net.cpp:91] Creating Layer inception_4d/5x5
I0403 15:05:25.432281  2641 net.cpp:425] inception_4d/5x5 <- inception_4d/5x5_reduce
I0403 15:05:25.432302  2641 net.cpp:399] inception_4d/5x5 -> inception_4d/5x5
I0403 15:05:25.433789  2641 net.cpp:141] Setting up inception_4d/5x5
I0403 15:05:25.433816  2641 net.cpp:148] Top shape: 24 64 14 14 (301056)
I0403 15:05:25.433832  2641 net.cpp:156] Memory required for data: 1134062880
I0403 15:05:25.433851  2641 layer_factory.hpp:77] Creating layer inception_4d/relu_5x5
I0403 15:05:25.433887  2641 net.cpp:91] Creating Layer inception_4d/relu_5x5
I0403 15:05:25.433904  2641 net.cpp:425] inception_4d/relu_5x5 <- inception_4d/5x5
I0403 15:05:25.433923  2641 net.cpp:386] inception_4d/relu_5x5 -> inception_4d/5x5 (in-place)
I0403 15:05:25.434227  2641 net.cpp:141] Setting up inception_4d/relu_5x5
I0403 15:05:25.434257  2641 net.cpp:148] Top shape: 24 64 14 14 (301056)
I0403 15:05:25.434273  2641 net.cpp:156] Memory required for data: 1135267104
I0403 15:05:25.434288  2641 layer_factory.hpp:77] Creating layer inception_4d/pool
I0403 15:05:25.434306  2641 net.cpp:91] Creating Layer inception_4d/pool
I0403 15:05:25.434322  2641 net.cpp:425] inception_4d/pool <- inception_4c/output_inception_4c/output_0_split_3
I0403 15:05:25.434343  2641 net.cpp:399] inception_4d/pool -> inception_4d/pool
I0403 15:05:25.434412  2641 net.cpp:141] Setting up inception_4d/pool
I0403 15:05:25.434434  2641 net.cpp:148] Top shape: 24 512 14 14 (2408448)
I0403 15:05:25.434449  2641 net.cpp:156] Memory required for data: 1144900896
I0403 15:05:25.434464  2641 layer_factory.hpp:77] Creating layer inception_4d/pool_proj
I0403 15:05:25.434487  2641 net.cpp:91] Creating Layer inception_4d/pool_proj
I0403 15:05:25.434504  2641 net.cpp:425] inception_4d/pool_proj <- inception_4d/pool
I0403 15:05:25.434526  2641 net.cpp:399] inception_4d/pool_proj -> inception_4d/pool_proj
I0403 15:05:25.436301  2641 net.cpp:141] Setting up inception_4d/pool_proj
I0403 15:05:25.436332  2641 net.cpp:148] Top shape: 24 64 14 14 (301056)
I0403 15:05:25.436349  2641 net.cpp:156] Memory required for data: 1146105120
I0403 15:05:25.436367  2641 layer_factory.hpp:77] Creating layer inception_4d/relu_pool_proj
I0403 15:05:25.436385  2641 net.cpp:91] Creating Layer inception_4d/relu_pool_proj
I0403 15:05:25.436401  2641 net.cpp:425] inception_4d/relu_pool_proj <- inception_4d/pool_proj
I0403 15:05:25.436421  2641 net.cpp:386] inception_4d/relu_pool_proj -> inception_4d/pool_proj (in-place)
I0403 15:05:25.436611  2641 net.cpp:141] Setting up inception_4d/relu_pool_proj
I0403 15:05:25.436636  2641 net.cpp:148] Top shape: 24 64 14 14 (301056)
I0403 15:05:25.436651  2641 net.cpp:156] Memory required for data: 1147309344
I0403 15:05:25.436666  2641 layer_factory.hpp:77] Creating layer inception_4d/output
I0403 15:05:25.436683  2641 net.cpp:91] Creating Layer inception_4d/output
I0403 15:05:25.436699  2641 net.cpp:425] inception_4d/output <- inception_4d/1x1
I0403 15:05:25.436717  2641 net.cpp:425] inception_4d/output <- inception_4d/3x3
I0403 15:05:25.436733  2641 net.cpp:425] inception_4d/output <- inception_4d/5x5
I0403 15:05:25.436749  2641 net.cpp:425] inception_4d/output <- inception_4d/pool_proj
I0403 15:05:25.436769  2641 net.cpp:399] inception_4d/output -> inception_4d/output
I0403 15:05:25.436815  2641 net.cpp:141] Setting up inception_4d/output
I0403 15:05:25.436841  2641 net.cpp:148] Top shape: 24 528 14 14 (2483712)
I0403 15:05:25.436856  2641 net.cpp:156] Memory required for data: 1157244192
I0403 15:05:25.436872  2641 layer_factory.hpp:77] Creating layer inception_4d/output_inception_4d/output_0_split
I0403 15:05:25.436889  2641 net.cpp:91] Creating Layer inception_4d/output_inception_4d/output_0_split
I0403 15:05:25.436905  2641 net.cpp:425] inception_4d/output_inception_4d/output_0_split <- inception_4d/output
I0403 15:05:25.436925  2641 net.cpp:399] inception_4d/output_inception_4d/output_0_split -> inception_4d/output_inception_4d/output_0_split_0
I0403 15:05:25.436946  2641 net.cpp:399] inception_4d/output_inception_4d/output_0_split -> inception_4d/output_inception_4d/output_0_split_1
I0403 15:05:25.436967  2641 net.cpp:399] inception_4d/output_inception_4d/output_0_split -> inception_4d/output_inception_4d/output_0_split_2
I0403 15:05:25.436988  2641 net.cpp:399] inception_4d/output_inception_4d/output_0_split -> inception_4d/output_inception_4d/output_0_split_3
I0403 15:05:25.437008  2641 net.cpp:399] inception_4d/output_inception_4d/output_0_split -> inception_4d/output_inception_4d/output_0_split_4
I0403 15:05:25.437114  2641 net.cpp:141] Setting up inception_4d/output_inception_4d/output_0_split
I0403 15:05:25.437150  2641 net.cpp:148] Top shape: 24 528 14 14 (2483712)
I0403 15:05:25.437167  2641 net.cpp:148] Top shape: 24 528 14 14 (2483712)
I0403 15:05:25.437183  2641 net.cpp:148] Top shape: 24 528 14 14 (2483712)
I0403 15:05:25.437199  2641 net.cpp:148] Top shape: 24 528 14 14 (2483712)
I0403 15:05:25.437216  2641 net.cpp:148] Top shape: 24 528 14 14 (2483712)
I0403 15:05:25.437229  2641 net.cpp:156] Memory required for data: 1206918432
I0403 15:05:25.437248  2641 layer_factory.hpp:77] Creating layer loss2/ave_pool
I0403 15:05:25.437270  2641 net.cpp:91] Creating Layer loss2/ave_pool
I0403 15:05:25.437288  2641 net.cpp:425] loss2/ave_pool <- inception_4d/output_inception_4d/output_0_split_0
I0403 15:05:25.437309  2641 net.cpp:399] loss2/ave_pool -> loss2/ave_pool
I0403 15:05:25.437628  2641 net.cpp:141] Setting up loss2/ave_pool
I0403 15:05:25.437655  2641 net.cpp:148] Top shape: 24 528 4 4 (202752)
I0403 15:05:25.437670  2641 net.cpp:156] Memory required for data: 1207729440
I0403 15:05:25.437685  2641 layer_factory.hpp:77] Creating layer loss2/conv
I0403 15:05:25.437707  2641 net.cpp:91] Creating Layer loss2/conv
I0403 15:05:25.437726  2641 net.cpp:425] loss2/conv <- loss2/ave_pool
I0403 15:05:25.437747  2641 net.cpp:399] loss2/conv -> loss2/conv
I0403 15:05:25.439669  2641 net.cpp:141] Setting up loss2/conv
I0403 15:05:25.439699  2641 net.cpp:148] Top shape: 24 128 4 4 (49152)
I0403 15:05:25.439715  2641 net.cpp:156] Memory required for data: 1207926048
I0403 15:05:25.439734  2641 layer_factory.hpp:77] Creating layer loss2/relu_conv
I0403 15:05:25.439755  2641 net.cpp:91] Creating Layer loss2/relu_conv
I0403 15:05:25.439771  2641 net.cpp:425] loss2/relu_conv <- loss2/conv
I0403 15:05:25.439790  2641 net.cpp:386] loss2/relu_conv -> loss2/conv (in-place)
I0403 15:05:25.440083  2641 net.cpp:141] Setting up loss2/relu_conv
I0403 15:05:25.440109  2641 net.cpp:148] Top shape: 24 128 4 4 (49152)
I0403 15:05:25.440124  2641 net.cpp:156] Memory required for data: 1208122656
I0403 15:05:25.440138  2641 layer_factory.hpp:77] Creating layer loss2/fc
I0403 15:05:25.440160  2641 net.cpp:91] Creating Layer loss2/fc
I0403 15:05:25.440177  2641 net.cpp:425] loss2/fc <- loss2/conv
I0403 15:05:25.440196  2641 net.cpp:399] loss2/fc -> loss2/fc
I0403 15:05:25.457866  2641 net.cpp:141] Setting up loss2/fc
I0403 15:05:25.457900  2641 net.cpp:148] Top shape: 24 1024 (24576)
I0403 15:05:25.457914  2641 net.cpp:156] Memory required for data: 1208220960
I0403 15:05:25.457933  2641 layer_factory.hpp:77] Creating layer loss2/relu_fc
I0403 15:05:25.457950  2641 net.cpp:91] Creating Layer loss2/relu_fc
I0403 15:05:25.457967  2641 net.cpp:425] loss2/relu_fc <- loss2/fc
I0403 15:05:25.457986  2641 net.cpp:386] loss2/relu_fc -> loss2/fc (in-place)
I0403 15:05:25.458299  2641 net.cpp:141] Setting up loss2/relu_fc
I0403 15:05:25.458328  2641 net.cpp:148] Top shape: 24 1024 (24576)
I0403 15:05:25.458344  2641 net.cpp:156] Memory required for data: 1208319264
I0403 15:05:25.458359  2641 layer_factory.hpp:77] Creating layer loss2/drop_fc
I0403 15:05:25.458377  2641 net.cpp:91] Creating Layer loss2/drop_fc
I0403 15:05:25.458395  2641 net.cpp:425] loss2/drop_fc <- loss2/fc
I0403 15:05:25.458415  2641 net.cpp:386] loss2/drop_fc -> loss2/fc (in-place)
I0403 15:05:25.458464  2641 net.cpp:141] Setting up loss2/drop_fc
I0403 15:05:25.458487  2641 net.cpp:148] Top shape: 24 1024 (24576)
I0403 15:05:25.458501  2641 net.cpp:156] Memory required for data: 1208417568
I0403 15:05:25.458516  2641 layer_factory.hpp:77] Creating layer loss2/classifier_plantvillage
I0403 15:05:25.458536  2641 net.cpp:91] Creating Layer loss2/classifier_plantvillage
I0403 15:05:25.458554  2641 net.cpp:425] loss2/classifier_plantvillage <- loss2/fc
I0403 15:05:25.458585  2641 net.cpp:399] loss2/classifier_plantvillage -> loss2/classifier_plantvillage
I0403 15:05:25.458981  2641 net.cpp:141] Setting up loss2/classifier_plantvillage
I0403 15:05:25.459004  2641 net.cpp:148] Top shape: 24 38 (912)
I0403 15:05:25.459034  2641 net.cpp:156] Memory required for data: 1208421216
I0403 15:05:25.459053  2641 layer_factory.hpp:77] Creating layer loss2/classifier_plantvillage_loss2/classifier_plantvillage_0_split
I0403 15:05:25.459074  2641 net.cpp:91] Creating Layer loss2/classifier_plantvillage_loss2/classifier_plantvillage_0_split
I0403 15:05:25.459090  2641 net.cpp:425] loss2/classifier_plantvillage_loss2/classifier_plantvillage_0_split <- loss2/classifier_plantvillage
I0403 15:05:25.459107  2641 net.cpp:399] loss2/classifier_plantvillage_loss2/classifier_plantvillage_0_split -> loss2/classifier_plantvillage_loss2/classifier_plantvillage_0_split_0
I0403 15:05:25.459127  2641 net.cpp:399] loss2/classifier_plantvillage_loss2/classifier_plantvillage_0_split -> loss2/classifier_plantvillage_loss2/classifier_plantvillage_0_split_1
I0403 15:05:25.459147  2641 net.cpp:399] loss2/classifier_plantvillage_loss2/classifier_plantvillage_0_split -> loss2/classifier_plantvillage_loss2/classifier_plantvillage_0_split_2
I0403 15:05:25.459225  2641 net.cpp:141] Setting up loss2/classifier_plantvillage_loss2/classifier_plantvillage_0_split
I0403 15:05:25.459251  2641 net.cpp:148] Top shape: 24 38 (912)
I0403 15:05:25.459269  2641 net.cpp:148] Top shape: 24 38 (912)
I0403 15:05:25.459296  2641 net.cpp:148] Top shape: 24 38 (912)
I0403 15:05:25.459309  2641 net.cpp:156] Memory required for data: 1208432160
I0403 15:05:25.459324  2641 layer_factory.hpp:77] Creating layer inception_4e/1x1
I0403 15:05:25.459344  2641 net.cpp:91] Creating Layer inception_4e/1x1
I0403 15:05:25.459362  2641 net.cpp:425] inception_4e/1x1 <- inception_4d/output_inception_4d/output_0_split_1
I0403 15:05:25.459383  2641 net.cpp:399] inception_4e/1x1 -> inception_4e/1x1
I0403 15:05:25.461248  2641 net.cpp:141] Setting up inception_4e/1x1
I0403 15:05:25.461275  2641 net.cpp:148] Top shape: 24 256 14 14 (1204224)
I0403 15:05:25.461303  2641 net.cpp:156] Memory required for data: 1213249056
I0403 15:05:25.461323  2641 layer_factory.hpp:77] Creating layer inception_4e/relu_1x1
I0403 15:05:25.461344  2641 net.cpp:91] Creating Layer inception_4e/relu_1x1
I0403 15:05:25.461361  2641 net.cpp:425] inception_4e/relu_1x1 <- inception_4e/1x1
I0403 15:05:25.461380  2641 net.cpp:386] inception_4e/relu_1x1 -> inception_4e/1x1 (in-place)
I0403 15:05:25.461699  2641 net.cpp:141] Setting up inception_4e/relu_1x1
I0403 15:05:25.461725  2641 net.cpp:148] Top shape: 24 256 14 14 (1204224)
I0403 15:05:25.461741  2641 net.cpp:156] Memory required for data: 1218065952
I0403 15:05:25.461756  2641 layer_factory.hpp:77] Creating layer inception_4e/3x3_reduce
I0403 15:05:25.461778  2641 net.cpp:91] Creating Layer inception_4e/3x3_reduce
I0403 15:05:25.461796  2641 net.cpp:425] inception_4e/3x3_reduce <- inception_4d/output_inception_4d/output_0_split_2
I0403 15:05:25.461817  2641 net.cpp:399] inception_4e/3x3_reduce -> inception_4e/3x3_reduce
I0403 15:05:25.463999  2641 net.cpp:141] Setting up inception_4e/3x3_reduce
I0403 15:05:25.464028  2641 net.cpp:148] Top shape: 24 160 14 14 (752640)
I0403 15:05:25.464043  2641 net.cpp:156] Memory required for data: 1221076512
I0403 15:05:25.464062  2641 layer_factory.hpp:77] Creating layer inception_4e/relu_3x3_reduce
I0403 15:05:25.464083  2641 net.cpp:91] Creating Layer inception_4e/relu_3x3_reduce
I0403 15:05:25.464099  2641 net.cpp:425] inception_4e/relu_3x3_reduce <- inception_4e/3x3_reduce
I0403 15:05:25.464118  2641 net.cpp:386] inception_4e/relu_3x3_reduce -> inception_4e/3x3_reduce (in-place)
I0403 15:05:25.464314  2641 net.cpp:141] Setting up inception_4e/relu_3x3_reduce
I0403 15:05:25.464339  2641 net.cpp:148] Top shape: 24 160 14 14 (752640)
I0403 15:05:25.464354  2641 net.cpp:156] Memory required for data: 1224087072
I0403 15:05:25.464370  2641 layer_factory.hpp:77] Creating layer inception_4e/3x3
I0403 15:05:25.464390  2641 net.cpp:91] Creating Layer inception_4e/3x3
I0403 15:05:25.464411  2641 net.cpp:425] inception_4e/3x3 <- inception_4e/3x3_reduce
I0403 15:05:25.464429  2641 net.cpp:399] inception_4e/3x3 -> inception_4e/3x3
I0403 15:05:25.469490  2641 net.cpp:141] Setting up inception_4e/3x3
I0403 15:05:25.469532  2641 net.cpp:148] Top shape: 24 320 14 14 (1505280)
I0403 15:05:25.469549  2641 net.cpp:156] Memory required for data: 1230108192
I0403 15:05:25.469568  2641 layer_factory.hpp:77] Creating layer inception_4e/relu_3x3
I0403 15:05:25.469589  2641 net.cpp:91] Creating Layer inception_4e/relu_3x3
I0403 15:05:25.469606  2641 net.cpp:425] inception_4e/relu_3x3 <- inception_4e/3x3
I0403 15:05:25.469624  2641 net.cpp:386] inception_4e/relu_3x3 -> inception_4e/3x3 (in-place)
I0403 15:05:25.469933  2641 net.cpp:141] Setting up inception_4e/relu_3x3
I0403 15:05:25.469961  2641 net.cpp:148] Top shape: 24 320 14 14 (1505280)
I0403 15:05:25.469977  2641 net.cpp:156] Memory required for data: 1236129312
I0403 15:05:25.469992  2641 layer_factory.hpp:77] Creating layer inception_4e/5x5_reduce
I0403 15:05:25.470018  2641 net.cpp:91] Creating Layer inception_4e/5x5_reduce
I0403 15:05:25.470036  2641 net.cpp:425] inception_4e/5x5_reduce <- inception_4d/output_inception_4d/output_0_split_3
I0403 15:05:25.470055  2641 net.cpp:399] inception_4e/5x5_reduce -> inception_4e/5x5_reduce
I0403 15:05:25.471158  2641 net.cpp:141] Setting up inception_4e/5x5_reduce
I0403 15:05:25.471186  2641 net.cpp:148] Top shape: 24 32 14 14 (150528)
I0403 15:05:25.471201  2641 net.cpp:156] Memory required for data: 1236731424
I0403 15:05:25.471222  2641 layer_factory.hpp:77] Creating layer inception_4e/relu_5x5_reduce
I0403 15:05:25.471246  2641 net.cpp:91] Creating Layer inception_4e/relu_5x5_reduce
I0403 15:05:25.471266  2641 net.cpp:425] inception_4e/relu_5x5_reduce <- inception_4e/5x5_reduce
I0403 15:05:25.471283  2641 net.cpp:386] inception_4e/relu_5x5_reduce -> inception_4e/5x5_reduce (in-place)
I0403 15:05:25.471585  2641 net.cpp:141] Setting up inception_4e/relu_5x5_reduce
I0403 15:05:25.471611  2641 net.cpp:148] Top shape: 24 32 14 14 (150528)
I0403 15:05:25.471627  2641 net.cpp:156] Memory required for data: 1237333536
I0403 15:05:25.471642  2641 layer_factory.hpp:77] Creating layer inception_4e/5x5
I0403 15:05:25.471681  2641 net.cpp:91] Creating Layer inception_4e/5x5
I0403 15:05:25.471700  2641 net.cpp:425] inception_4e/5x5 <- inception_4e/5x5_reduce
I0403 15:05:25.471720  2641 net.cpp:399] inception_4e/5x5 -> inception_4e/5x5
I0403 15:05:25.473610  2641 net.cpp:141] Setting up inception_4e/5x5
I0403 15:05:25.473639  2641 net.cpp:148] Top shape: 24 128 14 14 (602112)
I0403 15:05:25.473654  2641 net.cpp:156] Memory required for data: 1239741984
I0403 15:05:25.473673  2641 layer_factory.hpp:77] Creating layer inception_4e/relu_5x5
I0403 15:05:25.473691  2641 net.cpp:91] Creating Layer inception_4e/relu_5x5
I0403 15:05:25.473707  2641 net.cpp:425] inception_4e/relu_5x5 <- inception_4e/5x5
I0403 15:05:25.473727  2641 net.cpp:386] inception_4e/relu_5x5 -> inception_4e/5x5 (in-place)
I0403 15:05:25.473927  2641 net.cpp:141] Setting up inception_4e/relu_5x5
I0403 15:05:25.473951  2641 net.cpp:148] Top shape: 24 128 14 14 (602112)
I0403 15:05:25.473966  2641 net.cpp:156] Memory required for data: 1242150432
I0403 15:05:25.473981  2641 layer_factory.hpp:77] Creating layer inception_4e/pool
I0403 15:05:25.474002  2641 net.cpp:91] Creating Layer inception_4e/pool
I0403 15:05:25.474020  2641 net.cpp:425] inception_4e/pool <- inception_4d/output_inception_4d/output_0_split_4
I0403 15:05:25.474038  2641 net.cpp:399] inception_4e/pool -> inception_4e/pool
I0403 15:05:25.474109  2641 net.cpp:141] Setting up inception_4e/pool
I0403 15:05:25.474133  2641 net.cpp:148] Top shape: 24 528 14 14 (2483712)
I0403 15:05:25.474148  2641 net.cpp:156] Memory required for data: 1252085280
I0403 15:05:25.474164  2641 layer_factory.hpp:77] Creating layer inception_4e/pool_proj
I0403 15:05:25.474187  2641 net.cpp:91] Creating Layer inception_4e/pool_proj
I0403 15:05:25.474205  2641 net.cpp:425] inception_4e/pool_proj <- inception_4e/pool
I0403 15:05:25.474227  2641 net.cpp:399] inception_4e/pool_proj -> inception_4e/pool_proj
I0403 15:05:25.475760  2641 net.cpp:141] Setting up inception_4e/pool_proj
I0403 15:05:25.475801  2641 net.cpp:148] Top shape: 24 128 14 14 (602112)
I0403 15:05:25.475818  2641 net.cpp:156] Memory required for data: 1254493728
I0403 15:05:25.475837  2641 layer_factory.hpp:77] Creating layer inception_4e/relu_pool_proj
I0403 15:05:25.475855  2641 net.cpp:91] Creating Layer inception_4e/relu_pool_proj
I0403 15:05:25.475872  2641 net.cpp:425] inception_4e/relu_pool_proj <- inception_4e/pool_proj
I0403 15:05:25.475891  2641 net.cpp:386] inception_4e/relu_pool_proj -> inception_4e/pool_proj (in-place)
I0403 15:05:25.476187  2641 net.cpp:141] Setting up inception_4e/relu_pool_proj
I0403 15:05:25.476217  2641 net.cpp:148] Top shape: 24 128 14 14 (602112)
I0403 15:05:25.476233  2641 net.cpp:156] Memory required for data: 1256902176
I0403 15:05:25.476253  2641 layer_factory.hpp:77] Creating layer inception_4e/output
I0403 15:05:25.476271  2641 net.cpp:91] Creating Layer inception_4e/output
I0403 15:05:25.476287  2641 net.cpp:425] inception_4e/output <- inception_4e/1x1
I0403 15:05:25.476305  2641 net.cpp:425] inception_4e/output <- inception_4e/3x3
I0403 15:05:25.476320  2641 net.cpp:425] inception_4e/output <- inception_4e/5x5
I0403 15:05:25.476336  2641 net.cpp:425] inception_4e/output <- inception_4e/pool_proj
I0403 15:05:25.476353  2641 net.cpp:399] inception_4e/output -> inception_4e/output
I0403 15:05:25.476405  2641 net.cpp:141] Setting up inception_4e/output
I0403 15:05:25.476429  2641 net.cpp:148] Top shape: 24 832 14 14 (3913728)
I0403 15:05:25.476444  2641 net.cpp:156] Memory required for data: 1272557088
I0403 15:05:25.476459  2641 layer_factory.hpp:77] Creating layer pool4/3x3_s2
I0403 15:05:25.476477  2641 net.cpp:91] Creating Layer pool4/3x3_s2
I0403 15:05:25.476495  2641 net.cpp:425] pool4/3x3_s2 <- inception_4e/output
I0403 15:05:25.476513  2641 net.cpp:399] pool4/3x3_s2 -> pool4/3x3_s2
I0403 15:05:25.476582  2641 net.cpp:141] Setting up pool4/3x3_s2
I0403 15:05:25.476604  2641 net.cpp:148] Top shape: 24 832 7 7 (978432)
I0403 15:05:25.476619  2641 net.cpp:156] Memory required for data: 1276470816
I0403 15:05:25.476634  2641 layer_factory.hpp:77] Creating layer pool4/3x3_s2_pool4/3x3_s2_0_split
I0403 15:05:25.476651  2641 net.cpp:91] Creating Layer pool4/3x3_s2_pool4/3x3_s2_0_split
I0403 15:05:25.476667  2641 net.cpp:425] pool4/3x3_s2_pool4/3x3_s2_0_split <- pool4/3x3_s2
I0403 15:05:25.476687  2641 net.cpp:399] pool4/3x3_s2_pool4/3x3_s2_0_split -> pool4/3x3_s2_pool4/3x3_s2_0_split_0
I0403 15:05:25.476708  2641 net.cpp:399] pool4/3x3_s2_pool4/3x3_s2_0_split -> pool4/3x3_s2_pool4/3x3_s2_0_split_1
I0403 15:05:25.476728  2641 net.cpp:399] pool4/3x3_s2_pool4/3x3_s2_0_split -> pool4/3x3_s2_pool4/3x3_s2_0_split_2
I0403 15:05:25.476749  2641 net.cpp:399] pool4/3x3_s2_pool4/3x3_s2_0_split -> pool4/3x3_s2_pool4/3x3_s2_0_split_3
I0403 15:05:25.476843  2641 net.cpp:141] Setting up pool4/3x3_s2_pool4/3x3_s2_0_split
I0403 15:05:25.476868  2641 net.cpp:148] Top shape: 24 832 7 7 (978432)
I0403 15:05:25.476886  2641 net.cpp:148] Top shape: 24 832 7 7 (978432)
I0403 15:05:25.476902  2641 net.cpp:148] Top shape: 24 832 7 7 (978432)
I0403 15:05:25.476918  2641 net.cpp:148] Top shape: 24 832 7 7 (978432)
I0403 15:05:25.476933  2641 net.cpp:156] Memory required for data: 1292125728
I0403 15:05:25.476948  2641 layer_factory.hpp:77] Creating layer inception_5a/1x1
I0403 15:05:25.476970  2641 net.cpp:91] Creating Layer inception_5a/1x1
I0403 15:05:25.476987  2641 net.cpp:425] inception_5a/1x1 <- pool4/3x3_s2_pool4/3x3_s2_0_split_0
I0403 15:05:25.477008  2641 net.cpp:399] inception_5a/1x1 -> inception_5a/1x1
I0403 15:05:25.479887  2641 net.cpp:141] Setting up inception_5a/1x1
I0403 15:05:25.479917  2641 net.cpp:148] Top shape: 24 256 7 7 (301056)
I0403 15:05:25.479931  2641 net.cpp:156] Memory required for data: 1293329952
I0403 15:05:25.479950  2641 layer_factory.hpp:77] Creating layer inception_5a/relu_1x1
I0403 15:05:25.479970  2641 net.cpp:91] Creating Layer inception_5a/relu_1x1
I0403 15:05:25.479987  2641 net.cpp:425] inception_5a/relu_1x1 <- inception_5a/1x1
I0403 15:05:25.480005  2641 net.cpp:386] inception_5a/relu_1x1 -> inception_5a/1x1 (in-place)
I0403 15:05:25.480324  2641 net.cpp:141] Setting up inception_5a/relu_1x1
I0403 15:05:25.480350  2641 net.cpp:148] Top shape: 24 256 7 7 (301056)
I0403 15:05:25.480366  2641 net.cpp:156] Memory required for data: 1294534176
I0403 15:05:25.480381  2641 layer_factory.hpp:77] Creating layer inception_5a/3x3_reduce
I0403 15:05:25.480403  2641 net.cpp:91] Creating Layer inception_5a/3x3_reduce
I0403 15:05:25.480422  2641 net.cpp:425] inception_5a/3x3_reduce <- pool4/3x3_s2_pool4/3x3_s2_0_split_1
I0403 15:05:25.480443  2641 net.cpp:399] inception_5a/3x3_reduce -> inception_5a/3x3_reduce
I0403 15:05:25.482978  2641 net.cpp:141] Setting up inception_5a/3x3_reduce
I0403 15:05:25.483011  2641 net.cpp:148] Top shape: 24 160 7 7 (188160)
I0403 15:05:25.483026  2641 net.cpp:156] Memory required for data: 1295286816
I0403 15:05:25.483045  2641 layer_factory.hpp:77] Creating layer inception_5a/relu_3x3_reduce
I0403 15:05:25.483063  2641 net.cpp:91] Creating Layer inception_5a/relu_3x3_reduce
I0403 15:05:25.483080  2641 net.cpp:425] inception_5a/relu_3x3_reduce <- inception_5a/3x3_reduce
I0403 15:05:25.483098  2641 net.cpp:386] inception_5a/relu_3x3_reduce -> inception_5a/3x3_reduce (in-place)
I0403 15:05:25.483299  2641 net.cpp:141] Setting up inception_5a/relu_3x3_reduce
I0403 15:05:25.483325  2641 net.cpp:148] Top shape: 24 160 7 7 (188160)
I0403 15:05:25.483340  2641 net.cpp:156] Memory required for data: 1296039456
I0403 15:05:25.483355  2641 layer_factory.hpp:77] Creating layer inception_5a/3x3
I0403 15:05:25.483376  2641 net.cpp:91] Creating Layer inception_5a/3x3
I0403 15:05:25.483393  2641 net.cpp:425] inception_5a/3x3 <- inception_5a/3x3_reduce
I0403 15:05:25.483417  2641 net.cpp:399] inception_5a/3x3 -> inception_5a/3x3
I0403 15:05:25.488661  2641 net.cpp:141] Setting up inception_5a/3x3
I0403 15:05:25.488692  2641 net.cpp:148] Top shape: 24 320 7 7 (376320)
I0403 15:05:25.488708  2641 net.cpp:156] Memory required for data: 1297544736
I0403 15:05:25.488728  2641 layer_factory.hpp:77] Creating layer inception_5a/relu_3x3
I0403 15:05:25.488745  2641 net.cpp:91] Creating Layer inception_5a/relu_3x3
I0403 15:05:25.488761  2641 net.cpp:425] inception_5a/relu_3x3 <- inception_5a/3x3
I0403 15:05:25.488782  2641 net.cpp:386] inception_5a/relu_3x3 -> inception_5a/3x3 (in-place)
I0403 15:05:25.489095  2641 net.cpp:141] Setting up inception_5a/relu_3x3
I0403 15:05:25.489122  2641 net.cpp:148] Top shape: 24 320 7 7 (376320)
I0403 15:05:25.489138  2641 net.cpp:156] Memory required for data: 1299050016
I0403 15:05:25.489153  2641 layer_factory.hpp:77] Creating layer inception_5a/5x5_reduce
I0403 15:05:25.489176  2641 net.cpp:91] Creating Layer inception_5a/5x5_reduce
I0403 15:05:25.489194  2641 net.cpp:425] inception_5a/5x5_reduce <- pool4/3x3_s2_pool4/3x3_s2_0_split_2
I0403 15:05:25.489217  2641 net.cpp:399] inception_5a/5x5_reduce -> inception_5a/5x5_reduce
I0403 15:05:25.490514  2641 net.cpp:141] Setting up inception_5a/5x5_reduce
I0403 15:05:25.490543  2641 net.cpp:148] Top shape: 24 32 7 7 (37632)
I0403 15:05:25.490561  2641 net.cpp:156] Memory required for data: 1299200544
I0403 15:05:25.490579  2641 layer_factory.hpp:77] Creating layer inception_5a/relu_5x5_reduce
I0403 15:05:25.490602  2641 net.cpp:91] Creating Layer inception_5a/relu_5x5_reduce
I0403 15:05:25.490619  2641 net.cpp:425] inception_5a/relu_5x5_reduce <- inception_5a/5x5_reduce
I0403 15:05:25.490638  2641 net.cpp:386] inception_5a/relu_5x5_reduce -> inception_5a/5x5_reduce (in-place)
I0403 15:05:25.490947  2641 net.cpp:141] Setting up inception_5a/relu_5x5_reduce
I0403 15:05:25.490973  2641 net.cpp:148] Top shape: 24 32 7 7 (37632)
I0403 15:05:25.490989  2641 net.cpp:156] Memory required for data: 1299351072
I0403 15:05:25.491004  2641 layer_factory.hpp:77] Creating layer inception_5a/5x5
I0403 15:05:25.491029  2641 net.cpp:91] Creating Layer inception_5a/5x5
I0403 15:05:25.491047  2641 net.cpp:425] inception_5a/5x5 <- inception_5a/5x5_reduce
I0403 15:05:25.491070  2641 net.cpp:399] inception_5a/5x5 -> inception_5a/5x5
I0403 15:05:25.492914  2641 net.cpp:141] Setting up inception_5a/5x5
I0403 15:05:25.492957  2641 net.cpp:148] Top shape: 24 128 7 7 (150528)
I0403 15:05:25.492974  2641 net.cpp:156] Memory required for data: 1299953184
I0403 15:05:25.492993  2641 layer_factory.hpp:77] Creating layer inception_5a/relu_5x5
I0403 15:05:25.493011  2641 net.cpp:91] Creating Layer inception_5a/relu_5x5
I0403 15:05:25.493028  2641 net.cpp:425] inception_5a/relu_5x5 <- inception_5a/5x5
I0403 15:05:25.493048  2641 net.cpp:386] inception_5a/relu_5x5 -> inception_5a/5x5 (in-place)
I0403 15:05:25.493262  2641 net.cpp:141] Setting up inception_5a/relu_5x5
I0403 15:05:25.493288  2641 net.cpp:148] Top shape: 24 128 7 7 (150528)
I0403 15:05:25.493302  2641 net.cpp:156] Memory required for data: 1300555296
I0403 15:05:25.493319  2641 layer_factory.hpp:77] Creating layer inception_5a/pool
I0403 15:05:25.493341  2641 net.cpp:91] Creating Layer inception_5a/pool
I0403 15:05:25.493360  2641 net.cpp:425] inception_5a/pool <- pool4/3x3_s2_pool4/3x3_s2_0_split_3
I0403 15:05:25.493378  2641 net.cpp:399] inception_5a/pool -> inception_5a/pool
I0403 15:05:25.493453  2641 net.cpp:141] Setting up inception_5a/pool
I0403 15:05:25.493479  2641 net.cpp:148] Top shape: 24 832 7 7 (978432)
I0403 15:05:25.493494  2641 net.cpp:156] Memory required for data: 1304469024
I0403 15:05:25.493508  2641 layer_factory.hpp:77] Creating layer inception_5a/pool_proj
I0403 15:05:25.493531  2641 net.cpp:91] Creating Layer inception_5a/pool_proj
I0403 15:05:25.493549  2641 net.cpp:425] inception_5a/pool_proj <- inception_5a/pool
I0403 15:05:25.493571  2641 net.cpp:399] inception_5a/pool_proj -> inception_5a/pool_proj
I0403 15:05:25.495942  2641 net.cpp:141] Setting up inception_5a/pool_proj
I0403 15:05:25.495975  2641 net.cpp:148] Top shape: 24 128 7 7 (150528)
I0403 15:05:25.495991  2641 net.cpp:156] Memory required for data: 1305071136
I0403 15:05:25.496011  2641 layer_factory.hpp:77] Creating layer inception_5a/relu_pool_proj
I0403 15:05:25.496029  2641 net.cpp:91] Creating Layer inception_5a/relu_pool_proj
I0403 15:05:25.496047  2641 net.cpp:425] inception_5a/relu_pool_proj <- inception_5a/pool_proj
I0403 15:05:25.496068  2641 net.cpp:386] inception_5a/relu_pool_proj -> inception_5a/pool_proj (in-place)
I0403 15:05:25.496376  2641 net.cpp:141] Setting up inception_5a/relu_pool_proj
I0403 15:05:25.496405  2641 net.cpp:148] Top shape: 24 128 7 7 (150528)
I0403 15:05:25.496423  2641 net.cpp:156] Memory required for data: 1305673248
I0403 15:05:25.496438  2641 layer_factory.hpp:77] Creating layer inception_5a/output
I0403 15:05:25.496456  2641 net.cpp:91] Creating Layer inception_5a/output
I0403 15:05:25.496474  2641 net.cpp:425] inception_5a/output <- inception_5a/1x1
I0403 15:05:25.496490  2641 net.cpp:425] inception_5a/output <- inception_5a/3x3
I0403 15:05:25.496508  2641 net.cpp:425] inception_5a/output <- inception_5a/5x5
I0403 15:05:25.496526  2641 net.cpp:425] inception_5a/output <- inception_5a/pool_proj
I0403 15:05:25.496546  2641 net.cpp:399] inception_5a/output -> inception_5a/output
I0403 15:05:25.496598  2641 net.cpp:141] Setting up inception_5a/output
I0403 15:05:25.496621  2641 net.cpp:148] Top shape: 24 832 7 7 (978432)
I0403 15:05:25.496636  2641 net.cpp:156] Memory required for data: 1309586976
I0403 15:05:25.496652  2641 layer_factory.hpp:77] Creating layer inception_5a/output_inception_5a/output_0_split
I0403 15:05:25.496673  2641 net.cpp:91] Creating Layer inception_5a/output_inception_5a/output_0_split
I0403 15:05:25.496690  2641 net.cpp:425] inception_5a/output_inception_5a/output_0_split <- inception_5a/output
I0403 15:05:25.496709  2641 net.cpp:399] inception_5a/output_inception_5a/output_0_split -> inception_5a/output_inception_5a/output_0_split_0
I0403 15:05:25.496731  2641 net.cpp:399] inception_5a/output_inception_5a/output_0_split -> inception_5a/output_inception_5a/output_0_split_1
I0403 15:05:25.496754  2641 net.cpp:399] inception_5a/output_inception_5a/output_0_split -> inception_5a/output_inception_5a/output_0_split_2
I0403 15:05:25.496776  2641 net.cpp:399] inception_5a/output_inception_5a/output_0_split -> inception_5a/output_inception_5a/output_0_split_3
I0403 15:05:25.496893  2641 net.cpp:141] Setting up inception_5a/output_inception_5a/output_0_split
I0403 15:05:25.496918  2641 net.cpp:148] Top shape: 24 832 7 7 (978432)
I0403 15:05:25.496935  2641 net.cpp:148] Top shape: 24 832 7 7 (978432)
I0403 15:05:25.496951  2641 net.cpp:148] Top shape: 24 832 7 7 (978432)
I0403 15:05:25.496968  2641 net.cpp:148] Top shape: 24 832 7 7 (978432)
I0403 15:05:25.496983  2641 net.cpp:156] Memory required for data: 1325241888
I0403 15:05:25.496997  2641 layer_factory.hpp:77] Creating layer inception_5b/1x1
I0403 15:05:25.497022  2641 net.cpp:91] Creating Layer inception_5b/1x1
I0403 15:05:25.497041  2641 net.cpp:425] inception_5b/1x1 <- inception_5a/output_inception_5a/output_0_split_0
I0403 15:05:25.497063  2641 net.cpp:399] inception_5b/1x1 -> inception_5b/1x1
I0403 15:05:25.501009  2641 net.cpp:141] Setting up inception_5b/1x1
I0403 15:05:25.501041  2641 net.cpp:148] Top shape: 24 384 7 7 (451584)
I0403 15:05:25.501058  2641 net.cpp:156] Memory required for data: 1327048224
I0403 15:05:25.501077  2641 layer_factory.hpp:77] Creating layer inception_5b/relu_1x1
I0403 15:05:25.501096  2641 net.cpp:91] Creating Layer inception_5b/relu_1x1
I0403 15:05:25.501112  2641 net.cpp:425] inception_5b/relu_1x1 <- inception_5b/1x1
I0403 15:05:25.501130  2641 net.cpp:386] inception_5b/relu_1x1 -> inception_5b/1x1 (in-place)
I0403 15:05:25.501444  2641 net.cpp:141] Setting up inception_5b/relu_1x1
I0403 15:05:25.501473  2641 net.cpp:148] Top shape: 24 384 7 7 (451584)
I0403 15:05:25.501489  2641 net.cpp:156] Memory required for data: 1328854560
I0403 15:05:25.501504  2641 layer_factory.hpp:77] Creating layer inception_5b/3x3_reduce
I0403 15:05:25.501528  2641 net.cpp:91] Creating Layer inception_5b/3x3_reduce
I0403 15:05:25.501545  2641 net.cpp:425] inception_5b/3x3_reduce <- inception_5a/output_inception_5a/output_0_split_1
I0403 15:05:25.501564  2641 net.cpp:399] inception_5b/3x3_reduce -> inception_5b/3x3_reduce
I0403 15:05:25.504289  2641 net.cpp:141] Setting up inception_5b/3x3_reduce
I0403 15:05:25.504319  2641 net.cpp:148] Top shape: 24 192 7 7 (225792)
I0403 15:05:25.504335  2641 net.cpp:156] Memory required for data: 1329757728
I0403 15:05:25.504354  2641 layer_factory.hpp:77] Creating layer inception_5b/relu_3x3_reduce
I0403 15:05:25.504370  2641 net.cpp:91] Creating Layer inception_5b/relu_3x3_reduce
I0403 15:05:25.504386  2641 net.cpp:425] inception_5b/relu_3x3_reduce <- inception_5b/3x3_reduce
I0403 15:05:25.504405  2641 net.cpp:386] inception_5b/relu_3x3_reduce -> inception_5b/3x3_reduce (in-place)
I0403 15:05:25.504593  2641 net.cpp:141] Setting up inception_5b/relu_3x3_reduce
I0403 15:05:25.504618  2641 net.cpp:148] Top shape: 24 192 7 7 (225792)
I0403 15:05:25.504633  2641 net.cpp:156] Memory required for data: 1330660896
I0403 15:05:25.504648  2641 layer_factory.hpp:77] Creating layer inception_5b/3x3
I0403 15:05:25.504669  2641 net.cpp:91] Creating Layer inception_5b/3x3
I0403 15:05:25.504685  2641 net.cpp:425] inception_5b/3x3 <- inception_5b/3x3_reduce
I0403 15:05:25.504708  2641 net.cpp:399] inception_5b/3x3 -> inception_5b/3x3
I0403 15:05:25.511267  2641 net.cpp:141] Setting up inception_5b/3x3
I0403 15:05:25.511297  2641 net.cpp:148] Top shape: 24 384 7 7 (451584)
I0403 15:05:25.511313  2641 net.cpp:156] Memory required for data: 1332467232
I0403 15:05:25.511332  2641 layer_factory.hpp:77] Creating layer inception_5b/relu_3x3
I0403 15:05:25.511349  2641 net.cpp:91] Creating Layer inception_5b/relu_3x3
I0403 15:05:25.511365  2641 net.cpp:425] inception_5b/relu_3x3 <- inception_5b/3x3
I0403 15:05:25.511384  2641 net.cpp:386] inception_5b/relu_3x3 -> inception_5b/3x3 (in-place)
I0403 15:05:25.511677  2641 net.cpp:141] Setting up inception_5b/relu_3x3
I0403 15:05:25.511703  2641 net.cpp:148] Top shape: 24 384 7 7 (451584)
I0403 15:05:25.511719  2641 net.cpp:156] Memory required for data: 1334273568
I0403 15:05:25.511734  2641 layer_factory.hpp:77] Creating layer inception_5b/5x5_reduce
I0403 15:05:25.511771  2641 net.cpp:91] Creating Layer inception_5b/5x5_reduce
I0403 15:05:25.511790  2641 net.cpp:425] inception_5b/5x5_reduce <- inception_5a/output_inception_5a/output_0_split_2
I0403 15:05:25.511809  2641 net.cpp:399] inception_5b/5x5_reduce -> inception_5b/5x5_reduce
I0403 15:05:25.513077  2641 net.cpp:141] Setting up inception_5b/5x5_reduce
I0403 15:05:25.513105  2641 net.cpp:148] Top shape: 24 48 7 7 (56448)
I0403 15:05:25.513120  2641 net.cpp:156] Memory required for data: 1334499360
I0403 15:05:25.513139  2641 layer_factory.hpp:77] Creating layer inception_5b/relu_5x5_reduce
I0403 15:05:25.513156  2641 net.cpp:91] Creating Layer inception_5b/relu_5x5_reduce
I0403 15:05:25.513172  2641 net.cpp:425] inception_5b/relu_5x5_reduce <- inception_5b/5x5_reduce
I0403 15:05:25.513191  2641 net.cpp:386] inception_5b/relu_5x5_reduce -> inception_5b/5x5_reduce (in-place)
I0403 15:05:25.513568  2641 net.cpp:141] Setting up inception_5b/relu_5x5_reduce
I0403 15:05:25.513594  2641 net.cpp:148] Top shape: 24 48 7 7 (56448)
I0403 15:05:25.513609  2641 net.cpp:156] Memory required for data: 1334725152
I0403 15:05:25.513624  2641 layer_factory.hpp:77] Creating layer inception_5b/5x5
I0403 15:05:25.513643  2641 net.cpp:91] Creating Layer inception_5b/5x5
I0403 15:05:25.513661  2641 net.cpp:425] inception_5b/5x5 <- inception_5b/5x5_reduce
I0403 15:05:25.513679  2641 net.cpp:399] inception_5b/5x5 -> inception_5b/5x5
I0403 15:05:25.515727  2641 net.cpp:141] Setting up inception_5b/5x5
I0403 15:05:25.515753  2641 net.cpp:148] Top shape: 24 128 7 7 (150528)
I0403 15:05:25.515769  2641 net.cpp:156] Memory required for data: 1335327264
I0403 15:05:25.515785  2641 layer_factory.hpp:77] Creating layer inception_5b/relu_5x5
I0403 15:05:25.515805  2641 net.cpp:91] Creating Layer inception_5b/relu_5x5
I0403 15:05:25.515822  2641 net.cpp:425] inception_5b/relu_5x5 <- inception_5b/5x5
I0403 15:05:25.515839  2641 net.cpp:386] inception_5b/relu_5x5 -> inception_5b/5x5 (in-place)
I0403 15:05:25.516028  2641 net.cpp:141] Setting up inception_5b/relu_5x5
I0403 15:05:25.516053  2641 net.cpp:148] Top shape: 24 128 7 7 (150528)
I0403 15:05:25.516067  2641 net.cpp:156] Memory required for data: 1335929376
I0403 15:05:25.516083  2641 layer_factory.hpp:77] Creating layer inception_5b/pool
I0403 15:05:25.516103  2641 net.cpp:91] Creating Layer inception_5b/pool
I0403 15:05:25.516121  2641 net.cpp:425] inception_5b/pool <- inception_5a/output_inception_5a/output_0_split_3
I0403 15:05:25.516139  2641 net.cpp:399] inception_5b/pool -> inception_5b/pool
I0403 15:05:25.516212  2641 net.cpp:141] Setting up inception_5b/pool
I0403 15:05:25.516235  2641 net.cpp:148] Top shape: 24 832 7 7 (978432)
I0403 15:05:25.516254  2641 net.cpp:156] Memory required for data: 1339843104
I0403 15:05:25.516269  2641 layer_factory.hpp:77] Creating layer inception_5b/pool_proj
I0403 15:05:25.516291  2641 net.cpp:91] Creating Layer inception_5b/pool_proj
I0403 15:05:25.516309  2641 net.cpp:425] inception_5b/pool_proj <- inception_5b/pool
I0403 15:05:25.516329  2641 net.cpp:399] inception_5b/pool_proj -> inception_5b/pool_proj
I0403 15:05:25.518591  2641 net.cpp:141] Setting up inception_5b/pool_proj
I0403 15:05:25.518620  2641 net.cpp:148] Top shape: 24 128 7 7 (150528)
I0403 15:05:25.518635  2641 net.cpp:156] Memory required for data: 1340445216
I0403 15:05:25.518653  2641 layer_factory.hpp:77] Creating layer inception_5b/relu_pool_proj
I0403 15:05:25.518671  2641 net.cpp:91] Creating Layer inception_5b/relu_pool_proj
I0403 15:05:25.518687  2641 net.cpp:425] inception_5b/relu_pool_proj <- inception_5b/pool_proj
I0403 15:05:25.518705  2641 net.cpp:386] inception_5b/relu_pool_proj -> inception_5b/pool_proj (in-place)
I0403 15:05:25.518998  2641 net.cpp:141] Setting up inception_5b/relu_pool_proj
I0403 15:05:25.519024  2641 net.cpp:148] Top shape: 24 128 7 7 (150528)
I0403 15:05:25.519039  2641 net.cpp:156] Memory required for data: 1341047328
I0403 15:05:25.519054  2641 layer_factory.hpp:77] Creating layer inception_5b/output
I0403 15:05:25.519071  2641 net.cpp:91] Creating Layer inception_5b/output
I0403 15:05:25.519100  2641 net.cpp:425] inception_5b/output <- inception_5b/1x1
I0403 15:05:25.519119  2641 net.cpp:425] inception_5b/output <- inception_5b/3x3
I0403 15:05:25.519134  2641 net.cpp:425] inception_5b/output <- inception_5b/5x5
I0403 15:05:25.519150  2641 net.cpp:425] inception_5b/output <- inception_5b/pool_proj
I0403 15:05:25.519170  2641 net.cpp:399] inception_5b/output -> inception_5b/output
I0403 15:05:25.519220  2641 net.cpp:141] Setting up inception_5b/output
I0403 15:05:25.519249  2641 net.cpp:148] Top shape: 24 1024 7 7 (1204224)
I0403 15:05:25.519266  2641 net.cpp:156] Memory required for data: 1345864224
I0403 15:05:25.519281  2641 layer_factory.hpp:77] Creating layer pool5/7x7_s1
I0403 15:05:25.519299  2641 net.cpp:91] Creating Layer pool5/7x7_s1
I0403 15:05:25.519315  2641 net.cpp:425] pool5/7x7_s1 <- inception_5b/output
I0403 15:05:25.519332  2641 net.cpp:399] pool5/7x7_s1 -> pool5/7x7_s1
I0403 15:05:25.519554  2641 net.cpp:141] Setting up pool5/7x7_s1
I0403 15:05:25.519579  2641 net.cpp:148] Top shape: 24 1024 1 1 (24576)
I0403 15:05:25.519593  2641 net.cpp:156] Memory required for data: 1345962528
I0403 15:05:25.519608  2641 layer_factory.hpp:77] Creating layer pool5/drop_7x7_s1
I0403 15:05:25.519625  2641 net.cpp:91] Creating Layer pool5/drop_7x7_s1
I0403 15:05:25.519641  2641 net.cpp:425] pool5/drop_7x7_s1 <- pool5/7x7_s1
I0403 15:05:25.519660  2641 net.cpp:386] pool5/drop_7x7_s1 -> pool5/7x7_s1 (in-place)
I0403 15:05:25.519709  2641 net.cpp:141] Setting up pool5/drop_7x7_s1
I0403 15:05:25.519733  2641 net.cpp:148] Top shape: 24 1024 1 1 (24576)
I0403 15:05:25.519748  2641 net.cpp:156] Memory required for data: 1346060832
I0403 15:05:25.519763  2641 layer_factory.hpp:77] Creating layer loss3/classifier_plantvillage
I0403 15:05:25.519781  2641 net.cpp:91] Creating Layer loss3/classifier_plantvillage
I0403 15:05:25.519798  2641 net.cpp:425] loss3/classifier_plantvillage <- pool5/7x7_s1
I0403 15:05:25.519817  2641 net.cpp:399] loss3/classifier_plantvillage -> loss3/classifier_plantvillage
I0403 15:05:25.520236  2641 net.cpp:141] Setting up loss3/classifier_plantvillage
I0403 15:05:25.520263  2641 net.cpp:148] Top shape: 24 38 (912)
I0403 15:05:25.520277  2641 net.cpp:156] Memory required for data: 1346064480
I0403 15:05:25.520295  2641 layer_factory.hpp:77] Creating layer loss3/classifier_plantvillage_loss3/classifier_plantvillage_0_split
I0403 15:05:25.520316  2641 net.cpp:91] Creating Layer loss3/classifier_plantvillage_loss3/classifier_plantvillage_0_split
I0403 15:05:25.520333  2641 net.cpp:425] loss3/classifier_plantvillage_loss3/classifier_plantvillage_0_split <- loss3/classifier_plantvillage
I0403 15:05:25.520349  2641 net.cpp:399] loss3/classifier_plantvillage_loss3/classifier_plantvillage_0_split -> loss3/classifier_plantvillage_loss3/classifier_plantvillage_0_split_0
I0403 15:05:25.520370  2641 net.cpp:399] loss3/classifier_plantvillage_loss3/classifier_plantvillage_0_split -> loss3/classifier_plantvillage_loss3/classifier_plantvillage_0_split_1
I0403 15:05:25.520392  2641 net.cpp:399] loss3/classifier_plantvillage_loss3/classifier_plantvillage_0_split -> loss3/classifier_plantvillage_loss3/classifier_plantvillage_0_split_2
I0403 15:05:25.520412  2641 net.cpp:399] loss3/classifier_plantvillage_loss3/classifier_plantvillage_0_split -> loss3/classifier_plantvillage_loss3/classifier_plantvillage_0_split_3
I0403 15:05:25.520512  2641 net.cpp:141] Setting up loss3/classifier_plantvillage_loss3/classifier_plantvillage_0_split
I0403 15:05:25.520535  2641 net.cpp:148] Top shape: 24 38 (912)
I0403 15:05:25.520550  2641 net.cpp:148] Top shape: 24 38 (912)
I0403 15:05:25.520565  2641 net.cpp:148] Top shape: 24 38 (912)
I0403 15:05:25.520581  2641 net.cpp:148] Top shape: 24 38 (912)
I0403 15:05:25.520593  2641 net.cpp:156] Memory required for data: 1346079072
I0403 15:05:25.520607  2641 layer_factory.hpp:77] Creating layer loss1/loss
I0403 15:05:25.520629  2641 net.cpp:91] Creating Layer loss1/loss
I0403 15:05:25.520647  2641 net.cpp:425] loss1/loss <- loss1/classifier_plantvillage_loss1/classifier_plantvillage_0_split_0
I0403 15:05:25.520675  2641 net.cpp:425] loss1/loss <- label_data_1_split_0
…
