…
I0403 15:01:41.599256 18102 net.cpp:313] The NetState phase (1) differed from the phase (0) specified by a rule in layer data
I0403 15:01:41.600399 18102 net.cpp:49] Initializing net from parameters: 
state {
  phase: TEST
}
layer {
  name: "data"
  type: "Data"
  top: "data"
  top: "label"
  include {
    phase: TEST
  }
  transform_param {
    mirror: false
    crop_size: 224
    mean_file: "/home/mohanty/data/final_dataset/lmdb/grayscale-40-60/mean.binaryproto"
  }
  data_param {
    source: "/home/mohanty/data/final_dataset/lmdb/grayscale-40-60/test_db"
    batch_size: 24
    backend: LMDB
  }
}
layer {
  name: "conv1/7x7_s2"
  type: "Convolution"
  bottom: "data"
  top: "conv1/7x7_s2"
  param {
    lr_mult: 1
    decay_mult: 1
  }
  param {
    lr_mult: 2
    decay_mult: 0
  }
  convolution_param {
    num_output: 64
    pad: 3
    kernel_size: 7
    stride: 2
    weight_filler {
      type: "xavier"
      std: 0.1
    }
    bias_filler {
      type: "constant"
      value: 0.2
    }
  }
}
layer {
  name: "conv1/relu_7x7"
  type: "ReLU"
  bottom: "conv1/7x7_s2"
  top: "conv1/7x7_s2"
}
layer {
  name: "pool1/3x3_s2"
  type: "Pooling"
  bottom: "conv1/7x7_s2"
  top: "pool1/3x3_s2"
  pooling_param {
    pool: MAX
    kernel_size: 3
    stride: 2
  }
}
layer {
  name: "pool1/norm1"
  type: "LRN"
  bottom: "pool1/3x3_s2"
  top: "pool1/norm1"
  lrn_param {
    local_size: 5
    alpha: 0.0001
    beta: 0.75
  }
}
layer {
  name: "conv2/3x3_reduce"
  type: "Convolution"
  bottom: "pool1/norm1"
  top: "conv2/3x3_reduce"
  param {
    lr_mult: 1
    decay_mult: 1
  }
  param {
    lr_mult: 2
    decay_mult: 0
  }
  convolution_param {
    num_output: 64
    kernel_size: 1
    weight_filler {
      type: "xavier"
      std: 0.1
    }
    bias_filler {
      type: "constant"
      value: 0.2
    }
  }
}
layer {
  name: "conv2/relu_3x3_reduce"
  type: "ReLU"
  bottom: "conv2/3x3_reduce"
  top: "conv2/3x3_reduce"
}
layer {
  name: "conv2/3x3"
  type: "Convolution"
  bottom: "conv2/3x3_reduce"
  top: "conv2/3x3"
  param {
    lr_mult: 1
    decay_mult: 1
  }
  param {
    lr_mult: 2
    decay_mult: 0
  }
  convolution_param {
    num_output: 192
    pad: 1
    kernel_size: 3
    weight_filler {
      type: "xavier"
      std: 0.03
    }
    bias_filler {
      type: "constant"
      value: 0.2
    }
  }
}
layer {
  name: "conv2/relu_3x3"
  type: "ReLU"
  bottom: "conv2/3x3"
  top: "conv2/3x3"
}
layer {
  name: "conv2/norm2"
  type: "LRN"
  bottom: "conv2/3x3"
  top: "conv2/norm2"
  lrn_param {
    local_size: 5
    alpha: 0.0001
    beta: 0.75
  }
}
layer {
  name: "pool2/3x3_s2"
  type: "Pooling"
  bottom: "conv2/norm2"
  top: "pool2/3x3_s2"
  pooling_param {
    pool: MAX
    kernel_size: 3
    stride: 2
  }
}
layer {
  name: "inception_3a/1x1"
  type: "Convolution"
  bottom: "pool2/3x3_s2"
  top: "inception_3a/1x1"
  param {
    lr_mult: 1
    decay_mult: 1
  }
  param {
    lr_mult: 2
    decay_mult: 0
  }
  convolution_param {
    num_output: 64
    kernel_size: 1
    weight_filler {
      type: "xavier"
      std: 0.03
    }
    bias_filler {
      type: "constant"
      value: 0.2
    }
  }
}
layer {
  name: "inception_3a/relu_1x1"
  type: "ReLU"
  bottom: "inception_3a/1x1"
  top: "inception_3a/1x1"
}
layer {
  name: "inception_3a/3x3_reduce"
  type: "Convolution"
  bottom: "pool2/3x3_s2"
  top: "inception_3a/3x3_reduce"
  param {
    lr_mult: 1
    decay_mult: 1
  }
  param {
    lr_mult: 2
    decay_mult: 0
  }
  convolution_param {
    num_output: 96
    kernel_size: 1
    weight_filler {
      type: "xavier"
      std: 0.09
    }
    bias_filler {
      type: "constant"
      value: 0.2
    }
  }
}
layer {
  name: "inception_3a/relu_3x3_reduce"
  type: "ReLU"
  bottom: "inception_3a/3x3_reduce"
  top: "inception_3a/3x3_reduce"
}
layer {
  name: "inception_3a/3x3"
  type: "Convolution"
  bottom: "inception_3a/3x3_reduce"
  top: "inception_3a/3x3"
  param {
    lr_mult: 1
    decay_mult: 1
  }
  param {
    lr_mult: 2
    decay_mult: 0
  }
  convolution_param {
    num_output: 128
    pad: 1
    kernel_size: 3
    weight_filler {
      type: "xavier"
      std: 0.03
    }
    bias_filler {
      type: "constant"
      value: 0.2
    }
  }
}
layer {
  name: "inception_3a/relu_3x3"
  type: "ReLU"
  bottom: "inception_3a/3x3"
  top: "inception_3a/3x3"
}
layer {
  name: "inception_3a/5x5_reduce"
  type: "Convolution"
  bottom: "pool2/3x3_s2"
  top: "inception_3a/5x5_reduce"
  param {
    lr_mult: 1
    decay_mult: 1
  }
  param {
    lr_mult: 2
    decay_mult: 0
  }
  convolution_param {
    num_output: 16
    kernel_size: 1
    weight_filler {
      type: "xavier"
      std: 0.2
    }
    bias_filler {
      type: "constant"
      value: 0.2
    }
  }
}
layer {
  name: "inception_3a/relu_5x5_reduce"
  type: "ReLU"
  bottom: "inception_3a/5x5_reduce"
  top: "inception_3a/5x5_reduce"
}
layer {
  name: "inception_3a/5x5"
  type: "Convolution"
  bottom: "inception_3a/5x5_reduce"
  top: "inception_3a/5x5"
  param {
    lr_mult: 1
    decay_mult: 1
  }
  param {
    lr_mult: 2
    decay_mult: 0
  }
  convolution_param {
    num_output: 32
    pad: 2
    kernel_size: 5
    weight_filler {
      type: "xavier"
      std: 0.03
    }
    bias_filler {
      type: "constant"
      value: 0.2
    }
  }
}
layer {
  name: "inception_3a/relu_5x5"
  type: "ReLU"
  bottom: "inception_3a/5x5"
  top: "inception_3a/5x5"
}
layer {
  name: "inception_3a/pool"
  type: "Pooling"
  bottom: "pool2/3x3_s2"
  top: "inception_3a/pool"
  pooling_param {
    pool: MAX
    kernel_size: 3
    stride: 1
    pad: 1
  }
}
layer {
  name: "inception_3a/pool_proj"
  type: "Convolution"
  bottom: "inception_3a/pool"
  top: "inception_3a/pool_proj"
  param {
    lr_mult: 1
    decay_mult: 1
  }
  param {
    lr_mult: 2
    decay_mult: 0
  }
  convolution_param {
    num_output: 32
    kernel_size: 1
    weight_filler {
      type: "xavier"
      std: 0.1
    }
    bias_filler {
      type: "constant"
      value: 0.2
    }
  }
}
layer {
  name: "inception_3a/relu_pool_proj"
  type: "ReLU"
  bottom: "inception_3a/pool_proj"
  top: "inception_3a/pool_proj"
}
layer {
  name: "inception_3a/output"
  type: "Concat"
  bottom: "inception_3a/1x1"
  bottom: "inception_3a/3x3"
  bottom: "inception_3a/5x5"
  bottom: "inception_3a/pool_proj"
  top: "inception_3a/output"
}
layer {
  name: "inception_3b/1x1"
  type: "Convolution"
  bottom: "inception_3a/output"
  top: "inception_3b/1x1"
  param {
    lr_mult: 1
    decay_mult: 1
  }
  param {
    lr_mult: 2
    decay_mult: 0
  }
  convolution_param {
    num_output: 128
    kernel_size: 1
    weight_filler {
      type: "xavier"
      std: 0.03
    }
    bias_filler {
      type: "constant"
      value: 0.2
    }
  }
}
layer {
  name: "inception_3b/relu_1x1"
  type: "ReLU"
  bottom: "inception_3b/1x1"
  top: "inception_3b/1x1"
}
layer {
  name: "inception_3b/3x3_reduce"
  type: "Convolution"
  bottom: "inception_3a/output"
  top: "inception_3b/3x3_reduce"
  param {
    lr_mult: 1
    decay_mult: 1
  }
  param {
    lr_mult: 2
    decay_mult: 0
  }
  convolution_param {
    num_output: 128
    kernel_size: 1
    weight_filler {
      type: "xavier"
      std: 0.09
    }
    bias_filler {
      type: "constant"
      value: 0.2
    }
  }
}
layer {
  name: "inception_3b/relu_3x3_reduce"
  type: "ReLU"
  bottom: "inception_3b/3x3_reduce"
  top: "inception_3b/3x3_reduce"
}
layer {
  name: "inception_3b/3x3"
  type: "Convolution"
  bottom: "inception_3b/3x3_reduce"
  top: "inception_3b/3x3"
  param {
    lr_mult: 1
    decay_mult: 1
  }
  param {
    lr_mult: 2
    decay_mult: 0
  }
  convolution_param {
    num_output: 192
    pad: 1
    kernel_size: 3
    weight_filler {
      type: "xavier"
      std: 0.03
    }
    bias_filler {
      type: "constant"
      value: 0.2
    }
  }
}
layer {
  name: "inception_3b/relu_3x3"
  type: "ReLU"
  bottom: "inception_3b/3x3"
  top: "inception_3b/3x3"
}
layer {
  name: "inception_3b/5x5_reduce"
  type: "Convolution"
  bottom: "inception_3a/output"
  top: "inception_3b/5x5_reduce"
  param {
    lr_mult: 1
    decay_mult: 1
  }
  param {
    lr_mult: 2
    decay_mult: 0
  }
  convolution_param {
    num_output: 32
    kernel_size: 1
    weight_filler {
      type: "xavier"
      std: 0.2
    }
    bias_filler {
      type: "constant"
      value: 0.2
    }
  }
}
layer {
  name: "inception_3b/relu_5x5_reduce"
  type: "ReLU"
  bottom: "inception_3b/5x5_reduce"
  top: "inception_3b/5x5_reduce"
}
layer {
  name: "inception_3b/5x5"
  type: "Convolution"
  bottom: "inception_3b/5x5_reduce"
  top: "inception_3b/5x5"
  param {
    lr_mult: 1
    decay_mult: 1
  }
  param {
    lr_mult: 2
    decay_mult: 0
  }
  convolution_param {
    num_output: 96
    pad: 2
    kernel_size: 5
    weight_filler {
      type: "xavier"
      std: 0.03
    }
    bias_filler {
      type: "constant"
      value: 0.2
    }
  }
}
layer {
  name: "inception_3b/relu_5x5"
  type: "ReLU"
  bottom: "inception_3b/5x5"
  top: "inception_3b/5x5"
}
layer {
  name: "inception_3b/pool"
  type: "Pooling"
  bottom: "inception_3a/output"
  top: "inception_3b/pool"
  pooling_param {
    pool: MAX
    kernel_size: 3
    stride: 1
    pad: 1
  }
}
layer {
  name: "inception_3b/pool_proj"
  type: "Convolution"
  bottom: "inception_3b/pool"
  top: "inception_3b/pool_proj"
  param {
    lr_mult: 1
    decay_mult: 1
  }
  param {
    lr_mult: 2
    decay_mult: 0
  }
  convolution_param {
    num_output: 64
    kernel_size: 1
    weight_filler {
      type: "xavier"
      std: 0.1
    }
    bias_filler {
      type: "constant"
      value: 0.2
    }
  }
}
layer {
  name: "inception_3b/relu_pool_proj"
  type: "ReLU"
  bottom: "inception_3b/pool_proj"
  top: "inception_3b/pool_proj"
}
layer {
  name: "inception_3b/output"
  type: "Concat"
  bottom: "inception_3b/1x1"
  bottom: "inception_3b/3x3"
  bottom: "inception_3b/5x5"
  bottom: "inception_3b/pool_proj"
  top: "inception_3b/output"
}
layer {
  name: "pool3/3x3_s2"
  type: "Pooling"
  bottom: "inception_3b/output"
  top: "pool3/3x3_s2"
  pooling_param {
    pool: MAX
    kernel_size: 3
    stride: 2
  }
}
layer {
  name: "inception_4a/1x1"
  type: "Convolution"
  bottom: "pool3/3x3_s2"
  top: "inception_4a/1x1"
  param {
    lr_mult: 1
    decay_mult: 1
  }
  param {
    lr_mult: 2
    decay_mult: 0
  }
  convolution_param {
    num_output: 192
    kernel_size: 1
    weight_filler {
      type: "xavier"
      std: 0.03
    }
    bias_filler {
      type: "constant"
      value: 0.2
    }
  }
}
layer {
  name: "inception_4a/relu_1x1"
  type: "ReLU"
  bottom: "inception_4a/1x1"
  top: "inception_4a/1x1"
}
layer {
  name: "inception_4a/3x3_reduce"
  type: "Convolution"
  bottom: "pool3/3x3_s2"
  top: "inception_4a/3x3_reduce"
  param {
    lr_mult: 1
    decay_mult: 1
  }
  param {
    lr_mult: 2
    decay_mult: 0
  }
  convolution_param {
    num_output: 96
    kernel_size: 1
    weight_filler {
      type: "xavier"
      std: 0.09
    }
    bias_filler {
      type: "constant"
      value: 0.2
    }
  }
}
layer {
  name: "inception_4a/relu_3x3_reduce"
  type: "ReLU"
  bottom: "inception_4a/3x3_reduce"
  top: "inception_4a/3x3_reduce"
}
layer {
  name: "inception_4a/3x3"
  type: "Convolution"
  bottom: "inception_4a/3x3_reduce"
  top: "inception_4a/3x3"
  param {
    lr_mult: 1
    decay_mult: 1
  }
  param {
    lr_mult: 2
    decay_mult: 0
  }
  convolution_param {
    num_output: 208
    pad: 1
    kernel_size: 3
    weight_filler {
      type: "xavier"
      std: 0.03
    }
    bias_filler {
      type: "constant"
      value: 0.2
    }
  }
}
layer {
  name: "inception_4a/relu_3x3"
  type: "ReLU"
  bottom: "inception_4a/3x3"
  top: "inception_4a/3x3"
}
layer {
  name: "inception_4a/5x5_reduce"
  type: "Convolution"
  bottom: "pool3/3x3_s2"
  top: "inception_4a/5x5_reduce"
  param {
    lr_mult: 1
    decay_mult: 1
  }
  param {
    lr_mult: 2
    decay_mult: 0
  }
  convolution_param {
    num_output: 16
    kernel_size: 1
    weight_filler {
      type: "xavier"
      std: 0.2
    }
    bias_filler {
      type: "constant"
      value: 0.2
    }
  }
}
layer {
  name: "inception_4a/relu_5x5_reduce"
  type: "ReLU"
  bottom: "inception_4a/5x5_reduce"
  top: "inception_4a/5x5_reduce"
}
layer {
  name: "inception_4a/5x5"
  type: "Convolution"
  bottom: "inception_4a/5x5_reduce"
  top: "inception_4a/5x5"
  param {
    lr_mult: 1
    decay_mult: 1
  }
  param {
    lr_mult: 2
    decay_mult: 0
  }
  convolution_param {
    num_output: 48
    pad: 2
    kernel_size: 5
    weight_filler {
      type: "xavier"
      std: 0.03
    }
    bias_filler {
      type: "constant"
      value: 0.2
    }
  }
}
layer {
  name: "inception_4a/relu_5x5"
  type: "ReLU"
  bottom: "inception_4a/5x5"
  top: "inception_4a/5x5"
}
layer {
  name: "inception_4a/pool"
  type: "Pooling"
  bottom: "pool3/3x3_s2"
  top: "inception_4a/pool"
  pooling_param {
    pool: MAX
    kernel_size: 3
    stride: 1
    pad: 1
  }
}
layer {
  name: "inception_4a/pool_proj"
  type: "Convolution"
  bottom: "inception_4a/pool"
  top: "inception_4a/pool_proj"
  param {
    lr_mult: 1
    decay_mult: 1
  }
  param {
    lr_mult: 2
    decay_mult: 0
  }
  convolution_param {
    num_output: 64
    kernel_size: 1
    weight_filler {
      type: "xavier"
      std: 0.1
    }
    bias_filler {
      type: "constant"
      value: 0.2
    }
  }
}
layer {
  name: "inception_4a/relu_pool_proj"
  type: "ReLU"
  bottom: "inception_4a/pool_proj"
  top: "inception_4a/pool_proj"
}
layer {
  name: "inception_4a/output"
  type: "Concat"
  bottom: "inception_4a/1x1"
  bottom: "inception_4a/3x3"
  bottom: "inception_4a/5x5"
  bottom: "inception_4a/pool_proj"
  top: "inception_4a/output"
}
layer {
  name: "loss1/ave_pool"
  type: "Pooling"
  bottom: "inception_4a/output"
  top: "loss1/ave_pool"
  pooling_param {
    pool: AVE
    kernel_size: 5
    stride: 3
  }
}
layer {
  name: "loss1/conv"
  type: "Convolution"
  bottom: "loss1/ave_pool"
  top: "loss1/conv"
  param {
    lr_mult: 1
    decay_mult: 1
  }
  param {
    lr_mult: 2
    decay_mult: 0
  }
  convolution_param {
    num_output: 128
    kernel_size: 1
    weight_filler {
      type: "xavier"
      std: 0.08
    }
    bias_filler {
      type: "constant"
      value: 0.2
    }
  }
}
layer {
  name: "loss1/relu_conv"
  type: "ReLU"
  bottom: "loss1/conv"
  top: "loss1/conv"
}
layer {
  name: "loss1/fc"
  type: "InnerProduct"
  bottom: "loss1/conv"
  top: "loss1/fc"
  param {
    lr_mult: 1
    decay_mult: 1
  }
  param {
    lr_mult: 2
    decay_mult: 0
  }
  inner_product_param {
    num_output: 1024
    weight_filler {
      type: "xavier"
      std: 0.02
    }
    bias_filler {
      type: "constant"
      value: 0.2
    }
  }
}
layer {
  name: "loss1/relu_fc"
  type: "ReLU"
  bottom: "loss1/fc"
  top: "loss1/fc"
}
layer {
  name: "loss1/drop_fc"
  type: "Dropout"
  bottom: "loss1/fc"
  top: "loss1/fc"
  dropout_param {
    dropout_ratio: 0.7
  }
}
layer {
  name: "loss1/classifier_plantvillage"
  type: "InnerProduct"
  bottom: "loss1/fc"
  top: "loss1/classifier_plantvillage"
  param {
    lr_mult: 1
    decay_mult: 1
  }
  param {
    lr_mult: 2
    decay_mult: 0
  }
  inner_product_param {
    num_output: 38
    weight_filler {
      type: "xavier"
      std: 0.0009765625
    }
    bias_filler {
      type: "constant"
      value: 0
    }
  }
}
layer {
  name: "inception_4b/1x1"
  type: "Convolution"
  bottom: "inception_4a/output"
  top: "inception_4b/1x1"
  param {
    lr_mult: 1
    decay_mult: 1
  }
  param {
    lr_mult: 2
    decay_mult: 0
  }
  convolution_param {
    num_output: 160
    kernel_size: 1
    weight_filler {
      type: "xavier"
      std: 0.03
    }
    bias_filler {
      type: "constant"
      value: 0.2
    }
  }
}
layer {
  name: "inception_4b/relu_1x1"
  type: "ReLU"
  bottom: "inception_4b/1x1"
  top: "inception_4b/1x1"
}
layer {
  name: "inception_4b/3x3_reduce"
  type: "Convolution"
  bottom: "inception_4a/output"
  top: "inception_4b/3x3_reduce"
  param {
    lr_mult: 1
    decay_mult: 1
  }
  param {
    lr_mult: 2
    decay_mult: 0
  }
  convolution_param {
    num_output: 112
    kernel_size: 1
    weight_filler {
      type: "xavier"
      std: 0.09
    }
    bias_filler {
      type: "constant"
      value: 0.2
    }
  }
}
layer {
  name: "inception_4b/relu_3x3_reduce"
  type: "ReLU"
  bottom: "inception_4b/3x3_reduce"
  top: "inception_4b/3x3_reduce"
}
layer {
  name: "inception_4b/3x3"
  type: "Convolution"
  bottom: "inception_4b/3x3_reduce"
  top: "inception_4b/3x3"
  param {
    lr_mult: 1
    decay_mult: 1
  }
  param {
    lr_mult: 2
    decay_mult: 0
  }
  convolution_param {
    num_output: 224
    pad: 1
    kernel_size: 3
    weight_filler {
      type: "xavier"
      std: 0.03
    }
    bias_filler {
      type: "constant"
      value: 0.2
    }
  }
}
layer {
  name: "inception_4b/relu_3x3"
  type: "ReLU"
  bottom: "inception_4b/3x3"
  top: "inception_4b/3x3"
}
layer {
  name: "inception_4b/5x5_reduce"
  type: "Convolution"
  bottom: "inception_4a/output"
  top: "inception_4b/5x5_reduce"
  param {
    lr_mult: 1
    decay_mult: 1
  }
  param {
    lr_mult: 2
    decay_mult: 0
  }
  convolution_param {
    num_output: 24
    kernel_size: 1
    weight_filler {
      type: "xavier"
      std: 0.2
    }
    bias_filler {
      type: "constant"
      value: 0.2
    }
  }
}
layer {
  name: "inception_4b/relu_5x5_reduce"
  type: "ReLU"
  bottom: "inception_4b/5x5_reduce"
  top: "inception_4b/5x5_reduce"
}
layer {
  name: "inception_4b/5x5"
  type: "Convolution"
  bottom: "inception_4b/5x5_reduce"
  top: "inception_4b/5x5"
  param {
    lr_mult: 1
    decay_mult: 1
  }
  param {
    lr_mult: 2
    decay_mult: 0
  }
  convolution_param {
    num_output: 64
    pad: 2
    kernel_size: 5
    weight_filler {
      type: "xavier"
      std: 0.03
    }
    bias_filler {
      type: "constant"
      value: 0.2
    }
  }
}
layer {
  name: "inception_4b/relu_5x5"
  type: "ReLU"
  bottom: "inception_4b/5x5"
  top: "inception_4b/5x5"
}
layer {
  name: "inception_4b/pool"
  type: "Pooling"
  bottom: "inception_4a/output"
  top: "inception_4b/pool"
  pooling_param {
    pool: MAX
    kernel_size: 3
    stride: 1
    pad: 1
  }
}
layer {
  name: "inception_4b/pool_proj"
  type: "Convolution"
  bottom: "inception_4b/pool"
  top: "inception_4b/pool_proj"
  param {
    lr_mult: 1
    decay_mult: 1
  }
  param {
    lr_mult: 2
    decay_mult: 0
  }
  convolution_param {
    num_output: 64
    kernel_size: 1
    weight_filler {
      type: "xavier"
      std: 0.1
    }
    bias_filler {
      type: "constant"
      value: 0.2
    }
  }
}
layer {
  name: "inception_4b/relu_pool_proj"
  type: "ReLU"
  bottom: "inception_4b/pool_proj"
  top: "inception_4b/pool_proj"
}
layer {
  name: "inception_4b/output"
  type: "Concat"
  bottom: "inception_4b/1x1"
  bottom: "inception_4b/3x3"
  bottom: "inception_4b/5x5"
  bottom: "inception_4b/pool_proj"
  top: "inception_4b/output"
}
layer {
  name: "inception_4c/1x1"
  type: "Convolution"
  bottom: "inception_4b/output"
  top: "inception_4c/1x1"
  param {
    lr_mult: 1
    decay_mult: 1
  }
  param {
    lr_mult: 2
    decay_mult: 0
  }
  convolution_param {
    num_output: 128
    kernel_size: 1
    weight_filler {
      type: "xavier"
      std: 0.03
    }
    bias_filler {
      type: "constant"
      value: 0.2
    }
  }
}
layer {
  name: "inception_4c/relu_1x1"
  type: "ReLU"
  bottom: "inception_4c/1x1"
  top: "inception_4c/1x1"
}
layer {
  name: "inception_4c/3x3_reduce"
  type: "Convolution"
  bottom: "inception_4b/output"
  top: "inception_4c/3x3_reduce"
  param {
    lr_mult: 1
    decay_mult: 1
  }
  param {
    lr_mult: 2
    decay_mult: 0
  }
  convolution_param {
    num_output: 128
    kernel_size: 1
    weight_filler {
      type: "xavier"
      std: 0.09
    }
    bias_filler {
      type: "constant"
      value: 0.2
    }
  }
}
layer {
  name: "inception_4c/relu_3x3_reduce"
  type: "ReLU"
  bottom: "inception_4c/3x3_reduce"
  top: "inception_4c/3x3_reduce"
}
layer {
  name: "inception_4c/3x3"
  type: "Convolution"
  bottom: "inception_4c/3x3_reduce"
  top: "inception_4c/3x3"
  param {
    lr_mult: 1
    decay_mult: 1
  }
  param {
    lr_mult: 2
    decay_mult: 0
  }
  convolution_param {
    num_output: 256
    pad: 1
    kernel_size: 3
    weight_filler {
      type: "xavier"
      std: 0.03
    }
    bias_filler {
      type: "constant"
      value: 0.2
    }
  }
}
layer {
  name: "inception_4c/relu_3x3"
  type: "ReLU"
  bottom: "inception_4c/3x3"
  top: "inception_4c/3x3"
}
layer {
  name: "inception_4c/5x5_reduce"
  type: "Convolution"
  bottom: "inception_4b/output"
  top: "inception_4c/5x5_reduce"
  param {
    lr_mult: 1
    decay_mult: 1
  }
  param {
    lr_mult: 2
    decay_mult: 0
  }
  convolution_param {
    num_output: 24
    kernel_size: 1
    weight_filler {
      type: "xavier"
      std: 0.2
    }
    bias_filler {
      type: "constant"
      value: 0.2
    }
  }
}
layer {
  name: "inception_4c/relu_5x5_reduce"
  type: "ReLU"
  bottom: "inception_4c/5x5_reduce"
  top: "inception_4c/5x5_reduce"
}
layer {
  name: "inception_4c/5x5"
  type: "Convolution"
  bottom: "inception_4c/5x5_reduce"
  top: "inception_4c/5x5"
  param {
    lr_mult: 1
    decay_mult: 1
  }
  param {
    lr_mult: 2
    decay_mult: 0
  }
  convolution_param {
    num_output: 64
    pad: 2
    kernel_size: 5
    weight_filler {
      type: "xavier"
      std: 0.03
    }
    bias_filler {
      type: "constant"
      value: 0.2
    }
  }
}
layer {
  name: "inception_4c/relu_5x5"
  type: "ReLU"
  bottom: "inception_4c/5x5"
  top: "inception_4c/5x5"
}
layer {
  name: "inception_4c/pool"
  type: "Pooling"
  bottom: "inception_4b/output"
  top: "inception_4c/pool"
  pooling_param {
    pool: MAX
    kernel_size: 3
    stride: 1
    pad: 1
  }
}
layer {
  name: "inception_4c/pool_proj"
  type: "Convolution"
  bottom: "inception_4c/pool"
  top: "inception_4c/pool_proj"
  param {
    lr_mult: 1
    decay_mult: 1
  }
  param {
    lr_mult: 2
    decay_mult: 0
  }
  convolution_param {
    num_output: 64
    kernel_size: 1
    weight_filler {
      type: "xavier"
      std: 0.1
    }
    bias_filler {
      type: "constant"
      value: 0.2
    }
  }
}
layer {
  name: "inception_4c/relu_pool_proj"
  type: "ReLU"
  bottom: "inception_4c/pool_proj"
  top: "inception_4c/pool_proj"
}
layer {
  name: "inception_4c/output"
  type: "Concat"
  bottom: "inception_4c/1x1"
  bottom: "inception_4c/3x3"
  bottom: "inception_4c/5x5"
  bottom: "inception_4c/pool_proj"
  top: "inception_4c/output"
}
layer {
  name: "inception_4d/1x1"
  type: "Convolution"
  bottom: "inception_4c/output"
  top: "inception_4d/1x1"
  param {
    lr_mult: 1
    decay_mult: 1
  }
  param {
    lr_mult: 2
    decay_mult: 0
  }
  convolution_param {
    num_output: 112
    kernel_size: 1
    weight_filler {
      type: "xavier"
      std: 0.03
    }
    bias_filler {
      type: "constant"
      value: 0.2
    }
  }
}
layer {
  name: "inception_4d/relu_1x1"
  type: "ReLU"
  bottom: "inception_4d/1x1"
  top: "inception_4d/1x1"
}
layer {
  name: "inception_4d/3x3_reduce"
  type: "Convolution"
  bottom: "inception_4c/output"
  top: "inception_4d/3x3_reduce"
  param {
    lr_mult: 1
    decay_mult: 1
  }
  param {
    lr_mult: 2
    decay_mult: 0
  }
  convolution_param {
    num_output: 144
    kernel_size: 1
    weight_filler {
      type: "xavier"
      std: 0.09
    }
    bias_filler {
      type: "constant"
      value: 0.2
    }
  }
}
layer {
  name: "inception_4d/relu_3x3_reduce"
  type: "ReLU"
  bottom: "inception_4d/3x3_reduce"
  top: "inception_4d/3x3_reduce"
}
layer {
  name: "inception_4d/3x3"
  type: "Convolution"
  bottom: "inception_4d/3x3_reduce"
  top: "inception_4d/3x3"
  param {
    lr_mult: 1
    decay_mult: 1
  }
  param {
    lr_mult: 2
    decay_mult: 0
  }
  convolution_param {
    num_output: 288
    pad: 1
    kernel_size: 3
    weight_filler {
      type: "xavier"
      std: 0.03
    }
    bias_filler {
      type: "constant"
      value: 0.2
    }
  }
}
layer {
  name: "inception_4d/relu_3x3"
  type: "ReLU"
  bottom: "inception_4d/3x3"
  top: "inception_4d/3x3"
}
layer {
  name: "inception_4d/5x5_reduce"
  type: "Convolution"
  bottom: "inception_4c/output"
  top: "inception_4d/5x5_reduce"
  param {
    lr_mult: 1
    decay_mult: 1
  }
  param {
    lr_mult: 2
    decay_mult: 0
  }
  convolution_param {
    num_output: 32
    kernel_size: 1
    weight_filler {
      type: "xavier"
      std: 0.2
    }
    bias_filler {
      type: "constant"
      value: 0.2
    }
  }
}
layer {
  name: "inception_4d/relu_5x5_reduce"
  type: "ReLU"
  bottom: "inception_4d/5x5_reduce"
  top: "inception_4d/5x5_reduce"
}
layer {
  name: "inception_4d/5x5"
  type: "Convolution"
  bottom: "inception_4d/5x5_reduce"
  top: "inception_4d/5x5"
  param {
    lr_mult: 1
    decay_mult: 1
  }
  param {
    lr_mult: 2
    decay_mult: 0
  }
  convolution_param {
    num_output: 64
    pad: 2
    kernel_size: 5
    weight_filler {
      type: "xavier"
      std: 0.03
    }
    bias_filler {
      type: "constant"
      value: 0.2
    }
  }
}
layer {
  name: "inception_4d/relu_5x5"
  type: "ReLU"
  bottom: "inception_4d/5x5"
  top: "inception_4d/5x5"
}
layer {
  name: "inception_4d/pool"
  type: "Pooling"
  bottom: "inception_4c/output"
  top: "inception_4d/pool"
  pooling_param {
    pool: MAX
    kernel_size: 3
    stride: 1
    pad: 1
  }
}
layer {
  name: "inception_4d/pool_proj"
  type: "Convolution"
  bottom: "inception_4d/pool"
  top: "inception_4d/pool_proj"
  param {
    lr_mult: 1
    decay_mult: 1
  }
  param {
    lr_mult: 2
    decay_mult: 0
  }
  convolution_param {
    num_output: 64
    kernel_size: 1
    weight_filler {
      type: "xavier"
      std: 0.1
    }
    bias_filler {
      type: "constant"
      value: 0.2
    }
  }
}
layer {
  name: "inception_4d/relu_pool_proj"
  type: "ReLU"
  bottom: "inception_4d/pool_proj"
  top: "inception_4d/pool_proj"
}
layer {
  name: "inception_4d/output"
  type: "Concat"
  bottom: "inception_4d/1x1"
  bottom: "inception_4d/3x3"
  bottom: "inception_4d/5x5"
  bottom: "inception_4d/pool_proj"
  top: "inception_4d/output"
}
layer {
  name: "loss2/ave_pool"
  type: "Pooling"
  bottom: "inception_4d/output"
  top: "loss2/ave_pool"
  pooling_param {
    pool: AVE
    kernel_size: 5
    stride: 3
  }
}
layer {
  name: "loss2/conv"
  type: "Convolution"
  bottom: "loss2/ave_pool"
  top: "loss2/conv"
  param {
    lr_mult: 1
    decay_mult: 1
  }
  param {
    lr_mult: 2
    decay_mult: 0
  }
  convolution_param {
    num_output: 128
    kernel_size: 1
    weight_filler {
      type: "xavier"
      std: 0.08
    }
    bias_filler {
      type: "constant"
      value: 0.2
    }
  }
}
layer {
  name: "loss2/relu_conv"
  type: "ReLU"
  bottom: "loss2/conv"
  top: "loss2/conv"
}
layer {
  name: "loss2/fc"
  type: "InnerProduct"
  bottom: "loss2/conv"
  top: "loss2/fc"
  param {
    lr_mult: 1
    decay_mult: 1
  }
  param {
    lr_mult: 2
    decay_mult: 0
  }
  inner_product_param {
    num_output: 1024
    weight_filler {
      type: "xavier"
      std: 0.02
    }
    bias_filler {
      type: "constant"
      value: 0.2
    }
  }
}
layer {
  name: "loss2/relu_fc"
  type: "ReLU"
  bottom: "loss2/fc"
  top: "loss2/fc"
}
layer {
  name: "loss2/drop_fc"
  type: "Dropout"
  bottom: "loss2/fc"
  top: "loss2/fc"
  dropout_param {
    dropout_ratio: 0.7
  }
}
layer {
  name: "loss2/classifier_plantvillage"
  type: "InnerProduct"
  bottom: "loss2/fc"
  top: "loss2/classifier_plantvillage"
  param {
    lr_mult: 1
    decay_mult: 1
  }
  param {
    lr_mult: 2
    decay_mult: 0
  }
  inner_product_param {
    num_output: 38
    weight_filler {
      type: "xavier"
      std: 0.0009765625
    }
    bias_filler {
      type: "constant"
      value: 0
    }
  }
}
layer {
  name: "inception_4e/1x1"
  type: "Convolution"
  bottom: "inception_4d/output"
  top: "inception_4e/1x1"
  param {
    lr_mult: 1
    decay_mult: 1
  }
  param {
    lr_mult: 2
    decay_mult: 0
  }
  convolution_param {
    num_output: 256
    kernel_size: 1
    weight_filler {
      type: "xavier"
      std: 0.03
    }
    bias_filler {
      type: "constant"
      value: 0.2
    }
  }
}
layer {
  name: "inception_4e/relu_1x1"
  type: "ReLU"
  bottom: "inception_4e/1x1"
  top: "inception_4e/1x1"
}
layer {
  name: "inception_4e/3x3_reduce"
  type: "Convolution"
  bottom: "inception_4d/output"
  top: "inception_4e/3x3_reduce"
  param {
    lr_mult: 1
    decay_mult: 1
  }
  param {
    lr_mult: 2
    decay_mult: 0
  }
  convolution_param {
    num_output: 160
    kernel_size: 1
    weight_filler {
      type: "xavier"
      std: 0.09
    }
    bias_filler {
      type: "constant"
      value: 0.2
    }
  }
}
layer {
  name: "inception_4e/relu_3x3_reduce"
  type: "ReLU"
  bottom: "inception_4e/3x3_reduce"
  top: "inception_4e/3x3_reduce"
}
layer {
  name: "inception_4e/3x3"
  type: "Convolution"
  bottom: "inception_4e/3x3_reduce"
  top: "inception_4e/3x3"
  param {
    lr_mult: 1
    decay_mult: 1
  }
  param {
    lr_mult: 2
    decay_mult: 0
  }
  convolution_param {
    num_output: 320
    pad: 1
    kernel_size: 3
    weight_filler {
      type: "xavier"
      std: 0.03
    }
    bias_filler {
      type: "constant"
      value: 0.2
    }
  }
}
layer {
  name: "inception_4e/relu_3x3"
  type: "ReLU"
  bottom: "inception_4e/3x3"
  top: "inception_4e/3x3"
}
layer {
  name: "inception_4e/5x5_reduce"
  type: "Convolution"
  bottom: "inception_4d/output"
  top: "inception_4e/5x5_reduce"
  param {
    lr_mult: 1
    decay_mult: 1
  }
  param {
    lr_mult: 2
    decay_mult: 0
  }
  convolution_param {
    num_output: 32
    kernel_size: 1
    weight_filler {
      type: "xavier"
      std: 0.2
    }
    bias_filler {
      type: "constant"
      value: 0.2
    }
  }
}
layer {
  name: "inception_4e/relu_5x5_reduce"
  type: "ReLU"
  bottom: "inception_4e/5x5_reduce"
  top: "inception_4e/5x5_reduce"
}
layer {
  name: "inception_4e/5x5"
  type: "Convolution"
  bottom: "inception_4e/5x5_reduce"
  top: "inception_4e/
I0403 15:01:41.601652 18102 layer_factory.hpp:77] Creating layer data
I0403 15:01:41.602251 18102 net.cpp:91] Creating Layer data
I0403 15:01:41.602284 18102 net.cpp:399] data -> data
I0403 15:01:41.602336 18102 net.cpp:399] data -> label
I0403 15:01:41.602372 18102 data_transformer.cpp:25] Loading mean file from: /home/mohanty/data/final_dataset/lmdb/grayscale-40-60/mean.binaryproto
I0403 15:01:41.605613 18106 db_lmdb.cpp:38] Opened lmdb /home/mohanty/data/final_dataset/lmdb/grayscale-40-60/test_db
I0403 15:01:41.615943 18102 data_layer.cpp:41] output data size: 24,3,224,224
I0403 15:01:41.645936 18102 net.cpp:141] Setting up data
I0403 15:01:41.646073 18102 net.cpp:148] Top shape: 24 3 224 224 (3612672)
I0403 15:01:41.646096 18102 net.cpp:148] Top shape: 24 (24)
I0403 15:01:41.646112 18102 net.cpp:156] Memory required for data: 14450784
I0403 15:01:41.646141 18102 layer_factory.hpp:77] Creating layer label_data_1_split
I0403 15:01:41.646168 18102 net.cpp:91] Creating Layer label_data_1_split
I0403 15:01:41.646188 18102 net.cpp:425] label_data_1_split <- label
I0403 15:01:41.646231 18102 net.cpp:399] label_data_1_split -> label_data_1_split_0
I0403 15:01:41.646260 18102 net.cpp:399] label_data_1_split -> label_data_1_split_1
I0403 15:01:41.646282 18102 net.cpp:399] label_data_1_split -> label_data_1_split_2
I0403 15:01:41.646303 18102 net.cpp:399] label_data_1_split -> label_data_1_split_3
I0403 15:01:41.646322 18102 net.cpp:399] label_data_1_split -> label_data_1_split_4
I0403 15:01:41.646353 18102 net.cpp:399] label_data_1_split -> label_data_1_split_5
I0403 15:01:41.646373 18102 net.cpp:399] label_data_1_split -> label_data_1_split_6
I0403 15:01:41.646391 18102 net.cpp:399] label_data_1_split -> label_data_1_split_7
I0403 15:01:41.646409 18102 net.cpp:399] label_data_1_split -> label_data_1_split_8
I0403 15:01:41.646428 18102 net.cpp:399] label_data_1_split -> label_data_1_split_9
I0403 15:01:41.646553 18102 net.cpp:141] Setting up label_data_1_split
I0403 15:01:41.646575 18102 net.cpp:148] Top shape: 24 (24)
I0403 15:01:41.646592 18102 net.cpp:148] Top shape: 24 (24)
I0403 15:01:41.646607 18102 net.cpp:148] Top shape: 24 (24)
I0403 15:01:41.646623 18102 net.cpp:148] Top shape: 24 (24)
I0403 15:01:41.646637 18102 net.cpp:148] Top shape: 24 (24)
I0403 15:01:41.646652 18102 net.cpp:148] Top shape: 24 (24)
I0403 15:01:41.646667 18102 net.cpp:148] Top shape: 24 (24)
I0403 15:01:41.646682 18102 net.cpp:148] Top shape: 24 (24)
I0403 15:01:41.646697 18102 net.cpp:148] Top shape: 24 (24)
I0403 15:01:41.646713 18102 net.cpp:148] Top shape: 24 (24)
I0403 15:01:41.646755 18102 net.cpp:156] Memory required for data: 14451744
I0403 15:01:41.646771 18102 layer_factory.hpp:77] Creating layer conv1/7x7_s2
I0403 15:01:41.646802 18102 net.cpp:91] Creating Layer conv1/7x7_s2
I0403 15:01:41.646821 18102 net.cpp:425] conv1/7x7_s2 <- data
I0403 15:01:41.646839 18102 net.cpp:399] conv1/7x7_s2 -> conv1/7x7_s2
I0403 15:01:41.796440 18102 net.cpp:141] Setting up conv1/7x7_s2
I0403 15:01:41.796541 18102 net.cpp:148] Top shape: 24 64 112 112 (19267584)
I0403 15:01:41.796561 18102 net.cpp:156] Memory required for data: 91522080
I0403 15:01:41.796591 18102 layer_factory.hpp:77] Creating layer conv1/relu_7x7
I0403 15:01:41.796618 18102 net.cpp:91] Creating Layer conv1/relu_7x7
I0403 15:01:41.796636 18102 net.cpp:425] conv1/relu_7x7 <- conv1/7x7_s2
I0403 15:01:41.796656 18102 net.cpp:386] conv1/relu_7x7 -> conv1/7x7_s2 (in-place)
I0403 15:01:41.796938 18102 net.cpp:141] Setting up conv1/relu_7x7
I0403 15:01:41.796968 18102 net.cpp:148] Top shape: 24 64 112 112 (19267584)
I0403 15:01:41.796988 18102 net.cpp:156] Memory required for data: 168592416
I0403 15:01:41.797005 18102 layer_factory.hpp:77] Creating layer pool1/3x3_s2
I0403 15:01:41.797034 18102 net.cpp:91] Creating Layer pool1/3x3_s2
I0403 15:01:41.797052 18102 net.cpp:425] pool1/3x3_s2 <- conv1/7x7_s2
I0403 15:01:41.797076 18102 net.cpp:399] pool1/3x3_s2 -> pool1/3x3_s2
I0403 15:01:41.797157 18102 net.cpp:141] Setting up pool1/3x3_s2
I0403 15:01:41.797181 18102 net.cpp:148] Top shape: 24 64 56 56 (4816896)
I0403 15:01:41.797196 18102 net.cpp:156] Memory required for data: 187860000
I0403 15:01:41.797211 18102 layer_factory.hpp:77] Creating layer pool1/norm1
I0403 15:01:41.797238 18102 net.cpp:91] Creating Layer pool1/norm1
I0403 15:01:41.797256 18102 net.cpp:425] pool1/norm1 <- pool1/3x3_s2
I0403 15:01:41.797277 18102 net.cpp:399] pool1/norm1 -> pool1/norm1
I0403 15:01:41.797636 18102 net.cpp:141] Setting up pool1/norm1
I0403 15:01:41.797665 18102 net.cpp:148] Top shape: 24 64 56 56 (4816896)
I0403 15:01:41.797683 18102 net.cpp:156] Memory required for data: 207127584
I0403 15:01:41.797698 18102 layer_factory.hpp:77] Creating layer conv2/3x3_reduce
I0403 15:01:41.797724 18102 net.cpp:91] Creating Layer conv2/3x3_reduce
I0403 15:01:41.797740 18102 net.cpp:425] conv2/3x3_reduce <- pool1/norm1
I0403 15:01:41.797760 18102 net.cpp:399] conv2/3x3_reduce -> conv2/3x3_reduce
I0403 15:01:41.799196 18102 net.cpp:141] Setting up conv2/3x3_reduce
I0403 15:01:41.799226 18102 net.cpp:148] Top shape: 24 64 56 56 (4816896)
I0403 15:01:41.799244 18102 net.cpp:156] Memory required for data: 226395168
I0403 15:01:41.799268 18102 layer_factory.hpp:77] Creating layer conv2/relu_3x3_reduce
I0403 15:01:41.799288 18102 net.cpp:91] Creating Layer conv2/relu_3x3_reduce
I0403 15:01:41.799304 18102 net.cpp:425] conv2/relu_3x3_reduce <- conv2/3x3_reduce
I0403 15:01:41.799347 18102 net.cpp:386] conv2/relu_3x3_reduce -> conv2/3x3_reduce (in-place)
I0403 15:01:41.799643 18102 net.cpp:141] Setting up conv2/relu_3x3_reduce
I0403 15:01:41.799669 18102 net.cpp:148] Top shape: 24 64 56 56 (4816896)
I0403 15:01:41.799685 18102 net.cpp:156] Memory required for data: 245662752
I0403 15:01:41.799700 18102 layer_factory.hpp:77] Creating layer conv2/3x3
I0403 15:01:41.799726 18102 net.cpp:91] Creating Layer conv2/3x3
I0403 15:01:41.799743 18102 net.cpp:425] conv2/3x3 <- conv2/3x3_reduce
I0403 15:01:41.799764 18102 net.cpp:399] conv2/3x3 -> conv2/3x3
I0403 15:01:41.802126 18102 net.cpp:141] Setting up conv2/3x3
I0403 15:01:41.802157 18102 net.cpp:148] Top shape: 24 192 56 56 (14450688)
I0403 15:01:41.802172 18102 net.cpp:156] Memory required for data: 303465504
I0403 15:01:41.802197 18102 layer_factory.hpp:77] Creating layer conv2/relu_3x3
I0403 15:01:41.802218 18102 net.cpp:91] Creating Layer conv2/relu_3x3
I0403 15:01:41.802234 18102 net.cpp:425] conv2/relu_3x3 <- conv2/3x3
I0403 15:01:41.802251 18102 net.cpp:386] conv2/relu_3x3 -> conv2/3x3 (in-place)
I0403 15:01:41.802433 18102 net.cpp:141] Setting up conv2/relu_3x3
I0403 15:01:41.802460 18102 net.cpp:148] Top shape: 24 192 56 56 (14450688)
I0403 15:01:41.802506 18102 net.cpp:156] Memory required for data: 361268256
I0403 15:01:41.802523 18102 layer_factory.hpp:77] Creating layer conv2/norm2
I0403 15:01:41.802542 18102 net.cpp:91] Creating Layer conv2/norm2
I0403 15:01:41.802558 18102 net.cpp:425] conv2/norm2 <- conv2/3x3
I0403 15:01:41.802579 18102 net.cpp:399] conv2/norm2 -> conv2/norm2
I0403 15:01:41.802893 18102 net.cpp:141] Setting up conv2/norm2
I0403 15:01:41.802922 18102 net.cpp:148] Top shape: 24 192 56 56 (14450688)
I0403 15:01:41.802937 18102 net.cpp:156] Memory required for data: 419071008
I0403 15:01:41.802953 18102 layer_factory.hpp:77] Creating layer pool2/3x3_s2
I0403 15:01:41.802970 18102 net.cpp:91] Creating Layer pool2/3x3_s2
I0403 15:01:41.802990 18102 net.cpp:425] pool2/3x3_s2 <- conv2/norm2
I0403 15:01:41.803011 18102 net.cpp:399] pool2/3x3_s2 -> pool2/3x3_s2
I0403 15:01:41.803069 18102 net.cpp:141] Setting up pool2/3x3_s2
I0403 15:01:41.803092 18102 net.cpp:148] Top shape: 24 192 28 28 (3612672)
I0403 15:01:41.803108 18102 net.cpp:156] Memory required for data: 433521696
I0403 15:01:41.803122 18102 layer_factory.hpp:77] Creating layer pool2/3x3_s2_pool2/3x3_s2_0_split
I0403 15:01:41.803140 18102 net.cpp:91] Creating Layer pool2/3x3_s2_pool2/3x3_s2_0_split
I0403 15:01:41.803156 18102 net.cpp:425] pool2/3x3_s2_pool2/3x3_s2_0_split <- pool2/3x3_s2
I0403 15:01:41.803174 18102 net.cpp:399] pool2/3x3_s2_pool2/3x3_s2_0_split -> pool2/3x3_s2_pool2/3x3_s2_0_split_0
I0403 15:01:41.803196 18102 net.cpp:399] pool2/3x3_s2_pool2/3x3_s2_0_split -> pool2/3x3_s2_pool2/3x3_s2_0_split_1
I0403 15:01:41.803216 18102 net.cpp:399] pool2/3x3_s2_pool2/3x3_s2_0_split -> pool2/3x3_s2_pool2/3x3_s2_0_split_2
I0403 15:01:41.803236 18102 net.cpp:399] pool2/3x3_s2_pool2/3x3_s2_0_split -> pool2/3x3_s2_pool2/3x3_s2_0_split_3
I0403 15:01:41.803308 18102 net.cpp:141] Setting up pool2/3x3_s2_pool2/3x3_s2_0_split
I0403 15:01:41.803331 18102 net.cpp:148] Top shape: 24 192 28 28 (3612672)
I0403 15:01:41.803349 18102 net.cpp:148] Top shape: 24 192 28 28 (3612672)
I0403 15:01:41.803364 18102 net.cpp:148] Top shape: 24 192 28 28 (3612672)
I0403 15:01:41.803380 18102 net.cpp:148] Top shape: 24 192 28 28 (3612672)
I0403 15:01:41.803395 18102 net.cpp:156] Memory required for data: 491324448
I0403 15:01:41.803411 18102 layer_factory.hpp:77] Creating layer inception_3a/1x1
I0403 15:01:41.803434 18102 net.cpp:91] Creating Layer inception_3a/1x1
I0403 15:01:41.803452 18102 net.cpp:425] inception_3a/1x1 <- pool2/3x3_s2_pool2/3x3_s2_0_split_0
I0403 15:01:41.803472 18102 net.cpp:399] inception_3a/1x1 -> inception_3a/1x1
I0403 15:01:41.805047 18102 net.cpp:141] Setting up inception_3a/1x1
I0403 15:01:41.805076 18102 net.cpp:148] Top shape: 24 64 28 28 (1204224)
I0403 15:01:41.805094 18102 net.cpp:156] Memory required for data: 496141344
I0403 15:01:41.805111 18102 layer_factory.hpp:77] Creating layer inception_3a/relu_1x1
I0403 15:01:41.805132 18102 net.cpp:91] Creating Layer inception_3a/relu_1x1
I0403 15:01:41.805150 18102 net.cpp:425] inception_3a/relu_1x1 <- inception_3a/1x1
I0403 15:01:41.805167 18102 net.cpp:386] inception_3a/relu_1x1 -> inception_3a/1x1 (in-place)
I0403 15:01:41.805348 18102 net.cpp:141] Setting up inception_3a/relu_1x1
I0403 15:01:41.805377 18102 net.cpp:148] Top shape: 24 64 28 28 (1204224)
I0403 15:01:41.805393 18102 net.cpp:156] Memory required for data: 500958240
I0403 15:01:41.805408 18102 layer_factory.hpp:77] Creating layer inception_3a/3x3_reduce
I0403 15:01:41.805430 18102 net.cpp:91] Creating Layer inception_3a/3x3_reduce
I0403 15:01:41.805449 18102 net.cpp:425] inception_3a/3x3_reduce <- pool2/3x3_s2_pool2/3x3_s2_0_split_1
I0403 15:01:41.805467 18102 net.cpp:399] inception_3a/3x3_reduce -> inception_3a/3x3_reduce
I0403 15:01:41.807200 18102 net.cpp:141] Setting up inception_3a/3x3_reduce
I0403 15:01:41.807229 18102 net.cpp:148] Top shape: 24 96 28 28 (1806336)
I0403 15:01:41.807246 18102 net.cpp:156] Memory required for data: 508183584
I0403 15:01:41.807271 18102 layer_factory.hpp:77] Creating layer inception_3a/relu_3x3_reduce
I0403 15:01:41.807307 18102 net.cpp:91] Creating Layer inception_3a/relu_3x3_reduce
I0403 15:01:41.807324 18102 net.cpp:425] inception_3a/relu_3x3_reduce <- inception_3a/3x3_reduce
I0403 15:01:41.807343 18102 net.cpp:386] inception_3a/relu_3x3_reduce -> inception_3a/3x3_reduce (in-place)
I0403 15:01:41.807533 18102 net.cpp:141] Setting up inception_3a/relu_3x3_reduce
I0403 15:01:41.807559 18102 net.cpp:148] Top shape: 24 96 28 28 (1806336)
I0403 15:01:41.807574 18102 net.cpp:156] Memory required for data: 515408928
I0403 15:01:41.807588 18102 layer_factory.hpp:77] Creating layer inception_3a/3x3
I0403 15:01:41.807612 18102 net.cpp:91] Creating Layer inception_3a/3x3
I0403 15:01:41.807631 18102 net.cpp:425] inception_3a/3x3 <- inception_3a/3x3_reduce
I0403 15:01:41.807651 18102 net.cpp:399] inception_3a/3x3 -> inception_3a/3x3
I0403 15:01:41.809356 18102 net.cpp:141] Setting up inception_3a/3x3
I0403 15:01:41.809386 18102 net.cpp:148] Top shape: 24 128 28 28 (2408448)
I0403 15:01:41.809401 18102 net.cpp:156] Memory required for data: 525042720
I0403 15:01:41.809418 18102 layer_factory.hpp:77] Creating layer inception_3a/relu_3x3
I0403 15:01:41.809442 18102 net.cpp:91] Creating Layer inception_3a/relu_3x3
I0403 15:01:41.809459 18102 net.cpp:425] inception_3a/relu_3x3 <- inception_3a/3x3
I0403 15:01:41.809478 18102 net.cpp:386] inception_3a/relu_3x3 -> inception_3a/3x3 (in-place)
I0403 15:01:41.809753 18102 net.cpp:141] Setting up inception_3a/relu_3x3
I0403 15:01:41.809779 18102 net.cpp:148] Top shape: 24 128 28 28 (2408448)
I0403 15:01:41.809795 18102 net.cpp:156] Memory required for data: 534676512
I0403 15:01:41.809810 18102 layer_factory.hpp:77] Creating layer inception_3a/5x5_reduce
I0403 15:01:41.809834 18102 net.cpp:91] Creating Layer inception_3a/5x5_reduce
I0403 15:01:41.809852 18102 net.cpp:425] inception_3a/5x5_reduce <- pool2/3x3_s2_pool2/3x3_s2_0_split_2
I0403 15:01:41.809872 18102 net.cpp:399] inception_3a/5x5_reduce -> inception_3a/5x5_reduce
I0403 15:01:41.810885 18102 net.cpp:141] Setting up inception_3a/5x5_reduce
I0403 15:01:41.810914 18102 net.cpp:148] Top shape: 24 16 28 28 (301056)
I0403 15:01:41.810928 18102 net.cpp:156] Memory required for data: 535880736
I0403 15:01:41.810947 18102 layer_factory.hpp:77] Creating layer inception_3a/relu_5x5_reduce
I0403 15:01:41.810968 18102 net.cpp:91] Creating Layer inception_3a/relu_5x5_reduce
I0403 15:01:41.810988 18102 net.cpp:425] inception_3a/relu_5x5_reduce <- inception_3a/5x5_reduce
I0403 15:01:41.811008 18102 net.cpp:386] inception_3a/relu_5x5_reduce -> inception_3a/5x5_reduce (in-place)
I0403 15:01:41.811314 18102 net.cpp:141] Setting up inception_3a/relu_5x5_reduce
I0403 15:01:41.811343 18102 net.cpp:148] Top shape: 24 16 28 28 (301056)
I0403 15:01:41.811358 18102 net.cpp:156] Memory required for data: 537084960
I0403 15:01:41.811374 18102 layer_factory.hpp:77] Creating layer inception_3a/5x5
I0403 15:01:41.811396 18102 net.cpp:91] Creating Layer inception_3a/5x5
I0403 15:01:41.811414 18102 net.cpp:425] inception_3a/5x5 <- inception_3a/5x5_reduce
I0403 15:01:41.811432 18102 net.cpp:399] inception_3a/5x5 -> inception_3a/5x5
I0403 15:01:41.812466 18102 net.cpp:141] Setting up inception_3a/5x5
I0403 15:01:41.812500 18102 net.cpp:148] Top shape: 24 32 28 28 (602112)
I0403 15:01:41.812518 18102 net.cpp:156] Memory required for data: 539493408
I0403 15:01:41.812537 18102 layer_factory.hpp:77] Creating layer inception_3a/relu_5x5
I0403 15:01:41.812558 18102 net.cpp:91] Creating Layer inception_3a/relu_5x5
I0403 15:01:41.812574 18102 net.cpp:425] inception_3a/relu_5x5 <- inception_3a/5x5
I0403 15:01:41.812592 18102 net.cpp:386] inception_3a/relu_5x5 -> inception_3a/5x5 (in-place)
I0403 15:01:41.812767 18102 net.cpp:141] Setting up inception_3a/relu_5x5
I0403 15:01:41.812795 18102 net.cpp:148] Top shape: 24 32 28 28 (602112)
I0403 15:01:41.812810 18102 net.cpp:156] Memory required for data: 541901856
I0403 15:01:41.812826 18102 layer_factory.hpp:77] Creating layer inception_3a/pool
I0403 15:01:41.812844 18102 net.cpp:91] Creating Layer inception_3a/pool
I0403 15:01:41.812875 18102 net.cpp:425] inception_3a/pool <- pool2/3x3_s2_pool2/3x3_s2_0_split_3
I0403 15:01:41.812894 18102 net.cpp:399] inception_3a/pool -> inception_3a/pool
I0403 15:01:41.812953 18102 net.cpp:141] Setting up inception_3a/pool
I0403 15:01:41.812978 18102 net.cpp:148] Top shape: 24 192 28 28 (3612672)
I0403 15:01:41.813000 18102 net.cpp:156] Memory required for data: 556352544
I0403 15:01:41.813015 18102 layer_factory.hpp:77] Creating layer inception_3a/pool_proj
I0403 15:01:41.813040 18102 net.cpp:91] Creating Layer inception_3a/pool_proj
I0403 15:01:41.813056 18102 net.cpp:425] inception_3a/pool_proj <- inception_3a/pool
I0403 15:01:41.813078 18102 net.cpp:399] inception_3a/pool_proj -> inception_3a/pool_proj
I0403 15:01:41.814076 18102 net.cpp:141] Setting up inception_3a/pool_proj
I0403 15:01:41.814105 18102 net.cpp:148] Top shape: 24 32 28 28 (602112)
I0403 15:01:41.814121 18102 net.cpp:156] Memory required for data: 558760992
I0403 15:01:41.814142 18102 layer_factory.hpp:77] Creating layer inception_3a/relu_pool_proj
I0403 15:01:41.814164 18102 net.cpp:91] Creating Layer inception_3a/relu_pool_proj
I0403 15:01:41.814182 18102 net.cpp:425] inception_3a/relu_pool_proj <- inception_3a/pool_proj
I0403 15:01:41.814199 18102 net.cpp:386] inception_3a/relu_pool_proj -> inception_3a/pool_proj (in-place)
I0403 15:01:41.814479 18102 net.cpp:141] Setting up inception_3a/relu_pool_proj
I0403 15:01:41.814507 18102 net.cpp:148] Top shape: 24 32 28 28 (602112)
I0403 15:01:41.814522 18102 net.cpp:156] Memory required for data: 561169440
I0403 15:01:41.814537 18102 layer_factory.hpp:77] Creating layer inception_3a/output
I0403 15:01:41.814556 18102 net.cpp:91] Creating Layer inception_3a/output
I0403 15:01:41.814574 18102 net.cpp:425] inception_3a/output <- inception_3a/1x1
I0403 15:01:41.814589 18102 net.cpp:425] inception_3a/output <- inception_3a/3x3
I0403 15:01:41.814606 18102 net.cpp:425] inception_3a/output <- inception_3a/5x5
I0403 15:01:41.814622 18102 net.cpp:425] inception_3a/output <- inception_3a/pool_proj
I0403 15:01:41.814640 18102 net.cpp:399] inception_3a/output -> inception_3a/output
I0403 15:01:41.814699 18102 net.cpp:141] Setting up inception_3a/output
I0403 15:01:41.814723 18102 net.cpp:148] Top shape: 24 256 28 28 (4816896)
I0403 15:01:41.814736 18102 net.cpp:156] Memory required for data: 580437024
I0403 15:01:41.814751 18102 layer_factory.hpp:77] Creating layer inception_3a/output_inception_3a/output_0_split
I0403 15:01:41.814769 18102 net.cpp:91] Creating Layer inception_3a/output_inception_3a/output_0_split
I0403 15:01:41.814784 18102 net.cpp:425] inception_3a/output_inception_3a/output_0_split <- inception_3a/output
I0403 15:01:41.814802 18102 net.cpp:399] inception_3a/output_inception_3a/output_0_split -> inception_3a/output_inception_3a/output_0_split_0
I0403 15:01:41.814822 18102 net.cpp:399] inception_3a/output_inception_3a/output_0_split -> inception_3a/output_inception_3a/output_0_split_1
I0403 15:01:41.814847 18102 net.cpp:399] inception_3a/output_inception_3a/output_0_split -> inception_3a/output_inception_3a/output_0_split_2
I0403 15:01:41.814867 18102 net.cpp:399] inception_3a/output_inception_3a/output_0_split -> inception_3a/output_inception_3a/output_0_split_3
I0403 15:01:41.814940 18102 net.cpp:141] Setting up inception_3a/output_inception_3a/output_0_split
I0403 15:01:41.814962 18102 net.cpp:148] Top shape: 24 256 28 28 (4816896)
I0403 15:01:41.814980 18102 net.cpp:148] Top shape: 24 256 28 28 (4816896)
I0403 15:01:41.815002 18102 net.cpp:148] Top shape: 24 256 28 28 (4816896)
I0403 15:01:41.815018 18102 net.cpp:148] Top shape: 24 256 28 28 (4816896)
I0403 15:01:41.815032 18102 net.cpp:156] Memory required for data: 657507360
I0403 15:01:41.815045 18102 layer_factory.hpp:77] Creating layer inception_3b/1x1
I0403 15:01:41.815071 18102 net.cpp:91] Creating Layer inception_3b/1x1
I0403 15:01:41.815089 18102 net.cpp:425] inception_3b/1x1 <- inception_3a/output_inception_3a/output_0_split_0
I0403 15:01:41.815110 18102 net.cpp:399] inception_3b/1x1 -> inception_3b/1x1
I0403 15:01:41.816265 18102 net.cpp:141] Setting up inception_3b/1x1
I0403 15:01:41.816305 18102 net.cpp:148] Top shape: 24 128 28 28 (2408448)
I0403 15:01:41.816321 18102 net.cpp:156] Memory required for data: 667141152
I0403 15:01:41.816340 18102 layer_factory.hpp:77] Creating layer inception_3b/relu_1x1
I0403 15:01:41.816364 18102 net.cpp:91] Creating Layer inception_3b/relu_1x1
I0403 15:01:41.816381 18102 net.cpp:425] inception_3b/relu_1x1 <- inception_3b/1x1
I0403 15:01:41.816400 18102 net.cpp:386] inception_3b/relu_1x1 -> inception_3b/1x1 (in-place)
I0403 15:01:41.816586 18102 net.cpp:141] Setting up inception_3b/relu_1x1
I0403 15:01:41.816612 18102 net.cpp:148] Top shape: 24 128 28 28 (2408448)
I0403 15:01:41.816625 18102 net.cpp:156] Memory required for data: 676774944
I0403 15:01:41.816640 18102 layer_factory.hpp:77] Creating layer inception_3b/3x3_reduce
I0403 15:01:41.816663 18102 net.cpp:91] Creating Layer inception_3b/3x3_reduce
I0403 15:01:41.816680 18102 net.cpp:425] inception_3b/3x3_reduce <- inception_3a/output_inception_3a/output_0_split_1
I0403 15:01:41.816699 18102 net.cpp:399] inception_3b/3x3_reduce -> inception_3b/3x3_reduce
I0403 15:01:41.817865 18102 net.cpp:141] Setting up inception_3b/3x3_reduce
I0403 15:01:41.817891 18102 net.cpp:148] Top shape: 24 128 28 28 (2408448)
I0403 15:01:41.817908 18102 net.cpp:156] Memory required for data: 686408736
I0403 15:01:41.817924 18102 layer_factory.hpp:77] Creating layer inception_3b/relu_3x3_reduce
I0403 15:01:41.817942 18102 net.cpp:91] Creating Layer inception_3b/relu_3x3_reduce
I0403 15:01:41.817958 18102 net.cpp:425] inception_3b/relu_3x3_reduce <- inception_3b/3x3_reduce
I0403 15:01:41.817977 18102 net.cpp:386] inception_3b/relu_3x3_reduce -> inception_3b/3x3_reduce (in-place)
I0403 15:01:41.818177 18102 net.cpp:141] Setting up inception_3b/relu_3x3_reduce
I0403 15:01:41.818203 18102 net.cpp:148] Top shape: 24 128 28 28 (2408448)
I0403 15:01:41.818218 18102 net.cpp:156] Memory required for data: 696042528
I0403 15:01:41.818233 18102 layer_factory.hpp:77] Creating layer inception_3b/3x3
I0403 15:01:41.818260 18102 net.cpp:91] Creating Layer inception_3b/3x3
I0403 15:01:41.818279 18102 net.cpp:425] inception_3b/3x3 <- inception_3b/3x3_reduce
I0403 15:01:41.818300 18102 net.cpp:399] inception_3b/3x3 -> inception_3b/3x3
I0403 15:01:41.821269 18102 net.cpp:141] Setting up inception_3b/3x3
I0403 15:01:41.821298 18102 net.cpp:148] Top shape: 24 192 28 28 (3612672)
I0403 15:01:41.821315 18102 net.cpp:156] Memory required for data: 710493216
I0403 15:01:41.821332 18102 layer_factory.hpp:77] Creating layer inception_3b/relu_3x3
I0403 15:01:41.821353 18102 net.cpp:91] Creating Layer inception_3b/relu_3x3
I0403 15:01:41.821369 18102 net.cpp:425] inception_3b/relu_3x3 <- inception_3b/3x3
I0403 15:01:41.821388 18102 net.cpp:386] inception_3b/relu_3x3 -> inception_3b/3x3 (in-place)
I0403 15:01:41.821662 18102 net.cpp:141] Setting up inception_3b/relu_3x3
I0403 15:01:41.821688 18102 net.cpp:148] Top shape: 24 192 28 28 (3612672)
I0403 15:01:41.821703 18102 net.cpp:156] Memory required for data: 724943904
I0403 15:01:41.821718 18102 layer_factory.hpp:77] Creating layer inception_3b/5x5_reduce
I0403 15:01:41.821741 18102 net.cpp:91] Creating Layer inception_3b/5x5_reduce
I0403 15:01:41.821760 18102 net.cpp:425] inception_3b/5x5_reduce <- inception_3a/output_inception_3a/output_0_split_2
I0403 15:01:41.821780 18102 net.cpp:399] inception_3b/5x5_reduce -> inception_3b/5x5_reduce
I0403 15:01:41.822808 18102 net.cpp:141] Setting up inception_3b/5x5_reduce
I0403 15:01:41.822835 18102 net.cpp:148] Top shape: 24 32 28 28 (602112)
I0403 15:01:41.822851 18102 net.cpp:156] Memory required for data: 727352352
I0403 15:01:41.822870 18102 layer_factory.hpp:77] Creating layer inception_3b/relu_5x5_reduce
I0403 15:01:41.822890 18102 net.cpp:91] Creating Layer inception_3b/relu_5x5_reduce
I0403 15:01:41.822906 18102 net.cpp:425] inception_3b/relu_5x5_reduce <- inception_3b/5x5_reduce
I0403 15:01:41.822923 18102 net.cpp:386] inception_3b/relu_5x5_reduce -> inception_3b/5x5_reduce (in-place)
I0403 15:01:41.823164 18102 net.cpp:141] Setting up inception_3b/relu_5x5_reduce
I0403 15:01:41.823196 18102 net.cpp:148] Top shape: 24 32 28 28 (602112)
I0403 15:01:41.823216 18102 net.cpp:156] Memory required for data: 729760800
I0403 15:01:41.823231 18102 layer_factory.hpp:77] Creating layer inception_3b/5x5
I0403 15:01:41.823257 18102 net.cpp:91] Creating Layer inception_3b/5x5
I0403 15:01:41.823278 18102 net.cpp:425] inception_3b/5x5 <- inception_3b/5x5_reduce
I0403 15:01:41.823308 18102 net.cpp:399] inception_3b/5x5 -> inception_3b/5x5
I0403 15:01:41.825578 18102 net.cpp:141] Setting up inception_3b/5x5
I0403 15:01:41.825613 18102 net.cpp:148] Top shape: 24 96 28 28 (1806336)
I0403 15:01:41.825629 18102 net.cpp:156] Memory required for data: 736986144
I0403 15:01:41.825649 18102 layer_factory.hpp:77] Creating layer inception_3b/relu_5x5
I0403 15:01:41.825669 18102 net.cpp:91] Creating Layer inception_3b/relu_5x5
I0403 15:01:41.825685 18102 net.cpp:425] inception_3b/relu_5x5 <- inception_3b/5x5
I0403 15:01:41.825705 18102 net.cpp:386] inception_3b/relu_5x5 -> inception_3b/5x5 (in-place)
I0403 15:01:41.825917 18102 net.cpp:141] Setting up inception_3b/relu_5x5
I0403 15:01:41.825942 18102 net.cpp:148] Top shape: 24 96 28 28 (1806336)
I0403 15:01:41.825958 18102 net.cpp:156] Memory required for data: 744211488
I0403 15:01:41.825973 18102 layer_factory.hpp:77] Creating layer inception_3b/pool
I0403 15:01:41.825997 18102 net.cpp:91] Creating Layer inception_3b/pool
I0403 15:01:41.826015 18102 net.cpp:425] inception_3b/pool <- inception_3a/output_inception_3a/output_0_split_3
I0403 15:01:41.826035 18102 net.cpp:399] inception_3b/pool -> inception_3b/pool
I0403 15:01:41.826102 18102 net.cpp:141] Setting up inception_3b/pool
I0403 15:01:41.826124 18102 net.cpp:148] Top shape: 24 256 28 28 (4816896)
I0403 15:01:41.826174 18102 net.cpp:156] Memory required for data: 763479072
I0403 15:01:41.826191 18102 layer_factory.hpp:77] Creating layer inception_3b/pool_proj
I0403 15:01:41.826234 18102 net.cpp:91] Creating Layer inception_3b/pool_proj
I0403 15:01:41.826266 18102 net.cpp:425] inception_3b/pool_proj <- inception_3b/pool
I0403 15:01:41.826290 18102 net.cpp:399] inception_3b/pool_proj -> inception_3b/pool_proj
I0403 15:01:41.827472 18102 net.cpp:141] Setting up inception_3b/pool_proj
I0403 15:01:41.827504 18102 net.cpp:148] Top shape: 24 64 28 28 (1204224)
I0403 15:01:41.827522 18102 net.cpp:156] Memory required for data: 768295968
I0403 15:01:41.827541 18102 layer_factory.hpp:77] Creating layer inception_3b/relu_pool_proj
I0403 15:01:41.827559 18102 net.cpp:91] Creating Layer inception_3b/relu_pool_proj
I0403 15:01:41.827576 18102 net.cpp:425] inception_3b/relu_pool_proj <- inception_3b/pool_proj
I0403 15:01:41.827596 18102 net.cpp:386] inception_3b/relu_pool_proj -> inception_3b/pool_proj (in-place)
I0403 15:01:41.828119 18102 net.cpp:141] Setting up inception_3b/relu_pool_proj
I0403 15:01:41.828158 18102 net.cpp:148] Top shape: 24 64 28 28 (1204224)
I0403 15:01:41.828177 18102 net.cpp:156] Memory required for data: 773112864
I0403 15:01:41.828193 18102 layer_factory.hpp:77] Creating layer inception_3b/output
I0403 15:01:41.828212 18102 net.cpp:91] Creating Layer inception_3b/output
I0403 15:01:41.828229 18102 net.cpp:425] inception_3b/output <- inception_3b/1x1
I0403 15:01:41.828249 18102 net.cpp:425] inception_3b/output <- inception_3b/3x3
I0403 15:01:41.828269 18102 net.cpp:425] inception_3b/output <- inception_3b/5x5
I0403 15:01:41.828295 18102 net.cpp:425] inception_3b/output <- inception_3b/pool_proj
I0403 15:01:41.828312 18102 net.cpp:399] inception_3b/output -> inception_3b/output
I0403 15:01:41.828369 18102 net.cpp:141] Setting up inception_3b/output
I0403 15:01:41.828397 18102 net.cpp:148] Top shape: 24 480 28 28 (9031680)
I0403 15:01:41.828413 18102 net.cpp:156] Memory required for data: 809239584
I0403 15:01:41.828428 18102 layer_factory.hpp:77] Creating layer pool3/3x3_s2
I0403 15:01:41.828449 18102 net.cpp:91] Creating Layer pool3/3x3_s2
I0403 15:01:41.828466 18102 net.cpp:425] pool3/3x3_s2 <- inception_3b/output
I0403 15:01:41.828503 18102 net.cpp:399] pool3/3x3_s2 -> pool3/3x3_s2
I0403 15:01:41.828569 18102 net.cpp:141] Setting up pool3/3x3_s2
I0403 15:01:41.828594 18102 net.cpp:148] Top shape: 24 480 14 14 (2257920)
I0403 15:01:41.828609 18102 net.cpp:156] Memory required for data: 818271264
I0403 15:01:41.828624 18102 layer_factory.hpp:77] Creating layer pool3/3x3_s2_pool3/3x3_s2_0_split
I0403 15:01:41.828642 18102 net.cpp:91] Creating Layer pool3/3x3_s2_pool3/3x3_s2_0_split
I0403 15:01:41.828660 18102 net.cpp:425] pool3/3x3_s2_pool3/3x3_s2_0_split <- pool3/3x3_s2
I0403 15:01:41.828680 18102 net.cpp:399] pool3/3x3_s2_pool3/3x3_s2_0_split -> pool3/3x3_s2_pool3/3x3_s2_0_split_0
I0403 15:01:41.828701 18102 net.cpp:399] pool3/3x3_s2_pool3/3x3_s2_0_split -> pool3/3x3_s2_pool3/3x3_s2_0_split_1
I0403 15:01:41.828722 18102 net.cpp:399] pool3/3x3_s2_pool3/3x3_s2_0_split -> pool3/3x3_s2_pool3/3x3_s2_0_split_2
I0403 15:01:41.828742 18102 net.cpp:399] pool3/3x3_s2_pool3/3x3_s2_0_split -> pool3/3x3_s2_pool3/3x3_s2_0_split_3
I0403 15:01:41.828820 18102 net.cpp:141] Setting up pool3/3x3_s2_pool3/3x3_s2_0_split
I0403 15:01:41.828847 18102 net.cpp:148] Top shape: 24 480 14 14 (2257920)
I0403 15:01:41.828872 18102 net.cpp:148] Top shape: 24 480 14 14 (2257920)
I0403 15:01:41.828888 18102 net.cpp:148] Top shape: 24 480 14 14 (2257920)
I0403 15:01:41.828904 18102 net.cpp:148] Top shape: 24 480 14 14 (2257920)
I0403 15:01:41.828919 18102 net.cpp:156] Memory required for data: 854397984
I0403 15:01:41.828934 18102 layer_factory.hpp:77] Creating layer inception_4a/1x1
I0403 15:01:41.828976 18102 net.cpp:91] Creating Layer inception_4a/1x1
I0403 15:01:41.828999 18102 net.cpp:425] inception_4a/1x1 <- pool3/3x3_s2_pool3/3x3_s2_0_split_0
I0403 15:01:41.829018 18102 net.cpp:399] inception_4a/1x1 -> inception_4a/1x1
I0403 15:01:41.830723 18102 net.cpp:141] Setting up inception_4a/1x1
I0403 15:01:41.830754 18102 net.cpp:148] Top shape: 24 192 14 14 (903168)
I0403 15:01:41.830770 18102 net.cpp:156] Memory required for data: 858010656
I0403 15:01:41.830790 18102 layer_factory.hpp:77] Creating layer inception_4a/relu_1x1
I0403 15:01:41.830808 18102 net.cpp:91] Creating Layer inception_4a/relu_1x1
I0403 15:01:41.830824 18102 net.cpp:425] inception_4a/relu_1x1 <- inception_4a/1x1
I0403 15:01:41.830845 18102 net.cpp:386] inception_4a/relu_1x1 -> inception_4a/1x1 (in-place)
I0403 15:01:41.831040 18102 net.cpp:141] Setting up inception_4a/relu_1x1
I0403 15:01:41.831068 18102 net.cpp:148] Top shape: 24 192 14 14 (903168)
I0403 15:01:41.831082 18102 net.cpp:156] Memory required for data: 861623328
I0403 15:01:41.831099 18102 layer_factory.hpp:77] Creating layer inception_4a/3x3_reduce
I0403 15:01:41.831122 18102 net.cpp:91] Creating Layer inception_4a/3x3_reduce
I0403 15:01:41.831140 18102 net.cpp:425] inception_4a/3x3_reduce <- pool3/3x3_s2_pool3/3x3_s2_0_split_1
I0403 15:01:41.831162 18102 net.cpp:399] inception_4a/3x3_reduce -> inception_4a/3x3_reduce
I0403 15:01:41.832530 18102 net.cpp:141] Setting up inception_4a/3x3_reduce
I0403 15:01:41.832561 18102 net.cpp:148] Top shape: 24 96 14 14 (451584)
I0403 15:01:41.832579 18102 net.cpp:156] Memory required for data: 863429664
I0403 15:01:41.832607 18102 layer_factory.hpp:77] Creating layer inception_4a/relu_3x3_reduce
I0403 15:01:41.832628 18102 net.cpp:91] Creating Layer inception_4a/relu_3x3_reduce
I0403 15:01:41.832644 18102 net.cpp:425] inception_4a/relu_3x3_reduce <- inception_4a/3x3_reduce
I0403 15:01:41.832662 18102 net.cpp:386] inception_4a/relu_3x3_reduce -> inception_4a/3x3_reduce (in-place)
I0403 15:01:41.832849 18102 net.cpp:141] Setting up inception_4a/relu_3x3_reduce
I0403 15:01:41.832875 18102 net.cpp:148] Top shape: 24 96 14 14 (451584)
I0403 15:01:41.832891 18102 net.cpp:156] Memory required for data: 865236000
I0403 15:01:41.832906 18102 layer_factory.hpp:77] Creating layer inception_4a/3x3
I0403 15:01:41.832931 18102 net.cpp:91] Creating Layer inception_4a/3x3
I0403 15:01:41.832949 18102 net.cpp:425] inception_4a/3x3 <- inception_4a/3x3_reduce
I0403 15:01:41.832980 18102 net.cpp:399] inception_4a/3x3 -> inception_4a/3x3
I0403 15:01:41.835814 18102 net.cpp:141] Setting up inception_4a/3x3
I0403 15:01:41.835845 18102 net.cpp:148] Top shape: 24 208 14 14 (978432)
I0403 15:01:41.835861 18102 net.cpp:156] Memory required for data: 869149728
I0403 15:01:41.835881 18102 layer_factory.hpp:77] Creating layer inception_4a/relu_3x3
I0403 15:01:41.835902 18102 net.cpp:91] Creating Layer inception_4a/relu_3x3
I0403 15:01:41.835921 18102 net.cpp:425] inception_4a/relu_3x3 <- inception_4a/3x3
I0403 15:01:41.835938 18102 net.cpp:386] inception_4a/relu_3x3 -> inception_4a/3x3 (in-place)
I0403 15:01:41.836246 18102 net.cpp:141] Setting up inception_4a/relu_3x3
I0403 15:01:41.836273 18102 net.cpp:148] Top shape: 24 208 14 14 (978432)
I0403 15:01:41.836289 18102 net.cpp:156] Memory required for data: 873063456
I0403 15:01:41.836305 18102 layer_factory.hpp:77] Creating layer inception_4a/5x5_reduce
I0403 15:01:41.836329 18102 net.cpp:91] Creating Layer inception_4a/5x5_reduce
I0403 15:01:41.836349 18102 net.cpp:425] inception_4a/5x5_reduce <- pool3/3x3_s2_pool3/3x3_s2_0_split_2
I0403 15:01:41.836371 18102 net.cpp:399] inception_4a/5x5_reduce -> inception_4a/5x5_reduce
I0403 15:01:41.837469 18102 net.cpp:141] Setting up inception_4a/5x5_reduce
I0403 15:01:41.837498 18102 net.cpp:148] Top shape: 24 16 14 14 (75264)
I0403 15:01:41.837514 18102 net.cpp:156] Memory required for data: 873364512
I0403 15:01:41.837533 18102 layer_factory.hpp:77] Creating layer inception_4a/relu_5x5_reduce
I0403 15:01:41.837554 18102 net.cpp:91] Creating Layer inception_4a/relu_5x5_reduce
I0403 15:01:41.837573 18102 net.cpp:425] inception_4a/relu_5x5_reduce <- inception_4a/5x5_reduce
I0403 15:01:41.837590 18102 net.cpp:386] inception_4a/relu_5x5_reduce -> inception_4a/5x5_reduce (in-place)
I0403 15:01:41.837781 18102 net.cpp:141] Setting up inception_4a/relu_5x5_reduce
I0403 15:01:41.837811 18102 net.cpp:148] Top shape: 24 16 14 14 (75264)
I0403 15:01:41.837827 18102 net.cpp:156] Memory required for data: 873665568
I0403 15:01:41.837842 18102 layer_factory.hpp:77] Creating layer inception_4a/5x5
I0403 15:01:41.837867 18102 net.cpp:91] Creating Layer inception_4a/5x5
I0403 15:01:41.837887 18102 net.cpp:425] inception_4a/5x5 <- inception_4a/5x5_reduce
I0403 15:01:41.837906 18102 net.cpp:399] inception_4a/5x5 -> inception_4a/5x5
I0403 15:01:41.839097 18102 net.cpp:141] Setting up inception_4a/5x5
I0403 15:01:41.839129 18102 net.cpp:148] Top shape: 24 48 14 14 (225792)
I0403 15:01:41.839146 18102 net.cpp:156] Memory required for data: 874568736
I0403 15:01:41.839165 18102 layer_factory.hpp:77] Creating layer inception_4a/relu_5x5
I0403 15:01:41.839184 18102 net.cpp:91] Creating Layer inception_4a/relu_5x5
I0403 15:01:41.839202 18102 net.cpp:425] inception_4a/relu_5x5 <- inception_4a/5x5
I0403 15:01:41.839223 18102 net.cpp:386] inception_4a/relu_5x5 -> inception_4a/5x5 (in-place)
I0403 15:01:41.839416 18102 net.cpp:141] Setting up inception_4a/relu_5x5
I0403 15:01:41.839442 18102 net.cpp:148] Top shape: 24 48 14 14 (225792)
I0403 15:01:41.839457 18102 net.cpp:156] Memory required for data: 875471904
I0403 15:01:41.839473 18102 layer_factory.hpp:77] Creating layer inception_4a/pool
I0403 15:01:41.839491 18102 net.cpp:91] Creating Layer inception_4a/pool
I0403 15:01:41.839509 18102 net.cpp:425] inception_4a/pool <- pool3/3x3_s2_pool3/3x3_s2_0_split_3
I0403 15:01:41.839529 18102 net.cpp:399] inception_4a/pool -> inception_4a/pool
I0403 15:01:41.839594 18102 net.cpp:141] Setting up inception_4a/pool
I0403 15:01:41.839620 18102 net.cpp:148] Top shape: 24 480 14 14 (2257920)
I0403 15:01:41.839635 18102 net.cpp:156] Memory required for data: 884503584
I0403 15:01:41.839650 18102 layer_factory.hpp:77] Creating layer inception_4a/pool_proj
I0403 15:01:41.839675 18102 net.cpp:91] Creating Layer inception_4a/pool_proj
I0403 15:01:41.839694 18102 net.cpp:425] inception_4a/pool_proj <- inception_4a/pool
I0403 15:01:41.839714 18102 net.cpp:399] inception_4a/pool_proj -> inception_4a/pool_proj
I0403 15:01:41.840975 18102 net.cpp:141] Setting up inception_4a/pool_proj
I0403 15:01:41.841007 18102 net.cpp:148] Top shape: 24 64 14 14 (301056)
I0403 15:01:41.841039 18102 net.cpp:156] Memory required for data: 885707808
I0403 15:01:41.841060 18102 layer_factory.hpp:77] Creating layer inception_4a/relu_pool_proj
I0403 15:01:41.841079 18102 net.cpp:91] Creating Layer inception_4a/relu_pool_proj
I0403 15:01:41.841096 18102 net.cpp:425] inception_4a/relu_pool_proj <- inception_4a/pool_proj
I0403 15:01:41.841119 18102 net.cpp:386] inception_4a/relu_pool_proj -> inception_4a/pool_proj (in-place)
I0403 15:01:41.841423 18102 net.cpp:141] Setting up inception_4a/relu_pool_proj
I0403 15:01:41.841452 18102 net.cpp:148] Top shape: 24 64 14 14 (301056)
I0403 15:01:41.841470 18102 net.cpp:156] Memory required for data: 886912032
I0403 15:01:41.841485 18102 layer_factory.hpp:77] Creating layer inception_4a/output
I0403 15:01:41.841503 18102 net.cpp:91] Creating Layer inception_4a/output
I0403 15:01:41.841519 18102 net.cpp:425] inception_4a/output <- inception_4a/1x1
I0403 15:01:41.841537 18102 net.cpp:425] inception_4a/output <- inception_4a/3x3
I0403 15:01:41.841554 18102 net.cpp:425] inception_4a/output <- inception_4a/5x5
I0403 15:01:41.841570 18102 net.cpp:425] inception_4a/output <- inception_4a/pool_proj
I0403 15:01:41.841593 18102 net.cpp:399] inception_4a/output -> inception_4a/output
I0403 15:01:41.841640 18102 net.cpp:141] Setting up inception_4a/output
I0403 15:01:41.841665 18102 net.cpp:148] Top shape: 24 512 14 14 (2408448)
I0403 15:01:41.841681 18102 net.cpp:156] Memory required for data: 896545824
I0403 15:01:41.841696 18102 layer_factory.hpp:77] Creating layer inception_4a/output_inception_4a/output_0_split
I0403 15:01:41.841717 18102 net.cpp:91] Creating Layer inception_4a/output_inception_4a/output_0_split
I0403 15:01:41.841734 18102 net.cpp:425] inception_4a/output_inception_4a/output_0_split <- inception_4a/output
I0403 15:01:41.841753 18102 net.cpp:399] inception_4a/output_inception_4a/output_0_split -> inception_4a/output_inception_4a/output_0_split_0
I0403 15:01:41.841776 18102 net.cpp:399] inception_4a/output_inception_4a/output_0_split -> inception_4a/output_inception_4a/output_0_split_1
I0403 15:01:41.841799 18102 net.cpp:399] inception_4a/output_inception_4a/output_0_split -> inception_4a/output_inception_4a/output_0_split_2
I0403 15:01:41.841820 18102 net.cpp:399] inception_4a/output_inception_4a/output_0_split -> inception_4a/output_inception_4a/output_0_split_3
I0403 15:01:41.841840 18102 net.cpp:399] inception_4a/output_inception_4a/output_0_split -> inception_4a/output_inception_4a/output_0_split_4
I0403 15:01:41.841938 18102 net.cpp:141] Setting up inception_4a/output_inception_4a/output_0_split
I0403 15:01:41.841969 18102 net.cpp:148] Top shape: 24 512 14 14 (2408448)
I0403 15:01:41.841989 18102 net.cpp:148] Top shape: 24 512 14 14 (2408448)
I0403 15:01:41.842005 18102 net.cpp:148] Top shape: 24 512 14 14 (2408448)
I0403 15:01:41.842020 18102 net.cpp:148] Top shape: 24 512 14 14 (2408448)
I0403 15:01:41.842036 18102 net.cpp:148] Top shape: 24 512 14 14 (2408448)
I0403 15:01:41.842051 18102 net.cpp:156] Memory required for data: 944714784
I0403 15:01:41.842067 18102 layer_factory.hpp:77] Creating layer loss1/ave_pool
I0403 15:01:41.842087 18102 net.cpp:91] Creating Layer loss1/ave_pool
I0403 15:01:41.842104 18102 net.cpp:425] loss1/ave_pool <- inception_4a/output_inception_4a/output_0_split_0
I0403 15:01:41.842123 18102 net.cpp:399] loss1/ave_pool -> loss1/ave_pool
I0403 15:01:41.842347 18102 net.cpp:141] Setting up loss1/ave_pool
I0403 15:01:41.842376 18102 net.cpp:148] Top shape: 24 512 4 4 (196608)
I0403 15:01:41.842392 18102 net.cpp:156] Memory required for data: 945501216
I0403 15:01:41.842408 18102 layer_factory.hpp:77] Creating layer loss1/conv
I0403 15:01:41.842432 18102 net.cpp:91] Creating Layer loss1/conv
I0403 15:01:41.842449 18102 net.cpp:425] loss1/conv <- loss1/ave_pool
I0403 15:01:41.842469 18102 net.cpp:399] loss1/conv -> loss1/conv
I0403 15:01:41.843989 18102 net.cpp:141] Setting up loss1/conv
I0403 15:01:41.844018 18102 net.cpp:148] Top shape: 24 128 4 4 (49152)
I0403 15:01:41.844049 18102 net.cpp:156] Memory required for data: 945697824
I0403 15:01:41.844070 18102 layer_factory.hpp:77] Creating layer loss1/relu_conv
I0403 15:01:41.844091 18102 net.cpp:91] Creating Layer loss1/relu_conv
I0403 15:01:41.844110 18102 net.cpp:425] loss1/relu_conv <- loss1/conv
I0403 15:01:41.844127 18102 net.cpp:386] loss1/relu_conv -> loss1/conv (in-place)
I0403 15:01:41.844427 18102 net.cpp:141] Setting up loss1/relu_conv
I0403 15:01:41.844455 18102 net.cpp:148] Top shape: 24 128 4 4 (49152)
I0403 15:01:41.844470 18102 net.cpp:156] Memory required for data: 945894432
I0403 15:01:41.844486 18102 layer_factory.hpp:77] Creating layer loss1/fc
I0403 15:01:41.844513 18102 net.cpp:91] Creating Layer loss1/fc
I0403 15:01:41.844532 18102 net.cpp:425] loss1/fc <- loss1/conv
I0403 15:01:41.844550 18102 net.cpp:399] loss1/fc -> loss1/fc
I0403 15:01:41.863299 18102 net.cpp:141] Setting up loss1/fc
I0403 15:01:41.863358 18102 net.cpp:148] Top shape: 24 1024 (24576)
I0403 15:01:41.863375 18102 net.cpp:156] Memory required for data: 945992736
I0403 15:01:41.863395 18102 layer_factory.hpp:77] Creating layer loss1/relu_fc
I0403 15:01:41.863415 18102 net.cpp:91] Creating Layer loss1/relu_fc
I0403 15:01:41.863431 18102 net.cpp:425] loss1/relu_fc <- loss1/fc
I0403 15:01:41.863453 18102 net.cpp:386] loss1/relu_fc -> loss1/fc (in-place)
I0403 15:01:41.863674 18102 net.cpp:141] Setting up loss1/relu_fc
I0403 15:01:41.863700 18102 net.cpp:148] Top shape: 24 1024 (24576)
I0403 15:01:41.863715 18102 net.cpp:156] Memory required for data: 946091040
I0403 15:01:41.863730 18102 layer_factory.hpp:77] Creating layer loss1/drop_fc
I0403 15:01:41.863760 18102 net.cpp:91] Creating Layer loss1/drop_fc
I0403 15:01:41.863778 18102 net.cpp:425] loss1/drop_fc <- loss1/fc
I0403 15:01:41.863800 18102 net.cpp:386] loss1/drop_fc -> loss1/fc (in-place)
I0403 15:01:41.863855 18102 net.cpp:141] Setting up loss1/drop_fc
I0403 15:01:41.863883 18102 net.cpp:148] Top shape: 24 1024 (24576)
I0403 15:01:41.863898 18102 net.cpp:156] Memory required for data: 946189344
I0403 15:01:41.863914 18102 layer_factory.hpp:77] Creating layer loss1/classifier_plantvillage
I0403 15:01:41.863934 18102 net.cpp:91] Creating Layer loss1/classifier_plantvillage
I0403 15:01:41.863950 18102 net.cpp:425] loss1/classifier_plantvillage <- loss1/fc
I0403 15:01:41.863979 18102 net.cpp:399] loss1/classifier_plantvillage -> loss1/classifier_plantvillage
I0403 15:01:41.864972 18102 net.cpp:141] Setting up loss1/classifier_plantvillage
I0403 15:01:41.865008 18102 net.cpp:148] Top shape: 24 38 (912)
I0403 15:01:41.865025 18102 net.cpp:156] Memory required for data: 946192992
I0403 15:01:41.865042 18102 layer_factory.hpp:77] Creating layer loss1/classifier_plantvillage_loss1/classifier_plantvillage_0_split
I0403 15:01:41.865062 18102 net.cpp:91] Creating Layer loss1/classifier_plantvillage_loss1/classifier_plantvillage_0_split
I0403 15:01:41.865078 18102 net.cpp:425] loss1/classifier_plantvillage_loss1/classifier_plantvillage_0_split <- loss1/classifier_plantvillage
I0403 15:01:41.865100 18102 net.cpp:399] loss1/classifier_plantvillage_loss1/classifier_plantvillage_0_split -> loss1/classifier_plantvillage_loss1/classifier_plantvillage_0_split_0
I0403 15:01:41.865121 18102 net.cpp:399] loss1/classifier_plantvillage_loss1/classifier_plantvillage_0_split -> loss1/classifier_plantvillage_loss1/classifier_plantvillage_0_split_1
I0403 15:01:41.865144 18102 net.cpp:399] loss1/classifier_plantvillage_loss1/classifier_plantvillage_0_split -> loss1/classifier_plantvillage_loss1/classifier_plantvillage_0_split_2
I0403 15:01:41.865214 18102 net.cpp:141] Setting up loss1/classifier_plantvillage_loss1/classifier_plantvillage_0_split
I0403 15:01:41.865238 18102 net.cpp:148] Top shape: 24 38 (912)
I0403 15:01:41.865267 18102 net.cpp:148] Top shape: 24 38 (912)
I0403 15:01:41.865281 18102 net.cpp:148] Top shape: 24 38 (912)
I0403 15:01:41.865295 18102 net.cpp:156] Memory required for data: 946203936
I0403 15:01:41.865310 18102 layer_factory.hpp:77] Creating layer inception_4b/1x1
I0403 15:01:41.865335 18102 net.cpp:91] Creating Layer inception_4b/1x1
I0403 15:01:41.865375 18102 net.cpp:425] inception_4b/1x1 <- inception_4a/output_inception_4a/output_0_split_1
I0403 15:01:41.865396 18102 net.cpp:399] inception_4b/1x1 -> inception_4b/1x1
I0403 15:01:41.867197 18102 net.cpp:141] Setting up inception_4b/1x1
I0403 15:01:41.867226 18102 net.cpp:148] Top shape: 24 160 14 14 (752640)
I0403 15:01:41.867243 18102 net.cpp:156] Memory required for data: 949214496
I0403 15:01:41.867274 18102 layer_factory.hpp:77] Creating layer inception_4b/relu_1x1
I0403 15:01:41.867293 18102 net.cpp:91] Creating Layer inception_4b/relu_1x1
I0403 15:01:41.867311 18102 net.cpp:425] inception_4b/relu_1x1 <- inception_4b/1x1
I0403 15:01:41.867327 18102 net.cpp:386] inception_4b/relu_1x1 -> inception_4b/1x1 (in-place)
I0403 15:01:41.867508 18102 net.cpp:141] Setting up inception_4b/relu_1x1
I0403 15:01:41.867535 18102 net.cpp:148] Top shape: 24 160 14 14 (752640)
I0403 15:01:41.867552 18102 net.cpp:156] Memory required for data: 952225056
I0403 15:01:41.867565 18102 layer_factory.hpp:77] Creating layer inception_4b/3x3_reduce
I0403 15:01:41.867588 18102 net.cpp:91] Creating Layer inception_4b/3x3_reduce
I0403 15:01:41.867605 18102 net.cpp:425] inception_4b/3x3_reduce <- inception_4a/output_inception_4a/output_0_split_2
I0403 15:01:41.867624 18102 net.cpp:399] inception_4b/3x3_reduce -> inception_4b/3x3_reduce
I0403 15:01:41.869050 18102 net.cpp:141] Setting up inception_4b/3x3_reduce
I0403 15:01:41.869081 18102 net.cpp:148] Top shape: 24 112 14 14 (526848)
I0403 15:01:41.869097 18102 net.cpp:156] Memory required for data: 954332448
I0403 15:01:41.869115 18102 layer_factory.hpp:77] Creating layer inception_4b/relu_3x3_reduce
I0403 15:01:41.869133 18102 net.cpp:91] Creating Layer inception_4b/relu_3x3_reduce
I0403 15:01:41.869149 18102 net.cpp:425] inception_4b/relu_3x3_reduce <- inception_4b/3x3_reduce
I0403 15:01:41.869168 18102 net.cpp:386] inception_4b/relu_3x3_reduce -> inception_4b/3x3_reduce (in-place)
I0403 15:01:41.869458 18102 net.cpp:141] Setting up inception_4b/relu_3x3_reduce
I0403 15:01:41.869498 18102 net.cpp:148] Top shape: 24 112 14 14 (526848)
I0403 15:01:41.869514 18102 net.cpp:156] Memory required for data: 956439840
I0403 15:01:41.869529 18102 layer_factory.hpp:77] Creating layer inception_4b/3x3
I0403 15:01:41.869552 18102 net.cpp:91] Creating Layer inception_4b/3x3
I0403 15:01:41.869570 18102 net.cpp:425] inception_4b/3x3 <- inception_4b/3x3_reduce
I0403 15:01:41.869590 18102 net.cpp:399] inception_4b/3x3 -> inception_4b/3x3
I0403 15:01:41.872634 18102 net.cpp:141] Setting up inception_4b/3x3
I0403 15:01:41.872663 18102 net.cpp:148] Top shape: 24 224 14 14 (1053696)
I0403 15:01:41.872679 18102 net.cpp:156] Memory required for data: 960654624
I0403 15:01:41.872697 18102 layer_factory.hpp:77] Creating layer inception_4b/relu_3x3
I0403 15:01:41.872715 18102 net.cpp:91] Creating Layer inception_4b/relu_3x3
I0403 15:01:41.872731 18102 net.cpp:425] inception_4b/relu_3x3 <- inception_4b/3x3
I0403 15:01:41.872750 18102 net.cpp:386] inception_4b/relu_3x3 -> inception_4b/3x3 (in-place)
I0403 15:01:41.872933 18102 net.cpp:141] Setting up inception_4b/relu_3x3
I0403 15:01:41.872966 18102 net.cpp:148] Top shape: 24 224 14 14 (1053696)
I0403 15:01:41.872982 18102 net.cpp:156] Memory required for data: 964869408
I0403 15:01:41.872997 18102 layer_factory.hpp:77] Creating layer inception_4b/5x5_reduce
I0403 15:01:41.873019 18102 net.cpp:91] Creating Layer inception_4b/5x5_reduce
I0403 15:01:41.873037 18102 net.cpp:425] inception_4b/5x5_reduce <- inception_4a/output_inception_4a/output_0_split_3
I0403 15:01:41.873059 18102 net.cpp:399] inception_4b/5x5_reduce -> inception_4b/5x5_reduce
I0403 15:01:41.874253 18102 net.cpp:141] Setting up inception_4b/5x5_reduce
I0403 15:01:41.874282 18102 net.cpp:148] Top shape: 24 24 14 14 (112896)
I0403 15:01:41.874299 18102 net.cpp:156] Memory required for data: 965320992
I0403 15:01:41.874318 18102 layer_factory.hpp:77] Creating layer inception_4b/relu_5x5_reduce
I0403 15:01:41.874339 18102 net.cpp:91] Creating Layer inception_4b/relu_5x5_reduce
I0403 15:01:41.874384 18102 net.cpp:425] inception_4b/relu_5x5_reduce <- inception_4b/5x5_reduce
I0403 15:01:41.874403 18102 net.cpp:386] inception_4b/relu_5x5_reduce -> inception_4b/5x5_reduce (in-place)
I0403 15:01:41.874610 18102 net.cpp:141] Setting up inception_4b/relu_5x5_reduce
I0403 15:01:41.874641 18102 net.cpp:148] Top shape: 24 24 14 14 (112896)
I0403 15:01:41.874657 18102 net.cpp:156] Memory required for data: 965772576
I0403 15:01:41.874675 18102 layer_factory.hpp:77] Creating layer inception_4b/5x5
I0403 15:01:41.874698 18102 net.cpp:91] Creating Layer inception_4b/5x5
I0403 15:01:41.874719 18102 net.cpp:425] inception_4b/5x5 <- inception_4b/5x5_reduce
I0403 15:01:41.874743 18102 net.cpp:399] inception_4b/5x5 -> inception_4b/5x5
I0403 15:01:41.876160 18102 net.cpp:141] Setting up inception_4b/5x5
I0403 15:01:41.876190 18102 net.cpp:148] Top shape: 24 64 14 14 (301056)
I0403 15:01:41.876206 18102 net.cpp:156] Memory required for data: 966976800
I0403 15:01:41.876226 18102 layer_factory.hpp:77] Creating layer inception_4b/relu_5x5
I0403 15:01:41.876247 18102 net.cpp:91] Creating Layer inception_4b/relu_5x5
I0403 15:01:41.876266 18102 net.cpp:425] inception_4b/relu_5x5 <- inception_4b/5x5
I0403 15:01:41.876283 18102 net.cpp:386] inception_4b/relu_5x5 -> inception_4b/5x5 (in-place)
I0403 15:01:41.876631 18102 net.cpp:141] Setting up inception_4b/relu_5x5
I0403 15:01:41.876658 18102 net.cpp:148] Top shape: 24 64 14 14 (301056)
I0403 15:01:41.876674 18102 net.cpp:156] Memory required for data: 968181024
I0403 15:01:41.876690 18102 layer_factory.hpp:77] Creating layer inception_4b/pool
I0403 15:01:41.876714 18102 net.cpp:91] Creating Layer inception_4b/pool
I0403 15:01:41.876749 18102 net.cpp:425] inception_4b/pool <- inception_4a/output_inception_4a/output_0_split_4
I0403 15:01:41.876771 18102 net.cpp:399] inception_4b/pool -> inception_4b/pool
I0403 15:01:41.876893 18102 net.cpp:141] Setting up inception_4b/pool
I0403 15:01:41.876947 18102 net.cpp:148] Top shape: 24 512 14 14 (2408448)
I0403 15:01:41.876989 18102 net.cpp:156] Memory required for data: 977814816
I0403 15:01:41.877009 18102 layer_factory.hpp:77] Creating layer inception_4b/pool_proj
I0403 15:01:41.877051 18102 net.cpp:91] Creating Layer inception_4b/pool_proj
I0403 15:01:41.877080 18102 net.cpp:425] inception_4b/pool_proj <- inception_4b/pool
I0403 15:01:41.877145 18102 net.cpp:399] inception_4b/pool_proj -> inception_4b/pool_proj
I0403 15:01:41.878502 18102 net.cpp:141] Setting up inception_4b/pool_proj
I0403 15:01:41.878532 18102 net.cpp:148] Top shape: 24 64 14 14 (301056)
I0403 15:01:41.878548 18102 net.cpp:156] Memory required for data: 979019040
I0403 15:01:41.878567 18102 layer_factory.hpp:77] Creating layer inception_4b/relu_pool_proj
I0403 15:01:41.878589 18102 net.cpp:91] Creating Layer inception_4b/relu_pool_proj
I0403 15:01:41.878607 18102 net.cpp:425] inception_4b/relu_pool_proj <- inception_4b/pool_proj
I0403 15:01:41.878625 18102 net.cpp:386] inception_4b/relu_pool_proj -> inception_4b/pool_proj (in-place)
I0403 15:01:41.878815 18102 net.cpp:141] Setting up inception_4b/relu_pool_proj
I0403 15:01:41.878844 18102 net.cpp:148] Top shape: 24 64 14 14 (301056)
I0403 15:01:41.878861 18102 net.cpp:156] Memory required for data: 980223264
I0403 15:01:41.878876 18102 layer_factory.hpp:77] Creating layer inception_4b/output
I0403 15:01:41.878895 18102 net.cpp:91] Creating Layer inception_4b/output
I0403 15:01:41.878912 18102 net.cpp:425] inception_4b/output <- inception_4b/1x1
I0403 15:01:41.878929 18102 net.cpp:425] inception_4b/output <- inception_4b/3x3
I0403 15:01:41.878945 18102 net.cpp:425] inception_4b/output <- inception_4b/5x5
I0403 15:01:41.878969 18102 net.cpp:425] inception_4b/output <- inception_4b/pool_proj
I0403 15:01:41.878988 18102 net.cpp:399] inception_4b/output -> inception_4b/output
I0403 15:01:41.879040 18102 net.cpp:141] Setting up inception_4b/output
I0403 15:01:41.879063 18102 net.cpp:148] Top shape: 24 512 14 14 (2408448)
I0403 15:01:41.879079 18102 net.cpp:156] Memory required for data: 989857056
I0403 15:01:41.879112 18102 layer_factory.hpp:77] Creating layer inception_4b/output_inception_4b/output_0_split
I0403 15:01:41.879134 18102 net.cpp:91] Creating Layer inception_4b/output_inception_4b/output_0_split
I0403 15:01:41.879151 18102 net.cpp:425] inception_4b/output_inception_4b/output_0_split <- inception_4b/output
I0403 15:01:41.879169 18102 net.cpp:399] inception_4b/output_inception_4b/output_0_split -> inception_4b/output_inception_4b/output_0_split_0
I0403 15:01:41.879190 18102 net.cpp:399] inception_4b/output_inception_4b/output_0_split -> inception_4b/output_inception_4b/output_0_split_1
I0403 15:01:41.879211 18102 net.cpp:399] inception_4b/output_inception_4b/output_0_split -> inception_4b/output_inception_4b/output_0_split_2
I0403 15:01:41.879235 18102 net.cpp:399] inception_4b/output_inception_4b/output_0_split -> inception_4b/output_inception_4b/output_0_split_3
I0403 15:01:41.879325 18102 net.cpp:141] Setting up inception_4b/output_inception_4b/output_0_split
I0403 15:01:41.879350 18102 net.cpp:148] Top shape: 24 512 14 14 (2408448)
I0403 15:01:41.879367 18102 net.cpp:148] Top shape: 24 512 14 14 (2408448)
I0403 15:01:41.879384 18102 net.cpp:148] Top shape: 24 512 14 14 (2408448)
I0403 15:01:41.879400 18102 net.cpp:148] Top shape: 24 512 14 14 (2408448)
I0403 15:01:41.879415 18102 net.cpp:156] Memory required for data: 1028392224
I0403 15:01:41.879431 18102 layer_factory.hpp:77] Creating layer inception_4c/1x1
I0403 15:01:41.879456 18102 net.cpp:91] Creating Layer inception_4c/1x1
I0403 15:01:41.879474 18102 net.cpp:425] inception_4c/1x1 <- inception_4b/output_inception_4b/output_0_split_0
I0403 15:01:41.879497 18102 net.cpp:399] inception_4c/1x1 -> inception_4c/1x1
I0403 15:01:41.881042 18102 net.cpp:141] Setting up inception_4c/1x1
I0403 15:01:41.881074 18102 net.cpp:148] Top shape: 24 128 14 14 (602112)
I0403 15:01:41.881091 18102 net.cpp:156] Memory required for data: 1030800672
I0403 15:01:41.881110 18102 layer_factory.hpp:77] Creating layer inception_4c/relu_1x1
I0403 15:01:41.881129 18102 net.cpp:91] Creating Layer inception_4c/relu_1x1
I0403 15:01:41.881145 18102 net.cpp:425] inception_4c/relu_1x1 <- inception_4c/1x1
I0403 15:01:41.881165 18102 net.cpp:386] inception_4c/relu_1x1 -> inception_4c/1x1 (in-place)
I0403 15:01:41.881361 18102 net.cpp:141] Setting up inception_4c/relu_1x1
I0403 15:01:41.881386 18102 net.cpp:148] Top shape: 24 128 14 14 (602112)
I0403 15:01:41.881402 18102 net.cpp:156] Memory required for data: 1033209120
I0403 15:01:41.881417 18102 layer_factory.hpp:77] Creating layer inception_4c/3x3_reduce
I0403 15:01:41.881440 18102 net.cpp:91] Creating Layer inception_4c/3x3_reduce
I0403 15:01:41.881458 18102 net.cpp:425] inception_4c/3x3_reduce <- inception_4b/output_inception_4b/output_0_split_1
I0403 15:01:41.881482 18102 net.cpp:399] inception_4c/3x3_reduce -> inception_4c/3x3_reduce
I0403 15:01:41.883565 18102 net.cpp:141] Setting up inception_4c/3x3_reduce
I0403 15:01:41.883597 18102 net.cpp:148] Top shape: 24 128 14 14 (602112)
I0403 15:01:41.883615 18102 net.cpp:156] Memory required for data: 1035617568
I0403 15:01:41.883633 18102 layer_factory.hpp:77] Creating layer inception_4c/relu_3x3_reduce
I0403 15:01:41.883656 18102 net.cpp:91] Creating Layer inception_4c/relu_3x3_reduce
I0403 15:01:41.883673 18102 net.cpp:425] inception_4c/relu_3x3_reduce <- inception_4c/3x3_reduce
I0403 15:01:41.883692 18102 net.cpp:386] inception_4c/relu_3x3_reduce -> inception_4c/3x3_reduce (in-place)
I0403 15:01:41.884011 18102 net.cpp:141] Setting up inception_4c/relu_3x3_reduce
I0403 15:01:41.884039 18102 net.cpp:148] Top shape: 24 128 14 14 (602112)
I0403 15:01:41.884055 18102 net.cpp:156] Memory required for data: 1038026016
I0403 15:01:41.884071 18102 layer_factory.hpp:77] Creating layer inception_4c/3x3
I0403 15:01:41.884095 18102 net.cpp:91] Creating Layer inception_4c/3x3
I0403 15:01:41.884114 18102 net.cpp:425] inception_4c/3x3 <- inception_4c/3x3_reduce
I0403 15:01:41.884138 18102 net.cpp:399] inception_4c/3x3 -> inception_4c/3x3
I0403 15:01:41.888010 18102 net.cpp:141] Setting up inception_4c/3x3
I0403 15:01:41.888057 18102 net.cpp:148] Top shape: 24 256 14 14 (1204224)
I0403 15:01:41.888074 18102 net.cpp:156] Memory required for data: 1042842912
I0403 15:01:41.888108 18102 layer_factory.hpp:77] Creating layer inception_4c/relu_3x3
I0403 15:01:41.888133 18102 net.cpp:91] Creating Layer inception_4c/relu_3x3
I0403 15:01:41.888150 18102 net.cpp:425] inception_4c/relu_3x3 <- inception_4c/3x3
I0403 15:01:41.888169 18102 net.cpp:386] inception_4c/relu_3x3 -> inception_4c/3x3 (in-place)
I0403 15:01:41.888365 18102 net.cpp:141] Setting up inception_4c/relu_3x3
I0403 15:01:41.888392 18102 net.cpp:148] Top shape: 24 256 14 14 (1204224)
I0403 15:01:41.888407 18102 net.cpp:156] Memory required for data: 1047659808
I0403 15:01:41.888423 18102 layer_factory.hpp:77] Creating layer inception_4c/5x5_reduce
I0403 15:01:41.888447 18102 net.cpp:91] Creating Layer inception_4c/5x5_reduce
I0403 15:01:41.888465 18102 net.cpp:425] inception_4c/5x5_reduce <- inception_4b/output_inception_4b/output_0_split_2
I0403 15:01:41.888489 18102 net.cpp:399] inception_4c/5x5_reduce -> inception_4c/5x5_reduce
I0403 15:01:41.889670 18102 net.cpp:141] Setting up inception_4c/5x5_reduce
I0403 15:01:41.889699 18102 net.cpp:148] Top shape: 24 24 14 14 (112896)
I0403 15:01:41.889716 18102 net.cpp:156] Memory required for data: 1048111392
I0403 15:01:41.889735 18102 layer_factory.hpp:77] Creating layer inception_4c/relu_5x5_reduce
I0403 15:01:41.889756 18102 net.cpp:91] Creating Layer inception_4c/relu_5x5_reduce
I0403 15:01:41.889775 18102 net.cpp:425] inception_4c/relu_5x5_reduce <- inception_4c/5x5_reduce
I0403 15:01:41.889792 18102 net.cpp:386] inception_4c/relu_5x5_reduce -> inception_4c/5x5_reduce (in-place)
I0403 15:01:41.889999 18102 net.cpp:141] Setting up inception_4c/relu_5x5_reduce
I0403 15:01:41.890028 18102 net.cpp:148] Top shape: 24 24 14 14 (112896)
I0403 15:01:41.890045 18102 net.cpp:156] Memory required for data: 1048562976
I0403 15:01:41.890060 18102 layer_factory.hpp:77] Creating layer inception_4c/5x5
I0403 15:01:41.890084 18102 net.cpp:91] Creating Layer inception_4c/5x5
I0403 15:01:41.890103 18102 net.cpp:425] inception_4c/5x5 <- inception_4c/5x5_reduce
I0403 15:01:41.890123 18102 net.cpp:399] inception_4c/5x5 -> inception_4c/5x5
I0403 15:01:41.891456 18102 net.cpp:141] Setting up inception_4c/5x5
I0403 15:01:41.891487 18102 net.cpp:148] Top shape: 24 64 14 14 (301056)
I0403 15:01:41.891505 18102 net.cpp:156] Memory required for data: 1049767200
I0403 15:01:41.891523 18102 layer_factory.hpp:77] Creating layer inception_4c/relu_5x5
I0403 15:01:41.891542 18102 net.cpp:91] Creating Layer inception_4c/relu_5x5
I0403 15:01:41.891558 18102 net.cpp:425] inception_4c/relu_5x5 <- inception_4c/5x5
I0403 15:01:41.891580 18102 net.cpp:386] inception_4c/relu_5x5 -> inception_4c/5x5 (in-place)
I0403 15:01:41.891888 18102 net.cpp:141] Setting up inception_4c/relu_5x5
I0403 15:01:41.891918 18102 net.cpp:148] Top shape: 24 64 14 14 (301056)
I0403 15:01:41.891935 18102 net.cpp:156] Memory required for data: 1050971424
I0403 15:01:41.891950 18102 layer_factory.hpp:77] Creating layer inception_4c/pool
I0403 15:01:41.891978 18102 net.cpp:91] Creating Layer inception_4c/pool
I0403 15:01:41.891994 18102 net.cpp:425] inception_4c/pool <- inception_4b/output_inception_4b/output_0_split_3
I0403 15:01:41.892016 18102 net.cpp:399] inception_4c/pool -> inception_4c/pool
I0403 15:01:41.892086 18102 net.cpp:141] Setting up inception_4c/pool
I0403 15:01:41.892112 18102 net.cpp:148] Top shape: 24 512 14 14 (2408448)
I0403 15:01:41.892127 18102 net.cpp:156] Memory required for data: 1060605216
I0403 15:01:41.892143 18102 layer_factory.hpp:77] Creating layer inception_4c/pool_proj
I0403 15:01:41.892165 18102 net.cpp:91] Creating Layer inception_4c/pool_proj
I0403 15:01:41.892186 18102 net.cpp:425] inception_4c/pool_proj <- inception_4c/pool
I0403 15:01:41.892205 18102 net.cpp:399] inception_4c/pool_proj -> inception_4c/pool_proj
I0403 15:01:41.893524 18102 net.cpp:141] Setting up inception_4c/pool_proj
I0403 15:01:41.893553 18102 net.cpp:148] Top shape: 24 64 14 14 (301056)
I0403 15:01:41.893584 18102 net.cpp:156] Memory required for data: 1061809440
I0403 15:01:41.893604 18102 layer_factory.hpp:77] Creating layer inception_4c/relu_pool_proj
I0403 15:01:41.893626 18102 net.cpp:91] Creating Layer inception_4c/relu_pool_proj
I0403 15:01:41.893643 18102 net.cpp:425] inception_4c/relu_pool_proj <- inception_4c/pool_proj
I0403 15:01:41.893662 18102 net.cpp:386] inception_4c/relu_pool_proj -> inception_4c/pool_proj (in-place)
I0403 15:01:41.893860 18102 net.cpp:141] Setting up inception_4c/relu_pool_proj
I0403 15:01:41.893888 18102 net.cpp:148] Top shape: 24 64 14 14 (301056)
I0403 15:01:41.893905 18102 net.cpp:156] Memory required for data: 1063013664
I0403 15:01:41.893921 18102 layer_factory.hpp:77] Creating layer inception_4c/output
I0403 15:01:41.893939 18102 net.cpp:91] Creating Layer inception_4c/output
I0403 15:01:41.893962 18102 net.cpp:425] inception_4c/output <- inception_4c/1x1
I0403 15:01:41.893981 18102 net.cpp:425] inception_4c/output <- inception_4c/3x3
I0403 15:01:41.893997 18102 net.cpp:425] inception_4c/output <- inception_4c/5x5
I0403 15:01:41.894014 18102 net.cpp:425] inception_4c/output <- inception_4c/pool_proj
I0403 15:01:41.894032 18102 net.cpp:399] inception_4c/output -> inception_4c/output
I0403 15:01:41.894083 18102 net.cpp:141] Setting up inception_4c/output
I0403 15:01:41.894109 18102 net.cpp:148] Top shape: 24 512 14 14 (2408448)
I0403 15:01:41.894124 18102 net.cpp:156] Memory required for data: 1072647456
I0403 15:01:41.894139 18102 layer_factory.hpp:77] Creating layer inception_4c/output_inception_4c/output_0_split
I0403 15:01:41.894158 18102 net.cpp:91] Creating Layer inception_4c/output_inception_4c/output_0_split
I0403 15:01:41.894176 18102 net.cpp:425] inception_4c/output_inception_4c/output_0_split <- inception_4c/output
I0403 15:01:41.894194 18102 net.cpp:399] inception_4c/output_inception_4c/output_0_split -> inception_4c/output_inception_4c/output_0_split_0
I0403 15:01:41.894215 18102 net.cpp:399] inception_4c/output_inception_4c/output_0_split -> inception_4c/output_inception_4c/output_0_split_1
I0403 15:01:41.894237 18102 net.cpp:399] inception_4c/output_inception_4c/output_0_split -> inception_4c/output_inception_4c/output_0_split_2
I0403 15:01:41.894256 18102 net.cpp:399] inception_4c/output_inception_4c/output_0_split -> inception_4c/output_inception_4c/output_0_split_3
I0403 15:01:41.894351 18102 net.cpp:141] Setting up inception_4c/output_inception_4c/output_0_split
I0403 15:01:41.894376 18102 net.cpp:148] Top shape: 24 512 14 14 (2408448)
I0403 15:01:41.894392 18102 net.cpp:148] Top shape: 24 512 14 14 (2408448)
I0403 15:01:41.894408 18102 net.cpp:148] Top shape: 24 512 14 14 (2408448)
I0403 15:01:41.894424 18102 net.cpp:148] Top shape: 24 512 14 14 (2408448)
I0403 15:01:41.894438 18102 net.cpp:156] Memory required for data: 1111182624
I0403 15:01:41.894454 18102 layer_factory.hpp:77] Creating layer inception_4d/1x1
I0403 15:01:41.894477 18102 net.cpp:91] Creating Layer inception_4d/1x1
I0403 15:01:41.894495 18102 net.cpp:425] inception_4d/1x1 <- inception_4c/output_inception_4c/output_0_split_0
I0403 15:01:41.894518 18102 net.cpp:399] inception_4d/1x1 -> inception_4d/1x1
I0403 15:01:41.896028 18102 net.cpp:141] Setting up inception_4d/1x1
I0403 15:01:41.896059 18102 net.cpp:148] Top shape: 24 112 14 14 (526848)
I0403 15:01:41.896075 18102 net.cpp:156] Memory required for data: 1113290016
I0403 15:01:41.896093 18102 layer_factory.hpp:77] Creating layer inception_4d/relu_1x1
I0403 15:01:41.896112 18102 net.cpp:91] Creating Layer inception_4d/relu_1x1
I0403 15:01:41.896129 18102 net.cpp:425] inception_4d/relu_1x1 <- inception_4d/1x1
I0403 15:01:41.896150 18102 net.cpp:386] inception_4d/relu_1x1 -> inception_4d/1x1 (in-place)
I0403 15:01:41.896352 18102 net.cpp:141] Setting up inception_4d/relu_1x1
I0403 15:01:41.896378 18102 net.cpp:148] Top shape: 24 112 14 14 (526848)
I0403 15:01:41.896394 18102 net.cpp:156] Memory required for data: 1115397408
I0403 15:01:41.896409 18102 layer_factory.hpp:77] Creating layer inception_4d/3x3_reduce
I0403 15:01:41.896448 18102 net.cpp:91] Creating Layer inception_4d/3x3_reduce
I0403 15:01:41.896467 18102 net.cpp:425] inception_4d/3x3_reduce <- inception_4c/output_inception_4c/output_0_split_1
I0403 15:01:41.896491 18102 net.cpp:399] inception_4d/3x3_reduce -> inception_4d/3x3_reduce
I0403 15:01:41.898145 18102 net.cpp:141] Setting up inception_4d/3x3_reduce
I0403 15:01:41.898177 18102 net.cpp:148] Top shape: 24 144 14 14 (677376)
I0403 15:01:41.898195 18102 net.cpp:156] Memory required for data: 1118106912
I0403 15:01:41.898214 18102 layer_factory.hpp:77] Creating layer inception_4d/relu_3x3_reduce
I0403 15:01:41.898233 18102 net.cpp:91] Creating Layer inception_4d/relu_3x3_reduce
I0403 15:01:41.898249 18102 net.cpp:425] inception_4d/relu_3x3_reduce <- inception_4d/3x3_reduce
I0403 15:01:41.898270 18102 net.cpp:386] inception_4d/relu_3x3_reduce -> inception_4d/3x3_reduce (in-place)
I0403 15:01:41.898584 18102 net.cpp:141] Setting up inception_4d/relu_3x3_reduce
I0403 15:01:41.898614 18102 net.cpp:148] Top shape: 24 144 14 14 (677376)
I0403 15:01:41.898632 18102 net.cpp:156] Memory required for data: 1120816416
I0403 15:01:41.898648 18102 layer_factory.hpp:77] Creating layer inception_4d/3x3
I0403 15:01:41.898670 18102 net.cpp:91] Creating Layer inception_4d/3x3
I0403 15:01:41.898689 18102 net.cpp:425] inception_4d/3x3 <- inception_4d/3x3_reduce
I0403 15:01:41.898710 18102 net.cpp:399] inception_4d/3x3 -> inception_4d/3x3
I0403 15:01:41.903256 18102 net.cpp:141] Setting up inception_4d/3x3
I0403 15:01:41.903288 18102 net.cpp:148] Top shape: 24 288 14 14 (1354752)
I0403 15:01:41.903304 18102 net.cpp:156] Memory required for data: 1126235424
I0403 15:01:41.903323 18102 layer_factory.hpp:77] Creating layer inception_4d/relu_3x3
I0403 15:01:41.903345 18102 net.cpp:91] Creating Layer inception_4d/relu_3x3
I0403 15:01:41.903363 18102 net.cpp:425] inception_4d/relu_3x3 <- inception_4d/3x3
I0403 15:01:41.903383 18102 net.cpp:386] inception_4d/relu_3x3 -> inception_4d/3x3 (in-place)
I0403 15:01:41.903584 18102 net.cpp:141] Setting up inception_4d/relu_3x3
I0403 15:01:41.903609 18102 net.cpp:148] Top shape: 24 288 14 14 (1354752)
I0403 15:01:41.903625 18102 net.cpp:156] Memory required for data: 1131654432
I0403 15:01:41.903640 18102 layer_factory.hpp:77] Creating layer inception_4d/5x5_reduce
I0403 15:01:41.903666 18102 net.cpp:91] Creating Layer inception_4d/5x5_reduce
I0403 15:01:41.903684 18102 net.cpp:425] inception_4d/5x5_reduce <- inception_4c/output_inception_4c/output_0_split_2
I0403 15:01:41.903704 18102 net.cpp:399] inception_4d/5x5_reduce -> inception_4d/5x5_reduce
I0403 15:01:41.904942 18102 net.cpp:141] Setting up inception_4d/5x5_reduce
I0403 15:01:41.904978 18102 net.cpp:148] Top shape: 24 32 14 14 (150528)
I0403 15:01:41.904994 18102 net.cpp:156] Memory required for data: 1132256544
I0403 15:01:41.905014 18102 layer_factory.hpp:77] Creating layer inception_4d/relu_5x5_reduce
I0403 15:01:41.905033 18102 net.cpp:91] Creating Layer inception_4d/relu_5x5_reduce
I0403 15:01:41.905050 18102 net.cpp:425] inception_4d/relu_5x5_reduce <- inception_4d/5x5_reduce
I0403 15:01:41.905071 18102 net.cpp:386] inception_4d/relu_5x5_reduce -> inception_4d/5x5_reduce (in-place)
I0403 15:01:41.905274 18102 net.cpp:141] Setting up inception_4d/relu_5x5_reduce
I0403 15:01:41.905300 18102 net.cpp:148] Top shape: 24 32 14 14 (150528)
I0403 15:01:41.905316 18102 net.cpp:156] Memory required for data: 1132858656
I0403 15:01:41.905331 18102 layer_factory.hpp:77] Creating layer inception_4d/5x5
I0403 15:01:41.905355 18102 net.cpp:91] Creating Layer inception_4d/5x5
I0403 15:01:41.905375 18102 net.cpp:425] inception_4d/5x5 <- inception_4d/5x5_reduce
I0403 15:01:41.905396 18102 net.cpp:399] inception_4d/5x5 -> inception_4d/5x5
I0403 15:01:41.906996 18102 net.cpp:141] Setting up inception_4d/5x5
I0403 15:01:41.907027 18102 net.cpp:148] Top shape: 24 64 14 14 (301056)
I0403 15:01:41.907044 18102 net.cpp:156] Memory required for data: 1134062880
I0403 15:01:41.907064 18102 layer_factory.hpp:77] Creating layer inception_4d/relu_5x5
I0403 15:01:41.907099 18102 net.cpp:91] Creating Layer inception_4d/relu_5x5
I0403 15:01:41.907116 18102 net.cpp:425] inception_4d/relu_5x5 <- inception_4d/5x5
I0403 15:01:41.907135 18102 net.cpp:386] inception_4d/relu_5x5 -> inception_4d/5x5 (in-place)
I0403 15:01:41.907457 18102 net.cpp:141] Setting up inception_4d/relu_5x5
I0403 15:01:41.907488 18102 net.cpp:148] Top shape: 24 64 14 14 (301056)
I0403 15:01:41.907505 18102 net.cpp:156] Memory required for data: 1135267104
I0403 15:01:41.907521 18102 layer_factory.hpp:77] Creating layer inception_4d/pool
I0403 15:01:41.907539 18102 net.cpp:91] Creating Layer inception_4d/pool
I0403 15:01:41.907557 18102 net.cpp:425] inception_4d/pool <- inception_4c/output_inception_4c/output_0_split_3
I0403 15:01:41.907577 18102 net.cpp:399] inception_4d/pool -> inception_4d/pool
I0403 15:01:41.907651 18102 net.cpp:141] Setting up inception_4d/pool
I0403 15:01:41.907676 18102 net.cpp:148] Top shape: 24 512 14 14 (2408448)
I0403 15:01:41.907691 18102 net.cpp:156] Memory required for data: 1144900896
I0403 15:01:41.907707 18102 layer_factory.hpp:77] Creating layer inception_4d/pool_proj
I0403 15:01:41.907730 18102 net.cpp:91] Creating Layer inception_4d/pool_proj
I0403 15:01:41.907749 18102 net.cpp:425] inception_4d/pool_proj <- inception_4d/pool
I0403 15:01:41.907771 18102 net.cpp:399] inception_4d/pool_proj -> inception_4d/pool_proj
I0403 15:01:41.909660 18102 net.cpp:141] Setting up inception_4d/pool_proj
I0403 15:01:41.909693 18102 net.cpp:148] Top shape: 24 64 14 14 (301056)
I0403 15:01:41.909708 18102 net.cpp:156] Memory required for data: 1146105120
I0403 15:01:41.909728 18102 layer_factory.hpp:77] Creating layer inception_4d/relu_pool_proj
I0403 15:01:41.909749 18102 net.cpp:91] Creating Layer inception_4d/relu_pool_proj
I0403 15:01:41.909767 18102 net.cpp:425] inception_4d/relu_pool_proj <- inception_4d/pool_proj
I0403 15:01:41.909786 18102 net.cpp:386] inception_4d/relu_pool_proj -> inception_4d/pool_proj (in-place)
I0403 15:01:41.909991 18102 net.cpp:141] Setting up inception_4d/relu_pool_proj
I0403 15:01:41.910018 18102 net.cpp:148] Top shape: 24 64 14 14 (301056)
I0403 15:01:41.910034 18102 net.cpp:156] Memory required for data: 1147309344
I0403 15:01:41.910050 18102 layer_factory.hpp:77] Creating layer inception_4d/output
I0403 15:01:41.910071 18102 net.cpp:91] Creating Layer inception_4d/output
I0403 15:01:41.910089 18102 net.cpp:425] inception_4d/output <- inception_4d/1x1
I0403 15:01:41.910106 18102 net.cpp:425] inception_4d/output <- inception_4d/3x3
I0403 15:01:41.910123 18102 net.cpp:425] inception_4d/output <- inception_4d/5x5
I0403 15:01:41.910140 18102 net.cpp:425] inception_4d/output <- inception_4d/pool_proj
I0403 15:01:41.910158 18102 net.cpp:399] inception_4d/output -> inception_4d/output
I0403 15:01:41.910210 18102 net.cpp:141] Setting up inception_4d/output
I0403 15:01:41.910235 18102 net.cpp:148] Top shape: 24 528 14 14 (2483712)
I0403 15:01:41.910250 18102 net.cpp:156] Memory required for data: 1157244192
I0403 15:01:41.910266 18102 layer_factory.hpp:77] Creating layer inception_4d/output_inception_4d/output_0_split
I0403 15:01:41.910285 18102 net.cpp:91] Creating Layer inception_4d/output_inception_4d/output_0_split
I0403 15:01:41.910301 18102 net.cpp:425] inception_4d/output_inception_4d/output_0_split <- inception_4d/output
I0403 15:01:41.910322 18102 net.cpp:399] inception_4d/output_inception_4d/output_0_split -> inception_4d/output_inception_4d/output_0_split_0
I0403 15:01:41.910346 18102 net.cpp:399] inception_4d/output_inception_4d/output_0_split -> inception_4d/output_inception_4d/output_0_split_1
I0403 15:01:41.910367 18102 net.cpp:399] inception_4d/output_inception_4d/output_0_split -> inception_4d/output_inception_4d/output_0_split_2
I0403 15:01:41.910388 18102 net.cpp:399] inception_4d/output_inception_4d/output_0_split -> inception_4d/output_inception_4d/output_0_split_3
I0403 15:01:41.910413 18102 net.cpp:399] inception_4d/output_inception_4d/output_0_split -> inception_4d/output_inception_4d/output_0_split_4
I0403 15:01:41.910524 18102 net.cpp:141] Setting up inception_4d/output_inception_4d/output_0_split
I0403 15:01:41.910563 18102 net.cpp:148] Top shape: 24 528 14 14 (2483712)
I0403 15:01:41.910581 18102 net.cpp:148] Top shape: 24 528 14 14 (2483712)
I0403 15:01:41.910598 18102 net.cpp:148] Top shape: 24 528 14 14 (2483712)
I0403 15:01:41.910614 18102 net.cpp:148] Top shape: 24 528 14 14 (2483712)
I0403 15:01:41.910629 18102 net.cpp:148] Top shape: 24 528 14 14 (2483712)
I0403 15:01:41.910645 18102 net.cpp:156] Memory required for data: 1206918432
I0403 15:01:41.910660 18102 layer_factory.hpp:77] Creating layer loss2/ave_pool
I0403 15:01:41.910678 18102 net.cpp:91] Creating Layer loss2/ave_pool
I0403 15:01:41.910696 18102 net.cpp:425] loss2/ave_pool <- inception_4d/output_inception_4d/output_0_split_0
I0403 15:01:41.910720 18102 net.cpp:399] loss2/ave_pool -> loss2/ave_pool
I0403 15:01:41.911063 18102 net.cpp:141] Setting up loss2/ave_pool
I0403 15:01:41.911092 18102 net.cpp:148] Top shape: 24 528 4 4 (202752)
I0403 15:01:41.911106 18102 net.cpp:156] Memory required for data: 1207729440
I0403 15:01:41.911123 18102 layer_factory.hpp:77] Creating layer loss2/conv
I0403 15:01:41.911146 18102 net.cpp:91] Creating Layer loss2/conv
I0403 15:01:41.911165 18102 net.cpp:425] loss2/conv <- loss2/ave_pool
I0403 15:01:41.911187 18102 net.cpp:399] loss2/conv -> loss2/conv
I0403 15:01:41.913228 18102 net.cpp:141] Setting up loss2/conv
I0403 15:01:41.913259 18102 net.cpp:148] Top shape: 24 128 4 4 (49152)
I0403 15:01:41.913276 18102 net.cpp:156] Memory required for data: 1207926048
I0403 15:01:41.913295 18102 layer_factory.hpp:77] Creating layer loss2/relu_conv
I0403 15:01:41.913317 18102 net.cpp:91] Creating Layer loss2/relu_conv
I0403 15:01:41.913336 18102 net.cpp:425] loss2/relu_conv <- loss2/conv
I0403 15:01:41.913354 18102 net.cpp:386] loss2/relu_conv -> loss2/conv (in-place)
I0403 15:01:41.913666 18102 net.cpp:141] Setting up loss2/relu_conv
I0403 15:01:41.913694 18102 net.cpp:148] Top shape: 24 128 4 4 (49152)
I0403 15:01:41.913709 18102 net.cpp:156] Memory required for data: 1208122656
I0403 15:01:41.913725 18102 layer_factory.hpp:77] Creating layer loss2/fc
I0403 15:01:41.913748 18102 net.cpp:91] Creating Layer loss2/fc
I0403 15:01:41.913766 18102 net.cpp:425] loss2/fc <- loss2/conv
I0403 15:01:41.913789 18102 net.cpp:399] loss2/fc -> loss2/fc
I0403 15:01:41.933156 18102 net.cpp:141] Setting up loss2/fc
I0403 15:01:41.933223 18102 net.cpp:148] Top shape: 24 1024 (24576)
I0403 15:01:41.933239 18102 net.cpp:156] Memory required for data: 1208220960
I0403 15:01:41.933262 18102 layer_factory.hpp:77] Creating layer loss2/relu_fc
I0403 15:01:41.933284 18102 net.cpp:91] Creating Layer loss2/relu_fc
I0403 15:01:41.933310 18102 net.cpp:425] loss2/relu_fc <- loss2/fc
I0403 15:01:41.933332 18102 net.cpp:386] loss2/relu_fc -> loss2/fc (in-place)
I0403 15:01:41.933729 18102 net.cpp:141] Setting up loss2/relu_fc
I0403 15:01:41.933758 18102 net.cpp:148] Top shape: 24 1024 (24576)
I0403 15:01:41.933773 18102 net.cpp:156] Memory required for data: 1208319264
I0403 15:01:41.933790 18102 layer_factory.hpp:77] Creating layer loss2/drop_fc
I0403 15:01:41.933809 18102 net.cpp:91] Creating Layer loss2/drop_fc
I0403 15:01:41.933827 18102 net.cpp:425] loss2/drop_fc <- loss2/fc
I0403 15:01:41.933857 18102 net.cpp:386] loss2/drop_fc -> loss2/fc (in-place)
I0403 15:01:41.933915 18102 net.cpp:141] Setting up loss2/drop_fc
I0403 15:01:41.933940 18102 net.cpp:148] Top shape: 24 1024 (24576)
I0403 15:01:41.933961 18102 net.cpp:156] Memory required for data: 1208417568
I0403 15:01:41.933979 18102 layer_factory.hpp:77] Creating layer loss2/classifier_plantvillage
I0403 15:01:41.933998 18102 net.cpp:91] Creating Layer loss2/classifier_plantvillage
I0403 15:01:41.934020 18102 net.cpp:425] loss2/classifier_plantvillage <- loss2/fc
I0403 15:01:41.934047 18102 net.cpp:399] loss2/classifier_plantvillage -> loss2/classifier_plantvillage
I0403 15:01:41.934495 18102 net.cpp:141] Setting up loss2/classifier_plantvillage
I0403 15:01:41.934522 18102 net.cpp:148] Top shape: 24 38 (912)
I0403 15:01:41.934566 18102 net.cpp:156] Memory required for data: 1208421216
I0403 15:01:41.934586 18102 layer_factory.hpp:77] Creating layer loss2/classifier_plantvillage_loss2/classifier_plantvillage_0_split
I0403 15:01:41.934617 18102 net.cpp:91] Creating Layer loss2/classifier_plantvillage_loss2/classifier_plantvillage_0_split
I0403 15:01:41.934634 18102 net.cpp:425] loss2/classifier_plantvillage_loss2/classifier_plantvillage_0_split <- loss2/classifier_plantvillage
I0403 15:01:41.934655 18102 net.cpp:399] loss2/classifier_plantvillage_loss2/classifier_plantvillage_0_split -> loss2/classifier_plantvillage_loss2/classifier_plantvillage_0_split_0
I0403 15:01:41.934677 18102 net.cpp:399] loss2/classifier_plantvillage_loss2/classifier_plantvillage_0_split -> loss2/classifier_plantvillage_loss2/classifier_plantvillage_0_split_1
I0403 15:01:41.934700 18102 net.cpp:399] loss2/classifier_plantvillage_loss2/classifier_plantvillage_0_split -> loss2/classifier_plantvillage_loss2/classifier_plantvillage_0_split_2
I0403 15:01:41.934782 18102 net.cpp:141] Setting up loss2/classifier_plantvillage_loss2/classifier_plantvillage_0_split
I0403 15:01:41.934806 18102 net.cpp:148] Top shape: 24 38 (912)
I0403 15:01:41.934823 18102 net.cpp:148] Top shape: 24 38 (912)
I0403 15:01:41.934839 18102 net.cpp:148] Top shape: 24 38 (912)
I0403 15:01:41.934854 18102 net.cpp:156] Memory required for data: 1208432160
I0403 15:01:41.934869 18102 layer_factory.hpp:77] Creating layer inception_4e/1x1
I0403 15:01:41.934893 18102 net.cpp:91] Creating Layer inception_4e/1x1
I0403 15:01:41.934912 18102 net.cpp:425] inception_4e/1x1 <- inception_4d/output_inception_4d/output_0_split_1
I0403 15:01:41.934933 18102 net.cpp:399] inception_4e/1x1 -> inception_4e/1x1
I0403 15:01:41.936938 18102 net.cpp:141] Setting up inception_4e/1x1
I0403 15:01:41.936976 18102 net.cpp:148] Top shape: 24 256 14 14 (1204224)
I0403 15:01:41.936995 18102 net.cpp:156] Memory required for data: 1213249056
I0403 15:01:41.937014 18102 layer_factory.hpp:77] Creating layer inception_4e/relu_1x1
I0403 15:01:41.937033 18102 net.cpp:91] Creating Layer inception_4e/relu_1x1
I0403 15:01:41.937049 18102 net.cpp:425] inception_4e/relu_1x1 <- inception_4e/1x1
I0403 15:01:41.937067 18102 net.cpp:386] inception_4e/relu_1x1 -> inception_4e/1x1 (in-place)
I0403 15:01:41.937386 18102 net.cpp:141] Setting up inception_4e/relu_1x1
I0403 15:01:41.937417 18102 net.cpp:148] Top shape: 24 256 14 14 (1204224)
I0403 15:01:41.937433 18102 net.cpp:156] Memory required for data: 1218065952
I0403 15:01:41.937448 18102 layer_factory.hpp:77] Creating layer inception_4e/3x3_reduce
I0403 15:01:41.937471 18102 net.cpp:91] Creating Layer inception_4e/3x3_reduce
I0403 15:01:41.937489 18102 net.cpp:425] inception_4e/3x3_reduce <- inception_4d/output_inception_4d/output_0_split_2
I0403 15:01:41.937510 18102 net.cpp:399] inception_4e/3x3_reduce -> inception_4e/3x3_reduce
I0403 15:01:41.939800 18102 net.cpp:141] Setting up inception_4e/3x3_reduce
I0403 15:01:41.939831 18102 net.cpp:148] Top shape: 24 160 14 14 (752640)
I0403 15:01:41.939847 18102 net.cpp:156] Memory required for data: 1221076512
I0403 15:01:41.939867 18102 layer_factory.hpp:77] Creating layer inception_4e/relu_3x3_reduce
I0403 15:01:41.939888 18102 net.cpp:91] Creating Layer inception_4e/relu_3x3_reduce
I0403 15:01:41.939906 18102 net.cpp:425] inception_4e/relu_3x3_reduce <- inception_4e/3x3_reduce
I0403 15:01:41.939925 18102 net.cpp:386] inception_4e/relu_3x3_reduce -> inception_4e/3x3_reduce (in-place)
I0403 15:01:41.940131 18102 net.cpp:141] Setting up inception_4e/relu_3x3_reduce
I0403 15:01:41.940160 18102 net.cpp:148] Top shape: 24 160 14 14 (752640)
I0403 15:01:41.940176 18102 net.cpp:156] Memory required for data: 1224087072
I0403 15:01:41.940191 18102 layer_factory.hpp:77] Creating layer inception_4e/3x3
I0403 15:01:41.940213 18102 net.cpp:91] Creating Layer inception_4e/3x3
I0403 15:01:41.940232 18102 net.cpp:425] inception_4e/3x3 <- inception_4e/3x3_reduce
I0403 15:01:41.940256 18102 net.cpp:399] inception_4e/3x3 -> inception_4e/3x3
I0403 15:01:41.945600 18102 net.cpp:141] Setting up inception_4e/3x3
I0403 15:01:41.945644 18102 net.cpp:148] Top shape: 24 320 14 14 (1505280)
I0403 15:01:41.945662 18102 net.cpp:156] Memory required for data: 1230108192
I0403 15:01:41.945680 18102 layer_factory.hpp:77] Creating layer inception_4e/relu_3x3
I0403 15:01:41.945699 18102 net.cpp:91] Creating Layer inception_4e/relu_3x3
I0403 15:01:41.945716 18102 net.cpp:425] inception_4e/relu_3x3 <- inception_4e/3x3
I0403 15:01:41.945737 18102 net.cpp:386] inception_4e/relu_3x3 -> inception_4e/3x3 (in-place)
I0403 15:01:41.946063 18102 net.cpp:141] Setting up inception_4e/relu_3x3
I0403 15:01:41.946092 18102 net.cpp:148] Top shape: 24 320 14 14 (1505280)
I0403 15:01:41.946107 18102 net.cpp:156] Memory required for data: 1236129312
I0403 15:01:41.946123 18102 layer_factory.hpp:77] Creating layer inception_4e/5x5_reduce
I0403 15:01:41.946148 18102 net.cpp:91] Creating Layer inception_4e/5x5_reduce
I0403 15:01:41.946167 18102 net.cpp:425] inception_4e/5x5_reduce <- inception_4d/output_inception_4d/output_0_split_3
I0403 15:01:41.946189 18102 net.cpp:399] inception_4e/5x5_reduce -> inception_4e/5x5_reduce
I0403 15:01:41.947343 18102 net.cpp:141] Setting up inception_4e/5x5_reduce
I0403 15:01:41.947374 18102 net.cpp:148] Top shape: 24 32 14 14 (150528)
I0403 15:01:41.947391 18102 net.cpp:156] Memory required for data: 1236731424
I0403 15:01:41.947410 18102 layer_factory.hpp:77] Creating layer inception_4e/relu_5x5_reduce
I0403 15:01:41.947430 18102 net.cpp:91] Creating Layer inception_4e/relu_5x5_reduce
I0403 15:01:41.947446 18102 net.cpp:425] inception_4e/relu_5x5_reduce <- inception_4e/5x5_reduce
I0403 15:01:41.947464 18102 net.cpp:386] inception_4e/relu_5x5_reduce -> inception_4e/5x5_reduce (in-place)
I0403 15:01:41.947782 18102 net.cpp:141] Setting up inception_4e/relu_5x5_reduce
I0403 15:01:41.947813 18102 net.cpp:148] Top shape: 24 32 14 14 (150528)
I0403 15:01:41.947829 18102 net.cpp:156] Memory required for data: 1237333536
I0403 15:01:41.947845 18102 layer_factory.hpp:77] Creating layer inception_4e/5x5
I0403 15:01:41.947885 18102 net.cpp:91] Creating Layer inception_4e/5x5
I0403 15:01:41.947906 18102 net.cpp:425] inception_4e/5x5 <- inception_4e/5x5_reduce
I0403 15:01:41.947928 18102 net.cpp:399] inception_4e/5x5 -> inception_4e/5x5
I0403 15:01:41.949919 18102 net.cpp:141] Setting up inception_4e/5x5
I0403 15:01:41.949949 18102 net.cpp:148] Top shape: 24 128 14 14 (602112)
I0403 15:01:41.949973 18102 net.cpp:156] Memory required for data: 1239741984
I0403 15:01:41.949995 18102 layer_factory.hpp:77] Creating layer inception_4e/relu_5x5
I0403 15:01:41.950017 18102 net.cpp:91] Creating Layer inception_4e/relu_5x5
I0403 15:01:41.950036 18102 net.cpp:425] inception_4e/relu_5x5 <- inception_4e/5x5
I0403 15:01:41.950053 18102 net.cpp:386] inception_4e/relu_5x5 -> inception_4e/5x5 (in-place)
I0403 15:01:41.950265 18102 net.cpp:141] Setting up inception_4e/relu_5x5
I0403 15:01:41.950292 18102 net.cpp:148] Top shape: 24 128 14 14 (602112)
I0403 15:01:41.950309 18102 net.cpp:156] Memory required for data: 1242150432
I0403 15:01:41.950325 18102 layer_factory.hpp:77] Creating layer inception_4e/pool
I0403 15:01:41.950346 18102 net.cpp:91] Creating Layer inception_4e/pool
I0403 15:01:41.950364 18102 net.cpp:425] inception_4e/pool <- inception_4d/output_inception_4d/output_0_split_4
I0403 15:01:41.950387 18102 net.cpp:399] inception_4e/pool -> inception_4e/pool
I0403 15:01:41.950462 18102 net.cpp:141] Setting up inception_4e/pool
I0403 15:01:41.950487 18102 net.cpp:148] Top shape: 24 528 14 14 (2483712)
I0403 15:01:41.950502 18102 net.cpp:156] Memory required for data: 1252085280
I0403 15:01:41.950517 18102 layer_factory.hpp:77] Creating layer inception_4e/pool_proj
I0403 15:01:41.950541 18102 net.cpp:91] Creating Layer inception_4e/pool_proj
I0403 15:01:41.950559 18102 net.cpp:425] inception_4e/pool_proj <- inception_4e/pool
I0403 15:01:41.950582 18102 net.cpp:399] inception_4e/pool_proj -> inception_4e/pool_proj
I0403 15:01:41.952208 18102 net.cpp:141] Setting up inception_4e/pool_proj
I0403 15:01:41.952252 18102 net.cpp:148] Top shape: 24 128 14 14 (602112)
I0403 15:01:41.952270 18102 net.cpp:156] Memory required for data: 1254493728
I0403 15:01:41.952287 18102 layer_factory.hpp:77] Creating layer inception_4e/relu_pool_proj
I0403 15:01:41.952309 18102 net.cpp:91] Creating Layer inception_4e/relu_pool_proj
I0403 15:01:41.952327 18102 net.cpp:425] inception_4e/relu_pool_proj <- inception_4e/pool_proj
I0403 15:01:41.952345 18102 net.cpp:386] inception_4e/relu_pool_proj -> inception_4e/pool_proj (in-place)
I0403 15:01:41.952656 18102 net.cpp:141] Setting up inception_4e/relu_pool_proj
I0403 15:01:41.952683 18102 net.cpp:148] Top shape: 24 128 14 14 (602112)
I0403 15:01:41.952699 18102 net.cpp:156] Memory required for data: 1256902176
I0403 15:01:41.952715 18102 layer_factory.hpp:77] Creating layer inception_4e/output
I0403 15:01:41.952733 18102 net.cpp:91] Creating Layer inception_4e/output
I0403 15:01:41.952749 18102 net.cpp:425] inception_4e/output <- inception_4e/1x1
I0403 15:01:41.952767 18102 net.cpp:425] inception_4e/output <- inception_4e/3x3
I0403 15:01:41.952788 18102 net.cpp:425] inception_4e/output <- inception_4e/5x5
I0403 15:01:41.952805 18102 net.cpp:425] inception_4e/output <- inception_4e/pool_proj
I0403 15:01:41.952822 18102 net.cpp:399] inception_4e/output -> inception_4e/output
I0403 15:01:41.952874 18102 net.cpp:141] Setting up inception_4e/output
I0403 15:01:41.952901 18102 net.cpp:148] Top shape: 24 832 14 14 (3913728)
I0403 15:01:41.952919 18102 net.cpp:156] Memory required for data: 1272557088
I0403 15:01:41.952934 18102 layer_factory.hpp:77] Creating layer pool4/3x3_s2
I0403 15:01:41.952952 18102 net.cpp:91] Creating Layer pool4/3x3_s2
I0403 15:01:41.952977 18102 net.cpp:425] pool4/3x3_s2 <- inception_4e/output
I0403 15:01:41.952999 18102 net.cpp:399] pool4/3x3_s2 -> pool4/3x3_s2
I0403 15:01:41.953071 18102 net.cpp:141] Setting up pool4/3x3_s2
I0403 15:01:41.953099 18102 net.cpp:148] Top shape: 24 832 7 7 (978432)
I0403 15:01:41.953115 18102 net.cpp:156] Memory required for data: 1276470816
I0403 15:01:41.953130 18102 layer_factory.hpp:77] Creating layer pool4/3x3_s2_pool4/3x3_s2_0_split
I0403 15:01:41.953148 18102 net.cpp:91] Creating Layer pool4/3x3_s2_pool4/3x3_s2_0_split
I0403 15:01:41.953166 18102 net.cpp:425] pool4/3x3_s2_pool4/3x3_s2_0_split <- pool4/3x3_s2
I0403 15:01:41.953183 18102 net.cpp:399] pool4/3x3_s2_pool4/3x3_s2_0_split -> pool4/3x3_s2_pool4/3x3_s2_0_split_0
I0403 15:01:41.953204 18102 net.cpp:399] pool4/3x3_s2_pool4/3x3_s2_0_split -> pool4/3x3_s2_pool4/3x3_s2_0_split_1
I0403 15:01:41.953225 18102 net.cpp:399] pool4/3x3_s2_pool4/3x3_s2_0_split -> pool4/3x3_s2_pool4/3x3_s2_0_split_2
I0403 15:01:41.953248 18102 net.cpp:399] pool4/3x3_s2_pool4/3x3_s2_0_split -> pool4/3x3_s2_pool4/3x3_s2_0_split_3
I0403 15:01:41.953348 18102 net.cpp:141] Setting up pool4/3x3_s2_pool4/3x3_s2_0_split
I0403 15:01:41.953372 18102 net.cpp:148] Top shape: 24 832 7 7 (978432)
I0403 15:01:41.953389 18102 net.cpp:148] Top shape: 24 832 7 7 (978432)
I0403 15:01:41.953405 18102 net.cpp:148] Top shape: 24 832 7 7 (978432)
I0403 15:01:41.953421 18102 net.cpp:148] Top shape: 24 832 7 7 (978432)
I0403 15:01:41.953435 18102 net.cpp:156] Memory required for data: 1292125728
I0403 15:01:41.953451 18102 layer_factory.hpp:77] Creating layer inception_5a/1x1
I0403 15:01:41.953474 18102 net.cpp:91] Creating Layer inception_5a/1x1
I0403 15:01:41.953493 18102 net.cpp:425] inception_5a/1x1 <- pool4/3x3_s2_pool4/3x3_s2_0_split_0
I0403 15:01:41.953516 18102 net.cpp:399] inception_5a/1x1 -> inception_5a/1x1
I0403 15:01:41.956573 18102 net.cpp:141] Setting up inception_5a/1x1
I0403 15:01:41.956604 18102 net.cpp:148] Top shape: 24 256 7 7 (301056)
I0403 15:01:41.956620 18102 net.cpp:156] Memory required for data: 1293329952
I0403 15:01:41.956640 18102 layer_factory.hpp:77] Creating layer inception_5a/relu_1x1
I0403 15:01:41.956660 18102 net.cpp:91] Creating Layer inception_5a/relu_1x1
I0403 15:01:41.956678 18102 net.cpp:425] inception_5a/relu_1x1 <- inception_5a/1x1
I0403 15:01:41.956697 18102 net.cpp:386] inception_5a/relu_1x1 -> inception_5a/1x1 (in-place)
I0403 15:01:41.957048 18102 net.cpp:141] Setting up inception_5a/relu_1x1
I0403 15:01:41.957077 18102 net.cpp:148] Top shape: 24 256 7 7 (301056)
I0403 15:01:41.957093 18102 net.cpp:156] Memory required for data: 1294534176
I0403 15:01:41.957108 18102 layer_factory.hpp:77] Creating layer inception_5a/3x3_reduce
I0403 15:01:41.957132 18102 net.cpp:91] Creating Layer inception_5a/3x3_reduce
I0403 15:01:41.957151 18102 net.cpp:425] inception_5a/3x3_reduce <- pool4/3x3_s2_pool4/3x3_s2_0_split_1
I0403 15:01:41.957175 18102 net.cpp:399] inception_5a/3x3_reduce -> inception_5a/3x3_reduce
I0403 15:01:41.959812 18102 net.cpp:141] Setting up inception_5a/3x3_reduce
I0403 15:01:41.959843 18102 net.cpp:148] Top shape: 24 160 7 7 (188160)
I0403 15:01:41.959861 18102 net.cpp:156] Memory required for data: 1295286816
I0403 15:01:41.959880 18102 layer_factory.hpp:77] Creating layer inception_5a/relu_3x3_reduce
I0403 15:01:41.959899 18102 net.cpp:91] Creating Layer inception_5a/relu_3x3_reduce
I0403 15:01:41.959920 18102 net.cpp:425] inception_5a/relu_3x3_reduce <- inception_5a/3x3_reduce
I0403 15:01:41.959939 18102 net.cpp:386] inception_5a/relu_3x3_reduce -> inception_5a/3x3_reduce (in-place)
I0403 15:01:41.960147 18102 net.cpp:141] Setting up inception_5a/relu_3x3_reduce
I0403 15:01:41.960175 18102 net.cpp:148] Top shape: 24 160 7 7 (188160)
I0403 15:01:41.960189 18102 net.cpp:156] Memory required for data: 1296039456
I0403 15:01:41.960206 18102 layer_factory.hpp:77] Creating layer inception_5a/3x3
I0403 15:01:41.960229 18102 net.cpp:91] Creating Layer inception_5a/3x3
I0403 15:01:41.960247 18102 net.cpp:425] inception_5a/3x3 <- inception_5a/3x3_reduce
I0403 15:01:41.960271 18102 net.cpp:399] inception_5a/3x3 -> inception_5a/3x3
I0403 15:01:41.965636 18102 net.cpp:141] Setting up inception_5a/3x3
I0403 15:01:41.965668 18102 net.cpp:148] Top shape: 24 320 7 7 (376320)
I0403 15:01:41.965684 18102 net.cpp:156] Memory required for data: 1297544736
I0403 15:01:41.965704 18102 layer_factory.hpp:77] Creating layer inception_5a/relu_3x3
I0403 15:01:41.965726 18102 net.cpp:91] Creating Layer inception_5a/relu_3x3
I0403 15:01:41.965745 18102 net.cpp:425] inception_5a/relu_3x3 <- inception_5a/3x3
I0403 15:01:41.965764 18102 net.cpp:386] inception_5a/relu_3x3 -> inception_5a/3x3 (in-place)
I0403 15:01:41.966084 18102 net.cpp:141] Setting up inception_5a/relu_3x3
I0403 15:01:41.966112 18102 net.cpp:148] Top shape: 24 320 7 7 (376320)
I0403 15:01:41.966128 18102 net.cpp:156] Memory required for data: 1299050016
I0403 15:01:41.966145 18102 layer_factory.hpp:77] Creating layer inception_5a/5x5_reduce
I0403 15:01:41.966168 18102 net.cpp:91] Creating Layer inception_5a/5x5_reduce
I0403 15:01:41.966188 18102 net.cpp:425] inception_5a/5x5_reduce <- pool4/3x3_s2_pool4/3x3_s2_0_split_2
I0403 15:01:41.966212 18102 net.cpp:399] inception_5a/5x5_reduce -> inception_5a/5x5_reduce
I0403 15:01:41.967480 18102 net.cpp:141] Setting up inception_5a/5x5_reduce
I0403 15:01:41.967510 18102 net.cpp:148] Top shape: 24 32 7 7 (37632)
I0403 15:01:41.967527 18102 net.cpp:156] Memory required for data: 1299200544
I0403 15:01:41.967546 18102 layer_factory.hpp:77] Creating layer inception_5a/relu_5x5_reduce
I0403 15:01:41.967568 18102 net.cpp:91] Creating Layer inception_5a/relu_5x5_reduce
I0403 15:01:41.967586 18102 net.cpp:425] inception_5a/relu_5x5_reduce <- inception_5a/5x5_reduce
I0403 15:01:41.967604 18102 net.cpp:386] inception_5a/relu_5x5_reduce -> inception_5a/5x5_reduce (in-place)
I0403 15:01:41.967924 18102 net.cpp:141] Setting up inception_5a/relu_5x5_reduce
I0403 15:01:41.967952 18102 net.cpp:148] Top shape: 24 32 7 7 (37632)
I0403 15:01:41.967984 18102 net.cpp:156] Memory required for data: 1299351072
I0403 15:01:41.968000 18102 layer_factory.hpp:77] Creating layer inception_5a/5x5
I0403 15:01:41.968025 18102 net.cpp:91] Creating Layer inception_5a/5x5
I0403 15:01:41.968044 18102 net.cpp:425] inception_5a/5x5 <- inception_5a/5x5_reduce
I0403 15:01:41.968065 18102 net.cpp:399] inception_5a/5x5 -> inception_5a/5x5
I0403 15:01:41.969918 18102 net.cpp:141] Setting up inception_5a/5x5
I0403 15:01:41.969965 18102 net.cpp:148] Top shape: 24 128 7 7 (150528)
I0403 15:01:41.969985 18102 net.cpp:156] Memory required for data: 1299953184
I0403 15:01:41.970003 18102 layer_factory.hpp:77] Creating layer inception_5a/relu_5x5
I0403 15:01:41.970026 18102 net.cpp:91] Creating Layer inception_5a/relu_5x5
I0403 15:01:41.970043 18102 net.cpp:425] inception_5a/relu_5x5 <- inception_5a/5x5
I0403 15:01:41.970062 18102 net.cpp:386] inception_5a/relu_5x5 -> inception_5a/5x5 (in-place)
I0403 15:01:41.970268 18102 net.cpp:141] Setting up inception_5a/relu_5x5
I0403 15:01:41.970298 18102 net.cpp:148] Top shape: 24 128 7 7 (150528)
I0403 15:01:41.970314 18102 net.cpp:156] Memory required for data: 1300555296
I0403 15:01:41.970329 18102 layer_factory.hpp:77] Creating layer inception_5a/pool
I0403 15:01:41.970347 18102 net.cpp:91] Creating Layer inception_5a/pool
I0403 15:01:41.970365 18102 net.cpp:425] inception_5a/pool <- pool4/3x3_s2_pool4/3x3_s2_0_split_3
I0403 15:01:41.970386 18102 net.cpp:399] inception_5a/pool -> inception_5a/pool
I0403 15:01:41.970461 18102 net.cpp:141] Setting up inception_5a/pool
I0403 15:01:41.970486 18102 net.cpp:148] Top shape: 24 832 7 7 (978432)
I0403 15:01:41.970501 18102 net.cpp:156] Memory required for data: 1304469024
I0403 15:01:41.970517 18102 layer_factory.hpp:77] Creating layer inception_5a/pool_proj
I0403 15:01:41.970541 18102 net.cpp:91] Creating Layer inception_5a/pool_proj
I0403 15:01:41.970558 18102 net.cpp:425] inception_5a/pool_proj <- inception_5a/pool
I0403 15:01:41.970583 18102 net.cpp:399] inception_5a/pool_proj -> inception_5a/pool_proj
I0403 15:01:41.973073 18102 net.cpp:141] Setting up inception_5a/pool_proj
I0403 15:01:41.973105 18102 net.cpp:148] Top shape: 24 128 7 7 (150528)
I0403 15:01:41.973121 18102 net.cpp:156] Memory required for data: 1305071136
I0403 15:01:41.973141 18102 layer_factory.hpp:77] Creating layer inception_5a/relu_pool_proj
I0403 15:01:41.973163 18102 net.cpp:91] Creating Layer inception_5a/relu_pool_proj
I0403 15:01:41.973182 18102 net.cpp:425] inception_5a/relu_pool_proj <- inception_5a/pool_proj
I0403 15:01:41.973201 18102 net.cpp:386] inception_5a/relu_pool_proj -> inception_5a/pool_proj (in-place)
I0403 15:01:41.973521 18102 net.cpp:141] Setting up inception_5a/relu_pool_proj
I0403 15:01:41.973549 18102 net.cpp:148] Top shape: 24 128 7 7 (150528)
I0403 15:01:41.973564 18102 net.cpp:156] Memory required for data: 1305673248
I0403 15:01:41.973580 18102 layer_factory.hpp:77] Creating layer inception_5a/output
I0403 15:01:41.973599 18102 net.cpp:91] Creating Layer inception_5a/output
I0403 15:01:41.973616 18102 net.cpp:425] inception_5a/output <- inception_5a/1x1
I0403 15:01:41.973634 18102 net.cpp:425] inception_5a/output <- inception_5a/3x3
I0403 15:01:41.973651 18102 net.cpp:425] inception_5a/output <- inception_5a/5x5
I0403 15:01:41.973669 18102 net.cpp:425] inception_5a/output <- inception_5a/pool_proj
I0403 15:01:41.973690 18102 net.cpp:399] inception_5a/output -> inception_5a/output
I0403 15:01:41.973745 18102 net.cpp:141] Setting up inception_5a/output
I0403 15:01:41.973770 18102 net.cpp:148] Top shape: 24 832 7 7 (978432)
I0403 15:01:41.973786 18102 net.cpp:156] Memory required for data: 1309586976
I0403 15:01:41.973801 18102 layer_factory.hpp:77] Creating layer inception_5a/output_inception_5a/output_0_split
I0403 15:01:41.973819 18102 net.cpp:91] Creating Layer inception_5a/output_inception_5a/output_0_split
I0403 15:01:41.973836 18102 net.cpp:425] inception_5a/output_inception_5a/output_0_split <- inception_5a/output
I0403 15:01:41.973857 18102 net.cpp:399] inception_5a/output_inception_5a/output_0_split -> inception_5a/output_inception_5a/output_0_split_0
I0403 15:01:41.973881 18102 net.cpp:399] inception_5a/output_inception_5a/output_0_split -> inception_5a/output_inception_5a/output_0_split_1
I0403 15:01:41.973902 18102 net.cpp:399] inception_5a/output_inception_5a/output_0_split -> inception_5a/output_inception_5a/output_0_split_2
I0403 15:01:41.973923 18102 net.cpp:399] inception_5a/output_inception_5a/output_0_split -> inception_5a/output_inception_5a/output_0_split_3
I0403 15:01:41.974058 18102 net.cpp:141] Setting up inception_5a/output_inception_5a/output_0_split
I0403 15:01:41.974086 18102 net.cpp:148] Top shape: 24 832 7 7 (978432)
I0403 15:01:41.974103 18102 net.cpp:148] Top shape: 24 832 7 7 (978432)
I0403 15:01:41.974119 18102 net.cpp:148] Top shape: 24 832 7 7 (978432)
I0403 15:01:41.974135 18102 net.cpp:148] Top shape: 24 832 7 7 (978432)
I0403 15:01:41.974149 18102 net.cpp:156] Memory required for data: 1325241888
I0403 15:01:41.974165 18102 layer_factory.hpp:77] Creating layer inception_5b/1x1
I0403 15:01:41.974190 18102 net.cpp:91] Creating Layer inception_5b/1x1
I0403 15:01:41.974210 18102 net.cpp:425] inception_5b/1x1 <- inception_5a/output_inception_5a/output_0_split_0
I0403 15:01:41.974231 18102 net.cpp:399] inception_5b/1x1 -> inception_5b/1x1
I0403 15:01:41.978292 18102 net.cpp:141] Setting up inception_5b/1x1
I0403 15:01:41.978324 18102 net.cpp:148] Top shape: 24 384 7 7 (451584)
I0403 15:01:41.978340 18102 net.cpp:156] Memory required for data: 1327048224
I0403 15:01:41.978359 18102 layer_factory.hpp:77] Creating layer inception_5b/relu_1x1
I0403 15:01:41.978379 18102 net.cpp:91] Creating Layer inception_5b/relu_1x1
I0403 15:01:41.978399 18102 net.cpp:425] inception_5b/relu_1x1 <- inception_5b/1x1
I0403 15:01:41.978416 18102 net.cpp:386] inception_5b/relu_1x1 -> inception_5b/1x1 (in-place)
I0403 15:01:41.978744 18102 net.cpp:141] Setting up inception_5b/relu_1x1
I0403 15:01:41.978771 18102 net.cpp:148] Top shape: 24 384 7 7 (451584)
I0403 15:01:41.978787 18102 net.cpp:156] Memory required for data: 1328854560
I0403 15:01:41.978803 18102 layer_factory.hpp:77] Creating layer inception_5b/3x3_reduce
I0403 15:01:41.978826 18102 net.cpp:91] Creating Layer inception_5b/3x3_reduce
I0403 15:01:41.978845 18102 net.cpp:425] inception_5b/3x3_reduce <- inception_5a/output_inception_5a/output_0_split_1
I0403 15:01:41.978869 18102 net.cpp:399] inception_5b/3x3_reduce -> inception_5b/3x3_reduce
I0403 15:01:41.981732 18102 net.cpp:141] Setting up inception_5b/3x3_reduce
I0403 15:01:41.981763 18102 net.cpp:148] Top shape: 24 192 7 7 (225792)
I0403 15:01:41.981781 18102 net.cpp:156] Memory required for data: 1329757728
I0403 15:01:41.981799 18102 layer_factory.hpp:77] Creating layer inception_5b/relu_3x3_reduce
I0403 15:01:41.981818 18102 net.cpp:91] Creating Layer inception_5b/relu_3x3_reduce
I0403 15:01:41.981835 18102 net.cpp:425] inception_5b/relu_3x3_reduce <- inception_5b/3x3_reduce
I0403 15:01:41.981856 18102 net.cpp:386] inception_5b/relu_3x3_reduce -> inception_5b/3x3_reduce (in-place)
I0403 15:01:41.982071 18102 net.cpp:141] Setting up inception_5b/relu_3x3_reduce
I0403 15:01:41.982098 18102 net.cpp:148] Top shape: 24 192 7 7 (225792)
I0403 15:01:41.982113 18102 net.cpp:156] Memory required for data: 1330660896
I0403 15:01:41.982130 18102 layer_factory.hpp:77] Creating layer inception_5b/3x3
I0403 15:01:41.982153 18102 net.cpp:91] Creating Layer inception_5b/3x3
I0403 15:01:41.982172 18102 net.cpp:425] inception_5b/3x3 <- inception_5b/3x3_reduce
I0403 15:01:41.982194 18102 net.cpp:399] inception_5b/3x3 -> inception_5b/3x3
I0403 15:01:41.989372 18102 net.cpp:141] Setting up inception_5b/3x3
I0403 15:01:41.989404 18102 net.cpp:148] Top shape: 24 384 7 7 (451584)
I0403 15:01:41.989420 18102 net.cpp:156] Memory required for data: 1332467232
I0403 15:01:41.989439 18102 layer_factory.hpp:77] Creating layer inception_5b/relu_3x3
I0403 15:01:41.989461 18102 net.cpp:91] Creating Layer inception_5b/relu_3x3
I0403 15:01:41.989480 18102 net.cpp:425] inception_5b/relu_3x3 <- inception_5b/3x3
I0403 15:01:41.989497 18102 net.cpp:386] inception_5b/relu_3x3 -> inception_5b/3x3 (in-place)
I0403 15:01:41.989841 18102 net.cpp:141] Setting up inception_5b/relu_3x3
I0403 15:01:41.989868 18102 net.cpp:148] Top shape: 24 384 7 7 (451584)
I0403 15:01:41.989883 18102 net.cpp:156] Memory required for data: 1334273568
I0403 15:01:41.989898 18102 layer_factory.hpp:77] Creating layer inception_5b/5x5_reduce
I0403 15:01:41.989940 18102 net.cpp:91] Creating Layer inception_5b/5x5_reduce
I0403 15:01:41.989965 18102 net.cpp:425] inception_5b/5x5_reduce <- inception_5a/output_inception_5a/output_0_split_2
I0403 15:01:41.989990 18102 net.cpp:399] inception_5b/5x5_reduce -> inception_5b/5x5_reduce
I0403 15:01:41.991374 18102 net.cpp:141] Setting up inception_5b/5x5_reduce
I0403 15:01:41.991402 18102 net.cpp:148] Top shape: 24 48 7 7 (56448)
I0403 15:01:41.991417 18102 net.cpp:156] Memory required for data: 1334499360
I0403 15:01:41.991436 18102 layer_factory.hpp:77] Creating layer inception_5b/relu_5x5_reduce
I0403 15:01:41.991459 18102 net.cpp:91] Creating Layer inception_5b/relu_5x5_reduce
I0403 15:01:41.991477 18102 net.cpp:425] inception_5b/relu_5x5_reduce <- inception_5b/5x5_reduce
I0403 15:01:41.991494 18102 net.cpp:386] inception_5b/relu_5x5_reduce -> inception_5b/5x5_reduce (in-place)
I0403 15:01:41.991879 18102 net.cpp:141] Setting up inception_5b/relu_5x5_reduce
I0403 15:01:41.991906 18102 net.cpp:148] Top shape: 24 48 7 7 (56448)
I0403 15:01:41.991921 18102 net.cpp:156] Memory required for data: 1334725152
I0403 15:01:41.991936 18102 layer_factory.hpp:77] Creating layer inception_5b/5x5
I0403 15:01:41.991963 18102 net.cpp:91] Creating Layer inception_5b/5x5
I0403 15:01:41.991982 18102 net.cpp:425] inception_5b/5x5 <- inception_5b/5x5_reduce
I0403 15:01:41.992002 18102 net.cpp:399] inception_5b/5x5 -> inception_5b/5x5
I0403 15:01:41.994169 18102 net.cpp:141] Setting up inception_5b/5x5
I0403 15:01:41.994197 18102 net.cpp:148] Top shape: 24 128 7 7 (150528)
I0403 15:01:41.994213 18102 net.cpp:156] Memory required for data: 1335327264
I0403 15:01:41.994231 18102 layer_factory.hpp:77] Creating layer inception_5b/relu_5x5
I0403 15:01:41.994253 18102 net.cpp:91] Creating Layer inception_5b/relu_5x5
I0403 15:01:41.994271 18102 net.cpp:425] inception_5b/relu_5x5 <- inception_5b/5x5
I0403 15:01:41.994289 18102 net.cpp:386] inception_5b/relu_5x5 -> inception_5b/5x5 (in-place)
I0403 15:01:41.994493 18102 net.cpp:141] Setting up inception_5b/relu_5x5
I0403 15:01:41.994521 18102 net.cpp:148] Top shape: 24 128 7 7 (150528)
I0403 15:01:41.994537 18102 net.cpp:156] Memory required for data: 1335929376
I0403 15:01:41.994552 18102 layer_factory.hpp:77] Creating layer inception_5b/pool
I0403 15:01:41.994571 18102 net.cpp:91] Creating Layer inception_5b/pool
I0403 15:01:41.994588 18102 net.cpp:425] inception_5b/pool <- inception_5a/output_inception_5a/output_0_split_3
I0403 15:01:41.994608 18102 net.cpp:399] inception_5b/pool -> inception_5b/pool
I0403 15:01:41.994684 18102 net.cpp:141] Setting up inception_5b/pool
I0403 15:01:41.994709 18102 net.cpp:148] Top shape: 24 832 7 7 (978432)
I0403 15:01:41.994724 18102 net.cpp:156] Memory required for data: 1339843104
I0403 15:01:41.994740 18102 layer_factory.hpp:77] Creating layer inception_5b/pool_proj
I0403 15:01:41.994762 18102 net.cpp:91] Creating Layer inception_5b/pool_proj
I0403 15:01:41.994781 18102 net.cpp:425] inception_5b/pool_proj <- inception_5b/pool
I0403 15:01:41.994801 18102 net.cpp:399] inception_5b/pool_proj -> inception_5b/pool_proj
I0403 15:01:41.997251 18102 net.cpp:141] Setting up inception_5b/pool_proj
I0403 15:01:41.997280 18102 net.cpp:148] Top shape: 24 128 7 7 (150528)
I0403 15:01:41.997297 18102 net.cpp:156] Memory required for data: 1340445216
I0403 15:01:41.997316 18102 layer_factory.hpp:77] Creating layer inception_5b/relu_pool_proj
I0403 15:01:41.997336 18102 net.cpp:91] Creating Layer inception_5b/relu_pool_proj
I0403 15:01:41.997354 18102 net.cpp:425] inception_5b/relu_pool_proj <- inception_5b/pool_proj
I0403 15:01:41.997372 18102 net.cpp:386] inception_5b/relu_pool_proj -> inception_5b/pool_proj (in-place)
I0403 15:01:41.997683 18102 net.cpp:141] Setting up inception_5b/relu_pool_proj
I0403 15:01:41.997709 18102 net.cpp:148] Top shape: 24 128 7 7 (150528)
I0403 15:01:41.997725 18102 net.cpp:156] Memory required for data: 1341047328
I0403 15:01:41.997740 18102 layer_factory.hpp:77] Creating layer inception_5b/output
I0403 15:01:41.997761 18102 net.cpp:91] Creating Layer inception_5b/output
I0403 15:01:41.997793 18102 net.cpp:425] inception_5b/output <- inception_5b/1x1
I0403 15:01:41.997812 18102 net.cpp:425] inception_5b/output <- inception_5b/3x3
I0403 15:01:41.997828 18102 net.cpp:425] inception_5b/output <- inception_5b/5x5
I0403 15:01:41.997844 18102 net.cpp:425] inception_5b/output <- inception_5b/pool_proj
I0403 15:01:41.997862 18102 net.cpp:399] inception_5b/output -> inception_5b/output
I0403 15:01:41.997915 18102 net.cpp:141] Setting up inception_5b/output
I0403 15:01:41.997941 18102 net.cpp:148] Top shape: 24 1024 7 7 (1204224)
I0403 15:01:41.997969 18102 net.cpp:156] Memory required for data: 1345864224
I0403 15:01:41.997988 18102 layer_factory.hpp:77] Creating layer pool5/7x7_s1
I0403 15:01:41.998006 18102 net.cpp:91] Creating Layer pool5/7x7_s1
I0403 15:01:41.998023 18102 net.cpp:425] pool5/7x7_s1 <- inception_5b/output
I0403 15:01:41.998044 18102 net.cpp:399] pool5/7x7_s1 -> pool5/7x7_s1
I0403 15:01:41.998273 18102 net.cpp:141] Setting up pool5/7x7_s1
I0403 15:01:41.998299 18102 net.cpp:148] Top shape: 24 1024 1 1 (24576)
I0403 15:01:41.998314 18102 net.cpp:156] Memory required for data: 1345962528
I0403 15:01:41.998329 18102 layer_factory.hpp:77] Creating layer pool5/drop_7x7_s1
I0403 15:01:41.998350 18102 net.cpp:91] Creating Layer pool5/drop_7x7_s1
I0403 15:01:41.998368 18102 net.cpp:425] pool5/drop_7x7_s1 <- pool5/7x7_s1
I0403 15:01:41.998386 18102 net.cpp:386] pool5/drop_7x7_s1 -> pool5/7x7_s1 (in-place)
I0403 15:01:41.998442 18102 net.cpp:141] Setting up pool5/drop_7x7_s1
I0403 15:01:41.998466 18102 net.cpp:148] Top shape: 24 1024 1 1 (24576)
I0403 15:01:41.998481 18102 net.cpp:156] Memory required for data: 1346060832
I0403 15:01:41.998497 18102 layer_factory.hpp:77] Creating layer loss3/classifier_plantvillage
I0403 15:01:41.998517 18102 net.cpp:91] Creating Layer loss3/classifier_plantvillage
I0403 15:01:41.998536 18102 net.cpp:425] loss3/classifier_plantvillage <- pool5/7x7_s1
I0403 15:01:41.998556 18102 net.cpp:399] loss3/classifier_plantvillage -> loss3/classifier_plantvillage
I0403 15:01:41.999011 18102 net.cpp:141] Setting up loss3/classifier_plantvillage
I0403 15:01:41.999037 18102 net.cpp:148] Top shape: 24 38 (912)
I0403 15:01:41.999052 18102 net.cpp:156] Memory required for data: 1346064480
I0403 15:01:41.999070 18102 layer_factory.hpp:77] Creating layer loss3/classifier_plantvillage_loss3/classifier_plantvillage_0_split
I0403 15:01:41.999089 18102 net.cpp:91] Creating Layer loss3/classifier_plantvillage_loss3/classifier_plantvillage_0_split
I0403 15:01:41.999105 18102 net.cpp:425] loss3/classifier_plantvillage_loss3/classifier_plantvillage_0_split <- loss3/classifier_plantvillage
I0403 15:01:41.999126 18102 net.cpp:399] loss3/classifier_plantvillage_loss3/classifier_plantvillage_0_split -> loss3/classifier_plantvillage_loss3/classifier_plantvillage_0_split_0
I0403 15:01:41.999148 18102 net.cpp:399] loss3/classifier_plantvillage_loss3/classifier_plantvillage_0_split -> loss3/classifier_plantvillage_loss3/classifier_plantvillage_0_split_1
I0403 15:01:41.999169 18102 net.cpp:399] loss3/classifier_plantvillage_loss3/classifier_plantvillage_0_split -> loss3/classifier_plantvillage_loss3/classifier_plantvillage_0_split_2
I0403 15:01:41.999191 18102 net.cpp:399] loss3/classifier_plantvillage_loss3/classifier_plantvillage_0_split -> loss3/classifier_plantvillage_loss3/classifier_plantvillage_0_split_3
I0403 15:01:41.999300 18102 net.cpp:141] Setting up loss3/classifier_plantvillage_loss3/classifier_plantvillage_0_split
I0403 15:01:41.999330 18102 net.cpp:148] Top shape: 24 38 (912)
I0403 15:01:41.999346 18102 net.cpp:148] Top shape: 24 38 (912)
I0403 15:01:41.999362 18102 net.cpp:148] Top shape: 24 38 (912)
I0403 15:01:41.999377 18102 net.cpp:148] Top shape: 24 38 (912)
I0403 15:01:41.999392 18102 net.cpp:156] Memory required for data: 1346079072
I0403 15:01:41.999407 18102 layer_factory.hpp:77] Creating layer loss1/loss
I0403 15:01:41.999433 18102 net.cpp:91] Creating Layer loss1/loss
I0403 15:01:41.999451 18102 net.cpp:425] loss1/loss <- loss1/classifier_plantvillage_loss1/classifier_plantvillage_0_split_0
I0403 15:01:41.999483 18102 net.cpp:425] loss1/loss <- label_data_1_split_0
…
