…
I0403 14:53:27.590241 17793 net.cpp:313] The NetState phase (1) differed from the phase (0) specified by a rule in layer data
I0403 14:53:27.591387 17793 net.cpp:49] Initializing net from parameters: 
state {
  phase: TEST
}
layer {
  name: "data"
  type: "Data"
  top: "data"
  top: "label"
  include {
    phase: TEST
  }
  transform_param {
    mirror: false
    crop_size: 224
    mean_file: "/home/mohanty/data/final_dataset/lmdb/grayscale-40-60/mean.binaryproto"
  }
  data_param {
    source: "/home/mohanty/data/final_dataset/lmdb/grayscale-40-60/test_db"
    batch_size: 24
    backend: LMDB
  }
}
layer {
  name: "conv1/7x7_s2"
  type: "Convolution"
  bottom: "data"
  top: "conv1/7x7_s2"
  param {
    lr_mult: 1
    decay_mult: 1
  }
  param {
    lr_mult: 2
    decay_mult: 0
  }
  convolution_param {
    num_output: 64
    pad: 3
    kernel_size: 7
    stride: 2
    weight_filler {
      type: "xavier"
      std: 0.1
    }
    bias_filler {
      type: "constant"
      value: 0.2
    }
  }
}
layer {
  name: "conv1/relu_7x7"
  type: "ReLU"
  bottom: "conv1/7x7_s2"
  top: "conv1/7x7_s2"
}
layer {
  name: "pool1/3x3_s2"
  type: "Pooling"
  bottom: "conv1/7x7_s2"
  top: "pool1/3x3_s2"
  pooling_param {
    pool: MAX
    kernel_size: 3
    stride: 2
  }
}
layer {
  name: "pool1/norm1"
  type: "LRN"
  bottom: "pool1/3x3_s2"
  top: "pool1/norm1"
  lrn_param {
    local_size: 5
    alpha: 0.0001
    beta: 0.75
  }
}
layer {
  name: "conv2/3x3_reduce"
  type: "Convolution"
  bottom: "pool1/norm1"
  top: "conv2/3x3_reduce"
  param {
    lr_mult: 1
    decay_mult: 1
  }
  param {
    lr_mult: 2
    decay_mult: 0
  }
  convolution_param {
    num_output: 64
    kernel_size: 1
    weight_filler {
      type: "xavier"
      std: 0.1
    }
    bias_filler {
      type: "constant"
      value: 0.2
    }
  }
}
layer {
  name: "conv2/relu_3x3_reduce"
  type: "ReLU"
  bottom: "conv2/3x3_reduce"
  top: "conv2/3x3_reduce"
}
layer {
  name: "conv2/3x3"
  type: "Convolution"
  bottom: "conv2/3x3_reduce"
  top: "conv2/3x3"
  param {
    lr_mult: 1
    decay_mult: 1
  }
  param {
    lr_mult: 2
    decay_mult: 0
  }
  convolution_param {
    num_output: 192
    pad: 1
    kernel_size: 3
    weight_filler {
      type: "xavier"
      std: 0.03
    }
    bias_filler {
      type: "constant"
      value: 0.2
    }
  }
}
layer {
  name: "conv2/relu_3x3"
  type: "ReLU"
  bottom: "conv2/3x3"
  top: "conv2/3x3"
}
layer {
  name: "conv2/norm2"
  type: "LRN"
  bottom: "conv2/3x3"
  top: "conv2/norm2"
  lrn_param {
    local_size: 5
    alpha: 0.0001
    beta: 0.75
  }
}
layer {
  name: "pool2/3x3_s2"
  type: "Pooling"
  bottom: "conv2/norm2"
  top: "pool2/3x3_s2"
  pooling_param {
    pool: MAX
    kernel_size: 3
    stride: 2
  }
}
layer {
  name: "inception_3a/1x1"
  type: "Convolution"
  bottom: "pool2/3x3_s2"
  top: "inception_3a/1x1"
  param {
    lr_mult: 1
    decay_mult: 1
  }
  param {
    lr_mult: 2
    decay_mult: 0
  }
  convolution_param {
    num_output: 64
    kernel_size: 1
    weight_filler {
      type: "xavier"
      std: 0.03
    }
    bias_filler {
      type: "constant"
      value: 0.2
    }
  }
}
layer {
  name: "inception_3a/relu_1x1"
  type: "ReLU"
  bottom: "inception_3a/1x1"
  top: "inception_3a/1x1"
}
layer {
  name: "inception_3a/3x3_reduce"
  type: "Convolution"
  bottom: "pool2/3x3_s2"
  top: "inception_3a/3x3_reduce"
  param {
    lr_mult: 1
    decay_mult: 1
  }
  param {
    lr_mult: 2
    decay_mult: 0
  }
  convolution_param {
    num_output: 96
    kernel_size: 1
    weight_filler {
      type: "xavier"
      std: 0.09
    }
    bias_filler {
      type: "constant"
      value: 0.2
    }
  }
}
layer {
  name: "inception_3a/relu_3x3_reduce"
  type: "ReLU"
  bottom: "inception_3a/3x3_reduce"
  top: "inception_3a/3x3_reduce"
}
layer {
  name: "inception_3a/3x3"
  type: "Convolution"
  bottom: "inception_3a/3x3_reduce"
  top: "inception_3a/3x3"
  param {
    lr_mult: 1
    decay_mult: 1
  }
  param {
    lr_mult: 2
    decay_mult: 0
  }
  convolution_param {
    num_output: 128
    pad: 1
    kernel_size: 3
    weight_filler {
      type: "xavier"
      std: 0.03
    }
    bias_filler {
      type: "constant"
      value: 0.2
    }
  }
}
layer {
  name: "inception_3a/relu_3x3"
  type: "ReLU"
  bottom: "inception_3a/3x3"
  top: "inception_3a/3x3"
}
layer {
  name: "inception_3a/5x5_reduce"
  type: "Convolution"
  bottom: "pool2/3x3_s2"
  top: "inception_3a/5x5_reduce"
  param {
    lr_mult: 1
    decay_mult: 1
  }
  param {
    lr_mult: 2
    decay_mult: 0
  }
  convolution_param {
    num_output: 16
    kernel_size: 1
    weight_filler {
      type: "xavier"
      std: 0.2
    }
    bias_filler {
      type: "constant"
      value: 0.2
    }
  }
}
layer {
  name: "inception_3a/relu_5x5_reduce"
  type: "ReLU"
  bottom: "inception_3a/5x5_reduce"
  top: "inception_3a/5x5_reduce"
}
layer {
  name: "inception_3a/5x5"
  type: "Convolution"
  bottom: "inception_3a/5x5_reduce"
  top: "inception_3a/5x5"
  param {
    lr_mult: 1
    decay_mult: 1
  }
  param {
    lr_mult: 2
    decay_mult: 0
  }
  convolution_param {
    num_output: 32
    pad: 2
    kernel_size: 5
    weight_filler {
      type: "xavier"
      std: 0.03
    }
    bias_filler {
      type: "constant"
      value: 0.2
    }
  }
}
layer {
  name: "inception_3a/relu_5x5"
  type: "ReLU"
  bottom: "inception_3a/5x5"
  top: "inception_3a/5x5"
}
layer {
  name: "inception_3a/pool"
  type: "Pooling"
  bottom: "pool2/3x3_s2"
  top: "inception_3a/pool"
  pooling_param {
    pool: MAX
    kernel_size: 3
    stride: 1
    pad: 1
  }
}
layer {
  name: "inception_3a/pool_proj"
  type: "Convolution"
  bottom: "inception_3a/pool"
  top: "inception_3a/pool_proj"
  param {
    lr_mult: 1
    decay_mult: 1
  }
  param {
    lr_mult: 2
    decay_mult: 0
  }
  convolution_param {
    num_output: 32
    kernel_size: 1
    weight_filler {
      type: "xavier"
      std: 0.1
    }
    bias_filler {
      type: "constant"
      value: 0.2
    }
  }
}
layer {
  name: "inception_3a/relu_pool_proj"
  type: "ReLU"
  bottom: "inception_3a/pool_proj"
  top: "inception_3a/pool_proj"
}
layer {
  name: "inception_3a/output"
  type: "Concat"
  bottom: "inception_3a/1x1"
  bottom: "inception_3a/3x3"
  bottom: "inception_3a/5x5"
  bottom: "inception_3a/pool_proj"
  top: "inception_3a/output"
}
layer {
  name: "inception_3b/1x1"
  type: "Convolution"
  bottom: "inception_3a/output"
  top: "inception_3b/1x1"
  param {
    lr_mult: 1
    decay_mult: 1
  }
  param {
    lr_mult: 2
    decay_mult: 0
  }
  convolution_param {
    num_output: 128
    kernel_size: 1
    weight_filler {
      type: "xavier"
      std: 0.03
    }
    bias_filler {
      type: "constant"
      value: 0.2
    }
  }
}
layer {
  name: "inception_3b/relu_1x1"
  type: "ReLU"
  bottom: "inception_3b/1x1"
  top: "inception_3b/1x1"
}
layer {
  name: "inception_3b/3x3_reduce"
  type: "Convolution"
  bottom: "inception_3a/output"
  top: "inception_3b/3x3_reduce"
  param {
    lr_mult: 1
    decay_mult: 1
  }
  param {
    lr_mult: 2
    decay_mult: 0
  }
  convolution_param {
    num_output: 128
    kernel_size: 1
    weight_filler {
      type: "xavier"
      std: 0.09
    }
    bias_filler {
      type: "constant"
      value: 0.2
    }
  }
}
layer {
  name: "inception_3b/relu_3x3_reduce"
  type: "ReLU"
  bottom: "inception_3b/3x3_reduce"
  top: "inception_3b/3x3_reduce"
}
layer {
  name: "inception_3b/3x3"
  type: "Convolution"
  bottom: "inception_3b/3x3_reduce"
  top: "inception_3b/3x3"
  param {
    lr_mult: 1
    decay_mult: 1
  }
  param {
    lr_mult: 2
    decay_mult: 0
  }
  convolution_param {
    num_output: 192
    pad: 1
    kernel_size: 3
    weight_filler {
      type: "xavier"
      std: 0.03
    }
    bias_filler {
      type: "constant"
      value: 0.2
    }
  }
}
layer {
  name: "inception_3b/relu_3x3"
  type: "ReLU"
  bottom: "inception_3b/3x3"
  top: "inception_3b/3x3"
}
layer {
  name: "inception_3b/5x5_reduce"
  type: "Convolution"
  bottom: "inception_3a/output"
  top: "inception_3b/5x5_reduce"
  param {
    lr_mult: 1
    decay_mult: 1
  }
  param {
    lr_mult: 2
    decay_mult: 0
  }
  convolution_param {
    num_output: 32
    kernel_size: 1
    weight_filler {
      type: "xavier"
      std: 0.2
    }
    bias_filler {
      type: "constant"
      value: 0.2
    }
  }
}
layer {
  name: "inception_3b/relu_5x5_reduce"
  type: "ReLU"
  bottom: "inception_3b/5x5_reduce"
  top: "inception_3b/5x5_reduce"
}
layer {
  name: "inception_3b/5x5"
  type: "Convolution"
  bottom: "inception_3b/5x5_reduce"
  top: "inception_3b/5x5"
  param {
    lr_mult: 1
    decay_mult: 1
  }
  param {
    lr_mult: 2
    decay_mult: 0
  }
  convolution_param {
    num_output: 96
    pad: 2
    kernel_size: 5
    weight_filler {
      type: "xavier"
      std: 0.03
    }
    bias_filler {
      type: "constant"
      value: 0.2
    }
  }
}
layer {
  name: "inception_3b/relu_5x5"
  type: "ReLU"
  bottom: "inception_3b/5x5"
  top: "inception_3b/5x5"
}
layer {
  name: "inception_3b/pool"
  type: "Pooling"
  bottom: "inception_3a/output"
  top: "inception_3b/pool"
  pooling_param {
    pool: MAX
    kernel_size: 3
    stride: 1
    pad: 1
  }
}
layer {
  name: "inception_3b/pool_proj"
  type: "Convolution"
  bottom: "inception_3b/pool"
  top: "inception_3b/pool_proj"
  param {
    lr_mult: 1
    decay_mult: 1
  }
  param {
    lr_mult: 2
    decay_mult: 0
  }
  convolution_param {
    num_output: 64
    kernel_size: 1
    weight_filler {
      type: "xavier"
      std: 0.1
    }
    bias_filler {
      type: "constant"
      value: 0.2
    }
  }
}
layer {
  name: "inception_3b/relu_pool_proj"
  type: "ReLU"
  bottom: "inception_3b/pool_proj"
  top: "inception_3b/pool_proj"
}
layer {
  name: "inception_3b/output"
  type: "Concat"
  bottom: "inception_3b/1x1"
  bottom: "inception_3b/3x3"
  bottom: "inception_3b/5x5"
  bottom: "inception_3b/pool_proj"
  top: "inception_3b/output"
}
layer {
  name: "pool3/3x3_s2"
  type: "Pooling"
  bottom: "inception_3b/output"
  top: "pool3/3x3_s2"
  pooling_param {
    pool: MAX
    kernel_size: 3
    stride: 2
  }
}
layer {
  name: "inception_4a/1x1"
  type: "Convolution"
  bottom: "pool3/3x3_s2"
  top: "inception_4a/1x1"
  param {
    lr_mult: 1
    decay_mult: 1
  }
  param {
    lr_mult: 2
    decay_mult: 0
  }
  convolution_param {
    num_output: 192
    kernel_size: 1
    weight_filler {
      type: "xavier"
      std: 0.03
    }
    bias_filler {
      type: "constant"
      value: 0.2
    }
  }
}
layer {
  name: "inception_4a/relu_1x1"
  type: "ReLU"
  bottom: "inception_4a/1x1"
  top: "inception_4a/1x1"
}
layer {
  name: "inception_4a/3x3_reduce"
  type: "Convolution"
  bottom: "pool3/3x3_s2"
  top: "inception_4a/3x3_reduce"
  param {
    lr_mult: 1
    decay_mult: 1
  }
  param {
    lr_mult: 2
    decay_mult: 0
  }
  convolution_param {
    num_output: 96
    kernel_size: 1
    weight_filler {
      type: "xavier"
      std: 0.09
    }
    bias_filler {
      type: "constant"
      value: 0.2
    }
  }
}
layer {
  name: "inception_4a/relu_3x3_reduce"
  type: "ReLU"
  bottom: "inception_4a/3x3_reduce"
  top: "inception_4a/3x3_reduce"
}
layer {
  name: "inception_4a/3x3"
  type: "Convolution"
  bottom: "inception_4a/3x3_reduce"
  top: "inception_4a/3x3"
  param {
    lr_mult: 1
    decay_mult: 1
  }
  param {
    lr_mult: 2
    decay_mult: 0
  }
  convolution_param {
    num_output: 208
    pad: 1
    kernel_size: 3
    weight_filler {
      type: "xavier"
      std: 0.03
    }
    bias_filler {
      type: "constant"
      value: 0.2
    }
  }
}
layer {
  name: "inception_4a/relu_3x3"
  type: "ReLU"
  bottom: "inception_4a/3x3"
  top: "inception_4a/3x3"
}
layer {
  name: "inception_4a/5x5_reduce"
  type: "Convolution"
  bottom: "pool3/3x3_s2"
  top: "inception_4a/5x5_reduce"
  param {
    lr_mult: 1
    decay_mult: 1
  }
  param {
    lr_mult: 2
    decay_mult: 0
  }
  convolution_param {
    num_output: 16
    kernel_size: 1
    weight_filler {
      type: "xavier"
      std: 0.2
    }
    bias_filler {
      type: "constant"
      value: 0.2
    }
  }
}
layer {
  name: "inception_4a/relu_5x5_reduce"
  type: "ReLU"
  bottom: "inception_4a/5x5_reduce"
  top: "inception_4a/5x5_reduce"
}
layer {
  name: "inception_4a/5x5"
  type: "Convolution"
  bottom: "inception_4a/5x5_reduce"
  top: "inception_4a/5x5"
  param {
    lr_mult: 1
    decay_mult: 1
  }
  param {
    lr_mult: 2
    decay_mult: 0
  }
  convolution_param {
    num_output: 48
    pad: 2
    kernel_size: 5
    weight_filler {
      type: "xavier"
      std: 0.03
    }
    bias_filler {
      type: "constant"
      value: 0.2
    }
  }
}
layer {
  name: "inception_4a/relu_5x5"
  type: "ReLU"
  bottom: "inception_4a/5x5"
  top: "inception_4a/5x5"
}
layer {
  name: "inception_4a/pool"
  type: "Pooling"
  bottom: "pool3/3x3_s2"
  top: "inception_4a/pool"
  pooling_param {
    pool: MAX
    kernel_size: 3
    stride: 1
    pad: 1
  }
}
layer {
  name: "inception_4a/pool_proj"
  type: "Convolution"
  bottom: "inception_4a/pool"
  top: "inception_4a/pool_proj"
  param {
    lr_mult: 1
    decay_mult: 1
  }
  param {
    lr_mult: 2
    decay_mult: 0
  }
  convolution_param {
    num_output: 64
    kernel_size: 1
    weight_filler {
      type: "xavier"
      std: 0.1
    }
    bias_filler {
      type: "constant"
      value: 0.2
    }
  }
}
layer {
  name: "inception_4a/relu_pool_proj"
  type: "ReLU"
  bottom: "inception_4a/pool_proj"
  top: "inception_4a/pool_proj"
}
layer {
  name: "inception_4a/output"
  type: "Concat"
  bottom: "inception_4a/1x1"
  bottom: "inception_4a/3x3"
  bottom: "inception_4a/5x5"
  bottom: "inception_4a/pool_proj"
  top: "inception_4a/output"
}
layer {
  name: "loss1/ave_pool"
  type: "Pooling"
  bottom: "inception_4a/output"
  top: "loss1/ave_pool"
  pooling_param {
    pool: AVE
    kernel_size: 5
    stride: 3
  }
}
layer {
  name: "loss1/conv"
  type: "Convolution"
  bottom: "loss1/ave_pool"
  top: "loss1/conv"
  param {
    lr_mult: 1
    decay_mult: 1
  }
  param {
    lr_mult: 2
    decay_mult: 0
  }
  convolution_param {
    num_output: 128
    kernel_size: 1
    weight_filler {
      type: "xavier"
      std: 0.08
    }
    bias_filler {
      type: "constant"
      value: 0.2
    }
  }
}
layer {
  name: "loss1/relu_conv"
  type: "ReLU"
  bottom: "loss1/conv"
  top: "loss1/conv"
}
layer {
  name: "loss1/fc"
  type: "InnerProduct"
  bottom: "loss1/conv"
  top: "loss1/fc"
  param {
    lr_mult: 1
    decay_mult: 1
  }
  param {
    lr_mult: 2
    decay_mult: 0
  }
  inner_product_param {
    num_output: 1024
    weight_filler {
      type: "xavier"
      std: 0.02
    }
    bias_filler {
      type: "constant"
      value: 0.2
    }
  }
}
layer {
  name: "loss1/relu_fc"
  type: "ReLU"
  bottom: "loss1/fc"
  top: "loss1/fc"
}
layer {
  name: "loss1/drop_fc"
  type: "Dropout"
  bottom: "loss1/fc"
  top: "loss1/fc"
  dropout_param {
    dropout_ratio: 0.7
  }
}
layer {
  name: "loss1/classifier_plantvillage"
  type: "InnerProduct"
  bottom: "loss1/fc"
  top: "loss1/classifier_plantvillage"
  param {
    lr_mult: 1
    decay_mult: 1
  }
  param {
    lr_mult: 2
    decay_mult: 0
  }
  inner_product_param {
    num_output: 38
    weight_filler {
      type: "xavier"
      std: 0.0009765625
    }
    bias_filler {
      type: "constant"
      value: 0
    }
  }
}
layer {
  name: "inception_4b/1x1"
  type: "Convolution"
  bottom: "inception_4a/output"
  top: "inception_4b/1x1"
  param {
    lr_mult: 1
    decay_mult: 1
  }
  param {
    lr_mult: 2
    decay_mult: 0
  }
  convolution_param {
    num_output: 160
    kernel_size: 1
    weight_filler {
      type: "xavier"
      std: 0.03
    }
    bias_filler {
      type: "constant"
      value: 0.2
    }
  }
}
layer {
  name: "inception_4b/relu_1x1"
  type: "ReLU"
  bottom: "inception_4b/1x1"
  top: "inception_4b/1x1"
}
layer {
  name: "inception_4b/3x3_reduce"
  type: "Convolution"
  bottom: "inception_4a/output"
  top: "inception_4b/3x3_reduce"
  param {
    lr_mult: 1
    decay_mult: 1
  }
  param {
    lr_mult: 2
    decay_mult: 0
  }
  convolution_param {
    num_output: 112
    kernel_size: 1
    weight_filler {
      type: "xavier"
      std: 0.09
    }
    bias_filler {
      type: "constant"
      value: 0.2
    }
  }
}
layer {
  name: "inception_4b/relu_3x3_reduce"
  type: "ReLU"
  bottom: "inception_4b/3x3_reduce"
  top: "inception_4b/3x3_reduce"
}
layer {
  name: "inception_4b/3x3"
  type: "Convolution"
  bottom: "inception_4b/3x3_reduce"
  top: "inception_4b/3x3"
  param {
    lr_mult: 1
    decay_mult: 1
  }
  param {
    lr_mult: 2
    decay_mult: 0
  }
  convolution_param {
    num_output: 224
    pad: 1
    kernel_size: 3
    weight_filler {
      type: "xavier"
      std: 0.03
    }
    bias_filler {
      type: "constant"
      value: 0.2
    }
  }
}
layer {
  name: "inception_4b/relu_3x3"
  type: "ReLU"
  bottom: "inception_4b/3x3"
  top: "inception_4b/3x3"
}
layer {
  name: "inception_4b/5x5_reduce"
  type: "Convolution"
  bottom: "inception_4a/output"
  top: "inception_4b/5x5_reduce"
  param {
    lr_mult: 1
    decay_mult: 1
  }
  param {
    lr_mult: 2
    decay_mult: 0
  }
  convolution_param {
    num_output: 24
    kernel_size: 1
    weight_filler {
      type: "xavier"
      std: 0.2
    }
    bias_filler {
      type: "constant"
      value: 0.2
    }
  }
}
layer {
  name: "inception_4b/relu_5x5_reduce"
  type: "ReLU"
  bottom: "inception_4b/5x5_reduce"
  top: "inception_4b/5x5_reduce"
}
layer {
  name: "inception_4b/5x5"
  type: "Convolution"
  bottom: "inception_4b/5x5_reduce"
  top: "inception_4b/5x5"
  param {
    lr_mult: 1
    decay_mult: 1
  }
  param {
    lr_mult: 2
    decay_mult: 0
  }
  convolution_param {
    num_output: 64
    pad: 2
    kernel_size: 5
    weight_filler {
      type: "xavier"
      std: 0.03
    }
    bias_filler {
      type: "constant"
      value: 0.2
    }
  }
}
layer {
  name: "inception_4b/relu_5x5"
  type: "ReLU"
  bottom: "inception_4b/5x5"
  top: "inception_4b/5x5"
}
layer {
  name: "inception_4b/pool"
  type: "Pooling"
  bottom: "inception_4a/output"
  top: "inception_4b/pool"
  pooling_param {
    pool: MAX
    kernel_size: 3
    stride: 1
    pad: 1
  }
}
layer {
  name: "inception_4b/pool_proj"
  type: "Convolution"
  bottom: "inception_4b/pool"
  top: "inception_4b/pool_proj"
  param {
    lr_mult: 1
    decay_mult: 1
  }
  param {
    lr_mult: 2
    decay_mult: 0
  }
  convolution_param {
    num_output: 64
    kernel_size: 1
    weight_filler {
      type: "xavier"
      std: 0.1
    }
    bias_filler {
      type: "constant"
      value: 0.2
    }
  }
}
layer {
  name: "inception_4b/relu_pool_proj"
  type: "ReLU"
  bottom: "inception_4b/pool_proj"
  top: "inception_4b/pool_proj"
}
layer {
  name: "inception_4b/output"
  type: "Concat"
  bottom: "inception_4b/1x1"
  bottom: "inception_4b/3x3"
  bottom: "inception_4b/5x5"
  bottom: "inception_4b/pool_proj"
  top: "inception_4b/output"
}
layer {
  name: "inception_4c/1x1"
  type: "Convolution"
  bottom: "inception_4b/output"
  top: "inception_4c/1x1"
  param {
    lr_mult: 1
    decay_mult: 1
  }
  param {
    lr_mult: 2
    decay_mult: 0
  }
  convolution_param {
    num_output: 128
    kernel_size: 1
    weight_filler {
      type: "xavier"
      std: 0.03
    }
    bias_filler {
      type: "constant"
      value: 0.2
    }
  }
}
layer {
  name: "inception_4c/relu_1x1"
  type: "ReLU"
  bottom: "inception_4c/1x1"
  top: "inception_4c/1x1"
}
layer {
  name: "inception_4c/3x3_reduce"
  type: "Convolution"
  bottom: "inception_4b/output"
  top: "inception_4c/3x3_reduce"
  param {
    lr_mult: 1
    decay_mult: 1
  }
  param {
    lr_mult: 2
    decay_mult: 0
  }
  convolution_param {
    num_output: 128
    kernel_size: 1
    weight_filler {
      type: "xavier"
      std: 0.09
    }
    bias_filler {
      type: "constant"
      value: 0.2
    }
  }
}
layer {
  name: "inception_4c/relu_3x3_reduce"
  type: "ReLU"
  bottom: "inception_4c/3x3_reduce"
  top: "inception_4c/3x3_reduce"
}
layer {
  name: "inception_4c/3x3"
  type: "Convolution"
  bottom: "inception_4c/3x3_reduce"
  top: "inception_4c/3x3"
  param {
    lr_mult: 1
    decay_mult: 1
  }
  param {
    lr_mult: 2
    decay_mult: 0
  }
  convolution_param {
    num_output: 256
    pad: 1
    kernel_size: 3
    weight_filler {
      type: "xavier"
      std: 0.03
    }
    bias_filler {
      type: "constant"
      value: 0.2
    }
  }
}
layer {
  name: "inception_4c/relu_3x3"
  type: "ReLU"
  bottom: "inception_4c/3x3"
  top: "inception_4c/3x3"
}
layer {
  name: "inception_4c/5x5_reduce"
  type: "Convolution"
  bottom: "inception_4b/output"
  top: "inception_4c/5x5_reduce"
  param {
    lr_mult: 1
    decay_mult: 1
  }
  param {
    lr_mult: 2
    decay_mult: 0
  }
  convolution_param {
    num_output: 24
    kernel_size: 1
    weight_filler {
      type: "xavier"
      std: 0.2
    }
    bias_filler {
      type: "constant"
      value: 0.2
    }
  }
}
layer {
  name: "inception_4c/relu_5x5_reduce"
  type: "ReLU"
  bottom: "inception_4c/5x5_reduce"
  top: "inception_4c/5x5_reduce"
}
layer {
  name: "inception_4c/5x5"
  type: "Convolution"
  bottom: "inception_4c/5x5_reduce"
  top: "inception_4c/5x5"
  param {
    lr_mult: 1
    decay_mult: 1
  }
  param {
    lr_mult: 2
    decay_mult: 0
  }
  convolution_param {
    num_output: 64
    pad: 2
    kernel_size: 5
    weight_filler {
      type: "xavier"
      std: 0.03
    }
    bias_filler {
      type: "constant"
      value: 0.2
    }
  }
}
layer {
  name: "inception_4c/relu_5x5"
  type: "ReLU"
  bottom: "inception_4c/5x5"
  top: "inception_4c/5x5"
}
layer {
  name: "inception_4c/pool"
  type: "Pooling"
  bottom: "inception_4b/output"
  top: "inception_4c/pool"
  pooling_param {
    pool: MAX
    kernel_size: 3
    stride: 1
    pad: 1
  }
}
layer {
  name: "inception_4c/pool_proj"
  type: "Convolution"
  bottom: "inception_4c/pool"
  top: "inception_4c/pool_proj"
  param {
    lr_mult: 1
    decay_mult: 1
  }
  param {
    lr_mult: 2
    decay_mult: 0
  }
  convolution_param {
    num_output: 64
    kernel_size: 1
    weight_filler {
      type: "xavier"
      std: 0.1
    }
    bias_filler {
      type: "constant"
      value: 0.2
    }
  }
}
layer {
  name: "inception_4c/relu_pool_proj"
  type: "ReLU"
  bottom: "inception_4c/pool_proj"
  top: "inception_4c/pool_proj"
}
layer {
  name: "inception_4c/output"
  type: "Concat"
  bottom: "inception_4c/1x1"
  bottom: "inception_4c/3x3"
  bottom: "inception_4c/5x5"
  bottom: "inception_4c/pool_proj"
  top: "inception_4c/output"
}
layer {
  name: "inception_4d/1x1"
  type: "Convolution"
  bottom: "inception_4c/output"
  top: "inception_4d/1x1"
  param {
    lr_mult: 1
    decay_mult: 1
  }
  param {
    lr_mult: 2
    decay_mult: 0
  }
  convolution_param {
    num_output: 112
    kernel_size: 1
    weight_filler {
      type: "xavier"
      std: 0.03
    }
    bias_filler {
      type: "constant"
      value: 0.2
    }
  }
}
layer {
  name: "inception_4d/relu_1x1"
  type: "ReLU"
  bottom: "inception_4d/1x1"
  top: "inception_4d/1x1"
}
layer {
  name: "inception_4d/3x3_reduce"
  type: "Convolution"
  bottom: "inception_4c/output"
  top: "inception_4d/3x3_reduce"
  param {
    lr_mult: 1
    decay_mult: 1
  }
  param {
    lr_mult: 2
    decay_mult: 0
  }
  convolution_param {
    num_output: 144
    kernel_size: 1
    weight_filler {
      type: "xavier"
      std: 0.09
    }
    bias_filler {
      type: "constant"
      value: 0.2
    }
  }
}
layer {
  name: "inception_4d/relu_3x3_reduce"
  type: "ReLU"
  bottom: "inception_4d/3x3_reduce"
  top: "inception_4d/3x3_reduce"
}
layer {
  name: "inception_4d/3x3"
  type: "Convolution"
  bottom: "inception_4d/3x3_reduce"
  top: "inception_4d/3x3"
  param {
    lr_mult: 1
    decay_mult: 1
  }
  param {
    lr_mult: 2
    decay_mult: 0
  }
  convolution_param {
    num_output: 288
    pad: 1
    kernel_size: 3
    weight_filler {
      type: "xavier"
      std: 0.03
    }
    bias_filler {
      type: "constant"
      value: 0.2
    }
  }
}
layer {
  name: "inception_4d/relu_3x3"
  type: "ReLU"
  bottom: "inception_4d/3x3"
  top: "inception_4d/3x3"
}
layer {
  name: "inception_4d/5x5_reduce"
  type: "Convolution"
  bottom: "inception_4c/output"
  top: "inception_4d/5x5_reduce"
  param {
    lr_mult: 1
    decay_mult: 1
  }
  param {
    lr_mult: 2
    decay_mult: 0
  }
  convolution_param {
    num_output: 32
    kernel_size: 1
    weight_filler {
      type: "xavier"
      std: 0.2
    }
    bias_filler {
      type: "constant"
      value: 0.2
    }
  }
}
layer {
  name: "inception_4d/relu_5x5_reduce"
  type: "ReLU"
  bottom: "inception_4d/5x5_reduce"
  top: "inception_4d/5x5_reduce"
}
layer {
  name: "inception_4d/5x5"
  type: "Convolution"
  bottom: "inception_4d/5x5_reduce"
  top: "inception_4d/5x5"
  param {
    lr_mult: 1
    decay_mult: 1
  }
  param {
    lr_mult: 2
    decay_mult: 0
  }
  convolution_param {
    num_output: 64
    pad: 2
    kernel_size: 5
    weight_filler {
      type: "xavier"
      std: 0.03
    }
    bias_filler {
      type: "constant"
      value: 0.2
    }
  }
}
layer {
  name: "inception_4d/relu_5x5"
  type: "ReLU"
  bottom: "inception_4d/5x5"
  top: "inception_4d/5x5"
}
layer {
  name: "inception_4d/pool"
  type: "Pooling"
  bottom: "inception_4c/output"
  top: "inception_4d/pool"
  pooling_param {
    pool: MAX
    kernel_size: 3
    stride: 1
    pad: 1
  }
}
layer {
  name: "inception_4d/pool_proj"
  type: "Convolution"
  bottom: "inception_4d/pool"
  top: "inception_4d/pool_proj"
  param {
    lr_mult: 1
    decay_mult: 1
  }
  param {
    lr_mult: 2
    decay_mult: 0
  }
  convolution_param {
    num_output: 64
    kernel_size: 1
    weight_filler {
      type: "xavier"
      std: 0.1
    }
    bias_filler {
      type: "constant"
      value: 0.2
    }
  }
}
layer {
  name: "inception_4d/relu_pool_proj"
  type: "ReLU"
  bottom: "inception_4d/pool_proj"
  top: "inception_4d/pool_proj"
}
layer {
  name: "inception_4d/output"
  type: "Concat"
  bottom: "inception_4d/1x1"
  bottom: "inception_4d/3x3"
  bottom: "inception_4d/5x5"
  bottom: "inception_4d/pool_proj"
  top: "inception_4d/output"
}
layer {
  name: "loss2/ave_pool"
  type: "Pooling"
  bottom: "inception_4d/output"
  top: "loss2/ave_pool"
  pooling_param {
    pool: AVE
    kernel_size: 5
    stride: 3
  }
}
layer {
  name: "loss2/conv"
  type: "Convolution"
  bottom: "loss2/ave_pool"
  top: "loss2/conv"
  param {
    lr_mult: 1
    decay_mult: 1
  }
  param {
    lr_mult: 2
    decay_mult: 0
  }
  convolution_param {
    num_output: 128
    kernel_size: 1
    weight_filler {
      type: "xavier"
      std: 0.08
    }
    bias_filler {
      type: "constant"
      value: 0.2
    }
  }
}
layer {
  name: "loss2/relu_conv"
  type: "ReLU"
  bottom: "loss2/conv"
  top: "loss2/conv"
}
layer {
  name: "loss2/fc"
  type: "InnerProduct"
  bottom: "loss2/conv"
  top: "loss2/fc"
  param {
    lr_mult: 1
    decay_mult: 1
  }
  param {
    lr_mult: 2
    decay_mult: 0
  }
  inner_product_param {
    num_output: 1024
    weight_filler {
      type: "xavier"
      std: 0.02
    }
    bias_filler {
      type: "constant"
      value: 0.2
    }
  }
}
layer {
  name: "loss2/relu_fc"
  type: "ReLU"
  bottom: "loss2/fc"
  top: "loss2/fc"
}
layer {
  name: "loss2/drop_fc"
  type: "Dropout"
  bottom: "loss2/fc"
  top: "loss2/fc"
  dropout_param {
    dropout_ratio: 0.7
  }
}
layer {
  name: "loss2/classifier_plantvillage"
  type: "InnerProduct"
  bottom: "loss2/fc"
  top: "loss2/classifier_plantvillage"
  param {
    lr_mult: 1
    decay_mult: 1
  }
  param {
    lr_mult: 2
    decay_mult: 0
  }
  inner_product_param {
    num_output: 38
    weight_filler {
      type: "xavier"
      std: 0.0009765625
    }
    bias_filler {
      type: "constant"
      value: 0
    }
  }
}
layer {
  name: "inception_4e/1x1"
  type: "Convolution"
  bottom: "inception_4d/output"
  top: "inception_4e/1x1"
  param {
    lr_mult: 1
    decay_mult: 1
  }
  param {
    lr_mult: 2
    decay_mult: 0
  }
  convolution_param {
    num_output: 256
    kernel_size: 1
    weight_filler {
      type: "xavier"
      std: 0.03
    }
    bias_filler {
      type: "constant"
      value: 0.2
    }
  }
}
layer {
  name: "inception_4e/relu_1x1"
  type: "ReLU"
  bottom: "inception_4e/1x1"
  top: "inception_4e/1x1"
}
layer {
  name: "inception_4e/3x3_reduce"
  type: "Convolution"
  bottom: "inception_4d/output"
  top: "inception_4e/3x3_reduce"
  param {
    lr_mult: 1
    decay_mult: 1
  }
  param {
    lr_mult: 2
    decay_mult: 0
  }
  convolution_param {
    num_output: 160
    kernel_size: 1
    weight_filler {
      type: "xavier"
      std: 0.09
    }
    bias_filler {
      type: "constant"
      value: 0.2
    }
  }
}
layer {
  name: "inception_4e/relu_3x3_reduce"
  type: "ReLU"
  bottom: "inception_4e/3x3_reduce"
  top: "inception_4e/3x3_reduce"
}
layer {
  name: "inception_4e/3x3"
  type: "Convolution"
  bottom: "inception_4e/3x3_reduce"
  top: "inception_4e/3x3"
  param {
    lr_mult: 1
    decay_mult: 1
  }
  param {
    lr_mult: 2
    decay_mult: 0
  }
  convolution_param {
    num_output: 320
    pad: 1
    kernel_size: 3
    weight_filler {
      type: "xavier"
      std: 0.03
    }
    bias_filler {
      type: "constant"
      value: 0.2
    }
  }
}
layer {
  name: "inception_4e/relu_3x3"
  type: "ReLU"
  bottom: "inception_4e/3x3"
  top: "inception_4e/3x3"
}
layer {
  name: "inception_4e/5x5_reduce"
  type: "Convolution"
  bottom: "inception_4d/output"
  top: "inception_4e/5x5_reduce"
  param {
    lr_mult: 1
    decay_mult: 1
  }
  param {
    lr_mult: 2
    decay_mult: 0
  }
  convolution_param {
    num_output: 32
    kernel_size: 1
    weight_filler {
      type: "xavier"
      std: 0.2
    }
    bias_filler {
      type: "constant"
      value: 0.2
    }
  }
}
layer {
  name: "inception_4e/relu_5x5_reduce"
  type: "ReLU"
  bottom: "inception_4e/5x5_reduce"
  top: "inception_4e/5x5_reduce"
}
layer {
  name: "inception_4e/5x5"
  type: "Convolution"
  bottom: "inception_4e/5x5_reduce"
  top: "inception_4e/
I0403 14:53:27.592614 17793 layer_factory.hpp:77] Creating layer data
I0403 14:53:27.593194 17793 net.cpp:91] Creating Layer data
I0403 14:53:27.593224 17793 net.cpp:399] data -> data
I0403 14:53:27.593288 17793 net.cpp:399] data -> label
I0403 14:53:27.593324 17793 data_transformer.cpp:25] Loading mean file from: /home/mohanty/data/final_dataset/lmdb/grayscale-40-60/mean.binaryproto
I0403 14:53:27.595959 17797 db_lmdb.cpp:38] Opened lmdb /home/mohanty/data/final_dataset/lmdb/grayscale-40-60/test_db
I0403 14:53:27.606780 17793 data_layer.cpp:41] output data size: 24,3,224,224
I0403 14:53:27.636757 17793 net.cpp:141] Setting up data
I0403 14:53:27.636860 17793 net.cpp:148] Top shape: 24 3 224 224 (3612672)
I0403 14:53:27.636883 17793 net.cpp:148] Top shape: 24 (24)
I0403 14:53:27.636898 17793 net.cpp:156] Memory required for data: 14450784
I0403 14:53:27.636925 17793 layer_factory.hpp:77] Creating layer label_data_1_split
I0403 14:53:27.636952 17793 net.cpp:91] Creating Layer label_data_1_split
I0403 14:53:27.636970 17793 net.cpp:425] label_data_1_split <- label
I0403 14:53:27.637024 17793 net.cpp:399] label_data_1_split -> label_data_1_split_0
I0403 14:53:27.637058 17793 net.cpp:399] label_data_1_split -> label_data_1_split_1
I0403 14:53:27.637079 17793 net.cpp:399] label_data_1_split -> label_data_1_split_2
I0403 14:53:27.637099 17793 net.cpp:399] label_data_1_split -> label_data_1_split_3
I0403 14:53:27.637120 17793 net.cpp:399] label_data_1_split -> label_data_1_split_4
I0403 14:53:27.637140 17793 net.cpp:399] label_data_1_split -> label_data_1_split_5
I0403 14:53:27.637158 17793 net.cpp:399] label_data_1_split -> label_data_1_split_6
I0403 14:53:27.637179 17793 net.cpp:399] label_data_1_split -> label_data_1_split_7
I0403 14:53:27.637199 17793 net.cpp:399] label_data_1_split -> label_data_1_split_8
I0403 14:53:27.637220 17793 net.cpp:399] label_data_1_split -> label_data_1_split_9
I0403 14:53:27.637352 17793 net.cpp:141] Setting up label_data_1_split
I0403 14:53:27.637377 17793 net.cpp:148] Top shape: 24 (24)
I0403 14:53:27.637393 17793 net.cpp:148] Top shape: 24 (24)
I0403 14:53:27.637408 17793 net.cpp:148] Top shape: 24 (24)
I0403 14:53:27.637424 17793 net.cpp:148] Top shape: 24 (24)
I0403 14:53:27.637439 17793 net.cpp:148] Top shape: 24 (24)
I0403 14:53:27.637454 17793 net.cpp:148] Top shape: 24 (24)
I0403 14:53:27.637470 17793 net.cpp:148] Top shape: 24 (24)
I0403 14:53:27.637485 17793 net.cpp:148] Top shape: 24 (24)
I0403 14:53:27.637501 17793 net.cpp:148] Top shape: 24 (24)
I0403 14:53:27.637516 17793 net.cpp:148] Top shape: 24 (24)
I0403 14:53:27.637562 17793 net.cpp:156] Memory required for data: 14451744
I0403 14:53:27.637578 17793 layer_factory.hpp:77] Creating layer conv1/7x7_s2
I0403 14:53:27.637609 17793 net.cpp:91] Creating Layer conv1/7x7_s2
I0403 14:53:27.637627 17793 net.cpp:425] conv1/7x7_s2 <- data
I0403 14:53:27.637646 17793 net.cpp:399] conv1/7x7_s2 -> conv1/7x7_s2
I0403 14:53:27.781602 17793 net.cpp:141] Setting up conv1/7x7_s2
I0403 14:53:27.781692 17793 net.cpp:148] Top shape: 24 64 112 112 (19267584)
I0403 14:53:27.781708 17793 net.cpp:156] Memory required for data: 91522080
I0403 14:53:27.781738 17793 layer_factory.hpp:77] Creating layer conv1/relu_7x7
I0403 14:53:27.781764 17793 net.cpp:91] Creating Layer conv1/relu_7x7
I0403 14:53:27.781782 17793 net.cpp:425] conv1/relu_7x7 <- conv1/7x7_s2
I0403 14:53:27.781801 17793 net.cpp:386] conv1/relu_7x7 -> conv1/7x7_s2 (in-place)
I0403 14:53:27.782068 17793 net.cpp:141] Setting up conv1/relu_7x7
I0403 14:53:27.782096 17793 net.cpp:148] Top shape: 24 64 112 112 (19267584)
I0403 14:53:27.782111 17793 net.cpp:156] Memory required for data: 168592416
I0403 14:53:27.782127 17793 layer_factory.hpp:77] Creating layer pool1/3x3_s2
I0403 14:53:27.782152 17793 net.cpp:91] Creating Layer pool1/3x3_s2
I0403 14:53:27.782171 17793 net.cpp:425] pool1/3x3_s2 <- conv1/7x7_s2
I0403 14:53:27.782188 17793 net.cpp:399] pool1/3x3_s2 -> pool1/3x3_s2
I0403 14:53:27.782277 17793 net.cpp:141] Setting up pool1/3x3_s2
I0403 14:53:27.782304 17793 net.cpp:148] Top shape: 24 64 56 56 (4816896)
I0403 14:53:27.782318 17793 net.cpp:156] Memory required for data: 187860000
I0403 14:53:27.782333 17793 layer_factory.hpp:77] Creating layer pool1/norm1
I0403 14:53:27.782358 17793 net.cpp:91] Creating Layer pool1/norm1
I0403 14:53:27.782377 17793 net.cpp:425] pool1/norm1 <- pool1/3x3_s2
I0403 14:53:27.782394 17793 net.cpp:399] pool1/norm1 -> pool1/norm1
I0403 14:53:27.782701 17793 net.cpp:141] Setting up pool1/norm1
I0403 14:53:27.782727 17793 net.cpp:148] Top shape: 24 64 56 56 (4816896)
I0403 14:53:27.782743 17793 net.cpp:156] Memory required for data: 207127584
I0403 14:53:27.782758 17793 layer_factory.hpp:77] Creating layer conv2/3x3_reduce
I0403 14:53:27.782783 17793 net.cpp:91] Creating Layer conv2/3x3_reduce
I0403 14:53:27.782799 17793 net.cpp:425] conv2/3x3_reduce <- pool1/norm1
I0403 14:53:27.782817 17793 net.cpp:399] conv2/3x3_reduce -> conv2/3x3_reduce
I0403 14:53:27.784214 17793 net.cpp:141] Setting up conv2/3x3_reduce
I0403 14:53:27.784247 17793 net.cpp:148] Top shape: 24 64 56 56 (4816896)
I0403 14:53:27.784263 17793 net.cpp:156] Memory required for data: 226395168
I0403 14:53:27.784284 17793 layer_factory.hpp:77] Creating layer conv2/relu_3x3_reduce
I0403 14:53:27.784303 17793 net.cpp:91] Creating Layer conv2/relu_3x3_reduce
I0403 14:53:27.784319 17793 net.cpp:425] conv2/relu_3x3_reduce <- conv2/3x3_reduce
I0403 14:53:27.784337 17793 net.cpp:386] conv2/relu_3x3_reduce -> conv2/3x3_reduce (in-place)
I0403 14:53:27.784610 17793 net.cpp:141] Setting up conv2/relu_3x3_reduce
I0403 14:53:27.784641 17793 net.cpp:148] Top shape: 24 64 56 56 (4816896)
I0403 14:53:27.784657 17793 net.cpp:156] Memory required for data: 245662752
I0403 14:53:27.784672 17793 layer_factory.hpp:77] Creating layer conv2/3x3
I0403 14:53:27.784695 17793 net.cpp:91] Creating Layer conv2/3x3
I0403 14:53:27.784714 17793 net.cpp:425] conv2/3x3 <- conv2/3x3_reduce
I0403 14:53:27.784734 17793 net.cpp:399] conv2/3x3 -> conv2/3x3
I0403 14:53:27.787111 17793 net.cpp:141] Setting up conv2/3x3
I0403 14:53:27.787148 17793 net.cpp:148] Top shape: 24 192 56 56 (14450688)
I0403 14:53:27.787168 17793 net.cpp:156] Memory required for data: 303465504
I0403 14:53:27.787189 17793 layer_factory.hpp:77] Creating layer conv2/relu_3x3
I0403 14:53:27.787209 17793 net.cpp:91] Creating Layer conv2/relu_3x3
I0403 14:53:27.787225 17793 net.cpp:425] conv2/relu_3x3 <- conv2/3x3
I0403 14:53:27.787242 17793 net.cpp:386] conv2/relu_3x3 -> conv2/3x3 (in-place)
I0403 14:53:27.787437 17793 net.cpp:141] Setting up conv2/relu_3x3
I0403 14:53:27.787463 17793 net.cpp:148] Top shape: 24 192 56 56 (14450688)
I0403 14:53:27.787509 17793 net.cpp:156] Memory required for data: 361268256
I0403 14:53:27.787525 17793 layer_factory.hpp:77] Creating layer conv2/norm2
I0403 14:53:27.787546 17793 net.cpp:91] Creating Layer conv2/norm2
I0403 14:53:27.787564 17793 net.cpp:425] conv2/norm2 <- conv2/3x3
I0403 14:53:27.787582 17793 net.cpp:399] conv2/norm2 -> conv2/norm2
I0403 14:53:27.787891 17793 net.cpp:141] Setting up conv2/norm2
I0403 14:53:27.787919 17793 net.cpp:148] Top shape: 24 192 56 56 (14450688)
I0403 14:53:27.787933 17793 net.cpp:156] Memory required for data: 419071008
I0403 14:53:27.787948 17793 layer_factory.hpp:77] Creating layer pool2/3x3_s2
I0403 14:53:27.787971 17793 net.cpp:91] Creating Layer pool2/3x3_s2
I0403 14:53:27.787992 17793 net.cpp:425] pool2/3x3_s2 <- conv2/norm2
I0403 14:53:27.788012 17793 net.cpp:399] pool2/3x3_s2 -> pool2/3x3_s2
I0403 14:53:27.788066 17793 net.cpp:141] Setting up pool2/3x3_s2
I0403 14:53:27.788090 17793 net.cpp:148] Top shape: 24 192 28 28 (3612672)
I0403 14:53:27.788105 17793 net.cpp:156] Memory required for data: 433521696
I0403 14:53:27.788118 17793 layer_factory.hpp:77] Creating layer pool2/3x3_s2_pool2/3x3_s2_0_split
I0403 14:53:27.788136 17793 net.cpp:91] Creating Layer pool2/3x3_s2_pool2/3x3_s2_0_split
I0403 14:53:27.788151 17793 net.cpp:425] pool2/3x3_s2_pool2/3x3_s2_0_split <- pool2/3x3_s2
I0403 14:53:27.788172 17793 net.cpp:399] pool2/3x3_s2_pool2/3x3_s2_0_split -> pool2/3x3_s2_pool2/3x3_s2_0_split_0
I0403 14:53:27.788192 17793 net.cpp:399] pool2/3x3_s2_pool2/3x3_s2_0_split -> pool2/3x3_s2_pool2/3x3_s2_0_split_1
I0403 14:53:27.788213 17793 net.cpp:399] pool2/3x3_s2_pool2/3x3_s2_0_split -> pool2/3x3_s2_pool2/3x3_s2_0_split_2
I0403 14:53:27.788233 17793 net.cpp:399] pool2/3x3_s2_pool2/3x3_s2_0_split -> pool2/3x3_s2_pool2/3x3_s2_0_split_3
I0403 14:53:27.788306 17793 net.cpp:141] Setting up pool2/3x3_s2_pool2/3x3_s2_0_split
I0403 14:53:27.788332 17793 net.cpp:148] Top shape: 24 192 28 28 (3612672)
I0403 14:53:27.788348 17793 net.cpp:148] Top shape: 24 192 28 28 (3612672)
I0403 14:53:27.788364 17793 net.cpp:148] Top shape: 24 192 28 28 (3612672)
I0403 14:53:27.788379 17793 net.cpp:148] Top shape: 24 192 28 28 (3612672)
I0403 14:53:27.788393 17793 net.cpp:156] Memory required for data: 491324448
I0403 14:53:27.788408 17793 layer_factory.hpp:77] Creating layer inception_3a/1x1
I0403 14:53:27.788430 17793 net.cpp:91] Creating Layer inception_3a/1x1
I0403 14:53:27.788447 17793 net.cpp:425] inception_3a/1x1 <- pool2/3x3_s2_pool2/3x3_s2_0_split_0
I0403 14:53:27.788466 17793 net.cpp:399] inception_3a/1x1 -> inception_3a/1x1
I0403 14:53:27.790062 17793 net.cpp:141] Setting up inception_3a/1x1
I0403 14:53:27.790092 17793 net.cpp:148] Top shape: 24 64 28 28 (1204224)
I0403 14:53:27.790108 17793 net.cpp:156] Memory required for data: 496141344
I0403 14:53:27.790127 17793 layer_factory.hpp:77] Creating layer inception_3a/relu_1x1
I0403 14:53:27.790148 17793 net.cpp:91] Creating Layer inception_3a/relu_1x1
I0403 14:53:27.790164 17793 net.cpp:425] inception_3a/relu_1x1 <- inception_3a/1x1
I0403 14:53:27.790181 17793 net.cpp:386] inception_3a/relu_1x1 -> inception_3a/1x1 (in-place)
I0403 14:53:27.790360 17793 net.cpp:141] Setting up inception_3a/relu_1x1
I0403 14:53:27.790386 17793 net.cpp:148] Top shape: 24 64 28 28 (1204224)
I0403 14:53:27.790401 17793 net.cpp:156] Memory required for data: 500958240
I0403 14:53:27.790416 17793 layer_factory.hpp:77] Creating layer inception_3a/3x3_reduce
I0403 14:53:27.790438 17793 net.cpp:91] Creating Layer inception_3a/3x3_reduce
I0403 14:53:27.790457 17793 net.cpp:425] inception_3a/3x3_reduce <- pool2/3x3_s2_pool2/3x3_s2_0_split_1
I0403 14:53:27.790477 17793 net.cpp:399] inception_3a/3x3_reduce -> inception_3a/3x3_reduce
I0403 14:53:27.792258 17793 net.cpp:141] Setting up inception_3a/3x3_reduce
I0403 14:53:27.792290 17793 net.cpp:148] Top shape: 24 96 28 28 (1806336)
I0403 14:53:27.792309 17793 net.cpp:156] Memory required for data: 508183584
I0403 14:53:27.792330 17793 layer_factory.hpp:77] Creating layer inception_3a/relu_3x3_reduce
I0403 14:53:27.792369 17793 net.cpp:91] Creating Layer inception_3a/relu_3x3_reduce
I0403 14:53:27.792389 17793 net.cpp:425] inception_3a/relu_3x3_reduce <- inception_3a/3x3_reduce
I0403 14:53:27.792412 17793 net.cpp:386] inception_3a/relu_3x3_reduce -> inception_3a/3x3_reduce (in-place)
I0403 14:53:27.792598 17793 net.cpp:141] Setting up inception_3a/relu_3x3_reduce
I0403 14:53:27.792624 17793 net.cpp:148] Top shape: 24 96 28 28 (1806336)
I0403 14:53:27.792639 17793 net.cpp:156] Memory required for data: 515408928
I0403 14:53:27.792654 17793 layer_factory.hpp:77] Creating layer inception_3a/3x3
I0403 14:53:27.792677 17793 net.cpp:91] Creating Layer inception_3a/3x3
I0403 14:53:27.792695 17793 net.cpp:425] inception_3a/3x3 <- inception_3a/3x3_reduce
I0403 14:53:27.792717 17793 net.cpp:399] inception_3a/3x3 -> inception_3a/3x3
I0403 14:53:27.794492 17793 net.cpp:141] Setting up inception_3a/3x3
I0403 14:53:27.794524 17793 net.cpp:148] Top shape: 24 128 28 28 (2408448)
I0403 14:53:27.794540 17793 net.cpp:156] Memory required for data: 525042720
I0403 14:53:27.794559 17793 layer_factory.hpp:77] Creating layer inception_3a/relu_3x3
I0403 14:53:27.794577 17793 net.cpp:91] Creating Layer inception_3a/relu_3x3
I0403 14:53:27.794594 17793 net.cpp:425] inception_3a/relu_3x3 <- inception_3a/3x3
I0403 14:53:27.794613 17793 net.cpp:386] inception_3a/relu_3x3 -> inception_3a/3x3 (in-place)
I0403 14:53:27.794905 17793 net.cpp:141] Setting up inception_3a/relu_3x3
I0403 14:53:27.794935 17793 net.cpp:148] Top shape: 24 128 28 28 (2408448)
I0403 14:53:27.794951 17793 net.cpp:156] Memory required for data: 534676512
I0403 14:53:27.794966 17793 layer_factory.hpp:77] Creating layer inception_3a/5x5_reduce
I0403 14:53:27.794993 17793 net.cpp:91] Creating Layer inception_3a/5x5_reduce
I0403 14:53:27.795012 17793 net.cpp:425] inception_3a/5x5_reduce <- pool2/3x3_s2_pool2/3x3_s2_0_split_2
I0403 14:53:27.795032 17793 net.cpp:399] inception_3a/5x5_reduce -> inception_3a/5x5_reduce
I0403 14:53:27.796052 17793 net.cpp:141] Setting up inception_3a/5x5_reduce
I0403 14:53:27.796084 17793 net.cpp:148] Top shape: 24 16 28 28 (301056)
I0403 14:53:27.796102 17793 net.cpp:156] Memory required for data: 535880736
I0403 14:53:27.796120 17793 layer_factory.hpp:77] Creating layer inception_3a/relu_5x5_reduce
I0403 14:53:27.796139 17793 net.cpp:91] Creating Layer inception_3a/relu_5x5_reduce
I0403 14:53:27.796156 17793 net.cpp:425] inception_3a/relu_5x5_reduce <- inception_3a/5x5_reduce
I0403 14:53:27.796177 17793 net.cpp:386] inception_3a/relu_5x5_reduce -> inception_3a/5x5_reduce (in-place)
I0403 14:53:27.796511 17793 net.cpp:141] Setting up inception_3a/relu_5x5_reduce
I0403 14:53:27.796538 17793 net.cpp:148] Top shape: 24 16 28 28 (301056)
I0403 14:53:27.796553 17793 net.cpp:156] Memory required for data: 537084960
I0403 14:53:27.796568 17793 layer_factory.hpp:77] Creating layer inception_3a/5x5
I0403 14:53:27.796591 17793 net.cpp:91] Creating Layer inception_3a/5x5
I0403 14:53:27.796608 17793 net.cpp:425] inception_3a/5x5 <- inception_3a/5x5_reduce
I0403 14:53:27.796629 17793 net.cpp:399] inception_3a/5x5 -> inception_3a/5x5
I0403 14:53:27.797670 17793 net.cpp:141] Setting up inception_3a/5x5
I0403 14:53:27.797701 17793 net.cpp:148] Top shape: 24 32 28 28 (602112)
I0403 14:53:27.797718 17793 net.cpp:156] Memory required for data: 539493408
I0403 14:53:27.797736 17793 layer_factory.hpp:77] Creating layer inception_3a/relu_5x5
I0403 14:53:27.797755 17793 net.cpp:91] Creating Layer inception_3a/relu_5x5
I0403 14:53:27.797770 17793 net.cpp:425] inception_3a/relu_5x5 <- inception_3a/5x5
I0403 14:53:27.797791 17793 net.cpp:386] inception_3a/relu_5x5 -> inception_3a/5x5 (in-place)
I0403 14:53:27.797971 17793 net.cpp:141] Setting up inception_3a/relu_5x5
I0403 14:53:27.798002 17793 net.cpp:148] Top shape: 24 32 28 28 (602112)
I0403 14:53:27.798017 17793 net.cpp:156] Memory required for data: 541901856
I0403 14:53:27.798032 17793 layer_factory.hpp:77] Creating layer inception_3a/pool
I0403 14:53:27.798048 17793 net.cpp:91] Creating Layer inception_3a/pool
I0403 14:53:27.798079 17793 net.cpp:425] inception_3a/pool <- pool2/3x3_s2_pool2/3x3_s2_0_split_3
I0403 14:53:27.798100 17793 net.cpp:399] inception_3a/pool -> inception_3a/pool
I0403 14:53:27.798158 17793 net.cpp:141] Setting up inception_3a/pool
I0403 14:53:27.798182 17793 net.cpp:148] Top shape: 24 192 28 28 (3612672)
I0403 14:53:27.798197 17793 net.cpp:156] Memory required for data: 556352544
I0403 14:53:27.798210 17793 layer_factory.hpp:77] Creating layer inception_3a/pool_proj
I0403 14:53:27.798236 17793 net.cpp:91] Creating Layer inception_3a/pool_proj
I0403 14:53:27.798254 17793 net.cpp:425] inception_3a/pool_proj <- inception_3a/pool
I0403 14:53:27.798274 17793 net.cpp:399] inception_3a/pool_proj -> inception_3a/pool_proj
I0403 14:53:27.799305 17793 net.cpp:141] Setting up inception_3a/pool_proj
I0403 14:53:27.799334 17793 net.cpp:148] Top shape: 24 32 28 28 (602112)
I0403 14:53:27.799350 17793 net.cpp:156] Memory required for data: 558760992
I0403 14:53:27.799374 17793 layer_factory.hpp:77] Creating layer inception_3a/relu_pool_proj
I0403 14:53:27.799394 17793 net.cpp:91] Creating Layer inception_3a/relu_pool_proj
I0403 14:53:27.799410 17793 net.cpp:425] inception_3a/relu_pool_proj <- inception_3a/pool_proj
I0403 14:53:27.799430 17793 net.cpp:386] inception_3a/relu_pool_proj -> inception_3a/pool_proj (in-place)
I0403 14:53:27.799711 17793 net.cpp:141] Setting up inception_3a/relu_pool_proj
I0403 14:53:27.799741 17793 net.cpp:148] Top shape: 24 32 28 28 (602112)
I0403 14:53:27.799757 17793 net.cpp:156] Memory required for data: 561169440
I0403 14:53:27.799772 17793 layer_factory.hpp:77] Creating layer inception_3a/output
I0403 14:53:27.799790 17793 net.cpp:91] Creating Layer inception_3a/output
I0403 14:53:27.799806 17793 net.cpp:425] inception_3a/output <- inception_3a/1x1
I0403 14:53:27.799823 17793 net.cpp:425] inception_3a/output <- inception_3a/3x3
I0403 14:53:27.799839 17793 net.cpp:425] inception_3a/output <- inception_3a/5x5
I0403 14:53:27.799854 17793 net.cpp:425] inception_3a/output <- inception_3a/pool_proj
I0403 14:53:27.799873 17793 net.cpp:399] inception_3a/output -> inception_3a/output
I0403 14:53:27.799921 17793 net.cpp:141] Setting up inception_3a/output
I0403 14:53:27.799957 17793 net.cpp:148] Top shape: 24 256 28 28 (4816896)
I0403 14:53:27.799974 17793 net.cpp:156] Memory required for data: 580437024
I0403 14:53:27.799995 17793 layer_factory.hpp:77] Creating layer inception_3a/output_inception_3a/output_0_split
I0403 14:53:27.800017 17793 net.cpp:91] Creating Layer inception_3a/output_inception_3a/output_0_split
I0403 14:53:27.800034 17793 net.cpp:425] inception_3a/output_inception_3a/output_0_split <- inception_3a/output
I0403 14:53:27.800052 17793 net.cpp:399] inception_3a/output_inception_3a/output_0_split -> inception_3a/output_inception_3a/output_0_split_0
I0403 14:53:27.800073 17793 net.cpp:399] inception_3a/output_inception_3a/output_0_split -> inception_3a/output_inception_3a/output_0_split_1
I0403 14:53:27.800099 17793 net.cpp:399] inception_3a/output_inception_3a/output_0_split -> inception_3a/output_inception_3a/output_0_split_2
I0403 14:53:27.800122 17793 net.cpp:399] inception_3a/output_inception_3a/output_0_split -> inception_3a/output_inception_3a/output_0_split_3
I0403 14:53:27.800199 17793 net.cpp:141] Setting up inception_3a/output_inception_3a/output_0_split
I0403 14:53:27.800225 17793 net.cpp:148] Top shape: 24 256 28 28 (4816896)
I0403 14:53:27.800243 17793 net.cpp:148] Top shape: 24 256 28 28 (4816896)
I0403 14:53:27.800259 17793 net.cpp:148] Top shape: 24 256 28 28 (4816896)
I0403 14:53:27.800287 17793 net.cpp:148] Top shape: 24 256 28 28 (4816896)
I0403 14:53:27.800299 17793 net.cpp:156] Memory required for data: 657507360
I0403 14:53:27.800314 17793 layer_factory.hpp:77] Creating layer inception_3b/1x1
I0403 14:53:27.800336 17793 net.cpp:91] Creating Layer inception_3b/1x1
I0403 14:53:27.800354 17793 net.cpp:425] inception_3b/1x1 <- inception_3a/output_inception_3a/output_0_split_0
I0403 14:53:27.800374 17793 net.cpp:399] inception_3b/1x1 -> inception_3b/1x1
I0403 14:53:27.801544 17793 net.cpp:141] Setting up inception_3b/1x1
I0403 14:53:27.801584 17793 net.cpp:148] Top shape: 24 128 28 28 (2408448)
I0403 14:53:27.801601 17793 net.cpp:156] Memory required for data: 667141152
I0403 14:53:27.801620 17793 layer_factory.hpp:77] Creating layer inception_3b/relu_1x1
I0403 14:53:27.801641 17793 net.cpp:91] Creating Layer inception_3b/relu_1x1
I0403 14:53:27.801658 17793 net.cpp:425] inception_3b/relu_1x1 <- inception_3b/1x1
I0403 14:53:27.801676 17793 net.cpp:386] inception_3b/relu_1x1 -> inception_3b/1x1 (in-place)
I0403 14:53:27.801861 17793 net.cpp:141] Setting up inception_3b/relu_1x1
I0403 14:53:27.801888 17793 net.cpp:148] Top shape: 24 128 28 28 (2408448)
I0403 14:53:27.801903 17793 net.cpp:156] Memory required for data: 676774944
I0403 14:53:27.801918 17793 layer_factory.hpp:77] Creating layer inception_3b/3x3_reduce
I0403 14:53:27.801940 17793 net.cpp:91] Creating Layer inception_3b/3x3_reduce
I0403 14:53:27.801959 17793 net.cpp:425] inception_3b/3x3_reduce <- inception_3a/output_inception_3a/output_0_split_1
I0403 14:53:27.801977 17793 net.cpp:399] inception_3b/3x3_reduce -> inception_3b/3x3_reduce
I0403 14:53:27.803143 17793 net.cpp:141] Setting up inception_3b/3x3_reduce
I0403 14:53:27.803171 17793 net.cpp:148] Top shape: 24 128 28 28 (2408448)
I0403 14:53:27.803186 17793 net.cpp:156] Memory required for data: 686408736
I0403 14:53:27.803205 17793 layer_factory.hpp:77] Creating layer inception_3b/relu_3x3_reduce
I0403 14:53:27.803225 17793 net.cpp:91] Creating Layer inception_3b/relu_3x3_reduce
I0403 14:53:27.803243 17793 net.cpp:425] inception_3b/relu_3x3_reduce <- inception_3b/3x3_reduce
I0403 14:53:27.803261 17793 net.cpp:386] inception_3b/relu_3x3_reduce -> inception_3b/3x3_reduce (in-place)
I0403 14:53:27.803436 17793 net.cpp:141] Setting up inception_3b/relu_3x3_reduce
I0403 14:53:27.803462 17793 net.cpp:148] Top shape: 24 128 28 28 (2408448)
I0403 14:53:27.803477 17793 net.cpp:156] Memory required for data: 696042528
I0403 14:53:27.803491 17793 layer_factory.hpp:77] Creating layer inception_3b/3x3
I0403 14:53:27.803516 17793 net.cpp:91] Creating Layer inception_3b/3x3
I0403 14:53:27.803535 17793 net.cpp:425] inception_3b/3x3 <- inception_3b/3x3_reduce
I0403 14:53:27.803557 17793 net.cpp:399] inception_3b/3x3 -> inception_3b/3x3
I0403 14:53:27.806563 17793 net.cpp:141] Setting up inception_3b/3x3
I0403 14:53:27.806596 17793 net.cpp:148] Top shape: 24 192 28 28 (3612672)
I0403 14:53:27.806613 17793 net.cpp:156] Memory required for data: 710493216
I0403 14:53:27.806632 17793 layer_factory.hpp:77] Creating layer inception_3b/relu_3x3
I0403 14:53:27.806650 17793 net.cpp:91] Creating Layer inception_3b/relu_3x3
I0403 14:53:27.806666 17793 net.cpp:425] inception_3b/relu_3x3 <- inception_3b/3x3
I0403 14:53:27.806687 17793 net.cpp:386] inception_3b/relu_3x3 -> inception_3b/3x3 (in-place)
I0403 14:53:27.806969 17793 net.cpp:141] Setting up inception_3b/relu_3x3
I0403 14:53:27.807003 17793 net.cpp:148] Top shape: 24 192 28 28 (3612672)
I0403 14:53:27.807019 17793 net.cpp:156] Memory required for data: 724943904
I0403 14:53:27.807034 17793 layer_factory.hpp:77] Creating layer inception_3b/5x5_reduce
I0403 14:53:27.807059 17793 net.cpp:91] Creating Layer inception_3b/5x5_reduce
I0403 14:53:27.807076 17793 net.cpp:425] inception_3b/5x5_reduce <- inception_3a/output_inception_3a/output_0_split_2
I0403 14:53:27.807096 17793 net.cpp:399] inception_3b/5x5_reduce -> inception_3b/5x5_reduce
I0403 14:53:27.808130 17793 net.cpp:141] Setting up inception_3b/5x5_reduce
I0403 14:53:27.808162 17793 net.cpp:148] Top shape: 24 32 28 28 (602112)
I0403 14:53:27.808179 17793 net.cpp:156] Memory required for data: 727352352
I0403 14:53:27.808198 17793 layer_factory.hpp:77] Creating layer inception_3b/relu_5x5_reduce
I0403 14:53:27.808218 17793 net.cpp:91] Creating Layer inception_3b/relu_5x5_reduce
I0403 14:53:27.808234 17793 net.cpp:425] inception_3b/relu_5x5_reduce <- inception_3b/5x5_reduce
I0403 14:53:27.808255 17793 net.cpp:386] inception_3b/relu_5x5_reduce -> inception_3b/5x5_reduce (in-place)
I0403 14:53:27.808465 17793 net.cpp:141] Setting up inception_3b/relu_5x5_reduce
I0403 14:53:27.808490 17793 net.cpp:148] Top shape: 24 32 28 28 (602112)
I0403 14:53:27.808504 17793 net.cpp:156] Memory required for data: 729760800
I0403 14:53:27.808521 17793 layer_factory.hpp:77] Creating layer inception_3b/5x5
I0403 14:53:27.808543 17793 net.cpp:91] Creating Layer inception_3b/5x5
I0403 14:53:27.808562 17793 net.cpp:425] inception_3b/5x5 <- inception_3b/5x5_reduce
I0403 14:53:27.808583 17793 net.cpp:399] inception_3b/5x5 -> inception_3b/5x5
I0403 14:53:27.810662 17793 net.cpp:141] Setting up inception_3b/5x5
I0403 14:53:27.810693 17793 net.cpp:148] Top shape: 24 96 28 28 (1806336)
I0403 14:53:27.810708 17793 net.cpp:156] Memory required for data: 736986144
I0403 14:53:27.810725 17793 layer_factory.hpp:77] Creating layer inception_3b/relu_5x5
I0403 14:53:27.810746 17793 net.cpp:91] Creating Layer inception_3b/relu_5x5
I0403 14:53:27.810763 17793 net.cpp:425] inception_3b/relu_5x5 <- inception_3b/5x5
I0403 14:53:27.810781 17793 net.cpp:386] inception_3b/relu_5x5 -> inception_3b/5x5 (in-place)
I0403 14:53:27.810977 17793 net.cpp:141] Setting up inception_3b/relu_5x5
I0403 14:53:27.811007 17793 net.cpp:148] Top shape: 24 96 28 28 (1806336)
I0403 14:53:27.811022 17793 net.cpp:156] Memory required for data: 744211488
I0403 14:53:27.811038 17793 layer_factory.hpp:77] Creating layer inception_3b/pool
I0403 14:53:27.811055 17793 net.cpp:91] Creating Layer inception_3b/pool
I0403 14:53:27.811070 17793 net.cpp:425] inception_3b/pool <- inception_3a/output_inception_3a/output_0_split_3
I0403 14:53:27.811089 17793 net.cpp:399] inception_3b/pool -> inception_3b/pool
I0403 14:53:27.811146 17793 net.cpp:141] Setting up inception_3b/pool
I0403 14:53:27.811168 17793 net.cpp:148] Top shape: 24 256 28 28 (4816896)
I0403 14:53:27.811182 17793 net.cpp:156] Memory required for data: 763479072
I0403 14:53:27.811197 17793 layer_factory.hpp:77] Creating layer inception_3b/pool_proj
I0403 14:53:27.811219 17793 net.cpp:91] Creating Layer inception_3b/pool_proj
I0403 14:53:27.811239 17793 net.cpp:425] inception_3b/pool_proj <- inception_3b/pool
I0403 14:53:27.811257 17793 net.cpp:399] inception_3b/pool_proj -> inception_3b/pool_proj
I0403 14:53:27.812336 17793 net.cpp:141] Setting up inception_3b/pool_proj
I0403 14:53:27.812368 17793 net.cpp:148] Top shape: 24 64 28 28 (1204224)
I0403 14:53:27.812383 17793 net.cpp:156] Memory required for data: 768295968
I0403 14:53:27.812402 17793 layer_factory.hpp:77] Creating layer inception_3b/relu_pool_proj
I0403 14:53:27.812420 17793 net.cpp:91] Creating Layer inception_3b/relu_pool_proj
I0403 14:53:27.812436 17793 net.cpp:425] inception_3b/relu_pool_proj <- inception_3b/pool_proj
I0403 14:53:27.812455 17793 net.cpp:386] inception_3b/relu_pool_proj -> inception_3b/pool_proj (in-place)
I0403 14:53:27.812861 17793 net.cpp:141] Setting up inception_3b/relu_pool_proj
I0403 14:53:27.812888 17793 net.cpp:148] Top shape: 24 64 28 28 (1204224)
I0403 14:53:27.812903 17793 net.cpp:156] Memory required for data: 773112864
I0403 14:53:27.812917 17793 layer_factory.hpp:77] Creating layer inception_3b/output
I0403 14:53:27.812935 17793 net.cpp:91] Creating Layer inception_3b/output
I0403 14:53:27.812952 17793 net.cpp:425] inception_3b/output <- inception_3b/1x1
I0403 14:53:27.812968 17793 net.cpp:425] inception_3b/output <- inception_3b/3x3
I0403 14:53:27.812984 17793 net.cpp:425] inception_3b/output <- inception_3b/5x5
I0403 14:53:27.813017 17793 net.cpp:425] inception_3b/output <- inception_3b/pool_proj
I0403 14:53:27.813038 17793 net.cpp:399] inception_3b/output -> inception_3b/output
I0403 14:53:27.813084 17793 net.cpp:141] Setting up inception_3b/output
I0403 14:53:27.813110 17793 net.cpp:148] Top shape: 24 480 28 28 (9031680)
I0403 14:53:27.813127 17793 net.cpp:156] Memory required for data: 809239584
I0403 14:53:27.813143 17793 layer_factory.hpp:77] Creating layer pool3/3x3_s2
I0403 14:53:27.813159 17793 net.cpp:91] Creating Layer pool3/3x3_s2
I0403 14:53:27.813176 17793 net.cpp:425] pool3/3x3_s2 <- inception_3b/output
I0403 14:53:27.813212 17793 net.cpp:399] pool3/3x3_s2 -> pool3/3x3_s2
I0403 14:53:27.813273 17793 net.cpp:141] Setting up pool3/3x3_s2
I0403 14:53:27.813309 17793 net.cpp:148] Top shape: 24 480 14 14 (2257920)
I0403 14:53:27.813324 17793 net.cpp:156] Memory required for data: 818271264
I0403 14:53:27.813338 17793 layer_factory.hpp:77] Creating layer pool3/3x3_s2_pool3/3x3_s2_0_split
I0403 14:53:27.813359 17793 net.cpp:91] Creating Layer pool3/3x3_s2_pool3/3x3_s2_0_split
I0403 14:53:27.813374 17793 net.cpp:425] pool3/3x3_s2_pool3/3x3_s2_0_split <- pool3/3x3_s2
I0403 14:53:27.813391 17793 net.cpp:399] pool3/3x3_s2_pool3/3x3_s2_0_split -> pool3/3x3_s2_pool3/3x3_s2_0_split_0
I0403 14:53:27.813410 17793 net.cpp:399] pool3/3x3_s2_pool3/3x3_s2_0_split -> pool3/3x3_s2_pool3/3x3_s2_0_split_1
I0403 14:53:27.813431 17793 net.cpp:399] pool3/3x3_s2_pool3/3x3_s2_0_split -> pool3/3x3_s2_pool3/3x3_s2_0_split_2
I0403 14:53:27.813449 17793 net.cpp:399] pool3/3x3_s2_pool3/3x3_s2_0_split -> pool3/3x3_s2_pool3/3x3_s2_0_split_3
I0403 14:53:27.813526 17793 net.cpp:141] Setting up pool3/3x3_s2_pool3/3x3_s2_0_split
I0403 14:53:27.813549 17793 net.cpp:148] Top shape: 24 480 14 14 (2257920)
I0403 14:53:27.813565 17793 net.cpp:148] Top shape: 24 480 14 14 (2257920)
I0403 14:53:27.813580 17793 net.cpp:148] Top shape: 24 480 14 14 (2257920)
I0403 14:53:27.813596 17793 net.cpp:148] Top shape: 24 480 14 14 (2257920)
I0403 14:53:27.813609 17793 net.cpp:156] Memory required for data: 854397984
I0403 14:53:27.813624 17793 layer_factory.hpp:77] Creating layer inception_4a/1x1
I0403 14:53:27.813647 17793 net.cpp:91] Creating Layer inception_4a/1x1
I0403 14:53:27.813664 17793 net.cpp:425] inception_4a/1x1 <- pool3/3x3_s2_pool3/3x3_s2_0_split_0
I0403 14:53:27.813685 17793 net.cpp:399] inception_4a/1x1 -> inception_4a/1x1
I0403 14:53:27.815359 17793 net.cpp:141] Setting up inception_4a/1x1
I0403 14:53:27.815388 17793 net.cpp:148] Top shape: 24 192 14 14 (903168)
I0403 14:53:27.815403 17793 net.cpp:156] Memory required for data: 858010656
I0403 14:53:27.815423 17793 layer_factory.hpp:77] Creating layer inception_4a/relu_1x1
I0403 14:53:27.815443 17793 net.cpp:91] Creating Layer inception_4a/relu_1x1
I0403 14:53:27.815459 17793 net.cpp:425] inception_4a/relu_1x1 <- inception_4a/1x1
I0403 14:53:27.815476 17793 net.cpp:386] inception_4a/relu_1x1 -> inception_4a/1x1 (in-place)
I0403 14:53:27.815657 17793 net.cpp:141] Setting up inception_4a/relu_1x1
I0403 14:53:27.815685 17793 net.cpp:148] Top shape: 24 192 14 14 (903168)
I0403 14:53:27.815701 17793 net.cpp:156] Memory required for data: 861623328
I0403 14:53:27.815716 17793 layer_factory.hpp:77] Creating layer inception_4a/3x3_reduce
I0403 14:53:27.815737 17793 net.cpp:91] Creating Layer inception_4a/3x3_reduce
I0403 14:53:27.815753 17793 net.cpp:425] inception_4a/3x3_reduce <- pool3/3x3_s2_pool3/3x3_s2_0_split_1
I0403 14:53:27.815774 17793 net.cpp:399] inception_4a/3x3_reduce -> inception_4a/3x3_reduce
I0403 14:53:27.817149 17793 net.cpp:141] Setting up inception_4a/3x3_reduce
I0403 14:53:27.817179 17793 net.cpp:148] Top shape: 24 96 14 14 (451584)
I0403 14:53:27.817195 17793 net.cpp:156] Memory required for data: 863429664
I0403 14:53:27.817222 17793 layer_factory.hpp:77] Creating layer inception_4a/relu_3x3_reduce
I0403 14:53:27.817242 17793 net.cpp:91] Creating Layer inception_4a/relu_3x3_reduce
I0403 14:53:27.817260 17793 net.cpp:425] inception_4a/relu_3x3_reduce <- inception_4a/3x3_reduce
I0403 14:53:27.817281 17793 net.cpp:386] inception_4a/relu_3x3_reduce -> inception_4a/3x3_reduce (in-place)
I0403 14:53:27.817473 17793 net.cpp:141] Setting up inception_4a/relu_3x3_reduce
I0403 14:53:27.817499 17793 net.cpp:148] Top shape: 24 96 14 14 (451584)
I0403 14:53:27.817514 17793 net.cpp:156] Memory required for data: 865236000
I0403 14:53:27.817529 17793 layer_factory.hpp:77] Creating layer inception_4a/3x3
I0403 14:53:27.817553 17793 net.cpp:91] Creating Layer inception_4a/3x3
I0403 14:53:27.817570 17793 net.cpp:425] inception_4a/3x3 <- inception_4a/3x3_reduce
I0403 14:53:27.817592 17793 net.cpp:399] inception_4a/3x3 -> inception_4a/3x3
I0403 14:53:27.820451 17793 net.cpp:141] Setting up inception_4a/3x3
I0403 14:53:27.820480 17793 net.cpp:148] Top shape: 24 208 14 14 (978432)
I0403 14:53:27.820497 17793 net.cpp:156] Memory required for data: 869149728
I0403 14:53:27.820515 17793 layer_factory.hpp:77] Creating layer inception_4a/relu_3x3
I0403 14:53:27.820536 17793 net.cpp:91] Creating Layer inception_4a/relu_3x3
I0403 14:53:27.820552 17793 net.cpp:425] inception_4a/relu_3x3 <- inception_4a/3x3
I0403 14:53:27.820569 17793 net.cpp:386] inception_4a/relu_3x3 -> inception_4a/3x3 (in-place)
I0403 14:53:27.820858 17793 net.cpp:141] Setting up inception_4a/relu_3x3
I0403 14:53:27.820884 17793 net.cpp:148] Top shape: 24 208 14 14 (978432)
I0403 14:53:27.820899 17793 net.cpp:156] Memory required for data: 873063456
I0403 14:53:27.820914 17793 layer_factory.hpp:77] Creating layer inception_4a/5x5_reduce
I0403 14:53:27.820940 17793 net.cpp:91] Creating Layer inception_4a/5x5_reduce
I0403 14:53:27.820958 17793 net.cpp:425] inception_4a/5x5_reduce <- pool3/3x3_s2_pool3/3x3_s2_0_split_2
I0403 14:53:27.820978 17793 net.cpp:399] inception_4a/5x5_reduce -> inception_4a/5x5_reduce
I0403 14:53:27.822039 17793 net.cpp:141] Setting up inception_4a/5x5_reduce
I0403 14:53:27.822070 17793 net.cpp:148] Top shape: 24 16 14 14 (75264)
I0403 14:53:27.822088 17793 net.cpp:156] Memory required for data: 873364512
I0403 14:53:27.822105 17793 layer_factory.hpp:77] Creating layer inception_4a/relu_5x5_reduce
I0403 14:53:27.822124 17793 net.cpp:91] Creating Layer inception_4a/relu_5x5_reduce
I0403 14:53:27.822140 17793 net.cpp:425] inception_4a/relu_5x5_reduce <- inception_4a/5x5_reduce
I0403 14:53:27.822160 17793 net.cpp:386] inception_4a/relu_5x5_reduce -> inception_4a/5x5_reduce (in-place)
I0403 14:53:27.822343 17793 net.cpp:141] Setting up inception_4a/relu_5x5_reduce
I0403 14:53:27.822370 17793 net.cpp:148] Top shape: 24 16 14 14 (75264)
I0403 14:53:27.822384 17793 net.cpp:156] Memory required for data: 873665568
I0403 14:53:27.822398 17793 layer_factory.hpp:77] Creating layer inception_4a/5x5
I0403 14:53:27.822422 17793 net.cpp:91] Creating Layer inception_4a/5x5
I0403 14:53:27.822439 17793 net.cpp:425] inception_4a/5x5 <- inception_4a/5x5_reduce
I0403 14:53:27.822460 17793 net.cpp:399] inception_4a/5x5 -> inception_4a/5x5
I0403 14:53:27.823616 17793 net.cpp:141] Setting up inception_4a/5x5
I0403 14:53:27.823643 17793 net.cpp:148] Top shape: 24 48 14 14 (225792)
I0403 14:53:27.823659 17793 net.cpp:156] Memory required for data: 874568736
I0403 14:53:27.823678 17793 layer_factory.hpp:77] Creating layer inception_4a/relu_5x5
I0403 14:53:27.823694 17793 net.cpp:91] Creating Layer inception_4a/relu_5x5
I0403 14:53:27.823714 17793 net.cpp:425] inception_4a/relu_5x5 <- inception_4a/5x5
I0403 14:53:27.823731 17793 net.cpp:386] inception_4a/relu_5x5 -> inception_4a/5x5 (in-place)
I0403 14:53:27.823915 17793 net.cpp:141] Setting up inception_4a/relu_5x5
I0403 14:53:27.823940 17793 net.cpp:148] Top shape: 24 48 14 14 (225792)
I0403 14:53:27.823954 17793 net.cpp:156] Memory required for data: 875471904
I0403 14:53:27.823971 17793 layer_factory.hpp:77] Creating layer inception_4a/pool
I0403 14:53:27.823994 17793 net.cpp:91] Creating Layer inception_4a/pool
I0403 14:53:27.824012 17793 net.cpp:425] inception_4a/pool <- pool3/3x3_s2_pool3/3x3_s2_0_split_3
I0403 14:53:27.824030 17793 net.cpp:399] inception_4a/pool -> inception_4a/pool
I0403 14:53:27.824095 17793 net.cpp:141] Setting up inception_4a/pool
I0403 14:53:27.824118 17793 net.cpp:148] Top shape: 24 480 14 14 (2257920)
I0403 14:53:27.824133 17793 net.cpp:156] Memory required for data: 884503584
I0403 14:53:27.824147 17793 layer_factory.hpp:77] Creating layer inception_4a/pool_proj
I0403 14:53:27.824170 17793 net.cpp:91] Creating Layer inception_4a/pool_proj
I0403 14:53:27.824187 17793 net.cpp:425] inception_4a/pool_proj <- inception_4a/pool
I0403 14:53:27.824208 17793 net.cpp:399] inception_4a/pool_proj -> inception_4a/pool_proj
I0403 14:53:27.825417 17793 net.cpp:141] Setting up inception_4a/pool_proj
I0403 14:53:27.825446 17793 net.cpp:148] Top shape: 24 64 14 14 (301056)
I0403 14:53:27.825477 17793 net.cpp:156] Memory required for data: 885707808
I0403 14:53:27.825496 17793 layer_factory.hpp:77] Creating layer inception_4a/relu_pool_proj
I0403 14:53:27.825520 17793 net.cpp:91] Creating Layer inception_4a/relu_pool_proj
I0403 14:53:27.825537 17793 net.cpp:425] inception_4a/relu_pool_proj <- inception_4a/pool_proj
I0403 14:53:27.825554 17793 net.cpp:386] inception_4a/relu_pool_proj -> inception_4a/pool_proj (in-place)
I0403 14:53:27.825848 17793 net.cpp:141] Setting up inception_4a/relu_pool_proj
I0403 14:53:27.825875 17793 net.cpp:148] Top shape: 24 64 14 14 (301056)
I0403 14:53:27.825891 17793 net.cpp:156] Memory required for data: 886912032
I0403 14:53:27.825906 17793 layer_factory.hpp:77] Creating layer inception_4a/output
I0403 14:53:27.825923 17793 net.cpp:91] Creating Layer inception_4a/output
I0403 14:53:27.825952 17793 net.cpp:425] inception_4a/output <- inception_4a/1x1
I0403 14:53:27.825973 17793 net.cpp:425] inception_4a/output <- inception_4a/3x3
I0403 14:53:27.825995 17793 net.cpp:425] inception_4a/output <- inception_4a/5x5
I0403 14:53:27.826015 17793 net.cpp:425] inception_4a/output <- inception_4a/pool_proj
I0403 14:53:27.826033 17793 net.cpp:399] inception_4a/output -> inception_4a/output
I0403 14:53:27.826081 17793 net.cpp:141] Setting up inception_4a/output
I0403 14:53:27.826107 17793 net.cpp:148] Top shape: 24 512 14 14 (2408448)
I0403 14:53:27.826123 17793 net.cpp:156] Memory required for data: 896545824
I0403 14:53:27.826138 17793 layer_factory.hpp:77] Creating layer inception_4a/output_inception_4a/output_0_split
I0403 14:53:27.826156 17793 net.cpp:91] Creating Layer inception_4a/output_inception_4a/output_0_split
I0403 14:53:27.826172 17793 net.cpp:425] inception_4a/output_inception_4a/output_0_split <- inception_4a/output
I0403 14:53:27.826194 17793 net.cpp:399] inception_4a/output_inception_4a/output_0_split -> inception_4a/output_inception_4a/output_0_split_0
I0403 14:53:27.826215 17793 net.cpp:399] inception_4a/output_inception_4a/output_0_split -> inception_4a/output_inception_4a/output_0_split_1
I0403 14:53:27.826236 17793 net.cpp:399] inception_4a/output_inception_4a/output_0_split -> inception_4a/output_inception_4a/output_0_split_2
I0403 14:53:27.826257 17793 net.cpp:399] inception_4a/output_inception_4a/output_0_split -> inception_4a/output_inception_4a/output_0_split_3
I0403 14:53:27.826289 17793 net.cpp:399] inception_4a/output_inception_4a/output_0_split -> inception_4a/output_inception_4a/output_0_split_4
I0403 14:53:27.826382 17793 net.cpp:141] Setting up inception_4a/output_inception_4a/output_0_split
I0403 14:53:27.826407 17793 net.cpp:148] Top shape: 24 512 14 14 (2408448)
I0403 14:53:27.826426 17793 net.cpp:148] Top shape: 24 512 14 14 (2408448)
I0403 14:53:27.826442 17793 net.cpp:148] Top shape: 24 512 14 14 (2408448)
I0403 14:53:27.826457 17793 net.cpp:148] Top shape: 24 512 14 14 (2408448)
I0403 14:53:27.826472 17793 net.cpp:148] Top shape: 24 512 14 14 (2408448)
I0403 14:53:27.826486 17793 net.cpp:156] Memory required for data: 944714784
I0403 14:53:27.826500 17793 layer_factory.hpp:77] Creating layer loss1/ave_pool
I0403 14:53:27.826519 17793 net.cpp:91] Creating Layer loss1/ave_pool
I0403 14:53:27.826534 17793 net.cpp:425] loss1/ave_pool <- inception_4a/output_inception_4a/output_0_split_0
I0403 14:53:27.826555 17793 net.cpp:399] loss1/ave_pool -> loss1/ave_pool
I0403 14:53:27.826768 17793 net.cpp:141] Setting up loss1/ave_pool
I0403 14:53:27.826795 17793 net.cpp:148] Top shape: 24 512 4 4 (196608)
I0403 14:53:27.826810 17793 net.cpp:156] Memory required for data: 945501216
I0403 14:53:27.826825 17793 layer_factory.hpp:77] Creating layer loss1/conv
I0403 14:53:27.826848 17793 net.cpp:91] Creating Layer loss1/conv
I0403 14:53:27.826865 17793 net.cpp:425] loss1/conv <- loss1/ave_pool
I0403 14:53:27.826889 17793 net.cpp:399] loss1/conv -> loss1/conv
I0403 14:53:27.828389 17793 net.cpp:141] Setting up loss1/conv
I0403 14:53:27.828418 17793 net.cpp:148] Top shape: 24 128 4 4 (49152)
I0403 14:53:27.828447 17793 net.cpp:156] Memory required for data: 945697824
I0403 14:53:27.828467 17793 layer_factory.hpp:77] Creating layer loss1/relu_conv
I0403 14:53:27.828490 17793 net.cpp:91] Creating Layer loss1/relu_conv
I0403 14:53:27.828506 17793 net.cpp:425] loss1/relu_conv <- loss1/conv
I0403 14:53:27.828523 17793 net.cpp:386] loss1/relu_conv -> loss1/conv (in-place)
I0403 14:53:27.828811 17793 net.cpp:141] Setting up loss1/relu_conv
I0403 14:53:27.828838 17793 net.cpp:148] Top shape: 24 128 4 4 (49152)
I0403 14:53:27.828853 17793 net.cpp:156] Memory required for data: 945894432
I0403 14:53:27.828869 17793 layer_factory.hpp:77] Creating layer loss1/fc
I0403 14:53:27.828896 17793 net.cpp:91] Creating Layer loss1/fc
I0403 14:53:27.828913 17793 net.cpp:425] loss1/fc <- loss1/conv
I0403 14:53:27.828934 17793 net.cpp:399] loss1/fc -> loss1/fc
I0403 14:53:27.847091 17793 net.cpp:141] Setting up loss1/fc
I0403 14:53:27.847142 17793 net.cpp:148] Top shape: 24 1024 (24576)
I0403 14:53:27.847157 17793 net.cpp:156] Memory required for data: 945992736
I0403 14:53:27.847177 17793 layer_factory.hpp:77] Creating layer loss1/relu_fc
I0403 14:53:27.847196 17793 net.cpp:91] Creating Layer loss1/relu_fc
I0403 14:53:27.847213 17793 net.cpp:425] loss1/relu_fc <- loss1/fc
I0403 14:53:27.847232 17793 net.cpp:386] loss1/relu_fc -> loss1/fc (in-place)
I0403 14:53:27.847439 17793 net.cpp:141] Setting up loss1/relu_fc
I0403 14:53:27.847465 17793 net.cpp:148] Top shape: 24 1024 (24576)
I0403 14:53:27.847481 17793 net.cpp:156] Memory required for data: 946091040
I0403 14:53:27.847494 17793 layer_factory.hpp:77] Creating layer loss1/drop_fc
I0403 14:53:27.847523 17793 net.cpp:91] Creating Layer loss1/drop_fc
I0403 14:53:27.847542 17793 net.cpp:425] loss1/drop_fc <- loss1/fc
I0403 14:53:27.847559 17793 net.cpp:386] loss1/drop_fc -> loss1/fc (in-place)
I0403 14:53:27.847615 17793 net.cpp:141] Setting up loss1/drop_fc
I0403 14:53:27.847638 17793 net.cpp:148] Top shape: 24 1024 (24576)
I0403 14:53:27.847652 17793 net.cpp:156] Memory required for data: 946189344
I0403 14:53:27.847667 17793 layer_factory.hpp:77] Creating layer loss1/classifier_plantvillage
I0403 14:53:27.847686 17793 net.cpp:91] Creating Layer loss1/classifier_plantvillage
I0403 14:53:27.847702 17793 net.cpp:425] loss1/classifier_plantvillage <- loss1/fc
I0403 14:53:27.847723 17793 net.cpp:399] loss1/classifier_plantvillage -> loss1/classifier_plantvillage
I0403 14:53:27.848644 17793 net.cpp:141] Setting up loss1/classifier_plantvillage
I0403 14:53:27.848672 17793 net.cpp:148] Top shape: 24 38 (912)
I0403 14:53:27.848687 17793 net.cpp:156] Memory required for data: 946192992
I0403 14:53:27.848704 17793 layer_factory.hpp:77] Creating layer loss1/classifier_plantvillage_loss1/classifier_plantvillage_0_split
I0403 14:53:27.848724 17793 net.cpp:91] Creating Layer loss1/classifier_plantvillage_loss1/classifier_plantvillage_0_split
I0403 14:53:27.848742 17793 net.cpp:425] loss1/classifier_plantvillage_loss1/classifier_plantvillage_0_split <- loss1/classifier_plantvillage
I0403 14:53:27.848758 17793 net.cpp:399] loss1/classifier_plantvillage_loss1/classifier_plantvillage_0_split -> loss1/classifier_plantvillage_loss1/classifier_plantvillage_0_split_0
I0403 14:53:27.848778 17793 net.cpp:399] loss1/classifier_plantvillage_loss1/classifier_plantvillage_0_split -> loss1/classifier_plantvillage_loss1/classifier_plantvillage_0_split_1
I0403 14:53:27.848798 17793 net.cpp:399] loss1/classifier_plantvillage_loss1/classifier_plantvillage_0_split -> loss1/classifier_plantvillage_loss1/classifier_plantvillage_0_split_2
I0403 14:53:27.848867 17793 net.cpp:141] Setting up loss1/classifier_plantvillage_loss1/classifier_plantvillage_0_split
I0403 14:53:27.848889 17793 net.cpp:148] Top shape: 24 38 (912)
I0403 14:53:27.848904 17793 net.cpp:148] Top shape: 24 38 (912)
I0403 14:53:27.848919 17793 net.cpp:148] Top shape: 24 38 (912)
I0403 14:53:27.848933 17793 net.cpp:156] Memory required for data: 946203936
I0403 14:53:27.848948 17793 layer_factory.hpp:77] Creating layer inception_4b/1x1
I0403 14:53:27.848969 17793 net.cpp:91] Creating Layer inception_4b/1x1
I0403 14:53:27.849020 17793 net.cpp:425] inception_4b/1x1 <- inception_4a/output_inception_4a/output_0_split_1
I0403 14:53:27.849041 17793 net.cpp:399] inception_4b/1x1 -> inception_4b/1x1
I0403 14:53:27.850730 17793 net.cpp:141] Setting up inception_4b/1x1
I0403 14:53:27.850759 17793 net.cpp:148] Top shape: 24 160 14 14 (752640)
I0403 14:53:27.850774 17793 net.cpp:156] Memory required for data: 949214496
I0403 14:53:27.850793 17793 layer_factory.hpp:77] Creating layer inception_4b/relu_1x1
I0403 14:53:27.850812 17793 net.cpp:91] Creating Layer inception_4b/relu_1x1
I0403 14:53:27.850828 17793 net.cpp:425] inception_4b/relu_1x1 <- inception_4b/1x1
I0403 14:53:27.850846 17793 net.cpp:386] inception_4b/relu_1x1 -> inception_4b/1x1 (in-place)
I0403 14:53:27.851032 17793 net.cpp:141] Setting up inception_4b/relu_1x1
I0403 14:53:27.851058 17793 net.cpp:148] Top shape: 24 160 14 14 (752640)
I0403 14:53:27.851071 17793 net.cpp:156] Memory required for data: 952225056
I0403 14:53:27.851086 17793 layer_factory.hpp:77] Creating layer inception_4b/3x3_reduce
I0403 14:53:27.851109 17793 net.cpp:91] Creating Layer inception_4b/3x3_reduce
I0403 14:53:27.851125 17793 net.cpp:425] inception_4b/3x3_reduce <- inception_4a/output_inception_4a/output_0_split_2
I0403 14:53:27.851146 17793 net.cpp:399] inception_4b/3x3_reduce -> inception_4b/3x3_reduce
I0403 14:53:27.852506 17793 net.cpp:141] Setting up inception_4b/3x3_reduce
I0403 14:53:27.852533 17793 net.cpp:148] Top shape: 24 112 14 14 (526848)
I0403 14:53:27.852550 17793 net.cpp:156] Memory required for data: 954332448
I0403 14:53:27.852566 17793 layer_factory.hpp:77] Creating layer inception_4b/relu_3x3_reduce
I0403 14:53:27.852584 17793 net.cpp:91] Creating Layer inception_4b/relu_3x3_reduce
I0403 14:53:27.852601 17793 net.cpp:425] inception_4b/relu_3x3_reduce <- inception_4b/3x3_reduce
I0403 14:53:27.852619 17793 net.cpp:386] inception_4b/relu_3x3_reduce -> inception_4b/3x3_reduce (in-place)
I0403 14:53:27.852902 17793 net.cpp:141] Setting up inception_4b/relu_3x3_reduce
I0403 14:53:27.852928 17793 net.cpp:148] Top shape: 24 112 14 14 (526848)
I0403 14:53:27.852943 17793 net.cpp:156] Memory required for data: 956439840
I0403 14:53:27.852957 17793 layer_factory.hpp:77] Creating layer inception_4b/3x3
I0403 14:53:27.852979 17793 net.cpp:91] Creating Layer inception_4b/3x3
I0403 14:53:27.853003 17793 net.cpp:425] inception_4b/3x3 <- inception_4b/3x3_reduce
I0403 14:53:27.853024 17793 net.cpp:399] inception_4b/3x3 -> inception_4b/3x3
I0403 14:53:27.856015 17793 net.cpp:141] Setting up inception_4b/3x3
I0403 14:53:27.856045 17793 net.cpp:148] Top shape: 24 224 14 14 (1053696)
I0403 14:53:27.856060 17793 net.cpp:156] Memory required for data: 960654624
I0403 14:53:27.856077 17793 layer_factory.hpp:77] Creating layer inception_4b/relu_3x3
I0403 14:53:27.856097 17793 net.cpp:91] Creating Layer inception_4b/relu_3x3
I0403 14:53:27.856115 17793 net.cpp:425] inception_4b/relu_3x3 <- inception_4b/3x3
I0403 14:53:27.856132 17793 net.cpp:386] inception_4b/relu_3x3 -> inception_4b/3x3 (in-place)
I0403 14:53:27.856315 17793 net.cpp:141] Setting up inception_4b/relu_3x3
I0403 14:53:27.856343 17793 net.cpp:148] Top shape: 24 224 14 14 (1053696)
I0403 14:53:27.856358 17793 net.cpp:156] Memory required for data: 964869408
I0403 14:53:27.856372 17793 layer_factory.hpp:77] Creating layer inception_4b/5x5_reduce
I0403 14:53:27.856395 17793 net.cpp:91] Creating Layer inception_4b/5x5_reduce
I0403 14:53:27.856412 17793 net.cpp:425] inception_4b/5x5_reduce <- inception_4a/output_inception_4a/output_0_split_3
I0403 14:53:27.856431 17793 net.cpp:399] inception_4b/5x5_reduce -> inception_4b/5x5_reduce
I0403 14:53:27.857583 17793 net.cpp:141] Setting up inception_4b/5x5_reduce
I0403 14:53:27.857614 17793 net.cpp:148] Top shape: 24 24 14 14 (112896)
I0403 14:53:27.857630 17793 net.cpp:156] Memory required for data: 965320992
I0403 14:53:27.857650 17793 layer_factory.hpp:77] Creating layer inception_4b/relu_5x5_reduce
I0403 14:53:27.857667 17793 net.cpp:91] Creating Layer inception_4b/relu_5x5_reduce
I0403 14:53:27.857699 17793 net.cpp:425] inception_4b/relu_5x5_reduce <- inception_4b/5x5_reduce
I0403 14:53:27.857720 17793 net.cpp:386] inception_4b/relu_5x5_reduce -> inception_4b/5x5_reduce (in-place)
I0403 14:53:27.857909 17793 net.cpp:141] Setting up inception_4b/relu_5x5_reduce
I0403 14:53:27.857935 17793 net.cpp:148] Top shape: 24 24 14 14 (112896)
I0403 14:53:27.857950 17793 net.cpp:156] Memory required for data: 965772576
I0403 14:53:27.857965 17793 layer_factory.hpp:77] Creating layer inception_4b/5x5
I0403 14:53:27.857991 17793 net.cpp:91] Creating Layer inception_4b/5x5
I0403 14:53:27.858011 17793 net.cpp:425] inception_4b/5x5 <- inception_4b/5x5_reduce
I0403 14:53:27.858032 17793 net.cpp:399] inception_4b/5x5 -> inception_4b/5x5
I0403 14:53:27.859315 17793 net.cpp:141] Setting up inception_4b/5x5
I0403 14:53:27.859344 17793 net.cpp:148] Top shape: 24 64 14 14 (301056)
I0403 14:53:27.859360 17793 net.cpp:156] Memory required for data: 966976800
I0403 14:53:27.859380 17793 layer_factory.hpp:77] Creating layer inception_4b/relu_5x5
I0403 14:53:27.859398 17793 net.cpp:91] Creating Layer inception_4b/relu_5x5
I0403 14:53:27.859416 17793 net.cpp:425] inception_4b/relu_5x5 <- inception_4b/5x5
I0403 14:53:27.859433 17793 net.cpp:386] inception_4b/relu_5x5 -> inception_4b/5x5 (in-place)
I0403 14:53:27.859730 17793 net.cpp:141] Setting up inception_4b/relu_5x5
I0403 14:53:27.859761 17793 net.cpp:148] Top shape: 24 64 14 14 (301056)
I0403 14:53:27.859777 17793 net.cpp:156] Memory required for data: 968181024
I0403 14:53:27.859792 17793 layer_factory.hpp:77] Creating layer inception_4b/pool
I0403 14:53:27.859812 17793 net.cpp:91] Creating Layer inception_4b/pool
I0403 14:53:27.859827 17793 net.cpp:425] inception_4b/pool <- inception_4a/output_inception_4a/output_0_split_4
I0403 14:53:27.859848 17793 net.cpp:399] inception_4b/pool -> inception_4b/pool
I0403 14:53:27.859915 17793 net.cpp:141] Setting up inception_4b/pool
I0403 14:53:27.859938 17793 net.cpp:148] Top shape: 24 512 14 14 (2408448)
I0403 14:53:27.859953 17793 net.cpp:156] Memory required for data: 977814816
I0403 14:53:27.859967 17793 layer_factory.hpp:77] Creating layer inception_4b/pool_proj
I0403 14:53:27.859994 17793 net.cpp:91] Creating Layer inception_4b/pool_proj
I0403 14:53:27.860014 17793 net.cpp:425] inception_4b/pool_proj <- inception_4b/pool
I0403 14:53:27.860036 17793 net.cpp:399] inception_4b/pool_proj -> inception_4b/pool_proj
I0403 14:53:27.861276 17793 net.cpp:141] Setting up inception_4b/pool_proj
I0403 14:53:27.861307 17793 net.cpp:148] Top shape: 24 64 14 14 (301056)
I0403 14:53:27.861323 17793 net.cpp:156] Memory required for data: 979019040
I0403 14:53:27.861341 17793 layer_factory.hpp:77] Creating layer inception_4b/relu_pool_proj
I0403 14:53:27.861361 17793 net.cpp:91] Creating Layer inception_4b/relu_pool_proj
I0403 14:53:27.861377 17793 net.cpp:425] inception_4b/relu_pool_proj <- inception_4b/pool_proj
I0403 14:53:27.861397 17793 net.cpp:386] inception_4b/relu_pool_proj -> inception_4b/pool_proj (in-place)
I0403 14:53:27.861582 17793 net.cpp:141] Setting up inception_4b/relu_pool_proj
I0403 14:53:27.861608 17793 net.cpp:148] Top shape: 24 64 14 14 (301056)
I0403 14:53:27.861623 17793 net.cpp:156] Memory required for data: 980223264
I0403 14:53:27.861636 17793 layer_factory.hpp:77] Creating layer inception_4b/output
I0403 14:53:27.861654 17793 net.cpp:91] Creating Layer inception_4b/output
I0403 14:53:27.861670 17793 net.cpp:425] inception_4b/output <- inception_4b/1x1
I0403 14:53:27.861686 17793 net.cpp:425] inception_4b/output <- inception_4b/3x3
I0403 14:53:27.861702 17793 net.cpp:425] inception_4b/output <- inception_4b/5x5
I0403 14:53:27.861718 17793 net.cpp:425] inception_4b/output <- inception_4b/pool_proj
I0403 14:53:27.861737 17793 net.cpp:399] inception_4b/output -> inception_4b/output
I0403 14:53:27.861785 17793 net.cpp:141] Setting up inception_4b/output
I0403 14:53:27.861811 17793 net.cpp:148] Top shape: 24 512 14 14 (2408448)
I0403 14:53:27.861826 17793 net.cpp:156] Memory required for data: 989857056
I0403 14:53:27.861856 17793 layer_factory.hpp:77] Creating layer inception_4b/output_inception_4b/output_0_split
I0403 14:53:27.861874 17793 net.cpp:91] Creating Layer inception_4b/output_inception_4b/output_0_split
I0403 14:53:27.861891 17793 net.cpp:425] inception_4b/output_inception_4b/output_0_split <- inception_4b/output
I0403 14:53:27.861908 17793 net.cpp:399] inception_4b/output_inception_4b/output_0_split -> inception_4b/output_inception_4b/output_0_split_0
I0403 14:53:27.861932 17793 net.cpp:399] inception_4b/output_inception_4b/output_0_split -> inception_4b/output_inception_4b/output_0_split_1
I0403 14:53:27.861953 17793 net.cpp:399] inception_4b/output_inception_4b/output_0_split -> inception_4b/output_inception_4b/output_0_split_2
I0403 14:53:27.861975 17793 net.cpp:399] inception_4b/output_inception_4b/output_0_split -> inception_4b/output_inception_4b/output_0_split_3
I0403 14:53:27.862067 17793 net.cpp:141] Setting up inception_4b/output_inception_4b/output_0_split
I0403 14:53:27.862092 17793 net.cpp:148] Top shape: 24 512 14 14 (2408448)
I0403 14:53:27.862107 17793 net.cpp:148] Top shape: 24 512 14 14 (2408448)
I0403 14:53:27.862123 17793 net.cpp:148] Top shape: 24 512 14 14 (2408448)
I0403 14:53:27.862138 17793 net.cpp:148] Top shape: 24 512 14 14 (2408448)
I0403 14:53:27.862150 17793 net.cpp:156] Memory required for data: 1028392224
I0403 14:53:27.862165 17793 layer_factory.hpp:77] Creating layer inception_4c/1x1
I0403 14:53:27.862190 17793 net.cpp:91] Creating Layer inception_4c/1x1
I0403 14:53:27.862207 17793 net.cpp:425] inception_4c/1x1 <- inception_4b/output_inception_4b/output_0_split_0
I0403 14:53:27.862227 17793 net.cpp:399] inception_4c/1x1 -> inception_4c/1x1
I0403 14:53:27.863713 17793 net.cpp:141] Setting up inception_4c/1x1
I0403 14:53:27.863741 17793 net.cpp:148] Top shape: 24 128 14 14 (602112)
I0403 14:53:27.863757 17793 net.cpp:156] Memory required for data: 1030800672
I0403 14:53:27.863775 17793 layer_factory.hpp:77] Creating layer inception_4c/relu_1x1
I0403 14:53:27.863797 17793 net.cpp:91] Creating Layer inception_4c/relu_1x1
I0403 14:53:27.863814 17793 net.cpp:425] inception_4c/relu_1x1 <- inception_4c/1x1
I0403 14:53:27.863832 17793 net.cpp:386] inception_4c/relu_1x1 -> inception_4c/1x1 (in-place)
I0403 14:53:27.864022 17793 net.cpp:141] Setting up inception_4c/relu_1x1
I0403 14:53:27.864048 17793 net.cpp:148] Top shape: 24 128 14 14 (602112)
I0403 14:53:27.864066 17793 net.cpp:156] Memory required for data: 1033209120
I0403 14:53:27.864080 17793 layer_factory.hpp:77] Creating layer inception_4c/3x3_reduce
I0403 14:53:27.864100 17793 net.cpp:91] Creating Layer inception_4c/3x3_reduce
I0403 14:53:27.864119 17793 net.cpp:425] inception_4c/3x3_reduce <- inception_4b/output_inception_4b/output_0_split_1
I0403 14:53:27.864141 17793 net.cpp:399] inception_4c/3x3_reduce -> inception_4c/3x3_reduce
I0403 14:53:27.866178 17793 net.cpp:141] Setting up inception_4c/3x3_reduce
I0403 14:53:27.866209 17793 net.cpp:148] Top shape: 24 128 14 14 (602112)
I0403 14:53:27.866226 17793 net.cpp:156] Memory required for data: 1035617568
I0403 14:53:27.866245 17793 layer_factory.hpp:77] Creating layer inception_4c/relu_3x3_reduce
I0403 14:53:27.866262 17793 net.cpp:91] Creating Layer inception_4c/relu_3x3_reduce
I0403 14:53:27.866278 17793 net.cpp:425] inception_4c/relu_3x3_reduce <- inception_4c/3x3_reduce
I0403 14:53:27.866296 17793 net.cpp:386] inception_4c/relu_3x3_reduce -> inception_4c/3x3_reduce (in-place)
I0403 14:53:27.866592 17793 net.cpp:141] Setting up inception_4c/relu_3x3_reduce
I0403 14:53:27.866622 17793 net.cpp:148] Top shape: 24 128 14 14 (602112)
I0403 14:53:27.866637 17793 net.cpp:156] Memory required for data: 1038026016
I0403 14:53:27.866652 17793 layer_factory.hpp:77] Creating layer inception_4c/3x3
I0403 14:53:27.866677 17793 net.cpp:91] Creating Layer inception_4c/3x3
I0403 14:53:27.866695 17793 net.cpp:425] inception_4c/3x3 <- inception_4c/3x3_reduce
I0403 14:53:27.866714 17793 net.cpp:399] inception_4c/3x3 -> inception_4c/3x3
I0403 14:53:27.870486 17793 net.cpp:141] Setting up inception_4c/3x3
I0403 14:53:27.870532 17793 net.cpp:148] Top shape: 24 256 14 14 (1204224)
I0403 14:53:27.870548 17793 net.cpp:156] Memory required for data: 1042842912
I0403 14:53:27.870581 17793 layer_factory.hpp:77] Creating layer inception_4c/relu_3x3
I0403 14:53:27.870602 17793 net.cpp:91] Creating Layer inception_4c/relu_3x3
I0403 14:53:27.870620 17793 net.cpp:425] inception_4c/relu_3x3 <- inception_4c/3x3
I0403 14:53:27.870638 17793 net.cpp:386] inception_4c/relu_3x3 -> inception_4c/3x3 (in-place)
I0403 14:53:27.870826 17793 net.cpp:141] Setting up inception_4c/relu_3x3
I0403 14:53:27.870854 17793 net.cpp:148] Top shape: 24 256 14 14 (1204224)
I0403 14:53:27.870868 17793 net.cpp:156] Memory required for data: 1047659808
I0403 14:53:27.870883 17793 layer_factory.hpp:77] Creating layer inception_4c/5x5_reduce
I0403 14:53:27.870908 17793 net.cpp:91] Creating Layer inception_4c/5x5_reduce
I0403 14:53:27.870924 17793 net.cpp:425] inception_4c/5x5_reduce <- inception_4b/output_inception_4b/output_0_split_2
I0403 14:53:27.870946 17793 net.cpp:399] inception_4c/5x5_reduce -> inception_4c/5x5_reduce
I0403 14:53:27.872092 17793 net.cpp:141] Setting up inception_4c/5x5_reduce
I0403 14:53:27.872123 17793 net.cpp:148] Top shape: 24 24 14 14 (112896)
I0403 14:53:27.872139 17793 net.cpp:156] Memory required for data: 1048111392
I0403 14:53:27.872158 17793 layer_factory.hpp:77] Creating layer inception_4c/relu_5x5_reduce
I0403 14:53:27.872175 17793 net.cpp:91] Creating Layer inception_4c/relu_5x5_reduce
I0403 14:53:27.872191 17793 net.cpp:425] inception_4c/relu_5x5_reduce <- inception_4c/5x5_reduce
I0403 14:53:27.872210 17793 net.cpp:386] inception_4c/relu_5x5_reduce -> inception_4c/5x5_reduce (in-place)
I0403 14:53:27.872400 17793 net.cpp:141] Setting up inception_4c/relu_5x5_reduce
I0403 14:53:27.872426 17793 net.cpp:148] Top shape: 24 24 14 14 (112896)
I0403 14:53:27.872440 17793 net.cpp:156] Memory required for data: 1048562976
I0403 14:53:27.872455 17793 layer_factory.hpp:77] Creating layer inception_4c/5x5
I0403 14:53:27.872478 17793 net.cpp:91] Creating Layer inception_4c/5x5
I0403 14:53:27.872495 17793 net.cpp:425] inception_4c/5x5 <- inception_4c/5x5_reduce
I0403 14:53:27.872516 17793 net.cpp:399] inception_4c/5x5 -> inception_4c/5x5
I0403 14:53:27.873795 17793 net.cpp:141] Setting up inception_4c/5x5
I0403 14:53:27.873822 17793 net.cpp:148] Top shape: 24 64 14 14 (301056)
I0403 14:53:27.873837 17793 net.cpp:156] Memory required for data: 1049767200
I0403 14:53:27.873857 17793 layer_factory.hpp:77] Creating layer inception_4c/relu_5x5
I0403 14:53:27.873874 17793 net.cpp:91] Creating Layer inception_4c/relu_5x5
I0403 14:53:27.873890 17793 net.cpp:425] inception_4c/relu_5x5 <- inception_4c/5x5
I0403 14:53:27.873909 17793 net.cpp:386] inception_4c/relu_5x5 -> inception_4c/5x5 (in-place)
I0403 14:53:27.874230 17793 net.cpp:141] Setting up inception_4c/relu_5x5
I0403 14:53:27.874258 17793 net.cpp:148] Top shape: 24 64 14 14 (301056)
I0403 14:53:27.874274 17793 net.cpp:156] Memory required for data: 1050971424
I0403 14:53:27.874300 17793 layer_factory.hpp:77] Creating layer inception_4c/pool
I0403 14:53:27.874318 17793 net.cpp:91] Creating Layer inception_4c/pool
I0403 14:53:27.874335 17793 net.cpp:425] inception_4c/pool <- inception_4b/output_inception_4b/output_0_split_3
I0403 14:53:27.874354 17793 net.cpp:399] inception_4c/pool -> inception_4c/pool
I0403 14:53:27.874423 17793 net.cpp:141] Setting up inception_4c/pool
I0403 14:53:27.874449 17793 net.cpp:148] Top shape: 24 512 14 14 (2408448)
I0403 14:53:27.874462 17793 net.cpp:156] Memory required for data: 1060605216
I0403 14:53:27.874477 17793 layer_factory.hpp:77] Creating layer inception_4c/pool_proj
I0403 14:53:27.874501 17793 net.cpp:91] Creating Layer inception_4c/pool_proj
I0403 14:53:27.874519 17793 net.cpp:425] inception_4c/pool_proj <- inception_4c/pool
I0403 14:53:27.874538 17793 net.cpp:399] inception_4c/pool_proj -> inception_4c/pool_proj
I0403 14:53:27.875831 17793 net.cpp:141] Setting up inception_4c/pool_proj
I0403 14:53:27.875864 17793 net.cpp:148] Top shape: 24 64 14 14 (301056)
I0403 14:53:27.875895 17793 net.cpp:156] Memory required for data: 1061809440
I0403 14:53:27.875916 17793 layer_factory.hpp:77] Creating layer inception_4c/relu_pool_proj
I0403 14:53:27.875946 17793 net.cpp:91] Creating Layer inception_4c/relu_pool_proj
I0403 14:53:27.875962 17793 net.cpp:425] inception_4c/relu_pool_proj <- inception_4c/pool_proj
I0403 14:53:27.875982 17793 net.cpp:386] inception_4c/relu_pool_proj -> inception_4c/pool_proj (in-place)
I0403 14:53:27.876179 17793 net.cpp:141] Setting up inception_4c/relu_pool_proj
I0403 14:53:27.876205 17793 net.cpp:148] Top shape: 24 64 14 14 (301056)
I0403 14:53:27.876220 17793 net.cpp:156] Memory required for data: 1063013664
I0403 14:53:27.876235 17793 layer_factory.hpp:77] Creating layer inception_4c/output
I0403 14:53:27.876251 17793 net.cpp:91] Creating Layer inception_4c/output
I0403 14:53:27.876267 17793 net.cpp:425] inception_4c/output <- inception_4c/1x1
I0403 14:53:27.876283 17793 net.cpp:425] inception_4c/output <- inception_4c/3x3
I0403 14:53:27.876299 17793 net.cpp:425] inception_4c/output <- inception_4c/5x5
I0403 14:53:27.876327 17793 net.cpp:425] inception_4c/output <- inception_4c/pool_proj
I0403 14:53:27.876345 17793 net.cpp:399] inception_4c/output -> inception_4c/output
I0403 14:53:27.876392 17793 net.cpp:141] Setting up inception_4c/output
I0403 14:53:27.876418 17793 net.cpp:148] Top shape: 24 512 14 14 (2408448)
I0403 14:53:27.876433 17793 net.cpp:156] Memory required for data: 1072647456
I0403 14:53:27.876447 17793 layer_factory.hpp:77] Creating layer inception_4c/output_inception_4c/output_0_split
I0403 14:53:27.876463 17793 net.cpp:91] Creating Layer inception_4c/output_inception_4c/output_0_split
I0403 14:53:27.876478 17793 net.cpp:425] inception_4c/output_inception_4c/output_0_split <- inception_4c/output
I0403 14:53:27.876498 17793 net.cpp:399] inception_4c/output_inception_4c/output_0_split -> inception_4c/output_inception_4c/output_0_split_0
I0403 14:53:27.876520 17793 net.cpp:399] inception_4c/output_inception_4c/output_0_split -> inception_4c/output_inception_4c/output_0_split_1
I0403 14:53:27.876543 17793 net.cpp:399] inception_4c/output_inception_4c/output_0_split -> inception_4c/output_inception_4c/output_0_split_2
I0403 14:53:27.876562 17793 net.cpp:399] inception_4c/output_inception_4c/output_0_split -> inception_4c/output_inception_4c/output_0_split_3
I0403 14:53:27.876649 17793 net.cpp:141] Setting up inception_4c/output_inception_4c/output_0_split
I0403 14:53:27.876672 17793 net.cpp:148] Top shape: 24 512 14 14 (2408448)
I0403 14:53:27.876688 17793 net.cpp:148] Top shape: 24 512 14 14 (2408448)
I0403 14:53:27.876703 17793 net.cpp:148] Top shape: 24 512 14 14 (2408448)
I0403 14:53:27.876718 17793 net.cpp:148] Top shape: 24 512 14 14 (2408448)
I0403 14:53:27.876731 17793 net.cpp:156] Memory required for data: 1111182624
I0403 14:53:27.876745 17793 layer_factory.hpp:77] Creating layer inception_4d/1x1
I0403 14:53:27.876766 17793 net.cpp:91] Creating Layer inception_4d/1x1
I0403 14:53:27.876785 17793 net.cpp:425] inception_4d/1x1 <- inception_4c/output_inception_4c/output_0_split_0
I0403 14:53:27.876804 17793 net.cpp:399] inception_4d/1x1 -> inception_4d/1x1
I0403 14:53:27.878211 17793 net.cpp:141] Setting up inception_4d/1x1
I0403 14:53:27.878240 17793 net.cpp:148] Top shape: 24 112 14 14 (526848)
I0403 14:53:27.878254 17793 net.cpp:156] Memory required for data: 1113290016
I0403 14:53:27.878271 17793 layer_factory.hpp:77] Creating layer inception_4d/relu_1x1
I0403 14:53:27.878293 17793 net.cpp:91] Creating Layer inception_4d/relu_1x1
I0403 14:53:27.878310 17793 net.cpp:425] inception_4d/relu_1x1 <- inception_4d/1x1
I0403 14:53:27.878329 17793 net.cpp:386] inception_4d/relu_1x1 -> inception_4d/1x1 (in-place)
I0403 14:53:27.878512 17793 net.cpp:141] Setting up inception_4d/relu_1x1
I0403 14:53:27.878540 17793 net.cpp:148] Top shape: 24 112 14 14 (526848)
I0403 14:53:27.878554 17793 net.cpp:156] Memory required for data: 1115397408
I0403 14:53:27.878568 17793 layer_factory.hpp:77] Creating layer inception_4d/3x3_reduce
I0403 14:53:27.878603 17793 net.cpp:91] Creating Layer inception_4d/3x3_reduce
I0403 14:53:27.878621 17793 net.cpp:425] inception_4d/3x3_reduce <- inception_4c/output_inception_4c/output_0_split_1
I0403 14:53:27.878640 17793 net.cpp:399] inception_4d/3x3_reduce -> inception_4d/3x3_reduce
I0403 14:53:27.880170 17793 net.cpp:141] Setting up inception_4d/3x3_reduce
I0403 14:53:27.880199 17793 net.cpp:148] Top shape: 24 144 14 14 (677376)
I0403 14:53:27.880215 17793 net.cpp:156] Memory required for data: 1118106912
I0403 14:53:27.880233 17793 layer_factory.hpp:77] Creating layer inception_4d/relu_3x3_reduce
I0403 14:53:27.880254 17793 net.cpp:91] Creating Layer inception_4d/relu_3x3_reduce
I0403 14:53:27.880270 17793 net.cpp:425] inception_4d/relu_3x3_reduce <- inception_4d/3x3_reduce
I0403 14:53:27.880286 17793 net.cpp:386] inception_4d/relu_3x3_reduce -> inception_4d/3x3_reduce (in-place)
I0403 14:53:27.880578 17793 net.cpp:141] Setting up inception_4d/relu_3x3_reduce
I0403 14:53:27.880604 17793 net.cpp:148] Top shape: 24 144 14 14 (677376)
I0403 14:53:27.880619 17793 net.cpp:156] Memory required for data: 1120816416
I0403 14:53:27.880632 17793 layer_factory.hpp:77] Creating layer inception_4d/3x3
I0403 14:53:27.880656 17793 net.cpp:91] Creating Layer inception_4d/3x3
I0403 14:53:27.880673 17793 net.cpp:425] inception_4d/3x3 <- inception_4d/3x3_reduce
I0403 14:53:27.880693 17793 net.cpp:399] inception_4d/3x3 -> inception_4d/3x3
I0403 14:53:27.886092 17793 net.cpp:141] Setting up inception_4d/3x3
I0403 14:53:27.886121 17793 net.cpp:148] Top shape: 24 288 14 14 (1354752)
I0403 14:53:27.886137 17793 net.cpp:156] Memory required for data: 1126235424
I0403 14:53:27.886154 17793 layer_factory.hpp:77] Creating layer inception_4d/relu_3x3
I0403 14:53:27.886175 17793 net.cpp:91] Creating Layer inception_4d/relu_3x3
I0403 14:53:27.886193 17793 net.cpp:425] inception_4d/relu_3x3 <- inception_4d/3x3
I0403 14:53:27.886209 17793 net.cpp:386] inception_4d/relu_3x3 -> inception_4d/3x3 (in-place)
I0403 14:53:27.886394 17793 net.cpp:141] Setting up inception_4d/relu_3x3
I0403 14:53:27.886427 17793 net.cpp:148] Top shape: 24 288 14 14 (1354752)
I0403 14:53:27.886443 17793 net.cpp:156] Memory required for data: 1131654432
I0403 14:53:27.886457 17793 layer_factory.hpp:77] Creating layer inception_4d/5x5_reduce
I0403 14:53:27.886479 17793 net.cpp:91] Creating Layer inception_4d/5x5_reduce
I0403 14:53:27.886497 17793 net.cpp:425] inception_4d/5x5_reduce <- inception_4c/output_inception_4c/output_0_split_2
I0403 14:53:27.886517 17793 net.cpp:399] inception_4d/5x5_reduce -> inception_4d/5x5_reduce
I0403 14:53:27.887691 17793 net.cpp:141] Setting up inception_4d/5x5_reduce
I0403 14:53:27.887717 17793 net.cpp:148] Top shape: 24 32 14 14 (150528)
I0403 14:53:27.887732 17793 net.cpp:156] Memory required for data: 1132256544
I0403 14:53:27.887750 17793 layer_factory.hpp:77] Creating layer inception_4d/relu_5x5_reduce
I0403 14:53:27.887769 17793 net.cpp:91] Creating Layer inception_4d/relu_5x5_reduce
I0403 14:53:27.887785 17793 net.cpp:425] inception_4d/relu_5x5_reduce <- inception_4d/5x5_reduce
I0403 14:53:27.887801 17793 net.cpp:386] inception_4d/relu_5x5_reduce -> inception_4d/5x5_reduce (in-place)
I0403 14:53:27.887984 17793 net.cpp:141] Setting up inception_4d/relu_5x5_reduce
I0403 14:53:27.888022 17793 net.cpp:148] Top shape: 24 32 14 14 (150528)
I0403 14:53:27.888038 17793 net.cpp:156] Memory required for data: 1132858656
I0403 14:53:27.888053 17793 layer_factory.hpp:77] Creating layer inception_4d/5x5
I0403 14:53:27.888074 17793 net.cpp:91] Creating Layer inception_4d/5x5
I0403 14:53:27.888092 17793 net.cpp:425] inception_4d/5x5 <- inception_4d/5x5_reduce
I0403 14:53:27.888113 17793 net.cpp:399] inception_4d/5x5 -> inception_4d/5x5
I0403 14:53:27.889597 17793 net.cpp:141] Setting up inception_4d/5x5
I0403 14:53:27.889624 17793 net.cpp:148] Top shape: 24 64 14 14 (301056)
I0403 14:53:27.889638 17793 net.cpp:156] Memory required for data: 1134062880
I0403 14:53:27.889657 17793 layer_factory.hpp:77] Creating layer inception_4d/relu_5x5
I0403 14:53:27.889688 17793 net.cpp:91] Creating Layer inception_4d/relu_5x5
I0403 14:53:27.889705 17793 net.cpp:425] inception_4d/relu_5x5 <- inception_4d/5x5
I0403 14:53:27.889724 17793 net.cpp:386] inception_4d/relu_5x5 -> inception_4d/5x5 (in-place)
I0403 14:53:27.890025 17793 net.cpp:141] Setting up inception_4d/relu_5x5
I0403 14:53:27.890050 17793 net.cpp:148] Top shape: 24 64 14 14 (301056)
I0403 14:53:27.890065 17793 net.cpp:156] Memory required for data: 1135267104
I0403 14:53:27.890079 17793 layer_factory.hpp:77] Creating layer inception_4d/pool
I0403 14:53:27.890096 17793 net.cpp:91] Creating Layer inception_4d/pool
I0403 14:53:27.890111 17793 net.cpp:425] inception_4d/pool <- inception_4c/output_inception_4c/output_0_split_3
I0403 14:53:27.890131 17793 net.cpp:399] inception_4d/pool -> inception_4d/pool
I0403 14:53:27.890209 17793 net.cpp:141] Setting up inception_4d/pool
I0403 14:53:27.890233 17793 net.cpp:148] Top shape: 24 512 14 14 (2408448)
I0403 14:53:27.890249 17793 net.cpp:156] Memory required for data: 1144900896
I0403 14:53:27.890264 17793 layer_factory.hpp:77] Creating layer inception_4d/pool_proj
I0403 14:53:27.890286 17793 net.cpp:91] Creating Layer inception_4d/pool_proj
I0403 14:53:27.890305 17793 net.cpp:425] inception_4d/pool_proj <- inception_4d/pool
I0403 14:53:27.890322 17793 net.cpp:399] inception_4d/pool_proj -> inception_4d/pool_proj
I0403 14:53:27.892118 17793 net.cpp:141] Setting up inception_4d/pool_proj
I0403 14:53:27.892148 17793 net.cpp:148] Top shape: 24 64 14 14 (301056)
I0403 14:53:27.892163 17793 net.cpp:156] Memory required for data: 1146105120
I0403 14:53:27.892179 17793 layer_factory.hpp:77] Creating layer inception_4d/relu_pool_proj
I0403 14:53:27.892199 17793 net.cpp:91] Creating Layer inception_4d/relu_pool_proj
I0403 14:53:27.892215 17793 net.cpp:425] inception_4d/relu_pool_proj <- inception_4d/pool_proj
I0403 14:53:27.892231 17793 net.cpp:386] inception_4d/relu_pool_proj -> inception_4d/pool_proj (in-place)
I0403 14:53:27.892412 17793 net.cpp:141] Setting up inception_4d/relu_pool_proj
I0403 14:53:27.892438 17793 net.cpp:148] Top shape: 24 64 14 14 (301056)
I0403 14:53:27.892453 17793 net.cpp:156] Memory required for data: 1147309344
I0403 14:53:27.892468 17793 layer_factory.hpp:77] Creating layer inception_4d/output
I0403 14:53:27.892484 17793 net.cpp:91] Creating Layer inception_4d/output
I0403 14:53:27.892499 17793 net.cpp:425] inception_4d/output <- inception_4d/1x1
I0403 14:53:27.892514 17793 net.cpp:425] inception_4d/output <- inception_4d/3x3
I0403 14:53:27.892530 17793 net.cpp:425] inception_4d/output <- inception_4d/5x5
I0403 14:53:27.892544 17793 net.cpp:425] inception_4d/output <- inception_4d/pool_proj
I0403 14:53:27.892562 17793 net.cpp:399] inception_4d/output -> inception_4d/output
I0403 14:53:27.892608 17793 net.cpp:141] Setting up inception_4d/output
I0403 14:53:27.892632 17793 net.cpp:148] Top shape: 24 528 14 14 (2483712)
I0403 14:53:27.892644 17793 net.cpp:156] Memory required for data: 1157244192
I0403 14:53:27.892658 17793 layer_factory.hpp:77] Creating layer inception_4d/output_inception_4d/output_0_split
I0403 14:53:27.892678 17793 net.cpp:91] Creating Layer inception_4d/output_inception_4d/output_0_split
I0403 14:53:27.892695 17793 net.cpp:425] inception_4d/output_inception_4d/output_0_split <- inception_4d/output
I0403 14:53:27.892711 17793 net.cpp:399] inception_4d/output_inception_4d/output_0_split -> inception_4d/output_inception_4d/output_0_split_0
I0403 14:53:27.892735 17793 net.cpp:399] inception_4d/output_inception_4d/output_0_split -> inception_4d/output_inception_4d/output_0_split_1
I0403 14:53:27.892756 17793 net.cpp:399] inception_4d/output_inception_4d/output_0_split -> inception_4d/output_inception_4d/output_0_split_2
I0403 14:53:27.892776 17793 net.cpp:399] inception_4d/output_inception_4d/output_0_split -> inception_4d/output_inception_4d/output_0_split_3
I0403 14:53:27.892796 17793 net.cpp:399] inception_4d/output_inception_4d/output_0_split -> inception_4d/output_inception_4d/output_0_split_4
I0403 14:53:27.892892 17793 net.cpp:141] Setting up inception_4d/output_inception_4d/output_0_split
I0403 14:53:27.892927 17793 net.cpp:148] Top shape: 24 528 14 14 (2483712)
I0403 14:53:27.892943 17793 net.cpp:148] Top shape: 24 528 14 14 (2483712)
I0403 14:53:27.892957 17793 net.cpp:148] Top shape: 24 528 14 14 (2483712)
I0403 14:53:27.892971 17793 net.cpp:148] Top shape: 24 528 14 14 (2483712)
I0403 14:53:27.892992 17793 net.cpp:148] Top shape: 24 528 14 14 (2483712)
I0403 14:53:27.893019 17793 net.cpp:156] Memory required for data: 1206918432
I0403 14:53:27.893034 17793 layer_factory.hpp:77] Creating layer loss2/ave_pool
I0403 14:53:27.893054 17793 net.cpp:91] Creating Layer loss2/ave_pool
I0403 14:53:27.893082 17793 net.cpp:425] loss2/ave_pool <- inception_4d/output_inception_4d/output_0_split_0
I0403 14:53:27.893101 17793 net.cpp:399] loss2/ave_pool -> loss2/ave_pool
I0403 14:53:27.893435 17793 net.cpp:141] Setting up loss2/ave_pool
I0403 14:53:27.893461 17793 net.cpp:148] Top shape: 24 528 4 4 (202752)
I0403 14:53:27.893479 17793 net.cpp:156] Memory required for data: 1207729440
I0403 14:53:27.893494 17793 layer_factory.hpp:77] Creating layer loss2/conv
I0403 14:53:27.893514 17793 net.cpp:91] Creating Layer loss2/conv
I0403 14:53:27.893532 17793 net.cpp:425] loss2/conv <- loss2/ave_pool
I0403 14:53:27.893553 17793 net.cpp:399] loss2/conv -> loss2/conv
I0403 14:53:27.895547 17793 net.cpp:141] Setting up loss2/conv
I0403 14:53:27.895578 17793 net.cpp:148] Top shape: 24 128 4 4 (49152)
I0403 14:53:27.895596 17793 net.cpp:156] Memory required for data: 1207926048
I0403 14:53:27.895614 17793 layer_factory.hpp:77] Creating layer loss2/relu_conv
I0403 14:53:27.895632 17793 net.cpp:91] Creating Layer loss2/relu_conv
I0403 14:53:27.895649 17793 net.cpp:425] loss2/relu_conv <- loss2/conv
I0403 14:53:27.895669 17793 net.cpp:386] loss2/relu_conv -> loss2/conv (in-place)
I0403 14:53:27.895969 17793 net.cpp:141] Setting up loss2/relu_conv
I0403 14:53:27.896003 17793 net.cpp:148] Top shape: 24 128 4 4 (49152)
I0403 14:53:27.896019 17793 net.cpp:156] Memory required for data: 1208122656
I0403 14:53:27.896034 17793 layer_factory.hpp:77] Creating layer loss2/fc
I0403 14:53:27.896054 17793 net.cpp:91] Creating Layer loss2/fc
I0403 14:53:27.896075 17793 net.cpp:425] loss2/fc <- loss2/conv
I0403 14:53:27.896095 17793 net.cpp:399] loss2/fc -> loss2/fc
I0403 14:53:27.914225 17793 net.cpp:141] Setting up loss2/fc
I0403 14:53:27.914286 17793 net.cpp:148] Top shape: 24 1024 (24576)
I0403 14:53:27.914301 17793 net.cpp:156] Memory required for data: 1208220960
I0403 14:53:27.914321 17793 layer_factory.hpp:77] Creating layer loss2/relu_fc
I0403 14:53:27.914343 17793 net.cpp:91] Creating Layer loss2/relu_fc
I0403 14:53:27.914361 17793 net.cpp:425] loss2/relu_fc <- loss2/fc
I0403 14:53:27.914379 17793 net.cpp:386] loss2/relu_fc -> loss2/fc (in-place)
I0403 14:53:27.914728 17793 net.cpp:141] Setting up loss2/relu_fc
I0403 14:53:27.914757 17793 net.cpp:148] Top shape: 24 1024 (24576)
I0403 14:53:27.914770 17793 net.cpp:156] Memory required for data: 1208319264
I0403 14:53:27.914785 17793 layer_factory.hpp:77] Creating layer loss2/drop_fc
I0403 14:53:27.914808 17793 net.cpp:91] Creating Layer loss2/drop_fc
I0403 14:53:27.914825 17793 net.cpp:425] loss2/drop_fc <- loss2/fc
I0403 14:53:27.914842 17793 net.cpp:386] loss2/drop_fc -> loss2/fc (in-place)
I0403 14:53:27.914896 17793 net.cpp:141] Setting up loss2/drop_fc
I0403 14:53:27.914919 17793 net.cpp:148] Top shape: 24 1024 (24576)
I0403 14:53:27.914933 17793 net.cpp:156] Memory required for data: 1208417568
I0403 14:53:27.914947 17793 layer_factory.hpp:77] Creating layer loss2/classifier_plantvillage
I0403 14:53:27.914969 17793 net.cpp:91] Creating Layer loss2/classifier_plantvillage
I0403 14:53:27.914991 17793 net.cpp:425] loss2/classifier_plantvillage <- loss2/fc
I0403 14:53:27.915011 17793 net.cpp:399] loss2/classifier_plantvillage -> loss2/classifier_plantvillage
I0403 14:53:27.915427 17793 net.cpp:141] Setting up loss2/classifier_plantvillage
I0403 14:53:27.915452 17793 net.cpp:148] Top shape: 24 38 (912)
I0403 14:53:27.915485 17793 net.cpp:156] Memory required for data: 1208421216
I0403 14:53:27.915504 17793 layer_factory.hpp:77] Creating layer loss2/classifier_plantvillage_loss2/classifier_plantvillage_0_split
I0403 14:53:27.915523 17793 net.cpp:91] Creating Layer loss2/classifier_plantvillage_loss2/classifier_plantvillage_0_split
I0403 14:53:27.915539 17793 net.cpp:425] loss2/classifier_plantvillage_loss2/classifier_plantvillage_0_split <- loss2/classifier_plantvillage
I0403 14:53:27.915558 17793 net.cpp:399] loss2/classifier_plantvillage_loss2/classifier_plantvillage_0_split -> loss2/classifier_plantvillage_loss2/classifier_plantvillage_0_split_0
I0403 14:53:27.915580 17793 net.cpp:399] loss2/classifier_plantvillage_loss2/classifier_plantvillage_0_split -> loss2/classifier_plantvillage_loss2/classifier_plantvillage_0_split_1
I0403 14:53:27.915601 17793 net.cpp:399] loss2/classifier_plantvillage_loss2/classifier_plantvillage_0_split -> loss2/classifier_plantvillage_loss2/classifier_plantvillage_0_split_2
I0403 14:53:27.915678 17793 net.cpp:141] Setting up loss2/classifier_plantvillage_loss2/classifier_plantvillage_0_split
I0403 14:53:27.915704 17793 net.cpp:148] Top shape: 24 38 (912)
I0403 14:53:27.915721 17793 net.cpp:148] Top shape: 24 38 (912)
I0403 14:53:27.915736 17793 net.cpp:148] Top shape: 24 38 (912)
I0403 14:53:27.915750 17793 net.cpp:156] Memory required for data: 1208432160
I0403 14:53:27.915763 17793 layer_factory.hpp:77] Creating layer inception_4e/1x1
I0403 14:53:27.915784 17793 net.cpp:91] Creating Layer inception_4e/1x1
I0403 14:53:27.915802 17793 net.cpp:425] inception_4e/1x1 <- inception_4d/output_inception_4d/output_0_split_1
I0403 14:53:27.915822 17793 net.cpp:399] inception_4e/1x1 -> inception_4e/1x1
I0403 14:53:27.917709 17793 net.cpp:141] Setting up inception_4e/1x1
I0403 14:53:27.917737 17793 net.cpp:148] Top shape: 24 256 14 14 (1204224)
I0403 14:53:27.917750 17793 net.cpp:156] Memory required for data: 1213249056
I0403 14:53:27.917768 17793 layer_factory.hpp:77] Creating layer inception_4e/relu_1x1
I0403 14:53:27.917785 17793 net.cpp:91] Creating Layer inception_4e/relu_1x1
I0403 14:53:27.917800 17793 net.cpp:425] inception_4e/relu_1x1 <- inception_4e/1x1
I0403 14:53:27.917819 17793 net.cpp:386] inception_4e/relu_1x1 -> inception_4e/1x1 (in-place)
I0403 14:53:27.918123 17793 net.cpp:141] Setting up inception_4e/relu_1x1
I0403 14:53:27.918162 17793 net.cpp:148] Top shape: 24 256 14 14 (1204224)
I0403 14:53:27.918179 17793 net.cpp:156] Memory required for data: 1218065952
I0403 14:53:27.918192 17793 layer_factory.hpp:77] Creating layer inception_4e/3x3_reduce
I0403 14:53:27.918215 17793 net.cpp:91] Creating Layer inception_4e/3x3_reduce
I0403 14:53:27.918232 17793 net.cpp:425] inception_4e/3x3_reduce <- inception_4d/output_inception_4d/output_0_split_2
I0403 14:53:27.918253 17793 net.cpp:399] inception_4e/3x3_reduce -> inception_4e/3x3_reduce
I0403 14:53:27.920383 17793 net.cpp:141] Setting up inception_4e/3x3_reduce
I0403 14:53:27.920414 17793 net.cpp:148] Top shape: 24 160 14 14 (752640)
I0403 14:53:27.920430 17793 net.cpp:156] Memory required for data: 1221076512
I0403 14:53:27.920449 17793 layer_factory.hpp:77] Creating layer inception_4e/relu_3x3_reduce
I0403 14:53:27.920466 17793 net.cpp:91] Creating Layer inception_4e/relu_3x3_reduce
I0403 14:53:27.920482 17793 net.cpp:425] inception_4e/relu_3x3_reduce <- inception_4e/3x3_reduce
I0403 14:53:27.920501 17793 net.cpp:386] inception_4e/relu_3x3_reduce -> inception_4e/3x3_reduce (in-place)
I0403 14:53:27.920689 17793 net.cpp:141] Setting up inception_4e/relu_3x3_reduce
I0403 14:53:27.920714 17793 net.cpp:148] Top shape: 24 160 14 14 (752640)
I0403 14:53:27.920728 17793 net.cpp:156] Memory required for data: 1224087072
I0403 14:53:27.920743 17793 layer_factory.hpp:77] Creating layer inception_4e/3x3
I0403 14:53:27.920764 17793 net.cpp:91] Creating Layer inception_4e/3x3
I0403 14:53:27.920783 17793 net.cpp:425] inception_4e/3x3 <- inception_4e/3x3_reduce
I0403 14:53:27.920804 17793 net.cpp:399] inception_4e/3x3 -> inception_4e/3x3
I0403 14:53:27.925822 17793 net.cpp:141] Setting up inception_4e/3x3
I0403 14:53:27.925863 17793 net.cpp:148] Top shape: 24 320 14 14 (1505280)
I0403 14:53:27.925879 17793 net.cpp:156] Memory required for data: 1230108192
I0403 14:53:27.925896 17793 layer_factory.hpp:77] Creating layer inception_4e/relu_3x3
I0403 14:53:27.925915 17793 net.cpp:91] Creating Layer inception_4e/relu_3x3
I0403 14:53:27.925931 17793 net.cpp:425] inception_4e/relu_3x3 <- inception_4e/3x3
I0403 14:53:27.925948 17793 net.cpp:386] inception_4e/relu_3x3 -> inception_4e/3x3 (in-place)
I0403 14:53:27.926250 17793 net.cpp:141] Setting up inception_4e/relu_3x3
I0403 14:53:27.926276 17793 net.cpp:148] Top shape: 24 320 14 14 (1505280)
I0403 14:53:27.926290 17793 net.cpp:156] Memory required for data: 1236129312
I0403 14:53:27.926304 17793 layer_factory.hpp:77] Creating layer inception_4e/5x5_reduce
I0403 14:53:27.926328 17793 net.cpp:91] Creating Layer inception_4e/5x5_reduce
I0403 14:53:27.926345 17793 net.cpp:425] inception_4e/5x5_reduce <- inception_4d/output_inception_4d/output_0_split_3
I0403 14:53:27.926368 17793 net.cpp:399] inception_4e/5x5_reduce -> inception_4e/5x5_reduce
I0403 14:53:27.927459 17793 net.cpp:141] Setting up inception_4e/5x5_reduce
I0403 14:53:27.927486 17793 net.cpp:148] Top shape: 24 32 14 14 (150528)
I0403 14:53:27.927501 17793 net.cpp:156] Memory required for data: 1236731424
I0403 14:53:27.927520 17793 layer_factory.hpp:77] Creating layer inception_4e/relu_5x5_reduce
I0403 14:53:27.927536 17793 net.cpp:91] Creating Layer inception_4e/relu_5x5_reduce
I0403 14:53:27.927552 17793 net.cpp:425] inception_4e/relu_5x5_reduce <- inception_4e/5x5_reduce
I0403 14:53:27.927572 17793 net.cpp:386] inception_4e/relu_5x5_reduce -> inception_4e/5x5_reduce (in-place)
I0403 14:53:27.927870 17793 net.cpp:141] Setting up inception_4e/relu_5x5_reduce
I0403 14:53:27.927896 17793 net.cpp:148] Top shape: 24 32 14 14 (150528)
I0403 14:53:27.927911 17793 net.cpp:156] Memory required for data: 1237333536
I0403 14:53:27.927927 17793 layer_factory.hpp:77] Creating layer inception_4e/5x5
I0403 14:53:27.927965 17793 net.cpp:91] Creating Layer inception_4e/5x5
I0403 14:53:27.927996 17793 net.cpp:425] inception_4e/5x5 <- inception_4e/5x5_reduce
I0403 14:53:27.928020 17793 net.cpp:399] inception_4e/5x5 -> inception_4e/5x5
I0403 14:53:27.929874 17793 net.cpp:141] Setting up inception_4e/5x5
I0403 14:53:27.929904 17793 net.cpp:148] Top shape: 24 128 14 14 (602112)
I0403 14:53:27.929919 17793 net.cpp:156] Memory required for data: 1239741984
I0403 14:53:27.929937 17793 layer_factory.hpp:77] Creating layer inception_4e/relu_5x5
I0403 14:53:27.929955 17793 net.cpp:91] Creating Layer inception_4e/relu_5x5
I0403 14:53:27.929970 17793 net.cpp:425] inception_4e/relu_5x5 <- inception_4e/5x5
I0403 14:53:27.930007 17793 net.cpp:386] inception_4e/relu_5x5 -> inception_4e/5x5 (in-place)
I0403 14:53:27.930212 17793 net.cpp:141] Setting up inception_4e/relu_5x5
I0403 14:53:27.930236 17793 net.cpp:148] Top shape: 24 128 14 14 (602112)
I0403 14:53:27.930250 17793 net.cpp:156] Memory required for data: 1242150432
I0403 14:53:27.930265 17793 layer_factory.hpp:77] Creating layer inception_4e/pool
I0403 14:53:27.930282 17793 net.cpp:91] Creating Layer inception_4e/pool
I0403 14:53:27.930299 17793 net.cpp:425] inception_4e/pool <- inception_4d/output_inception_4d/output_0_split_4
I0403 14:53:27.930318 17793 net.cpp:399] inception_4e/pool -> inception_4e/pool
I0403 14:53:27.930388 17793 net.cpp:141] Setting up inception_4e/pool
I0403 14:53:27.930414 17793 net.cpp:148] Top shape: 24 528 14 14 (2483712)
I0403 14:53:27.930429 17793 net.cpp:156] Memory required for data: 1252085280
I0403 14:53:27.930443 17793 layer_factory.hpp:77] Creating layer inception_4e/pool_proj
I0403 14:53:27.930464 17793 net.cpp:91] Creating Layer inception_4e/pool_proj
I0403 14:53:27.930481 17793 net.cpp:425] inception_4e/pool_proj <- inception_4e/pool
I0403 14:53:27.930500 17793 net.cpp:399] inception_4e/pool_proj -> inception_4e/pool_proj
I0403 14:53:27.932032 17793 net.cpp:141] Setting up inception_4e/pool_proj
I0403 14:53:27.932085 17793 net.cpp:148] Top shape: 24 128 14 14 (602112)
I0403 14:53:27.932101 17793 net.cpp:156] Memory required for data: 1254493728
I0403 14:53:27.932118 17793 layer_factory.hpp:77] Creating layer inception_4e/relu_pool_proj
I0403 14:53:27.932137 17793 net.cpp:91] Creating Layer inception_4e/relu_pool_proj
I0403 14:53:27.932152 17793 net.cpp:425] inception_4e/relu_pool_proj <- inception_4e/pool_proj
I0403 14:53:27.932168 17793 net.cpp:386] inception_4e/relu_pool_proj -> inception_4e/pool_proj (in-place)
I0403 14:53:27.932463 17793 net.cpp:141] Setting up inception_4e/relu_pool_proj
I0403 14:53:27.932490 17793 net.cpp:148] Top shape: 24 128 14 14 (602112)
I0403 14:53:27.932507 17793 net.cpp:156] Memory required for data: 1256902176
I0403 14:53:27.932520 17793 layer_factory.hpp:77] Creating layer inception_4e/output
I0403 14:53:27.932538 17793 net.cpp:91] Creating Layer inception_4e/output
I0403 14:53:27.932553 17793 net.cpp:425] inception_4e/output <- inception_4e/1x1
I0403 14:53:27.932569 17793 net.cpp:425] inception_4e/output <- inception_4e/3x3
I0403 14:53:27.932585 17793 net.cpp:425] inception_4e/output <- inception_4e/5x5
I0403 14:53:27.932600 17793 net.cpp:425] inception_4e/output <- inception_4e/pool_proj
I0403 14:53:27.932615 17793 net.cpp:399] inception_4e/output -> inception_4e/output
I0403 14:53:27.932665 17793 net.cpp:141] Setting up inception_4e/output
I0403 14:53:27.932688 17793 net.cpp:148] Top shape: 24 832 14 14 (3913728)
I0403 14:53:27.932703 17793 net.cpp:156] Memory required for data: 1272557088
I0403 14:53:27.932716 17793 layer_factory.hpp:77] Creating layer pool4/3x3_s2
I0403 14:53:27.932734 17793 net.cpp:91] Creating Layer pool4/3x3_s2
I0403 14:53:27.932750 17793 net.cpp:425] pool4/3x3_s2 <- inception_4e/output
I0403 14:53:27.932768 17793 net.cpp:399] pool4/3x3_s2 -> pool4/3x3_s2
I0403 14:53:27.932837 17793 net.cpp:141] Setting up pool4/3x3_s2
I0403 14:53:27.932859 17793 net.cpp:148] Top shape: 24 832 7 7 (978432)
I0403 14:53:27.932873 17793 net.cpp:156] Memory required for data: 1276470816
I0403 14:53:27.932888 17793 layer_factory.hpp:77] Creating layer pool4/3x3_s2_pool4/3x3_s2_0_split
I0403 14:53:27.932904 17793 net.cpp:91] Creating Layer pool4/3x3_s2_pool4/3x3_s2_0_split
I0403 14:53:27.932919 17793 net.cpp:425] pool4/3x3_s2_pool4/3x3_s2_0_split <- pool4/3x3_s2
I0403 14:53:27.932936 17793 net.cpp:399] pool4/3x3_s2_pool4/3x3_s2_0_split -> pool4/3x3_s2_pool4/3x3_s2_0_split_0
I0403 14:53:27.932956 17793 net.cpp:399] pool4/3x3_s2_pool4/3x3_s2_0_split -> pool4/3x3_s2_pool4/3x3_s2_0_split_1
I0403 14:53:27.932977 17793 net.cpp:399] pool4/3x3_s2_pool4/3x3_s2_0_split -> pool4/3x3_s2_pool4/3x3_s2_0_split_2
I0403 14:53:27.933002 17793 net.cpp:399] pool4/3x3_s2_pool4/3x3_s2_0_split -> pool4/3x3_s2_pool4/3x3_s2_0_split_3
I0403 14:53:27.933092 17793 net.cpp:141] Setting up pool4/3x3_s2_pool4/3x3_s2_0_split
I0403 14:53:27.933115 17793 net.cpp:148] Top shape: 24 832 7 7 (978432)
I0403 14:53:27.933130 17793 net.cpp:148] Top shape: 24 832 7 7 (978432)
I0403 14:53:27.933145 17793 net.cpp:148] Top shape: 24 832 7 7 (978432)
I0403 14:53:27.933159 17793 net.cpp:148] Top shape: 24 832 7 7 (978432)
I0403 14:53:27.933172 17793 net.cpp:156] Memory required for data: 1292125728
I0403 14:53:27.933185 17793 layer_factory.hpp:77] Creating layer inception_5a/1x1
I0403 14:53:27.933208 17793 net.cpp:91] Creating Layer inception_5a/1x1
I0403 14:53:27.933226 17793 net.cpp:425] inception_5a/1x1 <- pool4/3x3_s2_pool4/3x3_s2_0_split_0
I0403 14:53:27.933244 17793 net.cpp:399] inception_5a/1x1 -> inception_5a/1x1
I0403 14:53:27.936105 17793 net.cpp:141] Setting up inception_5a/1x1
I0403 14:53:27.936136 17793 net.cpp:148] Top shape: 24 256 7 7 (301056)
I0403 14:53:27.936151 17793 net.cpp:156] Memory required for data: 1293329952
I0403 14:53:27.936169 17793 layer_factory.hpp:77] Creating layer inception_5a/relu_1x1
I0403 14:53:27.936187 17793 net.cpp:91] Creating Layer inception_5a/relu_1x1
I0403 14:53:27.936203 17793 net.cpp:425] inception_5a/relu_1x1 <- inception_5a/1x1
I0403 14:53:27.936221 17793 net.cpp:386] inception_5a/relu_1x1 -> inception_5a/1x1 (in-place)
I0403 14:53:27.936524 17793 net.cpp:141] Setting up inception_5a/relu_1x1
I0403 14:53:27.936553 17793 net.cpp:148] Top shape: 24 256 7 7 (301056)
I0403 14:53:27.936568 17793 net.cpp:156] Memory required for data: 1294534176
I0403 14:53:27.936583 17793 layer_factory.hpp:77] Creating layer inception_5a/3x3_reduce
I0403 14:53:27.936604 17793 net.cpp:91] Creating Layer inception_5a/3x3_reduce
I0403 14:53:27.936621 17793 net.cpp:425] inception_5a/3x3_reduce <- pool4/3x3_s2_pool4/3x3_s2_0_split_1
I0403 14:53:27.936640 17793 net.cpp:399] inception_5a/3x3_reduce -> inception_5a/3x3_reduce
I0403 14:53:27.939126 17793 net.cpp:141] Setting up inception_5a/3x3_reduce
I0403 14:53:27.939155 17793 net.cpp:148] Top shape: 24 160 7 7 (188160)
I0403 14:53:27.939170 17793 net.cpp:156] Memory required for data: 1295286816
I0403 14:53:27.939188 17793 layer_factory.hpp:77] Creating layer inception_5a/relu_3x3_reduce
I0403 14:53:27.939208 17793 net.cpp:91] Creating Layer inception_5a/relu_3x3_reduce
I0403 14:53:27.939224 17793 net.cpp:425] inception_5a/relu_3x3_reduce <- inception_5a/3x3_reduce
I0403 14:53:27.939240 17793 net.cpp:386] inception_5a/relu_3x3_reduce -> inception_5a/3x3_reduce (in-place)
I0403 14:53:27.939427 17793 net.cpp:141] Setting up inception_5a/relu_3x3_reduce
I0403 14:53:27.939453 17793 net.cpp:148] Top shape: 24 160 7 7 (188160)
I0403 14:53:27.939468 17793 net.cpp:156] Memory required for data: 1296039456
I0403 14:53:27.939482 17793 layer_factory.hpp:77] Creating layer inception_5a/3x3
I0403 14:53:27.939505 17793 net.cpp:91] Creating Layer inception_5a/3x3
I0403 14:53:27.939522 17793 net.cpp:425] inception_5a/3x3 <- inception_5a/3x3_reduce
I0403 14:53:27.939541 17793 net.cpp:399] inception_5a/3x3 -> inception_5a/3x3
I0403 14:53:27.944639 17793 net.cpp:141] Setting up inception_5a/3x3
I0403 14:53:27.944670 17793 net.cpp:148] Top shape: 24 320 7 7 (376320)
I0403 14:53:27.944687 17793 net.cpp:156] Memory required for data: 1297544736
I0403 14:53:27.944705 17793 layer_factory.hpp:77] Creating layer inception_5a/relu_3x3
I0403 14:53:27.944722 17793 net.cpp:91] Creating Layer inception_5a/relu_3x3
I0403 14:53:27.944738 17793 net.cpp:425] inception_5a/relu_3x3 <- inception_5a/3x3
I0403 14:53:27.944754 17793 net.cpp:386] inception_5a/relu_3x3 -> inception_5a/3x3 (in-place)
I0403 14:53:27.945055 17793 net.cpp:141] Setting up inception_5a/relu_3x3
I0403 14:53:27.945083 17793 net.cpp:148] Top shape: 24 320 7 7 (376320)
I0403 14:53:27.945098 17793 net.cpp:156] Memory required for data: 1299050016
I0403 14:53:27.945112 17793 layer_factory.hpp:77] Creating layer inception_5a/5x5_reduce
I0403 14:53:27.945133 17793 net.cpp:91] Creating Layer inception_5a/5x5_reduce
I0403 14:53:27.945152 17793 net.cpp:425] inception_5a/5x5_reduce <- pool4/3x3_s2_pool4/3x3_s2_0_split_2
I0403 14:53:27.945169 17793 net.cpp:399] inception_5a/5x5_reduce -> inception_5a/5x5_reduce
I0403 14:53:27.946384 17793 net.cpp:141] Setting up inception_5a/5x5_reduce
I0403 14:53:27.946414 17793 net.cpp:148] Top shape: 24 32 7 7 (37632)
I0403 14:53:27.946429 17793 net.cpp:156] Memory required for data: 1299200544
I0403 14:53:27.946447 17793 layer_factory.hpp:77] Creating layer inception_5a/relu_5x5_reduce
I0403 14:53:27.946465 17793 net.cpp:91] Creating Layer inception_5a/relu_5x5_reduce
I0403 14:53:27.946480 17793 net.cpp:425] inception_5a/relu_5x5_reduce <- inception_5a/5x5_reduce
I0403 14:53:27.946499 17793 net.cpp:386] inception_5a/relu_5x5_reduce -> inception_5a/5x5_reduce (in-place)
I0403 14:53:27.946794 17793 net.cpp:141] Setting up inception_5a/relu_5x5_reduce
I0403 14:53:27.946820 17793 net.cpp:148] Top shape: 24 32 7 7 (37632)
I0403 14:53:27.946833 17793 net.cpp:156] Memory required for data: 1299351072
I0403 14:53:27.946847 17793 layer_factory.hpp:77] Creating layer inception_5a/5x5
I0403 14:53:27.946871 17793 net.cpp:91] Creating Layer inception_5a/5x5
I0403 14:53:27.946888 17793 net.cpp:425] inception_5a/5x5 <- inception_5a/5x5_reduce
I0403 14:53:27.946908 17793 net.cpp:399] inception_5a/5x5 -> inception_5a/5x5
I0403 14:53:27.948637 17793 net.cpp:141] Setting up inception_5a/5x5
I0403 14:53:27.948679 17793 net.cpp:148] Top shape: 24 128 7 7 (150528)
I0403 14:53:27.948695 17793 net.cpp:156] Memory required for data: 1299953184
I0403 14:53:27.948712 17793 layer_factory.hpp:77] Creating layer inception_5a/relu_5x5
I0403 14:53:27.948730 17793 net.cpp:91] Creating Layer inception_5a/relu_5x5
I0403 14:53:27.948745 17793 net.cpp:425] inception_5a/relu_5x5 <- inception_5a/5x5
I0403 14:53:27.948762 17793 net.cpp:386] inception_5a/relu_5x5 -> inception_5a/5x5 (in-place)
I0403 14:53:27.948953 17793 net.cpp:141] Setting up inception_5a/relu_5x5
I0403 14:53:27.948977 17793 net.cpp:148] Top shape: 24 128 7 7 (150528)
I0403 14:53:27.948997 17793 net.cpp:156] Memory required for data: 1300555296
I0403 14:53:27.949012 17793 layer_factory.hpp:77] Creating layer inception_5a/pool
I0403 14:53:27.949029 17793 net.cpp:91] Creating Layer inception_5a/pool
I0403 14:53:27.949044 17793 net.cpp:425] inception_5a/pool <- pool4/3x3_s2_pool4/3x3_s2_0_split_3
I0403 14:53:27.949064 17793 net.cpp:399] inception_5a/pool -> inception_5a/pool
I0403 14:53:27.949132 17793 net.cpp:141] Setting up inception_5a/pool
I0403 14:53:27.949159 17793 net.cpp:148] Top shape: 24 832 7 7 (978432)
I0403 14:53:27.949174 17793 net.cpp:156] Memory required for data: 1304469024
I0403 14:53:27.949187 17793 layer_factory.hpp:77] Creating layer inception_5a/pool_proj
I0403 14:53:27.949208 17793 net.cpp:91] Creating Layer inception_5a/pool_proj
I0403 14:53:27.949226 17793 net.cpp:425] inception_5a/pool_proj <- inception_5a/pool
I0403 14:53:27.949244 17793 net.cpp:399] inception_5a/pool_proj -> inception_5a/pool_proj
I0403 14:53:27.951611 17793 net.cpp:141] Setting up inception_5a/pool_proj
I0403 14:53:27.951640 17793 net.cpp:148] Top shape: 24 128 7 7 (150528)
I0403 14:53:27.951654 17793 net.cpp:156] Memory required for data: 1305071136
I0403 14:53:27.951673 17793 layer_factory.hpp:77] Creating layer inception_5a/relu_pool_proj
I0403 14:53:27.951691 17793 net.cpp:91] Creating Layer inception_5a/relu_pool_proj
I0403 14:53:27.951707 17793 net.cpp:425] inception_5a/relu_pool_proj <- inception_5a/pool_proj
I0403 14:53:27.951724 17793 net.cpp:386] inception_5a/relu_pool_proj -> inception_5a/pool_proj (in-place)
I0403 14:53:27.952023 17793 net.cpp:141] Setting up inception_5a/relu_pool_proj
I0403 14:53:27.952049 17793 net.cpp:148] Top shape: 24 128 7 7 (150528)
I0403 14:53:27.952064 17793 net.cpp:156] Memory required for data: 1305673248
I0403 14:53:27.952077 17793 layer_factory.hpp:77] Creating layer inception_5a/output
I0403 14:53:27.952095 17793 net.cpp:91] Creating Layer inception_5a/output
I0403 14:53:27.952111 17793 net.cpp:425] inception_5a/output <- inception_5a/1x1
I0403 14:53:27.952127 17793 net.cpp:425] inception_5a/output <- inception_5a/3x3
I0403 14:53:27.952142 17793 net.cpp:425] inception_5a/output <- inception_5a/5x5
I0403 14:53:27.952157 17793 net.cpp:425] inception_5a/output <- inception_5a/pool_proj
I0403 14:53:27.952173 17793 net.cpp:399] inception_5a/output -> inception_5a/output
I0403 14:53:27.952224 17793 net.cpp:141] Setting up inception_5a/output
I0403 14:53:27.952245 17793 net.cpp:148] Top shape: 24 832 7 7 (978432)
I0403 14:53:27.952260 17793 net.cpp:156] Memory required for data: 1309586976
I0403 14:53:27.952275 17793 layer_factory.hpp:77] Creating layer inception_5a/output_inception_5a/output_0_split
I0403 14:53:27.952291 17793 net.cpp:91] Creating Layer inception_5a/output_inception_5a/output_0_split
I0403 14:53:27.952306 17793 net.cpp:425] inception_5a/output_inception_5a/output_0_split <- inception_5a/output
I0403 14:53:27.952325 17793 net.cpp:399] inception_5a/output_inception_5a/output_0_split -> inception_5a/output_inception_5a/output_0_split_0
I0403 14:53:27.952345 17793 net.cpp:399] inception_5a/output_inception_5a/output_0_split -> inception_5a/output_inception_5a/output_0_split_1
I0403 14:53:27.952365 17793 net.cpp:399] inception_5a/output_inception_5a/output_0_split -> inception_5a/output_inception_5a/output_0_split_2
I0403 14:53:27.952384 17793 net.cpp:399] inception_5a/output_inception_5a/output_0_split -> inception_5a/output_inception_5a/output_0_split_3
I0403 14:53:27.952493 17793 net.cpp:141] Setting up inception_5a/output_inception_5a/output_0_split
I0403 14:53:27.952518 17793 net.cpp:148] Top shape: 24 832 7 7 (978432)
I0403 14:53:27.952534 17793 net.cpp:148] Top shape: 24 832 7 7 (978432)
I0403 14:53:27.952549 17793 net.cpp:148] Top shape: 24 832 7 7 (978432)
I0403 14:53:27.952564 17793 net.cpp:148] Top shape: 24 832 7 7 (978432)
I0403 14:53:27.952576 17793 net.cpp:156] Memory required for data: 1325241888
I0403 14:53:27.952589 17793 layer_factory.hpp:77] Creating layer inception_5b/1x1
I0403 14:53:27.952611 17793 net.cpp:91] Creating Layer inception_5b/1x1
I0403 14:53:27.952628 17793 net.cpp:425] inception_5b/1x1 <- inception_5a/output_inception_5a/output_0_split_0
I0403 14:53:27.952648 17793 net.cpp:399] inception_5b/1x1 -> inception_5b/1x1
I0403 14:53:27.956521 17793 net.cpp:141] Setting up inception_5b/1x1
I0403 14:53:27.956552 17793 net.cpp:148] Top shape: 24 384 7 7 (451584)
I0403 14:53:27.956568 17793 net.cpp:156] Memory required for data: 1327048224
I0403 14:53:27.956586 17793 layer_factory.hpp:77] Creating layer inception_5b/relu_1x1
I0403 14:53:27.956606 17793 net.cpp:91] Creating Layer inception_5b/relu_1x1
I0403 14:53:27.956624 17793 net.cpp:425] inception_5b/relu_1x1 <- inception_5b/1x1
I0403 14:53:27.956640 17793 net.cpp:386] inception_5b/relu_1x1 -> inception_5b/1x1 (in-place)
I0403 14:53:27.956949 17793 net.cpp:141] Setting up inception_5b/relu_1x1
I0403 14:53:27.956975 17793 net.cpp:148] Top shape: 24 384 7 7 (451584)
I0403 14:53:27.956997 17793 net.cpp:156] Memory required for data: 1328854560
I0403 14:53:27.957013 17793 layer_factory.hpp:77] Creating layer inception_5b/3x3_reduce
I0403 14:53:27.957036 17793 net.cpp:91] Creating Layer inception_5b/3x3_reduce
I0403 14:53:27.957054 17793 net.cpp:425] inception_5b/3x3_reduce <- inception_5a/output_inception_5a/output_0_split_1
I0403 14:53:27.957077 17793 net.cpp:399] inception_5b/3x3_reduce -> inception_5b/3x3_reduce
I0403 14:53:27.959784 17793 net.cpp:141] Setting up inception_5b/3x3_reduce
I0403 14:53:27.959813 17793 net.cpp:148] Top shape: 24 192 7 7 (225792)
I0403 14:53:27.959830 17793 net.cpp:156] Memory required for data: 1329757728
I0403 14:53:27.959847 17793 layer_factory.hpp:77] Creating layer inception_5b/relu_3x3_reduce
I0403 14:53:27.959868 17793 net.cpp:91] Creating Layer inception_5b/relu_3x3_reduce
I0403 14:53:27.959885 17793 net.cpp:425] inception_5b/relu_3x3_reduce <- inception_5b/3x3_reduce
I0403 14:53:27.959903 17793 net.cpp:386] inception_5b/relu_3x3_reduce -> inception_5b/3x3_reduce (in-place)
I0403 14:53:27.960104 17793 net.cpp:141] Setting up inception_5b/relu_3x3_reduce
I0403 14:53:27.960131 17793 net.cpp:148] Top shape: 24 192 7 7 (225792)
I0403 14:53:27.960146 17793 net.cpp:156] Memory required for data: 1330660896
I0403 14:53:27.960160 17793 layer_factory.hpp:77] Creating layer inception_5b/3x3
I0403 14:53:27.960182 17793 net.cpp:91] Creating Layer inception_5b/3x3
I0403 14:53:27.960201 17793 net.cpp:425] inception_5b/3x3 <- inception_5b/3x3_reduce
I0403 14:53:27.960222 17793 net.cpp:399] inception_5b/3x3 -> inception_5b/3x3
I0403 14:53:27.967198 17793 net.cpp:141] Setting up inception_5b/3x3
I0403 14:53:27.967228 17793 net.cpp:148] Top shape: 24 384 7 7 (451584)
I0403 14:53:27.967244 17793 net.cpp:156] Memory required for data: 1332467232
I0403 14:53:27.967263 17793 layer_factory.hpp:77] Creating layer inception_5b/relu_3x3
I0403 14:53:27.967283 17793 net.cpp:91] Creating Layer inception_5b/relu_3x3
I0403 14:53:27.967301 17793 net.cpp:425] inception_5b/relu_3x3 <- inception_5b/3x3
I0403 14:53:27.967319 17793 net.cpp:386] inception_5b/relu_3x3 -> inception_5b/3x3 (in-place)
I0403 14:53:27.967628 17793 net.cpp:141] Setting up inception_5b/relu_3x3
I0403 14:53:27.967656 17793 net.cpp:148] Top shape: 24 384 7 7 (451584)
I0403 14:53:27.967671 17793 net.cpp:156] Memory required for data: 1334273568
I0403 14:53:27.967685 17793 layer_factory.hpp:77] Creating layer inception_5b/5x5_reduce
I0403 14:53:27.967730 17793 net.cpp:91] Creating Layer inception_5b/5x5_reduce
I0403 14:53:27.967749 17793 net.cpp:425] inception_5b/5x5_reduce <- inception_5a/output_inception_5a/output_0_split_2
I0403 14:53:27.967769 17793 net.cpp:399] inception_5b/5x5_reduce -> inception_5b/5x5_reduce
I0403 14:53:27.969121 17793 net.cpp:141] Setting up inception_5b/5x5_reduce
I0403 14:53:27.969151 17793 net.cpp:148] Top shape: 24 48 7 7 (56448)
I0403 14:53:27.969169 17793 net.cpp:156] Memory required for data: 1334499360
I0403 14:53:27.969187 17793 layer_factory.hpp:77] Creating layer inception_5b/relu_5x5_reduce
I0403 14:53:27.969205 17793 net.cpp:91] Creating Layer inception_5b/relu_5x5_reduce
I0403 14:53:27.969223 17793 net.cpp:425] inception_5b/relu_5x5_reduce <- inception_5b/5x5_reduce
I0403 14:53:27.969239 17793 net.cpp:386] inception_5b/relu_5x5_reduce -> inception_5b/5x5_reduce (in-place)
I0403 14:53:27.969635 17793 net.cpp:141] Setting up inception_5b/relu_5x5_reduce
I0403 14:53:27.969661 17793 net.cpp:148] Top shape: 24 48 7 7 (56448)
I0403 14:53:27.969676 17793 net.cpp:156] Memory required for data: 1334725152
I0403 14:53:27.969691 17793 layer_factory.hpp:77] Creating layer inception_5b/5x5
I0403 14:53:27.969712 17793 net.cpp:91] Creating Layer inception_5b/5x5
I0403 14:53:27.969729 17793 net.cpp:425] inception_5b/5x5 <- inception_5b/5x5_reduce
I0403 14:53:27.969748 17793 net.cpp:399] inception_5b/5x5 -> inception_5b/5x5
I0403 14:53:27.971949 17793 net.cpp:141] Setting up inception_5b/5x5
I0403 14:53:27.971981 17793 net.cpp:148] Top shape: 24 128 7 7 (150528)
I0403 14:53:27.972002 17793 net.cpp:156] Memory required for data: 1335327264
I0403 14:53:27.972021 17793 layer_factory.hpp:77] Creating layer inception_5b/relu_5x5
I0403 14:53:27.972039 17793 net.cpp:91] Creating Layer inception_5b/relu_5x5
I0403 14:53:27.972056 17793 net.cpp:425] inception_5b/relu_5x5 <- inception_5b/5x5
I0403 14:53:27.972075 17793 net.cpp:386] inception_5b/relu_5x5 -> inception_5b/5x5 (in-place)
I0403 14:53:27.972273 17793 net.cpp:141] Setting up inception_5b/relu_5x5
I0403 14:53:27.972298 17793 net.cpp:148] Top shape: 24 128 7 7 (150528)
I0403 14:53:27.972313 17793 net.cpp:156] Memory required for data: 1335929376
I0403 14:53:27.972327 17793 layer_factory.hpp:77] Creating layer inception_5b/pool
I0403 14:53:27.972345 17793 net.cpp:91] Creating Layer inception_5b/pool
I0403 14:53:27.972360 17793 net.cpp:425] inception_5b/pool <- inception_5a/output_inception_5a/output_0_split_3
I0403 14:53:27.972380 17793 net.cpp:399] inception_5b/pool -> inception_5b/pool
I0403 14:53:27.972455 17793 net.cpp:141] Setting up inception_5b/pool
I0403 14:53:27.972479 17793 net.cpp:148] Top shape: 24 832 7 7 (978432)
I0403 14:53:27.972492 17793 net.cpp:156] Memory required for data: 1339843104
I0403 14:53:27.972507 17793 layer_factory.hpp:77] Creating layer inception_5b/pool_proj
I0403 14:53:27.972529 17793 net.cpp:91] Creating Layer inception_5b/pool_proj
I0403 14:53:27.972548 17793 net.cpp:425] inception_5b/pool_proj <- inception_5b/pool
I0403 14:53:27.972566 17793 net.cpp:399] inception_5b/pool_proj -> inception_5b/pool_proj
I0403 14:53:27.974906 17793 net.cpp:141] Setting up inception_5b/pool_proj
I0403 14:53:27.974937 17793 net.cpp:148] Top shape: 24 128 7 7 (150528)
I0403 14:53:27.974953 17793 net.cpp:156] Memory required for data: 1340445216
I0403 14:53:27.974973 17793 layer_factory.hpp:77] Creating layer inception_5b/relu_pool_proj
I0403 14:53:27.974997 17793 net.cpp:91] Creating Layer inception_5b/relu_pool_proj
I0403 14:53:27.975013 17793 net.cpp:425] inception_5b/relu_pool_proj <- inception_5b/pool_proj
I0403 14:53:27.975030 17793 net.cpp:386] inception_5b/relu_pool_proj -> inception_5b/pool_proj (in-place)
I0403 14:53:27.975339 17793 net.cpp:141] Setting up inception_5b/relu_pool_proj
I0403 14:53:27.975368 17793 net.cpp:148] Top shape: 24 128 7 7 (150528)
I0403 14:53:27.975383 17793 net.cpp:156] Memory required for data: 1341047328
I0403 14:53:27.975399 17793 layer_factory.hpp:77] Creating layer inception_5b/output
I0403 14:53:27.975415 17793 net.cpp:91] Creating Layer inception_5b/output
I0403 14:53:27.975445 17793 net.cpp:425] inception_5b/output <- inception_5b/1x1
I0403 14:53:27.975462 17793 net.cpp:425] inception_5b/output <- inception_5b/3x3
I0403 14:53:27.975478 17793 net.cpp:425] inception_5b/output <- inception_5b/5x5
I0403 14:53:27.975494 17793 net.cpp:425] inception_5b/output <- inception_5b/pool_proj
I0403 14:53:27.975512 17793 net.cpp:399] inception_5b/output -> inception_5b/output
I0403 14:53:27.975565 17793 net.cpp:141] Setting up inception_5b/output
I0403 14:53:27.975589 17793 net.cpp:148] Top shape: 24 1024 7 7 (1204224)
I0403 14:53:27.975603 17793 net.cpp:156] Memory required for data: 1345864224
I0403 14:53:27.975616 17793 layer_factory.hpp:77] Creating layer pool5/7x7_s1
I0403 14:53:27.975636 17793 net.cpp:91] Creating Layer pool5/7x7_s1
I0403 14:53:27.975652 17793 net.cpp:425] pool5/7x7_s1 <- inception_5b/output
I0403 14:53:27.975671 17793 net.cpp:399] pool5/7x7_s1 -> pool5/7x7_s1
I0403 14:53:27.975888 17793 net.cpp:141] Setting up pool5/7x7_s1
I0403 14:53:27.975916 17793 net.cpp:148] Top shape: 24 1024 1 1 (24576)
I0403 14:53:27.975931 17793 net.cpp:156] Memory required for data: 1345962528
I0403 14:53:27.975945 17793 layer_factory.hpp:77] Creating layer pool5/drop_7x7_s1
I0403 14:53:27.975963 17793 net.cpp:91] Creating Layer pool5/drop_7x7_s1
I0403 14:53:27.975980 17793 net.cpp:425] pool5/drop_7x7_s1 <- pool5/7x7_s1
I0403 14:53:27.976003 17793 net.cpp:386] pool5/drop_7x7_s1 -> pool5/7x7_s1 (in-place)
I0403 14:53:27.976057 17793 net.cpp:141] Setting up pool5/drop_7x7_s1
I0403 14:53:27.976079 17793 net.cpp:148] Top shape: 24 1024 1 1 (24576)
I0403 14:53:27.976094 17793 net.cpp:156] Memory required for data: 1346060832
I0403 14:53:27.976109 17793 layer_factory.hpp:77] Creating layer loss3/classifier_plantvillage
I0403 14:53:27.976130 17793 net.cpp:91] Creating Layer loss3/classifier_plantvillage
I0403 14:53:27.976146 17793 net.cpp:425] loss3/classifier_plantvillage <- pool5/7x7_s1
I0403 14:53:27.976164 17793 net.cpp:399] loss3/classifier_plantvillage -> loss3/classifier_plantvillage
I0403 14:53:27.976593 17793 net.cpp:141] Setting up loss3/classifier_plantvillage
I0403 14:53:27.976619 17793 net.cpp:148] Top shape: 24 38 (912)
I0403 14:53:27.976632 17793 net.cpp:156] Memory required for data: 1346064480
I0403 14:53:27.976650 17793 layer_factory.hpp:77] Creating layer loss3/classifier_plantvillage_loss3/classifier_plantvillage_0_split
I0403 14:53:27.976668 17793 net.cpp:91] Creating Layer loss3/classifier_plantvillage_loss3/classifier_plantvillage_0_split
I0403 14:53:27.976685 17793 net.cpp:425] loss3/classifier_plantvillage_loss3/classifier_plantvillage_0_split <- loss3/classifier_plantvillage
I0403 14:53:27.976704 17793 net.cpp:399] loss3/classifier_plantvillage_loss3/classifier_plantvillage_0_split -> loss3/classifier_plantvillage_loss3/classifier_plantvillage_0_split_0
I0403 14:53:27.976725 17793 net.cpp:399] loss3/classifier_plantvillage_loss3/classifier_plantvillage_0_split -> loss3/classifier_plantvillage_loss3/classifier_plantvillage_0_split_1
I0403 14:53:27.976745 17793 net.cpp:399] loss3/classifier_plantvillage_loss3/classifier_plantvillage_0_split -> loss3/classifier_plantvillage_loss3/classifier_plantvillage_0_split_2
I0403 14:53:27.976765 17793 net.cpp:399] loss3/classifier_plantvillage_loss3/classifier_plantvillage_0_split -> loss3/classifier_plantvillage_loss3/classifier_plantvillage_0_split_3
I0403 14:53:27.976872 17793 net.cpp:141] Setting up loss3/classifier_plantvillage_loss3/classifier_plantvillage_0_split
I0403 14:53:27.976896 17793 net.cpp:148] Top shape: 24 38 (912)
I0403 14:53:27.976910 17793 net.cpp:148] Top shape: 24 38 (912)
I0403 14:53:27.976925 17793 net.cpp:148] Top shape: 24 38 (912)
I0403 14:53:27.976940 17793 net.cpp:148] Top shape: 24 38 (912)
I0403 14:53:27.976953 17793 net.cpp:156] Memory required for data: 1346079072
I0403 14:53:27.976968 17793 layer_factory.hpp:77] Creating layer loss1/loss
I0403 14:53:27.976994 17793 net.cpp:91] Creating Layer loss1/loss
I0403 14:53:27.977012 17793 net.cpp:425] loss1/loss <- loss1/classifier_plantvillage_loss1/classifier_plantvillage_0_split_0
I0403 14:53:27.977042 17793 net.cpp:425] loss1/loss <- label_data_1_split_0
…
