…
I0403 15:42:52.857020 20189 net.cpp:313] The NetState phase (1) differed from the phase (0) specified by a rule in layer data
I0403 15:42:52.858150 20189 net.cpp:49] Initializing net from parameters: 
state {
  phase: TEST
}
layer {
  name: "data"
  type: "Data"
  top: "data"
  top: "label"
  include {
    phase: TEST
  }
  transform_param {
    mirror: false
    crop_size: 224
    mean_file: "/home/mohanty/data/final_dataset/lmdb/grayscale-40-60/mean.binaryproto"
  }
  data_param {
    source: "/home/mohanty/data/final_dataset/lmdb/grayscale-40-60/test_db"
    batch_size: 24
    backend: LMDB
  }
}
layer {
  name: "conv1/7x7_s2"
  type: "Convolution"
  bottom: "data"
  top: "conv1/7x7_s2"
  param {
    lr_mult: 1
    decay_mult: 1
  }
  param {
    lr_mult: 2
    decay_mult: 0
  }
  convolution_param {
    num_output: 64
    pad: 3
    kernel_size: 7
    stride: 2
    weight_filler {
      type: "xavier"
      std: 0.1
    }
    bias_filler {
      type: "constant"
      value: 0.2
    }
  }
}
layer {
  name: "conv1/relu_7x7"
  type: "ReLU"
  bottom: "conv1/7x7_s2"
  top: "conv1/7x7_s2"
}
layer {
  name: "pool1/3x3_s2"
  type: "Pooling"
  bottom: "conv1/7x7_s2"
  top: "pool1/3x3_s2"
  pooling_param {
    pool: MAX
    kernel_size: 3
    stride: 2
  }
}
layer {
  name: "pool1/norm1"
  type: "LRN"
  bottom: "pool1/3x3_s2"
  top: "pool1/norm1"
  lrn_param {
    local_size: 5
    alpha: 0.0001
    beta: 0.75
  }
}
layer {
  name: "conv2/3x3_reduce"
  type: "Convolution"
  bottom: "pool1/norm1"
  top: "conv2/3x3_reduce"
  param {
    lr_mult: 1
    decay_mult: 1
  }
  param {
    lr_mult: 2
    decay_mult: 0
  }
  convolution_param {
    num_output: 64
    kernel_size: 1
    weight_filler {
      type: "xavier"
      std: 0.1
    }
    bias_filler {
      type: "constant"
      value: 0.2
    }
  }
}
layer {
  name: "conv2/relu_3x3_reduce"
  type: "ReLU"
  bottom: "conv2/3x3_reduce"
  top: "conv2/3x3_reduce"
}
layer {
  name: "conv2/3x3"
  type: "Convolution"
  bottom: "conv2/3x3_reduce"
  top: "conv2/3x3"
  param {
    lr_mult: 1
    decay_mult: 1
  }
  param {
    lr_mult: 2
    decay_mult: 0
  }
  convolution_param {
    num_output: 192
    pad: 1
    kernel_size: 3
    weight_filler {
      type: "xavier"
      std: 0.03
    }
    bias_filler {
      type: "constant"
      value: 0.2
    }
  }
}
layer {
  name: "conv2/relu_3x3"
  type: "ReLU"
  bottom: "conv2/3x3"
  top: "conv2/3x3"
}
layer {
  name: "conv2/norm2"
  type: "LRN"
  bottom: "conv2/3x3"
  top: "conv2/norm2"
  lrn_param {
    local_size: 5
    alpha: 0.0001
    beta: 0.75
  }
}
layer {
  name: "pool2/3x3_s2"
  type: "Pooling"
  bottom: "conv2/norm2"
  top: "pool2/3x3_s2"
  pooling_param {
    pool: MAX
    kernel_size: 3
    stride: 2
  }
}
layer {
  name: "inception_3a/1x1"
  type: "Convolution"
  bottom: "pool2/3x3_s2"
  top: "inception_3a/1x1"
  param {
    lr_mult: 1
    decay_mult: 1
  }
  param {
    lr_mult: 2
    decay_mult: 0
  }
  convolution_param {
    num_output: 64
    kernel_size: 1
    weight_filler {
      type: "xavier"
      std: 0.03
    }
    bias_filler {
      type: "constant"
      value: 0.2
    }
  }
}
layer {
  name: "inception_3a/relu_1x1"
  type: "ReLU"
  bottom: "inception_3a/1x1"
  top: "inception_3a/1x1"
}
layer {
  name: "inception_3a/3x3_reduce"
  type: "Convolution"
  bottom: "pool2/3x3_s2"
  top: "inception_3a/3x3_reduce"
  param {
    lr_mult: 1
    decay_mult: 1
  }
  param {
    lr_mult: 2
    decay_mult: 0
  }
  convolution_param {
    num_output: 96
    kernel_size: 1
    weight_filler {
      type: "xavier"
      std: 0.09
    }
    bias_filler {
      type: "constant"
      value: 0.2
    }
  }
}
layer {
  name: "inception_3a/relu_3x3_reduce"
  type: "ReLU"
  bottom: "inception_3a/3x3_reduce"
  top: "inception_3a/3x3_reduce"
}
layer {
  name: "inception_3a/3x3"
  type: "Convolution"
  bottom: "inception_3a/3x3_reduce"
  top: "inception_3a/3x3"
  param {
    lr_mult: 1
    decay_mult: 1
  }
  param {
    lr_mult: 2
    decay_mult: 0
  }
  convolution_param {
    num_output: 128
    pad: 1
    kernel_size: 3
    weight_filler {
      type: "xavier"
      std: 0.03
    }
    bias_filler {
      type: "constant"
      value: 0.2
    }
  }
}
layer {
  name: "inception_3a/relu_3x3"
  type: "ReLU"
  bottom: "inception_3a/3x3"
  top: "inception_3a/3x3"
}
layer {
  name: "inception_3a/5x5_reduce"
  type: "Convolution"
  bottom: "pool2/3x3_s2"
  top: "inception_3a/5x5_reduce"
  param {
    lr_mult: 1
    decay_mult: 1
  }
  param {
    lr_mult: 2
    decay_mult: 0
  }
  convolution_param {
    num_output: 16
    kernel_size: 1
    weight_filler {
      type: "xavier"
      std: 0.2
    }
    bias_filler {
      type: "constant"
      value: 0.2
    }
  }
}
layer {
  name: "inception_3a/relu_5x5_reduce"
  type: "ReLU"
  bottom: "inception_3a/5x5_reduce"
  top: "inception_3a/5x5_reduce"
}
layer {
  name: "inception_3a/5x5"
  type: "Convolution"
  bottom: "inception_3a/5x5_reduce"
  top: "inception_3a/5x5"
  param {
    lr_mult: 1
    decay_mult: 1
  }
  param {
    lr_mult: 2
    decay_mult: 0
  }
  convolution_param {
    num_output: 32
    pad: 2
    kernel_size: 5
    weight_filler {
      type: "xavier"
      std: 0.03
    }
    bias_filler {
      type: "constant"
      value: 0.2
    }
  }
}
layer {
  name: "inception_3a/relu_5x5"
  type: "ReLU"
  bottom: "inception_3a/5x5"
  top: "inception_3a/5x5"
}
layer {
  name: "inception_3a/pool"
  type: "Pooling"
  bottom: "pool2/3x3_s2"
  top: "inception_3a/pool"
  pooling_param {
    pool: MAX
    kernel_size: 3
    stride: 1
    pad: 1
  }
}
layer {
  name: "inception_3a/pool_proj"
  type: "Convolution"
  bottom: "inception_3a/pool"
  top: "inception_3a/pool_proj"
  param {
    lr_mult: 1
    decay_mult: 1
  }
  param {
    lr_mult: 2
    decay_mult: 0
  }
  convolution_param {
    num_output: 32
    kernel_size: 1
    weight_filler {
      type: "xavier"
      std: 0.1
    }
    bias_filler {
      type: "constant"
      value: 0.2
    }
  }
}
layer {
  name: "inception_3a/relu_pool_proj"
  type: "ReLU"
  bottom: "inception_3a/pool_proj"
  top: "inception_3a/pool_proj"
}
layer {
  name: "inception_3a/output"
  type: "Concat"
  bottom: "inception_3a/1x1"
  bottom: "inception_3a/3x3"
  bottom: "inception_3a/5x5"
  bottom: "inception_3a/pool_proj"
  top: "inception_3a/output"
}
layer {
  name: "inception_3b/1x1"
  type: "Convolution"
  bottom: "inception_3a/output"
  top: "inception_3b/1x1"
  param {
    lr_mult: 1
    decay_mult: 1
  }
  param {
    lr_mult: 2
    decay_mult: 0
  }
  convolution_param {
    num_output: 128
    kernel_size: 1
    weight_filler {
      type: "xavier"
      std: 0.03
    }
    bias_filler {
      type: "constant"
      value: 0.2
    }
  }
}
layer {
  name: "inception_3b/relu_1x1"
  type: "ReLU"
  bottom: "inception_3b/1x1"
  top: "inception_3b/1x1"
}
layer {
  name: "inception_3b/3x3_reduce"
  type: "Convolution"
  bottom: "inception_3a/output"
  top: "inception_3b/3x3_reduce"
  param {
    lr_mult: 1
    decay_mult: 1
  }
  param {
    lr_mult: 2
    decay_mult: 0
  }
  convolution_param {
    num_output: 128
    kernel_size: 1
    weight_filler {
      type: "xavier"
      std: 0.09
    }
    bias_filler {
      type: "constant"
      value: 0.2
    }
  }
}
layer {
  name: "inception_3b/relu_3x3_reduce"
  type: "ReLU"
  bottom: "inception_3b/3x3_reduce"
  top: "inception_3b/3x3_reduce"
}
layer {
  name: "inception_3b/3x3"
  type: "Convolution"
  bottom: "inception_3b/3x3_reduce"
  top: "inception_3b/3x3"
  param {
    lr_mult: 1
    decay_mult: 1
  }
  param {
    lr_mult: 2
    decay_mult: 0
  }
  convolution_param {
    num_output: 192
    pad: 1
    kernel_size: 3
    weight_filler {
      type: "xavier"
      std: 0.03
    }
    bias_filler {
      type: "constant"
      value: 0.2
    }
  }
}
layer {
  name: "inception_3b/relu_3x3"
  type: "ReLU"
  bottom: "inception_3b/3x3"
  top: "inception_3b/3x3"
}
layer {
  name: "inception_3b/5x5_reduce"
  type: "Convolution"
  bottom: "inception_3a/output"
  top: "inception_3b/5x5_reduce"
  param {
    lr_mult: 1
    decay_mult: 1
  }
  param {
    lr_mult: 2
    decay_mult: 0
  }
  convolution_param {
    num_output: 32
    kernel_size: 1
    weight_filler {
      type: "xavier"
      std: 0.2
    }
    bias_filler {
      type: "constant"
      value: 0.2
    }
  }
}
layer {
  name: "inception_3b/relu_5x5_reduce"
  type: "ReLU"
  bottom: "inception_3b/5x5_reduce"
  top: "inception_3b/5x5_reduce"
}
layer {
  name: "inception_3b/5x5"
  type: "Convolution"
  bottom: "inception_3b/5x5_reduce"
  top: "inception_3b/5x5"
  param {
    lr_mult: 1
    decay_mult: 1
  }
  param {
    lr_mult: 2
    decay_mult: 0
  }
  convolution_param {
    num_output: 96
    pad: 2
    kernel_size: 5
    weight_filler {
      type: "xavier"
      std: 0.03
    }
    bias_filler {
      type: "constant"
      value: 0.2
    }
  }
}
layer {
  name: "inception_3b/relu_5x5"
  type: "ReLU"
  bottom: "inception_3b/5x5"
  top: "inception_3b/5x5"
}
layer {
  name: "inception_3b/pool"
  type: "Pooling"
  bottom: "inception_3a/output"
  top: "inception_3b/pool"
  pooling_param {
    pool: MAX
    kernel_size: 3
    stride: 1
    pad: 1
  }
}
layer {
  name: "inception_3b/pool_proj"
  type: "Convolution"
  bottom: "inception_3b/pool"
  top: "inception_3b/pool_proj"
  param {
    lr_mult: 1
    decay_mult: 1
  }
  param {
    lr_mult: 2
    decay_mult: 0
  }
  convolution_param {
    num_output: 64
    kernel_size: 1
    weight_filler {
      type: "xavier"
      std: 0.1
    }
    bias_filler {
      type: "constant"
      value: 0.2
    }
  }
}
layer {
  name: "inception_3b/relu_pool_proj"
  type: "ReLU"
  bottom: "inception_3b/pool_proj"
  top: "inception_3b/pool_proj"
}
layer {
  name: "inception_3b/output"
  type: "Concat"
  bottom: "inception_3b/1x1"
  bottom: "inception_3b/3x3"
  bottom: "inception_3b/5x5"
  bottom: "inception_3b/pool_proj"
  top: "inception_3b/output"
}
layer {
  name: "pool3/3x3_s2"
  type: "Pooling"
  bottom: "inception_3b/output"
  top: "pool3/3x3_s2"
  pooling_param {
    pool: MAX
    kernel_size: 3
    stride: 2
  }
}
layer {
  name: "inception_4a/1x1"
  type: "Convolution"
  bottom: "pool3/3x3_s2"
  top: "inception_4a/1x1"
  param {
    lr_mult: 1
    decay_mult: 1
  }
  param {
    lr_mult: 2
    decay_mult: 0
  }
  convolution_param {
    num_output: 192
    kernel_size: 1
    weight_filler {
      type: "xavier"
      std: 0.03
    }
    bias_filler {
      type: "constant"
      value: 0.2
    }
  }
}
layer {
  name: "inception_4a/relu_1x1"
  type: "ReLU"
  bottom: "inception_4a/1x1"
  top: "inception_4a/1x1"
}
layer {
  name: "inception_4a/3x3_reduce"
  type: "Convolution"
  bottom: "pool3/3x3_s2"
  top: "inception_4a/3x3_reduce"
  param {
    lr_mult: 1
    decay_mult: 1
  }
  param {
    lr_mult: 2
    decay_mult: 0
  }
  convolution_param {
    num_output: 96
    kernel_size: 1
    weight_filler {
      type: "xavier"
      std: 0.09
    }
    bias_filler {
      type: "constant"
      value: 0.2
    }
  }
}
layer {
  name: "inception_4a/relu_3x3_reduce"
  type: "ReLU"
  bottom: "inception_4a/3x3_reduce"
  top: "inception_4a/3x3_reduce"
}
layer {
  name: "inception_4a/3x3"
  type: "Convolution"
  bottom: "inception_4a/3x3_reduce"
  top: "inception_4a/3x3"
  param {
    lr_mult: 1
    decay_mult: 1
  }
  param {
    lr_mult: 2
    decay_mult: 0
  }
  convolution_param {
    num_output: 208
    pad: 1
    kernel_size: 3
    weight_filler {
      type: "xavier"
      std: 0.03
    }
    bias_filler {
      type: "constant"
      value: 0.2
    }
  }
}
layer {
  name: "inception_4a/relu_3x3"
  type: "ReLU"
  bottom: "inception_4a/3x3"
  top: "inception_4a/3x3"
}
layer {
  name: "inception_4a/5x5_reduce"
  type: "Convolution"
  bottom: "pool3/3x3_s2"
  top: "inception_4a/5x5_reduce"
  param {
    lr_mult: 1
    decay_mult: 1
  }
  param {
    lr_mult: 2
    decay_mult: 0
  }
  convolution_param {
    num_output: 16
    kernel_size: 1
    weight_filler {
      type: "xavier"
      std: 0.2
    }
    bias_filler {
      type: "constant"
      value: 0.2
    }
  }
}
layer {
  name: "inception_4a/relu_5x5_reduce"
  type: "ReLU"
  bottom: "inception_4a/5x5_reduce"
  top: "inception_4a/5x5_reduce"
}
layer {
  name: "inception_4a/5x5"
  type: "Convolution"
  bottom: "inception_4a/5x5_reduce"
  top: "inception_4a/5x5"
  param {
    lr_mult: 1
    decay_mult: 1
  }
  param {
    lr_mult: 2
    decay_mult: 0
  }
  convolution_param {
    num_output: 48
    pad: 2
    kernel_size: 5
    weight_filler {
      type: "xavier"
      std: 0.03
    }
    bias_filler {
      type: "constant"
      value: 0.2
    }
  }
}
layer {
  name: "inception_4a/relu_5x5"
  type: "ReLU"
  bottom: "inception_4a/5x5"
  top: "inception_4a/5x5"
}
layer {
  name: "inception_4a/pool"
  type: "Pooling"
  bottom: "pool3/3x3_s2"
  top: "inception_4a/pool"
  pooling_param {
    pool: MAX
    kernel_size: 3
    stride: 1
    pad: 1
  }
}
layer {
  name: "inception_4a/pool_proj"
  type: "Convolution"
  bottom: "inception_4a/pool"
  top: "inception_4a/pool_proj"
  param {
    lr_mult: 1
    decay_mult: 1
  }
  param {
    lr_mult: 2
    decay_mult: 0
  }
  convolution_param {
    num_output: 64
    kernel_size: 1
    weight_filler {
      type: "xavier"
      std: 0.1
    }
    bias_filler {
      type: "constant"
      value: 0.2
    }
  }
}
layer {
  name: "inception_4a/relu_pool_proj"
  type: "ReLU"
  bottom: "inception_4a/pool_proj"
  top: "inception_4a/pool_proj"
}
layer {
  name: "inception_4a/output"
  type: "Concat"
  bottom: "inception_4a/1x1"
  bottom: "inception_4a/3x3"
  bottom: "inception_4a/5x5"
  bottom: "inception_4a/pool_proj"
  top: "inception_4a/output"
}
layer {
  name: "loss1/ave_pool"
  type: "Pooling"
  bottom: "inception_4a/output"
  top: "loss1/ave_pool"
  pooling_param {
    pool: AVE
    kernel_size: 5
    stride: 3
  }
}
layer {
  name: "loss1/conv"
  type: "Convolution"
  bottom: "loss1/ave_pool"
  top: "loss1/conv"
  param {
    lr_mult: 1
    decay_mult: 1
  }
  param {
    lr_mult: 2
    decay_mult: 0
  }
  convolution_param {
    num_output: 128
    kernel_size: 1
    weight_filler {
      type: "xavier"
      std: 0.08
    }
    bias_filler {
      type: "constant"
      value: 0.2
    }
  }
}
layer {
  name: "loss1/relu_conv"
  type: "ReLU"
  bottom: "loss1/conv"
  top: "loss1/conv"
}
layer {
  name: "loss1/fc"
  type: "InnerProduct"
  bottom: "loss1/conv"
  top: "loss1/fc"
  param {
    lr_mult: 1
    decay_mult: 1
  }
  param {
    lr_mult: 2
    decay_mult: 0
  }
  inner_product_param {
    num_output: 1024
    weight_filler {
      type: "xavier"
      std: 0.02
    }
    bias_filler {
      type: "constant"
      value: 0.2
    }
  }
}
layer {
  name: "loss1/relu_fc"
  type: "ReLU"
  bottom: "loss1/fc"
  top: "loss1/fc"
}
layer {
  name: "loss1/drop_fc"
  type: "Dropout"
  bottom: "loss1/fc"
  top: "loss1/fc"
  dropout_param {
    dropout_ratio: 0.7
  }
}
layer {
  name: "loss1/classifier_plantvillage"
  type: "InnerProduct"
  bottom: "loss1/fc"
  top: "loss1/classifier_plantvillage"
  param {
    lr_mult: 1
    decay_mult: 1
  }
  param {
    lr_mult: 2
    decay_mult: 0
  }
  inner_product_param {
    num_output: 38
    weight_filler {
      type: "xavier"
      std: 0.0009765625
    }
    bias_filler {
      type: "constant"
      value: 0
    }
  }
}
layer {
  name: "inception_4b/1x1"
  type: "Convolution"
  bottom: "inception_4a/output"
  top: "inception_4b/1x1"
  param {
    lr_mult: 1
    decay_mult: 1
  }
  param {
    lr_mult: 2
    decay_mult: 0
  }
  convolution_param {
    num_output: 160
    kernel_size: 1
    weight_filler {
      type: "xavier"
      std: 0.03
    }
    bias_filler {
      type: "constant"
      value: 0.2
    }
  }
}
layer {
  name: "inception_4b/relu_1x1"
  type: "ReLU"
  bottom: "inception_4b/1x1"
  top: "inception_4b/1x1"
}
layer {
  name: "inception_4b/3x3_reduce"
  type: "Convolution"
  bottom: "inception_4a/output"
  top: "inception_4b/3x3_reduce"
  param {
    lr_mult: 1
    decay_mult: 1
  }
  param {
    lr_mult: 2
    decay_mult: 0
  }
  convolution_param {
    num_output: 112
    kernel_size: 1
    weight_filler {
      type: "xavier"
      std: 0.09
    }
    bias_filler {
      type: "constant"
      value: 0.2
    }
  }
}
layer {
  name: "inception_4b/relu_3x3_reduce"
  type: "ReLU"
  bottom: "inception_4b/3x3_reduce"
  top: "inception_4b/3x3_reduce"
}
layer {
  name: "inception_4b/3x3"
  type: "Convolution"
  bottom: "inception_4b/3x3_reduce"
  top: "inception_4b/3x3"
  param {
    lr_mult: 1
    decay_mult: 1
  }
  param {
    lr_mult: 2
    decay_mult: 0
  }
  convolution_param {
    num_output: 224
    pad: 1
    kernel_size: 3
    weight_filler {
      type: "xavier"
      std: 0.03
    }
    bias_filler {
      type: "constant"
      value: 0.2
    }
  }
}
layer {
  name: "inception_4b/relu_3x3"
  type: "ReLU"
  bottom: "inception_4b/3x3"
  top: "inception_4b/3x3"
}
layer {
  name: "inception_4b/5x5_reduce"
  type: "Convolution"
  bottom: "inception_4a/output"
  top: "inception_4b/5x5_reduce"
  param {
    lr_mult: 1
    decay_mult: 1
  }
  param {
    lr_mult: 2
    decay_mult: 0
  }
  convolution_param {
    num_output: 24
    kernel_size: 1
    weight_filler {
      type: "xavier"
      std: 0.2
    }
    bias_filler {
      type: "constant"
      value: 0.2
    }
  }
}
layer {
  name: "inception_4b/relu_5x5_reduce"
  type: "ReLU"
  bottom: "inception_4b/5x5_reduce"
  top: "inception_4b/5x5_reduce"
}
layer {
  name: "inception_4b/5x5"
  type: "Convolution"
  bottom: "inception_4b/5x5_reduce"
  top: "inception_4b/5x5"
  param {
    lr_mult: 1
    decay_mult: 1
  }
  param {
    lr_mult: 2
    decay_mult: 0
  }
  convolution_param {
    num_output: 64
    pad: 2
    kernel_size: 5
    weight_filler {
      type: "xavier"
      std: 0.03
    }
    bias_filler {
      type: "constant"
      value: 0.2
    }
  }
}
layer {
  name: "inception_4b/relu_5x5"
  type: "ReLU"
  bottom: "inception_4b/5x5"
  top: "inception_4b/5x5"
}
layer {
  name: "inception_4b/pool"
  type: "Pooling"
  bottom: "inception_4a/output"
  top: "inception_4b/pool"
  pooling_param {
    pool: MAX
    kernel_size: 3
    stride: 1
    pad: 1
  }
}
layer {
  name: "inception_4b/pool_proj"
  type: "Convolution"
  bottom: "inception_4b/pool"
  top: "inception_4b/pool_proj"
  param {
    lr_mult: 1
    decay_mult: 1
  }
  param {
    lr_mult: 2
    decay_mult: 0
  }
  convolution_param {
    num_output: 64
    kernel_size: 1
    weight_filler {
      type: "xavier"
      std: 0.1
    }
    bias_filler {
      type: "constant"
      value: 0.2
    }
  }
}
layer {
  name: "inception_4b/relu_pool_proj"
  type: "ReLU"
  bottom: "inception_4b/pool_proj"
  top: "inception_4b/pool_proj"
}
layer {
  name: "inception_4b/output"
  type: "Concat"
  bottom: "inception_4b/1x1"
  bottom: "inception_4b/3x3"
  bottom: "inception_4b/5x5"
  bottom: "inception_4b/pool_proj"
  top: "inception_4b/output"
}
layer {
  name: "inception_4c/1x1"
  type: "Convolution"
  bottom: "inception_4b/output"
  top: "inception_4c/1x1"
  param {
    lr_mult: 1
    decay_mult: 1
  }
  param {
    lr_mult: 2
    decay_mult: 0
  }
  convolution_param {
    num_output: 128
    kernel_size: 1
    weight_filler {
      type: "xavier"
      std: 0.03
    }
    bias_filler {
      type: "constant"
      value: 0.2
    }
  }
}
layer {
  name: "inception_4c/relu_1x1"
  type: "ReLU"
  bottom: "inception_4c/1x1"
  top: "inception_4c/1x1"
}
layer {
  name: "inception_4c/3x3_reduce"
  type: "Convolution"
  bottom: "inception_4b/output"
  top: "inception_4c/3x3_reduce"
  param {
    lr_mult: 1
    decay_mult: 1
  }
  param {
    lr_mult: 2
    decay_mult: 0
  }
  convolution_param {
    num_output: 128
    kernel_size: 1
    weight_filler {
      type: "xavier"
      std: 0.09
    }
    bias_filler {
      type: "constant"
      value: 0.2
    }
  }
}
layer {
  name: "inception_4c/relu_3x3_reduce"
  type: "ReLU"
  bottom: "inception_4c/3x3_reduce"
  top: "inception_4c/3x3_reduce"
}
layer {
  name: "inception_4c/3x3"
  type: "Convolution"
  bottom: "inception_4c/3x3_reduce"
  top: "inception_4c/3x3"
  param {
    lr_mult: 1
    decay_mult: 1
  }
  param {
    lr_mult: 2
    decay_mult: 0
  }
  convolution_param {
    num_output: 256
    pad: 1
    kernel_size: 3
    weight_filler {
      type: "xavier"
      std: 0.03
    }
    bias_filler {
      type: "constant"
      value: 0.2
    }
  }
}
layer {
  name: "inception_4c/relu_3x3"
  type: "ReLU"
  bottom: "inception_4c/3x3"
  top: "inception_4c/3x3"
}
layer {
  name: "inception_4c/5x5_reduce"
  type: "Convolution"
  bottom: "inception_4b/output"
  top: "inception_4c/5x5_reduce"
  param {
    lr_mult: 1
    decay_mult: 1
  }
  param {
    lr_mult: 2
    decay_mult: 0
  }
  convolution_param {
    num_output: 24
    kernel_size: 1
    weight_filler {
      type: "xavier"
      std: 0.2
    }
    bias_filler {
      type: "constant"
      value: 0.2
    }
  }
}
layer {
  name: "inception_4c/relu_5x5_reduce"
  type: "ReLU"
  bottom: "inception_4c/5x5_reduce"
  top: "inception_4c/5x5_reduce"
}
layer {
  name: "inception_4c/5x5"
  type: "Convolution"
  bottom: "inception_4c/5x5_reduce"
  top: "inception_4c/5x5"
  param {
    lr_mult: 1
    decay_mult: 1
  }
  param {
    lr_mult: 2
    decay_mult: 0
  }
  convolution_param {
    num_output: 64
    pad: 2
    kernel_size: 5
    weight_filler {
      type: "xavier"
      std: 0.03
    }
    bias_filler {
      type: "constant"
      value: 0.2
    }
  }
}
layer {
  name: "inception_4c/relu_5x5"
  type: "ReLU"
  bottom: "inception_4c/5x5"
  top: "inception_4c/5x5"
}
layer {
  name: "inception_4c/pool"
  type: "Pooling"
  bottom: "inception_4b/output"
  top: "inception_4c/pool"
  pooling_param {
    pool: MAX
    kernel_size: 3
    stride: 1
    pad: 1
  }
}
layer {
  name: "inception_4c/pool_proj"
  type: "Convolution"
  bottom: "inception_4c/pool"
  top: "inception_4c/pool_proj"
  param {
    lr_mult: 1
    decay_mult: 1
  }
  param {
    lr_mult: 2
    decay_mult: 0
  }
  convolution_param {
    num_output: 64
    kernel_size: 1
    weight_filler {
      type: "xavier"
      std: 0.1
    }
    bias_filler {
      type: "constant"
      value: 0.2
    }
  }
}
layer {
  name: "inception_4c/relu_pool_proj"
  type: "ReLU"
  bottom: "inception_4c/pool_proj"
  top: "inception_4c/pool_proj"
}
layer {
  name: "inception_4c/output"
  type: "Concat"
  bottom: "inception_4c/1x1"
  bottom: "inception_4c/3x3"
  bottom: "inception_4c/5x5"
  bottom: "inception_4c/pool_proj"
  top: "inception_4c/output"
}
layer {
  name: "inception_4d/1x1"
  type: "Convolution"
  bottom: "inception_4c/output"
  top: "inception_4d/1x1"
  param {
    lr_mult: 1
    decay_mult: 1
  }
  param {
    lr_mult: 2
    decay_mult: 0
  }
  convolution_param {
    num_output: 112
    kernel_size: 1
    weight_filler {
      type: "xavier"
      std: 0.03
    }
    bias_filler {
      type: "constant"
      value: 0.2
    }
  }
}
layer {
  name: "inception_4d/relu_1x1"
  type: "ReLU"
  bottom: "inception_4d/1x1"
  top: "inception_4d/1x1"
}
layer {
  name: "inception_4d/3x3_reduce"
  type: "Convolution"
  bottom: "inception_4c/output"
  top: "inception_4d/3x3_reduce"
  param {
    lr_mult: 1
    decay_mult: 1
  }
  param {
    lr_mult: 2
    decay_mult: 0
  }
  convolution_param {
    num_output: 144
    kernel_size: 1
    weight_filler {
      type: "xavier"
      std: 0.09
    }
    bias_filler {
      type: "constant"
      value: 0.2
    }
  }
}
layer {
  name: "inception_4d/relu_3x3_reduce"
  type: "ReLU"
  bottom: "inception_4d/3x3_reduce"
  top: "inception_4d/3x3_reduce"
}
layer {
  name: "inception_4d/3x3"
  type: "Convolution"
  bottom: "inception_4d/3x3_reduce"
  top: "inception_4d/3x3"
  param {
    lr_mult: 1
    decay_mult: 1
  }
  param {
    lr_mult: 2
    decay_mult: 0
  }
  convolution_param {
    num_output: 288
    pad: 1
    kernel_size: 3
    weight_filler {
      type: "xavier"
      std: 0.03
    }
    bias_filler {
      type: "constant"
      value: 0.2
    }
  }
}
layer {
  name: "inception_4d/relu_3x3"
  type: "ReLU"
  bottom: "inception_4d/3x3"
  top: "inception_4d/3x3"
}
layer {
  name: "inception_4d/5x5_reduce"
  type: "Convolution"
  bottom: "inception_4c/output"
  top: "inception_4d/5x5_reduce"
  param {
    lr_mult: 1
    decay_mult: 1
  }
  param {
    lr_mult: 2
    decay_mult: 0
  }
  convolution_param {
    num_output: 32
    kernel_size: 1
    weight_filler {
      type: "xavier"
      std: 0.2
    }
    bias_filler {
      type: "constant"
      value: 0.2
    }
  }
}
layer {
  name: "inception_4d/relu_5x5_reduce"
  type: "ReLU"
  bottom: "inception_4d/5x5_reduce"
  top: "inception_4d/5x5_reduce"
}
layer {
  name: "inception_4d/5x5"
  type: "Convolution"
  bottom: "inception_4d/5x5_reduce"
  top: "inception_4d/5x5"
  param {
    lr_mult: 1
    decay_mult: 1
  }
  param {
    lr_mult: 2
    decay_mult: 0
  }
  convolution_param {
    num_output: 64
    pad: 2
    kernel_size: 5
    weight_filler {
      type: "xavier"
      std: 0.03
    }
    bias_filler {
      type: "constant"
      value: 0.2
    }
  }
}
layer {
  name: "inception_4d/relu_5x5"
  type: "ReLU"
  bottom: "inception_4d/5x5"
  top: "inception_4d/5x5"
}
layer {
  name: "inception_4d/pool"
  type: "Pooling"
  bottom: "inception_4c/output"
  top: "inception_4d/pool"
  pooling_param {
    pool: MAX
    kernel_size: 3
    stride: 1
    pad: 1
  }
}
layer {
  name: "inception_4d/pool_proj"
  type: "Convolution"
  bottom: "inception_4d/pool"
  top: "inception_4d/pool_proj"
  param {
    lr_mult: 1
    decay_mult: 1
  }
  param {
    lr_mult: 2
    decay_mult: 0
  }
  convolution_param {
    num_output: 64
    kernel_size: 1
    weight_filler {
      type: "xavier"
      std: 0.1
    }
    bias_filler {
      type: "constant"
      value: 0.2
    }
  }
}
layer {
  name: "inception_4d/relu_pool_proj"
  type: "ReLU"
  bottom: "inception_4d/pool_proj"
  top: "inception_4d/pool_proj"
}
layer {
  name: "inception_4d/output"
  type: "Concat"
  bottom: "inception_4d/1x1"
  bottom: "inception_4d/3x3"
  bottom: "inception_4d/5x5"
  bottom: "inception_4d/pool_proj"
  top: "inception_4d/output"
}
layer {
  name: "loss2/ave_pool"
  type: "Pooling"
  bottom: "inception_4d/output"
  top: "loss2/ave_pool"
  pooling_param {
    pool: AVE
    kernel_size: 5
    stride: 3
  }
}
layer {
  name: "loss2/conv"
  type: "Convolution"
  bottom: "loss2/ave_pool"
  top: "loss2/conv"
  param {
    lr_mult: 1
    decay_mult: 1
  }
  param {
    lr_mult: 2
    decay_mult: 0
  }
  convolution_param {
    num_output: 128
    kernel_size: 1
    weight_filler {
      type: "xavier"
      std: 0.08
    }
    bias_filler {
      type: "constant"
      value: 0.2
    }
  }
}
layer {
  name: "loss2/relu_conv"
  type: "ReLU"
  bottom: "loss2/conv"
  top: "loss2/conv"
}
layer {
  name: "loss2/fc"
  type: "InnerProduct"
  bottom: "loss2/conv"
  top: "loss2/fc"
  param {
    lr_mult: 1
    decay_mult: 1
  }
  param {
    lr_mult: 2
    decay_mult: 0
  }
  inner_product_param {
    num_output: 1024
    weight_filler {
      type: "xavier"
      std: 0.02
    }
    bias_filler {
      type: "constant"
      value: 0.2
    }
  }
}
layer {
  name: "loss2/relu_fc"
  type: "ReLU"
  bottom: "loss2/fc"
  top: "loss2/fc"
}
layer {
  name: "loss2/drop_fc"
  type: "Dropout"
  bottom: "loss2/fc"
  top: "loss2/fc"
  dropout_param {
    dropout_ratio: 0.7
  }
}
layer {
  name: "loss2/classifier_plantvillage"
  type: "InnerProduct"
  bottom: "loss2/fc"
  top: "loss2/classifier_plantvillage"
  param {
    lr_mult: 1
    decay_mult: 1
  }
  param {
    lr_mult: 2
    decay_mult: 0
  }
  inner_product_param {
    num_output: 38
    weight_filler {
      type: "xavier"
      std: 0.0009765625
    }
    bias_filler {
      type: "constant"
      value: 0
    }
  }
}
layer {
  name: "inception_4e/1x1"
  type: "Convolution"
  bottom: "inception_4d/output"
  top: "inception_4e/1x1"
  param {
    lr_mult: 1
    decay_mult: 1
  }
  param {
    lr_mult: 2
    decay_mult: 0
  }
  convolution_param {
    num_output: 256
    kernel_size: 1
    weight_filler {
      type: "xavier"
      std: 0.03
    }
    bias_filler {
      type: "constant"
      value: 0.2
    }
  }
}
layer {
  name: "inception_4e/relu_1x1"
  type: "ReLU"
  bottom: "inception_4e/1x1"
  top: "inception_4e/1x1"
}
layer {
  name: "inception_4e/3x3_reduce"
  type: "Convolution"
  bottom: "inception_4d/output"
  top: "inception_4e/3x3_reduce"
  param {
    lr_mult: 1
    decay_mult: 1
  }
  param {
    lr_mult: 2
    decay_mult: 0
  }
  convolution_param {
    num_output: 160
    kernel_size: 1
    weight_filler {
      type: "xavier"
      std: 0.09
    }
    bias_filler {
      type: "constant"
      value: 0.2
    }
  }
}
layer {
  name: "inception_4e/relu_3x3_reduce"
  type: "ReLU"
  bottom: "inception_4e/3x3_reduce"
  top: "inception_4e/3x3_reduce"
}
layer {
  name: "inception_4e/3x3"
  type: "Convolution"
  bottom: "inception_4e/3x3_reduce"
  top: "inception_4e/3x3"
  param {
    lr_mult: 1
    decay_mult: 1
  }
  param {
    lr_mult: 2
    decay_mult: 0
  }
  convolution_param {
    num_output: 320
    pad: 1
    kernel_size: 3
    weight_filler {
      type: "xavier"
      std: 0.03
    }
    bias_filler {
      type: "constant"
      value: 0.2
    }
  }
}
layer {
  name: "inception_4e/relu_3x3"
  type: "ReLU"
  bottom: "inception_4e/3x3"
  top: "inception_4e/3x3"
}
layer {
  name: "inception_4e/5x5_reduce"
  type: "Convolution"
  bottom: "inception_4d/output"
  top: "inception_4e/5x5_reduce"
  param {
    lr_mult: 1
    decay_mult: 1
  }
  param {
    lr_mult: 2
    decay_mult: 0
  }
  convolution_param {
    num_output: 32
    kernel_size: 1
    weight_filler {
      type: "xavier"
      std: 0.2
    }
    bias_filler {
      type: "constant"
      value: 0.2
    }
  }
}
layer {
  name: "inception_4e/relu_5x5_reduce"
  type: "ReLU"
  bottom: "inception_4e/5x5_reduce"
  top: "inception_4e/5x5_reduce"
}
layer {
  name: "inception_4e/5x5"
  type: "Convolution"
  bottom: "inception_4e/5x5_reduce"
  top: "inception_4e/
I0403 15:42:52.859380 20189 layer_factory.hpp:77] Creating layer data
I0403 15:42:52.859980 20189 net.cpp:91] Creating Layer data
I0403 15:42:52.860009 20189 net.cpp:399] data -> data
I0403 15:42:52.860061 20189 net.cpp:399] data -> label
I0403 15:42:52.860098 20189 data_transformer.cpp:25] Loading mean file from: /home/mohanty/data/final_dataset/lmdb/grayscale-40-60/mean.binaryproto
I0403 15:42:52.862812 20193 db_lmdb.cpp:38] Opened lmdb /home/mohanty/data/final_dataset/lmdb/grayscale-40-60/test_db
I0403 15:42:52.873785 20189 data_layer.cpp:41] output data size: 24,3,224,224
I0403 15:42:52.904752 20189 net.cpp:141] Setting up data
I0403 15:42:52.904855 20189 net.cpp:148] Top shape: 24 3 224 224 (3612672)
I0403 15:42:52.904881 20189 net.cpp:148] Top shape: 24 (24)
I0403 15:42:52.904896 20189 net.cpp:156] Memory required for data: 14450784
I0403 15:42:52.904938 20189 layer_factory.hpp:77] Creating layer label_data_1_split
I0403 15:42:52.904971 20189 net.cpp:91] Creating Layer label_data_1_split
I0403 15:42:52.904994 20189 net.cpp:425] label_data_1_split <- label
I0403 15:42:52.905027 20189 net.cpp:399] label_data_1_split -> label_data_1_split_0
I0403 15:42:52.905056 20189 net.cpp:399] label_data_1_split -> label_data_1_split_1
I0403 15:42:52.905079 20189 net.cpp:399] label_data_1_split -> label_data_1_split_2
I0403 15:42:52.905102 20189 net.cpp:399] label_data_1_split -> label_data_1_split_3
I0403 15:42:52.905122 20189 net.cpp:399] label_data_1_split -> label_data_1_split_4
I0403 15:42:52.905143 20189 net.cpp:399] label_data_1_split -> label_data_1_split_5
I0403 15:42:52.905163 20189 net.cpp:399] label_data_1_split -> label_data_1_split_6
I0403 15:42:52.905184 20189 net.cpp:399] label_data_1_split -> label_data_1_split_7
I0403 15:42:52.905205 20189 net.cpp:399] label_data_1_split -> label_data_1_split_8
I0403 15:42:52.905226 20189 net.cpp:399] label_data_1_split -> label_data_1_split_9
I0403 15:42:52.905349 20189 net.cpp:141] Setting up label_data_1_split
I0403 15:42:52.905375 20189 net.cpp:148] Top shape: 24 (24)
I0403 15:42:52.905393 20189 net.cpp:148] Top shape: 24 (24)
I0403 15:42:52.905411 20189 net.cpp:148] Top shape: 24 (24)
I0403 15:42:52.905428 20189 net.cpp:148] Top shape: 24 (24)
I0403 15:42:52.905444 20189 net.cpp:148] Top shape: 24 (24)
I0403 15:42:52.905462 20189 net.cpp:148] Top shape: 24 (24)
I0403 15:42:52.905479 20189 net.cpp:148] Top shape: 24 (24)
I0403 15:42:52.905496 20189 net.cpp:148] Top shape: 24 (24)
I0403 15:42:52.905513 20189 net.cpp:148] Top shape: 24 (24)
I0403 15:42:52.905531 20189 net.cpp:148] Top shape: 24 (24)
I0403 15:42:52.905578 20189 net.cpp:156] Memory required for data: 14451744
I0403 15:42:52.905596 20189 layer_factory.hpp:77] Creating layer conv1/7x7_s2
I0403 15:42:52.905629 20189 net.cpp:91] Creating Layer conv1/7x7_s2
I0403 15:42:52.905648 20189 net.cpp:425] conv1/7x7_s2 <- data
I0403 15:42:52.905669 20189 net.cpp:399] conv1/7x7_s2 -> conv1/7x7_s2
I0403 15:42:53.052197 20189 net.cpp:141] Setting up conv1/7x7_s2
I0403 15:42:53.052287 20189 net.cpp:148] Top shape: 24 64 112 112 (19267584)
I0403 15:42:53.052306 20189 net.cpp:156] Memory required for data: 91522080
I0403 15:42:53.052338 20189 layer_factory.hpp:77] Creating layer conv1/relu_7x7
I0403 15:42:53.052366 20189 net.cpp:91] Creating Layer conv1/relu_7x7
I0403 15:42:53.052386 20189 net.cpp:425] conv1/relu_7x7 <- conv1/7x7_s2
I0403 15:42:53.052405 20189 net.cpp:386] conv1/relu_7x7 -> conv1/7x7_s2 (in-place)
I0403 15:42:53.052671 20189 net.cpp:141] Setting up conv1/relu_7x7
I0403 15:42:53.052701 20189 net.cpp:148] Top shape: 24 64 112 112 (19267584)
I0403 15:42:53.052718 20189 net.cpp:156] Memory required for data: 168592416
I0403 15:42:53.052736 20189 layer_factory.hpp:77] Creating layer pool1/3x3_s2
I0403 15:42:53.052760 20189 net.cpp:91] Creating Layer pool1/3x3_s2
I0403 15:42:53.052779 20189 net.cpp:425] pool1/3x3_s2 <- conv1/7x7_s2
I0403 15:42:53.052798 20189 net.cpp:399] pool1/3x3_s2 -> pool1/3x3_s2
I0403 15:42:53.052875 20189 net.cpp:141] Setting up pool1/3x3_s2
I0403 15:42:53.052899 20189 net.cpp:148] Top shape: 24 64 56 56 (4816896)
I0403 15:42:53.052916 20189 net.cpp:156] Memory required for data: 187860000
I0403 15:42:53.052932 20189 layer_factory.hpp:77] Creating layer pool1/norm1
I0403 15:42:53.052955 20189 net.cpp:91] Creating Layer pool1/norm1
I0403 15:42:53.052973 20189 net.cpp:425] pool1/norm1 <- pool1/3x3_s2
I0403 15:42:53.052996 20189 net.cpp:399] pool1/norm1 -> pool1/norm1
I0403 15:42:53.053299 20189 net.cpp:141] Setting up pool1/norm1
I0403 15:42:53.053326 20189 net.cpp:148] Top shape: 24 64 56 56 (4816896)
I0403 15:42:53.053342 20189 net.cpp:156] Memory required for data: 207127584
I0403 15:42:53.053357 20189 layer_factory.hpp:77] Creating layer conv2/3x3_reduce
I0403 15:42:53.053382 20189 net.cpp:91] Creating Layer conv2/3x3_reduce
I0403 15:42:53.053400 20189 net.cpp:425] conv2/3x3_reduce <- pool1/norm1
I0403 15:42:53.053418 20189 net.cpp:399] conv2/3x3_reduce -> conv2/3x3_reduce
I0403 15:42:53.054771 20189 net.cpp:141] Setting up conv2/3x3_reduce
I0403 15:42:53.054802 20189 net.cpp:148] Top shape: 24 64 56 56 (4816896)
I0403 15:42:53.054821 20189 net.cpp:156] Memory required for data: 226395168
I0403 15:42:53.054843 20189 layer_factory.hpp:77] Creating layer conv2/relu_3x3_reduce
I0403 15:42:53.054864 20189 net.cpp:91] Creating Layer conv2/relu_3x3_reduce
I0403 15:42:53.054883 20189 net.cpp:425] conv2/relu_3x3_reduce <- conv2/3x3_reduce
I0403 15:42:53.054905 20189 net.cpp:386] conv2/relu_3x3_reduce -> conv2/3x3_reduce (in-place)
I0403 15:42:53.055173 20189 net.cpp:141] Setting up conv2/relu_3x3_reduce
I0403 15:42:53.055202 20189 net.cpp:148] Top shape: 24 64 56 56 (4816896)
I0403 15:42:53.055220 20189 net.cpp:156] Memory required for data: 245662752
I0403 15:42:53.055238 20189 layer_factory.hpp:77] Creating layer conv2/3x3
I0403 15:42:53.055260 20189 net.cpp:91] Creating Layer conv2/3x3
I0403 15:42:53.055277 20189 net.cpp:425] conv2/3x3 <- conv2/3x3_reduce
I0403 15:42:53.055297 20189 net.cpp:399] conv2/3x3 -> conv2/3x3
I0403 15:42:53.057579 20189 net.cpp:141] Setting up conv2/3x3
I0403 15:42:53.057611 20189 net.cpp:148] Top shape: 24 192 56 56 (14450688)
I0403 15:42:53.057629 20189 net.cpp:156] Memory required for data: 303465504
I0403 15:42:53.057652 20189 layer_factory.hpp:77] Creating layer conv2/relu_3x3
I0403 15:42:53.057675 20189 net.cpp:91] Creating Layer conv2/relu_3x3
I0403 15:42:53.057693 20189 net.cpp:425] conv2/relu_3x3 <- conv2/3x3
I0403 15:42:53.057713 20189 net.cpp:386] conv2/relu_3x3 -> conv2/3x3 (in-place)
I0403 15:42:53.057894 20189 net.cpp:141] Setting up conv2/relu_3x3
I0403 15:42:53.057924 20189 net.cpp:148] Top shape: 24 192 56 56 (14450688)
I0403 15:42:53.057973 20189 net.cpp:156] Memory required for data: 361268256
I0403 15:42:53.058002 20189 layer_factory.hpp:77] Creating layer conv2/norm2
I0403 15:42:53.058024 20189 net.cpp:91] Creating Layer conv2/norm2
I0403 15:42:53.058040 20189 net.cpp:425] conv2/norm2 <- conv2/3x3
I0403 15:42:53.058061 20189 net.cpp:399] conv2/norm2 -> conv2/norm2
I0403 15:42:53.058406 20189 net.cpp:141] Setting up conv2/norm2
I0403 15:42:53.058434 20189 net.cpp:148] Top shape: 24 192 56 56 (14450688)
I0403 15:42:53.058450 20189 net.cpp:156] Memory required for data: 419071008
I0403 15:42:53.058466 20189 layer_factory.hpp:77] Creating layer pool2/3x3_s2
I0403 15:42:53.058483 20189 net.cpp:91] Creating Layer pool2/3x3_s2
I0403 15:42:53.058500 20189 net.cpp:425] pool2/3x3_s2 <- conv2/norm2
I0403 15:42:53.058519 20189 net.cpp:399] pool2/3x3_s2 -> pool2/3x3_s2
I0403 15:42:53.058575 20189 net.cpp:141] Setting up pool2/3x3_s2
I0403 15:42:53.058599 20189 net.cpp:148] Top shape: 24 192 28 28 (3612672)
I0403 15:42:53.058614 20189 net.cpp:156] Memory required for data: 433521696
I0403 15:42:53.058629 20189 layer_factory.hpp:77] Creating layer pool2/3x3_s2_pool2/3x3_s2_0_split
I0403 15:42:53.058652 20189 net.cpp:91] Creating Layer pool2/3x3_s2_pool2/3x3_s2_0_split
I0403 15:42:53.058670 20189 net.cpp:425] pool2/3x3_s2_pool2/3x3_s2_0_split <- pool2/3x3_s2
I0403 15:42:53.058689 20189 net.cpp:399] pool2/3x3_s2_pool2/3x3_s2_0_split -> pool2/3x3_s2_pool2/3x3_s2_0_split_0
I0403 15:42:53.058711 20189 net.cpp:399] pool2/3x3_s2_pool2/3x3_s2_0_split -> pool2/3x3_s2_pool2/3x3_s2_0_split_1
I0403 15:42:53.058732 20189 net.cpp:399] pool2/3x3_s2_pool2/3x3_s2_0_split -> pool2/3x3_s2_pool2/3x3_s2_0_split_2
I0403 15:42:53.058750 20189 net.cpp:399] pool2/3x3_s2_pool2/3x3_s2_0_split -> pool2/3x3_s2_pool2/3x3_s2_0_split_3
I0403 15:42:53.058820 20189 net.cpp:141] Setting up pool2/3x3_s2_pool2/3x3_s2_0_split
I0403 15:42:53.058845 20189 net.cpp:148] Top shape: 24 192 28 28 (3612672)
I0403 15:42:53.058863 20189 net.cpp:148] Top shape: 24 192 28 28 (3612672)
I0403 15:42:53.058879 20189 net.cpp:148] Top shape: 24 192 28 28 (3612672)
I0403 15:42:53.058895 20189 net.cpp:148] Top shape: 24 192 28 28 (3612672)
I0403 15:42:53.058910 20189 net.cpp:156] Memory required for data: 491324448
I0403 15:42:53.058925 20189 layer_factory.hpp:77] Creating layer inception_3a/1x1
I0403 15:42:53.058946 20189 net.cpp:91] Creating Layer inception_3a/1x1
I0403 15:42:53.058964 20189 net.cpp:425] inception_3a/1x1 <- pool2/3x3_s2_pool2/3x3_s2_0_split_0
I0403 15:42:53.058990 20189 net.cpp:399] inception_3a/1x1 -> inception_3a/1x1
I0403 15:42:53.060561 20189 net.cpp:141] Setting up inception_3a/1x1
I0403 15:42:53.060592 20189 net.cpp:148] Top shape: 24 64 28 28 (1204224)
I0403 15:42:53.060609 20189 net.cpp:156] Memory required for data: 496141344
I0403 15:42:53.060628 20189 layer_factory.hpp:77] Creating layer inception_3a/relu_1x1
I0403 15:42:53.060650 20189 net.cpp:91] Creating Layer inception_3a/relu_1x1
I0403 15:42:53.060668 20189 net.cpp:425] inception_3a/relu_1x1 <- inception_3a/1x1
I0403 15:42:53.060688 20189 net.cpp:386] inception_3a/relu_1x1 -> inception_3a/1x1 (in-place)
I0403 15:42:53.060873 20189 net.cpp:141] Setting up inception_3a/relu_1x1
I0403 15:42:53.060899 20189 net.cpp:148] Top shape: 24 64 28 28 (1204224)
I0403 15:42:53.060914 20189 net.cpp:156] Memory required for data: 500958240
I0403 15:42:53.060931 20189 layer_factory.hpp:77] Creating layer inception_3a/3x3_reduce
I0403 15:42:53.060956 20189 net.cpp:91] Creating Layer inception_3a/3x3_reduce
I0403 15:42:53.060976 20189 net.cpp:425] inception_3a/3x3_reduce <- pool2/3x3_s2_pool2/3x3_s2_0_split_1
I0403 15:42:53.061000 20189 net.cpp:399] inception_3a/3x3_reduce -> inception_3a/3x3_reduce
I0403 15:42:53.062804 20189 net.cpp:141] Setting up inception_3a/3x3_reduce
I0403 15:42:53.062836 20189 net.cpp:148] Top shape: 24 96 28 28 (1806336)
I0403 15:42:53.062854 20189 net.cpp:156] Memory required for data: 508183584
I0403 15:42:53.062875 20189 layer_factory.hpp:77] Creating layer inception_3a/relu_3x3_reduce
I0403 15:42:53.062916 20189 net.cpp:91] Creating Layer inception_3a/relu_3x3_reduce
I0403 15:42:53.062937 20189 net.cpp:425] inception_3a/relu_3x3_reduce <- inception_3a/3x3_reduce
I0403 15:42:53.062958 20189 net.cpp:386] inception_3a/relu_3x3_reduce -> inception_3a/3x3_reduce (in-place)
I0403 15:42:53.063150 20189 net.cpp:141] Setting up inception_3a/relu_3x3_reduce
I0403 15:42:53.063179 20189 net.cpp:148] Top shape: 24 96 28 28 (1806336)
I0403 15:42:53.063194 20189 net.cpp:156] Memory required for data: 515408928
I0403 15:42:53.063210 20189 layer_factory.hpp:77] Creating layer inception_3a/3x3
I0403 15:42:53.063235 20189 net.cpp:91] Creating Layer inception_3a/3x3
I0403 15:42:53.063253 20189 net.cpp:425] inception_3a/3x3 <- inception_3a/3x3_reduce
I0403 15:42:53.063277 20189 net.cpp:399] inception_3a/3x3 -> inception_3a/3x3
I0403 15:42:53.065004 20189 net.cpp:141] Setting up inception_3a/3x3
I0403 15:42:53.065035 20189 net.cpp:148] Top shape: 24 128 28 28 (2408448)
I0403 15:42:53.065052 20189 net.cpp:156] Memory required for data: 525042720
I0403 15:42:53.065073 20189 layer_factory.hpp:77] Creating layer inception_3a/relu_3x3
I0403 15:42:53.065095 20189 net.cpp:91] Creating Layer inception_3a/relu_3x3
I0403 15:42:53.065114 20189 net.cpp:425] inception_3a/relu_3x3 <- inception_3a/3x3
I0403 15:42:53.065131 20189 net.cpp:386] inception_3a/relu_3x3 -> inception_3a/3x3 (in-place)
I0403 15:42:53.065424 20189 net.cpp:141] Setting up inception_3a/relu_3x3
I0403 15:42:53.065451 20189 net.cpp:148] Top shape: 24 128 28 28 (2408448)
I0403 15:42:53.065467 20189 net.cpp:156] Memory required for data: 534676512
I0403 15:42:53.065482 20189 layer_factory.hpp:77] Creating layer inception_3a/5x5_reduce
I0403 15:42:53.065505 20189 net.cpp:91] Creating Layer inception_3a/5x5_reduce
I0403 15:42:53.065523 20189 net.cpp:425] inception_3a/5x5_reduce <- pool2/3x3_s2_pool2/3x3_s2_0_split_2
I0403 15:42:53.065547 20189 net.cpp:399] inception_3a/5x5_reduce -> inception_3a/5x5_reduce
I0403 15:42:53.066547 20189 net.cpp:141] Setting up inception_3a/5x5_reduce
I0403 15:42:53.066578 20189 net.cpp:148] Top shape: 24 16 28 28 (301056)
I0403 15:42:53.066596 20189 net.cpp:156] Memory required for data: 535880736
I0403 15:42:53.066617 20189 layer_factory.hpp:77] Creating layer inception_3a/relu_5x5_reduce
I0403 15:42:53.066634 20189 net.cpp:91] Creating Layer inception_3a/relu_5x5_reduce
I0403 15:42:53.066650 20189 net.cpp:425] inception_3a/relu_5x5_reduce <- inception_3a/5x5_reduce
I0403 15:42:53.066668 20189 net.cpp:386] inception_3a/relu_5x5_reduce -> inception_3a/5x5_reduce (in-place)
I0403 15:42:53.066992 20189 net.cpp:141] Setting up inception_3a/relu_5x5_reduce
I0403 15:42:53.067030 20189 net.cpp:148] Top shape: 24 16 28 28 (301056)
I0403 15:42:53.067045 20189 net.cpp:156] Memory required for data: 537084960
I0403 15:42:53.067070 20189 layer_factory.hpp:77] Creating layer inception_3a/5x5
I0403 15:42:53.067093 20189 net.cpp:91] Creating Layer inception_3a/5x5
I0403 15:42:53.067111 20189 net.cpp:425] inception_3a/5x5 <- inception_3a/5x5_reduce
I0403 15:42:53.067133 20189 net.cpp:399] inception_3a/5x5 -> inception_3a/5x5
I0403 15:42:53.068186 20189 net.cpp:141] Setting up inception_3a/5x5
I0403 15:42:53.068222 20189 net.cpp:148] Top shape: 24 32 28 28 (602112)
I0403 15:42:53.068238 20189 net.cpp:156] Memory required for data: 539493408
I0403 15:42:53.068259 20189 layer_factory.hpp:77] Creating layer inception_3a/relu_5x5
I0403 15:42:53.068280 20189 net.cpp:91] Creating Layer inception_3a/relu_5x5
I0403 15:42:53.068297 20189 net.cpp:425] inception_3a/relu_5x5 <- inception_3a/5x5
I0403 15:42:53.068316 20189 net.cpp:386] inception_3a/relu_5x5 -> inception_3a/5x5 (in-place)
I0403 15:42:53.068496 20189 net.cpp:141] Setting up inception_3a/relu_5x5
I0403 15:42:53.068527 20189 net.cpp:148] Top shape: 24 32 28 28 (602112)
I0403 15:42:53.068545 20189 net.cpp:156] Memory required for data: 541901856
I0403 15:42:53.068562 20189 layer_factory.hpp:77] Creating layer inception_3a/pool
I0403 15:42:53.068580 20189 net.cpp:91] Creating Layer inception_3a/pool
I0403 15:42:53.068614 20189 net.cpp:425] inception_3a/pool <- pool2/3x3_s2_pool2/3x3_s2_0_split_3
I0403 15:42:53.068636 20189 net.cpp:399] inception_3a/pool -> inception_3a/pool
I0403 15:42:53.068697 20189 net.cpp:141] Setting up inception_3a/pool
I0403 15:42:53.068723 20189 net.cpp:148] Top shape: 24 192 28 28 (3612672)
I0403 15:42:53.068739 20189 net.cpp:156] Memory required for data: 556352544
I0403 15:42:53.068753 20189 layer_factory.hpp:77] Creating layer inception_3a/pool_proj
I0403 15:42:53.068776 20189 net.cpp:91] Creating Layer inception_3a/pool_proj
I0403 15:42:53.068794 20189 net.cpp:425] inception_3a/pool_proj <- inception_3a/pool
I0403 15:42:53.068817 20189 net.cpp:399] inception_3a/pool_proj -> inception_3a/pool_proj
I0403 15:42:53.069819 20189 net.cpp:141] Setting up inception_3a/pool_proj
I0403 15:42:53.069850 20189 net.cpp:148] Top shape: 24 32 28 28 (602112)
I0403 15:42:53.069869 20189 net.cpp:156] Memory required for data: 558760992
I0403 15:42:53.069893 20189 layer_factory.hpp:77] Creating layer inception_3a/relu_pool_proj
I0403 15:42:53.069916 20189 net.cpp:91] Creating Layer inception_3a/relu_pool_proj
I0403 15:42:53.069932 20189 net.cpp:425] inception_3a/relu_pool_proj <- inception_3a/pool_proj
I0403 15:42:53.069950 20189 net.cpp:386] inception_3a/relu_pool_proj -> inception_3a/pool_proj (in-place)
I0403 15:42:53.070237 20189 net.cpp:141] Setting up inception_3a/relu_pool_proj
I0403 15:42:53.070266 20189 net.cpp:148] Top shape: 24 32 28 28 (602112)
I0403 15:42:53.070283 20189 net.cpp:156] Memory required for data: 561169440
I0403 15:42:53.070299 20189 layer_factory.hpp:77] Creating layer inception_3a/output
I0403 15:42:53.070322 20189 net.cpp:91] Creating Layer inception_3a/output
I0403 15:42:53.070340 20189 net.cpp:425] inception_3a/output <- inception_3a/1x1
I0403 15:42:53.070359 20189 net.cpp:425] inception_3a/output <- inception_3a/3x3
I0403 15:42:53.070377 20189 net.cpp:425] inception_3a/output <- inception_3a/5x5
I0403 15:42:53.070395 20189 net.cpp:425] inception_3a/output <- inception_3a/pool_proj
I0403 15:42:53.070413 20189 net.cpp:399] inception_3a/output -> inception_3a/output
I0403 15:42:53.070462 20189 net.cpp:141] Setting up inception_3a/output
I0403 15:42:53.070488 20189 net.cpp:148] Top shape: 24 256 28 28 (4816896)
I0403 15:42:53.070503 20189 net.cpp:156] Memory required for data: 580437024
I0403 15:42:53.070519 20189 layer_factory.hpp:77] Creating layer inception_3a/output_inception_3a/output_0_split
I0403 15:42:53.070538 20189 net.cpp:91] Creating Layer inception_3a/output_inception_3a/output_0_split
I0403 15:42:53.070554 20189 net.cpp:425] inception_3a/output_inception_3a/output_0_split <- inception_3a/output
I0403 15:42:53.070574 20189 net.cpp:399] inception_3a/output_inception_3a/output_0_split -> inception_3a/output_inception_3a/output_0_split_0
I0403 15:42:53.070597 20189 net.cpp:399] inception_3a/output_inception_3a/output_0_split -> inception_3a/output_inception_3a/output_0_split_1
I0403 15:42:53.070623 20189 net.cpp:399] inception_3a/output_inception_3a/output_0_split -> inception_3a/output_inception_3a/output_0_split_2
I0403 15:42:53.070646 20189 net.cpp:399] inception_3a/output_inception_3a/output_0_split -> inception_3a/output_inception_3a/output_0_split_3
I0403 15:42:53.070724 20189 net.cpp:141] Setting up inception_3a/output_inception_3a/output_0_split
I0403 15:42:53.070746 20189 net.cpp:148] Top shape: 24 256 28 28 (4816896)
I0403 15:42:53.070763 20189 net.cpp:148] Top shape: 24 256 28 28 (4816896)
I0403 15:42:53.070780 20189 net.cpp:148] Top shape: 24 256 28 28 (4816896)
I0403 15:42:53.070796 20189 net.cpp:148] Top shape: 24 256 28 28 (4816896)
I0403 15:42:53.070808 20189 net.cpp:156] Memory required for data: 657507360
I0403 15:42:53.070824 20189 layer_factory.hpp:77] Creating layer inception_3b/1x1
I0403 15:42:53.070847 20189 net.cpp:91] Creating Layer inception_3b/1x1
I0403 15:42:53.070865 20189 net.cpp:425] inception_3b/1x1 <- inception_3a/output_inception_3a/output_0_split_0
I0403 15:42:53.070888 20189 net.cpp:399] inception_3b/1x1 -> inception_3b/1x1
I0403 15:42:53.072065 20189 net.cpp:141] Setting up inception_3b/1x1
I0403 15:42:53.072108 20189 net.cpp:148] Top shape: 24 128 28 28 (2408448)
I0403 15:42:53.072124 20189 net.cpp:156] Memory required for data: 667141152
I0403 15:42:53.072144 20189 layer_factory.hpp:77] Creating layer inception_3b/relu_1x1
I0403 15:42:53.072165 20189 net.cpp:91] Creating Layer inception_3b/relu_1x1
I0403 15:42:53.072182 20189 net.cpp:425] inception_3b/relu_1x1 <- inception_3b/1x1
I0403 15:42:53.072201 20189 net.cpp:386] inception_3b/relu_1x1 -> inception_3b/1x1 (in-place)
I0403 15:42:53.072387 20189 net.cpp:141] Setting up inception_3b/relu_1x1
I0403 15:42:53.072414 20189 net.cpp:148] Top shape: 24 128 28 28 (2408448)
I0403 15:42:53.072429 20189 net.cpp:156] Memory required for data: 676774944
I0403 15:42:53.072445 20189 layer_factory.hpp:77] Creating layer inception_3b/3x3_reduce
I0403 15:42:53.072468 20189 net.cpp:91] Creating Layer inception_3b/3x3_reduce
I0403 15:42:53.072485 20189 net.cpp:425] inception_3b/3x3_reduce <- inception_3a/output_inception_3a/output_0_split_1
I0403 15:42:53.072507 20189 net.cpp:399] inception_3b/3x3_reduce -> inception_3b/3x3_reduce
I0403 15:42:53.073683 20189 net.cpp:141] Setting up inception_3b/3x3_reduce
I0403 15:42:53.073712 20189 net.cpp:148] Top shape: 24 128 28 28 (2408448)
I0403 15:42:53.073729 20189 net.cpp:156] Memory required for data: 686408736
I0403 15:42:53.073748 20189 layer_factory.hpp:77] Creating layer inception_3b/relu_3x3_reduce
I0403 15:42:53.073770 20189 net.cpp:91] Creating Layer inception_3b/relu_3x3_reduce
I0403 15:42:53.073789 20189 net.cpp:425] inception_3b/relu_3x3_reduce <- inception_3b/3x3_reduce
I0403 15:42:53.073807 20189 net.cpp:386] inception_3b/relu_3x3_reduce -> inception_3b/3x3_reduce (in-place)
I0403 15:42:53.073990 20189 net.cpp:141] Setting up inception_3b/relu_3x3_reduce
I0403 15:42:53.074018 20189 net.cpp:148] Top shape: 24 128 28 28 (2408448)
I0403 15:42:53.074033 20189 net.cpp:156] Memory required for data: 696042528
I0403 15:42:53.074048 20189 layer_factory.hpp:77] Creating layer inception_3b/3x3
I0403 15:42:53.074074 20189 net.cpp:91] Creating Layer inception_3b/3x3
I0403 15:42:53.074091 20189 net.cpp:425] inception_3b/3x3 <- inception_3b/3x3_reduce
I0403 15:42:53.074111 20189 net.cpp:399] inception_3b/3x3 -> inception_3b/3x3
I0403 15:42:53.077071 20189 net.cpp:141] Setting up inception_3b/3x3
I0403 15:42:53.077101 20189 net.cpp:148] Top shape: 24 192 28 28 (3612672)
I0403 15:42:53.077118 20189 net.cpp:156] Memory required for data: 710493216
I0403 15:42:53.077137 20189 layer_factory.hpp:77] Creating layer inception_3b/relu_3x3
I0403 15:42:53.077158 20189 net.cpp:91] Creating Layer inception_3b/relu_3x3
I0403 15:42:53.077178 20189 net.cpp:425] inception_3b/relu_3x3 <- inception_3b/3x3
I0403 15:42:53.077195 20189 net.cpp:386] inception_3b/relu_3x3 -> inception_3b/3x3 (in-place)
I0403 15:42:53.077476 20189 net.cpp:141] Setting up inception_3b/relu_3x3
I0403 15:42:53.077502 20189 net.cpp:148] Top shape: 24 192 28 28 (3612672)
I0403 15:42:53.077517 20189 net.cpp:156] Memory required for data: 724943904
I0403 15:42:53.077532 20189 layer_factory.hpp:77] Creating layer inception_3b/5x5_reduce
I0403 15:42:53.077554 20189 net.cpp:91] Creating Layer inception_3b/5x5_reduce
I0403 15:42:53.077571 20189 net.cpp:425] inception_3b/5x5_reduce <- inception_3a/output_inception_3a/output_0_split_2
I0403 15:42:53.077594 20189 net.cpp:399] inception_3b/5x5_reduce -> inception_3b/5x5_reduce
I0403 15:42:53.078588 20189 net.cpp:141] Setting up inception_3b/5x5_reduce
I0403 15:42:53.078616 20189 net.cpp:148] Top shape: 24 32 28 28 (602112)
I0403 15:42:53.078632 20189 net.cpp:156] Memory required for data: 727352352
I0403 15:42:53.078650 20189 layer_factory.hpp:77] Creating layer inception_3b/relu_5x5_reduce
I0403 15:42:53.078671 20189 net.cpp:91] Creating Layer inception_3b/relu_5x5_reduce
I0403 15:42:53.078687 20189 net.cpp:425] inception_3b/relu_5x5_reduce <- inception_3b/5x5_reduce
I0403 15:42:53.078704 20189 net.cpp:386] inception_3b/relu_5x5_reduce -> inception_3b/5x5_reduce (in-place)
I0403 15:42:53.078901 20189 net.cpp:141] Setting up inception_3b/relu_5x5_reduce
I0403 15:42:53.078927 20189 net.cpp:148] Top shape: 24 32 28 28 (602112)
I0403 15:42:53.078943 20189 net.cpp:156] Memory required for data: 729760800
I0403 15:42:53.078959 20189 layer_factory.hpp:77] Creating layer inception_3b/5x5
I0403 15:42:53.078981 20189 net.cpp:91] Creating Layer inception_3b/5x5
I0403 15:42:53.079011 20189 net.cpp:425] inception_3b/5x5 <- inception_3b/5x5_reduce
I0403 15:42:53.079031 20189 net.cpp:399] inception_3b/5x5 -> inception_3b/5x5
I0403 15:42:53.081019 20189 net.cpp:141] Setting up inception_3b/5x5
I0403 15:42:53.081049 20189 net.cpp:148] Top shape: 24 96 28 28 (1806336)
I0403 15:42:53.081065 20189 net.cpp:156] Memory required for data: 736986144
I0403 15:42:53.081085 20189 layer_factory.hpp:77] Creating layer inception_3b/relu_5x5
I0403 15:42:53.081109 20189 net.cpp:91] Creating Layer inception_3b/relu_5x5
I0403 15:42:53.081125 20189 net.cpp:425] inception_3b/relu_5x5 <- inception_3b/5x5
I0403 15:42:53.081143 20189 net.cpp:386] inception_3b/relu_5x5 -> inception_3b/5x5 (in-place)
I0403 15:42:53.081342 20189 net.cpp:141] Setting up inception_3b/relu_5x5
I0403 15:42:53.081368 20189 net.cpp:148] Top shape: 24 96 28 28 (1806336)
I0403 15:42:53.081383 20189 net.cpp:156] Memory required for data: 744211488
I0403 15:42:53.081398 20189 layer_factory.hpp:77] Creating layer inception_3b/pool
I0403 15:42:53.081416 20189 net.cpp:91] Creating Layer inception_3b/pool
I0403 15:42:53.081431 20189 net.cpp:425] inception_3b/pool <- inception_3a/output_inception_3a/output_0_split_3
I0403 15:42:53.081450 20189 net.cpp:399] inception_3b/pool -> inception_3b/pool
I0403 15:42:53.081506 20189 net.cpp:141] Setting up inception_3b/pool
I0403 15:42:53.081529 20189 net.cpp:148] Top shape: 24 256 28 28 (4816896)
I0403 15:42:53.081544 20189 net.cpp:156] Memory required for data: 763479072
I0403 15:42:53.081558 20189 layer_factory.hpp:77] Creating layer inception_3b/pool_proj
I0403 15:42:53.081580 20189 net.cpp:91] Creating Layer inception_3b/pool_proj
I0403 15:42:53.081598 20189 net.cpp:425] inception_3b/pool_proj <- inception_3b/pool
I0403 15:42:53.081619 20189 net.cpp:399] inception_3b/pool_proj -> inception_3b/pool_proj
I0403 15:42:53.082690 20189 net.cpp:141] Setting up inception_3b/pool_proj
I0403 15:42:53.082721 20189 net.cpp:148] Top shape: 24 64 28 28 (1204224)
I0403 15:42:53.082738 20189 net.cpp:156] Memory required for data: 768295968
I0403 15:42:53.082757 20189 layer_factory.hpp:77] Creating layer inception_3b/relu_pool_proj
I0403 15:42:53.082775 20189 net.cpp:91] Creating Layer inception_3b/relu_pool_proj
I0403 15:42:53.082792 20189 net.cpp:425] inception_3b/relu_pool_proj <- inception_3b/pool_proj
I0403 15:42:53.082811 20189 net.cpp:386] inception_3b/relu_pool_proj -> inception_3b/pool_proj (in-place)
I0403 15:42:53.083225 20189 net.cpp:141] Setting up inception_3b/relu_pool_proj
I0403 15:42:53.083253 20189 net.cpp:148] Top shape: 24 64 28 28 (1204224)
I0403 15:42:53.083269 20189 net.cpp:156] Memory required for data: 773112864
I0403 15:42:53.083283 20189 layer_factory.hpp:77] Creating layer inception_3b/output
I0403 15:42:53.083302 20189 net.cpp:91] Creating Layer inception_3b/output
I0403 15:42:53.083329 20189 net.cpp:425] inception_3b/output <- inception_3b/1x1
I0403 15:42:53.083348 20189 net.cpp:425] inception_3b/output <- inception_3b/3x3
I0403 15:42:53.083364 20189 net.cpp:425] inception_3b/output <- inception_3b/5x5
I0403 15:42:53.083381 20189 net.cpp:425] inception_3b/output <- inception_3b/pool_proj
I0403 15:42:53.083400 20189 net.cpp:399] inception_3b/output -> inception_3b/output
I0403 15:42:53.083446 20189 net.cpp:141] Setting up inception_3b/output
I0403 15:42:53.083472 20189 net.cpp:148] Top shape: 24 480 28 28 (9031680)
I0403 15:42:53.083487 20189 net.cpp:156] Memory required for data: 809239584
I0403 15:42:53.083501 20189 layer_factory.hpp:77] Creating layer pool3/3x3_s2
I0403 15:42:53.083521 20189 net.cpp:91] Creating Layer pool3/3x3_s2
I0403 15:42:53.083539 20189 net.cpp:425] pool3/3x3_s2 <- inception_3b/output
I0403 15:42:53.083575 20189 net.cpp:399] pool3/3x3_s2 -> pool3/3x3_s2
I0403 15:42:53.083637 20189 net.cpp:141] Setting up pool3/3x3_s2
I0403 15:42:53.083663 20189 net.cpp:148] Top shape: 24 480 14 14 (2257920)
I0403 15:42:53.083679 20189 net.cpp:156] Memory required for data: 818271264
I0403 15:42:53.083694 20189 layer_factory.hpp:77] Creating layer pool3/3x3_s2_pool3/3x3_s2_0_split
I0403 15:42:53.083714 20189 net.cpp:91] Creating Layer pool3/3x3_s2_pool3/3x3_s2_0_split
I0403 15:42:53.083729 20189 net.cpp:425] pool3/3x3_s2_pool3/3x3_s2_0_split <- pool3/3x3_s2
I0403 15:42:53.083750 20189 net.cpp:399] pool3/3x3_s2_pool3/3x3_s2_0_split -> pool3/3x3_s2_pool3/3x3_s2_0_split_0
I0403 15:42:53.083770 20189 net.cpp:399] pool3/3x3_s2_pool3/3x3_s2_0_split -> pool3/3x3_s2_pool3/3x3_s2_0_split_1
I0403 15:42:53.083792 20189 net.cpp:399] pool3/3x3_s2_pool3/3x3_s2_0_split -> pool3/3x3_s2_pool3/3x3_s2_0_split_2
I0403 15:42:53.083811 20189 net.cpp:399] pool3/3x3_s2_pool3/3x3_s2_0_split -> pool3/3x3_s2_pool3/3x3_s2_0_split_3
I0403 15:42:53.083892 20189 net.cpp:141] Setting up pool3/3x3_s2_pool3/3x3_s2_0_split
I0403 15:42:53.083920 20189 net.cpp:148] Top shape: 24 480 14 14 (2257920)
I0403 15:42:53.083938 20189 net.cpp:148] Top shape: 24 480 14 14 (2257920)
I0403 15:42:53.083956 20189 net.cpp:148] Top shape: 24 480 14 14 (2257920)
I0403 15:42:53.083972 20189 net.cpp:148] Top shape: 24 480 14 14 (2257920)
I0403 15:42:53.083992 20189 net.cpp:156] Memory required for data: 854397984
I0403 15:42:53.084009 20189 layer_factory.hpp:77] Creating layer inception_4a/1x1
I0403 15:42:53.084033 20189 net.cpp:91] Creating Layer inception_4a/1x1
I0403 15:42:53.084051 20189 net.cpp:425] inception_4a/1x1 <- pool3/3x3_s2_pool3/3x3_s2_0_split_0
I0403 15:42:53.084072 20189 net.cpp:399] inception_4a/1x1 -> inception_4a/1x1
I0403 15:42:53.085700 20189 net.cpp:141] Setting up inception_4a/1x1
I0403 15:42:53.085728 20189 net.cpp:148] Top shape: 24 192 14 14 (903168)
I0403 15:42:53.085746 20189 net.cpp:156] Memory required for data: 858010656
I0403 15:42:53.085763 20189 layer_factory.hpp:77] Creating layer inception_4a/relu_1x1
I0403 15:42:53.085783 20189 net.cpp:91] Creating Layer inception_4a/relu_1x1
I0403 15:42:53.085798 20189 net.cpp:425] inception_4a/relu_1x1 <- inception_4a/1x1
I0403 15:42:53.085836 20189 net.cpp:386] inception_4a/relu_1x1 -> inception_4a/1x1 (in-place)
I0403 15:42:53.086016 20189 net.cpp:141] Setting up inception_4a/relu_1x1
I0403 15:42:53.086041 20189 net.cpp:148] Top shape: 24 192 14 14 (903168)
I0403 15:42:53.086056 20189 net.cpp:156] Memory required for data: 861623328
I0403 15:42:53.086069 20189 layer_factory.hpp:77] Creating layer inception_4a/3x3_reduce
I0403 15:42:53.086091 20189 net.cpp:91] Creating Layer inception_4a/3x3_reduce
I0403 15:42:53.086108 20189 net.cpp:425] inception_4a/3x3_reduce <- pool3/3x3_s2_pool3/3x3_s2_0_split_1
I0403 15:42:53.086129 20189 net.cpp:399] inception_4a/3x3_reduce -> inception_4a/3x3_reduce
I0403 15:42:53.087378 20189 net.cpp:141] Setting up inception_4a/3x3_reduce
I0403 15:42:53.087406 20189 net.cpp:148] Top shape: 24 96 14 14 (451584)
I0403 15:42:53.087422 20189 net.cpp:156] Memory required for data: 863429664
I0403 15:42:53.087450 20189 layer_factory.hpp:77] Creating layer inception_4a/relu_3x3_reduce
I0403 15:42:53.087471 20189 net.cpp:91] Creating Layer inception_4a/relu_3x3_reduce
I0403 15:42:53.087487 20189 net.cpp:425] inception_4a/relu_3x3_reduce <- inception_4a/3x3_reduce
I0403 15:42:53.087507 20189 net.cpp:386] inception_4a/relu_3x3_reduce -> inception_4a/3x3_reduce (in-place)
I0403 15:42:53.087683 20189 net.cpp:141] Setting up inception_4a/relu_3x3_reduce
I0403 15:42:53.087709 20189 net.cpp:148] Top shape: 24 96 14 14 (451584)
I0403 15:42:53.087724 20189 net.cpp:156] Memory required for data: 865236000
I0403 15:42:53.087739 20189 layer_factory.hpp:77] Creating layer inception_4a/3x3
I0403 15:42:53.087762 20189 net.cpp:91] Creating Layer inception_4a/3x3
I0403 15:42:53.087779 20189 net.cpp:425] inception_4a/3x3 <- inception_4a/3x3_reduce
I0403 15:42:53.087801 20189 net.cpp:399] inception_4a/3x3 -> inception_4a/3x3
I0403 15:42:53.090407 20189 net.cpp:141] Setting up inception_4a/3x3
I0403 15:42:53.090436 20189 net.cpp:148] Top shape: 24 208 14 14 (978432)
I0403 15:42:53.090451 20189 net.cpp:156] Memory required for data: 869149728
I0403 15:42:53.090469 20189 layer_factory.hpp:77] Creating layer inception_4a/relu_3x3
I0403 15:42:53.090489 20189 net.cpp:91] Creating Layer inception_4a/relu_3x3
I0403 15:42:53.090505 20189 net.cpp:425] inception_4a/relu_3x3 <- inception_4a/3x3
I0403 15:42:53.090523 20189 net.cpp:386] inception_4a/relu_3x3 -> inception_4a/3x3 (in-place)
I0403 15:42:53.090798 20189 net.cpp:141] Setting up inception_4a/relu_3x3
I0403 15:42:53.090823 20189 net.cpp:148] Top shape: 24 208 14 14 (978432)
I0403 15:42:53.090838 20189 net.cpp:156] Memory required for data: 873063456
I0403 15:42:53.090853 20189 layer_factory.hpp:77] Creating layer inception_4a/5x5_reduce
I0403 15:42:53.090874 20189 net.cpp:91] Creating Layer inception_4a/5x5_reduce
I0403 15:42:53.090893 20189 net.cpp:425] inception_4a/5x5_reduce <- pool3/3x3_s2_pool3/3x3_s2_0_split_2
I0403 15:42:53.090914 20189 net.cpp:399] inception_4a/5x5_reduce -> inception_4a/5x5_reduce
I0403 15:42:53.091914 20189 net.cpp:141] Setting up inception_4a/5x5_reduce
I0403 15:42:53.091943 20189 net.cpp:148] Top shape: 24 16 14 14 (75264)
I0403 15:42:53.091958 20189 net.cpp:156] Memory required for data: 873364512
I0403 15:42:53.091977 20189 layer_factory.hpp:77] Creating layer inception_4a/relu_5x5_reduce
I0403 15:42:53.092002 20189 net.cpp:91] Creating Layer inception_4a/relu_5x5_reduce
I0403 15:42:53.092020 20189 net.cpp:425] inception_4a/relu_5x5_reduce <- inception_4a/5x5_reduce
I0403 15:42:53.092036 20189 net.cpp:386] inception_4a/relu_5x5_reduce -> inception_4a/5x5_reduce (in-place)
I0403 15:42:53.092211 20189 net.cpp:141] Setting up inception_4a/relu_5x5_reduce
I0403 15:42:53.092238 20189 net.cpp:148] Top shape: 24 16 14 14 (75264)
I0403 15:42:53.092254 20189 net.cpp:156] Memory required for data: 873665568
I0403 15:42:53.092269 20189 layer_factory.hpp:77] Creating layer inception_4a/5x5
I0403 15:42:53.092290 20189 net.cpp:91] Creating Layer inception_4a/5x5
I0403 15:42:53.092308 20189 net.cpp:425] inception_4a/5x5 <- inception_4a/5x5_reduce
I0403 15:42:53.092325 20189 net.cpp:399] inception_4a/5x5 -> inception_4a/5x5
I0403 15:42:53.093384 20189 net.cpp:141] Setting up inception_4a/5x5
I0403 15:42:53.093415 20189 net.cpp:148] Top shape: 24 48 14 14 (225792)
I0403 15:42:53.093431 20189 net.cpp:156] Memory required for data: 874568736
I0403 15:42:53.093451 20189 layer_factory.hpp:77] Creating layer inception_4a/relu_5x5
I0403 15:42:53.093467 20189 net.cpp:91] Creating Layer inception_4a/relu_5x5
I0403 15:42:53.093483 20189 net.cpp:425] inception_4a/relu_5x5 <- inception_4a/5x5
I0403 15:42:53.093500 20189 net.cpp:386] inception_4a/relu_5x5 -> inception_4a/5x5 (in-place)
I0403 15:42:53.093677 20189 net.cpp:141] Setting up inception_4a/relu_5x5
I0403 15:42:53.093701 20189 net.cpp:148] Top shape: 24 48 14 14 (225792)
I0403 15:42:53.093716 20189 net.cpp:156] Memory required for data: 875471904
I0403 15:42:53.093730 20189 layer_factory.hpp:77] Creating layer inception_4a/pool
I0403 15:42:53.093747 20189 net.cpp:91] Creating Layer inception_4a/pool
I0403 15:42:53.093762 20189 net.cpp:425] inception_4a/pool <- pool3/3x3_s2_pool3/3x3_s2_0_split_3
I0403 15:42:53.093783 20189 net.cpp:399] inception_4a/pool -> inception_4a/pool
I0403 15:42:53.093844 20189 net.cpp:141] Setting up inception_4a/pool
I0403 15:42:53.093870 20189 net.cpp:148] Top shape: 24 480 14 14 (2257920)
I0403 15:42:53.093885 20189 net.cpp:156] Memory required for data: 884503584
I0403 15:42:53.093899 20189 layer_factory.hpp:77] Creating layer inception_4a/pool_proj
I0403 15:42:53.093921 20189 net.cpp:91] Creating Layer inception_4a/pool_proj
I0403 15:42:53.093938 20189 net.cpp:425] inception_4a/pool_proj <- inception_4a/pool
I0403 15:42:53.093957 20189 net.cpp:399] inception_4a/pool_proj -> inception_4a/pool_proj
I0403 15:42:53.095141 20189 net.cpp:141] Setting up inception_4a/pool_proj
I0403 15:42:53.095170 20189 net.cpp:148] Top shape: 24 64 14 14 (301056)
I0403 15:42:53.095201 20189 net.cpp:156] Memory required for data: 885707808
I0403 15:42:53.095221 20189 layer_factory.hpp:77] Creating layer inception_4a/relu_pool_proj
I0403 15:42:53.095240 20189 net.cpp:91] Creating Layer inception_4a/relu_pool_proj
I0403 15:42:53.095257 20189 net.cpp:425] inception_4a/relu_pool_proj <- inception_4a/pool_proj
I0403 15:42:53.095278 20189 net.cpp:386] inception_4a/relu_pool_proj -> inception_4a/pool_proj (in-place)
I0403 15:42:53.095561 20189 net.cpp:141] Setting up inception_4a/relu_pool_proj
I0403 15:42:53.095587 20189 net.cpp:148] Top shape: 24 64 14 14 (301056)
I0403 15:42:53.095602 20189 net.cpp:156] Memory required for data: 886912032
I0403 15:42:53.095615 20189 layer_factory.hpp:77] Creating layer inception_4a/output
I0403 15:42:53.095633 20189 net.cpp:91] Creating Layer inception_4a/output
I0403 15:42:53.095648 20189 net.cpp:425] inception_4a/output <- inception_4a/1x1
I0403 15:42:53.095664 20189 net.cpp:425] inception_4a/output <- inception_4a/3x3
I0403 15:42:53.095679 20189 net.cpp:425] inception_4a/output <- inception_4a/5x5
I0403 15:42:53.095693 20189 net.cpp:425] inception_4a/output <- inception_4a/pool_proj
I0403 15:42:53.095712 20189 net.cpp:399] inception_4a/output -> inception_4a/output
I0403 15:42:53.095757 20189 net.cpp:141] Setting up inception_4a/output
I0403 15:42:53.095779 20189 net.cpp:148] Top shape: 24 512 14 14 (2408448)
I0403 15:42:53.095796 20189 net.cpp:156] Memory required for data: 896545824
I0403 15:42:53.095810 20189 layer_factory.hpp:77] Creating layer inception_4a/output_inception_4a/output_0_split
I0403 15:42:53.095826 20189 net.cpp:91] Creating Layer inception_4a/output_inception_4a/output_0_split
I0403 15:42:53.095841 20189 net.cpp:425] inception_4a/output_inception_4a/output_0_split <- inception_4a/output
I0403 15:42:53.095859 20189 net.cpp:399] inception_4a/output_inception_4a/output_0_split -> inception_4a/output_inception_4a/output_0_split_0
I0403 15:42:53.095878 20189 net.cpp:399] inception_4a/output_inception_4a/output_0_split -> inception_4a/output_inception_4a/output_0_split_1
I0403 15:42:53.095899 20189 net.cpp:399] inception_4a/output_inception_4a/output_0_split -> inception_4a/output_inception_4a/output_0_split_2
I0403 15:42:53.095919 20189 net.cpp:399] inception_4a/output_inception_4a/output_0_split -> inception_4a/output_inception_4a/output_0_split_3
I0403 15:42:53.095938 20189 net.cpp:399] inception_4a/output_inception_4a/output_0_split -> inception_4a/output_inception_4a/output_0_split_4
I0403 15:42:53.096034 20189 net.cpp:141] Setting up inception_4a/output_inception_4a/output_0_split
I0403 15:42:53.096056 20189 net.cpp:148] Top shape: 24 512 14 14 (2408448)
I0403 15:42:53.096072 20189 net.cpp:148] Top shape: 24 512 14 14 (2408448)
I0403 15:42:53.096088 20189 net.cpp:148] Top shape: 24 512 14 14 (2408448)
I0403 15:42:53.096102 20189 net.cpp:148] Top shape: 24 512 14 14 (2408448)
I0403 15:42:53.096117 20189 net.cpp:148] Top shape: 24 512 14 14 (2408448)
I0403 15:42:53.096130 20189 net.cpp:156] Memory required for data: 944714784
I0403 15:42:53.096144 20189 layer_factory.hpp:77] Creating layer loss1/ave_pool
I0403 15:42:53.096163 20189 net.cpp:91] Creating Layer loss1/ave_pool
I0403 15:42:53.096179 20189 net.cpp:425] loss1/ave_pool <- inception_4a/output_inception_4a/output_0_split_0
I0403 15:42:53.096196 20189 net.cpp:399] loss1/ave_pool -> loss1/ave_pool
I0403 15:42:53.096401 20189 net.cpp:141] Setting up loss1/ave_pool
I0403 15:42:53.096426 20189 net.cpp:148] Top shape: 24 512 4 4 (196608)
I0403 15:42:53.096441 20189 net.cpp:156] Memory required for data: 945501216
I0403 15:42:53.096456 20189 layer_factory.hpp:77] Creating layer loss1/conv
I0403 15:42:53.096477 20189 net.cpp:91] Creating Layer loss1/conv
I0403 15:42:53.096493 20189 net.cpp:425] loss1/conv <- loss1/ave_pool
I0403 15:42:53.096513 20189 net.cpp:399] loss1/conv -> loss1/conv
I0403 15:42:53.097898 20189 net.cpp:141] Setting up loss1/conv
I0403 15:42:53.097926 20189 net.cpp:148] Top shape: 24 128 4 4 (49152)
I0403 15:42:53.097955 20189 net.cpp:156] Memory required for data: 945697824
I0403 15:42:53.097976 20189 layer_factory.hpp:77] Creating layer loss1/relu_conv
I0403 15:42:53.098002 20189 net.cpp:91] Creating Layer loss1/relu_conv
I0403 15:42:53.098021 20189 net.cpp:425] loss1/relu_conv <- loss1/conv
I0403 15:42:53.098038 20189 net.cpp:386] loss1/relu_conv -> loss1/conv (in-place)
I0403 15:42:53.098323 20189 net.cpp:141] Setting up loss1/relu_conv
I0403 15:42:53.098348 20189 net.cpp:148] Top shape: 24 128 4 4 (49152)
I0403 15:42:53.098363 20189 net.cpp:156] Memory required for data: 945894432
I0403 15:42:53.098378 20189 layer_factory.hpp:77] Creating layer loss1/fc
I0403 15:42:53.098403 20189 net.cpp:91] Creating Layer loss1/fc
I0403 15:42:53.098420 20189 net.cpp:425] loss1/fc <- loss1/conv
I0403 15:42:53.098438 20189 net.cpp:399] loss1/fc -> loss1/fc
I0403 15:42:53.115648 20189 net.cpp:141] Setting up loss1/fc
I0403 15:42:53.115681 20189 net.cpp:148] Top shape: 24 1024 (24576)
I0403 15:42:53.115696 20189 net.cpp:156] Memory required for data: 945992736
I0403 15:42:53.115715 20189 layer_factory.hpp:77] Creating layer loss1/relu_fc
I0403 15:42:53.115732 20189 net.cpp:91] Creating Layer loss1/relu_fc
I0403 15:42:53.115747 20189 net.cpp:425] loss1/relu_fc <- loss1/fc
I0403 15:42:53.115767 20189 net.cpp:386] loss1/relu_fc -> loss1/fc (in-place)
I0403 15:42:53.115958 20189 net.cpp:141] Setting up loss1/relu_fc
I0403 15:42:53.115983 20189 net.cpp:148] Top shape: 24 1024 (24576)
I0403 15:42:53.116003 20189 net.cpp:156] Memory required for data: 946091040
I0403 15:42:53.116017 20189 layer_factory.hpp:77] Creating layer loss1/drop_fc
I0403 15:42:53.116046 20189 net.cpp:91] Creating Layer loss1/drop_fc
I0403 15:42:53.116065 20189 net.cpp:425] loss1/drop_fc <- loss1/fc
I0403 15:42:53.116081 20189 net.cpp:386] loss1/drop_fc -> loss1/fc (in-place)
I0403 15:42:53.116132 20189 net.cpp:141] Setting up loss1/drop_fc
I0403 15:42:53.116158 20189 net.cpp:148] Top shape: 24 1024 (24576)
I0403 15:42:53.116173 20189 net.cpp:156] Memory required for data: 946189344
I0403 15:42:53.116189 20189 layer_factory.hpp:77] Creating layer loss1/classifier_plantvillage
I0403 15:42:53.116207 20189 net.cpp:91] Creating Layer loss1/classifier_plantvillage
I0403 15:42:53.116222 20189 net.cpp:425] loss1/classifier_plantvillage <- loss1/fc
I0403 15:42:53.116242 20189 net.cpp:399] loss1/classifier_plantvillage -> loss1/classifier_plantvillage
I0403 15:42:53.117156 20189 net.cpp:141] Setting up loss1/classifier_plantvillage
I0403 15:42:53.117182 20189 net.cpp:148] Top shape: 24 38 (912)
I0403 15:42:53.117197 20189 net.cpp:156] Memory required for data: 946192992
I0403 15:42:53.117216 20189 layer_factory.hpp:77] Creating layer loss1/classifier_plantvillage_loss1/classifier_plantvillage_0_split
I0403 15:42:53.117233 20189 net.cpp:91] Creating Layer loss1/classifier_plantvillage_loss1/classifier_plantvillage_0_split
I0403 15:42:53.117249 20189 net.cpp:425] loss1/classifier_plantvillage_loss1/classifier_plantvillage_0_split <- loss1/classifier_plantvillage
I0403 15:42:53.117269 20189 net.cpp:399] loss1/classifier_plantvillage_loss1/classifier_plantvillage_0_split -> loss1/classifier_plantvillage_loss1/classifier_plantvillage_0_split_0
I0403 15:42:53.117290 20189 net.cpp:399] loss1/classifier_plantvillage_loss1/classifier_plantvillage_0_split -> loss1/classifier_plantvillage_loss1/classifier_plantvillage_0_split_1
I0403 15:42:53.117308 20189 net.cpp:399] loss1/classifier_plantvillage_loss1/classifier_plantvillage_0_split -> loss1/classifier_plantvillage_loss1/classifier_plantvillage_0_split_2
I0403 15:42:53.117372 20189 net.cpp:141] Setting up loss1/classifier_plantvillage_loss1/classifier_plantvillage_0_split
I0403 15:42:53.117396 20189 net.cpp:148] Top shape: 24 38 (912)
I0403 15:42:53.117413 20189 net.cpp:148] Top shape: 24 38 (912)
I0403 15:42:53.117426 20189 net.cpp:148] Top shape: 24 38 (912)
I0403 15:42:53.117440 20189 net.cpp:156] Memory required for data: 946203936
I0403 15:42:53.117455 20189 layer_factory.hpp:77] Creating layer inception_4b/1x1
I0403 15:42:53.117473 20189 net.cpp:91] Creating Layer inception_4b/1x1
I0403 15:42:53.117506 20189 net.cpp:425] inception_4b/1x1 <- inception_4a/output_inception_4a/output_0_split_1
I0403 15:42:53.117527 20189 net.cpp:399] inception_4b/1x1 -> inception_4b/1x1
I0403 15:42:53.119137 20189 net.cpp:141] Setting up inception_4b/1x1
I0403 15:42:53.119164 20189 net.cpp:148] Top shape: 24 160 14 14 (752640)
I0403 15:42:53.119179 20189 net.cpp:156] Memory required for data: 949214496
I0403 15:42:53.119197 20189 layer_factory.hpp:77] Creating layer inception_4b/relu_1x1
I0403 15:42:53.119220 20189 net.cpp:91] Creating Layer inception_4b/relu_1x1
I0403 15:42:53.119235 20189 net.cpp:425] inception_4b/relu_1x1 <- inception_4b/1x1
I0403 15:42:53.119252 20189 net.cpp:386] inception_4b/relu_1x1 -> inception_4b/1x1 (in-place)
I0403 15:42:53.119428 20189 net.cpp:141] Setting up inception_4b/relu_1x1
I0403 15:42:53.119456 20189 net.cpp:148] Top shape: 24 160 14 14 (752640)
I0403 15:42:53.119470 20189 net.cpp:156] Memory required for data: 952225056
I0403 15:42:53.119484 20189 layer_factory.hpp:77] Creating layer inception_4b/3x3_reduce
I0403 15:42:53.119505 20189 net.cpp:91] Creating Layer inception_4b/3x3_reduce
I0403 15:42:53.119523 20189 net.cpp:425] inception_4b/3x3_reduce <- inception_4a/output_inception_4a/output_0_split_2
I0403 15:42:53.119541 20189 net.cpp:399] inception_4b/3x3_reduce -> inception_4b/3x3_reduce
I0403 15:42:53.120889 20189 net.cpp:141] Setting up inception_4b/3x3_reduce
I0403 15:42:53.120916 20189 net.cpp:148] Top shape: 24 112 14 14 (526848)
I0403 15:42:53.120931 20189 net.cpp:156] Memory required for data: 954332448
I0403 15:42:53.120949 20189 layer_factory.hpp:77] Creating layer inception_4b/relu_3x3_reduce
I0403 15:42:53.120973 20189 net.cpp:91] Creating Layer inception_4b/relu_3x3_reduce
I0403 15:42:53.120995 20189 net.cpp:425] inception_4b/relu_3x3_reduce <- inception_4b/3x3_reduce
I0403 15:42:53.121014 20189 net.cpp:386] inception_4b/relu_3x3_reduce -> inception_4b/3x3_reduce (in-place)
I0403 15:42:53.121300 20189 net.cpp:141] Setting up inception_4b/relu_3x3_reduce
I0403 15:42:53.121326 20189 net.cpp:148] Top shape: 24 112 14 14 (526848)
I0403 15:42:53.121341 20189 net.cpp:156] Memory required for data: 956439840
I0403 15:42:53.121356 20189 layer_factory.hpp:77] Creating layer inception_4b/3x3
I0403 15:42:53.121379 20189 net.cpp:91] Creating Layer inception_4b/3x3
I0403 15:42:53.121397 20189 net.cpp:425] inception_4b/3x3 <- inception_4b/3x3_reduce
I0403 15:42:53.121415 20189 net.cpp:399] inception_4b/3x3 -> inception_4b/3x3
I0403 15:42:53.124402 20189 net.cpp:141] Setting up inception_4b/3x3
I0403 15:42:53.124433 20189 net.cpp:148] Top shape: 24 224 14 14 (1053696)
I0403 15:42:53.124449 20189 net.cpp:156] Memory required for data: 960654624
I0403 15:42:53.124467 20189 layer_factory.hpp:77] Creating layer inception_4b/relu_3x3
I0403 15:42:53.124486 20189 net.cpp:91] Creating Layer inception_4b/relu_3x3
I0403 15:42:53.124505 20189 net.cpp:425] inception_4b/relu_3x3 <- inception_4b/3x3
I0403 15:42:53.124524 20189 net.cpp:386] inception_4b/relu_3x3 -> inception_4b/3x3 (in-place)
I0403 15:42:53.124712 20189 net.cpp:141] Setting up inception_4b/relu_3x3
I0403 15:42:53.124739 20189 net.cpp:148] Top shape: 24 224 14 14 (1053696)
I0403 15:42:53.124755 20189 net.cpp:156] Memory required for data: 964869408
I0403 15:42:53.124769 20189 layer_factory.hpp:77] Creating layer inception_4b/5x5_reduce
I0403 15:42:53.124793 20189 net.cpp:91] Creating Layer inception_4b/5x5_reduce
I0403 15:42:53.124811 20189 net.cpp:425] inception_4b/5x5_reduce <- inception_4a/output_inception_4a/output_0_split_3
I0403 15:42:53.124835 20189 net.cpp:399] inception_4b/5x5_reduce -> inception_4b/5x5_reduce
I0403 15:42:53.125944 20189 net.cpp:141] Setting up inception_4b/5x5_reduce
I0403 15:42:53.125973 20189 net.cpp:148] Top shape: 24 24 14 14 (112896)
I0403 15:42:53.125993 20189 net.cpp:156] Memory required for data: 965320992
I0403 15:42:53.126013 20189 layer_factory.hpp:77] Creating layer inception_4b/relu_5x5_reduce
I0403 15:42:53.126035 20189 net.cpp:91] Creating Layer inception_4b/relu_5x5_reduce
I0403 15:42:53.126067 20189 net.cpp:425] inception_4b/relu_5x5_reduce <- inception_4b/5x5_reduce
I0403 15:42:53.126088 20189 net.cpp:386] inception_4b/relu_5x5_reduce -> inception_4b/5x5_reduce (in-place)
I0403 15:42:53.126276 20189 net.cpp:141] Setting up inception_4b/relu_5x5_reduce
I0403 15:42:53.126305 20189 net.cpp:148] Top shape: 24 24 14 14 (112896)
I0403 15:42:53.126322 20189 net.cpp:156] Memory required for data: 965772576
I0403 15:42:53.126335 20189 layer_factory.hpp:77] Creating layer inception_4b/5x5
I0403 15:42:53.126358 20189 net.cpp:91] Creating Layer inception_4b/5x5
I0403 15:42:53.126376 20189 net.cpp:425] inception_4b/5x5 <- inception_4b/5x5_reduce
I0403 15:42:53.126397 20189 net.cpp:399] inception_4b/5x5 -> inception_4b/5x5
I0403 15:42:53.127655 20189 net.cpp:141] Setting up inception_4b/5x5
I0403 15:42:53.127682 20189 net.cpp:148] Top shape: 24 64 14 14 (301056)
I0403 15:42:53.127698 20189 net.cpp:156] Memory required for data: 966976800
I0403 15:42:53.127717 20189 layer_factory.hpp:77] Creating layer inception_4b/relu_5x5
I0403 15:42:53.127737 20189 net.cpp:91] Creating Layer inception_4b/relu_5x5
I0403 15:42:53.127753 20189 net.cpp:425] inception_4b/relu_5x5 <- inception_4b/5x5
I0403 15:42:53.127770 20189 net.cpp:386] inception_4b/relu_5x5 -> inception_4b/5x5 (in-place)
I0403 15:42:53.128065 20189 net.cpp:141] Setting up inception_4b/relu_5x5
I0403 15:42:53.128092 20189 net.cpp:148] Top shape: 24 64 14 14 (301056)
I0403 15:42:53.128106 20189 net.cpp:156] Memory required for data: 968181024
I0403 15:42:53.128121 20189 layer_factory.hpp:77] Creating layer inception_4b/pool
I0403 15:42:53.128141 20189 net.cpp:91] Creating Layer inception_4b/pool
I0403 15:42:53.128159 20189 net.cpp:425] inception_4b/pool <- inception_4a/output_inception_4a/output_0_split_4
I0403 15:42:53.128180 20189 net.cpp:399] inception_4b/pool -> inception_4b/pool
I0403 15:42:53.128250 20189 net.cpp:141] Setting up inception_4b/pool
I0403 15:42:53.128274 20189 net.cpp:148] Top shape: 24 512 14 14 (2408448)
I0403 15:42:53.128288 20189 net.cpp:156] Memory required for data: 977814816
I0403 15:42:53.128303 20189 layer_factory.hpp:77] Creating layer inception_4b/pool_proj
I0403 15:42:53.128325 20189 net.cpp:91] Creating Layer inception_4b/pool_proj
I0403 15:42:53.128342 20189 net.cpp:425] inception_4b/pool_proj <- inception_4b/pool
I0403 15:42:53.128363 20189 net.cpp:399] inception_4b/pool_proj -> inception_4b/pool_proj
I0403 15:42:53.129601 20189 net.cpp:141] Setting up inception_4b/pool_proj
I0403 15:42:53.129631 20189 net.cpp:148] Top shape: 24 64 14 14 (301056)
I0403 15:42:53.129645 20189 net.cpp:156] Memory required for data: 979019040
I0403 15:42:53.129663 20189 layer_factory.hpp:77] Creating layer inception_4b/relu_pool_proj
I0403 15:42:53.129686 20189 net.cpp:91] Creating Layer inception_4b/relu_pool_proj
I0403 15:42:53.129703 20189 net.cpp:425] inception_4b/relu_pool_proj <- inception_4b/pool_proj
I0403 15:42:53.129722 20189 net.cpp:386] inception_4b/relu_pool_proj -> inception_4b/pool_proj (in-place)
I0403 15:42:53.129909 20189 net.cpp:141] Setting up inception_4b/relu_pool_proj
I0403 15:42:53.129937 20189 net.cpp:148] Top shape: 24 64 14 14 (301056)
I0403 15:42:53.129953 20189 net.cpp:156] Memory required for data: 980223264
I0403 15:42:53.129968 20189 layer_factory.hpp:77] Creating layer inception_4b/output
I0403 15:42:53.129990 20189 net.cpp:91] Creating Layer inception_4b/output
I0403 15:42:53.130007 20189 net.cpp:425] inception_4b/output <- inception_4b/1x1
I0403 15:42:53.130025 20189 net.cpp:425] inception_4b/output <- inception_4b/3x3
I0403 15:42:53.130043 20189 net.cpp:425] inception_4b/output <- inception_4b/5x5
I0403 15:42:53.130058 20189 net.cpp:425] inception_4b/output <- inception_4b/pool_proj
I0403 15:42:53.130076 20189 net.cpp:399] inception_4b/output -> inception_4b/output
I0403 15:42:53.130123 20189 net.cpp:141] Setting up inception_4b/output
I0403 15:42:53.130148 20189 net.cpp:148] Top shape: 24 512 14 14 (2408448)
I0403 15:42:53.130163 20189 net.cpp:156] Memory required for data: 989857056
I0403 15:42:53.130194 20189 layer_factory.hpp:77] Creating layer inception_4b/output_inception_4b/output_0_split
I0403 15:42:53.130216 20189 net.cpp:91] Creating Layer inception_4b/output_inception_4b/output_0_split
I0403 15:42:53.130234 20189 net.cpp:425] inception_4b/output_inception_4b/output_0_split <- inception_4b/output
I0403 15:42:53.130251 20189 net.cpp:399] inception_4b/output_inception_4b/output_0_split -> inception_4b/output_inception_4b/output_0_split_0
I0403 15:42:53.130271 20189 net.cpp:399] inception_4b/output_inception_4b/output_0_split -> inception_4b/output_inception_4b/output_0_split_1
I0403 15:42:53.130293 20189 net.cpp:399] inception_4b/output_inception_4b/output_0_split -> inception_4b/output_inception_4b/output_0_split_2
I0403 15:42:53.130314 20189 net.cpp:399] inception_4b/output_inception_4b/output_0_split -> inception_4b/output_inception_4b/output_0_split_3
I0403 15:42:53.130398 20189 net.cpp:141] Setting up inception_4b/output_inception_4b/output_0_split
I0403 15:42:53.130422 20189 net.cpp:148] Top shape: 24 512 14 14 (2408448)
I0403 15:42:53.130439 20189 net.cpp:148] Top shape: 24 512 14 14 (2408448)
I0403 15:42:53.130453 20189 net.cpp:148] Top shape: 24 512 14 14 (2408448)
I0403 15:42:53.130470 20189 net.cpp:148] Top shape: 24 512 14 14 (2408448)
I0403 15:42:53.130482 20189 net.cpp:156] Memory required for data: 1028392224
I0403 15:42:53.130497 20189 layer_factory.hpp:77] Creating layer inception_4c/1x1
I0403 15:42:53.130519 20189 net.cpp:91] Creating Layer inception_4c/1x1
I0403 15:42:53.130537 20189 net.cpp:425] inception_4c/1x1 <- inception_4b/output_inception_4b/output_0_split_0
I0403 15:42:53.130558 20189 net.cpp:399] inception_4c/1x1 -> inception_4c/1x1
I0403 15:42:53.132009 20189 net.cpp:141] Setting up inception_4c/1x1
I0403 15:42:53.132043 20189 net.cpp:148] Top shape: 24 128 14 14 (602112)
I0403 15:42:53.132062 20189 net.cpp:156] Memory required for data: 1030800672
I0403 15:42:53.132082 20189 layer_factory.hpp:77] Creating layer inception_4c/relu_1x1
I0403 15:42:53.132100 20189 net.cpp:91] Creating Layer inception_4c/relu_1x1
I0403 15:42:53.132117 20189 net.cpp:425] inception_4c/relu_1x1 <- inception_4c/1x1
I0403 15:42:53.132135 20189 net.cpp:386] inception_4c/relu_1x1 -> inception_4c/1x1 (in-place)
I0403 15:42:53.132320 20189 net.cpp:141] Setting up inception_4c/relu_1x1
I0403 15:42:53.132345 20189 net.cpp:148] Top shape: 24 128 14 14 (602112)
I0403 15:42:53.132359 20189 net.cpp:156] Memory required for data: 1033209120
I0403 15:42:53.132374 20189 layer_factory.hpp:77] Creating layer inception_4c/3x3_reduce
I0403 15:42:53.132395 20189 net.cpp:91] Creating Layer inception_4c/3x3_reduce
I0403 15:42:53.132413 20189 net.cpp:425] inception_4c/3x3_reduce <- inception_4b/output_inception_4b/output_0_split_1
I0403 15:42:53.132434 20189 net.cpp:399] inception_4c/3x3_reduce -> inception_4c/3x3_reduce
I0403 15:42:53.134402 20189 net.cpp:141] Setting up inception_4c/3x3_reduce
I0403 15:42:53.134431 20189 net.cpp:148] Top shape: 24 128 14 14 (602112)
I0403 15:42:53.134449 20189 net.cpp:156] Memory required for data: 1035617568
I0403 15:42:53.134467 20189 layer_factory.hpp:77] Creating layer inception_4c/relu_3x3_reduce
I0403 15:42:53.134488 20189 net.cpp:91] Creating Layer inception_4c/relu_3x3_reduce
I0403 15:42:53.134505 20189 net.cpp:425] inception_4c/relu_3x3_reduce <- inception_4c/3x3_reduce
I0403 15:42:53.134523 20189 net.cpp:386] inception_4c/relu_3x3_reduce -> inception_4c/3x3_reduce (in-place)
I0403 15:42:53.134815 20189 net.cpp:141] Setting up inception_4c/relu_3x3_reduce
I0403 15:42:53.134843 20189 net.cpp:148] Top shape: 24 128 14 14 (602112)
I0403 15:42:53.134858 20189 net.cpp:156] Memory required for data: 1038026016
I0403 15:42:53.134874 20189 layer_factory.hpp:77] Creating layer inception_4c/3x3
I0403 15:42:53.134897 20189 net.cpp:91] Creating Layer inception_4c/3x3
I0403 15:42:53.134917 20189 net.cpp:425] inception_4c/3x3 <- inception_4c/3x3_reduce
I0403 15:42:53.134938 20189 net.cpp:399] inception_4c/3x3 -> inception_4c/3x3
I0403 15:42:53.138643 20189 net.cpp:141] Setting up inception_4c/3x3
I0403 15:42:53.138686 20189 net.cpp:148] Top shape: 24 256 14 14 (1204224)
I0403 15:42:53.138703 20189 net.cpp:156] Memory required for data: 1042842912
I0403 15:42:53.138737 20189 layer_factory.hpp:77] Creating layer inception_4c/relu_3x3
I0403 15:42:53.138761 20189 net.cpp:91] Creating Layer inception_4c/relu_3x3
I0403 15:42:53.138779 20189 net.cpp:425] inception_4c/relu_3x3 <- inception_4c/3x3
I0403 15:42:53.138797 20189 net.cpp:386] inception_4c/relu_3x3 -> inception_4c/3x3 (in-place)
I0403 15:42:53.138984 20189 net.cpp:141] Setting up inception_4c/relu_3x3
I0403 15:42:53.139020 20189 net.cpp:148] Top shape: 24 256 14 14 (1204224)
I0403 15:42:53.139036 20189 net.cpp:156] Memory required for data: 1047659808
I0403 15:42:53.139051 20189 layer_factory.hpp:77] Creating layer inception_4c/5x5_reduce
I0403 15:42:53.139077 20189 net.cpp:91] Creating Layer inception_4c/5x5_reduce
I0403 15:42:53.139096 20189 net.cpp:425] inception_4c/5x5_reduce <- inception_4b/output_inception_4b/output_0_split_2
I0403 15:42:53.139117 20189 net.cpp:399] inception_4c/5x5_reduce -> inception_4c/5x5_reduce
I0403 15:42:53.140234 20189 net.cpp:141] Setting up inception_4c/5x5_reduce
I0403 15:42:53.140264 20189 net.cpp:148] Top shape: 24 24 14 14 (112896)
I0403 15:42:53.140280 20189 net.cpp:156] Memory required for data: 1048111392
I0403 15:42:53.140297 20189 layer_factory.hpp:77] Creating layer inception_4c/relu_5x5_reduce
I0403 15:42:53.140321 20189 net.cpp:91] Creating Layer inception_4c/relu_5x5_reduce
I0403 15:42:53.140341 20189 net.cpp:425] inception_4c/relu_5x5_reduce <- inception_4c/5x5_reduce
I0403 15:42:53.140359 20189 net.cpp:386] inception_4c/relu_5x5_reduce -> inception_4c/5x5_reduce (in-place)
I0403 15:42:53.140548 20189 net.cpp:141] Setting up inception_4c/relu_5x5_reduce
I0403 15:42:53.140576 20189 net.cpp:148] Top shape: 24 24 14 14 (112896)
I0403 15:42:53.140594 20189 net.cpp:156] Memory required for data: 1048562976
I0403 15:42:53.140609 20189 layer_factory.hpp:77] Creating layer inception_4c/5x5
I0403 15:42:53.140632 20189 net.cpp:91] Creating Layer inception_4c/5x5
I0403 15:42:53.140651 20189 net.cpp:425] inception_4c/5x5 <- inception_4c/5x5_reduce
I0403 15:42:53.140671 20189 net.cpp:399] inception_4c/5x5 -> inception_4c/5x5
I0403 15:42:53.141955 20189 net.cpp:141] Setting up inception_4c/5x5
I0403 15:42:53.141991 20189 net.cpp:148] Top shape: 24 64 14 14 (301056)
I0403 15:42:53.142010 20189 net.cpp:156] Memory required for data: 1049767200
I0403 15:42:53.142030 20189 layer_factory.hpp:77] Creating layer inception_4c/relu_5x5
I0403 15:42:53.142051 20189 net.cpp:91] Creating Layer inception_4c/relu_5x5
I0403 15:42:53.142068 20189 net.cpp:425] inception_4c/relu_5x5 <- inception_4c/5x5
I0403 15:42:53.142091 20189 net.cpp:386] inception_4c/relu_5x5 -> inception_4c/5x5 (in-place)
I0403 15:42:53.142405 20189 net.cpp:141] Setting up inception_4c/relu_5x5
I0403 15:42:53.142432 20189 net.cpp:148] Top shape: 24 64 14 14 (301056)
I0403 15:42:53.142448 20189 net.cpp:156] Memory required for data: 1050971424
I0403 15:42:53.142462 20189 layer_factory.hpp:77] Creating layer inception_4c/pool
I0403 15:42:53.142480 20189 net.cpp:91] Creating Layer inception_4c/pool
I0403 15:42:53.142496 20189 net.cpp:425] inception_4c/pool <- inception_4b/output_inception_4b/output_0_split_3
I0403 15:42:53.142516 20189 net.cpp:399] inception_4c/pool -> inception_4c/pool
I0403 15:42:53.142582 20189 net.cpp:141] Setting up inception_4c/pool
I0403 15:42:53.142606 20189 net.cpp:148] Top shape: 24 512 14 14 (2408448)
I0403 15:42:53.142621 20189 net.cpp:156] Memory required for data: 1060605216
I0403 15:42:53.142635 20189 layer_factory.hpp:77] Creating layer inception_4c/pool_proj
I0403 15:42:53.142657 20189 net.cpp:91] Creating Layer inception_4c/pool_proj
I0403 15:42:53.142674 20189 net.cpp:425] inception_4c/pool_proj <- inception_4c/pool
I0403 15:42:53.142695 20189 net.cpp:399] inception_4c/pool_proj -> inception_4c/pool_proj
I0403 15:42:53.143939 20189 net.cpp:141] Setting up inception_4c/pool_proj
I0403 15:42:53.143967 20189 net.cpp:148] Top shape: 24 64 14 14 (301056)
I0403 15:42:53.144003 20189 net.cpp:156] Memory required for data: 1061809440
I0403 15:42:53.144024 20189 layer_factory.hpp:77] Creating layer inception_4c/relu_pool_proj
I0403 15:42:53.144048 20189 net.cpp:91] Creating Layer inception_4c/relu_pool_proj
I0403 15:42:53.144067 20189 net.cpp:425] inception_4c/relu_pool_proj <- inception_4c/pool_proj
I0403 15:42:53.144085 20189 net.cpp:386] inception_4c/relu_pool_proj -> inception_4c/pool_proj (in-place)
I0403 15:42:53.144275 20189 net.cpp:141] Setting up inception_4c/relu_pool_proj
I0403 15:42:53.144304 20189 net.cpp:148] Top shape: 24 64 14 14 (301056)
I0403 15:42:53.144320 20189 net.cpp:156] Memory required for data: 1063013664
I0403 15:42:53.144335 20189 layer_factory.hpp:77] Creating layer inception_4c/output
I0403 15:42:53.144353 20189 net.cpp:91] Creating Layer inception_4c/output
I0403 15:42:53.144371 20189 net.cpp:425] inception_4c/output <- inception_4c/1x1
I0403 15:42:53.144387 20189 net.cpp:425] inception_4c/output <- inception_4c/3x3
I0403 15:42:53.144403 20189 net.cpp:425] inception_4c/output <- inception_4c/5x5
I0403 15:42:53.144418 20189 net.cpp:425] inception_4c/output <- inception_4c/pool_proj
I0403 15:42:53.144438 20189 net.cpp:399] inception_4c/output -> inception_4c/output
I0403 15:42:53.144484 20189 net.cpp:141] Setting up inception_4c/output
I0403 15:42:53.144507 20189 net.cpp:148] Top shape: 24 512 14 14 (2408448)
I0403 15:42:53.144521 20189 net.cpp:156] Memory required for data: 1072647456
I0403 15:42:53.144536 20189 layer_factory.hpp:77] Creating layer inception_4c/output_inception_4c/output_0_split
I0403 15:42:53.144554 20189 net.cpp:91] Creating Layer inception_4c/output_inception_4c/output_0_split
I0403 15:42:53.144572 20189 net.cpp:425] inception_4c/output_inception_4c/output_0_split <- inception_4c/output
I0403 15:42:53.144588 20189 net.cpp:399] inception_4c/output_inception_4c/output_0_split -> inception_4c/output_inception_4c/output_0_split_0
I0403 15:42:53.144608 20189 net.cpp:399] inception_4c/output_inception_4c/output_0_split -> inception_4c/output_inception_4c/output_0_split_1
I0403 15:42:53.144628 20189 net.cpp:399] inception_4c/output_inception_4c/output_0_split -> inception_4c/output_inception_4c/output_0_split_2
I0403 15:42:53.144650 20189 net.cpp:399] inception_4c/output_inception_4c/output_0_split -> inception_4c/output_inception_4c/output_0_split_3
I0403 15:42:53.144738 20189 net.cpp:141] Setting up inception_4c/output_inception_4c/output_0_split
I0403 15:42:53.144762 20189 net.cpp:148] Top shape: 24 512 14 14 (2408448)
I0403 15:42:53.144778 20189 net.cpp:148] Top shape: 24 512 14 14 (2408448)
I0403 15:42:53.144794 20189 net.cpp:148] Top shape: 24 512 14 14 (2408448)
I0403 15:42:53.144809 20189 net.cpp:148] Top shape: 24 512 14 14 (2408448)
I0403 15:42:53.144824 20189 net.cpp:156] Memory required for data: 1111182624
I0403 15:42:53.144837 20189 layer_factory.hpp:77] Creating layer inception_4d/1x1
I0403 15:42:53.144860 20189 net.cpp:91] Creating Layer inception_4d/1x1
I0403 15:42:53.144876 20189 net.cpp:425] inception_4d/1x1 <- inception_4c/output_inception_4c/output_0_split_0
I0403 15:42:53.144897 20189 net.cpp:399] inception_4d/1x1 -> inception_4d/1x1
I0403 15:42:53.146334 20189 net.cpp:141] Setting up inception_4d/1x1
I0403 15:42:53.146373 20189 net.cpp:148] Top shape: 24 112 14 14 (526848)
I0403 15:42:53.146389 20189 net.cpp:156] Memory required for data: 1113290016
I0403 15:42:53.146409 20189 layer_factory.hpp:77] Creating layer inception_4d/relu_1x1
I0403 15:42:53.146430 20189 net.cpp:91] Creating Layer inception_4d/relu_1x1
I0403 15:42:53.146445 20189 net.cpp:425] inception_4d/relu_1x1 <- inception_4d/1x1
I0403 15:42:53.146463 20189 net.cpp:386] inception_4d/relu_1x1 -> inception_4d/1x1 (in-place)
I0403 15:42:53.146651 20189 net.cpp:141] Setting up inception_4d/relu_1x1
I0403 15:42:53.146677 20189 net.cpp:148] Top shape: 24 112 14 14 (526848)
I0403 15:42:53.146694 20189 net.cpp:156] Memory required for data: 1115397408
I0403 15:42:53.146709 20189 layer_factory.hpp:77] Creating layer inception_4d/3x3_reduce
I0403 15:42:53.146746 20189 net.cpp:91] Creating Layer inception_4d/3x3_reduce
I0403 15:42:53.146765 20189 net.cpp:425] inception_4d/3x3_reduce <- inception_4c/output_inception_4c/output_0_split_1
I0403 15:42:53.146787 20189 net.cpp:399] inception_4d/3x3_reduce -> inception_4d/3x3_reduce
I0403 15:42:53.148329 20189 net.cpp:141] Setting up inception_4d/3x3_reduce
I0403 15:42:53.148357 20189 net.cpp:148] Top shape: 24 144 14 14 (677376)
I0403 15:42:53.148375 20189 net.cpp:156] Memory required for data: 1118106912
I0403 15:42:53.148394 20189 layer_factory.hpp:77] Creating layer inception_4d/relu_3x3_reduce
I0403 15:42:53.148412 20189 net.cpp:91] Creating Layer inception_4d/relu_3x3_reduce
I0403 15:42:53.148428 20189 net.cpp:425] inception_4d/relu_3x3_reduce <- inception_4d/3x3_reduce
I0403 15:42:53.148448 20189 net.cpp:386] inception_4d/relu_3x3_reduce -> inception_4d/3x3_reduce (in-place)
I0403 15:42:53.148742 20189 net.cpp:141] Setting up inception_4d/relu_3x3_reduce
I0403 15:42:53.148771 20189 net.cpp:148] Top shape: 24 144 14 14 (677376)
I0403 15:42:53.148792 20189 net.cpp:156] Memory required for data: 1120816416
I0403 15:42:53.148807 20189 layer_factory.hpp:77] Creating layer inception_4d/3x3
I0403 15:42:53.148829 20189 net.cpp:91] Creating Layer inception_4d/3x3
I0403 15:42:53.148847 20189 net.cpp:425] inception_4d/3x3 <- inception_4d/3x3_reduce
I0403 15:42:53.148869 20189 net.cpp:399] inception_4d/3x3 -> inception_4d/3x3
I0403 15:42:53.153158 20189 net.cpp:141] Setting up inception_4d/3x3
I0403 15:42:53.153190 20189 net.cpp:148] Top shape: 24 288 14 14 (1354752)
I0403 15:42:53.153206 20189 net.cpp:156] Memory required for data: 1126235424
I0403 15:42:53.153224 20189 layer_factory.hpp:77] Creating layer inception_4d/relu_3x3
I0403 15:42:53.153246 20189 net.cpp:91] Creating Layer inception_4d/relu_3x3
I0403 15:42:53.153264 20189 net.cpp:425] inception_4d/relu_3x3 <- inception_4d/3x3
I0403 15:42:53.153282 20189 net.cpp:386] inception_4d/relu_3x3 -> inception_4d/3x3 (in-place)
I0403 15:42:53.153475 20189 net.cpp:141] Setting up inception_4d/relu_3x3
I0403 15:42:53.153501 20189 net.cpp:148] Top shape: 24 288 14 14 (1354752)
I0403 15:42:53.153519 20189 net.cpp:156] Memory required for data: 1131654432
I0403 15:42:53.153535 20189 layer_factory.hpp:77] Creating layer inception_4d/5x5_reduce
I0403 15:42:53.153555 20189 net.cpp:91] Creating Layer inception_4d/5x5_reduce
I0403 15:42:53.153571 20189 net.cpp:425] inception_4d/5x5_reduce <- inception_4c/output_inception_4c/output_0_split_2
I0403 15:42:53.153594 20189 net.cpp:399] inception_4d/5x5_reduce -> inception_4d/5x5_reduce
I0403 15:42:53.154769 20189 net.cpp:141] Setting up inception_4d/5x5_reduce
I0403 15:42:53.154799 20189 net.cpp:148] Top shape: 24 32 14 14 (150528)
I0403 15:42:53.154815 20189 net.cpp:156] Memory required for data: 1132256544
I0403 15:42:53.154835 20189 layer_factory.hpp:77] Creating layer inception_4d/relu_5x5_reduce
I0403 15:42:53.154856 20189 net.cpp:91] Creating Layer inception_4d/relu_5x5_reduce
I0403 15:42:53.154875 20189 net.cpp:425] inception_4d/relu_5x5_reduce <- inception_4d/5x5_reduce
I0403 15:42:53.154893 20189 net.cpp:386] inception_4d/relu_5x5_reduce -> inception_4d/5x5_reduce (in-place)
I0403 15:42:53.155092 20189 net.cpp:141] Setting up inception_4d/relu_5x5_reduce
I0403 15:42:53.155119 20189 net.cpp:148] Top shape: 24 32 14 14 (150528)
I0403 15:42:53.155134 20189 net.cpp:156] Memory required for data: 1132858656
I0403 15:42:53.155150 20189 layer_factory.hpp:77] Creating layer inception_4d/5x5
I0403 15:42:53.155177 20189 net.cpp:91] Creating Layer inception_4d/5x5
I0403 15:42:53.155196 20189 net.cpp:425] inception_4d/5x5 <- inception_4d/5x5_reduce
I0403 15:42:53.155218 20189 net.cpp:399] inception_4d/5x5 -> inception_4d/5x5
I0403 15:42:53.156736 20189 net.cpp:141] Setting up inception_4d/5x5
I0403 15:42:53.156765 20189 net.cpp:148] Top shape: 24 64 14 14 (301056)
I0403 15:42:53.156782 20189 net.cpp:156] Memory required for data: 1134062880
I0403 15:42:53.156801 20189 layer_factory.hpp:77] Creating layer inception_4d/relu_5x5
I0403 15:42:53.156839 20189 net.cpp:91] Creating Layer inception_4d/relu_5x5
I0403 15:42:53.156859 20189 net.cpp:425] inception_4d/relu_5x5 <- inception_4d/5x5
I0403 15:42:53.156877 20189 net.cpp:386] inception_4d/relu_5x5 -> inception_4d/5x5 (in-place)
I0403 15:42:53.157188 20189 net.cpp:141] Setting up inception_4d/relu_5x5
I0403 15:42:53.157217 20189 net.cpp:148] Top shape: 24 64 14 14 (301056)
I0403 15:42:53.157233 20189 net.cpp:156] Memory required for data: 1135267104
I0403 15:42:53.157249 20189 layer_factory.hpp:77] Creating layer inception_4d/pool
I0403 15:42:53.157271 20189 net.cpp:91] Creating Layer inception_4d/pool
I0403 15:42:53.157290 20189 net.cpp:425] inception_4d/pool <- inception_4c/output_inception_4c/output_0_split_3
I0403 15:42:53.157310 20189 net.cpp:399] inception_4d/pool -> inception_4d/pool
I0403 15:42:53.157378 20189 net.cpp:141] Setting up inception_4d/pool
I0403 15:42:53.157404 20189 net.cpp:148] Top shape: 24 512 14 14 (2408448)
I0403 15:42:53.157418 20189 net.cpp:156] Memory required for data: 1144900896
I0403 15:42:53.157433 20189 layer_factory.hpp:77] Creating layer inception_4d/pool_proj
I0403 15:42:53.157456 20189 net.cpp:91] Creating Layer inception_4d/pool_proj
I0403 15:42:53.157474 20189 net.cpp:425] inception_4d/pool_proj <- inception_4d/pool
I0403 15:42:53.157495 20189 net.cpp:399] inception_4d/pool_proj -> inception_4d/pool_proj
I0403 15:42:53.159298 20189 net.cpp:141] Setting up inception_4d/pool_proj
I0403 15:42:53.159330 20189 net.cpp:148] Top shape: 24 64 14 14 (301056)
I0403 15:42:53.159346 20189 net.cpp:156] Memory required for data: 1146105120
I0403 15:42:53.159365 20189 layer_factory.hpp:77] Creating layer inception_4d/relu_pool_proj
I0403 15:42:53.159386 20189 net.cpp:91] Creating Layer inception_4d/relu_pool_proj
I0403 15:42:53.159404 20189 net.cpp:425] inception_4d/relu_pool_proj <- inception_4d/pool_proj
I0403 15:42:53.159423 20189 net.cpp:386] inception_4d/relu_pool_proj -> inception_4d/pool_proj (in-place)
I0403 15:42:53.159616 20189 net.cpp:141] Setting up inception_4d/relu_pool_proj
I0403 15:42:53.159643 20189 net.cpp:148] Top shape: 24 64 14 14 (301056)
I0403 15:42:53.159662 20189 net.cpp:156] Memory required for data: 1147309344
I0403 15:42:53.159677 20189 layer_factory.hpp:77] Creating layer inception_4d/output
I0403 15:42:53.159695 20189 net.cpp:91] Creating Layer inception_4d/output
I0403 15:42:53.159711 20189 net.cpp:425] inception_4d/output <- inception_4d/1x1
I0403 15:42:53.159729 20189 net.cpp:425] inception_4d/output <- inception_4d/3x3
I0403 15:42:53.159744 20189 net.cpp:425] inception_4d/output <- inception_4d/5x5
I0403 15:42:53.159760 20189 net.cpp:425] inception_4d/output <- inception_4d/pool_proj
I0403 15:42:53.159777 20189 net.cpp:399] inception_4d/output -> inception_4d/output
I0403 15:42:53.159826 20189 net.cpp:141] Setting up inception_4d/output
I0403 15:42:53.159850 20189 net.cpp:148] Top shape: 24 528 14 14 (2483712)
I0403 15:42:53.159864 20189 net.cpp:156] Memory required for data: 1157244192
I0403 15:42:53.159879 20189 layer_factory.hpp:77] Creating layer inception_4d/output_inception_4d/output_0_split
I0403 15:42:53.159898 20189 net.cpp:91] Creating Layer inception_4d/output_inception_4d/output_0_split
I0403 15:42:53.159916 20189 net.cpp:425] inception_4d/output_inception_4d/output_0_split <- inception_4d/output
I0403 15:42:53.159934 20189 net.cpp:399] inception_4d/output_inception_4d/output_0_split -> inception_4d/output_inception_4d/output_0_split_0
I0403 15:42:53.159955 20189 net.cpp:399] inception_4d/output_inception_4d/output_0_split -> inception_4d/output_inception_4d/output_0_split_1
I0403 15:42:53.159976 20189 net.cpp:399] inception_4d/output_inception_4d/output_0_split -> inception_4d/output_inception_4d/output_0_split_2
I0403 15:42:53.160001 20189 net.cpp:399] inception_4d/output_inception_4d/output_0_split -> inception_4d/output_inception_4d/output_0_split_3
I0403 15:42:53.160022 20189 net.cpp:399] inception_4d/output_inception_4d/output_0_split -> inception_4d/output_inception_4d/output_0_split_4
I0403 15:42:53.160130 20189 net.cpp:141] Setting up inception_4d/output_inception_4d/output_0_split
I0403 15:42:53.160166 20189 net.cpp:148] Top shape: 24 528 14 14 (2483712)
I0403 15:42:53.160184 20189 net.cpp:148] Top shape: 24 528 14 14 (2483712)
I0403 15:42:53.160200 20189 net.cpp:148] Top shape: 24 528 14 14 (2483712)
I0403 15:42:53.160217 20189 net.cpp:148] Top shape: 24 528 14 14 (2483712)
I0403 15:42:53.160233 20189 net.cpp:148] Top shape: 24 528 14 14 (2483712)
I0403 15:42:53.160245 20189 net.cpp:156] Memory required for data: 1206918432
I0403 15:42:53.160259 20189 layer_factory.hpp:77] Creating layer loss2/ave_pool
I0403 15:42:53.160277 20189 net.cpp:91] Creating Layer loss2/ave_pool
I0403 15:42:53.160293 20189 net.cpp:425] loss2/ave_pool <- inception_4d/output_inception_4d/output_0_split_0
I0403 15:42:53.160315 20189 net.cpp:399] loss2/ave_pool -> loss2/ave_pool
I0403 15:42:53.160637 20189 net.cpp:141] Setting up loss2/ave_pool
I0403 15:42:53.160663 20189 net.cpp:148] Top shape: 24 528 4 4 (202752)
I0403 15:42:53.160678 20189 net.cpp:156] Memory required for data: 1207729440
I0403 15:42:53.160692 20189 layer_factory.hpp:77] Creating layer loss2/conv
I0403 15:42:53.160714 20189 net.cpp:91] Creating Layer loss2/conv
I0403 15:42:53.160732 20189 net.cpp:425] loss2/conv <- loss2/ave_pool
I0403 15:42:53.160754 20189 net.cpp:399] loss2/conv -> loss2/conv
I0403 15:42:53.162683 20189 net.cpp:141] Setting up loss2/conv
I0403 15:42:53.162715 20189 net.cpp:148] Top shape: 24 128 4 4 (49152)
I0403 15:42:53.162734 20189 net.cpp:156] Memory required for data: 1207926048
I0403 15:42:53.162753 20189 layer_factory.hpp:77] Creating layer loss2/relu_conv
I0403 15:42:53.162772 20189 net.cpp:91] Creating Layer loss2/relu_conv
I0403 15:42:53.162788 20189 net.cpp:425] loss2/relu_conv <- loss2/conv
I0403 15:42:53.162807 20189 net.cpp:386] loss2/relu_conv -> loss2/conv (in-place)
I0403 15:42:53.163108 20189 net.cpp:141] Setting up loss2/relu_conv
I0403 15:42:53.163136 20189 net.cpp:148] Top shape: 24 128 4 4 (49152)
I0403 15:42:53.163151 20189 net.cpp:156] Memory required for data: 1208122656
I0403 15:42:53.163166 20189 layer_factory.hpp:77] Creating layer loss2/fc
I0403 15:42:53.163185 20189 net.cpp:91] Creating Layer loss2/fc
I0403 15:42:53.163200 20189 net.cpp:425] loss2/fc <- loss2/conv
I0403 15:42:53.163223 20189 net.cpp:399] loss2/fc -> loss2/fc
I0403 15:42:53.180476 20189 net.cpp:141] Setting up loss2/fc
I0403 15:42:53.180512 20189 net.cpp:148] Top shape: 24 1024 (24576)
I0403 15:42:53.180529 20189 net.cpp:156] Memory required for data: 1208220960
I0403 15:42:53.180547 20189 layer_factory.hpp:77] Creating layer loss2/relu_fc
I0403 15:42:53.180568 20189 net.cpp:91] Creating Layer loss2/relu_fc
I0403 15:42:53.180586 20189 net.cpp:425] loss2/relu_fc <- loss2/fc
I0403 15:42:53.180606 20189 net.cpp:386] loss2/relu_fc -> loss2/fc (in-place)
I0403 15:42:53.180902 20189 net.cpp:141] Setting up loss2/relu_fc
I0403 15:42:53.180927 20189 net.cpp:148] Top shape: 24 1024 (24576)
I0403 15:42:53.180943 20189 net.cpp:156] Memory required for data: 1208319264
I0403 15:42:53.180958 20189 layer_factory.hpp:77] Creating layer loss2/drop_fc
I0403 15:42:53.180979 20189 net.cpp:91] Creating Layer loss2/drop_fc
I0403 15:42:53.180999 20189 net.cpp:425] loss2/drop_fc <- loss2/fc
I0403 15:42:53.181017 20189 net.cpp:386] loss2/drop_fc -> loss2/fc (in-place)
I0403 15:42:53.181068 20189 net.cpp:141] Setting up loss2/drop_fc
I0403 15:42:53.181092 20189 net.cpp:148] Top shape: 24 1024 (24576)
I0403 15:42:53.181105 20189 net.cpp:156] Memory required for data: 1208417568
I0403 15:42:53.181119 20189 layer_factory.hpp:77] Creating layer loss2/classifier_plantvillage
I0403 15:42:53.181136 20189 net.cpp:91] Creating Layer loss2/classifier_plantvillage
I0403 15:42:53.181152 20189 net.cpp:425] loss2/classifier_plantvillage <- loss2/fc
I0403 15:42:53.181171 20189 net.cpp:399] loss2/classifier_plantvillage -> loss2/classifier_plantvillage
I0403 15:42:53.181570 20189 net.cpp:141] Setting up loss2/classifier_plantvillage
I0403 15:42:53.181593 20189 net.cpp:148] Top shape: 24 38 (912)
I0403 15:42:53.181625 20189 net.cpp:156] Memory required for data: 1208421216
I0403 15:42:53.181643 20189 layer_factory.hpp:77] Creating layer loss2/classifier_plantvillage_loss2/classifier_plantvillage_0_split
I0403 15:42:53.181670 20189 net.cpp:91] Creating Layer loss2/classifier_plantvillage_loss2/classifier_plantvillage_0_split
I0403 15:42:53.181686 20189 net.cpp:425] loss2/classifier_plantvillage_loss2/classifier_plantvillage_0_split <- loss2/classifier_plantvillage
I0403 15:42:53.181704 20189 net.cpp:399] loss2/classifier_plantvillage_loss2/classifier_plantvillage_0_split -> loss2/classifier_plantvillage_loss2/classifier_plantvillage_0_split_0
I0403 15:42:53.181725 20189 net.cpp:399] loss2/classifier_plantvillage_loss2/classifier_plantvillage_0_split -> loss2/classifier_plantvillage_loss2/classifier_plantvillage_0_split_1
I0403 15:42:53.181746 20189 net.cpp:399] loss2/classifier_plantvillage_loss2/classifier_plantvillage_0_split -> loss2/classifier_plantvillage_loss2/classifier_plantvillage_0_split_2
I0403 15:42:53.181821 20189 net.cpp:141] Setting up loss2/classifier_plantvillage_loss2/classifier_plantvillage_0_split
I0403 15:42:53.181844 20189 net.cpp:148] Top shape: 24 38 (912)
I0403 15:42:53.181862 20189 net.cpp:148] Top shape: 24 38 (912)
I0403 15:42:53.181877 20189 net.cpp:148] Top shape: 24 38 (912)
I0403 15:42:53.181890 20189 net.cpp:156] Memory required for data: 1208432160
I0403 15:42:53.181905 20189 layer_factory.hpp:77] Creating layer inception_4e/1x1
I0403 15:42:53.181924 20189 net.cpp:91] Creating Layer inception_4e/1x1
I0403 15:42:53.181941 20189 net.cpp:425] inception_4e/1x1 <- inception_4d/output_inception_4d/output_0_split_1
I0403 15:42:53.181960 20189 net.cpp:399] inception_4e/1x1 -> inception_4e/1x1
I0403 15:42:53.183755 20189 net.cpp:141] Setting up inception_4e/1x1
I0403 15:42:53.183787 20189 net.cpp:148] Top shape: 24 256 14 14 (1204224)
I0403 15:42:53.183805 20189 net.cpp:156] Memory required for data: 1213249056
I0403 15:42:53.183825 20189 layer_factory.hpp:77] Creating layer inception_4e/relu_1x1
I0403 15:42:53.183843 20189 net.cpp:91] Creating Layer inception_4e/relu_1x1
I0403 15:42:53.183858 20189 net.cpp:425] inception_4e/relu_1x1 <- inception_4e/1x1
I0403 15:42:53.183877 20189 net.cpp:386] inception_4e/relu_1x1 -> inception_4e/1x1 (in-place)
I0403 15:42:53.184176 20189 net.cpp:141] Setting up inception_4e/relu_1x1
I0403 15:42:53.184204 20189 net.cpp:148] Top shape: 24 256 14 14 (1204224)
I0403 15:42:53.184221 20189 net.cpp:156] Memory required for data: 1218065952
I0403 15:42:53.184236 20189 layer_factory.hpp:77] Creating layer inception_4e/3x3_reduce
I0403 15:42:53.184258 20189 net.cpp:91] Creating Layer inception_4e/3x3_reduce
I0403 15:42:53.184276 20189 net.cpp:425] inception_4e/3x3_reduce <- inception_4d/output_inception_4d/output_0_split_2
I0403 15:42:53.184294 20189 net.cpp:399] inception_4e/3x3_reduce -> inception_4e/3x3_reduce
I0403 15:42:53.186444 20189 net.cpp:141] Setting up inception_4e/3x3_reduce
I0403 15:42:53.186473 20189 net.cpp:148] Top shape: 24 160 14 14 (752640)
I0403 15:42:53.186496 20189 net.cpp:156] Memory required for data: 1221076512
I0403 15:42:53.186516 20189 layer_factory.hpp:77] Creating layer inception_4e/relu_3x3_reduce
I0403 15:42:53.186532 20189 net.cpp:91] Creating Layer inception_4e/relu_3x3_reduce
I0403 15:42:53.186548 20189 net.cpp:425] inception_4e/relu_3x3_reduce <- inception_4e/3x3_reduce
I0403 15:42:53.186565 20189 net.cpp:386] inception_4e/relu_3x3_reduce -> inception_4e/3x3_reduce (in-place)
I0403 15:42:53.186753 20189 net.cpp:141] Setting up inception_4e/relu_3x3_reduce
I0403 15:42:53.186779 20189 net.cpp:148] Top shape: 24 160 14 14 (752640)
I0403 15:42:53.186794 20189 net.cpp:156] Memory required for data: 1224087072
I0403 15:42:53.186810 20189 layer_factory.hpp:77] Creating layer inception_4e/3x3
I0403 15:42:53.186832 20189 net.cpp:91] Creating Layer inception_4e/3x3
I0403 15:42:53.186849 20189 net.cpp:425] inception_4e/3x3 <- inception_4e/3x3_reduce
I0403 15:42:53.186868 20189 net.cpp:399] inception_4e/3x3 -> inception_4e/3x3
I0403 15:42:53.193156 20189 net.cpp:141] Setting up inception_4e/3x3
I0403 15:42:53.193204 20189 net.cpp:148] Top shape: 24 320 14 14 (1505280)
I0403 15:42:53.193223 20189 net.cpp:156] Memory required for data: 1230108192
I0403 15:42:53.193244 20189 layer_factory.hpp:77] Creating layer inception_4e/relu_3x3
I0403 15:42:53.193262 20189 net.cpp:91] Creating Layer inception_4e/relu_3x3
I0403 15:42:53.193277 20189 net.cpp:425] inception_4e/relu_3x3 <- inception_4e/3x3
I0403 15:42:53.193297 20189 net.cpp:386] inception_4e/relu_3x3 -> inception_4e/3x3 (in-place)
I0403 15:42:53.193595 20189 net.cpp:141] Setting up inception_4e/relu_3x3
I0403 15:42:53.193621 20189 net.cpp:148] Top shape: 24 320 14 14 (1505280)
I0403 15:42:53.193635 20189 net.cpp:156] Memory required for data: 1236129312
I0403 15:42:53.193650 20189 layer_factory.hpp:77] Creating layer inception_4e/5x5_reduce
I0403 15:42:53.193672 20189 net.cpp:91] Creating Layer inception_4e/5x5_reduce
I0403 15:42:53.193689 20189 net.cpp:425] inception_4e/5x5_reduce <- inception_4d/output_inception_4d/output_0_split_3
I0403 15:42:53.193709 20189 net.cpp:399] inception_4e/5x5_reduce -> inception_4e/5x5_reduce
I0403 15:42:53.194807 20189 net.cpp:141] Setting up inception_4e/5x5_reduce
I0403 15:42:53.194833 20189 net.cpp:148] Top shape: 24 32 14 14 (150528)
I0403 15:42:53.194847 20189 net.cpp:156] Memory required for data: 1236731424
I0403 15:42:53.194864 20189 layer_factory.hpp:77] Creating layer inception_4e/relu_5x5_reduce
I0403 15:42:53.194883 20189 net.cpp:91] Creating Layer inception_4e/relu_5x5_reduce
I0403 15:42:53.194900 20189 net.cpp:425] inception_4e/relu_5x5_reduce <- inception_4e/5x5_reduce
I0403 15:42:53.194917 20189 net.cpp:386] inception_4e/relu_5x5_reduce -> inception_4e/5x5_reduce (in-place)
I0403 15:42:53.195221 20189 net.cpp:141] Setting up inception_4e/relu_5x5_reduce
I0403 15:42:53.195248 20189 net.cpp:148] Top shape: 24 32 14 14 (150528)
I0403 15:42:53.195262 20189 net.cpp:156] Memory required for data: 1237333536
I0403 15:42:53.195277 20189 layer_factory.hpp:77] Creating layer inception_4e/5x5
I0403 15:42:53.195314 20189 net.cpp:91] Creating Layer inception_4e/5x5
I0403 15:42:53.195333 20189 net.cpp:425] inception_4e/5x5 <- inception_4e/5x5_reduce
I0403 15:42:53.195353 20189 net.cpp:399] inception_4e/5x5 -> inception_4e/5x5
I0403 15:42:53.197173 20189 net.cpp:141] Setting up inception_4e/5x5
I0403 15:42:53.197201 20189 net.cpp:148] Top shape: 24 128 14 14 (602112)
I0403 15:42:53.197216 20189 net.cpp:156] Memory required for data: 1239741984
I0403 15:42:53.197235 20189 layer_factory.hpp:77] Creating layer inception_4e/relu_5x5
I0403 15:42:53.197258 20189 net.cpp:91] Creating Layer inception_4e/relu_5x5
I0403 15:42:53.197276 20189 net.cpp:425] inception_4e/relu_5x5 <- inception_4e/5x5
I0403 15:42:53.197295 20189 net.cpp:386] inception_4e/relu_5x5 -> inception_4e/5x5 (in-place)
I0403 15:42:53.197490 20189 net.cpp:141] Setting up inception_4e/relu_5x5
I0403 15:42:53.197518 20189 net.cpp:148] Top shape: 24 128 14 14 (602112)
I0403 15:42:53.197535 20189 net.cpp:156] Memory required for data: 1242150432
I0403 15:42:53.197549 20189 layer_factory.hpp:77] Creating layer inception_4e/pool
I0403 15:42:53.197567 20189 net.cpp:91] Creating Layer inception_4e/pool
I0403 15:42:53.197582 20189 net.cpp:425] inception_4e/pool <- inception_4d/output_inception_4d/output_0_split_4
I0403 15:42:53.197599 20189 net.cpp:399] inception_4e/pool -> inception_4e/pool
I0403 15:42:53.197669 20189 net.cpp:141] Setting up inception_4e/pool
I0403 15:42:53.197692 20189 net.cpp:148] Top shape: 24 528 14 14 (2483712)
I0403 15:42:53.197706 20189 net.cpp:156] Memory required for data: 1252085280
I0403 15:42:53.197721 20189 layer_factory.hpp:77] Creating layer inception_4e/pool_proj
I0403 15:42:53.197741 20189 net.cpp:91] Creating Layer inception_4e/pool_proj
I0403 15:42:53.197758 20189 net.cpp:425] inception_4e/pool_proj <- inception_4e/pool
I0403 15:42:53.197778 20189 net.cpp:399] inception_4e/pool_proj -> inception_4e/pool_proj
I0403 15:42:53.199272 20189 net.cpp:141] Setting up inception_4e/pool_proj
I0403 15:42:53.199312 20189 net.cpp:148] Top shape: 24 128 14 14 (602112)
I0403 15:42:53.199329 20189 net.cpp:156] Memory required for data: 1254493728
I0403 15:42:53.199349 20189 layer_factory.hpp:77] Creating layer inception_4e/relu_pool_proj
I0403 15:42:53.199369 20189 net.cpp:91] Creating Layer inception_4e/relu_pool_proj
I0403 15:42:53.199386 20189 net.cpp:425] inception_4e/relu_pool_proj <- inception_4e/pool_proj
I0403 15:42:53.199404 20189 net.cpp:386] inception_4e/relu_pool_proj -> inception_4e/pool_proj (in-place)
I0403 15:42:53.199694 20189 net.cpp:141] Setting up inception_4e/relu_pool_proj
I0403 15:42:53.199722 20189 net.cpp:148] Top shape: 24 128 14 14 (602112)
I0403 15:42:53.199736 20189 net.cpp:156] Memory required for data: 1256902176
I0403 15:42:53.199751 20189 layer_factory.hpp:77] Creating layer inception_4e/output
I0403 15:42:53.199769 20189 net.cpp:91] Creating Layer inception_4e/output
I0403 15:42:53.199784 20189 net.cpp:425] inception_4e/output <- inception_4e/1x1
I0403 15:42:53.199800 20189 net.cpp:425] inception_4e/output <- inception_4e/3x3
I0403 15:42:53.199815 20189 net.cpp:425] inception_4e/output <- inception_4e/5x5
I0403 15:42:53.199831 20189 net.cpp:425] inception_4e/output <- inception_4e/pool_proj
I0403 15:42:53.199851 20189 net.cpp:399] inception_4e/output -> inception_4e/output
I0403 15:42:53.199901 20189 net.cpp:141] Setting up inception_4e/output
I0403 15:42:53.199924 20189 net.cpp:148] Top shape: 24 832 14 14 (3913728)
I0403 15:42:53.199939 20189 net.cpp:156] Memory required for data: 1272557088
I0403 15:42:53.199952 20189 layer_factory.hpp:77] Creating layer pool4/3x3_s2
I0403 15:42:53.199970 20189 net.cpp:91] Creating Layer pool4/3x3_s2
I0403 15:42:53.199985 20189 net.cpp:425] pool4/3x3_s2 <- inception_4e/output
I0403 15:42:53.200009 20189 net.cpp:399] pool4/3x3_s2 -> pool4/3x3_s2
I0403 15:42:53.200078 20189 net.cpp:141] Setting up pool4/3x3_s2
I0403 15:42:53.200101 20189 net.cpp:148] Top shape: 24 832 7 7 (978432)
I0403 15:42:53.200114 20189 net.cpp:156] Memory required for data: 1276470816
I0403 15:42:53.200129 20189 layer_factory.hpp:77] Creating layer pool4/3x3_s2_pool4/3x3_s2_0_split
I0403 15:42:53.200148 20189 net.cpp:91] Creating Layer pool4/3x3_s2_pool4/3x3_s2_0_split
I0403 15:42:53.200163 20189 net.cpp:425] pool4/3x3_s2_pool4/3x3_s2_0_split <- pool4/3x3_s2
I0403 15:42:53.200181 20189 net.cpp:399] pool4/3x3_s2_pool4/3x3_s2_0_split -> pool4/3x3_s2_pool4/3x3_s2_0_split_0
I0403 15:42:53.200199 20189 net.cpp:399] pool4/3x3_s2_pool4/3x3_s2_0_split -> pool4/3x3_s2_pool4/3x3_s2_0_split_1
I0403 15:42:53.200222 20189 net.cpp:399] pool4/3x3_s2_pool4/3x3_s2_0_split -> pool4/3x3_s2_pool4/3x3_s2_0_split_2
I0403 15:42:53.200242 20189 net.cpp:399] pool4/3x3_s2_pool4/3x3_s2_0_split -> pool4/3x3_s2_pool4/3x3_s2_0_split_3
I0403 15:42:53.200333 20189 net.cpp:141] Setting up pool4/3x3_s2_pool4/3x3_s2_0_split
I0403 15:42:53.200356 20189 net.cpp:148] Top shape: 24 832 7 7 (978432)
I0403 15:42:53.200371 20189 net.cpp:148] Top shape: 24 832 7 7 (978432)
I0403 15:42:53.200387 20189 net.cpp:148] Top shape: 24 832 7 7 (978432)
I0403 15:42:53.200402 20189 net.cpp:148] Top shape: 24 832 7 7 (978432)
I0403 15:42:53.200414 20189 net.cpp:156] Memory required for data: 1292125728
I0403 15:42:53.200430 20189 layer_factory.hpp:77] Creating layer inception_5a/1x1
I0403 15:42:53.200451 20189 net.cpp:91] Creating Layer inception_5a/1x1
I0403 15:42:53.200469 20189 net.cpp:425] inception_5a/1x1 <- pool4/3x3_s2_pool4/3x3_s2_0_split_0
I0403 15:42:53.200489 20189 net.cpp:399] inception_5a/1x1 -> inception_5a/1x1
I0403 15:42:53.203311 20189 net.cpp:141] Setting up inception_5a/1x1
I0403 15:42:53.203341 20189 net.cpp:148] Top shape: 24 256 7 7 (301056)
I0403 15:42:53.203357 20189 net.cpp:156] Memory required for data: 1293329952
I0403 15:42:53.203377 20189 layer_factory.hpp:77] Creating layer inception_5a/relu_1x1
I0403 15:42:53.203397 20189 net.cpp:91] Creating Layer inception_5a/relu_1x1
I0403 15:42:53.203413 20189 net.cpp:425] inception_5a/relu_1x1 <- inception_5a/1x1
I0403 15:42:53.203430 20189 net.cpp:386] inception_5a/relu_1x1 -> inception_5a/1x1 (in-place)
I0403 15:42:53.203742 20189 net.cpp:141] Setting up inception_5a/relu_1x1
I0403 15:42:53.203768 20189 net.cpp:148] Top shape: 24 256 7 7 (301056)
I0403 15:42:53.203783 20189 net.cpp:156] Memory required for data: 1294534176
I0403 15:42:53.203799 20189 layer_factory.hpp:77] Creating layer inception_5a/3x3_reduce
I0403 15:42:53.203820 20189 net.cpp:91] Creating Layer inception_5a/3x3_reduce
I0403 15:42:53.203838 20189 net.cpp:425] inception_5a/3x3_reduce <- pool4/3x3_s2_pool4/3x3_s2_0_split_1
I0403 15:42:53.203860 20189 net.cpp:399] inception_5a/3x3_reduce -> inception_5a/3x3_reduce
I0403 15:42:53.206285 20189 net.cpp:141] Setting up inception_5a/3x3_reduce
I0403 15:42:53.206315 20189 net.cpp:148] Top shape: 24 160 7 7 (188160)
I0403 15:42:53.206332 20189 net.cpp:156] Memory required for data: 1295286816
I0403 15:42:53.206352 20189 layer_factory.hpp:77] Creating layer inception_5a/relu_3x3_reduce
I0403 15:42:53.206370 20189 net.cpp:91] Creating Layer inception_5a/relu_3x3_reduce
I0403 15:42:53.206387 20189 net.cpp:425] inception_5a/relu_3x3_reduce <- inception_5a/3x3_reduce
I0403 15:42:53.206405 20189 net.cpp:386] inception_5a/relu_3x3_reduce -> inception_5a/3x3_reduce (in-place)
I0403 15:42:53.206596 20189 net.cpp:141] Setting up inception_5a/relu_3x3_reduce
I0403 15:42:53.206622 20189 net.cpp:148] Top shape: 24 160 7 7 (188160)
I0403 15:42:53.206636 20189 net.cpp:156] Memory required for data: 1296039456
I0403 15:42:53.206650 20189 layer_factory.hpp:77] Creating layer inception_5a/3x3
I0403 15:42:53.206671 20189 net.cpp:91] Creating Layer inception_5a/3x3
I0403 15:42:53.206689 20189 net.cpp:425] inception_5a/3x3 <- inception_5a/3x3_reduce
I0403 15:42:53.206710 20189 net.cpp:399] inception_5a/3x3 -> inception_5a/3x3
I0403 15:42:53.211777 20189 net.cpp:141] Setting up inception_5a/3x3
I0403 15:42:53.211809 20189 net.cpp:148] Top shape: 24 320 7 7 (376320)
I0403 15:42:53.211827 20189 net.cpp:156] Memory required for data: 1297544736
I0403 15:42:53.211846 20189 layer_factory.hpp:77] Creating layer inception_5a/relu_3x3
I0403 15:42:53.211866 20189 net.cpp:91] Creating Layer inception_5a/relu_3x3
I0403 15:42:53.211884 20189 net.cpp:425] inception_5a/relu_3x3 <- inception_5a/3x3
I0403 15:42:53.211904 20189 net.cpp:386] inception_5a/relu_3x3 -> inception_5a/3x3 (in-place)
I0403 15:42:53.212211 20189 net.cpp:141] Setting up inception_5a/relu_3x3
I0403 15:42:53.212239 20189 net.cpp:148] Top shape: 24 320 7 7 (376320)
I0403 15:42:53.212255 20189 net.cpp:156] Memory required for data: 1299050016
I0403 15:42:53.212270 20189 layer_factory.hpp:77] Creating layer inception_5a/5x5_reduce
I0403 15:42:53.212292 20189 net.cpp:91] Creating Layer inception_5a/5x5_reduce
I0403 15:42:53.212311 20189 net.cpp:425] inception_5a/5x5_reduce <- pool4/3x3_s2_pool4/3x3_s2_0_split_2
I0403 15:42:53.212337 20189 net.cpp:399] inception_5a/5x5_reduce -> inception_5a/5x5_reduce
I0403 15:42:53.213543 20189 net.cpp:141] Setting up inception_5a/5x5_reduce
I0403 15:42:53.213577 20189 net.cpp:148] Top shape: 24 32 7 7 (37632)
I0403 15:42:53.213593 20189 net.cpp:156] Memory required for data: 1299200544
I0403 15:42:53.213613 20189 layer_factory.hpp:77] Creating layer inception_5a/relu_5x5_reduce
I0403 15:42:53.213632 20189 net.cpp:91] Creating Layer inception_5a/relu_5x5_reduce
I0403 15:42:53.213649 20189 net.cpp:425] inception_5a/relu_5x5_reduce <- inception_5a/5x5_reduce
I0403 15:42:53.213666 20189 net.cpp:386] inception_5a/relu_5x5_reduce -> inception_5a/5x5_reduce (in-place)
I0403 15:42:53.213994 20189 net.cpp:141] Setting up inception_5a/relu_5x5_reduce
I0403 15:42:53.214025 20189 net.cpp:148] Top shape: 24 32 7 7 (37632)
I0403 15:42:53.214042 20189 net.cpp:156] Memory required for data: 1299351072
I0403 15:42:53.214058 20189 layer_factory.hpp:77] Creating layer inception_5a/5x5
I0403 15:42:53.214082 20189 net.cpp:91] Creating Layer inception_5a/5x5
I0403 15:42:53.214102 20189 net.cpp:425] inception_5a/5x5 <- inception_5a/5x5_reduce
I0403 15:42:53.214123 20189 net.cpp:399] inception_5a/5x5 -> inception_5a/5x5
I0403 15:42:53.215900 20189 net.cpp:141] Setting up inception_5a/5x5
I0403 15:42:53.215940 20189 net.cpp:148] Top shape: 24 128 7 7 (150528)
I0403 15:42:53.215956 20189 net.cpp:156] Memory required for data: 1299953184
I0403 15:42:53.215975 20189 layer_factory.hpp:77] Creating layer inception_5a/relu_5x5
I0403 15:42:53.216001 20189 net.cpp:91] Creating Layer inception_5a/relu_5x5
I0403 15:42:53.216019 20189 net.cpp:425] inception_5a/relu_5x5 <- inception_5a/5x5
I0403 15:42:53.216037 20189 net.cpp:386] inception_5a/relu_5x5 -> inception_5a/5x5 (in-place)
I0403 15:42:53.216235 20189 net.cpp:141] Setting up inception_5a/relu_5x5
I0403 15:42:53.216264 20189 net.cpp:148] Top shape: 24 128 7 7 (150528)
I0403 15:42:53.216279 20189 net.cpp:156] Memory required for data: 1300555296
I0403 15:42:53.216294 20189 layer_factory.hpp:77] Creating layer inception_5a/pool
I0403 15:42:53.216311 20189 net.cpp:91] Creating Layer inception_5a/pool
I0403 15:42:53.216327 20189 net.cpp:425] inception_5a/pool <- pool4/3x3_s2_pool4/3x3_s2_0_split_3
I0403 15:42:53.216346 20189 net.cpp:399] inception_5a/pool -> inception_5a/pool
I0403 15:42:53.216419 20189 net.cpp:141] Setting up inception_5a/pool
I0403 15:42:53.216444 20189 net.cpp:148] Top shape: 24 832 7 7 (978432)
I0403 15:42:53.216459 20189 net.cpp:156] Memory required for data: 1304469024
I0403 15:42:53.216472 20189 layer_factory.hpp:77] Creating layer inception_5a/pool_proj
I0403 15:42:53.216495 20189 net.cpp:91] Creating Layer inception_5a/pool_proj
I0403 15:42:53.216512 20189 net.cpp:425] inception_5a/pool_proj <- inception_5a/pool
I0403 15:42:53.216533 20189 net.cpp:399] inception_5a/pool_proj -> inception_5a/pool_proj
I0403 15:42:53.218881 20189 net.cpp:141] Setting up inception_5a/pool_proj
I0403 15:42:53.218912 20189 net.cpp:148] Top shape: 24 128 7 7 (150528)
I0403 15:42:53.218930 20189 net.cpp:156] Memory required for data: 1305071136
I0403 15:42:53.218948 20189 layer_factory.hpp:77] Creating layer inception_5a/relu_pool_proj
I0403 15:42:53.218969 20189 net.cpp:91] Creating Layer inception_5a/relu_pool_proj
I0403 15:42:53.218998 20189 net.cpp:425] inception_5a/relu_pool_proj <- inception_5a/pool_proj
I0403 15:42:53.219022 20189 net.cpp:386] inception_5a/relu_pool_proj -> inception_5a/pool_proj (in-place)
I0403 15:42:53.219336 20189 net.cpp:141] Setting up inception_5a/relu_pool_proj
I0403 15:42:53.219363 20189 net.cpp:148] Top shape: 24 128 7 7 (150528)
I0403 15:42:53.219379 20189 net.cpp:156] Memory required for data: 1305673248
I0403 15:42:53.219395 20189 layer_factory.hpp:77] Creating layer inception_5a/output
I0403 15:42:53.219413 20189 net.cpp:91] Creating Layer inception_5a/output
I0403 15:42:53.219434 20189 net.cpp:425] inception_5a/output <- inception_5a/1x1
I0403 15:42:53.219454 20189 net.cpp:425] inception_5a/output <- inception_5a/3x3
I0403 15:42:53.219470 20189 net.cpp:425] inception_5a/output <- inception_5a/5x5
I0403 15:42:53.219486 20189 net.cpp:425] inception_5a/output <- inception_5a/pool_proj
I0403 15:42:53.219503 20189 net.cpp:399] inception_5a/output -> inception_5a/output
I0403 15:42:53.219554 20189 net.cpp:141] Setting up inception_5a/output
I0403 15:42:53.219580 20189 net.cpp:148] Top shape: 24 832 7 7 (978432)
I0403 15:42:53.219596 20189 net.cpp:156] Memory required for data: 1309586976
I0403 15:42:53.219611 20189 layer_factory.hpp:77] Creating layer inception_5a/output_inception_5a/output_0_split
I0403 15:42:53.219630 20189 net.cpp:91] Creating Layer inception_5a/output_inception_5a/output_0_split
I0403 15:42:53.219645 20189 net.cpp:425] inception_5a/output_inception_5a/output_0_split <- inception_5a/output
I0403 15:42:53.219665 20189 net.cpp:399] inception_5a/output_inception_5a/output_0_split -> inception_5a/output_inception_5a/output_0_split_0
I0403 15:42:53.219686 20189 net.cpp:399] inception_5a/output_inception_5a/output_0_split -> inception_5a/output_inception_5a/output_0_split_1
I0403 15:42:53.219705 20189 net.cpp:399] inception_5a/output_inception_5a/output_0_split -> inception_5a/output_inception_5a/output_0_split_2
I0403 15:42:53.219738 20189 net.cpp:399] inception_5a/output_inception_5a/output_0_split -> inception_5a/output_inception_5a/output_0_split_3
I0403 15:42:53.219856 20189 net.cpp:141] Setting up inception_5a/output_inception_5a/output_0_split
I0403 15:42:53.219884 20189 net.cpp:148] Top shape: 24 832 7 7 (978432)
I0403 15:42:53.219902 20189 net.cpp:148] Top shape: 24 832 7 7 (978432)
I0403 15:42:53.219918 20189 net.cpp:148] Top shape: 24 832 7 7 (978432)
I0403 15:42:53.219934 20189 net.cpp:148] Top shape: 24 832 7 7 (978432)
I0403 15:42:53.219949 20189 net.cpp:156] Memory required for data: 1325241888
I0403 15:42:53.219964 20189 layer_factory.hpp:77] Creating layer inception_5b/1x1
I0403 15:42:53.219990 20189 net.cpp:91] Creating Layer inception_5b/1x1
I0403 15:42:53.220010 20189 net.cpp:425] inception_5b/1x1 <- inception_5a/output_inception_5a/output_0_split_0
I0403 15:42:53.220052 20189 net.cpp:399] inception_5b/1x1 -> inception_5b/1x1
I0403 15:42:53.223865 20189 net.cpp:141] Setting up inception_5b/1x1
I0403 15:42:53.223896 20189 net.cpp:148] Top shape: 24 384 7 7 (451584)
I0403 15:42:53.223913 20189 net.cpp:156] Memory required for data: 1327048224
I0403 15:42:53.223932 20189 layer_factory.hpp:77] Creating layer inception_5b/relu_1x1
I0403 15:42:53.223950 20189 net.cpp:91] Creating Layer inception_5b/relu_1x1
I0403 15:42:53.223968 20189 net.cpp:425] inception_5b/relu_1x1 <- inception_5b/1x1
I0403 15:42:53.223992 20189 net.cpp:386] inception_5b/relu_1x1 -> inception_5b/1x1 (in-place)
I0403 15:42:53.224310 20189 net.cpp:141] Setting up inception_5b/relu_1x1
I0403 15:42:53.224337 20189 net.cpp:148] Top shape: 24 384 7 7 (451584)
I0403 15:42:53.224354 20189 net.cpp:156] Memory required for data: 1328854560
I0403 15:42:53.224369 20189 layer_factory.hpp:77] Creating layer inception_5b/3x3_reduce
I0403 15:42:53.224391 20189 net.cpp:91] Creating Layer inception_5b/3x3_reduce
I0403 15:42:53.224411 20189 net.cpp:425] inception_5b/3x3_reduce <- inception_5a/output_inception_5a/output_0_split_1
I0403 15:42:53.224434 20189 net.cpp:399] inception_5b/3x3_reduce -> inception_5b/3x3_reduce
I0403 15:42:53.227135 20189 net.cpp:141] Setting up inception_5b/3x3_reduce
I0403 15:42:53.227166 20189 net.cpp:148] Top shape: 24 192 7 7 (225792)
I0403 15:42:53.227183 20189 net.cpp:156] Memory required for data: 1329757728
I0403 15:42:53.227202 20189 layer_factory.hpp:77] Creating layer inception_5b/relu_3x3_reduce
I0403 15:42:53.227222 20189 net.cpp:91] Creating Layer inception_5b/relu_3x3_reduce
I0403 15:42:53.227241 20189 net.cpp:425] inception_5b/relu_3x3_reduce <- inception_5b/3x3_reduce
I0403 15:42:53.227259 20189 net.cpp:386] inception_5b/relu_3x3_reduce -> inception_5b/3x3_reduce (in-place)
I0403 15:42:53.227457 20189 net.cpp:141] Setting up inception_5b/relu_3x3_reduce
I0403 15:42:53.227483 20189 net.cpp:148] Top shape: 24 192 7 7 (225792)
I0403 15:42:53.227496 20189 net.cpp:156] Memory required for data: 1330660896
I0403 15:42:53.227511 20189 layer_factory.hpp:77] Creating layer inception_5b/3x3
I0403 15:42:53.227536 20189 net.cpp:91] Creating Layer inception_5b/3x3
I0403 15:42:53.227555 20189 net.cpp:425] inception_5b/3x3 <- inception_5b/3x3_reduce
I0403 15:42:53.227573 20189 net.cpp:399] inception_5b/3x3 -> inception_5b/3x3
I0403 15:42:53.234336 20189 net.cpp:141] Setting up inception_5b/3x3
I0403 15:42:53.234367 20189 net.cpp:148] Top shape: 24 384 7 7 (451584)
I0403 15:42:53.234385 20189 net.cpp:156] Memory required for data: 1332467232
I0403 15:42:53.234402 20189 layer_factory.hpp:77] Creating layer inception_5b/relu_3x3
I0403 15:42:53.234424 20189 net.cpp:91] Creating Layer inception_5b/relu_3x3
I0403 15:42:53.234443 20189 net.cpp:425] inception_5b/relu_3x3 <- inception_5b/3x3
I0403 15:42:53.234462 20189 net.cpp:386] inception_5b/relu_3x3 -> inception_5b/3x3 (in-place)
I0403 15:42:53.234768 20189 net.cpp:141] Setting up inception_5b/relu_3x3
I0403 15:42:53.234797 20189 net.cpp:148] Top shape: 24 384 7 7 (451584)
I0403 15:42:53.234812 20189 net.cpp:156] Memory required for data: 1334273568
I0403 15:42:53.234827 20189 layer_factory.hpp:77] Creating layer inception_5b/5x5_reduce
I0403 15:42:53.234868 20189 net.cpp:91] Creating Layer inception_5b/5x5_reduce
I0403 15:42:53.234886 20189 net.cpp:425] inception_5b/5x5_reduce <- inception_5a/output_inception_5a/output_0_split_2
I0403 15:42:53.234910 20189 net.cpp:399] inception_5b/5x5_reduce -> inception_5b/5x5_reduce
I0403 15:42:53.236264 20189 net.cpp:141] Setting up inception_5b/5x5_reduce
I0403 15:42:53.236294 20189 net.cpp:148] Top shape: 24 48 7 7 (56448)
I0403 15:42:53.236311 20189 net.cpp:156] Memory required for data: 1334499360
I0403 15:42:53.236330 20189 layer_factory.hpp:77] Creating layer inception_5b/relu_5x5_reduce
I0403 15:42:53.236351 20189 net.cpp:91] Creating Layer inception_5b/relu_5x5_reduce
I0403 15:42:53.236368 20189 net.cpp:425] inception_5b/relu_5x5_reduce <- inception_5b/5x5_reduce
I0403 15:42:53.236387 20189 net.cpp:386] inception_5b/relu_5x5_reduce -> inception_5b/5x5_reduce (in-place)
I0403 15:42:53.236768 20189 net.cpp:141] Setting up inception_5b/relu_5x5_reduce
I0403 15:42:53.236798 20189 net.cpp:148] Top shape: 24 48 7 7 (56448)
I0403 15:42:53.236812 20189 net.cpp:156] Memory required for data: 1334725152
I0403 15:42:53.236827 20189 layer_factory.hpp:77] Creating layer inception_5b/5x5
I0403 15:42:53.236847 20189 net.cpp:91] Creating Layer inception_5b/5x5
I0403 15:42:53.236865 20189 net.cpp:425] inception_5b/5x5 <- inception_5b/5x5_reduce
I0403 15:42:53.236884 20189 net.cpp:399] inception_5b/5x5 -> inception_5b/5x5
I0403 15:42:53.239008 20189 net.cpp:141] Setting up inception_5b/5x5
I0403 15:42:53.239037 20189 net.cpp:148] Top shape: 24 128 7 7 (150528)
I0403 15:42:53.239055 20189 net.cpp:156] Memory required for data: 1335327264
I0403 15:42:53.239074 20189 layer_factory.hpp:77] Creating layer inception_5b/relu_5x5
I0403 15:42:53.239095 20189 net.cpp:91] Creating Layer inception_5b/relu_5x5
I0403 15:42:53.239114 20189 net.cpp:425] inception_5b/relu_5x5 <- inception_5b/5x5
I0403 15:42:53.239130 20189 net.cpp:386] inception_5b/relu_5x5 -> inception_5b/5x5 (in-place)
I0403 15:42:53.239334 20189 net.cpp:141] Setting up inception_5b/relu_5x5
I0403 15:42:53.239362 20189 net.cpp:148] Top shape: 24 128 7 7 (150528)
I0403 15:42:53.239377 20189 net.cpp:156] Memory required for data: 1335929376
I0403 15:42:53.239392 20189 layer_factory.hpp:77] Creating layer inception_5b/pool
I0403 15:42:53.239410 20189 net.cpp:91] Creating Layer inception_5b/pool
I0403 15:42:53.239428 20189 net.cpp:425] inception_5b/pool <- inception_5a/output_inception_5a/output_0_split_3
I0403 15:42:53.239447 20189 net.cpp:399] inception_5b/pool -> inception_5b/pool
I0403 15:42:53.239521 20189 net.cpp:141] Setting up inception_5b/pool
I0403 15:42:53.239547 20189 net.cpp:148] Top shape: 24 832 7 7 (978432)
I0403 15:42:53.239560 20189 net.cpp:156] Memory required for data: 1339843104
I0403 15:42:53.239574 20189 layer_factory.hpp:77] Creating layer inception_5b/pool_proj
I0403 15:42:53.239598 20189 net.cpp:91] Creating Layer inception_5b/pool_proj
I0403 15:42:53.239614 20189 net.cpp:425] inception_5b/pool_proj <- inception_5b/pool
I0403 15:42:53.239636 20189 net.cpp:399] inception_5b/pool_proj -> inception_5b/pool_proj
I0403 15:42:53.241976 20189 net.cpp:141] Setting up inception_5b/pool_proj
I0403 15:42:53.242012 20189 net.cpp:148] Top shape: 24 128 7 7 (150528)
I0403 15:42:53.242028 20189 net.cpp:156] Memory required for data: 1340445216
I0403 15:42:53.242048 20189 layer_factory.hpp:77] Creating layer inception_5b/relu_pool_proj
I0403 15:42:53.242069 20189 net.cpp:91] Creating Layer inception_5b/relu_pool_proj
I0403 15:42:53.242086 20189 net.cpp:425] inception_5b/relu_pool_proj <- inception_5b/pool_proj
I0403 15:42:53.242105 20189 net.cpp:386] inception_5b/relu_pool_proj -> inception_5b/pool_proj (in-place)
I0403 15:42:53.242410 20189 net.cpp:141] Setting up inception_5b/relu_pool_proj
I0403 15:42:53.242437 20189 net.cpp:148] Top shape: 24 128 7 7 (150528)
I0403 15:42:53.242454 20189 net.cpp:156] Memory required for data: 1341047328
I0403 15:42:53.242468 20189 layer_factory.hpp:77] Creating layer inception_5b/output
I0403 15:42:53.242486 20189 net.cpp:91] Creating Layer inception_5b/output
I0403 15:42:53.242517 20189 net.cpp:425] inception_5b/output <- inception_5b/1x1
I0403 15:42:53.242535 20189 net.cpp:425] inception_5b/output <- inception_5b/3x3
I0403 15:42:53.242552 20189 net.cpp:425] inception_5b/output <- inception_5b/5x5
I0403 15:42:53.242568 20189 net.cpp:425] inception_5b/output <- inception_5b/pool_proj
I0403 15:42:53.242588 20189 net.cpp:399] inception_5b/output -> inception_5b/output
I0403 15:42:53.242645 20189 net.cpp:141] Setting up inception_5b/output
I0403 15:42:53.242668 20189 net.cpp:148] Top shape: 24 1024 7 7 (1204224)
I0403 15:42:53.242683 20189 net.cpp:156] Memory required for data: 1345864224
I0403 15:42:53.242698 20189 layer_factory.hpp:77] Creating layer pool5/7x7_s1
I0403 15:42:53.242715 20189 net.cpp:91] Creating Layer pool5/7x7_s1
I0403 15:42:53.242730 20189 net.cpp:425] pool5/7x7_s1 <- inception_5b/output
I0403 15:42:53.242751 20189 net.cpp:399] pool5/7x7_s1 -> pool5/7x7_s1
I0403 15:42:53.242975 20189 net.cpp:141] Setting up pool5/7x7_s1
I0403 15:42:53.243005 20189 net.cpp:148] Top shape: 24 1024 1 1 (24576)
I0403 15:42:53.243021 20189 net.cpp:156] Memory required for data: 1345962528
I0403 15:42:53.243036 20189 layer_factory.hpp:77] Creating layer pool5/drop_7x7_s1
I0403 15:42:53.243057 20189 net.cpp:91] Creating Layer pool5/drop_7x7_s1
I0403 15:42:53.243075 20189 net.cpp:425] pool5/drop_7x7_s1 <- pool5/7x7_s1
I0403 15:42:53.243093 20189 net.cpp:386] pool5/drop_7x7_s1 -> pool5/7x7_s1 (in-place)
I0403 15:42:53.243145 20189 net.cpp:141] Setting up pool5/drop_7x7_s1
I0403 15:42:53.243170 20189 net.cpp:148] Top shape: 24 1024 1 1 (24576)
I0403 15:42:53.243185 20189 net.cpp:156] Memory required for data: 1346060832
I0403 15:42:53.243199 20189 layer_factory.hpp:77] Creating layer loss3/classifier_plantvillage
I0403 15:42:53.243218 20189 net.cpp:91] Creating Layer loss3/classifier_plantvillage
I0403 15:42:53.243234 20189 net.cpp:425] loss3/classifier_plantvillage <- pool5/7x7_s1
I0403 15:42:53.243257 20189 net.cpp:399] loss3/classifier_plantvillage -> loss3/classifier_plantvillage
I0403 15:42:53.243692 20189 net.cpp:141] Setting up loss3/classifier_plantvillage
I0403 15:42:53.243718 20189 net.cpp:148] Top shape: 24 38 (912)
I0403 15:42:53.243732 20189 net.cpp:156] Memory required for data: 1346064480
I0403 15:42:53.243749 20189 layer_factory.hpp:77] Creating layer loss3/classifier_plantvillage_loss3/classifier_plantvillage_0_split
I0403 15:42:53.243768 20189 net.cpp:91] Creating Layer loss3/classifier_plantvillage_loss3/classifier_plantvillage_0_split
I0403 15:42:53.243784 20189 net.cpp:425] loss3/classifier_plantvillage_loss3/classifier_plantvillage_0_split <- loss3/classifier_plantvillage
I0403 15:42:53.243804 20189 net.cpp:399] loss3/classifier_plantvillage_loss3/classifier_plantvillage_0_split -> loss3/classifier_plantvillage_loss3/classifier_plantvillage_0_split_0
I0403 15:42:53.243825 20189 net.cpp:399] loss3/classifier_plantvillage_loss3/classifier_plantvillage_0_split -> loss3/classifier_plantvillage_loss3/classifier_plantvillage_0_split_1
I0403 15:42:53.243844 20189 net.cpp:399] loss3/classifier_plantvillage_loss3/classifier_plantvillage_0_split -> loss3/classifier_plantvillage_loss3/classifier_plantvillage_0_split_2
I0403 15:42:53.243865 20189 net.cpp:399] loss3/classifier_plantvillage_loss3/classifier_plantvillage_0_split -> loss3/classifier_plantvillage_loss3/classifier_plantvillage_0_split_3
I0403 15:42:53.243968 20189 net.cpp:141] Setting up loss3/classifier_plantvillage_loss3/classifier_plantvillage_0_split
I0403 15:42:53.243995 20189 net.cpp:148] Top shape: 24 38 (912)
I0403 15:42:53.244012 20189 net.cpp:148] Top shape: 24 38 (912)
I0403 15:42:53.244027 20189 net.cpp:148] Top shape: 24 38 (912)
I0403 15:42:53.244043 20189 net.cpp:148] Top shape: 24 38 (912)
I0403 15:42:53.244057 20189 net.cpp:156] Memory required for data: 1346079072
I0403 15:42:53.244072 20189 layer_factory.hpp:77] Creating layer loss1/loss
I0403 15:42:53.244093 20189 net.cpp:91] Creating Layer loss1/loss
I0403 15:42:53.244110 20189 net.cpp:425] loss1/loss <- loss1/classifier_plantvillage_loss1/classifier_plantvillage_0_split_0
I0403 15:42:53.244143 20189 net.cpp:425] loss1/loss <- label_data_1_split_0
…
