…
I0403 15:22:21.159543 19221 net.cpp:313] The NetState phase (1) differed from the phase (0) specified by a rule in layer data
I0403 15:22:21.160675 19221 net.cpp:49] Initializing net from parameters: 
state {
  phase: TEST
}
layer {
  name: "data"
  type: "Data"
  top: "data"
  top: "label"
  include {
    phase: TEST
  }
  transform_param {
    mirror: false
    crop_size: 224
    mean_file: "/home/mohanty/data/final_dataset/lmdb/grayscale-40-60/mean.binaryproto"
  }
  data_param {
    source: "/home/mohanty/data/final_dataset/lmdb/grayscale-40-60/test_db"
    batch_size: 24
    backend: LMDB
  }
}
layer {
  name: "conv1/7x7_s2"
  type: "Convolution"
  bottom: "data"
  top: "conv1/7x7_s2"
  param {
    lr_mult: 1
    decay_mult: 1
  }
  param {
    lr_mult: 2
    decay_mult: 0
  }
  convolution_param {
    num_output: 64
    pad: 3
    kernel_size: 7
    stride: 2
    weight_filler {
      type: "xavier"
      std: 0.1
    }
    bias_filler {
      type: "constant"
      value: 0.2
    }
  }
}
layer {
  name: "conv1/relu_7x7"
  type: "ReLU"
  bottom: "conv1/7x7_s2"
  top: "conv1/7x7_s2"
}
layer {
  name: "pool1/3x3_s2"
  type: "Pooling"
  bottom: "conv1/7x7_s2"
  top: "pool1/3x3_s2"
  pooling_param {
    pool: MAX
    kernel_size: 3
    stride: 2
  }
}
layer {
  name: "pool1/norm1"
  type: "LRN"
  bottom: "pool1/3x3_s2"
  top: "pool1/norm1"
  lrn_param {
    local_size: 5
    alpha: 0.0001
    beta: 0.75
  }
}
layer {
  name: "conv2/3x3_reduce"
  type: "Convolution"
  bottom: "pool1/norm1"
  top: "conv2/3x3_reduce"
  param {
    lr_mult: 1
    decay_mult: 1
  }
  param {
    lr_mult: 2
    decay_mult: 0
  }
  convolution_param {
    num_output: 64
    kernel_size: 1
    weight_filler {
      type: "xavier"
      std: 0.1
    }
    bias_filler {
      type: "constant"
      value: 0.2
    }
  }
}
layer {
  name: "conv2/relu_3x3_reduce"
  type: "ReLU"
  bottom: "conv2/3x3_reduce"
  top: "conv2/3x3_reduce"
}
layer {
  name: "conv2/3x3"
  type: "Convolution"
  bottom: "conv2/3x3_reduce"
  top: "conv2/3x3"
  param {
    lr_mult: 1
    decay_mult: 1
  }
  param {
    lr_mult: 2
    decay_mult: 0
  }
  convolution_param {
    num_output: 192
    pad: 1
    kernel_size: 3
    weight_filler {
      type: "xavier"
      std: 0.03
    }
    bias_filler {
      type: "constant"
      value: 0.2
    }
  }
}
layer {
  name: "conv2/relu_3x3"
  type: "ReLU"
  bottom: "conv2/3x3"
  top: "conv2/3x3"
}
layer {
  name: "conv2/norm2"
  type: "LRN"
  bottom: "conv2/3x3"
  top: "conv2/norm2"
  lrn_param {
    local_size: 5
    alpha: 0.0001
    beta: 0.75
  }
}
layer {
  name: "pool2/3x3_s2"
  type: "Pooling"
  bottom: "conv2/norm2"
  top: "pool2/3x3_s2"
  pooling_param {
    pool: MAX
    kernel_size: 3
    stride: 2
  }
}
layer {
  name: "inception_3a/1x1"
  type: "Convolution"
  bottom: "pool2/3x3_s2"
  top: "inception_3a/1x1"
  param {
    lr_mult: 1
    decay_mult: 1
  }
  param {
    lr_mult: 2
    decay_mult: 0
  }
  convolution_param {
    num_output: 64
    kernel_size: 1
    weight_filler {
      type: "xavier"
      std: 0.03
    }
    bias_filler {
      type: "constant"
      value: 0.2
    }
  }
}
layer {
  name: "inception_3a/relu_1x1"
  type: "ReLU"
  bottom: "inception_3a/1x1"
  top: "inception_3a/1x1"
}
layer {
  name: "inception_3a/3x3_reduce"
  type: "Convolution"
  bottom: "pool2/3x3_s2"
  top: "inception_3a/3x3_reduce"
  param {
    lr_mult: 1
    decay_mult: 1
  }
  param {
    lr_mult: 2
    decay_mult: 0
  }
  convolution_param {
    num_output: 96
    kernel_size: 1
    weight_filler {
      type: "xavier"
      std: 0.09
    }
    bias_filler {
      type: "constant"
      value: 0.2
    }
  }
}
layer {
  name: "inception_3a/relu_3x3_reduce"
  type: "ReLU"
  bottom: "inception_3a/3x3_reduce"
  top: "inception_3a/3x3_reduce"
}
layer {
  name: "inception_3a/3x3"
  type: "Convolution"
  bottom: "inception_3a/3x3_reduce"
  top: "inception_3a/3x3"
  param {
    lr_mult: 1
    decay_mult: 1
  }
  param {
    lr_mult: 2
    decay_mult: 0
  }
  convolution_param {
    num_output: 128
    pad: 1
    kernel_size: 3
    weight_filler {
      type: "xavier"
      std: 0.03
    }
    bias_filler {
      type: "constant"
      value: 0.2
    }
  }
}
layer {
  name: "inception_3a/relu_3x3"
  type: "ReLU"
  bottom: "inception_3a/3x3"
  top: "inception_3a/3x3"
}
layer {
  name: "inception_3a/5x5_reduce"
  type: "Convolution"
  bottom: "pool2/3x3_s2"
  top: "inception_3a/5x5_reduce"
  param {
    lr_mult: 1
    decay_mult: 1
  }
  param {
    lr_mult: 2
    decay_mult: 0
  }
  convolution_param {
    num_output: 16
    kernel_size: 1
    weight_filler {
      type: "xavier"
      std: 0.2
    }
    bias_filler {
      type: "constant"
      value: 0.2
    }
  }
}
layer {
  name: "inception_3a/relu_5x5_reduce"
  type: "ReLU"
  bottom: "inception_3a/5x5_reduce"
  top: "inception_3a/5x5_reduce"
}
layer {
  name: "inception_3a/5x5"
  type: "Convolution"
  bottom: "inception_3a/5x5_reduce"
  top: "inception_3a/5x5"
  param {
    lr_mult: 1
    decay_mult: 1
  }
  param {
    lr_mult: 2
    decay_mult: 0
  }
  convolution_param {
    num_output: 32
    pad: 2
    kernel_size: 5
    weight_filler {
      type: "xavier"
      std: 0.03
    }
    bias_filler {
      type: "constant"
      value: 0.2
    }
  }
}
layer {
  name: "inception_3a/relu_5x5"
  type: "ReLU"
  bottom: "inception_3a/5x5"
  top: "inception_3a/5x5"
}
layer {
  name: "inception_3a/pool"
  type: "Pooling"
  bottom: "pool2/3x3_s2"
  top: "inception_3a/pool"
  pooling_param {
    pool: MAX
    kernel_size: 3
    stride: 1
    pad: 1
  }
}
layer {
  name: "inception_3a/pool_proj"
  type: "Convolution"
  bottom: "inception_3a/pool"
  top: "inception_3a/pool_proj"
  param {
    lr_mult: 1
    decay_mult: 1
  }
  param {
    lr_mult: 2
    decay_mult: 0
  }
  convolution_param {
    num_output: 32
    kernel_size: 1
    weight_filler {
      type: "xavier"
      std: 0.1
    }
    bias_filler {
      type: "constant"
      value: 0.2
    }
  }
}
layer {
  name: "inception_3a/relu_pool_proj"
  type: "ReLU"
  bottom: "inception_3a/pool_proj"
  top: "inception_3a/pool_proj"
}
layer {
  name: "inception_3a/output"
  type: "Concat"
  bottom: "inception_3a/1x1"
  bottom: "inception_3a/3x3"
  bottom: "inception_3a/5x5"
  bottom: "inception_3a/pool_proj"
  top: "inception_3a/output"
}
layer {
  name: "inception_3b/1x1"
  type: "Convolution"
  bottom: "inception_3a/output"
  top: "inception_3b/1x1"
  param {
    lr_mult: 1
    decay_mult: 1
  }
  param {
    lr_mult: 2
    decay_mult: 0
  }
  convolution_param {
    num_output: 128
    kernel_size: 1
    weight_filler {
      type: "xavier"
      std: 0.03
    }
    bias_filler {
      type: "constant"
      value: 0.2
    }
  }
}
layer {
  name: "inception_3b/relu_1x1"
  type: "ReLU"
  bottom: "inception_3b/1x1"
  top: "inception_3b/1x1"
}
layer {
  name: "inception_3b/3x3_reduce"
  type: "Convolution"
  bottom: "inception_3a/output"
  top: "inception_3b/3x3_reduce"
  param {
    lr_mult: 1
    decay_mult: 1
  }
  param {
    lr_mult: 2
    decay_mult: 0
  }
  convolution_param {
    num_output: 128
    kernel_size: 1
    weight_filler {
      type: "xavier"
      std: 0.09
    }
    bias_filler {
      type: "constant"
      value: 0.2
    }
  }
}
layer {
  name: "inception_3b/relu_3x3_reduce"
  type: "ReLU"
  bottom: "inception_3b/3x3_reduce"
  top: "inception_3b/3x3_reduce"
}
layer {
  name: "inception_3b/3x3"
  type: "Convolution"
  bottom: "inception_3b/3x3_reduce"
  top: "inception_3b/3x3"
  param {
    lr_mult: 1
    decay_mult: 1
  }
  param {
    lr_mult: 2
    decay_mult: 0
  }
  convolution_param {
    num_output: 192
    pad: 1
    kernel_size: 3
    weight_filler {
      type: "xavier"
      std: 0.03
    }
    bias_filler {
      type: "constant"
      value: 0.2
    }
  }
}
layer {
  name: "inception_3b/relu_3x3"
  type: "ReLU"
  bottom: "inception_3b/3x3"
  top: "inception_3b/3x3"
}
layer {
  name: "inception_3b/5x5_reduce"
  type: "Convolution"
  bottom: "inception_3a/output"
  top: "inception_3b/5x5_reduce"
  param {
    lr_mult: 1
    decay_mult: 1
  }
  param {
    lr_mult: 2
    decay_mult: 0
  }
  convolution_param {
    num_output: 32
    kernel_size: 1
    weight_filler {
      type: "xavier"
      std: 0.2
    }
    bias_filler {
      type: "constant"
      value: 0.2
    }
  }
}
layer {
  name: "inception_3b/relu_5x5_reduce"
  type: "ReLU"
  bottom: "inception_3b/5x5_reduce"
  top: "inception_3b/5x5_reduce"
}
layer {
  name: "inception_3b/5x5"
  type: "Convolution"
  bottom: "inception_3b/5x5_reduce"
  top: "inception_3b/5x5"
  param {
    lr_mult: 1
    decay_mult: 1
  }
  param {
    lr_mult: 2
    decay_mult: 0
  }
  convolution_param {
    num_output: 96
    pad: 2
    kernel_size: 5
    weight_filler {
      type: "xavier"
      std: 0.03
    }
    bias_filler {
      type: "constant"
      value: 0.2
    }
  }
}
layer {
  name: "inception_3b/relu_5x5"
  type: "ReLU"
  bottom: "inception_3b/5x5"
  top: "inception_3b/5x5"
}
layer {
  name: "inception_3b/pool"
  type: "Pooling"
  bottom: "inception_3a/output"
  top: "inception_3b/pool"
  pooling_param {
    pool: MAX
    kernel_size: 3
    stride: 1
    pad: 1
  }
}
layer {
  name: "inception_3b/pool_proj"
  type: "Convolution"
  bottom: "inception_3b/pool"
  top: "inception_3b/pool_proj"
  param {
    lr_mult: 1
    decay_mult: 1
  }
  param {
    lr_mult: 2
    decay_mult: 0
  }
  convolution_param {
    num_output: 64
    kernel_size: 1
    weight_filler {
      type: "xavier"
      std: 0.1
    }
    bias_filler {
      type: "constant"
      value: 0.2
    }
  }
}
layer {
  name: "inception_3b/relu_pool_proj"
  type: "ReLU"
  bottom: "inception_3b/pool_proj"
  top: "inception_3b/pool_proj"
}
layer {
  name: "inception_3b/output"
  type: "Concat"
  bottom: "inception_3b/1x1"
  bottom: "inception_3b/3x3"
  bottom: "inception_3b/5x5"
  bottom: "inception_3b/pool_proj"
  top: "inception_3b/output"
}
layer {
  name: "pool3/3x3_s2"
  type: "Pooling"
  bottom: "inception_3b/output"
  top: "pool3/3x3_s2"
  pooling_param {
    pool: MAX
    kernel_size: 3
    stride: 2
  }
}
layer {
  name: "inception_4a/1x1"
  type: "Convolution"
  bottom: "pool3/3x3_s2"
  top: "inception_4a/1x1"
  param {
    lr_mult: 1
    decay_mult: 1
  }
  param {
    lr_mult: 2
    decay_mult: 0
  }
  convolution_param {
    num_output: 192
    kernel_size: 1
    weight_filler {
      type: "xavier"
      std: 0.03
    }
    bias_filler {
      type: "constant"
      value: 0.2
    }
  }
}
layer {
  name: "inception_4a/relu_1x1"
  type: "ReLU"
  bottom: "inception_4a/1x1"
  top: "inception_4a/1x1"
}
layer {
  name: "inception_4a/3x3_reduce"
  type: "Convolution"
  bottom: "pool3/3x3_s2"
  top: "inception_4a/3x3_reduce"
  param {
    lr_mult: 1
    decay_mult: 1
  }
  param {
    lr_mult: 2
    decay_mult: 0
  }
  convolution_param {
    num_output: 96
    kernel_size: 1
    weight_filler {
      type: "xavier"
      std: 0.09
    }
    bias_filler {
      type: "constant"
      value: 0.2
    }
  }
}
layer {
  name: "inception_4a/relu_3x3_reduce"
  type: "ReLU"
  bottom: "inception_4a/3x3_reduce"
  top: "inception_4a/3x3_reduce"
}
layer {
  name: "inception_4a/3x3"
  type: "Convolution"
  bottom: "inception_4a/3x3_reduce"
  top: "inception_4a/3x3"
  param {
    lr_mult: 1
    decay_mult: 1
  }
  param {
    lr_mult: 2
    decay_mult: 0
  }
  convolution_param {
    num_output: 208
    pad: 1
    kernel_size: 3
    weight_filler {
      type: "xavier"
      std: 0.03
    }
    bias_filler {
      type: "constant"
      value: 0.2
    }
  }
}
layer {
  name: "inception_4a/relu_3x3"
  type: "ReLU"
  bottom: "inception_4a/3x3"
  top: "inception_4a/3x3"
}
layer {
  name: "inception_4a/5x5_reduce"
  type: "Convolution"
  bottom: "pool3/3x3_s2"
  top: "inception_4a/5x5_reduce"
  param {
    lr_mult: 1
    decay_mult: 1
  }
  param {
    lr_mult: 2
    decay_mult: 0
  }
  convolution_param {
    num_output: 16
    kernel_size: 1
    weight_filler {
      type: "xavier"
      std: 0.2
    }
    bias_filler {
      type: "constant"
      value: 0.2
    }
  }
}
layer {
  name: "inception_4a/relu_5x5_reduce"
  type: "ReLU"
  bottom: "inception_4a/5x5_reduce"
  top: "inception_4a/5x5_reduce"
}
layer {
  name: "inception_4a/5x5"
  type: "Convolution"
  bottom: "inception_4a/5x5_reduce"
  top: "inception_4a/5x5"
  param {
    lr_mult: 1
    decay_mult: 1
  }
  param {
    lr_mult: 2
    decay_mult: 0
  }
  convolution_param {
    num_output: 48
    pad: 2
    kernel_size: 5
    weight_filler {
      type: "xavier"
      std: 0.03
    }
    bias_filler {
      type: "constant"
      value: 0.2
    }
  }
}
layer {
  name: "inception_4a/relu_5x5"
  type: "ReLU"
  bottom: "inception_4a/5x5"
  top: "inception_4a/5x5"
}
layer {
  name: "inception_4a/pool"
  type: "Pooling"
  bottom: "pool3/3x3_s2"
  top: "inception_4a/pool"
  pooling_param {
    pool: MAX
    kernel_size: 3
    stride: 1
    pad: 1
  }
}
layer {
  name: "inception_4a/pool_proj"
  type: "Convolution"
  bottom: "inception_4a/pool"
  top: "inception_4a/pool_proj"
  param {
    lr_mult: 1
    decay_mult: 1
  }
  param {
    lr_mult: 2
    decay_mult: 0
  }
  convolution_param {
    num_output: 64
    kernel_size: 1
    weight_filler {
      type: "xavier"
      std: 0.1
    }
    bias_filler {
      type: "constant"
      value: 0.2
    }
  }
}
layer {
  name: "inception_4a/relu_pool_proj"
  type: "ReLU"
  bottom: "inception_4a/pool_proj"
  top: "inception_4a/pool_proj"
}
layer {
  name: "inception_4a/output"
  type: "Concat"
  bottom: "inception_4a/1x1"
  bottom: "inception_4a/3x3"
  bottom: "inception_4a/5x5"
  bottom: "inception_4a/pool_proj"
  top: "inception_4a/output"
}
layer {
  name: "loss1/ave_pool"
  type: "Pooling"
  bottom: "inception_4a/output"
  top: "loss1/ave_pool"
  pooling_param {
    pool: AVE
    kernel_size: 5
    stride: 3
  }
}
layer {
  name: "loss1/conv"
  type: "Convolution"
  bottom: "loss1/ave_pool"
  top: "loss1/conv"
  param {
    lr_mult: 1
    decay_mult: 1
  }
  param {
    lr_mult: 2
    decay_mult: 0
  }
  convolution_param {
    num_output: 128
    kernel_size: 1
    weight_filler {
      type: "xavier"
      std: 0.08
    }
    bias_filler {
      type: "constant"
      value: 0.2
    }
  }
}
layer {
  name: "loss1/relu_conv"
  type: "ReLU"
  bottom: "loss1/conv"
  top: "loss1/conv"
}
layer {
  name: "loss1/fc"
  type: "InnerProduct"
  bottom: "loss1/conv"
  top: "loss1/fc"
  param {
    lr_mult: 1
    decay_mult: 1
  }
  param {
    lr_mult: 2
    decay_mult: 0
  }
  inner_product_param {
    num_output: 1024
    weight_filler {
      type: "xavier"
      std: 0.02
    }
    bias_filler {
      type: "constant"
      value: 0.2
    }
  }
}
layer {
  name: "loss1/relu_fc"
  type: "ReLU"
  bottom: "loss1/fc"
  top: "loss1/fc"
}
layer {
  name: "loss1/drop_fc"
  type: "Dropout"
  bottom: "loss1/fc"
  top: "loss1/fc"
  dropout_param {
    dropout_ratio: 0.7
  }
}
layer {
  name: "loss1/classifier_plantvillage"
  type: "InnerProduct"
  bottom: "loss1/fc"
  top: "loss1/classifier_plantvillage"
  param {
    lr_mult: 1
    decay_mult: 1
  }
  param {
    lr_mult: 2
    decay_mult: 0
  }
  inner_product_param {
    num_output: 38
    weight_filler {
      type: "xavier"
      std: 0.0009765625
    }
    bias_filler {
      type: "constant"
      value: 0
    }
  }
}
layer {
  name: "inception_4b/1x1"
  type: "Convolution"
  bottom: "inception_4a/output"
  top: "inception_4b/1x1"
  param {
    lr_mult: 1
    decay_mult: 1
  }
  param {
    lr_mult: 2
    decay_mult: 0
  }
  convolution_param {
    num_output: 160
    kernel_size: 1
    weight_filler {
      type: "xavier"
      std: 0.03
    }
    bias_filler {
      type: "constant"
      value: 0.2
    }
  }
}
layer {
  name: "inception_4b/relu_1x1"
  type: "ReLU"
  bottom: "inception_4b/1x1"
  top: "inception_4b/1x1"
}
layer {
  name: "inception_4b/3x3_reduce"
  type: "Convolution"
  bottom: "inception_4a/output"
  top: "inception_4b/3x3_reduce"
  param {
    lr_mult: 1
    decay_mult: 1
  }
  param {
    lr_mult: 2
    decay_mult: 0
  }
  convolution_param {
    num_output: 112
    kernel_size: 1
    weight_filler {
      type: "xavier"
      std: 0.09
    }
    bias_filler {
      type: "constant"
      value: 0.2
    }
  }
}
layer {
  name: "inception_4b/relu_3x3_reduce"
  type: "ReLU"
  bottom: "inception_4b/3x3_reduce"
  top: "inception_4b/3x3_reduce"
}
layer {
  name: "inception_4b/3x3"
  type: "Convolution"
  bottom: "inception_4b/3x3_reduce"
  top: "inception_4b/3x3"
  param {
    lr_mult: 1
    decay_mult: 1
  }
  param {
    lr_mult: 2
    decay_mult: 0
  }
  convolution_param {
    num_output: 224
    pad: 1
    kernel_size: 3
    weight_filler {
      type: "xavier"
      std: 0.03
    }
    bias_filler {
      type: "constant"
      value: 0.2
    }
  }
}
layer {
  name: "inception_4b/relu_3x3"
  type: "ReLU"
  bottom: "inception_4b/3x3"
  top: "inception_4b/3x3"
}
layer {
  name: "inception_4b/5x5_reduce"
  type: "Convolution"
  bottom: "inception_4a/output"
  top: "inception_4b/5x5_reduce"
  param {
    lr_mult: 1
    decay_mult: 1
  }
  param {
    lr_mult: 2
    decay_mult: 0
  }
  convolution_param {
    num_output: 24
    kernel_size: 1
    weight_filler {
      type: "xavier"
      std: 0.2
    }
    bias_filler {
      type: "constant"
      value: 0.2
    }
  }
}
layer {
  name: "inception_4b/relu_5x5_reduce"
  type: "ReLU"
  bottom: "inception_4b/5x5_reduce"
  top: "inception_4b/5x5_reduce"
}
layer {
  name: "inception_4b/5x5"
  type: "Convolution"
  bottom: "inception_4b/5x5_reduce"
  top: "inception_4b/5x5"
  param {
    lr_mult: 1
    decay_mult: 1
  }
  param {
    lr_mult: 2
    decay_mult: 0
  }
  convolution_param {
    num_output: 64
    pad: 2
    kernel_size: 5
    weight_filler {
      type: "xavier"
      std: 0.03
    }
    bias_filler {
      type: "constant"
      value: 0.2
    }
  }
}
layer {
  name: "inception_4b/relu_5x5"
  type: "ReLU"
  bottom: "inception_4b/5x5"
  top: "inception_4b/5x5"
}
layer {
  name: "inception_4b/pool"
  type: "Pooling"
  bottom: "inception_4a/output"
  top: "inception_4b/pool"
  pooling_param {
    pool: MAX
    kernel_size: 3
    stride: 1
    pad: 1
  }
}
layer {
  name: "inception_4b/pool_proj"
  type: "Convolution"
  bottom: "inception_4b/pool"
  top: "inception_4b/pool_proj"
  param {
    lr_mult: 1
    decay_mult: 1
  }
  param {
    lr_mult: 2
    decay_mult: 0
  }
  convolution_param {
    num_output: 64
    kernel_size: 1
    weight_filler {
      type: "xavier"
      std: 0.1
    }
    bias_filler {
      type: "constant"
      value: 0.2
    }
  }
}
layer {
  name: "inception_4b/relu_pool_proj"
  type: "ReLU"
  bottom: "inception_4b/pool_proj"
  top: "inception_4b/pool_proj"
}
layer {
  name: "inception_4b/output"
  type: "Concat"
  bottom: "inception_4b/1x1"
  bottom: "inception_4b/3x3"
  bottom: "inception_4b/5x5"
  bottom: "inception_4b/pool_proj"
  top: "inception_4b/output"
}
layer {
  name: "inception_4c/1x1"
  type: "Convolution"
  bottom: "inception_4b/output"
  top: "inception_4c/1x1"
  param {
    lr_mult: 1
    decay_mult: 1
  }
  param {
    lr_mult: 2
    decay_mult: 0
  }
  convolution_param {
    num_output: 128
    kernel_size: 1
    weight_filler {
      type: "xavier"
      std: 0.03
    }
    bias_filler {
      type: "constant"
      value: 0.2
    }
  }
}
layer {
  name: "inception_4c/relu_1x1"
  type: "ReLU"
  bottom: "inception_4c/1x1"
  top: "inception_4c/1x1"
}
layer {
  name: "inception_4c/3x3_reduce"
  type: "Convolution"
  bottom: "inception_4b/output"
  top: "inception_4c/3x3_reduce"
  param {
    lr_mult: 1
    decay_mult: 1
  }
  param {
    lr_mult: 2
    decay_mult: 0
  }
  convolution_param {
    num_output: 128
    kernel_size: 1
    weight_filler {
      type: "xavier"
      std: 0.09
    }
    bias_filler {
      type: "constant"
      value: 0.2
    }
  }
}
layer {
  name: "inception_4c/relu_3x3_reduce"
  type: "ReLU"
  bottom: "inception_4c/3x3_reduce"
  top: "inception_4c/3x3_reduce"
}
layer {
  name: "inception_4c/3x3"
  type: "Convolution"
  bottom: "inception_4c/3x3_reduce"
  top: "inception_4c/3x3"
  param {
    lr_mult: 1
    decay_mult: 1
  }
  param {
    lr_mult: 2
    decay_mult: 0
  }
  convolution_param {
    num_output: 256
    pad: 1
    kernel_size: 3
    weight_filler {
      type: "xavier"
      std: 0.03
    }
    bias_filler {
      type: "constant"
      value: 0.2
    }
  }
}
layer {
  name: "inception_4c/relu_3x3"
  type: "ReLU"
  bottom: "inception_4c/3x3"
  top: "inception_4c/3x3"
}
layer {
  name: "inception_4c/5x5_reduce"
  type: "Convolution"
  bottom: "inception_4b/output"
  top: "inception_4c/5x5_reduce"
  param {
    lr_mult: 1
    decay_mult: 1
  }
  param {
    lr_mult: 2
    decay_mult: 0
  }
  convolution_param {
    num_output: 24
    kernel_size: 1
    weight_filler {
      type: "xavier"
      std: 0.2
    }
    bias_filler {
      type: "constant"
      value: 0.2
    }
  }
}
layer {
  name: "inception_4c/relu_5x5_reduce"
  type: "ReLU"
  bottom: "inception_4c/5x5_reduce"
  top: "inception_4c/5x5_reduce"
}
layer {
  name: "inception_4c/5x5"
  type: "Convolution"
  bottom: "inception_4c/5x5_reduce"
  top: "inception_4c/5x5"
  param {
    lr_mult: 1
    decay_mult: 1
  }
  param {
    lr_mult: 2
    decay_mult: 0
  }
  convolution_param {
    num_output: 64
    pad: 2
    kernel_size: 5
    weight_filler {
      type: "xavier"
      std: 0.03
    }
    bias_filler {
      type: "constant"
      value: 0.2
    }
  }
}
layer {
  name: "inception_4c/relu_5x5"
  type: "ReLU"
  bottom: "inception_4c/5x5"
  top: "inception_4c/5x5"
}
layer {
  name: "inception_4c/pool"
  type: "Pooling"
  bottom: "inception_4b/output"
  top: "inception_4c/pool"
  pooling_param {
    pool: MAX
    kernel_size: 3
    stride: 1
    pad: 1
  }
}
layer {
  name: "inception_4c/pool_proj"
  type: "Convolution"
  bottom: "inception_4c/pool"
  top: "inception_4c/pool_proj"
  param {
    lr_mult: 1
    decay_mult: 1
  }
  param {
    lr_mult: 2
    decay_mult: 0
  }
  convolution_param {
    num_output: 64
    kernel_size: 1
    weight_filler {
      type: "xavier"
      std: 0.1
    }
    bias_filler {
      type: "constant"
      value: 0.2
    }
  }
}
layer {
  name: "inception_4c/relu_pool_proj"
  type: "ReLU"
  bottom: "inception_4c/pool_proj"
  top: "inception_4c/pool_proj"
}
layer {
  name: "inception_4c/output"
  type: "Concat"
  bottom: "inception_4c/1x1"
  bottom: "inception_4c/3x3"
  bottom: "inception_4c/5x5"
  bottom: "inception_4c/pool_proj"
  top: "inception_4c/output"
}
layer {
  name: "inception_4d/1x1"
  type: "Convolution"
  bottom: "inception_4c/output"
  top: "inception_4d/1x1"
  param {
    lr_mult: 1
    decay_mult: 1
  }
  param {
    lr_mult: 2
    decay_mult: 0
  }
  convolution_param {
    num_output: 112
    kernel_size: 1
    weight_filler {
      type: "xavier"
      std: 0.03
    }
    bias_filler {
      type: "constant"
      value: 0.2
    }
  }
}
layer {
  name: "inception_4d/relu_1x1"
  type: "ReLU"
  bottom: "inception_4d/1x1"
  top: "inception_4d/1x1"
}
layer {
  name: "inception_4d/3x3_reduce"
  type: "Convolution"
  bottom: "inception_4c/output"
  top: "inception_4d/3x3_reduce"
  param {
    lr_mult: 1
    decay_mult: 1
  }
  param {
    lr_mult: 2
    decay_mult: 0
  }
  convolution_param {
    num_output: 144
    kernel_size: 1
    weight_filler {
      type: "xavier"
      std: 0.09
    }
    bias_filler {
      type: "constant"
      value: 0.2
    }
  }
}
layer {
  name: "inception_4d/relu_3x3_reduce"
  type: "ReLU"
  bottom: "inception_4d/3x3_reduce"
  top: "inception_4d/3x3_reduce"
}
layer {
  name: "inception_4d/3x3"
  type: "Convolution"
  bottom: "inception_4d/3x3_reduce"
  top: "inception_4d/3x3"
  param {
    lr_mult: 1
    decay_mult: 1
  }
  param {
    lr_mult: 2
    decay_mult: 0
  }
  convolution_param {
    num_output: 288
    pad: 1
    kernel_size: 3
    weight_filler {
      type: "xavier"
      std: 0.03
    }
    bias_filler {
      type: "constant"
      value: 0.2
    }
  }
}
layer {
  name: "inception_4d/relu_3x3"
  type: "ReLU"
  bottom: "inception_4d/3x3"
  top: "inception_4d/3x3"
}
layer {
  name: "inception_4d/5x5_reduce"
  type: "Convolution"
  bottom: "inception_4c/output"
  top: "inception_4d/5x5_reduce"
  param {
    lr_mult: 1
    decay_mult: 1
  }
  param {
    lr_mult: 2
    decay_mult: 0
  }
  convolution_param {
    num_output: 32
    kernel_size: 1
    weight_filler {
      type: "xavier"
      std: 0.2
    }
    bias_filler {
      type: "constant"
      value: 0.2
    }
  }
}
layer {
  name: "inception_4d/relu_5x5_reduce"
  type: "ReLU"
  bottom: "inception_4d/5x5_reduce"
  top: "inception_4d/5x5_reduce"
}
layer {
  name: "inception_4d/5x5"
  type: "Convolution"
  bottom: "inception_4d/5x5_reduce"
  top: "inception_4d/5x5"
  param {
    lr_mult: 1
    decay_mult: 1
  }
  param {
    lr_mult: 2
    decay_mult: 0
  }
  convolution_param {
    num_output: 64
    pad: 2
    kernel_size: 5
    weight_filler {
      type: "xavier"
      std: 0.03
    }
    bias_filler {
      type: "constant"
      value: 0.2
    }
  }
}
layer {
  name: "inception_4d/relu_5x5"
  type: "ReLU"
  bottom: "inception_4d/5x5"
  top: "inception_4d/5x5"
}
layer {
  name: "inception_4d/pool"
  type: "Pooling"
  bottom: "inception_4c/output"
  top: "inception_4d/pool"
  pooling_param {
    pool: MAX
    kernel_size: 3
    stride: 1
    pad: 1
  }
}
layer {
  name: "inception_4d/pool_proj"
  type: "Convolution"
  bottom: "inception_4d/pool"
  top: "inception_4d/pool_proj"
  param {
    lr_mult: 1
    decay_mult: 1
  }
  param {
    lr_mult: 2
    decay_mult: 0
  }
  convolution_param {
    num_output: 64
    kernel_size: 1
    weight_filler {
      type: "xavier"
      std: 0.1
    }
    bias_filler {
      type: "constant"
      value: 0.2
    }
  }
}
layer {
  name: "inception_4d/relu_pool_proj"
  type: "ReLU"
  bottom: "inception_4d/pool_proj"
  top: "inception_4d/pool_proj"
}
layer {
  name: "inception_4d/output"
  type: "Concat"
  bottom: "inception_4d/1x1"
  bottom: "inception_4d/3x3"
  bottom: "inception_4d/5x5"
  bottom: "inception_4d/pool_proj"
  top: "inception_4d/output"
}
layer {
  name: "loss2/ave_pool"
  type: "Pooling"
  bottom: "inception_4d/output"
  top: "loss2/ave_pool"
  pooling_param {
    pool: AVE
    kernel_size: 5
    stride: 3
  }
}
layer {
  name: "loss2/conv"
  type: "Convolution"
  bottom: "loss2/ave_pool"
  top: "loss2/conv"
  param {
    lr_mult: 1
    decay_mult: 1
  }
  param {
    lr_mult: 2
    decay_mult: 0
  }
  convolution_param {
    num_output: 128
    kernel_size: 1
    weight_filler {
      type: "xavier"
      std: 0.08
    }
    bias_filler {
      type: "constant"
      value: 0.2
    }
  }
}
layer {
  name: "loss2/relu_conv"
  type: "ReLU"
  bottom: "loss2/conv"
  top: "loss2/conv"
}
layer {
  name: "loss2/fc"
  type: "InnerProduct"
  bottom: "loss2/conv"
  top: "loss2/fc"
  param {
    lr_mult: 1
    decay_mult: 1
  }
  param {
    lr_mult: 2
    decay_mult: 0
  }
  inner_product_param {
    num_output: 1024
    weight_filler {
      type: "xavier"
      std: 0.02
    }
    bias_filler {
      type: "constant"
      value: 0.2
    }
  }
}
layer {
  name: "loss2/relu_fc"
  type: "ReLU"
  bottom: "loss2/fc"
  top: "loss2/fc"
}
layer {
  name: "loss2/drop_fc"
  type: "Dropout"
  bottom: "loss2/fc"
  top: "loss2/fc"
  dropout_param {
    dropout_ratio: 0.7
  }
}
layer {
  name: "loss2/classifier_plantvillage"
  type: "InnerProduct"
  bottom: "loss2/fc"
  top: "loss2/classifier_plantvillage"
  param {
    lr_mult: 1
    decay_mult: 1
  }
  param {
    lr_mult: 2
    decay_mult: 0
  }
  inner_product_param {
    num_output: 38
    weight_filler {
      type: "xavier"
      std: 0.0009765625
    }
    bias_filler {
      type: "constant"
      value: 0
    }
  }
}
layer {
  name: "inception_4e/1x1"
  type: "Convolution"
  bottom: "inception_4d/output"
  top: "inception_4e/1x1"
  param {
    lr_mult: 1
    decay_mult: 1
  }
  param {
    lr_mult: 2
    decay_mult: 0
  }
  convolution_param {
    num_output: 256
    kernel_size: 1
    weight_filler {
      type: "xavier"
      std: 0.03
    }
    bias_filler {
      type: "constant"
      value: 0.2
    }
  }
}
layer {
  name: "inception_4e/relu_1x1"
  type: "ReLU"
  bottom: "inception_4e/1x1"
  top: "inception_4e/1x1"
}
layer {
  name: "inception_4e/3x3_reduce"
  type: "Convolution"
  bottom: "inception_4d/output"
  top: "inception_4e/3x3_reduce"
  param {
    lr_mult: 1
    decay_mult: 1
  }
  param {
    lr_mult: 2
    decay_mult: 0
  }
  convolution_param {
    num_output: 160
    kernel_size: 1
    weight_filler {
      type: "xavier"
      std: 0.09
    }
    bias_filler {
      type: "constant"
      value: 0.2
    }
  }
}
layer {
  name: "inception_4e/relu_3x3_reduce"
  type: "ReLU"
  bottom: "inception_4e/3x3_reduce"
  top: "inception_4e/3x3_reduce"
}
layer {
  name: "inception_4e/3x3"
  type: "Convolution"
  bottom: "inception_4e/3x3_reduce"
  top: "inception_4e/3x3"
  param {
    lr_mult: 1
    decay_mult: 1
  }
  param {
    lr_mult: 2
    decay_mult: 0
  }
  convolution_param {
    num_output: 320
    pad: 1
    kernel_size: 3
    weight_filler {
      type: "xavier"
      std: 0.03
    }
    bias_filler {
      type: "constant"
      value: 0.2
    }
  }
}
layer {
  name: "inception_4e/relu_3x3"
  type: "ReLU"
  bottom: "inception_4e/3x3"
  top: "inception_4e/3x3"
}
layer {
  name: "inception_4e/5x5_reduce"
  type: "Convolution"
  bottom: "inception_4d/output"
  top: "inception_4e/5x5_reduce"
  param {
    lr_mult: 1
    decay_mult: 1
  }
  param {
    lr_mult: 2
    decay_mult: 0
  }
  convolution_param {
    num_output: 32
    kernel_size: 1
    weight_filler {
      type: "xavier"
      std: 0.2
    }
    bias_filler {
      type: "constant"
      value: 0.2
    }
  }
}
layer {
  name: "inception_4e/relu_5x5_reduce"
  type: "ReLU"
  bottom: "inception_4e/5x5_reduce"
  top: "inception_4e/5x5_reduce"
}
layer {
  name: "inception_4e/5x5"
  type: "Convolution"
  bottom: "inception_4e/5x5_reduce"
  top: "inception_4e/
I0403 15:22:21.161852 19221 layer_factory.hpp:77] Creating layer data
I0403 15:22:21.162447 19221 net.cpp:91] Creating Layer data
I0403 15:22:21.162479 19221 net.cpp:399] data -> data
I0403 15:22:21.162529 19221 net.cpp:399] data -> label
I0403 15:22:21.162566 19221 data_transformer.cpp:25] Loading mean file from: /home/mohanty/data/final_dataset/lmdb/grayscale-40-60/mean.binaryproto
I0403 15:22:21.165134 19223 db_lmdb.cpp:38] Opened lmdb /home/mohanty/data/final_dataset/lmdb/grayscale-40-60/test_db
I0403 15:22:21.176651 19221 data_layer.cpp:41] output data size: 24,3,224,224
I0403 15:22:21.206851 19221 net.cpp:141] Setting up data
I0403 15:22:21.206933 19221 net.cpp:148] Top shape: 24 3 224 224 (3612672)
I0403 15:22:21.206955 19221 net.cpp:148] Top shape: 24 (24)
I0403 15:22:21.206969 19221 net.cpp:156] Memory required for data: 14450784
I0403 15:22:21.207000 19221 layer_factory.hpp:77] Creating layer label_data_1_split
I0403 15:22:21.207027 19221 net.cpp:91] Creating Layer label_data_1_split
I0403 15:22:21.207046 19221 net.cpp:425] label_data_1_split <- label
I0403 15:22:21.207077 19221 net.cpp:399] label_data_1_split -> label_data_1_split_0
I0403 15:22:21.207105 19221 net.cpp:399] label_data_1_split -> label_data_1_split_1
I0403 15:22:21.207125 19221 net.cpp:399] label_data_1_split -> label_data_1_split_2
I0403 15:22:21.207144 19221 net.cpp:399] label_data_1_split -> label_data_1_split_3
I0403 15:22:21.207164 19221 net.cpp:399] label_data_1_split -> label_data_1_split_4
I0403 15:22:21.207182 19221 net.cpp:399] label_data_1_split -> label_data_1_split_5
I0403 15:22:21.207201 19221 net.cpp:399] label_data_1_split -> label_data_1_split_6
I0403 15:22:21.207221 19221 net.cpp:399] label_data_1_split -> label_data_1_split_7
I0403 15:22:21.207238 19221 net.cpp:399] label_data_1_split -> label_data_1_split_8
I0403 15:22:21.207257 19221 net.cpp:399] label_data_1_split -> label_data_1_split_9
I0403 15:22:21.207371 19221 net.cpp:141] Setting up label_data_1_split
I0403 15:22:21.207393 19221 net.cpp:148] Top shape: 24 (24)
I0403 15:22:21.207411 19221 net.cpp:148] Top shape: 24 (24)
I0403 15:22:21.207425 19221 net.cpp:148] Top shape: 24 (24)
I0403 15:22:21.207440 19221 net.cpp:148] Top shape: 24 (24)
I0403 15:22:21.207455 19221 net.cpp:148] Top shape: 24 (24)
I0403 15:22:21.207469 19221 net.cpp:148] Top shape: 24 (24)
I0403 15:22:21.207485 19221 net.cpp:148] Top shape: 24 (24)
I0403 15:22:21.207500 19221 net.cpp:148] Top shape: 24 (24)
I0403 15:22:21.207515 19221 net.cpp:148] Top shape: 24 (24)
I0403 15:22:21.207530 19221 net.cpp:148] Top shape: 24 (24)
I0403 15:22:21.207572 19221 net.cpp:156] Memory required for data: 14451744
I0403 15:22:21.207587 19221 layer_factory.hpp:77] Creating layer conv1/7x7_s2
I0403 15:22:21.207618 19221 net.cpp:91] Creating Layer conv1/7x7_s2
I0403 15:22:21.207638 19221 net.cpp:425] conv1/7x7_s2 <- data
I0403 15:22:21.207656 19221 net.cpp:399] conv1/7x7_s2 -> conv1/7x7_s2
I0403 15:22:21.354390 19221 net.cpp:141] Setting up conv1/7x7_s2
I0403 15:22:21.354532 19221 net.cpp:148] Top shape: 24 64 112 112 (19267584)
I0403 15:22:21.354555 19221 net.cpp:156] Memory required for data: 91522080
I0403 15:22:21.354585 19221 layer_factory.hpp:77] Creating layer conv1/relu_7x7
I0403 15:22:21.354611 19221 net.cpp:91] Creating Layer conv1/relu_7x7
I0403 15:22:21.354630 19221 net.cpp:425] conv1/relu_7x7 <- conv1/7x7_s2
I0403 15:22:21.354651 19221 net.cpp:386] conv1/relu_7x7 -> conv1/7x7_s2 (in-place)
I0403 15:22:21.354923 19221 net.cpp:141] Setting up conv1/relu_7x7
I0403 15:22:21.354949 19221 net.cpp:148] Top shape: 24 64 112 112 (19267584)
I0403 15:22:21.354964 19221 net.cpp:156] Memory required for data: 168592416
I0403 15:22:21.354979 19221 layer_factory.hpp:77] Creating layer pool1/3x3_s2
I0403 15:22:21.355010 19221 net.cpp:91] Creating Layer pool1/3x3_s2
I0403 15:22:21.355029 19221 net.cpp:425] pool1/3x3_s2 <- conv1/7x7_s2
I0403 15:22:21.355047 19221 net.cpp:399] pool1/3x3_s2 -> pool1/3x3_s2
I0403 15:22:21.355125 19221 net.cpp:141] Setting up pool1/3x3_s2
I0403 15:22:21.355149 19221 net.cpp:148] Top shape: 24 64 56 56 (4816896)
I0403 15:22:21.355164 19221 net.cpp:156] Memory required for data: 187860000
I0403 15:22:21.355178 19221 layer_factory.hpp:77] Creating layer pool1/norm1
I0403 15:22:21.355206 19221 net.cpp:91] Creating Layer pool1/norm1
I0403 15:22:21.355223 19221 net.cpp:425] pool1/norm1 <- pool1/3x3_s2
I0403 15:22:21.355240 19221 net.cpp:399] pool1/norm1 -> pool1/norm1
I0403 15:22:21.355541 19221 net.cpp:141] Setting up pool1/norm1
I0403 15:22:21.355567 19221 net.cpp:148] Top shape: 24 64 56 56 (4816896)
I0403 15:22:21.355582 19221 net.cpp:156] Memory required for data: 207127584
I0403 15:22:21.355597 19221 layer_factory.hpp:77] Creating layer conv2/3x3_reduce
I0403 15:22:21.355623 19221 net.cpp:91] Creating Layer conv2/3x3_reduce
I0403 15:22:21.355640 19221 net.cpp:425] conv2/3x3_reduce <- pool1/norm1
I0403 15:22:21.355661 19221 net.cpp:399] conv2/3x3_reduce -> conv2/3x3_reduce
I0403 15:22:21.357091 19221 net.cpp:141] Setting up conv2/3x3_reduce
I0403 15:22:21.357123 19221 net.cpp:148] Top shape: 24 64 56 56 (4816896)
I0403 15:22:21.357141 19221 net.cpp:156] Memory required for data: 226395168
I0403 15:22:21.357159 19221 layer_factory.hpp:77] Creating layer conv2/relu_3x3_reduce
I0403 15:22:21.357177 19221 net.cpp:91] Creating Layer conv2/relu_3x3_reduce
I0403 15:22:21.357192 19221 net.cpp:425] conv2/relu_3x3_reduce <- conv2/3x3_reduce
I0403 15:22:21.357213 19221 net.cpp:386] conv2/relu_3x3_reduce -> conv2/3x3_reduce (in-place)
I0403 15:22:21.357475 19221 net.cpp:141] Setting up conv2/relu_3x3_reduce
I0403 15:22:21.357502 19221 net.cpp:148] Top shape: 24 64 56 56 (4816896)
I0403 15:22:21.357517 19221 net.cpp:156] Memory required for data: 245662752
I0403 15:22:21.357532 19221 layer_factory.hpp:77] Creating layer conv2/3x3
I0403 15:22:21.357554 19221 net.cpp:91] Creating Layer conv2/3x3
I0403 15:22:21.357571 19221 net.cpp:425] conv2/3x3 <- conv2/3x3_reduce
I0403 15:22:21.357594 19221 net.cpp:399] conv2/3x3 -> conv2/3x3
I0403 15:22:21.359925 19221 net.cpp:141] Setting up conv2/3x3
I0403 15:22:21.359957 19221 net.cpp:148] Top shape: 24 192 56 56 (14450688)
I0403 15:22:21.359974 19221 net.cpp:156] Memory required for data: 303465504
I0403 15:22:21.359999 19221 layer_factory.hpp:77] Creating layer conv2/relu_3x3
I0403 15:22:21.360019 19221 net.cpp:91] Creating Layer conv2/relu_3x3
I0403 15:22:21.360035 19221 net.cpp:425] conv2/relu_3x3 <- conv2/3x3
I0403 15:22:21.360054 19221 net.cpp:386] conv2/relu_3x3 -> conv2/3x3 (in-place)
I0403 15:22:21.360227 19221 net.cpp:141] Setting up conv2/relu_3x3
I0403 15:22:21.360252 19221 net.cpp:148] Top shape: 24 192 56 56 (14450688)
I0403 15:22:21.360297 19221 net.cpp:156] Memory required for data: 361268256
I0403 15:22:21.360312 19221 layer_factory.hpp:77] Creating layer conv2/norm2
I0403 15:22:21.360333 19221 net.cpp:91] Creating Layer conv2/norm2
I0403 15:22:21.360349 19221 net.cpp:425] conv2/norm2 <- conv2/3x3
I0403 15:22:21.360366 19221 net.cpp:399] conv2/norm2 -> conv2/norm2
I0403 15:22:21.360668 19221 net.cpp:141] Setting up conv2/norm2
I0403 15:22:21.360697 19221 net.cpp:148] Top shape: 24 192 56 56 (14450688)
I0403 15:22:21.360713 19221 net.cpp:156] Memory required for data: 419071008
I0403 15:22:21.360728 19221 layer_factory.hpp:77] Creating layer pool2/3x3_s2
I0403 15:22:21.360743 19221 net.cpp:91] Creating Layer pool2/3x3_s2
I0403 15:22:21.360759 19221 net.cpp:425] pool2/3x3_s2 <- conv2/norm2
I0403 15:22:21.360776 19221 net.cpp:399] pool2/3x3_s2 -> pool2/3x3_s2
I0403 15:22:21.360832 19221 net.cpp:141] Setting up pool2/3x3_s2
I0403 15:22:21.360854 19221 net.cpp:148] Top shape: 24 192 28 28 (3612672)
I0403 15:22:21.360868 19221 net.cpp:156] Memory required for data: 433521696
I0403 15:22:21.360882 19221 layer_factory.hpp:77] Creating layer pool2/3x3_s2_pool2/3x3_s2_0_split
I0403 15:22:21.360899 19221 net.cpp:91] Creating Layer pool2/3x3_s2_pool2/3x3_s2_0_split
I0403 15:22:21.360914 19221 net.cpp:425] pool2/3x3_s2_pool2/3x3_s2_0_split <- pool2/3x3_s2
I0403 15:22:21.360945 19221 net.cpp:399] pool2/3x3_s2_pool2/3x3_s2_0_split -> pool2/3x3_s2_pool2/3x3_s2_0_split_0
I0403 15:22:21.360965 19221 net.cpp:399] pool2/3x3_s2_pool2/3x3_s2_0_split -> pool2/3x3_s2_pool2/3x3_s2_0_split_1
I0403 15:22:21.360983 19221 net.cpp:399] pool2/3x3_s2_pool2/3x3_s2_0_split -> pool2/3x3_s2_pool2/3x3_s2_0_split_2
I0403 15:22:21.361024 19221 net.cpp:399] pool2/3x3_s2_pool2/3x3_s2_0_split -> pool2/3x3_s2_pool2/3x3_s2_0_split_3
I0403 15:22:21.361096 19221 net.cpp:141] Setting up pool2/3x3_s2_pool2/3x3_s2_0_split
I0403 15:22:21.361119 19221 net.cpp:148] Top shape: 24 192 28 28 (3612672)
I0403 15:22:21.361135 19221 net.cpp:148] Top shape: 24 192 28 28 (3612672)
I0403 15:22:21.361150 19221 net.cpp:148] Top shape: 24 192 28 28 (3612672)
I0403 15:22:21.361166 19221 net.cpp:148] Top shape: 24 192 28 28 (3612672)
I0403 15:22:21.361178 19221 net.cpp:156] Memory required for data: 491324448
I0403 15:22:21.361192 19221 layer_factory.hpp:77] Creating layer inception_3a/1x1
I0403 15:22:21.361214 19221 net.cpp:91] Creating Layer inception_3a/1x1
I0403 15:22:21.361232 19221 net.cpp:425] inception_3a/1x1 <- pool2/3x3_s2_pool2/3x3_s2_0_split_0
I0403 15:22:21.361251 19221 net.cpp:399] inception_3a/1x1 -> inception_3a/1x1
I0403 15:22:21.362789 19221 net.cpp:141] Setting up inception_3a/1x1
I0403 15:22:21.362820 19221 net.cpp:148] Top shape: 24 64 28 28 (1204224)
I0403 15:22:21.362836 19221 net.cpp:156] Memory required for data: 496141344
I0403 15:22:21.362855 19221 layer_factory.hpp:77] Creating layer inception_3a/relu_1x1
I0403 15:22:21.362874 19221 net.cpp:91] Creating Layer inception_3a/relu_1x1
I0403 15:22:21.362889 19221 net.cpp:425] inception_3a/relu_1x1 <- inception_3a/1x1
I0403 15:22:21.362908 19221 net.cpp:386] inception_3a/relu_1x1 -> inception_3a/1x1 (in-place)
I0403 15:22:21.363086 19221 net.cpp:141] Setting up inception_3a/relu_1x1
I0403 15:22:21.363111 19221 net.cpp:148] Top shape: 24 64 28 28 (1204224)
I0403 15:22:21.363126 19221 net.cpp:156] Memory required for data: 500958240
I0403 15:22:21.363140 19221 layer_factory.hpp:77] Creating layer inception_3a/3x3_reduce
I0403 15:22:21.363162 19221 net.cpp:91] Creating Layer inception_3a/3x3_reduce
I0403 15:22:21.363180 19221 net.cpp:425] inception_3a/3x3_reduce <- pool2/3x3_s2_pool2/3x3_s2_0_split_1
I0403 15:22:21.363201 19221 net.cpp:399] inception_3a/3x3_reduce -> inception_3a/3x3_reduce
I0403 15:22:21.364929 19221 net.cpp:141] Setting up inception_3a/3x3_reduce
I0403 15:22:21.364960 19221 net.cpp:148] Top shape: 24 96 28 28 (1806336)
I0403 15:22:21.364977 19221 net.cpp:156] Memory required for data: 508183584
I0403 15:22:21.365002 19221 layer_factory.hpp:77] Creating layer inception_3a/relu_3x3_reduce
I0403 15:22:21.365038 19221 net.cpp:91] Creating Layer inception_3a/relu_3x3_reduce
I0403 15:22:21.365056 19221 net.cpp:425] inception_3a/relu_3x3_reduce <- inception_3a/3x3_reduce
I0403 15:22:21.365075 19221 net.cpp:386] inception_3a/relu_3x3_reduce -> inception_3a/3x3_reduce (in-place)
I0403 15:22:21.365252 19221 net.cpp:141] Setting up inception_3a/relu_3x3_reduce
I0403 15:22:21.365279 19221 net.cpp:148] Top shape: 24 96 28 28 (1806336)
I0403 15:22:21.365294 19221 net.cpp:156] Memory required for data: 515408928
I0403 15:22:21.365309 19221 layer_factory.hpp:77] Creating layer inception_3a/3x3
I0403 15:22:21.365331 19221 net.cpp:91] Creating Layer inception_3a/3x3
I0403 15:22:21.365348 19221 net.cpp:425] inception_3a/3x3 <- inception_3a/3x3_reduce
I0403 15:22:21.365367 19221 net.cpp:399] inception_3a/3x3 -> inception_3a/3x3
I0403 15:22:21.367000 19221 net.cpp:141] Setting up inception_3a/3x3
I0403 15:22:21.367027 19221 net.cpp:148] Top shape: 24 128 28 28 (2408448)
I0403 15:22:21.367043 19221 net.cpp:156] Memory required for data: 525042720
I0403 15:22:21.367061 19221 layer_factory.hpp:77] Creating layer inception_3a/relu_3x3
I0403 15:22:21.367079 19221 net.cpp:91] Creating Layer inception_3a/relu_3x3
I0403 15:22:21.367095 19221 net.cpp:425] inception_3a/relu_3x3 <- inception_3a/3x3
I0403 15:22:21.367115 19221 net.cpp:386] inception_3a/relu_3x3 -> inception_3a/3x3 (in-place)
I0403 15:22:21.367391 19221 net.cpp:141] Setting up inception_3a/relu_3x3
I0403 15:22:21.367418 19221 net.cpp:148] Top shape: 24 128 28 28 (2408448)
I0403 15:22:21.367432 19221 net.cpp:156] Memory required for data: 534676512
I0403 15:22:21.367446 19221 layer_factory.hpp:77] Creating layer inception_3a/5x5_reduce
I0403 15:22:21.367468 19221 net.cpp:91] Creating Layer inception_3a/5x5_reduce
I0403 15:22:21.367486 19221 net.cpp:425] inception_3a/5x5_reduce <- pool2/3x3_s2_pool2/3x3_s2_0_split_2
I0403 15:22:21.367506 19221 net.cpp:399] inception_3a/5x5_reduce -> inception_3a/5x5_reduce
I0403 15:22:21.368494 19221 net.cpp:141] Setting up inception_3a/5x5_reduce
I0403 15:22:21.368522 19221 net.cpp:148] Top shape: 24 16 28 28 (301056)
I0403 15:22:21.368537 19221 net.cpp:156] Memory required for data: 535880736
I0403 15:22:21.368556 19221 layer_factory.hpp:77] Creating layer inception_3a/relu_5x5_reduce
I0403 15:22:21.368577 19221 net.cpp:91] Creating Layer inception_3a/relu_5x5_reduce
I0403 15:22:21.368592 19221 net.cpp:425] inception_3a/relu_5x5_reduce <- inception_3a/5x5_reduce
I0403 15:22:21.368610 19221 net.cpp:386] inception_3a/relu_5x5_reduce -> inception_3a/5x5_reduce (in-place)
I0403 15:22:21.368896 19221 net.cpp:141] Setting up inception_3a/relu_5x5_reduce
I0403 15:22:21.368922 19221 net.cpp:148] Top shape: 24 16 28 28 (301056)
I0403 15:22:21.368937 19221 net.cpp:156] Memory required for data: 537084960
I0403 15:22:21.368950 19221 layer_factory.hpp:77] Creating layer inception_3a/5x5
I0403 15:22:21.368973 19221 net.cpp:91] Creating Layer inception_3a/5x5
I0403 15:22:21.368993 19221 net.cpp:425] inception_3a/5x5 <- inception_3a/5x5_reduce
I0403 15:22:21.369016 19221 net.cpp:399] inception_3a/5x5 -> inception_3a/5x5
I0403 15:22:21.370031 19221 net.cpp:141] Setting up inception_3a/5x5
I0403 15:22:21.370061 19221 net.cpp:148] Top shape: 24 32 28 28 (602112)
I0403 15:22:21.370077 19221 net.cpp:156] Memory required for data: 539493408
I0403 15:22:21.370095 19221 layer_factory.hpp:77] Creating layer inception_3a/relu_5x5
I0403 15:22:21.370112 19221 net.cpp:91] Creating Layer inception_3a/relu_5x5
I0403 15:22:21.370129 19221 net.cpp:425] inception_3a/relu_5x5 <- inception_3a/5x5
I0403 15:22:21.370149 19221 net.cpp:386] inception_3a/relu_5x5 -> inception_3a/5x5 (in-place)
I0403 15:22:21.370335 19221 net.cpp:141] Setting up inception_3a/relu_5x5
I0403 15:22:21.370359 19221 net.cpp:148] Top shape: 24 32 28 28 (602112)
I0403 15:22:21.370374 19221 net.cpp:156] Memory required for data: 541901856
I0403 15:22:21.370388 19221 layer_factory.hpp:77] Creating layer inception_3a/pool
I0403 15:22:21.370405 19221 net.cpp:91] Creating Layer inception_3a/pool
I0403 15:22:21.370435 19221 net.cpp:425] inception_3a/pool <- pool2/3x3_s2_pool2/3x3_s2_0_split_3
I0403 15:22:21.370456 19221 net.cpp:399] inception_3a/pool -> inception_3a/pool
I0403 15:22:21.370513 19221 net.cpp:141] Setting up inception_3a/pool
I0403 15:22:21.370537 19221 net.cpp:148] Top shape: 24 192 28 28 (3612672)
I0403 15:22:21.370550 19221 net.cpp:156] Memory required for data: 556352544
I0403 15:22:21.370564 19221 layer_factory.hpp:77] Creating layer inception_3a/pool_proj
I0403 15:22:21.370587 19221 net.cpp:91] Creating Layer inception_3a/pool_proj
I0403 15:22:21.370605 19221 net.cpp:425] inception_3a/pool_proj <- inception_3a/pool
I0403 15:22:21.370623 19221 net.cpp:399] inception_3a/pool_proj -> inception_3a/pool_proj
I0403 15:22:21.371578 19221 net.cpp:141] Setting up inception_3a/pool_proj
I0403 15:22:21.371606 19221 net.cpp:148] Top shape: 24 32 28 28 (602112)
I0403 15:22:21.371620 19221 net.cpp:156] Memory required for data: 558760992
I0403 15:22:21.371644 19221 layer_factory.hpp:77] Creating layer inception_3a/relu_pool_proj
I0403 15:22:21.371665 19221 net.cpp:91] Creating Layer inception_3a/relu_pool_proj
I0403 15:22:21.371682 19221 net.cpp:425] inception_3a/relu_pool_proj <- inception_3a/pool_proj
I0403 15:22:21.371698 19221 net.cpp:386] inception_3a/relu_pool_proj -> inception_3a/pool_proj (in-place)
I0403 15:22:21.371968 19221 net.cpp:141] Setting up inception_3a/relu_pool_proj
I0403 15:22:21.371999 19221 net.cpp:148] Top shape: 24 32 28 28 (602112)
I0403 15:22:21.372014 19221 net.cpp:156] Memory required for data: 561169440
I0403 15:22:21.372027 19221 layer_factory.hpp:77] Creating layer inception_3a/output
I0403 15:22:21.372045 19221 net.cpp:91] Creating Layer inception_3a/output
I0403 15:22:21.372061 19221 net.cpp:425] inception_3a/output <- inception_3a/1x1
I0403 15:22:21.372076 19221 net.cpp:425] inception_3a/output <- inception_3a/3x3
I0403 15:22:21.372092 19221 net.cpp:425] inception_3a/output <- inception_3a/5x5
I0403 15:22:21.372107 19221 net.cpp:425] inception_3a/output <- inception_3a/pool_proj
I0403 15:22:21.372126 19221 net.cpp:399] inception_3a/output -> inception_3a/output
I0403 15:22:21.372171 19221 net.cpp:141] Setting up inception_3a/output
I0403 15:22:21.372194 19221 net.cpp:148] Top shape: 24 256 28 28 (4816896)
I0403 15:22:21.372208 19221 net.cpp:156] Memory required for data: 580437024
I0403 15:22:21.372222 19221 layer_factory.hpp:77] Creating layer inception_3a/output_inception_3a/output_0_split
I0403 15:22:21.372241 19221 net.cpp:91] Creating Layer inception_3a/output_inception_3a/output_0_split
I0403 15:22:21.372258 19221 net.cpp:425] inception_3a/output_inception_3a/output_0_split <- inception_3a/output
I0403 15:22:21.372275 19221 net.cpp:399] inception_3a/output_inception_3a/output_0_split -> inception_3a/output_inception_3a/output_0_split_0
I0403 15:22:21.372297 19221 net.cpp:399] inception_3a/output_inception_3a/output_0_split -> inception_3a/output_inception_3a/output_0_split_1
I0403 15:22:21.372318 19221 net.cpp:399] inception_3a/output_inception_3a/output_0_split -> inception_3a/output_inception_3a/output_0_split_2
I0403 15:22:21.372339 19221 net.cpp:399] inception_3a/output_inception_3a/output_0_split -> inception_3a/output_inception_3a/output_0_split_3
I0403 15:22:21.372411 19221 net.cpp:141] Setting up inception_3a/output_inception_3a/output_0_split
I0403 15:22:21.372436 19221 net.cpp:148] Top shape: 24 256 28 28 (4816896)
I0403 15:22:21.372453 19221 net.cpp:148] Top shape: 24 256 28 28 (4816896)
I0403 15:22:21.372468 19221 net.cpp:148] Top shape: 24 256 28 28 (4816896)
I0403 15:22:21.372483 19221 net.cpp:148] Top shape: 24 256 28 28 (4816896)
I0403 15:22:21.372496 19221 net.cpp:156] Memory required for data: 657507360
I0403 15:22:21.372510 19221 layer_factory.hpp:77] Creating layer inception_3b/1x1
I0403 15:22:21.372532 19221 net.cpp:91] Creating Layer inception_3b/1x1
I0403 15:22:21.372550 19221 net.cpp:425] inception_3b/1x1 <- inception_3a/output_inception_3a/output_0_split_0
I0403 15:22:21.372570 19221 net.cpp:399] inception_3b/1x1 -> inception_3b/1x1
I0403 15:22:21.373718 19221 net.cpp:141] Setting up inception_3b/1x1
I0403 15:22:21.373759 19221 net.cpp:148] Top shape: 24 128 28 28 (2408448)
I0403 15:22:21.373776 19221 net.cpp:156] Memory required for data: 667141152
I0403 15:22:21.373793 19221 layer_factory.hpp:77] Creating layer inception_3b/relu_1x1
I0403 15:22:21.373812 19221 net.cpp:91] Creating Layer inception_3b/relu_1x1
I0403 15:22:21.373827 19221 net.cpp:425] inception_3b/relu_1x1 <- inception_3b/1x1
I0403 15:22:21.373843 19221 net.cpp:386] inception_3b/relu_1x1 -> inception_3b/1x1 (in-place)
I0403 15:22:21.374025 19221 net.cpp:141] Setting up inception_3b/relu_1x1
I0403 15:22:21.374050 19221 net.cpp:148] Top shape: 24 128 28 28 (2408448)
I0403 15:22:21.374064 19221 net.cpp:156] Memory required for data: 676774944
I0403 15:22:21.374078 19221 layer_factory.hpp:77] Creating layer inception_3b/3x3_reduce
I0403 15:22:21.374101 19221 net.cpp:91] Creating Layer inception_3b/3x3_reduce
I0403 15:22:21.374119 19221 net.cpp:425] inception_3b/3x3_reduce <- inception_3a/output_inception_3a/output_0_split_1
I0403 15:22:21.374138 19221 net.cpp:399] inception_3b/3x3_reduce -> inception_3b/3x3_reduce
I0403 15:22:21.375252 19221 net.cpp:141] Setting up inception_3b/3x3_reduce
I0403 15:22:21.375282 19221 net.cpp:148] Top shape: 24 128 28 28 (2408448)
I0403 15:22:21.375298 19221 net.cpp:156] Memory required for data: 686408736
I0403 15:22:21.375315 19221 layer_factory.hpp:77] Creating layer inception_3b/relu_3x3_reduce
I0403 15:22:21.375334 19221 net.cpp:91] Creating Layer inception_3b/relu_3x3_reduce
I0403 15:22:21.375349 19221 net.cpp:425] inception_3b/relu_3x3_reduce <- inception_3b/3x3_reduce
I0403 15:22:21.375367 19221 net.cpp:386] inception_3b/relu_3x3_reduce -> inception_3b/3x3_reduce (in-place)
I0403 15:22:21.375535 19221 net.cpp:141] Setting up inception_3b/relu_3x3_reduce
I0403 15:22:21.375560 19221 net.cpp:148] Top shape: 24 128 28 28 (2408448)
I0403 15:22:21.375576 19221 net.cpp:156] Memory required for data: 696042528
I0403 15:22:21.375589 19221 layer_factory.hpp:77] Creating layer inception_3b/3x3
I0403 15:22:21.375615 19221 net.cpp:91] Creating Layer inception_3b/3x3
I0403 15:22:21.375633 19221 net.cpp:425] inception_3b/3x3 <- inception_3b/3x3_reduce
I0403 15:22:21.375650 19221 net.cpp:399] inception_3b/3x3 -> inception_3b/3x3
I0403 15:22:21.378561 19221 net.cpp:141] Setting up inception_3b/3x3
I0403 15:22:21.378590 19221 net.cpp:148] Top shape: 24 192 28 28 (3612672)
I0403 15:22:21.378607 19221 net.cpp:156] Memory required for data: 710493216
I0403 15:22:21.378624 19221 layer_factory.hpp:77] Creating layer inception_3b/relu_3x3
I0403 15:22:21.378641 19221 net.cpp:91] Creating Layer inception_3b/relu_3x3
I0403 15:22:21.378657 19221 net.cpp:425] inception_3b/relu_3x3 <- inception_3b/3x3
I0403 15:22:21.378676 19221 net.cpp:386] inception_3b/relu_3x3 -> inception_3b/3x3 (in-place)
I0403 15:22:21.378949 19221 net.cpp:141] Setting up inception_3b/relu_3x3
I0403 15:22:21.378976 19221 net.cpp:148] Top shape: 24 192 28 28 (3612672)
I0403 15:22:21.379001 19221 net.cpp:156] Memory required for data: 724943904
I0403 15:22:21.379019 19221 layer_factory.hpp:77] Creating layer inception_3b/5x5_reduce
I0403 15:22:21.379043 19221 net.cpp:91] Creating Layer inception_3b/5x5_reduce
I0403 15:22:21.379062 19221 net.cpp:425] inception_3b/5x5_reduce <- inception_3a/output_inception_3a/output_0_split_2
I0403 15:22:21.379083 19221 net.cpp:399] inception_3b/5x5_reduce -> inception_3b/5x5_reduce
I0403 15:22:21.380065 19221 net.cpp:141] Setting up inception_3b/5x5_reduce
I0403 15:22:21.380095 19221 net.cpp:148] Top shape: 24 32 28 28 (602112)
I0403 15:22:21.380111 19221 net.cpp:156] Memory required for data: 727352352
I0403 15:22:21.380128 19221 layer_factory.hpp:77] Creating layer inception_3b/relu_5x5_reduce
I0403 15:22:21.380146 19221 net.cpp:91] Creating Layer inception_3b/relu_5x5_reduce
I0403 15:22:21.380162 19221 net.cpp:425] inception_3b/relu_5x5_reduce <- inception_3b/5x5_reduce
I0403 15:22:21.380182 19221 net.cpp:386] inception_3b/relu_5x5_reduce -> inception_3b/5x5_reduce (in-place)
I0403 15:22:21.380369 19221 net.cpp:141] Setting up inception_3b/relu_5x5_reduce
I0403 15:22:21.380394 19221 net.cpp:148] Top shape: 24 32 28 28 (602112)
I0403 15:22:21.380409 19221 net.cpp:156] Memory required for data: 729760800
I0403 15:22:21.380424 19221 layer_factory.hpp:77] Creating layer inception_3b/5x5
I0403 15:22:21.380445 19221 net.cpp:91] Creating Layer inception_3b/5x5
I0403 15:22:21.380462 19221 net.cpp:425] inception_3b/5x5 <- inception_3b/5x5_reduce
I0403 15:22:21.380484 19221 net.cpp:399] inception_3b/5x5 -> inception_3b/5x5
I0403 15:22:21.382453 19221 net.cpp:141] Setting up inception_3b/5x5
I0403 15:22:21.382482 19221 net.cpp:148] Top shape: 24 96 28 28 (1806336)
I0403 15:22:21.382496 19221 net.cpp:156] Memory required for data: 736986144
I0403 15:22:21.382513 19221 layer_factory.hpp:77] Creating layer inception_3b/relu_5x5
I0403 15:22:21.382534 19221 net.cpp:91] Creating Layer inception_3b/relu_5x5
I0403 15:22:21.382550 19221 net.cpp:425] inception_3b/relu_5x5 <- inception_3b/5x5
I0403 15:22:21.382566 19221 net.cpp:386] inception_3b/relu_5x5 -> inception_3b/5x5 (in-place)
I0403 15:22:21.382756 19221 net.cpp:141] Setting up inception_3b/relu_5x5
I0403 15:22:21.382781 19221 net.cpp:148] Top shape: 24 96 28 28 (1806336)
I0403 15:22:21.382796 19221 net.cpp:156] Memory required for data: 744211488
I0403 15:22:21.382809 19221 layer_factory.hpp:77] Creating layer inception_3b/pool
I0403 15:22:21.382827 19221 net.cpp:91] Creating Layer inception_3b/pool
I0403 15:22:21.382843 19221 net.cpp:425] inception_3b/pool <- inception_3a/output_inception_3a/output_0_split_3
I0403 15:22:21.382860 19221 net.cpp:399] inception_3b/pool -> inception_3b/pool
I0403 15:22:21.382915 19221 net.cpp:141] Setting up inception_3b/pool
I0403 15:22:21.382937 19221 net.cpp:148] Top shape: 24 256 28 28 (4816896)
I0403 15:22:21.382951 19221 net.cpp:156] Memory required for data: 763479072
I0403 15:22:21.382966 19221 layer_factory.hpp:77] Creating layer inception_3b/pool_proj
I0403 15:22:21.382993 19221 net.cpp:91] Creating Layer inception_3b/pool_proj
I0403 15:22:21.383013 19221 net.cpp:425] inception_3b/pool_proj <- inception_3b/pool
I0403 15:22:21.383030 19221 net.cpp:399] inception_3b/pool_proj -> inception_3b/pool_proj
I0403 15:22:21.384065 19221 net.cpp:141] Setting up inception_3b/pool_proj
I0403 15:22:21.384093 19221 net.cpp:148] Top shape: 24 64 28 28 (1204224)
I0403 15:22:21.384107 19221 net.cpp:156] Memory required for data: 768295968
I0403 15:22:21.384126 19221 layer_factory.hpp:77] Creating layer inception_3b/relu_pool_proj
I0403 15:22:21.384145 19221 net.cpp:91] Creating Layer inception_3b/relu_pool_proj
I0403 15:22:21.384161 19221 net.cpp:425] inception_3b/relu_pool_proj <- inception_3b/pool_proj
I0403 15:22:21.384178 19221 net.cpp:386] inception_3b/relu_pool_proj -> inception_3b/pool_proj (in-place)
I0403 15:22:21.384565 19221 net.cpp:141] Setting up inception_3b/relu_pool_proj
I0403 15:22:21.384591 19221 net.cpp:148] Top shape: 24 64 28 28 (1204224)
I0403 15:22:21.384605 19221 net.cpp:156] Memory required for data: 773112864
I0403 15:22:21.384620 19221 layer_factory.hpp:77] Creating layer inception_3b/output
I0403 15:22:21.384637 19221 net.cpp:91] Creating Layer inception_3b/output
I0403 15:22:21.384652 19221 net.cpp:425] inception_3b/output <- inception_3b/1x1
I0403 15:22:21.384668 19221 net.cpp:425] inception_3b/output <- inception_3b/3x3
I0403 15:22:21.384687 19221 net.cpp:425] inception_3b/output <- inception_3b/5x5
I0403 15:22:21.384704 19221 net.cpp:425] inception_3b/output <- inception_3b/pool_proj
I0403 15:22:21.384721 19221 net.cpp:399] inception_3b/output -> inception_3b/output
I0403 15:22:21.384763 19221 net.cpp:141] Setting up inception_3b/output
I0403 15:22:21.384788 19221 net.cpp:148] Top shape: 24 480 28 28 (9031680)
I0403 15:22:21.384804 19221 net.cpp:156] Memory required for data: 809239584
I0403 15:22:21.384817 19221 layer_factory.hpp:77] Creating layer pool3/3x3_s2
I0403 15:22:21.384835 19221 net.cpp:91] Creating Layer pool3/3x3_s2
I0403 15:22:21.384850 19221 net.cpp:425] pool3/3x3_s2 <- inception_3b/output
I0403 15:22:21.384884 19221 net.cpp:399] pool3/3x3_s2 -> pool3/3x3_s2
I0403 15:22:21.384943 19221 net.cpp:141] Setting up pool3/3x3_s2
I0403 15:22:21.384965 19221 net.cpp:148] Top shape: 24 480 14 14 (2257920)
I0403 15:22:21.384979 19221 net.cpp:156] Memory required for data: 818271264
I0403 15:22:21.384999 19221 layer_factory.hpp:77] Creating layer pool3/3x3_s2_pool3/3x3_s2_0_split
I0403 15:22:21.385020 19221 net.cpp:91] Creating Layer pool3/3x3_s2_pool3/3x3_s2_0_split
I0403 15:22:21.385035 19221 net.cpp:425] pool3/3x3_s2_pool3/3x3_s2_0_split <- pool3/3x3_s2
I0403 15:22:21.385052 19221 net.cpp:399] pool3/3x3_s2_pool3/3x3_s2_0_split -> pool3/3x3_s2_pool3/3x3_s2_0_split_0
I0403 15:22:21.385071 19221 net.cpp:399] pool3/3x3_s2_pool3/3x3_s2_0_split -> pool3/3x3_s2_pool3/3x3_s2_0_split_1
I0403 15:22:21.385092 19221 net.cpp:399] pool3/3x3_s2_pool3/3x3_s2_0_split -> pool3/3x3_s2_pool3/3x3_s2_0_split_2
I0403 15:22:21.385113 19221 net.cpp:399] pool3/3x3_s2_pool3/3x3_s2_0_split -> pool3/3x3_s2_pool3/3x3_s2_0_split_3
I0403 15:22:21.385190 19221 net.cpp:141] Setting up pool3/3x3_s2_pool3/3x3_s2_0_split
I0403 15:22:21.385213 19221 net.cpp:148] Top shape: 24 480 14 14 (2257920)
I0403 15:22:21.385228 19221 net.cpp:148] Top shape: 24 480 14 14 (2257920)
I0403 15:22:21.385243 19221 net.cpp:148] Top shape: 24 480 14 14 (2257920)
I0403 15:22:21.385258 19221 net.cpp:148] Top shape: 24 480 14 14 (2257920)
I0403 15:22:21.385272 19221 net.cpp:156] Memory required for data: 854397984
I0403 15:22:21.385285 19221 layer_factory.hpp:77] Creating layer inception_4a/1x1
I0403 15:22:21.385308 19221 net.cpp:91] Creating Layer inception_4a/1x1
I0403 15:22:21.385324 19221 net.cpp:425] inception_4a/1x1 <- pool3/3x3_s2_pool3/3x3_s2_0_split_0
I0403 15:22:21.385345 19221 net.cpp:399] inception_4a/1x1 -> inception_4a/1x1
I0403 15:22:21.386888 19221 net.cpp:141] Setting up inception_4a/1x1
I0403 15:22:21.386914 19221 net.cpp:148] Top shape: 24 192 14 14 (903168)
I0403 15:22:21.386929 19221 net.cpp:156] Memory required for data: 858010656
I0403 15:22:21.386947 19221 layer_factory.hpp:77] Creating layer inception_4a/relu_1x1
I0403 15:22:21.386967 19221 net.cpp:91] Creating Layer inception_4a/relu_1x1
I0403 15:22:21.386988 19221 net.cpp:425] inception_4a/relu_1x1 <- inception_4a/1x1
I0403 15:22:21.387007 19221 net.cpp:386] inception_4a/relu_1x1 -> inception_4a/1x1 (in-place)
I0403 15:22:21.387179 19221 net.cpp:141] Setting up inception_4a/relu_1x1
I0403 15:22:21.387207 19221 net.cpp:148] Top shape: 24 192 14 14 (903168)
I0403 15:22:21.387223 19221 net.cpp:156] Memory required for data: 861623328
I0403 15:22:21.387238 19221 layer_factory.hpp:77] Creating layer inception_4a/3x3_reduce
I0403 15:22:21.387259 19221 net.cpp:91] Creating Layer inception_4a/3x3_reduce
I0403 15:22:21.387275 19221 net.cpp:425] inception_4a/3x3_reduce <- pool3/3x3_s2_pool3/3x3_s2_0_split_1
I0403 15:22:21.387295 19221 net.cpp:399] inception_4a/3x3_reduce -> inception_4a/3x3_reduce
I0403 15:22:21.388555 19221 net.cpp:141] Setting up inception_4a/3x3_reduce
I0403 15:22:21.388581 19221 net.cpp:148] Top shape: 24 96 14 14 (451584)
I0403 15:22:21.388597 19221 net.cpp:156] Memory required for data: 863429664
I0403 15:22:21.388622 19221 layer_factory.hpp:77] Creating layer inception_4a/relu_3x3_reduce
I0403 15:22:21.388641 19221 net.cpp:91] Creating Layer inception_4a/relu_3x3_reduce
I0403 15:22:21.388658 19221 net.cpp:425] inception_4a/relu_3x3_reduce <- inception_4a/3x3_reduce
I0403 15:22:21.388676 19221 net.cpp:386] inception_4a/relu_3x3_reduce -> inception_4a/3x3_reduce (in-place)
I0403 15:22:21.388850 19221 net.cpp:141] Setting up inception_4a/relu_3x3_reduce
I0403 15:22:21.388877 19221 net.cpp:148] Top shape: 24 96 14 14 (451584)
I0403 15:22:21.388892 19221 net.cpp:156] Memory required for data: 865236000
I0403 15:22:21.388906 19221 layer_factory.hpp:77] Creating layer inception_4a/3x3
I0403 15:22:21.388929 19221 net.cpp:91] Creating Layer inception_4a/3x3
I0403 15:22:21.388947 19221 net.cpp:425] inception_4a/3x3 <- inception_4a/3x3_reduce
I0403 15:22:21.388965 19221 net.cpp:399] inception_4a/3x3 -> inception_4a/3x3
I0403 15:22:21.391639 19221 net.cpp:141] Setting up inception_4a/3x3
I0403 15:22:21.391670 19221 net.cpp:148] Top shape: 24 208 14 14 (978432)
I0403 15:22:21.391687 19221 net.cpp:156] Memory required for data: 869149728
I0403 15:22:21.391705 19221 layer_factory.hpp:77] Creating layer inception_4a/relu_3x3
I0403 15:22:21.391723 19221 net.cpp:91] Creating Layer inception_4a/relu_3x3
I0403 15:22:21.391738 19221 net.cpp:425] inception_4a/relu_3x3 <- inception_4a/3x3
I0403 15:22:21.391757 19221 net.cpp:386] inception_4a/relu_3x3 -> inception_4a/3x3 (in-place)
I0403 15:22:21.392046 19221 net.cpp:141] Setting up inception_4a/relu_3x3
I0403 15:22:21.392074 19221 net.cpp:148] Top shape: 24 208 14 14 (978432)
I0403 15:22:21.392089 19221 net.cpp:156] Memory required for data: 873063456
I0403 15:22:21.392104 19221 layer_factory.hpp:77] Creating layer inception_4a/5x5_reduce
I0403 15:22:21.392127 19221 net.cpp:91] Creating Layer inception_4a/5x5_reduce
I0403 15:22:21.392144 19221 net.cpp:425] inception_4a/5x5_reduce <- pool3/3x3_s2_pool3/3x3_s2_0_split_2
I0403 15:22:21.392163 19221 net.cpp:399] inception_4a/5x5_reduce -> inception_4a/5x5_reduce
I0403 15:22:21.393174 19221 net.cpp:141] Setting up inception_4a/5x5_reduce
I0403 15:22:21.393204 19221 net.cpp:148] Top shape: 24 16 14 14 (75264)
I0403 15:22:21.393220 19221 net.cpp:156] Memory required for data: 873364512
I0403 15:22:21.393239 19221 layer_factory.hpp:77] Creating layer inception_4a/relu_5x5_reduce
I0403 15:22:21.393255 19221 net.cpp:91] Creating Layer inception_4a/relu_5x5_reduce
I0403 15:22:21.393271 19221 net.cpp:425] inception_4a/relu_5x5_reduce <- inception_4a/5x5_reduce
I0403 15:22:21.393290 19221 net.cpp:386] inception_4a/relu_5x5_reduce -> inception_4a/5x5_reduce (in-place)
I0403 15:22:21.393467 19221 net.cpp:141] Setting up inception_4a/relu_5x5_reduce
I0403 15:22:21.393491 19221 net.cpp:148] Top shape: 24 16 14 14 (75264)
I0403 15:22:21.393507 19221 net.cpp:156] Memory required for data: 873665568
I0403 15:22:21.393520 19221 layer_factory.hpp:77] Creating layer inception_4a/5x5
I0403 15:22:21.393543 19221 net.cpp:91] Creating Layer inception_4a/5x5
I0403 15:22:21.393559 19221 net.cpp:425] inception_4a/5x5 <- inception_4a/5x5_reduce
I0403 15:22:21.393580 19221 net.cpp:399] inception_4a/5x5 -> inception_4a/5x5
I0403 15:22:21.394691 19221 net.cpp:141] Setting up inception_4a/5x5
I0403 15:22:21.394718 19221 net.cpp:148] Top shape: 24 48 14 14 (225792)
I0403 15:22:21.394733 19221 net.cpp:156] Memory required for data: 874568736
I0403 15:22:21.394752 19221 layer_factory.hpp:77] Creating layer inception_4a/relu_5x5
I0403 15:22:21.394772 19221 net.cpp:91] Creating Layer inception_4a/relu_5x5
I0403 15:22:21.394788 19221 net.cpp:425] inception_4a/relu_5x5 <- inception_4a/5x5
I0403 15:22:21.394805 19221 net.cpp:386] inception_4a/relu_5x5 -> inception_4a/5x5 (in-place)
I0403 15:22:21.394982 19221 net.cpp:141] Setting up inception_4a/relu_5x5
I0403 15:22:21.395011 19221 net.cpp:148] Top shape: 24 48 14 14 (225792)
I0403 15:22:21.395025 19221 net.cpp:156] Memory required for data: 875471904
I0403 15:22:21.395040 19221 layer_factory.hpp:77] Creating layer inception_4a/pool
I0403 15:22:21.395063 19221 net.cpp:91] Creating Layer inception_4a/pool
I0403 15:22:21.395081 19221 net.cpp:425] inception_4a/pool <- pool3/3x3_s2_pool3/3x3_s2_0_split_3
I0403 15:22:21.395098 19221 net.cpp:399] inception_4a/pool -> inception_4a/pool
I0403 15:22:21.395160 19221 net.cpp:141] Setting up inception_4a/pool
I0403 15:22:21.395184 19221 net.cpp:148] Top shape: 24 480 14 14 (2257920)
I0403 15:22:21.395197 19221 net.cpp:156] Memory required for data: 884503584
I0403 15:22:21.395211 19221 layer_factory.hpp:77] Creating layer inception_4a/pool_proj
I0403 15:22:21.395232 19221 net.cpp:91] Creating Layer inception_4a/pool_proj
I0403 15:22:21.395249 19221 net.cpp:425] inception_4a/pool_proj <- inception_4a/pool
I0403 15:22:21.395269 19221 net.cpp:399] inception_4a/pool_proj -> inception_4a/pool_proj
I0403 15:22:21.396427 19221 net.cpp:141] Setting up inception_4a/pool_proj
I0403 15:22:21.396456 19221 net.cpp:148] Top shape: 24 64 14 14 (301056)
I0403 15:22:21.396486 19221 net.cpp:156] Memory required for data: 885707808
I0403 15:22:21.396505 19221 layer_factory.hpp:77] Creating layer inception_4a/relu_pool_proj
I0403 15:22:21.396527 19221 net.cpp:91] Creating Layer inception_4a/relu_pool_proj
I0403 15:22:21.396543 19221 net.cpp:425] inception_4a/relu_pool_proj <- inception_4a/pool_proj
I0403 15:22:21.396560 19221 net.cpp:386] inception_4a/relu_pool_proj -> inception_4a/pool_proj (in-place)
I0403 15:22:21.396838 19221 net.cpp:141] Setting up inception_4a/relu_pool_proj
I0403 15:22:21.396864 19221 net.cpp:148] Top shape: 24 64 14 14 (301056)
I0403 15:22:21.396879 19221 net.cpp:156] Memory required for data: 886912032
I0403 15:22:21.396893 19221 layer_factory.hpp:77] Creating layer inception_4a/output
I0403 15:22:21.396913 19221 net.cpp:91] Creating Layer inception_4a/output
I0403 15:22:21.396929 19221 net.cpp:425] inception_4a/output <- inception_4a/1x1
I0403 15:22:21.396956 19221 net.cpp:425] inception_4a/output <- inception_4a/3x3
I0403 15:22:21.396973 19221 net.cpp:425] inception_4a/output <- inception_4a/5x5
I0403 15:22:21.396994 19221 net.cpp:425] inception_4a/output <- inception_4a/pool_proj
I0403 15:22:21.397012 19221 net.cpp:399] inception_4a/output -> inception_4a/output
I0403 15:22:21.397059 19221 net.cpp:141] Setting up inception_4a/output
I0403 15:22:21.397083 19221 net.cpp:148] Top shape: 24 512 14 14 (2408448)
I0403 15:22:21.397099 19221 net.cpp:156] Memory required for data: 896545824
I0403 15:22:21.397114 19221 layer_factory.hpp:77] Creating layer inception_4a/output_inception_4a/output_0_split
I0403 15:22:21.397131 19221 net.cpp:91] Creating Layer inception_4a/output_inception_4a/output_0_split
I0403 15:22:21.397147 19221 net.cpp:425] inception_4a/output_inception_4a/output_0_split <- inception_4a/output
I0403 15:22:21.397167 19221 net.cpp:399] inception_4a/output_inception_4a/output_0_split -> inception_4a/output_inception_4a/output_0_split_0
I0403 15:22:21.397188 19221 net.cpp:399] inception_4a/output_inception_4a/output_0_split -> inception_4a/output_inception_4a/output_0_split_1
I0403 15:22:21.397209 19221 net.cpp:399] inception_4a/output_inception_4a/output_0_split -> inception_4a/output_inception_4a/output_0_split_2
I0403 15:22:21.397229 19221 net.cpp:399] inception_4a/output_inception_4a/output_0_split -> inception_4a/output_inception_4a/output_0_split_3
I0403 15:22:21.397259 19221 net.cpp:399] inception_4a/output_inception_4a/output_0_split -> inception_4a/output_inception_4a/output_0_split_4
I0403 15:22:21.397351 19221 net.cpp:141] Setting up inception_4a/output_inception_4a/output_0_split
I0403 15:22:21.397374 19221 net.cpp:148] Top shape: 24 512 14 14 (2408448)
I0403 15:22:21.397393 19221 net.cpp:148] Top shape: 24 512 14 14 (2408448)
I0403 15:22:21.397409 19221 net.cpp:148] Top shape: 24 512 14 14 (2408448)
I0403 15:22:21.397424 19221 net.cpp:148] Top shape: 24 512 14 14 (2408448)
I0403 15:22:21.397439 19221 net.cpp:148] Top shape: 24 512 14 14 (2408448)
I0403 15:22:21.397452 19221 net.cpp:156] Memory required for data: 944714784
I0403 15:22:21.397466 19221 layer_factory.hpp:77] Creating layer loss1/ave_pool
I0403 15:22:21.397485 19221 net.cpp:91] Creating Layer loss1/ave_pool
I0403 15:22:21.397500 19221 net.cpp:425] loss1/ave_pool <- inception_4a/output_inception_4a/output_0_split_0
I0403 15:22:21.397519 19221 net.cpp:399] loss1/ave_pool -> loss1/ave_pool
I0403 15:22:21.397722 19221 net.cpp:141] Setting up loss1/ave_pool
I0403 15:22:21.397747 19221 net.cpp:148] Top shape: 24 512 4 4 (196608)
I0403 15:22:21.397761 19221 net.cpp:156] Memory required for data: 945501216
I0403 15:22:21.397775 19221 layer_factory.hpp:77] Creating layer loss1/conv
I0403 15:22:21.397797 19221 net.cpp:91] Creating Layer loss1/conv
I0403 15:22:21.397814 19221 net.cpp:425] loss1/conv <- loss1/ave_pool
I0403 15:22:21.397835 19221 net.cpp:399] loss1/conv -> loss1/conv
I0403 15:22:21.399243 19221 net.cpp:141] Setting up loss1/conv
I0403 15:22:21.399273 19221 net.cpp:148] Top shape: 24 128 4 4 (49152)
I0403 15:22:21.399302 19221 net.cpp:156] Memory required for data: 945697824
I0403 15:22:21.399322 19221 layer_factory.hpp:77] Creating layer loss1/relu_conv
I0403 15:22:21.399340 19221 net.cpp:91] Creating Layer loss1/relu_conv
I0403 15:22:21.399356 19221 net.cpp:425] loss1/relu_conv <- loss1/conv
I0403 15:22:21.399375 19221 net.cpp:386] loss1/relu_conv -> loss1/conv (in-place)
I0403 15:22:21.399652 19221 net.cpp:141] Setting up loss1/relu_conv
I0403 15:22:21.399679 19221 net.cpp:148] Top shape: 24 128 4 4 (49152)
I0403 15:22:21.399694 19221 net.cpp:156] Memory required for data: 945894432
I0403 15:22:21.399709 19221 layer_factory.hpp:77] Creating layer loss1/fc
I0403 15:22:21.399731 19221 net.cpp:91] Creating Layer loss1/fc
I0403 15:22:21.399749 19221 net.cpp:425] loss1/fc <- loss1/conv
I0403 15:22:21.399770 19221 net.cpp:399] loss1/fc -> loss1/fc
I0403 15:22:21.417336 19221 net.cpp:141] Setting up loss1/fc
I0403 15:22:21.417371 19221 net.cpp:148] Top shape: 24 1024 (24576)
I0403 15:22:21.417384 19221 net.cpp:156] Memory required for data: 945992736
I0403 15:22:21.417402 19221 layer_factory.hpp:77] Creating layer loss1/relu_fc
I0403 15:22:21.417423 19221 net.cpp:91] Creating Layer loss1/relu_fc
I0403 15:22:21.417439 19221 net.cpp:425] loss1/relu_fc <- loss1/fc
I0403 15:22:21.417455 19221 net.cpp:386] loss1/relu_fc -> loss1/fc (in-place)
I0403 15:22:21.417636 19221 net.cpp:141] Setting up loss1/relu_fc
I0403 15:22:21.417662 19221 net.cpp:148] Top shape: 24 1024 (24576)
I0403 15:22:21.417677 19221 net.cpp:156] Memory required for data: 946091040
I0403 15:22:21.417691 19221 layer_factory.hpp:77] Creating layer loss1/drop_fc
I0403 15:22:21.417716 19221 net.cpp:91] Creating Layer loss1/drop_fc
I0403 15:22:21.417734 19221 net.cpp:425] loss1/drop_fc <- loss1/fc
I0403 15:22:21.417752 19221 net.cpp:386] loss1/drop_fc -> loss1/fc (in-place)
I0403 15:22:21.417803 19221 net.cpp:141] Setting up loss1/drop_fc
I0403 15:22:21.417825 19221 net.cpp:148] Top shape: 24 1024 (24576)
I0403 15:22:21.417839 19221 net.cpp:156] Memory required for data: 946189344
I0403 15:22:21.417852 19221 layer_factory.hpp:77] Creating layer loss1/classifier_plantvillage
I0403 15:22:21.417870 19221 net.cpp:91] Creating Layer loss1/classifier_plantvillage
I0403 15:22:21.417884 19221 net.cpp:425] loss1/classifier_plantvillage <- loss1/fc
I0403 15:22:21.417907 19221 net.cpp:399] loss1/classifier_plantvillage -> loss1/classifier_plantvillage
I0403 15:22:21.418803 19221 net.cpp:141] Setting up loss1/classifier_plantvillage
I0403 15:22:21.418830 19221 net.cpp:148] Top shape: 24 38 (912)
I0403 15:22:21.418844 19221 net.cpp:156] Memory required for data: 946192992
I0403 15:22:21.418862 19221 layer_factory.hpp:77] Creating layer loss1/classifier_plantvillage_loss1/classifier_plantvillage_0_split
I0403 15:22:21.418882 19221 net.cpp:91] Creating Layer loss1/classifier_plantvillage_loss1/classifier_plantvillage_0_split
I0403 15:22:21.418897 19221 net.cpp:425] loss1/classifier_plantvillage_loss1/classifier_plantvillage_0_split <- loss1/classifier_plantvillage
I0403 15:22:21.418915 19221 net.cpp:399] loss1/classifier_plantvillage_loss1/classifier_plantvillage_0_split -> loss1/classifier_plantvillage_loss1/classifier_plantvillage_0_split_0
I0403 15:22:21.418933 19221 net.cpp:399] loss1/classifier_plantvillage_loss1/classifier_plantvillage_0_split -> loss1/classifier_plantvillage_loss1/classifier_plantvillage_0_split_1
I0403 15:22:21.418956 19221 net.cpp:399] loss1/classifier_plantvillage_loss1/classifier_plantvillage_0_split -> loss1/classifier_plantvillage_loss1/classifier_plantvillage_0_split_2
I0403 15:22:21.419030 19221 net.cpp:141] Setting up loss1/classifier_plantvillage_loss1/classifier_plantvillage_0_split
I0403 15:22:21.419055 19221 net.cpp:148] Top shape: 24 38 (912)
I0403 15:22:21.419071 19221 net.cpp:148] Top shape: 24 38 (912)
I0403 15:22:21.419086 19221 net.cpp:148] Top shape: 24 38 (912)
I0403 15:22:21.419100 19221 net.cpp:156] Memory required for data: 946203936
I0403 15:22:21.419113 19221 layer_factory.hpp:77] Creating layer inception_4b/1x1
I0403 15:22:21.419136 19221 net.cpp:91] Creating Layer inception_4b/1x1
I0403 15:22:21.419167 19221 net.cpp:425] inception_4b/1x1 <- inception_4a/output_inception_4a/output_0_split_1
I0403 15:22:21.419186 19221 net.cpp:399] inception_4b/1x1 -> inception_4b/1x1
I0403 15:22:21.420775 19221 net.cpp:141] Setting up inception_4b/1x1
I0403 15:22:21.420804 19221 net.cpp:148] Top shape: 24 160 14 14 (752640)
I0403 15:22:21.420820 19221 net.cpp:156] Memory required for data: 949214496
I0403 15:22:21.420837 19221 layer_factory.hpp:77] Creating layer inception_4b/relu_1x1
I0403 15:22:21.420855 19221 net.cpp:91] Creating Layer inception_4b/relu_1x1
I0403 15:22:21.420869 19221 net.cpp:425] inception_4b/relu_1x1 <- inception_4b/1x1
I0403 15:22:21.420887 19221 net.cpp:386] inception_4b/relu_1x1 -> inception_4b/1x1 (in-place)
I0403 15:22:21.421066 19221 net.cpp:141] Setting up inception_4b/relu_1x1
I0403 15:22:21.421090 19221 net.cpp:148] Top shape: 24 160 14 14 (752640)
I0403 15:22:21.421104 19221 net.cpp:156] Memory required for data: 952225056
I0403 15:22:21.421119 19221 layer_factory.hpp:77] Creating layer inception_4b/3x3_reduce
I0403 15:22:21.421140 19221 net.cpp:91] Creating Layer inception_4b/3x3_reduce
I0403 15:22:21.421156 19221 net.cpp:425] inception_4b/3x3_reduce <- inception_4a/output_inception_4a/output_0_split_2
I0403 15:22:21.421176 19221 net.cpp:399] inception_4b/3x3_reduce -> inception_4b/3x3_reduce
I0403 15:22:21.422503 19221 net.cpp:141] Setting up inception_4b/3x3_reduce
I0403 15:22:21.422530 19221 net.cpp:148] Top shape: 24 112 14 14 (526848)
I0403 15:22:21.422545 19221 net.cpp:156] Memory required for data: 954332448
I0403 15:22:21.422564 19221 layer_factory.hpp:77] Creating layer inception_4b/relu_3x3_reduce
I0403 15:22:21.422580 19221 net.cpp:91] Creating Layer inception_4b/relu_3x3_reduce
I0403 15:22:21.422595 19221 net.cpp:425] inception_4b/relu_3x3_reduce <- inception_4b/3x3_reduce
I0403 15:22:21.422615 19221 net.cpp:386] inception_4b/relu_3x3_reduce -> inception_4b/3x3_reduce (in-place)
I0403 15:22:21.422893 19221 net.cpp:141] Setting up inception_4b/relu_3x3_reduce
I0403 15:22:21.422919 19221 net.cpp:148] Top shape: 24 112 14 14 (526848)
I0403 15:22:21.422931 19221 net.cpp:156] Memory required for data: 956439840
I0403 15:22:21.422945 19221 layer_factory.hpp:77] Creating layer inception_4b/3x3
I0403 15:22:21.422967 19221 net.cpp:91] Creating Layer inception_4b/3x3
I0403 15:22:21.422984 19221 net.cpp:425] inception_4b/3x3 <- inception_4b/3x3_reduce
I0403 15:22:21.423010 19221 net.cpp:399] inception_4b/3x3 -> inception_4b/3x3
I0403 15:22:21.425921 19221 net.cpp:141] Setting up inception_4b/3x3
I0403 15:22:21.425951 19221 net.cpp:148] Top shape: 24 224 14 14 (1053696)
I0403 15:22:21.425964 19221 net.cpp:156] Memory required for data: 960654624
I0403 15:22:21.425982 19221 layer_factory.hpp:77] Creating layer inception_4b/relu_3x3
I0403 15:22:21.426007 19221 net.cpp:91] Creating Layer inception_4b/relu_3x3
I0403 15:22:21.426023 19221 net.cpp:425] inception_4b/relu_3x3 <- inception_4b/3x3
I0403 15:22:21.426041 19221 net.cpp:386] inception_4b/relu_3x3 -> inception_4b/3x3 (in-place)
I0403 15:22:21.426220 19221 net.cpp:141] Setting up inception_4b/relu_3x3
I0403 15:22:21.426247 19221 net.cpp:148] Top shape: 24 224 14 14 (1053696)
I0403 15:22:21.426262 19221 net.cpp:156] Memory required for data: 964869408
I0403 15:22:21.426275 19221 layer_factory.hpp:77] Creating layer inception_4b/5x5_reduce
I0403 15:22:21.426297 19221 net.cpp:91] Creating Layer inception_4b/5x5_reduce
I0403 15:22:21.426314 19221 net.cpp:425] inception_4b/5x5_reduce <- inception_4a/output_inception_4a/output_0_split_3
I0403 15:22:21.426336 19221 net.cpp:399] inception_4b/5x5_reduce -> inception_4b/5x5_reduce
I0403 15:22:21.427391 19221 net.cpp:141] Setting up inception_4b/5x5_reduce
I0403 15:22:21.427417 19221 net.cpp:148] Top shape: 24 24 14 14 (112896)
I0403 15:22:21.427431 19221 net.cpp:156] Memory required for data: 965320992
I0403 15:22:21.427448 19221 layer_factory.hpp:77] Creating layer inception_4b/relu_5x5_reduce
I0403 15:22:21.427465 19221 net.cpp:91] Creating Layer inception_4b/relu_5x5_reduce
I0403 15:22:21.427495 19221 net.cpp:425] inception_4b/relu_5x5_reduce <- inception_4b/5x5_reduce
I0403 15:22:21.427516 19221 net.cpp:386] inception_4b/relu_5x5_reduce -> inception_4b/5x5_reduce (in-place)
I0403 15:22:21.427695 19221 net.cpp:141] Setting up inception_4b/relu_5x5_reduce
I0403 15:22:21.427719 19221 net.cpp:148] Top shape: 24 24 14 14 (112896)
I0403 15:22:21.427732 19221 net.cpp:156] Memory required for data: 965772576
I0403 15:22:21.427747 19221 layer_factory.hpp:77] Creating layer inception_4b/5x5
I0403 15:22:21.427767 19221 net.cpp:91] Creating Layer inception_4b/5x5
I0403 15:22:21.427784 19221 net.cpp:425] inception_4b/5x5 <- inception_4b/5x5_reduce
I0403 15:22:21.427804 19221 net.cpp:399] inception_4b/5x5 -> inception_4b/5x5
I0403 15:22:21.429006 19221 net.cpp:141] Setting up inception_4b/5x5
I0403 15:22:21.429035 19221 net.cpp:148] Top shape: 24 64 14 14 (301056)
I0403 15:22:21.429052 19221 net.cpp:156] Memory required for data: 966976800
I0403 15:22:21.429071 19221 layer_factory.hpp:77] Creating layer inception_4b/relu_5x5
I0403 15:22:21.429090 19221 net.cpp:91] Creating Layer inception_4b/relu_5x5
I0403 15:22:21.429105 19221 net.cpp:425] inception_4b/relu_5x5 <- inception_4b/5x5
I0403 15:22:21.429122 19221 net.cpp:386] inception_4b/relu_5x5 -> inception_4b/5x5 (in-place)
I0403 15:22:21.429399 19221 net.cpp:141] Setting up inception_4b/relu_5x5
I0403 15:22:21.429432 19221 net.cpp:148] Top shape: 24 64 14 14 (301056)
I0403 15:22:21.429447 19221 net.cpp:156] Memory required for data: 968181024
I0403 15:22:21.429462 19221 layer_factory.hpp:77] Creating layer inception_4b/pool
I0403 15:22:21.429479 19221 net.cpp:91] Creating Layer inception_4b/pool
I0403 15:22:21.429494 19221 net.cpp:425] inception_4b/pool <- inception_4a/output_inception_4a/output_0_split_4
I0403 15:22:21.429514 19221 net.cpp:399] inception_4b/pool -> inception_4b/pool
I0403 15:22:21.429575 19221 net.cpp:141] Setting up inception_4b/pool
I0403 15:22:21.429599 19221 net.cpp:148] Top shape: 24 512 14 14 (2408448)
I0403 15:22:21.429613 19221 net.cpp:156] Memory required for data: 977814816
I0403 15:22:21.429627 19221 layer_factory.hpp:77] Creating layer inception_4b/pool_proj
I0403 15:22:21.429648 19221 net.cpp:91] Creating Layer inception_4b/pool_proj
I0403 15:22:21.429666 19221 net.cpp:425] inception_4b/pool_proj <- inception_4b/pool
I0403 15:22:21.429685 19221 net.cpp:399] inception_4b/pool_proj -> inception_4b/pool_proj
I0403 15:22:21.430853 19221 net.cpp:141] Setting up inception_4b/pool_proj
I0403 15:22:21.430883 19221 net.cpp:148] Top shape: 24 64 14 14 (301056)
I0403 15:22:21.430899 19221 net.cpp:156] Memory required for data: 979019040
I0403 15:22:21.430917 19221 layer_factory.hpp:77] Creating layer inception_4b/relu_pool_proj
I0403 15:22:21.430935 19221 net.cpp:91] Creating Layer inception_4b/relu_pool_proj
I0403 15:22:21.430950 19221 net.cpp:425] inception_4b/relu_pool_proj <- inception_4b/pool_proj
I0403 15:22:21.430969 19221 net.cpp:386] inception_4b/relu_pool_proj -> inception_4b/pool_proj (in-place)
I0403 15:22:21.431150 19221 net.cpp:141] Setting up inception_4b/relu_pool_proj
I0403 15:22:21.431174 19221 net.cpp:148] Top shape: 24 64 14 14 (301056)
I0403 15:22:21.431188 19221 net.cpp:156] Memory required for data: 980223264
I0403 15:22:21.431202 19221 layer_factory.hpp:77] Creating layer inception_4b/output
I0403 15:22:21.431218 19221 net.cpp:91] Creating Layer inception_4b/output
I0403 15:22:21.431232 19221 net.cpp:425] inception_4b/output <- inception_4b/1x1
I0403 15:22:21.431248 19221 net.cpp:425] inception_4b/output <- inception_4b/3x3
I0403 15:22:21.431263 19221 net.cpp:425] inception_4b/output <- inception_4b/5x5
I0403 15:22:21.431278 19221 net.cpp:425] inception_4b/output <- inception_4b/pool_proj
I0403 15:22:21.431298 19221 net.cpp:399] inception_4b/output -> inception_4b/output
I0403 15:22:21.431342 19221 net.cpp:141] Setting up inception_4b/output
I0403 15:22:21.431365 19221 net.cpp:148] Top shape: 24 512 14 14 (2408448)
I0403 15:22:21.431380 19221 net.cpp:156] Memory required for data: 989857056
I0403 15:22:21.431407 19221 layer_factory.hpp:77] Creating layer inception_4b/output_inception_4b/output_0_split
I0403 15:22:21.431424 19221 net.cpp:91] Creating Layer inception_4b/output_inception_4b/output_0_split
I0403 15:22:21.431439 19221 net.cpp:425] inception_4b/output_inception_4b/output_0_split <- inception_4b/output
I0403 15:22:21.431457 19221 net.cpp:399] inception_4b/output_inception_4b/output_0_split -> inception_4b/output_inception_4b/output_0_split_0
I0403 15:22:21.431478 19221 net.cpp:399] inception_4b/output_inception_4b/output_0_split -> inception_4b/output_inception_4b/output_0_split_1
I0403 15:22:21.431498 19221 net.cpp:399] inception_4b/output_inception_4b/output_0_split -> inception_4b/output_inception_4b/output_0_split_2
I0403 15:22:21.431517 19221 net.cpp:399] inception_4b/output_inception_4b/output_0_split -> inception_4b/output_inception_4b/output_0_split_3
I0403 15:22:21.431598 19221 net.cpp:141] Setting up inception_4b/output_inception_4b/output_0_split
I0403 15:22:21.431623 19221 net.cpp:148] Top shape: 24 512 14 14 (2408448)
I0403 15:22:21.431640 19221 net.cpp:148] Top shape: 24 512 14 14 (2408448)
I0403 15:22:21.431654 19221 net.cpp:148] Top shape: 24 512 14 14 (2408448)
I0403 15:22:21.431669 19221 net.cpp:148] Top shape: 24 512 14 14 (2408448)
I0403 15:22:21.431682 19221 net.cpp:156] Memory required for data: 1028392224
I0403 15:22:21.431696 19221 layer_factory.hpp:77] Creating layer inception_4c/1x1
I0403 15:22:21.431717 19221 net.cpp:91] Creating Layer inception_4c/1x1
I0403 15:22:21.431733 19221 net.cpp:425] inception_4c/1x1 <- inception_4b/output_inception_4b/output_0_split_0
I0403 15:22:21.431751 19221 net.cpp:399] inception_4c/1x1 -> inception_4c/1x1
I0403 15:22:21.433148 19221 net.cpp:141] Setting up inception_4c/1x1
I0403 15:22:21.433176 19221 net.cpp:148] Top shape: 24 128 14 14 (602112)
I0403 15:22:21.433189 19221 net.cpp:156] Memory required for data: 1030800672
I0403 15:22:21.433207 19221 layer_factory.hpp:77] Creating layer inception_4c/relu_1x1
I0403 15:22:21.433228 19221 net.cpp:91] Creating Layer inception_4c/relu_1x1
I0403 15:22:21.433244 19221 net.cpp:425] inception_4c/relu_1x1 <- inception_4c/1x1
I0403 15:22:21.433261 19221 net.cpp:386] inception_4c/relu_1x1 -> inception_4c/1x1 (in-place)
I0403 15:22:21.433434 19221 net.cpp:141] Setting up inception_4c/relu_1x1
I0403 15:22:21.433461 19221 net.cpp:148] Top shape: 24 128 14 14 (602112)
I0403 15:22:21.433475 19221 net.cpp:156] Memory required for data: 1033209120
I0403 15:22:21.433490 19221 layer_factory.hpp:77] Creating layer inception_4c/3x3_reduce
I0403 15:22:21.433511 19221 net.cpp:91] Creating Layer inception_4c/3x3_reduce
I0403 15:22:21.433529 19221 net.cpp:425] inception_4c/3x3_reduce <- inception_4b/output_inception_4b/output_0_split_1
I0403 15:22:21.433547 19221 net.cpp:399] inception_4c/3x3_reduce -> inception_4c/3x3_reduce
I0403 15:22:21.435447 19221 net.cpp:141] Setting up inception_4c/3x3_reduce
I0403 15:22:21.435477 19221 net.cpp:148] Top shape: 24 128 14 14 (602112)
I0403 15:22:21.435493 19221 net.cpp:156] Memory required for data: 1035617568
I0403 15:22:21.435510 19221 layer_factory.hpp:77] Creating layer inception_4c/relu_3x3_reduce
I0403 15:22:21.435528 19221 net.cpp:91] Creating Layer inception_4c/relu_3x3_reduce
I0403 15:22:21.435544 19221 net.cpp:425] inception_4c/relu_3x3_reduce <- inception_4c/3x3_reduce
I0403 15:22:21.435562 19221 net.cpp:386] inception_4c/relu_3x3_reduce -> inception_4c/3x3_reduce (in-place)
I0403 15:22:21.435842 19221 net.cpp:141] Setting up inception_4c/relu_3x3_reduce
I0403 15:22:21.435868 19221 net.cpp:148] Top shape: 24 128 14 14 (602112)
I0403 15:22:21.435883 19221 net.cpp:156] Memory required for data: 1038026016
I0403 15:22:21.435899 19221 layer_factory.hpp:77] Creating layer inception_4c/3x3
I0403 15:22:21.435920 19221 net.cpp:91] Creating Layer inception_4c/3x3
I0403 15:22:21.435938 19221 net.cpp:425] inception_4c/3x3 <- inception_4c/3x3_reduce
I0403 15:22:21.435956 19221 net.cpp:399] inception_4c/3x3 -> inception_4c/3x3
I0403 15:22:21.439482 19221 net.cpp:141] Setting up inception_4c/3x3
I0403 15:22:21.439524 19221 net.cpp:148] Top shape: 24 256 14 14 (1204224)
I0403 15:22:21.439540 19221 net.cpp:156] Memory required for data: 1042842912
I0403 15:22:21.439571 19221 layer_factory.hpp:77] Creating layer inception_4c/relu_3x3
I0403 15:22:21.439591 19221 net.cpp:91] Creating Layer inception_4c/relu_3x3
I0403 15:22:21.439606 19221 net.cpp:425] inception_4c/relu_3x3 <- inception_4c/3x3
I0403 15:22:21.439625 19221 net.cpp:386] inception_4c/relu_3x3 -> inception_4c/3x3 (in-place)
I0403 15:22:21.439800 19221 net.cpp:141] Setting up inception_4c/relu_3x3
I0403 15:22:21.439826 19221 net.cpp:148] Top shape: 24 256 14 14 (1204224)
I0403 15:22:21.439838 19221 net.cpp:156] Memory required for data: 1047659808
I0403 15:22:21.439852 19221 layer_factory.hpp:77] Creating layer inception_4c/5x5_reduce
I0403 15:22:21.439875 19221 net.cpp:91] Creating Layer inception_4c/5x5_reduce
I0403 15:22:21.439893 19221 net.cpp:425] inception_4c/5x5_reduce <- inception_4b/output_inception_4b/output_0_split_2
I0403 15:22:21.439914 19221 net.cpp:399] inception_4c/5x5_reduce -> inception_4c/5x5_reduce
I0403 15:22:21.440992 19221 net.cpp:141] Setting up inception_4c/5x5_reduce
I0403 15:22:21.441033 19221 net.cpp:148] Top shape: 24 24 14 14 (112896)
I0403 15:22:21.441048 19221 net.cpp:156] Memory required for data: 1048111392
I0403 15:22:21.441066 19221 layer_factory.hpp:77] Creating layer inception_4c/relu_5x5_reduce
I0403 15:22:21.441083 19221 net.cpp:91] Creating Layer inception_4c/relu_5x5_reduce
I0403 15:22:21.441099 19221 net.cpp:425] inception_4c/relu_5x5_reduce <- inception_4c/5x5_reduce
I0403 15:22:21.441118 19221 net.cpp:386] inception_4c/relu_5x5_reduce -> inception_4c/5x5_reduce (in-place)
I0403 15:22:21.441303 19221 net.cpp:141] Setting up inception_4c/relu_5x5_reduce
I0403 15:22:21.441329 19221 net.cpp:148] Top shape: 24 24 14 14 (112896)
I0403 15:22:21.441344 19221 net.cpp:156] Memory required for data: 1048562976
I0403 15:22:21.441356 19221 layer_factory.hpp:77] Creating layer inception_4c/5x5
I0403 15:22:21.441378 19221 net.cpp:91] Creating Layer inception_4c/5x5
I0403 15:22:21.441396 19221 net.cpp:425] inception_4c/5x5 <- inception_4c/5x5_reduce
I0403 15:22:21.441417 19221 net.cpp:399] inception_4c/5x5 -> inception_4c/5x5
I0403 15:22:21.442664 19221 net.cpp:141] Setting up inception_4c/5x5
I0403 15:22:21.442692 19221 net.cpp:148] Top shape: 24 64 14 14 (301056)
I0403 15:22:21.442706 19221 net.cpp:156] Memory required for data: 1049767200
I0403 15:22:21.442724 19221 layer_factory.hpp:77] Creating layer inception_4c/relu_5x5
I0403 15:22:21.442745 19221 net.cpp:91] Creating Layer inception_4c/relu_5x5
I0403 15:22:21.442762 19221 net.cpp:425] inception_4c/relu_5x5 <- inception_4c/5x5
I0403 15:22:21.442780 19221 net.cpp:386] inception_4c/relu_5x5 -> inception_4c/5x5 (in-place)
I0403 15:22:21.443073 19221 net.cpp:141] Setting up inception_4c/relu_5x5
I0403 15:22:21.443097 19221 net.cpp:148] Top shape: 24 64 14 14 (301056)
I0403 15:22:21.443112 19221 net.cpp:156] Memory required for data: 1050971424
I0403 15:22:21.443127 19221 layer_factory.hpp:77] Creating layer inception_4c/pool
I0403 15:22:21.443145 19221 net.cpp:91] Creating Layer inception_4c/pool
I0403 15:22:21.443161 19221 net.cpp:425] inception_4c/pool <- inception_4b/output_inception_4b/output_0_split_3
I0403 15:22:21.443181 19221 net.cpp:399] inception_4c/pool -> inception_4c/pool
I0403 15:22:21.443248 19221 net.cpp:141] Setting up inception_4c/pool
I0403 15:22:21.443270 19221 net.cpp:148] Top shape: 24 512 14 14 (2408448)
I0403 15:22:21.443284 19221 net.cpp:156] Memory required for data: 1060605216
I0403 15:22:21.443300 19221 layer_factory.hpp:77] Creating layer inception_4c/pool_proj
I0403 15:22:21.443321 19221 net.cpp:91] Creating Layer inception_4c/pool_proj
I0403 15:22:21.443338 19221 net.cpp:425] inception_4c/pool_proj <- inception_4c/pool
I0403 15:22:21.443358 19221 net.cpp:399] inception_4c/pool_proj -> inception_4c/pool_proj
I0403 15:22:21.444593 19221 net.cpp:141] Setting up inception_4c/pool_proj
I0403 15:22:21.444627 19221 net.cpp:148] Top shape: 24 64 14 14 (301056)
I0403 15:22:21.444655 19221 net.cpp:156] Memory required for data: 1061809440
I0403 15:22:21.444674 19221 layer_factory.hpp:77] Creating layer inception_4c/relu_pool_proj
I0403 15:22:21.444692 19221 net.cpp:91] Creating Layer inception_4c/relu_pool_proj
I0403 15:22:21.444708 19221 net.cpp:425] inception_4c/relu_pool_proj <- inception_4c/pool_proj
I0403 15:22:21.444727 19221 net.cpp:386] inception_4c/relu_pool_proj -> inception_4c/pool_proj (in-place)
I0403 15:22:21.444911 19221 net.cpp:141] Setting up inception_4c/relu_pool_proj
I0403 15:22:21.444936 19221 net.cpp:148] Top shape: 24 64 14 14 (301056)
I0403 15:22:21.444949 19221 net.cpp:156] Memory required for data: 1063013664
I0403 15:22:21.444964 19221 layer_factory.hpp:77] Creating layer inception_4c/output
I0403 15:22:21.444982 19221 net.cpp:91] Creating Layer inception_4c/output
I0403 15:22:21.445001 19221 net.cpp:425] inception_4c/output <- inception_4c/1x1
I0403 15:22:21.445019 19221 net.cpp:425] inception_4c/output <- inception_4c/3x3
I0403 15:22:21.445034 19221 net.cpp:425] inception_4c/output <- inception_4c/5x5
I0403 15:22:21.445050 19221 net.cpp:425] inception_4c/output <- inception_4c/pool_proj
I0403 15:22:21.445070 19221 net.cpp:399] inception_4c/output -> inception_4c/output
I0403 15:22:21.445118 19221 net.cpp:141] Setting up inception_4c/output
I0403 15:22:21.445142 19221 net.cpp:148] Top shape: 24 512 14 14 (2408448)
I0403 15:22:21.445155 19221 net.cpp:156] Memory required for data: 1072647456
I0403 15:22:21.445169 19221 layer_factory.hpp:77] Creating layer inception_4c/output_inception_4c/output_0_split
I0403 15:22:21.445188 19221 net.cpp:91] Creating Layer inception_4c/output_inception_4c/output_0_split
I0403 15:22:21.445202 19221 net.cpp:425] inception_4c/output_inception_4c/output_0_split <- inception_4c/output
I0403 15:22:21.445221 19221 net.cpp:399] inception_4c/output_inception_4c/output_0_split -> inception_4c/output_inception_4c/output_0_split_0
I0403 15:22:21.445241 19221 net.cpp:399] inception_4c/output_inception_4c/output_0_split -> inception_4c/output_inception_4c/output_0_split_1
I0403 15:22:21.445261 19221 net.cpp:399] inception_4c/output_inception_4c/output_0_split -> inception_4c/output_inception_4c/output_0_split_2
I0403 15:22:21.445281 19221 net.cpp:399] inception_4c/output_inception_4c/output_0_split -> inception_4c/output_inception_4c/output_0_split_3
I0403 15:22:21.445369 19221 net.cpp:141] Setting up inception_4c/output_inception_4c/output_0_split
I0403 15:22:21.445391 19221 net.cpp:148] Top shape: 24 512 14 14 (2408448)
I0403 15:22:21.445407 19221 net.cpp:148] Top shape: 24 512 14 14 (2408448)
I0403 15:22:21.445422 19221 net.cpp:148] Top shape: 24 512 14 14 (2408448)
I0403 15:22:21.445436 19221 net.cpp:148] Top shape: 24 512 14 14 (2408448)
I0403 15:22:21.445449 19221 net.cpp:156] Memory required for data: 1111182624
I0403 15:22:21.445463 19221 layer_factory.hpp:77] Creating layer inception_4d/1x1
I0403 15:22:21.445487 19221 net.cpp:91] Creating Layer inception_4d/1x1
I0403 15:22:21.445504 19221 net.cpp:425] inception_4d/1x1 <- inception_4c/output_inception_4c/output_0_split_0
I0403 15:22:21.445523 19221 net.cpp:399] inception_4d/1x1 -> inception_4d/1x1
I0403 15:22:21.446910 19221 net.cpp:141] Setting up inception_4d/1x1
I0403 15:22:21.446949 19221 net.cpp:148] Top shape: 24 112 14 14 (526848)
I0403 15:22:21.446965 19221 net.cpp:156] Memory required for data: 1113290016
I0403 15:22:21.446988 19221 layer_factory.hpp:77] Creating layer inception_4d/relu_1x1
I0403 15:22:21.447011 19221 net.cpp:91] Creating Layer inception_4d/relu_1x1
I0403 15:22:21.447029 19221 net.cpp:425] inception_4d/relu_1x1 <- inception_4d/1x1
I0403 15:22:21.447048 19221 net.cpp:386] inception_4d/relu_1x1 -> inception_4d/1x1 (in-place)
I0403 15:22:21.447247 19221 net.cpp:141] Setting up inception_4d/relu_1x1
I0403 15:22:21.447283 19221 net.cpp:148] Top shape: 24 112 14 14 (526848)
I0403 15:22:21.447299 19221 net.cpp:156] Memory required for data: 1115397408
I0403 15:22:21.447312 19221 layer_factory.hpp:77] Creating layer inception_4d/3x3_reduce
I0403 15:22:21.447348 19221 net.cpp:91] Creating Layer inception_4d/3x3_reduce
I0403 15:22:21.447366 19221 net.cpp:425] inception_4d/3x3_reduce <- inception_4c/output_inception_4c/output_0_split_1
I0403 15:22:21.447387 19221 net.cpp:399] inception_4d/3x3_reduce -> inception_4d/3x3_reduce
I0403 15:22:21.448914 19221 net.cpp:141] Setting up inception_4d/3x3_reduce
I0403 15:22:21.448940 19221 net.cpp:148] Top shape: 24 144 14 14 (677376)
I0403 15:22:21.448956 19221 net.cpp:156] Memory required for data: 1118106912
I0403 15:22:21.448974 19221 layer_factory.hpp:77] Creating layer inception_4d/relu_3x3_reduce
I0403 15:22:21.449004 19221 net.cpp:91] Creating Layer inception_4d/relu_3x3_reduce
I0403 15:22:21.449024 19221 net.cpp:425] inception_4d/relu_3x3_reduce <- inception_4d/3x3_reduce
I0403 15:22:21.449041 19221 net.cpp:386] inception_4d/relu_3x3_reduce -> inception_4d/3x3_reduce (in-place)
I0403 15:22:21.449333 19221 net.cpp:141] Setting up inception_4d/relu_3x3_reduce
I0403 15:22:21.449359 19221 net.cpp:148] Top shape: 24 144 14 14 (677376)
I0403 15:22:21.449374 19221 net.cpp:156] Memory required for data: 1120816416
I0403 15:22:21.449388 19221 layer_factory.hpp:77] Creating layer inception_4d/3x3
I0403 15:22:21.449410 19221 net.cpp:91] Creating Layer inception_4d/3x3
I0403 15:22:21.449429 19221 net.cpp:425] inception_4d/3x3 <- inception_4d/3x3_reduce
I0403 15:22:21.449450 19221 net.cpp:399] inception_4d/3x3 -> inception_4d/3x3
I0403 15:22:21.453739 19221 net.cpp:141] Setting up inception_4d/3x3
I0403 15:22:21.453770 19221 net.cpp:148] Top shape: 24 288 14 14 (1354752)
I0403 15:22:21.453786 19221 net.cpp:156] Memory required for data: 1126235424
I0403 15:22:21.453804 19221 layer_factory.hpp:77] Creating layer inception_4d/relu_3x3
I0403 15:22:21.453824 19221 net.cpp:91] Creating Layer inception_4d/relu_3x3
I0403 15:22:21.453840 19221 net.cpp:425] inception_4d/relu_3x3 <- inception_4d/3x3
I0403 15:22:21.453856 19221 net.cpp:386] inception_4d/relu_3x3 -> inception_4d/3x3 (in-place)
I0403 15:22:21.454047 19221 net.cpp:141] Setting up inception_4d/relu_3x3
I0403 15:22:21.454073 19221 net.cpp:148] Top shape: 24 288 14 14 (1354752)
I0403 15:22:21.454088 19221 net.cpp:156] Memory required for data: 1131654432
I0403 15:22:21.454102 19221 layer_factory.hpp:77] Creating layer inception_4d/5x5_reduce
I0403 15:22:21.454123 19221 net.cpp:91] Creating Layer inception_4d/5x5_reduce
I0403 15:22:21.454141 19221 net.cpp:425] inception_4d/5x5_reduce <- inception_4c/output_inception_4c/output_0_split_2
I0403 15:22:21.454162 19221 net.cpp:399] inception_4d/5x5_reduce -> inception_4d/5x5_reduce
I0403 15:22:21.455328 19221 net.cpp:141] Setting up inception_4d/5x5_reduce
I0403 15:22:21.455355 19221 net.cpp:148] Top shape: 24 32 14 14 (150528)
I0403 15:22:21.455370 19221 net.cpp:156] Memory required for data: 1132256544
I0403 15:22:21.455389 19221 layer_factory.hpp:77] Creating layer inception_4d/relu_5x5_reduce
I0403 15:22:21.455409 19221 net.cpp:91] Creating Layer inception_4d/relu_5x5_reduce
I0403 15:22:21.455425 19221 net.cpp:425] inception_4d/relu_5x5_reduce <- inception_4d/5x5_reduce
I0403 15:22:21.455441 19221 net.cpp:386] inception_4d/relu_5x5_reduce -> inception_4d/5x5_reduce (in-place)
I0403 15:22:21.455636 19221 net.cpp:141] Setting up inception_4d/relu_5x5_reduce
I0403 15:22:21.455662 19221 net.cpp:148] Top shape: 24 32 14 14 (150528)
I0403 15:22:21.455675 19221 net.cpp:156] Memory required for data: 1132858656
I0403 15:22:21.455690 19221 layer_factory.hpp:77] Creating layer inception_4d/5x5
I0403 15:22:21.455713 19221 net.cpp:91] Creating Layer inception_4d/5x5
I0403 15:22:21.455729 19221 net.cpp:425] inception_4d/5x5 <- inception_4d/5x5_reduce
I0403 15:22:21.455750 19221 net.cpp:399] inception_4d/5x5 -> inception_4d/5x5
I0403 15:22:21.457237 19221 net.cpp:141] Setting up inception_4d/5x5
I0403 15:22:21.457264 19221 net.cpp:148] Top shape: 24 64 14 14 (301056)
I0403 15:22:21.457279 19221 net.cpp:156] Memory required for data: 1134062880
I0403 15:22:21.457298 19221 layer_factory.hpp:77] Creating layer inception_4d/relu_5x5
I0403 15:22:21.457329 19221 net.cpp:91] Creating Layer inception_4d/relu_5x5
I0403 15:22:21.457346 19221 net.cpp:425] inception_4d/relu_5x5 <- inception_4d/5x5
I0403 15:22:21.457365 19221 net.cpp:386] inception_4d/relu_5x5 -> inception_4d/5x5 (in-place)
I0403 15:22:21.457669 19221 net.cpp:141] Setting up inception_4d/relu_5x5
I0403 15:22:21.457695 19221 net.cpp:148] Top shape: 24 64 14 14 (301056)
I0403 15:22:21.457708 19221 net.cpp:156] Memory required for data: 1135267104
I0403 15:22:21.457722 19221 layer_factory.hpp:77] Creating layer inception_4d/pool
I0403 15:22:21.457741 19221 net.cpp:91] Creating Layer inception_4d/pool
I0403 15:22:21.457756 19221 net.cpp:425] inception_4d/pool <- inception_4c/output_inception_4c/output_0_split_3
I0403 15:22:21.457777 19221 net.cpp:399] inception_4d/pool -> inception_4d/pool
I0403 15:22:21.457844 19221 net.cpp:141] Setting up inception_4d/pool
I0403 15:22:21.457867 19221 net.cpp:148] Top shape: 24 512 14 14 (2408448)
I0403 15:22:21.457881 19221 net.cpp:156] Memory required for data: 1144900896
I0403 15:22:21.457895 19221 layer_factory.hpp:77] Creating layer inception_4d/pool_proj
I0403 15:22:21.457918 19221 net.cpp:91] Creating Layer inception_4d/pool_proj
I0403 15:22:21.457937 19221 net.cpp:425] inception_4d/pool_proj <- inception_4d/pool
I0403 15:22:21.457955 19221 net.cpp:399] inception_4d/pool_proj -> inception_4d/pool_proj
I0403 15:22:21.459801 19221 net.cpp:141] Setting up inception_4d/pool_proj
I0403 15:22:21.459836 19221 net.cpp:148] Top shape: 24 64 14 14 (301056)
I0403 15:22:21.459852 19221 net.cpp:156] Memory required for data: 1146105120
I0403 15:22:21.459870 19221 layer_factory.hpp:77] Creating layer inception_4d/relu_pool_proj
I0403 15:22:21.459888 19221 net.cpp:91] Creating Layer inception_4d/relu_pool_proj
I0403 15:22:21.459905 19221 net.cpp:425] inception_4d/relu_pool_proj <- inception_4d/pool_proj
I0403 15:22:21.459923 19221 net.cpp:386] inception_4d/relu_pool_proj -> inception_4d/pool_proj (in-place)
I0403 15:22:21.460125 19221 net.cpp:141] Setting up inception_4d/relu_pool_proj
I0403 15:22:21.460150 19221 net.cpp:148] Top shape: 24 64 14 14 (301056)
I0403 15:22:21.460163 19221 net.cpp:156] Memory required for data: 1147309344
I0403 15:22:21.460177 19221 layer_factory.hpp:77] Creating layer inception_4d/output
I0403 15:22:21.460194 19221 net.cpp:91] Creating Layer inception_4d/output
I0403 15:22:21.460208 19221 net.cpp:425] inception_4d/output <- inception_4d/1x1
I0403 15:22:21.460224 19221 net.cpp:425] inception_4d/output <- inception_4d/3x3
I0403 15:22:21.460239 19221 net.cpp:425] inception_4d/output <- inception_4d/5x5
I0403 15:22:21.460254 19221 net.cpp:425] inception_4d/output <- inception_4d/pool_proj
I0403 15:22:21.460273 19221 net.cpp:399] inception_4d/output -> inception_4d/output
I0403 15:22:21.460319 19221 net.cpp:141] Setting up inception_4d/output
I0403 15:22:21.460345 19221 net.cpp:148] Top shape: 24 528 14 14 (2483712)
I0403 15:22:21.460360 19221 net.cpp:156] Memory required for data: 1157244192
I0403 15:22:21.460373 19221 layer_factory.hpp:77] Creating layer inception_4d/output_inception_4d/output_0_split
I0403 15:22:21.460391 19221 net.cpp:91] Creating Layer inception_4d/output_inception_4d/output_0_split
I0403 15:22:21.460407 19221 net.cpp:425] inception_4d/output_inception_4d/output_0_split <- inception_4d/output
I0403 15:22:21.460427 19221 net.cpp:399] inception_4d/output_inception_4d/output_0_split -> inception_4d/output_inception_4d/output_0_split_0
I0403 15:22:21.460448 19221 net.cpp:399] inception_4d/output_inception_4d/output_0_split -> inception_4d/output_inception_4d/output_0_split_1
I0403 15:22:21.460467 19221 net.cpp:399] inception_4d/output_inception_4d/output_0_split -> inception_4d/output_inception_4d/output_0_split_2
I0403 15:22:21.460487 19221 net.cpp:399] inception_4d/output_inception_4d/output_0_split -> inception_4d/output_inception_4d/output_0_split_3
I0403 15:22:21.460505 19221 net.cpp:399] inception_4d/output_inception_4d/output_0_split -> inception_4d/output_inception_4d/output_0_split_4
I0403 15:22:21.460605 19221 net.cpp:141] Setting up inception_4d/output_inception_4d/output_0_split
I0403 15:22:21.460639 19221 net.cpp:148] Top shape: 24 528 14 14 (2483712)
I0403 15:22:21.460656 19221 net.cpp:148] Top shape: 24 528 14 14 (2483712)
I0403 15:22:21.460671 19221 net.cpp:148] Top shape: 24 528 14 14 (2483712)
I0403 15:22:21.460686 19221 net.cpp:148] Top shape: 24 528 14 14 (2483712)
I0403 15:22:21.460700 19221 net.cpp:148] Top shape: 24 528 14 14 (2483712)
I0403 15:22:21.460713 19221 net.cpp:156] Memory required for data: 1206918432
I0403 15:22:21.460727 19221 layer_factory.hpp:77] Creating layer loss2/ave_pool
I0403 15:22:21.460747 19221 net.cpp:91] Creating Layer loss2/ave_pool
I0403 15:22:21.460763 19221 net.cpp:425] loss2/ave_pool <- inception_4d/output_inception_4d/output_0_split_0
I0403 15:22:21.460782 19221 net.cpp:399] loss2/ave_pool -> loss2/ave_pool
I0403 15:22:21.461091 19221 net.cpp:141] Setting up loss2/ave_pool
I0403 15:22:21.461118 19221 net.cpp:148] Top shape: 24 528 4 4 (202752)
I0403 15:22:21.461133 19221 net.cpp:156] Memory required for data: 1207729440
I0403 15:22:21.461148 19221 layer_factory.hpp:77] Creating layer loss2/conv
I0403 15:22:21.461169 19221 net.cpp:91] Creating Layer loss2/conv
I0403 15:22:21.461185 19221 net.cpp:425] loss2/conv <- loss2/ave_pool
I0403 15:22:21.461204 19221 net.cpp:399] loss2/conv -> loss2/conv
I0403 15:22:21.463075 19221 net.cpp:141] Setting up loss2/conv
I0403 15:22:21.463104 19221 net.cpp:148] Top shape: 24 128 4 4 (49152)
I0403 15:22:21.463119 19221 net.cpp:156] Memory required for data: 1207926048
I0403 15:22:21.463135 19221 layer_factory.hpp:77] Creating layer loss2/relu_conv
I0403 15:22:21.463155 19221 net.cpp:91] Creating Layer loss2/relu_conv
I0403 15:22:21.463172 19221 net.cpp:425] loss2/relu_conv <- loss2/conv
I0403 15:22:21.463189 19221 net.cpp:386] loss2/relu_conv -> loss2/conv (in-place)
I0403 15:22:21.463466 19221 net.cpp:141] Setting up loss2/relu_conv
I0403 15:22:21.463492 19221 net.cpp:148] Top shape: 24 128 4 4 (49152)
I0403 15:22:21.463506 19221 net.cpp:156] Memory required for data: 1208122656
I0403 15:22:21.463521 19221 layer_factory.hpp:77] Creating layer loss2/fc
I0403 15:22:21.463541 19221 net.cpp:91] Creating Layer loss2/fc
I0403 15:22:21.463557 19221 net.cpp:425] loss2/fc <- loss2/conv
I0403 15:22:21.463575 19221 net.cpp:399] loss2/fc -> loss2/fc
I0403 15:22:21.480876 19221 net.cpp:141] Setting up loss2/fc
I0403 15:22:21.480909 19221 net.cpp:148] Top shape: 24 1024 (24576)
I0403 15:22:21.480924 19221 net.cpp:156] Memory required for data: 1208220960
I0403 15:22:21.480942 19221 layer_factory.hpp:77] Creating layer loss2/relu_fc
I0403 15:22:21.480959 19221 net.cpp:91] Creating Layer loss2/relu_fc
I0403 15:22:21.480975 19221 net.cpp:425] loss2/relu_fc <- loss2/fc
I0403 15:22:21.480998 19221 net.cpp:386] loss2/relu_fc -> loss2/fc (in-place)
I0403 15:22:21.481292 19221 net.cpp:141] Setting up loss2/relu_fc
I0403 15:22:21.481318 19221 net.cpp:148] Top shape: 24 1024 (24576)
I0403 15:22:21.481333 19221 net.cpp:156] Memory required for data: 1208319264
I0403 15:22:21.481348 19221 layer_factory.hpp:77] Creating layer loss2/drop_fc
I0403 15:22:21.481365 19221 net.cpp:91] Creating Layer loss2/drop_fc
I0403 15:22:21.481380 19221 net.cpp:425] loss2/drop_fc <- loss2/fc
I0403 15:22:21.481403 19221 net.cpp:386] loss2/drop_fc -> loss2/fc (in-place)
I0403 15:22:21.481451 19221 net.cpp:141] Setting up loss2/drop_fc
I0403 15:22:21.481472 19221 net.cpp:148] Top shape: 24 1024 (24576)
I0403 15:22:21.481487 19221 net.cpp:156] Memory required for data: 1208417568
I0403 15:22:21.481500 19221 layer_factory.hpp:77] Creating layer loss2/classifier_plantvillage
I0403 15:22:21.481521 19221 net.cpp:91] Creating Layer loss2/classifier_plantvillage
I0403 15:22:21.481537 19221 net.cpp:425] loss2/classifier_plantvillage <- loss2/fc
I0403 15:22:21.481556 19221 net.cpp:399] loss2/classifier_plantvillage -> loss2/classifier_plantvillage
I0403 15:22:21.481947 19221 net.cpp:141] Setting up loss2/classifier_plantvillage
I0403 15:22:21.481971 19221 net.cpp:148] Top shape: 24 38 (912)
I0403 15:22:21.482004 19221 net.cpp:156] Memory required for data: 1208421216
I0403 15:22:21.482023 19221 layer_factory.hpp:77] Creating layer loss2/classifier_plantvillage_loss2/classifier_plantvillage_0_split
I0403 15:22:21.482043 19221 net.cpp:91] Creating Layer loss2/classifier_plantvillage_loss2/classifier_plantvillage_0_split
I0403 15:22:21.482061 19221 net.cpp:425] loss2/classifier_plantvillage_loss2/classifier_plantvillage_0_split <- loss2/classifier_plantvillage
I0403 15:22:21.482077 19221 net.cpp:399] loss2/classifier_plantvillage_loss2/classifier_plantvillage_0_split -> loss2/classifier_plantvillage_loss2/classifier_plantvillage_0_split_0
I0403 15:22:21.482097 19221 net.cpp:399] loss2/classifier_plantvillage_loss2/classifier_plantvillage_0_split -> loss2/classifier_plantvillage_loss2/classifier_plantvillage_0_split_1
I0403 15:22:21.482116 19221 net.cpp:399] loss2/classifier_plantvillage_loss2/classifier_plantvillage_0_split -> loss2/classifier_plantvillage_loss2/classifier_plantvillage_0_split_2
I0403 15:22:21.482194 19221 net.cpp:141] Setting up loss2/classifier_plantvillage_loss2/classifier_plantvillage_0_split
I0403 15:22:21.482216 19221 net.cpp:148] Top shape: 24 38 (912)
I0403 15:22:21.482231 19221 net.cpp:148] Top shape: 24 38 (912)
I0403 15:22:21.482246 19221 net.cpp:148] Top shape: 24 38 (912)
I0403 15:22:21.482259 19221 net.cpp:156] Memory required for data: 1208432160
I0403 15:22:21.482272 19221 layer_factory.hpp:77] Creating layer inception_4e/1x1
I0403 15:22:21.482291 19221 net.cpp:91] Creating Layer inception_4e/1x1
I0403 15:22:21.482307 19221 net.cpp:425] inception_4e/1x1 <- inception_4d/output_inception_4d/output_0_split_1
I0403 15:22:21.482327 19221 net.cpp:399] inception_4e/1x1 -> inception_4e/1x1
I0403 15:22:21.484114 19221 net.cpp:141] Setting up inception_4e/1x1
I0403 15:22:21.484141 19221 net.cpp:148] Top shape: 24 256 14 14 (1204224)
I0403 15:22:21.484155 19221 net.cpp:156] Memory required for data: 1213249056
I0403 15:22:21.484174 19221 layer_factory.hpp:77] Creating layer inception_4e/relu_1x1
I0403 15:22:21.484192 19221 net.cpp:91] Creating Layer inception_4e/relu_1x1
I0403 15:22:21.484210 19221 net.cpp:425] inception_4e/relu_1x1 <- inception_4e/1x1
I0403 15:22:21.484225 19221 net.cpp:386] inception_4e/relu_1x1 -> inception_4e/1x1 (in-place)
I0403 15:22:21.484520 19221 net.cpp:141] Setting up inception_4e/relu_1x1
I0403 15:22:21.484546 19221 net.cpp:148] Top shape: 24 256 14 14 (1204224)
I0403 15:22:21.484560 19221 net.cpp:156] Memory required for data: 1218065952
I0403 15:22:21.484575 19221 layer_factory.hpp:77] Creating layer inception_4e/3x3_reduce
I0403 15:22:21.484596 19221 net.cpp:91] Creating Layer inception_4e/3x3_reduce
I0403 15:22:21.484614 19221 net.cpp:425] inception_4e/3x3_reduce <- inception_4d/output_inception_4d/output_0_split_2
I0403 15:22:21.484634 19221 net.cpp:399] inception_4e/3x3_reduce -> inception_4e/3x3_reduce
I0403 15:22:21.486764 19221 net.cpp:141] Setting up inception_4e/3x3_reduce
I0403 15:22:21.486793 19221 net.cpp:148] Top shape: 24 160 14 14 (752640)
I0403 15:22:21.486806 19221 net.cpp:156] Memory required for data: 1221076512
I0403 15:22:21.486824 19221 layer_factory.hpp:77] Creating layer inception_4e/relu_3x3_reduce
I0403 15:22:21.486841 19221 net.cpp:91] Creating Layer inception_4e/relu_3x3_reduce
I0403 15:22:21.486857 19221 net.cpp:425] inception_4e/relu_3x3_reduce <- inception_4e/3x3_reduce
I0403 15:22:21.486877 19221 net.cpp:386] inception_4e/relu_3x3_reduce -> inception_4e/3x3_reduce (in-place)
I0403 15:22:21.487066 19221 net.cpp:141] Setting up inception_4e/relu_3x3_reduce
I0403 15:22:21.487090 19221 net.cpp:148] Top shape: 24 160 14 14 (752640)
I0403 15:22:21.487104 19221 net.cpp:156] Memory required for data: 1224087072
I0403 15:22:21.487118 19221 layer_factory.hpp:77] Creating layer inception_4e/3x3
I0403 15:22:21.487140 19221 net.cpp:91] Creating Layer inception_4e/3x3
I0403 15:22:21.487157 19221 net.cpp:425] inception_4e/3x3 <- inception_4e/3x3_reduce
I0403 15:22:21.487177 19221 net.cpp:399] inception_4e/3x3 -> inception_4e/3x3
I0403 15:22:21.492086 19221 net.cpp:141] Setting up inception_4e/3x3
I0403 15:22:21.492126 19221 net.cpp:148] Top shape: 24 320 14 14 (1505280)
I0403 15:22:21.492141 19221 net.cpp:156] Memory required for data: 1230108192
I0403 15:22:21.492159 19221 layer_factory.hpp:77] Creating layer inception_4e/relu_3x3
I0403 15:22:21.492178 19221 net.cpp:91] Creating Layer inception_4e/relu_3x3
I0403 15:22:21.492195 19221 net.cpp:425] inception_4e/relu_3x3 <- inception_4e/3x3
I0403 15:22:21.492213 19221 net.cpp:386] inception_4e/relu_3x3 -> inception_4e/3x3 (in-place)
I0403 15:22:21.492506 19221 net.cpp:141] Setting up inception_4e/relu_3x3
I0403 15:22:21.492530 19221 net.cpp:148] Top shape: 24 320 14 14 (1505280)
I0403 15:22:21.492544 19221 net.cpp:156] Memory required for data: 1236129312
I0403 15:22:21.492558 19221 layer_factory.hpp:77] Creating layer inception_4e/5x5_reduce
I0403 15:22:21.492583 19221 net.cpp:91] Creating Layer inception_4e/5x5_reduce
I0403 15:22:21.492600 19221 net.cpp:425] inception_4e/5x5_reduce <- inception_4d/output_inception_4d/output_0_split_3
I0403 15:22:21.492619 19221 net.cpp:399] inception_4e/5x5_reduce -> inception_4e/5x5_reduce
I0403 15:22:21.493690 19221 net.cpp:141] Setting up inception_4e/5x5_reduce
I0403 15:22:21.493716 19221 net.cpp:148] Top shape: 24 32 14 14 (150528)
I0403 15:22:21.493731 19221 net.cpp:156] Memory required for data: 1236731424
I0403 15:22:21.493748 19221 layer_factory.hpp:77] Creating layer inception_4e/relu_5x5_reduce
I0403 15:22:21.493765 19221 net.cpp:91] Creating Layer inception_4e/relu_5x5_reduce
I0403 15:22:21.493782 19221 net.cpp:425] inception_4e/relu_5x5_reduce <- inception_4e/5x5_reduce
I0403 15:22:21.493800 19221 net.cpp:386] inception_4e/relu_5x5_reduce -> inception_4e/5x5_reduce (in-place)
I0403 15:22:21.494096 19221 net.cpp:141] Setting up inception_4e/relu_5x5_reduce
I0403 15:22:21.494120 19221 net.cpp:148] Top shape: 24 32 14 14 (150528)
I0403 15:22:21.494135 19221 net.cpp:156] Memory required for data: 1237333536
I0403 15:22:21.494149 19221 layer_factory.hpp:77] Creating layer inception_4e/5x5
I0403 15:22:21.494189 19221 net.cpp:91] Creating Layer inception_4e/5x5
I0403 15:22:21.494209 19221 net.cpp:425] inception_4e/5x5 <- inception_4e/5x5_reduce
I0403 15:22:21.494226 19221 net.cpp:399] inception_4e/5x5 -> inception_4e/5x5
I0403 15:22:21.496063 19221 net.cpp:141] Setting up inception_4e/5x5
I0403 15:22:21.496094 19221 net.cpp:148] Top shape: 24 128 14 14 (602112)
I0403 15:22:21.496110 19221 net.cpp:156] Memory required for data: 1239741984
I0403 15:22:21.496130 19221 layer_factory.hpp:77] Creating layer inception_4e/relu_5x5
I0403 15:22:21.496150 19221 net.cpp:91] Creating Layer inception_4e/relu_5x5
I0403 15:22:21.496165 19221 net.cpp:425] inception_4e/relu_5x5 <- inception_4e/5x5
I0403 15:22:21.496184 19221 net.cpp:386] inception_4e/relu_5x5 -> inception_4e/5x5 (in-place)
I0403 15:22:21.496399 19221 net.cpp:141] Setting up inception_4e/relu_5x5
I0403 15:22:21.496424 19221 net.cpp:148] Top shape: 24 128 14 14 (602112)
I0403 15:22:21.496438 19221 net.cpp:156] Memory required for data: 1242150432
I0403 15:22:21.496453 19221 layer_factory.hpp:77] Creating layer inception_4e/pool
I0403 15:22:21.496470 19221 net.cpp:91] Creating Layer inception_4e/pool
I0403 15:22:21.496490 19221 net.cpp:425] inception_4e/pool <- inception_4d/output_inception_4d/output_0_split_4
I0403 15:22:21.496507 19221 net.cpp:399] inception_4e/pool -> inception_4e/pool
I0403 15:22:21.496578 19221 net.cpp:141] Setting up inception_4e/pool
I0403 15:22:21.496603 19221 net.cpp:148] Top shape: 24 528 14 14 (2483712)
I0403 15:22:21.496615 19221 net.cpp:156] Memory required for data: 1252085280
I0403 15:22:21.496629 19221 layer_factory.hpp:77] Creating layer inception_4e/pool_proj
I0403 15:22:21.496651 19221 net.cpp:91] Creating Layer inception_4e/pool_proj
I0403 15:22:21.496668 19221 net.cpp:425] inception_4e/pool_proj <- inception_4e/pool
I0403 15:22:21.496690 19221 net.cpp:399] inception_4e/pool_proj -> inception_4e/pool_proj
I0403 15:22:21.498211 19221 net.cpp:141] Setting up inception_4e/pool_proj
I0403 15:22:21.498253 19221 net.cpp:148] Top shape: 24 128 14 14 (602112)
I0403 15:22:21.498270 19221 net.cpp:156] Memory required for data: 1254493728
I0403 15:22:21.498288 19221 layer_factory.hpp:77] Creating layer inception_4e/relu_pool_proj
I0403 15:22:21.498306 19221 net.cpp:91] Creating Layer inception_4e/relu_pool_proj
I0403 15:22:21.498322 19221 net.cpp:425] inception_4e/relu_pool_proj <- inception_4e/pool_proj
I0403 15:22:21.498338 19221 net.cpp:386] inception_4e/relu_pool_proj -> inception_4e/pool_proj (in-place)
I0403 15:22:21.498636 19221 net.cpp:141] Setting up inception_4e/relu_pool_proj
I0403 15:22:21.498666 19221 net.cpp:148] Top shape: 24 128 14 14 (602112)
I0403 15:22:21.498682 19221 net.cpp:156] Memory required for data: 1256902176
I0403 15:22:21.498695 19221 layer_factory.hpp:77] Creating layer inception_4e/output
I0403 15:22:21.498713 19221 net.cpp:91] Creating Layer inception_4e/output
I0403 15:22:21.498728 19221 net.cpp:425] inception_4e/output <- inception_4e/1x1
I0403 15:22:21.498744 19221 net.cpp:425] inception_4e/output <- inception_4e/3x3
I0403 15:22:21.498760 19221 net.cpp:425] inception_4e/output <- inception_4e/5x5
I0403 15:22:21.498775 19221 net.cpp:425] inception_4e/output <- inception_4e/pool_proj
I0403 15:22:21.498792 19221 net.cpp:399] inception_4e/output -> inception_4e/output
I0403 15:22:21.498843 19221 net.cpp:141] Setting up inception_4e/output
I0403 15:22:21.498867 19221 net.cpp:148] Top shape: 24 832 14 14 (3913728)
I0403 15:22:21.498881 19221 net.cpp:156] Memory required for data: 1272557088
I0403 15:22:21.498896 19221 layer_factory.hpp:77] Creating layer pool4/3x3_s2
I0403 15:22:21.498915 19221 net.cpp:91] Creating Layer pool4/3x3_s2
I0403 15:22:21.498932 19221 net.cpp:425] pool4/3x3_s2 <- inception_4e/output
I0403 15:22:21.498950 19221 net.cpp:399] pool4/3x3_s2 -> pool4/3x3_s2
I0403 15:22:21.499032 19221 net.cpp:141] Setting up pool4/3x3_s2
I0403 15:22:21.499058 19221 net.cpp:148] Top shape: 24 832 7 7 (978432)
I0403 15:22:21.499073 19221 net.cpp:156] Memory required for data: 1276470816
I0403 15:22:21.499088 19221 layer_factory.hpp:77] Creating layer pool4/3x3_s2_pool4/3x3_s2_0_split
I0403 15:22:21.499104 19221 net.cpp:91] Creating Layer pool4/3x3_s2_pool4/3x3_s2_0_split
I0403 15:22:21.499119 19221 net.cpp:425] pool4/3x3_s2_pool4/3x3_s2_0_split <- pool4/3x3_s2
I0403 15:22:21.499142 19221 net.cpp:399] pool4/3x3_s2_pool4/3x3_s2_0_split -> pool4/3x3_s2_pool4/3x3_s2_0_split_0
I0403 15:22:21.499164 19221 net.cpp:399] pool4/3x3_s2_pool4/3x3_s2_0_split -> pool4/3x3_s2_pool4/3x3_s2_0_split_1
I0403 15:22:21.499184 19221 net.cpp:399] pool4/3x3_s2_pool4/3x3_s2_0_split -> pool4/3x3_s2_pool4/3x3_s2_0_split_2
I0403 15:22:21.499203 19221 net.cpp:399] pool4/3x3_s2_pool4/3x3_s2_0_split -> pool4/3x3_s2_pool4/3x3_s2_0_split_3
I0403 15:22:21.499294 19221 net.cpp:141] Setting up pool4/3x3_s2_pool4/3x3_s2_0_split
I0403 15:22:21.499320 19221 net.cpp:148] Top shape: 24 832 7 7 (978432)
I0403 15:22:21.499337 19221 net.cpp:148] Top shape: 24 832 7 7 (978432)
I0403 15:22:21.499353 19221 net.cpp:148] Top shape: 24 832 7 7 (978432)
I0403 15:22:21.499368 19221 net.cpp:148] Top shape: 24 832 7 7 (978432)
I0403 15:22:21.499382 19221 net.cpp:156] Memory required for data: 1292125728
I0403 15:22:21.499397 19221 layer_factory.hpp:77] Creating layer inception_5a/1x1
I0403 15:22:21.499418 19221 net.cpp:91] Creating Layer inception_5a/1x1
I0403 15:22:21.499435 19221 net.cpp:425] inception_5a/1x1 <- pool4/3x3_s2_pool4/3x3_s2_0_split_0
I0403 15:22:21.499454 19221 net.cpp:399] inception_5a/1x1 -> inception_5a/1x1
I0403 15:22:21.502334 19221 net.cpp:141] Setting up inception_5a/1x1
I0403 15:22:21.502365 19221 net.cpp:148] Top shape: 24 256 7 7 (301056)
I0403 15:22:21.502382 19221 net.cpp:156] Memory required for data: 1293329952
I0403 15:22:21.502399 19221 layer_factory.hpp:77] Creating layer inception_5a/relu_1x1
I0403 15:22:21.502418 19221 net.cpp:91] Creating Layer inception_5a/relu_1x1
I0403 15:22:21.502434 19221 net.cpp:425] inception_5a/relu_1x1 <- inception_5a/1x1
I0403 15:22:21.502454 19221 net.cpp:386] inception_5a/relu_1x1 -> inception_5a/1x1 (in-place)
I0403 15:22:21.502764 19221 net.cpp:141] Setting up inception_5a/relu_1x1
I0403 15:22:21.502792 19221 net.cpp:148] Top shape: 24 256 7 7 (301056)
I0403 15:22:21.502809 19221 net.cpp:156] Memory required for data: 1294534176
I0403 15:22:21.502823 19221 layer_factory.hpp:77] Creating layer inception_5a/3x3_reduce
I0403 15:22:21.502845 19221 net.cpp:91] Creating Layer inception_5a/3x3_reduce
I0403 15:22:21.502862 19221 net.cpp:425] inception_5a/3x3_reduce <- pool4/3x3_s2_pool4/3x3_s2_0_split_1
I0403 15:22:21.502883 19221 net.cpp:399] inception_5a/3x3_reduce -> inception_5a/3x3_reduce
I0403 15:22:21.505357 19221 net.cpp:141] Setting up inception_5a/3x3_reduce
I0403 15:22:21.505384 19221 net.cpp:148] Top shape: 24 160 7 7 (188160)
I0403 15:22:21.505403 19221 net.cpp:156] Memory required for data: 1295286816
I0403 15:22:21.505421 19221 layer_factory.hpp:77] Creating layer inception_5a/relu_3x3_reduce
I0403 15:22:21.505439 19221 net.cpp:91] Creating Layer inception_5a/relu_3x3_reduce
I0403 15:22:21.505455 19221 net.cpp:425] inception_5a/relu_3x3_reduce <- inception_5a/3x3_reduce
I0403 15:22:21.505472 19221 net.cpp:386] inception_5a/relu_3x3_reduce -> inception_5a/3x3_reduce (in-place)
I0403 15:22:21.505661 19221 net.cpp:141] Setting up inception_5a/relu_3x3_reduce
I0403 15:22:21.505689 19221 net.cpp:148] Top shape: 24 160 7 7 (188160)
I0403 15:22:21.505703 19221 net.cpp:156] Memory required for data: 1296039456
I0403 15:22:21.505717 19221 layer_factory.hpp:77] Creating layer inception_5a/3x3
I0403 15:22:21.505739 19221 net.cpp:91] Creating Layer inception_5a/3x3
I0403 15:22:21.505756 19221 net.cpp:425] inception_5a/3x3 <- inception_5a/3x3_reduce
I0403 15:22:21.505774 19221 net.cpp:399] inception_5a/3x3 -> inception_5a/3x3
I0403 15:22:21.510838 19221 net.cpp:141] Setting up inception_5a/3x3
I0403 15:22:21.510866 19221 net.cpp:148] Top shape: 24 320 7 7 (376320)
I0403 15:22:21.510881 19221 net.cpp:156] Memory required for data: 1297544736
I0403 15:22:21.510898 19221 layer_factory.hpp:77] Creating layer inception_5a/relu_3x3
I0403 15:22:21.510916 19221 net.cpp:91] Creating Layer inception_5a/relu_3x3
I0403 15:22:21.510931 19221 net.cpp:425] inception_5a/relu_3x3 <- inception_5a/3x3
I0403 15:22:21.510951 19221 net.cpp:386] inception_5a/relu_3x3 -> inception_5a/3x3 (in-place)
I0403 15:22:21.511251 19221 net.cpp:141] Setting up inception_5a/relu_3x3
I0403 15:22:21.511278 19221 net.cpp:148] Top shape: 24 320 7 7 (376320)
I0403 15:22:21.511292 19221 net.cpp:156] Memory required for data: 1299050016
I0403 15:22:21.511307 19221 layer_factory.hpp:77] Creating layer inception_5a/5x5_reduce
I0403 15:22:21.511329 19221 net.cpp:91] Creating Layer inception_5a/5x5_reduce
I0403 15:22:21.511348 19221 net.cpp:425] inception_5a/5x5_reduce <- pool4/3x3_s2_pool4/3x3_s2_0_split_2
I0403 15:22:21.511369 19221 net.cpp:399] inception_5a/5x5_reduce -> inception_5a/5x5_reduce
I0403 15:22:21.512552 19221 net.cpp:141] Setting up inception_5a/5x5_reduce
I0403 15:22:21.512581 19221 net.cpp:148] Top shape: 24 32 7 7 (37632)
I0403 15:22:21.512598 19221 net.cpp:156] Memory required for data: 1299200544
I0403 15:22:21.512616 19221 layer_factory.hpp:77] Creating layer inception_5a/relu_5x5_reduce
I0403 15:22:21.512636 19221 net.cpp:91] Creating Layer inception_5a/relu_5x5_reduce
I0403 15:22:21.512655 19221 net.cpp:425] inception_5a/relu_5x5_reduce <- inception_5a/5x5_reduce
I0403 15:22:21.512671 19221 net.cpp:386] inception_5a/relu_5x5_reduce -> inception_5a/5x5_reduce (in-place)
I0403 15:22:21.512976 19221 net.cpp:141] Setting up inception_5a/relu_5x5_reduce
I0403 15:22:21.513005 19221 net.cpp:148] Top shape: 24 32 7 7 (37632)
I0403 15:22:21.513021 19221 net.cpp:156] Memory required for data: 1299351072
I0403 15:22:21.513036 19221 layer_factory.hpp:77] Creating layer inception_5a/5x5
I0403 15:22:21.513058 19221 net.cpp:91] Creating Layer inception_5a/5x5
I0403 15:22:21.513075 19221 net.cpp:425] inception_5a/5x5 <- inception_5a/5x5_reduce
I0403 15:22:21.513098 19221 net.cpp:399] inception_5a/5x5 -> inception_5a/5x5
I0403 15:22:21.514843 19221 net.cpp:141] Setting up inception_5a/5x5
I0403 15:22:21.514881 19221 net.cpp:148] Top shape: 24 128 7 7 (150528)
I0403 15:22:21.514896 19221 net.cpp:156] Memory required for data: 1299953184
I0403 15:22:21.514914 19221 layer_factory.hpp:77] Creating layer inception_5a/relu_5x5
I0403 15:22:21.514931 19221 net.cpp:91] Creating Layer inception_5a/relu_5x5
I0403 15:22:21.514946 19221 net.cpp:425] inception_5a/relu_5x5 <- inception_5a/5x5
I0403 15:22:21.514964 19221 net.cpp:386] inception_5a/relu_5x5 -> inception_5a/5x5 (in-place)
I0403 15:22:21.515156 19221 net.cpp:141] Setting up inception_5a/relu_5x5
I0403 15:22:21.515182 19221 net.cpp:148] Top shape: 24 128 7 7 (150528)
I0403 15:22:21.515195 19221 net.cpp:156] Memory required for data: 1300555296
I0403 15:22:21.515209 19221 layer_factory.hpp:77] Creating layer inception_5a/pool
I0403 15:22:21.515228 19221 net.cpp:91] Creating Layer inception_5a/pool
I0403 15:22:21.515244 19221 net.cpp:425] inception_5a/pool <- pool4/3x3_s2_pool4/3x3_s2_0_split_3
I0403 15:22:21.515261 19221 net.cpp:399] inception_5a/pool -> inception_5a/pool
I0403 15:22:21.515329 19221 net.cpp:141] Setting up inception_5a/pool
I0403 15:22:21.515352 19221 net.cpp:148] Top shape: 24 832 7 7 (978432)
I0403 15:22:21.515367 19221 net.cpp:156] Memory required for data: 1304469024
I0403 15:22:21.515380 19221 layer_factory.hpp:77] Creating layer inception_5a/pool_proj
I0403 15:22:21.515401 19221 net.cpp:91] Creating Layer inception_5a/pool_proj
I0403 15:22:21.515419 19221 net.cpp:425] inception_5a/pool_proj <- inception_5a/pool
I0403 15:22:21.515439 19221 net.cpp:399] inception_5a/pool_proj -> inception_5a/pool_proj
I0403 15:22:21.521134 19221 net.cpp:141] Setting up inception_5a/pool_proj
I0403 15:22:21.521164 19221 net.cpp:148] Top shape: 24 128 7 7 (150528)
I0403 15:22:21.521180 19221 net.cpp:156] Memory required for data: 1305071136
I0403 15:22:21.521198 19221 layer_factory.hpp:77] Creating layer inception_5a/relu_pool_proj
I0403 15:22:21.521215 19221 net.cpp:91] Creating Layer inception_5a/relu_pool_proj
I0403 15:22:21.521232 19221 net.cpp:425] inception_5a/relu_pool_proj <- inception_5a/pool_proj
I0403 15:22:21.521251 19221 net.cpp:386] inception_5a/relu_pool_proj -> inception_5a/pool_proj (in-place)
I0403 15:22:21.521540 19221 net.cpp:141] Setting up inception_5a/relu_pool_proj
I0403 15:22:21.521569 19221 net.cpp:148] Top shape: 24 128 7 7 (150528)
I0403 15:22:21.521584 19221 net.cpp:156] Memory required for data: 1305673248
I0403 15:22:21.521597 19221 layer_factory.hpp:77] Creating layer inception_5a/output
I0403 15:22:21.521615 19221 net.cpp:91] Creating Layer inception_5a/output
I0403 15:22:21.521631 19221 net.cpp:425] inception_5a/output <- inception_5a/1x1
I0403 15:22:21.521646 19221 net.cpp:425] inception_5a/output <- inception_5a/3x3
I0403 15:22:21.521662 19221 net.cpp:425] inception_5a/output <- inception_5a/5x5
I0403 15:22:21.521677 19221 net.cpp:425] inception_5a/output <- inception_5a/pool_proj
I0403 15:22:21.521694 19221 net.cpp:399] inception_5a/output -> inception_5a/output
I0403 15:22:21.521744 19221 net.cpp:141] Setting up inception_5a/output
I0403 15:22:21.521766 19221 net.cpp:148] Top shape: 24 832 7 7 (978432)
I0403 15:22:21.521780 19221 net.cpp:156] Memory required for data: 1309586976
I0403 15:22:21.521795 19221 layer_factory.hpp:77] Creating layer inception_5a/output_inception_5a/output_0_split
I0403 15:22:21.521811 19221 net.cpp:91] Creating Layer inception_5a/output_inception_5a/output_0_split
I0403 15:22:21.521826 19221 net.cpp:425] inception_5a/output_inception_5a/output_0_split <- inception_5a/output
I0403 15:22:21.521845 19221 net.cpp:399] inception_5a/output_inception_5a/output_0_split -> inception_5a/output_inception_5a/output_0_split_0
I0403 15:22:21.521865 19221 net.cpp:399] inception_5a/output_inception_5a/output_0_split -> inception_5a/output_inception_5a/output_0_split_1
I0403 15:22:21.521885 19221 net.cpp:399] inception_5a/output_inception_5a/output_0_split -> inception_5a/output_inception_5a/output_0_split_2
I0403 15:22:21.521908 19221 net.cpp:399] inception_5a/output_inception_5a/output_0_split -> inception_5a/output_inception_5a/output_0_split_3
I0403 15:22:21.522022 19221 net.cpp:141] Setting up inception_5a/output_inception_5a/output_0_split
I0403 15:22:21.522045 19221 net.cpp:148] Top shape: 24 832 7 7 (978432)
I0403 15:22:21.522061 19221 net.cpp:148] Top shape: 24 832 7 7 (978432)
I0403 15:22:21.522076 19221 net.cpp:148] Top shape: 24 832 7 7 (978432)
I0403 15:22:21.522091 19221 net.cpp:148] Top shape: 24 832 7 7 (978432)
I0403 15:22:21.522104 19221 net.cpp:156] Memory required for data: 1325241888
I0403 15:22:21.522119 19221 layer_factory.hpp:77] Creating layer inception_5b/1x1
I0403 15:22:21.522140 19221 net.cpp:91] Creating Layer inception_5b/1x1
I0403 15:22:21.522157 19221 net.cpp:425] inception_5b/1x1 <- inception_5a/output_inception_5a/output_0_split_0
I0403 15:22:21.522178 19221 net.cpp:399] inception_5b/1x1 -> inception_5b/1x1
I0403 15:22:21.525885 19221 net.cpp:141] Setting up inception_5b/1x1
I0403 15:22:21.525916 19221 net.cpp:148] Top shape: 24 384 7 7 (451584)
I0403 15:22:21.525931 19221 net.cpp:156] Memory required for data: 1327048224
I0403 15:22:21.525949 19221 layer_factory.hpp:77] Creating layer inception_5b/relu_1x1
I0403 15:22:21.525967 19221 net.cpp:91] Creating Layer inception_5b/relu_1x1
I0403 15:22:21.525984 19221 net.cpp:425] inception_5b/relu_1x1 <- inception_5b/1x1
I0403 15:22:21.526005 19221 net.cpp:386] inception_5b/relu_1x1 -> inception_5b/1x1 (in-place)
I0403 15:22:21.526303 19221 net.cpp:141] Setting up inception_5b/relu_1x1
I0403 15:22:21.526329 19221 net.cpp:148] Top shape: 24 384 7 7 (451584)
I0403 15:22:21.526345 19221 net.cpp:156] Memory required for data: 1328854560
I0403 15:22:21.526360 19221 layer_factory.hpp:77] Creating layer inception_5b/3x3_reduce
I0403 15:22:21.526379 19221 net.cpp:91] Creating Layer inception_5b/3x3_reduce
I0403 15:22:21.526396 19221 net.cpp:425] inception_5b/3x3_reduce <- inception_5a/output_inception_5a/output_0_split_1
I0403 15:22:21.526415 19221 net.cpp:399] inception_5b/3x3_reduce -> inception_5b/3x3_reduce
I0403 15:22:21.529790 19221 net.cpp:141] Setting up inception_5b/3x3_reduce
I0403 15:22:21.529817 19221 net.cpp:148] Top shape: 24 192 7 7 (225792)
I0403 15:22:21.529832 19221 net.cpp:156] Memory required for data: 1329757728
I0403 15:22:21.529850 19221 layer_factory.hpp:77] Creating layer inception_5b/relu_3x3_reduce
I0403 15:22:21.529870 19221 net.cpp:91] Creating Layer inception_5b/relu_3x3_reduce
I0403 15:22:21.529886 19221 net.cpp:425] inception_5b/relu_3x3_reduce <- inception_5b/3x3_reduce
I0403 15:22:21.529903 19221 net.cpp:386] inception_5b/relu_3x3_reduce -> inception_5b/3x3_reduce (in-place)
I0403 15:22:21.530094 19221 net.cpp:141] Setting up inception_5b/relu_3x3_reduce
I0403 15:22:21.530119 19221 net.cpp:148] Top shape: 24 192 7 7 (225792)
I0403 15:22:21.530133 19221 net.cpp:156] Memory required for data: 1330660896
I0403 15:22:21.530148 19221 layer_factory.hpp:77] Creating layer inception_5b/3x3
I0403 15:22:21.530169 19221 net.cpp:91] Creating Layer inception_5b/3x3
I0403 15:22:21.530185 19221 net.cpp:425] inception_5b/3x3 <- inception_5b/3x3_reduce
I0403 15:22:21.530206 19221 net.cpp:399] inception_5b/3x3 -> inception_5b/3x3
I0403 15:22:21.536762 19221 net.cpp:141] Setting up inception_5b/3x3
I0403 15:22:21.536792 19221 net.cpp:148] Top shape: 24 384 7 7 (451584)
I0403 15:22:21.536808 19221 net.cpp:156] Memory required for data: 1332467232
I0403 15:22:21.536825 19221 layer_factory.hpp:77] Creating layer inception_5b/relu_3x3
I0403 15:22:21.536844 19221 net.cpp:91] Creating Layer inception_5b/relu_3x3
I0403 15:22:21.536859 19221 net.cpp:425] inception_5b/relu_3x3 <- inception_5b/3x3
I0403 15:22:21.536878 19221 net.cpp:386] inception_5b/relu_3x3 -> inception_5b/3x3 (in-place)
I0403 15:22:21.537194 19221 net.cpp:141] Setting up inception_5b/relu_3x3
I0403 15:22:21.537222 19221 net.cpp:148] Top shape: 24 384 7 7 (451584)
I0403 15:22:21.537238 19221 net.cpp:156] Memory required for data: 1334273568
I0403 15:22:21.537264 19221 layer_factory.hpp:77] Creating layer inception_5b/5x5_reduce
I0403 15:22:21.537304 19221 net.cpp:91] Creating Layer inception_5b/5x5_reduce
I0403 15:22:21.537324 19221 net.cpp:425] inception_5b/5x5_reduce <- inception_5a/output_inception_5a/output_0_split_2
I0403 15:22:21.537343 19221 net.cpp:399] inception_5b/5x5_reduce -> inception_5b/5x5_reduce
I0403 15:22:21.538589 19221 net.cpp:141] Setting up inception_5b/5x5_reduce
I0403 15:22:21.538617 19221 net.cpp:148] Top shape: 24 48 7 7 (56448)
I0403 15:22:21.538633 19221 net.cpp:156] Memory required for data: 1334499360
I0403 15:22:21.538651 19221 layer_factory.hpp:77] Creating layer inception_5b/relu_5x5_reduce
I0403 15:22:21.538669 19221 net.cpp:91] Creating Layer inception_5b/relu_5x5_reduce
I0403 15:22:21.538686 19221 net.cpp:425] inception_5b/relu_5x5_reduce <- inception_5b/5x5_reduce
I0403 15:22:21.538700 19221 net.cpp:386] inception_5b/relu_5x5_reduce -> inception_5b/5x5_reduce (in-place)
I0403 15:22:21.539079 19221 net.cpp:141] Setting up inception_5b/relu_5x5_reduce
I0403 15:22:21.539105 19221 net.cpp:148] Top shape: 24 48 7 7 (56448)
I0403 15:22:21.539120 19221 net.cpp:156] Memory required for data: 1334725152
I0403 15:22:21.539134 19221 layer_factory.hpp:77] Creating layer inception_5b/5x5
I0403 15:22:21.539154 19221 net.cpp:91] Creating Layer inception_5b/5x5
I0403 15:22:21.539170 19221 net.cpp:425] inception_5b/5x5 <- inception_5b/5x5_reduce
I0403 15:22:21.539187 19221 net.cpp:399] inception_5b/5x5 -> inception_5b/5x5
I0403 15:22:21.541194 19221 net.cpp:141] Setting up inception_5b/5x5
I0403 15:22:21.541224 19221 net.cpp:148] Top shape: 24 128 7 7 (150528)
I0403 15:22:21.541239 19221 net.cpp:156] Memory required for data: 1335327264
I0403 15:22:21.541257 19221 layer_factory.hpp:77] Creating layer inception_5b/relu_5x5
I0403 15:22:21.541275 19221 net.cpp:91] Creating Layer inception_5b/relu_5x5
I0403 15:22:21.541290 19221 net.cpp:425] inception_5b/relu_5x5 <- inception_5b/5x5
I0403 15:22:21.541308 19221 net.cpp:386] inception_5b/relu_5x5 -> inception_5b/5x5 (in-place)
I0403 15:22:21.541498 19221 net.cpp:141] Setting up inception_5b/relu_5x5
I0403 15:22:21.541522 19221 net.cpp:148] Top shape: 24 128 7 7 (150528)
I0403 15:22:21.541537 19221 net.cpp:156] Memory required for data: 1335929376
I0403 15:22:21.541551 19221 layer_factory.hpp:77] Creating layer inception_5b/pool
I0403 15:22:21.541568 19221 net.cpp:91] Creating Layer inception_5b/pool
I0403 15:22:21.541584 19221 net.cpp:425] inception_5b/pool <- inception_5a/output_inception_5a/output_0_split_3
I0403 15:22:21.541604 19221 net.cpp:399] inception_5b/pool -> inception_5b/pool
I0403 15:22:21.541678 19221 net.cpp:141] Setting up inception_5b/pool
I0403 15:22:21.541702 19221 net.cpp:148] Top shape: 24 832 7 7 (978432)
I0403 15:22:21.541715 19221 net.cpp:156] Memory required for data: 1339843104
I0403 15:22:21.541728 19221 layer_factory.hpp:77] Creating layer inception_5b/pool_proj
I0403 15:22:21.541750 19221 net.cpp:91] Creating Layer inception_5b/pool_proj
I0403 15:22:21.541767 19221 net.cpp:425] inception_5b/pool_proj <- inception_5b/pool
I0403 15:22:21.541787 19221 net.cpp:399] inception_5b/pool_proj -> inception_5b/pool_proj
I0403 15:22:21.544081 19221 net.cpp:141] Setting up inception_5b/pool_proj
I0403 15:22:21.544112 19221 net.cpp:148] Top shape: 24 128 7 7 (150528)
I0403 15:22:21.544128 19221 net.cpp:156] Memory required for data: 1340445216
I0403 15:22:21.544147 19221 layer_factory.hpp:77] Creating layer inception_5b/relu_pool_proj
I0403 15:22:21.544164 19221 net.cpp:91] Creating Layer inception_5b/relu_pool_proj
I0403 15:22:21.544180 19221 net.cpp:425] inception_5b/relu_pool_proj <- inception_5b/pool_proj
I0403 15:22:21.544205 19221 net.cpp:386] inception_5b/relu_pool_proj -> inception_5b/pool_proj (in-place)
I0403 15:22:21.544528 19221 net.cpp:141] Setting up inception_5b/relu_pool_proj
I0403 15:22:21.544569 19221 net.cpp:148] Top shape: 24 128 7 7 (150528)
I0403 15:22:21.544585 19221 net.cpp:156] Memory required for data: 1341047328
I0403 15:22:21.544600 19221 layer_factory.hpp:77] Creating layer inception_5b/output
I0403 15:22:21.544617 19221 net.cpp:91] Creating Layer inception_5b/output
I0403 15:22:21.544647 19221 net.cpp:425] inception_5b/output <- inception_5b/1x1
I0403 15:22:21.544666 19221 net.cpp:425] inception_5b/output <- inception_5b/3x3
I0403 15:22:21.544682 19221 net.cpp:425] inception_5b/output <- inception_5b/5x5
I0403 15:22:21.544698 19221 net.cpp:425] inception_5b/output <- inception_5b/pool_proj
I0403 15:22:21.544719 19221 net.cpp:399] inception_5b/output -> inception_5b/output
I0403 15:22:21.544773 19221 net.cpp:141] Setting up inception_5b/output
I0403 15:22:21.544796 19221 net.cpp:148] Top shape: 24 1024 7 7 (1204224)
I0403 15:22:21.544811 19221 net.cpp:156] Memory required for data: 1345864224
I0403 15:22:21.544826 19221 layer_factory.hpp:77] Creating layer pool5/7x7_s1
I0403 15:22:21.544850 19221 net.cpp:91] Creating Layer pool5/7x7_s1
I0403 15:22:21.544867 19221 net.cpp:425] pool5/7x7_s1 <- inception_5b/output
I0403 15:22:21.544884 19221 net.cpp:399] pool5/7x7_s1 -> pool5/7x7_s1
I0403 15:22:21.545120 19221 net.cpp:141] Setting up pool5/7x7_s1
I0403 15:22:21.545145 19221 net.cpp:148] Top shape: 24 1024 1 1 (24576)
I0403 15:22:21.545158 19221 net.cpp:156] Memory required for data: 1345962528
I0403 15:22:21.545172 19221 layer_factory.hpp:77] Creating layer pool5/drop_7x7_s1
I0403 15:22:21.545189 19221 net.cpp:91] Creating Layer pool5/drop_7x7_s1
I0403 15:22:21.545204 19221 net.cpp:425] pool5/drop_7x7_s1 <- pool5/7x7_s1
I0403 15:22:21.545223 19221 net.cpp:386] pool5/drop_7x7_s1 -> pool5/7x7_s1 (in-place)
I0403 15:22:21.545272 19221 net.cpp:141] Setting up pool5/drop_7x7_s1
I0403 15:22:21.545297 19221 net.cpp:148] Top shape: 24 1024 1 1 (24576)
I0403 15:22:21.545311 19221 net.cpp:156] Memory required for data: 1346060832
I0403 15:22:21.545325 19221 layer_factory.hpp:77] Creating layer loss3/classifier_plantvillage
I0403 15:22:21.545343 19221 net.cpp:91] Creating Layer loss3/classifier_plantvillage
I0403 15:22:21.545358 19221 net.cpp:425] loss3/classifier_plantvillage <- pool5/7x7_s1
I0403 15:22:21.545379 19221 net.cpp:399] loss3/classifier_plantvillage -> loss3/classifier_plantvillage
I0403 15:22:21.545794 19221 net.cpp:141] Setting up loss3/classifier_plantvillage
I0403 15:22:21.545817 19221 net.cpp:148] Top shape: 24 38 (912)
I0403 15:22:21.545831 19221 net.cpp:156] Memory required for data: 1346064480
I0403 15:22:21.545848 19221 layer_factory.hpp:77] Creating layer loss3/classifier_plantvillage_loss3/classifier_plantvillage_0_split
I0403 15:22:21.545868 19221 net.cpp:91] Creating Layer loss3/classifier_plantvillage_loss3/classifier_plantvillage_0_split
I0403 15:22:21.545884 19221 net.cpp:425] loss3/classifier_plantvillage_loss3/classifier_plantvillage_0_split <- loss3/classifier_plantvillage
I0403 15:22:21.545902 19221 net.cpp:399] loss3/classifier_plantvillage_loss3/classifier_plantvillage_0_split -> loss3/classifier_plantvillage_loss3/classifier_plantvillage_0_split_0
I0403 15:22:21.545922 19221 net.cpp:399] loss3/classifier_plantvillage_loss3/classifier_plantvillage_0_split -> loss3/classifier_plantvillage_loss3/classifier_plantvillage_0_split_1
I0403 15:22:21.545939 19221 net.cpp:399] loss3/classifier_plantvillage_loss3/classifier_plantvillage_0_split -> loss3/classifier_plantvillage_loss3/classifier_plantvillage_0_split_2
I0403 15:22:21.545961 19221 net.cpp:399] loss3/classifier_plantvillage_loss3/classifier_plantvillage_0_split -> loss3/classifier_plantvillage_loss3/classifier_plantvillage_0_split_3
I0403 15:22:21.546066 19221 net.cpp:141] Setting up loss3/classifier_plantvillage_loss3/classifier_plantvillage_0_split
I0403 15:22:21.546088 19221 net.cpp:148] Top shape: 24 38 (912)
I0403 15:22:21.546104 19221 net.cpp:148] Top shape: 24 38 (912)
I0403 15:22:21.546118 19221 net.cpp:148] Top shape: 24 38 (912)
I0403 15:22:21.546133 19221 net.cpp:148] Top shape: 24 38 (912)
I0403 15:22:21.546145 19221 net.cpp:156] Memory required for data: 1346079072
I0403 15:22:21.546159 19221 layer_factory.hpp:77] Creating layer loss1/loss
I0403 15:22:21.546180 19221 net.cpp:91] Creating Layer loss1/loss
I0403 15:22:21.546196 19221 net.cpp:425] loss1/loss <- loss1/classifier_plantvillage_loss1/classifier_plantvillage_0_split_0
I0403 15:22:21.546226 19221 net.cpp:425] loss1/loss <- label_data_1_split_0
…
