…
I0403 14:55:30.896111 17845 net.cpp:313] The NetState phase (1) differed from the phase (0) specified by a rule in layer data
I0403 14:55:30.897351 17845 net.cpp:49] Initializing net from parameters: 
state {
  phase: TEST
}
layer {
  name: "data"
  type: "Data"
  top: "data"
  top: "label"
  include {
    phase: TEST
  }
  transform_param {
    mirror: false
    crop_size: 224
    mean_file: "/home/mohanty/data/final_dataset/lmdb/grayscale-40-60/mean.binaryproto"
  }
  data_param {
    source: "/home/mohanty/data/final_dataset/lmdb/grayscale-40-60/test_db"
    batch_size: 24
    backend: LMDB
  }
}
layer {
  name: "conv1/7x7_s2"
  type: "Convolution"
  bottom: "data"
  top: "conv1/7x7_s2"
  param {
    lr_mult: 1
    decay_mult: 1
  }
  param {
    lr_mult: 2
    decay_mult: 0
  }
  convolution_param {
    num_output: 64
    pad: 3
    kernel_size: 7
    stride: 2
    weight_filler {
      type: "xavier"
      std: 0.1
    }
    bias_filler {
      type: "constant"
      value: 0.2
    }
  }
}
layer {
  name: "conv1/relu_7x7"
  type: "ReLU"
  bottom: "conv1/7x7_s2"
  top: "conv1/7x7_s2"
}
layer {
  name: "pool1/3x3_s2"
  type: "Pooling"
  bottom: "conv1/7x7_s2"
  top: "pool1/3x3_s2"
  pooling_param {
    pool: MAX
    kernel_size: 3
    stride: 2
  }
}
layer {
  name: "pool1/norm1"
  type: "LRN"
  bottom: "pool1/3x3_s2"
  top: "pool1/norm1"
  lrn_param {
    local_size: 5
    alpha: 0.0001
    beta: 0.75
  }
}
layer {
  name: "conv2/3x3_reduce"
  type: "Convolution"
  bottom: "pool1/norm1"
  top: "conv2/3x3_reduce"
  param {
    lr_mult: 1
    decay_mult: 1
  }
  param {
    lr_mult: 2
    decay_mult: 0
  }
  convolution_param {
    num_output: 64
    kernel_size: 1
    weight_filler {
      type: "xavier"
      std: 0.1
    }
    bias_filler {
      type: "constant"
      value: 0.2
    }
  }
}
layer {
  name: "conv2/relu_3x3_reduce"
  type: "ReLU"
  bottom: "conv2/3x3_reduce"
  top: "conv2/3x3_reduce"
}
layer {
  name: "conv2/3x3"
  type: "Convolution"
  bottom: "conv2/3x3_reduce"
  top: "conv2/3x3"
  param {
    lr_mult: 1
    decay_mult: 1
  }
  param {
    lr_mult: 2
    decay_mult: 0
  }
  convolution_param {
    num_output: 192
    pad: 1
    kernel_size: 3
    weight_filler {
      type: "xavier"
      std: 0.03
    }
    bias_filler {
      type: "constant"
      value: 0.2
    }
  }
}
layer {
  name: "conv2/relu_3x3"
  type: "ReLU"
  bottom: "conv2/3x3"
  top: "conv2/3x3"
}
layer {
  name: "conv2/norm2"
  type: "LRN"
  bottom: "conv2/3x3"
  top: "conv2/norm2"
  lrn_param {
    local_size: 5
    alpha: 0.0001
    beta: 0.75
  }
}
layer {
  name: "pool2/3x3_s2"
  type: "Pooling"
  bottom: "conv2/norm2"
  top: "pool2/3x3_s2"
  pooling_param {
    pool: MAX
    kernel_size: 3
    stride: 2
  }
}
layer {
  name: "inception_3a/1x1"
  type: "Convolution"
  bottom: "pool2/3x3_s2"
  top: "inception_3a/1x1"
  param {
    lr_mult: 1
    decay_mult: 1
  }
  param {
    lr_mult: 2
    decay_mult: 0
  }
  convolution_param {
    num_output: 64
    kernel_size: 1
    weight_filler {
      type: "xavier"
      std: 0.03
    }
    bias_filler {
      type: "constant"
      value: 0.2
    }
  }
}
layer {
  name: "inception_3a/relu_1x1"
  type: "ReLU"
  bottom: "inception_3a/1x1"
  top: "inception_3a/1x1"
}
layer {
  name: "inception_3a/3x3_reduce"
  type: "Convolution"
  bottom: "pool2/3x3_s2"
  top: "inception_3a/3x3_reduce"
  param {
    lr_mult: 1
    decay_mult: 1
  }
  param {
    lr_mult: 2
    decay_mult: 0
  }
  convolution_param {
    num_output: 96
    kernel_size: 1
    weight_filler {
      type: "xavier"
      std: 0.09
    }
    bias_filler {
      type: "constant"
      value: 0.2
    }
  }
}
layer {
  name: "inception_3a/relu_3x3_reduce"
  type: "ReLU"
  bottom: "inception_3a/3x3_reduce"
  top: "inception_3a/3x3_reduce"
}
layer {
  name: "inception_3a/3x3"
  type: "Convolution"
  bottom: "inception_3a/3x3_reduce"
  top: "inception_3a/3x3"
  param {
    lr_mult: 1
    decay_mult: 1
  }
  param {
    lr_mult: 2
    decay_mult: 0
  }
  convolution_param {
    num_output: 128
    pad: 1
    kernel_size: 3
    weight_filler {
      type: "xavier"
      std: 0.03
    }
    bias_filler {
      type: "constant"
      value: 0.2
    }
  }
}
layer {
  name: "inception_3a/relu_3x3"
  type: "ReLU"
  bottom: "inception_3a/3x3"
  top: "inception_3a/3x3"
}
layer {
  name: "inception_3a/5x5_reduce"
  type: "Convolution"
  bottom: "pool2/3x3_s2"
  top: "inception_3a/5x5_reduce"
  param {
    lr_mult: 1
    decay_mult: 1
  }
  param {
    lr_mult: 2
    decay_mult: 0
  }
  convolution_param {
    num_output: 16
    kernel_size: 1
    weight_filler {
      type: "xavier"
      std: 0.2
    }
    bias_filler {
      type: "constant"
      value: 0.2
    }
  }
}
layer {
  name: "inception_3a/relu_5x5_reduce"
  type: "ReLU"
  bottom: "inception_3a/5x5_reduce"
  top: "inception_3a/5x5_reduce"
}
layer {
  name: "inception_3a/5x5"
  type: "Convolution"
  bottom: "inception_3a/5x5_reduce"
  top: "inception_3a/5x5"
  param {
    lr_mult: 1
    decay_mult: 1
  }
  param {
    lr_mult: 2
    decay_mult: 0
  }
  convolution_param {
    num_output: 32
    pad: 2
    kernel_size: 5
    weight_filler {
      type: "xavier"
      std: 0.03
    }
    bias_filler {
      type: "constant"
      value: 0.2
    }
  }
}
layer {
  name: "inception_3a/relu_5x5"
  type: "ReLU"
  bottom: "inception_3a/5x5"
  top: "inception_3a/5x5"
}
layer {
  name: "inception_3a/pool"
  type: "Pooling"
  bottom: "pool2/3x3_s2"
  top: "inception_3a/pool"
  pooling_param {
    pool: MAX
    kernel_size: 3
    stride: 1
    pad: 1
  }
}
layer {
  name: "inception_3a/pool_proj"
  type: "Convolution"
  bottom: "inception_3a/pool"
  top: "inception_3a/pool_proj"
  param {
    lr_mult: 1
    decay_mult: 1
  }
  param {
    lr_mult: 2
    decay_mult: 0
  }
  convolution_param {
    num_output: 32
    kernel_size: 1
    weight_filler {
      type: "xavier"
      std: 0.1
    }
    bias_filler {
      type: "constant"
      value: 0.2
    }
  }
}
layer {
  name: "inception_3a/relu_pool_proj"
  type: "ReLU"
  bottom: "inception_3a/pool_proj"
  top: "inception_3a/pool_proj"
}
layer {
  name: "inception_3a/output"
  type: "Concat"
  bottom: "inception_3a/1x1"
  bottom: "inception_3a/3x3"
  bottom: "inception_3a/5x5"
  bottom: "inception_3a/pool_proj"
  top: "inception_3a/output"
}
layer {
  name: "inception_3b/1x1"
  type: "Convolution"
  bottom: "inception_3a/output"
  top: "inception_3b/1x1"
  param {
    lr_mult: 1
    decay_mult: 1
  }
  param {
    lr_mult: 2
    decay_mult: 0
  }
  convolution_param {
    num_output: 128
    kernel_size: 1
    weight_filler {
      type: "xavier"
      std: 0.03
    }
    bias_filler {
      type: "constant"
      value: 0.2
    }
  }
}
layer {
  name: "inception_3b/relu_1x1"
  type: "ReLU"
  bottom: "inception_3b/1x1"
  top: "inception_3b/1x1"
}
layer {
  name: "inception_3b/3x3_reduce"
  type: "Convolution"
  bottom: "inception_3a/output"
  top: "inception_3b/3x3_reduce"
  param {
    lr_mult: 1
    decay_mult: 1
  }
  param {
    lr_mult: 2
    decay_mult: 0
  }
  convolution_param {
    num_output: 128
    kernel_size: 1
    weight_filler {
      type: "xavier"
      std: 0.09
    }
    bias_filler {
      type: "constant"
      value: 0.2
    }
  }
}
layer {
  name: "inception_3b/relu_3x3_reduce"
  type: "ReLU"
  bottom: "inception_3b/3x3_reduce"
  top: "inception_3b/3x3_reduce"
}
layer {
  name: "inception_3b/3x3"
  type: "Convolution"
  bottom: "inception_3b/3x3_reduce"
  top: "inception_3b/3x3"
  param {
    lr_mult: 1
    decay_mult: 1
  }
  param {
    lr_mult: 2
    decay_mult: 0
  }
  convolution_param {
    num_output: 192
    pad: 1
    kernel_size: 3
    weight_filler {
      type: "xavier"
      std: 0.03
    }
    bias_filler {
      type: "constant"
      value: 0.2
    }
  }
}
layer {
  name: "inception_3b/relu_3x3"
  type: "ReLU"
  bottom: "inception_3b/3x3"
  top: "inception_3b/3x3"
}
layer {
  name: "inception_3b/5x5_reduce"
  type: "Convolution"
  bottom: "inception_3a/output"
  top: "inception_3b/5x5_reduce"
  param {
    lr_mult: 1
    decay_mult: 1
  }
  param {
    lr_mult: 2
    decay_mult: 0
  }
  convolution_param {
    num_output: 32
    kernel_size: 1
    weight_filler {
      type: "xavier"
      std: 0.2
    }
    bias_filler {
      type: "constant"
      value: 0.2
    }
  }
}
layer {
  name: "inception_3b/relu_5x5_reduce"
  type: "ReLU"
  bottom: "inception_3b/5x5_reduce"
  top: "inception_3b/5x5_reduce"
}
layer {
  name: "inception_3b/5x5"
  type: "Convolution"
  bottom: "inception_3b/5x5_reduce"
  top: "inception_3b/5x5"
  param {
    lr_mult: 1
    decay_mult: 1
  }
  param {
    lr_mult: 2
    decay_mult: 0
  }
  convolution_param {
    num_output: 96
    pad: 2
    kernel_size: 5
    weight_filler {
      type: "xavier"
      std: 0.03
    }
    bias_filler {
      type: "constant"
      value: 0.2
    }
  }
}
layer {
  name: "inception_3b/relu_5x5"
  type: "ReLU"
  bottom: "inception_3b/5x5"
  top: "inception_3b/5x5"
}
layer {
  name: "inception_3b/pool"
  type: "Pooling"
  bottom: "inception_3a/output"
  top: "inception_3b/pool"
  pooling_param {
    pool: MAX
    kernel_size: 3
    stride: 1
    pad: 1
  }
}
layer {
  name: "inception_3b/pool_proj"
  type: "Convolution"
  bottom: "inception_3b/pool"
  top: "inception_3b/pool_proj"
  param {
    lr_mult: 1
    decay_mult: 1
  }
  param {
    lr_mult: 2
    decay_mult: 0
  }
  convolution_param {
    num_output: 64
    kernel_size: 1
    weight_filler {
      type: "xavier"
      std: 0.1
    }
    bias_filler {
      type: "constant"
      value: 0.2
    }
  }
}
layer {
  name: "inception_3b/relu_pool_proj"
  type: "ReLU"
  bottom: "inception_3b/pool_proj"
  top: "inception_3b/pool_proj"
}
layer {
  name: "inception_3b/output"
  type: "Concat"
  bottom: "inception_3b/1x1"
  bottom: "inception_3b/3x3"
  bottom: "inception_3b/5x5"
  bottom: "inception_3b/pool_proj"
  top: "inception_3b/output"
}
layer {
  name: "pool3/3x3_s2"
  type: "Pooling"
  bottom: "inception_3b/output"
  top: "pool3/3x3_s2"
  pooling_param {
    pool: MAX
    kernel_size: 3
    stride: 2
  }
}
layer {
  name: "inception_4a/1x1"
  type: "Convolution"
  bottom: "pool3/3x3_s2"
  top: "inception_4a/1x1"
  param {
    lr_mult: 1
    decay_mult: 1
  }
  param {
    lr_mult: 2
    decay_mult: 0
  }
  convolution_param {
    num_output: 192
    kernel_size: 1
    weight_filler {
      type: "xavier"
      std: 0.03
    }
    bias_filler {
      type: "constant"
      value: 0.2
    }
  }
}
layer {
  name: "inception_4a/relu_1x1"
  type: "ReLU"
  bottom: "inception_4a/1x1"
  top: "inception_4a/1x1"
}
layer {
  name: "inception_4a/3x3_reduce"
  type: "Convolution"
  bottom: "pool3/3x3_s2"
  top: "inception_4a/3x3_reduce"
  param {
    lr_mult: 1
    decay_mult: 1
  }
  param {
    lr_mult: 2
    decay_mult: 0
  }
  convolution_param {
    num_output: 96
    kernel_size: 1
    weight_filler {
      type: "xavier"
      std: 0.09
    }
    bias_filler {
      type: "constant"
      value: 0.2
    }
  }
}
layer {
  name: "inception_4a/relu_3x3_reduce"
  type: "ReLU"
  bottom: "inception_4a/3x3_reduce"
  top: "inception_4a/3x3_reduce"
}
layer {
  name: "inception_4a/3x3"
  type: "Convolution"
  bottom: "inception_4a/3x3_reduce"
  top: "inception_4a/3x3"
  param {
    lr_mult: 1
    decay_mult: 1
  }
  param {
    lr_mult: 2
    decay_mult: 0
  }
  convolution_param {
    num_output: 208
    pad: 1
    kernel_size: 3
    weight_filler {
      type: "xavier"
      std: 0.03
    }
    bias_filler {
      type: "constant"
      value: 0.2
    }
  }
}
layer {
  name: "inception_4a/relu_3x3"
  type: "ReLU"
  bottom: "inception_4a/3x3"
  top: "inception_4a/3x3"
}
layer {
  name: "inception_4a/5x5_reduce"
  type: "Convolution"
  bottom: "pool3/3x3_s2"
  top: "inception_4a/5x5_reduce"
  param {
    lr_mult: 1
    decay_mult: 1
  }
  param {
    lr_mult: 2
    decay_mult: 0
  }
  convolution_param {
    num_output: 16
    kernel_size: 1
    weight_filler {
      type: "xavier"
      std: 0.2
    }
    bias_filler {
      type: "constant"
      value: 0.2
    }
  }
}
layer {
  name: "inception_4a/relu_5x5_reduce"
  type: "ReLU"
  bottom: "inception_4a/5x5_reduce"
  top: "inception_4a/5x5_reduce"
}
layer {
  name: "inception_4a/5x5"
  type: "Convolution"
  bottom: "inception_4a/5x5_reduce"
  top: "inception_4a/5x5"
  param {
    lr_mult: 1
    decay_mult: 1
  }
  param {
    lr_mult: 2
    decay_mult: 0
  }
  convolution_param {
    num_output: 48
    pad: 2
    kernel_size: 5
    weight_filler {
      type: "xavier"
      std: 0.03
    }
    bias_filler {
      type: "constant"
      value: 0.2
    }
  }
}
layer {
  name: "inception_4a/relu_5x5"
  type: "ReLU"
  bottom: "inception_4a/5x5"
  top: "inception_4a/5x5"
}
layer {
  name: "inception_4a/pool"
  type: "Pooling"
  bottom: "pool3/3x3_s2"
  top: "inception_4a/pool"
  pooling_param {
    pool: MAX
    kernel_size: 3
    stride: 1
    pad: 1
  }
}
layer {
  name: "inception_4a/pool_proj"
  type: "Convolution"
  bottom: "inception_4a/pool"
  top: "inception_4a/pool_proj"
  param {
    lr_mult: 1
    decay_mult: 1
  }
  param {
    lr_mult: 2
    decay_mult: 0
  }
  convolution_param {
    num_output: 64
    kernel_size: 1
    weight_filler {
      type: "xavier"
      std: 0.1
    }
    bias_filler {
      type: "constant"
      value: 0.2
    }
  }
}
layer {
  name: "inception_4a/relu_pool_proj"
  type: "ReLU"
  bottom: "inception_4a/pool_proj"
  top: "inception_4a/pool_proj"
}
layer {
  name: "inception_4a/output"
  type: "Concat"
  bottom: "inception_4a/1x1"
  bottom: "inception_4a/3x3"
  bottom: "inception_4a/5x5"
  bottom: "inception_4a/pool_proj"
  top: "inception_4a/output"
}
layer {
  name: "loss1/ave_pool"
  type: "Pooling"
  bottom: "inception_4a/output"
  top: "loss1/ave_pool"
  pooling_param {
    pool: AVE
    kernel_size: 5
    stride: 3
  }
}
layer {
  name: "loss1/conv"
  type: "Convolution"
  bottom: "loss1/ave_pool"
  top: "loss1/conv"
  param {
    lr_mult: 1
    decay_mult: 1
  }
  param {
    lr_mult: 2
    decay_mult: 0
  }
  convolution_param {
    num_output: 128
    kernel_size: 1
    weight_filler {
      type: "xavier"
      std: 0.08
    }
    bias_filler {
      type: "constant"
      value: 0.2
    }
  }
}
layer {
  name: "loss1/relu_conv"
  type: "ReLU"
  bottom: "loss1/conv"
  top: "loss1/conv"
}
layer {
  name: "loss1/fc"
  type: "InnerProduct"
  bottom: "loss1/conv"
  top: "loss1/fc"
  param {
    lr_mult: 1
    decay_mult: 1
  }
  param {
    lr_mult: 2
    decay_mult: 0
  }
  inner_product_param {
    num_output: 1024
    weight_filler {
      type: "xavier"
      std: 0.02
    }
    bias_filler {
      type: "constant"
      value: 0.2
    }
  }
}
layer {
  name: "loss1/relu_fc"
  type: "ReLU"
  bottom: "loss1/fc"
  top: "loss1/fc"
}
layer {
  name: "loss1/drop_fc"
  type: "Dropout"
  bottom: "loss1/fc"
  top: "loss1/fc"
  dropout_param {
    dropout_ratio: 0.7
  }
}
layer {
  name: "loss1/classifier_plantvillage"
  type: "InnerProduct"
  bottom: "loss1/fc"
  top: "loss1/classifier_plantvillage"
  param {
    lr_mult: 1
    decay_mult: 1
  }
  param {
    lr_mult: 2
    decay_mult: 0
  }
  inner_product_param {
    num_output: 38
    weight_filler {
      type: "xavier"
      std: 0.0009765625
    }
    bias_filler {
      type: "constant"
      value: 0
    }
  }
}
layer {
  name: "inception_4b/1x1"
  type: "Convolution"
  bottom: "inception_4a/output"
  top: "inception_4b/1x1"
  param {
    lr_mult: 1
    decay_mult: 1
  }
  param {
    lr_mult: 2
    decay_mult: 0
  }
  convolution_param {
    num_output: 160
    kernel_size: 1
    weight_filler {
      type: "xavier"
      std: 0.03
    }
    bias_filler {
      type: "constant"
      value: 0.2
    }
  }
}
layer {
  name: "inception_4b/relu_1x1"
  type: "ReLU"
  bottom: "inception_4b/1x1"
  top: "inception_4b/1x1"
}
layer {
  name: "inception_4b/3x3_reduce"
  type: "Convolution"
  bottom: "inception_4a/output"
  top: "inception_4b/3x3_reduce"
  param {
    lr_mult: 1
    decay_mult: 1
  }
  param {
    lr_mult: 2
    decay_mult: 0
  }
  convolution_param {
    num_output: 112
    kernel_size: 1
    weight_filler {
      type: "xavier"
      std: 0.09
    }
    bias_filler {
      type: "constant"
      value: 0.2
    }
  }
}
layer {
  name: "inception_4b/relu_3x3_reduce"
  type: "ReLU"
  bottom: "inception_4b/3x3_reduce"
  top: "inception_4b/3x3_reduce"
}
layer {
  name: "inception_4b/3x3"
  type: "Convolution"
  bottom: "inception_4b/3x3_reduce"
  top: "inception_4b/3x3"
  param {
    lr_mult: 1
    decay_mult: 1
  }
  param {
    lr_mult: 2
    decay_mult: 0
  }
  convolution_param {
    num_output: 224
    pad: 1
    kernel_size: 3
    weight_filler {
      type: "xavier"
      std: 0.03
    }
    bias_filler {
      type: "constant"
      value: 0.2
    }
  }
}
layer {
  name: "inception_4b/relu_3x3"
  type: "ReLU"
  bottom: "inception_4b/3x3"
  top: "inception_4b/3x3"
}
layer {
  name: "inception_4b/5x5_reduce"
  type: "Convolution"
  bottom: "inception_4a/output"
  top: "inception_4b/5x5_reduce"
  param {
    lr_mult: 1
    decay_mult: 1
  }
  param {
    lr_mult: 2
    decay_mult: 0
  }
  convolution_param {
    num_output: 24
    kernel_size: 1
    weight_filler {
      type: "xavier"
      std: 0.2
    }
    bias_filler {
      type: "constant"
      value: 0.2
    }
  }
}
layer {
  name: "inception_4b/relu_5x5_reduce"
  type: "ReLU"
  bottom: "inception_4b/5x5_reduce"
  top: "inception_4b/5x5_reduce"
}
layer {
  name: "inception_4b/5x5"
  type: "Convolution"
  bottom: "inception_4b/5x5_reduce"
  top: "inception_4b/5x5"
  param {
    lr_mult: 1
    decay_mult: 1
  }
  param {
    lr_mult: 2
    decay_mult: 0
  }
  convolution_param {
    num_output: 64
    pad: 2
    kernel_size: 5
    weight_filler {
      type: "xavier"
      std: 0.03
    }
    bias_filler {
      type: "constant"
      value: 0.2
    }
  }
}
layer {
  name: "inception_4b/relu_5x5"
  type: "ReLU"
  bottom: "inception_4b/5x5"
  top: "inception_4b/5x5"
}
layer {
  name: "inception_4b/pool"
  type: "Pooling"
  bottom: "inception_4a/output"
  top: "inception_4b/pool"
  pooling_param {
    pool: MAX
    kernel_size: 3
    stride: 1
    pad: 1
  }
}
layer {
  name: "inception_4b/pool_proj"
  type: "Convolution"
  bottom: "inception_4b/pool"
  top: "inception_4b/pool_proj"
  param {
    lr_mult: 1
    decay_mult: 1
  }
  param {
    lr_mult: 2
    decay_mult: 0
  }
  convolution_param {
    num_output: 64
    kernel_size: 1
    weight_filler {
      type: "xavier"
      std: 0.1
    }
    bias_filler {
      type: "constant"
      value: 0.2
    }
  }
}
layer {
  name: "inception_4b/relu_pool_proj"
  type: "ReLU"
  bottom: "inception_4b/pool_proj"
  top: "inception_4b/pool_proj"
}
layer {
  name: "inception_4b/output"
  type: "Concat"
  bottom: "inception_4b/1x1"
  bottom: "inception_4b/3x3"
  bottom: "inception_4b/5x5"
  bottom: "inception_4b/pool_proj"
  top: "inception_4b/output"
}
layer {
  name: "inception_4c/1x1"
  type: "Convolution"
  bottom: "inception_4b/output"
  top: "inception_4c/1x1"
  param {
    lr_mult: 1
    decay_mult: 1
  }
  param {
    lr_mult: 2
    decay_mult: 0
  }
  convolution_param {
    num_output: 128
    kernel_size: 1
    weight_filler {
      type: "xavier"
      std: 0.03
    }
    bias_filler {
      type: "constant"
      value: 0.2
    }
  }
}
layer {
  name: "inception_4c/relu_1x1"
  type: "ReLU"
  bottom: "inception_4c/1x1"
  top: "inception_4c/1x1"
}
layer {
  name: "inception_4c/3x3_reduce"
  type: "Convolution"
  bottom: "inception_4b/output"
  top: "inception_4c/3x3_reduce"
  param {
    lr_mult: 1
    decay_mult: 1
  }
  param {
    lr_mult: 2
    decay_mult: 0
  }
  convolution_param {
    num_output: 128
    kernel_size: 1
    weight_filler {
      type: "xavier"
      std: 0.09
    }
    bias_filler {
      type: "constant"
      value: 0.2
    }
  }
}
layer {
  name: "inception_4c/relu_3x3_reduce"
  type: "ReLU"
  bottom: "inception_4c/3x3_reduce"
  top: "inception_4c/3x3_reduce"
}
layer {
  name: "inception_4c/3x3"
  type: "Convolution"
  bottom: "inception_4c/3x3_reduce"
  top: "inception_4c/3x3"
  param {
    lr_mult: 1
    decay_mult: 1
  }
  param {
    lr_mult: 2
    decay_mult: 0
  }
  convolution_param {
    num_output: 256
    pad: 1
    kernel_size: 3
    weight_filler {
      type: "xavier"
      std: 0.03
    }
    bias_filler {
      type: "constant"
      value: 0.2
    }
  }
}
layer {
  name: "inception_4c/relu_3x3"
  type: "ReLU"
  bottom: "inception_4c/3x3"
  top: "inception_4c/3x3"
}
layer {
  name: "inception_4c/5x5_reduce"
  type: "Convolution"
  bottom: "inception_4b/output"
  top: "inception_4c/5x5_reduce"
  param {
    lr_mult: 1
    decay_mult: 1
  }
  param {
    lr_mult: 2
    decay_mult: 0
  }
  convolution_param {
    num_output: 24
    kernel_size: 1
    weight_filler {
      type: "xavier"
      std: 0.2
    }
    bias_filler {
      type: "constant"
      value: 0.2
    }
  }
}
layer {
  name: "inception_4c/relu_5x5_reduce"
  type: "ReLU"
  bottom: "inception_4c/5x5_reduce"
  top: "inception_4c/5x5_reduce"
}
layer {
  name: "inception_4c/5x5"
  type: "Convolution"
  bottom: "inception_4c/5x5_reduce"
  top: "inception_4c/5x5"
  param {
    lr_mult: 1
    decay_mult: 1
  }
  param {
    lr_mult: 2
    decay_mult: 0
  }
  convolution_param {
    num_output: 64
    pad: 2
    kernel_size: 5
    weight_filler {
      type: "xavier"
      std: 0.03
    }
    bias_filler {
      type: "constant"
      value: 0.2
    }
  }
}
layer {
  name: "inception_4c/relu_5x5"
  type: "ReLU"
  bottom: "inception_4c/5x5"
  top: "inception_4c/5x5"
}
layer {
  name: "inception_4c/pool"
  type: "Pooling"
  bottom: "inception_4b/output"
  top: "inception_4c/pool"
  pooling_param {
    pool: MAX
    kernel_size: 3
    stride: 1
    pad: 1
  }
}
layer {
  name: "inception_4c/pool_proj"
  type: "Convolution"
  bottom: "inception_4c/pool"
  top: "inception_4c/pool_proj"
  param {
    lr_mult: 1
    decay_mult: 1
  }
  param {
    lr_mult: 2
    decay_mult: 0
  }
  convolution_param {
    num_output: 64
    kernel_size: 1
    weight_filler {
      type: "xavier"
      std: 0.1
    }
    bias_filler {
      type: "constant"
      value: 0.2
    }
  }
}
layer {
  name: "inception_4c/relu_pool_proj"
  type: "ReLU"
  bottom: "inception_4c/pool_proj"
  top: "inception_4c/pool_proj"
}
layer {
  name: "inception_4c/output"
  type: "Concat"
  bottom: "inception_4c/1x1"
  bottom: "inception_4c/3x3"
  bottom: "inception_4c/5x5"
  bottom: "inception_4c/pool_proj"
  top: "inception_4c/output"
}
layer {
  name: "inception_4d/1x1"
  type: "Convolution"
  bottom: "inception_4c/output"
  top: "inception_4d/1x1"
  param {
    lr_mult: 1
    decay_mult: 1
  }
  param {
    lr_mult: 2
    decay_mult: 0
  }
  convolution_param {
    num_output: 112
    kernel_size: 1
    weight_filler {
      type: "xavier"
      std: 0.03
    }
    bias_filler {
      type: "constant"
      value: 0.2
    }
  }
}
layer {
  name: "inception_4d/relu_1x1"
  type: "ReLU"
  bottom: "inception_4d/1x1"
  top: "inception_4d/1x1"
}
layer {
  name: "inception_4d/3x3_reduce"
  type: "Convolution"
  bottom: "inception_4c/output"
  top: "inception_4d/3x3_reduce"
  param {
    lr_mult: 1
    decay_mult: 1
  }
  param {
    lr_mult: 2
    decay_mult: 0
  }
  convolution_param {
    num_output: 144
    kernel_size: 1
    weight_filler {
      type: "xavier"
      std: 0.09
    }
    bias_filler {
      type: "constant"
      value: 0.2
    }
  }
}
layer {
  name: "inception_4d/relu_3x3_reduce"
  type: "ReLU"
  bottom: "inception_4d/3x3_reduce"
  top: "inception_4d/3x3_reduce"
}
layer {
  name: "inception_4d/3x3"
  type: "Convolution"
  bottom: "inception_4d/3x3_reduce"
  top: "inception_4d/3x3"
  param {
    lr_mult: 1
    decay_mult: 1
  }
  param {
    lr_mult: 2
    decay_mult: 0
  }
  convolution_param {
    num_output: 288
    pad: 1
    kernel_size: 3
    weight_filler {
      type: "xavier"
      std: 0.03
    }
    bias_filler {
      type: "constant"
      value: 0.2
    }
  }
}
layer {
  name: "inception_4d/relu_3x3"
  type: "ReLU"
  bottom: "inception_4d/3x3"
  top: "inception_4d/3x3"
}
layer {
  name: "inception_4d/5x5_reduce"
  type: "Convolution"
  bottom: "inception_4c/output"
  top: "inception_4d/5x5_reduce"
  param {
    lr_mult: 1
    decay_mult: 1
  }
  param {
    lr_mult: 2
    decay_mult: 0
  }
  convolution_param {
    num_output: 32
    kernel_size: 1
    weight_filler {
      type: "xavier"
      std: 0.2
    }
    bias_filler {
      type: "constant"
      value: 0.2
    }
  }
}
layer {
  name: "inception_4d/relu_5x5_reduce"
  type: "ReLU"
  bottom: "inception_4d/5x5_reduce"
  top: "inception_4d/5x5_reduce"
}
layer {
  name: "inception_4d/5x5"
  type: "Convolution"
  bottom: "inception_4d/5x5_reduce"
  top: "inception_4d/5x5"
  param {
    lr_mult: 1
    decay_mult: 1
  }
  param {
    lr_mult: 2
    decay_mult: 0
  }
  convolution_param {
    num_output: 64
    pad: 2
    kernel_size: 5
    weight_filler {
      type: "xavier"
      std: 0.03
    }
    bias_filler {
      type: "constant"
      value: 0.2
    }
  }
}
layer {
  name: "inception_4d/relu_5x5"
  type: "ReLU"
  bottom: "inception_4d/5x5"
  top: "inception_4d/5x5"
}
layer {
  name: "inception_4d/pool"
  type: "Pooling"
  bottom: "inception_4c/output"
  top: "inception_4d/pool"
  pooling_param {
    pool: MAX
    kernel_size: 3
    stride: 1
    pad: 1
  }
}
layer {
  name: "inception_4d/pool_proj"
  type: "Convolution"
  bottom: "inception_4d/pool"
  top: "inception_4d/pool_proj"
  param {
    lr_mult: 1
    decay_mult: 1
  }
  param {
    lr_mult: 2
    decay_mult: 0
  }
  convolution_param {
    num_output: 64
    kernel_size: 1
    weight_filler {
      type: "xavier"
      std: 0.1
    }
    bias_filler {
      type: "constant"
      value: 0.2
    }
  }
}
layer {
  name: "inception_4d/relu_pool_proj"
  type: "ReLU"
  bottom: "inception_4d/pool_proj"
  top: "inception_4d/pool_proj"
}
layer {
  name: "inception_4d/output"
  type: "Concat"
  bottom: "inception_4d/1x1"
  bottom: "inception_4d/3x3"
  bottom: "inception_4d/5x5"
  bottom: "inception_4d/pool_proj"
  top: "inception_4d/output"
}
layer {
  name: "loss2/ave_pool"
  type: "Pooling"
  bottom: "inception_4d/output"
  top: "loss2/ave_pool"
  pooling_param {
    pool: AVE
    kernel_size: 5
    stride: 3
  }
}
layer {
  name: "loss2/conv"
  type: "Convolution"
  bottom: "loss2/ave_pool"
  top: "loss2/conv"
  param {
    lr_mult: 1
    decay_mult: 1
  }
  param {
    lr_mult: 2
    decay_mult: 0
  }
  convolution_param {
    num_output: 128
    kernel_size: 1
    weight_filler {
      type: "xavier"
      std: 0.08
    }
    bias_filler {
      type: "constant"
      value: 0.2
    }
  }
}
layer {
  name: "loss2/relu_conv"
  type: "ReLU"
  bottom: "loss2/conv"
  top: "loss2/conv"
}
layer {
  name: "loss2/fc"
  type: "InnerProduct"
  bottom: "loss2/conv"
  top: "loss2/fc"
  param {
    lr_mult: 1
    decay_mult: 1
  }
  param {
    lr_mult: 2
    decay_mult: 0
  }
  inner_product_param {
    num_output: 1024
    weight_filler {
      type: "xavier"
      std: 0.02
    }
    bias_filler {
      type: "constant"
      value: 0.2
    }
  }
}
layer {
  name: "loss2/relu_fc"
  type: "ReLU"
  bottom: "loss2/fc"
  top: "loss2/fc"
}
layer {
  name: "loss2/drop_fc"
  type: "Dropout"
  bottom: "loss2/fc"
  top: "loss2/fc"
  dropout_param {
    dropout_ratio: 0.7
  }
}
layer {
  name: "loss2/classifier_plantvillage"
  type: "InnerProduct"
  bottom: "loss2/fc"
  top: "loss2/classifier_plantvillage"
  param {
    lr_mult: 1
    decay_mult: 1
  }
  param {
    lr_mult: 2
    decay_mult: 0
  }
  inner_product_param {
    num_output: 38
    weight_filler {
      type: "xavier"
      std: 0.0009765625
    }
    bias_filler {
      type: "constant"
      value: 0
    }
  }
}
layer {
  name: "inception_4e/1x1"
  type: "Convolution"
  bottom: "inception_4d/output"
  top: "inception_4e/1x1"
  param {
    lr_mult: 1
    decay_mult: 1
  }
  param {
    lr_mult: 2
    decay_mult: 0
  }
  convolution_param {
    num_output: 256
    kernel_size: 1
    weight_filler {
      type: "xavier"
      std: 0.03
    }
    bias_filler {
      type: "constant"
      value: 0.2
    }
  }
}
layer {
  name: "inception_4e/relu_1x1"
  type: "ReLU"
  bottom: "inception_4e/1x1"
  top: "inception_4e/1x1"
}
layer {
  name: "inception_4e/3x3_reduce"
  type: "Convolution"
  bottom: "inception_4d/output"
  top: "inception_4e/3x3_reduce"
  param {
    lr_mult: 1
    decay_mult: 1
  }
  param {
    lr_mult: 2
    decay_mult: 0
  }
  convolution_param {
    num_output: 160
    kernel_size: 1
    weight_filler {
      type: "xavier"
      std: 0.09
    }
    bias_filler {
      type: "constant"
      value: 0.2
    }
  }
}
layer {
  name: "inception_4e/relu_3x3_reduce"
  type: "ReLU"
  bottom: "inception_4e/3x3_reduce"
  top: "inception_4e/3x3_reduce"
}
layer {
  name: "inception_4e/3x3"
  type: "Convolution"
  bottom: "inception_4e/3x3_reduce"
  top: "inception_4e/3x3"
  param {
    lr_mult: 1
    decay_mult: 1
  }
  param {
    lr_mult: 2
    decay_mult: 0
  }
  convolution_param {
    num_output: 320
    pad: 1
    kernel_size: 3
    weight_filler {
      type: "xavier"
      std: 0.03
    }
    bias_filler {
      type: "constant"
      value: 0.2
    }
  }
}
layer {
  name: "inception_4e/relu_3x3"
  type: "ReLU"
  bottom: "inception_4e/3x3"
  top: "inception_4e/3x3"
}
layer {
  name: "inception_4e/5x5_reduce"
  type: "Convolution"
  bottom: "inception_4d/output"
  top: "inception_4e/5x5_reduce"
  param {
    lr_mult: 1
    decay_mult: 1
  }
  param {
    lr_mult: 2
    decay_mult: 0
  }
  convolution_param {
    num_output: 32
    kernel_size: 1
    weight_filler {
      type: "xavier"
      std: 0.2
    }
    bias_filler {
      type: "constant"
      value: 0.2
    }
  }
}
layer {
  name: "inception_4e/relu_5x5_reduce"
  type: "ReLU"
  bottom: "inception_4e/5x5_reduce"
  top: "inception_4e/5x5_reduce"
}
layer {
  name: "inception_4e/5x5"
  type: "Convolution"
  bottom: "inception_4e/5x5_reduce"
  top: "inception_4e/
I0403 14:55:30.898639 17845 layer_factory.hpp:77] Creating layer data
I0403 14:55:30.899263 17845 net.cpp:91] Creating Layer data
I0403 14:55:30.899296 17845 net.cpp:399] data -> data
I0403 14:55:30.899348 17845 net.cpp:399] data -> label
I0403 14:55:30.899389 17845 data_transformer.cpp:25] Loading mean file from: /home/mohanty/data/final_dataset/lmdb/grayscale-40-60/mean.binaryproto
I0403 14:55:30.901541 17849 db_lmdb.cpp:38] Opened lmdb /home/mohanty/data/final_dataset/lmdb/grayscale-40-60/test_db
I0403 14:55:30.912856 17845 data_layer.cpp:41] output data size: 24,3,224,224
I0403 14:55:30.943670 17845 net.cpp:141] Setting up data
I0403 14:55:30.943770 17845 net.cpp:148] Top shape: 24 3 224 224 (3612672)
I0403 14:55:30.943794 17845 net.cpp:148] Top shape: 24 (24)
I0403 14:55:30.943809 17845 net.cpp:156] Memory required for data: 14450784
I0403 14:55:30.943837 17845 layer_factory.hpp:77] Creating layer label_data_1_split
I0403 14:55:30.943864 17845 net.cpp:91] Creating Layer label_data_1_split
I0403 14:55:30.943882 17845 net.cpp:425] label_data_1_split <- label
I0403 14:55:30.943917 17845 net.cpp:399] label_data_1_split -> label_data_1_split_0
I0403 14:55:30.943944 17845 net.cpp:399] label_data_1_split -> label_data_1_split_1
I0403 14:55:30.943965 17845 net.cpp:399] label_data_1_split -> label_data_1_split_2
I0403 14:55:30.943991 17845 net.cpp:399] label_data_1_split -> label_data_1_split_3
I0403 14:55:30.944015 17845 net.cpp:399] label_data_1_split -> label_data_1_split_4
I0403 14:55:30.944034 17845 net.cpp:399] label_data_1_split -> label_data_1_split_5
I0403 14:55:30.944053 17845 net.cpp:399] label_data_1_split -> label_data_1_split_6
I0403 14:55:30.944074 17845 net.cpp:399] label_data_1_split -> label_data_1_split_7
I0403 14:55:30.944094 17845 net.cpp:399] label_data_1_split -> label_data_1_split_8
I0403 14:55:30.944115 17845 net.cpp:399] label_data_1_split -> label_data_1_split_9
I0403 14:55:30.944234 17845 net.cpp:141] Setting up label_data_1_split
I0403 14:55:30.944258 17845 net.cpp:148] Top shape: 24 (24)
I0403 14:55:30.944275 17845 net.cpp:148] Top shape: 24 (24)
I0403 14:55:30.944293 17845 net.cpp:148] Top shape: 24 (24)
I0403 14:55:30.944308 17845 net.cpp:148] Top shape: 24 (24)
I0403 14:55:30.944324 17845 net.cpp:148] Top shape: 24 (24)
I0403 14:55:30.944339 17845 net.cpp:148] Top shape: 24 (24)
I0403 14:55:30.944356 17845 net.cpp:148] Top shape: 24 (24)
I0403 14:55:30.944371 17845 net.cpp:148] Top shape: 24 (24)
I0403 14:55:30.944387 17845 net.cpp:148] Top shape: 24 (24)
I0403 14:55:30.944403 17845 net.cpp:148] Top shape: 24 (24)
I0403 14:55:30.944442 17845 net.cpp:156] Memory required for data: 14451744
I0403 14:55:30.944458 17845 layer_factory.hpp:77] Creating layer conv1/7x7_s2
I0403 14:55:30.944491 17845 net.cpp:91] Creating Layer conv1/7x7_s2
I0403 14:55:30.944510 17845 net.cpp:425] conv1/7x7_s2 <- data
I0403 14:55:30.944530 17845 net.cpp:399] conv1/7x7_s2 -> conv1/7x7_s2
I0403 14:55:31.091866 17845 net.cpp:141] Setting up conv1/7x7_s2
I0403 14:55:31.091958 17845 net.cpp:148] Top shape: 24 64 112 112 (19267584)
I0403 14:55:31.091979 17845 net.cpp:156] Memory required for data: 91522080
I0403 14:55:31.092011 17845 layer_factory.hpp:77] Creating layer conv1/relu_7x7
I0403 14:55:31.092041 17845 net.cpp:91] Creating Layer conv1/relu_7x7
I0403 14:55:31.092058 17845 net.cpp:425] conv1/relu_7x7 <- conv1/7x7_s2
I0403 14:55:31.092078 17845 net.cpp:386] conv1/relu_7x7 -> conv1/7x7_s2 (in-place)
I0403 14:55:31.092347 17845 net.cpp:141] Setting up conv1/relu_7x7
I0403 14:55:31.092375 17845 net.cpp:148] Top shape: 24 64 112 112 (19267584)
I0403 14:55:31.092391 17845 net.cpp:156] Memory required for data: 168592416
I0403 14:55:31.092406 17845 layer_factory.hpp:77] Creating layer pool1/3x3_s2
I0403 14:55:31.092432 17845 net.cpp:91] Creating Layer pool1/3x3_s2
I0403 14:55:31.092452 17845 net.cpp:425] pool1/3x3_s2 <- conv1/7x7_s2
I0403 14:55:31.092471 17845 net.cpp:399] pool1/3x3_s2 -> pool1/3x3_s2
I0403 14:55:31.092547 17845 net.cpp:141] Setting up pool1/3x3_s2
I0403 14:55:31.092572 17845 net.cpp:148] Top shape: 24 64 56 56 (4816896)
I0403 14:55:31.092588 17845 net.cpp:156] Memory required for data: 187860000
I0403 14:55:31.092603 17845 layer_factory.hpp:77] Creating layer pool1/norm1
I0403 14:55:31.092629 17845 net.cpp:91] Creating Layer pool1/norm1
I0403 14:55:31.092648 17845 net.cpp:425] pool1/norm1 <- pool1/3x3_s2
I0403 14:55:31.092667 17845 net.cpp:399] pool1/norm1 -> pool1/norm1
I0403 14:55:31.092968 17845 net.cpp:141] Setting up pool1/norm1
I0403 14:55:31.092998 17845 net.cpp:148] Top shape: 24 64 56 56 (4816896)
I0403 14:55:31.093014 17845 net.cpp:156] Memory required for data: 207127584
I0403 14:55:31.093029 17845 layer_factory.hpp:77] Creating layer conv2/3x3_reduce
I0403 14:55:31.093056 17845 net.cpp:91] Creating Layer conv2/3x3_reduce
I0403 14:55:31.093075 17845 net.cpp:425] conv2/3x3_reduce <- pool1/norm1
I0403 14:55:31.093096 17845 net.cpp:399] conv2/3x3_reduce -> conv2/3x3_reduce
I0403 14:55:31.094475 17845 net.cpp:141] Setting up conv2/3x3_reduce
I0403 14:55:31.094506 17845 net.cpp:148] Top shape: 24 64 56 56 (4816896)
I0403 14:55:31.094523 17845 net.cpp:156] Memory required for data: 226395168
I0403 14:55:31.094545 17845 layer_factory.hpp:77] Creating layer conv2/relu_3x3_reduce
I0403 14:55:31.094564 17845 net.cpp:91] Creating Layer conv2/relu_3x3_reduce
I0403 14:55:31.094581 17845 net.cpp:425] conv2/relu_3x3_reduce <- conv2/3x3_reduce
I0403 14:55:31.094599 17845 net.cpp:386] conv2/relu_3x3_reduce -> conv2/3x3_reduce (in-place)
I0403 14:55:31.094864 17845 net.cpp:141] Setting up conv2/relu_3x3_reduce
I0403 14:55:31.094892 17845 net.cpp:148] Top shape: 24 64 56 56 (4816896)
I0403 14:55:31.094907 17845 net.cpp:156] Memory required for data: 245662752
I0403 14:55:31.094923 17845 layer_factory.hpp:77] Creating layer conv2/3x3
I0403 14:55:31.094946 17845 net.cpp:91] Creating Layer conv2/3x3
I0403 14:55:31.094971 17845 net.cpp:425] conv2/3x3 <- conv2/3x3_reduce
I0403 14:55:31.094995 17845 net.cpp:399] conv2/3x3 -> conv2/3x3
I0403 14:55:31.097332 17845 net.cpp:141] Setting up conv2/3x3
I0403 14:55:31.097364 17845 net.cpp:148] Top shape: 24 192 56 56 (14450688)
I0403 14:55:31.097380 17845 net.cpp:156] Memory required for data: 303465504
I0403 14:55:31.097403 17845 layer_factory.hpp:77] Creating layer conv2/relu_3x3
I0403 14:55:31.097422 17845 net.cpp:91] Creating Layer conv2/relu_3x3
I0403 14:55:31.097439 17845 net.cpp:425] conv2/relu_3x3 <- conv2/3x3
I0403 14:55:31.097456 17845 net.cpp:386] conv2/relu_3x3 -> conv2/3x3 (in-place)
I0403 14:55:31.097622 17845 net.cpp:141] Setting up conv2/relu_3x3
I0403 14:55:31.097650 17845 net.cpp:148] Top shape: 24 192 56 56 (14450688)
I0403 14:55:31.097698 17845 net.cpp:156] Memory required for data: 361268256
I0403 14:55:31.097715 17845 layer_factory.hpp:77] Creating layer conv2/norm2
I0403 14:55:31.097735 17845 net.cpp:91] Creating Layer conv2/norm2
I0403 14:55:31.097751 17845 net.cpp:425] conv2/norm2 <- conv2/3x3
I0403 14:55:31.097770 17845 net.cpp:399] conv2/norm2 -> conv2/norm2
I0403 14:55:31.098075 17845 net.cpp:141] Setting up conv2/norm2
I0403 14:55:31.098104 17845 net.cpp:148] Top shape: 24 192 56 56 (14450688)
I0403 14:55:31.098119 17845 net.cpp:156] Memory required for data: 419071008
I0403 14:55:31.098135 17845 layer_factory.hpp:77] Creating layer pool2/3x3_s2
I0403 14:55:31.098155 17845 net.cpp:91] Creating Layer pool2/3x3_s2
I0403 14:55:31.098171 17845 net.cpp:425] pool2/3x3_s2 <- conv2/norm2
I0403 14:55:31.098189 17845 net.cpp:399] pool2/3x3_s2 -> pool2/3x3_s2
I0403 14:55:31.098242 17845 net.cpp:141] Setting up pool2/3x3_s2
I0403 14:55:31.098264 17845 net.cpp:148] Top shape: 24 192 28 28 (3612672)
I0403 14:55:31.098280 17845 net.cpp:156] Memory required for data: 433521696
I0403 14:55:31.098295 17845 layer_factory.hpp:77] Creating layer pool2/3x3_s2_pool2/3x3_s2_0_split
I0403 14:55:31.098314 17845 net.cpp:91] Creating Layer pool2/3x3_s2_pool2/3x3_s2_0_split
I0403 14:55:31.098328 17845 net.cpp:425] pool2/3x3_s2_pool2/3x3_s2_0_split <- pool2/3x3_s2
I0403 14:55:31.098346 17845 net.cpp:399] pool2/3x3_s2_pool2/3x3_s2_0_split -> pool2/3x3_s2_pool2/3x3_s2_0_split_0
I0403 14:55:31.098367 17845 net.cpp:399] pool2/3x3_s2_pool2/3x3_s2_0_split -> pool2/3x3_s2_pool2/3x3_s2_0_split_1
I0403 14:55:31.098388 17845 net.cpp:399] pool2/3x3_s2_pool2/3x3_s2_0_split -> pool2/3x3_s2_pool2/3x3_s2_0_split_2
I0403 14:55:31.098407 17845 net.cpp:399] pool2/3x3_s2_pool2/3x3_s2_0_split -> pool2/3x3_s2_pool2/3x3_s2_0_split_3
I0403 14:55:31.098474 17845 net.cpp:141] Setting up pool2/3x3_s2_pool2/3x3_s2_0_split
I0403 14:55:31.098496 17845 net.cpp:148] Top shape: 24 192 28 28 (3612672)
I0403 14:55:31.098513 17845 net.cpp:148] Top shape: 24 192 28 28 (3612672)
I0403 14:55:31.098529 17845 net.cpp:148] Top shape: 24 192 28 28 (3612672)
I0403 14:55:31.098546 17845 net.cpp:148] Top shape: 24 192 28 28 (3612672)
I0403 14:55:31.098559 17845 net.cpp:156] Memory required for data: 491324448
I0403 14:55:31.098575 17845 layer_factory.hpp:77] Creating layer inception_3a/1x1
I0403 14:55:31.098597 17845 net.cpp:91] Creating Layer inception_3a/1x1
I0403 14:55:31.098614 17845 net.cpp:425] inception_3a/1x1 <- pool2/3x3_s2_pool2/3x3_s2_0_split_0
I0403 14:55:31.098634 17845 net.cpp:399] inception_3a/1x1 -> inception_3a/1x1
I0403 14:55:31.100271 17845 net.cpp:141] Setting up inception_3a/1x1
I0403 14:55:31.100302 17845 net.cpp:148] Top shape: 24 64 28 28 (1204224)
I0403 14:55:31.100319 17845 net.cpp:156] Memory required for data: 496141344
I0403 14:55:31.100339 17845 layer_factory.hpp:77] Creating layer inception_3a/relu_1x1
I0403 14:55:31.100360 17845 net.cpp:91] Creating Layer inception_3a/relu_1x1
I0403 14:55:31.100378 17845 net.cpp:425] inception_3a/relu_1x1 <- inception_3a/1x1
I0403 14:55:31.100399 17845 net.cpp:386] inception_3a/relu_1x1 -> inception_3a/1x1 (in-place)
I0403 14:55:31.100594 17845 net.cpp:141] Setting up inception_3a/relu_1x1
I0403 14:55:31.100622 17845 net.cpp:148] Top shape: 24 64 28 28 (1204224)
I0403 14:55:31.100638 17845 net.cpp:156] Memory required for data: 500958240
I0403 14:55:31.100656 17845 layer_factory.hpp:77] Creating layer inception_3a/3x3_reduce
I0403 14:55:31.100679 17845 net.cpp:91] Creating Layer inception_3a/3x3_reduce
I0403 14:55:31.100697 17845 net.cpp:425] inception_3a/3x3_reduce <- pool2/3x3_s2_pool2/3x3_s2_0_split_1
I0403 14:55:31.100718 17845 net.cpp:399] inception_3a/3x3_reduce -> inception_3a/3x3_reduce
I0403 14:55:31.102522 17845 net.cpp:141] Setting up inception_3a/3x3_reduce
I0403 14:55:31.102552 17845 net.cpp:148] Top shape: 24 96 28 28 (1806336)
I0403 14:55:31.102568 17845 net.cpp:156] Memory required for data: 508183584
I0403 14:55:31.102594 17845 layer_factory.hpp:77] Creating layer inception_3a/relu_3x3_reduce
I0403 14:55:31.102632 17845 net.cpp:91] Creating Layer inception_3a/relu_3x3_reduce
I0403 14:55:31.102650 17845 net.cpp:425] inception_3a/relu_3x3_reduce <- inception_3a/3x3_reduce
I0403 14:55:31.102671 17845 net.cpp:386] inception_3a/relu_3x3_reduce -> inception_3a/3x3_reduce (in-place)
I0403 14:55:31.102861 17845 net.cpp:141] Setting up inception_3a/relu_3x3_reduce
I0403 14:55:31.102887 17845 net.cpp:148] Top shape: 24 96 28 28 (1806336)
I0403 14:55:31.102902 17845 net.cpp:156] Memory required for data: 515408928
I0403 14:55:31.102917 17845 layer_factory.hpp:77] Creating layer inception_3a/3x3
I0403 14:55:31.102941 17845 net.cpp:91] Creating Layer inception_3a/3x3
I0403 14:55:31.102964 17845 net.cpp:425] inception_3a/3x3 <- inception_3a/3x3_reduce
I0403 14:55:31.102988 17845 net.cpp:399] inception_3a/3x3 -> inception_3a/3x3
I0403 14:55:31.104742 17845 net.cpp:141] Setting up inception_3a/3x3
I0403 14:55:31.104771 17845 net.cpp:148] Top shape: 24 128 28 28 (2408448)
I0403 14:55:31.104786 17845 net.cpp:156] Memory required for data: 525042720
I0403 14:55:31.104809 17845 layer_factory.hpp:77] Creating layer inception_3a/relu_3x3
I0403 14:55:31.104828 17845 net.cpp:91] Creating Layer inception_3a/relu_3x3
I0403 14:55:31.104846 17845 net.cpp:425] inception_3a/relu_3x3 <- inception_3a/3x3
I0403 14:55:31.104863 17845 net.cpp:386] inception_3a/relu_3x3 -> inception_3a/3x3 (in-place)
I0403 14:55:31.105161 17845 net.cpp:141] Setting up inception_3a/relu_3x3
I0403 14:55:31.105190 17845 net.cpp:148] Top shape: 24 128 28 28 (2408448)
I0403 14:55:31.105204 17845 net.cpp:156] Memory required for data: 534676512
I0403 14:55:31.105221 17845 layer_factory.hpp:77] Creating layer inception_3a/5x5_reduce
I0403 14:55:31.105245 17845 net.cpp:91] Creating Layer inception_3a/5x5_reduce
I0403 14:55:31.105263 17845 net.cpp:425] inception_3a/5x5_reduce <- pool2/3x3_s2_pool2/3x3_s2_0_split_2
I0403 14:55:31.105283 17845 net.cpp:399] inception_3a/5x5_reduce -> inception_3a/5x5_reduce
I0403 14:55:31.106338 17845 net.cpp:141] Setting up inception_3a/5x5_reduce
I0403 14:55:31.106370 17845 net.cpp:148] Top shape: 24 16 28 28 (301056)
I0403 14:55:31.106387 17845 net.cpp:156] Memory required for data: 535880736
I0403 14:55:31.106406 17845 layer_factory.hpp:77] Creating layer inception_3a/relu_5x5_reduce
I0403 14:55:31.106426 17845 net.cpp:91] Creating Layer inception_3a/relu_5x5_reduce
I0403 14:55:31.106441 17845 net.cpp:425] inception_3a/relu_5x5_reduce <- inception_3a/5x5_reduce
I0403 14:55:31.106463 17845 net.cpp:386] inception_3a/relu_5x5_reduce -> inception_3a/5x5_reduce (in-place)
I0403 14:55:31.106782 17845 net.cpp:141] Setting up inception_3a/relu_5x5_reduce
I0403 14:55:31.106811 17845 net.cpp:148] Top shape: 24 16 28 28 (301056)
I0403 14:55:31.106825 17845 net.cpp:156] Memory required for data: 537084960
I0403 14:55:31.106840 17845 layer_factory.hpp:77] Creating layer inception_3a/5x5
I0403 14:55:31.106864 17845 net.cpp:91] Creating Layer inception_3a/5x5
I0403 14:55:31.106884 17845 net.cpp:425] inception_3a/5x5 <- inception_3a/5x5_reduce
I0403 14:55:31.106905 17845 net.cpp:399] inception_3a/5x5 -> inception_3a/5x5
I0403 14:55:31.107987 17845 net.cpp:141] Setting up inception_3a/5x5
I0403 14:55:31.108016 17845 net.cpp:148] Top shape: 24 32 28 28 (602112)
I0403 14:55:31.108032 17845 net.cpp:156] Memory required for data: 539493408
I0403 14:55:31.108052 17845 layer_factory.hpp:77] Creating layer inception_3a/relu_5x5
I0403 14:55:31.108072 17845 net.cpp:91] Creating Layer inception_3a/relu_5x5
I0403 14:55:31.108090 17845 net.cpp:425] inception_3a/relu_5x5 <- inception_3a/5x5
I0403 14:55:31.108108 17845 net.cpp:386] inception_3a/relu_5x5 -> inception_3a/5x5 (in-place)
I0403 14:55:31.108294 17845 net.cpp:141] Setting up inception_3a/relu_5x5
I0403 14:55:31.108320 17845 net.cpp:148] Top shape: 24 32 28 28 (602112)
I0403 14:55:31.108335 17845 net.cpp:156] Memory required for data: 541901856
I0403 14:55:31.108350 17845 layer_factory.hpp:77] Creating layer inception_3a/pool
I0403 14:55:31.108369 17845 net.cpp:91] Creating Layer inception_3a/pool
I0403 14:55:31.108400 17845 net.cpp:425] inception_3a/pool <- pool2/3x3_s2_pool2/3x3_s2_0_split_3
I0403 14:55:31.108423 17845 net.cpp:399] inception_3a/pool -> inception_3a/pool
I0403 14:55:31.108484 17845 net.cpp:141] Setting up inception_3a/pool
I0403 14:55:31.108508 17845 net.cpp:148] Top shape: 24 192 28 28 (3612672)
I0403 14:55:31.108523 17845 net.cpp:156] Memory required for data: 556352544
I0403 14:55:31.108538 17845 layer_factory.hpp:77] Creating layer inception_3a/pool_proj
I0403 14:55:31.108564 17845 net.cpp:91] Creating Layer inception_3a/pool_proj
I0403 14:55:31.108582 17845 net.cpp:425] inception_3a/pool_proj <- inception_3a/pool
I0403 14:55:31.108602 17845 net.cpp:399] inception_3a/pool_proj -> inception_3a/pool_proj
I0403 14:55:31.109622 17845 net.cpp:141] Setting up inception_3a/pool_proj
I0403 14:55:31.109652 17845 net.cpp:148] Top shape: 24 32 28 28 (602112)
I0403 14:55:31.109668 17845 net.cpp:156] Memory required for data: 558760992
I0403 14:55:31.109694 17845 layer_factory.hpp:77] Creating layer inception_3a/relu_pool_proj
I0403 14:55:31.109714 17845 net.cpp:91] Creating Layer inception_3a/relu_pool_proj
I0403 14:55:31.109730 17845 net.cpp:425] inception_3a/relu_pool_proj <- inception_3a/pool_proj
I0403 14:55:31.109751 17845 net.cpp:386] inception_3a/relu_pool_proj -> inception_3a/pool_proj (in-place)
I0403 14:55:31.110044 17845 net.cpp:141] Setting up inception_3a/relu_pool_proj
I0403 14:55:31.110072 17845 net.cpp:148] Top shape: 24 32 28 28 (602112)
I0403 14:55:31.110087 17845 net.cpp:156] Memory required for data: 561169440
I0403 14:55:31.110103 17845 layer_factory.hpp:77] Creating layer inception_3a/output
I0403 14:55:31.110124 17845 net.cpp:91] Creating Layer inception_3a/output
I0403 14:55:31.110141 17845 net.cpp:425] inception_3a/output <- inception_3a/1x1
I0403 14:55:31.110159 17845 net.cpp:425] inception_3a/output <- inception_3a/3x3
I0403 14:55:31.110175 17845 net.cpp:425] inception_3a/output <- inception_3a/5x5
I0403 14:55:31.110191 17845 net.cpp:425] inception_3a/output <- inception_3a/pool_proj
I0403 14:55:31.110209 17845 net.cpp:399] inception_3a/output -> inception_3a/output
I0403 14:55:31.110260 17845 net.cpp:141] Setting up inception_3a/output
I0403 14:55:31.110283 17845 net.cpp:148] Top shape: 24 256 28 28 (4816896)
I0403 14:55:31.110298 17845 net.cpp:156] Memory required for data: 580437024
I0403 14:55:31.110313 17845 layer_factory.hpp:77] Creating layer inception_3a/output_inception_3a/output_0_split
I0403 14:55:31.110332 17845 net.cpp:91] Creating Layer inception_3a/output_inception_3a/output_0_split
I0403 14:55:31.110347 17845 net.cpp:425] inception_3a/output_inception_3a/output_0_split <- inception_3a/output
I0403 14:55:31.110368 17845 net.cpp:399] inception_3a/output_inception_3a/output_0_split -> inception_3a/output_inception_3a/output_0_split_0
I0403 14:55:31.110389 17845 net.cpp:399] inception_3a/output_inception_3a/output_0_split -> inception_3a/output_inception_3a/output_0_split_1
I0403 14:55:31.110416 17845 net.cpp:399] inception_3a/output_inception_3a/output_0_split -> inception_3a/output_inception_3a/output_0_split_2
I0403 14:55:31.110440 17845 net.cpp:399] inception_3a/output_inception_3a/output_0_split -> inception_3a/output_inception_3a/output_0_split_3
I0403 14:55:31.110514 17845 net.cpp:141] Setting up inception_3a/output_inception_3a/output_0_split
I0403 14:55:31.110538 17845 net.cpp:148] Top shape: 24 256 28 28 (4816896)
I0403 14:55:31.110558 17845 net.cpp:148] Top shape: 24 256 28 28 (4816896)
I0403 14:55:31.110574 17845 net.cpp:148] Top shape: 24 256 28 28 (4816896)
I0403 14:55:31.110590 17845 net.cpp:148] Top shape: 24 256 28 28 (4816896)
I0403 14:55:31.110605 17845 net.cpp:156] Memory required for data: 657507360
I0403 14:55:31.110620 17845 layer_factory.hpp:77] Creating layer inception_3b/1x1
I0403 14:55:31.110641 17845 net.cpp:91] Creating Layer inception_3b/1x1
I0403 14:55:31.110659 17845 net.cpp:425] inception_3b/1x1 <- inception_3a/output_inception_3a/output_0_split_0
I0403 14:55:31.110682 17845 net.cpp:399] inception_3b/1x1 -> inception_3b/1x1
I0403 14:55:31.111873 17845 net.cpp:141] Setting up inception_3b/1x1
I0403 14:55:31.111915 17845 net.cpp:148] Top shape: 24 128 28 28 (2408448)
I0403 14:55:31.111932 17845 net.cpp:156] Memory required for data: 667141152
I0403 14:55:31.111951 17845 layer_factory.hpp:77] Creating layer inception_3b/relu_1x1
I0403 14:55:31.111979 17845 net.cpp:91] Creating Layer inception_3b/relu_1x1
I0403 14:55:31.111995 17845 net.cpp:425] inception_3b/relu_1x1 <- inception_3b/1x1
I0403 14:55:31.112013 17845 net.cpp:386] inception_3b/relu_1x1 -> inception_3b/1x1 (in-place)
I0403 14:55:31.112201 17845 net.cpp:141] Setting up inception_3b/relu_1x1
I0403 14:55:31.112229 17845 net.cpp:148] Top shape: 24 128 28 28 (2408448)
I0403 14:55:31.112247 17845 net.cpp:156] Memory required for data: 676774944
I0403 14:55:31.112262 17845 layer_factory.hpp:77] Creating layer inception_3b/3x3_reduce
I0403 14:55:31.112285 17845 net.cpp:91] Creating Layer inception_3b/3x3_reduce
I0403 14:55:31.112303 17845 net.cpp:425] inception_3b/3x3_reduce <- inception_3a/output_inception_3a/output_0_split_1
I0403 14:55:31.112324 17845 net.cpp:399] inception_3b/3x3_reduce -> inception_3b/3x3_reduce
I0403 14:55:31.113529 17845 net.cpp:141] Setting up inception_3b/3x3_reduce
I0403 14:55:31.113559 17845 net.cpp:148] Top shape: 24 128 28 28 (2408448)
I0403 14:55:31.113574 17845 net.cpp:156] Memory required for data: 686408736
I0403 14:55:31.113593 17845 layer_factory.hpp:77] Creating layer inception_3b/relu_3x3_reduce
I0403 14:55:31.113615 17845 net.cpp:91] Creating Layer inception_3b/relu_3x3_reduce
I0403 14:55:31.113633 17845 net.cpp:425] inception_3b/relu_3x3_reduce <- inception_3b/3x3_reduce
I0403 14:55:31.113651 17845 net.cpp:386] inception_3b/relu_3x3_reduce -> inception_3b/3x3_reduce (in-place)
I0403 14:55:31.113831 17845 net.cpp:141] Setting up inception_3b/relu_3x3_reduce
I0403 14:55:31.113859 17845 net.cpp:148] Top shape: 24 128 28 28 (2408448)
I0403 14:55:31.113875 17845 net.cpp:156] Memory required for data: 696042528
I0403 14:55:31.113890 17845 layer_factory.hpp:77] Creating layer inception_3b/3x3
I0403 14:55:31.113916 17845 net.cpp:91] Creating Layer inception_3b/3x3
I0403 14:55:31.113935 17845 net.cpp:425] inception_3b/3x3 <- inception_3b/3x3_reduce
I0403 14:55:31.113962 17845 net.cpp:399] inception_3b/3x3 -> inception_3b/3x3
I0403 14:55:31.117069 17845 net.cpp:141] Setting up inception_3b/3x3
I0403 14:55:31.117100 17845 net.cpp:148] Top shape: 24 192 28 28 (3612672)
I0403 14:55:31.117116 17845 net.cpp:156] Memory required for data: 710493216
I0403 14:55:31.117136 17845 layer_factory.hpp:77] Creating layer inception_3b/relu_3x3
I0403 14:55:31.117156 17845 net.cpp:91] Creating Layer inception_3b/relu_3x3
I0403 14:55:31.117174 17845 net.cpp:425] inception_3b/relu_3x3 <- inception_3b/3x3
I0403 14:55:31.117192 17845 net.cpp:386] inception_3b/relu_3x3 -> inception_3b/3x3 (in-place)
I0403 14:55:31.117488 17845 net.cpp:141] Setting up inception_3b/relu_3x3
I0403 14:55:31.117516 17845 net.cpp:148] Top shape: 24 192 28 28 (3612672)
I0403 14:55:31.117532 17845 net.cpp:156] Memory required for data: 724943904
I0403 14:55:31.117547 17845 layer_factory.hpp:77] Creating layer inception_3b/5x5_reduce
I0403 14:55:31.117573 17845 net.cpp:91] Creating Layer inception_3b/5x5_reduce
I0403 14:55:31.117591 17845 net.cpp:425] inception_3b/5x5_reduce <- inception_3a/output_inception_3a/output_0_split_2
I0403 14:55:31.117611 17845 net.cpp:399] inception_3b/5x5_reduce -> inception_3b/5x5_reduce
I0403 14:55:31.118645 17845 net.cpp:141] Setting up inception_3b/5x5_reduce
I0403 14:55:31.118674 17845 net.cpp:148] Top shape: 24 32 28 28 (602112)
I0403 14:55:31.118690 17845 net.cpp:156] Memory required for data: 727352352
I0403 14:55:31.118710 17845 layer_factory.hpp:77] Creating layer inception_3b/relu_5x5_reduce
I0403 14:55:31.118731 17845 net.cpp:91] Creating Layer inception_3b/relu_5x5_reduce
I0403 14:55:31.118749 17845 net.cpp:425] inception_3b/relu_5x5_reduce <- inception_3b/5x5_reduce
I0403 14:55:31.118767 17845 net.cpp:386] inception_3b/relu_5x5_reduce -> inception_3b/5x5_reduce (in-place)
I0403 14:55:31.118980 17845 net.cpp:141] Setting up inception_3b/relu_5x5_reduce
I0403 14:55:31.119007 17845 net.cpp:148] Top shape: 24 32 28 28 (602112)
I0403 14:55:31.119022 17845 net.cpp:156] Memory required for data: 729760800
I0403 14:55:31.119037 17845 layer_factory.hpp:77] Creating layer inception_3b/5x5
I0403 14:55:31.119061 17845 net.cpp:91] Creating Layer inception_3b/5x5
I0403 14:55:31.119079 17845 net.cpp:425] inception_3b/5x5 <- inception_3b/5x5_reduce
I0403 14:55:31.119102 17845 net.cpp:399] inception_3b/5x5 -> inception_3b/5x5
I0403 14:55:31.121166 17845 net.cpp:141] Setting up inception_3b/5x5
I0403 14:55:31.121196 17845 net.cpp:148] Top shape: 24 96 28 28 (1806336)
I0403 14:55:31.121212 17845 net.cpp:156] Memory required for data: 736986144
I0403 14:55:31.121230 17845 layer_factory.hpp:77] Creating layer inception_3b/relu_5x5
I0403 14:55:31.121253 17845 net.cpp:91] Creating Layer inception_3b/relu_5x5
I0403 14:55:31.121270 17845 net.cpp:425] inception_3b/relu_5x5 <- inception_3b/5x5
I0403 14:55:31.121289 17845 net.cpp:386] inception_3b/relu_5x5 -> inception_3b/5x5 (in-place)
I0403 14:55:31.121487 17845 net.cpp:141] Setting up inception_3b/relu_5x5
I0403 14:55:31.121513 17845 net.cpp:148] Top shape: 24 96 28 28 (1806336)
I0403 14:55:31.121529 17845 net.cpp:156] Memory required for data: 744211488
I0403 14:55:31.121544 17845 layer_factory.hpp:77] Creating layer inception_3b/pool
I0403 14:55:31.121563 17845 net.cpp:91] Creating Layer inception_3b/pool
I0403 14:55:31.121579 17845 net.cpp:425] inception_3b/pool <- inception_3a/output_inception_3a/output_0_split_3
I0403 14:55:31.121598 17845 net.cpp:399] inception_3b/pool -> inception_3b/pool
I0403 14:55:31.121656 17845 net.cpp:141] Setting up inception_3b/pool
I0403 14:55:31.121680 17845 net.cpp:148] Top shape: 24 256 28 28 (4816896)
I0403 14:55:31.121695 17845 net.cpp:156] Memory required for data: 763479072
I0403 14:55:31.121711 17845 layer_factory.hpp:77] Creating layer inception_3b/pool_proj
I0403 14:55:31.121733 17845 net.cpp:91] Creating Layer inception_3b/pool_proj
I0403 14:55:31.121752 17845 net.cpp:425] inception_3b/pool_proj <- inception_3b/pool
I0403 14:55:31.121774 17845 net.cpp:399] inception_3b/pool_proj -> inception_3b/pool_proj
I0403 14:55:31.122884 17845 net.cpp:141] Setting up inception_3b/pool_proj
I0403 14:55:31.122913 17845 net.cpp:148] Top shape: 24 64 28 28 (1204224)
I0403 14:55:31.122930 17845 net.cpp:156] Memory required for data: 768295968
I0403 14:55:31.122948 17845 layer_factory.hpp:77] Creating layer inception_3b/relu_pool_proj
I0403 14:55:31.122972 17845 net.cpp:91] Creating Layer inception_3b/relu_pool_proj
I0403 14:55:31.122989 17845 net.cpp:425] inception_3b/relu_pool_proj <- inception_3b/pool_proj
I0403 14:55:31.123013 17845 net.cpp:386] inception_3b/relu_pool_proj -> inception_3b/pool_proj (in-place)
I0403 14:55:31.123428 17845 net.cpp:141] Setting up inception_3b/relu_pool_proj
I0403 14:55:31.123458 17845 net.cpp:148] Top shape: 24 64 28 28 (1204224)
I0403 14:55:31.123474 17845 net.cpp:156] Memory required for data: 773112864
I0403 14:55:31.123491 17845 layer_factory.hpp:77] Creating layer inception_3b/output
I0403 14:55:31.123508 17845 net.cpp:91] Creating Layer inception_3b/output
I0403 14:55:31.123524 17845 net.cpp:425] inception_3b/output <- inception_3b/1x1
I0403 14:55:31.123541 17845 net.cpp:425] inception_3b/output <- inception_3b/3x3
I0403 14:55:31.123558 17845 net.cpp:425] inception_3b/output <- inception_3b/5x5
I0403 14:55:31.123574 17845 net.cpp:425] inception_3b/output <- inception_3b/pool_proj
I0403 14:55:31.123594 17845 net.cpp:399] inception_3b/output -> inception_3b/output
I0403 14:55:31.123641 17845 net.cpp:141] Setting up inception_3b/output
I0403 14:55:31.123664 17845 net.cpp:148] Top shape: 24 480 28 28 (9031680)
I0403 14:55:31.123679 17845 net.cpp:156] Memory required for data: 809239584
I0403 14:55:31.123694 17845 layer_factory.hpp:77] Creating layer pool3/3x3_s2
I0403 14:55:31.123715 17845 net.cpp:91] Creating Layer pool3/3x3_s2
I0403 14:55:31.123733 17845 net.cpp:425] pool3/3x3_s2 <- inception_3b/output
I0403 14:55:31.123766 17845 net.cpp:399] pool3/3x3_s2 -> pool3/3x3_s2
I0403 14:55:31.123831 17845 net.cpp:141] Setting up pool3/3x3_s2
I0403 14:55:31.123854 17845 net.cpp:148] Top shape: 24 480 14 14 (2257920)
I0403 14:55:31.123869 17845 net.cpp:156] Memory required for data: 818271264
I0403 14:55:31.123884 17845 layer_factory.hpp:77] Creating layer pool3/3x3_s2_pool3/3x3_s2_0_split
I0403 14:55:31.123901 17845 net.cpp:91] Creating Layer pool3/3x3_s2_pool3/3x3_s2_0_split
I0403 14:55:31.123916 17845 net.cpp:425] pool3/3x3_s2_pool3/3x3_s2_0_split <- pool3/3x3_s2
I0403 14:55:31.123937 17845 net.cpp:399] pool3/3x3_s2_pool3/3x3_s2_0_split -> pool3/3x3_s2_pool3/3x3_s2_0_split_0
I0403 14:55:31.123962 17845 net.cpp:399] pool3/3x3_s2_pool3/3x3_s2_0_split -> pool3/3x3_s2_pool3/3x3_s2_0_split_1
I0403 14:55:31.123986 17845 net.cpp:399] pool3/3x3_s2_pool3/3x3_s2_0_split -> pool3/3x3_s2_pool3/3x3_s2_0_split_2
I0403 14:55:31.124006 17845 net.cpp:399] pool3/3x3_s2_pool3/3x3_s2_0_split -> pool3/3x3_s2_pool3/3x3_s2_0_split_3
I0403 14:55:31.124085 17845 net.cpp:141] Setting up pool3/3x3_s2_pool3/3x3_s2_0_split
I0403 14:55:31.124110 17845 net.cpp:148] Top shape: 24 480 14 14 (2257920)
I0403 14:55:31.124127 17845 net.cpp:148] Top shape: 24 480 14 14 (2257920)
I0403 14:55:31.124145 17845 net.cpp:148] Top shape: 24 480 14 14 (2257920)
I0403 14:55:31.124161 17845 net.cpp:148] Top shape: 24 480 14 14 (2257920)
I0403 14:55:31.124176 17845 net.cpp:156] Memory required for data: 854397984
I0403 14:55:31.124191 17845 layer_factory.hpp:77] Creating layer inception_4a/1x1
I0403 14:55:31.124214 17845 net.cpp:91] Creating Layer inception_4a/1x1
I0403 14:55:31.124233 17845 net.cpp:425] inception_4a/1x1 <- pool3/3x3_s2_pool3/3x3_s2_0_split_0
I0403 14:55:31.124258 17845 net.cpp:399] inception_4a/1x1 -> inception_4a/1x1
I0403 14:55:31.125911 17845 net.cpp:141] Setting up inception_4a/1x1
I0403 14:55:31.125941 17845 net.cpp:148] Top shape: 24 192 14 14 (903168)
I0403 14:55:31.125962 17845 net.cpp:156] Memory required for data: 858010656
I0403 14:55:31.125983 17845 layer_factory.hpp:77] Creating layer inception_4a/relu_1x1
I0403 14:55:31.126003 17845 net.cpp:91] Creating Layer inception_4a/relu_1x1
I0403 14:55:31.126019 17845 net.cpp:425] inception_4a/relu_1x1 <- inception_4a/1x1
I0403 14:55:31.126039 17845 net.cpp:386] inception_4a/relu_1x1 -> inception_4a/1x1 (in-place)
I0403 14:55:31.126226 17845 net.cpp:141] Setting up inception_4a/relu_1x1
I0403 14:55:31.126255 17845 net.cpp:148] Top shape: 24 192 14 14 (903168)
I0403 14:55:31.126271 17845 net.cpp:156] Memory required for data: 861623328
I0403 14:55:31.126284 17845 layer_factory.hpp:77] Creating layer inception_4a/3x3_reduce
I0403 14:55:31.126308 17845 net.cpp:91] Creating Layer inception_4a/3x3_reduce
I0403 14:55:31.126327 17845 net.cpp:425] inception_4a/3x3_reduce <- pool3/3x3_s2_pool3/3x3_s2_0_split_1
I0403 14:55:31.126349 17845 net.cpp:399] inception_4a/3x3_reduce -> inception_4a/3x3_reduce
I0403 14:55:31.127707 17845 net.cpp:141] Setting up inception_4a/3x3_reduce
I0403 14:55:31.127737 17845 net.cpp:148] Top shape: 24 96 14 14 (451584)
I0403 14:55:31.127754 17845 net.cpp:156] Memory required for data: 863429664
I0403 14:55:31.127782 17845 layer_factory.hpp:77] Creating layer inception_4a/relu_3x3_reduce
I0403 14:55:31.127804 17845 net.cpp:91] Creating Layer inception_4a/relu_3x3_reduce
I0403 14:55:31.127821 17845 net.cpp:425] inception_4a/relu_3x3_reduce <- inception_4a/3x3_reduce
I0403 14:55:31.127843 17845 net.cpp:386] inception_4a/relu_3x3_reduce -> inception_4a/3x3_reduce (in-place)
I0403 14:55:31.128037 17845 net.cpp:141] Setting up inception_4a/relu_3x3_reduce
I0403 14:55:31.128064 17845 net.cpp:148] Top shape: 24 96 14 14 (451584)
I0403 14:55:31.128080 17845 net.cpp:156] Memory required for data: 865236000
I0403 14:55:31.128095 17845 layer_factory.hpp:77] Creating layer inception_4a/3x3
I0403 14:55:31.128120 17845 net.cpp:91] Creating Layer inception_4a/3x3
I0403 14:55:31.128139 17845 net.cpp:425] inception_4a/3x3 <- inception_4a/3x3_reduce
I0403 14:55:31.128160 17845 net.cpp:399] inception_4a/3x3 -> inception_4a/3x3
I0403 14:55:31.131013 17845 net.cpp:141] Setting up inception_4a/3x3
I0403 14:55:31.131045 17845 net.cpp:148] Top shape: 24 208 14 14 (978432)
I0403 14:55:31.131062 17845 net.cpp:156] Memory required for data: 869149728
I0403 14:55:31.131081 17845 layer_factory.hpp:77] Creating layer inception_4a/relu_3x3
I0403 14:55:31.131103 17845 net.cpp:91] Creating Layer inception_4a/relu_3x3
I0403 14:55:31.131122 17845 net.cpp:425] inception_4a/relu_3x3 <- inception_4a/3x3
I0403 14:55:31.131140 17845 net.cpp:386] inception_4a/relu_3x3 -> inception_4a/3x3 (in-place)
I0403 14:55:31.131443 17845 net.cpp:141] Setting up inception_4a/relu_3x3
I0403 14:55:31.131469 17845 net.cpp:148] Top shape: 24 208 14 14 (978432)
I0403 14:55:31.131485 17845 net.cpp:156] Memory required for data: 873063456
I0403 14:55:31.131500 17845 layer_factory.hpp:77] Creating layer inception_4a/5x5_reduce
I0403 14:55:31.131525 17845 net.cpp:91] Creating Layer inception_4a/5x5_reduce
I0403 14:55:31.131543 17845 net.cpp:425] inception_4a/5x5_reduce <- pool3/3x3_s2_pool3/3x3_s2_0_split_2
I0403 14:55:31.131567 17845 net.cpp:399] inception_4a/5x5_reduce -> inception_4a/5x5_reduce
I0403 14:55:31.132652 17845 net.cpp:141] Setting up inception_4a/5x5_reduce
I0403 14:55:31.132680 17845 net.cpp:148] Top shape: 24 16 14 14 (75264)
I0403 14:55:31.132696 17845 net.cpp:156] Memory required for data: 873364512
I0403 14:55:31.132716 17845 layer_factory.hpp:77] Creating layer inception_4a/relu_5x5_reduce
I0403 14:55:31.132737 17845 net.cpp:91] Creating Layer inception_4a/relu_5x5_reduce
I0403 14:55:31.132755 17845 net.cpp:425] inception_4a/relu_5x5_reduce <- inception_4a/5x5_reduce
I0403 14:55:31.132774 17845 net.cpp:386] inception_4a/relu_5x5_reduce -> inception_4a/5x5_reduce (in-place)
I0403 14:55:31.132968 17845 net.cpp:141] Setting up inception_4a/relu_5x5_reduce
I0403 14:55:31.132997 17845 net.cpp:148] Top shape: 24 16 14 14 (75264)
I0403 14:55:31.133013 17845 net.cpp:156] Memory required for data: 873665568
I0403 14:55:31.133029 17845 layer_factory.hpp:77] Creating layer inception_4a/5x5
I0403 14:55:31.133054 17845 net.cpp:91] Creating Layer inception_4a/5x5
I0403 14:55:31.133072 17845 net.cpp:425] inception_4a/5x5 <- inception_4a/5x5_reduce
I0403 14:55:31.133095 17845 net.cpp:399] inception_4a/5x5 -> inception_4a/5x5
I0403 14:55:31.134246 17845 net.cpp:141] Setting up inception_4a/5x5
I0403 14:55:31.134277 17845 net.cpp:148] Top shape: 24 48 14 14 (225792)
I0403 14:55:31.134296 17845 net.cpp:156] Memory required for data: 874568736
I0403 14:55:31.134315 17845 layer_factory.hpp:77] Creating layer inception_4a/relu_5x5
I0403 14:55:31.134335 17845 net.cpp:91] Creating Layer inception_4a/relu_5x5
I0403 14:55:31.134351 17845 net.cpp:425] inception_4a/relu_5x5 <- inception_4a/5x5
I0403 14:55:31.134372 17845 net.cpp:386] inception_4a/relu_5x5 -> inception_4a/5x5 (in-place)
I0403 14:55:31.134564 17845 net.cpp:141] Setting up inception_4a/relu_5x5
I0403 14:55:31.134591 17845 net.cpp:148] Top shape: 24 48 14 14 (225792)
I0403 14:55:31.134608 17845 net.cpp:156] Memory required for data: 875471904
I0403 14:55:31.134624 17845 layer_factory.hpp:77] Creating layer inception_4a/pool
I0403 14:55:31.134642 17845 net.cpp:91] Creating Layer inception_4a/pool
I0403 14:55:31.134660 17845 net.cpp:425] inception_4a/pool <- pool3/3x3_s2_pool3/3x3_s2_0_split_3
I0403 14:55:31.134681 17845 net.cpp:399] inception_4a/pool -> inception_4a/pool
I0403 14:55:31.134747 17845 net.cpp:141] Setting up inception_4a/pool
I0403 14:55:31.134773 17845 net.cpp:148] Top shape: 24 480 14 14 (2257920)
I0403 14:55:31.134788 17845 net.cpp:156] Memory required for data: 884503584
I0403 14:55:31.134804 17845 layer_factory.hpp:77] Creating layer inception_4a/pool_proj
I0403 14:55:31.134829 17845 net.cpp:91] Creating Layer inception_4a/pool_proj
I0403 14:55:31.134847 17845 net.cpp:425] inception_4a/pool_proj <- inception_4a/pool
I0403 14:55:31.134870 17845 net.cpp:399] inception_4a/pool_proj -> inception_4a/pool_proj
I0403 14:55:31.136107 17845 net.cpp:141] Setting up inception_4a/pool_proj
I0403 14:55:31.136137 17845 net.cpp:148] Top shape: 24 64 14 14 (301056)
I0403 14:55:31.136169 17845 net.cpp:156] Memory required for data: 885707808
I0403 14:55:31.136190 17845 layer_factory.hpp:77] Creating layer inception_4a/relu_pool_proj
I0403 14:55:31.136210 17845 net.cpp:91] Creating Layer inception_4a/relu_pool_proj
I0403 14:55:31.136230 17845 net.cpp:425] inception_4a/relu_pool_proj <- inception_4a/pool_proj
I0403 14:55:31.136250 17845 net.cpp:386] inception_4a/relu_pool_proj -> inception_4a/pool_proj (in-place)
I0403 14:55:31.136549 17845 net.cpp:141] Setting up inception_4a/relu_pool_proj
I0403 14:55:31.136577 17845 net.cpp:148] Top shape: 24 64 14 14 (301056)
I0403 14:55:31.136593 17845 net.cpp:156] Memory required for data: 886912032
I0403 14:55:31.136610 17845 layer_factory.hpp:77] Creating layer inception_4a/output
I0403 14:55:31.136627 17845 net.cpp:91] Creating Layer inception_4a/output
I0403 14:55:31.136644 17845 net.cpp:425] inception_4a/output <- inception_4a/1x1
I0403 14:55:31.136662 17845 net.cpp:425] inception_4a/output <- inception_4a/3x3
I0403 14:55:31.136678 17845 net.cpp:425] inception_4a/output <- inception_4a/5x5
I0403 14:55:31.136694 17845 net.cpp:425] inception_4a/output <- inception_4a/pool_proj
I0403 14:55:31.136715 17845 net.cpp:399] inception_4a/output -> inception_4a/output
I0403 14:55:31.136762 17845 net.cpp:141] Setting up inception_4a/output
I0403 14:55:31.136790 17845 net.cpp:148] Top shape: 24 512 14 14 (2408448)
I0403 14:55:31.136806 17845 net.cpp:156] Memory required for data: 896545824
I0403 14:55:31.136821 17845 layer_factory.hpp:77] Creating layer inception_4a/output_inception_4a/output_0_split
I0403 14:55:31.136840 17845 net.cpp:91] Creating Layer inception_4a/output_inception_4a/output_0_split
I0403 14:55:31.136857 17845 net.cpp:425] inception_4a/output_inception_4a/output_0_split <- inception_4a/output
I0403 14:55:31.136878 17845 net.cpp:399] inception_4a/output_inception_4a/output_0_split -> inception_4a/output_inception_4a/output_0_split_0
I0403 14:55:31.136900 17845 net.cpp:399] inception_4a/output_inception_4a/output_0_split -> inception_4a/output_inception_4a/output_0_split_1
I0403 14:55:31.136922 17845 net.cpp:399] inception_4a/output_inception_4a/output_0_split -> inception_4a/output_inception_4a/output_0_split_2
I0403 14:55:31.136945 17845 net.cpp:399] inception_4a/output_inception_4a/output_0_split -> inception_4a/output_inception_4a/output_0_split_3
I0403 14:55:31.136971 17845 net.cpp:399] inception_4a/output_inception_4a/output_0_split -> inception_4a/output_inception_4a/output_0_split_4
I0403 14:55:31.137070 17845 net.cpp:141] Setting up inception_4a/output_inception_4a/output_0_split
I0403 14:55:31.137094 17845 net.cpp:148] Top shape: 24 512 14 14 (2408448)
I0403 14:55:31.137112 17845 net.cpp:148] Top shape: 24 512 14 14 (2408448)
I0403 14:55:31.137128 17845 net.cpp:148] Top shape: 24 512 14 14 (2408448)
I0403 14:55:31.137145 17845 net.cpp:148] Top shape: 24 512 14 14 (2408448)
I0403 14:55:31.137161 17845 net.cpp:148] Top shape: 24 512 14 14 (2408448)
I0403 14:55:31.137176 17845 net.cpp:156] Memory required for data: 944714784
I0403 14:55:31.137190 17845 layer_factory.hpp:77] Creating layer loss1/ave_pool
I0403 14:55:31.137212 17845 net.cpp:91] Creating Layer loss1/ave_pool
I0403 14:55:31.137228 17845 net.cpp:425] loss1/ave_pool <- inception_4a/output_inception_4a/output_0_split_0
I0403 14:55:31.137248 17845 net.cpp:399] loss1/ave_pool -> loss1/ave_pool
I0403 14:55:31.137475 17845 net.cpp:141] Setting up loss1/ave_pool
I0403 14:55:31.137501 17845 net.cpp:148] Top shape: 24 512 4 4 (196608)
I0403 14:55:31.137517 17845 net.cpp:156] Memory required for data: 945501216
I0403 14:55:31.137532 17845 layer_factory.hpp:77] Creating layer loss1/conv
I0403 14:55:31.137557 17845 net.cpp:91] Creating Layer loss1/conv
I0403 14:55:31.137574 17845 net.cpp:425] loss1/conv <- loss1/ave_pool
I0403 14:55:31.137596 17845 net.cpp:399] loss1/conv -> loss1/conv
I0403 14:55:31.139104 17845 net.cpp:141] Setting up loss1/conv
I0403 14:55:31.139135 17845 net.cpp:148] Top shape: 24 128 4 4 (49152)
I0403 14:55:31.139168 17845 net.cpp:156] Memory required for data: 945697824
I0403 14:55:31.139189 17845 layer_factory.hpp:77] Creating layer loss1/relu_conv
I0403 14:55:31.139209 17845 net.cpp:91] Creating Layer loss1/relu_conv
I0403 14:55:31.139227 17845 net.cpp:425] loss1/relu_conv <- loss1/conv
I0403 14:55:31.139247 17845 net.cpp:386] loss1/relu_conv -> loss1/conv (in-place)
I0403 14:55:31.139544 17845 net.cpp:141] Setting up loss1/relu_conv
I0403 14:55:31.139574 17845 net.cpp:148] Top shape: 24 128 4 4 (49152)
I0403 14:55:31.139590 17845 net.cpp:156] Memory required for data: 945894432
I0403 14:55:31.139605 17845 layer_factory.hpp:77] Creating layer loss1/fc
I0403 14:55:31.139632 17845 net.cpp:91] Creating Layer loss1/fc
I0403 14:55:31.139652 17845 net.cpp:425] loss1/fc <- loss1/conv
I0403 14:55:31.139677 17845 net.cpp:399] loss1/fc -> loss1/fc
I0403 14:55:31.158690 17845 net.cpp:141] Setting up loss1/fc
I0403 14:55:31.158754 17845 net.cpp:148] Top shape: 24 1024 (24576)
I0403 14:55:31.158771 17845 net.cpp:156] Memory required for data: 945992736
I0403 14:55:31.158793 17845 layer_factory.hpp:77] Creating layer loss1/relu_fc
I0403 14:55:31.158814 17845 net.cpp:91] Creating Layer loss1/relu_fc
I0403 14:55:31.158831 17845 net.cpp:425] loss1/relu_fc <- loss1/fc
I0403 14:55:31.158854 17845 net.cpp:386] loss1/relu_fc -> loss1/fc (in-place)
I0403 14:55:31.159092 17845 net.cpp:141] Setting up loss1/relu_fc
I0403 14:55:31.159121 17845 net.cpp:148] Top shape: 24 1024 (24576)
I0403 14:55:31.159135 17845 net.cpp:156] Memory required for data: 946091040
I0403 14:55:31.159152 17845 layer_factory.hpp:77] Creating layer loss1/drop_fc
I0403 14:55:31.159188 17845 net.cpp:91] Creating Layer loss1/drop_fc
I0403 14:55:31.159206 17845 net.cpp:425] loss1/drop_fc <- loss1/fc
I0403 14:55:31.159234 17845 net.cpp:386] loss1/drop_fc -> loss1/fc (in-place)
I0403 14:55:31.159291 17845 net.cpp:141] Setting up loss1/drop_fc
I0403 14:55:31.159319 17845 net.cpp:148] Top shape: 24 1024 (24576)
I0403 14:55:31.159334 17845 net.cpp:156] Memory required for data: 946189344
I0403 14:55:31.159350 17845 layer_factory.hpp:77] Creating layer loss1/classifier_plantvillage
I0403 14:55:31.159369 17845 net.cpp:91] Creating Layer loss1/classifier_plantvillage
I0403 14:55:31.159385 17845 net.cpp:425] loss1/classifier_plantvillage <- loss1/fc
I0403 14:55:31.159409 17845 net.cpp:399] loss1/classifier_plantvillage -> loss1/classifier_plantvillage
I0403 14:55:31.160401 17845 net.cpp:141] Setting up loss1/classifier_plantvillage
I0403 14:55:31.160430 17845 net.cpp:148] Top shape: 24 38 (912)
I0403 14:55:31.160447 17845 net.cpp:156] Memory required for data: 946192992
I0403 14:55:31.160466 17845 layer_factory.hpp:77] Creating layer loss1/classifier_plantvillage_loss1/classifier_plantvillage_0_split
I0403 14:55:31.160485 17845 net.cpp:91] Creating Layer loss1/classifier_plantvillage_loss1/classifier_plantvillage_0_split
I0403 14:55:31.160501 17845 net.cpp:425] loss1/classifier_plantvillage_loss1/classifier_plantvillage_0_split <- loss1/classifier_plantvillage
I0403 14:55:31.160522 17845 net.cpp:399] loss1/classifier_plantvillage_loss1/classifier_plantvillage_0_split -> loss1/classifier_plantvillage_loss1/classifier_plantvillage_0_split_0
I0403 14:55:31.160547 17845 net.cpp:399] loss1/classifier_plantvillage_loss1/classifier_plantvillage_0_split -> loss1/classifier_plantvillage_loss1/classifier_plantvillage_0_split_1
I0403 14:55:31.160567 17845 net.cpp:399] loss1/classifier_plantvillage_loss1/classifier_plantvillage_0_split -> loss1/classifier_plantvillage_loss1/classifier_plantvillage_0_split_2
I0403 14:55:31.160640 17845 net.cpp:141] Setting up loss1/classifier_plantvillage_loss1/classifier_plantvillage_0_split
I0403 14:55:31.160665 17845 net.cpp:148] Top shape: 24 38 (912)
I0403 14:55:31.160682 17845 net.cpp:148] Top shape: 24 38 (912)
I0403 14:55:31.160698 17845 net.cpp:148] Top shape: 24 38 (912)
I0403 14:55:31.160713 17845 net.cpp:156] Memory required for data: 946203936
I0403 14:55:31.160729 17845 layer_factory.hpp:77] Creating layer inception_4b/1x1
I0403 14:55:31.160754 17845 net.cpp:91] Creating Layer inception_4b/1x1
I0403 14:55:31.160794 17845 net.cpp:425] inception_4b/1x1 <- inception_4a/output_inception_4a/output_0_split_1
I0403 14:55:31.160816 17845 net.cpp:399] inception_4b/1x1 -> inception_4b/1x1
I0403 14:55:31.162611 17845 net.cpp:141] Setting up inception_4b/1x1
I0403 14:55:31.162642 17845 net.cpp:148] Top shape: 24 160 14 14 (752640)
I0403 14:55:31.162659 17845 net.cpp:156] Memory required for data: 949214496
I0403 14:55:31.162678 17845 layer_factory.hpp:77] Creating layer inception_4b/relu_1x1
I0403 14:55:31.162699 17845 net.cpp:91] Creating Layer inception_4b/relu_1x1
I0403 14:55:31.162717 17845 net.cpp:425] inception_4b/relu_1x1 <- inception_4b/1x1
I0403 14:55:31.162736 17845 net.cpp:386] inception_4b/relu_1x1 -> inception_4b/1x1 (in-place)
I0403 14:55:31.162926 17845 net.cpp:141] Setting up inception_4b/relu_1x1
I0403 14:55:31.162960 17845 net.cpp:148] Top shape: 24 160 14 14 (752640)
I0403 14:55:31.162977 17845 net.cpp:156] Memory required for data: 952225056
I0403 14:55:31.162992 17845 layer_factory.hpp:77] Creating layer inception_4b/3x3_reduce
I0403 14:55:31.163017 17845 net.cpp:91] Creating Layer inception_4b/3x3_reduce
I0403 14:55:31.163035 17845 net.cpp:425] inception_4b/3x3_reduce <- inception_4a/output_inception_4a/output_0_split_2
I0403 14:55:31.163061 17845 net.cpp:399] inception_4b/3x3_reduce -> inception_4b/3x3_reduce
I0403 14:55:31.164499 17845 net.cpp:141] Setting up inception_4b/3x3_reduce
I0403 14:55:31.164532 17845 net.cpp:148] Top shape: 24 112 14 14 (526848)
I0403 14:55:31.164549 17845 net.cpp:156] Memory required for data: 954332448
I0403 14:55:31.164571 17845 layer_factory.hpp:77] Creating layer inception_4b/relu_3x3_reduce
I0403 14:55:31.164589 17845 net.cpp:91] Creating Layer inception_4b/relu_3x3_reduce
I0403 14:55:31.164607 17845 net.cpp:425] inception_4b/relu_3x3_reduce <- inception_4b/3x3_reduce
I0403 14:55:31.164624 17845 net.cpp:386] inception_4b/relu_3x3_reduce -> inception_4b/3x3_reduce (in-place)
I0403 14:55:31.164923 17845 net.cpp:141] Setting up inception_4b/relu_3x3_reduce
I0403 14:55:31.164958 17845 net.cpp:148] Top shape: 24 112 14 14 (526848)
I0403 14:55:31.164976 17845 net.cpp:156] Memory required for data: 956439840
I0403 14:55:31.164991 17845 layer_factory.hpp:77] Creating layer inception_4b/3x3
I0403 14:55:31.165015 17845 net.cpp:91] Creating Layer inception_4b/3x3
I0403 14:55:31.165033 17845 net.cpp:425] inception_4b/3x3 <- inception_4b/3x3_reduce
I0403 14:55:31.165055 17845 net.cpp:399] inception_4b/3x3 -> inception_4b/3x3
I0403 14:55:31.168207 17845 net.cpp:141] Setting up inception_4b/3x3
I0403 14:55:31.168241 17845 net.cpp:148] Top shape: 24 224 14 14 (1053696)
I0403 14:55:31.168258 17845 net.cpp:156] Memory required for data: 960654624
I0403 14:55:31.168278 17845 layer_factory.hpp:77] Creating layer inception_4b/relu_3x3
I0403 14:55:31.168298 17845 net.cpp:91] Creating Layer inception_4b/relu_3x3
I0403 14:55:31.168315 17845 net.cpp:425] inception_4b/relu_3x3 <- inception_4b/3x3
I0403 14:55:31.168335 17845 net.cpp:386] inception_4b/relu_3x3 -> inception_4b/3x3 (in-place)
I0403 14:55:31.168531 17845 net.cpp:141] Setting up inception_4b/relu_3x3
I0403 14:55:31.168557 17845 net.cpp:148] Top shape: 24 224 14 14 (1053696)
I0403 14:55:31.168575 17845 net.cpp:156] Memory required for data: 964869408
I0403 14:55:31.168589 17845 layer_factory.hpp:77] Creating layer inception_4b/5x5_reduce
I0403 14:55:31.168613 17845 net.cpp:91] Creating Layer inception_4b/5x5_reduce
I0403 14:55:31.168632 17845 net.cpp:425] inception_4b/5x5_reduce <- inception_4a/output_inception_4a/output_0_split_3
I0403 14:55:31.168655 17845 net.cpp:399] inception_4b/5x5_reduce -> inception_4b/5x5_reduce
I0403 14:55:31.169811 17845 net.cpp:141] Setting up inception_4b/5x5_reduce
I0403 14:55:31.169843 17845 net.cpp:148] Top shape: 24 24 14 14 (112896)
I0403 14:55:31.169860 17845 net.cpp:156] Memory required for data: 965320992
I0403 14:55:31.169880 17845 layer_factory.hpp:77] Creating layer inception_4b/relu_5x5_reduce
I0403 14:55:31.169899 17845 net.cpp:91] Creating Layer inception_4b/relu_5x5_reduce
I0403 14:55:31.169931 17845 net.cpp:425] inception_4b/relu_5x5_reduce <- inception_4b/5x5_reduce
I0403 14:55:31.169951 17845 net.cpp:386] inception_4b/relu_5x5_reduce -> inception_4b/5x5_reduce (in-place)
I0403 14:55:31.170153 17845 net.cpp:141] Setting up inception_4b/relu_5x5_reduce
I0403 14:55:31.170181 17845 net.cpp:148] Top shape: 24 24 14 14 (112896)
I0403 14:55:31.170197 17845 net.cpp:156] Memory required for data: 965772576
I0403 14:55:31.170212 17845 layer_factory.hpp:77] Creating layer inception_4b/5x5
I0403 14:55:31.170236 17845 net.cpp:91] Creating Layer inception_4b/5x5
I0403 14:55:31.170254 17845 net.cpp:425] inception_4b/5x5 <- inception_4b/5x5_reduce
I0403 14:55:31.170276 17845 net.cpp:399] inception_4b/5x5 -> inception_4b/5x5
I0403 14:55:31.171578 17845 net.cpp:141] Setting up inception_4b/5x5
I0403 14:55:31.171608 17845 net.cpp:148] Top shape: 24 64 14 14 (301056)
I0403 14:55:31.171624 17845 net.cpp:156] Memory required for data: 966976800
I0403 14:55:31.171643 17845 layer_factory.hpp:77] Creating layer inception_4b/relu_5x5
I0403 14:55:31.171664 17845 net.cpp:91] Creating Layer inception_4b/relu_5x5
I0403 14:55:31.171681 17845 net.cpp:425] inception_4b/relu_5x5 <- inception_4b/5x5
I0403 14:55:31.171700 17845 net.cpp:386] inception_4b/relu_5x5 -> inception_4b/5x5 (in-place)
I0403 14:55:31.172008 17845 net.cpp:141] Setting up inception_4b/relu_5x5
I0403 14:55:31.172034 17845 net.cpp:148] Top shape: 24 64 14 14 (301056)
I0403 14:55:31.172049 17845 net.cpp:156] Memory required for data: 968181024
I0403 14:55:31.172065 17845 layer_factory.hpp:77] Creating layer inception_4b/pool
I0403 14:55:31.172088 17845 net.cpp:91] Creating Layer inception_4b/pool
I0403 14:55:31.172107 17845 net.cpp:425] inception_4b/pool <- inception_4a/output_inception_4a/output_0_split_4
I0403 14:55:31.172127 17845 net.cpp:399] inception_4b/pool -> inception_4b/pool
I0403 14:55:31.172196 17845 net.cpp:141] Setting up inception_4b/pool
I0403 14:55:31.172220 17845 net.cpp:148] Top shape: 24 512 14 14 (2408448)
I0403 14:55:31.172235 17845 net.cpp:156] Memory required for data: 977814816
I0403 14:55:31.172250 17845 layer_factory.hpp:77] Creating layer inception_4b/pool_proj
I0403 14:55:31.172274 17845 net.cpp:91] Creating Layer inception_4b/pool_proj
I0403 14:55:31.172292 17845 net.cpp:425] inception_4b/pool_proj <- inception_4b/pool
I0403 14:55:31.172314 17845 net.cpp:399] inception_4b/pool_proj -> inception_4b/pool_proj
I0403 14:55:31.173591 17845 net.cpp:141] Setting up inception_4b/pool_proj
I0403 14:55:31.173620 17845 net.cpp:148] Top shape: 24 64 14 14 (301056)
I0403 14:55:31.173636 17845 net.cpp:156] Memory required for data: 979019040
I0403 14:55:31.173655 17845 layer_factory.hpp:77] Creating layer inception_4b/relu_pool_proj
I0403 14:55:31.173676 17845 net.cpp:91] Creating Layer inception_4b/relu_pool_proj
I0403 14:55:31.173696 17845 net.cpp:425] inception_4b/relu_pool_proj <- inception_4b/pool_proj
I0403 14:55:31.173713 17845 net.cpp:386] inception_4b/relu_pool_proj -> inception_4b/pool_proj (in-place)
I0403 14:55:31.173912 17845 net.cpp:141] Setting up inception_4b/relu_pool_proj
I0403 14:55:31.173938 17845 net.cpp:148] Top shape: 24 64 14 14 (301056)
I0403 14:55:31.173959 17845 net.cpp:156] Memory required for data: 980223264
I0403 14:55:31.173975 17845 layer_factory.hpp:77] Creating layer inception_4b/output
I0403 14:55:31.173993 17845 net.cpp:91] Creating Layer inception_4b/output
I0403 14:55:31.174010 17845 net.cpp:425] inception_4b/output <- inception_4b/1x1
I0403 14:55:31.174026 17845 net.cpp:425] inception_4b/output <- inception_4b/3x3
I0403 14:55:31.174043 17845 net.cpp:425] inception_4b/output <- inception_4b/5x5
I0403 14:55:31.174059 17845 net.cpp:425] inception_4b/output <- inception_4b/pool_proj
I0403 14:55:31.174079 17845 net.cpp:399] inception_4b/output -> inception_4b/output
I0403 14:55:31.174129 17845 net.cpp:141] Setting up inception_4b/output
I0403 14:55:31.174155 17845 net.cpp:148] Top shape: 24 512 14 14 (2408448)
I0403 14:55:31.174171 17845 net.cpp:156] Memory required for data: 989857056
I0403 14:55:31.174201 17845 layer_factory.hpp:77] Creating layer inception_4b/output_inception_4b/output_0_split
I0403 14:55:31.174221 17845 net.cpp:91] Creating Layer inception_4b/output_inception_4b/output_0_split
I0403 14:55:31.174237 17845 net.cpp:425] inception_4b/output_inception_4b/output_0_split <- inception_4b/output
I0403 14:55:31.174254 17845 net.cpp:399] inception_4b/output_inception_4b/output_0_split -> inception_4b/output_inception_4b/output_0_split_0
I0403 14:55:31.174274 17845 net.cpp:399] inception_4b/output_inception_4b/output_0_split -> inception_4b/output_inception_4b/output_0_split_1
I0403 14:55:31.174299 17845 net.cpp:399] inception_4b/output_inception_4b/output_0_split -> inception_4b/output_inception_4b/output_0_split_2
I0403 14:55:31.174320 17845 net.cpp:399] inception_4b/output_inception_4b/output_0_split -> inception_4b/output_inception_4b/output_0_split_3
I0403 14:55:31.174409 17845 net.cpp:141] Setting up inception_4b/output_inception_4b/output_0_split
I0403 14:55:31.174433 17845 net.cpp:148] Top shape: 24 512 14 14 (2408448)
I0403 14:55:31.174449 17845 net.cpp:148] Top shape: 24 512 14 14 (2408448)
I0403 14:55:31.174465 17845 net.cpp:148] Top shape: 24 512 14 14 (2408448)
I0403 14:55:31.174481 17845 net.cpp:148] Top shape: 24 512 14 14 (2408448)
I0403 14:55:31.174495 17845 net.cpp:156] Memory required for data: 1028392224
I0403 14:55:31.174510 17845 layer_factory.hpp:77] Creating layer inception_4c/1x1
I0403 14:55:31.174533 17845 net.cpp:91] Creating Layer inception_4c/1x1
I0403 14:55:31.174552 17845 net.cpp:425] inception_4c/1x1 <- inception_4b/output_inception_4b/output_0_split_0
I0403 14:55:31.174574 17845 net.cpp:399] inception_4c/1x1 -> inception_4c/1x1
I0403 14:55:31.176115 17845 net.cpp:141] Setting up inception_4c/1x1
I0403 14:55:31.176144 17845 net.cpp:148] Top shape: 24 128 14 14 (602112)
I0403 14:55:31.176162 17845 net.cpp:156] Memory required for data: 1030800672
I0403 14:55:31.176180 17845 layer_factory.hpp:77] Creating layer inception_4c/relu_1x1
I0403 14:55:31.176198 17845 net.cpp:91] Creating Layer inception_4c/relu_1x1
I0403 14:55:31.176215 17845 net.cpp:425] inception_4c/relu_1x1 <- inception_4c/1x1
I0403 14:55:31.176242 17845 net.cpp:386] inception_4c/relu_1x1 -> inception_4c/1x1 (in-place)
I0403 14:55:31.176432 17845 net.cpp:141] Setting up inception_4c/relu_1x1
I0403 14:55:31.176458 17845 net.cpp:148] Top shape: 24 128 14 14 (602112)
I0403 14:55:31.176475 17845 net.cpp:156] Memory required for data: 1033209120
I0403 14:55:31.176489 17845 layer_factory.hpp:77] Creating layer inception_4c/3x3_reduce
I0403 14:55:31.176522 17845 net.cpp:91] Creating Layer inception_4c/3x3_reduce
I0403 14:55:31.176539 17845 net.cpp:425] inception_4c/3x3_reduce <- inception_4b/output_inception_4b/output_0_split_1
I0403 14:55:31.176564 17845 net.cpp:399] inception_4c/3x3_reduce -> inception_4c/3x3_reduce
I0403 14:55:31.178618 17845 net.cpp:141] Setting up inception_4c/3x3_reduce
I0403 14:55:31.178649 17845 net.cpp:148] Top shape: 24 128 14 14 (602112)
I0403 14:55:31.178665 17845 net.cpp:156] Memory required for data: 1035617568
I0403 14:55:31.178685 17845 layer_factory.hpp:77] Creating layer inception_4c/relu_3x3_reduce
I0403 14:55:31.178706 17845 net.cpp:91] Creating Layer inception_4c/relu_3x3_reduce
I0403 14:55:31.178724 17845 net.cpp:425] inception_4c/relu_3x3_reduce <- inception_4c/3x3_reduce
I0403 14:55:31.178741 17845 net.cpp:386] inception_4c/relu_3x3_reduce -> inception_4c/3x3_reduce (in-place)
I0403 14:55:31.179059 17845 net.cpp:141] Setting up inception_4c/relu_3x3_reduce
I0403 14:55:31.179086 17845 net.cpp:148] Top shape: 24 128 14 14 (602112)
I0403 14:55:31.179102 17845 net.cpp:156] Memory required for data: 1038026016
I0403 14:55:31.179119 17845 layer_factory.hpp:77] Creating layer inception_4c/3x3
I0403 14:55:31.179143 17845 net.cpp:91] Creating Layer inception_4c/3x3
I0403 14:55:31.179162 17845 net.cpp:425] inception_4c/3x3 <- inception_4c/3x3_reduce
I0403 14:55:31.179185 17845 net.cpp:399] inception_4c/3x3 -> inception_4c/3x3
I0403 14:55:31.183009 17845 net.cpp:141] Setting up inception_4c/3x3
I0403 14:55:31.183053 17845 net.cpp:148] Top shape: 24 256 14 14 (1204224)
I0403 14:55:31.183070 17845 net.cpp:156] Memory required for data: 1042842912
I0403 14:55:31.183104 17845 layer_factory.hpp:77] Creating layer inception_4c/relu_3x3
I0403 14:55:31.183128 17845 net.cpp:91] Creating Layer inception_4c/relu_3x3
I0403 14:55:31.183146 17845 net.cpp:425] inception_4c/relu_3x3 <- inception_4c/3x3
I0403 14:55:31.183166 17845 net.cpp:386] inception_4c/relu_3x3 -> inception_4c/3x3 (in-place)
I0403 14:55:31.183358 17845 net.cpp:141] Setting up inception_4c/relu_3x3
I0403 14:55:31.183388 17845 net.cpp:148] Top shape: 24 256 14 14 (1204224)
I0403 14:55:31.183405 17845 net.cpp:156] Memory required for data: 1047659808
I0403 14:55:31.183421 17845 layer_factory.hpp:77] Creating layer inception_4c/5x5_reduce
I0403 14:55:31.183446 17845 net.cpp:91] Creating Layer inception_4c/5x5_reduce
I0403 14:55:31.183465 17845 net.cpp:425] inception_4c/5x5_reduce <- inception_4b/output_inception_4b/output_0_split_2
I0403 14:55:31.183486 17845 net.cpp:399] inception_4c/5x5_reduce -> inception_4c/5x5_reduce
I0403 14:55:31.184643 17845 net.cpp:141] Setting up inception_4c/5x5_reduce
I0403 14:55:31.184674 17845 net.cpp:148] Top shape: 24 24 14 14 (112896)
I0403 14:55:31.184691 17845 net.cpp:156] Memory required for data: 1048111392
I0403 14:55:31.184711 17845 layer_factory.hpp:77] Creating layer inception_4c/relu_5x5_reduce
I0403 14:55:31.184731 17845 net.cpp:91] Creating Layer inception_4c/relu_5x5_reduce
I0403 14:55:31.184747 17845 net.cpp:425] inception_4c/relu_5x5_reduce <- inception_4c/5x5_reduce
I0403 14:55:31.184767 17845 net.cpp:386] inception_4c/relu_5x5_reduce -> inception_4c/5x5_reduce (in-place)
I0403 14:55:31.184965 17845 net.cpp:141] Setting up inception_4c/relu_5x5_reduce
I0403 14:55:31.184994 17845 net.cpp:148] Top shape: 24 24 14 14 (112896)
I0403 14:55:31.185011 17845 net.cpp:156] Memory required for data: 1048562976
I0403 14:55:31.185026 17845 layer_factory.hpp:77] Creating layer inception_4c/5x5
I0403 14:55:31.185050 17845 net.cpp:91] Creating Layer inception_4c/5x5
I0403 14:55:31.185067 17845 net.cpp:425] inception_4c/5x5 <- inception_4c/5x5_reduce
I0403 14:55:31.185091 17845 net.cpp:399] inception_4c/5x5 -> inception_4c/5x5
I0403 14:55:31.186417 17845 net.cpp:141] Setting up inception_4c/5x5
I0403 14:55:31.186446 17845 net.cpp:148] Top shape: 24 64 14 14 (301056)
I0403 14:55:31.186462 17845 net.cpp:156] Memory required for data: 1049767200
I0403 14:55:31.186481 17845 layer_factory.hpp:77] Creating layer inception_4c/relu_5x5
I0403 14:55:31.186499 17845 net.cpp:91] Creating Layer inception_4c/relu_5x5
I0403 14:55:31.186517 17845 net.cpp:425] inception_4c/relu_5x5 <- inception_4c/5x5
I0403 14:55:31.186537 17845 net.cpp:386] inception_4c/relu_5x5 -> inception_4c/5x5 (in-place)
I0403 14:55:31.186846 17845 net.cpp:141] Setting up inception_4c/relu_5x5
I0403 14:55:31.186874 17845 net.cpp:148] Top shape: 24 64 14 14 (301056)
I0403 14:55:31.186890 17845 net.cpp:156] Memory required for data: 1050971424
I0403 14:55:31.186905 17845 layer_factory.hpp:77] Creating layer inception_4c/pool
I0403 14:55:31.186924 17845 net.cpp:91] Creating Layer inception_4c/pool
I0403 14:55:31.186941 17845 net.cpp:425] inception_4c/pool <- inception_4b/output_inception_4b/output_0_split_3
I0403 14:55:31.186967 17845 net.cpp:399] inception_4c/pool -> inception_4c/pool
I0403 14:55:31.187037 17845 net.cpp:141] Setting up inception_4c/pool
I0403 14:55:31.187063 17845 net.cpp:148] Top shape: 24 512 14 14 (2408448)
I0403 14:55:31.187078 17845 net.cpp:156] Memory required for data: 1060605216
I0403 14:55:31.187093 17845 layer_factory.hpp:77] Creating layer inception_4c/pool_proj
I0403 14:55:31.187119 17845 net.cpp:91] Creating Layer inception_4c/pool_proj
I0403 14:55:31.187136 17845 net.cpp:425] inception_4c/pool_proj <- inception_4c/pool
I0403 14:55:31.187156 17845 net.cpp:399] inception_4c/pool_proj -> inception_4c/pool_proj
I0403 14:55:31.188472 17845 net.cpp:141] Setting up inception_4c/pool_proj
I0403 14:55:31.188500 17845 net.cpp:148] Top shape: 24 64 14 14 (301056)
I0403 14:55:31.188530 17845 net.cpp:156] Memory required for data: 1061809440
I0403 14:55:31.188551 17845 layer_factory.hpp:77] Creating layer inception_4c/relu_pool_proj
I0403 14:55:31.188573 17845 net.cpp:91] Creating Layer inception_4c/relu_pool_proj
I0403 14:55:31.188591 17845 net.cpp:425] inception_4c/relu_pool_proj <- inception_4c/pool_proj
I0403 14:55:31.188609 17845 net.cpp:386] inception_4c/relu_pool_proj -> inception_4c/pool_proj (in-place)
I0403 14:55:31.188802 17845 net.cpp:141] Setting up inception_4c/relu_pool_proj
I0403 14:55:31.188829 17845 net.cpp:148] Top shape: 24 64 14 14 (301056)
I0403 14:55:31.188844 17845 net.cpp:156] Memory required for data: 1063013664
I0403 14:55:31.188859 17845 layer_factory.hpp:77] Creating layer inception_4c/output
I0403 14:55:31.188876 17845 net.cpp:91] Creating Layer inception_4c/output
I0403 14:55:31.188892 17845 net.cpp:425] inception_4c/output <- inception_4c/1x1
I0403 14:55:31.188910 17845 net.cpp:425] inception_4c/output <- inception_4c/3x3
I0403 14:55:31.188926 17845 net.cpp:425] inception_4c/output <- inception_4c/5x5
I0403 14:55:31.188942 17845 net.cpp:425] inception_4c/output <- inception_4c/pool_proj
I0403 14:55:31.188973 17845 net.cpp:399] inception_4c/output -> inception_4c/output
I0403 14:55:31.189026 17845 net.cpp:141] Setting up inception_4c/output
I0403 14:55:31.189054 17845 net.cpp:148] Top shape: 24 512 14 14 (2408448)
I0403 14:55:31.189069 17845 net.cpp:156] Memory required for data: 1072647456
I0403 14:55:31.189085 17845 layer_factory.hpp:77] Creating layer inception_4c/output_inception_4c/output_0_split
I0403 14:55:31.189102 17845 net.cpp:91] Creating Layer inception_4c/output_inception_4c/output_0_split
I0403 14:55:31.189118 17845 net.cpp:425] inception_4c/output_inception_4c/output_0_split <- inception_4c/output
I0403 14:55:31.189136 17845 net.cpp:399] inception_4c/output_inception_4c/output_0_split -> inception_4c/output_inception_4c/output_0_split_0
I0403 14:55:31.189157 17845 net.cpp:399] inception_4c/output_inception_4c/output_0_split -> inception_4c/output_inception_4c/output_0_split_1
I0403 14:55:31.189180 17845 net.cpp:399] inception_4c/output_inception_4c/output_0_split -> inception_4c/output_inception_4c/output_0_split_2
I0403 14:55:31.189203 17845 net.cpp:399] inception_4c/output_inception_4c/output_0_split -> inception_4c/output_inception_4c/output_0_split_3
I0403 14:55:31.189296 17845 net.cpp:141] Setting up inception_4c/output_inception_4c/output_0_split
I0403 14:55:31.189319 17845 net.cpp:148] Top shape: 24 512 14 14 (2408448)
I0403 14:55:31.189335 17845 net.cpp:148] Top shape: 24 512 14 14 (2408448)
I0403 14:55:31.189352 17845 net.cpp:148] Top shape: 24 512 14 14 (2408448)
I0403 14:55:31.189368 17845 net.cpp:148] Top shape: 24 512 14 14 (2408448)
I0403 14:55:31.189381 17845 net.cpp:156] Memory required for data: 1111182624
I0403 14:55:31.189396 17845 layer_factory.hpp:77] Creating layer inception_4d/1x1
I0403 14:55:31.189420 17845 net.cpp:91] Creating Layer inception_4d/1x1
I0403 14:55:31.189438 17845 net.cpp:425] inception_4d/1x1 <- inception_4c/output_inception_4c/output_0_split_0
I0403 14:55:31.189460 17845 net.cpp:399] inception_4d/1x1 -> inception_4d/1x1
I0403 14:55:31.190938 17845 net.cpp:141] Setting up inception_4d/1x1
I0403 14:55:31.190973 17845 net.cpp:148] Top shape: 24 112 14 14 (526848)
I0403 14:55:31.190989 17845 net.cpp:156] Memory required for data: 1113290016
I0403 14:55:31.191007 17845 layer_factory.hpp:77] Creating layer inception_4d/relu_1x1
I0403 14:55:31.191030 17845 net.cpp:91] Creating Layer inception_4d/relu_1x1
I0403 14:55:31.191046 17845 net.cpp:425] inception_4d/relu_1x1 <- inception_4d/1x1
I0403 14:55:31.191066 17845 net.cpp:386] inception_4d/relu_1x1 -> inception_4d/1x1 (in-place)
I0403 14:55:31.191261 17845 net.cpp:141] Setting up inception_4d/relu_1x1
I0403 14:55:31.191288 17845 net.cpp:148] Top shape: 24 112 14 14 (526848)
I0403 14:55:31.191304 17845 net.cpp:156] Memory required for data: 1115397408
I0403 14:55:31.191320 17845 layer_factory.hpp:77] Creating layer inception_4d/3x3_reduce
I0403 14:55:31.191355 17845 net.cpp:91] Creating Layer inception_4d/3x3_reduce
I0403 14:55:31.191375 17845 net.cpp:425] inception_4d/3x3_reduce <- inception_4c/output_inception_4c/output_0_split_1
I0403 14:55:31.191397 17845 net.cpp:399] inception_4d/3x3_reduce -> inception_4d/3x3_reduce
I0403 14:55:31.193012 17845 net.cpp:141] Setting up inception_4d/3x3_reduce
I0403 14:55:31.193042 17845 net.cpp:148] Top shape: 24 144 14 14 (677376)
I0403 14:55:31.193058 17845 net.cpp:156] Memory required for data: 1118106912
I0403 14:55:31.193076 17845 layer_factory.hpp:77] Creating layer inception_4d/relu_3x3_reduce
I0403 14:55:31.193094 17845 net.cpp:91] Creating Layer inception_4d/relu_3x3_reduce
I0403 14:55:31.193111 17845 net.cpp:425] inception_4d/relu_3x3_reduce <- inception_4d/3x3_reduce
I0403 14:55:31.193131 17845 net.cpp:386] inception_4d/relu_3x3_reduce -> inception_4d/3x3_reduce (in-place)
I0403 14:55:31.193438 17845 net.cpp:141] Setting up inception_4d/relu_3x3_reduce
I0403 14:55:31.193465 17845 net.cpp:148] Top shape: 24 144 14 14 (677376)
I0403 14:55:31.193481 17845 net.cpp:156] Memory required for data: 1120816416
I0403 14:55:31.193497 17845 layer_factory.hpp:77] Creating layer inception_4d/3x3
I0403 14:55:31.193522 17845 net.cpp:91] Creating Layer inception_4d/3x3
I0403 14:55:31.193539 17845 net.cpp:425] inception_4d/3x3 <- inception_4d/3x3_reduce
I0403 14:55:31.193562 17845 net.cpp:399] inception_4d/3x3 -> inception_4d/3x3
I0403 14:55:31.198129 17845 net.cpp:141] Setting up inception_4d/3x3
I0403 14:55:31.198160 17845 net.cpp:148] Top shape: 24 288 14 14 (1354752)
I0403 14:55:31.198176 17845 net.cpp:156] Memory required for data: 1126235424
I0403 14:55:31.198195 17845 layer_factory.hpp:77] Creating layer inception_4d/relu_3x3
I0403 14:55:31.198217 17845 net.cpp:91] Creating Layer inception_4d/relu_3x3
I0403 14:55:31.198235 17845 net.cpp:425] inception_4d/relu_3x3 <- inception_4d/3x3
I0403 14:55:31.198254 17845 net.cpp:386] inception_4d/relu_3x3 -> inception_4d/3x3 (in-place)
I0403 14:55:31.198448 17845 net.cpp:141] Setting up inception_4d/relu_3x3
I0403 14:55:31.198477 17845 net.cpp:148] Top shape: 24 288 14 14 (1354752)
I0403 14:55:31.198493 17845 net.cpp:156] Memory required for data: 1131654432
I0403 14:55:31.198508 17845 layer_factory.hpp:77] Creating layer inception_4d/5x5_reduce
I0403 14:55:31.198530 17845 net.cpp:91] Creating Layer inception_4d/5x5_reduce
I0403 14:55:31.198549 17845 net.cpp:425] inception_4d/5x5_reduce <- inception_4c/output_inception_4c/output_0_split_2
I0403 14:55:31.198570 17845 net.cpp:399] inception_4d/5x5_reduce -> inception_4d/5x5_reduce
I0403 14:55:31.199795 17845 net.cpp:141] Setting up inception_4d/5x5_reduce
I0403 14:55:31.199825 17845 net.cpp:148] Top shape: 24 32 14 14 (150528)
I0403 14:55:31.199841 17845 net.cpp:156] Memory required for data: 1132256544
I0403 14:55:31.199858 17845 layer_factory.hpp:77] Creating layer inception_4d/relu_5x5_reduce
I0403 14:55:31.199880 17845 net.cpp:91] Creating Layer inception_4d/relu_5x5_reduce
I0403 14:55:31.199898 17845 net.cpp:425] inception_4d/relu_5x5_reduce <- inception_4d/5x5_reduce
I0403 14:55:31.199916 17845 net.cpp:386] inception_4d/relu_5x5_reduce -> inception_4d/5x5_reduce (in-place)
I0403 14:55:31.200121 17845 net.cpp:141] Setting up inception_4d/relu_5x5_reduce
I0403 14:55:31.200150 17845 net.cpp:148] Top shape: 24 32 14 14 (150528)
I0403 14:55:31.200167 17845 net.cpp:156] Memory required for data: 1132858656
I0403 14:55:31.200182 17845 layer_factory.hpp:77] Creating layer inception_4d/5x5
I0403 14:55:31.200206 17845 net.cpp:91] Creating Layer inception_4d/5x5
I0403 14:55:31.200224 17845 net.cpp:425] inception_4d/5x5 <- inception_4d/5x5_reduce
I0403 14:55:31.200245 17845 net.cpp:399] inception_4d/5x5 -> inception_4d/5x5
I0403 14:55:31.201820 17845 net.cpp:141] Setting up inception_4d/5x5
I0403 14:55:31.201853 17845 net.cpp:148] Top shape: 24 64 14 14 (301056)
I0403 14:55:31.201869 17845 net.cpp:156] Memory required for data: 1134062880
I0403 14:55:31.201889 17845 layer_factory.hpp:77] Creating layer inception_4d/relu_5x5
I0403 14:55:31.201922 17845 net.cpp:91] Creating Layer inception_4d/relu_5x5
I0403 14:55:31.201941 17845 net.cpp:425] inception_4d/relu_5x5 <- inception_4d/5x5
I0403 14:55:31.201963 17845 net.cpp:386] inception_4d/relu_5x5 -> inception_4d/5x5 (in-place)
I0403 14:55:31.202286 17845 net.cpp:141] Setting up inception_4d/relu_5x5
I0403 14:55:31.202316 17845 net.cpp:148] Top shape: 24 64 14 14 (301056)
I0403 14:55:31.202332 17845 net.cpp:156] Memory required for data: 1135267104
I0403 14:55:31.202347 17845 layer_factory.hpp:77] Creating layer inception_4d/pool
I0403 14:55:31.202365 17845 net.cpp:91] Creating Layer inception_4d/pool
I0403 14:55:31.202383 17845 net.cpp:425] inception_4d/pool <- inception_4c/output_inception_4c/output_0_split_3
I0403 14:55:31.202404 17845 net.cpp:399] inception_4d/pool -> inception_4d/pool
I0403 14:55:31.202476 17845 net.cpp:141] Setting up inception_4d/pool
I0403 14:55:31.202499 17845 net.cpp:148] Top shape: 24 512 14 14 (2408448)
I0403 14:55:31.202514 17845 net.cpp:156] Memory required for data: 1144900896
I0403 14:55:31.202530 17845 layer_factory.hpp:77] Creating layer inception_4d/pool_proj
I0403 14:55:31.202553 17845 net.cpp:91] Creating Layer inception_4d/pool_proj
I0403 14:55:31.202574 17845 net.cpp:425] inception_4d/pool_proj <- inception_4d/pool
I0403 14:55:31.202594 17845 net.cpp:399] inception_4d/pool_proj -> inception_4d/pool_proj
I0403 14:55:31.204468 17845 net.cpp:141] Setting up inception_4d/pool_proj
I0403 14:55:31.204499 17845 net.cpp:148] Top shape: 24 64 14 14 (301056)
I0403 14:55:31.204514 17845 net.cpp:156] Memory required for data: 1146105120
I0403 14:55:31.204533 17845 layer_factory.hpp:77] Creating layer inception_4d/relu_pool_proj
I0403 14:55:31.204555 17845 net.cpp:91] Creating Layer inception_4d/relu_pool_proj
I0403 14:55:31.204572 17845 net.cpp:425] inception_4d/relu_pool_proj <- inception_4d/pool_proj
I0403 14:55:31.204591 17845 net.cpp:386] inception_4d/relu_pool_proj -> inception_4d/pool_proj (in-place)
I0403 14:55:31.204789 17845 net.cpp:141] Setting up inception_4d/relu_pool_proj
I0403 14:55:31.204818 17845 net.cpp:148] Top shape: 24 64 14 14 (301056)
I0403 14:55:31.204833 17845 net.cpp:156] Memory required for data: 1147309344
I0403 14:55:31.204849 17845 layer_factory.hpp:77] Creating layer inception_4d/output
I0403 14:55:31.204867 17845 net.cpp:91] Creating Layer inception_4d/output
I0403 14:55:31.204884 17845 net.cpp:425] inception_4d/output <- inception_4d/1x1
I0403 14:55:31.204901 17845 net.cpp:425] inception_4d/output <- inception_4d/3x3
I0403 14:55:31.204917 17845 net.cpp:425] inception_4d/output <- inception_4d/5x5
I0403 14:55:31.204933 17845 net.cpp:425] inception_4d/output <- inception_4d/pool_proj
I0403 14:55:31.204952 17845 net.cpp:399] inception_4d/output -> inception_4d/output
I0403 14:55:31.205009 17845 net.cpp:141] Setting up inception_4d/output
I0403 14:55:31.205034 17845 net.cpp:148] Top shape: 24 528 14 14 (2483712)
I0403 14:55:31.205050 17845 net.cpp:156] Memory required for data: 1157244192
I0403 14:55:31.205065 17845 layer_factory.hpp:77] Creating layer inception_4d/output_inception_4d/output_0_split
I0403 14:55:31.205083 17845 net.cpp:91] Creating Layer inception_4d/output_inception_4d/output_0_split
I0403 14:55:31.205099 17845 net.cpp:425] inception_4d/output_inception_4d/output_0_split <- inception_4d/output
I0403 14:55:31.205121 17845 net.cpp:399] inception_4d/output_inception_4d/output_0_split -> inception_4d/output_inception_4d/output_0_split_0
I0403 14:55:31.205142 17845 net.cpp:399] inception_4d/output_inception_4d/output_0_split -> inception_4d/output_inception_4d/output_0_split_1
I0403 14:55:31.205164 17845 net.cpp:399] inception_4d/output_inception_4d/output_0_split -> inception_4d/output_inception_4d/output_0_split_2
I0403 14:55:31.205191 17845 net.cpp:399] inception_4d/output_inception_4d/output_0_split -> inception_4d/output_inception_4d/output_0_split_3
I0403 14:55:31.205212 17845 net.cpp:399] inception_4d/output_inception_4d/output_0_split -> inception_4d/output_inception_4d/output_0_split_4
I0403 14:55:31.205318 17845 net.cpp:141] Setting up inception_4d/output_inception_4d/output_0_split
I0403 14:55:31.205358 17845 net.cpp:148] Top shape: 24 528 14 14 (2483712)
I0403 14:55:31.205376 17845 net.cpp:148] Top shape: 24 528 14 14 (2483712)
I0403 14:55:31.205394 17845 net.cpp:148] Top shape: 24 528 14 14 (2483712)
I0403 14:55:31.205410 17845 net.cpp:148] Top shape: 24 528 14 14 (2483712)
I0403 14:55:31.205425 17845 net.cpp:148] Top shape: 24 528 14 14 (2483712)
I0403 14:55:31.205440 17845 net.cpp:156] Memory required for data: 1206918432
I0403 14:55:31.205454 17845 layer_factory.hpp:77] Creating layer loss2/ave_pool
I0403 14:55:31.205472 17845 net.cpp:91] Creating Layer loss2/ave_pool
I0403 14:55:31.205488 17845 net.cpp:425] loss2/ave_pool <- inception_4d/output_inception_4d/output_0_split_0
I0403 14:55:31.205510 17845 net.cpp:399] loss2/ave_pool -> loss2/ave_pool
I0403 14:55:31.205852 17845 net.cpp:141] Setting up loss2/ave_pool
I0403 14:55:31.205879 17845 net.cpp:148] Top shape: 24 528 4 4 (202752)
I0403 14:55:31.205895 17845 net.cpp:156] Memory required for data: 1207729440
I0403 14:55:31.205910 17845 layer_factory.hpp:77] Creating layer loss2/conv
I0403 14:55:31.205935 17845 net.cpp:91] Creating Layer loss2/conv
I0403 14:55:31.205957 17845 net.cpp:425] loss2/conv <- loss2/ave_pool
I0403 14:55:31.205982 17845 net.cpp:399] loss2/conv -> loss2/conv
I0403 14:55:31.207996 17845 net.cpp:141] Setting up loss2/conv
I0403 14:55:31.208029 17845 net.cpp:148] Top shape: 24 128 4 4 (49152)
I0403 14:55:31.208045 17845 net.cpp:156] Memory required for data: 1207926048
I0403 14:55:31.208065 17845 layer_factory.hpp:77] Creating layer loss2/relu_conv
I0403 14:55:31.208083 17845 net.cpp:91] Creating Layer loss2/relu_conv
I0403 14:55:31.208101 17845 net.cpp:425] loss2/relu_conv <- loss2/conv
I0403 14:55:31.208122 17845 net.cpp:386] loss2/relu_conv -> loss2/conv (in-place)
I0403 14:55:31.208425 17845 net.cpp:141] Setting up loss2/relu_conv
I0403 14:55:31.208456 17845 net.cpp:148] Top shape: 24 128 4 4 (49152)
I0403 14:55:31.208472 17845 net.cpp:156] Memory required for data: 1208122656
I0403 14:55:31.208487 17845 layer_factory.hpp:77] Creating layer loss2/fc
I0403 14:55:31.208508 17845 net.cpp:91] Creating Layer loss2/fc
I0403 14:55:31.208524 17845 net.cpp:425] loss2/fc <- loss2/conv
I0403 14:55:31.208549 17845 net.cpp:399] loss2/fc -> loss2/fc
I0403 14:55:31.227282 17845 net.cpp:141] Setting up loss2/fc
I0403 14:55:31.227316 17845 net.cpp:148] Top shape: 24 1024 (24576)
I0403 14:55:31.227334 17845 net.cpp:156] Memory required for data: 1208220960
I0403 14:55:31.227354 17845 layer_factory.hpp:77] Creating layer loss2/relu_fc
I0403 14:55:31.227376 17845 net.cpp:91] Creating Layer loss2/relu_fc
I0403 14:55:31.227396 17845 net.cpp:425] loss2/relu_fc <- loss2/fc
I0403 14:55:31.227416 17845 net.cpp:386] loss2/relu_fc -> loss2/fc (in-place)
I0403 14:55:31.227773 17845 net.cpp:141] Setting up loss2/relu_fc
I0403 14:55:31.227802 17845 net.cpp:148] Top shape: 24 1024 (24576)
I0403 14:55:31.227818 17845 net.cpp:156] Memory required for data: 1208319264
I0403 14:55:31.227833 17845 layer_factory.hpp:77] Creating layer loss2/drop_fc
I0403 14:55:31.227854 17845 net.cpp:91] Creating Layer loss2/drop_fc
I0403 14:55:31.227872 17845 net.cpp:425] loss2/drop_fc <- loss2/fc
I0403 14:55:31.227890 17845 net.cpp:386] loss2/drop_fc -> loss2/fc (in-place)
I0403 14:55:31.227946 17845 net.cpp:141] Setting up loss2/drop_fc
I0403 14:55:31.227974 17845 net.cpp:148] Top shape: 24 1024 (24576)
I0403 14:55:31.227989 17845 net.cpp:156] Memory required for data: 1208417568
I0403 14:55:31.228004 17845 layer_factory.hpp:77] Creating layer loss2/classifier_plantvillage
I0403 14:55:31.228024 17845 net.cpp:91] Creating Layer loss2/classifier_plantvillage
I0403 14:55:31.228041 17845 net.cpp:425] loss2/classifier_plantvillage <- loss2/fc
I0403 14:55:31.228065 17845 net.cpp:399] loss2/classifier_plantvillage -> loss2/classifier_plantvillage
I0403 14:55:31.228502 17845 net.cpp:141] Setting up loss2/classifier_plantvillage
I0403 14:55:31.228529 17845 net.cpp:148] Top shape: 24 38 (912)
I0403 14:55:31.228569 17845 net.cpp:156] Memory required for data: 1208421216
I0403 14:55:31.228590 17845 layer_factory.hpp:77] Creating layer loss2/classifier_plantvillage_loss2/classifier_plantvillage_0_split
I0403 14:55:31.228608 17845 net.cpp:91] Creating Layer loss2/classifier_plantvillage_loss2/classifier_plantvillage_0_split
I0403 14:55:31.228624 17845 net.cpp:425] loss2/classifier_plantvillage_loss2/classifier_plantvillage_0_split <- loss2/classifier_plantvillage
I0403 14:55:31.228646 17845 net.cpp:399] loss2/classifier_plantvillage_loss2/classifier_plantvillage_0_split -> loss2/classifier_plantvillage_loss2/classifier_plantvillage_0_split_0
I0403 14:55:31.228668 17845 net.cpp:399] loss2/classifier_plantvillage_loss2/classifier_plantvillage_0_split -> loss2/classifier_plantvillage_loss2/classifier_plantvillage_0_split_1
I0403 14:55:31.228690 17845 net.cpp:399] loss2/classifier_plantvillage_loss2/classifier_plantvillage_0_split -> loss2/classifier_plantvillage_loss2/classifier_plantvillage_0_split_2
I0403 14:55:31.228772 17845 net.cpp:141] Setting up loss2/classifier_plantvillage_loss2/classifier_plantvillage_0_split
I0403 14:55:31.228799 17845 net.cpp:148] Top shape: 24 38 (912)
I0403 14:55:31.228817 17845 net.cpp:148] Top shape: 24 38 (912)
I0403 14:55:31.228833 17845 net.cpp:148] Top shape: 24 38 (912)
I0403 14:55:31.228847 17845 net.cpp:156] Memory required for data: 1208432160
I0403 14:55:31.228863 17845 layer_factory.hpp:77] Creating layer inception_4e/1x1
I0403 14:55:31.228883 17845 net.cpp:91] Creating Layer inception_4e/1x1
I0403 14:55:31.228902 17845 net.cpp:425] inception_4e/1x1 <- inception_4d/output_inception_4d/output_0_split_1
I0403 14:55:31.228922 17845 net.cpp:399] inception_4e/1x1 -> inception_4e/1x1
I0403 14:55:31.231053 17845 net.cpp:141] Setting up inception_4e/1x1
I0403 14:55:31.231083 17845 net.cpp:148] Top shape: 24 256 14 14 (1204224)
I0403 14:55:31.231101 17845 net.cpp:156] Memory required for data: 1213249056
I0403 14:55:31.231119 17845 layer_factory.hpp:77] Creating layer inception_4e/relu_1x1
I0403 14:55:31.231138 17845 net.cpp:91] Creating Layer inception_4e/relu_1x1
I0403 14:55:31.231155 17845 net.cpp:425] inception_4e/relu_1x1 <- inception_4e/1x1
I0403 14:55:31.231176 17845 net.cpp:386] inception_4e/relu_1x1 -> inception_4e/1x1 (in-place)
I0403 14:55:31.231495 17845 net.cpp:141] Setting up inception_4e/relu_1x1
I0403 14:55:31.231523 17845 net.cpp:148] Top shape: 24 256 14 14 (1204224)
I0403 14:55:31.231539 17845 net.cpp:156] Memory required for data: 1218065952
I0403 14:55:31.231554 17845 layer_factory.hpp:77] Creating layer inception_4e/3x3_reduce
I0403 14:55:31.231580 17845 net.cpp:91] Creating Layer inception_4e/3x3_reduce
I0403 14:55:31.231598 17845 net.cpp:425] inception_4e/3x3_reduce <- inception_4d/output_inception_4d/output_0_split_2
I0403 14:55:31.231621 17845 net.cpp:399] inception_4e/3x3_reduce -> inception_4e/3x3_reduce
I0403 14:55:31.233887 17845 net.cpp:141] Setting up inception_4e/3x3_reduce
I0403 14:55:31.233921 17845 net.cpp:148] Top shape: 24 160 14 14 (752640)
I0403 14:55:31.233937 17845 net.cpp:156] Memory required for data: 1221076512
I0403 14:55:31.233961 17845 layer_factory.hpp:77] Creating layer inception_4e/relu_3x3_reduce
I0403 14:55:31.233983 17845 net.cpp:91] Creating Layer inception_4e/relu_3x3_reduce
I0403 14:55:31.233999 17845 net.cpp:425] inception_4e/relu_3x3_reduce <- inception_4e/3x3_reduce
I0403 14:55:31.234019 17845 net.cpp:386] inception_4e/relu_3x3_reduce -> inception_4e/3x3_reduce (in-place)
I0403 14:55:31.234220 17845 net.cpp:141] Setting up inception_4e/relu_3x3_reduce
I0403 14:55:31.234247 17845 net.cpp:148] Top shape: 24 160 14 14 (752640)
I0403 14:55:31.234262 17845 net.cpp:156] Memory required for data: 1224087072
I0403 14:55:31.234277 17845 layer_factory.hpp:77] Creating layer inception_4e/3x3
I0403 14:55:31.234300 17845 net.cpp:91] Creating Layer inception_4e/3x3
I0403 14:55:31.234318 17845 net.cpp:425] inception_4e/3x3 <- inception_4e/3x3_reduce
I0403 14:55:31.234343 17845 net.cpp:399] inception_4e/3x3 -> inception_4e/3x3
I0403 14:55:31.239686 17845 net.cpp:141] Setting up inception_4e/3x3
I0403 14:55:31.239730 17845 net.cpp:148] Top shape: 24 320 14 14 (1505280)
I0403 14:55:31.239748 17845 net.cpp:156] Memory required for data: 1230108192
I0403 14:55:31.239766 17845 layer_factory.hpp:77] Creating layer inception_4e/relu_3x3
I0403 14:55:31.239785 17845 net.cpp:91] Creating Layer inception_4e/relu_3x3
I0403 14:55:31.239802 17845 net.cpp:425] inception_4e/relu_3x3 <- inception_4e/3x3
I0403 14:55:31.239823 17845 net.cpp:386] inception_4e/relu_3x3 -> inception_4e/3x3 (in-place)
I0403 14:55:31.240149 17845 net.cpp:141] Setting up inception_4e/relu_3x3
I0403 14:55:31.240177 17845 net.cpp:148] Top shape: 24 320 14 14 (1505280)
I0403 14:55:31.240193 17845 net.cpp:156] Memory required for data: 1236129312
I0403 14:55:31.240209 17845 layer_factory.hpp:77] Creating layer inception_4e/5x5_reduce
I0403 14:55:31.240236 17845 net.cpp:91] Creating Layer inception_4e/5x5_reduce
I0403 14:55:31.240257 17845 net.cpp:425] inception_4e/5x5_reduce <- inception_4d/output_inception_4d/output_0_split_3
I0403 14:55:31.240278 17845 net.cpp:399] inception_4e/5x5_reduce -> inception_4e/5x5_reduce
I0403 14:55:31.241421 17845 net.cpp:141] Setting up inception_4e/5x5_reduce
I0403 14:55:31.241453 17845 net.cpp:148] Top shape: 24 32 14 14 (150528)
I0403 14:55:31.241471 17845 net.cpp:156] Memory required for data: 1236731424
I0403 14:55:31.241489 17845 layer_factory.hpp:77] Creating layer inception_4e/relu_5x5_reduce
I0403 14:55:31.241508 17845 net.cpp:91] Creating Layer inception_4e/relu_5x5_reduce
I0403 14:55:31.241525 17845 net.cpp:425] inception_4e/relu_5x5_reduce <- inception_4e/5x5_reduce
I0403 14:55:31.241544 17845 net.cpp:386] inception_4e/relu_5x5_reduce -> inception_4e/5x5_reduce (in-place)
I0403 14:55:31.241858 17845 net.cpp:141] Setting up inception_4e/relu_5x5_reduce
I0403 14:55:31.241888 17845 net.cpp:148] Top shape: 24 32 14 14 (150528)
I0403 14:55:31.241905 17845 net.cpp:156] Memory required for data: 1237333536
I0403 14:55:31.241920 17845 layer_factory.hpp:77] Creating layer inception_4e/5x5
I0403 14:55:31.241966 17845 net.cpp:91] Creating Layer inception_4e/5x5
I0403 14:55:31.241987 17845 net.cpp:425] inception_4e/5x5 <- inception_4e/5x5_reduce
I0403 14:55:31.242007 17845 net.cpp:399] inception_4e/5x5 -> inception_4e/5x5
I0403 14:55:31.243984 17845 net.cpp:141] Setting up inception_4e/5x5
I0403 14:55:31.244014 17845 net.cpp:148] Top shape: 24 128 14 14 (602112)
I0403 14:55:31.244030 17845 net.cpp:156] Memory required for data: 1239741984
I0403 14:55:31.244050 17845 layer_factory.hpp:77] Creating layer inception_4e/relu_5x5
I0403 14:55:31.244071 17845 net.cpp:91] Creating Layer inception_4e/relu_5x5
I0403 14:55:31.244089 17845 net.cpp:425] inception_4e/relu_5x5 <- inception_4e/5x5
I0403 14:55:31.244107 17845 net.cpp:386] inception_4e/relu_5x5 -> inception_4e/5x5 (in-place)
I0403 14:55:31.244318 17845 net.cpp:141] Setting up inception_4e/relu_5x5
I0403 14:55:31.244346 17845 net.cpp:148] Top shape: 24 128 14 14 (602112)
I0403 14:55:31.244362 17845 net.cpp:156] Memory required for data: 1242150432
I0403 14:55:31.244377 17845 layer_factory.hpp:77] Creating layer inception_4e/pool
I0403 14:55:31.244396 17845 net.cpp:91] Creating Layer inception_4e/pool
I0403 14:55:31.244413 17845 net.cpp:425] inception_4e/pool <- inception_4d/output_inception_4d/output_0_split_4
I0403 14:55:31.244434 17845 net.cpp:399] inception_4e/pool -> inception_4e/pool
I0403 14:55:31.244509 17845 net.cpp:141] Setting up inception_4e/pool
I0403 14:55:31.244534 17845 net.cpp:148] Top shape: 24 528 14 14 (2483712)
I0403 14:55:31.244549 17845 net.cpp:156] Memory required for data: 1252085280
I0403 14:55:31.244565 17845 layer_factory.hpp:77] Creating layer inception_4e/pool_proj
I0403 14:55:31.244587 17845 net.cpp:91] Creating Layer inception_4e/pool_proj
I0403 14:55:31.244606 17845 net.cpp:425] inception_4e/pool_proj <- inception_4e/pool
I0403 14:55:31.244627 17845 net.cpp:399] inception_4e/pool_proj -> inception_4e/pool_proj
I0403 14:55:31.246237 17845 net.cpp:141] Setting up inception_4e/pool_proj
I0403 14:55:31.246279 17845 net.cpp:148] Top shape: 24 128 14 14 (602112)
I0403 14:55:31.246295 17845 net.cpp:156] Memory required for data: 1254493728
I0403 14:55:31.246315 17845 layer_factory.hpp:77] Creating layer inception_4e/relu_pool_proj
I0403 14:55:31.246335 17845 net.cpp:91] Creating Layer inception_4e/relu_pool_proj
I0403 14:55:31.246353 17845 net.cpp:425] inception_4e/relu_pool_proj <- inception_4e/pool_proj
I0403 14:55:31.246372 17845 net.cpp:386] inception_4e/relu_pool_proj -> inception_4e/pool_proj (in-place)
I0403 14:55:31.246685 17845 net.cpp:141] Setting up inception_4e/relu_pool_proj
I0403 14:55:31.246712 17845 net.cpp:148] Top shape: 24 128 14 14 (602112)
I0403 14:55:31.246729 17845 net.cpp:156] Memory required for data: 1256902176
I0403 14:55:31.246747 17845 layer_factory.hpp:77] Creating layer inception_4e/output
I0403 14:55:31.246767 17845 net.cpp:91] Creating Layer inception_4e/output
I0403 14:55:31.246784 17845 net.cpp:425] inception_4e/output <- inception_4e/1x1
I0403 14:55:31.246801 17845 net.cpp:425] inception_4e/output <- inception_4e/3x3
I0403 14:55:31.246819 17845 net.cpp:425] inception_4e/output <- inception_4e/5x5
I0403 14:55:31.246835 17845 net.cpp:425] inception_4e/output <- inception_4e/pool_proj
I0403 14:55:31.246853 17845 net.cpp:399] inception_4e/output -> inception_4e/output
I0403 14:55:31.246908 17845 net.cpp:141] Setting up inception_4e/output
I0403 14:55:31.246933 17845 net.cpp:148] Top shape: 24 832 14 14 (3913728)
I0403 14:55:31.246948 17845 net.cpp:156] Memory required for data: 1272557088
I0403 14:55:31.246968 17845 layer_factory.hpp:77] Creating layer pool4/3x3_s2
I0403 14:55:31.246986 17845 net.cpp:91] Creating Layer pool4/3x3_s2
I0403 14:55:31.247004 17845 net.cpp:425] pool4/3x3_s2 <- inception_4e/output
I0403 14:55:31.247025 17845 net.cpp:399] pool4/3x3_s2 -> pool4/3x3_s2
I0403 14:55:31.247099 17845 net.cpp:141] Setting up pool4/3x3_s2
I0403 14:55:31.247128 17845 net.cpp:148] Top shape: 24 832 7 7 (978432)
I0403 14:55:31.247143 17845 net.cpp:156] Memory required for data: 1276470816
I0403 14:55:31.247158 17845 layer_factory.hpp:77] Creating layer pool4/3x3_s2_pool4/3x3_s2_0_split
I0403 14:55:31.247175 17845 net.cpp:91] Creating Layer pool4/3x3_s2_pool4/3x3_s2_0_split
I0403 14:55:31.247191 17845 net.cpp:425] pool4/3x3_s2_pool4/3x3_s2_0_split <- pool4/3x3_s2
I0403 14:55:31.247210 17845 net.cpp:399] pool4/3x3_s2_pool4/3x3_s2_0_split -> pool4/3x3_s2_pool4/3x3_s2_0_split_0
I0403 14:55:31.247233 17845 net.cpp:399] pool4/3x3_s2_pool4/3x3_s2_0_split -> pool4/3x3_s2_pool4/3x3_s2_0_split_1
I0403 14:55:31.247256 17845 net.cpp:399] pool4/3x3_s2_pool4/3x3_s2_0_split -> pool4/3x3_s2_pool4/3x3_s2_0_split_2
I0403 14:55:31.247277 17845 net.cpp:399] pool4/3x3_s2_pool4/3x3_s2_0_split -> pool4/3x3_s2_pool4/3x3_s2_0_split_3
I0403 14:55:31.247375 17845 net.cpp:141] Setting up pool4/3x3_s2_pool4/3x3_s2_0_split
I0403 14:55:31.247400 17845 net.cpp:148] Top shape: 24 832 7 7 (978432)
I0403 14:55:31.247416 17845 net.cpp:148] Top shape: 24 832 7 7 (978432)
I0403 14:55:31.247431 17845 net.cpp:148] Top shape: 24 832 7 7 (978432)
I0403 14:55:31.247447 17845 net.cpp:148] Top shape: 24 832 7 7 (978432)
I0403 14:55:31.247462 17845 net.cpp:156] Memory required for data: 1292125728
I0403 14:55:31.247476 17845 layer_factory.hpp:77] Creating layer inception_5a/1x1
I0403 14:55:31.247499 17845 net.cpp:91] Creating Layer inception_5a/1x1
I0403 14:55:31.247520 17845 net.cpp:425] inception_5a/1x1 <- pool4/3x3_s2_pool4/3x3_s2_0_split_0
I0403 14:55:31.247540 17845 net.cpp:399] inception_5a/1x1 -> inception_5a/1x1
I0403 14:55:31.250625 17845 net.cpp:141] Setting up inception_5a/1x1
I0403 14:55:31.250655 17845 net.cpp:148] Top shape: 24 256 7 7 (301056)
I0403 14:55:31.250671 17845 net.cpp:156] Memory required for data: 1293329952
I0403 14:55:31.250689 17845 layer_factory.hpp:77] Creating layer inception_5a/relu_1x1
I0403 14:55:31.250710 17845 net.cpp:91] Creating Layer inception_5a/relu_1x1
I0403 14:55:31.250726 17845 net.cpp:425] inception_5a/relu_1x1 <- inception_5a/1x1
I0403 14:55:31.250743 17845 net.cpp:386] inception_5a/relu_1x1 -> inception_5a/1x1 (in-place)
I0403 14:55:31.251076 17845 net.cpp:141] Setting up inception_5a/relu_1x1
I0403 14:55:31.251103 17845 net.cpp:148] Top shape: 24 256 7 7 (301056)
I0403 14:55:31.251118 17845 net.cpp:156] Memory required for data: 1294534176
I0403 14:55:31.251133 17845 layer_factory.hpp:77] Creating layer inception_5a/3x3_reduce
I0403 14:55:31.251158 17845 net.cpp:91] Creating Layer inception_5a/3x3_reduce
I0403 14:55:31.251176 17845 net.cpp:425] inception_5a/3x3_reduce <- pool4/3x3_s2_pool4/3x3_s2_0_split_1
I0403 14:55:31.251196 17845 net.cpp:399] inception_5a/3x3_reduce -> inception_5a/3x3_reduce
I0403 14:55:31.253793 17845 net.cpp:141] Setting up inception_5a/3x3_reduce
I0403 14:55:31.253823 17845 net.cpp:148] Top shape: 24 160 7 7 (188160)
I0403 14:55:31.253839 17845 net.cpp:156] Memory required for data: 1295286816
I0403 14:55:31.253859 17845 layer_factory.hpp:77] Creating layer inception_5a/relu_3x3_reduce
I0403 14:55:31.253881 17845 net.cpp:91] Creating Layer inception_5a/relu_3x3_reduce
I0403 14:55:31.253898 17845 net.cpp:425] inception_5a/relu_3x3_reduce <- inception_5a/3x3_reduce
I0403 14:55:31.253916 17845 net.cpp:386] inception_5a/relu_3x3_reduce -> inception_5a/3x3_reduce (in-place)
I0403 14:55:31.254143 17845 net.cpp:141] Setting up inception_5a/relu_3x3_reduce
I0403 14:55:31.254170 17845 net.cpp:148] Top shape: 24 160 7 7 (188160)
I0403 14:55:31.254185 17845 net.cpp:156] Memory required for data: 1296039456
I0403 14:55:31.254200 17845 layer_factory.hpp:77] Creating layer inception_5a/3x3
I0403 14:55:31.254226 17845 net.cpp:91] Creating Layer inception_5a/3x3
I0403 14:55:31.254245 17845 net.cpp:425] inception_5a/3x3 <- inception_5a/3x3_reduce
I0403 14:55:31.254264 17845 net.cpp:399] inception_5a/3x3 -> inception_5a/3x3
I0403 14:55:31.259578 17845 net.cpp:141] Setting up inception_5a/3x3
I0403 14:55:31.259613 17845 net.cpp:148] Top shape: 24 320 7 7 (376320)
I0403 14:55:31.259630 17845 net.cpp:156] Memory required for data: 1297544736
I0403 14:55:31.259649 17845 layer_factory.hpp:77] Creating layer inception_5a/relu_3x3
I0403 14:55:31.259668 17845 net.cpp:91] Creating Layer inception_5a/relu_3x3
I0403 14:55:31.259685 17845 net.cpp:425] inception_5a/relu_3x3 <- inception_5a/3x3
I0403 14:55:31.259702 17845 net.cpp:386] inception_5a/relu_3x3 -> inception_5a/3x3 (in-place)
I0403 14:55:31.260023 17845 net.cpp:141] Setting up inception_5a/relu_3x3
I0403 14:55:31.260052 17845 net.cpp:148] Top shape: 24 320 7 7 (376320)
I0403 14:55:31.260069 17845 net.cpp:156] Memory required for data: 1299050016
I0403 14:55:31.260085 17845 layer_factory.hpp:77] Creating layer inception_5a/5x5_reduce
I0403 14:55:31.260107 17845 net.cpp:91] Creating Layer inception_5a/5x5_reduce
I0403 14:55:31.260125 17845 net.cpp:425] inception_5a/5x5_reduce <- pool4/3x3_s2_pool4/3x3_s2_0_split_2
I0403 14:55:31.260148 17845 net.cpp:399] inception_5a/5x5_reduce -> inception_5a/5x5_reduce
I0403 14:55:31.261402 17845 net.cpp:141] Setting up inception_5a/5x5_reduce
I0403 14:55:31.261435 17845 net.cpp:148] Top shape: 24 32 7 7 (37632)
I0403 14:55:31.261452 17845 net.cpp:156] Memory required for data: 1299200544
I0403 14:55:31.261471 17845 layer_factory.hpp:77] Creating layer inception_5a/relu_5x5_reduce
I0403 14:55:31.261489 17845 net.cpp:91] Creating Layer inception_5a/relu_5x5_reduce
I0403 14:55:31.261518 17845 net.cpp:425] inception_5a/relu_5x5_reduce <- inception_5a/5x5_reduce
I0403 14:55:31.261538 17845 net.cpp:386] inception_5a/relu_5x5_reduce -> inception_5a/5x5_reduce (in-place)
I0403 14:55:31.261850 17845 net.cpp:141] Setting up inception_5a/relu_5x5_reduce
I0403 14:55:31.261881 17845 net.cpp:148] Top shape: 24 32 7 7 (37632)
I0403 14:55:31.261898 17845 net.cpp:156] Memory required for data: 1299351072
I0403 14:55:31.261912 17845 layer_factory.hpp:77] Creating layer inception_5a/5x5
I0403 14:55:31.261935 17845 net.cpp:91] Creating Layer inception_5a/5x5
I0403 14:55:31.261957 17845 net.cpp:425] inception_5a/5x5 <- inception_5a/5x5_reduce
I0403 14:55:31.261978 17845 net.cpp:399] inception_5a/5x5 -> inception_5a/5x5
I0403 14:55:31.263804 17845 net.cpp:141] Setting up inception_5a/5x5
I0403 14:55:31.263847 17845 net.cpp:148] Top shape: 24 128 7 7 (150528)
I0403 14:55:31.263864 17845 net.cpp:156] Memory required for data: 1299953184
I0403 14:55:31.263883 17845 layer_factory.hpp:77] Creating layer inception_5a/relu_5x5
I0403 14:55:31.263901 17845 net.cpp:91] Creating Layer inception_5a/relu_5x5
I0403 14:55:31.263917 17845 net.cpp:425] inception_5a/relu_5x5 <- inception_5a/5x5
I0403 14:55:31.263934 17845 net.cpp:386] inception_5a/relu_5x5 -> inception_5a/5x5 (in-place)
I0403 14:55:31.264140 17845 net.cpp:141] Setting up inception_5a/relu_5x5
I0403 14:55:31.264169 17845 net.cpp:148] Top shape: 24 128 7 7 (150528)
I0403 14:55:31.264185 17845 net.cpp:156] Memory required for data: 1300555296
I0403 14:55:31.264200 17845 layer_factory.hpp:77] Creating layer inception_5a/pool
I0403 14:55:31.264219 17845 net.cpp:91] Creating Layer inception_5a/pool
I0403 14:55:31.264235 17845 net.cpp:425] inception_5a/pool <- pool4/3x3_s2_pool4/3x3_s2_0_split_3
I0403 14:55:31.264257 17845 net.cpp:399] inception_5a/pool -> inception_5a/pool
I0403 14:55:31.264330 17845 net.cpp:141] Setting up inception_5a/pool
I0403 14:55:31.264358 17845 net.cpp:148] Top shape: 24 832 7 7 (978432)
I0403 14:55:31.264372 17845 net.cpp:156] Memory required for data: 1304469024
I0403 14:55:31.264386 17845 layer_factory.hpp:77] Creating layer inception_5a/pool_proj
I0403 14:55:31.264407 17845 net.cpp:91] Creating Layer inception_5a/pool_proj
I0403 14:55:31.264425 17845 net.cpp:425] inception_5a/pool_proj <- inception_5a/pool
I0403 14:55:31.264446 17845 net.cpp:399] inception_5a/pool_proj -> inception_5a/pool_proj
I0403 14:55:31.266865 17845 net.cpp:141] Setting up inception_5a/pool_proj
I0403 14:55:31.266896 17845 net.cpp:148] Top shape: 24 128 7 7 (150528)
I0403 14:55:31.266912 17845 net.cpp:156] Memory required for data: 1305071136
I0403 14:55:31.266932 17845 layer_factory.hpp:77] Creating layer inception_5a/relu_pool_proj
I0403 14:55:31.266952 17845 net.cpp:91] Creating Layer inception_5a/relu_pool_proj
I0403 14:55:31.266976 17845 net.cpp:425] inception_5a/relu_pool_proj <- inception_5a/pool_proj
I0403 14:55:31.266995 17845 net.cpp:386] inception_5a/relu_pool_proj -> inception_5a/pool_proj (in-place)
I0403 14:55:31.267325 17845 net.cpp:141] Setting up inception_5a/relu_pool_proj
I0403 14:55:31.267352 17845 net.cpp:148] Top shape: 24 128 7 7 (150528)
I0403 14:55:31.267367 17845 net.cpp:156] Memory required for data: 1305673248
I0403 14:55:31.267382 17845 layer_factory.hpp:77] Creating layer inception_5a/output
I0403 14:55:31.267401 17845 net.cpp:91] Creating Layer inception_5a/output
I0403 14:55:31.267418 17845 net.cpp:425] inception_5a/output <- inception_5a/1x1
I0403 14:55:31.267436 17845 net.cpp:425] inception_5a/output <- inception_5a/3x3
I0403 14:55:31.267452 17845 net.cpp:425] inception_5a/output <- inception_5a/5x5
I0403 14:55:31.267467 17845 net.cpp:425] inception_5a/output <- inception_5a/pool_proj
I0403 14:55:31.267484 17845 net.cpp:399] inception_5a/output -> inception_5a/output
I0403 14:55:31.267539 17845 net.cpp:141] Setting up inception_5a/output
I0403 14:55:31.267562 17845 net.cpp:148] Top shape: 24 832 7 7 (978432)
I0403 14:55:31.267576 17845 net.cpp:156] Memory required for data: 1309586976
I0403 14:55:31.267591 17845 layer_factory.hpp:77] Creating layer inception_5a/output_inception_5a/output_0_split
I0403 14:55:31.267608 17845 net.cpp:91] Creating Layer inception_5a/output_inception_5a/output_0_split
I0403 14:55:31.267624 17845 net.cpp:425] inception_5a/output_inception_5a/output_0_split <- inception_5a/output
I0403 14:55:31.267644 17845 net.cpp:399] inception_5a/output_inception_5a/output_0_split -> inception_5a/output_inception_5a/output_0_split_0
I0403 14:55:31.267665 17845 net.cpp:399] inception_5a/output_inception_5a/output_0_split -> inception_5a/output_inception_5a/output_0_split_1
I0403 14:55:31.267685 17845 net.cpp:399] inception_5a/output_inception_5a/output_0_split -> inception_5a/output_inception_5a/output_0_split_2
I0403 14:55:31.267706 17845 net.cpp:399] inception_5a/output_inception_5a/output_0_split -> inception_5a/output_inception_5a/output_0_split_3
I0403 14:55:31.267824 17845 net.cpp:141] Setting up inception_5a/output_inception_5a/output_0_split
I0403 14:55:31.267851 17845 net.cpp:148] Top shape: 24 832 7 7 (978432)
I0403 14:55:31.267868 17845 net.cpp:148] Top shape: 24 832 7 7 (978432)
I0403 14:55:31.267884 17845 net.cpp:148] Top shape: 24 832 7 7 (978432)
I0403 14:55:31.267899 17845 net.cpp:148] Top shape: 24 832 7 7 (978432)
I0403 14:55:31.267913 17845 net.cpp:156] Memory required for data: 1325241888
I0403 14:55:31.267927 17845 layer_factory.hpp:77] Creating layer inception_5b/1x1
I0403 14:55:31.267951 17845 net.cpp:91] Creating Layer inception_5b/1x1
I0403 14:55:31.267973 17845 net.cpp:425] inception_5b/1x1 <- inception_5a/output_inception_5a/output_0_split_0
I0403 14:55:31.267993 17845 net.cpp:399] inception_5b/1x1 -> inception_5b/1x1
I0403 14:55:31.271968 17845 net.cpp:141] Setting up inception_5b/1x1
I0403 14:55:31.272001 17845 net.cpp:148] Top shape: 24 384 7 7 (451584)
I0403 14:55:31.272017 17845 net.cpp:156] Memory required for data: 1327048224
I0403 14:55:31.272034 17845 layer_factory.hpp:77] Creating layer inception_5b/relu_1x1
I0403 14:55:31.272056 17845 net.cpp:91] Creating Layer inception_5b/relu_1x1
I0403 14:55:31.272074 17845 net.cpp:425] inception_5b/relu_1x1 <- inception_5b/1x1
I0403 14:55:31.272092 17845 net.cpp:386] inception_5b/relu_1x1 -> inception_5b/1x1 (in-place)
I0403 14:55:31.272408 17845 net.cpp:141] Setting up inception_5b/relu_1x1
I0403 14:55:31.272445 17845 net.cpp:148] Top shape: 24 384 7 7 (451584)
I0403 14:55:31.272462 17845 net.cpp:156] Memory required for data: 1328854560
I0403 14:55:31.272480 17845 layer_factory.hpp:77] Creating layer inception_5b/3x3_reduce
I0403 14:55:31.272503 17845 net.cpp:91] Creating Layer inception_5b/3x3_reduce
I0403 14:55:31.272521 17845 net.cpp:425] inception_5b/3x3_reduce <- inception_5a/output_inception_5a/output_0_split_1
I0403 14:55:31.272544 17845 net.cpp:399] inception_5b/3x3_reduce -> inception_5b/3x3_reduce
I0403 14:55:31.275364 17845 net.cpp:141] Setting up inception_5b/3x3_reduce
I0403 14:55:31.275395 17845 net.cpp:148] Top shape: 24 192 7 7 (225792)
I0403 14:55:31.275411 17845 net.cpp:156] Memory required for data: 1329757728
I0403 14:55:31.275429 17845 layer_factory.hpp:77] Creating layer inception_5b/relu_3x3_reduce
I0403 14:55:31.275450 17845 net.cpp:91] Creating Layer inception_5b/relu_3x3_reduce
I0403 14:55:31.275467 17845 net.cpp:425] inception_5b/relu_3x3_reduce <- inception_5b/3x3_reduce
I0403 14:55:31.275485 17845 net.cpp:386] inception_5b/relu_3x3_reduce -> inception_5b/3x3_reduce (in-place)
I0403 14:55:31.275684 17845 net.cpp:141] Setting up inception_5b/relu_3x3_reduce
I0403 14:55:31.275712 17845 net.cpp:148] Top shape: 24 192 7 7 (225792)
I0403 14:55:31.275727 17845 net.cpp:156] Memory required for data: 1330660896
I0403 14:55:31.275743 17845 layer_factory.hpp:77] Creating layer inception_5b/3x3
I0403 14:55:31.275765 17845 net.cpp:91] Creating Layer inception_5b/3x3
I0403 14:55:31.275782 17845 net.cpp:425] inception_5b/3x3 <- inception_5b/3x3_reduce
I0403 14:55:31.275802 17845 net.cpp:399] inception_5b/3x3 -> inception_5b/3x3
I0403 14:55:31.282909 17845 net.cpp:141] Setting up inception_5b/3x3
I0403 14:55:31.282940 17845 net.cpp:148] Top shape: 24 384 7 7 (451584)
I0403 14:55:31.282960 17845 net.cpp:156] Memory required for data: 1332467232
I0403 14:55:31.282981 17845 layer_factory.hpp:77] Creating layer inception_5b/relu_3x3
I0403 14:55:31.283002 17845 net.cpp:91] Creating Layer inception_5b/relu_3x3
I0403 14:55:31.283021 17845 net.cpp:425] inception_5b/relu_3x3 <- inception_5b/3x3
I0403 14:55:31.283041 17845 net.cpp:386] inception_5b/relu_3x3 -> inception_5b/3x3 (in-place)
I0403 14:55:31.283360 17845 net.cpp:141] Setting up inception_5b/relu_3x3
I0403 14:55:31.283387 17845 net.cpp:148] Top shape: 24 384 7 7 (451584)
I0403 14:55:31.283402 17845 net.cpp:156] Memory required for data: 1334273568
I0403 14:55:31.283418 17845 layer_factory.hpp:77] Creating layer inception_5b/5x5_reduce
I0403 14:55:31.283462 17845 net.cpp:91] Creating Layer inception_5b/5x5_reduce
I0403 14:55:31.283481 17845 net.cpp:425] inception_5b/5x5_reduce <- inception_5a/output_inception_5a/output_0_split_2
I0403 14:55:31.283505 17845 net.cpp:399] inception_5b/5x5_reduce -> inception_5b/5x5_reduce
I0403 14:55:31.284850 17845 net.cpp:141] Setting up inception_5b/5x5_reduce
I0403 14:55:31.284878 17845 net.cpp:148] Top shape: 24 48 7 7 (56448)
I0403 14:55:31.284894 17845 net.cpp:156] Memory required for data: 1334499360
I0403 14:55:31.284912 17845 layer_factory.hpp:77] Creating layer inception_5b/relu_5x5_reduce
I0403 14:55:31.284934 17845 net.cpp:91] Creating Layer inception_5b/relu_5x5_reduce
I0403 14:55:31.284951 17845 net.cpp:425] inception_5b/relu_5x5_reduce <- inception_5b/5x5_reduce
I0403 14:55:31.284975 17845 net.cpp:386] inception_5b/relu_5x5_reduce -> inception_5b/5x5_reduce (in-place)
I0403 14:55:31.285380 17845 net.cpp:141] Setting up inception_5b/relu_5x5_reduce
I0403 14:55:31.285408 17845 net.cpp:148] Top shape: 24 48 7 7 (56448)
I0403 14:55:31.285424 17845 net.cpp:156] Memory required for data: 1334725152
I0403 14:55:31.285439 17845 layer_factory.hpp:77] Creating layer inception_5b/5x5
I0403 14:55:31.285460 17845 net.cpp:91] Creating Layer inception_5b/5x5
I0403 14:55:31.285490 17845 net.cpp:425] inception_5b/5x5 <- inception_5b/5x5_reduce
I0403 14:55:31.285509 17845 net.cpp:399] inception_5b/5x5 -> inception_5b/5x5
I0403 14:55:31.288333 17845 net.cpp:141] Setting up inception_5b/5x5
I0403 14:55:31.288363 17845 net.cpp:148] Top shape: 24 128 7 7 (150528)
I0403 14:55:31.288379 17845 net.cpp:156] Memory required for data: 1335327264
I0403 14:55:31.288398 17845 layer_factory.hpp:77] Creating layer inception_5b/relu_5x5
I0403 14:55:31.288419 17845 net.cpp:91] Creating Layer inception_5b/relu_5x5
I0403 14:55:31.288436 17845 net.cpp:425] inception_5b/relu_5x5 <- inception_5b/5x5
I0403 14:55:31.288455 17845 net.cpp:386] inception_5b/relu_5x5 -> inception_5b/5x5 (in-place)
I0403 14:55:31.288657 17845 net.cpp:141] Setting up inception_5b/relu_5x5
I0403 14:55:31.288683 17845 net.cpp:148] Top shape: 24 128 7 7 (150528)
I0403 14:55:31.288698 17845 net.cpp:156] Memory required for data: 1335929376
I0403 14:55:31.288713 17845 layer_factory.hpp:77] Creating layer inception_5b/pool
I0403 14:55:31.288732 17845 net.cpp:91] Creating Layer inception_5b/pool
I0403 14:55:31.288748 17845 net.cpp:425] inception_5b/pool <- inception_5a/output_inception_5a/output_0_split_3
I0403 14:55:31.288769 17845 net.cpp:399] inception_5b/pool -> inception_5b/pool
I0403 14:55:31.288846 17845 net.cpp:141] Setting up inception_5b/pool
I0403 14:55:31.288873 17845 net.cpp:148] Top shape: 24 832 7 7 (978432)
I0403 14:55:31.288888 17845 net.cpp:156] Memory required for data: 1339843104
I0403 14:55:31.288902 17845 layer_factory.hpp:77] Creating layer inception_5b/pool_proj
I0403 14:55:31.288928 17845 net.cpp:91] Creating Layer inception_5b/pool_proj
I0403 14:55:31.288945 17845 net.cpp:425] inception_5b/pool_proj <- inception_5b/pool
I0403 14:55:31.288977 17845 net.cpp:399] inception_5b/pool_proj -> inception_5b/pool_proj
I0403 14:55:31.291354 17845 net.cpp:141] Setting up inception_5b/pool_proj
I0403 14:55:31.291383 17845 net.cpp:148] Top shape: 24 128 7 7 (150528)
I0403 14:55:31.291399 17845 net.cpp:156] Memory required for data: 1340445216
I0403 14:55:31.291417 17845 layer_factory.hpp:77] Creating layer inception_5b/relu_pool_proj
I0403 14:55:31.291438 17845 net.cpp:91] Creating Layer inception_5b/relu_pool_proj
I0403 14:55:31.291455 17845 net.cpp:425] inception_5b/relu_pool_proj <- inception_5b/pool_proj
I0403 14:55:31.291472 17845 net.cpp:386] inception_5b/relu_pool_proj -> inception_5b/pool_proj (in-place)
I0403 14:55:31.291774 17845 net.cpp:141] Setting up inception_5b/relu_pool_proj
I0403 14:55:31.291800 17845 net.cpp:148] Top shape: 24 128 7 7 (150528)
I0403 14:55:31.291815 17845 net.cpp:156] Memory required for data: 1341047328
I0403 14:55:31.291829 17845 layer_factory.hpp:77] Creating layer inception_5b/output
I0403 14:55:31.291849 17845 net.cpp:91] Creating Layer inception_5b/output
I0403 14:55:31.291880 17845 net.cpp:425] inception_5b/output <- inception_5b/1x1
I0403 14:55:31.291898 17845 net.cpp:425] inception_5b/output <- inception_5b/3x3
I0403 14:55:31.291914 17845 net.cpp:425] inception_5b/output <- inception_5b/5x5
I0403 14:55:31.291930 17845 net.cpp:425] inception_5b/output <- inception_5b/pool_proj
I0403 14:55:31.291946 17845 net.cpp:399] inception_5b/output -> inception_5b/output
I0403 14:55:31.292006 17845 net.cpp:141] Setting up inception_5b/output
I0403 14:55:31.292029 17845 net.cpp:148] Top shape: 24 1024 7 7 (1204224)
I0403 14:55:31.292043 17845 net.cpp:156] Memory required for data: 1345864224
I0403 14:55:31.292057 17845 layer_factory.hpp:77] Creating layer pool5/7x7_s1
I0403 14:55:31.292074 17845 net.cpp:91] Creating Layer pool5/7x7_s1
I0403 14:55:31.292089 17845 net.cpp:425] pool5/7x7_s1 <- inception_5b/output
I0403 14:55:31.292110 17845 net.cpp:399] pool5/7x7_s1 -> pool5/7x7_s1
I0403 14:55:31.292343 17845 net.cpp:141] Setting up pool5/7x7_s1
I0403 14:55:31.292371 17845 net.cpp:148] Top shape: 24 1024 1 1 (24576)
I0403 14:55:31.292387 17845 net.cpp:156] Memory required for data: 1345962528
I0403 14:55:31.292402 17845 layer_factory.hpp:77] Creating layer pool5/drop_7x7_s1
I0403 14:55:31.292419 17845 net.cpp:91] Creating Layer pool5/drop_7x7_s1
I0403 14:55:31.292435 17845 net.cpp:425] pool5/drop_7x7_s1 <- pool5/7x7_s1
I0403 14:55:31.292453 17845 net.cpp:386] pool5/drop_7x7_s1 -> pool5/7x7_s1 (in-place)
I0403 14:55:31.292505 17845 net.cpp:141] Setting up pool5/drop_7x7_s1
I0403 14:55:31.292528 17845 net.cpp:148] Top shape: 24 1024 1 1 (24576)
I0403 14:55:31.292543 17845 net.cpp:156] Memory required for data: 1346060832
I0403 14:55:31.292557 17845 layer_factory.hpp:77] Creating layer loss3/classifier_plantvillage
I0403 14:55:31.292579 17845 net.cpp:91] Creating Layer loss3/classifier_plantvillage
I0403 14:55:31.292596 17845 net.cpp:425] loss3/classifier_plantvillage <- pool5/7x7_s1
I0403 14:55:31.292615 17845 net.cpp:399] loss3/classifier_plantvillage -> loss3/classifier_plantvillage
I0403 14:55:31.293063 17845 net.cpp:141] Setting up loss3/classifier_plantvillage
I0403 14:55:31.293088 17845 net.cpp:148] Top shape: 24 38 (912)
I0403 14:55:31.293102 17845 net.cpp:156] Memory required for data: 1346064480
I0403 14:55:31.293120 17845 layer_factory.hpp:77] Creating layer loss3/classifier_plantvillage_loss3/classifier_plantvillage_0_split
I0403 14:55:31.293138 17845 net.cpp:91] Creating Layer loss3/classifier_plantvillage_loss3/classifier_plantvillage_0_split
I0403 14:55:31.293154 17845 net.cpp:425] loss3/classifier_plantvillage_loss3/classifier_plantvillage_0_split <- loss3/classifier_plantvillage
I0403 14:55:31.293175 17845 net.cpp:399] loss3/classifier_plantvillage_loss3/classifier_plantvillage_0_split -> loss3/classifier_plantvillage_loss3/classifier_plantvillage_0_split_0
I0403 14:55:31.293196 17845 net.cpp:399] loss3/classifier_plantvillage_loss3/classifier_plantvillage_0_split -> loss3/classifier_plantvillage_loss3/classifier_plantvillage_0_split_1
I0403 14:55:31.293217 17845 net.cpp:399] loss3/classifier_plantvillage_loss3/classifier_plantvillage_0_split -> loss3/classifier_plantvillage_loss3/classifier_plantvillage_0_split_2
I0403 14:55:31.293237 17845 net.cpp:399] loss3/classifier_plantvillage_loss3/classifier_plantvillage_0_split -> loss3/classifier_plantvillage_loss3/classifier_plantvillage_0_split_3
I0403 14:55:31.293344 17845 net.cpp:141] Setting up loss3/classifier_plantvillage_loss3/classifier_plantvillage_0_split
I0403 14:55:31.293370 17845 net.cpp:148] Top shape: 24 38 (912)
I0403 14:55:31.293387 17845 net.cpp:148] Top shape: 24 38 (912)
I0403 14:55:31.293403 17845 net.cpp:148] Top shape: 24 38 (912)
I0403 14:55:31.293418 17845 net.cpp:148] Top shape: 24 38 (912)
I0403 14:55:31.293432 17845 net.cpp:156] Memory required for data: 1346079072
I0403 14:55:31.293447 17845 layer_factory.hpp:77] Creating layer loss1/loss
I0403 14:55:31.293469 17845 net.cpp:91] Creating Layer loss1/loss
I0403 14:55:31.293488 17845 net.cpp:425] loss1/loss <- loss1/classifier_plantvillage_loss1/classifier_plantvillage_0_split_0
I0403 14:55:31.293519 17845 net.cpp:425] loss1/loss <- label_data_1_split_0
…
