…
I0403 15:07:56.601002 18299 net.cpp:313] The NetState phase (1) differed from the phase (0) specified by a rule in layer data
I0403 15:07:56.602157 18299 net.cpp:49] Initializing net from parameters: 
state {
  phase: TEST
}
layer {
  name: "data"
  type: "Data"
  top: "data"
  top: "label"
  include {
    phase: TEST
  }
  transform_param {
    mirror: false
    crop_size: 224
    mean_file: "/home/mohanty/data/final_dataset/lmdb/grayscale-40-60/mean.binaryproto"
  }
  data_param {
    source: "/home/mohanty/data/final_dataset/lmdb/grayscale-40-60/test_db"
    batch_size: 24
    backend: LMDB
  }
}
layer {
  name: "conv1/7x7_s2"
  type: "Convolution"
  bottom: "data"
  top: "conv1/7x7_s2"
  param {
    lr_mult: 1
    decay_mult: 1
  }
  param {
    lr_mult: 2
    decay_mult: 0
  }
  convolution_param {
    num_output: 64
    pad: 3
    kernel_size: 7
    stride: 2
    weight_filler {
      type: "xavier"
      std: 0.1
    }
    bias_filler {
      type: "constant"
      value: 0.2
    }
  }
}
layer {
  name: "conv1/relu_7x7"
  type: "ReLU"
  bottom: "conv1/7x7_s2"
  top: "conv1/7x7_s2"
}
layer {
  name: "pool1/3x3_s2"
  type: "Pooling"
  bottom: "conv1/7x7_s2"
  top: "pool1/3x3_s2"
  pooling_param {
    pool: MAX
    kernel_size: 3
    stride: 2
  }
}
layer {
  name: "pool1/norm1"
  type: "LRN"
  bottom: "pool1/3x3_s2"
  top: "pool1/norm1"
  lrn_param {
    local_size: 5
    alpha: 0.0001
    beta: 0.75
  }
}
layer {
  name: "conv2/3x3_reduce"
  type: "Convolution"
  bottom: "pool1/norm1"
  top: "conv2/3x3_reduce"
  param {
    lr_mult: 1
    decay_mult: 1
  }
  param {
    lr_mult: 2
    decay_mult: 0
  }
  convolution_param {
    num_output: 64
    kernel_size: 1
    weight_filler {
      type: "xavier"
      std: 0.1
    }
    bias_filler {
      type: "constant"
      value: 0.2
    }
  }
}
layer {
  name: "conv2/relu_3x3_reduce"
  type: "ReLU"
  bottom: "conv2/3x3_reduce"
  top: "conv2/3x3_reduce"
}
layer {
  name: "conv2/3x3"
  type: "Convolution"
  bottom: "conv2/3x3_reduce"
  top: "conv2/3x3"
  param {
    lr_mult: 1
    decay_mult: 1
  }
  param {
    lr_mult: 2
    decay_mult: 0
  }
  convolution_param {
    num_output: 192
    pad: 1
    kernel_size: 3
    weight_filler {
      type: "xavier"
      std: 0.03
    }
    bias_filler {
      type: "constant"
      value: 0.2
    }
  }
}
layer {
  name: "conv2/relu_3x3"
  type: "ReLU"
  bottom: "conv2/3x3"
  top: "conv2/3x3"
}
layer {
  name: "conv2/norm2"
  type: "LRN"
  bottom: "conv2/3x3"
  top: "conv2/norm2"
  lrn_param {
    local_size: 5
    alpha: 0.0001
    beta: 0.75
  }
}
layer {
  name: "pool2/3x3_s2"
  type: "Pooling"
  bottom: "conv2/norm2"
  top: "pool2/3x3_s2"
  pooling_param {
    pool: MAX
    kernel_size: 3
    stride: 2
  }
}
layer {
  name: "inception_3a/1x1"
  type: "Convolution"
  bottom: "pool2/3x3_s2"
  top: "inception_3a/1x1"
  param {
    lr_mult: 1
    decay_mult: 1
  }
  param {
    lr_mult: 2
    decay_mult: 0
  }
  convolution_param {
    num_output: 64
    kernel_size: 1
    weight_filler {
      type: "xavier"
      std: 0.03
    }
    bias_filler {
      type: "constant"
      value: 0.2
    }
  }
}
layer {
  name: "inception_3a/relu_1x1"
  type: "ReLU"
  bottom: "inception_3a/1x1"
  top: "inception_3a/1x1"
}
layer {
  name: "inception_3a/3x3_reduce"
  type: "Convolution"
  bottom: "pool2/3x3_s2"
  top: "inception_3a/3x3_reduce"
  param {
    lr_mult: 1
    decay_mult: 1
  }
  param {
    lr_mult: 2
    decay_mult: 0
  }
  convolution_param {
    num_output: 96
    kernel_size: 1
    weight_filler {
      type: "xavier"
      std: 0.09
    }
    bias_filler {
      type: "constant"
      value: 0.2
    }
  }
}
layer {
  name: "inception_3a/relu_3x3_reduce"
  type: "ReLU"
  bottom: "inception_3a/3x3_reduce"
  top: "inception_3a/3x3_reduce"
}
layer {
  name: "inception_3a/3x3"
  type: "Convolution"
  bottom: "inception_3a/3x3_reduce"
  top: "inception_3a/3x3"
  param {
    lr_mult: 1
    decay_mult: 1
  }
  param {
    lr_mult: 2
    decay_mult: 0
  }
  convolution_param {
    num_output: 128
    pad: 1
    kernel_size: 3
    weight_filler {
      type: "xavier"
      std: 0.03
    }
    bias_filler {
      type: "constant"
      value: 0.2
    }
  }
}
layer {
  name: "inception_3a/relu_3x3"
  type: "ReLU"
  bottom: "inception_3a/3x3"
  top: "inception_3a/3x3"
}
layer {
  name: "inception_3a/5x5_reduce"
  type: "Convolution"
  bottom: "pool2/3x3_s2"
  top: "inception_3a/5x5_reduce"
  param {
    lr_mult: 1
    decay_mult: 1
  }
  param {
    lr_mult: 2
    decay_mult: 0
  }
  convolution_param {
    num_output: 16
    kernel_size: 1
    weight_filler {
      type: "xavier"
      std: 0.2
    }
    bias_filler {
      type: "constant"
      value: 0.2
    }
  }
}
layer {
  name: "inception_3a/relu_5x5_reduce"
  type: "ReLU"
  bottom: "inception_3a/5x5_reduce"
  top: "inception_3a/5x5_reduce"
}
layer {
  name: "inception_3a/5x5"
  type: "Convolution"
  bottom: "inception_3a/5x5_reduce"
  top: "inception_3a/5x5"
  param {
    lr_mult: 1
    decay_mult: 1
  }
  param {
    lr_mult: 2
    decay_mult: 0
  }
  convolution_param {
    num_output: 32
    pad: 2
    kernel_size: 5
    weight_filler {
      type: "xavier"
      std: 0.03
    }
    bias_filler {
      type: "constant"
      value: 0.2
    }
  }
}
layer {
  name: "inception_3a/relu_5x5"
  type: "ReLU"
  bottom: "inception_3a/5x5"
  top: "inception_3a/5x5"
}
layer {
  name: "inception_3a/pool"
  type: "Pooling"
  bottom: "pool2/3x3_s2"
  top: "inception_3a/pool"
  pooling_param {
    pool: MAX
    kernel_size: 3
    stride: 1
    pad: 1
  }
}
layer {
  name: "inception_3a/pool_proj"
  type: "Convolution"
  bottom: "inception_3a/pool"
  top: "inception_3a/pool_proj"
  param {
    lr_mult: 1
    decay_mult: 1
  }
  param {
    lr_mult: 2
    decay_mult: 0
  }
  convolution_param {
    num_output: 32
    kernel_size: 1
    weight_filler {
      type: "xavier"
      std: 0.1
    }
    bias_filler {
      type: "constant"
      value: 0.2
    }
  }
}
layer {
  name: "inception_3a/relu_pool_proj"
  type: "ReLU"
  bottom: "inception_3a/pool_proj"
  top: "inception_3a/pool_proj"
}
layer {
  name: "inception_3a/output"
  type: "Concat"
  bottom: "inception_3a/1x1"
  bottom: "inception_3a/3x3"
  bottom: "inception_3a/5x5"
  bottom: "inception_3a/pool_proj"
  top: "inception_3a/output"
}
layer {
  name: "inception_3b/1x1"
  type: "Convolution"
  bottom: "inception_3a/output"
  top: "inception_3b/1x1"
  param {
    lr_mult: 1
    decay_mult: 1
  }
  param {
    lr_mult: 2
    decay_mult: 0
  }
  convolution_param {
    num_output: 128
    kernel_size: 1
    weight_filler {
      type: "xavier"
      std: 0.03
    }
    bias_filler {
      type: "constant"
      value: 0.2
    }
  }
}
layer {
  name: "inception_3b/relu_1x1"
  type: "ReLU"
  bottom: "inception_3b/1x1"
  top: "inception_3b/1x1"
}
layer {
  name: "inception_3b/3x3_reduce"
  type: "Convolution"
  bottom: "inception_3a/output"
  top: "inception_3b/3x3_reduce"
  param {
    lr_mult: 1
    decay_mult: 1
  }
  param {
    lr_mult: 2
    decay_mult: 0
  }
  convolution_param {
    num_output: 128
    kernel_size: 1
    weight_filler {
      type: "xavier"
      std: 0.09
    }
    bias_filler {
      type: "constant"
      value: 0.2
    }
  }
}
layer {
  name: "inception_3b/relu_3x3_reduce"
  type: "ReLU"
  bottom: "inception_3b/3x3_reduce"
  top: "inception_3b/3x3_reduce"
}
layer {
  name: "inception_3b/3x3"
  type: "Convolution"
  bottom: "inception_3b/3x3_reduce"
  top: "inception_3b/3x3"
  param {
    lr_mult: 1
    decay_mult: 1
  }
  param {
    lr_mult: 2
    decay_mult: 0
  }
  convolution_param {
    num_output: 192
    pad: 1
    kernel_size: 3
    weight_filler {
      type: "xavier"
      std: 0.03
    }
    bias_filler {
      type: "constant"
      value: 0.2
    }
  }
}
layer {
  name: "inception_3b/relu_3x3"
  type: "ReLU"
  bottom: "inception_3b/3x3"
  top: "inception_3b/3x3"
}
layer {
  name: "inception_3b/5x5_reduce"
  type: "Convolution"
  bottom: "inception_3a/output"
  top: "inception_3b/5x5_reduce"
  param {
    lr_mult: 1
    decay_mult: 1
  }
  param {
    lr_mult: 2
    decay_mult: 0
  }
  convolution_param {
    num_output: 32
    kernel_size: 1
    weight_filler {
      type: "xavier"
      std: 0.2
    }
    bias_filler {
      type: "constant"
      value: 0.2
    }
  }
}
layer {
  name: "inception_3b/relu_5x5_reduce"
  type: "ReLU"
  bottom: "inception_3b/5x5_reduce"
  top: "inception_3b/5x5_reduce"
}
layer {
  name: "inception_3b/5x5"
  type: "Convolution"
  bottom: "inception_3b/5x5_reduce"
  top: "inception_3b/5x5"
  param {
    lr_mult: 1
    decay_mult: 1
  }
  param {
    lr_mult: 2
    decay_mult: 0
  }
  convolution_param {
    num_output: 96
    pad: 2
    kernel_size: 5
    weight_filler {
      type: "xavier"
      std: 0.03
    }
    bias_filler {
      type: "constant"
      value: 0.2
    }
  }
}
layer {
  name: "inception_3b/relu_5x5"
  type: "ReLU"
  bottom: "inception_3b/5x5"
  top: "inception_3b/5x5"
}
layer {
  name: "inception_3b/pool"
  type: "Pooling"
  bottom: "inception_3a/output"
  top: "inception_3b/pool"
  pooling_param {
    pool: MAX
    kernel_size: 3
    stride: 1
    pad: 1
  }
}
layer {
  name: "inception_3b/pool_proj"
  type: "Convolution"
  bottom: "inception_3b/pool"
  top: "inception_3b/pool_proj"
  param {
    lr_mult: 1
    decay_mult: 1
  }
  param {
    lr_mult: 2
    decay_mult: 0
  }
  convolution_param {
    num_output: 64
    kernel_size: 1
    weight_filler {
      type: "xavier"
      std: 0.1
    }
    bias_filler {
      type: "constant"
      value: 0.2
    }
  }
}
layer {
  name: "inception_3b/relu_pool_proj"
  type: "ReLU"
  bottom: "inception_3b/pool_proj"
  top: "inception_3b/pool_proj"
}
layer {
  name: "inception_3b/output"
  type: "Concat"
  bottom: "inception_3b/1x1"
  bottom: "inception_3b/3x3"
  bottom: "inception_3b/5x5"
  bottom: "inception_3b/pool_proj"
  top: "inception_3b/output"
}
layer {
  name: "pool3/3x3_s2"
  type: "Pooling"
  bottom: "inception_3b/output"
  top: "pool3/3x3_s2"
  pooling_param {
    pool: MAX
    kernel_size: 3
    stride: 2
  }
}
layer {
  name: "inception_4a/1x1"
  type: "Convolution"
  bottom: "pool3/3x3_s2"
  top: "inception_4a/1x1"
  param {
    lr_mult: 1
    decay_mult: 1
  }
  param {
    lr_mult: 2
    decay_mult: 0
  }
  convolution_param {
    num_output: 192
    kernel_size: 1
    weight_filler {
      type: "xavier"
      std: 0.03
    }
    bias_filler {
      type: "constant"
      value: 0.2
    }
  }
}
layer {
  name: "inception_4a/relu_1x1"
  type: "ReLU"
  bottom: "inception_4a/1x1"
  top: "inception_4a/1x1"
}
layer {
  name: "inception_4a/3x3_reduce"
  type: "Convolution"
  bottom: "pool3/3x3_s2"
  top: "inception_4a/3x3_reduce"
  param {
    lr_mult: 1
    decay_mult: 1
  }
  param {
    lr_mult: 2
    decay_mult: 0
  }
  convolution_param {
    num_output: 96
    kernel_size: 1
    weight_filler {
      type: "xavier"
      std: 0.09
    }
    bias_filler {
      type: "constant"
      value: 0.2
    }
  }
}
layer {
  name: "inception_4a/relu_3x3_reduce"
  type: "ReLU"
  bottom: "inception_4a/3x3_reduce"
  top: "inception_4a/3x3_reduce"
}
layer {
  name: "inception_4a/3x3"
  type: "Convolution"
  bottom: "inception_4a/3x3_reduce"
  top: "inception_4a/3x3"
  param {
    lr_mult: 1
    decay_mult: 1
  }
  param {
    lr_mult: 2
    decay_mult: 0
  }
  convolution_param {
    num_output: 208
    pad: 1
    kernel_size: 3
    weight_filler {
      type: "xavier"
      std: 0.03
    }
    bias_filler {
      type: "constant"
      value: 0.2
    }
  }
}
layer {
  name: "inception_4a/relu_3x3"
  type: "ReLU"
  bottom: "inception_4a/3x3"
  top: "inception_4a/3x3"
}
layer {
  name: "inception_4a/5x5_reduce"
  type: "Convolution"
  bottom: "pool3/3x3_s2"
  top: "inception_4a/5x5_reduce"
  param {
    lr_mult: 1
    decay_mult: 1
  }
  param {
    lr_mult: 2
    decay_mult: 0
  }
  convolution_param {
    num_output: 16
    kernel_size: 1
    weight_filler {
      type: "xavier"
      std: 0.2
    }
    bias_filler {
      type: "constant"
      value: 0.2
    }
  }
}
layer {
  name: "inception_4a/relu_5x5_reduce"
  type: "ReLU"
  bottom: "inception_4a/5x5_reduce"
  top: "inception_4a/5x5_reduce"
}
layer {
  name: "inception_4a/5x5"
  type: "Convolution"
  bottom: "inception_4a/5x5_reduce"
  top: "inception_4a/5x5"
  param {
    lr_mult: 1
    decay_mult: 1
  }
  param {
    lr_mult: 2
    decay_mult: 0
  }
  convolution_param {
    num_output: 48
    pad: 2
    kernel_size: 5
    weight_filler {
      type: "xavier"
      std: 0.03
    }
    bias_filler {
      type: "constant"
      value: 0.2
    }
  }
}
layer {
  name: "inception_4a/relu_5x5"
  type: "ReLU"
  bottom: "inception_4a/5x5"
  top: "inception_4a/5x5"
}
layer {
  name: "inception_4a/pool"
  type: "Pooling"
  bottom: "pool3/3x3_s2"
  top: "inception_4a/pool"
  pooling_param {
    pool: MAX
    kernel_size: 3
    stride: 1
    pad: 1
  }
}
layer {
  name: "inception_4a/pool_proj"
  type: "Convolution"
  bottom: "inception_4a/pool"
  top: "inception_4a/pool_proj"
  param {
    lr_mult: 1
    decay_mult: 1
  }
  param {
    lr_mult: 2
    decay_mult: 0
  }
  convolution_param {
    num_output: 64
    kernel_size: 1
    weight_filler {
      type: "xavier"
      std: 0.1
    }
    bias_filler {
      type: "constant"
      value: 0.2
    }
  }
}
layer {
  name: "inception_4a/relu_pool_proj"
  type: "ReLU"
  bottom: "inception_4a/pool_proj"
  top: "inception_4a/pool_proj"
}
layer {
  name: "inception_4a/output"
  type: "Concat"
  bottom: "inception_4a/1x1"
  bottom: "inception_4a/3x3"
  bottom: "inception_4a/5x5"
  bottom: "inception_4a/pool_proj"
  top: "inception_4a/output"
}
layer {
  name: "loss1/ave_pool"
  type: "Pooling"
  bottom: "inception_4a/output"
  top: "loss1/ave_pool"
  pooling_param {
    pool: AVE
    kernel_size: 5
    stride: 3
  }
}
layer {
  name: "loss1/conv"
  type: "Convolution"
  bottom: "loss1/ave_pool"
  top: "loss1/conv"
  param {
    lr_mult: 1
    decay_mult: 1
  }
  param {
    lr_mult: 2
    decay_mult: 0
  }
  convolution_param {
    num_output: 128
    kernel_size: 1
    weight_filler {
      type: "xavier"
      std: 0.08
    }
    bias_filler {
      type: "constant"
      value: 0.2
    }
  }
}
layer {
  name: "loss1/relu_conv"
  type: "ReLU"
  bottom: "loss1/conv"
  top: "loss1/conv"
}
layer {
  name: "loss1/fc"
  type: "InnerProduct"
  bottom: "loss1/conv"
  top: "loss1/fc"
  param {
    lr_mult: 1
    decay_mult: 1
  }
  param {
    lr_mult: 2
    decay_mult: 0
  }
  inner_product_param {
    num_output: 1024
    weight_filler {
      type: "xavier"
      std: 0.02
    }
    bias_filler {
      type: "constant"
      value: 0.2
    }
  }
}
layer {
  name: "loss1/relu_fc"
  type: "ReLU"
  bottom: "loss1/fc"
  top: "loss1/fc"
}
layer {
  name: "loss1/drop_fc"
  type: "Dropout"
  bottom: "loss1/fc"
  top: "loss1/fc"
  dropout_param {
    dropout_ratio: 0.7
  }
}
layer {
  name: "loss1/classifier_plantvillage"
  type: "InnerProduct"
  bottom: "loss1/fc"
  top: "loss1/classifier_plantvillage"
  param {
    lr_mult: 1
    decay_mult: 1
  }
  param {
    lr_mult: 2
    decay_mult: 0
  }
  inner_product_param {
    num_output: 38
    weight_filler {
      type: "xavier"
      std: 0.0009765625
    }
    bias_filler {
      type: "constant"
      value: 0
    }
  }
}
layer {
  name: "inception_4b/1x1"
  type: "Convolution"
  bottom: "inception_4a/output"
  top: "inception_4b/1x1"
  param {
    lr_mult: 1
    decay_mult: 1
  }
  param {
    lr_mult: 2
    decay_mult: 0
  }
  convolution_param {
    num_output: 160
    kernel_size: 1
    weight_filler {
      type: "xavier"
      std: 0.03
    }
    bias_filler {
      type: "constant"
      value: 0.2
    }
  }
}
layer {
  name: "inception_4b/relu_1x1"
  type: "ReLU"
  bottom: "inception_4b/1x1"
  top: "inception_4b/1x1"
}
layer {
  name: "inception_4b/3x3_reduce"
  type: "Convolution"
  bottom: "inception_4a/output"
  top: "inception_4b/3x3_reduce"
  param {
    lr_mult: 1
    decay_mult: 1
  }
  param {
    lr_mult: 2
    decay_mult: 0
  }
  convolution_param {
    num_output: 112
    kernel_size: 1
    weight_filler {
      type: "xavier"
      std: 0.09
    }
    bias_filler {
      type: "constant"
      value: 0.2
    }
  }
}
layer {
  name: "inception_4b/relu_3x3_reduce"
  type: "ReLU"
  bottom: "inception_4b/3x3_reduce"
  top: "inception_4b/3x3_reduce"
}
layer {
  name: "inception_4b/3x3"
  type: "Convolution"
  bottom: "inception_4b/3x3_reduce"
  top: "inception_4b/3x3"
  param {
    lr_mult: 1
    decay_mult: 1
  }
  param {
    lr_mult: 2
    decay_mult: 0
  }
  convolution_param {
    num_output: 224
    pad: 1
    kernel_size: 3
    weight_filler {
      type: "xavier"
      std: 0.03
    }
    bias_filler {
      type: "constant"
      value: 0.2
    }
  }
}
layer {
  name: "inception_4b/relu_3x3"
  type: "ReLU"
  bottom: "inception_4b/3x3"
  top: "inception_4b/3x3"
}
layer {
  name: "inception_4b/5x5_reduce"
  type: "Convolution"
  bottom: "inception_4a/output"
  top: "inception_4b/5x5_reduce"
  param {
    lr_mult: 1
    decay_mult: 1
  }
  param {
    lr_mult: 2
    decay_mult: 0
  }
  convolution_param {
    num_output: 24
    kernel_size: 1
    weight_filler {
      type: "xavier"
      std: 0.2
    }
    bias_filler {
      type: "constant"
      value: 0.2
    }
  }
}
layer {
  name: "inception_4b/relu_5x5_reduce"
  type: "ReLU"
  bottom: "inception_4b/5x5_reduce"
  top: "inception_4b/5x5_reduce"
}
layer {
  name: "inception_4b/5x5"
  type: "Convolution"
  bottom: "inception_4b/5x5_reduce"
  top: "inception_4b/5x5"
  param {
    lr_mult: 1
    decay_mult: 1
  }
  param {
    lr_mult: 2
    decay_mult: 0
  }
  convolution_param {
    num_output: 64
    pad: 2
    kernel_size: 5
    weight_filler {
      type: "xavier"
      std: 0.03
    }
    bias_filler {
      type: "constant"
      value: 0.2
    }
  }
}
layer {
  name: "inception_4b/relu_5x5"
  type: "ReLU"
  bottom: "inception_4b/5x5"
  top: "inception_4b/5x5"
}
layer {
  name: "inception_4b/pool"
  type: "Pooling"
  bottom: "inception_4a/output"
  top: "inception_4b/pool"
  pooling_param {
    pool: MAX
    kernel_size: 3
    stride: 1
    pad: 1
  }
}
layer {
  name: "inception_4b/pool_proj"
  type: "Convolution"
  bottom: "inception_4b/pool"
  top: "inception_4b/pool_proj"
  param {
    lr_mult: 1
    decay_mult: 1
  }
  param {
    lr_mult: 2
    decay_mult: 0
  }
  convolution_param {
    num_output: 64
    kernel_size: 1
    weight_filler {
      type: "xavier"
      std: 0.1
    }
    bias_filler {
      type: "constant"
      value: 0.2
    }
  }
}
layer {
  name: "inception_4b/relu_pool_proj"
  type: "ReLU"
  bottom: "inception_4b/pool_proj"
  top: "inception_4b/pool_proj"
}
layer {
  name: "inception_4b/output"
  type: "Concat"
  bottom: "inception_4b/1x1"
  bottom: "inception_4b/3x3"
  bottom: "inception_4b/5x5"
  bottom: "inception_4b/pool_proj"
  top: "inception_4b/output"
}
layer {
  name: "inception_4c/1x1"
  type: "Convolution"
  bottom: "inception_4b/output"
  top: "inception_4c/1x1"
  param {
    lr_mult: 1
    decay_mult: 1
  }
  param {
    lr_mult: 2
    decay_mult: 0
  }
  convolution_param {
    num_output: 128
    kernel_size: 1
    weight_filler {
      type: "xavier"
      std: 0.03
    }
    bias_filler {
      type: "constant"
      value: 0.2
    }
  }
}
layer {
  name: "inception_4c/relu_1x1"
  type: "ReLU"
  bottom: "inception_4c/1x1"
  top: "inception_4c/1x1"
}
layer {
  name: "inception_4c/3x3_reduce"
  type: "Convolution"
  bottom: "inception_4b/output"
  top: "inception_4c/3x3_reduce"
  param {
    lr_mult: 1
    decay_mult: 1
  }
  param {
    lr_mult: 2
    decay_mult: 0
  }
  convolution_param {
    num_output: 128
    kernel_size: 1
    weight_filler {
      type: "xavier"
      std: 0.09
    }
    bias_filler {
      type: "constant"
      value: 0.2
    }
  }
}
layer {
  name: "inception_4c/relu_3x3_reduce"
  type: "ReLU"
  bottom: "inception_4c/3x3_reduce"
  top: "inception_4c/3x3_reduce"
}
layer {
  name: "inception_4c/3x3"
  type: "Convolution"
  bottom: "inception_4c/3x3_reduce"
  top: "inception_4c/3x3"
  param {
    lr_mult: 1
    decay_mult: 1
  }
  param {
    lr_mult: 2
    decay_mult: 0
  }
  convolution_param {
    num_output: 256
    pad: 1
    kernel_size: 3
    weight_filler {
      type: "xavier"
      std: 0.03
    }
    bias_filler {
      type: "constant"
      value: 0.2
    }
  }
}
layer {
  name: "inception_4c/relu_3x3"
  type: "ReLU"
  bottom: "inception_4c/3x3"
  top: "inception_4c/3x3"
}
layer {
  name: "inception_4c/5x5_reduce"
  type: "Convolution"
  bottom: "inception_4b/output"
  top: "inception_4c/5x5_reduce"
  param {
    lr_mult: 1
    decay_mult: 1
  }
  param {
    lr_mult: 2
    decay_mult: 0
  }
  convolution_param {
    num_output: 24
    kernel_size: 1
    weight_filler {
      type: "xavier"
      std: 0.2
    }
    bias_filler {
      type: "constant"
      value: 0.2
    }
  }
}
layer {
  name: "inception_4c/relu_5x5_reduce"
  type: "ReLU"
  bottom: "inception_4c/5x5_reduce"
  top: "inception_4c/5x5_reduce"
}
layer {
  name: "inception_4c/5x5"
  type: "Convolution"
  bottom: "inception_4c/5x5_reduce"
  top: "inception_4c/5x5"
  param {
    lr_mult: 1
    decay_mult: 1
  }
  param {
    lr_mult: 2
    decay_mult: 0
  }
  convolution_param {
    num_output: 64
    pad: 2
    kernel_size: 5
    weight_filler {
      type: "xavier"
      std: 0.03
    }
    bias_filler {
      type: "constant"
      value: 0.2
    }
  }
}
layer {
  name: "inception_4c/relu_5x5"
  type: "ReLU"
  bottom: "inception_4c/5x5"
  top: "inception_4c/5x5"
}
layer {
  name: "inception_4c/pool"
  type: "Pooling"
  bottom: "inception_4b/output"
  top: "inception_4c/pool"
  pooling_param {
    pool: MAX
    kernel_size: 3
    stride: 1
    pad: 1
  }
}
layer {
  name: "inception_4c/pool_proj"
  type: "Convolution"
  bottom: "inception_4c/pool"
  top: "inception_4c/pool_proj"
  param {
    lr_mult: 1
    decay_mult: 1
  }
  param {
    lr_mult: 2
    decay_mult: 0
  }
  convolution_param {
    num_output: 64
    kernel_size: 1
    weight_filler {
      type: "xavier"
      std: 0.1
    }
    bias_filler {
      type: "constant"
      value: 0.2
    }
  }
}
layer {
  name: "inception_4c/relu_pool_proj"
  type: "ReLU"
  bottom: "inception_4c/pool_proj"
  top: "inception_4c/pool_proj"
}
layer {
  name: "inception_4c/output"
  type: "Concat"
  bottom: "inception_4c/1x1"
  bottom: "inception_4c/3x3"
  bottom: "inception_4c/5x5"
  bottom: "inception_4c/pool_proj"
  top: "inception_4c/output"
}
layer {
  name: "inception_4d/1x1"
  type: "Convolution"
  bottom: "inception_4c/output"
  top: "inception_4d/1x1"
  param {
    lr_mult: 1
    decay_mult: 1
  }
  param {
    lr_mult: 2
    decay_mult: 0
  }
  convolution_param {
    num_output: 112
    kernel_size: 1
    weight_filler {
      type: "xavier"
      std: 0.03
    }
    bias_filler {
      type: "constant"
      value: 0.2
    }
  }
}
layer {
  name: "inception_4d/relu_1x1"
  type: "ReLU"
  bottom: "inception_4d/1x1"
  top: "inception_4d/1x1"
}
layer {
  name: "inception_4d/3x3_reduce"
  type: "Convolution"
  bottom: "inception_4c/output"
  top: "inception_4d/3x3_reduce"
  param {
    lr_mult: 1
    decay_mult: 1
  }
  param {
    lr_mult: 2
    decay_mult: 0
  }
  convolution_param {
    num_output: 144
    kernel_size: 1
    weight_filler {
      type: "xavier"
      std: 0.09
    }
    bias_filler {
      type: "constant"
      value: 0.2
    }
  }
}
layer {
  name: "inception_4d/relu_3x3_reduce"
  type: "ReLU"
  bottom: "inception_4d/3x3_reduce"
  top: "inception_4d/3x3_reduce"
}
layer {
  name: "inception_4d/3x3"
  type: "Convolution"
  bottom: "inception_4d/3x3_reduce"
  top: "inception_4d/3x3"
  param {
    lr_mult: 1
    decay_mult: 1
  }
  param {
    lr_mult: 2
    decay_mult: 0
  }
  convolution_param {
    num_output: 288
    pad: 1
    kernel_size: 3
    weight_filler {
      type: "xavier"
      std: 0.03
    }
    bias_filler {
      type: "constant"
      value: 0.2
    }
  }
}
layer {
  name: "inception_4d/relu_3x3"
  type: "ReLU"
  bottom: "inception_4d/3x3"
  top: "inception_4d/3x3"
}
layer {
  name: "inception_4d/5x5_reduce"
  type: "Convolution"
  bottom: "inception_4c/output"
  top: "inception_4d/5x5_reduce"
  param {
    lr_mult: 1
    decay_mult: 1
  }
  param {
    lr_mult: 2
    decay_mult: 0
  }
  convolution_param {
    num_output: 32
    kernel_size: 1
    weight_filler {
      type: "xavier"
      std: 0.2
    }
    bias_filler {
      type: "constant"
      value: 0.2
    }
  }
}
layer {
  name: "inception_4d/relu_5x5_reduce"
  type: "ReLU"
  bottom: "inception_4d/5x5_reduce"
  top: "inception_4d/5x5_reduce"
}
layer {
  name: "inception_4d/5x5"
  type: "Convolution"
  bottom: "inception_4d/5x5_reduce"
  top: "inception_4d/5x5"
  param {
    lr_mult: 1
    decay_mult: 1
  }
  param {
    lr_mult: 2
    decay_mult: 0
  }
  convolution_param {
    num_output: 64
    pad: 2
    kernel_size: 5
    weight_filler {
      type: "xavier"
      std: 0.03
    }
    bias_filler {
      type: "constant"
      value: 0.2
    }
  }
}
layer {
  name: "inception_4d/relu_5x5"
  type: "ReLU"
  bottom: "inception_4d/5x5"
  top: "inception_4d/5x5"
}
layer {
  name: "inception_4d/pool"
  type: "Pooling"
  bottom: "inception_4c/output"
  top: "inception_4d/pool"
  pooling_param {
    pool: MAX
    kernel_size: 3
    stride: 1
    pad: 1
  }
}
layer {
  name: "inception_4d/pool_proj"
  type: "Convolution"
  bottom: "inception_4d/pool"
  top: "inception_4d/pool_proj"
  param {
    lr_mult: 1
    decay_mult: 1
  }
  param {
    lr_mult: 2
    decay_mult: 0
  }
  convolution_param {
    num_output: 64
    kernel_size: 1
    weight_filler {
      type: "xavier"
      std: 0.1
    }
    bias_filler {
      type: "constant"
      value: 0.2
    }
  }
}
layer {
  name: "inception_4d/relu_pool_proj"
  type: "ReLU"
  bottom: "inception_4d/pool_proj"
  top: "inception_4d/pool_proj"
}
layer {
  name: "inception_4d/output"
  type: "Concat"
  bottom: "inception_4d/1x1"
  bottom: "inception_4d/3x3"
  bottom: "inception_4d/5x5"
  bottom: "inception_4d/pool_proj"
  top: "inception_4d/output"
}
layer {
  name: "loss2/ave_pool"
  type: "Pooling"
  bottom: "inception_4d/output"
  top: "loss2/ave_pool"
  pooling_param {
    pool: AVE
    kernel_size: 5
    stride: 3
  }
}
layer {
  name: "loss2/conv"
  type: "Convolution"
  bottom: "loss2/ave_pool"
  top: "loss2/conv"
  param {
    lr_mult: 1
    decay_mult: 1
  }
  param {
    lr_mult: 2
    decay_mult: 0
  }
  convolution_param {
    num_output: 128
    kernel_size: 1
    weight_filler {
      type: "xavier"
      std: 0.08
    }
    bias_filler {
      type: "constant"
      value: 0.2
    }
  }
}
layer {
  name: "loss2/relu_conv"
  type: "ReLU"
  bottom: "loss2/conv"
  top: "loss2/conv"
}
layer {
  name: "loss2/fc"
  type: "InnerProduct"
  bottom: "loss2/conv"
  top: "loss2/fc"
  param {
    lr_mult: 1
    decay_mult: 1
  }
  param {
    lr_mult: 2
    decay_mult: 0
  }
  inner_product_param {
    num_output: 1024
    weight_filler {
      type: "xavier"
      std: 0.02
    }
    bias_filler {
      type: "constant"
      value: 0.2
    }
  }
}
layer {
  name: "loss2/relu_fc"
  type: "ReLU"
  bottom: "loss2/fc"
  top: "loss2/fc"
}
layer {
  name: "loss2/drop_fc"
  type: "Dropout"
  bottom: "loss2/fc"
  top: "loss2/fc"
  dropout_param {
    dropout_ratio: 0.7
  }
}
layer {
  name: "loss2/classifier_plantvillage"
  type: "InnerProduct"
  bottom: "loss2/fc"
  top: "loss2/classifier_plantvillage"
  param {
    lr_mult: 1
    decay_mult: 1
  }
  param {
    lr_mult: 2
    decay_mult: 0
  }
  inner_product_param {
    num_output: 38
    weight_filler {
      type: "xavier"
      std: 0.0009765625
    }
    bias_filler {
      type: "constant"
      value: 0
    }
  }
}
layer {
  name: "inception_4e/1x1"
  type: "Convolution"
  bottom: "inception_4d/output"
  top: "inception_4e/1x1"
  param {
    lr_mult: 1
    decay_mult: 1
  }
  param {
    lr_mult: 2
    decay_mult: 0
  }
  convolution_param {
    num_output: 256
    kernel_size: 1
    weight_filler {
      type: "xavier"
      std: 0.03
    }
    bias_filler {
      type: "constant"
      value: 0.2
    }
  }
}
layer {
  name: "inception_4e/relu_1x1"
  type: "ReLU"
  bottom: "inception_4e/1x1"
  top: "inception_4e/1x1"
}
layer {
  name: "inception_4e/3x3_reduce"
  type: "Convolution"
  bottom: "inception_4d/output"
  top: "inception_4e/3x3_reduce"
  param {
    lr_mult: 1
    decay_mult: 1
  }
  param {
    lr_mult: 2
    decay_mult: 0
  }
  convolution_param {
    num_output: 160
    kernel_size: 1
    weight_filler {
      type: "xavier"
      std: 0.09
    }
    bias_filler {
      type: "constant"
      value: 0.2
    }
  }
}
layer {
  name: "inception_4e/relu_3x3_reduce"
  type: "ReLU"
  bottom: "inception_4e/3x3_reduce"
  top: "inception_4e/3x3_reduce"
}
layer {
  name: "inception_4e/3x3"
  type: "Convolution"
  bottom: "inception_4e/3x3_reduce"
  top: "inception_4e/3x3"
  param {
    lr_mult: 1
    decay_mult: 1
  }
  param {
    lr_mult: 2
    decay_mult: 0
  }
  convolution_param {
    num_output: 320
    pad: 1
    kernel_size: 3
    weight_filler {
      type: "xavier"
      std: 0.03
    }
    bias_filler {
      type: "constant"
      value: 0.2
    }
  }
}
layer {
  name: "inception_4e/relu_3x3"
  type: "ReLU"
  bottom: "inception_4e/3x3"
  top: "inception_4e/3x3"
}
layer {
  name: "inception_4e/5x5_reduce"
  type: "Convolution"
  bottom: "inception_4d/output"
  top: "inception_4e/5x5_reduce"
  param {
    lr_mult: 1
    decay_mult: 1
  }
  param {
    lr_mult: 2
    decay_mult: 0
  }
  convolution_param {
    num_output: 32
    kernel_size: 1
    weight_filler {
      type: "xavier"
      std: 0.2
    }
    bias_filler {
      type: "constant"
      value: 0.2
    }
  }
}
layer {
  name: "inception_4e/relu_5x5_reduce"
  type: "ReLU"
  bottom: "inception_4e/5x5_reduce"
  top: "inception_4e/5x5_reduce"
}
layer {
  name: "inception_4e/5x5"
  type: "Convolution"
  bottom: "inception_4e/5x5_reduce"
  top: "inception_4e/
I0403 15:07:56.603436 18299 layer_factory.hpp:77] Creating layer data
I0403 15:07:56.604063 18299 net.cpp:91] Creating Layer data
I0403 15:07:56.604094 18299 net.cpp:399] data -> data
I0403 15:07:56.604143 18299 net.cpp:399] data -> label
I0403 15:07:56.604179 18299 data_transformer.cpp:25] Loading mean file from: /home/mohanty/data/final_dataset/lmdb/grayscale-40-60/mean.binaryproto
I0403 15:07:56.606971 18303 db_lmdb.cpp:38] Opened lmdb /home/mohanty/data/final_dataset/lmdb/grayscale-40-60/test_db
I0403 15:07:56.617586 18299 data_layer.cpp:41] output data size: 24,3,224,224
I0403 15:07:56.647732 18299 net.cpp:141] Setting up data
I0403 15:07:56.647838 18299 net.cpp:148] Top shape: 24 3 224 224 (3612672)
I0403 15:07:56.647861 18299 net.cpp:148] Top shape: 24 (24)
I0403 15:07:56.647876 18299 net.cpp:156] Memory required for data: 14450784
I0403 15:07:56.647907 18299 layer_factory.hpp:77] Creating layer label_data_1_split
I0403 15:07:56.647934 18299 net.cpp:91] Creating Layer label_data_1_split
I0403 15:07:56.647951 18299 net.cpp:425] label_data_1_split <- label
I0403 15:07:56.647990 18299 net.cpp:399] label_data_1_split -> label_data_1_split_0
I0403 15:07:56.648020 18299 net.cpp:399] label_data_1_split -> label_data_1_split_1
I0403 15:07:56.648042 18299 net.cpp:399] label_data_1_split -> label_data_1_split_2
I0403 15:07:56.648063 18299 net.cpp:399] label_data_1_split -> label_data_1_split_3
I0403 15:07:56.648083 18299 net.cpp:399] label_data_1_split -> label_data_1_split_4
I0403 15:07:56.648103 18299 net.cpp:399] label_data_1_split -> label_data_1_split_5
I0403 15:07:56.648123 18299 net.cpp:399] label_data_1_split -> label_data_1_split_6
I0403 15:07:56.648144 18299 net.cpp:399] label_data_1_split -> label_data_1_split_7
I0403 15:07:56.648164 18299 net.cpp:399] label_data_1_split -> label_data_1_split_8
I0403 15:07:56.648185 18299 net.cpp:399] label_data_1_split -> label_data_1_split_9
I0403 15:07:56.648304 18299 net.cpp:141] Setting up label_data_1_split
I0403 15:07:56.648329 18299 net.cpp:148] Top shape: 24 (24)
I0403 15:07:56.648347 18299 net.cpp:148] Top shape: 24 (24)
I0403 15:07:56.648365 18299 net.cpp:148] Top shape: 24 (24)
I0403 15:07:56.648380 18299 net.cpp:148] Top shape: 24 (24)
I0403 15:07:56.648396 18299 net.cpp:148] Top shape: 24 (24)
I0403 15:07:56.648412 18299 net.cpp:148] Top shape: 24 (24)
I0403 15:07:56.648428 18299 net.cpp:148] Top shape: 24 (24)
I0403 15:07:56.648444 18299 net.cpp:148] Top shape: 24 (24)
I0403 15:07:56.648460 18299 net.cpp:148] Top shape: 24 (24)
I0403 15:07:56.648476 18299 net.cpp:148] Top shape: 24 (24)
I0403 15:07:56.648524 18299 net.cpp:156] Memory required for data: 14451744
I0403 15:07:56.648541 18299 layer_factory.hpp:77] Creating layer conv1/7x7_s2
I0403 15:07:56.648574 18299 net.cpp:91] Creating Layer conv1/7x7_s2
I0403 15:07:56.648593 18299 net.cpp:425] conv1/7x7_s2 <- data
I0403 15:07:56.648613 18299 net.cpp:399] conv1/7x7_s2 -> conv1/7x7_s2
I0403 15:07:56.796452 18299 net.cpp:141] Setting up conv1/7x7_s2
I0403 15:07:56.796541 18299 net.cpp:148] Top shape: 24 64 112 112 (19267584)
I0403 15:07:56.796558 18299 net.cpp:156] Memory required for data: 91522080
I0403 15:07:56.796587 18299 layer_factory.hpp:77] Creating layer conv1/relu_7x7
I0403 15:07:56.796615 18299 net.cpp:91] Creating Layer conv1/relu_7x7
I0403 15:07:56.796633 18299 net.cpp:425] conv1/relu_7x7 <- conv1/7x7_s2
I0403 15:07:56.796653 18299 net.cpp:386] conv1/relu_7x7 -> conv1/7x7_s2 (in-place)
I0403 15:07:56.796905 18299 net.cpp:141] Setting up conv1/relu_7x7
I0403 15:07:56.796931 18299 net.cpp:148] Top shape: 24 64 112 112 (19267584)
I0403 15:07:56.796947 18299 net.cpp:156] Memory required for data: 168592416
I0403 15:07:56.796962 18299 layer_factory.hpp:77] Creating layer pool1/3x3_s2
I0403 15:07:56.796989 18299 net.cpp:91] Creating Layer pool1/3x3_s2
I0403 15:07:56.797008 18299 net.cpp:425] pool1/3x3_s2 <- conv1/7x7_s2
I0403 15:07:56.797027 18299 net.cpp:399] pool1/3x3_s2 -> pool1/3x3_s2
I0403 15:07:56.797098 18299 net.cpp:141] Setting up pool1/3x3_s2
I0403 15:07:56.797122 18299 net.cpp:148] Top shape: 24 64 56 56 (4816896)
I0403 15:07:56.797137 18299 net.cpp:156] Memory required for data: 187860000
I0403 15:07:56.797152 18299 layer_factory.hpp:77] Creating layer pool1/norm1
I0403 15:07:56.797175 18299 net.cpp:91] Creating Layer pool1/norm1
I0403 15:07:56.797193 18299 net.cpp:425] pool1/norm1 <- pool1/3x3_s2
I0403 15:07:56.797210 18299 net.cpp:399] pool1/norm1 -> pool1/norm1
I0403 15:07:56.797498 18299 net.cpp:141] Setting up pool1/norm1
I0403 15:07:56.797582 18299 net.cpp:148] Top shape: 24 64 56 56 (4816896)
I0403 15:07:56.797603 18299 net.cpp:156] Memory required for data: 207127584
I0403 15:07:56.797631 18299 layer_factory.hpp:77] Creating layer conv2/3x3_reduce
I0403 15:07:56.797655 18299 net.cpp:91] Creating Layer conv2/3x3_reduce
I0403 15:07:56.797672 18299 net.cpp:425] conv2/3x3_reduce <- pool1/norm1
I0403 15:07:56.797691 18299 net.cpp:399] conv2/3x3_reduce -> conv2/3x3_reduce
I0403 15:07:56.799038 18299 net.cpp:141] Setting up conv2/3x3_reduce
I0403 15:07:56.799070 18299 net.cpp:148] Top shape: 24 64 56 56 (4816896)
I0403 15:07:56.799088 18299 net.cpp:156] Memory required for data: 226395168
I0403 15:07:56.799108 18299 layer_factory.hpp:77] Creating layer conv2/relu_3x3_reduce
I0403 15:07:56.799126 18299 net.cpp:91] Creating Layer conv2/relu_3x3_reduce
I0403 15:07:56.799142 18299 net.cpp:425] conv2/relu_3x3_reduce <- conv2/3x3_reduce
I0403 15:07:56.799162 18299 net.cpp:386] conv2/relu_3x3_reduce -> conv2/3x3_reduce (in-place)
I0403 15:07:56.799471 18299 net.cpp:141] Setting up conv2/relu_3x3_reduce
I0403 15:07:56.799512 18299 net.cpp:148] Top shape: 24 64 56 56 (4816896)
I0403 15:07:56.799528 18299 net.cpp:156] Memory required for data: 245662752
I0403 15:07:56.799546 18299 layer_factory.hpp:77] Creating layer conv2/3x3
I0403 15:07:56.799573 18299 net.cpp:91] Creating Layer conv2/3x3
I0403 15:07:56.799592 18299 net.cpp:425] conv2/3x3 <- conv2/3x3_reduce
I0403 15:07:56.799612 18299 net.cpp:399] conv2/3x3 -> conv2/3x3
I0403 15:07:56.801991 18299 net.cpp:141] Setting up conv2/3x3
I0403 15:07:56.802024 18299 net.cpp:148] Top shape: 24 192 56 56 (14450688)
I0403 15:07:56.802042 18299 net.cpp:156] Memory required for data: 303465504
I0403 15:07:56.802062 18299 layer_factory.hpp:77] Creating layer conv2/relu_3x3
I0403 15:07:56.802081 18299 net.cpp:91] Creating Layer conv2/relu_3x3
I0403 15:07:56.802096 18299 net.cpp:425] conv2/relu_3x3 <- conv2/3x3
I0403 15:07:56.802115 18299 net.cpp:386] conv2/relu_3x3 -> conv2/3x3 (in-place)
I0403 15:07:56.802294 18299 net.cpp:141] Setting up conv2/relu_3x3
I0403 15:07:56.802320 18299 net.cpp:148] Top shape: 24 192 56 56 (14450688)
I0403 15:07:56.802363 18299 net.cpp:156] Memory required for data: 361268256
I0403 15:07:56.802379 18299 layer_factory.hpp:77] Creating layer conv2/norm2
I0403 15:07:56.802400 18299 net.cpp:91] Creating Layer conv2/norm2
I0403 15:07:56.802417 18299 net.cpp:425] conv2/norm2 <- conv2/3x3
I0403 15:07:56.802433 18299 net.cpp:399] conv2/norm2 -> conv2/norm2
I0403 15:07:56.802747 18299 net.cpp:141] Setting up conv2/norm2
I0403 15:07:56.802773 18299 net.cpp:148] Top shape: 24 192 56 56 (14450688)
I0403 15:07:56.802788 18299 net.cpp:156] Memory required for data: 419071008
I0403 15:07:56.802803 18299 layer_factory.hpp:77] Creating layer pool2/3x3_s2
I0403 15:07:56.802822 18299 net.cpp:91] Creating Layer pool2/3x3_s2
I0403 15:07:56.802839 18299 net.cpp:425] pool2/3x3_s2 <- conv2/norm2
I0403 15:07:56.802856 18299 net.cpp:399] pool2/3x3_s2 -> pool2/3x3_s2
I0403 15:07:56.802908 18299 net.cpp:141] Setting up pool2/3x3_s2
I0403 15:07:56.802932 18299 net.cpp:148] Top shape: 24 192 28 28 (3612672)
I0403 15:07:56.802945 18299 net.cpp:156] Memory required for data: 433521696
I0403 15:07:56.802959 18299 layer_factory.hpp:77] Creating layer pool2/3x3_s2_pool2/3x3_s2_0_split
I0403 15:07:56.802978 18299 net.cpp:91] Creating Layer pool2/3x3_s2_pool2/3x3_s2_0_split
I0403 15:07:56.803000 18299 net.cpp:425] pool2/3x3_s2_pool2/3x3_s2_0_split <- pool2/3x3_s2
I0403 15:07:56.803019 18299 net.cpp:399] pool2/3x3_s2_pool2/3x3_s2_0_split -> pool2/3x3_s2_pool2/3x3_s2_0_split_0
I0403 15:07:56.803037 18299 net.cpp:399] pool2/3x3_s2_pool2/3x3_s2_0_split -> pool2/3x3_s2_pool2/3x3_s2_0_split_1
I0403 15:07:56.803071 18299 net.cpp:399] pool2/3x3_s2_pool2/3x3_s2_0_split -> pool2/3x3_s2_pool2/3x3_s2_0_split_2
I0403 15:07:56.803092 18299 net.cpp:399] pool2/3x3_s2_pool2/3x3_s2_0_split -> pool2/3x3_s2_pool2/3x3_s2_0_split_3
I0403 15:07:56.803164 18299 net.cpp:141] Setting up pool2/3x3_s2_pool2/3x3_s2_0_split
I0403 15:07:56.803189 18299 net.cpp:148] Top shape: 24 192 28 28 (3612672)
I0403 15:07:56.803205 18299 net.cpp:148] Top shape: 24 192 28 28 (3612672)
I0403 15:07:56.803220 18299 net.cpp:148] Top shape: 24 192 28 28 (3612672)
I0403 15:07:56.803236 18299 net.cpp:148] Top shape: 24 192 28 28 (3612672)
I0403 15:07:56.803251 18299 net.cpp:156] Memory required for data: 491324448
I0403 15:07:56.803264 18299 layer_factory.hpp:77] Creating layer inception_3a/1x1
I0403 15:07:56.803287 18299 net.cpp:91] Creating Layer inception_3a/1x1
I0403 15:07:56.803305 18299 net.cpp:425] inception_3a/1x1 <- pool2/3x3_s2_pool2/3x3_s2_0_split_0
I0403 15:07:56.803326 18299 net.cpp:399] inception_3a/1x1 -> inception_3a/1x1
I0403 15:07:56.804863 18299 net.cpp:141] Setting up inception_3a/1x1
I0403 15:07:56.804895 18299 net.cpp:148] Top shape: 24 64 28 28 (1204224)
I0403 15:07:56.804913 18299 net.cpp:156] Memory required for data: 496141344
I0403 15:07:56.804932 18299 layer_factory.hpp:77] Creating layer inception_3a/relu_1x1
I0403 15:07:56.804951 18299 net.cpp:91] Creating Layer inception_3a/relu_1x1
I0403 15:07:56.804970 18299 net.cpp:425] inception_3a/relu_1x1 <- inception_3a/1x1
I0403 15:07:56.804992 18299 net.cpp:386] inception_3a/relu_1x1 -> inception_3a/1x1 (in-place)
I0403 15:07:56.805181 18299 net.cpp:141] Setting up inception_3a/relu_1x1
I0403 15:07:56.805205 18299 net.cpp:148] Top shape: 24 64 28 28 (1204224)
I0403 15:07:56.805220 18299 net.cpp:156] Memory required for data: 500958240
I0403 15:07:56.805235 18299 layer_factory.hpp:77] Creating layer inception_3a/3x3_reduce
I0403 15:07:56.805258 18299 net.cpp:91] Creating Layer inception_3a/3x3_reduce
I0403 15:07:56.805274 18299 net.cpp:425] inception_3a/3x3_reduce <- pool2/3x3_s2_pool2/3x3_s2_0_split_1
I0403 15:07:56.805297 18299 net.cpp:399] inception_3a/3x3_reduce -> inception_3a/3x3_reduce
I0403 15:07:56.806959 18299 net.cpp:141] Setting up inception_3a/3x3_reduce
I0403 15:07:56.806996 18299 net.cpp:148] Top shape: 24 96 28 28 (1806336)
I0403 15:07:56.807014 18299 net.cpp:156] Memory required for data: 508183584
I0403 15:07:56.807035 18299 layer_factory.hpp:77] Creating layer inception_3a/relu_3x3_reduce
I0403 15:07:56.807072 18299 net.cpp:91] Creating Layer inception_3a/relu_3x3_reduce
I0403 15:07:56.807091 18299 net.cpp:425] inception_3a/relu_3x3_reduce <- inception_3a/3x3_reduce
I0403 15:07:56.807108 18299 net.cpp:386] inception_3a/relu_3x3_reduce -> inception_3a/3x3_reduce (in-place)
I0403 15:07:56.807287 18299 net.cpp:141] Setting up inception_3a/relu_3x3_reduce
I0403 15:07:56.807312 18299 net.cpp:148] Top shape: 24 96 28 28 (1806336)
I0403 15:07:56.807327 18299 net.cpp:156] Memory required for data: 515408928
I0403 15:07:56.807342 18299 layer_factory.hpp:77] Creating layer inception_3a/3x3
I0403 15:07:56.807365 18299 net.cpp:91] Creating Layer inception_3a/3x3
I0403 15:07:56.807381 18299 net.cpp:425] inception_3a/3x3 <- inception_3a/3x3_reduce
I0403 15:07:56.807400 18299 net.cpp:399] inception_3a/3x3 -> inception_3a/3x3
I0403 15:07:56.809036 18299 net.cpp:141] Setting up inception_3a/3x3
I0403 15:07:56.809062 18299 net.cpp:148] Top shape: 24 128 28 28 (2408448)
I0403 15:07:56.809078 18299 net.cpp:156] Memory required for data: 525042720
I0403 15:07:56.809097 18299 layer_factory.hpp:77] Creating layer inception_3a/relu_3x3
I0403 15:07:56.809114 18299 net.cpp:91] Creating Layer inception_3a/relu_3x3
I0403 15:07:56.809129 18299 net.cpp:425] inception_3a/relu_3x3 <- inception_3a/3x3
I0403 15:07:56.809149 18299 net.cpp:386] inception_3a/relu_3x3 -> inception_3a/3x3 (in-place)
I0403 15:07:56.809423 18299 net.cpp:141] Setting up inception_3a/relu_3x3
I0403 15:07:56.809449 18299 net.cpp:148] Top shape: 24 128 28 28 (2408448)
I0403 15:07:56.809464 18299 net.cpp:156] Memory required for data: 534676512
I0403 15:07:56.809479 18299 layer_factory.hpp:77] Creating layer inception_3a/5x5_reduce
I0403 15:07:56.809502 18299 net.cpp:91] Creating Layer inception_3a/5x5_reduce
I0403 15:07:56.809520 18299 net.cpp:425] inception_3a/5x5_reduce <- pool2/3x3_s2_pool2/3x3_s2_0_split_2
I0403 15:07:56.809540 18299 net.cpp:399] inception_3a/5x5_reduce -> inception_3a/5x5_reduce
I0403 15:07:56.810489 18299 net.cpp:141] Setting up inception_3a/5x5_reduce
I0403 15:07:56.810516 18299 net.cpp:148] Top shape: 24 16 28 28 (301056)
I0403 15:07:56.810533 18299 net.cpp:156] Memory required for data: 535880736
I0403 15:07:56.810550 18299 layer_factory.hpp:77] Creating layer inception_3a/relu_5x5_reduce
I0403 15:07:56.810567 18299 net.cpp:91] Creating Layer inception_3a/relu_5x5_reduce
I0403 15:07:56.810583 18299 net.cpp:425] inception_3a/relu_5x5_reduce <- inception_3a/5x5_reduce
I0403 15:07:56.810602 18299 net.cpp:386] inception_3a/relu_5x5_reduce -> inception_3a/5x5_reduce (in-place)
I0403 15:07:56.810917 18299 net.cpp:141] Setting up inception_3a/relu_5x5_reduce
I0403 15:07:56.810945 18299 net.cpp:148] Top shape: 24 16 28 28 (301056)
I0403 15:07:56.810959 18299 net.cpp:156] Memory required for data: 537084960
I0403 15:07:56.810974 18299 layer_factory.hpp:77] Creating layer inception_3a/5x5
I0403 15:07:56.811002 18299 net.cpp:91] Creating Layer inception_3a/5x5
I0403 15:07:56.811022 18299 net.cpp:425] inception_3a/5x5 <- inception_3a/5x5_reduce
I0403 15:07:56.811043 18299 net.cpp:399] inception_3a/5x5 -> inception_3a/5x5
I0403 15:07:56.812075 18299 net.cpp:141] Setting up inception_3a/5x5
I0403 15:07:56.812108 18299 net.cpp:148] Top shape: 24 32 28 28 (602112)
I0403 15:07:56.812124 18299 net.cpp:156] Memory required for data: 539493408
I0403 15:07:56.812142 18299 layer_factory.hpp:77] Creating layer inception_3a/relu_5x5
I0403 15:07:56.812161 18299 net.cpp:91] Creating Layer inception_3a/relu_5x5
I0403 15:07:56.812177 18299 net.cpp:425] inception_3a/relu_5x5 <- inception_3a/5x5
I0403 15:07:56.812197 18299 net.cpp:386] inception_3a/relu_5x5 -> inception_3a/5x5 (in-place)
I0403 15:07:56.812377 18299 net.cpp:141] Setting up inception_3a/relu_5x5
I0403 15:07:56.812402 18299 net.cpp:148] Top shape: 24 32 28 28 (602112)
I0403 15:07:56.812417 18299 net.cpp:156] Memory required for data: 541901856
I0403 15:07:56.812433 18299 layer_factory.hpp:77] Creating layer inception_3a/pool
I0403 15:07:56.812450 18299 net.cpp:91] Creating Layer inception_3a/pool
I0403 15:07:56.812487 18299 net.cpp:425] inception_3a/pool <- pool2/3x3_s2_pool2/3x3_s2_0_split_3
I0403 15:07:56.812508 18299 net.cpp:399] inception_3a/pool -> inception_3a/pool
I0403 15:07:56.812566 18299 net.cpp:141] Setting up inception_3a/pool
I0403 15:07:56.812590 18299 net.cpp:148] Top shape: 24 192 28 28 (3612672)
I0403 15:07:56.812604 18299 net.cpp:156] Memory required for data: 556352544
I0403 15:07:56.812619 18299 layer_factory.hpp:77] Creating layer inception_3a/pool_proj
I0403 15:07:56.812641 18299 net.cpp:91] Creating Layer inception_3a/pool_proj
I0403 15:07:56.812659 18299 net.cpp:425] inception_3a/pool_proj <- inception_3a/pool
I0403 15:07:56.812681 18299 net.cpp:399] inception_3a/pool_proj -> inception_3a/pool_proj
I0403 15:07:56.813662 18299 net.cpp:141] Setting up inception_3a/pool_proj
I0403 15:07:56.813690 18299 net.cpp:148] Top shape: 24 32 28 28 (602112)
I0403 15:07:56.813706 18299 net.cpp:156] Memory required for data: 558760992
I0403 15:07:56.813731 18299 layer_factory.hpp:77] Creating layer inception_3a/relu_pool_proj
I0403 15:07:56.813751 18299 net.cpp:91] Creating Layer inception_3a/relu_pool_proj
I0403 15:07:56.813767 18299 net.cpp:425] inception_3a/relu_pool_proj <- inception_3a/pool_proj
I0403 15:07:56.813787 18299 net.cpp:386] inception_3a/relu_pool_proj -> inception_3a/pool_proj (in-place)
I0403 15:07:56.814069 18299 net.cpp:141] Setting up inception_3a/relu_pool_proj
I0403 15:07:56.814095 18299 net.cpp:148] Top shape: 24 32 28 28 (602112)
I0403 15:07:56.814111 18299 net.cpp:156] Memory required for data: 561169440
I0403 15:07:56.814126 18299 layer_factory.hpp:77] Creating layer inception_3a/output
I0403 15:07:56.814143 18299 net.cpp:91] Creating Layer inception_3a/output
I0403 15:07:56.814159 18299 net.cpp:425] inception_3a/output <- inception_3a/1x1
I0403 15:07:56.814177 18299 net.cpp:425] inception_3a/output <- inception_3a/3x3
I0403 15:07:56.814193 18299 net.cpp:425] inception_3a/output <- inception_3a/5x5
I0403 15:07:56.814209 18299 net.cpp:425] inception_3a/output <- inception_3a/pool_proj
I0403 15:07:56.814229 18299 net.cpp:399] inception_3a/output -> inception_3a/output
I0403 15:07:56.814277 18299 net.cpp:141] Setting up inception_3a/output
I0403 15:07:56.814303 18299 net.cpp:148] Top shape: 24 256 28 28 (4816896)
I0403 15:07:56.814319 18299 net.cpp:156] Memory required for data: 580437024
I0403 15:07:56.814334 18299 layer_factory.hpp:77] Creating layer inception_3a/output_inception_3a/output_0_split
I0403 15:07:56.814350 18299 net.cpp:91] Creating Layer inception_3a/output_inception_3a/output_0_split
I0403 15:07:56.814365 18299 net.cpp:425] inception_3a/output_inception_3a/output_0_split <- inception_3a/output
I0403 15:07:56.814383 18299 net.cpp:399] inception_3a/output_inception_3a/output_0_split -> inception_3a/output_inception_3a/output_0_split_0
I0403 15:07:56.814404 18299 net.cpp:399] inception_3a/output_inception_3a/output_0_split -> inception_3a/output_inception_3a/output_0_split_1
I0403 15:07:56.814429 18299 net.cpp:399] inception_3a/output_inception_3a/output_0_split -> inception_3a/output_inception_3a/output_0_split_2
I0403 15:07:56.814450 18299 net.cpp:399] inception_3a/output_inception_3a/output_0_split -> inception_3a/output_inception_3a/output_0_split_3
I0403 15:07:56.814525 18299 net.cpp:141] Setting up inception_3a/output_inception_3a/output_0_split
I0403 15:07:56.814549 18299 net.cpp:148] Top shape: 24 256 28 28 (4816896)
I0403 15:07:56.814568 18299 net.cpp:148] Top shape: 24 256 28 28 (4816896)
I0403 15:07:56.814584 18299 net.cpp:148] Top shape: 24 256 28 28 (4816896)
I0403 15:07:56.814599 18299 net.cpp:148] Top shape: 24 256 28 28 (4816896)
I0403 15:07:56.814613 18299 net.cpp:156] Memory required for data: 657507360
I0403 15:07:56.814628 18299 layer_factory.hpp:77] Creating layer inception_3b/1x1
I0403 15:07:56.814651 18299 net.cpp:91] Creating Layer inception_3b/1x1
I0403 15:07:56.814669 18299 net.cpp:425] inception_3b/1x1 <- inception_3a/output_inception_3a/output_0_split_0
I0403 15:07:56.814687 18299 net.cpp:399] inception_3b/1x1 -> inception_3b/1x1
I0403 15:07:56.815834 18299 net.cpp:141] Setting up inception_3b/1x1
I0403 15:07:56.815874 18299 net.cpp:148] Top shape: 24 128 28 28 (2408448)
I0403 15:07:56.815891 18299 net.cpp:156] Memory required for data: 667141152
I0403 15:07:56.815910 18299 layer_factory.hpp:77] Creating layer inception_3b/relu_1x1
I0403 15:07:56.815933 18299 net.cpp:91] Creating Layer inception_3b/relu_1x1
I0403 15:07:56.815950 18299 net.cpp:425] inception_3b/relu_1x1 <- inception_3b/1x1
I0403 15:07:56.815968 18299 net.cpp:386] inception_3b/relu_1x1 -> inception_3b/1x1 (in-place)
I0403 15:07:56.816179 18299 net.cpp:141] Setting up inception_3b/relu_1x1
I0403 15:07:56.816205 18299 net.cpp:148] Top shape: 24 128 28 28 (2408448)
I0403 15:07:56.816221 18299 net.cpp:156] Memory required for data: 676774944
I0403 15:07:56.816237 18299 layer_factory.hpp:77] Creating layer inception_3b/3x3_reduce
I0403 15:07:56.816261 18299 net.cpp:91] Creating Layer inception_3b/3x3_reduce
I0403 15:07:56.816279 18299 net.cpp:425] inception_3b/3x3_reduce <- inception_3a/output_inception_3a/output_0_split_1
I0403 15:07:56.816301 18299 net.cpp:399] inception_3b/3x3_reduce -> inception_3b/3x3_reduce
I0403 15:07:56.817492 18299 net.cpp:141] Setting up inception_3b/3x3_reduce
I0403 15:07:56.817524 18299 net.cpp:148] Top shape: 24 128 28 28 (2408448)
I0403 15:07:56.817543 18299 net.cpp:156] Memory required for data: 686408736
I0403 15:07:56.817561 18299 layer_factory.hpp:77] Creating layer inception_3b/relu_3x3_reduce
I0403 15:07:56.817580 18299 net.cpp:91] Creating Layer inception_3b/relu_3x3_reduce
I0403 15:07:56.817597 18299 net.cpp:425] inception_3b/relu_3x3_reduce <- inception_3b/3x3_reduce
I0403 15:07:56.817615 18299 net.cpp:386] inception_3b/relu_3x3_reduce -> inception_3b/3x3_reduce (in-place)
I0403 15:07:56.817795 18299 net.cpp:141] Setting up inception_3b/relu_3x3_reduce
I0403 15:07:56.817824 18299 net.cpp:148] Top shape: 24 128 28 28 (2408448)
I0403 15:07:56.817841 18299 net.cpp:156] Memory required for data: 696042528
I0403 15:07:56.817857 18299 layer_factory.hpp:77] Creating layer inception_3b/3x3
I0403 15:07:56.817883 18299 net.cpp:91] Creating Layer inception_3b/3x3
I0403 15:07:56.817900 18299 net.cpp:425] inception_3b/3x3 <- inception_3b/3x3_reduce
I0403 15:07:56.817924 18299 net.cpp:399] inception_3b/3x3 -> inception_3b/3x3
I0403 15:07:56.820976 18299 net.cpp:141] Setting up inception_3b/3x3
I0403 15:07:56.821010 18299 net.cpp:148] Top shape: 24 192 28 28 (3612672)
I0403 15:07:56.821028 18299 net.cpp:156] Memory required for data: 710493216
I0403 15:07:56.821048 18299 layer_factory.hpp:77] Creating layer inception_3b/relu_3x3
I0403 15:07:56.821066 18299 net.cpp:91] Creating Layer inception_3b/relu_3x3
I0403 15:07:56.821084 18299 net.cpp:425] inception_3b/relu_3x3 <- inception_3b/3x3
I0403 15:07:56.821105 18299 net.cpp:386] inception_3b/relu_3x3 -> inception_3b/3x3 (in-place)
I0403 15:07:56.821396 18299 net.cpp:141] Setting up inception_3b/relu_3x3
I0403 15:07:56.821424 18299 net.cpp:148] Top shape: 24 192 28 28 (3612672)
I0403 15:07:56.821439 18299 net.cpp:156] Memory required for data: 724943904
I0403 15:07:56.821455 18299 layer_factory.hpp:77] Creating layer inception_3b/5x5_reduce
I0403 15:07:56.821477 18299 net.cpp:91] Creating Layer inception_3b/5x5_reduce
I0403 15:07:56.821496 18299 net.cpp:425] inception_3b/5x5_reduce <- inception_3a/output_inception_3a/output_0_split_2
I0403 15:07:56.821519 18299 net.cpp:399] inception_3b/5x5_reduce -> inception_3b/5x5_reduce
I0403 15:07:56.822548 18299 net.cpp:141] Setting up inception_3b/5x5_reduce
I0403 15:07:56.822577 18299 net.cpp:148] Top shape: 24 32 28 28 (602112)
I0403 15:07:56.822593 18299 net.cpp:156] Memory required for data: 727352352
I0403 15:07:56.822612 18299 layer_factory.hpp:77] Creating layer inception_3b/relu_5x5_reduce
I0403 15:07:56.822630 18299 net.cpp:91] Creating Layer inception_3b/relu_5x5_reduce
I0403 15:07:56.822646 18299 net.cpp:425] inception_3b/relu_5x5_reduce <- inception_3b/5x5_reduce
I0403 15:07:56.822666 18299 net.cpp:386] inception_3b/relu_5x5_reduce -> inception_3b/5x5_reduce (in-place)
I0403 15:07:56.822862 18299 net.cpp:141] Setting up inception_3b/relu_5x5_reduce
I0403 15:07:56.822887 18299 net.cpp:148] Top shape: 24 32 28 28 (602112)
I0403 15:07:56.822902 18299 net.cpp:156] Memory required for data: 729760800
I0403 15:07:56.822918 18299 layer_factory.hpp:77] Creating layer inception_3b/5x5
I0403 15:07:56.822940 18299 net.cpp:91] Creating Layer inception_3b/5x5
I0403 15:07:56.822957 18299 net.cpp:425] inception_3b/5x5 <- inception_3b/5x5_reduce
I0403 15:07:56.822980 18299 net.cpp:399] inception_3b/5x5 -> inception_3b/5x5
I0403 15:07:56.825076 18299 net.cpp:141] Setting up inception_3b/5x5
I0403 15:07:56.825109 18299 net.cpp:148] Top shape: 24 96 28 28 (1806336)
I0403 15:07:56.825125 18299 net.cpp:156] Memory required for data: 736986144
I0403 15:07:56.825145 18299 layer_factory.hpp:77] Creating layer inception_3b/relu_5x5
I0403 15:07:56.825165 18299 net.cpp:91] Creating Layer inception_3b/relu_5x5
I0403 15:07:56.825181 18299 net.cpp:425] inception_3b/relu_5x5 <- inception_3b/5x5
I0403 15:07:56.825199 18299 net.cpp:386] inception_3b/relu_5x5 -> inception_3b/5x5 (in-place)
I0403 15:07:56.825400 18299 net.cpp:141] Setting up inception_3b/relu_5x5
I0403 15:07:56.825428 18299 net.cpp:148] Top shape: 24 96 28 28 (1806336)
I0403 15:07:56.825443 18299 net.cpp:156] Memory required for data: 744211488
I0403 15:07:56.825459 18299 layer_factory.hpp:77] Creating layer inception_3b/pool
I0403 15:07:56.825477 18299 net.cpp:91] Creating Layer inception_3b/pool
I0403 15:07:56.825495 18299 net.cpp:425] inception_3b/pool <- inception_3a/output_inception_3a/output_0_split_3
I0403 15:07:56.825512 18299 net.cpp:399] inception_3b/pool -> inception_3b/pool
I0403 15:07:56.825570 18299 net.cpp:141] Setting up inception_3b/pool
I0403 15:07:56.825598 18299 net.cpp:148] Top shape: 24 256 28 28 (4816896)
I0403 15:07:56.825613 18299 net.cpp:156] Memory required for data: 763479072
I0403 15:07:56.825628 18299 layer_factory.hpp:77] Creating layer inception_3b/pool_proj
I0403 15:07:56.825652 18299 net.cpp:91] Creating Layer inception_3b/pool_proj
I0403 15:07:56.825670 18299 net.cpp:425] inception_3b/pool_proj <- inception_3b/pool
I0403 15:07:56.825690 18299 net.cpp:399] inception_3b/pool_proj -> inception_3b/pool_proj
I0403 15:07:56.826798 18299 net.cpp:141] Setting up inception_3b/pool_proj
I0403 15:07:56.826828 18299 net.cpp:148] Top shape: 24 64 28 28 (1204224)
I0403 15:07:56.826844 18299 net.cpp:156] Memory required for data: 768295968
I0403 15:07:56.826864 18299 layer_factory.hpp:77] Creating layer inception_3b/relu_pool_proj
I0403 15:07:56.826887 18299 net.cpp:91] Creating Layer inception_3b/relu_pool_proj
I0403 15:07:56.826905 18299 net.cpp:425] inception_3b/relu_pool_proj <- inception_3b/pool_proj
I0403 15:07:56.826925 18299 net.cpp:386] inception_3b/relu_pool_proj -> inception_3b/pool_proj (in-place)
I0403 15:07:56.827350 18299 net.cpp:141] Setting up inception_3b/relu_pool_proj
I0403 15:07:56.827378 18299 net.cpp:148] Top shape: 24 64 28 28 (1204224)
I0403 15:07:56.827394 18299 net.cpp:156] Memory required for data: 773112864
I0403 15:07:56.827410 18299 layer_factory.hpp:77] Creating layer inception_3b/output
I0403 15:07:56.827428 18299 net.cpp:91] Creating Layer inception_3b/output
I0403 15:07:56.827445 18299 net.cpp:425] inception_3b/output <- inception_3b/1x1
I0403 15:07:56.827461 18299 net.cpp:425] inception_3b/output <- inception_3b/3x3
I0403 15:07:56.827478 18299 net.cpp:425] inception_3b/output <- inception_3b/5x5
I0403 15:07:56.827497 18299 net.cpp:425] inception_3b/output <- inception_3b/pool_proj
I0403 15:07:56.827517 18299 net.cpp:399] inception_3b/output -> inception_3b/output
I0403 15:07:56.827564 18299 net.cpp:141] Setting up inception_3b/output
I0403 15:07:56.827590 18299 net.cpp:148] Top shape: 24 480 28 28 (9031680)
I0403 15:07:56.827606 18299 net.cpp:156] Memory required for data: 809239584
I0403 15:07:56.827621 18299 layer_factory.hpp:77] Creating layer pool3/3x3_s2
I0403 15:07:56.827641 18299 net.cpp:91] Creating Layer pool3/3x3_s2
I0403 15:07:56.827656 18299 net.cpp:425] pool3/3x3_s2 <- inception_3b/output
I0403 15:07:56.827693 18299 net.cpp:399] pool3/3x3_s2 -> pool3/3x3_s2
I0403 15:07:56.827759 18299 net.cpp:141] Setting up pool3/3x3_s2
I0403 15:07:56.827783 18299 net.cpp:148] Top shape: 24 480 14 14 (2257920)
I0403 15:07:56.827798 18299 net.cpp:156] Memory required for data: 818271264
I0403 15:07:56.827812 18299 layer_factory.hpp:77] Creating layer pool3/3x3_s2_pool3/3x3_s2_0_split
I0403 15:07:56.827833 18299 net.cpp:91] Creating Layer pool3/3x3_s2_pool3/3x3_s2_0_split
I0403 15:07:56.827849 18299 net.cpp:425] pool3/3x3_s2_pool3/3x3_s2_0_split <- pool3/3x3_s2
I0403 15:07:56.827867 18299 net.cpp:399] pool3/3x3_s2_pool3/3x3_s2_0_split -> pool3/3x3_s2_pool3/3x3_s2_0_split_0
I0403 15:07:56.827888 18299 net.cpp:399] pool3/3x3_s2_pool3/3x3_s2_0_split -> pool3/3x3_s2_pool3/3x3_s2_0_split_1
I0403 15:07:56.827910 18299 net.cpp:399] pool3/3x3_s2_pool3/3x3_s2_0_split -> pool3/3x3_s2_pool3/3x3_s2_0_split_2
I0403 15:07:56.827932 18299 net.cpp:399] pool3/3x3_s2_pool3/3x3_s2_0_split -> pool3/3x3_s2_pool3/3x3_s2_0_split_3
I0403 15:07:56.828016 18299 net.cpp:141] Setting up pool3/3x3_s2_pool3/3x3_s2_0_split
I0403 15:07:56.828040 18299 net.cpp:148] Top shape: 24 480 14 14 (2257920)
I0403 15:07:56.828058 18299 net.cpp:148] Top shape: 24 480 14 14 (2257920)
I0403 15:07:56.828074 18299 net.cpp:148] Top shape: 24 480 14 14 (2257920)
I0403 15:07:56.828090 18299 net.cpp:148] Top shape: 24 480 14 14 (2257920)
I0403 15:07:56.828104 18299 net.cpp:156] Memory required for data: 854397984
I0403 15:07:56.828119 18299 layer_factory.hpp:77] Creating layer inception_4a/1x1
I0403 15:07:56.828142 18299 net.cpp:91] Creating Layer inception_4a/1x1
I0403 15:07:56.828161 18299 net.cpp:425] inception_4a/1x1 <- pool3/3x3_s2_pool3/3x3_s2_0_split_0
I0403 15:07:56.828182 18299 net.cpp:399] inception_4a/1x1 -> inception_4a/1x1
I0403 15:07:56.829839 18299 net.cpp:141] Setting up inception_4a/1x1
I0403 15:07:56.829869 18299 net.cpp:148] Top shape: 24 192 14 14 (903168)
I0403 15:07:56.829885 18299 net.cpp:156] Memory required for data: 858010656
I0403 15:07:56.829905 18299 layer_factory.hpp:77] Creating layer inception_4a/relu_1x1
I0403 15:07:56.829926 18299 net.cpp:91] Creating Layer inception_4a/relu_1x1
I0403 15:07:56.829943 18299 net.cpp:425] inception_4a/relu_1x1 <- inception_4a/1x1
I0403 15:07:56.829962 18299 net.cpp:386] inception_4a/relu_1x1 -> inception_4a/1x1 (in-place)
I0403 15:07:56.830150 18299 net.cpp:141] Setting up inception_4a/relu_1x1
I0403 15:07:56.830180 18299 net.cpp:148] Top shape: 24 192 14 14 (903168)
I0403 15:07:56.830198 18299 net.cpp:156] Memory required for data: 861623328
I0403 15:07:56.830214 18299 layer_factory.hpp:77] Creating layer inception_4a/3x3_reduce
I0403 15:07:56.830236 18299 net.cpp:91] Creating Layer inception_4a/3x3_reduce
I0403 15:07:56.830255 18299 net.cpp:425] inception_4a/3x3_reduce <- pool3/3x3_s2_pool3/3x3_s2_0_split_1
I0403 15:07:56.830274 18299 net.cpp:399] inception_4a/3x3_reduce -> inception_4a/3x3_reduce
I0403 15:07:56.831612 18299 net.cpp:141] Setting up inception_4a/3x3_reduce
I0403 15:07:56.831642 18299 net.cpp:148] Top shape: 24 96 14 14 (451584)
I0403 15:07:56.831657 18299 net.cpp:156] Memory required for data: 863429664
I0403 15:07:56.831684 18299 layer_factory.hpp:77] Creating layer inception_4a/relu_3x3_reduce
I0403 15:07:56.831707 18299 net.cpp:91] Creating Layer inception_4a/relu_3x3_reduce
I0403 15:07:56.831724 18299 net.cpp:425] inception_4a/relu_3x3_reduce <- inception_4a/3x3_reduce
I0403 15:07:56.831743 18299 net.cpp:386] inception_4a/relu_3x3_reduce -> inception_4a/3x3_reduce (in-place)
I0403 15:07:56.831925 18299 net.cpp:141] Setting up inception_4a/relu_3x3_reduce
I0403 15:07:56.831951 18299 net.cpp:148] Top shape: 24 96 14 14 (451584)
I0403 15:07:56.831966 18299 net.cpp:156] Memory required for data: 865236000
I0403 15:07:56.831981 18299 layer_factory.hpp:77] Creating layer inception_4a/3x3
I0403 15:07:56.832011 18299 net.cpp:91] Creating Layer inception_4a/3x3
I0403 15:07:56.832031 18299 net.cpp:425] inception_4a/3x3 <- inception_4a/3x3_reduce
I0403 15:07:56.832051 18299 net.cpp:399] inception_4a/3x3 -> inception_4a/3x3
I0403 15:07:56.834854 18299 net.cpp:141] Setting up inception_4a/3x3
I0403 15:07:56.834887 18299 net.cpp:148] Top shape: 24 208 14 14 (978432)
I0403 15:07:56.834904 18299 net.cpp:156] Memory required for data: 869149728
I0403 15:07:56.834923 18299 layer_factory.hpp:77] Creating layer inception_4a/relu_3x3
I0403 15:07:56.834942 18299 net.cpp:91] Creating Layer inception_4a/relu_3x3
I0403 15:07:56.834959 18299 net.cpp:425] inception_4a/relu_3x3 <- inception_4a/3x3
I0403 15:07:56.834977 18299 net.cpp:386] inception_4a/relu_3x3 -> inception_4a/3x3 (in-place)
I0403 15:07:56.835276 18299 net.cpp:141] Setting up inception_4a/relu_3x3
I0403 15:07:56.835306 18299 net.cpp:148] Top shape: 24 208 14 14 (978432)
I0403 15:07:56.835322 18299 net.cpp:156] Memory required for data: 873063456
I0403 15:07:56.835338 18299 layer_factory.hpp:77] Creating layer inception_4a/5x5_reduce
I0403 15:07:56.835361 18299 net.cpp:91] Creating Layer inception_4a/5x5_reduce
I0403 15:07:56.835379 18299 net.cpp:425] inception_4a/5x5_reduce <- pool3/3x3_s2_pool3/3x3_s2_0_split_2
I0403 15:07:56.835400 18299 net.cpp:399] inception_4a/5x5_reduce -> inception_4a/5x5_reduce
I0403 15:07:56.836514 18299 net.cpp:141] Setting up inception_4a/5x5_reduce
I0403 15:07:56.836544 18299 net.cpp:148] Top shape: 24 16 14 14 (75264)
I0403 15:07:56.836560 18299 net.cpp:156] Memory required for data: 873364512
I0403 15:07:56.836578 18299 layer_factory.hpp:77] Creating layer inception_4a/relu_5x5_reduce
I0403 15:07:56.836596 18299 net.cpp:91] Creating Layer inception_4a/relu_5x5_reduce
I0403 15:07:56.836612 18299 net.cpp:425] inception_4a/relu_5x5_reduce <- inception_4a/5x5_reduce
I0403 15:07:56.836632 18299 net.cpp:386] inception_4a/relu_5x5_reduce -> inception_4a/5x5_reduce (in-place)
I0403 15:07:56.836807 18299 net.cpp:141] Setting up inception_4a/relu_5x5_reduce
I0403 15:07:56.836833 18299 net.cpp:148] Top shape: 24 16 14 14 (75264)
I0403 15:07:56.836848 18299 net.cpp:156] Memory required for data: 873665568
I0403 15:07:56.836861 18299 layer_factory.hpp:77] Creating layer inception_4a/5x5
I0403 15:07:56.836884 18299 net.cpp:91] Creating Layer inception_4a/5x5
I0403 15:07:56.836900 18299 net.cpp:425] inception_4a/5x5 <- inception_4a/5x5_reduce
I0403 15:07:56.836921 18299 net.cpp:399] inception_4a/5x5 -> inception_4a/5x5
I0403 15:07:56.838158 18299 net.cpp:141] Setting up inception_4a/5x5
I0403 15:07:56.838186 18299 net.cpp:148] Top shape: 24 48 14 14 (225792)
I0403 15:07:56.838201 18299 net.cpp:156] Memory required for data: 874568736
I0403 15:07:56.838232 18299 layer_factory.hpp:77] Creating layer inception_4a/relu_5x5
I0403 15:07:56.838250 18299 net.cpp:91] Creating Layer inception_4a/relu_5x5
I0403 15:07:56.838266 18299 net.cpp:425] inception_4a/relu_5x5 <- inception_4a/5x5
I0403 15:07:56.838285 18299 net.cpp:386] inception_4a/relu_5x5 -> inception_4a/5x5 (in-place)
I0403 15:07:56.838462 18299 net.cpp:141] Setting up inception_4a/relu_5x5
I0403 15:07:56.838487 18299 net.cpp:148] Top shape: 24 48 14 14 (225792)
I0403 15:07:56.838503 18299 net.cpp:156] Memory required for data: 875471904
I0403 15:07:56.838518 18299 layer_factory.hpp:77] Creating layer inception_4a/pool
I0403 15:07:56.838538 18299 net.cpp:91] Creating Layer inception_4a/pool
I0403 15:07:56.838554 18299 net.cpp:425] inception_4a/pool <- pool3/3x3_s2_pool3/3x3_s2_0_split_3
I0403 15:07:56.838572 18299 net.cpp:399] inception_4a/pool -> inception_4a/pool
I0403 15:07:56.838634 18299 net.cpp:141] Setting up inception_4a/pool
I0403 15:07:56.838656 18299 net.cpp:148] Top shape: 24 480 14 14 (2257920)
I0403 15:07:56.838670 18299 net.cpp:156] Memory required for data: 884503584
I0403 15:07:56.838685 18299 layer_factory.hpp:77] Creating layer inception_4a/pool_proj
I0403 15:07:56.838706 18299 net.cpp:91] Creating Layer inception_4a/pool_proj
I0403 15:07:56.838723 18299 net.cpp:425] inception_4a/pool_proj <- inception_4a/pool
I0403 15:07:56.838743 18299 net.cpp:399] inception_4a/pool_proj -> inception_4a/pool_proj
I0403 15:07:56.839916 18299 net.cpp:141] Setting up inception_4a/pool_proj
I0403 15:07:56.839944 18299 net.cpp:148] Top shape: 24 64 14 14 (301056)
I0403 15:07:56.839975 18299 net.cpp:156] Memory required for data: 885707808
I0403 15:07:56.840000 18299 layer_factory.hpp:77] Creating layer inception_4a/relu_pool_proj
I0403 15:07:56.840023 18299 net.cpp:91] Creating Layer inception_4a/relu_pool_proj
I0403 15:07:56.840040 18299 net.cpp:425] inception_4a/relu_pool_proj <- inception_4a/pool_proj
I0403 15:07:56.840057 18299 net.cpp:386] inception_4a/relu_pool_proj -> inception_4a/pool_proj (in-place)
I0403 15:07:56.840337 18299 net.cpp:141] Setting up inception_4a/relu_pool_proj
I0403 15:07:56.840363 18299 net.cpp:148] Top shape: 24 64 14 14 (301056)
I0403 15:07:56.840378 18299 net.cpp:156] Memory required for data: 886912032
I0403 15:07:56.840392 18299 layer_factory.hpp:77] Creating layer inception_4a/output
I0403 15:07:56.840410 18299 net.cpp:91] Creating Layer inception_4a/output
I0403 15:07:56.840426 18299 net.cpp:425] inception_4a/output <- inception_4a/1x1
I0403 15:07:56.840445 18299 net.cpp:425] inception_4a/output <- inception_4a/3x3
I0403 15:07:56.840461 18299 net.cpp:425] inception_4a/output <- inception_4a/5x5
I0403 15:07:56.840477 18299 net.cpp:425] inception_4a/output <- inception_4a/pool_proj
I0403 15:07:56.840493 18299 net.cpp:399] inception_4a/output -> inception_4a/output
I0403 15:07:56.840539 18299 net.cpp:141] Setting up inception_4a/output
I0403 15:07:56.840561 18299 net.cpp:148] Top shape: 24 512 14 14 (2408448)
I0403 15:07:56.840576 18299 net.cpp:156] Memory required for data: 896545824
I0403 15:07:56.840590 18299 layer_factory.hpp:77] Creating layer inception_4a/output_inception_4a/output_0_split
I0403 15:07:56.840608 18299 net.cpp:91] Creating Layer inception_4a/output_inception_4a/output_0_split
I0403 15:07:56.840623 18299 net.cpp:425] inception_4a/output_inception_4a/output_0_split <- inception_4a/output
I0403 15:07:56.840643 18299 net.cpp:399] inception_4a/output_inception_4a/output_0_split -> inception_4a/output_inception_4a/output_0_split_0
I0403 15:07:56.840664 18299 net.cpp:399] inception_4a/output_inception_4a/output_0_split -> inception_4a/output_inception_4a/output_0_split_1
I0403 15:07:56.840684 18299 net.cpp:399] inception_4a/output_inception_4a/output_0_split -> inception_4a/output_inception_4a/output_0_split_2
I0403 15:07:56.840704 18299 net.cpp:399] inception_4a/output_inception_4a/output_0_split -> inception_4a/output_inception_4a/output_0_split_3
I0403 15:07:56.840723 18299 net.cpp:399] inception_4a/output_inception_4a/output_0_split -> inception_4a/output_inception_4a/output_0_split_4
I0403 15:07:56.840814 18299 net.cpp:141] Setting up inception_4a/output_inception_4a/output_0_split
I0403 15:07:56.840838 18299 net.cpp:148] Top shape: 24 512 14 14 (2408448)
I0403 15:07:56.840854 18299 net.cpp:148] Top shape: 24 512 14 14 (2408448)
I0403 15:07:56.840869 18299 net.cpp:148] Top shape: 24 512 14 14 (2408448)
I0403 15:07:56.840884 18299 net.cpp:148] Top shape: 24 512 14 14 (2408448)
I0403 15:07:56.840899 18299 net.cpp:148] Top shape: 24 512 14 14 (2408448)
I0403 15:07:56.840914 18299 net.cpp:156] Memory required for data: 944714784
I0403 15:07:56.840927 18299 layer_factory.hpp:77] Creating layer loss1/ave_pool
I0403 15:07:56.840945 18299 net.cpp:91] Creating Layer loss1/ave_pool
I0403 15:07:56.840960 18299 net.cpp:425] loss1/ave_pool <- inception_4a/output_inception_4a/output_0_split_0
I0403 15:07:56.840980 18299 net.cpp:399] loss1/ave_pool -> loss1/ave_pool
I0403 15:07:56.841192 18299 net.cpp:141] Setting up loss1/ave_pool
I0403 15:07:56.841217 18299 net.cpp:148] Top shape: 24 512 4 4 (196608)
I0403 15:07:56.841233 18299 net.cpp:156] Memory required for data: 945501216
I0403 15:07:56.841248 18299 layer_factory.hpp:77] Creating layer loss1/conv
I0403 15:07:56.841269 18299 net.cpp:91] Creating Layer loss1/conv
I0403 15:07:56.841286 18299 net.cpp:425] loss1/conv <- loss1/ave_pool
I0403 15:07:56.841307 18299 net.cpp:399] loss1/conv -> loss1/conv
I0403 15:07:56.842708 18299 net.cpp:141] Setting up loss1/conv
I0403 15:07:56.842738 18299 net.cpp:148] Top shape: 24 128 4 4 (49152)
I0403 15:07:56.842767 18299 net.cpp:156] Memory required for data: 945697824
I0403 15:07:56.842787 18299 layer_factory.hpp:77] Creating layer loss1/relu_conv
I0403 15:07:56.842806 18299 net.cpp:91] Creating Layer loss1/relu_conv
I0403 15:07:56.842823 18299 net.cpp:425] loss1/relu_conv <- loss1/conv
I0403 15:07:56.842839 18299 net.cpp:386] loss1/relu_conv -> loss1/conv (in-place)
I0403 15:07:56.843122 18299 net.cpp:141] Setting up loss1/relu_conv
I0403 15:07:56.843149 18299 net.cpp:148] Top shape: 24 128 4 4 (49152)
I0403 15:07:56.843165 18299 net.cpp:156] Memory required for data: 945894432
I0403 15:07:56.843180 18299 layer_factory.hpp:77] Creating layer loss1/fc
I0403 15:07:56.843204 18299 net.cpp:91] Creating Layer loss1/fc
I0403 15:07:56.843220 18299 net.cpp:425] loss1/fc <- loss1/conv
I0403 15:07:56.843242 18299 net.cpp:399] loss1/fc -> loss1/fc
I0403 15:07:56.860920 18299 net.cpp:141] Setting up loss1/fc
I0403 15:07:56.860973 18299 net.cpp:148] Top shape: 24 1024 (24576)
I0403 15:07:56.860993 18299 net.cpp:156] Memory required for data: 945992736
I0403 15:07:56.861014 18299 layer_factory.hpp:77] Creating layer loss1/relu_fc
I0403 15:07:56.861037 18299 net.cpp:91] Creating Layer loss1/relu_fc
I0403 15:07:56.861053 18299 net.cpp:425] loss1/relu_fc <- loss1/fc
I0403 15:07:56.861071 18299 net.cpp:386] loss1/relu_fc -> loss1/fc (in-place)
I0403 15:07:56.861277 18299 net.cpp:141] Setting up loss1/relu_fc
I0403 15:07:56.861306 18299 net.cpp:148] Top shape: 24 1024 (24576)
I0403 15:07:56.861322 18299 net.cpp:156] Memory required for data: 946091040
I0403 15:07:56.861336 18299 layer_factory.hpp:77] Creating layer loss1/drop_fc
I0403 15:07:56.861366 18299 net.cpp:91] Creating Layer loss1/drop_fc
I0403 15:07:56.861382 18299 net.cpp:425] loss1/drop_fc <- loss1/fc
I0403 15:07:56.861400 18299 net.cpp:386] loss1/drop_fc -> loss1/fc (in-place)
I0403 15:07:56.861454 18299 net.cpp:141] Setting up loss1/drop_fc
I0403 15:07:56.861477 18299 net.cpp:148] Top shape: 24 1024 (24576)
I0403 15:07:56.861491 18299 net.cpp:156] Memory required for data: 946189344
I0403 15:07:56.861506 18299 layer_factory.hpp:77] Creating layer loss1/classifier_plantvillage
I0403 15:07:56.861528 18299 net.cpp:91] Creating Layer loss1/classifier_plantvillage
I0403 15:07:56.861544 18299 net.cpp:425] loss1/classifier_plantvillage <- loss1/fc
I0403 15:07:56.861563 18299 net.cpp:399] loss1/classifier_plantvillage -> loss1/classifier_plantvillage
I0403 15:07:56.862498 18299 net.cpp:141] Setting up loss1/classifier_plantvillage
I0403 15:07:56.862527 18299 net.cpp:148] Top shape: 24 38 (912)
I0403 15:07:56.862543 18299 net.cpp:156] Memory required for data: 946192992
I0403 15:07:56.862562 18299 layer_factory.hpp:77] Creating layer loss1/classifier_plantvillage_loss1/classifier_plantvillage_0_split
I0403 15:07:56.862581 18299 net.cpp:91] Creating Layer loss1/classifier_plantvillage_loss1/classifier_plantvillage_0_split
I0403 15:07:56.862596 18299 net.cpp:425] loss1/classifier_plantvillage_loss1/classifier_plantvillage_0_split <- loss1/classifier_plantvillage
I0403 15:07:56.862613 18299 net.cpp:399] loss1/classifier_plantvillage_loss1/classifier_plantvillage_0_split -> loss1/classifier_plantvillage_loss1/classifier_plantvillage_0_split_0
I0403 15:07:56.862634 18299 net.cpp:399] loss1/classifier_plantvillage_loss1/classifier_plantvillage_0_split -> loss1/classifier_plantvillage_loss1/classifier_plantvillage_0_split_1
I0403 15:07:56.862653 18299 net.cpp:399] loss1/classifier_plantvillage_loss1/classifier_plantvillage_0_split -> loss1/classifier_plantvillage_loss1/classifier_plantvillage_0_split_2
I0403 15:07:56.862718 18299 net.cpp:141] Setting up loss1/classifier_plantvillage_loss1/classifier_plantvillage_0_split
I0403 15:07:56.862741 18299 net.cpp:148] Top shape: 24 38 (912)
I0403 15:07:56.862757 18299 net.cpp:148] Top shape: 24 38 (912)
I0403 15:07:56.862773 18299 net.cpp:148] Top shape: 24 38 (912)
I0403 15:07:56.862787 18299 net.cpp:156] Memory required for data: 946203936
I0403 15:07:56.862802 18299 layer_factory.hpp:77] Creating layer inception_4b/1x1
I0403 15:07:56.862823 18299 net.cpp:91] Creating Layer inception_4b/1x1
I0403 15:07:56.862865 18299 net.cpp:425] inception_4b/1x1 <- inception_4a/output_inception_4a/output_0_split_1
I0403 15:07:56.862889 18299 net.cpp:399] inception_4b/1x1 -> inception_4b/1x1
I0403 15:07:56.864637 18299 net.cpp:141] Setting up inception_4b/1x1
I0403 15:07:56.864670 18299 net.cpp:148] Top shape: 24 160 14 14 (752640)
I0403 15:07:56.864686 18299 net.cpp:156] Memory required for data: 949214496
I0403 15:07:56.864706 18299 layer_factory.hpp:77] Creating layer inception_4b/relu_1x1
I0403 15:07:56.864723 18299 net.cpp:91] Creating Layer inception_4b/relu_1x1
I0403 15:07:56.864740 18299 net.cpp:425] inception_4b/relu_1x1 <- inception_4b/1x1
I0403 15:07:56.864759 18299 net.cpp:386] inception_4b/relu_1x1 -> inception_4b/1x1 (in-place)
I0403 15:07:56.864943 18299 net.cpp:141] Setting up inception_4b/relu_1x1
I0403 15:07:56.864969 18299 net.cpp:148] Top shape: 24 160 14 14 (752640)
I0403 15:07:56.864984 18299 net.cpp:156] Memory required for data: 952225056
I0403 15:07:56.865006 18299 layer_factory.hpp:77] Creating layer inception_4b/3x3_reduce
I0403 15:07:56.865032 18299 net.cpp:91] Creating Layer inception_4b/3x3_reduce
I0403 15:07:56.865051 18299 net.cpp:425] inception_4b/3x3_reduce <- inception_4a/output_inception_4a/output_0_split_2
I0403 15:07:56.865072 18299 net.cpp:399] inception_4b/3x3_reduce -> inception_4b/3x3_reduce
I0403 15:07:56.866454 18299 net.cpp:141] Setting up inception_4b/3x3_reduce
I0403 15:07:56.866483 18299 net.cpp:148] Top shape: 24 112 14 14 (526848)
I0403 15:07:56.866499 18299 net.cpp:156] Memory required for data: 954332448
I0403 15:07:56.866518 18299 layer_factory.hpp:77] Creating layer inception_4b/relu_3x3_reduce
I0403 15:07:56.866538 18299 net.cpp:91] Creating Layer inception_4b/relu_3x3_reduce
I0403 15:07:56.866559 18299 net.cpp:425] inception_4b/relu_3x3_reduce <- inception_4b/3x3_reduce
I0403 15:07:56.866576 18299 net.cpp:386] inception_4b/relu_3x3_reduce -> inception_4b/3x3_reduce (in-place)
I0403 15:07:56.866861 18299 net.cpp:141] Setting up inception_4b/relu_3x3_reduce
I0403 15:07:56.866888 18299 net.cpp:148] Top shape: 24 112 14 14 (526848)
I0403 15:07:56.866904 18299 net.cpp:156] Memory required for data: 956439840
I0403 15:07:56.866919 18299 layer_factory.hpp:77] Creating layer inception_4b/3x3
I0403 15:07:56.866942 18299 net.cpp:91] Creating Layer inception_4b/3x3
I0403 15:07:56.866960 18299 net.cpp:425] inception_4b/3x3 <- inception_4b/3x3_reduce
I0403 15:07:56.866983 18299 net.cpp:399] inception_4b/3x3 -> inception_4b/3x3
I0403 15:07:56.870077 18299 net.cpp:141] Setting up inception_4b/3x3
I0403 15:07:56.870107 18299 net.cpp:148] Top shape: 24 224 14 14 (1053696)
I0403 15:07:56.870124 18299 net.cpp:156] Memory required for data: 960654624
I0403 15:07:56.870143 18299 layer_factory.hpp:77] Creating layer inception_4b/relu_3x3
I0403 15:07:56.870164 18299 net.cpp:91] Creating Layer inception_4b/relu_3x3
I0403 15:07:56.870182 18299 net.cpp:425] inception_4b/relu_3x3 <- inception_4b/3x3
I0403 15:07:56.870199 18299 net.cpp:386] inception_4b/relu_3x3 -> inception_4b/3x3 (in-place)
I0403 15:07:56.870393 18299 net.cpp:141] Setting up inception_4b/relu_3x3
I0403 15:07:56.870420 18299 net.cpp:148] Top shape: 24 224 14 14 (1053696)
I0403 15:07:56.870436 18299 net.cpp:156] Memory required for data: 964869408
I0403 15:07:56.870452 18299 layer_factory.hpp:77] Creating layer inception_4b/5x5_reduce
I0403 15:07:56.870474 18299 net.cpp:91] Creating Layer inception_4b/5x5_reduce
I0403 15:07:56.870492 18299 net.cpp:425] inception_4b/5x5_reduce <- inception_4a/output_inception_4a/output_0_split_3
I0403 15:07:56.870512 18299 net.cpp:399] inception_4b/5x5_reduce -> inception_4b/5x5_reduce
I0403 15:07:56.871618 18299 net.cpp:141] Setting up inception_4b/5x5_reduce
I0403 15:07:56.871649 18299 net.cpp:148] Top shape: 24 24 14 14 (112896)
I0403 15:07:56.871665 18299 net.cpp:156] Memory required for data: 965320992
I0403 15:07:56.871683 18299 layer_factory.hpp:77] Creating layer inception_4b/relu_5x5_reduce
I0403 15:07:56.871703 18299 net.cpp:91] Creating Layer inception_4b/relu_5x5_reduce
I0403 15:07:56.871734 18299 net.cpp:425] inception_4b/relu_5x5_reduce <- inception_4b/5x5_reduce
I0403 15:07:56.871757 18299 net.cpp:386] inception_4b/relu_5x5_reduce -> inception_4b/5x5_reduce (in-place)
I0403 15:07:56.871942 18299 net.cpp:141] Setting up inception_4b/relu_5x5_reduce
I0403 15:07:56.871968 18299 net.cpp:148] Top shape: 24 24 14 14 (112896)
I0403 15:07:56.871984 18299 net.cpp:156] Memory required for data: 965772576
I0403 15:07:56.872006 18299 layer_factory.hpp:77] Creating layer inception_4b/5x5
I0403 15:07:56.872030 18299 net.cpp:91] Creating Layer inception_4b/5x5
I0403 15:07:56.872047 18299 net.cpp:425] inception_4b/5x5 <- inception_4b/5x5_reduce
I0403 15:07:56.872068 18299 net.cpp:399] inception_4b/5x5 -> inception_4b/5x5
I0403 15:07:56.873324 18299 net.cpp:141] Setting up inception_4b/5x5
I0403 15:07:56.873356 18299 net.cpp:148] Top shape: 24 64 14 14 (301056)
I0403 15:07:56.873373 18299 net.cpp:156] Memory required for data: 966976800
I0403 15:07:56.873391 18299 layer_factory.hpp:77] Creating layer inception_4b/relu_5x5
I0403 15:07:56.873410 18299 net.cpp:91] Creating Layer inception_4b/relu_5x5
I0403 15:07:56.873426 18299 net.cpp:425] inception_4b/relu_5x5 <- inception_4b/5x5
I0403 15:07:56.873447 18299 net.cpp:386] inception_4b/relu_5x5 -> inception_4b/5x5 (in-place)
I0403 15:07:56.873744 18299 net.cpp:141] Setting up inception_4b/relu_5x5
I0403 15:07:56.873772 18299 net.cpp:148] Top shape: 24 64 14 14 (301056)
I0403 15:07:56.873790 18299 net.cpp:156] Memory required for data: 968181024
I0403 15:07:56.873805 18299 layer_factory.hpp:77] Creating layer inception_4b/pool
I0403 15:07:56.873823 18299 net.cpp:91] Creating Layer inception_4b/pool
I0403 15:07:56.873839 18299 net.cpp:425] inception_4b/pool <- inception_4a/output_inception_4a/output_0_split_4
I0403 15:07:56.873862 18299 net.cpp:399] inception_4b/pool -> inception_4b/pool
I0403 15:07:56.873929 18299 net.cpp:141] Setting up inception_4b/pool
I0403 15:07:56.873952 18299 net.cpp:148] Top shape: 24 512 14 14 (2408448)
I0403 15:07:56.873967 18299 net.cpp:156] Memory required for data: 977814816
I0403 15:07:56.873982 18299 layer_factory.hpp:77] Creating layer inception_4b/pool_proj
I0403 15:07:56.874013 18299 net.cpp:91] Creating Layer inception_4b/pool_proj
I0403 15:07:56.874033 18299 net.cpp:425] inception_4b/pool_proj <- inception_4b/pool
I0403 15:07:56.874053 18299 net.cpp:399] inception_4b/pool_proj -> inception_4b/pool_proj
I0403 15:07:56.875277 18299 net.cpp:141] Setting up inception_4b/pool_proj
I0403 15:07:56.875308 18299 net.cpp:148] Top shape: 24 64 14 14 (301056)
I0403 15:07:56.875324 18299 net.cpp:156] Memory required for data: 979019040
I0403 15:07:56.875342 18299 layer_factory.hpp:77] Creating layer inception_4b/relu_pool_proj
I0403 15:07:56.875361 18299 net.cpp:91] Creating Layer inception_4b/relu_pool_proj
I0403 15:07:56.875377 18299 net.cpp:425] inception_4b/relu_pool_proj <- inception_4b/pool_proj
I0403 15:07:56.875397 18299 net.cpp:386] inception_4b/relu_pool_proj -> inception_4b/pool_proj (in-place)
I0403 15:07:56.875581 18299 net.cpp:141] Setting up inception_4b/relu_pool_proj
I0403 15:07:56.875607 18299 net.cpp:148] Top shape: 24 64 14 14 (301056)
I0403 15:07:56.875622 18299 net.cpp:156] Memory required for data: 980223264
I0403 15:07:56.875638 18299 layer_factory.hpp:77] Creating layer inception_4b/output
I0403 15:07:56.875655 18299 net.cpp:91] Creating Layer inception_4b/output
I0403 15:07:56.875674 18299 net.cpp:425] inception_4b/output <- inception_4b/1x1
I0403 15:07:56.875690 18299 net.cpp:425] inception_4b/output <- inception_4b/3x3
I0403 15:07:56.875707 18299 net.cpp:425] inception_4b/output <- inception_4b/5x5
I0403 15:07:56.875723 18299 net.cpp:425] inception_4b/output <- inception_4b/pool_proj
I0403 15:07:56.875741 18299 net.cpp:399] inception_4b/output -> inception_4b/output
I0403 15:07:56.875785 18299 net.cpp:141] Setting up inception_4b/output
I0403 15:07:56.875811 18299 net.cpp:148] Top shape: 24 512 14 14 (2408448)
I0403 15:07:56.875828 18299 net.cpp:156] Memory required for data: 989857056
I0403 15:07:56.875857 18299 layer_factory.hpp:77] Creating layer inception_4b/output_inception_4b/output_0_split
I0403 15:07:56.875876 18299 net.cpp:91] Creating Layer inception_4b/output_inception_4b/output_0_split
I0403 15:07:56.875891 18299 net.cpp:425] inception_4b/output_inception_4b/output_0_split <- inception_4b/output
I0403 15:07:56.875912 18299 net.cpp:399] inception_4b/output_inception_4b/output_0_split -> inception_4b/output_inception_4b/output_0_split_0
I0403 15:07:56.875934 18299 net.cpp:399] inception_4b/output_inception_4b/output_0_split -> inception_4b/output_inception_4b/output_0_split_1
I0403 15:07:56.875954 18299 net.cpp:399] inception_4b/output_inception_4b/output_0_split -> inception_4b/output_inception_4b/output_0_split_2
I0403 15:07:56.875975 18299 net.cpp:399] inception_4b/output_inception_4b/output_0_split -> inception_4b/output_inception_4b/output_0_split_3
I0403 15:07:56.876065 18299 net.cpp:141] Setting up inception_4b/output_inception_4b/output_0_split
I0403 15:07:56.876092 18299 net.cpp:148] Top shape: 24 512 14 14 (2408448)
I0403 15:07:56.876109 18299 net.cpp:148] Top shape: 24 512 14 14 (2408448)
I0403 15:07:56.876126 18299 net.cpp:148] Top shape: 24 512 14 14 (2408448)
I0403 15:07:56.876140 18299 net.cpp:148] Top shape: 24 512 14 14 (2408448)
I0403 15:07:56.876155 18299 net.cpp:156] Memory required for data: 1028392224
I0403 15:07:56.876169 18299 layer_factory.hpp:77] Creating layer inception_4c/1x1
I0403 15:07:56.876193 18299 net.cpp:91] Creating Layer inception_4c/1x1
I0403 15:07:56.876210 18299 net.cpp:425] inception_4c/1x1 <- inception_4b/output_inception_4b/output_0_split_0
I0403 15:07:56.876230 18299 net.cpp:399] inception_4c/1x1 -> inception_4c/1x1
I0403 15:07:56.877702 18299 net.cpp:141] Setting up inception_4c/1x1
I0403 15:07:56.877730 18299 net.cpp:148] Top shape: 24 128 14 14 (602112)
I0403 15:07:56.877745 18299 net.cpp:156] Memory required for data: 1030800672
I0403 15:07:56.877764 18299 layer_factory.hpp:77] Creating layer inception_4c/relu_1x1
I0403 15:07:56.877784 18299 net.cpp:91] Creating Layer inception_4c/relu_1x1
I0403 15:07:56.877801 18299 net.cpp:425] inception_4c/relu_1x1 <- inception_4c/1x1
I0403 15:07:56.877818 18299 net.cpp:386] inception_4c/relu_1x1 -> inception_4c/1x1 (in-place)
I0403 15:07:56.878015 18299 net.cpp:141] Setting up inception_4c/relu_1x1
I0403 15:07:56.878042 18299 net.cpp:148] Top shape: 24 128 14 14 (602112)
I0403 15:07:56.878057 18299 net.cpp:156] Memory required for data: 1033209120
I0403 15:07:56.878072 18299 layer_factory.hpp:77] Creating layer inception_4c/3x3_reduce
I0403 15:07:56.878096 18299 net.cpp:91] Creating Layer inception_4c/3x3_reduce
I0403 15:07:56.878113 18299 net.cpp:425] inception_4c/3x3_reduce <- inception_4b/output_inception_4b/output_0_split_1
I0403 15:07:56.878132 18299 net.cpp:399] inception_4c/3x3_reduce -> inception_4c/3x3_reduce
I0403 15:07:56.880162 18299 net.cpp:141] Setting up inception_4c/3x3_reduce
I0403 15:07:56.880193 18299 net.cpp:148] Top shape: 24 128 14 14 (602112)
I0403 15:07:56.880211 18299 net.cpp:156] Memory required for data: 1035617568
I0403 15:07:56.880230 18299 layer_factory.hpp:77] Creating layer inception_4c/relu_3x3_reduce
I0403 15:07:56.880249 18299 net.cpp:91] Creating Layer inception_4c/relu_3x3_reduce
I0403 15:07:56.880265 18299 net.cpp:425] inception_4c/relu_3x3_reduce <- inception_4c/3x3_reduce
I0403 15:07:56.880285 18299 net.cpp:386] inception_4c/relu_3x3_reduce -> inception_4c/3x3_reduce (in-place)
I0403 15:07:56.880579 18299 net.cpp:141] Setting up inception_4c/relu_3x3_reduce
I0403 15:07:56.880609 18299 net.cpp:148] Top shape: 24 128 14 14 (602112)
I0403 15:07:56.880625 18299 net.cpp:156] Memory required for data: 1038026016
I0403 15:07:56.880640 18299 layer_factory.hpp:77] Creating layer inception_4c/3x3
I0403 15:07:56.880664 18299 net.cpp:91] Creating Layer inception_4c/3x3
I0403 15:07:56.880681 18299 net.cpp:425] inception_4c/3x3 <- inception_4c/3x3_reduce
I0403 15:07:56.880700 18299 net.cpp:399] inception_4c/3x3 -> inception_4c/3x3
I0403 15:07:56.884490 18299 net.cpp:141] Setting up inception_4c/3x3
I0403 15:07:56.884531 18299 net.cpp:148] Top shape: 24 256 14 14 (1204224)
I0403 15:07:56.884548 18299 net.cpp:156] Memory required for data: 1042842912
I0403 15:07:56.884582 18299 layer_factory.hpp:77] Creating layer inception_4c/relu_3x3
I0403 15:07:56.884601 18299 net.cpp:91] Creating Layer inception_4c/relu_3x3
I0403 15:07:56.884618 18299 net.cpp:425] inception_4c/relu_3x3 <- inception_4c/3x3
I0403 15:07:56.884637 18299 net.cpp:386] inception_4c/relu_3x3 -> inception_4c/3x3 (in-place)
I0403 15:07:56.884817 18299 net.cpp:141] Setting up inception_4c/relu_3x3
I0403 15:07:56.884845 18299 net.cpp:148] Top shape: 24 256 14 14 (1204224)
I0403 15:07:56.884860 18299 net.cpp:156] Memory required for data: 1047659808
I0403 15:07:56.884873 18299 layer_factory.hpp:77] Creating layer inception_4c/5x5_reduce
I0403 15:07:56.884898 18299 net.cpp:91] Creating Layer inception_4c/5x5_reduce
I0403 15:07:56.884915 18299 net.cpp:425] inception_4c/5x5_reduce <- inception_4b/output_inception_4b/output_0_split_2
I0403 15:07:56.884937 18299 net.cpp:399] inception_4c/5x5_reduce -> inception_4c/5x5_reduce
I0403 15:07:56.886016 18299 net.cpp:141] Setting up inception_4c/5x5_reduce
I0403 15:07:56.886046 18299 net.cpp:148] Top shape: 24 24 14 14 (112896)
I0403 15:07:56.886062 18299 net.cpp:156] Memory required for data: 1048111392
I0403 15:07:56.886080 18299 layer_factory.hpp:77] Creating layer inception_4c/relu_5x5_reduce
I0403 15:07:56.886098 18299 net.cpp:91] Creating Layer inception_4c/relu_5x5_reduce
I0403 15:07:56.886114 18299 net.cpp:425] inception_4c/relu_5x5_reduce <- inception_4c/5x5_reduce
I0403 15:07:56.886134 18299 net.cpp:386] inception_4c/relu_5x5_reduce -> inception_4c/5x5_reduce (in-place)
I0403 15:07:56.886348 18299 net.cpp:141] Setting up inception_4c/relu_5x5_reduce
I0403 15:07:56.886374 18299 net.cpp:148] Top shape: 24 24 14 14 (112896)
I0403 15:07:56.886389 18299 net.cpp:156] Memory required for data: 1048562976
I0403 15:07:56.886405 18299 layer_factory.hpp:77] Creating layer inception_4c/5x5
I0403 15:07:56.886428 18299 net.cpp:91] Creating Layer inception_4c/5x5
I0403 15:07:56.886447 18299 net.cpp:425] inception_4c/5x5 <- inception_4c/5x5_reduce
I0403 15:07:56.886482 18299 net.cpp:399] inception_4c/5x5 -> inception_4c/5x5
I0403 15:07:56.887722 18299 net.cpp:141] Setting up inception_4c/5x5
I0403 15:07:56.887749 18299 net.cpp:148] Top shape: 24 64 14 14 (301056)
I0403 15:07:56.887765 18299 net.cpp:156] Memory required for data: 1049767200
I0403 15:07:56.887784 18299 layer_factory.hpp:77] Creating layer inception_4c/relu_5x5
I0403 15:07:56.887804 18299 net.cpp:91] Creating Layer inception_4c/relu_5x5
I0403 15:07:56.887821 18299 net.cpp:425] inception_4c/relu_5x5 <- inception_4c/5x5
I0403 15:07:56.887838 18299 net.cpp:386] inception_4c/relu_5x5 -> inception_4c/5x5 (in-place)
I0403 15:07:56.888159 18299 net.cpp:141] Setting up inception_4c/relu_5x5
I0403 15:07:56.888185 18299 net.cpp:148] Top shape: 24 64 14 14 (301056)
I0403 15:07:56.888201 18299 net.cpp:156] Memory required for data: 1050971424
I0403 15:07:56.888216 18299 layer_factory.hpp:77] Creating layer inception_4c/pool
I0403 15:07:56.888237 18299 net.cpp:91] Creating Layer inception_4c/pool
I0403 15:07:56.888265 18299 net.cpp:425] inception_4c/pool <- inception_4b/output_inception_4b/output_0_split_3
I0403 15:07:56.888284 18299 net.cpp:399] inception_4c/pool -> inception_4c/pool
I0403 15:07:56.888361 18299 net.cpp:141] Setting up inception_4c/pool
I0403 15:07:56.888384 18299 net.cpp:148] Top shape: 24 512 14 14 (2408448)
I0403 15:07:56.888399 18299 net.cpp:156] Memory required for data: 1060605216
I0403 15:07:56.888414 18299 layer_factory.hpp:77] Creating layer inception_4c/pool_proj
I0403 15:07:56.888437 18299 net.cpp:91] Creating Layer inception_4c/pool_proj
I0403 15:07:56.888454 18299 net.cpp:425] inception_4c/pool_proj <- inception_4c/pool
I0403 15:07:56.888478 18299 net.cpp:399] inception_4c/pool_proj -> inception_4c/pool_proj
I0403 15:07:56.889734 18299 net.cpp:141] Setting up inception_4c/pool_proj
I0403 15:07:56.889762 18299 net.cpp:148] Top shape: 24 64 14 14 (301056)
I0403 15:07:56.889791 18299 net.cpp:156] Memory required for data: 1061809440
I0403 15:07:56.889811 18299 layer_factory.hpp:77] Creating layer inception_4c/relu_pool_proj
I0403 15:07:56.889828 18299 net.cpp:91] Creating Layer inception_4c/relu_pool_proj
I0403 15:07:56.889844 18299 net.cpp:425] inception_4c/relu_pool_proj <- inception_4c/pool_proj
I0403 15:07:56.889864 18299 net.cpp:386] inception_4c/relu_pool_proj -> inception_4c/pool_proj (in-place)
I0403 15:07:56.890051 18299 net.cpp:141] Setting up inception_4c/relu_pool_proj
I0403 15:07:56.890076 18299 net.cpp:148] Top shape: 24 64 14 14 (301056)
I0403 15:07:56.890091 18299 net.cpp:156] Memory required for data: 1063013664
I0403 15:07:56.890106 18299 layer_factory.hpp:77] Creating layer inception_4c/output
I0403 15:07:56.890123 18299 net.cpp:91] Creating Layer inception_4c/output
I0403 15:07:56.890138 18299 net.cpp:425] inception_4c/output <- inception_4c/1x1
I0403 15:07:56.890154 18299 net.cpp:425] inception_4c/output <- inception_4c/3x3
I0403 15:07:56.890173 18299 net.cpp:425] inception_4c/output <- inception_4c/5x5
I0403 15:07:56.890189 18299 net.cpp:425] inception_4c/output <- inception_4c/pool_proj
I0403 15:07:56.890208 18299 net.cpp:399] inception_4c/output -> inception_4c/output
I0403 15:07:56.890252 18299 net.cpp:141] Setting up inception_4c/output
I0403 15:07:56.890277 18299 net.cpp:148] Top shape: 24 512 14 14 (2408448)
I0403 15:07:56.890292 18299 net.cpp:156] Memory required for data: 1072647456
I0403 15:07:56.890306 18299 layer_factory.hpp:77] Creating layer inception_4c/output_inception_4c/output_0_split
I0403 15:07:56.890322 18299 net.cpp:91] Creating Layer inception_4c/output_inception_4c/output_0_split
I0403 15:07:56.890338 18299 net.cpp:425] inception_4c/output_inception_4c/output_0_split <- inception_4c/output
I0403 15:07:56.890357 18299 net.cpp:399] inception_4c/output_inception_4c/output_0_split -> inception_4c/output_inception_4c/output_0_split_0
I0403 15:07:56.890377 18299 net.cpp:399] inception_4c/output_inception_4c/output_0_split -> inception_4c/output_inception_4c/output_0_split_1
I0403 15:07:56.890398 18299 net.cpp:399] inception_4c/output_inception_4c/output_0_split -> inception_4c/output_inception_4c/output_0_split_2
I0403 15:07:56.890416 18299 net.cpp:399] inception_4c/output_inception_4c/output_0_split -> inception_4c/output_inception_4c/output_0_split_3
I0403 15:07:56.890498 18299 net.cpp:141] Setting up inception_4c/output_inception_4c/output_0_split
I0403 15:07:56.890524 18299 net.cpp:148] Top shape: 24 512 14 14 (2408448)
I0403 15:07:56.890542 18299 net.cpp:148] Top shape: 24 512 14 14 (2408448)
I0403 15:07:56.890558 18299 net.cpp:148] Top shape: 24 512 14 14 (2408448)
I0403 15:07:56.890573 18299 net.cpp:148] Top shape: 24 512 14 14 (2408448)
I0403 15:07:56.890586 18299 net.cpp:156] Memory required for data: 1111182624
I0403 15:07:56.890600 18299 layer_factory.hpp:77] Creating layer inception_4d/1x1
I0403 15:07:56.890621 18299 net.cpp:91] Creating Layer inception_4d/1x1
I0403 15:07:56.890640 18299 net.cpp:425] inception_4d/1x1 <- inception_4c/output_inception_4c/output_0_split_0
I0403 15:07:56.890657 18299 net.cpp:399] inception_4d/1x1 -> inception_4d/1x1
I0403 15:07:56.892050 18299 net.cpp:141] Setting up inception_4d/1x1
I0403 15:07:56.892077 18299 net.cpp:148] Top shape: 24 112 14 14 (526848)
I0403 15:07:56.892096 18299 net.cpp:156] Memory required for data: 1113290016
I0403 15:07:56.892115 18299 layer_factory.hpp:77] Creating layer inception_4d/relu_1x1
I0403 15:07:56.892134 18299 net.cpp:91] Creating Layer inception_4d/relu_1x1
I0403 15:07:56.892150 18299 net.cpp:425] inception_4d/relu_1x1 <- inception_4d/1x1
I0403 15:07:56.892168 18299 net.cpp:386] inception_4d/relu_1x1 -> inception_4d/1x1 (in-place)
I0403 15:07:56.892364 18299 net.cpp:141] Setting up inception_4d/relu_1x1
I0403 15:07:56.892391 18299 net.cpp:148] Top shape: 24 112 14 14 (526848)
I0403 15:07:56.892406 18299 net.cpp:156] Memory required for data: 1115397408
I0403 15:07:56.892421 18299 layer_factory.hpp:77] Creating layer inception_4d/3x3_reduce
I0403 15:07:56.892458 18299 net.cpp:91] Creating Layer inception_4d/3x3_reduce
I0403 15:07:56.892477 18299 net.cpp:425] inception_4d/3x3_reduce <- inception_4c/output_inception_4c/output_0_split_1
I0403 15:07:56.892496 18299 net.cpp:399] inception_4d/3x3_reduce -> inception_4d/3x3_reduce
I0403 15:07:56.894040 18299 net.cpp:141] Setting up inception_4d/3x3_reduce
I0403 15:07:56.894080 18299 net.cpp:148] Top shape: 24 144 14 14 (677376)
I0403 15:07:56.894096 18299 net.cpp:156] Memory required for data: 1118106912
I0403 15:07:56.894115 18299 layer_factory.hpp:77] Creating layer inception_4d/relu_3x3_reduce
I0403 15:07:56.894136 18299 net.cpp:91] Creating Layer inception_4d/relu_3x3_reduce
I0403 15:07:56.894153 18299 net.cpp:425] inception_4d/relu_3x3_reduce <- inception_4d/3x3_reduce
I0403 15:07:56.894171 18299 net.cpp:386] inception_4d/relu_3x3_reduce -> inception_4d/3x3_reduce (in-place)
I0403 15:07:56.894472 18299 net.cpp:141] Setting up inception_4d/relu_3x3_reduce
I0403 15:07:56.894498 18299 net.cpp:148] Top shape: 24 144 14 14 (677376)
I0403 15:07:56.894513 18299 net.cpp:156] Memory required for data: 1120816416
I0403 15:07:56.894527 18299 layer_factory.hpp:77] Creating layer inception_4d/3x3
I0403 15:07:56.894551 18299 net.cpp:91] Creating Layer inception_4d/3x3
I0403 15:07:56.894568 18299 net.cpp:425] inception_4d/3x3 <- inception_4d/3x3_reduce
I0403 15:07:56.894589 18299 net.cpp:399] inception_4d/3x3 -> inception_4d/3x3
I0403 15:07:56.898996 18299 net.cpp:141] Setting up inception_4d/3x3
I0403 15:07:56.899026 18299 net.cpp:148] Top shape: 24 288 14 14 (1354752)
I0403 15:07:56.899042 18299 net.cpp:156] Memory required for data: 1126235424
I0403 15:07:56.899060 18299 layer_factory.hpp:77] Creating layer inception_4d/relu_3x3
I0403 15:07:56.899081 18299 net.cpp:91] Creating Layer inception_4d/relu_3x3
I0403 15:07:56.899098 18299 net.cpp:425] inception_4d/relu_3x3 <- inception_4d/3x3
I0403 15:07:56.899116 18299 net.cpp:386] inception_4d/relu_3x3 -> inception_4d/3x3 (in-place)
I0403 15:07:56.899298 18299 net.cpp:141] Setting up inception_4d/relu_3x3
I0403 15:07:56.899322 18299 net.cpp:148] Top shape: 24 288 14 14 (1354752)
I0403 15:07:56.899338 18299 net.cpp:156] Memory required for data: 1131654432
I0403 15:07:56.899351 18299 layer_factory.hpp:77] Creating layer inception_4d/5x5_reduce
I0403 15:07:56.899374 18299 net.cpp:91] Creating Layer inception_4d/5x5_reduce
I0403 15:07:56.899391 18299 net.cpp:425] inception_4d/5x5_reduce <- inception_4c/output_inception_4c/output_0_split_2
I0403 15:07:56.899412 18299 net.cpp:399] inception_4d/5x5_reduce -> inception_4d/5x5_reduce
I0403 15:07:56.900555 18299 net.cpp:141] Setting up inception_4d/5x5_reduce
I0403 15:07:56.900585 18299 net.cpp:148] Top shape: 24 32 14 14 (150528)
I0403 15:07:56.900601 18299 net.cpp:156] Memory required for data: 1132256544
I0403 15:07:56.900620 18299 layer_factory.hpp:77] Creating layer inception_4d/relu_5x5_reduce
I0403 15:07:56.900650 18299 net.cpp:91] Creating Layer inception_4d/relu_5x5_reduce
I0403 15:07:56.900667 18299 net.cpp:425] inception_4d/relu_5x5_reduce <- inception_4d/5x5_reduce
I0403 15:07:56.900686 18299 net.cpp:386] inception_4d/relu_5x5_reduce -> inception_4d/5x5_reduce (in-place)
I0403 15:07:56.900904 18299 net.cpp:141] Setting up inception_4d/relu_5x5_reduce
I0403 15:07:56.900944 18299 net.cpp:148] Top shape: 24 32 14 14 (150528)
I0403 15:07:56.900959 18299 net.cpp:156] Memory required for data: 1132858656
I0403 15:07:56.900974 18299 layer_factory.hpp:77] Creating layer inception_4d/5x5
I0403 15:07:56.901005 18299 net.cpp:91] Creating Layer inception_4d/5x5
I0403 15:07:56.901023 18299 net.cpp:425] inception_4d/5x5 <- inception_4d/5x5_reduce
I0403 15:07:56.901044 18299 net.cpp:399] inception_4d/5x5 -> inception_4d/5x5
I0403 15:07:56.902537 18299 net.cpp:141] Setting up inception_4d/5x5
I0403 15:07:56.902566 18299 net.cpp:148] Top shape: 24 64 14 14 (301056)
I0403 15:07:56.902581 18299 net.cpp:156] Memory required for data: 1134062880
I0403 15:07:56.902601 18299 layer_factory.hpp:77] Creating layer inception_4d/relu_5x5
I0403 15:07:56.902633 18299 net.cpp:91] Creating Layer inception_4d/relu_5x5
I0403 15:07:56.902653 18299 net.cpp:425] inception_4d/relu_5x5 <- inception_4d/5x5
I0403 15:07:56.902672 18299 net.cpp:386] inception_4d/relu_5x5 -> inception_4d/5x5 (in-place)
I0403 15:07:56.902972 18299 net.cpp:141] Setting up inception_4d/relu_5x5
I0403 15:07:56.903019 18299 net.cpp:148] Top shape: 24 64 14 14 (301056)
I0403 15:07:56.903036 18299 net.cpp:156] Memory required for data: 1135267104
I0403 15:07:56.903051 18299 layer_factory.hpp:77] Creating layer inception_4d/pool
I0403 15:07:56.903082 18299 net.cpp:91] Creating Layer inception_4d/pool
I0403 15:07:56.903100 18299 net.cpp:425] inception_4d/pool <- inception_4c/output_inception_4c/output_0_split_3
I0403 15:07:56.903121 18299 net.cpp:399] inception_4d/pool -> inception_4d/pool
I0403 15:07:56.903192 18299 net.cpp:141] Setting up inception_4d/pool
I0403 15:07:56.903219 18299 net.cpp:148] Top shape: 24 512 14 14 (2408448)
I0403 15:07:56.903235 18299 net.cpp:156] Memory required for data: 1144900896
I0403 15:07:56.903251 18299 layer_factory.hpp:77] Creating layer inception_4d/pool_proj
I0403 15:07:56.903273 18299 net.cpp:91] Creating Layer inception_4d/pool_proj
I0403 15:07:56.903291 18299 net.cpp:425] inception_4d/pool_proj <- inception_4d/pool
I0403 15:07:56.903312 18299 net.cpp:399] inception_4d/pool_proj -> inception_4d/pool_proj
I0403 15:07:56.905239 18299 net.cpp:141] Setting up inception_4d/pool_proj
I0403 15:07:56.905270 18299 net.cpp:148] Top shape: 24 64 14 14 (301056)
I0403 15:07:56.905287 18299 net.cpp:156] Memory required for data: 1146105120
I0403 15:07:56.905306 18299 layer_factory.hpp:77] Creating layer inception_4d/relu_pool_proj
I0403 15:07:56.905328 18299 net.cpp:91] Creating Layer inception_4d/relu_pool_proj
I0403 15:07:56.905345 18299 net.cpp:425] inception_4d/relu_pool_proj <- inception_4d/pool_proj
I0403 15:07:56.905364 18299 net.cpp:386] inception_4d/relu_pool_proj -> inception_4d/pool_proj (in-place)
I0403 15:07:56.905562 18299 net.cpp:141] Setting up inception_4d/relu_pool_proj
I0403 15:07:56.905588 18299 net.cpp:148] Top shape: 24 64 14 14 (301056)
I0403 15:07:56.905604 18299 net.cpp:156] Memory required for data: 1147309344
I0403 15:07:56.905619 18299 layer_factory.hpp:77] Creating layer inception_4d/output
I0403 15:07:56.905637 18299 net.cpp:91] Creating Layer inception_4d/output
I0403 15:07:56.905653 18299 net.cpp:425] inception_4d/output <- inception_4d/1x1
I0403 15:07:56.905671 18299 net.cpp:425] inception_4d/output <- inception_4d/3x3
I0403 15:07:56.905689 18299 net.cpp:425] inception_4d/output <- inception_4d/5x5
I0403 15:07:56.905704 18299 net.cpp:425] inception_4d/output <- inception_4d/pool_proj
I0403 15:07:56.905725 18299 net.cpp:399] inception_4d/output -> inception_4d/output
I0403 15:07:56.905776 18299 net.cpp:141] Setting up inception_4d/output
I0403 15:07:56.905802 18299 net.cpp:148] Top shape: 24 528 14 14 (2483712)
I0403 15:07:56.905819 18299 net.cpp:156] Memory required for data: 1157244192
I0403 15:07:56.905834 18299 layer_factory.hpp:77] Creating layer inception_4d/output_inception_4d/output_0_split
I0403 15:07:56.905853 18299 net.cpp:91] Creating Layer inception_4d/output_inception_4d/output_0_split
I0403 15:07:56.905869 18299 net.cpp:425] inception_4d/output_inception_4d/output_0_split <- inception_4d/output
I0403 15:07:56.905887 18299 net.cpp:399] inception_4d/output_inception_4d/output_0_split -> inception_4d/output_inception_4d/output_0_split_0
I0403 15:07:56.905911 18299 net.cpp:399] inception_4d/output_inception_4d/output_0_split -> inception_4d/output_inception_4d/output_0_split_1
I0403 15:07:56.905936 18299 net.cpp:399] inception_4d/output_inception_4d/output_0_split -> inception_4d/output_inception_4d/output_0_split_2
I0403 15:07:56.905956 18299 net.cpp:399] inception_4d/output_inception_4d/output_0_split -> inception_4d/output_inception_4d/output_0_split_3
I0403 15:07:56.905977 18299 net.cpp:399] inception_4d/output_inception_4d/output_0_split -> inception_4d/output_inception_4d/output_0_split_4
I0403 15:07:56.906092 18299 net.cpp:141] Setting up inception_4d/output_inception_4d/output_0_split
I0403 15:07:56.906131 18299 net.cpp:148] Top shape: 24 528 14 14 (2483712)
I0403 15:07:56.906148 18299 net.cpp:148] Top shape: 24 528 14 14 (2483712)
I0403 15:07:56.906165 18299 net.cpp:148] Top shape: 24 528 14 14 (2483712)
I0403 15:07:56.906182 18299 net.cpp:148] Top shape: 24 528 14 14 (2483712)
I0403 15:07:56.906198 18299 net.cpp:148] Top shape: 24 528 14 14 (2483712)
I0403 15:07:56.906211 18299 net.cpp:156] Memory required for data: 1206918432
I0403 15:07:56.906226 18299 layer_factory.hpp:77] Creating layer loss2/ave_pool
I0403 15:07:56.906247 18299 net.cpp:91] Creating Layer loss2/ave_pool
I0403 15:07:56.906265 18299 net.cpp:425] loss2/ave_pool <- inception_4d/output_inception_4d/output_0_split_0
I0403 15:07:56.906286 18299 net.cpp:399] loss2/ave_pool -> loss2/ave_pool
I0403 15:07:56.906615 18299 net.cpp:141] Setting up loss2/ave_pool
I0403 15:07:56.906646 18299 net.cpp:148] Top shape: 24 528 4 4 (202752)
I0403 15:07:56.906663 18299 net.cpp:156] Memory required for data: 1207729440
I0403 15:07:56.906679 18299 layer_factory.hpp:77] Creating layer loss2/conv
I0403 15:07:56.906703 18299 net.cpp:91] Creating Layer loss2/conv
I0403 15:07:56.906723 18299 net.cpp:425] loss2/conv <- loss2/ave_pool
I0403 15:07:56.906741 18299 net.cpp:399] loss2/conv -> loss2/conv
I0403 15:07:56.908746 18299 net.cpp:141] Setting up loss2/conv
I0403 15:07:56.908777 18299 net.cpp:148] Top shape: 24 128 4 4 (49152)
I0403 15:07:56.908793 18299 net.cpp:156] Memory required for data: 1207926048
I0403 15:07:56.908813 18299 layer_factory.hpp:77] Creating layer loss2/relu_conv
I0403 15:07:56.908833 18299 net.cpp:91] Creating Layer loss2/relu_conv
I0403 15:07:56.908849 18299 net.cpp:425] loss2/relu_conv <- loss2/conv
I0403 15:07:56.908869 18299 net.cpp:386] loss2/relu_conv -> loss2/conv (in-place)
I0403 15:07:56.909179 18299 net.cpp:141] Setting up loss2/relu_conv
I0403 15:07:56.909206 18299 net.cpp:148] Top shape: 24 128 4 4 (49152)
I0403 15:07:56.909224 18299 net.cpp:156] Memory required for data: 1208122656
I0403 15:07:56.909240 18299 layer_factory.hpp:77] Creating layer loss2/fc
I0403 15:07:56.909260 18299 net.cpp:91] Creating Layer loss2/fc
I0403 15:07:56.909276 18299 net.cpp:425] loss2/fc <- loss2/conv
I0403 15:07:56.909298 18299 net.cpp:399] loss2/fc -> loss2/fc
I0403 15:07:56.927858 18299 net.cpp:141] Setting up loss2/fc
I0403 15:07:56.927894 18299 net.cpp:148] Top shape: 24 1024 (24576)
I0403 15:07:56.927909 18299 net.cpp:156] Memory required for data: 1208220960
I0403 15:07:56.927928 18299 layer_factory.hpp:77] Creating layer loss2/relu_fc
I0403 15:07:56.927947 18299 net.cpp:91] Creating Layer loss2/relu_fc
I0403 15:07:56.927965 18299 net.cpp:425] loss2/relu_fc <- loss2/fc
I0403 15:07:56.927983 18299 net.cpp:386] loss2/relu_fc -> loss2/fc (in-place)
I0403 15:07:56.928335 18299 net.cpp:141] Setting up loss2/relu_fc
I0403 15:07:56.928364 18299 net.cpp:148] Top shape: 24 1024 (24576)
I0403 15:07:56.928380 18299 net.cpp:156] Memory required for data: 1208319264
I0403 15:07:56.928395 18299 layer_factory.hpp:77] Creating layer loss2/drop_fc
I0403 15:07:56.928412 18299 net.cpp:91] Creating Layer loss2/drop_fc
I0403 15:07:56.928427 18299 net.cpp:425] loss2/drop_fc <- loss2/fc
I0403 15:07:56.928443 18299 net.cpp:386] loss2/drop_fc -> loss2/fc (in-place)
I0403 15:07:56.928493 18299 net.cpp:141] Setting up loss2/drop_fc
I0403 15:07:56.928515 18299 net.cpp:148] Top shape: 24 1024 (24576)
I0403 15:07:56.928529 18299 net.cpp:156] Memory required for data: 1208417568
I0403 15:07:56.928544 18299 layer_factory.hpp:77] Creating layer loss2/classifier_plantvillage
I0403 15:07:56.928565 18299 net.cpp:91] Creating Layer loss2/classifier_plantvillage
I0403 15:07:56.928580 18299 net.cpp:425] loss2/classifier_plantvillage <- loss2/fc
I0403 15:07:56.928598 18299 net.cpp:399] loss2/classifier_plantvillage -> loss2/classifier_plantvillage
I0403 15:07:56.929021 18299 net.cpp:141] Setting up loss2/classifier_plantvillage
I0403 15:07:56.929046 18299 net.cpp:148] Top shape: 24 38 (912)
I0403 15:07:56.929081 18299 net.cpp:156] Memory required for data: 1208421216
I0403 15:07:56.929100 18299 layer_factory.hpp:77] Creating layer loss2/classifier_plantvillage_loss2/classifier_plantvillage_0_split
I0403 15:07:56.929119 18299 net.cpp:91] Creating Layer loss2/classifier_plantvillage_loss2/classifier_plantvillage_0_split
I0403 15:07:56.929136 18299 net.cpp:425] loss2/classifier_plantvillage_loss2/classifier_plantvillage_0_split <- loss2/classifier_plantvillage
I0403 15:07:56.929155 18299 net.cpp:399] loss2/classifier_plantvillage_loss2/classifier_plantvillage_0_split -> loss2/classifier_plantvillage_loss2/classifier_plantvillage_0_split_0
I0403 15:07:56.929177 18299 net.cpp:399] loss2/classifier_plantvillage_loss2/classifier_plantvillage_0_split -> loss2/classifier_plantvillage_loss2/classifier_plantvillage_0_split_1
I0403 15:07:56.929196 18299 net.cpp:399] loss2/classifier_plantvillage_loss2/classifier_plantvillage_0_split -> loss2/classifier_plantvillage_loss2/classifier_plantvillage_0_split_2
I0403 15:07:56.929285 18299 net.cpp:141] Setting up loss2/classifier_plantvillage_loss2/classifier_plantvillage_0_split
I0403 15:07:56.929307 18299 net.cpp:148] Top shape: 24 38 (912)
I0403 15:07:56.929323 18299 net.cpp:148] Top shape: 24 38 (912)
I0403 15:07:56.929339 18299 net.cpp:148] Top shape: 24 38 (912)
I0403 15:07:56.929352 18299 net.cpp:156] Memory required for data: 1208432160
I0403 15:07:56.929366 18299 layer_factory.hpp:77] Creating layer inception_4e/1x1
I0403 15:07:56.929388 18299 net.cpp:91] Creating Layer inception_4e/1x1
I0403 15:07:56.929406 18299 net.cpp:425] inception_4e/1x1 <- inception_4d/output_inception_4d/output_0_split_1
I0403 15:07:56.929425 18299 net.cpp:399] inception_4e/1x1 -> inception_4e/1x1
I0403 15:07:56.931296 18299 net.cpp:141] Setting up inception_4e/1x1
I0403 15:07:56.931324 18299 net.cpp:148] Top shape: 24 256 14 14 (1204224)
I0403 15:07:56.931339 18299 net.cpp:156] Memory required for data: 1213249056
I0403 15:07:56.931356 18299 layer_factory.hpp:77] Creating layer inception_4e/relu_1x1
I0403 15:07:56.931376 18299 net.cpp:91] Creating Layer inception_4e/relu_1x1
I0403 15:07:56.931392 18299 net.cpp:425] inception_4e/relu_1x1 <- inception_4e/1x1
I0403 15:07:56.931408 18299 net.cpp:386] inception_4e/relu_1x1 -> inception_4e/1x1 (in-place)
I0403 15:07:56.931700 18299 net.cpp:141] Setting up inception_4e/relu_1x1
I0403 15:07:56.931725 18299 net.cpp:148] Top shape: 24 256 14 14 (1204224)
I0403 15:07:56.931740 18299 net.cpp:156] Memory required for data: 1218065952
I0403 15:07:56.931756 18299 layer_factory.hpp:77] Creating layer inception_4e/3x3_reduce
I0403 15:07:56.931777 18299 net.cpp:91] Creating Layer inception_4e/3x3_reduce
I0403 15:07:56.931793 18299 net.cpp:425] inception_4e/3x3_reduce <- inception_4d/output_inception_4d/output_0_split_2
I0403 15:07:56.931814 18299 net.cpp:399] inception_4e/3x3_reduce -> inception_4e/3x3_reduce
I0403 15:07:56.933979 18299 net.cpp:141] Setting up inception_4e/3x3_reduce
I0403 15:07:56.934013 18299 net.cpp:148] Top shape: 24 160 14 14 (752640)
I0403 15:07:56.934039 18299 net.cpp:156] Memory required for data: 1221076512
I0403 15:07:56.934058 18299 layer_factory.hpp:77] Creating layer inception_4e/relu_3x3_reduce
I0403 15:07:56.934077 18299 net.cpp:91] Creating Layer inception_4e/relu_3x3_reduce
I0403 15:07:56.934092 18299 net.cpp:425] inception_4e/relu_3x3_reduce <- inception_4e/3x3_reduce
I0403 15:07:56.934111 18299 net.cpp:386] inception_4e/relu_3x3_reduce -> inception_4e/3x3_reduce (in-place)
I0403 15:07:56.934326 18299 net.cpp:141] Setting up inception_4e/relu_3x3_reduce
I0403 15:07:56.934352 18299 net.cpp:148] Top shape: 24 160 14 14 (752640)
I0403 15:07:56.934367 18299 net.cpp:156] Memory required for data: 1224087072
I0403 15:07:56.934381 18299 layer_factory.hpp:77] Creating layer inception_4e/3x3
I0403 15:07:56.934402 18299 net.cpp:91] Creating Layer inception_4e/3x3
I0403 15:07:56.934419 18299 net.cpp:425] inception_4e/3x3 <- inception_4e/3x3_reduce
I0403 15:07:56.934440 18299 net.cpp:399] inception_4e/3x3 -> inception_4e/3x3
I0403 15:07:56.939463 18299 net.cpp:141] Setting up inception_4e/3x3
I0403 15:07:56.939503 18299 net.cpp:148] Top shape: 24 320 14 14 (1505280)
I0403 15:07:56.939520 18299 net.cpp:156] Memory required for data: 1230108192
I0403 15:07:56.939538 18299 layer_factory.hpp:77] Creating layer inception_4e/relu_3x3
I0403 15:07:56.939558 18299 net.cpp:91] Creating Layer inception_4e/relu_3x3
I0403 15:07:56.939575 18299 net.cpp:425] inception_4e/relu_3x3 <- inception_4e/3x3
I0403 15:07:56.939592 18299 net.cpp:386] inception_4e/relu_3x3 -> inception_4e/3x3 (in-place)
I0403 15:07:56.939898 18299 net.cpp:141] Setting up inception_4e/relu_3x3
I0403 15:07:56.939925 18299 net.cpp:148] Top shape: 24 320 14 14 (1505280)
I0403 15:07:56.939940 18299 net.cpp:156] Memory required for data: 1236129312
I0403 15:07:56.939955 18299 layer_factory.hpp:77] Creating layer inception_4e/5x5_reduce
I0403 15:07:56.939975 18299 net.cpp:91] Creating Layer inception_4e/5x5_reduce
I0403 15:07:56.939996 18299 net.cpp:425] inception_4e/5x5_reduce <- inception_4d/output_inception_4d/output_0_split_3
I0403 15:07:56.940019 18299 net.cpp:399] inception_4e/5x5_reduce -> inception_4e/5x5_reduce
I0403 15:07:56.941100 18299 net.cpp:141] Setting up inception_4e/5x5_reduce
I0403 15:07:56.941128 18299 net.cpp:148] Top shape: 24 32 14 14 (150528)
I0403 15:07:56.941155 18299 net.cpp:156] Memory required for data: 1236731424
I0403 15:07:56.941174 18299 layer_factory.hpp:77] Creating layer inception_4e/relu_5x5_reduce
I0403 15:07:56.941195 18299 net.cpp:91] Creating Layer inception_4e/relu_5x5_reduce
I0403 15:07:56.941215 18299 net.cpp:425] inception_4e/relu_5x5_reduce <- inception_4e/5x5_reduce
I0403 15:07:56.941232 18299 net.cpp:386] inception_4e/relu_5x5_reduce -> inception_4e/5x5_reduce (in-place)
I0403 15:07:56.941550 18299 net.cpp:141] Setting up inception_4e/relu_5x5_reduce
I0403 15:07:56.941576 18299 net.cpp:148] Top shape: 24 32 14 14 (150528)
I0403 15:07:56.941591 18299 net.cpp:156] Memory required for data: 1237333536
I0403 15:07:56.941606 18299 layer_factory.hpp:77] Creating layer inception_4e/5x5
I0403 15:07:56.941648 18299 net.cpp:91] Creating Layer inception_4e/5x5
I0403 15:07:56.941666 18299 net.cpp:425] inception_4e/5x5 <- inception_4e/5x5_reduce
I0403 15:07:56.941685 18299 net.cpp:399] inception_4e/5x5 -> inception_4e/5x5
I0403 15:07:56.943615 18299 net.cpp:141] Setting up inception_4e/5x5
I0403 15:07:56.943646 18299 net.cpp:148] Top shape: 24 128 14 14 (602112)
I0403 15:07:56.943663 18299 net.cpp:156] Memory required for data: 1239741984
I0403 15:07:56.943682 18299 layer_factory.hpp:77] Creating layer inception_4e/relu_5x5
I0403 15:07:56.943701 18299 net.cpp:91] Creating Layer inception_4e/relu_5x5
I0403 15:07:56.943717 18299 net.cpp:425] inception_4e/relu_5x5 <- inception_4e/5x5
I0403 15:07:56.943737 18299 net.cpp:386] inception_4e/relu_5x5 -> inception_4e/5x5 (in-place)
I0403 15:07:56.943953 18299 net.cpp:141] Setting up inception_4e/relu_5x5
I0403 15:07:56.943979 18299 net.cpp:148] Top shape: 24 128 14 14 (602112)
I0403 15:07:56.944001 18299 net.cpp:156] Memory required for data: 1242150432
I0403 15:07:56.944018 18299 layer_factory.hpp:77] Creating layer inception_4e/pool
I0403 15:07:56.944037 18299 net.cpp:91] Creating Layer inception_4e/pool
I0403 15:07:56.944056 18299 net.cpp:425] inception_4e/pool <- inception_4d/output_inception_4d/output_0_split_4
I0403 15:07:56.944075 18299 net.cpp:399] inception_4e/pool -> inception_4e/pool
I0403 15:07:56.944150 18299 net.cpp:141] Setting up inception_4e/pool
I0403 15:07:56.944176 18299 net.cpp:148] Top shape: 24 528 14 14 (2483712)
I0403 15:07:56.944203 18299 net.cpp:156] Memory required for data: 1252085280
I0403 15:07:56.944218 18299 layer_factory.hpp:77] Creating layer inception_4e/pool_proj
I0403 15:07:56.944242 18299 net.cpp:91] Creating Layer inception_4e/pool_proj
I0403 15:07:56.944260 18299 net.cpp:425] inception_4e/pool_proj <- inception_4e/pool
I0403 15:07:56.944279 18299 net.cpp:399] inception_4e/pool_proj -> inception_4e/pool_proj
I0403 15:07:56.945858 18299 net.cpp:141] Setting up inception_4e/pool_proj
I0403 15:07:56.945899 18299 net.cpp:148] Top shape: 24 128 14 14 (602112)
I0403 15:07:56.945915 18299 net.cpp:156] Memory required for data: 1254493728
I0403 15:07:56.945945 18299 layer_factory.hpp:77] Creating layer inception_4e/relu_pool_proj
I0403 15:07:56.945966 18299 net.cpp:91] Creating Layer inception_4e/relu_pool_proj
I0403 15:07:56.945982 18299 net.cpp:425] inception_4e/relu_pool_proj <- inception_4e/pool_proj
I0403 15:07:56.946008 18299 net.cpp:386] inception_4e/relu_pool_proj -> inception_4e/pool_proj (in-place)
I0403 15:07:56.946321 18299 net.cpp:141] Setting up inception_4e/relu_pool_proj
I0403 15:07:56.946349 18299 net.cpp:148] Top shape: 24 128 14 14 (602112)
I0403 15:07:56.946365 18299 net.cpp:156] Memory required for data: 1256902176
I0403 15:07:56.946380 18299 layer_factory.hpp:77] Creating layer inception_4e/output
I0403 15:07:56.946398 18299 net.cpp:91] Creating Layer inception_4e/output
I0403 15:07:56.946413 18299 net.cpp:425] inception_4e/output <- inception_4e/1x1
I0403 15:07:56.946429 18299 net.cpp:425] inception_4e/output <- inception_4e/3x3
I0403 15:07:56.946445 18299 net.cpp:425] inception_4e/output <- inception_4e/5x5
I0403 15:07:56.946460 18299 net.cpp:425] inception_4e/output <- inception_4e/pool_proj
I0403 15:07:56.946477 18299 net.cpp:399] inception_4e/output -> inception_4e/output
I0403 15:07:56.946528 18299 net.cpp:141] Setting up inception_4e/output
I0403 15:07:56.946552 18299 net.cpp:148] Top shape: 24 832 14 14 (3913728)
I0403 15:07:56.946566 18299 net.cpp:156] Memory required for data: 1272557088
I0403 15:07:56.946579 18299 layer_factory.hpp:77] Creating layer pool4/3x3_s2
I0403 15:07:56.946601 18299 net.cpp:91] Creating Layer pool4/3x3_s2
I0403 15:07:56.946617 18299 net.cpp:425] pool4/3x3_s2 <- inception_4e/output
I0403 15:07:56.946636 18299 net.cpp:399] pool4/3x3_s2 -> pool4/3x3_s2
I0403 15:07:56.946705 18299 net.cpp:141] Setting up pool4/3x3_s2
I0403 15:07:56.946728 18299 net.cpp:148] Top shape: 24 832 7 7 (978432)
I0403 15:07:56.946743 18299 net.cpp:156] Memory required for data: 1276470816
I0403 15:07:56.946756 18299 layer_factory.hpp:77] Creating layer pool4/3x3_s2_pool4/3x3_s2_0_split
I0403 15:07:56.946774 18299 net.cpp:91] Creating Layer pool4/3x3_s2_pool4/3x3_s2_0_split
I0403 15:07:56.946789 18299 net.cpp:425] pool4/3x3_s2_pool4/3x3_s2_0_split <- pool4/3x3_s2
I0403 15:07:56.946820 18299 net.cpp:399] pool4/3x3_s2_pool4/3x3_s2_0_split -> pool4/3x3_s2_pool4/3x3_s2_0_split_0
I0403 15:07:56.946841 18299 net.cpp:399] pool4/3x3_s2_pool4/3x3_s2_0_split -> pool4/3x3_s2_pool4/3x3_s2_0_split_1
I0403 15:07:56.946861 18299 net.cpp:399] pool4/3x3_s2_pool4/3x3_s2_0_split -> pool4/3x3_s2_pool4/3x3_s2_0_split_2
I0403 15:07:56.946882 18299 net.cpp:399] pool4/3x3_s2_pool4/3x3_s2_0_split -> pool4/3x3_s2_pool4/3x3_s2_0_split_3
I0403 15:07:56.946971 18299 net.cpp:141] Setting up pool4/3x3_s2_pool4/3x3_s2_0_split
I0403 15:07:56.947005 18299 net.cpp:148] Top shape: 24 832 7 7 (978432)
I0403 15:07:56.947023 18299 net.cpp:148] Top shape: 24 832 7 7 (978432)
I0403 15:07:56.947039 18299 net.cpp:148] Top shape: 24 832 7 7 (978432)
I0403 15:07:56.947055 18299 net.cpp:148] Top shape: 24 832 7 7 (978432)
I0403 15:07:56.947069 18299 net.cpp:156] Memory required for data: 1292125728
I0403 15:07:56.947083 18299 layer_factory.hpp:77] Creating layer inception_5a/1x1
I0403 15:07:56.947105 18299 net.cpp:91] Creating Layer inception_5a/1x1
I0403 15:07:56.947134 18299 net.cpp:425] inception_5a/1x1 <- pool4/3x3_s2_pool4/3x3_s2_0_split_0
I0403 15:07:56.947154 18299 net.cpp:399] inception_5a/1x1 -> inception_5a/1x1
I0403 15:07:56.950064 18299 net.cpp:141] Setting up inception_5a/1x1
I0403 15:07:56.950093 18299 net.cpp:148] Top shape: 24 256 7 7 (301056)
I0403 15:07:56.950109 18299 net.cpp:156] Memory required for data: 1293329952
I0403 15:07:56.950126 18299 layer_factory.hpp:77] Creating layer inception_5a/relu_1x1
I0403 15:07:56.950145 18299 net.cpp:91] Creating Layer inception_5a/relu_1x1
I0403 15:07:56.950160 18299 net.cpp:425] inception_5a/relu_1x1 <- inception_5a/1x1
I0403 15:07:56.950191 18299 net.cpp:386] inception_5a/relu_1x1 -> inception_5a/1x1 (in-place)
I0403 15:07:56.950515 18299 net.cpp:141] Setting up inception_5a/relu_1x1
I0403 15:07:56.950539 18299 net.cpp:148] Top shape: 24 256 7 7 (301056)
I0403 15:07:56.950554 18299 net.cpp:156] Memory required for data: 1294534176
I0403 15:07:56.950569 18299 layer_factory.hpp:77] Creating layer inception_5a/3x3_reduce
I0403 15:07:56.950590 18299 net.cpp:91] Creating Layer inception_5a/3x3_reduce
I0403 15:07:56.950608 18299 net.cpp:425] inception_5a/3x3_reduce <- pool4/3x3_s2_pool4/3x3_s2_0_split_1
I0403 15:07:56.950628 18299 net.cpp:399] inception_5a/3x3_reduce -> inception_5a/3x3_reduce
I0403 15:07:56.953075 18299 net.cpp:141] Setting up inception_5a/3x3_reduce
I0403 15:07:56.953102 18299 net.cpp:148] Top shape: 24 160 7 7 (188160)
I0403 15:07:56.953119 18299 net.cpp:156] Memory required for data: 1295286816
I0403 15:07:56.953136 18299 layer_factory.hpp:77] Creating layer inception_5a/relu_3x3_reduce
I0403 15:07:56.953156 18299 net.cpp:91] Creating Layer inception_5a/relu_3x3_reduce
I0403 15:07:56.953173 18299 net.cpp:425] inception_5a/relu_3x3_reduce <- inception_5a/3x3_reduce
I0403 15:07:56.953189 18299 net.cpp:386] inception_5a/relu_3x3_reduce -> inception_5a/3x3_reduce (in-place)
I0403 15:07:56.953372 18299 net.cpp:141] Setting up inception_5a/relu_3x3_reduce
I0403 15:07:56.953397 18299 net.cpp:148] Top shape: 24 160 7 7 (188160)
I0403 15:07:56.953411 18299 net.cpp:156] Memory required for data: 1296039456
I0403 15:07:56.953425 18299 layer_factory.hpp:77] Creating layer inception_5a/3x3
I0403 15:07:56.953446 18299 net.cpp:91] Creating Layer inception_5a/3x3
I0403 15:07:56.953464 18299 net.cpp:425] inception_5a/3x3 <- inception_5a/3x3_reduce
I0403 15:07:56.953485 18299 net.cpp:399] inception_5a/3x3 -> inception_5a/3x3
I0403 15:07:56.960777 18299 net.cpp:141] Setting up inception_5a/3x3
I0403 15:07:56.960806 18299 net.cpp:148] Top shape: 24 320 7 7 (376320)
I0403 15:07:56.960822 18299 net.cpp:156] Memory required for data: 1297544736
I0403 15:07:56.960840 18299 layer_factory.hpp:77] Creating layer inception_5a/relu_3x3
I0403 15:07:56.960857 18299 net.cpp:91] Creating Layer inception_5a/relu_3x3
I0403 15:07:56.960873 18299 net.cpp:425] inception_5a/relu_3x3 <- inception_5a/3x3
I0403 15:07:56.960892 18299 net.cpp:386] inception_5a/relu_3x3 -> inception_5a/3x3 (in-place)
I0403 15:07:56.961192 18299 net.cpp:141] Setting up inception_5a/relu_3x3
I0403 15:07:56.961220 18299 net.cpp:148] Top shape: 24 320 7 7 (376320)
I0403 15:07:56.961236 18299 net.cpp:156] Memory required for data: 1299050016
I0403 15:07:56.961249 18299 layer_factory.hpp:77] Creating layer inception_5a/5x5_reduce
I0403 15:07:56.961272 18299 net.cpp:91] Creating Layer inception_5a/5x5_reduce
I0403 15:07:56.961289 18299 net.cpp:425] inception_5a/5x5_reduce <- pool4/3x3_s2_pool4/3x3_s2_0_split_2
I0403 15:07:56.961308 18299 net.cpp:399] inception_5a/5x5_reduce -> inception_5a/5x5_reduce
I0403 15:07:56.962496 18299 net.cpp:141] Setting up inception_5a/5x5_reduce
I0403 15:07:56.962527 18299 net.cpp:148] Top shape: 24 32 7 7 (37632)
I0403 15:07:56.962543 18299 net.cpp:156] Memory required for data: 1299200544
I0403 15:07:56.962563 18299 layer_factory.hpp:77] Creating layer inception_5a/relu_5x5_reduce
I0403 15:07:56.962581 18299 net.cpp:91] Creating Layer inception_5a/relu_5x5_reduce
I0403 15:07:56.962599 18299 net.cpp:425] inception_5a/relu_5x5_reduce <- inception_5a/5x5_reduce
I0403 15:07:56.962618 18299 net.cpp:386] inception_5a/relu_5x5_reduce -> inception_5a/5x5_reduce (in-place)
I0403 15:07:56.962941 18299 net.cpp:141] Setting up inception_5a/relu_5x5_reduce
I0403 15:07:56.962967 18299 net.cpp:148] Top shape: 24 32 7 7 (37632)
I0403 15:07:56.962982 18299 net.cpp:156] Memory required for data: 1299351072
I0403 15:07:56.963004 18299 layer_factory.hpp:77] Creating layer inception_5a/5x5
I0403 15:07:56.963027 18299 net.cpp:91] Creating Layer inception_5a/5x5
I0403 15:07:56.963045 18299 net.cpp:425] inception_5a/5x5 <- inception_5a/5x5_reduce
I0403 15:07:56.963068 18299 net.cpp:399] inception_5a/5x5 -> inception_5a/5x5
I0403 15:07:56.964835 18299 net.cpp:141] Setting up inception_5a/5x5
I0403 15:07:56.964881 18299 net.cpp:148] Top shape: 24 128 7 7 (150528)
I0403 15:07:56.964900 18299 net.cpp:156] Memory required for data: 1299953184
I0403 15:07:56.964920 18299 layer_factory.hpp:77] Creating layer inception_5a/relu_5x5
I0403 15:07:56.964939 18299 net.cpp:91] Creating Layer inception_5a/relu_5x5
I0403 15:07:56.964956 18299 net.cpp:425] inception_5a/relu_5x5 <- inception_5a/5x5
I0403 15:07:56.964977 18299 net.cpp:386] inception_5a/relu_5x5 -> inception_5a/5x5 (in-place)
I0403 15:07:56.965198 18299 net.cpp:141] Setting up inception_5a/relu_5x5
I0403 15:07:56.965224 18299 net.cpp:148] Top shape: 24 128 7 7 (150528)
I0403 15:07:56.965240 18299 net.cpp:156] Memory required for data: 1300555296
I0403 15:07:56.965255 18299 layer_factory.hpp:77] Creating layer inception_5a/pool
I0403 15:07:56.965272 18299 net.cpp:91] Creating Layer inception_5a/pool
I0403 15:07:56.965288 18299 net.cpp:425] inception_5a/pool <- pool4/3x3_s2_pool4/3x3_s2_0_split_3
I0403 15:07:56.965309 18299 net.cpp:399] inception_5a/pool -> inception_5a/pool
I0403 15:07:56.965383 18299 net.cpp:141] Setting up inception_5a/pool
I0403 15:07:56.965406 18299 net.cpp:148] Top shape: 24 832 7 7 (978432)
I0403 15:07:56.965421 18299 net.cpp:156] Memory required for data: 1304469024
I0403 15:07:56.965435 18299 layer_factory.hpp:77] Creating layer inception_5a/pool_proj
I0403 15:07:56.965459 18299 net.cpp:91] Creating Layer inception_5a/pool_proj
I0403 15:07:56.965477 18299 net.cpp:425] inception_5a/pool_proj <- inception_5a/pool
I0403 15:07:56.965497 18299 net.cpp:399] inception_5a/pool_proj -> inception_5a/pool_proj
I0403 15:07:56.967828 18299 net.cpp:141] Setting up inception_5a/pool_proj
I0403 15:07:56.967859 18299 net.cpp:148] Top shape: 24 128 7 7 (150528)
I0403 15:07:56.967876 18299 net.cpp:156] Memory required for data: 1305071136
I0403 15:07:56.967895 18299 layer_factory.hpp:77] Creating layer inception_5a/relu_pool_proj
I0403 15:07:56.967912 18299 net.cpp:91] Creating Layer inception_5a/relu_pool_proj
I0403 15:07:56.967928 18299 net.cpp:425] inception_5a/relu_pool_proj <- inception_5a/pool_proj
I0403 15:07:56.967944 18299 net.cpp:386] inception_5a/relu_pool_proj -> inception_5a/pool_proj (in-place)
I0403 15:07:56.968255 18299 net.cpp:141] Setting up inception_5a/relu_pool_proj
I0403 15:07:56.968283 18299 net.cpp:148] Top shape: 24 128 7 7 (150528)
I0403 15:07:56.968299 18299 net.cpp:156] Memory required for data: 1305673248
I0403 15:07:56.968314 18299 layer_factory.hpp:77] Creating layer inception_5a/output
I0403 15:07:56.968332 18299 net.cpp:91] Creating Layer inception_5a/output
I0403 15:07:56.968348 18299 net.cpp:425] inception_5a/output <- inception_5a/1x1
I0403 15:07:56.968364 18299 net.cpp:425] inception_5a/output <- inception_5a/3x3
I0403 15:07:56.968379 18299 net.cpp:425] inception_5a/output <- inception_5a/5x5
I0403 15:07:56.968395 18299 net.cpp:425] inception_5a/output <- inception_5a/pool_proj
I0403 15:07:56.968411 18299 net.cpp:399] inception_5a/output -> inception_5a/output
I0403 15:07:56.968462 18299 net.cpp:141] Setting up inception_5a/output
I0403 15:07:56.968485 18299 net.cpp:148] Top shape: 24 832 7 7 (978432)
I0403 15:07:56.968500 18299 net.cpp:156] Memory required for data: 1309586976
I0403 15:07:56.968515 18299 layer_factory.hpp:77] Creating layer inception_5a/output_inception_5a/output_0_split
I0403 15:07:56.968535 18299 net.cpp:91] Creating Layer inception_5a/output_inception_5a/output_0_split
I0403 15:07:56.968550 18299 net.cpp:425] inception_5a/output_inception_5a/output_0_split <- inception_5a/output
I0403 15:07:56.968580 18299 net.cpp:399] inception_5a/output_inception_5a/output_0_split -> inception_5a/output_inception_5a/output_0_split_0
I0403 15:07:56.968602 18299 net.cpp:399] inception_5a/output_inception_5a/output_0_split -> inception_5a/output_inception_5a/output_0_split_1
I0403 15:07:56.968623 18299 net.cpp:399] inception_5a/output_inception_5a/output_0_split -> inception_5a/output_inception_5a/output_0_split_2
I0403 15:07:56.968643 18299 net.cpp:399] inception_5a/output_inception_5a/output_0_split -> inception_5a/output_inception_5a/output_0_split_3
I0403 15:07:56.968757 18299 net.cpp:141] Setting up inception_5a/output_inception_5a/output_0_split
I0403 15:07:56.968782 18299 net.cpp:148] Top shape: 24 832 7 7 (978432)
I0403 15:07:56.968798 18299 net.cpp:148] Top shape: 24 832 7 7 (978432)
I0403 15:07:56.968814 18299 net.cpp:148] Top shape: 24 832 7 7 (978432)
I0403 15:07:56.968830 18299 net.cpp:148] Top shape: 24 832 7 7 (978432)
I0403 15:07:56.968844 18299 net.cpp:156] Memory required for data: 1325241888
I0403 15:07:56.968859 18299 layer_factory.hpp:77] Creating layer inception_5b/1x1
I0403 15:07:56.968881 18299 net.cpp:91] Creating Layer inception_5b/1x1
I0403 15:07:56.968899 18299 net.cpp:425] inception_5b/1x1 <- inception_5a/output_inception_5a/output_0_split_0
I0403 15:07:56.968919 18299 net.cpp:399] inception_5b/1x1 -> inception_5b/1x1
I0403 15:07:56.972844 18299 net.cpp:141] Setting up inception_5b/1x1
I0403 15:07:56.972875 18299 net.cpp:148] Top shape: 24 384 7 7 (451584)
I0403 15:07:56.972892 18299 net.cpp:156] Memory required for data: 1327048224
I0403 15:07:56.972910 18299 layer_factory.hpp:77] Creating layer inception_5b/relu_1x1
I0403 15:07:56.972932 18299 net.cpp:91] Creating Layer inception_5b/relu_1x1
I0403 15:07:56.972949 18299 net.cpp:425] inception_5b/relu_1x1 <- inception_5b/1x1
I0403 15:07:56.972967 18299 net.cpp:386] inception_5b/relu_1x1 -> inception_5b/1x1 (in-place)
I0403 15:07:56.973289 18299 net.cpp:141] Setting up inception_5b/relu_1x1
I0403 15:07:56.973316 18299 net.cpp:148] Top shape: 24 384 7 7 (451584)
I0403 15:07:56.973331 18299 net.cpp:156] Memory required for data: 1328854560
I0403 15:07:56.973346 18299 layer_factory.hpp:77] Creating layer inception_5b/3x3_reduce
I0403 15:07:56.973374 18299 net.cpp:91] Creating Layer inception_5b/3x3_reduce
I0403 15:07:56.973393 18299 net.cpp:425] inception_5b/3x3_reduce <- inception_5a/output_inception_5a/output_0_split_1
I0403 15:07:56.973413 18299 net.cpp:399] inception_5b/3x3_reduce -> inception_5b/3x3_reduce
I0403 15:07:56.976202 18299 net.cpp:141] Setting up inception_5b/3x3_reduce
I0403 15:07:56.976234 18299 net.cpp:148] Top shape: 24 192 7 7 (225792)
I0403 15:07:56.976251 18299 net.cpp:156] Memory required for data: 1329757728
I0403 15:07:56.976271 18299 layer_factory.hpp:77] Creating layer inception_5b/relu_3x3_reduce
I0403 15:07:56.976290 18299 net.cpp:91] Creating Layer inception_5b/relu_3x3_reduce
I0403 15:07:56.976307 18299 net.cpp:425] inception_5b/relu_3x3_reduce <- inception_5b/3x3_reduce
I0403 15:07:56.976325 18299 net.cpp:386] inception_5b/relu_3x3_reduce -> inception_5b/3x3_reduce (in-place)
I0403 15:07:56.976521 18299 net.cpp:141] Setting up inception_5b/relu_3x3_reduce
I0403 15:07:56.976549 18299 net.cpp:148] Top shape: 24 192 7 7 (225792)
I0403 15:07:56.976564 18299 net.cpp:156] Memory required for data: 1330660896
I0403 15:07:56.976579 18299 layer_factory.hpp:77] Creating layer inception_5b/3x3
I0403 15:07:56.976603 18299 net.cpp:91] Creating Layer inception_5b/3x3
I0403 15:07:56.976620 18299 net.cpp:425] inception_5b/3x3 <- inception_5b/3x3_reduce
I0403 15:07:56.976644 18299 net.cpp:399] inception_5b/3x3 -> inception_5b/3x3
I0403 15:07:56.983611 18299 net.cpp:141] Setting up inception_5b/3x3
I0403 15:07:56.983642 18299 net.cpp:148] Top shape: 24 384 7 7 (451584)
I0403 15:07:56.983659 18299 net.cpp:156] Memory required for data: 1332467232
I0403 15:07:56.983676 18299 layer_factory.hpp:77] Creating layer inception_5b/relu_3x3
I0403 15:07:56.983695 18299 net.cpp:91] Creating Layer inception_5b/relu_3x3
I0403 15:07:56.983711 18299 net.cpp:425] inception_5b/relu_3x3 <- inception_5b/3x3
I0403 15:07:56.983727 18299 net.cpp:386] inception_5b/relu_3x3 -> inception_5b/3x3 (in-place)
I0403 15:07:56.984027 18299 net.cpp:141] Setting up inception_5b/relu_3x3
I0403 15:07:56.984055 18299 net.cpp:148] Top shape: 24 384 7 7 (451584)
I0403 15:07:56.984071 18299 net.cpp:156] Memory required for data: 1334273568
I0403 15:07:56.984086 18299 layer_factory.hpp:77] Creating layer inception_5b/5x5_reduce
I0403 15:07:56.984122 18299 net.cpp:91] Creating Layer inception_5b/5x5_reduce
I0403 15:07:56.984141 18299 net.cpp:425] inception_5b/5x5_reduce <- inception_5a/output_inception_5a/output_0_split_2
I0403 15:07:56.984161 18299 net.cpp:399] inception_5b/5x5_reduce -> inception_5b/5x5_reduce
I0403 15:07:56.985430 18299 net.cpp:141] Setting up inception_5b/5x5_reduce
I0403 15:07:56.985460 18299 net.cpp:148] Top shape: 24 48 7 7 (56448)
I0403 15:07:56.985477 18299 net.cpp:156] Memory required for data: 1334499360
I0403 15:07:56.985496 18299 layer_factory.hpp:77] Creating layer inception_5b/relu_5x5_reduce
I0403 15:07:56.985523 18299 net.cpp:91] Creating Layer inception_5b/relu_5x5_reduce
I0403 15:07:56.985539 18299 net.cpp:425] inception_5b/relu_5x5_reduce <- inception_5b/5x5_reduce
I0403 15:07:56.985560 18299 net.cpp:386] inception_5b/relu_5x5_reduce -> inception_5b/5x5_reduce (in-place)
I0403 15:07:56.985932 18299 net.cpp:141] Setting up inception_5b/relu_5x5_reduce
I0403 15:07:56.985960 18299 net.cpp:148] Top shape: 24 48 7 7 (56448)
I0403 15:07:56.985975 18299 net.cpp:156] Memory required for data: 1334725152
I0403 15:07:56.985996 18299 layer_factory.hpp:77] Creating layer inception_5b/5x5
I0403 15:07:56.986017 18299 net.cpp:91] Creating Layer inception_5b/5x5
I0403 15:07:56.986035 18299 net.cpp:425] inception_5b/5x5 <- inception_5b/5x5_reduce
I0403 15:07:56.986054 18299 net.cpp:399] inception_5b/5x5 -> inception_5b/5x5
I0403 15:07:56.988173 18299 net.cpp:141] Setting up inception_5b/5x5
I0403 15:07:56.988200 18299 net.cpp:148] Top shape: 24 128 7 7 (150528)
I0403 15:07:56.988215 18299 net.cpp:156] Memory required for data: 1335327264
I0403 15:07:56.988234 18299 layer_factory.hpp:77] Creating layer inception_5b/relu_5x5
I0403 15:07:56.988253 18299 net.cpp:91] Creating Layer inception_5b/relu_5x5
I0403 15:07:56.988270 18299 net.cpp:425] inception_5b/relu_5x5 <- inception_5b/5x5
I0403 15:07:56.988288 18299 net.cpp:386] inception_5b/relu_5x5 -> inception_5b/5x5 (in-place)
I0403 15:07:56.988492 18299 net.cpp:141] Setting up inception_5b/relu_5x5
I0403 15:07:56.988515 18299 net.cpp:148] Top shape: 24 128 7 7 (150528)
I0403 15:07:56.988529 18299 net.cpp:156] Memory required for data: 1335929376
I0403 15:07:56.988543 18299 layer_factory.hpp:77] Creating layer inception_5b/pool
I0403 15:07:56.988562 18299 net.cpp:91] Creating Layer inception_5b/pool
I0403 15:07:56.988579 18299 net.cpp:425] inception_5b/pool <- inception_5a/output_inception_5a/output_0_split_3
I0403 15:07:56.988597 18299 net.cpp:399] inception_5b/pool -> inception_5b/pool
I0403 15:07:56.988667 18299 net.cpp:141] Setting up inception_5b/pool
I0403 15:07:56.988690 18299 net.cpp:148] Top shape: 24 832 7 7 (978432)
I0403 15:07:56.988704 18299 net.cpp:156] Memory required for data: 1339843104
I0403 15:07:56.988718 18299 layer_factory.hpp:77] Creating layer inception_5b/pool_proj
I0403 15:07:56.988739 18299 net.cpp:91] Creating Layer inception_5b/pool_proj
I0403 15:07:56.988756 18299 net.cpp:425] inception_5b/pool_proj <- inception_5b/pool
I0403 15:07:56.988776 18299 net.cpp:399] inception_5b/pool_proj -> inception_5b/pool_proj
I0403 15:07:56.991078 18299 net.cpp:141] Setting up inception_5b/pool_proj
I0403 15:07:56.991109 18299 net.cpp:148] Top shape: 24 128 7 7 (150528)
I0403 15:07:56.991125 18299 net.cpp:156] Memory required for data: 1340445216
I0403 15:07:56.991143 18299 layer_factory.hpp:77] Creating layer inception_5b/relu_pool_proj
I0403 15:07:56.991161 18299 net.cpp:91] Creating Layer inception_5b/relu_pool_proj
I0403 15:07:56.991176 18299 net.cpp:425] inception_5b/relu_pool_proj <- inception_5b/pool_proj
I0403 15:07:56.991199 18299 net.cpp:386] inception_5b/relu_pool_proj -> inception_5b/pool_proj (in-place)
I0403 15:07:56.991525 18299 net.cpp:141] Setting up inception_5b/relu_pool_proj
I0403 15:07:56.991556 18299 net.cpp:148] Top shape: 24 128 7 7 (150528)
I0403 15:07:56.991574 18299 net.cpp:156] Memory required for data: 1341047328
I0403 15:07:56.991588 18299 layer_factory.hpp:77] Creating layer inception_5b/output
I0403 15:07:56.991606 18299 net.cpp:91] Creating Layer inception_5b/output
I0403 15:07:56.991638 18299 net.cpp:425] inception_5b/output <- inception_5b/1x1
I0403 15:07:56.991657 18299 net.cpp:425] inception_5b/output <- inception_5b/3x3
I0403 15:07:56.991674 18299 net.cpp:425] inception_5b/output <- inception_5b/5x5
I0403 15:07:56.991691 18299 net.cpp:425] inception_5b/output <- inception_5b/pool_proj
I0403 15:07:56.991709 18299 net.cpp:399] inception_5b/output -> inception_5b/output
I0403 15:07:56.991775 18299 net.cpp:141] Setting up inception_5b/output
I0403 15:07:56.991799 18299 net.cpp:148] Top shape: 24 1024 7 7 (1204224)
I0403 15:07:56.991813 18299 net.cpp:156] Memory required for data: 1345864224
I0403 15:07:56.991839 18299 layer_factory.hpp:77] Creating layer pool5/7x7_s1
I0403 15:07:56.991859 18299 net.cpp:91] Creating Layer pool5/7x7_s1
I0403 15:07:56.991875 18299 net.cpp:425] pool5/7x7_s1 <- inception_5b/output
I0403 15:07:56.991894 18299 net.cpp:399] pool5/7x7_s1 -> pool5/7x7_s1
I0403 15:07:56.992110 18299 net.cpp:141] Setting up pool5/7x7_s1
I0403 15:07:56.992137 18299 net.cpp:148] Top shape: 24 1024 1 1 (24576)
I0403 15:07:56.992153 18299 net.cpp:156] Memory required for data: 1345962528
I0403 15:07:56.992168 18299 layer_factory.hpp:77] Creating layer pool5/drop_7x7_s1
I0403 15:07:56.992185 18299 net.cpp:91] Creating Layer pool5/drop_7x7_s1
I0403 15:07:56.992202 18299 net.cpp:425] pool5/drop_7x7_s1 <- pool5/7x7_s1
I0403 15:07:56.992219 18299 net.cpp:386] pool5/drop_7x7_s1 -> pool5/7x7_s1 (in-place)
I0403 15:07:56.992269 18299 net.cpp:141] Setting up pool5/drop_7x7_s1
I0403 15:07:56.992290 18299 net.cpp:148] Top shape: 24 1024 1 1 (24576)
I0403 15:07:56.992305 18299 net.cpp:156] Memory required for data: 1346060832
I0403 15:07:56.992318 18299 layer_factory.hpp:77] Creating layer loss3/classifier_plantvillage
I0403 15:07:56.992341 18299 net.cpp:91] Creating Layer loss3/classifier_plantvillage
I0403 15:07:56.992357 18299 net.cpp:425] loss3/classifier_plantvillage <- pool5/7x7_s1
I0403 15:07:56.992377 18299 net.cpp:399] loss3/classifier_plantvillage -> loss3/classifier_plantvillage
I0403 15:07:56.992791 18299 net.cpp:141] Setting up loss3/classifier_plantvillage
I0403 15:07:56.992815 18299 net.cpp:148] Top shape: 24 38 (912)
I0403 15:07:56.992828 18299 net.cpp:156] Memory required for data: 1346064480
I0403 15:07:56.992846 18299 layer_factory.hpp:77] Creating layer loss3/classifier_plantvillage_loss3/classifier_plantvillage_0_split
I0403 15:07:56.992867 18299 net.cpp:91] Creating Layer loss3/classifier_plantvillage_loss3/classifier_plantvillage_0_split
I0403 15:07:56.992883 18299 net.cpp:425] loss3/classifier_plantvillage_loss3/classifier_plantvillage_0_split <- loss3/classifier_plantvillage
I0403 15:07:56.992900 18299 net.cpp:399] loss3/classifier_plantvillage_loss3/classifier_plantvillage_0_split -> loss3/classifier_plantvillage_loss3/classifier_plantvillage_0_split_0
I0403 15:07:56.992920 18299 net.cpp:399] loss3/classifier_plantvillage_loss3/classifier_plantvillage_0_split -> loss3/classifier_plantvillage_loss3/classifier_plantvillage_0_split_1
I0403 15:07:56.992939 18299 net.cpp:399] loss3/classifier_plantvillage_loss3/classifier_plantvillage_0_split -> loss3/classifier_plantvillage_loss3/classifier_plantvillage_0_split_2
I0403 15:07:56.992959 18299 net.cpp:399] loss3/classifier_plantvillage_loss3/classifier_plantvillage_0_split -> loss3/classifier_plantvillage_loss3/classifier_plantvillage_0_split_3
I0403 15:07:56.993062 18299 net.cpp:141] Setting up loss3/classifier_plantvillage_loss3/classifier_plantvillage_0_split
I0403 15:07:56.993085 18299 net.cpp:148] Top shape: 24 38 (912)
I0403 15:07:56.993101 18299 net.cpp:148] Top shape: 24 38 (912)
I0403 15:07:56.993116 18299 net.cpp:148] Top shape: 24 38 (912)
I0403 15:07:56.993131 18299 net.cpp:148] Top shape: 24 38 (912)
I0403 15:07:56.993145 18299 net.cpp:156] Memory required for data: 1346079072
I0403 15:07:56.993160 18299 layer_factory.hpp:77] Creating layer loss1/loss
I0403 15:07:56.993180 18299 net.cpp:91] Creating Layer loss1/loss
I0403 15:07:56.993197 18299 net.cpp:425] loss1/loss <- loss1/classifier_plantvillage_loss1/classifier_plantvillage_0_split_0
I0403 15:07:56.993227 18299 net.cpp:425] loss1/loss <- label_data_1_split_0
…
