…
I0403 15:36:43.159399 20081 net.cpp:313] The NetState phase (1) differed from the phase (0) specified by a rule in layer data
I0403 15:36:43.160607 20081 net.cpp:49] Initializing net from parameters: 
state {
  phase: TEST
}
layer {
  name: "data"
  type: "Data"
  top: "data"
  top: "label"
  include {
    phase: TEST
  }
  transform_param {
    mirror: false
    crop_size: 224
    mean_file: "/home/mohanty/data/final_dataset/lmdb/grayscale-40-60/mean.binaryproto"
  }
  data_param {
    source: "/home/mohanty/data/final_dataset/lmdb/grayscale-40-60/test_db"
    batch_size: 24
    backend: LMDB
  }
}
layer {
  name: "conv1/7x7_s2"
  type: "Convolution"
  bottom: "data"
  top: "conv1/7x7_s2"
  param {
    lr_mult: 1
    decay_mult: 1
  }
  param {
    lr_mult: 2
    decay_mult: 0
  }
  convolution_param {
    num_output: 64
    pad: 3
    kernel_size: 7
    stride: 2
    weight_filler {
      type: "xavier"
      std: 0.1
    }
    bias_filler {
      type: "constant"
      value: 0.2
    }
  }
}
layer {
  name: "conv1/relu_7x7"
  type: "ReLU"
  bottom: "conv1/7x7_s2"
  top: "conv1/7x7_s2"
}
layer {
  name: "pool1/3x3_s2"
  type: "Pooling"
  bottom: "conv1/7x7_s2"
  top: "pool1/3x3_s2"
  pooling_param {
    pool: MAX
    kernel_size: 3
    stride: 2
  }
}
layer {
  name: "pool1/norm1"
  type: "LRN"
  bottom: "pool1/3x3_s2"
  top: "pool1/norm1"
  lrn_param {
    local_size: 5
    alpha: 0.0001
    beta: 0.75
  }
}
layer {
  name: "conv2/3x3_reduce"
  type: "Convolution"
  bottom: "pool1/norm1"
  top: "conv2/3x3_reduce"
  param {
    lr_mult: 1
    decay_mult: 1
  }
  param {
    lr_mult: 2
    decay_mult: 0
  }
  convolution_param {
    num_output: 64
    kernel_size: 1
    weight_filler {
      type: "xavier"
      std: 0.1
    }
    bias_filler {
      type: "constant"
      value: 0.2
    }
  }
}
layer {
  name: "conv2/relu_3x3_reduce"
  type: "ReLU"
  bottom: "conv2/3x3_reduce"
  top: "conv2/3x3_reduce"
}
layer {
  name: "conv2/3x3"
  type: "Convolution"
  bottom: "conv2/3x3_reduce"
  top: "conv2/3x3"
  param {
    lr_mult: 1
    decay_mult: 1
  }
  param {
    lr_mult: 2
    decay_mult: 0
  }
  convolution_param {
    num_output: 192
    pad: 1
    kernel_size: 3
    weight_filler {
      type: "xavier"
      std: 0.03
    }
    bias_filler {
      type: "constant"
      value: 0.2
    }
  }
}
layer {
  name: "conv2/relu_3x3"
  type: "ReLU"
  bottom: "conv2/3x3"
  top: "conv2/3x3"
}
layer {
  name: "conv2/norm2"
  type: "LRN"
  bottom: "conv2/3x3"
  top: "conv2/norm2"
  lrn_param {
    local_size: 5
    alpha: 0.0001
    beta: 0.75
  }
}
layer {
  name: "pool2/3x3_s2"
  type: "Pooling"
  bottom: "conv2/norm2"
  top: "pool2/3x3_s2"
  pooling_param {
    pool: MAX
    kernel_size: 3
    stride: 2
  }
}
layer {
  name: "inception_3a/1x1"
  type: "Convolution"
  bottom: "pool2/3x3_s2"
  top: "inception_3a/1x1"
  param {
    lr_mult: 1
    decay_mult: 1
  }
  param {
    lr_mult: 2
    decay_mult: 0
  }
  convolution_param {
    num_output: 64
    kernel_size: 1
    weight_filler {
      type: "xavier"
      std: 0.03
    }
    bias_filler {
      type: "constant"
      value: 0.2
    }
  }
}
layer {
  name: "inception_3a/relu_1x1"
  type: "ReLU"
  bottom: "inception_3a/1x1"
  top: "inception_3a/1x1"
}
layer {
  name: "inception_3a/3x3_reduce"
  type: "Convolution"
  bottom: "pool2/3x3_s2"
  top: "inception_3a/3x3_reduce"
  param {
    lr_mult: 1
    decay_mult: 1
  }
  param {
    lr_mult: 2
    decay_mult: 0
  }
  convolution_param {
    num_output: 96
    kernel_size: 1
    weight_filler {
      type: "xavier"
      std: 0.09
    }
    bias_filler {
      type: "constant"
      value: 0.2
    }
  }
}
layer {
  name: "inception_3a/relu_3x3_reduce"
  type: "ReLU"
  bottom: "inception_3a/3x3_reduce"
  top: "inception_3a/3x3_reduce"
}
layer {
  name: "inception_3a/3x3"
  type: "Convolution"
  bottom: "inception_3a/3x3_reduce"
  top: "inception_3a/3x3"
  param {
    lr_mult: 1
    decay_mult: 1
  }
  param {
    lr_mult: 2
    decay_mult: 0
  }
  convolution_param {
    num_output: 128
    pad: 1
    kernel_size: 3
    weight_filler {
      type: "xavier"
      std: 0.03
    }
    bias_filler {
      type: "constant"
      value: 0.2
    }
  }
}
layer {
  name: "inception_3a/relu_3x3"
  type: "ReLU"
  bottom: "inception_3a/3x3"
  top: "inception_3a/3x3"
}
layer {
  name: "inception_3a/5x5_reduce"
  type: "Convolution"
  bottom: "pool2/3x3_s2"
  top: "inception_3a/5x5_reduce"
  param {
    lr_mult: 1
    decay_mult: 1
  }
  param {
    lr_mult: 2
    decay_mult: 0
  }
  convolution_param {
    num_output: 16
    kernel_size: 1
    weight_filler {
      type: "xavier"
      std: 0.2
    }
    bias_filler {
      type: "constant"
      value: 0.2
    }
  }
}
layer {
  name: "inception_3a/relu_5x5_reduce"
  type: "ReLU"
  bottom: "inception_3a/5x5_reduce"
  top: "inception_3a/5x5_reduce"
}
layer {
  name: "inception_3a/5x5"
  type: "Convolution"
  bottom: "inception_3a/5x5_reduce"
  top: "inception_3a/5x5"
  param {
    lr_mult: 1
    decay_mult: 1
  }
  param {
    lr_mult: 2
    decay_mult: 0
  }
  convolution_param {
    num_output: 32
    pad: 2
    kernel_size: 5
    weight_filler {
      type: "xavier"
      std: 0.03
    }
    bias_filler {
      type: "constant"
      value: 0.2
    }
  }
}
layer {
  name: "inception_3a/relu_5x5"
  type: "ReLU"
  bottom: "inception_3a/5x5"
  top: "inception_3a/5x5"
}
layer {
  name: "inception_3a/pool"
  type: "Pooling"
  bottom: "pool2/3x3_s2"
  top: "inception_3a/pool"
  pooling_param {
    pool: MAX
    kernel_size: 3
    stride: 1
    pad: 1
  }
}
layer {
  name: "inception_3a/pool_proj"
  type: "Convolution"
  bottom: "inception_3a/pool"
  top: "inception_3a/pool_proj"
  param {
    lr_mult: 1
    decay_mult: 1
  }
  param {
    lr_mult: 2
    decay_mult: 0
  }
  convolution_param {
    num_output: 32
    kernel_size: 1
    weight_filler {
      type: "xavier"
      std: 0.1
    }
    bias_filler {
      type: "constant"
      value: 0.2
    }
  }
}
layer {
  name: "inception_3a/relu_pool_proj"
  type: "ReLU"
  bottom: "inception_3a/pool_proj"
  top: "inception_3a/pool_proj"
}
layer {
  name: "inception_3a/output"
  type: "Concat"
  bottom: "inception_3a/1x1"
  bottom: "inception_3a/3x3"
  bottom: "inception_3a/5x5"
  bottom: "inception_3a/pool_proj"
  top: "inception_3a/output"
}
layer {
  name: "inception_3b/1x1"
  type: "Convolution"
  bottom: "inception_3a/output"
  top: "inception_3b/1x1"
  param {
    lr_mult: 1
    decay_mult: 1
  }
  param {
    lr_mult: 2
    decay_mult: 0
  }
  convolution_param {
    num_output: 128
    kernel_size: 1
    weight_filler {
      type: "xavier"
      std: 0.03
    }
    bias_filler {
      type: "constant"
      value: 0.2
    }
  }
}
layer {
  name: "inception_3b/relu_1x1"
  type: "ReLU"
  bottom: "inception_3b/1x1"
  top: "inception_3b/1x1"
}
layer {
  name: "inception_3b/3x3_reduce"
  type: "Convolution"
  bottom: "inception_3a/output"
  top: "inception_3b/3x3_reduce"
  param {
    lr_mult: 1
    decay_mult: 1
  }
  param {
    lr_mult: 2
    decay_mult: 0
  }
  convolution_param {
    num_output: 128
    kernel_size: 1
    weight_filler {
      type: "xavier"
      std: 0.09
    }
    bias_filler {
      type: "constant"
      value: 0.2
    }
  }
}
layer {
  name: "inception_3b/relu_3x3_reduce"
  type: "ReLU"
  bottom: "inception_3b/3x3_reduce"
  top: "inception_3b/3x3_reduce"
}
layer {
  name: "inception_3b/3x3"
  type: "Convolution"
  bottom: "inception_3b/3x3_reduce"
  top: "inception_3b/3x3"
  param {
    lr_mult: 1
    decay_mult: 1
  }
  param {
    lr_mult: 2
    decay_mult: 0
  }
  convolution_param {
    num_output: 192
    pad: 1
    kernel_size: 3
    weight_filler {
      type: "xavier"
      std: 0.03
    }
    bias_filler {
      type: "constant"
      value: 0.2
    }
  }
}
layer {
  name: "inception_3b/relu_3x3"
  type: "ReLU"
  bottom: "inception_3b/3x3"
  top: "inception_3b/3x3"
}
layer {
  name: "inception_3b/5x5_reduce"
  type: "Convolution"
  bottom: "inception_3a/output"
  top: "inception_3b/5x5_reduce"
  param {
    lr_mult: 1
    decay_mult: 1
  }
  param {
    lr_mult: 2
    decay_mult: 0
  }
  convolution_param {
    num_output: 32
    kernel_size: 1
    weight_filler {
      type: "xavier"
      std: 0.2
    }
    bias_filler {
      type: "constant"
      value: 0.2
    }
  }
}
layer {
  name: "inception_3b/relu_5x5_reduce"
  type: "ReLU"
  bottom: "inception_3b/5x5_reduce"
  top: "inception_3b/5x5_reduce"
}
layer {
  name: "inception_3b/5x5"
  type: "Convolution"
  bottom: "inception_3b/5x5_reduce"
  top: "inception_3b/5x5"
  param {
    lr_mult: 1
    decay_mult: 1
  }
  param {
    lr_mult: 2
    decay_mult: 0
  }
  convolution_param {
    num_output: 96
    pad: 2
    kernel_size: 5
    weight_filler {
      type: "xavier"
      std: 0.03
    }
    bias_filler {
      type: "constant"
      value: 0.2
    }
  }
}
layer {
  name: "inception_3b/relu_5x5"
  type: "ReLU"
  bottom: "inception_3b/5x5"
  top: "inception_3b/5x5"
}
layer {
  name: "inception_3b/pool"
  type: "Pooling"
  bottom: "inception_3a/output"
  top: "inception_3b/pool"
  pooling_param {
    pool: MAX
    kernel_size: 3
    stride: 1
    pad: 1
  }
}
layer {
  name: "inception_3b/pool_proj"
  type: "Convolution"
  bottom: "inception_3b/pool"
  top: "inception_3b/pool_proj"
  param {
    lr_mult: 1
    decay_mult: 1
  }
  param {
    lr_mult: 2
    decay_mult: 0
  }
  convolution_param {
    num_output: 64
    kernel_size: 1
    weight_filler {
      type: "xavier"
      std: 0.1
    }
    bias_filler {
      type: "constant"
      value: 0.2
    }
  }
}
layer {
  name: "inception_3b/relu_pool_proj"
  type: "ReLU"
  bottom: "inception_3b/pool_proj"
  top: "inception_3b/pool_proj"
}
layer {
  name: "inception_3b/output"
  type: "Concat"
  bottom: "inception_3b/1x1"
  bottom: "inception_3b/3x3"
  bottom: "inception_3b/5x5"
  bottom: "inception_3b/pool_proj"
  top: "inception_3b/output"
}
layer {
  name: "pool3/3x3_s2"
  type: "Pooling"
  bottom: "inception_3b/output"
  top: "pool3/3x3_s2"
  pooling_param {
    pool: MAX
    kernel_size: 3
    stride: 2
  }
}
layer {
  name: "inception_4a/1x1"
  type: "Convolution"
  bottom: "pool3/3x3_s2"
  top: "inception_4a/1x1"
  param {
    lr_mult: 1
    decay_mult: 1
  }
  param {
    lr_mult: 2
    decay_mult: 0
  }
  convolution_param {
    num_output: 192
    kernel_size: 1
    weight_filler {
      type: "xavier"
      std: 0.03
    }
    bias_filler {
      type: "constant"
      value: 0.2
    }
  }
}
layer {
  name: "inception_4a/relu_1x1"
  type: "ReLU"
  bottom: "inception_4a/1x1"
  top: "inception_4a/1x1"
}
layer {
  name: "inception_4a/3x3_reduce"
  type: "Convolution"
  bottom: "pool3/3x3_s2"
  top: "inception_4a/3x3_reduce"
  param {
    lr_mult: 1
    decay_mult: 1
  }
  param {
    lr_mult: 2
    decay_mult: 0
  }
  convolution_param {
    num_output: 96
    kernel_size: 1
    weight_filler {
      type: "xavier"
      std: 0.09
    }
    bias_filler {
      type: "constant"
      value: 0.2
    }
  }
}
layer {
  name: "inception_4a/relu_3x3_reduce"
  type: "ReLU"
  bottom: "inception_4a/3x3_reduce"
  top: "inception_4a/3x3_reduce"
}
layer {
  name: "inception_4a/3x3"
  type: "Convolution"
  bottom: "inception_4a/3x3_reduce"
  top: "inception_4a/3x3"
  param {
    lr_mult: 1
    decay_mult: 1
  }
  param {
    lr_mult: 2
    decay_mult: 0
  }
  convolution_param {
    num_output: 208
    pad: 1
    kernel_size: 3
    weight_filler {
      type: "xavier"
      std: 0.03
    }
    bias_filler {
      type: "constant"
      value: 0.2
    }
  }
}
layer {
  name: "inception_4a/relu_3x3"
  type: "ReLU"
  bottom: "inception_4a/3x3"
  top: "inception_4a/3x3"
}
layer {
  name: "inception_4a/5x5_reduce"
  type: "Convolution"
  bottom: "pool3/3x3_s2"
  top: "inception_4a/5x5_reduce"
  param {
    lr_mult: 1
    decay_mult: 1
  }
  param {
    lr_mult: 2
    decay_mult: 0
  }
  convolution_param {
    num_output: 16
    kernel_size: 1
    weight_filler {
      type: "xavier"
      std: 0.2
    }
    bias_filler {
      type: "constant"
      value: 0.2
    }
  }
}
layer {
  name: "inception_4a/relu_5x5_reduce"
  type: "ReLU"
  bottom: "inception_4a/5x5_reduce"
  top: "inception_4a/5x5_reduce"
}
layer {
  name: "inception_4a/5x5"
  type: "Convolution"
  bottom: "inception_4a/5x5_reduce"
  top: "inception_4a/5x5"
  param {
    lr_mult: 1
    decay_mult: 1
  }
  param {
    lr_mult: 2
    decay_mult: 0
  }
  convolution_param {
    num_output: 48
    pad: 2
    kernel_size: 5
    weight_filler {
      type: "xavier"
      std: 0.03
    }
    bias_filler {
      type: "constant"
      value: 0.2
    }
  }
}
layer {
  name: "inception_4a/relu_5x5"
  type: "ReLU"
  bottom: "inception_4a/5x5"
  top: "inception_4a/5x5"
}
layer {
  name: "inception_4a/pool"
  type: "Pooling"
  bottom: "pool3/3x3_s2"
  top: "inception_4a/pool"
  pooling_param {
    pool: MAX
    kernel_size: 3
    stride: 1
    pad: 1
  }
}
layer {
  name: "inception_4a/pool_proj"
  type: "Convolution"
  bottom: "inception_4a/pool"
  top: "inception_4a/pool_proj"
  param {
    lr_mult: 1
    decay_mult: 1
  }
  param {
    lr_mult: 2
    decay_mult: 0
  }
  convolution_param {
    num_output: 64
    kernel_size: 1
    weight_filler {
      type: "xavier"
      std: 0.1
    }
    bias_filler {
      type: "constant"
      value: 0.2
    }
  }
}
layer {
  name: "inception_4a/relu_pool_proj"
  type: "ReLU"
  bottom: "inception_4a/pool_proj"
  top: "inception_4a/pool_proj"
}
layer {
  name: "inception_4a/output"
  type: "Concat"
  bottom: "inception_4a/1x1"
  bottom: "inception_4a/3x3"
  bottom: "inception_4a/5x5"
  bottom: "inception_4a/pool_proj"
  top: "inception_4a/output"
}
layer {
  name: "loss1/ave_pool"
  type: "Pooling"
  bottom: "inception_4a/output"
  top: "loss1/ave_pool"
  pooling_param {
    pool: AVE
    kernel_size: 5
    stride: 3
  }
}
layer {
  name: "loss1/conv"
  type: "Convolution"
  bottom: "loss1/ave_pool"
  top: "loss1/conv"
  param {
    lr_mult: 1
    decay_mult: 1
  }
  param {
    lr_mult: 2
    decay_mult: 0
  }
  convolution_param {
    num_output: 128
    kernel_size: 1
    weight_filler {
      type: "xavier"
      std: 0.08
    }
    bias_filler {
      type: "constant"
      value: 0.2
    }
  }
}
layer {
  name: "loss1/relu_conv"
  type: "ReLU"
  bottom: "loss1/conv"
  top: "loss1/conv"
}
layer {
  name: "loss1/fc"
  type: "InnerProduct"
  bottom: "loss1/conv"
  top: "loss1/fc"
  param {
    lr_mult: 1
    decay_mult: 1
  }
  param {
    lr_mult: 2
    decay_mult: 0
  }
  inner_product_param {
    num_output: 1024
    weight_filler {
      type: "xavier"
      std: 0.02
    }
    bias_filler {
      type: "constant"
      value: 0.2
    }
  }
}
layer {
  name: "loss1/relu_fc"
  type: "ReLU"
  bottom: "loss1/fc"
  top: "loss1/fc"
}
layer {
  name: "loss1/drop_fc"
  type: "Dropout"
  bottom: "loss1/fc"
  top: "loss1/fc"
  dropout_param {
    dropout_ratio: 0.7
  }
}
layer {
  name: "loss1/classifier_plantvillage"
  type: "InnerProduct"
  bottom: "loss1/fc"
  top: "loss1/classifier_plantvillage"
  param {
    lr_mult: 1
    decay_mult: 1
  }
  param {
    lr_mult: 2
    decay_mult: 0
  }
  inner_product_param {
    num_output: 38
    weight_filler {
      type: "xavier"
      std: 0.0009765625
    }
    bias_filler {
      type: "constant"
      value: 0
    }
  }
}
layer {
  name: "inception_4b/1x1"
  type: "Convolution"
  bottom: "inception_4a/output"
  top: "inception_4b/1x1"
  param {
    lr_mult: 1
    decay_mult: 1
  }
  param {
    lr_mult: 2
    decay_mult: 0
  }
  convolution_param {
    num_output: 160
    kernel_size: 1
    weight_filler {
      type: "xavier"
      std: 0.03
    }
    bias_filler {
      type: "constant"
      value: 0.2
    }
  }
}
layer {
  name: "inception_4b/relu_1x1"
  type: "ReLU"
  bottom: "inception_4b/1x1"
  top: "inception_4b/1x1"
}
layer {
  name: "inception_4b/3x3_reduce"
  type: "Convolution"
  bottom: "inception_4a/output"
  top: "inception_4b/3x3_reduce"
  param {
    lr_mult: 1
    decay_mult: 1
  }
  param {
    lr_mult: 2
    decay_mult: 0
  }
  convolution_param {
    num_output: 112
    kernel_size: 1
    weight_filler {
      type: "xavier"
      std: 0.09
    }
    bias_filler {
      type: "constant"
      value: 0.2
    }
  }
}
layer {
  name: "inception_4b/relu_3x3_reduce"
  type: "ReLU"
  bottom: "inception_4b/3x3_reduce"
  top: "inception_4b/3x3_reduce"
}
layer {
  name: "inception_4b/3x3"
  type: "Convolution"
  bottom: "inception_4b/3x3_reduce"
  top: "inception_4b/3x3"
  param {
    lr_mult: 1
    decay_mult: 1
  }
  param {
    lr_mult: 2
    decay_mult: 0
  }
  convolution_param {
    num_output: 224
    pad: 1
    kernel_size: 3
    weight_filler {
      type: "xavier"
      std: 0.03
    }
    bias_filler {
      type: "constant"
      value: 0.2
    }
  }
}
layer {
  name: "inception_4b/relu_3x3"
  type: "ReLU"
  bottom: "inception_4b/3x3"
  top: "inception_4b/3x3"
}
layer {
  name: "inception_4b/5x5_reduce"
  type: "Convolution"
  bottom: "inception_4a/output"
  top: "inception_4b/5x5_reduce"
  param {
    lr_mult: 1
    decay_mult: 1
  }
  param {
    lr_mult: 2
    decay_mult: 0
  }
  convolution_param {
    num_output: 24
    kernel_size: 1
    weight_filler {
      type: "xavier"
      std: 0.2
    }
    bias_filler {
      type: "constant"
      value: 0.2
    }
  }
}
layer {
  name: "inception_4b/relu_5x5_reduce"
  type: "ReLU"
  bottom: "inception_4b/5x5_reduce"
  top: "inception_4b/5x5_reduce"
}
layer {
  name: "inception_4b/5x5"
  type: "Convolution"
  bottom: "inception_4b/5x5_reduce"
  top: "inception_4b/5x5"
  param {
    lr_mult: 1
    decay_mult: 1
  }
  param {
    lr_mult: 2
    decay_mult: 0
  }
  convolution_param {
    num_output: 64
    pad: 2
    kernel_size: 5
    weight_filler {
      type: "xavier"
      std: 0.03
    }
    bias_filler {
      type: "constant"
      value: 0.2
    }
  }
}
layer {
  name: "inception_4b/relu_5x5"
  type: "ReLU"
  bottom: "inception_4b/5x5"
  top: "inception_4b/5x5"
}
layer {
  name: "inception_4b/pool"
  type: "Pooling"
  bottom: "inception_4a/output"
  top: "inception_4b/pool"
  pooling_param {
    pool: MAX
    kernel_size: 3
    stride: 1
    pad: 1
  }
}
layer {
  name: "inception_4b/pool_proj"
  type: "Convolution"
  bottom: "inception_4b/pool"
  top: "inception_4b/pool_proj"
  param {
    lr_mult: 1
    decay_mult: 1
  }
  param {
    lr_mult: 2
    decay_mult: 0
  }
  convolution_param {
    num_output: 64
    kernel_size: 1
    weight_filler {
      type: "xavier"
      std: 0.1
    }
    bias_filler {
      type: "constant"
      value: 0.2
    }
  }
}
layer {
  name: "inception_4b/relu_pool_proj"
  type: "ReLU"
  bottom: "inception_4b/pool_proj"
  top: "inception_4b/pool_proj"
}
layer {
  name: "inception_4b/output"
  type: "Concat"
  bottom: "inception_4b/1x1"
  bottom: "inception_4b/3x3"
  bottom: "inception_4b/5x5"
  bottom: "inception_4b/pool_proj"
  top: "inception_4b/output"
}
layer {
  name: "inception_4c/1x1"
  type: "Convolution"
  bottom: "inception_4b/output"
  top: "inception_4c/1x1"
  param {
    lr_mult: 1
    decay_mult: 1
  }
  param {
    lr_mult: 2
    decay_mult: 0
  }
  convolution_param {
    num_output: 128
    kernel_size: 1
    weight_filler {
      type: "xavier"
      std: 0.03
    }
    bias_filler {
      type: "constant"
      value: 0.2
    }
  }
}
layer {
  name: "inception_4c/relu_1x1"
  type: "ReLU"
  bottom: "inception_4c/1x1"
  top: "inception_4c/1x1"
}
layer {
  name: "inception_4c/3x3_reduce"
  type: "Convolution"
  bottom: "inception_4b/output"
  top: "inception_4c/3x3_reduce"
  param {
    lr_mult: 1
    decay_mult: 1
  }
  param {
    lr_mult: 2
    decay_mult: 0
  }
  convolution_param {
    num_output: 128
    kernel_size: 1
    weight_filler {
      type: "xavier"
      std: 0.09
    }
    bias_filler {
      type: "constant"
      value: 0.2
    }
  }
}
layer {
  name: "inception_4c/relu_3x3_reduce"
  type: "ReLU"
  bottom: "inception_4c/3x3_reduce"
  top: "inception_4c/3x3_reduce"
}
layer {
  name: "inception_4c/3x3"
  type: "Convolution"
  bottom: "inception_4c/3x3_reduce"
  top: "inception_4c/3x3"
  param {
    lr_mult: 1
    decay_mult: 1
  }
  param {
    lr_mult: 2
    decay_mult: 0
  }
  convolution_param {
    num_output: 256
    pad: 1
    kernel_size: 3
    weight_filler {
      type: "xavier"
      std: 0.03
    }
    bias_filler {
      type: "constant"
      value: 0.2
    }
  }
}
layer {
  name: "inception_4c/relu_3x3"
  type: "ReLU"
  bottom: "inception_4c/3x3"
  top: "inception_4c/3x3"
}
layer {
  name: "inception_4c/5x5_reduce"
  type: "Convolution"
  bottom: "inception_4b/output"
  top: "inception_4c/5x5_reduce"
  param {
    lr_mult: 1
    decay_mult: 1
  }
  param {
    lr_mult: 2
    decay_mult: 0
  }
  convolution_param {
    num_output: 24
    kernel_size: 1
    weight_filler {
      type: "xavier"
      std: 0.2
    }
    bias_filler {
      type: "constant"
      value: 0.2
    }
  }
}
layer {
  name: "inception_4c/relu_5x5_reduce"
  type: "ReLU"
  bottom: "inception_4c/5x5_reduce"
  top: "inception_4c/5x5_reduce"
}
layer {
  name: "inception_4c/5x5"
  type: "Convolution"
  bottom: "inception_4c/5x5_reduce"
  top: "inception_4c/5x5"
  param {
    lr_mult: 1
    decay_mult: 1
  }
  param {
    lr_mult: 2
    decay_mult: 0
  }
  convolution_param {
    num_output: 64
    pad: 2
    kernel_size: 5
    weight_filler {
      type: "xavier"
      std: 0.03
    }
    bias_filler {
      type: "constant"
      value: 0.2
    }
  }
}
layer {
  name: "inception_4c/relu_5x5"
  type: "ReLU"
  bottom: "inception_4c/5x5"
  top: "inception_4c/5x5"
}
layer {
  name: "inception_4c/pool"
  type: "Pooling"
  bottom: "inception_4b/output"
  top: "inception_4c/pool"
  pooling_param {
    pool: MAX
    kernel_size: 3
    stride: 1
    pad: 1
  }
}
layer {
  name: "inception_4c/pool_proj"
  type: "Convolution"
  bottom: "inception_4c/pool"
  top: "inception_4c/pool_proj"
  param {
    lr_mult: 1
    decay_mult: 1
  }
  param {
    lr_mult: 2
    decay_mult: 0
  }
  convolution_param {
    num_output: 64
    kernel_size: 1
    weight_filler {
      type: "xavier"
      std: 0.1
    }
    bias_filler {
      type: "constant"
      value: 0.2
    }
  }
}
layer {
  name: "inception_4c/relu_pool_proj"
  type: "ReLU"
  bottom: "inception_4c/pool_proj"
  top: "inception_4c/pool_proj"
}
layer {
  name: "inception_4c/output"
  type: "Concat"
  bottom: "inception_4c/1x1"
  bottom: "inception_4c/3x3"
  bottom: "inception_4c/5x5"
  bottom: "inception_4c/pool_proj"
  top: "inception_4c/output"
}
layer {
  name: "inception_4d/1x1"
  type: "Convolution"
  bottom: "inception_4c/output"
  top: "inception_4d/1x1"
  param {
    lr_mult: 1
    decay_mult: 1
  }
  param {
    lr_mult: 2
    decay_mult: 0
  }
  convolution_param {
    num_output: 112
    kernel_size: 1
    weight_filler {
      type: "xavier"
      std: 0.03
    }
    bias_filler {
      type: "constant"
      value: 0.2
    }
  }
}
layer {
  name: "inception_4d/relu_1x1"
  type: "ReLU"
  bottom: "inception_4d/1x1"
  top: "inception_4d/1x1"
}
layer {
  name: "inception_4d/3x3_reduce"
  type: "Convolution"
  bottom: "inception_4c/output"
  top: "inception_4d/3x3_reduce"
  param {
    lr_mult: 1
    decay_mult: 1
  }
  param {
    lr_mult: 2
    decay_mult: 0
  }
  convolution_param {
    num_output: 144
    kernel_size: 1
    weight_filler {
      type: "xavier"
      std: 0.09
    }
    bias_filler {
      type: "constant"
      value: 0.2
    }
  }
}
layer {
  name: "inception_4d/relu_3x3_reduce"
  type: "ReLU"
  bottom: "inception_4d/3x3_reduce"
  top: "inception_4d/3x3_reduce"
}
layer {
  name: "inception_4d/3x3"
  type: "Convolution"
  bottom: "inception_4d/3x3_reduce"
  top: "inception_4d/3x3"
  param {
    lr_mult: 1
    decay_mult: 1
  }
  param {
    lr_mult: 2
    decay_mult: 0
  }
  convolution_param {
    num_output: 288
    pad: 1
    kernel_size: 3
    weight_filler {
      type: "xavier"
      std: 0.03
    }
    bias_filler {
      type: "constant"
      value: 0.2
    }
  }
}
layer {
  name: "inception_4d/relu_3x3"
  type: "ReLU"
  bottom: "inception_4d/3x3"
  top: "inception_4d/3x3"
}
layer {
  name: "inception_4d/5x5_reduce"
  type: "Convolution"
  bottom: "inception_4c/output"
  top: "inception_4d/5x5_reduce"
  param {
    lr_mult: 1
    decay_mult: 1
  }
  param {
    lr_mult: 2
    decay_mult: 0
  }
  convolution_param {
    num_output: 32
    kernel_size: 1
    weight_filler {
      type: "xavier"
      std: 0.2
    }
    bias_filler {
      type: "constant"
      value: 0.2
    }
  }
}
layer {
  name: "inception_4d/relu_5x5_reduce"
  type: "ReLU"
  bottom: "inception_4d/5x5_reduce"
  top: "inception_4d/5x5_reduce"
}
layer {
  name: "inception_4d/5x5"
  type: "Convolution"
  bottom: "inception_4d/5x5_reduce"
  top: "inception_4d/5x5"
  param {
    lr_mult: 1
    decay_mult: 1
  }
  param {
    lr_mult: 2
    decay_mult: 0
  }
  convolution_param {
    num_output: 64
    pad: 2
    kernel_size: 5
    weight_filler {
      type: "xavier"
      std: 0.03
    }
    bias_filler {
      type: "constant"
      value: 0.2
    }
  }
}
layer {
  name: "inception_4d/relu_5x5"
  type: "ReLU"
  bottom: "inception_4d/5x5"
  top: "inception_4d/5x5"
}
layer {
  name: "inception_4d/pool"
  type: "Pooling"
  bottom: "inception_4c/output"
  top: "inception_4d/pool"
  pooling_param {
    pool: MAX
    kernel_size: 3
    stride: 1
    pad: 1
  }
}
layer {
  name: "inception_4d/pool_proj"
  type: "Convolution"
  bottom: "inception_4d/pool"
  top: "inception_4d/pool_proj"
  param {
    lr_mult: 1
    decay_mult: 1
  }
  param {
    lr_mult: 2
    decay_mult: 0
  }
  convolution_param {
    num_output: 64
    kernel_size: 1
    weight_filler {
      type: "xavier"
      std: 0.1
    }
    bias_filler {
      type: "constant"
      value: 0.2
    }
  }
}
layer {
  name: "inception_4d/relu_pool_proj"
  type: "ReLU"
  bottom: "inception_4d/pool_proj"
  top: "inception_4d/pool_proj"
}
layer {
  name: "inception_4d/output"
  type: "Concat"
  bottom: "inception_4d/1x1"
  bottom: "inception_4d/3x3"
  bottom: "inception_4d/5x5"
  bottom: "inception_4d/pool_proj"
  top: "inception_4d/output"
}
layer {
  name: "loss2/ave_pool"
  type: "Pooling"
  bottom: "inception_4d/output"
  top: "loss2/ave_pool"
  pooling_param {
    pool: AVE
    kernel_size: 5
    stride: 3
  }
}
layer {
  name: "loss2/conv"
  type: "Convolution"
  bottom: "loss2/ave_pool"
  top: "loss2/conv"
  param {
    lr_mult: 1
    decay_mult: 1
  }
  param {
    lr_mult: 2
    decay_mult: 0
  }
  convolution_param {
    num_output: 128
    kernel_size: 1
    weight_filler {
      type: "xavier"
      std: 0.08
    }
    bias_filler {
      type: "constant"
      value: 0.2
    }
  }
}
layer {
  name: "loss2/relu_conv"
  type: "ReLU"
  bottom: "loss2/conv"
  top: "loss2/conv"
}
layer {
  name: "loss2/fc"
  type: "InnerProduct"
  bottom: "loss2/conv"
  top: "loss2/fc"
  param {
    lr_mult: 1
    decay_mult: 1
  }
  param {
    lr_mult: 2
    decay_mult: 0
  }
  inner_product_param {
    num_output: 1024
    weight_filler {
      type: "xavier"
      std: 0.02
    }
    bias_filler {
      type: "constant"
      value: 0.2
    }
  }
}
layer {
  name: "loss2/relu_fc"
  type: "ReLU"
  bottom: "loss2/fc"
  top: "loss2/fc"
}
layer {
  name: "loss2/drop_fc"
  type: "Dropout"
  bottom: "loss2/fc"
  top: "loss2/fc"
  dropout_param {
    dropout_ratio: 0.7
  }
}
layer {
  name: "loss2/classifier_plantvillage"
  type: "InnerProduct"
  bottom: "loss2/fc"
  top: "loss2/classifier_plantvillage"
  param {
    lr_mult: 1
    decay_mult: 1
  }
  param {
    lr_mult: 2
    decay_mult: 0
  }
  inner_product_param {
    num_output: 38
    weight_filler {
      type: "xavier"
      std: 0.0009765625
    }
    bias_filler {
      type: "constant"
      value: 0
    }
  }
}
layer {
  name: "inception_4e/1x1"
  type: "Convolution"
  bottom: "inception_4d/output"
  top: "inception_4e/1x1"
  param {
    lr_mult: 1
    decay_mult: 1
  }
  param {
    lr_mult: 2
    decay_mult: 0
  }
  convolution_param {
    num_output: 256
    kernel_size: 1
    weight_filler {
      type: "xavier"
      std: 0.03
    }
    bias_filler {
      type: "constant"
      value: 0.2
    }
  }
}
layer {
  name: "inception_4e/relu_1x1"
  type: "ReLU"
  bottom: "inception_4e/1x1"
  top: "inception_4e/1x1"
}
layer {
  name: "inception_4e/3x3_reduce"
  type: "Convolution"
  bottom: "inception_4d/output"
  top: "inception_4e/3x3_reduce"
  param {
    lr_mult: 1
    decay_mult: 1
  }
  param {
    lr_mult: 2
    decay_mult: 0
  }
  convolution_param {
    num_output: 160
    kernel_size: 1
    weight_filler {
      type: "xavier"
      std: 0.09
    }
    bias_filler {
      type: "constant"
      value: 0.2
    }
  }
}
layer {
  name: "inception_4e/relu_3x3_reduce"
  type: "ReLU"
  bottom: "inception_4e/3x3_reduce"
  top: "inception_4e/3x3_reduce"
}
layer {
  name: "inception_4e/3x3"
  type: "Convolution"
  bottom: "inception_4e/3x3_reduce"
  top: "inception_4e/3x3"
  param {
    lr_mult: 1
    decay_mult: 1
  }
  param {
    lr_mult: 2
    decay_mult: 0
  }
  convolution_param {
    num_output: 320
    pad: 1
    kernel_size: 3
    weight_filler {
      type: "xavier"
      std: 0.03
    }
    bias_filler {
      type: "constant"
      value: 0.2
    }
  }
}
layer {
  name: "inception_4e/relu_3x3"
  type: "ReLU"
  bottom: "inception_4e/3x3"
  top: "inception_4e/3x3"
}
layer {
  name: "inception_4e/5x5_reduce"
  type: "Convolution"
  bottom: "inception_4d/output"
  top: "inception_4e/5x5_reduce"
  param {
    lr_mult: 1
    decay_mult: 1
  }
  param {
    lr_mult: 2
    decay_mult: 0
  }
  convolution_param {
    num_output: 32
    kernel_size: 1
    weight_filler {
      type: "xavier"
      std: 0.2
    }
    bias_filler {
      type: "constant"
      value: 0.2
    }
  }
}
layer {
  name: "inception_4e/relu_5x5_reduce"
  type: "ReLU"
  bottom: "inception_4e/5x5_reduce"
  top: "inception_4e/5x5_reduce"
}
layer {
  name: "inception_4e/5x5"
  type: "Convolution"
  bottom: "inception_4e/5x5_reduce"
  top: "inception_4e/
I0403 15:36:43.161880 20081 layer_factory.hpp:77] Creating layer data
I0403 15:36:43.162528 20081 net.cpp:91] Creating Layer data
I0403 15:36:43.162560 20081 net.cpp:399] data -> data
I0403 15:36:43.162612 20081 net.cpp:399] data -> label
I0403 15:36:43.162649 20081 data_transformer.cpp:25] Loading mean file from: /home/mohanty/data/final_dataset/lmdb/grayscale-40-60/mean.binaryproto
I0403 15:36:43.205515 20083 db_lmdb.cpp:38] Opened lmdb /home/mohanty/data/final_dataset/lmdb/grayscale-40-60/test_db
I0403 15:36:43.207703 20081 data_layer.cpp:41] output data size: 24,3,224,224
I0403 15:36:43.238941 20081 net.cpp:141] Setting up data
I0403 15:36:43.239042 20081 net.cpp:148] Top shape: 24 3 224 224 (3612672)
I0403 15:36:43.239066 20081 net.cpp:148] Top shape: 24 (24)
I0403 15:36:43.239081 20081 net.cpp:156] Memory required for data: 14450784
I0403 15:36:43.239110 20081 layer_factory.hpp:77] Creating layer label_data_1_split
I0403 15:36:43.239137 20081 net.cpp:91] Creating Layer label_data_1_split
I0403 15:36:43.239156 20081 net.cpp:425] label_data_1_split <- label
I0403 15:36:43.239189 20081 net.cpp:399] label_data_1_split -> label_data_1_split_0
I0403 15:36:43.239218 20081 net.cpp:399] label_data_1_split -> label_data_1_split_1
I0403 15:36:43.239240 20081 net.cpp:399] label_data_1_split -> label_data_1_split_2
I0403 15:36:43.239261 20081 net.cpp:399] label_data_1_split -> label_data_1_split_3
I0403 15:36:43.239282 20081 net.cpp:399] label_data_1_split -> label_data_1_split_4
I0403 15:36:43.239302 20081 net.cpp:399] label_data_1_split -> label_data_1_split_5
I0403 15:36:43.239321 20081 net.cpp:399] label_data_1_split -> label_data_1_split_6
I0403 15:36:43.239341 20081 net.cpp:399] label_data_1_split -> label_data_1_split_7
I0403 15:36:43.239362 20081 net.cpp:399] label_data_1_split -> label_data_1_split_8
I0403 15:36:43.239380 20081 net.cpp:399] label_data_1_split -> label_data_1_split_9
I0403 15:36:43.239501 20081 net.cpp:141] Setting up label_data_1_split
I0403 15:36:43.239526 20081 net.cpp:148] Top shape: 24 (24)
I0403 15:36:43.239544 20081 net.cpp:148] Top shape: 24 (24)
I0403 15:36:43.239560 20081 net.cpp:148] Top shape: 24 (24)
I0403 15:36:43.239576 20081 net.cpp:148] Top shape: 24 (24)
I0403 15:36:43.239593 20081 net.cpp:148] Top shape: 24 (24)
I0403 15:36:43.239609 20081 net.cpp:148] Top shape: 24 (24)
I0403 15:36:43.239624 20081 net.cpp:148] Top shape: 24 (24)
I0403 15:36:43.239640 20081 net.cpp:148] Top shape: 24 (24)
I0403 15:36:43.239655 20081 net.cpp:148] Top shape: 24 (24)
I0403 15:36:43.239671 20081 net.cpp:148] Top shape: 24 (24)
I0403 15:36:43.239717 20081 net.cpp:156] Memory required for data: 14451744
I0403 15:36:43.239733 20081 layer_factory.hpp:77] Creating layer conv1/7x7_s2
I0403 15:36:43.239765 20081 net.cpp:91] Creating Layer conv1/7x7_s2
I0403 15:36:43.239784 20081 net.cpp:425] conv1/7x7_s2 <- data
I0403 15:36:43.239804 20081 net.cpp:399] conv1/7x7_s2 -> conv1/7x7_s2
I0403 15:36:43.383993 20081 net.cpp:141] Setting up conv1/7x7_s2
I0403 15:36:43.384064 20081 net.cpp:148] Top shape: 24 64 112 112 (19267584)
I0403 15:36:43.384081 20081 net.cpp:156] Memory required for data: 91522080
I0403 15:36:43.384112 20081 layer_factory.hpp:77] Creating layer conv1/relu_7x7
I0403 15:36:43.384138 20081 net.cpp:91] Creating Layer conv1/relu_7x7
I0403 15:36:43.384156 20081 net.cpp:425] conv1/relu_7x7 <- conv1/7x7_s2
I0403 15:36:43.384178 20081 net.cpp:386] conv1/relu_7x7 -> conv1/7x7_s2 (in-place)
I0403 15:36:43.384466 20081 net.cpp:141] Setting up conv1/relu_7x7
I0403 15:36:43.384493 20081 net.cpp:148] Top shape: 24 64 112 112 (19267584)
I0403 15:36:43.384508 20081 net.cpp:156] Memory required for data: 168592416
I0403 15:36:43.384523 20081 layer_factory.hpp:77] Creating layer pool1/3x3_s2
I0403 15:36:43.384547 20081 net.cpp:91] Creating Layer pool1/3x3_s2
I0403 15:36:43.384565 20081 net.cpp:425] pool1/3x3_s2 <- conv1/7x7_s2
I0403 15:36:43.384585 20081 net.cpp:399] pool1/3x3_s2 -> pool1/3x3_s2
I0403 15:36:43.384665 20081 net.cpp:141] Setting up pool1/3x3_s2
I0403 15:36:43.384690 20081 net.cpp:148] Top shape: 24 64 56 56 (4816896)
I0403 15:36:43.384706 20081 net.cpp:156] Memory required for data: 187860000
I0403 15:36:43.384719 20081 layer_factory.hpp:77] Creating layer pool1/norm1
I0403 15:36:43.384747 20081 net.cpp:91] Creating Layer pool1/norm1
I0403 15:36:43.384764 20081 net.cpp:425] pool1/norm1 <- pool1/3x3_s2
I0403 15:36:43.384784 20081 net.cpp:399] pool1/norm1 -> pool1/norm1
I0403 15:36:43.385141 20081 net.cpp:141] Setting up pool1/norm1
I0403 15:36:43.385169 20081 net.cpp:148] Top shape: 24 64 56 56 (4816896)
I0403 15:36:43.385185 20081 net.cpp:156] Memory required for data: 207127584
I0403 15:36:43.385200 20081 layer_factory.hpp:77] Creating layer conv2/3x3_reduce
I0403 15:36:43.385232 20081 net.cpp:91] Creating Layer conv2/3x3_reduce
I0403 15:36:43.385270 20081 net.cpp:425] conv2/3x3_reduce <- pool1/norm1
I0403 15:36:43.385344 20081 net.cpp:399] conv2/3x3_reduce -> conv2/3x3_reduce
I0403 15:36:43.386800 20081 net.cpp:141] Setting up conv2/3x3_reduce
I0403 15:36:43.386829 20081 net.cpp:148] Top shape: 24 64 56 56 (4816896)
I0403 15:36:43.386844 20081 net.cpp:156] Memory required for data: 226395168
I0403 15:36:43.386868 20081 layer_factory.hpp:77] Creating layer conv2/relu_3x3_reduce
I0403 15:36:43.386888 20081 net.cpp:91] Creating Layer conv2/relu_3x3_reduce
I0403 15:36:43.386904 20081 net.cpp:425] conv2/relu_3x3_reduce <- conv2/3x3_reduce
I0403 15:36:43.386921 20081 net.cpp:386] conv2/relu_3x3_reduce -> conv2/3x3_reduce (in-place)
I0403 15:36:43.387233 20081 net.cpp:141] Setting up conv2/relu_3x3_reduce
I0403 15:36:43.387266 20081 net.cpp:148] Top shape: 24 64 56 56 (4816896)
I0403 15:36:43.387292 20081 net.cpp:156] Memory required for data: 245662752
I0403 15:36:43.387316 20081 layer_factory.hpp:77] Creating layer conv2/3x3
I0403 15:36:43.387347 20081 net.cpp:91] Creating Layer conv2/3x3
I0403 15:36:43.387365 20081 net.cpp:425] conv2/3x3 <- conv2/3x3_reduce
I0403 15:36:43.387384 20081 net.cpp:399] conv2/3x3 -> conv2/3x3
I0403 15:36:43.389762 20081 net.cpp:141] Setting up conv2/3x3
I0403 15:36:43.389796 20081 net.cpp:148] Top shape: 24 192 56 56 (14450688)
I0403 15:36:43.389813 20081 net.cpp:156] Memory required for data: 303465504
I0403 15:36:43.389835 20081 layer_factory.hpp:77] Creating layer conv2/relu_3x3
I0403 15:36:43.389853 20081 net.cpp:91] Creating Layer conv2/relu_3x3
I0403 15:36:43.389869 20081 net.cpp:425] conv2/relu_3x3 <- conv2/3x3
I0403 15:36:43.389886 20081 net.cpp:386] conv2/relu_3x3 -> conv2/3x3 (in-place)
I0403 15:36:43.390071 20081 net.cpp:141] Setting up conv2/relu_3x3
I0403 15:36:43.390097 20081 net.cpp:148] Top shape: 24 192 56 56 (14450688)
I0403 15:36:43.390144 20081 net.cpp:156] Memory required for data: 361268256
I0403 15:36:43.390161 20081 layer_factory.hpp:77] Creating layer conv2/norm2
I0403 15:36:43.390183 20081 net.cpp:91] Creating Layer conv2/norm2
I0403 15:36:43.390200 20081 net.cpp:425] conv2/norm2 <- conv2/3x3
I0403 15:36:43.390219 20081 net.cpp:399] conv2/norm2 -> conv2/norm2
I0403 15:36:43.390566 20081 net.cpp:141] Setting up conv2/norm2
I0403 15:36:43.390594 20081 net.cpp:148] Top shape: 24 192 56 56 (14450688)
I0403 15:36:43.390609 20081 net.cpp:156] Memory required for data: 419071008
I0403 15:36:43.390625 20081 layer_factory.hpp:77] Creating layer pool2/3x3_s2
I0403 15:36:43.390645 20081 net.cpp:91] Creating Layer pool2/3x3_s2
I0403 15:36:43.390661 20081 net.cpp:425] pool2/3x3_s2 <- conv2/norm2
I0403 15:36:43.390678 20081 net.cpp:399] pool2/3x3_s2 -> pool2/3x3_s2
I0403 15:36:43.390735 20081 net.cpp:141] Setting up pool2/3x3_s2
I0403 15:36:43.390759 20081 net.cpp:148] Top shape: 24 192 28 28 (3612672)
I0403 15:36:43.390774 20081 net.cpp:156] Memory required for data: 433521696
I0403 15:36:43.390789 20081 layer_factory.hpp:77] Creating layer pool2/3x3_s2_pool2/3x3_s2_0_split
I0403 15:36:43.390806 20081 net.cpp:91] Creating Layer pool2/3x3_s2_pool2/3x3_s2_0_split
I0403 15:36:43.390821 20081 net.cpp:425] pool2/3x3_s2_pool2/3x3_s2_0_split <- pool2/3x3_s2
I0403 15:36:43.390841 20081 net.cpp:399] pool2/3x3_s2_pool2/3x3_s2_0_split -> pool2/3x3_s2_pool2/3x3_s2_0_split_0
I0403 15:36:43.390861 20081 net.cpp:399] pool2/3x3_s2_pool2/3x3_s2_0_split -> pool2/3x3_s2_pool2/3x3_s2_0_split_1
I0403 15:36:43.390879 20081 net.cpp:399] pool2/3x3_s2_pool2/3x3_s2_0_split -> pool2/3x3_s2_pool2/3x3_s2_0_split_2
I0403 15:36:43.390900 20081 net.cpp:399] pool2/3x3_s2_pool2/3x3_s2_0_split -> pool2/3x3_s2_pool2/3x3_s2_0_split_3
I0403 15:36:43.390980 20081 net.cpp:141] Setting up pool2/3x3_s2_pool2/3x3_s2_0_split
I0403 15:36:43.391010 20081 net.cpp:148] Top shape: 24 192 28 28 (3612672)
I0403 15:36:43.391026 20081 net.cpp:148] Top shape: 24 192 28 28 (3612672)
I0403 15:36:43.391042 20081 net.cpp:148] Top shape: 24 192 28 28 (3612672)
I0403 15:36:43.391058 20081 net.cpp:148] Top shape: 24 192 28 28 (3612672)
I0403 15:36:43.391072 20081 net.cpp:156] Memory required for data: 491324448
I0403 15:36:43.391085 20081 layer_factory.hpp:77] Creating layer inception_3a/1x1
I0403 15:36:43.391109 20081 net.cpp:91] Creating Layer inception_3a/1x1
I0403 15:36:43.391126 20081 net.cpp:425] inception_3a/1x1 <- pool2/3x3_s2_pool2/3x3_s2_0_split_0
I0403 15:36:43.391145 20081 net.cpp:399] inception_3a/1x1 -> inception_3a/1x1
I0403 15:36:43.392796 20081 net.cpp:141] Setting up inception_3a/1x1
I0403 15:36:43.392827 20081 net.cpp:148] Top shape: 24 64 28 28 (1204224)
I0403 15:36:43.392841 20081 net.cpp:156] Memory required for data: 496141344
I0403 15:36:43.392860 20081 layer_factory.hpp:77] Creating layer inception_3a/relu_1x1
I0403 15:36:43.392881 20081 net.cpp:91] Creating Layer inception_3a/relu_1x1
I0403 15:36:43.392899 20081 net.cpp:425] inception_3a/relu_1x1 <- inception_3a/1x1
I0403 15:36:43.392917 20081 net.cpp:386] inception_3a/relu_1x1 -> inception_3a/1x1 (in-place)
I0403 15:36:43.393107 20081 net.cpp:141] Setting up inception_3a/relu_1x1
I0403 15:36:43.393136 20081 net.cpp:148] Top shape: 24 64 28 28 (1204224)
I0403 15:36:43.393151 20081 net.cpp:156] Memory required for data: 500958240
I0403 15:36:43.393165 20081 layer_factory.hpp:77] Creating layer inception_3a/3x3_reduce
I0403 15:36:43.393188 20081 net.cpp:91] Creating Layer inception_3a/3x3_reduce
I0403 15:36:43.393208 20081 net.cpp:425] inception_3a/3x3_reduce <- pool2/3x3_s2_pool2/3x3_s2_0_split_1
I0403 15:36:43.393229 20081 net.cpp:399] inception_3a/3x3_reduce -> inception_3a/3x3_reduce
I0403 15:36:43.395048 20081 net.cpp:141] Setting up inception_3a/3x3_reduce
I0403 15:36:43.395079 20081 net.cpp:148] Top shape: 24 96 28 28 (1806336)
I0403 15:36:43.395098 20081 net.cpp:156] Memory required for data: 508183584
I0403 15:36:43.395122 20081 layer_factory.hpp:77] Creating layer inception_3a/relu_3x3_reduce
I0403 15:36:43.395159 20081 net.cpp:91] Creating Layer inception_3a/relu_3x3_reduce
I0403 15:36:43.395177 20081 net.cpp:425] inception_3a/relu_3x3_reduce <- inception_3a/3x3_reduce
I0403 15:36:43.395198 20081 net.cpp:386] inception_3a/relu_3x3_reduce -> inception_3a/3x3_reduce (in-place)
I0403 15:36:43.395390 20081 net.cpp:141] Setting up inception_3a/relu_3x3_reduce
I0403 15:36:43.395416 20081 net.cpp:148] Top shape: 24 96 28 28 (1806336)
I0403 15:36:43.395431 20081 net.cpp:156] Memory required for data: 515408928
I0403 15:36:43.395445 20081 layer_factory.hpp:77] Creating layer inception_3a/3x3
I0403 15:36:43.395468 20081 net.cpp:91] Creating Layer inception_3a/3x3
I0403 15:36:43.395486 20081 net.cpp:425] inception_3a/3x3 <- inception_3a/3x3_reduce
I0403 15:36:43.395509 20081 net.cpp:399] inception_3a/3x3 -> inception_3a/3x3
I0403 15:36:43.397300 20081 net.cpp:141] Setting up inception_3a/3x3
I0403 15:36:43.397335 20081 net.cpp:148] Top shape: 24 128 28 28 (2408448)
I0403 15:36:43.397351 20081 net.cpp:156] Memory required for data: 525042720
I0403 15:36:43.397370 20081 layer_factory.hpp:77] Creating layer inception_3a/relu_3x3
I0403 15:36:43.397389 20081 net.cpp:91] Creating Layer inception_3a/relu_3x3
I0403 15:36:43.397406 20081 net.cpp:425] inception_3a/relu_3x3 <- inception_3a/3x3
I0403 15:36:43.397426 20081 net.cpp:386] inception_3a/relu_3x3 -> inception_3a/3x3 (in-place)
I0403 15:36:43.397766 20081 net.cpp:141] Setting up inception_3a/relu_3x3
I0403 15:36:43.397797 20081 net.cpp:148] Top shape: 24 128 28 28 (2408448)
I0403 15:36:43.397814 20081 net.cpp:156] Memory required for data: 534676512
I0403 15:36:43.397830 20081 layer_factory.hpp:77] Creating layer inception_3a/5x5_reduce
I0403 15:36:43.397852 20081 net.cpp:91] Creating Layer inception_3a/5x5_reduce
I0403 15:36:43.397871 20081 net.cpp:425] inception_3a/5x5_reduce <- pool2/3x3_s2_pool2/3x3_s2_0_split_2
I0403 15:36:43.397891 20081 net.cpp:399] inception_3a/5x5_reduce -> inception_3a/5x5_reduce
I0403 15:36:43.398933 20081 net.cpp:141] Setting up inception_3a/5x5_reduce
I0403 15:36:43.398965 20081 net.cpp:148] Top shape: 24 16 28 28 (301056)
I0403 15:36:43.398983 20081 net.cpp:156] Memory required for data: 535880736
I0403 15:36:43.399008 20081 layer_factory.hpp:77] Creating layer inception_3a/relu_5x5_reduce
I0403 15:36:43.399026 20081 net.cpp:91] Creating Layer inception_3a/relu_5x5_reduce
I0403 15:36:43.399044 20081 net.cpp:425] inception_3a/relu_5x5_reduce <- inception_3a/5x5_reduce
I0403 15:36:43.399065 20081 net.cpp:386] inception_3a/relu_5x5_reduce -> inception_3a/5x5_reduce (in-place)
I0403 15:36:43.399384 20081 net.cpp:141] Setting up inception_3a/relu_5x5_reduce
I0403 15:36:43.399411 20081 net.cpp:148] Top shape: 24 16 28 28 (301056)
I0403 15:36:43.399427 20081 net.cpp:156] Memory required for data: 537084960
I0403 15:36:43.399442 20081 layer_factory.hpp:77] Creating layer inception_3a/5x5
I0403 15:36:43.399466 20081 net.cpp:91] Creating Layer inception_3a/5x5
I0403 15:36:43.399483 20081 net.cpp:425] inception_3a/5x5 <- inception_3a/5x5_reduce
I0403 15:36:43.399505 20081 net.cpp:399] inception_3a/5x5 -> inception_3a/5x5
I0403 15:36:43.400568 20081 net.cpp:141] Setting up inception_3a/5x5
I0403 15:36:43.400596 20081 net.cpp:148] Top shape: 24 32 28 28 (602112)
I0403 15:36:43.400611 20081 net.cpp:156] Memory required for data: 539493408
I0403 15:36:43.400630 20081 layer_factory.hpp:77] Creating layer inception_3a/relu_5x5
I0403 15:36:43.400651 20081 net.cpp:91] Creating Layer inception_3a/relu_5x5
I0403 15:36:43.400670 20081 net.cpp:425] inception_3a/relu_5x5 <- inception_3a/5x5
I0403 15:36:43.400687 20081 net.cpp:386] inception_3a/relu_5x5 -> inception_3a/5x5 (in-place)
I0403 15:36:43.400868 20081 net.cpp:141] Setting up inception_3a/relu_5x5
I0403 15:36:43.400894 20081 net.cpp:148] Top shape: 24 32 28 28 (602112)
I0403 15:36:43.400909 20081 net.cpp:156] Memory required for data: 541901856
I0403 15:36:43.400925 20081 layer_factory.hpp:77] Creating layer inception_3a/pool
I0403 15:36:43.400943 20081 net.cpp:91] Creating Layer inception_3a/pool
I0403 15:36:43.400975 20081 net.cpp:425] inception_3a/pool <- pool2/3x3_s2_pool2/3x3_s2_0_split_3
I0403 15:36:43.401003 20081 net.cpp:399] inception_3a/pool -> inception_3a/pool
I0403 15:36:43.401065 20081 net.cpp:141] Setting up inception_3a/pool
I0403 15:36:43.401089 20081 net.cpp:148] Top shape: 24 192 28 28 (3612672)
I0403 15:36:43.401105 20081 net.cpp:156] Memory required for data: 556352544
I0403 15:36:43.401120 20081 layer_factory.hpp:77] Creating layer inception_3a/pool_proj
I0403 15:36:43.401144 20081 net.cpp:91] Creating Layer inception_3a/pool_proj
I0403 15:36:43.401163 20081 net.cpp:425] inception_3a/pool_proj <- inception_3a/pool
I0403 15:36:43.401182 20081 net.cpp:399] inception_3a/pool_proj -> inception_3a/pool_proj
I0403 15:36:43.402182 20081 net.cpp:141] Setting up inception_3a/pool_proj
I0403 15:36:43.402214 20081 net.cpp:148] Top shape: 24 32 28 28 (602112)
I0403 15:36:43.402230 20081 net.cpp:156] Memory required for data: 558760992
I0403 15:36:43.402254 20081 layer_factory.hpp:77] Creating layer inception_3a/relu_pool_proj
I0403 15:36:43.402279 20081 net.cpp:91] Creating Layer inception_3a/relu_pool_proj
I0403 15:36:43.402305 20081 net.cpp:425] inception_3a/relu_pool_proj <- inception_3a/pool_proj
I0403 15:36:43.402335 20081 net.cpp:386] inception_3a/relu_pool_proj -> inception_3a/pool_proj (in-place)
I0403 15:36:43.402626 20081 net.cpp:141] Setting up inception_3a/relu_pool_proj
I0403 15:36:43.402655 20081 net.cpp:148] Top shape: 24 32 28 28 (602112)
I0403 15:36:43.402673 20081 net.cpp:156] Memory required for data: 561169440
I0403 15:36:43.402688 20081 layer_factory.hpp:77] Creating layer inception_3a/output
I0403 15:36:43.402706 20081 net.cpp:91] Creating Layer inception_3a/output
I0403 15:36:43.402722 20081 net.cpp:425] inception_3a/output <- inception_3a/1x1
I0403 15:36:43.402740 20081 net.cpp:425] inception_3a/output <- inception_3a/3x3
I0403 15:36:43.402756 20081 net.cpp:425] inception_3a/output <- inception_3a/5x5
I0403 15:36:43.402773 20081 net.cpp:425] inception_3a/output <- inception_3a/pool_proj
I0403 15:36:43.402791 20081 net.cpp:399] inception_3a/output -> inception_3a/output
I0403 15:36:43.402842 20081 net.cpp:141] Setting up inception_3a/output
I0403 15:36:43.402865 20081 net.cpp:148] Top shape: 24 256 28 28 (4816896)
I0403 15:36:43.402880 20081 net.cpp:156] Memory required for data: 580437024
I0403 15:36:43.402904 20081 layer_factory.hpp:77] Creating layer inception_3a/output_inception_3a/output_0_split
I0403 15:36:43.402922 20081 net.cpp:91] Creating Layer inception_3a/output_inception_3a/output_0_split
I0403 15:36:43.402938 20081 net.cpp:425] inception_3a/output_inception_3a/output_0_split <- inception_3a/output
I0403 15:36:43.402959 20081 net.cpp:399] inception_3a/output_inception_3a/output_0_split -> inception_3a/output_inception_3a/output_0_split_0
I0403 15:36:43.402981 20081 net.cpp:399] inception_3a/output_inception_3a/output_0_split -> inception_3a/output_inception_3a/output_0_split_1
I0403 15:36:43.403012 20081 net.cpp:399] inception_3a/output_inception_3a/output_0_split -> inception_3a/output_inception_3a/output_0_split_2
I0403 15:36:43.403035 20081 net.cpp:399] inception_3a/output_inception_3a/output_0_split -> inception_3a/output_inception_3a/output_0_split_3
I0403 15:36:43.403113 20081 net.cpp:141] Setting up inception_3a/output_inception_3a/output_0_split
I0403 15:36:43.403139 20081 net.cpp:148] Top shape: 24 256 28 28 (4816896)
I0403 15:36:43.403159 20081 net.cpp:148] Top shape: 24 256 28 28 (4816896)
I0403 15:36:43.403177 20081 net.cpp:148] Top shape: 24 256 28 28 (4816896)
I0403 15:36:43.403193 20081 net.cpp:148] Top shape: 24 256 28 28 (4816896)
I0403 15:36:43.403208 20081 net.cpp:156] Memory required for data: 657507360
I0403 15:36:43.403223 20081 layer_factory.hpp:77] Creating layer inception_3b/1x1
I0403 15:36:43.403244 20081 net.cpp:91] Creating Layer inception_3b/1x1
I0403 15:36:43.403259 20081 net.cpp:425] inception_3b/1x1 <- inception_3a/output_inception_3a/output_0_split_0
I0403 15:36:43.403281 20081 net.cpp:399] inception_3b/1x1 -> inception_3b/1x1
I0403 15:36:43.404466 20081 net.cpp:141] Setting up inception_3b/1x1
I0403 15:36:43.404507 20081 net.cpp:148] Top shape: 24 128 28 28 (2408448)
I0403 15:36:43.404525 20081 net.cpp:156] Memory required for data: 667141152
I0403 15:36:43.404543 20081 layer_factory.hpp:77] Creating layer inception_3b/relu_1x1
I0403 15:36:43.404564 20081 net.cpp:91] Creating Layer inception_3b/relu_1x1
I0403 15:36:43.404582 20081 net.cpp:425] inception_3b/relu_1x1 <- inception_3b/1x1
I0403 15:36:43.404599 20081 net.cpp:386] inception_3b/relu_1x1 -> inception_3b/1x1 (in-place)
I0403 15:36:43.404780 20081 net.cpp:141] Setting up inception_3b/relu_1x1
I0403 15:36:43.404809 20081 net.cpp:148] Top shape: 24 128 28 28 (2408448)
I0403 15:36:43.404825 20081 net.cpp:156] Memory required for data: 676774944
I0403 15:36:43.404840 20081 layer_factory.hpp:77] Creating layer inception_3b/3x3_reduce
I0403 15:36:43.404863 20081 net.cpp:91] Creating Layer inception_3b/3x3_reduce
I0403 15:36:43.404881 20081 net.cpp:425] inception_3b/3x3_reduce <- inception_3a/output_inception_3a/output_0_split_1
I0403 15:36:43.404901 20081 net.cpp:399] inception_3b/3x3_reduce -> inception_3b/3x3_reduce
I0403 15:36:43.406090 20081 net.cpp:141] Setting up inception_3b/3x3_reduce
I0403 15:36:43.406121 20081 net.cpp:148] Top shape: 24 128 28 28 (2408448)
I0403 15:36:43.406136 20081 net.cpp:156] Memory required for data: 686408736
I0403 15:36:43.406154 20081 layer_factory.hpp:77] Creating layer inception_3b/relu_3x3_reduce
I0403 15:36:43.406175 20081 net.cpp:91] Creating Layer inception_3b/relu_3x3_reduce
I0403 15:36:43.406193 20081 net.cpp:425] inception_3b/relu_3x3_reduce <- inception_3b/3x3_reduce
I0403 15:36:43.406213 20081 net.cpp:386] inception_3b/relu_3x3_reduce -> inception_3b/3x3_reduce (in-place)
I0403 15:36:43.406395 20081 net.cpp:141] Setting up inception_3b/relu_3x3_reduce
I0403 15:36:43.406424 20081 net.cpp:148] Top shape: 24 128 28 28 (2408448)
I0403 15:36:43.406440 20081 net.cpp:156] Memory required for data: 696042528
I0403 15:36:43.406455 20081 layer_factory.hpp:77] Creating layer inception_3b/3x3
I0403 15:36:43.406481 20081 net.cpp:91] Creating Layer inception_3b/3x3
I0403 15:36:43.406498 20081 net.cpp:425] inception_3b/3x3 <- inception_3b/3x3_reduce
I0403 15:36:43.406522 20081 net.cpp:399] inception_3b/3x3 -> inception_3b/3x3
I0403 15:36:43.409590 20081 net.cpp:141] Setting up inception_3b/3x3
I0403 15:36:43.409621 20081 net.cpp:148] Top shape: 24 192 28 28 (3612672)
I0403 15:36:43.409637 20081 net.cpp:156] Memory required for data: 710493216
I0403 15:36:43.409657 20081 layer_factory.hpp:77] Creating layer inception_3b/relu_3x3
I0403 15:36:43.409675 20081 net.cpp:91] Creating Layer inception_3b/relu_3x3
I0403 15:36:43.409692 20081 net.cpp:425] inception_3b/relu_3x3 <- inception_3b/3x3
I0403 15:36:43.409713 20081 net.cpp:386] inception_3b/relu_3x3 -> inception_3b/3x3 (in-place)
I0403 15:36:43.409999 20081 net.cpp:141] Setting up inception_3b/relu_3x3
I0403 15:36:43.410029 20081 net.cpp:148] Top shape: 24 192 28 28 (3612672)
I0403 15:36:43.410045 20081 net.cpp:156] Memory required for data: 724943904
I0403 15:36:43.410060 20081 layer_factory.hpp:77] Creating layer inception_3b/5x5_reduce
I0403 15:36:43.410086 20081 net.cpp:91] Creating Layer inception_3b/5x5_reduce
I0403 15:36:43.410105 20081 net.cpp:425] inception_3b/5x5_reduce <- inception_3a/output_inception_3a/output_0_split_2
I0403 15:36:43.410125 20081 net.cpp:399] inception_3b/5x5_reduce -> inception_3b/5x5_reduce
I0403 15:36:43.411152 20081 net.cpp:141] Setting up inception_3b/5x5_reduce
I0403 15:36:43.411181 20081 net.cpp:148] Top shape: 24 32 28 28 (602112)
I0403 15:36:43.411197 20081 net.cpp:156] Memory required for data: 727352352
I0403 15:36:43.411216 20081 layer_factory.hpp:77] Creating layer inception_3b/relu_5x5_reduce
I0403 15:36:43.411237 20081 net.cpp:91] Creating Layer inception_3b/relu_5x5_reduce
I0403 15:36:43.411255 20081 net.cpp:425] inception_3b/relu_5x5_reduce <- inception_3b/5x5_reduce
I0403 15:36:43.411274 20081 net.cpp:386] inception_3b/relu_5x5_reduce -> inception_3b/5x5_reduce (in-place)
I0403 15:36:43.411473 20081 net.cpp:141] Setting up inception_3b/relu_5x5_reduce
I0403 15:36:43.411499 20081 net.cpp:148] Top shape: 24 32 28 28 (602112)
I0403 15:36:43.411514 20081 net.cpp:156] Memory required for data: 729760800
I0403 15:36:43.411530 20081 layer_factory.hpp:77] Creating layer inception_3b/5x5
I0403 15:36:43.411551 20081 net.cpp:91] Creating Layer inception_3b/5x5
I0403 15:36:43.411571 20081 net.cpp:425] inception_3b/5x5 <- inception_3b/5x5_reduce
I0403 15:36:43.411592 20081 net.cpp:399] inception_3b/5x5 -> inception_3b/5x5
I0403 15:36:43.413658 20081 net.cpp:141] Setting up inception_3b/5x5
I0403 15:36:43.413688 20081 net.cpp:148] Top shape: 24 96 28 28 (1806336)
I0403 15:36:43.413704 20081 net.cpp:156] Memory required for data: 736986144
I0403 15:36:43.413722 20081 layer_factory.hpp:77] Creating layer inception_3b/relu_5x5
I0403 15:36:43.413743 20081 net.cpp:91] Creating Layer inception_3b/relu_5x5
I0403 15:36:43.413760 20081 net.cpp:425] inception_3b/relu_5x5 <- inception_3b/5x5
I0403 15:36:43.413779 20081 net.cpp:386] inception_3b/relu_5x5 -> inception_3b/5x5 (in-place)
I0403 15:36:43.413980 20081 net.cpp:141] Setting up inception_3b/relu_5x5
I0403 15:36:43.414011 20081 net.cpp:148] Top shape: 24 96 28 28 (1806336)
I0403 15:36:43.414027 20081 net.cpp:156] Memory required for data: 744211488
I0403 15:36:43.414042 20081 layer_factory.hpp:77] Creating layer inception_3b/pool
I0403 15:36:43.414062 20081 net.cpp:91] Creating Layer inception_3b/pool
I0403 15:36:43.414077 20081 net.cpp:425] inception_3b/pool <- inception_3a/output_inception_3a/output_0_split_3
I0403 15:36:43.414096 20081 net.cpp:399] inception_3b/pool -> inception_3b/pool
I0403 15:36:43.414155 20081 net.cpp:141] Setting up inception_3b/pool
I0403 15:36:43.414180 20081 net.cpp:148] Top shape: 24 256 28 28 (4816896)
I0403 15:36:43.414194 20081 net.cpp:156] Memory required for data: 763479072
I0403 15:36:43.414209 20081 layer_factory.hpp:77] Creating layer inception_3b/pool_proj
I0403 15:36:43.414233 20081 net.cpp:91] Creating Layer inception_3b/pool_proj
I0403 15:36:43.414252 20081 net.cpp:425] inception_3b/pool_proj <- inception_3b/pool
I0403 15:36:43.414273 20081 net.cpp:399] inception_3b/pool_proj -> inception_3b/pool_proj
I0403 15:36:43.415385 20081 net.cpp:141] Setting up inception_3b/pool_proj
I0403 15:36:43.415413 20081 net.cpp:148] Top shape: 24 64 28 28 (1204224)
I0403 15:36:43.415431 20081 net.cpp:156] Memory required for data: 768295968
I0403 15:36:43.415454 20081 layer_factory.hpp:77] Creating layer inception_3b/relu_pool_proj
I0403 15:36:43.415473 20081 net.cpp:91] Creating Layer inception_3b/relu_pool_proj
I0403 15:36:43.415489 20081 net.cpp:425] inception_3b/relu_pool_proj <- inception_3b/pool_proj
I0403 15:36:43.415509 20081 net.cpp:386] inception_3b/relu_pool_proj -> inception_3b/pool_proj (in-place)
I0403 15:36:43.416121 20081 net.cpp:141] Setting up inception_3b/relu_pool_proj
I0403 15:36:43.416152 20081 net.cpp:148] Top shape: 24 64 28 28 (1204224)
I0403 15:36:43.416167 20081 net.cpp:156] Memory required for data: 773112864
I0403 15:36:43.416182 20081 layer_factory.hpp:77] Creating layer inception_3b/output
I0403 15:36:43.416200 20081 net.cpp:91] Creating Layer inception_3b/output
I0403 15:36:43.416216 20081 net.cpp:425] inception_3b/output <- inception_3b/1x1
I0403 15:36:43.416234 20081 net.cpp:425] inception_3b/output <- inception_3b/3x3
I0403 15:36:43.416250 20081 net.cpp:425] inception_3b/output <- inception_3b/5x5
I0403 15:36:43.416266 20081 net.cpp:425] inception_3b/output <- inception_3b/pool_proj
I0403 15:36:43.416286 20081 net.cpp:399] inception_3b/output -> inception_3b/output
I0403 15:36:43.416332 20081 net.cpp:141] Setting up inception_3b/output
I0403 15:36:43.416355 20081 net.cpp:148] Top shape: 24 480 28 28 (9031680)
I0403 15:36:43.416370 20081 net.cpp:156] Memory required for data: 809239584
I0403 15:36:43.416385 20081 layer_factory.hpp:77] Creating layer pool3/3x3_s2
I0403 15:36:43.416405 20081 net.cpp:91] Creating Layer pool3/3x3_s2
I0403 15:36:43.416422 20081 net.cpp:425] pool3/3x3_s2 <- inception_3b/output
I0403 15:36:43.416457 20081 net.cpp:399] pool3/3x3_s2 -> pool3/3x3_s2
I0403 15:36:43.416520 20081 net.cpp:141] Setting up pool3/3x3_s2
I0403 15:36:43.416544 20081 net.cpp:148] Top shape: 24 480 14 14 (2257920)
I0403 15:36:43.416559 20081 net.cpp:156] Memory required for data: 818271264
I0403 15:36:43.416574 20081 layer_factory.hpp:77] Creating layer pool3/3x3_s2_pool3/3x3_s2_0_split
I0403 15:36:43.416591 20081 net.cpp:91] Creating Layer pool3/3x3_s2_pool3/3x3_s2_0_split
I0403 15:36:43.416610 20081 net.cpp:425] pool3/3x3_s2_pool3/3x3_s2_0_split <- pool3/3x3_s2
I0403 15:36:43.416627 20081 net.cpp:399] pool3/3x3_s2_pool3/3x3_s2_0_split -> pool3/3x3_s2_pool3/3x3_s2_0_split_0
I0403 15:36:43.416659 20081 net.cpp:399] pool3/3x3_s2_pool3/3x3_s2_0_split -> pool3/3x3_s2_pool3/3x3_s2_0_split_1
I0403 15:36:43.416678 20081 net.cpp:399] pool3/3x3_s2_pool3/3x3_s2_0_split -> pool3/3x3_s2_pool3/3x3_s2_0_split_2
I0403 15:36:43.416698 20081 net.cpp:399] pool3/3x3_s2_pool3/3x3_s2_0_split -> pool3/3x3_s2_pool3/3x3_s2_0_split_3
I0403 15:36:43.416779 20081 net.cpp:141] Setting up pool3/3x3_s2_pool3/3x3_s2_0_split
I0403 15:36:43.416802 20081 net.cpp:148] Top shape: 24 480 14 14 (2257920)
I0403 15:36:43.416818 20081 net.cpp:148] Top shape: 24 480 14 14 (2257920)
I0403 15:36:43.416833 20081 net.cpp:148] Top shape: 24 480 14 14 (2257920)
I0403 15:36:43.416849 20081 net.cpp:148] Top shape: 24 480 14 14 (2257920)
I0403 15:36:43.416862 20081 net.cpp:156] Memory required for data: 854397984
I0403 15:36:43.416877 20081 layer_factory.hpp:77] Creating layer inception_4a/1x1
I0403 15:36:43.416899 20081 net.cpp:91] Creating Layer inception_4a/1x1
I0403 15:36:43.416916 20081 net.cpp:425] inception_4a/1x1 <- pool3/3x3_s2_pool3/3x3_s2_0_split_0
I0403 15:36:43.416939 20081 net.cpp:399] inception_4a/1x1 -> inception_4a/1x1
I0403 15:36:43.418532 20081 net.cpp:141] Setting up inception_4a/1x1
I0403 15:36:43.418561 20081 net.cpp:148] Top shape: 24 192 14 14 (903168)
I0403 15:36:43.418576 20081 net.cpp:156] Memory required for data: 858010656
I0403 15:36:43.418596 20081 layer_factory.hpp:77] Creating layer inception_4a/relu_1x1
I0403 15:36:43.418612 20081 net.cpp:91] Creating Layer inception_4a/relu_1x1
I0403 15:36:43.418628 20081 net.cpp:425] inception_4a/relu_1x1 <- inception_4a/1x1
I0403 15:36:43.418648 20081 net.cpp:386] inception_4a/relu_1x1 -> inception_4a/1x1 (in-place)
I0403 15:36:43.418825 20081 net.cpp:141] Setting up inception_4a/relu_1x1
I0403 15:36:43.418850 20081 net.cpp:148] Top shape: 24 192 14 14 (903168)
I0403 15:36:43.418864 20081 net.cpp:156] Memory required for data: 861623328
I0403 15:36:43.418879 20081 layer_factory.hpp:77] Creating layer inception_4a/3x3_reduce
I0403 15:36:43.418901 20081 net.cpp:91] Creating Layer inception_4a/3x3_reduce
I0403 15:36:43.418920 20081 net.cpp:425] inception_4a/3x3_reduce <- pool3/3x3_s2_pool3/3x3_s2_0_split_1
I0403 15:36:43.418941 20081 net.cpp:399] inception_4a/3x3_reduce -> inception_4a/3x3_reduce
I0403 15:36:43.420255 20081 net.cpp:141] Setting up inception_4a/3x3_reduce
I0403 15:36:43.420284 20081 net.cpp:148] Top shape: 24 96 14 14 (451584)
I0403 15:36:43.420298 20081 net.cpp:156] Memory required for data: 863429664
I0403 15:36:43.420325 20081 layer_factory.hpp:77] Creating layer inception_4a/relu_3x3_reduce
I0403 15:36:43.420346 20081 net.cpp:91] Creating Layer inception_4a/relu_3x3_reduce
I0403 15:36:43.420361 20081 net.cpp:425] inception_4a/relu_3x3_reduce <- inception_4a/3x3_reduce
I0403 15:36:43.420382 20081 net.cpp:386] inception_4a/relu_3x3_reduce -> inception_4a/3x3_reduce (in-place)
I0403 15:36:43.420560 20081 net.cpp:141] Setting up inception_4a/relu_3x3_reduce
I0403 15:36:43.420585 20081 net.cpp:148] Top shape: 24 96 14 14 (451584)
I0403 15:36:43.420599 20081 net.cpp:156] Memory required for data: 865236000
I0403 15:36:43.420614 20081 layer_factory.hpp:77] Creating layer inception_4a/3x3
I0403 15:36:43.420636 20081 net.cpp:91] Creating Layer inception_4a/3x3
I0403 15:36:43.420655 20081 net.cpp:425] inception_4a/3x3 <- inception_4a/3x3_reduce
I0403 15:36:43.420675 20081 net.cpp:399] inception_4a/3x3 -> inception_4a/3x3
I0403 15:36:43.423456 20081 net.cpp:141] Setting up inception_4a/3x3
I0403 15:36:43.423486 20081 net.cpp:148] Top shape: 24 208 14 14 (978432)
I0403 15:36:43.423502 20081 net.cpp:156] Memory required for data: 869149728
I0403 15:36:43.423521 20081 layer_factory.hpp:77] Creating layer inception_4a/relu_3x3
I0403 15:36:43.423542 20081 net.cpp:91] Creating Layer inception_4a/relu_3x3
I0403 15:36:43.423559 20081 net.cpp:425] inception_4a/relu_3x3 <- inception_4a/3x3
I0403 15:36:43.423578 20081 net.cpp:386] inception_4a/relu_3x3 -> inception_4a/3x3 (in-place)
I0403 15:36:43.423863 20081 net.cpp:141] Setting up inception_4a/relu_3x3
I0403 15:36:43.423890 20081 net.cpp:148] Top shape: 24 208 14 14 (978432)
I0403 15:36:43.423907 20081 net.cpp:156] Memory required for data: 873063456
I0403 15:36:43.423921 20081 layer_factory.hpp:77] Creating layer inception_4a/5x5_reduce
I0403 15:36:43.423944 20081 net.cpp:91] Creating Layer inception_4a/5x5_reduce
I0403 15:36:43.423964 20081 net.cpp:425] inception_4a/5x5_reduce <- pool3/3x3_s2_pool3/3x3_s2_0_split_2
I0403 15:36:43.423991 20081 net.cpp:399] inception_4a/5x5_reduce -> inception_4a/5x5_reduce
I0403 15:36:43.425057 20081 net.cpp:141] Setting up inception_4a/5x5_reduce
I0403 15:36:43.425086 20081 net.cpp:148] Top shape: 24 16 14 14 (75264)
I0403 15:36:43.425101 20081 net.cpp:156] Memory required for data: 873364512
I0403 15:36:43.425120 20081 layer_factory.hpp:77] Creating layer inception_4a/relu_5x5_reduce
I0403 15:36:43.425142 20081 net.cpp:91] Creating Layer inception_4a/relu_5x5_reduce
I0403 15:36:43.425159 20081 net.cpp:425] inception_4a/relu_5x5_reduce <- inception_4a/5x5_reduce
I0403 15:36:43.425178 20081 net.cpp:386] inception_4a/relu_5x5_reduce -> inception_4a/5x5_reduce (in-place)
I0403 15:36:43.425364 20081 net.cpp:141] Setting up inception_4a/relu_5x5_reduce
I0403 15:36:43.425390 20081 net.cpp:148] Top shape: 24 16 14 14 (75264)
I0403 15:36:43.425405 20081 net.cpp:156] Memory required for data: 873665568
I0403 15:36:43.425420 20081 layer_factory.hpp:77] Creating layer inception_4a/5x5
I0403 15:36:43.425442 20081 net.cpp:91] Creating Layer inception_4a/5x5
I0403 15:36:43.425460 20081 net.cpp:425] inception_4a/5x5 <- inception_4a/5x5_reduce
I0403 15:36:43.425482 20081 net.cpp:399] inception_4a/5x5 -> inception_4a/5x5
I0403 15:36:43.426615 20081 net.cpp:141] Setting up inception_4a/5x5
I0403 15:36:43.426646 20081 net.cpp:148] Top shape: 24 48 14 14 (225792)
I0403 15:36:43.426662 20081 net.cpp:156] Memory required for data: 874568736
I0403 15:36:43.426681 20081 layer_factory.hpp:77] Creating layer inception_4a/relu_5x5
I0403 15:36:43.426699 20081 net.cpp:91] Creating Layer inception_4a/relu_5x5
I0403 15:36:43.426715 20081 net.cpp:425] inception_4a/relu_5x5 <- inception_4a/5x5
I0403 15:36:43.426735 20081 net.cpp:386] inception_4a/relu_5x5 -> inception_4a/5x5 (in-place)
I0403 15:36:43.426923 20081 net.cpp:141] Setting up inception_4a/relu_5x5
I0403 15:36:43.426949 20081 net.cpp:148] Top shape: 24 48 14 14 (225792)
I0403 15:36:43.426964 20081 net.cpp:156] Memory required for data: 875471904
I0403 15:36:43.426978 20081 layer_factory.hpp:77] Creating layer inception_4a/pool
I0403 15:36:43.427002 20081 net.cpp:91] Creating Layer inception_4a/pool
I0403 15:36:43.427019 20081 net.cpp:425] inception_4a/pool <- pool3/3x3_s2_pool3/3x3_s2_0_split_3
I0403 15:36:43.427040 20081 net.cpp:399] inception_4a/pool -> inception_4a/pool
I0403 15:36:43.427108 20081 net.cpp:141] Setting up inception_4a/pool
I0403 15:36:43.427132 20081 net.cpp:148] Top shape: 24 480 14 14 (2257920)
I0403 15:36:43.427147 20081 net.cpp:156] Memory required for data: 884503584
I0403 15:36:43.427162 20081 layer_factory.hpp:77] Creating layer inception_4a/pool_proj
I0403 15:36:43.427186 20081 net.cpp:91] Creating Layer inception_4a/pool_proj
I0403 15:36:43.427203 20081 net.cpp:425] inception_4a/pool_proj <- inception_4a/pool
I0403 15:36:43.427225 20081 net.cpp:399] inception_4a/pool_proj -> inception_4a/pool_proj
I0403 15:36:43.428462 20081 net.cpp:141] Setting up inception_4a/pool_proj
I0403 15:36:43.428490 20081 net.cpp:148] Top shape: 24 64 14 14 (301056)
I0403 15:36:43.428522 20081 net.cpp:156] Memory required for data: 885707808
I0403 15:36:43.428542 20081 layer_factory.hpp:77] Creating layer inception_4a/relu_pool_proj
I0403 15:36:43.428563 20081 net.cpp:91] Creating Layer inception_4a/relu_pool_proj
I0403 15:36:43.428580 20081 net.cpp:425] inception_4a/relu_pool_proj <- inception_4a/pool_proj
I0403 15:36:43.428598 20081 net.cpp:386] inception_4a/relu_pool_proj -> inception_4a/pool_proj (in-place)
I0403 15:36:43.428897 20081 net.cpp:141] Setting up inception_4a/relu_pool_proj
I0403 15:36:43.428925 20081 net.cpp:148] Top shape: 24 64 14 14 (301056)
I0403 15:36:43.428939 20081 net.cpp:156] Memory required for data: 886912032
I0403 15:36:43.428954 20081 layer_factory.hpp:77] Creating layer inception_4a/output
I0403 15:36:43.428972 20081 net.cpp:91] Creating Layer inception_4a/output
I0403 15:36:43.428998 20081 net.cpp:425] inception_4a/output <- inception_4a/1x1
I0403 15:36:43.429019 20081 net.cpp:425] inception_4a/output <- inception_4a/3x3
I0403 15:36:43.429036 20081 net.cpp:425] inception_4a/output <- inception_4a/5x5
I0403 15:36:43.429054 20081 net.cpp:425] inception_4a/output <- inception_4a/pool_proj
I0403 15:36:43.429074 20081 net.cpp:399] inception_4a/output -> inception_4a/output
I0403 15:36:43.429121 20081 net.cpp:141] Setting up inception_4a/output
I0403 15:36:43.429147 20081 net.cpp:148] Top shape: 24 512 14 14 (2408448)
I0403 15:36:43.429163 20081 net.cpp:156] Memory required for data: 896545824
I0403 15:36:43.429179 20081 layer_factory.hpp:77] Creating layer inception_4a/output_inception_4a/output_0_split
I0403 15:36:43.429198 20081 net.cpp:91] Creating Layer inception_4a/output_inception_4a/output_0_split
I0403 15:36:43.429214 20081 net.cpp:425] inception_4a/output_inception_4a/output_0_split <- inception_4a/output
I0403 15:36:43.429235 20081 net.cpp:399] inception_4a/output_inception_4a/output_0_split -> inception_4a/output_inception_4a/output_0_split_0
I0403 15:36:43.429257 20081 net.cpp:399] inception_4a/output_inception_4a/output_0_split -> inception_4a/output_inception_4a/output_0_split_1
I0403 15:36:43.429277 20081 net.cpp:399] inception_4a/output_inception_4a/output_0_split -> inception_4a/output_inception_4a/output_0_split_2
I0403 15:36:43.429298 20081 net.cpp:399] inception_4a/output_inception_4a/output_0_split -> inception_4a/output_inception_4a/output_0_split_3
I0403 15:36:43.429318 20081 net.cpp:399] inception_4a/output_inception_4a/output_0_split -> inception_4a/output_inception_4a/output_0_split_4
I0403 15:36:43.429414 20081 net.cpp:141] Setting up inception_4a/output_inception_4a/output_0_split
I0403 15:36:43.429437 20081 net.cpp:148] Top shape: 24 512 14 14 (2408448)
I0403 15:36:43.429455 20081 net.cpp:148] Top shape: 24 512 14 14 (2408448)
I0403 15:36:43.429469 20081 net.cpp:148] Top shape: 24 512 14 14 (2408448)
I0403 15:36:43.429486 20081 net.cpp:148] Top shape: 24 512 14 14 (2408448)
I0403 15:36:43.429500 20081 net.cpp:148] Top shape: 24 512 14 14 (2408448)
I0403 15:36:43.429514 20081 net.cpp:156] Memory required for data: 944714784
I0403 15:36:43.429529 20081 layer_factory.hpp:77] Creating layer loss1/ave_pool
I0403 15:36:43.429549 20081 net.cpp:91] Creating Layer loss1/ave_pool
I0403 15:36:43.429568 20081 net.cpp:425] loss1/ave_pool <- inception_4a/output_inception_4a/output_0_split_0
I0403 15:36:43.429587 20081 net.cpp:399] loss1/ave_pool -> loss1/ave_pool
I0403 15:36:43.429805 20081 net.cpp:141] Setting up loss1/ave_pool
I0403 15:36:43.429832 20081 net.cpp:148] Top shape: 24 512 4 4 (196608)
I0403 15:36:43.429847 20081 net.cpp:156] Memory required for data: 945501216
I0403 15:36:43.429862 20081 layer_factory.hpp:77] Creating layer loss1/conv
I0403 15:36:43.429884 20081 net.cpp:91] Creating Layer loss1/conv
I0403 15:36:43.429903 20081 net.cpp:425] loss1/conv <- loss1/ave_pool
I0403 15:36:43.429924 20081 net.cpp:399] loss1/conv -> loss1/conv
I0403 15:36:43.431424 20081 net.cpp:141] Setting up loss1/conv
I0403 15:36:43.431454 20081 net.cpp:148] Top shape: 24 128 4 4 (49152)
I0403 15:36:43.431484 20081 net.cpp:156] Memory required for data: 945697824
I0403 15:36:43.431505 20081 layer_factory.hpp:77] Creating layer loss1/relu_conv
I0403 15:36:43.431526 20081 net.cpp:91] Creating Layer loss1/relu_conv
I0403 15:36:43.431543 20081 net.cpp:425] loss1/relu_conv <- loss1/conv
I0403 15:36:43.431561 20081 net.cpp:386] loss1/relu_conv -> loss1/conv (in-place)
I0403 15:36:43.431860 20081 net.cpp:141] Setting up loss1/relu_conv
I0403 15:36:43.431887 20081 net.cpp:148] Top shape: 24 128 4 4 (49152)
I0403 15:36:43.431903 20081 net.cpp:156] Memory required for data: 945894432
I0403 15:36:43.431918 20081 layer_factory.hpp:77] Creating layer loss1/fc
I0403 15:36:43.431944 20081 net.cpp:91] Creating Layer loss1/fc
I0403 15:36:43.431963 20081 net.cpp:425] loss1/fc <- loss1/conv
I0403 15:36:43.431989 20081 net.cpp:399] loss1/fc -> loss1/fc
I0403 15:36:43.450098 20081 net.cpp:141] Setting up loss1/fc
I0403 15:36:43.450131 20081 net.cpp:148] Top shape: 24 1024 (24576)
I0403 15:36:43.450146 20081 net.cpp:156] Memory required for data: 945992736
I0403 15:36:43.450165 20081 layer_factory.hpp:77] Creating layer loss1/relu_fc
I0403 15:36:43.450181 20081 net.cpp:91] Creating Layer loss1/relu_fc
I0403 15:36:43.450197 20081 net.cpp:425] loss1/relu_fc <- loss1/fc
I0403 15:36:43.450218 20081 net.cpp:386] loss1/relu_fc -> loss1/fc (in-place)
I0403 15:36:43.450399 20081 net.cpp:141] Setting up loss1/relu_fc
I0403 15:36:43.450424 20081 net.cpp:148] Top shape: 24 1024 (24576)
I0403 15:36:43.450441 20081 net.cpp:156] Memory required for data: 946091040
I0403 15:36:43.450456 20081 layer_factory.hpp:77] Creating layer loss1/drop_fc
I0403 15:36:43.450481 20081 net.cpp:91] Creating Layer loss1/drop_fc
I0403 15:36:43.450497 20081 net.cpp:425] loss1/drop_fc <- loss1/fc
I0403 15:36:43.450515 20081 net.cpp:386] loss1/drop_fc -> loss1/fc (in-place)
I0403 15:36:43.450567 20081 net.cpp:141] Setting up loss1/drop_fc
I0403 15:36:43.450589 20081 net.cpp:148] Top shape: 24 1024 (24576)
I0403 15:36:43.450604 20081 net.cpp:156] Memory required for data: 946189344
I0403 15:36:43.450618 20081 layer_factory.hpp:77] Creating layer loss1/classifier_plantvillage
I0403 15:36:43.450637 20081 net.cpp:91] Creating Layer loss1/classifier_plantvillage
I0403 15:36:43.450652 20081 net.cpp:425] loss1/classifier_plantvillage <- loss1/fc
I0403 15:36:43.450673 20081 net.cpp:399] loss1/classifier_plantvillage -> loss1/classifier_plantvillage
I0403 15:36:43.451591 20081 net.cpp:141] Setting up loss1/classifier_plantvillage
I0403 15:36:43.451619 20081 net.cpp:148] Top shape: 24 38 (912)
I0403 15:36:43.451634 20081 net.cpp:156] Memory required for data: 946192992
I0403 15:36:43.451653 20081 layer_factory.hpp:77] Creating layer loss1/classifier_plantvillage_loss1/classifier_plantvillage_0_split
I0403 15:36:43.451673 20081 net.cpp:91] Creating Layer loss1/classifier_plantvillage_loss1/classifier_plantvillage_0_split
I0403 15:36:43.451690 20081 net.cpp:425] loss1/classifier_plantvillage_loss1/classifier_plantvillage_0_split <- loss1/classifier_plantvillage
I0403 15:36:43.451709 20081 net.cpp:399] loss1/classifier_plantvillage_loss1/classifier_plantvillage_0_split -> loss1/classifier_plantvillage_loss1/classifier_plantvillage_0_split_0
I0403 15:36:43.451728 20081 net.cpp:399] loss1/classifier_plantvillage_loss1/classifier_plantvillage_0_split -> loss1/classifier_plantvillage_loss1/classifier_plantvillage_0_split_1
I0403 15:36:43.451748 20081 net.cpp:399] loss1/classifier_plantvillage_loss1/classifier_plantvillage_0_split -> loss1/classifier_plantvillage_loss1/classifier_plantvillage_0_split_2
I0403 15:36:43.451820 20081 net.cpp:141] Setting up loss1/classifier_plantvillage_loss1/classifier_plantvillage_0_split
I0403 15:36:43.451844 20081 net.cpp:148] Top shape: 24 38 (912)
I0403 15:36:43.451860 20081 net.cpp:148] Top shape: 24 38 (912)
I0403 15:36:43.451875 20081 net.cpp:148] Top shape: 24 38 (912)
I0403 15:36:43.451889 20081 net.cpp:156] Memory required for data: 946203936
I0403 15:36:43.451905 20081 layer_factory.hpp:77] Creating layer inception_4b/1x1
I0403 15:36:43.451927 20081 net.cpp:91] Creating Layer inception_4b/1x1
I0403 15:36:43.451962 20081 net.cpp:425] inception_4b/1x1 <- inception_4a/output_inception_4a/output_0_split_1
I0403 15:36:43.451983 20081 net.cpp:399] inception_4b/1x1 -> inception_4b/1x1
I0403 15:36:43.453678 20081 net.cpp:141] Setting up inception_4b/1x1
I0403 15:36:43.453707 20081 net.cpp:148] Top shape: 24 160 14 14 (752640)
I0403 15:36:43.453723 20081 net.cpp:156] Memory required for data: 949214496
I0403 15:36:43.453742 20081 layer_factory.hpp:77] Creating layer inception_4b/relu_1x1
I0403 15:36:43.453761 20081 net.cpp:91] Creating Layer inception_4b/relu_1x1
I0403 15:36:43.453778 20081 net.cpp:425] inception_4b/relu_1x1 <- inception_4b/1x1
I0403 15:36:43.453795 20081 net.cpp:386] inception_4b/relu_1x1 -> inception_4b/1x1 (in-place)
I0403 15:36:43.453979 20081 net.cpp:141] Setting up inception_4b/relu_1x1
I0403 15:36:43.454008 20081 net.cpp:148] Top shape: 24 160 14 14 (752640)
I0403 15:36:43.454023 20081 net.cpp:156] Memory required for data: 952225056
I0403 15:36:43.454038 20081 layer_factory.hpp:77] Creating layer inception_4b/3x3_reduce
I0403 15:36:43.454063 20081 net.cpp:91] Creating Layer inception_4b/3x3_reduce
I0403 15:36:43.454082 20081 net.cpp:425] inception_4b/3x3_reduce <- inception_4a/output_inception_4a/output_0_split_2
I0403 15:36:43.454104 20081 net.cpp:399] inception_4b/3x3_reduce -> inception_4b/3x3_reduce
I0403 15:36:43.455485 20081 net.cpp:141] Setting up inception_4b/3x3_reduce
I0403 15:36:43.455515 20081 net.cpp:148] Top shape: 24 112 14 14 (526848)
I0403 15:36:43.455530 20081 net.cpp:156] Memory required for data: 954332448
I0403 15:36:43.455549 20081 layer_factory.hpp:77] Creating layer inception_4b/relu_3x3_reduce
I0403 15:36:43.455567 20081 net.cpp:91] Creating Layer inception_4b/relu_3x3_reduce
I0403 15:36:43.455584 20081 net.cpp:425] inception_4b/relu_3x3_reduce <- inception_4b/3x3_reduce
I0403 15:36:43.455603 20081 net.cpp:386] inception_4b/relu_3x3_reduce -> inception_4b/3x3_reduce (in-place)
I0403 15:36:43.455888 20081 net.cpp:141] Setting up inception_4b/relu_3x3_reduce
I0403 15:36:43.455922 20081 net.cpp:148] Top shape: 24 112 14 14 (526848)
I0403 15:36:43.455945 20081 net.cpp:156] Memory required for data: 956439840
I0403 15:36:43.455960 20081 layer_factory.hpp:77] Creating layer inception_4b/3x3
I0403 15:36:43.455983 20081 net.cpp:91] Creating Layer inception_4b/3x3
I0403 15:36:43.456007 20081 net.cpp:425] inception_4b/3x3 <- inception_4b/3x3_reduce
I0403 15:36:43.456028 20081 net.cpp:399] inception_4b/3x3 -> inception_4b/3x3
I0403 15:36:43.459098 20081 net.cpp:141] Setting up inception_4b/3x3
I0403 15:36:43.459128 20081 net.cpp:148] Top shape: 24 224 14 14 (1053696)
I0403 15:36:43.459144 20081 net.cpp:156] Memory required for data: 960654624
I0403 15:36:43.459162 20081 layer_factory.hpp:77] Creating layer inception_4b/relu_3x3
I0403 15:36:43.459183 20081 net.cpp:91] Creating Layer inception_4b/relu_3x3
I0403 15:36:43.459200 20081 net.cpp:425] inception_4b/relu_3x3 <- inception_4b/3x3
I0403 15:36:43.459218 20081 net.cpp:386] inception_4b/relu_3x3 -> inception_4b/3x3 (in-place)
I0403 15:36:43.459403 20081 net.cpp:141] Setting up inception_4b/relu_3x3
I0403 15:36:43.459430 20081 net.cpp:148] Top shape: 24 224 14 14 (1053696)
I0403 15:36:43.459446 20081 net.cpp:156] Memory required for data: 964869408
I0403 15:36:43.459461 20081 layer_factory.hpp:77] Creating layer inception_4b/5x5_reduce
I0403 15:36:43.459481 20081 net.cpp:91] Creating Layer inception_4b/5x5_reduce
I0403 15:36:43.459497 20081 net.cpp:425] inception_4b/5x5_reduce <- inception_4a/output_inception_4a/output_0_split_3
I0403 15:36:43.459519 20081 net.cpp:399] inception_4b/5x5_reduce -> inception_4b/5x5_reduce
I0403 15:36:43.460644 20081 net.cpp:141] Setting up inception_4b/5x5_reduce
I0403 15:36:43.460675 20081 net.cpp:148] Top shape: 24 24 14 14 (112896)
I0403 15:36:43.460692 20081 net.cpp:156] Memory required for data: 965320992
I0403 15:36:43.460711 20081 layer_factory.hpp:77] Creating layer inception_4b/relu_5x5_reduce
I0403 15:36:43.460728 20081 net.cpp:91] Creating Layer inception_4b/relu_5x5_reduce
I0403 15:36:43.460760 20081 net.cpp:425] inception_4b/relu_5x5_reduce <- inception_4b/5x5_reduce
I0403 15:36:43.460779 20081 net.cpp:386] inception_4b/relu_5x5_reduce -> inception_4b/5x5_reduce (in-place)
I0403 15:36:43.460973 20081 net.cpp:141] Setting up inception_4b/relu_5x5_reduce
I0403 15:36:43.461002 20081 net.cpp:148] Top shape: 24 24 14 14 (112896)
I0403 15:36:43.461019 20081 net.cpp:156] Memory required for data: 965772576
I0403 15:36:43.461032 20081 layer_factory.hpp:77] Creating layer inception_4b/5x5
I0403 15:36:43.461055 20081 net.cpp:91] Creating Layer inception_4b/5x5
I0403 15:36:43.461072 20081 net.cpp:425] inception_4b/5x5 <- inception_4b/5x5_reduce
I0403 15:36:43.461093 20081 net.cpp:399] inception_4b/5x5 -> inception_4b/5x5
I0403 15:36:43.462368 20081 net.cpp:141] Setting up inception_4b/5x5
I0403 15:36:43.462396 20081 net.cpp:148] Top shape: 24 64 14 14 (301056)
I0403 15:36:43.462411 20081 net.cpp:156] Memory required for data: 966976800
I0403 15:36:43.462430 20081 layer_factory.hpp:77] Creating layer inception_4b/relu_5x5
I0403 15:36:43.462450 20081 net.cpp:91] Creating Layer inception_4b/relu_5x5
I0403 15:36:43.462466 20081 net.cpp:425] inception_4b/relu_5x5 <- inception_4b/5x5
I0403 15:36:43.462484 20081 net.cpp:386] inception_4b/relu_5x5 -> inception_4b/5x5 (in-place)
I0403 15:36:43.462774 20081 net.cpp:141] Setting up inception_4b/relu_5x5
I0403 15:36:43.462801 20081 net.cpp:148] Top shape: 24 64 14 14 (301056)
I0403 15:36:43.462816 20081 net.cpp:156] Memory required for data: 968181024
I0403 15:36:43.462831 20081 layer_factory.hpp:77] Creating layer inception_4b/pool
I0403 15:36:43.462852 20081 net.cpp:91] Creating Layer inception_4b/pool
I0403 15:36:43.462868 20081 net.cpp:425] inception_4b/pool <- inception_4a/output_inception_4a/output_0_split_4
I0403 15:36:43.462888 20081 net.cpp:399] inception_4b/pool -> inception_4b/pool
I0403 15:36:43.462954 20081 net.cpp:141] Setting up inception_4b/pool
I0403 15:36:43.462978 20081 net.cpp:148] Top shape: 24 512 14 14 (2408448)
I0403 15:36:43.462998 20081 net.cpp:156] Memory required for data: 977814816
I0403 15:36:43.463014 20081 layer_factory.hpp:77] Creating layer inception_4b/pool_proj
I0403 15:36:43.463037 20081 net.cpp:91] Creating Layer inception_4b/pool_proj
I0403 15:36:43.463053 20081 net.cpp:425] inception_4b/pool_proj <- inception_4b/pool
I0403 15:36:43.463074 20081 net.cpp:399] inception_4b/pool_proj -> inception_4b/pool_proj
I0403 15:36:43.464315 20081 net.cpp:141] Setting up inception_4b/pool_proj
I0403 15:36:43.464345 20081 net.cpp:148] Top shape: 24 64 14 14 (301056)
I0403 15:36:43.464361 20081 net.cpp:156] Memory required for data: 979019040
I0403 15:36:43.464380 20081 layer_factory.hpp:77] Creating layer inception_4b/relu_pool_proj
I0403 15:36:43.464397 20081 net.cpp:91] Creating Layer inception_4b/relu_pool_proj
I0403 15:36:43.464413 20081 net.cpp:425] inception_4b/relu_pool_proj <- inception_4b/pool_proj
I0403 15:36:43.464433 20081 net.cpp:386] inception_4b/relu_pool_proj -> inception_4b/pool_proj (in-place)
I0403 15:36:43.464619 20081 net.cpp:141] Setting up inception_4b/relu_pool_proj
I0403 15:36:43.464644 20081 net.cpp:148] Top shape: 24 64 14 14 (301056)
I0403 15:36:43.464659 20081 net.cpp:156] Memory required for data: 980223264
I0403 15:36:43.464674 20081 layer_factory.hpp:77] Creating layer inception_4b/output
I0403 15:36:43.464691 20081 net.cpp:91] Creating Layer inception_4b/output
I0403 15:36:43.464706 20081 net.cpp:425] inception_4b/output <- inception_4b/1x1
I0403 15:36:43.464722 20081 net.cpp:425] inception_4b/output <- inception_4b/3x3
I0403 15:36:43.464740 20081 net.cpp:425] inception_4b/output <- inception_4b/5x5
I0403 15:36:43.464754 20081 net.cpp:425] inception_4b/output <- inception_4b/pool_proj
I0403 15:36:43.464776 20081 net.cpp:399] inception_4b/output -> inception_4b/output
I0403 15:36:43.464824 20081 net.cpp:141] Setting up inception_4b/output
I0403 15:36:43.464850 20081 net.cpp:148] Top shape: 24 512 14 14 (2408448)
I0403 15:36:43.464865 20081 net.cpp:156] Memory required for data: 989857056
I0403 15:36:43.464895 20081 layer_factory.hpp:77] Creating layer inception_4b/output_inception_4b/output_0_split
I0403 15:36:43.464913 20081 net.cpp:91] Creating Layer inception_4b/output_inception_4b/output_0_split
I0403 15:36:43.464929 20081 net.cpp:425] inception_4b/output_inception_4b/output_0_split <- inception_4b/output
I0403 15:36:43.464946 20081 net.cpp:399] inception_4b/output_inception_4b/output_0_split -> inception_4b/output_inception_4b/output_0_split_0
I0403 15:36:43.464967 20081 net.cpp:399] inception_4b/output_inception_4b/output_0_split -> inception_4b/output_inception_4b/output_0_split_1
I0403 15:36:43.464993 20081 net.cpp:399] inception_4b/output_inception_4b/output_0_split -> inception_4b/output_inception_4b/output_0_split_2
I0403 15:36:43.465016 20081 net.cpp:399] inception_4b/output_inception_4b/output_0_split -> inception_4b/output_inception_4b/output_0_split_3
I0403 15:36:43.465104 20081 net.cpp:141] Setting up inception_4b/output_inception_4b/output_0_split
I0403 15:36:43.465129 20081 net.cpp:148] Top shape: 24 512 14 14 (2408448)
I0403 15:36:43.465145 20081 net.cpp:148] Top shape: 24 512 14 14 (2408448)
I0403 15:36:43.465160 20081 net.cpp:148] Top shape: 24 512 14 14 (2408448)
I0403 15:36:43.465175 20081 net.cpp:148] Top shape: 24 512 14 14 (2408448)
I0403 15:36:43.465188 20081 net.cpp:156] Memory required for data: 1028392224
I0403 15:36:43.465203 20081 layer_factory.hpp:77] Creating layer inception_4c/1x1
I0403 15:36:43.465225 20081 net.cpp:91] Creating Layer inception_4c/1x1
I0403 15:36:43.465242 20081 net.cpp:425] inception_4c/1x1 <- inception_4b/output_inception_4b/output_0_split_0
I0403 15:36:43.465265 20081 net.cpp:399] inception_4c/1x1 -> inception_4c/1x1
I0403 15:36:43.466786 20081 net.cpp:141] Setting up inception_4c/1x1
I0403 15:36:43.466816 20081 net.cpp:148] Top shape: 24 128 14 14 (602112)
I0403 15:36:43.466831 20081 net.cpp:156] Memory required for data: 1030800672
I0403 15:36:43.466850 20081 layer_factory.hpp:77] Creating layer inception_4c/relu_1x1
I0403 15:36:43.466869 20081 net.cpp:91] Creating Layer inception_4c/relu_1x1
I0403 15:36:43.466886 20081 net.cpp:425] inception_4c/relu_1x1 <- inception_4c/1x1
I0403 15:36:43.466907 20081 net.cpp:386] inception_4c/relu_1x1 -> inception_4c/1x1 (in-place)
I0403 15:36:43.467108 20081 net.cpp:141] Setting up inception_4c/relu_1x1
I0403 15:36:43.467134 20081 net.cpp:148] Top shape: 24 128 14 14 (602112)
I0403 15:36:43.467149 20081 net.cpp:156] Memory required for data: 1033209120
I0403 15:36:43.467164 20081 layer_factory.hpp:77] Creating layer inception_4c/3x3_reduce
I0403 15:36:43.467187 20081 net.cpp:91] Creating Layer inception_4c/3x3_reduce
I0403 15:36:43.467206 20081 net.cpp:425] inception_4c/3x3_reduce <- inception_4b/output_inception_4b/output_0_split_1
I0403 15:36:43.467228 20081 net.cpp:399] inception_4c/3x3_reduce -> inception_4c/3x3_reduce
I0403 15:36:43.469293 20081 net.cpp:141] Setting up inception_4c/3x3_reduce
I0403 15:36:43.469324 20081 net.cpp:148] Top shape: 24 128 14 14 (602112)
I0403 15:36:43.469341 20081 net.cpp:156] Memory required for data: 1035617568
I0403 15:36:43.469359 20081 layer_factory.hpp:77] Creating layer inception_4c/relu_3x3_reduce
I0403 15:36:43.469382 20081 net.cpp:91] Creating Layer inception_4c/relu_3x3_reduce
I0403 15:36:43.469398 20081 net.cpp:425] inception_4c/relu_3x3_reduce <- inception_4c/3x3_reduce
I0403 15:36:43.469416 20081 net.cpp:386] inception_4c/relu_3x3_reduce -> inception_4c/3x3_reduce (in-place)
I0403 15:36:43.469717 20081 net.cpp:141] Setting up inception_4c/relu_3x3_reduce
I0403 15:36:43.469744 20081 net.cpp:148] Top shape: 24 128 14 14 (602112)
I0403 15:36:43.469759 20081 net.cpp:156] Memory required for data: 1038026016
I0403 15:36:43.469774 20081 layer_factory.hpp:77] Creating layer inception_4c/3x3
I0403 15:36:43.469799 20081 net.cpp:91] Creating Layer inception_4c/3x3
I0403 15:36:43.469816 20081 net.cpp:425] inception_4c/3x3 <- inception_4c/3x3_reduce
I0403 15:36:43.469840 20081 net.cpp:399] inception_4c/3x3 -> inception_4c/3x3
I0403 15:36:43.473683 20081 net.cpp:141] Setting up inception_4c/3x3
I0403 15:36:43.473726 20081 net.cpp:148] Top shape: 24 256 14 14 (1204224)
I0403 15:36:43.473743 20081 net.cpp:156] Memory required for data: 1042842912
I0403 15:36:43.473778 20081 layer_factory.hpp:77] Creating layer inception_4c/relu_3x3
I0403 15:36:43.473800 20081 net.cpp:91] Creating Layer inception_4c/relu_3x3
I0403 15:36:43.473819 20081 net.cpp:425] inception_4c/relu_3x3 <- inception_4c/3x3
I0403 15:36:43.473835 20081 net.cpp:386] inception_4c/relu_3x3 -> inception_4c/3x3 (in-place)
I0403 15:36:43.474036 20081 net.cpp:141] Setting up inception_4c/relu_3x3
I0403 15:36:43.474066 20081 net.cpp:148] Top shape: 24 256 14 14 (1204224)
I0403 15:36:43.474082 20081 net.cpp:156] Memory required for data: 1047659808
I0403 15:36:43.474097 20081 layer_factory.hpp:77] Creating layer inception_4c/5x5_reduce
I0403 15:36:43.474122 20081 net.cpp:91] Creating Layer inception_4c/5x5_reduce
I0403 15:36:43.474140 20081 net.cpp:425] inception_4c/5x5_reduce <- inception_4b/output_inception_4b/output_0_split_2
I0403 15:36:43.474160 20081 net.cpp:399] inception_4c/5x5_reduce -> inception_4c/5x5_reduce
I0403 15:36:43.475325 20081 net.cpp:141] Setting up inception_4c/5x5_reduce
I0403 15:36:43.475358 20081 net.cpp:148] Top shape: 24 24 14 14 (112896)
I0403 15:36:43.475374 20081 net.cpp:156] Memory required for data: 1048111392
I0403 15:36:43.475394 20081 layer_factory.hpp:77] Creating layer inception_4c/relu_5x5_reduce
I0403 15:36:43.475412 20081 net.cpp:91] Creating Layer inception_4c/relu_5x5_reduce
I0403 15:36:43.475428 20081 net.cpp:425] inception_4c/relu_5x5_reduce <- inception_4c/5x5_reduce
I0403 15:36:43.475446 20081 net.cpp:386] inception_4c/relu_5x5_reduce -> inception_4c/5x5_reduce (in-place)
I0403 15:36:43.475656 20081 net.cpp:141] Setting up inception_4c/relu_5x5_reduce
I0403 15:36:43.475682 20081 net.cpp:148] Top shape: 24 24 14 14 (112896)
I0403 15:36:43.475697 20081 net.cpp:156] Memory required for data: 1048562976
I0403 15:36:43.475713 20081 layer_factory.hpp:77] Creating layer inception_4c/5x5
I0403 15:36:43.475735 20081 net.cpp:91] Creating Layer inception_4c/5x5
I0403 15:36:43.475754 20081 net.cpp:425] inception_4c/5x5 <- inception_4c/5x5_reduce
I0403 15:36:43.475775 20081 net.cpp:399] inception_4c/5x5 -> inception_4c/5x5
I0403 15:36:43.477102 20081 net.cpp:141] Setting up inception_4c/5x5
I0403 15:36:43.477131 20081 net.cpp:148] Top shape: 24 64 14 14 (301056)
I0403 15:36:43.477147 20081 net.cpp:156] Memory required for data: 1049767200
I0403 15:36:43.477166 20081 layer_factory.hpp:77] Creating layer inception_4c/relu_5x5
I0403 15:36:43.477185 20081 net.cpp:91] Creating Layer inception_4c/relu_5x5
I0403 15:36:43.477201 20081 net.cpp:425] inception_4c/relu_5x5 <- inception_4c/5x5
I0403 15:36:43.477224 20081 net.cpp:386] inception_4c/relu_5x5 -> inception_4c/5x5 (in-place)
I0403 15:36:43.477530 20081 net.cpp:141] Setting up inception_4c/relu_5x5
I0403 15:36:43.477557 20081 net.cpp:148] Top shape: 24 64 14 14 (301056)
I0403 15:36:43.477572 20081 net.cpp:156] Memory required for data: 1050971424
I0403 15:36:43.477588 20081 layer_factory.hpp:77] Creating layer inception_4c/pool
I0403 15:36:43.477607 20081 net.cpp:91] Creating Layer inception_4c/pool
I0403 15:36:43.477623 20081 net.cpp:425] inception_4c/pool <- inception_4b/output_inception_4b/output_0_split_3
I0403 15:36:43.477644 20081 net.cpp:399] inception_4c/pool -> inception_4c/pool
I0403 15:36:43.477715 20081 net.cpp:141] Setting up inception_4c/pool
I0403 15:36:43.477740 20081 net.cpp:148] Top shape: 24 512 14 14 (2408448)
I0403 15:36:43.477754 20081 net.cpp:156] Memory required for data: 1060605216
I0403 15:36:43.477769 20081 layer_factory.hpp:77] Creating layer inception_4c/pool_proj
I0403 15:36:43.477793 20081 net.cpp:91] Creating Layer inception_4c/pool_proj
I0403 15:36:43.477812 20081 net.cpp:425] inception_4c/pool_proj <- inception_4c/pool
I0403 15:36:43.477831 20081 net.cpp:399] inception_4c/pool_proj -> inception_4c/pool_proj
I0403 15:36:43.479138 20081 net.cpp:141] Setting up inception_4c/pool_proj
I0403 15:36:43.479167 20081 net.cpp:148] Top shape: 24 64 14 14 (301056)
I0403 15:36:43.479198 20081 net.cpp:156] Memory required for data: 1061809440
I0403 15:36:43.479219 20081 layer_factory.hpp:77] Creating layer inception_4c/relu_pool_proj
I0403 15:36:43.479241 20081 net.cpp:91] Creating Layer inception_4c/relu_pool_proj
I0403 15:36:43.479259 20081 net.cpp:425] inception_4c/relu_pool_proj <- inception_4c/pool_proj
I0403 15:36:43.479276 20081 net.cpp:386] inception_4c/relu_pool_proj -> inception_4c/pool_proj (in-place)
I0403 15:36:43.479471 20081 net.cpp:141] Setting up inception_4c/relu_pool_proj
I0403 15:36:43.479497 20081 net.cpp:148] Top shape: 24 64 14 14 (301056)
I0403 15:36:43.479512 20081 net.cpp:156] Memory required for data: 1063013664
I0403 15:36:43.479526 20081 layer_factory.hpp:77] Creating layer inception_4c/output
I0403 15:36:43.479544 20081 net.cpp:91] Creating Layer inception_4c/output
I0403 15:36:43.479560 20081 net.cpp:425] inception_4c/output <- inception_4c/1x1
I0403 15:36:43.479578 20081 net.cpp:425] inception_4c/output <- inception_4c/3x3
I0403 15:36:43.479593 20081 net.cpp:425] inception_4c/output <- inception_4c/5x5
I0403 15:36:43.479609 20081 net.cpp:425] inception_4c/output <- inception_4c/pool_proj
I0403 15:36:43.479629 20081 net.cpp:399] inception_4c/output -> inception_4c/output
I0403 15:36:43.479678 20081 net.cpp:141] Setting up inception_4c/output
I0403 15:36:43.479707 20081 net.cpp:148] Top shape: 24 512 14 14 (2408448)
I0403 15:36:43.479722 20081 net.cpp:156] Memory required for data: 1072647456
I0403 15:36:43.479737 20081 layer_factory.hpp:77] Creating layer inception_4c/output_inception_4c/output_0_split
I0403 15:36:43.479754 20081 net.cpp:91] Creating Layer inception_4c/output_inception_4c/output_0_split
I0403 15:36:43.479769 20081 net.cpp:425] inception_4c/output_inception_4c/output_0_split <- inception_4c/output
I0403 15:36:43.479787 20081 net.cpp:399] inception_4c/output_inception_4c/output_0_split -> inception_4c/output_inception_4c/output_0_split_0
I0403 15:36:43.479809 20081 net.cpp:399] inception_4c/output_inception_4c/output_0_split -> inception_4c/output_inception_4c/output_0_split_1
I0403 15:36:43.479830 20081 net.cpp:399] inception_4c/output_inception_4c/output_0_split -> inception_4c/output_inception_4c/output_0_split_2
I0403 15:36:43.479852 20081 net.cpp:399] inception_4c/output_inception_4c/output_0_split -> inception_4c/output_inception_4c/output_0_split_3
I0403 15:36:43.479944 20081 net.cpp:141] Setting up inception_4c/output_inception_4c/output_0_split
I0403 15:36:43.479969 20081 net.cpp:148] Top shape: 24 512 14 14 (2408448)
I0403 15:36:43.479990 20081 net.cpp:148] Top shape: 24 512 14 14 (2408448)
I0403 15:36:43.480007 20081 net.cpp:148] Top shape: 24 512 14 14 (2408448)
I0403 15:36:43.480025 20081 net.cpp:148] Top shape: 24 512 14 14 (2408448)
I0403 15:36:43.480038 20081 net.cpp:156] Memory required for data: 1111182624
I0403 15:36:43.480052 20081 layer_factory.hpp:77] Creating layer inception_4d/1x1
I0403 15:36:43.480077 20081 net.cpp:91] Creating Layer inception_4d/1x1
I0403 15:36:43.480096 20081 net.cpp:425] inception_4d/1x1 <- inception_4c/output_inception_4c/output_0_split_0
I0403 15:36:43.480118 20081 net.cpp:399] inception_4d/1x1 -> inception_4d/1x1
I0403 15:36:43.481587 20081 net.cpp:141] Setting up inception_4d/1x1
I0403 15:36:43.481616 20081 net.cpp:148] Top shape: 24 112 14 14 (526848)
I0403 15:36:43.481632 20081 net.cpp:156] Memory required for data: 1113290016
I0403 15:36:43.481650 20081 layer_factory.hpp:77] Creating layer inception_4d/relu_1x1
I0403 15:36:43.481672 20081 net.cpp:91] Creating Layer inception_4d/relu_1x1
I0403 15:36:43.481688 20081 net.cpp:425] inception_4d/relu_1x1 <- inception_4d/1x1
I0403 15:36:43.481706 20081 net.cpp:386] inception_4d/relu_1x1 -> inception_4d/1x1 (in-place)
I0403 15:36:43.481899 20081 net.cpp:141] Setting up inception_4d/relu_1x1
I0403 15:36:43.481927 20081 net.cpp:148] Top shape: 24 112 14 14 (526848)
I0403 15:36:43.481942 20081 net.cpp:156] Memory required for data: 1115397408
I0403 15:36:43.481958 20081 layer_factory.hpp:77] Creating layer inception_4d/3x3_reduce
I0403 15:36:43.482000 20081 net.cpp:91] Creating Layer inception_4d/3x3_reduce
I0403 15:36:43.482020 20081 net.cpp:425] inception_4d/3x3_reduce <- inception_4c/output_inception_4c/output_0_split_1
I0403 15:36:43.482041 20081 net.cpp:399] inception_4d/3x3_reduce -> inception_4d/3x3_reduce
I0403 15:36:43.483647 20081 net.cpp:141] Setting up inception_4d/3x3_reduce
I0403 15:36:43.483675 20081 net.cpp:148] Top shape: 24 144 14 14 (677376)
I0403 15:36:43.483691 20081 net.cpp:156] Memory required for data: 1118106912
I0403 15:36:43.483711 20081 layer_factory.hpp:77] Creating layer inception_4d/relu_3x3_reduce
I0403 15:36:43.483728 20081 net.cpp:91] Creating Layer inception_4d/relu_3x3_reduce
I0403 15:36:43.483748 20081 net.cpp:425] inception_4d/relu_3x3_reduce <- inception_4d/3x3_reduce
I0403 15:36:43.483767 20081 net.cpp:386] inception_4d/relu_3x3_reduce -> inception_4d/3x3_reduce (in-place)
I0403 15:36:43.484077 20081 net.cpp:141] Setting up inception_4d/relu_3x3_reduce
I0403 15:36:43.484105 20081 net.cpp:148] Top shape: 24 144 14 14 (677376)
I0403 15:36:43.484120 20081 net.cpp:156] Memory required for data: 1120816416
I0403 15:36:43.484135 20081 layer_factory.hpp:77] Creating layer inception_4d/3x3
I0403 15:36:43.484159 20081 net.cpp:91] Creating Layer inception_4d/3x3
I0403 15:36:43.484177 20081 net.cpp:425] inception_4d/3x3 <- inception_4d/3x3_reduce
I0403 15:36:43.484200 20081 net.cpp:399] inception_4d/3x3 -> inception_4d/3x3
I0403 15:36:43.488646 20081 net.cpp:141] Setting up inception_4d/3x3
I0403 15:36:43.488675 20081 net.cpp:148] Top shape: 24 288 14 14 (1354752)
I0403 15:36:43.488692 20081 net.cpp:156] Memory required for data: 1126235424
I0403 15:36:43.488709 20081 layer_factory.hpp:77] Creating layer inception_4d/relu_3x3
I0403 15:36:43.488730 20081 net.cpp:91] Creating Layer inception_4d/relu_3x3
I0403 15:36:43.488749 20081 net.cpp:425] inception_4d/relu_3x3 <- inception_4d/3x3
I0403 15:36:43.488765 20081 net.cpp:386] inception_4d/relu_3x3 -> inception_4d/3x3 (in-place)
I0403 15:36:43.488958 20081 net.cpp:141] Setting up inception_4d/relu_3x3
I0403 15:36:43.488996 20081 net.cpp:148] Top shape: 24 288 14 14 (1354752)
I0403 15:36:43.489014 20081 net.cpp:156] Memory required for data: 1131654432
I0403 15:36:43.489029 20081 layer_factory.hpp:77] Creating layer inception_4d/5x5_reduce
I0403 15:36:43.489053 20081 net.cpp:91] Creating Layer inception_4d/5x5_reduce
I0403 15:36:43.489069 20081 net.cpp:425] inception_4d/5x5_reduce <- inception_4c/output_inception_4c/output_0_split_2
I0403 15:36:43.489089 20081 net.cpp:399] inception_4d/5x5_reduce -> inception_4d/5x5_reduce
I0403 15:36:43.490275 20081 net.cpp:141] Setting up inception_4d/5x5_reduce
I0403 15:36:43.490304 20081 net.cpp:148] Top shape: 24 32 14 14 (150528)
I0403 15:36:43.490319 20081 net.cpp:156] Memory required for data: 1132256544
I0403 15:36:43.490339 20081 layer_factory.hpp:77] Creating layer inception_4d/relu_5x5_reduce
I0403 15:36:43.490358 20081 net.cpp:91] Creating Layer inception_4d/relu_5x5_reduce
I0403 15:36:43.490375 20081 net.cpp:425] inception_4d/relu_5x5_reduce <- inception_4d/5x5_reduce
I0403 15:36:43.490393 20081 net.cpp:386] inception_4d/relu_5x5_reduce -> inception_4d/5x5_reduce (in-place)
I0403 15:36:43.490582 20081 net.cpp:141] Setting up inception_4d/relu_5x5_reduce
I0403 15:36:43.490610 20081 net.cpp:148] Top shape: 24 32 14 14 (150528)
I0403 15:36:43.490627 20081 net.cpp:156] Memory required for data: 1132858656
I0403 15:36:43.490640 20081 layer_factory.hpp:77] Creating layer inception_4d/5x5
I0403 15:36:43.490663 20081 net.cpp:91] Creating Layer inception_4d/5x5
I0403 15:36:43.490680 20081 net.cpp:425] inception_4d/5x5 <- inception_4d/5x5_reduce
I0403 15:36:43.490700 20081 net.cpp:399] inception_4d/5x5 -> inception_4d/5x5
I0403 15:36:43.492275 20081 net.cpp:141] Setting up inception_4d/5x5
I0403 15:36:43.492306 20081 net.cpp:148] Top shape: 24 64 14 14 (301056)
I0403 15:36:43.492322 20081 net.cpp:156] Memory required for data: 1134062880
I0403 15:36:43.492341 20081 layer_factory.hpp:77] Creating layer inception_4d/relu_5x5
I0403 15:36:43.492377 20081 net.cpp:91] Creating Layer inception_4d/relu_5x5
I0403 15:36:43.492394 20081 net.cpp:425] inception_4d/relu_5x5 <- inception_4d/5x5
I0403 15:36:43.492414 20081 net.cpp:386] inception_4d/relu_5x5 -> inception_4d/5x5 (in-place)
I0403 15:36:43.492719 20081 net.cpp:141] Setting up inception_4d/relu_5x5
I0403 15:36:43.492750 20081 net.cpp:148] Top shape: 24 64 14 14 (301056)
I0403 15:36:43.492768 20081 net.cpp:156] Memory required for data: 1135267104
I0403 15:36:43.492782 20081 layer_factory.hpp:77] Creating layer inception_4d/pool
I0403 15:36:43.492799 20081 net.cpp:91] Creating Layer inception_4d/pool
I0403 15:36:43.492815 20081 net.cpp:425] inception_4d/pool <- inception_4c/output_inception_4c/output_0_split_3
I0403 15:36:43.492836 20081 net.cpp:399] inception_4d/pool -> inception_4d/pool
I0403 15:36:43.492905 20081 net.cpp:141] Setting up inception_4d/pool
I0403 15:36:43.492929 20081 net.cpp:148] Top shape: 24 512 14 14 (2408448)
I0403 15:36:43.492944 20081 net.cpp:156] Memory required for data: 1144900896
I0403 15:36:43.492957 20081 layer_factory.hpp:77] Creating layer inception_4d/pool_proj
I0403 15:36:43.492981 20081 net.cpp:91] Creating Layer inception_4d/pool_proj
I0403 15:36:43.493005 20081 net.cpp:425] inception_4d/pool_proj <- inception_4d/pool
I0403 15:36:43.493023 20081 net.cpp:399] inception_4d/pool_proj -> inception_4d/pool_proj
I0403 15:36:43.494830 20081 net.cpp:141] Setting up inception_4d/pool_proj
I0403 15:36:43.494859 20081 net.cpp:148] Top shape: 24 64 14 14 (301056)
I0403 15:36:43.494875 20081 net.cpp:156] Memory required for data: 1146105120
I0403 15:36:43.494894 20081 layer_factory.hpp:77] Creating layer inception_4d/relu_pool_proj
I0403 15:36:43.494913 20081 net.cpp:91] Creating Layer inception_4d/relu_pool_proj
I0403 15:36:43.494931 20081 net.cpp:425] inception_4d/relu_pool_proj <- inception_4d/pool_proj
I0403 15:36:43.494949 20081 net.cpp:386] inception_4d/relu_pool_proj -> inception_4d/pool_proj (in-place)
I0403 15:36:43.495144 20081 net.cpp:141] Setting up inception_4d/relu_pool_proj
I0403 15:36:43.495172 20081 net.cpp:148] Top shape: 24 64 14 14 (301056)
I0403 15:36:43.495187 20081 net.cpp:156] Memory required for data: 1147309344
I0403 15:36:43.495203 20081 layer_factory.hpp:77] Creating layer inception_4d/output
I0403 15:36:43.495221 20081 net.cpp:91] Creating Layer inception_4d/output
I0403 15:36:43.495237 20081 net.cpp:425] inception_4d/output <- inception_4d/1x1
I0403 15:36:43.495254 20081 net.cpp:425] inception_4d/output <- inception_4d/3x3
I0403 15:36:43.495270 20081 net.cpp:425] inception_4d/output <- inception_4d/5x5
I0403 15:36:43.495285 20081 net.cpp:425] inception_4d/output <- inception_4d/pool_proj
I0403 15:36:43.495302 20081 net.cpp:399] inception_4d/output -> inception_4d/output
I0403 15:36:43.495353 20081 net.cpp:141] Setting up inception_4d/output
I0403 15:36:43.495378 20081 net.cpp:148] Top shape: 24 528 14 14 (2483712)
I0403 15:36:43.495393 20081 net.cpp:156] Memory required for data: 1157244192
I0403 15:36:43.495406 20081 layer_factory.hpp:77] Creating layer inception_4d/output_inception_4d/output_0_split
I0403 15:36:43.495426 20081 net.cpp:91] Creating Layer inception_4d/output_inception_4d/output_0_split
I0403 15:36:43.495443 20081 net.cpp:425] inception_4d/output_inception_4d/output_0_split <- inception_4d/output
I0403 15:36:43.495461 20081 net.cpp:399] inception_4d/output_inception_4d/output_0_split -> inception_4d/output_inception_4d/output_0_split_0
I0403 15:36:43.495482 20081 net.cpp:399] inception_4d/output_inception_4d/output_0_split -> inception_4d/output_inception_4d/output_0_split_1
I0403 15:36:43.495507 20081 net.cpp:399] inception_4d/output_inception_4d/output_0_split -> inception_4d/output_inception_4d/output_0_split_2
I0403 15:36:43.495528 20081 net.cpp:399] inception_4d/output_inception_4d/output_0_split -> inception_4d/output_inception_4d/output_0_split_3
I0403 15:36:43.495548 20081 net.cpp:399] inception_4d/output_inception_4d/output_0_split -> inception_4d/output_inception_4d/output_0_split_4
I0403 15:36:43.495651 20081 net.cpp:141] Setting up inception_4d/output_inception_4d/output_0_split
I0403 15:36:43.495690 20081 net.cpp:148] Top shape: 24 528 14 14 (2483712)
I0403 15:36:43.495707 20081 net.cpp:148] Top shape: 24 528 14 14 (2483712)
I0403 15:36:43.495728 20081 net.cpp:148] Top shape: 24 528 14 14 (2483712)
I0403 15:36:43.495753 20081 net.cpp:148] Top shape: 24 528 14 14 (2483712)
I0403 15:36:43.495777 20081 net.cpp:148] Top shape: 24 528 14 14 (2483712)
I0403 15:36:43.495795 20081 net.cpp:156] Memory required for data: 1206918432
I0403 15:36:43.495808 20081 layer_factory.hpp:77] Creating layer loss2/ave_pool
I0403 15:36:43.495826 20081 net.cpp:91] Creating Layer loss2/ave_pool
I0403 15:36:43.495842 20081 net.cpp:425] loss2/ave_pool <- inception_4d/output_inception_4d/output_0_split_0
I0403 15:36:43.495863 20081 net.cpp:399] loss2/ave_pool -> loss2/ave_pool
I0403 15:36:43.496196 20081 net.cpp:141] Setting up loss2/ave_pool
I0403 15:36:43.496223 20081 net.cpp:148] Top shape: 24 528 4 4 (202752)
I0403 15:36:43.496238 20081 net.cpp:156] Memory required for data: 1207729440
I0403 15:36:43.496253 20081 layer_factory.hpp:77] Creating layer loss2/conv
I0403 15:36:43.496275 20081 net.cpp:91] Creating Layer loss2/conv
I0403 15:36:43.496294 20081 net.cpp:425] loss2/conv <- loss2/ave_pool
I0403 15:36:43.496315 20081 net.cpp:399] loss2/conv -> loss2/conv
I0403 15:36:43.498320 20081 net.cpp:141] Setting up loss2/conv
I0403 15:36:43.498352 20081 net.cpp:148] Top shape: 24 128 4 4 (49152)
I0403 15:36:43.498368 20081 net.cpp:156] Memory required for data: 1207926048
I0403 15:36:43.498385 20081 layer_factory.hpp:77] Creating layer loss2/relu_conv
I0403 15:36:43.498404 20081 net.cpp:91] Creating Layer loss2/relu_conv
I0403 15:36:43.498420 20081 net.cpp:425] loss2/relu_conv <- loss2/conv
I0403 15:36:43.498440 20081 net.cpp:386] loss2/relu_conv -> loss2/conv (in-place)
I0403 15:36:43.498733 20081 net.cpp:141] Setting up loss2/relu_conv
I0403 15:36:43.498761 20081 net.cpp:148] Top shape: 24 128 4 4 (49152)
I0403 15:36:43.498777 20081 net.cpp:156] Memory required for data: 1208122656
I0403 15:36:43.498792 20081 layer_factory.hpp:77] Creating layer loss2/fc
I0403 15:36:43.498811 20081 net.cpp:91] Creating Layer loss2/fc
I0403 15:36:43.498828 20081 net.cpp:425] loss2/fc <- loss2/conv
I0403 15:36:43.498853 20081 net.cpp:399] loss2/fc -> loss2/fc
I0403 15:36:43.517124 20081 net.cpp:141] Setting up loss2/fc
I0403 15:36:43.517161 20081 net.cpp:148] Top shape: 24 1024 (24576)
I0403 15:36:43.517176 20081 net.cpp:156] Memory required for data: 1208220960
I0403 15:36:43.517194 20081 layer_factory.hpp:77] Creating layer loss2/relu_fc
I0403 15:36:43.517216 20081 net.cpp:91] Creating Layer loss2/relu_fc
I0403 15:36:43.517233 20081 net.cpp:425] loss2/relu_fc <- loss2/fc
I0403 15:36:43.517251 20081 net.cpp:386] loss2/relu_fc -> loss2/fc (in-place)
I0403 15:36:43.517554 20081 net.cpp:141] Setting up loss2/relu_fc
I0403 15:36:43.517578 20081 net.cpp:148] Top shape: 24 1024 (24576)
I0403 15:36:43.517592 20081 net.cpp:156] Memory required for data: 1208319264
I0403 15:36:43.517607 20081 layer_factory.hpp:77] Creating layer loss2/drop_fc
I0403 15:36:43.517627 20081 net.cpp:91] Creating Layer loss2/drop_fc
I0403 15:36:43.517642 20081 net.cpp:425] loss2/drop_fc <- loss2/fc
I0403 15:36:43.517659 20081 net.cpp:386] loss2/drop_fc -> loss2/fc (in-place)
I0403 15:36:43.517710 20081 net.cpp:141] Setting up loss2/drop_fc
I0403 15:36:43.517732 20081 net.cpp:148] Top shape: 24 1024 (24576)
I0403 15:36:43.517746 20081 net.cpp:156] Memory required for data: 1208417568
I0403 15:36:43.517761 20081 layer_factory.hpp:77] Creating layer loss2/classifier_plantvillage
I0403 15:36:43.517778 20081 net.cpp:91] Creating Layer loss2/classifier_plantvillage
I0403 15:36:43.517793 20081 net.cpp:425] loss2/classifier_plantvillage <- loss2/fc
I0403 15:36:43.517814 20081 net.cpp:399] loss2/classifier_plantvillage -> loss2/classifier_plantvillage
I0403 15:36:43.518230 20081 net.cpp:141] Setting up loss2/classifier_plantvillage
I0403 15:36:43.518255 20081 net.cpp:148] Top shape: 24 38 (912)
I0403 15:36:43.518290 20081 net.cpp:156] Memory required for data: 1208421216
I0403 15:36:43.518308 20081 layer_factory.hpp:77] Creating layer loss2/classifier_plantvillage_loss2/classifier_plantvillage_0_split
I0403 15:36:43.518326 20081 net.cpp:91] Creating Layer loss2/classifier_plantvillage_loss2/classifier_plantvillage_0_split
I0403 15:36:43.518342 20081 net.cpp:425] loss2/classifier_plantvillage_loss2/classifier_plantvillage_0_split <- loss2/classifier_plantvillage
I0403 15:36:43.518362 20081 net.cpp:399] loss2/classifier_plantvillage_loss2/classifier_plantvillage_0_split -> loss2/classifier_plantvillage_loss2/classifier_plantvillage_0_split_0
I0403 15:36:43.518383 20081 net.cpp:399] loss2/classifier_plantvillage_loss2/classifier_plantvillage_0_split -> loss2/classifier_plantvillage_loss2/classifier_plantvillage_0_split_1
I0403 15:36:43.518404 20081 net.cpp:399] loss2/classifier_plantvillage_loss2/classifier_plantvillage_0_split -> loss2/classifier_plantvillage_loss2/classifier_plantvillage_0_split_2
I0403 15:36:43.518479 20081 net.cpp:141] Setting up loss2/classifier_plantvillage_loss2/classifier_plantvillage_0_split
I0403 15:36:43.518504 20081 net.cpp:148] Top shape: 24 38 (912)
I0403 15:36:43.518520 20081 net.cpp:148] Top shape: 24 38 (912)
I0403 15:36:43.518535 20081 net.cpp:148] Top shape: 24 38 (912)
I0403 15:36:43.518548 20081 net.cpp:156] Memory required for data: 1208432160
I0403 15:36:43.518563 20081 layer_factory.hpp:77] Creating layer inception_4e/1x1
I0403 15:36:43.518582 20081 net.cpp:91] Creating Layer inception_4e/1x1
I0403 15:36:43.518599 20081 net.cpp:425] inception_4e/1x1 <- inception_4d/output_inception_4d/output_0_split_1
I0403 15:36:43.518616 20081 net.cpp:399] inception_4e/1x1 -> inception_4e/1x1
I0403 15:36:43.520479 20081 net.cpp:141] Setting up inception_4e/1x1
I0403 15:36:43.520506 20081 net.cpp:148] Top shape: 24 256 14 14 (1204224)
I0403 15:36:43.520521 20081 net.cpp:156] Memory required for data: 1213249056
I0403 15:36:43.520539 20081 layer_factory.hpp:77] Creating layer inception_4e/relu_1x1
I0403 15:36:43.520556 20081 net.cpp:91] Creating Layer inception_4e/relu_1x1
I0403 15:36:43.520571 20081 net.cpp:425] inception_4e/relu_1x1 <- inception_4e/1x1
I0403 15:36:43.520591 20081 net.cpp:386] inception_4e/relu_1x1 -> inception_4e/1x1 (in-place)
I0403 15:36:43.520889 20081 net.cpp:141] Setting up inception_4e/relu_1x1
I0403 15:36:43.520915 20081 net.cpp:148] Top shape: 24 256 14 14 (1204224)
I0403 15:36:43.520931 20081 net.cpp:156] Memory required for data: 1218065952
I0403 15:36:43.520944 20081 layer_factory.hpp:77] Creating layer inception_4e/3x3_reduce
I0403 15:36:43.520967 20081 net.cpp:91] Creating Layer inception_4e/3x3_reduce
I0403 15:36:43.520984 20081 net.cpp:425] inception_4e/3x3_reduce <- inception_4d/output_inception_4d/output_0_split_2
I0403 15:36:43.521011 20081 net.cpp:399] inception_4e/3x3_reduce -> inception_4e/3x3_reduce
I0403 15:36:43.523165 20081 net.cpp:141] Setting up inception_4e/3x3_reduce
I0403 15:36:43.523196 20081 net.cpp:148] Top shape: 24 160 14 14 (752640)
I0403 15:36:43.523214 20081 net.cpp:156] Memory required for data: 1221076512
I0403 15:36:43.523231 20081 layer_factory.hpp:77] Creating layer inception_4e/relu_3x3_reduce
I0403 15:36:43.523249 20081 net.cpp:91] Creating Layer inception_4e/relu_3x3_reduce
I0403 15:36:43.523265 20081 net.cpp:425] inception_4e/relu_3x3_reduce <- inception_4e/3x3_reduce
I0403 15:36:43.523284 20081 net.cpp:386] inception_4e/relu_3x3_reduce -> inception_4e/3x3_reduce (in-place)
I0403 15:36:43.523468 20081 net.cpp:141] Setting up inception_4e/relu_3x3_reduce
I0403 15:36:43.523493 20081 net.cpp:148] Top shape: 24 160 14 14 (752640)
I0403 15:36:43.523507 20081 net.cpp:156] Memory required for data: 1224087072
I0403 15:36:43.523521 20081 layer_factory.hpp:77] Creating layer inception_4e/3x3
I0403 15:36:43.523542 20081 net.cpp:91] Creating Layer inception_4e/3x3
I0403 15:36:43.523561 20081 net.cpp:425] inception_4e/3x3 <- inception_4e/3x3_reduce
I0403 15:36:43.523581 20081 net.cpp:399] inception_4e/3x3 -> inception_4e/3x3
I0403 15:36:43.528571 20081 net.cpp:141] Setting up inception_4e/3x3
I0403 15:36:43.528612 20081 net.cpp:148] Top shape: 24 320 14 14 (1505280)
I0403 15:36:43.528627 20081 net.cpp:156] Memory required for data: 1230108192
I0403 15:36:43.528645 20081 layer_factory.hpp:77] Creating layer inception_4e/relu_3x3
I0403 15:36:43.528662 20081 net.cpp:91] Creating Layer inception_4e/relu_3x3
I0403 15:36:43.528678 20081 net.cpp:425] inception_4e/relu_3x3 <- inception_4e/3x3
I0403 15:36:43.528698 20081 net.cpp:386] inception_4e/relu_3x3 -> inception_4e/3x3 (in-place)
I0403 15:36:43.529009 20081 net.cpp:141] Setting up inception_4e/relu_3x3
I0403 15:36:43.529036 20081 net.cpp:148] Top shape: 24 320 14 14 (1505280)
I0403 15:36:43.529050 20081 net.cpp:156] Memory required for data: 1236129312
I0403 15:36:43.529064 20081 layer_factory.hpp:77] Creating layer inception_4e/5x5_reduce
I0403 15:36:43.529089 20081 net.cpp:91] Creating Layer inception_4e/5x5_reduce
I0403 15:36:43.529108 20081 net.cpp:425] inception_4e/5x5_reduce <- inception_4d/output_inception_4d/output_0_split_3
I0403 15:36:43.529129 20081 net.cpp:399] inception_4e/5x5_reduce -> inception_4e/5x5_reduce
I0403 15:36:43.530197 20081 net.cpp:141] Setting up inception_4e/5x5_reduce
I0403 15:36:43.530230 20081 net.cpp:148] Top shape: 24 32 14 14 (150528)
I0403 15:36:43.530246 20081 net.cpp:156] Memory required for data: 1236731424
I0403 15:36:43.530264 20081 layer_factory.hpp:77] Creating layer inception_4e/relu_5x5_reduce
I0403 15:36:43.530282 20081 net.cpp:91] Creating Layer inception_4e/relu_5x5_reduce
I0403 15:36:43.530297 20081 net.cpp:425] inception_4e/relu_5x5_reduce <- inception_4e/5x5_reduce
I0403 15:36:43.530316 20081 net.cpp:386] inception_4e/relu_5x5_reduce -> inception_4e/5x5_reduce (in-place)
I0403 15:36:43.530611 20081 net.cpp:141] Setting up inception_4e/relu_5x5_reduce
I0403 15:36:43.530638 20081 net.cpp:148] Top shape: 24 32 14 14 (150528)
I0403 15:36:43.530654 20081 net.cpp:156] Memory required for data: 1237333536
I0403 15:36:43.530668 20081 layer_factory.hpp:77] Creating layer inception_4e/5x5
I0403 15:36:43.530707 20081 net.cpp:91] Creating Layer inception_4e/5x5
I0403 15:36:43.530725 20081 net.cpp:425] inception_4e/5x5 <- inception_4e/5x5_reduce
I0403 15:36:43.530745 20081 net.cpp:399] inception_4e/5x5 -> inception_4e/5x5
I0403 15:36:43.532584 20081 net.cpp:141] Setting up inception_4e/5x5
I0403 15:36:43.532613 20081 net.cpp:148] Top shape: 24 128 14 14 (602112)
I0403 15:36:43.532629 20081 net.cpp:156] Memory required for data: 1239741984
I0403 15:36:43.532649 20081 layer_factory.hpp:77] Creating layer inception_4e/relu_5x5
I0403 15:36:43.532665 20081 net.cpp:91] Creating Layer inception_4e/relu_5x5
I0403 15:36:43.532681 20081 net.cpp:425] inception_4e/relu_5x5 <- inception_4e/5x5
I0403 15:36:43.532697 20081 net.cpp:386] inception_4e/relu_5x5 -> inception_4e/5x5 (in-place)
I0403 15:36:43.532893 20081 net.cpp:141] Setting up inception_4e/relu_5x5
I0403 15:36:43.532919 20081 net.cpp:148] Top shape: 24 128 14 14 (602112)
I0403 15:36:43.532934 20081 net.cpp:156] Memory required for data: 1242150432
I0403 15:36:43.532949 20081 layer_factory.hpp:77] Creating layer inception_4e/pool
I0403 15:36:43.532965 20081 net.cpp:91] Creating Layer inception_4e/pool
I0403 15:36:43.532981 20081 net.cpp:425] inception_4e/pool <- inception_4d/output_inception_4d/output_0_split_4
I0403 15:36:43.533006 20081 net.cpp:399] inception_4e/pool -> inception_4e/pool
I0403 15:36:43.533077 20081 net.cpp:141] Setting up inception_4e/pool
I0403 15:36:43.533102 20081 net.cpp:148] Top shape: 24 528 14 14 (2483712)
I0403 15:36:43.533118 20081 net.cpp:156] Memory required for data: 1252085280
I0403 15:36:43.533131 20081 layer_factory.hpp:77] Creating layer inception_4e/pool_proj
I0403 15:36:43.533151 20081 net.cpp:91] Creating Layer inception_4e/pool_proj
I0403 15:36:43.533167 20081 net.cpp:425] inception_4e/pool_proj <- inception_4e/pool
I0403 15:36:43.533187 20081 net.cpp:399] inception_4e/pool_proj -> inception_4e/pool_proj
I0403 15:36:43.534693 20081 net.cpp:141] Setting up inception_4e/pool_proj
I0403 15:36:43.534734 20081 net.cpp:148] Top shape: 24 128 14 14 (602112)
I0403 15:36:43.534749 20081 net.cpp:156] Memory required for data: 1254493728
I0403 15:36:43.534766 20081 layer_factory.hpp:77] Creating layer inception_4e/relu_pool_proj
I0403 15:36:43.534787 20081 net.cpp:91] Creating Layer inception_4e/relu_pool_proj
I0403 15:36:43.534803 20081 net.cpp:425] inception_4e/relu_pool_proj <- inception_4e/pool_proj
I0403 15:36:43.534821 20081 net.cpp:386] inception_4e/relu_pool_proj -> inception_4e/pool_proj (in-place)
I0403 15:36:43.535121 20081 net.cpp:141] Setting up inception_4e/relu_pool_proj
I0403 15:36:43.535147 20081 net.cpp:148] Top shape: 24 128 14 14 (602112)
I0403 15:36:43.535162 20081 net.cpp:156] Memory required for data: 1256902176
I0403 15:36:43.535176 20081 layer_factory.hpp:77] Creating layer inception_4e/output
I0403 15:36:43.535195 20081 net.cpp:91] Creating Layer inception_4e/output
I0403 15:36:43.535213 20081 net.cpp:425] inception_4e/output <- inception_4e/1x1
I0403 15:36:43.535230 20081 net.cpp:425] inception_4e/output <- inception_4e/3x3
I0403 15:36:43.535246 20081 net.cpp:425] inception_4e/output <- inception_4e/5x5
I0403 15:36:43.535261 20081 net.cpp:425] inception_4e/output <- inception_4e/pool_proj
I0403 15:36:43.535279 20081 net.cpp:399] inception_4e/output -> inception_4e/output
I0403 15:36:43.535328 20081 net.cpp:141] Setting up inception_4e/output
I0403 15:36:43.535352 20081 net.cpp:148] Top shape: 24 832 14 14 (3913728)
I0403 15:36:43.535367 20081 net.cpp:156] Memory required for data: 1272557088
I0403 15:36:43.535380 20081 layer_factory.hpp:77] Creating layer pool4/3x3_s2
I0403 15:36:43.535398 20081 net.cpp:91] Creating Layer pool4/3x3_s2
I0403 15:36:43.535413 20081 net.cpp:425] pool4/3x3_s2 <- inception_4e/output
I0403 15:36:43.535431 20081 net.cpp:399] pool4/3x3_s2 -> pool4/3x3_s2
I0403 15:36:43.535500 20081 net.cpp:141] Setting up pool4/3x3_s2
I0403 15:36:43.535524 20081 net.cpp:148] Top shape: 24 832 7 7 (978432)
I0403 15:36:43.535539 20081 net.cpp:156] Memory required for data: 1276470816
I0403 15:36:43.535554 20081 layer_factory.hpp:77] Creating layer pool4/3x3_s2_pool4/3x3_s2_0_split
I0403 15:36:43.535570 20081 net.cpp:91] Creating Layer pool4/3x3_s2_pool4/3x3_s2_0_split
I0403 15:36:43.535585 20081 net.cpp:425] pool4/3x3_s2_pool4/3x3_s2_0_split <- pool4/3x3_s2
I0403 15:36:43.535603 20081 net.cpp:399] pool4/3x3_s2_pool4/3x3_s2_0_split -> pool4/3x3_s2_pool4/3x3_s2_0_split_0
I0403 15:36:43.535624 20081 net.cpp:399] pool4/3x3_s2_pool4/3x3_s2_0_split -> pool4/3x3_s2_pool4/3x3_s2_0_split_1
I0403 15:36:43.535645 20081 net.cpp:399] pool4/3x3_s2_pool4/3x3_s2_0_split -> pool4/3x3_s2_pool4/3x3_s2_0_split_2
I0403 15:36:43.535663 20081 net.cpp:399] pool4/3x3_s2_pool4/3x3_s2_0_split -> pool4/3x3_s2_pool4/3x3_s2_0_split_3
I0403 15:36:43.535755 20081 net.cpp:141] Setting up pool4/3x3_s2_pool4/3x3_s2_0_split
I0403 15:36:43.535778 20081 net.cpp:148] Top shape: 24 832 7 7 (978432)
I0403 15:36:43.535794 20081 net.cpp:148] Top shape: 24 832 7 7 (978432)
I0403 15:36:43.535809 20081 net.cpp:148] Top shape: 24 832 7 7 (978432)
I0403 15:36:43.535823 20081 net.cpp:148] Top shape: 24 832 7 7 (978432)
I0403 15:36:43.535837 20081 net.cpp:156] Memory required for data: 1292125728
I0403 15:36:43.535851 20081 layer_factory.hpp:77] Creating layer inception_5a/1x1
I0403 15:36:43.535874 20081 net.cpp:91] Creating Layer inception_5a/1x1
I0403 15:36:43.535892 20081 net.cpp:425] inception_5a/1x1 <- pool4/3x3_s2_pool4/3x3_s2_0_split_0
I0403 15:36:43.535909 20081 net.cpp:399] inception_5a/1x1 -> inception_5a/1x1
I0403 15:36:43.538758 20081 net.cpp:141] Setting up inception_5a/1x1
I0403 15:36:43.538789 20081 net.cpp:148] Top shape: 24 256 7 7 (301056)
I0403 15:36:43.538805 20081 net.cpp:156] Memory required for data: 1293329952
I0403 15:36:43.538822 20081 layer_factory.hpp:77] Creating layer inception_5a/relu_1x1
I0403 15:36:43.538839 20081 net.cpp:91] Creating Layer inception_5a/relu_1x1
I0403 15:36:43.538856 20081 net.cpp:425] inception_5a/relu_1x1 <- inception_5a/1x1
I0403 15:36:43.538874 20081 net.cpp:386] inception_5a/relu_1x1 -> inception_5a/1x1 (in-place)
I0403 15:36:43.539196 20081 net.cpp:141] Setting up inception_5a/relu_1x1
I0403 15:36:43.539225 20081 net.cpp:148] Top shape: 24 256 7 7 (301056)
I0403 15:36:43.539240 20081 net.cpp:156] Memory required for data: 1294534176
I0403 15:36:43.539255 20081 layer_factory.hpp:77] Creating layer inception_5a/3x3_reduce
I0403 15:36:43.539278 20081 net.cpp:91] Creating Layer inception_5a/3x3_reduce
I0403 15:36:43.539307 20081 net.cpp:425] inception_5a/3x3_reduce <- pool4/3x3_s2_pool4/3x3_s2_0_split_1
I0403 15:36:43.539327 20081 net.cpp:399] inception_5a/3x3_reduce -> inception_5a/3x3_reduce
I0403 15:36:43.541846 20081 net.cpp:141] Setting up inception_5a/3x3_reduce
I0403 15:36:43.541877 20081 net.cpp:148] Top shape: 24 160 7 7 (188160)
I0403 15:36:43.541892 20081 net.cpp:156] Memory required for data: 1295286816
I0403 15:36:43.541909 20081 layer_factory.hpp:77] Creating layer inception_5a/relu_3x3_reduce
I0403 15:36:43.541930 20081 net.cpp:91] Creating Layer inception_5a/relu_3x3_reduce
I0403 15:36:43.541947 20081 net.cpp:425] inception_5a/relu_3x3_reduce <- inception_5a/3x3_reduce
I0403 15:36:43.541965 20081 net.cpp:386] inception_5a/relu_3x3_reduce -> inception_5a/3x3_reduce (in-place)
I0403 15:36:43.542162 20081 net.cpp:141] Setting up inception_5a/relu_3x3_reduce
I0403 15:36:43.542187 20081 net.cpp:148] Top shape: 24 160 7 7 (188160)
I0403 15:36:43.542202 20081 net.cpp:156] Memory required for data: 1296039456
I0403 15:36:43.542217 20081 layer_factory.hpp:77] Creating layer inception_5a/3x3
I0403 15:36:43.542245 20081 net.cpp:91] Creating Layer inception_5a/3x3
I0403 15:36:43.542263 20081 net.cpp:425] inception_5a/3x3 <- inception_5a/3x3_reduce
I0403 15:36:43.542284 20081 net.cpp:399] inception_5a/3x3 -> inception_5a/3x3
I0403 15:36:43.547461 20081 net.cpp:141] Setting up inception_5a/3x3
I0403 15:36:43.547492 20081 net.cpp:148] Top shape: 24 320 7 7 (376320)
I0403 15:36:43.547508 20081 net.cpp:156] Memory required for data: 1297544736
I0403 15:36:43.547526 20081 layer_factory.hpp:77] Creating layer inception_5a/relu_3x3
I0403 15:36:43.547544 20081 net.cpp:91] Creating Layer inception_5a/relu_3x3
I0403 15:36:43.547560 20081 net.cpp:425] inception_5a/relu_3x3 <- inception_5a/3x3
I0403 15:36:43.547577 20081 net.cpp:386] inception_5a/relu_3x3 -> inception_5a/3x3 (in-place)
I0403 15:36:43.547879 20081 net.cpp:141] Setting up inception_5a/relu_3x3
I0403 15:36:43.547909 20081 net.cpp:148] Top shape: 24 320 7 7 (376320)
I0403 15:36:43.547924 20081 net.cpp:156] Memory required for data: 1299050016
I0403 15:36:43.547940 20081 layer_factory.hpp:77] Creating layer inception_5a/5x5_reduce
I0403 15:36:43.547963 20081 net.cpp:91] Creating Layer inception_5a/5x5_reduce
I0403 15:36:43.547981 20081 net.cpp:425] inception_5a/5x5_reduce <- pool4/3x3_s2_pool4/3x3_s2_0_split_2
I0403 15:36:43.548014 20081 net.cpp:399] inception_5a/5x5_reduce -> inception_5a/5x5_reduce
I0403 15:36:43.549268 20081 net.cpp:141] Setting up inception_5a/5x5_reduce
I0403 15:36:43.549301 20081 net.cpp:148] Top shape: 24 32 7 7 (37632)
I0403 15:36:43.549317 20081 net.cpp:156] Memory required for data: 1299200544
I0403 15:36:43.549336 20081 layer_factory.hpp:77] Creating layer inception_5a/relu_5x5_reduce
I0403 15:36:43.549355 20081 net.cpp:91] Creating Layer inception_5a/relu_5x5_reduce
I0403 15:36:43.549371 20081 net.cpp:425] inception_5a/relu_5x5_reduce <- inception_5a/5x5_reduce
I0403 15:36:43.549389 20081 net.cpp:386] inception_5a/relu_5x5_reduce -> inception_5a/5x5_reduce (in-place)
I0403 15:36:43.549700 20081 net.cpp:141] Setting up inception_5a/relu_5x5_reduce
I0403 15:36:43.549727 20081 net.cpp:148] Top shape: 24 32 7 7 (37632)
I0403 15:36:43.549744 20081 net.cpp:156] Memory required for data: 1299351072
I0403 15:36:43.549758 20081 layer_factory.hpp:77] Creating layer inception_5a/5x5
I0403 15:36:43.549782 20081 net.cpp:91] Creating Layer inception_5a/5x5
I0403 15:36:43.549799 20081 net.cpp:425] inception_5a/5x5 <- inception_5a/5x5_reduce
I0403 15:36:43.549818 20081 net.cpp:399] inception_5a/5x5 -> inception_5a/5x5
I0403 15:36:43.551646 20081 net.cpp:141] Setting up inception_5a/5x5
I0403 15:36:43.551692 20081 net.cpp:148] Top shape: 24 128 7 7 (150528)
I0403 15:36:43.551710 20081 net.cpp:156] Memory required for data: 1299953184
I0403 15:36:43.551729 20081 layer_factory.hpp:77] Creating layer inception_5a/relu_5x5
I0403 15:36:43.551748 20081 net.cpp:91] Creating Layer inception_5a/relu_5x5
I0403 15:36:43.551765 20081 net.cpp:425] inception_5a/relu_5x5 <- inception_5a/5x5
I0403 15:36:43.551782 20081 net.cpp:386] inception_5a/relu_5x5 -> inception_5a/5x5 (in-place)
I0403 15:36:43.551990 20081 net.cpp:141] Setting up inception_5a/relu_5x5
I0403 15:36:43.552029 20081 net.cpp:148] Top shape: 24 128 7 7 (150528)
I0403 15:36:43.552045 20081 net.cpp:156] Memory required for data: 1300555296
I0403 15:36:43.552062 20081 layer_factory.hpp:77] Creating layer inception_5a/pool
I0403 15:36:43.552079 20081 net.cpp:91] Creating Layer inception_5a/pool
I0403 15:36:43.552096 20081 net.cpp:425] inception_5a/pool <- pool4/3x3_s2_pool4/3x3_s2_0_split_3
I0403 15:36:43.552117 20081 net.cpp:399] inception_5a/pool -> inception_5a/pool
I0403 15:36:43.552192 20081 net.cpp:141] Setting up inception_5a/pool
I0403 15:36:43.552223 20081 net.cpp:148] Top shape: 24 832 7 7 (978432)
I0403 15:36:43.552240 20081 net.cpp:156] Memory required for data: 1304469024
I0403 15:36:43.552254 20081 layer_factory.hpp:77] Creating layer inception_5a/pool_proj
I0403 15:36:43.552278 20081 net.cpp:91] Creating Layer inception_5a/pool_proj
I0403 15:36:43.552296 20081 net.cpp:425] inception_5a/pool_proj <- inception_5a/pool
I0403 15:36:43.552315 20081 net.cpp:399] inception_5a/pool_proj -> inception_5a/pool_proj
I0403 15:36:43.554728 20081 net.cpp:141] Setting up inception_5a/pool_proj
I0403 15:36:43.554759 20081 net.cpp:148] Top shape: 24 128 7 7 (150528)
I0403 15:36:43.554774 20081 net.cpp:156] Memory required for data: 1305071136
I0403 15:36:43.554793 20081 layer_factory.hpp:77] Creating layer inception_5a/relu_pool_proj
I0403 15:36:43.554814 20081 net.cpp:91] Creating Layer inception_5a/relu_pool_proj
I0403 15:36:43.554832 20081 net.cpp:425] inception_5a/relu_pool_proj <- inception_5a/pool_proj
I0403 15:36:43.554852 20081 net.cpp:386] inception_5a/relu_pool_proj -> inception_5a/pool_proj (in-place)
I0403 15:36:43.555166 20081 net.cpp:141] Setting up inception_5a/relu_pool_proj
I0403 15:36:43.555193 20081 net.cpp:148] Top shape: 24 128 7 7 (150528)
I0403 15:36:43.555210 20081 net.cpp:156] Memory required for data: 1305673248
I0403 15:36:43.555225 20081 layer_factory.hpp:77] Creating layer inception_5a/output
I0403 15:36:43.555245 20081 net.cpp:91] Creating Layer inception_5a/output
I0403 15:36:43.555263 20081 net.cpp:425] inception_5a/output <- inception_5a/1x1
I0403 15:36:43.555280 20081 net.cpp:425] inception_5a/output <- inception_5a/3x3
I0403 15:36:43.555297 20081 net.cpp:425] inception_5a/output <- inception_5a/5x5
I0403 15:36:43.555313 20081 net.cpp:425] inception_5a/output <- inception_5a/pool_proj
I0403 15:36:43.555330 20081 net.cpp:399] inception_5a/output -> inception_5a/output
I0403 15:36:43.555385 20081 net.cpp:141] Setting up inception_5a/output
I0403 15:36:43.555410 20081 net.cpp:148] Top shape: 24 832 7 7 (978432)
I0403 15:36:43.555425 20081 net.cpp:156] Memory required for data: 1309586976
I0403 15:36:43.555440 20081 layer_factory.hpp:77] Creating layer inception_5a/output_inception_5a/output_0_split
I0403 15:36:43.555459 20081 net.cpp:91] Creating Layer inception_5a/output_inception_5a/output_0_split
I0403 15:36:43.555474 20081 net.cpp:425] inception_5a/output_inception_5a/output_0_split <- inception_5a/output
I0403 15:36:43.555495 20081 net.cpp:399] inception_5a/output_inception_5a/output_0_split -> inception_5a/output_inception_5a/output_0_split_0
I0403 15:36:43.555517 20081 net.cpp:399] inception_5a/output_inception_5a/output_0_split -> inception_5a/output_inception_5a/output_0_split_1
I0403 15:36:43.555538 20081 net.cpp:399] inception_5a/output_inception_5a/output_0_split -> inception_5a/output_inception_5a/output_0_split_2
I0403 15:36:43.555559 20081 net.cpp:399] inception_5a/output_inception_5a/output_0_split -> inception_5a/output_inception_5a/output_0_split_3
I0403 15:36:43.555680 20081 net.cpp:141] Setting up inception_5a/output_inception_5a/output_0_split
I0403 15:36:43.555708 20081 net.cpp:148] Top shape: 24 832 7 7 (978432)
I0403 15:36:43.555727 20081 net.cpp:148] Top shape: 24 832 7 7 (978432)
I0403 15:36:43.555742 20081 net.cpp:148] Top shape: 24 832 7 7 (978432)
I0403 15:36:43.555757 20081 net.cpp:148] Top shape: 24 832 7 7 (978432)
I0403 15:36:43.555771 20081 net.cpp:156] Memory required for data: 1325241888
I0403 15:36:43.555786 20081 layer_factory.hpp:77] Creating layer inception_5b/1x1
I0403 15:36:43.555810 20081 net.cpp:91] Creating Layer inception_5b/1x1
I0403 15:36:43.555829 20081 net.cpp:425] inception_5b/1x1 <- inception_5a/output_inception_5a/output_0_split_0
I0403 15:36:43.555853 20081 net.cpp:399] inception_5b/1x1 -> inception_5b/1x1
I0403 15:36:43.559890 20081 net.cpp:141] Setting up inception_5b/1x1
I0403 15:36:43.559921 20081 net.cpp:148] Top shape: 24 384 7 7 (451584)
I0403 15:36:43.559937 20081 net.cpp:156] Memory required for data: 1327048224
I0403 15:36:43.559957 20081 layer_factory.hpp:77] Creating layer inception_5b/relu_1x1
I0403 15:36:43.559978 20081 net.cpp:91] Creating Layer inception_5b/relu_1x1
I0403 15:36:43.560001 20081 net.cpp:425] inception_5b/relu_1x1 <- inception_5b/1x1
I0403 15:36:43.560020 20081 net.cpp:386] inception_5b/relu_1x1 -> inception_5b/1x1 (in-place)
I0403 15:36:43.560339 20081 net.cpp:141] Setting up inception_5b/relu_1x1
I0403 15:36:43.560366 20081 net.cpp:148] Top shape: 24 384 7 7 (451584)
I0403 15:36:43.560382 20081 net.cpp:156] Memory required for data: 1328854560
I0403 15:36:43.560397 20081 layer_factory.hpp:77] Creating layer inception_5b/3x3_reduce
I0403 15:36:43.560421 20081 net.cpp:91] Creating Layer inception_5b/3x3_reduce
I0403 15:36:43.560441 20081 net.cpp:425] inception_5b/3x3_reduce <- inception_5a/output_inception_5a/output_0_split_1
I0403 15:36:43.560462 20081 net.cpp:399] inception_5b/3x3_reduce -> inception_5b/3x3_reduce
I0403 15:36:43.563294 20081 net.cpp:141] Setting up inception_5b/3x3_reduce
I0403 15:36:43.563325 20081 net.cpp:148] Top shape: 24 192 7 7 (225792)
I0403 15:36:43.563341 20081 net.cpp:156] Memory required for data: 1329757728
I0403 15:36:43.563360 20081 layer_factory.hpp:77] Creating layer inception_5b/relu_3x3_reduce
I0403 15:36:43.563381 20081 net.cpp:91] Creating Layer inception_5b/relu_3x3_reduce
I0403 15:36:43.563400 20081 net.cpp:425] inception_5b/relu_3x3_reduce <- inception_5b/3x3_reduce
I0403 15:36:43.563417 20081 net.cpp:386] inception_5b/relu_3x3_reduce -> inception_5b/3x3_reduce (in-place)
I0403 15:36:43.563619 20081 net.cpp:141] Setting up inception_5b/relu_3x3_reduce
I0403 15:36:43.563648 20081 net.cpp:148] Top shape: 24 192 7 7 (225792)
I0403 15:36:43.563663 20081 net.cpp:156] Memory required for data: 1330660896
I0403 15:36:43.563678 20081 layer_factory.hpp:77] Creating layer inception_5b/3x3
I0403 15:36:43.563702 20081 net.cpp:91] Creating Layer inception_5b/3x3
I0403 15:36:43.563720 20081 net.cpp:425] inception_5b/3x3 <- inception_5b/3x3_reduce
I0403 15:36:43.563740 20081 net.cpp:399] inception_5b/3x3 -> inception_5b/3x3
I0403 15:36:43.570935 20081 net.cpp:141] Setting up inception_5b/3x3
I0403 15:36:43.570967 20081 net.cpp:148] Top shape: 24 384 7 7 (451584)
I0403 15:36:43.570991 20081 net.cpp:156] Memory required for data: 1332467232
I0403 15:36:43.571012 20081 layer_factory.hpp:77] Creating layer inception_5b/relu_3x3
I0403 15:36:43.571033 20081 net.cpp:91] Creating Layer inception_5b/relu_3x3
I0403 15:36:43.571051 20081 net.cpp:425] inception_5b/relu_3x3 <- inception_5b/3x3
I0403 15:36:43.571069 20081 net.cpp:386] inception_5b/relu_3x3 -> inception_5b/3x3 (in-place)
I0403 15:36:43.571393 20081 net.cpp:141] Setting up inception_5b/relu_3x3
I0403 15:36:43.571421 20081 net.cpp:148] Top shape: 24 384 7 7 (451584)
I0403 15:36:43.571437 20081 net.cpp:156] Memory required for data: 1334273568
I0403 15:36:43.571452 20081 layer_factory.hpp:77] Creating layer inception_5b/5x5_reduce
I0403 15:36:43.571496 20081 net.cpp:91] Creating Layer inception_5b/5x5_reduce
I0403 15:36:43.571521 20081 net.cpp:425] inception_5b/5x5_reduce <- inception_5a/output_inception_5a/output_0_split_2
I0403 15:36:43.571542 20081 net.cpp:399] inception_5b/5x5_reduce -> inception_5b/5x5_reduce
I0403 15:36:43.572902 20081 net.cpp:141] Setting up inception_5b/5x5_reduce
I0403 15:36:43.572932 20081 net.cpp:148] Top shape: 24 48 7 7 (56448)
I0403 15:36:43.572947 20081 net.cpp:156] Memory required for data: 1334499360
I0403 15:36:43.572968 20081 layer_factory.hpp:77] Creating layer inception_5b/relu_5x5_reduce
I0403 15:36:43.572993 20081 net.cpp:91] Creating Layer inception_5b/relu_5x5_reduce
I0403 15:36:43.573014 20081 net.cpp:425] inception_5b/relu_5x5_reduce <- inception_5b/5x5_reduce
I0403 15:36:43.573035 20081 net.cpp:386] inception_5b/relu_5x5_reduce -> inception_5b/5x5_reduce (in-place)
I0403 15:36:43.573456 20081 net.cpp:141] Setting up inception_5b/relu_5x5_reduce
I0403 15:36:43.573483 20081 net.cpp:148] Top shape: 24 48 7 7 (56448)
I0403 15:36:43.573499 20081 net.cpp:156] Memory required for data: 1334725152
I0403 15:36:43.573515 20081 layer_factory.hpp:77] Creating layer inception_5b/5x5
I0403 15:36:43.573536 20081 net.cpp:91] Creating Layer inception_5b/5x5
I0403 15:36:43.573554 20081 net.cpp:425] inception_5b/5x5 <- inception_5b/5x5_reduce
I0403 15:36:43.573580 20081 net.cpp:399] inception_5b/5x5 -> inception_5b/5x5
I0403 15:36:43.575943 20081 net.cpp:141] Setting up inception_5b/5x5
I0403 15:36:43.575999 20081 net.cpp:148] Top shape: 24 128 7 7 (150528)
I0403 15:36:43.576025 20081 net.cpp:156] Memory required for data: 1335327264
I0403 15:36:43.576050 20081 layer_factory.hpp:77] Creating layer inception_5b/relu_5x5
I0403 15:36:43.576073 20081 net.cpp:91] Creating Layer inception_5b/relu_5x5
I0403 15:36:43.576092 20081 net.cpp:425] inception_5b/relu_5x5 <- inception_5b/5x5
I0403 15:36:43.576112 20081 net.cpp:386] inception_5b/relu_5x5 -> inception_5b/5x5 (in-place)
I0403 15:36:43.576344 20081 net.cpp:141] Setting up inception_5b/relu_5x5
I0403 15:36:43.576370 20081 net.cpp:148] Top shape: 24 128 7 7 (150528)
I0403 15:36:43.576385 20081 net.cpp:156] Memory required for data: 1335929376
I0403 15:36:43.576409 20081 layer_factory.hpp:77] Creating layer inception_5b/pool
I0403 15:36:43.576433 20081 net.cpp:91] Creating Layer inception_5b/pool
I0403 15:36:43.576455 20081 net.cpp:425] inception_5b/pool <- inception_5a/output_inception_5a/output_0_split_3
I0403 15:36:43.576484 20081 net.cpp:399] inception_5b/pool -> inception_5b/pool
I0403 15:36:43.576583 20081 net.cpp:141] Setting up inception_5b/pool
I0403 15:36:43.576609 20081 net.cpp:148] Top shape: 24 832 7 7 (978432)
I0403 15:36:43.576624 20081 net.cpp:156] Memory required for data: 1339843104
I0403 15:36:43.576639 20081 layer_factory.hpp:77] Creating layer inception_5b/pool_proj
I0403 15:36:43.576673 20081 net.cpp:91] Creating Layer inception_5b/pool_proj
I0403 15:36:43.576699 20081 net.cpp:425] inception_5b/pool_proj <- inception_5b/pool
I0403 15:36:43.576728 20081 net.cpp:399] inception_5b/pool_proj -> inception_5b/pool_proj
I0403 15:36:43.579296 20081 net.cpp:141] Setting up inception_5b/pool_proj
I0403 15:36:43.579327 20081 net.cpp:148] Top shape: 24 128 7 7 (150528)
I0403 15:36:43.579344 20081 net.cpp:156] Memory required for data: 1340445216
I0403 15:36:43.579362 20081 layer_factory.hpp:77] Creating layer inception_5b/relu_pool_proj
I0403 15:36:43.579385 20081 net.cpp:91] Creating Layer inception_5b/relu_pool_proj
I0403 15:36:43.579402 20081 net.cpp:425] inception_5b/relu_pool_proj <- inception_5b/pool_proj
I0403 15:36:43.579421 20081 net.cpp:386] inception_5b/relu_pool_proj -> inception_5b/pool_proj (in-place)
I0403 15:36:43.579740 20081 net.cpp:141] Setting up inception_5b/relu_pool_proj
I0403 15:36:43.579767 20081 net.cpp:148] Top shape: 24 128 7 7 (150528)
I0403 15:36:43.579782 20081 net.cpp:156] Memory required for data: 1341047328
I0403 15:36:43.579797 20081 layer_factory.hpp:77] Creating layer inception_5b/output
I0403 15:36:43.579818 20081 net.cpp:91] Creating Layer inception_5b/output
I0403 15:36:43.579852 20081 net.cpp:425] inception_5b/output <- inception_5b/1x1
I0403 15:36:43.579879 20081 net.cpp:425] inception_5b/output <- inception_5b/3x3
I0403 15:36:43.579903 20081 net.cpp:425] inception_5b/output <- inception_5b/5x5
I0403 15:36:43.579931 20081 net.cpp:425] inception_5b/output <- inception_5b/pool_proj
I0403 15:36:43.579965 20081 net.cpp:399] inception_5b/output -> inception_5b/output
I0403 15:36:43.580027 20081 net.cpp:141] Setting up inception_5b/output
I0403 15:36:43.580054 20081 net.cpp:148] Top shape: 24 1024 7 7 (1204224)
I0403 15:36:43.580068 20081 net.cpp:156] Memory required for data: 1345864224
I0403 15:36:43.580083 20081 layer_factory.hpp:77] Creating layer pool5/7x7_s1
I0403 15:36:43.580103 20081 net.cpp:91] Creating Layer pool5/7x7_s1
I0403 15:36:43.580121 20081 net.cpp:425] pool5/7x7_s1 <- inception_5b/output
I0403 15:36:43.580140 20081 net.cpp:399] pool5/7x7_s1 -> pool5/7x7_s1
I0403 15:36:43.580379 20081 net.cpp:141] Setting up pool5/7x7_s1
I0403 15:36:43.580411 20081 net.cpp:148] Top shape: 24 1024 1 1 (24576)
I0403 15:36:43.580427 20081 net.cpp:156] Memory required for data: 1345962528
I0403 15:36:43.580442 20081 layer_factory.hpp:77] Creating layer pool5/drop_7x7_s1
I0403 15:36:43.580461 20081 net.cpp:91] Creating Layer pool5/drop_7x7_s1
I0403 15:36:43.580477 20081 net.cpp:425] pool5/drop_7x7_s1 <- pool5/7x7_s1
I0403 15:36:43.580495 20081 net.cpp:386] pool5/drop_7x7_s1 -> pool5/7x7_s1 (in-place)
I0403 15:36:43.580549 20081 net.cpp:141] Setting up pool5/drop_7x7_s1
I0403 15:36:43.580574 20081 net.cpp:148] Top shape: 24 1024 1 1 (24576)
I0403 15:36:43.580588 20081 net.cpp:156] Memory required for data: 1346060832
I0403 15:36:43.580603 20081 layer_factory.hpp:77] Creating layer loss3/classifier_plantvillage
I0403 15:36:43.580626 20081 net.cpp:91] Creating Layer loss3/classifier_plantvillage
I0403 15:36:43.580643 20081 net.cpp:425] loss3/classifier_plantvillage <- pool5/7x7_s1
I0403 15:36:43.580662 20081 net.cpp:399] loss3/classifier_plantvillage -> loss3/classifier_plantvillage
I0403 15:36:43.581125 20081 net.cpp:141] Setting up loss3/classifier_plantvillage
I0403 15:36:43.581151 20081 net.cpp:148] Top shape: 24 38 (912)
I0403 15:36:43.581166 20081 net.cpp:156] Memory required for data: 1346064480
I0403 15:36:43.581183 20081 layer_factory.hpp:77] Creating layer loss3/classifier_plantvillage_loss3/classifier_plantvillage_0_split
I0403 15:36:43.581203 20081 net.cpp:91] Creating Layer loss3/classifier_plantvillage_loss3/classifier_plantvillage_0_split
I0403 15:36:43.581219 20081 net.cpp:425] loss3/classifier_plantvillage_loss3/classifier_plantvillage_0_split <- loss3/classifier_plantvillage
I0403 15:36:43.581243 20081 net.cpp:399] loss3/classifier_plantvillage_loss3/classifier_plantvillage_0_split -> loss3/classifier_plantvillage_loss3/classifier_plantvillage_0_split_0
I0403 15:36:43.581265 20081 net.cpp:399] loss3/classifier_plantvillage_loss3/classifier_plantvillage_0_split -> loss3/classifier_plantvillage_loss3/classifier_plantvillage_0_split_1
I0403 15:36:43.581286 20081 net.cpp:399] loss3/classifier_plantvillage_loss3/classifier_plantvillage_0_split -> loss3/classifier_plantvillage_loss3/classifier_plantvillage_0_split_2
I0403 15:36:43.581307 20081 net.cpp:399] loss3/classifier_plantvillage_loss3/classifier_plantvillage_0_split -> loss3/classifier_plantvillage_loss3/classifier_plantvillage_0_split_3
I0403 15:36:43.581418 20081 net.cpp:141] Setting up loss3/classifier_plantvillage_loss3/classifier_plantvillage_0_split
I0403 15:36:43.581445 20081 net.cpp:148] Top shape: 24 38 (912)
I0403 15:36:43.581464 20081 net.cpp:148] Top shape: 24 38 (912)
I0403 15:36:43.581478 20081 net.cpp:148] Top shape: 24 38 (912)
I0403 15:36:43.581495 20081 net.cpp:148] Top shape: 24 38 (912)
I0403 15:36:43.581508 20081 net.cpp:156] Memory required for data: 1346079072
I0403 15:36:43.581523 20081 layer_factory.hpp:77] Creating layer loss1/loss
I0403 15:36:43.581545 20081 net.cpp:91] Creating Layer loss1/loss
I0403 15:36:43.581563 20081 net.cpp:425] loss1/loss <- loss1/classifier_plantvillage_loss1/classifier_plantvillage_0_split_0
I0403 15:36:43.581596 20081 net.cpp:425] loss1/loss <- label_data_1_split_0
…
