…
I0403 15:30:33.987463 19761 net.cpp:313] The NetState phase (1) differed from the phase (0) specified by a rule in layer data
I0403 15:30:33.988704 19761 net.cpp:49] Initializing net from parameters: 
state {
  phase: TEST
}
layer {
  name: "data"
  type: "Data"
  top: "data"
  top: "label"
  include {
    phase: TEST
  }
  transform_param {
    mirror: false
    crop_size: 224
    mean_file: "/home/mohanty/data/final_dataset/lmdb/grayscale-40-60/mean.binaryproto"
  }
  data_param {
    source: "/home/mohanty/data/final_dataset/lmdb/grayscale-40-60/test_db"
    batch_size: 24
    backend: LMDB
  }
}
layer {
  name: "conv1/7x7_s2"
  type: "Convolution"
  bottom: "data"
  top: "conv1/7x7_s2"
  param {
    lr_mult: 1
    decay_mult: 1
  }
  param {
    lr_mult: 2
    decay_mult: 0
  }
  convolution_param {
    num_output: 64
    pad: 3
    kernel_size: 7
    stride: 2
    weight_filler {
      type: "xavier"
      std: 0.1
    }
    bias_filler {
      type: "constant"
      value: 0.2
    }
  }
}
layer {
  name: "conv1/relu_7x7"
  type: "ReLU"
  bottom: "conv1/7x7_s2"
  top: "conv1/7x7_s2"
}
layer {
  name: "pool1/3x3_s2"
  type: "Pooling"
  bottom: "conv1/7x7_s2"
  top: "pool1/3x3_s2"
  pooling_param {
    pool: MAX
    kernel_size: 3
    stride: 2
  }
}
layer {
  name: "pool1/norm1"
  type: "LRN"
  bottom: "pool1/3x3_s2"
  top: "pool1/norm1"
  lrn_param {
    local_size: 5
    alpha: 0.0001
    beta: 0.75
  }
}
layer {
  name: "conv2/3x3_reduce"
  type: "Convolution"
  bottom: "pool1/norm1"
  top: "conv2/3x3_reduce"
  param {
    lr_mult: 1
    decay_mult: 1
  }
  param {
    lr_mult: 2
    decay_mult: 0
  }
  convolution_param {
    num_output: 64
    kernel_size: 1
    weight_filler {
      type: "xavier"
      std: 0.1
    }
    bias_filler {
      type: "constant"
      value: 0.2
    }
  }
}
layer {
  name: "conv2/relu_3x3_reduce"
  type: "ReLU"
  bottom: "conv2/3x3_reduce"
  top: "conv2/3x3_reduce"
}
layer {
  name: "conv2/3x3"
  type: "Convolution"
  bottom: "conv2/3x3_reduce"
  top: "conv2/3x3"
  param {
    lr_mult: 1
    decay_mult: 1
  }
  param {
    lr_mult: 2
    decay_mult: 0
  }
  convolution_param {
    num_output: 192
    pad: 1
    kernel_size: 3
    weight_filler {
      type: "xavier"
      std: 0.03
    }
    bias_filler {
      type: "constant"
      value: 0.2
    }
  }
}
layer {
  name: "conv2/relu_3x3"
  type: "ReLU"
  bottom: "conv2/3x3"
  top: "conv2/3x3"
}
layer {
  name: "conv2/norm2"
  type: "LRN"
  bottom: "conv2/3x3"
  top: "conv2/norm2"
  lrn_param {
    local_size: 5
    alpha: 0.0001
    beta: 0.75
  }
}
layer {
  name: "pool2/3x3_s2"
  type: "Pooling"
  bottom: "conv2/norm2"
  top: "pool2/3x3_s2"
  pooling_param {
    pool: MAX
    kernel_size: 3
    stride: 2
  }
}
layer {
  name: "inception_3a/1x1"
  type: "Convolution"
  bottom: "pool2/3x3_s2"
  top: "inception_3a/1x1"
  param {
    lr_mult: 1
    decay_mult: 1
  }
  param {
    lr_mult: 2
    decay_mult: 0
  }
  convolution_param {
    num_output: 64
    kernel_size: 1
    weight_filler {
      type: "xavier"
      std: 0.03
    }
    bias_filler {
      type: "constant"
      value: 0.2
    }
  }
}
layer {
  name: "inception_3a/relu_1x1"
  type: "ReLU"
  bottom: "inception_3a/1x1"
  top: "inception_3a/1x1"
}
layer {
  name: "inception_3a/3x3_reduce"
  type: "Convolution"
  bottom: "pool2/3x3_s2"
  top: "inception_3a/3x3_reduce"
  param {
    lr_mult: 1
    decay_mult: 1
  }
  param {
    lr_mult: 2
    decay_mult: 0
  }
  convolution_param {
    num_output: 96
    kernel_size: 1
    weight_filler {
      type: "xavier"
      std: 0.09
    }
    bias_filler {
      type: "constant"
      value: 0.2
    }
  }
}
layer {
  name: "inception_3a/relu_3x3_reduce"
  type: "ReLU"
  bottom: "inception_3a/3x3_reduce"
  top: "inception_3a/3x3_reduce"
}
layer {
  name: "inception_3a/3x3"
  type: "Convolution"
  bottom: "inception_3a/3x3_reduce"
  top: "inception_3a/3x3"
  param {
    lr_mult: 1
    decay_mult: 1
  }
  param {
    lr_mult: 2
    decay_mult: 0
  }
  convolution_param {
    num_output: 128
    pad: 1
    kernel_size: 3
    weight_filler {
      type: "xavier"
      std: 0.03
    }
    bias_filler {
      type: "constant"
      value: 0.2
    }
  }
}
layer {
  name: "inception_3a/relu_3x3"
  type: "ReLU"
  bottom: "inception_3a/3x3"
  top: "inception_3a/3x3"
}
layer {
  name: "inception_3a/5x5_reduce"
  type: "Convolution"
  bottom: "pool2/3x3_s2"
  top: "inception_3a/5x5_reduce"
  param {
    lr_mult: 1
    decay_mult: 1
  }
  param {
    lr_mult: 2
    decay_mult: 0
  }
  convolution_param {
    num_output: 16
    kernel_size: 1
    weight_filler {
      type: "xavier"
      std: 0.2
    }
    bias_filler {
      type: "constant"
      value: 0.2
    }
  }
}
layer {
  name: "inception_3a/relu_5x5_reduce"
  type: "ReLU"
  bottom: "inception_3a/5x5_reduce"
  top: "inception_3a/5x5_reduce"
}
layer {
  name: "inception_3a/5x5"
  type: "Convolution"
  bottom: "inception_3a/5x5_reduce"
  top: "inception_3a/5x5"
  param {
    lr_mult: 1
    decay_mult: 1
  }
  param {
    lr_mult: 2
    decay_mult: 0
  }
  convolution_param {
    num_output: 32
    pad: 2
    kernel_size: 5
    weight_filler {
      type: "xavier"
      std: 0.03
    }
    bias_filler {
      type: "constant"
      value: 0.2
    }
  }
}
layer {
  name: "inception_3a/relu_5x5"
  type: "ReLU"
  bottom: "inception_3a/5x5"
  top: "inception_3a/5x5"
}
layer {
  name: "inception_3a/pool"
  type: "Pooling"
  bottom: "pool2/3x3_s2"
  top: "inception_3a/pool"
  pooling_param {
    pool: MAX
    kernel_size: 3
    stride: 1
    pad: 1
  }
}
layer {
  name: "inception_3a/pool_proj"
  type: "Convolution"
  bottom: "inception_3a/pool"
  top: "inception_3a/pool_proj"
  param {
    lr_mult: 1
    decay_mult: 1
  }
  param {
    lr_mult: 2
    decay_mult: 0
  }
  convolution_param {
    num_output: 32
    kernel_size: 1
    weight_filler {
      type: "xavier"
      std: 0.1
    }
    bias_filler {
      type: "constant"
      value: 0.2
    }
  }
}
layer {
  name: "inception_3a/relu_pool_proj"
  type: "ReLU"
  bottom: "inception_3a/pool_proj"
  top: "inception_3a/pool_proj"
}
layer {
  name: "inception_3a/output"
  type: "Concat"
  bottom: "inception_3a/1x1"
  bottom: "inception_3a/3x3"
  bottom: "inception_3a/5x5"
  bottom: "inception_3a/pool_proj"
  top: "inception_3a/output"
}
layer {
  name: "inception_3b/1x1"
  type: "Convolution"
  bottom: "inception_3a/output"
  top: "inception_3b/1x1"
  param {
    lr_mult: 1
    decay_mult: 1
  }
  param {
    lr_mult: 2
    decay_mult: 0
  }
  convolution_param {
    num_output: 128
    kernel_size: 1
    weight_filler {
      type: "xavier"
      std: 0.03
    }
    bias_filler {
      type: "constant"
      value: 0.2
    }
  }
}
layer {
  name: "inception_3b/relu_1x1"
  type: "ReLU"
  bottom: "inception_3b/1x1"
  top: "inception_3b/1x1"
}
layer {
  name: "inception_3b/3x3_reduce"
  type: "Convolution"
  bottom: "inception_3a/output"
  top: "inception_3b/3x3_reduce"
  param {
    lr_mult: 1
    decay_mult: 1
  }
  param {
    lr_mult: 2
    decay_mult: 0
  }
  convolution_param {
    num_output: 128
    kernel_size: 1
    weight_filler {
      type: "xavier"
      std: 0.09
    }
    bias_filler {
      type: "constant"
      value: 0.2
    }
  }
}
layer {
  name: "inception_3b/relu_3x3_reduce"
  type: "ReLU"
  bottom: "inception_3b/3x3_reduce"
  top: "inception_3b/3x3_reduce"
}
layer {
  name: "inception_3b/3x3"
  type: "Convolution"
  bottom: "inception_3b/3x3_reduce"
  top: "inception_3b/3x3"
  param {
    lr_mult: 1
    decay_mult: 1
  }
  param {
    lr_mult: 2
    decay_mult: 0
  }
  convolution_param {
    num_output: 192
    pad: 1
    kernel_size: 3
    weight_filler {
      type: "xavier"
      std: 0.03
    }
    bias_filler {
      type: "constant"
      value: 0.2
    }
  }
}
layer {
  name: "inception_3b/relu_3x3"
  type: "ReLU"
  bottom: "inception_3b/3x3"
  top: "inception_3b/3x3"
}
layer {
  name: "inception_3b/5x5_reduce"
  type: "Convolution"
  bottom: "inception_3a/output"
  top: "inception_3b/5x5_reduce"
  param {
    lr_mult: 1
    decay_mult: 1
  }
  param {
    lr_mult: 2
    decay_mult: 0
  }
  convolution_param {
    num_output: 32
    kernel_size: 1
    weight_filler {
      type: "xavier"
      std: 0.2
    }
    bias_filler {
      type: "constant"
      value: 0.2
    }
  }
}
layer {
  name: "inception_3b/relu_5x5_reduce"
  type: "ReLU"
  bottom: "inception_3b/5x5_reduce"
  top: "inception_3b/5x5_reduce"
}
layer {
  name: "inception_3b/5x5"
  type: "Convolution"
  bottom: "inception_3b/5x5_reduce"
  top: "inception_3b/5x5"
  param {
    lr_mult: 1
    decay_mult: 1
  }
  param {
    lr_mult: 2
    decay_mult: 0
  }
  convolution_param {
    num_output: 96
    pad: 2
    kernel_size: 5
    weight_filler {
      type: "xavier"
      std: 0.03
    }
    bias_filler {
      type: "constant"
      value: 0.2
    }
  }
}
layer {
  name: "inception_3b/relu_5x5"
  type: "ReLU"
  bottom: "inception_3b/5x5"
  top: "inception_3b/5x5"
}
layer {
  name: "inception_3b/pool"
  type: "Pooling"
  bottom: "inception_3a/output"
  top: "inception_3b/pool"
  pooling_param {
    pool: MAX
    kernel_size: 3
    stride: 1
    pad: 1
  }
}
layer {
  name: "inception_3b/pool_proj"
  type: "Convolution"
  bottom: "inception_3b/pool"
  top: "inception_3b/pool_proj"
  param {
    lr_mult: 1
    decay_mult: 1
  }
  param {
    lr_mult: 2
    decay_mult: 0
  }
  convolution_param {
    num_output: 64
    kernel_size: 1
    weight_filler {
      type: "xavier"
      std: 0.1
    }
    bias_filler {
      type: "constant"
      value: 0.2
    }
  }
}
layer {
  name: "inception_3b/relu_pool_proj"
  type: "ReLU"
  bottom: "inception_3b/pool_proj"
  top: "inception_3b/pool_proj"
}
layer {
  name: "inception_3b/output"
  type: "Concat"
  bottom: "inception_3b/1x1"
  bottom: "inception_3b/3x3"
  bottom: "inception_3b/5x5"
  bottom: "inception_3b/pool_proj"
  top: "inception_3b/output"
}
layer {
  name: "pool3/3x3_s2"
  type: "Pooling"
  bottom: "inception_3b/output"
  top: "pool3/3x3_s2"
  pooling_param {
    pool: MAX
    kernel_size: 3
    stride: 2
  }
}
layer {
  name: "inception_4a/1x1"
  type: "Convolution"
  bottom: "pool3/3x3_s2"
  top: "inception_4a/1x1"
  param {
    lr_mult: 1
    decay_mult: 1
  }
  param {
    lr_mult: 2
    decay_mult: 0
  }
  convolution_param {
    num_output: 192
    kernel_size: 1
    weight_filler {
      type: "xavier"
      std: 0.03
    }
    bias_filler {
      type: "constant"
      value: 0.2
    }
  }
}
layer {
  name: "inception_4a/relu_1x1"
  type: "ReLU"
  bottom: "inception_4a/1x1"
  top: "inception_4a/1x1"
}
layer {
  name: "inception_4a/3x3_reduce"
  type: "Convolution"
  bottom: "pool3/3x3_s2"
  top: "inception_4a/3x3_reduce"
  param {
    lr_mult: 1
    decay_mult: 1
  }
  param {
    lr_mult: 2
    decay_mult: 0
  }
  convolution_param {
    num_output: 96
    kernel_size: 1
    weight_filler {
      type: "xavier"
      std: 0.09
    }
    bias_filler {
      type: "constant"
      value: 0.2
    }
  }
}
layer {
  name: "inception_4a/relu_3x3_reduce"
  type: "ReLU"
  bottom: "inception_4a/3x3_reduce"
  top: "inception_4a/3x3_reduce"
}
layer {
  name: "inception_4a/3x3"
  type: "Convolution"
  bottom: "inception_4a/3x3_reduce"
  top: "inception_4a/3x3"
  param {
    lr_mult: 1
    decay_mult: 1
  }
  param {
    lr_mult: 2
    decay_mult: 0
  }
  convolution_param {
    num_output: 208
    pad: 1
    kernel_size: 3
    weight_filler {
      type: "xavier"
      std: 0.03
    }
    bias_filler {
      type: "constant"
      value: 0.2
    }
  }
}
layer {
  name: "inception_4a/relu_3x3"
  type: "ReLU"
  bottom: "inception_4a/3x3"
  top: "inception_4a/3x3"
}
layer {
  name: "inception_4a/5x5_reduce"
  type: "Convolution"
  bottom: "pool3/3x3_s2"
  top: "inception_4a/5x5_reduce"
  param {
    lr_mult: 1
    decay_mult: 1
  }
  param {
    lr_mult: 2
    decay_mult: 0
  }
  convolution_param {
    num_output: 16
    kernel_size: 1
    weight_filler {
      type: "xavier"
      std: 0.2
    }
    bias_filler {
      type: "constant"
      value: 0.2
    }
  }
}
layer {
  name: "inception_4a/relu_5x5_reduce"
  type: "ReLU"
  bottom: "inception_4a/5x5_reduce"
  top: "inception_4a/5x5_reduce"
}
layer {
  name: "inception_4a/5x5"
  type: "Convolution"
  bottom: "inception_4a/5x5_reduce"
  top: "inception_4a/5x5"
  param {
    lr_mult: 1
    decay_mult: 1
  }
  param {
    lr_mult: 2
    decay_mult: 0
  }
  convolution_param {
    num_output: 48
    pad: 2
    kernel_size: 5
    weight_filler {
      type: "xavier"
      std: 0.03
    }
    bias_filler {
      type: "constant"
      value: 0.2
    }
  }
}
layer {
  name: "inception_4a/relu_5x5"
  type: "ReLU"
  bottom: "inception_4a/5x5"
  top: "inception_4a/5x5"
}
layer {
  name: "inception_4a/pool"
  type: "Pooling"
  bottom: "pool3/3x3_s2"
  top: "inception_4a/pool"
  pooling_param {
    pool: MAX
    kernel_size: 3
    stride: 1
    pad: 1
  }
}
layer {
  name: "inception_4a/pool_proj"
  type: "Convolution"
  bottom: "inception_4a/pool"
  top: "inception_4a/pool_proj"
  param {
    lr_mult: 1
    decay_mult: 1
  }
  param {
    lr_mult: 2
    decay_mult: 0
  }
  convolution_param {
    num_output: 64
    kernel_size: 1
    weight_filler {
      type: "xavier"
      std: 0.1
    }
    bias_filler {
      type: "constant"
      value: 0.2
    }
  }
}
layer {
  name: "inception_4a/relu_pool_proj"
  type: "ReLU"
  bottom: "inception_4a/pool_proj"
  top: "inception_4a/pool_proj"
}
layer {
  name: "inception_4a/output"
  type: "Concat"
  bottom: "inception_4a/1x1"
  bottom: "inception_4a/3x3"
  bottom: "inception_4a/5x5"
  bottom: "inception_4a/pool_proj"
  top: "inception_4a/output"
}
layer {
  name: "loss1/ave_pool"
  type: "Pooling"
  bottom: "inception_4a/output"
  top: "loss1/ave_pool"
  pooling_param {
    pool: AVE
    kernel_size: 5
    stride: 3
  }
}
layer {
  name: "loss1/conv"
  type: "Convolution"
  bottom: "loss1/ave_pool"
  top: "loss1/conv"
  param {
    lr_mult: 1
    decay_mult: 1
  }
  param {
    lr_mult: 2
    decay_mult: 0
  }
  convolution_param {
    num_output: 128
    kernel_size: 1
    weight_filler {
      type: "xavier"
      std: 0.08
    }
    bias_filler {
      type: "constant"
      value: 0.2
    }
  }
}
layer {
  name: "loss1/relu_conv"
  type: "ReLU"
  bottom: "loss1/conv"
  top: "loss1/conv"
}
layer {
  name: "loss1/fc"
  type: "InnerProduct"
  bottom: "loss1/conv"
  top: "loss1/fc"
  param {
    lr_mult: 1
    decay_mult: 1
  }
  param {
    lr_mult: 2
    decay_mult: 0
  }
  inner_product_param {
    num_output: 1024
    weight_filler {
      type: "xavier"
      std: 0.02
    }
    bias_filler {
      type: "constant"
      value: 0.2
    }
  }
}
layer {
  name: "loss1/relu_fc"
  type: "ReLU"
  bottom: "loss1/fc"
  top: "loss1/fc"
}
layer {
  name: "loss1/drop_fc"
  type: "Dropout"
  bottom: "loss1/fc"
  top: "loss1/fc"
  dropout_param {
    dropout_ratio: 0.7
  }
}
layer {
  name: "loss1/classifier_plantvillage"
  type: "InnerProduct"
  bottom: "loss1/fc"
  top: "loss1/classifier_plantvillage"
  param {
    lr_mult: 1
    decay_mult: 1
  }
  param {
    lr_mult: 2
    decay_mult: 0
  }
  inner_product_param {
    num_output: 38
    weight_filler {
      type: "xavier"
      std: 0.0009765625
    }
    bias_filler {
      type: "constant"
      value: 0
    }
  }
}
layer {
  name: "inception_4b/1x1"
  type: "Convolution"
  bottom: "inception_4a/output"
  top: "inception_4b/1x1"
  param {
    lr_mult: 1
    decay_mult: 1
  }
  param {
    lr_mult: 2
    decay_mult: 0
  }
  convolution_param {
    num_output: 160
    kernel_size: 1
    weight_filler {
      type: "xavier"
      std: 0.03
    }
    bias_filler {
      type: "constant"
      value: 0.2
    }
  }
}
layer {
  name: "inception_4b/relu_1x1"
  type: "ReLU"
  bottom: "inception_4b/1x1"
  top: "inception_4b/1x1"
}
layer {
  name: "inception_4b/3x3_reduce"
  type: "Convolution"
  bottom: "inception_4a/output"
  top: "inception_4b/3x3_reduce"
  param {
    lr_mult: 1
    decay_mult: 1
  }
  param {
    lr_mult: 2
    decay_mult: 0
  }
  convolution_param {
    num_output: 112
    kernel_size: 1
    weight_filler {
      type: "xavier"
      std: 0.09
    }
    bias_filler {
      type: "constant"
      value: 0.2
    }
  }
}
layer {
  name: "inception_4b/relu_3x3_reduce"
  type: "ReLU"
  bottom: "inception_4b/3x3_reduce"
  top: "inception_4b/3x3_reduce"
}
layer {
  name: "inception_4b/3x3"
  type: "Convolution"
  bottom: "inception_4b/3x3_reduce"
  top: "inception_4b/3x3"
  param {
    lr_mult: 1
    decay_mult: 1
  }
  param {
    lr_mult: 2
    decay_mult: 0
  }
  convolution_param {
    num_output: 224
    pad: 1
    kernel_size: 3
    weight_filler {
      type: "xavier"
      std: 0.03
    }
    bias_filler {
      type: "constant"
      value: 0.2
    }
  }
}
layer {
  name: "inception_4b/relu_3x3"
  type: "ReLU"
  bottom: "inception_4b/3x3"
  top: "inception_4b/3x3"
}
layer {
  name: "inception_4b/5x5_reduce"
  type: "Convolution"
  bottom: "inception_4a/output"
  top: "inception_4b/5x5_reduce"
  param {
    lr_mult: 1
    decay_mult: 1
  }
  param {
    lr_mult: 2
    decay_mult: 0
  }
  convolution_param {
    num_output: 24
    kernel_size: 1
    weight_filler {
      type: "xavier"
      std: 0.2
    }
    bias_filler {
      type: "constant"
      value: 0.2
    }
  }
}
layer {
  name: "inception_4b/relu_5x5_reduce"
  type: "ReLU"
  bottom: "inception_4b/5x5_reduce"
  top: "inception_4b/5x5_reduce"
}
layer {
  name: "inception_4b/5x5"
  type: "Convolution"
  bottom: "inception_4b/5x5_reduce"
  top: "inception_4b/5x5"
  param {
    lr_mult: 1
    decay_mult: 1
  }
  param {
    lr_mult: 2
    decay_mult: 0
  }
  convolution_param {
    num_output: 64
    pad: 2
    kernel_size: 5
    weight_filler {
      type: "xavier"
      std: 0.03
    }
    bias_filler {
      type: "constant"
      value: 0.2
    }
  }
}
layer {
  name: "inception_4b/relu_5x5"
  type: "ReLU"
  bottom: "inception_4b/5x5"
  top: "inception_4b/5x5"
}
layer {
  name: "inception_4b/pool"
  type: "Pooling"
  bottom: "inception_4a/output"
  top: "inception_4b/pool"
  pooling_param {
    pool: MAX
    kernel_size: 3
    stride: 1
    pad: 1
  }
}
layer {
  name: "inception_4b/pool_proj"
  type: "Convolution"
  bottom: "inception_4b/pool"
  top: "inception_4b/pool_proj"
  param {
    lr_mult: 1
    decay_mult: 1
  }
  param {
    lr_mult: 2
    decay_mult: 0
  }
  convolution_param {
    num_output: 64
    kernel_size: 1
    weight_filler {
      type: "xavier"
      std: 0.1
    }
    bias_filler {
      type: "constant"
      value: 0.2
    }
  }
}
layer {
  name: "inception_4b/relu_pool_proj"
  type: "ReLU"
  bottom: "inception_4b/pool_proj"
  top: "inception_4b/pool_proj"
}
layer {
  name: "inception_4b/output"
  type: "Concat"
  bottom: "inception_4b/1x1"
  bottom: "inception_4b/3x3"
  bottom: "inception_4b/5x5"
  bottom: "inception_4b/pool_proj"
  top: "inception_4b/output"
}
layer {
  name: "inception_4c/1x1"
  type: "Convolution"
  bottom: "inception_4b/output"
  top: "inception_4c/1x1"
  param {
    lr_mult: 1
    decay_mult: 1
  }
  param {
    lr_mult: 2
    decay_mult: 0
  }
  convolution_param {
    num_output: 128
    kernel_size: 1
    weight_filler {
      type: "xavier"
      std: 0.03
    }
    bias_filler {
      type: "constant"
      value: 0.2
    }
  }
}
layer {
  name: "inception_4c/relu_1x1"
  type: "ReLU"
  bottom: "inception_4c/1x1"
  top: "inception_4c/1x1"
}
layer {
  name: "inception_4c/3x3_reduce"
  type: "Convolution"
  bottom: "inception_4b/output"
  top: "inception_4c/3x3_reduce"
  param {
    lr_mult: 1
    decay_mult: 1
  }
  param {
    lr_mult: 2
    decay_mult: 0
  }
  convolution_param {
    num_output: 128
    kernel_size: 1
    weight_filler {
      type: "xavier"
      std: 0.09
    }
    bias_filler {
      type: "constant"
      value: 0.2
    }
  }
}
layer {
  name: "inception_4c/relu_3x3_reduce"
  type: "ReLU"
  bottom: "inception_4c/3x3_reduce"
  top: "inception_4c/3x3_reduce"
}
layer {
  name: "inception_4c/3x3"
  type: "Convolution"
  bottom: "inception_4c/3x3_reduce"
  top: "inception_4c/3x3"
  param {
    lr_mult: 1
    decay_mult: 1
  }
  param {
    lr_mult: 2
    decay_mult: 0
  }
  convolution_param {
    num_output: 256
    pad: 1
    kernel_size: 3
    weight_filler {
      type: "xavier"
      std: 0.03
    }
    bias_filler {
      type: "constant"
      value: 0.2
    }
  }
}
layer {
  name: "inception_4c/relu_3x3"
  type: "ReLU"
  bottom: "inception_4c/3x3"
  top: "inception_4c/3x3"
}
layer {
  name: "inception_4c/5x5_reduce"
  type: "Convolution"
  bottom: "inception_4b/output"
  top: "inception_4c/5x5_reduce"
  param {
    lr_mult: 1
    decay_mult: 1
  }
  param {
    lr_mult: 2
    decay_mult: 0
  }
  convolution_param {
    num_output: 24
    kernel_size: 1
    weight_filler {
      type: "xavier"
      std: 0.2
    }
    bias_filler {
      type: "constant"
      value: 0.2
    }
  }
}
layer {
  name: "inception_4c/relu_5x5_reduce"
  type: "ReLU"
  bottom: "inception_4c/5x5_reduce"
  top: "inception_4c/5x5_reduce"
}
layer {
  name: "inception_4c/5x5"
  type: "Convolution"
  bottom: "inception_4c/5x5_reduce"
  top: "inception_4c/5x5"
  param {
    lr_mult: 1
    decay_mult: 1
  }
  param {
    lr_mult: 2
    decay_mult: 0
  }
  convolution_param {
    num_output: 64
    pad: 2
    kernel_size: 5
    weight_filler {
      type: "xavier"
      std: 0.03
    }
    bias_filler {
      type: "constant"
      value: 0.2
    }
  }
}
layer {
  name: "inception_4c/relu_5x5"
  type: "ReLU"
  bottom: "inception_4c/5x5"
  top: "inception_4c/5x5"
}
layer {
  name: "inception_4c/pool"
  type: "Pooling"
  bottom: "inception_4b/output"
  top: "inception_4c/pool"
  pooling_param {
    pool: MAX
    kernel_size: 3
    stride: 1
    pad: 1
  }
}
layer {
  name: "inception_4c/pool_proj"
  type: "Convolution"
  bottom: "inception_4c/pool"
  top: "inception_4c/pool_proj"
  param {
    lr_mult: 1
    decay_mult: 1
  }
  param {
    lr_mult: 2
    decay_mult: 0
  }
  convolution_param {
    num_output: 64
    kernel_size: 1
    weight_filler {
      type: "xavier"
      std: 0.1
    }
    bias_filler {
      type: "constant"
      value: 0.2
    }
  }
}
layer {
  name: "inception_4c/relu_pool_proj"
  type: "ReLU"
  bottom: "inception_4c/pool_proj"
  top: "inception_4c/pool_proj"
}
layer {
  name: "inception_4c/output"
  type: "Concat"
  bottom: "inception_4c/1x1"
  bottom: "inception_4c/3x3"
  bottom: "inception_4c/5x5"
  bottom: "inception_4c/pool_proj"
  top: "inception_4c/output"
}
layer {
  name: "inception_4d/1x1"
  type: "Convolution"
  bottom: "inception_4c/output"
  top: "inception_4d/1x1"
  param {
    lr_mult: 1
    decay_mult: 1
  }
  param {
    lr_mult: 2
    decay_mult: 0
  }
  convolution_param {
    num_output: 112
    kernel_size: 1
    weight_filler {
      type: "xavier"
      std: 0.03
    }
    bias_filler {
      type: "constant"
      value: 0.2
    }
  }
}
layer {
  name: "inception_4d/relu_1x1"
  type: "ReLU"
  bottom: "inception_4d/1x1"
  top: "inception_4d/1x1"
}
layer {
  name: "inception_4d/3x3_reduce"
  type: "Convolution"
  bottom: "inception_4c/output"
  top: "inception_4d/3x3_reduce"
  param {
    lr_mult: 1
    decay_mult: 1
  }
  param {
    lr_mult: 2
    decay_mult: 0
  }
  convolution_param {
    num_output: 144
    kernel_size: 1
    weight_filler {
      type: "xavier"
      std: 0.09
    }
    bias_filler {
      type: "constant"
      value: 0.2
    }
  }
}
layer {
  name: "inception_4d/relu_3x3_reduce"
  type: "ReLU"
  bottom: "inception_4d/3x3_reduce"
  top: "inception_4d/3x3_reduce"
}
layer {
  name: "inception_4d/3x3"
  type: "Convolution"
  bottom: "inception_4d/3x3_reduce"
  top: "inception_4d/3x3"
  param {
    lr_mult: 1
    decay_mult: 1
  }
  param {
    lr_mult: 2
    decay_mult: 0
  }
  convolution_param {
    num_output: 288
    pad: 1
    kernel_size: 3
    weight_filler {
      type: "xavier"
      std: 0.03
    }
    bias_filler {
      type: "constant"
      value: 0.2
    }
  }
}
layer {
  name: "inception_4d/relu_3x3"
  type: "ReLU"
  bottom: "inception_4d/3x3"
  top: "inception_4d/3x3"
}
layer {
  name: "inception_4d/5x5_reduce"
  type: "Convolution"
  bottom: "inception_4c/output"
  top: "inception_4d/5x5_reduce"
  param {
    lr_mult: 1
    decay_mult: 1
  }
  param {
    lr_mult: 2
    decay_mult: 0
  }
  convolution_param {
    num_output: 32
    kernel_size: 1
    weight_filler {
      type: "xavier"
      std: 0.2
    }
    bias_filler {
      type: "constant"
      value: 0.2
    }
  }
}
layer {
  name: "inception_4d/relu_5x5_reduce"
  type: "ReLU"
  bottom: "inception_4d/5x5_reduce"
  top: "inception_4d/5x5_reduce"
}
layer {
  name: "inception_4d/5x5"
  type: "Convolution"
  bottom: "inception_4d/5x5_reduce"
  top: "inception_4d/5x5"
  param {
    lr_mult: 1
    decay_mult: 1
  }
  param {
    lr_mult: 2
    decay_mult: 0
  }
  convolution_param {
    num_output: 64
    pad: 2
    kernel_size: 5
    weight_filler {
      type: "xavier"
      std: 0.03
    }
    bias_filler {
      type: "constant"
      value: 0.2
    }
  }
}
layer {
  name: "inception_4d/relu_5x5"
  type: "ReLU"
  bottom: "inception_4d/5x5"
  top: "inception_4d/5x5"
}
layer {
  name: "inception_4d/pool"
  type: "Pooling"
  bottom: "inception_4c/output"
  top: "inception_4d/pool"
  pooling_param {
    pool: MAX
    kernel_size: 3
    stride: 1
    pad: 1
  }
}
layer {
  name: "inception_4d/pool_proj"
  type: "Convolution"
  bottom: "inception_4d/pool"
  top: "inception_4d/pool_proj"
  param {
    lr_mult: 1
    decay_mult: 1
  }
  param {
    lr_mult: 2
    decay_mult: 0
  }
  convolution_param {
    num_output: 64
    kernel_size: 1
    weight_filler {
      type: "xavier"
      std: 0.1
    }
    bias_filler {
      type: "constant"
      value: 0.2
    }
  }
}
layer {
  name: "inception_4d/relu_pool_proj"
  type: "ReLU"
  bottom: "inception_4d/pool_proj"
  top: "inception_4d/pool_proj"
}
layer {
  name: "inception_4d/output"
  type: "Concat"
  bottom: "inception_4d/1x1"
  bottom: "inception_4d/3x3"
  bottom: "inception_4d/5x5"
  bottom: "inception_4d/pool_proj"
  top: "inception_4d/output"
}
layer {
  name: "loss2/ave_pool"
  type: "Pooling"
  bottom: "inception_4d/output"
  top: "loss2/ave_pool"
  pooling_param {
    pool: AVE
    kernel_size: 5
    stride: 3
  }
}
layer {
  name: "loss2/conv"
  type: "Convolution"
  bottom: "loss2/ave_pool"
  top: "loss2/conv"
  param {
    lr_mult: 1
    decay_mult: 1
  }
  param {
    lr_mult: 2
    decay_mult: 0
  }
  convolution_param {
    num_output: 128
    kernel_size: 1
    weight_filler {
      type: "xavier"
      std: 0.08
    }
    bias_filler {
      type: "constant"
      value: 0.2
    }
  }
}
layer {
  name: "loss2/relu_conv"
  type: "ReLU"
  bottom: "loss2/conv"
  top: "loss2/conv"
}
layer {
  name: "loss2/fc"
  type: "InnerProduct"
  bottom: "loss2/conv"
  top: "loss2/fc"
  param {
    lr_mult: 1
    decay_mult: 1
  }
  param {
    lr_mult: 2
    decay_mult: 0
  }
  inner_product_param {
    num_output: 1024
    weight_filler {
      type: "xavier"
      std: 0.02
    }
    bias_filler {
      type: "constant"
      value: 0.2
    }
  }
}
layer {
  name: "loss2/relu_fc"
  type: "ReLU"
  bottom: "loss2/fc"
  top: "loss2/fc"
}
layer {
  name: "loss2/drop_fc"
  type: "Dropout"
  bottom: "loss2/fc"
  top: "loss2/fc"
  dropout_param {
    dropout_ratio: 0.7
  }
}
layer {
  name: "loss2/classifier_plantvillage"
  type: "InnerProduct"
  bottom: "loss2/fc"
  top: "loss2/classifier_plantvillage"
  param {
    lr_mult: 1
    decay_mult: 1
  }
  param {
    lr_mult: 2
    decay_mult: 0
  }
  inner_product_param {
    num_output: 38
    weight_filler {
      type: "xavier"
      std: 0.0009765625
    }
    bias_filler {
      type: "constant"
      value: 0
    }
  }
}
layer {
  name: "inception_4e/1x1"
  type: "Convolution"
  bottom: "inception_4d/output"
  top: "inception_4e/1x1"
  param {
    lr_mult: 1
    decay_mult: 1
  }
  param {
    lr_mult: 2
    decay_mult: 0
  }
  convolution_param {
    num_output: 256
    kernel_size: 1
    weight_filler {
      type: "xavier"
      std: 0.03
    }
    bias_filler {
      type: "constant"
      value: 0.2
    }
  }
}
layer {
  name: "inception_4e/relu_1x1"
  type: "ReLU"
  bottom: "inception_4e/1x1"
  top: "inception_4e/1x1"
}
layer {
  name: "inception_4e/3x3_reduce"
  type: "Convolution"
  bottom: "inception_4d/output"
  top: "inception_4e/3x3_reduce"
  param {
    lr_mult: 1
    decay_mult: 1
  }
  param {
    lr_mult: 2
    decay_mult: 0
  }
  convolution_param {
    num_output: 160
    kernel_size: 1
    weight_filler {
      type: "xavier"
      std: 0.09
    }
    bias_filler {
      type: "constant"
      value: 0.2
    }
  }
}
layer {
  name: "inception_4e/relu_3x3_reduce"
  type: "ReLU"
  bottom: "inception_4e/3x3_reduce"
  top: "inception_4e/3x3_reduce"
}
layer {
  name: "inception_4e/3x3"
  type: "Convolution"
  bottom: "inception_4e/3x3_reduce"
  top: "inception_4e/3x3"
  param {
    lr_mult: 1
    decay_mult: 1
  }
  param {
    lr_mult: 2
    decay_mult: 0
  }
  convolution_param {
    num_output: 320
    pad: 1
    kernel_size: 3
    weight_filler {
      type: "xavier"
      std: 0.03
    }
    bias_filler {
      type: "constant"
      value: 0.2
    }
  }
}
layer {
  name: "inception_4e/relu_3x3"
  type: "ReLU"
  bottom: "inception_4e/3x3"
  top: "inception_4e/3x3"
}
layer {
  name: "inception_4e/5x5_reduce"
  type: "Convolution"
  bottom: "inception_4d/output"
  top: "inception_4e/5x5_reduce"
  param {
    lr_mult: 1
    decay_mult: 1
  }
  param {
    lr_mult: 2
    decay_mult: 0
  }
  convolution_param {
    num_output: 32
    kernel_size: 1
    weight_filler {
      type: "xavier"
      std: 0.2
    }
    bias_filler {
      type: "constant"
      value: 0.2
    }
  }
}
layer {
  name: "inception_4e/relu_5x5_reduce"
  type: "ReLU"
  bottom: "inception_4e/5x5_reduce"
  top: "inception_4e/5x5_reduce"
}
layer {
  name: "inception_4e/5x5"
  type: "Convolution"
  bottom: "inception_4e/5x5_reduce"
  top: "inception_4e/
I0403 15:30:33.989940 19761 layer_factory.hpp:77] Creating layer data
I0403 15:30:33.990535 19761 net.cpp:91] Creating Layer data
I0403 15:30:33.990564 19761 net.cpp:399] data -> data
I0403 15:30:33.990615 19761 net.cpp:399] data -> label
I0403 15:30:33.990651 19761 data_transformer.cpp:25] Loading mean file from: /home/mohanty/data/final_dataset/lmdb/grayscale-40-60/mean.binaryproto
I0403 15:30:33.995954 19764 db_lmdb.cpp:38] Opened lmdb /home/mohanty/data/final_dataset/lmdb/grayscale-40-60/test_db
I0403 15:30:34.004608 19761 data_layer.cpp:41] output data size: 24,3,224,224
I0403 15:30:34.035218 19761 net.cpp:141] Setting up data
I0403 15:30:34.035315 19761 net.cpp:148] Top shape: 24 3 224 224 (3612672)
I0403 15:30:34.035336 19761 net.cpp:148] Top shape: 24 (24)
I0403 15:30:34.035351 19761 net.cpp:156] Memory required for data: 14450784
I0403 15:30:34.035378 19761 layer_factory.hpp:77] Creating layer label_data_1_split
I0403 15:30:34.035405 19761 net.cpp:91] Creating Layer label_data_1_split
I0403 15:30:34.035423 19761 net.cpp:425] label_data_1_split <- label
I0403 15:30:34.035454 19761 net.cpp:399] label_data_1_split -> label_data_1_split_0
I0403 15:30:34.035482 19761 net.cpp:399] label_data_1_split -> label_data_1_split_1
I0403 15:30:34.035503 19761 net.cpp:399] label_data_1_split -> label_data_1_split_2
I0403 15:30:34.035523 19761 net.cpp:399] label_data_1_split -> label_data_1_split_3
I0403 15:30:34.035542 19761 net.cpp:399] label_data_1_split -> label_data_1_split_4
I0403 15:30:34.035562 19761 net.cpp:399] label_data_1_split -> label_data_1_split_5
I0403 15:30:34.035579 19761 net.cpp:399] label_data_1_split -> label_data_1_split_6
I0403 15:30:34.035600 19761 net.cpp:399] label_data_1_split -> label_data_1_split_7
I0403 15:30:34.035619 19761 net.cpp:399] label_data_1_split -> label_data_1_split_8
I0403 15:30:34.035639 19761 net.cpp:399] label_data_1_split -> label_data_1_split_9
I0403 15:30:34.035754 19761 net.cpp:141] Setting up label_data_1_split
I0403 15:30:34.035778 19761 net.cpp:148] Top shape: 24 (24)
I0403 15:30:34.035794 19761 net.cpp:148] Top shape: 24 (24)
I0403 15:30:34.035809 19761 net.cpp:148] Top shape: 24 (24)
I0403 15:30:34.035825 19761 net.cpp:148] Top shape: 24 (24)
I0403 15:30:34.035840 19761 net.cpp:148] Top shape: 24 (24)
I0403 15:30:34.035853 19761 net.cpp:148] Top shape: 24 (24)
I0403 15:30:34.035868 19761 net.cpp:148] Top shape: 24 (24)
I0403 15:30:34.035883 19761 net.cpp:148] Top shape: 24 (24)
I0403 15:30:34.035898 19761 net.cpp:148] Top shape: 24 (24)
I0403 15:30:34.035914 19761 net.cpp:148] Top shape: 24 (24)
I0403 15:30:34.035962 19761 net.cpp:156] Memory required for data: 14451744
I0403 15:30:34.035979 19761 layer_factory.hpp:77] Creating layer conv1/7x7_s2
I0403 15:30:34.036010 19761 net.cpp:91] Creating Layer conv1/7x7_s2
I0403 15:30:34.036031 19761 net.cpp:425] conv1/7x7_s2 <- data
I0403 15:30:34.036049 19761 net.cpp:399] conv1/7x7_s2 -> conv1/7x7_s2
I0403 15:30:34.185406 19761 net.cpp:141] Setting up conv1/7x7_s2
I0403 15:30:34.185474 19761 net.cpp:148] Top shape: 24 64 112 112 (19267584)
I0403 15:30:34.185492 19761 net.cpp:156] Memory required for data: 91522080
I0403 15:30:34.185523 19761 layer_factory.hpp:77] Creating layer conv1/relu_7x7
I0403 15:30:34.185550 19761 net.cpp:91] Creating Layer conv1/relu_7x7
I0403 15:30:34.185570 19761 net.cpp:425] conv1/relu_7x7 <- conv1/7x7_s2
I0403 15:30:34.185588 19761 net.cpp:386] conv1/relu_7x7 -> conv1/7x7_s2 (in-place)
I0403 15:30:34.185855 19761 net.cpp:141] Setting up conv1/relu_7x7
I0403 15:30:34.185883 19761 net.cpp:148] Top shape: 24 64 112 112 (19267584)
I0403 15:30:34.185900 19761 net.cpp:156] Memory required for data: 168592416
I0403 15:30:34.185917 19761 layer_factory.hpp:77] Creating layer pool1/3x3_s2
I0403 15:30:34.185943 19761 net.cpp:91] Creating Layer pool1/3x3_s2
I0403 15:30:34.185967 19761 net.cpp:425] pool1/3x3_s2 <- conv1/7x7_s2
I0403 15:30:34.185988 19761 net.cpp:399] pool1/3x3_s2 -> pool1/3x3_s2
I0403 15:30:34.186069 19761 net.cpp:141] Setting up pool1/3x3_s2
I0403 15:30:34.186128 19761 net.cpp:148] Top shape: 24 64 56 56 (4816896)
I0403 15:30:34.186148 19761 net.cpp:156] Memory required for data: 187860000
I0403 15:30:34.186163 19761 layer_factory.hpp:77] Creating layer pool1/norm1
I0403 15:30:34.186189 19761 net.cpp:91] Creating Layer pool1/norm1
I0403 15:30:34.186208 19761 net.cpp:425] pool1/norm1 <- pool1/3x3_s2
I0403 15:30:34.186225 19761 net.cpp:399] pool1/norm1 -> pool1/norm1
I0403 15:30:34.186523 19761 net.cpp:141] Setting up pool1/norm1
I0403 15:30:34.186553 19761 net.cpp:148] Top shape: 24 64 56 56 (4816896)
I0403 15:30:34.186569 19761 net.cpp:156] Memory required for data: 207127584
I0403 15:30:34.186588 19761 layer_factory.hpp:77] Creating layer conv2/3x3_reduce
I0403 15:30:34.186614 19761 net.cpp:91] Creating Layer conv2/3x3_reduce
I0403 15:30:34.186632 19761 net.cpp:425] conv2/3x3_reduce <- pool1/norm1
I0403 15:30:34.186652 19761 net.cpp:399] conv2/3x3_reduce -> conv2/3x3_reduce
I0403 15:30:34.188144 19761 net.cpp:141] Setting up conv2/3x3_reduce
I0403 15:30:34.188175 19761 net.cpp:148] Top shape: 24 64 56 56 (4816896)
I0403 15:30:34.188191 19761 net.cpp:156] Memory required for data: 226395168
I0403 15:30:34.188212 19761 layer_factory.hpp:77] Creating layer conv2/relu_3x3_reduce
I0403 15:30:34.188232 19761 net.cpp:91] Creating Layer conv2/relu_3x3_reduce
I0403 15:30:34.188248 19761 net.cpp:425] conv2/relu_3x3_reduce <- conv2/3x3_reduce
I0403 15:30:34.188269 19761 net.cpp:386] conv2/relu_3x3_reduce -> conv2/3x3_reduce (in-place)
I0403 15:30:34.188555 19761 net.cpp:141] Setting up conv2/relu_3x3_reduce
I0403 15:30:34.188583 19761 net.cpp:148] Top shape: 24 64 56 56 (4816896)
I0403 15:30:34.188599 19761 net.cpp:156] Memory required for data: 245662752
I0403 15:30:34.188614 19761 layer_factory.hpp:77] Creating layer conv2/3x3
I0403 15:30:34.188639 19761 net.cpp:91] Creating Layer conv2/3x3
I0403 15:30:34.188657 19761 net.cpp:425] conv2/3x3 <- conv2/3x3_reduce
I0403 15:30:34.188679 19761 net.cpp:399] conv2/3x3 -> conv2/3x3
I0403 15:30:34.191177 19761 net.cpp:141] Setting up conv2/3x3
I0403 15:30:34.191210 19761 net.cpp:148] Top shape: 24 192 56 56 (14450688)
I0403 15:30:34.191226 19761 net.cpp:156] Memory required for data: 303465504
I0403 15:30:34.191248 19761 layer_factory.hpp:77] Creating layer conv2/relu_3x3
I0403 15:30:34.191268 19761 net.cpp:91] Creating Layer conv2/relu_3x3
I0403 15:30:34.191284 19761 net.cpp:425] conv2/relu_3x3 <- conv2/3x3
I0403 15:30:34.191304 19761 net.cpp:386] conv2/relu_3x3 -> conv2/3x3 (in-place)
I0403 15:30:34.191545 19761 net.cpp:141] Setting up conv2/relu_3x3
I0403 15:30:34.191572 19761 net.cpp:148] Top shape: 24 192 56 56 (14450688)
I0403 15:30:34.191618 19761 net.cpp:156] Memory required for data: 361268256
I0403 15:30:34.191635 19761 layer_factory.hpp:77] Creating layer conv2/norm2
I0403 15:30:34.191659 19761 net.cpp:91] Creating Layer conv2/norm2
I0403 15:30:34.191679 19761 net.cpp:425] conv2/norm2 <- conv2/3x3
I0403 15:30:34.191699 19761 net.cpp:399] conv2/norm2 -> conv2/norm2
I0403 15:30:34.192021 19761 net.cpp:141] Setting up conv2/norm2
I0403 15:30:34.192052 19761 net.cpp:148] Top shape: 24 192 56 56 (14450688)
I0403 15:30:34.192070 19761 net.cpp:156] Memory required for data: 419071008
I0403 15:30:34.192085 19761 layer_factory.hpp:77] Creating layer pool2/3x3_s2
I0403 15:30:34.192103 19761 net.cpp:91] Creating Layer pool2/3x3_s2
I0403 15:30:34.192119 19761 net.cpp:425] pool2/3x3_s2 <- conv2/norm2
I0403 15:30:34.192139 19761 net.cpp:399] pool2/3x3_s2 -> pool2/3x3_s2
I0403 15:30:34.192198 19761 net.cpp:141] Setting up pool2/3x3_s2
I0403 15:30:34.192224 19761 net.cpp:148] Top shape: 24 192 28 28 (3612672)
I0403 15:30:34.192239 19761 net.cpp:156] Memory required for data: 433521696
I0403 15:30:34.192256 19761 layer_factory.hpp:77] Creating layer pool2/3x3_s2_pool2/3x3_s2_0_split
I0403 15:30:34.192281 19761 net.cpp:91] Creating Layer pool2/3x3_s2_pool2/3x3_s2_0_split
I0403 15:30:34.192297 19761 net.cpp:425] pool2/3x3_s2_pool2/3x3_s2_0_split <- pool2/3x3_s2
I0403 15:30:34.192317 19761 net.cpp:399] pool2/3x3_s2_pool2/3x3_s2_0_split -> pool2/3x3_s2_pool2/3x3_s2_0_split_0
I0403 15:30:34.192337 19761 net.cpp:399] pool2/3x3_s2_pool2/3x3_s2_0_split -> pool2/3x3_s2_pool2/3x3_s2_0_split_1
I0403 15:30:34.192366 19761 net.cpp:399] pool2/3x3_s2_pool2/3x3_s2_0_split -> pool2/3x3_s2_pool2/3x3_s2_0_split_2
I0403 15:30:34.192391 19761 net.cpp:399] pool2/3x3_s2_pool2/3x3_s2_0_split -> pool2/3x3_s2_pool2/3x3_s2_0_split_3
I0403 15:30:34.192468 19761 net.cpp:141] Setting up pool2/3x3_s2_pool2/3x3_s2_0_split
I0403 15:30:34.192492 19761 net.cpp:148] Top shape: 24 192 28 28 (3612672)
I0403 15:30:34.192507 19761 net.cpp:148] Top shape: 24 192 28 28 (3612672)
I0403 15:30:34.192523 19761 net.cpp:148] Top shape: 24 192 28 28 (3612672)
I0403 15:30:34.192539 19761 net.cpp:148] Top shape: 24 192 28 28 (3612672)
I0403 15:30:34.192553 19761 net.cpp:156] Memory required for data: 491324448
I0403 15:30:34.192567 19761 layer_factory.hpp:77] Creating layer inception_3a/1x1
I0403 15:30:34.192591 19761 net.cpp:91] Creating Layer inception_3a/1x1
I0403 15:30:34.192610 19761 net.cpp:425] inception_3a/1x1 <- pool2/3x3_s2_pool2/3x3_s2_0_split_0
I0403 15:30:34.192631 19761 net.cpp:399] inception_3a/1x1 -> inception_3a/1x1
I0403 15:30:34.194349 19761 net.cpp:141] Setting up inception_3a/1x1
I0403 15:30:34.194383 19761 net.cpp:148] Top shape: 24 64 28 28 (1204224)
I0403 15:30:34.194403 19761 net.cpp:156] Memory required for data: 496141344
I0403 15:30:34.194424 19761 layer_factory.hpp:77] Creating layer inception_3a/relu_1x1
I0403 15:30:34.194443 19761 net.cpp:91] Creating Layer inception_3a/relu_1x1
I0403 15:30:34.194461 19761 net.cpp:425] inception_3a/relu_1x1 <- inception_3a/1x1
I0403 15:30:34.194483 19761 net.cpp:386] inception_3a/relu_1x1 -> inception_3a/1x1 (in-place)
I0403 15:30:34.194667 19761 net.cpp:141] Setting up inception_3a/relu_1x1
I0403 15:30:34.194694 19761 net.cpp:148] Top shape: 24 64 28 28 (1204224)
I0403 15:30:34.194708 19761 net.cpp:156] Memory required for data: 500958240
I0403 15:30:34.194723 19761 layer_factory.hpp:77] Creating layer inception_3a/3x3_reduce
I0403 15:30:34.194746 19761 net.cpp:91] Creating Layer inception_3a/3x3_reduce
I0403 15:30:34.194766 19761 net.cpp:425] inception_3a/3x3_reduce <- pool2/3x3_s2_pool2/3x3_s2_0_split_1
I0403 15:30:34.194788 19761 net.cpp:399] inception_3a/3x3_reduce -> inception_3a/3x3_reduce
I0403 15:30:34.196630 19761 net.cpp:141] Setting up inception_3a/3x3_reduce
I0403 15:30:34.196661 19761 net.cpp:148] Top shape: 24 96 28 28 (1806336)
I0403 15:30:34.196676 19761 net.cpp:156] Memory required for data: 508183584
I0403 15:30:34.196698 19761 layer_factory.hpp:77] Creating layer inception_3a/relu_3x3_reduce
I0403 15:30:34.196737 19761 net.cpp:91] Creating Layer inception_3a/relu_3x3_reduce
I0403 15:30:34.196755 19761 net.cpp:425] inception_3a/relu_3x3_reduce <- inception_3a/3x3_reduce
I0403 15:30:34.196774 19761 net.cpp:386] inception_3a/relu_3x3_reduce -> inception_3a/3x3_reduce (in-place)
I0403 15:30:34.196959 19761 net.cpp:141] Setting up inception_3a/relu_3x3_reduce
I0403 15:30:34.196988 19761 net.cpp:148] Top shape: 24 96 28 28 (1806336)
I0403 15:30:34.197005 19761 net.cpp:156] Memory required for data: 515408928
I0403 15:30:34.197021 19761 layer_factory.hpp:77] Creating layer inception_3a/3x3
I0403 15:30:34.197046 19761 net.cpp:91] Creating Layer inception_3a/3x3
I0403 15:30:34.197064 19761 net.cpp:425] inception_3a/3x3 <- inception_3a/3x3_reduce
I0403 15:30:34.197085 19761 net.cpp:399] inception_3a/3x3 -> inception_3a/3x3
I0403 15:30:34.198740 19761 net.cpp:141] Setting up inception_3a/3x3
I0403 15:30:34.198766 19761 net.cpp:148] Top shape: 24 128 28 28 (2408448)
I0403 15:30:34.198781 19761 net.cpp:156] Memory required for data: 525042720
I0403 15:30:34.198798 19761 layer_factory.hpp:77] Creating layer inception_3a/relu_3x3
I0403 15:30:34.198818 19761 net.cpp:91] Creating Layer inception_3a/relu_3x3
I0403 15:30:34.198834 19761 net.cpp:425] inception_3a/relu_3x3 <- inception_3a/3x3
I0403 15:30:34.198851 19761 net.cpp:386] inception_3a/relu_3x3 -> inception_3a/3x3 (in-place)
I0403 15:30:34.199139 19761 net.cpp:141] Setting up inception_3a/relu_3x3
I0403 15:30:34.199165 19761 net.cpp:148] Top shape: 24 128 28 28 (2408448)
I0403 15:30:34.199180 19761 net.cpp:156] Memory required for data: 534676512
I0403 15:30:34.199194 19761 layer_factory.hpp:77] Creating layer inception_3a/5x5_reduce
I0403 15:30:34.199216 19761 net.cpp:91] Creating Layer inception_3a/5x5_reduce
I0403 15:30:34.199234 19761 net.cpp:425] inception_3a/5x5_reduce <- pool2/3x3_s2_pool2/3x3_s2_0_split_2
I0403 15:30:34.199254 19761 net.cpp:399] inception_3a/5x5_reduce -> inception_3a/5x5_reduce
I0403 15:30:34.200229 19761 net.cpp:141] Setting up inception_3a/5x5_reduce
I0403 15:30:34.200269 19761 net.cpp:148] Top shape: 24 16 28 28 (301056)
I0403 15:30:34.200284 19761 net.cpp:156] Memory required for data: 535880736
I0403 15:30:34.200304 19761 layer_factory.hpp:77] Creating layer inception_3a/relu_5x5_reduce
I0403 15:30:34.200323 19761 net.cpp:91] Creating Layer inception_3a/relu_5x5_reduce
I0403 15:30:34.200340 19761 net.cpp:425] inception_3a/relu_5x5_reduce <- inception_3a/5x5_reduce
I0403 15:30:34.200357 19761 net.cpp:386] inception_3a/relu_5x5_reduce -> inception_3a/5x5_reduce (in-place)
I0403 15:30:34.200673 19761 net.cpp:141] Setting up inception_3a/relu_5x5_reduce
I0403 15:30:34.200701 19761 net.cpp:148] Top shape: 24 16 28 28 (301056)
I0403 15:30:34.200717 19761 net.cpp:156] Memory required for data: 537084960
I0403 15:30:34.200734 19761 layer_factory.hpp:77] Creating layer inception_3a/5x5
I0403 15:30:34.200758 19761 net.cpp:91] Creating Layer inception_3a/5x5
I0403 15:30:34.200776 19761 net.cpp:425] inception_3a/5x5 <- inception_3a/5x5_reduce
I0403 15:30:34.200798 19761 net.cpp:399] inception_3a/5x5 -> inception_3a/5x5
I0403 15:30:34.201827 19761 net.cpp:141] Setting up inception_3a/5x5
I0403 15:30:34.201855 19761 net.cpp:148] Top shape: 24 32 28 28 (602112)
I0403 15:30:34.201871 19761 net.cpp:156] Memory required for data: 539493408
I0403 15:30:34.201889 19761 layer_factory.hpp:77] Creating layer inception_3a/relu_5x5
I0403 15:30:34.201908 19761 net.cpp:91] Creating Layer inception_3a/relu_5x5
I0403 15:30:34.201931 19761 net.cpp:425] inception_3a/relu_5x5 <- inception_3a/5x5
I0403 15:30:34.201951 19761 net.cpp:386] inception_3a/relu_5x5 -> inception_3a/5x5 (in-place)
I0403 15:30:34.202126 19761 net.cpp:141] Setting up inception_3a/relu_5x5
I0403 15:30:34.202152 19761 net.cpp:148] Top shape: 24 32 28 28 (602112)
I0403 15:30:34.202165 19761 net.cpp:156] Memory required for data: 541901856
I0403 15:30:34.202191 19761 layer_factory.hpp:77] Creating layer inception_3a/pool
I0403 15:30:34.202210 19761 net.cpp:91] Creating Layer inception_3a/pool
I0403 15:30:34.202242 19761 net.cpp:425] inception_3a/pool <- pool2/3x3_s2_pool2/3x3_s2_0_split_3
I0403 15:30:34.202260 19761 net.cpp:399] inception_3a/pool -> inception_3a/pool
I0403 15:30:34.202316 19761 net.cpp:141] Setting up inception_3a/pool
I0403 15:30:34.202338 19761 net.cpp:148] Top shape: 24 192 28 28 (3612672)
I0403 15:30:34.202353 19761 net.cpp:156] Memory required for data: 556352544
I0403 15:30:34.202365 19761 layer_factory.hpp:77] Creating layer inception_3a/pool_proj
I0403 15:30:34.202386 19761 net.cpp:91] Creating Layer inception_3a/pool_proj
I0403 15:30:34.202402 19761 net.cpp:425] inception_3a/pool_proj <- inception_3a/pool
I0403 15:30:34.202424 19761 net.cpp:399] inception_3a/pool_proj -> inception_3a/pool_proj
I0403 15:30:34.203348 19761 net.cpp:141] Setting up inception_3a/pool_proj
I0403 15:30:34.203377 19761 net.cpp:148] Top shape: 24 32 28 28 (602112)
I0403 15:30:34.203393 19761 net.cpp:156] Memory required for data: 558760992
I0403 15:30:34.203414 19761 layer_factory.hpp:77] Creating layer inception_3a/relu_pool_proj
I0403 15:30:34.203434 19761 net.cpp:91] Creating Layer inception_3a/relu_pool_proj
I0403 15:30:34.203449 19761 net.cpp:425] inception_3a/relu_pool_proj <- inception_3a/pool_proj
I0403 15:30:34.203465 19761 net.cpp:386] inception_3a/relu_pool_proj -> inception_3a/pool_proj (in-place)
I0403 15:30:34.203733 19761 net.cpp:141] Setting up inception_3a/relu_pool_proj
I0403 15:30:34.203758 19761 net.cpp:148] Top shape: 24 32 28 28 (602112)
I0403 15:30:34.203773 19761 net.cpp:156] Memory required for data: 561169440
I0403 15:30:34.203786 19761 layer_factory.hpp:77] Creating layer inception_3a/output
I0403 15:30:34.203804 19761 net.cpp:91] Creating Layer inception_3a/output
I0403 15:30:34.203819 19761 net.cpp:425] inception_3a/output <- inception_3a/1x1
I0403 15:30:34.203833 19761 net.cpp:425] inception_3a/output <- inception_3a/3x3
I0403 15:30:34.203848 19761 net.cpp:425] inception_3a/output <- inception_3a/5x5
I0403 15:30:34.203862 19761 net.cpp:425] inception_3a/output <- inception_3a/pool_proj
I0403 15:30:34.203881 19761 net.cpp:399] inception_3a/output -> inception_3a/output
I0403 15:30:34.203927 19761 net.cpp:141] Setting up inception_3a/output
I0403 15:30:34.203958 19761 net.cpp:148] Top shape: 24 256 28 28 (4816896)
I0403 15:30:34.203976 19761 net.cpp:156] Memory required for data: 580437024
I0403 15:30:34.203992 19761 layer_factory.hpp:77] Creating layer inception_3a/output_inception_3a/output_0_split
I0403 15:30:34.204010 19761 net.cpp:91] Creating Layer inception_3a/output_inception_3a/output_0_split
I0403 15:30:34.204025 19761 net.cpp:425] inception_3a/output_inception_3a/output_0_split <- inception_3a/output
I0403 15:30:34.204046 19761 net.cpp:399] inception_3a/output_inception_3a/output_0_split -> inception_3a/output_inception_3a/output_0_split_0
I0403 15:30:34.204067 19761 net.cpp:399] inception_3a/output_inception_3a/output_0_split -> inception_3a/output_inception_3a/output_0_split_1
I0403 15:30:34.204090 19761 net.cpp:399] inception_3a/output_inception_3a/output_0_split -> inception_3a/output_inception_3a/output_0_split_2
I0403 15:30:34.204110 19761 net.cpp:399] inception_3a/output_inception_3a/output_0_split -> inception_3a/output_inception_3a/output_0_split_3
I0403 15:30:34.204185 19761 net.cpp:141] Setting up inception_3a/output_inception_3a/output_0_split
I0403 15:30:34.204207 19761 net.cpp:148] Top shape: 24 256 28 28 (4816896)
I0403 15:30:34.204223 19761 net.cpp:148] Top shape: 24 256 28 28 (4816896)
I0403 15:30:34.204238 19761 net.cpp:148] Top shape: 24 256 28 28 (4816896)
I0403 15:30:34.204253 19761 net.cpp:148] Top shape: 24 256 28 28 (4816896)
I0403 15:30:34.204267 19761 net.cpp:156] Memory required for data: 657507360
I0403 15:30:34.204279 19761 layer_factory.hpp:77] Creating layer inception_3b/1x1
I0403 15:30:34.204300 19761 net.cpp:91] Creating Layer inception_3b/1x1
I0403 15:30:34.204316 19761 net.cpp:425] inception_3b/1x1 <- inception_3a/output_inception_3a/output_0_split_0
I0403 15:30:34.204336 19761 net.cpp:399] inception_3b/1x1 -> inception_3b/1x1
I0403 15:30:34.205492 19761 net.cpp:141] Setting up inception_3b/1x1
I0403 15:30:34.205533 19761 net.cpp:148] Top shape: 24 128 28 28 (2408448)
I0403 15:30:34.205549 19761 net.cpp:156] Memory required for data: 667141152
I0403 15:30:34.205567 19761 layer_factory.hpp:77] Creating layer inception_3b/relu_1x1
I0403 15:30:34.205587 19761 net.cpp:91] Creating Layer inception_3b/relu_1x1
I0403 15:30:34.205602 19761 net.cpp:425] inception_3b/relu_1x1 <- inception_3b/1x1
I0403 15:30:34.205621 19761 net.cpp:386] inception_3b/relu_1x1 -> inception_3b/1x1 (in-place)
I0403 15:30:34.205798 19761 net.cpp:141] Setting up inception_3b/relu_1x1
I0403 15:30:34.205837 19761 net.cpp:148] Top shape: 24 128 28 28 (2408448)
I0403 15:30:34.205852 19761 net.cpp:156] Memory required for data: 676774944
I0403 15:30:34.205865 19761 layer_factory.hpp:77] Creating layer inception_3b/3x3_reduce
I0403 15:30:34.205888 19761 net.cpp:91] Creating Layer inception_3b/3x3_reduce
I0403 15:30:34.205905 19761 net.cpp:425] inception_3b/3x3_reduce <- inception_3a/output_inception_3a/output_0_split_1
I0403 15:30:34.205926 19761 net.cpp:399] inception_3b/3x3_reduce -> inception_3b/3x3_reduce
I0403 15:30:34.207096 19761 net.cpp:141] Setting up inception_3b/3x3_reduce
I0403 15:30:34.207128 19761 net.cpp:148] Top shape: 24 128 28 28 (2408448)
I0403 15:30:34.207144 19761 net.cpp:156] Memory required for data: 686408736
I0403 15:30:34.207162 19761 layer_factory.hpp:77] Creating layer inception_3b/relu_3x3_reduce
I0403 15:30:34.207180 19761 net.cpp:91] Creating Layer inception_3b/relu_3x3_reduce
I0403 15:30:34.207195 19761 net.cpp:425] inception_3b/relu_3x3_reduce <- inception_3b/3x3_reduce
I0403 15:30:34.207214 19761 net.cpp:386] inception_3b/relu_3x3_reduce -> inception_3b/3x3_reduce (in-place)
I0403 15:30:34.207393 19761 net.cpp:141] Setting up inception_3b/relu_3x3_reduce
I0403 15:30:34.207422 19761 net.cpp:148] Top shape: 24 128 28 28 (2408448)
I0403 15:30:34.207437 19761 net.cpp:156] Memory required for data: 696042528
I0403 15:30:34.207453 19761 layer_factory.hpp:77] Creating layer inception_3b/3x3
I0403 15:30:34.207480 19761 net.cpp:91] Creating Layer inception_3b/3x3
I0403 15:30:34.207500 19761 net.cpp:425] inception_3b/3x3 <- inception_3b/3x3_reduce
I0403 15:30:34.207520 19761 net.cpp:399] inception_3b/3x3 -> inception_3b/3x3
I0403 15:30:34.210505 19761 net.cpp:141] Setting up inception_3b/3x3
I0403 15:30:34.210536 19761 net.cpp:148] Top shape: 24 192 28 28 (3612672)
I0403 15:30:34.210553 19761 net.cpp:156] Memory required for data: 710493216
I0403 15:30:34.210572 19761 layer_factory.hpp:77] Creating layer inception_3b/relu_3x3
I0403 15:30:34.210593 19761 net.cpp:91] Creating Layer inception_3b/relu_3x3
I0403 15:30:34.210609 19761 net.cpp:425] inception_3b/relu_3x3 <- inception_3b/3x3
I0403 15:30:34.210625 19761 net.cpp:386] inception_3b/relu_3x3 -> inception_3b/3x3 (in-place)
I0403 15:30:34.210906 19761 net.cpp:141] Setting up inception_3b/relu_3x3
I0403 15:30:34.210932 19761 net.cpp:148] Top shape: 24 192 28 28 (3612672)
I0403 15:30:34.210947 19761 net.cpp:156] Memory required for data: 724943904
I0403 15:30:34.210965 19761 layer_factory.hpp:77] Creating layer inception_3b/5x5_reduce
I0403 15:30:34.210989 19761 net.cpp:91] Creating Layer inception_3b/5x5_reduce
I0403 15:30:34.211006 19761 net.cpp:425] inception_3b/5x5_reduce <- inception_3a/output_inception_3a/output_0_split_2
I0403 15:30:34.211029 19761 net.cpp:399] inception_3b/5x5_reduce -> inception_3b/5x5_reduce
I0403 15:30:34.212051 19761 net.cpp:141] Setting up inception_3b/5x5_reduce
I0403 15:30:34.212080 19761 net.cpp:148] Top shape: 24 32 28 28 (602112)
I0403 15:30:34.212095 19761 net.cpp:156] Memory required for data: 727352352
I0403 15:30:34.212113 19761 layer_factory.hpp:77] Creating layer inception_3b/relu_5x5_reduce
I0403 15:30:34.212133 19761 net.cpp:91] Creating Layer inception_3b/relu_5x5_reduce
I0403 15:30:34.212152 19761 net.cpp:425] inception_3b/relu_5x5_reduce <- inception_3b/5x5_reduce
I0403 15:30:34.212168 19761 net.cpp:386] inception_3b/relu_5x5_reduce -> inception_3b/5x5_reduce (in-place)
I0403 15:30:34.212373 19761 net.cpp:141] Setting up inception_3b/relu_5x5_reduce
I0403 15:30:34.212399 19761 net.cpp:148] Top shape: 24 32 28 28 (602112)
I0403 15:30:34.212414 19761 net.cpp:156] Memory required for data: 729760800
I0403 15:30:34.212427 19761 layer_factory.hpp:77] Creating layer inception_3b/5x5
I0403 15:30:34.212451 19761 net.cpp:91] Creating Layer inception_3b/5x5
I0403 15:30:34.212472 19761 net.cpp:425] inception_3b/5x5 <- inception_3b/5x5_reduce
I0403 15:30:34.212493 19761 net.cpp:399] inception_3b/5x5 -> inception_3b/5x5
I0403 15:30:34.214459 19761 net.cpp:141] Setting up inception_3b/5x5
I0403 15:30:34.214493 19761 net.cpp:148] Top shape: 24 96 28 28 (1806336)
I0403 15:30:34.214509 19761 net.cpp:156] Memory required for data: 736986144
I0403 15:30:34.214526 19761 layer_factory.hpp:77] Creating layer inception_3b/relu_5x5
I0403 15:30:34.214545 19761 net.cpp:91] Creating Layer inception_3b/relu_5x5
I0403 15:30:34.214560 19761 net.cpp:425] inception_3b/relu_5x5 <- inception_3b/5x5
I0403 15:30:34.214577 19761 net.cpp:386] inception_3b/relu_5x5 -> inception_3b/5x5 (in-place)
I0403 15:30:34.214768 19761 net.cpp:141] Setting up inception_3b/relu_5x5
I0403 15:30:34.214792 19761 net.cpp:148] Top shape: 24 96 28 28 (1806336)
I0403 15:30:34.214807 19761 net.cpp:156] Memory required for data: 744211488
I0403 15:30:34.214820 19761 layer_factory.hpp:77] Creating layer inception_3b/pool
I0403 15:30:34.214838 19761 net.cpp:91] Creating Layer inception_3b/pool
I0403 15:30:34.214854 19761 net.cpp:425] inception_3b/pool <- inception_3a/output_inception_3a/output_0_split_3
I0403 15:30:34.214870 19761 net.cpp:399] inception_3b/pool -> inception_3b/pool
I0403 15:30:34.214926 19761 net.cpp:141] Setting up inception_3b/pool
I0403 15:30:34.214948 19761 net.cpp:148] Top shape: 24 256 28 28 (4816896)
I0403 15:30:34.214967 19761 net.cpp:156] Memory required for data: 763479072
I0403 15:30:34.214982 19761 layer_factory.hpp:77] Creating layer inception_3b/pool_proj
I0403 15:30:34.215006 19761 net.cpp:91] Creating Layer inception_3b/pool_proj
I0403 15:30:34.215024 19761 net.cpp:425] inception_3b/pool_proj <- inception_3b/pool
I0403 15:30:34.215041 19761 net.cpp:399] inception_3b/pool_proj -> inception_3b/pool_proj
I0403 15:30:34.216100 19761 net.cpp:141] Setting up inception_3b/pool_proj
I0403 15:30:34.216128 19761 net.cpp:148] Top shape: 24 64 28 28 (1204224)
I0403 15:30:34.216145 19761 net.cpp:156] Memory required for data: 768295968
I0403 15:30:34.216163 19761 layer_factory.hpp:77] Creating layer inception_3b/relu_pool_proj
I0403 15:30:34.216186 19761 net.cpp:91] Creating Layer inception_3b/relu_pool_proj
I0403 15:30:34.216202 19761 net.cpp:425] inception_3b/relu_pool_proj <- inception_3b/pool_proj
I0403 15:30:34.216220 19761 net.cpp:386] inception_3b/relu_pool_proj -> inception_3b/pool_proj (in-place)
I0403 15:30:34.216612 19761 net.cpp:141] Setting up inception_3b/relu_pool_proj
I0403 15:30:34.216639 19761 net.cpp:148] Top shape: 24 64 28 28 (1204224)
I0403 15:30:34.216652 19761 net.cpp:156] Memory required for data: 773112864
I0403 15:30:34.216666 19761 layer_factory.hpp:77] Creating layer inception_3b/output
I0403 15:30:34.216686 19761 net.cpp:91] Creating Layer inception_3b/output
I0403 15:30:34.216701 19761 net.cpp:425] inception_3b/output <- inception_3b/1x1
I0403 15:30:34.216730 19761 net.cpp:425] inception_3b/output <- inception_3b/3x3
I0403 15:30:34.216745 19761 net.cpp:425] inception_3b/output <- inception_3b/5x5
I0403 15:30:34.216761 19761 net.cpp:425] inception_3b/output <- inception_3b/pool_proj
I0403 15:30:34.216778 19761 net.cpp:399] inception_3b/output -> inception_3b/output
I0403 15:30:34.216823 19761 net.cpp:141] Setting up inception_3b/output
I0403 15:30:34.216846 19761 net.cpp:148] Top shape: 24 480 28 28 (9031680)
I0403 15:30:34.216861 19761 net.cpp:156] Memory required for data: 809239584
I0403 15:30:34.216876 19761 layer_factory.hpp:77] Creating layer pool3/3x3_s2
I0403 15:30:34.216893 19761 net.cpp:91] Creating Layer pool3/3x3_s2
I0403 15:30:34.216908 19761 net.cpp:425] pool3/3x3_s2 <- inception_3b/output
I0403 15:30:34.216943 19761 net.cpp:399] pool3/3x3_s2 -> pool3/3x3_s2
I0403 15:30:34.217008 19761 net.cpp:141] Setting up pool3/3x3_s2
I0403 15:30:34.217046 19761 net.cpp:148] Top shape: 24 480 14 14 (2257920)
I0403 15:30:34.217059 19761 net.cpp:156] Memory required for data: 818271264
I0403 15:30:34.217073 19761 layer_factory.hpp:77] Creating layer pool3/3x3_s2_pool3/3x3_s2_0_split
I0403 15:30:34.217090 19761 net.cpp:91] Creating Layer pool3/3x3_s2_pool3/3x3_s2_0_split
I0403 15:30:34.217106 19761 net.cpp:425] pool3/3x3_s2_pool3/3x3_s2_0_split <- pool3/3x3_s2
I0403 15:30:34.217123 19761 net.cpp:399] pool3/3x3_s2_pool3/3x3_s2_0_split -> pool3/3x3_s2_pool3/3x3_s2_0_split_0
I0403 15:30:34.217144 19761 net.cpp:399] pool3/3x3_s2_pool3/3x3_s2_0_split -> pool3/3x3_s2_pool3/3x3_s2_0_split_1
I0403 15:30:34.217165 19761 net.cpp:399] pool3/3x3_s2_pool3/3x3_s2_0_split -> pool3/3x3_s2_pool3/3x3_s2_0_split_2
I0403 15:30:34.217186 19761 net.cpp:399] pool3/3x3_s2_pool3/3x3_s2_0_split -> pool3/3x3_s2_pool3/3x3_s2_0_split_3
I0403 15:30:34.217263 19761 net.cpp:141] Setting up pool3/3x3_s2_pool3/3x3_s2_0_split
I0403 15:30:34.217286 19761 net.cpp:148] Top shape: 24 480 14 14 (2257920)
I0403 15:30:34.217301 19761 net.cpp:148] Top shape: 24 480 14 14 (2257920)
I0403 15:30:34.217316 19761 net.cpp:148] Top shape: 24 480 14 14 (2257920)
I0403 15:30:34.217331 19761 net.cpp:148] Top shape: 24 480 14 14 (2257920)
I0403 15:30:34.217345 19761 net.cpp:156] Memory required for data: 854397984
I0403 15:30:34.217358 19761 layer_factory.hpp:77] Creating layer inception_4a/1x1
I0403 15:30:34.217381 19761 net.cpp:91] Creating Layer inception_4a/1x1
I0403 15:30:34.217397 19761 net.cpp:425] inception_4a/1x1 <- pool3/3x3_s2_pool3/3x3_s2_0_split_0
I0403 15:30:34.217418 19761 net.cpp:399] inception_4a/1x1 -> inception_4a/1x1
I0403 15:30:34.218988 19761 net.cpp:141] Setting up inception_4a/1x1
I0403 15:30:34.219018 19761 net.cpp:148] Top shape: 24 192 14 14 (903168)
I0403 15:30:34.219035 19761 net.cpp:156] Memory required for data: 858010656
I0403 15:30:34.219054 19761 layer_factory.hpp:77] Creating layer inception_4a/relu_1x1
I0403 15:30:34.219075 19761 net.cpp:91] Creating Layer inception_4a/relu_1x1
I0403 15:30:34.219094 19761 net.cpp:425] inception_4a/relu_1x1 <- inception_4a/1x1
I0403 15:30:34.219110 19761 net.cpp:386] inception_4a/relu_1x1 -> inception_4a/1x1 (in-place)
I0403 15:30:34.219288 19761 net.cpp:141] Setting up inception_4a/relu_1x1
I0403 15:30:34.219312 19761 net.cpp:148] Top shape: 24 192 14 14 (903168)
I0403 15:30:34.219326 19761 net.cpp:156] Memory required for data: 861623328
I0403 15:30:34.219341 19761 layer_factory.hpp:77] Creating layer inception_4a/3x3_reduce
I0403 15:30:34.219362 19761 net.cpp:91] Creating Layer inception_4a/3x3_reduce
I0403 15:30:34.219379 19761 net.cpp:425] inception_4a/3x3_reduce <- pool3/3x3_s2_pool3/3x3_s2_0_split_1
I0403 15:30:34.219399 19761 net.cpp:399] inception_4a/3x3_reduce -> inception_4a/3x3_reduce
I0403 15:30:34.220664 19761 net.cpp:141] Setting up inception_4a/3x3_reduce
I0403 15:30:34.220695 19761 net.cpp:148] Top shape: 24 96 14 14 (451584)
I0403 15:30:34.220710 19761 net.cpp:156] Memory required for data: 863429664
I0403 15:30:34.220731 19761 layer_factory.hpp:77] Creating layer inception_4a/relu_3x3_reduce
I0403 15:30:34.220752 19761 net.cpp:91] Creating Layer inception_4a/relu_3x3_reduce
I0403 15:30:34.220769 19761 net.cpp:425] inception_4a/relu_3x3_reduce <- inception_4a/3x3_reduce
I0403 15:30:34.220787 19761 net.cpp:386] inception_4a/relu_3x3_reduce -> inception_4a/3x3_reduce (in-place)
I0403 15:30:34.220965 19761 net.cpp:141] Setting up inception_4a/relu_3x3_reduce
I0403 15:30:34.220993 19761 net.cpp:148] Top shape: 24 96 14 14 (451584)
I0403 15:30:34.221009 19761 net.cpp:156] Memory required for data: 865236000
I0403 15:30:34.221024 19761 layer_factory.hpp:77] Creating layer inception_4a/3x3
I0403 15:30:34.221047 19761 net.cpp:91] Creating Layer inception_4a/3x3
I0403 15:30:34.221065 19761 net.cpp:425] inception_4a/3x3 <- inception_4a/3x3_reduce
I0403 15:30:34.221086 19761 net.cpp:399] inception_4a/3x3 -> inception_4a/3x3
I0403 15:30:34.223906 19761 net.cpp:141] Setting up inception_4a/3x3
I0403 15:30:34.223937 19761 net.cpp:148] Top shape: 24 208 14 14 (978432)
I0403 15:30:34.223958 19761 net.cpp:156] Memory required for data: 869149728
I0403 15:30:34.223978 19761 layer_factory.hpp:77] Creating layer inception_4a/relu_3x3
I0403 15:30:34.223996 19761 net.cpp:91] Creating Layer inception_4a/relu_3x3
I0403 15:30:34.224011 19761 net.cpp:425] inception_4a/relu_3x3 <- inception_4a/3x3
I0403 15:30:34.224031 19761 net.cpp:386] inception_4a/relu_3x3 -> inception_4a/3x3 (in-place)
I0403 15:30:34.224320 19761 net.cpp:141] Setting up inception_4a/relu_3x3
I0403 15:30:34.224354 19761 net.cpp:148] Top shape: 24 208 14 14 (978432)
I0403 15:30:34.224370 19761 net.cpp:156] Memory required for data: 873063456
I0403 15:30:34.224385 19761 layer_factory.hpp:77] Creating layer inception_4a/5x5_reduce
I0403 15:30:34.224408 19761 net.cpp:91] Creating Layer inception_4a/5x5_reduce
I0403 15:30:34.224428 19761 net.cpp:425] inception_4a/5x5_reduce <- pool3/3x3_s2_pool3/3x3_s2_0_split_2
I0403 15:30:34.224447 19761 net.cpp:399] inception_4a/5x5_reduce -> inception_4a/5x5_reduce
I0403 15:30:34.225458 19761 net.cpp:141] Setting up inception_4a/5x5_reduce
I0403 15:30:34.225486 19761 net.cpp:148] Top shape: 24 16 14 14 (75264)
I0403 15:30:34.225499 19761 net.cpp:156] Memory required for data: 873364512
I0403 15:30:34.225519 19761 layer_factory.hpp:77] Creating layer inception_4a/relu_5x5_reduce
I0403 15:30:34.225536 19761 net.cpp:91] Creating Layer inception_4a/relu_5x5_reduce
I0403 15:30:34.225555 19761 net.cpp:425] inception_4a/relu_5x5_reduce <- inception_4a/5x5_reduce
I0403 15:30:34.225572 19761 net.cpp:386] inception_4a/relu_5x5_reduce -> inception_4a/5x5_reduce (in-place)
I0403 15:30:34.225745 19761 net.cpp:141] Setting up inception_4a/relu_5x5_reduce
I0403 15:30:34.225769 19761 net.cpp:148] Top shape: 24 16 14 14 (75264)
I0403 15:30:34.225783 19761 net.cpp:156] Memory required for data: 873665568
I0403 15:30:34.225797 19761 layer_factory.hpp:77] Creating layer inception_4a/5x5
I0403 15:30:34.225817 19761 net.cpp:91] Creating Layer inception_4a/5x5
I0403 15:30:34.225834 19761 net.cpp:425] inception_4a/5x5 <- inception_4a/5x5_reduce
I0403 15:30:34.225853 19761 net.cpp:399] inception_4a/5x5 -> inception_4a/5x5
I0403 15:30:34.226913 19761 net.cpp:141] Setting up inception_4a/5x5
I0403 15:30:34.226939 19761 net.cpp:148] Top shape: 24 48 14 14 (225792)
I0403 15:30:34.226958 19761 net.cpp:156] Memory required for data: 874568736
I0403 15:30:34.226975 19761 layer_factory.hpp:77] Creating layer inception_4a/relu_5x5
I0403 15:30:34.226995 19761 net.cpp:91] Creating Layer inception_4a/relu_5x5
I0403 15:30:34.227011 19761 net.cpp:425] inception_4a/relu_5x5 <- inception_4a/5x5
I0403 15:30:34.227030 19761 net.cpp:386] inception_4a/relu_5x5 -> inception_4a/5x5 (in-place)
I0403 15:30:34.227201 19761 net.cpp:141] Setting up inception_4a/relu_5x5
I0403 15:30:34.227228 19761 net.cpp:148] Top shape: 24 48 14 14 (225792)
I0403 15:30:34.227243 19761 net.cpp:156] Memory required for data: 875471904
I0403 15:30:34.227257 19761 layer_factory.hpp:77] Creating layer inception_4a/pool
I0403 15:30:34.227273 19761 net.cpp:91] Creating Layer inception_4a/pool
I0403 15:30:34.227288 19761 net.cpp:425] inception_4a/pool <- pool3/3x3_s2_pool3/3x3_s2_0_split_3
I0403 15:30:34.227308 19761 net.cpp:399] inception_4a/pool -> inception_4a/pool
I0403 15:30:34.227366 19761 net.cpp:141] Setting up inception_4a/pool
I0403 15:30:34.227388 19761 net.cpp:148] Top shape: 24 480 14 14 (2257920)
I0403 15:30:34.227402 19761 net.cpp:156] Memory required for data: 884503584
I0403 15:30:34.227416 19761 layer_factory.hpp:77] Creating layer inception_4a/pool_proj
I0403 15:30:34.227439 19761 net.cpp:91] Creating Layer inception_4a/pool_proj
I0403 15:30:34.227455 19761 net.cpp:425] inception_4a/pool_proj <- inception_4a/pool
I0403 15:30:34.227475 19761 net.cpp:399] inception_4a/pool_proj -> inception_4a/pool_proj
I0403 15:30:34.228603 19761 net.cpp:141] Setting up inception_4a/pool_proj
I0403 15:30:34.228636 19761 net.cpp:148] Top shape: 24 64 14 14 (301056)
I0403 15:30:34.228667 19761 net.cpp:156] Memory required for data: 885707808
I0403 15:30:34.228688 19761 layer_factory.hpp:77] Creating layer inception_4a/relu_pool_proj
I0403 15:30:34.228704 19761 net.cpp:91] Creating Layer inception_4a/relu_pool_proj
I0403 15:30:34.228720 19761 net.cpp:425] inception_4a/relu_pool_proj <- inception_4a/pool_proj
I0403 15:30:34.228736 19761 net.cpp:386] inception_4a/relu_pool_proj -> inception_4a/pool_proj (in-place)
I0403 15:30:34.229045 19761 net.cpp:141] Setting up inception_4a/relu_pool_proj
I0403 15:30:34.229074 19761 net.cpp:148] Top shape: 24 64 14 14 (301056)
I0403 15:30:34.229091 19761 net.cpp:156] Memory required for data: 886912032
I0403 15:30:34.229106 19761 layer_factory.hpp:77] Creating layer inception_4a/output
I0403 15:30:34.229123 19761 net.cpp:91] Creating Layer inception_4a/output
I0403 15:30:34.229138 19761 net.cpp:425] inception_4a/output <- inception_4a/1x1
I0403 15:30:34.229156 19761 net.cpp:425] inception_4a/output <- inception_4a/3x3
I0403 15:30:34.229171 19761 net.cpp:425] inception_4a/output <- inception_4a/5x5
I0403 15:30:34.229187 19761 net.cpp:425] inception_4a/output <- inception_4a/pool_proj
I0403 15:30:34.229202 19761 net.cpp:399] inception_4a/output -> inception_4a/output
I0403 15:30:34.229249 19761 net.cpp:141] Setting up inception_4a/output
I0403 15:30:34.229272 19761 net.cpp:148] Top shape: 24 512 14 14 (2408448)
I0403 15:30:34.229286 19761 net.cpp:156] Memory required for data: 896545824
I0403 15:30:34.229301 19761 layer_factory.hpp:77] Creating layer inception_4a/output_inception_4a/output_0_split
I0403 15:30:34.229331 19761 net.cpp:91] Creating Layer inception_4a/output_inception_4a/output_0_split
I0403 15:30:34.229348 19761 net.cpp:425] inception_4a/output_inception_4a/output_0_split <- inception_4a/output
I0403 15:30:34.229365 19761 net.cpp:399] inception_4a/output_inception_4a/output_0_split -> inception_4a/output_inception_4a/output_0_split_0
I0403 15:30:34.229385 19761 net.cpp:399] inception_4a/output_inception_4a/output_0_split -> inception_4a/output_inception_4a/output_0_split_1
I0403 15:30:34.229404 19761 net.cpp:399] inception_4a/output_inception_4a/output_0_split -> inception_4a/output_inception_4a/output_0_split_2
I0403 15:30:34.229423 19761 net.cpp:399] inception_4a/output_inception_4a/output_0_split -> inception_4a/output_inception_4a/output_0_split_3
I0403 15:30:34.229442 19761 net.cpp:399] inception_4a/output_inception_4a/output_0_split -> inception_4a/output_inception_4a/output_0_split_4
I0403 15:30:34.229535 19761 net.cpp:141] Setting up inception_4a/output_inception_4a/output_0_split
I0403 15:30:34.229557 19761 net.cpp:148] Top shape: 24 512 14 14 (2408448)
I0403 15:30:34.229573 19761 net.cpp:148] Top shape: 24 512 14 14 (2408448)
I0403 15:30:34.229588 19761 net.cpp:148] Top shape: 24 512 14 14 (2408448)
I0403 15:30:34.229604 19761 net.cpp:148] Top shape: 24 512 14 14 (2408448)
I0403 15:30:34.229619 19761 net.cpp:148] Top shape: 24 512 14 14 (2408448)
I0403 15:30:34.229631 19761 net.cpp:156] Memory required for data: 944714784
I0403 15:30:34.229645 19761 layer_factory.hpp:77] Creating layer loss1/ave_pool
I0403 15:30:34.229662 19761 net.cpp:91] Creating Layer loss1/ave_pool
I0403 15:30:34.229677 19761 net.cpp:425] loss1/ave_pool <- inception_4a/output_inception_4a/output_0_split_0
I0403 15:30:34.229696 19761 net.cpp:399] loss1/ave_pool -> loss1/ave_pool
I0403 15:30:34.229902 19761 net.cpp:141] Setting up loss1/ave_pool
I0403 15:30:34.229929 19761 net.cpp:148] Top shape: 24 512 4 4 (196608)
I0403 15:30:34.229944 19761 net.cpp:156] Memory required for data: 945501216
I0403 15:30:34.229964 19761 layer_factory.hpp:77] Creating layer loss1/conv
I0403 15:30:34.229984 19761 net.cpp:91] Creating Layer loss1/conv
I0403 15:30:34.230000 19761 net.cpp:425] loss1/conv <- loss1/ave_pool
I0403 15:30:34.230020 19761 net.cpp:399] loss1/conv -> loss1/conv
I0403 15:30:34.231423 19761 net.cpp:141] Setting up loss1/conv
I0403 15:30:34.231454 19761 net.cpp:148] Top shape: 24 128 4 4 (49152)
I0403 15:30:34.231483 19761 net.cpp:156] Memory required for data: 945697824
I0403 15:30:34.231503 19761 layer_factory.hpp:77] Creating layer loss1/relu_conv
I0403 15:30:34.231519 19761 net.cpp:91] Creating Layer loss1/relu_conv
I0403 15:30:34.231534 19761 net.cpp:425] loss1/relu_conv <- loss1/conv
I0403 15:30:34.231554 19761 net.cpp:386] loss1/relu_conv -> loss1/conv (in-place)
I0403 15:30:34.231832 19761 net.cpp:141] Setting up loss1/relu_conv
I0403 15:30:34.231859 19761 net.cpp:148] Top shape: 24 128 4 4 (49152)
I0403 15:30:34.231874 19761 net.cpp:156] Memory required for data: 945894432
I0403 15:30:34.231889 19761 layer_factory.hpp:77] Creating layer loss1/fc
I0403 15:30:34.231914 19761 net.cpp:91] Creating Layer loss1/fc
I0403 15:30:34.231930 19761 net.cpp:425] loss1/fc <- loss1/conv
I0403 15:30:34.231951 19761 net.cpp:399] loss1/fc -> loss1/fc
I0403 15:30:34.249805 19761 net.cpp:141] Setting up loss1/fc
I0403 15:30:34.249856 19761 net.cpp:148] Top shape: 24 1024 (24576)
I0403 15:30:34.249871 19761 net.cpp:156] Memory required for data: 945992736
I0403 15:30:34.249891 19761 layer_factory.hpp:77] Creating layer loss1/relu_fc
I0403 15:30:34.249910 19761 net.cpp:91] Creating Layer loss1/relu_fc
I0403 15:30:34.249927 19761 net.cpp:425] loss1/relu_fc <- loss1/fc
I0403 15:30:34.249943 19761 net.cpp:386] loss1/relu_fc -> loss1/fc (in-place)
I0403 15:30:34.250149 19761 net.cpp:141] Setting up loss1/relu_fc
I0403 15:30:34.250171 19761 net.cpp:148] Top shape: 24 1024 (24576)
I0403 15:30:34.250185 19761 net.cpp:156] Memory required for data: 946091040
I0403 15:30:34.250200 19761 layer_factory.hpp:77] Creating layer loss1/drop_fc
I0403 15:30:34.250229 19761 net.cpp:91] Creating Layer loss1/drop_fc
I0403 15:30:34.250246 19761 net.cpp:425] loss1/drop_fc <- loss1/fc
I0403 15:30:34.250264 19761 net.cpp:386] loss1/drop_fc -> loss1/fc (in-place)
I0403 15:30:34.250316 19761 net.cpp:141] Setting up loss1/drop_fc
I0403 15:30:34.250339 19761 net.cpp:148] Top shape: 24 1024 (24576)
I0403 15:30:34.250355 19761 net.cpp:156] Memory required for data: 946189344
I0403 15:30:34.250370 19761 layer_factory.hpp:77] Creating layer loss1/classifier_plantvillage
I0403 15:30:34.250392 19761 net.cpp:91] Creating Layer loss1/classifier_plantvillage
I0403 15:30:34.250411 19761 net.cpp:425] loss1/classifier_plantvillage <- loss1/fc
I0403 15:30:34.250428 19761 net.cpp:399] loss1/classifier_plantvillage -> loss1/classifier_plantvillage
I0403 15:30:34.251344 19761 net.cpp:141] Setting up loss1/classifier_plantvillage
I0403 15:30:34.251374 19761 net.cpp:148] Top shape: 24 38 (912)
I0403 15:30:34.251391 19761 net.cpp:156] Memory required for data: 946192992
I0403 15:30:34.251411 19761 layer_factory.hpp:77] Creating layer loss1/classifier_plantvillage_loss1/classifier_plantvillage_0_split
I0403 15:30:34.251430 19761 net.cpp:91] Creating Layer loss1/classifier_plantvillage_loss1/classifier_plantvillage_0_split
I0403 15:30:34.251446 19761 net.cpp:425] loss1/classifier_plantvillage_loss1/classifier_plantvillage_0_split <- loss1/classifier_plantvillage
I0403 15:30:34.251466 19761 net.cpp:399] loss1/classifier_plantvillage_loss1/classifier_plantvillage_0_split -> loss1/classifier_plantvillage_loss1/classifier_plantvillage_0_split_0
I0403 15:30:34.251485 19761 net.cpp:399] loss1/classifier_plantvillage_loss1/classifier_plantvillage_0_split -> loss1/classifier_plantvillage_loss1/classifier_plantvillage_0_split_1
I0403 15:30:34.251504 19761 net.cpp:399] loss1/classifier_plantvillage_loss1/classifier_plantvillage_0_split -> loss1/classifier_plantvillage_loss1/classifier_plantvillage_0_split_2
I0403 15:30:34.251569 19761 net.cpp:141] Setting up loss1/classifier_plantvillage_loss1/classifier_plantvillage_0_split
I0403 15:30:34.251591 19761 net.cpp:148] Top shape: 24 38 (912)
I0403 15:30:34.251605 19761 net.cpp:148] Top shape: 24 38 (912)
I0403 15:30:34.251621 19761 net.cpp:148] Top shape: 24 38 (912)
I0403 15:30:34.251632 19761 net.cpp:156] Memory required for data: 946203936
I0403 15:30:34.251646 19761 layer_factory.hpp:77] Creating layer inception_4b/1x1
I0403 15:30:34.251668 19761 net.cpp:91] Creating Layer inception_4b/1x1
I0403 15:30:34.251700 19761 net.cpp:425] inception_4b/1x1 <- inception_4a/output_inception_4a/output_0_split_1
I0403 15:30:34.251720 19761 net.cpp:399] inception_4b/1x1 -> inception_4b/1x1
I0403 15:30:34.253347 19761 net.cpp:141] Setting up inception_4b/1x1
I0403 15:30:34.253376 19761 net.cpp:148] Top shape: 24 160 14 14 (752640)
I0403 15:30:34.253391 19761 net.cpp:156] Memory required for data: 949214496
I0403 15:30:34.253408 19761 layer_factory.hpp:77] Creating layer inception_4b/relu_1x1
I0403 15:30:34.253425 19761 net.cpp:91] Creating Layer inception_4b/relu_1x1
I0403 15:30:34.253440 19761 net.cpp:425] inception_4b/relu_1x1 <- inception_4b/1x1
I0403 15:30:34.253460 19761 net.cpp:386] inception_4b/relu_1x1 -> inception_4b/1x1 (in-place)
I0403 15:30:34.253705 19761 net.cpp:141] Setting up inception_4b/relu_1x1
I0403 15:30:34.253729 19761 net.cpp:148] Top shape: 24 160 14 14 (752640)
I0403 15:30:34.253743 19761 net.cpp:156] Memory required for data: 952225056
I0403 15:30:34.253757 19761 layer_factory.hpp:77] Creating layer inception_4b/3x3_reduce
I0403 15:30:34.253780 19761 net.cpp:91] Creating Layer inception_4b/3x3_reduce
I0403 15:30:34.253798 19761 net.cpp:425] inception_4b/3x3_reduce <- inception_4a/output_inception_4a/output_0_split_2
I0403 15:30:34.253818 19761 net.cpp:399] inception_4b/3x3_reduce -> inception_4b/3x3_reduce
I0403 15:30:34.255146 19761 net.cpp:141] Setting up inception_4b/3x3_reduce
I0403 15:30:34.255172 19761 net.cpp:148] Top shape: 24 112 14 14 (526848)
I0403 15:30:34.255187 19761 net.cpp:156] Memory required for data: 954332448
I0403 15:30:34.255204 19761 layer_factory.hpp:77] Creating layer inception_4b/relu_3x3_reduce
I0403 15:30:34.255224 19761 net.cpp:91] Creating Layer inception_4b/relu_3x3_reduce
I0403 15:30:34.255239 19761 net.cpp:425] inception_4b/relu_3x3_reduce <- inception_4b/3x3_reduce
I0403 15:30:34.255256 19761 net.cpp:386] inception_4b/relu_3x3_reduce -> inception_4b/3x3_reduce (in-place)
I0403 15:30:34.255538 19761 net.cpp:141] Setting up inception_4b/relu_3x3_reduce
I0403 15:30:34.255563 19761 net.cpp:148] Top shape: 24 112 14 14 (526848)
I0403 15:30:34.255578 19761 net.cpp:156] Memory required for data: 956439840
I0403 15:30:34.255590 19761 layer_factory.hpp:77] Creating layer inception_4b/3x3
I0403 15:30:34.255611 19761 net.cpp:91] Creating Layer inception_4b/3x3
I0403 15:30:34.255628 19761 net.cpp:425] inception_4b/3x3 <- inception_4b/3x3_reduce
I0403 15:30:34.255648 19761 net.cpp:399] inception_4b/3x3 -> inception_4b/3x3
I0403 15:30:34.258548 19761 net.cpp:141] Setting up inception_4b/3x3
I0403 15:30:34.258576 19761 net.cpp:148] Top shape: 24 224 14 14 (1053696)
I0403 15:30:34.258591 19761 net.cpp:156] Memory required for data: 960654624
I0403 15:30:34.258611 19761 layer_factory.hpp:77] Creating layer inception_4b/relu_3x3
I0403 15:30:34.258628 19761 net.cpp:91] Creating Layer inception_4b/relu_3x3
I0403 15:30:34.258643 19761 net.cpp:425] inception_4b/relu_3x3 <- inception_4b/3x3
I0403 15:30:34.258661 19761 net.cpp:386] inception_4b/relu_3x3 -> inception_4b/3x3 (in-place)
I0403 15:30:34.258838 19761 net.cpp:141] Setting up inception_4b/relu_3x3
I0403 15:30:34.258862 19761 net.cpp:148] Top shape: 24 224 14 14 (1053696)
I0403 15:30:34.258875 19761 net.cpp:156] Memory required for data: 964869408
I0403 15:30:34.258889 19761 layer_factory.hpp:77] Creating layer inception_4b/5x5_reduce
I0403 15:30:34.258913 19761 net.cpp:91] Creating Layer inception_4b/5x5_reduce
I0403 15:30:34.258931 19761 net.cpp:425] inception_4b/5x5_reduce <- inception_4a/output_inception_4a/output_0_split_3
I0403 15:30:34.258952 19761 net.cpp:399] inception_4b/5x5_reduce -> inception_4b/5x5_reduce
I0403 15:30:34.260021 19761 net.cpp:141] Setting up inception_4b/5x5_reduce
I0403 15:30:34.260047 19761 net.cpp:148] Top shape: 24 24 14 14 (112896)
I0403 15:30:34.260062 19761 net.cpp:156] Memory required for data: 965320992
I0403 15:30:34.260079 19761 layer_factory.hpp:77] Creating layer inception_4b/relu_5x5_reduce
I0403 15:30:34.260097 19761 net.cpp:91] Creating Layer inception_4b/relu_5x5_reduce
I0403 15:30:34.260126 19761 net.cpp:425] inception_4b/relu_5x5_reduce <- inception_4b/5x5_reduce
I0403 15:30:34.260145 19761 net.cpp:386] inception_4b/relu_5x5_reduce -> inception_4b/5x5_reduce (in-place)
I0403 15:30:34.260335 19761 net.cpp:141] Setting up inception_4b/relu_5x5_reduce
I0403 15:30:34.260360 19761 net.cpp:148] Top shape: 24 24 14 14 (112896)
I0403 15:30:34.260376 19761 net.cpp:156] Memory required for data: 965772576
I0403 15:30:34.260393 19761 layer_factory.hpp:77] Creating layer inception_4b/5x5
I0403 15:30:34.260427 19761 net.cpp:91] Creating Layer inception_4b/5x5
I0403 15:30:34.260457 19761 net.cpp:425] inception_4b/5x5 <- inception_4b/5x5_reduce
I0403 15:30:34.260483 19761 net.cpp:399] inception_4b/5x5 -> inception_4b/5x5
I0403 15:30:34.261888 19761 net.cpp:141] Setting up inception_4b/5x5
I0403 15:30:34.261917 19761 net.cpp:148] Top shape: 24 64 14 14 (301056)
I0403 15:30:34.261934 19761 net.cpp:156] Memory required for data: 966976800
I0403 15:30:34.261952 19761 layer_factory.hpp:77] Creating layer inception_4b/relu_5x5
I0403 15:30:34.261989 19761 net.cpp:91] Creating Layer inception_4b/relu_5x5
I0403 15:30:34.262006 19761 net.cpp:425] inception_4b/relu_5x5 <- inception_4b/5x5
I0403 15:30:34.262024 19761 net.cpp:386] inception_4b/relu_5x5 -> inception_4b/5x5 (in-place)
I0403 15:30:34.262363 19761 net.cpp:141] Setting up inception_4b/relu_5x5
I0403 15:30:34.262392 19761 net.cpp:148] Top shape: 24 64 14 14 (301056)
I0403 15:30:34.262408 19761 net.cpp:156] Memory required for data: 968181024
I0403 15:30:34.262423 19761 layer_factory.hpp:77] Creating layer inception_4b/pool
I0403 15:30:34.262441 19761 net.cpp:91] Creating Layer inception_4b/pool
I0403 15:30:34.262459 19761 net.cpp:425] inception_4b/pool <- inception_4a/output_inception_4a/output_0_split_4
I0403 15:30:34.262480 19761 net.cpp:399] inception_4b/pool -> inception_4b/pool
I0403 15:30:34.262547 19761 net.cpp:141] Setting up inception_4b/pool
I0403 15:30:34.262578 19761 net.cpp:148] Top shape: 24 512 14 14 (2408448)
I0403 15:30:34.262593 19761 net.cpp:156] Memory required for data: 977814816
I0403 15:30:34.262621 19761 layer_factory.hpp:77] Creating layer inception_4b/pool_proj
I0403 15:30:34.262655 19761 net.cpp:91] Creating Layer inception_4b/pool_proj
I0403 15:30:34.262676 19761 net.cpp:425] inception_4b/pool_proj <- inception_4b/pool
I0403 15:30:34.262711 19761 net.cpp:399] inception_4b/pool_proj -> inception_4b/pool_proj
I0403 15:30:34.263964 19761 net.cpp:141] Setting up inception_4b/pool_proj
I0403 15:30:34.263993 19761 net.cpp:148] Top shape: 24 64 14 14 (301056)
I0403 15:30:34.264008 19761 net.cpp:156] Memory required for data: 979019040
I0403 15:30:34.264025 19761 layer_factory.hpp:77] Creating layer inception_4b/relu_pool_proj
I0403 15:30:34.264045 19761 net.cpp:91] Creating Layer inception_4b/relu_pool_proj
I0403 15:30:34.264061 19761 net.cpp:425] inception_4b/relu_pool_proj <- inception_4b/pool_proj
I0403 15:30:34.264078 19761 net.cpp:386] inception_4b/relu_pool_proj -> inception_4b/pool_proj (in-place)
I0403 15:30:34.264257 19761 net.cpp:141] Setting up inception_4b/relu_pool_proj
I0403 15:30:34.264281 19761 net.cpp:148] Top shape: 24 64 14 14 (301056)
I0403 15:30:34.264295 19761 net.cpp:156] Memory required for data: 980223264
I0403 15:30:34.264309 19761 layer_factory.hpp:77] Creating layer inception_4b/output
I0403 15:30:34.264328 19761 net.cpp:91] Creating Layer inception_4b/output
I0403 15:30:34.264344 19761 net.cpp:425] inception_4b/output <- inception_4b/1x1
I0403 15:30:34.264360 19761 net.cpp:425] inception_4b/output <- inception_4b/3x3
I0403 15:30:34.264375 19761 net.cpp:425] inception_4b/output <- inception_4b/5x5
I0403 15:30:34.264390 19761 net.cpp:425] inception_4b/output <- inception_4b/pool_proj
I0403 15:30:34.264407 19761 net.cpp:399] inception_4b/output -> inception_4b/output
I0403 15:30:34.264454 19761 net.cpp:141] Setting up inception_4b/output
I0403 15:30:34.264477 19761 net.cpp:148] Top shape: 24 512 14 14 (2408448)
I0403 15:30:34.264492 19761 net.cpp:156] Memory required for data: 989857056
I0403 15:30:34.264518 19761 layer_factory.hpp:77] Creating layer inception_4b/output_inception_4b/output_0_split
I0403 15:30:34.264536 19761 net.cpp:91] Creating Layer inception_4b/output_inception_4b/output_0_split
I0403 15:30:34.264551 19761 net.cpp:425] inception_4b/output_inception_4b/output_0_split <- inception_4b/output
I0403 15:30:34.264571 19761 net.cpp:399] inception_4b/output_inception_4b/output_0_split -> inception_4b/output_inception_4b/output_0_split_0
I0403 15:30:34.264592 19761 net.cpp:399] inception_4b/output_inception_4b/output_0_split -> inception_4b/output_inception_4b/output_0_split_1
I0403 15:30:34.264612 19761 net.cpp:399] inception_4b/output_inception_4b/output_0_split -> inception_4b/output_inception_4b/output_0_split_2
I0403 15:30:34.264631 19761 net.cpp:399] inception_4b/output_inception_4b/output_0_split -> inception_4b/output_inception_4b/output_0_split_3
I0403 15:30:34.264715 19761 net.cpp:141] Setting up inception_4b/output_inception_4b/output_0_split
I0403 15:30:34.264740 19761 net.cpp:148] Top shape: 24 512 14 14 (2408448)
I0403 15:30:34.264756 19761 net.cpp:148] Top shape: 24 512 14 14 (2408448)
I0403 15:30:34.264772 19761 net.cpp:148] Top shape: 24 512 14 14 (2408448)
I0403 15:30:34.264787 19761 net.cpp:148] Top shape: 24 512 14 14 (2408448)
I0403 15:30:34.264801 19761 net.cpp:156] Memory required for data: 1028392224
I0403 15:30:34.264814 19761 layer_factory.hpp:77] Creating layer inception_4c/1x1
I0403 15:30:34.264835 19761 net.cpp:91] Creating Layer inception_4c/1x1
I0403 15:30:34.264853 19761 net.cpp:425] inception_4c/1x1 <- inception_4b/output_inception_4b/output_0_split_0
I0403 15:30:34.264871 19761 net.cpp:399] inception_4c/1x1 -> inception_4c/1x1
I0403 15:30:34.266310 19761 net.cpp:141] Setting up inception_4c/1x1
I0403 15:30:34.266338 19761 net.cpp:148] Top shape: 24 128 14 14 (602112)
I0403 15:30:34.266353 19761 net.cpp:156] Memory required for data: 1030800672
I0403 15:30:34.266371 19761 layer_factory.hpp:77] Creating layer inception_4c/relu_1x1
I0403 15:30:34.266392 19761 net.cpp:91] Creating Layer inception_4c/relu_1x1
I0403 15:30:34.266410 19761 net.cpp:425] inception_4c/relu_1x1 <- inception_4c/1x1
I0403 15:30:34.266427 19761 net.cpp:386] inception_4c/relu_1x1 -> inception_4c/1x1 (in-place)
I0403 15:30:34.266612 19761 net.cpp:141] Setting up inception_4c/relu_1x1
I0403 15:30:34.266638 19761 net.cpp:148] Top shape: 24 128 14 14 (602112)
I0403 15:30:34.266651 19761 net.cpp:156] Memory required for data: 1033209120
I0403 15:30:34.266665 19761 layer_factory.hpp:77] Creating layer inception_4c/3x3_reduce
I0403 15:30:34.266687 19761 net.cpp:91] Creating Layer inception_4c/3x3_reduce
I0403 15:30:34.266705 19761 net.cpp:425] inception_4c/3x3_reduce <- inception_4b/output_inception_4b/output_0_split_1
I0403 15:30:34.266726 19761 net.cpp:399] inception_4c/3x3_reduce -> inception_4c/3x3_reduce
I0403 15:30:34.268744 19761 net.cpp:141] Setting up inception_4c/3x3_reduce
I0403 15:30:34.268774 19761 net.cpp:148] Top shape: 24 128 14 14 (602112)
I0403 15:30:34.268790 19761 net.cpp:156] Memory required for data: 1035617568
I0403 15:30:34.268810 19761 layer_factory.hpp:77] Creating layer inception_4c/relu_3x3_reduce
I0403 15:30:34.268827 19761 net.cpp:91] Creating Layer inception_4c/relu_3x3_reduce
I0403 15:30:34.268843 19761 net.cpp:425] inception_4c/relu_3x3_reduce <- inception_4c/3x3_reduce
I0403 15:30:34.268863 19761 net.cpp:386] inception_4c/relu_3x3_reduce -> inception_4c/3x3_reduce (in-place)
I0403 15:30:34.269168 19761 net.cpp:141] Setting up inception_4c/relu_3x3_reduce
I0403 15:30:34.269196 19761 net.cpp:148] Top shape: 24 128 14 14 (602112)
I0403 15:30:34.269210 19761 net.cpp:156] Memory required for data: 1038026016
I0403 15:30:34.269225 19761 layer_factory.hpp:77] Creating layer inception_4c/3x3
I0403 15:30:34.269253 19761 net.cpp:91] Creating Layer inception_4c/3x3
I0403 15:30:34.269270 19761 net.cpp:425] inception_4c/3x3 <- inception_4c/3x3_reduce
I0403 15:30:34.269291 19761 net.cpp:399] inception_4c/3x3 -> inception_4c/3x3
I0403 15:30:34.273035 19761 net.cpp:141] Setting up inception_4c/3x3
I0403 15:30:34.273077 19761 net.cpp:148] Top shape: 24 256 14 14 (1204224)
I0403 15:30:34.273093 19761 net.cpp:156] Memory required for data: 1042842912
I0403 15:30:34.273126 19761 layer_factory.hpp:77] Creating layer inception_4c/relu_3x3
I0403 15:30:34.273149 19761 net.cpp:91] Creating Layer inception_4c/relu_3x3
I0403 15:30:34.273166 19761 net.cpp:425] inception_4c/relu_3x3 <- inception_4c/3x3
I0403 15:30:34.273183 19761 net.cpp:386] inception_4c/relu_3x3 -> inception_4c/3x3 (in-place)
I0403 15:30:34.273371 19761 net.cpp:141] Setting up inception_4c/relu_3x3
I0403 15:30:34.273397 19761 net.cpp:148] Top shape: 24 256 14 14 (1204224)
I0403 15:30:34.273412 19761 net.cpp:156] Memory required for data: 1047659808
I0403 15:30:34.273427 19761 layer_factory.hpp:77] Creating layer inception_4c/5x5_reduce
I0403 15:30:34.273450 19761 net.cpp:91] Creating Layer inception_4c/5x5_reduce
I0403 15:30:34.273468 19761 net.cpp:425] inception_4c/5x5_reduce <- inception_4b/output_inception_4b/output_0_split_2
I0403 15:30:34.273489 19761 net.cpp:399] inception_4c/5x5_reduce -> inception_4c/5x5_reduce
I0403 15:30:34.274610 19761 net.cpp:141] Setting up inception_4c/5x5_reduce
I0403 15:30:34.274639 19761 net.cpp:148] Top shape: 24 24 14 14 (112896)
I0403 15:30:34.274654 19761 net.cpp:156] Memory required for data: 1048111392
I0403 15:30:34.274672 19761 layer_factory.hpp:77] Creating layer inception_4c/relu_5x5_reduce
I0403 15:30:34.274690 19761 net.cpp:91] Creating Layer inception_4c/relu_5x5_reduce
I0403 15:30:34.274706 19761 net.cpp:425] inception_4c/relu_5x5_reduce <- inception_4c/5x5_reduce
I0403 15:30:34.274726 19761 net.cpp:386] inception_4c/relu_5x5_reduce -> inception_4c/5x5_reduce (in-place)
I0403 15:30:34.274933 19761 net.cpp:141] Setting up inception_4c/relu_5x5_reduce
I0403 15:30:34.274965 19761 net.cpp:148] Top shape: 24 24 14 14 (112896)
I0403 15:30:34.274981 19761 net.cpp:156] Memory required for data: 1048562976
I0403 15:30:34.274996 19761 layer_factory.hpp:77] Creating layer inception_4c/5x5
I0403 15:30:34.275019 19761 net.cpp:91] Creating Layer inception_4c/5x5
I0403 15:30:34.275038 19761 net.cpp:425] inception_4c/5x5 <- inception_4c/5x5_reduce
I0403 15:30:34.275058 19761 net.cpp:399] inception_4c/5x5 -> inception_4c/5x5
I0403 15:30:34.276374 19761 net.cpp:141] Setting up inception_4c/5x5
I0403 15:30:34.276402 19761 net.cpp:148] Top shape: 24 64 14 14 (301056)
I0403 15:30:34.276417 19761 net.cpp:156] Memory required for data: 1049767200
I0403 15:30:34.276434 19761 layer_factory.hpp:77] Creating layer inception_4c/relu_5x5
I0403 15:30:34.276454 19761 net.cpp:91] Creating Layer inception_4c/relu_5x5
I0403 15:30:34.276470 19761 net.cpp:425] inception_4c/relu_5x5 <- inception_4c/5x5
I0403 15:30:34.276486 19761 net.cpp:386] inception_4c/relu_5x5 -> inception_4c/5x5 (in-place)
I0403 15:30:34.276772 19761 net.cpp:141] Setting up inception_4c/relu_5x5
I0403 15:30:34.276798 19761 net.cpp:148] Top shape: 24 64 14 14 (301056)
I0403 15:30:34.276813 19761 net.cpp:156] Memory required for data: 1050971424
I0403 15:30:34.276826 19761 layer_factory.hpp:77] Creating layer inception_4c/pool
I0403 15:30:34.276846 19761 net.cpp:91] Creating Layer inception_4c/pool
I0403 15:30:34.276862 19761 net.cpp:425] inception_4c/pool <- inception_4b/output_inception_4b/output_0_split_3
I0403 15:30:34.276881 19761 net.cpp:399] inception_4c/pool -> inception_4c/pool
I0403 15:30:34.276947 19761 net.cpp:141] Setting up inception_4c/pool
I0403 15:30:34.276974 19761 net.cpp:148] Top shape: 24 512 14 14 (2408448)
I0403 15:30:34.276989 19761 net.cpp:156] Memory required for data: 1060605216
I0403 15:30:34.277004 19761 layer_factory.hpp:77] Creating layer inception_4c/pool_proj
I0403 15:30:34.277024 19761 net.cpp:91] Creating Layer inception_4c/pool_proj
I0403 15:30:34.277042 19761 net.cpp:425] inception_4c/pool_proj <- inception_4c/pool
I0403 15:30:34.277062 19761 net.cpp:399] inception_4c/pool_proj -> inception_4c/pool_proj
I0403 15:30:34.278296 19761 net.cpp:141] Setting up inception_4c/pool_proj
I0403 15:30:34.278323 19761 net.cpp:148] Top shape: 24 64 14 14 (301056)
I0403 15:30:34.278352 19761 net.cpp:156] Memory required for data: 1061809440
I0403 15:30:34.278372 19761 layer_factory.hpp:77] Creating layer inception_4c/relu_pool_proj
I0403 15:30:34.278391 19761 net.cpp:91] Creating Layer inception_4c/relu_pool_proj
I0403 15:30:34.278409 19761 net.cpp:425] inception_4c/relu_pool_proj <- inception_4c/pool_proj
I0403 15:30:34.278426 19761 net.cpp:386] inception_4c/relu_pool_proj -> inception_4c/pool_proj (in-place)
I0403 15:30:34.278611 19761 net.cpp:141] Setting up inception_4c/relu_pool_proj
I0403 15:30:34.278635 19761 net.cpp:148] Top shape: 24 64 14 14 (301056)
I0403 15:30:34.278650 19761 net.cpp:156] Memory required for data: 1063013664
I0403 15:30:34.278664 19761 layer_factory.hpp:77] Creating layer inception_4c/output
I0403 15:30:34.278683 19761 net.cpp:91] Creating Layer inception_4c/output
I0403 15:30:34.278699 19761 net.cpp:425] inception_4c/output <- inception_4c/1x1
I0403 15:30:34.278715 19761 net.cpp:425] inception_4c/output <- inception_4c/3x3
I0403 15:30:34.278730 19761 net.cpp:425] inception_4c/output <- inception_4c/5x5
I0403 15:30:34.278745 19761 net.cpp:425] inception_4c/output <- inception_4c/pool_proj
I0403 15:30:34.278762 19761 net.cpp:399] inception_4c/output -> inception_4c/output
I0403 15:30:34.278810 19761 net.cpp:141] Setting up inception_4c/output
I0403 15:30:34.278832 19761 net.cpp:148] Top shape: 24 512 14 14 (2408448)
I0403 15:30:34.278846 19761 net.cpp:156] Memory required for data: 1072647456
I0403 15:30:34.278861 19761 layer_factory.hpp:77] Creating layer inception_4c/output_inception_4c/output_0_split
I0403 15:30:34.278878 19761 net.cpp:91] Creating Layer inception_4c/output_inception_4c/output_0_split
I0403 15:30:34.278892 19761 net.cpp:425] inception_4c/output_inception_4c/output_0_split <- inception_4c/output
I0403 15:30:34.278911 19761 net.cpp:399] inception_4c/output_inception_4c/output_0_split -> inception_4c/output_inception_4c/output_0_split_0
I0403 15:30:34.278933 19761 net.cpp:399] inception_4c/output_inception_4c/output_0_split -> inception_4c/output_inception_4c/output_0_split_1
I0403 15:30:34.278952 19761 net.cpp:399] inception_4c/output_inception_4c/output_0_split -> inception_4c/output_inception_4c/output_0_split_2
I0403 15:30:34.278980 19761 net.cpp:399] inception_4c/output_inception_4c/output_0_split -> inception_4c/output_inception_4c/output_0_split_3
I0403 15:30:34.279065 19761 net.cpp:141] Setting up inception_4c/output_inception_4c/output_0_split
I0403 15:30:34.279090 19761 net.cpp:148] Top shape: 24 512 14 14 (2408448)
I0403 15:30:34.279106 19761 net.cpp:148] Top shape: 24 512 14 14 (2408448)
I0403 15:30:34.279121 19761 net.cpp:148] Top shape: 24 512 14 14 (2408448)
I0403 15:30:34.279136 19761 net.cpp:148] Top shape: 24 512 14 14 (2408448)
I0403 15:30:34.279150 19761 net.cpp:156] Memory required for data: 1111182624
I0403 15:30:34.279163 19761 layer_factory.hpp:77] Creating layer inception_4d/1x1
I0403 15:30:34.279186 19761 net.cpp:91] Creating Layer inception_4d/1x1
I0403 15:30:34.279202 19761 net.cpp:425] inception_4d/1x1 <- inception_4c/output_inception_4c/output_0_split_0
I0403 15:30:34.279220 19761 net.cpp:399] inception_4d/1x1 -> inception_4d/1x1
I0403 15:30:34.280599 19761 net.cpp:141] Setting up inception_4d/1x1
I0403 15:30:34.280629 19761 net.cpp:148] Top shape: 24 112 14 14 (526848)
I0403 15:30:34.280645 19761 net.cpp:156] Memory required for data: 1113290016
I0403 15:30:34.280663 19761 layer_factory.hpp:77] Creating layer inception_4d/relu_1x1
I0403 15:30:34.280680 19761 net.cpp:91] Creating Layer inception_4d/relu_1x1
I0403 15:30:34.280695 19761 net.cpp:425] inception_4d/relu_1x1 <- inception_4d/1x1
I0403 15:30:34.280714 19761 net.cpp:386] inception_4d/relu_1x1 -> inception_4d/1x1 (in-place)
I0403 15:30:34.280897 19761 net.cpp:141] Setting up inception_4d/relu_1x1
I0403 15:30:34.280922 19761 net.cpp:148] Top shape: 24 112 14 14 (526848)
I0403 15:30:34.280936 19761 net.cpp:156] Memory required for data: 1115397408
I0403 15:30:34.280949 19761 layer_factory.hpp:77] Creating layer inception_4d/3x3_reduce
I0403 15:30:34.280990 19761 net.cpp:91] Creating Layer inception_4d/3x3_reduce
I0403 15:30:34.281010 19761 net.cpp:425] inception_4d/3x3_reduce <- inception_4c/output_inception_4c/output_0_split_1
I0403 15:30:34.281031 19761 net.cpp:399] inception_4d/3x3_reduce -> inception_4d/3x3_reduce
I0403 15:30:34.282539 19761 net.cpp:141] Setting up inception_4d/3x3_reduce
I0403 15:30:34.282567 19761 net.cpp:148] Top shape: 24 144 14 14 (677376)
I0403 15:30:34.282582 19761 net.cpp:156] Memory required for data: 1118106912
I0403 15:30:34.282599 19761 layer_factory.hpp:77] Creating layer inception_4d/relu_3x3_reduce
I0403 15:30:34.282620 19761 net.cpp:91] Creating Layer inception_4d/relu_3x3_reduce
I0403 15:30:34.282637 19761 net.cpp:425] inception_4d/relu_3x3_reduce <- inception_4d/3x3_reduce
I0403 15:30:34.282654 19761 net.cpp:386] inception_4d/relu_3x3_reduce -> inception_4d/3x3_reduce (in-place)
I0403 15:30:34.282943 19761 net.cpp:141] Setting up inception_4d/relu_3x3_reduce
I0403 15:30:34.282974 19761 net.cpp:148] Top shape: 24 144 14 14 (677376)
I0403 15:30:34.282989 19761 net.cpp:156] Memory required for data: 1120816416
I0403 15:30:34.283004 19761 layer_factory.hpp:77] Creating layer inception_4d/3x3
I0403 15:30:34.283025 19761 net.cpp:91] Creating Layer inception_4d/3x3
I0403 15:30:34.283042 19761 net.cpp:425] inception_4d/3x3 <- inception_4d/3x3_reduce
I0403 15:30:34.283063 19761 net.cpp:399] inception_4d/3x3 -> inception_4d/3x3
I0403 15:30:34.287402 19761 net.cpp:141] Setting up inception_4d/3x3
I0403 15:30:34.287433 19761 net.cpp:148] Top shape: 24 288 14 14 (1354752)
I0403 15:30:34.287449 19761 net.cpp:156] Memory required for data: 1126235424
I0403 15:30:34.287467 19761 layer_factory.hpp:77] Creating layer inception_4d/relu_3x3
I0403 15:30:34.287483 19761 net.cpp:91] Creating Layer inception_4d/relu_3x3
I0403 15:30:34.287499 19761 net.cpp:425] inception_4d/relu_3x3 <- inception_4d/3x3
I0403 15:30:34.287518 19761 net.cpp:386] inception_4d/relu_3x3 -> inception_4d/3x3 (in-place)
I0403 15:30:34.287698 19761 net.cpp:141] Setting up inception_4d/relu_3x3
I0403 15:30:34.287721 19761 net.cpp:148] Top shape: 24 288 14 14 (1354752)
I0403 15:30:34.287734 19761 net.cpp:156] Memory required for data: 1131654432
I0403 15:30:34.287749 19761 layer_factory.hpp:77] Creating layer inception_4d/5x5_reduce
I0403 15:30:34.287770 19761 net.cpp:91] Creating Layer inception_4d/5x5_reduce
I0403 15:30:34.287786 19761 net.cpp:425] inception_4d/5x5_reduce <- inception_4c/output_inception_4c/output_0_split_2
I0403 15:30:34.287807 19761 net.cpp:399] inception_4d/5x5_reduce -> inception_4d/5x5_reduce
I0403 15:30:34.288929 19761 net.cpp:141] Setting up inception_4d/5x5_reduce
I0403 15:30:34.288964 19761 net.cpp:148] Top shape: 24 32 14 14 (150528)
I0403 15:30:34.288981 19761 net.cpp:156] Memory required for data: 1132256544
I0403 15:30:34.289000 19761 layer_factory.hpp:77] Creating layer inception_4d/relu_5x5_reduce
I0403 15:30:34.289016 19761 net.cpp:91] Creating Layer inception_4d/relu_5x5_reduce
I0403 15:30:34.289031 19761 net.cpp:425] inception_4d/relu_5x5_reduce <- inception_4d/5x5_reduce
I0403 15:30:34.289049 19761 net.cpp:386] inception_4d/relu_5x5_reduce -> inception_4d/5x5_reduce (in-place)
I0403 15:30:34.289232 19761 net.cpp:141] Setting up inception_4d/relu_5x5_reduce
I0403 15:30:34.289257 19761 net.cpp:148] Top shape: 24 32 14 14 (150528)
I0403 15:30:34.289270 19761 net.cpp:156] Memory required for data: 1132858656
I0403 15:30:34.289283 19761 layer_factory.hpp:77] Creating layer inception_4d/5x5
I0403 15:30:34.289304 19761 net.cpp:91] Creating Layer inception_4d/5x5
I0403 15:30:34.289322 19761 net.cpp:425] inception_4d/5x5 <- inception_4d/5x5_reduce
I0403 15:30:34.289345 19761 net.cpp:399] inception_4d/5x5 -> inception_4d/5x5
I0403 15:30:34.290779 19761 net.cpp:141] Setting up inception_4d/5x5
I0403 15:30:34.290807 19761 net.cpp:148] Top shape: 24 64 14 14 (301056)
I0403 15:30:34.290820 19761 net.cpp:156] Memory required for data: 1134062880
I0403 15:30:34.290838 19761 layer_factory.hpp:77] Creating layer inception_4d/relu_5x5
I0403 15:30:34.290871 19761 net.cpp:91] Creating Layer inception_4d/relu_5x5
I0403 15:30:34.290889 19761 net.cpp:425] inception_4d/relu_5x5 <- inception_4d/5x5
I0403 15:30:34.290905 19761 net.cpp:386] inception_4d/relu_5x5 -> inception_4d/5x5 (in-place)
I0403 15:30:34.291201 19761 net.cpp:141] Setting up inception_4d/relu_5x5
I0403 15:30:34.291227 19761 net.cpp:148] Top shape: 24 64 14 14 (301056)
I0403 15:30:34.291241 19761 net.cpp:156] Memory required for data: 1135267104
I0403 15:30:34.291254 19761 layer_factory.hpp:77] Creating layer inception_4d/pool
I0403 15:30:34.291271 19761 net.cpp:91] Creating Layer inception_4d/pool
I0403 15:30:34.291286 19761 net.cpp:425] inception_4d/pool <- inception_4c/output_inception_4c/output_0_split_3
I0403 15:30:34.291306 19761 net.cpp:399] inception_4d/pool -> inception_4d/pool
I0403 15:30:34.291373 19761 net.cpp:141] Setting up inception_4d/pool
I0403 15:30:34.291395 19761 net.cpp:148] Top shape: 24 512 14 14 (2408448)
I0403 15:30:34.291409 19761 net.cpp:156] Memory required for data: 1144900896
I0403 15:30:34.291421 19761 layer_factory.hpp:77] Creating layer inception_4d/pool_proj
I0403 15:30:34.291442 19761 net.cpp:91] Creating Layer inception_4d/pool_proj
I0403 15:30:34.291460 19761 net.cpp:425] inception_4d/pool_proj <- inception_4d/pool
I0403 15:30:34.291478 19761 net.cpp:399] inception_4d/pool_proj -> inception_4d/pool_proj
I0403 15:30:34.293210 19761 net.cpp:141] Setting up inception_4d/pool_proj
I0403 15:30:34.293239 19761 net.cpp:148] Top shape: 24 64 14 14 (301056)
I0403 15:30:34.293256 19761 net.cpp:156] Memory required for data: 1146105120
I0403 15:30:34.293272 19761 layer_factory.hpp:77] Creating layer inception_4d/relu_pool_proj
I0403 15:30:34.293290 19761 net.cpp:91] Creating Layer inception_4d/relu_pool_proj
I0403 15:30:34.293305 19761 net.cpp:425] inception_4d/relu_pool_proj <- inception_4d/pool_proj
I0403 15:30:34.293324 19761 net.cpp:386] inception_4d/relu_pool_proj -> inception_4d/pool_proj (in-place)
I0403 15:30:34.293509 19761 net.cpp:141] Setting up inception_4d/relu_pool_proj
I0403 15:30:34.293534 19761 net.cpp:148] Top shape: 24 64 14 14 (301056)
I0403 15:30:34.293547 19761 net.cpp:156] Memory required for data: 1147309344
I0403 15:30:34.293561 19761 layer_factory.hpp:77] Creating layer inception_4d/output
I0403 15:30:34.293577 19761 net.cpp:91] Creating Layer inception_4d/output
I0403 15:30:34.293592 19761 net.cpp:425] inception_4d/output <- inception_4d/1x1
I0403 15:30:34.293607 19761 net.cpp:425] inception_4d/output <- inception_4d/3x3
I0403 15:30:34.293622 19761 net.cpp:425] inception_4d/output <- inception_4d/5x5
I0403 15:30:34.293637 19761 net.cpp:425] inception_4d/output <- inception_4d/pool_proj
I0403 15:30:34.293655 19761 net.cpp:399] inception_4d/output -> inception_4d/output
I0403 15:30:34.293701 19761 net.cpp:141] Setting up inception_4d/output
I0403 15:30:34.293726 19761 net.cpp:148] Top shape: 24 528 14 14 (2483712)
I0403 15:30:34.293740 19761 net.cpp:156] Memory required for data: 1157244192
I0403 15:30:34.293754 19761 layer_factory.hpp:77] Creating layer inception_4d/output_inception_4d/output_0_split
I0403 15:30:34.293771 19761 net.cpp:91] Creating Layer inception_4d/output_inception_4d/output_0_split
I0403 15:30:34.293786 19761 net.cpp:425] inception_4d/output_inception_4d/output_0_split <- inception_4d/output
I0403 15:30:34.293804 19761 net.cpp:399] inception_4d/output_inception_4d/output_0_split -> inception_4d/output_inception_4d/output_0_split_0
I0403 15:30:34.293824 19761 net.cpp:399] inception_4d/output_inception_4d/output_0_split -> inception_4d/output_inception_4d/output_0_split_1
I0403 15:30:34.293843 19761 net.cpp:399] inception_4d/output_inception_4d/output_0_split -> inception_4d/output_inception_4d/output_0_split_2
I0403 15:30:34.293862 19761 net.cpp:399] inception_4d/output_inception_4d/output_0_split -> inception_4d/output_inception_4d/output_0_split_3
I0403 15:30:34.293880 19761 net.cpp:399] inception_4d/output_inception_4d/output_0_split -> inception_4d/output_inception_4d/output_0_split_4
I0403 15:30:34.293987 19761 net.cpp:141] Setting up inception_4d/output_inception_4d/output_0_split
I0403 15:30:34.294021 19761 net.cpp:148] Top shape: 24 528 14 14 (2483712)
I0403 15:30:34.294039 19761 net.cpp:148] Top shape: 24 528 14 14 (2483712)
I0403 15:30:34.294055 19761 net.cpp:148] Top shape: 24 528 14 14 (2483712)
I0403 15:30:34.294070 19761 net.cpp:148] Top shape: 24 528 14 14 (2483712)
I0403 15:30:34.294085 19761 net.cpp:148] Top shape: 24 528 14 14 (2483712)
I0403 15:30:34.294096 19761 net.cpp:156] Memory required for data: 1206918432
I0403 15:30:34.294111 19761 layer_factory.hpp:77] Creating layer loss2/ave_pool
I0403 15:30:34.294126 19761 net.cpp:91] Creating Layer loss2/ave_pool
I0403 15:30:34.294142 19761 net.cpp:425] loss2/ave_pool <- inception_4d/output_inception_4d/output_0_split_0
I0403 15:30:34.294160 19761 net.cpp:399] loss2/ave_pool -> loss2/ave_pool
I0403 15:30:34.294463 19761 net.cpp:141] Setting up loss2/ave_pool
I0403 15:30:34.294488 19761 net.cpp:148] Top shape: 24 528 4 4 (202752)
I0403 15:30:34.294502 19761 net.cpp:156] Memory required for data: 1207729440
I0403 15:30:34.294517 19761 layer_factory.hpp:77] Creating layer loss2/conv
I0403 15:30:34.294538 19761 net.cpp:91] Creating Layer loss2/conv
I0403 15:30:34.294555 19761 net.cpp:425] loss2/conv <- loss2/ave_pool
I0403 15:30:34.294574 19761 net.cpp:399] loss2/conv -> loss2/conv
I0403 15:30:34.296434 19761 net.cpp:141] Setting up loss2/conv
I0403 15:30:34.296461 19761 net.cpp:148] Top shape: 24 128 4 4 (49152)
I0403 15:30:34.296476 19761 net.cpp:156] Memory required for data: 1207926048
I0403 15:30:34.296494 19761 layer_factory.hpp:77] Creating layer loss2/relu_conv
I0403 15:30:34.296514 19761 net.cpp:91] Creating Layer loss2/relu_conv
I0403 15:30:34.296530 19761 net.cpp:425] loss2/relu_conv <- loss2/conv
I0403 15:30:34.296546 19761 net.cpp:386] loss2/relu_conv -> loss2/conv (in-place)
I0403 15:30:34.296823 19761 net.cpp:141] Setting up loss2/relu_conv
I0403 15:30:34.296849 19761 net.cpp:148] Top shape: 24 128 4 4 (49152)
I0403 15:30:34.296862 19761 net.cpp:156] Memory required for data: 1208122656
I0403 15:30:34.296876 19761 layer_factory.hpp:77] Creating layer loss2/fc
I0403 15:30:34.296897 19761 net.cpp:91] Creating Layer loss2/fc
I0403 15:30:34.296914 19761 net.cpp:425] loss2/fc <- loss2/conv
I0403 15:30:34.296932 19761 net.cpp:399] loss2/fc -> loss2/fc
I0403 15:30:34.314340 19761 net.cpp:141] Setting up loss2/fc
I0403 15:30:34.314374 19761 net.cpp:148] Top shape: 24 1024 (24576)
I0403 15:30:34.314389 19761 net.cpp:156] Memory required for data: 1208220960
I0403 15:30:34.314407 19761 layer_factory.hpp:77] Creating layer loss2/relu_fc
I0403 15:30:34.314424 19761 net.cpp:91] Creating Layer loss2/relu_fc
I0403 15:30:34.314440 19761 net.cpp:425] loss2/relu_fc <- loss2/fc
I0403 15:30:34.314458 19761 net.cpp:386] loss2/relu_fc -> loss2/fc (in-place)
I0403 15:30:34.314750 19761 net.cpp:141] Setting up loss2/relu_fc
I0403 15:30:34.314775 19761 net.cpp:148] Top shape: 24 1024 (24576)
I0403 15:30:34.314790 19761 net.cpp:156] Memory required for data: 1208319264
I0403 15:30:34.314803 19761 layer_factory.hpp:77] Creating layer loss2/drop_fc
I0403 15:30:34.314820 19761 net.cpp:91] Creating Layer loss2/drop_fc
I0403 15:30:34.314834 19761 net.cpp:425] loss2/drop_fc <- loss2/fc
I0403 15:30:34.314854 19761 net.cpp:386] loss2/drop_fc -> loss2/fc (in-place)
I0403 15:30:34.314903 19761 net.cpp:141] Setting up loss2/drop_fc
I0403 15:30:34.314924 19761 net.cpp:148] Top shape: 24 1024 (24576)
I0403 15:30:34.314936 19761 net.cpp:156] Memory required for data: 1208417568
I0403 15:30:34.314949 19761 layer_factory.hpp:77] Creating layer loss2/classifier_plantvillage
I0403 15:30:34.314976 19761 net.cpp:91] Creating Layer loss2/classifier_plantvillage
I0403 15:30:34.314993 19761 net.cpp:425] loss2/classifier_plantvillage <- loss2/fc
I0403 15:30:34.315014 19761 net.cpp:399] loss2/classifier_plantvillage -> loss2/classifier_plantvillage
I0403 15:30:34.315408 19761 net.cpp:141] Setting up loss2/classifier_plantvillage
I0403 15:30:34.315433 19761 net.cpp:148] Top shape: 24 38 (912)
I0403 15:30:34.315462 19761 net.cpp:156] Memory required for data: 1208421216
I0403 15:30:34.315479 19761 layer_factory.hpp:77] Creating layer loss2/classifier_plantvillage_loss2/classifier_plantvillage_0_split
I0403 15:30:34.315500 19761 net.cpp:91] Creating Layer loss2/classifier_plantvillage_loss2/classifier_plantvillage_0_split
I0403 15:30:34.315516 19761 net.cpp:425] loss2/classifier_plantvillage_loss2/classifier_plantvillage_0_split <- loss2/classifier_plantvillage
I0403 15:30:34.315533 19761 net.cpp:399] loss2/classifier_plantvillage_loss2/classifier_plantvillage_0_split -> loss2/classifier_plantvillage_loss2/classifier_plantvillage_0_split_0
I0403 15:30:34.315552 19761 net.cpp:399] loss2/classifier_plantvillage_loss2/classifier_plantvillage_0_split -> loss2/classifier_plantvillage_loss2/classifier_plantvillage_0_split_1
I0403 15:30:34.315572 19761 net.cpp:399] loss2/classifier_plantvillage_loss2/classifier_plantvillage_0_split -> loss2/classifier_plantvillage_loss2/classifier_plantvillage_0_split_2
I0403 15:30:34.315647 19761 net.cpp:141] Setting up loss2/classifier_plantvillage_loss2/classifier_plantvillage_0_split
I0403 15:30:34.315670 19761 net.cpp:148] Top shape: 24 38 (912)
I0403 15:30:34.315685 19761 net.cpp:148] Top shape: 24 38 (912)
I0403 15:30:34.315699 19761 net.cpp:148] Top shape: 24 38 (912)
I0403 15:30:34.315712 19761 net.cpp:156] Memory required for data: 1208432160
I0403 15:30:34.315726 19761 layer_factory.hpp:77] Creating layer inception_4e/1x1
I0403 15:30:34.315745 19761 net.cpp:91] Creating Layer inception_4e/1x1
I0403 15:30:34.315762 19761 net.cpp:425] inception_4e/1x1 <- inception_4d/output_inception_4d/output_0_split_1
I0403 15:30:34.315781 19761 net.cpp:399] inception_4e/1x1 -> inception_4e/1x1
I0403 15:30:34.317564 19761 net.cpp:141] Setting up inception_4e/1x1
I0403 15:30:34.317591 19761 net.cpp:148] Top shape: 24 256 14 14 (1204224)
I0403 15:30:34.317606 19761 net.cpp:156] Memory required for data: 1213249056
I0403 15:30:34.317623 19761 layer_factory.hpp:77] Creating layer inception_4e/relu_1x1
I0403 15:30:34.317643 19761 net.cpp:91] Creating Layer inception_4e/relu_1x1
I0403 15:30:34.317659 19761 net.cpp:425] inception_4e/relu_1x1 <- inception_4e/1x1
I0403 15:30:34.317675 19761 net.cpp:386] inception_4e/relu_1x1 -> inception_4e/1x1 (in-place)
I0403 15:30:34.317976 19761 net.cpp:141] Setting up inception_4e/relu_1x1
I0403 15:30:34.318002 19761 net.cpp:148] Top shape: 24 256 14 14 (1204224)
I0403 15:30:34.318017 19761 net.cpp:156] Memory required for data: 1218065952
I0403 15:30:34.318032 19761 layer_factory.hpp:77] Creating layer inception_4e/3x3_reduce
I0403 15:30:34.318053 19761 net.cpp:91] Creating Layer inception_4e/3x3_reduce
I0403 15:30:34.318069 19761 net.cpp:425] inception_4e/3x3_reduce <- inception_4d/output_inception_4d/output_0_split_2
I0403 15:30:34.318090 19761 net.cpp:399] inception_4e/3x3_reduce -> inception_4e/3x3_reduce
I0403 15:30:34.320169 19761 net.cpp:141] Setting up inception_4e/3x3_reduce
I0403 15:30:34.320197 19761 net.cpp:148] Top shape: 24 160 14 14 (752640)
I0403 15:30:34.320212 19761 net.cpp:156] Memory required for data: 1221076512
I0403 15:30:34.320233 19761 layer_factory.hpp:77] Creating layer inception_4e/relu_3x3_reduce
I0403 15:30:34.320258 19761 net.cpp:91] Creating Layer inception_4e/relu_3x3_reduce
I0403 15:30:34.320274 19761 net.cpp:425] inception_4e/relu_3x3_reduce <- inception_4e/3x3_reduce
I0403 15:30:34.320291 19761 net.cpp:386] inception_4e/relu_3x3_reduce -> inception_4e/3x3_reduce (in-place)
I0403 15:30:34.320472 19761 net.cpp:141] Setting up inception_4e/relu_3x3_reduce
I0403 15:30:34.320495 19761 net.cpp:148] Top shape: 24 160 14 14 (752640)
I0403 15:30:34.320518 19761 net.cpp:156] Memory required for data: 1224087072
I0403 15:30:34.320533 19761 layer_factory.hpp:77] Creating layer inception_4e/3x3
I0403 15:30:34.320554 19761 net.cpp:91] Creating Layer inception_4e/3x3
I0403 15:30:34.320571 19761 net.cpp:425] inception_4e/3x3 <- inception_4e/3x3_reduce
I0403 15:30:34.320590 19761 net.cpp:399] inception_4e/3x3 -> inception_4e/3x3
I0403 15:30:34.325670 19761 net.cpp:141] Setting up inception_4e/3x3
I0403 15:30:34.325711 19761 net.cpp:148] Top shape: 24 320 14 14 (1505280)
I0403 15:30:34.325727 19761 net.cpp:156] Memory required for data: 1230108192
I0403 15:30:34.325745 19761 layer_factory.hpp:77] Creating layer inception_4e/relu_3x3
I0403 15:30:34.325769 19761 net.cpp:91] Creating Layer inception_4e/relu_3x3
I0403 15:30:34.325786 19761 net.cpp:425] inception_4e/relu_3x3 <- inception_4e/3x3
I0403 15:30:34.325803 19761 net.cpp:386] inception_4e/relu_3x3 -> inception_4e/3x3 (in-place)
I0403 15:30:34.326107 19761 net.cpp:141] Setting up inception_4e/relu_3x3
I0403 15:30:34.326135 19761 net.cpp:148] Top shape: 24 320 14 14 (1505280)
I0403 15:30:34.326151 19761 net.cpp:156] Memory required for data: 1236129312
I0403 15:30:34.326166 19761 layer_factory.hpp:77] Creating layer inception_4e/5x5_reduce
I0403 15:30:34.326189 19761 net.cpp:91] Creating Layer inception_4e/5x5_reduce
I0403 15:30:34.326207 19761 net.cpp:425] inception_4e/5x5_reduce <- inception_4d/output_inception_4d/output_0_split_3
I0403 15:30:34.326226 19761 net.cpp:399] inception_4e/5x5_reduce -> inception_4e/5x5_reduce
I0403 15:30:34.327303 19761 net.cpp:141] Setting up inception_4e/5x5_reduce
I0403 15:30:34.327332 19761 net.cpp:148] Top shape: 24 32 14 14 (150528)
I0403 15:30:34.327347 19761 net.cpp:156] Memory required for data: 1236731424
I0403 15:30:34.327364 19761 layer_factory.hpp:77] Creating layer inception_4e/relu_5x5_reduce
I0403 15:30:34.327384 19761 net.cpp:91] Creating Layer inception_4e/relu_5x5_reduce
I0403 15:30:34.327401 19761 net.cpp:425] inception_4e/relu_5x5_reduce <- inception_4e/5x5_reduce
I0403 15:30:34.327417 19761 net.cpp:386] inception_4e/relu_5x5_reduce -> inception_4e/5x5_reduce (in-place)
I0403 15:30:34.327715 19761 net.cpp:141] Setting up inception_4e/relu_5x5_reduce
I0403 15:30:34.327741 19761 net.cpp:148] Top shape: 24 32 14 14 (150528)
I0403 15:30:34.327755 19761 net.cpp:156] Memory required for data: 1237333536
I0403 15:30:34.327770 19761 layer_factory.hpp:77] Creating layer inception_4e/5x5
I0403 15:30:34.327807 19761 net.cpp:91] Creating Layer inception_4e/5x5
I0403 15:30:34.327826 19761 net.cpp:425] inception_4e/5x5 <- inception_4e/5x5_reduce
I0403 15:30:34.327846 19761 net.cpp:399] inception_4e/5x5 -> inception_4e/5x5
I0403 15:30:34.329726 19761 net.cpp:141] Setting up inception_4e/5x5
I0403 15:30:34.329753 19761 net.cpp:148] Top shape: 24 128 14 14 (602112)
I0403 15:30:34.329769 19761 net.cpp:156] Memory required for data: 1239741984
I0403 15:30:34.329787 19761 layer_factory.hpp:77] Creating layer inception_4e/relu_5x5
I0403 15:30:34.329805 19761 net.cpp:91] Creating Layer inception_4e/relu_5x5
I0403 15:30:34.329820 19761 net.cpp:425] inception_4e/relu_5x5 <- inception_4e/5x5
I0403 15:30:34.329840 19761 net.cpp:386] inception_4e/relu_5x5 -> inception_4e/5x5 (in-place)
I0403 15:30:34.330049 19761 net.cpp:141] Setting up inception_4e/relu_5x5
I0403 15:30:34.330073 19761 net.cpp:148] Top shape: 24 128 14 14 (602112)
I0403 15:30:34.330087 19761 net.cpp:156] Memory required for data: 1242150432
I0403 15:30:34.330101 19761 layer_factory.hpp:77] Creating layer inception_4e/pool
I0403 15:30:34.330121 19761 net.cpp:91] Creating Layer inception_4e/pool
I0403 15:30:34.330138 19761 net.cpp:425] inception_4e/pool <- inception_4d/output_inception_4d/output_0_split_4
I0403 15:30:34.330155 19761 net.cpp:399] inception_4e/pool -> inception_4e/pool
I0403 15:30:34.330225 19761 net.cpp:141] Setting up inception_4e/pool
I0403 15:30:34.330250 19761 net.cpp:148] Top shape: 24 528 14 14 (2483712)
I0403 15:30:34.330263 19761 net.cpp:156] Memory required for data: 1252085280
I0403 15:30:34.330277 19761 layer_factory.hpp:77] Creating layer inception_4e/pool_proj
I0403 15:30:34.330298 19761 net.cpp:91] Creating Layer inception_4e/pool_proj
I0403 15:30:34.330317 19761 net.cpp:425] inception_4e/pool_proj <- inception_4e/pool
I0403 15:30:34.330337 19761 net.cpp:399] inception_4e/pool_proj -> inception_4e/pool_proj
I0403 15:30:34.331853 19761 net.cpp:141] Setting up inception_4e/pool_proj
I0403 15:30:34.331892 19761 net.cpp:148] Top shape: 24 128 14 14 (602112)
I0403 15:30:34.331907 19761 net.cpp:156] Memory required for data: 1254493728
I0403 15:30:34.331925 19761 layer_factory.hpp:77] Creating layer inception_4e/relu_pool_proj
I0403 15:30:34.331943 19761 net.cpp:91] Creating Layer inception_4e/relu_pool_proj
I0403 15:30:34.331964 19761 net.cpp:425] inception_4e/relu_pool_proj <- inception_4e/pool_proj
I0403 15:30:34.331984 19761 net.cpp:386] inception_4e/relu_pool_proj -> inception_4e/pool_proj (in-place)
I0403 15:30:34.332284 19761 net.cpp:141] Setting up inception_4e/relu_pool_proj
I0403 15:30:34.332309 19761 net.cpp:148] Top shape: 24 128 14 14 (602112)
I0403 15:30:34.332324 19761 net.cpp:156] Memory required for data: 1256902176
I0403 15:30:34.332340 19761 layer_factory.hpp:77] Creating layer inception_4e/output
I0403 15:30:34.332356 19761 net.cpp:91] Creating Layer inception_4e/output
I0403 15:30:34.332371 19761 net.cpp:425] inception_4e/output <- inception_4e/1x1
I0403 15:30:34.332386 19761 net.cpp:425] inception_4e/output <- inception_4e/3x3
I0403 15:30:34.332402 19761 net.cpp:425] inception_4e/output <- inception_4e/5x5
I0403 15:30:34.332417 19761 net.cpp:425] inception_4e/output <- inception_4e/pool_proj
I0403 15:30:34.332437 19761 net.cpp:399] inception_4e/output -> inception_4e/output
I0403 15:30:34.332485 19761 net.cpp:141] Setting up inception_4e/output
I0403 15:30:34.332509 19761 net.cpp:148] Top shape: 24 832 14 14 (3913728)
I0403 15:30:34.332525 19761 net.cpp:156] Memory required for data: 1272557088
I0403 15:30:34.332540 19761 layer_factory.hpp:77] Creating layer pool4/3x3_s2
I0403 15:30:34.332557 19761 net.cpp:91] Creating Layer pool4/3x3_s2
I0403 15:30:34.332572 19761 net.cpp:425] pool4/3x3_s2 <- inception_4e/output
I0403 15:30:34.332589 19761 net.cpp:399] pool4/3x3_s2 -> pool4/3x3_s2
I0403 15:30:34.332659 19761 net.cpp:141] Setting up pool4/3x3_s2
I0403 15:30:34.332681 19761 net.cpp:148] Top shape: 24 832 7 7 (978432)
I0403 15:30:34.332695 19761 net.cpp:156] Memory required for data: 1276470816
I0403 15:30:34.332708 19761 layer_factory.hpp:77] Creating layer pool4/3x3_s2_pool4/3x3_s2_0_split
I0403 15:30:34.332726 19761 net.cpp:91] Creating Layer pool4/3x3_s2_pool4/3x3_s2_0_split
I0403 15:30:34.332739 19761 net.cpp:425] pool4/3x3_s2_pool4/3x3_s2_0_split <- pool4/3x3_s2
I0403 15:30:34.332759 19761 net.cpp:399] pool4/3x3_s2_pool4/3x3_s2_0_split -> pool4/3x3_s2_pool4/3x3_s2_0_split_0
I0403 15:30:34.332779 19761 net.cpp:399] pool4/3x3_s2_pool4/3x3_s2_0_split -> pool4/3x3_s2_pool4/3x3_s2_0_split_1
I0403 15:30:34.332799 19761 net.cpp:399] pool4/3x3_s2_pool4/3x3_s2_0_split -> pool4/3x3_s2_pool4/3x3_s2_0_split_2
I0403 15:30:34.332818 19761 net.cpp:399] pool4/3x3_s2_pool4/3x3_s2_0_split -> pool4/3x3_s2_pool4/3x3_s2_0_split_3
I0403 15:30:34.332913 19761 net.cpp:141] Setting up pool4/3x3_s2_pool4/3x3_s2_0_split
I0403 15:30:34.332938 19761 net.cpp:148] Top shape: 24 832 7 7 (978432)
I0403 15:30:34.332960 19761 net.cpp:148] Top shape: 24 832 7 7 (978432)
I0403 15:30:34.332978 19761 net.cpp:148] Top shape: 24 832 7 7 (978432)
I0403 15:30:34.332993 19761 net.cpp:148] Top shape: 24 832 7 7 (978432)
I0403 15:30:34.333005 19761 net.cpp:156] Memory required for data: 1292125728
I0403 15:30:34.333019 19761 layer_factory.hpp:77] Creating layer inception_5a/1x1
I0403 15:30:34.333042 19761 net.cpp:91] Creating Layer inception_5a/1x1
I0403 15:30:34.333060 19761 net.cpp:425] inception_5a/1x1 <- pool4/3x3_s2_pool4/3x3_s2_0_split_0
I0403 15:30:34.333079 19761 net.cpp:399] inception_5a/1x1 -> inception_5a/1x1
I0403 15:30:34.335979 19761 net.cpp:141] Setting up inception_5a/1x1
I0403 15:30:34.336009 19761 net.cpp:148] Top shape: 24 256 7 7 (301056)
I0403 15:30:34.336024 19761 net.cpp:156] Memory required for data: 1293329952
I0403 15:30:34.336041 19761 layer_factory.hpp:77] Creating layer inception_5a/relu_1x1
I0403 15:30:34.336062 19761 net.cpp:91] Creating Layer inception_5a/relu_1x1
I0403 15:30:34.336079 19761 net.cpp:425] inception_5a/relu_1x1 <- inception_5a/1x1
I0403 15:30:34.336097 19761 net.cpp:386] inception_5a/relu_1x1 -> inception_5a/1x1 (in-place)
I0403 15:30:34.336407 19761 net.cpp:141] Setting up inception_5a/relu_1x1
I0403 15:30:34.336433 19761 net.cpp:148] Top shape: 24 256 7 7 (301056)
I0403 15:30:34.336447 19761 net.cpp:156] Memory required for data: 1294534176
I0403 15:30:34.336462 19761 layer_factory.hpp:77] Creating layer inception_5a/3x3_reduce
I0403 15:30:34.336483 19761 net.cpp:91] Creating Layer inception_5a/3x3_reduce
I0403 15:30:34.336500 19761 net.cpp:425] inception_5a/3x3_reduce <- pool4/3x3_s2_pool4/3x3_s2_0_split_1
I0403 15:30:34.336521 19761 net.cpp:399] inception_5a/3x3_reduce -> inception_5a/3x3_reduce
I0403 15:30:34.339066 19761 net.cpp:141] Setting up inception_5a/3x3_reduce
I0403 15:30:34.339098 19761 net.cpp:148] Top shape: 24 160 7 7 (188160)
I0403 15:30:34.339114 19761 net.cpp:156] Memory required for data: 1295286816
I0403 15:30:34.339144 19761 layer_factory.hpp:77] Creating layer inception_5a/relu_3x3_reduce
I0403 15:30:34.339161 19761 net.cpp:91] Creating Layer inception_5a/relu_3x3_reduce
I0403 15:30:34.339177 19761 net.cpp:425] inception_5a/relu_3x3_reduce <- inception_5a/3x3_reduce
I0403 15:30:34.339193 19761 net.cpp:386] inception_5a/relu_3x3_reduce -> inception_5a/3x3_reduce (in-place)
I0403 15:30:34.339378 19761 net.cpp:141] Setting up inception_5a/relu_3x3_reduce
I0403 15:30:34.339402 19761 net.cpp:148] Top shape: 24 160 7 7 (188160)
I0403 15:30:34.339416 19761 net.cpp:156] Memory required for data: 1296039456
I0403 15:30:34.339429 19761 layer_factory.hpp:77] Creating layer inception_5a/3x3
I0403 15:30:34.339450 19761 net.cpp:91] Creating Layer inception_5a/3x3
I0403 15:30:34.339468 19761 net.cpp:425] inception_5a/3x3 <- inception_5a/3x3_reduce
I0403 15:30:34.339488 19761 net.cpp:399] inception_5a/3x3 -> inception_5a/3x3
I0403 15:30:34.344439 19761 net.cpp:141] Setting up inception_5a/3x3
I0403 15:30:34.344467 19761 net.cpp:148] Top shape: 24 320 7 7 (376320)
I0403 15:30:34.344482 19761 net.cpp:156] Memory required for data: 1297544736
I0403 15:30:34.344499 19761 layer_factory.hpp:77] Creating layer inception_5a/relu_3x3
I0403 15:30:34.344516 19761 net.cpp:91] Creating Layer inception_5a/relu_3x3
I0403 15:30:34.344532 19761 net.cpp:425] inception_5a/relu_3x3 <- inception_5a/3x3
I0403 15:30:34.344550 19761 net.cpp:386] inception_5a/relu_3x3 -> inception_5a/3x3 (in-place)
I0403 15:30:34.344846 19761 net.cpp:141] Setting up inception_5a/relu_3x3
I0403 15:30:34.344871 19761 net.cpp:148] Top shape: 24 320 7 7 (376320)
I0403 15:30:34.344885 19761 net.cpp:156] Memory required for data: 1299050016
I0403 15:30:34.344899 19761 layer_factory.hpp:77] Creating layer inception_5a/5x5_reduce
I0403 15:30:34.344920 19761 net.cpp:91] Creating Layer inception_5a/5x5_reduce
I0403 15:30:34.344936 19761 net.cpp:425] inception_5a/5x5_reduce <- pool4/3x3_s2_pool4/3x3_s2_0_split_2
I0403 15:30:34.344961 19761 net.cpp:399] inception_5a/5x5_reduce -> inception_5a/5x5_reduce
I0403 15:30:34.346112 19761 net.cpp:141] Setting up inception_5a/5x5_reduce
I0403 15:30:34.346139 19761 net.cpp:148] Top shape: 24 32 7 7 (37632)
I0403 15:30:34.346153 19761 net.cpp:156] Memory required for data: 1299200544
I0403 15:30:34.346170 19761 layer_factory.hpp:77] Creating layer inception_5a/relu_5x5_reduce
I0403 15:30:34.346190 19761 net.cpp:91] Creating Layer inception_5a/relu_5x5_reduce
I0403 15:30:34.346206 19761 net.cpp:425] inception_5a/relu_5x5_reduce <- inception_5a/5x5_reduce
I0403 15:30:34.346222 19761 net.cpp:386] inception_5a/relu_5x5_reduce -> inception_5a/5x5_reduce (in-place)
I0403 15:30:34.346515 19761 net.cpp:141] Setting up inception_5a/relu_5x5_reduce
I0403 15:30:34.346539 19761 net.cpp:148] Top shape: 24 32 7 7 (37632)
I0403 15:30:34.346554 19761 net.cpp:156] Memory required for data: 1299351072
I0403 15:30:34.346567 19761 layer_factory.hpp:77] Creating layer inception_5a/5x5
I0403 15:30:34.346588 19761 net.cpp:91] Creating Layer inception_5a/5x5
I0403 15:30:34.346606 19761 net.cpp:425] inception_5a/5x5 <- inception_5a/5x5_reduce
I0403 15:30:34.346626 19761 net.cpp:399] inception_5a/5x5 -> inception_5a/5x5
I0403 15:30:34.348346 19761 net.cpp:141] Setting up inception_5a/5x5
I0403 15:30:34.348384 19761 net.cpp:148] Top shape: 24 128 7 7 (150528)
I0403 15:30:34.348398 19761 net.cpp:156] Memory required for data: 1299953184
I0403 15:30:34.348417 19761 layer_factory.hpp:77] Creating layer inception_5a/relu_5x5
I0403 15:30:34.348433 19761 net.cpp:91] Creating Layer inception_5a/relu_5x5
I0403 15:30:34.348448 19761 net.cpp:425] inception_5a/relu_5x5 <- inception_5a/5x5
I0403 15:30:34.348467 19761 net.cpp:386] inception_5a/relu_5x5 -> inception_5a/5x5 (in-place)
I0403 15:30:34.348654 19761 net.cpp:141] Setting up inception_5a/relu_5x5
I0403 15:30:34.348677 19761 net.cpp:148] Top shape: 24 128 7 7 (150528)
I0403 15:30:34.348691 19761 net.cpp:156] Memory required for data: 1300555296
I0403 15:30:34.348706 19761 layer_factory.hpp:77] Creating layer inception_5a/pool
I0403 15:30:34.348724 19761 net.cpp:91] Creating Layer inception_5a/pool
I0403 15:30:34.348739 19761 net.cpp:425] inception_5a/pool <- pool4/3x3_s2_pool4/3x3_s2_0_split_3
I0403 15:30:34.348757 19761 net.cpp:399] inception_5a/pool -> inception_5a/pool
I0403 15:30:34.348826 19761 net.cpp:141] Setting up inception_5a/pool
I0403 15:30:34.348850 19761 net.cpp:148] Top shape: 24 832 7 7 (978432)
I0403 15:30:34.348862 19761 net.cpp:156] Memory required for data: 1304469024
I0403 15:30:34.348877 19761 layer_factory.hpp:77] Creating layer inception_5a/pool_proj
I0403 15:30:34.348897 19761 net.cpp:91] Creating Layer inception_5a/pool_proj
I0403 15:30:34.348914 19761 net.cpp:425] inception_5a/pool_proj <- inception_5a/pool
I0403 15:30:34.348934 19761 net.cpp:399] inception_5a/pool_proj -> inception_5a/pool_proj
I0403 15:30:34.351177 19761 net.cpp:141] Setting up inception_5a/pool_proj
I0403 15:30:34.351208 19761 net.cpp:148] Top shape: 24 128 7 7 (150528)
I0403 15:30:34.351223 19761 net.cpp:156] Memory required for data: 1305071136
I0403 15:30:34.351241 19761 layer_factory.hpp:77] Creating layer inception_5a/relu_pool_proj
I0403 15:30:34.351258 19761 net.cpp:91] Creating Layer inception_5a/relu_pool_proj
I0403 15:30:34.351272 19761 net.cpp:425] inception_5a/relu_pool_proj <- inception_5a/pool_proj
I0403 15:30:34.351291 19761 net.cpp:386] inception_5a/relu_pool_proj -> inception_5a/pool_proj (in-place)
I0403 15:30:34.351582 19761 net.cpp:141] Setting up inception_5a/relu_pool_proj
I0403 15:30:34.351609 19761 net.cpp:148] Top shape: 24 128 7 7 (150528)
I0403 15:30:34.351624 19761 net.cpp:156] Memory required for data: 1305673248
I0403 15:30:34.351639 19761 layer_factory.hpp:77] Creating layer inception_5a/output
I0403 15:30:34.351655 19761 net.cpp:91] Creating Layer inception_5a/output
I0403 15:30:34.351670 19761 net.cpp:425] inception_5a/output <- inception_5a/1x1
I0403 15:30:34.351686 19761 net.cpp:425] inception_5a/output <- inception_5a/3x3
I0403 15:30:34.351701 19761 net.cpp:425] inception_5a/output <- inception_5a/5x5
I0403 15:30:34.351716 19761 net.cpp:425] inception_5a/output <- inception_5a/pool_proj
I0403 15:30:34.351733 19761 net.cpp:399] inception_5a/output -> inception_5a/output
I0403 15:30:34.351781 19761 net.cpp:141] Setting up inception_5a/output
I0403 15:30:34.351804 19761 net.cpp:148] Top shape: 24 832 7 7 (978432)
I0403 15:30:34.351817 19761 net.cpp:156] Memory required for data: 1309586976
I0403 15:30:34.351830 19761 layer_factory.hpp:77] Creating layer inception_5a/output_inception_5a/output_0_split
I0403 15:30:34.351850 19761 net.cpp:91] Creating Layer inception_5a/output_inception_5a/output_0_split
I0403 15:30:34.351866 19761 net.cpp:425] inception_5a/output_inception_5a/output_0_split <- inception_5a/output
I0403 15:30:34.351882 19761 net.cpp:399] inception_5a/output_inception_5a/output_0_split -> inception_5a/output_inception_5a/output_0_split_0
I0403 15:30:34.351900 19761 net.cpp:399] inception_5a/output_inception_5a/output_0_split -> inception_5a/output_inception_5a/output_0_split_1
I0403 15:30:34.351923 19761 net.cpp:399] inception_5a/output_inception_5a/output_0_split -> inception_5a/output_inception_5a/output_0_split_2
I0403 15:30:34.351943 19761 net.cpp:399] inception_5a/output_inception_5a/output_0_split -> inception_5a/output_inception_5a/output_0_split_3
I0403 15:30:34.352056 19761 net.cpp:141] Setting up inception_5a/output_inception_5a/output_0_split
I0403 15:30:34.352079 19761 net.cpp:148] Top shape: 24 832 7 7 (978432)
I0403 15:30:34.352094 19761 net.cpp:148] Top shape: 24 832 7 7 (978432)
I0403 15:30:34.352109 19761 net.cpp:148] Top shape: 24 832 7 7 (978432)
I0403 15:30:34.352123 19761 net.cpp:148] Top shape: 24 832 7 7 (978432)
I0403 15:30:34.352136 19761 net.cpp:156] Memory required for data: 1325241888
I0403 15:30:34.352149 19761 layer_factory.hpp:77] Creating layer inception_5b/1x1
I0403 15:30:34.352170 19761 net.cpp:91] Creating Layer inception_5b/1x1
I0403 15:30:34.352186 19761 net.cpp:425] inception_5b/1x1 <- inception_5a/output_inception_5a/output_0_split_0
I0403 15:30:34.352206 19761 net.cpp:399] inception_5b/1x1 -> inception_5b/1x1
I0403 15:30:34.355891 19761 net.cpp:141] Setting up inception_5b/1x1
I0403 15:30:34.355922 19761 net.cpp:148] Top shape: 24 384 7 7 (451584)
I0403 15:30:34.355938 19761 net.cpp:156] Memory required for data: 1327048224
I0403 15:30:34.355960 19761 layer_factory.hpp:77] Creating layer inception_5b/relu_1x1
I0403 15:30:34.355979 19761 net.cpp:91] Creating Layer inception_5b/relu_1x1
I0403 15:30:34.355995 19761 net.cpp:425] inception_5b/relu_1x1 <- inception_5b/1x1
I0403 15:30:34.356012 19761 net.cpp:386] inception_5b/relu_1x1 -> inception_5b/1x1 (in-place)
I0403 15:30:34.356310 19761 net.cpp:141] Setting up inception_5b/relu_1x1
I0403 15:30:34.356338 19761 net.cpp:148] Top shape: 24 384 7 7 (451584)
I0403 15:30:34.356353 19761 net.cpp:156] Memory required for data: 1328854560
I0403 15:30:34.356366 19761 layer_factory.hpp:77] Creating layer inception_5b/3x3_reduce
I0403 15:30:34.356387 19761 net.cpp:91] Creating Layer inception_5b/3x3_reduce
I0403 15:30:34.356405 19761 net.cpp:425] inception_5b/3x3_reduce <- inception_5a/output_inception_5a/output_0_split_1
I0403 15:30:34.356423 19761 net.cpp:399] inception_5b/3x3_reduce -> inception_5b/3x3_reduce
I0403 15:30:34.359055 19761 net.cpp:141] Setting up inception_5b/3x3_reduce
I0403 15:30:34.359086 19761 net.cpp:148] Top shape: 24 192 7 7 (225792)
I0403 15:30:34.359102 19761 net.cpp:156] Memory required for data: 1329757728
I0403 15:30:34.359119 19761 layer_factory.hpp:77] Creating layer inception_5b/relu_3x3_reduce
I0403 15:30:34.359136 19761 net.cpp:91] Creating Layer inception_5b/relu_3x3_reduce
I0403 15:30:34.359153 19761 net.cpp:425] inception_5b/relu_3x3_reduce <- inception_5b/3x3_reduce
I0403 15:30:34.359170 19761 net.cpp:386] inception_5b/relu_3x3_reduce -> inception_5b/3x3_reduce (in-place)
I0403 15:30:34.359359 19761 net.cpp:141] Setting up inception_5b/relu_3x3_reduce
I0403 15:30:34.359382 19761 net.cpp:148] Top shape: 24 192 7 7 (225792)
I0403 15:30:34.359396 19761 net.cpp:156] Memory required for data: 1330660896
I0403 15:30:34.359411 19761 layer_factory.hpp:77] Creating layer inception_5b/3x3
I0403 15:30:34.359431 19761 net.cpp:91] Creating Layer inception_5b/3x3
I0403 15:30:34.359448 19761 net.cpp:425] inception_5b/3x3 <- inception_5b/3x3_reduce
I0403 15:30:34.359469 19761 net.cpp:399] inception_5b/3x3 -> inception_5b/3x3
I0403 15:30:34.366057 19761 net.cpp:141] Setting up inception_5b/3x3
I0403 15:30:34.366087 19761 net.cpp:148] Top shape: 24 384 7 7 (451584)
I0403 15:30:34.366103 19761 net.cpp:156] Memory required for data: 1332467232
I0403 15:30:34.366120 19761 layer_factory.hpp:77] Creating layer inception_5b/relu_3x3
I0403 15:30:34.366138 19761 net.cpp:91] Creating Layer inception_5b/relu_3x3
I0403 15:30:34.366153 19761 net.cpp:425] inception_5b/relu_3x3 <- inception_5b/3x3
I0403 15:30:34.366171 19761 net.cpp:386] inception_5b/relu_3x3 -> inception_5b/3x3 (in-place)
I0403 15:30:34.366461 19761 net.cpp:141] Setting up inception_5b/relu_3x3
I0403 15:30:34.366488 19761 net.cpp:148] Top shape: 24 384 7 7 (451584)
I0403 15:30:34.366503 19761 net.cpp:156] Memory required for data: 1334273568
I0403 15:30:34.366518 19761 layer_factory.hpp:77] Creating layer inception_5b/5x5_reduce
I0403 15:30:34.366552 19761 net.cpp:91] Creating Layer inception_5b/5x5_reduce
I0403 15:30:34.366570 19761 net.cpp:425] inception_5b/5x5_reduce <- inception_5a/output_inception_5a/output_0_split_2
I0403 15:30:34.366590 19761 net.cpp:399] inception_5b/5x5_reduce -> inception_5b/5x5_reduce
I0403 15:30:34.367840 19761 net.cpp:141] Setting up inception_5b/5x5_reduce
I0403 15:30:34.367866 19761 net.cpp:148] Top shape: 24 48 7 7 (56448)
I0403 15:30:34.367880 19761 net.cpp:156] Memory required for data: 1334499360
I0403 15:30:34.367897 19761 layer_factory.hpp:77] Creating layer inception_5b/relu_5x5_reduce
I0403 15:30:34.367913 19761 net.cpp:91] Creating Layer inception_5b/relu_5x5_reduce
I0403 15:30:34.367929 19761 net.cpp:425] inception_5b/relu_5x5_reduce <- inception_5b/5x5_reduce
I0403 15:30:34.367947 19761 net.cpp:386] inception_5b/relu_5x5_reduce -> inception_5b/5x5_reduce (in-place)
I0403 15:30:34.368329 19761 net.cpp:141] Setting up inception_5b/relu_5x5_reduce
I0403 15:30:34.368355 19761 net.cpp:148] Top shape: 24 48 7 7 (56448)
I0403 15:30:34.368369 19761 net.cpp:156] Memory required for data: 1334725152
I0403 15:30:34.368383 19761 layer_factory.hpp:77] Creating layer inception_5b/5x5
I0403 15:30:34.368402 19761 net.cpp:91] Creating Layer inception_5b/5x5
I0403 15:30:34.368418 19761 net.cpp:425] inception_5b/5x5 <- inception_5b/5x5_reduce
I0403 15:30:34.368438 19761 net.cpp:399] inception_5b/5x5 -> inception_5b/5x5
I0403 15:30:34.370460 19761 net.cpp:141] Setting up inception_5b/5x5
I0403 15:30:34.370486 19761 net.cpp:148] Top shape: 24 128 7 7 (150528)
I0403 15:30:34.370501 19761 net.cpp:156] Memory required for data: 1335327264
I0403 15:30:34.370517 19761 layer_factory.hpp:77] Creating layer inception_5b/relu_5x5
I0403 15:30:34.370537 19761 net.cpp:91] Creating Layer inception_5b/relu_5x5
I0403 15:30:34.370554 19761 net.cpp:425] inception_5b/relu_5x5 <- inception_5b/5x5
I0403 15:30:34.370569 19761 net.cpp:386] inception_5b/relu_5x5 -> inception_5b/5x5 (in-place)
I0403 15:30:34.370759 19761 net.cpp:141] Setting up inception_5b/relu_5x5
I0403 15:30:34.370784 19761 net.cpp:148] Top shape: 24 128 7 7 (150528)
I0403 15:30:34.370796 19761 net.cpp:156] Memory required for data: 1335929376
I0403 15:30:34.370811 19761 layer_factory.hpp:77] Creating layer inception_5b/pool
I0403 15:30:34.370831 19761 net.cpp:91] Creating Layer inception_5b/pool
I0403 15:30:34.370846 19761 net.cpp:425] inception_5b/pool <- inception_5a/output_inception_5a/output_0_split_3
I0403 15:30:34.370863 19761 net.cpp:399] inception_5b/pool -> inception_5b/pool
I0403 15:30:34.370934 19761 net.cpp:141] Setting up inception_5b/pool
I0403 15:30:34.370964 19761 net.cpp:148] Top shape: 24 832 7 7 (978432)
I0403 15:30:34.370980 19761 net.cpp:156] Memory required for data: 1339843104
I0403 15:30:34.370993 19761 layer_factory.hpp:77] Creating layer inception_5b/pool_proj
I0403 15:30:34.371014 19761 net.cpp:91] Creating Layer inception_5b/pool_proj
I0403 15:30:34.371031 19761 net.cpp:425] inception_5b/pool_proj <- inception_5b/pool
I0403 15:30:34.371050 19761 net.cpp:399] inception_5b/pool_proj -> inception_5b/pool_proj
I0403 15:30:34.373327 19761 net.cpp:141] Setting up inception_5b/pool_proj
I0403 15:30:34.373356 19761 net.cpp:148] Top shape: 24 128 7 7 (150528)
I0403 15:30:34.373371 19761 net.cpp:156] Memory required for data: 1340445216
I0403 15:30:34.373389 19761 layer_factory.hpp:77] Creating layer inception_5b/relu_pool_proj
I0403 15:30:34.373405 19761 net.cpp:91] Creating Layer inception_5b/relu_pool_proj
I0403 15:30:34.373420 19761 net.cpp:425] inception_5b/relu_pool_proj <- inception_5b/pool_proj
I0403 15:30:34.373438 19761 net.cpp:386] inception_5b/relu_pool_proj -> inception_5b/pool_proj (in-place)
I0403 15:30:34.373734 19761 net.cpp:141] Setting up inception_5b/relu_pool_proj
I0403 15:30:34.373759 19761 net.cpp:148] Top shape: 24 128 7 7 (150528)
I0403 15:30:34.373774 19761 net.cpp:156] Memory required for data: 1341047328
I0403 15:30:34.373787 19761 layer_factory.hpp:77] Creating layer inception_5b/output
I0403 15:30:34.373805 19761 net.cpp:91] Creating Layer inception_5b/output
I0403 15:30:34.373833 19761 net.cpp:425] inception_5b/output <- inception_5b/1x1
I0403 15:30:34.373850 19761 net.cpp:425] inception_5b/output <- inception_5b/3x3
I0403 15:30:34.373867 19761 net.cpp:425] inception_5b/output <- inception_5b/5x5
I0403 15:30:34.373880 19761 net.cpp:425] inception_5b/output <- inception_5b/pool_proj
I0403 15:30:34.373898 19761 net.cpp:399] inception_5b/output -> inception_5b/output
I0403 15:30:34.373950 19761 net.cpp:141] Setting up inception_5b/output
I0403 15:30:34.373994 19761 net.cpp:148] Top shape: 24 1024 7 7 (1204224)
I0403 15:30:34.374011 19761 net.cpp:156] Memory required for data: 1345864224
I0403 15:30:34.374024 19761 layer_factory.hpp:77] Creating layer pool5/7x7_s1
I0403 15:30:34.374053 19761 net.cpp:91] Creating Layer pool5/7x7_s1
I0403 15:30:34.374069 19761 net.cpp:425] pool5/7x7_s1 <- inception_5b/output
I0403 15:30:34.374086 19761 net.cpp:399] pool5/7x7_s1 -> pool5/7x7_s1
I0403 15:30:34.374325 19761 net.cpp:141] Setting up pool5/7x7_s1
I0403 15:30:34.374349 19761 net.cpp:148] Top shape: 24 1024 1 1 (24576)
I0403 15:30:34.374363 19761 net.cpp:156] Memory required for data: 1345962528
I0403 15:30:34.374378 19761 layer_factory.hpp:77] Creating layer pool5/drop_7x7_s1
I0403 15:30:34.374395 19761 net.cpp:91] Creating Layer pool5/drop_7x7_s1
I0403 15:30:34.374410 19761 net.cpp:425] pool5/drop_7x7_s1 <- pool5/7x7_s1
I0403 15:30:34.374429 19761 net.cpp:386] pool5/drop_7x7_s1 -> pool5/7x7_s1 (in-place)
I0403 15:30:34.374480 19761 net.cpp:141] Setting up pool5/drop_7x7_s1
I0403 15:30:34.374505 19761 net.cpp:148] Top shape: 24 1024 1 1 (24576)
I0403 15:30:34.374519 19761 net.cpp:156] Memory required for data: 1346060832
I0403 15:30:34.374534 19761 layer_factory.hpp:77] Creating layer loss3/classifier_plantvillage
I0403 15:30:34.374552 19761 net.cpp:91] Creating Layer loss3/classifier_plantvillage
I0403 15:30:34.374569 19761 net.cpp:425] loss3/classifier_plantvillage <- pool5/7x7_s1
I0403 15:30:34.374589 19761 net.cpp:399] loss3/classifier_plantvillage -> loss3/classifier_plantvillage
I0403 15:30:34.375026 19761 net.cpp:141] Setting up loss3/classifier_plantvillage
I0403 15:30:34.375051 19761 net.cpp:148] Top shape: 24 38 (912)
I0403 15:30:34.375072 19761 net.cpp:156] Memory required for data: 1346064480
I0403 15:30:34.375089 19761 layer_factory.hpp:77] Creating layer loss3/classifier_plantvillage_loss3/classifier_plantvillage_0_split
I0403 15:30:34.375110 19761 net.cpp:91] Creating Layer loss3/classifier_plantvillage_loss3/classifier_plantvillage_0_split
I0403 15:30:34.375126 19761 net.cpp:425] loss3/classifier_plantvillage_loss3/classifier_plantvillage_0_split <- loss3/classifier_plantvillage
I0403 15:30:34.375144 19761 net.cpp:399] loss3/classifier_plantvillage_loss3/classifier_plantvillage_0_split -> loss3/classifier_plantvillage_loss3/classifier_plantvillage_0_split_0
I0403 15:30:34.375164 19761 net.cpp:399] loss3/classifier_plantvillage_loss3/classifier_plantvillage_0_split -> loss3/classifier_plantvillage_loss3/classifier_plantvillage_0_split_1
I0403 15:30:34.375185 19761 net.cpp:399] loss3/classifier_plantvillage_loss3/classifier_plantvillage_0_split -> loss3/classifier_plantvillage_loss3/classifier_plantvillage_0_split_2
I0403 15:30:34.375205 19761 net.cpp:399] loss3/classifier_plantvillage_loss3/classifier_plantvillage_0_split -> loss3/classifier_plantvillage_loss3/classifier_plantvillage_0_split_3
I0403 15:30:34.375305 19761 net.cpp:141] Setting up loss3/classifier_plantvillage_loss3/classifier_plantvillage_0_split
I0403 15:30:34.375329 19761 net.cpp:148] Top shape: 24 38 (912)
I0403 15:30:34.375344 19761 net.cpp:148] Top shape: 24 38 (912)
I0403 15:30:34.375361 19761 net.cpp:148] Top shape: 24 38 (912)
I0403 15:30:34.375375 19761 net.cpp:148] Top shape: 24 38 (912)
I0403 15:30:34.375388 19761 net.cpp:156] Memory required for data: 1346079072
I0403 15:30:34.375402 19761 layer_factory.hpp:77] Creating layer loss1/loss
I0403 15:30:34.375423 19761 net.cpp:91] Creating Layer loss1/loss
I0403 15:30:34.375439 19761 net.cpp:425] loss1/loss <- loss1/classifier_plantvillage_loss1/classifier_plantvillage_0_split_0
I0403 15:30:34.375469 19761 net.cpp:425] loss1/loss <- label_data_1_split_0
…
