…
I0403 15:34:40.147313 20033 net.cpp:313] The NetState phase (1) differed from the phase (0) specified by a rule in layer data
I0403 15:34:40.149682 20033 net.cpp:49] Initializing net from parameters: 
state {
  phase: TEST
}
layer {
  name: "data"
  type: "Data"
  top: "data"
  top: "label"
  include {
    phase: TEST
  }
  transform_param {
    mirror: false
    crop_size: 224
    mean_file: "/home/mohanty/data/final_dataset/lmdb/grayscale-40-60/mean.binaryproto"
  }
  data_param {
    source: "/home/mohanty/data/final_dataset/lmdb/grayscale-40-60/test_db"
    batch_size: 24
    backend: LMDB
  }
}
layer {
  name: "conv1/7x7_s2"
  type: "Convolution"
  bottom: "data"
  top: "conv1/7x7_s2"
  param {
    lr_mult: 1
    decay_mult: 1
  }
  param {
    lr_mult: 2
    decay_mult: 0
  }
  convolution_param {
    num_output: 64
    pad: 3
    kernel_size: 7
    stride: 2
    weight_filler {
      type: "xavier"
      std: 0.1
    }
    bias_filler {
      type: "constant"
      value: 0.2
    }
  }
}
layer {
  name: "conv1/relu_7x7"
  type: "ReLU"
  bottom: "conv1/7x7_s2"
  top: "conv1/7x7_s2"
}
layer {
  name: "pool1/3x3_s2"
  type: "Pooling"
  bottom: "conv1/7x7_s2"
  top: "pool1/3x3_s2"
  pooling_param {
    pool: MAX
    kernel_size: 3
    stride: 2
  }
}
layer {
  name: "pool1/norm1"
  type: "LRN"
  bottom: "pool1/3x3_s2"
  top: "pool1/norm1"
  lrn_param {
    local_size: 5
    alpha: 0.0001
    beta: 0.75
  }
}
layer {
  name: "conv2/3x3_reduce"
  type: "Convolution"
  bottom: "pool1/norm1"
  top: "conv2/3x3_reduce"
  param {
    lr_mult: 1
    decay_mult: 1
  }
  param {
    lr_mult: 2
    decay_mult: 0
  }
  convolution_param {
    num_output: 64
    kernel_size: 1
    weight_filler {
      type: "xavier"
      std: 0.1
    }
    bias_filler {
      type: "constant"
      value: 0.2
    }
  }
}
layer {
  name: "conv2/relu_3x3_reduce"
  type: "ReLU"
  bottom: "conv2/3x3_reduce"
  top: "conv2/3x3_reduce"
}
layer {
  name: "conv2/3x3"
  type: "Convolution"
  bottom: "conv2/3x3_reduce"
  top: "conv2/3x3"
  param {
    lr_mult: 1
    decay_mult: 1
  }
  param {
    lr_mult: 2
    decay_mult: 0
  }
  convolution_param {
    num_output: 192
    pad: 1
    kernel_size: 3
    weight_filler {
      type: "xavier"
      std: 0.03
    }
    bias_filler {
      type: "constant"
      value: 0.2
    }
  }
}
layer {
  name: "conv2/relu_3x3"
  type: "ReLU"
  bottom: "conv2/3x3"
  top: "conv2/3x3"
}
layer {
  name: "conv2/norm2"
  type: "LRN"
  bottom: "conv2/3x3"
  top: "conv2/norm2"
  lrn_param {
    local_size: 5
    alpha: 0.0001
    beta: 0.75
  }
}
layer {
  name: "pool2/3x3_s2"
  type: "Pooling"
  bottom: "conv2/norm2"
  top: "pool2/3x3_s2"
  pooling_param {
    pool: MAX
    kernel_size: 3
    stride: 2
  }
}
layer {
  name: "inception_3a/1x1"
  type: "Convolution"
  bottom: "pool2/3x3_s2"
  top: "inception_3a/1x1"
  param {
    lr_mult: 1
    decay_mult: 1
  }
  param {
    lr_mult: 2
    decay_mult: 0
  }
  convolution_param {
    num_output: 64
    kernel_size: 1
    weight_filler {
      type: "xavier"
      std: 0.03
    }
    bias_filler {
      type: "constant"
      value: 0.2
    }
  }
}
layer {
  name: "inception_3a/relu_1x1"
  type: "ReLU"
  bottom: "inception_3a/1x1"
  top: "inception_3a/1x1"
}
layer {
  name: "inception_3a/3x3_reduce"
  type: "Convolution"
  bottom: "pool2/3x3_s2"
  top: "inception_3a/3x3_reduce"
  param {
    lr_mult: 1
    decay_mult: 1
  }
  param {
    lr_mult: 2
    decay_mult: 0
  }
  convolution_param {
    num_output: 96
    kernel_size: 1
    weight_filler {
      type: "xavier"
      std: 0.09
    }
    bias_filler {
      type: "constant"
      value: 0.2
    }
  }
}
layer {
  name: "inception_3a/relu_3x3_reduce"
  type: "ReLU"
  bottom: "inception_3a/3x3_reduce"
  top: "inception_3a/3x3_reduce"
}
layer {
  name: "inception_3a/3x3"
  type: "Convolution"
  bottom: "inception_3a/3x3_reduce"
  top: "inception_3a/3x3"
  param {
    lr_mult: 1
    decay_mult: 1
  }
  param {
    lr_mult: 2
    decay_mult: 0
  }
  convolution_param {
    num_output: 128
    pad: 1
    kernel_size: 3
    weight_filler {
      type: "xavier"
      std: 0.03
    }
    bias_filler {
      type: "constant"
      value: 0.2
    }
  }
}
layer {
  name: "inception_3a/relu_3x3"
  type: "ReLU"
  bottom: "inception_3a/3x3"
  top: "inception_3a/3x3"
}
layer {
  name: "inception_3a/5x5_reduce"
  type: "Convolution"
  bottom: "pool2/3x3_s2"
  top: "inception_3a/5x5_reduce"
  param {
    lr_mult: 1
    decay_mult: 1
  }
  param {
    lr_mult: 2
    decay_mult: 0
  }
  convolution_param {
    num_output: 16
    kernel_size: 1
    weight_filler {
      type: "xavier"
      std: 0.2
    }
    bias_filler {
      type: "constant"
      value: 0.2
    }
  }
}
layer {
  name: "inception_3a/relu_5x5_reduce"
  type: "ReLU"
  bottom: "inception_3a/5x5_reduce"
  top: "inception_3a/5x5_reduce"
}
layer {
  name: "inception_3a/5x5"
  type: "Convolution"
  bottom: "inception_3a/5x5_reduce"
  top: "inception_3a/5x5"
  param {
    lr_mult: 1
    decay_mult: 1
  }
  param {
    lr_mult: 2
    decay_mult: 0
  }
  convolution_param {
    num_output: 32
    pad: 2
    kernel_size: 5
    weight_filler {
      type: "xavier"
      std: 0.03
    }
    bias_filler {
      type: "constant"
      value: 0.2
    }
  }
}
layer {
  name: "inception_3a/relu_5x5"
  type: "ReLU"
  bottom: "inception_3a/5x5"
  top: "inception_3a/5x5"
}
layer {
  name: "inception_3a/pool"
  type: "Pooling"
  bottom: "pool2/3x3_s2"
  top: "inception_3a/pool"
  pooling_param {
    pool: MAX
    kernel_size: 3
    stride: 1
    pad: 1
  }
}
layer {
  name: "inception_3a/pool_proj"
  type: "Convolution"
  bottom: "inception_3a/pool"
  top: "inception_3a/pool_proj"
  param {
    lr_mult: 1
    decay_mult: 1
  }
  param {
    lr_mult: 2
    decay_mult: 0
  }
  convolution_param {
    num_output: 32
    kernel_size: 1
    weight_filler {
      type: "xavier"
      std: 0.1
    }
    bias_filler {
      type: "constant"
      value: 0.2
    }
  }
}
layer {
  name: "inception_3a/relu_pool_proj"
  type: "ReLU"
  bottom: "inception_3a/pool_proj"
  top: "inception_3a/pool_proj"
}
layer {
  name: "inception_3a/output"
  type: "Concat"
  bottom: "inception_3a/1x1"
  bottom: "inception_3a/3x3"
  bottom: "inception_3a/5x5"
  bottom: "inception_3a/pool_proj"
  top: "inception_3a/output"
}
layer {
  name: "inception_3b/1x1"
  type: "Convolution"
  bottom: "inception_3a/output"
  top: "inception_3b/1x1"
  param {
    lr_mult: 1
    decay_mult: 1
  }
  param {
    lr_mult: 2
    decay_mult: 0
  }
  convolution_param {
    num_output: 128
    kernel_size: 1
    weight_filler {
      type: "xavier"
      std: 0.03
    }
    bias_filler {
      type: "constant"
      value: 0.2
    }
  }
}
layer {
  name: "inception_3b/relu_1x1"
  type: "ReLU"
  bottom: "inception_3b/1x1"
  top: "inception_3b/1x1"
}
layer {
  name: "inception_3b/3x3_reduce"
  type: "Convolution"
  bottom: "inception_3a/output"
  top: "inception_3b/3x3_reduce"
  param {
    lr_mult: 1
    decay_mult: 1
  }
  param {
    lr_mult: 2
    decay_mult: 0
  }
  convolution_param {
    num_output: 128
    kernel_size: 1
    weight_filler {
      type: "xavier"
      std: 0.09
    }
    bias_filler {
      type: "constant"
      value: 0.2
    }
  }
}
layer {
  name: "inception_3b/relu_3x3_reduce"
  type: "ReLU"
  bottom: "inception_3b/3x3_reduce"
  top: "inception_3b/3x3_reduce"
}
layer {
  name: "inception_3b/3x3"
  type: "Convolution"
  bottom: "inception_3b/3x3_reduce"
  top: "inception_3b/3x3"
  param {
    lr_mult: 1
    decay_mult: 1
  }
  param {
    lr_mult: 2
    decay_mult: 0
  }
  convolution_param {
    num_output: 192
    pad: 1
    kernel_size: 3
    weight_filler {
      type: "xavier"
      std: 0.03
    }
    bias_filler {
      type: "constant"
      value: 0.2
    }
  }
}
layer {
  name: "inception_3b/relu_3x3"
  type: "ReLU"
  bottom: "inception_3b/3x3"
  top: "inception_3b/3x3"
}
layer {
  name: "inception_3b/5x5_reduce"
  type: "Convolution"
  bottom: "inception_3a/output"
  top: "inception_3b/5x5_reduce"
  param {
    lr_mult: 1
    decay_mult: 1
  }
  param {
    lr_mult: 2
    decay_mult: 0
  }
  convolution_param {
    num_output: 32
    kernel_size: 1
    weight_filler {
      type: "xavier"
      std: 0.2
    }
    bias_filler {
      type: "constant"
      value: 0.2
    }
  }
}
layer {
  name: "inception_3b/relu_5x5_reduce"
  type: "ReLU"
  bottom: "inception_3b/5x5_reduce"
  top: "inception_3b/5x5_reduce"
}
layer {
  name: "inception_3b/5x5"
  type: "Convolution"
  bottom: "inception_3b/5x5_reduce"
  top: "inception_3b/5x5"
  param {
    lr_mult: 1
    decay_mult: 1
  }
  param {
    lr_mult: 2
    decay_mult: 0
  }
  convolution_param {
    num_output: 96
    pad: 2
    kernel_size: 5
    weight_filler {
      type: "xavier"
      std: 0.03
    }
    bias_filler {
      type: "constant"
      value: 0.2
    }
  }
}
layer {
  name: "inception_3b/relu_5x5"
  type: "ReLU"
  bottom: "inception_3b/5x5"
  top: "inception_3b/5x5"
}
layer {
  name: "inception_3b/pool"
  type: "Pooling"
  bottom: "inception_3a/output"
  top: "inception_3b/pool"
  pooling_param {
    pool: MAX
    kernel_size: 3
    stride: 1
    pad: 1
  }
}
layer {
  name: "inception_3b/pool_proj"
  type: "Convolution"
  bottom: "inception_3b/pool"
  top: "inception_3b/pool_proj"
  param {
    lr_mult: 1
    decay_mult: 1
  }
  param {
    lr_mult: 2
    decay_mult: 0
  }
  convolution_param {
    num_output: 64
    kernel_size: 1
    weight_filler {
      type: "xavier"
      std: 0.1
    }
    bias_filler {
      type: "constant"
      value: 0.2
    }
  }
}
layer {
  name: "inception_3b/relu_pool_proj"
  type: "ReLU"
  bottom: "inception_3b/pool_proj"
  top: "inception_3b/pool_proj"
}
layer {
  name: "inception_3b/output"
  type: "Concat"
  bottom: "inception_3b/1x1"
  bottom: "inception_3b/3x3"
  bottom: "inception_3b/5x5"
  bottom: "inception_3b/pool_proj"
  top: "inception_3b/output"
}
layer {
  name: "pool3/3x3_s2"
  type: "Pooling"
  bottom: "inception_3b/output"
  top: "pool3/3x3_s2"
  pooling_param {
    pool: MAX
    kernel_size: 3
    stride: 2
  }
}
layer {
  name: "inception_4a/1x1"
  type: "Convolution"
  bottom: "pool3/3x3_s2"
  top: "inception_4a/1x1"
  param {
    lr_mult: 1
    decay_mult: 1
  }
  param {
    lr_mult: 2
    decay_mult: 0
  }
  convolution_param {
    num_output: 192
    kernel_size: 1
    weight_filler {
      type: "xavier"
      std: 0.03
    }
    bias_filler {
      type: "constant"
      value: 0.2
    }
  }
}
layer {
  name: "inception_4a/relu_1x1"
  type: "ReLU"
  bottom: "inception_4a/1x1"
  top: "inception_4a/1x1"
}
layer {
  name: "inception_4a/3x3_reduce"
  type: "Convolution"
  bottom: "pool3/3x3_s2"
  top: "inception_4a/3x3_reduce"
  param {
    lr_mult: 1
    decay_mult: 1
  }
  param {
    lr_mult: 2
    decay_mult: 0
  }
  convolution_param {
    num_output: 96
    kernel_size: 1
    weight_filler {
      type: "xavier"
      std: 0.09
    }
    bias_filler {
      type: "constant"
      value: 0.2
    }
  }
}
layer {
  name: "inception_4a/relu_3x3_reduce"
  type: "ReLU"
  bottom: "inception_4a/3x3_reduce"
  top: "inception_4a/3x3_reduce"
}
layer {
  name: "inception_4a/3x3"
  type: "Convolution"
  bottom: "inception_4a/3x3_reduce"
  top: "inception_4a/3x3"
  param {
    lr_mult: 1
    decay_mult: 1
  }
  param {
    lr_mult: 2
    decay_mult: 0
  }
  convolution_param {
    num_output: 208
    pad: 1
    kernel_size: 3
    weight_filler {
      type: "xavier"
      std: 0.03
    }
    bias_filler {
      type: "constant"
      value: 0.2
    }
  }
}
layer {
  name: "inception_4a/relu_3x3"
  type: "ReLU"
  bottom: "inception_4a/3x3"
  top: "inception_4a/3x3"
}
layer {
  name: "inception_4a/5x5_reduce"
  type: "Convolution"
  bottom: "pool3/3x3_s2"
  top: "inception_4a/5x5_reduce"
  param {
    lr_mult: 1
    decay_mult: 1
  }
  param {
    lr_mult: 2
    decay_mult: 0
  }
  convolution_param {
    num_output: 16
    kernel_size: 1
    weight_filler {
      type: "xavier"
      std: 0.2
    }
    bias_filler {
      type: "constant"
      value: 0.2
    }
  }
}
layer {
  name: "inception_4a/relu_5x5_reduce"
  type: "ReLU"
  bottom: "inception_4a/5x5_reduce"
  top: "inception_4a/5x5_reduce"
}
layer {
  name: "inception_4a/5x5"
  type: "Convolution"
  bottom: "inception_4a/5x5_reduce"
  top: "inception_4a/5x5"
  param {
    lr_mult: 1
    decay_mult: 1
  }
  param {
    lr_mult: 2
    decay_mult: 0
  }
  convolution_param {
    num_output: 48
    pad: 2
    kernel_size: 5
    weight_filler {
      type: "xavier"
      std: 0.03
    }
    bias_filler {
      type: "constant"
      value: 0.2
    }
  }
}
layer {
  name: "inception_4a/relu_5x5"
  type: "ReLU"
  bottom: "inception_4a/5x5"
  top: "inception_4a/5x5"
}
layer {
  name: "inception_4a/pool"
  type: "Pooling"
  bottom: "pool3/3x3_s2"
  top: "inception_4a/pool"
  pooling_param {
    pool: MAX
    kernel_size: 3
    stride: 1
    pad: 1
  }
}
layer {
  name: "inception_4a/pool_proj"
  type: "Convolution"
  bottom: "inception_4a/pool"
  top: "inception_4a/pool_proj"
  param {
    lr_mult: 1
    decay_mult: 1
  }
  param {
    lr_mult: 2
    decay_mult: 0
  }
  convolution_param {
    num_output: 64
    kernel_size: 1
    weight_filler {
      type: "xavier"
      std: 0.1
    }
    bias_filler {
      type: "constant"
      value: 0.2
    }
  }
}
layer {
  name: "inception_4a/relu_pool_proj"
  type: "ReLU"
  bottom: "inception_4a/pool_proj"
  top: "inception_4a/pool_proj"
}
layer {
  name: "inception_4a/output"
  type: "Concat"
  bottom: "inception_4a/1x1"
  bottom: "inception_4a/3x3"
  bottom: "inception_4a/5x5"
  bottom: "inception_4a/pool_proj"
  top: "inception_4a/output"
}
layer {
  name: "loss1/ave_pool"
  type: "Pooling"
  bottom: "inception_4a/output"
  top: "loss1/ave_pool"
  pooling_param {
    pool: AVE
    kernel_size: 5
    stride: 3
  }
}
layer {
  name: "loss1/conv"
  type: "Convolution"
  bottom: "loss1/ave_pool"
  top: "loss1/conv"
  param {
    lr_mult: 1
    decay_mult: 1
  }
  param {
    lr_mult: 2
    decay_mult: 0
  }
  convolution_param {
    num_output: 128
    kernel_size: 1
    weight_filler {
      type: "xavier"
      std: 0.08
    }
    bias_filler {
      type: "constant"
      value: 0.2
    }
  }
}
layer {
  name: "loss1/relu_conv"
  type: "ReLU"
  bottom: "loss1/conv"
  top: "loss1/conv"
}
layer {
  name: "loss1/fc"
  type: "InnerProduct"
  bottom: "loss1/conv"
  top: "loss1/fc"
  param {
    lr_mult: 1
    decay_mult: 1
  }
  param {
    lr_mult: 2
    decay_mult: 0
  }
  inner_product_param {
    num_output: 1024
    weight_filler {
      type: "xavier"
      std: 0.02
    }
    bias_filler {
      type: "constant"
      value: 0.2
    }
  }
}
layer {
  name: "loss1/relu_fc"
  type: "ReLU"
  bottom: "loss1/fc"
  top: "loss1/fc"
}
layer {
  name: "loss1/drop_fc"
  type: "Dropout"
  bottom: "loss1/fc"
  top: "loss1/fc"
  dropout_param {
    dropout_ratio: 0.7
  }
}
layer {
  name: "loss1/classifier_plantvillage"
  type: "InnerProduct"
  bottom: "loss1/fc"
  top: "loss1/classifier_plantvillage"
  param {
    lr_mult: 1
    decay_mult: 1
  }
  param {
    lr_mult: 2
    decay_mult: 0
  }
  inner_product_param {
    num_output: 38
    weight_filler {
      type: "xavier"
      std: 0.0009765625
    }
    bias_filler {
      type: "constant"
      value: 0
    }
  }
}
layer {
  name: "inception_4b/1x1"
  type: "Convolution"
  bottom: "inception_4a/output"
  top: "inception_4b/1x1"
  param {
    lr_mult: 1
    decay_mult: 1
  }
  param {
    lr_mult: 2
    decay_mult: 0
  }
  convolution_param {
    num_output: 160
    kernel_size: 1
    weight_filler {
      type: "xavier"
      std: 0.03
    }
    bias_filler {
      type: "constant"
      value: 0.2
    }
  }
}
layer {
  name: "inception_4b/relu_1x1"
  type: "ReLU"
  bottom: "inception_4b/1x1"
  top: "inception_4b/1x1"
}
layer {
  name: "inception_4b/3x3_reduce"
  type: "Convolution"
  bottom: "inception_4a/output"
  top: "inception_4b/3x3_reduce"
  param {
    lr_mult: 1
    decay_mult: 1
  }
  param {
    lr_mult: 2
    decay_mult: 0
  }
  convolution_param {
    num_output: 112
    kernel_size: 1
    weight_filler {
      type: "xavier"
      std: 0.09
    }
    bias_filler {
      type: "constant"
      value: 0.2
    }
  }
}
layer {
  name: "inception_4b/relu_3x3_reduce"
  type: "ReLU"
  bottom: "inception_4b/3x3_reduce"
  top: "inception_4b/3x3_reduce"
}
layer {
  name: "inception_4b/3x3"
  type: "Convolution"
  bottom: "inception_4b/3x3_reduce"
  top: "inception_4b/3x3"
  param {
    lr_mult: 1
    decay_mult: 1
  }
  param {
    lr_mult: 2
    decay_mult: 0
  }
  convolution_param {
    num_output: 224
    pad: 1
    kernel_size: 3
    weight_filler {
      type: "xavier"
      std: 0.03
    }
    bias_filler {
      type: "constant"
      value: 0.2
    }
  }
}
layer {
  name: "inception_4b/relu_3x3"
  type: "ReLU"
  bottom: "inception_4b/3x3"
  top: "inception_4b/3x3"
}
layer {
  name: "inception_4b/5x5_reduce"
  type: "Convolution"
  bottom: "inception_4a/output"
  top: "inception_4b/5x5_reduce"
  param {
    lr_mult: 1
    decay_mult: 1
  }
  param {
    lr_mult: 2
    decay_mult: 0
  }
  convolution_param {
    num_output: 24
    kernel_size: 1
    weight_filler {
      type: "xavier"
      std: 0.2
    }
    bias_filler {
      type: "constant"
      value: 0.2
    }
  }
}
layer {
  name: "inception_4b/relu_5x5_reduce"
  type: "ReLU"
  bottom: "inception_4b/5x5_reduce"
  top: "inception_4b/5x5_reduce"
}
layer {
  name: "inception_4b/5x5"
  type: "Convolution"
  bottom: "inception_4b/5x5_reduce"
  top: "inception_4b/5x5"
  param {
    lr_mult: 1
    decay_mult: 1
  }
  param {
    lr_mult: 2
    decay_mult: 0
  }
  convolution_param {
    num_output: 64
    pad: 2
    kernel_size: 5
    weight_filler {
      type: "xavier"
      std: 0.03
    }
    bias_filler {
      type: "constant"
      value: 0.2
    }
  }
}
layer {
  name: "inception_4b/relu_5x5"
  type: "ReLU"
  bottom: "inception_4b/5x5"
  top: "inception_4b/5x5"
}
layer {
  name: "inception_4b/pool"
  type: "Pooling"
  bottom: "inception_4a/output"
  top: "inception_4b/pool"
  pooling_param {
    pool: MAX
    kernel_size: 3
    stride: 1
    pad: 1
  }
}
layer {
  name: "inception_4b/pool_proj"
  type: "Convolution"
  bottom: "inception_4b/pool"
  top: "inception_4b/pool_proj"
  param {
    lr_mult: 1
    decay_mult: 1
  }
  param {
    lr_mult: 2
    decay_mult: 0
  }
  convolution_param {
    num_output: 64
    kernel_size: 1
    weight_filler {
      type: "xavier"
      std: 0.1
    }
    bias_filler {
      type: "constant"
      value: 0.2
    }
  }
}
layer {
  name: "inception_4b/relu_pool_proj"
  type: "ReLU"
  bottom: "inception_4b/pool_proj"
  top: "inception_4b/pool_proj"
}
layer {
  name: "inception_4b/output"
  type: "Concat"
  bottom: "inception_4b/1x1"
  bottom: "inception_4b/3x3"
  bottom: "inception_4b/5x5"
  bottom: "inception_4b/pool_proj"
  top: "inception_4b/output"
}
layer {
  name: "inception_4c/1x1"
  type: "Convolution"
  bottom: "inception_4b/output"
  top: "inception_4c/1x1"
  param {
    lr_mult: 1
    decay_mult: 1
  }
  param {
    lr_mult: 2
    decay_mult: 0
  }
  convolution_param {
    num_output: 128
    kernel_size: 1
    weight_filler {
      type: "xavier"
      std: 0.03
    }
    bias_filler {
      type: "constant"
      value: 0.2
    }
  }
}
layer {
  name: "inception_4c/relu_1x1"
  type: "ReLU"
  bottom: "inception_4c/1x1"
  top: "inception_4c/1x1"
}
layer {
  name: "inception_4c/3x3_reduce"
  type: "Convolution"
  bottom: "inception_4b/output"
  top: "inception_4c/3x3_reduce"
  param {
    lr_mult: 1
    decay_mult: 1
  }
  param {
    lr_mult: 2
    decay_mult: 0
  }
  convolution_param {
    num_output: 128
    kernel_size: 1
    weight_filler {
      type: "xavier"
      std: 0.09
    }
    bias_filler {
      type: "constant"
      value: 0.2
    }
  }
}
layer {
  name: "inception_4c/relu_3x3_reduce"
  type: "ReLU"
  bottom: "inception_4c/3x3_reduce"
  top: "inception_4c/3x3_reduce"
}
layer {
  name: "inception_4c/3x3"
  type: "Convolution"
  bottom: "inception_4c/3x3_reduce"
  top: "inception_4c/3x3"
  param {
    lr_mult: 1
    decay_mult: 1
  }
  param {
    lr_mult: 2
    decay_mult: 0
  }
  convolution_param {
    num_output: 256
    pad: 1
    kernel_size: 3
    weight_filler {
      type: "xavier"
      std: 0.03
    }
    bias_filler {
      type: "constant"
      value: 0.2
    }
  }
}
layer {
  name: "inception_4c/relu_3x3"
  type: "ReLU"
  bottom: "inception_4c/3x3"
  top: "inception_4c/3x3"
}
layer {
  name: "inception_4c/5x5_reduce"
  type: "Convolution"
  bottom: "inception_4b/output"
  top: "inception_4c/5x5_reduce"
  param {
    lr_mult: 1
    decay_mult: 1
  }
  param {
    lr_mult: 2
    decay_mult: 0
  }
  convolution_param {
    num_output: 24
    kernel_size: 1
    weight_filler {
      type: "xavier"
      std: 0.2
    }
    bias_filler {
      type: "constant"
      value: 0.2
    }
  }
}
layer {
  name: "inception_4c/relu_5x5_reduce"
  type: "ReLU"
  bottom: "inception_4c/5x5_reduce"
  top: "inception_4c/5x5_reduce"
}
layer {
  name: "inception_4c/5x5"
  type: "Convolution"
  bottom: "inception_4c/5x5_reduce"
  top: "inception_4c/5x5"
  param {
    lr_mult: 1
    decay_mult: 1
  }
  param {
    lr_mult: 2
    decay_mult: 0
  }
  convolution_param {
    num_output: 64
    pad: 2
    kernel_size: 5
    weight_filler {
      type: "xavier"
      std: 0.03
    }
    bias_filler {
      type: "constant"
      value: 0.2
    }
  }
}
layer {
  name: "inception_4c/relu_5x5"
  type: "ReLU"
  bottom: "inception_4c/5x5"
  top: "inception_4c/5x5"
}
layer {
  name: "inception_4c/pool"
  type: "Pooling"
  bottom: "inception_4b/output"
  top: "inception_4c/pool"
  pooling_param {
    pool: MAX
    kernel_size: 3
    stride: 1
    pad: 1
  }
}
layer {
  name: "inception_4c/pool_proj"
  type: "Convolution"
  bottom: "inception_4c/pool"
  top: "inception_4c/pool_proj"
  param {
    lr_mult: 1
    decay_mult: 1
  }
  param {
    lr_mult: 2
    decay_mult: 0
  }
  convolution_param {
    num_output: 64
    kernel_size: 1
    weight_filler {
      type: "xavier"
      std: 0.1
    }
    bias_filler {
      type: "constant"
      value: 0.2
    }
  }
}
layer {
  name: "inception_4c/relu_pool_proj"
  type: "ReLU"
  bottom: "inception_4c/pool_proj"
  top: "inception_4c/pool_proj"
}
layer {
  name: "inception_4c/output"
  type: "Concat"
  bottom: "inception_4c/1x1"
  bottom: "inception_4c/3x3"
  bottom: "inception_4c/5x5"
  bottom: "inception_4c/pool_proj"
  top: "inception_4c/output"
}
layer {
  name: "inception_4d/1x1"
  type: "Convolution"
  bottom: "inception_4c/output"
  top: "inception_4d/1x1"
  param {
    lr_mult: 1
    decay_mult: 1
  }
  param {
    lr_mult: 2
    decay_mult: 0
  }
  convolution_param {
    num_output: 112
    kernel_size: 1
    weight_filler {
      type: "xavier"
      std: 0.03
    }
    bias_filler {
      type: "constant"
      value: 0.2
    }
  }
}
layer {
  name: "inception_4d/relu_1x1"
  type: "ReLU"
  bottom: "inception_4d/1x1"
  top: "inception_4d/1x1"
}
layer {
  name: "inception_4d/3x3_reduce"
  type: "Convolution"
  bottom: "inception_4c/output"
  top: "inception_4d/3x3_reduce"
  param {
    lr_mult: 1
    decay_mult: 1
  }
  param {
    lr_mult: 2
    decay_mult: 0
  }
  convolution_param {
    num_output: 144
    kernel_size: 1
    weight_filler {
      type: "xavier"
      std: 0.09
    }
    bias_filler {
      type: "constant"
      value: 0.2
    }
  }
}
layer {
  name: "inception_4d/relu_3x3_reduce"
  type: "ReLU"
  bottom: "inception_4d/3x3_reduce"
  top: "inception_4d/3x3_reduce"
}
layer {
  name: "inception_4d/3x3"
  type: "Convolution"
  bottom: "inception_4d/3x3_reduce"
  top: "inception_4d/3x3"
  param {
    lr_mult: 1
    decay_mult: 1
  }
  param {
    lr_mult: 2
    decay_mult: 0
  }
  convolution_param {
    num_output: 288
    pad: 1
    kernel_size: 3
    weight_filler {
      type: "xavier"
      std: 0.03
    }
    bias_filler {
      type: "constant"
      value: 0.2
    }
  }
}
layer {
  name: "inception_4d/relu_3x3"
  type: "ReLU"
  bottom: "inception_4d/3x3"
  top: "inception_4d/3x3"
}
layer {
  name: "inception_4d/5x5_reduce"
  type: "Convolution"
  bottom: "inception_4c/output"
  top: "inception_4d/5x5_reduce"
  param {
    lr_mult: 1
    decay_mult: 1
  }
  param {
    lr_mult: 2
    decay_mult: 0
  }
  convolution_param {
    num_output: 32
    kernel_size: 1
    weight_filler {
      type: "xavier"
      std: 0.2
    }
    bias_filler {
      type: "constant"
      value: 0.2
    }
  }
}
layer {
  name: "inception_4d/relu_5x5_reduce"
  type: "ReLU"
  bottom: "inception_4d/5x5_reduce"
  top: "inception_4d/5x5_reduce"
}
layer {
  name: "inception_4d/5x5"
  type: "Convolution"
  bottom: "inception_4d/5x5_reduce"
  top: "inception_4d/5x5"
  param {
    lr_mult: 1
    decay_mult: 1
  }
  param {
    lr_mult: 2
    decay_mult: 0
  }
  convolution_param {
    num_output: 64
    pad: 2
    kernel_size: 5
    weight_filler {
      type: "xavier"
      std: 0.03
    }
    bias_filler {
      type: "constant"
      value: 0.2
    }
  }
}
layer {
  name: "inception_4d/relu_5x5"
  type: "ReLU"
  bottom: "inception_4d/5x5"
  top: "inception_4d/5x5"
}
layer {
  name: "inception_4d/pool"
  type: "Pooling"
  bottom: "inception_4c/output"
  top: "inception_4d/pool"
  pooling_param {
    pool: MAX
    kernel_size: 3
    stride: 1
    pad: 1
  }
}
layer {
  name: "inception_4d/pool_proj"
  type: "Convolution"
  bottom: "inception_4d/pool"
  top: "inception_4d/pool_proj"
  param {
    lr_mult: 1
    decay_mult: 1
  }
  param {
    lr_mult: 2
    decay_mult: 0
  }
  convolution_param {
    num_output: 64
    kernel_size: 1
    weight_filler {
      type: "xavier"
      std: 0.1
    }
    bias_filler {
      type: "constant"
      value: 0.2
    }
  }
}
layer {
  name: "inception_4d/relu_pool_proj"
  type: "ReLU"
  bottom: "inception_4d/pool_proj"
  top: "inception_4d/pool_proj"
}
layer {
  name: "inception_4d/output"
  type: "Concat"
  bottom: "inception_4d/1x1"
  bottom: "inception_4d/3x3"
  bottom: "inception_4d/5x5"
  bottom: "inception_4d/pool_proj"
  top: "inception_4d/output"
}
layer {
  name: "loss2/ave_pool"
  type: "Pooling"
  bottom: "inception_4d/output"
  top: "loss2/ave_pool"
  pooling_param {
    pool: AVE
    kernel_size: 5
    stride: 3
  }
}
layer {
  name: "loss2/conv"
  type: "Convolution"
  bottom: "loss2/ave_pool"
  top: "loss2/conv"
  param {
    lr_mult: 1
    decay_mult: 1
  }
  param {
    lr_mult: 2
    decay_mult: 0
  }
  convolution_param {
    num_output: 128
    kernel_size: 1
    weight_filler {
      type: "xavier"
      std: 0.08
    }
    bias_filler {
      type: "constant"
      value: 0.2
    }
  }
}
layer {
  name: "loss2/relu_conv"
  type: "ReLU"
  bottom: "loss2/conv"
  top: "loss2/conv"
}
layer {
  name: "loss2/fc"
  type: "InnerProduct"
  bottom: "loss2/conv"
  top: "loss2/fc"
  param {
    lr_mult: 1
    decay_mult: 1
  }
  param {
    lr_mult: 2
    decay_mult: 0
  }
  inner_product_param {
    num_output: 1024
    weight_filler {
      type: "xavier"
      std: 0.02
    }
    bias_filler {
      type: "constant"
      value: 0.2
    }
  }
}
layer {
  name: "loss2/relu_fc"
  type: "ReLU"
  bottom: "loss2/fc"
  top: "loss2/fc"
}
layer {
  name: "loss2/drop_fc"
  type: "Dropout"
  bottom: "loss2/fc"
  top: "loss2/fc"
  dropout_param {
    dropout_ratio: 0.7
  }
}
layer {
  name: "loss2/classifier_plantvillage"
  type: "InnerProduct"
  bottom: "loss2/fc"
  top: "loss2/classifier_plantvillage"
  param {
    lr_mult: 1
    decay_mult: 1
  }
  param {
    lr_mult: 2
    decay_mult: 0
  }
  inner_product_param {
    num_output: 38
    weight_filler {
      type: "xavier"
      std: 0.0009765625
    }
    bias_filler {
      type: "constant"
      value: 0
    }
  }
}
layer {
  name: "inception_4e/1x1"
  type: "Convolution"
  bottom: "inception_4d/output"
  top: "inception_4e/1x1"
  param {
    lr_mult: 1
    decay_mult: 1
  }
  param {
    lr_mult: 2
    decay_mult: 0
  }
  convolution_param {
    num_output: 256
    kernel_size: 1
    weight_filler {
      type: "xavier"
      std: 0.03
    }
    bias_filler {
      type: "constant"
      value: 0.2
    }
  }
}
layer {
  name: "inception_4e/relu_1x1"
  type: "ReLU"
  bottom: "inception_4e/1x1"
  top: "inception_4e/1x1"
}
layer {
  name: "inception_4e/3x3_reduce"
  type: "Convolution"
  bottom: "inception_4d/output"
  top: "inception_4e/3x3_reduce"
  param {
    lr_mult: 1
    decay_mult: 1
  }
  param {
    lr_mult: 2
    decay_mult: 0
  }
  convolution_param {
    num_output: 160
    kernel_size: 1
    weight_filler {
      type: "xavier"
      std: 0.09
    }
    bias_filler {
      type: "constant"
      value: 0.2
    }
  }
}
layer {
  name: "inception_4e/relu_3x3_reduce"
  type: "ReLU"
  bottom: "inception_4e/3x3_reduce"
  top: "inception_4e/3x3_reduce"
}
layer {
  name: "inception_4e/3x3"
  type: "Convolution"
  bottom: "inception_4e/3x3_reduce"
  top: "inception_4e/3x3"
  param {
    lr_mult: 1
    decay_mult: 1
  }
  param {
    lr_mult: 2
    decay_mult: 0
  }
  convolution_param {
    num_output: 320
    pad: 1
    kernel_size: 3
    weight_filler {
      type: "xavier"
      std: 0.03
    }
    bias_filler {
      type: "constant"
      value: 0.2
    }
  }
}
layer {
  name: "inception_4e/relu_3x3"
  type: "ReLU"
  bottom: "inception_4e/3x3"
  top: "inception_4e/3x3"
}
layer {
  name: "inception_4e/5x5_reduce"
  type: "Convolution"
  bottom: "inception_4d/output"
  top: "inception_4e/5x5_reduce"
  param {
    lr_mult: 1
    decay_mult: 1
  }
  param {
    lr_mult: 2
    decay_mult: 0
  }
  convolution_param {
    num_output: 32
    kernel_size: 1
    weight_filler {
      type: "xavier"
      std: 0.2
    }
    bias_filler {
      type: "constant"
      value: 0.2
    }
  }
}
layer {
  name: "inception_4e/relu_5x5_reduce"
  type: "ReLU"
  bottom: "inception_4e/5x5_reduce"
  top: "inception_4e/5x5_reduce"
}
layer {
  name: "inception_4e/5x5"
  type: "Convolution"
  bottom: "inception_4e/5x5_reduce"
  top: "inception_4e/
I0403 15:34:40.151309 20033 layer_factory.hpp:77] Creating layer data
I0403 15:34:40.152034 20033 net.cpp:91] Creating Layer data
I0403 15:34:40.152072 20033 net.cpp:399] data -> data
I0403 15:34:40.152132 20033 net.cpp:399] data -> label
I0403 15:34:40.152174 20033 data_transformer.cpp:25] Loading mean file from: /home/mohanty/data/final_dataset/lmdb/grayscale-40-60/mean.binaryproto
I0403 15:34:40.155514 20036 db_lmdb.cpp:38] Opened lmdb /home/mohanty/data/final_dataset/lmdb/grayscale-40-60/test_db
I0403 15:34:40.167913 20033 data_layer.cpp:41] output data size: 24,3,224,224
I0403 15:34:40.202409 20033 net.cpp:141] Setting up data
I0403 15:34:40.202508 20033 net.cpp:148] Top shape: 24 3 224 224 (3612672)
I0403 15:34:40.202536 20033 net.cpp:148] Top shape: 24 (24)
I0403 15:34:40.202553 20033 net.cpp:156] Memory required for data: 14450784
I0403 15:34:40.202585 20033 layer_factory.hpp:77] Creating layer label_data_1_split
I0403 15:34:40.202616 20033 net.cpp:91] Creating Layer label_data_1_split
I0403 15:34:40.202637 20033 net.cpp:425] label_data_1_split <- label
I0403 15:34:40.202674 20033 net.cpp:399] label_data_1_split -> label_data_1_split_0
I0403 15:34:40.202708 20033 net.cpp:399] label_data_1_split -> label_data_1_split_1
I0403 15:34:40.202734 20033 net.cpp:399] label_data_1_split -> label_data_1_split_2
I0403 15:34:40.202759 20033 net.cpp:399] label_data_1_split -> label_data_1_split_3
I0403 15:34:40.202782 20033 net.cpp:399] label_data_1_split -> label_data_1_split_4
I0403 15:34:40.202805 20033 net.cpp:399] label_data_1_split -> label_data_1_split_5
I0403 15:34:40.202829 20033 net.cpp:399] label_data_1_split -> label_data_1_split_6
I0403 15:34:40.202853 20033 net.cpp:399] label_data_1_split -> label_data_1_split_7
I0403 15:34:40.202877 20033 net.cpp:399] label_data_1_split -> label_data_1_split_8
I0403 15:34:40.202901 20033 net.cpp:399] label_data_1_split -> label_data_1_split_9
I0403 15:34:40.203049 20033 net.cpp:141] Setting up label_data_1_split
I0403 15:34:40.203079 20033 net.cpp:148] Top shape: 24 (24)
I0403 15:34:40.203099 20033 net.cpp:148] Top shape: 24 (24)
I0403 15:34:40.203117 20033 net.cpp:148] Top shape: 24 (24)
I0403 15:34:40.203135 20033 net.cpp:148] Top shape: 24 (24)
I0403 15:34:40.203155 20033 net.cpp:148] Top shape: 24 (24)
I0403 15:34:40.203173 20033 net.cpp:148] Top shape: 24 (24)
I0403 15:34:40.203194 20033 net.cpp:148] Top shape: 24 (24)
I0403 15:34:40.203212 20033 net.cpp:148] Top shape: 24 (24)
I0403 15:34:40.203232 20033 net.cpp:148] Top shape: 24 (24)
I0403 15:34:40.203249 20033 net.cpp:148] Top shape: 24 (24)
I0403 15:34:40.203302 20033 net.cpp:156] Memory required for data: 14451744
I0403 15:34:40.203322 20033 layer_factory.hpp:77] Creating layer conv1/7x7_s2
I0403 15:34:40.203361 20033 net.cpp:91] Creating Layer conv1/7x7_s2
I0403 15:34:40.203383 20033 net.cpp:425] conv1/7x7_s2 <- data
I0403 15:34:40.203407 20033 net.cpp:399] conv1/7x7_s2 -> conv1/7x7_s2
I0403 15:34:40.374219 20033 net.cpp:141] Setting up conv1/7x7_s2
I0403 15:34:40.374318 20033 net.cpp:148] Top shape: 24 64 112 112 (19267584)
I0403 15:34:40.374338 20033 net.cpp:156] Memory required for data: 91522080
I0403 15:34:40.374377 20033 layer_factory.hpp:77] Creating layer conv1/relu_7x7
I0403 15:34:40.374408 20033 net.cpp:91] Creating Layer conv1/relu_7x7
I0403 15:34:40.374430 20033 net.cpp:425] conv1/relu_7x7 <- conv1/7x7_s2
I0403 15:34:40.374454 20033 net.cpp:386] conv1/relu_7x7 -> conv1/7x7_s2 (in-place)
I0403 15:34:40.374758 20033 net.cpp:141] Setting up conv1/relu_7x7
I0403 15:34:40.374790 20033 net.cpp:148] Top shape: 24 64 112 112 (19267584)
I0403 15:34:40.374809 20033 net.cpp:156] Memory required for data: 168592416
I0403 15:34:40.374826 20033 layer_factory.hpp:77] Creating layer pool1/3x3_s2
I0403 15:34:40.374856 20033 net.cpp:91] Creating Layer pool1/3x3_s2
I0403 15:34:40.374878 20033 net.cpp:425] pool1/3x3_s2 <- conv1/7x7_s2
I0403 15:34:40.374900 20033 net.cpp:399] pool1/3x3_s2 -> pool1/3x3_s2
I0403 15:34:40.374995 20033 net.cpp:141] Setting up pool1/3x3_s2
I0403 15:34:40.375025 20033 net.cpp:148] Top shape: 24 64 56 56 (4816896)
I0403 15:34:40.375041 20033 net.cpp:156] Memory required for data: 187860000
I0403 15:34:40.375059 20033 layer_factory.hpp:77] Creating layer pool1/norm1
I0403 15:34:40.375088 20033 net.cpp:91] Creating Layer pool1/norm1
I0403 15:34:40.375108 20033 net.cpp:425] pool1/norm1 <- pool1/3x3_s2
I0403 15:34:40.375130 20033 net.cpp:399] pool1/norm1 -> pool1/norm1
I0403 15:34:40.380206 20033 net.cpp:141] Setting up pool1/norm1
I0403 15:34:40.380240 20033 net.cpp:148] Top shape: 24 64 56 56 (4816896)
I0403 15:34:40.380259 20033 net.cpp:156] Memory required for data: 207127584
I0403 15:34:40.380277 20033 layer_factory.hpp:77] Creating layer conv2/3x3_reduce
I0403 15:34:40.380306 20033 net.cpp:91] Creating Layer conv2/3x3_reduce
I0403 15:34:40.380326 20033 net.cpp:425] conv2/3x3_reduce <- pool1/norm1
I0403 15:34:40.380349 20033 net.cpp:399] conv2/3x3_reduce -> conv2/3x3_reduce
I0403 15:34:40.382072 20033 net.cpp:141] Setting up conv2/3x3_reduce
I0403 15:34:40.382112 20033 net.cpp:148] Top shape: 24 64 56 56 (4816896)
I0403 15:34:40.382134 20033 net.cpp:156] Memory required for data: 226395168
I0403 15:34:40.382164 20033 layer_factory.hpp:77] Creating layer conv2/relu_3x3_reduce
I0403 15:34:40.382189 20033 net.cpp:91] Creating Layer conv2/relu_3x3_reduce
I0403 15:34:40.382212 20033 net.cpp:425] conv2/relu_3x3_reduce <- conv2/3x3_reduce
I0403 15:34:40.382236 20033 net.cpp:386] conv2/relu_3x3_reduce -> conv2/3x3_reduce (in-place)
I0403 15:34:40.382585 20033 net.cpp:141] Setting up conv2/relu_3x3_reduce
I0403 15:34:40.382622 20033 net.cpp:148] Top shape: 24 64 56 56 (4816896)
I0403 15:34:40.382642 20033 net.cpp:156] Memory required for data: 245662752
I0403 15:34:40.382663 20033 layer_factory.hpp:77] Creating layer conv2/3x3
I0403 15:34:40.382694 20033 net.cpp:91] Creating Layer conv2/3x3
I0403 15:34:40.382715 20033 net.cpp:425] conv2/3x3 <- conv2/3x3_reduce
I0403 15:34:40.382760 20033 net.cpp:399] conv2/3x3 -> conv2/3x3
I0403 15:34:40.386831 20033 net.cpp:141] Setting up conv2/3x3
I0403 15:34:40.386885 20033 net.cpp:148] Top shape: 24 192 56 56 (14450688)
I0403 15:34:40.386915 20033 net.cpp:156] Memory required for data: 303465504
I0403 15:34:40.386960 20033 layer_factory.hpp:77] Creating layer conv2/relu_3x3
I0403 15:34:40.387002 20033 net.cpp:91] Creating Layer conv2/relu_3x3
I0403 15:34:40.387032 20033 net.cpp:425] conv2/relu_3x3 <- conv2/3x3
I0403 15:34:40.387065 20033 net.cpp:386] conv2/relu_3x3 -> conv2/3x3 (in-place)
I0403 15:34:40.387403 20033 net.cpp:141] Setting up conv2/relu_3x3
I0403 15:34:40.387449 20033 net.cpp:148] Top shape: 24 192 56 56 (14450688)
I0403 15:34:40.387521 20033 net.cpp:156] Memory required for data: 361268256
I0403 15:34:40.387550 20033 layer_factory.hpp:77] Creating layer conv2/norm2
I0403 15:34:40.387583 20033 net.cpp:91] Creating Layer conv2/norm2
I0403 15:34:40.387611 20033 net.cpp:425] conv2/norm2 <- conv2/3x3
I0403 15:34:40.387648 20033 net.cpp:399] conv2/norm2 -> conv2/norm2
I0403 15:34:40.388196 20033 net.cpp:141] Setting up conv2/norm2
I0403 15:34:40.388247 20033 net.cpp:148] Top shape: 24 192 56 56 (14450688)
I0403 15:34:40.388273 20033 net.cpp:156] Memory required for data: 419071008
I0403 15:34:40.388301 20033 layer_factory.hpp:77] Creating layer pool2/3x3_s2
I0403 15:34:40.388334 20033 net.cpp:91] Creating Layer pool2/3x3_s2
I0403 15:34:40.388363 20033 net.cpp:425] pool2/3x3_s2 <- conv2/norm2
I0403 15:34:40.388399 20033 net.cpp:399] pool2/3x3_s2 -> pool2/3x3_s2
I0403 15:34:40.388499 20033 net.cpp:141] Setting up pool2/3x3_s2
I0403 15:34:40.388541 20033 net.cpp:148] Top shape: 24 192 28 28 (3612672)
I0403 15:34:40.388569 20033 net.cpp:156] Memory required for data: 433521696
I0403 15:34:40.388597 20033 layer_factory.hpp:77] Creating layer pool2/3x3_s2_pool2/3x3_s2_0_split
I0403 15:34:40.388628 20033 net.cpp:91] Creating Layer pool2/3x3_s2_pool2/3x3_s2_0_split
I0403 15:34:40.388658 20033 net.cpp:425] pool2/3x3_s2_pool2/3x3_s2_0_split <- pool2/3x3_s2
I0403 15:34:40.388691 20033 net.cpp:399] pool2/3x3_s2_pool2/3x3_s2_0_split -> pool2/3x3_s2_pool2/3x3_s2_0_split_0
I0403 15:34:40.388730 20033 net.cpp:399] pool2/3x3_s2_pool2/3x3_s2_0_split -> pool2/3x3_s2_pool2/3x3_s2_0_split_1
I0403 15:34:40.388766 20033 net.cpp:399] pool2/3x3_s2_pool2/3x3_s2_0_split -> pool2/3x3_s2_pool2/3x3_s2_0_split_2
I0403 15:34:40.388800 20033 net.cpp:399] pool2/3x3_s2_pool2/3x3_s2_0_split -> pool2/3x3_s2_pool2/3x3_s2_0_split_3
I0403 15:34:40.388929 20033 net.cpp:141] Setting up pool2/3x3_s2_pool2/3x3_s2_0_split
I0403 15:34:40.389010 20033 net.cpp:148] Top shape: 24 192 28 28 (3612672)
I0403 15:34:40.389034 20033 net.cpp:148] Top shape: 24 192 28 28 (3612672)
I0403 15:34:40.389053 20033 net.cpp:148] Top shape: 24 192 28 28 (3612672)
I0403 15:34:40.389073 20033 net.cpp:148] Top shape: 24 192 28 28 (3612672)
I0403 15:34:40.389091 20033 net.cpp:156] Memory required for data: 491324448
I0403 15:34:40.389109 20033 layer_factory.hpp:77] Creating layer inception_3a/1x1
I0403 15:34:40.389137 20033 net.cpp:91] Creating Layer inception_3a/1x1
I0403 15:34:40.389158 20033 net.cpp:425] inception_3a/1x1 <- pool2/3x3_s2_pool2/3x3_s2_0_split_0
I0403 15:34:40.389181 20033 net.cpp:399] inception_3a/1x1 -> inception_3a/1x1
I0403 15:34:40.391119 20033 net.cpp:141] Setting up inception_3a/1x1
I0403 15:34:40.391155 20033 net.cpp:148] Top shape: 24 64 28 28 (1204224)
I0403 15:34:40.391175 20033 net.cpp:156] Memory required for data: 496141344
I0403 15:34:40.391198 20033 layer_factory.hpp:77] Creating layer inception_3a/relu_1x1
I0403 15:34:40.391224 20033 net.cpp:91] Creating Layer inception_3a/relu_1x1
I0403 15:34:40.391244 20033 net.cpp:425] inception_3a/relu_1x1 <- inception_3a/1x1
I0403 15:34:40.391265 20033 net.cpp:386] inception_3a/relu_1x1 -> inception_3a/1x1 (in-place)
I0403 15:34:40.391479 20033 net.cpp:141] Setting up inception_3a/relu_1x1
I0403 15:34:40.391512 20033 net.cpp:148] Top shape: 24 64 28 28 (1204224)
I0403 15:34:40.391531 20033 net.cpp:156] Memory required for data: 500958240
I0403 15:34:40.391551 20033 layer_factory.hpp:77] Creating layer inception_3a/3x3_reduce
I0403 15:34:40.391578 20033 net.cpp:91] Creating Layer inception_3a/3x3_reduce
I0403 15:34:40.391599 20033 net.cpp:425] inception_3a/3x3_reduce <- pool2/3x3_s2_pool2/3x3_s2_0_split_1
I0403 15:34:40.391621 20033 net.cpp:399] inception_3a/3x3_reduce -> inception_3a/3x3_reduce
I0403 15:34:40.393659 20033 net.cpp:141] Setting up inception_3a/3x3_reduce
I0403 15:34:40.393695 20033 net.cpp:148] Top shape: 24 96 28 28 (1806336)
I0403 15:34:40.393714 20033 net.cpp:156] Memory required for data: 508183584
I0403 15:34:40.393741 20033 layer_factory.hpp:77] Creating layer inception_3a/relu_3x3_reduce
I0403 15:34:40.393787 20033 net.cpp:91] Creating Layer inception_3a/relu_3x3_reduce
I0403 15:34:40.393808 20033 net.cpp:425] inception_3a/relu_3x3_reduce <- inception_3a/3x3_reduce
I0403 15:34:40.393833 20033 net.cpp:386] inception_3a/relu_3x3_reduce -> inception_3a/3x3_reduce (in-place)
I0403 15:34:40.394063 20033 net.cpp:141] Setting up inception_3a/relu_3x3_reduce
I0403 15:34:40.394094 20033 net.cpp:148] Top shape: 24 96 28 28 (1806336)
I0403 15:34:40.394112 20033 net.cpp:156] Memory required for data: 515408928
I0403 15:34:40.394130 20033 layer_factory.hpp:77] Creating layer inception_3a/3x3
I0403 15:34:40.394157 20033 net.cpp:91] Creating Layer inception_3a/3x3
I0403 15:34:40.394178 20033 net.cpp:425] inception_3a/3x3 <- inception_3a/3x3_reduce
I0403 15:34:40.394207 20033 net.cpp:399] inception_3a/3x3 -> inception_3a/3x3
I0403 15:34:40.396206 20033 net.cpp:141] Setting up inception_3a/3x3
I0403 15:34:40.396245 20033 net.cpp:148] Top shape: 24 128 28 28 (2408448)
I0403 15:34:40.396263 20033 net.cpp:156] Memory required for data: 525042720
I0403 15:34:40.396286 20033 layer_factory.hpp:77] Creating layer inception_3a/relu_3x3
I0403 15:34:40.396308 20033 net.cpp:91] Creating Layer inception_3a/relu_3x3
I0403 15:34:40.396328 20033 net.cpp:425] inception_3a/relu_3x3 <- inception_3a/3x3
I0403 15:34:40.396350 20033 net.cpp:386] inception_3a/relu_3x3 -> inception_3a/3x3 (in-place)
I0403 15:34:40.396677 20033 net.cpp:141] Setting up inception_3a/relu_3x3
I0403 15:34:40.396713 20033 net.cpp:148] Top shape: 24 128 28 28 (2408448)
I0403 15:34:40.396730 20033 net.cpp:156] Memory required for data: 534676512
I0403 15:34:40.396749 20033 layer_factory.hpp:77] Creating layer inception_3a/5x5_reduce
I0403 15:34:40.396776 20033 net.cpp:91] Creating Layer inception_3a/5x5_reduce
I0403 15:34:40.396797 20033 net.cpp:425] inception_3a/5x5_reduce <- pool2/3x3_s2_pool2/3x3_s2_0_split_2
I0403 15:34:40.396819 20033 net.cpp:399] inception_3a/5x5_reduce -> inception_3a/5x5_reduce
I0403 15:34:40.397987 20033 net.cpp:141] Setting up inception_3a/5x5_reduce
I0403 15:34:40.398025 20033 net.cpp:148] Top shape: 24 16 28 28 (301056)
I0403 15:34:40.398044 20033 net.cpp:156] Memory required for data: 535880736
I0403 15:34:40.398066 20033 layer_factory.hpp:77] Creating layer inception_3a/relu_5x5_reduce
I0403 15:34:40.398088 20033 net.cpp:91] Creating Layer inception_3a/relu_5x5_reduce
I0403 15:34:40.398108 20033 net.cpp:425] inception_3a/relu_5x5_reduce <- inception_3a/5x5_reduce
I0403 15:34:40.398128 20033 net.cpp:386] inception_3a/relu_5x5_reduce -> inception_3a/5x5_reduce (in-place)
I0403 15:34:40.398488 20033 net.cpp:141] Setting up inception_3a/relu_5x5_reduce
I0403 15:34:40.398519 20033 net.cpp:148] Top shape: 24 16 28 28 (301056)
I0403 15:34:40.398536 20033 net.cpp:156] Memory required for data: 537084960
I0403 15:34:40.398555 20033 layer_factory.hpp:77] Creating layer inception_3a/5x5
I0403 15:34:40.398582 20033 net.cpp:91] Creating Layer inception_3a/5x5
I0403 15:34:40.398605 20033 net.cpp:425] inception_3a/5x5 <- inception_3a/5x5_reduce
I0403 15:34:40.398632 20033 net.cpp:399] inception_3a/5x5 -> inception_3a/5x5
I0403 15:34:40.399864 20033 net.cpp:141] Setting up inception_3a/5x5
I0403 15:34:40.399899 20033 net.cpp:148] Top shape: 24 32 28 28 (602112)
I0403 15:34:40.399919 20033 net.cpp:156] Memory required for data: 539493408
I0403 15:34:40.399940 20033 layer_factory.hpp:77] Creating layer inception_3a/relu_5x5
I0403 15:34:40.399972 20033 net.cpp:91] Creating Layer inception_3a/relu_5x5
I0403 15:34:40.399996 20033 net.cpp:425] inception_3a/relu_5x5 <- inception_3a/5x5
I0403 15:34:40.400017 20033 net.cpp:386] inception_3a/relu_5x5 -> inception_3a/5x5 (in-place)
I0403 15:34:40.400226 20033 net.cpp:141] Setting up inception_3a/relu_5x5
I0403 15:34:40.400260 20033 net.cpp:148] Top shape: 24 32 28 28 (602112)
I0403 15:34:40.400279 20033 net.cpp:156] Memory required for data: 541901856
I0403 15:34:40.400297 20033 layer_factory.hpp:77] Creating layer inception_3a/pool
I0403 15:34:40.400320 20033 net.cpp:91] Creating Layer inception_3a/pool
I0403 15:34:40.400357 20033 net.cpp:425] inception_3a/pool <- pool2/3x3_s2_pool2/3x3_s2_0_split_3
I0403 15:34:40.400383 20033 net.cpp:399] inception_3a/pool -> inception_3a/pool
I0403 15:34:40.400452 20033 net.cpp:141] Setting up inception_3a/pool
I0403 15:34:40.400481 20033 net.cpp:148] Top shape: 24 192 28 28 (3612672)
I0403 15:34:40.400499 20033 net.cpp:156] Memory required for data: 556352544
I0403 15:34:40.400517 20033 layer_factory.hpp:77] Creating layer inception_3a/pool_proj
I0403 15:34:40.400544 20033 net.cpp:91] Creating Layer inception_3a/pool_proj
I0403 15:34:40.400566 20033 net.cpp:425] inception_3a/pool_proj <- inception_3a/pool
I0403 15:34:40.400593 20033 net.cpp:399] inception_3a/pool_proj -> inception_3a/pool_proj
I0403 15:34:40.401756 20033 net.cpp:141] Setting up inception_3a/pool_proj
I0403 15:34:40.401792 20033 net.cpp:148] Top shape: 24 32 28 28 (602112)
I0403 15:34:40.401810 20033 net.cpp:156] Memory required for data: 558760992
I0403 15:34:40.401840 20033 layer_factory.hpp:77] Creating layer inception_3a/relu_pool_proj
I0403 15:34:40.401864 20033 net.cpp:91] Creating Layer inception_3a/relu_pool_proj
I0403 15:34:40.401883 20033 net.cpp:425] inception_3a/relu_pool_proj <- inception_3a/pool_proj
I0403 15:34:40.401907 20033 net.cpp:386] inception_3a/relu_pool_proj -> inception_3a/pool_proj (in-place)
I0403 15:34:40.402243 20033 net.cpp:141] Setting up inception_3a/relu_pool_proj
I0403 15:34:40.402279 20033 net.cpp:148] Top shape: 24 32 28 28 (602112)
I0403 15:34:40.402298 20033 net.cpp:156] Memory required for data: 561169440
I0403 15:34:40.402318 20033 layer_factory.hpp:77] Creating layer inception_3a/output
I0403 15:34:40.402339 20033 net.cpp:91] Creating Layer inception_3a/output
I0403 15:34:40.402359 20033 net.cpp:425] inception_3a/output <- inception_3a/1x1
I0403 15:34:40.402379 20033 net.cpp:425] inception_3a/output <- inception_3a/3x3
I0403 15:34:40.402397 20033 net.cpp:425] inception_3a/output <- inception_3a/5x5
I0403 15:34:40.402416 20033 net.cpp:425] inception_3a/output <- inception_3a/pool_proj
I0403 15:34:40.402436 20033 net.cpp:399] inception_3a/output -> inception_3a/output
I0403 15:34:40.402494 20033 net.cpp:141] Setting up inception_3a/output
I0403 15:34:40.402523 20033 net.cpp:148] Top shape: 24 256 28 28 (4816896)
I0403 15:34:40.402540 20033 net.cpp:156] Memory required for data: 580437024
I0403 15:34:40.402559 20033 layer_factory.hpp:77] Creating layer inception_3a/output_inception_3a/output_0_split
I0403 15:34:40.402578 20033 net.cpp:91] Creating Layer inception_3a/output_inception_3a/output_0_split
I0403 15:34:40.402600 20033 net.cpp:425] inception_3a/output_inception_3a/output_0_split <- inception_3a/output
I0403 15:34:40.402621 20033 net.cpp:399] inception_3a/output_inception_3a/output_0_split -> inception_3a/output_inception_3a/output_0_split_0
I0403 15:34:40.402645 20033 net.cpp:399] inception_3a/output_inception_3a/output_0_split -> inception_3a/output_inception_3a/output_0_split_1
I0403 15:34:40.402674 20033 net.cpp:399] inception_3a/output_inception_3a/output_0_split -> inception_3a/output_inception_3a/output_0_split_2
I0403 15:34:40.402699 20033 net.cpp:399] inception_3a/output_inception_3a/output_0_split -> inception_3a/output_inception_3a/output_0_split_3
I0403 15:34:40.402791 20033 net.cpp:141] Setting up inception_3a/output_inception_3a/output_0_split
I0403 15:34:40.402820 20033 net.cpp:148] Top shape: 24 256 28 28 (4816896)
I0403 15:34:40.402840 20033 net.cpp:148] Top shape: 24 256 28 28 (4816896)
I0403 15:34:40.402858 20033 net.cpp:148] Top shape: 24 256 28 28 (4816896)
I0403 15:34:40.402878 20033 net.cpp:148] Top shape: 24 256 28 28 (4816896)
I0403 15:34:40.402894 20033 net.cpp:156] Memory required for data: 657507360
I0403 15:34:40.402912 20033 layer_factory.hpp:77] Creating layer inception_3b/1x1
I0403 15:34:40.402940 20033 net.cpp:91] Creating Layer inception_3b/1x1
I0403 15:34:40.402966 20033 net.cpp:425] inception_3b/1x1 <- inception_3a/output_inception_3a/output_0_split_0
I0403 15:34:40.402993 20033 net.cpp:399] inception_3b/1x1 -> inception_3b/1x1
I0403 15:34:40.404368 20033 net.cpp:141] Setting up inception_3b/1x1
I0403 15:34:40.404417 20033 net.cpp:148] Top shape: 24 128 28 28 (2408448)
I0403 15:34:40.404438 20033 net.cpp:156] Memory required for data: 667141152
I0403 15:34:40.404459 20033 layer_factory.hpp:77] Creating layer inception_3b/relu_1x1
I0403 15:34:40.404484 20033 net.cpp:91] Creating Layer inception_3b/relu_1x1
I0403 15:34:40.404505 20033 net.cpp:425] inception_3b/relu_1x1 <- inception_3b/1x1
I0403 15:34:40.404525 20033 net.cpp:386] inception_3b/relu_1x1 -> inception_3b/1x1 (in-place)
I0403 15:34:40.404738 20033 net.cpp:141] Setting up inception_3b/relu_1x1
I0403 15:34:40.404772 20033 net.cpp:148] Top shape: 24 128 28 28 (2408448)
I0403 15:34:40.404790 20033 net.cpp:156] Memory required for data: 676774944
I0403 15:34:40.404809 20033 layer_factory.hpp:77] Creating layer inception_3b/3x3_reduce
I0403 15:34:40.404836 20033 net.cpp:91] Creating Layer inception_3b/3x3_reduce
I0403 15:34:40.404858 20033 net.cpp:425] inception_3b/3x3_reduce <- inception_3a/output_inception_3a/output_0_split_1
I0403 15:34:40.404881 20033 net.cpp:399] inception_3b/3x3_reduce -> inception_3b/3x3_reduce
I0403 15:34:40.406258 20033 net.cpp:141] Setting up inception_3b/3x3_reduce
I0403 15:34:40.406293 20033 net.cpp:148] Top shape: 24 128 28 28 (2408448)
I0403 15:34:40.406313 20033 net.cpp:156] Memory required for data: 686408736
I0403 15:34:40.406337 20033 layer_factory.hpp:77] Creating layer inception_3b/relu_3x3_reduce
I0403 15:34:40.406361 20033 net.cpp:91] Creating Layer inception_3b/relu_3x3_reduce
I0403 15:34:40.406383 20033 net.cpp:425] inception_3b/relu_3x3_reduce <- inception_3b/3x3_reduce
I0403 15:34:40.406402 20033 net.cpp:386] inception_3b/relu_3x3_reduce -> inception_3b/3x3_reduce (in-place)
I0403 15:34:40.406615 20033 net.cpp:141] Setting up inception_3b/relu_3x3_reduce
I0403 15:34:40.406646 20033 net.cpp:148] Top shape: 24 128 28 28 (2408448)
I0403 15:34:40.406663 20033 net.cpp:156] Memory required for data: 696042528
I0403 15:34:40.406680 20033 layer_factory.hpp:77] Creating layer inception_3b/3x3
I0403 15:34:40.406713 20033 net.cpp:91] Creating Layer inception_3b/3x3
I0403 15:34:40.406733 20033 net.cpp:425] inception_3b/3x3 <- inception_3b/3x3_reduce
I0403 15:34:40.406759 20033 net.cpp:399] inception_3b/3x3 -> inception_3b/3x3
I0403 15:34:40.410301 20033 net.cpp:141] Setting up inception_3b/3x3
I0403 15:34:40.410341 20033 net.cpp:148] Top shape: 24 192 28 28 (3612672)
I0403 15:34:40.410362 20033 net.cpp:156] Memory required for data: 710493216
I0403 15:34:40.410383 20033 layer_factory.hpp:77] Creating layer inception_3b/relu_3x3
I0403 15:34:40.410406 20033 net.cpp:91] Creating Layer inception_3b/relu_3x3
I0403 15:34:40.410425 20033 net.cpp:425] inception_3b/relu_3x3 <- inception_3b/3x3
I0403 15:34:40.410446 20033 net.cpp:386] inception_3b/relu_3x3 -> inception_3b/3x3 (in-place)
I0403 15:34:40.410783 20033 net.cpp:141] Setting up inception_3b/relu_3x3
I0403 15:34:40.410818 20033 net.cpp:148] Top shape: 24 192 28 28 (3612672)
I0403 15:34:40.410837 20033 net.cpp:156] Memory required for data: 724943904
I0403 15:34:40.410856 20033 layer_factory.hpp:77] Creating layer inception_3b/5x5_reduce
I0403 15:34:40.410882 20033 net.cpp:91] Creating Layer inception_3b/5x5_reduce
I0403 15:34:40.410904 20033 net.cpp:425] inception_3b/5x5_reduce <- inception_3a/output_inception_3a/output_0_split_2
I0403 15:34:40.410928 20033 net.cpp:399] inception_3b/5x5_reduce -> inception_3b/5x5_reduce
I0403 15:34:40.412147 20033 net.cpp:141] Setting up inception_3b/5x5_reduce
I0403 15:34:40.412183 20033 net.cpp:148] Top shape: 24 32 28 28 (602112)
I0403 15:34:40.412205 20033 net.cpp:156] Memory required for data: 727352352
I0403 15:34:40.412227 20033 layer_factory.hpp:77] Creating layer inception_3b/relu_5x5_reduce
I0403 15:34:40.412250 20033 net.cpp:91] Creating Layer inception_3b/relu_5x5_reduce
I0403 15:34:40.412269 20033 net.cpp:425] inception_3b/relu_5x5_reduce <- inception_3b/5x5_reduce
I0403 15:34:40.412292 20033 net.cpp:386] inception_3b/relu_5x5_reduce -> inception_3b/5x5_reduce (in-place)
I0403 15:34:40.412525 20033 net.cpp:141] Setting up inception_3b/relu_5x5_reduce
I0403 15:34:40.412559 20033 net.cpp:148] Top shape: 24 32 28 28 (602112)
I0403 15:34:40.412577 20033 net.cpp:156] Memory required for data: 729760800
I0403 15:34:40.412595 20033 layer_factory.hpp:77] Creating layer inception_3b/5x5
I0403 15:34:40.412622 20033 net.cpp:91] Creating Layer inception_3b/5x5
I0403 15:34:40.412643 20033 net.cpp:425] inception_3b/5x5 <- inception_3b/5x5_reduce
I0403 15:34:40.412667 20033 net.cpp:399] inception_3b/5x5 -> inception_3b/5x5
I0403 15:34:40.415055 20033 net.cpp:141] Setting up inception_3b/5x5
I0403 15:34:40.415091 20033 net.cpp:148] Top shape: 24 96 28 28 (1806336)
I0403 15:34:40.415112 20033 net.cpp:156] Memory required for data: 736986144
I0403 15:34:40.415134 20033 layer_factory.hpp:77] Creating layer inception_3b/relu_5x5
I0403 15:34:40.415160 20033 net.cpp:91] Creating Layer inception_3b/relu_5x5
I0403 15:34:40.415180 20033 net.cpp:425] inception_3b/relu_5x5 <- inception_3b/5x5
I0403 15:34:40.415202 20033 net.cpp:386] inception_3b/relu_5x5 -> inception_3b/5x5 (in-place)
I0403 15:34:40.415437 20033 net.cpp:141] Setting up inception_3b/relu_5x5
I0403 15:34:40.415468 20033 net.cpp:148] Top shape: 24 96 28 28 (1806336)
I0403 15:34:40.415488 20033 net.cpp:156] Memory required for data: 744211488
I0403 15:34:40.415506 20033 layer_factory.hpp:77] Creating layer inception_3b/pool
I0403 15:34:40.415529 20033 net.cpp:91] Creating Layer inception_3b/pool
I0403 15:34:40.415549 20033 net.cpp:425] inception_3b/pool <- inception_3a/output_inception_3a/output_0_split_3
I0403 15:34:40.415570 20033 net.cpp:399] inception_3b/pool -> inception_3b/pool
I0403 15:34:40.415638 20033 net.cpp:141] Setting up inception_3b/pool
I0403 15:34:40.415666 20033 net.cpp:148] Top shape: 24 256 28 28 (4816896)
I0403 15:34:40.415684 20033 net.cpp:156] Memory required for data: 763479072
I0403 15:34:40.415704 20033 layer_factory.hpp:77] Creating layer inception_3b/pool_proj
I0403 15:34:40.415731 20033 net.cpp:91] Creating Layer inception_3b/pool_proj
I0403 15:34:40.415752 20033 net.cpp:425] inception_3b/pool_proj <- inception_3b/pool
I0403 15:34:40.415777 20033 net.cpp:399] inception_3b/pool_proj -> inception_3b/pool_proj
I0403 15:34:40.417062 20033 net.cpp:141] Setting up inception_3b/pool_proj
I0403 15:34:40.417098 20033 net.cpp:148] Top shape: 24 64 28 28 (1204224)
I0403 15:34:40.417117 20033 net.cpp:156] Memory required for data: 768295968
I0403 15:34:40.417140 20033 layer_factory.hpp:77] Creating layer inception_3b/relu_pool_proj
I0403 15:34:40.417162 20033 net.cpp:91] Creating Layer inception_3b/relu_pool_proj
I0403 15:34:40.417182 20033 net.cpp:425] inception_3b/relu_pool_proj <- inception_3b/pool_proj
I0403 15:34:40.417206 20033 net.cpp:386] inception_3b/relu_pool_proj -> inception_3b/pool_proj (in-place)
I0403 15:34:40.417659 20033 net.cpp:141] Setting up inception_3b/relu_pool_proj
I0403 15:34:40.417693 20033 net.cpp:148] Top shape: 24 64 28 28 (1204224)
I0403 15:34:40.417712 20033 net.cpp:156] Memory required for data: 773112864
I0403 15:34:40.417732 20033 layer_factory.hpp:77] Creating layer inception_3b/output
I0403 15:34:40.417752 20033 net.cpp:91] Creating Layer inception_3b/output
I0403 15:34:40.417771 20033 net.cpp:425] inception_3b/output <- inception_3b/1x1
I0403 15:34:40.417791 20033 net.cpp:425] inception_3b/output <- inception_3b/3x3
I0403 15:34:40.417812 20033 net.cpp:425] inception_3b/output <- inception_3b/5x5
I0403 15:34:40.417831 20033 net.cpp:425] inception_3b/output <- inception_3b/pool_proj
I0403 15:34:40.417852 20033 net.cpp:399] inception_3b/output -> inception_3b/output
I0403 15:34:40.417907 20033 net.cpp:141] Setting up inception_3b/output
I0403 15:34:40.417937 20033 net.cpp:148] Top shape: 24 480 28 28 (9031680)
I0403 15:34:40.417958 20033 net.cpp:156] Memory required for data: 809239584
I0403 15:34:40.417979 20033 layer_factory.hpp:77] Creating layer pool3/3x3_s2
I0403 15:34:40.418004 20033 net.cpp:91] Creating Layer pool3/3x3_s2
I0403 15:34:40.418023 20033 net.cpp:425] pool3/3x3_s2 <- inception_3b/output
I0403 15:34:40.418062 20033 net.cpp:399] pool3/3x3_s2 -> pool3/3x3_s2
I0403 15:34:40.418135 20033 net.cpp:141] Setting up pool3/3x3_s2
I0403 15:34:40.418164 20033 net.cpp:148] Top shape: 24 480 14 14 (2257920)
I0403 15:34:40.418182 20033 net.cpp:156] Memory required for data: 818271264
I0403 15:34:40.418200 20033 layer_factory.hpp:77] Creating layer pool3/3x3_s2_pool3/3x3_s2_0_split
I0403 15:34:40.418222 20033 net.cpp:91] Creating Layer pool3/3x3_s2_pool3/3x3_s2_0_split
I0403 15:34:40.418241 20033 net.cpp:425] pool3/3x3_s2_pool3/3x3_s2_0_split <- pool3/3x3_s2
I0403 15:34:40.418264 20033 net.cpp:399] pool3/3x3_s2_pool3/3x3_s2_0_split -> pool3/3x3_s2_pool3/3x3_s2_0_split_0
I0403 15:34:40.418289 20033 net.cpp:399] pool3/3x3_s2_pool3/3x3_s2_0_split -> pool3/3x3_s2_pool3/3x3_s2_0_split_1
I0403 15:34:40.418313 20033 net.cpp:399] pool3/3x3_s2_pool3/3x3_s2_0_split -> pool3/3x3_s2_pool3/3x3_s2_0_split_2
I0403 15:34:40.418336 20033 net.cpp:399] pool3/3x3_s2_pool3/3x3_s2_0_split -> pool3/3x3_s2_pool3/3x3_s2_0_split_3
I0403 15:34:40.418434 20033 net.cpp:141] Setting up pool3/3x3_s2_pool3/3x3_s2_0_split
I0403 15:34:40.418467 20033 net.cpp:148] Top shape: 24 480 14 14 (2257920)
I0403 15:34:40.418488 20033 net.cpp:148] Top shape: 24 480 14 14 (2257920)
I0403 15:34:40.418506 20033 net.cpp:148] Top shape: 24 480 14 14 (2257920)
I0403 15:34:40.418525 20033 net.cpp:148] Top shape: 24 480 14 14 (2257920)
I0403 15:34:40.418541 20033 net.cpp:156] Memory required for data: 854397984
I0403 15:34:40.418560 20033 layer_factory.hpp:77] Creating layer inception_4a/1x1
I0403 15:34:40.418587 20033 net.cpp:91] Creating Layer inception_4a/1x1
I0403 15:34:40.418608 20033 net.cpp:425] inception_4a/1x1 <- pool3/3x3_s2_pool3/3x3_s2_0_split_0
I0403 15:34:40.418632 20033 net.cpp:399] inception_4a/1x1 -> inception_4a/1x1
I0403 15:34:40.420552 20033 net.cpp:141] Setting up inception_4a/1x1
I0403 15:34:40.420586 20033 net.cpp:148] Top shape: 24 192 14 14 (903168)
I0403 15:34:40.420605 20033 net.cpp:156] Memory required for data: 858010656
I0403 15:34:40.420629 20033 layer_factory.hpp:77] Creating layer inception_4a/relu_1x1
I0403 15:34:40.420650 20033 net.cpp:91] Creating Layer inception_4a/relu_1x1
I0403 15:34:40.420672 20033 net.cpp:425] inception_4a/relu_1x1 <- inception_4a/1x1
I0403 15:34:40.420694 20033 net.cpp:386] inception_4a/relu_1x1 -> inception_4a/1x1 (in-place)
I0403 15:34:40.420905 20033 net.cpp:141] Setting up inception_4a/relu_1x1
I0403 15:34:40.420936 20033 net.cpp:148] Top shape: 24 192 14 14 (903168)
I0403 15:34:40.420958 20033 net.cpp:156] Memory required for data: 861623328
I0403 15:34:40.420977 20033 layer_factory.hpp:77] Creating layer inception_4a/3x3_reduce
I0403 15:34:40.421005 20033 net.cpp:91] Creating Layer inception_4a/3x3_reduce
I0403 15:34:40.421026 20033 net.cpp:425] inception_4a/3x3_reduce <- pool3/3x3_s2_pool3/3x3_s2_0_split_1
I0403 15:34:40.421053 20033 net.cpp:399] inception_4a/3x3_reduce -> inception_4a/3x3_reduce
I0403 15:34:40.422587 20033 net.cpp:141] Setting up inception_4a/3x3_reduce
I0403 15:34:40.422621 20033 net.cpp:148] Top shape: 24 96 14 14 (451584)
I0403 15:34:40.422641 20033 net.cpp:156] Memory required for data: 863429664
I0403 15:34:40.422672 20033 layer_factory.hpp:77] Creating layer inception_4a/relu_3x3_reduce
I0403 15:34:40.422698 20033 net.cpp:91] Creating Layer inception_4a/relu_3x3_reduce
I0403 15:34:40.422718 20033 net.cpp:425] inception_4a/relu_3x3_reduce <- inception_4a/3x3_reduce
I0403 15:34:40.422741 20033 net.cpp:386] inception_4a/relu_3x3_reduce -> inception_4a/3x3_reduce (in-place)
I0403 15:34:40.422960 20033 net.cpp:141] Setting up inception_4a/relu_3x3_reduce
I0403 15:34:40.422991 20033 net.cpp:148] Top shape: 24 96 14 14 (451584)
I0403 15:34:40.423010 20033 net.cpp:156] Memory required for data: 865236000
I0403 15:34:40.423029 20033 layer_factory.hpp:77] Creating layer inception_4a/3x3
I0403 15:34:40.423056 20033 net.cpp:91] Creating Layer inception_4a/3x3
I0403 15:34:40.423077 20033 net.cpp:425] inception_4a/3x3 <- inception_4a/3x3_reduce
I0403 15:34:40.423105 20033 net.cpp:399] inception_4a/3x3 -> inception_4a/3x3
I0403 15:34:40.426365 20033 net.cpp:141] Setting up inception_4a/3x3
I0403 15:34:40.426400 20033 net.cpp:148] Top shape: 24 208 14 14 (978432)
I0403 15:34:40.426420 20033 net.cpp:156] Memory required for data: 869149728
I0403 15:34:40.426443 20033 layer_factory.hpp:77] Creating layer inception_4a/relu_3x3
I0403 15:34:40.426468 20033 net.cpp:91] Creating Layer inception_4a/relu_3x3
I0403 15:34:40.426489 20033 net.cpp:425] inception_4a/relu_3x3 <- inception_4a/3x3
I0403 15:34:40.426512 20033 net.cpp:386] inception_4a/relu_3x3 -> inception_4a/3x3 (in-place)
I0403 15:34:40.426851 20033 net.cpp:141] Setting up inception_4a/relu_3x3
I0403 15:34:40.426883 20033 net.cpp:148] Top shape: 24 208 14 14 (978432)
I0403 15:34:40.426901 20033 net.cpp:156] Memory required for data: 873063456
I0403 15:34:40.426919 20033 layer_factory.hpp:77] Creating layer inception_4a/5x5_reduce
I0403 15:34:40.426946 20033 net.cpp:91] Creating Layer inception_4a/5x5_reduce
I0403 15:34:40.426973 20033 net.cpp:425] inception_4a/5x5_reduce <- pool3/3x3_s2_pool3/3x3_s2_0_split_2
I0403 15:34:40.427001 20033 net.cpp:399] inception_4a/5x5_reduce -> inception_4a/5x5_reduce
I0403 15:34:40.428228 20033 net.cpp:141] Setting up inception_4a/5x5_reduce
I0403 15:34:40.428261 20033 net.cpp:148] Top shape: 24 16 14 14 (75264)
I0403 15:34:40.428280 20033 net.cpp:156] Memory required for data: 873364512
I0403 15:34:40.428303 20033 layer_factory.hpp:77] Creating layer inception_4a/relu_5x5_reduce
I0403 15:34:40.428328 20033 net.cpp:91] Creating Layer inception_4a/relu_5x5_reduce
I0403 15:34:40.428350 20033 net.cpp:425] inception_4a/relu_5x5_reduce <- inception_4a/5x5_reduce
I0403 15:34:40.428372 20033 net.cpp:386] inception_4a/relu_5x5_reduce -> inception_4a/5x5_reduce (in-place)
I0403 15:34:40.428593 20033 net.cpp:141] Setting up inception_4a/relu_5x5_reduce
I0403 15:34:40.428627 20033 net.cpp:148] Top shape: 24 16 14 14 (75264)
I0403 15:34:40.428645 20033 net.cpp:156] Memory required for data: 873665568
I0403 15:34:40.428664 20033 layer_factory.hpp:77] Creating layer inception_4a/5x5
I0403 15:34:40.428692 20033 net.cpp:91] Creating Layer inception_4a/5x5
I0403 15:34:40.428714 20033 net.cpp:425] inception_4a/5x5 <- inception_4a/5x5_reduce
I0403 15:34:40.428736 20033 net.cpp:399] inception_4a/5x5 -> inception_4a/5x5
I0403 15:34:40.430060 20033 net.cpp:141] Setting up inception_4a/5x5
I0403 15:34:40.430097 20033 net.cpp:148] Top shape: 24 48 14 14 (225792)
I0403 15:34:40.430116 20033 net.cpp:156] Memory required for data: 874568736
I0403 15:34:40.430140 20033 layer_factory.hpp:77] Creating layer inception_4a/relu_5x5
I0403 15:34:40.430161 20033 net.cpp:91] Creating Layer inception_4a/relu_5x5
I0403 15:34:40.430181 20033 net.cpp:425] inception_4a/relu_5x5 <- inception_4a/5x5
I0403 15:34:40.430205 20033 net.cpp:386] inception_4a/relu_5x5 -> inception_4a/5x5 (in-place)
I0403 15:34:40.430421 20033 net.cpp:141] Setting up inception_4a/relu_5x5
I0403 15:34:40.430451 20033 net.cpp:148] Top shape: 24 48 14 14 (225792)
I0403 15:34:40.430470 20033 net.cpp:156] Memory required for data: 875471904
I0403 15:34:40.430488 20033 layer_factory.hpp:77] Creating layer inception_4a/pool
I0403 15:34:40.430515 20033 net.cpp:91] Creating Layer inception_4a/pool
I0403 15:34:40.430536 20033 net.cpp:425] inception_4a/pool <- pool3/3x3_s2_pool3/3x3_s2_0_split_3
I0403 15:34:40.430557 20033 net.cpp:399] inception_4a/pool -> inception_4a/pool
I0403 15:34:40.430631 20033 net.cpp:141] Setting up inception_4a/pool
I0403 15:34:40.430660 20033 net.cpp:148] Top shape: 24 480 14 14 (2257920)
I0403 15:34:40.430680 20033 net.cpp:156] Memory required for data: 884503584
I0403 15:34:40.430697 20033 layer_factory.hpp:77] Creating layer inception_4a/pool_proj
I0403 15:34:40.430724 20033 net.cpp:91] Creating Layer inception_4a/pool_proj
I0403 15:34:40.430745 20033 net.cpp:425] inception_4a/pool_proj <- inception_4a/pool
I0403 15:34:40.430770 20033 net.cpp:399] inception_4a/pool_proj -> inception_4a/pool_proj
I0403 15:34:40.432183 20033 net.cpp:141] Setting up inception_4a/pool_proj
I0403 15:34:40.432217 20033 net.cpp:148] Top shape: 24 64 14 14 (301056)
I0403 15:34:40.432253 20033 net.cpp:156] Memory required for data: 885707808
I0403 15:34:40.432277 20033 layer_factory.hpp:77] Creating layer inception_4a/relu_pool_proj
I0403 15:34:40.432299 20033 net.cpp:91] Creating Layer inception_4a/relu_pool_proj
I0403 15:34:40.432318 20033 net.cpp:425] inception_4a/relu_pool_proj <- inception_4a/pool_proj
I0403 15:34:40.432344 20033 net.cpp:386] inception_4a/relu_pool_proj -> inception_4a/pool_proj (in-place)
I0403 15:34:40.432688 20033 net.cpp:141] Setting up inception_4a/relu_pool_proj
I0403 15:34:40.432720 20033 net.cpp:148] Top shape: 24 64 14 14 (301056)
I0403 15:34:40.432739 20033 net.cpp:156] Memory required for data: 886912032
I0403 15:34:40.432757 20033 layer_factory.hpp:77] Creating layer inception_4a/output
I0403 15:34:40.432778 20033 net.cpp:91] Creating Layer inception_4a/output
I0403 15:34:40.432797 20033 net.cpp:425] inception_4a/output <- inception_4a/1x1
I0403 15:34:40.432817 20033 net.cpp:425] inception_4a/output <- inception_4a/3x3
I0403 15:34:40.432837 20033 net.cpp:425] inception_4a/output <- inception_4a/5x5
I0403 15:34:40.432857 20033 net.cpp:425] inception_4a/output <- inception_4a/pool_proj
I0403 15:34:40.432880 20033 net.cpp:399] inception_4a/output -> inception_4a/output
I0403 15:34:40.432935 20033 net.cpp:141] Setting up inception_4a/output
I0403 15:34:40.432972 20033 net.cpp:148] Top shape: 24 512 14 14 (2408448)
I0403 15:34:40.432992 20033 net.cpp:156] Memory required for data: 896545824
I0403 15:34:40.433010 20033 layer_factory.hpp:77] Creating layer inception_4a/output_inception_4a/output_0_split
I0403 15:34:40.433032 20033 net.cpp:91] Creating Layer inception_4a/output_inception_4a/output_0_split
I0403 15:34:40.433050 20033 net.cpp:425] inception_4a/output_inception_4a/output_0_split <- inception_4a/output
I0403 15:34:40.433073 20033 net.cpp:399] inception_4a/output_inception_4a/output_0_split -> inception_4a/output_inception_4a/output_0_split_0
I0403 15:34:40.433100 20033 net.cpp:399] inception_4a/output_inception_4a/output_0_split -> inception_4a/output_inception_4a/output_0_split_1
I0403 15:34:40.433125 20033 net.cpp:399] inception_4a/output_inception_4a/output_0_split -> inception_4a/output_inception_4a/output_0_split_2
I0403 15:34:40.433151 20033 net.cpp:399] inception_4a/output_inception_4a/output_0_split -> inception_4a/output_inception_4a/output_0_split_3
I0403 15:34:40.433174 20033 net.cpp:399] inception_4a/output_inception_4a/output_0_split -> inception_4a/output_inception_4a/output_0_split_4
I0403 15:34:40.433287 20033 net.cpp:141] Setting up inception_4a/output_inception_4a/output_0_split
I0403 15:34:40.433315 20033 net.cpp:148] Top shape: 24 512 14 14 (2408448)
I0403 15:34:40.433336 20033 net.cpp:148] Top shape: 24 512 14 14 (2408448)
I0403 15:34:40.433357 20033 net.cpp:148] Top shape: 24 512 14 14 (2408448)
I0403 15:34:40.433377 20033 net.cpp:148] Top shape: 24 512 14 14 (2408448)
I0403 15:34:40.433396 20033 net.cpp:148] Top shape: 24 512 14 14 (2408448)
I0403 15:34:40.433413 20033 net.cpp:156] Memory required for data: 944714784
I0403 15:34:40.433430 20033 layer_factory.hpp:77] Creating layer loss1/ave_pool
I0403 15:34:40.433452 20033 net.cpp:91] Creating Layer loss1/ave_pool
I0403 15:34:40.433471 20033 net.cpp:425] loss1/ave_pool <- inception_4a/output_inception_4a/output_0_split_0
I0403 15:34:40.433493 20033 net.cpp:399] loss1/ave_pool -> loss1/ave_pool
I0403 15:34:40.433742 20033 net.cpp:141] Setting up loss1/ave_pool
I0403 15:34:40.433773 20033 net.cpp:148] Top shape: 24 512 4 4 (196608)
I0403 15:34:40.433790 20033 net.cpp:156] Memory required for data: 945501216
I0403 15:34:40.433807 20033 layer_factory.hpp:77] Creating layer loss1/conv
I0403 15:34:40.433833 20033 net.cpp:91] Creating Layer loss1/conv
I0403 15:34:40.433854 20033 net.cpp:425] loss1/conv <- loss1/ave_pool
I0403 15:34:40.433879 20033 net.cpp:399] loss1/conv -> loss1/conv
I0403 15:34:40.435585 20033 net.cpp:141] Setting up loss1/conv
I0403 15:34:40.435621 20033 net.cpp:148] Top shape: 24 128 4 4 (49152)
I0403 15:34:40.435657 20033 net.cpp:156] Memory required for data: 945697824
I0403 15:34:40.435680 20033 layer_factory.hpp:77] Creating layer loss1/relu_conv
I0403 15:34:40.435705 20033 net.cpp:91] Creating Layer loss1/relu_conv
I0403 15:34:40.435725 20033 net.cpp:425] loss1/relu_conv <- loss1/conv
I0403 15:34:40.435747 20033 net.cpp:386] loss1/relu_conv -> loss1/conv (in-place)
I0403 15:34:40.436085 20033 net.cpp:141] Setting up loss1/relu_conv
I0403 15:34:40.436118 20033 net.cpp:148] Top shape: 24 128 4 4 (49152)
I0403 15:34:40.436137 20033 net.cpp:156] Memory required for data: 945894432
I0403 15:34:40.436156 20033 layer_factory.hpp:77] Creating layer loss1/fc
I0403 15:34:40.436192 20033 net.cpp:91] Creating Layer loss1/fc
I0403 15:34:40.436215 20033 net.cpp:425] loss1/fc <- loss1/conv
I0403 15:34:40.436239 20033 net.cpp:399] loss1/fc -> loss1/fc
I0403 15:34:40.459058 20033 net.cpp:141] Setting up loss1/fc
I0403 15:34:40.459100 20033 net.cpp:148] Top shape: 24 1024 (24576)
I0403 15:34:40.459120 20033 net.cpp:156] Memory required for data: 945992736
I0403 15:34:40.459142 20033 layer_factory.hpp:77] Creating layer loss1/relu_fc
I0403 15:34:40.459164 20033 net.cpp:91] Creating Layer loss1/relu_fc
I0403 15:34:40.459184 20033 net.cpp:425] loss1/relu_fc <- loss1/fc
I0403 15:34:40.459209 20033 net.cpp:386] loss1/relu_fc -> loss1/fc (in-place)
I0403 15:34:40.459444 20033 net.cpp:141] Setting up loss1/relu_fc
I0403 15:34:40.459475 20033 net.cpp:148] Top shape: 24 1024 (24576)
I0403 15:34:40.459492 20033 net.cpp:156] Memory required for data: 946091040
I0403 15:34:40.459511 20033 layer_factory.hpp:77] Creating layer loss1/drop_fc
I0403 15:34:40.459543 20033 net.cpp:91] Creating Layer loss1/drop_fc
I0403 15:34:40.459564 20033 net.cpp:425] loss1/drop_fc <- loss1/fc
I0403 15:34:40.459586 20033 net.cpp:386] loss1/drop_fc -> loss1/fc (in-place)
I0403 15:34:40.459647 20033 net.cpp:141] Setting up loss1/drop_fc
I0403 15:34:40.459681 20033 net.cpp:148] Top shape: 24 1024 (24576)
I0403 15:34:40.459698 20033 net.cpp:156] Memory required for data: 946189344
I0403 15:34:40.459717 20033 layer_factory.hpp:77] Creating layer loss1/classifier_plantvillage
I0403 15:34:40.459739 20033 net.cpp:91] Creating Layer loss1/classifier_plantvillage
I0403 15:34:40.459759 20033 net.cpp:425] loss1/classifier_plantvillage <- loss1/fc
I0403 15:34:40.459784 20033 net.cpp:399] loss1/classifier_plantvillage -> loss1/classifier_plantvillage
I0403 15:34:40.460886 20033 net.cpp:141] Setting up loss1/classifier_plantvillage
I0403 15:34:40.460921 20033 net.cpp:148] Top shape: 24 38 (912)
I0403 15:34:40.460938 20033 net.cpp:156] Memory required for data: 946192992
I0403 15:34:40.460965 20033 layer_factory.hpp:77] Creating layer loss1/classifier_plantvillage_loss1/classifier_plantvillage_0_split
I0403 15:34:40.460997 20033 net.cpp:91] Creating Layer loss1/classifier_plantvillage_loss1/classifier_plantvillage_0_split
I0403 15:34:40.461019 20033 net.cpp:425] loss1/classifier_plantvillage_loss1/classifier_plantvillage_0_split <- loss1/classifier_plantvillage
I0403 15:34:40.461040 20033 net.cpp:399] loss1/classifier_plantvillage_loss1/classifier_plantvillage_0_split -> loss1/classifier_plantvillage_loss1/classifier_plantvillage_0_split_0
I0403 15:34:40.461063 20033 net.cpp:399] loss1/classifier_plantvillage_loss1/classifier_plantvillage_0_split -> loss1/classifier_plantvillage_loss1/classifier_plantvillage_0_split_1
I0403 15:34:40.461087 20033 net.cpp:399] loss1/classifier_plantvillage_loss1/classifier_plantvillage_0_split -> loss1/classifier_plantvillage_loss1/classifier_plantvillage_0_split_2
I0403 15:34:40.461169 20033 net.cpp:141] Setting up loss1/classifier_plantvillage_loss1/classifier_plantvillage_0_split
I0403 15:34:40.461199 20033 net.cpp:148] Top shape: 24 38 (912)
I0403 15:34:40.461220 20033 net.cpp:148] Top shape: 24 38 (912)
I0403 15:34:40.461239 20033 net.cpp:148] Top shape: 24 38 (912)
I0403 15:34:40.461256 20033 net.cpp:156] Memory required for data: 946203936
I0403 15:34:40.461273 20033 layer_factory.hpp:77] Creating layer inception_4b/1x1
I0403 15:34:40.461298 20033 net.cpp:91] Creating Layer inception_4b/1x1
I0403 15:34:40.461336 20033 net.cpp:425] inception_4b/1x1 <- inception_4a/output_inception_4a/output_0_split_1
I0403 15:34:40.461364 20033 net.cpp:399] inception_4b/1x1 -> inception_4b/1x1
I0403 15:34:40.463342 20033 net.cpp:141] Setting up inception_4b/1x1
I0403 15:34:40.463377 20033 net.cpp:148] Top shape: 24 160 14 14 (752640)
I0403 15:34:40.463397 20033 net.cpp:156] Memory required for data: 949214496
I0403 15:34:40.463418 20033 layer_factory.hpp:77] Creating layer inception_4b/relu_1x1
I0403 15:34:40.463444 20033 net.cpp:91] Creating Layer inception_4b/relu_1x1
I0403 15:34:40.463464 20033 net.cpp:425] inception_4b/relu_1x1 <- inception_4b/1x1
I0403 15:34:40.463485 20033 net.cpp:386] inception_4b/relu_1x1 -> inception_4b/1x1 (in-place)
I0403 15:34:40.463701 20033 net.cpp:141] Setting up inception_4b/relu_1x1
I0403 15:34:40.463734 20033 net.cpp:148] Top shape: 24 160 14 14 (752640)
I0403 15:34:40.463753 20033 net.cpp:156] Memory required for data: 952225056
I0403 15:34:40.463771 20033 layer_factory.hpp:77] Creating layer inception_4b/3x3_reduce
I0403 15:34:40.463798 20033 net.cpp:91] Creating Layer inception_4b/3x3_reduce
I0403 15:34:40.463820 20033 net.cpp:425] inception_4b/3x3_reduce <- inception_4a/output_inception_4a/output_0_split_2
I0403 15:34:40.463842 20033 net.cpp:399] inception_4b/3x3_reduce -> inception_4b/3x3_reduce
I0403 15:34:40.465484 20033 net.cpp:141] Setting up inception_4b/3x3_reduce
I0403 15:34:40.465523 20033 net.cpp:148] Top shape: 24 112 14 14 (526848)
I0403 15:34:40.465543 20033 net.cpp:156] Memory required for data: 954332448
I0403 15:34:40.465565 20033 layer_factory.hpp:77] Creating layer inception_4b/relu_3x3_reduce
I0403 15:34:40.465587 20033 net.cpp:91] Creating Layer inception_4b/relu_3x3_reduce
I0403 15:34:40.465605 20033 net.cpp:425] inception_4b/relu_3x3_reduce <- inception_4b/3x3_reduce
I0403 15:34:40.465629 20033 net.cpp:386] inception_4b/relu_3x3_reduce -> inception_4b/3x3_reduce (in-place)
I0403 15:34:40.465966 20033 net.cpp:141] Setting up inception_4b/relu_3x3_reduce
I0403 15:34:40.466001 20033 net.cpp:148] Top shape: 24 112 14 14 (526848)
I0403 15:34:40.466020 20033 net.cpp:156] Memory required for data: 956439840
I0403 15:34:40.466039 20033 layer_factory.hpp:77] Creating layer inception_4b/3x3
I0403 15:34:40.466066 20033 net.cpp:91] Creating Layer inception_4b/3x3
I0403 15:34:40.466089 20033 net.cpp:425] inception_4b/3x3 <- inception_4b/3x3_reduce
I0403 15:34:40.466111 20033 net.cpp:399] inception_4b/3x3 -> inception_4b/3x3
I0403 15:34:40.469754 20033 net.cpp:141] Setting up inception_4b/3x3
I0403 15:34:40.469790 20033 net.cpp:148] Top shape: 24 224 14 14 (1053696)
I0403 15:34:40.469810 20033 net.cpp:156] Memory required for data: 960654624
I0403 15:34:40.469832 20033 layer_factory.hpp:77] Creating layer inception_4b/relu_3x3
I0403 15:34:40.469857 20033 net.cpp:91] Creating Layer inception_4b/relu_3x3
I0403 15:34:40.469878 20033 net.cpp:425] inception_4b/relu_3x3 <- inception_4b/3x3
I0403 15:34:40.469900 20033 net.cpp:386] inception_4b/relu_3x3 -> inception_4b/3x3 (in-place)
I0403 15:34:40.470126 20033 net.cpp:141] Setting up inception_4b/relu_3x3
I0403 15:34:40.470157 20033 net.cpp:148] Top shape: 24 224 14 14 (1053696)
I0403 15:34:40.470175 20033 net.cpp:156] Memory required for data: 964869408
I0403 15:34:40.470193 20033 layer_factory.hpp:77] Creating layer inception_4b/5x5_reduce
I0403 15:34:40.470221 20033 net.cpp:91] Creating Layer inception_4b/5x5_reduce
I0403 15:34:40.470247 20033 net.cpp:425] inception_4b/5x5_reduce <- inception_4a/output_inception_4a/output_0_split_3
I0403 15:34:40.470271 20033 net.cpp:399] inception_4b/5x5_reduce -> inception_4b/5x5_reduce
I0403 15:34:40.471598 20033 net.cpp:141] Setting up inception_4b/5x5_reduce
I0403 15:34:40.471633 20033 net.cpp:148] Top shape: 24 24 14 14 (112896)
I0403 15:34:40.471653 20033 net.cpp:156] Memory required for data: 965320992
I0403 15:34:40.471678 20033 layer_factory.hpp:77] Creating layer inception_4b/relu_5x5_reduce
I0403 15:34:40.471701 20033 net.cpp:91] Creating Layer inception_4b/relu_5x5_reduce
I0403 15:34:40.471740 20033 net.cpp:425] inception_4b/relu_5x5_reduce <- inception_4b/5x5_reduce
I0403 15:34:40.471762 20033 net.cpp:386] inception_4b/relu_5x5_reduce -> inception_4b/5x5_reduce (in-place)
I0403 15:34:40.471993 20033 net.cpp:141] Setting up inception_4b/relu_5x5_reduce
I0403 15:34:40.472025 20033 net.cpp:148] Top shape: 24 24 14 14 (112896)
I0403 15:34:40.472043 20033 net.cpp:156] Memory required for data: 965772576
I0403 15:34:40.472061 20033 layer_factory.hpp:77] Creating layer inception_4b/5x5
I0403 15:34:40.472089 20033 net.cpp:91] Creating Layer inception_4b/5x5
I0403 15:34:40.472110 20033 net.cpp:425] inception_4b/5x5 <- inception_4b/5x5_reduce
I0403 15:34:40.472137 20033 net.cpp:399] inception_4b/5x5 -> inception_4b/5x5
I0403 15:34:40.473611 20033 net.cpp:141] Setting up inception_4b/5x5
I0403 15:34:40.473646 20033 net.cpp:148] Top shape: 24 64 14 14 (301056)
I0403 15:34:40.473666 20033 net.cpp:156] Memory required for data: 966976800
I0403 15:34:40.473688 20033 layer_factory.hpp:77] Creating layer inception_4b/relu_5x5
I0403 15:34:40.473714 20033 net.cpp:91] Creating Layer inception_4b/relu_5x5
I0403 15:34:40.473736 20033 net.cpp:425] inception_4b/relu_5x5 <- inception_4b/5x5
I0403 15:34:40.473757 20033 net.cpp:386] inception_4b/relu_5x5 -> inception_4b/5x5 (in-place)
I0403 15:34:40.474103 20033 net.cpp:141] Setting up inception_4b/relu_5x5
I0403 15:34:40.474136 20033 net.cpp:148] Top shape: 24 64 14 14 (301056)
I0403 15:34:40.474155 20033 net.cpp:156] Memory required for data: 968181024
I0403 15:34:40.474174 20033 layer_factory.hpp:77] Creating layer inception_4b/pool
I0403 15:34:40.474200 20033 net.cpp:91] Creating Layer inception_4b/pool
I0403 15:34:40.474220 20033 net.cpp:425] inception_4b/pool <- inception_4a/output_inception_4a/output_0_split_4
I0403 15:34:40.474243 20033 net.cpp:399] inception_4b/pool -> inception_4b/pool
I0403 15:34:40.474324 20033 net.cpp:141] Setting up inception_4b/pool
I0403 15:34:40.474354 20033 net.cpp:148] Top shape: 24 512 14 14 (2408448)
I0403 15:34:40.474371 20033 net.cpp:156] Memory required for data: 977814816
I0403 15:34:40.474391 20033 layer_factory.hpp:77] Creating layer inception_4b/pool_proj
I0403 15:34:40.474417 20033 net.cpp:91] Creating Layer inception_4b/pool_proj
I0403 15:34:40.474439 20033 net.cpp:425] inception_4b/pool_proj <- inception_4b/pool
I0403 15:34:40.474464 20033 net.cpp:399] inception_4b/pool_proj -> inception_4b/pool_proj
I0403 15:34:40.475917 20033 net.cpp:141] Setting up inception_4b/pool_proj
I0403 15:34:40.475960 20033 net.cpp:148] Top shape: 24 64 14 14 (301056)
I0403 15:34:40.475982 20033 net.cpp:156] Memory required for data: 979019040
I0403 15:34:40.476006 20033 layer_factory.hpp:77] Creating layer inception_4b/relu_pool_proj
I0403 15:34:40.476028 20033 net.cpp:91] Creating Layer inception_4b/relu_pool_proj
I0403 15:34:40.476048 20033 net.cpp:425] inception_4b/relu_pool_proj <- inception_4b/pool_proj
I0403 15:34:40.476069 20033 net.cpp:386] inception_4b/relu_pool_proj -> inception_4b/pool_proj (in-place)
I0403 15:34:40.476294 20033 net.cpp:141] Setting up inception_4b/relu_pool_proj
I0403 15:34:40.476327 20033 net.cpp:148] Top shape: 24 64 14 14 (301056)
I0403 15:34:40.476346 20033 net.cpp:156] Memory required for data: 980223264
I0403 15:34:40.476366 20033 layer_factory.hpp:77] Creating layer inception_4b/output
I0403 15:34:40.476387 20033 net.cpp:91] Creating Layer inception_4b/output
I0403 15:34:40.476405 20033 net.cpp:425] inception_4b/output <- inception_4b/1x1
I0403 15:34:40.476424 20033 net.cpp:425] inception_4b/output <- inception_4b/3x3
I0403 15:34:40.476444 20033 net.cpp:425] inception_4b/output <- inception_4b/5x5
I0403 15:34:40.476464 20033 net.cpp:425] inception_4b/output <- inception_4b/pool_proj
I0403 15:34:40.476487 20033 net.cpp:399] inception_4b/output -> inception_4b/output
I0403 15:34:40.476542 20033 net.cpp:141] Setting up inception_4b/output
I0403 15:34:40.476570 20033 net.cpp:148] Top shape: 24 512 14 14 (2408448)
I0403 15:34:40.476588 20033 net.cpp:156] Memory required for data: 989857056
I0403 15:34:40.476622 20033 layer_factory.hpp:77] Creating layer inception_4b/output_inception_4b/output_0_split
I0403 15:34:40.476649 20033 net.cpp:91] Creating Layer inception_4b/output_inception_4b/output_0_split
I0403 15:34:40.476668 20033 net.cpp:425] inception_4b/output_inception_4b/output_0_split <- inception_4b/output
I0403 15:34:40.476691 20033 net.cpp:399] inception_4b/output_inception_4b/output_0_split -> inception_4b/output_inception_4b/output_0_split_0
I0403 15:34:40.476716 20033 net.cpp:399] inception_4b/output_inception_4b/output_0_split -> inception_4b/output_inception_4b/output_0_split_1
I0403 15:34:40.476743 20033 net.cpp:399] inception_4b/output_inception_4b/output_0_split -> inception_4b/output_inception_4b/output_0_split_2
I0403 15:34:40.476768 20033 net.cpp:399] inception_4b/output_inception_4b/output_0_split -> inception_4b/output_inception_4b/output_0_split_3
I0403 15:34:40.476867 20033 net.cpp:141] Setting up inception_4b/output_inception_4b/output_0_split
I0403 15:34:40.476896 20033 net.cpp:148] Top shape: 24 512 14 14 (2408448)
I0403 15:34:40.476917 20033 net.cpp:148] Top shape: 24 512 14 14 (2408448)
I0403 15:34:40.476934 20033 net.cpp:148] Top shape: 24 512 14 14 (2408448)
I0403 15:34:40.476958 20033 net.cpp:148] Top shape: 24 512 14 14 (2408448)
I0403 15:34:40.476976 20033 net.cpp:156] Memory required for data: 1028392224
I0403 15:34:40.476994 20033 layer_factory.hpp:77] Creating layer inception_4c/1x1
I0403 15:34:40.477022 20033 net.cpp:91] Creating Layer inception_4c/1x1
I0403 15:34:40.477043 20033 net.cpp:425] inception_4c/1x1 <- inception_4b/output_inception_4b/output_0_split_0
I0403 15:34:40.477068 20033 net.cpp:399] inception_4c/1x1 -> inception_4c/1x1
I0403 15:34:40.478811 20033 net.cpp:141] Setting up inception_4c/1x1
I0403 15:34:40.478847 20033 net.cpp:148] Top shape: 24 128 14 14 (602112)
I0403 15:34:40.478868 20033 net.cpp:156] Memory required for data: 1030800672
I0403 15:34:40.478889 20033 layer_factory.hpp:77] Creating layer inception_4c/relu_1x1
I0403 15:34:40.478912 20033 net.cpp:91] Creating Layer inception_4c/relu_1x1
I0403 15:34:40.478932 20033 net.cpp:425] inception_4c/relu_1x1 <- inception_4c/1x1
I0403 15:34:40.478968 20033 net.cpp:386] inception_4c/relu_1x1 -> inception_4c/1x1 (in-place)
I0403 15:34:40.479193 20033 net.cpp:141] Setting up inception_4c/relu_1x1
I0403 15:34:40.479225 20033 net.cpp:148] Top shape: 24 128 14 14 (602112)
I0403 15:34:40.479243 20033 net.cpp:156] Memory required for data: 1033209120
I0403 15:34:40.479262 20033 layer_factory.hpp:77] Creating layer inception_4c/3x3_reduce
I0403 15:34:40.479290 20033 net.cpp:91] Creating Layer inception_4c/3x3_reduce
I0403 15:34:40.479310 20033 net.cpp:425] inception_4c/3x3_reduce <- inception_4b/output_inception_4b/output_0_split_1
I0403 15:34:40.479336 20033 net.cpp:399] inception_4c/3x3_reduce -> inception_4c/3x3_reduce
I0403 15:34:40.481691 20033 net.cpp:141] Setting up inception_4c/3x3_reduce
I0403 15:34:40.481726 20033 net.cpp:148] Top shape: 24 128 14 14 (602112)
I0403 15:34:40.481746 20033 net.cpp:156] Memory required for data: 1035617568
I0403 15:34:40.481770 20033 layer_factory.hpp:77] Creating layer inception_4c/relu_3x3_reduce
I0403 15:34:40.481796 20033 net.cpp:91] Creating Layer inception_4c/relu_3x3_reduce
I0403 15:34:40.481815 20033 net.cpp:425] inception_4c/relu_3x3_reduce <- inception_4c/3x3_reduce
I0403 15:34:40.481837 20033 net.cpp:386] inception_4c/relu_3x3_reduce -> inception_4c/3x3_reduce (in-place)
I0403 15:34:40.482184 20033 net.cpp:141] Setting up inception_4c/relu_3x3_reduce
I0403 15:34:40.482218 20033 net.cpp:148] Top shape: 24 128 14 14 (602112)
I0403 15:34:40.482237 20033 net.cpp:156] Memory required for data: 1038026016
I0403 15:34:40.482255 20033 layer_factory.hpp:77] Creating layer inception_4c/3x3
I0403 15:34:40.482283 20033 net.cpp:91] Creating Layer inception_4c/3x3
I0403 15:34:40.482305 20033 net.cpp:425] inception_4c/3x3 <- inception_4c/3x3_reduce
I0403 15:34:40.482332 20033 net.cpp:399] inception_4c/3x3 -> inception_4c/3x3
I0403 15:34:40.486727 20033 net.cpp:141] Setting up inception_4c/3x3
I0403 15:34:40.486780 20033 net.cpp:148] Top shape: 24 256 14 14 (1204224)
I0403 15:34:40.486802 20033 net.cpp:156] Memory required for data: 1042842912
I0403 15:34:40.486841 20033 layer_factory.hpp:77] Creating layer inception_4c/relu_3x3
I0403 15:34:40.486866 20033 net.cpp:91] Creating Layer inception_4c/relu_3x3
I0403 15:34:40.486886 20033 net.cpp:425] inception_4c/relu_3x3 <- inception_4c/3x3
I0403 15:34:40.486908 20033 net.cpp:386] inception_4c/relu_3x3 -> inception_4c/3x3 (in-place)
I0403 15:34:40.487135 20033 net.cpp:141] Setting up inception_4c/relu_3x3
I0403 15:34:40.487167 20033 net.cpp:148] Top shape: 24 256 14 14 (1204224)
I0403 15:34:40.487185 20033 net.cpp:156] Memory required for data: 1047659808
I0403 15:34:40.487203 20033 layer_factory.hpp:77] Creating layer inception_4c/5x5_reduce
I0403 15:34:40.487234 20033 net.cpp:91] Creating Layer inception_4c/5x5_reduce
I0403 15:34:40.487257 20033 net.cpp:425] inception_4c/5x5_reduce <- inception_4b/output_inception_4b/output_0_split_2
I0403 15:34:40.487280 20033 net.cpp:399] inception_4c/5x5_reduce -> inception_4c/5x5_reduce
I0403 15:34:40.488603 20033 net.cpp:141] Setting up inception_4c/5x5_reduce
I0403 15:34:40.488638 20033 net.cpp:148] Top shape: 24 24 14 14 (112896)
I0403 15:34:40.488656 20033 net.cpp:156] Memory required for data: 1048111392
I0403 15:34:40.488679 20033 layer_factory.hpp:77] Creating layer inception_4c/relu_5x5_reduce
I0403 15:34:40.488705 20033 net.cpp:91] Creating Layer inception_4c/relu_5x5_reduce
I0403 15:34:40.488729 20033 net.cpp:425] inception_4c/relu_5x5_reduce <- inception_4c/5x5_reduce
I0403 15:34:40.488749 20033 net.cpp:386] inception_4c/relu_5x5_reduce -> inception_4c/5x5_reduce (in-place)
I0403 15:34:40.488987 20033 net.cpp:141] Setting up inception_4c/relu_5x5_reduce
I0403 15:34:40.489019 20033 net.cpp:148] Top shape: 24 24 14 14 (112896)
I0403 15:34:40.489037 20033 net.cpp:156] Memory required for data: 1048562976
I0403 15:34:40.489054 20033 layer_factory.hpp:77] Creating layer inception_4c/5x5
I0403 15:34:40.489081 20033 net.cpp:91] Creating Layer inception_4c/5x5
I0403 15:34:40.489101 20033 net.cpp:425] inception_4c/5x5 <- inception_4c/5x5_reduce
I0403 15:34:40.489127 20033 net.cpp:399] inception_4c/5x5 -> inception_4c/5x5
I0403 15:34:40.490648 20033 net.cpp:141] Setting up inception_4c/5x5
I0403 15:34:40.490684 20033 net.cpp:148] Top shape: 24 64 14 14 (301056)
I0403 15:34:40.490705 20033 net.cpp:156] Memory required for data: 1049767200
I0403 15:34:40.490728 20033 layer_factory.hpp:77] Creating layer inception_4c/relu_5x5
I0403 15:34:40.490749 20033 net.cpp:91] Creating Layer inception_4c/relu_5x5
I0403 15:34:40.490769 20033 net.cpp:425] inception_4c/relu_5x5 <- inception_4c/5x5
I0403 15:34:40.490793 20033 net.cpp:386] inception_4c/relu_5x5 -> inception_4c/5x5 (in-place)
I0403 15:34:40.491142 20033 net.cpp:141] Setting up inception_4c/relu_5x5
I0403 15:34:40.491176 20033 net.cpp:148] Top shape: 24 64 14 14 (301056)
I0403 15:34:40.491195 20033 net.cpp:156] Memory required for data: 1050971424
I0403 15:34:40.491215 20033 layer_factory.hpp:77] Creating layer inception_4c/pool
I0403 15:34:40.491238 20033 net.cpp:91] Creating Layer inception_4c/pool
I0403 15:34:40.491258 20033 net.cpp:425] inception_4c/pool <- inception_4b/output_inception_4b/output_0_split_3
I0403 15:34:40.491283 20033 net.cpp:399] inception_4c/pool -> inception_4c/pool
I0403 15:34:40.491364 20033 net.cpp:141] Setting up inception_4c/pool
I0403 15:34:40.491396 20033 net.cpp:148] Top shape: 24 512 14 14 (2408448)
I0403 15:34:40.491416 20033 net.cpp:156] Memory required for data: 1060605216
I0403 15:34:40.491435 20033 layer_factory.hpp:77] Creating layer inception_4c/pool_proj
I0403 15:34:40.491461 20033 net.cpp:91] Creating Layer inception_4c/pool_proj
I0403 15:34:40.491482 20033 net.cpp:425] inception_4c/pool_proj <- inception_4c/pool
I0403 15:34:40.491503 20033 net.cpp:399] inception_4c/pool_proj -> inception_4c/pool_proj
I0403 15:34:40.492993 20033 net.cpp:141] Setting up inception_4c/pool_proj
I0403 15:34:40.493032 20033 net.cpp:148] Top shape: 24 64 14 14 (301056)
I0403 15:34:40.493069 20033 net.cpp:156] Memory required for data: 1061809440
I0403 15:34:40.493093 20033 layer_factory.hpp:77] Creating layer inception_4c/relu_pool_proj
I0403 15:34:40.493115 20033 net.cpp:91] Creating Layer inception_4c/relu_pool_proj
I0403 15:34:40.493135 20033 net.cpp:425] inception_4c/relu_pool_proj <- inception_4c/pool_proj
I0403 15:34:40.493156 20033 net.cpp:386] inception_4c/relu_pool_proj -> inception_4c/pool_proj (in-place)
I0403 15:34:40.493378 20033 net.cpp:141] Setting up inception_4c/relu_pool_proj
I0403 15:34:40.493412 20033 net.cpp:148] Top shape: 24 64 14 14 (301056)
I0403 15:34:40.493432 20033 net.cpp:156] Memory required for data: 1063013664
I0403 15:34:40.493450 20033 layer_factory.hpp:77] Creating layer inception_4c/output
I0403 15:34:40.493471 20033 net.cpp:91] Creating Layer inception_4c/output
I0403 15:34:40.493490 20033 net.cpp:425] inception_4c/output <- inception_4c/1x1
I0403 15:34:40.493511 20033 net.cpp:425] inception_4c/output <- inception_4c/3x3
I0403 15:34:40.493530 20033 net.cpp:425] inception_4c/output <- inception_4c/5x5
I0403 15:34:40.493549 20033 net.cpp:425] inception_4c/output <- inception_4c/pool_proj
I0403 15:34:40.493573 20033 net.cpp:399] inception_4c/output -> inception_4c/output
I0403 15:34:40.493631 20033 net.cpp:141] Setting up inception_4c/output
I0403 15:34:40.493660 20033 net.cpp:148] Top shape: 24 512 14 14 (2408448)
I0403 15:34:40.493679 20033 net.cpp:156] Memory required for data: 1072647456
I0403 15:34:40.493696 20033 layer_factory.hpp:77] Creating layer inception_4c/output_inception_4c/output_0_split
I0403 15:34:40.493721 20033 net.cpp:91] Creating Layer inception_4c/output_inception_4c/output_0_split
I0403 15:34:40.493741 20033 net.cpp:425] inception_4c/output_inception_4c/output_0_split <- inception_4c/output
I0403 15:34:40.493762 20033 net.cpp:399] inception_4c/output_inception_4c/output_0_split -> inception_4c/output_inception_4c/output_0_split_0
I0403 15:34:40.493787 20033 net.cpp:399] inception_4c/output_inception_4c/output_0_split -> inception_4c/output_inception_4c/output_0_split_1
I0403 15:34:40.493815 20033 net.cpp:399] inception_4c/output_inception_4c/output_0_split -> inception_4c/output_inception_4c/output_0_split_2
I0403 15:34:40.493839 20033 net.cpp:399] inception_4c/output_inception_4c/output_0_split -> inception_4c/output_inception_4c/output_0_split_3
I0403 15:34:40.493950 20033 net.cpp:141] Setting up inception_4c/output_inception_4c/output_0_split
I0403 15:34:40.493985 20033 net.cpp:148] Top shape: 24 512 14 14 (2408448)
I0403 15:34:40.494006 20033 net.cpp:148] Top shape: 24 512 14 14 (2408448)
I0403 15:34:40.494024 20033 net.cpp:148] Top shape: 24 512 14 14 (2408448)
I0403 15:34:40.494043 20033 net.cpp:148] Top shape: 24 512 14 14 (2408448)
I0403 15:34:40.494061 20033 net.cpp:156] Memory required for data: 1111182624
I0403 15:34:40.494079 20033 layer_factory.hpp:77] Creating layer inception_4d/1x1
I0403 15:34:40.494107 20033 net.cpp:91] Creating Layer inception_4d/1x1
I0403 15:34:40.494130 20033 net.cpp:425] inception_4d/1x1 <- inception_4c/output_inception_4c/output_0_split_0
I0403 15:34:40.494155 20033 net.cpp:399] inception_4d/1x1 -> inception_4d/1x1
I0403 15:34:40.495838 20033 net.cpp:141] Setting up inception_4d/1x1
I0403 15:34:40.495873 20033 net.cpp:148] Top shape: 24 112 14 14 (526848)
I0403 15:34:40.495893 20033 net.cpp:156] Memory required for data: 1113290016
I0403 15:34:40.495916 20033 layer_factory.hpp:77] Creating layer inception_4d/relu_1x1
I0403 15:34:40.495941 20033 net.cpp:91] Creating Layer inception_4d/relu_1x1
I0403 15:34:40.495967 20033 net.cpp:425] inception_4d/relu_1x1 <- inception_4d/1x1
I0403 15:34:40.495990 20033 net.cpp:386] inception_4d/relu_1x1 -> inception_4d/1x1 (in-place)
I0403 15:34:40.496217 20033 net.cpp:141] Setting up inception_4d/relu_1x1
I0403 15:34:40.496248 20033 net.cpp:148] Top shape: 24 112 14 14 (526848)
I0403 15:34:40.496265 20033 net.cpp:156] Memory required for data: 1115397408
I0403 15:34:40.496284 20033 layer_factory.hpp:77] Creating layer inception_4d/3x3_reduce
I0403 15:34:40.496328 20033 net.cpp:91] Creating Layer inception_4d/3x3_reduce
I0403 15:34:40.496351 20033 net.cpp:425] inception_4d/3x3_reduce <- inception_4c/output_inception_4c/output_0_split_1
I0403 15:34:40.496376 20033 net.cpp:399] inception_4d/3x3_reduce -> inception_4d/3x3_reduce
I0403 15:34:40.498250 20033 net.cpp:141] Setting up inception_4d/3x3_reduce
I0403 15:34:40.498286 20033 net.cpp:148] Top shape: 24 144 14 14 (677376)
I0403 15:34:40.498306 20033 net.cpp:156] Memory required for data: 1118106912
I0403 15:34:40.498327 20033 layer_factory.hpp:77] Creating layer inception_4d/relu_3x3_reduce
I0403 15:34:40.498349 20033 net.cpp:91] Creating Layer inception_4d/relu_3x3_reduce
I0403 15:34:40.498369 20033 net.cpp:425] inception_4d/relu_3x3_reduce <- inception_4d/3x3_reduce
I0403 15:34:40.498394 20033 net.cpp:386] inception_4d/relu_3x3_reduce -> inception_4d/3x3_reduce (in-place)
I0403 15:34:40.498747 20033 net.cpp:141] Setting up inception_4d/relu_3x3_reduce
I0403 15:34:40.498780 20033 net.cpp:148] Top shape: 24 144 14 14 (677376)
I0403 15:34:40.498797 20033 net.cpp:156] Memory required for data: 1120816416
I0403 15:34:40.498816 20033 layer_factory.hpp:77] Creating layer inception_4d/3x3
I0403 15:34:40.498843 20033 net.cpp:91] Creating Layer inception_4d/3x3
I0403 15:34:40.498864 20033 net.cpp:425] inception_4d/3x3 <- inception_4d/3x3_reduce
I0403 15:34:40.498891 20033 net.cpp:399] inception_4d/3x3 -> inception_4d/3x3
I0403 15:34:40.504165 20033 net.cpp:141] Setting up inception_4d/3x3
I0403 15:34:40.504200 20033 net.cpp:148] Top shape: 24 288 14 14 (1354752)
I0403 15:34:40.504220 20033 net.cpp:156] Memory required for data: 1126235424
I0403 15:34:40.504243 20033 layer_factory.hpp:77] Creating layer inception_4d/relu_3x3
I0403 15:34:40.504269 20033 net.cpp:91] Creating Layer inception_4d/relu_3x3
I0403 15:34:40.504289 20033 net.cpp:425] inception_4d/relu_3x3 <- inception_4d/3x3
I0403 15:34:40.504312 20033 net.cpp:386] inception_4d/relu_3x3 -> inception_4d/3x3 (in-place)
I0403 15:34:40.504539 20033 net.cpp:141] Setting up inception_4d/relu_3x3
I0403 15:34:40.504572 20033 net.cpp:148] Top shape: 24 288 14 14 (1354752)
I0403 15:34:40.504591 20033 net.cpp:156] Memory required for data: 1131654432
I0403 15:34:40.504609 20033 layer_factory.hpp:77] Creating layer inception_4d/5x5_reduce
I0403 15:34:40.504636 20033 net.cpp:91] Creating Layer inception_4d/5x5_reduce
I0403 15:34:40.504657 20033 net.cpp:425] inception_4d/5x5_reduce <- inception_4c/output_inception_4c/output_0_split_2
I0403 15:34:40.504680 20033 net.cpp:399] inception_4d/5x5_reduce -> inception_4d/5x5_reduce
I0403 15:34:40.506090 20033 net.cpp:141] Setting up inception_4d/5x5_reduce
I0403 15:34:40.506125 20033 net.cpp:148] Top shape: 24 32 14 14 (150528)
I0403 15:34:40.506145 20033 net.cpp:156] Memory required for data: 1132256544
I0403 15:34:40.506167 20033 layer_factory.hpp:77] Creating layer inception_4d/relu_5x5_reduce
I0403 15:34:40.506191 20033 net.cpp:91] Creating Layer inception_4d/relu_5x5_reduce
I0403 15:34:40.506213 20033 net.cpp:425] inception_4d/relu_5x5_reduce <- inception_4d/5x5_reduce
I0403 15:34:40.506234 20033 net.cpp:386] inception_4d/relu_5x5_reduce -> inception_4d/5x5_reduce (in-place)
I0403 15:34:40.506464 20033 net.cpp:141] Setting up inception_4d/relu_5x5_reduce
I0403 15:34:40.506494 20033 net.cpp:148] Top shape: 24 32 14 14 (150528)
I0403 15:34:40.506512 20033 net.cpp:156] Memory required for data: 1132858656
I0403 15:34:40.506530 20033 layer_factory.hpp:77] Creating layer inception_4d/5x5
I0403 15:34:40.506559 20033 net.cpp:91] Creating Layer inception_4d/5x5
I0403 15:34:40.506579 20033 net.cpp:425] inception_4d/5x5 <- inception_4d/5x5_reduce
I0403 15:34:40.506603 20033 net.cpp:399] inception_4d/5x5 -> inception_4d/5x5
I0403 15:34:40.508396 20033 net.cpp:141] Setting up inception_4d/5x5
I0403 15:34:40.508433 20033 net.cpp:148] Top shape: 24 64 14 14 (301056)
I0403 15:34:40.508455 20033 net.cpp:156] Memory required for data: 1134062880
I0403 15:34:40.508479 20033 layer_factory.hpp:77] Creating layer inception_4d/relu_5x5
I0403 15:34:40.508522 20033 net.cpp:91] Creating Layer inception_4d/relu_5x5
I0403 15:34:40.508543 20033 net.cpp:425] inception_4d/relu_5x5 <- inception_4d/5x5
I0403 15:34:40.508566 20033 net.cpp:386] inception_4d/relu_5x5 -> inception_4d/5x5 (in-place)
I0403 15:34:40.508932 20033 net.cpp:141] Setting up inception_4d/relu_5x5
I0403 15:34:40.508980 20033 net.cpp:148] Top shape: 24 64 14 14 (301056)
I0403 15:34:40.509004 20033 net.cpp:156] Memory required for data: 1135267104
I0403 15:34:40.509023 20033 layer_factory.hpp:77] Creating layer inception_4d/pool
I0403 15:34:40.509044 20033 net.cpp:91] Creating Layer inception_4d/pool
I0403 15:34:40.509064 20033 net.cpp:425] inception_4d/pool <- inception_4c/output_inception_4c/output_0_split_3
I0403 15:34:40.509090 20033 net.cpp:399] inception_4d/pool -> inception_4d/pool
I0403 15:34:40.509174 20033 net.cpp:141] Setting up inception_4d/pool
I0403 15:34:40.509204 20033 net.cpp:148] Top shape: 24 512 14 14 (2408448)
I0403 15:34:40.509222 20033 net.cpp:156] Memory required for data: 1144900896
I0403 15:34:40.509238 20033 layer_factory.hpp:77] Creating layer inception_4d/pool_proj
I0403 15:34:40.509265 20033 net.cpp:91] Creating Layer inception_4d/pool_proj
I0403 15:34:40.509287 20033 net.cpp:425] inception_4d/pool_proj <- inception_4d/pool
I0403 15:34:40.509312 20033 net.cpp:399] inception_4d/pool_proj -> inception_4d/pool_proj
I0403 15:34:40.511456 20033 net.cpp:141] Setting up inception_4d/pool_proj
I0403 15:34:40.511492 20033 net.cpp:148] Top shape: 24 64 14 14 (301056)
I0403 15:34:40.511510 20033 net.cpp:156] Memory required for data: 1146105120
I0403 15:34:40.511533 20033 layer_factory.hpp:77] Creating layer inception_4d/relu_pool_proj
I0403 15:34:40.511557 20033 net.cpp:91] Creating Layer inception_4d/relu_pool_proj
I0403 15:34:40.511579 20033 net.cpp:425] inception_4d/relu_pool_proj <- inception_4d/pool_proj
I0403 15:34:40.511600 20033 net.cpp:386] inception_4d/relu_pool_proj -> inception_4d/pool_proj (in-place)
I0403 15:34:40.511824 20033 net.cpp:141] Setting up inception_4d/relu_pool_proj
I0403 15:34:40.511857 20033 net.cpp:148] Top shape: 24 64 14 14 (301056)
I0403 15:34:40.511875 20033 net.cpp:156] Memory required for data: 1147309344
I0403 15:34:40.511893 20033 layer_factory.hpp:77] Creating layer inception_4d/output
I0403 15:34:40.511915 20033 net.cpp:91] Creating Layer inception_4d/output
I0403 15:34:40.511934 20033 net.cpp:425] inception_4d/output <- inception_4d/1x1
I0403 15:34:40.511960 20033 net.cpp:425] inception_4d/output <- inception_4d/3x3
I0403 15:34:40.511982 20033 net.cpp:425] inception_4d/output <- inception_4d/5x5
I0403 15:34:40.512001 20033 net.cpp:425] inception_4d/output <- inception_4d/pool_proj
I0403 15:34:40.512022 20033 net.cpp:399] inception_4d/output -> inception_4d/output
I0403 15:34:40.512082 20033 net.cpp:141] Setting up inception_4d/output
I0403 15:34:40.512112 20033 net.cpp:148] Top shape: 24 528 14 14 (2483712)
I0403 15:34:40.512130 20033 net.cpp:156] Memory required for data: 1157244192
I0403 15:34:40.512147 20033 layer_factory.hpp:77] Creating layer inception_4d/output_inception_4d/output_0_split
I0403 15:34:40.512171 20033 net.cpp:91] Creating Layer inception_4d/output_inception_4d/output_0_split
I0403 15:34:40.512192 20033 net.cpp:425] inception_4d/output_inception_4d/output_0_split <- inception_4d/output
I0403 15:34:40.512213 20033 net.cpp:399] inception_4d/output_inception_4d/output_0_split -> inception_4d/output_inception_4d/output_0_split_0
I0403 15:34:40.512238 20033 net.cpp:399] inception_4d/output_inception_4d/output_0_split -> inception_4d/output_inception_4d/output_0_split_1
I0403 15:34:40.512264 20033 net.cpp:399] inception_4d/output_inception_4d/output_0_split -> inception_4d/output_inception_4d/output_0_split_2
I0403 15:34:40.512289 20033 net.cpp:399] inception_4d/output_inception_4d/output_0_split -> inception_4d/output_inception_4d/output_0_split_3
I0403 15:34:40.512315 20033 net.cpp:399] inception_4d/output_inception_4d/output_0_split -> inception_4d/output_inception_4d/output_0_split_4
I0403 15:34:40.512449 20033 net.cpp:141] Setting up inception_4d/output_inception_4d/output_0_split
I0403 15:34:40.512493 20033 net.cpp:148] Top shape: 24 528 14 14 (2483712)
I0403 15:34:40.512514 20033 net.cpp:148] Top shape: 24 528 14 14 (2483712)
I0403 15:34:40.512533 20033 net.cpp:148] Top shape: 24 528 14 14 (2483712)
I0403 15:34:40.512552 20033 net.cpp:148] Top shape: 24 528 14 14 (2483712)
I0403 15:34:40.512572 20033 net.cpp:148] Top shape: 24 528 14 14 (2483712)
I0403 15:34:40.512586 20033 net.cpp:156] Memory required for data: 1206918432
I0403 15:34:40.512604 20033 layer_factory.hpp:77] Creating layer loss2/ave_pool
I0403 15:34:40.512629 20033 net.cpp:91] Creating Layer loss2/ave_pool
I0403 15:34:40.512648 20033 net.cpp:425] loss2/ave_pool <- inception_4d/output_inception_4d/output_0_split_0
I0403 15:34:40.512671 20033 net.cpp:399] loss2/ave_pool -> loss2/ave_pool
I0403 15:34:40.513051 20033 net.cpp:141] Setting up loss2/ave_pool
I0403 15:34:40.513083 20033 net.cpp:148] Top shape: 24 528 4 4 (202752)
I0403 15:34:40.513101 20033 net.cpp:156] Memory required for data: 1207729440
I0403 15:34:40.513119 20033 layer_factory.hpp:77] Creating layer loss2/conv
I0403 15:34:40.513147 20033 net.cpp:91] Creating Layer loss2/conv
I0403 15:34:40.513169 20033 net.cpp:425] loss2/conv <- loss2/ave_pool
I0403 15:34:40.513195 20033 net.cpp:399] loss2/conv -> loss2/conv
I0403 15:34:40.515522 20033 net.cpp:141] Setting up loss2/conv
I0403 15:34:40.515559 20033 net.cpp:148] Top shape: 24 128 4 4 (49152)
I0403 15:34:40.515579 20033 net.cpp:156] Memory required for data: 1207926048
I0403 15:34:40.515602 20033 layer_factory.hpp:77] Creating layer loss2/relu_conv
I0403 15:34:40.515625 20033 net.cpp:91] Creating Layer loss2/relu_conv
I0403 15:34:40.515645 20033 net.cpp:425] loss2/relu_conv <- loss2/conv
I0403 15:34:40.515669 20033 net.cpp:386] loss2/relu_conv -> loss2/conv (in-place)
I0403 15:34:40.516026 20033 net.cpp:141] Setting up loss2/relu_conv
I0403 15:34:40.516062 20033 net.cpp:148] Top shape: 24 128 4 4 (49152)
I0403 15:34:40.516082 20033 net.cpp:156] Memory required for data: 1208122656
I0403 15:34:40.516099 20033 layer_factory.hpp:77] Creating layer loss2/fc
I0403 15:34:40.516124 20033 net.cpp:91] Creating Layer loss2/fc
I0403 15:34:40.516144 20033 net.cpp:425] loss2/fc <- loss2/conv
I0403 15:34:40.516170 20033 net.cpp:399] loss2/fc -> loss2/fc
I0403 15:34:40.538122 20033 net.cpp:141] Setting up loss2/fc
I0403 15:34:40.538166 20033 net.cpp:148] Top shape: 24 1024 (24576)
I0403 15:34:40.538187 20033 net.cpp:156] Memory required for data: 1208220960
I0403 15:34:40.538209 20033 layer_factory.hpp:77] Creating layer loss2/relu_fc
I0403 15:34:40.538233 20033 net.cpp:91] Creating Layer loss2/relu_fc
I0403 15:34:40.538254 20033 net.cpp:425] loss2/relu_fc <- loss2/fc
I0403 15:34:40.538275 20033 net.cpp:386] loss2/relu_fc -> loss2/fc (in-place)
I0403 15:34:40.538633 20033 net.cpp:141] Setting up loss2/relu_fc
I0403 15:34:40.538666 20033 net.cpp:148] Top shape: 24 1024 (24576)
I0403 15:34:40.538684 20033 net.cpp:156] Memory required for data: 1208319264
I0403 15:34:40.538702 20033 layer_factory.hpp:77] Creating layer loss2/drop_fc
I0403 15:34:40.538725 20033 net.cpp:91] Creating Layer loss2/drop_fc
I0403 15:34:40.538746 20033 net.cpp:425] loss2/drop_fc <- loss2/fc
I0403 15:34:40.538768 20033 net.cpp:386] loss2/drop_fc -> loss2/fc (in-place)
I0403 15:34:40.538830 20033 net.cpp:141] Setting up loss2/drop_fc
I0403 15:34:40.538857 20033 net.cpp:148] Top shape: 24 1024 (24576)
I0403 15:34:40.538875 20033 net.cpp:156] Memory required for data: 1208417568
I0403 15:34:40.538894 20033 layer_factory.hpp:77] Creating layer loss2/classifier_plantvillage
I0403 15:34:40.538918 20033 net.cpp:91] Creating Layer loss2/classifier_plantvillage
I0403 15:34:40.538938 20033 net.cpp:425] loss2/classifier_plantvillage <- loss2/fc
I0403 15:34:40.538972 20033 net.cpp:399] loss2/classifier_plantvillage -> loss2/classifier_plantvillage
I0403 15:34:40.539475 20033 net.cpp:141] Setting up loss2/classifier_plantvillage
I0403 15:34:40.539505 20033 net.cpp:148] Top shape: 24 38 (912)
I0403 15:34:40.539542 20033 net.cpp:156] Memory required for data: 1208421216
I0403 15:34:40.539566 20033 layer_factory.hpp:77] Creating layer loss2/classifier_plantvillage_loss2/classifier_plantvillage_0_split
I0403 15:34:40.539588 20033 net.cpp:91] Creating Layer loss2/classifier_plantvillage_loss2/classifier_plantvillage_0_split
I0403 15:34:40.539608 20033 net.cpp:425] loss2/classifier_plantvillage_loss2/classifier_plantvillage_0_split <- loss2/classifier_plantvillage
I0403 15:34:40.539633 20033 net.cpp:399] loss2/classifier_plantvillage_loss2/classifier_plantvillage_0_split -> loss2/classifier_plantvillage_loss2/classifier_plantvillage_0_split_0
I0403 15:34:40.539659 20033 net.cpp:399] loss2/classifier_plantvillage_loss2/classifier_plantvillage_0_split -> loss2/classifier_plantvillage_loss2/classifier_plantvillage_0_split_1
I0403 15:34:40.539685 20033 net.cpp:399] loss2/classifier_plantvillage_loss2/classifier_plantvillage_0_split -> loss2/classifier_plantvillage_loss2/classifier_plantvillage_0_split_2
I0403 15:34:40.539778 20033 net.cpp:141] Setting up loss2/classifier_plantvillage_loss2/classifier_plantvillage_0_split
I0403 15:34:40.539810 20033 net.cpp:148] Top shape: 24 38 (912)
I0403 15:34:40.539830 20033 net.cpp:148] Top shape: 24 38 (912)
I0403 15:34:40.539849 20033 net.cpp:148] Top shape: 24 38 (912)
I0403 15:34:40.539867 20033 net.cpp:156] Memory required for data: 1208432160
I0403 15:34:40.539885 20033 layer_factory.hpp:77] Creating layer inception_4e/1x1
I0403 15:34:40.539912 20033 net.cpp:91] Creating Layer inception_4e/1x1
I0403 15:34:40.539933 20033 net.cpp:425] inception_4e/1x1 <- inception_4d/output_inception_4d/output_0_split_1
I0403 15:34:40.539963 20033 net.cpp:399] inception_4e/1x1 -> inception_4e/1x1
I0403 15:34:40.542207 20033 net.cpp:141] Setting up inception_4e/1x1
I0403 15:34:40.542244 20033 net.cpp:148] Top shape: 24 256 14 14 (1204224)
I0403 15:34:40.542264 20033 net.cpp:156] Memory required for data: 1213249056
I0403 15:34:40.542287 20033 layer_factory.hpp:77] Creating layer inception_4e/relu_1x1
I0403 15:34:40.542309 20033 net.cpp:91] Creating Layer inception_4e/relu_1x1
I0403 15:34:40.542330 20033 net.cpp:425] inception_4e/relu_1x1 <- inception_4e/1x1
I0403 15:34:40.542353 20033 net.cpp:386] inception_4e/relu_1x1 -> inception_4e/1x1 (in-place)
I0403 15:34:40.542713 20033 net.cpp:141] Setting up inception_4e/relu_1x1
I0403 15:34:40.542748 20033 net.cpp:148] Top shape: 24 256 14 14 (1204224)
I0403 15:34:40.542768 20033 net.cpp:156] Memory required for data: 1218065952
I0403 15:34:40.542785 20033 layer_factory.hpp:77] Creating layer inception_4e/3x3_reduce
I0403 15:34:40.542814 20033 net.cpp:91] Creating Layer inception_4e/3x3_reduce
I0403 15:34:40.542834 20033 net.cpp:425] inception_4e/3x3_reduce <- inception_4d/output_inception_4d/output_0_split_2
I0403 15:34:40.542857 20033 net.cpp:399] inception_4e/3x3_reduce -> inception_4e/3x3_reduce
I0403 15:34:40.545456 20033 net.cpp:141] Setting up inception_4e/3x3_reduce
I0403 15:34:40.545495 20033 net.cpp:148] Top shape: 24 160 14 14 (752640)
I0403 15:34:40.545514 20033 net.cpp:156] Memory required for data: 1221076512
I0403 15:34:40.545537 20033 layer_factory.hpp:77] Creating layer inception_4e/relu_3x3_reduce
I0403 15:34:40.545558 20033 net.cpp:91] Creating Layer inception_4e/relu_3x3_reduce
I0403 15:34:40.545578 20033 net.cpp:425] inception_4e/relu_3x3_reduce <- inception_4e/3x3_reduce
I0403 15:34:40.545600 20033 net.cpp:386] inception_4e/relu_3x3_reduce -> inception_4e/3x3_reduce (in-place)
I0403 15:34:40.545832 20033 net.cpp:141] Setting up inception_4e/relu_3x3_reduce
I0403 15:34:40.545862 20033 net.cpp:148] Top shape: 24 160 14 14 (752640)
I0403 15:34:40.545879 20033 net.cpp:156] Memory required for data: 1224087072
I0403 15:34:40.545898 20033 layer_factory.hpp:77] Creating layer inception_4e/3x3
I0403 15:34:40.545925 20033 net.cpp:91] Creating Layer inception_4e/3x3
I0403 15:34:40.545948 20033 net.cpp:425] inception_4e/3x3 <- inception_4e/3x3_reduce
I0403 15:34:40.545980 20033 net.cpp:399] inception_4e/3x3 -> inception_4e/3x3
I0403 15:34:40.552191 20033 net.cpp:141] Setting up inception_4e/3x3
I0403 15:34:40.552243 20033 net.cpp:148] Top shape: 24 320 14 14 (1505280)
I0403 15:34:40.552263 20033 net.cpp:156] Memory required for data: 1230108192
I0403 15:34:40.552286 20033 layer_factory.hpp:77] Creating layer inception_4e/relu_3x3
I0403 15:34:40.552309 20033 net.cpp:91] Creating Layer inception_4e/relu_3x3
I0403 15:34:40.552332 20033 net.cpp:425] inception_4e/relu_3x3 <- inception_4e/3x3
I0403 15:34:40.552355 20033 net.cpp:386] inception_4e/relu_3x3 -> inception_4e/3x3 (in-place)
I0403 15:34:40.552713 20033 net.cpp:141] Setting up inception_4e/relu_3x3
I0403 15:34:40.552747 20033 net.cpp:148] Top shape: 24 320 14 14 (1505280)
I0403 15:34:40.552764 20033 net.cpp:156] Memory required for data: 1236129312
I0403 15:34:40.552783 20033 layer_factory.hpp:77] Creating layer inception_4e/5x5_reduce
I0403 15:34:40.552810 20033 net.cpp:91] Creating Layer inception_4e/5x5_reduce
I0403 15:34:40.552832 20033 net.cpp:425] inception_4e/5x5_reduce <- inception_4d/output_inception_4d/output_0_split_3
I0403 15:34:40.552860 20033 net.cpp:399] inception_4e/5x5_reduce -> inception_4e/5x5_reduce
I0403 15:34:40.554201 20033 net.cpp:141] Setting up inception_4e/5x5_reduce
I0403 15:34:40.554237 20033 net.cpp:148] Top shape: 24 32 14 14 (150528)
I0403 15:34:40.554257 20033 net.cpp:156] Memory required for data: 1236731424
I0403 15:34:40.554280 20033 layer_factory.hpp:77] Creating layer inception_4e/relu_5x5_reduce
I0403 15:34:40.554302 20033 net.cpp:91] Creating Layer inception_4e/relu_5x5_reduce
I0403 15:34:40.554322 20033 net.cpp:425] inception_4e/relu_5x5_reduce <- inception_4e/5x5_reduce
I0403 15:34:40.554347 20033 net.cpp:386] inception_4e/relu_5x5_reduce -> inception_4e/5x5_reduce (in-place)
I0403 15:34:40.554704 20033 net.cpp:141] Setting up inception_4e/relu_5x5_reduce
I0403 15:34:40.554740 20033 net.cpp:148] Top shape: 24 32 14 14 (150528)
I0403 15:34:40.554759 20033 net.cpp:156] Memory required for data: 1237333536
I0403 15:34:40.554780 20033 layer_factory.hpp:77] Creating layer inception_4e/5x5
I0403 15:34:40.554826 20033 net.cpp:91] Creating Layer inception_4e/5x5
I0403 15:34:40.554849 20033 net.cpp:425] inception_4e/5x5 <- inception_4e/5x5_reduce
I0403 15:34:40.554873 20033 net.cpp:399] inception_4e/5x5 -> inception_4e/5x5
I0403 15:34:40.557134 20033 net.cpp:141] Setting up inception_4e/5x5
I0403 15:34:40.557170 20033 net.cpp:148] Top shape: 24 128 14 14 (602112)
I0403 15:34:40.557189 20033 net.cpp:156] Memory required for data: 1239741984
I0403 15:34:40.557214 20033 layer_factory.hpp:77] Creating layer inception_4e/relu_5x5
I0403 15:34:40.557240 20033 net.cpp:91] Creating Layer inception_4e/relu_5x5
I0403 15:34:40.557260 20033 net.cpp:425] inception_4e/relu_5x5 <- inception_4e/5x5
I0403 15:34:40.557281 20033 net.cpp:386] inception_4e/relu_5x5 -> inception_4e/5x5 (in-place)
I0403 15:34:40.557524 20033 net.cpp:141] Setting up inception_4e/relu_5x5
I0403 15:34:40.557559 20033 net.cpp:148] Top shape: 24 128 14 14 (602112)
I0403 15:34:40.557577 20033 net.cpp:156] Memory required for data: 1242150432
I0403 15:34:40.557596 20033 layer_factory.hpp:77] Creating layer inception_4e/pool
I0403 15:34:40.557618 20033 net.cpp:91] Creating Layer inception_4e/pool
I0403 15:34:40.557637 20033 net.cpp:425] inception_4e/pool <- inception_4d/output_inception_4d/output_0_split_4
I0403 15:34:40.557662 20033 net.cpp:399] inception_4e/pool -> inception_4e/pool
I0403 15:34:40.557750 20033 net.cpp:141] Setting up inception_4e/pool
I0403 15:34:40.557780 20033 net.cpp:148] Top shape: 24 528 14 14 (2483712)
I0403 15:34:40.557797 20033 net.cpp:156] Memory required for data: 1252085280
I0403 15:34:40.557814 20033 layer_factory.hpp:77] Creating layer inception_4e/pool_proj
I0403 15:34:40.557847 20033 net.cpp:91] Creating Layer inception_4e/pool_proj
I0403 15:34:40.557869 20033 net.cpp:425] inception_4e/pool_proj <- inception_4e/pool
I0403 15:34:40.557893 20033 net.cpp:399] inception_4e/pool_proj -> inception_4e/pool_proj
I0403 15:34:40.559764 20033 net.cpp:141] Setting up inception_4e/pool_proj
I0403 15:34:40.559813 20033 net.cpp:148] Top shape: 24 128 14 14 (602112)
I0403 15:34:40.559834 20033 net.cpp:156] Memory required for data: 1254493728
I0403 15:34:40.559855 20033 layer_factory.hpp:77] Creating layer inception_4e/relu_pool_proj
I0403 15:34:40.559880 20033 net.cpp:91] Creating Layer inception_4e/relu_pool_proj
I0403 15:34:40.559902 20033 net.cpp:425] inception_4e/relu_pool_proj <- inception_4e/pool_proj
I0403 15:34:40.559924 20033 net.cpp:386] inception_4e/relu_pool_proj -> inception_4e/pool_proj (in-place)
I0403 15:34:40.560291 20033 net.cpp:141] Setting up inception_4e/relu_pool_proj
I0403 15:34:40.560322 20033 net.cpp:148] Top shape: 24 128 14 14 (602112)
I0403 15:34:40.560341 20033 net.cpp:156] Memory required for data: 1256902176
I0403 15:34:40.560359 20033 layer_factory.hpp:77] Creating layer inception_4e/output
I0403 15:34:40.560384 20033 net.cpp:91] Creating Layer inception_4e/output
I0403 15:34:40.560403 20033 net.cpp:425] inception_4e/output <- inception_4e/1x1
I0403 15:34:40.560423 20033 net.cpp:425] inception_4e/output <- inception_4e/3x3
I0403 15:34:40.560443 20033 net.cpp:425] inception_4e/output <- inception_4e/5x5
I0403 15:34:40.560463 20033 net.cpp:425] inception_4e/output <- inception_4e/pool_proj
I0403 15:34:40.560484 20033 net.cpp:399] inception_4e/output -> inception_4e/output
I0403 15:34:40.560549 20033 net.cpp:141] Setting up inception_4e/output
I0403 15:34:40.560577 20033 net.cpp:148] Top shape: 24 832 14 14 (3913728)
I0403 15:34:40.560595 20033 net.cpp:156] Memory required for data: 1272557088
I0403 15:34:40.560613 20033 layer_factory.hpp:77] Creating layer pool4/3x3_s2
I0403 15:34:40.560636 20033 net.cpp:91] Creating Layer pool4/3x3_s2
I0403 15:34:40.560655 20033 net.cpp:425] pool4/3x3_s2 <- inception_4e/output
I0403 15:34:40.560680 20033 net.cpp:399] pool4/3x3_s2 -> pool4/3x3_s2
I0403 15:34:40.560763 20033 net.cpp:141] Setting up pool4/3x3_s2
I0403 15:34:40.560792 20033 net.cpp:148] Top shape: 24 832 7 7 (978432)
I0403 15:34:40.560809 20033 net.cpp:156] Memory required for data: 1276470816
I0403 15:34:40.560827 20033 layer_factory.hpp:77] Creating layer pool4/3x3_s2_pool4/3x3_s2_0_split
I0403 15:34:40.560852 20033 net.cpp:91] Creating Layer pool4/3x3_s2_pool4/3x3_s2_0_split
I0403 15:34:40.560870 20033 net.cpp:425] pool4/3x3_s2_pool4/3x3_s2_0_split <- pool4/3x3_s2
I0403 15:34:40.560892 20033 net.cpp:399] pool4/3x3_s2_pool4/3x3_s2_0_split -> pool4/3x3_s2_pool4/3x3_s2_0_split_0
I0403 15:34:40.560920 20033 net.cpp:399] pool4/3x3_s2_pool4/3x3_s2_0_split -> pool4/3x3_s2_pool4/3x3_s2_0_split_1
I0403 15:34:40.560945 20033 net.cpp:399] pool4/3x3_s2_pool4/3x3_s2_0_split -> pool4/3x3_s2_pool4/3x3_s2_0_split_2
I0403 15:34:40.560976 20033 net.cpp:399] pool4/3x3_s2_pool4/3x3_s2_0_split -> pool4/3x3_s2_pool4/3x3_s2_0_split_3
I0403 15:34:40.561087 20033 net.cpp:141] Setting up pool4/3x3_s2_pool4/3x3_s2_0_split
I0403 15:34:40.561116 20033 net.cpp:148] Top shape: 24 832 7 7 (978432)
I0403 15:34:40.561136 20033 net.cpp:148] Top shape: 24 832 7 7 (978432)
I0403 15:34:40.561156 20033 net.cpp:148] Top shape: 24 832 7 7 (978432)
I0403 15:34:40.561175 20033 net.cpp:148] Top shape: 24 832 7 7 (978432)
I0403 15:34:40.561192 20033 net.cpp:156] Memory required for data: 1292125728
I0403 15:34:40.561210 20033 layer_factory.hpp:77] Creating layer inception_5a/1x1
I0403 15:34:40.561238 20033 net.cpp:91] Creating Layer inception_5a/1x1
I0403 15:34:40.561259 20033 net.cpp:425] inception_5a/1x1 <- pool4/3x3_s2_pool4/3x3_s2_0_split_0
I0403 15:34:40.561285 20033 net.cpp:399] inception_5a/1x1 -> inception_5a/1x1
I0403 15:34:40.564827 20033 net.cpp:141] Setting up inception_5a/1x1
I0403 15:34:40.564867 20033 net.cpp:148] Top shape: 24 256 7 7 (301056)
I0403 15:34:40.564888 20033 net.cpp:156] Memory required for data: 1293329952
I0403 15:34:40.564910 20033 layer_factory.hpp:77] Creating layer inception_5a/relu_1x1
I0403 15:34:40.564932 20033 net.cpp:91] Creating Layer inception_5a/relu_1x1
I0403 15:34:40.564952 20033 net.cpp:425] inception_5a/relu_1x1 <- inception_5a/1x1
I0403 15:34:40.564980 20033 net.cpp:386] inception_5a/relu_1x1 -> inception_5a/1x1 (in-place)
I0403 15:34:40.565367 20033 net.cpp:141] Setting up inception_5a/relu_1x1
I0403 15:34:40.565402 20033 net.cpp:148] Top shape: 24 256 7 7 (301056)
I0403 15:34:40.565421 20033 net.cpp:156] Memory required for data: 1294534176
I0403 15:34:40.565440 20033 layer_factory.hpp:77] Creating layer inception_5a/3x3_reduce
I0403 15:34:40.565467 20033 net.cpp:91] Creating Layer inception_5a/3x3_reduce
I0403 15:34:40.565490 20033 net.cpp:425] inception_5a/3x3_reduce <- pool4/3x3_s2_pool4/3x3_s2_0_split_1
I0403 15:34:40.565513 20033 net.cpp:399] inception_5a/3x3_reduce -> inception_5a/3x3_reduce
I0403 15:34:40.568536 20033 net.cpp:141] Setting up inception_5a/3x3_reduce
I0403 15:34:40.568573 20033 net.cpp:148] Top shape: 24 160 7 7 (188160)
I0403 15:34:40.568593 20033 net.cpp:156] Memory required for data: 1295286816
I0403 15:34:40.568615 20033 layer_factory.hpp:77] Creating layer inception_5a/relu_3x3_reduce
I0403 15:34:40.568640 20033 net.cpp:91] Creating Layer inception_5a/relu_3x3_reduce
I0403 15:34:40.568661 20033 net.cpp:425] inception_5a/relu_3x3_reduce <- inception_5a/3x3_reduce
I0403 15:34:40.568683 20033 net.cpp:386] inception_5a/relu_3x3_reduce -> inception_5a/3x3_reduce (in-place)
I0403 15:34:40.568917 20033 net.cpp:141] Setting up inception_5a/relu_3x3_reduce
I0403 15:34:40.568948 20033 net.cpp:148] Top shape: 24 160 7 7 (188160)
I0403 15:34:40.568984 20033 net.cpp:156] Memory required for data: 1296039456
I0403 15:34:40.569003 20033 layer_factory.hpp:77] Creating layer inception_5a/3x3
I0403 15:34:40.569028 20033 net.cpp:91] Creating Layer inception_5a/3x3
I0403 15:34:40.569049 20033 net.cpp:425] inception_5a/3x3 <- inception_5a/3x3_reduce
I0403 15:34:40.569077 20033 net.cpp:399] inception_5a/3x3 -> inception_5a/3x3
I0403 15:34:40.575325 20033 net.cpp:141] Setting up inception_5a/3x3
I0403 15:34:40.575361 20033 net.cpp:148] Top shape: 24 320 7 7 (376320)
I0403 15:34:40.575381 20033 net.cpp:156] Memory required for data: 1297544736
I0403 15:34:40.575404 20033 layer_factory.hpp:77] Creating layer inception_5a/relu_3x3
I0403 15:34:40.575430 20033 net.cpp:91] Creating Layer inception_5a/relu_3x3
I0403 15:34:40.575450 20033 net.cpp:425] inception_5a/relu_3x3 <- inception_5a/3x3
I0403 15:34:40.575472 20033 net.cpp:386] inception_5a/relu_3x3 -> inception_5a/3x3 (in-place)
I0403 15:34:40.575839 20033 net.cpp:141] Setting up inception_5a/relu_3x3
I0403 15:34:40.575871 20033 net.cpp:148] Top shape: 24 320 7 7 (376320)
I0403 15:34:40.575891 20033 net.cpp:156] Memory required for data: 1299050016
I0403 15:34:40.575909 20033 layer_factory.hpp:77] Creating layer inception_5a/5x5_reduce
I0403 15:34:40.575939 20033 net.cpp:91] Creating Layer inception_5a/5x5_reduce
I0403 15:34:40.575968 20033 net.cpp:425] inception_5a/5x5_reduce <- pool4/3x3_s2_pool4/3x3_s2_0_split_2
I0403 15:34:40.575994 20033 net.cpp:399] inception_5a/5x5_reduce -> inception_5a/5x5_reduce
I0403 15:34:40.577436 20033 net.cpp:141] Setting up inception_5a/5x5_reduce
I0403 15:34:40.577474 20033 net.cpp:148] Top shape: 24 32 7 7 (37632)
I0403 15:34:40.577494 20033 net.cpp:156] Memory required for data: 1299200544
I0403 15:34:40.577517 20033 layer_factory.hpp:77] Creating layer inception_5a/relu_5x5_reduce
I0403 15:34:40.577539 20033 net.cpp:91] Creating Layer inception_5a/relu_5x5_reduce
I0403 15:34:40.577559 20033 net.cpp:425] inception_5a/relu_5x5_reduce <- inception_5a/5x5_reduce
I0403 15:34:40.577580 20033 net.cpp:386] inception_5a/relu_5x5_reduce -> inception_5a/5x5_reduce (in-place)
I0403 15:34:40.577950 20033 net.cpp:141] Setting up inception_5a/relu_5x5_reduce
I0403 15:34:40.577991 20033 net.cpp:148] Top shape: 24 32 7 7 (37632)
I0403 15:34:40.578011 20033 net.cpp:156] Memory required for data: 1299351072
I0403 15:34:40.578027 20033 layer_factory.hpp:77] Creating layer inception_5a/5x5
I0403 15:34:40.578054 20033 net.cpp:91] Creating Layer inception_5a/5x5
I0403 15:34:40.578075 20033 net.cpp:425] inception_5a/5x5 <- inception_5a/5x5_reduce
I0403 15:34:40.578099 20033 net.cpp:399] inception_5a/5x5 -> inception_5a/5x5
I0403 15:34:40.580230 20033 net.cpp:141] Setting up inception_5a/5x5
I0403 15:34:40.580278 20033 net.cpp:148] Top shape: 24 128 7 7 (150528)
I0403 15:34:40.580298 20033 net.cpp:156] Memory required for data: 1299953184
I0403 15:34:40.580322 20033 layer_factory.hpp:77] Creating layer inception_5a/relu_5x5
I0403 15:34:40.580346 20033 net.cpp:91] Creating Layer inception_5a/relu_5x5
I0403 15:34:40.580368 20033 net.cpp:425] inception_5a/relu_5x5 <- inception_5a/5x5
I0403 15:34:40.580389 20033 net.cpp:386] inception_5a/relu_5x5 -> inception_5a/5x5 (in-place)
I0403 15:34:40.580628 20033 net.cpp:141] Setting up inception_5a/relu_5x5
I0403 15:34:40.580658 20033 net.cpp:148] Top shape: 24 128 7 7 (150528)
I0403 15:34:40.580677 20033 net.cpp:156] Memory required for data: 1300555296
I0403 15:34:40.580695 20033 layer_factory.hpp:77] Creating layer inception_5a/pool
I0403 15:34:40.580716 20033 net.cpp:91] Creating Layer inception_5a/pool
I0403 15:34:40.580736 20033 net.cpp:425] inception_5a/pool <- pool4/3x3_s2_pool4/3x3_s2_0_split_3
I0403 15:34:40.580765 20033 net.cpp:399] inception_5a/pool -> inception_5a/pool
I0403 15:34:40.580852 20033 net.cpp:141] Setting up inception_5a/pool
I0403 15:34:40.580881 20033 net.cpp:148] Top shape: 24 832 7 7 (978432)
I0403 15:34:40.580899 20033 net.cpp:156] Memory required for data: 1304469024
I0403 15:34:40.580916 20033 layer_factory.hpp:77] Creating layer inception_5a/pool_proj
I0403 15:34:40.580945 20033 net.cpp:91] Creating Layer inception_5a/pool_proj
I0403 15:34:40.580972 20033 net.cpp:425] inception_5a/pool_proj <- inception_5a/pool
I0403 15:34:40.580996 20033 net.cpp:399] inception_5a/pool_proj -> inception_5a/pool_proj
I0403 15:34:40.583793 20033 net.cpp:141] Setting up inception_5a/pool_proj
I0403 15:34:40.583830 20033 net.cpp:148] Top shape: 24 128 7 7 (150528)
I0403 15:34:40.583849 20033 net.cpp:156] Memory required for data: 1305071136
I0403 15:34:40.583873 20033 layer_factory.hpp:77] Creating layer inception_5a/relu_pool_proj
I0403 15:34:40.583897 20033 net.cpp:91] Creating Layer inception_5a/relu_pool_proj
I0403 15:34:40.583917 20033 net.cpp:425] inception_5a/relu_pool_proj <- inception_5a/pool_proj
I0403 15:34:40.583938 20033 net.cpp:386] inception_5a/relu_pool_proj -> inception_5a/pool_proj (in-place)
I0403 15:34:40.584302 20033 net.cpp:141] Setting up inception_5a/relu_pool_proj
I0403 15:34:40.584336 20033 net.cpp:148] Top shape: 24 128 7 7 (150528)
I0403 15:34:40.584352 20033 net.cpp:156] Memory required for data: 1305673248
I0403 15:34:40.584372 20033 layer_factory.hpp:77] Creating layer inception_5a/output
I0403 15:34:40.584395 20033 net.cpp:91] Creating Layer inception_5a/output
I0403 15:34:40.584415 20033 net.cpp:425] inception_5a/output <- inception_5a/1x1
I0403 15:34:40.584436 20033 net.cpp:425] inception_5a/output <- inception_5a/3x3
I0403 15:34:40.584456 20033 net.cpp:425] inception_5a/output <- inception_5a/5x5
I0403 15:34:40.584475 20033 net.cpp:425] inception_5a/output <- inception_5a/pool_proj
I0403 15:34:40.584497 20033 net.cpp:399] inception_5a/output -> inception_5a/output
I0403 15:34:40.584561 20033 net.cpp:141] Setting up inception_5a/output
I0403 15:34:40.584590 20033 net.cpp:148] Top shape: 24 832 7 7 (978432)
I0403 15:34:40.584607 20033 net.cpp:156] Memory required for data: 1309586976
I0403 15:34:40.584625 20033 layer_factory.hpp:77] Creating layer inception_5a/output_inception_5a/output_0_split
I0403 15:34:40.584646 20033 net.cpp:91] Creating Layer inception_5a/output_inception_5a/output_0_split
I0403 15:34:40.584666 20033 net.cpp:425] inception_5a/output_inception_5a/output_0_split <- inception_5a/output
I0403 15:34:40.584691 20033 net.cpp:399] inception_5a/output_inception_5a/output_0_split -> inception_5a/output_inception_5a/output_0_split_0
I0403 15:34:40.584715 20033 net.cpp:399] inception_5a/output_inception_5a/output_0_split -> inception_5a/output_inception_5a/output_0_split_1
I0403 15:34:40.584739 20033 net.cpp:399] inception_5a/output_inception_5a/output_0_split -> inception_5a/output_inception_5a/output_0_split_2
I0403 15:34:40.584764 20033 net.cpp:399] inception_5a/output_inception_5a/output_0_split -> inception_5a/output_inception_5a/output_0_split_3
I0403 15:34:40.584903 20033 net.cpp:141] Setting up inception_5a/output_inception_5a/output_0_split
I0403 15:34:40.584935 20033 net.cpp:148] Top shape: 24 832 7 7 (978432)
I0403 15:34:40.584961 20033 net.cpp:148] Top shape: 24 832 7 7 (978432)
I0403 15:34:40.584981 20033 net.cpp:148] Top shape: 24 832 7 7 (978432)
I0403 15:34:40.585000 20033 net.cpp:148] Top shape: 24 832 7 7 (978432)
I0403 15:34:40.585017 20033 net.cpp:156] Memory required for data: 1325241888
I0403 15:34:40.585036 20033 layer_factory.hpp:77] Creating layer inception_5b/1x1
I0403 15:34:40.585062 20033 net.cpp:91] Creating Layer inception_5b/1x1
I0403 15:34:40.585083 20033 net.cpp:425] inception_5b/1x1 <- inception_5a/output_inception_5a/output_0_split_0
I0403 15:34:40.585108 20033 net.cpp:399] inception_5b/1x1 -> inception_5b/1x1
I0403 15:34:40.589757 20033 net.cpp:141] Setting up inception_5b/1x1
I0403 15:34:40.589795 20033 net.cpp:148] Top shape: 24 384 7 7 (451584)
I0403 15:34:40.589814 20033 net.cpp:156] Memory required for data: 1327048224
I0403 15:34:40.589838 20033 layer_factory.hpp:77] Creating layer inception_5b/relu_1x1
I0403 15:34:40.589862 20033 net.cpp:91] Creating Layer inception_5b/relu_1x1
I0403 15:34:40.589884 20033 net.cpp:425] inception_5b/relu_1x1 <- inception_5b/1x1
I0403 15:34:40.589905 20033 net.cpp:386] inception_5b/relu_1x1 -> inception_5b/1x1 (in-place)
I0403 15:34:40.590289 20033 net.cpp:141] Setting up inception_5b/relu_1x1
I0403 15:34:40.590322 20033 net.cpp:148] Top shape: 24 384 7 7 (451584)
I0403 15:34:40.590339 20033 net.cpp:156] Memory required for data: 1328854560
I0403 15:34:40.590358 20033 layer_factory.hpp:77] Creating layer inception_5b/3x3_reduce
I0403 15:34:40.590385 20033 net.cpp:91] Creating Layer inception_5b/3x3_reduce
I0403 15:34:40.590409 20033 net.cpp:425] inception_5b/3x3_reduce <- inception_5a/output_inception_5a/output_0_split_1
I0403 15:34:40.590435 20033 net.cpp:399] inception_5b/3x3_reduce -> inception_5b/3x3_reduce
I0403 15:34:40.593719 20033 net.cpp:141] Setting up inception_5b/3x3_reduce
I0403 15:34:40.593755 20033 net.cpp:148] Top shape: 24 192 7 7 (225792)
I0403 15:34:40.593775 20033 net.cpp:156] Memory required for data: 1329757728
I0403 15:34:40.593797 20033 layer_factory.hpp:77] Creating layer inception_5b/relu_3x3_reduce
I0403 15:34:40.593822 20033 net.cpp:91] Creating Layer inception_5b/relu_3x3_reduce
I0403 15:34:40.593842 20033 net.cpp:425] inception_5b/relu_3x3_reduce <- inception_5b/3x3_reduce
I0403 15:34:40.593863 20033 net.cpp:386] inception_5b/relu_3x3_reduce -> inception_5b/3x3_reduce (in-place)
I0403 15:34:40.594112 20033 net.cpp:141] Setting up inception_5b/relu_3x3_reduce
I0403 15:34:40.594143 20033 net.cpp:148] Top shape: 24 192 7 7 (225792)
I0403 15:34:40.594162 20033 net.cpp:156] Memory required for data: 1330660896
I0403 15:34:40.594182 20033 layer_factory.hpp:77] Creating layer inception_5b/3x3
I0403 15:34:40.594211 20033 net.cpp:91] Creating Layer inception_5b/3x3
I0403 15:34:40.594234 20033 net.cpp:425] inception_5b/3x3 <- inception_5b/3x3_reduce
I0403 15:34:40.594257 20033 net.cpp:399] inception_5b/3x3 -> inception_5b/3x3
I0403 15:34:40.602622 20033 net.cpp:141] Setting up inception_5b/3x3
I0403 15:34:40.602658 20033 net.cpp:148] Top shape: 24 384 7 7 (451584)
I0403 15:34:40.602676 20033 net.cpp:156] Memory required for data: 1332467232
I0403 15:34:40.602699 20033 layer_factory.hpp:77] Creating layer inception_5b/relu_3x3
I0403 15:34:40.602722 20033 net.cpp:91] Creating Layer inception_5b/relu_3x3
I0403 15:34:40.602744 20033 net.cpp:425] inception_5b/relu_3x3 <- inception_5b/3x3
I0403 15:34:40.602766 20033 net.cpp:386] inception_5b/relu_3x3 -> inception_5b/3x3 (in-place)
I0403 15:34:40.603132 20033 net.cpp:141] Setting up inception_5b/relu_3x3
I0403 15:34:40.603166 20033 net.cpp:148] Top shape: 24 384 7 7 (451584)
I0403 15:34:40.603183 20033 net.cpp:156] Memory required for data: 1334273568
I0403 15:34:40.603200 20033 layer_factory.hpp:77] Creating layer inception_5b/5x5_reduce
I0403 15:34:40.603250 20033 net.cpp:91] Creating Layer inception_5b/5x5_reduce
I0403 15:34:40.603273 20033 net.cpp:425] inception_5b/5x5_reduce <- inception_5a/output_inception_5a/output_0_split_2
I0403 15:34:40.603301 20033 net.cpp:399] inception_5b/5x5_reduce -> inception_5b/5x5_reduce
I0403 15:34:40.604876 20033 net.cpp:141] Setting up inception_5b/5x5_reduce
I0403 15:34:40.604912 20033 net.cpp:148] Top shape: 24 48 7 7 (56448)
I0403 15:34:40.604933 20033 net.cpp:156] Memory required for data: 1334499360
I0403 15:34:40.604959 20033 layer_factory.hpp:77] Creating layer inception_5b/relu_5x5_reduce
I0403 15:34:40.604986 20033 net.cpp:91] Creating Layer inception_5b/relu_5x5_reduce
I0403 15:34:40.605007 20033 net.cpp:425] inception_5b/relu_5x5_reduce <- inception_5b/5x5_reduce
I0403 15:34:40.605029 20033 net.cpp:386] inception_5b/relu_5x5_reduce -> inception_5b/5x5_reduce (in-place)
I0403 15:34:40.605495 20033 net.cpp:141] Setting up inception_5b/relu_5x5_reduce
I0403 15:34:40.605528 20033 net.cpp:148] Top shape: 24 48 7 7 (56448)
I0403 15:34:40.605546 20033 net.cpp:156] Memory required for data: 1334725152
I0403 15:34:40.605564 20033 layer_factory.hpp:77] Creating layer inception_5b/5x5
I0403 15:34:40.605589 20033 net.cpp:91] Creating Layer inception_5b/5x5
I0403 15:34:40.605612 20033 net.cpp:425] inception_5b/5x5 <- inception_5b/5x5_reduce
I0403 15:34:40.605634 20033 net.cpp:399] inception_5b/5x5 -> inception_5b/5x5
I0403 15:34:40.608180 20033 net.cpp:141] Setting up inception_5b/5x5
I0403 15:34:40.608218 20033 net.cpp:148] Top shape: 24 128 7 7 (150528)
I0403 15:34:40.608238 20033 net.cpp:156] Memory required for data: 1335327264
I0403 15:34:40.608261 20033 layer_factory.hpp:77] Creating layer inception_5b/relu_5x5
I0403 15:34:40.608283 20033 net.cpp:91] Creating Layer inception_5b/relu_5x5
I0403 15:34:40.608304 20033 net.cpp:425] inception_5b/relu_5x5 <- inception_5b/5x5
I0403 15:34:40.608326 20033 net.cpp:386] inception_5b/relu_5x5 -> inception_5b/5x5 (in-place)
I0403 15:34:40.608566 20033 net.cpp:141] Setting up inception_5b/relu_5x5
I0403 15:34:40.608599 20033 net.cpp:148] Top shape: 24 128 7 7 (150528)
I0403 15:34:40.608618 20033 net.cpp:156] Memory required for data: 1335929376
I0403 15:34:40.608636 20033 layer_factory.hpp:77] Creating layer inception_5b/pool
I0403 15:34:40.608659 20033 net.cpp:91] Creating Layer inception_5b/pool
I0403 15:34:40.608678 20033 net.cpp:425] inception_5b/pool <- inception_5a/output_inception_5a/output_0_split_3
I0403 15:34:40.608708 20033 net.cpp:399] inception_5b/pool -> inception_5b/pool
I0403 15:34:40.608798 20033 net.cpp:141] Setting up inception_5b/pool
I0403 15:34:40.608830 20033 net.cpp:148] Top shape: 24 832 7 7 (978432)
I0403 15:34:40.608850 20033 net.cpp:156] Memory required for data: 1339843104
I0403 15:34:40.608867 20033 layer_factory.hpp:77] Creating layer inception_5b/pool_proj
I0403 15:34:40.608896 20033 net.cpp:91] Creating Layer inception_5b/pool_proj
I0403 15:34:40.608918 20033 net.cpp:425] inception_5b/pool_proj <- inception_5b/pool
I0403 15:34:40.608942 20033 net.cpp:399] inception_5b/pool_proj -> inception_5b/pool_proj
I0403 15:34:40.611781 20033 net.cpp:141] Setting up inception_5b/pool_proj
I0403 15:34:40.611817 20033 net.cpp:148] Top shape: 24 128 7 7 (150528)
I0403 15:34:40.611836 20033 net.cpp:156] Memory required for data: 1340445216
I0403 15:34:40.611860 20033 layer_factory.hpp:77] Creating layer inception_5b/relu_pool_proj
I0403 15:34:40.611886 20033 net.cpp:91] Creating Layer inception_5b/relu_pool_proj
I0403 15:34:40.611907 20033 net.cpp:425] inception_5b/relu_pool_proj <- inception_5b/pool_proj
I0403 15:34:40.611928 20033 net.cpp:386] inception_5b/relu_pool_proj -> inception_5b/pool_proj (in-place)
I0403 15:34:40.612293 20033 net.cpp:141] Setting up inception_5b/relu_pool_proj
I0403 15:34:40.612326 20033 net.cpp:148] Top shape: 24 128 7 7 (150528)
I0403 15:34:40.612345 20033 net.cpp:156] Memory required for data: 1341047328
I0403 15:34:40.612365 20033 layer_factory.hpp:77] Creating layer inception_5b/output
I0403 15:34:40.612388 20033 net.cpp:91] Creating Layer inception_5b/output
I0403 15:34:40.612426 20033 net.cpp:425] inception_5b/output <- inception_5b/1x1
I0403 15:34:40.612449 20033 net.cpp:425] inception_5b/output <- inception_5b/3x3
I0403 15:34:40.612470 20033 net.cpp:425] inception_5b/output <- inception_5b/5x5
I0403 15:34:40.612490 20033 net.cpp:425] inception_5b/output <- inception_5b/pool_proj
I0403 15:34:40.612512 20033 net.cpp:399] inception_5b/output -> inception_5b/output
I0403 15:34:40.612577 20033 net.cpp:141] Setting up inception_5b/output
I0403 15:34:40.612607 20033 net.cpp:148] Top shape: 24 1024 7 7 (1204224)
I0403 15:34:40.612624 20033 net.cpp:156] Memory required for data: 1345864224
I0403 15:34:40.612643 20033 layer_factory.hpp:77] Creating layer pool5/7x7_s1
I0403 15:34:40.612663 20033 net.cpp:91] Creating Layer pool5/7x7_s1
I0403 15:34:40.612684 20033 net.cpp:425] pool5/7x7_s1 <- inception_5b/output
I0403 15:34:40.612709 20033 net.cpp:399] pool5/7x7_s1 -> pool5/7x7_s1
I0403 15:34:40.612983 20033 net.cpp:141] Setting up pool5/7x7_s1
I0403 15:34:40.613015 20033 net.cpp:148] Top shape: 24 1024 1 1 (24576)
I0403 15:34:40.613034 20033 net.cpp:156] Memory required for data: 1345962528
I0403 15:34:40.613051 20033 layer_factory.hpp:77] Creating layer pool5/drop_7x7_s1
I0403 15:34:40.613076 20033 net.cpp:91] Creating Layer pool5/drop_7x7_s1
I0403 15:34:40.613096 20033 net.cpp:425] pool5/drop_7x7_s1 <- pool5/7x7_s1
I0403 15:34:40.613117 20033 net.cpp:386] pool5/drop_7x7_s1 -> pool5/7x7_s1 (in-place)
I0403 15:34:40.613183 20033 net.cpp:141] Setting up pool5/drop_7x7_s1
I0403 15:34:40.613212 20033 net.cpp:148] Top shape: 24 1024 1 1 (24576)
I0403 15:34:40.613229 20033 net.cpp:156] Memory required for data: 1346060832
I0403 15:34:40.613248 20033 layer_factory.hpp:77] Creating layer loss3/classifier_plantvillage
I0403 15:34:40.613275 20033 net.cpp:91] Creating Layer loss3/classifier_plantvillage
I0403 15:34:40.613296 20033 net.cpp:425] loss3/classifier_plantvillage <- pool5/7x7_s1
I0403 15:34:40.613317 20033 net.cpp:399] loss3/classifier_plantvillage -> loss3/classifier_plantvillage
I0403 15:34:40.613845 20033 net.cpp:141] Setting up loss3/classifier_plantvillage
I0403 15:34:40.613876 20033 net.cpp:148] Top shape: 24 38 (912)
I0403 15:34:40.613894 20033 net.cpp:156] Memory required for data: 1346064480
I0403 15:34:40.613916 20033 layer_factory.hpp:77] Creating layer loss3/classifier_plantvillage_loss3/classifier_plantvillage_0_split
I0403 15:34:40.613937 20033 net.cpp:91] Creating Layer loss3/classifier_plantvillage_loss3/classifier_plantvillage_0_split
I0403 15:34:40.613961 20033 net.cpp:425] loss3/classifier_plantvillage_loss3/classifier_plantvillage_0_split <- loss3/classifier_plantvillage
I0403 15:34:40.613988 20033 net.cpp:399] loss3/classifier_plantvillage_loss3/classifier_plantvillage_0_split -> loss3/classifier_plantvillage_loss3/classifier_plantvillage_0_split_0
I0403 15:34:40.614015 20033 net.cpp:399] loss3/classifier_plantvillage_loss3/classifier_plantvillage_0_split -> loss3/classifier_plantvillage_loss3/classifier_plantvillage_0_split_1
I0403 15:34:40.614039 20033 net.cpp:399] loss3/classifier_plantvillage_loss3/classifier_plantvillage_0_split -> loss3/classifier_plantvillage_loss3/classifier_plantvillage_0_split_2
I0403 15:34:40.614063 20033 net.cpp:399] loss3/classifier_plantvillage_loss3/classifier_plantvillage_0_split -> loss3/classifier_plantvillage_loss3/classifier_plantvillage_0_split_3
I0403 15:34:40.614189 20033 net.cpp:141] Setting up loss3/classifier_plantvillage_loss3/classifier_plantvillage_0_split
I0403 15:34:40.614219 20033 net.cpp:148] Top shape: 24 38 (912)
I0403 15:34:40.614239 20033 net.cpp:148] Top shape: 24 38 (912)
I0403 15:34:40.614259 20033 net.cpp:148] Top shape: 24 38 (912)
I0403 15:34:40.614277 20033 net.cpp:148] Top shape: 24 38 (912)
I0403 15:34:40.614295 20033 net.cpp:156] Memory required for data: 1346079072
I0403 15:34:40.614313 20033 layer_factory.hpp:77] Creating layer loss1/loss
I0403 15:34:40.614339 20033 net.cpp:91] Creating Layer loss1/loss
I0403 15:34:40.614362 20033 net.cpp:425] loss1/loss <- loss1/classifier_plantvillage_loss1/classifier_plantvillage_0_split_0
I0403 15:34:40.614400 20033 net.cpp:425] loss1/loss <- label_data_1_split_0
…
