…
I0403 14:51:22.504873 17755 net.cpp:313] The NetState phase (1) differed from the phase (0) specified by a rule in layer data
I0403 14:51:22.505972 17755 net.cpp:49] Initializing net from parameters: 
state {
  phase: TEST
}
layer {
  name: "data"
  type: "Data"
  top: "data"
  top: "label"
  include {
    phase: TEST
  }
  transform_param {
    mirror: false
    crop_size: 224
    mean_file: "/home/mohanty/data/final_dataset/lmdb/grayscale-40-60/mean.binaryproto"
  }
  data_param {
    source: "/home/mohanty/data/final_dataset/lmdb/grayscale-40-60/test_db"
    batch_size: 24
    backend: LMDB
  }
}
layer {
  name: "conv1/7x7_s2"
  type: "Convolution"
  bottom: "data"
  top: "conv1/7x7_s2"
  param {
    lr_mult: 1
    decay_mult: 1
  }
  param {
    lr_mult: 2
    decay_mult: 0
  }
  convolution_param {
    num_output: 64
    pad: 3
    kernel_size: 7
    stride: 2
    weight_filler {
      type: "xavier"
      std: 0.1
    }
    bias_filler {
      type: "constant"
      value: 0.2
    }
  }
}
layer {
  name: "conv1/relu_7x7"
  type: "ReLU"
  bottom: "conv1/7x7_s2"
  top: "conv1/7x7_s2"
}
layer {
  name: "pool1/3x3_s2"
  type: "Pooling"
  bottom: "conv1/7x7_s2"
  top: "pool1/3x3_s2"
  pooling_param {
    pool: MAX
    kernel_size: 3
    stride: 2
  }
}
layer {
  name: "pool1/norm1"
  type: "LRN"
  bottom: "pool1/3x3_s2"
  top: "pool1/norm1"
  lrn_param {
    local_size: 5
    alpha: 0.0001
    beta: 0.75
  }
}
layer {
  name: "conv2/3x3_reduce"
  type: "Convolution"
  bottom: "pool1/norm1"
  top: "conv2/3x3_reduce"
  param {
    lr_mult: 1
    decay_mult: 1
  }
  param {
    lr_mult: 2
    decay_mult: 0
  }
  convolution_param {
    num_output: 64
    kernel_size: 1
    weight_filler {
      type: "xavier"
      std: 0.1
    }
    bias_filler {
      type: "constant"
      value: 0.2
    }
  }
}
layer {
  name: "conv2/relu_3x3_reduce"
  type: "ReLU"
  bottom: "conv2/3x3_reduce"
  top: "conv2/3x3_reduce"
}
layer {
  name: "conv2/3x3"
  type: "Convolution"
  bottom: "conv2/3x3_reduce"
  top: "conv2/3x3"
  param {
    lr_mult: 1
    decay_mult: 1
  }
  param {
    lr_mult: 2
    decay_mult: 0
  }
  convolution_param {
    num_output: 192
    pad: 1
    kernel_size: 3
    weight_filler {
      type: "xavier"
      std: 0.03
    }
    bias_filler {
      type: "constant"
      value: 0.2
    }
  }
}
layer {
  name: "conv2/relu_3x3"
  type: "ReLU"
  bottom: "conv2/3x3"
  top: "conv2/3x3"
}
layer {
  name: "conv2/norm2"
  type: "LRN"
  bottom: "conv2/3x3"
  top: "conv2/norm2"
  lrn_param {
    local_size: 5
    alpha: 0.0001
    beta: 0.75
  }
}
layer {
  name: "pool2/3x3_s2"
  type: "Pooling"
  bottom: "conv2/norm2"
  top: "pool2/3x3_s2"
  pooling_param {
    pool: MAX
    kernel_size: 3
    stride: 2
  }
}
layer {
  name: "inception_3a/1x1"
  type: "Convolution"
  bottom: "pool2/3x3_s2"
  top: "inception_3a/1x1"
  param {
    lr_mult: 1
    decay_mult: 1
  }
  param {
    lr_mult: 2
    decay_mult: 0
  }
  convolution_param {
    num_output: 64
    kernel_size: 1
    weight_filler {
      type: "xavier"
      std: 0.03
    }
    bias_filler {
      type: "constant"
      value: 0.2
    }
  }
}
layer {
  name: "inception_3a/relu_1x1"
  type: "ReLU"
  bottom: "inception_3a/1x1"
  top: "inception_3a/1x1"
}
layer {
  name: "inception_3a/3x3_reduce"
  type: "Convolution"
  bottom: "pool2/3x3_s2"
  top: "inception_3a/3x3_reduce"
  param {
    lr_mult: 1
    decay_mult: 1
  }
  param {
    lr_mult: 2
    decay_mult: 0
  }
  convolution_param {
    num_output: 96
    kernel_size: 1
    weight_filler {
      type: "xavier"
      std: 0.09
    }
    bias_filler {
      type: "constant"
      value: 0.2
    }
  }
}
layer {
  name: "inception_3a/relu_3x3_reduce"
  type: "ReLU"
  bottom: "inception_3a/3x3_reduce"
  top: "inception_3a/3x3_reduce"
}
layer {
  name: "inception_3a/3x3"
  type: "Convolution"
  bottom: "inception_3a/3x3_reduce"
  top: "inception_3a/3x3"
  param {
    lr_mult: 1
    decay_mult: 1
  }
  param {
    lr_mult: 2
    decay_mult: 0
  }
  convolution_param {
    num_output: 128
    pad: 1
    kernel_size: 3
    weight_filler {
      type: "xavier"
      std: 0.03
    }
    bias_filler {
      type: "constant"
      value: 0.2
    }
  }
}
layer {
  name: "inception_3a/relu_3x3"
  type: "ReLU"
  bottom: "inception_3a/3x3"
  top: "inception_3a/3x3"
}
layer {
  name: "inception_3a/5x5_reduce"
  type: "Convolution"
  bottom: "pool2/3x3_s2"
  top: "inception_3a/5x5_reduce"
  param {
    lr_mult: 1
    decay_mult: 1
  }
  param {
    lr_mult: 2
    decay_mult: 0
  }
  convolution_param {
    num_output: 16
    kernel_size: 1
    weight_filler {
      type: "xavier"
      std: 0.2
    }
    bias_filler {
      type: "constant"
      value: 0.2
    }
  }
}
layer {
  name: "inception_3a/relu_5x5_reduce"
  type: "ReLU"
  bottom: "inception_3a/5x5_reduce"
  top: "inception_3a/5x5_reduce"
}
layer {
  name: "inception_3a/5x5"
  type: "Convolution"
  bottom: "inception_3a/5x5_reduce"
  top: "inception_3a/5x5"
  param {
    lr_mult: 1
    decay_mult: 1
  }
  param {
    lr_mult: 2
    decay_mult: 0
  }
  convolution_param {
    num_output: 32
    pad: 2
    kernel_size: 5
    weight_filler {
      type: "xavier"
      std: 0.03
    }
    bias_filler {
      type: "constant"
      value: 0.2
    }
  }
}
layer {
  name: "inception_3a/relu_5x5"
  type: "ReLU"
  bottom: "inception_3a/5x5"
  top: "inception_3a/5x5"
}
layer {
  name: "inception_3a/pool"
  type: "Pooling"
  bottom: "pool2/3x3_s2"
  top: "inception_3a/pool"
  pooling_param {
    pool: MAX
    kernel_size: 3
    stride: 1
    pad: 1
  }
}
layer {
  name: "inception_3a/pool_proj"
  type: "Convolution"
  bottom: "inception_3a/pool"
  top: "inception_3a/pool_proj"
  param {
    lr_mult: 1
    decay_mult: 1
  }
  param {
    lr_mult: 2
    decay_mult: 0
  }
  convolution_param {
    num_output: 32
    kernel_size: 1
    weight_filler {
      type: "xavier"
      std: 0.1
    }
    bias_filler {
      type: "constant"
      value: 0.2
    }
  }
}
layer {
  name: "inception_3a/relu_pool_proj"
  type: "ReLU"
  bottom: "inception_3a/pool_proj"
  top: "inception_3a/pool_proj"
}
layer {
  name: "inception_3a/output"
  type: "Concat"
  bottom: "inception_3a/1x1"
  bottom: "inception_3a/3x3"
  bottom: "inception_3a/5x5"
  bottom: "inception_3a/pool_proj"
  top: "inception_3a/output"
}
layer {
  name: "inception_3b/1x1"
  type: "Convolution"
  bottom: "inception_3a/output"
  top: "inception_3b/1x1"
  param {
    lr_mult: 1
    decay_mult: 1
  }
  param {
    lr_mult: 2
    decay_mult: 0
  }
  convolution_param {
    num_output: 128
    kernel_size: 1
    weight_filler {
      type: "xavier"
      std: 0.03
    }
    bias_filler {
      type: "constant"
      value: 0.2
    }
  }
}
layer {
  name: "inception_3b/relu_1x1"
  type: "ReLU"
  bottom: "inception_3b/1x1"
  top: "inception_3b/1x1"
}
layer {
  name: "inception_3b/3x3_reduce"
  type: "Convolution"
  bottom: "inception_3a/output"
  top: "inception_3b/3x3_reduce"
  param {
    lr_mult: 1
    decay_mult: 1
  }
  param {
    lr_mult: 2
    decay_mult: 0
  }
  convolution_param {
    num_output: 128
    kernel_size: 1
    weight_filler {
      type: "xavier"
      std: 0.09
    }
    bias_filler {
      type: "constant"
      value: 0.2
    }
  }
}
layer {
  name: "inception_3b/relu_3x3_reduce"
  type: "ReLU"
  bottom: "inception_3b/3x3_reduce"
  top: "inception_3b/3x3_reduce"
}
layer {
  name: "inception_3b/3x3"
  type: "Convolution"
  bottom: "inception_3b/3x3_reduce"
  top: "inception_3b/3x3"
  param {
    lr_mult: 1
    decay_mult: 1
  }
  param {
    lr_mult: 2
    decay_mult: 0
  }
  convolution_param {
    num_output: 192
    pad: 1
    kernel_size: 3
    weight_filler {
      type: "xavier"
      std: 0.03
    }
    bias_filler {
      type: "constant"
      value: 0.2
    }
  }
}
layer {
  name: "inception_3b/relu_3x3"
  type: "ReLU"
  bottom: "inception_3b/3x3"
  top: "inception_3b/3x3"
}
layer {
  name: "inception_3b/5x5_reduce"
  type: "Convolution"
  bottom: "inception_3a/output"
  top: "inception_3b/5x5_reduce"
  param {
    lr_mult: 1
    decay_mult: 1
  }
  param {
    lr_mult: 2
    decay_mult: 0
  }
  convolution_param {
    num_output: 32
    kernel_size: 1
    weight_filler {
      type: "xavier"
      std: 0.2
    }
    bias_filler {
      type: "constant"
      value: 0.2
    }
  }
}
layer {
  name: "inception_3b/relu_5x5_reduce"
  type: "ReLU"
  bottom: "inception_3b/5x5_reduce"
  top: "inception_3b/5x5_reduce"
}
layer {
  name: "inception_3b/5x5"
  type: "Convolution"
  bottom: "inception_3b/5x5_reduce"
  top: "inception_3b/5x5"
  param {
    lr_mult: 1
    decay_mult: 1
  }
  param {
    lr_mult: 2
    decay_mult: 0
  }
  convolution_param {
    num_output: 96
    pad: 2
    kernel_size: 5
    weight_filler {
      type: "xavier"
      std: 0.03
    }
    bias_filler {
      type: "constant"
      value: 0.2
    }
  }
}
layer {
  name: "inception_3b/relu_5x5"
  type: "ReLU"
  bottom: "inception_3b/5x5"
  top: "inception_3b/5x5"
}
layer {
  name: "inception_3b/pool"
  type: "Pooling"
  bottom: "inception_3a/output"
  top: "inception_3b/pool"
  pooling_param {
    pool: MAX
    kernel_size: 3
    stride: 1
    pad: 1
  }
}
layer {
  name: "inception_3b/pool_proj"
  type: "Convolution"
  bottom: "inception_3b/pool"
  top: "inception_3b/pool_proj"
  param {
    lr_mult: 1
    decay_mult: 1
  }
  param {
    lr_mult: 2
    decay_mult: 0
  }
  convolution_param {
    num_output: 64
    kernel_size: 1
    weight_filler {
      type: "xavier"
      std: 0.1
    }
    bias_filler {
      type: "constant"
      value: 0.2
    }
  }
}
layer {
  name: "inception_3b/relu_pool_proj"
  type: "ReLU"
  bottom: "inception_3b/pool_proj"
  top: "inception_3b/pool_proj"
}
layer {
  name: "inception_3b/output"
  type: "Concat"
  bottom: "inception_3b/1x1"
  bottom: "inception_3b/3x3"
  bottom: "inception_3b/5x5"
  bottom: "inception_3b/pool_proj"
  top: "inception_3b/output"
}
layer {
  name: "pool3/3x3_s2"
  type: "Pooling"
  bottom: "inception_3b/output"
  top: "pool3/3x3_s2"
  pooling_param {
    pool: MAX
    kernel_size: 3
    stride: 2
  }
}
layer {
  name: "inception_4a/1x1"
  type: "Convolution"
  bottom: "pool3/3x3_s2"
  top: "inception_4a/1x1"
  param {
    lr_mult: 1
    decay_mult: 1
  }
  param {
    lr_mult: 2
    decay_mult: 0
  }
  convolution_param {
    num_output: 192
    kernel_size: 1
    weight_filler {
      type: "xavier"
      std: 0.03
    }
    bias_filler {
      type: "constant"
      value: 0.2
    }
  }
}
layer {
  name: "inception_4a/relu_1x1"
  type: "ReLU"
  bottom: "inception_4a/1x1"
  top: "inception_4a/1x1"
}
layer {
  name: "inception_4a/3x3_reduce"
  type: "Convolution"
  bottom: "pool3/3x3_s2"
  top: "inception_4a/3x3_reduce"
  param {
    lr_mult: 1
    decay_mult: 1
  }
  param {
    lr_mult: 2
    decay_mult: 0
  }
  convolution_param {
    num_output: 96
    kernel_size: 1
    weight_filler {
      type: "xavier"
      std: 0.09
    }
    bias_filler {
      type: "constant"
      value: 0.2
    }
  }
}
layer {
  name: "inception_4a/relu_3x3_reduce"
  type: "ReLU"
  bottom: "inception_4a/3x3_reduce"
  top: "inception_4a/3x3_reduce"
}
layer {
  name: "inception_4a/3x3"
  type: "Convolution"
  bottom: "inception_4a/3x3_reduce"
  top: "inception_4a/3x3"
  param {
    lr_mult: 1
    decay_mult: 1
  }
  param {
    lr_mult: 2
    decay_mult: 0
  }
  convolution_param {
    num_output: 208
    pad: 1
    kernel_size: 3
    weight_filler {
      type: "xavier"
      std: 0.03
    }
    bias_filler {
      type: "constant"
      value: 0.2
    }
  }
}
layer {
  name: "inception_4a/relu_3x3"
  type: "ReLU"
  bottom: "inception_4a/3x3"
  top: "inception_4a/3x3"
}
layer {
  name: "inception_4a/5x5_reduce"
  type: "Convolution"
  bottom: "pool3/3x3_s2"
  top: "inception_4a/5x5_reduce"
  param {
    lr_mult: 1
    decay_mult: 1
  }
  param {
    lr_mult: 2
    decay_mult: 0
  }
  convolution_param {
    num_output: 16
    kernel_size: 1
    weight_filler {
      type: "xavier"
      std: 0.2
    }
    bias_filler {
      type: "constant"
      value: 0.2
    }
  }
}
layer {
  name: "inception_4a/relu_5x5_reduce"
  type: "ReLU"
  bottom: "inception_4a/5x5_reduce"
  top: "inception_4a/5x5_reduce"
}
layer {
  name: "inception_4a/5x5"
  type: "Convolution"
  bottom: "inception_4a/5x5_reduce"
  top: "inception_4a/5x5"
  param {
    lr_mult: 1
    decay_mult: 1
  }
  param {
    lr_mult: 2
    decay_mult: 0
  }
  convolution_param {
    num_output: 48
    pad: 2
    kernel_size: 5
    weight_filler {
      type: "xavier"
      std: 0.03
    }
    bias_filler {
      type: "constant"
      value: 0.2
    }
  }
}
layer {
  name: "inception_4a/relu_5x5"
  type: "ReLU"
  bottom: "inception_4a/5x5"
  top: "inception_4a/5x5"
}
layer {
  name: "inception_4a/pool"
  type: "Pooling"
  bottom: "pool3/3x3_s2"
  top: "inception_4a/pool"
  pooling_param {
    pool: MAX
    kernel_size: 3
    stride: 1
    pad: 1
  }
}
layer {
  name: "inception_4a/pool_proj"
  type: "Convolution"
  bottom: "inception_4a/pool"
  top: "inception_4a/pool_proj"
  param {
    lr_mult: 1
    decay_mult: 1
  }
  param {
    lr_mult: 2
    decay_mult: 0
  }
  convolution_param {
    num_output: 64
    kernel_size: 1
    weight_filler {
      type: "xavier"
      std: 0.1
    }
    bias_filler {
      type: "constant"
      value: 0.2
    }
  }
}
layer {
  name: "inception_4a/relu_pool_proj"
  type: "ReLU"
  bottom: "inception_4a/pool_proj"
  top: "inception_4a/pool_proj"
}
layer {
  name: "inception_4a/output"
  type: "Concat"
  bottom: "inception_4a/1x1"
  bottom: "inception_4a/3x3"
  bottom: "inception_4a/5x5"
  bottom: "inception_4a/pool_proj"
  top: "inception_4a/output"
}
layer {
  name: "loss1/ave_pool"
  type: "Pooling"
  bottom: "inception_4a/output"
  top: "loss1/ave_pool"
  pooling_param {
    pool: AVE
    kernel_size: 5
    stride: 3
  }
}
layer {
  name: "loss1/conv"
  type: "Convolution"
  bottom: "loss1/ave_pool"
  top: "loss1/conv"
  param {
    lr_mult: 1
    decay_mult: 1
  }
  param {
    lr_mult: 2
    decay_mult: 0
  }
  convolution_param {
    num_output: 128
    kernel_size: 1
    weight_filler {
      type: "xavier"
      std: 0.08
    }
    bias_filler {
      type: "constant"
      value: 0.2
    }
  }
}
layer {
  name: "loss1/relu_conv"
  type: "ReLU"
  bottom: "loss1/conv"
  top: "loss1/conv"
}
layer {
  name: "loss1/fc"
  type: "InnerProduct"
  bottom: "loss1/conv"
  top: "loss1/fc"
  param {
    lr_mult: 1
    decay_mult: 1
  }
  param {
    lr_mult: 2
    decay_mult: 0
  }
  inner_product_param {
    num_output: 1024
    weight_filler {
      type: "xavier"
      std: 0.02
    }
    bias_filler {
      type: "constant"
      value: 0.2
    }
  }
}
layer {
  name: "loss1/relu_fc"
  type: "ReLU"
  bottom: "loss1/fc"
  top: "loss1/fc"
}
layer {
  name: "loss1/drop_fc"
  type: "Dropout"
  bottom: "loss1/fc"
  top: "loss1/fc"
  dropout_param {
    dropout_ratio: 0.7
  }
}
layer {
  name: "loss1/classifier_plantvillage"
  type: "InnerProduct"
  bottom: "loss1/fc"
  top: "loss1/classifier_plantvillage"
  param {
    lr_mult: 1
    decay_mult: 1
  }
  param {
    lr_mult: 2
    decay_mult: 0
  }
  inner_product_param {
    num_output: 38
    weight_filler {
      type: "xavier"
      std: 0.0009765625
    }
    bias_filler {
      type: "constant"
      value: 0
    }
  }
}
layer {
  name: "inception_4b/1x1"
  type: "Convolution"
  bottom: "inception_4a/output"
  top: "inception_4b/1x1"
  param {
    lr_mult: 1
    decay_mult: 1
  }
  param {
    lr_mult: 2
    decay_mult: 0
  }
  convolution_param {
    num_output: 160
    kernel_size: 1
    weight_filler {
      type: "xavier"
      std: 0.03
    }
    bias_filler {
      type: "constant"
      value: 0.2
    }
  }
}
layer {
  name: "inception_4b/relu_1x1"
  type: "ReLU"
  bottom: "inception_4b/1x1"
  top: "inception_4b/1x1"
}
layer {
  name: "inception_4b/3x3_reduce"
  type: "Convolution"
  bottom: "inception_4a/output"
  top: "inception_4b/3x3_reduce"
  param {
    lr_mult: 1
    decay_mult: 1
  }
  param {
    lr_mult: 2
    decay_mult: 0
  }
  convolution_param {
    num_output: 112
    kernel_size: 1
    weight_filler {
      type: "xavier"
      std: 0.09
    }
    bias_filler {
      type: "constant"
      value: 0.2
    }
  }
}
layer {
  name: "inception_4b/relu_3x3_reduce"
  type: "ReLU"
  bottom: "inception_4b/3x3_reduce"
  top: "inception_4b/3x3_reduce"
}
layer {
  name: "inception_4b/3x3"
  type: "Convolution"
  bottom: "inception_4b/3x3_reduce"
  top: "inception_4b/3x3"
  param {
    lr_mult: 1
    decay_mult: 1
  }
  param {
    lr_mult: 2
    decay_mult: 0
  }
  convolution_param {
    num_output: 224
    pad: 1
    kernel_size: 3
    weight_filler {
      type: "xavier"
      std: 0.03
    }
    bias_filler {
      type: "constant"
      value: 0.2
    }
  }
}
layer {
  name: "inception_4b/relu_3x3"
  type: "ReLU"
  bottom: "inception_4b/3x3"
  top: "inception_4b/3x3"
}
layer {
  name: "inception_4b/5x5_reduce"
  type: "Convolution"
  bottom: "inception_4a/output"
  top: "inception_4b/5x5_reduce"
  param {
    lr_mult: 1
    decay_mult: 1
  }
  param {
    lr_mult: 2
    decay_mult: 0
  }
  convolution_param {
    num_output: 24
    kernel_size: 1
    weight_filler {
      type: "xavier"
      std: 0.2
    }
    bias_filler {
      type: "constant"
      value: 0.2
    }
  }
}
layer {
  name: "inception_4b/relu_5x5_reduce"
  type: "ReLU"
  bottom: "inception_4b/5x5_reduce"
  top: "inception_4b/5x5_reduce"
}
layer {
  name: "inception_4b/5x5"
  type: "Convolution"
  bottom: "inception_4b/5x5_reduce"
  top: "inception_4b/5x5"
  param {
    lr_mult: 1
    decay_mult: 1
  }
  param {
    lr_mult: 2
    decay_mult: 0
  }
  convolution_param {
    num_output: 64
    pad: 2
    kernel_size: 5
    weight_filler {
      type: "xavier"
      std: 0.03
    }
    bias_filler {
      type: "constant"
      value: 0.2
    }
  }
}
layer {
  name: "inception_4b/relu_5x5"
  type: "ReLU"
  bottom: "inception_4b/5x5"
  top: "inception_4b/5x5"
}
layer {
  name: "inception_4b/pool"
  type: "Pooling"
  bottom: "inception_4a/output"
  top: "inception_4b/pool"
  pooling_param {
    pool: MAX
    kernel_size: 3
    stride: 1
    pad: 1
  }
}
layer {
  name: "inception_4b/pool_proj"
  type: "Convolution"
  bottom: "inception_4b/pool"
  top: "inception_4b/pool_proj"
  param {
    lr_mult: 1
    decay_mult: 1
  }
  param {
    lr_mult: 2
    decay_mult: 0
  }
  convolution_param {
    num_output: 64
    kernel_size: 1
    weight_filler {
      type: "xavier"
      std: 0.1
    }
    bias_filler {
      type: "constant"
      value: 0.2
    }
  }
}
layer {
  name: "inception_4b/relu_pool_proj"
  type: "ReLU"
  bottom: "inception_4b/pool_proj"
  top: "inception_4b/pool_proj"
}
layer {
  name: "inception_4b/output"
  type: "Concat"
  bottom: "inception_4b/1x1"
  bottom: "inception_4b/3x3"
  bottom: "inception_4b/5x5"
  bottom: "inception_4b/pool_proj"
  top: "inception_4b/output"
}
layer {
  name: "inception_4c/1x1"
  type: "Convolution"
  bottom: "inception_4b/output"
  top: "inception_4c/1x1"
  param {
    lr_mult: 1
    decay_mult: 1
  }
  param {
    lr_mult: 2
    decay_mult: 0
  }
  convolution_param {
    num_output: 128
    kernel_size: 1
    weight_filler {
      type: "xavier"
      std: 0.03
    }
    bias_filler {
      type: "constant"
      value: 0.2
    }
  }
}
layer {
  name: "inception_4c/relu_1x1"
  type: "ReLU"
  bottom: "inception_4c/1x1"
  top: "inception_4c/1x1"
}
layer {
  name: "inception_4c/3x3_reduce"
  type: "Convolution"
  bottom: "inception_4b/output"
  top: "inception_4c/3x3_reduce"
  param {
    lr_mult: 1
    decay_mult: 1
  }
  param {
    lr_mult: 2
    decay_mult: 0
  }
  convolution_param {
    num_output: 128
    kernel_size: 1
    weight_filler {
      type: "xavier"
      std: 0.09
    }
    bias_filler {
      type: "constant"
      value: 0.2
    }
  }
}
layer {
  name: "inception_4c/relu_3x3_reduce"
  type: "ReLU"
  bottom: "inception_4c/3x3_reduce"
  top: "inception_4c/3x3_reduce"
}
layer {
  name: "inception_4c/3x3"
  type: "Convolution"
  bottom: "inception_4c/3x3_reduce"
  top: "inception_4c/3x3"
  param {
    lr_mult: 1
    decay_mult: 1
  }
  param {
    lr_mult: 2
    decay_mult: 0
  }
  convolution_param {
    num_output: 256
    pad: 1
    kernel_size: 3
    weight_filler {
      type: "xavier"
      std: 0.03
    }
    bias_filler {
      type: "constant"
      value: 0.2
    }
  }
}
layer {
  name: "inception_4c/relu_3x3"
  type: "ReLU"
  bottom: "inception_4c/3x3"
  top: "inception_4c/3x3"
}
layer {
  name: "inception_4c/5x5_reduce"
  type: "Convolution"
  bottom: "inception_4b/output"
  top: "inception_4c/5x5_reduce"
  param {
    lr_mult: 1
    decay_mult: 1
  }
  param {
    lr_mult: 2
    decay_mult: 0
  }
  convolution_param {
    num_output: 24
    kernel_size: 1
    weight_filler {
      type: "xavier"
      std: 0.2
    }
    bias_filler {
      type: "constant"
      value: 0.2
    }
  }
}
layer {
  name: "inception_4c/relu_5x5_reduce"
  type: "ReLU"
  bottom: "inception_4c/5x5_reduce"
  top: "inception_4c/5x5_reduce"
}
layer {
  name: "inception_4c/5x5"
  type: "Convolution"
  bottom: "inception_4c/5x5_reduce"
  top: "inception_4c/5x5"
  param {
    lr_mult: 1
    decay_mult: 1
  }
  param {
    lr_mult: 2
    decay_mult: 0
  }
  convolution_param {
    num_output: 64
    pad: 2
    kernel_size: 5
    weight_filler {
      type: "xavier"
      std: 0.03
    }
    bias_filler {
      type: "constant"
      value: 0.2
    }
  }
}
layer {
  name: "inception_4c/relu_5x5"
  type: "ReLU"
  bottom: "inception_4c/5x5"
  top: "inception_4c/5x5"
}
layer {
  name: "inception_4c/pool"
  type: "Pooling"
  bottom: "inception_4b/output"
  top: "inception_4c/pool"
  pooling_param {
    pool: MAX
    kernel_size: 3
    stride: 1
    pad: 1
  }
}
layer {
  name: "inception_4c/pool_proj"
  type: "Convolution"
  bottom: "inception_4c/pool"
  top: "inception_4c/pool_proj"
  param {
    lr_mult: 1
    decay_mult: 1
  }
  param {
    lr_mult: 2
    decay_mult: 0
  }
  convolution_param {
    num_output: 64
    kernel_size: 1
    weight_filler {
      type: "xavier"
      std: 0.1
    }
    bias_filler {
      type: "constant"
      value: 0.2
    }
  }
}
layer {
  name: "inception_4c/relu_pool_proj"
  type: "ReLU"
  bottom: "inception_4c/pool_proj"
  top: "inception_4c/pool_proj"
}
layer {
  name: "inception_4c/output"
  type: "Concat"
  bottom: "inception_4c/1x1"
  bottom: "inception_4c/3x3"
  bottom: "inception_4c/5x5"
  bottom: "inception_4c/pool_proj"
  top: "inception_4c/output"
}
layer {
  name: "inception_4d/1x1"
  type: "Convolution"
  bottom: "inception_4c/output"
  top: "inception_4d/1x1"
  param {
    lr_mult: 1
    decay_mult: 1
  }
  param {
    lr_mult: 2
    decay_mult: 0
  }
  convolution_param {
    num_output: 112
    kernel_size: 1
    weight_filler {
      type: "xavier"
      std: 0.03
    }
    bias_filler {
      type: "constant"
      value: 0.2
    }
  }
}
layer {
  name: "inception_4d/relu_1x1"
  type: "ReLU"
  bottom: "inception_4d/1x1"
  top: "inception_4d/1x1"
}
layer {
  name: "inception_4d/3x3_reduce"
  type: "Convolution"
  bottom: "inception_4c/output"
  top: "inception_4d/3x3_reduce"
  param {
    lr_mult: 1
    decay_mult: 1
  }
  param {
    lr_mult: 2
    decay_mult: 0
  }
  convolution_param {
    num_output: 144
    kernel_size: 1
    weight_filler {
      type: "xavier"
      std: 0.09
    }
    bias_filler {
      type: "constant"
      value: 0.2
    }
  }
}
layer {
  name: "inception_4d/relu_3x3_reduce"
  type: "ReLU"
  bottom: "inception_4d/3x3_reduce"
  top: "inception_4d/3x3_reduce"
}
layer {
  name: "inception_4d/3x3"
  type: "Convolution"
  bottom: "inception_4d/3x3_reduce"
  top: "inception_4d/3x3"
  param {
    lr_mult: 1
    decay_mult: 1
  }
  param {
    lr_mult: 2
    decay_mult: 0
  }
  convolution_param {
    num_output: 288
    pad: 1
    kernel_size: 3
    weight_filler {
      type: "xavier"
      std: 0.03
    }
    bias_filler {
      type: "constant"
      value: 0.2
    }
  }
}
layer {
  name: "inception_4d/relu_3x3"
  type: "ReLU"
  bottom: "inception_4d/3x3"
  top: "inception_4d/3x3"
}
layer {
  name: "inception_4d/5x5_reduce"
  type: "Convolution"
  bottom: "inception_4c/output"
  top: "inception_4d/5x5_reduce"
  param {
    lr_mult: 1
    decay_mult: 1
  }
  param {
    lr_mult: 2
    decay_mult: 0
  }
  convolution_param {
    num_output: 32
    kernel_size: 1
    weight_filler {
      type: "xavier"
      std: 0.2
    }
    bias_filler {
      type: "constant"
      value: 0.2
    }
  }
}
layer {
  name: "inception_4d/relu_5x5_reduce"
  type: "ReLU"
  bottom: "inception_4d/5x5_reduce"
  top: "inception_4d/5x5_reduce"
}
layer {
  name: "inception_4d/5x5"
  type: "Convolution"
  bottom: "inception_4d/5x5_reduce"
  top: "inception_4d/5x5"
  param {
    lr_mult: 1
    decay_mult: 1
  }
  param {
    lr_mult: 2
    decay_mult: 0
  }
  convolution_param {
    num_output: 64
    pad: 2
    kernel_size: 5
    weight_filler {
      type: "xavier"
      std: 0.03
    }
    bias_filler {
      type: "constant"
      value: 0.2
    }
  }
}
layer {
  name: "inception_4d/relu_5x5"
  type: "ReLU"
  bottom: "inception_4d/5x5"
  top: "inception_4d/5x5"
}
layer {
  name: "inception_4d/pool"
  type: "Pooling"
  bottom: "inception_4c/output"
  top: "inception_4d/pool"
  pooling_param {
    pool: MAX
    kernel_size: 3
    stride: 1
    pad: 1
  }
}
layer {
  name: "inception_4d/pool_proj"
  type: "Convolution"
  bottom: "inception_4d/pool"
  top: "inception_4d/pool_proj"
  param {
    lr_mult: 1
    decay_mult: 1
  }
  param {
    lr_mult: 2
    decay_mult: 0
  }
  convolution_param {
    num_output: 64
    kernel_size: 1
    weight_filler {
      type: "xavier"
      std: 0.1
    }
    bias_filler {
      type: "constant"
      value: 0.2
    }
  }
}
layer {
  name: "inception_4d/relu_pool_proj"
  type: "ReLU"
  bottom: "inception_4d/pool_proj"
  top: "inception_4d/pool_proj"
}
layer {
  name: "inception_4d/output"
  type: "Concat"
  bottom: "inception_4d/1x1"
  bottom: "inception_4d/3x3"
  bottom: "inception_4d/5x5"
  bottom: "inception_4d/pool_proj"
  top: "inception_4d/output"
}
layer {
  name: "loss2/ave_pool"
  type: "Pooling"
  bottom: "inception_4d/output"
  top: "loss2/ave_pool"
  pooling_param {
    pool: AVE
    kernel_size: 5
    stride: 3
  }
}
layer {
  name: "loss2/conv"
  type: "Convolution"
  bottom: "loss2/ave_pool"
  top: "loss2/conv"
  param {
    lr_mult: 1
    decay_mult: 1
  }
  param {
    lr_mult: 2
    decay_mult: 0
  }
  convolution_param {
    num_output: 128
    kernel_size: 1
    weight_filler {
      type: "xavier"
      std: 0.08
    }
    bias_filler {
      type: "constant"
      value: 0.2
    }
  }
}
layer {
  name: "loss2/relu_conv"
  type: "ReLU"
  bottom: "loss2/conv"
  top: "loss2/conv"
}
layer {
  name: "loss2/fc"
  type: "InnerProduct"
  bottom: "loss2/conv"
  top: "loss2/fc"
  param {
    lr_mult: 1
    decay_mult: 1
  }
  param {
    lr_mult: 2
    decay_mult: 0
  }
  inner_product_param {
    num_output: 1024
    weight_filler {
      type: "xavier"
      std: 0.02
    }
    bias_filler {
      type: "constant"
      value: 0.2
    }
  }
}
layer {
  name: "loss2/relu_fc"
  type: "ReLU"
  bottom: "loss2/fc"
  top: "loss2/fc"
}
layer {
  name: "loss2/drop_fc"
  type: "Dropout"
  bottom: "loss2/fc"
  top: "loss2/fc"
  dropout_param {
    dropout_ratio: 0.7
  }
}
layer {
  name: "loss2/classifier_plantvillage"
  type: "InnerProduct"
  bottom: "loss2/fc"
  top: "loss2/classifier_plantvillage"
  param {
    lr_mult: 1
    decay_mult: 1
  }
  param {
    lr_mult: 2
    decay_mult: 0
  }
  inner_product_param {
    num_output: 38
    weight_filler {
      type: "xavier"
      std: 0.0009765625
    }
    bias_filler {
      type: "constant"
      value: 0
    }
  }
}
layer {
  name: "inception_4e/1x1"
  type: "Convolution"
  bottom: "inception_4d/output"
  top: "inception_4e/1x1"
  param {
    lr_mult: 1
    decay_mult: 1
  }
  param {
    lr_mult: 2
    decay_mult: 0
  }
  convolution_param {
    num_output: 256
    kernel_size: 1
    weight_filler {
      type: "xavier"
      std: 0.03
    }
    bias_filler {
      type: "constant"
      value: 0.2
    }
  }
}
layer {
  name: "inception_4e/relu_1x1"
  type: "ReLU"
  bottom: "inception_4e/1x1"
  top: "inception_4e/1x1"
}
layer {
  name: "inception_4e/3x3_reduce"
  type: "Convolution"
  bottom: "inception_4d/output"
  top: "inception_4e/3x3_reduce"
  param {
    lr_mult: 1
    decay_mult: 1
  }
  param {
    lr_mult: 2
    decay_mult: 0
  }
  convolution_param {
    num_output: 160
    kernel_size: 1
    weight_filler {
      type: "xavier"
      std: 0.09
    }
    bias_filler {
      type: "constant"
      value: 0.2
    }
  }
}
layer {
  name: "inception_4e/relu_3x3_reduce"
  type: "ReLU"
  bottom: "inception_4e/3x3_reduce"
  top: "inception_4e/3x3_reduce"
}
layer {
  name: "inception_4e/3x3"
  type: "Convolution"
  bottom: "inception_4e/3x3_reduce"
  top: "inception_4e/3x3"
  param {
    lr_mult: 1
    decay_mult: 1
  }
  param {
    lr_mult: 2
    decay_mult: 0
  }
  convolution_param {
    num_output: 320
    pad: 1
    kernel_size: 3
    weight_filler {
      type: "xavier"
      std: 0.03
    }
    bias_filler {
      type: "constant"
      value: 0.2
    }
  }
}
layer {
  name: "inception_4e/relu_3x3"
  type: "ReLU"
  bottom: "inception_4e/3x3"
  top: "inception_4e/3x3"
}
layer {
  name: "inception_4e/5x5_reduce"
  type: "Convolution"
  bottom: "inception_4d/output"
  top: "inception_4e/5x5_reduce"
  param {
    lr_mult: 1
    decay_mult: 1
  }
  param {
    lr_mult: 2
    decay_mult: 0
  }
  convolution_param {
    num_output: 32
    kernel_size: 1
    weight_filler {
      type: "xavier"
      std: 0.2
    }
    bias_filler {
      type: "constant"
      value: 0.2
    }
  }
}
layer {
  name: "inception_4e/relu_5x5_reduce"
  type: "ReLU"
  bottom: "inception_4e/5x5_reduce"
  top: "inception_4e/5x5_reduce"
}
layer {
  name: "inception_4e/5x5"
  type: "Convolution"
  bottom: "inception_4e/5x5_reduce"
  top: "inception_4e/
I0403 14:51:22.507220 17755 layer_factory.hpp:77] Creating layer data
I0403 14:51:22.507807 17755 net.cpp:91] Creating Layer data
I0403 14:51:22.507836 17755 net.cpp:399] data -> data
I0403 14:51:22.507886 17755 net.cpp:399] data -> label
I0403 14:51:22.507921 17755 data_transformer.cpp:25] Loading mean file from: /home/mohanty/data/final_dataset/lmdb/grayscale-40-60/mean.binaryproto
I0403 14:51:22.510258 17758 db_lmdb.cpp:38] Opened lmdb /home/mohanty/data/final_dataset/lmdb/grayscale-40-60/test_db
I0403 14:51:22.521965 17755 data_layer.cpp:41] output data size: 24,3,224,224
I0403 14:51:22.552513 17755 net.cpp:141] Setting up data
I0403 14:51:22.552587 17755 net.cpp:148] Top shape: 24 3 224 224 (3612672)
I0403 14:51:22.552609 17755 net.cpp:148] Top shape: 24 (24)
I0403 14:51:22.552624 17755 net.cpp:156] Memory required for data: 14450784
I0403 14:51:22.552651 17755 layer_factory.hpp:77] Creating layer label_data_1_split
I0403 14:51:22.552677 17755 net.cpp:91] Creating Layer label_data_1_split
I0403 14:51:22.552695 17755 net.cpp:425] label_data_1_split <- label
I0403 14:51:22.552727 17755 net.cpp:399] label_data_1_split -> label_data_1_split_0
I0403 14:51:22.552753 17755 net.cpp:399] label_data_1_split -> label_data_1_split_1
I0403 14:51:22.552774 17755 net.cpp:399] label_data_1_split -> label_data_1_split_2
I0403 14:51:22.552795 17755 net.cpp:399] label_data_1_split -> label_data_1_split_3
I0403 14:51:22.552814 17755 net.cpp:399] label_data_1_split -> label_data_1_split_4
I0403 14:51:22.552834 17755 net.cpp:399] label_data_1_split -> label_data_1_split_5
I0403 14:51:22.552852 17755 net.cpp:399] label_data_1_split -> label_data_1_split_6
I0403 14:51:22.552871 17755 net.cpp:399] label_data_1_split -> label_data_1_split_7
I0403 14:51:22.552891 17755 net.cpp:399] label_data_1_split -> label_data_1_split_8
I0403 14:51:22.552911 17755 net.cpp:399] label_data_1_split -> label_data_1_split_9
I0403 14:51:22.553025 17755 net.cpp:141] Setting up label_data_1_split
I0403 14:51:22.553050 17755 net.cpp:148] Top shape: 24 (24)
I0403 14:51:22.553066 17755 net.cpp:148] Top shape: 24 (24)
I0403 14:51:22.553081 17755 net.cpp:148] Top shape: 24 (24)
I0403 14:51:22.553095 17755 net.cpp:148] Top shape: 24 (24)
I0403 14:51:22.553110 17755 net.cpp:148] Top shape: 24 (24)
I0403 14:51:22.553127 17755 net.cpp:148] Top shape: 24 (24)
I0403 14:51:22.553141 17755 net.cpp:148] Top shape: 24 (24)
I0403 14:51:22.553156 17755 net.cpp:148] Top shape: 24 (24)
I0403 14:51:22.553171 17755 net.cpp:148] Top shape: 24 (24)
I0403 14:51:22.553187 17755 net.cpp:148] Top shape: 24 (24)
I0403 14:51:22.553230 17755 net.cpp:156] Memory required for data: 14451744
I0403 14:51:22.553246 17755 layer_factory.hpp:77] Creating layer conv1/7x7_s2
I0403 14:51:22.553275 17755 net.cpp:91] Creating Layer conv1/7x7_s2
I0403 14:51:22.553293 17755 net.cpp:425] conv1/7x7_s2 <- data
I0403 14:51:22.553313 17755 net.cpp:399] conv1/7x7_s2 -> conv1/7x7_s2
I0403 14:51:22.698802 17755 net.cpp:141] Setting up conv1/7x7_s2
I0403 14:51:22.698846 17755 net.cpp:148] Top shape: 24 64 112 112 (19267584)
I0403 14:51:22.698863 17755 net.cpp:156] Memory required for data: 91522080
I0403 14:51:22.698894 17755 layer_factory.hpp:77] Creating layer conv1/relu_7x7
I0403 14:51:22.698920 17755 net.cpp:91] Creating Layer conv1/relu_7x7
I0403 14:51:22.698938 17755 net.cpp:425] conv1/relu_7x7 <- conv1/7x7_s2
I0403 14:51:22.698963 17755 net.cpp:386] conv1/relu_7x7 -> conv1/7x7_s2 (in-place)
I0403 14:51:22.699283 17755 net.cpp:141] Setting up conv1/relu_7x7
I0403 14:51:22.699311 17755 net.cpp:148] Top shape: 24 64 112 112 (19267584)
I0403 14:51:22.699326 17755 net.cpp:156] Memory required for data: 168592416
I0403 14:51:22.699342 17755 layer_factory.hpp:77] Creating layer pool1/3x3_s2
I0403 14:51:22.699365 17755 net.cpp:91] Creating Layer pool1/3x3_s2
I0403 14:51:22.699383 17755 net.cpp:425] pool1/3x3_s2 <- conv1/7x7_s2
I0403 14:51:22.699403 17755 net.cpp:399] pool1/3x3_s2 -> pool1/3x3_s2
I0403 14:51:22.699473 17755 net.cpp:141] Setting up pool1/3x3_s2
I0403 14:51:22.699497 17755 net.cpp:148] Top shape: 24 64 56 56 (4816896)
I0403 14:51:22.699512 17755 net.cpp:156] Memory required for data: 187860000
I0403 14:51:22.699527 17755 layer_factory.hpp:77] Creating layer pool1/norm1
I0403 14:51:22.699550 17755 net.cpp:91] Creating Layer pool1/norm1
I0403 14:51:22.699568 17755 net.cpp:425] pool1/norm1 <- pool1/3x3_s2
I0403 14:51:22.699585 17755 net.cpp:399] pool1/norm1 -> pool1/norm1
I0403 14:51:22.699867 17755 net.cpp:141] Setting up pool1/norm1
I0403 14:51:22.699893 17755 net.cpp:148] Top shape: 24 64 56 56 (4816896)
I0403 14:51:22.699908 17755 net.cpp:156] Memory required for data: 207127584
I0403 14:51:22.699923 17755 layer_factory.hpp:77] Creating layer conv2/3x3_reduce
I0403 14:51:22.699947 17755 net.cpp:91] Creating Layer conv2/3x3_reduce
I0403 14:51:22.699972 17755 net.cpp:425] conv2/3x3_reduce <- pool1/norm1
I0403 14:51:22.699992 17755 net.cpp:399] conv2/3x3_reduce -> conv2/3x3_reduce
I0403 14:51:22.701431 17755 net.cpp:141] Setting up conv2/3x3_reduce
I0403 14:51:22.701462 17755 net.cpp:148] Top shape: 24 64 56 56 (4816896)
I0403 14:51:22.701478 17755 net.cpp:156] Memory required for data: 226395168
I0403 14:51:22.701498 17755 layer_factory.hpp:77] Creating layer conv2/relu_3x3_reduce
I0403 14:51:22.701521 17755 net.cpp:91] Creating Layer conv2/relu_3x3_reduce
I0403 14:51:22.701539 17755 net.cpp:425] conv2/relu_3x3_reduce <- conv2/3x3_reduce
I0403 14:51:22.701555 17755 net.cpp:386] conv2/relu_3x3_reduce -> conv2/3x3_reduce (in-place)
I0403 14:51:22.701822 17755 net.cpp:141] Setting up conv2/relu_3x3_reduce
I0403 14:51:22.701850 17755 net.cpp:148] Top shape: 24 64 56 56 (4816896)
I0403 14:51:22.701866 17755 net.cpp:156] Memory required for data: 245662752
I0403 14:51:22.701881 17755 layer_factory.hpp:77] Creating layer conv2/3x3
I0403 14:51:22.701918 17755 net.cpp:91] Creating Layer conv2/3x3
I0403 14:51:22.701936 17755 net.cpp:425] conv2/3x3 <- conv2/3x3_reduce
I0403 14:51:22.701963 17755 net.cpp:399] conv2/3x3 -> conv2/3x3
I0403 14:51:22.704332 17755 net.cpp:141] Setting up conv2/3x3
I0403 14:51:22.704365 17755 net.cpp:148] Top shape: 24 192 56 56 (14450688)
I0403 14:51:22.704381 17755 net.cpp:156] Memory required for data: 303465504
I0403 14:51:22.704402 17755 layer_factory.hpp:77] Creating layer conv2/relu_3x3
I0403 14:51:22.704421 17755 net.cpp:91] Creating Layer conv2/relu_3x3
I0403 14:51:22.704437 17755 net.cpp:425] conv2/relu_3x3 <- conv2/3x3
I0403 14:51:22.704457 17755 net.cpp:386] conv2/relu_3x3 -> conv2/3x3 (in-place)
I0403 14:51:22.704637 17755 net.cpp:141] Setting up conv2/relu_3x3
I0403 14:51:22.704661 17755 net.cpp:148] Top shape: 24 192 56 56 (14450688)
I0403 14:51:22.704705 17755 net.cpp:156] Memory required for data: 361268256
I0403 14:51:22.704720 17755 layer_factory.hpp:77] Creating layer conv2/norm2
I0403 14:51:22.704741 17755 net.cpp:91] Creating Layer conv2/norm2
I0403 14:51:22.704757 17755 net.cpp:425] conv2/norm2 <- conv2/3x3
I0403 14:51:22.704776 17755 net.cpp:399] conv2/norm2 -> conv2/norm2
I0403 14:51:22.705088 17755 net.cpp:141] Setting up conv2/norm2
I0403 14:51:22.705116 17755 net.cpp:148] Top shape: 24 192 56 56 (14450688)
I0403 14:51:22.705129 17755 net.cpp:156] Memory required for data: 419071008
I0403 14:51:22.705144 17755 layer_factory.hpp:77] Creating layer pool2/3x3_s2
I0403 14:51:22.705164 17755 net.cpp:91] Creating Layer pool2/3x3_s2
I0403 14:51:22.705180 17755 net.cpp:425] pool2/3x3_s2 <- conv2/norm2
I0403 14:51:22.705199 17755 net.cpp:399] pool2/3x3_s2 -> pool2/3x3_s2
I0403 14:51:22.705251 17755 net.cpp:141] Setting up pool2/3x3_s2
I0403 14:51:22.705274 17755 net.cpp:148] Top shape: 24 192 28 28 (3612672)
I0403 14:51:22.705302 17755 net.cpp:156] Memory required for data: 433521696
I0403 14:51:22.705317 17755 layer_factory.hpp:77] Creating layer pool2/3x3_s2_pool2/3x3_s2_0_split
I0403 14:51:22.705335 17755 net.cpp:91] Creating Layer pool2/3x3_s2_pool2/3x3_s2_0_split
I0403 14:51:22.705353 17755 net.cpp:425] pool2/3x3_s2_pool2/3x3_s2_0_split <- pool2/3x3_s2
I0403 14:51:22.705373 17755 net.cpp:399] pool2/3x3_s2_pool2/3x3_s2_0_split -> pool2/3x3_s2_pool2/3x3_s2_0_split_0
I0403 14:51:22.705394 17755 net.cpp:399] pool2/3x3_s2_pool2/3x3_s2_0_split -> pool2/3x3_s2_pool2/3x3_s2_0_split_1
I0403 14:51:22.705413 17755 net.cpp:399] pool2/3x3_s2_pool2/3x3_s2_0_split -> pool2/3x3_s2_pool2/3x3_s2_0_split_2
I0403 14:51:22.705433 17755 net.cpp:399] pool2/3x3_s2_pool2/3x3_s2_0_split -> pool2/3x3_s2_pool2/3x3_s2_0_split_3
I0403 14:51:22.705507 17755 net.cpp:141] Setting up pool2/3x3_s2_pool2/3x3_s2_0_split
I0403 14:51:22.705529 17755 net.cpp:148] Top shape: 24 192 28 28 (3612672)
I0403 14:51:22.705548 17755 net.cpp:148] Top shape: 24 192 28 28 (3612672)
I0403 14:51:22.705564 17755 net.cpp:148] Top shape: 24 192 28 28 (3612672)
I0403 14:51:22.705579 17755 net.cpp:148] Top shape: 24 192 28 28 (3612672)
I0403 14:51:22.705593 17755 net.cpp:156] Memory required for data: 491324448
I0403 14:51:22.705608 17755 layer_factory.hpp:77] Creating layer inception_3a/1x1
I0403 14:51:22.705643 17755 net.cpp:91] Creating Layer inception_3a/1x1
I0403 14:51:22.705660 17755 net.cpp:425] inception_3a/1x1 <- pool2/3x3_s2_pool2/3x3_s2_0_split_0
I0403 14:51:22.705682 17755 net.cpp:399] inception_3a/1x1 -> inception_3a/1x1
I0403 14:51:22.707201 17755 net.cpp:141] Setting up inception_3a/1x1
I0403 14:51:22.707232 17755 net.cpp:148] Top shape: 24 64 28 28 (1204224)
I0403 14:51:22.707249 17755 net.cpp:156] Memory required for data: 496141344
I0403 14:51:22.707269 17755 layer_factory.hpp:77] Creating layer inception_3a/relu_1x1
I0403 14:51:22.707288 17755 net.cpp:91] Creating Layer inception_3a/relu_1x1
I0403 14:51:22.707304 17755 net.cpp:425] inception_3a/relu_1x1 <- inception_3a/1x1
I0403 14:51:22.707322 17755 net.cpp:386] inception_3a/relu_1x1 -> inception_3a/1x1 (in-place)
I0403 14:51:22.707511 17755 net.cpp:141] Setting up inception_3a/relu_1x1
I0403 14:51:22.707538 17755 net.cpp:148] Top shape: 24 64 28 28 (1204224)
I0403 14:51:22.707553 17755 net.cpp:156] Memory required for data: 500958240
I0403 14:51:22.707568 17755 layer_factory.hpp:77] Creating layer inception_3a/3x3_reduce
I0403 14:51:22.707590 17755 net.cpp:91] Creating Layer inception_3a/3x3_reduce
I0403 14:51:22.707608 17755 net.cpp:425] inception_3a/3x3_reduce <- pool2/3x3_s2_pool2/3x3_s2_0_split_1
I0403 14:51:22.707629 17755 net.cpp:399] inception_3a/3x3_reduce -> inception_3a/3x3_reduce
I0403 14:51:22.709341 17755 net.cpp:141] Setting up inception_3a/3x3_reduce
I0403 14:51:22.709369 17755 net.cpp:148] Top shape: 24 96 28 28 (1806336)
I0403 14:51:22.709384 17755 net.cpp:156] Memory required for data: 508183584
I0403 14:51:22.709408 17755 layer_factory.hpp:77] Creating layer inception_3a/relu_3x3_reduce
I0403 14:51:22.709444 17755 net.cpp:91] Creating Layer inception_3a/relu_3x3_reduce
I0403 14:51:22.709461 17755 net.cpp:425] inception_3a/relu_3x3_reduce <- inception_3a/3x3_reduce
I0403 14:51:22.709481 17755 net.cpp:386] inception_3a/relu_3x3_reduce -> inception_3a/3x3_reduce (in-place)
I0403 14:51:22.709663 17755 net.cpp:141] Setting up inception_3a/relu_3x3_reduce
I0403 14:51:22.709688 17755 net.cpp:148] Top shape: 24 96 28 28 (1806336)
I0403 14:51:22.709702 17755 net.cpp:156] Memory required for data: 515408928
I0403 14:51:22.709717 17755 layer_factory.hpp:77] Creating layer inception_3a/3x3
I0403 14:51:22.709739 17755 net.cpp:91] Creating Layer inception_3a/3x3
I0403 14:51:22.709759 17755 net.cpp:425] inception_3a/3x3 <- inception_3a/3x3_reduce
I0403 14:51:22.709779 17755 net.cpp:399] inception_3a/3x3 -> inception_3a/3x3
I0403 14:51:22.711441 17755 net.cpp:141] Setting up inception_3a/3x3
I0403 14:51:22.711472 17755 net.cpp:148] Top shape: 24 128 28 28 (2408448)
I0403 14:51:22.711486 17755 net.cpp:156] Memory required for data: 525042720
I0403 14:51:22.711505 17755 layer_factory.hpp:77] Creating layer inception_3a/relu_3x3
I0403 14:51:22.711524 17755 net.cpp:91] Creating Layer inception_3a/relu_3x3
I0403 14:51:22.711539 17755 net.cpp:425] inception_3a/relu_3x3 <- inception_3a/3x3
I0403 14:51:22.711558 17755 net.cpp:386] inception_3a/relu_3x3 -> inception_3a/3x3 (in-place)
I0403 14:51:22.711827 17755 net.cpp:141] Setting up inception_3a/relu_3x3
I0403 14:51:22.711854 17755 net.cpp:148] Top shape: 24 128 28 28 (2408448)
I0403 14:51:22.711870 17755 net.cpp:156] Memory required for data: 534676512
I0403 14:51:22.711885 17755 layer_factory.hpp:77] Creating layer inception_3a/5x5_reduce
I0403 14:51:22.711907 17755 net.cpp:91] Creating Layer inception_3a/5x5_reduce
I0403 14:51:22.711925 17755 net.cpp:425] inception_3a/5x5_reduce <- pool2/3x3_s2_pool2/3x3_s2_0_split_2
I0403 14:51:22.711946 17755 net.cpp:399] inception_3a/5x5_reduce -> inception_3a/5x5_reduce
I0403 14:51:22.712939 17755 net.cpp:141] Setting up inception_3a/5x5_reduce
I0403 14:51:22.712973 17755 net.cpp:148] Top shape: 24 16 28 28 (301056)
I0403 14:51:22.712990 17755 net.cpp:156] Memory required for data: 535880736
I0403 14:51:22.713009 17755 layer_factory.hpp:77] Creating layer inception_3a/relu_5x5_reduce
I0403 14:51:22.713027 17755 net.cpp:91] Creating Layer inception_3a/relu_5x5_reduce
I0403 14:51:22.713043 17755 net.cpp:425] inception_3a/relu_5x5_reduce <- inception_3a/5x5_reduce
I0403 14:51:22.713063 17755 net.cpp:386] inception_3a/relu_5x5_reduce -> inception_3a/5x5_reduce (in-place)
I0403 14:51:22.713364 17755 net.cpp:141] Setting up inception_3a/relu_5x5_reduce
I0403 14:51:22.713390 17755 net.cpp:148] Top shape: 24 16 28 28 (301056)
I0403 14:51:22.713407 17755 net.cpp:156] Memory required for data: 537084960
I0403 14:51:22.713421 17755 layer_factory.hpp:77] Creating layer inception_3a/5x5
I0403 14:51:22.713443 17755 net.cpp:91] Creating Layer inception_3a/5x5
I0403 14:51:22.713461 17755 net.cpp:425] inception_3a/5x5 <- inception_3a/5x5_reduce
I0403 14:51:22.713481 17755 net.cpp:399] inception_3a/5x5 -> inception_3a/5x5
I0403 14:51:22.714520 17755 net.cpp:141] Setting up inception_3a/5x5
I0403 14:51:22.714551 17755 net.cpp:148] Top shape: 24 32 28 28 (602112)
I0403 14:51:22.714567 17755 net.cpp:156] Memory required for data: 539493408
I0403 14:51:22.714586 17755 layer_factory.hpp:77] Creating layer inception_3a/relu_5x5
I0403 14:51:22.714603 17755 net.cpp:91] Creating Layer inception_3a/relu_5x5
I0403 14:51:22.714619 17755 net.cpp:425] inception_3a/relu_5x5 <- inception_3a/5x5
I0403 14:51:22.714637 17755 net.cpp:386] inception_3a/relu_5x5 -> inception_3a/5x5 (in-place)
I0403 14:51:22.714809 17755 net.cpp:141] Setting up inception_3a/relu_5x5
I0403 14:51:22.714834 17755 net.cpp:148] Top shape: 24 32 28 28 (602112)
I0403 14:51:22.714849 17755 net.cpp:156] Memory required for data: 541901856
I0403 14:51:22.714864 17755 layer_factory.hpp:77] Creating layer inception_3a/pool
I0403 14:51:22.714882 17755 net.cpp:91] Creating Layer inception_3a/pool
I0403 14:51:22.714911 17755 net.cpp:425] inception_3a/pool <- pool2/3x3_s2_pool2/3x3_s2_0_split_3
I0403 14:51:22.714933 17755 net.cpp:399] inception_3a/pool -> inception_3a/pool
I0403 14:51:22.714997 17755 net.cpp:141] Setting up inception_3a/pool
I0403 14:51:22.715023 17755 net.cpp:148] Top shape: 24 192 28 28 (3612672)
I0403 14:51:22.715039 17755 net.cpp:156] Memory required for data: 556352544
I0403 14:51:22.715054 17755 layer_factory.hpp:77] Creating layer inception_3a/pool_proj
I0403 14:51:22.715075 17755 net.cpp:91] Creating Layer inception_3a/pool_proj
I0403 14:51:22.715093 17755 net.cpp:425] inception_3a/pool_proj <- inception_3a/pool
I0403 14:51:22.715111 17755 net.cpp:399] inception_3a/pool_proj -> inception_3a/pool_proj
I0403 14:51:22.716109 17755 net.cpp:141] Setting up inception_3a/pool_proj
I0403 14:51:22.716135 17755 net.cpp:148] Top shape: 24 32 28 28 (602112)
I0403 14:51:22.716151 17755 net.cpp:156] Memory required for data: 558760992
I0403 14:51:22.716176 17755 layer_factory.hpp:77] Creating layer inception_3a/relu_pool_proj
I0403 14:51:22.716195 17755 net.cpp:91] Creating Layer inception_3a/relu_pool_proj
I0403 14:51:22.716212 17755 net.cpp:425] inception_3a/relu_pool_proj <- inception_3a/pool_proj
I0403 14:51:22.716231 17755 net.cpp:386] inception_3a/relu_pool_proj -> inception_3a/pool_proj (in-place)
I0403 14:51:22.716502 17755 net.cpp:141] Setting up inception_3a/relu_pool_proj
I0403 14:51:22.716534 17755 net.cpp:148] Top shape: 24 32 28 28 (602112)
I0403 14:51:22.716549 17755 net.cpp:156] Memory required for data: 561169440
I0403 14:51:22.716565 17755 layer_factory.hpp:77] Creating layer inception_3a/output
I0403 14:51:22.716583 17755 net.cpp:91] Creating Layer inception_3a/output
I0403 14:51:22.716598 17755 net.cpp:425] inception_3a/output <- inception_3a/1x1
I0403 14:51:22.716615 17755 net.cpp:425] inception_3a/output <- inception_3a/3x3
I0403 14:51:22.716631 17755 net.cpp:425] inception_3a/output <- inception_3a/5x5
I0403 14:51:22.716648 17755 net.cpp:425] inception_3a/output <- inception_3a/pool_proj
I0403 14:51:22.716665 17755 net.cpp:399] inception_3a/output -> inception_3a/output
I0403 14:51:22.716713 17755 net.cpp:141] Setting up inception_3a/output
I0403 14:51:22.716737 17755 net.cpp:148] Top shape: 24 256 28 28 (4816896)
I0403 14:51:22.716750 17755 net.cpp:156] Memory required for data: 580437024
I0403 14:51:22.716765 17755 layer_factory.hpp:77] Creating layer inception_3a/output_inception_3a/output_0_split
I0403 14:51:22.716785 17755 net.cpp:91] Creating Layer inception_3a/output_inception_3a/output_0_split
I0403 14:51:22.716801 17755 net.cpp:425] inception_3a/output_inception_3a/output_0_split <- inception_3a/output
I0403 14:51:22.716819 17755 net.cpp:399] inception_3a/output_inception_3a/output_0_split -> inception_3a/output_inception_3a/output_0_split_0
I0403 14:51:22.716837 17755 net.cpp:399] inception_3a/output_inception_3a/output_0_split -> inception_3a/output_inception_3a/output_0_split_1
I0403 14:51:22.716862 17755 net.cpp:399] inception_3a/output_inception_3a/output_0_split -> inception_3a/output_inception_3a/output_0_split_2
I0403 14:51:22.716883 17755 net.cpp:399] inception_3a/output_inception_3a/output_0_split -> inception_3a/output_inception_3a/output_0_split_3
I0403 14:51:22.716964 17755 net.cpp:141] Setting up inception_3a/output_inception_3a/output_0_split
I0403 14:51:22.716987 17755 net.cpp:148] Top shape: 24 256 28 28 (4816896)
I0403 14:51:22.717005 17755 net.cpp:148] Top shape: 24 256 28 28 (4816896)
I0403 14:51:22.717020 17755 net.cpp:148] Top shape: 24 256 28 28 (4816896)
I0403 14:51:22.717036 17755 net.cpp:148] Top shape: 24 256 28 28 (4816896)
I0403 14:51:22.717049 17755 net.cpp:156] Memory required for data: 657507360
I0403 14:51:22.717063 17755 layer_factory.hpp:77] Creating layer inception_3b/1x1
I0403 14:51:22.717087 17755 net.cpp:91] Creating Layer inception_3b/1x1
I0403 14:51:22.717104 17755 net.cpp:425] inception_3b/1x1 <- inception_3a/output_inception_3a/output_0_split_0
I0403 14:51:22.717123 17755 net.cpp:399] inception_3b/1x1 -> inception_3b/1x1
I0403 14:51:22.718322 17755 net.cpp:141] Setting up inception_3b/1x1
I0403 14:51:22.718361 17755 net.cpp:148] Top shape: 24 128 28 28 (2408448)
I0403 14:51:22.718377 17755 net.cpp:156] Memory required for data: 667141152
I0403 14:51:22.718395 17755 layer_factory.hpp:77] Creating layer inception_3b/relu_1x1
I0403 14:51:22.718415 17755 net.cpp:91] Creating Layer inception_3b/relu_1x1
I0403 14:51:22.718432 17755 net.cpp:425] inception_3b/relu_1x1 <- inception_3b/1x1
I0403 14:51:22.718449 17755 net.cpp:386] inception_3b/relu_1x1 -> inception_3b/1x1 (in-place)
I0403 14:51:22.718624 17755 net.cpp:141] Setting up inception_3b/relu_1x1
I0403 14:51:22.718648 17755 net.cpp:148] Top shape: 24 128 28 28 (2408448)
I0403 14:51:22.718663 17755 net.cpp:156] Memory required for data: 676774944
I0403 14:51:22.718678 17755 layer_factory.hpp:77] Creating layer inception_3b/3x3_reduce
I0403 14:51:22.718700 17755 net.cpp:91] Creating Layer inception_3b/3x3_reduce
I0403 14:51:22.718718 17755 net.cpp:425] inception_3b/3x3_reduce <- inception_3a/output_inception_3a/output_0_split_1
I0403 14:51:22.718739 17755 net.cpp:399] inception_3b/3x3_reduce -> inception_3b/3x3_reduce
I0403 14:51:22.719892 17755 net.cpp:141] Setting up inception_3b/3x3_reduce
I0403 14:51:22.719918 17755 net.cpp:148] Top shape: 24 128 28 28 (2408448)
I0403 14:51:22.719933 17755 net.cpp:156] Memory required for data: 686408736
I0403 14:51:22.719951 17755 layer_factory.hpp:77] Creating layer inception_3b/relu_3x3_reduce
I0403 14:51:22.719981 17755 net.cpp:91] Creating Layer inception_3b/relu_3x3_reduce
I0403 14:51:22.719998 17755 net.cpp:425] inception_3b/relu_3x3_reduce <- inception_3b/3x3_reduce
I0403 14:51:22.720016 17755 net.cpp:386] inception_3b/relu_3x3_reduce -> inception_3b/3x3_reduce (in-place)
I0403 14:51:22.720190 17755 net.cpp:141] Setting up inception_3b/relu_3x3_reduce
I0403 14:51:22.720216 17755 net.cpp:148] Top shape: 24 128 28 28 (2408448)
I0403 14:51:22.720232 17755 net.cpp:156] Memory required for data: 696042528
I0403 14:51:22.720247 17755 layer_factory.hpp:77] Creating layer inception_3b/3x3
I0403 14:51:22.720271 17755 net.cpp:91] Creating Layer inception_3b/3x3
I0403 14:51:22.720289 17755 net.cpp:425] inception_3b/3x3 <- inception_3b/3x3_reduce
I0403 14:51:22.720310 17755 net.cpp:399] inception_3b/3x3 -> inception_3b/3x3
I0403 14:51:22.723265 17755 net.cpp:141] Setting up inception_3b/3x3
I0403 14:51:22.723296 17755 net.cpp:148] Top shape: 24 192 28 28 (3612672)
I0403 14:51:22.723312 17755 net.cpp:156] Memory required for data: 710493216
I0403 14:51:22.723330 17755 layer_factory.hpp:77] Creating layer inception_3b/relu_3x3
I0403 14:51:22.723348 17755 net.cpp:91] Creating Layer inception_3b/relu_3x3
I0403 14:51:22.723364 17755 net.cpp:425] inception_3b/relu_3x3 <- inception_3b/3x3
I0403 14:51:22.723383 17755 net.cpp:386] inception_3b/relu_3x3 -> inception_3b/3x3 (in-place)
I0403 14:51:22.723656 17755 net.cpp:141] Setting up inception_3b/relu_3x3
I0403 14:51:22.723683 17755 net.cpp:148] Top shape: 24 192 28 28 (3612672)
I0403 14:51:22.723698 17755 net.cpp:156] Memory required for data: 724943904
I0403 14:51:22.723713 17755 layer_factory.hpp:77] Creating layer inception_3b/5x5_reduce
I0403 14:51:22.723736 17755 net.cpp:91] Creating Layer inception_3b/5x5_reduce
I0403 14:51:22.723752 17755 net.cpp:425] inception_3b/5x5_reduce <- inception_3a/output_inception_3a/output_0_split_2
I0403 14:51:22.723774 17755 net.cpp:399] inception_3b/5x5_reduce -> inception_3b/5x5_reduce
I0403 14:51:22.724777 17755 net.cpp:141] Setting up inception_3b/5x5_reduce
I0403 14:51:22.724808 17755 net.cpp:148] Top shape: 24 32 28 28 (602112)
I0403 14:51:22.724825 17755 net.cpp:156] Memory required for data: 727352352
I0403 14:51:22.724844 17755 layer_factory.hpp:77] Creating layer inception_3b/relu_5x5_reduce
I0403 14:51:22.724863 17755 net.cpp:91] Creating Layer inception_3b/relu_5x5_reduce
I0403 14:51:22.724879 17755 net.cpp:425] inception_3b/relu_5x5_reduce <- inception_3b/5x5_reduce
I0403 14:51:22.724897 17755 net.cpp:386] inception_3b/relu_5x5_reduce -> inception_3b/5x5_reduce (in-place)
I0403 14:51:22.725112 17755 net.cpp:141] Setting up inception_3b/relu_5x5_reduce
I0403 14:51:22.725137 17755 net.cpp:148] Top shape: 24 32 28 28 (602112)
I0403 14:51:22.725152 17755 net.cpp:156] Memory required for data: 729760800
I0403 14:51:22.725167 17755 layer_factory.hpp:77] Creating layer inception_3b/5x5
I0403 14:51:22.725189 17755 net.cpp:91] Creating Layer inception_3b/5x5
I0403 14:51:22.725206 17755 net.cpp:425] inception_3b/5x5 <- inception_3b/5x5_reduce
I0403 14:51:22.725227 17755 net.cpp:399] inception_3b/5x5 -> inception_3b/5x5
I0403 14:51:22.727212 17755 net.cpp:141] Setting up inception_3b/5x5
I0403 14:51:22.727241 17755 net.cpp:148] Top shape: 24 96 28 28 (1806336)
I0403 14:51:22.727257 17755 net.cpp:156] Memory required for data: 736986144
I0403 14:51:22.727275 17755 layer_factory.hpp:77] Creating layer inception_3b/relu_5x5
I0403 14:51:22.727295 17755 net.cpp:91] Creating Layer inception_3b/relu_5x5
I0403 14:51:22.727313 17755 net.cpp:425] inception_3b/relu_5x5 <- inception_3b/5x5
I0403 14:51:22.727330 17755 net.cpp:386] inception_3b/relu_5x5 -> inception_3b/5x5 (in-place)
I0403 14:51:22.727522 17755 net.cpp:141] Setting up inception_3b/relu_5x5
I0403 14:51:22.727548 17755 net.cpp:148] Top shape: 24 96 28 28 (1806336)
I0403 14:51:22.727563 17755 net.cpp:156] Memory required for data: 744211488
I0403 14:51:22.727577 17755 layer_factory.hpp:77] Creating layer inception_3b/pool
I0403 14:51:22.727596 17755 net.cpp:91] Creating Layer inception_3b/pool
I0403 14:51:22.727610 17755 net.cpp:425] inception_3b/pool <- inception_3a/output_inception_3a/output_0_split_3
I0403 14:51:22.727628 17755 net.cpp:399] inception_3b/pool -> inception_3b/pool
I0403 14:51:22.727684 17755 net.cpp:141] Setting up inception_3b/pool
I0403 14:51:22.727707 17755 net.cpp:148] Top shape: 24 256 28 28 (4816896)
I0403 14:51:22.727721 17755 net.cpp:156] Memory required for data: 763479072
I0403 14:51:22.727736 17755 layer_factory.hpp:77] Creating layer inception_3b/pool_proj
I0403 14:51:22.727758 17755 net.cpp:91] Creating Layer inception_3b/pool_proj
I0403 14:51:22.727777 17755 net.cpp:425] inception_3b/pool_proj <- inception_3b/pool
I0403 14:51:22.727797 17755 net.cpp:399] inception_3b/pool_proj -> inception_3b/pool_proj
I0403 14:51:22.728891 17755 net.cpp:141] Setting up inception_3b/pool_proj
I0403 14:51:22.728919 17755 net.cpp:148] Top shape: 24 64 28 28 (1204224)
I0403 14:51:22.728934 17755 net.cpp:156] Memory required for data: 768295968
I0403 14:51:22.728951 17755 layer_factory.hpp:77] Creating layer inception_3b/relu_pool_proj
I0403 14:51:22.728978 17755 net.cpp:91] Creating Layer inception_3b/relu_pool_proj
I0403 14:51:22.728996 17755 net.cpp:425] inception_3b/relu_pool_proj <- inception_3b/pool_proj
I0403 14:51:22.729014 17755 net.cpp:386] inception_3b/relu_pool_proj -> inception_3b/pool_proj (in-place)
I0403 14:51:22.729420 17755 net.cpp:141] Setting up inception_3b/relu_pool_proj
I0403 14:51:22.729446 17755 net.cpp:148] Top shape: 24 64 28 28 (1204224)
I0403 14:51:22.729462 17755 net.cpp:156] Memory required for data: 773112864
I0403 14:51:22.729477 17755 layer_factory.hpp:77] Creating layer inception_3b/output
I0403 14:51:22.729495 17755 net.cpp:91] Creating Layer inception_3b/output
I0403 14:51:22.729509 17755 net.cpp:425] inception_3b/output <- inception_3b/1x1
I0403 14:51:22.729526 17755 net.cpp:425] inception_3b/output <- inception_3b/3x3
I0403 14:51:22.729542 17755 net.cpp:425] inception_3b/output <- inception_3b/5x5
I0403 14:51:22.729558 17755 net.cpp:425] inception_3b/output <- inception_3b/pool_proj
I0403 14:51:22.729578 17755 net.cpp:399] inception_3b/output -> inception_3b/output
I0403 14:51:22.729621 17755 net.cpp:141] Setting up inception_3b/output
I0403 14:51:22.729660 17755 net.cpp:148] Top shape: 24 480 28 28 (9031680)
I0403 14:51:22.729676 17755 net.cpp:156] Memory required for data: 809239584
I0403 14:51:22.729691 17755 layer_factory.hpp:77] Creating layer pool3/3x3_s2
I0403 14:51:22.729709 17755 net.cpp:91] Creating Layer pool3/3x3_s2
I0403 14:51:22.729725 17755 net.cpp:425] pool3/3x3_s2 <- inception_3b/output
I0403 14:51:22.729758 17755 net.cpp:399] pool3/3x3_s2 -> pool3/3x3_s2
I0403 14:51:22.729820 17755 net.cpp:141] Setting up pool3/3x3_s2
I0403 14:51:22.729845 17755 net.cpp:148] Top shape: 24 480 14 14 (2257920)
I0403 14:51:22.729859 17755 net.cpp:156] Memory required for data: 818271264
I0403 14:51:22.729874 17755 layer_factory.hpp:77] Creating layer pool3/3x3_s2_pool3/3x3_s2_0_split
I0403 14:51:22.729892 17755 net.cpp:91] Creating Layer pool3/3x3_s2_pool3/3x3_s2_0_split
I0403 14:51:22.729907 17755 net.cpp:425] pool3/3x3_s2_pool3/3x3_s2_0_split <- pool3/3x3_s2
I0403 14:51:22.729926 17755 net.cpp:399] pool3/3x3_s2_pool3/3x3_s2_0_split -> pool3/3x3_s2_pool3/3x3_s2_0_split_0
I0403 14:51:22.729948 17755 net.cpp:399] pool3/3x3_s2_pool3/3x3_s2_0_split -> pool3/3x3_s2_pool3/3x3_s2_0_split_1
I0403 14:51:22.729975 17755 net.cpp:399] pool3/3x3_s2_pool3/3x3_s2_0_split -> pool3/3x3_s2_pool3/3x3_s2_0_split_2
I0403 14:51:22.729998 17755 net.cpp:399] pool3/3x3_s2_pool3/3x3_s2_0_split -> pool3/3x3_s2_pool3/3x3_s2_0_split_3
I0403 14:51:22.730078 17755 net.cpp:141] Setting up pool3/3x3_s2_pool3/3x3_s2_0_split
I0403 14:51:22.730103 17755 net.cpp:148] Top shape: 24 480 14 14 (2257920)
I0403 14:51:22.730118 17755 net.cpp:148] Top shape: 24 480 14 14 (2257920)
I0403 14:51:22.730135 17755 net.cpp:148] Top shape: 24 480 14 14 (2257920)
I0403 14:51:22.730151 17755 net.cpp:148] Top shape: 24 480 14 14 (2257920)
I0403 14:51:22.730165 17755 net.cpp:156] Memory required for data: 854397984
I0403 14:51:22.730180 17755 layer_factory.hpp:77] Creating layer inception_4a/1x1
I0403 14:51:22.730213 17755 net.cpp:91] Creating Layer inception_4a/1x1
I0403 14:51:22.730231 17755 net.cpp:425] inception_4a/1x1 <- pool3/3x3_s2_pool3/3x3_s2_0_split_0
I0403 14:51:22.730255 17755 net.cpp:399] inception_4a/1x1 -> inception_4a/1x1
I0403 14:51:22.731859 17755 net.cpp:141] Setting up inception_4a/1x1
I0403 14:51:22.731885 17755 net.cpp:148] Top shape: 24 192 14 14 (903168)
I0403 14:51:22.731899 17755 net.cpp:156] Memory required for data: 858010656
I0403 14:51:22.731917 17755 layer_factory.hpp:77] Creating layer inception_4a/relu_1x1
I0403 14:51:22.731936 17755 net.cpp:91] Creating Layer inception_4a/relu_1x1
I0403 14:51:22.731952 17755 net.cpp:425] inception_4a/relu_1x1 <- inception_4a/1x1
I0403 14:51:22.731977 17755 net.cpp:386] inception_4a/relu_1x1 -> inception_4a/1x1 (in-place)
I0403 14:51:22.732151 17755 net.cpp:141] Setting up inception_4a/relu_1x1
I0403 14:51:22.732175 17755 net.cpp:148] Top shape: 24 192 14 14 (903168)
I0403 14:51:22.732189 17755 net.cpp:156] Memory required for data: 861623328
I0403 14:51:22.732204 17755 layer_factory.hpp:77] Creating layer inception_4a/3x3_reduce
I0403 14:51:22.732228 17755 net.cpp:91] Creating Layer inception_4a/3x3_reduce
I0403 14:51:22.732245 17755 net.cpp:425] inception_4a/3x3_reduce <- pool3/3x3_s2_pool3/3x3_s2_0_split_1
I0403 14:51:22.732264 17755 net.cpp:399] inception_4a/3x3_reduce -> inception_4a/3x3_reduce
I0403 14:51:22.733536 17755 net.cpp:141] Setting up inception_4a/3x3_reduce
I0403 14:51:22.733562 17755 net.cpp:148] Top shape: 24 96 14 14 (451584)
I0403 14:51:22.733577 17755 net.cpp:156] Memory required for data: 863429664
I0403 14:51:22.733603 17755 layer_factory.hpp:77] Creating layer inception_4a/relu_3x3_reduce
I0403 14:51:22.733621 17755 net.cpp:91] Creating Layer inception_4a/relu_3x3_reduce
I0403 14:51:22.733638 17755 net.cpp:425] inception_4a/relu_3x3_reduce <- inception_4a/3x3_reduce
I0403 14:51:22.733655 17755 net.cpp:386] inception_4a/relu_3x3_reduce -> inception_4a/3x3_reduce (in-place)
I0403 14:51:22.733826 17755 net.cpp:141] Setting up inception_4a/relu_3x3_reduce
I0403 14:51:22.733850 17755 net.cpp:148] Top shape: 24 96 14 14 (451584)
I0403 14:51:22.733865 17755 net.cpp:156] Memory required for data: 865236000
I0403 14:51:22.733878 17755 layer_factory.hpp:77] Creating layer inception_4a/3x3
I0403 14:51:22.733899 17755 net.cpp:91] Creating Layer inception_4a/3x3
I0403 14:51:22.733918 17755 net.cpp:425] inception_4a/3x3 <- inception_4a/3x3_reduce
I0403 14:51:22.733937 17755 net.cpp:399] inception_4a/3x3 -> inception_4a/3x3
I0403 14:51:22.736608 17755 net.cpp:141] Setting up inception_4a/3x3
I0403 14:51:22.736637 17755 net.cpp:148] Top shape: 24 208 14 14 (978432)
I0403 14:51:22.736652 17755 net.cpp:156] Memory required for data: 869149728
I0403 14:51:22.736670 17755 layer_factory.hpp:77] Creating layer inception_4a/relu_3x3
I0403 14:51:22.736688 17755 net.cpp:91] Creating Layer inception_4a/relu_3x3
I0403 14:51:22.736703 17755 net.cpp:425] inception_4a/relu_3x3 <- inception_4a/3x3
I0403 14:51:22.736719 17755 net.cpp:386] inception_4a/relu_3x3 -> inception_4a/3x3 (in-place)
I0403 14:51:22.736997 17755 net.cpp:141] Setting up inception_4a/relu_3x3
I0403 14:51:22.737025 17755 net.cpp:148] Top shape: 24 208 14 14 (978432)
I0403 14:51:22.737040 17755 net.cpp:156] Memory required for data: 873063456
I0403 14:51:22.737056 17755 layer_factory.hpp:77] Creating layer inception_4a/5x5_reduce
I0403 14:51:22.737074 17755 net.cpp:91] Creating Layer inception_4a/5x5_reduce
I0403 14:51:22.737092 17755 net.cpp:425] inception_4a/5x5_reduce <- pool3/3x3_s2_pool3/3x3_s2_0_split_2
I0403 14:51:22.737112 17755 net.cpp:399] inception_4a/5x5_reduce -> inception_4a/5x5_reduce
I0403 14:51:22.738119 17755 net.cpp:141] Setting up inception_4a/5x5_reduce
I0403 14:51:22.738149 17755 net.cpp:148] Top shape: 24 16 14 14 (75264)
I0403 14:51:22.738165 17755 net.cpp:156] Memory required for data: 873364512
I0403 14:51:22.738183 17755 layer_factory.hpp:77] Creating layer inception_4a/relu_5x5_reduce
I0403 14:51:22.738201 17755 net.cpp:91] Creating Layer inception_4a/relu_5x5_reduce
I0403 14:51:22.738217 17755 net.cpp:425] inception_4a/relu_5x5_reduce <- inception_4a/5x5_reduce
I0403 14:51:22.738234 17755 net.cpp:386] inception_4a/relu_5x5_reduce -> inception_4a/5x5_reduce (in-place)
I0403 14:51:22.738422 17755 net.cpp:141] Setting up inception_4a/relu_5x5_reduce
I0403 14:51:22.738446 17755 net.cpp:148] Top shape: 24 16 14 14 (75264)
I0403 14:51:22.738461 17755 net.cpp:156] Memory required for data: 873665568
I0403 14:51:22.738476 17755 layer_factory.hpp:77] Creating layer inception_4a/5x5
I0403 14:51:22.738497 17755 net.cpp:91] Creating Layer inception_4a/5x5
I0403 14:51:22.738513 17755 net.cpp:425] inception_4a/5x5 <- inception_4a/5x5_reduce
I0403 14:51:22.738535 17755 net.cpp:399] inception_4a/5x5 -> inception_4a/5x5
I0403 14:51:22.739596 17755 net.cpp:141] Setting up inception_4a/5x5
I0403 14:51:22.739622 17755 net.cpp:148] Top shape: 24 48 14 14 (225792)
I0403 14:51:22.739639 17755 net.cpp:156] Memory required for data: 874568736
I0403 14:51:22.739656 17755 layer_factory.hpp:77] Creating layer inception_4a/relu_5x5
I0403 14:51:22.739673 17755 net.cpp:91] Creating Layer inception_4a/relu_5x5
I0403 14:51:22.739701 17755 net.cpp:425] inception_4a/relu_5x5 <- inception_4a/5x5
I0403 14:51:22.739722 17755 net.cpp:386] inception_4a/relu_5x5 -> inception_4a/5x5 (in-place)
I0403 14:51:22.739899 17755 net.cpp:141] Setting up inception_4a/relu_5x5
I0403 14:51:22.739924 17755 net.cpp:148] Top shape: 24 48 14 14 (225792)
I0403 14:51:22.739939 17755 net.cpp:156] Memory required for data: 875471904
I0403 14:51:22.739959 17755 layer_factory.hpp:77] Creating layer inception_4a/pool
I0403 14:51:22.739992 17755 net.cpp:91] Creating Layer inception_4a/pool
I0403 14:51:22.740008 17755 net.cpp:425] inception_4a/pool <- pool3/3x3_s2_pool3/3x3_s2_0_split_3
I0403 14:51:22.740026 17755 net.cpp:399] inception_4a/pool -> inception_4a/pool
I0403 14:51:22.740087 17755 net.cpp:141] Setting up inception_4a/pool
I0403 14:51:22.740109 17755 net.cpp:148] Top shape: 24 480 14 14 (2257920)
I0403 14:51:22.740123 17755 net.cpp:156] Memory required for data: 884503584
I0403 14:51:22.740137 17755 layer_factory.hpp:77] Creating layer inception_4a/pool_proj
I0403 14:51:22.740159 17755 net.cpp:91] Creating Layer inception_4a/pool_proj
I0403 14:51:22.740175 17755 net.cpp:425] inception_4a/pool_proj <- inception_4a/pool
I0403 14:51:22.740195 17755 net.cpp:399] inception_4a/pool_proj -> inception_4a/pool_proj
I0403 14:51:22.741333 17755 net.cpp:141] Setting up inception_4a/pool_proj
I0403 14:51:22.741359 17755 net.cpp:148] Top shape: 24 64 14 14 (301056)
I0403 14:51:22.741389 17755 net.cpp:156] Memory required for data: 885707808
I0403 14:51:22.741407 17755 layer_factory.hpp:77] Creating layer inception_4a/relu_pool_proj
I0403 14:51:22.741441 17755 net.cpp:91] Creating Layer inception_4a/relu_pool_proj
I0403 14:51:22.741457 17755 net.cpp:425] inception_4a/relu_pool_proj <- inception_4a/pool_proj
I0403 14:51:22.741475 17755 net.cpp:386] inception_4a/relu_pool_proj -> inception_4a/pool_proj (in-place)
I0403 14:51:22.741770 17755 net.cpp:141] Setting up inception_4a/relu_pool_proj
I0403 14:51:22.741794 17755 net.cpp:148] Top shape: 24 64 14 14 (301056)
I0403 14:51:22.741809 17755 net.cpp:156] Memory required for data: 886912032
I0403 14:51:22.741823 17755 layer_factory.hpp:77] Creating layer inception_4a/output
I0403 14:51:22.741840 17755 net.cpp:91] Creating Layer inception_4a/output
I0403 14:51:22.741855 17755 net.cpp:425] inception_4a/output <- inception_4a/1x1
I0403 14:51:22.741873 17755 net.cpp:425] inception_4a/output <- inception_4a/3x3
I0403 14:51:22.741888 17755 net.cpp:425] inception_4a/output <- inception_4a/5x5
I0403 14:51:22.741904 17755 net.cpp:425] inception_4a/output <- inception_4a/pool_proj
I0403 14:51:22.741921 17755 net.cpp:399] inception_4a/output -> inception_4a/output
I0403 14:51:22.741972 17755 net.cpp:141] Setting up inception_4a/output
I0403 14:51:22.741996 17755 net.cpp:148] Top shape: 24 512 14 14 (2408448)
I0403 14:51:22.742009 17755 net.cpp:156] Memory required for data: 896545824
I0403 14:51:22.742023 17755 layer_factory.hpp:77] Creating layer inception_4a/output_inception_4a/output_0_split
I0403 14:51:22.742040 17755 net.cpp:91] Creating Layer inception_4a/output_inception_4a/output_0_split
I0403 14:51:22.742055 17755 net.cpp:425] inception_4a/output_inception_4a/output_0_split <- inception_4a/output
I0403 14:51:22.742076 17755 net.cpp:399] inception_4a/output_inception_4a/output_0_split -> inception_4a/output_inception_4a/output_0_split_0
I0403 14:51:22.742097 17755 net.cpp:399] inception_4a/output_inception_4a/output_0_split -> inception_4a/output_inception_4a/output_0_split_1
I0403 14:51:22.742117 17755 net.cpp:399] inception_4a/output_inception_4a/output_0_split -> inception_4a/output_inception_4a/output_0_split_2
I0403 14:51:22.742136 17755 net.cpp:399] inception_4a/output_inception_4a/output_0_split -> inception_4a/output_inception_4a/output_0_split_3
I0403 14:51:22.742156 17755 net.cpp:399] inception_4a/output_inception_4a/output_0_split -> inception_4a/output_inception_4a/output_0_split_4
I0403 14:51:22.742244 17755 net.cpp:141] Setting up inception_4a/output_inception_4a/output_0_split
I0403 14:51:22.742269 17755 net.cpp:148] Top shape: 24 512 14 14 (2408448)
I0403 14:51:22.742286 17755 net.cpp:148] Top shape: 24 512 14 14 (2408448)
I0403 14:51:22.742301 17755 net.cpp:148] Top shape: 24 512 14 14 (2408448)
I0403 14:51:22.742317 17755 net.cpp:148] Top shape: 24 512 14 14 (2408448)
I0403 14:51:22.742332 17755 net.cpp:148] Top shape: 24 512 14 14 (2408448)
I0403 14:51:22.742347 17755 net.cpp:156] Memory required for data: 944714784
I0403 14:51:22.742360 17755 layer_factory.hpp:77] Creating layer loss1/ave_pool
I0403 14:51:22.742377 17755 net.cpp:91] Creating Layer loss1/ave_pool
I0403 14:51:22.742393 17755 net.cpp:425] loss1/ave_pool <- inception_4a/output_inception_4a/output_0_split_0
I0403 14:51:22.742413 17755 net.cpp:399] loss1/ave_pool -> loss1/ave_pool
I0403 14:51:22.742616 17755 net.cpp:141] Setting up loss1/ave_pool
I0403 14:51:22.742641 17755 net.cpp:148] Top shape: 24 512 4 4 (196608)
I0403 14:51:22.742656 17755 net.cpp:156] Memory required for data: 945501216
I0403 14:51:22.742671 17755 layer_factory.hpp:77] Creating layer loss1/conv
I0403 14:51:22.742692 17755 net.cpp:91] Creating Layer loss1/conv
I0403 14:51:22.742708 17755 net.cpp:425] loss1/conv <- loss1/ave_pool
I0403 14:51:22.742728 17755 net.cpp:399] loss1/conv -> loss1/conv
I0403 14:51:22.744201 17755 net.cpp:141] Setting up loss1/conv
I0403 14:51:22.744231 17755 net.cpp:148] Top shape: 24 128 4 4 (49152)
I0403 14:51:22.744261 17755 net.cpp:156] Memory required for data: 945697824
I0403 14:51:22.744280 17755 layer_factory.hpp:77] Creating layer loss1/relu_conv
I0403 14:51:22.744298 17755 net.cpp:91] Creating Layer loss1/relu_conv
I0403 14:51:22.744313 17755 net.cpp:425] loss1/relu_conv <- loss1/conv
I0403 14:51:22.744330 17755 net.cpp:386] loss1/relu_conv -> loss1/conv (in-place)
I0403 14:51:22.744616 17755 net.cpp:141] Setting up loss1/relu_conv
I0403 14:51:22.744644 17755 net.cpp:148] Top shape: 24 128 4 4 (49152)
I0403 14:51:22.744660 17755 net.cpp:156] Memory required for data: 945894432
I0403 14:51:22.744675 17755 layer_factory.hpp:77] Creating layer loss1/fc
I0403 14:51:22.744699 17755 net.cpp:91] Creating Layer loss1/fc
I0403 14:51:22.744717 17755 net.cpp:425] loss1/fc <- loss1/conv
I0403 14:51:22.744740 17755 net.cpp:399] loss1/fc -> loss1/fc
I0403 14:51:22.762992 17755 net.cpp:141] Setting up loss1/fc
I0403 14:51:22.763046 17755 net.cpp:148] Top shape: 24 1024 (24576)
I0403 14:51:22.763062 17755 net.cpp:156] Memory required for data: 945992736
I0403 14:51:22.763082 17755 layer_factory.hpp:77] Creating layer loss1/relu_fc
I0403 14:51:22.763103 17755 net.cpp:91] Creating Layer loss1/relu_fc
I0403 14:51:22.763120 17755 net.cpp:425] loss1/relu_fc <- loss1/fc
I0403 14:51:22.763139 17755 net.cpp:386] loss1/relu_fc -> loss1/fc (in-place)
I0403 14:51:22.763345 17755 net.cpp:141] Setting up loss1/relu_fc
I0403 14:51:22.763370 17755 net.cpp:148] Top shape: 24 1024 (24576)
I0403 14:51:22.763386 17755 net.cpp:156] Memory required for data: 946091040
I0403 14:51:22.763401 17755 layer_factory.hpp:77] Creating layer loss1/drop_fc
I0403 14:51:22.763429 17755 net.cpp:91] Creating Layer loss1/drop_fc
I0403 14:51:22.763447 17755 net.cpp:425] loss1/drop_fc <- loss1/fc
I0403 14:51:22.763464 17755 net.cpp:386] loss1/drop_fc -> loss1/fc (in-place)
I0403 14:51:22.763519 17755 net.cpp:141] Setting up loss1/drop_fc
I0403 14:51:22.763541 17755 net.cpp:148] Top shape: 24 1024 (24576)
I0403 14:51:22.763556 17755 net.cpp:156] Memory required for data: 946189344
I0403 14:51:22.763571 17755 layer_factory.hpp:77] Creating layer loss1/classifier_plantvillage
I0403 14:51:22.763589 17755 net.cpp:91] Creating Layer loss1/classifier_plantvillage
I0403 14:51:22.763604 17755 net.cpp:425] loss1/classifier_plantvillage <- loss1/fc
I0403 14:51:22.763627 17755 net.cpp:399] loss1/classifier_plantvillage -> loss1/classifier_plantvillage
I0403 14:51:22.764544 17755 net.cpp:141] Setting up loss1/classifier_plantvillage
I0403 14:51:22.764575 17755 net.cpp:148] Top shape: 24 38 (912)
I0403 14:51:22.764591 17755 net.cpp:156] Memory required for data: 946192992
I0403 14:51:22.764610 17755 layer_factory.hpp:77] Creating layer loss1/classifier_plantvillage_loss1/classifier_plantvillage_0_split
I0403 14:51:22.764628 17755 net.cpp:91] Creating Layer loss1/classifier_plantvillage_loss1/classifier_plantvillage_0_split
I0403 14:51:22.764644 17755 net.cpp:425] loss1/classifier_plantvillage_loss1/classifier_plantvillage_0_split <- loss1/classifier_plantvillage
I0403 14:51:22.764662 17755 net.cpp:399] loss1/classifier_plantvillage_loss1/classifier_plantvillage_0_split -> loss1/classifier_plantvillage_loss1/classifier_plantvillage_0_split_0
I0403 14:51:22.764683 17755 net.cpp:399] loss1/classifier_plantvillage_loss1/classifier_plantvillage_0_split -> loss1/classifier_plantvillage_loss1/classifier_plantvillage_0_split_1
I0403 14:51:22.764703 17755 net.cpp:399] loss1/classifier_plantvillage_loss1/classifier_plantvillage_0_split -> loss1/classifier_plantvillage_loss1/classifier_plantvillage_0_split_2
I0403 14:51:22.764770 17755 net.cpp:141] Setting up loss1/classifier_plantvillage_loss1/classifier_plantvillage_0_split
I0403 14:51:22.764793 17755 net.cpp:148] Top shape: 24 38 (912)
I0403 14:51:22.764811 17755 net.cpp:148] Top shape: 24 38 (912)
I0403 14:51:22.764825 17755 net.cpp:148] Top shape: 24 38 (912)
I0403 14:51:22.764839 17755 net.cpp:156] Memory required for data: 946203936
I0403 14:51:22.764853 17755 layer_factory.hpp:77] Creating layer inception_4b/1x1
I0403 14:51:22.764874 17755 net.cpp:91] Creating Layer inception_4b/1x1
I0403 14:51:22.764915 17755 net.cpp:425] inception_4b/1x1 <- inception_4a/output_inception_4a/output_0_split_1
I0403 14:51:22.764938 17755 net.cpp:399] inception_4b/1x1 -> inception_4b/1x1
I0403 14:51:22.766624 17755 net.cpp:141] Setting up inception_4b/1x1
I0403 14:51:22.766657 17755 net.cpp:148] Top shape: 24 160 14 14 (752640)
I0403 14:51:22.766674 17755 net.cpp:156] Memory required for data: 949214496
I0403 14:51:22.766692 17755 layer_factory.hpp:77] Creating layer inception_4b/relu_1x1
I0403 14:51:22.766710 17755 net.cpp:91] Creating Layer inception_4b/relu_1x1
I0403 14:51:22.766726 17755 net.cpp:425] inception_4b/relu_1x1 <- inception_4b/1x1
I0403 14:51:22.766744 17755 net.cpp:386] inception_4b/relu_1x1 -> inception_4b/1x1 (in-place)
I0403 14:51:22.766928 17755 net.cpp:141] Setting up inception_4b/relu_1x1
I0403 14:51:22.766953 17755 net.cpp:148] Top shape: 24 160 14 14 (752640)
I0403 14:51:22.766975 17755 net.cpp:156] Memory required for data: 952225056
I0403 14:51:22.766991 17755 layer_factory.hpp:77] Creating layer inception_4b/3x3_reduce
I0403 14:51:22.767014 17755 net.cpp:91] Creating Layer inception_4b/3x3_reduce
I0403 14:51:22.767031 17755 net.cpp:425] inception_4b/3x3_reduce <- inception_4a/output_inception_4a/output_0_split_2
I0403 14:51:22.767052 17755 net.cpp:399] inception_4b/3x3_reduce -> inception_4b/3x3_reduce
I0403 14:51:22.768421 17755 net.cpp:141] Setting up inception_4b/3x3_reduce
I0403 14:51:22.768451 17755 net.cpp:148] Top shape: 24 112 14 14 (526848)
I0403 14:51:22.768467 17755 net.cpp:156] Memory required for data: 954332448
I0403 14:51:22.768486 17755 layer_factory.hpp:77] Creating layer inception_4b/relu_3x3_reduce
I0403 14:51:22.768504 17755 net.cpp:91] Creating Layer inception_4b/relu_3x3_reduce
I0403 14:51:22.768520 17755 net.cpp:425] inception_4b/relu_3x3_reduce <- inception_4b/3x3_reduce
I0403 14:51:22.768540 17755 net.cpp:386] inception_4b/relu_3x3_reduce -> inception_4b/3x3_reduce (in-place)
I0403 14:51:22.768826 17755 net.cpp:141] Setting up inception_4b/relu_3x3_reduce
I0403 14:51:22.768854 17755 net.cpp:148] Top shape: 24 112 14 14 (526848)
I0403 14:51:22.768869 17755 net.cpp:156] Memory required for data: 956439840
I0403 14:51:22.768884 17755 layer_factory.hpp:77] Creating layer inception_4b/3x3
I0403 14:51:22.768906 17755 net.cpp:91] Creating Layer inception_4b/3x3
I0403 14:51:22.768923 17755 net.cpp:425] inception_4b/3x3 <- inception_4b/3x3_reduce
I0403 14:51:22.768946 17755 net.cpp:399] inception_4b/3x3 -> inception_4b/3x3
I0403 14:51:22.771927 17755 net.cpp:141] Setting up inception_4b/3x3
I0403 14:51:22.771961 17755 net.cpp:148] Top shape: 24 224 14 14 (1053696)
I0403 14:51:22.771978 17755 net.cpp:156] Memory required for data: 960654624
I0403 14:51:22.771997 17755 layer_factory.hpp:77] Creating layer inception_4b/relu_3x3
I0403 14:51:22.772018 17755 net.cpp:91] Creating Layer inception_4b/relu_3x3
I0403 14:51:22.772035 17755 net.cpp:425] inception_4b/relu_3x3 <- inception_4b/3x3
I0403 14:51:22.772053 17755 net.cpp:386] inception_4b/relu_3x3 -> inception_4b/3x3 (in-place)
I0403 14:51:22.772236 17755 net.cpp:141] Setting up inception_4b/relu_3x3
I0403 14:51:22.772264 17755 net.cpp:148] Top shape: 24 224 14 14 (1053696)
I0403 14:51:22.772279 17755 net.cpp:156] Memory required for data: 964869408
I0403 14:51:22.772294 17755 layer_factory.hpp:77] Creating layer inception_4b/5x5_reduce
I0403 14:51:22.772315 17755 net.cpp:91] Creating Layer inception_4b/5x5_reduce
I0403 14:51:22.772333 17755 net.cpp:425] inception_4b/5x5_reduce <- inception_4a/output_inception_4a/output_0_split_3
I0403 14:51:22.772352 17755 net.cpp:399] inception_4b/5x5_reduce -> inception_4b/5x5_reduce
I0403 14:51:22.773455 17755 net.cpp:141] Setting up inception_4b/5x5_reduce
I0403 14:51:22.773485 17755 net.cpp:148] Top shape: 24 24 14 14 (112896)
I0403 14:51:22.773501 17755 net.cpp:156] Memory required for data: 965320992
I0403 14:51:22.773519 17755 layer_factory.hpp:77] Creating layer inception_4b/relu_5x5_reduce
I0403 14:51:22.773538 17755 net.cpp:91] Creating Layer inception_4b/relu_5x5_reduce
I0403 14:51:22.773569 17755 net.cpp:425] inception_4b/relu_5x5_reduce <- inception_4b/5x5_reduce
I0403 14:51:22.773591 17755 net.cpp:386] inception_4b/relu_5x5_reduce -> inception_4b/5x5_reduce (in-place)
I0403 14:51:22.773774 17755 net.cpp:141] Setting up inception_4b/relu_5x5_reduce
I0403 14:51:22.773800 17755 net.cpp:148] Top shape: 24 24 14 14 (112896)
I0403 14:51:22.773815 17755 net.cpp:156] Memory required for data: 965772576
I0403 14:51:22.773829 17755 layer_factory.hpp:77] Creating layer inception_4b/5x5
I0403 14:51:22.773852 17755 net.cpp:91] Creating Layer inception_4b/5x5
I0403 14:51:22.773869 17755 net.cpp:425] inception_4b/5x5 <- inception_4b/5x5_reduce
I0403 14:51:22.773893 17755 net.cpp:399] inception_4b/5x5 -> inception_4b/5x5
I0403 14:51:22.775141 17755 net.cpp:141] Setting up inception_4b/5x5
I0403 14:51:22.775171 17755 net.cpp:148] Top shape: 24 64 14 14 (301056)
I0403 14:51:22.775187 17755 net.cpp:156] Memory required for data: 966976800
I0403 14:51:22.775205 17755 layer_factory.hpp:77] Creating layer inception_4b/relu_5x5
I0403 14:51:22.775223 17755 net.cpp:91] Creating Layer inception_4b/relu_5x5
I0403 14:51:22.775238 17755 net.cpp:425] inception_4b/relu_5x5 <- inception_4b/5x5
I0403 14:51:22.775255 17755 net.cpp:386] inception_4b/relu_5x5 -> inception_4b/5x5 (in-place)
I0403 14:51:22.775542 17755 net.cpp:141] Setting up inception_4b/relu_5x5
I0403 14:51:22.775570 17755 net.cpp:148] Top shape: 24 64 14 14 (301056)
I0403 14:51:22.775586 17755 net.cpp:156] Memory required for data: 968181024
I0403 14:51:22.775601 17755 layer_factory.hpp:77] Creating layer inception_4b/pool
I0403 14:51:22.775620 17755 net.cpp:91] Creating Layer inception_4b/pool
I0403 14:51:22.775636 17755 net.cpp:425] inception_4b/pool <- inception_4a/output_inception_4a/output_0_split_4
I0403 14:51:22.775655 17755 net.cpp:399] inception_4b/pool -> inception_4b/pool
I0403 14:51:22.775722 17755 net.cpp:141] Setting up inception_4b/pool
I0403 14:51:22.775745 17755 net.cpp:148] Top shape: 24 512 14 14 (2408448)
I0403 14:51:22.775760 17755 net.cpp:156] Memory required for data: 977814816
I0403 14:51:22.775775 17755 layer_factory.hpp:77] Creating layer inception_4b/pool_proj
I0403 14:51:22.775797 17755 net.cpp:91] Creating Layer inception_4b/pool_proj
I0403 14:51:22.775815 17755 net.cpp:425] inception_4b/pool_proj <- inception_4b/pool
I0403 14:51:22.775835 17755 net.cpp:399] inception_4b/pool_proj -> inception_4b/pool_proj
I0403 14:51:22.777056 17755 net.cpp:141] Setting up inception_4b/pool_proj
I0403 14:51:22.777086 17755 net.cpp:148] Top shape: 24 64 14 14 (301056)
I0403 14:51:22.777101 17755 net.cpp:156] Memory required for data: 979019040
I0403 14:51:22.777119 17755 layer_factory.hpp:77] Creating layer inception_4b/relu_pool_proj
I0403 14:51:22.777137 17755 net.cpp:91] Creating Layer inception_4b/relu_pool_proj
I0403 14:51:22.777153 17755 net.cpp:425] inception_4b/relu_pool_proj <- inception_4b/pool_proj
I0403 14:51:22.777173 17755 net.cpp:386] inception_4b/relu_pool_proj -> inception_4b/pool_proj (in-place)
I0403 14:51:22.777359 17755 net.cpp:141] Setting up inception_4b/relu_pool_proj
I0403 14:51:22.777384 17755 net.cpp:148] Top shape: 24 64 14 14 (301056)
I0403 14:51:22.777398 17755 net.cpp:156] Memory required for data: 980223264
I0403 14:51:22.777413 17755 layer_factory.hpp:77] Creating layer inception_4b/output
I0403 14:51:22.777431 17755 net.cpp:91] Creating Layer inception_4b/output
I0403 14:51:22.777446 17755 net.cpp:425] inception_4b/output <- inception_4b/1x1
I0403 14:51:22.777462 17755 net.cpp:425] inception_4b/output <- inception_4b/3x3
I0403 14:51:22.777478 17755 net.cpp:425] inception_4b/output <- inception_4b/5x5
I0403 14:51:22.777494 17755 net.cpp:425] inception_4b/output <- inception_4b/pool_proj
I0403 14:51:22.777513 17755 net.cpp:399] inception_4b/output -> inception_4b/output
I0403 14:51:22.777559 17755 net.cpp:141] Setting up inception_4b/output
I0403 14:51:22.777585 17755 net.cpp:148] Top shape: 24 512 14 14 (2408448)
I0403 14:51:22.777601 17755 net.cpp:156] Memory required for data: 989857056
I0403 14:51:22.777631 17755 layer_factory.hpp:77] Creating layer inception_4b/output_inception_4b/output_0_split
I0403 14:51:22.777649 17755 net.cpp:91] Creating Layer inception_4b/output_inception_4b/output_0_split
I0403 14:51:22.777665 17755 net.cpp:425] inception_4b/output_inception_4b/output_0_split <- inception_4b/output
I0403 14:51:22.777685 17755 net.cpp:399] inception_4b/output_inception_4b/output_0_split -> inception_4b/output_inception_4b/output_0_split_0
I0403 14:51:22.777706 17755 net.cpp:399] inception_4b/output_inception_4b/output_0_split -> inception_4b/output_inception_4b/output_0_split_1
I0403 14:51:22.777726 17755 net.cpp:399] inception_4b/output_inception_4b/output_0_split -> inception_4b/output_inception_4b/output_0_split_2
I0403 14:51:22.777745 17755 net.cpp:399] inception_4b/output_inception_4b/output_0_split -> inception_4b/output_inception_4b/output_0_split_3
I0403 14:51:22.777828 17755 net.cpp:141] Setting up inception_4b/output_inception_4b/output_0_split
I0403 14:51:22.777851 17755 net.cpp:148] Top shape: 24 512 14 14 (2408448)
I0403 14:51:22.777873 17755 net.cpp:148] Top shape: 24 512 14 14 (2408448)
I0403 14:51:22.777889 17755 net.cpp:148] Top shape: 24 512 14 14 (2408448)
I0403 14:51:22.777904 17755 net.cpp:148] Top shape: 24 512 14 14 (2408448)
I0403 14:51:22.777917 17755 net.cpp:156] Memory required for data: 1028392224
I0403 14:51:22.777931 17755 layer_factory.hpp:77] Creating layer inception_4c/1x1
I0403 14:51:22.777951 17755 net.cpp:91] Creating Layer inception_4c/1x1
I0403 14:51:22.777981 17755 net.cpp:425] inception_4c/1x1 <- inception_4b/output_inception_4b/output_0_split_0
I0403 14:51:22.778003 17755 net.cpp:399] inception_4c/1x1 -> inception_4c/1x1
I0403 14:51:22.779440 17755 net.cpp:141] Setting up inception_4c/1x1
I0403 14:51:22.779469 17755 net.cpp:148] Top shape: 24 128 14 14 (602112)
I0403 14:51:22.779484 17755 net.cpp:156] Memory required for data: 1030800672
I0403 14:51:22.779501 17755 layer_factory.hpp:77] Creating layer inception_4c/relu_1x1
I0403 14:51:22.779523 17755 net.cpp:91] Creating Layer inception_4c/relu_1x1
I0403 14:51:22.779541 17755 net.cpp:425] inception_4c/relu_1x1 <- inception_4c/1x1
I0403 14:51:22.779558 17755 net.cpp:386] inception_4c/relu_1x1 -> inception_4c/1x1 (in-place)
I0403 14:51:22.779739 17755 net.cpp:141] Setting up inception_4c/relu_1x1
I0403 14:51:22.779764 17755 net.cpp:148] Top shape: 24 128 14 14 (602112)
I0403 14:51:22.779778 17755 net.cpp:156] Memory required for data: 1033209120
I0403 14:51:22.779793 17755 layer_factory.hpp:77] Creating layer inception_4c/3x3_reduce
I0403 14:51:22.779816 17755 net.cpp:91] Creating Layer inception_4c/3x3_reduce
I0403 14:51:22.779834 17755 net.cpp:425] inception_4c/3x3_reduce <- inception_4b/output_inception_4b/output_0_split_1
I0403 14:51:22.779852 17755 net.cpp:399] inception_4c/3x3_reduce -> inception_4c/3x3_reduce
I0403 14:51:22.781806 17755 net.cpp:141] Setting up inception_4c/3x3_reduce
I0403 14:51:22.781836 17755 net.cpp:148] Top shape: 24 128 14 14 (602112)
I0403 14:51:22.781852 17755 net.cpp:156] Memory required for data: 1035617568
I0403 14:51:22.781869 17755 layer_factory.hpp:77] Creating layer inception_4c/relu_3x3_reduce
I0403 14:51:22.781890 17755 net.cpp:91] Creating Layer inception_4c/relu_3x3_reduce
I0403 14:51:22.781908 17755 net.cpp:425] inception_4c/relu_3x3_reduce <- inception_4c/3x3_reduce
I0403 14:51:22.781924 17755 net.cpp:386] inception_4c/relu_3x3_reduce -> inception_4c/3x3_reduce (in-place)
I0403 14:51:22.782219 17755 net.cpp:141] Setting up inception_4c/relu_3x3_reduce
I0403 14:51:22.782246 17755 net.cpp:148] Top shape: 24 128 14 14 (602112)
I0403 14:51:22.782260 17755 net.cpp:156] Memory required for data: 1038026016
I0403 14:51:22.782275 17755 layer_factory.hpp:77] Creating layer inception_4c/3x3
I0403 14:51:22.782300 17755 net.cpp:91] Creating Layer inception_4c/3x3
I0403 14:51:22.782318 17755 net.cpp:425] inception_4c/3x3 <- inception_4c/3x3_reduce
I0403 14:51:22.782337 17755 net.cpp:399] inception_4c/3x3 -> inception_4c/3x3
I0403 14:51:22.785948 17755 net.cpp:141] Setting up inception_4c/3x3
I0403 14:51:22.785997 17755 net.cpp:148] Top shape: 24 256 14 14 (1204224)
I0403 14:51:22.786015 17755 net.cpp:156] Memory required for data: 1042842912
I0403 14:51:22.786049 17755 layer_factory.hpp:77] Creating layer inception_4c/relu_3x3
I0403 14:51:22.786069 17755 net.cpp:91] Creating Layer inception_4c/relu_3x3
I0403 14:51:22.786087 17755 net.cpp:425] inception_4c/relu_3x3 <- inception_4c/3x3
I0403 14:51:22.786103 17755 net.cpp:386] inception_4c/relu_3x3 -> inception_4c/3x3 (in-place)
I0403 14:51:22.786288 17755 net.cpp:141] Setting up inception_4c/relu_3x3
I0403 14:51:22.786314 17755 net.cpp:148] Top shape: 24 256 14 14 (1204224)
I0403 14:51:22.786330 17755 net.cpp:156] Memory required for data: 1047659808
I0403 14:51:22.786345 17755 layer_factory.hpp:77] Creating layer inception_4c/5x5_reduce
I0403 14:51:22.786367 17755 net.cpp:91] Creating Layer inception_4c/5x5_reduce
I0403 14:51:22.786387 17755 net.cpp:425] inception_4c/5x5_reduce <- inception_4b/output_inception_4b/output_0_split_2
I0403 14:51:22.786407 17755 net.cpp:399] inception_4c/5x5_reduce -> inception_4c/5x5_reduce
I0403 14:51:22.787505 17755 net.cpp:141] Setting up inception_4c/5x5_reduce
I0403 14:51:22.787535 17755 net.cpp:148] Top shape: 24 24 14 14 (112896)
I0403 14:51:22.787551 17755 net.cpp:156] Memory required for data: 1048111392
I0403 14:51:22.787570 17755 layer_factory.hpp:77] Creating layer inception_4c/relu_5x5_reduce
I0403 14:51:22.787588 17755 net.cpp:91] Creating Layer inception_4c/relu_5x5_reduce
I0403 14:51:22.787605 17755 net.cpp:425] inception_4c/relu_5x5_reduce <- inception_4c/5x5_reduce
I0403 14:51:22.787623 17755 net.cpp:386] inception_4c/relu_5x5_reduce -> inception_4c/5x5_reduce (in-place)
I0403 14:51:22.787808 17755 net.cpp:141] Setting up inception_4c/relu_5x5_reduce
I0403 14:51:22.787834 17755 net.cpp:148] Top shape: 24 24 14 14 (112896)
I0403 14:51:22.787849 17755 net.cpp:156] Memory required for data: 1048562976
I0403 14:51:22.787864 17755 layer_factory.hpp:77] Creating layer inception_4c/5x5
I0403 14:51:22.787886 17755 net.cpp:91] Creating Layer inception_4c/5x5
I0403 14:51:22.787905 17755 net.cpp:425] inception_4c/5x5 <- inception_4c/5x5_reduce
I0403 14:51:22.787926 17755 net.cpp:399] inception_4c/5x5 -> inception_4c/5x5
I0403 14:51:22.789188 17755 net.cpp:141] Setting up inception_4c/5x5
I0403 14:51:22.789216 17755 net.cpp:148] Top shape: 24 64 14 14 (301056)
I0403 14:51:22.789232 17755 net.cpp:156] Memory required for data: 1049767200
I0403 14:51:22.789249 17755 layer_factory.hpp:77] Creating layer inception_4c/relu_5x5
I0403 14:51:22.789270 17755 net.cpp:91] Creating Layer inception_4c/relu_5x5
I0403 14:51:22.789288 17755 net.cpp:425] inception_4c/relu_5x5 <- inception_4c/5x5
I0403 14:51:22.789304 17755 net.cpp:386] inception_4c/relu_5x5 -> inception_4c/5x5 (in-place)
I0403 14:51:22.789598 17755 net.cpp:141] Setting up inception_4c/relu_5x5
I0403 14:51:22.789625 17755 net.cpp:148] Top shape: 24 64 14 14 (301056)
I0403 14:51:22.789640 17755 net.cpp:156] Memory required for data: 1050971424
I0403 14:51:22.789656 17755 layer_factory.hpp:77] Creating layer inception_4c/pool
I0403 14:51:22.789674 17755 net.cpp:91] Creating Layer inception_4c/pool
I0403 14:51:22.789690 17755 net.cpp:425] inception_4c/pool <- inception_4b/output_inception_4b/output_0_split_3
I0403 14:51:22.789710 17755 net.cpp:399] inception_4c/pool -> inception_4c/pool
I0403 14:51:22.789777 17755 net.cpp:141] Setting up inception_4c/pool
I0403 14:51:22.789800 17755 net.cpp:148] Top shape: 24 512 14 14 (2408448)
I0403 14:51:22.789815 17755 net.cpp:156] Memory required for data: 1060605216
I0403 14:51:22.789829 17755 layer_factory.hpp:77] Creating layer inception_4c/pool_proj
I0403 14:51:22.789851 17755 net.cpp:91] Creating Layer inception_4c/pool_proj
I0403 14:51:22.789870 17755 net.cpp:425] inception_4c/pool_proj <- inception_4c/pool
I0403 14:51:22.789891 17755 net.cpp:399] inception_4c/pool_proj -> inception_4c/pool_proj
I0403 14:51:22.791122 17755 net.cpp:141] Setting up inception_4c/pool_proj
I0403 14:51:22.791153 17755 net.cpp:148] Top shape: 24 64 14 14 (301056)
I0403 14:51:22.791183 17755 net.cpp:156] Memory required for data: 1061809440
I0403 14:51:22.791203 17755 layer_factory.hpp:77] Creating layer inception_4c/relu_pool_proj
I0403 14:51:22.791220 17755 net.cpp:91] Creating Layer inception_4c/relu_pool_proj
I0403 14:51:22.791236 17755 net.cpp:425] inception_4c/relu_pool_proj <- inception_4c/pool_proj
I0403 14:51:22.791254 17755 net.cpp:386] inception_4c/relu_pool_proj -> inception_4c/pool_proj (in-place)
I0403 14:51:22.791440 17755 net.cpp:141] Setting up inception_4c/relu_pool_proj
I0403 14:51:22.791465 17755 net.cpp:148] Top shape: 24 64 14 14 (301056)
I0403 14:51:22.791481 17755 net.cpp:156] Memory required for data: 1063013664
I0403 14:51:22.791496 17755 layer_factory.hpp:77] Creating layer inception_4c/output
I0403 14:51:22.791512 17755 net.cpp:91] Creating Layer inception_4c/output
I0403 14:51:22.791527 17755 net.cpp:425] inception_4c/output <- inception_4c/1x1
I0403 14:51:22.791544 17755 net.cpp:425] inception_4c/output <- inception_4c/3x3
I0403 14:51:22.791560 17755 net.cpp:425] inception_4c/output <- inception_4c/5x5
I0403 14:51:22.791576 17755 net.cpp:425] inception_4c/output <- inception_4c/pool_proj
I0403 14:51:22.791595 17755 net.cpp:399] inception_4c/output -> inception_4c/output
I0403 14:51:22.791642 17755 net.cpp:141] Setting up inception_4c/output
I0403 14:51:22.791667 17755 net.cpp:148] Top shape: 24 512 14 14 (2408448)
I0403 14:51:22.791682 17755 net.cpp:156] Memory required for data: 1072647456
I0403 14:51:22.791697 17755 layer_factory.hpp:77] Creating layer inception_4c/output_inception_4c/output_0_split
I0403 14:51:22.791713 17755 net.cpp:91] Creating Layer inception_4c/output_inception_4c/output_0_split
I0403 14:51:22.791729 17755 net.cpp:425] inception_4c/output_inception_4c/output_0_split <- inception_4c/output
I0403 14:51:22.791749 17755 net.cpp:399] inception_4c/output_inception_4c/output_0_split -> inception_4c/output_inception_4c/output_0_split_0
I0403 14:51:22.791769 17755 net.cpp:399] inception_4c/output_inception_4c/output_0_split -> inception_4c/output_inception_4c/output_0_split_1
I0403 14:51:22.791790 17755 net.cpp:399] inception_4c/output_inception_4c/output_0_split -> inception_4c/output_inception_4c/output_0_split_2
I0403 14:51:22.791810 17755 net.cpp:399] inception_4c/output_inception_4c/output_0_split -> inception_4c/output_inception_4c/output_0_split_3
I0403 14:51:22.791893 17755 net.cpp:141] Setting up inception_4c/output_inception_4c/output_0_split
I0403 14:51:22.791918 17755 net.cpp:148] Top shape: 24 512 14 14 (2408448)
I0403 14:51:22.791934 17755 net.cpp:148] Top shape: 24 512 14 14 (2408448)
I0403 14:51:22.791949 17755 net.cpp:148] Top shape: 24 512 14 14 (2408448)
I0403 14:51:22.791970 17755 net.cpp:148] Top shape: 24 512 14 14 (2408448)
I0403 14:51:22.791987 17755 net.cpp:156] Memory required for data: 1111182624
I0403 14:51:22.792001 17755 layer_factory.hpp:77] Creating layer inception_4d/1x1
I0403 14:51:22.792023 17755 net.cpp:91] Creating Layer inception_4d/1x1
I0403 14:51:22.792042 17755 net.cpp:425] inception_4d/1x1 <- inception_4c/output_inception_4c/output_0_split_0
I0403 14:51:22.792062 17755 net.cpp:399] inception_4d/1x1 -> inception_4d/1x1
I0403 14:51:22.793488 17755 net.cpp:141] Setting up inception_4d/1x1
I0403 14:51:22.793516 17755 net.cpp:148] Top shape: 24 112 14 14 (526848)
I0403 14:51:22.793531 17755 net.cpp:156] Memory required for data: 1113290016
I0403 14:51:22.793550 17755 layer_factory.hpp:77] Creating layer inception_4d/relu_1x1
I0403 14:51:22.793572 17755 net.cpp:91] Creating Layer inception_4d/relu_1x1
I0403 14:51:22.793589 17755 net.cpp:425] inception_4d/relu_1x1 <- inception_4d/1x1
I0403 14:51:22.793607 17755 net.cpp:386] inception_4d/relu_1x1 -> inception_4d/1x1 (in-place)
I0403 14:51:22.793800 17755 net.cpp:141] Setting up inception_4d/relu_1x1
I0403 14:51:22.793828 17755 net.cpp:148] Top shape: 24 112 14 14 (526848)
I0403 14:51:22.793844 17755 net.cpp:156] Memory required for data: 1115397408
I0403 14:51:22.793859 17755 layer_factory.hpp:77] Creating layer inception_4d/3x3_reduce
I0403 14:51:22.793896 17755 net.cpp:91] Creating Layer inception_4d/3x3_reduce
I0403 14:51:22.793916 17755 net.cpp:425] inception_4d/3x3_reduce <- inception_4c/output_inception_4c/output_0_split_1
I0403 14:51:22.793936 17755 net.cpp:399] inception_4d/3x3_reduce -> inception_4d/3x3_reduce
I0403 14:51:22.795495 17755 net.cpp:141] Setting up inception_4d/3x3_reduce
I0403 14:51:22.795522 17755 net.cpp:148] Top shape: 24 144 14 14 (677376)
I0403 14:51:22.795537 17755 net.cpp:156] Memory required for data: 1118106912
I0403 14:51:22.795557 17755 layer_factory.hpp:77] Creating layer inception_4d/relu_3x3_reduce
I0403 14:51:22.795578 17755 net.cpp:91] Creating Layer inception_4d/relu_3x3_reduce
I0403 14:51:22.795595 17755 net.cpp:425] inception_4d/relu_3x3_reduce <- inception_4d/3x3_reduce
I0403 14:51:22.795614 17755 net.cpp:386] inception_4d/relu_3x3_reduce -> inception_4d/3x3_reduce (in-place)
I0403 14:51:22.795912 17755 net.cpp:141] Setting up inception_4d/relu_3x3_reduce
I0403 14:51:22.795938 17755 net.cpp:148] Top shape: 24 144 14 14 (677376)
I0403 14:51:22.795959 17755 net.cpp:156] Memory required for data: 1120816416
I0403 14:51:22.795976 17755 layer_factory.hpp:77] Creating layer inception_4d/3x3
I0403 14:51:22.796000 17755 net.cpp:91] Creating Layer inception_4d/3x3
I0403 14:51:22.796018 17755 net.cpp:425] inception_4d/3x3 <- inception_4d/3x3_reduce
I0403 14:51:22.796039 17755 net.cpp:399] inception_4d/3x3 -> inception_4d/3x3
I0403 14:51:22.800438 17755 net.cpp:141] Setting up inception_4d/3x3
I0403 14:51:22.800469 17755 net.cpp:148] Top shape: 24 288 14 14 (1354752)
I0403 14:51:22.800485 17755 net.cpp:156] Memory required for data: 1126235424
I0403 14:51:22.800504 17755 layer_factory.hpp:77] Creating layer inception_4d/relu_3x3
I0403 14:51:22.800525 17755 net.cpp:91] Creating Layer inception_4d/relu_3x3
I0403 14:51:22.800544 17755 net.cpp:425] inception_4d/relu_3x3 <- inception_4d/3x3
I0403 14:51:22.800560 17755 net.cpp:386] inception_4d/relu_3x3 -> inception_4d/3x3 (in-place)
I0403 14:51:22.800751 17755 net.cpp:141] Setting up inception_4d/relu_3x3
I0403 14:51:22.800777 17755 net.cpp:148] Top shape: 24 288 14 14 (1354752)
I0403 14:51:22.800792 17755 net.cpp:156] Memory required for data: 1131654432
I0403 14:51:22.800808 17755 layer_factory.hpp:77] Creating layer inception_4d/5x5_reduce
I0403 14:51:22.800832 17755 net.cpp:91] Creating Layer inception_4d/5x5_reduce
I0403 14:51:22.800851 17755 net.cpp:425] inception_4d/5x5_reduce <- inception_4c/output_inception_4c/output_0_split_2
I0403 14:51:22.800873 17755 net.cpp:399] inception_4d/5x5_reduce -> inception_4d/5x5_reduce
I0403 14:51:22.802067 17755 net.cpp:141] Setting up inception_4d/5x5_reduce
I0403 14:51:22.802095 17755 net.cpp:148] Top shape: 24 32 14 14 (150528)
I0403 14:51:22.802111 17755 net.cpp:156] Memory required for data: 1132256544
I0403 14:51:22.802130 17755 layer_factory.hpp:77] Creating layer inception_4d/relu_5x5_reduce
I0403 14:51:22.802152 17755 net.cpp:91] Creating Layer inception_4d/relu_5x5_reduce
I0403 14:51:22.802170 17755 net.cpp:425] inception_4d/relu_5x5_reduce <- inception_4d/5x5_reduce
I0403 14:51:22.802187 17755 net.cpp:386] inception_4d/relu_5x5_reduce -> inception_4d/5x5_reduce (in-place)
I0403 14:51:22.802382 17755 net.cpp:141] Setting up inception_4d/relu_5x5_reduce
I0403 14:51:22.802412 17755 net.cpp:148] Top shape: 24 32 14 14 (150528)
I0403 14:51:22.802428 17755 net.cpp:156] Memory required for data: 1132858656
I0403 14:51:22.802443 17755 layer_factory.hpp:77] Creating layer inception_4d/5x5
I0403 14:51:22.802465 17755 net.cpp:91] Creating Layer inception_4d/5x5
I0403 14:51:22.802484 17755 net.cpp:425] inception_4d/5x5 <- inception_4d/5x5_reduce
I0403 14:51:22.802502 17755 net.cpp:399] inception_4d/5x5 -> inception_4d/5x5
I0403 14:51:22.804052 17755 net.cpp:141] Setting up inception_4d/5x5
I0403 14:51:22.804082 17755 net.cpp:148] Top shape: 24 64 14 14 (301056)
I0403 14:51:22.804098 17755 net.cpp:156] Memory required for data: 1134062880
I0403 14:51:22.804119 17755 layer_factory.hpp:77] Creating layer inception_4d/relu_5x5
I0403 14:51:22.804153 17755 net.cpp:91] Creating Layer inception_4d/relu_5x5
I0403 14:51:22.804172 17755 net.cpp:425] inception_4d/relu_5x5 <- inception_4d/5x5
I0403 14:51:22.804193 17755 net.cpp:386] inception_4d/relu_5x5 -> inception_4d/5x5 (in-place)
I0403 14:51:22.804502 17755 net.cpp:141] Setting up inception_4d/relu_5x5
I0403 14:51:22.804533 17755 net.cpp:148] Top shape: 24 64 14 14 (301056)
I0403 14:51:22.804548 17755 net.cpp:156] Memory required for data: 1135267104
I0403 14:51:22.804563 17755 layer_factory.hpp:77] Creating layer inception_4d/pool
I0403 14:51:22.804582 17755 net.cpp:91] Creating Layer inception_4d/pool
I0403 14:51:22.804600 17755 net.cpp:425] inception_4d/pool <- inception_4c/output_inception_4c/output_0_split_3
I0403 14:51:22.804620 17755 net.cpp:399] inception_4d/pool -> inception_4d/pool
I0403 14:51:22.804692 17755 net.cpp:141] Setting up inception_4d/pool
I0403 14:51:22.804719 17755 net.cpp:148] Top shape: 24 512 14 14 (2408448)
I0403 14:51:22.804735 17755 net.cpp:156] Memory required for data: 1144900896
I0403 14:51:22.804750 17755 layer_factory.hpp:77] Creating layer inception_4d/pool_proj
I0403 14:51:22.804772 17755 net.cpp:91] Creating Layer inception_4d/pool_proj
I0403 14:51:22.804790 17755 net.cpp:425] inception_4d/pool_proj <- inception_4d/pool
I0403 14:51:22.804810 17755 net.cpp:399] inception_4d/pool_proj -> inception_4d/pool_proj
I0403 14:51:22.806663 17755 net.cpp:141] Setting up inception_4d/pool_proj
I0403 14:51:22.806694 17755 net.cpp:148] Top shape: 24 64 14 14 (301056)
I0403 14:51:22.806710 17755 net.cpp:156] Memory required for data: 1146105120
I0403 14:51:22.806728 17755 layer_factory.hpp:77] Creating layer inception_4d/relu_pool_proj
I0403 14:51:22.806749 17755 net.cpp:91] Creating Layer inception_4d/relu_pool_proj
I0403 14:51:22.806767 17755 net.cpp:425] inception_4d/relu_pool_proj <- inception_4d/pool_proj
I0403 14:51:22.806787 17755 net.cpp:386] inception_4d/relu_pool_proj -> inception_4d/pool_proj (in-place)
I0403 14:51:22.806988 17755 net.cpp:141] Setting up inception_4d/relu_pool_proj
I0403 14:51:22.807013 17755 net.cpp:148] Top shape: 24 64 14 14 (301056)
I0403 14:51:22.807029 17755 net.cpp:156] Memory required for data: 1147309344
I0403 14:51:22.807044 17755 layer_factory.hpp:77] Creating layer inception_4d/output
I0403 14:51:22.807061 17755 net.cpp:91] Creating Layer inception_4d/output
I0403 14:51:22.807077 17755 net.cpp:425] inception_4d/output <- inception_4d/1x1
I0403 14:51:22.807095 17755 net.cpp:425] inception_4d/output <- inception_4d/3x3
I0403 14:51:22.807111 17755 net.cpp:425] inception_4d/output <- inception_4d/5x5
I0403 14:51:22.807126 17755 net.cpp:425] inception_4d/output <- inception_4d/pool_proj
I0403 14:51:22.807147 17755 net.cpp:399] inception_4d/output -> inception_4d/output
I0403 14:51:22.807195 17755 net.cpp:141] Setting up inception_4d/output
I0403 14:51:22.807219 17755 net.cpp:148] Top shape: 24 528 14 14 (2483712)
I0403 14:51:22.807236 17755 net.cpp:156] Memory required for data: 1157244192
I0403 14:51:22.807251 17755 layer_factory.hpp:77] Creating layer inception_4d/output_inception_4d/output_0_split
I0403 14:51:22.807271 17755 net.cpp:91] Creating Layer inception_4d/output_inception_4d/output_0_split
I0403 14:51:22.807286 17755 net.cpp:425] inception_4d/output_inception_4d/output_0_split <- inception_4d/output
I0403 14:51:22.807304 17755 net.cpp:399] inception_4d/output_inception_4d/output_0_split -> inception_4d/output_inception_4d/output_0_split_0
I0403 14:51:22.807325 17755 net.cpp:399] inception_4d/output_inception_4d/output_0_split -> inception_4d/output_inception_4d/output_0_split_1
I0403 14:51:22.807348 17755 net.cpp:399] inception_4d/output_inception_4d/output_0_split -> inception_4d/output_inception_4d/output_0_split_2
I0403 14:51:22.807370 17755 net.cpp:399] inception_4d/output_inception_4d/output_0_split -> inception_4d/output_inception_4d/output_0_split_3
I0403 14:51:22.807390 17755 net.cpp:399] inception_4d/output_inception_4d/output_0_split -> inception_4d/output_inception_4d/output_0_split_4
I0403 14:51:22.807497 17755 net.cpp:141] Setting up inception_4d/output_inception_4d/output_0_split
I0403 14:51:22.807534 17755 net.cpp:148] Top shape: 24 528 14 14 (2483712)
I0403 14:51:22.807553 17755 net.cpp:148] Top shape: 24 528 14 14 (2483712)
I0403 14:51:22.807569 17755 net.cpp:148] Top shape: 24 528 14 14 (2483712)
I0403 14:51:22.807585 17755 net.cpp:148] Top shape: 24 528 14 14 (2483712)
I0403 14:51:22.807600 17755 net.cpp:148] Top shape: 24 528 14 14 (2483712)
I0403 14:51:22.807615 17755 net.cpp:156] Memory required for data: 1206918432
I0403 14:51:22.807631 17755 layer_factory.hpp:77] Creating layer loss2/ave_pool
I0403 14:51:22.807651 17755 net.cpp:91] Creating Layer loss2/ave_pool
I0403 14:51:22.807667 17755 net.cpp:425] loss2/ave_pool <- inception_4d/output_inception_4d/output_0_split_0
I0403 14:51:22.807687 17755 net.cpp:399] loss2/ave_pool -> loss2/ave_pool
I0403 14:51:22.808034 17755 net.cpp:141] Setting up loss2/ave_pool
I0403 14:51:22.808061 17755 net.cpp:148] Top shape: 24 528 4 4 (202752)
I0403 14:51:22.808078 17755 net.cpp:156] Memory required for data: 1207729440
I0403 14:51:22.808092 17755 layer_factory.hpp:77] Creating layer loss2/conv
I0403 14:51:22.808116 17755 net.cpp:91] Creating Layer loss2/conv
I0403 14:51:22.808135 17755 net.cpp:425] loss2/conv <- loss2/ave_pool
I0403 14:51:22.808154 17755 net.cpp:399] loss2/conv -> loss2/conv
I0403 14:51:22.810111 17755 net.cpp:141] Setting up loss2/conv
I0403 14:51:22.810142 17755 net.cpp:148] Top shape: 24 128 4 4 (49152)
I0403 14:51:22.810158 17755 net.cpp:156] Memory required for data: 1207926048
I0403 14:51:22.810176 17755 layer_factory.hpp:77] Creating layer loss2/relu_conv
I0403 14:51:22.810195 17755 net.cpp:91] Creating Layer loss2/relu_conv
I0403 14:51:22.810211 17755 net.cpp:425] loss2/relu_conv <- loss2/conv
I0403 14:51:22.810231 17755 net.cpp:386] loss2/relu_conv -> loss2/conv (in-place)
I0403 14:51:22.810525 17755 net.cpp:141] Setting up loss2/relu_conv
I0403 14:51:22.810554 17755 net.cpp:148] Top shape: 24 128 4 4 (49152)
I0403 14:51:22.810570 17755 net.cpp:156] Memory required for data: 1208122656
I0403 14:51:22.810585 17755 layer_factory.hpp:77] Creating layer loss2/fc
I0403 14:51:22.810605 17755 net.cpp:91] Creating Layer loss2/fc
I0403 14:51:22.810621 17755 net.cpp:425] loss2/fc <- loss2/conv
I0403 14:51:22.810642 17755 net.cpp:399] loss2/fc -> loss2/fc
I0403 14:51:22.828367 17755 net.cpp:141] Setting up loss2/fc
I0403 14:51:22.828423 17755 net.cpp:148] Top shape: 24 1024 (24576)
I0403 14:51:22.828440 17755 net.cpp:156] Memory required for data: 1208220960
I0403 14:51:22.828459 17755 layer_factory.hpp:77] Creating layer loss2/relu_fc
I0403 14:51:22.828480 17755 net.cpp:91] Creating Layer loss2/relu_fc
I0403 14:51:22.828497 17755 net.cpp:425] loss2/relu_fc <- loss2/fc
I0403 14:51:22.828516 17755 net.cpp:386] loss2/relu_fc -> loss2/fc (in-place)
I0403 14:51:22.828860 17755 net.cpp:141] Setting up loss2/relu_fc
I0403 14:51:22.828888 17755 net.cpp:148] Top shape: 24 1024 (24576)
I0403 14:51:22.828904 17755 net.cpp:156] Memory required for data: 1208319264
I0403 14:51:22.828918 17755 layer_factory.hpp:77] Creating layer loss2/drop_fc
I0403 14:51:22.828938 17755 net.cpp:91] Creating Layer loss2/drop_fc
I0403 14:51:22.828959 17755 net.cpp:425] loss2/drop_fc <- loss2/fc
I0403 14:51:22.828979 17755 net.cpp:386] loss2/drop_fc -> loss2/fc (in-place)
I0403 14:51:22.829032 17755 net.cpp:141] Setting up loss2/drop_fc
I0403 14:51:22.829056 17755 net.cpp:148] Top shape: 24 1024 (24576)
I0403 14:51:22.829069 17755 net.cpp:156] Memory required for data: 1208417568
I0403 14:51:22.829084 17755 layer_factory.hpp:77] Creating layer loss2/classifier_plantvillage
I0403 14:51:22.829107 17755 net.cpp:91] Creating Layer loss2/classifier_plantvillage
I0403 14:51:22.829123 17755 net.cpp:425] loss2/classifier_plantvillage <- loss2/fc
I0403 14:51:22.829141 17755 net.cpp:399] loss2/classifier_plantvillage -> loss2/classifier_plantvillage
I0403 14:51:22.829557 17755 net.cpp:141] Setting up loss2/classifier_plantvillage
I0403 14:51:22.829583 17755 net.cpp:148] Top shape: 24 38 (912)
I0403 14:51:22.829623 17755 net.cpp:156] Memory required for data: 1208421216
I0403 14:51:22.829643 17755 layer_factory.hpp:77] Creating layer loss2/classifier_plantvillage_loss2/classifier_plantvillage_0_split
I0403 14:51:22.829661 17755 net.cpp:91] Creating Layer loss2/classifier_plantvillage_loss2/classifier_plantvillage_0_split
I0403 14:51:22.829679 17755 net.cpp:425] loss2/classifier_plantvillage_loss2/classifier_plantvillage_0_split <- loss2/classifier_plantvillage
I0403 14:51:22.829699 17755 net.cpp:399] loss2/classifier_plantvillage_loss2/classifier_plantvillage_0_split -> loss2/classifier_plantvillage_loss2/classifier_plantvillage_0_split_0
I0403 14:51:22.829718 17755 net.cpp:399] loss2/classifier_plantvillage_loss2/classifier_plantvillage_0_split -> loss2/classifier_plantvillage_loss2/classifier_plantvillage_0_split_1
I0403 14:51:22.829740 17755 net.cpp:399] loss2/classifier_plantvillage_loss2/classifier_plantvillage_0_split -> loss2/classifier_plantvillage_loss2/classifier_plantvillage_0_split_2
I0403 14:51:22.829818 17755 net.cpp:141] Setting up loss2/classifier_plantvillage_loss2/classifier_plantvillage_0_split
I0403 14:51:22.829843 17755 net.cpp:148] Top shape: 24 38 (912)
I0403 14:51:22.829859 17755 net.cpp:148] Top shape: 24 38 (912)
I0403 14:51:22.829874 17755 net.cpp:148] Top shape: 24 38 (912)
I0403 14:51:22.829888 17755 net.cpp:156] Memory required for data: 1208432160
I0403 14:51:22.829902 17755 layer_factory.hpp:77] Creating layer inception_4e/1x1
I0403 14:51:22.829926 17755 net.cpp:91] Creating Layer inception_4e/1x1
I0403 14:51:22.829943 17755 net.cpp:425] inception_4e/1x1 <- inception_4d/output_inception_4d/output_0_split_1
I0403 14:51:22.829969 17755 net.cpp:399] inception_4e/1x1 -> inception_4e/1x1
I0403 14:51:22.831831 17755 net.cpp:141] Setting up inception_4e/1x1
I0403 14:51:22.831858 17755 net.cpp:148] Top shape: 24 256 14 14 (1204224)
I0403 14:51:22.831874 17755 net.cpp:156] Memory required for data: 1213249056
I0403 14:51:22.831892 17755 layer_factory.hpp:77] Creating layer inception_4e/relu_1x1
I0403 14:51:22.831912 17755 net.cpp:91] Creating Layer inception_4e/relu_1x1
I0403 14:51:22.831929 17755 net.cpp:425] inception_4e/relu_1x1 <- inception_4e/1x1
I0403 14:51:22.831946 17755 net.cpp:386] inception_4e/relu_1x1 -> inception_4e/1x1 (in-place)
I0403 14:51:22.832253 17755 net.cpp:141] Setting up inception_4e/relu_1x1
I0403 14:51:22.832279 17755 net.cpp:148] Top shape: 24 256 14 14 (1204224)
I0403 14:51:22.832294 17755 net.cpp:156] Memory required for data: 1218065952
I0403 14:51:22.832309 17755 layer_factory.hpp:77] Creating layer inception_4e/3x3_reduce
I0403 14:51:22.832331 17755 net.cpp:91] Creating Layer inception_4e/3x3_reduce
I0403 14:51:22.832350 17755 net.cpp:425] inception_4e/3x3_reduce <- inception_4d/output_inception_4d/output_0_split_2
I0403 14:51:22.832370 17755 net.cpp:399] inception_4e/3x3_reduce -> inception_4e/3x3_reduce
I0403 14:51:22.834523 17755 net.cpp:141] Setting up inception_4e/3x3_reduce
I0403 14:51:22.834552 17755 net.cpp:148] Top shape: 24 160 14 14 (752640)
I0403 14:51:22.834568 17755 net.cpp:156] Memory required for data: 1221076512
I0403 14:51:22.834585 17755 layer_factory.hpp:77] Creating layer inception_4e/relu_3x3_reduce
I0403 14:51:22.834604 17755 net.cpp:91] Creating Layer inception_4e/relu_3x3_reduce
I0403 14:51:22.834619 17755 net.cpp:425] inception_4e/relu_3x3_reduce <- inception_4e/3x3_reduce
I0403 14:51:22.834640 17755 net.cpp:386] inception_4e/relu_3x3_reduce -> inception_4e/3x3_reduce (in-place)
I0403 14:51:22.834826 17755 net.cpp:141] Setting up inception_4e/relu_3x3_reduce
I0403 14:51:22.834852 17755 net.cpp:148] Top shape: 24 160 14 14 (752640)
I0403 14:51:22.834867 17755 net.cpp:156] Memory required for data: 1224087072
I0403 14:51:22.834882 17755 layer_factory.hpp:77] Creating layer inception_4e/3x3
I0403 14:51:22.834903 17755 net.cpp:91] Creating Layer inception_4e/3x3
I0403 14:51:22.834920 17755 net.cpp:425] inception_4e/3x3 <- inception_4e/3x3_reduce
I0403 14:51:22.834941 17755 net.cpp:399] inception_4e/3x3 -> inception_4e/3x3
I0403 14:51:22.840150 17755 net.cpp:141] Setting up inception_4e/3x3
I0403 14:51:22.840193 17755 net.cpp:148] Top shape: 24 320 14 14 (1505280)
I0403 14:51:22.840209 17755 net.cpp:156] Memory required for data: 1230108192
I0403 14:51:22.840227 17755 layer_factory.hpp:77] Creating layer inception_4e/relu_3x3
I0403 14:51:22.840250 17755 net.cpp:91] Creating Layer inception_4e/relu_3x3
I0403 14:51:22.840266 17755 net.cpp:425] inception_4e/relu_3x3 <- inception_4e/3x3
I0403 14:51:22.840283 17755 net.cpp:386] inception_4e/relu_3x3 -> inception_4e/3x3 (in-place)
I0403 14:51:22.840586 17755 net.cpp:141] Setting up inception_4e/relu_3x3
I0403 14:51:22.840612 17755 net.cpp:148] Top shape: 24 320 14 14 (1505280)
I0403 14:51:22.840627 17755 net.cpp:156] Memory required for data: 1236129312
I0403 14:51:22.840642 17755 layer_factory.hpp:77] Creating layer inception_4e/5x5_reduce
I0403 14:51:22.840665 17755 net.cpp:91] Creating Layer inception_4e/5x5_reduce
I0403 14:51:22.840682 17755 net.cpp:425] inception_4e/5x5_reduce <- inception_4d/output_inception_4d/output_0_split_3
I0403 14:51:22.840705 17755 net.cpp:399] inception_4e/5x5_reduce -> inception_4e/5x5_reduce
I0403 14:51:22.841790 17755 net.cpp:141] Setting up inception_4e/5x5_reduce
I0403 14:51:22.841820 17755 net.cpp:148] Top shape: 24 32 14 14 (150528)
I0403 14:51:22.841836 17755 net.cpp:156] Memory required for data: 1236731424
I0403 14:51:22.841856 17755 layer_factory.hpp:77] Creating layer inception_4e/relu_5x5_reduce
I0403 14:51:22.841873 17755 net.cpp:91] Creating Layer inception_4e/relu_5x5_reduce
I0403 14:51:22.841889 17755 net.cpp:425] inception_4e/relu_5x5_reduce <- inception_4e/5x5_reduce
I0403 14:51:22.841909 17755 net.cpp:386] inception_4e/relu_5x5_reduce -> inception_4e/5x5_reduce (in-place)
I0403 14:51:22.842219 17755 net.cpp:141] Setting up inception_4e/relu_5x5_reduce
I0403 14:51:22.842248 17755 net.cpp:148] Top shape: 24 32 14 14 (150528)
I0403 14:51:22.842263 17755 net.cpp:156] Memory required for data: 1237333536
I0403 14:51:22.842278 17755 layer_factory.hpp:77] Creating layer inception_4e/5x5
I0403 14:51:22.842319 17755 net.cpp:91] Creating Layer inception_4e/5x5
I0403 14:51:22.842337 17755 net.cpp:425] inception_4e/5x5 <- inception_4e/5x5_reduce
I0403 14:51:22.842356 17755 net.cpp:399] inception_4e/5x5 -> inception_4e/5x5
I0403 14:51:22.844209 17755 net.cpp:141] Setting up inception_4e/5x5
I0403 14:51:22.844239 17755 net.cpp:148] Top shape: 24 128 14 14 (602112)
I0403 14:51:22.844256 17755 net.cpp:156] Memory required for data: 1239741984
I0403 14:51:22.844275 17755 layer_factory.hpp:77] Creating layer inception_4e/relu_5x5
I0403 14:51:22.844293 17755 net.cpp:91] Creating Layer inception_4e/relu_5x5
I0403 14:51:22.844310 17755 net.cpp:425] inception_4e/relu_5x5 <- inception_4e/5x5
I0403 14:51:22.844328 17755 net.cpp:386] inception_4e/relu_5x5 -> inception_4e/5x5 (in-place)
I0403 14:51:22.844527 17755 net.cpp:141] Setting up inception_4e/relu_5x5
I0403 14:51:22.844553 17755 net.cpp:148] Top shape: 24 128 14 14 (602112)
I0403 14:51:22.844568 17755 net.cpp:156] Memory required for data: 1242150432
I0403 14:51:22.844583 17755 layer_factory.hpp:77] Creating layer inception_4e/pool
I0403 14:51:22.844601 17755 net.cpp:91] Creating Layer inception_4e/pool
I0403 14:51:22.844617 17755 net.cpp:425] inception_4e/pool <- inception_4d/output_inception_4d/output_0_split_4
I0403 14:51:22.844637 17755 net.cpp:399] inception_4e/pool -> inception_4e/pool
I0403 14:51:22.844708 17755 net.cpp:141] Setting up inception_4e/pool
I0403 14:51:22.844732 17755 net.cpp:148] Top shape: 24 528 14 14 (2483712)
I0403 14:51:22.844748 17755 net.cpp:156] Memory required for data: 1252085280
I0403 14:51:22.844763 17755 layer_factory.hpp:77] Creating layer inception_4e/pool_proj
I0403 14:51:22.844785 17755 net.cpp:91] Creating Layer inception_4e/pool_proj
I0403 14:51:22.844802 17755 net.cpp:425] inception_4e/pool_proj <- inception_4e/pool
I0403 14:51:22.844821 17755 net.cpp:399] inception_4e/pool_proj -> inception_4e/pool_proj
I0403 14:51:22.846339 17755 net.cpp:141] Setting up inception_4e/pool_proj
I0403 14:51:22.846377 17755 net.cpp:148] Top shape: 24 128 14 14 (602112)
I0403 14:51:22.846393 17755 net.cpp:156] Memory required for data: 1254493728
I0403 14:51:22.846412 17755 layer_factory.hpp:77] Creating layer inception_4e/relu_pool_proj
I0403 14:51:22.846432 17755 net.cpp:91] Creating Layer inception_4e/relu_pool_proj
I0403 14:51:22.846449 17755 net.cpp:425] inception_4e/relu_pool_proj <- inception_4e/pool_proj
I0403 14:51:22.846467 17755 net.cpp:386] inception_4e/relu_pool_proj -> inception_4e/pool_proj (in-place)
I0403 14:51:22.846762 17755 net.cpp:141] Setting up inception_4e/relu_pool_proj
I0403 14:51:22.846789 17755 net.cpp:148] Top shape: 24 128 14 14 (602112)
I0403 14:51:22.846803 17755 net.cpp:156] Memory required for data: 1256902176
I0403 14:51:22.846818 17755 layer_factory.hpp:77] Creating layer inception_4e/output
I0403 14:51:22.846838 17755 net.cpp:91] Creating Layer inception_4e/output
I0403 14:51:22.846854 17755 net.cpp:425] inception_4e/output <- inception_4e/1x1
I0403 14:51:22.846873 17755 net.cpp:425] inception_4e/output <- inception_4e/3x3
I0403 14:51:22.846889 17755 net.cpp:425] inception_4e/output <- inception_4e/5x5
I0403 14:51:22.846904 17755 net.cpp:425] inception_4e/output <- inception_4e/pool_proj
I0403 14:51:22.846921 17755 net.cpp:399] inception_4e/output -> inception_4e/output
I0403 14:51:22.846978 17755 net.cpp:141] Setting up inception_4e/output
I0403 14:51:22.847003 17755 net.cpp:148] Top shape: 24 832 14 14 (3913728)
I0403 14:51:22.847018 17755 net.cpp:156] Memory required for data: 1272557088
I0403 14:51:22.847033 17755 layer_factory.hpp:77] Creating layer pool4/3x3_s2
I0403 14:51:22.847050 17755 net.cpp:91] Creating Layer pool4/3x3_s2
I0403 14:51:22.847066 17755 net.cpp:425] pool4/3x3_s2 <- inception_4e/output
I0403 14:51:22.847086 17755 net.cpp:399] pool4/3x3_s2 -> pool4/3x3_s2
I0403 14:51:22.847157 17755 net.cpp:141] Setting up pool4/3x3_s2
I0403 14:51:22.847179 17755 net.cpp:148] Top shape: 24 832 7 7 (978432)
I0403 14:51:22.847194 17755 net.cpp:156] Memory required for data: 1276470816
I0403 14:51:22.847209 17755 layer_factory.hpp:77] Creating layer pool4/3x3_s2_pool4/3x3_s2_0_split
I0403 14:51:22.847229 17755 net.cpp:91] Creating Layer pool4/3x3_s2_pool4/3x3_s2_0_split
I0403 14:51:22.847246 17755 net.cpp:425] pool4/3x3_s2_pool4/3x3_s2_0_split <- pool4/3x3_s2
I0403 14:51:22.847265 17755 net.cpp:399] pool4/3x3_s2_pool4/3x3_s2_0_split -> pool4/3x3_s2_pool4/3x3_s2_0_split_0
I0403 14:51:22.847286 17755 net.cpp:399] pool4/3x3_s2_pool4/3x3_s2_0_split -> pool4/3x3_s2_pool4/3x3_s2_0_split_1
I0403 14:51:22.847307 17755 net.cpp:399] pool4/3x3_s2_pool4/3x3_s2_0_split -> pool4/3x3_s2_pool4/3x3_s2_0_split_2
I0403 14:51:22.847327 17755 net.cpp:399] pool4/3x3_s2_pool4/3x3_s2_0_split -> pool4/3x3_s2_pool4/3x3_s2_0_split_3
I0403 14:51:22.847417 17755 net.cpp:141] Setting up pool4/3x3_s2_pool4/3x3_s2_0_split
I0403 14:51:22.847443 17755 net.cpp:148] Top shape: 24 832 7 7 (978432)
I0403 14:51:22.847460 17755 net.cpp:148] Top shape: 24 832 7 7 (978432)
I0403 14:51:22.847476 17755 net.cpp:148] Top shape: 24 832 7 7 (978432)
I0403 14:51:22.847491 17755 net.cpp:148] Top shape: 24 832 7 7 (978432)
I0403 14:51:22.847506 17755 net.cpp:156] Memory required for data: 1292125728
I0403 14:51:22.847522 17755 layer_factory.hpp:77] Creating layer inception_5a/1x1
I0403 14:51:22.847543 17755 net.cpp:91] Creating Layer inception_5a/1x1
I0403 14:51:22.847561 17755 net.cpp:425] inception_5a/1x1 <- pool4/3x3_s2_pool4/3x3_s2_0_split_0
I0403 14:51:22.847580 17755 net.cpp:399] inception_5a/1x1 -> inception_5a/1x1
I0403 14:51:22.850563 17755 net.cpp:141] Setting up inception_5a/1x1
I0403 14:51:22.850594 17755 net.cpp:148] Top shape: 24 256 7 7 (301056)
I0403 14:51:22.850612 17755 net.cpp:156] Memory required for data: 1293329952
I0403 14:51:22.850631 17755 layer_factory.hpp:77] Creating layer inception_5a/relu_1x1
I0403 14:51:22.850649 17755 net.cpp:91] Creating Layer inception_5a/relu_1x1
I0403 14:51:22.850666 17755 net.cpp:425] inception_5a/relu_1x1 <- inception_5a/1x1
I0403 14:51:22.850687 17755 net.cpp:386] inception_5a/relu_1x1 -> inception_5a/1x1 (in-place)
I0403 14:51:22.851019 17755 net.cpp:141] Setting up inception_5a/relu_1x1
I0403 14:51:22.851049 17755 net.cpp:148] Top shape: 24 256 7 7 (301056)
I0403 14:51:22.851065 17755 net.cpp:156] Memory required for data: 1294534176
I0403 14:51:22.851080 17755 layer_factory.hpp:77] Creating layer inception_5a/3x3_reduce
I0403 14:51:22.851104 17755 net.cpp:91] Creating Layer inception_5a/3x3_reduce
I0403 14:51:22.851121 17755 net.cpp:425] inception_5a/3x3_reduce <- pool4/3x3_s2_pool4/3x3_s2_0_split_1
I0403 14:51:22.851141 17755 net.cpp:399] inception_5a/3x3_reduce -> inception_5a/3x3_reduce
I0403 14:51:22.853691 17755 net.cpp:141] Setting up inception_5a/3x3_reduce
I0403 14:51:22.853721 17755 net.cpp:148] Top shape: 24 160 7 7 (188160)
I0403 14:51:22.853737 17755 net.cpp:156] Memory required for data: 1295286816
I0403 14:51:22.853755 17755 layer_factory.hpp:77] Creating layer inception_5a/relu_3x3_reduce
I0403 14:51:22.853776 17755 net.cpp:91] Creating Layer inception_5a/relu_3x3_reduce
I0403 14:51:22.853795 17755 net.cpp:425] inception_5a/relu_3x3_reduce <- inception_5a/3x3_reduce
I0403 14:51:22.853812 17755 net.cpp:386] inception_5a/relu_3x3_reduce -> inception_5a/3x3_reduce (in-place)
I0403 14:51:22.854015 17755 net.cpp:141] Setting up inception_5a/relu_3x3_reduce
I0403 14:51:22.854043 17755 net.cpp:148] Top shape: 24 160 7 7 (188160)
I0403 14:51:22.854060 17755 net.cpp:156] Memory required for data: 1296039456
I0403 14:51:22.854075 17755 layer_factory.hpp:77] Creating layer inception_5a/3x3
I0403 14:51:22.854099 17755 net.cpp:91] Creating Layer inception_5a/3x3
I0403 14:51:22.854118 17755 net.cpp:425] inception_5a/3x3 <- inception_5a/3x3_reduce
I0403 14:51:22.854137 17755 net.cpp:399] inception_5a/3x3 -> inception_5a/3x3
I0403 14:51:22.859346 17755 net.cpp:141] Setting up inception_5a/3x3
I0403 14:51:22.859380 17755 net.cpp:148] Top shape: 24 320 7 7 (376320)
I0403 14:51:22.859397 17755 net.cpp:156] Memory required for data: 1297544736
I0403 14:51:22.859416 17755 layer_factory.hpp:77] Creating layer inception_5a/relu_3x3
I0403 14:51:22.859436 17755 net.cpp:91] Creating Layer inception_5a/relu_3x3
I0403 14:51:22.859452 17755 net.cpp:425] inception_5a/relu_3x3 <- inception_5a/3x3
I0403 14:51:22.859473 17755 net.cpp:386] inception_5a/relu_3x3 -> inception_5a/3x3 (in-place)
I0403 14:51:22.859777 17755 net.cpp:141] Setting up inception_5a/relu_3x3
I0403 14:51:22.859807 17755 net.cpp:148] Top shape: 24 320 7 7 (376320)
I0403 14:51:22.859822 17755 net.cpp:156] Memory required for data: 1299050016
I0403 14:51:22.859838 17755 layer_factory.hpp:77] Creating layer inception_5a/5x5_reduce
I0403 14:51:22.859863 17755 net.cpp:91] Creating Layer inception_5a/5x5_reduce
I0403 14:51:22.859880 17755 net.cpp:425] inception_5a/5x5_reduce <- pool4/3x3_s2_pool4/3x3_s2_0_split_2
I0403 14:51:22.859901 17755 net.cpp:399] inception_5a/5x5_reduce -> inception_5a/5x5_reduce
I0403 14:51:22.861147 17755 net.cpp:141] Setting up inception_5a/5x5_reduce
I0403 14:51:22.861179 17755 net.cpp:148] Top shape: 24 32 7 7 (37632)
I0403 14:51:22.861196 17755 net.cpp:156] Memory required for data: 1299200544
I0403 14:51:22.861217 17755 layer_factory.hpp:77] Creating layer inception_5a/relu_5x5_reduce
I0403 14:51:22.861234 17755 net.cpp:91] Creating Layer inception_5a/relu_5x5_reduce
I0403 14:51:22.861250 17755 net.cpp:425] inception_5a/relu_5x5_reduce <- inception_5a/5x5_reduce
I0403 14:51:22.861271 17755 net.cpp:386] inception_5a/relu_5x5_reduce -> inception_5a/5x5_reduce (in-place)
I0403 14:51:22.861585 17755 net.cpp:141] Setting up inception_5a/relu_5x5_reduce
I0403 14:51:22.861613 17755 net.cpp:148] Top shape: 24 32 7 7 (37632)
I0403 14:51:22.861627 17755 net.cpp:156] Memory required for data: 1299351072
I0403 14:51:22.861642 17755 layer_factory.hpp:77] Creating layer inception_5a/5x5
I0403 14:51:22.861666 17755 net.cpp:91] Creating Layer inception_5a/5x5
I0403 14:51:22.861685 17755 net.cpp:425] inception_5a/5x5 <- inception_5a/5x5_reduce
I0403 14:51:22.861707 17755 net.cpp:399] inception_5a/5x5 -> inception_5a/5x5
I0403 14:51:22.863500 17755 net.cpp:141] Setting up inception_5a/5x5
I0403 14:51:22.863545 17755 net.cpp:148] Top shape: 24 128 7 7 (150528)
I0403 14:51:22.863564 17755 net.cpp:156] Memory required for data: 1299953184
I0403 14:51:22.863584 17755 layer_factory.hpp:77] Creating layer inception_5a/relu_5x5
I0403 14:51:22.863602 17755 net.cpp:91] Creating Layer inception_5a/relu_5x5
I0403 14:51:22.863620 17755 net.cpp:425] inception_5a/relu_5x5 <- inception_5a/5x5
I0403 14:51:22.863639 17755 net.cpp:386] inception_5a/relu_5x5 -> inception_5a/5x5 (in-place)
I0403 14:51:22.863838 17755 net.cpp:141] Setting up inception_5a/relu_5x5
I0403 14:51:22.863864 17755 net.cpp:148] Top shape: 24 128 7 7 (150528)
I0403 14:51:22.863880 17755 net.cpp:156] Memory required for data: 1300555296
I0403 14:51:22.863894 17755 layer_factory.hpp:77] Creating layer inception_5a/pool
I0403 14:51:22.863914 17755 net.cpp:91] Creating Layer inception_5a/pool
I0403 14:51:22.863929 17755 net.cpp:425] inception_5a/pool <- pool4/3x3_s2_pool4/3x3_s2_0_split_3
I0403 14:51:22.863951 17755 net.cpp:399] inception_5a/pool -> inception_5a/pool
I0403 14:51:22.864032 17755 net.cpp:141] Setting up inception_5a/pool
I0403 14:51:22.864056 17755 net.cpp:148] Top shape: 24 832 7 7 (978432)
I0403 14:51:22.864071 17755 net.cpp:156] Memory required for data: 1304469024
I0403 14:51:22.864086 17755 layer_factory.hpp:77] Creating layer inception_5a/pool_proj
I0403 14:51:22.864110 17755 net.cpp:91] Creating Layer inception_5a/pool_proj
I0403 14:51:22.864130 17755 net.cpp:425] inception_5a/pool_proj <- inception_5a/pool
I0403 14:51:22.864148 17755 net.cpp:399] inception_5a/pool_proj -> inception_5a/pool_proj
I0403 14:51:22.866544 17755 net.cpp:141] Setting up inception_5a/pool_proj
I0403 14:51:22.866576 17755 net.cpp:148] Top shape: 24 128 7 7 (150528)
I0403 14:51:22.866593 17755 net.cpp:156] Memory required for data: 1305071136
I0403 14:51:22.866612 17755 layer_factory.hpp:77] Creating layer inception_5a/relu_pool_proj
I0403 14:51:22.866631 17755 net.cpp:91] Creating Layer inception_5a/relu_pool_proj
I0403 14:51:22.866648 17755 net.cpp:425] inception_5a/relu_pool_proj <- inception_5a/pool_proj
I0403 14:51:22.866677 17755 net.cpp:386] inception_5a/relu_pool_proj -> inception_5a/pool_proj (in-place)
I0403 14:51:22.866986 17755 net.cpp:141] Setting up inception_5a/relu_pool_proj
I0403 14:51:22.867014 17755 net.cpp:148] Top shape: 24 128 7 7 (150528)
I0403 14:51:22.867029 17755 net.cpp:156] Memory required for data: 1305673248
I0403 14:51:22.867044 17755 layer_factory.hpp:77] Creating layer inception_5a/output
I0403 14:51:22.867063 17755 net.cpp:91] Creating Layer inception_5a/output
I0403 14:51:22.867079 17755 net.cpp:425] inception_5a/output <- inception_5a/1x1
I0403 14:51:22.867095 17755 net.cpp:425] inception_5a/output <- inception_5a/3x3
I0403 14:51:22.867112 17755 net.cpp:425] inception_5a/output <- inception_5a/5x5
I0403 14:51:22.867128 17755 net.cpp:425] inception_5a/output <- inception_5a/pool_proj
I0403 14:51:22.867146 17755 net.cpp:399] inception_5a/output -> inception_5a/output
I0403 14:51:22.867197 17755 net.cpp:141] Setting up inception_5a/output
I0403 14:51:22.867223 17755 net.cpp:148] Top shape: 24 832 7 7 (978432)
I0403 14:51:22.867236 17755 net.cpp:156] Memory required for data: 1309586976
I0403 14:51:22.867251 17755 layer_factory.hpp:77] Creating layer inception_5a/output_inception_5a/output_0_split
I0403 14:51:22.867269 17755 net.cpp:91] Creating Layer inception_5a/output_inception_5a/output_0_split
I0403 14:51:22.867285 17755 net.cpp:425] inception_5a/output_inception_5a/output_0_split <- inception_5a/output
I0403 14:51:22.867305 17755 net.cpp:399] inception_5a/output_inception_5a/output_0_split -> inception_5a/output_inception_5a/output_0_split_0
I0403 14:51:22.867326 17755 net.cpp:399] inception_5a/output_inception_5a/output_0_split -> inception_5a/output_inception_5a/output_0_split_1
I0403 14:51:22.867347 17755 net.cpp:399] inception_5a/output_inception_5a/output_0_split -> inception_5a/output_inception_5a/output_0_split_2
I0403 14:51:22.867367 17755 net.cpp:399] inception_5a/output_inception_5a/output_0_split -> inception_5a/output_inception_5a/output_0_split_3
I0403 14:51:22.867480 17755 net.cpp:141] Setting up inception_5a/output_inception_5a/output_0_split
I0403 14:51:22.867504 17755 net.cpp:148] Top shape: 24 832 7 7 (978432)
I0403 14:51:22.867521 17755 net.cpp:148] Top shape: 24 832 7 7 (978432)
I0403 14:51:22.867537 17755 net.cpp:148] Top shape: 24 832 7 7 (978432)
I0403 14:51:22.867552 17755 net.cpp:148] Top shape: 24 832 7 7 (978432)
I0403 14:51:22.867566 17755 net.cpp:156] Memory required for data: 1325241888
I0403 14:51:22.867580 17755 layer_factory.hpp:77] Creating layer inception_5b/1x1
I0403 14:51:22.867602 17755 net.cpp:91] Creating Layer inception_5b/1x1
I0403 14:51:22.867620 17755 net.cpp:425] inception_5b/1x1 <- inception_5a/output_inception_5a/output_0_split_0
I0403 14:51:22.867641 17755 net.cpp:399] inception_5b/1x1 -> inception_5b/1x1
I0403 14:51:22.871436 17755 net.cpp:141] Setting up inception_5b/1x1
I0403 14:51:22.871466 17755 net.cpp:148] Top shape: 24 384 7 7 (451584)
I0403 14:51:22.871482 17755 net.cpp:156] Memory required for data: 1327048224
I0403 14:51:22.871501 17755 layer_factory.hpp:77] Creating layer inception_5b/relu_1x1
I0403 14:51:22.871525 17755 net.cpp:91] Creating Layer inception_5b/relu_1x1
I0403 14:51:22.871542 17755 net.cpp:425] inception_5b/relu_1x1 <- inception_5b/1x1
I0403 14:51:22.871561 17755 net.cpp:386] inception_5b/relu_1x1 -> inception_5b/1x1 (in-place)
I0403 14:51:22.871872 17755 net.cpp:141] Setting up inception_5b/relu_1x1
I0403 14:51:22.871897 17755 net.cpp:148] Top shape: 24 384 7 7 (451584)
I0403 14:51:22.871912 17755 net.cpp:156] Memory required for data: 1328854560
I0403 14:51:22.871925 17755 layer_factory.hpp:77] Creating layer inception_5b/3x3_reduce
I0403 14:51:22.871948 17755 net.cpp:91] Creating Layer inception_5b/3x3_reduce
I0403 14:51:22.871971 17755 net.cpp:425] inception_5b/3x3_reduce <- inception_5a/output_inception_5a/output_0_split_1
I0403 14:51:22.871994 17755 net.cpp:399] inception_5b/3x3_reduce -> inception_5b/3x3_reduce
I0403 14:51:22.874646 17755 net.cpp:141] Setting up inception_5b/3x3_reduce
I0403 14:51:22.874675 17755 net.cpp:148] Top shape: 24 192 7 7 (225792)
I0403 14:51:22.874691 17755 net.cpp:156] Memory required for data: 1329757728
I0403 14:51:22.874711 17755 layer_factory.hpp:77] Creating layer inception_5b/relu_3x3_reduce
I0403 14:51:22.874732 17755 net.cpp:91] Creating Layer inception_5b/relu_3x3_reduce
I0403 14:51:22.874748 17755 net.cpp:425] inception_5b/relu_3x3_reduce <- inception_5b/3x3_reduce
I0403 14:51:22.874765 17755 net.cpp:386] inception_5b/relu_3x3_reduce -> inception_5b/3x3_reduce (in-place)
I0403 14:51:22.874974 17755 net.cpp:141] Setting up inception_5b/relu_3x3_reduce
I0403 14:51:22.875005 17755 net.cpp:148] Top shape: 24 192 7 7 (225792)
I0403 14:51:22.875020 17755 net.cpp:156] Memory required for data: 1330660896
I0403 14:51:22.875035 17755 layer_factory.hpp:77] Creating layer inception_5b/3x3
I0403 14:51:22.875056 17755 net.cpp:91] Creating Layer inception_5b/3x3
I0403 14:51:22.875073 17755 net.cpp:425] inception_5b/3x3 <- inception_5b/3x3_reduce
I0403 14:51:22.875092 17755 net.cpp:399] inception_5b/3x3 -> inception_5b/3x3
I0403 14:51:22.881780 17755 net.cpp:141] Setting up inception_5b/3x3
I0403 14:51:22.881813 17755 net.cpp:148] Top shape: 24 384 7 7 (451584)
I0403 14:51:22.881829 17755 net.cpp:156] Memory required for data: 1332467232
I0403 14:51:22.881846 17755 layer_factory.hpp:77] Creating layer inception_5b/relu_3x3
I0403 14:51:22.881865 17755 net.cpp:91] Creating Layer inception_5b/relu_3x3
I0403 14:51:22.881880 17755 net.cpp:425] inception_5b/relu_3x3 <- inception_5b/3x3
I0403 14:51:22.881897 17755 net.cpp:386] inception_5b/relu_3x3 -> inception_5b/3x3 (in-place)
I0403 14:51:22.882203 17755 net.cpp:141] Setting up inception_5b/relu_3x3
I0403 14:51:22.882230 17755 net.cpp:148] Top shape: 24 384 7 7 (451584)
I0403 14:51:22.882246 17755 net.cpp:156] Memory required for data: 1334273568
I0403 14:51:22.882261 17755 layer_factory.hpp:77] Creating layer inception_5b/5x5_reduce
I0403 14:51:22.882299 17755 net.cpp:91] Creating Layer inception_5b/5x5_reduce
I0403 14:51:22.882318 17755 net.cpp:425] inception_5b/5x5_reduce <- inception_5a/output_inception_5a/output_0_split_2
I0403 14:51:22.882339 17755 net.cpp:399] inception_5b/5x5_reduce -> inception_5b/5x5_reduce
I0403 14:51:22.883622 17755 net.cpp:141] Setting up inception_5b/5x5_reduce
I0403 14:51:22.883649 17755 net.cpp:148] Top shape: 24 48 7 7 (56448)
I0403 14:51:22.883664 17755 net.cpp:156] Memory required for data: 1334499360
I0403 14:51:22.883682 17755 layer_factory.hpp:77] Creating layer inception_5b/relu_5x5_reduce
I0403 14:51:22.883702 17755 net.cpp:91] Creating Layer inception_5b/relu_5x5_reduce
I0403 14:51:22.883719 17755 net.cpp:425] inception_5b/relu_5x5_reduce <- inception_5b/5x5_reduce
I0403 14:51:22.883736 17755 net.cpp:386] inception_5b/relu_5x5_reduce -> inception_5b/5x5_reduce (in-place)
I0403 14:51:22.884110 17755 net.cpp:141] Setting up inception_5b/relu_5x5_reduce
I0403 14:51:22.884136 17755 net.cpp:148] Top shape: 24 48 7 7 (56448)
I0403 14:51:22.884151 17755 net.cpp:156] Memory required for data: 1334725152
I0403 14:51:22.884166 17755 layer_factory.hpp:77] Creating layer inception_5b/5x5
I0403 14:51:22.884186 17755 net.cpp:91] Creating Layer inception_5b/5x5
I0403 14:51:22.884203 17755 net.cpp:425] inception_5b/5x5 <- inception_5b/5x5_reduce
I0403 14:51:22.884222 17755 net.cpp:399] inception_5b/5x5 -> inception_5b/5x5
I0403 14:51:22.886281 17755 net.cpp:141] Setting up inception_5b/5x5
I0403 14:51:22.886322 17755 net.cpp:148] Top shape: 24 128 7 7 (150528)
I0403 14:51:22.886338 17755 net.cpp:156] Memory required for data: 1335327264
I0403 14:51:22.886356 17755 layer_factory.hpp:77] Creating layer inception_5b/relu_5x5
I0403 14:51:22.886374 17755 net.cpp:91] Creating Layer inception_5b/relu_5x5
I0403 14:51:22.886391 17755 net.cpp:425] inception_5b/relu_5x5 <- inception_5b/5x5
I0403 14:51:22.886411 17755 net.cpp:386] inception_5b/relu_5x5 -> inception_5b/5x5 (in-place)
I0403 14:51:22.886620 17755 net.cpp:141] Setting up inception_5b/relu_5x5
I0403 14:51:22.886644 17755 net.cpp:148] Top shape: 24 128 7 7 (150528)
I0403 14:51:22.886658 17755 net.cpp:156] Memory required for data: 1335929376
I0403 14:51:22.886673 17755 layer_factory.hpp:77] Creating layer inception_5b/pool
I0403 14:51:22.886692 17755 net.cpp:91] Creating Layer inception_5b/pool
I0403 14:51:22.886706 17755 net.cpp:425] inception_5b/pool <- inception_5a/output_inception_5a/output_0_split_3
I0403 14:51:22.886728 17755 net.cpp:399] inception_5b/pool -> inception_5b/pool
I0403 14:51:22.886798 17755 net.cpp:141] Setting up inception_5b/pool
I0403 14:51:22.886821 17755 net.cpp:148] Top shape: 24 832 7 7 (978432)
I0403 14:51:22.886836 17755 net.cpp:156] Memory required for data: 1339843104
I0403 14:51:22.886849 17755 layer_factory.hpp:77] Creating layer inception_5b/pool_proj
I0403 14:51:22.886872 17755 net.cpp:91] Creating Layer inception_5b/pool_proj
I0403 14:51:22.886888 17755 net.cpp:425] inception_5b/pool_proj <- inception_5b/pool
I0403 14:51:22.886909 17755 net.cpp:399] inception_5b/pool_proj -> inception_5b/pool_proj
I0403 14:51:22.889212 17755 net.cpp:141] Setting up inception_5b/pool_proj
I0403 14:51:22.889241 17755 net.cpp:148] Top shape: 24 128 7 7 (150528)
I0403 14:51:22.889256 17755 net.cpp:156] Memory required for data: 1340445216
I0403 14:51:22.889274 17755 layer_factory.hpp:77] Creating layer inception_5b/relu_pool_proj
I0403 14:51:22.889294 17755 net.cpp:91] Creating Layer inception_5b/relu_pool_proj
I0403 14:51:22.889312 17755 net.cpp:425] inception_5b/relu_pool_proj <- inception_5b/pool_proj
I0403 14:51:22.889328 17755 net.cpp:386] inception_5b/relu_pool_proj -> inception_5b/pool_proj (in-place)
I0403 14:51:22.889622 17755 net.cpp:141] Setting up inception_5b/relu_pool_proj
I0403 14:51:22.889648 17755 net.cpp:148] Top shape: 24 128 7 7 (150528)
I0403 14:51:22.889663 17755 net.cpp:156] Memory required for data: 1341047328
I0403 14:51:22.889678 17755 layer_factory.hpp:77] Creating layer inception_5b/output
I0403 14:51:22.889698 17755 net.cpp:91] Creating Layer inception_5b/output
I0403 14:51:22.889739 17755 net.cpp:425] inception_5b/output <- inception_5b/1x1
I0403 14:51:22.889757 17755 net.cpp:425] inception_5b/output <- inception_5b/3x3
I0403 14:51:22.889775 17755 net.cpp:425] inception_5b/output <- inception_5b/5x5
I0403 14:51:22.889791 17755 net.cpp:425] inception_5b/output <- inception_5b/pool_proj
I0403 14:51:22.889807 17755 net.cpp:399] inception_5b/output -> inception_5b/output
I0403 14:51:22.889860 17755 net.cpp:141] Setting up inception_5b/output
I0403 14:51:22.889885 17755 net.cpp:148] Top shape: 24 1024 7 7 (1204224)
I0403 14:51:22.889899 17755 net.cpp:156] Memory required for data: 1345864224
I0403 14:51:22.889914 17755 layer_factory.hpp:77] Creating layer pool5/7x7_s1
I0403 14:51:22.889935 17755 net.cpp:91] Creating Layer pool5/7x7_s1
I0403 14:51:22.889951 17755 net.cpp:425] pool5/7x7_s1 <- inception_5b/output
I0403 14:51:22.889977 17755 net.cpp:399] pool5/7x7_s1 -> pool5/7x7_s1
I0403 14:51:22.890203 17755 net.cpp:141] Setting up pool5/7x7_s1
I0403 14:51:22.890230 17755 net.cpp:148] Top shape: 24 1024 1 1 (24576)
I0403 14:51:22.890244 17755 net.cpp:156] Memory required for data: 1345962528
I0403 14:51:22.890259 17755 layer_factory.hpp:77] Creating layer pool5/drop_7x7_s1
I0403 14:51:22.890276 17755 net.cpp:91] Creating Layer pool5/drop_7x7_s1
I0403 14:51:22.890292 17755 net.cpp:425] pool5/drop_7x7_s1 <- pool5/7x7_s1
I0403 14:51:22.890311 17755 net.cpp:386] pool5/drop_7x7_s1 -> pool5/7x7_s1 (in-place)
I0403 14:51:22.890359 17755 net.cpp:141] Setting up pool5/drop_7x7_s1
I0403 14:51:22.890383 17755 net.cpp:148] Top shape: 24 1024 1 1 (24576)
I0403 14:51:22.890396 17755 net.cpp:156] Memory required for data: 1346060832
I0403 14:51:22.890410 17755 layer_factory.hpp:77] Creating layer loss3/classifier_plantvillage
I0403 14:51:22.890434 17755 net.cpp:91] Creating Layer loss3/classifier_plantvillage
I0403 14:51:22.890450 17755 net.cpp:425] loss3/classifier_plantvillage <- pool5/7x7_s1
I0403 14:51:22.890471 17755 net.cpp:399] loss3/classifier_plantvillage -> loss3/classifier_plantvillage
I0403 14:51:22.890885 17755 net.cpp:141] Setting up loss3/classifier_plantvillage
I0403 14:51:22.890909 17755 net.cpp:148] Top shape: 24 38 (912)
I0403 14:51:22.890924 17755 net.cpp:156] Memory required for data: 1346064480
I0403 14:51:22.890943 17755 layer_factory.hpp:77] Creating layer loss3/classifier_plantvillage_loss3/classifier_plantvillage_0_split
I0403 14:51:22.890965 17755 net.cpp:91] Creating Layer loss3/classifier_plantvillage_loss3/classifier_plantvillage_0_split
I0403 14:51:22.890986 17755 net.cpp:425] loss3/classifier_plantvillage_loss3/classifier_plantvillage_0_split <- loss3/classifier_plantvillage
I0403 14:51:22.891005 17755 net.cpp:399] loss3/classifier_plantvillage_loss3/classifier_plantvillage_0_split -> loss3/classifier_plantvillage_loss3/classifier_plantvillage_0_split_0
I0403 14:51:22.891024 17755 net.cpp:399] loss3/classifier_plantvillage_loss3/classifier_plantvillage_0_split -> loss3/classifier_plantvillage_loss3/classifier_plantvillage_0_split_1
I0403 14:51:22.891043 17755 net.cpp:399] loss3/classifier_plantvillage_loss3/classifier_plantvillage_0_split -> loss3/classifier_plantvillage_loss3/classifier_plantvillage_0_split_2
I0403 14:51:22.891063 17755 net.cpp:399] loss3/classifier_plantvillage_loss3/classifier_plantvillage_0_split -> loss3/classifier_plantvillage_loss3/classifier_plantvillage_0_split_3
I0403 14:51:22.891162 17755 net.cpp:141] Setting up loss3/classifier_plantvillage_loss3/classifier_plantvillage_0_split
I0403 14:51:22.891185 17755 net.cpp:148] Top shape: 24 38 (912)
I0403 14:51:22.891201 17755 net.cpp:148] Top shape: 24 38 (912)
I0403 14:51:22.891216 17755 net.cpp:148] Top shape: 24 38 (912)
I0403 14:51:22.891232 17755 net.cpp:148] Top shape: 24 38 (912)
I0403 14:51:22.891244 17755 net.cpp:156] Memory required for data: 1346079072
I0403 14:51:22.891259 17755 layer_factory.hpp:77] Creating layer loss1/loss
I0403 14:51:22.891281 17755 net.cpp:91] Creating Layer loss1/loss
I0403 14:51:22.891299 17755 net.cpp:425] loss1/loss <- loss1/classifier_plantvillage_loss1/classifier_plantvillage_0_split_0
I0403 14:51:22.891329 17755 net.cpp:425] loss1/loss <- label_data_1_split_0
…
