…
I0403 15:49:02.468370 20293 net.cpp:313] The NetState phase (1) differed from the phase (0) specified by a rule in layer data
I0403 15:49:02.469616 20293 net.cpp:49] Initializing net from parameters: 
state {
  phase: TEST
}
layer {
  name: "data"
  type: "Data"
  top: "data"
  top: "label"
  include {
    phase: TEST
  }
  transform_param {
    mirror: false
    crop_size: 224
    mean_file: "/home/mohanty/data/final_dataset/lmdb/grayscale-40-60/mean.binaryproto"
  }
  data_param {
    source: "/home/mohanty/data/final_dataset/lmdb/grayscale-40-60/test_db"
    batch_size: 24
    backend: LMDB
  }
}
layer {
  name: "conv1/7x7_s2"
  type: "Convolution"
  bottom: "data"
  top: "conv1/7x7_s2"
  param {
    lr_mult: 1
    decay_mult: 1
  }
  param {
    lr_mult: 2
    decay_mult: 0
  }
  convolution_param {
    num_output: 64
    pad: 3
    kernel_size: 7
    stride: 2
    weight_filler {
      type: "xavier"
      std: 0.1
    }
    bias_filler {
      type: "constant"
      value: 0.2
    }
  }
}
layer {
  name: "conv1/relu_7x7"
  type: "ReLU"
  bottom: "conv1/7x7_s2"
  top: "conv1/7x7_s2"
}
layer {
  name: "pool1/3x3_s2"
  type: "Pooling"
  bottom: "conv1/7x7_s2"
  top: "pool1/3x3_s2"
  pooling_param {
    pool: MAX
    kernel_size: 3
    stride: 2
  }
}
layer {
  name: "pool1/norm1"
  type: "LRN"
  bottom: "pool1/3x3_s2"
  top: "pool1/norm1"
  lrn_param {
    local_size: 5
    alpha: 0.0001
    beta: 0.75
  }
}
layer {
  name: "conv2/3x3_reduce"
  type: "Convolution"
  bottom: "pool1/norm1"
  top: "conv2/3x3_reduce"
  param {
    lr_mult: 1
    decay_mult: 1
  }
  param {
    lr_mult: 2
    decay_mult: 0
  }
  convolution_param {
    num_output: 64
    kernel_size: 1
    weight_filler {
      type: "xavier"
      std: 0.1
    }
    bias_filler {
      type: "constant"
      value: 0.2
    }
  }
}
layer {
  name: "conv2/relu_3x3_reduce"
  type: "ReLU"
  bottom: "conv2/3x3_reduce"
  top: "conv2/3x3_reduce"
}
layer {
  name: "conv2/3x3"
  type: "Convolution"
  bottom: "conv2/3x3_reduce"
  top: "conv2/3x3"
  param {
    lr_mult: 1
    decay_mult: 1
  }
  param {
    lr_mult: 2
    decay_mult: 0
  }
  convolution_param {
    num_output: 192
    pad: 1
    kernel_size: 3
    weight_filler {
      type: "xavier"
      std: 0.03
    }
    bias_filler {
      type: "constant"
      value: 0.2
    }
  }
}
layer {
  name: "conv2/relu_3x3"
  type: "ReLU"
  bottom: "conv2/3x3"
  top: "conv2/3x3"
}
layer {
  name: "conv2/norm2"
  type: "LRN"
  bottom: "conv2/3x3"
  top: "conv2/norm2"
  lrn_param {
    local_size: 5
    alpha: 0.0001
    beta: 0.75
  }
}
layer {
  name: "pool2/3x3_s2"
  type: "Pooling"
  bottom: "conv2/norm2"
  top: "pool2/3x3_s2"
  pooling_param {
    pool: MAX
    kernel_size: 3
    stride: 2
  }
}
layer {
  name: "inception_3a/1x1"
  type: "Convolution"
  bottom: "pool2/3x3_s2"
  top: "inception_3a/1x1"
  param {
    lr_mult: 1
    decay_mult: 1
  }
  param {
    lr_mult: 2
    decay_mult: 0
  }
  convolution_param {
    num_output: 64
    kernel_size: 1
    weight_filler {
      type: "xavier"
      std: 0.03
    }
    bias_filler {
      type: "constant"
      value: 0.2
    }
  }
}
layer {
  name: "inception_3a/relu_1x1"
  type: "ReLU"
  bottom: "inception_3a/1x1"
  top: "inception_3a/1x1"
}
layer {
  name: "inception_3a/3x3_reduce"
  type: "Convolution"
  bottom: "pool2/3x3_s2"
  top: "inception_3a/3x3_reduce"
  param {
    lr_mult: 1
    decay_mult: 1
  }
  param {
    lr_mult: 2
    decay_mult: 0
  }
  convolution_param {
    num_output: 96
    kernel_size: 1
    weight_filler {
      type: "xavier"
      std: 0.09
    }
    bias_filler {
      type: "constant"
      value: 0.2
    }
  }
}
layer {
  name: "inception_3a/relu_3x3_reduce"
  type: "ReLU"
  bottom: "inception_3a/3x3_reduce"
  top: "inception_3a/3x3_reduce"
}
layer {
  name: "inception_3a/3x3"
  type: "Convolution"
  bottom: "inception_3a/3x3_reduce"
  top: "inception_3a/3x3"
  param {
    lr_mult: 1
    decay_mult: 1
  }
  param {
    lr_mult: 2
    decay_mult: 0
  }
  convolution_param {
    num_output: 128
    pad: 1
    kernel_size: 3
    weight_filler {
      type: "xavier"
      std: 0.03
    }
    bias_filler {
      type: "constant"
      value: 0.2
    }
  }
}
layer {
  name: "inception_3a/relu_3x3"
  type: "ReLU"
  bottom: "inception_3a/3x3"
  top: "inception_3a/3x3"
}
layer {
  name: "inception_3a/5x5_reduce"
  type: "Convolution"
  bottom: "pool2/3x3_s2"
  top: "inception_3a/5x5_reduce"
  param {
    lr_mult: 1
    decay_mult: 1
  }
  param {
    lr_mult: 2
    decay_mult: 0
  }
  convolution_param {
    num_output: 16
    kernel_size: 1
    weight_filler {
      type: "xavier"
      std: 0.2
    }
    bias_filler {
      type: "constant"
      value: 0.2
    }
  }
}
layer {
  name: "inception_3a/relu_5x5_reduce"
  type: "ReLU"
  bottom: "inception_3a/5x5_reduce"
  top: "inception_3a/5x5_reduce"
}
layer {
  name: "inception_3a/5x5"
  type: "Convolution"
  bottom: "inception_3a/5x5_reduce"
  top: "inception_3a/5x5"
  param {
    lr_mult: 1
    decay_mult: 1
  }
  param {
    lr_mult: 2
    decay_mult: 0
  }
  convolution_param {
    num_output: 32
    pad: 2
    kernel_size: 5
    weight_filler {
      type: "xavier"
      std: 0.03
    }
    bias_filler {
      type: "constant"
      value: 0.2
    }
  }
}
layer {
  name: "inception_3a/relu_5x5"
  type: "ReLU"
  bottom: "inception_3a/5x5"
  top: "inception_3a/5x5"
}
layer {
  name: "inception_3a/pool"
  type: "Pooling"
  bottom: "pool2/3x3_s2"
  top: "inception_3a/pool"
  pooling_param {
    pool: MAX
    kernel_size: 3
    stride: 1
    pad: 1
  }
}
layer {
  name: "inception_3a/pool_proj"
  type: "Convolution"
  bottom: "inception_3a/pool"
  top: "inception_3a/pool_proj"
  param {
    lr_mult: 1
    decay_mult: 1
  }
  param {
    lr_mult: 2
    decay_mult: 0
  }
  convolution_param {
    num_output: 32
    kernel_size: 1
    weight_filler {
      type: "xavier"
      std: 0.1
    }
    bias_filler {
      type: "constant"
      value: 0.2
    }
  }
}
layer {
  name: "inception_3a/relu_pool_proj"
  type: "ReLU"
  bottom: "inception_3a/pool_proj"
  top: "inception_3a/pool_proj"
}
layer {
  name: "inception_3a/output"
  type: "Concat"
  bottom: "inception_3a/1x1"
  bottom: "inception_3a/3x3"
  bottom: "inception_3a/5x5"
  bottom: "inception_3a/pool_proj"
  top: "inception_3a/output"
}
layer {
  name: "inception_3b/1x1"
  type: "Convolution"
  bottom: "inception_3a/output"
  top: "inception_3b/1x1"
  param {
    lr_mult: 1
    decay_mult: 1
  }
  param {
    lr_mult: 2
    decay_mult: 0
  }
  convolution_param {
    num_output: 128
    kernel_size: 1
    weight_filler {
      type: "xavier"
      std: 0.03
    }
    bias_filler {
      type: "constant"
      value: 0.2
    }
  }
}
layer {
  name: "inception_3b/relu_1x1"
  type: "ReLU"
  bottom: "inception_3b/1x1"
  top: "inception_3b/1x1"
}
layer {
  name: "inception_3b/3x3_reduce"
  type: "Convolution"
  bottom: "inception_3a/output"
  top: "inception_3b/3x3_reduce"
  param {
    lr_mult: 1
    decay_mult: 1
  }
  param {
    lr_mult: 2
    decay_mult: 0
  }
  convolution_param {
    num_output: 128
    kernel_size: 1
    weight_filler {
      type: "xavier"
      std: 0.09
    }
    bias_filler {
      type: "constant"
      value: 0.2
    }
  }
}
layer {
  name: "inception_3b/relu_3x3_reduce"
  type: "ReLU"
  bottom: "inception_3b/3x3_reduce"
  top: "inception_3b/3x3_reduce"
}
layer {
  name: "inception_3b/3x3"
  type: "Convolution"
  bottom: "inception_3b/3x3_reduce"
  top: "inception_3b/3x3"
  param {
    lr_mult: 1
    decay_mult: 1
  }
  param {
    lr_mult: 2
    decay_mult: 0
  }
  convolution_param {
    num_output: 192
    pad: 1
    kernel_size: 3
    weight_filler {
      type: "xavier"
      std: 0.03
    }
    bias_filler {
      type: "constant"
      value: 0.2
    }
  }
}
layer {
  name: "inception_3b/relu_3x3"
  type: "ReLU"
  bottom: "inception_3b/3x3"
  top: "inception_3b/3x3"
}
layer {
  name: "inception_3b/5x5_reduce"
  type: "Convolution"
  bottom: "inception_3a/output"
  top: "inception_3b/5x5_reduce"
  param {
    lr_mult: 1
    decay_mult: 1
  }
  param {
    lr_mult: 2
    decay_mult: 0
  }
  convolution_param {
    num_output: 32
    kernel_size: 1
    weight_filler {
      type: "xavier"
      std: 0.2
    }
    bias_filler {
      type: "constant"
      value: 0.2
    }
  }
}
layer {
  name: "inception_3b/relu_5x5_reduce"
  type: "ReLU"
  bottom: "inception_3b/5x5_reduce"
  top: "inception_3b/5x5_reduce"
}
layer {
  name: "inception_3b/5x5"
  type: "Convolution"
  bottom: "inception_3b/5x5_reduce"
  top: "inception_3b/5x5"
  param {
    lr_mult: 1
    decay_mult: 1
  }
  param {
    lr_mult: 2
    decay_mult: 0
  }
  convolution_param {
    num_output: 96
    pad: 2
    kernel_size: 5
    weight_filler {
      type: "xavier"
      std: 0.03
    }
    bias_filler {
      type: "constant"
      value: 0.2
    }
  }
}
layer {
  name: "inception_3b/relu_5x5"
  type: "ReLU"
  bottom: "inception_3b/5x5"
  top: "inception_3b/5x5"
}
layer {
  name: "inception_3b/pool"
  type: "Pooling"
  bottom: "inception_3a/output"
  top: "inception_3b/pool"
  pooling_param {
    pool: MAX
    kernel_size: 3
    stride: 1
    pad: 1
  }
}
layer {
  name: "inception_3b/pool_proj"
  type: "Convolution"
  bottom: "inception_3b/pool"
  top: "inception_3b/pool_proj"
  param {
    lr_mult: 1
    decay_mult: 1
  }
  param {
    lr_mult: 2
    decay_mult: 0
  }
  convolution_param {
    num_output: 64
    kernel_size: 1
    weight_filler {
      type: "xavier"
      std: 0.1
    }
    bias_filler {
      type: "constant"
      value: 0.2
    }
  }
}
layer {
  name: "inception_3b/relu_pool_proj"
  type: "ReLU"
  bottom: "inception_3b/pool_proj"
  top: "inception_3b/pool_proj"
}
layer {
  name: "inception_3b/output"
  type: "Concat"
  bottom: "inception_3b/1x1"
  bottom: "inception_3b/3x3"
  bottom: "inception_3b/5x5"
  bottom: "inception_3b/pool_proj"
  top: "inception_3b/output"
}
layer {
  name: "pool3/3x3_s2"
  type: "Pooling"
  bottom: "inception_3b/output"
  top: "pool3/3x3_s2"
  pooling_param {
    pool: MAX
    kernel_size: 3
    stride: 2
  }
}
layer {
  name: "inception_4a/1x1"
  type: "Convolution"
  bottom: "pool3/3x3_s2"
  top: "inception_4a/1x1"
  param {
    lr_mult: 1
    decay_mult: 1
  }
  param {
    lr_mult: 2
    decay_mult: 0
  }
  convolution_param {
    num_output: 192
    kernel_size: 1
    weight_filler {
      type: "xavier"
      std: 0.03
    }
    bias_filler {
      type: "constant"
      value: 0.2
    }
  }
}
layer {
  name: "inception_4a/relu_1x1"
  type: "ReLU"
  bottom: "inception_4a/1x1"
  top: "inception_4a/1x1"
}
layer {
  name: "inception_4a/3x3_reduce"
  type: "Convolution"
  bottom: "pool3/3x3_s2"
  top: "inception_4a/3x3_reduce"
  param {
    lr_mult: 1
    decay_mult: 1
  }
  param {
    lr_mult: 2
    decay_mult: 0
  }
  convolution_param {
    num_output: 96
    kernel_size: 1
    weight_filler {
      type: "xavier"
      std: 0.09
    }
    bias_filler {
      type: "constant"
      value: 0.2
    }
  }
}
layer {
  name: "inception_4a/relu_3x3_reduce"
  type: "ReLU"
  bottom: "inception_4a/3x3_reduce"
  top: "inception_4a/3x3_reduce"
}
layer {
  name: "inception_4a/3x3"
  type: "Convolution"
  bottom: "inception_4a/3x3_reduce"
  top: "inception_4a/3x3"
  param {
    lr_mult: 1
    decay_mult: 1
  }
  param {
    lr_mult: 2
    decay_mult: 0
  }
  convolution_param {
    num_output: 208
    pad: 1
    kernel_size: 3
    weight_filler {
      type: "xavier"
      std: 0.03
    }
    bias_filler {
      type: "constant"
      value: 0.2
    }
  }
}
layer {
  name: "inception_4a/relu_3x3"
  type: "ReLU"
  bottom: "inception_4a/3x3"
  top: "inception_4a/3x3"
}
layer {
  name: "inception_4a/5x5_reduce"
  type: "Convolution"
  bottom: "pool3/3x3_s2"
  top: "inception_4a/5x5_reduce"
  param {
    lr_mult: 1
    decay_mult: 1
  }
  param {
    lr_mult: 2
    decay_mult: 0
  }
  convolution_param {
    num_output: 16
    kernel_size: 1
    weight_filler {
      type: "xavier"
      std: 0.2
    }
    bias_filler {
      type: "constant"
      value: 0.2
    }
  }
}
layer {
  name: "inception_4a/relu_5x5_reduce"
  type: "ReLU"
  bottom: "inception_4a/5x5_reduce"
  top: "inception_4a/5x5_reduce"
}
layer {
  name: "inception_4a/5x5"
  type: "Convolution"
  bottom: "inception_4a/5x5_reduce"
  top: "inception_4a/5x5"
  param {
    lr_mult: 1
    decay_mult: 1
  }
  param {
    lr_mult: 2
    decay_mult: 0
  }
  convolution_param {
    num_output: 48
    pad: 2
    kernel_size: 5
    weight_filler {
      type: "xavier"
      std: 0.03
    }
    bias_filler {
      type: "constant"
      value: 0.2
    }
  }
}
layer {
  name: "inception_4a/relu_5x5"
  type: "ReLU"
  bottom: "inception_4a/5x5"
  top: "inception_4a/5x5"
}
layer {
  name: "inception_4a/pool"
  type: "Pooling"
  bottom: "pool3/3x3_s2"
  top: "inception_4a/pool"
  pooling_param {
    pool: MAX
    kernel_size: 3
    stride: 1
    pad: 1
  }
}
layer {
  name: "inception_4a/pool_proj"
  type: "Convolution"
  bottom: "inception_4a/pool"
  top: "inception_4a/pool_proj"
  param {
    lr_mult: 1
    decay_mult: 1
  }
  param {
    lr_mult: 2
    decay_mult: 0
  }
  convolution_param {
    num_output: 64
    kernel_size: 1
    weight_filler {
      type: "xavier"
      std: 0.1
    }
    bias_filler {
      type: "constant"
      value: 0.2
    }
  }
}
layer {
  name: "inception_4a/relu_pool_proj"
  type: "ReLU"
  bottom: "inception_4a/pool_proj"
  top: "inception_4a/pool_proj"
}
layer {
  name: "inception_4a/output"
  type: "Concat"
  bottom: "inception_4a/1x1"
  bottom: "inception_4a/3x3"
  bottom: "inception_4a/5x5"
  bottom: "inception_4a/pool_proj"
  top: "inception_4a/output"
}
layer {
  name: "loss1/ave_pool"
  type: "Pooling"
  bottom: "inception_4a/output"
  top: "loss1/ave_pool"
  pooling_param {
    pool: AVE
    kernel_size: 5
    stride: 3
  }
}
layer {
  name: "loss1/conv"
  type: "Convolution"
  bottom: "loss1/ave_pool"
  top: "loss1/conv"
  param {
    lr_mult: 1
    decay_mult: 1
  }
  param {
    lr_mult: 2
    decay_mult: 0
  }
  convolution_param {
    num_output: 128
    kernel_size: 1
    weight_filler {
      type: "xavier"
      std: 0.08
    }
    bias_filler {
      type: "constant"
      value: 0.2
    }
  }
}
layer {
  name: "loss1/relu_conv"
  type: "ReLU"
  bottom: "loss1/conv"
  top: "loss1/conv"
}
layer {
  name: "loss1/fc"
  type: "InnerProduct"
  bottom: "loss1/conv"
  top: "loss1/fc"
  param {
    lr_mult: 1
    decay_mult: 1
  }
  param {
    lr_mult: 2
    decay_mult: 0
  }
  inner_product_param {
    num_output: 1024
    weight_filler {
      type: "xavier"
      std: 0.02
    }
    bias_filler {
      type: "constant"
      value: 0.2
    }
  }
}
layer {
  name: "loss1/relu_fc"
  type: "ReLU"
  bottom: "loss1/fc"
  top: "loss1/fc"
}
layer {
  name: "loss1/drop_fc"
  type: "Dropout"
  bottom: "loss1/fc"
  top: "loss1/fc"
  dropout_param {
    dropout_ratio: 0.7
  }
}
layer {
  name: "loss1/classifier_plantvillage"
  type: "InnerProduct"
  bottom: "loss1/fc"
  top: "loss1/classifier_plantvillage"
  param {
    lr_mult: 1
    decay_mult: 1
  }
  param {
    lr_mult: 2
    decay_mult: 0
  }
  inner_product_param {
    num_output: 38
    weight_filler {
      type: "xavier"
      std: 0.0009765625
    }
    bias_filler {
      type: "constant"
      value: 0
    }
  }
}
layer {
  name: "inception_4b/1x1"
  type: "Convolution"
  bottom: "inception_4a/output"
  top: "inception_4b/1x1"
  param {
    lr_mult: 1
    decay_mult: 1
  }
  param {
    lr_mult: 2
    decay_mult: 0
  }
  convolution_param {
    num_output: 160
    kernel_size: 1
    weight_filler {
      type: "xavier"
      std: 0.03
    }
    bias_filler {
      type: "constant"
      value: 0.2
    }
  }
}
layer {
  name: "inception_4b/relu_1x1"
  type: "ReLU"
  bottom: "inception_4b/1x1"
  top: "inception_4b/1x1"
}
layer {
  name: "inception_4b/3x3_reduce"
  type: "Convolution"
  bottom: "inception_4a/output"
  top: "inception_4b/3x3_reduce"
  param {
    lr_mult: 1
    decay_mult: 1
  }
  param {
    lr_mult: 2
    decay_mult: 0
  }
  convolution_param {
    num_output: 112
    kernel_size: 1
    weight_filler {
      type: "xavier"
      std: 0.09
    }
    bias_filler {
      type: "constant"
      value: 0.2
    }
  }
}
layer {
  name: "inception_4b/relu_3x3_reduce"
  type: "ReLU"
  bottom: "inception_4b/3x3_reduce"
  top: "inception_4b/3x3_reduce"
}
layer {
  name: "inception_4b/3x3"
  type: "Convolution"
  bottom: "inception_4b/3x3_reduce"
  top: "inception_4b/3x3"
  param {
    lr_mult: 1
    decay_mult: 1
  }
  param {
    lr_mult: 2
    decay_mult: 0
  }
  convolution_param {
    num_output: 224
    pad: 1
    kernel_size: 3
    weight_filler {
      type: "xavier"
      std: 0.03
    }
    bias_filler {
      type: "constant"
      value: 0.2
    }
  }
}
layer {
  name: "inception_4b/relu_3x3"
  type: "ReLU"
  bottom: "inception_4b/3x3"
  top: "inception_4b/3x3"
}
layer {
  name: "inception_4b/5x5_reduce"
  type: "Convolution"
  bottom: "inception_4a/output"
  top: "inception_4b/5x5_reduce"
  param {
    lr_mult: 1
    decay_mult: 1
  }
  param {
    lr_mult: 2
    decay_mult: 0
  }
  convolution_param {
    num_output: 24
    kernel_size: 1
    weight_filler {
      type: "xavier"
      std: 0.2
    }
    bias_filler {
      type: "constant"
      value: 0.2
    }
  }
}
layer {
  name: "inception_4b/relu_5x5_reduce"
  type: "ReLU"
  bottom: "inception_4b/5x5_reduce"
  top: "inception_4b/5x5_reduce"
}
layer {
  name: "inception_4b/5x5"
  type: "Convolution"
  bottom: "inception_4b/5x5_reduce"
  top: "inception_4b/5x5"
  param {
    lr_mult: 1
    decay_mult: 1
  }
  param {
    lr_mult: 2
    decay_mult: 0
  }
  convolution_param {
    num_output: 64
    pad: 2
    kernel_size: 5
    weight_filler {
      type: "xavier"
      std: 0.03
    }
    bias_filler {
      type: "constant"
      value: 0.2
    }
  }
}
layer {
  name: "inception_4b/relu_5x5"
  type: "ReLU"
  bottom: "inception_4b/5x5"
  top: "inception_4b/5x5"
}
layer {
  name: "inception_4b/pool"
  type: "Pooling"
  bottom: "inception_4a/output"
  top: "inception_4b/pool"
  pooling_param {
    pool: MAX
    kernel_size: 3
    stride: 1
    pad: 1
  }
}
layer {
  name: "inception_4b/pool_proj"
  type: "Convolution"
  bottom: "inception_4b/pool"
  top: "inception_4b/pool_proj"
  param {
    lr_mult: 1
    decay_mult: 1
  }
  param {
    lr_mult: 2
    decay_mult: 0
  }
  convolution_param {
    num_output: 64
    kernel_size: 1
    weight_filler {
      type: "xavier"
      std: 0.1
    }
    bias_filler {
      type: "constant"
      value: 0.2
    }
  }
}
layer {
  name: "inception_4b/relu_pool_proj"
  type: "ReLU"
  bottom: "inception_4b/pool_proj"
  top: "inception_4b/pool_proj"
}
layer {
  name: "inception_4b/output"
  type: "Concat"
  bottom: "inception_4b/1x1"
  bottom: "inception_4b/3x3"
  bottom: "inception_4b/5x5"
  bottom: "inception_4b/pool_proj"
  top: "inception_4b/output"
}
layer {
  name: "inception_4c/1x1"
  type: "Convolution"
  bottom: "inception_4b/output"
  top: "inception_4c/1x1"
  param {
    lr_mult: 1
    decay_mult: 1
  }
  param {
    lr_mult: 2
    decay_mult: 0
  }
  convolution_param {
    num_output: 128
    kernel_size: 1
    weight_filler {
      type: "xavier"
      std: 0.03
    }
    bias_filler {
      type: "constant"
      value: 0.2
    }
  }
}
layer {
  name: "inception_4c/relu_1x1"
  type: "ReLU"
  bottom: "inception_4c/1x1"
  top: "inception_4c/1x1"
}
layer {
  name: "inception_4c/3x3_reduce"
  type: "Convolution"
  bottom: "inception_4b/output"
  top: "inception_4c/3x3_reduce"
  param {
    lr_mult: 1
    decay_mult: 1
  }
  param {
    lr_mult: 2
    decay_mult: 0
  }
  convolution_param {
    num_output: 128
    kernel_size: 1
    weight_filler {
      type: "xavier"
      std: 0.09
    }
    bias_filler {
      type: "constant"
      value: 0.2
    }
  }
}
layer {
  name: "inception_4c/relu_3x3_reduce"
  type: "ReLU"
  bottom: "inception_4c/3x3_reduce"
  top: "inception_4c/3x3_reduce"
}
layer {
  name: "inception_4c/3x3"
  type: "Convolution"
  bottom: "inception_4c/3x3_reduce"
  top: "inception_4c/3x3"
  param {
    lr_mult: 1
    decay_mult: 1
  }
  param {
    lr_mult: 2
    decay_mult: 0
  }
  convolution_param {
    num_output: 256
    pad: 1
    kernel_size: 3
    weight_filler {
      type: "xavier"
      std: 0.03
    }
    bias_filler {
      type: "constant"
      value: 0.2
    }
  }
}
layer {
  name: "inception_4c/relu_3x3"
  type: "ReLU"
  bottom: "inception_4c/3x3"
  top: "inception_4c/3x3"
}
layer {
  name: "inception_4c/5x5_reduce"
  type: "Convolution"
  bottom: "inception_4b/output"
  top: "inception_4c/5x5_reduce"
  param {
    lr_mult: 1
    decay_mult: 1
  }
  param {
    lr_mult: 2
    decay_mult: 0
  }
  convolution_param {
    num_output: 24
    kernel_size: 1
    weight_filler {
      type: "xavier"
      std: 0.2
    }
    bias_filler {
      type: "constant"
      value: 0.2
    }
  }
}
layer {
  name: "inception_4c/relu_5x5_reduce"
  type: "ReLU"
  bottom: "inception_4c/5x5_reduce"
  top: "inception_4c/5x5_reduce"
}
layer {
  name: "inception_4c/5x5"
  type: "Convolution"
  bottom: "inception_4c/5x5_reduce"
  top: "inception_4c/5x5"
  param {
    lr_mult: 1
    decay_mult: 1
  }
  param {
    lr_mult: 2
    decay_mult: 0
  }
  convolution_param {
    num_output: 64
    pad: 2
    kernel_size: 5
    weight_filler {
      type: "xavier"
      std: 0.03
    }
    bias_filler {
      type: "constant"
      value: 0.2
    }
  }
}
layer {
  name: "inception_4c/relu_5x5"
  type: "ReLU"
  bottom: "inception_4c/5x5"
  top: "inception_4c/5x5"
}
layer {
  name: "inception_4c/pool"
  type: "Pooling"
  bottom: "inception_4b/output"
  top: "inception_4c/pool"
  pooling_param {
    pool: MAX
    kernel_size: 3
    stride: 1
    pad: 1
  }
}
layer {
  name: "inception_4c/pool_proj"
  type: "Convolution"
  bottom: "inception_4c/pool"
  top: "inception_4c/pool_proj"
  param {
    lr_mult: 1
    decay_mult: 1
  }
  param {
    lr_mult: 2
    decay_mult: 0
  }
  convolution_param {
    num_output: 64
    kernel_size: 1
    weight_filler {
      type: "xavier"
      std: 0.1
    }
    bias_filler {
      type: "constant"
      value: 0.2
    }
  }
}
layer {
  name: "inception_4c/relu_pool_proj"
  type: "ReLU"
  bottom: "inception_4c/pool_proj"
  top: "inception_4c/pool_proj"
}
layer {
  name: "inception_4c/output"
  type: "Concat"
  bottom: "inception_4c/1x1"
  bottom: "inception_4c/3x3"
  bottom: "inception_4c/5x5"
  bottom: "inception_4c/pool_proj"
  top: "inception_4c/output"
}
layer {
  name: "inception_4d/1x1"
  type: "Convolution"
  bottom: "inception_4c/output"
  top: "inception_4d/1x1"
  param {
    lr_mult: 1
    decay_mult: 1
  }
  param {
    lr_mult: 2
    decay_mult: 0
  }
  convolution_param {
    num_output: 112
    kernel_size: 1
    weight_filler {
      type: "xavier"
      std: 0.03
    }
    bias_filler {
      type: "constant"
      value: 0.2
    }
  }
}
layer {
  name: "inception_4d/relu_1x1"
  type: "ReLU"
  bottom: "inception_4d/1x1"
  top: "inception_4d/1x1"
}
layer {
  name: "inception_4d/3x3_reduce"
  type: "Convolution"
  bottom: "inception_4c/output"
  top: "inception_4d/3x3_reduce"
  param {
    lr_mult: 1
    decay_mult: 1
  }
  param {
    lr_mult: 2
    decay_mult: 0
  }
  convolution_param {
    num_output: 144
    kernel_size: 1
    weight_filler {
      type: "xavier"
      std: 0.09
    }
    bias_filler {
      type: "constant"
      value: 0.2
    }
  }
}
layer {
  name: "inception_4d/relu_3x3_reduce"
  type: "ReLU"
  bottom: "inception_4d/3x3_reduce"
  top: "inception_4d/3x3_reduce"
}
layer {
  name: "inception_4d/3x3"
  type: "Convolution"
  bottom: "inception_4d/3x3_reduce"
  top: "inception_4d/3x3"
  param {
    lr_mult: 1
    decay_mult: 1
  }
  param {
    lr_mult: 2
    decay_mult: 0
  }
  convolution_param {
    num_output: 288
    pad: 1
    kernel_size: 3
    weight_filler {
      type: "xavier"
      std: 0.03
    }
    bias_filler {
      type: "constant"
      value: 0.2
    }
  }
}
layer {
  name: "inception_4d/relu_3x3"
  type: "ReLU"
  bottom: "inception_4d/3x3"
  top: "inception_4d/3x3"
}
layer {
  name: "inception_4d/5x5_reduce"
  type: "Convolution"
  bottom: "inception_4c/output"
  top: "inception_4d/5x5_reduce"
  param {
    lr_mult: 1
    decay_mult: 1
  }
  param {
    lr_mult: 2
    decay_mult: 0
  }
  convolution_param {
    num_output: 32
    kernel_size: 1
    weight_filler {
      type: "xavier"
      std: 0.2
    }
    bias_filler {
      type: "constant"
      value: 0.2
    }
  }
}
layer {
  name: "inception_4d/relu_5x5_reduce"
  type: "ReLU"
  bottom: "inception_4d/5x5_reduce"
  top: "inception_4d/5x5_reduce"
}
layer {
  name: "inception_4d/5x5"
  type: "Convolution"
  bottom: "inception_4d/5x5_reduce"
  top: "inception_4d/5x5"
  param {
    lr_mult: 1
    decay_mult: 1
  }
  param {
    lr_mult: 2
    decay_mult: 0
  }
  convolution_param {
    num_output: 64
    pad: 2
    kernel_size: 5
    weight_filler {
      type: "xavier"
      std: 0.03
    }
    bias_filler {
      type: "constant"
      value: 0.2
    }
  }
}
layer {
  name: "inception_4d/relu_5x5"
  type: "ReLU"
  bottom: "inception_4d/5x5"
  top: "inception_4d/5x5"
}
layer {
  name: "inception_4d/pool"
  type: "Pooling"
  bottom: "inception_4c/output"
  top: "inception_4d/pool"
  pooling_param {
    pool: MAX
    kernel_size: 3
    stride: 1
    pad: 1
  }
}
layer {
  name: "inception_4d/pool_proj"
  type: "Convolution"
  bottom: "inception_4d/pool"
  top: "inception_4d/pool_proj"
  param {
    lr_mult: 1
    decay_mult: 1
  }
  param {
    lr_mult: 2
    decay_mult: 0
  }
  convolution_param {
    num_output: 64
    kernel_size: 1
    weight_filler {
      type: "xavier"
      std: 0.1
    }
    bias_filler {
      type: "constant"
      value: 0.2
    }
  }
}
layer {
  name: "inception_4d/relu_pool_proj"
  type: "ReLU"
  bottom: "inception_4d/pool_proj"
  top: "inception_4d/pool_proj"
}
layer {
  name: "inception_4d/output"
  type: "Concat"
  bottom: "inception_4d/1x1"
  bottom: "inception_4d/3x3"
  bottom: "inception_4d/5x5"
  bottom: "inception_4d/pool_proj"
  top: "inception_4d/output"
}
layer {
  name: "loss2/ave_pool"
  type: "Pooling"
  bottom: "inception_4d/output"
  top: "loss2/ave_pool"
  pooling_param {
    pool: AVE
    kernel_size: 5
    stride: 3
  }
}
layer {
  name: "loss2/conv"
  type: "Convolution"
  bottom: "loss2/ave_pool"
  top: "loss2/conv"
  param {
    lr_mult: 1
    decay_mult: 1
  }
  param {
    lr_mult: 2
    decay_mult: 0
  }
  convolution_param {
    num_output: 128
    kernel_size: 1
    weight_filler {
      type: "xavier"
      std: 0.08
    }
    bias_filler {
      type: "constant"
      value: 0.2
    }
  }
}
layer {
  name: "loss2/relu_conv"
  type: "ReLU"
  bottom: "loss2/conv"
  top: "loss2/conv"
}
layer {
  name: "loss2/fc"
  type: "InnerProduct"
  bottom: "loss2/conv"
  top: "loss2/fc"
  param {
    lr_mult: 1
    decay_mult: 1
  }
  param {
    lr_mult: 2
    decay_mult: 0
  }
  inner_product_param {
    num_output: 1024
    weight_filler {
      type: "xavier"
      std: 0.02
    }
    bias_filler {
      type: "constant"
      value: 0.2
    }
  }
}
layer {
  name: "loss2/relu_fc"
  type: "ReLU"
  bottom: "loss2/fc"
  top: "loss2/fc"
}
layer {
  name: "loss2/drop_fc"
  type: "Dropout"
  bottom: "loss2/fc"
  top: "loss2/fc"
  dropout_param {
    dropout_ratio: 0.7
  }
}
layer {
  name: "loss2/classifier_plantvillage"
  type: "InnerProduct"
  bottom: "loss2/fc"
  top: "loss2/classifier_plantvillage"
  param {
    lr_mult: 1
    decay_mult: 1
  }
  param {
    lr_mult: 2
    decay_mult: 0
  }
  inner_product_param {
    num_output: 38
    weight_filler {
      type: "xavier"
      std: 0.0009765625
    }
    bias_filler {
      type: "constant"
      value: 0
    }
  }
}
layer {
  name: "inception_4e/1x1"
  type: "Convolution"
  bottom: "inception_4d/output"
  top: "inception_4e/1x1"
  param {
    lr_mult: 1
    decay_mult: 1
  }
  param {
    lr_mult: 2
    decay_mult: 0
  }
  convolution_param {
    num_output: 256
    kernel_size: 1
    weight_filler {
      type: "xavier"
      std: 0.03
    }
    bias_filler {
      type: "constant"
      value: 0.2
    }
  }
}
layer {
  name: "inception_4e/relu_1x1"
  type: "ReLU"
  bottom: "inception_4e/1x1"
  top: "inception_4e/1x1"
}
layer {
  name: "inception_4e/3x3_reduce"
  type: "Convolution"
  bottom: "inception_4d/output"
  top: "inception_4e/3x3_reduce"
  param {
    lr_mult: 1
    decay_mult: 1
  }
  param {
    lr_mult: 2
    decay_mult: 0
  }
  convolution_param {
    num_output: 160
    kernel_size: 1
    weight_filler {
      type: "xavier"
      std: 0.09
    }
    bias_filler {
      type: "constant"
      value: 0.2
    }
  }
}
layer {
  name: "inception_4e/relu_3x3_reduce"
  type: "ReLU"
  bottom: "inception_4e/3x3_reduce"
  top: "inception_4e/3x3_reduce"
}
layer {
  name: "inception_4e/3x3"
  type: "Convolution"
  bottom: "inception_4e/3x3_reduce"
  top: "inception_4e/3x3"
  param {
    lr_mult: 1
    decay_mult: 1
  }
  param {
    lr_mult: 2
    decay_mult: 0
  }
  convolution_param {
    num_output: 320
    pad: 1
    kernel_size: 3
    weight_filler {
      type: "xavier"
      std: 0.03
    }
    bias_filler {
      type: "constant"
      value: 0.2
    }
  }
}
layer {
  name: "inception_4e/relu_3x3"
  type: "ReLU"
  bottom: "inception_4e/3x3"
  top: "inception_4e/3x3"
}
layer {
  name: "inception_4e/5x5_reduce"
  type: "Convolution"
  bottom: "inception_4d/output"
  top: "inception_4e/5x5_reduce"
  param {
    lr_mult: 1
    decay_mult: 1
  }
  param {
    lr_mult: 2
    decay_mult: 0
  }
  convolution_param {
    num_output: 32
    kernel_size: 1
    weight_filler {
      type: "xavier"
      std: 0.2
    }
    bias_filler {
      type: "constant"
      value: 0.2
    }
  }
}
layer {
  name: "inception_4e/relu_5x5_reduce"
  type: "ReLU"
  bottom: "inception_4e/5x5_reduce"
  top: "inception_4e/5x5_reduce"
}
layer {
  name: "inception_4e/5x5"
  type: "Convolution"
  bottom: "inception_4e/5x5_reduce"
  top: "inception_4e/
I0403 15:49:02.470859 20293 layer_factory.hpp:77] Creating layer data
I0403 15:49:02.471473 20293 net.cpp:91] Creating Layer data
I0403 15:49:02.471505 20293 net.cpp:399] data -> data
I0403 15:49:02.471557 20293 net.cpp:399] data -> label
I0403 15:49:02.471595 20293 data_transformer.cpp:25] Loading mean file from: /home/mohanty/data/final_dataset/lmdb/grayscale-40-60/mean.binaryproto
I0403 15:49:02.475684 20298 db_lmdb.cpp:38] Opened lmdb /home/mohanty/data/final_dataset/lmdb/grayscale-40-60/test_db
I0403 15:49:02.485275 20293 data_layer.cpp:41] output data size: 24,3,224,224
I0403 15:49:02.515892 20293 net.cpp:141] Setting up data
I0403 15:49:02.515987 20293 net.cpp:148] Top shape: 24 3 224 224 (3612672)
I0403 15:49:02.516012 20293 net.cpp:148] Top shape: 24 (24)
I0403 15:49:02.516029 20293 net.cpp:156] Memory required for data: 14450784
I0403 15:49:02.516057 20293 layer_factory.hpp:77] Creating layer label_data_1_split
I0403 15:49:02.516083 20293 net.cpp:91] Creating Layer label_data_1_split
I0403 15:49:02.516103 20293 net.cpp:425] label_data_1_split <- label
I0403 15:49:02.516135 20293 net.cpp:399] label_data_1_split -> label_data_1_split_0
I0403 15:49:02.516165 20293 net.cpp:399] label_data_1_split -> label_data_1_split_1
I0403 15:49:02.516185 20293 net.cpp:399] label_data_1_split -> label_data_1_split_2
I0403 15:49:02.516207 20293 net.cpp:399] label_data_1_split -> label_data_1_split_3
I0403 15:49:02.516227 20293 net.cpp:399] label_data_1_split -> label_data_1_split_4
I0403 15:49:02.516247 20293 net.cpp:399] label_data_1_split -> label_data_1_split_5
I0403 15:49:02.516268 20293 net.cpp:399] label_data_1_split -> label_data_1_split_6
I0403 15:49:02.516288 20293 net.cpp:399] label_data_1_split -> label_data_1_split_7
I0403 15:49:02.516307 20293 net.cpp:399] label_data_1_split -> label_data_1_split_8
I0403 15:49:02.516329 20293 net.cpp:399] label_data_1_split -> label_data_1_split_9
I0403 15:49:02.516446 20293 net.cpp:141] Setting up label_data_1_split
I0403 15:49:02.516470 20293 net.cpp:148] Top shape: 24 (24)
I0403 15:49:02.516487 20293 net.cpp:148] Top shape: 24 (24)
I0403 15:49:02.516505 20293 net.cpp:148] Top shape: 24 (24)
I0403 15:49:02.516520 20293 net.cpp:148] Top shape: 24 (24)
I0403 15:49:02.516535 20293 net.cpp:148] Top shape: 24 (24)
I0403 15:49:02.516551 20293 net.cpp:148] Top shape: 24 (24)
I0403 15:49:02.516566 20293 net.cpp:148] Top shape: 24 (24)
I0403 15:49:02.516582 20293 net.cpp:148] Top shape: 24 (24)
I0403 15:49:02.516597 20293 net.cpp:148] Top shape: 24 (24)
I0403 15:49:02.516613 20293 net.cpp:148] Top shape: 24 (24)
I0403 15:49:02.516659 20293 net.cpp:156] Memory required for data: 14451744
I0403 15:49:02.516676 20293 layer_factory.hpp:77] Creating layer conv1/7x7_s2
I0403 15:49:02.516708 20293 net.cpp:91] Creating Layer conv1/7x7_s2
I0403 15:49:02.516727 20293 net.cpp:425] conv1/7x7_s2 <- data
I0403 15:49:02.516747 20293 net.cpp:399] conv1/7x7_s2 -> conv1/7x7_s2
I0403 15:49:02.670146 20293 net.cpp:141] Setting up conv1/7x7_s2
I0403 15:49:02.670191 20293 net.cpp:148] Top shape: 24 64 112 112 (19267584)
I0403 15:49:02.670209 20293 net.cpp:156] Memory required for data: 91522080
I0403 15:49:02.670241 20293 layer_factory.hpp:77] Creating layer conv1/relu_7x7
I0403 15:49:02.670269 20293 net.cpp:91] Creating Layer conv1/relu_7x7
I0403 15:49:02.670289 20293 net.cpp:425] conv1/relu_7x7 <- conv1/7x7_s2
I0403 15:49:02.670307 20293 net.cpp:386] conv1/relu_7x7 -> conv1/7x7_s2 (in-place)
I0403 15:49:02.670583 20293 net.cpp:141] Setting up conv1/relu_7x7
I0403 15:49:02.670611 20293 net.cpp:148] Top shape: 24 64 112 112 (19267584)
I0403 15:49:02.670627 20293 net.cpp:156] Memory required for data: 168592416
I0403 15:49:02.670644 20293 layer_factory.hpp:77] Creating layer pool1/3x3_s2
I0403 15:49:02.670670 20293 net.cpp:91] Creating Layer pool1/3x3_s2
I0403 15:49:02.670687 20293 net.cpp:425] pool1/3x3_s2 <- conv1/7x7_s2
I0403 15:49:02.670706 20293 net.cpp:399] pool1/3x3_s2 -> pool1/3x3_s2
I0403 15:49:02.670783 20293 net.cpp:141] Setting up pool1/3x3_s2
I0403 15:49:02.670809 20293 net.cpp:148] Top shape: 24 64 56 56 (4816896)
I0403 15:49:02.670825 20293 net.cpp:156] Memory required for data: 187860000
I0403 15:49:02.670840 20293 layer_factory.hpp:77] Creating layer pool1/norm1
I0403 15:49:02.670866 20293 net.cpp:91] Creating Layer pool1/norm1
I0403 15:49:02.670883 20293 net.cpp:425] pool1/norm1 <- pool1/3x3_s2
I0403 15:49:02.670902 20293 net.cpp:399] pool1/norm1 -> pool1/norm1
I0403 15:49:02.671211 20293 net.cpp:141] Setting up pool1/norm1
I0403 15:49:02.671238 20293 net.cpp:148] Top shape: 24 64 56 56 (4816896)
I0403 15:49:02.671254 20293 net.cpp:156] Memory required for data: 207127584
I0403 15:49:02.671270 20293 layer_factory.hpp:77] Creating layer conv2/3x3_reduce
I0403 15:49:02.671295 20293 net.cpp:91] Creating Layer conv2/3x3_reduce
I0403 15:49:02.671313 20293 net.cpp:425] conv2/3x3_reduce <- pool1/norm1
I0403 15:49:02.671331 20293 net.cpp:399] conv2/3x3_reduce -> conv2/3x3_reduce
I0403 15:49:02.672762 20293 net.cpp:141] Setting up conv2/3x3_reduce
I0403 15:49:02.672793 20293 net.cpp:148] Top shape: 24 64 56 56 (4816896)
I0403 15:49:02.672809 20293 net.cpp:156] Memory required for data: 226395168
I0403 15:49:02.672832 20293 layer_factory.hpp:77] Creating layer conv2/relu_3x3_reduce
I0403 15:49:02.672852 20293 net.cpp:91] Creating Layer conv2/relu_3x3_reduce
I0403 15:49:02.672868 20293 net.cpp:425] conv2/relu_3x3_reduce <- conv2/3x3_reduce
I0403 15:49:02.672886 20293 net.cpp:386] conv2/relu_3x3_reduce -> conv2/3x3_reduce (in-place)
I0403 15:49:02.673179 20293 net.cpp:141] Setting up conv2/relu_3x3_reduce
I0403 15:49:02.673210 20293 net.cpp:148] Top shape: 24 64 56 56 (4816896)
I0403 15:49:02.673228 20293 net.cpp:156] Memory required for data: 245662752
I0403 15:49:02.673243 20293 layer_factory.hpp:77] Creating layer conv2/3x3
I0403 15:49:02.673269 20293 net.cpp:91] Creating Layer conv2/3x3
I0403 15:49:02.673288 20293 net.cpp:425] conv2/3x3 <- conv2/3x3_reduce
I0403 15:49:02.673308 20293 net.cpp:399] conv2/3x3 -> conv2/3x3
I0403 15:49:02.675880 20293 net.cpp:141] Setting up conv2/3x3
I0403 15:49:02.675915 20293 net.cpp:148] Top shape: 24 192 56 56 (14450688)
I0403 15:49:02.675935 20293 net.cpp:156] Memory required for data: 303465504
I0403 15:49:02.675962 20293 layer_factory.hpp:77] Creating layer conv2/relu_3x3
I0403 15:49:02.675984 20293 net.cpp:91] Creating Layer conv2/relu_3x3
I0403 15:49:02.676000 20293 net.cpp:425] conv2/relu_3x3 <- conv2/3x3
I0403 15:49:02.676018 20293 net.cpp:386] conv2/relu_3x3 -> conv2/3x3 (in-place)
I0403 15:49:02.676206 20293 net.cpp:141] Setting up conv2/relu_3x3
I0403 15:49:02.676234 20293 net.cpp:148] Top shape: 24 192 56 56 (14450688)
I0403 15:49:02.676283 20293 net.cpp:156] Memory required for data: 361268256
I0403 15:49:02.676301 20293 layer_factory.hpp:77] Creating layer conv2/norm2
I0403 15:49:02.676321 20293 net.cpp:91] Creating Layer conv2/norm2
I0403 15:49:02.676342 20293 net.cpp:425] conv2/norm2 <- conv2/3x3
I0403 15:49:02.676360 20293 net.cpp:399] conv2/norm2 -> conv2/norm2
I0403 15:49:02.676682 20293 net.cpp:141] Setting up conv2/norm2
I0403 15:49:02.676710 20293 net.cpp:148] Top shape: 24 192 56 56 (14450688)
I0403 15:49:02.676726 20293 net.cpp:156] Memory required for data: 419071008
I0403 15:49:02.676741 20293 layer_factory.hpp:77] Creating layer pool2/3x3_s2
I0403 15:49:02.676762 20293 net.cpp:91] Creating Layer pool2/3x3_s2
I0403 15:49:02.676780 20293 net.cpp:425] pool2/3x3_s2 <- conv2/norm2
I0403 15:49:02.676798 20293 net.cpp:399] pool2/3x3_s2 -> pool2/3x3_s2
I0403 15:49:02.676856 20293 net.cpp:141] Setting up pool2/3x3_s2
I0403 15:49:02.676882 20293 net.cpp:148] Top shape: 24 192 28 28 (3612672)
I0403 15:49:02.676897 20293 net.cpp:156] Memory required for data: 433521696
I0403 15:49:02.676911 20293 layer_factory.hpp:77] Creating layer pool2/3x3_s2_pool2/3x3_s2_0_split
I0403 15:49:02.676930 20293 net.cpp:91] Creating Layer pool2/3x3_s2_pool2/3x3_s2_0_split
I0403 15:49:02.676946 20293 net.cpp:425] pool2/3x3_s2_pool2/3x3_s2_0_split <- pool2/3x3_s2
I0403 15:49:02.676975 20293 net.cpp:399] pool2/3x3_s2_pool2/3x3_s2_0_split -> pool2/3x3_s2_pool2/3x3_s2_0_split_0
I0403 15:49:02.676997 20293 net.cpp:399] pool2/3x3_s2_pool2/3x3_s2_0_split -> pool2/3x3_s2_pool2/3x3_s2_0_split_1
I0403 15:49:02.677018 20293 net.cpp:399] pool2/3x3_s2_pool2/3x3_s2_0_split -> pool2/3x3_s2_pool2/3x3_s2_0_split_2
I0403 15:49:02.677038 20293 net.cpp:399] pool2/3x3_s2_pool2/3x3_s2_0_split -> pool2/3x3_s2_pool2/3x3_s2_0_split_3
I0403 15:49:02.677111 20293 net.cpp:141] Setting up pool2/3x3_s2_pool2/3x3_s2_0_split
I0403 15:49:02.677139 20293 net.cpp:148] Top shape: 24 192 28 28 (3612672)
I0403 15:49:02.677156 20293 net.cpp:148] Top shape: 24 192 28 28 (3612672)
I0403 15:49:02.677175 20293 net.cpp:148] Top shape: 24 192 28 28 (3612672)
I0403 15:49:02.677191 20293 net.cpp:148] Top shape: 24 192 28 28 (3612672)
I0403 15:49:02.677206 20293 net.cpp:156] Memory required for data: 491324448
I0403 15:49:02.677220 20293 layer_factory.hpp:77] Creating layer inception_3a/1x1
I0403 15:49:02.677247 20293 net.cpp:91] Creating Layer inception_3a/1x1
I0403 15:49:02.677264 20293 net.cpp:425] inception_3a/1x1 <- pool2/3x3_s2_pool2/3x3_s2_0_split_0
I0403 15:49:02.677284 20293 net.cpp:399] inception_3a/1x1 -> inception_3a/1x1
I0403 15:49:02.678932 20293 net.cpp:141] Setting up inception_3a/1x1
I0403 15:49:02.678977 20293 net.cpp:148] Top shape: 24 64 28 28 (1204224)
I0403 15:49:02.678997 20293 net.cpp:156] Memory required for data: 496141344
I0403 15:49:02.679018 20293 layer_factory.hpp:77] Creating layer inception_3a/relu_1x1
I0403 15:49:02.679039 20293 net.cpp:91] Creating Layer inception_3a/relu_1x1
I0403 15:49:02.679056 20293 net.cpp:425] inception_3a/relu_1x1 <- inception_3a/1x1
I0403 15:49:02.679075 20293 net.cpp:386] inception_3a/relu_1x1 -> inception_3a/1x1 (in-place)
I0403 15:49:02.679306 20293 net.cpp:141] Setting up inception_3a/relu_1x1
I0403 15:49:02.679337 20293 net.cpp:148] Top shape: 24 64 28 28 (1204224)
I0403 15:49:02.679353 20293 net.cpp:156] Memory required for data: 500958240
I0403 15:49:02.679369 20293 layer_factory.hpp:77] Creating layer inception_3a/3x3_reduce
I0403 15:49:02.679394 20293 net.cpp:91] Creating Layer inception_3a/3x3_reduce
I0403 15:49:02.679411 20293 net.cpp:425] inception_3a/3x3_reduce <- pool2/3x3_s2_pool2/3x3_s2_0_split_1
I0403 15:49:02.679431 20293 net.cpp:399] inception_3a/3x3_reduce -> inception_3a/3x3_reduce
I0403 15:49:02.681257 20293 net.cpp:141] Setting up inception_3a/3x3_reduce
I0403 15:49:02.681289 20293 net.cpp:148] Top shape: 24 96 28 28 (1806336)
I0403 15:49:02.681308 20293 net.cpp:156] Memory required for data: 508183584
I0403 15:49:02.681334 20293 layer_factory.hpp:77] Creating layer inception_3a/relu_3x3_reduce
I0403 15:49:02.681371 20293 net.cpp:91] Creating Layer inception_3a/relu_3x3_reduce
I0403 15:49:02.681390 20293 net.cpp:425] inception_3a/relu_3x3_reduce <- inception_3a/3x3_reduce
I0403 15:49:02.681408 20293 net.cpp:386] inception_3a/relu_3x3_reduce -> inception_3a/3x3_reduce (in-place)
I0403 15:49:02.681603 20293 net.cpp:141] Setting up inception_3a/relu_3x3_reduce
I0403 15:49:02.681632 20293 net.cpp:148] Top shape: 24 96 28 28 (1806336)
I0403 15:49:02.681646 20293 net.cpp:156] Memory required for data: 515408928
I0403 15:49:02.681663 20293 layer_factory.hpp:77] Creating layer inception_3a/3x3
I0403 15:49:02.681687 20293 net.cpp:91] Creating Layer inception_3a/3x3
I0403 15:49:02.681707 20293 net.cpp:425] inception_3a/3x3 <- inception_3a/3x3_reduce
I0403 15:49:02.681730 20293 net.cpp:399] inception_3a/3x3 -> inception_3a/3x3
I0403 15:49:02.683522 20293 net.cpp:141] Setting up inception_3a/3x3
I0403 15:49:02.683553 20293 net.cpp:148] Top shape: 24 128 28 28 (2408448)
I0403 15:49:02.683570 20293 net.cpp:156] Memory required for data: 525042720
I0403 15:49:02.683589 20293 layer_factory.hpp:77] Creating layer inception_3a/relu_3x3
I0403 15:49:02.683611 20293 net.cpp:91] Creating Layer inception_3a/relu_3x3
I0403 15:49:02.683629 20293 net.cpp:425] inception_3a/relu_3x3 <- inception_3a/3x3
I0403 15:49:02.683647 20293 net.cpp:386] inception_3a/relu_3x3 -> inception_3a/3x3 (in-place)
I0403 15:49:02.683941 20293 net.cpp:141] Setting up inception_3a/relu_3x3
I0403 15:49:02.683974 20293 net.cpp:148] Top shape: 24 128 28 28 (2408448)
I0403 15:49:02.683991 20293 net.cpp:156] Memory required for data: 534676512
I0403 15:49:02.684007 20293 layer_factory.hpp:77] Creating layer inception_3a/5x5_reduce
I0403 15:49:02.684036 20293 net.cpp:91] Creating Layer inception_3a/5x5_reduce
I0403 15:49:02.684056 20293 net.cpp:425] inception_3a/5x5_reduce <- pool2/3x3_s2_pool2/3x3_s2_0_split_2
I0403 15:49:02.684074 20293 net.cpp:399] inception_3a/5x5_reduce -> inception_3a/5x5_reduce
I0403 15:49:02.685144 20293 net.cpp:141] Setting up inception_3a/5x5_reduce
I0403 15:49:02.685176 20293 net.cpp:148] Top shape: 24 16 28 28 (301056)
I0403 15:49:02.685194 20293 net.cpp:156] Memory required for data: 535880736
I0403 15:49:02.685214 20293 layer_factory.hpp:77] Creating layer inception_3a/relu_5x5_reduce
I0403 15:49:02.685232 20293 net.cpp:91] Creating Layer inception_3a/relu_5x5_reduce
I0403 15:49:02.685250 20293 net.cpp:425] inception_3a/relu_5x5_reduce <- inception_3a/5x5_reduce
I0403 15:49:02.685273 20293 net.cpp:386] inception_3a/relu_5x5_reduce -> inception_3a/5x5_reduce (in-place)
I0403 15:49:02.685591 20293 net.cpp:141] Setting up inception_3a/relu_5x5_reduce
I0403 15:49:02.685623 20293 net.cpp:148] Top shape: 24 16 28 28 (301056)
I0403 15:49:02.685639 20293 net.cpp:156] Memory required for data: 537084960
I0403 15:49:02.685657 20293 layer_factory.hpp:77] Creating layer inception_3a/5x5
I0403 15:49:02.685680 20293 net.cpp:91] Creating Layer inception_3a/5x5
I0403 15:49:02.685698 20293 net.cpp:425] inception_3a/5x5 <- inception_3a/5x5_reduce
I0403 15:49:02.685719 20293 net.cpp:399] inception_3a/5x5 -> inception_3a/5x5
I0403 15:49:02.686847 20293 net.cpp:141] Setting up inception_3a/5x5
I0403 15:49:02.686877 20293 net.cpp:148] Top shape: 24 32 28 28 (602112)
I0403 15:49:02.686893 20293 net.cpp:156] Memory required for data: 539493408
I0403 15:49:02.686913 20293 layer_factory.hpp:77] Creating layer inception_3a/relu_5x5
I0403 15:49:02.686934 20293 net.cpp:91] Creating Layer inception_3a/relu_5x5
I0403 15:49:02.686952 20293 net.cpp:425] inception_3a/relu_5x5 <- inception_3a/5x5
I0403 15:49:02.686977 20293 net.cpp:386] inception_3a/relu_5x5 -> inception_3a/5x5 (in-place)
I0403 15:49:02.687162 20293 net.cpp:141] Setting up inception_3a/relu_5x5
I0403 15:49:02.687191 20293 net.cpp:148] Top shape: 24 32 28 28 (602112)
I0403 15:49:02.687208 20293 net.cpp:156] Memory required for data: 541901856
I0403 15:49:02.687224 20293 layer_factory.hpp:77] Creating layer inception_3a/pool
I0403 15:49:02.687244 20293 net.cpp:91] Creating Layer inception_3a/pool
I0403 15:49:02.687276 20293 net.cpp:425] inception_3a/pool <- pool2/3x3_s2_pool2/3x3_s2_0_split_3
I0403 15:49:02.687299 20293 net.cpp:399] inception_3a/pool -> inception_3a/pool
I0403 15:49:02.687361 20293 net.cpp:141] Setting up inception_3a/pool
I0403 15:49:02.687386 20293 net.cpp:148] Top shape: 24 192 28 28 (3612672)
I0403 15:49:02.687402 20293 net.cpp:156] Memory required for data: 556352544
I0403 15:49:02.687417 20293 layer_factory.hpp:77] Creating layer inception_3a/pool_proj
I0403 15:49:02.687441 20293 net.cpp:91] Creating Layer inception_3a/pool_proj
I0403 15:49:02.687459 20293 net.cpp:425] inception_3a/pool_proj <- inception_3a/pool
I0403 15:49:02.687482 20293 net.cpp:399] inception_3a/pool_proj -> inception_3a/pool_proj
I0403 15:49:02.688558 20293 net.cpp:141] Setting up inception_3a/pool_proj
I0403 15:49:02.688588 20293 net.cpp:148] Top shape: 24 32 28 28 (602112)
I0403 15:49:02.688606 20293 net.cpp:156] Memory required for data: 558760992
I0403 15:49:02.688633 20293 layer_factory.hpp:77] Creating layer inception_3a/relu_pool_proj
I0403 15:49:02.688654 20293 net.cpp:91] Creating Layer inception_3a/relu_pool_proj
I0403 15:49:02.688673 20293 net.cpp:425] inception_3a/relu_pool_proj <- inception_3a/pool_proj
I0403 15:49:02.688694 20293 net.cpp:386] inception_3a/relu_pool_proj -> inception_3a/pool_proj (in-place)
I0403 15:49:02.689000 20293 net.cpp:141] Setting up inception_3a/relu_pool_proj
I0403 15:49:02.689030 20293 net.cpp:148] Top shape: 24 32 28 28 (602112)
I0403 15:49:02.689048 20293 net.cpp:156] Memory required for data: 561169440
I0403 15:49:02.689062 20293 layer_factory.hpp:77] Creating layer inception_3a/output
I0403 15:49:02.689085 20293 net.cpp:91] Creating Layer inception_3a/output
I0403 15:49:02.689102 20293 net.cpp:425] inception_3a/output <- inception_3a/1x1
I0403 15:49:02.689121 20293 net.cpp:425] inception_3a/output <- inception_3a/3x3
I0403 15:49:02.689137 20293 net.cpp:425] inception_3a/output <- inception_3a/5x5
I0403 15:49:02.689154 20293 net.cpp:425] inception_3a/output <- inception_3a/pool_proj
I0403 15:49:02.689172 20293 net.cpp:399] inception_3a/output -> inception_3a/output
I0403 15:49:02.689224 20293 net.cpp:141] Setting up inception_3a/output
I0403 15:49:02.689250 20293 net.cpp:148] Top shape: 24 256 28 28 (4816896)
I0403 15:49:02.689266 20293 net.cpp:156] Memory required for data: 580437024
I0403 15:49:02.689281 20293 layer_factory.hpp:77] Creating layer inception_3a/output_inception_3a/output_0_split
I0403 15:49:02.689299 20293 net.cpp:91] Creating Layer inception_3a/output_inception_3a/output_0_split
I0403 15:49:02.689316 20293 net.cpp:425] inception_3a/output_inception_3a/output_0_split <- inception_3a/output
I0403 15:49:02.689335 20293 net.cpp:399] inception_3a/output_inception_3a/output_0_split -> inception_3a/output_inception_3a/output_0_split_0
I0403 15:49:02.689357 20293 net.cpp:399] inception_3a/output_inception_3a/output_0_split -> inception_3a/output_inception_3a/output_0_split_1
I0403 15:49:02.689385 20293 net.cpp:399] inception_3a/output_inception_3a/output_0_split -> inception_3a/output_inception_3a/output_0_split_2
I0403 15:49:02.689409 20293 net.cpp:399] inception_3a/output_inception_3a/output_0_split -> inception_3a/output_inception_3a/output_0_split_3
I0403 15:49:02.689487 20293 net.cpp:141] Setting up inception_3a/output_inception_3a/output_0_split
I0403 15:49:02.689512 20293 net.cpp:148] Top shape: 24 256 28 28 (4816896)
I0403 15:49:02.689532 20293 net.cpp:148] Top shape: 24 256 28 28 (4816896)
I0403 15:49:02.689549 20293 net.cpp:148] Top shape: 24 256 28 28 (4816896)
I0403 15:49:02.689568 20293 net.cpp:148] Top shape: 24 256 28 28 (4816896)
I0403 15:49:02.689581 20293 net.cpp:156] Memory required for data: 657507360
I0403 15:49:02.689597 20293 layer_factory.hpp:77] Creating layer inception_3b/1x1
I0403 15:49:02.689617 20293 net.cpp:91] Creating Layer inception_3b/1x1
I0403 15:49:02.689635 20293 net.cpp:425] inception_3b/1x1 <- inception_3a/output_inception_3a/output_0_split_0
I0403 15:49:02.689656 20293 net.cpp:399] inception_3b/1x1 -> inception_3b/1x1
I0403 15:49:02.690927 20293 net.cpp:141] Setting up inception_3b/1x1
I0403 15:49:02.690973 20293 net.cpp:148] Top shape: 24 128 28 28 (2408448)
I0403 15:49:02.690991 20293 net.cpp:156] Memory required for data: 667141152
I0403 15:49:02.691011 20293 layer_factory.hpp:77] Creating layer inception_3b/relu_1x1
I0403 15:49:02.691035 20293 net.cpp:91] Creating Layer inception_3b/relu_1x1
I0403 15:49:02.691052 20293 net.cpp:425] inception_3b/relu_1x1 <- inception_3b/1x1
I0403 15:49:02.691071 20293 net.cpp:386] inception_3b/relu_1x1 -> inception_3b/1x1 (in-place)
I0403 15:49:02.691259 20293 net.cpp:141] Setting up inception_3b/relu_1x1
I0403 15:49:02.691287 20293 net.cpp:148] Top shape: 24 128 28 28 (2408448)
I0403 15:49:02.691301 20293 net.cpp:156] Memory required for data: 676774944
I0403 15:49:02.691318 20293 layer_factory.hpp:77] Creating layer inception_3b/3x3_reduce
I0403 15:49:02.691342 20293 net.cpp:91] Creating Layer inception_3b/3x3_reduce
I0403 15:49:02.691360 20293 net.cpp:425] inception_3b/3x3_reduce <- inception_3a/output_inception_3a/output_0_split_1
I0403 15:49:02.691380 20293 net.cpp:399] inception_3b/3x3_reduce -> inception_3b/3x3_reduce
I0403 15:49:02.692626 20293 net.cpp:141] Setting up inception_3b/3x3_reduce
I0403 15:49:02.692656 20293 net.cpp:148] Top shape: 24 128 28 28 (2408448)
I0403 15:49:02.692672 20293 net.cpp:156] Memory required for data: 686408736
I0403 15:49:02.692692 20293 layer_factory.hpp:77] Creating layer inception_3b/relu_3x3_reduce
I0403 15:49:02.692713 20293 net.cpp:91] Creating Layer inception_3b/relu_3x3_reduce
I0403 15:49:02.692733 20293 net.cpp:425] inception_3b/relu_3x3_reduce <- inception_3b/3x3_reduce
I0403 15:49:02.692750 20293 net.cpp:386] inception_3b/relu_3x3_reduce -> inception_3b/3x3_reduce (in-place)
I0403 15:49:02.692939 20293 net.cpp:141] Setting up inception_3b/relu_3x3_reduce
I0403 15:49:02.692972 20293 net.cpp:148] Top shape: 24 128 28 28 (2408448)
I0403 15:49:02.692991 20293 net.cpp:156] Memory required for data: 696042528
I0403 15:49:02.693006 20293 layer_factory.hpp:77] Creating layer inception_3b/3x3
I0403 15:49:02.693034 20293 net.cpp:91] Creating Layer inception_3b/3x3
I0403 15:49:02.693053 20293 net.cpp:425] inception_3b/3x3 <- inception_3b/3x3_reduce
I0403 15:49:02.693075 20293 net.cpp:399] inception_3b/3x3 -> inception_3b/3x3
I0403 15:49:02.696193 20293 net.cpp:141] Setting up inception_3b/3x3
I0403 15:49:02.696223 20293 net.cpp:148] Top shape: 24 192 28 28 (3612672)
I0403 15:49:02.696239 20293 net.cpp:156] Memory required for data: 710493216
I0403 15:49:02.696259 20293 layer_factory.hpp:77] Creating layer inception_3b/relu_3x3
I0403 15:49:02.696280 20293 net.cpp:91] Creating Layer inception_3b/relu_3x3
I0403 15:49:02.696298 20293 net.cpp:425] inception_3b/relu_3x3 <- inception_3b/3x3
I0403 15:49:02.696317 20293 net.cpp:386] inception_3b/relu_3x3 -> inception_3b/3x3 (in-place)
I0403 15:49:02.696614 20293 net.cpp:141] Setting up inception_3b/relu_3x3
I0403 15:49:02.696641 20293 net.cpp:148] Top shape: 24 192 28 28 (3612672)
I0403 15:49:02.696657 20293 net.cpp:156] Memory required for data: 724943904
I0403 15:49:02.696672 20293 layer_factory.hpp:77] Creating layer inception_3b/5x5_reduce
I0403 15:49:02.696698 20293 net.cpp:91] Creating Layer inception_3b/5x5_reduce
I0403 15:49:02.696717 20293 net.cpp:425] inception_3b/5x5_reduce <- inception_3a/output_inception_3a/output_0_split_2
I0403 15:49:02.696738 20293 net.cpp:399] inception_3b/5x5_reduce -> inception_3b/5x5_reduce
I0403 15:49:02.697788 20293 net.cpp:141] Setting up inception_3b/5x5_reduce
I0403 15:49:02.697818 20293 net.cpp:148] Top shape: 24 32 28 28 (602112)
I0403 15:49:02.697834 20293 net.cpp:156] Memory required for data: 727352352
I0403 15:49:02.697852 20293 layer_factory.hpp:77] Creating layer inception_3b/relu_5x5_reduce
I0403 15:49:02.697875 20293 net.cpp:91] Creating Layer inception_3b/relu_5x5_reduce
I0403 15:49:02.697892 20293 net.cpp:425] inception_3b/relu_5x5_reduce <- inception_3b/5x5_reduce
I0403 15:49:02.697911 20293 net.cpp:386] inception_3b/relu_5x5_reduce -> inception_3b/5x5_reduce (in-place)
I0403 15:49:02.698120 20293 net.cpp:141] Setting up inception_3b/relu_5x5_reduce
I0403 15:49:02.698153 20293 net.cpp:148] Top shape: 24 32 28 28 (602112)
I0403 15:49:02.698170 20293 net.cpp:156] Memory required for data: 729760800
I0403 15:49:02.698185 20293 layer_factory.hpp:77] Creating layer inception_3b/5x5
I0403 15:49:02.698209 20293 net.cpp:91] Creating Layer inception_3b/5x5
I0403 15:49:02.698227 20293 net.cpp:425] inception_3b/5x5 <- inception_3b/5x5_reduce
I0403 15:49:02.698247 20293 net.cpp:399] inception_3b/5x5 -> inception_3b/5x5
I0403 15:49:02.700346 20293 net.cpp:141] Setting up inception_3b/5x5
I0403 15:49:02.700376 20293 net.cpp:148] Top shape: 24 96 28 28 (1806336)
I0403 15:49:02.700393 20293 net.cpp:156] Memory required for data: 736986144
I0403 15:49:02.700412 20293 layer_factory.hpp:77] Creating layer inception_3b/relu_5x5
I0403 15:49:02.700433 20293 net.cpp:91] Creating Layer inception_3b/relu_5x5
I0403 15:49:02.700451 20293 net.cpp:425] inception_3b/relu_5x5 <- inception_3b/5x5
I0403 15:49:02.700469 20293 net.cpp:386] inception_3b/relu_5x5 -> inception_3b/5x5 (in-place)
I0403 15:49:02.700675 20293 net.cpp:141] Setting up inception_3b/relu_5x5
I0403 15:49:02.700702 20293 net.cpp:148] Top shape: 24 96 28 28 (1806336)
I0403 15:49:02.700718 20293 net.cpp:156] Memory required for data: 744211488
I0403 15:49:02.700732 20293 layer_factory.hpp:77] Creating layer inception_3b/pool
I0403 15:49:02.700752 20293 net.cpp:91] Creating Layer inception_3b/pool
I0403 15:49:02.700767 20293 net.cpp:425] inception_3b/pool <- inception_3a/output_inception_3a/output_0_split_3
I0403 15:49:02.700786 20293 net.cpp:399] inception_3b/pool -> inception_3b/pool
I0403 15:49:02.700846 20293 net.cpp:141] Setting up inception_3b/pool
I0403 15:49:02.700870 20293 net.cpp:148] Top shape: 24 256 28 28 (4816896)
I0403 15:49:02.700886 20293 net.cpp:156] Memory required for data: 763479072
I0403 15:49:02.700901 20293 layer_factory.hpp:77] Creating layer inception_3b/pool_proj
I0403 15:49:02.700923 20293 net.cpp:91] Creating Layer inception_3b/pool_proj
I0403 15:49:02.700942 20293 net.cpp:425] inception_3b/pool_proj <- inception_3b/pool
I0403 15:49:02.700969 20293 net.cpp:399] inception_3b/pool_proj -> inception_3b/pool_proj
I0403 15:49:02.702098 20293 net.cpp:141] Setting up inception_3b/pool_proj
I0403 15:49:02.702126 20293 net.cpp:148] Top shape: 24 64 28 28 (1204224)
I0403 15:49:02.702142 20293 net.cpp:156] Memory required for data: 768295968
I0403 15:49:02.702162 20293 layer_factory.hpp:77] Creating layer inception_3b/relu_pool_proj
I0403 15:49:02.702180 20293 net.cpp:91] Creating Layer inception_3b/relu_pool_proj
I0403 15:49:02.702198 20293 net.cpp:425] inception_3b/relu_pool_proj <- inception_3b/pool_proj
I0403 15:49:02.702217 20293 net.cpp:386] inception_3b/relu_pool_proj -> inception_3b/pool_proj (in-place)
I0403 15:49:02.702636 20293 net.cpp:141] Setting up inception_3b/relu_pool_proj
I0403 15:49:02.702666 20293 net.cpp:148] Top shape: 24 64 28 28 (1204224)
I0403 15:49:02.702682 20293 net.cpp:156] Memory required for data: 773112864
I0403 15:49:02.702698 20293 layer_factory.hpp:77] Creating layer inception_3b/output
I0403 15:49:02.702716 20293 net.cpp:91] Creating Layer inception_3b/output
I0403 15:49:02.702733 20293 net.cpp:425] inception_3b/output <- inception_3b/1x1
I0403 15:49:02.702749 20293 net.cpp:425] inception_3b/output <- inception_3b/3x3
I0403 15:49:02.702766 20293 net.cpp:425] inception_3b/output <- inception_3b/5x5
I0403 15:49:02.702783 20293 net.cpp:425] inception_3b/output <- inception_3b/pool_proj
I0403 15:49:02.702800 20293 net.cpp:399] inception_3b/output -> inception_3b/output
I0403 15:49:02.702849 20293 net.cpp:141] Setting up inception_3b/output
I0403 15:49:02.702873 20293 net.cpp:148] Top shape: 24 480 28 28 (9031680)
I0403 15:49:02.702888 20293 net.cpp:156] Memory required for data: 809239584
I0403 15:49:02.702904 20293 layer_factory.hpp:77] Creating layer pool3/3x3_s2
I0403 15:49:02.702925 20293 net.cpp:91] Creating Layer pool3/3x3_s2
I0403 15:49:02.702944 20293 net.cpp:425] pool3/3x3_s2 <- inception_3b/output
I0403 15:49:02.702982 20293 net.cpp:399] pool3/3x3_s2 -> pool3/3x3_s2
I0403 15:49:02.703047 20293 net.cpp:141] Setting up pool3/3x3_s2
I0403 15:49:02.703071 20293 net.cpp:148] Top shape: 24 480 14 14 (2257920)
I0403 15:49:02.703086 20293 net.cpp:156] Memory required for data: 818271264
I0403 15:49:02.703102 20293 layer_factory.hpp:77] Creating layer pool3/3x3_s2_pool3/3x3_s2_0_split
I0403 15:49:02.703120 20293 net.cpp:91] Creating Layer pool3/3x3_s2_pool3/3x3_s2_0_split
I0403 15:49:02.703135 20293 net.cpp:425] pool3/3x3_s2_pool3/3x3_s2_0_split <- pool3/3x3_s2
I0403 15:49:02.703155 20293 net.cpp:399] pool3/3x3_s2_pool3/3x3_s2_0_split -> pool3/3x3_s2_pool3/3x3_s2_0_split_0
I0403 15:49:02.703176 20293 net.cpp:399] pool3/3x3_s2_pool3/3x3_s2_0_split -> pool3/3x3_s2_pool3/3x3_s2_0_split_1
I0403 15:49:02.703197 20293 net.cpp:399] pool3/3x3_s2_pool3/3x3_s2_0_split -> pool3/3x3_s2_pool3/3x3_s2_0_split_2
I0403 15:49:02.703217 20293 net.cpp:399] pool3/3x3_s2_pool3/3x3_s2_0_split -> pool3/3x3_s2_pool3/3x3_s2_0_split_3
I0403 15:49:02.703299 20293 net.cpp:141] Setting up pool3/3x3_s2_pool3/3x3_s2_0_split
I0403 15:49:02.703325 20293 net.cpp:148] Top shape: 24 480 14 14 (2257920)
I0403 15:49:02.703342 20293 net.cpp:148] Top shape: 24 480 14 14 (2257920)
I0403 15:49:02.703358 20293 net.cpp:148] Top shape: 24 480 14 14 (2257920)
I0403 15:49:02.703374 20293 net.cpp:148] Top shape: 24 480 14 14 (2257920)
I0403 15:49:02.703388 20293 net.cpp:156] Memory required for data: 854397984
I0403 15:49:02.703403 20293 layer_factory.hpp:77] Creating layer inception_4a/1x1
I0403 15:49:02.703426 20293 net.cpp:91] Creating Layer inception_4a/1x1
I0403 15:49:02.703444 20293 net.cpp:425] inception_4a/1x1 <- pool3/3x3_s2_pool3/3x3_s2_0_split_0
I0403 15:49:02.703467 20293 net.cpp:399] inception_4a/1x1 -> inception_4a/1x1
I0403 15:49:02.705129 20293 net.cpp:141] Setting up inception_4a/1x1
I0403 15:49:02.705158 20293 net.cpp:148] Top shape: 24 192 14 14 (903168)
I0403 15:49:02.705175 20293 net.cpp:156] Memory required for data: 858010656
I0403 15:49:02.705194 20293 layer_factory.hpp:77] Creating layer inception_4a/relu_1x1
I0403 15:49:02.705214 20293 net.cpp:91] Creating Layer inception_4a/relu_1x1
I0403 15:49:02.705229 20293 net.cpp:425] inception_4a/relu_1x1 <- inception_4a/1x1
I0403 15:49:02.705250 20293 net.cpp:386] inception_4a/relu_1x1 -> inception_4a/1x1 (in-place)
I0403 15:49:02.705440 20293 net.cpp:141] Setting up inception_4a/relu_1x1
I0403 15:49:02.705467 20293 net.cpp:148] Top shape: 24 192 14 14 (903168)
I0403 15:49:02.705483 20293 net.cpp:156] Memory required for data: 861623328
I0403 15:49:02.705498 20293 layer_factory.hpp:77] Creating layer inception_4a/3x3_reduce
I0403 15:49:02.705521 20293 net.cpp:91] Creating Layer inception_4a/3x3_reduce
I0403 15:49:02.705539 20293 net.cpp:425] inception_4a/3x3_reduce <- pool3/3x3_s2_pool3/3x3_s2_0_split_1
I0403 15:49:02.705561 20293 net.cpp:399] inception_4a/3x3_reduce -> inception_4a/3x3_reduce
I0403 15:49:02.706923 20293 net.cpp:141] Setting up inception_4a/3x3_reduce
I0403 15:49:02.706959 20293 net.cpp:148] Top shape: 24 96 14 14 (451584)
I0403 15:49:02.706977 20293 net.cpp:156] Memory required for data: 863429664
I0403 15:49:02.707005 20293 layer_factory.hpp:77] Creating layer inception_4a/relu_3x3_reduce
I0403 15:49:02.707028 20293 net.cpp:91] Creating Layer inception_4a/relu_3x3_reduce
I0403 15:49:02.707046 20293 net.cpp:425] inception_4a/relu_3x3_reduce <- inception_4a/3x3_reduce
I0403 15:49:02.707062 20293 net.cpp:386] inception_4a/relu_3x3_reduce -> inception_4a/3x3_reduce (in-place)
I0403 15:49:02.707248 20293 net.cpp:141] Setting up inception_4a/relu_3x3_reduce
I0403 15:49:02.707274 20293 net.cpp:148] Top shape: 24 96 14 14 (451584)
I0403 15:49:02.707290 20293 net.cpp:156] Memory required for data: 865236000
I0403 15:49:02.707309 20293 layer_factory.hpp:77] Creating layer inception_4a/3x3
I0403 15:49:02.707331 20293 net.cpp:91] Creating Layer inception_4a/3x3
I0403 15:49:02.707350 20293 net.cpp:425] inception_4a/3x3 <- inception_4a/3x3_reduce
I0403 15:49:02.707372 20293 net.cpp:399] inception_4a/3x3 -> inception_4a/3x3
I0403 15:49:02.710238 20293 net.cpp:141] Setting up inception_4a/3x3
I0403 15:49:02.710268 20293 net.cpp:148] Top shape: 24 208 14 14 (978432)
I0403 15:49:02.710284 20293 net.cpp:156] Memory required for data: 869149728
I0403 15:49:02.710304 20293 layer_factory.hpp:77] Creating layer inception_4a/relu_3x3
I0403 15:49:02.710325 20293 net.cpp:91] Creating Layer inception_4a/relu_3x3
I0403 15:49:02.710343 20293 net.cpp:425] inception_4a/relu_3x3 <- inception_4a/3x3
I0403 15:49:02.710361 20293 net.cpp:386] inception_4a/relu_3x3 -> inception_4a/3x3 (in-place)
I0403 15:49:02.710656 20293 net.cpp:141] Setting up inception_4a/relu_3x3
I0403 15:49:02.710683 20293 net.cpp:148] Top shape: 24 208 14 14 (978432)
I0403 15:49:02.710700 20293 net.cpp:156] Memory required for data: 873063456
I0403 15:49:02.710714 20293 layer_factory.hpp:77] Creating layer inception_4a/5x5_reduce
I0403 15:49:02.710737 20293 net.cpp:91] Creating Layer inception_4a/5x5_reduce
I0403 15:49:02.710757 20293 net.cpp:425] inception_4a/5x5_reduce <- pool3/3x3_s2_pool3/3x3_s2_0_split_2
I0403 15:49:02.710780 20293 net.cpp:399] inception_4a/5x5_reduce -> inception_4a/5x5_reduce
I0403 15:49:02.711853 20293 net.cpp:141] Setting up inception_4a/5x5_reduce
I0403 15:49:02.711882 20293 net.cpp:148] Top shape: 24 16 14 14 (75264)
I0403 15:49:02.711897 20293 net.cpp:156] Memory required for data: 873364512
I0403 15:49:02.711916 20293 layer_factory.hpp:77] Creating layer inception_4a/relu_5x5_reduce
I0403 15:49:02.711936 20293 net.cpp:91] Creating Layer inception_4a/relu_5x5_reduce
I0403 15:49:02.711957 20293 net.cpp:425] inception_4a/relu_5x5_reduce <- inception_4a/5x5_reduce
I0403 15:49:02.711977 20293 net.cpp:386] inception_4a/relu_5x5_reduce -> inception_4a/5x5_reduce (in-place)
I0403 15:49:02.712159 20293 net.cpp:141] Setting up inception_4a/relu_5x5_reduce
I0403 15:49:02.712188 20293 net.cpp:148] Top shape: 24 16 14 14 (75264)
I0403 15:49:02.712204 20293 net.cpp:156] Memory required for data: 873665568
I0403 15:49:02.712220 20293 layer_factory.hpp:77] Creating layer inception_4a/5x5
I0403 15:49:02.712242 20293 net.cpp:91] Creating Layer inception_4a/5x5
I0403 15:49:02.712260 20293 net.cpp:425] inception_4a/5x5 <- inception_4a/5x5_reduce
I0403 15:49:02.712280 20293 net.cpp:399] inception_4a/5x5 -> inception_4a/5x5
I0403 15:49:02.713405 20293 net.cpp:141] Setting up inception_4a/5x5
I0403 15:49:02.713435 20293 net.cpp:148] Top shape: 24 48 14 14 (225792)
I0403 15:49:02.713452 20293 net.cpp:156] Memory required for data: 874568736
I0403 15:49:02.713471 20293 layer_factory.hpp:77] Creating layer inception_4a/relu_5x5
I0403 15:49:02.713490 20293 net.cpp:91] Creating Layer inception_4a/relu_5x5
I0403 15:49:02.713505 20293 net.cpp:425] inception_4a/relu_5x5 <- inception_4a/5x5
I0403 15:49:02.713526 20293 net.cpp:386] inception_4a/relu_5x5 -> inception_4a/5x5 (in-place)
I0403 15:49:02.713713 20293 net.cpp:141] Setting up inception_4a/relu_5x5
I0403 15:49:02.713738 20293 net.cpp:148] Top shape: 24 48 14 14 (225792)
I0403 15:49:02.713753 20293 net.cpp:156] Memory required for data: 875471904
I0403 15:49:02.713768 20293 layer_factory.hpp:77] Creating layer inception_4a/pool
I0403 15:49:02.713785 20293 net.cpp:91] Creating Layer inception_4a/pool
I0403 15:49:02.713801 20293 net.cpp:425] inception_4a/pool <- pool3/3x3_s2_pool3/3x3_s2_0_split_3
I0403 15:49:02.713821 20293 net.cpp:399] inception_4a/pool -> inception_4a/pool
I0403 15:49:02.713883 20293 net.cpp:141] Setting up inception_4a/pool
I0403 15:49:02.713907 20293 net.cpp:148] Top shape: 24 480 14 14 (2257920)
I0403 15:49:02.713922 20293 net.cpp:156] Memory required for data: 884503584
I0403 15:49:02.713937 20293 layer_factory.hpp:77] Creating layer inception_4a/pool_proj
I0403 15:49:02.713965 20293 net.cpp:91] Creating Layer inception_4a/pool_proj
I0403 15:49:02.713984 20293 net.cpp:425] inception_4a/pool_proj <- inception_4a/pool
I0403 15:49:02.714004 20293 net.cpp:399] inception_4a/pool_proj -> inception_4a/pool_proj
I0403 15:49:02.715217 20293 net.cpp:141] Setting up inception_4a/pool_proj
I0403 15:49:02.715248 20293 net.cpp:148] Top shape: 24 64 14 14 (301056)
I0403 15:49:02.715279 20293 net.cpp:156] Memory required for data: 885707808
I0403 15:49:02.715299 20293 layer_factory.hpp:77] Creating layer inception_4a/relu_pool_proj
I0403 15:49:02.715318 20293 net.cpp:91] Creating Layer inception_4a/relu_pool_proj
I0403 15:49:02.715334 20293 net.cpp:425] inception_4a/relu_pool_proj <- inception_4a/pool_proj
I0403 15:49:02.715355 20293 net.cpp:386] inception_4a/relu_pool_proj -> inception_4a/pool_proj (in-place)
I0403 15:49:02.715649 20293 net.cpp:141] Setting up inception_4a/relu_pool_proj
I0403 15:49:02.715678 20293 net.cpp:148] Top shape: 24 64 14 14 (301056)
I0403 15:49:02.715694 20293 net.cpp:156] Memory required for data: 886912032
I0403 15:49:02.715709 20293 layer_factory.hpp:77] Creating layer inception_4a/output
I0403 15:49:02.715728 20293 net.cpp:91] Creating Layer inception_4a/output
I0403 15:49:02.715742 20293 net.cpp:425] inception_4a/output <- inception_4a/1x1
I0403 15:49:02.715759 20293 net.cpp:425] inception_4a/output <- inception_4a/3x3
I0403 15:49:02.715775 20293 net.cpp:425] inception_4a/output <- inception_4a/5x5
I0403 15:49:02.715790 20293 net.cpp:425] inception_4a/output <- inception_4a/pool_proj
I0403 15:49:02.715809 20293 net.cpp:399] inception_4a/output -> inception_4a/output
I0403 15:49:02.715855 20293 net.cpp:141] Setting up inception_4a/output
I0403 15:49:02.715878 20293 net.cpp:148] Top shape: 24 512 14 14 (2408448)
I0403 15:49:02.715893 20293 net.cpp:156] Memory required for data: 896545824
I0403 15:49:02.715909 20293 layer_factory.hpp:77] Creating layer inception_4a/output_inception_4a/output_0_split
I0403 15:49:02.715929 20293 net.cpp:91] Creating Layer inception_4a/output_inception_4a/output_0_split
I0403 15:49:02.715946 20293 net.cpp:425] inception_4a/output_inception_4a/output_0_split <- inception_4a/output
I0403 15:49:02.715970 20293 net.cpp:399] inception_4a/output_inception_4a/output_0_split -> inception_4a/output_inception_4a/output_0_split_0
I0403 15:49:02.715996 20293 net.cpp:399] inception_4a/output_inception_4a/output_0_split -> inception_4a/output_inception_4a/output_0_split_1
I0403 15:49:02.716017 20293 net.cpp:399] inception_4a/output_inception_4a/output_0_split -> inception_4a/output_inception_4a/output_0_split_2
I0403 15:49:02.716037 20293 net.cpp:399] inception_4a/output_inception_4a/output_0_split -> inception_4a/output_inception_4a/output_0_split_3
I0403 15:49:02.716058 20293 net.cpp:399] inception_4a/output_inception_4a/output_0_split -> inception_4a/output_inception_4a/output_0_split_4
I0403 15:49:02.716151 20293 net.cpp:141] Setting up inception_4a/output_inception_4a/output_0_split
I0403 15:49:02.716176 20293 net.cpp:148] Top shape: 24 512 14 14 (2408448)
I0403 15:49:02.716192 20293 net.cpp:148] Top shape: 24 512 14 14 (2408448)
I0403 15:49:02.716208 20293 net.cpp:148] Top shape: 24 512 14 14 (2408448)
I0403 15:49:02.716223 20293 net.cpp:148] Top shape: 24 512 14 14 (2408448)
I0403 15:49:02.716239 20293 net.cpp:148] Top shape: 24 512 14 14 (2408448)
I0403 15:49:02.716253 20293 net.cpp:156] Memory required for data: 944714784
I0403 15:49:02.716269 20293 layer_factory.hpp:77] Creating layer loss1/ave_pool
I0403 15:49:02.716289 20293 net.cpp:91] Creating Layer loss1/ave_pool
I0403 15:49:02.716305 20293 net.cpp:425] loss1/ave_pool <- inception_4a/output_inception_4a/output_0_split_0
I0403 15:49:02.716323 20293 net.cpp:399] loss1/ave_pool -> loss1/ave_pool
I0403 15:49:02.716538 20293 net.cpp:141] Setting up loss1/ave_pool
I0403 15:49:02.716564 20293 net.cpp:148] Top shape: 24 512 4 4 (196608)
I0403 15:49:02.716580 20293 net.cpp:156] Memory required for data: 945501216
I0403 15:49:02.716595 20293 layer_factory.hpp:77] Creating layer loss1/conv
I0403 15:49:02.716619 20293 net.cpp:91] Creating Layer loss1/conv
I0403 15:49:02.716635 20293 net.cpp:425] loss1/conv <- loss1/ave_pool
I0403 15:49:02.716656 20293 net.cpp:399] loss1/conv -> loss1/conv
I0403 15:49:02.718116 20293 net.cpp:141] Setting up loss1/conv
I0403 15:49:02.718144 20293 net.cpp:148] Top shape: 24 128 4 4 (49152)
I0403 15:49:02.718174 20293 net.cpp:156] Memory required for data: 945697824
I0403 15:49:02.718194 20293 layer_factory.hpp:77] Creating layer loss1/relu_conv
I0403 15:49:02.718214 20293 net.cpp:91] Creating Layer loss1/relu_conv
I0403 15:49:02.718231 20293 net.cpp:425] loss1/relu_conv <- loss1/conv
I0403 15:49:02.718250 20293 net.cpp:386] loss1/relu_conv -> loss1/conv (in-place)
I0403 15:49:02.718545 20293 net.cpp:141] Setting up loss1/relu_conv
I0403 15:49:02.718572 20293 net.cpp:148] Top shape: 24 128 4 4 (49152)
I0403 15:49:02.718587 20293 net.cpp:156] Memory required for data: 945894432
I0403 15:49:02.718602 20293 layer_factory.hpp:77] Creating layer loss1/fc
I0403 15:49:02.718628 20293 net.cpp:91] Creating Layer loss1/fc
I0403 15:49:02.718647 20293 net.cpp:425] loss1/fc <- loss1/conv
I0403 15:49:02.718665 20293 net.cpp:399] loss1/fc -> loss1/fc
I0403 15:49:02.736608 20293 net.cpp:141] Setting up loss1/fc
I0403 15:49:02.736641 20293 net.cpp:148] Top shape: 24 1024 (24576)
I0403 15:49:02.736656 20293 net.cpp:156] Memory required for data: 945992736
I0403 15:49:02.736675 20293 layer_factory.hpp:77] Creating layer loss1/relu_fc
I0403 15:49:02.736692 20293 net.cpp:91] Creating Layer loss1/relu_fc
I0403 15:49:02.736708 20293 net.cpp:425] loss1/relu_fc <- loss1/fc
I0403 15:49:02.736728 20293 net.cpp:386] loss1/relu_fc -> loss1/fc (in-place)
I0403 15:49:02.736913 20293 net.cpp:141] Setting up loss1/relu_fc
I0403 15:49:02.736939 20293 net.cpp:148] Top shape: 24 1024 (24576)
I0403 15:49:02.736958 20293 net.cpp:156] Memory required for data: 946091040
I0403 15:49:02.736974 20293 layer_factory.hpp:77] Creating layer loss1/drop_fc
I0403 15:49:02.737001 20293 net.cpp:91] Creating Layer loss1/drop_fc
I0403 15:49:02.737020 20293 net.cpp:425] loss1/drop_fc <- loss1/fc
I0403 15:49:02.737036 20293 net.cpp:386] loss1/drop_fc -> loss1/fc (in-place)
I0403 15:49:02.737085 20293 net.cpp:141] Setting up loss1/drop_fc
I0403 15:49:02.737112 20293 net.cpp:148] Top shape: 24 1024 (24576)
I0403 15:49:02.737128 20293 net.cpp:156] Memory required for data: 946189344
I0403 15:49:02.737143 20293 layer_factory.hpp:77] Creating layer loss1/classifier_plantvillage
I0403 15:49:02.737161 20293 net.cpp:91] Creating Layer loss1/classifier_plantvillage
I0403 15:49:02.737177 20293 net.cpp:425] loss1/classifier_plantvillage <- loss1/fc
I0403 15:49:02.737200 20293 net.cpp:399] loss1/classifier_plantvillage -> loss1/classifier_plantvillage
I0403 15:49:02.738102 20293 net.cpp:141] Setting up loss1/classifier_plantvillage
I0403 15:49:02.738129 20293 net.cpp:148] Top shape: 24 38 (912)
I0403 15:49:02.738144 20293 net.cpp:156] Memory required for data: 946192992
I0403 15:49:02.738162 20293 layer_factory.hpp:77] Creating layer loss1/classifier_plantvillage_loss1/classifier_plantvillage_0_split
I0403 15:49:02.738180 20293 net.cpp:91] Creating Layer loss1/classifier_plantvillage_loss1/classifier_plantvillage_0_split
I0403 15:49:02.738196 20293 net.cpp:425] loss1/classifier_plantvillage_loss1/classifier_plantvillage_0_split <- loss1/classifier_plantvillage
I0403 15:49:02.738216 20293 net.cpp:399] loss1/classifier_plantvillage_loss1/classifier_plantvillage_0_split -> loss1/classifier_plantvillage_loss1/classifier_plantvillage_0_split_0
I0403 15:49:02.738237 20293 net.cpp:399] loss1/classifier_plantvillage_loss1/classifier_plantvillage_0_split -> loss1/classifier_plantvillage_loss1/classifier_plantvillage_0_split_1
I0403 15:49:02.738257 20293 net.cpp:399] loss1/classifier_plantvillage_loss1/classifier_plantvillage_0_split -> loss1/classifier_plantvillage_loss1/classifier_plantvillage_0_split_2
I0403 15:49:02.738327 20293 net.cpp:141] Setting up loss1/classifier_plantvillage_loss1/classifier_plantvillage_0_split
I0403 15:49:02.738350 20293 net.cpp:148] Top shape: 24 38 (912)
I0403 15:49:02.738366 20293 net.cpp:148] Top shape: 24 38 (912)
I0403 15:49:02.738381 20293 net.cpp:148] Top shape: 24 38 (912)
I0403 15:49:02.738395 20293 net.cpp:156] Memory required for data: 946203936
I0403 15:49:02.738409 20293 layer_factory.hpp:77] Creating layer inception_4b/1x1
I0403 15:49:02.738432 20293 net.cpp:91] Creating Layer inception_4b/1x1
I0403 15:49:02.738466 20293 net.cpp:425] inception_4b/1x1 <- inception_4a/output_inception_4a/output_0_split_1
I0403 15:49:02.738486 20293 net.cpp:399] inception_4b/1x1 -> inception_4b/1x1
I0403 15:49:02.740139 20293 net.cpp:141] Setting up inception_4b/1x1
I0403 15:49:02.740167 20293 net.cpp:148] Top shape: 24 160 14 14 (752640)
I0403 15:49:02.740182 20293 net.cpp:156] Memory required for data: 949214496
I0403 15:49:02.740200 20293 layer_factory.hpp:77] Creating layer inception_4b/relu_1x1
I0403 15:49:02.740221 20293 net.cpp:91] Creating Layer inception_4b/relu_1x1
I0403 15:49:02.740237 20293 net.cpp:425] inception_4b/relu_1x1 <- inception_4b/1x1
I0403 15:49:02.740254 20293 net.cpp:386] inception_4b/relu_1x1 -> inception_4b/1x1 (in-place)
I0403 15:49:02.740435 20293 net.cpp:141] Setting up inception_4b/relu_1x1
I0403 15:49:02.740463 20293 net.cpp:148] Top shape: 24 160 14 14 (752640)
I0403 15:49:02.740478 20293 net.cpp:156] Memory required for data: 952225056
I0403 15:49:02.740491 20293 layer_factory.hpp:77] Creating layer inception_4b/3x3_reduce
I0403 15:49:02.740515 20293 net.cpp:91] Creating Layer inception_4b/3x3_reduce
I0403 15:49:02.740533 20293 net.cpp:425] inception_4b/3x3_reduce <- inception_4a/output_inception_4a/output_0_split_2
I0403 15:49:02.740552 20293 net.cpp:399] inception_4b/3x3_reduce -> inception_4b/3x3_reduce
I0403 15:49:02.741905 20293 net.cpp:141] Setting up inception_4b/3x3_reduce
I0403 15:49:02.741936 20293 net.cpp:148] Top shape: 24 112 14 14 (526848)
I0403 15:49:02.741952 20293 net.cpp:156] Memory required for data: 954332448
I0403 15:49:02.741976 20293 layer_factory.hpp:77] Creating layer inception_4b/relu_3x3_reduce
I0403 15:49:02.741994 20293 net.cpp:91] Creating Layer inception_4b/relu_3x3_reduce
I0403 15:49:02.742010 20293 net.cpp:425] inception_4b/relu_3x3_reduce <- inception_4b/3x3_reduce
I0403 15:49:02.742029 20293 net.cpp:386] inception_4b/relu_3x3_reduce -> inception_4b/3x3_reduce (in-place)
I0403 15:49:02.742312 20293 net.cpp:141] Setting up inception_4b/relu_3x3_reduce
I0403 15:49:02.742341 20293 net.cpp:148] Top shape: 24 112 14 14 (526848)
I0403 15:49:02.742357 20293 net.cpp:156] Memory required for data: 956439840
I0403 15:49:02.742372 20293 layer_factory.hpp:77] Creating layer inception_4b/3x3
I0403 15:49:02.742393 20293 net.cpp:91] Creating Layer inception_4b/3x3
I0403 15:49:02.742410 20293 net.cpp:425] inception_4b/3x3 <- inception_4b/3x3_reduce
I0403 15:49:02.742429 20293 net.cpp:399] inception_4b/3x3 -> inception_4b/3x3
I0403 15:49:02.745407 20293 net.cpp:141] Setting up inception_4b/3x3
I0403 15:49:02.745435 20293 net.cpp:148] Top shape: 24 224 14 14 (1053696)
I0403 15:49:02.745450 20293 net.cpp:156] Memory required for data: 960654624
I0403 15:49:02.745470 20293 layer_factory.hpp:77] Creating layer inception_4b/relu_3x3
I0403 15:49:02.745486 20293 net.cpp:91] Creating Layer inception_4b/relu_3x3
I0403 15:49:02.745502 20293 net.cpp:425] inception_4b/relu_3x3 <- inception_4b/3x3
I0403 15:49:02.745520 20293 net.cpp:386] inception_4b/relu_3x3 -> inception_4b/3x3 (in-place)
I0403 15:49:02.745707 20293 net.cpp:141] Setting up inception_4b/relu_3x3
I0403 15:49:02.745731 20293 net.cpp:148] Top shape: 24 224 14 14 (1053696)
I0403 15:49:02.745746 20293 net.cpp:156] Memory required for data: 964869408
I0403 15:49:02.745760 20293 layer_factory.hpp:77] Creating layer inception_4b/5x5_reduce
I0403 15:49:02.745782 20293 net.cpp:91] Creating Layer inception_4b/5x5_reduce
I0403 15:49:02.745800 20293 net.cpp:425] inception_4b/5x5_reduce <- inception_4a/output_inception_4a/output_0_split_3
I0403 15:49:02.745821 20293 net.cpp:399] inception_4b/5x5_reduce -> inception_4b/5x5_reduce
I0403 15:49:02.747011 20293 net.cpp:141] Setting up inception_4b/5x5_reduce
I0403 15:49:02.747040 20293 net.cpp:148] Top shape: 24 24 14 14 (112896)
I0403 15:49:02.747054 20293 net.cpp:156] Memory required for data: 965320992
I0403 15:49:02.747073 20293 layer_factory.hpp:77] Creating layer inception_4b/relu_5x5_reduce
I0403 15:49:02.747094 20293 net.cpp:91] Creating Layer inception_4b/relu_5x5_reduce
I0403 15:49:02.747124 20293 net.cpp:425] inception_4b/relu_5x5_reduce <- inception_4b/5x5_reduce
I0403 15:49:02.747143 20293 net.cpp:386] inception_4b/relu_5x5_reduce -> inception_4b/5x5_reduce (in-place)
I0403 15:49:02.747334 20293 net.cpp:141] Setting up inception_4b/relu_5x5_reduce
I0403 15:49:02.747360 20293 net.cpp:148] Top shape: 24 24 14 14 (112896)
I0403 15:49:02.747376 20293 net.cpp:156] Memory required for data: 965772576
I0403 15:49:02.747391 20293 layer_factory.hpp:77] Creating layer inception_4b/5x5
I0403 15:49:02.747413 20293 net.cpp:91] Creating Layer inception_4b/5x5
I0403 15:49:02.747431 20293 net.cpp:425] inception_4b/5x5 <- inception_4b/5x5_reduce
I0403 15:49:02.747449 20293 net.cpp:399] inception_4b/5x5 -> inception_4b/5x5
I0403 15:49:02.748756 20293 net.cpp:141] Setting up inception_4b/5x5
I0403 15:49:02.748783 20293 net.cpp:148] Top shape: 24 64 14 14 (301056)
I0403 15:49:02.748798 20293 net.cpp:156] Memory required for data: 966976800
I0403 15:49:02.748816 20293 layer_factory.hpp:77] Creating layer inception_4b/relu_5x5
I0403 15:49:02.748836 20293 net.cpp:91] Creating Layer inception_4b/relu_5x5
I0403 15:49:02.748852 20293 net.cpp:425] inception_4b/relu_5x5 <- inception_4b/5x5
I0403 15:49:02.748869 20293 net.cpp:386] inception_4b/relu_5x5 -> inception_4b/5x5 (in-place)
I0403 15:49:02.749172 20293 net.cpp:141] Setting up inception_4b/relu_5x5
I0403 15:49:02.749198 20293 net.cpp:148] Top shape: 24 64 14 14 (301056)
I0403 15:49:02.749213 20293 net.cpp:156] Memory required for data: 968181024
I0403 15:49:02.749228 20293 layer_factory.hpp:77] Creating layer inception_4b/pool
I0403 15:49:02.749248 20293 net.cpp:91] Creating Layer inception_4b/pool
I0403 15:49:02.749265 20293 net.cpp:425] inception_4b/pool <- inception_4a/output_inception_4a/output_0_split_4
I0403 15:49:02.749284 20293 net.cpp:399] inception_4b/pool -> inception_4b/pool
I0403 15:49:02.749348 20293 net.cpp:141] Setting up inception_4b/pool
I0403 15:49:02.749372 20293 net.cpp:148] Top shape: 24 512 14 14 (2408448)
I0403 15:49:02.749387 20293 net.cpp:156] Memory required for data: 977814816
I0403 15:49:02.749400 20293 layer_factory.hpp:77] Creating layer inception_4b/pool_proj
I0403 15:49:02.749423 20293 net.cpp:91] Creating Layer inception_4b/pool_proj
I0403 15:49:02.749440 20293 net.cpp:425] inception_4b/pool_proj <- inception_4b/pool
I0403 15:49:02.749461 20293 net.cpp:399] inception_4b/pool_proj -> inception_4b/pool_proj
I0403 15:49:02.750669 20293 net.cpp:141] Setting up inception_4b/pool_proj
I0403 15:49:02.750695 20293 net.cpp:148] Top shape: 24 64 14 14 (301056)
I0403 15:49:02.750711 20293 net.cpp:156] Memory required for data: 979019040
I0403 15:49:02.750728 20293 layer_factory.hpp:77] Creating layer inception_4b/relu_pool_proj
I0403 15:49:02.750749 20293 net.cpp:91] Creating Layer inception_4b/relu_pool_proj
I0403 15:49:02.750766 20293 net.cpp:425] inception_4b/relu_pool_proj <- inception_4b/pool_proj
I0403 15:49:02.750783 20293 net.cpp:386] inception_4b/relu_pool_proj -> inception_4b/pool_proj (in-place)
I0403 15:49:02.750969 20293 net.cpp:141] Setting up inception_4b/relu_pool_proj
I0403 15:49:02.750998 20293 net.cpp:148] Top shape: 24 64 14 14 (301056)
I0403 15:49:02.751013 20293 net.cpp:156] Memory required for data: 980223264
I0403 15:49:02.751029 20293 layer_factory.hpp:77] Creating layer inception_4b/output
I0403 15:49:02.751046 20293 net.cpp:91] Creating Layer inception_4b/output
I0403 15:49:02.751061 20293 net.cpp:425] inception_4b/output <- inception_4b/1x1
I0403 15:49:02.751077 20293 net.cpp:425] inception_4b/output <- inception_4b/3x3
I0403 15:49:02.751092 20293 net.cpp:425] inception_4b/output <- inception_4b/5x5
I0403 15:49:02.751108 20293 net.cpp:425] inception_4b/output <- inception_4b/pool_proj
I0403 15:49:02.751124 20293 net.cpp:399] inception_4b/output -> inception_4b/output
I0403 15:49:02.751170 20293 net.cpp:141] Setting up inception_4b/output
I0403 15:49:02.751194 20293 net.cpp:148] Top shape: 24 512 14 14 (2408448)
I0403 15:49:02.751209 20293 net.cpp:156] Memory required for data: 989857056
I0403 15:49:02.751235 20293 layer_factory.hpp:77] Creating layer inception_4b/output_inception_4b/output_0_split
I0403 15:49:02.751256 20293 net.cpp:91] Creating Layer inception_4b/output_inception_4b/output_0_split
I0403 15:49:02.751272 20293 net.cpp:425] inception_4b/output_inception_4b/output_0_split <- inception_4b/output
I0403 15:49:02.751291 20293 net.cpp:399] inception_4b/output_inception_4b/output_0_split -> inception_4b/output_inception_4b/output_0_split_0
I0403 15:49:02.751309 20293 net.cpp:399] inception_4b/output_inception_4b/output_0_split -> inception_4b/output_inception_4b/output_0_split_1
I0403 15:49:02.751330 20293 net.cpp:399] inception_4b/output_inception_4b/output_0_split -> inception_4b/output_inception_4b/output_0_split_2
I0403 15:49:02.751353 20293 net.cpp:399] inception_4b/output_inception_4b/output_0_split -> inception_4b/output_inception_4b/output_0_split_3
I0403 15:49:02.751437 20293 net.cpp:141] Setting up inception_4b/output_inception_4b/output_0_split
I0403 15:49:02.751461 20293 net.cpp:148] Top shape: 24 512 14 14 (2408448)
I0403 15:49:02.751477 20293 net.cpp:148] Top shape: 24 512 14 14 (2408448)
I0403 15:49:02.751492 20293 net.cpp:148] Top shape: 24 512 14 14 (2408448)
I0403 15:49:02.751507 20293 net.cpp:148] Top shape: 24 512 14 14 (2408448)
I0403 15:49:02.751520 20293 net.cpp:156] Memory required for data: 1028392224
I0403 15:49:02.751534 20293 layer_factory.hpp:77] Creating layer inception_4c/1x1
I0403 15:49:02.751556 20293 net.cpp:91] Creating Layer inception_4c/1x1
I0403 15:49:02.751574 20293 net.cpp:425] inception_4c/1x1 <- inception_4b/output_inception_4b/output_0_split_0
I0403 15:49:02.751595 20293 net.cpp:399] inception_4c/1x1 -> inception_4c/1x1
I0403 15:49:02.753070 20293 net.cpp:141] Setting up inception_4c/1x1
I0403 15:49:02.753098 20293 net.cpp:148] Top shape: 24 128 14 14 (602112)
I0403 15:49:02.753113 20293 net.cpp:156] Memory required for data: 1030800672
I0403 15:49:02.753130 20293 layer_factory.hpp:77] Creating layer inception_4c/relu_1x1
I0403 15:49:02.753149 20293 net.cpp:91] Creating Layer inception_4c/relu_1x1
I0403 15:49:02.753165 20293 net.cpp:425] inception_4c/relu_1x1 <- inception_4c/1x1
I0403 15:49:02.753183 20293 net.cpp:386] inception_4c/relu_1x1 -> inception_4c/1x1 (in-place)
I0403 15:49:02.753368 20293 net.cpp:141] Setting up inception_4c/relu_1x1
I0403 15:49:02.753393 20293 net.cpp:148] Top shape: 24 128 14 14 (602112)
I0403 15:49:02.753407 20293 net.cpp:156] Memory required for data: 1033209120
I0403 15:49:02.753422 20293 layer_factory.hpp:77] Creating layer inception_4c/3x3_reduce
I0403 15:49:02.753444 20293 net.cpp:91] Creating Layer inception_4c/3x3_reduce
I0403 15:49:02.753461 20293 net.cpp:425] inception_4c/3x3_reduce <- inception_4b/output_inception_4b/output_0_split_1
I0403 15:49:02.753482 20293 net.cpp:399] inception_4c/3x3_reduce -> inception_4c/3x3_reduce
I0403 15:49:02.755445 20293 net.cpp:141] Setting up inception_4c/3x3_reduce
I0403 15:49:02.755472 20293 net.cpp:148] Top shape: 24 128 14 14 (602112)
I0403 15:49:02.755488 20293 net.cpp:156] Memory required for data: 1035617568
I0403 15:49:02.755507 20293 layer_factory.hpp:77] Creating layer inception_4c/relu_3x3_reduce
I0403 15:49:02.755527 20293 net.cpp:91] Creating Layer inception_4c/relu_3x3_reduce
I0403 15:49:02.755544 20293 net.cpp:425] inception_4c/relu_3x3_reduce <- inception_4c/3x3_reduce
I0403 15:49:02.755563 20293 net.cpp:386] inception_4c/relu_3x3_reduce -> inception_4c/3x3_reduce (in-place)
I0403 15:49:02.755857 20293 net.cpp:141] Setting up inception_4c/relu_3x3_reduce
I0403 15:49:02.755893 20293 net.cpp:148] Top shape: 24 128 14 14 (602112)
I0403 15:49:02.755908 20293 net.cpp:156] Memory required for data: 1038026016
I0403 15:49:02.755923 20293 layer_factory.hpp:77] Creating layer inception_4c/3x3
I0403 15:49:02.755945 20293 net.cpp:91] Creating Layer inception_4c/3x3
I0403 15:49:02.755969 20293 net.cpp:425] inception_4c/3x3 <- inception_4c/3x3_reduce
I0403 15:49:02.755991 20293 net.cpp:399] inception_4c/3x3 -> inception_4c/3x3
I0403 15:49:02.759704 20293 net.cpp:141] Setting up inception_4c/3x3
I0403 15:49:02.759745 20293 net.cpp:148] Top shape: 24 256 14 14 (1204224)
I0403 15:49:02.759762 20293 net.cpp:156] Memory required for data: 1042842912
I0403 15:49:02.759795 20293 layer_factory.hpp:77] Creating layer inception_4c/relu_3x3
I0403 15:49:02.759819 20293 net.cpp:91] Creating Layer inception_4c/relu_3x3
I0403 15:49:02.759836 20293 net.cpp:425] inception_4c/relu_3x3 <- inception_4c/3x3
I0403 15:49:02.759853 20293 net.cpp:386] inception_4c/relu_3x3 -> inception_4c/3x3 (in-place)
I0403 15:49:02.760045 20293 net.cpp:141] Setting up inception_4c/relu_3x3
I0403 15:49:02.760069 20293 net.cpp:148] Top shape: 24 256 14 14 (1204224)
I0403 15:49:02.760087 20293 net.cpp:156] Memory required for data: 1047659808
I0403 15:49:02.760102 20293 layer_factory.hpp:77] Creating layer inception_4c/5x5_reduce
I0403 15:49:02.760123 20293 net.cpp:91] Creating Layer inception_4c/5x5_reduce
I0403 15:49:02.760139 20293 net.cpp:425] inception_4c/5x5_reduce <- inception_4b/output_inception_4b/output_0_split_2
I0403 15:49:02.760162 20293 net.cpp:399] inception_4c/5x5_reduce -> inception_4c/5x5_reduce
I0403 15:49:02.761318 20293 net.cpp:141] Setting up inception_4c/5x5_reduce
I0403 15:49:02.761348 20293 net.cpp:148] Top shape: 24 24 14 14 (112896)
I0403 15:49:02.761363 20293 net.cpp:156] Memory required for data: 1048111392
I0403 15:49:02.761381 20293 layer_factory.hpp:77] Creating layer inception_4c/relu_5x5_reduce
I0403 15:49:02.761404 20293 net.cpp:91] Creating Layer inception_4c/relu_5x5_reduce
I0403 15:49:02.761420 20293 net.cpp:425] inception_4c/relu_5x5_reduce <- inception_4c/5x5_reduce
I0403 15:49:02.761438 20293 net.cpp:386] inception_4c/relu_5x5_reduce -> inception_4c/5x5_reduce (in-place)
I0403 15:49:02.761633 20293 net.cpp:141] Setting up inception_4c/relu_5x5_reduce
I0403 15:49:02.761662 20293 net.cpp:148] Top shape: 24 24 14 14 (112896)
I0403 15:49:02.761678 20293 net.cpp:156] Memory required for data: 1048562976
I0403 15:49:02.761694 20293 layer_factory.hpp:77] Creating layer inception_4c/5x5
I0403 15:49:02.761718 20293 net.cpp:91] Creating Layer inception_4c/5x5
I0403 15:49:02.761735 20293 net.cpp:425] inception_4c/5x5 <- inception_4c/5x5_reduce
I0403 15:49:02.761754 20293 net.cpp:399] inception_4c/5x5 -> inception_4c/5x5
I0403 15:49:02.763067 20293 net.cpp:141] Setting up inception_4c/5x5
I0403 15:49:02.763101 20293 net.cpp:148] Top shape: 24 64 14 14 (301056)
I0403 15:49:02.763118 20293 net.cpp:156] Memory required for data: 1049767200
I0403 15:49:02.763137 20293 layer_factory.hpp:77] Creating layer inception_4c/relu_5x5
I0403 15:49:02.763156 20293 net.cpp:91] Creating Layer inception_4c/relu_5x5
I0403 15:49:02.763172 20293 net.cpp:425] inception_4c/relu_5x5 <- inception_4c/5x5
I0403 15:49:02.763193 20293 net.cpp:386] inception_4c/relu_5x5 -> inception_4c/5x5 (in-place)
I0403 15:49:02.763500 20293 net.cpp:141] Setting up inception_4c/relu_5x5
I0403 15:49:02.763530 20293 net.cpp:148] Top shape: 24 64 14 14 (301056)
I0403 15:49:02.763545 20293 net.cpp:156] Memory required for data: 1050971424
I0403 15:49:02.763561 20293 layer_factory.hpp:77] Creating layer inception_4c/pool
I0403 15:49:02.763579 20293 net.cpp:91] Creating Layer inception_4c/pool
I0403 15:49:02.763595 20293 net.cpp:425] inception_4c/pool <- inception_4b/output_inception_4b/output_0_split_3
I0403 15:49:02.763628 20293 net.cpp:399] inception_4c/pool -> inception_4c/pool
I0403 15:49:02.763695 20293 net.cpp:141] Setting up inception_4c/pool
I0403 15:49:02.763718 20293 net.cpp:148] Top shape: 24 512 14 14 (2408448)
I0403 15:49:02.763733 20293 net.cpp:156] Memory required for data: 1060605216
I0403 15:49:02.763747 20293 layer_factory.hpp:77] Creating layer inception_4c/pool_proj
I0403 15:49:02.763772 20293 net.cpp:91] Creating Layer inception_4c/pool_proj
I0403 15:49:02.763789 20293 net.cpp:425] inception_4c/pool_proj <- inception_4c/pool
I0403 15:49:02.763808 20293 net.cpp:399] inception_4c/pool_proj -> inception_4c/pool_proj
I0403 15:49:02.765090 20293 net.cpp:141] Setting up inception_4c/pool_proj
I0403 15:49:02.765117 20293 net.cpp:148] Top shape: 24 64 14 14 (301056)
I0403 15:49:02.765147 20293 net.cpp:156] Memory required for data: 1061809440
I0403 15:49:02.765167 20293 layer_factory.hpp:77] Creating layer inception_4c/relu_pool_proj
I0403 15:49:02.765187 20293 net.cpp:91] Creating Layer inception_4c/relu_pool_proj
I0403 15:49:02.765204 20293 net.cpp:425] inception_4c/relu_pool_proj <- inception_4c/pool_proj
I0403 15:49:02.765223 20293 net.cpp:386] inception_4c/relu_pool_proj -> inception_4c/pool_proj (in-place)
I0403 15:49:02.765405 20293 net.cpp:141] Setting up inception_4c/relu_pool_proj
I0403 15:49:02.765444 20293 net.cpp:148] Top shape: 24 64 14 14 (301056)
I0403 15:49:02.765460 20293 net.cpp:156] Memory required for data: 1063013664
I0403 15:49:02.765475 20293 layer_factory.hpp:77] Creating layer inception_4c/output
I0403 15:49:02.765493 20293 net.cpp:91] Creating Layer inception_4c/output
I0403 15:49:02.765509 20293 net.cpp:425] inception_4c/output <- inception_4c/1x1
I0403 15:49:02.765525 20293 net.cpp:425] inception_4c/output <- inception_4c/3x3
I0403 15:49:02.765542 20293 net.cpp:425] inception_4c/output <- inception_4c/5x5
I0403 15:49:02.765558 20293 net.cpp:425] inception_4c/output <- inception_4c/pool_proj
I0403 15:49:02.765574 20293 net.cpp:399] inception_4c/output -> inception_4c/output
I0403 15:49:02.765625 20293 net.cpp:141] Setting up inception_4c/output
I0403 15:49:02.765650 20293 net.cpp:148] Top shape: 24 512 14 14 (2408448)
I0403 15:49:02.765664 20293 net.cpp:156] Memory required for data: 1072647456
I0403 15:49:02.765687 20293 layer_factory.hpp:77] Creating layer inception_4c/output_inception_4c/output_0_split
I0403 15:49:02.765707 20293 net.cpp:91] Creating Layer inception_4c/output_inception_4c/output_0_split
I0403 15:49:02.765723 20293 net.cpp:425] inception_4c/output_inception_4c/output_0_split <- inception_4c/output
I0403 15:49:02.765741 20293 net.cpp:399] inception_4c/output_inception_4c/output_0_split -> inception_4c/output_inception_4c/output_0_split_0
I0403 15:49:02.765763 20293 net.cpp:399] inception_4c/output_inception_4c/output_0_split -> inception_4c/output_inception_4c/output_0_split_1
I0403 15:49:02.765784 20293 net.cpp:399] inception_4c/output_inception_4c/output_0_split -> inception_4c/output_inception_4c/output_0_split_2
I0403 15:49:02.765806 20293 net.cpp:399] inception_4c/output_inception_4c/output_0_split -> inception_4c/output_inception_4c/output_0_split_3
I0403 15:49:02.765899 20293 net.cpp:141] Setting up inception_4c/output_inception_4c/output_0_split
I0403 15:49:02.765924 20293 net.cpp:148] Top shape: 24 512 14 14 (2408448)
I0403 15:49:02.765940 20293 net.cpp:148] Top shape: 24 512 14 14 (2408448)
I0403 15:49:02.765961 20293 net.cpp:148] Top shape: 24 512 14 14 (2408448)
I0403 15:49:02.765977 20293 net.cpp:148] Top shape: 24 512 14 14 (2408448)
I0403 15:49:02.765992 20293 net.cpp:156] Memory required for data: 1111182624
I0403 15:49:02.766006 20293 layer_factory.hpp:77] Creating layer inception_4d/1x1
I0403 15:49:02.766029 20293 net.cpp:91] Creating Layer inception_4d/1x1
I0403 15:49:02.766047 20293 net.cpp:425] inception_4d/1x1 <- inception_4c/output_inception_4c/output_0_split_0
I0403 15:49:02.766068 20293 net.cpp:399] inception_4d/1x1 -> inception_4d/1x1
I0403 15:49:02.767510 20293 net.cpp:141] Setting up inception_4d/1x1
I0403 15:49:02.767539 20293 net.cpp:148] Top shape: 24 112 14 14 (526848)
I0403 15:49:02.767555 20293 net.cpp:156] Memory required for data: 1113290016
I0403 15:49:02.767573 20293 layer_factory.hpp:77] Creating layer inception_4d/relu_1x1
I0403 15:49:02.767591 20293 net.cpp:91] Creating Layer inception_4d/relu_1x1
I0403 15:49:02.767608 20293 net.cpp:425] inception_4d/relu_1x1 <- inception_4d/1x1
I0403 15:49:02.767628 20293 net.cpp:386] inception_4d/relu_1x1 -> inception_4d/1x1 (in-place)
I0403 15:49:02.767820 20293 net.cpp:141] Setting up inception_4d/relu_1x1
I0403 15:49:02.767845 20293 net.cpp:148] Top shape: 24 112 14 14 (526848)
I0403 15:49:02.767860 20293 net.cpp:156] Memory required for data: 1115397408
I0403 15:49:02.767875 20293 layer_factory.hpp:77] Creating layer inception_4d/3x3_reduce
I0403 15:49:02.767913 20293 net.cpp:91] Creating Layer inception_4d/3x3_reduce
I0403 15:49:02.767933 20293 net.cpp:425] inception_4d/3x3_reduce <- inception_4c/output_inception_4c/output_0_split_1
I0403 15:49:02.767959 20293 net.cpp:399] inception_4d/3x3_reduce -> inception_4d/3x3_reduce
I0403 15:49:02.769541 20293 net.cpp:141] Setting up inception_4d/3x3_reduce
I0403 15:49:02.769572 20293 net.cpp:148] Top shape: 24 144 14 14 (677376)
I0403 15:49:02.769588 20293 net.cpp:156] Memory required for data: 1118106912
I0403 15:49:02.769608 20293 layer_factory.hpp:77] Creating layer inception_4d/relu_3x3_reduce
I0403 15:49:02.769625 20293 net.cpp:91] Creating Layer inception_4d/relu_3x3_reduce
I0403 15:49:02.769641 20293 net.cpp:425] inception_4d/relu_3x3_reduce <- inception_4d/3x3_reduce
I0403 15:49:02.769661 20293 net.cpp:386] inception_4d/relu_3x3_reduce -> inception_4d/3x3_reduce (in-place)
I0403 15:49:02.769963 20293 net.cpp:141] Setting up inception_4d/relu_3x3_reduce
I0403 15:49:02.769991 20293 net.cpp:148] Top shape: 24 144 14 14 (677376)
I0403 15:49:02.770009 20293 net.cpp:156] Memory required for data: 1120816416
I0403 15:49:02.770023 20293 layer_factory.hpp:77] Creating layer inception_4d/3x3
I0403 15:49:02.770046 20293 net.cpp:91] Creating Layer inception_4d/3x3
I0403 15:49:02.770064 20293 net.cpp:425] inception_4d/3x3 <- inception_4d/3x3_reduce
I0403 15:49:02.770083 20293 net.cpp:399] inception_4d/3x3 -> inception_4d/3x3
I0403 15:49:02.774525 20293 net.cpp:141] Setting up inception_4d/3x3
I0403 15:49:02.774555 20293 net.cpp:148] Top shape: 24 288 14 14 (1354752)
I0403 15:49:02.774571 20293 net.cpp:156] Memory required for data: 1126235424
I0403 15:49:02.774590 20293 layer_factory.hpp:77] Creating layer inception_4d/relu_3x3
I0403 15:49:02.774610 20293 net.cpp:91] Creating Layer inception_4d/relu_3x3
I0403 15:49:02.774628 20293 net.cpp:425] inception_4d/relu_3x3 <- inception_4d/3x3
I0403 15:49:02.774646 20293 net.cpp:386] inception_4d/relu_3x3 -> inception_4d/3x3 (in-place)
I0403 15:49:02.774842 20293 net.cpp:141] Setting up inception_4d/relu_3x3
I0403 15:49:02.774868 20293 net.cpp:148] Top shape: 24 288 14 14 (1354752)
I0403 15:49:02.774883 20293 net.cpp:156] Memory required for data: 1131654432
I0403 15:49:02.774898 20293 layer_factory.hpp:77] Creating layer inception_4d/5x5_reduce
I0403 15:49:02.774921 20293 net.cpp:91] Creating Layer inception_4d/5x5_reduce
I0403 15:49:02.774940 20293 net.cpp:425] inception_4d/5x5_reduce <- inception_4c/output_inception_4c/output_0_split_2
I0403 15:49:02.774963 20293 net.cpp:399] inception_4d/5x5_reduce -> inception_4d/5x5_reduce
I0403 15:49:02.776186 20293 net.cpp:141] Setting up inception_4d/5x5_reduce
I0403 15:49:02.776214 20293 net.cpp:148] Top shape: 24 32 14 14 (150528)
I0403 15:49:02.776231 20293 net.cpp:156] Memory required for data: 1132256544
I0403 15:49:02.776249 20293 layer_factory.hpp:77] Creating layer inception_4d/relu_5x5_reduce
I0403 15:49:02.776270 20293 net.cpp:91] Creating Layer inception_4d/relu_5x5_reduce
I0403 15:49:02.776288 20293 net.cpp:425] inception_4d/relu_5x5_reduce <- inception_4d/5x5_reduce
I0403 15:49:02.776305 20293 net.cpp:386] inception_4d/relu_5x5_reduce -> inception_4d/5x5_reduce (in-place)
I0403 15:49:02.776501 20293 net.cpp:141] Setting up inception_4d/relu_5x5_reduce
I0403 15:49:02.776526 20293 net.cpp:148] Top shape: 24 32 14 14 (150528)
I0403 15:49:02.776541 20293 net.cpp:156] Memory required for data: 1132858656
I0403 15:49:02.776556 20293 layer_factory.hpp:77] Creating layer inception_4d/5x5
I0403 15:49:02.776579 20293 net.cpp:91] Creating Layer inception_4d/5x5
I0403 15:49:02.776597 20293 net.cpp:425] inception_4d/5x5 <- inception_4d/5x5_reduce
I0403 15:49:02.776618 20293 net.cpp:399] inception_4d/5x5 -> inception_4d/5x5
I0403 15:49:02.778182 20293 net.cpp:141] Setting up inception_4d/5x5
I0403 15:49:02.778213 20293 net.cpp:148] Top shape: 24 64 14 14 (301056)
I0403 15:49:02.778230 20293 net.cpp:156] Memory required for data: 1134062880
I0403 15:49:02.778251 20293 layer_factory.hpp:77] Creating layer inception_4d/relu_5x5
I0403 15:49:02.778286 20293 net.cpp:91] Creating Layer inception_4d/relu_5x5
I0403 15:49:02.778303 20293 net.cpp:425] inception_4d/relu_5x5 <- inception_4d/5x5
I0403 15:49:02.778321 20293 net.cpp:386] inception_4d/relu_5x5 -> inception_4d/5x5 (in-place)
I0403 15:49:02.778643 20293 net.cpp:141] Setting up inception_4d/relu_5x5
I0403 15:49:02.778673 20293 net.cpp:148] Top shape: 24 64 14 14 (301056)
I0403 15:49:02.778689 20293 net.cpp:156] Memory required for data: 1135267104
I0403 15:49:02.778704 20293 layer_factory.hpp:77] Creating layer inception_4d/pool
I0403 15:49:02.778723 20293 net.cpp:91] Creating Layer inception_4d/pool
I0403 15:49:02.778738 20293 net.cpp:425] inception_4d/pool <- inception_4c/output_inception_4c/output_0_split_3
I0403 15:49:02.778756 20293 net.cpp:399] inception_4d/pool -> inception_4d/pool
I0403 15:49:02.778826 20293 net.cpp:141] Setting up inception_4d/pool
I0403 15:49:02.778851 20293 net.cpp:148] Top shape: 24 512 14 14 (2408448)
I0403 15:49:02.778866 20293 net.cpp:156] Memory required for data: 1144900896
I0403 15:49:02.778880 20293 layer_factory.hpp:77] Creating layer inception_4d/pool_proj
I0403 15:49:02.778903 20293 net.cpp:91] Creating Layer inception_4d/pool_proj
I0403 15:49:02.778920 20293 net.cpp:425] inception_4d/pool_proj <- inception_4d/pool
I0403 15:49:02.778941 20293 net.cpp:399] inception_4d/pool_proj -> inception_4d/pool_proj
I0403 15:49:02.780851 20293 net.cpp:141] Setting up inception_4d/pool_proj
I0403 15:49:02.780881 20293 net.cpp:148] Top shape: 24 64 14 14 (301056)
I0403 15:49:02.780897 20293 net.cpp:156] Memory required for data: 1146105120
I0403 15:49:02.780915 20293 layer_factory.hpp:77] Creating layer inception_4d/relu_pool_proj
I0403 15:49:02.780936 20293 net.cpp:91] Creating Layer inception_4d/relu_pool_proj
I0403 15:49:02.780958 20293 net.cpp:425] inception_4d/relu_pool_proj <- inception_4d/pool_proj
I0403 15:49:02.780977 20293 net.cpp:386] inception_4d/relu_pool_proj -> inception_4d/pool_proj (in-place)
I0403 15:49:02.781172 20293 net.cpp:141] Setting up inception_4d/relu_pool_proj
I0403 15:49:02.781198 20293 net.cpp:148] Top shape: 24 64 14 14 (301056)
I0403 15:49:02.781213 20293 net.cpp:156] Memory required for data: 1147309344
I0403 15:49:02.781227 20293 layer_factory.hpp:77] Creating layer inception_4d/output
I0403 15:49:02.781249 20293 net.cpp:91] Creating Layer inception_4d/output
I0403 15:49:02.781265 20293 net.cpp:425] inception_4d/output <- inception_4d/1x1
I0403 15:49:02.781282 20293 net.cpp:425] inception_4d/output <- inception_4d/3x3
I0403 15:49:02.781298 20293 net.cpp:425] inception_4d/output <- inception_4d/5x5
I0403 15:49:02.781314 20293 net.cpp:425] inception_4d/output <- inception_4d/pool_proj
I0403 15:49:02.781332 20293 net.cpp:399] inception_4d/output -> inception_4d/output
I0403 15:49:02.781381 20293 net.cpp:141] Setting up inception_4d/output
I0403 15:49:02.781405 20293 net.cpp:148] Top shape: 24 528 14 14 (2483712)
I0403 15:49:02.781419 20293 net.cpp:156] Memory required for data: 1157244192
I0403 15:49:02.781435 20293 layer_factory.hpp:77] Creating layer inception_4d/output_inception_4d/output_0_split
I0403 15:49:02.781452 20293 net.cpp:91] Creating Layer inception_4d/output_inception_4d/output_0_split
I0403 15:49:02.781468 20293 net.cpp:425] inception_4d/output_inception_4d/output_0_split <- inception_4d/output
I0403 15:49:02.781488 20293 net.cpp:399] inception_4d/output_inception_4d/output_0_split -> inception_4d/output_inception_4d/output_0_split_0
I0403 15:49:02.781510 20293 net.cpp:399] inception_4d/output_inception_4d/output_0_split -> inception_4d/output_inception_4d/output_0_split_1
I0403 15:49:02.781532 20293 net.cpp:399] inception_4d/output_inception_4d/output_0_split -> inception_4d/output_inception_4d/output_0_split_2
I0403 15:49:02.781553 20293 net.cpp:399] inception_4d/output_inception_4d/output_0_split -> inception_4d/output_inception_4d/output_0_split_3
I0403 15:49:02.781579 20293 net.cpp:399] inception_4d/output_inception_4d/output_0_split -> inception_4d/output_inception_4d/output_0_split_4
I0403 15:49:02.781687 20293 net.cpp:141] Setting up inception_4d/output_inception_4d/output_0_split
I0403 15:49:02.781724 20293 net.cpp:148] Top shape: 24 528 14 14 (2483712)
I0403 15:49:02.781743 20293 net.cpp:148] Top shape: 24 528 14 14 (2483712)
I0403 15:49:02.781759 20293 net.cpp:148] Top shape: 24 528 14 14 (2483712)
I0403 15:49:02.781774 20293 net.cpp:148] Top shape: 24 528 14 14 (2483712)
I0403 15:49:02.781790 20293 net.cpp:148] Top shape: 24 528 14 14 (2483712)
I0403 15:49:02.781803 20293 net.cpp:156] Memory required for data: 1206918432
I0403 15:49:02.781817 20293 layer_factory.hpp:77] Creating layer loss2/ave_pool
I0403 15:49:02.781836 20293 net.cpp:91] Creating Layer loss2/ave_pool
I0403 15:49:02.781852 20293 net.cpp:425] loss2/ave_pool <- inception_4d/output_inception_4d/output_0_split_0
I0403 15:49:02.781874 20293 net.cpp:399] loss2/ave_pool -> loss2/ave_pool
I0403 15:49:02.782207 20293 net.cpp:141] Setting up loss2/ave_pool
I0403 15:49:02.782234 20293 net.cpp:148] Top shape: 24 528 4 4 (202752)
I0403 15:49:02.782249 20293 net.cpp:156] Memory required for data: 1207729440
I0403 15:49:02.782276 20293 layer_factory.hpp:77] Creating layer loss2/conv
I0403 15:49:02.782299 20293 net.cpp:91] Creating Layer loss2/conv
I0403 15:49:02.782316 20293 net.cpp:425] loss2/conv <- loss2/ave_pool
I0403 15:49:02.782337 20293 net.cpp:399] loss2/conv -> loss2/conv
I0403 15:49:02.784291 20293 net.cpp:141] Setting up loss2/conv
I0403 15:49:02.784318 20293 net.cpp:148] Top shape: 24 128 4 4 (49152)
I0403 15:49:02.784334 20293 net.cpp:156] Memory required for data: 1207926048
I0403 15:49:02.784355 20293 layer_factory.hpp:77] Creating layer loss2/relu_conv
I0403 15:49:02.784375 20293 net.cpp:91] Creating Layer loss2/relu_conv
I0403 15:49:02.784391 20293 net.cpp:425] loss2/relu_conv <- loss2/conv
I0403 15:49:02.784409 20293 net.cpp:386] loss2/relu_conv -> loss2/conv (in-place)
I0403 15:49:02.784698 20293 net.cpp:141] Setting up loss2/relu_conv
I0403 15:49:02.784731 20293 net.cpp:148] Top shape: 24 128 4 4 (49152)
I0403 15:49:02.784749 20293 net.cpp:156] Memory required for data: 1208122656
I0403 15:49:02.784764 20293 layer_factory.hpp:77] Creating layer loss2/fc
I0403 15:49:02.784782 20293 net.cpp:91] Creating Layer loss2/fc
I0403 15:49:02.784798 20293 net.cpp:425] loss2/fc <- loss2/conv
I0403 15:49:02.784821 20293 net.cpp:399] loss2/fc -> loss2/fc
I0403 15:49:02.803052 20293 net.cpp:141] Setting up loss2/fc
I0403 15:49:02.803108 20293 net.cpp:148] Top shape: 24 1024 (24576)
I0403 15:49:02.803124 20293 net.cpp:156] Memory required for data: 1208220960
I0403 15:49:02.803144 20293 layer_factory.hpp:77] Creating layer loss2/relu_fc
I0403 15:49:02.803165 20293 net.cpp:91] Creating Layer loss2/relu_fc
I0403 15:49:02.803184 20293 net.cpp:425] loss2/relu_fc <- loss2/fc
I0403 15:49:02.803202 20293 net.cpp:386] loss2/relu_fc -> loss2/fc (in-place)
I0403 15:49:02.803544 20293 net.cpp:141] Setting up loss2/relu_fc
I0403 15:49:02.803570 20293 net.cpp:148] Top shape: 24 1024 (24576)
I0403 15:49:02.803586 20293 net.cpp:156] Memory required for data: 1208319264
I0403 15:49:02.803601 20293 layer_factory.hpp:77] Creating layer loss2/drop_fc
I0403 15:49:02.803622 20293 net.cpp:91] Creating Layer loss2/drop_fc
I0403 15:49:02.803638 20293 net.cpp:425] loss2/drop_fc <- loss2/fc
I0403 15:49:02.803655 20293 net.cpp:386] loss2/drop_fc -> loss2/fc (in-place)
I0403 15:49:02.803719 20293 net.cpp:141] Setting up loss2/drop_fc
I0403 15:49:02.803740 20293 net.cpp:148] Top shape: 24 1024 (24576)
I0403 15:49:02.803755 20293 net.cpp:156] Memory required for data: 1208417568
I0403 15:49:02.803769 20293 layer_factory.hpp:77] Creating layer loss2/classifier_plantvillage
I0403 15:49:02.803787 20293 net.cpp:91] Creating Layer loss2/classifier_plantvillage
I0403 15:49:02.803803 20293 net.cpp:425] loss2/classifier_plantvillage <- loss2/fc
I0403 15:49:02.803824 20293 net.cpp:399] loss2/classifier_plantvillage -> loss2/classifier_plantvillage
I0403 15:49:02.804226 20293 net.cpp:141] Setting up loss2/classifier_plantvillage
I0403 15:49:02.804253 20293 net.cpp:148] Top shape: 24 38 (912)
I0403 15:49:02.804291 20293 net.cpp:156] Memory required for data: 1208421216
I0403 15:49:02.804311 20293 layer_factory.hpp:77] Creating layer loss2/classifier_plantvillage_loss2/classifier_plantvillage_0_split
I0403 15:49:02.804330 20293 net.cpp:91] Creating Layer loss2/classifier_plantvillage_loss2/classifier_plantvillage_0_split
I0403 15:49:02.804347 20293 net.cpp:425] loss2/classifier_plantvillage_loss2/classifier_plantvillage_0_split <- loss2/classifier_plantvillage
I0403 15:49:02.804365 20293 net.cpp:399] loss2/classifier_plantvillage_loss2/classifier_plantvillage_0_split -> loss2/classifier_plantvillage_loss2/classifier_plantvillage_0_split_0
I0403 15:49:02.804386 20293 net.cpp:399] loss2/classifier_plantvillage_loss2/classifier_plantvillage_0_split -> loss2/classifier_plantvillage_loss2/classifier_plantvillage_0_split_1
I0403 15:49:02.804405 20293 net.cpp:399] loss2/classifier_plantvillage_loss2/classifier_plantvillage_0_split -> loss2/classifier_plantvillage_loss2/classifier_plantvillage_0_split_2
I0403 15:49:02.804479 20293 net.cpp:141] Setting up loss2/classifier_plantvillage_loss2/classifier_plantvillage_0_split
I0403 15:49:02.804502 20293 net.cpp:148] Top shape: 24 38 (912)
I0403 15:49:02.804517 20293 net.cpp:148] Top shape: 24 38 (912)
I0403 15:49:02.804532 20293 net.cpp:148] Top shape: 24 38 (912)
I0403 15:49:02.804544 20293 net.cpp:156] Memory required for data: 1208432160
I0403 15:49:02.804558 20293 layer_factory.hpp:77] Creating layer inception_4e/1x1
I0403 15:49:02.804581 20293 net.cpp:91] Creating Layer inception_4e/1x1
I0403 15:49:02.804599 20293 net.cpp:425] inception_4e/1x1 <- inception_4d/output_inception_4d/output_0_split_1
I0403 15:49:02.804617 20293 net.cpp:399] inception_4e/1x1 -> inception_4e/1x1
I0403 15:49:02.806438 20293 net.cpp:141] Setting up inception_4e/1x1
I0403 15:49:02.806468 20293 net.cpp:148] Top shape: 24 256 14 14 (1204224)
I0403 15:49:02.806484 20293 net.cpp:156] Memory required for data: 1213249056
I0403 15:49:02.806502 20293 layer_factory.hpp:77] Creating layer inception_4e/relu_1x1
I0403 15:49:02.806520 20293 net.cpp:91] Creating Layer inception_4e/relu_1x1
I0403 15:49:02.806535 20293 net.cpp:425] inception_4e/relu_1x1 <- inception_4e/1x1
I0403 15:49:02.806551 20293 net.cpp:386] inception_4e/relu_1x1 -> inception_4e/1x1 (in-place)
I0403 15:49:02.806851 20293 net.cpp:141] Setting up inception_4e/relu_1x1
I0403 15:49:02.806879 20293 net.cpp:148] Top shape: 24 256 14 14 (1204224)
I0403 15:49:02.806895 20293 net.cpp:156] Memory required for data: 1218065952
I0403 15:49:02.806908 20293 layer_factory.hpp:77] Creating layer inception_4e/3x3_reduce
I0403 15:49:02.806929 20293 net.cpp:91] Creating Layer inception_4e/3x3_reduce
I0403 15:49:02.806947 20293 net.cpp:425] inception_4e/3x3_reduce <- inception_4d/output_inception_4d/output_0_split_2
I0403 15:49:02.806970 20293 net.cpp:399] inception_4e/3x3_reduce -> inception_4e/3x3_reduce
I0403 15:49:02.809110 20293 net.cpp:141] Setting up inception_4e/3x3_reduce
I0403 15:49:02.809139 20293 net.cpp:148] Top shape: 24 160 14 14 (752640)
I0403 15:49:02.809154 20293 net.cpp:156] Memory required for data: 1221076512
I0403 15:49:02.809170 20293 layer_factory.hpp:77] Creating layer inception_4e/relu_3x3_reduce
I0403 15:49:02.809190 20293 net.cpp:91] Creating Layer inception_4e/relu_3x3_reduce
I0403 15:49:02.809206 20293 net.cpp:425] inception_4e/relu_3x3_reduce <- inception_4e/3x3_reduce
I0403 15:49:02.809223 20293 net.cpp:386] inception_4e/relu_3x3_reduce -> inception_4e/3x3_reduce (in-place)
I0403 15:49:02.809408 20293 net.cpp:141] Setting up inception_4e/relu_3x3_reduce
I0403 15:49:02.809432 20293 net.cpp:148] Top shape: 24 160 14 14 (752640)
I0403 15:49:02.809447 20293 net.cpp:156] Memory required for data: 1224087072
I0403 15:49:02.809460 20293 layer_factory.hpp:77] Creating layer inception_4e/3x3
I0403 15:49:02.809481 20293 net.cpp:91] Creating Layer inception_4e/3x3
I0403 15:49:02.809499 20293 net.cpp:425] inception_4e/3x3 <- inception_4e/3x3_reduce
I0403 15:49:02.809520 20293 net.cpp:399] inception_4e/3x3 -> inception_4e/3x3
I0403 15:49:02.814524 20293 net.cpp:141] Setting up inception_4e/3x3
I0403 15:49:02.814564 20293 net.cpp:148] Top shape: 24 320 14 14 (1505280)
I0403 15:49:02.814580 20293 net.cpp:156] Memory required for data: 1230108192
I0403 15:49:02.814599 20293 layer_factory.hpp:77] Creating layer inception_4e/relu_3x3
I0403 15:49:02.814616 20293 net.cpp:91] Creating Layer inception_4e/relu_3x3
I0403 15:49:02.814632 20293 net.cpp:425] inception_4e/relu_3x3 <- inception_4e/3x3
I0403 15:49:02.814651 20293 net.cpp:386] inception_4e/relu_3x3 -> inception_4e/3x3 (in-place)
I0403 15:49:02.814947 20293 net.cpp:141] Setting up inception_4e/relu_3x3
I0403 15:49:02.814978 20293 net.cpp:148] Top shape: 24 320 14 14 (1505280)
I0403 15:49:02.814995 20293 net.cpp:156] Memory required for data: 1236129312
I0403 15:49:02.815008 20293 layer_factory.hpp:77] Creating layer inception_4e/5x5_reduce
I0403 15:49:02.815032 20293 net.cpp:91] Creating Layer inception_4e/5x5_reduce
I0403 15:49:02.815048 20293 net.cpp:425] inception_4e/5x5_reduce <- inception_4d/output_inception_4d/output_0_split_3
I0403 15:49:02.815069 20293 net.cpp:399] inception_4e/5x5_reduce -> inception_4e/5x5_reduce
I0403 15:49:02.816130 20293 net.cpp:141] Setting up inception_4e/5x5_reduce
I0403 15:49:02.816159 20293 net.cpp:148] Top shape: 24 32 14 14 (150528)
I0403 15:49:02.816175 20293 net.cpp:156] Memory required for data: 1236731424
I0403 15:49:02.816193 20293 layer_factory.hpp:77] Creating layer inception_4e/relu_5x5_reduce
I0403 15:49:02.816211 20293 net.cpp:91] Creating Layer inception_4e/relu_5x5_reduce
I0403 15:49:02.816226 20293 net.cpp:425] inception_4e/relu_5x5_reduce <- inception_4e/5x5_reduce
I0403 15:49:02.816242 20293 net.cpp:386] inception_4e/relu_5x5_reduce -> inception_4e/5x5_reduce (in-place)
I0403 15:49:02.816539 20293 net.cpp:141] Setting up inception_4e/relu_5x5_reduce
I0403 15:49:02.816565 20293 net.cpp:148] Top shape: 24 32 14 14 (150528)
I0403 15:49:02.816581 20293 net.cpp:156] Memory required for data: 1237333536
I0403 15:49:02.816596 20293 layer_factory.hpp:77] Creating layer inception_4e/5x5
I0403 15:49:02.816633 20293 net.cpp:91] Creating Layer inception_4e/5x5
I0403 15:49:02.816653 20293 net.cpp:425] inception_4e/5x5 <- inception_4e/5x5_reduce
I0403 15:49:02.816671 20293 net.cpp:399] inception_4e/5x5 -> inception_4e/5x5
I0403 15:49:02.818496 20293 net.cpp:141] Setting up inception_4e/5x5
I0403 15:49:02.818524 20293 net.cpp:148] Top shape: 24 128 14 14 (602112)
I0403 15:49:02.818539 20293 net.cpp:156] Memory required for data: 1239741984
I0403 15:49:02.818557 20293 layer_factory.hpp:77] Creating layer inception_4e/relu_5x5
I0403 15:49:02.818577 20293 net.cpp:91] Creating Layer inception_4e/relu_5x5
I0403 15:49:02.818593 20293 net.cpp:425] inception_4e/relu_5x5 <- inception_4e/5x5
I0403 15:49:02.818608 20293 net.cpp:386] inception_4e/relu_5x5 -> inception_4e/5x5 (in-place)
I0403 15:49:02.818804 20293 net.cpp:141] Setting up inception_4e/relu_5x5
I0403 15:49:02.818830 20293 net.cpp:148] Top shape: 24 128 14 14 (602112)
I0403 15:49:02.818845 20293 net.cpp:156] Memory required for data: 1242150432
I0403 15:49:02.818859 20293 layer_factory.hpp:77] Creating layer inception_4e/pool
I0403 15:49:02.818876 20293 net.cpp:91] Creating Layer inception_4e/pool
I0403 15:49:02.818892 20293 net.cpp:425] inception_4e/pool <- inception_4d/output_inception_4d/output_0_split_4
I0403 15:49:02.818910 20293 net.cpp:399] inception_4e/pool -> inception_4e/pool
I0403 15:49:02.818987 20293 net.cpp:141] Setting up inception_4e/pool
I0403 15:49:02.819011 20293 net.cpp:148] Top shape: 24 528 14 14 (2483712)
I0403 15:49:02.819025 20293 net.cpp:156] Memory required for data: 1252085280
I0403 15:49:02.819039 20293 layer_factory.hpp:77] Creating layer inception_4e/pool_proj
I0403 15:49:02.819061 20293 net.cpp:91] Creating Layer inception_4e/pool_proj
I0403 15:49:02.819077 20293 net.cpp:425] inception_4e/pool_proj <- inception_4e/pool
I0403 15:49:02.819097 20293 net.cpp:399] inception_4e/pool_proj -> inception_4e/pool_proj
I0403 15:49:02.820571 20293 net.cpp:141] Setting up inception_4e/pool_proj
I0403 15:49:02.820610 20293 net.cpp:148] Top shape: 24 128 14 14 (602112)
I0403 15:49:02.820737 20293 net.cpp:156] Memory required for data: 1254493728
I0403 15:49:02.820756 20293 layer_factory.hpp:77] Creating layer inception_4e/relu_pool_proj
I0403 15:49:02.820776 20293 net.cpp:91] Creating Layer inception_4e/relu_pool_proj
I0403 15:49:02.820792 20293 net.cpp:425] inception_4e/relu_pool_proj <- inception_4e/pool_proj
I0403 15:49:02.820809 20293 net.cpp:386] inception_4e/relu_pool_proj -> inception_4e/pool_proj (in-place)
I0403 15:49:02.821113 20293 net.cpp:141] Setting up inception_4e/relu_pool_proj
I0403 15:49:02.821140 20293 net.cpp:148] Top shape: 24 128 14 14 (602112)
I0403 15:49:02.821153 20293 net.cpp:156] Memory required for data: 1256902176
I0403 15:49:02.821167 20293 layer_factory.hpp:77] Creating layer inception_4e/output
I0403 15:49:02.821184 20293 net.cpp:91] Creating Layer inception_4e/output
I0403 15:49:02.821202 20293 net.cpp:425] inception_4e/output <- inception_4e/1x1
I0403 15:49:02.821219 20293 net.cpp:425] inception_4e/output <- inception_4e/3x3
I0403 15:49:02.821235 20293 net.cpp:425] inception_4e/output <- inception_4e/5x5
I0403 15:49:02.821250 20293 net.cpp:425] inception_4e/output <- inception_4e/pool_proj
I0403 15:49:02.821266 20293 net.cpp:399] inception_4e/output -> inception_4e/output
I0403 15:49:02.821313 20293 net.cpp:141] Setting up inception_4e/output
I0403 15:49:02.821339 20293 net.cpp:148] Top shape: 24 832 14 14 (3913728)
I0403 15:49:02.821354 20293 net.cpp:156] Memory required for data: 1272557088
I0403 15:49:02.821368 20293 layer_factory.hpp:77] Creating layer pool4/3x3_s2
I0403 15:49:02.821384 20293 net.cpp:91] Creating Layer pool4/3x3_s2
I0403 15:49:02.821399 20293 net.cpp:425] pool4/3x3_s2 <- inception_4e/output
I0403 15:49:02.821419 20293 net.cpp:399] pool4/3x3_s2 -> pool4/3x3_s2
I0403 15:49:02.821485 20293 net.cpp:141] Setting up pool4/3x3_s2
I0403 15:49:02.821511 20293 net.cpp:148] Top shape: 24 832 7 7 (978432)
I0403 15:49:02.821526 20293 net.cpp:156] Memory required for data: 1276470816
I0403 15:49:02.821540 20293 layer_factory.hpp:77] Creating layer pool4/3x3_s2_pool4/3x3_s2_0_split
I0403 15:49:02.821557 20293 net.cpp:91] Creating Layer pool4/3x3_s2_pool4/3x3_s2_0_split
I0403 15:49:02.821571 20293 net.cpp:425] pool4/3x3_s2_pool4/3x3_s2_0_split <- pool4/3x3_s2
I0403 15:49:02.821588 20293 net.cpp:399] pool4/3x3_s2_pool4/3x3_s2_0_split -> pool4/3x3_s2_pool4/3x3_s2_0_split_0
I0403 15:49:02.821607 20293 net.cpp:399] pool4/3x3_s2_pool4/3x3_s2_0_split -> pool4/3x3_s2_pool4/3x3_s2_0_split_1
I0403 15:49:02.821630 20293 net.cpp:399] pool4/3x3_s2_pool4/3x3_s2_0_split -> pool4/3x3_s2_pool4/3x3_s2_0_split_2
I0403 15:49:02.821650 20293 net.cpp:399] pool4/3x3_s2_pool4/3x3_s2_0_split -> pool4/3x3_s2_pool4/3x3_s2_0_split_3
I0403 15:49:02.821738 20293 net.cpp:141] Setting up pool4/3x3_s2_pool4/3x3_s2_0_split
I0403 15:49:02.821761 20293 net.cpp:148] Top shape: 24 832 7 7 (978432)
I0403 15:49:02.821777 20293 net.cpp:148] Top shape: 24 832 7 7 (978432)
I0403 15:49:02.821791 20293 net.cpp:148] Top shape: 24 832 7 7 (978432)
I0403 15:49:02.821806 20293 net.cpp:148] Top shape: 24 832 7 7 (978432)
I0403 15:49:02.821820 20293 net.cpp:156] Memory required for data: 1292125728
I0403 15:49:02.821833 20293 layer_factory.hpp:77] Creating layer inception_5a/1x1
I0403 15:49:02.821856 20293 net.cpp:91] Creating Layer inception_5a/1x1
I0403 15:49:02.821872 20293 net.cpp:425] inception_5a/1x1 <- pool4/3x3_s2_pool4/3x3_s2_0_split_0
I0403 15:49:02.821892 20293 net.cpp:399] inception_5a/1x1 -> inception_5a/1x1
I0403 15:49:02.824700 20293 net.cpp:141] Setting up inception_5a/1x1
I0403 15:49:02.824728 20293 net.cpp:148] Top shape: 24 256 7 7 (301056)
I0403 15:49:02.824743 20293 net.cpp:156] Memory required for data: 1293329952
I0403 15:49:02.824761 20293 layer_factory.hpp:77] Creating layer inception_5a/relu_1x1
I0403 15:49:02.824780 20293 net.cpp:91] Creating Layer inception_5a/relu_1x1
I0403 15:49:02.824796 20293 net.cpp:425] inception_5a/relu_1x1 <- inception_5a/1x1
I0403 15:49:02.824813 20293 net.cpp:386] inception_5a/relu_1x1 -> inception_5a/1x1 (in-place)
I0403 15:49:02.825134 20293 net.cpp:141] Setting up inception_5a/relu_1x1
I0403 15:49:02.825160 20293 net.cpp:148] Top shape: 24 256 7 7 (301056)
I0403 15:49:02.825173 20293 net.cpp:156] Memory required for data: 1294534176
I0403 15:49:02.825188 20293 layer_factory.hpp:77] Creating layer inception_5a/3x3_reduce
I0403 15:49:02.825211 20293 net.cpp:91] Creating Layer inception_5a/3x3_reduce
I0403 15:49:02.825229 20293 net.cpp:425] inception_5a/3x3_reduce <- pool4/3x3_s2_pool4/3x3_s2_0_split_1
I0403 15:49:02.825249 20293 net.cpp:399] inception_5a/3x3_reduce -> inception_5a/3x3_reduce
I0403 15:49:02.827694 20293 net.cpp:141] Setting up inception_5a/3x3_reduce
I0403 15:49:02.827724 20293 net.cpp:148] Top shape: 24 160 7 7 (188160)
I0403 15:49:02.827739 20293 net.cpp:156] Memory required for data: 1295286816
I0403 15:49:02.827759 20293 layer_factory.hpp:77] Creating layer inception_5a/relu_3x3_reduce
I0403 15:49:02.827778 20293 net.cpp:91] Creating Layer inception_5a/relu_3x3_reduce
I0403 15:49:02.827796 20293 net.cpp:425] inception_5a/relu_3x3_reduce <- inception_5a/3x3_reduce
I0403 15:49:02.827813 20293 net.cpp:386] inception_5a/relu_3x3_reduce -> inception_5a/3x3_reduce (in-place)
I0403 15:49:02.828013 20293 net.cpp:141] Setting up inception_5a/relu_3x3_reduce
I0403 15:49:02.828038 20293 net.cpp:148] Top shape: 24 160 7 7 (188160)
I0403 15:49:02.828053 20293 net.cpp:156] Memory required for data: 1296039456
I0403 15:49:02.828068 20293 layer_factory.hpp:77] Creating layer inception_5a/3x3
I0403 15:49:02.828091 20293 net.cpp:91] Creating Layer inception_5a/3x3
I0403 15:49:02.828109 20293 net.cpp:425] inception_5a/3x3 <- inception_5a/3x3_reduce
I0403 15:49:02.828130 20293 net.cpp:399] inception_5a/3x3 -> inception_5a/3x3
I0403 15:49:02.833319 20293 net.cpp:141] Setting up inception_5a/3x3
I0403 15:49:02.833349 20293 net.cpp:148] Top shape: 24 320 7 7 (376320)
I0403 15:49:02.833365 20293 net.cpp:156] Memory required for data: 1297544736
I0403 15:49:02.833384 20293 layer_factory.hpp:77] Creating layer inception_5a/relu_3x3
I0403 15:49:02.833405 20293 net.cpp:91] Creating Layer inception_5a/relu_3x3
I0403 15:49:02.833421 20293 net.cpp:425] inception_5a/relu_3x3 <- inception_5a/3x3
I0403 15:49:02.833438 20293 net.cpp:386] inception_5a/relu_3x3 -> inception_5a/3x3 (in-place)
I0403 15:49:02.833731 20293 net.cpp:141] Setting up inception_5a/relu_3x3
I0403 15:49:02.833756 20293 net.cpp:148] Top shape: 24 320 7 7 (376320)
I0403 15:49:02.833771 20293 net.cpp:156] Memory required for data: 1299050016
I0403 15:49:02.833786 20293 layer_factory.hpp:77] Creating layer inception_5a/5x5_reduce
I0403 15:49:02.833807 20293 net.cpp:91] Creating Layer inception_5a/5x5_reduce
I0403 15:49:02.833824 20293 net.cpp:425] inception_5a/5x5_reduce <- pool4/3x3_s2_pool4/3x3_s2_0_split_2
I0403 15:49:02.833848 20293 net.cpp:399] inception_5a/5x5_reduce -> inception_5a/5x5_reduce
I0403 15:49:02.835032 20293 net.cpp:141] Setting up inception_5a/5x5_reduce
I0403 15:49:02.835062 20293 net.cpp:148] Top shape: 24 32 7 7 (37632)
I0403 15:49:02.835078 20293 net.cpp:156] Memory required for data: 1299200544
I0403 15:49:02.835096 20293 layer_factory.hpp:77] Creating layer inception_5a/relu_5x5_reduce
I0403 15:49:02.835117 20293 net.cpp:91] Creating Layer inception_5a/relu_5x5_reduce
I0403 15:49:02.835136 20293 net.cpp:425] inception_5a/relu_5x5_reduce <- inception_5a/5x5_reduce
I0403 15:49:02.835155 20293 net.cpp:386] inception_5a/relu_5x5_reduce -> inception_5a/5x5_reduce (in-place)
I0403 15:49:02.835469 20293 net.cpp:141] Setting up inception_5a/relu_5x5_reduce
I0403 15:49:02.835496 20293 net.cpp:148] Top shape: 24 32 7 7 (37632)
I0403 15:49:02.835511 20293 net.cpp:156] Memory required for data: 1299351072
I0403 15:49:02.835526 20293 layer_factory.hpp:77] Creating layer inception_5a/5x5
I0403 15:49:02.835547 20293 net.cpp:91] Creating Layer inception_5a/5x5
I0403 15:49:02.835566 20293 net.cpp:425] inception_5a/5x5 <- inception_5a/5x5_reduce
I0403 15:49:02.835583 20293 net.cpp:399] inception_5a/5x5 -> inception_5a/5x5
I0403 15:49:02.837286 20293 net.cpp:141] Setting up inception_5a/5x5
I0403 15:49:02.837327 20293 net.cpp:148] Top shape: 24 128 7 7 (150528)
I0403 15:49:02.837342 20293 net.cpp:156] Memory required for data: 1299953184
I0403 15:49:02.837360 20293 layer_factory.hpp:77] Creating layer inception_5a/relu_5x5
I0403 15:49:02.837381 20293 net.cpp:91] Creating Layer inception_5a/relu_5x5
I0403 15:49:02.837400 20293 net.cpp:425] inception_5a/relu_5x5 <- inception_5a/5x5
I0403 15:49:02.837419 20293 net.cpp:386] inception_5a/relu_5x5 -> inception_5a/5x5 (in-place)
I0403 15:49:02.837611 20293 net.cpp:141] Setting up inception_5a/relu_5x5
I0403 15:49:02.837641 20293 net.cpp:148] Top shape: 24 128 7 7 (150528)
I0403 15:49:02.837657 20293 net.cpp:156] Memory required for data: 1300555296
I0403 15:49:02.837672 20293 layer_factory.hpp:77] Creating layer inception_5a/pool
I0403 15:49:02.837690 20293 net.cpp:91] Creating Layer inception_5a/pool
I0403 15:49:02.837707 20293 net.cpp:425] inception_5a/pool <- pool4/3x3_s2_pool4/3x3_s2_0_split_3
I0403 15:49:02.837728 20293 net.cpp:399] inception_5a/pool -> inception_5a/pool
I0403 15:49:02.837796 20293 net.cpp:141] Setting up inception_5a/pool
I0403 15:49:02.837821 20293 net.cpp:148] Top shape: 24 832 7 7 (978432)
I0403 15:49:02.837833 20293 net.cpp:156] Memory required for data: 1304469024
I0403 15:49:02.837847 20293 layer_factory.hpp:77] Creating layer inception_5a/pool_proj
I0403 15:49:02.837869 20293 net.cpp:91] Creating Layer inception_5a/pool_proj
I0403 15:49:02.837887 20293 net.cpp:425] inception_5a/pool_proj <- inception_5a/pool
I0403 15:49:02.837908 20293 net.cpp:399] inception_5a/pool_proj -> inception_5a/pool_proj
I0403 15:49:02.840162 20293 net.cpp:141] Setting up inception_5a/pool_proj
I0403 15:49:02.840193 20293 net.cpp:148] Top shape: 24 128 7 7 (150528)
I0403 15:49:02.840209 20293 net.cpp:156] Memory required for data: 1305071136
I0403 15:49:02.840227 20293 layer_factory.hpp:77] Creating layer inception_5a/relu_pool_proj
I0403 15:49:02.840248 20293 net.cpp:91] Creating Layer inception_5a/relu_pool_proj
I0403 15:49:02.840265 20293 net.cpp:425] inception_5a/relu_pool_proj <- inception_5a/pool_proj
I0403 15:49:02.840282 20293 net.cpp:386] inception_5a/relu_pool_proj -> inception_5a/pool_proj (in-place)
I0403 15:49:02.840589 20293 net.cpp:141] Setting up inception_5a/relu_pool_proj
I0403 15:49:02.840615 20293 net.cpp:148] Top shape: 24 128 7 7 (150528)
I0403 15:49:02.840631 20293 net.cpp:156] Memory required for data: 1305673248
I0403 15:49:02.840646 20293 layer_factory.hpp:77] Creating layer inception_5a/output
I0403 15:49:02.840662 20293 net.cpp:91] Creating Layer inception_5a/output
I0403 15:49:02.840677 20293 net.cpp:425] inception_5a/output <- inception_5a/1x1
I0403 15:49:02.840694 20293 net.cpp:425] inception_5a/output <- inception_5a/3x3
I0403 15:49:02.840710 20293 net.cpp:425] inception_5a/output <- inception_5a/5x5
I0403 15:49:02.840726 20293 net.cpp:425] inception_5a/output <- inception_5a/pool_proj
I0403 15:49:02.840745 20293 net.cpp:399] inception_5a/output -> inception_5a/output
I0403 15:49:02.840800 20293 net.cpp:141] Setting up inception_5a/output
I0403 15:49:02.840822 20293 net.cpp:148] Top shape: 24 832 7 7 (978432)
I0403 15:49:02.840837 20293 net.cpp:156] Memory required for data: 1309586976
I0403 15:49:02.840862 20293 layer_factory.hpp:77] Creating layer inception_5a/output_inception_5a/output_0_split
I0403 15:49:02.840879 20293 net.cpp:91] Creating Layer inception_5a/output_inception_5a/output_0_split
I0403 15:49:02.840894 20293 net.cpp:425] inception_5a/output_inception_5a/output_0_split <- inception_5a/output
I0403 15:49:02.840914 20293 net.cpp:399] inception_5a/output_inception_5a/output_0_split -> inception_5a/output_inception_5a/output_0_split_0
I0403 15:49:02.840935 20293 net.cpp:399] inception_5a/output_inception_5a/output_0_split -> inception_5a/output_inception_5a/output_0_split_1
I0403 15:49:02.840958 20293 net.cpp:399] inception_5a/output_inception_5a/output_0_split -> inception_5a/output_inception_5a/output_0_split_2
I0403 15:49:02.840980 20293 net.cpp:399] inception_5a/output_inception_5a/output_0_split -> inception_5a/output_inception_5a/output_0_split_3
I0403 15:49:02.841089 20293 net.cpp:141] Setting up inception_5a/output_inception_5a/output_0_split
I0403 15:49:02.841114 20293 net.cpp:148] Top shape: 24 832 7 7 (978432)
I0403 15:49:02.841128 20293 net.cpp:148] Top shape: 24 832 7 7 (978432)
I0403 15:49:02.841145 20293 net.cpp:148] Top shape: 24 832 7 7 (978432)
I0403 15:49:02.841159 20293 net.cpp:148] Top shape: 24 832 7 7 (978432)
I0403 15:49:02.841172 20293 net.cpp:156] Memory required for data: 1325241888
I0403 15:49:02.841186 20293 layer_factory.hpp:77] Creating layer inception_5b/1x1
I0403 15:49:02.841208 20293 net.cpp:91] Creating Layer inception_5b/1x1
I0403 15:49:02.841225 20293 net.cpp:425] inception_5b/1x1 <- inception_5a/output_inception_5a/output_0_split_0
I0403 15:49:02.841244 20293 net.cpp:399] inception_5b/1x1 -> inception_5b/1x1
I0403 15:49:02.844923 20293 net.cpp:141] Setting up inception_5b/1x1
I0403 15:49:02.844956 20293 net.cpp:148] Top shape: 24 384 7 7 (451584)
I0403 15:49:02.844975 20293 net.cpp:156] Memory required for data: 1327048224
I0403 15:49:02.844993 20293 layer_factory.hpp:77] Creating layer inception_5b/relu_1x1
I0403 15:49:02.845015 20293 net.cpp:91] Creating Layer inception_5b/relu_1x1
I0403 15:49:02.845032 20293 net.cpp:425] inception_5b/relu_1x1 <- inception_5b/1x1
I0403 15:49:02.845049 20293 net.cpp:386] inception_5b/relu_1x1 -> inception_5b/1x1 (in-place)
I0403 15:49:02.845350 20293 net.cpp:141] Setting up inception_5b/relu_1x1
I0403 15:49:02.845376 20293 net.cpp:148] Top shape: 24 384 7 7 (451584)
I0403 15:49:02.845391 20293 net.cpp:156] Memory required for data: 1328854560
I0403 15:49:02.845405 20293 layer_factory.hpp:77] Creating layer inception_5b/3x3_reduce
I0403 15:49:02.845427 20293 net.cpp:91] Creating Layer inception_5b/3x3_reduce
I0403 15:49:02.845443 20293 net.cpp:425] inception_5b/3x3_reduce <- inception_5a/output_inception_5a/output_0_split_1
I0403 15:49:02.845465 20293 net.cpp:399] inception_5b/3x3_reduce -> inception_5b/3x3_reduce
I0403 15:49:02.848074 20293 net.cpp:141] Setting up inception_5b/3x3_reduce
I0403 15:49:02.848104 20293 net.cpp:148] Top shape: 24 192 7 7 (225792)
I0403 15:49:02.848119 20293 net.cpp:156] Memory required for data: 1329757728
I0403 15:49:02.848136 20293 layer_factory.hpp:77] Creating layer inception_5b/relu_3x3_reduce
I0403 15:49:02.848155 20293 net.cpp:91] Creating Layer inception_5b/relu_3x3_reduce
I0403 15:49:02.848171 20293 net.cpp:425] inception_5b/relu_3x3_reduce <- inception_5b/3x3_reduce
I0403 15:49:02.848188 20293 net.cpp:386] inception_5b/relu_3x3_reduce -> inception_5b/3x3_reduce (in-place)
I0403 15:49:02.848378 20293 net.cpp:141] Setting up inception_5b/relu_3x3_reduce
I0403 15:49:02.848402 20293 net.cpp:148] Top shape: 24 192 7 7 (225792)
I0403 15:49:02.848420 20293 net.cpp:156] Memory required for data: 1330660896
I0403 15:49:02.848434 20293 layer_factory.hpp:77] Creating layer inception_5b/3x3
I0403 15:49:02.848454 20293 net.cpp:91] Creating Layer inception_5b/3x3
I0403 15:49:02.848470 20293 net.cpp:425] inception_5b/3x3 <- inception_5b/3x3_reduce
I0403 15:49:02.848490 20293 net.cpp:399] inception_5b/3x3 -> inception_5b/3x3
I0403 15:49:02.855303 20293 net.cpp:141] Setting up inception_5b/3x3
I0403 15:49:02.855334 20293 net.cpp:148] Top shape: 24 384 7 7 (451584)
I0403 15:49:02.855350 20293 net.cpp:156] Memory required for data: 1332467232
I0403 15:49:02.855368 20293 layer_factory.hpp:77] Creating layer inception_5b/relu_3x3
I0403 15:49:02.855391 20293 net.cpp:91] Creating Layer inception_5b/relu_3x3
I0403 15:49:02.855408 20293 net.cpp:425] inception_5b/relu_3x3 <- inception_5b/3x3
I0403 15:49:02.855427 20293 net.cpp:386] inception_5b/relu_3x3 -> inception_5b/3x3 (in-place)
I0403 15:49:02.855731 20293 net.cpp:141] Setting up inception_5b/relu_3x3
I0403 15:49:02.855758 20293 net.cpp:148] Top shape: 24 384 7 7 (451584)
I0403 15:49:02.855773 20293 net.cpp:156] Memory required for data: 1334273568
I0403 15:49:02.855789 20293 layer_factory.hpp:77] Creating layer inception_5b/5x5_reduce
I0403 15:49:02.855829 20293 net.cpp:91] Creating Layer inception_5b/5x5_reduce
I0403 15:49:02.855849 20293 net.cpp:425] inception_5b/5x5_reduce <- inception_5a/output_inception_5a/output_0_split_2
I0403 15:49:02.855871 20293 net.cpp:399] inception_5b/5x5_reduce -> inception_5b/5x5_reduce
I0403 15:49:02.857169 20293 net.cpp:141] Setting up inception_5b/5x5_reduce
I0403 15:49:02.857199 20293 net.cpp:148] Top shape: 24 48 7 7 (56448)
I0403 15:49:02.857214 20293 net.cpp:156] Memory required for data: 1334499360
I0403 15:49:02.857234 20293 layer_factory.hpp:77] Creating layer inception_5b/relu_5x5_reduce
I0403 15:49:02.857254 20293 net.cpp:91] Creating Layer inception_5b/relu_5x5_reduce
I0403 15:49:02.857271 20293 net.cpp:425] inception_5b/relu_5x5_reduce <- inception_5b/5x5_reduce
I0403 15:49:02.857290 20293 net.cpp:386] inception_5b/relu_5x5_reduce -> inception_5b/5x5_reduce (in-place)
I0403 15:49:02.857668 20293 net.cpp:141] Setting up inception_5b/relu_5x5_reduce
I0403 15:49:02.857695 20293 net.cpp:148] Top shape: 24 48 7 7 (56448)
I0403 15:49:02.857710 20293 net.cpp:156] Memory required for data: 1334725152
I0403 15:49:02.857725 20293 layer_factory.hpp:77] Creating layer inception_5b/5x5
I0403 15:49:02.857746 20293 net.cpp:91] Creating Layer inception_5b/5x5
I0403 15:49:02.857763 20293 net.cpp:425] inception_5b/5x5 <- inception_5b/5x5_reduce
I0403 15:49:02.857782 20293 net.cpp:399] inception_5b/5x5 -> inception_5b/5x5
I0403 15:49:02.859868 20293 net.cpp:141] Setting up inception_5b/5x5
I0403 15:49:02.859896 20293 net.cpp:148] Top shape: 24 128 7 7 (150528)
I0403 15:49:02.859912 20293 net.cpp:156] Memory required for data: 1335327264
I0403 15:49:02.859930 20293 layer_factory.hpp:77] Creating layer inception_5b/relu_5x5
I0403 15:49:02.859951 20293 net.cpp:91] Creating Layer inception_5b/relu_5x5
I0403 15:49:02.859972 20293 net.cpp:425] inception_5b/relu_5x5 <- inception_5b/5x5
I0403 15:49:02.859990 20293 net.cpp:386] inception_5b/relu_5x5 -> inception_5b/5x5 (in-place)
I0403 15:49:02.860189 20293 net.cpp:141] Setting up inception_5b/relu_5x5
I0403 15:49:02.860218 20293 net.cpp:148] Top shape: 24 128 7 7 (150528)
I0403 15:49:02.860234 20293 net.cpp:156] Memory required for data: 1335929376
I0403 15:49:02.860249 20293 layer_factory.hpp:77] Creating layer inception_5b/pool
I0403 15:49:02.860266 20293 net.cpp:91] Creating Layer inception_5b/pool
I0403 15:49:02.860282 20293 net.cpp:425] inception_5b/pool <- inception_5a/output_inception_5a/output_0_split_3
I0403 15:49:02.860302 20293 net.cpp:399] inception_5b/pool -> inception_5b/pool
I0403 15:49:02.860378 20293 net.cpp:141] Setting up inception_5b/pool
I0403 15:49:02.860401 20293 net.cpp:148] Top shape: 24 832 7 7 (978432)
I0403 15:49:02.860415 20293 net.cpp:156] Memory required for data: 1339843104
I0403 15:49:02.860430 20293 layer_factory.hpp:77] Creating layer inception_5b/pool_proj
I0403 15:49:02.860455 20293 net.cpp:91] Creating Layer inception_5b/pool_proj
I0403 15:49:02.860473 20293 net.cpp:425] inception_5b/pool_proj <- inception_5b/pool
I0403 15:49:02.860492 20293 net.cpp:399] inception_5b/pool_proj -> inception_5b/pool_proj
I0403 15:49:02.862821 20293 net.cpp:141] Setting up inception_5b/pool_proj
I0403 15:49:02.862851 20293 net.cpp:148] Top shape: 24 128 7 7 (150528)
I0403 15:49:02.862869 20293 net.cpp:156] Memory required for data: 1340445216
I0403 15:49:02.862886 20293 layer_factory.hpp:77] Creating layer inception_5b/relu_pool_proj
I0403 15:49:02.862907 20293 net.cpp:91] Creating Layer inception_5b/relu_pool_proj
I0403 15:49:02.862926 20293 net.cpp:425] inception_5b/relu_pool_proj <- inception_5b/pool_proj
I0403 15:49:02.862944 20293 net.cpp:386] inception_5b/relu_pool_proj -> inception_5b/pool_proj (in-place)
I0403 15:49:02.863256 20293 net.cpp:141] Setting up inception_5b/relu_pool_proj
I0403 15:49:02.863284 20293 net.cpp:148] Top shape: 24 128 7 7 (150528)
I0403 15:49:02.863299 20293 net.cpp:156] Memory required for data: 1341047328
I0403 15:49:02.863314 20293 layer_factory.hpp:77] Creating layer inception_5b/output
I0403 15:49:02.863335 20293 net.cpp:91] Creating Layer inception_5b/output
I0403 15:49:02.863366 20293 net.cpp:425] inception_5b/output <- inception_5b/1x1
I0403 15:49:02.863386 20293 net.cpp:425] inception_5b/output <- inception_5b/3x3
I0403 15:49:02.863404 20293 net.cpp:425] inception_5b/output <- inception_5b/5x5
I0403 15:49:02.863420 20293 net.cpp:425] inception_5b/output <- inception_5b/pool_proj
I0403 15:49:02.863437 20293 net.cpp:399] inception_5b/output -> inception_5b/output
I0403 15:49:02.863492 20293 net.cpp:141] Setting up inception_5b/output
I0403 15:49:02.863517 20293 net.cpp:148] Top shape: 24 1024 7 7 (1204224)
I0403 15:49:02.863531 20293 net.cpp:156] Memory required for data: 1345864224
I0403 15:49:02.863548 20293 layer_factory.hpp:77] Creating layer pool5/7x7_s1
I0403 15:49:02.863565 20293 net.cpp:91] Creating Layer pool5/7x7_s1
I0403 15:49:02.863580 20293 net.cpp:425] pool5/7x7_s1 <- inception_5b/output
I0403 15:49:02.863601 20293 net.cpp:399] pool5/7x7_s1 -> pool5/7x7_s1
I0403 15:49:02.863826 20293 net.cpp:141] Setting up pool5/7x7_s1
I0403 15:49:02.863852 20293 net.cpp:148] Top shape: 24 1024 1 1 (24576)
I0403 15:49:02.863867 20293 net.cpp:156] Memory required for data: 1345962528
I0403 15:49:02.863880 20293 layer_factory.hpp:77] Creating layer pool5/drop_7x7_s1
I0403 15:49:02.863901 20293 net.cpp:91] Creating Layer pool5/drop_7x7_s1
I0403 15:49:02.863919 20293 net.cpp:425] pool5/drop_7x7_s1 <- pool5/7x7_s1
I0403 15:49:02.863936 20293 net.cpp:386] pool5/drop_7x7_s1 -> pool5/7x7_s1 (in-place)
I0403 15:49:02.863992 20293 net.cpp:141] Setting up pool5/drop_7x7_s1
I0403 15:49:02.864017 20293 net.cpp:148] Top shape: 24 1024 1 1 (24576)
I0403 15:49:02.864032 20293 net.cpp:156] Memory required for data: 1346060832
I0403 15:49:02.864047 20293 layer_factory.hpp:77] Creating layer loss3/classifier_plantvillage
I0403 15:49:02.864068 20293 net.cpp:91] Creating Layer loss3/classifier_plantvillage
I0403 15:49:02.864084 20293 net.cpp:425] loss3/classifier_plantvillage <- pool5/7x7_s1
I0403 15:49:02.864104 20293 net.cpp:399] loss3/classifier_plantvillage -> loss3/classifier_plantvillage
I0403 15:49:02.864529 20293 net.cpp:141] Setting up loss3/classifier_plantvillage
I0403 15:49:02.864554 20293 net.cpp:148] Top shape: 24 38 (912)
I0403 15:49:02.864569 20293 net.cpp:156] Memory required for data: 1346064480
I0403 15:49:02.864588 20293 layer_factory.hpp:77] Creating layer loss3/classifier_plantvillage_loss3/classifier_plantvillage_0_split
I0403 15:49:02.864605 20293 net.cpp:91] Creating Layer loss3/classifier_plantvillage_loss3/classifier_plantvillage_0_split
I0403 15:49:02.864621 20293 net.cpp:425] loss3/classifier_plantvillage_loss3/classifier_plantvillage_0_split <- loss3/classifier_plantvillage
I0403 15:49:02.864641 20293 net.cpp:399] loss3/classifier_plantvillage_loss3/classifier_plantvillage_0_split -> loss3/classifier_plantvillage_loss3/classifier_plantvillage_0_split_0
I0403 15:49:02.864663 20293 net.cpp:399] loss3/classifier_plantvillage_loss3/classifier_plantvillage_0_split -> loss3/classifier_plantvillage_loss3/classifier_plantvillage_0_split_1
I0403 15:49:02.864683 20293 net.cpp:399] loss3/classifier_plantvillage_loss3/classifier_plantvillage_0_split -> loss3/classifier_plantvillage_loss3/classifier_plantvillage_0_split_2
I0403 15:49:02.864704 20293 net.cpp:399] loss3/classifier_plantvillage_loss3/classifier_plantvillage_0_split -> loss3/classifier_plantvillage_loss3/classifier_plantvillage_0_split_3
I0403 15:49:02.864807 20293 net.cpp:141] Setting up loss3/classifier_plantvillage_loss3/classifier_plantvillage_0_split
I0403 15:49:02.864832 20293 net.cpp:148] Top shape: 24 38 (912)
I0403 15:49:02.864850 20293 net.cpp:148] Top shape: 24 38 (912)
I0403 15:49:02.864866 20293 net.cpp:148] Top shape: 24 38 (912)
I0403 15:49:02.864881 20293 net.cpp:148] Top shape: 24 38 (912)
I0403 15:49:02.864894 20293 net.cpp:156] Memory required for data: 1346079072
I0403 15:49:02.864909 20293 layer_factory.hpp:77] Creating layer loss1/loss
I0403 15:49:02.864930 20293 net.cpp:91] Creating Layer loss1/loss
I0403 15:49:02.864948 20293 net.cpp:425] loss1/loss <- loss1/classifier_plantvillage_loss1/classifier_plantvillage_0_split_0
I0403 15:49:02.864984 20293 net.cpp:425] loss1/loss <- label_data_1_split_0
…
