…
I0403 15:16:13.789630 18747 net.cpp:313] The NetState phase (1) differed from the phase (0) specified by a rule in layer data
I0403 15:16:13.790814 18747 net.cpp:49] Initializing net from parameters: 
state {
  phase: TEST
}
layer {
  name: "data"
  type: "Data"
  top: "data"
  top: "label"
  include {
    phase: TEST
  }
  transform_param {
    mirror: false
    crop_size: 224
    mean_file: "/home/mohanty/data/final_dataset/lmdb/grayscale-40-60/mean.binaryproto"
  }
  data_param {
    source: "/home/mohanty/data/final_dataset/lmdb/grayscale-40-60/test_db"
    batch_size: 24
    backend: LMDB
  }
}
layer {
  name: "conv1/7x7_s2"
  type: "Convolution"
  bottom: "data"
  top: "conv1/7x7_s2"
  param {
    lr_mult: 1
    decay_mult: 1
  }
  param {
    lr_mult: 2
    decay_mult: 0
  }
  convolution_param {
    num_output: 64
    pad: 3
    kernel_size: 7
    stride: 2
    weight_filler {
      type: "xavier"
      std: 0.1
    }
    bias_filler {
      type: "constant"
      value: 0.2
    }
  }
}
layer {
  name: "conv1/relu_7x7"
  type: "ReLU"
  bottom: "conv1/7x7_s2"
  top: "conv1/7x7_s2"
}
layer {
  name: "pool1/3x3_s2"
  type: "Pooling"
  bottom: "conv1/7x7_s2"
  top: "pool1/3x3_s2"
  pooling_param {
    pool: MAX
    kernel_size: 3
    stride: 2
  }
}
layer {
  name: "pool1/norm1"
  type: "LRN"
  bottom: "pool1/3x3_s2"
  top: "pool1/norm1"
  lrn_param {
    local_size: 5
    alpha: 0.0001
    beta: 0.75
  }
}
layer {
  name: "conv2/3x3_reduce"
  type: "Convolution"
  bottom: "pool1/norm1"
  top: "conv2/3x3_reduce"
  param {
    lr_mult: 1
    decay_mult: 1
  }
  param {
    lr_mult: 2
    decay_mult: 0
  }
  convolution_param {
    num_output: 64
    kernel_size: 1
    weight_filler {
      type: "xavier"
      std: 0.1
    }
    bias_filler {
      type: "constant"
      value: 0.2
    }
  }
}
layer {
  name: "conv2/relu_3x3_reduce"
  type: "ReLU"
  bottom: "conv2/3x3_reduce"
  top: "conv2/3x3_reduce"
}
layer {
  name: "conv2/3x3"
  type: "Convolution"
  bottom: "conv2/3x3_reduce"
  top: "conv2/3x3"
  param {
    lr_mult: 1
    decay_mult: 1
  }
  param {
    lr_mult: 2
    decay_mult: 0
  }
  convolution_param {
    num_output: 192
    pad: 1
    kernel_size: 3
    weight_filler {
      type: "xavier"
      std: 0.03
    }
    bias_filler {
      type: "constant"
      value: 0.2
    }
  }
}
layer {
  name: "conv2/relu_3x3"
  type: "ReLU"
  bottom: "conv2/3x3"
  top: "conv2/3x3"
}
layer {
  name: "conv2/norm2"
  type: "LRN"
  bottom: "conv2/3x3"
  top: "conv2/norm2"
  lrn_param {
    local_size: 5
    alpha: 0.0001
    beta: 0.75
  }
}
layer {
  name: "pool2/3x3_s2"
  type: "Pooling"
  bottom: "conv2/norm2"
  top: "pool2/3x3_s2"
  pooling_param {
    pool: MAX
    kernel_size: 3
    stride: 2
  }
}
layer {
  name: "inception_3a/1x1"
  type: "Convolution"
  bottom: "pool2/3x3_s2"
  top: "inception_3a/1x1"
  param {
    lr_mult: 1
    decay_mult: 1
  }
  param {
    lr_mult: 2
    decay_mult: 0
  }
  convolution_param {
    num_output: 64
    kernel_size: 1
    weight_filler {
      type: "xavier"
      std: 0.03
    }
    bias_filler {
      type: "constant"
      value: 0.2
    }
  }
}
layer {
  name: "inception_3a/relu_1x1"
  type: "ReLU"
  bottom: "inception_3a/1x1"
  top: "inception_3a/1x1"
}
layer {
  name: "inception_3a/3x3_reduce"
  type: "Convolution"
  bottom: "pool2/3x3_s2"
  top: "inception_3a/3x3_reduce"
  param {
    lr_mult: 1
    decay_mult: 1
  }
  param {
    lr_mult: 2
    decay_mult: 0
  }
  convolution_param {
    num_output: 96
    kernel_size: 1
    weight_filler {
      type: "xavier"
      std: 0.09
    }
    bias_filler {
      type: "constant"
      value: 0.2
    }
  }
}
layer {
  name: "inception_3a/relu_3x3_reduce"
  type: "ReLU"
  bottom: "inception_3a/3x3_reduce"
  top: "inception_3a/3x3_reduce"
}
layer {
  name: "inception_3a/3x3"
  type: "Convolution"
  bottom: "inception_3a/3x3_reduce"
  top: "inception_3a/3x3"
  param {
    lr_mult: 1
    decay_mult: 1
  }
  param {
    lr_mult: 2
    decay_mult: 0
  }
  convolution_param {
    num_output: 128
    pad: 1
    kernel_size: 3
    weight_filler {
      type: "xavier"
      std: 0.03
    }
    bias_filler {
      type: "constant"
      value: 0.2
    }
  }
}
layer {
  name: "inception_3a/relu_3x3"
  type: "ReLU"
  bottom: "inception_3a/3x3"
  top: "inception_3a/3x3"
}
layer {
  name: "inception_3a/5x5_reduce"
  type: "Convolution"
  bottom: "pool2/3x3_s2"
  top: "inception_3a/5x5_reduce"
  param {
    lr_mult: 1
    decay_mult: 1
  }
  param {
    lr_mult: 2
    decay_mult: 0
  }
  convolution_param {
    num_output: 16
    kernel_size: 1
    weight_filler {
      type: "xavier"
      std: 0.2
    }
    bias_filler {
      type: "constant"
      value: 0.2
    }
  }
}
layer {
  name: "inception_3a/relu_5x5_reduce"
  type: "ReLU"
  bottom: "inception_3a/5x5_reduce"
  top: "inception_3a/5x5_reduce"
}
layer {
  name: "inception_3a/5x5"
  type: "Convolution"
  bottom: "inception_3a/5x5_reduce"
  top: "inception_3a/5x5"
  param {
    lr_mult: 1
    decay_mult: 1
  }
  param {
    lr_mult: 2
    decay_mult: 0
  }
  convolution_param {
    num_output: 32
    pad: 2
    kernel_size: 5
    weight_filler {
      type: "xavier"
      std: 0.03
    }
    bias_filler {
      type: "constant"
      value: 0.2
    }
  }
}
layer {
  name: "inception_3a/relu_5x5"
  type: "ReLU"
  bottom: "inception_3a/5x5"
  top: "inception_3a/5x5"
}
layer {
  name: "inception_3a/pool"
  type: "Pooling"
  bottom: "pool2/3x3_s2"
  top: "inception_3a/pool"
  pooling_param {
    pool: MAX
    kernel_size: 3
    stride: 1
    pad: 1
  }
}
layer {
  name: "inception_3a/pool_proj"
  type: "Convolution"
  bottom: "inception_3a/pool"
  top: "inception_3a/pool_proj"
  param {
    lr_mult: 1
    decay_mult: 1
  }
  param {
    lr_mult: 2
    decay_mult: 0
  }
  convolution_param {
    num_output: 32
    kernel_size: 1
    weight_filler {
      type: "xavier"
      std: 0.1
    }
    bias_filler {
      type: "constant"
      value: 0.2
    }
  }
}
layer {
  name: "inception_3a/relu_pool_proj"
  type: "ReLU"
  bottom: "inception_3a/pool_proj"
  top: "inception_3a/pool_proj"
}
layer {
  name: "inception_3a/output"
  type: "Concat"
  bottom: "inception_3a/1x1"
  bottom: "inception_3a/3x3"
  bottom: "inception_3a/5x5"
  bottom: "inception_3a/pool_proj"
  top: "inception_3a/output"
}
layer {
  name: "inception_3b/1x1"
  type: "Convolution"
  bottom: "inception_3a/output"
  top: "inception_3b/1x1"
  param {
    lr_mult: 1
    decay_mult: 1
  }
  param {
    lr_mult: 2
    decay_mult: 0
  }
  convolution_param {
    num_output: 128
    kernel_size: 1
    weight_filler {
      type: "xavier"
      std: 0.03
    }
    bias_filler {
      type: "constant"
      value: 0.2
    }
  }
}
layer {
  name: "inception_3b/relu_1x1"
  type: "ReLU"
  bottom: "inception_3b/1x1"
  top: "inception_3b/1x1"
}
layer {
  name: "inception_3b/3x3_reduce"
  type: "Convolution"
  bottom: "inception_3a/output"
  top: "inception_3b/3x3_reduce"
  param {
    lr_mult: 1
    decay_mult: 1
  }
  param {
    lr_mult: 2
    decay_mult: 0
  }
  convolution_param {
    num_output: 128
    kernel_size: 1
    weight_filler {
      type: "xavier"
      std: 0.09
    }
    bias_filler {
      type: "constant"
      value: 0.2
    }
  }
}
layer {
  name: "inception_3b/relu_3x3_reduce"
  type: "ReLU"
  bottom: "inception_3b/3x3_reduce"
  top: "inception_3b/3x3_reduce"
}
layer {
  name: "inception_3b/3x3"
  type: "Convolution"
  bottom: "inception_3b/3x3_reduce"
  top: "inception_3b/3x3"
  param {
    lr_mult: 1
    decay_mult: 1
  }
  param {
    lr_mult: 2
    decay_mult: 0
  }
  convolution_param {
    num_output: 192
    pad: 1
    kernel_size: 3
    weight_filler {
      type: "xavier"
      std: 0.03
    }
    bias_filler {
      type: "constant"
      value: 0.2
    }
  }
}
layer {
  name: "inception_3b/relu_3x3"
  type: "ReLU"
  bottom: "inception_3b/3x3"
  top: "inception_3b/3x3"
}
layer {
  name: "inception_3b/5x5_reduce"
  type: "Convolution"
  bottom: "inception_3a/output"
  top: "inception_3b/5x5_reduce"
  param {
    lr_mult: 1
    decay_mult: 1
  }
  param {
    lr_mult: 2
    decay_mult: 0
  }
  convolution_param {
    num_output: 32
    kernel_size: 1
    weight_filler {
      type: "xavier"
      std: 0.2
    }
    bias_filler {
      type: "constant"
      value: 0.2
    }
  }
}
layer {
  name: "inception_3b/relu_5x5_reduce"
  type: "ReLU"
  bottom: "inception_3b/5x5_reduce"
  top: "inception_3b/5x5_reduce"
}
layer {
  name: "inception_3b/5x5"
  type: "Convolution"
  bottom: "inception_3b/5x5_reduce"
  top: "inception_3b/5x5"
  param {
    lr_mult: 1
    decay_mult: 1
  }
  param {
    lr_mult: 2
    decay_mult: 0
  }
  convolution_param {
    num_output: 96
    pad: 2
    kernel_size: 5
    weight_filler {
      type: "xavier"
      std: 0.03
    }
    bias_filler {
      type: "constant"
      value: 0.2
    }
  }
}
layer {
  name: "inception_3b/relu_5x5"
  type: "ReLU"
  bottom: "inception_3b/5x5"
  top: "inception_3b/5x5"
}
layer {
  name: "inception_3b/pool"
  type: "Pooling"
  bottom: "inception_3a/output"
  top: "inception_3b/pool"
  pooling_param {
    pool: MAX
    kernel_size: 3
    stride: 1
    pad: 1
  }
}
layer {
  name: "inception_3b/pool_proj"
  type: "Convolution"
  bottom: "inception_3b/pool"
  top: "inception_3b/pool_proj"
  param {
    lr_mult: 1
    decay_mult: 1
  }
  param {
    lr_mult: 2
    decay_mult: 0
  }
  convolution_param {
    num_output: 64
    kernel_size: 1
    weight_filler {
      type: "xavier"
      std: 0.1
    }
    bias_filler {
      type: "constant"
      value: 0.2
    }
  }
}
layer {
  name: "inception_3b/relu_pool_proj"
  type: "ReLU"
  bottom: "inception_3b/pool_proj"
  top: "inception_3b/pool_proj"
}
layer {
  name: "inception_3b/output"
  type: "Concat"
  bottom: "inception_3b/1x1"
  bottom: "inception_3b/3x3"
  bottom: "inception_3b/5x5"
  bottom: "inception_3b/pool_proj"
  top: "inception_3b/output"
}
layer {
  name: "pool3/3x3_s2"
  type: "Pooling"
  bottom: "inception_3b/output"
  top: "pool3/3x3_s2"
  pooling_param {
    pool: MAX
    kernel_size: 3
    stride: 2
  }
}
layer {
  name: "inception_4a/1x1"
  type: "Convolution"
  bottom: "pool3/3x3_s2"
  top: "inception_4a/1x1"
  param {
    lr_mult: 1
    decay_mult: 1
  }
  param {
    lr_mult: 2
    decay_mult: 0
  }
  convolution_param {
    num_output: 192
    kernel_size: 1
    weight_filler {
      type: "xavier"
      std: 0.03
    }
    bias_filler {
      type: "constant"
      value: 0.2
    }
  }
}
layer {
  name: "inception_4a/relu_1x1"
  type: "ReLU"
  bottom: "inception_4a/1x1"
  top: "inception_4a/1x1"
}
layer {
  name: "inception_4a/3x3_reduce"
  type: "Convolution"
  bottom: "pool3/3x3_s2"
  top: "inception_4a/3x3_reduce"
  param {
    lr_mult: 1
    decay_mult: 1
  }
  param {
    lr_mult: 2
    decay_mult: 0
  }
  convolution_param {
    num_output: 96
    kernel_size: 1
    weight_filler {
      type: "xavier"
      std: 0.09
    }
    bias_filler {
      type: "constant"
      value: 0.2
    }
  }
}
layer {
  name: "inception_4a/relu_3x3_reduce"
  type: "ReLU"
  bottom: "inception_4a/3x3_reduce"
  top: "inception_4a/3x3_reduce"
}
layer {
  name: "inception_4a/3x3"
  type: "Convolution"
  bottom: "inception_4a/3x3_reduce"
  top: "inception_4a/3x3"
  param {
    lr_mult: 1
    decay_mult: 1
  }
  param {
    lr_mult: 2
    decay_mult: 0
  }
  convolution_param {
    num_output: 208
    pad: 1
    kernel_size: 3
    weight_filler {
      type: "xavier"
      std: 0.03
    }
    bias_filler {
      type: "constant"
      value: 0.2
    }
  }
}
layer {
  name: "inception_4a/relu_3x3"
  type: "ReLU"
  bottom: "inception_4a/3x3"
  top: "inception_4a/3x3"
}
layer {
  name: "inception_4a/5x5_reduce"
  type: "Convolution"
  bottom: "pool3/3x3_s2"
  top: "inception_4a/5x5_reduce"
  param {
    lr_mult: 1
    decay_mult: 1
  }
  param {
    lr_mult: 2
    decay_mult: 0
  }
  convolution_param {
    num_output: 16
    kernel_size: 1
    weight_filler {
      type: "xavier"
      std: 0.2
    }
    bias_filler {
      type: "constant"
      value: 0.2
    }
  }
}
layer {
  name: "inception_4a/relu_5x5_reduce"
  type: "ReLU"
  bottom: "inception_4a/5x5_reduce"
  top: "inception_4a/5x5_reduce"
}
layer {
  name: "inception_4a/5x5"
  type: "Convolution"
  bottom: "inception_4a/5x5_reduce"
  top: "inception_4a/5x5"
  param {
    lr_mult: 1
    decay_mult: 1
  }
  param {
    lr_mult: 2
    decay_mult: 0
  }
  convolution_param {
    num_output: 48
    pad: 2
    kernel_size: 5
    weight_filler {
      type: "xavier"
      std: 0.03
    }
    bias_filler {
      type: "constant"
      value: 0.2
    }
  }
}
layer {
  name: "inception_4a/relu_5x5"
  type: "ReLU"
  bottom: "inception_4a/5x5"
  top: "inception_4a/5x5"
}
layer {
  name: "inception_4a/pool"
  type: "Pooling"
  bottom: "pool3/3x3_s2"
  top: "inception_4a/pool"
  pooling_param {
    pool: MAX
    kernel_size: 3
    stride: 1
    pad: 1
  }
}
layer {
  name: "inception_4a/pool_proj"
  type: "Convolution"
  bottom: "inception_4a/pool"
  top: "inception_4a/pool_proj"
  param {
    lr_mult: 1
    decay_mult: 1
  }
  param {
    lr_mult: 2
    decay_mult: 0
  }
  convolution_param {
    num_output: 64
    kernel_size: 1
    weight_filler {
      type: "xavier"
      std: 0.1
    }
    bias_filler {
      type: "constant"
      value: 0.2
    }
  }
}
layer {
  name: "inception_4a/relu_pool_proj"
  type: "ReLU"
  bottom: "inception_4a/pool_proj"
  top: "inception_4a/pool_proj"
}
layer {
  name: "inception_4a/output"
  type: "Concat"
  bottom: "inception_4a/1x1"
  bottom: "inception_4a/3x3"
  bottom: "inception_4a/5x5"
  bottom: "inception_4a/pool_proj"
  top: "inception_4a/output"
}
layer {
  name: "loss1/ave_pool"
  type: "Pooling"
  bottom: "inception_4a/output"
  top: "loss1/ave_pool"
  pooling_param {
    pool: AVE
    kernel_size: 5
    stride: 3
  }
}
layer {
  name: "loss1/conv"
  type: "Convolution"
  bottom: "loss1/ave_pool"
  top: "loss1/conv"
  param {
    lr_mult: 1
    decay_mult: 1
  }
  param {
    lr_mult: 2
    decay_mult: 0
  }
  convolution_param {
    num_output: 128
    kernel_size: 1
    weight_filler {
      type: "xavier"
      std: 0.08
    }
    bias_filler {
      type: "constant"
      value: 0.2
    }
  }
}
layer {
  name: "loss1/relu_conv"
  type: "ReLU"
  bottom: "loss1/conv"
  top: "loss1/conv"
}
layer {
  name: "loss1/fc"
  type: "InnerProduct"
  bottom: "loss1/conv"
  top: "loss1/fc"
  param {
    lr_mult: 1
    decay_mult: 1
  }
  param {
    lr_mult: 2
    decay_mult: 0
  }
  inner_product_param {
    num_output: 1024
    weight_filler {
      type: "xavier"
      std: 0.02
    }
    bias_filler {
      type: "constant"
      value: 0.2
    }
  }
}
layer {
  name: "loss1/relu_fc"
  type: "ReLU"
  bottom: "loss1/fc"
  top: "loss1/fc"
}
layer {
  name: "loss1/drop_fc"
  type: "Dropout"
  bottom: "loss1/fc"
  top: "loss1/fc"
  dropout_param {
    dropout_ratio: 0.7
  }
}
layer {
  name: "loss1/classifier_plantvillage"
  type: "InnerProduct"
  bottom: "loss1/fc"
  top: "loss1/classifier_plantvillage"
  param {
    lr_mult: 1
    decay_mult: 1
  }
  param {
    lr_mult: 2
    decay_mult: 0
  }
  inner_product_param {
    num_output: 38
    weight_filler {
      type: "xavier"
      std: 0.0009765625
    }
    bias_filler {
      type: "constant"
      value: 0
    }
  }
}
layer {
  name: "inception_4b/1x1"
  type: "Convolution"
  bottom: "inception_4a/output"
  top: "inception_4b/1x1"
  param {
    lr_mult: 1
    decay_mult: 1
  }
  param {
    lr_mult: 2
    decay_mult: 0
  }
  convolution_param {
    num_output: 160
    kernel_size: 1
    weight_filler {
      type: "xavier"
      std: 0.03
    }
    bias_filler {
      type: "constant"
      value: 0.2
    }
  }
}
layer {
  name: "inception_4b/relu_1x1"
  type: "ReLU"
  bottom: "inception_4b/1x1"
  top: "inception_4b/1x1"
}
layer {
  name: "inception_4b/3x3_reduce"
  type: "Convolution"
  bottom: "inception_4a/output"
  top: "inception_4b/3x3_reduce"
  param {
    lr_mult: 1
    decay_mult: 1
  }
  param {
    lr_mult: 2
    decay_mult: 0
  }
  convolution_param {
    num_output: 112
    kernel_size: 1
    weight_filler {
      type: "xavier"
      std: 0.09
    }
    bias_filler {
      type: "constant"
      value: 0.2
    }
  }
}
layer {
  name: "inception_4b/relu_3x3_reduce"
  type: "ReLU"
  bottom: "inception_4b/3x3_reduce"
  top: "inception_4b/3x3_reduce"
}
layer {
  name: "inception_4b/3x3"
  type: "Convolution"
  bottom: "inception_4b/3x3_reduce"
  top: "inception_4b/3x3"
  param {
    lr_mult: 1
    decay_mult: 1
  }
  param {
    lr_mult: 2
    decay_mult: 0
  }
  convolution_param {
    num_output: 224
    pad: 1
    kernel_size: 3
    weight_filler {
      type: "xavier"
      std: 0.03
    }
    bias_filler {
      type: "constant"
      value: 0.2
    }
  }
}
layer {
  name: "inception_4b/relu_3x3"
  type: "ReLU"
  bottom: "inception_4b/3x3"
  top: "inception_4b/3x3"
}
layer {
  name: "inception_4b/5x5_reduce"
  type: "Convolution"
  bottom: "inception_4a/output"
  top: "inception_4b/5x5_reduce"
  param {
    lr_mult: 1
    decay_mult: 1
  }
  param {
    lr_mult: 2
    decay_mult: 0
  }
  convolution_param {
    num_output: 24
    kernel_size: 1
    weight_filler {
      type: "xavier"
      std: 0.2
    }
    bias_filler {
      type: "constant"
      value: 0.2
    }
  }
}
layer {
  name: "inception_4b/relu_5x5_reduce"
  type: "ReLU"
  bottom: "inception_4b/5x5_reduce"
  top: "inception_4b/5x5_reduce"
}
layer {
  name: "inception_4b/5x5"
  type: "Convolution"
  bottom: "inception_4b/5x5_reduce"
  top: "inception_4b/5x5"
  param {
    lr_mult: 1
    decay_mult: 1
  }
  param {
    lr_mult: 2
    decay_mult: 0
  }
  convolution_param {
    num_output: 64
    pad: 2
    kernel_size: 5
    weight_filler {
      type: "xavier"
      std: 0.03
    }
    bias_filler {
      type: "constant"
      value: 0.2
    }
  }
}
layer {
  name: "inception_4b/relu_5x5"
  type: "ReLU"
  bottom: "inception_4b/5x5"
  top: "inception_4b/5x5"
}
layer {
  name: "inception_4b/pool"
  type: "Pooling"
  bottom: "inception_4a/output"
  top: "inception_4b/pool"
  pooling_param {
    pool: MAX
    kernel_size: 3
    stride: 1
    pad: 1
  }
}
layer {
  name: "inception_4b/pool_proj"
  type: "Convolution"
  bottom: "inception_4b/pool"
  top: "inception_4b/pool_proj"
  param {
    lr_mult: 1
    decay_mult: 1
  }
  param {
    lr_mult: 2
    decay_mult: 0
  }
  convolution_param {
    num_output: 64
    kernel_size: 1
    weight_filler {
      type: "xavier"
      std: 0.1
    }
    bias_filler {
      type: "constant"
      value: 0.2
    }
  }
}
layer {
  name: "inception_4b/relu_pool_proj"
  type: "ReLU"
  bottom: "inception_4b/pool_proj"
  top: "inception_4b/pool_proj"
}
layer {
  name: "inception_4b/output"
  type: "Concat"
  bottom: "inception_4b/1x1"
  bottom: "inception_4b/3x3"
  bottom: "inception_4b/5x5"
  bottom: "inception_4b/pool_proj"
  top: "inception_4b/output"
}
layer {
  name: "inception_4c/1x1"
  type: "Convolution"
  bottom: "inception_4b/output"
  top: "inception_4c/1x1"
  param {
    lr_mult: 1
    decay_mult: 1
  }
  param {
    lr_mult: 2
    decay_mult: 0
  }
  convolution_param {
    num_output: 128
    kernel_size: 1
    weight_filler {
      type: "xavier"
      std: 0.03
    }
    bias_filler {
      type: "constant"
      value: 0.2
    }
  }
}
layer {
  name: "inception_4c/relu_1x1"
  type: "ReLU"
  bottom: "inception_4c/1x1"
  top: "inception_4c/1x1"
}
layer {
  name: "inception_4c/3x3_reduce"
  type: "Convolution"
  bottom: "inception_4b/output"
  top: "inception_4c/3x3_reduce"
  param {
    lr_mult: 1
    decay_mult: 1
  }
  param {
    lr_mult: 2
    decay_mult: 0
  }
  convolution_param {
    num_output: 128
    kernel_size: 1
    weight_filler {
      type: "xavier"
      std: 0.09
    }
    bias_filler {
      type: "constant"
      value: 0.2
    }
  }
}
layer {
  name: "inception_4c/relu_3x3_reduce"
  type: "ReLU"
  bottom: "inception_4c/3x3_reduce"
  top: "inception_4c/3x3_reduce"
}
layer {
  name: "inception_4c/3x3"
  type: "Convolution"
  bottom: "inception_4c/3x3_reduce"
  top: "inception_4c/3x3"
  param {
    lr_mult: 1
    decay_mult: 1
  }
  param {
    lr_mult: 2
    decay_mult: 0
  }
  convolution_param {
    num_output: 256
    pad: 1
    kernel_size: 3
    weight_filler {
      type: "xavier"
      std: 0.03
    }
    bias_filler {
      type: "constant"
      value: 0.2
    }
  }
}
layer {
  name: "inception_4c/relu_3x3"
  type: "ReLU"
  bottom: "inception_4c/3x3"
  top: "inception_4c/3x3"
}
layer {
  name: "inception_4c/5x5_reduce"
  type: "Convolution"
  bottom: "inception_4b/output"
  top: "inception_4c/5x5_reduce"
  param {
    lr_mult: 1
    decay_mult: 1
  }
  param {
    lr_mult: 2
    decay_mult: 0
  }
  convolution_param {
    num_output: 24
    kernel_size: 1
    weight_filler {
      type: "xavier"
      std: 0.2
    }
    bias_filler {
      type: "constant"
      value: 0.2
    }
  }
}
layer {
  name: "inception_4c/relu_5x5_reduce"
  type: "ReLU"
  bottom: "inception_4c/5x5_reduce"
  top: "inception_4c/5x5_reduce"
}
layer {
  name: "inception_4c/5x5"
  type: "Convolution"
  bottom: "inception_4c/5x5_reduce"
  top: "inception_4c/5x5"
  param {
    lr_mult: 1
    decay_mult: 1
  }
  param {
    lr_mult: 2
    decay_mult: 0
  }
  convolution_param {
    num_output: 64
    pad: 2
    kernel_size: 5
    weight_filler {
      type: "xavier"
      std: 0.03
    }
    bias_filler {
      type: "constant"
      value: 0.2
    }
  }
}
layer {
  name: "inception_4c/relu_5x5"
  type: "ReLU"
  bottom: "inception_4c/5x5"
  top: "inception_4c/5x5"
}
layer {
  name: "inception_4c/pool"
  type: "Pooling"
  bottom: "inception_4b/output"
  top: "inception_4c/pool"
  pooling_param {
    pool: MAX
    kernel_size: 3
    stride: 1
    pad: 1
  }
}
layer {
  name: "inception_4c/pool_proj"
  type: "Convolution"
  bottom: "inception_4c/pool"
  top: "inception_4c/pool_proj"
  param {
    lr_mult: 1
    decay_mult: 1
  }
  param {
    lr_mult: 2
    decay_mult: 0
  }
  convolution_param {
    num_output: 64
    kernel_size: 1
    weight_filler {
      type: "xavier"
      std: 0.1
    }
    bias_filler {
      type: "constant"
      value: 0.2
    }
  }
}
layer {
  name: "inception_4c/relu_pool_proj"
  type: "ReLU"
  bottom: "inception_4c/pool_proj"
  top: "inception_4c/pool_proj"
}
layer {
  name: "inception_4c/output"
  type: "Concat"
  bottom: "inception_4c/1x1"
  bottom: "inception_4c/3x3"
  bottom: "inception_4c/5x5"
  bottom: "inception_4c/pool_proj"
  top: "inception_4c/output"
}
layer {
  name: "inception_4d/1x1"
  type: "Convolution"
  bottom: "inception_4c/output"
  top: "inception_4d/1x1"
  param {
    lr_mult: 1
    decay_mult: 1
  }
  param {
    lr_mult: 2
    decay_mult: 0
  }
  convolution_param {
    num_output: 112
    kernel_size: 1
    weight_filler {
      type: "xavier"
      std: 0.03
    }
    bias_filler {
      type: "constant"
      value: 0.2
    }
  }
}
layer {
  name: "inception_4d/relu_1x1"
  type: "ReLU"
  bottom: "inception_4d/1x1"
  top: "inception_4d/1x1"
}
layer {
  name: "inception_4d/3x3_reduce"
  type: "Convolution"
  bottom: "inception_4c/output"
  top: "inception_4d/3x3_reduce"
  param {
    lr_mult: 1
    decay_mult: 1
  }
  param {
    lr_mult: 2
    decay_mult: 0
  }
  convolution_param {
    num_output: 144
    kernel_size: 1
    weight_filler {
      type: "xavier"
      std: 0.09
    }
    bias_filler {
      type: "constant"
      value: 0.2
    }
  }
}
layer {
  name: "inception_4d/relu_3x3_reduce"
  type: "ReLU"
  bottom: "inception_4d/3x3_reduce"
  top: "inception_4d/3x3_reduce"
}
layer {
  name: "inception_4d/3x3"
  type: "Convolution"
  bottom: "inception_4d/3x3_reduce"
  top: "inception_4d/3x3"
  param {
    lr_mult: 1
    decay_mult: 1
  }
  param {
    lr_mult: 2
    decay_mult: 0
  }
  convolution_param {
    num_output: 288
    pad: 1
    kernel_size: 3
    weight_filler {
      type: "xavier"
      std: 0.03
    }
    bias_filler {
      type: "constant"
      value: 0.2
    }
  }
}
layer {
  name: "inception_4d/relu_3x3"
  type: "ReLU"
  bottom: "inception_4d/3x3"
  top: "inception_4d/3x3"
}
layer {
  name: "inception_4d/5x5_reduce"
  type: "Convolution"
  bottom: "inception_4c/output"
  top: "inception_4d/5x5_reduce"
  param {
    lr_mult: 1
    decay_mult: 1
  }
  param {
    lr_mult: 2
    decay_mult: 0
  }
  convolution_param {
    num_output: 32
    kernel_size: 1
    weight_filler {
      type: "xavier"
      std: 0.2
    }
    bias_filler {
      type: "constant"
      value: 0.2
    }
  }
}
layer {
  name: "inception_4d/relu_5x5_reduce"
  type: "ReLU"
  bottom: "inception_4d/5x5_reduce"
  top: "inception_4d/5x5_reduce"
}
layer {
  name: "inception_4d/5x5"
  type: "Convolution"
  bottom: "inception_4d/5x5_reduce"
  top: "inception_4d/5x5"
  param {
    lr_mult: 1
    decay_mult: 1
  }
  param {
    lr_mult: 2
    decay_mult: 0
  }
  convolution_param {
    num_output: 64
    pad: 2
    kernel_size: 5
    weight_filler {
      type: "xavier"
      std: 0.03
    }
    bias_filler {
      type: "constant"
      value: 0.2
    }
  }
}
layer {
  name: "inception_4d/relu_5x5"
  type: "ReLU"
  bottom: "inception_4d/5x5"
  top: "inception_4d/5x5"
}
layer {
  name: "inception_4d/pool"
  type: "Pooling"
  bottom: "inception_4c/output"
  top: "inception_4d/pool"
  pooling_param {
    pool: MAX
    kernel_size: 3
    stride: 1
    pad: 1
  }
}
layer {
  name: "inception_4d/pool_proj"
  type: "Convolution"
  bottom: "inception_4d/pool"
  top: "inception_4d/pool_proj"
  param {
    lr_mult: 1
    decay_mult: 1
  }
  param {
    lr_mult: 2
    decay_mult: 0
  }
  convolution_param {
    num_output: 64
    kernel_size: 1
    weight_filler {
      type: "xavier"
      std: 0.1
    }
    bias_filler {
      type: "constant"
      value: 0.2
    }
  }
}
layer {
  name: "inception_4d/relu_pool_proj"
  type: "ReLU"
  bottom: "inception_4d/pool_proj"
  top: "inception_4d/pool_proj"
}
layer {
  name: "inception_4d/output"
  type: "Concat"
  bottom: "inception_4d/1x1"
  bottom: "inception_4d/3x3"
  bottom: "inception_4d/5x5"
  bottom: "inception_4d/pool_proj"
  top: "inception_4d/output"
}
layer {
  name: "loss2/ave_pool"
  type: "Pooling"
  bottom: "inception_4d/output"
  top: "loss2/ave_pool"
  pooling_param {
    pool: AVE
    kernel_size: 5
    stride: 3
  }
}
layer {
  name: "loss2/conv"
  type: "Convolution"
  bottom: "loss2/ave_pool"
  top: "loss2/conv"
  param {
    lr_mult: 1
    decay_mult: 1
  }
  param {
    lr_mult: 2
    decay_mult: 0
  }
  convolution_param {
    num_output: 128
    kernel_size: 1
    weight_filler {
      type: "xavier"
      std: 0.08
    }
    bias_filler {
      type: "constant"
      value: 0.2
    }
  }
}
layer {
  name: "loss2/relu_conv"
  type: "ReLU"
  bottom: "loss2/conv"
  top: "loss2/conv"
}
layer {
  name: "loss2/fc"
  type: "InnerProduct"
  bottom: "loss2/conv"
  top: "loss2/fc"
  param {
    lr_mult: 1
    decay_mult: 1
  }
  param {
    lr_mult: 2
    decay_mult: 0
  }
  inner_product_param {
    num_output: 1024
    weight_filler {
      type: "xavier"
      std: 0.02
    }
    bias_filler {
      type: "constant"
      value: 0.2
    }
  }
}
layer {
  name: "loss2/relu_fc"
  type: "ReLU"
  bottom: "loss2/fc"
  top: "loss2/fc"
}
layer {
  name: "loss2/drop_fc"
  type: "Dropout"
  bottom: "loss2/fc"
  top: "loss2/fc"
  dropout_param {
    dropout_ratio: 0.7
  }
}
layer {
  name: "loss2/classifier_plantvillage"
  type: "InnerProduct"
  bottom: "loss2/fc"
  top: "loss2/classifier_plantvillage"
  param {
    lr_mult: 1
    decay_mult: 1
  }
  param {
    lr_mult: 2
    decay_mult: 0
  }
  inner_product_param {
    num_output: 38
    weight_filler {
      type: "xavier"
      std: 0.0009765625
    }
    bias_filler {
      type: "constant"
      value: 0
    }
  }
}
layer {
  name: "inception_4e/1x1"
  type: "Convolution"
  bottom: "inception_4d/output"
  top: "inception_4e/1x1"
  param {
    lr_mult: 1
    decay_mult: 1
  }
  param {
    lr_mult: 2
    decay_mult: 0
  }
  convolution_param {
    num_output: 256
    kernel_size: 1
    weight_filler {
      type: "xavier"
      std: 0.03
    }
    bias_filler {
      type: "constant"
      value: 0.2
    }
  }
}
layer {
  name: "inception_4e/relu_1x1"
  type: "ReLU"
  bottom: "inception_4e/1x1"
  top: "inception_4e/1x1"
}
layer {
  name: "inception_4e/3x3_reduce"
  type: "Convolution"
  bottom: "inception_4d/output"
  top: "inception_4e/3x3_reduce"
  param {
    lr_mult: 1
    decay_mult: 1
  }
  param {
    lr_mult: 2
    decay_mult: 0
  }
  convolution_param {
    num_output: 160
    kernel_size: 1
    weight_filler {
      type: "xavier"
      std: 0.09
    }
    bias_filler {
      type: "constant"
      value: 0.2
    }
  }
}
layer {
  name: "inception_4e/relu_3x3_reduce"
  type: "ReLU"
  bottom: "inception_4e/3x3_reduce"
  top: "inception_4e/3x3_reduce"
}
layer {
  name: "inception_4e/3x3"
  type: "Convolution"
  bottom: "inception_4e/3x3_reduce"
  top: "inception_4e/3x3"
  param {
    lr_mult: 1
    decay_mult: 1
  }
  param {
    lr_mult: 2
    decay_mult: 0
  }
  convolution_param {
    num_output: 320
    pad: 1
    kernel_size: 3
    weight_filler {
      type: "xavier"
      std: 0.03
    }
    bias_filler {
      type: "constant"
      value: 0.2
    }
  }
}
layer {
  name: "inception_4e/relu_3x3"
  type: "ReLU"
  bottom: "inception_4e/3x3"
  top: "inception_4e/3x3"
}
layer {
  name: "inception_4e/5x5_reduce"
  type: "Convolution"
  bottom: "inception_4d/output"
  top: "inception_4e/5x5_reduce"
  param {
    lr_mult: 1
    decay_mult: 1
  }
  param {
    lr_mult: 2
    decay_mult: 0
  }
  convolution_param {
    num_output: 32
    kernel_size: 1
    weight_filler {
      type: "xavier"
      std: 0.2
    }
    bias_filler {
      type: "constant"
      value: 0.2
    }
  }
}
layer {
  name: "inception_4e/relu_5x5_reduce"
  type: "ReLU"
  bottom: "inception_4e/5x5_reduce"
  top: "inception_4e/5x5_reduce"
}
layer {
  name: "inception_4e/5x5"
  type: "Convolution"
  bottom: "inception_4e/5x5_reduce"
  top: "inception_4e/
I0403 15:16:13.792058 18747 layer_factory.hpp:77] Creating layer data
I0403 15:16:13.792678 18747 net.cpp:91] Creating Layer data
I0403 15:16:13.792709 18747 net.cpp:399] data -> data
I0403 15:16:13.792759 18747 net.cpp:399] data -> label
I0403 15:16:13.792799 18747 data_transformer.cpp:25] Loading mean file from: /home/mohanty/data/final_dataset/lmdb/grayscale-40-60/mean.binaryproto
I0403 15:16:13.795217 18750 db_lmdb.cpp:38] Opened lmdb /home/mohanty/data/final_dataset/lmdb/grayscale-40-60/test_db
I0403 15:16:13.806162 18747 data_layer.cpp:41] output data size: 24,3,224,224
I0403 15:16:13.836880 18747 net.cpp:141] Setting up data
I0403 15:16:13.836954 18747 net.cpp:148] Top shape: 24 3 224 224 (3612672)
I0403 15:16:13.836977 18747 net.cpp:148] Top shape: 24 (24)
I0403 15:16:13.836997 18747 net.cpp:156] Memory required for data: 14450784
I0403 15:16:13.837023 18747 layer_factory.hpp:77] Creating layer label_data_1_split
I0403 15:16:13.837049 18747 net.cpp:91] Creating Layer label_data_1_split
I0403 15:16:13.837066 18747 net.cpp:425] label_data_1_split <- label
I0403 15:16:13.837098 18747 net.cpp:399] label_data_1_split -> label_data_1_split_0
I0403 15:16:13.837126 18747 net.cpp:399] label_data_1_split -> label_data_1_split_1
I0403 15:16:13.837146 18747 net.cpp:399] label_data_1_split -> label_data_1_split_2
I0403 15:16:13.837167 18747 net.cpp:399] label_data_1_split -> label_data_1_split_3
I0403 15:16:13.837185 18747 net.cpp:399] label_data_1_split -> label_data_1_split_4
I0403 15:16:13.837204 18747 net.cpp:399] label_data_1_split -> label_data_1_split_5
I0403 15:16:13.837224 18747 net.cpp:399] label_data_1_split -> label_data_1_split_6
I0403 15:16:13.837242 18747 net.cpp:399] label_data_1_split -> label_data_1_split_7
I0403 15:16:13.837261 18747 net.cpp:399] label_data_1_split -> label_data_1_split_8
I0403 15:16:13.837280 18747 net.cpp:399] label_data_1_split -> label_data_1_split_9
I0403 15:16:13.837393 18747 net.cpp:141] Setting up label_data_1_split
I0403 15:16:13.837417 18747 net.cpp:148] Top shape: 24 (24)
I0403 15:16:13.837435 18747 net.cpp:148] Top shape: 24 (24)
I0403 15:16:13.837450 18747 net.cpp:148] Top shape: 24 (24)
I0403 15:16:13.837466 18747 net.cpp:148] Top shape: 24 (24)
I0403 15:16:13.837481 18747 net.cpp:148] Top shape: 24 (24)
I0403 15:16:13.837496 18747 net.cpp:148] Top shape: 24 (24)
I0403 15:16:13.837510 18747 net.cpp:148] Top shape: 24 (24)
I0403 15:16:13.837527 18747 net.cpp:148] Top shape: 24 (24)
I0403 15:16:13.837541 18747 net.cpp:148] Top shape: 24 (24)
I0403 15:16:13.837558 18747 net.cpp:148] Top shape: 24 (24)
I0403 15:16:13.837599 18747 net.cpp:156] Memory required for data: 14451744
I0403 15:16:13.837615 18747 layer_factory.hpp:77] Creating layer conv1/7x7_s2
I0403 15:16:13.837646 18747 net.cpp:91] Creating Layer conv1/7x7_s2
I0403 15:16:13.837663 18747 net.cpp:425] conv1/7x7_s2 <- data
I0403 15:16:13.837682 18747 net.cpp:399] conv1/7x7_s2 -> conv1/7x7_s2
I0403 15:16:13.996695 18747 net.cpp:141] Setting up conv1/7x7_s2
I0403 15:16:13.996767 18747 net.cpp:148] Top shape: 24 64 112 112 (19267584)
I0403 15:16:13.996784 18747 net.cpp:156] Memory required for data: 91522080
I0403 15:16:13.996815 18747 layer_factory.hpp:77] Creating layer conv1/relu_7x7
I0403 15:16:13.996842 18747 net.cpp:91] Creating Layer conv1/relu_7x7
I0403 15:16:13.996861 18747 net.cpp:425] conv1/relu_7x7 <- conv1/7x7_s2
I0403 15:16:13.996879 18747 net.cpp:386] conv1/relu_7x7 -> conv1/7x7_s2 (in-place)
I0403 15:16:13.997170 18747 net.cpp:141] Setting up conv1/relu_7x7
I0403 15:16:13.997197 18747 net.cpp:148] Top shape: 24 64 112 112 (19267584)
I0403 15:16:13.997213 18747 net.cpp:156] Memory required for data: 168592416
I0403 15:16:13.997228 18747 layer_factory.hpp:77] Creating layer pool1/3x3_s2
I0403 15:16:13.997253 18747 net.cpp:91] Creating Layer pool1/3x3_s2
I0403 15:16:13.997270 18747 net.cpp:425] pool1/3x3_s2 <- conv1/7x7_s2
I0403 15:16:13.997288 18747 net.cpp:399] pool1/3x3_s2 -> pool1/3x3_s2
I0403 15:16:13.997362 18747 net.cpp:141] Setting up pool1/3x3_s2
I0403 15:16:13.997386 18747 net.cpp:148] Top shape: 24 64 56 56 (4816896)
I0403 15:16:13.997401 18747 net.cpp:156] Memory required for data: 187860000
I0403 15:16:13.997416 18747 layer_factory.hpp:77] Creating layer pool1/norm1
I0403 15:16:13.997439 18747 net.cpp:91] Creating Layer pool1/norm1
I0403 15:16:13.997457 18747 net.cpp:425] pool1/norm1 <- pool1/3x3_s2
I0403 15:16:13.997474 18747 net.cpp:399] pool1/norm1 -> pool1/norm1
I0403 15:16:13.997763 18747 net.cpp:141] Setting up pool1/norm1
I0403 15:16:13.997791 18747 net.cpp:148] Top shape: 24 64 56 56 (4816896)
I0403 15:16:13.997807 18747 net.cpp:156] Memory required for data: 207127584
I0403 15:16:13.997822 18747 layer_factory.hpp:77] Creating layer conv2/3x3_reduce
I0403 15:16:13.997846 18747 net.cpp:91] Creating Layer conv2/3x3_reduce
I0403 15:16:13.997862 18747 net.cpp:425] conv2/3x3_reduce <- pool1/norm1
I0403 15:16:13.997879 18747 net.cpp:399] conv2/3x3_reduce -> conv2/3x3_reduce
I0403 15:16:13.999224 18747 net.cpp:141] Setting up conv2/3x3_reduce
I0403 15:16:13.999253 18747 net.cpp:148] Top shape: 24 64 56 56 (4816896)
I0403 15:16:13.999269 18747 net.cpp:156] Memory required for data: 226395168
I0403 15:16:13.999289 18747 layer_factory.hpp:77] Creating layer conv2/relu_3x3_reduce
I0403 15:16:13.999308 18747 net.cpp:91] Creating Layer conv2/relu_3x3_reduce
I0403 15:16:13.999325 18747 net.cpp:425] conv2/relu_3x3_reduce <- conv2/3x3_reduce
I0403 15:16:13.999341 18747 net.cpp:386] conv2/relu_3x3_reduce -> conv2/3x3_reduce (in-place)
I0403 15:16:13.999595 18747 net.cpp:141] Setting up conv2/relu_3x3_reduce
I0403 15:16:13.999622 18747 net.cpp:148] Top shape: 24 64 56 56 (4816896)
I0403 15:16:13.999637 18747 net.cpp:156] Memory required for data: 245662752
I0403 15:16:13.999652 18747 layer_factory.hpp:77] Creating layer conv2/3x3
I0403 15:16:13.999673 18747 net.cpp:91] Creating Layer conv2/3x3
I0403 15:16:13.999689 18747 net.cpp:425] conv2/3x3 <- conv2/3x3_reduce
I0403 15:16:13.999707 18747 net.cpp:399] conv2/3x3 -> conv2/3x3
I0403 15:16:14.001932 18747 net.cpp:141] Setting up conv2/3x3
I0403 15:16:14.001962 18747 net.cpp:148] Top shape: 24 192 56 56 (14450688)
I0403 15:16:14.001979 18747 net.cpp:156] Memory required for data: 303465504
I0403 15:16:14.002005 18747 layer_factory.hpp:77] Creating layer conv2/relu_3x3
I0403 15:16:14.002027 18747 net.cpp:91] Creating Layer conv2/relu_3x3
I0403 15:16:14.002043 18747 net.cpp:425] conv2/relu_3x3 <- conv2/3x3
I0403 15:16:14.002059 18747 net.cpp:386] conv2/relu_3x3 -> conv2/3x3 (in-place)
I0403 15:16:14.002218 18747 net.cpp:141] Setting up conv2/relu_3x3
I0403 15:16:14.002243 18747 net.cpp:148] Top shape: 24 192 56 56 (14450688)
I0403 15:16:14.002287 18747 net.cpp:156] Memory required for data: 361268256
I0403 15:16:14.002303 18747 layer_factory.hpp:77] Creating layer conv2/norm2
I0403 15:16:14.002321 18747 net.cpp:91] Creating Layer conv2/norm2
I0403 15:16:14.002337 18747 net.cpp:425] conv2/norm2 <- conv2/3x3
I0403 15:16:14.002357 18747 net.cpp:399] conv2/norm2 -> conv2/norm2
I0403 15:16:14.002635 18747 net.cpp:141] Setting up conv2/norm2
I0403 15:16:14.002662 18747 net.cpp:148] Top shape: 24 192 56 56 (14450688)
I0403 15:16:14.002677 18747 net.cpp:156] Memory required for data: 419071008
I0403 15:16:14.002692 18747 layer_factory.hpp:77] Creating layer pool2/3x3_s2
I0403 15:16:14.002709 18747 net.cpp:91] Creating Layer pool2/3x3_s2
I0403 15:16:14.002725 18747 net.cpp:425] pool2/3x3_s2 <- conv2/norm2
I0403 15:16:14.002743 18747 net.cpp:399] pool2/3x3_s2 -> pool2/3x3_s2
I0403 15:16:14.002791 18747 net.cpp:141] Setting up pool2/3x3_s2
I0403 15:16:14.002815 18747 net.cpp:148] Top shape: 24 192 28 28 (3612672)
I0403 15:16:14.002830 18747 net.cpp:156] Memory required for data: 433521696
I0403 15:16:14.002843 18747 layer_factory.hpp:77] Creating layer pool2/3x3_s2_pool2/3x3_s2_0_split
I0403 15:16:14.002861 18747 net.cpp:91] Creating Layer pool2/3x3_s2_pool2/3x3_s2_0_split
I0403 15:16:14.002876 18747 net.cpp:425] pool2/3x3_s2_pool2/3x3_s2_0_split <- pool2/3x3_s2
I0403 15:16:14.002893 18747 net.cpp:399] pool2/3x3_s2_pool2/3x3_s2_0_split -> pool2/3x3_s2_pool2/3x3_s2_0_split_0
I0403 15:16:14.002912 18747 net.cpp:399] pool2/3x3_s2_pool2/3x3_s2_0_split -> pool2/3x3_s2_pool2/3x3_s2_0_split_1
I0403 15:16:14.002933 18747 net.cpp:399] pool2/3x3_s2_pool2/3x3_s2_0_split -> pool2/3x3_s2_pool2/3x3_s2_0_split_2
I0403 15:16:14.002961 18747 net.cpp:399] pool2/3x3_s2_pool2/3x3_s2_0_split -> pool2/3x3_s2_pool2/3x3_s2_0_split_3
I0403 15:16:14.003029 18747 net.cpp:141] Setting up pool2/3x3_s2_pool2/3x3_s2_0_split
I0403 15:16:14.003052 18747 net.cpp:148] Top shape: 24 192 28 28 (3612672)
I0403 15:16:14.003069 18747 net.cpp:148] Top shape: 24 192 28 28 (3612672)
I0403 15:16:14.003085 18747 net.cpp:148] Top shape: 24 192 28 28 (3612672)
I0403 15:16:14.003100 18747 net.cpp:148] Top shape: 24 192 28 28 (3612672)
I0403 15:16:14.003115 18747 net.cpp:156] Memory required for data: 491324448
I0403 15:16:14.003129 18747 layer_factory.hpp:77] Creating layer inception_3a/1x1
I0403 15:16:14.003149 18747 net.cpp:91] Creating Layer inception_3a/1x1
I0403 15:16:14.003165 18747 net.cpp:425] inception_3a/1x1 <- pool2/3x3_s2_pool2/3x3_s2_0_split_0
I0403 15:16:14.003183 18747 net.cpp:399] inception_3a/1x1 -> inception_3a/1x1
I0403 15:16:14.004694 18747 net.cpp:141] Setting up inception_3a/1x1
I0403 15:16:14.004724 18747 net.cpp:148] Top shape: 24 64 28 28 (1204224)
I0403 15:16:14.004739 18747 net.cpp:156] Memory required for data: 496141344
I0403 15:16:14.004758 18747 layer_factory.hpp:77] Creating layer inception_3a/relu_1x1
I0403 15:16:14.004776 18747 net.cpp:91] Creating Layer inception_3a/relu_1x1
I0403 15:16:14.004794 18747 net.cpp:425] inception_3a/relu_1x1 <- inception_3a/1x1
I0403 15:16:14.004812 18747 net.cpp:386] inception_3a/relu_1x1 -> inception_3a/1x1 (in-place)
I0403 15:16:14.004981 18747 net.cpp:141] Setting up inception_3a/relu_1x1
I0403 15:16:14.005010 18747 net.cpp:148] Top shape: 24 64 28 28 (1204224)
I0403 15:16:14.005026 18747 net.cpp:156] Memory required for data: 500958240
I0403 15:16:14.005041 18747 layer_factory.hpp:77] Creating layer inception_3a/3x3_reduce
I0403 15:16:14.005064 18747 net.cpp:91] Creating Layer inception_3a/3x3_reduce
I0403 15:16:14.005081 18747 net.cpp:425] inception_3a/3x3_reduce <- pool2/3x3_s2_pool2/3x3_s2_0_split_1
I0403 15:16:14.005101 18747 net.cpp:399] inception_3a/3x3_reduce -> inception_3a/3x3_reduce
I0403 15:16:14.006779 18747 net.cpp:141] Setting up inception_3a/3x3_reduce
I0403 15:16:14.006808 18747 net.cpp:148] Top shape: 24 96 28 28 (1806336)
I0403 15:16:14.006824 18747 net.cpp:156] Memory required for data: 508183584
I0403 15:16:14.006846 18747 layer_factory.hpp:77] Creating layer inception_3a/relu_3x3_reduce
I0403 15:16:14.006886 18747 net.cpp:91] Creating Layer inception_3a/relu_3x3_reduce
I0403 15:16:14.006906 18747 net.cpp:425] inception_3a/relu_3x3_reduce <- inception_3a/3x3_reduce
I0403 15:16:14.006922 18747 net.cpp:386] inception_3a/relu_3x3_reduce -> inception_3a/3x3_reduce (in-place)
I0403 15:16:14.007110 18747 net.cpp:141] Setting up inception_3a/relu_3x3_reduce
I0403 15:16:14.007136 18747 net.cpp:148] Top shape: 24 96 28 28 (1806336)
I0403 15:16:14.007151 18747 net.cpp:156] Memory required for data: 515408928
I0403 15:16:14.007166 18747 layer_factory.hpp:77] Creating layer inception_3a/3x3
I0403 15:16:14.007189 18747 net.cpp:91] Creating Layer inception_3a/3x3
I0403 15:16:14.007205 18747 net.cpp:425] inception_3a/3x3 <- inception_3a/3x3_reduce
I0403 15:16:14.007227 18747 net.cpp:399] inception_3a/3x3 -> inception_3a/3x3
I0403 15:16:14.008858 18747 net.cpp:141] Setting up inception_3a/3x3
I0403 15:16:14.008887 18747 net.cpp:148] Top shape: 24 128 28 28 (2408448)
I0403 15:16:14.008903 18747 net.cpp:156] Memory required for data: 525042720
I0403 15:16:14.008921 18747 layer_factory.hpp:77] Creating layer inception_3a/relu_3x3
I0403 15:16:14.008941 18747 net.cpp:91] Creating Layer inception_3a/relu_3x3
I0403 15:16:14.008957 18747 net.cpp:425] inception_3a/relu_3x3 <- inception_3a/3x3
I0403 15:16:14.008975 18747 net.cpp:386] inception_3a/relu_3x3 -> inception_3a/3x3 (in-place)
I0403 15:16:14.009258 18747 net.cpp:141] Setting up inception_3a/relu_3x3
I0403 15:16:14.009284 18747 net.cpp:148] Top shape: 24 128 28 28 (2408448)
I0403 15:16:14.009299 18747 net.cpp:156] Memory required for data: 534676512
I0403 15:16:14.009313 18747 layer_factory.hpp:77] Creating layer inception_3a/5x5_reduce
I0403 15:16:14.009335 18747 net.cpp:91] Creating Layer inception_3a/5x5_reduce
I0403 15:16:14.009353 18747 net.cpp:425] inception_3a/5x5_reduce <- pool2/3x3_s2_pool2/3x3_s2_0_split_2
I0403 15:16:14.009374 18747 net.cpp:399] inception_3a/5x5_reduce -> inception_3a/5x5_reduce
I0403 15:16:14.010339 18747 net.cpp:141] Setting up inception_3a/5x5_reduce
I0403 15:16:14.010366 18747 net.cpp:148] Top shape: 24 16 28 28 (301056)
I0403 15:16:14.010381 18747 net.cpp:156] Memory required for data: 535880736
I0403 15:16:14.010401 18747 layer_factory.hpp:77] Creating layer inception_3a/relu_5x5_reduce
I0403 15:16:14.010421 18747 net.cpp:91] Creating Layer inception_3a/relu_5x5_reduce
I0403 15:16:14.010438 18747 net.cpp:425] inception_3a/relu_5x5_reduce <- inception_3a/5x5_reduce
I0403 15:16:14.010455 18747 net.cpp:386] inception_3a/relu_5x5_reduce -> inception_3a/5x5_reduce (in-place)
I0403 15:16:14.010749 18747 net.cpp:141] Setting up inception_3a/relu_5x5_reduce
I0403 15:16:14.010778 18747 net.cpp:148] Top shape: 24 16 28 28 (301056)
I0403 15:16:14.010795 18747 net.cpp:156] Memory required for data: 537084960
I0403 15:16:14.010810 18747 layer_factory.hpp:77] Creating layer inception_3a/5x5
I0403 15:16:14.010833 18747 net.cpp:91] Creating Layer inception_3a/5x5
I0403 15:16:14.010849 18747 net.cpp:425] inception_3a/5x5 <- inception_3a/5x5_reduce
I0403 15:16:14.010869 18747 net.cpp:399] inception_3a/5x5 -> inception_3a/5x5
I0403 15:16:14.011889 18747 net.cpp:141] Setting up inception_3a/5x5
I0403 15:16:14.011919 18747 net.cpp:148] Top shape: 24 32 28 28 (602112)
I0403 15:16:14.011935 18747 net.cpp:156] Memory required for data: 539493408
I0403 15:16:14.011953 18747 layer_factory.hpp:77] Creating layer inception_3a/relu_5x5
I0403 15:16:14.011973 18747 net.cpp:91] Creating Layer inception_3a/relu_5x5
I0403 15:16:14.011994 18747 net.cpp:425] inception_3a/relu_5x5 <- inception_3a/5x5
I0403 15:16:14.012012 18747 net.cpp:386] inception_3a/relu_5x5 -> inception_3a/5x5 (in-place)
I0403 15:16:14.012187 18747 net.cpp:141] Setting up inception_3a/relu_5x5
I0403 15:16:14.012212 18747 net.cpp:148] Top shape: 24 32 28 28 (602112)
I0403 15:16:14.012226 18747 net.cpp:156] Memory required for data: 541901856
I0403 15:16:14.012240 18747 layer_factory.hpp:77] Creating layer inception_3a/pool
I0403 15:16:14.012260 18747 net.cpp:91] Creating Layer inception_3a/pool
I0403 15:16:14.012290 18747 net.cpp:425] inception_3a/pool <- pool2/3x3_s2_pool2/3x3_s2_0_split_3
I0403 15:16:14.012308 18747 net.cpp:399] inception_3a/pool -> inception_3a/pool
I0403 15:16:14.012367 18747 net.cpp:141] Setting up inception_3a/pool
I0403 15:16:14.012392 18747 net.cpp:148] Top shape: 24 192 28 28 (3612672)
I0403 15:16:14.012406 18747 net.cpp:156] Memory required for data: 556352544
I0403 15:16:14.012421 18747 layer_factory.hpp:77] Creating layer inception_3a/pool_proj
I0403 15:16:14.012442 18747 net.cpp:91] Creating Layer inception_3a/pool_proj
I0403 15:16:14.012459 18747 net.cpp:425] inception_3a/pool_proj <- inception_3a/pool
I0403 15:16:14.012481 18747 net.cpp:399] inception_3a/pool_proj -> inception_3a/pool_proj
I0403 15:16:14.013463 18747 net.cpp:141] Setting up inception_3a/pool_proj
I0403 15:16:14.013494 18747 net.cpp:148] Top shape: 24 32 28 28 (602112)
I0403 15:16:14.013510 18747 net.cpp:156] Memory required for data: 558760992
I0403 15:16:14.013532 18747 layer_factory.hpp:77] Creating layer inception_3a/relu_pool_proj
I0403 15:16:14.013556 18747 net.cpp:91] Creating Layer inception_3a/relu_pool_proj
I0403 15:16:14.013573 18747 net.cpp:425] inception_3a/relu_pool_proj <- inception_3a/pool_proj
I0403 15:16:14.013591 18747 net.cpp:386] inception_3a/relu_pool_proj -> inception_3a/pool_proj (in-place)
I0403 15:16:14.013864 18747 net.cpp:141] Setting up inception_3a/relu_pool_proj
I0403 15:16:14.013890 18747 net.cpp:148] Top shape: 24 32 28 28 (602112)
I0403 15:16:14.013906 18747 net.cpp:156] Memory required for data: 561169440
I0403 15:16:14.013919 18747 layer_factory.hpp:77] Creating layer inception_3a/output
I0403 15:16:14.013937 18747 net.cpp:91] Creating Layer inception_3a/output
I0403 15:16:14.013957 18747 net.cpp:425] inception_3a/output <- inception_3a/1x1
I0403 15:16:14.013974 18747 net.cpp:425] inception_3a/output <- inception_3a/3x3
I0403 15:16:14.013995 18747 net.cpp:425] inception_3a/output <- inception_3a/5x5
I0403 15:16:14.014013 18747 net.cpp:425] inception_3a/output <- inception_3a/pool_proj
I0403 15:16:14.014030 18747 net.cpp:399] inception_3a/output -> inception_3a/output
I0403 15:16:14.014076 18747 net.cpp:141] Setting up inception_3a/output
I0403 15:16:14.014102 18747 net.cpp:148] Top shape: 24 256 28 28 (4816896)
I0403 15:16:14.014118 18747 net.cpp:156] Memory required for data: 580437024
I0403 15:16:14.014133 18747 layer_factory.hpp:77] Creating layer inception_3a/output_inception_3a/output_0_split
I0403 15:16:14.014150 18747 net.cpp:91] Creating Layer inception_3a/output_inception_3a/output_0_split
I0403 15:16:14.014165 18747 net.cpp:425] inception_3a/output_inception_3a/output_0_split <- inception_3a/output
I0403 15:16:14.014184 18747 net.cpp:399] inception_3a/output_inception_3a/output_0_split -> inception_3a/output_inception_3a/output_0_split_0
I0403 15:16:14.014204 18747 net.cpp:399] inception_3a/output_inception_3a/output_0_split -> inception_3a/output_inception_3a/output_0_split_1
I0403 15:16:14.014226 18747 net.cpp:399] inception_3a/output_inception_3a/output_0_split -> inception_3a/output_inception_3a/output_0_split_2
I0403 15:16:14.014247 18747 net.cpp:399] inception_3a/output_inception_3a/output_0_split -> inception_3a/output_inception_3a/output_0_split_3
I0403 15:16:14.014322 18747 net.cpp:141] Setting up inception_3a/output_inception_3a/output_0_split
I0403 15:16:14.014345 18747 net.cpp:148] Top shape: 24 256 28 28 (4816896)
I0403 15:16:14.014363 18747 net.cpp:148] Top shape: 24 256 28 28 (4816896)
I0403 15:16:14.014377 18747 net.cpp:148] Top shape: 24 256 28 28 (4816896)
I0403 15:16:14.014394 18747 net.cpp:148] Top shape: 24 256 28 28 (4816896)
I0403 15:16:14.014407 18747 net.cpp:156] Memory required for data: 657507360
I0403 15:16:14.014421 18747 layer_factory.hpp:77] Creating layer inception_3b/1x1
I0403 15:16:14.014443 18747 net.cpp:91] Creating Layer inception_3b/1x1
I0403 15:16:14.014461 18747 net.cpp:425] inception_3b/1x1 <- inception_3a/output_inception_3a/output_0_split_0
I0403 15:16:14.014482 18747 net.cpp:399] inception_3b/1x1 -> inception_3b/1x1
I0403 15:16:14.015620 18747 net.cpp:141] Setting up inception_3b/1x1
I0403 15:16:14.015660 18747 net.cpp:148] Top shape: 24 128 28 28 (2408448)
I0403 15:16:14.015676 18747 net.cpp:156] Memory required for data: 667141152
I0403 15:16:14.015694 18747 layer_factory.hpp:77] Creating layer inception_3b/relu_1x1
I0403 15:16:14.015712 18747 net.cpp:91] Creating Layer inception_3b/relu_1x1
I0403 15:16:14.015728 18747 net.cpp:425] inception_3b/relu_1x1 <- inception_3b/1x1
I0403 15:16:14.015748 18747 net.cpp:386] inception_3b/relu_1x1 -> inception_3b/1x1 (in-place)
I0403 15:16:14.015919 18747 net.cpp:141] Setting up inception_3b/relu_1x1
I0403 15:16:14.015944 18747 net.cpp:148] Top shape: 24 128 28 28 (2408448)
I0403 15:16:14.015959 18747 net.cpp:156] Memory required for data: 676774944
I0403 15:16:14.015974 18747 layer_factory.hpp:77] Creating layer inception_3b/3x3_reduce
I0403 15:16:14.016000 18747 net.cpp:91] Creating Layer inception_3b/3x3_reduce
I0403 15:16:14.016019 18747 net.cpp:425] inception_3b/3x3_reduce <- inception_3a/output_inception_3a/output_0_split_1
I0403 15:16:14.016041 18747 net.cpp:399] inception_3b/3x3_reduce -> inception_3b/3x3_reduce
I0403 15:16:14.017179 18747 net.cpp:141] Setting up inception_3b/3x3_reduce
I0403 15:16:14.017212 18747 net.cpp:148] Top shape: 24 128 28 28 (2408448)
I0403 15:16:14.017230 18747 net.cpp:156] Memory required for data: 686408736
I0403 15:16:14.017248 18747 layer_factory.hpp:77] Creating layer inception_3b/relu_3x3_reduce
I0403 15:16:14.017266 18747 net.cpp:91] Creating Layer inception_3b/relu_3x3_reduce
I0403 15:16:14.017282 18747 net.cpp:425] inception_3b/relu_3x3_reduce <- inception_3b/3x3_reduce
I0403 15:16:14.017300 18747 net.cpp:386] inception_3b/relu_3x3_reduce -> inception_3b/3x3_reduce (in-place)
I0403 15:16:14.017473 18747 net.cpp:141] Setting up inception_3b/relu_3x3_reduce
I0403 15:16:14.017499 18747 net.cpp:148] Top shape: 24 128 28 28 (2408448)
I0403 15:16:14.017514 18747 net.cpp:156] Memory required for data: 696042528
I0403 15:16:14.017529 18747 layer_factory.hpp:77] Creating layer inception_3b/3x3
I0403 15:16:14.017554 18747 net.cpp:91] Creating Layer inception_3b/3x3
I0403 15:16:14.017572 18747 net.cpp:425] inception_3b/3x3 <- inception_3b/3x3_reduce
I0403 15:16:14.017590 18747 net.cpp:399] inception_3b/3x3 -> inception_3b/3x3
I0403 15:16:14.020501 18747 net.cpp:141] Setting up inception_3b/3x3
I0403 15:16:14.020530 18747 net.cpp:148] Top shape: 24 192 28 28 (3612672)
I0403 15:16:14.020545 18747 net.cpp:156] Memory required for data: 710493216
I0403 15:16:14.020565 18747 layer_factory.hpp:77] Creating layer inception_3b/relu_3x3
I0403 15:16:14.020584 18747 net.cpp:91] Creating Layer inception_3b/relu_3x3
I0403 15:16:14.020601 18747 net.cpp:425] inception_3b/relu_3x3 <- inception_3b/3x3
I0403 15:16:14.020618 18747 net.cpp:386] inception_3b/relu_3x3 -> inception_3b/3x3 (in-place)
I0403 15:16:14.020895 18747 net.cpp:141] Setting up inception_3b/relu_3x3
I0403 15:16:14.020921 18747 net.cpp:148] Top shape: 24 192 28 28 (3612672)
I0403 15:16:14.020936 18747 net.cpp:156] Memory required for data: 724943904
I0403 15:16:14.020951 18747 layer_factory.hpp:77] Creating layer inception_3b/5x5_reduce
I0403 15:16:14.020973 18747 net.cpp:91] Creating Layer inception_3b/5x5_reduce
I0403 15:16:14.020995 18747 net.cpp:425] inception_3b/5x5_reduce <- inception_3a/output_inception_3a/output_0_split_2
I0403 15:16:14.021019 18747 net.cpp:399] inception_3b/5x5_reduce -> inception_3b/5x5_reduce
I0403 15:16:14.022017 18747 net.cpp:141] Setting up inception_3b/5x5_reduce
I0403 15:16:14.022045 18747 net.cpp:148] Top shape: 24 32 28 28 (602112)
I0403 15:16:14.022061 18747 net.cpp:156] Memory required for data: 727352352
I0403 15:16:14.022078 18747 layer_factory.hpp:77] Creating layer inception_3b/relu_5x5_reduce
I0403 15:16:14.022099 18747 net.cpp:91] Creating Layer inception_3b/relu_5x5_reduce
I0403 15:16:14.022115 18747 net.cpp:425] inception_3b/relu_5x5_reduce <- inception_3b/5x5_reduce
I0403 15:16:14.022132 18747 net.cpp:386] inception_3b/relu_5x5_reduce -> inception_3b/5x5_reduce (in-place)
I0403 15:16:14.022320 18747 net.cpp:141] Setting up inception_3b/relu_5x5_reduce
I0403 15:16:14.022346 18747 net.cpp:148] Top shape: 24 32 28 28 (602112)
I0403 15:16:14.022361 18747 net.cpp:156] Memory required for data: 729760800
I0403 15:16:14.022375 18747 layer_factory.hpp:77] Creating layer inception_3b/5x5
I0403 15:16:14.022399 18747 net.cpp:91] Creating Layer inception_3b/5x5
I0403 15:16:14.022418 18747 net.cpp:425] inception_3b/5x5 <- inception_3b/5x5_reduce
I0403 15:16:14.022435 18747 net.cpp:399] inception_3b/5x5 -> inception_3b/5x5
I0403 15:16:14.024400 18747 net.cpp:141] Setting up inception_3b/5x5
I0403 15:16:14.024431 18747 net.cpp:148] Top shape: 24 96 28 28 (1806336)
I0403 15:16:14.024448 18747 net.cpp:156] Memory required for data: 736986144
I0403 15:16:14.024466 18747 layer_factory.hpp:77] Creating layer inception_3b/relu_5x5
I0403 15:16:14.024483 18747 net.cpp:91] Creating Layer inception_3b/relu_5x5
I0403 15:16:14.024500 18747 net.cpp:425] inception_3b/relu_5x5 <- inception_3b/5x5
I0403 15:16:14.024523 18747 net.cpp:386] inception_3b/relu_5x5 -> inception_3b/5x5 (in-place)
I0403 15:16:14.024714 18747 net.cpp:141] Setting up inception_3b/relu_5x5
I0403 15:16:14.024739 18747 net.cpp:148] Top shape: 24 96 28 28 (1806336)
I0403 15:16:14.024755 18747 net.cpp:156] Memory required for data: 744211488
I0403 15:16:14.024770 18747 layer_factory.hpp:77] Creating layer inception_3b/pool
I0403 15:16:14.024786 18747 net.cpp:91] Creating Layer inception_3b/pool
I0403 15:16:14.024802 18747 net.cpp:425] inception_3b/pool <- inception_3a/output_inception_3a/output_0_split_3
I0403 15:16:14.024821 18747 net.cpp:399] inception_3b/pool -> inception_3b/pool
I0403 15:16:14.024878 18747 net.cpp:141] Setting up inception_3b/pool
I0403 15:16:14.024901 18747 net.cpp:148] Top shape: 24 256 28 28 (4816896)
I0403 15:16:14.024916 18747 net.cpp:156] Memory required for data: 763479072
I0403 15:16:14.024930 18747 layer_factory.hpp:77] Creating layer inception_3b/pool_proj
I0403 15:16:14.024952 18747 net.cpp:91] Creating Layer inception_3b/pool_proj
I0403 15:16:14.024969 18747 net.cpp:425] inception_3b/pool_proj <- inception_3b/pool
I0403 15:16:14.024994 18747 net.cpp:399] inception_3b/pool_proj -> inception_3b/pool_proj
I0403 15:16:14.026051 18747 net.cpp:141] Setting up inception_3b/pool_proj
I0403 15:16:14.026079 18747 net.cpp:148] Top shape: 24 64 28 28 (1204224)
I0403 15:16:14.026095 18747 net.cpp:156] Memory required for data: 768295968
I0403 15:16:14.026113 18747 layer_factory.hpp:77] Creating layer inception_3b/relu_pool_proj
I0403 15:16:14.026134 18747 net.cpp:91] Creating Layer inception_3b/relu_pool_proj
I0403 15:16:14.026150 18747 net.cpp:425] inception_3b/relu_pool_proj <- inception_3b/pool_proj
I0403 15:16:14.026167 18747 net.cpp:386] inception_3b/relu_pool_proj -> inception_3b/pool_proj (in-place)
I0403 15:16:14.026561 18747 net.cpp:141] Setting up inception_3b/relu_pool_proj
I0403 15:16:14.026587 18747 net.cpp:148] Top shape: 24 64 28 28 (1204224)
I0403 15:16:14.026602 18747 net.cpp:156] Memory required for data: 773112864
I0403 15:16:14.026618 18747 layer_factory.hpp:77] Creating layer inception_3b/output
I0403 15:16:14.026638 18747 net.cpp:91] Creating Layer inception_3b/output
I0403 15:16:14.026654 18747 net.cpp:425] inception_3b/output <- inception_3b/1x1
I0403 15:16:14.026671 18747 net.cpp:425] inception_3b/output <- inception_3b/3x3
I0403 15:16:14.026687 18747 net.cpp:425] inception_3b/output <- inception_3b/5x5
I0403 15:16:14.026703 18747 net.cpp:425] inception_3b/output <- inception_3b/pool_proj
I0403 15:16:14.026721 18747 net.cpp:399] inception_3b/output -> inception_3b/output
I0403 15:16:14.026765 18747 net.cpp:141] Setting up inception_3b/output
I0403 15:16:14.026788 18747 net.cpp:148] Top shape: 24 480 28 28 (9031680)
I0403 15:16:14.026803 18747 net.cpp:156] Memory required for data: 809239584
I0403 15:16:14.026818 18747 layer_factory.hpp:77] Creating layer pool3/3x3_s2
I0403 15:16:14.026836 18747 net.cpp:91] Creating Layer pool3/3x3_s2
I0403 15:16:14.026851 18747 net.cpp:425] pool3/3x3_s2 <- inception_3b/output
I0403 15:16:14.026886 18747 net.cpp:399] pool3/3x3_s2 -> pool3/3x3_s2
I0403 15:16:14.026948 18747 net.cpp:141] Setting up pool3/3x3_s2
I0403 15:16:14.026974 18747 net.cpp:148] Top shape: 24 480 14 14 (2257920)
I0403 15:16:14.026994 18747 net.cpp:156] Memory required for data: 818271264
I0403 15:16:14.027009 18747 layer_factory.hpp:77] Creating layer pool3/3x3_s2_pool3/3x3_s2_0_split
I0403 15:16:14.027029 18747 net.cpp:91] Creating Layer pool3/3x3_s2_pool3/3x3_s2_0_split
I0403 15:16:14.027045 18747 net.cpp:425] pool3/3x3_s2_pool3/3x3_s2_0_split <- pool3/3x3_s2
I0403 15:16:14.027061 18747 net.cpp:399] pool3/3x3_s2_pool3/3x3_s2_0_split -> pool3/3x3_s2_pool3/3x3_s2_0_split_0
I0403 15:16:14.027082 18747 net.cpp:399] pool3/3x3_s2_pool3/3x3_s2_0_split -> pool3/3x3_s2_pool3/3x3_s2_0_split_1
I0403 15:16:14.027104 18747 net.cpp:399] pool3/3x3_s2_pool3/3x3_s2_0_split -> pool3/3x3_s2_pool3/3x3_s2_0_split_2
I0403 15:16:14.027123 18747 net.cpp:399] pool3/3x3_s2_pool3/3x3_s2_0_split -> pool3/3x3_s2_pool3/3x3_s2_0_split_3
I0403 15:16:14.027202 18747 net.cpp:141] Setting up pool3/3x3_s2_pool3/3x3_s2_0_split
I0403 15:16:14.027225 18747 net.cpp:148] Top shape: 24 480 14 14 (2257920)
I0403 15:16:14.027241 18747 net.cpp:148] Top shape: 24 480 14 14 (2257920)
I0403 15:16:14.027257 18747 net.cpp:148] Top shape: 24 480 14 14 (2257920)
I0403 15:16:14.027273 18747 net.cpp:148] Top shape: 24 480 14 14 (2257920)
I0403 15:16:14.027287 18747 net.cpp:156] Memory required for data: 854397984
I0403 15:16:14.027300 18747 layer_factory.hpp:77] Creating layer inception_4a/1x1
I0403 15:16:14.027324 18747 net.cpp:91] Creating Layer inception_4a/1x1
I0403 15:16:14.027341 18747 net.cpp:425] inception_4a/1x1 <- pool3/3x3_s2_pool3/3x3_s2_0_split_0
I0403 15:16:14.027359 18747 net.cpp:399] inception_4a/1x1 -> inception_4a/1x1
I0403 15:16:14.028921 18747 net.cpp:141] Setting up inception_4a/1x1
I0403 15:16:14.028951 18747 net.cpp:148] Top shape: 24 192 14 14 (903168)
I0403 15:16:14.028967 18747 net.cpp:156] Memory required for data: 858010656
I0403 15:16:14.028996 18747 layer_factory.hpp:77] Creating layer inception_4a/relu_1x1
I0403 15:16:14.029016 18747 net.cpp:91] Creating Layer inception_4a/relu_1x1
I0403 15:16:14.029033 18747 net.cpp:425] inception_4a/relu_1x1 <- inception_4a/1x1
I0403 15:16:14.029053 18747 net.cpp:386] inception_4a/relu_1x1 -> inception_4a/1x1 (in-place)
I0403 15:16:14.029227 18747 net.cpp:141] Setting up inception_4a/relu_1x1
I0403 15:16:14.029253 18747 net.cpp:148] Top shape: 24 192 14 14 (903168)
I0403 15:16:14.029268 18747 net.cpp:156] Memory required for data: 861623328
I0403 15:16:14.029283 18747 layer_factory.hpp:77] Creating layer inception_4a/3x3_reduce
I0403 15:16:14.029304 18747 net.cpp:91] Creating Layer inception_4a/3x3_reduce
I0403 15:16:14.029322 18747 net.cpp:425] inception_4a/3x3_reduce <- pool3/3x3_s2_pool3/3x3_s2_0_split_1
I0403 15:16:14.029342 18747 net.cpp:399] inception_4a/3x3_reduce -> inception_4a/3x3_reduce
I0403 15:16:14.030609 18747 net.cpp:141] Setting up inception_4a/3x3_reduce
I0403 15:16:14.030640 18747 net.cpp:148] Top shape: 24 96 14 14 (451584)
I0403 15:16:14.030658 18747 net.cpp:156] Memory required for data: 863429664
I0403 15:16:14.030679 18747 layer_factory.hpp:77] Creating layer inception_4a/relu_3x3_reduce
I0403 15:16:14.030700 18747 net.cpp:91] Creating Layer inception_4a/relu_3x3_reduce
I0403 15:16:14.030717 18747 net.cpp:425] inception_4a/relu_3x3_reduce <- inception_4a/3x3_reduce
I0403 15:16:14.030735 18747 net.cpp:386] inception_4a/relu_3x3_reduce -> inception_4a/3x3_reduce (in-place)
I0403 15:16:14.030913 18747 net.cpp:141] Setting up inception_4a/relu_3x3_reduce
I0403 15:16:14.030938 18747 net.cpp:148] Top shape: 24 96 14 14 (451584)
I0403 15:16:14.030953 18747 net.cpp:156] Memory required for data: 865236000
I0403 15:16:14.030967 18747 layer_factory.hpp:77] Creating layer inception_4a/3x3
I0403 15:16:14.030997 18747 net.cpp:91] Creating Layer inception_4a/3x3
I0403 15:16:14.031016 18747 net.cpp:425] inception_4a/3x3 <- inception_4a/3x3_reduce
I0403 15:16:14.031047 18747 net.cpp:399] inception_4a/3x3 -> inception_4a/3x3
I0403 15:16:14.033725 18747 net.cpp:141] Setting up inception_4a/3x3
I0403 15:16:14.033753 18747 net.cpp:148] Top shape: 24 208 14 14 (978432)
I0403 15:16:14.033768 18747 net.cpp:156] Memory required for data: 869149728
I0403 15:16:14.033787 18747 layer_factory.hpp:77] Creating layer inception_4a/relu_3x3
I0403 15:16:14.033804 18747 net.cpp:91] Creating Layer inception_4a/relu_3x3
I0403 15:16:14.033820 18747 net.cpp:425] inception_4a/relu_3x3 <- inception_4a/3x3
I0403 15:16:14.033840 18747 net.cpp:386] inception_4a/relu_3x3 -> inception_4a/3x3 (in-place)
I0403 15:16:14.034121 18747 net.cpp:141] Setting up inception_4a/relu_3x3
I0403 15:16:14.034148 18747 net.cpp:148] Top shape: 24 208 14 14 (978432)
I0403 15:16:14.034164 18747 net.cpp:156] Memory required for data: 873063456
I0403 15:16:14.034178 18747 layer_factory.hpp:77] Creating layer inception_4a/5x5_reduce
I0403 15:16:14.034203 18747 net.cpp:91] Creating Layer inception_4a/5x5_reduce
I0403 15:16:14.034220 18747 net.cpp:425] inception_4a/5x5_reduce <- pool3/3x3_s2_pool3/3x3_s2_0_split_2
I0403 15:16:14.034241 18747 net.cpp:399] inception_4a/5x5_reduce -> inception_4a/5x5_reduce
I0403 15:16:14.035264 18747 net.cpp:141] Setting up inception_4a/5x5_reduce
I0403 15:16:14.035291 18747 net.cpp:148] Top shape: 24 16 14 14 (75264)
I0403 15:16:14.035306 18747 net.cpp:156] Memory required for data: 873364512
I0403 15:16:14.035325 18747 layer_factory.hpp:77] Creating layer inception_4a/relu_5x5_reduce
I0403 15:16:14.035346 18747 net.cpp:91] Creating Layer inception_4a/relu_5x5_reduce
I0403 15:16:14.035362 18747 net.cpp:425] inception_4a/relu_5x5_reduce <- inception_4a/5x5_reduce
I0403 15:16:14.035379 18747 net.cpp:386] inception_4a/relu_5x5_reduce -> inception_4a/5x5_reduce (in-place)
I0403 15:16:14.035558 18747 net.cpp:141] Setting up inception_4a/relu_5x5_reduce
I0403 15:16:14.035584 18747 net.cpp:148] Top shape: 24 16 14 14 (75264)
I0403 15:16:14.035599 18747 net.cpp:156] Memory required for data: 873665568
I0403 15:16:14.035614 18747 layer_factory.hpp:77] Creating layer inception_4a/5x5
I0403 15:16:14.035635 18747 net.cpp:91] Creating Layer inception_4a/5x5
I0403 15:16:14.035655 18747 net.cpp:425] inception_4a/5x5 <- inception_4a/5x5_reduce
I0403 15:16:14.035673 18747 net.cpp:399] inception_4a/5x5 -> inception_4a/5x5
I0403 15:16:14.036759 18747 net.cpp:141] Setting up inception_4a/5x5
I0403 15:16:14.036787 18747 net.cpp:148] Top shape: 24 48 14 14 (225792)
I0403 15:16:14.036803 18747 net.cpp:156] Memory required for data: 874568736
I0403 15:16:14.036821 18747 layer_factory.hpp:77] Creating layer inception_4a/relu_5x5
I0403 15:16:14.036841 18747 net.cpp:91] Creating Layer inception_4a/relu_5x5
I0403 15:16:14.036859 18747 net.cpp:425] inception_4a/relu_5x5 <- inception_4a/5x5
I0403 15:16:14.036875 18747 net.cpp:386] inception_4a/relu_5x5 -> inception_4a/5x5 (in-place)
I0403 15:16:14.037058 18747 net.cpp:141] Setting up inception_4a/relu_5x5
I0403 15:16:14.037088 18747 net.cpp:148] Top shape: 24 48 14 14 (225792)
I0403 15:16:14.037104 18747 net.cpp:156] Memory required for data: 875471904
I0403 15:16:14.037118 18747 layer_factory.hpp:77] Creating layer inception_4a/pool
I0403 15:16:14.037137 18747 net.cpp:91] Creating Layer inception_4a/pool
I0403 15:16:14.037152 18747 net.cpp:425] inception_4a/pool <- pool3/3x3_s2_pool3/3x3_s2_0_split_3
I0403 15:16:14.037171 18747 net.cpp:399] inception_4a/pool -> inception_4a/pool
I0403 15:16:14.037232 18747 net.cpp:141] Setting up inception_4a/pool
I0403 15:16:14.037256 18747 net.cpp:148] Top shape: 24 480 14 14 (2257920)
I0403 15:16:14.037271 18747 net.cpp:156] Memory required for data: 884503584
I0403 15:16:14.037286 18747 layer_factory.hpp:77] Creating layer inception_4a/pool_proj
I0403 15:16:14.037307 18747 net.cpp:91] Creating Layer inception_4a/pool_proj
I0403 15:16:14.037325 18747 net.cpp:425] inception_4a/pool_proj <- inception_4a/pool
I0403 15:16:14.037345 18747 net.cpp:399] inception_4a/pool_proj -> inception_4a/pool_proj
I0403 15:16:14.038511 18747 net.cpp:141] Setting up inception_4a/pool_proj
I0403 15:16:14.038542 18747 net.cpp:148] Top shape: 24 64 14 14 (301056)
I0403 15:16:14.038574 18747 net.cpp:156] Memory required for data: 885707808
I0403 15:16:14.038594 18747 layer_factory.hpp:77] Creating layer inception_4a/relu_pool_proj
I0403 15:16:14.038611 18747 net.cpp:91] Creating Layer inception_4a/relu_pool_proj
I0403 15:16:14.038627 18747 net.cpp:425] inception_4a/relu_pool_proj <- inception_4a/pool_proj
I0403 15:16:14.038645 18747 net.cpp:386] inception_4a/relu_pool_proj -> inception_4a/pool_proj (in-place)
I0403 15:16:14.038928 18747 net.cpp:141] Setting up inception_4a/relu_pool_proj
I0403 15:16:14.038957 18747 net.cpp:148] Top shape: 24 64 14 14 (301056)
I0403 15:16:14.038974 18747 net.cpp:156] Memory required for data: 886912032
I0403 15:16:14.039000 18747 layer_factory.hpp:77] Creating layer inception_4a/output
I0403 15:16:14.039019 18747 net.cpp:91] Creating Layer inception_4a/output
I0403 15:16:14.039036 18747 net.cpp:425] inception_4a/output <- inception_4a/1x1
I0403 15:16:14.039052 18747 net.cpp:425] inception_4a/output <- inception_4a/3x3
I0403 15:16:14.039068 18747 net.cpp:425] inception_4a/output <- inception_4a/5x5
I0403 15:16:14.039084 18747 net.cpp:425] inception_4a/output <- inception_4a/pool_proj
I0403 15:16:14.039100 18747 net.cpp:399] inception_4a/output -> inception_4a/output
I0403 15:16:14.039146 18747 net.cpp:141] Setting up inception_4a/output
I0403 15:16:14.039170 18747 net.cpp:148] Top shape: 24 512 14 14 (2408448)
I0403 15:16:14.039185 18747 net.cpp:156] Memory required for data: 896545824
I0403 15:16:14.039199 18747 layer_factory.hpp:77] Creating layer inception_4a/output_inception_4a/output_0_split
I0403 15:16:14.039218 18747 net.cpp:91] Creating Layer inception_4a/output_inception_4a/output_0_split
I0403 15:16:14.039235 18747 net.cpp:425] inception_4a/output_inception_4a/output_0_split <- inception_4a/output
I0403 15:16:14.039252 18747 net.cpp:399] inception_4a/output_inception_4a/output_0_split -> inception_4a/output_inception_4a/output_0_split_0
I0403 15:16:14.039273 18747 net.cpp:399] inception_4a/output_inception_4a/output_0_split -> inception_4a/output_inception_4a/output_0_split_1
I0403 15:16:14.039293 18747 net.cpp:399] inception_4a/output_inception_4a/output_0_split -> inception_4a/output_inception_4a/output_0_split_2
I0403 15:16:14.039314 18747 net.cpp:399] inception_4a/output_inception_4a/output_0_split -> inception_4a/output_inception_4a/output_0_split_3
I0403 15:16:14.039336 18747 net.cpp:399] inception_4a/output_inception_4a/output_0_split -> inception_4a/output_inception_4a/output_0_split_4
I0403 15:16:14.039432 18747 net.cpp:141] Setting up inception_4a/output_inception_4a/output_0_split
I0403 15:16:14.039455 18747 net.cpp:148] Top shape: 24 512 14 14 (2408448)
I0403 15:16:14.039471 18747 net.cpp:148] Top shape: 24 512 14 14 (2408448)
I0403 15:16:14.039487 18747 net.cpp:148] Top shape: 24 512 14 14 (2408448)
I0403 15:16:14.039502 18747 net.cpp:148] Top shape: 24 512 14 14 (2408448)
I0403 15:16:14.039518 18747 net.cpp:148] Top shape: 24 512 14 14 (2408448)
I0403 15:16:14.039532 18747 net.cpp:156] Memory required for data: 944714784
I0403 15:16:14.039546 18747 layer_factory.hpp:77] Creating layer loss1/ave_pool
I0403 15:16:14.039566 18747 net.cpp:91] Creating Layer loss1/ave_pool
I0403 15:16:14.039582 18747 net.cpp:425] loss1/ave_pool <- inception_4a/output_inception_4a/output_0_split_0
I0403 15:16:14.039599 18747 net.cpp:399] loss1/ave_pool -> loss1/ave_pool
I0403 15:16:14.039803 18747 net.cpp:141] Setting up loss1/ave_pool
I0403 15:16:14.039831 18747 net.cpp:148] Top shape: 24 512 4 4 (196608)
I0403 15:16:14.039847 18747 net.cpp:156] Memory required for data: 945501216
I0403 15:16:14.039862 18747 layer_factory.hpp:77] Creating layer loss1/conv
I0403 15:16:14.039885 18747 net.cpp:91] Creating Layer loss1/conv
I0403 15:16:14.039902 18747 net.cpp:425] loss1/conv <- loss1/ave_pool
I0403 15:16:14.039921 18747 net.cpp:399] loss1/conv -> loss1/conv
I0403 15:16:14.041338 18747 net.cpp:141] Setting up loss1/conv
I0403 15:16:14.041366 18747 net.cpp:148] Top shape: 24 128 4 4 (49152)
I0403 15:16:14.041396 18747 net.cpp:156] Memory required for data: 945697824
I0403 15:16:14.041415 18747 layer_factory.hpp:77] Creating layer loss1/relu_conv
I0403 15:16:14.041434 18747 net.cpp:91] Creating Layer loss1/relu_conv
I0403 15:16:14.041452 18747 net.cpp:425] loss1/relu_conv <- loss1/conv
I0403 15:16:14.041471 18747 net.cpp:386] loss1/relu_conv -> loss1/conv (in-place)
I0403 15:16:14.041759 18747 net.cpp:141] Setting up loss1/relu_conv
I0403 15:16:14.041785 18747 net.cpp:148] Top shape: 24 128 4 4 (49152)
I0403 15:16:14.041801 18747 net.cpp:156] Memory required for data: 945894432
I0403 15:16:14.041816 18747 layer_factory.hpp:77] Creating layer loss1/fc
I0403 15:16:14.041839 18747 net.cpp:91] Creating Layer loss1/fc
I0403 15:16:14.041860 18747 net.cpp:425] loss1/fc <- loss1/conv
I0403 15:16:14.041878 18747 net.cpp:399] loss1/fc -> loss1/fc
I0403 15:16:14.059705 18747 net.cpp:141] Setting up loss1/fc
I0403 15:16:14.059741 18747 net.cpp:148] Top shape: 24 1024 (24576)
I0403 15:16:14.059757 18747 net.cpp:156] Memory required for data: 945992736
I0403 15:16:14.059774 18747 layer_factory.hpp:77] Creating layer loss1/relu_fc
I0403 15:16:14.059797 18747 net.cpp:91] Creating Layer loss1/relu_fc
I0403 15:16:14.059813 18747 net.cpp:425] loss1/relu_fc <- loss1/fc
I0403 15:16:14.059830 18747 net.cpp:386] loss1/relu_fc -> loss1/fc (in-place)
I0403 15:16:14.060026 18747 net.cpp:141] Setting up loss1/relu_fc
I0403 15:16:14.060051 18747 net.cpp:148] Top shape: 24 1024 (24576)
I0403 15:16:14.060066 18747 net.cpp:156] Memory required for data: 946091040
I0403 15:16:14.060081 18747 layer_factory.hpp:77] Creating layer loss1/drop_fc
I0403 15:16:14.060107 18747 net.cpp:91] Creating Layer loss1/drop_fc
I0403 15:16:14.060124 18747 net.cpp:425] loss1/drop_fc <- loss1/fc
I0403 15:16:14.060144 18747 net.cpp:386] loss1/drop_fc -> loss1/fc (in-place)
I0403 15:16:14.060195 18747 net.cpp:141] Setting up loss1/drop_fc
I0403 15:16:14.060220 18747 net.cpp:148] Top shape: 24 1024 (24576)
I0403 15:16:14.060233 18747 net.cpp:156] Memory required for data: 946189344
I0403 15:16:14.060250 18747 layer_factory.hpp:77] Creating layer loss1/classifier_plantvillage
I0403 15:16:14.060271 18747 net.cpp:91] Creating Layer loss1/classifier_plantvillage
I0403 15:16:14.060288 18747 net.cpp:425] loss1/classifier_plantvillage <- loss1/fc
I0403 15:16:14.060309 18747 net.cpp:399] loss1/classifier_plantvillage -> loss1/classifier_plantvillage
I0403 15:16:14.061233 18747 net.cpp:141] Setting up loss1/classifier_plantvillage
I0403 15:16:14.061264 18747 net.cpp:148] Top shape: 24 38 (912)
I0403 15:16:14.061280 18747 net.cpp:156] Memory required for data: 946192992
I0403 15:16:14.061300 18747 layer_factory.hpp:77] Creating layer loss1/classifier_plantvillage_loss1/classifier_plantvillage_0_split
I0403 15:16:14.061317 18747 net.cpp:91] Creating Layer loss1/classifier_plantvillage_loss1/classifier_plantvillage_0_split
I0403 15:16:14.061333 18747 net.cpp:425] loss1/classifier_plantvillage_loss1/classifier_plantvillage_0_split <- loss1/classifier_plantvillage
I0403 15:16:14.061352 18747 net.cpp:399] loss1/classifier_plantvillage_loss1/classifier_plantvillage_0_split -> loss1/classifier_plantvillage_loss1/classifier_plantvillage_0_split_0
I0403 15:16:14.061385 18747 net.cpp:399] loss1/classifier_plantvillage_loss1/classifier_plantvillage_0_split -> loss1/classifier_plantvillage_loss1/classifier_plantvillage_0_split_1
I0403 15:16:14.061404 18747 net.cpp:399] loss1/classifier_plantvillage_loss1/classifier_plantvillage_0_split -> loss1/classifier_plantvillage_loss1/classifier_plantvillage_0_split_2
I0403 15:16:14.061482 18747 net.cpp:141] Setting up loss1/classifier_plantvillage_loss1/classifier_plantvillage_0_split
I0403 15:16:14.061514 18747 net.cpp:148] Top shape: 24 38 (912)
I0403 15:16:14.061532 18747 net.cpp:148] Top shape: 24 38 (912)
I0403 15:16:14.061547 18747 net.cpp:148] Top shape: 24 38 (912)
I0403 15:16:14.061560 18747 net.cpp:156] Memory required for data: 946203936
I0403 15:16:14.061574 18747 layer_factory.hpp:77] Creating layer inception_4b/1x1
I0403 15:16:14.061597 18747 net.cpp:91] Creating Layer inception_4b/1x1
I0403 15:16:14.061632 18747 net.cpp:425] inception_4b/1x1 <- inception_4a/output_inception_4a/output_0_split_1
I0403 15:16:14.061652 18747 net.cpp:399] inception_4b/1x1 -> inception_4b/1x1
I0403 15:16:14.063273 18747 net.cpp:141] Setting up inception_4b/1x1
I0403 15:16:14.063302 18747 net.cpp:148] Top shape: 24 160 14 14 (752640)
I0403 15:16:14.063316 18747 net.cpp:156] Memory required for data: 949214496
I0403 15:16:14.063334 18747 layer_factory.hpp:77] Creating layer inception_4b/relu_1x1
I0403 15:16:14.063354 18747 net.cpp:91] Creating Layer inception_4b/relu_1x1
I0403 15:16:14.063371 18747 net.cpp:425] inception_4b/relu_1x1 <- inception_4b/1x1
I0403 15:16:14.063387 18747 net.cpp:386] inception_4b/relu_1x1 -> inception_4b/1x1 (in-place)
I0403 15:16:14.063560 18747 net.cpp:141] Setting up inception_4b/relu_1x1
I0403 15:16:14.063585 18747 net.cpp:148] Top shape: 24 160 14 14 (752640)
I0403 15:16:14.063599 18747 net.cpp:156] Memory required for data: 952225056
I0403 15:16:14.063614 18747 layer_factory.hpp:77] Creating layer inception_4b/3x3_reduce
I0403 15:16:14.063635 18747 net.cpp:91] Creating Layer inception_4b/3x3_reduce
I0403 15:16:14.063652 18747 net.cpp:425] inception_4b/3x3_reduce <- inception_4a/output_inception_4a/output_0_split_2
I0403 15:16:14.063673 18747 net.cpp:399] inception_4b/3x3_reduce -> inception_4b/3x3_reduce
I0403 15:16:14.064996 18747 net.cpp:141] Setting up inception_4b/3x3_reduce
I0403 15:16:14.065023 18747 net.cpp:148] Top shape: 24 112 14 14 (526848)
I0403 15:16:14.065038 18747 net.cpp:156] Memory required for data: 954332448
I0403 15:16:14.065057 18747 layer_factory.hpp:77] Creating layer inception_4b/relu_3x3_reduce
I0403 15:16:14.065076 18747 net.cpp:91] Creating Layer inception_4b/relu_3x3_reduce
I0403 15:16:14.065093 18747 net.cpp:425] inception_4b/relu_3x3_reduce <- inception_4b/3x3_reduce
I0403 15:16:14.065109 18747 net.cpp:386] inception_4b/relu_3x3_reduce -> inception_4b/3x3_reduce (in-place)
I0403 15:16:14.065383 18747 net.cpp:141] Setting up inception_4b/relu_3x3_reduce
I0403 15:16:14.065408 18747 net.cpp:148] Top shape: 24 112 14 14 (526848)
I0403 15:16:14.065423 18747 net.cpp:156] Memory required for data: 956439840
I0403 15:16:14.065438 18747 layer_factory.hpp:77] Creating layer inception_4b/3x3
I0403 15:16:14.065462 18747 net.cpp:91] Creating Layer inception_4b/3x3
I0403 15:16:14.065480 18747 net.cpp:425] inception_4b/3x3 <- inception_4b/3x3_reduce
I0403 15:16:14.065500 18747 net.cpp:399] inception_4b/3x3 -> inception_4b/3x3
I0403 15:16:14.068402 18747 net.cpp:141] Setting up inception_4b/3x3
I0403 15:16:14.068431 18747 net.cpp:148] Top shape: 24 224 14 14 (1053696)
I0403 15:16:14.068449 18747 net.cpp:156] Memory required for data: 960654624
I0403 15:16:14.068466 18747 layer_factory.hpp:77] Creating layer inception_4b/relu_3x3
I0403 15:16:14.068483 18747 net.cpp:91] Creating Layer inception_4b/relu_3x3
I0403 15:16:14.068498 18747 net.cpp:425] inception_4b/relu_3x3 <- inception_4b/3x3
I0403 15:16:14.068517 18747 net.cpp:386] inception_4b/relu_3x3 -> inception_4b/3x3 (in-place)
I0403 15:16:14.068692 18747 net.cpp:141] Setting up inception_4b/relu_3x3
I0403 15:16:14.068717 18747 net.cpp:148] Top shape: 24 224 14 14 (1053696)
I0403 15:16:14.068732 18747 net.cpp:156] Memory required for data: 964869408
I0403 15:16:14.068747 18747 layer_factory.hpp:77] Creating layer inception_4b/5x5_reduce
I0403 15:16:14.068768 18747 net.cpp:91] Creating Layer inception_4b/5x5_reduce
I0403 15:16:14.068785 18747 net.cpp:425] inception_4b/5x5_reduce <- inception_4a/output_inception_4a/output_0_split_3
I0403 15:16:14.068806 18747 net.cpp:399] inception_4b/5x5_reduce -> inception_4b/5x5_reduce
I0403 15:16:14.069880 18747 net.cpp:141] Setting up inception_4b/5x5_reduce
I0403 15:16:14.069906 18747 net.cpp:148] Top shape: 24 24 14 14 (112896)
I0403 15:16:14.069921 18747 net.cpp:156] Memory required for data: 965320992
I0403 15:16:14.069939 18747 layer_factory.hpp:77] Creating layer inception_4b/relu_5x5_reduce
I0403 15:16:14.069959 18747 net.cpp:91] Creating Layer inception_4b/relu_5x5_reduce
I0403 15:16:14.069993 18747 net.cpp:425] inception_4b/relu_5x5_reduce <- inception_4b/5x5_reduce
I0403 15:16:14.070013 18747 net.cpp:386] inception_4b/relu_5x5_reduce -> inception_4b/5x5_reduce (in-place)
I0403 15:16:14.070195 18747 net.cpp:141] Setting up inception_4b/relu_5x5_reduce
I0403 15:16:14.070221 18747 net.cpp:148] Top shape: 24 24 14 14 (112896)
I0403 15:16:14.070237 18747 net.cpp:156] Memory required for data: 965772576
I0403 15:16:14.070251 18747 layer_factory.hpp:77] Creating layer inception_4b/5x5
I0403 15:16:14.070271 18747 net.cpp:91] Creating Layer inception_4b/5x5
I0403 15:16:14.070286 18747 net.cpp:425] inception_4b/5x5 <- inception_4b/5x5_reduce
I0403 15:16:14.070307 18747 net.cpp:399] inception_4b/5x5 -> inception_4b/5x5
I0403 15:16:14.071511 18747 net.cpp:141] Setting up inception_4b/5x5
I0403 15:16:14.071538 18747 net.cpp:148] Top shape: 24 64 14 14 (301056)
I0403 15:16:14.071554 18747 net.cpp:156] Memory required for data: 966976800
I0403 15:16:14.071571 18747 layer_factory.hpp:77] Creating layer inception_4b/relu_5x5
I0403 15:16:14.071591 18747 net.cpp:91] Creating Layer inception_4b/relu_5x5
I0403 15:16:14.071607 18747 net.cpp:425] inception_4b/relu_5x5 <- inception_4b/5x5
I0403 15:16:14.071624 18747 net.cpp:386] inception_4b/relu_5x5 -> inception_4b/5x5 (in-place)
I0403 15:16:14.071902 18747 net.cpp:141] Setting up inception_4b/relu_5x5
I0403 15:16:14.071926 18747 net.cpp:148] Top shape: 24 64 14 14 (301056)
I0403 15:16:14.071941 18747 net.cpp:156] Memory required for data: 968181024
I0403 15:16:14.071955 18747 layer_factory.hpp:77] Creating layer inception_4b/pool
I0403 15:16:14.071974 18747 net.cpp:91] Creating Layer inception_4b/pool
I0403 15:16:14.071993 18747 net.cpp:425] inception_4b/pool <- inception_4a/output_inception_4a/output_0_split_4
I0403 15:16:14.072015 18747 net.cpp:399] inception_4b/pool -> inception_4b/pool
I0403 15:16:14.072077 18747 net.cpp:141] Setting up inception_4b/pool
I0403 15:16:14.072103 18747 net.cpp:148] Top shape: 24 512 14 14 (2408448)
I0403 15:16:14.072123 18747 net.cpp:156] Memory required for data: 977814816
I0403 15:16:14.072136 18747 layer_factory.hpp:77] Creating layer inception_4b/pool_proj
I0403 15:16:14.072159 18747 net.cpp:91] Creating Layer inception_4b/pool_proj
I0403 15:16:14.072175 18747 net.cpp:425] inception_4b/pool_proj <- inception_4b/pool
I0403 15:16:14.072193 18747 net.cpp:399] inception_4b/pool_proj -> inception_4b/pool_proj
I0403 15:16:14.073364 18747 net.cpp:141] Setting up inception_4b/pool_proj
I0403 15:16:14.073391 18747 net.cpp:148] Top shape: 24 64 14 14 (301056)
I0403 15:16:14.073407 18747 net.cpp:156] Memory required for data: 979019040
I0403 15:16:14.073426 18747 layer_factory.hpp:77] Creating layer inception_4b/relu_pool_proj
I0403 15:16:14.073446 18747 net.cpp:91] Creating Layer inception_4b/relu_pool_proj
I0403 15:16:14.073463 18747 net.cpp:425] inception_4b/relu_pool_proj <- inception_4b/pool_proj
I0403 15:16:14.073480 18747 net.cpp:386] inception_4b/relu_pool_proj -> inception_4b/pool_proj (in-place)
I0403 15:16:14.073657 18747 net.cpp:141] Setting up inception_4b/relu_pool_proj
I0403 15:16:14.073681 18747 net.cpp:148] Top shape: 24 64 14 14 (301056)
I0403 15:16:14.073695 18747 net.cpp:156] Memory required for data: 980223264
I0403 15:16:14.073709 18747 layer_factory.hpp:77] Creating layer inception_4b/output
I0403 15:16:14.073729 18747 net.cpp:91] Creating Layer inception_4b/output
I0403 15:16:14.073745 18747 net.cpp:425] inception_4b/output <- inception_4b/1x1
I0403 15:16:14.073761 18747 net.cpp:425] inception_4b/output <- inception_4b/3x3
I0403 15:16:14.073776 18747 net.cpp:425] inception_4b/output <- inception_4b/5x5
I0403 15:16:14.073791 18747 net.cpp:425] inception_4b/output <- inception_4b/pool_proj
I0403 15:16:14.073807 18747 net.cpp:399] inception_4b/output -> inception_4b/output
I0403 15:16:14.073854 18747 net.cpp:141] Setting up inception_4b/output
I0403 15:16:14.073878 18747 net.cpp:148] Top shape: 24 512 14 14 (2408448)
I0403 15:16:14.073891 18747 net.cpp:156] Memory required for data: 989857056
I0403 15:16:14.073920 18747 layer_factory.hpp:77] Creating layer inception_4b/output_inception_4b/output_0_split
I0403 15:16:14.073936 18747 net.cpp:91] Creating Layer inception_4b/output_inception_4b/output_0_split
I0403 15:16:14.073951 18747 net.cpp:425] inception_4b/output_inception_4b/output_0_split <- inception_4b/output
I0403 15:16:14.073971 18747 net.cpp:399] inception_4b/output_inception_4b/output_0_split -> inception_4b/output_inception_4b/output_0_split_0
I0403 15:16:14.073994 18747 net.cpp:399] inception_4b/output_inception_4b/output_0_split -> inception_4b/output_inception_4b/output_0_split_1
I0403 15:16:14.074017 18747 net.cpp:399] inception_4b/output_inception_4b/output_0_split -> inception_4b/output_inception_4b/output_0_split_2
I0403 15:16:14.074038 18747 net.cpp:399] inception_4b/output_inception_4b/output_0_split -> inception_4b/output_inception_4b/output_0_split_3
I0403 15:16:14.074120 18747 net.cpp:141] Setting up inception_4b/output_inception_4b/output_0_split
I0403 15:16:14.074146 18747 net.cpp:148] Top shape: 24 512 14 14 (2408448)
I0403 15:16:14.074162 18747 net.cpp:148] Top shape: 24 512 14 14 (2408448)
I0403 15:16:14.074178 18747 net.cpp:148] Top shape: 24 512 14 14 (2408448)
I0403 15:16:14.074193 18747 net.cpp:148] Top shape: 24 512 14 14 (2408448)
I0403 15:16:14.074206 18747 net.cpp:156] Memory required for data: 1028392224
I0403 15:16:14.074221 18747 layer_factory.hpp:77] Creating layer inception_4c/1x1
I0403 15:16:14.074242 18747 net.cpp:91] Creating Layer inception_4c/1x1
I0403 15:16:14.074259 18747 net.cpp:425] inception_4c/1x1 <- inception_4b/output_inception_4b/output_0_split_0
I0403 15:16:14.074280 18747 net.cpp:399] inception_4c/1x1 -> inception_4c/1x1
I0403 15:16:14.075672 18747 net.cpp:141] Setting up inception_4c/1x1
I0403 15:16:14.075700 18747 net.cpp:148] Top shape: 24 128 14 14 (602112)
I0403 15:16:14.075716 18747 net.cpp:156] Memory required for data: 1030800672
I0403 15:16:14.075733 18747 layer_factory.hpp:77] Creating layer inception_4c/relu_1x1
I0403 15:16:14.075754 18747 net.cpp:91] Creating Layer inception_4c/relu_1x1
I0403 15:16:14.075772 18747 net.cpp:425] inception_4c/relu_1x1 <- inception_4c/1x1
I0403 15:16:14.075788 18747 net.cpp:386] inception_4c/relu_1x1 -> inception_4c/1x1 (in-place)
I0403 15:16:14.075965 18747 net.cpp:141] Setting up inception_4c/relu_1x1
I0403 15:16:14.075994 18747 net.cpp:148] Top shape: 24 128 14 14 (602112)
I0403 15:16:14.076010 18747 net.cpp:156] Memory required for data: 1033209120
I0403 15:16:14.076026 18747 layer_factory.hpp:77] Creating layer inception_4c/3x3_reduce
I0403 15:16:14.076050 18747 net.cpp:91] Creating Layer inception_4c/3x3_reduce
I0403 15:16:14.076068 18747 net.cpp:425] inception_4c/3x3_reduce <- inception_4b/output_inception_4b/output_0_split_1
I0403 15:16:14.076088 18747 net.cpp:399] inception_4c/3x3_reduce -> inception_4c/3x3_reduce
I0403 15:16:14.077988 18747 net.cpp:141] Setting up inception_4c/3x3_reduce
I0403 15:16:14.078016 18747 net.cpp:148] Top shape: 24 128 14 14 (602112)
I0403 15:16:14.078033 18747 net.cpp:156] Memory required for data: 1035617568
I0403 15:16:14.078052 18747 layer_factory.hpp:77] Creating layer inception_4c/relu_3x3_reduce
I0403 15:16:14.078069 18747 net.cpp:91] Creating Layer inception_4c/relu_3x3_reduce
I0403 15:16:14.078085 18747 net.cpp:425] inception_4c/relu_3x3_reduce <- inception_4c/3x3_reduce
I0403 15:16:14.078104 18747 net.cpp:386] inception_4c/relu_3x3_reduce -> inception_4c/3x3_reduce (in-place)
I0403 15:16:14.078382 18747 net.cpp:141] Setting up inception_4c/relu_3x3_reduce
I0403 15:16:14.078408 18747 net.cpp:148] Top shape: 24 128 14 14 (602112)
I0403 15:16:14.078423 18747 net.cpp:156] Memory required for data: 1038026016
I0403 15:16:14.078438 18747 layer_factory.hpp:77] Creating layer inception_4c/3x3
I0403 15:16:14.078460 18747 net.cpp:91] Creating Layer inception_4c/3x3
I0403 15:16:14.078477 18747 net.cpp:425] inception_4c/3x3 <- inception_4c/3x3_reduce
I0403 15:16:14.078498 18747 net.cpp:399] inception_4c/3x3 -> inception_4c/3x3
I0403 15:16:14.082017 18747 net.cpp:141] Setting up inception_4c/3x3
I0403 15:16:14.082058 18747 net.cpp:148] Top shape: 24 256 14 14 (1204224)
I0403 15:16:14.082074 18747 net.cpp:156] Memory required for data: 1042842912
I0403 15:16:14.082105 18747 layer_factory.hpp:77] Creating layer inception_4c/relu_3x3
I0403 15:16:14.082128 18747 net.cpp:91] Creating Layer inception_4c/relu_3x3
I0403 15:16:14.082144 18747 net.cpp:425] inception_4c/relu_3x3 <- inception_4c/3x3
I0403 15:16:14.082160 18747 net.cpp:386] inception_4c/relu_3x3 -> inception_4c/3x3 (in-place)
I0403 15:16:14.082336 18747 net.cpp:141] Setting up inception_4c/relu_3x3
I0403 15:16:14.082361 18747 net.cpp:148] Top shape: 24 256 14 14 (1204224)
I0403 15:16:14.082376 18747 net.cpp:156] Memory required for data: 1047659808
I0403 15:16:14.082391 18747 layer_factory.hpp:77] Creating layer inception_4c/5x5_reduce
I0403 15:16:14.082412 18747 net.cpp:91] Creating Layer inception_4c/5x5_reduce
I0403 15:16:14.082429 18747 net.cpp:425] inception_4c/5x5_reduce <- inception_4b/output_inception_4b/output_0_split_2
I0403 15:16:14.082450 18747 net.cpp:399] inception_4c/5x5_reduce -> inception_4c/5x5_reduce
I0403 15:16:14.083705 18747 net.cpp:141] Setting up inception_4c/5x5_reduce
I0403 15:16:14.083741 18747 net.cpp:148] Top shape: 24 24 14 14 (112896)
I0403 15:16:14.083758 18747 net.cpp:156] Memory required for data: 1048111392
I0403 15:16:14.083777 18747 layer_factory.hpp:77] Creating layer inception_4c/relu_5x5_reduce
I0403 15:16:14.083799 18747 net.cpp:91] Creating Layer inception_4c/relu_5x5_reduce
I0403 15:16:14.083817 18747 net.cpp:425] inception_4c/relu_5x5_reduce <- inception_4c/5x5_reduce
I0403 15:16:14.083834 18747 net.cpp:386] inception_4c/relu_5x5_reduce -> inception_4c/5x5_reduce (in-place)
I0403 15:16:14.084033 18747 net.cpp:141] Setting up inception_4c/relu_5x5_reduce
I0403 15:16:14.084059 18747 net.cpp:148] Top shape: 24 24 14 14 (112896)
I0403 15:16:14.084077 18747 net.cpp:156] Memory required for data: 1048562976
I0403 15:16:14.084094 18747 layer_factory.hpp:77] Creating layer inception_4c/5x5
I0403 15:16:14.084113 18747 net.cpp:91] Creating Layer inception_4c/5x5
I0403 15:16:14.084131 18747 net.cpp:425] inception_4c/5x5 <- inception_4c/5x5_reduce
I0403 15:16:14.084151 18747 net.cpp:399] inception_4c/5x5 -> inception_4c/5x5
I0403 15:16:14.085422 18747 net.cpp:141] Setting up inception_4c/5x5
I0403 15:16:14.085449 18747 net.cpp:148] Top shape: 24 64 14 14 (301056)
I0403 15:16:14.085465 18747 net.cpp:156] Memory required for data: 1049767200
I0403 15:16:14.085484 18747 layer_factory.hpp:77] Creating layer inception_4c/relu_5x5
I0403 15:16:14.085503 18747 net.cpp:91] Creating Layer inception_4c/relu_5x5
I0403 15:16:14.085521 18747 net.cpp:425] inception_4c/relu_5x5 <- inception_4c/5x5
I0403 15:16:14.085538 18747 net.cpp:386] inception_4c/relu_5x5 -> inception_4c/5x5 (in-place)
I0403 15:16:14.085827 18747 net.cpp:141] Setting up inception_4c/relu_5x5
I0403 15:16:14.085855 18747 net.cpp:148] Top shape: 24 64 14 14 (301056)
I0403 15:16:14.085870 18747 net.cpp:156] Memory required for data: 1050971424
I0403 15:16:14.085886 18747 layer_factory.hpp:77] Creating layer inception_4c/pool
I0403 15:16:14.085904 18747 net.cpp:91] Creating Layer inception_4c/pool
I0403 15:16:14.085922 18747 net.cpp:425] inception_4c/pool <- inception_4b/output_inception_4b/output_0_split_3
I0403 15:16:14.085939 18747 net.cpp:399] inception_4c/pool -> inception_4c/pool
I0403 15:16:14.086016 18747 net.cpp:141] Setting up inception_4c/pool
I0403 15:16:14.086041 18747 net.cpp:148] Top shape: 24 512 14 14 (2408448)
I0403 15:16:14.086056 18747 net.cpp:156] Memory required for data: 1060605216
I0403 15:16:14.086071 18747 layer_factory.hpp:77] Creating layer inception_4c/pool_proj
I0403 15:16:14.086092 18747 net.cpp:91] Creating Layer inception_4c/pool_proj
I0403 15:16:14.086110 18747 net.cpp:425] inception_4c/pool_proj <- inception_4c/pool
I0403 15:16:14.086130 18747 net.cpp:399] inception_4c/pool_proj -> inception_4c/pool_proj
I0403 15:16:14.087375 18747 net.cpp:141] Setting up inception_4c/pool_proj
I0403 15:16:14.087404 18747 net.cpp:148] Top shape: 24 64 14 14 (301056)
I0403 15:16:14.087436 18747 net.cpp:156] Memory required for data: 1061809440
I0403 15:16:14.087456 18747 layer_factory.hpp:77] Creating layer inception_4c/relu_pool_proj
I0403 15:16:14.087476 18747 net.cpp:91] Creating Layer inception_4c/relu_pool_proj
I0403 15:16:14.087493 18747 net.cpp:425] inception_4c/relu_pool_proj <- inception_4c/pool_proj
I0403 15:16:14.087512 18747 net.cpp:386] inception_4c/relu_pool_proj -> inception_4c/pool_proj (in-place)
I0403 15:16:14.087694 18747 net.cpp:141] Setting up inception_4c/relu_pool_proj
I0403 15:16:14.087719 18747 net.cpp:148] Top shape: 24 64 14 14 (301056)
I0403 15:16:14.087734 18747 net.cpp:156] Memory required for data: 1063013664
I0403 15:16:14.087749 18747 layer_factory.hpp:77] Creating layer inception_4c/output
I0403 15:16:14.087769 18747 net.cpp:91] Creating Layer inception_4c/output
I0403 15:16:14.087785 18747 net.cpp:425] inception_4c/output <- inception_4c/1x1
I0403 15:16:14.087801 18747 net.cpp:425] inception_4c/output <- inception_4c/3x3
I0403 15:16:14.087817 18747 net.cpp:425] inception_4c/output <- inception_4c/5x5
I0403 15:16:14.087833 18747 net.cpp:425] inception_4c/output <- inception_4c/pool_proj
I0403 15:16:14.087849 18747 net.cpp:399] inception_4c/output -> inception_4c/output
I0403 15:16:14.087899 18747 net.cpp:141] Setting up inception_4c/output
I0403 15:16:14.087924 18747 net.cpp:148] Top shape: 24 512 14 14 (2408448)
I0403 15:16:14.087937 18747 net.cpp:156] Memory required for data: 1072647456
I0403 15:16:14.087952 18747 layer_factory.hpp:77] Creating layer inception_4c/output_inception_4c/output_0_split
I0403 15:16:14.087975 18747 net.cpp:91] Creating Layer inception_4c/output_inception_4c/output_0_split
I0403 15:16:14.087990 18747 net.cpp:425] inception_4c/output_inception_4c/output_0_split <- inception_4c/output
I0403 15:16:14.088011 18747 net.cpp:399] inception_4c/output_inception_4c/output_0_split -> inception_4c/output_inception_4c/output_0_split_0
I0403 15:16:14.088033 18747 net.cpp:399] inception_4c/output_inception_4c/output_0_split -> inception_4c/output_inception_4c/output_0_split_1
I0403 15:16:14.088053 18747 net.cpp:399] inception_4c/output_inception_4c/output_0_split -> inception_4c/output_inception_4c/output_0_split_2
I0403 15:16:14.088073 18747 net.cpp:399] inception_4c/output_inception_4c/output_0_split -> inception_4c/output_inception_4c/output_0_split_3
I0403 15:16:14.088161 18747 net.cpp:141] Setting up inception_4c/output_inception_4c/output_0_split
I0403 15:16:14.088187 18747 net.cpp:148] Top shape: 24 512 14 14 (2408448)
I0403 15:16:14.088204 18747 net.cpp:148] Top shape: 24 512 14 14 (2408448)
I0403 15:16:14.088220 18747 net.cpp:148] Top shape: 24 512 14 14 (2408448)
I0403 15:16:14.088237 18747 net.cpp:148] Top shape: 24 512 14 14 (2408448)
I0403 15:16:14.088250 18747 net.cpp:156] Memory required for data: 1111182624
I0403 15:16:14.088264 18747 layer_factory.hpp:77] Creating layer inception_4d/1x1
I0403 15:16:14.088286 18747 net.cpp:91] Creating Layer inception_4d/1x1
I0403 15:16:14.088304 18747 net.cpp:425] inception_4d/1x1 <- inception_4c/output_inception_4c/output_0_split_0
I0403 15:16:14.088321 18747 net.cpp:399] inception_4d/1x1 -> inception_4d/1x1
I0403 15:16:14.089723 18747 net.cpp:141] Setting up inception_4d/1x1
I0403 15:16:14.089754 18747 net.cpp:148] Top shape: 24 112 14 14 (526848)
I0403 15:16:14.089771 18747 net.cpp:156] Memory required for data: 1113290016
I0403 15:16:14.089788 18747 layer_factory.hpp:77] Creating layer inception_4d/relu_1x1
I0403 15:16:14.089807 18747 net.cpp:91] Creating Layer inception_4d/relu_1x1
I0403 15:16:14.089823 18747 net.cpp:425] inception_4d/relu_1x1 <- inception_4d/1x1
I0403 15:16:14.089843 18747 net.cpp:386] inception_4d/relu_1x1 -> inception_4d/1x1 (in-place)
I0403 15:16:14.090034 18747 net.cpp:141] Setting up inception_4d/relu_1x1
I0403 15:16:14.090059 18747 net.cpp:148] Top shape: 24 112 14 14 (526848)
I0403 15:16:14.090075 18747 net.cpp:156] Memory required for data: 1115397408
I0403 15:16:14.090090 18747 layer_factory.hpp:77] Creating layer inception_4d/3x3_reduce
I0403 15:16:14.090126 18747 net.cpp:91] Creating Layer inception_4d/3x3_reduce
I0403 15:16:14.090145 18747 net.cpp:425] inception_4d/3x3_reduce <- inception_4c/output_inception_4c/output_0_split_1
I0403 15:16:14.090167 18747 net.cpp:399] inception_4d/3x3_reduce -> inception_4d/3x3_reduce
I0403 15:16:14.091682 18747 net.cpp:141] Setting up inception_4d/3x3_reduce
I0403 15:16:14.091712 18747 net.cpp:148] Top shape: 24 144 14 14 (677376)
I0403 15:16:14.091728 18747 net.cpp:156] Memory required for data: 1118106912
I0403 15:16:14.091747 18747 layer_factory.hpp:77] Creating layer inception_4d/relu_3x3_reduce
I0403 15:16:14.091765 18747 net.cpp:91] Creating Layer inception_4d/relu_3x3_reduce
I0403 15:16:14.091781 18747 net.cpp:425] inception_4d/relu_3x3_reduce <- inception_4d/3x3_reduce
I0403 15:16:14.091799 18747 net.cpp:386] inception_4d/relu_3x3_reduce -> inception_4d/3x3_reduce (in-place)
I0403 15:16:14.092089 18747 net.cpp:141] Setting up inception_4d/relu_3x3_reduce
I0403 15:16:14.092118 18747 net.cpp:148] Top shape: 24 144 14 14 (677376)
I0403 15:16:14.092136 18747 net.cpp:156] Memory required for data: 1120816416
I0403 15:16:14.092151 18747 layer_factory.hpp:77] Creating layer inception_4d/3x3
I0403 15:16:14.092175 18747 net.cpp:91] Creating Layer inception_4d/3x3
I0403 15:16:14.092192 18747 net.cpp:425] inception_4d/3x3 <- inception_4d/3x3_reduce
I0403 15:16:14.092211 18747 net.cpp:399] inception_4d/3x3 -> inception_4d/3x3
I0403 15:16:14.096493 18747 net.cpp:141] Setting up inception_4d/3x3
I0403 15:16:14.096523 18747 net.cpp:148] Top shape: 24 288 14 14 (1354752)
I0403 15:16:14.096539 18747 net.cpp:156] Memory required for data: 1126235424
I0403 15:16:14.096557 18747 layer_factory.hpp:77] Creating layer inception_4d/relu_3x3
I0403 15:16:14.096575 18747 net.cpp:91] Creating Layer inception_4d/relu_3x3
I0403 15:16:14.096591 18747 net.cpp:425] inception_4d/relu_3x3 <- inception_4d/3x3
I0403 15:16:14.096611 18747 net.cpp:386] inception_4d/relu_3x3 -> inception_4d/3x3 (in-place)
I0403 15:16:14.096794 18747 net.cpp:141] Setting up inception_4d/relu_3x3
I0403 15:16:14.096820 18747 net.cpp:148] Top shape: 24 288 14 14 (1354752)
I0403 15:16:14.096835 18747 net.cpp:156] Memory required for data: 1131654432
I0403 15:16:14.096850 18747 layer_factory.hpp:77] Creating layer inception_4d/5x5_reduce
I0403 15:16:14.096873 18747 net.cpp:91] Creating Layer inception_4d/5x5_reduce
I0403 15:16:14.096890 18747 net.cpp:425] inception_4d/5x5_reduce <- inception_4c/output_inception_4c/output_0_split_2
I0403 15:16:14.096911 18747 net.cpp:399] inception_4d/5x5_reduce -> inception_4d/5x5_reduce
I0403 15:16:14.098078 18747 net.cpp:141] Setting up inception_4d/5x5_reduce
I0403 15:16:14.098107 18747 net.cpp:148] Top shape: 24 32 14 14 (150528)
I0403 15:16:14.098124 18747 net.cpp:156] Memory required for data: 1132256544
I0403 15:16:14.098142 18747 layer_factory.hpp:77] Creating layer inception_4d/relu_5x5_reduce
I0403 15:16:14.098160 18747 net.cpp:91] Creating Layer inception_4d/relu_5x5_reduce
I0403 15:16:14.098177 18747 net.cpp:425] inception_4d/relu_5x5_reduce <- inception_4d/5x5_reduce
I0403 15:16:14.098196 18747 net.cpp:386] inception_4d/relu_5x5_reduce -> inception_4d/5x5_reduce (in-place)
I0403 15:16:14.098390 18747 net.cpp:141] Setting up inception_4d/relu_5x5_reduce
I0403 15:16:14.098415 18747 net.cpp:148] Top shape: 24 32 14 14 (150528)
I0403 15:16:14.098430 18747 net.cpp:156] Memory required for data: 1132858656
I0403 15:16:14.098445 18747 layer_factory.hpp:77] Creating layer inception_4d/5x5
I0403 15:16:14.098467 18747 net.cpp:91] Creating Layer inception_4d/5x5
I0403 15:16:14.098486 18747 net.cpp:425] inception_4d/5x5 <- inception_4d/5x5_reduce
I0403 15:16:14.098506 18747 net.cpp:399] inception_4d/5x5 -> inception_4d/5x5
I0403 15:16:14.099997 18747 net.cpp:141] Setting up inception_4d/5x5
I0403 15:16:14.100026 18747 net.cpp:148] Top shape: 24 64 14 14 (301056)
I0403 15:16:14.100042 18747 net.cpp:156] Memory required for data: 1134062880
I0403 15:16:14.100062 18747 layer_factory.hpp:77] Creating layer inception_4d/relu_5x5
I0403 15:16:14.100097 18747 net.cpp:91] Creating Layer inception_4d/relu_5x5
I0403 15:16:14.100116 18747 net.cpp:425] inception_4d/relu_5x5 <- inception_4d/5x5
I0403 15:16:14.100133 18747 net.cpp:386] inception_4d/relu_5x5 -> inception_4d/5x5 (in-place)
I0403 15:16:14.100433 18747 net.cpp:141] Setting up inception_4d/relu_5x5
I0403 15:16:14.100461 18747 net.cpp:148] Top shape: 24 64 14 14 (301056)
I0403 15:16:14.100476 18747 net.cpp:156] Memory required for data: 1135267104
I0403 15:16:14.100492 18747 layer_factory.hpp:77] Creating layer inception_4d/pool
I0403 15:16:14.100510 18747 net.cpp:91] Creating Layer inception_4d/pool
I0403 15:16:14.100528 18747 net.cpp:425] inception_4d/pool <- inception_4c/output_inception_4c/output_0_split_3
I0403 15:16:14.100545 18747 net.cpp:399] inception_4d/pool -> inception_4d/pool
I0403 15:16:14.100613 18747 net.cpp:141] Setting up inception_4d/pool
I0403 15:16:14.100638 18747 net.cpp:148] Top shape: 24 512 14 14 (2408448)
I0403 15:16:14.100653 18747 net.cpp:156] Memory required for data: 1144900896
I0403 15:16:14.100668 18747 layer_factory.hpp:77] Creating layer inception_4d/pool_proj
I0403 15:16:14.100690 18747 net.cpp:91] Creating Layer inception_4d/pool_proj
I0403 15:16:14.100708 18747 net.cpp:425] inception_4d/pool_proj <- inception_4d/pool
I0403 15:16:14.100728 18747 net.cpp:399] inception_4d/pool_proj -> inception_4d/pool_proj
I0403 15:16:14.102524 18747 net.cpp:141] Setting up inception_4d/pool_proj
I0403 15:16:14.102552 18747 net.cpp:148] Top shape: 24 64 14 14 (301056)
I0403 15:16:14.102569 18747 net.cpp:156] Memory required for data: 1146105120
I0403 15:16:14.102588 18747 layer_factory.hpp:77] Creating layer inception_4d/relu_pool_proj
I0403 15:16:14.102607 18747 net.cpp:91] Creating Layer inception_4d/relu_pool_proj
I0403 15:16:14.102622 18747 net.cpp:425] inception_4d/relu_pool_proj <- inception_4d/pool_proj
I0403 15:16:14.102641 18747 net.cpp:386] inception_4d/relu_pool_proj -> inception_4d/pool_proj (in-place)
I0403 15:16:14.102828 18747 net.cpp:141] Setting up inception_4d/relu_pool_proj
I0403 15:16:14.102854 18747 net.cpp:148] Top shape: 24 64 14 14 (301056)
I0403 15:16:14.102869 18747 net.cpp:156] Memory required for data: 1147309344
I0403 15:16:14.102883 18747 layer_factory.hpp:77] Creating layer inception_4d/output
I0403 15:16:14.102903 18747 net.cpp:91] Creating Layer inception_4d/output
I0403 15:16:14.102919 18747 net.cpp:425] inception_4d/output <- inception_4d/1x1
I0403 15:16:14.102936 18747 net.cpp:425] inception_4d/output <- inception_4d/3x3
I0403 15:16:14.102952 18747 net.cpp:425] inception_4d/output <- inception_4d/5x5
I0403 15:16:14.102973 18747 net.cpp:425] inception_4d/output <- inception_4d/pool_proj
I0403 15:16:14.102990 18747 net.cpp:399] inception_4d/output -> inception_4d/output
I0403 15:16:14.103036 18747 net.cpp:141] Setting up inception_4d/output
I0403 15:16:14.103063 18747 net.cpp:148] Top shape: 24 528 14 14 (2483712)
I0403 15:16:14.103080 18747 net.cpp:156] Memory required for data: 1157244192
I0403 15:16:14.103093 18747 layer_factory.hpp:77] Creating layer inception_4d/output_inception_4d/output_0_split
I0403 15:16:14.103111 18747 net.cpp:91] Creating Layer inception_4d/output_inception_4d/output_0_split
I0403 15:16:14.103127 18747 net.cpp:425] inception_4d/output_inception_4d/output_0_split <- inception_4d/output
I0403 15:16:14.103147 18747 net.cpp:399] inception_4d/output_inception_4d/output_0_split -> inception_4d/output_inception_4d/output_0_split_0
I0403 15:16:14.103168 18747 net.cpp:399] inception_4d/output_inception_4d/output_0_split -> inception_4d/output_inception_4d/output_0_split_1
I0403 15:16:14.103188 18747 net.cpp:399] inception_4d/output_inception_4d/output_0_split -> inception_4d/output_inception_4d/output_0_split_2
I0403 15:16:14.103209 18747 net.cpp:399] inception_4d/output_inception_4d/output_0_split -> inception_4d/output_inception_4d/output_0_split_3
I0403 15:16:14.103229 18747 net.cpp:399] inception_4d/output_inception_4d/output_0_split -> inception_4d/output_inception_4d/output_0_split_4
I0403 15:16:14.103332 18747 net.cpp:141] Setting up inception_4d/output_inception_4d/output_0_split
I0403 15:16:14.103366 18747 net.cpp:148] Top shape: 24 528 14 14 (2483712)
I0403 15:16:14.103386 18747 net.cpp:148] Top shape: 24 528 14 14 (2483712)
I0403 15:16:14.103404 18747 net.cpp:148] Top shape: 24 528 14 14 (2483712)
I0403 15:16:14.103420 18747 net.cpp:148] Top shape: 24 528 14 14 (2483712)
I0403 15:16:14.103435 18747 net.cpp:148] Top shape: 24 528 14 14 (2483712)
I0403 15:16:14.103448 18747 net.cpp:156] Memory required for data: 1206918432
I0403 15:16:14.103462 18747 layer_factory.hpp:77] Creating layer loss2/ave_pool
I0403 15:16:14.103480 18747 net.cpp:91] Creating Layer loss2/ave_pool
I0403 15:16:14.103495 18747 net.cpp:425] loss2/ave_pool <- inception_4d/output_inception_4d/output_0_split_0
I0403 15:16:14.103516 18747 net.cpp:399] loss2/ave_pool -> loss2/ave_pool
I0403 15:16:14.103837 18747 net.cpp:141] Setting up loss2/ave_pool
I0403 15:16:14.103863 18747 net.cpp:148] Top shape: 24 528 4 4 (202752)
I0403 15:16:14.103878 18747 net.cpp:156] Memory required for data: 1207729440
I0403 15:16:14.103893 18747 layer_factory.hpp:77] Creating layer loss2/conv
I0403 15:16:14.103914 18747 net.cpp:91] Creating Layer loss2/conv
I0403 15:16:14.103934 18747 net.cpp:425] loss2/conv <- loss2/ave_pool
I0403 15:16:14.103957 18747 net.cpp:399] loss2/conv -> loss2/conv
I0403 15:16:14.105870 18747 net.cpp:141] Setting up loss2/conv
I0403 15:16:14.105898 18747 net.cpp:148] Top shape: 24 128 4 4 (49152)
I0403 15:16:14.105914 18747 net.cpp:156] Memory required for data: 1207926048
I0403 15:16:14.105932 18747 layer_factory.hpp:77] Creating layer loss2/relu_conv
I0403 15:16:14.105952 18747 net.cpp:91] Creating Layer loss2/relu_conv
I0403 15:16:14.105974 18747 net.cpp:425] loss2/relu_conv <- loss2/conv
I0403 15:16:14.105993 18747 net.cpp:386] loss2/relu_conv -> loss2/conv (in-place)
I0403 15:16:14.106278 18747 net.cpp:141] Setting up loss2/relu_conv
I0403 15:16:14.106305 18747 net.cpp:148] Top shape: 24 128 4 4 (49152)
I0403 15:16:14.106322 18747 net.cpp:156] Memory required for data: 1208122656
I0403 15:16:14.106336 18747 layer_factory.hpp:77] Creating layer loss2/fc
I0403 15:16:14.106358 18747 net.cpp:91] Creating Layer loss2/fc
I0403 15:16:14.106374 18747 net.cpp:425] loss2/fc <- loss2/conv
I0403 15:16:14.106394 18747 net.cpp:399] loss2/fc -> loss2/fc
I0403 15:16:14.124157 18747 net.cpp:141] Setting up loss2/fc
I0403 15:16:14.124191 18747 net.cpp:148] Top shape: 24 1024 (24576)
I0403 15:16:14.124207 18747 net.cpp:156] Memory required for data: 1208220960
I0403 15:16:14.124224 18747 layer_factory.hpp:77] Creating layer loss2/relu_fc
I0403 15:16:14.124243 18747 net.cpp:91] Creating Layer loss2/relu_fc
I0403 15:16:14.124259 18747 net.cpp:425] loss2/relu_fc <- loss2/fc
I0403 15:16:14.124279 18747 net.cpp:386] loss2/relu_fc -> loss2/fc (in-place)
I0403 15:16:14.124585 18747 net.cpp:141] Setting up loss2/relu_fc
I0403 15:16:14.124613 18747 net.cpp:148] Top shape: 24 1024 (24576)
I0403 15:16:14.124629 18747 net.cpp:156] Memory required for data: 1208319264
I0403 15:16:14.124644 18747 layer_factory.hpp:77] Creating layer loss2/drop_fc
I0403 15:16:14.124661 18747 net.cpp:91] Creating Layer loss2/drop_fc
I0403 15:16:14.124677 18747 net.cpp:425] loss2/drop_fc <- loss2/fc
I0403 15:16:14.124696 18747 net.cpp:386] loss2/drop_fc -> loss2/fc (in-place)
I0403 15:16:14.124747 18747 net.cpp:141] Setting up loss2/drop_fc
I0403 15:16:14.124773 18747 net.cpp:148] Top shape: 24 1024 (24576)
I0403 15:16:14.124788 18747 net.cpp:156] Memory required for data: 1208417568
I0403 15:16:14.124802 18747 layer_factory.hpp:77] Creating layer loss2/classifier_plantvillage
I0403 15:16:14.124820 18747 net.cpp:91] Creating Layer loss2/classifier_plantvillage
I0403 15:16:14.124835 18747 net.cpp:425] loss2/classifier_plantvillage <- loss2/fc
I0403 15:16:14.124855 18747 net.cpp:399] loss2/classifier_plantvillage -> loss2/classifier_plantvillage
I0403 15:16:14.125267 18747 net.cpp:141] Setting up loss2/classifier_plantvillage
I0403 15:16:14.125294 18747 net.cpp:148] Top shape: 24 38 (912)
I0403 15:16:14.125327 18747 net.cpp:156] Memory required for data: 1208421216
I0403 15:16:14.125347 18747 layer_factory.hpp:77] Creating layer loss2/classifier_plantvillage_loss2/classifier_plantvillage_0_split
I0403 15:16:14.125365 18747 net.cpp:91] Creating Layer loss2/classifier_plantvillage_loss2/classifier_plantvillage_0_split
I0403 15:16:14.125381 18747 net.cpp:425] loss2/classifier_plantvillage_loss2/classifier_plantvillage_0_split <- loss2/classifier_plantvillage
I0403 15:16:14.125398 18747 net.cpp:399] loss2/classifier_plantvillage_loss2/classifier_plantvillage_0_split -> loss2/classifier_plantvillage_loss2/classifier_plantvillage_0_split_0
I0403 15:16:14.125418 18747 net.cpp:399] loss2/classifier_plantvillage_loss2/classifier_plantvillage_0_split -> loss2/classifier_plantvillage_loss2/classifier_plantvillage_0_split_1
I0403 15:16:14.125439 18747 net.cpp:399] loss2/classifier_plantvillage_loss2/classifier_plantvillage_0_split -> loss2/classifier_plantvillage_loss2/classifier_plantvillage_0_split_2
I0403 15:16:14.125589 18747 net.cpp:141] Setting up loss2/classifier_plantvillage_loss2/classifier_plantvillage_0_split
I0403 15:16:14.125614 18747 net.cpp:148] Top shape: 24 38 (912)
I0403 15:16:14.125632 18747 net.cpp:148] Top shape: 24 38 (912)
I0403 15:16:14.125648 18747 net.cpp:148] Top shape: 24 38 (912)
I0403 15:16:14.125661 18747 net.cpp:156] Memory required for data: 1208432160
I0403 15:16:14.125675 18747 layer_factory.hpp:77] Creating layer inception_4e/1x1
I0403 15:16:14.125696 18747 net.cpp:91] Creating Layer inception_4e/1x1
I0403 15:16:14.125713 18747 net.cpp:425] inception_4e/1x1 <- inception_4d/output_inception_4d/output_0_split_1
I0403 15:16:14.125733 18747 net.cpp:399] inception_4e/1x1 -> inception_4e/1x1
I0403 15:16:14.127571 18747 net.cpp:141] Setting up inception_4e/1x1
I0403 15:16:14.127599 18747 net.cpp:148] Top shape: 24 256 14 14 (1204224)
I0403 15:16:14.127615 18747 net.cpp:156] Memory required for data: 1213249056
I0403 15:16:14.127635 18747 layer_factory.hpp:77] Creating layer inception_4e/relu_1x1
I0403 15:16:14.127655 18747 net.cpp:91] Creating Layer inception_4e/relu_1x1
I0403 15:16:14.127671 18747 net.cpp:425] inception_4e/relu_1x1 <- inception_4e/1x1
I0403 15:16:14.127688 18747 net.cpp:386] inception_4e/relu_1x1 -> inception_4e/1x1 (in-place)
I0403 15:16:14.127990 18747 net.cpp:141] Setting up inception_4e/relu_1x1
I0403 15:16:14.128016 18747 net.cpp:148] Top shape: 24 256 14 14 (1204224)
I0403 15:16:14.128031 18747 net.cpp:156] Memory required for data: 1218065952
I0403 15:16:14.128047 18747 layer_factory.hpp:77] Creating layer inception_4e/3x3_reduce
I0403 15:16:14.128069 18747 net.cpp:91] Creating Layer inception_4e/3x3_reduce
I0403 15:16:14.128089 18747 net.cpp:425] inception_4e/3x3_reduce <- inception_4d/output_inception_4d/output_0_split_2
I0403 15:16:14.128108 18747 net.cpp:399] inception_4e/3x3_reduce -> inception_4e/3x3_reduce
I0403 15:16:14.130239 18747 net.cpp:141] Setting up inception_4e/3x3_reduce
I0403 15:16:14.130266 18747 net.cpp:148] Top shape: 24 160 14 14 (752640)
I0403 15:16:14.130282 18747 net.cpp:156] Memory required for data: 1221076512
I0403 15:16:14.130301 18747 layer_factory.hpp:77] Creating layer inception_4e/relu_3x3_reduce
I0403 15:16:14.130321 18747 net.cpp:91] Creating Layer inception_4e/relu_3x3_reduce
I0403 15:16:14.130338 18747 net.cpp:425] inception_4e/relu_3x3_reduce <- inception_4e/3x3_reduce
I0403 15:16:14.130355 18747 net.cpp:386] inception_4e/relu_3x3_reduce -> inception_4e/3x3_reduce (in-place)
I0403 15:16:14.130543 18747 net.cpp:141] Setting up inception_4e/relu_3x3_reduce
I0403 15:16:14.130569 18747 net.cpp:148] Top shape: 24 160 14 14 (752640)
I0403 15:16:14.130584 18747 net.cpp:156] Memory required for data: 1224087072
I0403 15:16:14.130599 18747 layer_factory.hpp:77] Creating layer inception_4e/3x3
I0403 15:16:14.130623 18747 net.cpp:91] Creating Layer inception_4e/3x3
I0403 15:16:14.130640 18747 net.cpp:425] inception_4e/3x3 <- inception_4e/3x3_reduce
I0403 15:16:14.130659 18747 net.cpp:399] inception_4e/3x3 -> inception_4e/3x3
I0403 15:16:14.135643 18747 net.cpp:141] Setting up inception_4e/3x3
I0403 15:16:14.135684 18747 net.cpp:148] Top shape: 24 320 14 14 (1505280)
I0403 15:16:14.135699 18747 net.cpp:156] Memory required for data: 1230108192
I0403 15:16:14.135720 18747 layer_factory.hpp:77] Creating layer inception_4e/relu_3x3
I0403 15:16:14.135738 18747 net.cpp:91] Creating Layer inception_4e/relu_3x3
I0403 15:16:14.135754 18747 net.cpp:425] inception_4e/relu_3x3 <- inception_4e/3x3
I0403 15:16:14.135771 18747 net.cpp:386] inception_4e/relu_3x3 -> inception_4e/3x3 (in-place)
I0403 15:16:14.136071 18747 net.cpp:141] Setting up inception_4e/relu_3x3
I0403 15:16:14.136099 18747 net.cpp:148] Top shape: 24 320 14 14 (1505280)
I0403 15:16:14.136116 18747 net.cpp:156] Memory required for data: 1236129312
I0403 15:16:14.136129 18747 layer_factory.hpp:77] Creating layer inception_4e/5x5_reduce
I0403 15:16:14.136152 18747 net.cpp:91] Creating Layer inception_4e/5x5_reduce
I0403 15:16:14.136169 18747 net.cpp:425] inception_4e/5x5_reduce <- inception_4d/output_inception_4d/output_0_split_3
I0403 15:16:14.136188 18747 net.cpp:399] inception_4e/5x5_reduce -> inception_4e/5x5_reduce
I0403 15:16:14.137240 18747 net.cpp:141] Setting up inception_4e/5x5_reduce
I0403 15:16:14.137269 18747 net.cpp:148] Top shape: 24 32 14 14 (150528)
I0403 15:16:14.137284 18747 net.cpp:156] Memory required for data: 1236731424
I0403 15:16:14.137301 18747 layer_factory.hpp:77] Creating layer inception_4e/relu_5x5_reduce
I0403 15:16:14.137321 18747 net.cpp:91] Creating Layer inception_4e/relu_5x5_reduce
I0403 15:16:14.137338 18747 net.cpp:425] inception_4e/relu_5x5_reduce <- inception_4e/5x5_reduce
I0403 15:16:14.137356 18747 net.cpp:386] inception_4e/relu_5x5_reduce -> inception_4e/5x5_reduce (in-place)
I0403 15:16:14.137647 18747 net.cpp:141] Setting up inception_4e/relu_5x5_reduce
I0403 15:16:14.137672 18747 net.cpp:148] Top shape: 24 32 14 14 (150528)
I0403 15:16:14.137687 18747 net.cpp:156] Memory required for data: 1237333536
I0403 15:16:14.137701 18747 layer_factory.hpp:77] Creating layer inception_4e/5x5
I0403 15:16:14.137742 18747 net.cpp:91] Creating Layer inception_4e/5x5
I0403 15:16:14.137760 18747 net.cpp:425] inception_4e/5x5 <- inception_4e/5x5_reduce
I0403 15:16:14.137780 18747 net.cpp:399] inception_4e/5x5 -> inception_4e/5x5
I0403 15:16:14.139587 18747 net.cpp:141] Setting up inception_4e/5x5
I0403 15:16:14.139616 18747 net.cpp:148] Top shape: 24 128 14 14 (602112)
I0403 15:16:14.139631 18747 net.cpp:156] Memory required for data: 1239741984
I0403 15:16:14.139648 18747 layer_factory.hpp:77] Creating layer inception_4e/relu_5x5
I0403 15:16:14.139665 18747 net.cpp:91] Creating Layer inception_4e/relu_5x5
I0403 15:16:14.139681 18747 net.cpp:425] inception_4e/relu_5x5 <- inception_4e/5x5
I0403 15:16:14.139700 18747 net.cpp:386] inception_4e/relu_5x5 -> inception_4e/5x5 (in-place)
I0403 15:16:14.139892 18747 net.cpp:141] Setting up inception_4e/relu_5x5
I0403 15:16:14.139917 18747 net.cpp:148] Top shape: 24 128 14 14 (602112)
I0403 15:16:14.139931 18747 net.cpp:156] Memory required for data: 1242150432
I0403 15:16:14.139946 18747 layer_factory.hpp:77] Creating layer inception_4e/pool
I0403 15:16:14.140017 18747 net.cpp:91] Creating Layer inception_4e/pool
I0403 15:16:14.140034 18747 net.cpp:425] inception_4e/pool <- inception_4d/output_inception_4d/output_0_split_4
I0403 15:16:14.140053 18747 net.cpp:399] inception_4e/pool -> inception_4e/pool
I0403 15:16:14.140123 18747 net.cpp:141] Setting up inception_4e/pool
I0403 15:16:14.140147 18747 net.cpp:148] Top shape: 24 528 14 14 (2483712)
I0403 15:16:14.140162 18747 net.cpp:156] Memory required for data: 1252085280
I0403 15:16:14.140177 18747 layer_factory.hpp:77] Creating layer inception_4e/pool_proj
I0403 15:16:14.140199 18747 net.cpp:91] Creating Layer inception_4e/pool_proj
I0403 15:16:14.140216 18747 net.cpp:425] inception_4e/pool_proj <- inception_4e/pool
I0403 15:16:14.140236 18747 net.cpp:399] inception_4e/pool_proj -> inception_4e/pool_proj
I0403 15:16:14.141718 18747 net.cpp:141] Setting up inception_4e/pool_proj
I0403 15:16:14.141757 18747 net.cpp:148] Top shape: 24 128 14 14 (602112)
I0403 15:16:14.141773 18747 net.cpp:156] Memory required for data: 1254493728
I0403 15:16:14.141791 18747 layer_factory.hpp:77] Creating layer inception_4e/relu_pool_proj
I0403 15:16:14.141808 18747 net.cpp:91] Creating Layer inception_4e/relu_pool_proj
I0403 15:16:14.141824 18747 net.cpp:425] inception_4e/relu_pool_proj <- inception_4e/pool_proj
I0403 15:16:14.141844 18747 net.cpp:386] inception_4e/relu_pool_proj -> inception_4e/pool_proj (in-place)
I0403 15:16:14.142138 18747 net.cpp:141] Setting up inception_4e/relu_pool_proj
I0403 15:16:14.142164 18747 net.cpp:148] Top shape: 24 128 14 14 (602112)
I0403 15:16:14.142179 18747 net.cpp:156] Memory required for data: 1256902176
I0403 15:16:14.142194 18747 layer_factory.hpp:77] Creating layer inception_4e/output
I0403 15:16:14.142210 18747 net.cpp:91] Creating Layer inception_4e/output
I0403 15:16:14.142225 18747 net.cpp:425] inception_4e/output <- inception_4e/1x1
I0403 15:16:14.142241 18747 net.cpp:425] inception_4e/output <- inception_4e/3x3
I0403 15:16:14.142256 18747 net.cpp:425] inception_4e/output <- inception_4e/5x5
I0403 15:16:14.142272 18747 net.cpp:425] inception_4e/output <- inception_4e/pool_proj
I0403 15:16:14.142292 18747 net.cpp:399] inception_4e/output -> inception_4e/output
I0403 15:16:14.142339 18747 net.cpp:141] Setting up inception_4e/output
I0403 15:16:14.142365 18747 net.cpp:148] Top shape: 24 832 14 14 (3913728)
I0403 15:16:14.142380 18747 net.cpp:156] Memory required for data: 1272557088
I0403 15:16:14.142395 18747 layer_factory.hpp:77] Creating layer pool4/3x3_s2
I0403 15:16:14.142410 18747 net.cpp:91] Creating Layer pool4/3x3_s2
I0403 15:16:14.142426 18747 net.cpp:425] pool4/3x3_s2 <- inception_4e/output
I0403 15:16:14.142443 18747 net.cpp:399] pool4/3x3_s2 -> pool4/3x3_s2
I0403 15:16:14.142510 18747 net.cpp:141] Setting up pool4/3x3_s2
I0403 15:16:14.142534 18747 net.cpp:148] Top shape: 24 832 7 7 (978432)
I0403 15:16:14.142547 18747 net.cpp:156] Memory required for data: 1276470816
I0403 15:16:14.142561 18747 layer_factory.hpp:77] Creating layer pool4/3x3_s2_pool4/3x3_s2_0_split
I0403 15:16:14.142577 18747 net.cpp:91] Creating Layer pool4/3x3_s2_pool4/3x3_s2_0_split
I0403 15:16:14.142593 18747 net.cpp:425] pool4/3x3_s2_pool4/3x3_s2_0_split <- pool4/3x3_s2
I0403 15:16:14.142612 18747 net.cpp:399] pool4/3x3_s2_pool4/3x3_s2_0_split -> pool4/3x3_s2_pool4/3x3_s2_0_split_0
I0403 15:16:14.142632 18747 net.cpp:399] pool4/3x3_s2_pool4/3x3_s2_0_split -> pool4/3x3_s2_pool4/3x3_s2_0_split_1
I0403 15:16:14.142652 18747 net.cpp:399] pool4/3x3_s2_pool4/3x3_s2_0_split -> pool4/3x3_s2_pool4/3x3_s2_0_split_2
I0403 15:16:14.142673 18747 net.cpp:399] pool4/3x3_s2_pool4/3x3_s2_0_split -> pool4/3x3_s2_pool4/3x3_s2_0_split_3
I0403 15:16:14.142763 18747 net.cpp:141] Setting up pool4/3x3_s2_pool4/3x3_s2_0_split
I0403 15:16:14.142786 18747 net.cpp:148] Top shape: 24 832 7 7 (978432)
I0403 15:16:14.142802 18747 net.cpp:148] Top shape: 24 832 7 7 (978432)
I0403 15:16:14.142818 18747 net.cpp:148] Top shape: 24 832 7 7 (978432)
I0403 15:16:14.142833 18747 net.cpp:148] Top shape: 24 832 7 7 (978432)
I0403 15:16:14.142848 18747 net.cpp:156] Memory required for data: 1292125728
I0403 15:16:14.142860 18747 layer_factory.hpp:77] Creating layer inception_5a/1x1
I0403 15:16:14.142881 18747 net.cpp:91] Creating Layer inception_5a/1x1
I0403 15:16:14.142899 18747 net.cpp:425] inception_5a/1x1 <- pool4/3x3_s2_pool4/3x3_s2_0_split_0
I0403 15:16:14.142920 18747 net.cpp:399] inception_5a/1x1 -> inception_5a/1x1
I0403 15:16:14.145699 18747 net.cpp:141] Setting up inception_5a/1x1
I0403 15:16:14.145727 18747 net.cpp:148] Top shape: 24 256 7 7 (301056)
I0403 15:16:14.145742 18747 net.cpp:156] Memory required for data: 1293329952
I0403 15:16:14.145761 18747 layer_factory.hpp:77] Creating layer inception_5a/relu_1x1
I0403 15:16:14.145781 18747 net.cpp:91] Creating Layer inception_5a/relu_1x1
I0403 15:16:14.145797 18747 net.cpp:425] inception_5a/relu_1x1 <- inception_5a/1x1
I0403 15:16:14.145814 18747 net.cpp:386] inception_5a/relu_1x1 -> inception_5a/1x1 (in-place)
I0403 15:16:14.146121 18747 net.cpp:141] Setting up inception_5a/relu_1x1
I0403 15:16:14.146147 18747 net.cpp:148] Top shape: 24 256 7 7 (301056)
I0403 15:16:14.146162 18747 net.cpp:156] Memory required for data: 1294534176
I0403 15:16:14.146176 18747 layer_factory.hpp:77] Creating layer inception_5a/3x3_reduce
I0403 15:16:14.146198 18747 net.cpp:91] Creating Layer inception_5a/3x3_reduce
I0403 15:16:14.146216 18747 net.cpp:425] inception_5a/3x3_reduce <- pool4/3x3_s2_pool4/3x3_s2_0_split_1
I0403 15:16:14.146236 18747 net.cpp:399] inception_5a/3x3_reduce -> inception_5a/3x3_reduce
I0403 15:16:14.148674 18747 net.cpp:141] Setting up inception_5a/3x3_reduce
I0403 15:16:14.148705 18747 net.cpp:148] Top shape: 24 160 7 7 (188160)
I0403 15:16:14.148720 18747 net.cpp:156] Memory required for data: 1295286816
I0403 15:16:14.148738 18747 layer_factory.hpp:77] Creating layer inception_5a/relu_3x3_reduce
I0403 15:16:14.148756 18747 net.cpp:91] Creating Layer inception_5a/relu_3x3_reduce
I0403 15:16:14.148772 18747 net.cpp:425] inception_5a/relu_3x3_reduce <- inception_5a/3x3_reduce
I0403 15:16:14.148790 18747 net.cpp:386] inception_5a/relu_3x3_reduce -> inception_5a/3x3_reduce (in-place)
I0403 15:16:14.148985 18747 net.cpp:141] Setting up inception_5a/relu_3x3_reduce
I0403 15:16:14.149010 18747 net.cpp:148] Top shape: 24 160 7 7 (188160)
I0403 15:16:14.149027 18747 net.cpp:156] Memory required for data: 1296039456
I0403 15:16:14.149041 18747 layer_factory.hpp:77] Creating layer inception_5a/3x3
I0403 15:16:14.149063 18747 net.cpp:91] Creating Layer inception_5a/3x3
I0403 15:16:14.149081 18747 net.cpp:425] inception_5a/3x3 <- inception_5a/3x3_reduce
I0403 15:16:14.149101 18747 net.cpp:399] inception_5a/3x3 -> inception_5a/3x3
I0403 15:16:14.154042 18747 net.cpp:141] Setting up inception_5a/3x3
I0403 15:16:14.154072 18747 net.cpp:148] Top shape: 24 320 7 7 (376320)
I0403 15:16:14.154088 18747 net.cpp:156] Memory required for data: 1297544736
I0403 15:16:14.154108 18747 layer_factory.hpp:77] Creating layer inception_5a/relu_3x3
I0403 15:16:14.154125 18747 net.cpp:91] Creating Layer inception_5a/relu_3x3
I0403 15:16:14.154141 18747 net.cpp:425] inception_5a/relu_3x3 <- inception_5a/3x3
I0403 15:16:14.154160 18747 net.cpp:386] inception_5a/relu_3x3 -> inception_5a/3x3 (in-place)
I0403 15:16:14.154458 18747 net.cpp:141] Setting up inception_5a/relu_3x3
I0403 15:16:14.154484 18747 net.cpp:148] Top shape: 24 320 7 7 (376320)
I0403 15:16:14.154500 18747 net.cpp:156] Memory required for data: 1299050016
I0403 15:16:14.154513 18747 layer_factory.hpp:77] Creating layer inception_5a/5x5_reduce
I0403 15:16:14.154536 18747 net.cpp:91] Creating Layer inception_5a/5x5_reduce
I0403 15:16:14.154553 18747 net.cpp:425] inception_5a/5x5_reduce <- pool4/3x3_s2_pool4/3x3_s2_0_split_2
I0403 15:16:14.154574 18747 net.cpp:399] inception_5a/5x5_reduce -> inception_5a/5x5_reduce
I0403 15:16:14.155762 18747 net.cpp:141] Setting up inception_5a/5x5_reduce
I0403 15:16:14.155793 18747 net.cpp:148] Top shape: 24 32 7 7 (37632)
I0403 15:16:14.155809 18747 net.cpp:156] Memory required for data: 1299200544
I0403 15:16:14.155828 18747 layer_factory.hpp:77] Creating layer inception_5a/relu_5x5_reduce
I0403 15:16:14.155846 18747 net.cpp:91] Creating Layer inception_5a/relu_5x5_reduce
I0403 15:16:14.155863 18747 net.cpp:425] inception_5a/relu_5x5_reduce <- inception_5a/5x5_reduce
I0403 15:16:14.155879 18747 net.cpp:386] inception_5a/relu_5x5_reduce -> inception_5a/5x5_reduce (in-place)
I0403 15:16:14.156188 18747 net.cpp:141] Setting up inception_5a/relu_5x5_reduce
I0403 15:16:14.156213 18747 net.cpp:148] Top shape: 24 32 7 7 (37632)
I0403 15:16:14.156229 18747 net.cpp:156] Memory required for data: 1299351072
I0403 15:16:14.156244 18747 layer_factory.hpp:77] Creating layer inception_5a/5x5
I0403 15:16:14.156265 18747 net.cpp:91] Creating Layer inception_5a/5x5
I0403 15:16:14.156283 18747 net.cpp:425] inception_5a/5x5 <- inception_5a/5x5_reduce
I0403 15:16:14.156304 18747 net.cpp:399] inception_5a/5x5 -> inception_5a/5x5
I0403 15:16:14.158048 18747 net.cpp:141] Setting up inception_5a/5x5
I0403 15:16:14.158088 18747 net.cpp:148] Top shape: 24 128 7 7 (150528)
I0403 15:16:14.158104 18747 net.cpp:156] Memory required for data: 1299953184
I0403 15:16:14.158123 18747 layer_factory.hpp:77] Creating layer inception_5a/relu_5x5
I0403 15:16:14.158141 18747 net.cpp:91] Creating Layer inception_5a/relu_5x5
I0403 15:16:14.158157 18747 net.cpp:425] inception_5a/relu_5x5 <- inception_5a/5x5
I0403 15:16:14.158177 18747 net.cpp:386] inception_5a/relu_5x5 -> inception_5a/5x5 (in-place)
I0403 15:16:14.158371 18747 net.cpp:141] Setting up inception_5a/relu_5x5
I0403 15:16:14.158396 18747 net.cpp:148] Top shape: 24 128 7 7 (150528)
I0403 15:16:14.158411 18747 net.cpp:156] Memory required for data: 1300555296
I0403 15:16:14.158427 18747 layer_factory.hpp:77] Creating layer inception_5a/pool
I0403 15:16:14.158447 18747 net.cpp:91] Creating Layer inception_5a/pool
I0403 15:16:14.158463 18747 net.cpp:425] inception_5a/pool <- pool4/3x3_s2_pool4/3x3_s2_0_split_3
I0403 15:16:14.158481 18747 net.cpp:399] inception_5a/pool -> inception_5a/pool
I0403 15:16:14.158553 18747 net.cpp:141] Setting up inception_5a/pool
I0403 15:16:14.158577 18747 net.cpp:148] Top shape: 24 832 7 7 (978432)
I0403 15:16:14.158592 18747 net.cpp:156] Memory required for data: 1304469024
I0403 15:16:14.158607 18747 layer_factory.hpp:77] Creating layer inception_5a/pool_proj
I0403 15:16:14.158628 18747 net.cpp:91] Creating Layer inception_5a/pool_proj
I0403 15:16:14.158646 18747 net.cpp:425] inception_5a/pool_proj <- inception_5a/pool
I0403 15:16:14.158665 18747 net.cpp:399] inception_5a/pool_proj -> inception_5a/pool_proj
I0403 15:16:14.160974 18747 net.cpp:141] Setting up inception_5a/pool_proj
I0403 15:16:14.161005 18747 net.cpp:148] Top shape: 24 128 7 7 (150528)
I0403 15:16:14.161022 18747 net.cpp:156] Memory required for data: 1305071136
I0403 15:16:14.161041 18747 layer_factory.hpp:77] Creating layer inception_5a/relu_pool_proj
I0403 15:16:14.161058 18747 net.cpp:91] Creating Layer inception_5a/relu_pool_proj
I0403 15:16:14.161075 18747 net.cpp:425] inception_5a/relu_pool_proj <- inception_5a/pool_proj
I0403 15:16:14.161094 18747 net.cpp:386] inception_5a/relu_pool_proj -> inception_5a/pool_proj (in-place)
I0403 15:16:14.161392 18747 net.cpp:141] Setting up inception_5a/relu_pool_proj
I0403 15:16:14.161419 18747 net.cpp:148] Top shape: 24 128 7 7 (150528)
I0403 15:16:14.161435 18747 net.cpp:156] Memory required for data: 1305673248
I0403 15:16:14.161450 18747 layer_factory.hpp:77] Creating layer inception_5a/output
I0403 15:16:14.161468 18747 net.cpp:91] Creating Layer inception_5a/output
I0403 15:16:14.161484 18747 net.cpp:425] inception_5a/output <- inception_5a/1x1
I0403 15:16:14.161500 18747 net.cpp:425] inception_5a/output <- inception_5a/3x3
I0403 15:16:14.161516 18747 net.cpp:425] inception_5a/output <- inception_5a/5x5
I0403 15:16:14.161531 18747 net.cpp:425] inception_5a/output <- inception_5a/pool_proj
I0403 15:16:14.161550 18747 net.cpp:399] inception_5a/output -> inception_5a/output
I0403 15:16:14.161600 18747 net.cpp:141] Setting up inception_5a/output
I0403 15:16:14.161624 18747 net.cpp:148] Top shape: 24 832 7 7 (978432)
I0403 15:16:14.161639 18747 net.cpp:156] Memory required for data: 1309586976
I0403 15:16:14.161654 18747 layer_factory.hpp:77] Creating layer inception_5a/output_inception_5a/output_0_split
I0403 15:16:14.161674 18747 net.cpp:91] Creating Layer inception_5a/output_inception_5a/output_0_split
I0403 15:16:14.161690 18747 net.cpp:425] inception_5a/output_inception_5a/output_0_split <- inception_5a/output
I0403 15:16:14.161707 18747 net.cpp:399] inception_5a/output_inception_5a/output_0_split -> inception_5a/output_inception_5a/output_0_split_0
I0403 15:16:14.161731 18747 net.cpp:399] inception_5a/output_inception_5a/output_0_split -> inception_5a/output_inception_5a/output_0_split_1
I0403 15:16:14.161752 18747 net.cpp:399] inception_5a/output_inception_5a/output_0_split -> inception_5a/output_inception_5a/output_0_split_2
I0403 15:16:14.161772 18747 net.cpp:399] inception_5a/output_inception_5a/output_0_split -> inception_5a/output_inception_5a/output_0_split_3
I0403 15:16:14.161883 18747 net.cpp:141] Setting up inception_5a/output_inception_5a/output_0_split
I0403 15:16:14.161907 18747 net.cpp:148] Top shape: 24 832 7 7 (978432)
I0403 15:16:14.161924 18747 net.cpp:148] Top shape: 24 832 7 7 (978432)
I0403 15:16:14.161939 18747 net.cpp:148] Top shape: 24 832 7 7 (978432)
I0403 15:16:14.161959 18747 net.cpp:148] Top shape: 24 832 7 7 (978432)
I0403 15:16:14.161974 18747 net.cpp:156] Memory required for data: 1325241888
I0403 15:16:14.161989 18747 layer_factory.hpp:77] Creating layer inception_5b/1x1
I0403 15:16:14.162011 18747 net.cpp:91] Creating Layer inception_5b/1x1
I0403 15:16:14.162031 18747 net.cpp:425] inception_5b/1x1 <- inception_5a/output_inception_5a/output_0_split_0
I0403 15:16:14.162052 18747 net.cpp:399] inception_5b/1x1 -> inception_5b/1x1
I0403 15:16:14.165828 18747 net.cpp:141] Setting up inception_5b/1x1
I0403 15:16:14.165863 18747 net.cpp:148] Top shape: 24 384 7 7 (451584)
I0403 15:16:14.165879 18747 net.cpp:156] Memory required for data: 1327048224
I0403 15:16:14.165899 18747 layer_factory.hpp:77] Creating layer inception_5b/relu_1x1
I0403 15:16:14.165917 18747 net.cpp:91] Creating Layer inception_5b/relu_1x1
I0403 15:16:14.165933 18747 net.cpp:425] inception_5b/relu_1x1 <- inception_5b/1x1
I0403 15:16:14.165952 18747 net.cpp:386] inception_5b/relu_1x1 -> inception_5b/1x1 (in-place)
I0403 15:16:14.166265 18747 net.cpp:141] Setting up inception_5b/relu_1x1
I0403 15:16:14.166293 18747 net.cpp:148] Top shape: 24 384 7 7 (451584)
I0403 15:16:14.166309 18747 net.cpp:156] Memory required for data: 1328854560
I0403 15:16:14.166324 18747 layer_factory.hpp:77] Creating layer inception_5b/3x3_reduce
I0403 15:16:14.166345 18747 net.cpp:91] Creating Layer inception_5b/3x3_reduce
I0403 15:16:14.166363 18747 net.cpp:425] inception_5b/3x3_reduce <- inception_5a/output_inception_5a/output_0_split_1
I0403 15:16:14.166386 18747 net.cpp:399] inception_5b/3x3_reduce -> inception_5b/3x3_reduce
I0403 15:16:14.169076 18747 net.cpp:141] Setting up inception_5b/3x3_reduce
I0403 15:16:14.169108 18747 net.cpp:148] Top shape: 24 192 7 7 (225792)
I0403 15:16:14.169126 18747 net.cpp:156] Memory required for data: 1329757728
I0403 15:16:14.169145 18747 layer_factory.hpp:77] Creating layer inception_5b/relu_3x3_reduce
I0403 15:16:14.169163 18747 net.cpp:91] Creating Layer inception_5b/relu_3x3_reduce
I0403 15:16:14.169181 18747 net.cpp:425] inception_5b/relu_3x3_reduce <- inception_5b/3x3_reduce
I0403 15:16:14.169201 18747 net.cpp:386] inception_5b/relu_3x3_reduce -> inception_5b/3x3_reduce (in-place)
I0403 15:16:14.169394 18747 net.cpp:141] Setting up inception_5b/relu_3x3_reduce
I0403 15:16:14.169420 18747 net.cpp:148] Top shape: 24 192 7 7 (225792)
I0403 15:16:14.169433 18747 net.cpp:156] Memory required for data: 1330660896
I0403 15:16:14.169450 18747 layer_factory.hpp:77] Creating layer inception_5b/3x3
I0403 15:16:14.169471 18747 net.cpp:91] Creating Layer inception_5b/3x3
I0403 15:16:14.169488 18747 net.cpp:425] inception_5b/3x3 <- inception_5b/3x3_reduce
I0403 15:16:14.169510 18747 net.cpp:399] inception_5b/3x3 -> inception_5b/3x3
I0403 15:16:14.176127 18747 net.cpp:141] Setting up inception_5b/3x3
I0403 15:16:14.176156 18747 net.cpp:148] Top shape: 24 384 7 7 (451584)
I0403 15:16:14.176172 18747 net.cpp:156] Memory required for data: 1332467232
I0403 15:16:14.176189 18747 layer_factory.hpp:77] Creating layer inception_5b/relu_3x3
I0403 15:16:14.176206 18747 net.cpp:91] Creating Layer inception_5b/relu_3x3
I0403 15:16:14.176223 18747 net.cpp:425] inception_5b/relu_3x3 <- inception_5b/3x3
I0403 15:16:14.176241 18747 net.cpp:386] inception_5b/relu_3x3 -> inception_5b/3x3 (in-place)
I0403 15:16:14.176534 18747 net.cpp:141] Setting up inception_5b/relu_3x3
I0403 15:16:14.176560 18747 net.cpp:148] Top shape: 24 384 7 7 (451584)
I0403 15:16:14.176575 18747 net.cpp:156] Memory required for data: 1334273568
I0403 15:16:14.176590 18747 layer_factory.hpp:77] Creating layer inception_5b/5x5_reduce
I0403 15:16:14.176627 18747 net.cpp:91] Creating Layer inception_5b/5x5_reduce
I0403 15:16:14.176645 18747 net.cpp:425] inception_5b/5x5_reduce <- inception_5a/output_inception_5a/output_0_split_2
I0403 15:16:14.176667 18747 net.cpp:399] inception_5b/5x5_reduce -> inception_5b/5x5_reduce
I0403 15:16:14.177928 18747 net.cpp:141] Setting up inception_5b/5x5_reduce
I0403 15:16:14.177959 18747 net.cpp:148] Top shape: 24 48 7 7 (56448)
I0403 15:16:14.177976 18747 net.cpp:156] Memory required for data: 1334499360
I0403 15:16:14.177994 18747 layer_factory.hpp:77] Creating layer inception_5b/relu_5x5_reduce
I0403 15:16:14.178012 18747 net.cpp:91] Creating Layer inception_5b/relu_5x5_reduce
I0403 15:16:14.178030 18747 net.cpp:425] inception_5b/relu_5x5_reduce <- inception_5b/5x5_reduce
I0403 15:16:14.178050 18747 net.cpp:386] inception_5b/relu_5x5_reduce -> inception_5b/5x5_reduce (in-place)
I0403 15:16:14.178419 18747 net.cpp:141] Setting up inception_5b/relu_5x5_reduce
I0403 15:16:14.178445 18747 net.cpp:148] Top shape: 24 48 7 7 (56448)
I0403 15:16:14.178460 18747 net.cpp:156] Memory required for data: 1334725152
I0403 15:16:14.178475 18747 layer_factory.hpp:77] Creating layer inception_5b/5x5
I0403 15:16:14.178494 18747 net.cpp:91] Creating Layer inception_5b/5x5
I0403 15:16:14.178511 18747 net.cpp:425] inception_5b/5x5 <- inception_5b/5x5_reduce
I0403 15:16:14.178530 18747 net.cpp:399] inception_5b/5x5 -> inception_5b/5x5
I0403 15:16:14.180559 18747 net.cpp:141] Setting up inception_5b/5x5
I0403 15:16:14.180586 18747 net.cpp:148] Top shape: 24 128 7 7 (150528)
I0403 15:16:14.180603 18747 net.cpp:156] Memory required for data: 1335327264
I0403 15:16:14.180619 18747 layer_factory.hpp:77] Creating layer inception_5b/relu_5x5
I0403 15:16:14.180639 18747 net.cpp:91] Creating Layer inception_5b/relu_5x5
I0403 15:16:14.180656 18747 net.cpp:425] inception_5b/relu_5x5 <- inception_5b/5x5
I0403 15:16:14.180672 18747 net.cpp:386] inception_5b/relu_5x5 -> inception_5b/5x5 (in-place)
I0403 15:16:14.180862 18747 net.cpp:141] Setting up inception_5b/relu_5x5
I0403 15:16:14.180887 18747 net.cpp:148] Top shape: 24 128 7 7 (150528)
I0403 15:16:14.180902 18747 net.cpp:156] Memory required for data: 1335929376
I0403 15:16:14.180917 18747 layer_factory.hpp:77] Creating layer inception_5b/pool
I0403 15:16:14.180935 18747 net.cpp:91] Creating Layer inception_5b/pool
I0403 15:16:14.180951 18747 net.cpp:425] inception_5b/pool <- inception_5a/output_inception_5a/output_0_split_3
I0403 15:16:14.180975 18747 net.cpp:399] inception_5b/pool -> inception_5b/pool
I0403 15:16:14.181047 18747 net.cpp:141] Setting up inception_5b/pool
I0403 15:16:14.181071 18747 net.cpp:148] Top shape: 24 832 7 7 (978432)
I0403 15:16:14.181085 18747 net.cpp:156] Memory required for data: 1339843104
I0403 15:16:14.181099 18747 layer_factory.hpp:77] Creating layer inception_5b/pool_proj
I0403 15:16:14.181121 18747 net.cpp:91] Creating Layer inception_5b/pool_proj
I0403 15:16:14.181138 18747 net.cpp:425] inception_5b/pool_proj <- inception_5b/pool
I0403 15:16:14.181159 18747 net.cpp:399] inception_5b/pool_proj -> inception_5b/pool_proj
I0403 15:16:14.183423 18747 net.cpp:141] Setting up inception_5b/pool_proj
I0403 15:16:14.183450 18747 net.cpp:148] Top shape: 24 128 7 7 (150528)
I0403 15:16:14.183465 18747 net.cpp:156] Memory required for data: 1340445216
I0403 15:16:14.183485 18747 layer_factory.hpp:77] Creating layer inception_5b/relu_pool_proj
I0403 15:16:14.183501 18747 net.cpp:91] Creating Layer inception_5b/relu_pool_proj
I0403 15:16:14.183517 18747 net.cpp:425] inception_5b/relu_pool_proj <- inception_5b/pool_proj
I0403 15:16:14.183537 18747 net.cpp:386] inception_5b/relu_pool_proj -> inception_5b/pool_proj (in-place)
I0403 15:16:14.183830 18747 net.cpp:141] Setting up inception_5b/relu_pool_proj
I0403 15:16:14.183856 18747 net.cpp:148] Top shape: 24 128 7 7 (150528)
I0403 15:16:14.183871 18747 net.cpp:156] Memory required for data: 1341047328
I0403 15:16:14.183886 18747 layer_factory.hpp:77] Creating layer inception_5b/output
I0403 15:16:14.183902 18747 net.cpp:91] Creating Layer inception_5b/output
I0403 15:16:14.183933 18747 net.cpp:425] inception_5b/output <- inception_5b/1x1
I0403 15:16:14.183949 18747 net.cpp:425] inception_5b/output <- inception_5b/3x3
I0403 15:16:14.183970 18747 net.cpp:425] inception_5b/output <- inception_5b/5x5
I0403 15:16:14.183986 18747 net.cpp:425] inception_5b/output <- inception_5b/pool_proj
I0403 15:16:14.184006 18747 net.cpp:399] inception_5b/output -> inception_5b/output
I0403 15:16:14.184058 18747 net.cpp:141] Setting up inception_5b/output
I0403 15:16:14.184084 18747 net.cpp:148] Top shape: 24 1024 7 7 (1204224)
I0403 15:16:14.184100 18747 net.cpp:156] Memory required for data: 1345864224
I0403 15:16:14.184114 18747 layer_factory.hpp:77] Creating layer pool5/7x7_s1
I0403 15:16:14.184130 18747 net.cpp:91] Creating Layer pool5/7x7_s1
I0403 15:16:14.184145 18747 net.cpp:425] pool5/7x7_s1 <- inception_5b/output
I0403 15:16:14.184162 18747 net.cpp:399] pool5/7x7_s1 -> pool5/7x7_s1
I0403 15:16:14.184376 18747 net.cpp:141] Setting up pool5/7x7_s1
I0403 15:16:14.184401 18747 net.cpp:148] Top shape: 24 1024 1 1 (24576)
I0403 15:16:14.184415 18747 net.cpp:156] Memory required for data: 1345962528
I0403 15:16:14.184429 18747 layer_factory.hpp:77] Creating layer pool5/drop_7x7_s1
I0403 15:16:14.184448 18747 net.cpp:91] Creating Layer pool5/drop_7x7_s1
I0403 15:16:14.184463 18747 net.cpp:425] pool5/drop_7x7_s1 <- pool5/7x7_s1
I0403 15:16:14.184481 18747 net.cpp:386] pool5/drop_7x7_s1 -> pool5/7x7_s1 (in-place)
I0403 15:16:14.184530 18747 net.cpp:141] Setting up pool5/drop_7x7_s1
I0403 15:16:14.184556 18747 net.cpp:148] Top shape: 24 1024 1 1 (24576)
I0403 15:16:14.184571 18747 net.cpp:156] Memory required for data: 1346060832
I0403 15:16:14.184586 18747 layer_factory.hpp:77] Creating layer loss3/classifier_plantvillage
I0403 15:16:14.184604 18747 net.cpp:91] Creating Layer loss3/classifier_plantvillage
I0403 15:16:14.184620 18747 net.cpp:425] loss3/classifier_plantvillage <- pool5/7x7_s1
I0403 15:16:14.184640 18747 net.cpp:399] loss3/classifier_plantvillage -> loss3/classifier_plantvillage
I0403 15:16:14.185066 18747 net.cpp:141] Setting up loss3/classifier_plantvillage
I0403 15:16:14.185091 18747 net.cpp:148] Top shape: 24 38 (912)
I0403 15:16:14.185106 18747 net.cpp:156] Memory required for data: 1346064480
I0403 15:16:14.185122 18747 layer_factory.hpp:77] Creating layer loss3/classifier_plantvillage_loss3/classifier_plantvillage_0_split
I0403 15:16:14.185144 18747 net.cpp:91] Creating Layer loss3/classifier_plantvillage_loss3/classifier_plantvillage_0_split
I0403 15:16:14.185160 18747 net.cpp:425] loss3/classifier_plantvillage_loss3/classifier_plantvillage_0_split <- loss3/classifier_plantvillage
I0403 15:16:14.185178 18747 net.cpp:399] loss3/classifier_plantvillage_loss3/classifier_plantvillage_0_split -> loss3/classifier_plantvillage_loss3/classifier_plantvillage_0_split_0
I0403 15:16:14.185201 18747 net.cpp:399] loss3/classifier_plantvillage_loss3/classifier_plantvillage_0_split -> loss3/classifier_plantvillage_loss3/classifier_plantvillage_0_split_1
I0403 15:16:14.185220 18747 net.cpp:399] loss3/classifier_plantvillage_loss3/classifier_plantvillage_0_split -> loss3/classifier_plantvillage_loss3/classifier_plantvillage_0_split_2
I0403 15:16:14.185240 18747 net.cpp:399] loss3/classifier_plantvillage_loss3/classifier_plantvillage_0_split -> loss3/classifier_plantvillage_loss3/classifier_plantvillage_0_split_3
I0403 15:16:14.185343 18747 net.cpp:141] Setting up loss3/classifier_plantvillage_loss3/classifier_plantvillage_0_split
I0403 15:16:14.185364 18747 net.cpp:148] Top shape: 24 38 (912)
I0403 15:16:14.185380 18747 net.cpp:148] Top shape: 24 38 (912)
I0403 15:16:14.185395 18747 net.cpp:148] Top shape: 24 38 (912)
I0403 15:16:14.185410 18747 net.cpp:148] Top shape: 24 38 (912)
I0403 15:16:14.185423 18747 net.cpp:156] Memory required for data: 1346079072
I0403 15:16:14.185437 18747 layer_factory.hpp:77] Creating layer loss1/loss
I0403 15:16:14.185457 18747 net.cpp:91] Creating Layer loss1/loss
I0403 15:16:14.185474 18747 net.cpp:425] loss1/loss <- loss1/classifier_plantvillage_loss1/classifier_plantvillage_0_split_0
I0403 15:16:14.185504 18747 net.cpp:425] loss1/loss <- label_data_1_split_0
…
