…
I0403 15:40:50.136318 20162 net.cpp:313] The NetState phase (1) differed from the phase (0) specified by a rule in layer data
I0403 15:40:50.137434 20162 net.cpp:49] Initializing net from parameters: 
state {
  phase: TEST
}
layer {
  name: "data"
  type: "Data"
  top: "data"
  top: "label"
  include {
    phase: TEST
  }
  transform_param {
    mirror: false
    crop_size: 224
    mean_file: "/home/mohanty/data/final_dataset/lmdb/grayscale-40-60/mean.binaryproto"
  }
  data_param {
    source: "/home/mohanty/data/final_dataset/lmdb/grayscale-40-60/test_db"
    batch_size: 24
    backend: LMDB
  }
}
layer {
  name: "conv1/7x7_s2"
  type: "Convolution"
  bottom: "data"
  top: "conv1/7x7_s2"
  param {
    lr_mult: 1
    decay_mult: 1
  }
  param {
    lr_mult: 2
    decay_mult: 0
  }
  convolution_param {
    num_output: 64
    pad: 3
    kernel_size: 7
    stride: 2
    weight_filler {
      type: "xavier"
      std: 0.1
    }
    bias_filler {
      type: "constant"
      value: 0.2
    }
  }
}
layer {
  name: "conv1/relu_7x7"
  type: "ReLU"
  bottom: "conv1/7x7_s2"
  top: "conv1/7x7_s2"
}
layer {
  name: "pool1/3x3_s2"
  type: "Pooling"
  bottom: "conv1/7x7_s2"
  top: "pool1/3x3_s2"
  pooling_param {
    pool: MAX
    kernel_size: 3
    stride: 2
  }
}
layer {
  name: "pool1/norm1"
  type: "LRN"
  bottom: "pool1/3x3_s2"
  top: "pool1/norm1"
  lrn_param {
    local_size: 5
    alpha: 0.0001
    beta: 0.75
  }
}
layer {
  name: "conv2/3x3_reduce"
  type: "Convolution"
  bottom: "pool1/norm1"
  top: "conv2/3x3_reduce"
  param {
    lr_mult: 1
    decay_mult: 1
  }
  param {
    lr_mult: 2
    decay_mult: 0
  }
  convolution_param {
    num_output: 64
    kernel_size: 1
    weight_filler {
      type: "xavier"
      std: 0.1
    }
    bias_filler {
      type: "constant"
      value: 0.2
    }
  }
}
layer {
  name: "conv2/relu_3x3_reduce"
  type: "ReLU"
  bottom: "conv2/3x3_reduce"
  top: "conv2/3x3_reduce"
}
layer {
  name: "conv2/3x3"
  type: "Convolution"
  bottom: "conv2/3x3_reduce"
  top: "conv2/3x3"
  param {
    lr_mult: 1
    decay_mult: 1
  }
  param {
    lr_mult: 2
    decay_mult: 0
  }
  convolution_param {
    num_output: 192
    pad: 1
    kernel_size: 3
    weight_filler {
      type: "xavier"
      std: 0.03
    }
    bias_filler {
      type: "constant"
      value: 0.2
    }
  }
}
layer {
  name: "conv2/relu_3x3"
  type: "ReLU"
  bottom: "conv2/3x3"
  top: "conv2/3x3"
}
layer {
  name: "conv2/norm2"
  type: "LRN"
  bottom: "conv2/3x3"
  top: "conv2/norm2"
  lrn_param {
    local_size: 5
    alpha: 0.0001
    beta: 0.75
  }
}
layer {
  name: "pool2/3x3_s2"
  type: "Pooling"
  bottom: "conv2/norm2"
  top: "pool2/3x3_s2"
  pooling_param {
    pool: MAX
    kernel_size: 3
    stride: 2
  }
}
layer {
  name: "inception_3a/1x1"
  type: "Convolution"
  bottom: "pool2/3x3_s2"
  top: "inception_3a/1x1"
  param {
    lr_mult: 1
    decay_mult: 1
  }
  param {
    lr_mult: 2
    decay_mult: 0
  }
  convolution_param {
    num_output: 64
    kernel_size: 1
    weight_filler {
      type: "xavier"
      std: 0.03
    }
    bias_filler {
      type: "constant"
      value: 0.2
    }
  }
}
layer {
  name: "inception_3a/relu_1x1"
  type: "ReLU"
  bottom: "inception_3a/1x1"
  top: "inception_3a/1x1"
}
layer {
  name: "inception_3a/3x3_reduce"
  type: "Convolution"
  bottom: "pool2/3x3_s2"
  top: "inception_3a/3x3_reduce"
  param {
    lr_mult: 1
    decay_mult: 1
  }
  param {
    lr_mult: 2
    decay_mult: 0
  }
  convolution_param {
    num_output: 96
    kernel_size: 1
    weight_filler {
      type: "xavier"
      std: 0.09
    }
    bias_filler {
      type: "constant"
      value: 0.2
    }
  }
}
layer {
  name: "inception_3a/relu_3x3_reduce"
  type: "ReLU"
  bottom: "inception_3a/3x3_reduce"
  top: "inception_3a/3x3_reduce"
}
layer {
  name: "inception_3a/3x3"
  type: "Convolution"
  bottom: "inception_3a/3x3_reduce"
  top: "inception_3a/3x3"
  param {
    lr_mult: 1
    decay_mult: 1
  }
  param {
    lr_mult: 2
    decay_mult: 0
  }
  convolution_param {
    num_output: 128
    pad: 1
    kernel_size: 3
    weight_filler {
      type: "xavier"
      std: 0.03
    }
    bias_filler {
      type: "constant"
      value: 0.2
    }
  }
}
layer {
  name: "inception_3a/relu_3x3"
  type: "ReLU"
  bottom: "inception_3a/3x3"
  top: "inception_3a/3x3"
}
layer {
  name: "inception_3a/5x5_reduce"
  type: "Convolution"
  bottom: "pool2/3x3_s2"
  top: "inception_3a/5x5_reduce"
  param {
    lr_mult: 1
    decay_mult: 1
  }
  param {
    lr_mult: 2
    decay_mult: 0
  }
  convolution_param {
    num_output: 16
    kernel_size: 1
    weight_filler {
      type: "xavier"
      std: 0.2
    }
    bias_filler {
      type: "constant"
      value: 0.2
    }
  }
}
layer {
  name: "inception_3a/relu_5x5_reduce"
  type: "ReLU"
  bottom: "inception_3a/5x5_reduce"
  top: "inception_3a/5x5_reduce"
}
layer {
  name: "inception_3a/5x5"
  type: "Convolution"
  bottom: "inception_3a/5x5_reduce"
  top: "inception_3a/5x5"
  param {
    lr_mult: 1
    decay_mult: 1
  }
  param {
    lr_mult: 2
    decay_mult: 0
  }
  convolution_param {
    num_output: 32
    pad: 2
    kernel_size: 5
    weight_filler {
      type: "xavier"
      std: 0.03
    }
    bias_filler {
      type: "constant"
      value: 0.2
    }
  }
}
layer {
  name: "inception_3a/relu_5x5"
  type: "ReLU"
  bottom: "inception_3a/5x5"
  top: "inception_3a/5x5"
}
layer {
  name: "inception_3a/pool"
  type: "Pooling"
  bottom: "pool2/3x3_s2"
  top: "inception_3a/pool"
  pooling_param {
    pool: MAX
    kernel_size: 3
    stride: 1
    pad: 1
  }
}
layer {
  name: "inception_3a/pool_proj"
  type: "Convolution"
  bottom: "inception_3a/pool"
  top: "inception_3a/pool_proj"
  param {
    lr_mult: 1
    decay_mult: 1
  }
  param {
    lr_mult: 2
    decay_mult: 0
  }
  convolution_param {
    num_output: 32
    kernel_size: 1
    weight_filler {
      type: "xavier"
      std: 0.1
    }
    bias_filler {
      type: "constant"
      value: 0.2
    }
  }
}
layer {
  name: "inception_3a/relu_pool_proj"
  type: "ReLU"
  bottom: "inception_3a/pool_proj"
  top: "inception_3a/pool_proj"
}
layer {
  name: "inception_3a/output"
  type: "Concat"
  bottom: "inception_3a/1x1"
  bottom: "inception_3a/3x3"
  bottom: "inception_3a/5x5"
  bottom: "inception_3a/pool_proj"
  top: "inception_3a/output"
}
layer {
  name: "inception_3b/1x1"
  type: "Convolution"
  bottom: "inception_3a/output"
  top: "inception_3b/1x1"
  param {
    lr_mult: 1
    decay_mult: 1
  }
  param {
    lr_mult: 2
    decay_mult: 0
  }
  convolution_param {
    num_output: 128
    kernel_size: 1
    weight_filler {
      type: "xavier"
      std: 0.03
    }
    bias_filler {
      type: "constant"
      value: 0.2
    }
  }
}
layer {
  name: "inception_3b/relu_1x1"
  type: "ReLU"
  bottom: "inception_3b/1x1"
  top: "inception_3b/1x1"
}
layer {
  name: "inception_3b/3x3_reduce"
  type: "Convolution"
  bottom: "inception_3a/output"
  top: "inception_3b/3x3_reduce"
  param {
    lr_mult: 1
    decay_mult: 1
  }
  param {
    lr_mult: 2
    decay_mult: 0
  }
  convolution_param {
    num_output: 128
    kernel_size: 1
    weight_filler {
      type: "xavier"
      std: 0.09
    }
    bias_filler {
      type: "constant"
      value: 0.2
    }
  }
}
layer {
  name: "inception_3b/relu_3x3_reduce"
  type: "ReLU"
  bottom: "inception_3b/3x3_reduce"
  top: "inception_3b/3x3_reduce"
}
layer {
  name: "inception_3b/3x3"
  type: "Convolution"
  bottom: "inception_3b/3x3_reduce"
  top: "inception_3b/3x3"
  param {
    lr_mult: 1
    decay_mult: 1
  }
  param {
    lr_mult: 2
    decay_mult: 0
  }
  convolution_param {
    num_output: 192
    pad: 1
    kernel_size: 3
    weight_filler {
      type: "xavier"
      std: 0.03
    }
    bias_filler {
      type: "constant"
      value: 0.2
    }
  }
}
layer {
  name: "inception_3b/relu_3x3"
  type: "ReLU"
  bottom: "inception_3b/3x3"
  top: "inception_3b/3x3"
}
layer {
  name: "inception_3b/5x5_reduce"
  type: "Convolution"
  bottom: "inception_3a/output"
  top: "inception_3b/5x5_reduce"
  param {
    lr_mult: 1
    decay_mult: 1
  }
  param {
    lr_mult: 2
    decay_mult: 0
  }
  convolution_param {
    num_output: 32
    kernel_size: 1
    weight_filler {
      type: "xavier"
      std: 0.2
    }
    bias_filler {
      type: "constant"
      value: 0.2
    }
  }
}
layer {
  name: "inception_3b/relu_5x5_reduce"
  type: "ReLU"
  bottom: "inception_3b/5x5_reduce"
  top: "inception_3b/5x5_reduce"
}
layer {
  name: "inception_3b/5x5"
  type: "Convolution"
  bottom: "inception_3b/5x5_reduce"
  top: "inception_3b/5x5"
  param {
    lr_mult: 1
    decay_mult: 1
  }
  param {
    lr_mult: 2
    decay_mult: 0
  }
  convolution_param {
    num_output: 96
    pad: 2
    kernel_size: 5
    weight_filler {
      type: "xavier"
      std: 0.03
    }
    bias_filler {
      type: "constant"
      value: 0.2
    }
  }
}
layer {
  name: "inception_3b/relu_5x5"
  type: "ReLU"
  bottom: "inception_3b/5x5"
  top: "inception_3b/5x5"
}
layer {
  name: "inception_3b/pool"
  type: "Pooling"
  bottom: "inception_3a/output"
  top: "inception_3b/pool"
  pooling_param {
    pool: MAX
    kernel_size: 3
    stride: 1
    pad: 1
  }
}
layer {
  name: "inception_3b/pool_proj"
  type: "Convolution"
  bottom: "inception_3b/pool"
  top: "inception_3b/pool_proj"
  param {
    lr_mult: 1
    decay_mult: 1
  }
  param {
    lr_mult: 2
    decay_mult: 0
  }
  convolution_param {
    num_output: 64
    kernel_size: 1
    weight_filler {
      type: "xavier"
      std: 0.1
    }
    bias_filler {
      type: "constant"
      value: 0.2
    }
  }
}
layer {
  name: "inception_3b/relu_pool_proj"
  type: "ReLU"
  bottom: "inception_3b/pool_proj"
  top: "inception_3b/pool_proj"
}
layer {
  name: "inception_3b/output"
  type: "Concat"
  bottom: "inception_3b/1x1"
  bottom: "inception_3b/3x3"
  bottom: "inception_3b/5x5"
  bottom: "inception_3b/pool_proj"
  top: "inception_3b/output"
}
layer {
  name: "pool3/3x3_s2"
  type: "Pooling"
  bottom: "inception_3b/output"
  top: "pool3/3x3_s2"
  pooling_param {
    pool: MAX
    kernel_size: 3
    stride: 2
  }
}
layer {
  name: "inception_4a/1x1"
  type: "Convolution"
  bottom: "pool3/3x3_s2"
  top: "inception_4a/1x1"
  param {
    lr_mult: 1
    decay_mult: 1
  }
  param {
    lr_mult: 2
    decay_mult: 0
  }
  convolution_param {
    num_output: 192
    kernel_size: 1
    weight_filler {
      type: "xavier"
      std: 0.03
    }
    bias_filler {
      type: "constant"
      value: 0.2
    }
  }
}
layer {
  name: "inception_4a/relu_1x1"
  type: "ReLU"
  bottom: "inception_4a/1x1"
  top: "inception_4a/1x1"
}
layer {
  name: "inception_4a/3x3_reduce"
  type: "Convolution"
  bottom: "pool3/3x3_s2"
  top: "inception_4a/3x3_reduce"
  param {
    lr_mult: 1
    decay_mult: 1
  }
  param {
    lr_mult: 2
    decay_mult: 0
  }
  convolution_param {
    num_output: 96
    kernel_size: 1
    weight_filler {
      type: "xavier"
      std: 0.09
    }
    bias_filler {
      type: "constant"
      value: 0.2
    }
  }
}
layer {
  name: "inception_4a/relu_3x3_reduce"
  type: "ReLU"
  bottom: "inception_4a/3x3_reduce"
  top: "inception_4a/3x3_reduce"
}
layer {
  name: "inception_4a/3x3"
  type: "Convolution"
  bottom: "inception_4a/3x3_reduce"
  top: "inception_4a/3x3"
  param {
    lr_mult: 1
    decay_mult: 1
  }
  param {
    lr_mult: 2
    decay_mult: 0
  }
  convolution_param {
    num_output: 208
    pad: 1
    kernel_size: 3
    weight_filler {
      type: "xavier"
      std: 0.03
    }
    bias_filler {
      type: "constant"
      value: 0.2
    }
  }
}
layer {
  name: "inception_4a/relu_3x3"
  type: "ReLU"
  bottom: "inception_4a/3x3"
  top: "inception_4a/3x3"
}
layer {
  name: "inception_4a/5x5_reduce"
  type: "Convolution"
  bottom: "pool3/3x3_s2"
  top: "inception_4a/5x5_reduce"
  param {
    lr_mult: 1
    decay_mult: 1
  }
  param {
    lr_mult: 2
    decay_mult: 0
  }
  convolution_param {
    num_output: 16
    kernel_size: 1
    weight_filler {
      type: "xavier"
      std: 0.2
    }
    bias_filler {
      type: "constant"
      value: 0.2
    }
  }
}
layer {
  name: "inception_4a/relu_5x5_reduce"
  type: "ReLU"
  bottom: "inception_4a/5x5_reduce"
  top: "inception_4a/5x5_reduce"
}
layer {
  name: "inception_4a/5x5"
  type: "Convolution"
  bottom: "inception_4a/5x5_reduce"
  top: "inception_4a/5x5"
  param {
    lr_mult: 1
    decay_mult: 1
  }
  param {
    lr_mult: 2
    decay_mult: 0
  }
  convolution_param {
    num_output: 48
    pad: 2
    kernel_size: 5
    weight_filler {
      type: "xavier"
      std: 0.03
    }
    bias_filler {
      type: "constant"
      value: 0.2
    }
  }
}
layer {
  name: "inception_4a/relu_5x5"
  type: "ReLU"
  bottom: "inception_4a/5x5"
  top: "inception_4a/5x5"
}
layer {
  name: "inception_4a/pool"
  type: "Pooling"
  bottom: "pool3/3x3_s2"
  top: "inception_4a/pool"
  pooling_param {
    pool: MAX
    kernel_size: 3
    stride: 1
    pad: 1
  }
}
layer {
  name: "inception_4a/pool_proj"
  type: "Convolution"
  bottom: "inception_4a/pool"
  top: "inception_4a/pool_proj"
  param {
    lr_mult: 1
    decay_mult: 1
  }
  param {
    lr_mult: 2
    decay_mult: 0
  }
  convolution_param {
    num_output: 64
    kernel_size: 1
    weight_filler {
      type: "xavier"
      std: 0.1
    }
    bias_filler {
      type: "constant"
      value: 0.2
    }
  }
}
layer {
  name: "inception_4a/relu_pool_proj"
  type: "ReLU"
  bottom: "inception_4a/pool_proj"
  top: "inception_4a/pool_proj"
}
layer {
  name: "inception_4a/output"
  type: "Concat"
  bottom: "inception_4a/1x1"
  bottom: "inception_4a/3x3"
  bottom: "inception_4a/5x5"
  bottom: "inception_4a/pool_proj"
  top: "inception_4a/output"
}
layer {
  name: "loss1/ave_pool"
  type: "Pooling"
  bottom: "inception_4a/output"
  top: "loss1/ave_pool"
  pooling_param {
    pool: AVE
    kernel_size: 5
    stride: 3
  }
}
layer {
  name: "loss1/conv"
  type: "Convolution"
  bottom: "loss1/ave_pool"
  top: "loss1/conv"
  param {
    lr_mult: 1
    decay_mult: 1
  }
  param {
    lr_mult: 2
    decay_mult: 0
  }
  convolution_param {
    num_output: 128
    kernel_size: 1
    weight_filler {
      type: "xavier"
      std: 0.08
    }
    bias_filler {
      type: "constant"
      value: 0.2
    }
  }
}
layer {
  name: "loss1/relu_conv"
  type: "ReLU"
  bottom: "loss1/conv"
  top: "loss1/conv"
}
layer {
  name: "loss1/fc"
  type: "InnerProduct"
  bottom: "loss1/conv"
  top: "loss1/fc"
  param {
    lr_mult: 1
    decay_mult: 1
  }
  param {
    lr_mult: 2
    decay_mult: 0
  }
  inner_product_param {
    num_output: 1024
    weight_filler {
      type: "xavier"
      std: 0.02
    }
    bias_filler {
      type: "constant"
      value: 0.2
    }
  }
}
layer {
  name: "loss1/relu_fc"
  type: "ReLU"
  bottom: "loss1/fc"
  top: "loss1/fc"
}
layer {
  name: "loss1/drop_fc"
  type: "Dropout"
  bottom: "loss1/fc"
  top: "loss1/fc"
  dropout_param {
    dropout_ratio: 0.7
  }
}
layer {
  name: "loss1/classifier_plantvillage"
  type: "InnerProduct"
  bottom: "loss1/fc"
  top: "loss1/classifier_plantvillage"
  param {
    lr_mult: 1
    decay_mult: 1
  }
  param {
    lr_mult: 2
    decay_mult: 0
  }
  inner_product_param {
    num_output: 38
    weight_filler {
      type: "xavier"
      std: 0.0009765625
    }
    bias_filler {
      type: "constant"
      value: 0
    }
  }
}
layer {
  name: "inception_4b/1x1"
  type: "Convolution"
  bottom: "inception_4a/output"
  top: "inception_4b/1x1"
  param {
    lr_mult: 1
    decay_mult: 1
  }
  param {
    lr_mult: 2
    decay_mult: 0
  }
  convolution_param {
    num_output: 160
    kernel_size: 1
    weight_filler {
      type: "xavier"
      std: 0.03
    }
    bias_filler {
      type: "constant"
      value: 0.2
    }
  }
}
layer {
  name: "inception_4b/relu_1x1"
  type: "ReLU"
  bottom: "inception_4b/1x1"
  top: "inception_4b/1x1"
}
layer {
  name: "inception_4b/3x3_reduce"
  type: "Convolution"
  bottom: "inception_4a/output"
  top: "inception_4b/3x3_reduce"
  param {
    lr_mult: 1
    decay_mult: 1
  }
  param {
    lr_mult: 2
    decay_mult: 0
  }
  convolution_param {
    num_output: 112
    kernel_size: 1
    weight_filler {
      type: "xavier"
      std: 0.09
    }
    bias_filler {
      type: "constant"
      value: 0.2
    }
  }
}
layer {
  name: "inception_4b/relu_3x3_reduce"
  type: "ReLU"
  bottom: "inception_4b/3x3_reduce"
  top: "inception_4b/3x3_reduce"
}
layer {
  name: "inception_4b/3x3"
  type: "Convolution"
  bottom: "inception_4b/3x3_reduce"
  top: "inception_4b/3x3"
  param {
    lr_mult: 1
    decay_mult: 1
  }
  param {
    lr_mult: 2
    decay_mult: 0
  }
  convolution_param {
    num_output: 224
    pad: 1
    kernel_size: 3
    weight_filler {
      type: "xavier"
      std: 0.03
    }
    bias_filler {
      type: "constant"
      value: 0.2
    }
  }
}
layer {
  name: "inception_4b/relu_3x3"
  type: "ReLU"
  bottom: "inception_4b/3x3"
  top: "inception_4b/3x3"
}
layer {
  name: "inception_4b/5x5_reduce"
  type: "Convolution"
  bottom: "inception_4a/output"
  top: "inception_4b/5x5_reduce"
  param {
    lr_mult: 1
    decay_mult: 1
  }
  param {
    lr_mult: 2
    decay_mult: 0
  }
  convolution_param {
    num_output: 24
    kernel_size: 1
    weight_filler {
      type: "xavier"
      std: 0.2
    }
    bias_filler {
      type: "constant"
      value: 0.2
    }
  }
}
layer {
  name: "inception_4b/relu_5x5_reduce"
  type: "ReLU"
  bottom: "inception_4b/5x5_reduce"
  top: "inception_4b/5x5_reduce"
}
layer {
  name: "inception_4b/5x5"
  type: "Convolution"
  bottom: "inception_4b/5x5_reduce"
  top: "inception_4b/5x5"
  param {
    lr_mult: 1
    decay_mult: 1
  }
  param {
    lr_mult: 2
    decay_mult: 0
  }
  convolution_param {
    num_output: 64
    pad: 2
    kernel_size: 5
    weight_filler {
      type: "xavier"
      std: 0.03
    }
    bias_filler {
      type: "constant"
      value: 0.2
    }
  }
}
layer {
  name: "inception_4b/relu_5x5"
  type: "ReLU"
  bottom: "inception_4b/5x5"
  top: "inception_4b/5x5"
}
layer {
  name: "inception_4b/pool"
  type: "Pooling"
  bottom: "inception_4a/output"
  top: "inception_4b/pool"
  pooling_param {
    pool: MAX
    kernel_size: 3
    stride: 1
    pad: 1
  }
}
layer {
  name: "inception_4b/pool_proj"
  type: "Convolution"
  bottom: "inception_4b/pool"
  top: "inception_4b/pool_proj"
  param {
    lr_mult: 1
    decay_mult: 1
  }
  param {
    lr_mult: 2
    decay_mult: 0
  }
  convolution_param {
    num_output: 64
    kernel_size: 1
    weight_filler {
      type: "xavier"
      std: 0.1
    }
    bias_filler {
      type: "constant"
      value: 0.2
    }
  }
}
layer {
  name: "inception_4b/relu_pool_proj"
  type: "ReLU"
  bottom: "inception_4b/pool_proj"
  top: "inception_4b/pool_proj"
}
layer {
  name: "inception_4b/output"
  type: "Concat"
  bottom: "inception_4b/1x1"
  bottom: "inception_4b/3x3"
  bottom: "inception_4b/5x5"
  bottom: "inception_4b/pool_proj"
  top: "inception_4b/output"
}
layer {
  name: "inception_4c/1x1"
  type: "Convolution"
  bottom: "inception_4b/output"
  top: "inception_4c/1x1"
  param {
    lr_mult: 1
    decay_mult: 1
  }
  param {
    lr_mult: 2
    decay_mult: 0
  }
  convolution_param {
    num_output: 128
    kernel_size: 1
    weight_filler {
      type: "xavier"
      std: 0.03
    }
    bias_filler {
      type: "constant"
      value: 0.2
    }
  }
}
layer {
  name: "inception_4c/relu_1x1"
  type: "ReLU"
  bottom: "inception_4c/1x1"
  top: "inception_4c/1x1"
}
layer {
  name: "inception_4c/3x3_reduce"
  type: "Convolution"
  bottom: "inception_4b/output"
  top: "inception_4c/3x3_reduce"
  param {
    lr_mult: 1
    decay_mult: 1
  }
  param {
    lr_mult: 2
    decay_mult: 0
  }
  convolution_param {
    num_output: 128
    kernel_size: 1
    weight_filler {
      type: "xavier"
      std: 0.09
    }
    bias_filler {
      type: "constant"
      value: 0.2
    }
  }
}
layer {
  name: "inception_4c/relu_3x3_reduce"
  type: "ReLU"
  bottom: "inception_4c/3x3_reduce"
  top: "inception_4c/3x3_reduce"
}
layer {
  name: "inception_4c/3x3"
  type: "Convolution"
  bottom: "inception_4c/3x3_reduce"
  top: "inception_4c/3x3"
  param {
    lr_mult: 1
    decay_mult: 1
  }
  param {
    lr_mult: 2
    decay_mult: 0
  }
  convolution_param {
    num_output: 256
    pad: 1
    kernel_size: 3
    weight_filler {
      type: "xavier"
      std: 0.03
    }
    bias_filler {
      type: "constant"
      value: 0.2
    }
  }
}
layer {
  name: "inception_4c/relu_3x3"
  type: "ReLU"
  bottom: "inception_4c/3x3"
  top: "inception_4c/3x3"
}
layer {
  name: "inception_4c/5x5_reduce"
  type: "Convolution"
  bottom: "inception_4b/output"
  top: "inception_4c/5x5_reduce"
  param {
    lr_mult: 1
    decay_mult: 1
  }
  param {
    lr_mult: 2
    decay_mult: 0
  }
  convolution_param {
    num_output: 24
    kernel_size: 1
    weight_filler {
      type: "xavier"
      std: 0.2
    }
    bias_filler {
      type: "constant"
      value: 0.2
    }
  }
}
layer {
  name: "inception_4c/relu_5x5_reduce"
  type: "ReLU"
  bottom: "inception_4c/5x5_reduce"
  top: "inception_4c/5x5_reduce"
}
layer {
  name: "inception_4c/5x5"
  type: "Convolution"
  bottom: "inception_4c/5x5_reduce"
  top: "inception_4c/5x5"
  param {
    lr_mult: 1
    decay_mult: 1
  }
  param {
    lr_mult: 2
    decay_mult: 0
  }
  convolution_param {
    num_output: 64
    pad: 2
    kernel_size: 5
    weight_filler {
      type: "xavier"
      std: 0.03
    }
    bias_filler {
      type: "constant"
      value: 0.2
    }
  }
}
layer {
  name: "inception_4c/relu_5x5"
  type: "ReLU"
  bottom: "inception_4c/5x5"
  top: "inception_4c/5x5"
}
layer {
  name: "inception_4c/pool"
  type: "Pooling"
  bottom: "inception_4b/output"
  top: "inception_4c/pool"
  pooling_param {
    pool: MAX
    kernel_size: 3
    stride: 1
    pad: 1
  }
}
layer {
  name: "inception_4c/pool_proj"
  type: "Convolution"
  bottom: "inception_4c/pool"
  top: "inception_4c/pool_proj"
  param {
    lr_mult: 1
    decay_mult: 1
  }
  param {
    lr_mult: 2
    decay_mult: 0
  }
  convolution_param {
    num_output: 64
    kernel_size: 1
    weight_filler {
      type: "xavier"
      std: 0.1
    }
    bias_filler {
      type: "constant"
      value: 0.2
    }
  }
}
layer {
  name: "inception_4c/relu_pool_proj"
  type: "ReLU"
  bottom: "inception_4c/pool_proj"
  top: "inception_4c/pool_proj"
}
layer {
  name: "inception_4c/output"
  type: "Concat"
  bottom: "inception_4c/1x1"
  bottom: "inception_4c/3x3"
  bottom: "inception_4c/5x5"
  bottom: "inception_4c/pool_proj"
  top: "inception_4c/output"
}
layer {
  name: "inception_4d/1x1"
  type: "Convolution"
  bottom: "inception_4c/output"
  top: "inception_4d/1x1"
  param {
    lr_mult: 1
    decay_mult: 1
  }
  param {
    lr_mult: 2
    decay_mult: 0
  }
  convolution_param {
    num_output: 112
    kernel_size: 1
    weight_filler {
      type: "xavier"
      std: 0.03
    }
    bias_filler {
      type: "constant"
      value: 0.2
    }
  }
}
layer {
  name: "inception_4d/relu_1x1"
  type: "ReLU"
  bottom: "inception_4d/1x1"
  top: "inception_4d/1x1"
}
layer {
  name: "inception_4d/3x3_reduce"
  type: "Convolution"
  bottom: "inception_4c/output"
  top: "inception_4d/3x3_reduce"
  param {
    lr_mult: 1
    decay_mult: 1
  }
  param {
    lr_mult: 2
    decay_mult: 0
  }
  convolution_param {
    num_output: 144
    kernel_size: 1
    weight_filler {
      type: "xavier"
      std: 0.09
    }
    bias_filler {
      type: "constant"
      value: 0.2
    }
  }
}
layer {
  name: "inception_4d/relu_3x3_reduce"
  type: "ReLU"
  bottom: "inception_4d/3x3_reduce"
  top: "inception_4d/3x3_reduce"
}
layer {
  name: "inception_4d/3x3"
  type: "Convolution"
  bottom: "inception_4d/3x3_reduce"
  top: "inception_4d/3x3"
  param {
    lr_mult: 1
    decay_mult: 1
  }
  param {
    lr_mult: 2
    decay_mult: 0
  }
  convolution_param {
    num_output: 288
    pad: 1
    kernel_size: 3
    weight_filler {
      type: "xavier"
      std: 0.03
    }
    bias_filler {
      type: "constant"
      value: 0.2
    }
  }
}
layer {
  name: "inception_4d/relu_3x3"
  type: "ReLU"
  bottom: "inception_4d/3x3"
  top: "inception_4d/3x3"
}
layer {
  name: "inception_4d/5x5_reduce"
  type: "Convolution"
  bottom: "inception_4c/output"
  top: "inception_4d/5x5_reduce"
  param {
    lr_mult: 1
    decay_mult: 1
  }
  param {
    lr_mult: 2
    decay_mult: 0
  }
  convolution_param {
    num_output: 32
    kernel_size: 1
    weight_filler {
      type: "xavier"
      std: 0.2
    }
    bias_filler {
      type: "constant"
      value: 0.2
    }
  }
}
layer {
  name: "inception_4d/relu_5x5_reduce"
  type: "ReLU"
  bottom: "inception_4d/5x5_reduce"
  top: "inception_4d/5x5_reduce"
}
layer {
  name: "inception_4d/5x5"
  type: "Convolution"
  bottom: "inception_4d/5x5_reduce"
  top: "inception_4d/5x5"
  param {
    lr_mult: 1
    decay_mult: 1
  }
  param {
    lr_mult: 2
    decay_mult: 0
  }
  convolution_param {
    num_output: 64
    pad: 2
    kernel_size: 5
    weight_filler {
      type: "xavier"
      std: 0.03
    }
    bias_filler {
      type: "constant"
      value: 0.2
    }
  }
}
layer {
  name: "inception_4d/relu_5x5"
  type: "ReLU"
  bottom: "inception_4d/5x5"
  top: "inception_4d/5x5"
}
layer {
  name: "inception_4d/pool"
  type: "Pooling"
  bottom: "inception_4c/output"
  top: "inception_4d/pool"
  pooling_param {
    pool: MAX
    kernel_size: 3
    stride: 1
    pad: 1
  }
}
layer {
  name: "inception_4d/pool_proj"
  type: "Convolution"
  bottom: "inception_4d/pool"
  top: "inception_4d/pool_proj"
  param {
    lr_mult: 1
    decay_mult: 1
  }
  param {
    lr_mult: 2
    decay_mult: 0
  }
  convolution_param {
    num_output: 64
    kernel_size: 1
    weight_filler {
      type: "xavier"
      std: 0.1
    }
    bias_filler {
      type: "constant"
      value: 0.2
    }
  }
}
layer {
  name: "inception_4d/relu_pool_proj"
  type: "ReLU"
  bottom: "inception_4d/pool_proj"
  top: "inception_4d/pool_proj"
}
layer {
  name: "inception_4d/output"
  type: "Concat"
  bottom: "inception_4d/1x1"
  bottom: "inception_4d/3x3"
  bottom: "inception_4d/5x5"
  bottom: "inception_4d/pool_proj"
  top: "inception_4d/output"
}
layer {
  name: "loss2/ave_pool"
  type: "Pooling"
  bottom: "inception_4d/output"
  top: "loss2/ave_pool"
  pooling_param {
    pool: AVE
    kernel_size: 5
    stride: 3
  }
}
layer {
  name: "loss2/conv"
  type: "Convolution"
  bottom: "loss2/ave_pool"
  top: "loss2/conv"
  param {
    lr_mult: 1
    decay_mult: 1
  }
  param {
    lr_mult: 2
    decay_mult: 0
  }
  convolution_param {
    num_output: 128
    kernel_size: 1
    weight_filler {
      type: "xavier"
      std: 0.08
    }
    bias_filler {
      type: "constant"
      value: 0.2
    }
  }
}
layer {
  name: "loss2/relu_conv"
  type: "ReLU"
  bottom: "loss2/conv"
  top: "loss2/conv"
}
layer {
  name: "loss2/fc"
  type: "InnerProduct"
  bottom: "loss2/conv"
  top: "loss2/fc"
  param {
    lr_mult: 1
    decay_mult: 1
  }
  param {
    lr_mult: 2
    decay_mult: 0
  }
  inner_product_param {
    num_output: 1024
    weight_filler {
      type: "xavier"
      std: 0.02
    }
    bias_filler {
      type: "constant"
      value: 0.2
    }
  }
}
layer {
  name: "loss2/relu_fc"
  type: "ReLU"
  bottom: "loss2/fc"
  top: "loss2/fc"
}
layer {
  name: "loss2/drop_fc"
  type: "Dropout"
  bottom: "loss2/fc"
  top: "loss2/fc"
  dropout_param {
    dropout_ratio: 0.7
  }
}
layer {
  name: "loss2/classifier_plantvillage"
  type: "InnerProduct"
  bottom: "loss2/fc"
  top: "loss2/classifier_plantvillage"
  param {
    lr_mult: 1
    decay_mult: 1
  }
  param {
    lr_mult: 2
    decay_mult: 0
  }
  inner_product_param {
    num_output: 38
    weight_filler {
      type: "xavier"
      std: 0.0009765625
    }
    bias_filler {
      type: "constant"
      value: 0
    }
  }
}
layer {
  name: "inception_4e/1x1"
  type: "Convolution"
  bottom: "inception_4d/output"
  top: "inception_4e/1x1"
  param {
    lr_mult: 1
    decay_mult: 1
  }
  param {
    lr_mult: 2
    decay_mult: 0
  }
  convolution_param {
    num_output: 256
    kernel_size: 1
    weight_filler {
      type: "xavier"
      std: 0.03
    }
    bias_filler {
      type: "constant"
      value: 0.2
    }
  }
}
layer {
  name: "inception_4e/relu_1x1"
  type: "ReLU"
  bottom: "inception_4e/1x1"
  top: "inception_4e/1x1"
}
layer {
  name: "inception_4e/3x3_reduce"
  type: "Convolution"
  bottom: "inception_4d/output"
  top: "inception_4e/3x3_reduce"
  param {
    lr_mult: 1
    decay_mult: 1
  }
  param {
    lr_mult: 2
    decay_mult: 0
  }
  convolution_param {
    num_output: 160
    kernel_size: 1
    weight_filler {
      type: "xavier"
      std: 0.09
    }
    bias_filler {
      type: "constant"
      value: 0.2
    }
  }
}
layer {
  name: "inception_4e/relu_3x3_reduce"
  type: "ReLU"
  bottom: "inception_4e/3x3_reduce"
  top: "inception_4e/3x3_reduce"
}
layer {
  name: "inception_4e/3x3"
  type: "Convolution"
  bottom: "inception_4e/3x3_reduce"
  top: "inception_4e/3x3"
  param {
    lr_mult: 1
    decay_mult: 1
  }
  param {
    lr_mult: 2
    decay_mult: 0
  }
  convolution_param {
    num_output: 320
    pad: 1
    kernel_size: 3
    weight_filler {
      type: "xavier"
      std: 0.03
    }
    bias_filler {
      type: "constant"
      value: 0.2
    }
  }
}
layer {
  name: "inception_4e/relu_3x3"
  type: "ReLU"
  bottom: "inception_4e/3x3"
  top: "inception_4e/3x3"
}
layer {
  name: "inception_4e/5x5_reduce"
  type: "Convolution"
  bottom: "inception_4d/output"
  top: "inception_4e/5x5_reduce"
  param {
    lr_mult: 1
    decay_mult: 1
  }
  param {
    lr_mult: 2
    decay_mult: 0
  }
  convolution_param {
    num_output: 32
    kernel_size: 1
    weight_filler {
      type: "xavier"
      std: 0.2
    }
    bias_filler {
      type: "constant"
      value: 0.2
    }
  }
}
layer {
  name: "inception_4e/relu_5x5_reduce"
  type: "ReLU"
  bottom: "inception_4e/5x5_reduce"
  top: "inception_4e/5x5_reduce"
}
layer {
  name: "inception_4e/5x5"
  type: "Convolution"
  bottom: "inception_4e/5x5_reduce"
  top: "inception_4e/
I0403 15:40:50.138639 20162 layer_factory.hpp:77] Creating layer data
I0403 15:40:50.139230 20162 net.cpp:91] Creating Layer data
I0403 15:40:50.139261 20162 net.cpp:399] data -> data
I0403 15:40:50.139312 20162 net.cpp:399] data -> label
I0403 15:40:50.139348 20162 data_transformer.cpp:25] Loading mean file from: /home/mohanty/data/final_dataset/lmdb/grayscale-40-60/mean.binaryproto
I0403 15:40:50.142376 20165 db_lmdb.cpp:38] Opened lmdb /home/mohanty/data/final_dataset/lmdb/grayscale-40-60/test_db
I0403 15:40:50.152906 20162 data_layer.cpp:41] output data size: 24,3,224,224
I0403 15:40:50.183655 20162 net.cpp:141] Setting up data
I0403 15:40:50.183765 20162 net.cpp:148] Top shape: 24 3 224 224 (3612672)
I0403 15:40:50.183787 20162 net.cpp:148] Top shape: 24 (24)
I0403 15:40:50.183804 20162 net.cpp:156] Memory required for data: 14450784
I0403 15:40:50.183831 20162 layer_factory.hpp:77] Creating layer label_data_1_split
I0403 15:40:50.183859 20162 net.cpp:91] Creating Layer label_data_1_split
I0403 15:40:50.183877 20162 net.cpp:425] label_data_1_split <- label
I0403 15:40:50.183912 20162 net.cpp:399] label_data_1_split -> label_data_1_split_0
I0403 15:40:50.183941 20162 net.cpp:399] label_data_1_split -> label_data_1_split_1
I0403 15:40:50.183979 20162 net.cpp:399] label_data_1_split -> label_data_1_split_2
I0403 15:40:50.184005 20162 net.cpp:399] label_data_1_split -> label_data_1_split_3
I0403 15:40:50.184026 20162 net.cpp:399] label_data_1_split -> label_data_1_split_4
I0403 15:40:50.184046 20162 net.cpp:399] label_data_1_split -> label_data_1_split_5
I0403 15:40:50.184067 20162 net.cpp:399] label_data_1_split -> label_data_1_split_6
I0403 15:40:50.184088 20162 net.cpp:399] label_data_1_split -> label_data_1_split_7
I0403 15:40:50.184109 20162 net.cpp:399] label_data_1_split -> label_data_1_split_8
I0403 15:40:50.184130 20162 net.cpp:399] label_data_1_split -> label_data_1_split_9
I0403 15:40:50.184253 20162 net.cpp:141] Setting up label_data_1_split
I0403 15:40:50.184278 20162 net.cpp:148] Top shape: 24 (24)
I0403 15:40:50.184296 20162 net.cpp:148] Top shape: 24 (24)
I0403 15:40:50.184314 20162 net.cpp:148] Top shape: 24 (24)
I0403 15:40:50.184329 20162 net.cpp:148] Top shape: 24 (24)
I0403 15:40:50.184345 20162 net.cpp:148] Top shape: 24 (24)
I0403 15:40:50.184361 20162 net.cpp:148] Top shape: 24 (24)
I0403 15:40:50.184377 20162 net.cpp:148] Top shape: 24 (24)
I0403 15:40:50.184393 20162 net.cpp:148] Top shape: 24 (24)
I0403 15:40:50.184409 20162 net.cpp:148] Top shape: 24 (24)
I0403 15:40:50.184427 20162 net.cpp:148] Top shape: 24 (24)
I0403 15:40:50.184471 20162 net.cpp:156] Memory required for data: 14451744
I0403 15:40:50.184489 20162 layer_factory.hpp:77] Creating layer conv1/7x7_s2
I0403 15:40:50.184521 20162 net.cpp:91] Creating Layer conv1/7x7_s2
I0403 15:40:50.184540 20162 net.cpp:425] conv1/7x7_s2 <- data
I0403 15:40:50.184561 20162 net.cpp:399] conv1/7x7_s2 -> conv1/7x7_s2
I0403 15:40:50.333952 20162 net.cpp:141] Setting up conv1/7x7_s2
I0403 15:40:50.334048 20162 net.cpp:148] Top shape: 24 64 112 112 (19267584)
I0403 15:40:50.334069 20162 net.cpp:156] Memory required for data: 91522080
I0403 15:40:50.334101 20162 layer_factory.hpp:77] Creating layer conv1/relu_7x7
I0403 15:40:50.334130 20162 net.cpp:91] Creating Layer conv1/relu_7x7
I0403 15:40:50.334149 20162 net.cpp:425] conv1/relu_7x7 <- conv1/7x7_s2
I0403 15:40:50.334169 20162 net.cpp:386] conv1/relu_7x7 -> conv1/7x7_s2 (in-place)
I0403 15:40:50.334439 20162 net.cpp:141] Setting up conv1/relu_7x7
I0403 15:40:50.334468 20162 net.cpp:148] Top shape: 24 64 112 112 (19267584)
I0403 15:40:50.334486 20162 net.cpp:156] Memory required for data: 168592416
I0403 15:40:50.334501 20162 layer_factory.hpp:77] Creating layer pool1/3x3_s2
I0403 15:40:50.334528 20162 net.cpp:91] Creating Layer pool1/3x3_s2
I0403 15:40:50.334547 20162 net.cpp:425] pool1/3x3_s2 <- conv1/7x7_s2
I0403 15:40:50.334565 20162 net.cpp:399] pool1/3x3_s2 -> pool1/3x3_s2
I0403 15:40:50.334642 20162 net.cpp:141] Setting up pool1/3x3_s2
I0403 15:40:50.334667 20162 net.cpp:148] Top shape: 24 64 56 56 (4816896)
I0403 15:40:50.334683 20162 net.cpp:156] Memory required for data: 187860000
I0403 15:40:50.334698 20162 layer_factory.hpp:77] Creating layer pool1/norm1
I0403 15:40:50.334724 20162 net.cpp:91] Creating Layer pool1/norm1
I0403 15:40:50.334743 20162 net.cpp:425] pool1/norm1 <- pool1/3x3_s2
I0403 15:40:50.334763 20162 net.cpp:399] pool1/norm1 -> pool1/norm1
I0403 15:40:50.335062 20162 net.cpp:141] Setting up pool1/norm1
I0403 15:40:50.335091 20162 net.cpp:148] Top shape: 24 64 56 56 (4816896)
I0403 15:40:50.335108 20162 net.cpp:156] Memory required for data: 207127584
I0403 15:40:50.335124 20162 layer_factory.hpp:77] Creating layer conv2/3x3_reduce
I0403 15:40:50.335150 20162 net.cpp:91] Creating Layer conv2/3x3_reduce
I0403 15:40:50.335167 20162 net.cpp:425] conv2/3x3_reduce <- pool1/norm1
I0403 15:40:50.335187 20162 net.cpp:399] conv2/3x3_reduce -> conv2/3x3_reduce
I0403 15:40:50.336609 20162 net.cpp:141] Setting up conv2/3x3_reduce
I0403 15:40:50.336640 20162 net.cpp:148] Top shape: 24 64 56 56 (4816896)
I0403 15:40:50.336658 20162 net.cpp:156] Memory required for data: 226395168
I0403 15:40:50.336680 20162 layer_factory.hpp:77] Creating layer conv2/relu_3x3_reduce
I0403 15:40:50.336700 20162 net.cpp:91] Creating Layer conv2/relu_3x3_reduce
I0403 15:40:50.336716 20162 net.cpp:425] conv2/relu_3x3_reduce <- conv2/3x3_reduce
I0403 15:40:50.336735 20162 net.cpp:386] conv2/relu_3x3_reduce -> conv2/3x3_reduce (in-place)
I0403 15:40:50.337004 20162 net.cpp:141] Setting up conv2/relu_3x3_reduce
I0403 15:40:50.337033 20162 net.cpp:148] Top shape: 24 64 56 56 (4816896)
I0403 15:40:50.337049 20162 net.cpp:156] Memory required for data: 245662752
I0403 15:40:50.337064 20162 layer_factory.hpp:77] Creating layer conv2/3x3
I0403 15:40:50.337087 20162 net.cpp:91] Creating Layer conv2/3x3
I0403 15:40:50.337105 20162 net.cpp:425] conv2/3x3 <- conv2/3x3_reduce
I0403 15:40:50.337126 20162 net.cpp:399] conv2/3x3 -> conv2/3x3
I0403 15:40:50.339586 20162 net.cpp:141] Setting up conv2/3x3
I0403 15:40:50.339617 20162 net.cpp:148] Top shape: 24 192 56 56 (14450688)
I0403 15:40:50.339635 20162 net.cpp:156] Memory required for data: 303465504
I0403 15:40:50.339658 20162 layer_factory.hpp:77] Creating layer conv2/relu_3x3
I0403 15:40:50.339678 20162 net.cpp:91] Creating Layer conv2/relu_3x3
I0403 15:40:50.339694 20162 net.cpp:425] conv2/relu_3x3 <- conv2/3x3
I0403 15:40:50.339711 20162 net.cpp:386] conv2/relu_3x3 -> conv2/3x3 (in-place)
I0403 15:40:50.339879 20162 net.cpp:141] Setting up conv2/relu_3x3
I0403 15:40:50.339905 20162 net.cpp:148] Top shape: 24 192 56 56 (14450688)
I0403 15:40:50.339941 20162 net.cpp:156] Memory required for data: 361268256
I0403 15:40:50.339963 20162 layer_factory.hpp:77] Creating layer conv2/norm2
I0403 15:40:50.339984 20162 net.cpp:91] Creating Layer conv2/norm2
I0403 15:40:50.340001 20162 net.cpp:425] conv2/norm2 <- conv2/3x3
I0403 15:40:50.340020 20162 net.cpp:399] conv2/norm2 -> conv2/norm2
I0403 15:40:50.340324 20162 net.cpp:141] Setting up conv2/norm2
I0403 15:40:50.340354 20162 net.cpp:148] Top shape: 24 192 56 56 (14450688)
I0403 15:40:50.340373 20162 net.cpp:156] Memory required for data: 419071008
I0403 15:40:50.340387 20162 layer_factory.hpp:77] Creating layer pool2/3x3_s2
I0403 15:40:50.340407 20162 net.cpp:91] Creating Layer pool2/3x3_s2
I0403 15:40:50.340423 20162 net.cpp:425] pool2/3x3_s2 <- conv2/norm2
I0403 15:40:50.340443 20162 net.cpp:399] pool2/3x3_s2 -> pool2/3x3_s2
I0403 15:40:50.340497 20162 net.cpp:141] Setting up pool2/3x3_s2
I0403 15:40:50.340522 20162 net.cpp:148] Top shape: 24 192 28 28 (3612672)
I0403 15:40:50.340536 20162 net.cpp:156] Memory required for data: 433521696
I0403 15:40:50.340553 20162 layer_factory.hpp:77] Creating layer pool2/3x3_s2_pool2/3x3_s2_0_split
I0403 15:40:50.340571 20162 net.cpp:91] Creating Layer pool2/3x3_s2_pool2/3x3_s2_0_split
I0403 15:40:50.340589 20162 net.cpp:425] pool2/3x3_s2_pool2/3x3_s2_0_split <- pool2/3x3_s2
I0403 15:40:50.340606 20162 net.cpp:399] pool2/3x3_s2_pool2/3x3_s2_0_split -> pool2/3x3_s2_pool2/3x3_s2_0_split_0
I0403 15:40:50.340627 20162 net.cpp:399] pool2/3x3_s2_pool2/3x3_s2_0_split -> pool2/3x3_s2_pool2/3x3_s2_0_split_1
I0403 15:40:50.340648 20162 net.cpp:399] pool2/3x3_s2_pool2/3x3_s2_0_split -> pool2/3x3_s2_pool2/3x3_s2_0_split_2
I0403 15:40:50.340669 20162 net.cpp:399] pool2/3x3_s2_pool2/3x3_s2_0_split -> pool2/3x3_s2_pool2/3x3_s2_0_split_3
I0403 15:40:50.340737 20162 net.cpp:141] Setting up pool2/3x3_s2_pool2/3x3_s2_0_split
I0403 15:40:50.340761 20162 net.cpp:148] Top shape: 24 192 28 28 (3612672)
I0403 15:40:50.340780 20162 net.cpp:148] Top shape: 24 192 28 28 (3612672)
I0403 15:40:50.340796 20162 net.cpp:148] Top shape: 24 192 28 28 (3612672)
I0403 15:40:50.340812 20162 net.cpp:148] Top shape: 24 192 28 28 (3612672)
I0403 15:40:50.340827 20162 net.cpp:156] Memory required for data: 491324448
I0403 15:40:50.340842 20162 layer_factory.hpp:77] Creating layer inception_3a/1x1
I0403 15:40:50.340864 20162 net.cpp:91] Creating Layer inception_3a/1x1
I0403 15:40:50.340883 20162 net.cpp:425] inception_3a/1x1 <- pool2/3x3_s2_pool2/3x3_s2_0_split_0
I0403 15:40:50.340903 20162 net.cpp:399] inception_3a/1x1 -> inception_3a/1x1
I0403 15:40:50.342543 20162 net.cpp:141] Setting up inception_3a/1x1
I0403 15:40:50.342574 20162 net.cpp:148] Top shape: 24 64 28 28 (1204224)
I0403 15:40:50.342592 20162 net.cpp:156] Memory required for data: 496141344
I0403 15:40:50.342612 20162 layer_factory.hpp:77] Creating layer inception_3a/relu_1x1
I0403 15:40:50.342633 20162 net.cpp:91] Creating Layer inception_3a/relu_1x1
I0403 15:40:50.342651 20162 net.cpp:425] inception_3a/relu_1x1 <- inception_3a/1x1
I0403 15:40:50.342669 20162 net.cpp:386] inception_3a/relu_1x1 -> inception_3a/1x1 (in-place)
I0403 15:40:50.342856 20162 net.cpp:141] Setting up inception_3a/relu_1x1
I0403 15:40:50.342882 20162 net.cpp:148] Top shape: 24 64 28 28 (1204224)
I0403 15:40:50.342900 20162 net.cpp:156] Memory required for data: 500958240
I0403 15:40:50.342916 20162 layer_factory.hpp:77] Creating layer inception_3a/3x3_reduce
I0403 15:40:50.342941 20162 net.cpp:91] Creating Layer inception_3a/3x3_reduce
I0403 15:40:50.342964 20162 net.cpp:425] inception_3a/3x3_reduce <- pool2/3x3_s2_pool2/3x3_s2_0_split_1
I0403 15:40:50.342986 20162 net.cpp:399] inception_3a/3x3_reduce -> inception_3a/3x3_reduce
I0403 15:40:50.344836 20162 net.cpp:141] Setting up inception_3a/3x3_reduce
I0403 15:40:50.344869 20162 net.cpp:148] Top shape: 24 96 28 28 (1806336)
I0403 15:40:50.344885 20162 net.cpp:156] Memory required for data: 508183584
I0403 15:40:50.344908 20162 layer_factory.hpp:77] Creating layer inception_3a/relu_3x3_reduce
I0403 15:40:50.344949 20162 net.cpp:91] Creating Layer inception_3a/relu_3x3_reduce
I0403 15:40:50.344974 20162 net.cpp:425] inception_3a/relu_3x3_reduce <- inception_3a/3x3_reduce
I0403 15:40:50.344995 20162 net.cpp:386] inception_3a/relu_3x3_reduce -> inception_3a/3x3_reduce (in-place)
I0403 15:40:50.345185 20162 net.cpp:141] Setting up inception_3a/relu_3x3_reduce
I0403 15:40:50.345212 20162 net.cpp:148] Top shape: 24 96 28 28 (1806336)
I0403 15:40:50.345228 20162 net.cpp:156] Memory required for data: 515408928
I0403 15:40:50.345244 20162 layer_factory.hpp:77] Creating layer inception_3a/3x3
I0403 15:40:50.345270 20162 net.cpp:91] Creating Layer inception_3a/3x3
I0403 15:40:50.345289 20162 net.cpp:425] inception_3a/3x3 <- inception_3a/3x3_reduce
I0403 15:40:50.345314 20162 net.cpp:399] inception_3a/3x3 -> inception_3a/3x3
I0403 15:40:50.347060 20162 net.cpp:141] Setting up inception_3a/3x3
I0403 15:40:50.347090 20162 net.cpp:148] Top shape: 24 128 28 28 (2408448)
I0403 15:40:50.347107 20162 net.cpp:156] Memory required for data: 525042720
I0403 15:40:50.347127 20162 layer_factory.hpp:77] Creating layer inception_3a/relu_3x3
I0403 15:40:50.347149 20162 net.cpp:91] Creating Layer inception_3a/relu_3x3
I0403 15:40:50.347167 20162 net.cpp:425] inception_3a/relu_3x3 <- inception_3a/3x3
I0403 15:40:50.347185 20162 net.cpp:386] inception_3a/relu_3x3 -> inception_3a/3x3 (in-place)
I0403 15:40:50.347472 20162 net.cpp:141] Setting up inception_3a/relu_3x3
I0403 15:40:50.347501 20162 net.cpp:148] Top shape: 24 128 28 28 (2408448)
I0403 15:40:50.347517 20162 net.cpp:156] Memory required for data: 534676512
I0403 15:40:50.347532 20162 layer_factory.hpp:77] Creating layer inception_3a/5x5_reduce
I0403 15:40:50.347556 20162 net.cpp:91] Creating Layer inception_3a/5x5_reduce
I0403 15:40:50.347574 20162 net.cpp:425] inception_3a/5x5_reduce <- pool2/3x3_s2_pool2/3x3_s2_0_split_2
I0403 15:40:50.347596 20162 net.cpp:399] inception_3a/5x5_reduce -> inception_3a/5x5_reduce
I0403 15:40:50.348608 20162 net.cpp:141] Setting up inception_3a/5x5_reduce
I0403 15:40:50.348639 20162 net.cpp:148] Top shape: 24 16 28 28 (301056)
I0403 15:40:50.348659 20162 net.cpp:156] Memory required for data: 535880736
I0403 15:40:50.348680 20162 layer_factory.hpp:77] Creating layer inception_3a/relu_5x5_reduce
I0403 15:40:50.348698 20162 net.cpp:91] Creating Layer inception_3a/relu_5x5_reduce
I0403 15:40:50.348716 20162 net.cpp:425] inception_3a/relu_5x5_reduce <- inception_3a/5x5_reduce
I0403 15:40:50.348734 20162 net.cpp:386] inception_3a/relu_5x5_reduce -> inception_3a/5x5_reduce (in-place)
I0403 15:40:50.349058 20162 net.cpp:141] Setting up inception_3a/relu_5x5_reduce
I0403 15:40:50.349091 20162 net.cpp:148] Top shape: 24 16 28 28 (301056)
I0403 15:40:50.349107 20162 net.cpp:156] Memory required for data: 537084960
I0403 15:40:50.349123 20162 layer_factory.hpp:77] Creating layer inception_3a/5x5
I0403 15:40:50.349146 20162 net.cpp:91] Creating Layer inception_3a/5x5
I0403 15:40:50.349165 20162 net.cpp:425] inception_3a/5x5 <- inception_3a/5x5_reduce
I0403 15:40:50.349185 20162 net.cpp:399] inception_3a/5x5 -> inception_3a/5x5
I0403 15:40:50.350251 20162 net.cpp:141] Setting up inception_3a/5x5
I0403 15:40:50.350282 20162 net.cpp:148] Top shape: 24 32 28 28 (602112)
I0403 15:40:50.350301 20162 net.cpp:156] Memory required for data: 539493408
I0403 15:40:50.350320 20162 layer_factory.hpp:77] Creating layer inception_3a/relu_5x5
I0403 15:40:50.350345 20162 net.cpp:91] Creating Layer inception_3a/relu_5x5
I0403 15:40:50.350364 20162 net.cpp:425] inception_3a/relu_5x5 <- inception_3a/5x5
I0403 15:40:50.350383 20162 net.cpp:386] inception_3a/relu_5x5 -> inception_3a/5x5 (in-place)
I0403 15:40:50.350565 20162 net.cpp:141] Setting up inception_3a/relu_5x5
I0403 15:40:50.350592 20162 net.cpp:148] Top shape: 24 32 28 28 (602112)
I0403 15:40:50.350608 20162 net.cpp:156] Memory required for data: 541901856
I0403 15:40:50.350625 20162 layer_factory.hpp:77] Creating layer inception_3a/pool
I0403 15:40:50.350646 20162 net.cpp:91] Creating Layer inception_3a/pool
I0403 15:40:50.350677 20162 net.cpp:425] inception_3a/pool <- pool2/3x3_s2_pool2/3x3_s2_0_split_3
I0403 15:40:50.350697 20162 net.cpp:399] inception_3a/pool -> inception_3a/pool
I0403 15:40:50.350761 20162 net.cpp:141] Setting up inception_3a/pool
I0403 15:40:50.350786 20162 net.cpp:148] Top shape: 24 192 28 28 (3612672)
I0403 15:40:50.350801 20162 net.cpp:156] Memory required for data: 556352544
I0403 15:40:50.350817 20162 layer_factory.hpp:77] Creating layer inception_3a/pool_proj
I0403 15:40:50.350841 20162 net.cpp:91] Creating Layer inception_3a/pool_proj
I0403 15:40:50.350860 20162 net.cpp:425] inception_3a/pool_proj <- inception_3a/pool
I0403 15:40:50.350883 20162 net.cpp:399] inception_3a/pool_proj -> inception_3a/pool_proj
I0403 15:40:50.351896 20162 net.cpp:141] Setting up inception_3a/pool_proj
I0403 15:40:50.351927 20162 net.cpp:148] Top shape: 24 32 28 28 (602112)
I0403 15:40:50.351944 20162 net.cpp:156] Memory required for data: 558760992
I0403 15:40:50.351976 20162 layer_factory.hpp:77] Creating layer inception_3a/relu_pool_proj
I0403 15:40:50.351999 20162 net.cpp:91] Creating Layer inception_3a/relu_pool_proj
I0403 15:40:50.352015 20162 net.cpp:425] inception_3a/relu_pool_proj <- inception_3a/pool_proj
I0403 15:40:50.352033 20162 net.cpp:386] inception_3a/relu_pool_proj -> inception_3a/pool_proj (in-place)
I0403 15:40:50.352324 20162 net.cpp:141] Setting up inception_3a/relu_pool_proj
I0403 15:40:50.352351 20162 net.cpp:148] Top shape: 24 32 28 28 (602112)
I0403 15:40:50.352368 20162 net.cpp:156] Memory required for data: 561169440
I0403 15:40:50.352385 20162 layer_factory.hpp:77] Creating layer inception_3a/output
I0403 15:40:50.352407 20162 net.cpp:91] Creating Layer inception_3a/output
I0403 15:40:50.352424 20162 net.cpp:425] inception_3a/output <- inception_3a/1x1
I0403 15:40:50.352442 20162 net.cpp:425] inception_3a/output <- inception_3a/3x3
I0403 15:40:50.352458 20162 net.cpp:425] inception_3a/output <- inception_3a/5x5
I0403 15:40:50.352475 20162 net.cpp:425] inception_3a/output <- inception_3a/pool_proj
I0403 15:40:50.352494 20162 net.cpp:399] inception_3a/output -> inception_3a/output
I0403 15:40:50.352545 20162 net.cpp:141] Setting up inception_3a/output
I0403 15:40:50.352571 20162 net.cpp:148] Top shape: 24 256 28 28 (4816896)
I0403 15:40:50.352586 20162 net.cpp:156] Memory required for data: 580437024
I0403 15:40:50.352602 20162 layer_factory.hpp:77] Creating layer inception_3a/output_inception_3a/output_0_split
I0403 15:40:50.352620 20162 net.cpp:91] Creating Layer inception_3a/output_inception_3a/output_0_split
I0403 15:40:50.352638 20162 net.cpp:425] inception_3a/output_inception_3a/output_0_split <- inception_3a/output
I0403 15:40:50.352659 20162 net.cpp:399] inception_3a/output_inception_3a/output_0_split -> inception_3a/output_inception_3a/output_0_split_0
I0403 15:40:50.352681 20162 net.cpp:399] inception_3a/output_inception_3a/output_0_split -> inception_3a/output_inception_3a/output_0_split_1
I0403 15:40:50.352705 20162 net.cpp:399] inception_3a/output_inception_3a/output_0_split -> inception_3a/output_inception_3a/output_0_split_2
I0403 15:40:50.352725 20162 net.cpp:399] inception_3a/output_inception_3a/output_0_split -> inception_3a/output_inception_3a/output_0_split_3
I0403 15:40:50.352808 20162 net.cpp:141] Setting up inception_3a/output_inception_3a/output_0_split
I0403 15:40:50.352835 20162 net.cpp:148] Top shape: 24 256 28 28 (4816896)
I0403 15:40:50.352854 20162 net.cpp:148] Top shape: 24 256 28 28 (4816896)
I0403 15:40:50.352870 20162 net.cpp:148] Top shape: 24 256 28 28 (4816896)
I0403 15:40:50.352887 20162 net.cpp:148] Top shape: 24 256 28 28 (4816896)
I0403 15:40:50.352902 20162 net.cpp:156] Memory required for data: 657507360
I0403 15:40:50.352917 20162 layer_factory.hpp:77] Creating layer inception_3b/1x1
I0403 15:40:50.352942 20162 net.cpp:91] Creating Layer inception_3b/1x1
I0403 15:40:50.352968 20162 net.cpp:425] inception_3b/1x1 <- inception_3a/output_inception_3a/output_0_split_0
I0403 15:40:50.352993 20162 net.cpp:399] inception_3b/1x1 -> inception_3b/1x1
I0403 15:40:50.354212 20162 net.cpp:141] Setting up inception_3b/1x1
I0403 15:40:50.354254 20162 net.cpp:148] Top shape: 24 128 28 28 (2408448)
I0403 15:40:50.354270 20162 net.cpp:156] Memory required for data: 667141152
I0403 15:40:50.354291 20162 layer_factory.hpp:77] Creating layer inception_3b/relu_1x1
I0403 15:40:50.354311 20162 net.cpp:91] Creating Layer inception_3b/relu_1x1
I0403 15:40:50.354328 20162 net.cpp:425] inception_3b/relu_1x1 <- inception_3b/1x1
I0403 15:40:50.354348 20162 net.cpp:386] inception_3b/relu_1x1 -> inception_3b/1x1 (in-place)
I0403 15:40:50.354531 20162 net.cpp:141] Setting up inception_3b/relu_1x1
I0403 15:40:50.354555 20162 net.cpp:148] Top shape: 24 128 28 28 (2408448)
I0403 15:40:50.354571 20162 net.cpp:156] Memory required for data: 676774944
I0403 15:40:50.354586 20162 layer_factory.hpp:77] Creating layer inception_3b/3x3_reduce
I0403 15:40:50.354609 20162 net.cpp:91] Creating Layer inception_3b/3x3_reduce
I0403 15:40:50.354627 20162 net.cpp:425] inception_3b/3x3_reduce <- inception_3a/output_inception_3a/output_0_split_1
I0403 15:40:50.354650 20162 net.cpp:399] inception_3b/3x3_reduce -> inception_3b/3x3_reduce
I0403 15:40:50.355816 20162 net.cpp:141] Setting up inception_3b/3x3_reduce
I0403 15:40:50.355846 20162 net.cpp:148] Top shape: 24 128 28 28 (2408448)
I0403 15:40:50.355864 20162 net.cpp:156] Memory required for data: 686408736
I0403 15:40:50.355883 20162 layer_factory.hpp:77] Creating layer inception_3b/relu_3x3_reduce
I0403 15:40:50.355904 20162 net.cpp:91] Creating Layer inception_3b/relu_3x3_reduce
I0403 15:40:50.355922 20162 net.cpp:425] inception_3b/relu_3x3_reduce <- inception_3b/3x3_reduce
I0403 15:40:50.355940 20162 net.cpp:386] inception_3b/relu_3x3_reduce -> inception_3b/3x3_reduce (in-place)
I0403 15:40:50.356120 20162 net.cpp:141] Setting up inception_3b/relu_3x3_reduce
I0403 15:40:50.356147 20162 net.cpp:148] Top shape: 24 128 28 28 (2408448)
I0403 15:40:50.356163 20162 net.cpp:156] Memory required for data: 696042528
I0403 15:40:50.356178 20162 layer_factory.hpp:77] Creating layer inception_3b/3x3
I0403 15:40:50.356204 20162 net.cpp:91] Creating Layer inception_3b/3x3
I0403 15:40:50.356225 20162 net.cpp:425] inception_3b/3x3 <- inception_3b/3x3_reduce
I0403 15:40:50.356245 20162 net.cpp:399] inception_3b/3x3 -> inception_3b/3x3
I0403 15:40:50.359251 20162 net.cpp:141] Setting up inception_3b/3x3
I0403 15:40:50.359282 20162 net.cpp:148] Top shape: 24 192 28 28 (3612672)
I0403 15:40:50.359297 20162 net.cpp:156] Memory required for data: 710493216
I0403 15:40:50.359316 20162 layer_factory.hpp:77] Creating layer inception_3b/relu_3x3
I0403 15:40:50.359338 20162 net.cpp:91] Creating Layer inception_3b/relu_3x3
I0403 15:40:50.359354 20162 net.cpp:425] inception_3b/relu_3x3 <- inception_3b/3x3
I0403 15:40:50.359372 20162 net.cpp:386] inception_3b/relu_3x3 -> inception_3b/3x3 (in-place)
I0403 15:40:50.359652 20162 net.cpp:141] Setting up inception_3b/relu_3x3
I0403 15:40:50.359679 20162 net.cpp:148] Top shape: 24 192 28 28 (3612672)
I0403 15:40:50.359695 20162 net.cpp:156] Memory required for data: 724943904
I0403 15:40:50.359711 20162 layer_factory.hpp:77] Creating layer inception_3b/5x5_reduce
I0403 15:40:50.359735 20162 net.cpp:91] Creating Layer inception_3b/5x5_reduce
I0403 15:40:50.359753 20162 net.cpp:425] inception_3b/5x5_reduce <- inception_3a/output_inception_3a/output_0_split_2
I0403 15:40:50.359777 20162 net.cpp:399] inception_3b/5x5_reduce -> inception_3b/5x5_reduce
I0403 15:40:50.360788 20162 net.cpp:141] Setting up inception_3b/5x5_reduce
I0403 15:40:50.360818 20162 net.cpp:148] Top shape: 24 32 28 28 (602112)
I0403 15:40:50.360834 20162 net.cpp:156] Memory required for data: 727352352
I0403 15:40:50.360853 20162 layer_factory.hpp:77] Creating layer inception_3b/relu_5x5_reduce
I0403 15:40:50.360875 20162 net.cpp:91] Creating Layer inception_3b/relu_5x5_reduce
I0403 15:40:50.360893 20162 net.cpp:425] inception_3b/relu_5x5_reduce <- inception_3b/5x5_reduce
I0403 15:40:50.360910 20162 net.cpp:386] inception_3b/relu_5x5_reduce -> inception_3b/5x5_reduce (in-place)
I0403 15:40:50.361114 20162 net.cpp:141] Setting up inception_3b/relu_5x5_reduce
I0403 15:40:50.361140 20162 net.cpp:148] Top shape: 24 32 28 28 (602112)
I0403 15:40:50.361155 20162 net.cpp:156] Memory required for data: 729760800
I0403 15:40:50.361169 20162 layer_factory.hpp:77] Creating layer inception_3b/5x5
I0403 15:40:50.361194 20162 net.cpp:91] Creating Layer inception_3b/5x5
I0403 15:40:50.361214 20162 net.cpp:425] inception_3b/5x5 <- inception_3b/5x5_reduce
I0403 15:40:50.361233 20162 net.cpp:399] inception_3b/5x5 -> inception_3b/5x5
I0403 15:40:50.363271 20162 net.cpp:141] Setting up inception_3b/5x5
I0403 15:40:50.363301 20162 net.cpp:148] Top shape: 24 96 28 28 (1806336)
I0403 15:40:50.363317 20162 net.cpp:156] Memory required for data: 736986144
I0403 15:40:50.363335 20162 layer_factory.hpp:77] Creating layer inception_3b/relu_5x5
I0403 15:40:50.363354 20162 net.cpp:91] Creating Layer inception_3b/relu_5x5
I0403 15:40:50.363376 20162 net.cpp:425] inception_3b/relu_5x5 <- inception_3b/5x5
I0403 15:40:50.363394 20162 net.cpp:386] inception_3b/relu_5x5 -> inception_3b/5x5 (in-place)
I0403 15:40:50.363589 20162 net.cpp:141] Setting up inception_3b/relu_5x5
I0403 15:40:50.363613 20162 net.cpp:148] Top shape: 24 96 28 28 (1806336)
I0403 15:40:50.363641 20162 net.cpp:156] Memory required for data: 744211488
I0403 15:40:50.363656 20162 layer_factory.hpp:77] Creating layer inception_3b/pool
I0403 15:40:50.363673 20162 net.cpp:91] Creating Layer inception_3b/pool
I0403 15:40:50.363688 20162 net.cpp:425] inception_3b/pool <- inception_3a/output_inception_3a/output_0_split_3
I0403 15:40:50.363706 20162 net.cpp:399] inception_3b/pool -> inception_3b/pool
I0403 15:40:50.363765 20162 net.cpp:141] Setting up inception_3b/pool
I0403 15:40:50.363790 20162 net.cpp:148] Top shape: 24 256 28 28 (4816896)
I0403 15:40:50.363804 20162 net.cpp:156] Memory required for data: 763479072
I0403 15:40:50.363818 20162 layer_factory.hpp:77] Creating layer inception_3b/pool_proj
I0403 15:40:50.363840 20162 net.cpp:91] Creating Layer inception_3b/pool_proj
I0403 15:40:50.363857 20162 net.cpp:425] inception_3b/pool_proj <- inception_3b/pool
I0403 15:40:50.363878 20162 net.cpp:399] inception_3b/pool_proj -> inception_3b/pool_proj
I0403 15:40:50.364923 20162 net.cpp:141] Setting up inception_3b/pool_proj
I0403 15:40:50.364951 20162 net.cpp:148] Top shape: 24 64 28 28 (1204224)
I0403 15:40:50.364974 20162 net.cpp:156] Memory required for data: 768295968
I0403 15:40:50.364992 20162 layer_factory.hpp:77] Creating layer inception_3b/relu_pool_proj
I0403 15:40:50.365010 20162 net.cpp:91] Creating Layer inception_3b/relu_pool_proj
I0403 15:40:50.365026 20162 net.cpp:425] inception_3b/relu_pool_proj <- inception_3b/pool_proj
I0403 15:40:50.365046 20162 net.cpp:386] inception_3b/relu_pool_proj -> inception_3b/pool_proj (in-place)
I0403 15:40:50.365434 20162 net.cpp:141] Setting up inception_3b/relu_pool_proj
I0403 15:40:50.365463 20162 net.cpp:148] Top shape: 24 64 28 28 (1204224)
I0403 15:40:50.365478 20162 net.cpp:156] Memory required for data: 773112864
I0403 15:40:50.365492 20162 layer_factory.hpp:77] Creating layer inception_3b/output
I0403 15:40:50.365509 20162 net.cpp:91] Creating Layer inception_3b/output
I0403 15:40:50.365525 20162 net.cpp:425] inception_3b/output <- inception_3b/1x1
I0403 15:40:50.365543 20162 net.cpp:425] inception_3b/output <- inception_3b/3x3
I0403 15:40:50.365558 20162 net.cpp:425] inception_3b/output <- inception_3b/5x5
I0403 15:40:50.365574 20162 net.cpp:425] inception_3b/output <- inception_3b/pool_proj
I0403 15:40:50.365591 20162 net.cpp:399] inception_3b/output -> inception_3b/output
I0403 15:40:50.365635 20162 net.cpp:141] Setting up inception_3b/output
I0403 15:40:50.365658 20162 net.cpp:148] Top shape: 24 480 28 28 (9031680)
I0403 15:40:50.365672 20162 net.cpp:156] Memory required for data: 809239584
I0403 15:40:50.365687 20162 layer_factory.hpp:77] Creating layer pool3/3x3_s2
I0403 15:40:50.365707 20162 net.cpp:91] Creating Layer pool3/3x3_s2
I0403 15:40:50.365723 20162 net.cpp:425] pool3/3x3_s2 <- inception_3b/output
I0403 15:40:50.365756 20162 net.cpp:399] pool3/3x3_s2 -> pool3/3x3_s2
I0403 15:40:50.365815 20162 net.cpp:141] Setting up pool3/3x3_s2
I0403 15:40:50.365839 20162 net.cpp:148] Top shape: 24 480 14 14 (2257920)
I0403 15:40:50.365854 20162 net.cpp:156] Memory required for data: 818271264
I0403 15:40:50.365867 20162 layer_factory.hpp:77] Creating layer pool3/3x3_s2_pool3/3x3_s2_0_split
I0403 15:40:50.365885 20162 net.cpp:91] Creating Layer pool3/3x3_s2_pool3/3x3_s2_0_split
I0403 15:40:50.365900 20162 net.cpp:425] pool3/3x3_s2_pool3/3x3_s2_0_split <- pool3/3x3_s2
I0403 15:40:50.365918 20162 net.cpp:399] pool3/3x3_s2_pool3/3x3_s2_0_split -> pool3/3x3_s2_pool3/3x3_s2_0_split_0
I0403 15:40:50.365939 20162 net.cpp:399] pool3/3x3_s2_pool3/3x3_s2_0_split -> pool3/3x3_s2_pool3/3x3_s2_0_split_1
I0403 15:40:50.365963 20162 net.cpp:399] pool3/3x3_s2_pool3/3x3_s2_0_split -> pool3/3x3_s2_pool3/3x3_s2_0_split_2
I0403 15:40:50.365984 20162 net.cpp:399] pool3/3x3_s2_pool3/3x3_s2_0_split -> pool3/3x3_s2_pool3/3x3_s2_0_split_3
I0403 15:40:50.366061 20162 net.cpp:141] Setting up pool3/3x3_s2_pool3/3x3_s2_0_split
I0403 15:40:50.366086 20162 net.cpp:148] Top shape: 24 480 14 14 (2257920)
I0403 15:40:50.366103 20162 net.cpp:148] Top shape: 24 480 14 14 (2257920)
I0403 15:40:50.366119 20162 net.cpp:148] Top shape: 24 480 14 14 (2257920)
I0403 15:40:50.366134 20162 net.cpp:148] Top shape: 24 480 14 14 (2257920)
I0403 15:40:50.366148 20162 net.cpp:156] Memory required for data: 854397984
I0403 15:40:50.366163 20162 layer_factory.hpp:77] Creating layer inception_4a/1x1
I0403 15:40:50.366185 20162 net.cpp:91] Creating Layer inception_4a/1x1
I0403 15:40:50.366201 20162 net.cpp:425] inception_4a/1x1 <- pool3/3x3_s2_pool3/3x3_s2_0_split_0
I0403 15:40:50.366221 20162 net.cpp:399] inception_4a/1x1 -> inception_4a/1x1
I0403 15:40:50.367852 20162 net.cpp:141] Setting up inception_4a/1x1
I0403 15:40:50.367882 20162 net.cpp:148] Top shape: 24 192 14 14 (903168)
I0403 15:40:50.367899 20162 net.cpp:156] Memory required for data: 858010656
I0403 15:40:50.367919 20162 layer_factory.hpp:77] Creating layer inception_4a/relu_1x1
I0403 15:40:50.367938 20162 net.cpp:91] Creating Layer inception_4a/relu_1x1
I0403 15:40:50.367959 20162 net.cpp:425] inception_4a/relu_1x1 <- inception_4a/1x1
I0403 15:40:50.367980 20162 net.cpp:386] inception_4a/relu_1x1 -> inception_4a/1x1 (in-place)
I0403 15:40:50.368163 20162 net.cpp:141] Setting up inception_4a/relu_1x1
I0403 15:40:50.368188 20162 net.cpp:148] Top shape: 24 192 14 14 (903168)
I0403 15:40:50.368204 20162 net.cpp:156] Memory required for data: 861623328
I0403 15:40:50.368219 20162 layer_factory.hpp:77] Creating layer inception_4a/3x3_reduce
I0403 15:40:50.368242 20162 net.cpp:91] Creating Layer inception_4a/3x3_reduce
I0403 15:40:50.368260 20162 net.cpp:425] inception_4a/3x3_reduce <- pool3/3x3_s2_pool3/3x3_s2_0_split_1
I0403 15:40:50.368281 20162 net.cpp:399] inception_4a/3x3_reduce -> inception_4a/3x3_reduce
I0403 15:40:50.369603 20162 net.cpp:141] Setting up inception_4a/3x3_reduce
I0403 15:40:50.369634 20162 net.cpp:148] Top shape: 24 96 14 14 (451584)
I0403 15:40:50.369650 20162 net.cpp:156] Memory required for data: 863429664
I0403 15:40:50.369674 20162 layer_factory.hpp:77] Creating layer inception_4a/relu_3x3_reduce
I0403 15:40:50.369696 20162 net.cpp:91] Creating Layer inception_4a/relu_3x3_reduce
I0403 15:40:50.369714 20162 net.cpp:425] inception_4a/relu_3x3_reduce <- inception_4a/3x3_reduce
I0403 15:40:50.369732 20162 net.cpp:386] inception_4a/relu_3x3_reduce -> inception_4a/3x3_reduce (in-place)
I0403 15:40:50.369912 20162 net.cpp:141] Setting up inception_4a/relu_3x3_reduce
I0403 15:40:50.369938 20162 net.cpp:148] Top shape: 24 96 14 14 (451584)
I0403 15:40:50.369953 20162 net.cpp:156] Memory required for data: 865236000
I0403 15:40:50.369974 20162 layer_factory.hpp:77] Creating layer inception_4a/3x3
I0403 15:40:50.369997 20162 net.cpp:91] Creating Layer inception_4a/3x3
I0403 15:40:50.370015 20162 net.cpp:425] inception_4a/3x3 <- inception_4a/3x3_reduce
I0403 15:40:50.370038 20162 net.cpp:399] inception_4a/3x3 -> inception_4a/3x3
I0403 15:40:50.372776 20162 net.cpp:141] Setting up inception_4a/3x3
I0403 15:40:50.372805 20162 net.cpp:148] Top shape: 24 208 14 14 (978432)
I0403 15:40:50.372820 20162 net.cpp:156] Memory required for data: 869149728
I0403 15:40:50.372839 20162 layer_factory.hpp:77] Creating layer inception_4a/relu_3x3
I0403 15:40:50.372860 20162 net.cpp:91] Creating Layer inception_4a/relu_3x3
I0403 15:40:50.372877 20162 net.cpp:425] inception_4a/relu_3x3 <- inception_4a/3x3
I0403 15:40:50.372895 20162 net.cpp:386] inception_4a/relu_3x3 -> inception_4a/3x3 (in-place)
I0403 15:40:50.373183 20162 net.cpp:141] Setting up inception_4a/relu_3x3
I0403 15:40:50.373213 20162 net.cpp:148] Top shape: 24 208 14 14 (978432)
I0403 15:40:50.373229 20162 net.cpp:156] Memory required for data: 873063456
I0403 15:40:50.373244 20162 layer_factory.hpp:77] Creating layer inception_4a/5x5_reduce
I0403 15:40:50.373267 20162 net.cpp:91] Creating Layer inception_4a/5x5_reduce
I0403 15:40:50.373286 20162 net.cpp:425] inception_4a/5x5_reduce <- pool3/3x3_s2_pool3/3x3_s2_0_split_2
I0403 15:40:50.373307 20162 net.cpp:399] inception_4a/5x5_reduce -> inception_4a/5x5_reduce
I0403 15:40:50.374341 20162 net.cpp:141] Setting up inception_4a/5x5_reduce
I0403 15:40:50.374368 20162 net.cpp:148] Top shape: 24 16 14 14 (75264)
I0403 15:40:50.374384 20162 net.cpp:156] Memory required for data: 873364512
I0403 15:40:50.374403 20162 layer_factory.hpp:77] Creating layer inception_4a/relu_5x5_reduce
I0403 15:40:50.374424 20162 net.cpp:91] Creating Layer inception_4a/relu_5x5_reduce
I0403 15:40:50.374441 20162 net.cpp:425] inception_4a/relu_5x5_reduce <- inception_4a/5x5_reduce
I0403 15:40:50.374459 20162 net.cpp:386] inception_4a/relu_5x5_reduce -> inception_4a/5x5_reduce (in-place)
I0403 15:40:50.374640 20162 net.cpp:141] Setting up inception_4a/relu_5x5_reduce
I0403 15:40:50.374666 20162 net.cpp:148] Top shape: 24 16 14 14 (75264)
I0403 15:40:50.374682 20162 net.cpp:156] Memory required for data: 873665568
I0403 15:40:50.374697 20162 layer_factory.hpp:77] Creating layer inception_4a/5x5
I0403 15:40:50.374722 20162 net.cpp:91] Creating Layer inception_4a/5x5
I0403 15:40:50.374738 20162 net.cpp:425] inception_4a/5x5 <- inception_4a/5x5_reduce
I0403 15:40:50.374758 20162 net.cpp:399] inception_4a/5x5 -> inception_4a/5x5
I0403 15:40:50.375865 20162 net.cpp:141] Setting up inception_4a/5x5
I0403 15:40:50.375895 20162 net.cpp:148] Top shape: 24 48 14 14 (225792)
I0403 15:40:50.375912 20162 net.cpp:156] Memory required for data: 874568736
I0403 15:40:50.375931 20162 layer_factory.hpp:77] Creating layer inception_4a/relu_5x5
I0403 15:40:50.375949 20162 net.cpp:91] Creating Layer inception_4a/relu_5x5
I0403 15:40:50.375972 20162 net.cpp:425] inception_4a/relu_5x5 <- inception_4a/5x5
I0403 15:40:50.375989 20162 net.cpp:386] inception_4a/relu_5x5 -> inception_4a/5x5 (in-place)
I0403 15:40:50.376171 20162 net.cpp:141] Setting up inception_4a/relu_5x5
I0403 15:40:50.376199 20162 net.cpp:148] Top shape: 24 48 14 14 (225792)
I0403 15:40:50.376216 20162 net.cpp:156] Memory required for data: 875471904
I0403 15:40:50.376231 20162 layer_factory.hpp:77] Creating layer inception_4a/pool
I0403 15:40:50.376250 20162 net.cpp:91] Creating Layer inception_4a/pool
I0403 15:40:50.376266 20162 net.cpp:425] inception_4a/pool <- pool3/3x3_s2_pool3/3x3_s2_0_split_3
I0403 15:40:50.376286 20162 net.cpp:399] inception_4a/pool -> inception_4a/pool
I0403 15:40:50.376348 20162 net.cpp:141] Setting up inception_4a/pool
I0403 15:40:50.376374 20162 net.cpp:148] Top shape: 24 480 14 14 (2257920)
I0403 15:40:50.376389 20162 net.cpp:156] Memory required for data: 884503584
I0403 15:40:50.376405 20162 layer_factory.hpp:77] Creating layer inception_4a/pool_proj
I0403 15:40:50.376426 20162 net.cpp:91] Creating Layer inception_4a/pool_proj
I0403 15:40:50.376443 20162 net.cpp:425] inception_4a/pool_proj <- inception_4a/pool
I0403 15:40:50.376463 20162 net.cpp:399] inception_4a/pool_proj -> inception_4a/pool_proj
I0403 15:40:50.377650 20162 net.cpp:141] Setting up inception_4a/pool_proj
I0403 15:40:50.377682 20162 net.cpp:148] Top shape: 24 64 14 14 (301056)
I0403 15:40:50.377712 20162 net.cpp:156] Memory required for data: 885707808
I0403 15:40:50.377732 20162 layer_factory.hpp:77] Creating layer inception_4a/relu_pool_proj
I0403 15:40:50.377749 20162 net.cpp:91] Creating Layer inception_4a/relu_pool_proj
I0403 15:40:50.377765 20162 net.cpp:425] inception_4a/relu_pool_proj <- inception_4a/pool_proj
I0403 15:40:50.377785 20162 net.cpp:386] inception_4a/relu_pool_proj -> inception_4a/pool_proj (in-place)
I0403 15:40:50.378090 20162 net.cpp:141] Setting up inception_4a/relu_pool_proj
I0403 15:40:50.378119 20162 net.cpp:148] Top shape: 24 64 14 14 (301056)
I0403 15:40:50.378136 20162 net.cpp:156] Memory required for data: 886912032
I0403 15:40:50.378151 20162 layer_factory.hpp:77] Creating layer inception_4a/output
I0403 15:40:50.378170 20162 net.cpp:91] Creating Layer inception_4a/output
I0403 15:40:50.378186 20162 net.cpp:425] inception_4a/output <- inception_4a/1x1
I0403 15:40:50.378203 20162 net.cpp:425] inception_4a/output <- inception_4a/3x3
I0403 15:40:50.378219 20162 net.cpp:425] inception_4a/output <- inception_4a/5x5
I0403 15:40:50.378235 20162 net.cpp:425] inception_4a/output <- inception_4a/pool_proj
I0403 15:40:50.378252 20162 net.cpp:399] inception_4a/output -> inception_4a/output
I0403 15:40:50.378310 20162 net.cpp:141] Setting up inception_4a/output
I0403 15:40:50.378334 20162 net.cpp:148] Top shape: 24 512 14 14 (2408448)
I0403 15:40:50.378347 20162 net.cpp:156] Memory required for data: 896545824
I0403 15:40:50.378362 20162 layer_factory.hpp:77] Creating layer inception_4a/output_inception_4a/output_0_split
I0403 15:40:50.378382 20162 net.cpp:91] Creating Layer inception_4a/output_inception_4a/output_0_split
I0403 15:40:50.378398 20162 net.cpp:425] inception_4a/output_inception_4a/output_0_split <- inception_4a/output
I0403 15:40:50.378417 20162 net.cpp:399] inception_4a/output_inception_4a/output_0_split -> inception_4a/output_inception_4a/output_0_split_0
I0403 15:40:50.378437 20162 net.cpp:399] inception_4a/output_inception_4a/output_0_split -> inception_4a/output_inception_4a/output_0_split_1
I0403 15:40:50.378456 20162 net.cpp:399] inception_4a/output_inception_4a/output_0_split -> inception_4a/output_inception_4a/output_0_split_2
I0403 15:40:50.378480 20162 net.cpp:399] inception_4a/output_inception_4a/output_0_split -> inception_4a/output_inception_4a/output_0_split_3
I0403 15:40:50.378501 20162 net.cpp:399] inception_4a/output_inception_4a/output_0_split -> inception_4a/output_inception_4a/output_0_split_4
I0403 15:40:50.378593 20162 net.cpp:141] Setting up inception_4a/output_inception_4a/output_0_split
I0403 15:40:50.378617 20162 net.cpp:148] Top shape: 24 512 14 14 (2408448)
I0403 15:40:50.378633 20162 net.cpp:148] Top shape: 24 512 14 14 (2408448)
I0403 15:40:50.378649 20162 net.cpp:148] Top shape: 24 512 14 14 (2408448)
I0403 15:40:50.378664 20162 net.cpp:148] Top shape: 24 512 14 14 (2408448)
I0403 15:40:50.378680 20162 net.cpp:148] Top shape: 24 512 14 14 (2408448)
I0403 15:40:50.378693 20162 net.cpp:156] Memory required for data: 944714784
I0403 15:40:50.378708 20162 layer_factory.hpp:77] Creating layer loss1/ave_pool
I0403 15:40:50.378728 20162 net.cpp:91] Creating Layer loss1/ave_pool
I0403 15:40:50.378746 20162 net.cpp:425] loss1/ave_pool <- inception_4a/output_inception_4a/output_0_split_0
I0403 15:40:50.378763 20162 net.cpp:399] loss1/ave_pool -> loss1/ave_pool
I0403 15:40:50.378975 20162 net.cpp:141] Setting up loss1/ave_pool
I0403 15:40:50.379004 20162 net.cpp:148] Top shape: 24 512 4 4 (196608)
I0403 15:40:50.379019 20162 net.cpp:156] Memory required for data: 945501216
I0403 15:40:50.379034 20162 layer_factory.hpp:77] Creating layer loss1/conv
I0403 15:40:50.379056 20162 net.cpp:91] Creating Layer loss1/conv
I0403 15:40:50.379072 20162 net.cpp:425] loss1/conv <- loss1/ave_pool
I0403 15:40:50.379091 20162 net.cpp:399] loss1/conv -> loss1/conv
I0403 15:40:50.380497 20162 net.cpp:141] Setting up loss1/conv
I0403 15:40:50.380525 20162 net.cpp:148] Top shape: 24 128 4 4 (49152)
I0403 15:40:50.380554 20162 net.cpp:156] Memory required for data: 945697824
I0403 15:40:50.380574 20162 layer_factory.hpp:77] Creating layer loss1/relu_conv
I0403 15:40:50.380595 20162 net.cpp:91] Creating Layer loss1/relu_conv
I0403 15:40:50.380611 20162 net.cpp:425] loss1/relu_conv <- loss1/conv
I0403 15:40:50.380630 20162 net.cpp:386] loss1/relu_conv -> loss1/conv (in-place)
I0403 15:40:50.380905 20162 net.cpp:141] Setting up loss1/relu_conv
I0403 15:40:50.380931 20162 net.cpp:148] Top shape: 24 128 4 4 (49152)
I0403 15:40:50.380947 20162 net.cpp:156] Memory required for data: 945894432
I0403 15:40:50.380967 20162 layer_factory.hpp:77] Creating layer loss1/fc
I0403 15:40:50.380995 20162 net.cpp:91] Creating Layer loss1/fc
I0403 15:40:50.381011 20162 net.cpp:425] loss1/fc <- loss1/conv
I0403 15:40:50.381031 20162 net.cpp:399] loss1/fc -> loss1/fc
I0403 15:40:50.398510 20162 net.cpp:141] Setting up loss1/fc
I0403 15:40:50.398545 20162 net.cpp:148] Top shape: 24 1024 (24576)
I0403 15:40:50.398561 20162 net.cpp:156] Memory required for data: 945992736
I0403 15:40:50.398578 20162 layer_factory.hpp:77] Creating layer loss1/relu_fc
I0403 15:40:50.398597 20162 net.cpp:91] Creating Layer loss1/relu_fc
I0403 15:40:50.398612 20162 net.cpp:425] loss1/relu_fc <- loss1/fc
I0403 15:40:50.398629 20162 net.cpp:386] loss1/relu_fc -> loss1/fc (in-place)
I0403 15:40:50.398809 20162 net.cpp:141] Setting up loss1/relu_fc
I0403 15:40:50.398833 20162 net.cpp:148] Top shape: 24 1024 (24576)
I0403 15:40:50.398847 20162 net.cpp:156] Memory required for data: 946091040
I0403 15:40:50.398862 20162 layer_factory.hpp:77] Creating layer loss1/drop_fc
I0403 15:40:50.398890 20162 net.cpp:91] Creating Layer loss1/drop_fc
I0403 15:40:50.398908 20162 net.cpp:425] loss1/drop_fc <- loss1/fc
I0403 15:40:50.398926 20162 net.cpp:386] loss1/drop_fc -> loss1/fc (in-place)
I0403 15:40:50.398998 20162 net.cpp:141] Setting up loss1/drop_fc
I0403 15:40:50.399021 20162 net.cpp:148] Top shape: 24 1024 (24576)
I0403 15:40:50.399036 20162 net.cpp:156] Memory required for data: 946189344
I0403 15:40:50.399050 20162 layer_factory.hpp:77] Creating layer loss1/classifier_plantvillage
I0403 15:40:50.399073 20162 net.cpp:91] Creating Layer loss1/classifier_plantvillage
I0403 15:40:50.399091 20162 net.cpp:425] loss1/classifier_plantvillage <- loss1/fc
I0403 15:40:50.399111 20162 net.cpp:399] loss1/classifier_plantvillage -> loss1/classifier_plantvillage
I0403 15:40:50.400019 20162 net.cpp:141] Setting up loss1/classifier_plantvillage
I0403 15:40:50.400048 20162 net.cpp:148] Top shape: 24 38 (912)
I0403 15:40:50.400063 20162 net.cpp:156] Memory required for data: 946192992
I0403 15:40:50.400079 20162 layer_factory.hpp:77] Creating layer loss1/classifier_plantvillage_loss1/classifier_plantvillage_0_split
I0403 15:40:50.400096 20162 net.cpp:91] Creating Layer loss1/classifier_plantvillage_loss1/classifier_plantvillage_0_split
I0403 15:40:50.400112 20162 net.cpp:425] loss1/classifier_plantvillage_loss1/classifier_plantvillage_0_split <- loss1/classifier_plantvillage
I0403 15:40:50.400131 20162 net.cpp:399] loss1/classifier_plantvillage_loss1/classifier_plantvillage_0_split -> loss1/classifier_plantvillage_loss1/classifier_plantvillage_0_split_0
I0403 15:40:50.400151 20162 net.cpp:399] loss1/classifier_plantvillage_loss1/classifier_plantvillage_0_split -> loss1/classifier_plantvillage_loss1/classifier_plantvillage_0_split_1
I0403 15:40:50.400171 20162 net.cpp:399] loss1/classifier_plantvillage_loss1/classifier_plantvillage_0_split -> loss1/classifier_plantvillage_loss1/classifier_plantvillage_0_split_2
I0403 15:40:50.400234 20162 net.cpp:141] Setting up loss1/classifier_plantvillage_loss1/classifier_plantvillage_0_split
I0403 15:40:50.400259 20162 net.cpp:148] Top shape: 24 38 (912)
I0403 15:40:50.400274 20162 net.cpp:148] Top shape: 24 38 (912)
I0403 15:40:50.400290 20162 net.cpp:148] Top shape: 24 38 (912)
I0403 15:40:50.400303 20162 net.cpp:156] Memory required for data: 946203936
I0403 15:40:50.400317 20162 layer_factory.hpp:77] Creating layer inception_4b/1x1
I0403 15:40:50.400336 20162 net.cpp:91] Creating Layer inception_4b/1x1
I0403 15:40:50.400368 20162 net.cpp:425] inception_4b/1x1 <- inception_4a/output_inception_4a/output_0_split_1
I0403 15:40:50.400388 20162 net.cpp:399] inception_4b/1x1 -> inception_4b/1x1
I0403 15:40:50.401993 20162 net.cpp:141] Setting up inception_4b/1x1
I0403 15:40:50.402021 20162 net.cpp:148] Top shape: 24 160 14 14 (752640)
I0403 15:40:50.402036 20162 net.cpp:156] Memory required for data: 949214496
I0403 15:40:50.402055 20162 layer_factory.hpp:77] Creating layer inception_4b/relu_1x1
I0403 15:40:50.402075 20162 net.cpp:91] Creating Layer inception_4b/relu_1x1
I0403 15:40:50.402091 20162 net.cpp:425] inception_4b/relu_1x1 <- inception_4b/1x1
I0403 15:40:50.402107 20162 net.cpp:386] inception_4b/relu_1x1 -> inception_4b/1x1 (in-place)
I0403 15:40:50.402282 20162 net.cpp:141] Setting up inception_4b/relu_1x1
I0403 15:40:50.402305 20162 net.cpp:148] Top shape: 24 160 14 14 (752640)
I0403 15:40:50.402319 20162 net.cpp:156] Memory required for data: 952225056
I0403 15:40:50.402333 20162 layer_factory.hpp:77] Creating layer inception_4b/3x3_reduce
I0403 15:40:50.402356 20162 net.cpp:91] Creating Layer inception_4b/3x3_reduce
I0403 15:40:50.402372 20162 net.cpp:425] inception_4b/3x3_reduce <- inception_4a/output_inception_4a/output_0_split_2
I0403 15:40:50.402391 20162 net.cpp:399] inception_4b/3x3_reduce -> inception_4b/3x3_reduce
I0403 15:40:50.403714 20162 net.cpp:141] Setting up inception_4b/3x3_reduce
I0403 15:40:50.403741 20162 net.cpp:148] Top shape: 24 112 14 14 (526848)
I0403 15:40:50.403756 20162 net.cpp:156] Memory required for data: 954332448
I0403 15:40:50.403774 20162 layer_factory.hpp:77] Creating layer inception_4b/relu_3x3_reduce
I0403 15:40:50.403795 20162 net.cpp:91] Creating Layer inception_4b/relu_3x3_reduce
I0403 15:40:50.403810 20162 net.cpp:425] inception_4b/relu_3x3_reduce <- inception_4b/3x3_reduce
I0403 15:40:50.403827 20162 net.cpp:386] inception_4b/relu_3x3_reduce -> inception_4b/3x3_reduce (in-place)
I0403 15:40:50.404105 20162 net.cpp:141] Setting up inception_4b/relu_3x3_reduce
I0403 15:40:50.404130 20162 net.cpp:148] Top shape: 24 112 14 14 (526848)
I0403 15:40:50.404145 20162 net.cpp:156] Memory required for data: 956439840
I0403 15:40:50.404160 20162 layer_factory.hpp:77] Creating layer inception_4b/3x3
I0403 15:40:50.404181 20162 net.cpp:91] Creating Layer inception_4b/3x3
I0403 15:40:50.404199 20162 net.cpp:425] inception_4b/3x3 <- inception_4b/3x3_reduce
I0403 15:40:50.404218 20162 net.cpp:399] inception_4b/3x3 -> inception_4b/3x3
I0403 15:40:50.407095 20162 net.cpp:141] Setting up inception_4b/3x3
I0403 15:40:50.407125 20162 net.cpp:148] Top shape: 24 224 14 14 (1053696)
I0403 15:40:50.407142 20162 net.cpp:156] Memory required for data: 960654624
I0403 15:40:50.407160 20162 layer_factory.hpp:77] Creating layer inception_4b/relu_3x3
I0403 15:40:50.407178 20162 net.cpp:91] Creating Layer inception_4b/relu_3x3
I0403 15:40:50.407194 20162 net.cpp:425] inception_4b/relu_3x3 <- inception_4b/3x3
I0403 15:40:50.407214 20162 net.cpp:386] inception_4b/relu_3x3 -> inception_4b/3x3 (in-place)
I0403 15:40:50.407387 20162 net.cpp:141] Setting up inception_4b/relu_3x3
I0403 15:40:50.407410 20162 net.cpp:148] Top shape: 24 224 14 14 (1053696)
I0403 15:40:50.407424 20162 net.cpp:156] Memory required for data: 964869408
I0403 15:40:50.407438 20162 layer_factory.hpp:77] Creating layer inception_4b/5x5_reduce
I0403 15:40:50.407459 20162 net.cpp:91] Creating Layer inception_4b/5x5_reduce
I0403 15:40:50.407475 20162 net.cpp:425] inception_4b/5x5_reduce <- inception_4a/output_inception_4a/output_0_split_3
I0403 15:40:50.407497 20162 net.cpp:399] inception_4b/5x5_reduce -> inception_4b/5x5_reduce
I0403 15:40:50.408542 20162 net.cpp:141] Setting up inception_4b/5x5_reduce
I0403 15:40:50.408568 20162 net.cpp:148] Top shape: 24 24 14 14 (112896)
I0403 15:40:50.408583 20162 net.cpp:156] Memory required for data: 965320992
I0403 15:40:50.408601 20162 layer_factory.hpp:77] Creating layer inception_4b/relu_5x5_reduce
I0403 15:40:50.408622 20162 net.cpp:91] Creating Layer inception_4b/relu_5x5_reduce
I0403 15:40:50.408650 20162 net.cpp:425] inception_4b/relu_5x5_reduce <- inception_4b/5x5_reduce
I0403 15:40:50.408668 20162 net.cpp:386] inception_4b/relu_5x5_reduce -> inception_4b/5x5_reduce (in-place)
I0403 15:40:50.408840 20162 net.cpp:141] Setting up inception_4b/relu_5x5_reduce
I0403 15:40:50.408867 20162 net.cpp:148] Top shape: 24 24 14 14 (112896)
I0403 15:40:50.408882 20162 net.cpp:156] Memory required for data: 965772576
I0403 15:40:50.408896 20162 layer_factory.hpp:77] Creating layer inception_4b/5x5
I0403 15:40:50.408918 20162 net.cpp:91] Creating Layer inception_4b/5x5
I0403 15:40:50.408934 20162 net.cpp:425] inception_4b/5x5 <- inception_4b/5x5_reduce
I0403 15:40:50.408953 20162 net.cpp:399] inception_4b/5x5 -> inception_4b/5x5
I0403 15:40:50.410151 20162 net.cpp:141] Setting up inception_4b/5x5
I0403 15:40:50.410178 20162 net.cpp:148] Top shape: 24 64 14 14 (301056)
I0403 15:40:50.410193 20162 net.cpp:156] Memory required for data: 966976800
I0403 15:40:50.410213 20162 layer_factory.hpp:77] Creating layer inception_4b/relu_5x5
I0403 15:40:50.410234 20162 net.cpp:91] Creating Layer inception_4b/relu_5x5
I0403 15:40:50.410250 20162 net.cpp:425] inception_4b/relu_5x5 <- inception_4b/5x5
I0403 15:40:50.410266 20162 net.cpp:386] inception_4b/relu_5x5 -> inception_4b/5x5 (in-place)
I0403 15:40:50.410547 20162 net.cpp:141] Setting up inception_4b/relu_5x5
I0403 15:40:50.410572 20162 net.cpp:148] Top shape: 24 64 14 14 (301056)
I0403 15:40:50.410586 20162 net.cpp:156] Memory required for data: 968181024
I0403 15:40:50.410601 20162 layer_factory.hpp:77] Creating layer inception_4b/pool
I0403 15:40:50.410621 20162 net.cpp:91] Creating Layer inception_4b/pool
I0403 15:40:50.410637 20162 net.cpp:425] inception_4b/pool <- inception_4a/output_inception_4a/output_0_split_4
I0403 15:40:50.410655 20162 net.cpp:399] inception_4b/pool -> inception_4b/pool
I0403 15:40:50.410718 20162 net.cpp:141] Setting up inception_4b/pool
I0403 15:40:50.410740 20162 net.cpp:148] Top shape: 24 512 14 14 (2408448)
I0403 15:40:50.410754 20162 net.cpp:156] Memory required for data: 977814816
I0403 15:40:50.410768 20162 layer_factory.hpp:77] Creating layer inception_4b/pool_proj
I0403 15:40:50.410789 20162 net.cpp:91] Creating Layer inception_4b/pool_proj
I0403 15:40:50.410806 20162 net.cpp:425] inception_4b/pool_proj <- inception_4b/pool
I0403 15:40:50.410827 20162 net.cpp:399] inception_4b/pool_proj -> inception_4b/pool_proj
I0403 15:40:50.412025 20162 net.cpp:141] Setting up inception_4b/pool_proj
I0403 15:40:50.412051 20162 net.cpp:148] Top shape: 24 64 14 14 (301056)
I0403 15:40:50.412067 20162 net.cpp:156] Memory required for data: 979019040
I0403 15:40:50.412086 20162 layer_factory.hpp:77] Creating layer inception_4b/relu_pool_proj
I0403 15:40:50.412106 20162 net.cpp:91] Creating Layer inception_4b/relu_pool_proj
I0403 15:40:50.412123 20162 net.cpp:425] inception_4b/relu_pool_proj <- inception_4b/pool_proj
I0403 15:40:50.412140 20162 net.cpp:386] inception_4b/relu_pool_proj -> inception_4b/pool_proj (in-place)
I0403 15:40:50.412314 20162 net.cpp:141] Setting up inception_4b/relu_pool_proj
I0403 15:40:50.412340 20162 net.cpp:148] Top shape: 24 64 14 14 (301056)
I0403 15:40:50.412355 20162 net.cpp:156] Memory required for data: 980223264
I0403 15:40:50.412370 20162 layer_factory.hpp:77] Creating layer inception_4b/output
I0403 15:40:50.412386 20162 net.cpp:91] Creating Layer inception_4b/output
I0403 15:40:50.412401 20162 net.cpp:425] inception_4b/output <- inception_4b/1x1
I0403 15:40:50.412417 20162 net.cpp:425] inception_4b/output <- inception_4b/3x3
I0403 15:40:50.412432 20162 net.cpp:425] inception_4b/output <- inception_4b/5x5
I0403 15:40:50.412447 20162 net.cpp:425] inception_4b/output <- inception_4b/pool_proj
I0403 15:40:50.412463 20162 net.cpp:399] inception_4b/output -> inception_4b/output
I0403 15:40:50.412508 20162 net.cpp:141] Setting up inception_4b/output
I0403 15:40:50.412533 20162 net.cpp:148] Top shape: 24 512 14 14 (2408448)
I0403 15:40:50.412546 20162 net.cpp:156] Memory required for data: 989857056
I0403 15:40:50.412575 20162 layer_factory.hpp:77] Creating layer inception_4b/output_inception_4b/output_0_split
I0403 15:40:50.412592 20162 net.cpp:91] Creating Layer inception_4b/output_inception_4b/output_0_split
I0403 15:40:50.412606 20162 net.cpp:425] inception_4b/output_inception_4b/output_0_split <- inception_4b/output
I0403 15:40:50.412626 20162 net.cpp:399] inception_4b/output_inception_4b/output_0_split -> inception_4b/output_inception_4b/output_0_split_0
I0403 15:40:50.412647 20162 net.cpp:399] inception_4b/output_inception_4b/output_0_split -> inception_4b/output_inception_4b/output_0_split_1
I0403 15:40:50.412667 20162 net.cpp:399] inception_4b/output_inception_4b/output_0_split -> inception_4b/output_inception_4b/output_0_split_2
I0403 15:40:50.412689 20162 net.cpp:399] inception_4b/output_inception_4b/output_0_split -> inception_4b/output_inception_4b/output_0_split_3
I0403 15:40:50.412771 20162 net.cpp:141] Setting up inception_4b/output_inception_4b/output_0_split
I0403 15:40:50.412794 20162 net.cpp:148] Top shape: 24 512 14 14 (2408448)
I0403 15:40:50.412811 20162 net.cpp:148] Top shape: 24 512 14 14 (2408448)
I0403 15:40:50.412825 20162 net.cpp:148] Top shape: 24 512 14 14 (2408448)
I0403 15:40:50.412840 20162 net.cpp:148] Top shape: 24 512 14 14 (2408448)
I0403 15:40:50.412853 20162 net.cpp:156] Memory required for data: 1028392224
I0403 15:40:50.412868 20162 layer_factory.hpp:77] Creating layer inception_4c/1x1
I0403 15:40:50.412892 20162 net.cpp:91] Creating Layer inception_4c/1x1
I0403 15:40:50.412909 20162 net.cpp:425] inception_4c/1x1 <- inception_4b/output_inception_4b/output_0_split_0
I0403 15:40:50.412930 20162 net.cpp:399] inception_4c/1x1 -> inception_4c/1x1
I0403 15:40:50.414350 20162 net.cpp:141] Setting up inception_4c/1x1
I0403 15:40:50.414381 20162 net.cpp:148] Top shape: 24 128 14 14 (602112)
I0403 15:40:50.414397 20162 net.cpp:156] Memory required for data: 1030800672
I0403 15:40:50.414415 20162 layer_factory.hpp:77] Creating layer inception_4c/relu_1x1
I0403 15:40:50.414433 20162 net.cpp:91] Creating Layer inception_4c/relu_1x1
I0403 15:40:50.414449 20162 net.cpp:425] inception_4c/relu_1x1 <- inception_4c/1x1
I0403 15:40:50.414469 20162 net.cpp:386] inception_4c/relu_1x1 -> inception_4c/1x1 (in-place)
I0403 15:40:50.414647 20162 net.cpp:141] Setting up inception_4c/relu_1x1
I0403 15:40:50.414672 20162 net.cpp:148] Top shape: 24 128 14 14 (602112)
I0403 15:40:50.414686 20162 net.cpp:156] Memory required for data: 1033209120
I0403 15:40:50.414701 20162 layer_factory.hpp:77] Creating layer inception_4c/3x3_reduce
I0403 15:40:50.414723 20162 net.cpp:91] Creating Layer inception_4c/3x3_reduce
I0403 15:40:50.414741 20162 net.cpp:425] inception_4c/3x3_reduce <- inception_4b/output_inception_4b/output_0_split_1
I0403 15:40:50.414762 20162 net.cpp:399] inception_4c/3x3_reduce -> inception_4c/3x3_reduce
I0403 15:40:50.416708 20162 net.cpp:141] Setting up inception_4c/3x3_reduce
I0403 15:40:50.416738 20162 net.cpp:148] Top shape: 24 128 14 14 (602112)
I0403 15:40:50.416752 20162 net.cpp:156] Memory required for data: 1035617568
I0403 15:40:50.416770 20162 layer_factory.hpp:77] Creating layer inception_4c/relu_3x3_reduce
I0403 15:40:50.416791 20162 net.cpp:91] Creating Layer inception_4c/relu_3x3_reduce
I0403 15:40:50.416808 20162 net.cpp:425] inception_4c/relu_3x3_reduce <- inception_4c/3x3_reduce
I0403 15:40:50.416826 20162 net.cpp:386] inception_4c/relu_3x3_reduce -> inception_4c/3x3_reduce (in-place)
I0403 15:40:50.417115 20162 net.cpp:141] Setting up inception_4c/relu_3x3_reduce
I0403 15:40:50.417142 20162 net.cpp:148] Top shape: 24 128 14 14 (602112)
I0403 15:40:50.417156 20162 net.cpp:156] Memory required for data: 1038026016
I0403 15:40:50.417171 20162 layer_factory.hpp:77] Creating layer inception_4c/3x3
I0403 15:40:50.417194 20162 net.cpp:91] Creating Layer inception_4c/3x3
I0403 15:40:50.417213 20162 net.cpp:425] inception_4c/3x3 <- inception_4c/3x3_reduce
I0403 15:40:50.417235 20162 net.cpp:399] inception_4c/3x3 -> inception_4c/3x3
I0403 15:40:50.420897 20162 net.cpp:141] Setting up inception_4c/3x3
I0403 15:40:50.420938 20162 net.cpp:148] Top shape: 24 256 14 14 (1204224)
I0403 15:40:50.420959 20162 net.cpp:156] Memory required for data: 1042842912
I0403 15:40:50.420994 20162 layer_factory.hpp:77] Creating layer inception_4c/relu_3x3
I0403 15:40:50.421016 20162 net.cpp:91] Creating Layer inception_4c/relu_3x3
I0403 15:40:50.421033 20162 net.cpp:425] inception_4c/relu_3x3 <- inception_4c/3x3
I0403 15:40:50.421051 20162 net.cpp:386] inception_4c/relu_3x3 -> inception_4c/3x3 (in-place)
I0403 15:40:50.421233 20162 net.cpp:141] Setting up inception_4c/relu_3x3
I0403 15:40:50.421258 20162 net.cpp:148] Top shape: 24 256 14 14 (1204224)
I0403 15:40:50.421273 20162 net.cpp:156] Memory required for data: 1047659808
I0403 15:40:50.421288 20162 layer_factory.hpp:77] Creating layer inception_4c/5x5_reduce
I0403 15:40:50.421310 20162 net.cpp:91] Creating Layer inception_4c/5x5_reduce
I0403 15:40:50.421327 20162 net.cpp:425] inception_4c/5x5_reduce <- inception_4b/output_inception_4b/output_0_split_2
I0403 15:40:50.421350 20162 net.cpp:399] inception_4c/5x5_reduce -> inception_4c/5x5_reduce
I0403 15:40:50.422454 20162 net.cpp:141] Setting up inception_4c/5x5_reduce
I0403 15:40:50.422483 20162 net.cpp:148] Top shape: 24 24 14 14 (112896)
I0403 15:40:50.422499 20162 net.cpp:156] Memory required for data: 1048111392
I0403 15:40:50.422518 20162 layer_factory.hpp:77] Creating layer inception_4c/relu_5x5_reduce
I0403 15:40:50.422539 20162 net.cpp:91] Creating Layer inception_4c/relu_5x5_reduce
I0403 15:40:50.422556 20162 net.cpp:425] inception_4c/relu_5x5_reduce <- inception_4c/5x5_reduce
I0403 15:40:50.422574 20162 net.cpp:386] inception_4c/relu_5x5_reduce -> inception_4c/5x5_reduce (in-place)
I0403 15:40:50.422761 20162 net.cpp:141] Setting up inception_4c/relu_5x5_reduce
I0403 15:40:50.422790 20162 net.cpp:148] Top shape: 24 24 14 14 (112896)
I0403 15:40:50.422806 20162 net.cpp:156] Memory required for data: 1048562976
I0403 15:40:50.422821 20162 layer_factory.hpp:77] Creating layer inception_4c/5x5
I0403 15:40:50.422843 20162 net.cpp:91] Creating Layer inception_4c/5x5
I0403 15:40:50.422862 20162 net.cpp:425] inception_4c/5x5 <- inception_4c/5x5_reduce
I0403 15:40:50.422880 20162 net.cpp:399] inception_4c/5x5 -> inception_4c/5x5
I0403 15:40:50.424172 20162 net.cpp:141] Setting up inception_4c/5x5
I0403 15:40:50.424202 20162 net.cpp:148] Top shape: 24 64 14 14 (301056)
I0403 15:40:50.424221 20162 net.cpp:156] Memory required for data: 1049767200
I0403 15:40:50.424239 20162 layer_factory.hpp:77] Creating layer inception_4c/relu_5x5
I0403 15:40:50.424258 20162 net.cpp:91] Creating Layer inception_4c/relu_5x5
I0403 15:40:50.424274 20162 net.cpp:425] inception_4c/relu_5x5 <- inception_4c/5x5
I0403 15:40:50.424295 20162 net.cpp:386] inception_4c/relu_5x5 -> inception_4c/5x5 (in-place)
I0403 15:40:50.424594 20162 net.cpp:141] Setting up inception_4c/relu_5x5
I0403 15:40:50.424623 20162 net.cpp:148] Top shape: 24 64 14 14 (301056)
I0403 15:40:50.424639 20162 net.cpp:156] Memory required for data: 1050971424
I0403 15:40:50.424655 20162 layer_factory.hpp:77] Creating layer inception_4c/pool
I0403 15:40:50.424674 20162 net.cpp:91] Creating Layer inception_4c/pool
I0403 15:40:50.424690 20162 net.cpp:425] inception_4c/pool <- inception_4b/output_inception_4b/output_0_split_3
I0403 15:40:50.424710 20162 net.cpp:399] inception_4c/pool -> inception_4c/pool
I0403 15:40:50.424778 20162 net.cpp:141] Setting up inception_4c/pool
I0403 15:40:50.424803 20162 net.cpp:148] Top shape: 24 512 14 14 (2408448)
I0403 15:40:50.424818 20162 net.cpp:156] Memory required for data: 1060605216
I0403 15:40:50.424832 20162 layer_factory.hpp:77] Creating layer inception_4c/pool_proj
I0403 15:40:50.424855 20162 net.cpp:91] Creating Layer inception_4c/pool_proj
I0403 15:40:50.424873 20162 net.cpp:425] inception_4c/pool_proj <- inception_4c/pool
I0403 15:40:50.424895 20162 net.cpp:399] inception_4c/pool_proj -> inception_4c/pool_proj
I0403 15:40:50.426162 20162 net.cpp:141] Setting up inception_4c/pool_proj
I0403 15:40:50.426192 20162 net.cpp:148] Top shape: 24 64 14 14 (301056)
I0403 15:40:50.426221 20162 net.cpp:156] Memory required for data: 1061809440
I0403 15:40:50.426242 20162 layer_factory.hpp:77] Creating layer inception_4c/relu_pool_proj
I0403 15:40:50.426264 20162 net.cpp:91] Creating Layer inception_4c/relu_pool_proj
I0403 15:40:50.426281 20162 net.cpp:425] inception_4c/relu_pool_proj <- inception_4c/pool_proj
I0403 15:40:50.426300 20162 net.cpp:386] inception_4c/relu_pool_proj -> inception_4c/pool_proj (in-place)
I0403 15:40:50.426487 20162 net.cpp:141] Setting up inception_4c/relu_pool_proj
I0403 15:40:50.426515 20162 net.cpp:148] Top shape: 24 64 14 14 (301056)
I0403 15:40:50.426532 20162 net.cpp:156] Memory required for data: 1063013664
I0403 15:40:50.426547 20162 layer_factory.hpp:77] Creating layer inception_4c/output
I0403 15:40:50.426563 20162 net.cpp:91] Creating Layer inception_4c/output
I0403 15:40:50.426579 20162 net.cpp:425] inception_4c/output <- inception_4c/1x1
I0403 15:40:50.426596 20162 net.cpp:425] inception_4c/output <- inception_4c/3x3
I0403 15:40:50.426614 20162 net.cpp:425] inception_4c/output <- inception_4c/5x5
I0403 15:40:50.426630 20162 net.cpp:425] inception_4c/output <- inception_4c/pool_proj
I0403 15:40:50.426646 20162 net.cpp:399] inception_4c/output -> inception_4c/output
I0403 15:40:50.426697 20162 net.cpp:141] Setting up inception_4c/output
I0403 15:40:50.426720 20162 net.cpp:148] Top shape: 24 512 14 14 (2408448)
I0403 15:40:50.426735 20162 net.cpp:156] Memory required for data: 1072647456
I0403 15:40:50.426750 20162 layer_factory.hpp:77] Creating layer inception_4c/output_inception_4c/output_0_split
I0403 15:40:50.426767 20162 net.cpp:91] Creating Layer inception_4c/output_inception_4c/output_0_split
I0403 15:40:50.426784 20162 net.cpp:425] inception_4c/output_inception_4c/output_0_split <- inception_4c/output
I0403 15:40:50.426803 20162 net.cpp:399] inception_4c/output_inception_4c/output_0_split -> inception_4c/output_inception_4c/output_0_split_0
I0403 15:40:50.426826 20162 net.cpp:399] inception_4c/output_inception_4c/output_0_split -> inception_4c/output_inception_4c/output_0_split_1
I0403 15:40:50.426846 20162 net.cpp:399] inception_4c/output_inception_4c/output_0_split -> inception_4c/output_inception_4c/output_0_split_2
I0403 15:40:50.426867 20162 net.cpp:399] inception_4c/output_inception_4c/output_0_split -> inception_4c/output_inception_4c/output_0_split_3
I0403 15:40:50.426964 20162 net.cpp:141] Setting up inception_4c/output_inception_4c/output_0_split
I0403 15:40:50.426987 20162 net.cpp:148] Top shape: 24 512 14 14 (2408448)
I0403 15:40:50.427006 20162 net.cpp:148] Top shape: 24 512 14 14 (2408448)
I0403 15:40:50.427021 20162 net.cpp:148] Top shape: 24 512 14 14 (2408448)
I0403 15:40:50.427037 20162 net.cpp:148] Top shape: 24 512 14 14 (2408448)
I0403 15:40:50.427052 20162 net.cpp:156] Memory required for data: 1111182624
I0403 15:40:50.427065 20162 layer_factory.hpp:77] Creating layer inception_4d/1x1
I0403 15:40:50.427088 20162 net.cpp:91] Creating Layer inception_4d/1x1
I0403 15:40:50.427105 20162 net.cpp:425] inception_4d/1x1 <- inception_4c/output_inception_4c/output_0_split_0
I0403 15:40:50.427127 20162 net.cpp:399] inception_4d/1x1 -> inception_4d/1x1
I0403 15:40:50.428565 20162 net.cpp:141] Setting up inception_4d/1x1
I0403 15:40:50.428593 20162 net.cpp:148] Top shape: 24 112 14 14 (526848)
I0403 15:40:50.428609 20162 net.cpp:156] Memory required for data: 1113290016
I0403 15:40:50.428628 20162 layer_factory.hpp:77] Creating layer inception_4d/relu_1x1
I0403 15:40:50.428647 20162 net.cpp:91] Creating Layer inception_4d/relu_1x1
I0403 15:40:50.428663 20162 net.cpp:425] inception_4d/relu_1x1 <- inception_4d/1x1
I0403 15:40:50.428683 20162 net.cpp:386] inception_4d/relu_1x1 -> inception_4d/1x1 (in-place)
I0403 15:40:50.428876 20162 net.cpp:141] Setting up inception_4d/relu_1x1
I0403 15:40:50.428902 20162 net.cpp:148] Top shape: 24 112 14 14 (526848)
I0403 15:40:50.428917 20162 net.cpp:156] Memory required for data: 1115397408
I0403 15:40:50.428931 20162 layer_factory.hpp:77] Creating layer inception_4d/3x3_reduce
I0403 15:40:50.428993 20162 net.cpp:91] Creating Layer inception_4d/3x3_reduce
I0403 15:40:50.429014 20162 net.cpp:425] inception_4d/3x3_reduce <- inception_4c/output_inception_4c/output_0_split_1
I0403 15:40:50.429036 20162 net.cpp:399] inception_4d/3x3_reduce -> inception_4d/3x3_reduce
I0403 15:40:50.430632 20162 net.cpp:141] Setting up inception_4d/3x3_reduce
I0403 15:40:50.430663 20162 net.cpp:148] Top shape: 24 144 14 14 (677376)
I0403 15:40:50.430680 20162 net.cpp:156] Memory required for data: 1118106912
I0403 15:40:50.430699 20162 layer_factory.hpp:77] Creating layer inception_4d/relu_3x3_reduce
I0403 15:40:50.430718 20162 net.cpp:91] Creating Layer inception_4d/relu_3x3_reduce
I0403 15:40:50.430735 20162 net.cpp:425] inception_4d/relu_3x3_reduce <- inception_4d/3x3_reduce
I0403 15:40:50.430752 20162 net.cpp:386] inception_4d/relu_3x3_reduce -> inception_4d/3x3_reduce (in-place)
I0403 15:40:50.431058 20162 net.cpp:141] Setting up inception_4d/relu_3x3_reduce
I0403 15:40:50.431087 20162 net.cpp:148] Top shape: 24 144 14 14 (677376)
I0403 15:40:50.431104 20162 net.cpp:156] Memory required for data: 1120816416
I0403 15:40:50.431119 20162 layer_factory.hpp:77] Creating layer inception_4d/3x3
I0403 15:40:50.431143 20162 net.cpp:91] Creating Layer inception_4d/3x3
I0403 15:40:50.431160 20162 net.cpp:425] inception_4d/3x3 <- inception_4d/3x3_reduce
I0403 15:40:50.431180 20162 net.cpp:399] inception_4d/3x3 -> inception_4d/3x3
I0403 15:40:50.435518 20162 net.cpp:141] Setting up inception_4d/3x3
I0403 15:40:50.435547 20162 net.cpp:148] Top shape: 24 288 14 14 (1354752)
I0403 15:40:50.435564 20162 net.cpp:156] Memory required for data: 1126235424
I0403 15:40:50.435581 20162 layer_factory.hpp:77] Creating layer inception_4d/relu_3x3
I0403 15:40:50.435600 20162 net.cpp:91] Creating Layer inception_4d/relu_3x3
I0403 15:40:50.435616 20162 net.cpp:425] inception_4d/relu_3x3 <- inception_4d/3x3
I0403 15:40:50.435636 20162 net.cpp:386] inception_4d/relu_3x3 -> inception_4d/3x3 (in-place)
I0403 15:40:50.435819 20162 net.cpp:141] Setting up inception_4d/relu_3x3
I0403 15:40:50.435844 20162 net.cpp:148] Top shape: 24 288 14 14 (1354752)
I0403 15:40:50.435858 20162 net.cpp:156] Memory required for data: 1131654432
I0403 15:40:50.435873 20162 layer_factory.hpp:77] Creating layer inception_4d/5x5_reduce
I0403 15:40:50.435895 20162 net.cpp:91] Creating Layer inception_4d/5x5_reduce
I0403 15:40:50.435912 20162 net.cpp:425] inception_4d/5x5_reduce <- inception_4c/output_inception_4c/output_0_split_2
I0403 15:40:50.435933 20162 net.cpp:399] inception_4d/5x5_reduce -> inception_4d/5x5_reduce
I0403 15:40:50.437204 20162 net.cpp:141] Setting up inception_4d/5x5_reduce
I0403 15:40:50.437233 20162 net.cpp:148] Top shape: 24 32 14 14 (150528)
I0403 15:40:50.437261 20162 net.cpp:156] Memory required for data: 1132256544
I0403 15:40:50.437279 20162 layer_factory.hpp:77] Creating layer inception_4d/relu_5x5_reduce
I0403 15:40:50.437299 20162 net.cpp:91] Creating Layer inception_4d/relu_5x5_reduce
I0403 15:40:50.437317 20162 net.cpp:425] inception_4d/relu_5x5_reduce <- inception_4d/5x5_reduce
I0403 15:40:50.437335 20162 net.cpp:386] inception_4d/relu_5x5_reduce -> inception_4d/5x5_reduce (in-place)
I0403 15:40:50.437522 20162 net.cpp:141] Setting up inception_4d/relu_5x5_reduce
I0403 15:40:50.437547 20162 net.cpp:148] Top shape: 24 32 14 14 (150528)
I0403 15:40:50.437562 20162 net.cpp:156] Memory required for data: 1132858656
I0403 15:40:50.437577 20162 layer_factory.hpp:77] Creating layer inception_4d/5x5
I0403 15:40:50.437599 20162 net.cpp:91] Creating Layer inception_4d/5x5
I0403 15:40:50.437618 20162 net.cpp:425] inception_4d/5x5 <- inception_4d/5x5_reduce
I0403 15:40:50.437638 20162 net.cpp:399] inception_4d/5x5 -> inception_4d/5x5
I0403 15:40:50.439169 20162 net.cpp:141] Setting up inception_4d/5x5
I0403 15:40:50.439198 20162 net.cpp:148] Top shape: 24 64 14 14 (301056)
I0403 15:40:50.439215 20162 net.cpp:156] Memory required for data: 1134062880
I0403 15:40:50.439234 20162 layer_factory.hpp:77] Creating layer inception_4d/relu_5x5
I0403 15:40:50.439270 20162 net.cpp:91] Creating Layer inception_4d/relu_5x5
I0403 15:40:50.439288 20162 net.cpp:425] inception_4d/relu_5x5 <- inception_4d/5x5
I0403 15:40:50.439306 20162 net.cpp:386] inception_4d/relu_5x5 -> inception_4d/5x5 (in-place)
I0403 15:40:50.439609 20162 net.cpp:141] Setting up inception_4d/relu_5x5
I0403 15:40:50.439635 20162 net.cpp:148] Top shape: 24 64 14 14 (301056)
I0403 15:40:50.439649 20162 net.cpp:156] Memory required for data: 1135267104
I0403 15:40:50.439664 20162 layer_factory.hpp:77] Creating layer inception_4d/pool
I0403 15:40:50.439684 20162 net.cpp:91] Creating Layer inception_4d/pool
I0403 15:40:50.439702 20162 net.cpp:425] inception_4d/pool <- inception_4c/output_inception_4c/output_0_split_3
I0403 15:40:50.439720 20162 net.cpp:399] inception_4d/pool -> inception_4d/pool
I0403 15:40:50.439788 20162 net.cpp:141] Setting up inception_4d/pool
I0403 15:40:50.439812 20162 net.cpp:148] Top shape: 24 512 14 14 (2408448)
I0403 15:40:50.439826 20162 net.cpp:156] Memory required for data: 1144900896
I0403 15:40:50.439841 20162 layer_factory.hpp:77] Creating layer inception_4d/pool_proj
I0403 15:40:50.439863 20162 net.cpp:91] Creating Layer inception_4d/pool_proj
I0403 15:40:50.439880 20162 net.cpp:425] inception_4d/pool_proj <- inception_4d/pool
I0403 15:40:50.439901 20162 net.cpp:399] inception_4d/pool_proj -> inception_4d/pool_proj
I0403 15:40:50.441673 20162 net.cpp:141] Setting up inception_4d/pool_proj
I0403 15:40:50.441704 20162 net.cpp:148] Top shape: 24 64 14 14 (301056)
I0403 15:40:50.441720 20162 net.cpp:156] Memory required for data: 1146105120
I0403 15:40:50.441738 20162 layer_factory.hpp:77] Creating layer inception_4d/relu_pool_proj
I0403 15:40:50.441757 20162 net.cpp:91] Creating Layer inception_4d/relu_pool_proj
I0403 15:40:50.441773 20162 net.cpp:425] inception_4d/relu_pool_proj <- inception_4d/pool_proj
I0403 15:40:50.441792 20162 net.cpp:386] inception_4d/relu_pool_proj -> inception_4d/pool_proj (in-place)
I0403 15:40:50.441982 20162 net.cpp:141] Setting up inception_4d/relu_pool_proj
I0403 15:40:50.442008 20162 net.cpp:148] Top shape: 24 64 14 14 (301056)
I0403 15:40:50.442021 20162 net.cpp:156] Memory required for data: 1147309344
I0403 15:40:50.442036 20162 layer_factory.hpp:77] Creating layer inception_4d/output
I0403 15:40:50.442056 20162 net.cpp:91] Creating Layer inception_4d/output
I0403 15:40:50.442072 20162 net.cpp:425] inception_4d/output <- inception_4d/1x1
I0403 15:40:50.442090 20162 net.cpp:425] inception_4d/output <- inception_4d/3x3
I0403 15:40:50.442106 20162 net.cpp:425] inception_4d/output <- inception_4d/5x5
I0403 15:40:50.442121 20162 net.cpp:425] inception_4d/output <- inception_4d/pool_proj
I0403 15:40:50.442137 20162 net.cpp:399] inception_4d/output -> inception_4d/output
I0403 15:40:50.442188 20162 net.cpp:141] Setting up inception_4d/output
I0403 15:40:50.442212 20162 net.cpp:148] Top shape: 24 528 14 14 (2483712)
I0403 15:40:50.442227 20162 net.cpp:156] Memory required for data: 1157244192
I0403 15:40:50.442241 20162 layer_factory.hpp:77] Creating layer inception_4d/output_inception_4d/output_0_split
I0403 15:40:50.442260 20162 net.cpp:91] Creating Layer inception_4d/output_inception_4d/output_0_split
I0403 15:40:50.442276 20162 net.cpp:425] inception_4d/output_inception_4d/output_0_split <- inception_4d/output
I0403 15:40:50.442296 20162 net.cpp:399] inception_4d/output_inception_4d/output_0_split -> inception_4d/output_inception_4d/output_0_split_0
I0403 15:40:50.442317 20162 net.cpp:399] inception_4d/output_inception_4d/output_0_split -> inception_4d/output_inception_4d/output_0_split_1
I0403 15:40:50.442337 20162 net.cpp:399] inception_4d/output_inception_4d/output_0_split -> inception_4d/output_inception_4d/output_0_split_2
I0403 15:40:50.442358 20162 net.cpp:399] inception_4d/output_inception_4d/output_0_split -> inception_4d/output_inception_4d/output_0_split_3
I0403 15:40:50.442378 20162 net.cpp:399] inception_4d/output_inception_4d/output_0_split -> inception_4d/output_inception_4d/output_0_split_4
I0403 15:40:50.442481 20162 net.cpp:141] Setting up inception_4d/output_inception_4d/output_0_split
I0403 15:40:50.442517 20162 net.cpp:148] Top shape: 24 528 14 14 (2483712)
I0403 15:40:50.442535 20162 net.cpp:148] Top shape: 24 528 14 14 (2483712)
I0403 15:40:50.442553 20162 net.cpp:148] Top shape: 24 528 14 14 (2483712)
I0403 15:40:50.442569 20162 net.cpp:148] Top shape: 24 528 14 14 (2483712)
I0403 15:40:50.442584 20162 net.cpp:148] Top shape: 24 528 14 14 (2483712)
I0403 15:40:50.442597 20162 net.cpp:156] Memory required for data: 1206918432
I0403 15:40:50.442612 20162 layer_factory.hpp:77] Creating layer loss2/ave_pool
I0403 15:40:50.442631 20162 net.cpp:91] Creating Layer loss2/ave_pool
I0403 15:40:50.442646 20162 net.cpp:425] loss2/ave_pool <- inception_4d/output_inception_4d/output_0_split_0
I0403 15:40:50.442667 20162 net.cpp:399] loss2/ave_pool -> loss2/ave_pool
I0403 15:40:50.442986 20162 net.cpp:141] Setting up loss2/ave_pool
I0403 15:40:50.443013 20162 net.cpp:148] Top shape: 24 528 4 4 (202752)
I0403 15:40:50.443028 20162 net.cpp:156] Memory required for data: 1207729440
I0403 15:40:50.443043 20162 layer_factory.hpp:77] Creating layer loss2/conv
I0403 15:40:50.443068 20162 net.cpp:91] Creating Layer loss2/conv
I0403 15:40:50.443086 20162 net.cpp:425] loss2/conv <- loss2/ave_pool
I0403 15:40:50.443109 20162 net.cpp:399] loss2/conv -> loss2/conv
I0403 15:40:50.445235 20162 net.cpp:141] Setting up loss2/conv
I0403 15:40:50.445276 20162 net.cpp:148] Top shape: 24 128 4 4 (49152)
I0403 15:40:50.445296 20162 net.cpp:156] Memory required for data: 1207926048
I0403 15:40:50.445314 20162 layer_factory.hpp:77] Creating layer loss2/relu_conv
I0403 15:40:50.445333 20162 net.cpp:91] Creating Layer loss2/relu_conv
I0403 15:40:50.445350 20162 net.cpp:425] loss2/relu_conv <- loss2/conv
I0403 15:40:50.445368 20162 net.cpp:386] loss2/relu_conv -> loss2/conv (in-place)
I0403 15:40:50.445662 20162 net.cpp:141] Setting up loss2/relu_conv
I0403 15:40:50.445688 20162 net.cpp:148] Top shape: 24 128 4 4 (49152)
I0403 15:40:50.445706 20162 net.cpp:156] Memory required for data: 1208122656
I0403 15:40:50.445721 20162 layer_factory.hpp:77] Creating layer loss2/fc
I0403 15:40:50.445741 20162 net.cpp:91] Creating Layer loss2/fc
I0403 15:40:50.445757 20162 net.cpp:425] loss2/fc <- loss2/conv
I0403 15:40:50.445778 20162 net.cpp:399] loss2/fc -> loss2/fc
I0403 15:40:50.463691 20162 net.cpp:141] Setting up loss2/fc
I0403 15:40:50.463762 20162 net.cpp:148] Top shape: 24 1024 (24576)
I0403 15:40:50.463776 20162 net.cpp:156] Memory required for data: 1208220960
I0403 15:40:50.463795 20162 layer_factory.hpp:77] Creating layer loss2/relu_fc
I0403 15:40:50.463819 20162 net.cpp:91] Creating Layer loss2/relu_fc
I0403 15:40:50.463836 20162 net.cpp:425] loss2/relu_fc <- loss2/fc
I0403 15:40:50.463855 20162 net.cpp:386] loss2/relu_fc -> loss2/fc (in-place)
I0403 15:40:50.464206 20162 net.cpp:141] Setting up loss2/relu_fc
I0403 15:40:50.464232 20162 net.cpp:148] Top shape: 24 1024 (24576)
I0403 15:40:50.464248 20162 net.cpp:156] Memory required for data: 1208319264
I0403 15:40:50.464263 20162 layer_factory.hpp:77] Creating layer loss2/drop_fc
I0403 15:40:50.464282 20162 net.cpp:91] Creating Layer loss2/drop_fc
I0403 15:40:50.464300 20162 net.cpp:425] loss2/drop_fc <- loss2/fc
I0403 15:40:50.464319 20162 net.cpp:386] loss2/drop_fc -> loss2/fc (in-place)
I0403 15:40:50.464370 20162 net.cpp:141] Setting up loss2/drop_fc
I0403 15:40:50.464396 20162 net.cpp:148] Top shape: 24 1024 (24576)
I0403 15:40:50.464412 20162 net.cpp:156] Memory required for data: 1208417568
I0403 15:40:50.464427 20162 layer_factory.hpp:77] Creating layer loss2/classifier_plantvillage
I0403 15:40:50.464447 20162 net.cpp:91] Creating Layer loss2/classifier_plantvillage
I0403 15:40:50.464462 20162 net.cpp:425] loss2/classifier_plantvillage <- loss2/fc
I0403 15:40:50.464483 20162 net.cpp:399] loss2/classifier_plantvillage -> loss2/classifier_plantvillage
I0403 15:40:50.464898 20162 net.cpp:141] Setting up loss2/classifier_plantvillage
I0403 15:40:50.464925 20162 net.cpp:148] Top shape: 24 38 (912)
I0403 15:40:50.464980 20162 net.cpp:156] Memory required for data: 1208421216
I0403 15:40:50.465001 20162 layer_factory.hpp:77] Creating layer loss2/classifier_plantvillage_loss2/classifier_plantvillage_0_split
I0403 15:40:50.465021 20162 net.cpp:91] Creating Layer loss2/classifier_plantvillage_loss2/classifier_plantvillage_0_split
I0403 15:40:50.465039 20162 net.cpp:425] loss2/classifier_plantvillage_loss2/classifier_plantvillage_0_split <- loss2/classifier_plantvillage
I0403 15:40:50.465056 20162 net.cpp:399] loss2/classifier_plantvillage_loss2/classifier_plantvillage_0_split -> loss2/classifier_plantvillage_loss2/classifier_plantvillage_0_split_0
I0403 15:40:50.465076 20162 net.cpp:399] loss2/classifier_plantvillage_loss2/classifier_plantvillage_0_split -> loss2/classifier_plantvillage_loss2/classifier_plantvillage_0_split_1
I0403 15:40:50.465101 20162 net.cpp:399] loss2/classifier_plantvillage_loss2/classifier_plantvillage_0_split -> loss2/classifier_plantvillage_loss2/classifier_plantvillage_0_split_2
I0403 15:40:50.465183 20162 net.cpp:141] Setting up loss2/classifier_plantvillage_loss2/classifier_plantvillage_0_split
I0403 15:40:50.465207 20162 net.cpp:148] Top shape: 24 38 (912)
I0403 15:40:50.465224 20162 net.cpp:148] Top shape: 24 38 (912)
I0403 15:40:50.465240 20162 net.cpp:148] Top shape: 24 38 (912)
I0403 15:40:50.465266 20162 net.cpp:156] Memory required for data: 1208432160
I0403 15:40:50.465281 20162 layer_factory.hpp:77] Creating layer inception_4e/1x1
I0403 15:40:50.465304 20162 net.cpp:91] Creating Layer inception_4e/1x1
I0403 15:40:50.465322 20162 net.cpp:425] inception_4e/1x1 <- inception_4d/output_inception_4d/output_0_split_1
I0403 15:40:50.465343 20162 net.cpp:399] inception_4e/1x1 -> inception_4e/1x1
I0403 15:40:50.467227 20162 net.cpp:141] Setting up inception_4e/1x1
I0403 15:40:50.467257 20162 net.cpp:148] Top shape: 24 256 14 14 (1204224)
I0403 15:40:50.467272 20162 net.cpp:156] Memory required for data: 1213249056
I0403 15:40:50.467290 20162 layer_factory.hpp:77] Creating layer inception_4e/relu_1x1
I0403 15:40:50.467310 20162 net.cpp:91] Creating Layer inception_4e/relu_1x1
I0403 15:40:50.467326 20162 net.cpp:425] inception_4e/relu_1x1 <- inception_4e/1x1
I0403 15:40:50.467344 20162 net.cpp:386] inception_4e/relu_1x1 -> inception_4e/1x1 (in-place)
I0403 15:40:50.467645 20162 net.cpp:141] Setting up inception_4e/relu_1x1
I0403 15:40:50.467671 20162 net.cpp:148] Top shape: 24 256 14 14 (1204224)
I0403 15:40:50.467686 20162 net.cpp:156] Memory required for data: 1218065952
I0403 15:40:50.467701 20162 layer_factory.hpp:77] Creating layer inception_4e/3x3_reduce
I0403 15:40:50.467725 20162 net.cpp:91] Creating Layer inception_4e/3x3_reduce
I0403 15:40:50.467742 20162 net.cpp:425] inception_4e/3x3_reduce <- inception_4d/output_inception_4d/output_0_split_2
I0403 15:40:50.467761 20162 net.cpp:399] inception_4e/3x3_reduce -> inception_4e/3x3_reduce
I0403 15:40:50.469928 20162 net.cpp:141] Setting up inception_4e/3x3_reduce
I0403 15:40:50.469960 20162 net.cpp:148] Top shape: 24 160 14 14 (752640)
I0403 15:40:50.469993 20162 net.cpp:156] Memory required for data: 1221076512
I0403 15:40:50.470012 20162 layer_factory.hpp:77] Creating layer inception_4e/relu_3x3_reduce
I0403 15:40:50.470033 20162 net.cpp:91] Creating Layer inception_4e/relu_3x3_reduce
I0403 15:40:50.470051 20162 net.cpp:425] inception_4e/relu_3x3_reduce <- inception_4e/3x3_reduce
I0403 15:40:50.470068 20162 net.cpp:386] inception_4e/relu_3x3_reduce -> inception_4e/3x3_reduce (in-place)
I0403 15:40:50.470274 20162 net.cpp:141] Setting up inception_4e/relu_3x3_reduce
I0403 15:40:50.470301 20162 net.cpp:148] Top shape: 24 160 14 14 (752640)
I0403 15:40:50.470317 20162 net.cpp:156] Memory required for data: 1224087072
I0403 15:40:50.470331 20162 layer_factory.hpp:77] Creating layer inception_4e/3x3
I0403 15:40:50.470355 20162 net.cpp:91] Creating Layer inception_4e/3x3
I0403 15:40:50.470372 20162 net.cpp:425] inception_4e/3x3 <- inception_4e/3x3_reduce
I0403 15:40:50.470391 20162 net.cpp:399] inception_4e/3x3 -> inception_4e/3x3
I0403 15:40:50.475484 20162 net.cpp:141] Setting up inception_4e/3x3
I0403 15:40:50.475528 20162 net.cpp:148] Top shape: 24 320 14 14 (1505280)
I0403 15:40:50.475545 20162 net.cpp:156] Memory required for data: 1230108192
I0403 15:40:50.475565 20162 layer_factory.hpp:77] Creating layer inception_4e/relu_3x3
I0403 15:40:50.475584 20162 net.cpp:91] Creating Layer inception_4e/relu_3x3
I0403 15:40:50.475601 20162 net.cpp:425] inception_4e/relu_3x3 <- inception_4e/3x3
I0403 15:40:50.475621 20162 net.cpp:386] inception_4e/relu_3x3 -> inception_4e/3x3 (in-place)
I0403 15:40:50.475936 20162 net.cpp:141] Setting up inception_4e/relu_3x3
I0403 15:40:50.475967 20162 net.cpp:148] Top shape: 24 320 14 14 (1505280)
I0403 15:40:50.475985 20162 net.cpp:156] Memory required for data: 1236129312
I0403 15:40:50.476001 20162 layer_factory.hpp:77] Creating layer inception_4e/5x5_reduce
I0403 15:40:50.476024 20162 net.cpp:91] Creating Layer inception_4e/5x5_reduce
I0403 15:40:50.476042 20162 net.cpp:425] inception_4e/5x5_reduce <- inception_4d/output_inception_4d/output_0_split_3
I0403 15:40:50.476064 20162 net.cpp:399] inception_4e/5x5_reduce -> inception_4e/5x5_reduce
I0403 15:40:50.477190 20162 net.cpp:141] Setting up inception_4e/5x5_reduce
I0403 15:40:50.477217 20162 net.cpp:148] Top shape: 24 32 14 14 (150528)
I0403 15:40:50.477234 20162 net.cpp:156] Memory required for data: 1236731424
I0403 15:40:50.477264 20162 layer_factory.hpp:77] Creating layer inception_4e/relu_5x5_reduce
I0403 15:40:50.477285 20162 net.cpp:91] Creating Layer inception_4e/relu_5x5_reduce
I0403 15:40:50.477301 20162 net.cpp:425] inception_4e/relu_5x5_reduce <- inception_4e/5x5_reduce
I0403 15:40:50.477319 20162 net.cpp:386] inception_4e/relu_5x5_reduce -> inception_4e/5x5_reduce (in-place)
I0403 15:40:50.477623 20162 net.cpp:141] Setting up inception_4e/relu_5x5_reduce
I0403 15:40:50.477649 20162 net.cpp:148] Top shape: 24 32 14 14 (150528)
I0403 15:40:50.477664 20162 net.cpp:156] Memory required for data: 1237333536
I0403 15:40:50.477679 20162 layer_factory.hpp:77] Creating layer inception_4e/5x5
I0403 15:40:50.477720 20162 net.cpp:91] Creating Layer inception_4e/5x5
I0403 15:40:50.477738 20162 net.cpp:425] inception_4e/5x5 <- inception_4e/5x5_reduce
I0403 15:40:50.477757 20162 net.cpp:399] inception_4e/5x5 -> inception_4e/5x5
I0403 15:40:50.479658 20162 net.cpp:141] Setting up inception_4e/5x5
I0403 15:40:50.479686 20162 net.cpp:148] Top shape: 24 128 14 14 (602112)
I0403 15:40:50.479702 20162 net.cpp:156] Memory required for data: 1239741984
I0403 15:40:50.479722 20162 layer_factory.hpp:77] Creating layer inception_4e/relu_5x5
I0403 15:40:50.479742 20162 net.cpp:91] Creating Layer inception_4e/relu_5x5
I0403 15:40:50.479758 20162 net.cpp:425] inception_4e/relu_5x5 <- inception_4e/5x5
I0403 15:40:50.479775 20162 net.cpp:386] inception_4e/relu_5x5 -> inception_4e/5x5 (in-place)
I0403 15:40:50.479979 20162 net.cpp:141] Setting up inception_4e/relu_5x5
I0403 15:40:50.480006 20162 net.cpp:148] Top shape: 24 128 14 14 (602112)
I0403 15:40:50.480021 20162 net.cpp:156] Memory required for data: 1242150432
I0403 15:40:50.480036 20162 layer_factory.hpp:77] Creating layer inception_4e/pool
I0403 15:40:50.480054 20162 net.cpp:91] Creating Layer inception_4e/pool
I0403 15:40:50.480070 20162 net.cpp:425] inception_4e/pool <- inception_4d/output_inception_4d/output_0_split_4
I0403 15:40:50.480088 20162 net.cpp:399] inception_4e/pool -> inception_4e/pool
I0403 15:40:50.480161 20162 net.cpp:141] Setting up inception_4e/pool
I0403 15:40:50.480185 20162 net.cpp:148] Top shape: 24 528 14 14 (2483712)
I0403 15:40:50.480200 20162 net.cpp:156] Memory required for data: 1252085280
I0403 15:40:50.480216 20162 layer_factory.hpp:77] Creating layer inception_4e/pool_proj
I0403 15:40:50.480237 20162 net.cpp:91] Creating Layer inception_4e/pool_proj
I0403 15:40:50.480254 20162 net.cpp:425] inception_4e/pool_proj <- inception_4e/pool
I0403 15:40:50.480276 20162 net.cpp:399] inception_4e/pool_proj -> inception_4e/pool_proj
I0403 15:40:50.481787 20162 net.cpp:141] Setting up inception_4e/pool_proj
I0403 15:40:50.481827 20162 net.cpp:148] Top shape: 24 128 14 14 (602112)
I0403 15:40:50.481843 20162 net.cpp:156] Memory required for data: 1254493728
I0403 15:40:50.481863 20162 layer_factory.hpp:77] Creating layer inception_4e/relu_pool_proj
I0403 15:40:50.481879 20162 net.cpp:91] Creating Layer inception_4e/relu_pool_proj
I0403 15:40:50.481896 20162 net.cpp:425] inception_4e/relu_pool_proj <- inception_4e/pool_proj
I0403 15:40:50.481915 20162 net.cpp:386] inception_4e/relu_pool_proj -> inception_4e/pool_proj (in-place)
I0403 15:40:50.482216 20162 net.cpp:141] Setting up inception_4e/relu_pool_proj
I0403 15:40:50.482244 20162 net.cpp:148] Top shape: 24 128 14 14 (602112)
I0403 15:40:50.482259 20162 net.cpp:156] Memory required for data: 1256902176
I0403 15:40:50.482273 20162 layer_factory.hpp:77] Creating layer inception_4e/output
I0403 15:40:50.482291 20162 net.cpp:91] Creating Layer inception_4e/output
I0403 15:40:50.482307 20162 net.cpp:425] inception_4e/output <- inception_4e/1x1
I0403 15:40:50.482323 20162 net.cpp:425] inception_4e/output <- inception_4e/3x3
I0403 15:40:50.482341 20162 net.cpp:425] inception_4e/output <- inception_4e/5x5
I0403 15:40:50.482355 20162 net.cpp:425] inception_4e/output <- inception_4e/pool_proj
I0403 15:40:50.482374 20162 net.cpp:399] inception_4e/output -> inception_4e/output
I0403 15:40:50.482425 20162 net.cpp:141] Setting up inception_4e/output
I0403 15:40:50.482452 20162 net.cpp:148] Top shape: 24 832 14 14 (3913728)
I0403 15:40:50.482467 20162 net.cpp:156] Memory required for data: 1272557088
I0403 15:40:50.482482 20162 layer_factory.hpp:77] Creating layer pool4/3x3_s2
I0403 15:40:50.482499 20162 net.cpp:91] Creating Layer pool4/3x3_s2
I0403 15:40:50.482516 20162 net.cpp:425] pool4/3x3_s2 <- inception_4e/output
I0403 15:40:50.482535 20162 net.cpp:399] pool4/3x3_s2 -> pool4/3x3_s2
I0403 15:40:50.482604 20162 net.cpp:141] Setting up pool4/3x3_s2
I0403 15:40:50.482628 20162 net.cpp:148] Top shape: 24 832 7 7 (978432)
I0403 15:40:50.482642 20162 net.cpp:156] Memory required for data: 1276470816
I0403 15:40:50.482656 20162 layer_factory.hpp:77] Creating layer pool4/3x3_s2_pool4/3x3_s2_0_split
I0403 15:40:50.482676 20162 net.cpp:91] Creating Layer pool4/3x3_s2_pool4/3x3_s2_0_split
I0403 15:40:50.482692 20162 net.cpp:425] pool4/3x3_s2_pool4/3x3_s2_0_split <- pool4/3x3_s2
I0403 15:40:50.482710 20162 net.cpp:399] pool4/3x3_s2_pool4/3x3_s2_0_split -> pool4/3x3_s2_pool4/3x3_s2_0_split_0
I0403 15:40:50.482730 20162 net.cpp:399] pool4/3x3_s2_pool4/3x3_s2_0_split -> pool4/3x3_s2_pool4/3x3_s2_0_split_1
I0403 15:40:50.482753 20162 net.cpp:399] pool4/3x3_s2_pool4/3x3_s2_0_split -> pool4/3x3_s2_pool4/3x3_s2_0_split_2
I0403 15:40:50.482774 20162 net.cpp:399] pool4/3x3_s2_pool4/3x3_s2_0_split -> pool4/3x3_s2_pool4/3x3_s2_0_split_3
I0403 15:40:50.482864 20162 net.cpp:141] Setting up pool4/3x3_s2_pool4/3x3_s2_0_split
I0403 15:40:50.482887 20162 net.cpp:148] Top shape: 24 832 7 7 (978432)
I0403 15:40:50.482903 20162 net.cpp:148] Top shape: 24 832 7 7 (978432)
I0403 15:40:50.482919 20162 net.cpp:148] Top shape: 24 832 7 7 (978432)
I0403 15:40:50.482935 20162 net.cpp:148] Top shape: 24 832 7 7 (978432)
I0403 15:40:50.482949 20162 net.cpp:156] Memory required for data: 1292125728
I0403 15:40:50.482980 20162 layer_factory.hpp:77] Creating layer inception_5a/1x1
I0403 15:40:50.483005 20162 net.cpp:91] Creating Layer inception_5a/1x1
I0403 15:40:50.483022 20162 net.cpp:425] inception_5a/1x1 <- pool4/3x3_s2_pool4/3x3_s2_0_split_0
I0403 15:40:50.483044 20162 net.cpp:399] inception_5a/1x1 -> inception_5a/1x1
I0403 15:40:50.485893 20162 net.cpp:141] Setting up inception_5a/1x1
I0403 15:40:50.485921 20162 net.cpp:148] Top shape: 24 256 7 7 (301056)
I0403 15:40:50.485936 20162 net.cpp:156] Memory required for data: 1293329952
I0403 15:40:50.485957 20162 layer_factory.hpp:77] Creating layer inception_5a/relu_1x1
I0403 15:40:50.485980 20162 net.cpp:91] Creating Layer inception_5a/relu_1x1
I0403 15:40:50.485996 20162 net.cpp:425] inception_5a/relu_1x1 <- inception_5a/1x1
I0403 15:40:50.486012 20162 net.cpp:386] inception_5a/relu_1x1 -> inception_5a/1x1 (in-place)
I0403 15:40:50.486320 20162 net.cpp:141] Setting up inception_5a/relu_1x1
I0403 15:40:50.486346 20162 net.cpp:148] Top shape: 24 256 7 7 (301056)
I0403 15:40:50.486361 20162 net.cpp:156] Memory required for data: 1294534176
I0403 15:40:50.486376 20162 layer_factory.hpp:77] Creating layer inception_5a/3x3_reduce
I0403 15:40:50.486397 20162 net.cpp:91] Creating Layer inception_5a/3x3_reduce
I0403 15:40:50.486414 20162 net.cpp:425] inception_5a/3x3_reduce <- pool4/3x3_s2_pool4/3x3_s2_0_split_1
I0403 15:40:50.486438 20162 net.cpp:399] inception_5a/3x3_reduce -> inception_5a/3x3_reduce
I0403 15:40:50.489728 20162 net.cpp:141] Setting up inception_5a/3x3_reduce
I0403 15:40:50.489756 20162 net.cpp:148] Top shape: 24 160 7 7 (188160)
I0403 15:40:50.489771 20162 net.cpp:156] Memory required for data: 1295286816
I0403 15:40:50.489789 20162 layer_factory.hpp:77] Creating layer inception_5a/relu_3x3_reduce
I0403 15:40:50.489807 20162 net.cpp:91] Creating Layer inception_5a/relu_3x3_reduce
I0403 15:40:50.489822 20162 net.cpp:425] inception_5a/relu_3x3_reduce <- inception_5a/3x3_reduce
I0403 15:40:50.489841 20162 net.cpp:386] inception_5a/relu_3x3_reduce -> inception_5a/3x3_reduce (in-place)
I0403 15:40:50.490031 20162 net.cpp:141] Setting up inception_5a/relu_3x3_reduce
I0403 15:40:50.490056 20162 net.cpp:148] Top shape: 24 160 7 7 (188160)
I0403 15:40:50.490069 20162 net.cpp:156] Memory required for data: 1296039456
I0403 15:40:50.490083 20162 layer_factory.hpp:77] Creating layer inception_5a/3x3
I0403 15:40:50.490105 20162 net.cpp:91] Creating Layer inception_5a/3x3
I0403 15:40:50.490123 20162 net.cpp:425] inception_5a/3x3 <- inception_5a/3x3_reduce
I0403 15:40:50.490144 20162 net.cpp:399] inception_5a/3x3 -> inception_5a/3x3
I0403 15:40:50.495148 20162 net.cpp:141] Setting up inception_5a/3x3
I0403 15:40:50.495177 20162 net.cpp:148] Top shape: 24 320 7 7 (376320)
I0403 15:40:50.495193 20162 net.cpp:156] Memory required for data: 1297544736
I0403 15:40:50.495213 20162 layer_factory.hpp:77] Creating layer inception_5a/relu_3x3
I0403 15:40:50.495234 20162 net.cpp:91] Creating Layer inception_5a/relu_3x3
I0403 15:40:50.495249 20162 net.cpp:425] inception_5a/relu_3x3 <- inception_5a/3x3
I0403 15:40:50.495266 20162 net.cpp:386] inception_5a/relu_3x3 -> inception_5a/3x3 (in-place)
I0403 15:40:50.495568 20162 net.cpp:141] Setting up inception_5a/relu_3x3
I0403 15:40:50.495594 20162 net.cpp:148] Top shape: 24 320 7 7 (376320)
I0403 15:40:50.495609 20162 net.cpp:156] Memory required for data: 1299050016
I0403 15:40:50.495622 20162 layer_factory.hpp:77] Creating layer inception_5a/5x5_reduce
I0403 15:40:50.495645 20162 net.cpp:91] Creating Layer inception_5a/5x5_reduce
I0403 15:40:50.495661 20162 net.cpp:425] inception_5a/5x5_reduce <- pool4/3x3_s2_pool4/3x3_s2_0_split_2
I0403 15:40:50.495682 20162 net.cpp:399] inception_5a/5x5_reduce -> inception_5a/5x5_reduce
I0403 15:40:50.496834 20162 net.cpp:141] Setting up inception_5a/5x5_reduce
I0403 15:40:50.496865 20162 net.cpp:148] Top shape: 24 32 7 7 (37632)
I0403 15:40:50.496881 20162 net.cpp:156] Memory required for data: 1299200544
I0403 15:40:50.496898 20162 layer_factory.hpp:77] Creating layer inception_5a/relu_5x5_reduce
I0403 15:40:50.496917 20162 net.cpp:91] Creating Layer inception_5a/relu_5x5_reduce
I0403 15:40:50.496932 20162 net.cpp:425] inception_5a/relu_5x5_reduce <- inception_5a/5x5_reduce
I0403 15:40:50.496948 20162 net.cpp:386] inception_5a/relu_5x5_reduce -> inception_5a/5x5_reduce (in-place)
I0403 15:40:50.497270 20162 net.cpp:141] Setting up inception_5a/relu_5x5_reduce
I0403 15:40:50.497297 20162 net.cpp:148] Top shape: 24 32 7 7 (37632)
I0403 15:40:50.497314 20162 net.cpp:156] Memory required for data: 1299351072
I0403 15:40:50.497328 20162 layer_factory.hpp:77] Creating layer inception_5a/5x5
I0403 15:40:50.497360 20162 net.cpp:91] Creating Layer inception_5a/5x5
I0403 15:40:50.497376 20162 net.cpp:425] inception_5a/5x5 <- inception_5a/5x5_reduce
I0403 15:40:50.497397 20162 net.cpp:399] inception_5a/5x5 -> inception_5a/5x5
I0403 15:40:50.499116 20162 net.cpp:141] Setting up inception_5a/5x5
I0403 15:40:50.499156 20162 net.cpp:148] Top shape: 24 128 7 7 (150528)
I0403 15:40:50.499172 20162 net.cpp:156] Memory required for data: 1299953184
I0403 15:40:50.499191 20162 layer_factory.hpp:77] Creating layer inception_5a/relu_5x5
I0403 15:40:50.499210 20162 net.cpp:91] Creating Layer inception_5a/relu_5x5
I0403 15:40:50.499228 20162 net.cpp:425] inception_5a/relu_5x5 <- inception_5a/5x5
I0403 15:40:50.499245 20162 net.cpp:386] inception_5a/relu_5x5 -> inception_5a/5x5 (in-place)
I0403 15:40:50.499444 20162 net.cpp:141] Setting up inception_5a/relu_5x5
I0403 15:40:50.499471 20162 net.cpp:148] Top shape: 24 128 7 7 (150528)
I0403 15:40:50.499486 20162 net.cpp:156] Memory required for data: 1300555296
I0403 15:40:50.499500 20162 layer_factory.hpp:77] Creating layer inception_5a/pool
I0403 15:40:50.499517 20162 net.cpp:91] Creating Layer inception_5a/pool
I0403 15:40:50.499533 20162 net.cpp:425] inception_5a/pool <- pool4/3x3_s2_pool4/3x3_s2_0_split_3
I0403 15:40:50.499552 20162 net.cpp:399] inception_5a/pool -> inception_5a/pool
I0403 15:40:50.499620 20162 net.cpp:141] Setting up inception_5a/pool
I0403 15:40:50.499644 20162 net.cpp:148] Top shape: 24 832 7 7 (978432)
I0403 15:40:50.499657 20162 net.cpp:156] Memory required for data: 1304469024
I0403 15:40:50.499671 20162 layer_factory.hpp:77] Creating layer inception_5a/pool_proj
I0403 15:40:50.499692 20162 net.cpp:91] Creating Layer inception_5a/pool_proj
I0403 15:40:50.499709 20162 net.cpp:425] inception_5a/pool_proj <- inception_5a/pool
I0403 15:40:50.499729 20162 net.cpp:399] inception_5a/pool_proj -> inception_5a/pool_proj
I0403 15:40:50.501973 20162 net.cpp:141] Setting up inception_5a/pool_proj
I0403 15:40:50.502002 20162 net.cpp:148] Top shape: 24 128 7 7 (150528)
I0403 15:40:50.502017 20162 net.cpp:156] Memory required for data: 1305071136
I0403 15:40:50.502034 20162 layer_factory.hpp:77] Creating layer inception_5a/relu_pool_proj
I0403 15:40:50.502053 20162 net.cpp:91] Creating Layer inception_5a/relu_pool_proj
I0403 15:40:50.502070 20162 net.cpp:425] inception_5a/relu_pool_proj <- inception_5a/pool_proj
I0403 15:40:50.502087 20162 net.cpp:386] inception_5a/relu_pool_proj -> inception_5a/pool_proj (in-place)
I0403 15:40:50.502377 20162 net.cpp:141] Setting up inception_5a/relu_pool_proj
I0403 15:40:50.502401 20162 net.cpp:148] Top shape: 24 128 7 7 (150528)
I0403 15:40:50.502416 20162 net.cpp:156] Memory required for data: 1305673248
I0403 15:40:50.502431 20162 layer_factory.hpp:77] Creating layer inception_5a/output
I0403 15:40:50.502447 20162 net.cpp:91] Creating Layer inception_5a/output
I0403 15:40:50.502463 20162 net.cpp:425] inception_5a/output <- inception_5a/1x1
I0403 15:40:50.502480 20162 net.cpp:425] inception_5a/output <- inception_5a/3x3
I0403 15:40:50.502495 20162 net.cpp:425] inception_5a/output <- inception_5a/5x5
I0403 15:40:50.502509 20162 net.cpp:425] inception_5a/output <- inception_5a/pool_proj
I0403 15:40:50.502528 20162 net.cpp:399] inception_5a/output -> inception_5a/output
I0403 15:40:50.502576 20162 net.cpp:141] Setting up inception_5a/output
I0403 15:40:50.502602 20162 net.cpp:148] Top shape: 24 832 7 7 (978432)
I0403 15:40:50.502617 20162 net.cpp:156] Memory required for data: 1309586976
I0403 15:40:50.502631 20162 layer_factory.hpp:77] Creating layer inception_5a/output_inception_5a/output_0_split
I0403 15:40:50.502648 20162 net.cpp:91] Creating Layer inception_5a/output_inception_5a/output_0_split
I0403 15:40:50.502663 20162 net.cpp:425] inception_5a/output_inception_5a/output_0_split <- inception_5a/output
I0403 15:40:50.502683 20162 net.cpp:399] inception_5a/output_inception_5a/output_0_split -> inception_5a/output_inception_5a/output_0_split_0
I0403 15:40:50.502703 20162 net.cpp:399] inception_5a/output_inception_5a/output_0_split -> inception_5a/output_inception_5a/output_0_split_1
I0403 15:40:50.502723 20162 net.cpp:399] inception_5a/output_inception_5a/output_0_split -> inception_5a/output_inception_5a/output_0_split_2
I0403 15:40:50.502743 20162 net.cpp:399] inception_5a/output_inception_5a/output_0_split -> inception_5a/output_inception_5a/output_0_split_3
I0403 15:40:50.502851 20162 net.cpp:141] Setting up inception_5a/output_inception_5a/output_0_split
I0403 15:40:50.502874 20162 net.cpp:148] Top shape: 24 832 7 7 (978432)
I0403 15:40:50.502894 20162 net.cpp:148] Top shape: 24 832 7 7 (978432)
I0403 15:40:50.502909 20162 net.cpp:148] Top shape: 24 832 7 7 (978432)
I0403 15:40:50.502924 20162 net.cpp:148] Top shape: 24 832 7 7 (978432)
I0403 15:40:50.502938 20162 net.cpp:156] Memory required for data: 1325241888
I0403 15:40:50.502951 20162 layer_factory.hpp:77] Creating layer inception_5b/1x1
I0403 15:40:50.502977 20162 net.cpp:91] Creating Layer inception_5b/1x1
I0403 15:40:50.502995 20162 net.cpp:425] inception_5b/1x1 <- inception_5a/output_inception_5a/output_0_split_0
I0403 15:40:50.503015 20162 net.cpp:399] inception_5b/1x1 -> inception_5b/1x1
I0403 15:40:50.506721 20162 net.cpp:141] Setting up inception_5b/1x1
I0403 15:40:50.506748 20162 net.cpp:148] Top shape: 24 384 7 7 (451584)
I0403 15:40:50.506763 20162 net.cpp:156] Memory required for data: 1327048224
I0403 15:40:50.506781 20162 layer_factory.hpp:77] Creating layer inception_5b/relu_1x1
I0403 15:40:50.506798 20162 net.cpp:91] Creating Layer inception_5b/relu_1x1
I0403 15:40:50.506814 20162 net.cpp:425] inception_5b/relu_1x1 <- inception_5b/1x1
I0403 15:40:50.506834 20162 net.cpp:386] inception_5b/relu_1x1 -> inception_5b/1x1 (in-place)
I0403 15:40:50.507143 20162 net.cpp:141] Setting up inception_5b/relu_1x1
I0403 15:40:50.507169 20162 net.cpp:148] Top shape: 24 384 7 7 (451584)
I0403 15:40:50.507184 20162 net.cpp:156] Memory required for data: 1328854560
I0403 15:40:50.507199 20162 layer_factory.hpp:77] Creating layer inception_5b/3x3_reduce
I0403 15:40:50.507220 20162 net.cpp:91] Creating Layer inception_5b/3x3_reduce
I0403 15:40:50.507237 20162 net.cpp:425] inception_5b/3x3_reduce <- inception_5a/output_inception_5a/output_0_split_1
I0403 15:40:50.507259 20162 net.cpp:399] inception_5b/3x3_reduce -> inception_5b/3x3_reduce
I0403 15:40:50.509898 20162 net.cpp:141] Setting up inception_5b/3x3_reduce
I0403 15:40:50.509927 20162 net.cpp:148] Top shape: 24 192 7 7 (225792)
I0403 15:40:50.509941 20162 net.cpp:156] Memory required for data: 1329757728
I0403 15:40:50.509965 20162 layer_factory.hpp:77] Creating layer inception_5b/relu_3x3_reduce
I0403 15:40:50.509984 20162 net.cpp:91] Creating Layer inception_5b/relu_3x3_reduce
I0403 15:40:50.510004 20162 net.cpp:425] inception_5b/relu_3x3_reduce <- inception_5b/3x3_reduce
I0403 15:40:50.510020 20162 net.cpp:386] inception_5b/relu_3x3_reduce -> inception_5b/3x3_reduce (in-place)
I0403 15:40:50.510205 20162 net.cpp:141] Setting up inception_5b/relu_3x3_reduce
I0403 15:40:50.510229 20162 net.cpp:148] Top shape: 24 192 7 7 (225792)
I0403 15:40:50.510243 20162 net.cpp:156] Memory required for data: 1330660896
I0403 15:40:50.510258 20162 layer_factory.hpp:77] Creating layer inception_5b/3x3
I0403 15:40:50.510279 20162 net.cpp:91] Creating Layer inception_5b/3x3
I0403 15:40:50.510296 20162 net.cpp:425] inception_5b/3x3 <- inception_5b/3x3_reduce
I0403 15:40:50.510318 20162 net.cpp:399] inception_5b/3x3 -> inception_5b/3x3
I0403 15:40:50.517094 20162 net.cpp:141] Setting up inception_5b/3x3
I0403 15:40:50.517124 20162 net.cpp:148] Top shape: 24 384 7 7 (451584)
I0403 15:40:50.517139 20162 net.cpp:156] Memory required for data: 1332467232
I0403 15:40:50.517158 20162 layer_factory.hpp:77] Creating layer inception_5b/relu_3x3
I0403 15:40:50.517180 20162 net.cpp:91] Creating Layer inception_5b/relu_3x3
I0403 15:40:50.517197 20162 net.cpp:425] inception_5b/relu_3x3 <- inception_5b/3x3
I0403 15:40:50.517215 20162 net.cpp:386] inception_5b/relu_3x3 -> inception_5b/3x3 (in-place)
I0403 15:40:50.517518 20162 net.cpp:141] Setting up inception_5b/relu_3x3
I0403 15:40:50.517544 20162 net.cpp:148] Top shape: 24 384 7 7 (451584)
I0403 15:40:50.517560 20162 net.cpp:156] Memory required for data: 1334273568
I0403 15:40:50.517575 20162 layer_factory.hpp:77] Creating layer inception_5b/5x5_reduce
I0403 15:40:50.517612 20162 net.cpp:91] Creating Layer inception_5b/5x5_reduce
I0403 15:40:50.517632 20162 net.cpp:425] inception_5b/5x5_reduce <- inception_5a/output_inception_5a/output_0_split_2
I0403 15:40:50.517654 20162 net.cpp:399] inception_5b/5x5_reduce -> inception_5b/5x5_reduce
I0403 15:40:50.519011 20162 net.cpp:141] Setting up inception_5b/5x5_reduce
I0403 15:40:50.519040 20162 net.cpp:148] Top shape: 24 48 7 7 (56448)
I0403 15:40:50.519057 20162 net.cpp:156] Memory required for data: 1334499360
I0403 15:40:50.519076 20162 layer_factory.hpp:77] Creating layer inception_5b/relu_5x5_reduce
I0403 15:40:50.519094 20162 net.cpp:91] Creating Layer inception_5b/relu_5x5_reduce
I0403 15:40:50.519111 20162 net.cpp:425] inception_5b/relu_5x5_reduce <- inception_5b/5x5_reduce
I0403 15:40:50.519132 20162 net.cpp:386] inception_5b/relu_5x5_reduce -> inception_5b/5x5_reduce (in-place)
I0403 15:40:50.519528 20162 net.cpp:141] Setting up inception_5b/relu_5x5_reduce
I0403 15:40:50.519556 20162 net.cpp:148] Top shape: 24 48 7 7 (56448)
I0403 15:40:50.519572 20162 net.cpp:156] Memory required for data: 1334725152
I0403 15:40:50.519587 20162 layer_factory.hpp:77] Creating layer inception_5b/5x5
I0403 15:40:50.519608 20162 net.cpp:91] Creating Layer inception_5b/5x5
I0403 15:40:50.519626 20162 net.cpp:425] inception_5b/5x5 <- inception_5b/5x5_reduce
I0403 15:40:50.519645 20162 net.cpp:399] inception_5b/5x5 -> inception_5b/5x5
I0403 15:40:50.521812 20162 net.cpp:141] Setting up inception_5b/5x5
I0403 15:40:50.521842 20162 net.cpp:148] Top shape: 24 128 7 7 (150528)
I0403 15:40:50.521857 20162 net.cpp:156] Memory required for data: 1335327264
I0403 15:40:50.521877 20162 layer_factory.hpp:77] Creating layer inception_5b/relu_5x5
I0403 15:40:50.521898 20162 net.cpp:91] Creating Layer inception_5b/relu_5x5
I0403 15:40:50.521915 20162 net.cpp:425] inception_5b/relu_5x5 <- inception_5b/5x5
I0403 15:40:50.521935 20162 net.cpp:386] inception_5b/relu_5x5 -> inception_5b/5x5 (in-place)
I0403 15:40:50.522143 20162 net.cpp:141] Setting up inception_5b/relu_5x5
I0403 15:40:50.522171 20162 net.cpp:148] Top shape: 24 128 7 7 (150528)
I0403 15:40:50.522187 20162 net.cpp:156] Memory required for data: 1335929376
I0403 15:40:50.522202 20162 layer_factory.hpp:77] Creating layer inception_5b/pool
I0403 15:40:50.522220 20162 net.cpp:91] Creating Layer inception_5b/pool
I0403 15:40:50.522238 20162 net.cpp:425] inception_5b/pool <- inception_5a/output_inception_5a/output_0_split_3
I0403 15:40:50.522258 20162 net.cpp:399] inception_5b/pool -> inception_5b/pool
I0403 15:40:50.522333 20162 net.cpp:141] Setting up inception_5b/pool
I0403 15:40:50.522358 20162 net.cpp:148] Top shape: 24 832 7 7 (978432)
I0403 15:40:50.522373 20162 net.cpp:156] Memory required for data: 1339843104
I0403 15:40:50.522388 20162 layer_factory.hpp:77] Creating layer inception_5b/pool_proj
I0403 15:40:50.522410 20162 net.cpp:91] Creating Layer inception_5b/pool_proj
I0403 15:40:50.522429 20162 net.cpp:425] inception_5b/pool_proj <- inception_5b/pool
I0403 15:40:50.522450 20162 net.cpp:399] inception_5b/pool_proj -> inception_5b/pool_proj
I0403 15:40:50.524863 20162 net.cpp:141] Setting up inception_5b/pool_proj
I0403 15:40:50.524893 20162 net.cpp:148] Top shape: 24 128 7 7 (150528)
I0403 15:40:50.524909 20162 net.cpp:156] Memory required for data: 1340445216
I0403 15:40:50.524927 20162 layer_factory.hpp:77] Creating layer inception_5b/relu_pool_proj
I0403 15:40:50.524948 20162 net.cpp:91] Creating Layer inception_5b/relu_pool_proj
I0403 15:40:50.524974 20162 net.cpp:425] inception_5b/relu_pool_proj <- inception_5b/pool_proj
I0403 15:40:50.524993 20162 net.cpp:386] inception_5b/relu_pool_proj -> inception_5b/pool_proj (in-place)
I0403 15:40:50.525305 20162 net.cpp:141] Setting up inception_5b/relu_pool_proj
I0403 15:40:50.525331 20162 net.cpp:148] Top shape: 24 128 7 7 (150528)
I0403 15:40:50.525347 20162 net.cpp:156] Memory required for data: 1341047328
I0403 15:40:50.525362 20162 layer_factory.hpp:77] Creating layer inception_5b/output
I0403 15:40:50.525380 20162 net.cpp:91] Creating Layer inception_5b/output
I0403 15:40:50.525413 20162 net.cpp:425] inception_5b/output <- inception_5b/1x1
I0403 15:40:50.525431 20162 net.cpp:425] inception_5b/output <- inception_5b/3x3
I0403 15:40:50.525449 20162 net.cpp:425] inception_5b/output <- inception_5b/5x5
I0403 15:40:50.525465 20162 net.cpp:425] inception_5b/output <- inception_5b/pool_proj
I0403 15:40:50.525485 20162 net.cpp:399] inception_5b/output -> inception_5b/output
I0403 15:40:50.525539 20162 net.cpp:141] Setting up inception_5b/output
I0403 15:40:50.525568 20162 net.cpp:148] Top shape: 24 1024 7 7 (1204224)
I0403 15:40:50.525583 20162 net.cpp:156] Memory required for data: 1345864224
I0403 15:40:50.525600 20162 layer_factory.hpp:77] Creating layer pool5/7x7_s1
I0403 15:40:50.525619 20162 net.cpp:91] Creating Layer pool5/7x7_s1
I0403 15:40:50.525635 20162 net.cpp:425] pool5/7x7_s1 <- inception_5b/output
I0403 15:40:50.525656 20162 net.cpp:399] pool5/7x7_s1 -> pool5/7x7_s1
I0403 15:40:50.525883 20162 net.cpp:141] Setting up pool5/7x7_s1
I0403 15:40:50.525908 20162 net.cpp:148] Top shape: 24 1024 1 1 (24576)
I0403 15:40:50.525923 20162 net.cpp:156] Memory required for data: 1345962528
I0403 15:40:50.525939 20162 layer_factory.hpp:77] Creating layer pool5/drop_7x7_s1
I0403 15:40:50.525964 20162 net.cpp:91] Creating Layer pool5/drop_7x7_s1
I0403 15:40:50.525982 20162 net.cpp:425] pool5/drop_7x7_s1 <- pool5/7x7_s1
I0403 15:40:50.526002 20162 net.cpp:386] pool5/drop_7x7_s1 -> pool5/7x7_s1 (in-place)
I0403 15:40:50.526057 20162 net.cpp:141] Setting up pool5/drop_7x7_s1
I0403 15:40:50.526082 20162 net.cpp:148] Top shape: 24 1024 1 1 (24576)
I0403 15:40:50.526096 20162 net.cpp:156] Memory required for data: 1346060832
I0403 15:40:50.526111 20162 layer_factory.hpp:77] Creating layer loss3/classifier_plantvillage
I0403 15:40:50.526131 20162 net.cpp:91] Creating Layer loss3/classifier_plantvillage
I0403 15:40:50.526147 20162 net.cpp:425] loss3/classifier_plantvillage <- pool5/7x7_s1
I0403 15:40:50.526170 20162 net.cpp:399] loss3/classifier_plantvillage -> loss3/classifier_plantvillage
I0403 15:40:50.526614 20162 net.cpp:141] Setting up loss3/classifier_plantvillage
I0403 15:40:50.526640 20162 net.cpp:148] Top shape: 24 38 (912)
I0403 15:40:50.526655 20162 net.cpp:156] Memory required for data: 1346064480
I0403 15:40:50.526674 20162 layer_factory.hpp:77] Creating layer loss3/classifier_plantvillage_loss3/classifier_plantvillage_0_split
I0403 15:40:50.526697 20162 net.cpp:91] Creating Layer loss3/classifier_plantvillage_loss3/classifier_plantvillage_0_split
I0403 15:40:50.526715 20162 net.cpp:425] loss3/classifier_plantvillage_loss3/classifier_plantvillage_0_split <- loss3/classifier_plantvillage
I0403 15:40:50.526736 20162 net.cpp:399] loss3/classifier_plantvillage_loss3/classifier_plantvillage_0_split -> loss3/classifier_plantvillage_loss3/classifier_plantvillage_0_split_0
I0403 15:40:50.526757 20162 net.cpp:399] loss3/classifier_plantvillage_loss3/classifier_plantvillage_0_split -> loss3/classifier_plantvillage_loss3/classifier_plantvillage_0_split_1
I0403 15:40:50.526778 20162 net.cpp:399] loss3/classifier_plantvillage_loss3/classifier_plantvillage_0_split -> loss3/classifier_plantvillage_loss3/classifier_plantvillage_0_split_2
I0403 15:40:50.526799 20162 net.cpp:399] loss3/classifier_plantvillage_loss3/classifier_plantvillage_0_split -> loss3/classifier_plantvillage_loss3/classifier_plantvillage_0_split_3
I0403 15:40:50.526906 20162 net.cpp:141] Setting up loss3/classifier_plantvillage_loss3/classifier_plantvillage_0_split
I0403 15:40:50.526931 20162 net.cpp:148] Top shape: 24 38 (912)
I0403 15:40:50.526947 20162 net.cpp:148] Top shape: 24 38 (912)
I0403 15:40:50.526970 20162 net.cpp:148] Top shape: 24 38 (912)
I0403 15:40:50.526986 20162 net.cpp:148] Top shape: 24 38 (912)
I0403 15:40:50.527001 20162 net.cpp:156] Memory required for data: 1346079072
I0403 15:40:50.527016 20162 layer_factory.hpp:77] Creating layer loss1/loss
I0403 15:40:50.527039 20162 net.cpp:91] Creating Layer loss1/loss
I0403 15:40:50.527056 20162 net.cpp:425] loss1/loss <- loss1/classifier_plantvillage_loss1/classifier_plantvillage_0_split_0
I0403 15:40:50.527088 20162 net.cpp:425] loss1/loss <- label_data_1_split_0
…
