…
I0403 15:14:11.324141 18644 net.cpp:313] The NetState phase (1) differed from the phase (0) specified by a rule in layer data
I0403 15:14:11.325247 18644 net.cpp:49] Initializing net from parameters: 
state {
  phase: TEST
}
layer {
  name: "data"
  type: "Data"
  top: "data"
  top: "label"
  include {
    phase: TEST
  }
  transform_param {
    mirror: false
    crop_size: 224
    mean_file: "/home/mohanty/data/final_dataset/lmdb/grayscale-40-60/mean.binaryproto"
  }
  data_param {
    source: "/home/mohanty/data/final_dataset/lmdb/grayscale-40-60/test_db"
    batch_size: 24
    backend: LMDB
  }
}
layer {
  name: "conv1/7x7_s2"
  type: "Convolution"
  bottom: "data"
  top: "conv1/7x7_s2"
  param {
    lr_mult: 1
    decay_mult: 1
  }
  param {
    lr_mult: 2
    decay_mult: 0
  }
  convolution_param {
    num_output: 64
    pad: 3
    kernel_size: 7
    stride: 2
    weight_filler {
      type: "xavier"
      std: 0.1
    }
    bias_filler {
      type: "constant"
      value: 0.2
    }
  }
}
layer {
  name: "conv1/relu_7x7"
  type: "ReLU"
  bottom: "conv1/7x7_s2"
  top: "conv1/7x7_s2"
}
layer {
  name: "pool1/3x3_s2"
  type: "Pooling"
  bottom: "conv1/7x7_s2"
  top: "pool1/3x3_s2"
  pooling_param {
    pool: MAX
    kernel_size: 3
    stride: 2
  }
}
layer {
  name: "pool1/norm1"
  type: "LRN"
  bottom: "pool1/3x3_s2"
  top: "pool1/norm1"
  lrn_param {
    local_size: 5
    alpha: 0.0001
    beta: 0.75
  }
}
layer {
  name: "conv2/3x3_reduce"
  type: "Convolution"
  bottom: "pool1/norm1"
  top: "conv2/3x3_reduce"
  param {
    lr_mult: 1
    decay_mult: 1
  }
  param {
    lr_mult: 2
    decay_mult: 0
  }
  convolution_param {
    num_output: 64
    kernel_size: 1
    weight_filler {
      type: "xavier"
      std: 0.1
    }
    bias_filler {
      type: "constant"
      value: 0.2
    }
  }
}
layer {
  name: "conv2/relu_3x3_reduce"
  type: "ReLU"
  bottom: "conv2/3x3_reduce"
  top: "conv2/3x3_reduce"
}
layer {
  name: "conv2/3x3"
  type: "Convolution"
  bottom: "conv2/3x3_reduce"
  top: "conv2/3x3"
  param {
    lr_mult: 1
    decay_mult: 1
  }
  param {
    lr_mult: 2
    decay_mult: 0
  }
  convolution_param {
    num_output: 192
    pad: 1
    kernel_size: 3
    weight_filler {
      type: "xavier"
      std: 0.03
    }
    bias_filler {
      type: "constant"
      value: 0.2
    }
  }
}
layer {
  name: "conv2/relu_3x3"
  type: "ReLU"
  bottom: "conv2/3x3"
  top: "conv2/3x3"
}
layer {
  name: "conv2/norm2"
  type: "LRN"
  bottom: "conv2/3x3"
  top: "conv2/norm2"
  lrn_param {
    local_size: 5
    alpha: 0.0001
    beta: 0.75
  }
}
layer {
  name: "pool2/3x3_s2"
  type: "Pooling"
  bottom: "conv2/norm2"
  top: "pool2/3x3_s2"
  pooling_param {
    pool: MAX
    kernel_size: 3
    stride: 2
  }
}
layer {
  name: "inception_3a/1x1"
  type: "Convolution"
  bottom: "pool2/3x3_s2"
  top: "inception_3a/1x1"
  param {
    lr_mult: 1
    decay_mult: 1
  }
  param {
    lr_mult: 2
    decay_mult: 0
  }
  convolution_param {
    num_output: 64
    kernel_size: 1
    weight_filler {
      type: "xavier"
      std: 0.03
    }
    bias_filler {
      type: "constant"
      value: 0.2
    }
  }
}
layer {
  name: "inception_3a/relu_1x1"
  type: "ReLU"
  bottom: "inception_3a/1x1"
  top: "inception_3a/1x1"
}
layer {
  name: "inception_3a/3x3_reduce"
  type: "Convolution"
  bottom: "pool2/3x3_s2"
  top: "inception_3a/3x3_reduce"
  param {
    lr_mult: 1
    decay_mult: 1
  }
  param {
    lr_mult: 2
    decay_mult: 0
  }
  convolution_param {
    num_output: 96
    kernel_size: 1
    weight_filler {
      type: "xavier"
      std: 0.09
    }
    bias_filler {
      type: "constant"
      value: 0.2
    }
  }
}
layer {
  name: "inception_3a/relu_3x3_reduce"
  type: "ReLU"
  bottom: "inception_3a/3x3_reduce"
  top: "inception_3a/3x3_reduce"
}
layer {
  name: "inception_3a/3x3"
  type: "Convolution"
  bottom: "inception_3a/3x3_reduce"
  top: "inception_3a/3x3"
  param {
    lr_mult: 1
    decay_mult: 1
  }
  param {
    lr_mult: 2
    decay_mult: 0
  }
  convolution_param {
    num_output: 128
    pad: 1
    kernel_size: 3
    weight_filler {
      type: "xavier"
      std: 0.03
    }
    bias_filler {
      type: "constant"
      value: 0.2
    }
  }
}
layer {
  name: "inception_3a/relu_3x3"
  type: "ReLU"
  bottom: "inception_3a/3x3"
  top: "inception_3a/3x3"
}
layer {
  name: "inception_3a/5x5_reduce"
  type: "Convolution"
  bottom: "pool2/3x3_s2"
  top: "inception_3a/5x5_reduce"
  param {
    lr_mult: 1
    decay_mult: 1
  }
  param {
    lr_mult: 2
    decay_mult: 0
  }
  convolution_param {
    num_output: 16
    kernel_size: 1
    weight_filler {
      type: "xavier"
      std: 0.2
    }
    bias_filler {
      type: "constant"
      value: 0.2
    }
  }
}
layer {
  name: "inception_3a/relu_5x5_reduce"
  type: "ReLU"
  bottom: "inception_3a/5x5_reduce"
  top: "inception_3a/5x5_reduce"
}
layer {
  name: "inception_3a/5x5"
  type: "Convolution"
  bottom: "inception_3a/5x5_reduce"
  top: "inception_3a/5x5"
  param {
    lr_mult: 1
    decay_mult: 1
  }
  param {
    lr_mult: 2
    decay_mult: 0
  }
  convolution_param {
    num_output: 32
    pad: 2
    kernel_size: 5
    weight_filler {
      type: "xavier"
      std: 0.03
    }
    bias_filler {
      type: "constant"
      value: 0.2
    }
  }
}
layer {
  name: "inception_3a/relu_5x5"
  type: "ReLU"
  bottom: "inception_3a/5x5"
  top: "inception_3a/5x5"
}
layer {
  name: "inception_3a/pool"
  type: "Pooling"
  bottom: "pool2/3x3_s2"
  top: "inception_3a/pool"
  pooling_param {
    pool: MAX
    kernel_size: 3
    stride: 1
    pad: 1
  }
}
layer {
  name: "inception_3a/pool_proj"
  type: "Convolution"
  bottom: "inception_3a/pool"
  top: "inception_3a/pool_proj"
  param {
    lr_mult: 1
    decay_mult: 1
  }
  param {
    lr_mult: 2
    decay_mult: 0
  }
  convolution_param {
    num_output: 32
    kernel_size: 1
    weight_filler {
      type: "xavier"
      std: 0.1
    }
    bias_filler {
      type: "constant"
      value: 0.2
    }
  }
}
layer {
  name: "inception_3a/relu_pool_proj"
  type: "ReLU"
  bottom: "inception_3a/pool_proj"
  top: "inception_3a/pool_proj"
}
layer {
  name: "inception_3a/output"
  type: "Concat"
  bottom: "inception_3a/1x1"
  bottom: "inception_3a/3x3"
  bottom: "inception_3a/5x5"
  bottom: "inception_3a/pool_proj"
  top: "inception_3a/output"
}
layer {
  name: "inception_3b/1x1"
  type: "Convolution"
  bottom: "inception_3a/output"
  top: "inception_3b/1x1"
  param {
    lr_mult: 1
    decay_mult: 1
  }
  param {
    lr_mult: 2
    decay_mult: 0
  }
  convolution_param {
    num_output: 128
    kernel_size: 1
    weight_filler {
      type: "xavier"
      std: 0.03
    }
    bias_filler {
      type: "constant"
      value: 0.2
    }
  }
}
layer {
  name: "inception_3b/relu_1x1"
  type: "ReLU"
  bottom: "inception_3b/1x1"
  top: "inception_3b/1x1"
}
layer {
  name: "inception_3b/3x3_reduce"
  type: "Convolution"
  bottom: "inception_3a/output"
  top: "inception_3b/3x3_reduce"
  param {
    lr_mult: 1
    decay_mult: 1
  }
  param {
    lr_mult: 2
    decay_mult: 0
  }
  convolution_param {
    num_output: 128
    kernel_size: 1
    weight_filler {
      type: "xavier"
      std: 0.09
    }
    bias_filler {
      type: "constant"
      value: 0.2
    }
  }
}
layer {
  name: "inception_3b/relu_3x3_reduce"
  type: "ReLU"
  bottom: "inception_3b/3x3_reduce"
  top: "inception_3b/3x3_reduce"
}
layer {
  name: "inception_3b/3x3"
  type: "Convolution"
  bottom: "inception_3b/3x3_reduce"
  top: "inception_3b/3x3"
  param {
    lr_mult: 1
    decay_mult: 1
  }
  param {
    lr_mult: 2
    decay_mult: 0
  }
  convolution_param {
    num_output: 192
    pad: 1
    kernel_size: 3
    weight_filler {
      type: "xavier"
      std: 0.03
    }
    bias_filler {
      type: "constant"
      value: 0.2
    }
  }
}
layer {
  name: "inception_3b/relu_3x3"
  type: "ReLU"
  bottom: "inception_3b/3x3"
  top: "inception_3b/3x3"
}
layer {
  name: "inception_3b/5x5_reduce"
  type: "Convolution"
  bottom: "inception_3a/output"
  top: "inception_3b/5x5_reduce"
  param {
    lr_mult: 1
    decay_mult: 1
  }
  param {
    lr_mult: 2
    decay_mult: 0
  }
  convolution_param {
    num_output: 32
    kernel_size: 1
    weight_filler {
      type: "xavier"
      std: 0.2
    }
    bias_filler {
      type: "constant"
      value: 0.2
    }
  }
}
layer {
  name: "inception_3b/relu_5x5_reduce"
  type: "ReLU"
  bottom: "inception_3b/5x5_reduce"
  top: "inception_3b/5x5_reduce"
}
layer {
  name: "inception_3b/5x5"
  type: "Convolution"
  bottom: "inception_3b/5x5_reduce"
  top: "inception_3b/5x5"
  param {
    lr_mult: 1
    decay_mult: 1
  }
  param {
    lr_mult: 2
    decay_mult: 0
  }
  convolution_param {
    num_output: 96
    pad: 2
    kernel_size: 5
    weight_filler {
      type: "xavier"
      std: 0.03
    }
    bias_filler {
      type: "constant"
      value: 0.2
    }
  }
}
layer {
  name: "inception_3b/relu_5x5"
  type: "ReLU"
  bottom: "inception_3b/5x5"
  top: "inception_3b/5x5"
}
layer {
  name: "inception_3b/pool"
  type: "Pooling"
  bottom: "inception_3a/output"
  top: "inception_3b/pool"
  pooling_param {
    pool: MAX
    kernel_size: 3
    stride: 1
    pad: 1
  }
}
layer {
  name: "inception_3b/pool_proj"
  type: "Convolution"
  bottom: "inception_3b/pool"
  top: "inception_3b/pool_proj"
  param {
    lr_mult: 1
    decay_mult: 1
  }
  param {
    lr_mult: 2
    decay_mult: 0
  }
  convolution_param {
    num_output: 64
    kernel_size: 1
    weight_filler {
      type: "xavier"
      std: 0.1
    }
    bias_filler {
      type: "constant"
      value: 0.2
    }
  }
}
layer {
  name: "inception_3b/relu_pool_proj"
  type: "ReLU"
  bottom: "inception_3b/pool_proj"
  top: "inception_3b/pool_proj"
}
layer {
  name: "inception_3b/output"
  type: "Concat"
  bottom: "inception_3b/1x1"
  bottom: "inception_3b/3x3"
  bottom: "inception_3b/5x5"
  bottom: "inception_3b/pool_proj"
  top: "inception_3b/output"
}
layer {
  name: "pool3/3x3_s2"
  type: "Pooling"
  bottom: "inception_3b/output"
  top: "pool3/3x3_s2"
  pooling_param {
    pool: MAX
    kernel_size: 3
    stride: 2
  }
}
layer {
  name: "inception_4a/1x1"
  type: "Convolution"
  bottom: "pool3/3x3_s2"
  top: "inception_4a/1x1"
  param {
    lr_mult: 1
    decay_mult: 1
  }
  param {
    lr_mult: 2
    decay_mult: 0
  }
  convolution_param {
    num_output: 192
    kernel_size: 1
    weight_filler {
      type: "xavier"
      std: 0.03
    }
    bias_filler {
      type: "constant"
      value: 0.2
    }
  }
}
layer {
  name: "inception_4a/relu_1x1"
  type: "ReLU"
  bottom: "inception_4a/1x1"
  top: "inception_4a/1x1"
}
layer {
  name: "inception_4a/3x3_reduce"
  type: "Convolution"
  bottom: "pool3/3x3_s2"
  top: "inception_4a/3x3_reduce"
  param {
    lr_mult: 1
    decay_mult: 1
  }
  param {
    lr_mult: 2
    decay_mult: 0
  }
  convolution_param {
    num_output: 96
    kernel_size: 1
    weight_filler {
      type: "xavier"
      std: 0.09
    }
    bias_filler {
      type: "constant"
      value: 0.2
    }
  }
}
layer {
  name: "inception_4a/relu_3x3_reduce"
  type: "ReLU"
  bottom: "inception_4a/3x3_reduce"
  top: "inception_4a/3x3_reduce"
}
layer {
  name: "inception_4a/3x3"
  type: "Convolution"
  bottom: "inception_4a/3x3_reduce"
  top: "inception_4a/3x3"
  param {
    lr_mult: 1
    decay_mult: 1
  }
  param {
    lr_mult: 2
    decay_mult: 0
  }
  convolution_param {
    num_output: 208
    pad: 1
    kernel_size: 3
    weight_filler {
      type: "xavier"
      std: 0.03
    }
    bias_filler {
      type: "constant"
      value: 0.2
    }
  }
}
layer {
  name: "inception_4a/relu_3x3"
  type: "ReLU"
  bottom: "inception_4a/3x3"
  top: "inception_4a/3x3"
}
layer {
  name: "inception_4a/5x5_reduce"
  type: "Convolution"
  bottom: "pool3/3x3_s2"
  top: "inception_4a/5x5_reduce"
  param {
    lr_mult: 1
    decay_mult: 1
  }
  param {
    lr_mult: 2
    decay_mult: 0
  }
  convolution_param {
    num_output: 16
    kernel_size: 1
    weight_filler {
      type: "xavier"
      std: 0.2
    }
    bias_filler {
      type: "constant"
      value: 0.2
    }
  }
}
layer {
  name: "inception_4a/relu_5x5_reduce"
  type: "ReLU"
  bottom: "inception_4a/5x5_reduce"
  top: "inception_4a/5x5_reduce"
}
layer {
  name: "inception_4a/5x5"
  type: "Convolution"
  bottom: "inception_4a/5x5_reduce"
  top: "inception_4a/5x5"
  param {
    lr_mult: 1
    decay_mult: 1
  }
  param {
    lr_mult: 2
    decay_mult: 0
  }
  convolution_param {
    num_output: 48
    pad: 2
    kernel_size: 5
    weight_filler {
      type: "xavier"
      std: 0.03
    }
    bias_filler {
      type: "constant"
      value: 0.2
    }
  }
}
layer {
  name: "inception_4a/relu_5x5"
  type: "ReLU"
  bottom: "inception_4a/5x5"
  top: "inception_4a/5x5"
}
layer {
  name: "inception_4a/pool"
  type: "Pooling"
  bottom: "pool3/3x3_s2"
  top: "inception_4a/pool"
  pooling_param {
    pool: MAX
    kernel_size: 3
    stride: 1
    pad: 1
  }
}
layer {
  name: "inception_4a/pool_proj"
  type: "Convolution"
  bottom: "inception_4a/pool"
  top: "inception_4a/pool_proj"
  param {
    lr_mult: 1
    decay_mult: 1
  }
  param {
    lr_mult: 2
    decay_mult: 0
  }
  convolution_param {
    num_output: 64
    kernel_size: 1
    weight_filler {
      type: "xavier"
      std: 0.1
    }
    bias_filler {
      type: "constant"
      value: 0.2
    }
  }
}
layer {
  name: "inception_4a/relu_pool_proj"
  type: "ReLU"
  bottom: "inception_4a/pool_proj"
  top: "inception_4a/pool_proj"
}
layer {
  name: "inception_4a/output"
  type: "Concat"
  bottom: "inception_4a/1x1"
  bottom: "inception_4a/3x3"
  bottom: "inception_4a/5x5"
  bottom: "inception_4a/pool_proj"
  top: "inception_4a/output"
}
layer {
  name: "loss1/ave_pool"
  type: "Pooling"
  bottom: "inception_4a/output"
  top: "loss1/ave_pool"
  pooling_param {
    pool: AVE
    kernel_size: 5
    stride: 3
  }
}
layer {
  name: "loss1/conv"
  type: "Convolution"
  bottom: "loss1/ave_pool"
  top: "loss1/conv"
  param {
    lr_mult: 1
    decay_mult: 1
  }
  param {
    lr_mult: 2
    decay_mult: 0
  }
  convolution_param {
    num_output: 128
    kernel_size: 1
    weight_filler {
      type: "xavier"
      std: 0.08
    }
    bias_filler {
      type: "constant"
      value: 0.2
    }
  }
}
layer {
  name: "loss1/relu_conv"
  type: "ReLU"
  bottom: "loss1/conv"
  top: "loss1/conv"
}
layer {
  name: "loss1/fc"
  type: "InnerProduct"
  bottom: "loss1/conv"
  top: "loss1/fc"
  param {
    lr_mult: 1
    decay_mult: 1
  }
  param {
    lr_mult: 2
    decay_mult: 0
  }
  inner_product_param {
    num_output: 1024
    weight_filler {
      type: "xavier"
      std: 0.02
    }
    bias_filler {
      type: "constant"
      value: 0.2
    }
  }
}
layer {
  name: "loss1/relu_fc"
  type: "ReLU"
  bottom: "loss1/fc"
  top: "loss1/fc"
}
layer {
  name: "loss1/drop_fc"
  type: "Dropout"
  bottom: "loss1/fc"
  top: "loss1/fc"
  dropout_param {
    dropout_ratio: 0.7
  }
}
layer {
  name: "loss1/classifier_plantvillage"
  type: "InnerProduct"
  bottom: "loss1/fc"
  top: "loss1/classifier_plantvillage"
  param {
    lr_mult: 1
    decay_mult: 1
  }
  param {
    lr_mult: 2
    decay_mult: 0
  }
  inner_product_param {
    num_output: 38
    weight_filler {
      type: "xavier"
      std: 0.0009765625
    }
    bias_filler {
      type: "constant"
      value: 0
    }
  }
}
layer {
  name: "inception_4b/1x1"
  type: "Convolution"
  bottom: "inception_4a/output"
  top: "inception_4b/1x1"
  param {
    lr_mult: 1
    decay_mult: 1
  }
  param {
    lr_mult: 2
    decay_mult: 0
  }
  convolution_param {
    num_output: 160
    kernel_size: 1
    weight_filler {
      type: "xavier"
      std: 0.03
    }
    bias_filler {
      type: "constant"
      value: 0.2
    }
  }
}
layer {
  name: "inception_4b/relu_1x1"
  type: "ReLU"
  bottom: "inception_4b/1x1"
  top: "inception_4b/1x1"
}
layer {
  name: "inception_4b/3x3_reduce"
  type: "Convolution"
  bottom: "inception_4a/output"
  top: "inception_4b/3x3_reduce"
  param {
    lr_mult: 1
    decay_mult: 1
  }
  param {
    lr_mult: 2
    decay_mult: 0
  }
  convolution_param {
    num_output: 112
    kernel_size: 1
    weight_filler {
      type: "xavier"
      std: 0.09
    }
    bias_filler {
      type: "constant"
      value: 0.2
    }
  }
}
layer {
  name: "inception_4b/relu_3x3_reduce"
  type: "ReLU"
  bottom: "inception_4b/3x3_reduce"
  top: "inception_4b/3x3_reduce"
}
layer {
  name: "inception_4b/3x3"
  type: "Convolution"
  bottom: "inception_4b/3x3_reduce"
  top: "inception_4b/3x3"
  param {
    lr_mult: 1
    decay_mult: 1
  }
  param {
    lr_mult: 2
    decay_mult: 0
  }
  convolution_param {
    num_output: 224
    pad: 1
    kernel_size: 3
    weight_filler {
      type: "xavier"
      std: 0.03
    }
    bias_filler {
      type: "constant"
      value: 0.2
    }
  }
}
layer {
  name: "inception_4b/relu_3x3"
  type: "ReLU"
  bottom: "inception_4b/3x3"
  top: "inception_4b/3x3"
}
layer {
  name: "inception_4b/5x5_reduce"
  type: "Convolution"
  bottom: "inception_4a/output"
  top: "inception_4b/5x5_reduce"
  param {
    lr_mult: 1
    decay_mult: 1
  }
  param {
    lr_mult: 2
    decay_mult: 0
  }
  convolution_param {
    num_output: 24
    kernel_size: 1
    weight_filler {
      type: "xavier"
      std: 0.2
    }
    bias_filler {
      type: "constant"
      value: 0.2
    }
  }
}
layer {
  name: "inception_4b/relu_5x5_reduce"
  type: "ReLU"
  bottom: "inception_4b/5x5_reduce"
  top: "inception_4b/5x5_reduce"
}
layer {
  name: "inception_4b/5x5"
  type: "Convolution"
  bottom: "inception_4b/5x5_reduce"
  top: "inception_4b/5x5"
  param {
    lr_mult: 1
    decay_mult: 1
  }
  param {
    lr_mult: 2
    decay_mult: 0
  }
  convolution_param {
    num_output: 64
    pad: 2
    kernel_size: 5
    weight_filler {
      type: "xavier"
      std: 0.03
    }
    bias_filler {
      type: "constant"
      value: 0.2
    }
  }
}
layer {
  name: "inception_4b/relu_5x5"
  type: "ReLU"
  bottom: "inception_4b/5x5"
  top: "inception_4b/5x5"
}
layer {
  name: "inception_4b/pool"
  type: "Pooling"
  bottom: "inception_4a/output"
  top: "inception_4b/pool"
  pooling_param {
    pool: MAX
    kernel_size: 3
    stride: 1
    pad: 1
  }
}
layer {
  name: "inception_4b/pool_proj"
  type: "Convolution"
  bottom: "inception_4b/pool"
  top: "inception_4b/pool_proj"
  param {
    lr_mult: 1
    decay_mult: 1
  }
  param {
    lr_mult: 2
    decay_mult: 0
  }
  convolution_param {
    num_output: 64
    kernel_size: 1
    weight_filler {
      type: "xavier"
      std: 0.1
    }
    bias_filler {
      type: "constant"
      value: 0.2
    }
  }
}
layer {
  name: "inception_4b/relu_pool_proj"
  type: "ReLU"
  bottom: "inception_4b/pool_proj"
  top: "inception_4b/pool_proj"
}
layer {
  name: "inception_4b/output"
  type: "Concat"
  bottom: "inception_4b/1x1"
  bottom: "inception_4b/3x3"
  bottom: "inception_4b/5x5"
  bottom: "inception_4b/pool_proj"
  top: "inception_4b/output"
}
layer {
  name: "inception_4c/1x1"
  type: "Convolution"
  bottom: "inception_4b/output"
  top: "inception_4c/1x1"
  param {
    lr_mult: 1
    decay_mult: 1
  }
  param {
    lr_mult: 2
    decay_mult: 0
  }
  convolution_param {
    num_output: 128
    kernel_size: 1
    weight_filler {
      type: "xavier"
      std: 0.03
    }
    bias_filler {
      type: "constant"
      value: 0.2
    }
  }
}
layer {
  name: "inception_4c/relu_1x1"
  type: "ReLU"
  bottom: "inception_4c/1x1"
  top: "inception_4c/1x1"
}
layer {
  name: "inception_4c/3x3_reduce"
  type: "Convolution"
  bottom: "inception_4b/output"
  top: "inception_4c/3x3_reduce"
  param {
    lr_mult: 1
    decay_mult: 1
  }
  param {
    lr_mult: 2
    decay_mult: 0
  }
  convolution_param {
    num_output: 128
    kernel_size: 1
    weight_filler {
      type: "xavier"
      std: 0.09
    }
    bias_filler {
      type: "constant"
      value: 0.2
    }
  }
}
layer {
  name: "inception_4c/relu_3x3_reduce"
  type: "ReLU"
  bottom: "inception_4c/3x3_reduce"
  top: "inception_4c/3x3_reduce"
}
layer {
  name: "inception_4c/3x3"
  type: "Convolution"
  bottom: "inception_4c/3x3_reduce"
  top: "inception_4c/3x3"
  param {
    lr_mult: 1
    decay_mult: 1
  }
  param {
    lr_mult: 2
    decay_mult: 0
  }
  convolution_param {
    num_output: 256
    pad: 1
    kernel_size: 3
    weight_filler {
      type: "xavier"
      std: 0.03
    }
    bias_filler {
      type: "constant"
      value: 0.2
    }
  }
}
layer {
  name: "inception_4c/relu_3x3"
  type: "ReLU"
  bottom: "inception_4c/3x3"
  top: "inception_4c/3x3"
}
layer {
  name: "inception_4c/5x5_reduce"
  type: "Convolution"
  bottom: "inception_4b/output"
  top: "inception_4c/5x5_reduce"
  param {
    lr_mult: 1
    decay_mult: 1
  }
  param {
    lr_mult: 2
    decay_mult: 0
  }
  convolution_param {
    num_output: 24
    kernel_size: 1
    weight_filler {
      type: "xavier"
      std: 0.2
    }
    bias_filler {
      type: "constant"
      value: 0.2
    }
  }
}
layer {
  name: "inception_4c/relu_5x5_reduce"
  type: "ReLU"
  bottom: "inception_4c/5x5_reduce"
  top: "inception_4c/5x5_reduce"
}
layer {
  name: "inception_4c/5x5"
  type: "Convolution"
  bottom: "inception_4c/5x5_reduce"
  top: "inception_4c/5x5"
  param {
    lr_mult: 1
    decay_mult: 1
  }
  param {
    lr_mult: 2
    decay_mult: 0
  }
  convolution_param {
    num_output: 64
    pad: 2
    kernel_size: 5
    weight_filler {
      type: "xavier"
      std: 0.03
    }
    bias_filler {
      type: "constant"
      value: 0.2
    }
  }
}
layer {
  name: "inception_4c/relu_5x5"
  type: "ReLU"
  bottom: "inception_4c/5x5"
  top: "inception_4c/5x5"
}
layer {
  name: "inception_4c/pool"
  type: "Pooling"
  bottom: "inception_4b/output"
  top: "inception_4c/pool"
  pooling_param {
    pool: MAX
    kernel_size: 3
    stride: 1
    pad: 1
  }
}
layer {
  name: "inception_4c/pool_proj"
  type: "Convolution"
  bottom: "inception_4c/pool"
  top: "inception_4c/pool_proj"
  param {
    lr_mult: 1
    decay_mult: 1
  }
  param {
    lr_mult: 2
    decay_mult: 0
  }
  convolution_param {
    num_output: 64
    kernel_size: 1
    weight_filler {
      type: "xavier"
      std: 0.1
    }
    bias_filler {
      type: "constant"
      value: 0.2
    }
  }
}
layer {
  name: "inception_4c/relu_pool_proj"
  type: "ReLU"
  bottom: "inception_4c/pool_proj"
  top: "inception_4c/pool_proj"
}
layer {
  name: "inception_4c/output"
  type: "Concat"
  bottom: "inception_4c/1x1"
  bottom: "inception_4c/3x3"
  bottom: "inception_4c/5x5"
  bottom: "inception_4c/pool_proj"
  top: "inception_4c/output"
}
layer {
  name: "inception_4d/1x1"
  type: "Convolution"
  bottom: "inception_4c/output"
  top: "inception_4d/1x1"
  param {
    lr_mult: 1
    decay_mult: 1
  }
  param {
    lr_mult: 2
    decay_mult: 0
  }
  convolution_param {
    num_output: 112
    kernel_size: 1
    weight_filler {
      type: "xavier"
      std: 0.03
    }
    bias_filler {
      type: "constant"
      value: 0.2
    }
  }
}
layer {
  name: "inception_4d/relu_1x1"
  type: "ReLU"
  bottom: "inception_4d/1x1"
  top: "inception_4d/1x1"
}
layer {
  name: "inception_4d/3x3_reduce"
  type: "Convolution"
  bottom: "inception_4c/output"
  top: "inception_4d/3x3_reduce"
  param {
    lr_mult: 1
    decay_mult: 1
  }
  param {
    lr_mult: 2
    decay_mult: 0
  }
  convolution_param {
    num_output: 144
    kernel_size: 1
    weight_filler {
      type: "xavier"
      std: 0.09
    }
    bias_filler {
      type: "constant"
      value: 0.2
    }
  }
}
layer {
  name: "inception_4d/relu_3x3_reduce"
  type: "ReLU"
  bottom: "inception_4d/3x3_reduce"
  top: "inception_4d/3x3_reduce"
}
layer {
  name: "inception_4d/3x3"
  type: "Convolution"
  bottom: "inception_4d/3x3_reduce"
  top: "inception_4d/3x3"
  param {
    lr_mult: 1
    decay_mult: 1
  }
  param {
    lr_mult: 2
    decay_mult: 0
  }
  convolution_param {
    num_output: 288
    pad: 1
    kernel_size: 3
    weight_filler {
      type: "xavier"
      std: 0.03
    }
    bias_filler {
      type: "constant"
      value: 0.2
    }
  }
}
layer {
  name: "inception_4d/relu_3x3"
  type: "ReLU"
  bottom: "inception_4d/3x3"
  top: "inception_4d/3x3"
}
layer {
  name: "inception_4d/5x5_reduce"
  type: "Convolution"
  bottom: "inception_4c/output"
  top: "inception_4d/5x5_reduce"
  param {
    lr_mult: 1
    decay_mult: 1
  }
  param {
    lr_mult: 2
    decay_mult: 0
  }
  convolution_param {
    num_output: 32
    kernel_size: 1
    weight_filler {
      type: "xavier"
      std: 0.2
    }
    bias_filler {
      type: "constant"
      value: 0.2
    }
  }
}
layer {
  name: "inception_4d/relu_5x5_reduce"
  type: "ReLU"
  bottom: "inception_4d/5x5_reduce"
  top: "inception_4d/5x5_reduce"
}
layer {
  name: "inception_4d/5x5"
  type: "Convolution"
  bottom: "inception_4d/5x5_reduce"
  top: "inception_4d/5x5"
  param {
    lr_mult: 1
    decay_mult: 1
  }
  param {
    lr_mult: 2
    decay_mult: 0
  }
  convolution_param {
    num_output: 64
    pad: 2
    kernel_size: 5
    weight_filler {
      type: "xavier"
      std: 0.03
    }
    bias_filler {
      type: "constant"
      value: 0.2
    }
  }
}
layer {
  name: "inception_4d/relu_5x5"
  type: "ReLU"
  bottom: "inception_4d/5x5"
  top: "inception_4d/5x5"
}
layer {
  name: "inception_4d/pool"
  type: "Pooling"
  bottom: "inception_4c/output"
  top: "inception_4d/pool"
  pooling_param {
    pool: MAX
    kernel_size: 3
    stride: 1
    pad: 1
  }
}
layer {
  name: "inception_4d/pool_proj"
  type: "Convolution"
  bottom: "inception_4d/pool"
  top: "inception_4d/pool_proj"
  param {
    lr_mult: 1
    decay_mult: 1
  }
  param {
    lr_mult: 2
    decay_mult: 0
  }
  convolution_param {
    num_output: 64
    kernel_size: 1
    weight_filler {
      type: "xavier"
      std: 0.1
    }
    bias_filler {
      type: "constant"
      value: 0.2
    }
  }
}
layer {
  name: "inception_4d/relu_pool_proj"
  type: "ReLU"
  bottom: "inception_4d/pool_proj"
  top: "inception_4d/pool_proj"
}
layer {
  name: "inception_4d/output"
  type: "Concat"
  bottom: "inception_4d/1x1"
  bottom: "inception_4d/3x3"
  bottom: "inception_4d/5x5"
  bottom: "inception_4d/pool_proj"
  top: "inception_4d/output"
}
layer {
  name: "loss2/ave_pool"
  type: "Pooling"
  bottom: "inception_4d/output"
  top: "loss2/ave_pool"
  pooling_param {
    pool: AVE
    kernel_size: 5
    stride: 3
  }
}
layer {
  name: "loss2/conv"
  type: "Convolution"
  bottom: "loss2/ave_pool"
  top: "loss2/conv"
  param {
    lr_mult: 1
    decay_mult: 1
  }
  param {
    lr_mult: 2
    decay_mult: 0
  }
  convolution_param {
    num_output: 128
    kernel_size: 1
    weight_filler {
      type: "xavier"
      std: 0.08
    }
    bias_filler {
      type: "constant"
      value: 0.2
    }
  }
}
layer {
  name: "loss2/relu_conv"
  type: "ReLU"
  bottom: "loss2/conv"
  top: "loss2/conv"
}
layer {
  name: "loss2/fc"
  type: "InnerProduct"
  bottom: "loss2/conv"
  top: "loss2/fc"
  param {
    lr_mult: 1
    decay_mult: 1
  }
  param {
    lr_mult: 2
    decay_mult: 0
  }
  inner_product_param {
    num_output: 1024
    weight_filler {
      type: "xavier"
      std: 0.02
    }
    bias_filler {
      type: "constant"
      value: 0.2
    }
  }
}
layer {
  name: "loss2/relu_fc"
  type: "ReLU"
  bottom: "loss2/fc"
  top: "loss2/fc"
}
layer {
  name: "loss2/drop_fc"
  type: "Dropout"
  bottom: "loss2/fc"
  top: "loss2/fc"
  dropout_param {
    dropout_ratio: 0.7
  }
}
layer {
  name: "loss2/classifier_plantvillage"
  type: "InnerProduct"
  bottom: "loss2/fc"
  top: "loss2/classifier_plantvillage"
  param {
    lr_mult: 1
    decay_mult: 1
  }
  param {
    lr_mult: 2
    decay_mult: 0
  }
  inner_product_param {
    num_output: 38
    weight_filler {
      type: "xavier"
      std: 0.0009765625
    }
    bias_filler {
      type: "constant"
      value: 0
    }
  }
}
layer {
  name: "inception_4e/1x1"
  type: "Convolution"
  bottom: "inception_4d/output"
  top: "inception_4e/1x1"
  param {
    lr_mult: 1
    decay_mult: 1
  }
  param {
    lr_mult: 2
    decay_mult: 0
  }
  convolution_param {
    num_output: 256
    kernel_size: 1
    weight_filler {
      type: "xavier"
      std: 0.03
    }
    bias_filler {
      type: "constant"
      value: 0.2
    }
  }
}
layer {
  name: "inception_4e/relu_1x1"
  type: "ReLU"
  bottom: "inception_4e/1x1"
  top: "inception_4e/1x1"
}
layer {
  name: "inception_4e/3x3_reduce"
  type: "Convolution"
  bottom: "inception_4d/output"
  top: "inception_4e/3x3_reduce"
  param {
    lr_mult: 1
    decay_mult: 1
  }
  param {
    lr_mult: 2
    decay_mult: 0
  }
  convolution_param {
    num_output: 160
    kernel_size: 1
    weight_filler {
      type: "xavier"
      std: 0.09
    }
    bias_filler {
      type: "constant"
      value: 0.2
    }
  }
}
layer {
  name: "inception_4e/relu_3x3_reduce"
  type: "ReLU"
  bottom: "inception_4e/3x3_reduce"
  top: "inception_4e/3x3_reduce"
}
layer {
  name: "inception_4e/3x3"
  type: "Convolution"
  bottom: "inception_4e/3x3_reduce"
  top: "inception_4e/3x3"
  param {
    lr_mult: 1
    decay_mult: 1
  }
  param {
    lr_mult: 2
    decay_mult: 0
  }
  convolution_param {
    num_output: 320
    pad: 1
    kernel_size: 3
    weight_filler {
      type: "xavier"
      std: 0.03
    }
    bias_filler {
      type: "constant"
      value: 0.2
    }
  }
}
layer {
  name: "inception_4e/relu_3x3"
  type: "ReLU"
  bottom: "inception_4e/3x3"
  top: "inception_4e/3x3"
}
layer {
  name: "inception_4e/5x5_reduce"
  type: "Convolution"
  bottom: "inception_4d/output"
  top: "inception_4e/5x5_reduce"
  param {
    lr_mult: 1
    decay_mult: 1
  }
  param {
    lr_mult: 2
    decay_mult: 0
  }
  convolution_param {
    num_output: 32
    kernel_size: 1
    weight_filler {
      type: "xavier"
      std: 0.2
    }
    bias_filler {
      type: "constant"
      value: 0.2
    }
  }
}
layer {
  name: "inception_4e/relu_5x5_reduce"
  type: "ReLU"
  bottom: "inception_4e/5x5_reduce"
  top: "inception_4e/5x5_reduce"
}
layer {
  name: "inception_4e/5x5"
  type: "Convolution"
  bottom: "inception_4e/5x5_reduce"
  top: "inception_4e/
I0403 15:14:11.326449 18644 layer_factory.hpp:77] Creating layer data
I0403 15:14:11.327033 18644 net.cpp:91] Creating Layer data
I0403 15:14:11.327064 18644 net.cpp:399] data -> data
I0403 15:14:11.327113 18644 net.cpp:399] data -> label
I0403 15:14:11.327148 18644 data_transformer.cpp:25] Loading mean file from: /home/mohanty/data/final_dataset/lmdb/grayscale-40-60/mean.binaryproto
I0403 15:14:11.335803 18648 db_lmdb.cpp:38] Opened lmdb /home/mohanty/data/final_dataset/lmdb/grayscale-40-60/test_db
I0403 15:14:11.346946 18644 data_layer.cpp:41] output data size: 24,3,224,224
I0403 15:14:11.377990 18644 net.cpp:141] Setting up data
I0403 15:14:11.378069 18644 net.cpp:148] Top shape: 24 3 224 224 (3612672)
I0403 15:14:11.378093 18644 net.cpp:148] Top shape: 24 (24)
I0403 15:14:11.378108 18644 net.cpp:156] Memory required for data: 14450784
I0403 15:14:11.378136 18644 layer_factory.hpp:77] Creating layer label_data_1_split
I0403 15:14:11.378164 18644 net.cpp:91] Creating Layer label_data_1_split
I0403 15:14:11.378181 18644 net.cpp:425] label_data_1_split <- label
I0403 15:14:11.378214 18644 net.cpp:399] label_data_1_split -> label_data_1_split_0
I0403 15:14:11.378257 18644 net.cpp:399] label_data_1_split -> label_data_1_split_1
I0403 15:14:11.378278 18644 net.cpp:399] label_data_1_split -> label_data_1_split_2
I0403 15:14:11.378299 18644 net.cpp:399] label_data_1_split -> label_data_1_split_3
I0403 15:14:11.378319 18644 net.cpp:399] label_data_1_split -> label_data_1_split_4
I0403 15:14:11.378340 18644 net.cpp:399] label_data_1_split -> label_data_1_split_5
I0403 15:14:11.378360 18644 net.cpp:399] label_data_1_split -> label_data_1_split_6
I0403 15:14:11.378381 18644 net.cpp:399] label_data_1_split -> label_data_1_split_7
I0403 15:14:11.378401 18644 net.cpp:399] label_data_1_split -> label_data_1_split_8
I0403 15:14:11.378420 18644 net.cpp:399] label_data_1_split -> label_data_1_split_9
I0403 15:14:11.378553 18644 net.cpp:141] Setting up label_data_1_split
I0403 15:14:11.378577 18644 net.cpp:148] Top shape: 24 (24)
I0403 15:14:11.378594 18644 net.cpp:148] Top shape: 24 (24)
I0403 15:14:11.378610 18644 net.cpp:148] Top shape: 24 (24)
I0403 15:14:11.378625 18644 net.cpp:148] Top shape: 24 (24)
I0403 15:14:11.378641 18644 net.cpp:148] Top shape: 24 (24)
I0403 15:14:11.378656 18644 net.cpp:148] Top shape: 24 (24)
I0403 15:14:11.378672 18644 net.cpp:148] Top shape: 24 (24)
I0403 15:14:11.378687 18644 net.cpp:148] Top shape: 24 (24)
I0403 15:14:11.378702 18644 net.cpp:148] Top shape: 24 (24)
I0403 15:14:11.378720 18644 net.cpp:148] Top shape: 24 (24)
I0403 15:14:11.378762 18644 net.cpp:156] Memory required for data: 14451744
I0403 15:14:11.378778 18644 layer_factory.hpp:77] Creating layer conv1/7x7_s2
I0403 15:14:11.378809 18644 net.cpp:91] Creating Layer conv1/7x7_s2
I0403 15:14:11.378829 18644 net.cpp:425] conv1/7x7_s2 <- data
I0403 15:14:11.378849 18644 net.cpp:399] conv1/7x7_s2 -> conv1/7x7_s2
I0403 15:14:11.537794 18644 net.cpp:141] Setting up conv1/7x7_s2
I0403 15:14:11.537863 18644 net.cpp:148] Top shape: 24 64 112 112 (19267584)
I0403 15:14:11.537880 18644 net.cpp:156] Memory required for data: 91522080
I0403 15:14:11.537912 18644 layer_factory.hpp:77] Creating layer conv1/relu_7x7
I0403 15:14:11.537941 18644 net.cpp:91] Creating Layer conv1/relu_7x7
I0403 15:14:11.537961 18644 net.cpp:425] conv1/relu_7x7 <- conv1/7x7_s2
I0403 15:14:11.537981 18644 net.cpp:386] conv1/relu_7x7 -> conv1/7x7_s2 (in-place)
I0403 15:14:11.538256 18644 net.cpp:141] Setting up conv1/relu_7x7
I0403 15:14:11.538285 18644 net.cpp:148] Top shape: 24 64 112 112 (19267584)
I0403 15:14:11.538301 18644 net.cpp:156] Memory required for data: 168592416
I0403 15:14:11.538316 18644 layer_factory.hpp:77] Creating layer pool1/3x3_s2
I0403 15:14:11.538342 18644 net.cpp:91] Creating Layer pool1/3x3_s2
I0403 15:14:11.538362 18644 net.cpp:425] pool1/3x3_s2 <- conv1/7x7_s2
I0403 15:14:11.538380 18644 net.cpp:399] pool1/3x3_s2 -> pool1/3x3_s2
I0403 15:14:11.538458 18644 net.cpp:141] Setting up pool1/3x3_s2
I0403 15:14:11.538485 18644 net.cpp:148] Top shape: 24 64 56 56 (4816896)
I0403 15:14:11.538501 18644 net.cpp:156] Memory required for data: 187860000
I0403 15:14:11.538516 18644 layer_factory.hpp:77] Creating layer pool1/norm1
I0403 15:14:11.538542 18644 net.cpp:91] Creating Layer pool1/norm1
I0403 15:14:11.538559 18644 net.cpp:425] pool1/norm1 <- pool1/3x3_s2
I0403 15:14:11.538578 18644 net.cpp:399] pool1/norm1 -> pool1/norm1
I0403 15:14:11.538875 18644 net.cpp:141] Setting up pool1/norm1
I0403 15:14:11.538904 18644 net.cpp:148] Top shape: 24 64 56 56 (4816896)
I0403 15:14:11.538921 18644 net.cpp:156] Memory required for data: 207127584
I0403 15:14:11.538936 18644 layer_factory.hpp:77] Creating layer conv2/3x3_reduce
I0403 15:14:11.538961 18644 net.cpp:91] Creating Layer conv2/3x3_reduce
I0403 15:14:11.538978 18644 net.cpp:425] conv2/3x3_reduce <- pool1/norm1
I0403 15:14:11.539011 18644 net.cpp:399] conv2/3x3_reduce -> conv2/3x3_reduce
I0403 15:14:11.540417 18644 net.cpp:141] Setting up conv2/3x3_reduce
I0403 15:14:11.540448 18644 net.cpp:148] Top shape: 24 64 56 56 (4816896)
I0403 15:14:11.540465 18644 net.cpp:156] Memory required for data: 226395168
I0403 15:14:11.540490 18644 layer_factory.hpp:77] Creating layer conv2/relu_3x3_reduce
I0403 15:14:11.540511 18644 net.cpp:91] Creating Layer conv2/relu_3x3_reduce
I0403 15:14:11.540527 18644 net.cpp:425] conv2/relu_3x3_reduce <- conv2/3x3_reduce
I0403 15:14:11.540545 18644 net.cpp:386] conv2/relu_3x3_reduce -> conv2/3x3_reduce (in-place)
I0403 15:14:11.540827 18644 net.cpp:141] Setting up conv2/relu_3x3_reduce
I0403 15:14:11.540854 18644 net.cpp:148] Top shape: 24 64 56 56 (4816896)
I0403 15:14:11.540871 18644 net.cpp:156] Memory required for data: 245662752
I0403 15:14:11.540886 18644 layer_factory.hpp:77] Creating layer conv2/3x3
I0403 15:14:11.540913 18644 net.cpp:91] Creating Layer conv2/3x3
I0403 15:14:11.540932 18644 net.cpp:425] conv2/3x3 <- conv2/3x3_reduce
I0403 15:14:11.540964 18644 net.cpp:399] conv2/3x3 -> conv2/3x3
I0403 15:14:11.543392 18644 net.cpp:141] Setting up conv2/3x3
I0403 15:14:11.543424 18644 net.cpp:148] Top shape: 24 192 56 56 (14450688)
I0403 15:14:11.543440 18644 net.cpp:156] Memory required for data: 303465504
I0403 15:14:11.543465 18644 layer_factory.hpp:77] Creating layer conv2/relu_3x3
I0403 15:14:11.543488 18644 net.cpp:91] Creating Layer conv2/relu_3x3
I0403 15:14:11.543503 18644 net.cpp:425] conv2/relu_3x3 <- conv2/3x3
I0403 15:14:11.543521 18644 net.cpp:386] conv2/relu_3x3 -> conv2/3x3 (in-place)
I0403 15:14:11.543709 18644 net.cpp:141] Setting up conv2/relu_3x3
I0403 15:14:11.543740 18644 net.cpp:148] Top shape: 24 192 56 56 (14450688)
I0403 15:14:11.543787 18644 net.cpp:156] Memory required for data: 361268256
I0403 15:14:11.543804 18644 layer_factory.hpp:77] Creating layer conv2/norm2
I0403 15:14:11.543828 18644 net.cpp:91] Creating Layer conv2/norm2
I0403 15:14:11.543845 18644 net.cpp:425] conv2/norm2 <- conv2/3x3
I0403 15:14:11.543864 18644 net.cpp:399] conv2/norm2 -> conv2/norm2
I0403 15:14:11.544186 18644 net.cpp:141] Setting up conv2/norm2
I0403 15:14:11.544215 18644 net.cpp:148] Top shape: 24 192 56 56 (14450688)
I0403 15:14:11.544232 18644 net.cpp:156] Memory required for data: 419071008
I0403 15:14:11.544248 18644 layer_factory.hpp:77] Creating layer pool2/3x3_s2
I0403 15:14:11.544270 18644 net.cpp:91] Creating Layer pool2/3x3_s2
I0403 15:14:11.544286 18644 net.cpp:425] pool2/3x3_s2 <- conv2/norm2
I0403 15:14:11.544304 18644 net.cpp:399] pool2/3x3_s2 -> pool2/3x3_s2
I0403 15:14:11.544360 18644 net.cpp:141] Setting up pool2/3x3_s2
I0403 15:14:11.544385 18644 net.cpp:148] Top shape: 24 192 28 28 (3612672)
I0403 15:14:11.544400 18644 net.cpp:156] Memory required for data: 433521696
I0403 15:14:11.544416 18644 layer_factory.hpp:77] Creating layer pool2/3x3_s2_pool2/3x3_s2_0_split
I0403 15:14:11.544435 18644 net.cpp:91] Creating Layer pool2/3x3_s2_pool2/3x3_s2_0_split
I0403 15:14:11.544450 18644 net.cpp:425] pool2/3x3_s2_pool2/3x3_s2_0_split <- pool2/3x3_s2
I0403 15:14:11.544471 18644 net.cpp:399] pool2/3x3_s2_pool2/3x3_s2_0_split -> pool2/3x3_s2_pool2/3x3_s2_0_split_0
I0403 15:14:11.544493 18644 net.cpp:399] pool2/3x3_s2_pool2/3x3_s2_0_split -> pool2/3x3_s2_pool2/3x3_s2_0_split_1
I0403 15:14:11.544513 18644 net.cpp:399] pool2/3x3_s2_pool2/3x3_s2_0_split -> pool2/3x3_s2_pool2/3x3_s2_0_split_2
I0403 15:14:11.544533 18644 net.cpp:399] pool2/3x3_s2_pool2/3x3_s2_0_split -> pool2/3x3_s2_pool2/3x3_s2_0_split_3
I0403 15:14:11.544608 18644 net.cpp:141] Setting up pool2/3x3_s2_pool2/3x3_s2_0_split
I0403 15:14:11.544634 18644 net.cpp:148] Top shape: 24 192 28 28 (3612672)
I0403 15:14:11.544653 18644 net.cpp:148] Top shape: 24 192 28 28 (3612672)
I0403 15:14:11.544669 18644 net.cpp:148] Top shape: 24 192 28 28 (3612672)
I0403 15:14:11.544687 18644 net.cpp:148] Top shape: 24 192 28 28 (3612672)
I0403 15:14:11.544700 18644 net.cpp:156] Memory required for data: 491324448
I0403 15:14:11.544716 18644 layer_factory.hpp:77] Creating layer inception_3a/1x1
I0403 15:14:11.544740 18644 net.cpp:91] Creating Layer inception_3a/1x1
I0403 15:14:11.544757 18644 net.cpp:425] inception_3a/1x1 <- pool2/3x3_s2_pool2/3x3_s2_0_split_0
I0403 15:14:11.544777 18644 net.cpp:399] inception_3a/1x1 -> inception_3a/1x1
I0403 15:14:11.546412 18644 net.cpp:141] Setting up inception_3a/1x1
I0403 15:14:11.546443 18644 net.cpp:148] Top shape: 24 64 28 28 (1204224)
I0403 15:14:11.546460 18644 net.cpp:156] Memory required for data: 496141344
I0403 15:14:11.546480 18644 layer_factory.hpp:77] Creating layer inception_3a/relu_1x1
I0403 15:14:11.546501 18644 net.cpp:91] Creating Layer inception_3a/relu_1x1
I0403 15:14:11.546519 18644 net.cpp:425] inception_3a/relu_1x1 <- inception_3a/1x1
I0403 15:14:11.546537 18644 net.cpp:386] inception_3a/relu_1x1 -> inception_3a/1x1 (in-place)
I0403 15:14:11.546723 18644 net.cpp:141] Setting up inception_3a/relu_1x1
I0403 15:14:11.546752 18644 net.cpp:148] Top shape: 24 64 28 28 (1204224)
I0403 15:14:11.546768 18644 net.cpp:156] Memory required for data: 500958240
I0403 15:14:11.546783 18644 layer_factory.hpp:77] Creating layer inception_3a/3x3_reduce
I0403 15:14:11.546807 18644 net.cpp:91] Creating Layer inception_3a/3x3_reduce
I0403 15:14:11.546824 18644 net.cpp:425] inception_3a/3x3_reduce <- pool2/3x3_s2_pool2/3x3_s2_0_split_1
I0403 15:14:11.546844 18644 net.cpp:399] inception_3a/3x3_reduce -> inception_3a/3x3_reduce
I0403 15:14:11.548619 18644 net.cpp:141] Setting up inception_3a/3x3_reduce
I0403 15:14:11.548650 18644 net.cpp:148] Top shape: 24 96 28 28 (1806336)
I0403 15:14:11.548668 18644 net.cpp:156] Memory required for data: 508183584
I0403 15:14:11.548693 18644 layer_factory.hpp:77] Creating layer inception_3a/relu_3x3_reduce
I0403 15:14:11.548730 18644 net.cpp:91] Creating Layer inception_3a/relu_3x3_reduce
I0403 15:14:11.548749 18644 net.cpp:425] inception_3a/relu_3x3_reduce <- inception_3a/3x3_reduce
I0403 15:14:11.548770 18644 net.cpp:386] inception_3a/relu_3x3_reduce -> inception_3a/3x3_reduce (in-place)
I0403 15:14:11.548970 18644 net.cpp:141] Setting up inception_3a/relu_3x3_reduce
I0403 15:14:11.549010 18644 net.cpp:148] Top shape: 24 96 28 28 (1806336)
I0403 15:14:11.549028 18644 net.cpp:156] Memory required for data: 515408928
I0403 15:14:11.549044 18644 layer_factory.hpp:77] Creating layer inception_3a/3x3
I0403 15:14:11.549068 18644 net.cpp:91] Creating Layer inception_3a/3x3
I0403 15:14:11.549088 18644 net.cpp:425] inception_3a/3x3 <- inception_3a/3x3_reduce
I0403 15:14:11.549110 18644 net.cpp:399] inception_3a/3x3 -> inception_3a/3x3
I0403 15:14:11.550860 18644 net.cpp:141] Setting up inception_3a/3x3
I0403 15:14:11.550890 18644 net.cpp:148] Top shape: 24 128 28 28 (2408448)
I0403 15:14:11.550907 18644 net.cpp:156] Memory required for data: 525042720
I0403 15:14:11.550927 18644 layer_factory.hpp:77] Creating layer inception_3a/relu_3x3
I0403 15:14:11.550948 18644 net.cpp:91] Creating Layer inception_3a/relu_3x3
I0403 15:14:11.550966 18644 net.cpp:425] inception_3a/relu_3x3 <- inception_3a/3x3
I0403 15:14:11.550989 18644 net.cpp:386] inception_3a/relu_3x3 -> inception_3a/3x3 (in-place)
I0403 15:14:11.551286 18644 net.cpp:141] Setting up inception_3a/relu_3x3
I0403 15:14:11.551314 18644 net.cpp:148] Top shape: 24 128 28 28 (2408448)
I0403 15:14:11.551331 18644 net.cpp:156] Memory required for data: 534676512
I0403 15:14:11.551347 18644 layer_factory.hpp:77] Creating layer inception_3a/5x5_reduce
I0403 15:14:11.551373 18644 net.cpp:91] Creating Layer inception_3a/5x5_reduce
I0403 15:14:11.551391 18644 net.cpp:425] inception_3a/5x5_reduce <- pool2/3x3_s2_pool2/3x3_s2_0_split_2
I0403 15:14:11.551411 18644 net.cpp:399] inception_3a/5x5_reduce -> inception_3a/5x5_reduce
I0403 15:14:11.552443 18644 net.cpp:141] Setting up inception_3a/5x5_reduce
I0403 15:14:11.552474 18644 net.cpp:148] Top shape: 24 16 28 28 (301056)
I0403 15:14:11.552491 18644 net.cpp:156] Memory required for data: 535880736
I0403 15:14:11.552511 18644 layer_factory.hpp:77] Creating layer inception_3a/relu_5x5_reduce
I0403 15:14:11.552531 18644 net.cpp:91] Creating Layer inception_3a/relu_5x5_reduce
I0403 15:14:11.552546 18644 net.cpp:425] inception_3a/relu_5x5_reduce <- inception_3a/5x5_reduce
I0403 15:14:11.552569 18644 net.cpp:386] inception_3a/relu_5x5_reduce -> inception_3a/5x5_reduce (in-place)
I0403 15:14:11.552886 18644 net.cpp:141] Setting up inception_3a/relu_5x5_reduce
I0403 15:14:11.552914 18644 net.cpp:148] Top shape: 24 16 28 28 (301056)
I0403 15:14:11.552930 18644 net.cpp:156] Memory required for data: 537084960
I0403 15:14:11.552947 18644 layer_factory.hpp:77] Creating layer inception_3a/5x5
I0403 15:14:11.552969 18644 net.cpp:91] Creating Layer inception_3a/5x5
I0403 15:14:11.552991 18644 net.cpp:425] inception_3a/5x5 <- inception_3a/5x5_reduce
I0403 15:14:11.553015 18644 net.cpp:399] inception_3a/5x5 -> inception_3a/5x5
I0403 15:14:11.554100 18644 net.cpp:141] Setting up inception_3a/5x5
I0403 15:14:11.554129 18644 net.cpp:148] Top shape: 24 32 28 28 (602112)
I0403 15:14:11.554147 18644 net.cpp:156] Memory required for data: 539493408
I0403 15:14:11.554167 18644 layer_factory.hpp:77] Creating layer inception_3a/relu_5x5
I0403 15:14:11.554188 18644 net.cpp:91] Creating Layer inception_3a/relu_5x5
I0403 15:14:11.554206 18644 net.cpp:425] inception_3a/relu_5x5 <- inception_3a/5x5
I0403 15:14:11.554224 18644 net.cpp:386] inception_3a/relu_5x5 -> inception_3a/5x5 (in-place)
I0403 15:14:11.554411 18644 net.cpp:141] Setting up inception_3a/relu_5x5
I0403 15:14:11.554440 18644 net.cpp:148] Top shape: 24 32 28 28 (602112)
I0403 15:14:11.554457 18644 net.cpp:156] Memory required for data: 541901856
I0403 15:14:11.554473 18644 layer_factory.hpp:77] Creating layer inception_3a/pool
I0403 15:14:11.554491 18644 net.cpp:91] Creating Layer inception_3a/pool
I0403 15:14:11.554523 18644 net.cpp:425] inception_3a/pool <- pool2/3x3_s2_pool2/3x3_s2_0_split_3
I0403 15:14:11.554545 18644 net.cpp:399] inception_3a/pool -> inception_3a/pool
I0403 15:14:11.554606 18644 net.cpp:141] Setting up inception_3a/pool
I0403 15:14:11.554631 18644 net.cpp:148] Top shape: 24 192 28 28 (3612672)
I0403 15:14:11.554646 18644 net.cpp:156] Memory required for data: 556352544
I0403 15:14:11.554662 18644 layer_factory.hpp:77] Creating layer inception_3a/pool_proj
I0403 15:14:11.554688 18644 net.cpp:91] Creating Layer inception_3a/pool_proj
I0403 15:14:11.554707 18644 net.cpp:425] inception_3a/pool_proj <- inception_3a/pool
I0403 15:14:11.554726 18644 net.cpp:399] inception_3a/pool_proj -> inception_3a/pool_proj
I0403 15:14:11.555749 18644 net.cpp:141] Setting up inception_3a/pool_proj
I0403 15:14:11.555779 18644 net.cpp:148] Top shape: 24 32 28 28 (602112)
I0403 15:14:11.555796 18644 net.cpp:156] Memory required for data: 558760992
I0403 15:14:11.555820 18644 layer_factory.hpp:77] Creating layer inception_3a/relu_pool_proj
I0403 15:14:11.555842 18644 net.cpp:91] Creating Layer inception_3a/relu_pool_proj
I0403 15:14:11.555860 18644 net.cpp:425] inception_3a/relu_pool_proj <- inception_3a/pool_proj
I0403 15:14:11.555879 18644 net.cpp:386] inception_3a/relu_pool_proj -> inception_3a/pool_proj (in-place)
I0403 15:14:11.556180 18644 net.cpp:141] Setting up inception_3a/relu_pool_proj
I0403 15:14:11.556208 18644 net.cpp:148] Top shape: 24 32 28 28 (602112)
I0403 15:14:11.556224 18644 net.cpp:156] Memory required for data: 561169440
I0403 15:14:11.556239 18644 layer_factory.hpp:77] Creating layer inception_3a/output
I0403 15:14:11.556272 18644 net.cpp:91] Creating Layer inception_3a/output
I0403 15:14:11.556288 18644 net.cpp:425] inception_3a/output <- inception_3a/1x1
I0403 15:14:11.556306 18644 net.cpp:425] inception_3a/output <- inception_3a/3x3
I0403 15:14:11.556324 18644 net.cpp:425] inception_3a/output <- inception_3a/5x5
I0403 15:14:11.556339 18644 net.cpp:425] inception_3a/output <- inception_3a/pool_proj
I0403 15:14:11.556356 18644 net.cpp:399] inception_3a/output -> inception_3a/output
I0403 15:14:11.556406 18644 net.cpp:141] Setting up inception_3a/output
I0403 15:14:11.556432 18644 net.cpp:148] Top shape: 24 256 28 28 (4816896)
I0403 15:14:11.556447 18644 net.cpp:156] Memory required for data: 580437024
I0403 15:14:11.556463 18644 layer_factory.hpp:77] Creating layer inception_3a/output_inception_3a/output_0_split
I0403 15:14:11.556480 18644 net.cpp:91] Creating Layer inception_3a/output_inception_3a/output_0_split
I0403 15:14:11.556496 18644 net.cpp:425] inception_3a/output_inception_3a/output_0_split <- inception_3a/output
I0403 15:14:11.556516 18644 net.cpp:399] inception_3a/output_inception_3a/output_0_split -> inception_3a/output_inception_3a/output_0_split_0
I0403 15:14:11.556538 18644 net.cpp:399] inception_3a/output_inception_3a/output_0_split -> inception_3a/output_inception_3a/output_0_split_1
I0403 15:14:11.556565 18644 net.cpp:399] inception_3a/output_inception_3a/output_0_split -> inception_3a/output_inception_3a/output_0_split_2
I0403 15:14:11.556586 18644 net.cpp:399] inception_3a/output_inception_3a/output_0_split -> inception_3a/output_inception_3a/output_0_split_3
I0403 15:14:11.556663 18644 net.cpp:141] Setting up inception_3a/output_inception_3a/output_0_split
I0403 15:14:11.556689 18644 net.cpp:148] Top shape: 24 256 28 28 (4816896)
I0403 15:14:11.556709 18644 net.cpp:148] Top shape: 24 256 28 28 (4816896)
I0403 15:14:11.556725 18644 net.cpp:148] Top shape: 24 256 28 28 (4816896)
I0403 15:14:11.556742 18644 net.cpp:148] Top shape: 24 256 28 28 (4816896)
I0403 15:14:11.556757 18644 net.cpp:156] Memory required for data: 657507360
I0403 15:14:11.556772 18644 layer_factory.hpp:77] Creating layer inception_3b/1x1
I0403 15:14:11.556793 18644 net.cpp:91] Creating Layer inception_3b/1x1
I0403 15:14:11.556812 18644 net.cpp:425] inception_3b/1x1 <- inception_3a/output_inception_3a/output_0_split_0
I0403 15:14:11.556833 18644 net.cpp:399] inception_3b/1x1 -> inception_3b/1x1
I0403 15:14:11.558043 18644 net.cpp:141] Setting up inception_3b/1x1
I0403 15:14:11.558084 18644 net.cpp:148] Top shape: 24 128 28 28 (2408448)
I0403 15:14:11.558102 18644 net.cpp:156] Memory required for data: 667141152
I0403 15:14:11.558121 18644 layer_factory.hpp:77] Creating layer inception_3b/relu_1x1
I0403 15:14:11.558143 18644 net.cpp:91] Creating Layer inception_3b/relu_1x1
I0403 15:14:11.558161 18644 net.cpp:425] inception_3b/relu_1x1 <- inception_3b/1x1
I0403 15:14:11.558179 18644 net.cpp:386] inception_3b/relu_1x1 -> inception_3b/1x1 (in-place)
I0403 15:14:11.558369 18644 net.cpp:141] Setting up inception_3b/relu_1x1
I0403 15:14:11.558396 18644 net.cpp:148] Top shape: 24 128 28 28 (2408448)
I0403 15:14:11.558413 18644 net.cpp:156] Memory required for data: 676774944
I0403 15:14:11.558428 18644 layer_factory.hpp:77] Creating layer inception_3b/3x3_reduce
I0403 15:14:11.558452 18644 net.cpp:91] Creating Layer inception_3b/3x3_reduce
I0403 15:14:11.558471 18644 net.cpp:425] inception_3b/3x3_reduce <- inception_3a/output_inception_3a/output_0_split_1
I0403 15:14:11.558491 18644 net.cpp:399] inception_3b/3x3_reduce -> inception_3b/3x3_reduce
I0403 15:14:11.559701 18644 net.cpp:141] Setting up inception_3b/3x3_reduce
I0403 15:14:11.559731 18644 net.cpp:148] Top shape: 24 128 28 28 (2408448)
I0403 15:14:11.559748 18644 net.cpp:156] Memory required for data: 686408736
I0403 15:14:11.559767 18644 layer_factory.hpp:77] Creating layer inception_3b/relu_3x3_reduce
I0403 15:14:11.559789 18644 net.cpp:91] Creating Layer inception_3b/relu_3x3_reduce
I0403 15:14:11.559808 18644 net.cpp:425] inception_3b/relu_3x3_reduce <- inception_3b/3x3_reduce
I0403 15:14:11.559825 18644 net.cpp:386] inception_3b/relu_3x3_reduce -> inception_3b/3x3_reduce (in-place)
I0403 15:14:11.560019 18644 net.cpp:141] Setting up inception_3b/relu_3x3_reduce
I0403 15:14:11.560050 18644 net.cpp:148] Top shape: 24 128 28 28 (2408448)
I0403 15:14:11.560066 18644 net.cpp:156] Memory required for data: 696042528
I0403 15:14:11.560082 18644 layer_factory.hpp:77] Creating layer inception_3b/3x3
I0403 15:14:11.560108 18644 net.cpp:91] Creating Layer inception_3b/3x3
I0403 15:14:11.560127 18644 net.cpp:425] inception_3b/3x3 <- inception_3b/3x3_reduce
I0403 15:14:11.560149 18644 net.cpp:399] inception_3b/3x3 -> inception_3b/3x3
I0403 15:14:11.563225 18644 net.cpp:141] Setting up inception_3b/3x3
I0403 15:14:11.563254 18644 net.cpp:148] Top shape: 24 192 28 28 (3612672)
I0403 15:14:11.563271 18644 net.cpp:156] Memory required for data: 710493216
I0403 15:14:11.563290 18644 layer_factory.hpp:77] Creating layer inception_3b/relu_3x3
I0403 15:14:11.563311 18644 net.cpp:91] Creating Layer inception_3b/relu_3x3
I0403 15:14:11.563329 18644 net.cpp:425] inception_3b/relu_3x3 <- inception_3b/3x3
I0403 15:14:11.563347 18644 net.cpp:386] inception_3b/relu_3x3 -> inception_3b/3x3 (in-place)
I0403 15:14:11.563642 18644 net.cpp:141] Setting up inception_3b/relu_3x3
I0403 15:14:11.563670 18644 net.cpp:148] Top shape: 24 192 28 28 (3612672)
I0403 15:14:11.563686 18644 net.cpp:156] Memory required for data: 724943904
I0403 15:14:11.563702 18644 layer_factory.hpp:77] Creating layer inception_3b/5x5_reduce
I0403 15:14:11.563729 18644 net.cpp:91] Creating Layer inception_3b/5x5_reduce
I0403 15:14:11.563747 18644 net.cpp:425] inception_3b/5x5_reduce <- inception_3a/output_inception_3a/output_0_split_2
I0403 15:14:11.563767 18644 net.cpp:399] inception_3b/5x5_reduce -> inception_3b/5x5_reduce
I0403 15:14:11.564833 18644 net.cpp:141] Setting up inception_3b/5x5_reduce
I0403 15:14:11.564863 18644 net.cpp:148] Top shape: 24 32 28 28 (602112)
I0403 15:14:11.564880 18644 net.cpp:156] Memory required for data: 727352352
I0403 15:14:11.564899 18644 layer_factory.hpp:77] Creating layer inception_3b/relu_5x5_reduce
I0403 15:14:11.564921 18644 net.cpp:91] Creating Layer inception_3b/relu_5x5_reduce
I0403 15:14:11.564939 18644 net.cpp:425] inception_3b/relu_5x5_reduce <- inception_3b/5x5_reduce
I0403 15:14:11.564959 18644 net.cpp:386] inception_3b/relu_5x5_reduce -> inception_3b/5x5_reduce (in-place)
I0403 15:14:11.565166 18644 net.cpp:141] Setting up inception_3b/relu_5x5_reduce
I0403 15:14:11.565193 18644 net.cpp:148] Top shape: 24 32 28 28 (602112)
I0403 15:14:11.565209 18644 net.cpp:156] Memory required for data: 729760800
I0403 15:14:11.565225 18644 layer_factory.hpp:77] Creating layer inception_3b/5x5
I0403 15:14:11.565248 18644 net.cpp:91] Creating Layer inception_3b/5x5
I0403 15:14:11.565268 18644 net.cpp:425] inception_3b/5x5 <- inception_3b/5x5_reduce
I0403 15:14:11.565290 18644 net.cpp:399] inception_3b/5x5 -> inception_3b/5x5
I0403 15:14:11.567390 18644 net.cpp:141] Setting up inception_3b/5x5
I0403 15:14:11.567421 18644 net.cpp:148] Top shape: 24 96 28 28 (1806336)
I0403 15:14:11.567438 18644 net.cpp:156] Memory required for data: 736986144
I0403 15:14:11.567457 18644 layer_factory.hpp:77] Creating layer inception_3b/relu_5x5
I0403 15:14:11.567479 18644 net.cpp:91] Creating Layer inception_3b/relu_5x5
I0403 15:14:11.567497 18644 net.cpp:425] inception_3b/relu_5x5 <- inception_3b/5x5
I0403 15:14:11.567515 18644 net.cpp:386] inception_3b/relu_5x5 -> inception_3b/5x5 (in-place)
I0403 15:14:11.567728 18644 net.cpp:141] Setting up inception_3b/relu_5x5
I0403 15:14:11.567754 18644 net.cpp:148] Top shape: 24 96 28 28 (1806336)
I0403 15:14:11.567770 18644 net.cpp:156] Memory required for data: 744211488
I0403 15:14:11.567786 18644 layer_factory.hpp:77] Creating layer inception_3b/pool
I0403 15:14:11.567806 18644 net.cpp:91] Creating Layer inception_3b/pool
I0403 15:14:11.567821 18644 net.cpp:425] inception_3b/pool <- inception_3a/output_inception_3a/output_0_split_3
I0403 15:14:11.567841 18644 net.cpp:399] inception_3b/pool -> inception_3b/pool
I0403 15:14:11.567900 18644 net.cpp:141] Setting up inception_3b/pool
I0403 15:14:11.567925 18644 net.cpp:148] Top shape: 24 256 28 28 (4816896)
I0403 15:14:11.567940 18644 net.cpp:156] Memory required for data: 763479072
I0403 15:14:11.567956 18644 layer_factory.hpp:77] Creating layer inception_3b/pool_proj
I0403 15:14:11.567980 18644 net.cpp:91] Creating Layer inception_3b/pool_proj
I0403 15:14:11.568002 18644 net.cpp:425] inception_3b/pool_proj <- inception_3b/pool
I0403 15:14:11.568024 18644 net.cpp:399] inception_3b/pool_proj -> inception_3b/pool_proj
I0403 15:14:11.569195 18644 net.cpp:141] Setting up inception_3b/pool_proj
I0403 15:14:11.569223 18644 net.cpp:148] Top shape: 24 64 28 28 (1204224)
I0403 15:14:11.569241 18644 net.cpp:156] Memory required for data: 768295968
I0403 15:14:11.569259 18644 layer_factory.hpp:77] Creating layer inception_3b/relu_pool_proj
I0403 15:14:11.569278 18644 net.cpp:91] Creating Layer inception_3b/relu_pool_proj
I0403 15:14:11.569293 18644 net.cpp:425] inception_3b/relu_pool_proj <- inception_3b/pool_proj
I0403 15:14:11.569314 18644 net.cpp:386] inception_3b/relu_pool_proj -> inception_3b/pool_proj (in-place)
I0403 15:14:11.569715 18644 net.cpp:141] Setting up inception_3b/relu_pool_proj
I0403 15:14:11.569744 18644 net.cpp:148] Top shape: 24 64 28 28 (1204224)
I0403 15:14:11.569761 18644 net.cpp:156] Memory required for data: 773112864
I0403 15:14:11.569777 18644 layer_factory.hpp:77] Creating layer inception_3b/output
I0403 15:14:11.569794 18644 net.cpp:91] Creating Layer inception_3b/output
I0403 15:14:11.569809 18644 net.cpp:425] inception_3b/output <- inception_3b/1x1
I0403 15:14:11.569826 18644 net.cpp:425] inception_3b/output <- inception_3b/3x3
I0403 15:14:11.569844 18644 net.cpp:425] inception_3b/output <- inception_3b/5x5
I0403 15:14:11.569860 18644 net.cpp:425] inception_3b/output <- inception_3b/pool_proj
I0403 15:14:11.569880 18644 net.cpp:399] inception_3b/output -> inception_3b/output
I0403 15:14:11.569926 18644 net.cpp:141] Setting up inception_3b/output
I0403 15:14:11.569948 18644 net.cpp:148] Top shape: 24 480 28 28 (9031680)
I0403 15:14:11.569963 18644 net.cpp:156] Memory required for data: 809239584
I0403 15:14:11.569978 18644 layer_factory.hpp:77] Creating layer pool3/3x3_s2
I0403 15:14:11.570003 18644 net.cpp:91] Creating Layer pool3/3x3_s2
I0403 15:14:11.570024 18644 net.cpp:425] pool3/3x3_s2 <- inception_3b/output
I0403 15:14:11.570056 18644 net.cpp:399] pool3/3x3_s2 -> pool3/3x3_s2
I0403 15:14:11.570119 18644 net.cpp:141] Setting up pool3/3x3_s2
I0403 15:14:11.570143 18644 net.cpp:148] Top shape: 24 480 14 14 (2257920)
I0403 15:14:11.570158 18644 net.cpp:156] Memory required for data: 818271264
I0403 15:14:11.570173 18644 layer_factory.hpp:77] Creating layer pool3/3x3_s2_pool3/3x3_s2_0_split
I0403 15:14:11.570190 18644 net.cpp:91] Creating Layer pool3/3x3_s2_pool3/3x3_s2_0_split
I0403 15:14:11.570205 18644 net.cpp:425] pool3/3x3_s2_pool3/3x3_s2_0_split <- pool3/3x3_s2
I0403 15:14:11.570225 18644 net.cpp:399] pool3/3x3_s2_pool3/3x3_s2_0_split -> pool3/3x3_s2_pool3/3x3_s2_0_split_0
I0403 15:14:11.570246 18644 net.cpp:399] pool3/3x3_s2_pool3/3x3_s2_0_split -> pool3/3x3_s2_pool3/3x3_s2_0_split_1
I0403 15:14:11.570266 18644 net.cpp:399] pool3/3x3_s2_pool3/3x3_s2_0_split -> pool3/3x3_s2_pool3/3x3_s2_0_split_2
I0403 15:14:11.570286 18644 net.cpp:399] pool3/3x3_s2_pool3/3x3_s2_0_split -> pool3/3x3_s2_pool3/3x3_s2_0_split_3
I0403 15:14:11.570369 18644 net.cpp:141] Setting up pool3/3x3_s2_pool3/3x3_s2_0_split
I0403 15:14:11.570392 18644 net.cpp:148] Top shape: 24 480 14 14 (2257920)
I0403 15:14:11.570408 18644 net.cpp:148] Top shape: 24 480 14 14 (2257920)
I0403 15:14:11.570425 18644 net.cpp:148] Top shape: 24 480 14 14 (2257920)
I0403 15:14:11.570441 18644 net.cpp:148] Top shape: 24 480 14 14 (2257920)
I0403 15:14:11.570454 18644 net.cpp:156] Memory required for data: 854397984
I0403 15:14:11.570469 18644 layer_factory.hpp:77] Creating layer inception_4a/1x1
I0403 15:14:11.570492 18644 net.cpp:91] Creating Layer inception_4a/1x1
I0403 15:14:11.570509 18644 net.cpp:425] inception_4a/1x1 <- pool3/3x3_s2_pool3/3x3_s2_0_split_0
I0403 15:14:11.570531 18644 net.cpp:399] inception_4a/1x1 -> inception_4a/1x1
I0403 15:14:11.572151 18644 net.cpp:141] Setting up inception_4a/1x1
I0403 15:14:11.572180 18644 net.cpp:148] Top shape: 24 192 14 14 (903168)
I0403 15:14:11.572196 18644 net.cpp:156] Memory required for data: 858010656
I0403 15:14:11.572216 18644 layer_factory.hpp:77] Creating layer inception_4a/relu_1x1
I0403 15:14:11.572233 18644 net.cpp:91] Creating Layer inception_4a/relu_1x1
I0403 15:14:11.572249 18644 net.cpp:425] inception_4a/relu_1x1 <- inception_4a/1x1
I0403 15:14:11.572269 18644 net.cpp:386] inception_4a/relu_1x1 -> inception_4a/1x1 (in-place)
I0403 15:14:11.572453 18644 net.cpp:141] Setting up inception_4a/relu_1x1
I0403 15:14:11.572479 18644 net.cpp:148] Top shape: 24 192 14 14 (903168)
I0403 15:14:11.572494 18644 net.cpp:156] Memory required for data: 861623328
I0403 15:14:11.572510 18644 layer_factory.hpp:77] Creating layer inception_4a/3x3_reduce
I0403 15:14:11.572532 18644 net.cpp:91] Creating Layer inception_4a/3x3_reduce
I0403 15:14:11.572549 18644 net.cpp:425] inception_4a/3x3_reduce <- pool3/3x3_s2_pool3/3x3_s2_0_split_1
I0403 15:14:11.572571 18644 net.cpp:399] inception_4a/3x3_reduce -> inception_4a/3x3_reduce
I0403 15:14:11.573894 18644 net.cpp:141] Setting up inception_4a/3x3_reduce
I0403 15:14:11.573922 18644 net.cpp:148] Top shape: 24 96 14 14 (451584)
I0403 15:14:11.573938 18644 net.cpp:156] Memory required for data: 863429664
I0403 15:14:11.573964 18644 layer_factory.hpp:77] Creating layer inception_4a/relu_3x3_reduce
I0403 15:14:11.573984 18644 net.cpp:91] Creating Layer inception_4a/relu_3x3_reduce
I0403 15:14:11.574007 18644 net.cpp:425] inception_4a/relu_3x3_reduce <- inception_4a/3x3_reduce
I0403 15:14:11.574028 18644 net.cpp:386] inception_4a/relu_3x3_reduce -> inception_4a/3x3_reduce (in-place)
I0403 15:14:11.574215 18644 net.cpp:141] Setting up inception_4a/relu_3x3_reduce
I0403 15:14:11.574240 18644 net.cpp:148] Top shape: 24 96 14 14 (451584)
I0403 15:14:11.574256 18644 net.cpp:156] Memory required for data: 865236000
I0403 15:14:11.574271 18644 layer_factory.hpp:77] Creating layer inception_4a/3x3
I0403 15:14:11.574295 18644 net.cpp:91] Creating Layer inception_4a/3x3
I0403 15:14:11.574312 18644 net.cpp:425] inception_4a/3x3 <- inception_4a/3x3_reduce
I0403 15:14:11.574334 18644 net.cpp:399] inception_4a/3x3 -> inception_4a/3x3
I0403 15:14:11.577096 18644 net.cpp:141] Setting up inception_4a/3x3
I0403 15:14:11.577126 18644 net.cpp:148] Top shape: 24 208 14 14 (978432)
I0403 15:14:11.577142 18644 net.cpp:156] Memory required for data: 869149728
I0403 15:14:11.577160 18644 layer_factory.hpp:77] Creating layer inception_4a/relu_3x3
I0403 15:14:11.577181 18644 net.cpp:91] Creating Layer inception_4a/relu_3x3
I0403 15:14:11.577198 18644 net.cpp:425] inception_4a/relu_3x3 <- inception_4a/3x3
I0403 15:14:11.577217 18644 net.cpp:386] inception_4a/relu_3x3 -> inception_4a/3x3 (in-place)
I0403 15:14:11.577507 18644 net.cpp:141] Setting up inception_4a/relu_3x3
I0403 15:14:11.577534 18644 net.cpp:148] Top shape: 24 208 14 14 (978432)
I0403 15:14:11.577550 18644 net.cpp:156] Memory required for data: 873063456
I0403 15:14:11.577565 18644 layer_factory.hpp:77] Creating layer inception_4a/5x5_reduce
I0403 15:14:11.577587 18644 net.cpp:91] Creating Layer inception_4a/5x5_reduce
I0403 15:14:11.577605 18644 net.cpp:425] inception_4a/5x5_reduce <- pool3/3x3_s2_pool3/3x3_s2_0_split_2
I0403 15:14:11.577628 18644 net.cpp:399] inception_4a/5x5_reduce -> inception_4a/5x5_reduce
I0403 15:14:11.578729 18644 net.cpp:141] Setting up inception_4a/5x5_reduce
I0403 15:14:11.578758 18644 net.cpp:148] Top shape: 24 16 14 14 (75264)
I0403 15:14:11.578774 18644 net.cpp:156] Memory required for data: 873364512
I0403 15:14:11.578794 18644 layer_factory.hpp:77] Creating layer inception_4a/relu_5x5_reduce
I0403 15:14:11.578814 18644 net.cpp:91] Creating Layer inception_4a/relu_5x5_reduce
I0403 15:14:11.578831 18644 net.cpp:425] inception_4a/relu_5x5_reduce <- inception_4a/5x5_reduce
I0403 15:14:11.578850 18644 net.cpp:386] inception_4a/relu_5x5_reduce -> inception_4a/5x5_reduce (in-place)
I0403 15:14:11.579061 18644 net.cpp:141] Setting up inception_4a/relu_5x5_reduce
I0403 15:14:11.579094 18644 net.cpp:148] Top shape: 24 16 14 14 (75264)
I0403 15:14:11.579110 18644 net.cpp:156] Memory required for data: 873665568
I0403 15:14:11.579126 18644 layer_factory.hpp:77] Creating layer inception_4a/5x5
I0403 15:14:11.579149 18644 net.cpp:91] Creating Layer inception_4a/5x5
I0403 15:14:11.579169 18644 net.cpp:425] inception_4a/5x5 <- inception_4a/5x5_reduce
I0403 15:14:11.579191 18644 net.cpp:399] inception_4a/5x5 -> inception_4a/5x5
I0403 15:14:11.580366 18644 net.cpp:141] Setting up inception_4a/5x5
I0403 15:14:11.580397 18644 net.cpp:148] Top shape: 24 48 14 14 (225792)
I0403 15:14:11.580415 18644 net.cpp:156] Memory required for data: 874568736
I0403 15:14:11.580435 18644 layer_factory.hpp:77] Creating layer inception_4a/relu_5x5
I0403 15:14:11.580453 18644 net.cpp:91] Creating Layer inception_4a/relu_5x5
I0403 15:14:11.580471 18644 net.cpp:425] inception_4a/relu_5x5 <- inception_4a/5x5
I0403 15:14:11.580493 18644 net.cpp:386] inception_4a/relu_5x5 -> inception_4a/5x5 (in-place)
I0403 15:14:11.580685 18644 net.cpp:141] Setting up inception_4a/relu_5x5
I0403 15:14:11.580713 18644 net.cpp:148] Top shape: 24 48 14 14 (225792)
I0403 15:14:11.580729 18644 net.cpp:156] Memory required for data: 875471904
I0403 15:14:11.580744 18644 layer_factory.hpp:77] Creating layer inception_4a/pool
I0403 15:14:11.580762 18644 net.cpp:91] Creating Layer inception_4a/pool
I0403 15:14:11.580780 18644 net.cpp:425] inception_4a/pool <- pool3/3x3_s2_pool3/3x3_s2_0_split_3
I0403 15:14:11.580801 18644 net.cpp:399] inception_4a/pool -> inception_4a/pool
I0403 15:14:11.580865 18644 net.cpp:141] Setting up inception_4a/pool
I0403 15:14:11.580890 18644 net.cpp:148] Top shape: 24 480 14 14 (2257920)
I0403 15:14:11.580905 18644 net.cpp:156] Memory required for data: 884503584
I0403 15:14:11.580921 18644 layer_factory.hpp:77] Creating layer inception_4a/pool_proj
I0403 15:14:11.580946 18644 net.cpp:91] Creating Layer inception_4a/pool_proj
I0403 15:14:11.580965 18644 net.cpp:425] inception_4a/pool_proj <- inception_4a/pool
I0403 15:14:11.580983 18644 net.cpp:399] inception_4a/pool_proj -> inception_4a/pool_proj
I0403 15:14:11.582236 18644 net.cpp:141] Setting up inception_4a/pool_proj
I0403 15:14:11.582265 18644 net.cpp:148] Top shape: 24 64 14 14 (301056)
I0403 15:14:11.582298 18644 net.cpp:156] Memory required for data: 885707808
I0403 15:14:11.582319 18644 layer_factory.hpp:77] Creating layer inception_4a/relu_pool_proj
I0403 15:14:11.582337 18644 net.cpp:91] Creating Layer inception_4a/relu_pool_proj
I0403 15:14:11.582353 18644 net.cpp:425] inception_4a/relu_pool_proj <- inception_4a/pool_proj
I0403 15:14:11.582375 18644 net.cpp:386] inception_4a/relu_pool_proj -> inception_4a/pool_proj (in-place)
I0403 15:14:11.582681 18644 net.cpp:141] Setting up inception_4a/relu_pool_proj
I0403 15:14:11.582710 18644 net.cpp:148] Top shape: 24 64 14 14 (301056)
I0403 15:14:11.582726 18644 net.cpp:156] Memory required for data: 886912032
I0403 15:14:11.582741 18644 layer_factory.hpp:77] Creating layer inception_4a/output
I0403 15:14:11.582761 18644 net.cpp:91] Creating Layer inception_4a/output
I0403 15:14:11.582777 18644 net.cpp:425] inception_4a/output <- inception_4a/1x1
I0403 15:14:11.582794 18644 net.cpp:425] inception_4a/output <- inception_4a/3x3
I0403 15:14:11.582811 18644 net.cpp:425] inception_4a/output <- inception_4a/5x5
I0403 15:14:11.582828 18644 net.cpp:425] inception_4a/output <- inception_4a/pool_proj
I0403 15:14:11.582849 18644 net.cpp:399] inception_4a/output -> inception_4a/output
I0403 15:14:11.582916 18644 net.cpp:141] Setting up inception_4a/output
I0403 15:14:11.582944 18644 net.cpp:148] Top shape: 24 512 14 14 (2408448)
I0403 15:14:11.582960 18644 net.cpp:156] Memory required for data: 896545824
I0403 15:14:11.582975 18644 layer_factory.hpp:77] Creating layer inception_4a/output_inception_4a/output_0_split
I0403 15:14:11.582998 18644 net.cpp:91] Creating Layer inception_4a/output_inception_4a/output_0_split
I0403 15:14:11.583015 18644 net.cpp:425] inception_4a/output_inception_4a/output_0_split <- inception_4a/output
I0403 15:14:11.583036 18644 net.cpp:399] inception_4a/output_inception_4a/output_0_split -> inception_4a/output_inception_4a/output_0_split_0
I0403 15:14:11.583060 18644 net.cpp:399] inception_4a/output_inception_4a/output_0_split -> inception_4a/output_inception_4a/output_0_split_1
I0403 15:14:11.583081 18644 net.cpp:399] inception_4a/output_inception_4a/output_0_split -> inception_4a/output_inception_4a/output_0_split_2
I0403 15:14:11.583101 18644 net.cpp:399] inception_4a/output_inception_4a/output_0_split -> inception_4a/output_inception_4a/output_0_split_3
I0403 15:14:11.583122 18644 net.cpp:399] inception_4a/output_inception_4a/output_0_split -> inception_4a/output_inception_4a/output_0_split_4
I0403 15:14:11.583220 18644 net.cpp:141] Setting up inception_4a/output_inception_4a/output_0_split
I0403 15:14:11.583245 18644 net.cpp:148] Top shape: 24 512 14 14 (2408448)
I0403 15:14:11.583262 18644 net.cpp:148] Top shape: 24 512 14 14 (2408448)
I0403 15:14:11.583279 18644 net.cpp:148] Top shape: 24 512 14 14 (2408448)
I0403 15:14:11.583295 18644 net.cpp:148] Top shape: 24 512 14 14 (2408448)
I0403 15:14:11.583312 18644 net.cpp:148] Top shape: 24 512 14 14 (2408448)
I0403 15:14:11.583326 18644 net.cpp:156] Memory required for data: 944714784
I0403 15:14:11.583343 18644 layer_factory.hpp:77] Creating layer loss1/ave_pool
I0403 15:14:11.583362 18644 net.cpp:91] Creating Layer loss1/ave_pool
I0403 15:14:11.583379 18644 net.cpp:425] loss1/ave_pool <- inception_4a/output_inception_4a/output_0_split_0
I0403 15:14:11.583398 18644 net.cpp:399] loss1/ave_pool -> loss1/ave_pool
I0403 15:14:11.583618 18644 net.cpp:141] Setting up loss1/ave_pool
I0403 15:14:11.583647 18644 net.cpp:148] Top shape: 24 512 4 4 (196608)
I0403 15:14:11.583662 18644 net.cpp:156] Memory required for data: 945501216
I0403 15:14:11.583678 18644 layer_factory.hpp:77] Creating layer loss1/conv
I0403 15:14:11.583701 18644 net.cpp:91] Creating Layer loss1/conv
I0403 15:14:11.583719 18644 net.cpp:425] loss1/conv <- loss1/ave_pool
I0403 15:14:11.583741 18644 net.cpp:399] loss1/conv -> loss1/conv
I0403 15:14:11.585247 18644 net.cpp:141] Setting up loss1/conv
I0403 15:14:11.585278 18644 net.cpp:148] Top shape: 24 128 4 4 (49152)
I0403 15:14:11.585309 18644 net.cpp:156] Memory required for data: 945697824
I0403 15:14:11.585330 18644 layer_factory.hpp:77] Creating layer loss1/relu_conv
I0403 15:14:11.585351 18644 net.cpp:91] Creating Layer loss1/relu_conv
I0403 15:14:11.585369 18644 net.cpp:425] loss1/relu_conv <- loss1/conv
I0403 15:14:11.585387 18644 net.cpp:386] loss1/relu_conv -> loss1/conv (in-place)
I0403 15:14:11.585687 18644 net.cpp:141] Setting up loss1/relu_conv
I0403 15:14:11.585716 18644 net.cpp:148] Top shape: 24 128 4 4 (49152)
I0403 15:14:11.585731 18644 net.cpp:156] Memory required for data: 945894432
I0403 15:14:11.585747 18644 layer_factory.hpp:77] Creating layer loss1/fc
I0403 15:14:11.585773 18644 net.cpp:91] Creating Layer loss1/fc
I0403 15:14:11.585793 18644 net.cpp:425] loss1/fc <- loss1/conv
I0403 15:14:11.585815 18644 net.cpp:399] loss1/fc -> loss1/fc
I0403 15:14:11.604483 18644 net.cpp:141] Setting up loss1/fc
I0403 15:14:11.604517 18644 net.cpp:148] Top shape: 24 1024 (24576)
I0403 15:14:11.604534 18644 net.cpp:156] Memory required for data: 945992736
I0403 15:14:11.604552 18644 layer_factory.hpp:77] Creating layer loss1/relu_fc
I0403 15:14:11.604571 18644 net.cpp:91] Creating Layer loss1/relu_fc
I0403 15:14:11.604588 18644 net.cpp:425] loss1/relu_fc <- loss1/fc
I0403 15:14:11.604609 18644 net.cpp:386] loss1/relu_fc -> loss1/fc (in-place)
I0403 15:14:11.604802 18644 net.cpp:141] Setting up loss1/relu_fc
I0403 15:14:11.604830 18644 net.cpp:148] Top shape: 24 1024 (24576)
I0403 15:14:11.604845 18644 net.cpp:156] Memory required for data: 946091040
I0403 15:14:11.604859 18644 layer_factory.hpp:77] Creating layer loss1/drop_fc
I0403 15:14:11.604887 18644 net.cpp:91] Creating Layer loss1/drop_fc
I0403 15:14:11.604907 18644 net.cpp:425] loss1/drop_fc <- loss1/fc
I0403 15:14:11.604924 18644 net.cpp:386] loss1/drop_fc -> loss1/fc (in-place)
I0403 15:14:11.604995 18644 net.cpp:141] Setting up loss1/drop_fc
I0403 15:14:11.605022 18644 net.cpp:148] Top shape: 24 1024 (24576)
I0403 15:14:11.605038 18644 net.cpp:156] Memory required for data: 946189344
I0403 15:14:11.605054 18644 layer_factory.hpp:77] Creating layer loss1/classifier_plantvillage
I0403 15:14:11.605074 18644 net.cpp:91] Creating Layer loss1/classifier_plantvillage
I0403 15:14:11.605090 18644 net.cpp:425] loss1/classifier_plantvillage <- loss1/fc
I0403 15:14:11.605113 18644 net.cpp:399] loss1/classifier_plantvillage -> loss1/classifier_plantvillage
I0403 15:14:11.606051 18644 net.cpp:141] Setting up loss1/classifier_plantvillage
I0403 15:14:11.606079 18644 net.cpp:148] Top shape: 24 38 (912)
I0403 15:14:11.606096 18644 net.cpp:156] Memory required for data: 946192992
I0403 15:14:11.606114 18644 layer_factory.hpp:77] Creating layer loss1/classifier_plantvillage_loss1/classifier_plantvillage_0_split
I0403 15:14:11.606133 18644 net.cpp:91] Creating Layer loss1/classifier_plantvillage_loss1/classifier_plantvillage_0_split
I0403 15:14:11.606149 18644 net.cpp:425] loss1/classifier_plantvillage_loss1/classifier_plantvillage_0_split <- loss1/classifier_plantvillage
I0403 15:14:11.606170 18644 net.cpp:399] loss1/classifier_plantvillage_loss1/classifier_plantvillage_0_split -> loss1/classifier_plantvillage_loss1/classifier_plantvillage_0_split_0
I0403 15:14:11.606192 18644 net.cpp:399] loss1/classifier_plantvillage_loss1/classifier_plantvillage_0_split -> loss1/classifier_plantvillage_loss1/classifier_plantvillage_0_split_1
I0403 15:14:11.606214 18644 net.cpp:399] loss1/classifier_plantvillage_loss1/classifier_plantvillage_0_split -> loss1/classifier_plantvillage_loss1/classifier_plantvillage_0_split_2
I0403 15:14:11.606286 18644 net.cpp:141] Setting up loss1/classifier_plantvillage_loss1/classifier_plantvillage_0_split
I0403 15:14:11.606309 18644 net.cpp:148] Top shape: 24 38 (912)
I0403 15:14:11.606326 18644 net.cpp:148] Top shape: 24 38 (912)
I0403 15:14:11.606343 18644 net.cpp:148] Top shape: 24 38 (912)
I0403 15:14:11.606355 18644 net.cpp:156] Memory required for data: 946203936
I0403 15:14:11.606370 18644 layer_factory.hpp:77] Creating layer inception_4b/1x1
I0403 15:14:11.606394 18644 net.cpp:91] Creating Layer inception_4b/1x1
I0403 15:14:11.606427 18644 net.cpp:425] inception_4b/1x1 <- inception_4a/output_inception_4a/output_0_split_1
I0403 15:14:11.606448 18644 net.cpp:399] inception_4b/1x1 -> inception_4b/1x1
I0403 15:14:11.608150 18644 net.cpp:141] Setting up inception_4b/1x1
I0403 15:14:11.608180 18644 net.cpp:148] Top shape: 24 160 14 14 (752640)
I0403 15:14:11.608196 18644 net.cpp:156] Memory required for data: 949214496
I0403 15:14:11.608213 18644 layer_factory.hpp:77] Creating layer inception_4b/relu_1x1
I0403 15:14:11.608234 18644 net.cpp:91] Creating Layer inception_4b/relu_1x1
I0403 15:14:11.608252 18644 net.cpp:425] inception_4b/relu_1x1 <- inception_4b/1x1
I0403 15:14:11.608269 18644 net.cpp:386] inception_4b/relu_1x1 -> inception_4b/1x1 (in-place)
I0403 15:14:11.608456 18644 net.cpp:141] Setting up inception_4b/relu_1x1
I0403 15:14:11.608484 18644 net.cpp:148] Top shape: 24 160 14 14 (752640)
I0403 15:14:11.608500 18644 net.cpp:156] Memory required for data: 952225056
I0403 15:14:11.608515 18644 layer_factory.hpp:77] Creating layer inception_4b/3x3_reduce
I0403 15:14:11.608541 18644 net.cpp:91] Creating Layer inception_4b/3x3_reduce
I0403 15:14:11.608559 18644 net.cpp:425] inception_4b/3x3_reduce <- inception_4a/output_inception_4a/output_0_split_2
I0403 15:14:11.608579 18644 net.cpp:399] inception_4b/3x3_reduce -> inception_4b/3x3_reduce
I0403 15:14:11.609998 18644 net.cpp:141] Setting up inception_4b/3x3_reduce
I0403 15:14:11.610033 18644 net.cpp:148] Top shape: 24 112 14 14 (526848)
I0403 15:14:11.610049 18644 net.cpp:156] Memory required for data: 954332448
I0403 15:14:11.610069 18644 layer_factory.hpp:77] Creating layer inception_4b/relu_3x3_reduce
I0403 15:14:11.610088 18644 net.cpp:91] Creating Layer inception_4b/relu_3x3_reduce
I0403 15:14:11.610105 18644 net.cpp:425] inception_4b/relu_3x3_reduce <- inception_4b/3x3_reduce
I0403 15:14:11.610123 18644 net.cpp:386] inception_4b/relu_3x3_reduce -> inception_4b/3x3_reduce (in-place)
I0403 15:14:11.610419 18644 net.cpp:141] Setting up inception_4b/relu_3x3_reduce
I0403 15:14:11.610450 18644 net.cpp:148] Top shape: 24 112 14 14 (526848)
I0403 15:14:11.610466 18644 net.cpp:156] Memory required for data: 956439840
I0403 15:14:11.610481 18644 layer_factory.hpp:77] Creating layer inception_4b/3x3
I0403 15:14:11.610504 18644 net.cpp:91] Creating Layer inception_4b/3x3
I0403 15:14:11.610522 18644 net.cpp:425] inception_4b/3x3 <- inception_4b/3x3_reduce
I0403 15:14:11.610543 18644 net.cpp:399] inception_4b/3x3 -> inception_4b/3x3
I0403 15:14:11.613675 18644 net.cpp:141] Setting up inception_4b/3x3
I0403 15:14:11.613705 18644 net.cpp:148] Top shape: 24 224 14 14 (1053696)
I0403 15:14:11.613721 18644 net.cpp:156] Memory required for data: 960654624
I0403 15:14:11.613740 18644 layer_factory.hpp:77] Creating layer inception_4b/relu_3x3
I0403 15:14:11.613759 18644 net.cpp:91] Creating Layer inception_4b/relu_3x3
I0403 15:14:11.613776 18644 net.cpp:425] inception_4b/relu_3x3 <- inception_4b/3x3
I0403 15:14:11.613796 18644 net.cpp:386] inception_4b/relu_3x3 -> inception_4b/3x3 (in-place)
I0403 15:14:11.613988 18644 net.cpp:141] Setting up inception_4b/relu_3x3
I0403 15:14:11.614015 18644 net.cpp:148] Top shape: 24 224 14 14 (1053696)
I0403 15:14:11.614030 18644 net.cpp:156] Memory required for data: 964869408
I0403 15:14:11.614047 18644 layer_factory.hpp:77] Creating layer inception_4b/5x5_reduce
I0403 15:14:11.614069 18644 net.cpp:91] Creating Layer inception_4b/5x5_reduce
I0403 15:14:11.614086 18644 net.cpp:425] inception_4b/5x5_reduce <- inception_4a/output_inception_4a/output_0_split_3
I0403 15:14:11.614109 18644 net.cpp:399] inception_4b/5x5_reduce -> inception_4b/5x5_reduce
I0403 15:14:11.615236 18644 net.cpp:141] Setting up inception_4b/5x5_reduce
I0403 15:14:11.615267 18644 net.cpp:148] Top shape: 24 24 14 14 (112896)
I0403 15:14:11.615283 18644 net.cpp:156] Memory required for data: 965320992
I0403 15:14:11.615303 18644 layer_factory.hpp:77] Creating layer inception_4b/relu_5x5_reduce
I0403 15:14:11.615321 18644 net.cpp:91] Creating Layer inception_4b/relu_5x5_reduce
I0403 15:14:11.615353 18644 net.cpp:425] inception_4b/relu_5x5_reduce <- inception_4b/5x5_reduce
I0403 15:14:11.615372 18644 net.cpp:386] inception_4b/relu_5x5_reduce -> inception_4b/5x5_reduce (in-place)
I0403 15:14:11.615571 18644 net.cpp:141] Setting up inception_4b/relu_5x5_reduce
I0403 15:14:11.615598 18644 net.cpp:148] Top shape: 24 24 14 14 (112896)
I0403 15:14:11.615615 18644 net.cpp:156] Memory required for data: 965772576
I0403 15:14:11.615630 18644 layer_factory.hpp:77] Creating layer inception_4b/5x5
I0403 15:14:11.615653 18644 net.cpp:91] Creating Layer inception_4b/5x5
I0403 15:14:11.615671 18644 net.cpp:425] inception_4b/5x5 <- inception_4b/5x5_reduce
I0403 15:14:11.615692 18644 net.cpp:399] inception_4b/5x5 -> inception_4b/5x5
I0403 15:14:11.616971 18644 net.cpp:141] Setting up inception_4b/5x5
I0403 15:14:11.617004 18644 net.cpp:148] Top shape: 24 64 14 14 (301056)
I0403 15:14:11.617022 18644 net.cpp:156] Memory required for data: 966976800
I0403 15:14:11.617041 18644 layer_factory.hpp:77] Creating layer inception_4b/relu_5x5
I0403 15:14:11.617063 18644 net.cpp:91] Creating Layer inception_4b/relu_5x5
I0403 15:14:11.617079 18644 net.cpp:425] inception_4b/relu_5x5 <- inception_4b/5x5
I0403 15:14:11.617097 18644 net.cpp:386] inception_4b/relu_5x5 -> inception_4b/5x5 (in-place)
I0403 15:14:11.617393 18644 net.cpp:141] Setting up inception_4b/relu_5x5
I0403 15:14:11.617419 18644 net.cpp:148] Top shape: 24 64 14 14 (301056)
I0403 15:14:11.617435 18644 net.cpp:156] Memory required for data: 968181024
I0403 15:14:11.617450 18644 layer_factory.hpp:77] Creating layer inception_4b/pool
I0403 15:14:11.617471 18644 net.cpp:91] Creating Layer inception_4b/pool
I0403 15:14:11.617489 18644 net.cpp:425] inception_4b/pool <- inception_4a/output_inception_4a/output_0_split_4
I0403 15:14:11.617507 18644 net.cpp:399] inception_4b/pool -> inception_4b/pool
I0403 15:14:11.617574 18644 net.cpp:141] Setting up inception_4b/pool
I0403 15:14:11.617599 18644 net.cpp:148] Top shape: 24 512 14 14 (2408448)
I0403 15:14:11.617614 18644 net.cpp:156] Memory required for data: 977814816
I0403 15:14:11.617629 18644 layer_factory.hpp:77] Creating layer inception_4b/pool_proj
I0403 15:14:11.617650 18644 net.cpp:91] Creating Layer inception_4b/pool_proj
I0403 15:14:11.617668 18644 net.cpp:425] inception_4b/pool_proj <- inception_4b/pool
I0403 15:14:11.617689 18644 net.cpp:399] inception_4b/pool_proj -> inception_4b/pool_proj
I0403 15:14:11.618988 18644 net.cpp:141] Setting up inception_4b/pool_proj
I0403 15:14:11.619016 18644 net.cpp:148] Top shape: 24 64 14 14 (301056)
I0403 15:14:11.619034 18644 net.cpp:156] Memory required for data: 979019040
I0403 15:14:11.619051 18644 layer_factory.hpp:77] Creating layer inception_4b/relu_pool_proj
I0403 15:14:11.619072 18644 net.cpp:91] Creating Layer inception_4b/relu_pool_proj
I0403 15:14:11.619089 18644 net.cpp:425] inception_4b/relu_pool_proj <- inception_4b/pool_proj
I0403 15:14:11.619107 18644 net.cpp:386] inception_4b/relu_pool_proj -> inception_4b/pool_proj (in-place)
I0403 15:14:11.619298 18644 net.cpp:141] Setting up inception_4b/relu_pool_proj
I0403 15:14:11.619324 18644 net.cpp:148] Top shape: 24 64 14 14 (301056)
I0403 15:14:11.619339 18644 net.cpp:156] Memory required for data: 980223264
I0403 15:14:11.619354 18644 layer_factory.hpp:77] Creating layer inception_4b/output
I0403 15:14:11.619372 18644 net.cpp:91] Creating Layer inception_4b/output
I0403 15:14:11.619388 18644 net.cpp:425] inception_4b/output <- inception_4b/1x1
I0403 15:14:11.619405 18644 net.cpp:425] inception_4b/output <- inception_4b/3x3
I0403 15:14:11.619421 18644 net.cpp:425] inception_4b/output <- inception_4b/5x5
I0403 15:14:11.619438 18644 net.cpp:425] inception_4b/output <- inception_4b/pool_proj
I0403 15:14:11.619459 18644 net.cpp:399] inception_4b/output -> inception_4b/output
I0403 15:14:11.619506 18644 net.cpp:141] Setting up inception_4b/output
I0403 15:14:11.619532 18644 net.cpp:148] Top shape: 24 512 14 14 (2408448)
I0403 15:14:11.619549 18644 net.cpp:156] Memory required for data: 989857056
I0403 15:14:11.619577 18644 layer_factory.hpp:77] Creating layer inception_4b/output_inception_4b/output_0_split
I0403 15:14:11.619596 18644 net.cpp:91] Creating Layer inception_4b/output_inception_4b/output_0_split
I0403 15:14:11.619611 18644 net.cpp:425] inception_4b/output_inception_4b/output_0_split <- inception_4b/output
I0403 15:14:11.619629 18644 net.cpp:399] inception_4b/output_inception_4b/output_0_split -> inception_4b/output_inception_4b/output_0_split_0
I0403 15:14:11.619649 18644 net.cpp:399] inception_4b/output_inception_4b/output_0_split -> inception_4b/output_inception_4b/output_0_split_1
I0403 15:14:11.619670 18644 net.cpp:399] inception_4b/output_inception_4b/output_0_split -> inception_4b/output_inception_4b/output_0_split_2
I0403 15:14:11.619693 18644 net.cpp:399] inception_4b/output_inception_4b/output_0_split -> inception_4b/output_inception_4b/output_0_split_3
I0403 15:14:11.619781 18644 net.cpp:141] Setting up inception_4b/output_inception_4b/output_0_split
I0403 15:14:11.619804 18644 net.cpp:148] Top shape: 24 512 14 14 (2408448)
I0403 15:14:11.619820 18644 net.cpp:148] Top shape: 24 512 14 14 (2408448)
I0403 15:14:11.619835 18644 net.cpp:148] Top shape: 24 512 14 14 (2408448)
I0403 15:14:11.619850 18644 net.cpp:148] Top shape: 24 512 14 14 (2408448)
I0403 15:14:11.619864 18644 net.cpp:156] Memory required for data: 1028392224
I0403 15:14:11.619879 18644 layer_factory.hpp:77] Creating layer inception_4c/1x1
I0403 15:14:11.619902 18644 net.cpp:91] Creating Layer inception_4c/1x1
I0403 15:14:11.619920 18644 net.cpp:425] inception_4c/1x1 <- inception_4b/output_inception_4b/output_0_split_0
I0403 15:14:11.619942 18644 net.cpp:399] inception_4c/1x1 -> inception_4c/1x1
I0403 15:14:11.621433 18644 net.cpp:141] Setting up inception_4c/1x1
I0403 15:14:11.621461 18644 net.cpp:148] Top shape: 24 128 14 14 (602112)
I0403 15:14:11.621477 18644 net.cpp:156] Memory required for data: 1030800672
I0403 15:14:11.621496 18644 layer_factory.hpp:77] Creating layer inception_4c/relu_1x1
I0403 15:14:11.621515 18644 net.cpp:91] Creating Layer inception_4c/relu_1x1
I0403 15:14:11.621531 18644 net.cpp:425] inception_4c/relu_1x1 <- inception_4c/1x1
I0403 15:14:11.621551 18644 net.cpp:386] inception_4c/relu_1x1 -> inception_4c/1x1 (in-place)
I0403 15:14:11.621740 18644 net.cpp:141] Setting up inception_4c/relu_1x1
I0403 15:14:11.621767 18644 net.cpp:148] Top shape: 24 128 14 14 (602112)
I0403 15:14:11.621783 18644 net.cpp:156] Memory required for data: 1033209120
I0403 15:14:11.621798 18644 layer_factory.hpp:77] Creating layer inception_4c/3x3_reduce
I0403 15:14:11.621820 18644 net.cpp:91] Creating Layer inception_4c/3x3_reduce
I0403 15:14:11.621839 18644 net.cpp:425] inception_4c/3x3_reduce <- inception_4b/output_inception_4b/output_0_split_1
I0403 15:14:11.621860 18644 net.cpp:399] inception_4c/3x3_reduce -> inception_4c/3x3_reduce
I0403 15:14:11.623857 18644 net.cpp:141] Setting up inception_4c/3x3_reduce
I0403 15:14:11.623888 18644 net.cpp:148] Top shape: 24 128 14 14 (602112)
I0403 15:14:11.623903 18644 net.cpp:156] Memory required for data: 1035617568
I0403 15:14:11.623922 18644 layer_factory.hpp:77] Creating layer inception_4c/relu_3x3_reduce
I0403 15:14:11.623944 18644 net.cpp:91] Creating Layer inception_4c/relu_3x3_reduce
I0403 15:14:11.623961 18644 net.cpp:425] inception_4c/relu_3x3_reduce <- inception_4c/3x3_reduce
I0403 15:14:11.623980 18644 net.cpp:386] inception_4c/relu_3x3_reduce -> inception_4c/3x3_reduce (in-place)
I0403 15:14:11.624281 18644 net.cpp:141] Setting up inception_4c/relu_3x3_reduce
I0403 15:14:11.624310 18644 net.cpp:148] Top shape: 24 128 14 14 (602112)
I0403 15:14:11.624325 18644 net.cpp:156] Memory required for data: 1038026016
I0403 15:14:11.624341 18644 layer_factory.hpp:77] Creating layer inception_4c/3x3
I0403 15:14:11.624364 18644 net.cpp:91] Creating Layer inception_4c/3x3
I0403 15:14:11.624383 18644 net.cpp:425] inception_4c/3x3 <- inception_4c/3x3_reduce
I0403 15:14:11.624407 18644 net.cpp:399] inception_4c/3x3 -> inception_4c/3x3
I0403 15:14:11.628142 18644 net.cpp:141] Setting up inception_4c/3x3
I0403 15:14:11.628185 18644 net.cpp:148] Top shape: 24 256 14 14 (1204224)
I0403 15:14:11.628201 18644 net.cpp:156] Memory required for data: 1042842912
I0403 15:14:11.628235 18644 layer_factory.hpp:77] Creating layer inception_4c/relu_3x3
I0403 15:14:11.628258 18644 net.cpp:91] Creating Layer inception_4c/relu_3x3
I0403 15:14:11.628275 18644 net.cpp:425] inception_4c/relu_3x3 <- inception_4c/3x3
I0403 15:14:11.628293 18644 net.cpp:386] inception_4c/relu_3x3 -> inception_4c/3x3 (in-place)
I0403 15:14:11.628481 18644 net.cpp:141] Setting up inception_4c/relu_3x3
I0403 15:14:11.628510 18644 net.cpp:148] Top shape: 24 256 14 14 (1204224)
I0403 15:14:11.628526 18644 net.cpp:156] Memory required for data: 1047659808
I0403 15:14:11.628541 18644 layer_factory.hpp:77] Creating layer inception_4c/5x5_reduce
I0403 15:14:11.628566 18644 net.cpp:91] Creating Layer inception_4c/5x5_reduce
I0403 15:14:11.628583 18644 net.cpp:425] inception_4c/5x5_reduce <- inception_4b/output_inception_4b/output_0_split_2
I0403 15:14:11.628603 18644 net.cpp:399] inception_4c/5x5_reduce -> inception_4c/5x5_reduce
I0403 15:14:11.629750 18644 net.cpp:141] Setting up inception_4c/5x5_reduce
I0403 15:14:11.629779 18644 net.cpp:148] Top shape: 24 24 14 14 (112896)
I0403 15:14:11.629799 18644 net.cpp:156] Memory required for data: 1048111392
I0403 15:14:11.629818 18644 layer_factory.hpp:77] Creating layer inception_4c/relu_5x5_reduce
I0403 15:14:11.629837 18644 net.cpp:91] Creating Layer inception_4c/relu_5x5_reduce
I0403 15:14:11.629853 18644 net.cpp:425] inception_4c/relu_5x5_reduce <- inception_4c/5x5_reduce
I0403 15:14:11.629871 18644 net.cpp:386] inception_4c/relu_5x5_reduce -> inception_4c/5x5_reduce (in-place)
I0403 15:14:11.630069 18644 net.cpp:141] Setting up inception_4c/relu_5x5_reduce
I0403 15:14:11.630097 18644 net.cpp:148] Top shape: 24 24 14 14 (112896)
I0403 15:14:11.630113 18644 net.cpp:156] Memory required for data: 1048562976
I0403 15:14:11.630130 18644 layer_factory.hpp:77] Creating layer inception_4c/5x5
I0403 15:14:11.630151 18644 net.cpp:91] Creating Layer inception_4c/5x5
I0403 15:14:11.630170 18644 net.cpp:425] inception_4c/5x5 <- inception_4c/5x5_reduce
I0403 15:14:11.630189 18644 net.cpp:399] inception_4c/5x5 -> inception_4c/5x5
I0403 15:14:11.631525 18644 net.cpp:141] Setting up inception_4c/5x5
I0403 15:14:11.631553 18644 net.cpp:148] Top shape: 24 64 14 14 (301056)
I0403 15:14:11.631569 18644 net.cpp:156] Memory required for data: 1049767200
I0403 15:14:11.631588 18644 layer_factory.hpp:77] Creating layer inception_4c/relu_5x5
I0403 15:14:11.631608 18644 net.cpp:91] Creating Layer inception_4c/relu_5x5
I0403 15:14:11.631625 18644 net.cpp:425] inception_4c/relu_5x5 <- inception_4c/5x5
I0403 15:14:11.631649 18644 net.cpp:386] inception_4c/relu_5x5 -> inception_4c/5x5 (in-place)
I0403 15:14:11.631959 18644 net.cpp:141] Setting up inception_4c/relu_5x5
I0403 15:14:11.631991 18644 net.cpp:148] Top shape: 24 64 14 14 (301056)
I0403 15:14:11.632009 18644 net.cpp:156] Memory required for data: 1050971424
I0403 15:14:11.632025 18644 layer_factory.hpp:77] Creating layer inception_4c/pool
I0403 15:14:11.632043 18644 net.cpp:91] Creating Layer inception_4c/pool
I0403 15:14:11.632061 18644 net.cpp:425] inception_4c/pool <- inception_4b/output_inception_4b/output_0_split_3
I0403 15:14:11.632082 18644 net.cpp:399] inception_4c/pool -> inception_4c/pool
I0403 15:14:11.632154 18644 net.cpp:141] Setting up inception_4c/pool
I0403 15:14:11.632179 18644 net.cpp:148] Top shape: 24 512 14 14 (2408448)
I0403 15:14:11.632195 18644 net.cpp:156] Memory required for data: 1060605216
I0403 15:14:11.632210 18644 layer_factory.hpp:77] Creating layer inception_4c/pool_proj
I0403 15:14:11.632235 18644 net.cpp:91] Creating Layer inception_4c/pool_proj
I0403 15:14:11.632253 18644 net.cpp:425] inception_4c/pool_proj <- inception_4c/pool
I0403 15:14:11.632273 18644 net.cpp:399] inception_4c/pool_proj -> inception_4c/pool_proj
I0403 15:14:11.633585 18644 net.cpp:141] Setting up inception_4c/pool_proj
I0403 15:14:11.633615 18644 net.cpp:148] Top shape: 24 64 14 14 (301056)
I0403 15:14:11.633646 18644 net.cpp:156] Memory required for data: 1061809440
I0403 15:14:11.633666 18644 layer_factory.hpp:77] Creating layer inception_4c/relu_pool_proj
I0403 15:14:11.633688 18644 net.cpp:91] Creating Layer inception_4c/relu_pool_proj
I0403 15:14:11.633707 18644 net.cpp:425] inception_4c/relu_pool_proj <- inception_4c/pool_proj
I0403 15:14:11.633725 18644 net.cpp:386] inception_4c/relu_pool_proj -> inception_4c/pool_proj (in-place)
I0403 15:14:11.633922 18644 net.cpp:141] Setting up inception_4c/relu_pool_proj
I0403 15:14:11.633949 18644 net.cpp:148] Top shape: 24 64 14 14 (301056)
I0403 15:14:11.633965 18644 net.cpp:156] Memory required for data: 1063013664
I0403 15:14:11.633980 18644 layer_factory.hpp:77] Creating layer inception_4c/output
I0403 15:14:11.634002 18644 net.cpp:91] Creating Layer inception_4c/output
I0403 15:14:11.634021 18644 net.cpp:425] inception_4c/output <- inception_4c/1x1
I0403 15:14:11.634037 18644 net.cpp:425] inception_4c/output <- inception_4c/3x3
I0403 15:14:11.634054 18644 net.cpp:425] inception_4c/output <- inception_4c/5x5
I0403 15:14:11.634071 18644 net.cpp:425] inception_4c/output <- inception_4c/pool_proj
I0403 15:14:11.634088 18644 net.cpp:399] inception_4c/output -> inception_4c/output
I0403 15:14:11.634140 18644 net.cpp:141] Setting up inception_4c/output
I0403 15:14:11.634165 18644 net.cpp:148] Top shape: 24 512 14 14 (2408448)
I0403 15:14:11.634179 18644 net.cpp:156] Memory required for data: 1072647456
I0403 15:14:11.634194 18644 layer_factory.hpp:77] Creating layer inception_4c/output_inception_4c/output_0_split
I0403 15:14:11.634214 18644 net.cpp:91] Creating Layer inception_4c/output_inception_4c/output_0_split
I0403 15:14:11.634232 18644 net.cpp:425] inception_4c/output_inception_4c/output_0_split <- inception_4c/output
I0403 15:14:11.634250 18644 net.cpp:399] inception_4c/output_inception_4c/output_0_split -> inception_4c/output_inception_4c/output_0_split_0
I0403 15:14:11.634271 18644 net.cpp:399] inception_4c/output_inception_4c/output_0_split -> inception_4c/output_inception_4c/output_0_split_1
I0403 15:14:11.634292 18644 net.cpp:399] inception_4c/output_inception_4c/output_0_split -> inception_4c/output_inception_4c/output_0_split_2
I0403 15:14:11.634315 18644 net.cpp:399] inception_4c/output_inception_4c/output_0_split -> inception_4c/output_inception_4c/output_0_split_3
I0403 15:14:11.634408 18644 net.cpp:141] Setting up inception_4c/output_inception_4c/output_0_split
I0403 15:14:11.634433 18644 net.cpp:148] Top shape: 24 512 14 14 (2408448)
I0403 15:14:11.634450 18644 net.cpp:148] Top shape: 24 512 14 14 (2408448)
I0403 15:14:11.634466 18644 net.cpp:148] Top shape: 24 512 14 14 (2408448)
I0403 15:14:11.634482 18644 net.cpp:148] Top shape: 24 512 14 14 (2408448)
I0403 15:14:11.634496 18644 net.cpp:156] Memory required for data: 1111182624
I0403 15:14:11.634511 18644 layer_factory.hpp:77] Creating layer inception_4d/1x1
I0403 15:14:11.634538 18644 net.cpp:91] Creating Layer inception_4d/1x1
I0403 15:14:11.634557 18644 net.cpp:425] inception_4d/1x1 <- inception_4c/output_inception_4c/output_0_split_0
I0403 15:14:11.634579 18644 net.cpp:399] inception_4d/1x1 -> inception_4d/1x1
I0403 15:14:11.636067 18644 net.cpp:141] Setting up inception_4d/1x1
I0403 15:14:11.636097 18644 net.cpp:148] Top shape: 24 112 14 14 (526848)
I0403 15:14:11.636113 18644 net.cpp:156] Memory required for data: 1113290016
I0403 15:14:11.636133 18644 layer_factory.hpp:77] Creating layer inception_4d/relu_1x1
I0403 15:14:11.636154 18644 net.cpp:91] Creating Layer inception_4d/relu_1x1
I0403 15:14:11.636173 18644 net.cpp:425] inception_4d/relu_1x1 <- inception_4d/1x1
I0403 15:14:11.636191 18644 net.cpp:386] inception_4d/relu_1x1 -> inception_4d/1x1 (in-place)
I0403 15:14:11.636390 18644 net.cpp:141] Setting up inception_4d/relu_1x1
I0403 15:14:11.636417 18644 net.cpp:148] Top shape: 24 112 14 14 (526848)
I0403 15:14:11.636433 18644 net.cpp:156] Memory required for data: 1115397408
I0403 15:14:11.636450 18644 layer_factory.hpp:77] Creating layer inception_4d/3x3_reduce
I0403 15:14:11.636487 18644 net.cpp:91] Creating Layer inception_4d/3x3_reduce
I0403 15:14:11.636507 18644 net.cpp:425] inception_4d/3x3_reduce <- inception_4c/output_inception_4c/output_0_split_1
I0403 15:14:11.636529 18644 net.cpp:399] inception_4d/3x3_reduce -> inception_4d/3x3_reduce
I0403 15:14:11.638146 18644 net.cpp:141] Setting up inception_4d/3x3_reduce
I0403 15:14:11.638177 18644 net.cpp:148] Top shape: 24 144 14 14 (677376)
I0403 15:14:11.638195 18644 net.cpp:156] Memory required for data: 1118106912
I0403 15:14:11.638216 18644 layer_factory.hpp:77] Creating layer inception_4d/relu_3x3_reduce
I0403 15:14:11.638234 18644 net.cpp:91] Creating Layer inception_4d/relu_3x3_reduce
I0403 15:14:11.638252 18644 net.cpp:425] inception_4d/relu_3x3_reduce <- inception_4d/3x3_reduce
I0403 15:14:11.638273 18644 net.cpp:386] inception_4d/relu_3x3_reduce -> inception_4d/3x3_reduce (in-place)
I0403 15:14:11.638578 18644 net.cpp:141] Setting up inception_4d/relu_3x3_reduce
I0403 15:14:11.638609 18644 net.cpp:148] Top shape: 24 144 14 14 (677376)
I0403 15:14:11.638627 18644 net.cpp:156] Memory required for data: 1120816416
I0403 15:14:11.638643 18644 layer_factory.hpp:77] Creating layer inception_4d/3x3
I0403 15:14:11.638665 18644 net.cpp:91] Creating Layer inception_4d/3x3
I0403 15:14:11.638684 18644 net.cpp:425] inception_4d/3x3 <- inception_4d/3x3_reduce
I0403 15:14:11.638706 18644 net.cpp:399] inception_4d/3x3 -> inception_4d/3x3
I0403 15:14:11.643246 18644 net.cpp:141] Setting up inception_4d/3x3
I0403 15:14:11.643276 18644 net.cpp:148] Top shape: 24 288 14 14 (1354752)
I0403 15:14:11.643293 18644 net.cpp:156] Memory required for data: 1126235424
I0403 15:14:11.643313 18644 layer_factory.hpp:77] Creating layer inception_4d/relu_3x3
I0403 15:14:11.643334 18644 net.cpp:91] Creating Layer inception_4d/relu_3x3
I0403 15:14:11.643352 18644 net.cpp:425] inception_4d/relu_3x3 <- inception_4d/3x3
I0403 15:14:11.643369 18644 net.cpp:386] inception_4d/relu_3x3 -> inception_4d/3x3 (in-place)
I0403 15:14:11.643571 18644 net.cpp:141] Setting up inception_4d/relu_3x3
I0403 15:14:11.643599 18644 net.cpp:148] Top shape: 24 288 14 14 (1354752)
I0403 15:14:11.643615 18644 net.cpp:156] Memory required for data: 1131654432
I0403 15:14:11.643630 18644 layer_factory.hpp:77] Creating layer inception_4d/5x5_reduce
I0403 15:14:11.643656 18644 net.cpp:91] Creating Layer inception_4d/5x5_reduce
I0403 15:14:11.643674 18644 net.cpp:425] inception_4d/5x5_reduce <- inception_4c/output_inception_4c/output_0_split_2
I0403 15:14:11.643694 18644 net.cpp:399] inception_4d/5x5_reduce -> inception_4d/5x5_reduce
I0403 15:14:11.644933 18644 net.cpp:141] Setting up inception_4d/5x5_reduce
I0403 15:14:11.644963 18644 net.cpp:148] Top shape: 24 32 14 14 (150528)
I0403 15:14:11.644980 18644 net.cpp:156] Memory required for data: 1132256544
I0403 15:14:11.645004 18644 layer_factory.hpp:77] Creating layer inception_4d/relu_5x5_reduce
I0403 15:14:11.645027 18644 net.cpp:91] Creating Layer inception_4d/relu_5x5_reduce
I0403 15:14:11.645045 18644 net.cpp:425] inception_4d/relu_5x5_reduce <- inception_4d/5x5_reduce
I0403 15:14:11.645063 18644 net.cpp:386] inception_4d/relu_5x5_reduce -> inception_4d/5x5_reduce (in-place)
I0403 15:14:11.645267 18644 net.cpp:141] Setting up inception_4d/relu_5x5_reduce
I0403 15:14:11.645297 18644 net.cpp:148] Top shape: 24 32 14 14 (150528)
I0403 15:14:11.645313 18644 net.cpp:156] Memory required for data: 1132858656
I0403 15:14:11.645329 18644 layer_factory.hpp:77] Creating layer inception_4d/5x5
I0403 15:14:11.645350 18644 net.cpp:91] Creating Layer inception_4d/5x5
I0403 15:14:11.645367 18644 net.cpp:425] inception_4d/5x5 <- inception_4d/5x5_reduce
I0403 15:14:11.645390 18644 net.cpp:399] inception_4d/5x5 -> inception_4d/5x5
I0403 15:14:11.646962 18644 net.cpp:141] Setting up inception_4d/5x5
I0403 15:14:11.646998 18644 net.cpp:148] Top shape: 24 64 14 14 (301056)
I0403 15:14:11.647017 18644 net.cpp:156] Memory required for data: 1134062880
I0403 15:14:11.647037 18644 layer_factory.hpp:77] Creating layer inception_4d/relu_5x5
I0403 15:14:11.647071 18644 net.cpp:91] Creating Layer inception_4d/relu_5x5
I0403 15:14:11.647089 18644 net.cpp:425] inception_4d/relu_5x5 <- inception_4d/5x5
I0403 15:14:11.647109 18644 net.cpp:386] inception_4d/relu_5x5 -> inception_4d/5x5 (in-place)
I0403 15:14:11.647428 18644 net.cpp:141] Setting up inception_4d/relu_5x5
I0403 15:14:11.647462 18644 net.cpp:148] Top shape: 24 64 14 14 (301056)
I0403 15:14:11.647480 18644 net.cpp:156] Memory required for data: 1135267104
I0403 15:14:11.647495 18644 layer_factory.hpp:77] Creating layer inception_4d/pool
I0403 15:14:11.647513 18644 net.cpp:91] Creating Layer inception_4d/pool
I0403 15:14:11.647531 18644 net.cpp:425] inception_4d/pool <- inception_4c/output_inception_4c/output_0_split_3
I0403 15:14:11.647549 18644 net.cpp:399] inception_4d/pool -> inception_4d/pool
I0403 15:14:11.647622 18644 net.cpp:141] Setting up inception_4d/pool
I0403 15:14:11.647647 18644 net.cpp:148] Top shape: 24 512 14 14 (2408448)
I0403 15:14:11.647663 18644 net.cpp:156] Memory required for data: 1144900896
I0403 15:14:11.647678 18644 layer_factory.hpp:77] Creating layer inception_4d/pool_proj
I0403 15:14:11.647701 18644 net.cpp:91] Creating Layer inception_4d/pool_proj
I0403 15:14:11.647719 18644 net.cpp:425] inception_4d/pool_proj <- inception_4d/pool
I0403 15:14:11.647742 18644 net.cpp:399] inception_4d/pool_proj -> inception_4d/pool_proj
I0403 15:14:11.649627 18644 net.cpp:141] Setting up inception_4d/pool_proj
I0403 15:14:11.649658 18644 net.cpp:148] Top shape: 24 64 14 14 (301056)
I0403 15:14:11.649675 18644 net.cpp:156] Memory required for data: 1146105120
I0403 15:14:11.649694 18644 layer_factory.hpp:77] Creating layer inception_4d/relu_pool_proj
I0403 15:14:11.649724 18644 net.cpp:91] Creating Layer inception_4d/relu_pool_proj
I0403 15:14:11.649741 18644 net.cpp:425] inception_4d/relu_pool_proj <- inception_4d/pool_proj
I0403 15:14:11.649760 18644 net.cpp:386] inception_4d/relu_pool_proj -> inception_4d/pool_proj (in-place)
I0403 15:14:11.649962 18644 net.cpp:141] Setting up inception_4d/relu_pool_proj
I0403 15:14:11.649993 18644 net.cpp:148] Top shape: 24 64 14 14 (301056)
I0403 15:14:11.650012 18644 net.cpp:156] Memory required for data: 1147309344
I0403 15:14:11.650027 18644 layer_factory.hpp:77] Creating layer inception_4d/output
I0403 15:14:11.650048 18644 net.cpp:91] Creating Layer inception_4d/output
I0403 15:14:11.650064 18644 net.cpp:425] inception_4d/output <- inception_4d/1x1
I0403 15:14:11.650082 18644 net.cpp:425] inception_4d/output <- inception_4d/3x3
I0403 15:14:11.650099 18644 net.cpp:425] inception_4d/output <- inception_4d/5x5
I0403 15:14:11.650116 18644 net.cpp:425] inception_4d/output <- inception_4d/pool_proj
I0403 15:14:11.650135 18644 net.cpp:399] inception_4d/output -> inception_4d/output
I0403 15:14:11.650187 18644 net.cpp:141] Setting up inception_4d/output
I0403 15:14:11.650213 18644 net.cpp:148] Top shape: 24 528 14 14 (2483712)
I0403 15:14:11.650228 18644 net.cpp:156] Memory required for data: 1157244192
I0403 15:14:11.650262 18644 layer_factory.hpp:77] Creating layer inception_4d/output_inception_4d/output_0_split
I0403 15:14:11.650280 18644 net.cpp:91] Creating Layer inception_4d/output_inception_4d/output_0_split
I0403 15:14:11.650296 18644 net.cpp:425] inception_4d/output_inception_4d/output_0_split <- inception_4d/output
I0403 15:14:11.650316 18644 net.cpp:399] inception_4d/output_inception_4d/output_0_split -> inception_4d/output_inception_4d/output_0_split_0
I0403 15:14:11.650339 18644 net.cpp:399] inception_4d/output_inception_4d/output_0_split -> inception_4d/output_inception_4d/output_0_split_1
I0403 15:14:11.650360 18644 net.cpp:399] inception_4d/output_inception_4d/output_0_split -> inception_4d/output_inception_4d/output_0_split_2
I0403 15:14:11.650385 18644 net.cpp:399] inception_4d/output_inception_4d/output_0_split -> inception_4d/output_inception_4d/output_0_split_3
I0403 15:14:11.650408 18644 net.cpp:399] inception_4d/output_inception_4d/output_0_split -> inception_4d/output_inception_4d/output_0_split_4
I0403 15:14:11.650512 18644 net.cpp:141] Setting up inception_4d/output_inception_4d/output_0_split
I0403 15:14:11.650552 18644 net.cpp:148] Top shape: 24 528 14 14 (2483712)
I0403 15:14:11.650570 18644 net.cpp:148] Top shape: 24 528 14 14 (2483712)
I0403 15:14:11.650586 18644 net.cpp:148] Top shape: 24 528 14 14 (2483712)
I0403 15:14:11.650601 18644 net.cpp:148] Top shape: 24 528 14 14 (2483712)
I0403 15:14:11.650617 18644 net.cpp:148] Top shape: 24 528 14 14 (2483712)
I0403 15:14:11.650631 18644 net.cpp:156] Memory required for data: 1206918432
I0403 15:14:11.650646 18644 layer_factory.hpp:77] Creating layer loss2/ave_pool
I0403 15:14:11.650663 18644 net.cpp:91] Creating Layer loss2/ave_pool
I0403 15:14:11.650679 18644 net.cpp:425] loss2/ave_pool <- inception_4d/output_inception_4d/output_0_split_0
I0403 15:14:11.650701 18644 net.cpp:399] loss2/ave_pool -> loss2/ave_pool
I0403 15:14:11.651036 18644 net.cpp:141] Setting up loss2/ave_pool
I0403 15:14:11.651062 18644 net.cpp:148] Top shape: 24 528 4 4 (202752)
I0403 15:14:11.651078 18644 net.cpp:156] Memory required for data: 1207729440
I0403 15:14:11.651093 18644 layer_factory.hpp:77] Creating layer loss2/conv
I0403 15:14:11.651116 18644 net.cpp:91] Creating Layer loss2/conv
I0403 15:14:11.651135 18644 net.cpp:425] loss2/conv <- loss2/ave_pool
I0403 15:14:11.651156 18644 net.cpp:399] loss2/conv -> loss2/conv
I0403 15:14:11.653117 18644 net.cpp:141] Setting up loss2/conv
I0403 15:14:11.653149 18644 net.cpp:148] Top shape: 24 128 4 4 (49152)
I0403 15:14:11.653167 18644 net.cpp:156] Memory required for data: 1207926048
I0403 15:14:11.653185 18644 layer_factory.hpp:77] Creating layer loss2/relu_conv
I0403 15:14:11.653204 18644 net.cpp:91] Creating Layer loss2/relu_conv
I0403 15:14:11.653221 18644 net.cpp:425] loss2/relu_conv <- loss2/conv
I0403 15:14:11.653241 18644 net.cpp:386] loss2/relu_conv -> loss2/conv (in-place)
I0403 15:14:11.653538 18644 net.cpp:141] Setting up loss2/relu_conv
I0403 15:14:11.653568 18644 net.cpp:148] Top shape: 24 128 4 4 (49152)
I0403 15:14:11.653585 18644 net.cpp:156] Memory required for data: 1208122656
I0403 15:14:11.653600 18644 layer_factory.hpp:77] Creating layer loss2/fc
I0403 15:14:11.653619 18644 net.cpp:91] Creating Layer loss2/fc
I0403 15:14:11.653636 18644 net.cpp:425] loss2/fc <- loss2/conv
I0403 15:14:11.653661 18644 net.cpp:399] loss2/fc -> loss2/fc
I0403 15:14:11.671952 18644 net.cpp:141] Setting up loss2/fc
I0403 15:14:11.671990 18644 net.cpp:148] Top shape: 24 1024 (24576)
I0403 15:14:11.672008 18644 net.cpp:156] Memory required for data: 1208220960
I0403 15:14:11.672029 18644 layer_factory.hpp:77] Creating layer loss2/relu_fc
I0403 15:14:11.672050 18644 net.cpp:91] Creating Layer loss2/relu_fc
I0403 15:14:11.672068 18644 net.cpp:425] loss2/relu_fc <- loss2/fc
I0403 15:14:11.672087 18644 net.cpp:386] loss2/relu_fc -> loss2/fc (in-place)
I0403 15:14:11.672420 18644 net.cpp:141] Setting up loss2/relu_fc
I0403 15:14:11.672447 18644 net.cpp:148] Top shape: 24 1024 (24576)
I0403 15:14:11.672462 18644 net.cpp:156] Memory required for data: 1208319264
I0403 15:14:11.672477 18644 layer_factory.hpp:77] Creating layer loss2/drop_fc
I0403 15:14:11.672497 18644 net.cpp:91] Creating Layer loss2/drop_fc
I0403 15:14:11.672515 18644 net.cpp:425] loss2/drop_fc <- loss2/fc
I0403 15:14:11.672533 18644 net.cpp:386] loss2/drop_fc -> loss2/fc (in-place)
I0403 15:14:11.672585 18644 net.cpp:141] Setting up loss2/drop_fc
I0403 15:14:11.672608 18644 net.cpp:148] Top shape: 24 1024 (24576)
I0403 15:14:11.672623 18644 net.cpp:156] Memory required for data: 1208417568
I0403 15:14:11.672638 18644 layer_factory.hpp:77] Creating layer loss2/classifier_plantvillage
I0403 15:14:11.672657 18644 net.cpp:91] Creating Layer loss2/classifier_plantvillage
I0403 15:14:11.672673 18644 net.cpp:425] loss2/classifier_plantvillage <- loss2/fc
I0403 15:14:11.672695 18644 net.cpp:399] loss2/classifier_plantvillage -> loss2/classifier_plantvillage
I0403 15:14:11.673120 18644 net.cpp:141] Setting up loss2/classifier_plantvillage
I0403 15:14:11.673146 18644 net.cpp:148] Top shape: 24 38 (912)
I0403 15:14:11.673177 18644 net.cpp:156] Memory required for data: 1208421216
I0403 15:14:11.673197 18644 layer_factory.hpp:77] Creating layer loss2/classifier_plantvillage_loss2/classifier_plantvillage_0_split
I0403 15:14:11.673215 18644 net.cpp:91] Creating Layer loss2/classifier_plantvillage_loss2/classifier_plantvillage_0_split
I0403 15:14:11.673231 18644 net.cpp:425] loss2/classifier_plantvillage_loss2/classifier_plantvillage_0_split <- loss2/classifier_plantvillage
I0403 15:14:11.673252 18644 net.cpp:399] loss2/classifier_plantvillage_loss2/classifier_plantvillage_0_split -> loss2/classifier_plantvillage_loss2/classifier_plantvillage_0_split_0
I0403 15:14:11.673274 18644 net.cpp:399] loss2/classifier_plantvillage_loss2/classifier_plantvillage_0_split -> loss2/classifier_plantvillage_loss2/classifier_plantvillage_0_split_1
I0403 15:14:11.673293 18644 net.cpp:399] loss2/classifier_plantvillage_loss2/classifier_plantvillage_0_split -> loss2/classifier_plantvillage_loss2/classifier_plantvillage_0_split_2
I0403 15:14:11.673372 18644 net.cpp:141] Setting up loss2/classifier_plantvillage_loss2/classifier_plantvillage_0_split
I0403 15:14:11.673396 18644 net.cpp:148] Top shape: 24 38 (912)
I0403 15:14:11.673413 18644 net.cpp:148] Top shape: 24 38 (912)
I0403 15:14:11.673429 18644 net.cpp:148] Top shape: 24 38 (912)
I0403 15:14:11.673442 18644 net.cpp:156] Memory required for data: 1208432160
I0403 15:14:11.673456 18644 layer_factory.hpp:77] Creating layer inception_4e/1x1
I0403 15:14:11.673480 18644 net.cpp:91] Creating Layer inception_4e/1x1
I0403 15:14:11.673498 18644 net.cpp:425] inception_4e/1x1 <- inception_4d/output_inception_4d/output_0_split_1
I0403 15:14:11.673517 18644 net.cpp:399] inception_4e/1x1 -> inception_4e/1x1
I0403 15:14:11.675406 18644 net.cpp:141] Setting up inception_4e/1x1
I0403 15:14:11.675437 18644 net.cpp:148] Top shape: 24 256 14 14 (1204224)
I0403 15:14:11.675454 18644 net.cpp:156] Memory required for data: 1213249056
I0403 15:14:11.675473 18644 layer_factory.hpp:77] Creating layer inception_4e/relu_1x1
I0403 15:14:11.675492 18644 net.cpp:91] Creating Layer inception_4e/relu_1x1
I0403 15:14:11.675508 18644 net.cpp:425] inception_4e/relu_1x1 <- inception_4e/1x1
I0403 15:14:11.675529 18644 net.cpp:386] inception_4e/relu_1x1 -> inception_4e/1x1 (in-place)
I0403 15:14:11.675837 18644 net.cpp:141] Setting up inception_4e/relu_1x1
I0403 15:14:11.675866 18644 net.cpp:148] Top shape: 24 256 14 14 (1204224)
I0403 15:14:11.675884 18644 net.cpp:156] Memory required for data: 1218065952
I0403 15:14:11.675899 18644 layer_factory.hpp:77] Creating layer inception_4e/3x3_reduce
I0403 15:14:11.675921 18644 net.cpp:91] Creating Layer inception_4e/3x3_reduce
I0403 15:14:11.675940 18644 net.cpp:425] inception_4e/3x3_reduce <- inception_4d/output_inception_4d/output_0_split_2
I0403 15:14:11.675961 18644 net.cpp:399] inception_4e/3x3_reduce -> inception_4e/3x3_reduce
I0403 15:14:11.678158 18644 net.cpp:141] Setting up inception_4e/3x3_reduce
I0403 15:14:11.678187 18644 net.cpp:148] Top shape: 24 160 14 14 (752640)
I0403 15:14:11.678205 18644 net.cpp:156] Memory required for data: 1221076512
I0403 15:14:11.678222 18644 layer_factory.hpp:77] Creating layer inception_4e/relu_3x3_reduce
I0403 15:14:11.678244 18644 net.cpp:91] Creating Layer inception_4e/relu_3x3_reduce
I0403 15:14:11.678261 18644 net.cpp:425] inception_4e/relu_3x3_reduce <- inception_4e/3x3_reduce
I0403 15:14:11.678279 18644 net.cpp:386] inception_4e/relu_3x3_reduce -> inception_4e/3x3_reduce (in-place)
I0403 15:14:11.678479 18644 net.cpp:141] Setting up inception_4e/relu_3x3_reduce
I0403 15:14:11.678505 18644 net.cpp:148] Top shape: 24 160 14 14 (752640)
I0403 15:14:11.678520 18644 net.cpp:156] Memory required for data: 1224087072
I0403 15:14:11.678535 18644 layer_factory.hpp:77] Creating layer inception_4e/3x3
I0403 15:14:11.678557 18644 net.cpp:91] Creating Layer inception_4e/3x3
I0403 15:14:11.678575 18644 net.cpp:425] inception_4e/3x3 <- inception_4e/3x3_reduce
I0403 15:14:11.678598 18644 net.cpp:399] inception_4e/3x3 -> inception_4e/3x3
I0403 15:14:11.683795 18644 net.cpp:141] Setting up inception_4e/3x3
I0403 15:14:11.683838 18644 net.cpp:148] Top shape: 24 320 14 14 (1505280)
I0403 15:14:11.683857 18644 net.cpp:156] Memory required for data: 1230108192
I0403 15:14:11.683877 18644 layer_factory.hpp:77] Creating layer inception_4e/relu_3x3
I0403 15:14:11.683897 18644 net.cpp:91] Creating Layer inception_4e/relu_3x3
I0403 15:14:11.683913 18644 net.cpp:425] inception_4e/relu_3x3 <- inception_4e/3x3
I0403 15:14:11.683934 18644 net.cpp:386] inception_4e/relu_3x3 -> inception_4e/3x3 (in-place)
I0403 15:14:11.684262 18644 net.cpp:141] Setting up inception_4e/relu_3x3
I0403 15:14:11.684291 18644 net.cpp:148] Top shape: 24 320 14 14 (1505280)
I0403 15:14:11.684308 18644 net.cpp:156] Memory required for data: 1236129312
I0403 15:14:11.684324 18644 layer_factory.hpp:77] Creating layer inception_4e/5x5_reduce
I0403 15:14:11.684348 18644 net.cpp:91] Creating Layer inception_4e/5x5_reduce
I0403 15:14:11.684366 18644 net.cpp:425] inception_4e/5x5_reduce <- inception_4d/output_inception_4d/output_0_split_3
I0403 15:14:11.684389 18644 net.cpp:399] inception_4e/5x5_reduce -> inception_4e/5x5_reduce
I0403 15:14:11.685547 18644 net.cpp:141] Setting up inception_4e/5x5_reduce
I0403 15:14:11.685582 18644 net.cpp:148] Top shape: 24 32 14 14 (150528)
I0403 15:14:11.685600 18644 net.cpp:156] Memory required for data: 1236731424
I0403 15:14:11.685619 18644 layer_factory.hpp:77] Creating layer inception_4e/relu_5x5_reduce
I0403 15:14:11.685639 18644 net.cpp:91] Creating Layer inception_4e/relu_5x5_reduce
I0403 15:14:11.685657 18644 net.cpp:425] inception_4e/relu_5x5_reduce <- inception_4e/5x5_reduce
I0403 15:14:11.685674 18644 net.cpp:386] inception_4e/relu_5x5_reduce -> inception_4e/5x5_reduce (in-place)
I0403 15:14:11.686002 18644 net.cpp:141] Setting up inception_4e/relu_5x5_reduce
I0403 15:14:11.686033 18644 net.cpp:148] Top shape: 24 32 14 14 (150528)
I0403 15:14:11.686050 18644 net.cpp:156] Memory required for data: 1237333536
I0403 15:14:11.686065 18644 layer_factory.hpp:77] Creating layer inception_4e/5x5
I0403 15:14:11.686106 18644 net.cpp:91] Creating Layer inception_4e/5x5
I0403 15:14:11.686126 18644 net.cpp:425] inception_4e/5x5 <- inception_4e/5x5_reduce
I0403 15:14:11.686148 18644 net.cpp:399] inception_4e/5x5 -> inception_4e/5x5
I0403 15:14:11.688146 18644 net.cpp:141] Setting up inception_4e/5x5
I0403 15:14:11.688176 18644 net.cpp:148] Top shape: 24 128 14 14 (602112)
I0403 15:14:11.688192 18644 net.cpp:156] Memory required for data: 1239741984
I0403 15:14:11.688213 18644 layer_factory.hpp:77] Creating layer inception_4e/relu_5x5
I0403 15:14:11.688235 18644 net.cpp:91] Creating Layer inception_4e/relu_5x5
I0403 15:14:11.688253 18644 net.cpp:425] inception_4e/relu_5x5 <- inception_4e/5x5
I0403 15:14:11.688271 18644 net.cpp:386] inception_4e/relu_5x5 -> inception_4e/5x5 (in-place)
I0403 15:14:11.688484 18644 net.cpp:141] Setting up inception_4e/relu_5x5
I0403 15:14:11.688513 18644 net.cpp:148] Top shape: 24 128 14 14 (602112)
I0403 15:14:11.688530 18644 net.cpp:156] Memory required for data: 1242150432
I0403 15:14:11.688545 18644 layer_factory.hpp:77] Creating layer inception_4e/pool
I0403 15:14:11.688565 18644 net.cpp:91] Creating Layer inception_4e/pool
I0403 15:14:11.688581 18644 net.cpp:425] inception_4e/pool <- inception_4d/output_inception_4d/output_0_split_4
I0403 15:14:11.688602 18644 net.cpp:399] inception_4e/pool -> inception_4e/pool
I0403 15:14:11.688676 18644 net.cpp:141] Setting up inception_4e/pool
I0403 15:14:11.688702 18644 net.cpp:148] Top shape: 24 528 14 14 (2483712)
I0403 15:14:11.688719 18644 net.cpp:156] Memory required for data: 1252085280
I0403 15:14:11.688733 18644 layer_factory.hpp:77] Creating layer inception_4e/pool_proj
I0403 15:14:11.688757 18644 net.cpp:91] Creating Layer inception_4e/pool_proj
I0403 15:14:11.688774 18644 net.cpp:425] inception_4e/pool_proj <- inception_4e/pool
I0403 15:14:11.688797 18644 net.cpp:399] inception_4e/pool_proj -> inception_4e/pool_proj
I0403 15:14:11.690428 18644 net.cpp:141] Setting up inception_4e/pool_proj
I0403 15:14:11.690474 18644 net.cpp:148] Top shape: 24 128 14 14 (602112)
I0403 15:14:11.690490 18644 net.cpp:156] Memory required for data: 1254493728
I0403 15:14:11.690510 18644 layer_factory.hpp:77] Creating layer inception_4e/relu_pool_proj
I0403 15:14:11.690532 18644 net.cpp:91] Creating Layer inception_4e/relu_pool_proj
I0403 15:14:11.690551 18644 net.cpp:425] inception_4e/relu_pool_proj <- inception_4e/pool_proj
I0403 15:14:11.690568 18644 net.cpp:386] inception_4e/relu_pool_proj -> inception_4e/pool_proj (in-place)
I0403 15:14:11.690886 18644 net.cpp:141] Setting up inception_4e/relu_pool_proj
I0403 15:14:11.690914 18644 net.cpp:148] Top shape: 24 128 14 14 (602112)
I0403 15:14:11.690930 18644 net.cpp:156] Memory required for data: 1256902176
I0403 15:14:11.690946 18644 layer_factory.hpp:77] Creating layer inception_4e/output
I0403 15:14:11.690968 18644 net.cpp:91] Creating Layer inception_4e/output
I0403 15:14:11.690989 18644 net.cpp:425] inception_4e/output <- inception_4e/1x1
I0403 15:14:11.691009 18644 net.cpp:425] inception_4e/output <- inception_4e/3x3
I0403 15:14:11.691027 18644 net.cpp:425] inception_4e/output <- inception_4e/5x5
I0403 15:14:11.691045 18644 net.cpp:425] inception_4e/output <- inception_4e/pool_proj
I0403 15:14:11.691062 18644 net.cpp:399] inception_4e/output -> inception_4e/output
I0403 15:14:11.691118 18644 net.cpp:141] Setting up inception_4e/output
I0403 15:14:11.691143 18644 net.cpp:148] Top shape: 24 832 14 14 (3913728)
I0403 15:14:11.691159 18644 net.cpp:156] Memory required for data: 1272557088
I0403 15:14:11.691174 18644 layer_factory.hpp:77] Creating layer pool4/3x3_s2
I0403 15:14:11.691192 18644 net.cpp:91] Creating Layer pool4/3x3_s2
I0403 15:14:11.691210 18644 net.cpp:425] pool4/3x3_s2 <- inception_4e/output
I0403 15:14:11.691231 18644 net.cpp:399] pool4/3x3_s2 -> pool4/3x3_s2
I0403 15:14:11.691303 18644 net.cpp:141] Setting up pool4/3x3_s2
I0403 15:14:11.691331 18644 net.cpp:148] Top shape: 24 832 7 7 (978432)
I0403 15:14:11.691349 18644 net.cpp:156] Memory required for data: 1276470816
I0403 15:14:11.691365 18644 layer_factory.hpp:77] Creating layer pool4/3x3_s2_pool4/3x3_s2_0_split
I0403 15:14:11.691381 18644 net.cpp:91] Creating Layer pool4/3x3_s2_pool4/3x3_s2_0_split
I0403 15:14:11.691398 18644 net.cpp:425] pool4/3x3_s2_pool4/3x3_s2_0_split <- pool4/3x3_s2
I0403 15:14:11.691416 18644 net.cpp:399] pool4/3x3_s2_pool4/3x3_s2_0_split -> pool4/3x3_s2_pool4/3x3_s2_0_split_0
I0403 15:14:11.691437 18644 net.cpp:399] pool4/3x3_s2_pool4/3x3_s2_0_split -> pool4/3x3_s2_pool4/3x3_s2_0_split_1
I0403 15:14:11.691462 18644 net.cpp:399] pool4/3x3_s2_pool4/3x3_s2_0_split -> pool4/3x3_s2_pool4/3x3_s2_0_split_2
I0403 15:14:11.691483 18644 net.cpp:399] pool4/3x3_s2_pool4/3x3_s2_0_split -> pool4/3x3_s2_pool4/3x3_s2_0_split_3
I0403 15:14:11.691581 18644 net.cpp:141] Setting up pool4/3x3_s2_pool4/3x3_s2_0_split
I0403 15:14:11.691606 18644 net.cpp:148] Top shape: 24 832 7 7 (978432)
I0403 15:14:11.691622 18644 net.cpp:148] Top shape: 24 832 7 7 (978432)
I0403 15:14:11.691639 18644 net.cpp:148] Top shape: 24 832 7 7 (978432)
I0403 15:14:11.691655 18644 net.cpp:148] Top shape: 24 832 7 7 (978432)
I0403 15:14:11.691670 18644 net.cpp:156] Memory required for data: 1292125728
I0403 15:14:11.691685 18644 layer_factory.hpp:77] Creating layer inception_5a/1x1
I0403 15:14:11.691709 18644 net.cpp:91] Creating Layer inception_5a/1x1
I0403 15:14:11.691728 18644 net.cpp:425] inception_5a/1x1 <- pool4/3x3_s2_pool4/3x3_s2_0_split_0
I0403 15:14:11.691751 18644 net.cpp:399] inception_5a/1x1 -> inception_5a/1x1
I0403 15:14:11.694800 18644 net.cpp:141] Setting up inception_5a/1x1
I0403 15:14:11.694830 18644 net.cpp:148] Top shape: 24 256 7 7 (301056)
I0403 15:14:11.694847 18644 net.cpp:156] Memory required for data: 1293329952
I0403 15:14:11.694866 18644 layer_factory.hpp:77] Creating layer inception_5a/relu_1x1
I0403 15:14:11.694888 18644 net.cpp:91] Creating Layer inception_5a/relu_1x1
I0403 15:14:11.694905 18644 net.cpp:425] inception_5a/relu_1x1 <- inception_5a/1x1
I0403 15:14:11.694924 18644 net.cpp:386] inception_5a/relu_1x1 -> inception_5a/1x1 (in-place)
I0403 15:14:11.695269 18644 net.cpp:141] Setting up inception_5a/relu_1x1
I0403 15:14:11.695297 18644 net.cpp:148] Top shape: 24 256 7 7 (301056)
I0403 15:14:11.695313 18644 net.cpp:156] Memory required for data: 1294534176
I0403 15:14:11.695329 18644 layer_factory.hpp:77] Creating layer inception_5a/3x3_reduce
I0403 15:14:11.695354 18644 net.cpp:91] Creating Layer inception_5a/3x3_reduce
I0403 15:14:11.695374 18644 net.cpp:425] inception_5a/3x3_reduce <- pool4/3x3_s2_pool4/3x3_s2_0_split_1
I0403 15:14:11.695395 18644 net.cpp:399] inception_5a/3x3_reduce -> inception_5a/3x3_reduce
I0403 15:14:11.698020 18644 net.cpp:141] Setting up inception_5a/3x3_reduce
I0403 15:14:11.698050 18644 net.cpp:148] Top shape: 24 160 7 7 (188160)
I0403 15:14:11.698068 18644 net.cpp:156] Memory required for data: 1295286816
I0403 15:14:11.698087 18644 layer_factory.hpp:77] Creating layer inception_5a/relu_3x3_reduce
I0403 15:14:11.698109 18644 net.cpp:91] Creating Layer inception_5a/relu_3x3_reduce
I0403 15:14:11.698127 18644 net.cpp:425] inception_5a/relu_3x3_reduce <- inception_5a/3x3_reduce
I0403 15:14:11.698145 18644 net.cpp:386] inception_5a/relu_3x3_reduce -> inception_5a/3x3_reduce (in-place)
I0403 15:14:11.698349 18644 net.cpp:141] Setting up inception_5a/relu_3x3_reduce
I0403 15:14:11.698376 18644 net.cpp:148] Top shape: 24 160 7 7 (188160)
I0403 15:14:11.698392 18644 net.cpp:156] Memory required for data: 1296039456
I0403 15:14:11.698408 18644 layer_factory.hpp:77] Creating layer inception_5a/3x3
I0403 15:14:11.698431 18644 net.cpp:91] Creating Layer inception_5a/3x3
I0403 15:14:11.698457 18644 net.cpp:425] inception_5a/3x3 <- inception_5a/3x3_reduce
I0403 15:14:11.698477 18644 net.cpp:399] inception_5a/3x3 -> inception_5a/3x3
I0403 15:14:11.703850 18644 net.cpp:141] Setting up inception_5a/3x3
I0403 15:14:11.703881 18644 net.cpp:148] Top shape: 24 320 7 7 (376320)
I0403 15:14:11.703898 18644 net.cpp:156] Memory required for data: 1297544736
I0403 15:14:11.703918 18644 layer_factory.hpp:77] Creating layer inception_5a/relu_3x3
I0403 15:14:11.703941 18644 net.cpp:91] Creating Layer inception_5a/relu_3x3
I0403 15:14:11.703958 18644 net.cpp:425] inception_5a/relu_3x3 <- inception_5a/3x3
I0403 15:14:11.703976 18644 net.cpp:386] inception_5a/relu_3x3 -> inception_5a/3x3 (in-place)
I0403 15:14:11.704306 18644 net.cpp:141] Setting up inception_5a/relu_3x3
I0403 15:14:11.704335 18644 net.cpp:148] Top shape: 24 320 7 7 (376320)
I0403 15:14:11.704351 18644 net.cpp:156] Memory required for data: 1299050016
I0403 15:14:11.704367 18644 layer_factory.hpp:77] Creating layer inception_5a/5x5_reduce
I0403 15:14:11.704391 18644 net.cpp:91] Creating Layer inception_5a/5x5_reduce
I0403 15:14:11.704411 18644 net.cpp:425] inception_5a/5x5_reduce <- pool4/3x3_s2_pool4/3x3_s2_0_split_2
I0403 15:14:11.704433 18644 net.cpp:399] inception_5a/5x5_reduce -> inception_5a/5x5_reduce
I0403 15:14:11.705708 18644 net.cpp:141] Setting up inception_5a/5x5_reduce
I0403 15:14:11.705741 18644 net.cpp:148] Top shape: 24 32 7 7 (37632)
I0403 15:14:11.705760 18644 net.cpp:156] Memory required for data: 1299200544
I0403 15:14:11.705780 18644 layer_factory.hpp:77] Creating layer inception_5a/relu_5x5_reduce
I0403 15:14:11.705798 18644 net.cpp:91] Creating Layer inception_5a/relu_5x5_reduce
I0403 15:14:11.705814 18644 net.cpp:425] inception_5a/relu_5x5_reduce <- inception_5a/5x5_reduce
I0403 15:14:11.705835 18644 net.cpp:386] inception_5a/relu_5x5_reduce -> inception_5a/5x5_reduce (in-place)
I0403 15:14:11.706161 18644 net.cpp:141] Setting up inception_5a/relu_5x5_reduce
I0403 15:14:11.706192 18644 net.cpp:148] Top shape: 24 32 7 7 (37632)
I0403 15:14:11.706210 18644 net.cpp:156] Memory required for data: 1299351072
I0403 15:14:11.706226 18644 layer_factory.hpp:77] Creating layer inception_5a/5x5
I0403 15:14:11.706249 18644 net.cpp:91] Creating Layer inception_5a/5x5
I0403 15:14:11.706267 18644 net.cpp:425] inception_5a/5x5 <- inception_5a/5x5_reduce
I0403 15:14:11.706287 18644 net.cpp:399] inception_5a/5x5 -> inception_5a/5x5
I0403 15:14:11.708127 18644 net.cpp:141] Setting up inception_5a/5x5
I0403 15:14:11.708168 18644 net.cpp:148] Top shape: 24 128 7 7 (150528)
I0403 15:14:11.708184 18644 net.cpp:156] Memory required for data: 1299953184
I0403 15:14:11.708204 18644 layer_factory.hpp:77] Creating layer inception_5a/relu_5x5
I0403 15:14:11.708225 18644 net.cpp:91] Creating Layer inception_5a/relu_5x5
I0403 15:14:11.708242 18644 net.cpp:425] inception_5a/relu_5x5 <- inception_5a/5x5
I0403 15:14:11.708261 18644 net.cpp:386] inception_5a/relu_5x5 -> inception_5a/5x5 (in-place)
I0403 15:14:11.708461 18644 net.cpp:141] Setting up inception_5a/relu_5x5
I0403 15:14:11.708490 18644 net.cpp:148] Top shape: 24 128 7 7 (150528)
I0403 15:14:11.708508 18644 net.cpp:156] Memory required for data: 1300555296
I0403 15:14:11.708523 18644 layer_factory.hpp:77] Creating layer inception_5a/pool
I0403 15:14:11.708539 18644 net.cpp:91] Creating Layer inception_5a/pool
I0403 15:14:11.708556 18644 net.cpp:425] inception_5a/pool <- pool4/3x3_s2_pool4/3x3_s2_0_split_3
I0403 15:14:11.708576 18644 net.cpp:399] inception_5a/pool -> inception_5a/pool
I0403 15:14:11.708650 18644 net.cpp:141] Setting up inception_5a/pool
I0403 15:14:11.708675 18644 net.cpp:148] Top shape: 24 832 7 7 (978432)
I0403 15:14:11.708689 18644 net.cpp:156] Memory required for data: 1304469024
I0403 15:14:11.708704 18644 layer_factory.hpp:77] Creating layer inception_5a/pool_proj
I0403 15:14:11.708730 18644 net.cpp:91] Creating Layer inception_5a/pool_proj
I0403 15:14:11.708748 18644 net.cpp:425] inception_5a/pool_proj <- inception_5a/pool
I0403 15:14:11.708770 18644 net.cpp:399] inception_5a/pool_proj -> inception_5a/pool_proj
I0403 15:14:11.711145 18644 net.cpp:141] Setting up inception_5a/pool_proj
I0403 15:14:11.711175 18644 net.cpp:148] Top shape: 24 128 7 7 (150528)
I0403 15:14:11.711191 18644 net.cpp:156] Memory required for data: 1305071136
I0403 15:14:11.711211 18644 layer_factory.hpp:77] Creating layer inception_5a/relu_pool_proj
I0403 15:14:11.711232 18644 net.cpp:91] Creating Layer inception_5a/relu_pool_proj
I0403 15:14:11.711251 18644 net.cpp:425] inception_5a/relu_pool_proj <- inception_5a/pool_proj
I0403 15:14:11.711268 18644 net.cpp:386] inception_5a/relu_pool_proj -> inception_5a/pool_proj (in-place)
I0403 15:14:11.711577 18644 net.cpp:141] Setting up inception_5a/relu_pool_proj
I0403 15:14:11.711606 18644 net.cpp:148] Top shape: 24 128 7 7 (150528)
I0403 15:14:11.711621 18644 net.cpp:156] Memory required for data: 1305673248
I0403 15:14:11.711635 18644 layer_factory.hpp:77] Creating layer inception_5a/output
I0403 15:14:11.711653 18644 net.cpp:91] Creating Layer inception_5a/output
I0403 15:14:11.711669 18644 net.cpp:425] inception_5a/output <- inception_5a/1x1
I0403 15:14:11.711688 18644 net.cpp:425] inception_5a/output <- inception_5a/3x3
I0403 15:14:11.711706 18644 net.cpp:425] inception_5a/output <- inception_5a/5x5
I0403 15:14:11.711724 18644 net.cpp:425] inception_5a/output <- inception_5a/pool_proj
I0403 15:14:11.711741 18644 net.cpp:399] inception_5a/output -> inception_5a/output
I0403 15:14:11.711794 18644 net.cpp:141] Setting up inception_5a/output
I0403 15:14:11.711819 18644 net.cpp:148] Top shape: 24 832 7 7 (978432)
I0403 15:14:11.711834 18644 net.cpp:156] Memory required for data: 1309586976
I0403 15:14:11.711849 18644 layer_factory.hpp:77] Creating layer inception_5a/output_inception_5a/output_0_split
I0403 15:14:11.711866 18644 net.cpp:91] Creating Layer inception_5a/output_inception_5a/output_0_split
I0403 15:14:11.711881 18644 net.cpp:425] inception_5a/output_inception_5a/output_0_split <- inception_5a/output
I0403 15:14:11.711902 18644 net.cpp:399] inception_5a/output_inception_5a/output_0_split -> inception_5a/output_inception_5a/output_0_split_0
I0403 15:14:11.711925 18644 net.cpp:399] inception_5a/output_inception_5a/output_0_split -> inception_5a/output_inception_5a/output_0_split_1
I0403 15:14:11.711944 18644 net.cpp:399] inception_5a/output_inception_5a/output_0_split -> inception_5a/output_inception_5a/output_0_split_2
I0403 15:14:11.711966 18644 net.cpp:399] inception_5a/output_inception_5a/output_0_split -> inception_5a/output_inception_5a/output_0_split_3
I0403 15:14:11.712087 18644 net.cpp:141] Setting up inception_5a/output_inception_5a/output_0_split
I0403 15:14:11.712115 18644 net.cpp:148] Top shape: 24 832 7 7 (978432)
I0403 15:14:11.712132 18644 net.cpp:148] Top shape: 24 832 7 7 (978432)
I0403 15:14:11.712147 18644 net.cpp:148] Top shape: 24 832 7 7 (978432)
I0403 15:14:11.712163 18644 net.cpp:148] Top shape: 24 832 7 7 (978432)
I0403 15:14:11.712177 18644 net.cpp:156] Memory required for data: 1325241888
I0403 15:14:11.712193 18644 layer_factory.hpp:77] Creating layer inception_5b/1x1
I0403 15:14:11.712214 18644 net.cpp:91] Creating Layer inception_5b/1x1
I0403 15:14:11.712232 18644 net.cpp:425] inception_5b/1x1 <- inception_5a/output_inception_5a/output_0_split_0
I0403 15:14:11.712252 18644 net.cpp:399] inception_5b/1x1 -> inception_5b/1x1
I0403 15:14:11.716148 18644 net.cpp:141] Setting up inception_5b/1x1
I0403 15:14:11.716179 18644 net.cpp:148] Top shape: 24 384 7 7 (451584)
I0403 15:14:11.716195 18644 net.cpp:156] Memory required for data: 1327048224
I0403 15:14:11.716214 18644 layer_factory.hpp:77] Creating layer inception_5b/relu_1x1
I0403 15:14:11.716235 18644 net.cpp:91] Creating Layer inception_5b/relu_1x1
I0403 15:14:11.716253 18644 net.cpp:425] inception_5b/relu_1x1 <- inception_5b/1x1
I0403 15:14:11.716270 18644 net.cpp:386] inception_5b/relu_1x1 -> inception_5b/1x1 (in-place)
I0403 15:14:11.716593 18644 net.cpp:141] Setting up inception_5b/relu_1x1
I0403 15:14:11.716620 18644 net.cpp:148] Top shape: 24 384 7 7 (451584)
I0403 15:14:11.716636 18644 net.cpp:156] Memory required for data: 1328854560
I0403 15:14:11.716651 18644 layer_factory.hpp:77] Creating layer inception_5b/3x3_reduce
I0403 15:14:11.716675 18644 net.cpp:91] Creating Layer inception_5b/3x3_reduce
I0403 15:14:11.716693 18644 net.cpp:425] inception_5b/3x3_reduce <- inception_5a/output_inception_5a/output_0_split_1
I0403 15:14:11.716717 18644 net.cpp:399] inception_5b/3x3_reduce -> inception_5b/3x3_reduce
I0403 15:14:11.719503 18644 net.cpp:141] Setting up inception_5b/3x3_reduce
I0403 15:14:11.719533 18644 net.cpp:148] Top shape: 24 192 7 7 (225792)
I0403 15:14:11.719550 18644 net.cpp:156] Memory required for data: 1329757728
I0403 15:14:11.719568 18644 layer_factory.hpp:77] Creating layer inception_5b/relu_3x3_reduce
I0403 15:14:11.719589 18644 net.cpp:91] Creating Layer inception_5b/relu_3x3_reduce
I0403 15:14:11.719607 18644 net.cpp:425] inception_5b/relu_3x3_reduce <- inception_5b/3x3_reduce
I0403 15:14:11.719625 18644 net.cpp:386] inception_5b/relu_3x3_reduce -> inception_5b/3x3_reduce (in-place)
I0403 15:14:11.719827 18644 net.cpp:141] Setting up inception_5b/relu_3x3_reduce
I0403 15:14:11.719856 18644 net.cpp:148] Top shape: 24 192 7 7 (225792)
I0403 15:14:11.719872 18644 net.cpp:156] Memory required for data: 1330660896
I0403 15:14:11.719887 18644 layer_factory.hpp:77] Creating layer inception_5b/3x3
I0403 15:14:11.719908 18644 net.cpp:91] Creating Layer inception_5b/3x3
I0403 15:14:11.719925 18644 net.cpp:425] inception_5b/3x3 <- inception_5b/3x3_reduce
I0403 15:14:11.719946 18644 net.cpp:399] inception_5b/3x3 -> inception_5b/3x3
I0403 15:14:11.726891 18644 net.cpp:141] Setting up inception_5b/3x3
I0403 15:14:11.726922 18644 net.cpp:148] Top shape: 24 384 7 7 (451584)
I0403 15:14:11.726938 18644 net.cpp:156] Memory required for data: 1332467232
I0403 15:14:11.726956 18644 layer_factory.hpp:77] Creating layer inception_5b/relu_3x3
I0403 15:14:11.726977 18644 net.cpp:91] Creating Layer inception_5b/relu_3x3
I0403 15:14:11.727000 18644 net.cpp:425] inception_5b/relu_3x3 <- inception_5b/3x3
I0403 15:14:11.727020 18644 net.cpp:386] inception_5b/relu_3x3 -> inception_5b/3x3 (in-place)
I0403 15:14:11.727334 18644 net.cpp:141] Setting up inception_5b/relu_3x3
I0403 15:14:11.727362 18644 net.cpp:148] Top shape: 24 384 7 7 (451584)
I0403 15:14:11.727378 18644 net.cpp:156] Memory required for data: 1334273568
I0403 15:14:11.727393 18644 layer_factory.hpp:77] Creating layer inception_5b/5x5_reduce
I0403 15:14:11.727432 18644 net.cpp:91] Creating Layer inception_5b/5x5_reduce
I0403 15:14:11.727452 18644 net.cpp:425] inception_5b/5x5_reduce <- inception_5a/output_inception_5a/output_0_split_2
I0403 15:14:11.727474 18644 net.cpp:399] inception_5b/5x5_reduce -> inception_5b/5x5_reduce
I0403 15:14:11.728821 18644 net.cpp:141] Setting up inception_5b/5x5_reduce
I0403 15:14:11.728849 18644 net.cpp:148] Top shape: 24 48 7 7 (56448)
I0403 15:14:11.728865 18644 net.cpp:156] Memory required for data: 1334499360
I0403 15:14:11.728884 18644 layer_factory.hpp:77] Creating layer inception_5b/relu_5x5_reduce
I0403 15:14:11.728905 18644 net.cpp:91] Creating Layer inception_5b/relu_5x5_reduce
I0403 15:14:11.728922 18644 net.cpp:425] inception_5b/relu_5x5_reduce <- inception_5b/5x5_reduce
I0403 15:14:11.728940 18644 net.cpp:386] inception_5b/relu_5x5_reduce -> inception_5b/5x5_reduce (in-place)
I0403 15:14:11.729343 18644 net.cpp:141] Setting up inception_5b/relu_5x5_reduce
I0403 15:14:11.729372 18644 net.cpp:148] Top shape: 24 48 7 7 (56448)
I0403 15:14:11.729388 18644 net.cpp:156] Memory required for data: 1334725152
I0403 15:14:11.729404 18644 layer_factory.hpp:77] Creating layer inception_5b/5x5
I0403 15:14:11.729424 18644 net.cpp:91] Creating Layer inception_5b/5x5
I0403 15:14:11.729442 18644 net.cpp:425] inception_5b/5x5 <- inception_5b/5x5_reduce
I0403 15:14:11.729461 18644 net.cpp:399] inception_5b/5x5 -> inception_5b/5x5
I0403 15:14:11.731616 18644 net.cpp:141] Setting up inception_5b/5x5
I0403 15:14:11.731647 18644 net.cpp:148] Top shape: 24 128 7 7 (150528)
I0403 15:14:11.731662 18644 net.cpp:156] Memory required for data: 1335327264
I0403 15:14:11.731681 18644 layer_factory.hpp:77] Creating layer inception_5b/relu_5x5
I0403 15:14:11.731703 18644 net.cpp:91] Creating Layer inception_5b/relu_5x5
I0403 15:14:11.731720 18644 net.cpp:425] inception_5b/relu_5x5 <- inception_5b/5x5
I0403 15:14:11.731739 18644 net.cpp:386] inception_5b/relu_5x5 -> inception_5b/5x5 (in-place)
I0403 15:14:11.731946 18644 net.cpp:141] Setting up inception_5b/relu_5x5
I0403 15:14:11.731972 18644 net.cpp:148] Top shape: 24 128 7 7 (150528)
I0403 15:14:11.731992 18644 net.cpp:156] Memory required for data: 1335929376
I0403 15:14:11.732007 18644 layer_factory.hpp:77] Creating layer inception_5b/pool
I0403 15:14:11.732026 18644 net.cpp:91] Creating Layer inception_5b/pool
I0403 15:14:11.732043 18644 net.cpp:425] inception_5b/pool <- inception_5a/output_inception_5a/output_0_split_3
I0403 15:14:11.732064 18644 net.cpp:399] inception_5b/pool -> inception_5b/pool
I0403 15:14:11.732139 18644 net.cpp:141] Setting up inception_5b/pool
I0403 15:14:11.732163 18644 net.cpp:148] Top shape: 24 832 7 7 (978432)
I0403 15:14:11.732178 18644 net.cpp:156] Memory required for data: 1339843104
I0403 15:14:11.732193 18644 layer_factory.hpp:77] Creating layer inception_5b/pool_proj
I0403 15:14:11.732219 18644 net.cpp:91] Creating Layer inception_5b/pool_proj
I0403 15:14:11.732237 18644 net.cpp:425] inception_5b/pool_proj <- inception_5b/pool
I0403 15:14:11.732257 18644 net.cpp:399] inception_5b/pool_proj -> inception_5b/pool_proj
I0403 15:14:11.734663 18644 net.cpp:141] Setting up inception_5b/pool_proj
I0403 15:14:11.734691 18644 net.cpp:148] Top shape: 24 128 7 7 (150528)
I0403 15:14:11.734709 18644 net.cpp:156] Memory required for data: 1340445216
I0403 15:14:11.734727 18644 layer_factory.hpp:77] Creating layer inception_5b/relu_pool_proj
I0403 15:14:11.734748 18644 net.cpp:91] Creating Layer inception_5b/relu_pool_proj
I0403 15:14:11.734766 18644 net.cpp:425] inception_5b/relu_pool_proj <- inception_5b/pool_proj
I0403 15:14:11.734783 18644 net.cpp:386] inception_5b/relu_pool_proj -> inception_5b/pool_proj (in-place)
I0403 15:14:11.735100 18644 net.cpp:141] Setting up inception_5b/relu_pool_proj
I0403 15:14:11.735127 18644 net.cpp:148] Top shape: 24 128 7 7 (150528)
I0403 15:14:11.735143 18644 net.cpp:156] Memory required for data: 1341047328
I0403 15:14:11.735158 18644 layer_factory.hpp:77] Creating layer inception_5b/output
I0403 15:14:11.735179 18644 net.cpp:91] Creating Layer inception_5b/output
I0403 15:14:11.735210 18644 net.cpp:425] inception_5b/output <- inception_5b/1x1
I0403 15:14:11.735229 18644 net.cpp:425] inception_5b/output <- inception_5b/3x3
I0403 15:14:11.735245 18644 net.cpp:425] inception_5b/output <- inception_5b/5x5
I0403 15:14:11.735263 18644 net.cpp:425] inception_5b/output <- inception_5b/pool_proj
I0403 15:14:11.735281 18644 net.cpp:399] inception_5b/output -> inception_5b/output
I0403 15:14:11.735337 18644 net.cpp:141] Setting up inception_5b/output
I0403 15:14:11.735362 18644 net.cpp:148] Top shape: 24 1024 7 7 (1204224)
I0403 15:14:11.735376 18644 net.cpp:156] Memory required for data: 1345864224
I0403 15:14:11.735391 18644 layer_factory.hpp:77] Creating layer pool5/7x7_s1
I0403 15:14:11.735409 18644 net.cpp:91] Creating Layer pool5/7x7_s1
I0403 15:14:11.735424 18644 net.cpp:425] pool5/7x7_s1 <- inception_5b/output
I0403 15:14:11.735445 18644 net.cpp:399] pool5/7x7_s1 -> pool5/7x7_s1
I0403 15:14:11.735674 18644 net.cpp:141] Setting up pool5/7x7_s1
I0403 15:14:11.735705 18644 net.cpp:148] Top shape: 24 1024 1 1 (24576)
I0403 15:14:11.735723 18644 net.cpp:156] Memory required for data: 1345962528
I0403 15:14:11.735738 18644 layer_factory.hpp:77] Creating layer pool5/drop_7x7_s1
I0403 15:14:11.735755 18644 net.cpp:91] Creating Layer pool5/drop_7x7_s1
I0403 15:14:11.735771 18644 net.cpp:425] pool5/drop_7x7_s1 <- pool5/7x7_s1
I0403 15:14:11.735790 18644 net.cpp:386] pool5/drop_7x7_s1 -> pool5/7x7_s1 (in-place)
I0403 15:14:11.735842 18644 net.cpp:141] Setting up pool5/drop_7x7_s1
I0403 15:14:11.735867 18644 net.cpp:148] Top shape: 24 1024 1 1 (24576)
I0403 15:14:11.735882 18644 net.cpp:156] Memory required for data: 1346060832
I0403 15:14:11.735896 18644 layer_factory.hpp:77] Creating layer loss3/classifier_plantvillage
I0403 15:14:11.735918 18644 net.cpp:91] Creating Layer loss3/classifier_plantvillage
I0403 15:14:11.735935 18644 net.cpp:425] loss3/classifier_plantvillage <- pool5/7x7_s1
I0403 15:14:11.735954 18644 net.cpp:399] loss3/classifier_plantvillage -> loss3/classifier_plantvillage
I0403 15:14:11.736400 18644 net.cpp:141] Setting up loss3/classifier_plantvillage
I0403 15:14:11.736426 18644 net.cpp:148] Top shape: 24 38 (912)
I0403 15:14:11.736443 18644 net.cpp:156] Memory required for data: 1346064480
I0403 15:14:11.736460 18644 layer_factory.hpp:77] Creating layer loss3/classifier_plantvillage_loss3/classifier_plantvillage_0_split
I0403 15:14:11.736479 18644 net.cpp:91] Creating Layer loss3/classifier_plantvillage_loss3/classifier_plantvillage_0_split
I0403 15:14:11.736495 18644 net.cpp:425] loss3/classifier_plantvillage_loss3/classifier_plantvillage_0_split <- loss3/classifier_plantvillage
I0403 15:14:11.736515 18644 net.cpp:399] loss3/classifier_plantvillage_loss3/classifier_plantvillage_0_split -> loss3/classifier_plantvillage_loss3/classifier_plantvillage_0_split_0
I0403 15:14:11.736537 18644 net.cpp:399] loss3/classifier_plantvillage_loss3/classifier_plantvillage_0_split -> loss3/classifier_plantvillage_loss3/classifier_plantvillage_0_split_1
I0403 15:14:11.736559 18644 net.cpp:399] loss3/classifier_plantvillage_loss3/classifier_plantvillage_0_split -> loss3/classifier_plantvillage_loss3/classifier_plantvillage_0_split_2
I0403 15:14:11.736579 18644 net.cpp:399] loss3/classifier_plantvillage_loss3/classifier_plantvillage_0_split -> loss3/classifier_plantvillage_loss3/classifier_plantvillage_0_split_3
I0403 15:14:11.736685 18644 net.cpp:141] Setting up loss3/classifier_plantvillage_loss3/classifier_plantvillage_0_split
I0403 15:14:11.736713 18644 net.cpp:148] Top shape: 24 38 (912)
I0403 15:14:11.736732 18644 net.cpp:148] Top shape: 24 38 (912)
I0403 15:14:11.736747 18644 net.cpp:148] Top shape: 24 38 (912)
I0403 15:14:11.736763 18644 net.cpp:148] Top shape: 24 38 (912)
I0403 15:14:11.736778 18644 net.cpp:156] Memory required for data: 1346079072
I0403 15:14:11.736793 18644 layer_factory.hpp:77] Creating layer loss1/loss
I0403 15:14:11.736814 18644 net.cpp:91] Creating Layer loss1/loss
I0403 15:14:11.736832 18644 net.cpp:425] loss1/loss <- loss1/classifier_plantvillage_loss1/classifier_plantvillage_0_split_0
I0403 15:14:11.736863 18644 net.cpp:425] loss1/loss <- label_data_1_split_0
…
