…
I0403 14:59:38.060741 17934 net.cpp:313] The NetState phase (1) differed from the phase (0) specified by a rule in layer data
I0403 14:59:38.061938 17934 net.cpp:49] Initializing net from parameters: 
state {
  phase: TEST
}
layer {
  name: "data"
  type: "Data"
  top: "data"
  top: "label"
  include {
    phase: TEST
  }
  transform_param {
    mirror: false
    crop_size: 224
    mean_file: "/home/mohanty/data/final_dataset/lmdb/grayscale-40-60/mean.binaryproto"
  }
  data_param {
    source: "/home/mohanty/data/final_dataset/lmdb/grayscale-40-60/test_db"
    batch_size: 24
    backend: LMDB
  }
}
layer {
  name: "conv1/7x7_s2"
  type: "Convolution"
  bottom: "data"
  top: "conv1/7x7_s2"
  param {
    lr_mult: 1
    decay_mult: 1
  }
  param {
    lr_mult: 2
    decay_mult: 0
  }
  convolution_param {
    num_output: 64
    pad: 3
    kernel_size: 7
    stride: 2
    weight_filler {
      type: "xavier"
      std: 0.1
    }
    bias_filler {
      type: "constant"
      value: 0.2
    }
  }
}
layer {
  name: "conv1/relu_7x7"
  type: "ReLU"
  bottom: "conv1/7x7_s2"
  top: "conv1/7x7_s2"
}
layer {
  name: "pool1/3x3_s2"
  type: "Pooling"
  bottom: "conv1/7x7_s2"
  top: "pool1/3x3_s2"
  pooling_param {
    pool: MAX
    kernel_size: 3
    stride: 2
  }
}
layer {
  name: "pool1/norm1"
  type: "LRN"
  bottom: "pool1/3x3_s2"
  top: "pool1/norm1"
  lrn_param {
    local_size: 5
    alpha: 0.0001
    beta: 0.75
  }
}
layer {
  name: "conv2/3x3_reduce"
  type: "Convolution"
  bottom: "pool1/norm1"
  top: "conv2/3x3_reduce"
  param {
    lr_mult: 1
    decay_mult: 1
  }
  param {
    lr_mult: 2
    decay_mult: 0
  }
  convolution_param {
    num_output: 64
    kernel_size: 1
    weight_filler {
      type: "xavier"
      std: 0.1
    }
    bias_filler {
      type: "constant"
      value: 0.2
    }
  }
}
layer {
  name: "conv2/relu_3x3_reduce"
  type: "ReLU"
  bottom: "conv2/3x3_reduce"
  top: "conv2/3x3_reduce"
}
layer {
  name: "conv2/3x3"
  type: "Convolution"
  bottom: "conv2/3x3_reduce"
  top: "conv2/3x3"
  param {
    lr_mult: 1
    decay_mult: 1
  }
  param {
    lr_mult: 2
    decay_mult: 0
  }
  convolution_param {
    num_output: 192
    pad: 1
    kernel_size: 3
    weight_filler {
      type: "xavier"
      std: 0.03
    }
    bias_filler {
      type: "constant"
      value: 0.2
    }
  }
}
layer {
  name: "conv2/relu_3x3"
  type: "ReLU"
  bottom: "conv2/3x3"
  top: "conv2/3x3"
}
layer {
  name: "conv2/norm2"
  type: "LRN"
  bottom: "conv2/3x3"
  top: "conv2/norm2"
  lrn_param {
    local_size: 5
    alpha: 0.0001
    beta: 0.75
  }
}
layer {
  name: "pool2/3x3_s2"
  type: "Pooling"
  bottom: "conv2/norm2"
  top: "pool2/3x3_s2"
  pooling_param {
    pool: MAX
    kernel_size: 3
    stride: 2
  }
}
layer {
  name: "inception_3a/1x1"
  type: "Convolution"
  bottom: "pool2/3x3_s2"
  top: "inception_3a/1x1"
  param {
    lr_mult: 1
    decay_mult: 1
  }
  param {
    lr_mult: 2
    decay_mult: 0
  }
  convolution_param {
    num_output: 64
    kernel_size: 1
    weight_filler {
      type: "xavier"
      std: 0.03
    }
    bias_filler {
      type: "constant"
      value: 0.2
    }
  }
}
layer {
  name: "inception_3a/relu_1x1"
  type: "ReLU"
  bottom: "inception_3a/1x1"
  top: "inception_3a/1x1"
}
layer {
  name: "inception_3a/3x3_reduce"
  type: "Convolution"
  bottom: "pool2/3x3_s2"
  top: "inception_3a/3x3_reduce"
  param {
    lr_mult: 1
    decay_mult: 1
  }
  param {
    lr_mult: 2
    decay_mult: 0
  }
  convolution_param {
    num_output: 96
    kernel_size: 1
    weight_filler {
      type: "xavier"
      std: 0.09
    }
    bias_filler {
      type: "constant"
      value: 0.2
    }
  }
}
layer {
  name: "inception_3a/relu_3x3_reduce"
  type: "ReLU"
  bottom: "inception_3a/3x3_reduce"
  top: "inception_3a/3x3_reduce"
}
layer {
  name: "inception_3a/3x3"
  type: "Convolution"
  bottom: "inception_3a/3x3_reduce"
  top: "inception_3a/3x3"
  param {
    lr_mult: 1
    decay_mult: 1
  }
  param {
    lr_mult: 2
    decay_mult: 0
  }
  convolution_param {
    num_output: 128
    pad: 1
    kernel_size: 3
    weight_filler {
      type: "xavier"
      std: 0.03
    }
    bias_filler {
      type: "constant"
      value: 0.2
    }
  }
}
layer {
  name: "inception_3a/relu_3x3"
  type: "ReLU"
  bottom: "inception_3a/3x3"
  top: "inception_3a/3x3"
}
layer {
  name: "inception_3a/5x5_reduce"
  type: "Convolution"
  bottom: "pool2/3x3_s2"
  top: "inception_3a/5x5_reduce"
  param {
    lr_mult: 1
    decay_mult: 1
  }
  param {
    lr_mult: 2
    decay_mult: 0
  }
  convolution_param {
    num_output: 16
    kernel_size: 1
    weight_filler {
      type: "xavier"
      std: 0.2
    }
    bias_filler {
      type: "constant"
      value: 0.2
    }
  }
}
layer {
  name: "inception_3a/relu_5x5_reduce"
  type: "ReLU"
  bottom: "inception_3a/5x5_reduce"
  top: "inception_3a/5x5_reduce"
}
layer {
  name: "inception_3a/5x5"
  type: "Convolution"
  bottom: "inception_3a/5x5_reduce"
  top: "inception_3a/5x5"
  param {
    lr_mult: 1
    decay_mult: 1
  }
  param {
    lr_mult: 2
    decay_mult: 0
  }
  convolution_param {
    num_output: 32
    pad: 2
    kernel_size: 5
    weight_filler {
      type: "xavier"
      std: 0.03
    }
    bias_filler {
      type: "constant"
      value: 0.2
    }
  }
}
layer {
  name: "inception_3a/relu_5x5"
  type: "ReLU"
  bottom: "inception_3a/5x5"
  top: "inception_3a/5x5"
}
layer {
  name: "inception_3a/pool"
  type: "Pooling"
  bottom: "pool2/3x3_s2"
  top: "inception_3a/pool"
  pooling_param {
    pool: MAX
    kernel_size: 3
    stride: 1
    pad: 1
  }
}
layer {
  name: "inception_3a/pool_proj"
  type: "Convolution"
  bottom: "inception_3a/pool"
  top: "inception_3a/pool_proj"
  param {
    lr_mult: 1
    decay_mult: 1
  }
  param {
    lr_mult: 2
    decay_mult: 0
  }
  convolution_param {
    num_output: 32
    kernel_size: 1
    weight_filler {
      type: "xavier"
      std: 0.1
    }
    bias_filler {
      type: "constant"
      value: 0.2
    }
  }
}
layer {
  name: "inception_3a/relu_pool_proj"
  type: "ReLU"
  bottom: "inception_3a/pool_proj"
  top: "inception_3a/pool_proj"
}
layer {
  name: "inception_3a/output"
  type: "Concat"
  bottom: "inception_3a/1x1"
  bottom: "inception_3a/3x3"
  bottom: "inception_3a/5x5"
  bottom: "inception_3a/pool_proj"
  top: "inception_3a/output"
}
layer {
  name: "inception_3b/1x1"
  type: "Convolution"
  bottom: "inception_3a/output"
  top: "inception_3b/1x1"
  param {
    lr_mult: 1
    decay_mult: 1
  }
  param {
    lr_mult: 2
    decay_mult: 0
  }
  convolution_param {
    num_output: 128
    kernel_size: 1
    weight_filler {
      type: "xavier"
      std: 0.03
    }
    bias_filler {
      type: "constant"
      value: 0.2
    }
  }
}
layer {
  name: "inception_3b/relu_1x1"
  type: "ReLU"
  bottom: "inception_3b/1x1"
  top: "inception_3b/1x1"
}
layer {
  name: "inception_3b/3x3_reduce"
  type: "Convolution"
  bottom: "inception_3a/output"
  top: "inception_3b/3x3_reduce"
  param {
    lr_mult: 1
    decay_mult: 1
  }
  param {
    lr_mult: 2
    decay_mult: 0
  }
  convolution_param {
    num_output: 128
    kernel_size: 1
    weight_filler {
      type: "xavier"
      std: 0.09
    }
    bias_filler {
      type: "constant"
      value: 0.2
    }
  }
}
layer {
  name: "inception_3b/relu_3x3_reduce"
  type: "ReLU"
  bottom: "inception_3b/3x3_reduce"
  top: "inception_3b/3x3_reduce"
}
layer {
  name: "inception_3b/3x3"
  type: "Convolution"
  bottom: "inception_3b/3x3_reduce"
  top: "inception_3b/3x3"
  param {
    lr_mult: 1
    decay_mult: 1
  }
  param {
    lr_mult: 2
    decay_mult: 0
  }
  convolution_param {
    num_output: 192
    pad: 1
    kernel_size: 3
    weight_filler {
      type: "xavier"
      std: 0.03
    }
    bias_filler {
      type: "constant"
      value: 0.2
    }
  }
}
layer {
  name: "inception_3b/relu_3x3"
  type: "ReLU"
  bottom: "inception_3b/3x3"
  top: "inception_3b/3x3"
}
layer {
  name: "inception_3b/5x5_reduce"
  type: "Convolution"
  bottom: "inception_3a/output"
  top: "inception_3b/5x5_reduce"
  param {
    lr_mult: 1
    decay_mult: 1
  }
  param {
    lr_mult: 2
    decay_mult: 0
  }
  convolution_param {
    num_output: 32
    kernel_size: 1
    weight_filler {
      type: "xavier"
      std: 0.2
    }
    bias_filler {
      type: "constant"
      value: 0.2
    }
  }
}
layer {
  name: "inception_3b/relu_5x5_reduce"
  type: "ReLU"
  bottom: "inception_3b/5x5_reduce"
  top: "inception_3b/5x5_reduce"
}
layer {
  name: "inception_3b/5x5"
  type: "Convolution"
  bottom: "inception_3b/5x5_reduce"
  top: "inception_3b/5x5"
  param {
    lr_mult: 1
    decay_mult: 1
  }
  param {
    lr_mult: 2
    decay_mult: 0
  }
  convolution_param {
    num_output: 96
    pad: 2
    kernel_size: 5
    weight_filler {
      type: "xavier"
      std: 0.03
    }
    bias_filler {
      type: "constant"
      value: 0.2
    }
  }
}
layer {
  name: "inception_3b/relu_5x5"
  type: "ReLU"
  bottom: "inception_3b/5x5"
  top: "inception_3b/5x5"
}
layer {
  name: "inception_3b/pool"
  type: "Pooling"
  bottom: "inception_3a/output"
  top: "inception_3b/pool"
  pooling_param {
    pool: MAX
    kernel_size: 3
    stride: 1
    pad: 1
  }
}
layer {
  name: "inception_3b/pool_proj"
  type: "Convolution"
  bottom: "inception_3b/pool"
  top: "inception_3b/pool_proj"
  param {
    lr_mult: 1
    decay_mult: 1
  }
  param {
    lr_mult: 2
    decay_mult: 0
  }
  convolution_param {
    num_output: 64
    kernel_size: 1
    weight_filler {
      type: "xavier"
      std: 0.1
    }
    bias_filler {
      type: "constant"
      value: 0.2
    }
  }
}
layer {
  name: "inception_3b/relu_pool_proj"
  type: "ReLU"
  bottom: "inception_3b/pool_proj"
  top: "inception_3b/pool_proj"
}
layer {
  name: "inception_3b/output"
  type: "Concat"
  bottom: "inception_3b/1x1"
  bottom: "inception_3b/3x3"
  bottom: "inception_3b/5x5"
  bottom: "inception_3b/pool_proj"
  top: "inception_3b/output"
}
layer {
  name: "pool3/3x3_s2"
  type: "Pooling"
  bottom: "inception_3b/output"
  top: "pool3/3x3_s2"
  pooling_param {
    pool: MAX
    kernel_size: 3
    stride: 2
  }
}
layer {
  name: "inception_4a/1x1"
  type: "Convolution"
  bottom: "pool3/3x3_s2"
  top: "inception_4a/1x1"
  param {
    lr_mult: 1
    decay_mult: 1
  }
  param {
    lr_mult: 2
    decay_mult: 0
  }
  convolution_param {
    num_output: 192
    kernel_size: 1
    weight_filler {
      type: "xavier"
      std: 0.03
    }
    bias_filler {
      type: "constant"
      value: 0.2
    }
  }
}
layer {
  name: "inception_4a/relu_1x1"
  type: "ReLU"
  bottom: "inception_4a/1x1"
  top: "inception_4a/1x1"
}
layer {
  name: "inception_4a/3x3_reduce"
  type: "Convolution"
  bottom: "pool3/3x3_s2"
  top: "inception_4a/3x3_reduce"
  param {
    lr_mult: 1
    decay_mult: 1
  }
  param {
    lr_mult: 2
    decay_mult: 0
  }
  convolution_param {
    num_output: 96
    kernel_size: 1
    weight_filler {
      type: "xavier"
      std: 0.09
    }
    bias_filler {
      type: "constant"
      value: 0.2
    }
  }
}
layer {
  name: "inception_4a/relu_3x3_reduce"
  type: "ReLU"
  bottom: "inception_4a/3x3_reduce"
  top: "inception_4a/3x3_reduce"
}
layer {
  name: "inception_4a/3x3"
  type: "Convolution"
  bottom: "inception_4a/3x3_reduce"
  top: "inception_4a/3x3"
  param {
    lr_mult: 1
    decay_mult: 1
  }
  param {
    lr_mult: 2
    decay_mult: 0
  }
  convolution_param {
    num_output: 208
    pad: 1
    kernel_size: 3
    weight_filler {
      type: "xavier"
      std: 0.03
    }
    bias_filler {
      type: "constant"
      value: 0.2
    }
  }
}
layer {
  name: "inception_4a/relu_3x3"
  type: "ReLU"
  bottom: "inception_4a/3x3"
  top: "inception_4a/3x3"
}
layer {
  name: "inception_4a/5x5_reduce"
  type: "Convolution"
  bottom: "pool3/3x3_s2"
  top: "inception_4a/5x5_reduce"
  param {
    lr_mult: 1
    decay_mult: 1
  }
  param {
    lr_mult: 2
    decay_mult: 0
  }
  convolution_param {
    num_output: 16
    kernel_size: 1
    weight_filler {
      type: "xavier"
      std: 0.2
    }
    bias_filler {
      type: "constant"
      value: 0.2
    }
  }
}
layer {
  name: "inception_4a/relu_5x5_reduce"
  type: "ReLU"
  bottom: "inception_4a/5x5_reduce"
  top: "inception_4a/5x5_reduce"
}
layer {
  name: "inception_4a/5x5"
  type: "Convolution"
  bottom: "inception_4a/5x5_reduce"
  top: "inception_4a/5x5"
  param {
    lr_mult: 1
    decay_mult: 1
  }
  param {
    lr_mult: 2
    decay_mult: 0
  }
  convolution_param {
    num_output: 48
    pad: 2
    kernel_size: 5
    weight_filler {
      type: "xavier"
      std: 0.03
    }
    bias_filler {
      type: "constant"
      value: 0.2
    }
  }
}
layer {
  name: "inception_4a/relu_5x5"
  type: "ReLU"
  bottom: "inception_4a/5x5"
  top: "inception_4a/5x5"
}
layer {
  name: "inception_4a/pool"
  type: "Pooling"
  bottom: "pool3/3x3_s2"
  top: "inception_4a/pool"
  pooling_param {
    pool: MAX
    kernel_size: 3
    stride: 1
    pad: 1
  }
}
layer {
  name: "inception_4a/pool_proj"
  type: "Convolution"
  bottom: "inception_4a/pool"
  top: "inception_4a/pool_proj"
  param {
    lr_mult: 1
    decay_mult: 1
  }
  param {
    lr_mult: 2
    decay_mult: 0
  }
  convolution_param {
    num_output: 64
    kernel_size: 1
    weight_filler {
      type: "xavier"
      std: 0.1
    }
    bias_filler {
      type: "constant"
      value: 0.2
    }
  }
}
layer {
  name: "inception_4a/relu_pool_proj"
  type: "ReLU"
  bottom: "inception_4a/pool_proj"
  top: "inception_4a/pool_proj"
}
layer {
  name: "inception_4a/output"
  type: "Concat"
  bottom: "inception_4a/1x1"
  bottom: "inception_4a/3x3"
  bottom: "inception_4a/5x5"
  bottom: "inception_4a/pool_proj"
  top: "inception_4a/output"
}
layer {
  name: "loss1/ave_pool"
  type: "Pooling"
  bottom: "inception_4a/output"
  top: "loss1/ave_pool"
  pooling_param {
    pool: AVE
    kernel_size: 5
    stride: 3
  }
}
layer {
  name: "loss1/conv"
  type: "Convolution"
  bottom: "loss1/ave_pool"
  top: "loss1/conv"
  param {
    lr_mult: 1
    decay_mult: 1
  }
  param {
    lr_mult: 2
    decay_mult: 0
  }
  convolution_param {
    num_output: 128
    kernel_size: 1
    weight_filler {
      type: "xavier"
      std: 0.08
    }
    bias_filler {
      type: "constant"
      value: 0.2
    }
  }
}
layer {
  name: "loss1/relu_conv"
  type: "ReLU"
  bottom: "loss1/conv"
  top: "loss1/conv"
}
layer {
  name: "loss1/fc"
  type: "InnerProduct"
  bottom: "loss1/conv"
  top: "loss1/fc"
  param {
    lr_mult: 1
    decay_mult: 1
  }
  param {
    lr_mult: 2
    decay_mult: 0
  }
  inner_product_param {
    num_output: 1024
    weight_filler {
      type: "xavier"
      std: 0.02
    }
    bias_filler {
      type: "constant"
      value: 0.2
    }
  }
}
layer {
  name: "loss1/relu_fc"
  type: "ReLU"
  bottom: "loss1/fc"
  top: "loss1/fc"
}
layer {
  name: "loss1/drop_fc"
  type: "Dropout"
  bottom: "loss1/fc"
  top: "loss1/fc"
  dropout_param {
    dropout_ratio: 0.7
  }
}
layer {
  name: "loss1/classifier_plantvillage"
  type: "InnerProduct"
  bottom: "loss1/fc"
  top: "loss1/classifier_plantvillage"
  param {
    lr_mult: 1
    decay_mult: 1
  }
  param {
    lr_mult: 2
    decay_mult: 0
  }
  inner_product_param {
    num_output: 38
    weight_filler {
      type: "xavier"
      std: 0.0009765625
    }
    bias_filler {
      type: "constant"
      value: 0
    }
  }
}
layer {
  name: "inception_4b/1x1"
  type: "Convolution"
  bottom: "inception_4a/output"
  top: "inception_4b/1x1"
  param {
    lr_mult: 1
    decay_mult: 1
  }
  param {
    lr_mult: 2
    decay_mult: 0
  }
  convolution_param {
    num_output: 160
    kernel_size: 1
    weight_filler {
      type: "xavier"
      std: 0.03
    }
    bias_filler {
      type: "constant"
      value: 0.2
    }
  }
}
layer {
  name: "inception_4b/relu_1x1"
  type: "ReLU"
  bottom: "inception_4b/1x1"
  top: "inception_4b/1x1"
}
layer {
  name: "inception_4b/3x3_reduce"
  type: "Convolution"
  bottom: "inception_4a/output"
  top: "inception_4b/3x3_reduce"
  param {
    lr_mult: 1
    decay_mult: 1
  }
  param {
    lr_mult: 2
    decay_mult: 0
  }
  convolution_param {
    num_output: 112
    kernel_size: 1
    weight_filler {
      type: "xavier"
      std: 0.09
    }
    bias_filler {
      type: "constant"
      value: 0.2
    }
  }
}
layer {
  name: "inception_4b/relu_3x3_reduce"
  type: "ReLU"
  bottom: "inception_4b/3x3_reduce"
  top: "inception_4b/3x3_reduce"
}
layer {
  name: "inception_4b/3x3"
  type: "Convolution"
  bottom: "inception_4b/3x3_reduce"
  top: "inception_4b/3x3"
  param {
    lr_mult: 1
    decay_mult: 1
  }
  param {
    lr_mult: 2
    decay_mult: 0
  }
  convolution_param {
    num_output: 224
    pad: 1
    kernel_size: 3
    weight_filler {
      type: "xavier"
      std: 0.03
    }
    bias_filler {
      type: "constant"
      value: 0.2
    }
  }
}
layer {
  name: "inception_4b/relu_3x3"
  type: "ReLU"
  bottom: "inception_4b/3x3"
  top: "inception_4b/3x3"
}
layer {
  name: "inception_4b/5x5_reduce"
  type: "Convolution"
  bottom: "inception_4a/output"
  top: "inception_4b/5x5_reduce"
  param {
    lr_mult: 1
    decay_mult: 1
  }
  param {
    lr_mult: 2
    decay_mult: 0
  }
  convolution_param {
    num_output: 24
    kernel_size: 1
    weight_filler {
      type: "xavier"
      std: 0.2
    }
    bias_filler {
      type: "constant"
      value: 0.2
    }
  }
}
layer {
  name: "inception_4b/relu_5x5_reduce"
  type: "ReLU"
  bottom: "inception_4b/5x5_reduce"
  top: "inception_4b/5x5_reduce"
}
layer {
  name: "inception_4b/5x5"
  type: "Convolution"
  bottom: "inception_4b/5x5_reduce"
  top: "inception_4b/5x5"
  param {
    lr_mult: 1
    decay_mult: 1
  }
  param {
    lr_mult: 2
    decay_mult: 0
  }
  convolution_param {
    num_output: 64
    pad: 2
    kernel_size: 5
    weight_filler {
      type: "xavier"
      std: 0.03
    }
    bias_filler {
      type: "constant"
      value: 0.2
    }
  }
}
layer {
  name: "inception_4b/relu_5x5"
  type: "ReLU"
  bottom: "inception_4b/5x5"
  top: "inception_4b/5x5"
}
layer {
  name: "inception_4b/pool"
  type: "Pooling"
  bottom: "inception_4a/output"
  top: "inception_4b/pool"
  pooling_param {
    pool: MAX
    kernel_size: 3
    stride: 1
    pad: 1
  }
}
layer {
  name: "inception_4b/pool_proj"
  type: "Convolution"
  bottom: "inception_4b/pool"
  top: "inception_4b/pool_proj"
  param {
    lr_mult: 1
    decay_mult: 1
  }
  param {
    lr_mult: 2
    decay_mult: 0
  }
  convolution_param {
    num_output: 64
    kernel_size: 1
    weight_filler {
      type: "xavier"
      std: 0.1
    }
    bias_filler {
      type: "constant"
      value: 0.2
    }
  }
}
layer {
  name: "inception_4b/relu_pool_proj"
  type: "ReLU"
  bottom: "inception_4b/pool_proj"
  top: "inception_4b/pool_proj"
}
layer {
  name: "inception_4b/output"
  type: "Concat"
  bottom: "inception_4b/1x1"
  bottom: "inception_4b/3x3"
  bottom: "inception_4b/5x5"
  bottom: "inception_4b/pool_proj"
  top: "inception_4b/output"
}
layer {
  name: "inception_4c/1x1"
  type: "Convolution"
  bottom: "inception_4b/output"
  top: "inception_4c/1x1"
  param {
    lr_mult: 1
    decay_mult: 1
  }
  param {
    lr_mult: 2
    decay_mult: 0
  }
  convolution_param {
    num_output: 128
    kernel_size: 1
    weight_filler {
      type: "xavier"
      std: 0.03
    }
    bias_filler {
      type: "constant"
      value: 0.2
    }
  }
}
layer {
  name: "inception_4c/relu_1x1"
  type: "ReLU"
  bottom: "inception_4c/1x1"
  top: "inception_4c/1x1"
}
layer {
  name: "inception_4c/3x3_reduce"
  type: "Convolution"
  bottom: "inception_4b/output"
  top: "inception_4c/3x3_reduce"
  param {
    lr_mult: 1
    decay_mult: 1
  }
  param {
    lr_mult: 2
    decay_mult: 0
  }
  convolution_param {
    num_output: 128
    kernel_size: 1
    weight_filler {
      type: "xavier"
      std: 0.09
    }
    bias_filler {
      type: "constant"
      value: 0.2
    }
  }
}
layer {
  name: "inception_4c/relu_3x3_reduce"
  type: "ReLU"
  bottom: "inception_4c/3x3_reduce"
  top: "inception_4c/3x3_reduce"
}
layer {
  name: "inception_4c/3x3"
  type: "Convolution"
  bottom: "inception_4c/3x3_reduce"
  top: "inception_4c/3x3"
  param {
    lr_mult: 1
    decay_mult: 1
  }
  param {
    lr_mult: 2
    decay_mult: 0
  }
  convolution_param {
    num_output: 256
    pad: 1
    kernel_size: 3
    weight_filler {
      type: "xavier"
      std: 0.03
    }
    bias_filler {
      type: "constant"
      value: 0.2
    }
  }
}
layer {
  name: "inception_4c/relu_3x3"
  type: "ReLU"
  bottom: "inception_4c/3x3"
  top: "inception_4c/3x3"
}
layer {
  name: "inception_4c/5x5_reduce"
  type: "Convolution"
  bottom: "inception_4b/output"
  top: "inception_4c/5x5_reduce"
  param {
    lr_mult: 1
    decay_mult: 1
  }
  param {
    lr_mult: 2
    decay_mult: 0
  }
  convolution_param {
    num_output: 24
    kernel_size: 1
    weight_filler {
      type: "xavier"
      std: 0.2
    }
    bias_filler {
      type: "constant"
      value: 0.2
    }
  }
}
layer {
  name: "inception_4c/relu_5x5_reduce"
  type: "ReLU"
  bottom: "inception_4c/5x5_reduce"
  top: "inception_4c/5x5_reduce"
}
layer {
  name: "inception_4c/5x5"
  type: "Convolution"
  bottom: "inception_4c/5x5_reduce"
  top: "inception_4c/5x5"
  param {
    lr_mult: 1
    decay_mult: 1
  }
  param {
    lr_mult: 2
    decay_mult: 0
  }
  convolution_param {
    num_output: 64
    pad: 2
    kernel_size: 5
    weight_filler {
      type: "xavier"
      std: 0.03
    }
    bias_filler {
      type: "constant"
      value: 0.2
    }
  }
}
layer {
  name: "inception_4c/relu_5x5"
  type: "ReLU"
  bottom: "inception_4c/5x5"
  top: "inception_4c/5x5"
}
layer {
  name: "inception_4c/pool"
  type: "Pooling"
  bottom: "inception_4b/output"
  top: "inception_4c/pool"
  pooling_param {
    pool: MAX
    kernel_size: 3
    stride: 1
    pad: 1
  }
}
layer {
  name: "inception_4c/pool_proj"
  type: "Convolution"
  bottom: "inception_4c/pool"
  top: "inception_4c/pool_proj"
  param {
    lr_mult: 1
    decay_mult: 1
  }
  param {
    lr_mult: 2
    decay_mult: 0
  }
  convolution_param {
    num_output: 64
    kernel_size: 1
    weight_filler {
      type: "xavier"
      std: 0.1
    }
    bias_filler {
      type: "constant"
      value: 0.2
    }
  }
}
layer {
  name: "inception_4c/relu_pool_proj"
  type: "ReLU"
  bottom: "inception_4c/pool_proj"
  top: "inception_4c/pool_proj"
}
layer {
  name: "inception_4c/output"
  type: "Concat"
  bottom: "inception_4c/1x1"
  bottom: "inception_4c/3x3"
  bottom: "inception_4c/5x5"
  bottom: "inception_4c/pool_proj"
  top: "inception_4c/output"
}
layer {
  name: "inception_4d/1x1"
  type: "Convolution"
  bottom: "inception_4c/output"
  top: "inception_4d/1x1"
  param {
    lr_mult: 1
    decay_mult: 1
  }
  param {
    lr_mult: 2
    decay_mult: 0
  }
  convolution_param {
    num_output: 112
    kernel_size: 1
    weight_filler {
      type: "xavier"
      std: 0.03
    }
    bias_filler {
      type: "constant"
      value: 0.2
    }
  }
}
layer {
  name: "inception_4d/relu_1x1"
  type: "ReLU"
  bottom: "inception_4d/1x1"
  top: "inception_4d/1x1"
}
layer {
  name: "inception_4d/3x3_reduce"
  type: "Convolution"
  bottom: "inception_4c/output"
  top: "inception_4d/3x3_reduce"
  param {
    lr_mult: 1
    decay_mult: 1
  }
  param {
    lr_mult: 2
    decay_mult: 0
  }
  convolution_param {
    num_output: 144
    kernel_size: 1
    weight_filler {
      type: "xavier"
      std: 0.09
    }
    bias_filler {
      type: "constant"
      value: 0.2
    }
  }
}
layer {
  name: "inception_4d/relu_3x3_reduce"
  type: "ReLU"
  bottom: "inception_4d/3x3_reduce"
  top: "inception_4d/3x3_reduce"
}
layer {
  name: "inception_4d/3x3"
  type: "Convolution"
  bottom: "inception_4d/3x3_reduce"
  top: "inception_4d/3x3"
  param {
    lr_mult: 1
    decay_mult: 1
  }
  param {
    lr_mult: 2
    decay_mult: 0
  }
  convolution_param {
    num_output: 288
    pad: 1
    kernel_size: 3
    weight_filler {
      type: "xavier"
      std: 0.03
    }
    bias_filler {
      type: "constant"
      value: 0.2
    }
  }
}
layer {
  name: "inception_4d/relu_3x3"
  type: "ReLU"
  bottom: "inception_4d/3x3"
  top: "inception_4d/3x3"
}
layer {
  name: "inception_4d/5x5_reduce"
  type: "Convolution"
  bottom: "inception_4c/output"
  top: "inception_4d/5x5_reduce"
  param {
    lr_mult: 1
    decay_mult: 1
  }
  param {
    lr_mult: 2
    decay_mult: 0
  }
  convolution_param {
    num_output: 32
    kernel_size: 1
    weight_filler {
      type: "xavier"
      std: 0.2
    }
    bias_filler {
      type: "constant"
      value: 0.2
    }
  }
}
layer {
  name: "inception_4d/relu_5x5_reduce"
  type: "ReLU"
  bottom: "inception_4d/5x5_reduce"
  top: "inception_4d/5x5_reduce"
}
layer {
  name: "inception_4d/5x5"
  type: "Convolution"
  bottom: "inception_4d/5x5_reduce"
  top: "inception_4d/5x5"
  param {
    lr_mult: 1
    decay_mult: 1
  }
  param {
    lr_mult: 2
    decay_mult: 0
  }
  convolution_param {
    num_output: 64
    pad: 2
    kernel_size: 5
    weight_filler {
      type: "xavier"
      std: 0.03
    }
    bias_filler {
      type: "constant"
      value: 0.2
    }
  }
}
layer {
  name: "inception_4d/relu_5x5"
  type: "ReLU"
  bottom: "inception_4d/5x5"
  top: "inception_4d/5x5"
}
layer {
  name: "inception_4d/pool"
  type: "Pooling"
  bottom: "inception_4c/output"
  top: "inception_4d/pool"
  pooling_param {
    pool: MAX
    kernel_size: 3
    stride: 1
    pad: 1
  }
}
layer {
  name: "inception_4d/pool_proj"
  type: "Convolution"
  bottom: "inception_4d/pool"
  top: "inception_4d/pool_proj"
  param {
    lr_mult: 1
    decay_mult: 1
  }
  param {
    lr_mult: 2
    decay_mult: 0
  }
  convolution_param {
    num_output: 64
    kernel_size: 1
    weight_filler {
      type: "xavier"
      std: 0.1
    }
    bias_filler {
      type: "constant"
      value: 0.2
    }
  }
}
layer {
  name: "inception_4d/relu_pool_proj"
  type: "ReLU"
  bottom: "inception_4d/pool_proj"
  top: "inception_4d/pool_proj"
}
layer {
  name: "inception_4d/output"
  type: "Concat"
  bottom: "inception_4d/1x1"
  bottom: "inception_4d/3x3"
  bottom: "inception_4d/5x5"
  bottom: "inception_4d/pool_proj"
  top: "inception_4d/output"
}
layer {
  name: "loss2/ave_pool"
  type: "Pooling"
  bottom: "inception_4d/output"
  top: "loss2/ave_pool"
  pooling_param {
    pool: AVE
    kernel_size: 5
    stride: 3
  }
}
layer {
  name: "loss2/conv"
  type: "Convolution"
  bottom: "loss2/ave_pool"
  top: "loss2/conv"
  param {
    lr_mult: 1
    decay_mult: 1
  }
  param {
    lr_mult: 2
    decay_mult: 0
  }
  convolution_param {
    num_output: 128
    kernel_size: 1
    weight_filler {
      type: "xavier"
      std: 0.08
    }
    bias_filler {
      type: "constant"
      value: 0.2
    }
  }
}
layer {
  name: "loss2/relu_conv"
  type: "ReLU"
  bottom: "loss2/conv"
  top: "loss2/conv"
}
layer {
  name: "loss2/fc"
  type: "InnerProduct"
  bottom: "loss2/conv"
  top: "loss2/fc"
  param {
    lr_mult: 1
    decay_mult: 1
  }
  param {
    lr_mult: 2
    decay_mult: 0
  }
  inner_product_param {
    num_output: 1024
    weight_filler {
      type: "xavier"
      std: 0.02
    }
    bias_filler {
      type: "constant"
      value: 0.2
    }
  }
}
layer {
  name: "loss2/relu_fc"
  type: "ReLU"
  bottom: "loss2/fc"
  top: "loss2/fc"
}
layer {
  name: "loss2/drop_fc"
  type: "Dropout"
  bottom: "loss2/fc"
  top: "loss2/fc"
  dropout_param {
    dropout_ratio: 0.7
  }
}
layer {
  name: "loss2/classifier_plantvillage"
  type: "InnerProduct"
  bottom: "loss2/fc"
  top: "loss2/classifier_plantvillage"
  param {
    lr_mult: 1
    decay_mult: 1
  }
  param {
    lr_mult: 2
    decay_mult: 0
  }
  inner_product_param {
    num_output: 38
    weight_filler {
      type: "xavier"
      std: 0.0009765625
    }
    bias_filler {
      type: "constant"
      value: 0
    }
  }
}
layer {
  name: "inception_4e/1x1"
  type: "Convolution"
  bottom: "inception_4d/output"
  top: "inception_4e/1x1"
  param {
    lr_mult: 1
    decay_mult: 1
  }
  param {
    lr_mult: 2
    decay_mult: 0
  }
  convolution_param {
    num_output: 256
    kernel_size: 1
    weight_filler {
      type: "xavier"
      std: 0.03
    }
    bias_filler {
      type: "constant"
      value: 0.2
    }
  }
}
layer {
  name: "inception_4e/relu_1x1"
  type: "ReLU"
  bottom: "inception_4e/1x1"
  top: "inception_4e/1x1"
}
layer {
  name: "inception_4e/3x3_reduce"
  type: "Convolution"
  bottom: "inception_4d/output"
  top: "inception_4e/3x3_reduce"
  param {
    lr_mult: 1
    decay_mult: 1
  }
  param {
    lr_mult: 2
    decay_mult: 0
  }
  convolution_param {
    num_output: 160
    kernel_size: 1
    weight_filler {
      type: "xavier"
      std: 0.09
    }
    bias_filler {
      type: "constant"
      value: 0.2
    }
  }
}
layer {
  name: "inception_4e/relu_3x3_reduce"
  type: "ReLU"
  bottom: "inception_4e/3x3_reduce"
  top: "inception_4e/3x3_reduce"
}
layer {
  name: "inception_4e/3x3"
  type: "Convolution"
  bottom: "inception_4e/3x3_reduce"
  top: "inception_4e/3x3"
  param {
    lr_mult: 1
    decay_mult: 1
  }
  param {
    lr_mult: 2
    decay_mult: 0
  }
  convolution_param {
    num_output: 320
    pad: 1
    kernel_size: 3
    weight_filler {
      type: "xavier"
      std: 0.03
    }
    bias_filler {
      type: "constant"
      value: 0.2
    }
  }
}
layer {
  name: "inception_4e/relu_3x3"
  type: "ReLU"
  bottom: "inception_4e/3x3"
  top: "inception_4e/3x3"
}
layer {
  name: "inception_4e/5x5_reduce"
  type: "Convolution"
  bottom: "inception_4d/output"
  top: "inception_4e/5x5_reduce"
  param {
    lr_mult: 1
    decay_mult: 1
  }
  param {
    lr_mult: 2
    decay_mult: 0
  }
  convolution_param {
    num_output: 32
    kernel_size: 1
    weight_filler {
      type: "xavier"
      std: 0.2
    }
    bias_filler {
      type: "constant"
      value: 0.2
    }
  }
}
layer {
  name: "inception_4e/relu_5x5_reduce"
  type: "ReLU"
  bottom: "inception_4e/5x5_reduce"
  top: "inception_4e/5x5_reduce"
}
layer {
  name: "inception_4e/5x5"
  type: "Convolution"
  bottom: "inception_4e/5x5_reduce"
  top: "inception_4e/
I0403 14:59:38.063205 17934 layer_factory.hpp:77] Creating layer data
I0403 14:59:38.063837 17934 net.cpp:91] Creating Layer data
I0403 14:59:38.063869 17934 net.cpp:399] data -> data
I0403 14:59:38.063925 17934 net.cpp:399] data -> label
I0403 14:59:38.063962 17934 data_transformer.cpp:25] Loading mean file from: /home/mohanty/data/final_dataset/lmdb/grayscale-40-60/mean.binaryproto
I0403 14:59:38.066608 17937 db_lmdb.cpp:38] Opened lmdb /home/mohanty/data/final_dataset/lmdb/grayscale-40-60/test_db
I0403 14:59:38.077455 17934 data_layer.cpp:41] output data size: 24,3,224,224
I0403 14:59:38.107862 17934 net.cpp:141] Setting up data
I0403 14:59:38.107964 17934 net.cpp:148] Top shape: 24 3 224 224 (3612672)
I0403 14:59:38.108005 17934 net.cpp:148] Top shape: 24 (24)
I0403 14:59:38.108026 17934 net.cpp:156] Memory required for data: 14450784
I0403 14:59:38.108057 17934 layer_factory.hpp:77] Creating layer label_data_1_split
I0403 14:59:38.108084 17934 net.cpp:91] Creating Layer label_data_1_split
I0403 14:59:38.108104 17934 net.cpp:425] label_data_1_split <- label
I0403 14:59:38.108139 17934 net.cpp:399] label_data_1_split -> label_data_1_split_0
I0403 14:59:38.108167 17934 net.cpp:399] label_data_1_split -> label_data_1_split_1
I0403 14:59:38.108189 17934 net.cpp:399] label_data_1_split -> label_data_1_split_2
I0403 14:59:38.108211 17934 net.cpp:399] label_data_1_split -> label_data_1_split_3
I0403 14:59:38.108232 17934 net.cpp:399] label_data_1_split -> label_data_1_split_4
I0403 14:59:38.108253 17934 net.cpp:399] label_data_1_split -> label_data_1_split_5
I0403 14:59:38.108273 17934 net.cpp:399] label_data_1_split -> label_data_1_split_6
I0403 14:59:38.108294 17934 net.cpp:399] label_data_1_split -> label_data_1_split_7
I0403 14:59:38.108314 17934 net.cpp:399] label_data_1_split -> label_data_1_split_8
I0403 14:59:38.108335 17934 net.cpp:399] label_data_1_split -> label_data_1_split_9
I0403 14:59:38.108458 17934 net.cpp:141] Setting up label_data_1_split
I0403 14:59:38.108481 17934 net.cpp:148] Top shape: 24 (24)
I0403 14:59:38.108500 17934 net.cpp:148] Top shape: 24 (24)
I0403 14:59:38.108516 17934 net.cpp:148] Top shape: 24 (24)
I0403 14:59:38.108533 17934 net.cpp:148] Top shape: 24 (24)
I0403 14:59:38.108551 17934 net.cpp:148] Top shape: 24 (24)
I0403 14:59:38.108567 17934 net.cpp:148] Top shape: 24 (24)
I0403 14:59:38.108583 17934 net.cpp:148] Top shape: 24 (24)
I0403 14:59:38.108600 17934 net.cpp:148] Top shape: 24 (24)
I0403 14:59:38.108618 17934 net.cpp:148] Top shape: 24 (24)
I0403 14:59:38.108633 17934 net.cpp:148] Top shape: 24 (24)
I0403 14:59:38.108675 17934 net.cpp:156] Memory required for data: 14451744
I0403 14:59:38.108693 17934 layer_factory.hpp:77] Creating layer conv1/7x7_s2
I0403 14:59:38.108726 17934 net.cpp:91] Creating Layer conv1/7x7_s2
I0403 14:59:38.108746 17934 net.cpp:425] conv1/7x7_s2 <- data
I0403 14:59:38.108764 17934 net.cpp:399] conv1/7x7_s2 -> conv1/7x7_s2
I0403 14:59:38.253274 17934 net.cpp:141] Setting up conv1/7x7_s2
I0403 14:59:38.253377 17934 net.cpp:148] Top shape: 24 64 112 112 (19267584)
I0403 14:59:38.253396 17934 net.cpp:156] Memory required for data: 91522080
I0403 14:59:38.253427 17934 layer_factory.hpp:77] Creating layer conv1/relu_7x7
I0403 14:59:38.253453 17934 net.cpp:91] Creating Layer conv1/relu_7x7
I0403 14:59:38.253473 17934 net.cpp:425] conv1/relu_7x7 <- conv1/7x7_s2
I0403 14:59:38.253494 17934 net.cpp:386] conv1/relu_7x7 -> conv1/7x7_s2 (in-place)
I0403 14:59:38.253754 17934 net.cpp:141] Setting up conv1/relu_7x7
I0403 14:59:38.253782 17934 net.cpp:148] Top shape: 24 64 112 112 (19267584)
I0403 14:59:38.253798 17934 net.cpp:156] Memory required for data: 168592416
I0403 14:59:38.253813 17934 layer_factory.hpp:77] Creating layer pool1/3x3_s2
I0403 14:59:38.253839 17934 net.cpp:91] Creating Layer pool1/3x3_s2
I0403 14:59:38.253856 17934 net.cpp:425] pool1/3x3_s2 <- conv1/7x7_s2
I0403 14:59:38.253875 17934 net.cpp:399] pool1/3x3_s2 -> pool1/3x3_s2
I0403 14:59:38.253950 17934 net.cpp:141] Setting up pool1/3x3_s2
I0403 14:59:38.253975 17934 net.cpp:148] Top shape: 24 64 56 56 (4816896)
I0403 14:59:38.253995 17934 net.cpp:156] Memory required for data: 187860000
I0403 14:59:38.254012 17934 layer_factory.hpp:77] Creating layer pool1/norm1
I0403 14:59:38.254037 17934 net.cpp:91] Creating Layer pool1/norm1
I0403 14:59:38.254055 17934 net.cpp:425] pool1/norm1 <- pool1/3x3_s2
I0403 14:59:38.254072 17934 net.cpp:399] pool1/norm1 -> pool1/norm1
I0403 14:59:38.254357 17934 net.cpp:141] Setting up pool1/norm1
I0403 14:59:38.254385 17934 net.cpp:148] Top shape: 24 64 56 56 (4816896)
I0403 14:59:38.254401 17934 net.cpp:156] Memory required for data: 207127584
I0403 14:59:38.254416 17934 layer_factory.hpp:77] Creating layer conv2/3x3_reduce
I0403 14:59:38.254442 17934 net.cpp:91] Creating Layer conv2/3x3_reduce
I0403 14:59:38.254459 17934 net.cpp:425] conv2/3x3_reduce <- pool1/norm1
I0403 14:59:38.254478 17934 net.cpp:399] conv2/3x3_reduce -> conv2/3x3_reduce
I0403 14:59:38.255823 17934 net.cpp:141] Setting up conv2/3x3_reduce
I0403 14:59:38.255856 17934 net.cpp:148] Top shape: 24 64 56 56 (4816896)
I0403 14:59:38.255872 17934 net.cpp:156] Memory required for data: 226395168
I0403 14:59:38.255895 17934 layer_factory.hpp:77] Creating layer conv2/relu_3x3_reduce
I0403 14:59:38.255915 17934 net.cpp:91] Creating Layer conv2/relu_3x3_reduce
I0403 14:59:38.255934 17934 net.cpp:425] conv2/relu_3x3_reduce <- conv2/3x3_reduce
I0403 14:59:38.255952 17934 net.cpp:386] conv2/relu_3x3_reduce -> conv2/3x3_reduce (in-place)
I0403 14:59:38.256208 17934 net.cpp:141] Setting up conv2/relu_3x3_reduce
I0403 14:59:38.256237 17934 net.cpp:148] Top shape: 24 64 56 56 (4816896)
I0403 14:59:38.256253 17934 net.cpp:156] Memory required for data: 245662752
I0403 14:59:38.256270 17934 layer_factory.hpp:77] Creating layer conv2/3x3
I0403 14:59:38.256292 17934 net.cpp:91] Creating Layer conv2/3x3
I0403 14:59:38.256310 17934 net.cpp:425] conv2/3x3 <- conv2/3x3_reduce
I0403 14:59:38.256330 17934 net.cpp:399] conv2/3x3 -> conv2/3x3
I0403 14:59:38.258631 17934 net.cpp:141] Setting up conv2/3x3
I0403 14:59:38.258664 17934 net.cpp:148] Top shape: 24 192 56 56 (14450688)
I0403 14:59:38.258682 17934 net.cpp:156] Memory required for data: 303465504
I0403 14:59:38.258708 17934 layer_factory.hpp:77] Creating layer conv2/relu_3x3
I0403 14:59:38.258728 17934 net.cpp:91] Creating Layer conv2/relu_3x3
I0403 14:59:38.258749 17934 net.cpp:425] conv2/relu_3x3 <- conv2/3x3
I0403 14:59:38.258769 17934 net.cpp:386] conv2/relu_3x3 -> conv2/3x3 (in-place)
I0403 14:59:38.258930 17934 net.cpp:141] Setting up conv2/relu_3x3
I0403 14:59:38.258958 17934 net.cpp:148] Top shape: 24 192 56 56 (14450688)
I0403 14:59:38.259001 17934 net.cpp:156] Memory required for data: 361268256
I0403 14:59:38.259018 17934 layer_factory.hpp:77] Creating layer conv2/norm2
I0403 14:59:38.259038 17934 net.cpp:91] Creating Layer conv2/norm2
I0403 14:59:38.259055 17934 net.cpp:425] conv2/norm2 <- conv2/3x3
I0403 14:59:38.259074 17934 net.cpp:399] conv2/norm2 -> conv2/norm2
I0403 14:59:38.259368 17934 net.cpp:141] Setting up conv2/norm2
I0403 14:59:38.259397 17934 net.cpp:148] Top shape: 24 192 56 56 (14450688)
I0403 14:59:38.259412 17934 net.cpp:156] Memory required for data: 419071008
I0403 14:59:38.259428 17934 layer_factory.hpp:77] Creating layer pool2/3x3_s2
I0403 14:59:38.259445 17934 net.cpp:91] Creating Layer pool2/3x3_s2
I0403 14:59:38.259461 17934 net.cpp:425] pool2/3x3_s2 <- conv2/norm2
I0403 14:59:38.259480 17934 net.cpp:399] pool2/3x3_s2 -> pool2/3x3_s2
I0403 14:59:38.259529 17934 net.cpp:141] Setting up pool2/3x3_s2
I0403 14:59:38.259555 17934 net.cpp:148] Top shape: 24 192 28 28 (3612672)
I0403 14:59:38.259570 17934 net.cpp:156] Memory required for data: 433521696
I0403 14:59:38.259584 17934 layer_factory.hpp:77] Creating layer pool2/3x3_s2_pool2/3x3_s2_0_split
I0403 14:59:38.259603 17934 net.cpp:91] Creating Layer pool2/3x3_s2_pool2/3x3_s2_0_split
I0403 14:59:38.259618 17934 net.cpp:425] pool2/3x3_s2_pool2/3x3_s2_0_split <- pool2/3x3_s2
I0403 14:59:38.259636 17934 net.cpp:399] pool2/3x3_s2_pool2/3x3_s2_0_split -> pool2/3x3_s2_pool2/3x3_s2_0_split_0
I0403 14:59:38.259656 17934 net.cpp:399] pool2/3x3_s2_pool2/3x3_s2_0_split -> pool2/3x3_s2_pool2/3x3_s2_0_split_1
I0403 14:59:38.259675 17934 net.cpp:399] pool2/3x3_s2_pool2/3x3_s2_0_split -> pool2/3x3_s2_pool2/3x3_s2_0_split_2
I0403 14:59:38.259695 17934 net.cpp:399] pool2/3x3_s2_pool2/3x3_s2_0_split -> pool2/3x3_s2_pool2/3x3_s2_0_split_3
I0403 14:59:38.259757 17934 net.cpp:141] Setting up pool2/3x3_s2_pool2/3x3_s2_0_split
I0403 14:59:38.259780 17934 net.cpp:148] Top shape: 24 192 28 28 (3612672)
I0403 14:59:38.259798 17934 net.cpp:148] Top shape: 24 192 28 28 (3612672)
I0403 14:59:38.259814 17934 net.cpp:148] Top shape: 24 192 28 28 (3612672)
I0403 14:59:38.259830 17934 net.cpp:148] Top shape: 24 192 28 28 (3612672)
I0403 14:59:38.259845 17934 net.cpp:156] Memory required for data: 491324448
I0403 14:59:38.259860 17934 layer_factory.hpp:77] Creating layer inception_3a/1x1
I0403 14:59:38.259881 17934 net.cpp:91] Creating Layer inception_3a/1x1
I0403 14:59:38.259897 17934 net.cpp:425] inception_3a/1x1 <- pool2/3x3_s2_pool2/3x3_s2_0_split_0
I0403 14:59:38.259917 17934 net.cpp:399] inception_3a/1x1 -> inception_3a/1x1
I0403 14:59:38.261483 17934 net.cpp:141] Setting up inception_3a/1x1
I0403 14:59:38.261514 17934 net.cpp:148] Top shape: 24 64 28 28 (1204224)
I0403 14:59:38.261533 17934 net.cpp:156] Memory required for data: 496141344
I0403 14:59:38.261553 17934 layer_factory.hpp:77] Creating layer inception_3a/relu_1x1
I0403 14:59:38.261570 17934 net.cpp:91] Creating Layer inception_3a/relu_1x1
I0403 14:59:38.261586 17934 net.cpp:425] inception_3a/relu_1x1 <- inception_3a/1x1
I0403 14:59:38.261606 17934 net.cpp:386] inception_3a/relu_1x1 -> inception_3a/1x1 (in-place)
I0403 14:59:38.261783 17934 net.cpp:141] Setting up inception_3a/relu_1x1
I0403 14:59:38.261811 17934 net.cpp:148] Top shape: 24 64 28 28 (1204224)
I0403 14:59:38.261827 17934 net.cpp:156] Memory required for data: 500958240
I0403 14:59:38.261843 17934 layer_factory.hpp:77] Creating layer inception_3a/3x3_reduce
I0403 14:59:38.261868 17934 net.cpp:91] Creating Layer inception_3a/3x3_reduce
I0403 14:59:38.261888 17934 net.cpp:425] inception_3a/3x3_reduce <- pool2/3x3_s2_pool2/3x3_s2_0_split_1
I0403 14:59:38.261909 17934 net.cpp:399] inception_3a/3x3_reduce -> inception_3a/3x3_reduce
I0403 14:59:38.263641 17934 net.cpp:141] Setting up inception_3a/3x3_reduce
I0403 14:59:38.263674 17934 net.cpp:148] Top shape: 24 96 28 28 (1806336)
I0403 14:59:38.263690 17934 net.cpp:156] Memory required for data: 508183584
I0403 14:59:38.263712 17934 layer_factory.hpp:77] Creating layer inception_3a/relu_3x3_reduce
I0403 14:59:38.263751 17934 net.cpp:91] Creating Layer inception_3a/relu_3x3_reduce
I0403 14:59:38.263772 17934 net.cpp:425] inception_3a/relu_3x3_reduce <- inception_3a/3x3_reduce
I0403 14:59:38.263788 17934 net.cpp:386] inception_3a/relu_3x3_reduce -> inception_3a/3x3_reduce (in-place)
I0403 14:59:38.263973 17934 net.cpp:141] Setting up inception_3a/relu_3x3_reduce
I0403 14:59:38.264006 17934 net.cpp:148] Top shape: 24 96 28 28 (1806336)
I0403 14:59:38.264024 17934 net.cpp:156] Memory required for data: 515408928
I0403 14:59:38.264039 17934 layer_factory.hpp:77] Creating layer inception_3a/3x3
I0403 14:59:38.264065 17934 net.cpp:91] Creating Layer inception_3a/3x3
I0403 14:59:38.264082 17934 net.cpp:425] inception_3a/3x3 <- inception_3a/3x3_reduce
I0403 14:59:38.264103 17934 net.cpp:399] inception_3a/3x3 -> inception_3a/3x3
I0403 14:59:38.265772 17934 net.cpp:141] Setting up inception_3a/3x3
I0403 14:59:38.265802 17934 net.cpp:148] Top shape: 24 128 28 28 (2408448)
I0403 14:59:38.265818 17934 net.cpp:156] Memory required for data: 525042720
I0403 14:59:38.265838 17934 layer_factory.hpp:77] Creating layer inception_3a/relu_3x3
I0403 14:59:38.265861 17934 net.cpp:91] Creating Layer inception_3a/relu_3x3
I0403 14:59:38.265877 17934 net.cpp:425] inception_3a/relu_3x3 <- inception_3a/3x3
I0403 14:59:38.265897 17934 net.cpp:386] inception_3a/relu_3x3 -> inception_3a/3x3 (in-place)
I0403 14:59:38.266182 17934 net.cpp:141] Setting up inception_3a/relu_3x3
I0403 14:59:38.266213 17934 net.cpp:148] Top shape: 24 128 28 28 (2408448)
I0403 14:59:38.266230 17934 net.cpp:156] Memory required for data: 534676512
I0403 14:59:38.266247 17934 layer_factory.hpp:77] Creating layer inception_3a/5x5_reduce
I0403 14:59:38.266269 17934 net.cpp:91] Creating Layer inception_3a/5x5_reduce
I0403 14:59:38.266289 17934 net.cpp:425] inception_3a/5x5_reduce <- pool2/3x3_s2_pool2/3x3_s2_0_split_2
I0403 14:59:38.266312 17934 net.cpp:399] inception_3a/5x5_reduce -> inception_3a/5x5_reduce
I0403 14:59:38.267282 17934 net.cpp:141] Setting up inception_3a/5x5_reduce
I0403 14:59:38.267312 17934 net.cpp:148] Top shape: 24 16 28 28 (301056)
I0403 14:59:38.267328 17934 net.cpp:156] Memory required for data: 535880736
I0403 14:59:38.267348 17934 layer_factory.hpp:77] Creating layer inception_3a/relu_5x5_reduce
I0403 14:59:38.267369 17934 net.cpp:91] Creating Layer inception_3a/relu_5x5_reduce
I0403 14:59:38.267387 17934 net.cpp:425] inception_3a/relu_5x5_reduce <- inception_3a/5x5_reduce
I0403 14:59:38.267406 17934 net.cpp:386] inception_3a/relu_5x5_reduce -> inception_3a/5x5_reduce (in-place)
I0403 14:59:38.267709 17934 net.cpp:141] Setting up inception_3a/relu_5x5_reduce
I0403 14:59:38.267736 17934 net.cpp:148] Top shape: 24 16 28 28 (301056)
I0403 14:59:38.267752 17934 net.cpp:156] Memory required for data: 537084960
I0403 14:59:38.267768 17934 layer_factory.hpp:77] Creating layer inception_3a/5x5
I0403 14:59:38.267793 17934 net.cpp:91] Creating Layer inception_3a/5x5
I0403 14:59:38.267812 17934 net.cpp:425] inception_3a/5x5 <- inception_3a/5x5_reduce
I0403 14:59:38.267830 17934 net.cpp:399] inception_3a/5x5 -> inception_3a/5x5
I0403 14:59:38.268849 17934 net.cpp:141] Setting up inception_3a/5x5
I0403 14:59:38.268879 17934 net.cpp:148] Top shape: 24 32 28 28 (602112)
I0403 14:59:38.268896 17934 net.cpp:156] Memory required for data: 539493408
I0403 14:59:38.268916 17934 layer_factory.hpp:77] Creating layer inception_3a/relu_5x5
I0403 14:59:38.268935 17934 net.cpp:91] Creating Layer inception_3a/relu_5x5
I0403 14:59:38.268954 17934 net.cpp:425] inception_3a/relu_5x5 <- inception_3a/5x5
I0403 14:59:38.268975 17934 net.cpp:386] inception_3a/relu_5x5 -> inception_3a/5x5 (in-place)
I0403 14:59:38.269160 17934 net.cpp:141] Setting up inception_3a/relu_5x5
I0403 14:59:38.269187 17934 net.cpp:148] Top shape: 24 32 28 28 (602112)
I0403 14:59:38.269202 17934 net.cpp:156] Memory required for data: 541901856
I0403 14:59:38.269217 17934 layer_factory.hpp:77] Creating layer inception_3a/pool
I0403 14:59:38.269238 17934 net.cpp:91] Creating Layer inception_3a/pool
I0403 14:59:38.269268 17934 net.cpp:425] inception_3a/pool <- pool2/3x3_s2_pool2/3x3_s2_0_split_3
I0403 14:59:38.269287 17934 net.cpp:399] inception_3a/pool -> inception_3a/pool
I0403 14:59:38.269346 17934 net.cpp:141] Setting up inception_3a/pool
I0403 14:59:38.269371 17934 net.cpp:148] Top shape: 24 192 28 28 (3612672)
I0403 14:59:38.269387 17934 net.cpp:156] Memory required for data: 556352544
I0403 14:59:38.269402 17934 layer_factory.hpp:77] Creating layer inception_3a/pool_proj
I0403 14:59:38.269423 17934 net.cpp:91] Creating Layer inception_3a/pool_proj
I0403 14:59:38.269440 17934 net.cpp:425] inception_3a/pool_proj <- inception_3a/pool
I0403 14:59:38.269462 17934 net.cpp:399] inception_3a/pool_proj -> inception_3a/pool_proj
I0403 14:59:38.270434 17934 net.cpp:141] Setting up inception_3a/pool_proj
I0403 14:59:38.270467 17934 net.cpp:148] Top shape: 24 32 28 28 (602112)
I0403 14:59:38.270483 17934 net.cpp:156] Memory required for data: 558760992
I0403 14:59:38.270505 17934 layer_factory.hpp:77] Creating layer inception_3a/relu_pool_proj
I0403 14:59:38.270527 17934 net.cpp:91] Creating Layer inception_3a/relu_pool_proj
I0403 14:59:38.270545 17934 net.cpp:425] inception_3a/relu_pool_proj <- inception_3a/pool_proj
I0403 14:59:38.270561 17934 net.cpp:386] inception_3a/relu_pool_proj -> inception_3a/pool_proj (in-place)
I0403 14:59:38.270840 17934 net.cpp:141] Setting up inception_3a/relu_pool_proj
I0403 14:59:38.270866 17934 net.cpp:148] Top shape: 24 32 28 28 (602112)
I0403 14:59:38.270882 17934 net.cpp:156] Memory required for data: 561169440
I0403 14:59:38.270897 17934 layer_factory.hpp:77] Creating layer inception_3a/output
I0403 14:59:38.270915 17934 net.cpp:91] Creating Layer inception_3a/output
I0403 14:59:38.270931 17934 net.cpp:425] inception_3a/output <- inception_3a/1x1
I0403 14:59:38.270947 17934 net.cpp:425] inception_3a/output <- inception_3a/3x3
I0403 14:59:38.270963 17934 net.cpp:425] inception_3a/output <- inception_3a/5x5
I0403 14:59:38.270979 17934 net.cpp:425] inception_3a/output <- inception_3a/pool_proj
I0403 14:59:38.271004 17934 net.cpp:399] inception_3a/output -> inception_3a/output
I0403 14:59:38.271055 17934 net.cpp:141] Setting up inception_3a/output
I0403 14:59:38.271080 17934 net.cpp:148] Top shape: 24 256 28 28 (4816896)
I0403 14:59:38.271095 17934 net.cpp:156] Memory required for data: 580437024
I0403 14:59:38.271109 17934 layer_factory.hpp:77] Creating layer inception_3a/output_inception_3a/output_0_split
I0403 14:59:38.271126 17934 net.cpp:91] Creating Layer inception_3a/output_inception_3a/output_0_split
I0403 14:59:38.271142 17934 net.cpp:425] inception_3a/output_inception_3a/output_0_split <- inception_3a/output
I0403 14:59:38.271162 17934 net.cpp:399] inception_3a/output_inception_3a/output_0_split -> inception_3a/output_inception_3a/output_0_split_0
I0403 14:59:38.271183 17934 net.cpp:399] inception_3a/output_inception_3a/output_0_split -> inception_3a/output_inception_3a/output_0_split_1
I0403 14:59:38.271205 17934 net.cpp:399] inception_3a/output_inception_3a/output_0_split -> inception_3a/output_inception_3a/output_0_split_2
I0403 14:59:38.271226 17934 net.cpp:399] inception_3a/output_inception_3a/output_0_split -> inception_3a/output_inception_3a/output_0_split_3
I0403 14:59:38.271306 17934 net.cpp:141] Setting up inception_3a/output_inception_3a/output_0_split
I0403 14:59:38.271328 17934 net.cpp:148] Top shape: 24 256 28 28 (4816896)
I0403 14:59:38.271347 17934 net.cpp:148] Top shape: 24 256 28 28 (4816896)
I0403 14:59:38.271363 17934 net.cpp:148] Top shape: 24 256 28 28 (4816896)
I0403 14:59:38.271378 17934 net.cpp:148] Top shape: 24 256 28 28 (4816896)
I0403 14:59:38.271392 17934 net.cpp:156] Memory required for data: 657507360
I0403 14:59:38.271407 17934 layer_factory.hpp:77] Creating layer inception_3b/1x1
I0403 14:59:38.271430 17934 net.cpp:91] Creating Layer inception_3b/1x1
I0403 14:59:38.271447 17934 net.cpp:425] inception_3b/1x1 <- inception_3a/output_inception_3a/output_0_split_0
I0403 14:59:38.271469 17934 net.cpp:399] inception_3b/1x1 -> inception_3b/1x1
I0403 14:59:38.272613 17934 net.cpp:141] Setting up inception_3b/1x1
I0403 14:59:38.272653 17934 net.cpp:148] Top shape: 24 128 28 28 (2408448)
I0403 14:59:38.272670 17934 net.cpp:156] Memory required for data: 667141152
I0403 14:59:38.272689 17934 layer_factory.hpp:77] Creating layer inception_3b/relu_1x1
I0403 14:59:38.272709 17934 net.cpp:91] Creating Layer inception_3b/relu_1x1
I0403 14:59:38.272727 17934 net.cpp:425] inception_3b/relu_1x1 <- inception_3b/1x1
I0403 14:59:38.272748 17934 net.cpp:386] inception_3b/relu_1x1 -> inception_3b/1x1 (in-place)
I0403 14:59:38.272924 17934 net.cpp:141] Setting up inception_3b/relu_1x1
I0403 14:59:38.272951 17934 net.cpp:148] Top shape: 24 128 28 28 (2408448)
I0403 14:59:38.272969 17934 net.cpp:156] Memory required for data: 676774944
I0403 14:59:38.272984 17934 layer_factory.hpp:77] Creating layer inception_3b/3x3_reduce
I0403 14:59:38.273013 17934 net.cpp:91] Creating Layer inception_3b/3x3_reduce
I0403 14:59:38.273035 17934 net.cpp:425] inception_3b/3x3_reduce <- inception_3a/output_inception_3a/output_0_split_1
I0403 14:59:38.273057 17934 net.cpp:399] inception_3b/3x3_reduce -> inception_3b/3x3_reduce
I0403 14:59:38.274211 17934 net.cpp:141] Setting up inception_3b/3x3_reduce
I0403 14:59:38.274241 17934 net.cpp:148] Top shape: 24 128 28 28 (2408448)
I0403 14:59:38.274258 17934 net.cpp:156] Memory required for data: 686408736
I0403 14:59:38.274277 17934 layer_factory.hpp:77] Creating layer inception_3b/relu_3x3_reduce
I0403 14:59:38.274296 17934 net.cpp:91] Creating Layer inception_3b/relu_3x3_reduce
I0403 14:59:38.274313 17934 net.cpp:425] inception_3b/relu_3x3_reduce <- inception_3b/3x3_reduce
I0403 14:59:38.274335 17934 net.cpp:386] inception_3b/relu_3x3_reduce -> inception_3b/3x3_reduce (in-place)
I0403 14:59:38.274509 17934 net.cpp:141] Setting up inception_3b/relu_3x3_reduce
I0403 14:59:38.274535 17934 net.cpp:148] Top shape: 24 128 28 28 (2408448)
I0403 14:59:38.274550 17934 net.cpp:156] Memory required for data: 696042528
I0403 14:59:38.274565 17934 layer_factory.hpp:77] Creating layer inception_3b/3x3
I0403 14:59:38.274591 17934 net.cpp:91] Creating Layer inception_3b/3x3
I0403 14:59:38.274610 17934 net.cpp:425] inception_3b/3x3 <- inception_3b/3x3_reduce
I0403 14:59:38.274631 17934 net.cpp:399] inception_3b/3x3 -> inception_3b/3x3
I0403 14:59:38.277629 17934 net.cpp:141] Setting up inception_3b/3x3
I0403 14:59:38.277659 17934 net.cpp:148] Top shape: 24 192 28 28 (3612672)
I0403 14:59:38.277676 17934 net.cpp:156] Memory required for data: 710493216
I0403 14:59:38.277696 17934 layer_factory.hpp:77] Creating layer inception_3b/relu_3x3
I0403 14:59:38.277719 17934 net.cpp:91] Creating Layer inception_3b/relu_3x3
I0403 14:59:38.277736 17934 net.cpp:425] inception_3b/relu_3x3 <- inception_3b/3x3
I0403 14:59:38.277755 17934 net.cpp:386] inception_3b/relu_3x3 -> inception_3b/3x3 (in-place)
I0403 14:59:38.278039 17934 net.cpp:141] Setting up inception_3b/relu_3x3
I0403 14:59:38.278067 17934 net.cpp:148] Top shape: 24 192 28 28 (3612672)
I0403 14:59:38.278084 17934 net.cpp:156] Memory required for data: 724943904
I0403 14:59:38.278098 17934 layer_factory.hpp:77] Creating layer inception_3b/5x5_reduce
I0403 14:59:38.278123 17934 net.cpp:91] Creating Layer inception_3b/5x5_reduce
I0403 14:59:38.278141 17934 net.cpp:425] inception_3b/5x5_reduce <- inception_3a/output_inception_3a/output_0_split_2
I0403 14:59:38.278163 17934 net.cpp:399] inception_3b/5x5_reduce -> inception_3b/5x5_reduce
I0403 14:59:38.279176 17934 net.cpp:141] Setting up inception_3b/5x5_reduce
I0403 14:59:38.279206 17934 net.cpp:148] Top shape: 24 32 28 28 (602112)
I0403 14:59:38.279222 17934 net.cpp:156] Memory required for data: 727352352
I0403 14:59:38.279242 17934 layer_factory.hpp:77] Creating layer inception_3b/relu_5x5_reduce
I0403 14:59:38.279263 17934 net.cpp:91] Creating Layer inception_3b/relu_5x5_reduce
I0403 14:59:38.279283 17934 net.cpp:425] inception_3b/relu_5x5_reduce <- inception_3b/5x5_reduce
I0403 14:59:38.279300 17934 net.cpp:386] inception_3b/relu_5x5_reduce -> inception_3b/5x5_reduce (in-place)
I0403 14:59:38.279495 17934 net.cpp:141] Setting up inception_3b/relu_5x5_reduce
I0403 14:59:38.279525 17934 net.cpp:148] Top shape: 24 32 28 28 (602112)
I0403 14:59:38.279541 17934 net.cpp:156] Memory required for data: 729760800
I0403 14:59:38.279557 17934 layer_factory.hpp:77] Creating layer inception_3b/5x5
I0403 14:59:38.279578 17934 net.cpp:91] Creating Layer inception_3b/5x5
I0403 14:59:38.279597 17934 net.cpp:425] inception_3b/5x5 <- inception_3b/5x5_reduce
I0403 14:59:38.279642 17934 net.cpp:399] inception_3b/5x5 -> inception_3b/5x5
I0403 14:59:38.281664 17934 net.cpp:141] Setting up inception_3b/5x5
I0403 14:59:38.281695 17934 net.cpp:148] Top shape: 24 96 28 28 (1806336)
I0403 14:59:38.281713 17934 net.cpp:156] Memory required for data: 736986144
I0403 14:59:38.281731 17934 layer_factory.hpp:77] Creating layer inception_3b/relu_5x5
I0403 14:59:38.281749 17934 net.cpp:91] Creating Layer inception_3b/relu_5x5
I0403 14:59:38.281765 17934 net.cpp:425] inception_3b/relu_5x5 <- inception_3b/5x5
I0403 14:59:38.281786 17934 net.cpp:386] inception_3b/relu_5x5 -> inception_3b/5x5 (in-place)
I0403 14:59:38.281981 17934 net.cpp:141] Setting up inception_3b/relu_5x5
I0403 14:59:38.282012 17934 net.cpp:148] Top shape: 24 96 28 28 (1806336)
I0403 14:59:38.282028 17934 net.cpp:156] Memory required for data: 744211488
I0403 14:59:38.282043 17934 layer_factory.hpp:77] Creating layer inception_3b/pool
I0403 14:59:38.282061 17934 net.cpp:91] Creating Layer inception_3b/pool
I0403 14:59:38.282078 17934 net.cpp:425] inception_3b/pool <- inception_3a/output_inception_3a/output_0_split_3
I0403 14:59:38.282097 17934 net.cpp:399] inception_3b/pool -> inception_3b/pool
I0403 14:59:38.282156 17934 net.cpp:141] Setting up inception_3b/pool
I0403 14:59:38.282181 17934 net.cpp:148] Top shape: 24 256 28 28 (4816896)
I0403 14:59:38.282196 17934 net.cpp:156] Memory required for data: 763479072
I0403 14:59:38.282210 17934 layer_factory.hpp:77] Creating layer inception_3b/pool_proj
I0403 14:59:38.282233 17934 net.cpp:91] Creating Layer inception_3b/pool_proj
I0403 14:59:38.282258 17934 net.cpp:425] inception_3b/pool_proj <- inception_3b/pool
I0403 14:59:38.282280 17934 net.cpp:399] inception_3b/pool_proj -> inception_3b/pool_proj
I0403 14:59:38.283350 17934 net.cpp:141] Setting up inception_3b/pool_proj
I0403 14:59:38.283382 17934 net.cpp:148] Top shape: 24 64 28 28 (1204224)
I0403 14:59:38.283401 17934 net.cpp:156] Memory required for data: 768295968
I0403 14:59:38.283421 17934 layer_factory.hpp:77] Creating layer inception_3b/relu_pool_proj
I0403 14:59:38.283440 17934 net.cpp:91] Creating Layer inception_3b/relu_pool_proj
I0403 14:59:38.283457 17934 net.cpp:425] inception_3b/relu_pool_proj <- inception_3b/pool_proj
I0403 14:59:38.283476 17934 net.cpp:386] inception_3b/relu_pool_proj -> inception_3b/pool_proj (in-place)
I0403 14:59:38.283879 17934 net.cpp:141] Setting up inception_3b/relu_pool_proj
I0403 14:59:38.283907 17934 net.cpp:148] Top shape: 24 64 28 28 (1204224)
I0403 14:59:38.283922 17934 net.cpp:156] Memory required for data: 773112864
I0403 14:59:38.283938 17934 layer_factory.hpp:77] Creating layer inception_3b/output
I0403 14:59:38.283959 17934 net.cpp:91] Creating Layer inception_3b/output
I0403 14:59:38.283977 17934 net.cpp:425] inception_3b/output <- inception_3b/1x1
I0403 14:59:38.284014 17934 net.cpp:425] inception_3b/output <- inception_3b/3x3
I0403 14:59:38.284034 17934 net.cpp:425] inception_3b/output <- inception_3b/5x5
I0403 14:59:38.284051 17934 net.cpp:425] inception_3b/output <- inception_3b/pool_proj
I0403 14:59:38.284068 17934 net.cpp:399] inception_3b/output -> inception_3b/output
I0403 14:59:38.284116 17934 net.cpp:141] Setting up inception_3b/output
I0403 14:59:38.284140 17934 net.cpp:148] Top shape: 24 480 28 28 (9031680)
I0403 14:59:38.284155 17934 net.cpp:156] Memory required for data: 809239584
I0403 14:59:38.284170 17934 layer_factory.hpp:77] Creating layer pool3/3x3_s2
I0403 14:59:38.284188 17934 net.cpp:91] Creating Layer pool3/3x3_s2
I0403 14:59:38.284204 17934 net.cpp:425] pool3/3x3_s2 <- inception_3b/output
I0403 14:59:38.284240 17934 net.cpp:399] pool3/3x3_s2 -> pool3/3x3_s2
I0403 14:59:38.284301 17934 net.cpp:141] Setting up pool3/3x3_s2
I0403 14:59:38.284325 17934 net.cpp:148] Top shape: 24 480 14 14 (2257920)
I0403 14:59:38.284339 17934 net.cpp:156] Memory required for data: 818271264
I0403 14:59:38.284355 17934 layer_factory.hpp:77] Creating layer pool3/3x3_s2_pool3/3x3_s2_0_split
I0403 14:59:38.284375 17934 net.cpp:91] Creating Layer pool3/3x3_s2_pool3/3x3_s2_0_split
I0403 14:59:38.284391 17934 net.cpp:425] pool3/3x3_s2_pool3/3x3_s2_0_split <- pool3/3x3_s2
I0403 14:59:38.284411 17934 net.cpp:399] pool3/3x3_s2_pool3/3x3_s2_0_split -> pool3/3x3_s2_pool3/3x3_s2_0_split_0
I0403 14:59:38.284432 17934 net.cpp:399] pool3/3x3_s2_pool3/3x3_s2_0_split -> pool3/3x3_s2_pool3/3x3_s2_0_split_1
I0403 14:59:38.284452 17934 net.cpp:399] pool3/3x3_s2_pool3/3x3_s2_0_split -> pool3/3x3_s2_pool3/3x3_s2_0_split_2
I0403 14:59:38.284471 17934 net.cpp:399] pool3/3x3_s2_pool3/3x3_s2_0_split -> pool3/3x3_s2_pool3/3x3_s2_0_split_3
I0403 14:59:38.284550 17934 net.cpp:141] Setting up pool3/3x3_s2_pool3/3x3_s2_0_split
I0403 14:59:38.284576 17934 net.cpp:148] Top shape: 24 480 14 14 (2257920)
I0403 14:59:38.284595 17934 net.cpp:148] Top shape: 24 480 14 14 (2257920)
I0403 14:59:38.284611 17934 net.cpp:148] Top shape: 24 480 14 14 (2257920)
I0403 14:59:38.284627 17934 net.cpp:148] Top shape: 24 480 14 14 (2257920)
I0403 14:59:38.284641 17934 net.cpp:156] Memory required for data: 854397984
I0403 14:59:38.284657 17934 layer_factory.hpp:77] Creating layer inception_4a/1x1
I0403 14:59:38.284677 17934 net.cpp:91] Creating Layer inception_4a/1x1
I0403 14:59:38.284693 17934 net.cpp:425] inception_4a/1x1 <- pool3/3x3_s2_pool3/3x3_s2_0_split_0
I0403 14:59:38.284714 17934 net.cpp:399] inception_4a/1x1 -> inception_4a/1x1
I0403 14:59:38.286319 17934 net.cpp:141] Setting up inception_4a/1x1
I0403 14:59:38.286350 17934 net.cpp:148] Top shape: 24 192 14 14 (903168)
I0403 14:59:38.286368 17934 net.cpp:156] Memory required for data: 858010656
I0403 14:59:38.286388 17934 layer_factory.hpp:77] Creating layer inception_4a/relu_1x1
I0403 14:59:38.286407 17934 net.cpp:91] Creating Layer inception_4a/relu_1x1
I0403 14:59:38.286423 17934 net.cpp:425] inception_4a/relu_1x1 <- inception_4a/1x1
I0403 14:59:38.286442 17934 net.cpp:386] inception_4a/relu_1x1 -> inception_4a/1x1 (in-place)
I0403 14:59:38.286623 17934 net.cpp:141] Setting up inception_4a/relu_1x1
I0403 14:59:38.286650 17934 net.cpp:148] Top shape: 24 192 14 14 (903168)
I0403 14:59:38.286665 17934 net.cpp:156] Memory required for data: 861623328
I0403 14:59:38.286681 17934 layer_factory.hpp:77] Creating layer inception_4a/3x3_reduce
I0403 14:59:38.286705 17934 net.cpp:91] Creating Layer inception_4a/3x3_reduce
I0403 14:59:38.286722 17934 net.cpp:425] inception_4a/3x3_reduce <- pool3/3x3_s2_pool3/3x3_s2_0_split_1
I0403 14:59:38.286744 17934 net.cpp:399] inception_4a/3x3_reduce -> inception_4a/3x3_reduce
I0403 14:59:38.288080 17934 net.cpp:141] Setting up inception_4a/3x3_reduce
I0403 14:59:38.288112 17934 net.cpp:148] Top shape: 24 96 14 14 (451584)
I0403 14:59:38.288130 17934 net.cpp:156] Memory required for data: 863429664
I0403 14:59:38.288156 17934 layer_factory.hpp:77] Creating layer inception_4a/relu_3x3_reduce
I0403 14:59:38.288177 17934 net.cpp:91] Creating Layer inception_4a/relu_3x3_reduce
I0403 14:59:38.288193 17934 net.cpp:425] inception_4a/relu_3x3_reduce <- inception_4a/3x3_reduce
I0403 14:59:38.288213 17934 net.cpp:386] inception_4a/relu_3x3_reduce -> inception_4a/3x3_reduce (in-place)
I0403 14:59:38.288389 17934 net.cpp:141] Setting up inception_4a/relu_3x3_reduce
I0403 14:59:38.288417 17934 net.cpp:148] Top shape: 24 96 14 14 (451584)
I0403 14:59:38.288434 17934 net.cpp:156] Memory required for data: 865236000
I0403 14:59:38.288449 17934 layer_factory.hpp:77] Creating layer inception_4a/3x3
I0403 14:59:38.288471 17934 net.cpp:91] Creating Layer inception_4a/3x3
I0403 14:59:38.288489 17934 net.cpp:425] inception_4a/3x3 <- inception_4a/3x3_reduce
I0403 14:59:38.288511 17934 net.cpp:399] inception_4a/3x3 -> inception_4a/3x3
I0403 14:59:38.291266 17934 net.cpp:141] Setting up inception_4a/3x3
I0403 14:59:38.291297 17934 net.cpp:148] Top shape: 24 208 14 14 (978432)
I0403 14:59:38.291314 17934 net.cpp:156] Memory required for data: 869149728
I0403 14:59:38.291333 17934 layer_factory.hpp:77] Creating layer inception_4a/relu_3x3
I0403 14:59:38.291353 17934 net.cpp:91] Creating Layer inception_4a/relu_3x3
I0403 14:59:38.291370 17934 net.cpp:425] inception_4a/relu_3x3 <- inception_4a/3x3
I0403 14:59:38.291391 17934 net.cpp:386] inception_4a/relu_3x3 -> inception_4a/3x3 (in-place)
I0403 14:59:38.291679 17934 net.cpp:141] Setting up inception_4a/relu_3x3
I0403 14:59:38.291709 17934 net.cpp:148] Top shape: 24 208 14 14 (978432)
I0403 14:59:38.291725 17934 net.cpp:156] Memory required for data: 873063456
I0403 14:59:38.291741 17934 layer_factory.hpp:77] Creating layer inception_4a/5x5_reduce
I0403 14:59:38.291765 17934 net.cpp:91] Creating Layer inception_4a/5x5_reduce
I0403 14:59:38.291785 17934 net.cpp:425] inception_4a/5x5_reduce <- pool3/3x3_s2_pool3/3x3_s2_0_split_2
I0403 14:59:38.291806 17934 net.cpp:399] inception_4a/5x5_reduce -> inception_4a/5x5_reduce
I0403 14:59:38.292858 17934 net.cpp:141] Setting up inception_4a/5x5_reduce
I0403 14:59:38.292888 17934 net.cpp:148] Top shape: 24 16 14 14 (75264)
I0403 14:59:38.292904 17934 net.cpp:156] Memory required for data: 873364512
I0403 14:59:38.292924 17934 layer_factory.hpp:77] Creating layer inception_4a/relu_5x5_reduce
I0403 14:59:38.292950 17934 net.cpp:91] Creating Layer inception_4a/relu_5x5_reduce
I0403 14:59:38.292973 17934 net.cpp:425] inception_4a/relu_5x5_reduce <- inception_4a/5x5_reduce
I0403 14:59:38.293001 17934 net.cpp:386] inception_4a/relu_5x5_reduce -> inception_4a/5x5_reduce (in-place)
I0403 14:59:38.293190 17934 net.cpp:141] Setting up inception_4a/relu_5x5_reduce
I0403 14:59:38.293216 17934 net.cpp:148] Top shape: 24 16 14 14 (75264)
I0403 14:59:38.293232 17934 net.cpp:156] Memory required for data: 873665568
I0403 14:59:38.293248 17934 layer_factory.hpp:77] Creating layer inception_4a/5x5
I0403 14:59:38.293272 17934 net.cpp:91] Creating Layer inception_4a/5x5
I0403 14:59:38.293292 17934 net.cpp:425] inception_4a/5x5 <- inception_4a/5x5_reduce
I0403 14:59:38.293314 17934 net.cpp:399] inception_4a/5x5 -> inception_4a/5x5
I0403 14:59:38.294435 17934 net.cpp:141] Setting up inception_4a/5x5
I0403 14:59:38.294464 17934 net.cpp:148] Top shape: 24 48 14 14 (225792)
I0403 14:59:38.294481 17934 net.cpp:156] Memory required for data: 874568736
I0403 14:59:38.294500 17934 layer_factory.hpp:77] Creating layer inception_4a/relu_5x5
I0403 14:59:38.294522 17934 net.cpp:91] Creating Layer inception_4a/relu_5x5
I0403 14:59:38.294540 17934 net.cpp:425] inception_4a/relu_5x5 <- inception_4a/5x5
I0403 14:59:38.294559 17934 net.cpp:386] inception_4a/relu_5x5 -> inception_4a/5x5 (in-place)
I0403 14:59:38.294741 17934 net.cpp:141] Setting up inception_4a/relu_5x5
I0403 14:59:38.294770 17934 net.cpp:148] Top shape: 24 48 14 14 (225792)
I0403 14:59:38.294786 17934 net.cpp:156] Memory required for data: 875471904
I0403 14:59:38.294801 17934 layer_factory.hpp:77] Creating layer inception_4a/pool
I0403 14:59:38.294821 17934 net.cpp:91] Creating Layer inception_4a/pool
I0403 14:59:38.294837 17934 net.cpp:425] inception_4a/pool <- pool3/3x3_s2_pool3/3x3_s2_0_split_3
I0403 14:59:38.294859 17934 net.cpp:399] inception_4a/pool -> inception_4a/pool
I0403 14:59:38.294921 17934 net.cpp:141] Setting up inception_4a/pool
I0403 14:59:38.294945 17934 net.cpp:148] Top shape: 24 480 14 14 (2257920)
I0403 14:59:38.294960 17934 net.cpp:156] Memory required for data: 884503584
I0403 14:59:38.294975 17934 layer_factory.hpp:77] Creating layer inception_4a/pool_proj
I0403 14:59:38.295004 17934 net.cpp:91] Creating Layer inception_4a/pool_proj
I0403 14:59:38.295023 17934 net.cpp:425] inception_4a/pool_proj <- inception_4a/pool
I0403 14:59:38.295042 17934 net.cpp:399] inception_4a/pool_proj -> inception_4a/pool_proj
I0403 14:59:38.296231 17934 net.cpp:141] Setting up inception_4a/pool_proj
I0403 14:59:38.296264 17934 net.cpp:148] Top shape: 24 64 14 14 (301056)
I0403 14:59:38.296298 17934 net.cpp:156] Memory required for data: 885707808
I0403 14:59:38.296319 17934 layer_factory.hpp:77] Creating layer inception_4a/relu_pool_proj
I0403 14:59:38.296337 17934 net.cpp:91] Creating Layer inception_4a/relu_pool_proj
I0403 14:59:38.296355 17934 net.cpp:425] inception_4a/relu_pool_proj <- inception_4a/pool_proj
I0403 14:59:38.296376 17934 net.cpp:386] inception_4a/relu_pool_proj -> inception_4a/pool_proj (in-place)
I0403 14:59:38.296668 17934 net.cpp:141] Setting up inception_4a/relu_pool_proj
I0403 14:59:38.296699 17934 net.cpp:148] Top shape: 24 64 14 14 (301056)
I0403 14:59:38.296715 17934 net.cpp:156] Memory required for data: 886912032
I0403 14:59:38.296731 17934 layer_factory.hpp:77] Creating layer inception_4a/output
I0403 14:59:38.296749 17934 net.cpp:91] Creating Layer inception_4a/output
I0403 14:59:38.296766 17934 net.cpp:425] inception_4a/output <- inception_4a/1x1
I0403 14:59:38.296782 17934 net.cpp:425] inception_4a/output <- inception_4a/3x3
I0403 14:59:38.296799 17934 net.cpp:425] inception_4a/output <- inception_4a/5x5
I0403 14:59:38.296815 17934 net.cpp:425] inception_4a/output <- inception_4a/pool_proj
I0403 14:59:38.296833 17934 net.cpp:399] inception_4a/output -> inception_4a/output
I0403 14:59:38.296880 17934 net.cpp:141] Setting up inception_4a/output
I0403 14:59:38.296905 17934 net.cpp:148] Top shape: 24 512 14 14 (2408448)
I0403 14:59:38.296919 17934 net.cpp:156] Memory required for data: 896545824
I0403 14:59:38.296934 17934 layer_factory.hpp:77] Creating layer inception_4a/output_inception_4a/output_0_split
I0403 14:59:38.296954 17934 net.cpp:91] Creating Layer inception_4a/output_inception_4a/output_0_split
I0403 14:59:38.296972 17934 net.cpp:425] inception_4a/output_inception_4a/output_0_split <- inception_4a/output
I0403 14:59:38.296994 17934 net.cpp:399] inception_4a/output_inception_4a/output_0_split -> inception_4a/output_inception_4a/output_0_split_0
I0403 14:59:38.297018 17934 net.cpp:399] inception_4a/output_inception_4a/output_0_split -> inception_4a/output_inception_4a/output_0_split_1
I0403 14:59:38.297039 17934 net.cpp:399] inception_4a/output_inception_4a/output_0_split -> inception_4a/output_inception_4a/output_0_split_2
I0403 14:59:38.297063 17934 net.cpp:399] inception_4a/output_inception_4a/output_0_split -> inception_4a/output_inception_4a/output_0_split_3
I0403 14:59:38.297082 17934 net.cpp:399] inception_4a/output_inception_4a/output_0_split -> inception_4a/output_inception_4a/output_0_split_4
I0403 14:59:38.297175 17934 net.cpp:141] Setting up inception_4a/output_inception_4a/output_0_split
I0403 14:59:38.297199 17934 net.cpp:148] Top shape: 24 512 14 14 (2408448)
I0403 14:59:38.297219 17934 net.cpp:148] Top shape: 24 512 14 14 (2408448)
I0403 14:59:38.297235 17934 net.cpp:148] Top shape: 24 512 14 14 (2408448)
I0403 14:59:38.297250 17934 net.cpp:148] Top shape: 24 512 14 14 (2408448)
I0403 14:59:38.297266 17934 net.cpp:148] Top shape: 24 512 14 14 (2408448)
I0403 14:59:38.297281 17934 net.cpp:156] Memory required for data: 944714784
I0403 14:59:38.297294 17934 layer_factory.hpp:77] Creating layer loss1/ave_pool
I0403 14:59:38.297312 17934 net.cpp:91] Creating Layer loss1/ave_pool
I0403 14:59:38.297328 17934 net.cpp:425] loss1/ave_pool <- inception_4a/output_inception_4a/output_0_split_0
I0403 14:59:38.297348 17934 net.cpp:399] loss1/ave_pool -> loss1/ave_pool
I0403 14:59:38.297559 17934 net.cpp:141] Setting up loss1/ave_pool
I0403 14:59:38.297587 17934 net.cpp:148] Top shape: 24 512 4 4 (196608)
I0403 14:59:38.297605 17934 net.cpp:156] Memory required for data: 945501216
I0403 14:59:38.297619 17934 layer_factory.hpp:77] Creating layer loss1/conv
I0403 14:59:38.297641 17934 net.cpp:91] Creating Layer loss1/conv
I0403 14:59:38.297657 17934 net.cpp:425] loss1/conv <- loss1/ave_pool
I0403 14:59:38.297678 17934 net.cpp:399] loss1/conv -> loss1/conv
I0403 14:59:38.299139 17934 net.cpp:141] Setting up loss1/conv
I0403 14:59:38.299170 17934 net.cpp:148] Top shape: 24 128 4 4 (49152)
I0403 14:59:38.299201 17934 net.cpp:156] Memory required for data: 945697824
I0403 14:59:38.299222 17934 layer_factory.hpp:77] Creating layer loss1/relu_conv
I0403 14:59:38.299242 17934 net.cpp:91] Creating Layer loss1/relu_conv
I0403 14:59:38.299259 17934 net.cpp:425] loss1/relu_conv <- loss1/conv
I0403 14:59:38.299280 17934 net.cpp:386] loss1/relu_conv -> loss1/conv (in-place)
I0403 14:59:38.299569 17934 net.cpp:141] Setting up loss1/relu_conv
I0403 14:59:38.299597 17934 net.cpp:148] Top shape: 24 128 4 4 (49152)
I0403 14:59:38.299613 17934 net.cpp:156] Memory required for data: 945894432
I0403 14:59:38.299629 17934 layer_factory.hpp:77] Creating layer loss1/fc
I0403 14:59:38.299655 17934 net.cpp:91] Creating Layer loss1/fc
I0403 14:59:38.299674 17934 net.cpp:425] loss1/fc <- loss1/conv
I0403 14:59:38.299696 17934 net.cpp:399] loss1/fc -> loss1/fc
I0403 14:59:38.317519 17934 net.cpp:141] Setting up loss1/fc
I0403 14:59:38.317575 17934 net.cpp:148] Top shape: 24 1024 (24576)
I0403 14:59:38.317591 17934 net.cpp:156] Memory required for data: 945992736
I0403 14:59:38.317612 17934 layer_factory.hpp:77] Creating layer loss1/relu_fc
I0403 14:59:38.317632 17934 net.cpp:91] Creating Layer loss1/relu_fc
I0403 14:59:38.317648 17934 net.cpp:425] loss1/relu_fc <- loss1/fc
I0403 14:59:38.317665 17934 net.cpp:386] loss1/relu_fc -> loss1/fc (in-place)
I0403 14:59:38.317873 17934 net.cpp:141] Setting up loss1/relu_fc
I0403 14:59:38.317898 17934 net.cpp:148] Top shape: 24 1024 (24576)
I0403 14:59:38.317914 17934 net.cpp:156] Memory required for data: 946091040
I0403 14:59:38.317929 17934 layer_factory.hpp:77] Creating layer loss1/drop_fc
I0403 14:59:38.317956 17934 net.cpp:91] Creating Layer loss1/drop_fc
I0403 14:59:38.317975 17934 net.cpp:425] loss1/drop_fc <- loss1/fc
I0403 14:59:38.317998 17934 net.cpp:386] loss1/drop_fc -> loss1/fc (in-place)
I0403 14:59:38.318063 17934 net.cpp:141] Setting up loss1/drop_fc
I0403 14:59:38.318089 17934 net.cpp:148] Top shape: 24 1024 (24576)
I0403 14:59:38.318102 17934 net.cpp:156] Memory required for data: 946189344
I0403 14:59:38.318117 17934 layer_factory.hpp:77] Creating layer loss1/classifier_plantvillage
I0403 14:59:38.318141 17934 net.cpp:91] Creating Layer loss1/classifier_plantvillage
I0403 14:59:38.318158 17934 net.cpp:425] loss1/classifier_plantvillage <- loss1/fc
I0403 14:59:38.318178 17934 net.cpp:399] loss1/classifier_plantvillage -> loss1/classifier_plantvillage
I0403 14:59:38.319108 17934 net.cpp:141] Setting up loss1/classifier_plantvillage
I0403 14:59:38.319136 17934 net.cpp:148] Top shape: 24 38 (912)
I0403 14:59:38.319151 17934 net.cpp:156] Memory required for data: 946192992
I0403 14:59:38.319170 17934 layer_factory.hpp:77] Creating layer loss1/classifier_plantvillage_loss1/classifier_plantvillage_0_split
I0403 14:59:38.319188 17934 net.cpp:91] Creating Layer loss1/classifier_plantvillage_loss1/classifier_plantvillage_0_split
I0403 14:59:38.319205 17934 net.cpp:425] loss1/classifier_plantvillage_loss1/classifier_plantvillage_0_split <- loss1/classifier_plantvillage
I0403 14:59:38.319226 17934 net.cpp:399] loss1/classifier_plantvillage_loss1/classifier_plantvillage_0_split -> loss1/classifier_plantvillage_loss1/classifier_plantvillage_0_split_0
I0403 14:59:38.319248 17934 net.cpp:399] loss1/classifier_plantvillage_loss1/classifier_plantvillage_0_split -> loss1/classifier_plantvillage_loss1/classifier_plantvillage_0_split_1
I0403 14:59:38.319269 17934 net.cpp:399] loss1/classifier_plantvillage_loss1/classifier_plantvillage_0_split -> loss1/classifier_plantvillage_loss1/classifier_plantvillage_0_split_2
I0403 14:59:38.319335 17934 net.cpp:141] Setting up loss1/classifier_plantvillage_loss1/classifier_plantvillage_0_split
I0403 14:59:38.319358 17934 net.cpp:148] Top shape: 24 38 (912)
I0403 14:59:38.319375 17934 net.cpp:148] Top shape: 24 38 (912)
I0403 14:59:38.319391 17934 net.cpp:148] Top shape: 24 38 (912)
I0403 14:59:38.319403 17934 net.cpp:156] Memory required for data: 946203936
I0403 14:59:38.319418 17934 layer_factory.hpp:77] Creating layer inception_4b/1x1
I0403 14:59:38.319442 17934 net.cpp:91] Creating Layer inception_4b/1x1
I0403 14:59:38.319479 17934 net.cpp:425] inception_4b/1x1 <- inception_4a/output_inception_4a/output_0_split_1
I0403 14:59:38.319499 17934 net.cpp:399] inception_4b/1x1 -> inception_4b/1x1
I0403 14:59:38.321195 17934 net.cpp:141] Setting up inception_4b/1x1
I0403 14:59:38.321226 17934 net.cpp:148] Top shape: 24 160 14 14 (752640)
I0403 14:59:38.321243 17934 net.cpp:156] Memory required for data: 949214496
I0403 14:59:38.321262 17934 layer_factory.hpp:77] Creating layer inception_4b/relu_1x1
I0403 14:59:38.321280 17934 net.cpp:91] Creating Layer inception_4b/relu_1x1
I0403 14:59:38.321297 17934 net.cpp:425] inception_4b/relu_1x1 <- inception_4b/1x1
I0403 14:59:38.321318 17934 net.cpp:386] inception_4b/relu_1x1 -> inception_4b/1x1 (in-place)
I0403 14:59:38.321496 17934 net.cpp:141] Setting up inception_4b/relu_1x1
I0403 14:59:38.321521 17934 net.cpp:148] Top shape: 24 160 14 14 (752640)
I0403 14:59:38.321535 17934 net.cpp:156] Memory required for data: 952225056
I0403 14:59:38.321550 17934 layer_factory.hpp:77] Creating layer inception_4b/3x3_reduce
I0403 14:59:38.321573 17934 net.cpp:91] Creating Layer inception_4b/3x3_reduce
I0403 14:59:38.321589 17934 net.cpp:425] inception_4b/3x3_reduce <- inception_4a/output_inception_4a/output_0_split_2
I0403 14:59:38.321614 17934 net.cpp:399] inception_4b/3x3_reduce -> inception_4b/3x3_reduce
I0403 14:59:38.322964 17934 net.cpp:141] Setting up inception_4b/3x3_reduce
I0403 14:59:38.322998 17934 net.cpp:148] Top shape: 24 112 14 14 (526848)
I0403 14:59:38.323016 17934 net.cpp:156] Memory required for data: 954332448
I0403 14:59:38.323035 17934 layer_factory.hpp:77] Creating layer inception_4b/relu_3x3_reduce
I0403 14:59:38.323056 17934 net.cpp:91] Creating Layer inception_4b/relu_3x3_reduce
I0403 14:59:38.323077 17934 net.cpp:425] inception_4b/relu_3x3_reduce <- inception_4b/3x3_reduce
I0403 14:59:38.323094 17934 net.cpp:386] inception_4b/relu_3x3_reduce -> inception_4b/3x3_reduce (in-place)
I0403 14:59:38.323377 17934 net.cpp:141] Setting up inception_4b/relu_3x3_reduce
I0403 14:59:38.323405 17934 net.cpp:148] Top shape: 24 112 14 14 (526848)
I0403 14:59:38.323421 17934 net.cpp:156] Memory required for data: 956439840
I0403 14:59:38.323436 17934 layer_factory.hpp:77] Creating layer inception_4b/3x3
I0403 14:59:38.323457 17934 net.cpp:91] Creating Layer inception_4b/3x3
I0403 14:59:38.323474 17934 net.cpp:425] inception_4b/3x3 <- inception_4b/3x3_reduce
I0403 14:59:38.323496 17934 net.cpp:399] inception_4b/3x3 -> inception_4b/3x3
I0403 14:59:38.326463 17934 net.cpp:141] Setting up inception_4b/3x3
I0403 14:59:38.326498 17934 net.cpp:148] Top shape: 24 224 14 14 (1053696)
I0403 14:59:38.326515 17934 net.cpp:156] Memory required for data: 960654624
I0403 14:59:38.326535 17934 layer_factory.hpp:77] Creating layer inception_4b/relu_3x3
I0403 14:59:38.326553 17934 net.cpp:91] Creating Layer inception_4b/relu_3x3
I0403 14:59:38.326570 17934 net.cpp:425] inception_4b/relu_3x3 <- inception_4b/3x3
I0403 14:59:38.326589 17934 net.cpp:386] inception_4b/relu_3x3 -> inception_4b/3x3 (in-place)
I0403 14:59:38.326768 17934 net.cpp:141] Setting up inception_4b/relu_3x3
I0403 14:59:38.326793 17934 net.cpp:148] Top shape: 24 224 14 14 (1053696)
I0403 14:59:38.326808 17934 net.cpp:156] Memory required for data: 964869408
I0403 14:59:38.326823 17934 layer_factory.hpp:77] Creating layer inception_4b/5x5_reduce
I0403 14:59:38.326846 17934 net.cpp:91] Creating Layer inception_4b/5x5_reduce
I0403 14:59:38.326864 17934 net.cpp:425] inception_4b/5x5_reduce <- inception_4a/output_inception_4a/output_0_split_3
I0403 14:59:38.326885 17934 net.cpp:399] inception_4b/5x5_reduce -> inception_4b/5x5_reduce
I0403 14:59:38.327965 17934 net.cpp:141] Setting up inception_4b/5x5_reduce
I0403 14:59:38.327998 17934 net.cpp:148] Top shape: 24 24 14 14 (112896)
I0403 14:59:38.328016 17934 net.cpp:156] Memory required for data: 965320992
I0403 14:59:38.328035 17934 layer_factory.hpp:77] Creating layer inception_4b/relu_5x5_reduce
I0403 14:59:38.328057 17934 net.cpp:91] Creating Layer inception_4b/relu_5x5_reduce
I0403 14:59:38.328088 17934 net.cpp:425] inception_4b/relu_5x5_reduce <- inception_4b/5x5_reduce
I0403 14:59:38.328105 17934 net.cpp:386] inception_4b/relu_5x5_reduce -> inception_4b/5x5_reduce (in-place)
I0403 14:59:38.328294 17934 net.cpp:141] Setting up inception_4b/relu_5x5_reduce
I0403 14:59:38.328318 17934 net.cpp:148] Top shape: 24 24 14 14 (112896)
I0403 14:59:38.328333 17934 net.cpp:156] Memory required for data: 965772576
I0403 14:59:38.328348 17934 layer_factory.hpp:77] Creating layer inception_4b/5x5
I0403 14:59:38.328372 17934 net.cpp:91] Creating Layer inception_4b/5x5
I0403 14:59:38.328389 17934 net.cpp:425] inception_4b/5x5 <- inception_4b/5x5_reduce
I0403 14:59:38.328408 17934 net.cpp:399] inception_4b/5x5 -> inception_4b/5x5
I0403 14:59:38.329641 17934 net.cpp:141] Setting up inception_4b/5x5
I0403 14:59:38.329669 17934 net.cpp:148] Top shape: 24 64 14 14 (301056)
I0403 14:59:38.329684 17934 net.cpp:156] Memory required for data: 966976800
I0403 14:59:38.329702 17934 layer_factory.hpp:77] Creating layer inception_4b/relu_5x5
I0403 14:59:38.329721 17934 net.cpp:91] Creating Layer inception_4b/relu_5x5
I0403 14:59:38.329737 17934 net.cpp:425] inception_4b/relu_5x5 <- inception_4b/5x5
I0403 14:59:38.329756 17934 net.cpp:386] inception_4b/relu_5x5 -> inception_4b/5x5 (in-place)
I0403 14:59:38.330061 17934 net.cpp:141] Setting up inception_4b/relu_5x5
I0403 14:59:38.330090 17934 net.cpp:148] Top shape: 24 64 14 14 (301056)
I0403 14:59:38.330104 17934 net.cpp:156] Memory required for data: 968181024
I0403 14:59:38.330121 17934 layer_factory.hpp:77] Creating layer inception_4b/pool
I0403 14:59:38.330139 17934 net.cpp:91] Creating Layer inception_4b/pool
I0403 14:59:38.330157 17934 net.cpp:425] inception_4b/pool <- inception_4a/output_inception_4a/output_0_split_4
I0403 14:59:38.330178 17934 net.cpp:399] inception_4b/pool -> inception_4b/pool
I0403 14:59:38.330256 17934 net.cpp:141] Setting up inception_4b/pool
I0403 14:59:38.330279 17934 net.cpp:148] Top shape: 24 512 14 14 (2408448)
I0403 14:59:38.330293 17934 net.cpp:156] Memory required for data: 977814816
I0403 14:59:38.330308 17934 layer_factory.hpp:77] Creating layer inception_4b/pool_proj
I0403 14:59:38.330332 17934 net.cpp:91] Creating Layer inception_4b/pool_proj
I0403 14:59:38.330350 17934 net.cpp:425] inception_4b/pool_proj <- inception_4b/pool
I0403 14:59:38.330369 17934 net.cpp:399] inception_4b/pool_proj -> inception_4b/pool_proj
I0403 14:59:38.331568 17934 net.cpp:141] Setting up inception_4b/pool_proj
I0403 14:59:38.331596 17934 net.cpp:148] Top shape: 24 64 14 14 (301056)
I0403 14:59:38.331611 17934 net.cpp:156] Memory required for data: 979019040
I0403 14:59:38.331629 17934 layer_factory.hpp:77] Creating layer inception_4b/relu_pool_proj
I0403 14:59:38.331650 17934 net.cpp:91] Creating Layer inception_4b/relu_pool_proj
I0403 14:59:38.331666 17934 net.cpp:425] inception_4b/relu_pool_proj <- inception_4b/pool_proj
I0403 14:59:38.331683 17934 net.cpp:386] inception_4b/relu_pool_proj -> inception_4b/pool_proj (in-place)
I0403 14:59:38.331862 17934 net.cpp:141] Setting up inception_4b/relu_pool_proj
I0403 14:59:38.331892 17934 net.cpp:148] Top shape: 24 64 14 14 (301056)
I0403 14:59:38.331908 17934 net.cpp:156] Memory required for data: 980223264
I0403 14:59:38.331923 17934 layer_factory.hpp:77] Creating layer inception_4b/output
I0403 14:59:38.331940 17934 net.cpp:91] Creating Layer inception_4b/output
I0403 14:59:38.331956 17934 net.cpp:425] inception_4b/output <- inception_4b/1x1
I0403 14:59:38.331972 17934 net.cpp:425] inception_4b/output <- inception_4b/3x3
I0403 14:59:38.331995 17934 net.cpp:425] inception_4b/output <- inception_4b/5x5
I0403 14:59:38.332017 17934 net.cpp:425] inception_4b/output <- inception_4b/pool_proj
I0403 14:59:38.332047 17934 net.cpp:399] inception_4b/output -> inception_4b/output
I0403 14:59:38.332096 17934 net.cpp:141] Setting up inception_4b/output
I0403 14:59:38.332120 17934 net.cpp:148] Top shape: 24 512 14 14 (2408448)
I0403 14:59:38.332135 17934 net.cpp:156] Memory required for data: 989857056
I0403 14:59:38.332165 17934 layer_factory.hpp:77] Creating layer inception_4b/output_inception_4b/output_0_split
I0403 14:59:38.332185 17934 net.cpp:91] Creating Layer inception_4b/output_inception_4b/output_0_split
I0403 14:59:38.332203 17934 net.cpp:425] inception_4b/output_inception_4b/output_0_split <- inception_4b/output
I0403 14:59:38.332221 17934 net.cpp:399] inception_4b/output_inception_4b/output_0_split -> inception_4b/output_inception_4b/output_0_split_0
I0403 14:59:38.332242 17934 net.cpp:399] inception_4b/output_inception_4b/output_0_split -> inception_4b/output_inception_4b/output_0_split_1
I0403 14:59:38.332262 17934 net.cpp:399] inception_4b/output_inception_4b/output_0_split -> inception_4b/output_inception_4b/output_0_split_2
I0403 14:59:38.332283 17934 net.cpp:399] inception_4b/output_inception_4b/output_0_split -> inception_4b/output_inception_4b/output_0_split_3
I0403 14:59:38.332381 17934 net.cpp:141] Setting up inception_4b/output_inception_4b/output_0_split
I0403 14:59:38.332403 17934 net.cpp:148] Top shape: 24 512 14 14 (2408448)
I0403 14:59:38.332420 17934 net.cpp:148] Top shape: 24 512 14 14 (2408448)
I0403 14:59:38.332435 17934 net.cpp:148] Top shape: 24 512 14 14 (2408448)
I0403 14:59:38.332450 17934 net.cpp:148] Top shape: 24 512 14 14 (2408448)
I0403 14:59:38.332464 17934 net.cpp:156] Memory required for data: 1028392224
I0403 14:59:38.332479 17934 layer_factory.hpp:77] Creating layer inception_4c/1x1
I0403 14:59:38.332501 17934 net.cpp:91] Creating Layer inception_4c/1x1
I0403 14:59:38.332518 17934 net.cpp:425] inception_4c/1x1 <- inception_4b/output_inception_4b/output_0_split_0
I0403 14:59:38.332540 17934 net.cpp:399] inception_4c/1x1 -> inception_4c/1x1
I0403 14:59:38.333966 17934 net.cpp:141] Setting up inception_4c/1x1
I0403 14:59:38.334002 17934 net.cpp:148] Top shape: 24 128 14 14 (602112)
I0403 14:59:38.334022 17934 net.cpp:156] Memory required for data: 1030800672
I0403 14:59:38.334040 17934 layer_factory.hpp:77] Creating layer inception_4c/relu_1x1
I0403 14:59:38.334059 17934 net.cpp:91] Creating Layer inception_4c/relu_1x1
I0403 14:59:38.334076 17934 net.cpp:425] inception_4c/relu_1x1 <- inception_4c/1x1
I0403 14:59:38.334094 17934 net.cpp:386] inception_4c/relu_1x1 -> inception_4c/1x1 (in-place)
I0403 14:59:38.334275 17934 net.cpp:141] Setting up inception_4c/relu_1x1
I0403 14:59:38.334300 17934 net.cpp:148] Top shape: 24 128 14 14 (602112)
I0403 14:59:38.334316 17934 net.cpp:156] Memory required for data: 1033209120
I0403 14:59:38.334331 17934 layer_factory.hpp:77] Creating layer inception_4c/3x3_reduce
I0403 14:59:38.334352 17934 net.cpp:91] Creating Layer inception_4c/3x3_reduce
I0403 14:59:38.334369 17934 net.cpp:425] inception_4c/3x3_reduce <- inception_4b/output_inception_4b/output_0_split_1
I0403 14:59:38.334390 17934 net.cpp:399] inception_4c/3x3_reduce -> inception_4c/3x3_reduce
I0403 14:59:38.336381 17934 net.cpp:141] Setting up inception_4c/3x3_reduce
I0403 14:59:38.336410 17934 net.cpp:148] Top shape: 24 128 14 14 (602112)
I0403 14:59:38.336426 17934 net.cpp:156] Memory required for data: 1035617568
I0403 14:59:38.336444 17934 layer_factory.hpp:77] Creating layer inception_4c/relu_3x3_reduce
I0403 14:59:38.336465 17934 net.cpp:91] Creating Layer inception_4c/relu_3x3_reduce
I0403 14:59:38.336483 17934 net.cpp:425] inception_4c/relu_3x3_reduce <- inception_4c/3x3_reduce
I0403 14:59:38.336500 17934 net.cpp:386] inception_4c/relu_3x3_reduce -> inception_4c/3x3_reduce (in-place)
I0403 14:59:38.336786 17934 net.cpp:141] Setting up inception_4c/relu_3x3_reduce
I0403 14:59:38.336812 17934 net.cpp:148] Top shape: 24 128 14 14 (602112)
I0403 14:59:38.336827 17934 net.cpp:156] Memory required for data: 1038026016
I0403 14:59:38.336841 17934 layer_factory.hpp:77] Creating layer inception_4c/3x3
I0403 14:59:38.336863 17934 net.cpp:91] Creating Layer inception_4c/3x3
I0403 14:59:38.336879 17934 net.cpp:425] inception_4c/3x3 <- inception_4c/3x3_reduce
I0403 14:59:38.336901 17934 net.cpp:399] inception_4c/3x3 -> inception_4c/3x3
I0403 14:59:38.340523 17934 net.cpp:141] Setting up inception_4c/3x3
I0403 14:59:38.340565 17934 net.cpp:148] Top shape: 24 256 14 14 (1204224)
I0403 14:59:38.340589 17934 net.cpp:156] Memory required for data: 1042842912
I0403 14:59:38.340623 17934 layer_factory.hpp:77] Creating layer inception_4c/relu_3x3
I0403 14:59:38.340646 17934 net.cpp:91] Creating Layer inception_4c/relu_3x3
I0403 14:59:38.340668 17934 net.cpp:425] inception_4c/relu_3x3 <- inception_4c/3x3
I0403 14:59:38.340685 17934 net.cpp:386] inception_4c/relu_3x3 -> inception_4c/3x3 (in-place)
I0403 14:59:38.340868 17934 net.cpp:141] Setting up inception_4c/relu_3x3
I0403 14:59:38.340894 17934 net.cpp:148] Top shape: 24 256 14 14 (1204224)
I0403 14:59:38.340909 17934 net.cpp:156] Memory required for data: 1047659808
I0403 14:59:38.340924 17934 layer_factory.hpp:77] Creating layer inception_4c/5x5_reduce
I0403 14:59:38.340946 17934 net.cpp:91] Creating Layer inception_4c/5x5_reduce
I0403 14:59:38.340965 17934 net.cpp:425] inception_4c/5x5_reduce <- inception_4b/output_inception_4b/output_0_split_2
I0403 14:59:38.340993 17934 net.cpp:399] inception_4c/5x5_reduce -> inception_4c/5x5_reduce
I0403 14:59:38.342100 17934 net.cpp:141] Setting up inception_4c/5x5_reduce
I0403 14:59:38.342128 17934 net.cpp:148] Top shape: 24 24 14 14 (112896)
I0403 14:59:38.342144 17934 net.cpp:156] Memory required for data: 1048111392
I0403 14:59:38.342161 17934 layer_factory.hpp:77] Creating layer inception_4c/relu_5x5_reduce
I0403 14:59:38.342181 17934 net.cpp:91] Creating Layer inception_4c/relu_5x5_reduce
I0403 14:59:38.342200 17934 net.cpp:425] inception_4c/relu_5x5_reduce <- inception_4c/5x5_reduce
I0403 14:59:38.342216 17934 net.cpp:386] inception_4c/relu_5x5_reduce -> inception_4c/5x5_reduce (in-place)
I0403 14:59:38.342398 17934 net.cpp:141] Setting up inception_4c/relu_5x5_reduce
I0403 14:59:38.342423 17934 net.cpp:148] Top shape: 24 24 14 14 (112896)
I0403 14:59:38.342438 17934 net.cpp:156] Memory required for data: 1048562976
I0403 14:59:38.342453 17934 layer_factory.hpp:77] Creating layer inception_4c/5x5
I0403 14:59:38.342476 17934 net.cpp:91] Creating Layer inception_4c/5x5
I0403 14:59:38.342494 17934 net.cpp:425] inception_4c/5x5 <- inception_4c/5x5_reduce
I0403 14:59:38.342512 17934 net.cpp:399] inception_4c/5x5 -> inception_4c/5x5
I0403 14:59:38.343752 17934 net.cpp:141] Setting up inception_4c/5x5
I0403 14:59:38.343786 17934 net.cpp:148] Top shape: 24 64 14 14 (301056)
I0403 14:59:38.343803 17934 net.cpp:156] Memory required for data: 1049767200
I0403 14:59:38.343822 17934 layer_factory.hpp:77] Creating layer inception_4c/relu_5x5
I0403 14:59:38.343842 17934 net.cpp:91] Creating Layer inception_4c/relu_5x5
I0403 14:59:38.343860 17934 net.cpp:425] inception_4c/relu_5x5 <- inception_4c/5x5
I0403 14:59:38.343878 17934 net.cpp:386] inception_4c/relu_5x5 -> inception_4c/5x5 (in-place)
I0403 14:59:38.344173 17934 net.cpp:141] Setting up inception_4c/relu_5x5
I0403 14:59:38.344202 17934 net.cpp:148] Top shape: 24 64 14 14 (301056)
I0403 14:59:38.344218 17934 net.cpp:156] Memory required for data: 1050971424
I0403 14:59:38.344234 17934 layer_factory.hpp:77] Creating layer inception_4c/pool
I0403 14:59:38.344251 17934 net.cpp:91] Creating Layer inception_4c/pool
I0403 14:59:38.344269 17934 net.cpp:425] inception_4c/pool <- inception_4b/output_inception_4b/output_0_split_3
I0403 14:59:38.344286 17934 net.cpp:399] inception_4c/pool -> inception_4c/pool
I0403 14:59:38.344352 17934 net.cpp:141] Setting up inception_4c/pool
I0403 14:59:38.344375 17934 net.cpp:148] Top shape: 24 512 14 14 (2408448)
I0403 14:59:38.344390 17934 net.cpp:156] Memory required for data: 1060605216
I0403 14:59:38.344404 17934 layer_factory.hpp:77] Creating layer inception_4c/pool_proj
I0403 14:59:38.344426 17934 net.cpp:91] Creating Layer inception_4c/pool_proj
I0403 14:59:38.344444 17934 net.cpp:425] inception_4c/pool_proj <- inception_4c/pool
I0403 14:59:38.344465 17934 net.cpp:399] inception_4c/pool_proj -> inception_4c/pool_proj
I0403 14:59:38.345715 17934 net.cpp:141] Setting up inception_4c/pool_proj
I0403 14:59:38.345742 17934 net.cpp:148] Top shape: 24 64 14 14 (301056)
I0403 14:59:38.345772 17934 net.cpp:156] Memory required for data: 1061809440
I0403 14:59:38.345791 17934 layer_factory.hpp:77] Creating layer inception_4c/relu_pool_proj
I0403 14:59:38.345813 17934 net.cpp:91] Creating Layer inception_4c/relu_pool_proj
I0403 14:59:38.345829 17934 net.cpp:425] inception_4c/relu_pool_proj <- inception_4c/pool_proj
I0403 14:59:38.345847 17934 net.cpp:386] inception_4c/relu_pool_proj -> inception_4c/pool_proj (in-place)
I0403 14:59:38.346035 17934 net.cpp:141] Setting up inception_4c/relu_pool_proj
I0403 14:59:38.346060 17934 net.cpp:148] Top shape: 24 64 14 14 (301056)
I0403 14:59:38.346078 17934 net.cpp:156] Memory required for data: 1063013664
I0403 14:59:38.346093 17934 layer_factory.hpp:77] Creating layer inception_4c/output
I0403 14:59:38.346110 17934 net.cpp:91] Creating Layer inception_4c/output
I0403 14:59:38.346127 17934 net.cpp:425] inception_4c/output <- inception_4c/1x1
I0403 14:59:38.346143 17934 net.cpp:425] inception_4c/output <- inception_4c/3x3
I0403 14:59:38.346158 17934 net.cpp:425] inception_4c/output <- inception_4c/5x5
I0403 14:59:38.346174 17934 net.cpp:425] inception_4c/output <- inception_4c/pool_proj
I0403 14:59:38.346189 17934 net.cpp:399] inception_4c/output -> inception_4c/output
I0403 14:59:38.346237 17934 net.cpp:141] Setting up inception_4c/output
I0403 14:59:38.346261 17934 net.cpp:148] Top shape: 24 512 14 14 (2408448)
I0403 14:59:38.346276 17934 net.cpp:156] Memory required for data: 1072647456
I0403 14:59:38.346289 17934 layer_factory.hpp:77] Creating layer inception_4c/output_inception_4c/output_0_split
I0403 14:59:38.346307 17934 net.cpp:91] Creating Layer inception_4c/output_inception_4c/output_0_split
I0403 14:59:38.346320 17934 net.cpp:425] inception_4c/output_inception_4c/output_0_split <- inception_4c/output
I0403 14:59:38.346340 17934 net.cpp:399] inception_4c/output_inception_4c/output_0_split -> inception_4c/output_inception_4c/output_0_split_0
I0403 14:59:38.346361 17934 net.cpp:399] inception_4c/output_inception_4c/output_0_split -> inception_4c/output_inception_4c/output_0_split_1
I0403 14:59:38.346381 17934 net.cpp:399] inception_4c/output_inception_4c/output_0_split -> inception_4c/output_inception_4c/output_0_split_2
I0403 14:59:38.346401 17934 net.cpp:399] inception_4c/output_inception_4c/output_0_split -> inception_4c/output_inception_4c/output_0_split_3
I0403 14:59:38.346487 17934 net.cpp:141] Setting up inception_4c/output_inception_4c/output_0_split
I0403 14:59:38.346509 17934 net.cpp:148] Top shape: 24 512 14 14 (2408448)
I0403 14:59:38.346525 17934 net.cpp:148] Top shape: 24 512 14 14 (2408448)
I0403 14:59:38.346541 17934 net.cpp:148] Top shape: 24 512 14 14 (2408448)
I0403 14:59:38.346556 17934 net.cpp:148] Top shape: 24 512 14 14 (2408448)
I0403 14:59:38.346570 17934 net.cpp:156] Memory required for data: 1111182624
I0403 14:59:38.346585 17934 layer_factory.hpp:77] Creating layer inception_4d/1x1
I0403 14:59:38.346611 17934 net.cpp:91] Creating Layer inception_4d/1x1
I0403 14:59:38.346628 17934 net.cpp:425] inception_4d/1x1 <- inception_4c/output_inception_4c/output_0_split_0
I0403 14:59:38.346649 17934 net.cpp:399] inception_4d/1x1 -> inception_4d/1x1
I0403 14:59:38.348042 17934 net.cpp:141] Setting up inception_4d/1x1
I0403 14:59:38.348069 17934 net.cpp:148] Top shape: 24 112 14 14 (526848)
I0403 14:59:38.348084 17934 net.cpp:156] Memory required for data: 1113290016
I0403 14:59:38.348101 17934 layer_factory.hpp:77] Creating layer inception_4d/relu_1x1
I0403 14:59:38.348119 17934 net.cpp:91] Creating Layer inception_4d/relu_1x1
I0403 14:59:38.348135 17934 net.cpp:425] inception_4d/relu_1x1 <- inception_4d/1x1
I0403 14:59:38.348155 17934 net.cpp:386] inception_4d/relu_1x1 -> inception_4d/1x1 (in-place)
I0403 14:59:38.348332 17934 net.cpp:141] Setting up inception_4d/relu_1x1
I0403 14:59:38.348357 17934 net.cpp:148] Top shape: 24 112 14 14 (526848)
I0403 14:59:38.348371 17934 net.cpp:156] Memory required for data: 1115397408
I0403 14:59:38.348387 17934 layer_factory.hpp:77] Creating layer inception_4d/3x3_reduce
I0403 14:59:38.348423 17934 net.cpp:91] Creating Layer inception_4d/3x3_reduce
I0403 14:59:38.348440 17934 net.cpp:425] inception_4d/3x3_reduce <- inception_4c/output_inception_4c/output_0_split_1
I0403 14:59:38.348462 17934 net.cpp:399] inception_4d/3x3_reduce -> inception_4d/3x3_reduce
I0403 14:59:38.349983 17934 net.cpp:141] Setting up inception_4d/3x3_reduce
I0403 14:59:38.350026 17934 net.cpp:148] Top shape: 24 144 14 14 (677376)
I0403 14:59:38.350042 17934 net.cpp:156] Memory required for data: 1118106912
I0403 14:59:38.350060 17934 layer_factory.hpp:77] Creating layer inception_4d/relu_3x3_reduce
I0403 14:59:38.350080 17934 net.cpp:91] Creating Layer inception_4d/relu_3x3_reduce
I0403 14:59:38.350097 17934 net.cpp:425] inception_4d/relu_3x3_reduce <- inception_4d/3x3_reduce
I0403 14:59:38.350116 17934 net.cpp:386] inception_4d/relu_3x3_reduce -> inception_4d/3x3_reduce (in-place)
I0403 14:59:38.350436 17934 net.cpp:141] Setting up inception_4d/relu_3x3_reduce
I0403 14:59:38.350462 17934 net.cpp:148] Top shape: 24 144 14 14 (677376)
I0403 14:59:38.350477 17934 net.cpp:156] Memory required for data: 1120816416
I0403 14:59:38.350492 17934 layer_factory.hpp:77] Creating layer inception_4d/3x3
I0403 14:59:38.350515 17934 net.cpp:91] Creating Layer inception_4d/3x3
I0403 14:59:38.350533 17934 net.cpp:425] inception_4d/3x3 <- inception_4d/3x3_reduce
I0403 14:59:38.350551 17934 net.cpp:399] inception_4d/3x3 -> inception_4d/3x3
I0403 14:59:38.354779 17934 net.cpp:141] Setting up inception_4d/3x3
I0403 14:59:38.354811 17934 net.cpp:148] Top shape: 24 288 14 14 (1354752)
I0403 14:59:38.354827 17934 net.cpp:156] Memory required for data: 1126235424
I0403 14:59:38.354846 17934 layer_factory.hpp:77] Creating layer inception_4d/relu_3x3
I0403 14:59:38.354863 17934 net.cpp:91] Creating Layer inception_4d/relu_3x3
I0403 14:59:38.354879 17934 net.cpp:425] inception_4d/relu_3x3 <- inception_4d/3x3
I0403 14:59:38.354900 17934 net.cpp:386] inception_4d/relu_3x3 -> inception_4d/3x3 (in-place)
I0403 14:59:38.355098 17934 net.cpp:141] Setting up inception_4d/relu_3x3
I0403 14:59:38.355124 17934 net.cpp:148] Top shape: 24 288 14 14 (1354752)
I0403 14:59:38.355139 17934 net.cpp:156] Memory required for data: 1131654432
I0403 14:59:38.355154 17934 layer_factory.hpp:77] Creating layer inception_4d/5x5_reduce
I0403 14:59:38.355176 17934 net.cpp:91] Creating Layer inception_4d/5x5_reduce
I0403 14:59:38.355193 17934 net.cpp:425] inception_4d/5x5_reduce <- inception_4c/output_inception_4c/output_0_split_2
I0403 14:59:38.355216 17934 net.cpp:399] inception_4d/5x5_reduce -> inception_4d/5x5_reduce
I0403 14:59:38.356364 17934 net.cpp:141] Setting up inception_4d/5x5_reduce
I0403 14:59:38.356391 17934 net.cpp:148] Top shape: 24 32 14 14 (150528)
I0403 14:59:38.356407 17934 net.cpp:156] Memory required for data: 1132256544
I0403 14:59:38.356426 17934 layer_factory.hpp:77] Creating layer inception_4d/relu_5x5_reduce
I0403 14:59:38.356442 17934 net.cpp:91] Creating Layer inception_4d/relu_5x5_reduce
I0403 14:59:38.356459 17934 net.cpp:425] inception_4d/relu_5x5_reduce <- inception_4d/5x5_reduce
I0403 14:59:38.356478 17934 net.cpp:386] inception_4d/relu_5x5_reduce -> inception_4d/5x5_reduce (in-place)
I0403 14:59:38.356665 17934 net.cpp:141] Setting up inception_4d/relu_5x5_reduce
I0403 14:59:38.356690 17934 net.cpp:148] Top shape: 24 32 14 14 (150528)
I0403 14:59:38.356709 17934 net.cpp:156] Memory required for data: 1132858656
I0403 14:59:38.356724 17934 layer_factory.hpp:77] Creating layer inception_4d/5x5
I0403 14:59:38.356746 17934 net.cpp:91] Creating Layer inception_4d/5x5
I0403 14:59:38.356763 17934 net.cpp:425] inception_4d/5x5 <- inception_4d/5x5_reduce
I0403 14:59:38.356784 17934 net.cpp:399] inception_4d/5x5 -> inception_4d/5x5
I0403 14:59:38.358278 17934 net.cpp:141] Setting up inception_4d/5x5
I0403 14:59:38.358305 17934 net.cpp:148] Top shape: 24 64 14 14 (301056)
I0403 14:59:38.358321 17934 net.cpp:156] Memory required for data: 1134062880
I0403 14:59:38.358340 17934 layer_factory.hpp:77] Creating layer inception_4d/relu_5x5
I0403 14:59:38.358376 17934 net.cpp:91] Creating Layer inception_4d/relu_5x5
I0403 14:59:38.358394 17934 net.cpp:425] inception_4d/relu_5x5 <- inception_4d/5x5
I0403 14:59:38.358412 17934 net.cpp:386] inception_4d/relu_5x5 -> inception_4d/5x5 (in-place)
I0403 14:59:38.358726 17934 net.cpp:141] Setting up inception_4d/relu_5x5
I0403 14:59:38.358752 17934 net.cpp:148] Top shape: 24 64 14 14 (301056)
I0403 14:59:38.358778 17934 net.cpp:156] Memory required for data: 1135267104
I0403 14:59:38.358793 17934 layer_factory.hpp:77] Creating layer inception_4d/pool
I0403 14:59:38.358813 17934 net.cpp:91] Creating Layer inception_4d/pool
I0403 14:59:38.358829 17934 net.cpp:425] inception_4d/pool <- inception_4c/output_inception_4c/output_0_split_3
I0403 14:59:38.358847 17934 net.cpp:399] inception_4d/pool -> inception_4d/pool
I0403 14:59:38.358912 17934 net.cpp:141] Setting up inception_4d/pool
I0403 14:59:38.358935 17934 net.cpp:148] Top shape: 24 512 14 14 (2408448)
I0403 14:59:38.358949 17934 net.cpp:156] Memory required for data: 1144900896
I0403 14:59:38.358963 17934 layer_factory.hpp:77] Creating layer inception_4d/pool_proj
I0403 14:59:38.358990 17934 net.cpp:91] Creating Layer inception_4d/pool_proj
I0403 14:59:38.359009 17934 net.cpp:425] inception_4d/pool_proj <- inception_4d/pool
I0403 14:59:38.359030 17934 net.cpp:399] inception_4d/pool_proj -> inception_4d/pool_proj
I0403 14:59:38.360808 17934 net.cpp:141] Setting up inception_4d/pool_proj
I0403 14:59:38.360838 17934 net.cpp:148] Top shape: 24 64 14 14 (301056)
I0403 14:59:38.360854 17934 net.cpp:156] Memory required for data: 1146105120
I0403 14:59:38.360872 17934 layer_factory.hpp:77] Creating layer inception_4d/relu_pool_proj
I0403 14:59:38.360889 17934 net.cpp:91] Creating Layer inception_4d/relu_pool_proj
I0403 14:59:38.360906 17934 net.cpp:425] inception_4d/relu_pool_proj <- inception_4d/pool_proj
I0403 14:59:38.360925 17934 net.cpp:386] inception_4d/relu_pool_proj -> inception_4d/pool_proj (in-place)
I0403 14:59:38.361110 17934 net.cpp:141] Setting up inception_4d/relu_pool_proj
I0403 14:59:38.361135 17934 net.cpp:148] Top shape: 24 64 14 14 (301056)
I0403 14:59:38.361150 17934 net.cpp:156] Memory required for data: 1147309344
I0403 14:59:38.361165 17934 layer_factory.hpp:77] Creating layer inception_4d/output
I0403 14:59:38.361181 17934 net.cpp:91] Creating Layer inception_4d/output
I0403 14:59:38.361196 17934 net.cpp:425] inception_4d/output <- inception_4d/1x1
I0403 14:59:38.361212 17934 net.cpp:425] inception_4d/output <- inception_4d/3x3
I0403 14:59:38.361227 17934 net.cpp:425] inception_4d/output <- inception_4d/5x5
I0403 14:59:38.361241 17934 net.cpp:425] inception_4d/output <- inception_4d/pool_proj
I0403 14:59:38.361260 17934 net.cpp:399] inception_4d/output -> inception_4d/output
I0403 14:59:38.361310 17934 net.cpp:141] Setting up inception_4d/output
I0403 14:59:38.361332 17934 net.cpp:148] Top shape: 24 528 14 14 (2483712)
I0403 14:59:38.361346 17934 net.cpp:156] Memory required for data: 1157244192
I0403 14:59:38.361361 17934 layer_factory.hpp:77] Creating layer inception_4d/output_inception_4d/output_0_split
I0403 14:59:38.361377 17934 net.cpp:91] Creating Layer inception_4d/output_inception_4d/output_0_split
I0403 14:59:38.361393 17934 net.cpp:425] inception_4d/output_inception_4d/output_0_split <- inception_4d/output
I0403 14:59:38.361413 17934 net.cpp:399] inception_4d/output_inception_4d/output_0_split -> inception_4d/output_inception_4d/output_0_split_0
I0403 14:59:38.361435 17934 net.cpp:399] inception_4d/output_inception_4d/output_0_split -> inception_4d/output_inception_4d/output_0_split_1
I0403 14:59:38.361455 17934 net.cpp:399] inception_4d/output_inception_4d/output_0_split -> inception_4d/output_inception_4d/output_0_split_2
I0403 14:59:38.361475 17934 net.cpp:399] inception_4d/output_inception_4d/output_0_split -> inception_4d/output_inception_4d/output_0_split_3
I0403 14:59:38.361493 17934 net.cpp:399] inception_4d/output_inception_4d/output_0_split -> inception_4d/output_inception_4d/output_0_split_4
I0403 14:59:38.361591 17934 net.cpp:141] Setting up inception_4d/output_inception_4d/output_0_split
I0403 14:59:38.361630 17934 net.cpp:148] Top shape: 24 528 14 14 (2483712)
I0403 14:59:38.361647 17934 net.cpp:148] Top shape: 24 528 14 14 (2483712)
I0403 14:59:38.361663 17934 net.cpp:148] Top shape: 24 528 14 14 (2483712)
I0403 14:59:38.361678 17934 net.cpp:148] Top shape: 24 528 14 14 (2483712)
I0403 14:59:38.361693 17934 net.cpp:148] Top shape: 24 528 14 14 (2483712)
I0403 14:59:38.361706 17934 net.cpp:156] Memory required for data: 1206918432
I0403 14:59:38.361721 17934 layer_factory.hpp:77] Creating layer loss2/ave_pool
I0403 14:59:38.361738 17934 net.cpp:91] Creating Layer loss2/ave_pool
I0403 14:59:38.361753 17934 net.cpp:425] loss2/ave_pool <- inception_4d/output_inception_4d/output_0_split_0
I0403 14:59:38.361773 17934 net.cpp:399] loss2/ave_pool -> loss2/ave_pool
I0403 14:59:38.362105 17934 net.cpp:141] Setting up loss2/ave_pool
I0403 14:59:38.362133 17934 net.cpp:148] Top shape: 24 528 4 4 (202752)
I0403 14:59:38.362148 17934 net.cpp:156] Memory required for data: 1207729440
I0403 14:59:38.362162 17934 layer_factory.hpp:77] Creating layer loss2/conv
I0403 14:59:38.362185 17934 net.cpp:91] Creating Layer loss2/conv
I0403 14:59:38.362213 17934 net.cpp:425] loss2/conv <- loss2/ave_pool
I0403 14:59:38.362236 17934 net.cpp:399] loss2/conv -> loss2/conv
I0403 14:59:38.364128 17934 net.cpp:141] Setting up loss2/conv
I0403 14:59:38.364156 17934 net.cpp:148] Top shape: 24 128 4 4 (49152)
I0403 14:59:38.364172 17934 net.cpp:156] Memory required for data: 1207926048
I0403 14:59:38.364192 17934 layer_factory.hpp:77] Creating layer loss2/relu_conv
I0403 14:59:38.364213 17934 net.cpp:91] Creating Layer loss2/relu_conv
I0403 14:59:38.364231 17934 net.cpp:425] loss2/relu_conv <- loss2/conv
I0403 14:59:38.364249 17934 net.cpp:386] loss2/relu_conv -> loss2/conv (in-place)
I0403 14:59:38.364529 17934 net.cpp:141] Setting up loss2/relu_conv
I0403 14:59:38.364555 17934 net.cpp:148] Top shape: 24 128 4 4 (49152)
I0403 14:59:38.364570 17934 net.cpp:156] Memory required for data: 1208122656
I0403 14:59:38.364584 17934 layer_factory.hpp:77] Creating layer loss2/fc
I0403 14:59:38.364608 17934 net.cpp:91] Creating Layer loss2/fc
I0403 14:59:38.364624 17934 net.cpp:425] loss2/fc <- loss2/conv
I0403 14:59:38.364645 17934 net.cpp:399] loss2/fc -> loss2/fc
I0403 14:59:38.382274 17934 net.cpp:141] Setting up loss2/fc
I0403 14:59:38.382329 17934 net.cpp:148] Top shape: 24 1024 (24576)
I0403 14:59:38.382346 17934 net.cpp:156] Memory required for data: 1208220960
I0403 14:59:38.382367 17934 layer_factory.hpp:77] Creating layer loss2/relu_fc
I0403 14:59:38.382387 17934 net.cpp:91] Creating Layer loss2/relu_fc
I0403 14:59:38.382405 17934 net.cpp:425] loss2/relu_fc <- loss2/fc
I0403 14:59:38.382424 17934 net.cpp:386] loss2/relu_fc -> loss2/fc (in-place)
I0403 14:59:38.382766 17934 net.cpp:141] Setting up loss2/relu_fc
I0403 14:59:38.382792 17934 net.cpp:148] Top shape: 24 1024 (24576)
I0403 14:59:38.382808 17934 net.cpp:156] Memory required for data: 1208319264
I0403 14:59:38.382823 17934 layer_factory.hpp:77] Creating layer loss2/drop_fc
I0403 14:59:38.382841 17934 net.cpp:91] Creating Layer loss2/drop_fc
I0403 14:59:38.382858 17934 net.cpp:425] loss2/drop_fc <- loss2/fc
I0403 14:59:38.382877 17934 net.cpp:386] loss2/drop_fc -> loss2/fc (in-place)
I0403 14:59:38.382926 17934 net.cpp:141] Setting up loss2/drop_fc
I0403 14:59:38.382951 17934 net.cpp:148] Top shape: 24 1024 (24576)
I0403 14:59:38.382967 17934 net.cpp:156] Memory required for data: 1208417568
I0403 14:59:38.382983 17934 layer_factory.hpp:77] Creating layer loss2/classifier_plantvillage
I0403 14:59:38.383008 17934 net.cpp:91] Creating Layer loss2/classifier_plantvillage
I0403 14:59:38.383025 17934 net.cpp:425] loss2/classifier_plantvillage <- loss2/fc
I0403 14:59:38.383046 17934 net.cpp:399] loss2/classifier_plantvillage -> loss2/classifier_plantvillage
I0403 14:59:38.383460 17934 net.cpp:141] Setting up loss2/classifier_plantvillage
I0403 14:59:38.383486 17934 net.cpp:148] Top shape: 24 38 (912)
I0403 14:59:38.383523 17934 net.cpp:156] Memory required for data: 1208421216
I0403 14:59:38.383543 17934 layer_factory.hpp:77] Creating layer loss2/classifier_plantvillage_loss2/classifier_plantvillage_0_split
I0403 14:59:38.383563 17934 net.cpp:91] Creating Layer loss2/classifier_plantvillage_loss2/classifier_plantvillage_0_split
I0403 14:59:38.383579 17934 net.cpp:425] loss2/classifier_plantvillage_loss2/classifier_plantvillage_0_split <- loss2/classifier_plantvillage
I0403 14:59:38.383597 17934 net.cpp:399] loss2/classifier_plantvillage_loss2/classifier_plantvillage_0_split -> loss2/classifier_plantvillage_loss2/classifier_plantvillage_0_split_0
I0403 14:59:38.383616 17934 net.cpp:399] loss2/classifier_plantvillage_loss2/classifier_plantvillage_0_split -> loss2/classifier_plantvillage_loss2/classifier_plantvillage_0_split_1
I0403 14:59:38.383641 17934 net.cpp:399] loss2/classifier_plantvillage_loss2/classifier_plantvillage_0_split -> loss2/classifier_plantvillage_loss2/classifier_plantvillage_0_split_2
I0403 14:59:38.383718 17934 net.cpp:141] Setting up loss2/classifier_plantvillage_loss2/classifier_plantvillage_0_split
I0403 14:59:38.383740 17934 net.cpp:148] Top shape: 24 38 (912)
I0403 14:59:38.383756 17934 net.cpp:148] Top shape: 24 38 (912)
I0403 14:59:38.383772 17934 net.cpp:148] Top shape: 24 38 (912)
I0403 14:59:38.383786 17934 net.cpp:156] Memory required for data: 1208432160
I0403 14:59:38.383800 17934 layer_factory.hpp:77] Creating layer inception_4e/1x1
I0403 14:59:38.383823 17934 net.cpp:91] Creating Layer inception_4e/1x1
I0403 14:59:38.383842 17934 net.cpp:425] inception_4e/1x1 <- inception_4d/output_inception_4d/output_0_split_1
I0403 14:59:38.383860 17934 net.cpp:399] inception_4e/1x1 -> inception_4e/1x1
I0403 14:59:38.385784 17934 net.cpp:141] Setting up inception_4e/1x1
I0403 14:59:38.385812 17934 net.cpp:148] Top shape: 24 256 14 14 (1204224)
I0403 14:59:38.385828 17934 net.cpp:156] Memory required for data: 1213249056
I0403 14:59:38.385846 17934 layer_factory.hpp:77] Creating layer inception_4e/relu_1x1
I0403 14:59:38.385867 17934 net.cpp:91] Creating Layer inception_4e/relu_1x1
I0403 14:59:38.385884 17934 net.cpp:425] inception_4e/relu_1x1 <- inception_4e/1x1
I0403 14:59:38.385900 17934 net.cpp:386] inception_4e/relu_1x1 -> inception_4e/1x1 (in-place)
I0403 14:59:38.386203 17934 net.cpp:141] Setting up inception_4e/relu_1x1
I0403 14:59:38.386229 17934 net.cpp:148] Top shape: 24 256 14 14 (1204224)
I0403 14:59:38.386245 17934 net.cpp:156] Memory required for data: 1218065952
I0403 14:59:38.386260 17934 layer_factory.hpp:77] Creating layer inception_4e/3x3_reduce
I0403 14:59:38.386282 17934 net.cpp:91] Creating Layer inception_4e/3x3_reduce
I0403 14:59:38.386299 17934 net.cpp:425] inception_4e/3x3_reduce <- inception_4d/output_inception_4d/output_0_split_2
I0403 14:59:38.386320 17934 net.cpp:399] inception_4e/3x3_reduce -> inception_4e/3x3_reduce
I0403 14:59:38.388460 17934 net.cpp:141] Setting up inception_4e/3x3_reduce
I0403 14:59:38.388489 17934 net.cpp:148] Top shape: 24 160 14 14 (752640)
I0403 14:59:38.388504 17934 net.cpp:156] Memory required for data: 1221076512
I0403 14:59:38.388523 17934 layer_factory.hpp:77] Creating layer inception_4e/relu_3x3_reduce
I0403 14:59:38.388545 17934 net.cpp:91] Creating Layer inception_4e/relu_3x3_reduce
I0403 14:59:38.388561 17934 net.cpp:425] inception_4e/relu_3x3_reduce <- inception_4e/3x3_reduce
I0403 14:59:38.388579 17934 net.cpp:386] inception_4e/relu_3x3_reduce -> inception_4e/3x3_reduce (in-place)
I0403 14:59:38.388764 17934 net.cpp:141] Setting up inception_4e/relu_3x3_reduce
I0403 14:59:38.388792 17934 net.cpp:148] Top shape: 24 160 14 14 (752640)
I0403 14:59:38.388806 17934 net.cpp:156] Memory required for data: 1224087072
I0403 14:59:38.388821 17934 layer_factory.hpp:77] Creating layer inception_4e/3x3
I0403 14:59:38.388844 17934 net.cpp:91] Creating Layer inception_4e/3x3
I0403 14:59:38.388861 17934 net.cpp:425] inception_4e/3x3 <- inception_4e/3x3_reduce
I0403 14:59:38.388880 17934 net.cpp:399] inception_4e/3x3 -> inception_4e/3x3
I0403 14:59:38.393887 17934 net.cpp:141] Setting up inception_4e/3x3
I0403 14:59:38.393932 17934 net.cpp:148] Top shape: 24 320 14 14 (1505280)
I0403 14:59:38.393950 17934 net.cpp:156] Memory required for data: 1230108192
I0403 14:59:38.393968 17934 layer_factory.hpp:77] Creating layer inception_4e/relu_3x3
I0403 14:59:38.393990 17934 net.cpp:91] Creating Layer inception_4e/relu_3x3
I0403 14:59:38.394007 17934 net.cpp:425] inception_4e/relu_3x3 <- inception_4e/3x3
I0403 14:59:38.394026 17934 net.cpp:386] inception_4e/relu_3x3 -> inception_4e/3x3 (in-place)
I0403 14:59:38.394332 17934 net.cpp:141] Setting up inception_4e/relu_3x3
I0403 14:59:38.394358 17934 net.cpp:148] Top shape: 24 320 14 14 (1505280)
I0403 14:59:38.394373 17934 net.cpp:156] Memory required for data: 1236129312
I0403 14:59:38.394388 17934 layer_factory.hpp:77] Creating layer inception_4e/5x5_reduce
I0403 14:59:38.394412 17934 net.cpp:91] Creating Layer inception_4e/5x5_reduce
I0403 14:59:38.394430 17934 net.cpp:425] inception_4e/5x5_reduce <- inception_4d/output_inception_4d/output_0_split_3
I0403 14:59:38.394453 17934 net.cpp:399] inception_4e/5x5_reduce -> inception_4e/5x5_reduce
I0403 14:59:38.395553 17934 net.cpp:141] Setting up inception_4e/5x5_reduce
I0403 14:59:38.395581 17934 net.cpp:148] Top shape: 24 32 14 14 (150528)
I0403 14:59:38.395596 17934 net.cpp:156] Memory required for data: 1236731424
I0403 14:59:38.395614 17934 layer_factory.hpp:77] Creating layer inception_4e/relu_5x5_reduce
I0403 14:59:38.395634 17934 net.cpp:91] Creating Layer inception_4e/relu_5x5_reduce
I0403 14:59:38.395651 17934 net.cpp:425] inception_4e/relu_5x5_reduce <- inception_4e/5x5_reduce
I0403 14:59:38.395668 17934 net.cpp:386] inception_4e/relu_5x5_reduce -> inception_4e/5x5_reduce (in-place)
I0403 14:59:38.396003 17934 net.cpp:141] Setting up inception_4e/relu_5x5_reduce
I0403 14:59:38.396028 17934 net.cpp:148] Top shape: 24 32 14 14 (150528)
I0403 14:59:38.396044 17934 net.cpp:156] Memory required for data: 1237333536
I0403 14:59:38.396059 17934 layer_factory.hpp:77] Creating layer inception_4e/5x5
I0403 14:59:38.396100 17934 net.cpp:91] Creating Layer inception_4e/5x5
I0403 14:59:38.396117 17934 net.cpp:425] inception_4e/5x5 <- inception_4e/5x5_reduce
I0403 14:59:38.396137 17934 net.cpp:399] inception_4e/5x5 -> inception_4e/5x5
I0403 14:59:38.397984 17934 net.cpp:141] Setting up inception_4e/5x5
I0403 14:59:38.398036 17934 net.cpp:148] Top shape: 24 128 14 14 (602112)
I0403 14:59:38.398063 17934 net.cpp:156] Memory required for data: 1239741984
I0403 14:59:38.398082 17934 layer_factory.hpp:77] Creating layer inception_4e/relu_5x5
I0403 14:59:38.398103 17934 net.cpp:91] Creating Layer inception_4e/relu_5x5
I0403 14:59:38.398123 17934 net.cpp:425] inception_4e/relu_5x5 <- inception_4e/5x5
I0403 14:59:38.398141 17934 net.cpp:386] inception_4e/relu_5x5 -> inception_4e/5x5 (in-place)
I0403 14:59:38.398339 17934 net.cpp:141] Setting up inception_4e/relu_5x5
I0403 14:59:38.398375 17934 net.cpp:148] Top shape: 24 128 14 14 (602112)
I0403 14:59:38.398389 17934 net.cpp:156] Memory required for data: 1242150432
I0403 14:59:38.398403 17934 layer_factory.hpp:77] Creating layer inception_4e/pool
I0403 14:59:38.398423 17934 net.cpp:91] Creating Layer inception_4e/pool
I0403 14:59:38.398439 17934 net.cpp:425] inception_4e/pool <- inception_4d/output_inception_4d/output_0_split_4
I0403 14:59:38.398458 17934 net.cpp:399] inception_4e/pool -> inception_4e/pool
I0403 14:59:38.398527 17934 net.cpp:141] Setting up inception_4e/pool
I0403 14:59:38.398550 17934 net.cpp:148] Top shape: 24 528 14 14 (2483712)
I0403 14:59:38.398566 17934 net.cpp:156] Memory required for data: 1252085280
I0403 14:59:38.398579 17934 layer_factory.hpp:77] Creating layer inception_4e/pool_proj
I0403 14:59:38.398600 17934 net.cpp:91] Creating Layer inception_4e/pool_proj
I0403 14:59:38.398617 17934 net.cpp:425] inception_4e/pool_proj <- inception_4e/pool
I0403 14:59:38.398638 17934 net.cpp:399] inception_4e/pool_proj -> inception_4e/pool_proj
I0403 14:59:38.400144 17934 net.cpp:141] Setting up inception_4e/pool_proj
I0403 14:59:38.400184 17934 net.cpp:148] Top shape: 24 128 14 14 (602112)
I0403 14:59:38.400200 17934 net.cpp:156] Memory required for data: 1254493728
I0403 14:59:38.400218 17934 layer_factory.hpp:77] Creating layer inception_4e/relu_pool_proj
I0403 14:59:38.400236 17934 net.cpp:91] Creating Layer inception_4e/relu_pool_proj
I0403 14:59:38.400252 17934 net.cpp:425] inception_4e/relu_pool_proj <- inception_4e/pool_proj
I0403 14:59:38.400272 17934 net.cpp:386] inception_4e/relu_pool_proj -> inception_4e/pool_proj (in-place)
I0403 14:59:38.400565 17934 net.cpp:141] Setting up inception_4e/relu_pool_proj
I0403 14:59:38.400591 17934 net.cpp:148] Top shape: 24 128 14 14 (602112)
I0403 14:59:38.400606 17934 net.cpp:156] Memory required for data: 1256902176
I0403 14:59:38.400621 17934 layer_factory.hpp:77] Creating layer inception_4e/output
I0403 14:59:38.400638 17934 net.cpp:91] Creating Layer inception_4e/output
I0403 14:59:38.400655 17934 net.cpp:425] inception_4e/output <- inception_4e/1x1
I0403 14:59:38.400672 17934 net.cpp:425] inception_4e/output <- inception_4e/3x3
I0403 14:59:38.400688 17934 net.cpp:425] inception_4e/output <- inception_4e/5x5
I0403 14:59:38.400703 17934 net.cpp:425] inception_4e/output <- inception_4e/pool_proj
I0403 14:59:38.400723 17934 net.cpp:399] inception_4e/output -> inception_4e/output
I0403 14:59:38.400774 17934 net.cpp:141] Setting up inception_4e/output
I0403 14:59:38.400799 17934 net.cpp:148] Top shape: 24 832 14 14 (3913728)
I0403 14:59:38.400815 17934 net.cpp:156] Memory required for data: 1272557088
I0403 14:59:38.400830 17934 layer_factory.hpp:77] Creating layer pool4/3x3_s2
I0403 14:59:38.400847 17934 net.cpp:91] Creating Layer pool4/3x3_s2
I0403 14:59:38.400863 17934 net.cpp:425] pool4/3x3_s2 <- inception_4e/output
I0403 14:59:38.400884 17934 net.cpp:399] pool4/3x3_s2 -> pool4/3x3_s2
I0403 14:59:38.400952 17934 net.cpp:141] Setting up pool4/3x3_s2
I0403 14:59:38.400976 17934 net.cpp:148] Top shape: 24 832 7 7 (978432)
I0403 14:59:38.400997 17934 net.cpp:156] Memory required for data: 1276470816
I0403 14:59:38.401013 17934 layer_factory.hpp:77] Creating layer pool4/3x3_s2_pool4/3x3_s2_0_split
I0403 14:59:38.401033 17934 net.cpp:91] Creating Layer pool4/3x3_s2_pool4/3x3_s2_0_split
I0403 14:59:38.401051 17934 net.cpp:425] pool4/3x3_s2_pool4/3x3_s2_0_split <- pool4/3x3_s2
I0403 14:59:38.401067 17934 net.cpp:399] pool4/3x3_s2_pool4/3x3_s2_0_split -> pool4/3x3_s2_pool4/3x3_s2_0_split_0
I0403 14:59:38.401087 17934 net.cpp:399] pool4/3x3_s2_pool4/3x3_s2_0_split -> pool4/3x3_s2_pool4/3x3_s2_0_split_1
I0403 14:59:38.401110 17934 net.cpp:399] pool4/3x3_s2_pool4/3x3_s2_0_split -> pool4/3x3_s2_pool4/3x3_s2_0_split_2
I0403 14:59:38.401129 17934 net.cpp:399] pool4/3x3_s2_pool4/3x3_s2_0_split -> pool4/3x3_s2_pool4/3x3_s2_0_split_3
I0403 14:59:38.401222 17934 net.cpp:141] Setting up pool4/3x3_s2_pool4/3x3_s2_0_split
I0403 14:59:38.401245 17934 net.cpp:148] Top shape: 24 832 7 7 (978432)
I0403 14:59:38.401262 17934 net.cpp:148] Top shape: 24 832 7 7 (978432)
I0403 14:59:38.401278 17934 net.cpp:148] Top shape: 24 832 7 7 (978432)
I0403 14:59:38.401293 17934 net.cpp:148] Top shape: 24 832 7 7 (978432)
I0403 14:59:38.401307 17934 net.cpp:156] Memory required for data: 1292125728
I0403 14:59:38.401321 17934 layer_factory.hpp:77] Creating layer inception_5a/1x1
I0403 14:59:38.401343 17934 net.cpp:91] Creating Layer inception_5a/1x1
I0403 14:59:38.401360 17934 net.cpp:425] inception_5a/1x1 <- pool4/3x3_s2_pool4/3x3_s2_0_split_0
I0403 14:59:38.401382 17934 net.cpp:399] inception_5a/1x1 -> inception_5a/1x1
I0403 14:59:38.404217 17934 net.cpp:141] Setting up inception_5a/1x1
I0403 14:59:38.404244 17934 net.cpp:148] Top shape: 24 256 7 7 (301056)
I0403 14:59:38.404259 17934 net.cpp:156] Memory required for data: 1293329952
I0403 14:59:38.404278 17934 layer_factory.hpp:77] Creating layer inception_5a/relu_1x1
I0403 14:59:38.404297 17934 net.cpp:91] Creating Layer inception_5a/relu_1x1
I0403 14:59:38.404314 17934 net.cpp:425] inception_5a/relu_1x1 <- inception_5a/1x1
I0403 14:59:38.404331 17934 net.cpp:386] inception_5a/relu_1x1 -> inception_5a/1x1 (in-place)
I0403 14:59:38.404652 17934 net.cpp:141] Setting up inception_5a/relu_1x1
I0403 14:59:38.404680 17934 net.cpp:148] Top shape: 24 256 7 7 (301056)
I0403 14:59:38.404695 17934 net.cpp:156] Memory required for data: 1294534176
I0403 14:59:38.404722 17934 layer_factory.hpp:77] Creating layer inception_5a/3x3_reduce
I0403 14:59:38.404747 17934 net.cpp:91] Creating Layer inception_5a/3x3_reduce
I0403 14:59:38.404767 17934 net.cpp:425] inception_5a/3x3_reduce <- pool4/3x3_s2_pool4/3x3_s2_0_split_1
I0403 14:59:38.404789 17934 net.cpp:399] inception_5a/3x3_reduce -> inception_5a/3x3_reduce
I0403 14:59:38.407268 17934 net.cpp:141] Setting up inception_5a/3x3_reduce
I0403 14:59:38.407299 17934 net.cpp:148] Top shape: 24 160 7 7 (188160)
I0403 14:59:38.407317 17934 net.cpp:156] Memory required for data: 1295286816
I0403 14:59:38.407336 17934 layer_factory.hpp:77] Creating layer inception_5a/relu_3x3_reduce
I0403 14:59:38.407356 17934 net.cpp:91] Creating Layer inception_5a/relu_3x3_reduce
I0403 14:59:38.407373 17934 net.cpp:425] inception_5a/relu_3x3_reduce <- inception_5a/3x3_reduce
I0403 14:59:38.407393 17934 net.cpp:386] inception_5a/relu_3x3_reduce -> inception_5a/3x3_reduce (in-place)
I0403 14:59:38.407580 17934 net.cpp:141] Setting up inception_5a/relu_3x3_reduce
I0403 14:59:38.407608 17934 net.cpp:148] Top shape: 24 160 7 7 (188160)
I0403 14:59:38.407623 17934 net.cpp:156] Memory required for data: 1296039456
I0403 14:59:38.407637 17934 layer_factory.hpp:77] Creating layer inception_5a/3x3
I0403 14:59:38.407665 17934 net.cpp:91] Creating Layer inception_5a/3x3
I0403 14:59:38.407683 17934 net.cpp:425] inception_5a/3x3 <- inception_5a/3x3_reduce
I0403 14:59:38.407706 17934 net.cpp:399] inception_5a/3x3 -> inception_5a/3x3
I0403 14:59:38.412770 17934 net.cpp:141] Setting up inception_5a/3x3
I0403 14:59:38.412797 17934 net.cpp:148] Top shape: 24 320 7 7 (376320)
I0403 14:59:38.412812 17934 net.cpp:156] Memory required for data: 1297544736
I0403 14:59:38.412830 17934 layer_factory.hpp:77] Creating layer inception_5a/relu_3x3
I0403 14:59:38.412852 17934 net.cpp:91] Creating Layer inception_5a/relu_3x3
I0403 14:59:38.412868 17934 net.cpp:425] inception_5a/relu_3x3 <- inception_5a/3x3
I0403 14:59:38.412884 17934 net.cpp:386] inception_5a/relu_3x3 -> inception_5a/3x3 (in-place)
I0403 14:59:38.413189 17934 net.cpp:141] Setting up inception_5a/relu_3x3
I0403 14:59:38.413215 17934 net.cpp:148] Top shape: 24 320 7 7 (376320)
I0403 14:59:38.413230 17934 net.cpp:156] Memory required for data: 1299050016
I0403 14:59:38.413245 17934 layer_factory.hpp:77] Creating layer inception_5a/5x5_reduce
I0403 14:59:38.413270 17934 net.cpp:91] Creating Layer inception_5a/5x5_reduce
I0403 14:59:38.413288 17934 net.cpp:425] inception_5a/5x5_reduce <- pool4/3x3_s2_pool4/3x3_s2_0_split_2
I0403 14:59:38.413311 17934 net.cpp:399] inception_5a/5x5_reduce -> inception_5a/5x5_reduce
I0403 14:59:38.414494 17934 net.cpp:141] Setting up inception_5a/5x5_reduce
I0403 14:59:38.414523 17934 net.cpp:148] Top shape: 24 32 7 7 (37632)
I0403 14:59:38.414541 17934 net.cpp:156] Memory required for data: 1299200544
I0403 14:59:38.414559 17934 layer_factory.hpp:77] Creating layer inception_5a/relu_5x5_reduce
I0403 14:59:38.414580 17934 net.cpp:91] Creating Layer inception_5a/relu_5x5_reduce
I0403 14:59:38.414597 17934 net.cpp:425] inception_5a/relu_5x5_reduce <- inception_5a/5x5_reduce
I0403 14:59:38.414614 17934 net.cpp:386] inception_5a/relu_5x5_reduce -> inception_5a/5x5_reduce (in-place)
I0403 14:59:38.414914 17934 net.cpp:141] Setting up inception_5a/relu_5x5_reduce
I0403 14:59:38.414942 17934 net.cpp:148] Top shape: 24 32 7 7 (37632)
I0403 14:59:38.414958 17934 net.cpp:156] Memory required for data: 1299351072
I0403 14:59:38.414974 17934 layer_factory.hpp:77] Creating layer inception_5a/5x5
I0403 14:59:38.415004 17934 net.cpp:91] Creating Layer inception_5a/5x5
I0403 14:59:38.415024 17934 net.cpp:425] inception_5a/5x5 <- inception_5a/5x5_reduce
I0403 14:59:38.415045 17934 net.cpp:399] inception_5a/5x5 -> inception_5a/5x5
I0403 14:59:38.416771 17934 net.cpp:141] Setting up inception_5a/5x5
I0403 14:59:38.416812 17934 net.cpp:148] Top shape: 24 128 7 7 (150528)
I0403 14:59:38.416831 17934 net.cpp:156] Memory required for data: 1299953184
I0403 14:59:38.416851 17934 layer_factory.hpp:77] Creating layer inception_5a/relu_5x5
I0403 14:59:38.416872 17934 net.cpp:91] Creating Layer inception_5a/relu_5x5
I0403 14:59:38.416888 17934 net.cpp:425] inception_5a/relu_5x5 <- inception_5a/5x5
I0403 14:59:38.416905 17934 net.cpp:386] inception_5a/relu_5x5 -> inception_5a/5x5 (in-place)
I0403 14:59:38.417104 17934 net.cpp:141] Setting up inception_5a/relu_5x5
I0403 14:59:38.417130 17934 net.cpp:148] Top shape: 24 128 7 7 (150528)
I0403 14:59:38.417146 17934 net.cpp:156] Memory required for data: 1300555296
I0403 14:59:38.417162 17934 layer_factory.hpp:77] Creating layer inception_5a/pool
I0403 14:59:38.417182 17934 net.cpp:91] Creating Layer inception_5a/pool
I0403 14:59:38.417199 17934 net.cpp:425] inception_5a/pool <- pool4/3x3_s2_pool4/3x3_s2_0_split_3
I0403 14:59:38.417217 17934 net.cpp:399] inception_5a/pool -> inception_5a/pool
I0403 14:59:38.417291 17934 net.cpp:141] Setting up inception_5a/pool
I0403 14:59:38.417315 17934 net.cpp:148] Top shape: 24 832 7 7 (978432)
I0403 14:59:38.417330 17934 net.cpp:156] Memory required for data: 1304469024
I0403 14:59:38.417346 17934 layer_factory.hpp:77] Creating layer inception_5a/pool_proj
I0403 14:59:38.417367 17934 net.cpp:91] Creating Layer inception_5a/pool_proj
I0403 14:59:38.417385 17934 net.cpp:425] inception_5a/pool_proj <- inception_5a/pool
I0403 14:59:38.417407 17934 net.cpp:399] inception_5a/pool_proj -> inception_5a/pool_proj
I0403 14:59:38.419705 17934 net.cpp:141] Setting up inception_5a/pool_proj
I0403 14:59:38.419735 17934 net.cpp:148] Top shape: 24 128 7 7 (150528)
I0403 14:59:38.419752 17934 net.cpp:156] Memory required for data: 1305071136
I0403 14:59:38.419771 17934 layer_factory.hpp:77] Creating layer inception_5a/relu_pool_proj
I0403 14:59:38.419790 17934 net.cpp:91] Creating Layer inception_5a/relu_pool_proj
I0403 14:59:38.419806 17934 net.cpp:425] inception_5a/relu_pool_proj <- inception_5a/pool_proj
I0403 14:59:38.419826 17934 net.cpp:386] inception_5a/relu_pool_proj -> inception_5a/pool_proj (in-place)
I0403 14:59:38.420130 17934 net.cpp:141] Setting up inception_5a/relu_pool_proj
I0403 14:59:38.420156 17934 net.cpp:148] Top shape: 24 128 7 7 (150528)
I0403 14:59:38.420171 17934 net.cpp:156] Memory required for data: 1305673248
I0403 14:59:38.420186 17934 layer_factory.hpp:77] Creating layer inception_5a/output
I0403 14:59:38.420202 17934 net.cpp:91] Creating Layer inception_5a/output
I0403 14:59:38.420218 17934 net.cpp:425] inception_5a/output <- inception_5a/1x1
I0403 14:59:38.420234 17934 net.cpp:425] inception_5a/output <- inception_5a/3x3
I0403 14:59:38.420251 17934 net.cpp:425] inception_5a/output <- inception_5a/5x5
I0403 14:59:38.420267 17934 net.cpp:425] inception_5a/output <- inception_5a/pool_proj
I0403 14:59:38.420286 17934 net.cpp:399] inception_5a/output -> inception_5a/output
I0403 14:59:38.420336 17934 net.cpp:141] Setting up inception_5a/output
I0403 14:59:38.420362 17934 net.cpp:148] Top shape: 24 832 7 7 (978432)
I0403 14:59:38.420378 17934 net.cpp:156] Memory required for data: 1309586976
I0403 14:59:38.420393 17934 layer_factory.hpp:77] Creating layer inception_5a/output_inception_5a/output_0_split
I0403 14:59:38.420409 17934 net.cpp:91] Creating Layer inception_5a/output_inception_5a/output_0_split
I0403 14:59:38.420425 17934 net.cpp:425] inception_5a/output_inception_5a/output_0_split <- inception_5a/output
I0403 14:59:38.420445 17934 net.cpp:399] inception_5a/output_inception_5a/output_0_split -> inception_5a/output_inception_5a/output_0_split_0
I0403 14:59:38.420465 17934 net.cpp:399] inception_5a/output_inception_5a/output_0_split -> inception_5a/output_inception_5a/output_0_split_1
I0403 14:59:38.420488 17934 net.cpp:399] inception_5a/output_inception_5a/output_0_split -> inception_5a/output_inception_5a/output_0_split_2
I0403 14:59:38.420509 17934 net.cpp:399] inception_5a/output_inception_5a/output_0_split -> inception_5a/output_inception_5a/output_0_split_3
I0403 14:59:38.420651 17934 net.cpp:141] Setting up inception_5a/output_inception_5a/output_0_split
I0403 14:59:38.420677 17934 net.cpp:148] Top shape: 24 832 7 7 (978432)
I0403 14:59:38.420694 17934 net.cpp:148] Top shape: 24 832 7 7 (978432)
I0403 14:59:38.420711 17934 net.cpp:148] Top shape: 24 832 7 7 (978432)
I0403 14:59:38.420725 17934 net.cpp:148] Top shape: 24 832 7 7 (978432)
I0403 14:59:38.420739 17934 net.cpp:156] Memory required for data: 1325241888
I0403 14:59:38.420753 17934 layer_factory.hpp:77] Creating layer inception_5b/1x1
I0403 14:59:38.420775 17934 net.cpp:91] Creating Layer inception_5b/1x1
I0403 14:59:38.420794 17934 net.cpp:425] inception_5b/1x1 <- inception_5a/output_inception_5a/output_0_split_0
I0403 14:59:38.420814 17934 net.cpp:399] inception_5b/1x1 -> inception_5b/1x1
I0403 14:59:38.424643 17934 net.cpp:141] Setting up inception_5b/1x1
I0403 14:59:38.424674 17934 net.cpp:148] Top shape: 24 384 7 7 (451584)
I0403 14:59:38.424692 17934 net.cpp:156] Memory required for data: 1327048224
I0403 14:59:38.424711 17934 layer_factory.hpp:77] Creating layer inception_5b/relu_1x1
I0403 14:59:38.424729 17934 net.cpp:91] Creating Layer inception_5b/relu_1x1
I0403 14:59:38.424744 17934 net.cpp:425] inception_5b/relu_1x1 <- inception_5b/1x1
I0403 14:59:38.424764 17934 net.cpp:386] inception_5b/relu_1x1 -> inception_5b/1x1 (in-place)
I0403 14:59:38.425073 17934 net.cpp:141] Setting up inception_5b/relu_1x1
I0403 14:59:38.425102 17934 net.cpp:148] Top shape: 24 384 7 7 (451584)
I0403 14:59:38.425118 17934 net.cpp:156] Memory required for data: 1328854560
I0403 14:59:38.425133 17934 layer_factory.hpp:77] Creating layer inception_5b/3x3_reduce
I0403 14:59:38.425156 17934 net.cpp:91] Creating Layer inception_5b/3x3_reduce
I0403 14:59:38.425174 17934 net.cpp:425] inception_5b/3x3_reduce <- inception_5a/output_inception_5a/output_0_split_1
I0403 14:59:38.425194 17934 net.cpp:399] inception_5b/3x3_reduce -> inception_5b/3x3_reduce
I0403 14:59:38.427881 17934 net.cpp:141] Setting up inception_5b/3x3_reduce
I0403 14:59:38.427911 17934 net.cpp:148] Top shape: 24 192 7 7 (225792)
I0403 14:59:38.427927 17934 net.cpp:156] Memory required for data: 1329757728
I0403 14:59:38.427945 17934 layer_factory.hpp:77] Creating layer inception_5b/relu_3x3_reduce
I0403 14:59:38.427963 17934 net.cpp:91] Creating Layer inception_5b/relu_3x3_reduce
I0403 14:59:38.427980 17934 net.cpp:425] inception_5b/relu_3x3_reduce <- inception_5b/3x3_reduce
I0403 14:59:38.428016 17934 net.cpp:386] inception_5b/relu_3x3_reduce -> inception_5b/3x3_reduce (in-place)
I0403 14:59:38.428213 17934 net.cpp:141] Setting up inception_5b/relu_3x3_reduce
I0403 14:59:38.428238 17934 net.cpp:148] Top shape: 24 192 7 7 (225792)
I0403 14:59:38.428253 17934 net.cpp:156] Memory required for data: 1330660896
I0403 14:59:38.428270 17934 layer_factory.hpp:77] Creating layer inception_5b/3x3
I0403 14:59:38.428292 17934 net.cpp:91] Creating Layer inception_5b/3x3
I0403 14:59:38.428310 17934 net.cpp:425] inception_5b/3x3 <- inception_5b/3x3_reduce
I0403 14:59:38.428333 17934 net.cpp:399] inception_5b/3x3 -> inception_5b/3x3
I0403 14:59:38.435087 17934 net.cpp:141] Setting up inception_5b/3x3
I0403 14:59:38.435119 17934 net.cpp:148] Top shape: 24 384 7 7 (451584)
I0403 14:59:38.435137 17934 net.cpp:156] Memory required for data: 1332467232
I0403 14:59:38.435155 17934 layer_factory.hpp:77] Creating layer inception_5b/relu_3x3
I0403 14:59:38.435174 17934 net.cpp:91] Creating Layer inception_5b/relu_3x3
I0403 14:59:38.435190 17934 net.cpp:425] inception_5b/relu_3x3 <- inception_5b/3x3
I0403 14:59:38.435210 17934 net.cpp:386] inception_5b/relu_3x3 -> inception_5b/3x3 (in-place)
I0403 14:59:38.435509 17934 net.cpp:141] Setting up inception_5b/relu_3x3
I0403 14:59:38.435536 17934 net.cpp:148] Top shape: 24 384 7 7 (451584)
I0403 14:59:38.435551 17934 net.cpp:156] Memory required for data: 1334273568
I0403 14:59:38.435565 17934 layer_factory.hpp:77] Creating layer inception_5b/5x5_reduce
I0403 14:59:38.435606 17934 net.cpp:91] Creating Layer inception_5b/5x5_reduce
I0403 14:59:38.435626 17934 net.cpp:425] inception_5b/5x5_reduce <- inception_5a/output_inception_5a/output_0_split_2
I0403 14:59:38.435648 17934 net.cpp:399] inception_5b/5x5_reduce -> inception_5b/5x5_reduce
I0403 14:59:38.436933 17934 net.cpp:141] Setting up inception_5b/5x5_reduce
I0403 14:59:38.436961 17934 net.cpp:148] Top shape: 24 48 7 7 (56448)
I0403 14:59:38.436977 17934 net.cpp:156] Memory required for data: 1334499360
I0403 14:59:38.437005 17934 layer_factory.hpp:77] Creating layer inception_5b/relu_5x5_reduce
I0403 14:59:38.437026 17934 net.cpp:91] Creating Layer inception_5b/relu_5x5_reduce
I0403 14:59:38.437042 17934 net.cpp:425] inception_5b/relu_5x5_reduce <- inception_5b/5x5_reduce
I0403 14:59:38.437062 17934 net.cpp:386] inception_5b/relu_5x5_reduce -> inception_5b/5x5_reduce (in-place)
I0403 14:59:38.437439 17934 net.cpp:141] Setting up inception_5b/relu_5x5_reduce
I0403 14:59:38.437469 17934 net.cpp:148] Top shape: 24 48 7 7 (56448)
I0403 14:59:38.437484 17934 net.cpp:156] Memory required for data: 1334725152
I0403 14:59:38.437500 17934 layer_factory.hpp:77] Creating layer inception_5b/5x5
I0403 14:59:38.437521 17934 net.cpp:91] Creating Layer inception_5b/5x5
I0403 14:59:38.437539 17934 net.cpp:425] inception_5b/5x5 <- inception_5b/5x5_reduce
I0403 14:59:38.437558 17934 net.cpp:399] inception_5b/5x5 -> inception_5b/5x5
I0403 14:59:38.439648 17934 net.cpp:141] Setting up inception_5b/5x5
I0403 14:59:38.439678 17934 net.cpp:148] Top shape: 24 128 7 7 (150528)
I0403 14:59:38.439695 17934 net.cpp:156] Memory required for data: 1335327264
I0403 14:59:38.439714 17934 layer_factory.hpp:77] Creating layer inception_5b/relu_5x5
I0403 14:59:38.439734 17934 net.cpp:91] Creating Layer inception_5b/relu_5x5
I0403 14:59:38.439751 17934 net.cpp:425] inception_5b/relu_5x5 <- inception_5b/5x5
I0403 14:59:38.439769 17934 net.cpp:386] inception_5b/relu_5x5 -> inception_5b/5x5 (in-place)
I0403 14:59:38.439965 17934 net.cpp:141] Setting up inception_5b/relu_5x5
I0403 14:59:38.439999 17934 net.cpp:148] Top shape: 24 128 7 7 (150528)
I0403 14:59:38.440017 17934 net.cpp:156] Memory required for data: 1335929376
I0403 14:59:38.440032 17934 layer_factory.hpp:77] Creating layer inception_5b/pool
I0403 14:59:38.440050 17934 net.cpp:91] Creating Layer inception_5b/pool
I0403 14:59:38.440067 17934 net.cpp:425] inception_5b/pool <- inception_5a/output_inception_5a/output_0_split_3
I0403 14:59:38.440084 17934 net.cpp:399] inception_5b/pool -> inception_5b/pool
I0403 14:59:38.440160 17934 net.cpp:141] Setting up inception_5b/pool
I0403 14:59:38.440183 17934 net.cpp:148] Top shape: 24 832 7 7 (978432)
I0403 14:59:38.440198 17934 net.cpp:156] Memory required for data: 1339843104
I0403 14:59:38.440213 17934 layer_factory.hpp:77] Creating layer inception_5b/pool_proj
I0403 14:59:38.440237 17934 net.cpp:91] Creating Layer inception_5b/pool_proj
I0403 14:59:38.440256 17934 net.cpp:425] inception_5b/pool_proj <- inception_5b/pool
I0403 14:59:38.440277 17934 net.cpp:399] inception_5b/pool_proj -> inception_5b/pool_proj
I0403 14:59:38.442617 17934 net.cpp:141] Setting up inception_5b/pool_proj
I0403 14:59:38.442648 17934 net.cpp:148] Top shape: 24 128 7 7 (150528)
I0403 14:59:38.442665 17934 net.cpp:156] Memory required for data: 1340445216
I0403 14:59:38.442684 17934 layer_factory.hpp:77] Creating layer inception_5b/relu_pool_proj
I0403 14:59:38.442705 17934 net.cpp:91] Creating Layer inception_5b/relu_pool_proj
I0403 14:59:38.442723 17934 net.cpp:425] inception_5b/relu_pool_proj <- inception_5b/pool_proj
I0403 14:59:38.442740 17934 net.cpp:386] inception_5b/relu_pool_proj -> inception_5b/pool_proj (in-place)
I0403 14:59:38.443054 17934 net.cpp:141] Setting up inception_5b/relu_pool_proj
I0403 14:59:38.443084 17934 net.cpp:148] Top shape: 24 128 7 7 (150528)
I0403 14:59:38.443099 17934 net.cpp:156] Memory required for data: 1341047328
I0403 14:59:38.443114 17934 layer_factory.hpp:77] Creating layer inception_5b/output
I0403 14:59:38.443132 17934 net.cpp:91] Creating Layer inception_5b/output
I0403 14:59:38.443163 17934 net.cpp:425] inception_5b/output <- inception_5b/1x1
I0403 14:59:38.443181 17934 net.cpp:425] inception_5b/output <- inception_5b/3x3
I0403 14:59:38.443198 17934 net.cpp:425] inception_5b/output <- inception_5b/5x5
I0403 14:59:38.443214 17934 net.cpp:425] inception_5b/output <- inception_5b/pool_proj
I0403 14:59:38.443234 17934 net.cpp:399] inception_5b/output -> inception_5b/output
I0403 14:59:38.443286 17934 net.cpp:141] Setting up inception_5b/output
I0403 14:59:38.443313 17934 net.cpp:148] Top shape: 24 1024 7 7 (1204224)
I0403 14:59:38.443330 17934 net.cpp:156] Memory required for data: 1345864224
I0403 14:59:38.443344 17934 layer_factory.hpp:77] Creating layer pool5/7x7_s1
I0403 14:59:38.443362 17934 net.cpp:91] Creating Layer pool5/7x7_s1
I0403 14:59:38.443377 17934 net.cpp:425] pool5/7x7_s1 <- inception_5b/output
I0403 14:59:38.443399 17934 net.cpp:399] pool5/7x7_s1 -> pool5/7x7_s1
I0403 14:59:38.443616 17934 net.cpp:141] Setting up pool5/7x7_s1
I0403 14:59:38.443641 17934 net.cpp:148] Top shape: 24 1024 1 1 (24576)
I0403 14:59:38.443656 17934 net.cpp:156] Memory required for data: 1345962528
I0403 14:59:38.443671 17934 layer_factory.hpp:77] Creating layer pool5/drop_7x7_s1
I0403 14:59:38.443689 17934 net.cpp:91] Creating Layer pool5/drop_7x7_s1
I0403 14:59:38.443708 17934 net.cpp:425] pool5/drop_7x7_s1 <- pool5/7x7_s1
I0403 14:59:38.443727 17934 net.cpp:386] pool5/drop_7x7_s1 -> pool5/7x7_s1 (in-place)
I0403 14:59:38.443775 17934 net.cpp:141] Setting up pool5/drop_7x7_s1
I0403 14:59:38.443800 17934 net.cpp:148] Top shape: 24 1024 1 1 (24576)
I0403 14:59:38.443816 17934 net.cpp:156] Memory required for data: 1346060832
I0403 14:59:38.443831 17934 layer_factory.hpp:77] Creating layer loss3/classifier_plantvillage
I0403 14:59:38.443850 17934 net.cpp:91] Creating Layer loss3/classifier_plantvillage
I0403 14:59:38.443866 17934 net.cpp:425] loss3/classifier_plantvillage <- pool5/7x7_s1
I0403 14:59:38.443887 17934 net.cpp:399] loss3/classifier_plantvillage -> loss3/classifier_plantvillage
I0403 14:59:38.444324 17934 net.cpp:141] Setting up loss3/classifier_plantvillage
I0403 14:59:38.444350 17934 net.cpp:148] Top shape: 24 38 (912)
I0403 14:59:38.444365 17934 net.cpp:156] Memory required for data: 1346064480
I0403 14:59:38.444385 17934 layer_factory.hpp:77] Creating layer loss3/classifier_plantvillage_loss3/classifier_plantvillage_0_split
I0403 14:59:38.444402 17934 net.cpp:91] Creating Layer loss3/classifier_plantvillage_loss3/classifier_plantvillage_0_split
I0403 14:59:38.444417 17934 net.cpp:425] loss3/classifier_plantvillage_loss3/classifier_plantvillage_0_split <- loss3/classifier_plantvillage
I0403 14:59:38.444435 17934 net.cpp:399] loss3/classifier_plantvillage_loss3/classifier_plantvillage_0_split -> loss3/classifier_plantvillage_loss3/classifier_plantvillage_0_split_0
I0403 14:59:38.444458 17934 net.cpp:399] loss3/classifier_plantvillage_loss3/classifier_plantvillage_0_split -> loss3/classifier_plantvillage_loss3/classifier_plantvillage_0_split_1
I0403 14:59:38.444480 17934 net.cpp:399] loss3/classifier_plantvillage_loss3/classifier_plantvillage_0_split -> loss3/classifier_plantvillage_loss3/classifier_plantvillage_0_split_2
I0403 14:59:38.444500 17934 net.cpp:399] loss3/classifier_plantvillage_loss3/classifier_plantvillage_0_split -> loss3/classifier_plantvillage_loss3/classifier_plantvillage_0_split_3
I0403 14:59:38.444607 17934 net.cpp:141] Setting up loss3/classifier_plantvillage_loss3/classifier_plantvillage_0_split
I0403 14:59:38.444629 17934 net.cpp:148] Top shape: 24 38 (912)
I0403 14:59:38.444646 17934 net.cpp:148] Top shape: 24 38 (912)
I0403 14:59:38.444661 17934 net.cpp:148] Top shape: 24 38 (912)
I0403 14:59:38.444677 17934 net.cpp:148] Top shape: 24 38 (912)
I0403 14:59:38.444691 17934 net.cpp:156] Memory required for data: 1346079072
I0403 14:59:38.444705 17934 layer_factory.hpp:77] Creating layer loss1/loss
I0403 14:59:38.444730 17934 net.cpp:91] Creating Layer loss1/loss
I0403 14:59:38.444747 17934 net.cpp:425] loss1/loss <- loss1/classifier_plantvillage_loss1/classifier_plantvillage_0_split_0
I0403 14:59:38.444778 17934 net.cpp:425] loss1/loss <- label_data_1_split_0
…
