…
I0403 15:26:27.420007 19414 net.cpp:313] The NetState phase (1) differed from the phase (0) specified by a rule in layer data
I0403 15:26:27.421149 19414 net.cpp:49] Initializing net from parameters: 
state {
  phase: TEST
}
layer {
  name: "data"
  type: "Data"
  top: "data"
  top: "label"
  include {
    phase: TEST
  }
  transform_param {
    mirror: false
    crop_size: 224
    mean_file: "/home/mohanty/data/final_dataset/lmdb/grayscale-40-60/mean.binaryproto"
  }
  data_param {
    source: "/home/mohanty/data/final_dataset/lmdb/grayscale-40-60/test_db"
    batch_size: 24
    backend: LMDB
  }
}
layer {
  name: "conv1/7x7_s2"
  type: "Convolution"
  bottom: "data"
  top: "conv1/7x7_s2"
  param {
    lr_mult: 1
    decay_mult: 1
  }
  param {
    lr_mult: 2
    decay_mult: 0
  }
  convolution_param {
    num_output: 64
    pad: 3
    kernel_size: 7
    stride: 2
    weight_filler {
      type: "xavier"
      std: 0.1
    }
    bias_filler {
      type: "constant"
      value: 0.2
    }
  }
}
layer {
  name: "conv1/relu_7x7"
  type: "ReLU"
  bottom: "conv1/7x7_s2"
  top: "conv1/7x7_s2"
}
layer {
  name: "pool1/3x3_s2"
  type: "Pooling"
  bottom: "conv1/7x7_s2"
  top: "pool1/3x3_s2"
  pooling_param {
    pool: MAX
    kernel_size: 3
    stride: 2
  }
}
layer {
  name: "pool1/norm1"
  type: "LRN"
  bottom: "pool1/3x3_s2"
  top: "pool1/norm1"
  lrn_param {
    local_size: 5
    alpha: 0.0001
    beta: 0.75
  }
}
layer {
  name: "conv2/3x3_reduce"
  type: "Convolution"
  bottom: "pool1/norm1"
  top: "conv2/3x3_reduce"
  param {
    lr_mult: 1
    decay_mult: 1
  }
  param {
    lr_mult: 2
    decay_mult: 0
  }
  convolution_param {
    num_output: 64
    kernel_size: 1
    weight_filler {
      type: "xavier"
      std: 0.1
    }
    bias_filler {
      type: "constant"
      value: 0.2
    }
  }
}
layer {
  name: "conv2/relu_3x3_reduce"
  type: "ReLU"
  bottom: "conv2/3x3_reduce"
  top: "conv2/3x3_reduce"
}
layer {
  name: "conv2/3x3"
  type: "Convolution"
  bottom: "conv2/3x3_reduce"
  top: "conv2/3x3"
  param {
    lr_mult: 1
    decay_mult: 1
  }
  param {
    lr_mult: 2
    decay_mult: 0
  }
  convolution_param {
    num_output: 192
    pad: 1
    kernel_size: 3
    weight_filler {
      type: "xavier"
      std: 0.03
    }
    bias_filler {
      type: "constant"
      value: 0.2
    }
  }
}
layer {
  name: "conv2/relu_3x3"
  type: "ReLU"
  bottom: "conv2/3x3"
  top: "conv2/3x3"
}
layer {
  name: "conv2/norm2"
  type: "LRN"
  bottom: "conv2/3x3"
  top: "conv2/norm2"
  lrn_param {
    local_size: 5
    alpha: 0.0001
    beta: 0.75
  }
}
layer {
  name: "pool2/3x3_s2"
  type: "Pooling"
  bottom: "conv2/norm2"
  top: "pool2/3x3_s2"
  pooling_param {
    pool: MAX
    kernel_size: 3
    stride: 2
  }
}
layer {
  name: "inception_3a/1x1"
  type: "Convolution"
  bottom: "pool2/3x3_s2"
  top: "inception_3a/1x1"
  param {
    lr_mult: 1
    decay_mult: 1
  }
  param {
    lr_mult: 2
    decay_mult: 0
  }
  convolution_param {
    num_output: 64
    kernel_size: 1
    weight_filler {
      type: "xavier"
      std: 0.03
    }
    bias_filler {
      type: "constant"
      value: 0.2
    }
  }
}
layer {
  name: "inception_3a/relu_1x1"
  type: "ReLU"
  bottom: "inception_3a/1x1"
  top: "inception_3a/1x1"
}
layer {
  name: "inception_3a/3x3_reduce"
  type: "Convolution"
  bottom: "pool2/3x3_s2"
  top: "inception_3a/3x3_reduce"
  param {
    lr_mult: 1
    decay_mult: 1
  }
  param {
    lr_mult: 2
    decay_mult: 0
  }
  convolution_param {
    num_output: 96
    kernel_size: 1
    weight_filler {
      type: "xavier"
      std: 0.09
    }
    bias_filler {
      type: "constant"
      value: 0.2
    }
  }
}
layer {
  name: "inception_3a/relu_3x3_reduce"
  type: "ReLU"
  bottom: "inception_3a/3x3_reduce"
  top: "inception_3a/3x3_reduce"
}
layer {
  name: "inception_3a/3x3"
  type: "Convolution"
  bottom: "inception_3a/3x3_reduce"
  top: "inception_3a/3x3"
  param {
    lr_mult: 1
    decay_mult: 1
  }
  param {
    lr_mult: 2
    decay_mult: 0
  }
  convolution_param {
    num_output: 128
    pad: 1
    kernel_size: 3
    weight_filler {
      type: "xavier"
      std: 0.03
    }
    bias_filler {
      type: "constant"
      value: 0.2
    }
  }
}
layer {
  name: "inception_3a/relu_3x3"
  type: "ReLU"
  bottom: "inception_3a/3x3"
  top: "inception_3a/3x3"
}
layer {
  name: "inception_3a/5x5_reduce"
  type: "Convolution"
  bottom: "pool2/3x3_s2"
  top: "inception_3a/5x5_reduce"
  param {
    lr_mult: 1
    decay_mult: 1
  }
  param {
    lr_mult: 2
    decay_mult: 0
  }
  convolution_param {
    num_output: 16
    kernel_size: 1
    weight_filler {
      type: "xavier"
      std: 0.2
    }
    bias_filler {
      type: "constant"
      value: 0.2
    }
  }
}
layer {
  name: "inception_3a/relu_5x5_reduce"
  type: "ReLU"
  bottom: "inception_3a/5x5_reduce"
  top: "inception_3a/5x5_reduce"
}
layer {
  name: "inception_3a/5x5"
  type: "Convolution"
  bottom: "inception_3a/5x5_reduce"
  top: "inception_3a/5x5"
  param {
    lr_mult: 1
    decay_mult: 1
  }
  param {
    lr_mult: 2
    decay_mult: 0
  }
  convolution_param {
    num_output: 32
    pad: 2
    kernel_size: 5
    weight_filler {
      type: "xavier"
      std: 0.03
    }
    bias_filler {
      type: "constant"
      value: 0.2
    }
  }
}
layer {
  name: "inception_3a/relu_5x5"
  type: "ReLU"
  bottom: "inception_3a/5x5"
  top: "inception_3a/5x5"
}
layer {
  name: "inception_3a/pool"
  type: "Pooling"
  bottom: "pool2/3x3_s2"
  top: "inception_3a/pool"
  pooling_param {
    pool: MAX
    kernel_size: 3
    stride: 1
    pad: 1
  }
}
layer {
  name: "inception_3a/pool_proj"
  type: "Convolution"
  bottom: "inception_3a/pool"
  top: "inception_3a/pool_proj"
  param {
    lr_mult: 1
    decay_mult: 1
  }
  param {
    lr_mult: 2
    decay_mult: 0
  }
  convolution_param {
    num_output: 32
    kernel_size: 1
    weight_filler {
      type: "xavier"
      std: 0.1
    }
    bias_filler {
      type: "constant"
      value: 0.2
    }
  }
}
layer {
  name: "inception_3a/relu_pool_proj"
  type: "ReLU"
  bottom: "inception_3a/pool_proj"
  top: "inception_3a/pool_proj"
}
layer {
  name: "inception_3a/output"
  type: "Concat"
  bottom: "inception_3a/1x1"
  bottom: "inception_3a/3x3"
  bottom: "inception_3a/5x5"
  bottom: "inception_3a/pool_proj"
  top: "inception_3a/output"
}
layer {
  name: "inception_3b/1x1"
  type: "Convolution"
  bottom: "inception_3a/output"
  top: "inception_3b/1x1"
  param {
    lr_mult: 1
    decay_mult: 1
  }
  param {
    lr_mult: 2
    decay_mult: 0
  }
  convolution_param {
    num_output: 128
    kernel_size: 1
    weight_filler {
      type: "xavier"
      std: 0.03
    }
    bias_filler {
      type: "constant"
      value: 0.2
    }
  }
}
layer {
  name: "inception_3b/relu_1x1"
  type: "ReLU"
  bottom: "inception_3b/1x1"
  top: "inception_3b/1x1"
}
layer {
  name: "inception_3b/3x3_reduce"
  type: "Convolution"
  bottom: "inception_3a/output"
  top: "inception_3b/3x3_reduce"
  param {
    lr_mult: 1
    decay_mult: 1
  }
  param {
    lr_mult: 2
    decay_mult: 0
  }
  convolution_param {
    num_output: 128
    kernel_size: 1
    weight_filler {
      type: "xavier"
      std: 0.09
    }
    bias_filler {
      type: "constant"
      value: 0.2
    }
  }
}
layer {
  name: "inception_3b/relu_3x3_reduce"
  type: "ReLU"
  bottom: "inception_3b/3x3_reduce"
  top: "inception_3b/3x3_reduce"
}
layer {
  name: "inception_3b/3x3"
  type: "Convolution"
  bottom: "inception_3b/3x3_reduce"
  top: "inception_3b/3x3"
  param {
    lr_mult: 1
    decay_mult: 1
  }
  param {
    lr_mult: 2
    decay_mult: 0
  }
  convolution_param {
    num_output: 192
    pad: 1
    kernel_size: 3
    weight_filler {
      type: "xavier"
      std: 0.03
    }
    bias_filler {
      type: "constant"
      value: 0.2
    }
  }
}
layer {
  name: "inception_3b/relu_3x3"
  type: "ReLU"
  bottom: "inception_3b/3x3"
  top: "inception_3b/3x3"
}
layer {
  name: "inception_3b/5x5_reduce"
  type: "Convolution"
  bottom: "inception_3a/output"
  top: "inception_3b/5x5_reduce"
  param {
    lr_mult: 1
    decay_mult: 1
  }
  param {
    lr_mult: 2
    decay_mult: 0
  }
  convolution_param {
    num_output: 32
    kernel_size: 1
    weight_filler {
      type: "xavier"
      std: 0.2
    }
    bias_filler {
      type: "constant"
      value: 0.2
    }
  }
}
layer {
  name: "inception_3b/relu_5x5_reduce"
  type: "ReLU"
  bottom: "inception_3b/5x5_reduce"
  top: "inception_3b/5x5_reduce"
}
layer {
  name: "inception_3b/5x5"
  type: "Convolution"
  bottom: "inception_3b/5x5_reduce"
  top: "inception_3b/5x5"
  param {
    lr_mult: 1
    decay_mult: 1
  }
  param {
    lr_mult: 2
    decay_mult: 0
  }
  convolution_param {
    num_output: 96
    pad: 2
    kernel_size: 5
    weight_filler {
      type: "xavier"
      std: 0.03
    }
    bias_filler {
      type: "constant"
      value: 0.2
    }
  }
}
layer {
  name: "inception_3b/relu_5x5"
  type: "ReLU"
  bottom: "inception_3b/5x5"
  top: "inception_3b/5x5"
}
layer {
  name: "inception_3b/pool"
  type: "Pooling"
  bottom: "inception_3a/output"
  top: "inception_3b/pool"
  pooling_param {
    pool: MAX
    kernel_size: 3
    stride: 1
    pad: 1
  }
}
layer {
  name: "inception_3b/pool_proj"
  type: "Convolution"
  bottom: "inception_3b/pool"
  top: "inception_3b/pool_proj"
  param {
    lr_mult: 1
    decay_mult: 1
  }
  param {
    lr_mult: 2
    decay_mult: 0
  }
  convolution_param {
    num_output: 64
    kernel_size: 1
    weight_filler {
      type: "xavier"
      std: 0.1
    }
    bias_filler {
      type: "constant"
      value: 0.2
    }
  }
}
layer {
  name: "inception_3b/relu_pool_proj"
  type: "ReLU"
  bottom: "inception_3b/pool_proj"
  top: "inception_3b/pool_proj"
}
layer {
  name: "inception_3b/output"
  type: "Concat"
  bottom: "inception_3b/1x1"
  bottom: "inception_3b/3x3"
  bottom: "inception_3b/5x5"
  bottom: "inception_3b/pool_proj"
  top: "inception_3b/output"
}
layer {
  name: "pool3/3x3_s2"
  type: "Pooling"
  bottom: "inception_3b/output"
  top: "pool3/3x3_s2"
  pooling_param {
    pool: MAX
    kernel_size: 3
    stride: 2
  }
}
layer {
  name: "inception_4a/1x1"
  type: "Convolution"
  bottom: "pool3/3x3_s2"
  top: "inception_4a/1x1"
  param {
    lr_mult: 1
    decay_mult: 1
  }
  param {
    lr_mult: 2
    decay_mult: 0
  }
  convolution_param {
    num_output: 192
    kernel_size: 1
    weight_filler {
      type: "xavier"
      std: 0.03
    }
    bias_filler {
      type: "constant"
      value: 0.2
    }
  }
}
layer {
  name: "inception_4a/relu_1x1"
  type: "ReLU"
  bottom: "inception_4a/1x1"
  top: "inception_4a/1x1"
}
layer {
  name: "inception_4a/3x3_reduce"
  type: "Convolution"
  bottom: "pool3/3x3_s2"
  top: "inception_4a/3x3_reduce"
  param {
    lr_mult: 1
    decay_mult: 1
  }
  param {
    lr_mult: 2
    decay_mult: 0
  }
  convolution_param {
    num_output: 96
    kernel_size: 1
    weight_filler {
      type: "xavier"
      std: 0.09
    }
    bias_filler {
      type: "constant"
      value: 0.2
    }
  }
}
layer {
  name: "inception_4a/relu_3x3_reduce"
  type: "ReLU"
  bottom: "inception_4a/3x3_reduce"
  top: "inception_4a/3x3_reduce"
}
layer {
  name: "inception_4a/3x3"
  type: "Convolution"
  bottom: "inception_4a/3x3_reduce"
  top: "inception_4a/3x3"
  param {
    lr_mult: 1
    decay_mult: 1
  }
  param {
    lr_mult: 2
    decay_mult: 0
  }
  convolution_param {
    num_output: 208
    pad: 1
    kernel_size: 3
    weight_filler {
      type: "xavier"
      std: 0.03
    }
    bias_filler {
      type: "constant"
      value: 0.2
    }
  }
}
layer {
  name: "inception_4a/relu_3x3"
  type: "ReLU"
  bottom: "inception_4a/3x3"
  top: "inception_4a/3x3"
}
layer {
  name: "inception_4a/5x5_reduce"
  type: "Convolution"
  bottom: "pool3/3x3_s2"
  top: "inception_4a/5x5_reduce"
  param {
    lr_mult: 1
    decay_mult: 1
  }
  param {
    lr_mult: 2
    decay_mult: 0
  }
  convolution_param {
    num_output: 16
    kernel_size: 1
    weight_filler {
      type: "xavier"
      std: 0.2
    }
    bias_filler {
      type: "constant"
      value: 0.2
    }
  }
}
layer {
  name: "inception_4a/relu_5x5_reduce"
  type: "ReLU"
  bottom: "inception_4a/5x5_reduce"
  top: "inception_4a/5x5_reduce"
}
layer {
  name: "inception_4a/5x5"
  type: "Convolution"
  bottom: "inception_4a/5x5_reduce"
  top: "inception_4a/5x5"
  param {
    lr_mult: 1
    decay_mult: 1
  }
  param {
    lr_mult: 2
    decay_mult: 0
  }
  convolution_param {
    num_output: 48
    pad: 2
    kernel_size: 5
    weight_filler {
      type: "xavier"
      std: 0.03
    }
    bias_filler {
      type: "constant"
      value: 0.2
    }
  }
}
layer {
  name: "inception_4a/relu_5x5"
  type: "ReLU"
  bottom: "inception_4a/5x5"
  top: "inception_4a/5x5"
}
layer {
  name: "inception_4a/pool"
  type: "Pooling"
  bottom: "pool3/3x3_s2"
  top: "inception_4a/pool"
  pooling_param {
    pool: MAX
    kernel_size: 3
    stride: 1
    pad: 1
  }
}
layer {
  name: "inception_4a/pool_proj"
  type: "Convolution"
  bottom: "inception_4a/pool"
  top: "inception_4a/pool_proj"
  param {
    lr_mult: 1
    decay_mult: 1
  }
  param {
    lr_mult: 2
    decay_mult: 0
  }
  convolution_param {
    num_output: 64
    kernel_size: 1
    weight_filler {
      type: "xavier"
      std: 0.1
    }
    bias_filler {
      type: "constant"
      value: 0.2
    }
  }
}
layer {
  name: "inception_4a/relu_pool_proj"
  type: "ReLU"
  bottom: "inception_4a/pool_proj"
  top: "inception_4a/pool_proj"
}
layer {
  name: "inception_4a/output"
  type: "Concat"
  bottom: "inception_4a/1x1"
  bottom: "inception_4a/3x3"
  bottom: "inception_4a/5x5"
  bottom: "inception_4a/pool_proj"
  top: "inception_4a/output"
}
layer {
  name: "loss1/ave_pool"
  type: "Pooling"
  bottom: "inception_4a/output"
  top: "loss1/ave_pool"
  pooling_param {
    pool: AVE
    kernel_size: 5
    stride: 3
  }
}
layer {
  name: "loss1/conv"
  type: "Convolution"
  bottom: "loss1/ave_pool"
  top: "loss1/conv"
  param {
    lr_mult: 1
    decay_mult: 1
  }
  param {
    lr_mult: 2
    decay_mult: 0
  }
  convolution_param {
    num_output: 128
    kernel_size: 1
    weight_filler {
      type: "xavier"
      std: 0.08
    }
    bias_filler {
      type: "constant"
      value: 0.2
    }
  }
}
layer {
  name: "loss1/relu_conv"
  type: "ReLU"
  bottom: "loss1/conv"
  top: "loss1/conv"
}
layer {
  name: "loss1/fc"
  type: "InnerProduct"
  bottom: "loss1/conv"
  top: "loss1/fc"
  param {
    lr_mult: 1
    decay_mult: 1
  }
  param {
    lr_mult: 2
    decay_mult: 0
  }
  inner_product_param {
    num_output: 1024
    weight_filler {
      type: "xavier"
      std: 0.02
    }
    bias_filler {
      type: "constant"
      value: 0.2
    }
  }
}
layer {
  name: "loss1/relu_fc"
  type: "ReLU"
  bottom: "loss1/fc"
  top: "loss1/fc"
}
layer {
  name: "loss1/drop_fc"
  type: "Dropout"
  bottom: "loss1/fc"
  top: "loss1/fc"
  dropout_param {
    dropout_ratio: 0.7
  }
}
layer {
  name: "loss1/classifier_plantvillage"
  type: "InnerProduct"
  bottom: "loss1/fc"
  top: "loss1/classifier_plantvillage"
  param {
    lr_mult: 1
    decay_mult: 1
  }
  param {
    lr_mult: 2
    decay_mult: 0
  }
  inner_product_param {
    num_output: 38
    weight_filler {
      type: "xavier"
      std: 0.0009765625
    }
    bias_filler {
      type: "constant"
      value: 0
    }
  }
}
layer {
  name: "inception_4b/1x1"
  type: "Convolution"
  bottom: "inception_4a/output"
  top: "inception_4b/1x1"
  param {
    lr_mult: 1
    decay_mult: 1
  }
  param {
    lr_mult: 2
    decay_mult: 0
  }
  convolution_param {
    num_output: 160
    kernel_size: 1
    weight_filler {
      type: "xavier"
      std: 0.03
    }
    bias_filler {
      type: "constant"
      value: 0.2
    }
  }
}
layer {
  name: "inception_4b/relu_1x1"
  type: "ReLU"
  bottom: "inception_4b/1x1"
  top: "inception_4b/1x1"
}
layer {
  name: "inception_4b/3x3_reduce"
  type: "Convolution"
  bottom: "inception_4a/output"
  top: "inception_4b/3x3_reduce"
  param {
    lr_mult: 1
    decay_mult: 1
  }
  param {
    lr_mult: 2
    decay_mult: 0
  }
  convolution_param {
    num_output: 112
    kernel_size: 1
    weight_filler {
      type: "xavier"
      std: 0.09
    }
    bias_filler {
      type: "constant"
      value: 0.2
    }
  }
}
layer {
  name: "inception_4b/relu_3x3_reduce"
  type: "ReLU"
  bottom: "inception_4b/3x3_reduce"
  top: "inception_4b/3x3_reduce"
}
layer {
  name: "inception_4b/3x3"
  type: "Convolution"
  bottom: "inception_4b/3x3_reduce"
  top: "inception_4b/3x3"
  param {
    lr_mult: 1
    decay_mult: 1
  }
  param {
    lr_mult: 2
    decay_mult: 0
  }
  convolution_param {
    num_output: 224
    pad: 1
    kernel_size: 3
    weight_filler {
      type: "xavier"
      std: 0.03
    }
    bias_filler {
      type: "constant"
      value: 0.2
    }
  }
}
layer {
  name: "inception_4b/relu_3x3"
  type: "ReLU"
  bottom: "inception_4b/3x3"
  top: "inception_4b/3x3"
}
layer {
  name: "inception_4b/5x5_reduce"
  type: "Convolution"
  bottom: "inception_4a/output"
  top: "inception_4b/5x5_reduce"
  param {
    lr_mult: 1
    decay_mult: 1
  }
  param {
    lr_mult: 2
    decay_mult: 0
  }
  convolution_param {
    num_output: 24
    kernel_size: 1
    weight_filler {
      type: "xavier"
      std: 0.2
    }
    bias_filler {
      type: "constant"
      value: 0.2
    }
  }
}
layer {
  name: "inception_4b/relu_5x5_reduce"
  type: "ReLU"
  bottom: "inception_4b/5x5_reduce"
  top: "inception_4b/5x5_reduce"
}
layer {
  name: "inception_4b/5x5"
  type: "Convolution"
  bottom: "inception_4b/5x5_reduce"
  top: "inception_4b/5x5"
  param {
    lr_mult: 1
    decay_mult: 1
  }
  param {
    lr_mult: 2
    decay_mult: 0
  }
  convolution_param {
    num_output: 64
    pad: 2
    kernel_size: 5
    weight_filler {
      type: "xavier"
      std: 0.03
    }
    bias_filler {
      type: "constant"
      value: 0.2
    }
  }
}
layer {
  name: "inception_4b/relu_5x5"
  type: "ReLU"
  bottom: "inception_4b/5x5"
  top: "inception_4b/5x5"
}
layer {
  name: "inception_4b/pool"
  type: "Pooling"
  bottom: "inception_4a/output"
  top: "inception_4b/pool"
  pooling_param {
    pool: MAX
    kernel_size: 3
    stride: 1
    pad: 1
  }
}
layer {
  name: "inception_4b/pool_proj"
  type: "Convolution"
  bottom: "inception_4b/pool"
  top: "inception_4b/pool_proj"
  param {
    lr_mult: 1
    decay_mult: 1
  }
  param {
    lr_mult: 2
    decay_mult: 0
  }
  convolution_param {
    num_output: 64
    kernel_size: 1
    weight_filler {
      type: "xavier"
      std: 0.1
    }
    bias_filler {
      type: "constant"
      value: 0.2
    }
  }
}
layer {
  name: "inception_4b/relu_pool_proj"
  type: "ReLU"
  bottom: "inception_4b/pool_proj"
  top: "inception_4b/pool_proj"
}
layer {
  name: "inception_4b/output"
  type: "Concat"
  bottom: "inception_4b/1x1"
  bottom: "inception_4b/3x3"
  bottom: "inception_4b/5x5"
  bottom: "inception_4b/pool_proj"
  top: "inception_4b/output"
}
layer {
  name: "inception_4c/1x1"
  type: "Convolution"
  bottom: "inception_4b/output"
  top: "inception_4c/1x1"
  param {
    lr_mult: 1
    decay_mult: 1
  }
  param {
    lr_mult: 2
    decay_mult: 0
  }
  convolution_param {
    num_output: 128
    kernel_size: 1
    weight_filler {
      type: "xavier"
      std: 0.03
    }
    bias_filler {
      type: "constant"
      value: 0.2
    }
  }
}
layer {
  name: "inception_4c/relu_1x1"
  type: "ReLU"
  bottom: "inception_4c/1x1"
  top: "inception_4c/1x1"
}
layer {
  name: "inception_4c/3x3_reduce"
  type: "Convolution"
  bottom: "inception_4b/output"
  top: "inception_4c/3x3_reduce"
  param {
    lr_mult: 1
    decay_mult: 1
  }
  param {
    lr_mult: 2
    decay_mult: 0
  }
  convolution_param {
    num_output: 128
    kernel_size: 1
    weight_filler {
      type: "xavier"
      std: 0.09
    }
    bias_filler {
      type: "constant"
      value: 0.2
    }
  }
}
layer {
  name: "inception_4c/relu_3x3_reduce"
  type: "ReLU"
  bottom: "inception_4c/3x3_reduce"
  top: "inception_4c/3x3_reduce"
}
layer {
  name: "inception_4c/3x3"
  type: "Convolution"
  bottom: "inception_4c/3x3_reduce"
  top: "inception_4c/3x3"
  param {
    lr_mult: 1
    decay_mult: 1
  }
  param {
    lr_mult: 2
    decay_mult: 0
  }
  convolution_param {
    num_output: 256
    pad: 1
    kernel_size: 3
    weight_filler {
      type: "xavier"
      std: 0.03
    }
    bias_filler {
      type: "constant"
      value: 0.2
    }
  }
}
layer {
  name: "inception_4c/relu_3x3"
  type: "ReLU"
  bottom: "inception_4c/3x3"
  top: "inception_4c/3x3"
}
layer {
  name: "inception_4c/5x5_reduce"
  type: "Convolution"
  bottom: "inception_4b/output"
  top: "inception_4c/5x5_reduce"
  param {
    lr_mult: 1
    decay_mult: 1
  }
  param {
    lr_mult: 2
    decay_mult: 0
  }
  convolution_param {
    num_output: 24
    kernel_size: 1
    weight_filler {
      type: "xavier"
      std: 0.2
    }
    bias_filler {
      type: "constant"
      value: 0.2
    }
  }
}
layer {
  name: "inception_4c/relu_5x5_reduce"
  type: "ReLU"
  bottom: "inception_4c/5x5_reduce"
  top: "inception_4c/5x5_reduce"
}
layer {
  name: "inception_4c/5x5"
  type: "Convolution"
  bottom: "inception_4c/5x5_reduce"
  top: "inception_4c/5x5"
  param {
    lr_mult: 1
    decay_mult: 1
  }
  param {
    lr_mult: 2
    decay_mult: 0
  }
  convolution_param {
    num_output: 64
    pad: 2
    kernel_size: 5
    weight_filler {
      type: "xavier"
      std: 0.03
    }
    bias_filler {
      type: "constant"
      value: 0.2
    }
  }
}
layer {
  name: "inception_4c/relu_5x5"
  type: "ReLU"
  bottom: "inception_4c/5x5"
  top: "inception_4c/5x5"
}
layer {
  name: "inception_4c/pool"
  type: "Pooling"
  bottom: "inception_4b/output"
  top: "inception_4c/pool"
  pooling_param {
    pool: MAX
    kernel_size: 3
    stride: 1
    pad: 1
  }
}
layer {
  name: "inception_4c/pool_proj"
  type: "Convolution"
  bottom: "inception_4c/pool"
  top: "inception_4c/pool_proj"
  param {
    lr_mult: 1
    decay_mult: 1
  }
  param {
    lr_mult: 2
    decay_mult: 0
  }
  convolution_param {
    num_output: 64
    kernel_size: 1
    weight_filler {
      type: "xavier"
      std: 0.1
    }
    bias_filler {
      type: "constant"
      value: 0.2
    }
  }
}
layer {
  name: "inception_4c/relu_pool_proj"
  type: "ReLU"
  bottom: "inception_4c/pool_proj"
  top: "inception_4c/pool_proj"
}
layer {
  name: "inception_4c/output"
  type: "Concat"
  bottom: "inception_4c/1x1"
  bottom: "inception_4c/3x3"
  bottom: "inception_4c/5x5"
  bottom: "inception_4c/pool_proj"
  top: "inception_4c/output"
}
layer {
  name: "inception_4d/1x1"
  type: "Convolution"
  bottom: "inception_4c/output"
  top: "inception_4d/1x1"
  param {
    lr_mult: 1
    decay_mult: 1
  }
  param {
    lr_mult: 2
    decay_mult: 0
  }
  convolution_param {
    num_output: 112
    kernel_size: 1
    weight_filler {
      type: "xavier"
      std: 0.03
    }
    bias_filler {
      type: "constant"
      value: 0.2
    }
  }
}
layer {
  name: "inception_4d/relu_1x1"
  type: "ReLU"
  bottom: "inception_4d/1x1"
  top: "inception_4d/1x1"
}
layer {
  name: "inception_4d/3x3_reduce"
  type: "Convolution"
  bottom: "inception_4c/output"
  top: "inception_4d/3x3_reduce"
  param {
    lr_mult: 1
    decay_mult: 1
  }
  param {
    lr_mult: 2
    decay_mult: 0
  }
  convolution_param {
    num_output: 144
    kernel_size: 1
    weight_filler {
      type: "xavier"
      std: 0.09
    }
    bias_filler {
      type: "constant"
      value: 0.2
    }
  }
}
layer {
  name: "inception_4d/relu_3x3_reduce"
  type: "ReLU"
  bottom: "inception_4d/3x3_reduce"
  top: "inception_4d/3x3_reduce"
}
layer {
  name: "inception_4d/3x3"
  type: "Convolution"
  bottom: "inception_4d/3x3_reduce"
  top: "inception_4d/3x3"
  param {
    lr_mult: 1
    decay_mult: 1
  }
  param {
    lr_mult: 2
    decay_mult: 0
  }
  convolution_param {
    num_output: 288
    pad: 1
    kernel_size: 3
    weight_filler {
      type: "xavier"
      std: 0.03
    }
    bias_filler {
      type: "constant"
      value: 0.2
    }
  }
}
layer {
  name: "inception_4d/relu_3x3"
  type: "ReLU"
  bottom: "inception_4d/3x3"
  top: "inception_4d/3x3"
}
layer {
  name: "inception_4d/5x5_reduce"
  type: "Convolution"
  bottom: "inception_4c/output"
  top: "inception_4d/5x5_reduce"
  param {
    lr_mult: 1
    decay_mult: 1
  }
  param {
    lr_mult: 2
    decay_mult: 0
  }
  convolution_param {
    num_output: 32
    kernel_size: 1
    weight_filler {
      type: "xavier"
      std: 0.2
    }
    bias_filler {
      type: "constant"
      value: 0.2
    }
  }
}
layer {
  name: "inception_4d/relu_5x5_reduce"
  type: "ReLU"
  bottom: "inception_4d/5x5_reduce"
  top: "inception_4d/5x5_reduce"
}
layer {
  name: "inception_4d/5x5"
  type: "Convolution"
  bottom: "inception_4d/5x5_reduce"
  top: "inception_4d/5x5"
  param {
    lr_mult: 1
    decay_mult: 1
  }
  param {
    lr_mult: 2
    decay_mult: 0
  }
  convolution_param {
    num_output: 64
    pad: 2
    kernel_size: 5
    weight_filler {
      type: "xavier"
      std: 0.03
    }
    bias_filler {
      type: "constant"
      value: 0.2
    }
  }
}
layer {
  name: "inception_4d/relu_5x5"
  type: "ReLU"
  bottom: "inception_4d/5x5"
  top: "inception_4d/5x5"
}
layer {
  name: "inception_4d/pool"
  type: "Pooling"
  bottom: "inception_4c/output"
  top: "inception_4d/pool"
  pooling_param {
    pool: MAX
    kernel_size: 3
    stride: 1
    pad: 1
  }
}
layer {
  name: "inception_4d/pool_proj"
  type: "Convolution"
  bottom: "inception_4d/pool"
  top: "inception_4d/pool_proj"
  param {
    lr_mult: 1
    decay_mult: 1
  }
  param {
    lr_mult: 2
    decay_mult: 0
  }
  convolution_param {
    num_output: 64
    kernel_size: 1
    weight_filler {
      type: "xavier"
      std: 0.1
    }
    bias_filler {
      type: "constant"
      value: 0.2
    }
  }
}
layer {
  name: "inception_4d/relu_pool_proj"
  type: "ReLU"
  bottom: "inception_4d/pool_proj"
  top: "inception_4d/pool_proj"
}
layer {
  name: "inception_4d/output"
  type: "Concat"
  bottom: "inception_4d/1x1"
  bottom: "inception_4d/3x3"
  bottom: "inception_4d/5x5"
  bottom: "inception_4d/pool_proj"
  top: "inception_4d/output"
}
layer {
  name: "loss2/ave_pool"
  type: "Pooling"
  bottom: "inception_4d/output"
  top: "loss2/ave_pool"
  pooling_param {
    pool: AVE
    kernel_size: 5
    stride: 3
  }
}
layer {
  name: "loss2/conv"
  type: "Convolution"
  bottom: "loss2/ave_pool"
  top: "loss2/conv"
  param {
    lr_mult: 1
    decay_mult: 1
  }
  param {
    lr_mult: 2
    decay_mult: 0
  }
  convolution_param {
    num_output: 128
    kernel_size: 1
    weight_filler {
      type: "xavier"
      std: 0.08
    }
    bias_filler {
      type: "constant"
      value: 0.2
    }
  }
}
layer {
  name: "loss2/relu_conv"
  type: "ReLU"
  bottom: "loss2/conv"
  top: "loss2/conv"
}
layer {
  name: "loss2/fc"
  type: "InnerProduct"
  bottom: "loss2/conv"
  top: "loss2/fc"
  param {
    lr_mult: 1
    decay_mult: 1
  }
  param {
    lr_mult: 2
    decay_mult: 0
  }
  inner_product_param {
    num_output: 1024
    weight_filler {
      type: "xavier"
      std: 0.02
    }
    bias_filler {
      type: "constant"
      value: 0.2
    }
  }
}
layer {
  name: "loss2/relu_fc"
  type: "ReLU"
  bottom: "loss2/fc"
  top: "loss2/fc"
}
layer {
  name: "loss2/drop_fc"
  type: "Dropout"
  bottom: "loss2/fc"
  top: "loss2/fc"
  dropout_param {
    dropout_ratio: 0.7
  }
}
layer {
  name: "loss2/classifier_plantvillage"
  type: "InnerProduct"
  bottom: "loss2/fc"
  top: "loss2/classifier_plantvillage"
  param {
    lr_mult: 1
    decay_mult: 1
  }
  param {
    lr_mult: 2
    decay_mult: 0
  }
  inner_product_param {
    num_output: 38
    weight_filler {
      type: "xavier"
      std: 0.0009765625
    }
    bias_filler {
      type: "constant"
      value: 0
    }
  }
}
layer {
  name: "inception_4e/1x1"
  type: "Convolution"
  bottom: "inception_4d/output"
  top: "inception_4e/1x1"
  param {
    lr_mult: 1
    decay_mult: 1
  }
  param {
    lr_mult: 2
    decay_mult: 0
  }
  convolution_param {
    num_output: 256
    kernel_size: 1
    weight_filler {
      type: "xavier"
      std: 0.03
    }
    bias_filler {
      type: "constant"
      value: 0.2
    }
  }
}
layer {
  name: "inception_4e/relu_1x1"
  type: "ReLU"
  bottom: "inception_4e/1x1"
  top: "inception_4e/1x1"
}
layer {
  name: "inception_4e/3x3_reduce"
  type: "Convolution"
  bottom: "inception_4d/output"
  top: "inception_4e/3x3_reduce"
  param {
    lr_mult: 1
    decay_mult: 1
  }
  param {
    lr_mult: 2
    decay_mult: 0
  }
  convolution_param {
    num_output: 160
    kernel_size: 1
    weight_filler {
      type: "xavier"
      std: 0.09
    }
    bias_filler {
      type: "constant"
      value: 0.2
    }
  }
}
layer {
  name: "inception_4e/relu_3x3_reduce"
  type: "ReLU"
  bottom: "inception_4e/3x3_reduce"
  top: "inception_4e/3x3_reduce"
}
layer {
  name: "inception_4e/3x3"
  type: "Convolution"
  bottom: "inception_4e/3x3_reduce"
  top: "inception_4e/3x3"
  param {
    lr_mult: 1
    decay_mult: 1
  }
  param {
    lr_mult: 2
    decay_mult: 0
  }
  convolution_param {
    num_output: 320
    pad: 1
    kernel_size: 3
    weight_filler {
      type: "xavier"
      std: 0.03
    }
    bias_filler {
      type: "constant"
      value: 0.2
    }
  }
}
layer {
  name: "inception_4e/relu_3x3"
  type: "ReLU"
  bottom: "inception_4e/3x3"
  top: "inception_4e/3x3"
}
layer {
  name: "inception_4e/5x5_reduce"
  type: "Convolution"
  bottom: "inception_4d/output"
  top: "inception_4e/5x5_reduce"
  param {
    lr_mult: 1
    decay_mult: 1
  }
  param {
    lr_mult: 2
    decay_mult: 0
  }
  convolution_param {
    num_output: 32
    kernel_size: 1
    weight_filler {
      type: "xavier"
      std: 0.2
    }
    bias_filler {
      type: "constant"
      value: 0.2
    }
  }
}
layer {
  name: "inception_4e/relu_5x5_reduce"
  type: "ReLU"
  bottom: "inception_4e/5x5_reduce"
  top: "inception_4e/5x5_reduce"
}
layer {
  name: "inception_4e/5x5"
  type: "Convolution"
  bottom: "inception_4e/5x5_reduce"
  top: "inception_4e/
I0403 15:26:27.422376 19414 layer_factory.hpp:77] Creating layer data
I0403 15:26:27.422996 19414 net.cpp:91] Creating Layer data
I0403 15:26:27.423027 19414 net.cpp:399] data -> data
I0403 15:26:27.423077 19414 net.cpp:399] data -> label
I0403 15:26:27.423113 19414 data_transformer.cpp:25] Loading mean file from: /home/mohanty/data/final_dataset/lmdb/grayscale-40-60/mean.binaryproto
I0403 15:26:27.426326 19417 db_lmdb.cpp:38] Opened lmdb /home/mohanty/data/final_dataset/lmdb/grayscale-40-60/test_db
I0403 15:26:27.436565 19414 data_layer.cpp:41] output data size: 24,3,224,224
I0403 15:26:27.467172 19414 net.cpp:141] Setting up data
I0403 15:26:27.467252 19414 net.cpp:148] Top shape: 24 3 224 224 (3612672)
I0403 15:26:27.467288 19414 net.cpp:148] Top shape: 24 (24)
I0403 15:26:27.467303 19414 net.cpp:156] Memory required for data: 14450784
I0403 15:26:27.467330 19414 layer_factory.hpp:77] Creating layer label_data_1_split
I0403 15:26:27.467357 19414 net.cpp:91] Creating Layer label_data_1_split
I0403 15:26:27.467375 19414 net.cpp:425] label_data_1_split <- label
I0403 15:26:27.467407 19414 net.cpp:399] label_data_1_split -> label_data_1_split_0
I0403 15:26:27.467435 19414 net.cpp:399] label_data_1_split -> label_data_1_split_1
I0403 15:26:27.467458 19414 net.cpp:399] label_data_1_split -> label_data_1_split_2
I0403 15:26:27.467479 19414 net.cpp:399] label_data_1_split -> label_data_1_split_3
I0403 15:26:27.467499 19414 net.cpp:399] label_data_1_split -> label_data_1_split_4
I0403 15:26:27.467519 19414 net.cpp:399] label_data_1_split -> label_data_1_split_5
I0403 15:26:27.467538 19414 net.cpp:399] label_data_1_split -> label_data_1_split_6
I0403 15:26:27.467560 19414 net.cpp:399] label_data_1_split -> label_data_1_split_7
I0403 15:26:27.467581 19414 net.cpp:399] label_data_1_split -> label_data_1_split_8
I0403 15:26:27.467600 19414 net.cpp:399] label_data_1_split -> label_data_1_split_9
I0403 15:26:27.467720 19414 net.cpp:141] Setting up label_data_1_split
I0403 15:26:27.467742 19414 net.cpp:148] Top shape: 24 (24)
I0403 15:26:27.467761 19414 net.cpp:148] Top shape: 24 (24)
I0403 15:26:27.467777 19414 net.cpp:148] Top shape: 24 (24)
I0403 15:26:27.467792 19414 net.cpp:148] Top shape: 24 (24)
I0403 15:26:27.467808 19414 net.cpp:148] Top shape: 24 (24)
I0403 15:26:27.467823 19414 net.cpp:148] Top shape: 24 (24)
I0403 15:26:27.467839 19414 net.cpp:148] Top shape: 24 (24)
I0403 15:26:27.467855 19414 net.cpp:148] Top shape: 24 (24)
I0403 15:26:27.467871 19414 net.cpp:148] Top shape: 24 (24)
I0403 15:26:27.467887 19414 net.cpp:148] Top shape: 24 (24)
I0403 15:26:27.467931 19414 net.cpp:156] Memory required for data: 14451744
I0403 15:26:27.467947 19414 layer_factory.hpp:77] Creating layer conv1/7x7_s2
I0403 15:26:27.467980 19414 net.cpp:91] Creating Layer conv1/7x7_s2
I0403 15:26:27.468003 19414 net.cpp:425] conv1/7x7_s2 <- data
I0403 15:26:27.468024 19414 net.cpp:399] conv1/7x7_s2 -> conv1/7x7_s2
I0403 15:26:27.615969 19414 net.cpp:141] Setting up conv1/7x7_s2
I0403 15:26:27.616047 19414 net.cpp:148] Top shape: 24 64 112 112 (19267584)
I0403 15:26:27.616065 19414 net.cpp:156] Memory required for data: 91522080
I0403 15:26:27.616096 19414 layer_factory.hpp:77] Creating layer conv1/relu_7x7
I0403 15:26:27.616125 19414 net.cpp:91] Creating Layer conv1/relu_7x7
I0403 15:26:27.616143 19414 net.cpp:425] conv1/relu_7x7 <- conv1/7x7_s2
I0403 15:26:27.616163 19414 net.cpp:386] conv1/relu_7x7 -> conv1/7x7_s2 (in-place)
I0403 15:26:27.616430 19414 net.cpp:141] Setting up conv1/relu_7x7
I0403 15:26:27.616461 19414 net.cpp:148] Top shape: 24 64 112 112 (19267584)
I0403 15:26:27.616479 19414 net.cpp:156] Memory required for data: 168592416
I0403 15:26:27.616494 19414 layer_factory.hpp:77] Creating layer pool1/3x3_s2
I0403 15:26:27.616519 19414 net.cpp:91] Creating Layer pool1/3x3_s2
I0403 15:26:27.616538 19414 net.cpp:425] pool1/3x3_s2 <- conv1/7x7_s2
I0403 15:26:27.616559 19414 net.cpp:399] pool1/3x3_s2 -> pool1/3x3_s2
I0403 15:26:27.616637 19414 net.cpp:141] Setting up pool1/3x3_s2
I0403 15:26:27.616665 19414 net.cpp:148] Top shape: 24 64 56 56 (4816896)
I0403 15:26:27.616682 19414 net.cpp:156] Memory required for data: 187860000
I0403 15:26:27.616695 19414 layer_factory.hpp:77] Creating layer pool1/norm1
I0403 15:26:27.616720 19414 net.cpp:91] Creating Layer pool1/norm1
I0403 15:26:27.616739 19414 net.cpp:425] pool1/norm1 <- pool1/3x3_s2
I0403 15:26:27.616758 19414 net.cpp:399] pool1/norm1 -> pool1/norm1
I0403 15:26:27.617113 19414 net.cpp:141] Setting up pool1/norm1
I0403 15:26:27.617141 19414 net.cpp:148] Top shape: 24 64 56 56 (4816896)
I0403 15:26:27.617157 19414 net.cpp:156] Memory required for data: 207127584
I0403 15:26:27.617172 19414 layer_factory.hpp:77] Creating layer conv2/3x3_reduce
I0403 15:26:27.617200 19414 net.cpp:91] Creating Layer conv2/3x3_reduce
I0403 15:26:27.617230 19414 net.cpp:425] conv2/3x3_reduce <- pool1/norm1
I0403 15:26:27.617252 19414 net.cpp:399] conv2/3x3_reduce -> conv2/3x3_reduce
I0403 15:26:27.618746 19414 net.cpp:141] Setting up conv2/3x3_reduce
I0403 15:26:27.618777 19414 net.cpp:148] Top shape: 24 64 56 56 (4816896)
I0403 15:26:27.618795 19414 net.cpp:156] Memory required for data: 226395168
I0403 15:26:27.618818 19414 layer_factory.hpp:77] Creating layer conv2/relu_3x3_reduce
I0403 15:26:27.618841 19414 net.cpp:91] Creating Layer conv2/relu_3x3_reduce
I0403 15:26:27.618859 19414 net.cpp:425] conv2/relu_3x3_reduce <- conv2/3x3_reduce
I0403 15:26:27.618877 19414 net.cpp:386] conv2/relu_3x3_reduce -> conv2/3x3_reduce (in-place)
I0403 15:26:27.619170 19414 net.cpp:141] Setting up conv2/relu_3x3_reduce
I0403 15:26:27.619199 19414 net.cpp:148] Top shape: 24 64 56 56 (4816896)
I0403 15:26:27.619215 19414 net.cpp:156] Memory required for data: 245662752
I0403 15:26:27.619231 19414 layer_factory.hpp:77] Creating layer conv2/3x3
I0403 15:26:27.619261 19414 net.cpp:91] Creating Layer conv2/3x3
I0403 15:26:27.619279 19414 net.cpp:425] conv2/3x3 <- conv2/3x3_reduce
I0403 15:26:27.619299 19414 net.cpp:399] conv2/3x3 -> conv2/3x3
I0403 15:26:27.621666 19414 net.cpp:141] Setting up conv2/3x3
I0403 15:26:27.621697 19414 net.cpp:148] Top shape: 24 192 56 56 (14450688)
I0403 15:26:27.621714 19414 net.cpp:156] Memory required for data: 303465504
I0403 15:26:27.621736 19414 layer_factory.hpp:77] Creating layer conv2/relu_3x3
I0403 15:26:27.621758 19414 net.cpp:91] Creating Layer conv2/relu_3x3
I0403 15:26:27.621775 19414 net.cpp:425] conv2/relu_3x3 <- conv2/3x3
I0403 15:26:27.621793 19414 net.cpp:386] conv2/relu_3x3 -> conv2/3x3 (in-place)
I0403 15:26:27.621978 19414 net.cpp:141] Setting up conv2/relu_3x3
I0403 15:26:27.622006 19414 net.cpp:148] Top shape: 24 192 56 56 (14450688)
I0403 15:26:27.622053 19414 net.cpp:156] Memory required for data: 361268256
I0403 15:26:27.622069 19414 layer_factory.hpp:77] Creating layer conv2/norm2
I0403 15:26:27.622090 19414 net.cpp:91] Creating Layer conv2/norm2
I0403 15:26:27.622107 19414 net.cpp:425] conv2/norm2 <- conv2/3x3
I0403 15:26:27.622125 19414 net.cpp:399] conv2/norm2 -> conv2/norm2
I0403 15:26:27.622437 19414 net.cpp:141] Setting up conv2/norm2
I0403 15:26:27.622463 19414 net.cpp:148] Top shape: 24 192 56 56 (14450688)
I0403 15:26:27.622479 19414 net.cpp:156] Memory required for data: 419071008
I0403 15:26:27.622494 19414 layer_factory.hpp:77] Creating layer pool2/3x3_s2
I0403 15:26:27.622515 19414 net.cpp:91] Creating Layer pool2/3x3_s2
I0403 15:26:27.622532 19414 net.cpp:425] pool2/3x3_s2 <- conv2/norm2
I0403 15:26:27.622550 19414 net.cpp:399] pool2/3x3_s2 -> pool2/3x3_s2
I0403 15:26:27.622604 19414 net.cpp:141] Setting up pool2/3x3_s2
I0403 15:26:27.622627 19414 net.cpp:148] Top shape: 24 192 28 28 (3612672)
I0403 15:26:27.622643 19414 net.cpp:156] Memory required for data: 433521696
I0403 15:26:27.622658 19414 layer_factory.hpp:77] Creating layer pool2/3x3_s2_pool2/3x3_s2_0_split
I0403 15:26:27.622676 19414 net.cpp:91] Creating Layer pool2/3x3_s2_pool2/3x3_s2_0_split
I0403 15:26:27.622692 19414 net.cpp:425] pool2/3x3_s2_pool2/3x3_s2_0_split <- pool2/3x3_s2
I0403 15:26:27.622711 19414 net.cpp:399] pool2/3x3_s2_pool2/3x3_s2_0_split -> pool2/3x3_s2_pool2/3x3_s2_0_split_0
I0403 15:26:27.622732 19414 net.cpp:399] pool2/3x3_s2_pool2/3x3_s2_0_split -> pool2/3x3_s2_pool2/3x3_s2_0_split_1
I0403 15:26:27.622753 19414 net.cpp:399] pool2/3x3_s2_pool2/3x3_s2_0_split -> pool2/3x3_s2_pool2/3x3_s2_0_split_2
I0403 15:26:27.622772 19414 net.cpp:399] pool2/3x3_s2_pool2/3x3_s2_0_split -> pool2/3x3_s2_pool2/3x3_s2_0_split_3
I0403 15:26:27.622843 19414 net.cpp:141] Setting up pool2/3x3_s2_pool2/3x3_s2_0_split
I0403 15:26:27.622869 19414 net.cpp:148] Top shape: 24 192 28 28 (3612672)
I0403 15:26:27.622886 19414 net.cpp:148] Top shape: 24 192 28 28 (3612672)
I0403 15:26:27.622902 19414 net.cpp:148] Top shape: 24 192 28 28 (3612672)
I0403 15:26:27.622918 19414 net.cpp:148] Top shape: 24 192 28 28 (3612672)
I0403 15:26:27.622932 19414 net.cpp:156] Memory required for data: 491324448
I0403 15:26:27.622948 19414 layer_factory.hpp:77] Creating layer inception_3a/1x1
I0403 15:26:27.622970 19414 net.cpp:91] Creating Layer inception_3a/1x1
I0403 15:26:27.622992 19414 net.cpp:425] inception_3a/1x1 <- pool2/3x3_s2_pool2/3x3_s2_0_split_0
I0403 15:26:27.623013 19414 net.cpp:399] inception_3a/1x1 -> inception_3a/1x1
I0403 15:26:27.624572 19414 net.cpp:141] Setting up inception_3a/1x1
I0403 15:26:27.624603 19414 net.cpp:148] Top shape: 24 64 28 28 (1204224)
I0403 15:26:27.624619 19414 net.cpp:156] Memory required for data: 496141344
I0403 15:26:27.624637 19414 layer_factory.hpp:77] Creating layer inception_3a/relu_1x1
I0403 15:26:27.624658 19414 net.cpp:91] Creating Layer inception_3a/relu_1x1
I0403 15:26:27.624675 19414 net.cpp:425] inception_3a/relu_1x1 <- inception_3a/1x1
I0403 15:26:27.624693 19414 net.cpp:386] inception_3a/relu_1x1 -> inception_3a/1x1 (in-place)
I0403 15:26:27.624871 19414 net.cpp:141] Setting up inception_3a/relu_1x1
I0403 15:26:27.624898 19414 net.cpp:148] Top shape: 24 64 28 28 (1204224)
I0403 15:26:27.624914 19414 net.cpp:156] Memory required for data: 500958240
I0403 15:26:27.624929 19414 layer_factory.hpp:77] Creating layer inception_3a/3x3_reduce
I0403 15:26:27.624953 19414 net.cpp:91] Creating Layer inception_3a/3x3_reduce
I0403 15:26:27.624970 19414 net.cpp:425] inception_3a/3x3_reduce <- pool2/3x3_s2_pool2/3x3_s2_0_split_1
I0403 15:26:27.624994 19414 net.cpp:399] inception_3a/3x3_reduce -> inception_3a/3x3_reduce
I0403 15:26:27.626772 19414 net.cpp:141] Setting up inception_3a/3x3_reduce
I0403 15:26:27.626801 19414 net.cpp:148] Top shape: 24 96 28 28 (1806336)
I0403 15:26:27.626818 19414 net.cpp:156] Memory required for data: 508183584
I0403 15:26:27.626840 19414 layer_factory.hpp:77] Creating layer inception_3a/relu_3x3_reduce
I0403 15:26:27.626881 19414 net.cpp:91] Creating Layer inception_3a/relu_3x3_reduce
I0403 15:26:27.626899 19414 net.cpp:425] inception_3a/relu_3x3_reduce <- inception_3a/3x3_reduce
I0403 15:26:27.626920 19414 net.cpp:386] inception_3a/relu_3x3_reduce -> inception_3a/3x3_reduce (in-place)
I0403 15:26:27.627112 19414 net.cpp:141] Setting up inception_3a/relu_3x3_reduce
I0403 15:26:27.627138 19414 net.cpp:148] Top shape: 24 96 28 28 (1806336)
I0403 15:26:27.627153 19414 net.cpp:156] Memory required for data: 515408928
I0403 15:26:27.627168 19414 layer_factory.hpp:77] Creating layer inception_3a/3x3
I0403 15:26:27.627192 19414 net.cpp:91] Creating Layer inception_3a/3x3
I0403 15:26:27.627208 19414 net.cpp:425] inception_3a/3x3 <- inception_3a/3x3_reduce
I0403 15:26:27.627231 19414 net.cpp:399] inception_3a/3x3 -> inception_3a/3x3
I0403 15:26:27.628912 19414 net.cpp:141] Setting up inception_3a/3x3
I0403 15:26:27.628944 19414 net.cpp:148] Top shape: 24 128 28 28 (2408448)
I0403 15:26:27.628960 19414 net.cpp:156] Memory required for data: 525042720
I0403 15:26:27.628979 19414 layer_factory.hpp:77] Creating layer inception_3a/relu_3x3
I0403 15:26:27.629010 19414 net.cpp:91] Creating Layer inception_3a/relu_3x3
I0403 15:26:27.629030 19414 net.cpp:425] inception_3a/relu_3x3 <- inception_3a/3x3
I0403 15:26:27.629047 19414 net.cpp:386] inception_3a/relu_3x3 -> inception_3a/3x3 (in-place)
I0403 15:26:27.629328 19414 net.cpp:141] Setting up inception_3a/relu_3x3
I0403 15:26:27.629356 19414 net.cpp:148] Top shape: 24 128 28 28 (2408448)
I0403 15:26:27.629372 19414 net.cpp:156] Memory required for data: 534676512
I0403 15:26:27.629387 19414 layer_factory.hpp:77] Creating layer inception_3a/5x5_reduce
I0403 15:26:27.629410 19414 net.cpp:91] Creating Layer inception_3a/5x5_reduce
I0403 15:26:27.629427 19414 net.cpp:425] inception_3a/5x5_reduce <- pool2/3x3_s2_pool2/3x3_s2_0_split_2
I0403 15:26:27.629446 19414 net.cpp:399] inception_3a/5x5_reduce -> inception_3a/5x5_reduce
I0403 15:26:27.630439 19414 net.cpp:141] Setting up inception_3a/5x5_reduce
I0403 15:26:27.630467 19414 net.cpp:148] Top shape: 24 16 28 28 (301056)
I0403 15:26:27.630483 19414 net.cpp:156] Memory required for data: 535880736
I0403 15:26:27.630501 19414 layer_factory.hpp:77] Creating layer inception_3a/relu_5x5_reduce
I0403 15:26:27.630519 19414 net.cpp:91] Creating Layer inception_3a/relu_5x5_reduce
I0403 15:26:27.630534 19414 net.cpp:425] inception_3a/relu_5x5_reduce <- inception_3a/5x5_reduce
I0403 15:26:27.630554 19414 net.cpp:386] inception_3a/relu_5x5_reduce -> inception_3a/5x5_reduce (in-place)
I0403 15:26:27.630842 19414 net.cpp:141] Setting up inception_3a/relu_5x5_reduce
I0403 15:26:27.630868 19414 net.cpp:148] Top shape: 24 16 28 28 (301056)
I0403 15:26:27.630883 19414 net.cpp:156] Memory required for data: 537084960
I0403 15:26:27.630897 19414 layer_factory.hpp:77] Creating layer inception_3a/5x5
I0403 15:26:27.630919 19414 net.cpp:91] Creating Layer inception_3a/5x5
I0403 15:26:27.630938 19414 net.cpp:425] inception_3a/5x5 <- inception_3a/5x5_reduce
I0403 15:26:27.630959 19414 net.cpp:399] inception_3a/5x5 -> inception_3a/5x5
I0403 15:26:27.631949 19414 net.cpp:141] Setting up inception_3a/5x5
I0403 15:26:27.631978 19414 net.cpp:148] Top shape: 24 32 28 28 (602112)
I0403 15:26:27.632000 19414 net.cpp:156] Memory required for data: 539493408
I0403 15:26:27.632020 19414 layer_factory.hpp:77] Creating layer inception_3a/relu_5x5
I0403 15:26:27.632038 19414 net.cpp:91] Creating Layer inception_3a/relu_5x5
I0403 15:26:27.632055 19414 net.cpp:425] inception_3a/relu_5x5 <- inception_3a/5x5
I0403 15:26:27.632086 19414 net.cpp:386] inception_3a/relu_5x5 -> inception_3a/5x5 (in-place)
I0403 15:26:27.632256 19414 net.cpp:141] Setting up inception_3a/relu_5x5
I0403 15:26:27.632283 19414 net.cpp:148] Top shape: 24 32 28 28 (602112)
I0403 15:26:27.632298 19414 net.cpp:156] Memory required for data: 541901856
I0403 15:26:27.632313 19414 layer_factory.hpp:77] Creating layer inception_3a/pool
I0403 15:26:27.632331 19414 net.cpp:91] Creating Layer inception_3a/pool
I0403 15:26:27.632360 19414 net.cpp:425] inception_3a/pool <- pool2/3x3_s2_pool2/3x3_s2_0_split_3
I0403 15:26:27.632382 19414 net.cpp:399] inception_3a/pool -> inception_3a/pool
I0403 15:26:27.632439 19414 net.cpp:141] Setting up inception_3a/pool
I0403 15:26:27.632464 19414 net.cpp:148] Top shape: 24 192 28 28 (3612672)
I0403 15:26:27.632480 19414 net.cpp:156] Memory required for data: 556352544
I0403 15:26:27.632495 19414 layer_factory.hpp:77] Creating layer inception_3a/pool_proj
I0403 15:26:27.632519 19414 net.cpp:91] Creating Layer inception_3a/pool_proj
I0403 15:26:27.632535 19414 net.cpp:425] inception_3a/pool_proj <- inception_3a/pool
I0403 15:26:27.632555 19414 net.cpp:399] inception_3a/pool_proj -> inception_3a/pool_proj
I0403 15:26:27.633543 19414 net.cpp:141] Setting up inception_3a/pool_proj
I0403 15:26:27.633570 19414 net.cpp:148] Top shape: 24 32 28 28 (602112)
I0403 15:26:27.633585 19414 net.cpp:156] Memory required for data: 558760992
I0403 15:26:27.633612 19414 layer_factory.hpp:77] Creating layer inception_3a/relu_pool_proj
I0403 15:26:27.633632 19414 net.cpp:91] Creating Layer inception_3a/relu_pool_proj
I0403 15:26:27.633648 19414 net.cpp:425] inception_3a/relu_pool_proj <- inception_3a/pool_proj
I0403 15:26:27.633667 19414 net.cpp:386] inception_3a/relu_pool_proj -> inception_3a/pool_proj (in-place)
I0403 15:26:27.633937 19414 net.cpp:141] Setting up inception_3a/relu_pool_proj
I0403 15:26:27.633966 19414 net.cpp:148] Top shape: 24 32 28 28 (602112)
I0403 15:26:27.633982 19414 net.cpp:156] Memory required for data: 561169440
I0403 15:26:27.634002 19414 layer_factory.hpp:77] Creating layer inception_3a/output
I0403 15:26:27.634021 19414 net.cpp:91] Creating Layer inception_3a/output
I0403 15:26:27.634037 19414 net.cpp:425] inception_3a/output <- inception_3a/1x1
I0403 15:26:27.634053 19414 net.cpp:425] inception_3a/output <- inception_3a/3x3
I0403 15:26:27.634068 19414 net.cpp:425] inception_3a/output <- inception_3a/5x5
I0403 15:26:27.634083 19414 net.cpp:425] inception_3a/output <- inception_3a/pool_proj
I0403 15:26:27.634100 19414 net.cpp:399] inception_3a/output -> inception_3a/output
I0403 15:26:27.634147 19414 net.cpp:141] Setting up inception_3a/output
I0403 15:26:27.634171 19414 net.cpp:148] Top shape: 24 256 28 28 (4816896)
I0403 15:26:27.634184 19414 net.cpp:156] Memory required for data: 580437024
I0403 15:26:27.634199 19414 layer_factory.hpp:77] Creating layer inception_3a/output_inception_3a/output_0_split
I0403 15:26:27.634218 19414 net.cpp:91] Creating Layer inception_3a/output_inception_3a/output_0_split
I0403 15:26:27.634234 19414 net.cpp:425] inception_3a/output_inception_3a/output_0_split <- inception_3a/output
I0403 15:26:27.634251 19414 net.cpp:399] inception_3a/output_inception_3a/output_0_split -> inception_3a/output_inception_3a/output_0_split_0
I0403 15:26:27.634271 19414 net.cpp:399] inception_3a/output_inception_3a/output_0_split -> inception_3a/output_inception_3a/output_0_split_1
I0403 15:26:27.634296 19414 net.cpp:399] inception_3a/output_inception_3a/output_0_split -> inception_3a/output_inception_3a/output_0_split_2
I0403 15:26:27.634317 19414 net.cpp:399] inception_3a/output_inception_3a/output_0_split -> inception_3a/output_inception_3a/output_0_split_3
I0403 15:26:27.634392 19414 net.cpp:141] Setting up inception_3a/output_inception_3a/output_0_split
I0403 15:26:27.634413 19414 net.cpp:148] Top shape: 24 256 28 28 (4816896)
I0403 15:26:27.634429 19414 net.cpp:148] Top shape: 24 256 28 28 (4816896)
I0403 15:26:27.634445 19414 net.cpp:148] Top shape: 24 256 28 28 (4816896)
I0403 15:26:27.634460 19414 net.cpp:148] Top shape: 24 256 28 28 (4816896)
I0403 15:26:27.634474 19414 net.cpp:156] Memory required for data: 657507360
I0403 15:26:27.634488 19414 layer_factory.hpp:77] Creating layer inception_3b/1x1
I0403 15:26:27.634511 19414 net.cpp:91] Creating Layer inception_3b/1x1
I0403 15:26:27.634529 19414 net.cpp:425] inception_3b/1x1 <- inception_3a/output_inception_3a/output_0_split_0
I0403 15:26:27.634548 19414 net.cpp:399] inception_3b/1x1 -> inception_3b/1x1
I0403 15:26:27.635673 19414 net.cpp:141] Setting up inception_3b/1x1
I0403 15:26:27.635711 19414 net.cpp:148] Top shape: 24 128 28 28 (2408448)
I0403 15:26:27.635727 19414 net.cpp:156] Memory required for data: 667141152
I0403 15:26:27.635746 19414 layer_factory.hpp:77] Creating layer inception_3b/relu_1x1
I0403 15:26:27.635766 19414 net.cpp:91] Creating Layer inception_3b/relu_1x1
I0403 15:26:27.635782 19414 net.cpp:425] inception_3b/relu_1x1 <- inception_3b/1x1
I0403 15:26:27.635800 19414 net.cpp:386] inception_3b/relu_1x1 -> inception_3b/1x1 (in-place)
I0403 15:26:27.635992 19414 net.cpp:141] Setting up inception_3b/relu_1x1
I0403 15:26:27.636019 19414 net.cpp:148] Top shape: 24 128 28 28 (2408448)
I0403 15:26:27.636035 19414 net.cpp:156] Memory required for data: 676774944
I0403 15:26:27.636050 19414 layer_factory.hpp:77] Creating layer inception_3b/3x3_reduce
I0403 15:26:27.636073 19414 net.cpp:91] Creating Layer inception_3b/3x3_reduce
I0403 15:26:27.636091 19414 net.cpp:425] inception_3b/3x3_reduce <- inception_3a/output_inception_3a/output_0_split_1
I0403 15:26:27.636111 19414 net.cpp:399] inception_3b/3x3_reduce -> inception_3b/3x3_reduce
I0403 15:26:27.637250 19414 net.cpp:141] Setting up inception_3b/3x3_reduce
I0403 15:26:27.637277 19414 net.cpp:148] Top shape: 24 128 28 28 (2408448)
I0403 15:26:27.637292 19414 net.cpp:156] Memory required for data: 686408736
I0403 15:26:27.637310 19414 layer_factory.hpp:77] Creating layer inception_3b/relu_3x3_reduce
I0403 15:26:27.637331 19414 net.cpp:91] Creating Layer inception_3b/relu_3x3_reduce
I0403 15:26:27.637347 19414 net.cpp:425] inception_3b/relu_3x3_reduce <- inception_3b/3x3_reduce
I0403 15:26:27.637365 19414 net.cpp:386] inception_3b/relu_3x3_reduce -> inception_3b/3x3_reduce (in-place)
I0403 15:26:27.637536 19414 net.cpp:141] Setting up inception_3b/relu_3x3_reduce
I0403 15:26:27.637562 19414 net.cpp:148] Top shape: 24 128 28 28 (2408448)
I0403 15:26:27.637578 19414 net.cpp:156] Memory required for data: 696042528
I0403 15:26:27.637591 19414 layer_factory.hpp:77] Creating layer inception_3b/3x3
I0403 15:26:27.637615 19414 net.cpp:91] Creating Layer inception_3b/3x3
I0403 15:26:27.637634 19414 net.cpp:425] inception_3b/3x3 <- inception_3b/3x3_reduce
I0403 15:26:27.637655 19414 net.cpp:399] inception_3b/3x3 -> inception_3b/3x3
I0403 15:26:27.640544 19414 net.cpp:141] Setting up inception_3b/3x3
I0403 15:26:27.640576 19414 net.cpp:148] Top shape: 24 192 28 28 (3612672)
I0403 15:26:27.640594 19414 net.cpp:156] Memory required for data: 710493216
I0403 15:26:27.640614 19414 layer_factory.hpp:77] Creating layer inception_3b/relu_3x3
I0403 15:26:27.640631 19414 net.cpp:91] Creating Layer inception_3b/relu_3x3
I0403 15:26:27.640648 19414 net.cpp:425] inception_3b/relu_3x3 <- inception_3b/3x3
I0403 15:26:27.640666 19414 net.cpp:386] inception_3b/relu_3x3 -> inception_3b/3x3 (in-place)
I0403 15:26:27.640938 19414 net.cpp:141] Setting up inception_3b/relu_3x3
I0403 15:26:27.640967 19414 net.cpp:148] Top shape: 24 192 28 28 (3612672)
I0403 15:26:27.640983 19414 net.cpp:156] Memory required for data: 724943904
I0403 15:26:27.641003 19414 layer_factory.hpp:77] Creating layer inception_3b/5x5_reduce
I0403 15:26:27.641026 19414 net.cpp:91] Creating Layer inception_3b/5x5_reduce
I0403 15:26:27.641044 19414 net.cpp:425] inception_3b/5x5_reduce <- inception_3a/output_inception_3a/output_0_split_2
I0403 15:26:27.641062 19414 net.cpp:399] inception_3b/5x5_reduce -> inception_3b/5x5_reduce
I0403 15:26:27.642098 19414 net.cpp:141] Setting up inception_3b/5x5_reduce
I0403 15:26:27.642129 19414 net.cpp:148] Top shape: 24 32 28 28 (602112)
I0403 15:26:27.642146 19414 net.cpp:156] Memory required for data: 727352352
I0403 15:26:27.642165 19414 layer_factory.hpp:77] Creating layer inception_3b/relu_5x5_reduce
I0403 15:26:27.642184 19414 net.cpp:91] Creating Layer inception_3b/relu_5x5_reduce
I0403 15:26:27.642200 19414 net.cpp:425] inception_3b/relu_5x5_reduce <- inception_3b/5x5_reduce
I0403 15:26:27.642218 19414 net.cpp:386] inception_3b/relu_5x5_reduce -> inception_3b/5x5_reduce (in-place)
I0403 15:26:27.642424 19414 net.cpp:141] Setting up inception_3b/relu_5x5_reduce
I0403 15:26:27.642449 19414 net.cpp:148] Top shape: 24 32 28 28 (602112)
I0403 15:26:27.642464 19414 net.cpp:156] Memory required for data: 729760800
I0403 15:26:27.642478 19414 layer_factory.hpp:77] Creating layer inception_3b/5x5
I0403 15:26:27.642501 19414 net.cpp:91] Creating Layer inception_3b/5x5
I0403 15:26:27.642518 19414 net.cpp:425] inception_3b/5x5 <- inception_3b/5x5_reduce
I0403 15:26:27.642539 19414 net.cpp:399] inception_3b/5x5 -> inception_3b/5x5
I0403 15:26:27.644503 19414 net.cpp:141] Setting up inception_3b/5x5
I0403 15:26:27.644531 19414 net.cpp:148] Top shape: 24 96 28 28 (1806336)
I0403 15:26:27.644548 19414 net.cpp:156] Memory required for data: 736986144
I0403 15:26:27.644567 19414 layer_factory.hpp:77] Creating layer inception_3b/relu_5x5
I0403 15:26:27.644590 19414 net.cpp:91] Creating Layer inception_3b/relu_5x5
I0403 15:26:27.644608 19414 net.cpp:425] inception_3b/relu_5x5 <- inception_3b/5x5
I0403 15:26:27.644625 19414 net.cpp:386] inception_3b/relu_5x5 -> inception_3b/5x5 (in-place)
I0403 15:26:27.644814 19414 net.cpp:141] Setting up inception_3b/relu_5x5
I0403 15:26:27.644840 19414 net.cpp:148] Top shape: 24 96 28 28 (1806336)
I0403 15:26:27.644855 19414 net.cpp:156] Memory required for data: 744211488
I0403 15:26:27.644868 19414 layer_factory.hpp:77] Creating layer inception_3b/pool
I0403 15:26:27.644886 19414 net.cpp:91] Creating Layer inception_3b/pool
I0403 15:26:27.644901 19414 net.cpp:425] inception_3b/pool <- inception_3a/output_inception_3a/output_0_split_3
I0403 15:26:27.644919 19414 net.cpp:399] inception_3b/pool -> inception_3b/pool
I0403 15:26:27.644975 19414 net.cpp:141] Setting up inception_3b/pool
I0403 15:26:27.645004 19414 net.cpp:148] Top shape: 24 256 28 28 (4816896)
I0403 15:26:27.645018 19414 net.cpp:156] Memory required for data: 763479072
I0403 15:26:27.645032 19414 layer_factory.hpp:77] Creating layer inception_3b/pool_proj
I0403 15:26:27.645056 19414 net.cpp:91] Creating Layer inception_3b/pool_proj
I0403 15:26:27.645071 19414 net.cpp:425] inception_3b/pool_proj <- inception_3b/pool
I0403 15:26:27.645093 19414 net.cpp:399] inception_3b/pool_proj -> inception_3b/pool_proj
I0403 15:26:27.646173 19414 net.cpp:141] Setting up inception_3b/pool_proj
I0403 15:26:27.646199 19414 net.cpp:148] Top shape: 24 64 28 28 (1204224)
I0403 15:26:27.646215 19414 net.cpp:156] Memory required for data: 768295968
I0403 15:26:27.646234 19414 layer_factory.hpp:77] Creating layer inception_3b/relu_pool_proj
I0403 15:26:27.646251 19414 net.cpp:91] Creating Layer inception_3b/relu_pool_proj
I0403 15:26:27.646271 19414 net.cpp:425] inception_3b/relu_pool_proj <- inception_3b/pool_proj
I0403 15:26:27.646289 19414 net.cpp:386] inception_3b/relu_pool_proj -> inception_3b/pool_proj (in-place)
I0403 15:26:27.646673 19414 net.cpp:141] Setting up inception_3b/relu_pool_proj
I0403 15:26:27.646699 19414 net.cpp:148] Top shape: 24 64 28 28 (1204224)
I0403 15:26:27.646714 19414 net.cpp:156] Memory required for data: 773112864
I0403 15:26:27.646729 19414 layer_factory.hpp:77] Creating layer inception_3b/output
I0403 15:26:27.646746 19414 net.cpp:91] Creating Layer inception_3b/output
I0403 15:26:27.646761 19414 net.cpp:425] inception_3b/output <- inception_3b/1x1
I0403 15:26:27.646778 19414 net.cpp:425] inception_3b/output <- inception_3b/3x3
I0403 15:26:27.646795 19414 net.cpp:425] inception_3b/output <- inception_3b/5x5
I0403 15:26:27.646809 19414 net.cpp:425] inception_3b/output <- inception_3b/pool_proj
I0403 15:26:27.646828 19414 net.cpp:399] inception_3b/output -> inception_3b/output
I0403 15:26:27.646872 19414 net.cpp:141] Setting up inception_3b/output
I0403 15:26:27.646898 19414 net.cpp:148] Top shape: 24 480 28 28 (9031680)
I0403 15:26:27.646913 19414 net.cpp:156] Memory required for data: 809239584
I0403 15:26:27.646927 19414 layer_factory.hpp:77] Creating layer pool3/3x3_s2
I0403 15:26:27.646945 19414 net.cpp:91] Creating Layer pool3/3x3_s2
I0403 15:26:27.646961 19414 net.cpp:425] pool3/3x3_s2 <- inception_3b/output
I0403 15:26:27.647001 19414 net.cpp:399] pool3/3x3_s2 -> pool3/3x3_s2
I0403 15:26:27.647063 19414 net.cpp:141] Setting up pool3/3x3_s2
I0403 15:26:27.647085 19414 net.cpp:148] Top shape: 24 480 14 14 (2257920)
I0403 15:26:27.647100 19414 net.cpp:156] Memory required for data: 818271264
I0403 15:26:27.647114 19414 layer_factory.hpp:77] Creating layer pool3/3x3_s2_pool3/3x3_s2_0_split
I0403 15:26:27.647131 19414 net.cpp:91] Creating Layer pool3/3x3_s2_pool3/3x3_s2_0_split
I0403 15:26:27.647146 19414 net.cpp:425] pool3/3x3_s2_pool3/3x3_s2_0_split <- pool3/3x3_s2
I0403 15:26:27.647166 19414 net.cpp:399] pool3/3x3_s2_pool3/3x3_s2_0_split -> pool3/3x3_s2_pool3/3x3_s2_0_split_0
I0403 15:26:27.647186 19414 net.cpp:399] pool3/3x3_s2_pool3/3x3_s2_0_split -> pool3/3x3_s2_pool3/3x3_s2_0_split_1
I0403 15:26:27.647205 19414 net.cpp:399] pool3/3x3_s2_pool3/3x3_s2_0_split -> pool3/3x3_s2_pool3/3x3_s2_0_split_2
I0403 15:26:27.647224 19414 net.cpp:399] pool3/3x3_s2_pool3/3x3_s2_0_split -> pool3/3x3_s2_pool3/3x3_s2_0_split_3
I0403 15:26:27.647305 19414 net.cpp:141] Setting up pool3/3x3_s2_pool3/3x3_s2_0_split
I0403 15:26:27.647327 19414 net.cpp:148] Top shape: 24 480 14 14 (2257920)
I0403 15:26:27.647343 19414 net.cpp:148] Top shape: 24 480 14 14 (2257920)
I0403 15:26:27.647359 19414 net.cpp:148] Top shape: 24 480 14 14 (2257920)
I0403 15:26:27.647374 19414 net.cpp:148] Top shape: 24 480 14 14 (2257920)
I0403 15:26:27.647388 19414 net.cpp:156] Memory required for data: 854397984
I0403 15:26:27.647403 19414 layer_factory.hpp:77] Creating layer inception_4a/1x1
I0403 15:26:27.647424 19414 net.cpp:91] Creating Layer inception_4a/1x1
I0403 15:26:27.647441 19414 net.cpp:425] inception_4a/1x1 <- pool3/3x3_s2_pool3/3x3_s2_0_split_0
I0403 15:26:27.647462 19414 net.cpp:399] inception_4a/1x1 -> inception_4a/1x1
I0403 15:26:27.649021 19414 net.cpp:141] Setting up inception_4a/1x1
I0403 15:26:27.649049 19414 net.cpp:148] Top shape: 24 192 14 14 (903168)
I0403 15:26:27.649065 19414 net.cpp:156] Memory required for data: 858010656
I0403 15:26:27.649083 19414 layer_factory.hpp:77] Creating layer inception_4a/relu_1x1
I0403 15:26:27.649103 19414 net.cpp:91] Creating Layer inception_4a/relu_1x1
I0403 15:26:27.649121 19414 net.cpp:425] inception_4a/relu_1x1 <- inception_4a/1x1
I0403 15:26:27.649137 19414 net.cpp:386] inception_4a/relu_1x1 -> inception_4a/1x1 (in-place)
I0403 15:26:27.649324 19414 net.cpp:141] Setting up inception_4a/relu_1x1
I0403 15:26:27.649349 19414 net.cpp:148] Top shape: 24 192 14 14 (903168)
I0403 15:26:27.649364 19414 net.cpp:156] Memory required for data: 861623328
I0403 15:26:27.649379 19414 layer_factory.hpp:77] Creating layer inception_4a/3x3_reduce
I0403 15:26:27.649405 19414 net.cpp:91] Creating Layer inception_4a/3x3_reduce
I0403 15:26:27.649423 19414 net.cpp:425] inception_4a/3x3_reduce <- pool3/3x3_s2_pool3/3x3_s2_0_split_1
I0403 15:26:27.649443 19414 net.cpp:399] inception_4a/3x3_reduce -> inception_4a/3x3_reduce
I0403 15:26:27.650750 19414 net.cpp:141] Setting up inception_4a/3x3_reduce
I0403 15:26:27.650777 19414 net.cpp:148] Top shape: 24 96 14 14 (451584)
I0403 15:26:27.650794 19414 net.cpp:156] Memory required for data: 863429664
I0403 15:26:27.650818 19414 layer_factory.hpp:77] Creating layer inception_4a/relu_3x3_reduce
I0403 15:26:27.650837 19414 net.cpp:91] Creating Layer inception_4a/relu_3x3_reduce
I0403 15:26:27.650853 19414 net.cpp:425] inception_4a/relu_3x3_reduce <- inception_4a/3x3_reduce
I0403 15:26:27.650872 19414 net.cpp:386] inception_4a/relu_3x3_reduce -> inception_4a/3x3_reduce (in-place)
I0403 15:26:27.651054 19414 net.cpp:141] Setting up inception_4a/relu_3x3_reduce
I0403 15:26:27.651079 19414 net.cpp:148] Top shape: 24 96 14 14 (451584)
I0403 15:26:27.651093 19414 net.cpp:156] Memory required for data: 865236000
I0403 15:26:27.651108 19414 layer_factory.hpp:77] Creating layer inception_4a/3x3
I0403 15:26:27.651130 19414 net.cpp:91] Creating Layer inception_4a/3x3
I0403 15:26:27.651149 19414 net.cpp:425] inception_4a/3x3 <- inception_4a/3x3_reduce
I0403 15:26:27.651170 19414 net.cpp:399] inception_4a/3x3 -> inception_4a/3x3
I0403 15:26:27.653859 19414 net.cpp:141] Setting up inception_4a/3x3
I0403 15:26:27.653887 19414 net.cpp:148] Top shape: 24 208 14 14 (978432)
I0403 15:26:27.653904 19414 net.cpp:156] Memory required for data: 869149728
I0403 15:26:27.653923 19414 layer_factory.hpp:77] Creating layer inception_4a/relu_3x3
I0403 15:26:27.653944 19414 net.cpp:91] Creating Layer inception_4a/relu_3x3
I0403 15:26:27.653961 19414 net.cpp:425] inception_4a/relu_3x3 <- inception_4a/3x3
I0403 15:26:27.653978 19414 net.cpp:386] inception_4a/relu_3x3 -> inception_4a/3x3 (in-place)
I0403 15:26:27.654258 19414 net.cpp:141] Setting up inception_4a/relu_3x3
I0403 15:26:27.654284 19414 net.cpp:148] Top shape: 24 208 14 14 (978432)
I0403 15:26:27.654299 19414 net.cpp:156] Memory required for data: 873063456
I0403 15:26:27.654315 19414 layer_factory.hpp:77] Creating layer inception_4a/5x5_reduce
I0403 15:26:27.654336 19414 net.cpp:91] Creating Layer inception_4a/5x5_reduce
I0403 15:26:27.654355 19414 net.cpp:425] inception_4a/5x5_reduce <- pool3/3x3_s2_pool3/3x3_s2_0_split_2
I0403 15:26:27.654376 19414 net.cpp:399] inception_4a/5x5_reduce -> inception_4a/5x5_reduce
I0403 15:26:27.655390 19414 net.cpp:141] Setting up inception_4a/5x5_reduce
I0403 15:26:27.655419 19414 net.cpp:148] Top shape: 24 16 14 14 (75264)
I0403 15:26:27.655436 19414 net.cpp:156] Memory required for data: 873364512
I0403 15:26:27.655454 19414 layer_factory.hpp:77] Creating layer inception_4a/relu_5x5_reduce
I0403 15:26:27.655472 19414 net.cpp:91] Creating Layer inception_4a/relu_5x5_reduce
I0403 15:26:27.655488 19414 net.cpp:425] inception_4a/relu_5x5_reduce <- inception_4a/5x5_reduce
I0403 15:26:27.655506 19414 net.cpp:386] inception_4a/relu_5x5_reduce -> inception_4a/5x5_reduce (in-place)
I0403 15:26:27.655684 19414 net.cpp:141] Setting up inception_4a/relu_5x5_reduce
I0403 15:26:27.655710 19414 net.cpp:148] Top shape: 24 16 14 14 (75264)
I0403 15:26:27.655725 19414 net.cpp:156] Memory required for data: 873665568
I0403 15:26:27.655740 19414 layer_factory.hpp:77] Creating layer inception_4a/5x5
I0403 15:26:27.655762 19414 net.cpp:91] Creating Layer inception_4a/5x5
I0403 15:26:27.655781 19414 net.cpp:425] inception_4a/5x5 <- inception_4a/5x5_reduce
I0403 15:26:27.655802 19414 net.cpp:399] inception_4a/5x5 -> inception_4a/5x5
I0403 15:26:27.656877 19414 net.cpp:141] Setting up inception_4a/5x5
I0403 15:26:27.656904 19414 net.cpp:148] Top shape: 24 48 14 14 (225792)
I0403 15:26:27.656919 19414 net.cpp:156] Memory required for data: 874568736
I0403 15:26:27.656939 19414 layer_factory.hpp:77] Creating layer inception_4a/relu_5x5
I0403 15:26:27.656956 19414 net.cpp:91] Creating Layer inception_4a/relu_5x5
I0403 15:26:27.656973 19414 net.cpp:425] inception_4a/relu_5x5 <- inception_4a/5x5
I0403 15:26:27.656996 19414 net.cpp:386] inception_4a/relu_5x5 -> inception_4a/5x5 (in-place)
I0403 15:26:27.657171 19414 net.cpp:141] Setting up inception_4a/relu_5x5
I0403 15:26:27.657196 19414 net.cpp:148] Top shape: 24 48 14 14 (225792)
I0403 15:26:27.657223 19414 net.cpp:156] Memory required for data: 875471904
I0403 15:26:27.657238 19414 layer_factory.hpp:77] Creating layer inception_4a/pool
I0403 15:26:27.657258 19414 net.cpp:91] Creating Layer inception_4a/pool
I0403 15:26:27.657275 19414 net.cpp:425] inception_4a/pool <- pool3/3x3_s2_pool3/3x3_s2_0_split_3
I0403 15:26:27.657294 19414 net.cpp:399] inception_4a/pool -> inception_4a/pool
I0403 15:26:27.657357 19414 net.cpp:141] Setting up inception_4a/pool
I0403 15:26:27.657382 19414 net.cpp:148] Top shape: 24 480 14 14 (2257920)
I0403 15:26:27.657397 19414 net.cpp:156] Memory required for data: 884503584
I0403 15:26:27.657413 19414 layer_factory.hpp:77] Creating layer inception_4a/pool_proj
I0403 15:26:27.657434 19414 net.cpp:91] Creating Layer inception_4a/pool_proj
I0403 15:26:27.657452 19414 net.cpp:425] inception_4a/pool_proj <- inception_4a/pool
I0403 15:26:27.657474 19414 net.cpp:399] inception_4a/pool_proj -> inception_4a/pool_proj
I0403 15:26:27.658646 19414 net.cpp:141] Setting up inception_4a/pool_proj
I0403 15:26:27.658674 19414 net.cpp:148] Top shape: 24 64 14 14 (301056)
I0403 15:26:27.658704 19414 net.cpp:156] Memory required for data: 885707808
I0403 15:26:27.658723 19414 layer_factory.hpp:77] Creating layer inception_4a/relu_pool_proj
I0403 15:26:27.658742 19414 net.cpp:91] Creating Layer inception_4a/relu_pool_proj
I0403 15:26:27.658758 19414 net.cpp:425] inception_4a/relu_pool_proj <- inception_4a/pool_proj
I0403 15:26:27.658779 19414 net.cpp:386] inception_4a/relu_pool_proj -> inception_4a/pool_proj (in-place)
I0403 15:26:27.659080 19414 net.cpp:141] Setting up inception_4a/relu_pool_proj
I0403 15:26:27.659106 19414 net.cpp:148] Top shape: 24 64 14 14 (301056)
I0403 15:26:27.659121 19414 net.cpp:156] Memory required for data: 886912032
I0403 15:26:27.659137 19414 layer_factory.hpp:77] Creating layer inception_4a/output
I0403 15:26:27.659153 19414 net.cpp:91] Creating Layer inception_4a/output
I0403 15:26:27.659169 19414 net.cpp:425] inception_4a/output <- inception_4a/1x1
I0403 15:26:27.659185 19414 net.cpp:425] inception_4a/output <- inception_4a/3x3
I0403 15:26:27.659203 19414 net.cpp:425] inception_4a/output <- inception_4a/5x5
I0403 15:26:27.659219 19414 net.cpp:425] inception_4a/output <- inception_4a/pool_proj
I0403 15:26:27.659237 19414 net.cpp:399] inception_4a/output -> inception_4a/output
I0403 15:26:27.659294 19414 net.cpp:141] Setting up inception_4a/output
I0403 15:26:27.659320 19414 net.cpp:148] Top shape: 24 512 14 14 (2408448)
I0403 15:26:27.659337 19414 net.cpp:156] Memory required for data: 896545824
I0403 15:26:27.659351 19414 layer_factory.hpp:77] Creating layer inception_4a/output_inception_4a/output_0_split
I0403 15:26:27.659369 19414 net.cpp:91] Creating Layer inception_4a/output_inception_4a/output_0_split
I0403 15:26:27.659384 19414 net.cpp:425] inception_4a/output_inception_4a/output_0_split <- inception_4a/output
I0403 15:26:27.659404 19414 net.cpp:399] inception_4a/output_inception_4a/output_0_split -> inception_4a/output_inception_4a/output_0_split_0
I0403 15:26:27.659426 19414 net.cpp:399] inception_4a/output_inception_4a/output_0_split -> inception_4a/output_inception_4a/output_0_split_1
I0403 15:26:27.659447 19414 net.cpp:399] inception_4a/output_inception_4a/output_0_split -> inception_4a/output_inception_4a/output_0_split_2
I0403 15:26:27.659468 19414 net.cpp:399] inception_4a/output_inception_4a/output_0_split -> inception_4a/output_inception_4a/output_0_split_3
I0403 15:26:27.659488 19414 net.cpp:399] inception_4a/output_inception_4a/output_0_split -> inception_4a/output_inception_4a/output_0_split_4
I0403 15:26:27.659584 19414 net.cpp:141] Setting up inception_4a/output_inception_4a/output_0_split
I0403 15:26:27.659610 19414 net.cpp:148] Top shape: 24 512 14 14 (2408448)
I0403 15:26:27.659641 19414 net.cpp:148] Top shape: 24 512 14 14 (2408448)
I0403 15:26:27.659657 19414 net.cpp:148] Top shape: 24 512 14 14 (2408448)
I0403 15:26:27.659672 19414 net.cpp:148] Top shape: 24 512 14 14 (2408448)
I0403 15:26:27.659687 19414 net.cpp:148] Top shape: 24 512 14 14 (2408448)
I0403 15:26:27.659700 19414 net.cpp:156] Memory required for data: 944714784
I0403 15:26:27.659715 19414 layer_factory.hpp:77] Creating layer loss1/ave_pool
I0403 15:26:27.659734 19414 net.cpp:91] Creating Layer loss1/ave_pool
I0403 15:26:27.659749 19414 net.cpp:425] loss1/ave_pool <- inception_4a/output_inception_4a/output_0_split_0
I0403 15:26:27.659766 19414 net.cpp:399] loss1/ave_pool -> loss1/ave_pool
I0403 15:26:27.659978 19414 net.cpp:141] Setting up loss1/ave_pool
I0403 15:26:27.660006 19414 net.cpp:148] Top shape: 24 512 4 4 (196608)
I0403 15:26:27.660023 19414 net.cpp:156] Memory required for data: 945501216
I0403 15:26:27.660038 19414 layer_factory.hpp:77] Creating layer loss1/conv
I0403 15:26:27.660060 19414 net.cpp:91] Creating Layer loss1/conv
I0403 15:26:27.660079 19414 net.cpp:425] loss1/conv <- loss1/ave_pool
I0403 15:26:27.660099 19414 net.cpp:399] loss1/conv -> loss1/conv
I0403 15:26:27.661463 19414 net.cpp:141] Setting up loss1/conv
I0403 15:26:27.661489 19414 net.cpp:148] Top shape: 24 128 4 4 (49152)
I0403 15:26:27.661530 19414 net.cpp:156] Memory required for data: 945697824
I0403 15:26:27.661550 19414 layer_factory.hpp:77] Creating layer loss1/relu_conv
I0403 15:26:27.661569 19414 net.cpp:91] Creating Layer loss1/relu_conv
I0403 15:26:27.661586 19414 net.cpp:425] loss1/relu_conv <- loss1/conv
I0403 15:26:27.661603 19414 net.cpp:386] loss1/relu_conv -> loss1/conv (in-place)
I0403 15:26:27.661872 19414 net.cpp:141] Setting up loss1/relu_conv
I0403 15:26:27.661896 19414 net.cpp:148] Top shape: 24 128 4 4 (49152)
I0403 15:26:27.661911 19414 net.cpp:156] Memory required for data: 945894432
I0403 15:26:27.661924 19414 layer_factory.hpp:77] Creating layer loss1/fc
I0403 15:26:27.661949 19414 net.cpp:91] Creating Layer loss1/fc
I0403 15:26:27.661967 19414 net.cpp:425] loss1/fc <- loss1/conv
I0403 15:26:27.661990 19414 net.cpp:399] loss1/fc -> loss1/fc
I0403 15:26:27.679632 19414 net.cpp:141] Setting up loss1/fc
I0403 15:26:27.679664 19414 net.cpp:148] Top shape: 24 1024 (24576)
I0403 15:26:27.679682 19414 net.cpp:156] Memory required for data: 945992736
I0403 15:26:27.679702 19414 layer_factory.hpp:77] Creating layer loss1/relu_fc
I0403 15:26:27.679721 19414 net.cpp:91] Creating Layer loss1/relu_fc
I0403 15:26:27.679741 19414 net.cpp:425] loss1/relu_fc <- loss1/fc
I0403 15:26:27.679759 19414 net.cpp:386] loss1/relu_fc -> loss1/fc (in-place)
I0403 15:26:27.679949 19414 net.cpp:141] Setting up loss1/relu_fc
I0403 15:26:27.679973 19414 net.cpp:148] Top shape: 24 1024 (24576)
I0403 15:26:27.679994 19414 net.cpp:156] Memory required for data: 946091040
I0403 15:26:27.680011 19414 layer_factory.hpp:77] Creating layer loss1/drop_fc
I0403 15:26:27.680040 19414 net.cpp:91] Creating Layer loss1/drop_fc
I0403 15:26:27.680058 19414 net.cpp:425] loss1/drop_fc <- loss1/fc
I0403 15:26:27.680076 19414 net.cpp:386] loss1/drop_fc -> loss1/fc (in-place)
I0403 15:26:27.680126 19414 net.cpp:141] Setting up loss1/drop_fc
I0403 15:26:27.680152 19414 net.cpp:148] Top shape: 24 1024 (24576)
I0403 15:26:27.680167 19414 net.cpp:156] Memory required for data: 946189344
I0403 15:26:27.680183 19414 layer_factory.hpp:77] Creating layer loss1/classifier_plantvillage
I0403 15:26:27.680200 19414 net.cpp:91] Creating Layer loss1/classifier_plantvillage
I0403 15:26:27.680217 19414 net.cpp:425] loss1/classifier_plantvillage <- loss1/fc
I0403 15:26:27.680238 19414 net.cpp:399] loss1/classifier_plantvillage -> loss1/classifier_plantvillage
I0403 15:26:27.681154 19414 net.cpp:141] Setting up loss1/classifier_plantvillage
I0403 15:26:27.681181 19414 net.cpp:148] Top shape: 24 38 (912)
I0403 15:26:27.681196 19414 net.cpp:156] Memory required for data: 946192992
I0403 15:26:27.681226 19414 layer_factory.hpp:77] Creating layer loss1/classifier_plantvillage_loss1/classifier_plantvillage_0_split
I0403 15:26:27.681246 19414 net.cpp:91] Creating Layer loss1/classifier_plantvillage_loss1/classifier_plantvillage_0_split
I0403 15:26:27.681264 19414 net.cpp:425] loss1/classifier_plantvillage_loss1/classifier_plantvillage_0_split <- loss1/classifier_plantvillage
I0403 15:26:27.681282 19414 net.cpp:399] loss1/classifier_plantvillage_loss1/classifier_plantvillage_0_split -> loss1/classifier_plantvillage_loss1/classifier_plantvillage_0_split_0
I0403 15:26:27.681303 19414 net.cpp:399] loss1/classifier_plantvillage_loss1/classifier_plantvillage_0_split -> loss1/classifier_plantvillage_loss1/classifier_plantvillage_0_split_1
I0403 15:26:27.681324 19414 net.cpp:399] loss1/classifier_plantvillage_loss1/classifier_plantvillage_0_split -> loss1/classifier_plantvillage_loss1/classifier_plantvillage_0_split_2
I0403 15:26:27.681393 19414 net.cpp:141] Setting up loss1/classifier_plantvillage_loss1/classifier_plantvillage_0_split
I0403 15:26:27.681416 19414 net.cpp:148] Top shape: 24 38 (912)
I0403 15:26:27.681433 19414 net.cpp:148] Top shape: 24 38 (912)
I0403 15:26:27.681449 19414 net.cpp:148] Top shape: 24 38 (912)
I0403 15:26:27.681463 19414 net.cpp:156] Memory required for data: 946203936
I0403 15:26:27.681478 19414 layer_factory.hpp:77] Creating layer inception_4b/1x1
I0403 15:26:27.681499 19414 net.cpp:91] Creating Layer inception_4b/1x1
I0403 15:26:27.681543 19414 net.cpp:425] inception_4b/1x1 <- inception_4a/output_inception_4a/output_0_split_1
I0403 15:26:27.681566 19414 net.cpp:399] inception_4b/1x1 -> inception_4b/1x1
I0403 15:26:27.683192 19414 net.cpp:141] Setting up inception_4b/1x1
I0403 15:26:27.683223 19414 net.cpp:148] Top shape: 24 160 14 14 (752640)
I0403 15:26:27.683238 19414 net.cpp:156] Memory required for data: 949214496
I0403 15:26:27.683256 19414 layer_factory.hpp:77] Creating layer inception_4b/relu_1x1
I0403 15:26:27.683274 19414 net.cpp:91] Creating Layer inception_4b/relu_1x1
I0403 15:26:27.683290 19414 net.cpp:425] inception_4b/relu_1x1 <- inception_4b/1x1
I0403 15:26:27.683310 19414 net.cpp:386] inception_4b/relu_1x1 -> inception_4b/1x1 (in-place)
I0403 15:26:27.683485 19414 net.cpp:141] Setting up inception_4b/relu_1x1
I0403 15:26:27.683511 19414 net.cpp:148] Top shape: 24 160 14 14 (752640)
I0403 15:26:27.683527 19414 net.cpp:156] Memory required for data: 952225056
I0403 15:26:27.683542 19414 layer_factory.hpp:77] Creating layer inception_4b/3x3_reduce
I0403 15:26:27.683564 19414 net.cpp:91] Creating Layer inception_4b/3x3_reduce
I0403 15:26:27.683581 19414 net.cpp:425] inception_4b/3x3_reduce <- inception_4a/output_inception_4a/output_0_split_2
I0403 15:26:27.683599 19414 net.cpp:399] inception_4b/3x3_reduce -> inception_4b/3x3_reduce
I0403 15:26:27.684952 19414 net.cpp:141] Setting up inception_4b/3x3_reduce
I0403 15:26:27.684989 19414 net.cpp:148] Top shape: 24 112 14 14 (526848)
I0403 15:26:27.685009 19414 net.cpp:156] Memory required for data: 954332448
I0403 15:26:27.685027 19414 layer_factory.hpp:77] Creating layer inception_4b/relu_3x3_reduce
I0403 15:26:27.685046 19414 net.cpp:91] Creating Layer inception_4b/relu_3x3_reduce
I0403 15:26:27.685063 19414 net.cpp:425] inception_4b/relu_3x3_reduce <- inception_4b/3x3_reduce
I0403 15:26:27.685083 19414 net.cpp:386] inception_4b/relu_3x3_reduce -> inception_4b/3x3_reduce (in-place)
I0403 15:26:27.685397 19414 net.cpp:141] Setting up inception_4b/relu_3x3_reduce
I0403 15:26:27.685425 19414 net.cpp:148] Top shape: 24 112 14 14 (526848)
I0403 15:26:27.685442 19414 net.cpp:156] Memory required for data: 956439840
I0403 15:26:27.685457 19414 layer_factory.hpp:77] Creating layer inception_4b/3x3
I0403 15:26:27.685480 19414 net.cpp:91] Creating Layer inception_4b/3x3
I0403 15:26:27.685510 19414 net.cpp:425] inception_4b/3x3 <- inception_4b/3x3_reduce
I0403 15:26:27.685529 19414 net.cpp:399] inception_4b/3x3 -> inception_4b/3x3
I0403 15:26:27.688508 19414 net.cpp:141] Setting up inception_4b/3x3
I0403 15:26:27.688537 19414 net.cpp:148] Top shape: 24 224 14 14 (1053696)
I0403 15:26:27.688554 19414 net.cpp:156] Memory required for data: 960654624
I0403 15:26:27.688571 19414 layer_factory.hpp:77] Creating layer inception_4b/relu_3x3
I0403 15:26:27.688592 19414 net.cpp:91] Creating Layer inception_4b/relu_3x3
I0403 15:26:27.688608 19414 net.cpp:425] inception_4b/relu_3x3 <- inception_4b/3x3
I0403 15:26:27.688626 19414 net.cpp:386] inception_4b/relu_3x3 -> inception_4b/3x3 (in-place)
I0403 15:26:27.688807 19414 net.cpp:141] Setting up inception_4b/relu_3x3
I0403 15:26:27.688832 19414 net.cpp:148] Top shape: 24 224 14 14 (1053696)
I0403 15:26:27.688845 19414 net.cpp:156] Memory required for data: 964869408
I0403 15:26:27.688860 19414 layer_factory.hpp:77] Creating layer inception_4b/5x5_reduce
I0403 15:26:27.688885 19414 net.cpp:91] Creating Layer inception_4b/5x5_reduce
I0403 15:26:27.688904 19414 net.cpp:425] inception_4b/5x5_reduce <- inception_4a/output_inception_4a/output_0_split_3
I0403 15:26:27.688922 19414 net.cpp:399] inception_4b/5x5_reduce -> inception_4b/5x5_reduce
I0403 15:26:27.690106 19414 net.cpp:141] Setting up inception_4b/5x5_reduce
I0403 15:26:27.690137 19414 net.cpp:148] Top shape: 24 24 14 14 (112896)
I0403 15:26:27.690155 19414 net.cpp:156] Memory required for data: 965320992
I0403 15:26:27.690174 19414 layer_factory.hpp:77] Creating layer inception_4b/relu_5x5_reduce
I0403 15:26:27.690192 19414 net.cpp:91] Creating Layer inception_4b/relu_5x5_reduce
I0403 15:26:27.690224 19414 net.cpp:425] inception_4b/relu_5x5_reduce <- inception_4b/5x5_reduce
I0403 15:26:27.690249 19414 net.cpp:386] inception_4b/relu_5x5_reduce -> inception_4b/5x5_reduce (in-place)
I0403 15:26:27.690445 19414 net.cpp:141] Setting up inception_4b/relu_5x5_reduce
I0403 15:26:27.690469 19414 net.cpp:148] Top shape: 24 24 14 14 (112896)
I0403 15:26:27.690485 19414 net.cpp:156] Memory required for data: 965772576
I0403 15:26:27.690500 19414 layer_factory.hpp:77] Creating layer inception_4b/5x5
I0403 15:26:27.690521 19414 net.cpp:91] Creating Layer inception_4b/5x5
I0403 15:26:27.690539 19414 net.cpp:425] inception_4b/5x5 <- inception_4b/5x5_reduce
I0403 15:26:27.690560 19414 net.cpp:399] inception_4b/5x5 -> inception_4b/5x5
I0403 15:26:27.691776 19414 net.cpp:141] Setting up inception_4b/5x5
I0403 15:26:27.691805 19414 net.cpp:148] Top shape: 24 64 14 14 (301056)
I0403 15:26:27.691822 19414 net.cpp:156] Memory required for data: 966976800
I0403 15:26:27.691840 19414 layer_factory.hpp:77] Creating layer inception_4b/relu_5x5
I0403 15:26:27.691859 19414 net.cpp:91] Creating Layer inception_4b/relu_5x5
I0403 15:26:27.691874 19414 net.cpp:425] inception_4b/relu_5x5 <- inception_4b/5x5
I0403 15:26:27.691892 19414 net.cpp:386] inception_4b/relu_5x5 -> inception_4b/5x5 (in-place)
I0403 15:26:27.692180 19414 net.cpp:141] Setting up inception_4b/relu_5x5
I0403 15:26:27.692209 19414 net.cpp:148] Top shape: 24 64 14 14 (301056)
I0403 15:26:27.692225 19414 net.cpp:156] Memory required for data: 968181024
I0403 15:26:27.692240 19414 layer_factory.hpp:77] Creating layer inception_4b/pool
I0403 15:26:27.692258 19414 net.cpp:91] Creating Layer inception_4b/pool
I0403 15:26:27.692275 19414 net.cpp:425] inception_4b/pool <- inception_4a/output_inception_4a/output_0_split_4
I0403 15:26:27.692292 19414 net.cpp:399] inception_4b/pool -> inception_4b/pool
I0403 15:26:27.692359 19414 net.cpp:141] Setting up inception_4b/pool
I0403 15:26:27.692383 19414 net.cpp:148] Top shape: 24 512 14 14 (2408448)
I0403 15:26:27.692397 19414 net.cpp:156] Memory required for data: 977814816
I0403 15:26:27.692412 19414 layer_factory.hpp:77] Creating layer inception_4b/pool_proj
I0403 15:26:27.692433 19414 net.cpp:91] Creating Layer inception_4b/pool_proj
I0403 15:26:27.692451 19414 net.cpp:425] inception_4b/pool_proj <- inception_4b/pool
I0403 15:26:27.692472 19414 net.cpp:399] inception_4b/pool_proj -> inception_4b/pool_proj
I0403 15:26:27.693692 19414 net.cpp:141] Setting up inception_4b/pool_proj
I0403 15:26:27.693722 19414 net.cpp:148] Top shape: 24 64 14 14 (301056)
I0403 15:26:27.693739 19414 net.cpp:156] Memory required for data: 979019040
I0403 15:26:27.693758 19414 layer_factory.hpp:77] Creating layer inception_4b/relu_pool_proj
I0403 15:26:27.693775 19414 net.cpp:91] Creating Layer inception_4b/relu_pool_proj
I0403 15:26:27.693791 19414 net.cpp:425] inception_4b/relu_pool_proj <- inception_4b/pool_proj
I0403 15:26:27.693809 19414 net.cpp:386] inception_4b/relu_pool_proj -> inception_4b/pool_proj (in-place)
I0403 15:26:27.693996 19414 net.cpp:141] Setting up inception_4b/relu_pool_proj
I0403 15:26:27.694021 19414 net.cpp:148] Top shape: 24 64 14 14 (301056)
I0403 15:26:27.694036 19414 net.cpp:156] Memory required for data: 980223264
I0403 15:26:27.694051 19414 layer_factory.hpp:77] Creating layer inception_4b/output
I0403 15:26:27.694068 19414 net.cpp:91] Creating Layer inception_4b/output
I0403 15:26:27.694083 19414 net.cpp:425] inception_4b/output <- inception_4b/1x1
I0403 15:26:27.694100 19414 net.cpp:425] inception_4b/output <- inception_4b/3x3
I0403 15:26:27.694116 19414 net.cpp:425] inception_4b/output <- inception_4b/5x5
I0403 15:26:27.694131 19414 net.cpp:425] inception_4b/output <- inception_4b/pool_proj
I0403 15:26:27.694150 19414 net.cpp:399] inception_4b/output -> inception_4b/output
I0403 15:26:27.694196 19414 net.cpp:141] Setting up inception_4b/output
I0403 15:26:27.694221 19414 net.cpp:148] Top shape: 24 512 14 14 (2408448)
I0403 15:26:27.694237 19414 net.cpp:156] Memory required for data: 989857056
I0403 15:26:27.694265 19414 layer_factory.hpp:77] Creating layer inception_4b/output_inception_4b/output_0_split
I0403 15:26:27.694283 19414 net.cpp:91] Creating Layer inception_4b/output_inception_4b/output_0_split
I0403 15:26:27.694299 19414 net.cpp:425] inception_4b/output_inception_4b/output_0_split <- inception_4b/output
I0403 15:26:27.694316 19414 net.cpp:399] inception_4b/output_inception_4b/output_0_split -> inception_4b/output_inception_4b/output_0_split_0
I0403 15:26:27.694340 19414 net.cpp:399] inception_4b/output_inception_4b/output_0_split -> inception_4b/output_inception_4b/output_0_split_1
I0403 15:26:27.694360 19414 net.cpp:399] inception_4b/output_inception_4b/output_0_split -> inception_4b/output_inception_4b/output_0_split_2
I0403 15:26:27.694380 19414 net.cpp:399] inception_4b/output_inception_4b/output_0_split -> inception_4b/output_inception_4b/output_0_split_3
I0403 15:26:27.694464 19414 net.cpp:141] Setting up inception_4b/output_inception_4b/output_0_split
I0403 15:26:27.694489 19414 net.cpp:148] Top shape: 24 512 14 14 (2408448)
I0403 15:26:27.694504 19414 net.cpp:148] Top shape: 24 512 14 14 (2408448)
I0403 15:26:27.694519 19414 net.cpp:148] Top shape: 24 512 14 14 (2408448)
I0403 15:26:27.694535 19414 net.cpp:148] Top shape: 24 512 14 14 (2408448)
I0403 15:26:27.694548 19414 net.cpp:156] Memory required for data: 1028392224
I0403 15:26:27.694563 19414 layer_factory.hpp:77] Creating layer inception_4c/1x1
I0403 15:26:27.694586 19414 net.cpp:91] Creating Layer inception_4c/1x1
I0403 15:26:27.694602 19414 net.cpp:425] inception_4c/1x1 <- inception_4b/output_inception_4b/output_0_split_0
I0403 15:26:27.694623 19414 net.cpp:399] inception_4c/1x1 -> inception_4c/1x1
I0403 15:26:27.696069 19414 net.cpp:141] Setting up inception_4c/1x1
I0403 15:26:27.696097 19414 net.cpp:148] Top shape: 24 128 14 14 (602112)
I0403 15:26:27.696113 19414 net.cpp:156] Memory required for data: 1030800672
I0403 15:26:27.696131 19414 layer_factory.hpp:77] Creating layer inception_4c/relu_1x1
I0403 15:26:27.696152 19414 net.cpp:91] Creating Layer inception_4c/relu_1x1
I0403 15:26:27.696169 19414 net.cpp:425] inception_4c/relu_1x1 <- inception_4c/1x1
I0403 15:26:27.696187 19414 net.cpp:386] inception_4c/relu_1x1 -> inception_4c/1x1 (in-place)
I0403 15:26:27.696382 19414 net.cpp:141] Setting up inception_4c/relu_1x1
I0403 15:26:27.696406 19414 net.cpp:148] Top shape: 24 128 14 14 (602112)
I0403 15:26:27.696420 19414 net.cpp:156] Memory required for data: 1033209120
I0403 15:26:27.696435 19414 layer_factory.hpp:77] Creating layer inception_4c/3x3_reduce
I0403 15:26:27.696457 19414 net.cpp:91] Creating Layer inception_4c/3x3_reduce
I0403 15:26:27.696475 19414 net.cpp:425] inception_4c/3x3_reduce <- inception_4b/output_inception_4b/output_0_split_1
I0403 15:26:27.696496 19414 net.cpp:399] inception_4c/3x3_reduce -> inception_4c/3x3_reduce
I0403 15:26:27.698472 19414 net.cpp:141] Setting up inception_4c/3x3_reduce
I0403 15:26:27.698500 19414 net.cpp:148] Top shape: 24 128 14 14 (602112)
I0403 15:26:27.698515 19414 net.cpp:156] Memory required for data: 1035617568
I0403 15:26:27.698534 19414 layer_factory.hpp:77] Creating layer inception_4c/relu_3x3_reduce
I0403 15:26:27.698554 19414 net.cpp:91] Creating Layer inception_4c/relu_3x3_reduce
I0403 15:26:27.698571 19414 net.cpp:425] inception_4c/relu_3x3_reduce <- inception_4c/3x3_reduce
I0403 15:26:27.698590 19414 net.cpp:386] inception_4c/relu_3x3_reduce -> inception_4c/3x3_reduce (in-place)
I0403 15:26:27.698873 19414 net.cpp:141] Setting up inception_4c/relu_3x3_reduce
I0403 15:26:27.698899 19414 net.cpp:148] Top shape: 24 128 14 14 (602112)
I0403 15:26:27.698915 19414 net.cpp:156] Memory required for data: 1038026016
I0403 15:26:27.698930 19414 layer_factory.hpp:77] Creating layer inception_4c/3x3
I0403 15:26:27.698954 19414 net.cpp:91] Creating Layer inception_4c/3x3
I0403 15:26:27.698972 19414 net.cpp:425] inception_4c/3x3 <- inception_4c/3x3_reduce
I0403 15:26:27.699002 19414 net.cpp:399] inception_4c/3x3 -> inception_4c/3x3
I0403 15:26:27.702664 19414 net.cpp:141] Setting up inception_4c/3x3
I0403 15:26:27.702708 19414 net.cpp:148] Top shape: 24 256 14 14 (1204224)
I0403 15:26:27.702724 19414 net.cpp:156] Memory required for data: 1042842912
I0403 15:26:27.702754 19414 layer_factory.hpp:77] Creating layer inception_4c/relu_3x3
I0403 15:26:27.702775 19414 net.cpp:91] Creating Layer inception_4c/relu_3x3
I0403 15:26:27.702790 19414 net.cpp:425] inception_4c/relu_3x3 <- inception_4c/3x3
I0403 15:26:27.702806 19414 net.cpp:386] inception_4c/relu_3x3 -> inception_4c/3x3 (in-place)
I0403 15:26:27.702983 19414 net.cpp:141] Setting up inception_4c/relu_3x3
I0403 15:26:27.703013 19414 net.cpp:148] Top shape: 24 256 14 14 (1204224)
I0403 15:26:27.703032 19414 net.cpp:156] Memory required for data: 1047659808
I0403 15:26:27.703045 19414 layer_factory.hpp:77] Creating layer inception_4c/5x5_reduce
I0403 15:26:27.703068 19414 net.cpp:91] Creating Layer inception_4c/5x5_reduce
I0403 15:26:27.703085 19414 net.cpp:425] inception_4c/5x5_reduce <- inception_4b/output_inception_4b/output_0_split_2
I0403 15:26:27.703104 19414 net.cpp:399] inception_4c/5x5_reduce -> inception_4c/5x5_reduce
I0403 15:26:27.704169 19414 net.cpp:141] Setting up inception_4c/5x5_reduce
I0403 15:26:27.704197 19414 net.cpp:148] Top shape: 24 24 14 14 (112896)
I0403 15:26:27.704215 19414 net.cpp:156] Memory required for data: 1048111392
I0403 15:26:27.704232 19414 layer_factory.hpp:77] Creating layer inception_4c/relu_5x5_reduce
I0403 15:26:27.704249 19414 net.cpp:91] Creating Layer inception_4c/relu_5x5_reduce
I0403 15:26:27.704265 19414 net.cpp:425] inception_4c/relu_5x5_reduce <- inception_4c/5x5_reduce
I0403 15:26:27.704283 19414 net.cpp:386] inception_4c/relu_5x5_reduce -> inception_4c/5x5_reduce (in-place)
I0403 15:26:27.704468 19414 net.cpp:141] Setting up inception_4c/relu_5x5_reduce
I0403 15:26:27.704493 19414 net.cpp:148] Top shape: 24 24 14 14 (112896)
I0403 15:26:27.704506 19414 net.cpp:156] Memory required for data: 1048562976
I0403 15:26:27.704520 19414 layer_factory.hpp:77] Creating layer inception_4c/5x5
I0403 15:26:27.704542 19414 net.cpp:91] Creating Layer inception_4c/5x5
I0403 15:26:27.704560 19414 net.cpp:425] inception_4c/5x5 <- inception_4c/5x5_reduce
I0403 15:26:27.704581 19414 net.cpp:399] inception_4c/5x5 -> inception_4c/5x5
I0403 15:26:27.705829 19414 net.cpp:141] Setting up inception_4c/5x5
I0403 15:26:27.705855 19414 net.cpp:148] Top shape: 24 64 14 14 (301056)
I0403 15:26:27.705871 19414 net.cpp:156] Memory required for data: 1049767200
I0403 15:26:27.705889 19414 layer_factory.hpp:77] Creating layer inception_4c/relu_5x5
I0403 15:26:27.705907 19414 net.cpp:91] Creating Layer inception_4c/relu_5x5
I0403 15:26:27.705955 19414 net.cpp:425] inception_4c/relu_5x5 <- inception_4c/5x5
I0403 15:26:27.705972 19414 net.cpp:386] inception_4c/relu_5x5 -> inception_4c/5x5 (in-place)
I0403 15:26:27.706276 19414 net.cpp:141] Setting up inception_4c/relu_5x5
I0403 15:26:27.706301 19414 net.cpp:148] Top shape: 24 64 14 14 (301056)
I0403 15:26:27.706316 19414 net.cpp:156] Memory required for data: 1050971424
I0403 15:26:27.706331 19414 layer_factory.hpp:77] Creating layer inception_4c/pool
I0403 15:26:27.706347 19414 net.cpp:91] Creating Layer inception_4c/pool
I0403 15:26:27.706363 19414 net.cpp:425] inception_4c/pool <- inception_4b/output_inception_4b/output_0_split_3
I0403 15:26:27.706383 19414 net.cpp:399] inception_4c/pool -> inception_4c/pool
I0403 15:26:27.706447 19414 net.cpp:141] Setting up inception_4c/pool
I0403 15:26:27.706473 19414 net.cpp:148] Top shape: 24 512 14 14 (2408448)
I0403 15:26:27.706488 19414 net.cpp:156] Memory required for data: 1060605216
I0403 15:26:27.706502 19414 layer_factory.hpp:77] Creating layer inception_4c/pool_proj
I0403 15:26:27.706524 19414 net.cpp:91] Creating Layer inception_4c/pool_proj
I0403 15:26:27.706542 19414 net.cpp:425] inception_4c/pool_proj <- inception_4c/pool
I0403 15:26:27.706559 19414 net.cpp:399] inception_4c/pool_proj -> inception_4c/pool_proj
I0403 15:26:27.707782 19414 net.cpp:141] Setting up inception_4c/pool_proj
I0403 15:26:27.707811 19414 net.cpp:148] Top shape: 24 64 14 14 (301056)
I0403 15:26:27.707839 19414 net.cpp:156] Memory required for data: 1061809440
I0403 15:26:27.707857 19414 layer_factory.hpp:77] Creating layer inception_4c/relu_pool_proj
I0403 15:26:27.707875 19414 net.cpp:91] Creating Layer inception_4c/relu_pool_proj
I0403 15:26:27.707891 19414 net.cpp:425] inception_4c/relu_pool_proj <- inception_4c/pool_proj
I0403 15:26:27.707907 19414 net.cpp:386] inception_4c/relu_pool_proj -> inception_4c/pool_proj (in-place)
I0403 15:26:27.708096 19414 net.cpp:141] Setting up inception_4c/relu_pool_proj
I0403 15:26:27.708118 19414 net.cpp:148] Top shape: 24 64 14 14 (301056)
I0403 15:26:27.708132 19414 net.cpp:156] Memory required for data: 1063013664
I0403 15:26:27.708148 19414 layer_factory.hpp:77] Creating layer inception_4c/output
I0403 15:26:27.708163 19414 net.cpp:91] Creating Layer inception_4c/output
I0403 15:26:27.708178 19414 net.cpp:425] inception_4c/output <- inception_4c/1x1
I0403 15:26:27.708194 19414 net.cpp:425] inception_4c/output <- inception_4c/3x3
I0403 15:26:27.708209 19414 net.cpp:425] inception_4c/output <- inception_4c/5x5
I0403 15:26:27.708225 19414 net.cpp:425] inception_4c/output <- inception_4c/pool_proj
I0403 15:26:27.708242 19414 net.cpp:399] inception_4c/output -> inception_4c/output
I0403 15:26:27.708287 19414 net.cpp:141] Setting up inception_4c/output
I0403 15:26:27.708310 19414 net.cpp:148] Top shape: 24 512 14 14 (2408448)
I0403 15:26:27.708323 19414 net.cpp:156] Memory required for data: 1072647456
I0403 15:26:27.708338 19414 layer_factory.hpp:77] Creating layer inception_4c/output_inception_4c/output_0_split
I0403 15:26:27.708356 19414 net.cpp:91] Creating Layer inception_4c/output_inception_4c/output_0_split
I0403 15:26:27.708372 19414 net.cpp:425] inception_4c/output_inception_4c/output_0_split <- inception_4c/output
I0403 15:26:27.708389 19414 net.cpp:399] inception_4c/output_inception_4c/output_0_split -> inception_4c/output_inception_4c/output_0_split_0
I0403 15:26:27.708411 19414 net.cpp:399] inception_4c/output_inception_4c/output_0_split -> inception_4c/output_inception_4c/output_0_split_1
I0403 15:26:27.708431 19414 net.cpp:399] inception_4c/output_inception_4c/output_0_split -> inception_4c/output_inception_4c/output_0_split_2
I0403 15:26:27.708451 19414 net.cpp:399] inception_4c/output_inception_4c/output_0_split -> inception_4c/output_inception_4c/output_0_split_3
I0403 15:26:27.708533 19414 net.cpp:141] Setting up inception_4c/output_inception_4c/output_0_split
I0403 15:26:27.708554 19414 net.cpp:148] Top shape: 24 512 14 14 (2408448)
I0403 15:26:27.708570 19414 net.cpp:148] Top shape: 24 512 14 14 (2408448)
I0403 15:26:27.708585 19414 net.cpp:148] Top shape: 24 512 14 14 (2408448)
I0403 15:26:27.708600 19414 net.cpp:148] Top shape: 24 512 14 14 (2408448)
I0403 15:26:27.708613 19414 net.cpp:156] Memory required for data: 1111182624
I0403 15:26:27.708627 19414 layer_factory.hpp:77] Creating layer inception_4d/1x1
I0403 15:26:27.708648 19414 net.cpp:91] Creating Layer inception_4d/1x1
I0403 15:26:27.708665 19414 net.cpp:425] inception_4d/1x1 <- inception_4c/output_inception_4c/output_0_split_0
I0403 15:26:27.708685 19414 net.cpp:399] inception_4d/1x1 -> inception_4d/1x1
I0403 15:26:27.710103 19414 net.cpp:141] Setting up inception_4d/1x1
I0403 15:26:27.710129 19414 net.cpp:148] Top shape: 24 112 14 14 (526848)
I0403 15:26:27.710144 19414 net.cpp:156] Memory required for data: 1113290016
I0403 15:26:27.710161 19414 layer_factory.hpp:77] Creating layer inception_4d/relu_1x1
I0403 15:26:27.710181 19414 net.cpp:91] Creating Layer inception_4d/relu_1x1
I0403 15:26:27.710197 19414 net.cpp:425] inception_4d/relu_1x1 <- inception_4d/1x1
I0403 15:26:27.710216 19414 net.cpp:386] inception_4d/relu_1x1 -> inception_4d/1x1 (in-place)
I0403 15:26:27.710396 19414 net.cpp:141] Setting up inception_4d/relu_1x1
I0403 15:26:27.710418 19414 net.cpp:148] Top shape: 24 112 14 14 (526848)
I0403 15:26:27.710433 19414 net.cpp:156] Memory required for data: 1115397408
I0403 15:26:27.710448 19414 layer_factory.hpp:77] Creating layer inception_4d/3x3_reduce
I0403 15:26:27.710482 19414 net.cpp:91] Creating Layer inception_4d/3x3_reduce
I0403 15:26:27.710501 19414 net.cpp:425] inception_4d/3x3_reduce <- inception_4c/output_inception_4c/output_0_split_1
I0403 15:26:27.710520 19414 net.cpp:399] inception_4d/3x3_reduce -> inception_4d/3x3_reduce
I0403 15:26:27.711994 19414 net.cpp:141] Setting up inception_4d/3x3_reduce
I0403 15:26:27.712020 19414 net.cpp:148] Top shape: 24 144 14 14 (677376)
I0403 15:26:27.712035 19414 net.cpp:156] Memory required for data: 1118106912
I0403 15:26:27.712054 19414 layer_factory.hpp:77] Creating layer inception_4d/relu_3x3_reduce
I0403 15:26:27.712070 19414 net.cpp:91] Creating Layer inception_4d/relu_3x3_reduce
I0403 15:26:27.712085 19414 net.cpp:425] inception_4d/relu_3x3_reduce <- inception_4d/3x3_reduce
I0403 15:26:27.712105 19414 net.cpp:386] inception_4d/relu_3x3_reduce -> inception_4d/3x3_reduce (in-place)
I0403 15:26:27.712391 19414 net.cpp:141] Setting up inception_4d/relu_3x3_reduce
I0403 15:26:27.712416 19414 net.cpp:148] Top shape: 24 144 14 14 (677376)
I0403 15:26:27.712430 19414 net.cpp:156] Memory required for data: 1120816416
I0403 15:26:27.712445 19414 layer_factory.hpp:77] Creating layer inception_4d/3x3
I0403 15:26:27.712466 19414 net.cpp:91] Creating Layer inception_4d/3x3
I0403 15:26:27.712483 19414 net.cpp:425] inception_4d/3x3 <- inception_4d/3x3_reduce
I0403 15:26:27.712504 19414 net.cpp:399] inception_4d/3x3 -> inception_4d/3x3
I0403 15:26:27.716686 19414 net.cpp:141] Setting up inception_4d/3x3
I0403 15:26:27.716713 19414 net.cpp:148] Top shape: 24 288 14 14 (1354752)
I0403 15:26:27.716728 19414 net.cpp:156] Memory required for data: 1126235424
I0403 15:26:27.716747 19414 layer_factory.hpp:77] Creating layer inception_4d/relu_3x3
I0403 15:26:27.716769 19414 net.cpp:91] Creating Layer inception_4d/relu_3x3
I0403 15:26:27.716786 19414 net.cpp:425] inception_4d/relu_3x3 <- inception_4d/3x3
I0403 15:26:27.716804 19414 net.cpp:386] inception_4d/relu_3x3 -> inception_4d/3x3 (in-place)
I0403 15:26:27.716980 19414 net.cpp:141] Setting up inception_4d/relu_3x3
I0403 15:26:27.717010 19414 net.cpp:148] Top shape: 24 288 14 14 (1354752)
I0403 15:26:27.717027 19414 net.cpp:156] Memory required for data: 1131654432
I0403 15:26:27.717042 19414 layer_factory.hpp:77] Creating layer inception_4d/5x5_reduce
I0403 15:26:27.717063 19414 net.cpp:91] Creating Layer inception_4d/5x5_reduce
I0403 15:26:27.717080 19414 net.cpp:425] inception_4d/5x5_reduce <- inception_4c/output_inception_4c/output_0_split_2
I0403 15:26:27.717098 19414 net.cpp:399] inception_4d/5x5_reduce -> inception_4d/5x5_reduce
I0403 15:26:27.718260 19414 net.cpp:141] Setting up inception_4d/5x5_reduce
I0403 15:26:27.718286 19414 net.cpp:148] Top shape: 24 32 14 14 (150528)
I0403 15:26:27.718300 19414 net.cpp:156] Memory required for data: 1132256544
I0403 15:26:27.718317 19414 layer_factory.hpp:77] Creating layer inception_4d/relu_5x5_reduce
I0403 15:26:27.718338 19414 net.cpp:91] Creating Layer inception_4d/relu_5x5_reduce
I0403 15:26:27.718354 19414 net.cpp:425] inception_4d/relu_5x5_reduce <- inception_4d/5x5_reduce
I0403 15:26:27.718371 19414 net.cpp:386] inception_4d/relu_5x5_reduce -> inception_4d/5x5_reduce (in-place)
I0403 15:26:27.718555 19414 net.cpp:141] Setting up inception_4d/relu_5x5_reduce
I0403 15:26:27.718581 19414 net.cpp:148] Top shape: 24 32 14 14 (150528)
I0403 15:26:27.718596 19414 net.cpp:156] Memory required for data: 1132858656
I0403 15:26:27.718611 19414 layer_factory.hpp:77] Creating layer inception_4d/5x5
I0403 15:26:27.718632 19414 net.cpp:91] Creating Layer inception_4d/5x5
I0403 15:26:27.718648 19414 net.cpp:425] inception_4d/5x5 <- inception_4d/5x5_reduce
I0403 15:26:27.718667 19414 net.cpp:399] inception_4d/5x5 -> inception_4d/5x5
I0403 15:26:27.720120 19414 net.cpp:141] Setting up inception_4d/5x5
I0403 15:26:27.720149 19414 net.cpp:148] Top shape: 24 64 14 14 (301056)
I0403 15:26:27.720165 19414 net.cpp:156] Memory required for data: 1134062880
I0403 15:26:27.720183 19414 layer_factory.hpp:77] Creating layer inception_4d/relu_5x5
I0403 15:26:27.720214 19414 net.cpp:91] Creating Layer inception_4d/relu_5x5
I0403 15:26:27.720230 19414 net.cpp:425] inception_4d/relu_5x5 <- inception_4d/5x5
I0403 15:26:27.720249 19414 net.cpp:386] inception_4d/relu_5x5 -> inception_4d/5x5 (in-place)
I0403 15:26:27.720552 19414 net.cpp:141] Setting up inception_4d/relu_5x5
I0403 15:26:27.720579 19414 net.cpp:148] Top shape: 24 64 14 14 (301056)
I0403 15:26:27.720595 19414 net.cpp:156] Memory required for data: 1135267104
I0403 15:26:27.720609 19414 layer_factory.hpp:77] Creating layer inception_4d/pool
I0403 15:26:27.720626 19414 net.cpp:91] Creating Layer inception_4d/pool
I0403 15:26:27.720643 19414 net.cpp:425] inception_4d/pool <- inception_4c/output_inception_4c/output_0_split_3
I0403 15:26:27.720662 19414 net.cpp:399] inception_4d/pool -> inception_4d/pool
I0403 15:26:27.720728 19414 net.cpp:141] Setting up inception_4d/pool
I0403 15:26:27.720752 19414 net.cpp:148] Top shape: 24 512 14 14 (2408448)
I0403 15:26:27.720765 19414 net.cpp:156] Memory required for data: 1144900896
I0403 15:26:27.720779 19414 layer_factory.hpp:77] Creating layer inception_4d/pool_proj
I0403 15:26:27.720801 19414 net.cpp:91] Creating Layer inception_4d/pool_proj
I0403 15:26:27.720819 19414 net.cpp:425] inception_4d/pool_proj <- inception_4d/pool
I0403 15:26:27.720839 19414 net.cpp:399] inception_4d/pool_proj -> inception_4d/pool_proj
I0403 15:26:27.722604 19414 net.cpp:141] Setting up inception_4d/pool_proj
I0403 15:26:27.722632 19414 net.cpp:148] Top shape: 24 64 14 14 (301056)
I0403 15:26:27.722647 19414 net.cpp:156] Memory required for data: 1146105120
I0403 15:26:27.722664 19414 layer_factory.hpp:77] Creating layer inception_4d/relu_pool_proj
I0403 15:26:27.722684 19414 net.cpp:91] Creating Layer inception_4d/relu_pool_proj
I0403 15:26:27.722700 19414 net.cpp:425] inception_4d/relu_pool_proj <- inception_4d/pool_proj
I0403 15:26:27.722718 19414 net.cpp:386] inception_4d/relu_pool_proj -> inception_4d/pool_proj (in-place)
I0403 15:26:27.722898 19414 net.cpp:141] Setting up inception_4d/relu_pool_proj
I0403 15:26:27.722924 19414 net.cpp:148] Top shape: 24 64 14 14 (301056)
I0403 15:26:27.722939 19414 net.cpp:156] Memory required for data: 1147309344
I0403 15:26:27.722954 19414 layer_factory.hpp:77] Creating layer inception_4d/output
I0403 15:26:27.722970 19414 net.cpp:91] Creating Layer inception_4d/output
I0403 15:26:27.722988 19414 net.cpp:425] inception_4d/output <- inception_4d/1x1
I0403 15:26:27.723006 19414 net.cpp:425] inception_4d/output <- inception_4d/3x3
I0403 15:26:27.723024 19414 net.cpp:425] inception_4d/output <- inception_4d/5x5
I0403 15:26:27.723040 19414 net.cpp:425] inception_4d/output <- inception_4d/pool_proj
I0403 15:26:27.723057 19414 net.cpp:399] inception_4d/output -> inception_4d/output
I0403 15:26:27.723109 19414 net.cpp:141] Setting up inception_4d/output
I0403 15:26:27.723130 19414 net.cpp:148] Top shape: 24 528 14 14 (2483712)
I0403 15:26:27.723145 19414 net.cpp:156] Memory required for data: 1157244192
I0403 15:26:27.723160 19414 layer_factory.hpp:77] Creating layer inception_4d/output_inception_4d/output_0_split
I0403 15:26:27.723178 19414 net.cpp:91] Creating Layer inception_4d/output_inception_4d/output_0_split
I0403 15:26:27.723194 19414 net.cpp:425] inception_4d/output_inception_4d/output_0_split <- inception_4d/output
I0403 15:26:27.723212 19414 net.cpp:399] inception_4d/output_inception_4d/output_0_split -> inception_4d/output_inception_4d/output_0_split_0
I0403 15:26:27.723232 19414 net.cpp:399] inception_4d/output_inception_4d/output_0_split -> inception_4d/output_inception_4d/output_0_split_1
I0403 15:26:27.723250 19414 net.cpp:399] inception_4d/output_inception_4d/output_0_split -> inception_4d/output_inception_4d/output_0_split_2
I0403 15:26:27.723273 19414 net.cpp:399] inception_4d/output_inception_4d/output_0_split -> inception_4d/output_inception_4d/output_0_split_3
I0403 15:26:27.723294 19414 net.cpp:399] inception_4d/output_inception_4d/output_0_split -> inception_4d/output_inception_4d/output_0_split_4
I0403 15:26:27.723395 19414 net.cpp:141] Setting up inception_4d/output_inception_4d/output_0_split
I0403 15:26:27.723429 19414 net.cpp:148] Top shape: 24 528 14 14 (2483712)
I0403 15:26:27.723445 19414 net.cpp:148] Top shape: 24 528 14 14 (2483712)
I0403 15:26:27.723460 19414 net.cpp:148] Top shape: 24 528 14 14 (2483712)
I0403 15:26:27.723475 19414 net.cpp:148] Top shape: 24 528 14 14 (2483712)
I0403 15:26:27.723490 19414 net.cpp:148] Top shape: 24 528 14 14 (2483712)
I0403 15:26:27.723505 19414 net.cpp:156] Memory required for data: 1206918432
I0403 15:26:27.723520 19414 layer_factory.hpp:77] Creating layer loss2/ave_pool
I0403 15:26:27.723538 19414 net.cpp:91] Creating Layer loss2/ave_pool
I0403 15:26:27.723554 19414 net.cpp:425] loss2/ave_pool <- inception_4d/output_inception_4d/output_0_split_0
I0403 15:26:27.723572 19414 net.cpp:399] loss2/ave_pool -> loss2/ave_pool
I0403 15:26:27.723876 19414 net.cpp:141] Setting up loss2/ave_pool
I0403 15:26:27.723901 19414 net.cpp:148] Top shape: 24 528 4 4 (202752)
I0403 15:26:27.723917 19414 net.cpp:156] Memory required for data: 1207729440
I0403 15:26:27.723930 19414 layer_factory.hpp:77] Creating layer loss2/conv
I0403 15:26:27.723953 19414 net.cpp:91] Creating Layer loss2/conv
I0403 15:26:27.723970 19414 net.cpp:425] loss2/conv <- loss2/ave_pool
I0403 15:26:27.723995 19414 net.cpp:399] loss2/conv -> loss2/conv
I0403 15:26:27.725914 19414 net.cpp:141] Setting up loss2/conv
I0403 15:26:27.725942 19414 net.cpp:148] Top shape: 24 128 4 4 (49152)
I0403 15:26:27.725957 19414 net.cpp:156] Memory required for data: 1207926048
I0403 15:26:27.725975 19414 layer_factory.hpp:77] Creating layer loss2/relu_conv
I0403 15:26:27.725999 19414 net.cpp:91] Creating Layer loss2/relu_conv
I0403 15:26:27.726016 19414 net.cpp:425] loss2/relu_conv <- loss2/conv
I0403 15:26:27.726037 19414 net.cpp:386] loss2/relu_conv -> loss2/conv (in-place)
I0403 15:26:27.726321 19414 net.cpp:141] Setting up loss2/relu_conv
I0403 15:26:27.726346 19414 net.cpp:148] Top shape: 24 128 4 4 (49152)
I0403 15:26:27.726361 19414 net.cpp:156] Memory required for data: 1208122656
I0403 15:26:27.726375 19414 layer_factory.hpp:77] Creating layer loss2/fc
I0403 15:26:27.726393 19414 net.cpp:91] Creating Layer loss2/fc
I0403 15:26:27.726409 19414 net.cpp:425] loss2/fc <- loss2/conv
I0403 15:26:27.726430 19414 net.cpp:399] loss2/fc -> loss2/fc
I0403 15:26:27.743892 19414 net.cpp:141] Setting up loss2/fc
I0403 15:26:27.743928 19414 net.cpp:148] Top shape: 24 1024 (24576)
I0403 15:26:27.743947 19414 net.cpp:156] Memory required for data: 1208220960
I0403 15:26:27.743966 19414 layer_factory.hpp:77] Creating layer loss2/relu_fc
I0403 15:26:27.743984 19414 net.cpp:91] Creating Layer loss2/relu_fc
I0403 15:26:27.744004 19414 net.cpp:425] loss2/relu_fc <- loss2/fc
I0403 15:26:27.744021 19414 net.cpp:386] loss2/relu_fc -> loss2/fc (in-place)
I0403 15:26:27.744318 19414 net.cpp:141] Setting up loss2/relu_fc
I0403 15:26:27.744346 19414 net.cpp:148] Top shape: 24 1024 (24576)
I0403 15:26:27.744362 19414 net.cpp:156] Memory required for data: 1208319264
I0403 15:26:27.744376 19414 layer_factory.hpp:77] Creating layer loss2/drop_fc
I0403 15:26:27.744393 19414 net.cpp:91] Creating Layer loss2/drop_fc
I0403 15:26:27.744410 19414 net.cpp:425] loss2/drop_fc <- loss2/fc
I0403 15:26:27.744426 19414 net.cpp:386] loss2/drop_fc -> loss2/fc (in-place)
I0403 15:26:27.744475 19414 net.cpp:141] Setting up loss2/drop_fc
I0403 15:26:27.744496 19414 net.cpp:148] Top shape: 24 1024 (24576)
I0403 15:26:27.744510 19414 net.cpp:156] Memory required for data: 1208417568
I0403 15:26:27.744524 19414 layer_factory.hpp:77] Creating layer loss2/classifier_plantvillage
I0403 15:26:27.744545 19414 net.cpp:91] Creating Layer loss2/classifier_plantvillage
I0403 15:26:27.744562 19414 net.cpp:425] loss2/classifier_plantvillage <- loss2/fc
I0403 15:26:27.744580 19414 net.cpp:399] loss2/classifier_plantvillage -> loss2/classifier_plantvillage
I0403 15:26:27.744973 19414 net.cpp:141] Setting up loss2/classifier_plantvillage
I0403 15:26:27.745012 19414 net.cpp:148] Top shape: 24 38 (912)
I0403 15:26:27.745040 19414 net.cpp:156] Memory required for data: 1208421216
I0403 15:26:27.745069 19414 layer_factory.hpp:77] Creating layer loss2/classifier_plantvillage_loss2/classifier_plantvillage_0_split
I0403 15:26:27.745086 19414 net.cpp:91] Creating Layer loss2/classifier_plantvillage_loss2/classifier_plantvillage_0_split
I0403 15:26:27.745103 19414 net.cpp:425] loss2/classifier_plantvillage_loss2/classifier_plantvillage_0_split <- loss2/classifier_plantvillage
I0403 15:26:27.745122 19414 net.cpp:399] loss2/classifier_plantvillage_loss2/classifier_plantvillage_0_split -> loss2/classifier_plantvillage_loss2/classifier_plantvillage_0_split_0
I0403 15:26:27.745143 19414 net.cpp:399] loss2/classifier_plantvillage_loss2/classifier_plantvillage_0_split -> loss2/classifier_plantvillage_loss2/classifier_plantvillage_0_split_1
I0403 15:26:27.745163 19414 net.cpp:399] loss2/classifier_plantvillage_loss2/classifier_plantvillage_0_split -> loss2/classifier_plantvillage_loss2/classifier_plantvillage_0_split_2
I0403 15:26:27.745239 19414 net.cpp:141] Setting up loss2/classifier_plantvillage_loss2/classifier_plantvillage_0_split
I0403 15:26:27.745270 19414 net.cpp:148] Top shape: 24 38 (912)
I0403 15:26:27.745286 19414 net.cpp:148] Top shape: 24 38 (912)
I0403 15:26:27.745302 19414 net.cpp:148] Top shape: 24 38 (912)
I0403 15:26:27.745316 19414 net.cpp:156] Memory required for data: 1208432160
I0403 15:26:27.745331 19414 layer_factory.hpp:77] Creating layer inception_4e/1x1
I0403 15:26:27.745352 19414 net.cpp:91] Creating Layer inception_4e/1x1
I0403 15:26:27.745368 19414 net.cpp:425] inception_4e/1x1 <- inception_4d/output_inception_4d/output_0_split_1
I0403 15:26:27.745388 19414 net.cpp:399] inception_4e/1x1 -> inception_4e/1x1
I0403 15:26:27.747211 19414 net.cpp:141] Setting up inception_4e/1x1
I0403 15:26:27.747241 19414 net.cpp:148] Top shape: 24 256 14 14 (1204224)
I0403 15:26:27.747257 19414 net.cpp:156] Memory required for data: 1213249056
I0403 15:26:27.747275 19414 layer_factory.hpp:77] Creating layer inception_4e/relu_1x1
I0403 15:26:27.747293 19414 net.cpp:91] Creating Layer inception_4e/relu_1x1
I0403 15:26:27.747309 19414 net.cpp:425] inception_4e/relu_1x1 <- inception_4e/1x1
I0403 15:26:27.747328 19414 net.cpp:386] inception_4e/relu_1x1 -> inception_4e/1x1 (in-place)
I0403 15:26:27.747617 19414 net.cpp:141] Setting up inception_4e/relu_1x1
I0403 15:26:27.747645 19414 net.cpp:148] Top shape: 24 256 14 14 (1204224)
I0403 15:26:27.747661 19414 net.cpp:156] Memory required for data: 1218065952
I0403 15:26:27.747676 19414 layer_factory.hpp:77] Creating layer inception_4e/3x3_reduce
I0403 15:26:27.747699 19414 net.cpp:91] Creating Layer inception_4e/3x3_reduce
I0403 15:26:27.747714 19414 net.cpp:425] inception_4e/3x3_reduce <- inception_4d/output_inception_4d/output_0_split_2
I0403 15:26:27.747735 19414 net.cpp:399] inception_4e/3x3_reduce -> inception_4e/3x3_reduce
I0403 15:26:27.749902 19414 net.cpp:141] Setting up inception_4e/3x3_reduce
I0403 15:26:27.749932 19414 net.cpp:148] Top shape: 24 160 14 14 (752640)
I0403 15:26:27.749948 19414 net.cpp:156] Memory required for data: 1221076512
I0403 15:26:27.749965 19414 layer_factory.hpp:77] Creating layer inception_4e/relu_3x3_reduce
I0403 15:26:27.749984 19414 net.cpp:91] Creating Layer inception_4e/relu_3x3_reduce
I0403 15:26:27.750004 19414 net.cpp:425] inception_4e/relu_3x3_reduce <- inception_4e/3x3_reduce
I0403 15:26:27.750021 19414 net.cpp:386] inception_4e/relu_3x3_reduce -> inception_4e/3x3_reduce (in-place)
I0403 15:26:27.750210 19414 net.cpp:141] Setting up inception_4e/relu_3x3_reduce
I0403 15:26:27.750233 19414 net.cpp:148] Top shape: 24 160 14 14 (752640)
I0403 15:26:27.750248 19414 net.cpp:156] Memory required for data: 1224087072
I0403 15:26:27.750262 19414 layer_factory.hpp:77] Creating layer inception_4e/3x3
I0403 15:26:27.750284 19414 net.cpp:91] Creating Layer inception_4e/3x3
I0403 15:26:27.750301 19414 net.cpp:425] inception_4e/3x3 <- inception_4e/3x3_reduce
I0403 15:26:27.750322 19414 net.cpp:399] inception_4e/3x3 -> inception_4e/3x3
I0403 15:26:27.757158 19414 net.cpp:141] Setting up inception_4e/3x3
I0403 15:26:27.757197 19414 net.cpp:148] Top shape: 24 320 14 14 (1505280)
I0403 15:26:27.757213 19414 net.cpp:156] Memory required for data: 1230108192
I0403 15:26:27.757230 19414 layer_factory.hpp:77] Creating layer inception_4e/relu_3x3
I0403 15:26:27.757251 19414 net.cpp:91] Creating Layer inception_4e/relu_3x3
I0403 15:26:27.757266 19414 net.cpp:425] inception_4e/relu_3x3 <- inception_4e/3x3
I0403 15:26:27.757283 19414 net.cpp:386] inception_4e/relu_3x3 -> inception_4e/3x3 (in-place)
I0403 15:26:27.757576 19414 net.cpp:141] Setting up inception_4e/relu_3x3
I0403 15:26:27.757601 19414 net.cpp:148] Top shape: 24 320 14 14 (1505280)
I0403 15:26:27.757616 19414 net.cpp:156] Memory required for data: 1236129312
I0403 15:26:27.757632 19414 layer_factory.hpp:77] Creating layer inception_4e/5x5_reduce
I0403 15:26:27.757653 19414 net.cpp:91] Creating Layer inception_4e/5x5_reduce
I0403 15:26:27.757670 19414 net.cpp:425] inception_4e/5x5_reduce <- inception_4d/output_inception_4d/output_0_split_3
I0403 15:26:27.757691 19414 net.cpp:399] inception_4e/5x5_reduce -> inception_4e/5x5_reduce
I0403 15:26:27.758745 19414 net.cpp:141] Setting up inception_4e/5x5_reduce
I0403 15:26:27.758774 19414 net.cpp:148] Top shape: 24 32 14 14 (150528)
I0403 15:26:27.758790 19414 net.cpp:156] Memory required for data: 1236731424
I0403 15:26:27.758807 19414 layer_factory.hpp:77] Creating layer inception_4e/relu_5x5_reduce
I0403 15:26:27.758826 19414 net.cpp:91] Creating Layer inception_4e/relu_5x5_reduce
I0403 15:26:27.758841 19414 net.cpp:425] inception_4e/relu_5x5_reduce <- inception_4e/5x5_reduce
I0403 15:26:27.758860 19414 net.cpp:386] inception_4e/relu_5x5_reduce -> inception_4e/5x5_reduce (in-place)
I0403 15:26:27.759160 19414 net.cpp:141] Setting up inception_4e/relu_5x5_reduce
I0403 15:26:27.759186 19414 net.cpp:148] Top shape: 24 32 14 14 (150528)
I0403 15:26:27.759202 19414 net.cpp:156] Memory required for data: 1237333536
I0403 15:26:27.759217 19414 layer_factory.hpp:77] Creating layer inception_4e/5x5
I0403 15:26:27.759254 19414 net.cpp:91] Creating Layer inception_4e/5x5
I0403 15:26:27.759273 19414 net.cpp:425] inception_4e/5x5 <- inception_4e/5x5_reduce
I0403 15:26:27.759291 19414 net.cpp:399] inception_4e/5x5 -> inception_4e/5x5
I0403 15:26:27.761103 19414 net.cpp:141] Setting up inception_4e/5x5
I0403 15:26:27.761131 19414 net.cpp:148] Top shape: 24 128 14 14 (602112)
I0403 15:26:27.761145 19414 net.cpp:156] Memory required for data: 1239741984
I0403 15:26:27.761164 19414 layer_factory.hpp:77] Creating layer inception_4e/relu_5x5
I0403 15:26:27.761185 19414 net.cpp:91] Creating Layer inception_4e/relu_5x5
I0403 15:26:27.761204 19414 net.cpp:425] inception_4e/relu_5x5 <- inception_4e/5x5
I0403 15:26:27.761220 19414 net.cpp:386] inception_4e/relu_5x5 -> inception_4e/5x5 (in-place)
I0403 15:26:27.761430 19414 net.cpp:141] Setting up inception_4e/relu_5x5
I0403 15:26:27.761453 19414 net.cpp:148] Top shape: 24 128 14 14 (602112)
I0403 15:26:27.761467 19414 net.cpp:156] Memory required for data: 1242150432
I0403 15:26:27.761482 19414 layer_factory.hpp:77] Creating layer inception_4e/pool
I0403 15:26:27.761499 19414 net.cpp:91] Creating Layer inception_4e/pool
I0403 15:26:27.761514 19414 net.cpp:425] inception_4e/pool <- inception_4d/output_inception_4d/output_0_split_4
I0403 15:26:27.761534 19414 net.cpp:399] inception_4e/pool -> inception_4e/pool
I0403 15:26:27.761602 19414 net.cpp:141] Setting up inception_4e/pool
I0403 15:26:27.761626 19414 net.cpp:148] Top shape: 24 528 14 14 (2483712)
I0403 15:26:27.761639 19414 net.cpp:156] Memory required for data: 1252085280
I0403 15:26:27.761653 19414 layer_factory.hpp:77] Creating layer inception_4e/pool_proj
I0403 15:26:27.761677 19414 net.cpp:91] Creating Layer inception_4e/pool_proj
I0403 15:26:27.761693 19414 net.cpp:425] inception_4e/pool_proj <- inception_4e/pool
I0403 15:26:27.761713 19414 net.cpp:399] inception_4e/pool_proj -> inception_4e/pool_proj
I0403 15:26:27.763190 19414 net.cpp:141] Setting up inception_4e/pool_proj
I0403 15:26:27.763228 19414 net.cpp:148] Top shape: 24 128 14 14 (602112)
I0403 15:26:27.763243 19414 net.cpp:156] Memory required for data: 1254493728
I0403 15:26:27.763262 19414 layer_factory.hpp:77] Creating layer inception_4e/relu_pool_proj
I0403 15:26:27.763281 19414 net.cpp:91] Creating Layer inception_4e/relu_pool_proj
I0403 15:26:27.763298 19414 net.cpp:425] inception_4e/relu_pool_proj <- inception_4e/pool_proj
I0403 15:26:27.763314 19414 net.cpp:386] inception_4e/relu_pool_proj -> inception_4e/pool_proj (in-place)
I0403 15:26:27.763605 19414 net.cpp:141] Setting up inception_4e/relu_pool_proj
I0403 15:26:27.763630 19414 net.cpp:148] Top shape: 24 128 14 14 (602112)
I0403 15:26:27.763644 19414 net.cpp:156] Memory required for data: 1256902176
I0403 15:26:27.763659 19414 layer_factory.hpp:77] Creating layer inception_4e/output
I0403 15:26:27.763679 19414 net.cpp:91] Creating Layer inception_4e/output
I0403 15:26:27.763694 19414 net.cpp:425] inception_4e/output <- inception_4e/1x1
I0403 15:26:27.763710 19414 net.cpp:425] inception_4e/output <- inception_4e/3x3
I0403 15:26:27.763725 19414 net.cpp:425] inception_4e/output <- inception_4e/5x5
I0403 15:26:27.763741 19414 net.cpp:425] inception_4e/output <- inception_4e/pool_proj
I0403 15:26:27.763757 19414 net.cpp:399] inception_4e/output -> inception_4e/output
I0403 15:26:27.763806 19414 net.cpp:141] Setting up inception_4e/output
I0403 15:26:27.763828 19414 net.cpp:148] Top shape: 24 832 14 14 (3913728)
I0403 15:26:27.763842 19414 net.cpp:156] Memory required for data: 1272557088
I0403 15:26:27.763856 19414 layer_factory.hpp:77] Creating layer pool4/3x3_s2
I0403 15:26:27.763873 19414 net.cpp:91] Creating Layer pool4/3x3_s2
I0403 15:26:27.763888 19414 net.cpp:425] pool4/3x3_s2 <- inception_4e/output
I0403 15:26:27.763908 19414 net.cpp:399] pool4/3x3_s2 -> pool4/3x3_s2
I0403 15:26:27.763974 19414 net.cpp:141] Setting up pool4/3x3_s2
I0403 15:26:27.764000 19414 net.cpp:148] Top shape: 24 832 7 7 (978432)
I0403 15:26:27.764015 19414 net.cpp:156] Memory required for data: 1276470816
I0403 15:26:27.764030 19414 layer_factory.hpp:77] Creating layer pool4/3x3_s2_pool4/3x3_s2_0_split
I0403 15:26:27.764050 19414 net.cpp:91] Creating Layer pool4/3x3_s2_pool4/3x3_s2_0_split
I0403 15:26:27.764066 19414 net.cpp:425] pool4/3x3_s2_pool4/3x3_s2_0_split <- pool4/3x3_s2
I0403 15:26:27.764086 19414 net.cpp:399] pool4/3x3_s2_pool4/3x3_s2_0_split -> pool4/3x3_s2_pool4/3x3_s2_0_split_0
I0403 15:26:27.764107 19414 net.cpp:399] pool4/3x3_s2_pool4/3x3_s2_0_split -> pool4/3x3_s2_pool4/3x3_s2_0_split_1
I0403 15:26:27.764127 19414 net.cpp:399] pool4/3x3_s2_pool4/3x3_s2_0_split -> pool4/3x3_s2_pool4/3x3_s2_0_split_2
I0403 15:26:27.764147 19414 net.cpp:399] pool4/3x3_s2_pool4/3x3_s2_0_split -> pool4/3x3_s2_pool4/3x3_s2_0_split_3
I0403 15:26:27.764235 19414 net.cpp:141] Setting up pool4/3x3_s2_pool4/3x3_s2_0_split
I0403 15:26:27.764258 19414 net.cpp:148] Top shape: 24 832 7 7 (978432)
I0403 15:26:27.764276 19414 net.cpp:148] Top shape: 24 832 7 7 (978432)
I0403 15:26:27.764291 19414 net.cpp:148] Top shape: 24 832 7 7 (978432)
I0403 15:26:27.764305 19414 net.cpp:148] Top shape: 24 832 7 7 (978432)
I0403 15:26:27.764318 19414 net.cpp:156] Memory required for data: 1292125728
I0403 15:26:27.764333 19414 layer_factory.hpp:77] Creating layer inception_5a/1x1
I0403 15:26:27.764353 19414 net.cpp:91] Creating Layer inception_5a/1x1
I0403 15:26:27.764369 19414 net.cpp:425] inception_5a/1x1 <- pool4/3x3_s2_pool4/3x3_s2_0_split_0
I0403 15:26:27.764389 19414 net.cpp:399] inception_5a/1x1 -> inception_5a/1x1
I0403 15:26:27.767267 19414 net.cpp:141] Setting up inception_5a/1x1
I0403 15:26:27.767297 19414 net.cpp:148] Top shape: 24 256 7 7 (301056)
I0403 15:26:27.767314 19414 net.cpp:156] Memory required for data: 1293329952
I0403 15:26:27.767331 19414 layer_factory.hpp:77] Creating layer inception_5a/relu_1x1
I0403 15:26:27.767349 19414 net.cpp:91] Creating Layer inception_5a/relu_1x1
I0403 15:26:27.767365 19414 net.cpp:425] inception_5a/relu_1x1 <- inception_5a/1x1
I0403 15:26:27.767381 19414 net.cpp:386] inception_5a/relu_1x1 -> inception_5a/1x1 (in-place)
I0403 15:26:27.767686 19414 net.cpp:141] Setting up inception_5a/relu_1x1
I0403 15:26:27.767714 19414 net.cpp:148] Top shape: 24 256 7 7 (301056)
I0403 15:26:27.767729 19414 net.cpp:156] Memory required for data: 1294534176
I0403 15:26:27.767743 19414 layer_factory.hpp:77] Creating layer inception_5a/3x3_reduce
I0403 15:26:27.767765 19414 net.cpp:91] Creating Layer inception_5a/3x3_reduce
I0403 15:26:27.767781 19414 net.cpp:425] inception_5a/3x3_reduce <- pool4/3x3_s2_pool4/3x3_s2_0_split_1
I0403 15:26:27.767801 19414 net.cpp:399] inception_5a/3x3_reduce -> inception_5a/3x3_reduce
I0403 15:26:27.770234 19414 net.cpp:141] Setting up inception_5a/3x3_reduce
I0403 15:26:27.770263 19414 net.cpp:148] Top shape: 24 160 7 7 (188160)
I0403 15:26:27.770279 19414 net.cpp:156] Memory required for data: 1295286816
I0403 15:26:27.770308 19414 layer_factory.hpp:77] Creating layer inception_5a/relu_3x3_reduce
I0403 15:26:27.770328 19414 net.cpp:91] Creating Layer inception_5a/relu_3x3_reduce
I0403 15:26:27.770344 19414 net.cpp:425] inception_5a/relu_3x3_reduce <- inception_5a/3x3_reduce
I0403 15:26:27.770361 19414 net.cpp:386] inception_5a/relu_3x3_reduce -> inception_5a/3x3_reduce (in-place)
I0403 15:26:27.770548 19414 net.cpp:141] Setting up inception_5a/relu_3x3_reduce
I0403 15:26:27.770575 19414 net.cpp:148] Top shape: 24 160 7 7 (188160)
I0403 15:26:27.770589 19414 net.cpp:156] Memory required for data: 1296039456
I0403 15:26:27.770604 19414 layer_factory.hpp:77] Creating layer inception_5a/3x3
I0403 15:26:27.770627 19414 net.cpp:91] Creating Layer inception_5a/3x3
I0403 15:26:27.770643 19414 net.cpp:425] inception_5a/3x3 <- inception_5a/3x3_reduce
I0403 15:26:27.770663 19414 net.cpp:399] inception_5a/3x3 -> inception_5a/3x3
I0403 15:26:27.775655 19414 net.cpp:141] Setting up inception_5a/3x3
I0403 15:26:27.775682 19414 net.cpp:148] Top shape: 24 320 7 7 (376320)
I0403 15:26:27.775697 19414 net.cpp:156] Memory required for data: 1297544736
I0403 15:26:27.775715 19414 layer_factory.hpp:77] Creating layer inception_5a/relu_3x3
I0403 15:26:27.775735 19414 net.cpp:91] Creating Layer inception_5a/relu_3x3
I0403 15:26:27.775753 19414 net.cpp:425] inception_5a/relu_3x3 <- inception_5a/3x3
I0403 15:26:27.775769 19414 net.cpp:386] inception_5a/relu_3x3 -> inception_5a/3x3 (in-place)
I0403 15:26:27.776067 19414 net.cpp:141] Setting up inception_5a/relu_3x3
I0403 15:26:27.776092 19414 net.cpp:148] Top shape: 24 320 7 7 (376320)
I0403 15:26:27.776106 19414 net.cpp:156] Memory required for data: 1299050016
I0403 15:26:27.776121 19414 layer_factory.hpp:77] Creating layer inception_5a/5x5_reduce
I0403 15:26:27.776145 19414 net.cpp:91] Creating Layer inception_5a/5x5_reduce
I0403 15:26:27.776163 19414 net.cpp:425] inception_5a/5x5_reduce <- pool4/3x3_s2_pool4/3x3_s2_0_split_2
I0403 15:26:27.776181 19414 net.cpp:399] inception_5a/5x5_reduce -> inception_5a/5x5_reduce
I0403 15:26:27.777328 19414 net.cpp:141] Setting up inception_5a/5x5_reduce
I0403 15:26:27.777357 19414 net.cpp:148] Top shape: 24 32 7 7 (37632)
I0403 15:26:27.777374 19414 net.cpp:156] Memory required for data: 1299200544
I0403 15:26:27.777391 19414 layer_factory.hpp:77] Creating layer inception_5a/relu_5x5_reduce
I0403 15:26:27.777410 19414 net.cpp:91] Creating Layer inception_5a/relu_5x5_reduce
I0403 15:26:27.777426 19414 net.cpp:425] inception_5a/relu_5x5_reduce <- inception_5a/5x5_reduce
I0403 15:26:27.777444 19414 net.cpp:386] inception_5a/relu_5x5_reduce -> inception_5a/5x5_reduce (in-place)
I0403 15:26:27.777745 19414 net.cpp:141] Setting up inception_5a/relu_5x5_reduce
I0403 15:26:27.777770 19414 net.cpp:148] Top shape: 24 32 7 7 (37632)
I0403 15:26:27.777783 19414 net.cpp:156] Memory required for data: 1299351072
I0403 15:26:27.777797 19414 layer_factory.hpp:77] Creating layer inception_5a/5x5
I0403 15:26:27.777819 19414 net.cpp:91] Creating Layer inception_5a/5x5
I0403 15:26:27.777837 19414 net.cpp:425] inception_5a/5x5 <- inception_5a/5x5_reduce
I0403 15:26:27.777858 19414 net.cpp:399] inception_5a/5x5 -> inception_5a/5x5
I0403 15:26:27.779593 19414 net.cpp:141] Setting up inception_5a/5x5
I0403 15:26:27.779631 19414 net.cpp:148] Top shape: 24 128 7 7 (150528)
I0403 15:26:27.779647 19414 net.cpp:156] Memory required for data: 1299953184
I0403 15:26:27.779665 19414 layer_factory.hpp:77] Creating layer inception_5a/relu_5x5
I0403 15:26:27.779685 19414 net.cpp:91] Creating Layer inception_5a/relu_5x5
I0403 15:26:27.779701 19414 net.cpp:425] inception_5a/relu_5x5 <- inception_5a/5x5
I0403 15:26:27.779718 19414 net.cpp:386] inception_5a/relu_5x5 -> inception_5a/5x5 (in-place)
I0403 15:26:27.779909 19414 net.cpp:141] Setting up inception_5a/relu_5x5
I0403 15:26:27.779933 19414 net.cpp:148] Top shape: 24 128 7 7 (150528)
I0403 15:26:27.779948 19414 net.cpp:156] Memory required for data: 1300555296
I0403 15:26:27.779963 19414 layer_factory.hpp:77] Creating layer inception_5a/pool
I0403 15:26:27.779980 19414 net.cpp:91] Creating Layer inception_5a/pool
I0403 15:26:27.780000 19414 net.cpp:425] inception_5a/pool <- pool4/3x3_s2_pool4/3x3_s2_0_split_3
I0403 15:26:27.780021 19414 net.cpp:399] inception_5a/pool -> inception_5a/pool
I0403 15:26:27.780091 19414 net.cpp:141] Setting up inception_5a/pool
I0403 15:26:27.780114 19414 net.cpp:148] Top shape: 24 832 7 7 (978432)
I0403 15:26:27.780128 19414 net.cpp:156] Memory required for data: 1304469024
I0403 15:26:27.780143 19414 layer_factory.hpp:77] Creating layer inception_5a/pool_proj
I0403 15:26:27.780165 19414 net.cpp:91] Creating Layer inception_5a/pool_proj
I0403 15:26:27.780184 19414 net.cpp:425] inception_5a/pool_proj <- inception_5a/pool
I0403 15:26:27.780201 19414 net.cpp:399] inception_5a/pool_proj -> inception_5a/pool_proj
I0403 15:26:27.782429 19414 net.cpp:141] Setting up inception_5a/pool_proj
I0403 15:26:27.782457 19414 net.cpp:148] Top shape: 24 128 7 7 (150528)
I0403 15:26:27.782472 19414 net.cpp:156] Memory required for data: 1305071136
I0403 15:26:27.782490 19414 layer_factory.hpp:77] Creating layer inception_5a/relu_pool_proj
I0403 15:26:27.782510 19414 net.cpp:91] Creating Layer inception_5a/relu_pool_proj
I0403 15:26:27.782526 19414 net.cpp:425] inception_5a/relu_pool_proj <- inception_5a/pool_proj
I0403 15:26:27.782543 19414 net.cpp:386] inception_5a/relu_pool_proj -> inception_5a/pool_proj (in-place)
I0403 15:26:27.782830 19414 net.cpp:141] Setting up inception_5a/relu_pool_proj
I0403 15:26:27.782855 19414 net.cpp:148] Top shape: 24 128 7 7 (150528)
I0403 15:26:27.782871 19414 net.cpp:156] Memory required for data: 1305673248
I0403 15:26:27.782884 19414 layer_factory.hpp:77] Creating layer inception_5a/output
I0403 15:26:27.782903 19414 net.cpp:91] Creating Layer inception_5a/output
I0403 15:26:27.782919 19414 net.cpp:425] inception_5a/output <- inception_5a/1x1
I0403 15:26:27.782937 19414 net.cpp:425] inception_5a/output <- inception_5a/3x3
I0403 15:26:27.782951 19414 net.cpp:425] inception_5a/output <- inception_5a/5x5
I0403 15:26:27.782966 19414 net.cpp:425] inception_5a/output <- inception_5a/pool_proj
I0403 15:26:27.782982 19414 net.cpp:399] inception_5a/output -> inception_5a/output
I0403 15:26:27.783037 19414 net.cpp:141] Setting up inception_5a/output
I0403 15:26:27.783061 19414 net.cpp:148] Top shape: 24 832 7 7 (978432)
I0403 15:26:27.783076 19414 net.cpp:156] Memory required for data: 1309586976
I0403 15:26:27.783089 19414 layer_factory.hpp:77] Creating layer inception_5a/output_inception_5a/output_0_split
I0403 15:26:27.783107 19414 net.cpp:91] Creating Layer inception_5a/output_inception_5a/output_0_split
I0403 15:26:27.783121 19414 net.cpp:425] inception_5a/output_inception_5a/output_0_split <- inception_5a/output
I0403 15:26:27.783140 19414 net.cpp:399] inception_5a/output_inception_5a/output_0_split -> inception_5a/output_inception_5a/output_0_split_0
I0403 15:26:27.783160 19414 net.cpp:399] inception_5a/output_inception_5a/output_0_split -> inception_5a/output_inception_5a/output_0_split_1
I0403 15:26:27.783179 19414 net.cpp:399] inception_5a/output_inception_5a/output_0_split -> inception_5a/output_inception_5a/output_0_split_2
I0403 15:26:27.783200 19414 net.cpp:399] inception_5a/output_inception_5a/output_0_split -> inception_5a/output_inception_5a/output_0_split_3
I0403 15:26:27.783311 19414 net.cpp:141] Setting up inception_5a/output_inception_5a/output_0_split
I0403 15:26:27.783334 19414 net.cpp:148] Top shape: 24 832 7 7 (978432)
I0403 15:26:27.783349 19414 net.cpp:148] Top shape: 24 832 7 7 (978432)
I0403 15:26:27.783365 19414 net.cpp:148] Top shape: 24 832 7 7 (978432)
I0403 15:26:27.783380 19414 net.cpp:148] Top shape: 24 832 7 7 (978432)
I0403 15:26:27.783393 19414 net.cpp:156] Memory required for data: 1325241888
I0403 15:26:27.783407 19414 layer_factory.hpp:77] Creating layer inception_5b/1x1
I0403 15:26:27.783429 19414 net.cpp:91] Creating Layer inception_5b/1x1
I0403 15:26:27.783447 19414 net.cpp:425] inception_5b/1x1 <- inception_5a/output_inception_5a/output_0_split_0
I0403 15:26:27.783468 19414 net.cpp:399] inception_5b/1x1 -> inception_5b/1x1
I0403 15:26:27.787168 19414 net.cpp:141] Setting up inception_5b/1x1
I0403 15:26:27.787195 19414 net.cpp:148] Top shape: 24 384 7 7 (451584)
I0403 15:26:27.787212 19414 net.cpp:156] Memory required for data: 1327048224
I0403 15:26:27.787230 19414 layer_factory.hpp:77] Creating layer inception_5b/relu_1x1
I0403 15:26:27.787250 19414 net.cpp:91] Creating Layer inception_5b/relu_1x1
I0403 15:26:27.787266 19414 net.cpp:425] inception_5b/relu_1x1 <- inception_5b/1x1
I0403 15:26:27.787283 19414 net.cpp:386] inception_5b/relu_1x1 -> inception_5b/1x1 (in-place)
I0403 15:26:27.787581 19414 net.cpp:141] Setting up inception_5b/relu_1x1
I0403 15:26:27.787606 19414 net.cpp:148] Top shape: 24 384 7 7 (451584)
I0403 15:26:27.787621 19414 net.cpp:156] Memory required for data: 1328854560
I0403 15:26:27.787634 19414 layer_factory.hpp:77] Creating layer inception_5b/3x3_reduce
I0403 15:26:27.787657 19414 net.cpp:91] Creating Layer inception_5b/3x3_reduce
I0403 15:26:27.787674 19414 net.cpp:425] inception_5b/3x3_reduce <- inception_5a/output_inception_5a/output_0_split_1
I0403 15:26:27.787695 19414 net.cpp:399] inception_5b/3x3_reduce -> inception_5b/3x3_reduce
I0403 15:26:27.790338 19414 net.cpp:141] Setting up inception_5b/3x3_reduce
I0403 15:26:27.790367 19414 net.cpp:148] Top shape: 24 192 7 7 (225792)
I0403 15:26:27.790383 19414 net.cpp:156] Memory required for data: 1329757728
I0403 15:26:27.790401 19414 layer_factory.hpp:77] Creating layer inception_5b/relu_3x3_reduce
I0403 15:26:27.790424 19414 net.cpp:91] Creating Layer inception_5b/relu_3x3_reduce
I0403 15:26:27.790441 19414 net.cpp:425] inception_5b/relu_3x3_reduce <- inception_5b/3x3_reduce
I0403 15:26:27.790458 19414 net.cpp:386] inception_5b/relu_3x3_reduce -> inception_5b/3x3_reduce (in-place)
I0403 15:26:27.790645 19414 net.cpp:141] Setting up inception_5b/relu_3x3_reduce
I0403 15:26:27.790673 19414 net.cpp:148] Top shape: 24 192 7 7 (225792)
I0403 15:26:27.790688 19414 net.cpp:156] Memory required for data: 1330660896
I0403 15:26:27.790701 19414 layer_factory.hpp:77] Creating layer inception_5b/3x3
I0403 15:26:27.790724 19414 net.cpp:91] Creating Layer inception_5b/3x3
I0403 15:26:27.790741 19414 net.cpp:425] inception_5b/3x3 <- inception_5b/3x3_reduce
I0403 15:26:27.790760 19414 net.cpp:399] inception_5b/3x3 -> inception_5b/3x3
I0403 15:26:27.797338 19414 net.cpp:141] Setting up inception_5b/3x3
I0403 15:26:27.797365 19414 net.cpp:148] Top shape: 24 384 7 7 (451584)
I0403 15:26:27.797381 19414 net.cpp:156] Memory required for data: 1332467232
I0403 15:26:27.797399 19414 layer_factory.hpp:77] Creating layer inception_5b/relu_3x3
I0403 15:26:27.797420 19414 net.cpp:91] Creating Layer inception_5b/relu_3x3
I0403 15:26:27.797436 19414 net.cpp:425] inception_5b/relu_3x3 <- inception_5b/3x3
I0403 15:26:27.797453 19414 net.cpp:386] inception_5b/relu_3x3 -> inception_5b/3x3 (in-place)
I0403 15:26:27.797744 19414 net.cpp:141] Setting up inception_5b/relu_3x3
I0403 15:26:27.797770 19414 net.cpp:148] Top shape: 24 384 7 7 (451584)
I0403 15:26:27.797785 19414 net.cpp:156] Memory required for data: 1334273568
I0403 15:26:27.797798 19414 layer_factory.hpp:77] Creating layer inception_5b/5x5_reduce
I0403 15:26:27.797834 19414 net.cpp:91] Creating Layer inception_5b/5x5_reduce
I0403 15:26:27.797852 19414 net.cpp:425] inception_5b/5x5_reduce <- inception_5a/output_inception_5a/output_0_split_2
I0403 15:26:27.797874 19414 net.cpp:399] inception_5b/5x5_reduce -> inception_5b/5x5_reduce
I0403 15:26:27.799172 19414 net.cpp:141] Setting up inception_5b/5x5_reduce
I0403 15:26:27.799201 19414 net.cpp:148] Top shape: 24 48 7 7 (56448)
I0403 15:26:27.799216 19414 net.cpp:156] Memory required for data: 1334499360
I0403 15:26:27.799232 19414 layer_factory.hpp:77] Creating layer inception_5b/relu_5x5_reduce
I0403 15:26:27.799252 19414 net.cpp:91] Creating Layer inception_5b/relu_5x5_reduce
I0403 15:26:27.799269 19414 net.cpp:425] inception_5b/relu_5x5_reduce <- inception_5b/5x5_reduce
I0403 15:26:27.799288 19414 net.cpp:386] inception_5b/relu_5x5_reduce -> inception_5b/5x5_reduce (in-place)
I0403 15:26:27.799661 19414 net.cpp:141] Setting up inception_5b/relu_5x5_reduce
I0403 15:26:27.799686 19414 net.cpp:148] Top shape: 24 48 7 7 (56448)
I0403 15:26:27.799701 19414 net.cpp:156] Memory required for data: 1334725152
I0403 15:26:27.799715 19414 layer_factory.hpp:77] Creating layer inception_5b/5x5
I0403 15:26:27.799734 19414 net.cpp:91] Creating Layer inception_5b/5x5
I0403 15:26:27.799751 19414 net.cpp:425] inception_5b/5x5 <- inception_5b/5x5_reduce
I0403 15:26:27.799769 19414 net.cpp:399] inception_5b/5x5 -> inception_5b/5x5
I0403 15:26:27.801779 19414 net.cpp:141] Setting up inception_5b/5x5
I0403 15:26:27.801808 19414 net.cpp:148] Top shape: 24 128 7 7 (150528)
I0403 15:26:27.801825 19414 net.cpp:156] Memory required for data: 1335327264
I0403 15:26:27.801842 19414 layer_factory.hpp:77] Creating layer inception_5b/relu_5x5
I0403 15:26:27.801861 19414 net.cpp:91] Creating Layer inception_5b/relu_5x5
I0403 15:26:27.801877 19414 net.cpp:425] inception_5b/relu_5x5 <- inception_5b/5x5
I0403 15:26:27.801892 19414 net.cpp:386] inception_5b/relu_5x5 -> inception_5b/5x5 (in-place)
I0403 15:26:27.802124 19414 net.cpp:141] Setting up inception_5b/relu_5x5
I0403 15:26:27.802148 19414 net.cpp:148] Top shape: 24 128 7 7 (150528)
I0403 15:26:27.802163 19414 net.cpp:156] Memory required for data: 1335929376
I0403 15:26:27.802180 19414 layer_factory.hpp:77] Creating layer inception_5b/pool
I0403 15:26:27.802197 19414 net.cpp:91] Creating Layer inception_5b/pool
I0403 15:26:27.802214 19414 net.cpp:425] inception_5b/pool <- inception_5a/output_inception_5a/output_0_split_3
I0403 15:26:27.802235 19414 net.cpp:399] inception_5b/pool -> inception_5b/pool
I0403 15:26:27.802323 19414 net.cpp:141] Setting up inception_5b/pool
I0403 15:26:27.802350 19414 net.cpp:148] Top shape: 24 832 7 7 (978432)
I0403 15:26:27.802366 19414 net.cpp:156] Memory required for data: 1339843104
I0403 15:26:27.802381 19414 layer_factory.hpp:77] Creating layer inception_5b/pool_proj
I0403 15:26:27.802402 19414 net.cpp:91] Creating Layer inception_5b/pool_proj
I0403 15:26:27.802420 19414 net.cpp:425] inception_5b/pool_proj <- inception_5b/pool
I0403 15:26:27.802439 19414 net.cpp:399] inception_5b/pool_proj -> inception_5b/pool_proj
I0403 15:26:27.804749 19414 net.cpp:141] Setting up inception_5b/pool_proj
I0403 15:26:27.804776 19414 net.cpp:148] Top shape: 24 128 7 7 (150528)
I0403 15:26:27.804792 19414 net.cpp:156] Memory required for data: 1340445216
I0403 15:26:27.804811 19414 layer_factory.hpp:77] Creating layer inception_5b/relu_pool_proj
I0403 15:26:27.804829 19414 net.cpp:91] Creating Layer inception_5b/relu_pool_proj
I0403 15:26:27.804846 19414 net.cpp:425] inception_5b/relu_pool_proj <- inception_5b/pool_proj
I0403 15:26:27.804863 19414 net.cpp:386] inception_5b/relu_pool_proj -> inception_5b/pool_proj (in-place)
I0403 15:26:27.805158 19414 net.cpp:141] Setting up inception_5b/relu_pool_proj
I0403 15:26:27.805183 19414 net.cpp:148] Top shape: 24 128 7 7 (150528)
I0403 15:26:27.805198 19414 net.cpp:156] Memory required for data: 1341047328
I0403 15:26:27.805213 19414 layer_factory.hpp:77] Creating layer inception_5b/output
I0403 15:26:27.805233 19414 net.cpp:91] Creating Layer inception_5b/output
I0403 15:26:27.805263 19414 net.cpp:425] inception_5b/output <- inception_5b/1x1
I0403 15:26:27.805279 19414 net.cpp:425] inception_5b/output <- inception_5b/3x3
I0403 15:26:27.805295 19414 net.cpp:425] inception_5b/output <- inception_5b/5x5
I0403 15:26:27.805311 19414 net.cpp:425] inception_5b/output <- inception_5b/pool_proj
I0403 15:26:27.805328 19414 net.cpp:399] inception_5b/output -> inception_5b/output
I0403 15:26:27.805382 19414 net.cpp:141] Setting up inception_5b/output
I0403 15:26:27.805404 19414 net.cpp:148] Top shape: 24 1024 7 7 (1204224)
I0403 15:26:27.805418 19414 net.cpp:156] Memory required for data: 1345864224
I0403 15:26:27.805433 19414 layer_factory.hpp:77] Creating layer pool5/7x7_s1
I0403 15:26:27.805449 19414 net.cpp:91] Creating Layer pool5/7x7_s1
I0403 15:26:27.805465 19414 net.cpp:425] pool5/7x7_s1 <- inception_5b/output
I0403 15:26:27.805485 19414 net.cpp:399] pool5/7x7_s1 -> pool5/7x7_s1
I0403 15:26:27.805698 19414 net.cpp:141] Setting up pool5/7x7_s1
I0403 15:26:27.805726 19414 net.cpp:148] Top shape: 24 1024 1 1 (24576)
I0403 15:26:27.805740 19414 net.cpp:156] Memory required for data: 1345962528
I0403 15:26:27.805755 19414 layer_factory.hpp:77] Creating layer pool5/drop_7x7_s1
I0403 15:26:27.805773 19414 net.cpp:91] Creating Layer pool5/drop_7x7_s1
I0403 15:26:27.805788 19414 net.cpp:425] pool5/drop_7x7_s1 <- pool5/7x7_s1
I0403 15:26:27.805805 19414 net.cpp:386] pool5/drop_7x7_s1 -> pool5/7x7_s1 (in-place)
I0403 15:26:27.805856 19414 net.cpp:141] Setting up pool5/drop_7x7_s1
I0403 15:26:27.805879 19414 net.cpp:148] Top shape: 24 1024 1 1 (24576)
I0403 15:26:27.805893 19414 net.cpp:156] Memory required for data: 1346060832
I0403 15:26:27.805908 19414 layer_factory.hpp:77] Creating layer loss3/classifier_plantvillage
I0403 15:26:27.805929 19414 net.cpp:91] Creating Layer loss3/classifier_plantvillage
I0403 15:26:27.805945 19414 net.cpp:425] loss3/classifier_plantvillage <- pool5/7x7_s1
I0403 15:26:27.805964 19414 net.cpp:399] loss3/classifier_plantvillage -> loss3/classifier_plantvillage
I0403 15:26:27.806383 19414 net.cpp:141] Setting up loss3/classifier_plantvillage
I0403 15:26:27.806407 19414 net.cpp:148] Top shape: 24 38 (912)
I0403 15:26:27.806422 19414 net.cpp:156] Memory required for data: 1346064480
I0403 15:26:27.806439 19414 layer_factory.hpp:77] Creating layer loss3/classifier_plantvillage_loss3/classifier_plantvillage_0_split
I0403 15:26:27.806457 19414 net.cpp:91] Creating Layer loss3/classifier_plantvillage_loss3/classifier_plantvillage_0_split
I0403 15:26:27.806484 19414 net.cpp:425] loss3/classifier_plantvillage_loss3/classifier_plantvillage_0_split <- loss3/classifier_plantvillage
I0403 15:26:27.806505 19414 net.cpp:399] loss3/classifier_plantvillage_loss3/classifier_plantvillage_0_split -> loss3/classifier_plantvillage_loss3/classifier_plantvillage_0_split_0
I0403 15:26:27.806527 19414 net.cpp:399] loss3/classifier_plantvillage_loss3/classifier_plantvillage_0_split -> loss3/classifier_plantvillage_loss3/classifier_plantvillage_0_split_1
I0403 15:26:27.806547 19414 net.cpp:399] loss3/classifier_plantvillage_loss3/classifier_plantvillage_0_split -> loss3/classifier_plantvillage_loss3/classifier_plantvillage_0_split_2
I0403 15:26:27.806579 19414 net.cpp:399] loss3/classifier_plantvillage_loss3/classifier_plantvillage_0_split -> loss3/classifier_plantvillage_loss3/classifier_plantvillage_0_split_3
I0403 15:26:27.806682 19414 net.cpp:141] Setting up loss3/classifier_plantvillage_loss3/classifier_plantvillage_0_split
I0403 15:26:27.806706 19414 net.cpp:148] Top shape: 24 38 (912)
I0403 15:26:27.806723 19414 net.cpp:148] Top shape: 24 38 (912)
I0403 15:26:27.806740 19414 net.cpp:148] Top shape: 24 38 (912)
I0403 15:26:27.806761 19414 net.cpp:148] Top shape: 24 38 (912)
I0403 15:26:27.806776 19414 net.cpp:156] Memory required for data: 1346079072
I0403 15:26:27.806790 19414 layer_factory.hpp:77] Creating layer loss1/loss
I0403 15:26:27.806813 19414 net.cpp:91] Creating Layer loss1/loss
I0403 15:26:27.806831 19414 net.cpp:425] loss1/loss <- loss1/classifier_plantvillage_loss1/classifier_plantvillage_0_split_0
I0403 15:26:27.806874 19414 net.cpp:425] loss1/loss <- label_data_1_split_0
…
