…
I0403 15:51:05.613950 20338 net.cpp:313] The NetState phase (1) differed from the phase (0) specified by a rule in layer data
I0403 15:51:05.615152 20338 net.cpp:49] Initializing net from parameters: 
state {
  phase: TEST
}
layer {
  name: "data"
  type: "Data"
  top: "data"
  top: "label"
  include {
    phase: TEST
  }
  transform_param {
    mirror: false
    crop_size: 224
    mean_file: "/home/mohanty/data/final_dataset/lmdb/grayscale-40-60/mean.binaryproto"
  }
  data_param {
    source: "/home/mohanty/data/final_dataset/lmdb/grayscale-40-60/test_db"
    batch_size: 24
    backend: LMDB
  }
}
layer {
  name: "conv1/7x7_s2"
  type: "Convolution"
  bottom: "data"
  top: "conv1/7x7_s2"
  param {
    lr_mult: 1
    decay_mult: 1
  }
  param {
    lr_mult: 2
    decay_mult: 0
  }
  convolution_param {
    num_output: 64
    pad: 3
    kernel_size: 7
    stride: 2
    weight_filler {
      type: "xavier"
      std: 0.1
    }
    bias_filler {
      type: "constant"
      value: 0.2
    }
  }
}
layer {
  name: "conv1/relu_7x7"
  type: "ReLU"
  bottom: "conv1/7x7_s2"
  top: "conv1/7x7_s2"
}
layer {
  name: "pool1/3x3_s2"
  type: "Pooling"
  bottom: "conv1/7x7_s2"
  top: "pool1/3x3_s2"
  pooling_param {
    pool: MAX
    kernel_size: 3
    stride: 2
  }
}
layer {
  name: "pool1/norm1"
  type: "LRN"
  bottom: "pool1/3x3_s2"
  top: "pool1/norm1"
  lrn_param {
    local_size: 5
    alpha: 0.0001
    beta: 0.75
  }
}
layer {
  name: "conv2/3x3_reduce"
  type: "Convolution"
  bottom: "pool1/norm1"
  top: "conv2/3x3_reduce"
  param {
    lr_mult: 1
    decay_mult: 1
  }
  param {
    lr_mult: 2
    decay_mult: 0
  }
  convolution_param {
    num_output: 64
    kernel_size: 1
    weight_filler {
      type: "xavier"
      std: 0.1
    }
    bias_filler {
      type: "constant"
      value: 0.2
    }
  }
}
layer {
  name: "conv2/relu_3x3_reduce"
  type: "ReLU"
  bottom: "conv2/3x3_reduce"
  top: "conv2/3x3_reduce"
}
layer {
  name: "conv2/3x3"
  type: "Convolution"
  bottom: "conv2/3x3_reduce"
  top: "conv2/3x3"
  param {
    lr_mult: 1
    decay_mult: 1
  }
  param {
    lr_mult: 2
    decay_mult: 0
  }
  convolution_param {
    num_output: 192
    pad: 1
    kernel_size: 3
    weight_filler {
      type: "xavier"
      std: 0.03
    }
    bias_filler {
      type: "constant"
      value: 0.2
    }
  }
}
layer {
  name: "conv2/relu_3x3"
  type: "ReLU"
  bottom: "conv2/3x3"
  top: "conv2/3x3"
}
layer {
  name: "conv2/norm2"
  type: "LRN"
  bottom: "conv2/3x3"
  top: "conv2/norm2"
  lrn_param {
    local_size: 5
    alpha: 0.0001
    beta: 0.75
  }
}
layer {
  name: "pool2/3x3_s2"
  type: "Pooling"
  bottom: "conv2/norm2"
  top: "pool2/3x3_s2"
  pooling_param {
    pool: MAX
    kernel_size: 3
    stride: 2
  }
}
layer {
  name: "inception_3a/1x1"
  type: "Convolution"
  bottom: "pool2/3x3_s2"
  top: "inception_3a/1x1"
  param {
    lr_mult: 1
    decay_mult: 1
  }
  param {
    lr_mult: 2
    decay_mult: 0
  }
  convolution_param {
    num_output: 64
    kernel_size: 1
    weight_filler {
      type: "xavier"
      std: 0.03
    }
    bias_filler {
      type: "constant"
      value: 0.2
    }
  }
}
layer {
  name: "inception_3a/relu_1x1"
  type: "ReLU"
  bottom: "inception_3a/1x1"
  top: "inception_3a/1x1"
}
layer {
  name: "inception_3a/3x3_reduce"
  type: "Convolution"
  bottom: "pool2/3x3_s2"
  top: "inception_3a/3x3_reduce"
  param {
    lr_mult: 1
    decay_mult: 1
  }
  param {
    lr_mult: 2
    decay_mult: 0
  }
  convolution_param {
    num_output: 96
    kernel_size: 1
    weight_filler {
      type: "xavier"
      std: 0.09
    }
    bias_filler {
      type: "constant"
      value: 0.2
    }
  }
}
layer {
  name: "inception_3a/relu_3x3_reduce"
  type: "ReLU"
  bottom: "inception_3a/3x3_reduce"
  top: "inception_3a/3x3_reduce"
}
layer {
  name: "inception_3a/3x3"
  type: "Convolution"
  bottom: "inception_3a/3x3_reduce"
  top: "inception_3a/3x3"
  param {
    lr_mult: 1
    decay_mult: 1
  }
  param {
    lr_mult: 2
    decay_mult: 0
  }
  convolution_param {
    num_output: 128
    pad: 1
    kernel_size: 3
    weight_filler {
      type: "xavier"
      std: 0.03
    }
    bias_filler {
      type: "constant"
      value: 0.2
    }
  }
}
layer {
  name: "inception_3a/relu_3x3"
  type: "ReLU"
  bottom: "inception_3a/3x3"
  top: "inception_3a/3x3"
}
layer {
  name: "inception_3a/5x5_reduce"
  type: "Convolution"
  bottom: "pool2/3x3_s2"
  top: "inception_3a/5x5_reduce"
  param {
    lr_mult: 1
    decay_mult: 1
  }
  param {
    lr_mult: 2
    decay_mult: 0
  }
  convolution_param {
    num_output: 16
    kernel_size: 1
    weight_filler {
      type: "xavier"
      std: 0.2
    }
    bias_filler {
      type: "constant"
      value: 0.2
    }
  }
}
layer {
  name: "inception_3a/relu_5x5_reduce"
  type: "ReLU"
  bottom: "inception_3a/5x5_reduce"
  top: "inception_3a/5x5_reduce"
}
layer {
  name: "inception_3a/5x5"
  type: "Convolution"
  bottom: "inception_3a/5x5_reduce"
  top: "inception_3a/5x5"
  param {
    lr_mult: 1
    decay_mult: 1
  }
  param {
    lr_mult: 2
    decay_mult: 0
  }
  convolution_param {
    num_output: 32
    pad: 2
    kernel_size: 5
    weight_filler {
      type: "xavier"
      std: 0.03
    }
    bias_filler {
      type: "constant"
      value: 0.2
    }
  }
}
layer {
  name: "inception_3a/relu_5x5"
  type: "ReLU"
  bottom: "inception_3a/5x5"
  top: "inception_3a/5x5"
}
layer {
  name: "inception_3a/pool"
  type: "Pooling"
  bottom: "pool2/3x3_s2"
  top: "inception_3a/pool"
  pooling_param {
    pool: MAX
    kernel_size: 3
    stride: 1
    pad: 1
  }
}
layer {
  name: "inception_3a/pool_proj"
  type: "Convolution"
  bottom: "inception_3a/pool"
  top: "inception_3a/pool_proj"
  param {
    lr_mult: 1
    decay_mult: 1
  }
  param {
    lr_mult: 2
    decay_mult: 0
  }
  convolution_param {
    num_output: 32
    kernel_size: 1
    weight_filler {
      type: "xavier"
      std: 0.1
    }
    bias_filler {
      type: "constant"
      value: 0.2
    }
  }
}
layer {
  name: "inception_3a/relu_pool_proj"
  type: "ReLU"
  bottom: "inception_3a/pool_proj"
  top: "inception_3a/pool_proj"
}
layer {
  name: "inception_3a/output"
  type: "Concat"
  bottom: "inception_3a/1x1"
  bottom: "inception_3a/3x3"
  bottom: "inception_3a/5x5"
  bottom: "inception_3a/pool_proj"
  top: "inception_3a/output"
}
layer {
  name: "inception_3b/1x1"
  type: "Convolution"
  bottom: "inception_3a/output"
  top: "inception_3b/1x1"
  param {
    lr_mult: 1
    decay_mult: 1
  }
  param {
    lr_mult: 2
    decay_mult: 0
  }
  convolution_param {
    num_output: 128
    kernel_size: 1
    weight_filler {
      type: "xavier"
      std: 0.03
    }
    bias_filler {
      type: "constant"
      value: 0.2
    }
  }
}
layer {
  name: "inception_3b/relu_1x1"
  type: "ReLU"
  bottom: "inception_3b/1x1"
  top: "inception_3b/1x1"
}
layer {
  name: "inception_3b/3x3_reduce"
  type: "Convolution"
  bottom: "inception_3a/output"
  top: "inception_3b/3x3_reduce"
  param {
    lr_mult: 1
    decay_mult: 1
  }
  param {
    lr_mult: 2
    decay_mult: 0
  }
  convolution_param {
    num_output: 128
    kernel_size: 1
    weight_filler {
      type: "xavier"
      std: 0.09
    }
    bias_filler {
      type: "constant"
      value: 0.2
    }
  }
}
layer {
  name: "inception_3b/relu_3x3_reduce"
  type: "ReLU"
  bottom: "inception_3b/3x3_reduce"
  top: "inception_3b/3x3_reduce"
}
layer {
  name: "inception_3b/3x3"
  type: "Convolution"
  bottom: "inception_3b/3x3_reduce"
  top: "inception_3b/3x3"
  param {
    lr_mult: 1
    decay_mult: 1
  }
  param {
    lr_mult: 2
    decay_mult: 0
  }
  convolution_param {
    num_output: 192
    pad: 1
    kernel_size: 3
    weight_filler {
      type: "xavier"
      std: 0.03
    }
    bias_filler {
      type: "constant"
      value: 0.2
    }
  }
}
layer {
  name: "inception_3b/relu_3x3"
  type: "ReLU"
  bottom: "inception_3b/3x3"
  top: "inception_3b/3x3"
}
layer {
  name: "inception_3b/5x5_reduce"
  type: "Convolution"
  bottom: "inception_3a/output"
  top: "inception_3b/5x5_reduce"
  param {
    lr_mult: 1
    decay_mult: 1
  }
  param {
    lr_mult: 2
    decay_mult: 0
  }
  convolution_param {
    num_output: 32
    kernel_size: 1
    weight_filler {
      type: "xavier"
      std: 0.2
    }
    bias_filler {
      type: "constant"
      value: 0.2
    }
  }
}
layer {
  name: "inception_3b/relu_5x5_reduce"
  type: "ReLU"
  bottom: "inception_3b/5x5_reduce"
  top: "inception_3b/5x5_reduce"
}
layer {
  name: "inception_3b/5x5"
  type: "Convolution"
  bottom: "inception_3b/5x5_reduce"
  top: "inception_3b/5x5"
  param {
    lr_mult: 1
    decay_mult: 1
  }
  param {
    lr_mult: 2
    decay_mult: 0
  }
  convolution_param {
    num_output: 96
    pad: 2
    kernel_size: 5
    weight_filler {
      type: "xavier"
      std: 0.03
    }
    bias_filler {
      type: "constant"
      value: 0.2
    }
  }
}
layer {
  name: "inception_3b/relu_5x5"
  type: "ReLU"
  bottom: "inception_3b/5x5"
  top: "inception_3b/5x5"
}
layer {
  name: "inception_3b/pool"
  type: "Pooling"
  bottom: "inception_3a/output"
  top: "inception_3b/pool"
  pooling_param {
    pool: MAX
    kernel_size: 3
    stride: 1
    pad: 1
  }
}
layer {
  name: "inception_3b/pool_proj"
  type: "Convolution"
  bottom: "inception_3b/pool"
  top: "inception_3b/pool_proj"
  param {
    lr_mult: 1
    decay_mult: 1
  }
  param {
    lr_mult: 2
    decay_mult: 0
  }
  convolution_param {
    num_output: 64
    kernel_size: 1
    weight_filler {
      type: "xavier"
      std: 0.1
    }
    bias_filler {
      type: "constant"
      value: 0.2
    }
  }
}
layer {
  name: "inception_3b/relu_pool_proj"
  type: "ReLU"
  bottom: "inception_3b/pool_proj"
  top: "inception_3b/pool_proj"
}
layer {
  name: "inception_3b/output"
  type: "Concat"
  bottom: "inception_3b/1x1"
  bottom: "inception_3b/3x3"
  bottom: "inception_3b/5x5"
  bottom: "inception_3b/pool_proj"
  top: "inception_3b/output"
}
layer {
  name: "pool3/3x3_s2"
  type: "Pooling"
  bottom: "inception_3b/output"
  top: "pool3/3x3_s2"
  pooling_param {
    pool: MAX
    kernel_size: 3
    stride: 2
  }
}
layer {
  name: "inception_4a/1x1"
  type: "Convolution"
  bottom: "pool3/3x3_s2"
  top: "inception_4a/1x1"
  param {
    lr_mult: 1
    decay_mult: 1
  }
  param {
    lr_mult: 2
    decay_mult: 0
  }
  convolution_param {
    num_output: 192
    kernel_size: 1
    weight_filler {
      type: "xavier"
      std: 0.03
    }
    bias_filler {
      type: "constant"
      value: 0.2
    }
  }
}
layer {
  name: "inception_4a/relu_1x1"
  type: "ReLU"
  bottom: "inception_4a/1x1"
  top: "inception_4a/1x1"
}
layer {
  name: "inception_4a/3x3_reduce"
  type: "Convolution"
  bottom: "pool3/3x3_s2"
  top: "inception_4a/3x3_reduce"
  param {
    lr_mult: 1
    decay_mult: 1
  }
  param {
    lr_mult: 2
    decay_mult: 0
  }
  convolution_param {
    num_output: 96
    kernel_size: 1
    weight_filler {
      type: "xavier"
      std: 0.09
    }
    bias_filler {
      type: "constant"
      value: 0.2
    }
  }
}
layer {
  name: "inception_4a/relu_3x3_reduce"
  type: "ReLU"
  bottom: "inception_4a/3x3_reduce"
  top: "inception_4a/3x3_reduce"
}
layer {
  name: "inception_4a/3x3"
  type: "Convolution"
  bottom: "inception_4a/3x3_reduce"
  top: "inception_4a/3x3"
  param {
    lr_mult: 1
    decay_mult: 1
  }
  param {
    lr_mult: 2
    decay_mult: 0
  }
  convolution_param {
    num_output: 208
    pad: 1
    kernel_size: 3
    weight_filler {
      type: "xavier"
      std: 0.03
    }
    bias_filler {
      type: "constant"
      value: 0.2
    }
  }
}
layer {
  name: "inception_4a/relu_3x3"
  type: "ReLU"
  bottom: "inception_4a/3x3"
  top: "inception_4a/3x3"
}
layer {
  name: "inception_4a/5x5_reduce"
  type: "Convolution"
  bottom: "pool3/3x3_s2"
  top: "inception_4a/5x5_reduce"
  param {
    lr_mult: 1
    decay_mult: 1
  }
  param {
    lr_mult: 2
    decay_mult: 0
  }
  convolution_param {
    num_output: 16
    kernel_size: 1
    weight_filler {
      type: "xavier"
      std: 0.2
    }
    bias_filler {
      type: "constant"
      value: 0.2
    }
  }
}
layer {
  name: "inception_4a/relu_5x5_reduce"
  type: "ReLU"
  bottom: "inception_4a/5x5_reduce"
  top: "inception_4a/5x5_reduce"
}
layer {
  name: "inception_4a/5x5"
  type: "Convolution"
  bottom: "inception_4a/5x5_reduce"
  top: "inception_4a/5x5"
  param {
    lr_mult: 1
    decay_mult: 1
  }
  param {
    lr_mult: 2
    decay_mult: 0
  }
  convolution_param {
    num_output: 48
    pad: 2
    kernel_size: 5
    weight_filler {
      type: "xavier"
      std: 0.03
    }
    bias_filler {
      type: "constant"
      value: 0.2
    }
  }
}
layer {
  name: "inception_4a/relu_5x5"
  type: "ReLU"
  bottom: "inception_4a/5x5"
  top: "inception_4a/5x5"
}
layer {
  name: "inception_4a/pool"
  type: "Pooling"
  bottom: "pool3/3x3_s2"
  top: "inception_4a/pool"
  pooling_param {
    pool: MAX
    kernel_size: 3
    stride: 1
    pad: 1
  }
}
layer {
  name: "inception_4a/pool_proj"
  type: "Convolution"
  bottom: "inception_4a/pool"
  top: "inception_4a/pool_proj"
  param {
    lr_mult: 1
    decay_mult: 1
  }
  param {
    lr_mult: 2
    decay_mult: 0
  }
  convolution_param {
    num_output: 64
    kernel_size: 1
    weight_filler {
      type: "xavier"
      std: 0.1
    }
    bias_filler {
      type: "constant"
      value: 0.2
    }
  }
}
layer {
  name: "inception_4a/relu_pool_proj"
  type: "ReLU"
  bottom: "inception_4a/pool_proj"
  top: "inception_4a/pool_proj"
}
layer {
  name: "inception_4a/output"
  type: "Concat"
  bottom: "inception_4a/1x1"
  bottom: "inception_4a/3x3"
  bottom: "inception_4a/5x5"
  bottom: "inception_4a/pool_proj"
  top: "inception_4a/output"
}
layer {
  name: "loss1/ave_pool"
  type: "Pooling"
  bottom: "inception_4a/output"
  top: "loss1/ave_pool"
  pooling_param {
    pool: AVE
    kernel_size: 5
    stride: 3
  }
}
layer {
  name: "loss1/conv"
  type: "Convolution"
  bottom: "loss1/ave_pool"
  top: "loss1/conv"
  param {
    lr_mult: 1
    decay_mult: 1
  }
  param {
    lr_mult: 2
    decay_mult: 0
  }
  convolution_param {
    num_output: 128
    kernel_size: 1
    weight_filler {
      type: "xavier"
      std: 0.08
    }
    bias_filler {
      type: "constant"
      value: 0.2
    }
  }
}
layer {
  name: "loss1/relu_conv"
  type: "ReLU"
  bottom: "loss1/conv"
  top: "loss1/conv"
}
layer {
  name: "loss1/fc"
  type: "InnerProduct"
  bottom: "loss1/conv"
  top: "loss1/fc"
  param {
    lr_mult: 1
    decay_mult: 1
  }
  param {
    lr_mult: 2
    decay_mult: 0
  }
  inner_product_param {
    num_output: 1024
    weight_filler {
      type: "xavier"
      std: 0.02
    }
    bias_filler {
      type: "constant"
      value: 0.2
    }
  }
}
layer {
  name: "loss1/relu_fc"
  type: "ReLU"
  bottom: "loss1/fc"
  top: "loss1/fc"
}
layer {
  name: "loss1/drop_fc"
  type: "Dropout"
  bottom: "loss1/fc"
  top: "loss1/fc"
  dropout_param {
    dropout_ratio: 0.7
  }
}
layer {
  name: "loss1/classifier_plantvillage"
  type: "InnerProduct"
  bottom: "loss1/fc"
  top: "loss1/classifier_plantvillage"
  param {
    lr_mult: 1
    decay_mult: 1
  }
  param {
    lr_mult: 2
    decay_mult: 0
  }
  inner_product_param {
    num_output: 38
    weight_filler {
      type: "xavier"
      std: 0.0009765625
    }
    bias_filler {
      type: "constant"
      value: 0
    }
  }
}
layer {
  name: "inception_4b/1x1"
  type: "Convolution"
  bottom: "inception_4a/output"
  top: "inception_4b/1x1"
  param {
    lr_mult: 1
    decay_mult: 1
  }
  param {
    lr_mult: 2
    decay_mult: 0
  }
  convolution_param {
    num_output: 160
    kernel_size: 1
    weight_filler {
      type: "xavier"
      std: 0.03
    }
    bias_filler {
      type: "constant"
      value: 0.2
    }
  }
}
layer {
  name: "inception_4b/relu_1x1"
  type: "ReLU"
  bottom: "inception_4b/1x1"
  top: "inception_4b/1x1"
}
layer {
  name: "inception_4b/3x3_reduce"
  type: "Convolution"
  bottom: "inception_4a/output"
  top: "inception_4b/3x3_reduce"
  param {
    lr_mult: 1
    decay_mult: 1
  }
  param {
    lr_mult: 2
    decay_mult: 0
  }
  convolution_param {
    num_output: 112
    kernel_size: 1
    weight_filler {
      type: "xavier"
      std: 0.09
    }
    bias_filler {
      type: "constant"
      value: 0.2
    }
  }
}
layer {
  name: "inception_4b/relu_3x3_reduce"
  type: "ReLU"
  bottom: "inception_4b/3x3_reduce"
  top: "inception_4b/3x3_reduce"
}
layer {
  name: "inception_4b/3x3"
  type: "Convolution"
  bottom: "inception_4b/3x3_reduce"
  top: "inception_4b/3x3"
  param {
    lr_mult: 1
    decay_mult: 1
  }
  param {
    lr_mult: 2
    decay_mult: 0
  }
  convolution_param {
    num_output: 224
    pad: 1
    kernel_size: 3
    weight_filler {
      type: "xavier"
      std: 0.03
    }
    bias_filler {
      type: "constant"
      value: 0.2
    }
  }
}
layer {
  name: "inception_4b/relu_3x3"
  type: "ReLU"
  bottom: "inception_4b/3x3"
  top: "inception_4b/3x3"
}
layer {
  name: "inception_4b/5x5_reduce"
  type: "Convolution"
  bottom: "inception_4a/output"
  top: "inception_4b/5x5_reduce"
  param {
    lr_mult: 1
    decay_mult: 1
  }
  param {
    lr_mult: 2
    decay_mult: 0
  }
  convolution_param {
    num_output: 24
    kernel_size: 1
    weight_filler {
      type: "xavier"
      std: 0.2
    }
    bias_filler {
      type: "constant"
      value: 0.2
    }
  }
}
layer {
  name: "inception_4b/relu_5x5_reduce"
  type: "ReLU"
  bottom: "inception_4b/5x5_reduce"
  top: "inception_4b/5x5_reduce"
}
layer {
  name: "inception_4b/5x5"
  type: "Convolution"
  bottom: "inception_4b/5x5_reduce"
  top: "inception_4b/5x5"
  param {
    lr_mult: 1
    decay_mult: 1
  }
  param {
    lr_mult: 2
    decay_mult: 0
  }
  convolution_param {
    num_output: 64
    pad: 2
    kernel_size: 5
    weight_filler {
      type: "xavier"
      std: 0.03
    }
    bias_filler {
      type: "constant"
      value: 0.2
    }
  }
}
layer {
  name: "inception_4b/relu_5x5"
  type: "ReLU"
  bottom: "inception_4b/5x5"
  top: "inception_4b/5x5"
}
layer {
  name: "inception_4b/pool"
  type: "Pooling"
  bottom: "inception_4a/output"
  top: "inception_4b/pool"
  pooling_param {
    pool: MAX
    kernel_size: 3
    stride: 1
    pad: 1
  }
}
layer {
  name: "inception_4b/pool_proj"
  type: "Convolution"
  bottom: "inception_4b/pool"
  top: "inception_4b/pool_proj"
  param {
    lr_mult: 1
    decay_mult: 1
  }
  param {
    lr_mult: 2
    decay_mult: 0
  }
  convolution_param {
    num_output: 64
    kernel_size: 1
    weight_filler {
      type: "xavier"
      std: 0.1
    }
    bias_filler {
      type: "constant"
      value: 0.2
    }
  }
}
layer {
  name: "inception_4b/relu_pool_proj"
  type: "ReLU"
  bottom: "inception_4b/pool_proj"
  top: "inception_4b/pool_proj"
}
layer {
  name: "inception_4b/output"
  type: "Concat"
  bottom: "inception_4b/1x1"
  bottom: "inception_4b/3x3"
  bottom: "inception_4b/5x5"
  bottom: "inception_4b/pool_proj"
  top: "inception_4b/output"
}
layer {
  name: "inception_4c/1x1"
  type: "Convolution"
  bottom: "inception_4b/output"
  top: "inception_4c/1x1"
  param {
    lr_mult: 1
    decay_mult: 1
  }
  param {
    lr_mult: 2
    decay_mult: 0
  }
  convolution_param {
    num_output: 128
    kernel_size: 1
    weight_filler {
      type: "xavier"
      std: 0.03
    }
    bias_filler {
      type: "constant"
      value: 0.2
    }
  }
}
layer {
  name: "inception_4c/relu_1x1"
  type: "ReLU"
  bottom: "inception_4c/1x1"
  top: "inception_4c/1x1"
}
layer {
  name: "inception_4c/3x3_reduce"
  type: "Convolution"
  bottom: "inception_4b/output"
  top: "inception_4c/3x3_reduce"
  param {
    lr_mult: 1
    decay_mult: 1
  }
  param {
    lr_mult: 2
    decay_mult: 0
  }
  convolution_param {
    num_output: 128
    kernel_size: 1
    weight_filler {
      type: "xavier"
      std: 0.09
    }
    bias_filler {
      type: "constant"
      value: 0.2
    }
  }
}
layer {
  name: "inception_4c/relu_3x3_reduce"
  type: "ReLU"
  bottom: "inception_4c/3x3_reduce"
  top: "inception_4c/3x3_reduce"
}
layer {
  name: "inception_4c/3x3"
  type: "Convolution"
  bottom: "inception_4c/3x3_reduce"
  top: "inception_4c/3x3"
  param {
    lr_mult: 1
    decay_mult: 1
  }
  param {
    lr_mult: 2
    decay_mult: 0
  }
  convolution_param {
    num_output: 256
    pad: 1
    kernel_size: 3
    weight_filler {
      type: "xavier"
      std: 0.03
    }
    bias_filler {
      type: "constant"
      value: 0.2
    }
  }
}
layer {
  name: "inception_4c/relu_3x3"
  type: "ReLU"
  bottom: "inception_4c/3x3"
  top: "inception_4c/3x3"
}
layer {
  name: "inception_4c/5x5_reduce"
  type: "Convolution"
  bottom: "inception_4b/output"
  top: "inception_4c/5x5_reduce"
  param {
    lr_mult: 1
    decay_mult: 1
  }
  param {
    lr_mult: 2
    decay_mult: 0
  }
  convolution_param {
    num_output: 24
    kernel_size: 1
    weight_filler {
      type: "xavier"
      std: 0.2
    }
    bias_filler {
      type: "constant"
      value: 0.2
    }
  }
}
layer {
  name: "inception_4c/relu_5x5_reduce"
  type: "ReLU"
  bottom: "inception_4c/5x5_reduce"
  top: "inception_4c/5x5_reduce"
}
layer {
  name: "inception_4c/5x5"
  type: "Convolution"
  bottom: "inception_4c/5x5_reduce"
  top: "inception_4c/5x5"
  param {
    lr_mult: 1
    decay_mult: 1
  }
  param {
    lr_mult: 2
    decay_mult: 0
  }
  convolution_param {
    num_output: 64
    pad: 2
    kernel_size: 5
    weight_filler {
      type: "xavier"
      std: 0.03
    }
    bias_filler {
      type: "constant"
      value: 0.2
    }
  }
}
layer {
  name: "inception_4c/relu_5x5"
  type: "ReLU"
  bottom: "inception_4c/5x5"
  top: "inception_4c/5x5"
}
layer {
  name: "inception_4c/pool"
  type: "Pooling"
  bottom: "inception_4b/output"
  top: "inception_4c/pool"
  pooling_param {
    pool: MAX
    kernel_size: 3
    stride: 1
    pad: 1
  }
}
layer {
  name: "inception_4c/pool_proj"
  type: "Convolution"
  bottom: "inception_4c/pool"
  top: "inception_4c/pool_proj"
  param {
    lr_mult: 1
    decay_mult: 1
  }
  param {
    lr_mult: 2
    decay_mult: 0
  }
  convolution_param {
    num_output: 64
    kernel_size: 1
    weight_filler {
      type: "xavier"
      std: 0.1
    }
    bias_filler {
      type: "constant"
      value: 0.2
    }
  }
}
layer {
  name: "inception_4c/relu_pool_proj"
  type: "ReLU"
  bottom: "inception_4c/pool_proj"
  top: "inception_4c/pool_proj"
}
layer {
  name: "inception_4c/output"
  type: "Concat"
  bottom: "inception_4c/1x1"
  bottom: "inception_4c/3x3"
  bottom: "inception_4c/5x5"
  bottom: "inception_4c/pool_proj"
  top: "inception_4c/output"
}
layer {
  name: "inception_4d/1x1"
  type: "Convolution"
  bottom: "inception_4c/output"
  top: "inception_4d/1x1"
  param {
    lr_mult: 1
    decay_mult: 1
  }
  param {
    lr_mult: 2
    decay_mult: 0
  }
  convolution_param {
    num_output: 112
    kernel_size: 1
    weight_filler {
      type: "xavier"
      std: 0.03
    }
    bias_filler {
      type: "constant"
      value: 0.2
    }
  }
}
layer {
  name: "inception_4d/relu_1x1"
  type: "ReLU"
  bottom: "inception_4d/1x1"
  top: "inception_4d/1x1"
}
layer {
  name: "inception_4d/3x3_reduce"
  type: "Convolution"
  bottom: "inception_4c/output"
  top: "inception_4d/3x3_reduce"
  param {
    lr_mult: 1
    decay_mult: 1
  }
  param {
    lr_mult: 2
    decay_mult: 0
  }
  convolution_param {
    num_output: 144
    kernel_size: 1
    weight_filler {
      type: "xavier"
      std: 0.09
    }
    bias_filler {
      type: "constant"
      value: 0.2
    }
  }
}
layer {
  name: "inception_4d/relu_3x3_reduce"
  type: "ReLU"
  bottom: "inception_4d/3x3_reduce"
  top: "inception_4d/3x3_reduce"
}
layer {
  name: "inception_4d/3x3"
  type: "Convolution"
  bottom: "inception_4d/3x3_reduce"
  top: "inception_4d/3x3"
  param {
    lr_mult: 1
    decay_mult: 1
  }
  param {
    lr_mult: 2
    decay_mult: 0
  }
  convolution_param {
    num_output: 288
    pad: 1
    kernel_size: 3
    weight_filler {
      type: "xavier"
      std: 0.03
    }
    bias_filler {
      type: "constant"
      value: 0.2
    }
  }
}
layer {
  name: "inception_4d/relu_3x3"
  type: "ReLU"
  bottom: "inception_4d/3x3"
  top: "inception_4d/3x3"
}
layer {
  name: "inception_4d/5x5_reduce"
  type: "Convolution"
  bottom: "inception_4c/output"
  top: "inception_4d/5x5_reduce"
  param {
    lr_mult: 1
    decay_mult: 1
  }
  param {
    lr_mult: 2
    decay_mult: 0
  }
  convolution_param {
    num_output: 32
    kernel_size: 1
    weight_filler {
      type: "xavier"
      std: 0.2
    }
    bias_filler {
      type: "constant"
      value: 0.2
    }
  }
}
layer {
  name: "inception_4d/relu_5x5_reduce"
  type: "ReLU"
  bottom: "inception_4d/5x5_reduce"
  top: "inception_4d/5x5_reduce"
}
layer {
  name: "inception_4d/5x5"
  type: "Convolution"
  bottom: "inception_4d/5x5_reduce"
  top: "inception_4d/5x5"
  param {
    lr_mult: 1
    decay_mult: 1
  }
  param {
    lr_mult: 2
    decay_mult: 0
  }
  convolution_param {
    num_output: 64
    pad: 2
    kernel_size: 5
    weight_filler {
      type: "xavier"
      std: 0.03
    }
    bias_filler {
      type: "constant"
      value: 0.2
    }
  }
}
layer {
  name: "inception_4d/relu_5x5"
  type: "ReLU"
  bottom: "inception_4d/5x5"
  top: "inception_4d/5x5"
}
layer {
  name: "inception_4d/pool"
  type: "Pooling"
  bottom: "inception_4c/output"
  top: "inception_4d/pool"
  pooling_param {
    pool: MAX
    kernel_size: 3
    stride: 1
    pad: 1
  }
}
layer {
  name: "inception_4d/pool_proj"
  type: "Convolution"
  bottom: "inception_4d/pool"
  top: "inception_4d/pool_proj"
  param {
    lr_mult: 1
    decay_mult: 1
  }
  param {
    lr_mult: 2
    decay_mult: 0
  }
  convolution_param {
    num_output: 64
    kernel_size: 1
    weight_filler {
      type: "xavier"
      std: 0.1
    }
    bias_filler {
      type: "constant"
      value: 0.2
    }
  }
}
layer {
  name: "inception_4d/relu_pool_proj"
  type: "ReLU"
  bottom: "inception_4d/pool_proj"
  top: "inception_4d/pool_proj"
}
layer {
  name: "inception_4d/output"
  type: "Concat"
  bottom: "inception_4d/1x1"
  bottom: "inception_4d/3x3"
  bottom: "inception_4d/5x5"
  bottom: "inception_4d/pool_proj"
  top: "inception_4d/output"
}
layer {
  name: "loss2/ave_pool"
  type: "Pooling"
  bottom: "inception_4d/output"
  top: "loss2/ave_pool"
  pooling_param {
    pool: AVE
    kernel_size: 5
    stride: 3
  }
}
layer {
  name: "loss2/conv"
  type: "Convolution"
  bottom: "loss2/ave_pool"
  top: "loss2/conv"
  param {
    lr_mult: 1
    decay_mult: 1
  }
  param {
    lr_mult: 2
    decay_mult: 0
  }
  convolution_param {
    num_output: 128
    kernel_size: 1
    weight_filler {
      type: "xavier"
      std: 0.08
    }
    bias_filler {
      type: "constant"
      value: 0.2
    }
  }
}
layer {
  name: "loss2/relu_conv"
  type: "ReLU"
  bottom: "loss2/conv"
  top: "loss2/conv"
}
layer {
  name: "loss2/fc"
  type: "InnerProduct"
  bottom: "loss2/conv"
  top: "loss2/fc"
  param {
    lr_mult: 1
    decay_mult: 1
  }
  param {
    lr_mult: 2
    decay_mult: 0
  }
  inner_product_param {
    num_output: 1024
    weight_filler {
      type: "xavier"
      std: 0.02
    }
    bias_filler {
      type: "constant"
      value: 0.2
    }
  }
}
layer {
  name: "loss2/relu_fc"
  type: "ReLU"
  bottom: "loss2/fc"
  top: "loss2/fc"
}
layer {
  name: "loss2/drop_fc"
  type: "Dropout"
  bottom: "loss2/fc"
  top: "loss2/fc"
  dropout_param {
    dropout_ratio: 0.7
  }
}
layer {
  name: "loss2/classifier_plantvillage"
  type: "InnerProduct"
  bottom: "loss2/fc"
  top: "loss2/classifier_plantvillage"
  param {
    lr_mult: 1
    decay_mult: 1
  }
  param {
    lr_mult: 2
    decay_mult: 0
  }
  inner_product_param {
    num_output: 38
    weight_filler {
      type: "xavier"
      std: 0.0009765625
    }
    bias_filler {
      type: "constant"
      value: 0
    }
  }
}
layer {
  name: "inception_4e/1x1"
  type: "Convolution"
  bottom: "inception_4d/output"
  top: "inception_4e/1x1"
  param {
    lr_mult: 1
    decay_mult: 1
  }
  param {
    lr_mult: 2
    decay_mult: 0
  }
  convolution_param {
    num_output: 256
    kernel_size: 1
    weight_filler {
      type: "xavier"
      std: 0.03
    }
    bias_filler {
      type: "constant"
      value: 0.2
    }
  }
}
layer {
  name: "inception_4e/relu_1x1"
  type: "ReLU"
  bottom: "inception_4e/1x1"
  top: "inception_4e/1x1"
}
layer {
  name: "inception_4e/3x3_reduce"
  type: "Convolution"
  bottom: "inception_4d/output"
  top: "inception_4e/3x3_reduce"
  param {
    lr_mult: 1
    decay_mult: 1
  }
  param {
    lr_mult: 2
    decay_mult: 0
  }
  convolution_param {
    num_output: 160
    kernel_size: 1
    weight_filler {
      type: "xavier"
      std: 0.09
    }
    bias_filler {
      type: "constant"
      value: 0.2
    }
  }
}
layer {
  name: "inception_4e/relu_3x3_reduce"
  type: "ReLU"
  bottom: "inception_4e/3x3_reduce"
  top: "inception_4e/3x3_reduce"
}
layer {
  name: "inception_4e/3x3"
  type: "Convolution"
  bottom: "inception_4e/3x3_reduce"
  top: "inception_4e/3x3"
  param {
    lr_mult: 1
    decay_mult: 1
  }
  param {
    lr_mult: 2
    decay_mult: 0
  }
  convolution_param {
    num_output: 320
    pad: 1
    kernel_size: 3
    weight_filler {
      type: "xavier"
      std: 0.03
    }
    bias_filler {
      type: "constant"
      value: 0.2
    }
  }
}
layer {
  name: "inception_4e/relu_3x3"
  type: "ReLU"
  bottom: "inception_4e/3x3"
  top: "inception_4e/3x3"
}
layer {
  name: "inception_4e/5x5_reduce"
  type: "Convolution"
  bottom: "inception_4d/output"
  top: "inception_4e/5x5_reduce"
  param {
    lr_mult: 1
    decay_mult: 1
  }
  param {
    lr_mult: 2
    decay_mult: 0
  }
  convolution_param {
    num_output: 32
    kernel_size: 1
    weight_filler {
      type: "xavier"
      std: 0.2
    }
    bias_filler {
      type: "constant"
      value: 0.2
    }
  }
}
layer {
  name: "inception_4e/relu_5x5_reduce"
  type: "ReLU"
  bottom: "inception_4e/5x5_reduce"
  top: "inception_4e/5x5_reduce"
}
layer {
  name: "inception_4e/5x5"
  type: "Convolution"
  bottom: "inception_4e/5x5_reduce"
  top: "inception_4e/
I0403 15:51:05.616380 20338 layer_factory.hpp:77] Creating layer data
I0403 15:51:05.617030 20338 net.cpp:91] Creating Layer data
I0403 15:51:05.617061 20338 net.cpp:399] data -> data
I0403 15:51:05.617113 20338 net.cpp:399] data -> label
I0403 15:51:05.617151 20338 data_transformer.cpp:25] Loading mean file from: /home/mohanty/data/final_dataset/lmdb/grayscale-40-60/mean.binaryproto
I0403 15:51:05.621608 20341 db_lmdb.cpp:38] Opened lmdb /home/mohanty/data/final_dataset/lmdb/grayscale-40-60/test_db
I0403 15:51:05.630828 20338 data_layer.cpp:41] output data size: 24,3,224,224
I0403 15:51:05.660790 20338 net.cpp:141] Setting up data
I0403 15:51:05.660897 20338 net.cpp:148] Top shape: 24 3 224 224 (3612672)
I0403 15:51:05.660920 20338 net.cpp:148] Top shape: 24 (24)
I0403 15:51:05.660934 20338 net.cpp:156] Memory required for data: 14450784
I0403 15:51:05.660965 20338 layer_factory.hpp:77] Creating layer label_data_1_split
I0403 15:51:05.660992 20338 net.cpp:91] Creating Layer label_data_1_split
I0403 15:51:05.661010 20338 net.cpp:425] label_data_1_split <- label
I0403 15:51:05.661041 20338 net.cpp:399] label_data_1_split -> label_data_1_split_0
I0403 15:51:05.661067 20338 net.cpp:399] label_data_1_split -> label_data_1_split_1
I0403 15:51:05.661087 20338 net.cpp:399] label_data_1_split -> label_data_1_split_2
I0403 15:51:05.661108 20338 net.cpp:399] label_data_1_split -> label_data_1_split_3
I0403 15:51:05.661125 20338 net.cpp:399] label_data_1_split -> label_data_1_split_4
I0403 15:51:05.661144 20338 net.cpp:399] label_data_1_split -> label_data_1_split_5
I0403 15:51:05.661161 20338 net.cpp:399] label_data_1_split -> label_data_1_split_6
I0403 15:51:05.661180 20338 net.cpp:399] label_data_1_split -> label_data_1_split_7
I0403 15:51:05.661198 20338 net.cpp:399] label_data_1_split -> label_data_1_split_8
I0403 15:51:05.661217 20338 net.cpp:399] label_data_1_split -> label_data_1_split_9
I0403 15:51:05.661329 20338 net.cpp:141] Setting up label_data_1_split
I0403 15:51:05.661351 20338 net.cpp:148] Top shape: 24 (24)
I0403 15:51:05.661368 20338 net.cpp:148] Top shape: 24 (24)
I0403 15:51:05.661383 20338 net.cpp:148] Top shape: 24 (24)
I0403 15:51:05.661398 20338 net.cpp:148] Top shape: 24 (24)
I0403 15:51:05.661412 20338 net.cpp:148] Top shape: 24 (24)
I0403 15:51:05.661427 20338 net.cpp:148] Top shape: 24 (24)
I0403 15:51:05.661442 20338 net.cpp:148] Top shape: 24 (24)
I0403 15:51:05.661456 20338 net.cpp:148] Top shape: 24 (24)
I0403 15:51:05.661471 20338 net.cpp:148] Top shape: 24 (24)
I0403 15:51:05.661486 20338 net.cpp:148] Top shape: 24 (24)
I0403 15:51:05.661530 20338 net.cpp:156] Memory required for data: 14451744
I0403 15:51:05.661545 20338 layer_factory.hpp:77] Creating layer conv1/7x7_s2
I0403 15:51:05.661576 20338 net.cpp:91] Creating Layer conv1/7x7_s2
I0403 15:51:05.661593 20338 net.cpp:425] conv1/7x7_s2 <- data
I0403 15:51:05.661612 20338 net.cpp:399] conv1/7x7_s2 -> conv1/7x7_s2
I0403 15:51:05.805361 20338 net.cpp:141] Setting up conv1/7x7_s2
I0403 15:51:05.805449 20338 net.cpp:148] Top shape: 24 64 112 112 (19267584)
I0403 15:51:05.805465 20338 net.cpp:156] Memory required for data: 91522080
I0403 15:51:05.805495 20338 layer_factory.hpp:77] Creating layer conv1/relu_7x7
I0403 15:51:05.805521 20338 net.cpp:91] Creating Layer conv1/relu_7x7
I0403 15:51:05.805538 20338 net.cpp:425] conv1/relu_7x7 <- conv1/7x7_s2
I0403 15:51:05.805557 20338 net.cpp:386] conv1/relu_7x7 -> conv1/7x7_s2 (in-place)
I0403 15:51:05.805806 20338 net.cpp:141] Setting up conv1/relu_7x7
I0403 15:51:05.805832 20338 net.cpp:148] Top shape: 24 64 112 112 (19267584)
I0403 15:51:05.805847 20338 net.cpp:156] Memory required for data: 168592416
I0403 15:51:05.805861 20338 layer_factory.hpp:77] Creating layer pool1/3x3_s2
I0403 15:51:05.805884 20338 net.cpp:91] Creating Layer pool1/3x3_s2
I0403 15:51:05.805902 20338 net.cpp:425] pool1/3x3_s2 <- conv1/7x7_s2
I0403 15:51:05.805919 20338 net.cpp:399] pool1/3x3_s2 -> pool1/3x3_s2
I0403 15:51:05.805995 20338 net.cpp:141] Setting up pool1/3x3_s2
I0403 15:51:05.806018 20338 net.cpp:148] Top shape: 24 64 56 56 (4816896)
I0403 15:51:05.806047 20338 net.cpp:156] Memory required for data: 187860000
I0403 15:51:05.806062 20338 layer_factory.hpp:77] Creating layer pool1/norm1
I0403 15:51:05.806098 20338 net.cpp:91] Creating Layer pool1/norm1
I0403 15:51:05.806118 20338 net.cpp:425] pool1/norm1 <- pool1/3x3_s2
I0403 15:51:05.806135 20338 net.cpp:399] pool1/norm1 -> pool1/norm1
I0403 15:51:05.806450 20338 net.cpp:141] Setting up pool1/norm1
I0403 15:51:05.806476 20338 net.cpp:148] Top shape: 24 64 56 56 (4816896)
I0403 15:51:05.806491 20338 net.cpp:156] Memory required for data: 207127584
I0403 15:51:05.806506 20338 layer_factory.hpp:77] Creating layer conv2/3x3_reduce
I0403 15:51:05.806531 20338 net.cpp:91] Creating Layer conv2/3x3_reduce
I0403 15:51:05.806546 20338 net.cpp:425] conv2/3x3_reduce <- pool1/norm1
I0403 15:51:05.806565 20338 net.cpp:399] conv2/3x3_reduce -> conv2/3x3_reduce
I0403 15:51:05.808596 20338 net.cpp:141] Setting up conv2/3x3_reduce
I0403 15:51:05.808627 20338 net.cpp:148] Top shape: 24 64 56 56 (4816896)
I0403 15:51:05.808643 20338 net.cpp:156] Memory required for data: 226395168
I0403 15:51:05.808665 20338 layer_factory.hpp:77] Creating layer conv2/relu_3x3_reduce
I0403 15:51:05.808682 20338 net.cpp:91] Creating Layer conv2/relu_3x3_reduce
I0403 15:51:05.808697 20338 net.cpp:425] conv2/relu_3x3_reduce <- conv2/3x3_reduce
I0403 15:51:05.808713 20338 net.cpp:386] conv2/relu_3x3_reduce -> conv2/3x3_reduce (in-place)
I0403 15:51:05.808993 20338 net.cpp:141] Setting up conv2/relu_3x3_reduce
I0403 15:51:05.809034 20338 net.cpp:148] Top shape: 24 64 56 56 (4816896)
I0403 15:51:05.809051 20338 net.cpp:156] Memory required for data: 245662752
I0403 15:51:05.809065 20338 layer_factory.hpp:77] Creating layer conv2/3x3
I0403 15:51:05.809106 20338 net.cpp:91] Creating Layer conv2/3x3
I0403 15:51:05.809125 20338 net.cpp:425] conv2/3x3 <- conv2/3x3_reduce
I0403 15:51:05.809145 20338 net.cpp:399] conv2/3x3 -> conv2/3x3
I0403 15:51:05.811607 20338 net.cpp:141] Setting up conv2/3x3
I0403 15:51:05.811640 20338 net.cpp:148] Top shape: 24 192 56 56 (14450688)
I0403 15:51:05.811657 20338 net.cpp:156] Memory required for data: 303465504
I0403 15:51:05.811678 20338 layer_factory.hpp:77] Creating layer conv2/relu_3x3
I0403 15:51:05.811697 20338 net.cpp:91] Creating Layer conv2/relu_3x3
I0403 15:51:05.811712 20338 net.cpp:425] conv2/relu_3x3 <- conv2/3x3
I0403 15:51:05.811728 20338 net.cpp:386] conv2/relu_3x3 -> conv2/3x3 (in-place)
I0403 15:51:05.811900 20338 net.cpp:141] Setting up conv2/relu_3x3
I0403 15:51:05.811925 20338 net.cpp:148] Top shape: 24 192 56 56 (14450688)
I0403 15:51:05.811978 20338 net.cpp:156] Memory required for data: 361268256
I0403 15:51:05.811995 20338 layer_factory.hpp:77] Creating layer conv2/norm2
I0403 15:51:05.812016 20338 net.cpp:91] Creating Layer conv2/norm2
I0403 15:51:05.812032 20338 net.cpp:425] conv2/norm2 <- conv2/3x3
I0403 15:51:05.812049 20338 net.cpp:399] conv2/norm2 -> conv2/norm2
I0403 15:51:05.812351 20338 net.cpp:141] Setting up conv2/norm2
I0403 15:51:05.812377 20338 net.cpp:148] Top shape: 24 192 56 56 (14450688)
I0403 15:51:05.812393 20338 net.cpp:156] Memory required for data: 419071008
I0403 15:51:05.812407 20338 layer_factory.hpp:77] Creating layer pool2/3x3_s2
I0403 15:51:05.812427 20338 net.cpp:91] Creating Layer pool2/3x3_s2
I0403 15:51:05.812443 20338 net.cpp:425] pool2/3x3_s2 <- conv2/norm2
I0403 15:51:05.812461 20338 net.cpp:399] pool2/3x3_s2 -> pool2/3x3_s2
I0403 15:51:05.812516 20338 net.cpp:141] Setting up pool2/3x3_s2
I0403 15:51:05.812539 20338 net.cpp:148] Top shape: 24 192 28 28 (3612672)
I0403 15:51:05.812553 20338 net.cpp:156] Memory required for data: 433521696
I0403 15:51:05.812567 20338 layer_factory.hpp:77] Creating layer pool2/3x3_s2_pool2/3x3_s2_0_split
I0403 15:51:05.812585 20338 net.cpp:91] Creating Layer pool2/3x3_s2_pool2/3x3_s2_0_split
I0403 15:51:05.812599 20338 net.cpp:425] pool2/3x3_s2_pool2/3x3_s2_0_split <- pool2/3x3_s2
I0403 15:51:05.812620 20338 net.cpp:399] pool2/3x3_s2_pool2/3x3_s2_0_split -> pool2/3x3_s2_pool2/3x3_s2_0_split_0
I0403 15:51:05.812640 20338 net.cpp:399] pool2/3x3_s2_pool2/3x3_s2_0_split -> pool2/3x3_s2_pool2/3x3_s2_0_split_1
I0403 15:51:05.812659 20338 net.cpp:399] pool2/3x3_s2_pool2/3x3_s2_0_split -> pool2/3x3_s2_pool2/3x3_s2_0_split_2
I0403 15:51:05.812679 20338 net.cpp:399] pool2/3x3_s2_pool2/3x3_s2_0_split -> pool2/3x3_s2_pool2/3x3_s2_0_split_3
I0403 15:51:05.812748 20338 net.cpp:141] Setting up pool2/3x3_s2_pool2/3x3_s2_0_split
I0403 15:51:05.812773 20338 net.cpp:148] Top shape: 24 192 28 28 (3612672)
I0403 15:51:05.812789 20338 net.cpp:148] Top shape: 24 192 28 28 (3612672)
I0403 15:51:05.812804 20338 net.cpp:148] Top shape: 24 192 28 28 (3612672)
I0403 15:51:05.812819 20338 net.cpp:148] Top shape: 24 192 28 28 (3612672)
I0403 15:51:05.812832 20338 net.cpp:156] Memory required for data: 491324448
I0403 15:51:05.812846 20338 layer_factory.hpp:77] Creating layer inception_3a/1x1
I0403 15:51:05.812868 20338 net.cpp:91] Creating Layer inception_3a/1x1
I0403 15:51:05.812885 20338 net.cpp:425] inception_3a/1x1 <- pool2/3x3_s2_pool2/3x3_s2_0_split_0
I0403 15:51:05.812906 20338 net.cpp:399] inception_3a/1x1 -> inception_3a/1x1
I0403 15:51:05.815358 20338 net.cpp:141] Setting up inception_3a/1x1
I0403 15:51:05.815393 20338 net.cpp:148] Top shape: 24 64 28 28 (1204224)
I0403 15:51:05.815410 20338 net.cpp:156] Memory required for data: 496141344
I0403 15:51:05.815429 20338 layer_factory.hpp:77] Creating layer inception_3a/relu_1x1
I0403 15:51:05.815450 20338 net.cpp:91] Creating Layer inception_3a/relu_1x1
I0403 15:51:05.815469 20338 net.cpp:425] inception_3a/relu_1x1 <- inception_3a/1x1
I0403 15:51:05.815485 20338 net.cpp:386] inception_3a/relu_1x1 -> inception_3a/1x1 (in-place)
I0403 15:51:05.815670 20338 net.cpp:141] Setting up inception_3a/relu_1x1
I0403 15:51:05.815696 20338 net.cpp:148] Top shape: 24 64 28 28 (1204224)
I0403 15:51:05.815709 20338 net.cpp:156] Memory required for data: 500958240
I0403 15:51:05.815724 20338 layer_factory.hpp:77] Creating layer inception_3a/3x3_reduce
I0403 15:51:05.815748 20338 net.cpp:91] Creating Layer inception_3a/3x3_reduce
I0403 15:51:05.815767 20338 net.cpp:425] inception_3a/3x3_reduce <- pool2/3x3_s2_pool2/3x3_s2_0_split_1
I0403 15:51:05.815786 20338 net.cpp:399] inception_3a/3x3_reduce -> inception_3a/3x3_reduce
I0403 15:51:05.819205 20338 net.cpp:141] Setting up inception_3a/3x3_reduce
I0403 15:51:05.819237 20338 net.cpp:148] Top shape: 24 96 28 28 (1806336)
I0403 15:51:05.819254 20338 net.cpp:156] Memory required for data: 508183584
I0403 15:51:05.819277 20338 layer_factory.hpp:77] Creating layer inception_3a/relu_3x3_reduce
I0403 15:51:05.819314 20338 net.cpp:91] Creating Layer inception_3a/relu_3x3_reduce
I0403 15:51:05.819332 20338 net.cpp:425] inception_3a/relu_3x3_reduce <- inception_3a/3x3_reduce
I0403 15:51:05.819351 20338 net.cpp:386] inception_3a/relu_3x3_reduce -> inception_3a/3x3_reduce (in-place)
I0403 15:51:05.819535 20338 net.cpp:141] Setting up inception_3a/relu_3x3_reduce
I0403 15:51:05.819560 20338 net.cpp:148] Top shape: 24 96 28 28 (1806336)
I0403 15:51:05.819574 20338 net.cpp:156] Memory required for data: 515408928
I0403 15:51:05.819588 20338 layer_factory.hpp:77] Creating layer inception_3a/3x3
I0403 15:51:05.819612 20338 net.cpp:91] Creating Layer inception_3a/3x3
I0403 15:51:05.819628 20338 net.cpp:425] inception_3a/3x3 <- inception_3a/3x3_reduce
I0403 15:51:05.819650 20338 net.cpp:399] inception_3a/3x3 -> inception_3a/3x3
I0403 15:51:05.821437 20338 net.cpp:141] Setting up inception_3a/3x3
I0403 15:51:05.821471 20338 net.cpp:148] Top shape: 24 128 28 28 (2408448)
I0403 15:51:05.821488 20338 net.cpp:156] Memory required for data: 525042720
I0403 15:51:05.821507 20338 layer_factory.hpp:77] Creating layer inception_3a/relu_3x3
I0403 15:51:05.821526 20338 net.cpp:91] Creating Layer inception_3a/relu_3x3
I0403 15:51:05.821540 20338 net.cpp:425] inception_3a/relu_3x3 <- inception_3a/3x3
I0403 15:51:05.821560 20338 net.cpp:386] inception_3a/relu_3x3 -> inception_3a/3x3 (in-place)
I0403 15:51:05.821844 20338 net.cpp:141] Setting up inception_3a/relu_3x3
I0403 15:51:05.821873 20338 net.cpp:148] Top shape: 24 128 28 28 (2408448)
I0403 15:51:05.821889 20338 net.cpp:156] Memory required for data: 534676512
I0403 15:51:05.821904 20338 layer_factory.hpp:77] Creating layer inception_3a/5x5_reduce
I0403 15:51:05.821926 20338 net.cpp:91] Creating Layer inception_3a/5x5_reduce
I0403 15:51:05.821943 20338 net.cpp:425] inception_3a/5x5_reduce <- pool2/3x3_s2_pool2/3x3_s2_0_split_2
I0403 15:51:05.821962 20338 net.cpp:399] inception_3a/5x5_reduce -> inception_3a/5x5_reduce
I0403 15:51:05.822934 20338 net.cpp:141] Setting up inception_3a/5x5_reduce
I0403 15:51:05.822975 20338 net.cpp:148] Top shape: 24 16 28 28 (301056)
I0403 15:51:05.822999 20338 net.cpp:156] Memory required for data: 535880736
I0403 15:51:05.823019 20338 layer_factory.hpp:77] Creating layer inception_3a/relu_5x5_reduce
I0403 15:51:05.823038 20338 net.cpp:91] Creating Layer inception_3a/relu_5x5_reduce
I0403 15:51:05.823057 20338 net.cpp:425] inception_3a/relu_5x5_reduce <- inception_3a/5x5_reduce
I0403 15:51:05.823081 20338 net.cpp:386] inception_3a/relu_5x5_reduce -> inception_3a/5x5_reduce (in-place)
I0403 15:51:05.823386 20338 net.cpp:141] Setting up inception_3a/relu_5x5_reduce
I0403 15:51:05.823415 20338 net.cpp:148] Top shape: 24 16 28 28 (301056)
I0403 15:51:05.823431 20338 net.cpp:156] Memory required for data: 537084960
I0403 15:51:05.823446 20338 layer_factory.hpp:77] Creating layer inception_3a/5x5
I0403 15:51:05.823468 20338 net.cpp:91] Creating Layer inception_3a/5x5
I0403 15:51:05.823487 20338 net.cpp:425] inception_3a/5x5 <- inception_3a/5x5_reduce
I0403 15:51:05.823513 20338 net.cpp:399] inception_3a/5x5 -> inception_3a/5x5
I0403 15:51:05.824630 20338 net.cpp:141] Setting up inception_3a/5x5
I0403 15:51:05.824674 20338 net.cpp:148] Top shape: 24 32 28 28 (602112)
I0403 15:51:05.824694 20338 net.cpp:156] Memory required for data: 539493408
I0403 15:51:05.824717 20338 layer_factory.hpp:77] Creating layer inception_3a/relu_5x5
I0403 15:51:05.824734 20338 net.cpp:91] Creating Layer inception_3a/relu_5x5
I0403 15:51:05.824753 20338 net.cpp:425] inception_3a/relu_5x5 <- inception_3a/5x5
I0403 15:51:05.824780 20338 net.cpp:386] inception_3a/relu_5x5 -> inception_3a/5x5 (in-place)
I0403 15:51:05.824966 20338 net.cpp:141] Setting up inception_3a/relu_5x5
I0403 15:51:05.824997 20338 net.cpp:148] Top shape: 24 32 28 28 (602112)
I0403 15:51:05.825013 20338 net.cpp:156] Memory required for data: 541901856
I0403 15:51:05.825028 20338 layer_factory.hpp:77] Creating layer inception_3a/pool
I0403 15:51:05.825047 20338 net.cpp:91] Creating Layer inception_3a/pool
I0403 15:51:05.825079 20338 net.cpp:425] inception_3a/pool <- pool2/3x3_s2_pool2/3x3_s2_0_split_3
I0403 15:51:05.825101 20338 net.cpp:399] inception_3a/pool -> inception_3a/pool
I0403 15:51:05.825161 20338 net.cpp:141] Setting up inception_3a/pool
I0403 15:51:05.825197 20338 net.cpp:148] Top shape: 24 192 28 28 (3612672)
I0403 15:51:05.825212 20338 net.cpp:156] Memory required for data: 556352544
I0403 15:51:05.825227 20338 layer_factory.hpp:77] Creating layer inception_3a/pool_proj
I0403 15:51:05.825251 20338 net.cpp:91] Creating Layer inception_3a/pool_proj
I0403 15:51:05.825269 20338 net.cpp:425] inception_3a/pool_proj <- inception_3a/pool
I0403 15:51:05.825287 20338 net.cpp:399] inception_3a/pool_proj -> inception_3a/pool_proj
I0403 15:51:05.826328 20338 net.cpp:141] Setting up inception_3a/pool_proj
I0403 15:51:05.826378 20338 net.cpp:148] Top shape: 24 32 28 28 (602112)
I0403 15:51:05.826395 20338 net.cpp:156] Memory required for data: 558760992
I0403 15:51:05.826418 20338 layer_factory.hpp:77] Creating layer inception_3a/relu_pool_proj
I0403 15:51:05.826438 20338 net.cpp:91] Creating Layer inception_3a/relu_pool_proj
I0403 15:51:05.826465 20338 net.cpp:425] inception_3a/relu_pool_proj <- inception_3a/pool_proj
I0403 15:51:05.826486 20338 net.cpp:386] inception_3a/relu_pool_proj -> inception_3a/pool_proj (in-place)
I0403 15:51:05.826771 20338 net.cpp:141] Setting up inception_3a/relu_pool_proj
I0403 15:51:05.826812 20338 net.cpp:148] Top shape: 24 32 28 28 (602112)
I0403 15:51:05.826828 20338 net.cpp:156] Memory required for data: 561169440
I0403 15:51:05.826843 20338 layer_factory.hpp:77] Creating layer inception_3a/output
I0403 15:51:05.826861 20338 net.cpp:91] Creating Layer inception_3a/output
I0403 15:51:05.826876 20338 net.cpp:425] inception_3a/output <- inception_3a/1x1
I0403 15:51:05.826892 20338 net.cpp:425] inception_3a/output <- inception_3a/3x3
I0403 15:51:05.826908 20338 net.cpp:425] inception_3a/output <- inception_3a/5x5
I0403 15:51:05.826923 20338 net.cpp:425] inception_3a/output <- inception_3a/pool_proj
I0403 15:51:05.826942 20338 net.cpp:399] inception_3a/output -> inception_3a/output
I0403 15:51:05.827013 20338 net.cpp:141] Setting up inception_3a/output
I0403 15:51:05.827039 20338 net.cpp:148] Top shape: 24 256 28 28 (4816896)
I0403 15:51:05.827054 20338 net.cpp:156] Memory required for data: 580437024
I0403 15:51:05.827069 20338 layer_factory.hpp:77] Creating layer inception_3a/output_inception_3a/output_0_split
I0403 15:51:05.827088 20338 net.cpp:91] Creating Layer inception_3a/output_inception_3a/output_0_split
I0403 15:51:05.827105 20338 net.cpp:425] inception_3a/output_inception_3a/output_0_split <- inception_3a/output
I0403 15:51:05.827123 20338 net.cpp:399] inception_3a/output_inception_3a/output_0_split -> inception_3a/output_inception_3a/output_0_split_0
I0403 15:51:05.827143 20338 net.cpp:399] inception_3a/output_inception_3a/output_0_split -> inception_3a/output_inception_3a/output_0_split_1
I0403 15:51:05.827172 20338 net.cpp:399] inception_3a/output_inception_3a/output_0_split -> inception_3a/output_inception_3a/output_0_split_2
I0403 15:51:05.827193 20338 net.cpp:399] inception_3a/output_inception_3a/output_0_split -> inception_3a/output_inception_3a/output_0_split_3
I0403 15:51:05.827268 20338 net.cpp:141] Setting up inception_3a/output_inception_3a/output_0_split
I0403 15:51:05.827306 20338 net.cpp:148] Top shape: 24 256 28 28 (4816896)
I0403 15:51:05.827323 20338 net.cpp:148] Top shape: 24 256 28 28 (4816896)
I0403 15:51:05.827338 20338 net.cpp:148] Top shape: 24 256 28 28 (4816896)
I0403 15:51:05.827353 20338 net.cpp:148] Top shape: 24 256 28 28 (4816896)
I0403 15:51:05.827368 20338 net.cpp:156] Memory required for data: 657507360
I0403 15:51:05.827381 20338 layer_factory.hpp:77] Creating layer inception_3b/1x1
I0403 15:51:05.827404 20338 net.cpp:91] Creating Layer inception_3b/1x1
I0403 15:51:05.827421 20338 net.cpp:425] inception_3b/1x1 <- inception_3a/output_inception_3a/output_0_split_0
I0403 15:51:05.827440 20338 net.cpp:399] inception_3b/1x1 -> inception_3b/1x1
I0403 15:51:05.828677 20338 net.cpp:141] Setting up inception_3b/1x1
I0403 15:51:05.828718 20338 net.cpp:148] Top shape: 24 128 28 28 (2408448)
I0403 15:51:05.828739 20338 net.cpp:156] Memory required for data: 667141152
I0403 15:51:05.828758 20338 layer_factory.hpp:77] Creating layer inception_3b/relu_1x1
I0403 15:51:05.828778 20338 net.cpp:91] Creating Layer inception_3b/relu_1x1
I0403 15:51:05.828794 20338 net.cpp:425] inception_3b/relu_1x1 <- inception_3b/1x1
I0403 15:51:05.828810 20338 net.cpp:386] inception_3b/relu_1x1 -> inception_3b/1x1 (in-place)
I0403 15:51:05.829013 20338 net.cpp:141] Setting up inception_3b/relu_1x1
I0403 15:51:05.829041 20338 net.cpp:148] Top shape: 24 128 28 28 (2408448)
I0403 15:51:05.829057 20338 net.cpp:156] Memory required for data: 676774944
I0403 15:51:05.829071 20338 layer_factory.hpp:77] Creating layer inception_3b/3x3_reduce
I0403 15:51:05.829094 20338 net.cpp:91] Creating Layer inception_3b/3x3_reduce
I0403 15:51:05.829112 20338 net.cpp:425] inception_3b/3x3_reduce <- inception_3a/output_inception_3a/output_0_split_1
I0403 15:51:05.829130 20338 net.cpp:399] inception_3b/3x3_reduce -> inception_3b/3x3_reduce
I0403 15:51:05.830363 20338 net.cpp:141] Setting up inception_3b/3x3_reduce
I0403 15:51:05.830392 20338 net.cpp:148] Top shape: 24 128 28 28 (2408448)
I0403 15:51:05.830410 20338 net.cpp:156] Memory required for data: 686408736
I0403 15:51:05.830428 20338 layer_factory.hpp:77] Creating layer inception_3b/relu_3x3_reduce
I0403 15:51:05.830451 20338 net.cpp:91] Creating Layer inception_3b/relu_3x3_reduce
I0403 15:51:05.830467 20338 net.cpp:425] inception_3b/relu_3x3_reduce <- inception_3b/3x3_reduce
I0403 15:51:05.830484 20338 net.cpp:386] inception_3b/relu_3x3_reduce -> inception_3b/3x3_reduce (in-place)
I0403 15:51:05.830678 20338 net.cpp:141] Setting up inception_3b/relu_3x3_reduce
I0403 15:51:05.830716 20338 net.cpp:148] Top shape: 24 128 28 28 (2408448)
I0403 15:51:05.830731 20338 net.cpp:156] Memory required for data: 696042528
I0403 15:51:05.830746 20338 layer_factory.hpp:77] Creating layer inception_3b/3x3
I0403 15:51:05.830771 20338 net.cpp:91] Creating Layer inception_3b/3x3
I0403 15:51:05.830790 20338 net.cpp:425] inception_3b/3x3 <- inception_3b/3x3_reduce
I0403 15:51:05.830812 20338 net.cpp:399] inception_3b/3x3 -> inception_3b/3x3
I0403 15:51:05.833889 20338 net.cpp:141] Setting up inception_3b/3x3
I0403 15:51:05.833920 20338 net.cpp:148] Top shape: 24 192 28 28 (3612672)
I0403 15:51:05.833938 20338 net.cpp:156] Memory required for data: 710493216
I0403 15:51:05.833957 20338 layer_factory.hpp:77] Creating layer inception_3b/relu_3x3
I0403 15:51:05.833976 20338 net.cpp:91] Creating Layer inception_3b/relu_3x3
I0403 15:51:05.834000 20338 net.cpp:425] inception_3b/relu_3x3 <- inception_3b/3x3
I0403 15:51:05.834022 20338 net.cpp:386] inception_3b/relu_3x3 -> inception_3b/3x3 (in-place)
I0403 15:51:05.834307 20338 net.cpp:141] Setting up inception_3b/relu_3x3
I0403 15:51:05.834336 20338 net.cpp:148] Top shape: 24 192 28 28 (3612672)
I0403 15:51:05.834352 20338 net.cpp:156] Memory required for data: 724943904
I0403 15:51:05.834368 20338 layer_factory.hpp:77] Creating layer inception_3b/5x5_reduce
I0403 15:51:05.834393 20338 net.cpp:91] Creating Layer inception_3b/5x5_reduce
I0403 15:51:05.834410 20338 net.cpp:425] inception_3b/5x5_reduce <- inception_3a/output_inception_3a/output_0_split_2
I0403 15:51:05.834429 20338 net.cpp:399] inception_3b/5x5_reduce -> inception_3b/5x5_reduce
I0403 15:51:05.835470 20338 net.cpp:141] Setting up inception_3b/5x5_reduce
I0403 15:51:05.835502 20338 net.cpp:148] Top shape: 24 32 28 28 (602112)
I0403 15:51:05.835520 20338 net.cpp:156] Memory required for data: 727352352
I0403 15:51:05.835538 20338 layer_factory.hpp:77] Creating layer inception_3b/relu_5x5_reduce
I0403 15:51:05.835556 20338 net.cpp:91] Creating Layer inception_3b/relu_5x5_reduce
I0403 15:51:05.835572 20338 net.cpp:425] inception_3b/relu_5x5_reduce <- inception_3b/5x5_reduce
I0403 15:51:05.835592 20338 net.cpp:386] inception_3b/relu_5x5_reduce -> inception_3b/5x5_reduce (in-place)
I0403 15:51:05.835793 20338 net.cpp:141] Setting up inception_3b/relu_5x5_reduce
I0403 15:51:05.835819 20338 net.cpp:148] Top shape: 24 32 28 28 (602112)
I0403 15:51:05.835834 20338 net.cpp:156] Memory required for data: 729760800
I0403 15:51:05.835849 20338 layer_factory.hpp:77] Creating layer inception_3b/5x5
I0403 15:51:05.835871 20338 net.cpp:91] Creating Layer inception_3b/5x5
I0403 15:51:05.835888 20338 net.cpp:425] inception_3b/5x5 <- inception_3b/5x5_reduce
I0403 15:51:05.835909 20338 net.cpp:399] inception_3b/5x5 -> inception_3b/5x5
I0403 15:51:05.837980 20338 net.cpp:141] Setting up inception_3b/5x5
I0403 15:51:05.838024 20338 net.cpp:148] Top shape: 24 96 28 28 (1806336)
I0403 15:51:05.838042 20338 net.cpp:156] Memory required for data: 736986144
I0403 15:51:05.838060 20338 layer_factory.hpp:77] Creating layer inception_3b/relu_5x5
I0403 15:51:05.838081 20338 net.cpp:91] Creating Layer inception_3b/relu_5x5
I0403 15:51:05.838099 20338 net.cpp:425] inception_3b/relu_5x5 <- inception_3b/5x5
I0403 15:51:05.838117 20338 net.cpp:386] inception_3b/relu_5x5 -> inception_3b/5x5 (in-place)
I0403 15:51:05.838321 20338 net.cpp:141] Setting up inception_3b/relu_5x5
I0403 15:51:05.838346 20338 net.cpp:148] Top shape: 24 96 28 28 (1806336)
I0403 15:51:05.838361 20338 net.cpp:156] Memory required for data: 744211488
I0403 15:51:05.838376 20338 layer_factory.hpp:77] Creating layer inception_3b/pool
I0403 15:51:05.838393 20338 net.cpp:91] Creating Layer inception_3b/pool
I0403 15:51:05.838409 20338 net.cpp:425] inception_3b/pool <- inception_3a/output_inception_3a/output_0_split_3
I0403 15:51:05.838428 20338 net.cpp:399] inception_3b/pool -> inception_3b/pool
I0403 15:51:05.838485 20338 net.cpp:141] Setting up inception_3b/pool
I0403 15:51:05.838510 20338 net.cpp:148] Top shape: 24 256 28 28 (4816896)
I0403 15:51:05.838523 20338 net.cpp:156] Memory required for data: 763479072
I0403 15:51:05.838538 20338 layer_factory.hpp:77] Creating layer inception_3b/pool_proj
I0403 15:51:05.838562 20338 net.cpp:91] Creating Layer inception_3b/pool_proj
I0403 15:51:05.838580 20338 net.cpp:425] inception_3b/pool_proj <- inception_3b/pool
I0403 15:51:05.838599 20338 net.cpp:399] inception_3b/pool_proj -> inception_3b/pool_proj
I0403 15:51:05.839710 20338 net.cpp:141] Setting up inception_3b/pool_proj
I0403 15:51:05.839738 20338 net.cpp:148] Top shape: 24 64 28 28 (1204224)
I0403 15:51:05.839753 20338 net.cpp:156] Memory required for data: 768295968
I0403 15:51:05.839772 20338 layer_factory.hpp:77] Creating layer inception_3b/relu_pool_proj
I0403 15:51:05.839792 20338 net.cpp:91] Creating Layer inception_3b/relu_pool_proj
I0403 15:51:05.839808 20338 net.cpp:425] inception_3b/relu_pool_proj <- inception_3b/pool_proj
I0403 15:51:05.839825 20338 net.cpp:386] inception_3b/relu_pool_proj -> inception_3b/pool_proj (in-place)
I0403 15:51:05.840234 20338 net.cpp:141] Setting up inception_3b/relu_pool_proj
I0403 15:51:05.840260 20338 net.cpp:148] Top shape: 24 64 28 28 (1204224)
I0403 15:51:05.840276 20338 net.cpp:156] Memory required for data: 773112864
I0403 15:51:05.840291 20338 layer_factory.hpp:77] Creating layer inception_3b/output
I0403 15:51:05.840307 20338 net.cpp:91] Creating Layer inception_3b/output
I0403 15:51:05.840322 20338 net.cpp:425] inception_3b/output <- inception_3b/1x1
I0403 15:51:05.840338 20338 net.cpp:425] inception_3b/output <- inception_3b/3x3
I0403 15:51:05.840354 20338 net.cpp:425] inception_3b/output <- inception_3b/5x5
I0403 15:51:05.840369 20338 net.cpp:425] inception_3b/output <- inception_3b/pool_proj
I0403 15:51:05.840389 20338 net.cpp:399] inception_3b/output -> inception_3b/output
I0403 15:51:05.840432 20338 net.cpp:141] Setting up inception_3b/output
I0403 15:51:05.840457 20338 net.cpp:148] Top shape: 24 480 28 28 (9031680)
I0403 15:51:05.840472 20338 net.cpp:156] Memory required for data: 809239584
I0403 15:51:05.840487 20338 layer_factory.hpp:77] Creating layer pool3/3x3_s2
I0403 15:51:05.840504 20338 net.cpp:91] Creating Layer pool3/3x3_s2
I0403 15:51:05.840520 20338 net.cpp:425] pool3/3x3_s2 <- inception_3b/output
I0403 15:51:05.840556 20338 net.cpp:399] pool3/3x3_s2 -> pool3/3x3_s2
I0403 15:51:05.840615 20338 net.cpp:141] Setting up pool3/3x3_s2
I0403 15:51:05.840637 20338 net.cpp:148] Top shape: 24 480 14 14 (2257920)
I0403 15:51:05.840652 20338 net.cpp:156] Memory required for data: 818271264
I0403 15:51:05.840667 20338 layer_factory.hpp:77] Creating layer pool3/3x3_s2_pool3/3x3_s2_0_split
I0403 15:51:05.840685 20338 net.cpp:91] Creating Layer pool3/3x3_s2_pool3/3x3_s2_0_split
I0403 15:51:05.840701 20338 net.cpp:425] pool3/3x3_s2_pool3/3x3_s2_0_split <- pool3/3x3_s2
I0403 15:51:05.840718 20338 net.cpp:399] pool3/3x3_s2_pool3/3x3_s2_0_split -> pool3/3x3_s2_pool3/3x3_s2_0_split_0
I0403 15:51:05.840736 20338 net.cpp:399] pool3/3x3_s2_pool3/3x3_s2_0_split -> pool3/3x3_s2_pool3/3x3_s2_0_split_1
I0403 15:51:05.840755 20338 net.cpp:399] pool3/3x3_s2_pool3/3x3_s2_0_split -> pool3/3x3_s2_pool3/3x3_s2_0_split_2
I0403 15:51:05.840773 20338 net.cpp:399] pool3/3x3_s2_pool3/3x3_s2_0_split -> pool3/3x3_s2_pool3/3x3_s2_0_split_3
I0403 15:51:05.840852 20338 net.cpp:141] Setting up pool3/3x3_s2_pool3/3x3_s2_0_split
I0403 15:51:05.840874 20338 net.cpp:148] Top shape: 24 480 14 14 (2257920)
I0403 15:51:05.840890 20338 net.cpp:148] Top shape: 24 480 14 14 (2257920)
I0403 15:51:05.840905 20338 net.cpp:148] Top shape: 24 480 14 14 (2257920)
I0403 15:51:05.840920 20338 net.cpp:148] Top shape: 24 480 14 14 (2257920)
I0403 15:51:05.840934 20338 net.cpp:156] Memory required for data: 854397984
I0403 15:51:05.840948 20338 layer_factory.hpp:77] Creating layer inception_4a/1x1
I0403 15:51:05.840970 20338 net.cpp:91] Creating Layer inception_4a/1x1
I0403 15:51:05.840992 20338 net.cpp:425] inception_4a/1x1 <- pool3/3x3_s2_pool3/3x3_s2_0_split_0
I0403 15:51:05.841015 20338 net.cpp:399] inception_4a/1x1 -> inception_4a/1x1
I0403 15:51:05.842654 20338 net.cpp:141] Setting up inception_4a/1x1
I0403 15:51:05.842684 20338 net.cpp:148] Top shape: 24 192 14 14 (903168)
I0403 15:51:05.842700 20338 net.cpp:156] Memory required for data: 858010656
I0403 15:51:05.842717 20338 layer_factory.hpp:77] Creating layer inception_4a/relu_1x1
I0403 15:51:05.842737 20338 net.cpp:91] Creating Layer inception_4a/relu_1x1
I0403 15:51:05.842754 20338 net.cpp:425] inception_4a/relu_1x1 <- inception_4a/1x1
I0403 15:51:05.842772 20338 net.cpp:386] inception_4a/relu_1x1 -> inception_4a/1x1 (in-place)
I0403 15:51:05.842949 20338 net.cpp:141] Setting up inception_4a/relu_1x1
I0403 15:51:05.842978 20338 net.cpp:148] Top shape: 24 192 14 14 (903168)
I0403 15:51:05.843000 20338 net.cpp:156] Memory required for data: 861623328
I0403 15:51:05.843015 20338 layer_factory.hpp:77] Creating layer inception_4a/3x3_reduce
I0403 15:51:05.843039 20338 net.cpp:91] Creating Layer inception_4a/3x3_reduce
I0403 15:51:05.843055 20338 net.cpp:425] inception_4a/3x3_reduce <- pool3/3x3_s2_pool3/3x3_s2_0_split_1
I0403 15:51:05.843075 20338 net.cpp:399] inception_4a/3x3_reduce -> inception_4a/3x3_reduce
I0403 15:51:05.844377 20338 net.cpp:141] Setting up inception_4a/3x3_reduce
I0403 15:51:05.844405 20338 net.cpp:148] Top shape: 24 96 14 14 (451584)
I0403 15:51:05.844420 20338 net.cpp:156] Memory required for data: 863429664
I0403 15:51:05.844445 20338 layer_factory.hpp:77] Creating layer inception_4a/relu_3x3_reduce
I0403 15:51:05.844465 20338 net.cpp:91] Creating Layer inception_4a/relu_3x3_reduce
I0403 15:51:05.844480 20338 net.cpp:425] inception_4a/relu_3x3_reduce <- inception_4a/3x3_reduce
I0403 15:51:05.844499 20338 net.cpp:386] inception_4a/relu_3x3_reduce -> inception_4a/3x3_reduce (in-place)
I0403 15:51:05.844679 20338 net.cpp:141] Setting up inception_4a/relu_3x3_reduce
I0403 15:51:05.844704 20338 net.cpp:148] Top shape: 24 96 14 14 (451584)
I0403 15:51:05.844719 20338 net.cpp:156] Memory required for data: 865236000
I0403 15:51:05.844733 20338 layer_factory.hpp:77] Creating layer inception_4a/3x3
I0403 15:51:05.844756 20338 net.cpp:91] Creating Layer inception_4a/3x3
I0403 15:51:05.844772 20338 net.cpp:425] inception_4a/3x3 <- inception_4a/3x3_reduce
I0403 15:51:05.844794 20338 net.cpp:399] inception_4a/3x3 -> inception_4a/3x3
I0403 15:51:05.847568 20338 net.cpp:141] Setting up inception_4a/3x3
I0403 15:51:05.847599 20338 net.cpp:148] Top shape: 24 208 14 14 (978432)
I0403 15:51:05.847614 20338 net.cpp:156] Memory required for data: 869149728
I0403 15:51:05.847631 20338 layer_factory.hpp:77] Creating layer inception_4a/relu_3x3
I0403 15:51:05.847652 20338 net.cpp:91] Creating Layer inception_4a/relu_3x3
I0403 15:51:05.847669 20338 net.cpp:425] inception_4a/relu_3x3 <- inception_4a/3x3
I0403 15:51:05.847687 20338 net.cpp:386] inception_4a/relu_3x3 -> inception_4a/3x3 (in-place)
I0403 15:51:05.847975 20338 net.cpp:141] Setting up inception_4a/relu_3x3
I0403 15:51:05.848013 20338 net.cpp:148] Top shape: 24 208 14 14 (978432)
I0403 15:51:05.848031 20338 net.cpp:156] Memory required for data: 873063456
I0403 15:51:05.848047 20338 layer_factory.hpp:77] Creating layer inception_4a/5x5_reduce
I0403 15:51:05.848072 20338 net.cpp:91] Creating Layer inception_4a/5x5_reduce
I0403 15:51:05.848089 20338 net.cpp:425] inception_4a/5x5_reduce <- pool3/3x3_s2_pool3/3x3_s2_0_split_2
I0403 15:51:05.848109 20338 net.cpp:399] inception_4a/5x5_reduce -> inception_4a/5x5_reduce
I0403 15:51:05.849212 20338 net.cpp:141] Setting up inception_4a/5x5_reduce
I0403 15:51:05.849256 20338 net.cpp:148] Top shape: 24 16 14 14 (75264)
I0403 15:51:05.849272 20338 net.cpp:156] Memory required for data: 873364512
I0403 15:51:05.849290 20338 layer_factory.hpp:77] Creating layer inception_4a/relu_5x5_reduce
I0403 15:51:05.849319 20338 net.cpp:91] Creating Layer inception_4a/relu_5x5_reduce
I0403 15:51:05.849335 20338 net.cpp:425] inception_4a/relu_5x5_reduce <- inception_4a/5x5_reduce
I0403 15:51:05.849354 20338 net.cpp:386] inception_4a/relu_5x5_reduce -> inception_4a/5x5_reduce (in-place)
I0403 15:51:05.849545 20338 net.cpp:141] Setting up inception_4a/relu_5x5_reduce
I0403 15:51:05.849571 20338 net.cpp:148] Top shape: 24 16 14 14 (75264)
I0403 15:51:05.849586 20338 net.cpp:156] Memory required for data: 873665568
I0403 15:51:05.849601 20338 layer_factory.hpp:77] Creating layer inception_4a/5x5
I0403 15:51:05.849635 20338 net.cpp:91] Creating Layer inception_4a/5x5
I0403 15:51:05.849653 20338 net.cpp:425] inception_4a/5x5 <- inception_4a/5x5_reduce
I0403 15:51:05.849686 20338 net.cpp:399] inception_4a/5x5 -> inception_4a/5x5
I0403 15:51:05.850839 20338 net.cpp:141] Setting up inception_4a/5x5
I0403 15:51:05.850867 20338 net.cpp:148] Top shape: 24 48 14 14 (225792)
I0403 15:51:05.850883 20338 net.cpp:156] Memory required for data: 874568736
I0403 15:51:05.850903 20338 layer_factory.hpp:77] Creating layer inception_4a/relu_5x5
I0403 15:51:05.850922 20338 net.cpp:91] Creating Layer inception_4a/relu_5x5
I0403 15:51:05.850939 20338 net.cpp:425] inception_4a/relu_5x5 <- inception_4a/5x5
I0403 15:51:05.850956 20338 net.cpp:386] inception_4a/relu_5x5 -> inception_4a/5x5 (in-place)
I0403 15:51:05.851142 20338 net.cpp:141] Setting up inception_4a/relu_5x5
I0403 15:51:05.851167 20338 net.cpp:148] Top shape: 24 48 14 14 (225792)
I0403 15:51:05.851182 20338 net.cpp:156] Memory required for data: 875471904
I0403 15:51:05.851197 20338 layer_factory.hpp:77] Creating layer inception_4a/pool
I0403 15:51:05.851217 20338 net.cpp:91] Creating Layer inception_4a/pool
I0403 15:51:05.851233 20338 net.cpp:425] inception_4a/pool <- pool3/3x3_s2_pool3/3x3_s2_0_split_3
I0403 15:51:05.851251 20338 net.cpp:399] inception_4a/pool -> inception_4a/pool
I0403 15:51:05.851315 20338 net.cpp:141] Setting up inception_4a/pool
I0403 15:51:05.851337 20338 net.cpp:148] Top shape: 24 480 14 14 (2257920)
I0403 15:51:05.851351 20338 net.cpp:156] Memory required for data: 884503584
I0403 15:51:05.851366 20338 layer_factory.hpp:77] Creating layer inception_4a/pool_proj
I0403 15:51:05.851387 20338 net.cpp:91] Creating Layer inception_4a/pool_proj
I0403 15:51:05.851404 20338 net.cpp:425] inception_4a/pool_proj <- inception_4a/pool
I0403 15:51:05.851425 20338 net.cpp:399] inception_4a/pool_proj -> inception_4a/pool_proj
I0403 15:51:05.852668 20338 net.cpp:141] Setting up inception_4a/pool_proj
I0403 15:51:05.852696 20338 net.cpp:148] Top shape: 24 64 14 14 (301056)
I0403 15:51:05.852726 20338 net.cpp:156] Memory required for data: 885707808
I0403 15:51:05.852746 20338 layer_factory.hpp:77] Creating layer inception_4a/relu_pool_proj
I0403 15:51:05.852769 20338 net.cpp:91] Creating Layer inception_4a/relu_pool_proj
I0403 15:51:05.852787 20338 net.cpp:425] inception_4a/relu_pool_proj <- inception_4a/pool_proj
I0403 15:51:05.852803 20338 net.cpp:386] inception_4a/relu_pool_proj -> inception_4a/pool_proj (in-place)
I0403 15:51:05.853106 20338 net.cpp:141] Setting up inception_4a/relu_pool_proj
I0403 15:51:05.853132 20338 net.cpp:148] Top shape: 24 64 14 14 (301056)
I0403 15:51:05.853147 20338 net.cpp:156] Memory required for data: 886912032
I0403 15:51:05.853162 20338 layer_factory.hpp:77] Creating layer inception_4a/output
I0403 15:51:05.853180 20338 net.cpp:91] Creating Layer inception_4a/output
I0403 15:51:05.853195 20338 net.cpp:425] inception_4a/output <- inception_4a/1x1
I0403 15:51:05.853212 20338 net.cpp:425] inception_4a/output <- inception_4a/3x3
I0403 15:51:05.853227 20338 net.cpp:425] inception_4a/output <- inception_4a/5x5
I0403 15:51:05.853242 20338 net.cpp:425] inception_4a/output <- inception_4a/pool_proj
I0403 15:51:05.853258 20338 net.cpp:399] inception_4a/output -> inception_4a/output
I0403 15:51:05.853315 20338 net.cpp:141] Setting up inception_4a/output
I0403 15:51:05.853340 20338 net.cpp:148] Top shape: 24 512 14 14 (2408448)
I0403 15:51:05.853356 20338 net.cpp:156] Memory required for data: 896545824
I0403 15:51:05.853371 20338 layer_factory.hpp:77] Creating layer inception_4a/output_inception_4a/output_0_split
I0403 15:51:05.853389 20338 net.cpp:91] Creating Layer inception_4a/output_inception_4a/output_0_split
I0403 15:51:05.853404 20338 net.cpp:425] inception_4a/output_inception_4a/output_0_split <- inception_4a/output
I0403 15:51:05.853425 20338 net.cpp:399] inception_4a/output_inception_4a/output_0_split -> inception_4a/output_inception_4a/output_0_split_0
I0403 15:51:05.853446 20338 net.cpp:399] inception_4a/output_inception_4a/output_0_split -> inception_4a/output_inception_4a/output_0_split_1
I0403 15:51:05.853464 20338 net.cpp:399] inception_4a/output_inception_4a/output_0_split -> inception_4a/output_inception_4a/output_0_split_2
I0403 15:51:05.853484 20338 net.cpp:399] inception_4a/output_inception_4a/output_0_split -> inception_4a/output_inception_4a/output_0_split_3
I0403 15:51:05.853504 20338 net.cpp:399] inception_4a/output_inception_4a/output_0_split -> inception_4a/output_inception_4a/output_0_split_4
I0403 15:51:05.853607 20338 net.cpp:141] Setting up inception_4a/output_inception_4a/output_0_split
I0403 15:51:05.853631 20338 net.cpp:148] Top shape: 24 512 14 14 (2408448)
I0403 15:51:05.853651 20338 net.cpp:148] Top shape: 24 512 14 14 (2408448)
I0403 15:51:05.853665 20338 net.cpp:148] Top shape: 24 512 14 14 (2408448)
I0403 15:51:05.853682 20338 net.cpp:148] Top shape: 24 512 14 14 (2408448)
I0403 15:51:05.853695 20338 net.cpp:148] Top shape: 24 512 14 14 (2408448)
I0403 15:51:05.853708 20338 net.cpp:156] Memory required for data: 944714784
I0403 15:51:05.853723 20338 layer_factory.hpp:77] Creating layer loss1/ave_pool
I0403 15:51:05.853739 20338 net.cpp:91] Creating Layer loss1/ave_pool
I0403 15:51:05.853754 20338 net.cpp:425] loss1/ave_pool <- inception_4a/output_inception_4a/output_0_split_0
I0403 15:51:05.853773 20338 net.cpp:399] loss1/ave_pool -> loss1/ave_pool
I0403 15:51:05.853981 20338 net.cpp:141] Setting up loss1/ave_pool
I0403 15:51:05.854012 20338 net.cpp:148] Top shape: 24 512 4 4 (196608)
I0403 15:51:05.854027 20338 net.cpp:156] Memory required for data: 945501216
I0403 15:51:05.854040 20338 layer_factory.hpp:77] Creating layer loss1/conv
I0403 15:51:05.854063 20338 net.cpp:91] Creating Layer loss1/conv
I0403 15:51:05.854079 20338 net.cpp:425] loss1/conv <- loss1/ave_pool
I0403 15:51:05.854099 20338 net.cpp:399] loss1/conv -> loss1/conv
I0403 15:51:05.855509 20338 net.cpp:141] Setting up loss1/conv
I0403 15:51:05.855537 20338 net.cpp:148] Top shape: 24 128 4 4 (49152)
I0403 15:51:05.855566 20338 net.cpp:156] Memory required for data: 945697824
I0403 15:51:05.855586 20338 layer_factory.hpp:77] Creating layer loss1/relu_conv
I0403 15:51:05.855607 20338 net.cpp:91] Creating Layer loss1/relu_conv
I0403 15:51:05.855623 20338 net.cpp:425] loss1/relu_conv <- loss1/conv
I0403 15:51:05.855638 20338 net.cpp:386] loss1/relu_conv -> loss1/conv (in-place)
I0403 15:51:05.855919 20338 net.cpp:141] Setting up loss1/relu_conv
I0403 15:51:05.855945 20338 net.cpp:148] Top shape: 24 128 4 4 (49152)
I0403 15:51:05.855959 20338 net.cpp:156] Memory required for data: 945894432
I0403 15:51:05.855973 20338 layer_factory.hpp:77] Creating layer loss1/fc
I0403 15:51:05.856003 20338 net.cpp:91] Creating Layer loss1/fc
I0403 15:51:05.856022 20338 net.cpp:425] loss1/fc <- loss1/conv
I0403 15:51:05.856042 20338 net.cpp:399] loss1/fc -> loss1/fc
I0403 15:51:05.874671 20338 net.cpp:141] Setting up loss1/fc
I0403 15:51:05.874712 20338 net.cpp:148] Top shape: 24 1024 (24576)
I0403 15:51:05.874728 20338 net.cpp:156] Memory required for data: 945992736
I0403 15:51:05.874748 20338 layer_factory.hpp:77] Creating layer loss1/relu_fc
I0403 15:51:05.874775 20338 net.cpp:91] Creating Layer loss1/relu_fc
I0403 15:51:05.874794 20338 net.cpp:425] loss1/relu_fc <- loss1/fc
I0403 15:51:05.874812 20338 net.cpp:386] loss1/relu_fc -> loss1/fc (in-place)
I0403 15:51:05.875038 20338 net.cpp:141] Setting up loss1/relu_fc
I0403 15:51:05.875066 20338 net.cpp:148] Top shape: 24 1024 (24576)
I0403 15:51:05.875082 20338 net.cpp:156] Memory required for data: 946091040
I0403 15:51:05.875097 20338 layer_factory.hpp:77] Creating layer loss1/drop_fc
I0403 15:51:05.875126 20338 net.cpp:91] Creating Layer loss1/drop_fc
I0403 15:51:05.875144 20338 net.cpp:425] loss1/drop_fc <- loss1/fc
I0403 15:51:05.875162 20338 net.cpp:386] loss1/drop_fc -> loss1/fc (in-place)
I0403 15:51:05.875218 20338 net.cpp:141] Setting up loss1/drop_fc
I0403 15:51:05.875242 20338 net.cpp:148] Top shape: 24 1024 (24576)
I0403 15:51:05.875257 20338 net.cpp:156] Memory required for data: 946189344
I0403 15:51:05.875272 20338 layer_factory.hpp:77] Creating layer loss1/classifier_plantvillage
I0403 15:51:05.875293 20338 net.cpp:91] Creating Layer loss1/classifier_plantvillage
I0403 15:51:05.875308 20338 net.cpp:425] loss1/classifier_plantvillage <- loss1/fc
I0403 15:51:05.875330 20338 net.cpp:399] loss1/classifier_plantvillage -> loss1/classifier_plantvillage
I0403 15:51:05.876312 20338 net.cpp:141] Setting up loss1/classifier_plantvillage
I0403 15:51:05.876343 20338 net.cpp:148] Top shape: 24 38 (912)
I0403 15:51:05.876358 20338 net.cpp:156] Memory required for data: 946192992
I0403 15:51:05.876377 20338 layer_factory.hpp:77] Creating layer loss1/classifier_plantvillage_loss1/classifier_plantvillage_0_split
I0403 15:51:05.876399 20338 net.cpp:91] Creating Layer loss1/classifier_plantvillage_loss1/classifier_plantvillage_0_split
I0403 15:51:05.876416 20338 net.cpp:425] loss1/classifier_plantvillage_loss1/classifier_plantvillage_0_split <- loss1/classifier_plantvillage
I0403 15:51:05.876435 20338 net.cpp:399] loss1/classifier_plantvillage_loss1/classifier_plantvillage_0_split -> loss1/classifier_plantvillage_loss1/classifier_plantvillage_0_split_0
I0403 15:51:05.876457 20338 net.cpp:399] loss1/classifier_plantvillage_loss1/classifier_plantvillage_0_split -> loss1/classifier_plantvillage_loss1/classifier_plantvillage_0_split_1
I0403 15:51:05.876477 20338 net.cpp:399] loss1/classifier_plantvillage_loss1/classifier_plantvillage_0_split -> loss1/classifier_plantvillage_loss1/classifier_plantvillage_0_split_2
I0403 15:51:05.876550 20338 net.cpp:141] Setting up loss1/classifier_plantvillage_loss1/classifier_plantvillage_0_split
I0403 15:51:05.876574 20338 net.cpp:148] Top shape: 24 38 (912)
I0403 15:51:05.876591 20338 net.cpp:148] Top shape: 24 38 (912)
I0403 15:51:05.876606 20338 net.cpp:148] Top shape: 24 38 (912)
I0403 15:51:05.876621 20338 net.cpp:156] Memory required for data: 946203936
I0403 15:51:05.876636 20338 layer_factory.hpp:77] Creating layer inception_4b/1x1
I0403 15:51:05.876659 20338 net.cpp:91] Creating Layer inception_4b/1x1
I0403 15:51:05.876703 20338 net.cpp:425] inception_4b/1x1 <- inception_4a/output_inception_4a/output_0_split_1
I0403 15:51:05.876725 20338 net.cpp:399] inception_4b/1x1 -> inception_4b/1x1
I0403 15:51:05.878525 20338 net.cpp:141] Setting up inception_4b/1x1
I0403 15:51:05.878557 20338 net.cpp:148] Top shape: 24 160 14 14 (752640)
I0403 15:51:05.878574 20338 net.cpp:156] Memory required for data: 949214496
I0403 15:51:05.878593 20338 layer_factory.hpp:77] Creating layer inception_4b/relu_1x1
I0403 15:51:05.878612 20338 net.cpp:91] Creating Layer inception_4b/relu_1x1
I0403 15:51:05.878628 20338 net.cpp:425] inception_4b/relu_1x1 <- inception_4b/1x1
I0403 15:51:05.878648 20338 net.cpp:386] inception_4b/relu_1x1 -> inception_4b/1x1 (in-place)
I0403 15:51:05.878841 20338 net.cpp:141] Setting up inception_4b/relu_1x1
I0403 15:51:05.878868 20338 net.cpp:148] Top shape: 24 160 14 14 (752640)
I0403 15:51:05.878883 20338 net.cpp:156] Memory required for data: 952225056
I0403 15:51:05.878898 20338 layer_factory.hpp:77] Creating layer inception_4b/3x3_reduce
I0403 15:51:05.878924 20338 net.cpp:91] Creating Layer inception_4b/3x3_reduce
I0403 15:51:05.878943 20338 net.cpp:425] inception_4b/3x3_reduce <- inception_4a/output_inception_4a/output_0_split_2
I0403 15:51:05.878965 20338 net.cpp:399] inception_4b/3x3_reduce -> inception_4b/3x3_reduce
I0403 15:51:05.880424 20338 net.cpp:141] Setting up inception_4b/3x3_reduce
I0403 15:51:05.880452 20338 net.cpp:148] Top shape: 24 112 14 14 (526848)
I0403 15:51:05.880468 20338 net.cpp:156] Memory required for data: 954332448
I0403 15:51:05.880487 20338 layer_factory.hpp:77] Creating layer inception_4b/relu_3x3_reduce
I0403 15:51:05.880506 20338 net.cpp:91] Creating Layer inception_4b/relu_3x3_reduce
I0403 15:51:05.880522 20338 net.cpp:425] inception_4b/relu_3x3_reduce <- inception_4b/3x3_reduce
I0403 15:51:05.880542 20338 net.cpp:386] inception_4b/relu_3x3_reduce -> inception_4b/3x3_reduce (in-place)
I0403 15:51:05.880852 20338 net.cpp:141] Setting up inception_4b/relu_3x3_reduce
I0403 15:51:05.880879 20338 net.cpp:148] Top shape: 24 112 14 14 (526848)
I0403 15:51:05.880894 20338 net.cpp:156] Memory required for data: 956439840
I0403 15:51:05.880910 20338 layer_factory.hpp:77] Creating layer inception_4b/3x3
I0403 15:51:05.880934 20338 net.cpp:91] Creating Layer inception_4b/3x3
I0403 15:51:05.880951 20338 net.cpp:425] inception_4b/3x3 <- inception_4b/3x3_reduce
I0403 15:51:05.880973 20338 net.cpp:399] inception_4b/3x3 -> inception_4b/3x3
I0403 15:51:05.884157 20338 net.cpp:141] Setting up inception_4b/3x3
I0403 15:51:05.884188 20338 net.cpp:148] Top shape: 24 224 14 14 (1053696)
I0403 15:51:05.884203 20338 net.cpp:156] Memory required for data: 960654624
I0403 15:51:05.884223 20338 layer_factory.hpp:77] Creating layer inception_4b/relu_3x3
I0403 15:51:05.884244 20338 net.cpp:91] Creating Layer inception_4b/relu_3x3
I0403 15:51:05.884261 20338 net.cpp:425] inception_4b/relu_3x3 <- inception_4b/3x3
I0403 15:51:05.884279 20338 net.cpp:386] inception_4b/relu_3x3 -> inception_4b/3x3 (in-place)
I0403 15:51:05.884469 20338 net.cpp:141] Setting up inception_4b/relu_3x3
I0403 15:51:05.884498 20338 net.cpp:148] Top shape: 24 224 14 14 (1053696)
I0403 15:51:05.884515 20338 net.cpp:156] Memory required for data: 964869408
I0403 15:51:05.884529 20338 layer_factory.hpp:77] Creating layer inception_4b/5x5_reduce
I0403 15:51:05.884553 20338 net.cpp:91] Creating Layer inception_4b/5x5_reduce
I0403 15:51:05.884572 20338 net.cpp:425] inception_4b/5x5_reduce <- inception_4a/output_inception_4a/output_0_split_3
I0403 15:51:05.884590 20338 net.cpp:399] inception_4b/5x5_reduce -> inception_4b/5x5_reduce
I0403 15:51:05.885742 20338 net.cpp:141] Setting up inception_4b/5x5_reduce
I0403 15:51:05.885773 20338 net.cpp:148] Top shape: 24 24 14 14 (112896)
I0403 15:51:05.885789 20338 net.cpp:156] Memory required for data: 965320992
I0403 15:51:05.885809 20338 layer_factory.hpp:77] Creating layer inception_4b/relu_5x5_reduce
I0403 15:51:05.885828 20338 net.cpp:91] Creating Layer inception_4b/relu_5x5_reduce
I0403 15:51:05.885860 20338 net.cpp:425] inception_4b/relu_5x5_reduce <- inception_4b/5x5_reduce
I0403 15:51:05.885882 20338 net.cpp:386] inception_4b/relu_5x5_reduce -> inception_4b/5x5_reduce (in-place)
I0403 15:51:05.886086 20338 net.cpp:141] Setting up inception_4b/relu_5x5_reduce
I0403 15:51:05.886112 20338 net.cpp:148] Top shape: 24 24 14 14 (112896)
I0403 15:51:05.886128 20338 net.cpp:156] Memory required for data: 965772576
I0403 15:51:05.886143 20338 layer_factory.hpp:77] Creating layer inception_4b/5x5
I0403 15:51:05.886167 20338 net.cpp:91] Creating Layer inception_4b/5x5
I0403 15:51:05.886183 20338 net.cpp:425] inception_4b/5x5 <- inception_4b/5x5_reduce
I0403 15:51:05.886205 20338 net.cpp:399] inception_4b/5x5 -> inception_4b/5x5
I0403 15:51:05.887508 20338 net.cpp:141] Setting up inception_4b/5x5
I0403 15:51:05.887542 20338 net.cpp:148] Top shape: 24 64 14 14 (301056)
I0403 15:51:05.887559 20338 net.cpp:156] Memory required for data: 966976800
I0403 15:51:05.887578 20338 layer_factory.hpp:77] Creating layer inception_4b/relu_5x5
I0403 15:51:05.887598 20338 net.cpp:91] Creating Layer inception_4b/relu_5x5
I0403 15:51:05.887614 20338 net.cpp:425] inception_4b/relu_5x5 <- inception_4b/5x5
I0403 15:51:05.887634 20338 net.cpp:386] inception_4b/relu_5x5 -> inception_4b/5x5 (in-place)
I0403 15:51:05.887933 20338 net.cpp:141] Setting up inception_4b/relu_5x5
I0403 15:51:05.887964 20338 net.cpp:148] Top shape: 24 64 14 14 (301056)
I0403 15:51:05.887979 20338 net.cpp:156] Memory required for data: 968181024
I0403 15:51:05.888010 20338 layer_factory.hpp:77] Creating layer inception_4b/pool
I0403 15:51:05.888032 20338 net.cpp:91] Creating Layer inception_4b/pool
I0403 15:51:05.888049 20338 net.cpp:425] inception_4b/pool <- inception_4a/output_inception_4a/output_0_split_4
I0403 15:51:05.888070 20338 net.cpp:399] inception_4b/pool -> inception_4b/pool
I0403 15:51:05.888139 20338 net.cpp:141] Setting up inception_4b/pool
I0403 15:51:05.888164 20338 net.cpp:148] Top shape: 24 512 14 14 (2408448)
I0403 15:51:05.888178 20338 net.cpp:156] Memory required for data: 977814816
I0403 15:51:05.888193 20338 layer_factory.hpp:77] Creating layer inception_4b/pool_proj
I0403 15:51:05.888216 20338 net.cpp:91] Creating Layer inception_4b/pool_proj
I0403 15:51:05.888233 20338 net.cpp:425] inception_4b/pool_proj <- inception_4b/pool
I0403 15:51:05.888254 20338 net.cpp:399] inception_4b/pool_proj -> inception_4b/pool_proj
I0403 15:51:05.889533 20338 net.cpp:141] Setting up inception_4b/pool_proj
I0403 15:51:05.889564 20338 net.cpp:148] Top shape: 24 64 14 14 (301056)
I0403 15:51:05.889580 20338 net.cpp:156] Memory required for data: 979019040
I0403 15:51:05.889600 20338 layer_factory.hpp:77] Creating layer inception_4b/relu_pool_proj
I0403 15:51:05.889618 20338 net.cpp:91] Creating Layer inception_4b/relu_pool_proj
I0403 15:51:05.889634 20338 net.cpp:425] inception_4b/relu_pool_proj <- inception_4b/pool_proj
I0403 15:51:05.889654 20338 net.cpp:386] inception_4b/relu_pool_proj -> inception_4b/pool_proj (in-place)
I0403 15:51:05.889844 20338 net.cpp:141] Setting up inception_4b/relu_pool_proj
I0403 15:51:05.889870 20338 net.cpp:148] Top shape: 24 64 14 14 (301056)
I0403 15:51:05.889885 20338 net.cpp:156] Memory required for data: 980223264
I0403 15:51:05.889900 20338 layer_factory.hpp:77] Creating layer inception_4b/output
I0403 15:51:05.889919 20338 net.cpp:91] Creating Layer inception_4b/output
I0403 15:51:05.889935 20338 net.cpp:425] inception_4b/output <- inception_4b/1x1
I0403 15:51:05.889950 20338 net.cpp:425] inception_4b/output <- inception_4b/3x3
I0403 15:51:05.889967 20338 net.cpp:425] inception_4b/output <- inception_4b/5x5
I0403 15:51:05.889983 20338 net.cpp:425] inception_4b/output <- inception_4b/pool_proj
I0403 15:51:05.890009 20338 net.cpp:399] inception_4b/output -> inception_4b/output
I0403 15:51:05.890059 20338 net.cpp:141] Setting up inception_4b/output
I0403 15:51:05.890086 20338 net.cpp:148] Top shape: 24 512 14 14 (2408448)
I0403 15:51:05.890102 20338 net.cpp:156] Memory required for data: 989857056
I0403 15:51:05.890133 20338 layer_factory.hpp:77] Creating layer inception_4b/output_inception_4b/output_0_split
I0403 15:51:05.890151 20338 net.cpp:91] Creating Layer inception_4b/output_inception_4b/output_0_split
I0403 15:51:05.890167 20338 net.cpp:425] inception_4b/output_inception_4b/output_0_split <- inception_4b/output
I0403 15:51:05.890185 20338 net.cpp:399] inception_4b/output_inception_4b/output_0_split -> inception_4b/output_inception_4b/output_0_split_0
I0403 15:51:05.890208 20338 net.cpp:399] inception_4b/output_inception_4b/output_0_split -> inception_4b/output_inception_4b/output_0_split_1
I0403 15:51:05.890230 20338 net.cpp:399] inception_4b/output_inception_4b/output_0_split -> inception_4b/output_inception_4b/output_0_split_2
I0403 15:51:05.890251 20338 net.cpp:399] inception_4b/output_inception_4b/output_0_split -> inception_4b/output_inception_4b/output_0_split_3
I0403 15:51:05.890342 20338 net.cpp:141] Setting up inception_4b/output_inception_4b/output_0_split
I0403 15:51:05.890367 20338 net.cpp:148] Top shape: 24 512 14 14 (2408448)
I0403 15:51:05.890383 20338 net.cpp:148] Top shape: 24 512 14 14 (2408448)
I0403 15:51:05.890399 20338 net.cpp:148] Top shape: 24 512 14 14 (2408448)
I0403 15:51:05.890415 20338 net.cpp:148] Top shape: 24 512 14 14 (2408448)
I0403 15:51:05.890429 20338 net.cpp:156] Memory required for data: 1028392224
I0403 15:51:05.890444 20338 layer_factory.hpp:77] Creating layer inception_4c/1x1
I0403 15:51:05.890470 20338 net.cpp:91] Creating Layer inception_4c/1x1
I0403 15:51:05.890487 20338 net.cpp:425] inception_4c/1x1 <- inception_4b/output_inception_4b/output_0_split_0
I0403 15:51:05.890506 20338 net.cpp:399] inception_4c/1x1 -> inception_4c/1x1
I0403 15:51:05.892047 20338 net.cpp:141] Setting up inception_4c/1x1
I0403 15:51:05.892076 20338 net.cpp:148] Top shape: 24 128 14 14 (602112)
I0403 15:51:05.892093 20338 net.cpp:156] Memory required for data: 1030800672
I0403 15:51:05.892112 20338 layer_factory.hpp:77] Creating layer inception_4c/relu_1x1
I0403 15:51:05.892133 20338 net.cpp:91] Creating Layer inception_4c/relu_1x1
I0403 15:51:05.892153 20338 net.cpp:425] inception_4c/relu_1x1 <- inception_4c/1x1
I0403 15:51:05.892170 20338 net.cpp:386] inception_4c/relu_1x1 -> inception_4c/1x1 (in-place)
I0403 15:51:05.892359 20338 net.cpp:141] Setting up inception_4c/relu_1x1
I0403 15:51:05.892385 20338 net.cpp:148] Top shape: 24 128 14 14 (602112)
I0403 15:51:05.892402 20338 net.cpp:156] Memory required for data: 1033209120
I0403 15:51:05.892417 20338 layer_factory.hpp:77] Creating layer inception_4c/3x3_reduce
I0403 15:51:05.892438 20338 net.cpp:91] Creating Layer inception_4c/3x3_reduce
I0403 15:51:05.892455 20338 net.cpp:425] inception_4c/3x3_reduce <- inception_4b/output_inception_4b/output_0_split_1
I0403 15:51:05.892477 20338 net.cpp:399] inception_4c/3x3_reduce -> inception_4c/3x3_reduce
I0403 15:51:05.894562 20338 net.cpp:141] Setting up inception_4c/3x3_reduce
I0403 15:51:05.894593 20338 net.cpp:148] Top shape: 24 128 14 14 (602112)
I0403 15:51:05.894610 20338 net.cpp:156] Memory required for data: 1035617568
I0403 15:51:05.894629 20338 layer_factory.hpp:77] Creating layer inception_4c/relu_3x3_reduce
I0403 15:51:05.894647 20338 net.cpp:91] Creating Layer inception_4c/relu_3x3_reduce
I0403 15:51:05.894662 20338 net.cpp:425] inception_4c/relu_3x3_reduce <- inception_4c/3x3_reduce
I0403 15:51:05.894680 20338 net.cpp:386] inception_4c/relu_3x3_reduce -> inception_4c/3x3_reduce (in-place)
I0403 15:51:05.894975 20338 net.cpp:141] Setting up inception_4c/relu_3x3_reduce
I0403 15:51:05.895009 20338 net.cpp:148] Top shape: 24 128 14 14 (602112)
I0403 15:51:05.895025 20338 net.cpp:156] Memory required for data: 1038026016
I0403 15:51:05.895041 20338 layer_factory.hpp:77] Creating layer inception_4c/3x3
I0403 15:51:05.895066 20338 net.cpp:91] Creating Layer inception_4c/3x3
I0403 15:51:05.895083 20338 net.cpp:425] inception_4c/3x3 <- inception_4c/3x3_reduce
I0403 15:51:05.895102 20338 net.cpp:399] inception_4c/3x3 -> inception_4c/3x3
I0403 15:51:05.898916 20338 net.cpp:141] Setting up inception_4c/3x3
I0403 15:51:05.898962 20338 net.cpp:148] Top shape: 24 256 14 14 (1204224)
I0403 15:51:05.898979 20338 net.cpp:156] Memory required for data: 1042842912
I0403 15:51:05.899027 20338 layer_factory.hpp:77] Creating layer inception_4c/relu_3x3
I0403 15:51:05.899050 20338 net.cpp:91] Creating Layer inception_4c/relu_3x3
I0403 15:51:05.899066 20338 net.cpp:425] inception_4c/relu_3x3 <- inception_4c/3x3
I0403 15:51:05.899087 20338 net.cpp:386] inception_4c/relu_3x3 -> inception_4c/3x3 (in-place)
I0403 15:51:05.899278 20338 net.cpp:141] Setting up inception_4c/relu_3x3
I0403 15:51:05.899307 20338 net.cpp:148] Top shape: 24 256 14 14 (1204224)
I0403 15:51:05.899322 20338 net.cpp:156] Memory required for data: 1047659808
I0403 15:51:05.899338 20338 layer_factory.hpp:77] Creating layer inception_4c/5x5_reduce
I0403 15:51:05.899363 20338 net.cpp:91] Creating Layer inception_4c/5x5_reduce
I0403 15:51:05.899380 20338 net.cpp:425] inception_4c/5x5_reduce <- inception_4b/output_inception_4b/output_0_split_2
I0403 15:51:05.899402 20338 net.cpp:399] inception_4c/5x5_reduce -> inception_4c/5x5_reduce
I0403 15:51:05.900552 20338 net.cpp:141] Setting up inception_4c/5x5_reduce
I0403 15:51:05.900584 20338 net.cpp:148] Top shape: 24 24 14 14 (112896)
I0403 15:51:05.900601 20338 net.cpp:156] Memory required for data: 1048111392
I0403 15:51:05.900621 20338 layer_factory.hpp:77] Creating layer inception_4c/relu_5x5_reduce
I0403 15:51:05.900640 20338 net.cpp:91] Creating Layer inception_4c/relu_5x5_reduce
I0403 15:51:05.900656 20338 net.cpp:425] inception_4c/relu_5x5_reduce <- inception_4c/5x5_reduce
I0403 15:51:05.900676 20338 net.cpp:386] inception_4c/relu_5x5_reduce -> inception_4c/5x5_reduce (in-place)
I0403 15:51:05.900871 20338 net.cpp:141] Setting up inception_4c/relu_5x5_reduce
I0403 15:51:05.900897 20338 net.cpp:148] Top shape: 24 24 14 14 (112896)
I0403 15:51:05.900912 20338 net.cpp:156] Memory required for data: 1048562976
I0403 15:51:05.900926 20338 layer_factory.hpp:77] Creating layer inception_4c/5x5
I0403 15:51:05.900949 20338 net.cpp:91] Creating Layer inception_4c/5x5
I0403 15:51:05.900966 20338 net.cpp:425] inception_4c/5x5 <- inception_4c/5x5_reduce
I0403 15:51:05.900992 20338 net.cpp:399] inception_4c/5x5 -> inception_4c/5x5
I0403 15:51:05.902305 20338 net.cpp:141] Setting up inception_4c/5x5
I0403 15:51:05.902334 20338 net.cpp:148] Top shape: 24 64 14 14 (301056)
I0403 15:51:05.902350 20338 net.cpp:156] Memory required for data: 1049767200
I0403 15:51:05.902369 20338 layer_factory.hpp:77] Creating layer inception_4c/relu_5x5
I0403 15:51:05.902387 20338 net.cpp:91] Creating Layer inception_4c/relu_5x5
I0403 15:51:05.902403 20338 net.cpp:425] inception_4c/relu_5x5 <- inception_4c/5x5
I0403 15:51:05.902423 20338 net.cpp:386] inception_4c/relu_5x5 -> inception_4c/5x5 (in-place)
I0403 15:51:05.902729 20338 net.cpp:141] Setting up inception_4c/relu_5x5
I0403 15:51:05.902757 20338 net.cpp:148] Top shape: 24 64 14 14 (301056)
I0403 15:51:05.902772 20338 net.cpp:156] Memory required for data: 1050971424
I0403 15:51:05.902787 20338 layer_factory.hpp:77] Creating layer inception_4c/pool
I0403 15:51:05.902806 20338 net.cpp:91] Creating Layer inception_4c/pool
I0403 15:51:05.902822 20338 net.cpp:425] inception_4c/pool <- inception_4b/output_inception_4b/output_0_split_3
I0403 15:51:05.902845 20338 net.cpp:399] inception_4c/pool -> inception_4c/pool
I0403 15:51:05.902915 20338 net.cpp:141] Setting up inception_4c/pool
I0403 15:51:05.902940 20338 net.cpp:148] Top shape: 24 512 14 14 (2408448)
I0403 15:51:05.902956 20338 net.cpp:156] Memory required for data: 1060605216
I0403 15:51:05.902969 20338 layer_factory.hpp:77] Creating layer inception_4c/pool_proj
I0403 15:51:05.902997 20338 net.cpp:91] Creating Layer inception_4c/pool_proj
I0403 15:51:05.903017 20338 net.cpp:425] inception_4c/pool_proj <- inception_4c/pool
I0403 15:51:05.903036 20338 net.cpp:399] inception_4c/pool_proj -> inception_4c/pool_proj
I0403 15:51:05.904337 20338 net.cpp:141] Setting up inception_4c/pool_proj
I0403 15:51:05.904369 20338 net.cpp:148] Top shape: 24 64 14 14 (301056)
I0403 15:51:05.904400 20338 net.cpp:156] Memory required for data: 1061809440
I0403 15:51:05.904422 20338 layer_factory.hpp:77] Creating layer inception_4c/relu_pool_proj
I0403 15:51:05.904440 20338 net.cpp:91] Creating Layer inception_4c/relu_pool_proj
I0403 15:51:05.904456 20338 net.cpp:425] inception_4c/relu_pool_proj <- inception_4c/pool_proj
I0403 15:51:05.904477 20338 net.cpp:386] inception_4c/relu_pool_proj -> inception_4c/pool_proj (in-place)
I0403 15:51:05.904670 20338 net.cpp:141] Setting up inception_4c/relu_pool_proj
I0403 15:51:05.904695 20338 net.cpp:148] Top shape: 24 64 14 14 (301056)
I0403 15:51:05.904709 20338 net.cpp:156] Memory required for data: 1063013664
I0403 15:51:05.904724 20338 layer_factory.hpp:77] Creating layer inception_4c/output
I0403 15:51:05.904742 20338 net.cpp:91] Creating Layer inception_4c/output
I0403 15:51:05.904757 20338 net.cpp:425] inception_4c/output <- inception_4c/1x1
I0403 15:51:05.904774 20338 net.cpp:425] inception_4c/output <- inception_4c/3x3
I0403 15:51:05.904790 20338 net.cpp:425] inception_4c/output <- inception_4c/5x5
I0403 15:51:05.904806 20338 net.cpp:425] inception_4c/output <- inception_4c/pool_proj
I0403 15:51:05.904825 20338 net.cpp:399] inception_4c/output -> inception_4c/output
I0403 15:51:05.904875 20338 net.cpp:141] Setting up inception_4c/output
I0403 15:51:05.904901 20338 net.cpp:148] Top shape: 24 512 14 14 (2408448)
I0403 15:51:05.904917 20338 net.cpp:156] Memory required for data: 1072647456
I0403 15:51:05.904930 20338 layer_factory.hpp:77] Creating layer inception_4c/output_inception_4c/output_0_split
I0403 15:51:05.904947 20338 net.cpp:91] Creating Layer inception_4c/output_inception_4c/output_0_split
I0403 15:51:05.904963 20338 net.cpp:425] inception_4c/output_inception_4c/output_0_split <- inception_4c/output
I0403 15:51:05.904980 20338 net.cpp:399] inception_4c/output_inception_4c/output_0_split -> inception_4c/output_inception_4c/output_0_split_0
I0403 15:51:05.905010 20338 net.cpp:399] inception_4c/output_inception_4c/output_0_split -> inception_4c/output_inception_4c/output_0_split_1
I0403 15:51:05.905032 20338 net.cpp:399] inception_4c/output_inception_4c/output_0_split -> inception_4c/output_inception_4c/output_0_split_2
I0403 15:51:05.905053 20338 net.cpp:399] inception_4c/output_inception_4c/output_0_split -> inception_4c/output_inception_4c/output_0_split_3
I0403 15:51:05.905144 20338 net.cpp:141] Setting up inception_4c/output_inception_4c/output_0_split
I0403 15:51:05.905169 20338 net.cpp:148] Top shape: 24 512 14 14 (2408448)
I0403 15:51:05.905185 20338 net.cpp:148] Top shape: 24 512 14 14 (2408448)
I0403 15:51:05.905200 20338 net.cpp:148] Top shape: 24 512 14 14 (2408448)
I0403 15:51:05.905217 20338 net.cpp:148] Top shape: 24 512 14 14 (2408448)
I0403 15:51:05.905231 20338 net.cpp:156] Memory required for data: 1111182624
I0403 15:51:05.905246 20338 layer_factory.hpp:77] Creating layer inception_4d/1x1
I0403 15:51:05.905272 20338 net.cpp:91] Creating Layer inception_4d/1x1
I0403 15:51:05.905288 20338 net.cpp:425] inception_4d/1x1 <- inception_4c/output_inception_4c/output_0_split_0
I0403 15:51:05.905308 20338 net.cpp:399] inception_4d/1x1 -> inception_4d/1x1
I0403 15:51:05.906764 20338 net.cpp:141] Setting up inception_4d/1x1
I0403 15:51:05.906792 20338 net.cpp:148] Top shape: 24 112 14 14 (526848)
I0403 15:51:05.906808 20338 net.cpp:156] Memory required for data: 1113290016
I0403 15:51:05.906839 20338 layer_factory.hpp:77] Creating layer inception_4d/relu_1x1
I0403 15:51:05.906859 20338 net.cpp:91] Creating Layer inception_4d/relu_1x1
I0403 15:51:05.906877 20338 net.cpp:425] inception_4d/relu_1x1 <- inception_4d/1x1
I0403 15:51:05.906893 20338 net.cpp:386] inception_4d/relu_1x1 -> inception_4d/1x1 (in-place)
I0403 15:51:05.907088 20338 net.cpp:141] Setting up inception_4d/relu_1x1
I0403 15:51:05.907115 20338 net.cpp:148] Top shape: 24 112 14 14 (526848)
I0403 15:51:05.907130 20338 net.cpp:156] Memory required for data: 1115397408
I0403 15:51:05.907146 20338 layer_factory.hpp:77] Creating layer inception_4d/3x3_reduce
I0403 15:51:05.907182 20338 net.cpp:91] Creating Layer inception_4d/3x3_reduce
I0403 15:51:05.907202 20338 net.cpp:425] inception_4d/3x3_reduce <- inception_4c/output_inception_4c/output_0_split_1
I0403 15:51:05.907222 20338 net.cpp:399] inception_4d/3x3_reduce -> inception_4d/3x3_reduce
I0403 15:51:05.908773 20338 net.cpp:141] Setting up inception_4d/3x3_reduce
I0403 15:51:05.908802 20338 net.cpp:148] Top shape: 24 144 14 14 (677376)
I0403 15:51:05.908818 20338 net.cpp:156] Memory required for data: 1118106912
I0403 15:51:05.908835 20338 layer_factory.hpp:77] Creating layer inception_4d/relu_3x3_reduce
I0403 15:51:05.908856 20338 net.cpp:91] Creating Layer inception_4d/relu_3x3_reduce
I0403 15:51:05.908874 20338 net.cpp:425] inception_4d/relu_3x3_reduce <- inception_4d/3x3_reduce
I0403 15:51:05.908890 20338 net.cpp:386] inception_4d/relu_3x3_reduce -> inception_4d/3x3_reduce (in-place)
I0403 15:51:05.909200 20338 net.cpp:141] Setting up inception_4d/relu_3x3_reduce
I0403 15:51:05.909227 20338 net.cpp:148] Top shape: 24 144 14 14 (677376)
I0403 15:51:05.909242 20338 net.cpp:156] Memory required for data: 1120816416
I0403 15:51:05.909257 20338 layer_factory.hpp:77] Creating layer inception_4d/3x3
I0403 15:51:05.909279 20338 net.cpp:91] Creating Layer inception_4d/3x3
I0403 15:51:05.909297 20338 net.cpp:425] inception_4d/3x3 <- inception_4d/3x3_reduce
I0403 15:51:05.909318 20338 net.cpp:399] inception_4d/3x3 -> inception_4d/3x3
I0403 15:51:05.913739 20338 net.cpp:141] Setting up inception_4d/3x3
I0403 15:51:05.913769 20338 net.cpp:148] Top shape: 24 288 14 14 (1354752)
I0403 15:51:05.913785 20338 net.cpp:156] Memory required for data: 1126235424
I0403 15:51:05.913803 20338 layer_factory.hpp:77] Creating layer inception_4d/relu_3x3
I0403 15:51:05.913825 20338 net.cpp:91] Creating Layer inception_4d/relu_3x3
I0403 15:51:05.913842 20338 net.cpp:425] inception_4d/relu_3x3 <- inception_4d/3x3
I0403 15:51:05.913861 20338 net.cpp:386] inception_4d/relu_3x3 -> inception_4d/3x3 (in-place)
I0403 15:51:05.914067 20338 net.cpp:141] Setting up inception_4d/relu_3x3
I0403 15:51:05.914094 20338 net.cpp:148] Top shape: 24 288 14 14 (1354752)
I0403 15:51:05.914109 20338 net.cpp:156] Memory required for data: 1131654432
I0403 15:51:05.914124 20338 layer_factory.hpp:77] Creating layer inception_4d/5x5_reduce
I0403 15:51:05.914146 20338 net.cpp:91] Creating Layer inception_4d/5x5_reduce
I0403 15:51:05.914165 20338 net.cpp:425] inception_4d/5x5_reduce <- inception_4c/output_inception_4c/output_0_split_2
I0403 15:51:05.914183 20338 net.cpp:399] inception_4d/5x5_reduce -> inception_4d/5x5_reduce
I0403 15:51:05.915398 20338 net.cpp:141] Setting up inception_4d/5x5_reduce
I0403 15:51:05.915427 20338 net.cpp:148] Top shape: 24 32 14 14 (150528)
I0403 15:51:05.915443 20338 net.cpp:156] Memory required for data: 1132256544
I0403 15:51:05.915462 20338 layer_factory.hpp:77] Creating layer inception_4d/relu_5x5_reduce
I0403 15:51:05.915483 20338 net.cpp:91] Creating Layer inception_4d/relu_5x5_reduce
I0403 15:51:05.915501 20338 net.cpp:425] inception_4d/relu_5x5_reduce <- inception_4d/5x5_reduce
I0403 15:51:05.915519 20338 net.cpp:386] inception_4d/relu_5x5_reduce -> inception_4d/5x5_reduce (in-place)
I0403 15:51:05.915716 20338 net.cpp:141] Setting up inception_4d/relu_5x5_reduce
I0403 15:51:05.915745 20338 net.cpp:148] Top shape: 24 32 14 14 (150528)
I0403 15:51:05.915760 20338 net.cpp:156] Memory required for data: 1132858656
I0403 15:51:05.915776 20338 layer_factory.hpp:77] Creating layer inception_4d/5x5
I0403 15:51:05.915797 20338 net.cpp:91] Creating Layer inception_4d/5x5
I0403 15:51:05.915817 20338 net.cpp:425] inception_4d/5x5 <- inception_4d/5x5_reduce
I0403 15:51:05.915838 20338 net.cpp:399] inception_4d/5x5 -> inception_4d/5x5
I0403 15:51:05.917366 20338 net.cpp:141] Setting up inception_4d/5x5
I0403 15:51:05.917393 20338 net.cpp:148] Top shape: 24 64 14 14 (301056)
I0403 15:51:05.917408 20338 net.cpp:156] Memory required for data: 1134062880
I0403 15:51:05.917428 20338 layer_factory.hpp:77] Creating layer inception_4d/relu_5x5
I0403 15:51:05.917461 20338 net.cpp:91] Creating Layer inception_4d/relu_5x5
I0403 15:51:05.917477 20338 net.cpp:425] inception_4d/relu_5x5 <- inception_4d/5x5
I0403 15:51:05.917496 20338 net.cpp:386] inception_4d/relu_5x5 -> inception_4d/5x5 (in-place)
I0403 15:51:05.917796 20338 net.cpp:141] Setting up inception_4d/relu_5x5
I0403 15:51:05.917822 20338 net.cpp:148] Top shape: 24 64 14 14 (301056)
I0403 15:51:05.917836 20338 net.cpp:156] Memory required for data: 1135267104
I0403 15:51:05.917851 20338 layer_factory.hpp:77] Creating layer inception_4d/pool
I0403 15:51:05.917868 20338 net.cpp:91] Creating Layer inception_4d/pool
I0403 15:51:05.917883 20338 net.cpp:425] inception_4d/pool <- inception_4c/output_inception_4c/output_0_split_3
I0403 15:51:05.917904 20338 net.cpp:399] inception_4d/pool -> inception_4d/pool
I0403 15:51:05.917970 20338 net.cpp:141] Setting up inception_4d/pool
I0403 15:51:05.917997 20338 net.cpp:148] Top shape: 24 512 14 14 (2408448)
I0403 15:51:05.918014 20338 net.cpp:156] Memory required for data: 1144900896
I0403 15:51:05.918028 20338 layer_factory.hpp:77] Creating layer inception_4d/pool_proj
I0403 15:51:05.918051 20338 net.cpp:91] Creating Layer inception_4d/pool_proj
I0403 15:51:05.918068 20338 net.cpp:425] inception_4d/pool_proj <- inception_4d/pool
I0403 15:51:05.918086 20338 net.cpp:399] inception_4d/pool_proj -> inception_4d/pool_proj
I0403 15:51:05.919862 20338 net.cpp:141] Setting up inception_4d/pool_proj
I0403 15:51:05.919893 20338 net.cpp:148] Top shape: 24 64 14 14 (301056)
I0403 15:51:05.919910 20338 net.cpp:156] Memory required for data: 1146105120
I0403 15:51:05.919929 20338 layer_factory.hpp:77] Creating layer inception_4d/relu_pool_proj
I0403 15:51:05.919946 20338 net.cpp:91] Creating Layer inception_4d/relu_pool_proj
I0403 15:51:05.919962 20338 net.cpp:425] inception_4d/relu_pool_proj <- inception_4d/pool_proj
I0403 15:51:05.919978 20338 net.cpp:386] inception_4d/relu_pool_proj -> inception_4d/pool_proj (in-place)
I0403 15:51:05.920171 20338 net.cpp:141] Setting up inception_4d/relu_pool_proj
I0403 15:51:05.920197 20338 net.cpp:148] Top shape: 24 64 14 14 (301056)
I0403 15:51:05.920213 20338 net.cpp:156] Memory required for data: 1147309344
I0403 15:51:05.920228 20338 layer_factory.hpp:77] Creating layer inception_4d/output
I0403 15:51:05.920245 20338 net.cpp:91] Creating Layer inception_4d/output
I0403 15:51:05.920260 20338 net.cpp:425] inception_4d/output <- inception_4d/1x1
I0403 15:51:05.920276 20338 net.cpp:425] inception_4d/output <- inception_4d/3x3
I0403 15:51:05.920291 20338 net.cpp:425] inception_4d/output <- inception_4d/5x5
I0403 15:51:05.920306 20338 net.cpp:425] inception_4d/output <- inception_4d/pool_proj
I0403 15:51:05.920325 20338 net.cpp:399] inception_4d/output -> inception_4d/output
I0403 15:51:05.920372 20338 net.cpp:141] Setting up inception_4d/output
I0403 15:51:05.920394 20338 net.cpp:148] Top shape: 24 528 14 14 (2483712)
I0403 15:51:05.920408 20338 net.cpp:156] Memory required for data: 1157244192
I0403 15:51:05.920423 20338 layer_factory.hpp:77] Creating layer inception_4d/output_inception_4d/output_0_split
I0403 15:51:05.920441 20338 net.cpp:91] Creating Layer inception_4d/output_inception_4d/output_0_split
I0403 15:51:05.920457 20338 net.cpp:425] inception_4d/output_inception_4d/output_0_split <- inception_4d/output
I0403 15:51:05.920475 20338 net.cpp:399] inception_4d/output_inception_4d/output_0_split -> inception_4d/output_inception_4d/output_0_split_0
I0403 15:51:05.920496 20338 net.cpp:399] inception_4d/output_inception_4d/output_0_split -> inception_4d/output_inception_4d/output_0_split_1
I0403 15:51:05.920518 20338 net.cpp:399] inception_4d/output_inception_4d/output_0_split -> inception_4d/output_inception_4d/output_0_split_2
I0403 15:51:05.920537 20338 net.cpp:399] inception_4d/output_inception_4d/output_0_split -> inception_4d/output_inception_4d/output_0_split_3
I0403 15:51:05.920557 20338 net.cpp:399] inception_4d/output_inception_4d/output_0_split -> inception_4d/output_inception_4d/output_0_split_4
I0403 15:51:05.920655 20338 net.cpp:141] Setting up inception_4d/output_inception_4d/output_0_split
I0403 15:51:05.920691 20338 net.cpp:148] Top shape: 24 528 14 14 (2483712)
I0403 15:51:05.920706 20338 net.cpp:148] Top shape: 24 528 14 14 (2483712)
I0403 15:51:05.920722 20338 net.cpp:148] Top shape: 24 528 14 14 (2483712)
I0403 15:51:05.920737 20338 net.cpp:148] Top shape: 24 528 14 14 (2483712)
I0403 15:51:05.920752 20338 net.cpp:148] Top shape: 24 528 14 14 (2483712)
I0403 15:51:05.920764 20338 net.cpp:156] Memory required for data: 1206918432
I0403 15:51:05.920778 20338 layer_factory.hpp:77] Creating layer loss2/ave_pool
I0403 15:51:05.920797 20338 net.cpp:91] Creating Layer loss2/ave_pool
I0403 15:51:05.920814 20338 net.cpp:425] loss2/ave_pool <- inception_4d/output_inception_4d/output_0_split_0
I0403 15:51:05.920831 20338 net.cpp:399] loss2/ave_pool -> loss2/ave_pool
I0403 15:51:05.921149 20338 net.cpp:141] Setting up loss2/ave_pool
I0403 15:51:05.921178 20338 net.cpp:148] Top shape: 24 528 4 4 (202752)
I0403 15:51:05.921193 20338 net.cpp:156] Memory required for data: 1207729440
I0403 15:51:05.921210 20338 layer_factory.hpp:77] Creating layer loss2/conv
I0403 15:51:05.921228 20338 net.cpp:91] Creating Layer loss2/conv
I0403 15:51:05.921244 20338 net.cpp:425] loss2/conv <- loss2/ave_pool
I0403 15:51:05.921265 20338 net.cpp:399] loss2/conv -> loss2/conv
I0403 15:51:05.923158 20338 net.cpp:141] Setting up loss2/conv
I0403 15:51:05.923187 20338 net.cpp:148] Top shape: 24 128 4 4 (49152)
I0403 15:51:05.923202 20338 net.cpp:156] Memory required for data: 1207926048
I0403 15:51:05.923220 20338 layer_factory.hpp:77] Creating layer loss2/relu_conv
I0403 15:51:05.923238 20338 net.cpp:91] Creating Layer loss2/relu_conv
I0403 15:51:05.923254 20338 net.cpp:425] loss2/relu_conv <- loss2/conv
I0403 15:51:05.923274 20338 net.cpp:386] loss2/relu_conv -> loss2/conv (in-place)
I0403 15:51:05.923563 20338 net.cpp:141] Setting up loss2/relu_conv
I0403 15:51:05.923588 20338 net.cpp:148] Top shape: 24 128 4 4 (49152)
I0403 15:51:05.923602 20338 net.cpp:156] Memory required for data: 1208122656
I0403 15:51:05.923616 20338 layer_factory.hpp:77] Creating layer loss2/fc
I0403 15:51:05.923635 20338 net.cpp:91] Creating Layer loss2/fc
I0403 15:51:05.923650 20338 net.cpp:425] loss2/fc <- loss2/conv
I0403 15:51:05.923671 20338 net.cpp:399] loss2/fc -> loss2/fc
I0403 15:51:05.941320 20338 net.cpp:141] Setting up loss2/fc
I0403 15:51:05.941351 20338 net.cpp:148] Top shape: 24 1024 (24576)
I0403 15:51:05.941367 20338 net.cpp:156] Memory required for data: 1208220960
I0403 15:51:05.941385 20338 layer_factory.hpp:77] Creating layer loss2/relu_fc
I0403 15:51:05.941404 20338 net.cpp:91] Creating Layer loss2/relu_fc
I0403 15:51:05.941421 20338 net.cpp:425] loss2/relu_fc <- loss2/fc
I0403 15:51:05.941437 20338 net.cpp:386] loss2/relu_fc -> loss2/fc (in-place)
I0403 15:51:05.941738 20338 net.cpp:141] Setting up loss2/relu_fc
I0403 15:51:05.941766 20338 net.cpp:148] Top shape: 24 1024 (24576)
I0403 15:51:05.941781 20338 net.cpp:156] Memory required for data: 1208319264
I0403 15:51:05.941797 20338 layer_factory.hpp:77] Creating layer loss2/drop_fc
I0403 15:51:05.941814 20338 net.cpp:91] Creating Layer loss2/drop_fc
I0403 15:51:05.941829 20338 net.cpp:425] loss2/drop_fc <- loss2/fc
I0403 15:51:05.941845 20338 net.cpp:386] loss2/drop_fc -> loss2/fc (in-place)
I0403 15:51:05.941895 20338 net.cpp:141] Setting up loss2/drop_fc
I0403 15:51:05.941917 20338 net.cpp:148] Top shape: 24 1024 (24576)
I0403 15:51:05.941931 20338 net.cpp:156] Memory required for data: 1208417568
I0403 15:51:05.941946 20338 layer_factory.hpp:77] Creating layer loss2/classifier_plantvillage
I0403 15:51:05.941967 20338 net.cpp:91] Creating Layer loss2/classifier_plantvillage
I0403 15:51:05.941982 20338 net.cpp:425] loss2/classifier_plantvillage <- loss2/fc
I0403 15:51:05.942006 20338 net.cpp:399] loss2/classifier_plantvillage -> loss2/classifier_plantvillage
I0403 15:51:05.942404 20338 net.cpp:141] Setting up loss2/classifier_plantvillage
I0403 15:51:05.942428 20338 net.cpp:148] Top shape: 24 38 (912)
I0403 15:51:05.942458 20338 net.cpp:156] Memory required for data: 1208421216
I0403 15:51:05.942476 20338 layer_factory.hpp:77] Creating layer loss2/classifier_plantvillage_loss2/classifier_plantvillage_0_split
I0403 15:51:05.942493 20338 net.cpp:91] Creating Layer loss2/classifier_plantvillage_loss2/classifier_plantvillage_0_split
I0403 15:51:05.942508 20338 net.cpp:425] loss2/classifier_plantvillage_loss2/classifier_plantvillage_0_split <- loss2/classifier_plantvillage
I0403 15:51:05.942528 20338 net.cpp:399] loss2/classifier_plantvillage_loss2/classifier_plantvillage_0_split -> loss2/classifier_plantvillage_loss2/classifier_plantvillage_0_split_0
I0403 15:51:05.942548 20338 net.cpp:399] loss2/classifier_plantvillage_loss2/classifier_plantvillage_0_split -> loss2/classifier_plantvillage_loss2/classifier_plantvillage_0_split_1
I0403 15:51:05.942569 20338 net.cpp:399] loss2/classifier_plantvillage_loss2/classifier_plantvillage_0_split -> loss2/classifier_plantvillage_loss2/classifier_plantvillage_0_split_2
I0403 15:51:05.942643 20338 net.cpp:141] Setting up loss2/classifier_plantvillage_loss2/classifier_plantvillage_0_split
I0403 15:51:05.942668 20338 net.cpp:148] Top shape: 24 38 (912)
I0403 15:51:05.942684 20338 net.cpp:148] Top shape: 24 38 (912)
I0403 15:51:05.942699 20338 net.cpp:148] Top shape: 24 38 (912)
I0403 15:51:05.942713 20338 net.cpp:156] Memory required for data: 1208432160
I0403 15:51:05.942726 20338 layer_factory.hpp:77] Creating layer inception_4e/1x1
I0403 15:51:05.942745 20338 net.cpp:91] Creating Layer inception_4e/1x1
I0403 15:51:05.942760 20338 net.cpp:425] inception_4e/1x1 <- inception_4d/output_inception_4d/output_0_split_1
I0403 15:51:05.942778 20338 net.cpp:399] inception_4e/1x1 -> inception_4e/1x1
I0403 15:51:05.944584 20338 net.cpp:141] Setting up inception_4e/1x1
I0403 15:51:05.944612 20338 net.cpp:148] Top shape: 24 256 14 14 (1204224)
I0403 15:51:05.944628 20338 net.cpp:156] Memory required for data: 1213249056
I0403 15:51:05.944645 20338 layer_factory.hpp:77] Creating layer inception_4e/relu_1x1
I0403 15:51:05.944663 20338 net.cpp:91] Creating Layer inception_4e/relu_1x1
I0403 15:51:05.944677 20338 net.cpp:425] inception_4e/relu_1x1 <- inception_4e/1x1
I0403 15:51:05.944696 20338 net.cpp:386] inception_4e/relu_1x1 -> inception_4e/1x1 (in-place)
I0403 15:51:05.944998 20338 net.cpp:141] Setting up inception_4e/relu_1x1
I0403 15:51:05.945024 20338 net.cpp:148] Top shape: 24 256 14 14 (1204224)
I0403 15:51:05.945039 20338 net.cpp:156] Memory required for data: 1218065952
I0403 15:51:05.945052 20338 layer_factory.hpp:77] Creating layer inception_4e/3x3_reduce
I0403 15:51:05.945075 20338 net.cpp:91] Creating Layer inception_4e/3x3_reduce
I0403 15:51:05.945092 20338 net.cpp:425] inception_4e/3x3_reduce <- inception_4d/output_inception_4d/output_0_split_2
I0403 15:51:05.945112 20338 net.cpp:399] inception_4e/3x3_reduce -> inception_4e/3x3_reduce
I0403 15:51:05.947227 20338 net.cpp:141] Setting up inception_4e/3x3_reduce
I0403 15:51:05.947257 20338 net.cpp:148] Top shape: 24 160 14 14 (752640)
I0403 15:51:05.947274 20338 net.cpp:156] Memory required for data: 1221076512
I0403 15:51:05.947291 20338 layer_factory.hpp:77] Creating layer inception_4e/relu_3x3_reduce
I0403 15:51:05.947309 20338 net.cpp:91] Creating Layer inception_4e/relu_3x3_reduce
I0403 15:51:05.947325 20338 net.cpp:425] inception_4e/relu_3x3_reduce <- inception_4e/3x3_reduce
I0403 15:51:05.947345 20338 net.cpp:386] inception_4e/relu_3x3_reduce -> inception_4e/3x3_reduce (in-place)
I0403 15:51:05.947530 20338 net.cpp:141] Setting up inception_4e/relu_3x3_reduce
I0403 15:51:05.947554 20338 net.cpp:148] Top shape: 24 160 14 14 (752640)
I0403 15:51:05.947568 20338 net.cpp:156] Memory required for data: 1224087072
I0403 15:51:05.947582 20338 layer_factory.hpp:77] Creating layer inception_4e/3x3
I0403 15:51:05.947603 20338 net.cpp:91] Creating Layer inception_4e/3x3
I0403 15:51:05.947619 20338 net.cpp:425] inception_4e/3x3 <- inception_4e/3x3_reduce
I0403 15:51:05.947641 20338 net.cpp:399] inception_4e/3x3 -> inception_4e/3x3
I0403 15:51:05.952733 20338 net.cpp:141] Setting up inception_4e/3x3
I0403 15:51:05.952772 20338 net.cpp:148] Top shape: 24 320 14 14 (1505280)
I0403 15:51:05.952788 20338 net.cpp:156] Memory required for data: 1230108192
I0403 15:51:05.952807 20338 layer_factory.hpp:77] Creating layer inception_4e/relu_3x3
I0403 15:51:05.952827 20338 net.cpp:91] Creating Layer inception_4e/relu_3x3
I0403 15:51:05.952843 20338 net.cpp:425] inception_4e/relu_3x3 <- inception_4e/3x3
I0403 15:51:05.952860 20338 net.cpp:386] inception_4e/relu_3x3 -> inception_4e/3x3 (in-place)
I0403 15:51:05.953182 20338 net.cpp:141] Setting up inception_4e/relu_3x3
I0403 15:51:05.953209 20338 net.cpp:148] Top shape: 24 320 14 14 (1505280)
I0403 15:51:05.953225 20338 net.cpp:156] Memory required for data: 1236129312
I0403 15:51:05.953240 20338 layer_factory.hpp:77] Creating layer inception_4e/5x5_reduce
I0403 15:51:05.953263 20338 net.cpp:91] Creating Layer inception_4e/5x5_reduce
I0403 15:51:05.953284 20338 net.cpp:425] inception_4e/5x5_reduce <- inception_4d/output_inception_4d/output_0_split_3
I0403 15:51:05.953304 20338 net.cpp:399] inception_4e/5x5_reduce -> inception_4e/5x5_reduce
I0403 15:51:05.954408 20338 net.cpp:141] Setting up inception_4e/5x5_reduce
I0403 15:51:05.954437 20338 net.cpp:148] Top shape: 24 32 14 14 (150528)
I0403 15:51:05.954453 20338 net.cpp:156] Memory required for data: 1236731424
I0403 15:51:05.954471 20338 layer_factory.hpp:77] Creating layer inception_4e/relu_5x5_reduce
I0403 15:51:05.954489 20338 net.cpp:91] Creating Layer inception_4e/relu_5x5_reduce
I0403 15:51:05.954505 20338 net.cpp:425] inception_4e/relu_5x5_reduce <- inception_4e/5x5_reduce
I0403 15:51:05.954524 20338 net.cpp:386] inception_4e/relu_5x5_reduce -> inception_4e/5x5_reduce (in-place)
I0403 15:51:05.954839 20338 net.cpp:141] Setting up inception_4e/relu_5x5_reduce
I0403 15:51:05.954866 20338 net.cpp:148] Top shape: 24 32 14 14 (150528)
I0403 15:51:05.954881 20338 net.cpp:156] Memory required for data: 1237333536
I0403 15:51:05.954895 20338 layer_factory.hpp:77] Creating layer inception_4e/5x5
I0403 15:51:05.954936 20338 net.cpp:91] Creating Layer inception_4e/5x5
I0403 15:51:05.954955 20338 net.cpp:425] inception_4e/5x5 <- inception_4e/5x5_reduce
I0403 15:51:05.954975 20338 net.cpp:399] inception_4e/5x5 -> inception_4e/5x5
I0403 15:51:05.956895 20338 net.cpp:141] Setting up inception_4e/5x5
I0403 15:51:05.956926 20338 net.cpp:148] Top shape: 24 128 14 14 (602112)
I0403 15:51:05.956943 20338 net.cpp:156] Memory required for data: 1239741984
I0403 15:51:05.956962 20338 layer_factory.hpp:77] Creating layer inception_4e/relu_5x5
I0403 15:51:05.956980 20338 net.cpp:91] Creating Layer inception_4e/relu_5x5
I0403 15:51:05.957002 20338 net.cpp:425] inception_4e/relu_5x5 <- inception_4e/5x5
I0403 15:51:05.957020 20338 net.cpp:386] inception_4e/relu_5x5 -> inception_4e/5x5 (in-place)
I0403 15:51:05.957224 20338 net.cpp:141] Setting up inception_4e/relu_5x5
I0403 15:51:05.957249 20338 net.cpp:148] Top shape: 24 128 14 14 (602112)
I0403 15:51:05.957264 20338 net.cpp:156] Memory required for data: 1242150432
I0403 15:51:05.957279 20338 layer_factory.hpp:77] Creating layer inception_4e/pool
I0403 15:51:05.957298 20338 net.cpp:91] Creating Layer inception_4e/pool
I0403 15:51:05.957314 20338 net.cpp:425] inception_4e/pool <- inception_4d/output_inception_4d/output_0_split_4
I0403 15:51:05.957334 20338 net.cpp:399] inception_4e/pool -> inception_4e/pool
I0403 15:51:05.957403 20338 net.cpp:141] Setting up inception_4e/pool
I0403 15:51:05.957429 20338 net.cpp:148] Top shape: 24 528 14 14 (2483712)
I0403 15:51:05.957445 20338 net.cpp:156] Memory required for data: 1252085280
I0403 15:51:05.957460 20338 layer_factory.hpp:77] Creating layer inception_4e/pool_proj
I0403 15:51:05.957484 20338 net.cpp:91] Creating Layer inception_4e/pool_proj
I0403 15:51:05.957500 20338 net.cpp:425] inception_4e/pool_proj <- inception_4e/pool
I0403 15:51:05.957520 20338 net.cpp:399] inception_4e/pool_proj -> inception_4e/pool_proj
I0403 15:51:05.959082 20338 net.cpp:141] Setting up inception_4e/pool_proj
I0403 15:51:05.959125 20338 net.cpp:148] Top shape: 24 128 14 14 (602112)
I0403 15:51:05.959142 20338 net.cpp:156] Memory required for data: 1254493728
I0403 15:51:05.959161 20338 layer_factory.hpp:77] Creating layer inception_4e/relu_pool_proj
I0403 15:51:05.959179 20338 net.cpp:91] Creating Layer inception_4e/relu_pool_proj
I0403 15:51:05.959195 20338 net.cpp:425] inception_4e/relu_pool_proj <- inception_4e/pool_proj
I0403 15:51:05.959213 20338 net.cpp:386] inception_4e/relu_pool_proj -> inception_4e/pool_proj (in-place)
I0403 15:51:05.959516 20338 net.cpp:141] Setting up inception_4e/relu_pool_proj
I0403 15:51:05.959544 20338 net.cpp:148] Top shape: 24 128 14 14 (602112)
I0403 15:51:05.959560 20338 net.cpp:156] Memory required for data: 1256902176
I0403 15:51:05.959575 20338 layer_factory.hpp:77] Creating layer inception_4e/output
I0403 15:51:05.959592 20338 net.cpp:91] Creating Layer inception_4e/output
I0403 15:51:05.959609 20338 net.cpp:425] inception_4e/output <- inception_4e/1x1
I0403 15:51:05.959625 20338 net.cpp:425] inception_4e/output <- inception_4e/3x3
I0403 15:51:05.959640 20338 net.cpp:425] inception_4e/output <- inception_4e/5x5
I0403 15:51:05.959657 20338 net.cpp:425] inception_4e/output <- inception_4e/pool_proj
I0403 15:51:05.959673 20338 net.cpp:399] inception_4e/output -> inception_4e/output
I0403 15:51:05.959725 20338 net.cpp:141] Setting up inception_4e/output
I0403 15:51:05.959749 20338 net.cpp:148] Top shape: 24 832 14 14 (3913728)
I0403 15:51:05.959764 20338 net.cpp:156] Memory required for data: 1272557088
I0403 15:51:05.959779 20338 layer_factory.hpp:77] Creating layer pool4/3x3_s2
I0403 15:51:05.959797 20338 net.cpp:91] Creating Layer pool4/3x3_s2
I0403 15:51:05.959815 20338 net.cpp:425] pool4/3x3_s2 <- inception_4e/output
I0403 15:51:05.959833 20338 net.cpp:399] pool4/3x3_s2 -> pool4/3x3_s2
I0403 15:51:05.959903 20338 net.cpp:141] Setting up pool4/3x3_s2
I0403 15:51:05.959926 20338 net.cpp:148] Top shape: 24 832 7 7 (978432)
I0403 15:51:05.959940 20338 net.cpp:156] Memory required for data: 1276470816
I0403 15:51:05.959955 20338 layer_factory.hpp:77] Creating layer pool4/3x3_s2_pool4/3x3_s2_0_split
I0403 15:51:05.959971 20338 net.cpp:91] Creating Layer pool4/3x3_s2_pool4/3x3_s2_0_split
I0403 15:51:05.959991 20338 net.cpp:425] pool4/3x3_s2_pool4/3x3_s2_0_split <- pool4/3x3_s2
I0403 15:51:05.960013 20338 net.cpp:399] pool4/3x3_s2_pool4/3x3_s2_0_split -> pool4/3x3_s2_pool4/3x3_s2_0_split_0
I0403 15:51:05.960033 20338 net.cpp:399] pool4/3x3_s2_pool4/3x3_s2_0_split -> pool4/3x3_s2_pool4/3x3_s2_0_split_1
I0403 15:51:05.960054 20338 net.cpp:399] pool4/3x3_s2_pool4/3x3_s2_0_split -> pool4/3x3_s2_pool4/3x3_s2_0_split_2
I0403 15:51:05.960074 20338 net.cpp:399] pool4/3x3_s2_pool4/3x3_s2_0_split -> pool4/3x3_s2_pool4/3x3_s2_0_split_3
I0403 15:51:05.960167 20338 net.cpp:141] Setting up pool4/3x3_s2_pool4/3x3_s2_0_split
I0403 15:51:05.960193 20338 net.cpp:148] Top shape: 24 832 7 7 (978432)
I0403 15:51:05.960211 20338 net.cpp:148] Top shape: 24 832 7 7 (978432)
I0403 15:51:05.960229 20338 net.cpp:148] Top shape: 24 832 7 7 (978432)
I0403 15:51:05.960244 20338 net.cpp:148] Top shape: 24 832 7 7 (978432)
I0403 15:51:05.960258 20338 net.cpp:156] Memory required for data: 1292125728
I0403 15:51:05.960271 20338 layer_factory.hpp:77] Creating layer inception_5a/1x1
I0403 15:51:05.960294 20338 net.cpp:91] Creating Layer inception_5a/1x1
I0403 15:51:05.960310 20338 net.cpp:425] inception_5a/1x1 <- pool4/3x3_s2_pool4/3x3_s2_0_split_0
I0403 15:51:05.960330 20338 net.cpp:399] inception_5a/1x1 -> inception_5a/1x1
I0403 15:51:05.963294 20338 net.cpp:141] Setting up inception_5a/1x1
I0403 15:51:05.963325 20338 net.cpp:148] Top shape: 24 256 7 7 (301056)
I0403 15:51:05.963341 20338 net.cpp:156] Memory required for data: 1293329952
I0403 15:51:05.963359 20338 layer_factory.hpp:77] Creating layer inception_5a/relu_1x1
I0403 15:51:05.963377 20338 net.cpp:91] Creating Layer inception_5a/relu_1x1
I0403 15:51:05.963394 20338 net.cpp:425] inception_5a/relu_1x1 <- inception_5a/1x1
I0403 15:51:05.963413 20338 net.cpp:386] inception_5a/relu_1x1 -> inception_5a/1x1 (in-place)
I0403 15:51:05.963737 20338 net.cpp:141] Setting up inception_5a/relu_1x1
I0403 15:51:05.963765 20338 net.cpp:148] Top shape: 24 256 7 7 (301056)
I0403 15:51:05.963780 20338 net.cpp:156] Memory required for data: 1294534176
I0403 15:51:05.963795 20338 layer_factory.hpp:77] Creating layer inception_5a/3x3_reduce
I0403 15:51:05.963817 20338 net.cpp:91] Creating Layer inception_5a/3x3_reduce
I0403 15:51:05.963835 20338 net.cpp:425] inception_5a/3x3_reduce <- pool4/3x3_s2_pool4/3x3_s2_0_split_1
I0403 15:51:05.963855 20338 net.cpp:399] inception_5a/3x3_reduce -> inception_5a/3x3_reduce
I0403 15:51:05.966408 20338 net.cpp:141] Setting up inception_5a/3x3_reduce
I0403 15:51:05.966439 20338 net.cpp:148] Top shape: 24 160 7 7 (188160)
I0403 15:51:05.966455 20338 net.cpp:156] Memory required for data: 1295286816
I0403 15:51:05.966475 20338 layer_factory.hpp:77] Creating layer inception_5a/relu_3x3_reduce
I0403 15:51:05.966495 20338 net.cpp:91] Creating Layer inception_5a/relu_3x3_reduce
I0403 15:51:05.966512 20338 net.cpp:425] inception_5a/relu_3x3_reduce <- inception_5a/3x3_reduce
I0403 15:51:05.966529 20338 net.cpp:386] inception_5a/relu_3x3_reduce -> inception_5a/3x3_reduce (in-place)
I0403 15:51:05.966723 20338 net.cpp:141] Setting up inception_5a/relu_3x3_reduce
I0403 15:51:05.966752 20338 net.cpp:148] Top shape: 24 160 7 7 (188160)
I0403 15:51:05.966766 20338 net.cpp:156] Memory required for data: 1296039456
I0403 15:51:05.966781 20338 layer_factory.hpp:77] Creating layer inception_5a/3x3
I0403 15:51:05.966804 20338 net.cpp:91] Creating Layer inception_5a/3x3
I0403 15:51:05.966822 20338 net.cpp:425] inception_5a/3x3 <- inception_5a/3x3_reduce
I0403 15:51:05.966841 20338 net.cpp:399] inception_5a/3x3 -> inception_5a/3x3
I0403 15:51:05.972136 20338 net.cpp:141] Setting up inception_5a/3x3
I0403 15:51:05.972169 20338 net.cpp:148] Top shape: 24 320 7 7 (376320)
I0403 15:51:05.972187 20338 net.cpp:156] Memory required for data: 1297544736
I0403 15:51:05.972205 20338 layer_factory.hpp:77] Creating layer inception_5a/relu_3x3
I0403 15:51:05.972224 20338 net.cpp:91] Creating Layer inception_5a/relu_3x3
I0403 15:51:05.972240 20338 net.cpp:425] inception_5a/relu_3x3 <- inception_5a/3x3
I0403 15:51:05.972256 20338 net.cpp:386] inception_5a/relu_3x3 -> inception_5a/3x3 (in-place)
I0403 15:51:05.972573 20338 net.cpp:141] Setting up inception_5a/relu_3x3
I0403 15:51:05.972601 20338 net.cpp:148] Top shape: 24 320 7 7 (376320)
I0403 15:51:05.972616 20338 net.cpp:156] Memory required for data: 1299050016
I0403 15:51:05.972630 20338 layer_factory.hpp:77] Creating layer inception_5a/5x5_reduce
I0403 15:51:05.972652 20338 net.cpp:91] Creating Layer inception_5a/5x5_reduce
I0403 15:51:05.972669 20338 net.cpp:425] inception_5a/5x5_reduce <- pool4/3x3_s2_pool4/3x3_s2_0_split_2
I0403 15:51:05.972688 20338 net.cpp:399] inception_5a/5x5_reduce -> inception_5a/5x5_reduce
I0403 15:51:05.973939 20338 net.cpp:141] Setting up inception_5a/5x5_reduce
I0403 15:51:05.973970 20338 net.cpp:148] Top shape: 24 32 7 7 (37632)
I0403 15:51:05.973990 20338 net.cpp:156] Memory required for data: 1299200544
I0403 15:51:05.974011 20338 layer_factory.hpp:77] Creating layer inception_5a/relu_5x5_reduce
I0403 15:51:05.974028 20338 net.cpp:91] Creating Layer inception_5a/relu_5x5_reduce
I0403 15:51:05.974045 20338 net.cpp:425] inception_5a/relu_5x5_reduce <- inception_5a/5x5_reduce
I0403 15:51:05.974064 20338 net.cpp:386] inception_5a/relu_5x5_reduce -> inception_5a/5x5_reduce (in-place)
I0403 15:51:05.974370 20338 net.cpp:141] Setting up inception_5a/relu_5x5_reduce
I0403 15:51:05.974395 20338 net.cpp:148] Top shape: 24 32 7 7 (37632)
I0403 15:51:05.974411 20338 net.cpp:156] Memory required for data: 1299351072
I0403 15:51:05.974424 20338 layer_factory.hpp:77] Creating layer inception_5a/5x5
I0403 15:51:05.974447 20338 net.cpp:91] Creating Layer inception_5a/5x5
I0403 15:51:05.974463 20338 net.cpp:425] inception_5a/5x5 <- inception_5a/5x5_reduce
I0403 15:51:05.974484 20338 net.cpp:399] inception_5a/5x5 -> inception_5a/5x5
I0403 15:51:05.976222 20338 net.cpp:141] Setting up inception_5a/5x5
I0403 15:51:05.976266 20338 net.cpp:148] Top shape: 24 128 7 7 (150528)
I0403 15:51:05.976284 20338 net.cpp:156] Memory required for data: 1299953184
I0403 15:51:05.976301 20338 layer_factory.hpp:77] Creating layer inception_5a/relu_5x5
I0403 15:51:05.976320 20338 net.cpp:91] Creating Layer inception_5a/relu_5x5
I0403 15:51:05.976335 20338 net.cpp:425] inception_5a/relu_5x5 <- inception_5a/5x5
I0403 15:51:05.976351 20338 net.cpp:386] inception_5a/relu_5x5 -> inception_5a/5x5 (in-place)
I0403 15:51:05.976546 20338 net.cpp:141] Setting up inception_5a/relu_5x5
I0403 15:51:05.976569 20338 net.cpp:148] Top shape: 24 128 7 7 (150528)
I0403 15:51:05.976583 20338 net.cpp:156] Memory required for data: 1300555296
I0403 15:51:05.976598 20338 layer_factory.hpp:77] Creating layer inception_5a/pool
I0403 15:51:05.976615 20338 net.cpp:91] Creating Layer inception_5a/pool
I0403 15:51:05.976631 20338 net.cpp:425] inception_5a/pool <- pool4/3x3_s2_pool4/3x3_s2_0_split_3
I0403 15:51:05.976651 20338 net.cpp:399] inception_5a/pool -> inception_5a/pool
I0403 15:51:05.976722 20338 net.cpp:141] Setting up inception_5a/pool
I0403 15:51:05.976747 20338 net.cpp:148] Top shape: 24 832 7 7 (978432)
I0403 15:51:05.976763 20338 net.cpp:156] Memory required for data: 1304469024
I0403 15:51:05.976776 20338 layer_factory.hpp:77] Creating layer inception_5a/pool_proj
I0403 15:51:05.976799 20338 net.cpp:91] Creating Layer inception_5a/pool_proj
I0403 15:51:05.976816 20338 net.cpp:425] inception_5a/pool_proj <- inception_5a/pool
I0403 15:51:05.976833 20338 net.cpp:399] inception_5a/pool_proj -> inception_5a/pool_proj
I0403 15:51:05.979162 20338 net.cpp:141] Setting up inception_5a/pool_proj
I0403 15:51:05.979193 20338 net.cpp:148] Top shape: 24 128 7 7 (150528)
I0403 15:51:05.979210 20338 net.cpp:156] Memory required for data: 1305071136
I0403 15:51:05.979228 20338 layer_factory.hpp:77] Creating layer inception_5a/relu_pool_proj
I0403 15:51:05.979249 20338 net.cpp:91] Creating Layer inception_5a/relu_pool_proj
I0403 15:51:05.979265 20338 net.cpp:425] inception_5a/relu_pool_proj <- inception_5a/pool_proj
I0403 15:51:05.979282 20338 net.cpp:386] inception_5a/relu_pool_proj -> inception_5a/pool_proj (in-place)
I0403 15:51:05.979583 20338 net.cpp:141] Setting up inception_5a/relu_pool_proj
I0403 15:51:05.979609 20338 net.cpp:148] Top shape: 24 128 7 7 (150528)
I0403 15:51:05.979624 20338 net.cpp:156] Memory required for data: 1305673248
I0403 15:51:05.979637 20338 layer_factory.hpp:77] Creating layer inception_5a/output
I0403 15:51:05.979656 20338 net.cpp:91] Creating Layer inception_5a/output
I0403 15:51:05.979672 20338 net.cpp:425] inception_5a/output <- inception_5a/1x1
I0403 15:51:05.979689 20338 net.cpp:425] inception_5a/output <- inception_5a/3x3
I0403 15:51:05.979704 20338 net.cpp:425] inception_5a/output <- inception_5a/5x5
I0403 15:51:05.979720 20338 net.cpp:425] inception_5a/output <- inception_5a/pool_proj
I0403 15:51:05.979737 20338 net.cpp:399] inception_5a/output -> inception_5a/output
I0403 15:51:05.979787 20338 net.cpp:141] Setting up inception_5a/output
I0403 15:51:05.979810 20338 net.cpp:148] Top shape: 24 832 7 7 (978432)
I0403 15:51:05.979825 20338 net.cpp:156] Memory required for data: 1309586976
I0403 15:51:05.979840 20338 layer_factory.hpp:77] Creating layer inception_5a/output_inception_5a/output_0_split
I0403 15:51:05.979856 20338 net.cpp:91] Creating Layer inception_5a/output_inception_5a/output_0_split
I0403 15:51:05.979871 20338 net.cpp:425] inception_5a/output_inception_5a/output_0_split <- inception_5a/output
I0403 15:51:05.979889 20338 net.cpp:399] inception_5a/output_inception_5a/output_0_split -> inception_5a/output_inception_5a/output_0_split_0
I0403 15:51:05.979910 20338 net.cpp:399] inception_5a/output_inception_5a/output_0_split -> inception_5a/output_inception_5a/output_0_split_1
I0403 15:51:05.979929 20338 net.cpp:399] inception_5a/output_inception_5a/output_0_split -> inception_5a/output_inception_5a/output_0_split_2
I0403 15:51:05.979949 20338 net.cpp:399] inception_5a/output_inception_5a/output_0_split -> inception_5a/output_inception_5a/output_0_split_3
I0403 15:51:05.980067 20338 net.cpp:141] Setting up inception_5a/output_inception_5a/output_0_split
I0403 15:51:05.980092 20338 net.cpp:148] Top shape: 24 832 7 7 (978432)
I0403 15:51:05.980106 20338 net.cpp:148] Top shape: 24 832 7 7 (978432)
I0403 15:51:05.980121 20338 net.cpp:148] Top shape: 24 832 7 7 (978432)
I0403 15:51:05.980136 20338 net.cpp:148] Top shape: 24 832 7 7 (978432)
I0403 15:51:05.980149 20338 net.cpp:156] Memory required for data: 1325241888
I0403 15:51:05.980164 20338 layer_factory.hpp:77] Creating layer inception_5b/1x1
I0403 15:51:05.980185 20338 net.cpp:91] Creating Layer inception_5b/1x1
I0403 15:51:05.980201 20338 net.cpp:425] inception_5b/1x1 <- inception_5a/output_inception_5a/output_0_split_0
I0403 15:51:05.980222 20338 net.cpp:399] inception_5b/1x1 -> inception_5b/1x1
I0403 15:51:05.984047 20338 net.cpp:141] Setting up inception_5b/1x1
I0403 15:51:05.984077 20338 net.cpp:148] Top shape: 24 384 7 7 (451584)
I0403 15:51:05.984092 20338 net.cpp:156] Memory required for data: 1327048224
I0403 15:51:05.984110 20338 layer_factory.hpp:77] Creating layer inception_5b/relu_1x1
I0403 15:51:05.984130 20338 net.cpp:91] Creating Layer inception_5b/relu_1x1
I0403 15:51:05.984148 20338 net.cpp:425] inception_5b/relu_1x1 <- inception_5b/1x1
I0403 15:51:05.984163 20338 net.cpp:386] inception_5b/relu_1x1 -> inception_5b/1x1 (in-place)
I0403 15:51:05.984474 20338 net.cpp:141] Setting up inception_5b/relu_1x1
I0403 15:51:05.984499 20338 net.cpp:148] Top shape: 24 384 7 7 (451584)
I0403 15:51:05.984514 20338 net.cpp:156] Memory required for data: 1328854560
I0403 15:51:05.984529 20338 layer_factory.hpp:77] Creating layer inception_5b/3x3_reduce
I0403 15:51:05.984550 20338 net.cpp:91] Creating Layer inception_5b/3x3_reduce
I0403 15:51:05.984567 20338 net.cpp:425] inception_5b/3x3_reduce <- inception_5a/output_inception_5a/output_0_split_1
I0403 15:51:05.984587 20338 net.cpp:399] inception_5b/3x3_reduce -> inception_5b/3x3_reduce
I0403 15:51:05.987296 20338 net.cpp:141] Setting up inception_5b/3x3_reduce
I0403 15:51:05.987325 20338 net.cpp:148] Top shape: 24 192 7 7 (225792)
I0403 15:51:05.987341 20338 net.cpp:156] Memory required for data: 1329757728
I0403 15:51:05.987360 20338 layer_factory.hpp:77] Creating layer inception_5b/relu_3x3_reduce
I0403 15:51:05.987380 20338 net.cpp:91] Creating Layer inception_5b/relu_3x3_reduce
I0403 15:51:05.987396 20338 net.cpp:425] inception_5b/relu_3x3_reduce <- inception_5b/3x3_reduce
I0403 15:51:05.987413 20338 net.cpp:386] inception_5b/relu_3x3_reduce -> inception_5b/3x3_reduce (in-place)
I0403 15:51:05.987604 20338 net.cpp:141] Setting up inception_5b/relu_3x3_reduce
I0403 15:51:05.987633 20338 net.cpp:148] Top shape: 24 192 7 7 (225792)
I0403 15:51:05.987648 20338 net.cpp:156] Memory required for data: 1330660896
I0403 15:51:05.987661 20338 layer_factory.hpp:77] Creating layer inception_5b/3x3
I0403 15:51:05.987682 20338 net.cpp:91] Creating Layer inception_5b/3x3
I0403 15:51:05.987699 20338 net.cpp:425] inception_5b/3x3 <- inception_5b/3x3_reduce
I0403 15:51:05.987721 20338 net.cpp:399] inception_5b/3x3 -> inception_5b/3x3
I0403 15:51:05.994562 20338 net.cpp:141] Setting up inception_5b/3x3
I0403 15:51:05.994592 20338 net.cpp:148] Top shape: 24 384 7 7 (451584)
I0403 15:51:05.994608 20338 net.cpp:156] Memory required for data: 1332467232
I0403 15:51:05.994626 20338 layer_factory.hpp:77] Creating layer inception_5b/relu_3x3
I0403 15:51:05.994647 20338 net.cpp:91] Creating Layer inception_5b/relu_3x3
I0403 15:51:05.994663 20338 net.cpp:425] inception_5b/relu_3x3 <- inception_5b/3x3
I0403 15:51:05.994680 20338 net.cpp:386] inception_5b/relu_3x3 -> inception_5b/3x3 (in-place)
I0403 15:51:05.994989 20338 net.cpp:141] Setting up inception_5b/relu_3x3
I0403 15:51:05.995015 20338 net.cpp:148] Top shape: 24 384 7 7 (451584)
I0403 15:51:05.995030 20338 net.cpp:156] Memory required for data: 1334273568
I0403 15:51:05.995044 20338 layer_factory.hpp:77] Creating layer inception_5b/5x5_reduce
I0403 15:51:05.995085 20338 net.cpp:91] Creating Layer inception_5b/5x5_reduce
I0403 15:51:05.995115 20338 net.cpp:425] inception_5b/5x5_reduce <- inception_5a/output_inception_5a/output_0_split_2
I0403 15:51:05.995134 20338 net.cpp:399] inception_5b/5x5_reduce -> inception_5b/5x5_reduce
I0403 15:51:05.996387 20338 net.cpp:141] Setting up inception_5b/5x5_reduce
I0403 15:51:05.996415 20338 net.cpp:148] Top shape: 24 48 7 7 (56448)
I0403 15:51:05.996430 20338 net.cpp:156] Memory required for data: 1334499360
I0403 15:51:05.996448 20338 layer_factory.hpp:77] Creating layer inception_5b/relu_5x5_reduce
I0403 15:51:05.996465 20338 net.cpp:91] Creating Layer inception_5b/relu_5x5_reduce
I0403 15:51:05.996481 20338 net.cpp:425] inception_5b/relu_5x5_reduce <- inception_5b/5x5_reduce
I0403 15:51:05.996497 20338 net.cpp:386] inception_5b/relu_5x5_reduce -> inception_5b/5x5_reduce (in-place)
I0403 15:51:05.996865 20338 net.cpp:141] Setting up inception_5b/relu_5x5_reduce
I0403 15:51:05.996891 20338 net.cpp:148] Top shape: 24 48 7 7 (56448)
I0403 15:51:05.996906 20338 net.cpp:156] Memory required for data: 1334725152
I0403 15:51:05.996919 20338 layer_factory.hpp:77] Creating layer inception_5b/5x5
I0403 15:51:05.996938 20338 net.cpp:91] Creating Layer inception_5b/5x5
I0403 15:51:05.996954 20338 net.cpp:425] inception_5b/5x5 <- inception_5b/5x5_reduce
I0403 15:51:05.996971 20338 net.cpp:399] inception_5b/5x5 -> inception_5b/5x5
I0403 15:51:05.999006 20338 net.cpp:141] Setting up inception_5b/5x5
I0403 15:51:05.999037 20338 net.cpp:148] Top shape: 24 128 7 7 (150528)
I0403 15:51:05.999053 20338 net.cpp:156] Memory required for data: 1335327264
I0403 15:51:05.999069 20338 layer_factory.hpp:77] Creating layer inception_5b/relu_5x5
I0403 15:51:05.999086 20338 net.cpp:91] Creating Layer inception_5b/relu_5x5
I0403 15:51:05.999101 20338 net.cpp:425] inception_5b/relu_5x5 <- inception_5b/5x5
I0403 15:51:05.999120 20338 net.cpp:386] inception_5b/relu_5x5 -> inception_5b/5x5 (in-place)
I0403 15:51:05.999307 20338 net.cpp:141] Setting up inception_5b/relu_5x5
I0403 15:51:05.999331 20338 net.cpp:148] Top shape: 24 128 7 7 (150528)
I0403 15:51:05.999346 20338 net.cpp:156] Memory required for data: 1335929376
I0403 15:51:05.999359 20338 layer_factory.hpp:77] Creating layer inception_5b/pool
I0403 15:51:05.999375 20338 net.cpp:91] Creating Layer inception_5b/pool
I0403 15:51:05.999390 20338 net.cpp:425] inception_5b/pool <- inception_5a/output_inception_5a/output_0_split_3
I0403 15:51:05.999409 20338 net.cpp:399] inception_5b/pool -> inception_5b/pool
I0403 15:51:05.999481 20338 net.cpp:141] Setting up inception_5b/pool
I0403 15:51:05.999505 20338 net.cpp:148] Top shape: 24 832 7 7 (978432)
I0403 15:51:05.999517 20338 net.cpp:156] Memory required for data: 1339843104
I0403 15:51:05.999531 20338 layer_factory.hpp:77] Creating layer inception_5b/pool_proj
I0403 15:51:05.999553 20338 net.cpp:91] Creating Layer inception_5b/pool_proj
I0403 15:51:05.999570 20338 net.cpp:425] inception_5b/pool_proj <- inception_5b/pool
I0403 15:51:05.999588 20338 net.cpp:399] inception_5b/pool_proj -> inception_5b/pool_proj
I0403 15:51:06.001878 20338 net.cpp:141] Setting up inception_5b/pool_proj
I0403 15:51:06.001909 20338 net.cpp:148] Top shape: 24 128 7 7 (150528)
I0403 15:51:06.001925 20338 net.cpp:156] Memory required for data: 1340445216
I0403 15:51:06.001943 20338 layer_factory.hpp:77] Creating layer inception_5b/relu_pool_proj
I0403 15:51:06.001960 20338 net.cpp:91] Creating Layer inception_5b/relu_pool_proj
I0403 15:51:06.001976 20338 net.cpp:425] inception_5b/relu_pool_proj <- inception_5b/pool_proj
I0403 15:51:06.001996 20338 net.cpp:386] inception_5b/relu_pool_proj -> inception_5b/pool_proj (in-place)
I0403 15:51:06.002292 20338 net.cpp:141] Setting up inception_5b/relu_pool_proj
I0403 15:51:06.002321 20338 net.cpp:148] Top shape: 24 128 7 7 (150528)
I0403 15:51:06.002336 20338 net.cpp:156] Memory required for data: 1341047328
I0403 15:51:06.002351 20338 layer_factory.hpp:77] Creating layer inception_5b/output
I0403 15:51:06.002367 20338 net.cpp:91] Creating Layer inception_5b/output
I0403 15:51:06.002396 20338 net.cpp:425] inception_5b/output <- inception_5b/1x1
I0403 15:51:06.002413 20338 net.cpp:425] inception_5b/output <- inception_5b/3x3
I0403 15:51:06.002429 20338 net.cpp:425] inception_5b/output <- inception_5b/5x5
I0403 15:51:06.002442 20338 net.cpp:425] inception_5b/output <- inception_5b/pool_proj
I0403 15:51:06.002459 20338 net.cpp:399] inception_5b/output -> inception_5b/output
I0403 15:51:06.002509 20338 net.cpp:141] Setting up inception_5b/output
I0403 15:51:06.002532 20338 net.cpp:148] Top shape: 24 1024 7 7 (1204224)
I0403 15:51:06.002545 20338 net.cpp:156] Memory required for data: 1345864224
I0403 15:51:06.002559 20338 layer_factory.hpp:77] Creating layer pool5/7x7_s1
I0403 15:51:06.002578 20338 net.cpp:91] Creating Layer pool5/7x7_s1
I0403 15:51:06.002593 20338 net.cpp:425] pool5/7x7_s1 <- inception_5b/output
I0403 15:51:06.002610 20338 net.cpp:399] pool5/7x7_s1 -> pool5/7x7_s1
I0403 15:51:06.002820 20338 net.cpp:141] Setting up pool5/7x7_s1
I0403 15:51:06.002846 20338 net.cpp:148] Top shape: 24 1024 1 1 (24576)
I0403 15:51:06.002861 20338 net.cpp:156] Memory required for data: 1345962528
I0403 15:51:06.002874 20338 layer_factory.hpp:77] Creating layer pool5/drop_7x7_s1
I0403 15:51:06.002890 20338 net.cpp:91] Creating Layer pool5/drop_7x7_s1
I0403 15:51:06.002905 20338 net.cpp:425] pool5/drop_7x7_s1 <- pool5/7x7_s1
I0403 15:51:06.002923 20338 net.cpp:386] pool5/drop_7x7_s1 -> pool5/7x7_s1 (in-place)
I0403 15:51:06.002971 20338 net.cpp:141] Setting up pool5/drop_7x7_s1
I0403 15:51:06.002997 20338 net.cpp:148] Top shape: 24 1024 1 1 (24576)
I0403 15:51:06.003012 20338 net.cpp:156] Memory required for data: 1346060832
I0403 15:51:06.003026 20338 layer_factory.hpp:77] Creating layer loss3/classifier_plantvillage
I0403 15:51:06.003046 20338 net.cpp:91] Creating Layer loss3/classifier_plantvillage
I0403 15:51:06.003062 20338 net.cpp:425] loss3/classifier_plantvillage <- pool5/7x7_s1
I0403 15:51:06.003079 20338 net.cpp:399] loss3/classifier_plantvillage -> loss3/classifier_plantvillage
I0403 15:51:06.003497 20338 net.cpp:141] Setting up loss3/classifier_plantvillage
I0403 15:51:06.003521 20338 net.cpp:148] Top shape: 24 38 (912)
I0403 15:51:06.003535 20338 net.cpp:156] Memory required for data: 1346064480
I0403 15:51:06.003551 20338 layer_factory.hpp:77] Creating layer loss3/classifier_plantvillage_loss3/classifier_plantvillage_0_split
I0403 15:51:06.003567 20338 net.cpp:91] Creating Layer loss3/classifier_plantvillage_loss3/classifier_plantvillage_0_split
I0403 15:51:06.003582 20338 net.cpp:425] loss3/classifier_plantvillage_loss3/classifier_plantvillage_0_split <- loss3/classifier_plantvillage
I0403 15:51:06.003602 20338 net.cpp:399] loss3/classifier_plantvillage_loss3/classifier_plantvillage_0_split -> loss3/classifier_plantvillage_loss3/classifier_plantvillage_0_split_0
I0403 15:51:06.003621 20338 net.cpp:399] loss3/classifier_plantvillage_loss3/classifier_plantvillage_0_split -> loss3/classifier_plantvillage_loss3/classifier_plantvillage_0_split_1
I0403 15:51:06.003639 20338 net.cpp:399] loss3/classifier_plantvillage_loss3/classifier_plantvillage_0_split -> loss3/classifier_plantvillage_loss3/classifier_plantvillage_0_split_2
I0403 15:51:06.003659 20338 net.cpp:399] loss3/classifier_plantvillage_loss3/classifier_plantvillage_0_split -> loss3/classifier_plantvillage_loss3/classifier_plantvillage_0_split_3
I0403 15:51:06.003762 20338 net.cpp:141] Setting up loss3/classifier_plantvillage_loss3/classifier_plantvillage_0_split
I0403 15:51:06.003783 20338 net.cpp:148] Top shape: 24 38 (912)
I0403 15:51:06.003798 20338 net.cpp:148] Top shape: 24 38 (912)
I0403 15:51:06.003813 20338 net.cpp:148] Top shape: 24 38 (912)
I0403 15:51:06.003828 20338 net.cpp:148] Top shape: 24 38 (912)
I0403 15:51:06.003839 20338 net.cpp:156] Memory required for data: 1346079072
I0403 15:51:06.003852 20338 layer_factory.hpp:77] Creating layer loss1/loss
I0403 15:51:06.003872 20338 net.cpp:91] Creating Layer loss1/loss
I0403 15:51:06.003888 20338 net.cpp:425] loss1/loss <- loss1/classifier_plantvillage_loss1/classifier_plantvillage_0_split_0
I0403 15:51:06.003918 20338 net.cpp:425] loss1/loss <- label_data_1_split_0
…
