…
I0403 15:05:51.059118 18238 net.cpp:313] The NetState phase (1) differed from the phase (0) specified by a rule in layer data
I0403 15:05:51.060353 18238 net.cpp:49] Initializing net from parameters: 
state {
  phase: TEST
}
layer {
  name: "data"
  type: "Data"
  top: "data"
  top: "label"
  include {
    phase: TEST
  }
  transform_param {
    mirror: false
    crop_size: 224
    mean_file: "/home/mohanty/data/final_dataset/lmdb/grayscale-40-60/mean.binaryproto"
  }
  data_param {
    source: "/home/mohanty/data/final_dataset/lmdb/grayscale-40-60/test_db"
    batch_size: 24
    backend: LMDB
  }
}
layer {
  name: "conv1/7x7_s2"
  type: "Convolution"
  bottom: "data"
  top: "conv1/7x7_s2"
  param {
    lr_mult: 1
    decay_mult: 1
  }
  param {
    lr_mult: 2
    decay_mult: 0
  }
  convolution_param {
    num_output: 64
    pad: 3
    kernel_size: 7
    stride: 2
    weight_filler {
      type: "xavier"
      std: 0.1
    }
    bias_filler {
      type: "constant"
      value: 0.2
    }
  }
}
layer {
  name: "conv1/relu_7x7"
  type: "ReLU"
  bottom: "conv1/7x7_s2"
  top: "conv1/7x7_s2"
}
layer {
  name: "pool1/3x3_s2"
  type: "Pooling"
  bottom: "conv1/7x7_s2"
  top: "pool1/3x3_s2"
  pooling_param {
    pool: MAX
    kernel_size: 3
    stride: 2
  }
}
layer {
  name: "pool1/norm1"
  type: "LRN"
  bottom: "pool1/3x3_s2"
  top: "pool1/norm1"
  lrn_param {
    local_size: 5
    alpha: 0.0001
    beta: 0.75
  }
}
layer {
  name: "conv2/3x3_reduce"
  type: "Convolution"
  bottom: "pool1/norm1"
  top: "conv2/3x3_reduce"
  param {
    lr_mult: 1
    decay_mult: 1
  }
  param {
    lr_mult: 2
    decay_mult: 0
  }
  convolution_param {
    num_output: 64
    kernel_size: 1
    weight_filler {
      type: "xavier"
      std: 0.1
    }
    bias_filler {
      type: "constant"
      value: 0.2
    }
  }
}
layer {
  name: "conv2/relu_3x3_reduce"
  type: "ReLU"
  bottom: "conv2/3x3_reduce"
  top: "conv2/3x3_reduce"
}
layer {
  name: "conv2/3x3"
  type: "Convolution"
  bottom: "conv2/3x3_reduce"
  top: "conv2/3x3"
  param {
    lr_mult: 1
    decay_mult: 1
  }
  param {
    lr_mult: 2
    decay_mult: 0
  }
  convolution_param {
    num_output: 192
    pad: 1
    kernel_size: 3
    weight_filler {
      type: "xavier"
      std: 0.03
    }
    bias_filler {
      type: "constant"
      value: 0.2
    }
  }
}
layer {
  name: "conv2/relu_3x3"
  type: "ReLU"
  bottom: "conv2/3x3"
  top: "conv2/3x3"
}
layer {
  name: "conv2/norm2"
  type: "LRN"
  bottom: "conv2/3x3"
  top: "conv2/norm2"
  lrn_param {
    local_size: 5
    alpha: 0.0001
    beta: 0.75
  }
}
layer {
  name: "pool2/3x3_s2"
  type: "Pooling"
  bottom: "conv2/norm2"
  top: "pool2/3x3_s2"
  pooling_param {
    pool: MAX
    kernel_size: 3
    stride: 2
  }
}
layer {
  name: "inception_3a/1x1"
  type: "Convolution"
  bottom: "pool2/3x3_s2"
  top: "inception_3a/1x1"
  param {
    lr_mult: 1
    decay_mult: 1
  }
  param {
    lr_mult: 2
    decay_mult: 0
  }
  convolution_param {
    num_output: 64
    kernel_size: 1
    weight_filler {
      type: "xavier"
      std: 0.03
    }
    bias_filler {
      type: "constant"
      value: 0.2
    }
  }
}
layer {
  name: "inception_3a/relu_1x1"
  type: "ReLU"
  bottom: "inception_3a/1x1"
  top: "inception_3a/1x1"
}
layer {
  name: "inception_3a/3x3_reduce"
  type: "Convolution"
  bottom: "pool2/3x3_s2"
  top: "inception_3a/3x3_reduce"
  param {
    lr_mult: 1
    decay_mult: 1
  }
  param {
    lr_mult: 2
    decay_mult: 0
  }
  convolution_param {
    num_output: 96
    kernel_size: 1
    weight_filler {
      type: "xavier"
      std: 0.09
    }
    bias_filler {
      type: "constant"
      value: 0.2
    }
  }
}
layer {
  name: "inception_3a/relu_3x3_reduce"
  type: "ReLU"
  bottom: "inception_3a/3x3_reduce"
  top: "inception_3a/3x3_reduce"
}
layer {
  name: "inception_3a/3x3"
  type: "Convolution"
  bottom: "inception_3a/3x3_reduce"
  top: "inception_3a/3x3"
  param {
    lr_mult: 1
    decay_mult: 1
  }
  param {
    lr_mult: 2
    decay_mult: 0
  }
  convolution_param {
    num_output: 128
    pad: 1
    kernel_size: 3
    weight_filler {
      type: "xavier"
      std: 0.03
    }
    bias_filler {
      type: "constant"
      value: 0.2
    }
  }
}
layer {
  name: "inception_3a/relu_3x3"
  type: "ReLU"
  bottom: "inception_3a/3x3"
  top: "inception_3a/3x3"
}
layer {
  name: "inception_3a/5x5_reduce"
  type: "Convolution"
  bottom: "pool2/3x3_s2"
  top: "inception_3a/5x5_reduce"
  param {
    lr_mult: 1
    decay_mult: 1
  }
  param {
    lr_mult: 2
    decay_mult: 0
  }
  convolution_param {
    num_output: 16
    kernel_size: 1
    weight_filler {
      type: "xavier"
      std: 0.2
    }
    bias_filler {
      type: "constant"
      value: 0.2
    }
  }
}
layer {
  name: "inception_3a/relu_5x5_reduce"
  type: "ReLU"
  bottom: "inception_3a/5x5_reduce"
  top: "inception_3a/5x5_reduce"
}
layer {
  name: "inception_3a/5x5"
  type: "Convolution"
  bottom: "inception_3a/5x5_reduce"
  top: "inception_3a/5x5"
  param {
    lr_mult: 1
    decay_mult: 1
  }
  param {
    lr_mult: 2
    decay_mult: 0
  }
  convolution_param {
    num_output: 32
    pad: 2
    kernel_size: 5
    weight_filler {
      type: "xavier"
      std: 0.03
    }
    bias_filler {
      type: "constant"
      value: 0.2
    }
  }
}
layer {
  name: "inception_3a/relu_5x5"
  type: "ReLU"
  bottom: "inception_3a/5x5"
  top: "inception_3a/5x5"
}
layer {
  name: "inception_3a/pool"
  type: "Pooling"
  bottom: "pool2/3x3_s2"
  top: "inception_3a/pool"
  pooling_param {
    pool: MAX
    kernel_size: 3
    stride: 1
    pad: 1
  }
}
layer {
  name: "inception_3a/pool_proj"
  type: "Convolution"
  bottom: "inception_3a/pool"
  top: "inception_3a/pool_proj"
  param {
    lr_mult: 1
    decay_mult: 1
  }
  param {
    lr_mult: 2
    decay_mult: 0
  }
  convolution_param {
    num_output: 32
    kernel_size: 1
    weight_filler {
      type: "xavier"
      std: 0.1
    }
    bias_filler {
      type: "constant"
      value: 0.2
    }
  }
}
layer {
  name: "inception_3a/relu_pool_proj"
  type: "ReLU"
  bottom: "inception_3a/pool_proj"
  top: "inception_3a/pool_proj"
}
layer {
  name: "inception_3a/output"
  type: "Concat"
  bottom: "inception_3a/1x1"
  bottom: "inception_3a/3x3"
  bottom: "inception_3a/5x5"
  bottom: "inception_3a/pool_proj"
  top: "inception_3a/output"
}
layer {
  name: "inception_3b/1x1"
  type: "Convolution"
  bottom: "inception_3a/output"
  top: "inception_3b/1x1"
  param {
    lr_mult: 1
    decay_mult: 1
  }
  param {
    lr_mult: 2
    decay_mult: 0
  }
  convolution_param {
    num_output: 128
    kernel_size: 1
    weight_filler {
      type: "xavier"
      std: 0.03
    }
    bias_filler {
      type: "constant"
      value: 0.2
    }
  }
}
layer {
  name: "inception_3b/relu_1x1"
  type: "ReLU"
  bottom: "inception_3b/1x1"
  top: "inception_3b/1x1"
}
layer {
  name: "inception_3b/3x3_reduce"
  type: "Convolution"
  bottom: "inception_3a/output"
  top: "inception_3b/3x3_reduce"
  param {
    lr_mult: 1
    decay_mult: 1
  }
  param {
    lr_mult: 2
    decay_mult: 0
  }
  convolution_param {
    num_output: 128
    kernel_size: 1
    weight_filler {
      type: "xavier"
      std: 0.09
    }
    bias_filler {
      type: "constant"
      value: 0.2
    }
  }
}
layer {
  name: "inception_3b/relu_3x3_reduce"
  type: "ReLU"
  bottom: "inception_3b/3x3_reduce"
  top: "inception_3b/3x3_reduce"
}
layer {
  name: "inception_3b/3x3"
  type: "Convolution"
  bottom: "inception_3b/3x3_reduce"
  top: "inception_3b/3x3"
  param {
    lr_mult: 1
    decay_mult: 1
  }
  param {
    lr_mult: 2
    decay_mult: 0
  }
  convolution_param {
    num_output: 192
    pad: 1
    kernel_size: 3
    weight_filler {
      type: "xavier"
      std: 0.03
    }
    bias_filler {
      type: "constant"
      value: 0.2
    }
  }
}
layer {
  name: "inception_3b/relu_3x3"
  type: "ReLU"
  bottom: "inception_3b/3x3"
  top: "inception_3b/3x3"
}
layer {
  name: "inception_3b/5x5_reduce"
  type: "Convolution"
  bottom: "inception_3a/output"
  top: "inception_3b/5x5_reduce"
  param {
    lr_mult: 1
    decay_mult: 1
  }
  param {
    lr_mult: 2
    decay_mult: 0
  }
  convolution_param {
    num_output: 32
    kernel_size: 1
    weight_filler {
      type: "xavier"
      std: 0.2
    }
    bias_filler {
      type: "constant"
      value: 0.2
    }
  }
}
layer {
  name: "inception_3b/relu_5x5_reduce"
  type: "ReLU"
  bottom: "inception_3b/5x5_reduce"
  top: "inception_3b/5x5_reduce"
}
layer {
  name: "inception_3b/5x5"
  type: "Convolution"
  bottom: "inception_3b/5x5_reduce"
  top: "inception_3b/5x5"
  param {
    lr_mult: 1
    decay_mult: 1
  }
  param {
    lr_mult: 2
    decay_mult: 0
  }
  convolution_param {
    num_output: 96
    pad: 2
    kernel_size: 5
    weight_filler {
      type: "xavier"
      std: 0.03
    }
    bias_filler {
      type: "constant"
      value: 0.2
    }
  }
}
layer {
  name: "inception_3b/relu_5x5"
  type: "ReLU"
  bottom: "inception_3b/5x5"
  top: "inception_3b/5x5"
}
layer {
  name: "inception_3b/pool"
  type: "Pooling"
  bottom: "inception_3a/output"
  top: "inception_3b/pool"
  pooling_param {
    pool: MAX
    kernel_size: 3
    stride: 1
    pad: 1
  }
}
layer {
  name: "inception_3b/pool_proj"
  type: "Convolution"
  bottom: "inception_3b/pool"
  top: "inception_3b/pool_proj"
  param {
    lr_mult: 1
    decay_mult: 1
  }
  param {
    lr_mult: 2
    decay_mult: 0
  }
  convolution_param {
    num_output: 64
    kernel_size: 1
    weight_filler {
      type: "xavier"
      std: 0.1
    }
    bias_filler {
      type: "constant"
      value: 0.2
    }
  }
}
layer {
  name: "inception_3b/relu_pool_proj"
  type: "ReLU"
  bottom: "inception_3b/pool_proj"
  top: "inception_3b/pool_proj"
}
layer {
  name: "inception_3b/output"
  type: "Concat"
  bottom: "inception_3b/1x1"
  bottom: "inception_3b/3x3"
  bottom: "inception_3b/5x5"
  bottom: "inception_3b/pool_proj"
  top: "inception_3b/output"
}
layer {
  name: "pool3/3x3_s2"
  type: "Pooling"
  bottom: "inception_3b/output"
  top: "pool3/3x3_s2"
  pooling_param {
    pool: MAX
    kernel_size: 3
    stride: 2
  }
}
layer {
  name: "inception_4a/1x1"
  type: "Convolution"
  bottom: "pool3/3x3_s2"
  top: "inception_4a/1x1"
  param {
    lr_mult: 1
    decay_mult: 1
  }
  param {
    lr_mult: 2
    decay_mult: 0
  }
  convolution_param {
    num_output: 192
    kernel_size: 1
    weight_filler {
      type: "xavier"
      std: 0.03
    }
    bias_filler {
      type: "constant"
      value: 0.2
    }
  }
}
layer {
  name: "inception_4a/relu_1x1"
  type: "ReLU"
  bottom: "inception_4a/1x1"
  top: "inception_4a/1x1"
}
layer {
  name: "inception_4a/3x3_reduce"
  type: "Convolution"
  bottom: "pool3/3x3_s2"
  top: "inception_4a/3x3_reduce"
  param {
    lr_mult: 1
    decay_mult: 1
  }
  param {
    lr_mult: 2
    decay_mult: 0
  }
  convolution_param {
    num_output: 96
    kernel_size: 1
    weight_filler {
      type: "xavier"
      std: 0.09
    }
    bias_filler {
      type: "constant"
      value: 0.2
    }
  }
}
layer {
  name: "inception_4a/relu_3x3_reduce"
  type: "ReLU"
  bottom: "inception_4a/3x3_reduce"
  top: "inception_4a/3x3_reduce"
}
layer {
  name: "inception_4a/3x3"
  type: "Convolution"
  bottom: "inception_4a/3x3_reduce"
  top: "inception_4a/3x3"
  param {
    lr_mult: 1
    decay_mult: 1
  }
  param {
    lr_mult: 2
    decay_mult: 0
  }
  convolution_param {
    num_output: 208
    pad: 1
    kernel_size: 3
    weight_filler {
      type: "xavier"
      std: 0.03
    }
    bias_filler {
      type: "constant"
      value: 0.2
    }
  }
}
layer {
  name: "inception_4a/relu_3x3"
  type: "ReLU"
  bottom: "inception_4a/3x3"
  top: "inception_4a/3x3"
}
layer {
  name: "inception_4a/5x5_reduce"
  type: "Convolution"
  bottom: "pool3/3x3_s2"
  top: "inception_4a/5x5_reduce"
  param {
    lr_mult: 1
    decay_mult: 1
  }
  param {
    lr_mult: 2
    decay_mult: 0
  }
  convolution_param {
    num_output: 16
    kernel_size: 1
    weight_filler {
      type: "xavier"
      std: 0.2
    }
    bias_filler {
      type: "constant"
      value: 0.2
    }
  }
}
layer {
  name: "inception_4a/relu_5x5_reduce"
  type: "ReLU"
  bottom: "inception_4a/5x5_reduce"
  top: "inception_4a/5x5_reduce"
}
layer {
  name: "inception_4a/5x5"
  type: "Convolution"
  bottom: "inception_4a/5x5_reduce"
  top: "inception_4a/5x5"
  param {
    lr_mult: 1
    decay_mult: 1
  }
  param {
    lr_mult: 2
    decay_mult: 0
  }
  convolution_param {
    num_output: 48
    pad: 2
    kernel_size: 5
    weight_filler {
      type: "xavier"
      std: 0.03
    }
    bias_filler {
      type: "constant"
      value: 0.2
    }
  }
}
layer {
  name: "inception_4a/relu_5x5"
  type: "ReLU"
  bottom: "inception_4a/5x5"
  top: "inception_4a/5x5"
}
layer {
  name: "inception_4a/pool"
  type: "Pooling"
  bottom: "pool3/3x3_s2"
  top: "inception_4a/pool"
  pooling_param {
    pool: MAX
    kernel_size: 3
    stride: 1
    pad: 1
  }
}
layer {
  name: "inception_4a/pool_proj"
  type: "Convolution"
  bottom: "inception_4a/pool"
  top: "inception_4a/pool_proj"
  param {
    lr_mult: 1
    decay_mult: 1
  }
  param {
    lr_mult: 2
    decay_mult: 0
  }
  convolution_param {
    num_output: 64
    kernel_size: 1
    weight_filler {
      type: "xavier"
      std: 0.1
    }
    bias_filler {
      type: "constant"
      value: 0.2
    }
  }
}
layer {
  name: "inception_4a/relu_pool_proj"
  type: "ReLU"
  bottom: "inception_4a/pool_proj"
  top: "inception_4a/pool_proj"
}
layer {
  name: "inception_4a/output"
  type: "Concat"
  bottom: "inception_4a/1x1"
  bottom: "inception_4a/3x3"
  bottom: "inception_4a/5x5"
  bottom: "inception_4a/pool_proj"
  top: "inception_4a/output"
}
layer {
  name: "loss1/ave_pool"
  type: "Pooling"
  bottom: "inception_4a/output"
  top: "loss1/ave_pool"
  pooling_param {
    pool: AVE
    kernel_size: 5
    stride: 3
  }
}
layer {
  name: "loss1/conv"
  type: "Convolution"
  bottom: "loss1/ave_pool"
  top: "loss1/conv"
  param {
    lr_mult: 1
    decay_mult: 1
  }
  param {
    lr_mult: 2
    decay_mult: 0
  }
  convolution_param {
    num_output: 128
    kernel_size: 1
    weight_filler {
      type: "xavier"
      std: 0.08
    }
    bias_filler {
      type: "constant"
      value: 0.2
    }
  }
}
layer {
  name: "loss1/relu_conv"
  type: "ReLU"
  bottom: "loss1/conv"
  top: "loss1/conv"
}
layer {
  name: "loss1/fc"
  type: "InnerProduct"
  bottom: "loss1/conv"
  top: "loss1/fc"
  param {
    lr_mult: 1
    decay_mult: 1
  }
  param {
    lr_mult: 2
    decay_mult: 0
  }
  inner_product_param {
    num_output: 1024
    weight_filler {
      type: "xavier"
      std: 0.02
    }
    bias_filler {
      type: "constant"
      value: 0.2
    }
  }
}
layer {
  name: "loss1/relu_fc"
  type: "ReLU"
  bottom: "loss1/fc"
  top: "loss1/fc"
}
layer {
  name: "loss1/drop_fc"
  type: "Dropout"
  bottom: "loss1/fc"
  top: "loss1/fc"
  dropout_param {
    dropout_ratio: 0.7
  }
}
layer {
  name: "loss1/classifier_plantvillage"
  type: "InnerProduct"
  bottom: "loss1/fc"
  top: "loss1/classifier_plantvillage"
  param {
    lr_mult: 1
    decay_mult: 1
  }
  param {
    lr_mult: 2
    decay_mult: 0
  }
  inner_product_param {
    num_output: 38
    weight_filler {
      type: "xavier"
      std: 0.0009765625
    }
    bias_filler {
      type: "constant"
      value: 0
    }
  }
}
layer {
  name: "inception_4b/1x1"
  type: "Convolution"
  bottom: "inception_4a/output"
  top: "inception_4b/1x1"
  param {
    lr_mult: 1
    decay_mult: 1
  }
  param {
    lr_mult: 2
    decay_mult: 0
  }
  convolution_param {
    num_output: 160
    kernel_size: 1
    weight_filler {
      type: "xavier"
      std: 0.03
    }
    bias_filler {
      type: "constant"
      value: 0.2
    }
  }
}
layer {
  name: "inception_4b/relu_1x1"
  type: "ReLU"
  bottom: "inception_4b/1x1"
  top: "inception_4b/1x1"
}
layer {
  name: "inception_4b/3x3_reduce"
  type: "Convolution"
  bottom: "inception_4a/output"
  top: "inception_4b/3x3_reduce"
  param {
    lr_mult: 1
    decay_mult: 1
  }
  param {
    lr_mult: 2
    decay_mult: 0
  }
  convolution_param {
    num_output: 112
    kernel_size: 1
    weight_filler {
      type: "xavier"
      std: 0.09
    }
    bias_filler {
      type: "constant"
      value: 0.2
    }
  }
}
layer {
  name: "inception_4b/relu_3x3_reduce"
  type: "ReLU"
  bottom: "inception_4b/3x3_reduce"
  top: "inception_4b/3x3_reduce"
}
layer {
  name: "inception_4b/3x3"
  type: "Convolution"
  bottom: "inception_4b/3x3_reduce"
  top: "inception_4b/3x3"
  param {
    lr_mult: 1
    decay_mult: 1
  }
  param {
    lr_mult: 2
    decay_mult: 0
  }
  convolution_param {
    num_output: 224
    pad: 1
    kernel_size: 3
    weight_filler {
      type: "xavier"
      std: 0.03
    }
    bias_filler {
      type: "constant"
      value: 0.2
    }
  }
}
layer {
  name: "inception_4b/relu_3x3"
  type: "ReLU"
  bottom: "inception_4b/3x3"
  top: "inception_4b/3x3"
}
layer {
  name: "inception_4b/5x5_reduce"
  type: "Convolution"
  bottom: "inception_4a/output"
  top: "inception_4b/5x5_reduce"
  param {
    lr_mult: 1
    decay_mult: 1
  }
  param {
    lr_mult: 2
    decay_mult: 0
  }
  convolution_param {
    num_output: 24
    kernel_size: 1
    weight_filler {
      type: "xavier"
      std: 0.2
    }
    bias_filler {
      type: "constant"
      value: 0.2
    }
  }
}
layer {
  name: "inception_4b/relu_5x5_reduce"
  type: "ReLU"
  bottom: "inception_4b/5x5_reduce"
  top: "inception_4b/5x5_reduce"
}
layer {
  name: "inception_4b/5x5"
  type: "Convolution"
  bottom: "inception_4b/5x5_reduce"
  top: "inception_4b/5x5"
  param {
    lr_mult: 1
    decay_mult: 1
  }
  param {
    lr_mult: 2
    decay_mult: 0
  }
  convolution_param {
    num_output: 64
    pad: 2
    kernel_size: 5
    weight_filler {
      type: "xavier"
      std: 0.03
    }
    bias_filler {
      type: "constant"
      value: 0.2
    }
  }
}
layer {
  name: "inception_4b/relu_5x5"
  type: "ReLU"
  bottom: "inception_4b/5x5"
  top: "inception_4b/5x5"
}
layer {
  name: "inception_4b/pool"
  type: "Pooling"
  bottom: "inception_4a/output"
  top: "inception_4b/pool"
  pooling_param {
    pool: MAX
    kernel_size: 3
    stride: 1
    pad: 1
  }
}
layer {
  name: "inception_4b/pool_proj"
  type: "Convolution"
  bottom: "inception_4b/pool"
  top: "inception_4b/pool_proj"
  param {
    lr_mult: 1
    decay_mult: 1
  }
  param {
    lr_mult: 2
    decay_mult: 0
  }
  convolution_param {
    num_output: 64
    kernel_size: 1
    weight_filler {
      type: "xavier"
      std: 0.1
    }
    bias_filler {
      type: "constant"
      value: 0.2
    }
  }
}
layer {
  name: "inception_4b/relu_pool_proj"
  type: "ReLU"
  bottom: "inception_4b/pool_proj"
  top: "inception_4b/pool_proj"
}
layer {
  name: "inception_4b/output"
  type: "Concat"
  bottom: "inception_4b/1x1"
  bottom: "inception_4b/3x3"
  bottom: "inception_4b/5x5"
  bottom: "inception_4b/pool_proj"
  top: "inception_4b/output"
}
layer {
  name: "inception_4c/1x1"
  type: "Convolution"
  bottom: "inception_4b/output"
  top: "inception_4c/1x1"
  param {
    lr_mult: 1
    decay_mult: 1
  }
  param {
    lr_mult: 2
    decay_mult: 0
  }
  convolution_param {
    num_output: 128
    kernel_size: 1
    weight_filler {
      type: "xavier"
      std: 0.03
    }
    bias_filler {
      type: "constant"
      value: 0.2
    }
  }
}
layer {
  name: "inception_4c/relu_1x1"
  type: "ReLU"
  bottom: "inception_4c/1x1"
  top: "inception_4c/1x1"
}
layer {
  name: "inception_4c/3x3_reduce"
  type: "Convolution"
  bottom: "inception_4b/output"
  top: "inception_4c/3x3_reduce"
  param {
    lr_mult: 1
    decay_mult: 1
  }
  param {
    lr_mult: 2
    decay_mult: 0
  }
  convolution_param {
    num_output: 128
    kernel_size: 1
    weight_filler {
      type: "xavier"
      std: 0.09
    }
    bias_filler {
      type: "constant"
      value: 0.2
    }
  }
}
layer {
  name: "inception_4c/relu_3x3_reduce"
  type: "ReLU"
  bottom: "inception_4c/3x3_reduce"
  top: "inception_4c/3x3_reduce"
}
layer {
  name: "inception_4c/3x3"
  type: "Convolution"
  bottom: "inception_4c/3x3_reduce"
  top: "inception_4c/3x3"
  param {
    lr_mult: 1
    decay_mult: 1
  }
  param {
    lr_mult: 2
    decay_mult: 0
  }
  convolution_param {
    num_output: 256
    pad: 1
    kernel_size: 3
    weight_filler {
      type: "xavier"
      std: 0.03
    }
    bias_filler {
      type: "constant"
      value: 0.2
    }
  }
}
layer {
  name: "inception_4c/relu_3x3"
  type: "ReLU"
  bottom: "inception_4c/3x3"
  top: "inception_4c/3x3"
}
layer {
  name: "inception_4c/5x5_reduce"
  type: "Convolution"
  bottom: "inception_4b/output"
  top: "inception_4c/5x5_reduce"
  param {
    lr_mult: 1
    decay_mult: 1
  }
  param {
    lr_mult: 2
    decay_mult: 0
  }
  convolution_param {
    num_output: 24
    kernel_size: 1
    weight_filler {
      type: "xavier"
      std: 0.2
    }
    bias_filler {
      type: "constant"
      value: 0.2
    }
  }
}
layer {
  name: "inception_4c/relu_5x5_reduce"
  type: "ReLU"
  bottom: "inception_4c/5x5_reduce"
  top: "inception_4c/5x5_reduce"
}
layer {
  name: "inception_4c/5x5"
  type: "Convolution"
  bottom: "inception_4c/5x5_reduce"
  top: "inception_4c/5x5"
  param {
    lr_mult: 1
    decay_mult: 1
  }
  param {
    lr_mult: 2
    decay_mult: 0
  }
  convolution_param {
    num_output: 64
    pad: 2
    kernel_size: 5
    weight_filler {
      type: "xavier"
      std: 0.03
    }
    bias_filler {
      type: "constant"
      value: 0.2
    }
  }
}
layer {
  name: "inception_4c/relu_5x5"
  type: "ReLU"
  bottom: "inception_4c/5x5"
  top: "inception_4c/5x5"
}
layer {
  name: "inception_4c/pool"
  type: "Pooling"
  bottom: "inception_4b/output"
  top: "inception_4c/pool"
  pooling_param {
    pool: MAX
    kernel_size: 3
    stride: 1
    pad: 1
  }
}
layer {
  name: "inception_4c/pool_proj"
  type: "Convolution"
  bottom: "inception_4c/pool"
  top: "inception_4c/pool_proj"
  param {
    lr_mult: 1
    decay_mult: 1
  }
  param {
    lr_mult: 2
    decay_mult: 0
  }
  convolution_param {
    num_output: 64
    kernel_size: 1
    weight_filler {
      type: "xavier"
      std: 0.1
    }
    bias_filler {
      type: "constant"
      value: 0.2
    }
  }
}
layer {
  name: "inception_4c/relu_pool_proj"
  type: "ReLU"
  bottom: "inception_4c/pool_proj"
  top: "inception_4c/pool_proj"
}
layer {
  name: "inception_4c/output"
  type: "Concat"
  bottom: "inception_4c/1x1"
  bottom: "inception_4c/3x3"
  bottom: "inception_4c/5x5"
  bottom: "inception_4c/pool_proj"
  top: "inception_4c/output"
}
layer {
  name: "inception_4d/1x1"
  type: "Convolution"
  bottom: "inception_4c/output"
  top: "inception_4d/1x1"
  param {
    lr_mult: 1
    decay_mult: 1
  }
  param {
    lr_mult: 2
    decay_mult: 0
  }
  convolution_param {
    num_output: 112
    kernel_size: 1
    weight_filler {
      type: "xavier"
      std: 0.03
    }
    bias_filler {
      type: "constant"
      value: 0.2
    }
  }
}
layer {
  name: "inception_4d/relu_1x1"
  type: "ReLU"
  bottom: "inception_4d/1x1"
  top: "inception_4d/1x1"
}
layer {
  name: "inception_4d/3x3_reduce"
  type: "Convolution"
  bottom: "inception_4c/output"
  top: "inception_4d/3x3_reduce"
  param {
    lr_mult: 1
    decay_mult: 1
  }
  param {
    lr_mult: 2
    decay_mult: 0
  }
  convolution_param {
    num_output: 144
    kernel_size: 1
    weight_filler {
      type: "xavier"
      std: 0.09
    }
    bias_filler {
      type: "constant"
      value: 0.2
    }
  }
}
layer {
  name: "inception_4d/relu_3x3_reduce"
  type: "ReLU"
  bottom: "inception_4d/3x3_reduce"
  top: "inception_4d/3x3_reduce"
}
layer {
  name: "inception_4d/3x3"
  type: "Convolution"
  bottom: "inception_4d/3x3_reduce"
  top: "inception_4d/3x3"
  param {
    lr_mult: 1
    decay_mult: 1
  }
  param {
    lr_mult: 2
    decay_mult: 0
  }
  convolution_param {
    num_output: 288
    pad: 1
    kernel_size: 3
    weight_filler {
      type: "xavier"
      std: 0.03
    }
    bias_filler {
      type: "constant"
      value: 0.2
    }
  }
}
layer {
  name: "inception_4d/relu_3x3"
  type: "ReLU"
  bottom: "inception_4d/3x3"
  top: "inception_4d/3x3"
}
layer {
  name: "inception_4d/5x5_reduce"
  type: "Convolution"
  bottom: "inception_4c/output"
  top: "inception_4d/5x5_reduce"
  param {
    lr_mult: 1
    decay_mult: 1
  }
  param {
    lr_mult: 2
    decay_mult: 0
  }
  convolution_param {
    num_output: 32
    kernel_size: 1
    weight_filler {
      type: "xavier"
      std: 0.2
    }
    bias_filler {
      type: "constant"
      value: 0.2
    }
  }
}
layer {
  name: "inception_4d/relu_5x5_reduce"
  type: "ReLU"
  bottom: "inception_4d/5x5_reduce"
  top: "inception_4d/5x5_reduce"
}
layer {
  name: "inception_4d/5x5"
  type: "Convolution"
  bottom: "inception_4d/5x5_reduce"
  top: "inception_4d/5x5"
  param {
    lr_mult: 1
    decay_mult: 1
  }
  param {
    lr_mult: 2
    decay_mult: 0
  }
  convolution_param {
    num_output: 64
    pad: 2
    kernel_size: 5
    weight_filler {
      type: "xavier"
      std: 0.03
    }
    bias_filler {
      type: "constant"
      value: 0.2
    }
  }
}
layer {
  name: "inception_4d/relu_5x5"
  type: "ReLU"
  bottom: "inception_4d/5x5"
  top: "inception_4d/5x5"
}
layer {
  name: "inception_4d/pool"
  type: "Pooling"
  bottom: "inception_4c/output"
  top: "inception_4d/pool"
  pooling_param {
    pool: MAX
    kernel_size: 3
    stride: 1
    pad: 1
  }
}
layer {
  name: "inception_4d/pool_proj"
  type: "Convolution"
  bottom: "inception_4d/pool"
  top: "inception_4d/pool_proj"
  param {
    lr_mult: 1
    decay_mult: 1
  }
  param {
    lr_mult: 2
    decay_mult: 0
  }
  convolution_param {
    num_output: 64
    kernel_size: 1
    weight_filler {
      type: "xavier"
      std: 0.1
    }
    bias_filler {
      type: "constant"
      value: 0.2
    }
  }
}
layer {
  name: "inception_4d/relu_pool_proj"
  type: "ReLU"
  bottom: "inception_4d/pool_proj"
  top: "inception_4d/pool_proj"
}
layer {
  name: "inception_4d/output"
  type: "Concat"
  bottom: "inception_4d/1x1"
  bottom: "inception_4d/3x3"
  bottom: "inception_4d/5x5"
  bottom: "inception_4d/pool_proj"
  top: "inception_4d/output"
}
layer {
  name: "loss2/ave_pool"
  type: "Pooling"
  bottom: "inception_4d/output"
  top: "loss2/ave_pool"
  pooling_param {
    pool: AVE
    kernel_size: 5
    stride: 3
  }
}
layer {
  name: "loss2/conv"
  type: "Convolution"
  bottom: "loss2/ave_pool"
  top: "loss2/conv"
  param {
    lr_mult: 1
    decay_mult: 1
  }
  param {
    lr_mult: 2
    decay_mult: 0
  }
  convolution_param {
    num_output: 128
    kernel_size: 1
    weight_filler {
      type: "xavier"
      std: 0.08
    }
    bias_filler {
      type: "constant"
      value: 0.2
    }
  }
}
layer {
  name: "loss2/relu_conv"
  type: "ReLU"
  bottom: "loss2/conv"
  top: "loss2/conv"
}
layer {
  name: "loss2/fc"
  type: "InnerProduct"
  bottom: "loss2/conv"
  top: "loss2/fc"
  param {
    lr_mult: 1
    decay_mult: 1
  }
  param {
    lr_mult: 2
    decay_mult: 0
  }
  inner_product_param {
    num_output: 1024
    weight_filler {
      type: "xavier"
      std: 0.02
    }
    bias_filler {
      type: "constant"
      value: 0.2
    }
  }
}
layer {
  name: "loss2/relu_fc"
  type: "ReLU"
  bottom: "loss2/fc"
  top: "loss2/fc"
}
layer {
  name: "loss2/drop_fc"
  type: "Dropout"
  bottom: "loss2/fc"
  top: "loss2/fc"
  dropout_param {
    dropout_ratio: 0.7
  }
}
layer {
  name: "loss2/classifier_plantvillage"
  type: "InnerProduct"
  bottom: "loss2/fc"
  top: "loss2/classifier_plantvillage"
  param {
    lr_mult: 1
    decay_mult: 1
  }
  param {
    lr_mult: 2
    decay_mult: 0
  }
  inner_product_param {
    num_output: 38
    weight_filler {
      type: "xavier"
      std: 0.0009765625
    }
    bias_filler {
      type: "constant"
      value: 0
    }
  }
}
layer {
  name: "inception_4e/1x1"
  type: "Convolution"
  bottom: "inception_4d/output"
  top: "inception_4e/1x1"
  param {
    lr_mult: 1
    decay_mult: 1
  }
  param {
    lr_mult: 2
    decay_mult: 0
  }
  convolution_param {
    num_output: 256
    kernel_size: 1
    weight_filler {
      type: "xavier"
      std: 0.03
    }
    bias_filler {
      type: "constant"
      value: 0.2
    }
  }
}
layer {
  name: "inception_4e/relu_1x1"
  type: "ReLU"
  bottom: "inception_4e/1x1"
  top: "inception_4e/1x1"
}
layer {
  name: "inception_4e/3x3_reduce"
  type: "Convolution"
  bottom: "inception_4d/output"
  top: "inception_4e/3x3_reduce"
  param {
    lr_mult: 1
    decay_mult: 1
  }
  param {
    lr_mult: 2
    decay_mult: 0
  }
  convolution_param {
    num_output: 160
    kernel_size: 1
    weight_filler {
      type: "xavier"
      std: 0.09
    }
    bias_filler {
      type: "constant"
      value: 0.2
    }
  }
}
layer {
  name: "inception_4e/relu_3x3_reduce"
  type: "ReLU"
  bottom: "inception_4e/3x3_reduce"
  top: "inception_4e/3x3_reduce"
}
layer {
  name: "inception_4e/3x3"
  type: "Convolution"
  bottom: "inception_4e/3x3_reduce"
  top: "inception_4e/3x3"
  param {
    lr_mult: 1
    decay_mult: 1
  }
  param {
    lr_mult: 2
    decay_mult: 0
  }
  convolution_param {
    num_output: 320
    pad: 1
    kernel_size: 3
    weight_filler {
      type: "xavier"
      std: 0.03
    }
    bias_filler {
      type: "constant"
      value: 0.2
    }
  }
}
layer {
  name: "inception_4e/relu_3x3"
  type: "ReLU"
  bottom: "inception_4e/3x3"
  top: "inception_4e/3x3"
}
layer {
  name: "inception_4e/5x5_reduce"
  type: "Convolution"
  bottom: "inception_4d/output"
  top: "inception_4e/5x5_reduce"
  param {
    lr_mult: 1
    decay_mult: 1
  }
  param {
    lr_mult: 2
    decay_mult: 0
  }
  convolution_param {
    num_output: 32
    kernel_size: 1
    weight_filler {
      type: "xavier"
      std: 0.2
    }
    bias_filler {
      type: "constant"
      value: 0.2
    }
  }
}
layer {
  name: "inception_4e/relu_5x5_reduce"
  type: "ReLU"
  bottom: "inception_4e/5x5_reduce"
  top: "inception_4e/5x5_reduce"
}
layer {
  name: "inception_4e/5x5"
  type: "Convolution"
  bottom: "inception_4e/5x5_reduce"
  top: "inception_4e/
I0403 15:05:51.061624 18238 layer_factory.hpp:77] Creating layer data
I0403 15:05:51.062263 18238 net.cpp:91] Creating Layer data
I0403 15:05:51.062291 18238 net.cpp:399] data -> data
I0403 15:05:51.062348 18238 net.cpp:399] data -> label
I0403 15:05:51.062386 18238 data_transformer.cpp:25] Loading mean file from: /home/mohanty/data/final_dataset/lmdb/grayscale-40-60/mean.binaryproto
I0403 15:05:51.064931 18241 db_lmdb.cpp:38] Opened lmdb /home/mohanty/data/final_dataset/lmdb/grayscale-40-60/test_db
I0403 15:05:51.075845 18238 data_layer.cpp:41] output data size: 24,3,224,224
I0403 15:05:51.106425 18238 net.cpp:141] Setting up data
I0403 15:05:51.106528 18238 net.cpp:148] Top shape: 24 3 224 224 (3612672)
I0403 15:05:51.106551 18238 net.cpp:148] Top shape: 24 (24)
I0403 15:05:51.106567 18238 net.cpp:156] Memory required for data: 14450784
I0403 15:05:51.106596 18238 layer_factory.hpp:77] Creating layer label_data_1_split
I0403 15:05:51.106623 18238 net.cpp:91] Creating Layer label_data_1_split
I0403 15:05:51.106642 18238 net.cpp:425] label_data_1_split <- label
I0403 15:05:51.106676 18238 net.cpp:399] label_data_1_split -> label_data_1_split_0
I0403 15:05:51.106705 18238 net.cpp:399] label_data_1_split -> label_data_1_split_1
I0403 15:05:51.106727 18238 net.cpp:399] label_data_1_split -> label_data_1_split_2
I0403 15:05:51.106750 18238 net.cpp:399] label_data_1_split -> label_data_1_split_3
I0403 15:05:51.106770 18238 net.cpp:399] label_data_1_split -> label_data_1_split_4
I0403 15:05:51.106789 18238 net.cpp:399] label_data_1_split -> label_data_1_split_5
I0403 15:05:51.106809 18238 net.cpp:399] label_data_1_split -> label_data_1_split_6
I0403 15:05:51.106832 18238 net.cpp:399] label_data_1_split -> label_data_1_split_7
I0403 15:05:51.106853 18238 net.cpp:399] label_data_1_split -> label_data_1_split_8
I0403 15:05:51.106873 18238 net.cpp:399] label_data_1_split -> label_data_1_split_9
I0403 15:05:51.107000 18238 net.cpp:141] Setting up label_data_1_split
I0403 15:05:51.107025 18238 net.cpp:148] Top shape: 24 (24)
I0403 15:05:51.107043 18238 net.cpp:148] Top shape: 24 (24)
I0403 15:05:51.107059 18238 net.cpp:148] Top shape: 24 (24)
I0403 15:05:51.107076 18238 net.cpp:148] Top shape: 24 (24)
I0403 15:05:51.107092 18238 net.cpp:148] Top shape: 24 (24)
I0403 15:05:51.107108 18238 net.cpp:148] Top shape: 24 (24)
I0403 15:05:51.107123 18238 net.cpp:148] Top shape: 24 (24)
I0403 15:05:51.107141 18238 net.cpp:148] Top shape: 24 (24)
I0403 15:05:51.107156 18238 net.cpp:148] Top shape: 24 (24)
I0403 15:05:51.107172 18238 net.cpp:148] Top shape: 24 (24)
I0403 15:05:51.107219 18238 net.cpp:156] Memory required for data: 14451744
I0403 15:05:51.107237 18238 layer_factory.hpp:77] Creating layer conv1/7x7_s2
I0403 15:05:51.107270 18238 net.cpp:91] Creating Layer conv1/7x7_s2
I0403 15:05:51.107288 18238 net.cpp:425] conv1/7x7_s2 <- data
I0403 15:05:51.107308 18238 net.cpp:399] conv1/7x7_s2 -> conv1/7x7_s2
I0403 15:05:51.257669 18238 net.cpp:141] Setting up conv1/7x7_s2
I0403 15:05:51.257743 18238 net.cpp:148] Top shape: 24 64 112 112 (19267584)
I0403 15:05:51.257761 18238 net.cpp:156] Memory required for data: 91522080
I0403 15:05:51.257791 18238 layer_factory.hpp:77] Creating layer conv1/relu_7x7
I0403 15:05:51.257818 18238 net.cpp:91] Creating Layer conv1/relu_7x7
I0403 15:05:51.257836 18238 net.cpp:425] conv1/relu_7x7 <- conv1/7x7_s2
I0403 15:05:51.257854 18238 net.cpp:386] conv1/relu_7x7 -> conv1/7x7_s2 (in-place)
I0403 15:05:51.258124 18238 net.cpp:141] Setting up conv1/relu_7x7
I0403 15:05:51.258153 18238 net.cpp:148] Top shape: 24 64 112 112 (19267584)
I0403 15:05:51.258170 18238 net.cpp:156] Memory required for data: 168592416
I0403 15:05:51.258185 18238 layer_factory.hpp:77] Creating layer pool1/3x3_s2
I0403 15:05:51.258209 18238 net.cpp:91] Creating Layer pool1/3x3_s2
I0403 15:05:51.258227 18238 net.cpp:425] pool1/3x3_s2 <- conv1/7x7_s2
I0403 15:05:51.258249 18238 net.cpp:399] pool1/3x3_s2 -> pool1/3x3_s2
I0403 15:05:51.258327 18238 net.cpp:141] Setting up pool1/3x3_s2
I0403 15:05:51.258354 18238 net.cpp:148] Top shape: 24 64 56 56 (4816896)
I0403 15:05:51.258370 18238 net.cpp:156] Memory required for data: 187860000
I0403 15:05:51.258385 18238 layer_factory.hpp:77] Creating layer pool1/norm1
I0403 15:05:51.258409 18238 net.cpp:91] Creating Layer pool1/norm1
I0403 15:05:51.258426 18238 net.cpp:425] pool1/norm1 <- pool1/3x3_s2
I0403 15:05:51.258447 18238 net.cpp:399] pool1/norm1 -> pool1/norm1
I0403 15:05:51.258747 18238 net.cpp:141] Setting up pool1/norm1
I0403 15:05:51.258774 18238 net.cpp:148] Top shape: 24 64 56 56 (4816896)
I0403 15:05:51.258791 18238 net.cpp:156] Memory required for data: 207127584
I0403 15:05:51.258806 18238 layer_factory.hpp:77] Creating layer conv2/3x3_reduce
I0403 15:05:51.258832 18238 net.cpp:91] Creating Layer conv2/3x3_reduce
I0403 15:05:51.258849 18238 net.cpp:425] conv2/3x3_reduce <- pool1/norm1
I0403 15:05:51.258870 18238 net.cpp:399] conv2/3x3_reduce -> conv2/3x3_reduce
I0403 15:05:51.262181 18238 net.cpp:141] Setting up conv2/3x3_reduce
I0403 15:05:51.262217 18238 net.cpp:148] Top shape: 24 64 56 56 (4816896)
I0403 15:05:51.262236 18238 net.cpp:156] Memory required for data: 226395168
I0403 15:05:51.262259 18238 layer_factory.hpp:77] Creating layer conv2/relu_3x3_reduce
I0403 15:05:51.262281 18238 net.cpp:91] Creating Layer conv2/relu_3x3_reduce
I0403 15:05:51.262300 18238 net.cpp:425] conv2/relu_3x3_reduce <- conv2/3x3_reduce
I0403 15:05:51.262318 18238 net.cpp:386] conv2/relu_3x3_reduce -> conv2/3x3_reduce (in-place)
I0403 15:05:51.262672 18238 net.cpp:141] Setting up conv2/relu_3x3_reduce
I0403 15:05:51.262701 18238 net.cpp:148] Top shape: 24 64 56 56 (4816896)
I0403 15:05:51.262717 18238 net.cpp:156] Memory required for data: 245662752
I0403 15:05:51.262733 18238 layer_factory.hpp:77] Creating layer conv2/3x3
I0403 15:05:51.262760 18238 net.cpp:91] Creating Layer conv2/3x3
I0403 15:05:51.262778 18238 net.cpp:425] conv2/3x3 <- conv2/3x3_reduce
I0403 15:05:51.262799 18238 net.cpp:399] conv2/3x3 -> conv2/3x3
I0403 15:05:51.265260 18238 net.cpp:141] Setting up conv2/3x3
I0403 15:05:51.265293 18238 net.cpp:148] Top shape: 24 192 56 56 (14450688)
I0403 15:05:51.265311 18238 net.cpp:156] Memory required for data: 303465504
I0403 15:05:51.265332 18238 layer_factory.hpp:77] Creating layer conv2/relu_3x3
I0403 15:05:51.265357 18238 net.cpp:91] Creating Layer conv2/relu_3x3
I0403 15:05:51.265374 18238 net.cpp:425] conv2/relu_3x3 <- conv2/3x3
I0403 15:05:51.265393 18238 net.cpp:386] conv2/relu_3x3 -> conv2/3x3 (in-place)
I0403 15:05:51.265576 18238 net.cpp:141] Setting up conv2/relu_3x3
I0403 15:05:51.265602 18238 net.cpp:148] Top shape: 24 192 56 56 (14450688)
I0403 15:05:51.265651 18238 net.cpp:156] Memory required for data: 361268256
I0403 15:05:51.265668 18238 layer_factory.hpp:77] Creating layer conv2/norm2
I0403 15:05:51.265687 18238 net.cpp:91] Creating Layer conv2/norm2
I0403 15:05:51.265704 18238 net.cpp:425] conv2/norm2 <- conv2/3x3
I0403 15:05:51.265725 18238 net.cpp:399] conv2/norm2 -> conv2/norm2
I0403 15:05:51.266055 18238 net.cpp:141] Setting up conv2/norm2
I0403 15:05:51.266083 18238 net.cpp:148] Top shape: 24 192 56 56 (14450688)
I0403 15:05:51.266099 18238 net.cpp:156] Memory required for data: 419071008
I0403 15:05:51.266114 18238 layer_factory.hpp:77] Creating layer pool2/3x3_s2
I0403 15:05:51.266156 18238 net.cpp:91] Creating Layer pool2/3x3_s2
I0403 15:05:51.266177 18238 net.cpp:425] pool2/3x3_s2 <- conv2/norm2
I0403 15:05:51.266199 18238 net.cpp:399] pool2/3x3_s2 -> pool2/3x3_s2
I0403 15:05:51.266258 18238 net.cpp:141] Setting up pool2/3x3_s2
I0403 15:05:51.266283 18238 net.cpp:148] Top shape: 24 192 28 28 (3612672)
I0403 15:05:51.266299 18238 net.cpp:156] Memory required for data: 433521696
I0403 15:05:51.266314 18238 layer_factory.hpp:77] Creating layer pool2/3x3_s2_pool2/3x3_s2_0_split
I0403 15:05:51.266332 18238 net.cpp:91] Creating Layer pool2/3x3_s2_pool2/3x3_s2_0_split
I0403 15:05:51.266347 18238 net.cpp:425] pool2/3x3_s2_pool2/3x3_s2_0_split <- pool2/3x3_s2
I0403 15:05:51.266368 18238 net.cpp:399] pool2/3x3_s2_pool2/3x3_s2_0_split -> pool2/3x3_s2_pool2/3x3_s2_0_split_0
I0403 15:05:51.266391 18238 net.cpp:399] pool2/3x3_s2_pool2/3x3_s2_0_split -> pool2/3x3_s2_pool2/3x3_s2_0_split_1
I0403 15:05:51.266412 18238 net.cpp:399] pool2/3x3_s2_pool2/3x3_s2_0_split -> pool2/3x3_s2_pool2/3x3_s2_0_split_2
I0403 15:05:51.266433 18238 net.cpp:399] pool2/3x3_s2_pool2/3x3_s2_0_split -> pool2/3x3_s2_pool2/3x3_s2_0_split_3
I0403 15:05:51.266505 18238 net.cpp:141] Setting up pool2/3x3_s2_pool2/3x3_s2_0_split
I0403 15:05:51.266532 18238 net.cpp:148] Top shape: 24 192 28 28 (3612672)
I0403 15:05:51.266551 18238 net.cpp:148] Top shape: 24 192 28 28 (3612672)
I0403 15:05:51.266567 18238 net.cpp:148] Top shape: 24 192 28 28 (3612672)
I0403 15:05:51.266583 18238 net.cpp:148] Top shape: 24 192 28 28 (3612672)
I0403 15:05:51.266597 18238 net.cpp:156] Memory required for data: 491324448
I0403 15:05:51.266613 18238 layer_factory.hpp:77] Creating layer inception_3a/1x1
I0403 15:05:51.266635 18238 net.cpp:91] Creating Layer inception_3a/1x1
I0403 15:05:51.266654 18238 net.cpp:425] inception_3a/1x1 <- pool2/3x3_s2_pool2/3x3_s2_0_split_0
I0403 15:05:51.266674 18238 net.cpp:399] inception_3a/1x1 -> inception_3a/1x1
I0403 15:05:51.268306 18238 net.cpp:141] Setting up inception_3a/1x1
I0403 15:05:51.268337 18238 net.cpp:148] Top shape: 24 64 28 28 (1204224)
I0403 15:05:51.268353 18238 net.cpp:156] Memory required for data: 496141344
I0403 15:05:51.268373 18238 layer_factory.hpp:77] Creating layer inception_3a/relu_1x1
I0403 15:05:51.268398 18238 net.cpp:91] Creating Layer inception_3a/relu_1x1
I0403 15:05:51.268416 18238 net.cpp:425] inception_3a/relu_1x1 <- inception_3a/1x1
I0403 15:05:51.268435 18238 net.cpp:386] inception_3a/relu_1x1 -> inception_3a/1x1 (in-place)
I0403 15:05:51.268622 18238 net.cpp:141] Setting up inception_3a/relu_1x1
I0403 15:05:51.268651 18238 net.cpp:148] Top shape: 24 64 28 28 (1204224)
I0403 15:05:51.268667 18238 net.cpp:156] Memory required for data: 500958240
I0403 15:05:51.268683 18238 layer_factory.hpp:77] Creating layer inception_3a/3x3_reduce
I0403 15:05:51.268707 18238 net.cpp:91] Creating Layer inception_3a/3x3_reduce
I0403 15:05:51.268725 18238 net.cpp:425] inception_3a/3x3_reduce <- pool2/3x3_s2_pool2/3x3_s2_0_split_1
I0403 15:05:51.268744 18238 net.cpp:399] inception_3a/3x3_reduce -> inception_3a/3x3_reduce
I0403 15:05:51.270520 18238 net.cpp:141] Setting up inception_3a/3x3_reduce
I0403 15:05:51.270551 18238 net.cpp:148] Top shape: 24 96 28 28 (1806336)
I0403 15:05:51.270568 18238 net.cpp:156] Memory required for data: 508183584
I0403 15:05:51.270591 18238 layer_factory.hpp:77] Creating layer inception_3a/relu_3x3_reduce
I0403 15:05:51.270630 18238 net.cpp:91] Creating Layer inception_3a/relu_3x3_reduce
I0403 15:05:51.270649 18238 net.cpp:425] inception_3a/relu_3x3_reduce <- inception_3a/3x3_reduce
I0403 15:05:51.270669 18238 net.cpp:386] inception_3a/relu_3x3_reduce -> inception_3a/3x3_reduce (in-place)
I0403 15:05:51.270858 18238 net.cpp:141] Setting up inception_3a/relu_3x3_reduce
I0403 15:05:51.270884 18238 net.cpp:148] Top shape: 24 96 28 28 (1806336)
I0403 15:05:51.270900 18238 net.cpp:156] Memory required for data: 515408928
I0403 15:05:51.270915 18238 layer_factory.hpp:77] Creating layer inception_3a/3x3
I0403 15:05:51.270937 18238 net.cpp:91] Creating Layer inception_3a/3x3
I0403 15:05:51.270957 18238 net.cpp:425] inception_3a/3x3 <- inception_3a/3x3_reduce
I0403 15:05:51.270980 18238 net.cpp:399] inception_3a/3x3 -> inception_3a/3x3
I0403 15:05:51.272729 18238 net.cpp:141] Setting up inception_3a/3x3
I0403 15:05:51.272761 18238 net.cpp:148] Top shape: 24 128 28 28 (2408448)
I0403 15:05:51.272779 18238 net.cpp:156] Memory required for data: 525042720
I0403 15:05:51.272799 18238 layer_factory.hpp:77] Creating layer inception_3a/relu_3x3
I0403 15:05:51.272819 18238 net.cpp:91] Creating Layer inception_3a/relu_3x3
I0403 15:05:51.272835 18238 net.cpp:425] inception_3a/relu_3x3 <- inception_3a/3x3
I0403 15:05:51.272853 18238 net.cpp:386] inception_3a/relu_3x3 -> inception_3a/3x3 (in-place)
I0403 15:05:51.273145 18238 net.cpp:141] Setting up inception_3a/relu_3x3
I0403 15:05:51.273175 18238 net.cpp:148] Top shape: 24 128 28 28 (2408448)
I0403 15:05:51.273192 18238 net.cpp:156] Memory required for data: 534676512
I0403 15:05:51.273208 18238 layer_factory.hpp:77] Creating layer inception_3a/5x5_reduce
I0403 15:05:51.273232 18238 net.cpp:91] Creating Layer inception_3a/5x5_reduce
I0403 15:05:51.273252 18238 net.cpp:425] inception_3a/5x5_reduce <- pool2/3x3_s2_pool2/3x3_s2_0_split_2
I0403 15:05:51.273270 18238 net.cpp:399] inception_3a/5x5_reduce -> inception_3a/5x5_reduce
I0403 15:05:51.274277 18238 net.cpp:141] Setting up inception_3a/5x5_reduce
I0403 15:05:51.274309 18238 net.cpp:148] Top shape: 24 16 28 28 (301056)
I0403 15:05:51.274327 18238 net.cpp:156] Memory required for data: 535880736
I0403 15:05:51.274346 18238 layer_factory.hpp:77] Creating layer inception_3a/relu_5x5_reduce
I0403 15:05:51.274365 18238 net.cpp:91] Creating Layer inception_3a/relu_5x5_reduce
I0403 15:05:51.274382 18238 net.cpp:425] inception_3a/relu_5x5_reduce <- inception_3a/5x5_reduce
I0403 15:05:51.274400 18238 net.cpp:386] inception_3a/relu_5x5_reduce -> inception_3a/5x5_reduce (in-place)
I0403 15:05:51.274710 18238 net.cpp:141] Setting up inception_3a/relu_5x5_reduce
I0403 15:05:51.274739 18238 net.cpp:148] Top shape: 24 16 28 28 (301056)
I0403 15:05:51.274755 18238 net.cpp:156] Memory required for data: 537084960
I0403 15:05:51.274770 18238 layer_factory.hpp:77] Creating layer inception_3a/5x5
I0403 15:05:51.274793 18238 net.cpp:91] Creating Layer inception_3a/5x5
I0403 15:05:51.274811 18238 net.cpp:425] inception_3a/5x5 <- inception_3a/5x5_reduce
I0403 15:05:51.274833 18238 net.cpp:399] inception_3a/5x5 -> inception_3a/5x5
I0403 15:05:51.275893 18238 net.cpp:141] Setting up inception_3a/5x5
I0403 15:05:51.275923 18238 net.cpp:148] Top shape: 24 32 28 28 (602112)
I0403 15:05:51.275938 18238 net.cpp:156] Memory required for data: 539493408
I0403 15:05:51.275957 18238 layer_factory.hpp:77] Creating layer inception_3a/relu_5x5
I0403 15:05:51.275979 18238 net.cpp:91] Creating Layer inception_3a/relu_5x5
I0403 15:05:51.276002 18238 net.cpp:425] inception_3a/relu_5x5 <- inception_3a/5x5
I0403 15:05:51.276022 18238 net.cpp:386] inception_3a/relu_5x5 -> inception_3a/5x5 (in-place)
I0403 15:05:51.276206 18238 net.cpp:141] Setting up inception_3a/relu_5x5
I0403 15:05:51.276233 18238 net.cpp:148] Top shape: 24 32 28 28 (602112)
I0403 15:05:51.276250 18238 net.cpp:156] Memory required for data: 541901856
I0403 15:05:51.276265 18238 layer_factory.hpp:77] Creating layer inception_3a/pool
I0403 15:05:51.276284 18238 net.cpp:91] Creating Layer inception_3a/pool
I0403 15:05:51.276316 18238 net.cpp:425] inception_3a/pool <- pool2/3x3_s2_pool2/3x3_s2_0_split_3
I0403 15:05:51.276340 18238 net.cpp:399] inception_3a/pool -> inception_3a/pool
I0403 15:05:51.276401 18238 net.cpp:141] Setting up inception_3a/pool
I0403 15:05:51.276425 18238 net.cpp:148] Top shape: 24 192 28 28 (3612672)
I0403 15:05:51.276442 18238 net.cpp:156] Memory required for data: 556352544
I0403 15:05:51.276455 18238 layer_factory.hpp:77] Creating layer inception_3a/pool_proj
I0403 15:05:51.276479 18238 net.cpp:91] Creating Layer inception_3a/pool_proj
I0403 15:05:51.276497 18238 net.cpp:425] inception_3a/pool_proj <- inception_3a/pool
I0403 15:05:51.276520 18238 net.cpp:399] inception_3a/pool_proj -> inception_3a/pool_proj
I0403 15:05:51.277531 18238 net.cpp:141] Setting up inception_3a/pool_proj
I0403 15:05:51.277560 18238 net.cpp:148] Top shape: 24 32 28 28 (602112)
I0403 15:05:51.277578 18238 net.cpp:156] Memory required for data: 558760992
I0403 15:05:51.277603 18238 layer_factory.hpp:77] Creating layer inception_3a/relu_pool_proj
I0403 15:05:51.277624 18238 net.cpp:91] Creating Layer inception_3a/relu_pool_proj
I0403 15:05:51.277642 18238 net.cpp:425] inception_3a/relu_pool_proj <- inception_3a/pool_proj
I0403 15:05:51.277659 18238 net.cpp:386] inception_3a/relu_pool_proj -> inception_3a/pool_proj (in-place)
I0403 15:05:51.277951 18238 net.cpp:141] Setting up inception_3a/relu_pool_proj
I0403 15:05:51.277981 18238 net.cpp:148] Top shape: 24 32 28 28 (602112)
I0403 15:05:51.278012 18238 net.cpp:156] Memory required for data: 561169440
I0403 15:05:51.278028 18238 layer_factory.hpp:77] Creating layer inception_3a/output
I0403 15:05:51.278048 18238 net.cpp:91] Creating Layer inception_3a/output
I0403 15:05:51.278064 18238 net.cpp:425] inception_3a/output <- inception_3a/1x1
I0403 15:05:51.278081 18238 net.cpp:425] inception_3a/output <- inception_3a/3x3
I0403 15:05:51.278097 18238 net.cpp:425] inception_3a/output <- inception_3a/5x5
I0403 15:05:51.278113 18238 net.cpp:425] inception_3a/output <- inception_3a/pool_proj
I0403 15:05:51.278131 18238 net.cpp:399] inception_3a/output -> inception_3a/output
I0403 15:05:51.278182 18238 net.cpp:141] Setting up inception_3a/output
I0403 15:05:51.278206 18238 net.cpp:148] Top shape: 24 256 28 28 (4816896)
I0403 15:05:51.278223 18238 net.cpp:156] Memory required for data: 580437024
I0403 15:05:51.278237 18238 layer_factory.hpp:77] Creating layer inception_3a/output_inception_3a/output_0_split
I0403 15:05:51.278255 18238 net.cpp:91] Creating Layer inception_3a/output_inception_3a/output_0_split
I0403 15:05:51.278275 18238 net.cpp:425] inception_3a/output_inception_3a/output_0_split <- inception_3a/output
I0403 15:05:51.278293 18238 net.cpp:399] inception_3a/output_inception_3a/output_0_split -> inception_3a/output_inception_3a/output_0_split_0
I0403 15:05:51.278313 18238 net.cpp:399] inception_3a/output_inception_3a/output_0_split -> inception_3a/output_inception_3a/output_0_split_1
I0403 15:05:51.278339 18238 net.cpp:399] inception_3a/output_inception_3a/output_0_split -> inception_3a/output_inception_3a/output_0_split_2
I0403 15:05:51.278362 18238 net.cpp:399] inception_3a/output_inception_3a/output_0_split -> inception_3a/output_inception_3a/output_0_split_3
I0403 15:05:51.278441 18238 net.cpp:141] Setting up inception_3a/output_inception_3a/output_0_split
I0403 15:05:51.278465 18238 net.cpp:148] Top shape: 24 256 28 28 (4816896)
I0403 15:05:51.278482 18238 net.cpp:148] Top shape: 24 256 28 28 (4816896)
I0403 15:05:51.278499 18238 net.cpp:148] Top shape: 24 256 28 28 (4816896)
I0403 15:05:51.278515 18238 net.cpp:148] Top shape: 24 256 28 28 (4816896)
I0403 15:05:51.278529 18238 net.cpp:156] Memory required for data: 657507360
I0403 15:05:51.278544 18238 layer_factory.hpp:77] Creating layer inception_3b/1x1
I0403 15:05:51.278569 18238 net.cpp:91] Creating Layer inception_3b/1x1
I0403 15:05:51.278589 18238 net.cpp:425] inception_3b/1x1 <- inception_3a/output_inception_3a/output_0_split_0
I0403 15:05:51.278610 18238 net.cpp:399] inception_3b/1x1 -> inception_3b/1x1
I0403 15:05:51.279806 18238 net.cpp:141] Setting up inception_3b/1x1
I0403 15:05:51.279849 18238 net.cpp:148] Top shape: 24 128 28 28 (2408448)
I0403 15:05:51.279866 18238 net.cpp:156] Memory required for data: 667141152
I0403 15:05:51.279886 18238 layer_factory.hpp:77] Creating layer inception_3b/relu_1x1
I0403 15:05:51.279906 18238 net.cpp:91] Creating Layer inception_3b/relu_1x1
I0403 15:05:51.279924 18238 net.cpp:425] inception_3b/relu_1x1 <- inception_3b/1x1
I0403 15:05:51.279942 18238 net.cpp:386] inception_3b/relu_1x1 -> inception_3b/1x1 (in-place)
I0403 15:05:51.280131 18238 net.cpp:141] Setting up inception_3b/relu_1x1
I0403 15:05:51.280160 18238 net.cpp:148] Top shape: 24 128 28 28 (2408448)
I0403 15:05:51.280176 18238 net.cpp:156] Memory required for data: 676774944
I0403 15:05:51.280192 18238 layer_factory.hpp:77] Creating layer inception_3b/3x3_reduce
I0403 15:05:51.280215 18238 net.cpp:91] Creating Layer inception_3b/3x3_reduce
I0403 15:05:51.280235 18238 net.cpp:425] inception_3b/3x3_reduce <- inception_3a/output_inception_3a/output_0_split_1
I0403 15:05:51.280256 18238 net.cpp:399] inception_3b/3x3_reduce -> inception_3b/3x3_reduce
I0403 15:05:51.281452 18238 net.cpp:141] Setting up inception_3b/3x3_reduce
I0403 15:05:51.281482 18238 net.cpp:148] Top shape: 24 128 28 28 (2408448)
I0403 15:05:51.281499 18238 net.cpp:156] Memory required for data: 686408736
I0403 15:05:51.281518 18238 layer_factory.hpp:77] Creating layer inception_3b/relu_3x3_reduce
I0403 15:05:51.281539 18238 net.cpp:91] Creating Layer inception_3b/relu_3x3_reduce
I0403 15:05:51.281558 18238 net.cpp:425] inception_3b/relu_3x3_reduce <- inception_3b/3x3_reduce
I0403 15:05:51.281575 18238 net.cpp:386] inception_3b/relu_3x3_reduce -> inception_3b/3x3_reduce (in-place)
I0403 15:05:51.281757 18238 net.cpp:141] Setting up inception_3b/relu_3x3_reduce
I0403 15:05:51.281783 18238 net.cpp:148] Top shape: 24 128 28 28 (2408448)
I0403 15:05:51.281800 18238 net.cpp:156] Memory required for data: 696042528
I0403 15:05:51.281815 18238 layer_factory.hpp:77] Creating layer inception_3b/3x3
I0403 15:05:51.281841 18238 net.cpp:91] Creating Layer inception_3b/3x3
I0403 15:05:51.281860 18238 net.cpp:425] inception_3b/3x3 <- inception_3b/3x3_reduce
I0403 15:05:51.281883 18238 net.cpp:399] inception_3b/3x3 -> inception_3b/3x3
I0403 15:05:51.284945 18238 net.cpp:141] Setting up inception_3b/3x3
I0403 15:05:51.284978 18238 net.cpp:148] Top shape: 24 192 28 28 (3612672)
I0403 15:05:51.285001 18238 net.cpp:156] Memory required for data: 710493216
I0403 15:05:51.285022 18238 layer_factory.hpp:77] Creating layer inception_3b/relu_3x3
I0403 15:05:51.285042 18238 net.cpp:91] Creating Layer inception_3b/relu_3x3
I0403 15:05:51.285058 18238 net.cpp:425] inception_3b/relu_3x3 <- inception_3b/3x3
I0403 15:05:51.285076 18238 net.cpp:386] inception_3b/relu_3x3 -> inception_3b/3x3 (in-place)
I0403 15:05:51.285365 18238 net.cpp:141] Setting up inception_3b/relu_3x3
I0403 15:05:51.285397 18238 net.cpp:148] Top shape: 24 192 28 28 (3612672)
I0403 15:05:51.285413 18238 net.cpp:156] Memory required for data: 724943904
I0403 15:05:51.285429 18238 layer_factory.hpp:77] Creating layer inception_3b/5x5_reduce
I0403 15:05:51.285450 18238 net.cpp:91] Creating Layer inception_3b/5x5_reduce
I0403 15:05:51.285467 18238 net.cpp:425] inception_3b/5x5_reduce <- inception_3a/output_inception_3a/output_0_split_2
I0403 15:05:51.285490 18238 net.cpp:399] inception_3b/5x5_reduce -> inception_3b/5x5_reduce
I0403 15:05:51.286530 18238 net.cpp:141] Setting up inception_3b/5x5_reduce
I0403 15:05:51.286561 18238 net.cpp:148] Top shape: 24 32 28 28 (602112)
I0403 15:05:51.286581 18238 net.cpp:156] Memory required for data: 727352352
I0403 15:05:51.286600 18238 layer_factory.hpp:77] Creating layer inception_3b/relu_5x5_reduce
I0403 15:05:51.286618 18238 net.cpp:91] Creating Layer inception_3b/relu_5x5_reduce
I0403 15:05:51.286635 18238 net.cpp:425] inception_3b/relu_5x5_reduce <- inception_3b/5x5_reduce
I0403 15:05:51.286654 18238 net.cpp:386] inception_3b/relu_5x5_reduce -> inception_3b/5x5_reduce (in-place)
I0403 15:05:51.286859 18238 net.cpp:141] Setting up inception_3b/relu_5x5_reduce
I0403 15:05:51.286888 18238 net.cpp:148] Top shape: 24 32 28 28 (602112)
I0403 15:05:51.286905 18238 net.cpp:156] Memory required for data: 729760800
I0403 15:05:51.286921 18238 layer_factory.hpp:77] Creating layer inception_3b/5x5
I0403 15:05:51.286943 18238 net.cpp:91] Creating Layer inception_3b/5x5
I0403 15:05:51.286962 18238 net.cpp:425] inception_3b/5x5 <- inception_3b/5x5_reduce
I0403 15:05:51.286981 18238 net.cpp:399] inception_3b/5x5 -> inception_3b/5x5
I0403 15:05:51.289052 18238 net.cpp:141] Setting up inception_3b/5x5
I0403 15:05:51.289083 18238 net.cpp:148] Top shape: 24 96 28 28 (1806336)
I0403 15:05:51.289098 18238 net.cpp:156] Memory required for data: 736986144
I0403 15:05:51.289118 18238 layer_factory.hpp:77] Creating layer inception_3b/relu_5x5
I0403 15:05:51.289139 18238 net.cpp:91] Creating Layer inception_3b/relu_5x5
I0403 15:05:51.289156 18238 net.cpp:425] inception_3b/relu_5x5 <- inception_3b/5x5
I0403 15:05:51.289175 18238 net.cpp:386] inception_3b/relu_5x5 -> inception_3b/5x5 (in-place)
I0403 15:05:51.289376 18238 net.cpp:141] Setting up inception_3b/relu_5x5
I0403 15:05:51.289402 18238 net.cpp:148] Top shape: 24 96 28 28 (1806336)
I0403 15:05:51.289417 18238 net.cpp:156] Memory required for data: 744211488
I0403 15:05:51.289433 18238 layer_factory.hpp:77] Creating layer inception_3b/pool
I0403 15:05:51.289450 18238 net.cpp:91] Creating Layer inception_3b/pool
I0403 15:05:51.289468 18238 net.cpp:425] inception_3b/pool <- inception_3a/output_inception_3a/output_0_split_3
I0403 15:05:51.289485 18238 net.cpp:399] inception_3b/pool -> inception_3b/pool
I0403 15:05:51.289543 18238 net.cpp:141] Setting up inception_3b/pool
I0403 15:05:51.289567 18238 net.cpp:148] Top shape: 24 256 28 28 (4816896)
I0403 15:05:51.289583 18238 net.cpp:156] Memory required for data: 763479072
I0403 15:05:51.289598 18238 layer_factory.hpp:77] Creating layer inception_3b/pool_proj
I0403 15:05:51.289621 18238 net.cpp:91] Creating Layer inception_3b/pool_proj
I0403 15:05:51.289640 18238 net.cpp:425] inception_3b/pool_proj <- inception_3b/pool
I0403 15:05:51.289664 18238 net.cpp:399] inception_3b/pool_proj -> inception_3b/pool_proj
I0403 15:05:51.290771 18238 net.cpp:141] Setting up inception_3b/pool_proj
I0403 15:05:51.290802 18238 net.cpp:148] Top shape: 24 64 28 28 (1204224)
I0403 15:05:51.290819 18238 net.cpp:156] Memory required for data: 768295968
I0403 15:05:51.290838 18238 layer_factory.hpp:77] Creating layer inception_3b/relu_pool_proj
I0403 15:05:51.290858 18238 net.cpp:91] Creating Layer inception_3b/relu_pool_proj
I0403 15:05:51.290874 18238 net.cpp:425] inception_3b/relu_pool_proj <- inception_3b/pool_proj
I0403 15:05:51.290896 18238 net.cpp:386] inception_3b/relu_pool_proj -> inception_3b/pool_proj (in-place)
I0403 15:05:51.291308 18238 net.cpp:141] Setting up inception_3b/relu_pool_proj
I0403 15:05:51.291339 18238 net.cpp:148] Top shape: 24 64 28 28 (1204224)
I0403 15:05:51.291357 18238 net.cpp:156] Memory required for data: 773112864
I0403 15:05:51.291378 18238 layer_factory.hpp:77] Creating layer inception_3b/output
I0403 15:05:51.291398 18238 net.cpp:91] Creating Layer inception_3b/output
I0403 15:05:51.291414 18238 net.cpp:425] inception_3b/output <- inception_3b/1x1
I0403 15:05:51.291430 18238 net.cpp:425] inception_3b/output <- inception_3b/3x3
I0403 15:05:51.291446 18238 net.cpp:425] inception_3b/output <- inception_3b/5x5
I0403 15:05:51.291463 18238 net.cpp:425] inception_3b/output <- inception_3b/pool_proj
I0403 15:05:51.291481 18238 net.cpp:399] inception_3b/output -> inception_3b/output
I0403 15:05:51.291528 18238 net.cpp:141] Setting up inception_3b/output
I0403 15:05:51.291553 18238 net.cpp:148] Top shape: 24 480 28 28 (9031680)
I0403 15:05:51.291568 18238 net.cpp:156] Memory required for data: 809239584
I0403 15:05:51.291584 18238 layer_factory.hpp:77] Creating layer pool3/3x3_s2
I0403 15:05:51.291604 18238 net.cpp:91] Creating Layer pool3/3x3_s2
I0403 15:05:51.291622 18238 net.cpp:425] pool3/3x3_s2 <- inception_3b/output
I0403 15:05:51.291669 18238 net.cpp:399] pool3/3x3_s2 -> pool3/3x3_s2
I0403 15:05:51.291744 18238 net.cpp:141] Setting up pool3/3x3_s2
I0403 15:05:51.291769 18238 net.cpp:148] Top shape: 24 480 14 14 (2257920)
I0403 15:05:51.291785 18238 net.cpp:156] Memory required for data: 818271264
I0403 15:05:51.291800 18238 layer_factory.hpp:77] Creating layer pool3/3x3_s2_pool3/3x3_s2_0_split
I0403 15:05:51.291817 18238 net.cpp:91] Creating Layer pool3/3x3_s2_pool3/3x3_s2_0_split
I0403 15:05:51.291833 18238 net.cpp:425] pool3/3x3_s2_pool3/3x3_s2_0_split <- pool3/3x3_s2
I0403 15:05:51.291853 18238 net.cpp:399] pool3/3x3_s2_pool3/3x3_s2_0_split -> pool3/3x3_s2_pool3/3x3_s2_0_split_0
I0403 15:05:51.291874 18238 net.cpp:399] pool3/3x3_s2_pool3/3x3_s2_0_split -> pool3/3x3_s2_pool3/3x3_s2_0_split_1
I0403 15:05:51.291895 18238 net.cpp:399] pool3/3x3_s2_pool3/3x3_s2_0_split -> pool3/3x3_s2_pool3/3x3_s2_0_split_2
I0403 15:05:51.291915 18238 net.cpp:399] pool3/3x3_s2_pool3/3x3_s2_0_split -> pool3/3x3_s2_pool3/3x3_s2_0_split_3
I0403 15:05:51.292012 18238 net.cpp:141] Setting up pool3/3x3_s2_pool3/3x3_s2_0_split
I0403 15:05:51.292039 18238 net.cpp:148] Top shape: 24 480 14 14 (2257920)
I0403 15:05:51.292057 18238 net.cpp:148] Top shape: 24 480 14 14 (2257920)
I0403 15:05:51.292073 18238 net.cpp:148] Top shape: 24 480 14 14 (2257920)
I0403 15:05:51.292088 18238 net.cpp:148] Top shape: 24 480 14 14 (2257920)
I0403 15:05:51.292101 18238 net.cpp:156] Memory required for data: 854397984
I0403 15:05:51.292119 18238 layer_factory.hpp:77] Creating layer inception_4a/1x1
I0403 15:05:51.292141 18238 net.cpp:91] Creating Layer inception_4a/1x1
I0403 15:05:51.292160 18238 net.cpp:425] inception_4a/1x1 <- pool3/3x3_s2_pool3/3x3_s2_0_split_0
I0403 15:05:51.292179 18238 net.cpp:399] inception_4a/1x1 -> inception_4a/1x1
I0403 15:05:51.293854 18238 net.cpp:141] Setting up inception_4a/1x1
I0403 15:05:51.293884 18238 net.cpp:148] Top shape: 24 192 14 14 (903168)
I0403 15:05:51.293900 18238 net.cpp:156] Memory required for data: 858010656
I0403 15:05:51.293920 18238 layer_factory.hpp:77] Creating layer inception_4a/relu_1x1
I0403 15:05:51.293937 18238 net.cpp:91] Creating Layer inception_4a/relu_1x1
I0403 15:05:51.293956 18238 net.cpp:425] inception_4a/relu_1x1 <- inception_4a/1x1
I0403 15:05:51.293974 18238 net.cpp:386] inception_4a/relu_1x1 -> inception_4a/1x1 (in-place)
I0403 15:05:51.294162 18238 net.cpp:141] Setting up inception_4a/relu_1x1
I0403 15:05:51.294188 18238 net.cpp:148] Top shape: 24 192 14 14 (903168)
I0403 15:05:51.294203 18238 net.cpp:156] Memory required for data: 861623328
I0403 15:05:51.294216 18238 layer_factory.hpp:77] Creating layer inception_4a/3x3_reduce
I0403 15:05:51.294239 18238 net.cpp:91] Creating Layer inception_4a/3x3_reduce
I0403 15:05:51.294257 18238 net.cpp:425] inception_4a/3x3_reduce <- pool3/3x3_s2_pool3/3x3_s2_0_split_1
I0403 15:05:51.294280 18238 net.cpp:399] inception_4a/3x3_reduce -> inception_4a/3x3_reduce
I0403 15:05:51.295588 18238 net.cpp:141] Setting up inception_4a/3x3_reduce
I0403 15:05:51.295616 18238 net.cpp:148] Top shape: 24 96 14 14 (451584)
I0403 15:05:51.295636 18238 net.cpp:156] Memory required for data: 863429664
I0403 15:05:51.295662 18238 layer_factory.hpp:77] Creating layer inception_4a/relu_3x3_reduce
I0403 15:05:51.295683 18238 net.cpp:91] Creating Layer inception_4a/relu_3x3_reduce
I0403 15:05:51.295699 18238 net.cpp:425] inception_4a/relu_3x3_reduce <- inception_4a/3x3_reduce
I0403 15:05:51.295719 18238 net.cpp:386] inception_4a/relu_3x3_reduce -> inception_4a/3x3_reduce (in-place)
I0403 15:05:51.295898 18238 net.cpp:141] Setting up inception_4a/relu_3x3_reduce
I0403 15:05:51.295923 18238 net.cpp:148] Top shape: 24 96 14 14 (451584)
I0403 15:05:51.295938 18238 net.cpp:156] Memory required for data: 865236000
I0403 15:05:51.295953 18238 layer_factory.hpp:77] Creating layer inception_4a/3x3
I0403 15:05:51.295975 18238 net.cpp:91] Creating Layer inception_4a/3x3
I0403 15:05:51.295999 18238 net.cpp:425] inception_4a/3x3 <- inception_4a/3x3_reduce
I0403 15:05:51.296021 18238 net.cpp:399] inception_4a/3x3 -> inception_4a/3x3
I0403 15:05:51.298794 18238 net.cpp:141] Setting up inception_4a/3x3
I0403 15:05:51.298822 18238 net.cpp:148] Top shape: 24 208 14 14 (978432)
I0403 15:05:51.298838 18238 net.cpp:156] Memory required for data: 869149728
I0403 15:05:51.298856 18238 layer_factory.hpp:77] Creating layer inception_4a/relu_3x3
I0403 15:05:51.298877 18238 net.cpp:91] Creating Layer inception_4a/relu_3x3
I0403 15:05:51.298895 18238 net.cpp:425] inception_4a/relu_3x3 <- inception_4a/3x3
I0403 15:05:51.298913 18238 net.cpp:386] inception_4a/relu_3x3 -> inception_4a/3x3 (in-place)
I0403 15:05:51.299216 18238 net.cpp:141] Setting up inception_4a/relu_3x3
I0403 15:05:51.299244 18238 net.cpp:148] Top shape: 24 208 14 14 (978432)
I0403 15:05:51.299259 18238 net.cpp:156] Memory required for data: 873063456
I0403 15:05:51.299275 18238 layer_factory.hpp:77] Creating layer inception_4a/5x5_reduce
I0403 15:05:51.299299 18238 net.cpp:91] Creating Layer inception_4a/5x5_reduce
I0403 15:05:51.299315 18238 net.cpp:425] inception_4a/5x5_reduce <- pool3/3x3_s2_pool3/3x3_s2_0_split_2
I0403 15:05:51.299337 18238 net.cpp:399] inception_4a/5x5_reduce -> inception_4a/5x5_reduce
I0403 15:05:51.300410 18238 net.cpp:141] Setting up inception_4a/5x5_reduce
I0403 15:05:51.300437 18238 net.cpp:148] Top shape: 24 16 14 14 (75264)
I0403 15:05:51.300454 18238 net.cpp:156] Memory required for data: 873364512
I0403 15:05:51.300473 18238 layer_factory.hpp:77] Creating layer inception_4a/relu_5x5_reduce
I0403 15:05:51.300494 18238 net.cpp:91] Creating Layer inception_4a/relu_5x5_reduce
I0403 15:05:51.300510 18238 net.cpp:425] inception_4a/relu_5x5_reduce <- inception_4a/5x5_reduce
I0403 15:05:51.300529 18238 net.cpp:386] inception_4a/relu_5x5_reduce -> inception_4a/5x5_reduce (in-place)
I0403 15:05:51.300710 18238 net.cpp:141] Setting up inception_4a/relu_5x5_reduce
I0403 15:05:51.300739 18238 net.cpp:148] Top shape: 24 16 14 14 (75264)
I0403 15:05:51.300755 18238 net.cpp:156] Memory required for data: 873665568
I0403 15:05:51.300770 18238 layer_factory.hpp:77] Creating layer inception_4a/5x5
I0403 15:05:51.300791 18238 net.cpp:91] Creating Layer inception_4a/5x5
I0403 15:05:51.300811 18238 net.cpp:425] inception_4a/5x5 <- inception_4a/5x5_reduce
I0403 15:05:51.300829 18238 net.cpp:399] inception_4a/5x5 -> inception_4a/5x5
I0403 15:05:51.301959 18238 net.cpp:141] Setting up inception_4a/5x5
I0403 15:05:51.301995 18238 net.cpp:148] Top shape: 24 48 14 14 (225792)
I0403 15:05:51.302026 18238 net.cpp:156] Memory required for data: 874568736
I0403 15:05:51.302044 18238 layer_factory.hpp:77] Creating layer inception_4a/relu_5x5
I0403 15:05:51.302063 18238 net.cpp:91] Creating Layer inception_4a/relu_5x5
I0403 15:05:51.302078 18238 net.cpp:425] inception_4a/relu_5x5 <- inception_4a/5x5
I0403 15:05:51.302098 18238 net.cpp:386] inception_4a/relu_5x5 -> inception_4a/5x5 (in-place)
I0403 15:05:51.302283 18238 net.cpp:141] Setting up inception_4a/relu_5x5
I0403 15:05:51.302307 18238 net.cpp:148] Top shape: 24 48 14 14 (225792)
I0403 15:05:51.302323 18238 net.cpp:156] Memory required for data: 875471904
I0403 15:05:51.302338 18238 layer_factory.hpp:77] Creating layer inception_4a/pool
I0403 15:05:51.302356 18238 net.cpp:91] Creating Layer inception_4a/pool
I0403 15:05:51.302376 18238 net.cpp:425] inception_4a/pool <- pool3/3x3_s2_pool3/3x3_s2_0_split_3
I0403 15:05:51.302394 18238 net.cpp:399] inception_4a/pool -> inception_4a/pool
I0403 15:05:51.302456 18238 net.cpp:141] Setting up inception_4a/pool
I0403 15:05:51.302480 18238 net.cpp:148] Top shape: 24 480 14 14 (2257920)
I0403 15:05:51.302495 18238 net.cpp:156] Memory required for data: 884503584
I0403 15:05:51.302510 18238 layer_factory.hpp:77] Creating layer inception_4a/pool_proj
I0403 15:05:51.302532 18238 net.cpp:91] Creating Layer inception_4a/pool_proj
I0403 15:05:51.302551 18238 net.cpp:425] inception_4a/pool_proj <- inception_4a/pool
I0403 15:05:51.302572 18238 net.cpp:399] inception_4a/pool_proj -> inception_4a/pool_proj
I0403 15:05:51.303761 18238 net.cpp:141] Setting up inception_4a/pool_proj
I0403 15:05:51.303789 18238 net.cpp:148] Top shape: 24 64 14 14 (301056)
I0403 15:05:51.303820 18238 net.cpp:156] Memory required for data: 885707808
I0403 15:05:51.303840 18238 layer_factory.hpp:77] Creating layer inception_4a/relu_pool_proj
I0403 15:05:51.303858 18238 net.cpp:91] Creating Layer inception_4a/relu_pool_proj
I0403 15:05:51.303874 18238 net.cpp:425] inception_4a/relu_pool_proj <- inception_4a/pool_proj
I0403 15:05:51.303894 18238 net.cpp:386] inception_4a/relu_pool_proj -> inception_4a/pool_proj (in-place)
I0403 15:05:51.304188 18238 net.cpp:141] Setting up inception_4a/relu_pool_proj
I0403 15:05:51.304214 18238 net.cpp:148] Top shape: 24 64 14 14 (301056)
I0403 15:05:51.304229 18238 net.cpp:156] Memory required for data: 886912032
I0403 15:05:51.304246 18238 layer_factory.hpp:77] Creating layer inception_4a/output
I0403 15:05:51.304263 18238 net.cpp:91] Creating Layer inception_4a/output
I0403 15:05:51.304280 18238 net.cpp:425] inception_4a/output <- inception_4a/1x1
I0403 15:05:51.304297 18238 net.cpp:425] inception_4a/output <- inception_4a/3x3
I0403 15:05:51.304314 18238 net.cpp:425] inception_4a/output <- inception_4a/5x5
I0403 15:05:51.304332 18238 net.cpp:425] inception_4a/output <- inception_4a/pool_proj
I0403 15:05:51.304350 18238 net.cpp:399] inception_4a/output -> inception_4a/output
I0403 15:05:51.304395 18238 net.cpp:141] Setting up inception_4a/output
I0403 15:05:51.304421 18238 net.cpp:148] Top shape: 24 512 14 14 (2408448)
I0403 15:05:51.304438 18238 net.cpp:156] Memory required for data: 896545824
I0403 15:05:51.304453 18238 layer_factory.hpp:77] Creating layer inception_4a/output_inception_4a/output_0_split
I0403 15:05:51.304471 18238 net.cpp:91] Creating Layer inception_4a/output_inception_4a/output_0_split
I0403 15:05:51.304486 18238 net.cpp:425] inception_4a/output_inception_4a/output_0_split <- inception_4a/output
I0403 15:05:51.304504 18238 net.cpp:399] inception_4a/output_inception_4a/output_0_split -> inception_4a/output_inception_4a/output_0_split_0
I0403 15:05:51.304527 18238 net.cpp:399] inception_4a/output_inception_4a/output_0_split -> inception_4a/output_inception_4a/output_0_split_1
I0403 15:05:51.304549 18238 net.cpp:399] inception_4a/output_inception_4a/output_0_split -> inception_4a/output_inception_4a/output_0_split_2
I0403 15:05:51.304569 18238 net.cpp:399] inception_4a/output_inception_4a/output_0_split -> inception_4a/output_inception_4a/output_0_split_3
I0403 15:05:51.304589 18238 net.cpp:399] inception_4a/output_inception_4a/output_0_split -> inception_4a/output_inception_4a/output_0_split_4
I0403 15:05:51.304683 18238 net.cpp:141] Setting up inception_4a/output_inception_4a/output_0_split
I0403 15:05:51.304707 18238 net.cpp:148] Top shape: 24 512 14 14 (2408448)
I0403 15:05:51.304723 18238 net.cpp:148] Top shape: 24 512 14 14 (2408448)
I0403 15:05:51.304741 18238 net.cpp:148] Top shape: 24 512 14 14 (2408448)
I0403 15:05:51.304757 18238 net.cpp:148] Top shape: 24 512 14 14 (2408448)
I0403 15:05:51.304774 18238 net.cpp:148] Top shape: 24 512 14 14 (2408448)
I0403 15:05:51.304787 18238 net.cpp:156] Memory required for data: 944714784
I0403 15:05:51.304802 18238 layer_factory.hpp:77] Creating layer loss1/ave_pool
I0403 15:05:51.304821 18238 net.cpp:91] Creating Layer loss1/ave_pool
I0403 15:05:51.304836 18238 net.cpp:425] loss1/ave_pool <- inception_4a/output_inception_4a/output_0_split_0
I0403 15:05:51.304854 18238 net.cpp:399] loss1/ave_pool -> loss1/ave_pool
I0403 15:05:51.305090 18238 net.cpp:141] Setting up loss1/ave_pool
I0403 15:05:51.305117 18238 net.cpp:148] Top shape: 24 512 4 4 (196608)
I0403 15:05:51.305133 18238 net.cpp:156] Memory required for data: 945501216
I0403 15:05:51.305148 18238 layer_factory.hpp:77] Creating layer loss1/conv
I0403 15:05:51.305173 18238 net.cpp:91] Creating Layer loss1/conv
I0403 15:05:51.305192 18238 net.cpp:425] loss1/conv <- loss1/ave_pool
I0403 15:05:51.305214 18238 net.cpp:399] loss1/conv -> loss1/conv
I0403 15:05:51.306716 18238 net.cpp:141] Setting up loss1/conv
I0403 15:05:51.306746 18238 net.cpp:148] Top shape: 24 128 4 4 (49152)
I0403 15:05:51.306778 18238 net.cpp:156] Memory required for data: 945697824
I0403 15:05:51.306799 18238 layer_factory.hpp:77] Creating layer loss1/relu_conv
I0403 15:05:51.306821 18238 net.cpp:91] Creating Layer loss1/relu_conv
I0403 15:05:51.306839 18238 net.cpp:425] loss1/relu_conv <- loss1/conv
I0403 15:05:51.306859 18238 net.cpp:386] loss1/relu_conv -> loss1/conv (in-place)
I0403 15:05:51.307158 18238 net.cpp:141] Setting up loss1/relu_conv
I0403 15:05:51.307186 18238 net.cpp:148] Top shape: 24 128 4 4 (49152)
I0403 15:05:51.307202 18238 net.cpp:156] Memory required for data: 945894432
I0403 15:05:51.307217 18238 layer_factory.hpp:77] Creating layer loss1/fc
I0403 15:05:51.307245 18238 net.cpp:91] Creating Layer loss1/fc
I0403 15:05:51.307263 18238 net.cpp:425] loss1/fc <- loss1/conv
I0403 15:05:51.307282 18238 net.cpp:399] loss1/fc -> loss1/fc
I0403 15:05:51.326076 18238 net.cpp:141] Setting up loss1/fc
I0403 15:05:51.326117 18238 net.cpp:148] Top shape: 24 1024 (24576)
I0403 15:05:51.326133 18238 net.cpp:156] Memory required for data: 945992736
I0403 15:05:51.326153 18238 layer_factory.hpp:77] Creating layer loss1/relu_fc
I0403 15:05:51.326174 18238 net.cpp:91] Creating Layer loss1/relu_fc
I0403 15:05:51.326190 18238 net.cpp:425] loss1/relu_fc <- loss1/fc
I0403 15:05:51.326211 18238 net.cpp:386] loss1/relu_fc -> loss1/fc (in-place)
I0403 15:05:51.326443 18238 net.cpp:141] Setting up loss1/relu_fc
I0403 15:05:51.326470 18238 net.cpp:148] Top shape: 24 1024 (24576)
I0403 15:05:51.326486 18238 net.cpp:156] Memory required for data: 946091040
I0403 15:05:51.326501 18238 layer_factory.hpp:77] Creating layer loss1/drop_fc
I0403 15:05:51.326532 18238 net.cpp:91] Creating Layer loss1/drop_fc
I0403 15:05:51.326550 18238 net.cpp:425] loss1/drop_fc <- loss1/fc
I0403 15:05:51.326567 18238 net.cpp:386] loss1/drop_fc -> loss1/fc (in-place)
I0403 15:05:51.326620 18238 net.cpp:141] Setting up loss1/drop_fc
I0403 15:05:51.326648 18238 net.cpp:148] Top shape: 24 1024 (24576)
I0403 15:05:51.326664 18238 net.cpp:156] Memory required for data: 946189344
I0403 15:05:51.326679 18238 layer_factory.hpp:77] Creating layer loss1/classifier_plantvillage
I0403 15:05:51.326699 18238 net.cpp:91] Creating Layer loss1/classifier_plantvillage
I0403 15:05:51.326715 18238 net.cpp:425] loss1/classifier_plantvillage <- loss1/fc
I0403 15:05:51.326748 18238 net.cpp:399] loss1/classifier_plantvillage -> loss1/classifier_plantvillage
I0403 15:05:51.327687 18238 net.cpp:141] Setting up loss1/classifier_plantvillage
I0403 15:05:51.327715 18238 net.cpp:148] Top shape: 24 38 (912)
I0403 15:05:51.327730 18238 net.cpp:156] Memory required for data: 946192992
I0403 15:05:51.327747 18238 layer_factory.hpp:77] Creating layer loss1/classifier_plantvillage_loss1/classifier_plantvillage_0_split
I0403 15:05:51.327769 18238 net.cpp:91] Creating Layer loss1/classifier_plantvillage_loss1/classifier_plantvillage_0_split
I0403 15:05:51.327785 18238 net.cpp:425] loss1/classifier_plantvillage_loss1/classifier_plantvillage_0_split <- loss1/classifier_plantvillage
I0403 15:05:51.327802 18238 net.cpp:399] loss1/classifier_plantvillage_loss1/classifier_plantvillage_0_split -> loss1/classifier_plantvillage_loss1/classifier_plantvillage_0_split_0
I0403 15:05:51.327822 18238 net.cpp:399] loss1/classifier_plantvillage_loss1/classifier_plantvillage_0_split -> loss1/classifier_plantvillage_loss1/classifier_plantvillage_0_split_1
I0403 15:05:51.327842 18238 net.cpp:399] loss1/classifier_plantvillage_loss1/classifier_plantvillage_0_split -> loss1/classifier_plantvillage_loss1/classifier_plantvillage_0_split_2
I0403 15:05:51.327908 18238 net.cpp:141] Setting up loss1/classifier_plantvillage_loss1/classifier_plantvillage_0_split
I0403 15:05:51.327931 18238 net.cpp:148] Top shape: 24 38 (912)
I0403 15:05:51.327950 18238 net.cpp:148] Top shape: 24 38 (912)
I0403 15:05:51.327965 18238 net.cpp:148] Top shape: 24 38 (912)
I0403 15:05:51.327978 18238 net.cpp:156] Memory required for data: 946203936
I0403 15:05:51.328012 18238 layer_factory.hpp:77] Creating layer inception_4b/1x1
I0403 15:05:51.328037 18238 net.cpp:91] Creating Layer inception_4b/1x1
I0403 15:05:51.328073 18238 net.cpp:425] inception_4b/1x1 <- inception_4a/output_inception_4a/output_0_split_1
I0403 15:05:51.328094 18238 net.cpp:399] inception_4b/1x1 -> inception_4b/1x1
I0403 15:05:51.329838 18238 net.cpp:141] Setting up inception_4b/1x1
I0403 15:05:51.329866 18238 net.cpp:148] Top shape: 24 160 14 14 (752640)
I0403 15:05:51.329884 18238 net.cpp:156] Memory required for data: 949214496
I0403 15:05:51.329901 18238 layer_factory.hpp:77] Creating layer inception_4b/relu_1x1
I0403 15:05:51.329922 18238 net.cpp:91] Creating Layer inception_4b/relu_1x1
I0403 15:05:51.329939 18238 net.cpp:425] inception_4b/relu_1x1 <- inception_4b/1x1
I0403 15:05:51.329957 18238 net.cpp:386] inception_4b/relu_1x1 -> inception_4b/1x1 (in-place)
I0403 15:05:51.330147 18238 net.cpp:141] Setting up inception_4b/relu_1x1
I0403 15:05:51.330174 18238 net.cpp:148] Top shape: 24 160 14 14 (752640)
I0403 15:05:51.330191 18238 net.cpp:156] Memory required for data: 952225056
I0403 15:05:51.330206 18238 layer_factory.hpp:77] Creating layer inception_4b/3x3_reduce
I0403 15:05:51.330229 18238 net.cpp:91] Creating Layer inception_4b/3x3_reduce
I0403 15:05:51.330246 18238 net.cpp:425] inception_4b/3x3_reduce <- inception_4a/output_inception_4a/output_0_split_2
I0403 15:05:51.330266 18238 net.cpp:399] inception_4b/3x3_reduce -> inception_4b/3x3_reduce
I0403 15:05:51.331656 18238 net.cpp:141] Setting up inception_4b/3x3_reduce
I0403 15:05:51.331688 18238 net.cpp:148] Top shape: 24 112 14 14 (526848)
I0403 15:05:51.331707 18238 net.cpp:156] Memory required for data: 954332448
I0403 15:05:51.331725 18238 layer_factory.hpp:77] Creating layer inception_4b/relu_3x3_reduce
I0403 15:05:51.331743 18238 net.cpp:91] Creating Layer inception_4b/relu_3x3_reduce
I0403 15:05:51.331759 18238 net.cpp:425] inception_4b/relu_3x3_reduce <- inception_4b/3x3_reduce
I0403 15:05:51.331779 18238 net.cpp:386] inception_4b/relu_3x3_reduce -> inception_4b/3x3_reduce (in-place)
I0403 15:05:51.332074 18238 net.cpp:141] Setting up inception_4b/relu_3x3_reduce
I0403 15:05:51.332103 18238 net.cpp:148] Top shape: 24 112 14 14 (526848)
I0403 15:05:51.332119 18238 net.cpp:156] Memory required for data: 956439840
I0403 15:05:51.332134 18238 layer_factory.hpp:77] Creating layer inception_4b/3x3
I0403 15:05:51.332157 18238 net.cpp:91] Creating Layer inception_4b/3x3
I0403 15:05:51.332175 18238 net.cpp:425] inception_4b/3x3 <- inception_4b/3x3_reduce
I0403 15:05:51.332195 18238 net.cpp:399] inception_4b/3x3 -> inception_4b/3x3
I0403 15:05:51.335284 18238 net.cpp:141] Setting up inception_4b/3x3
I0403 15:05:51.335314 18238 net.cpp:148] Top shape: 24 224 14 14 (1053696)
I0403 15:05:51.335330 18238 net.cpp:156] Memory required for data: 960654624
I0403 15:05:51.335348 18238 layer_factory.hpp:77] Creating layer inception_4b/relu_3x3
I0403 15:05:51.335372 18238 net.cpp:91] Creating Layer inception_4b/relu_3x3
I0403 15:05:51.335391 18238 net.cpp:425] inception_4b/relu_3x3 <- inception_4b/3x3
I0403 15:05:51.335408 18238 net.cpp:386] inception_4b/relu_3x3 -> inception_4b/3x3 (in-place)
I0403 15:05:51.335592 18238 net.cpp:141] Setting up inception_4b/relu_3x3
I0403 15:05:51.335618 18238 net.cpp:148] Top shape: 24 224 14 14 (1053696)
I0403 15:05:51.335633 18238 net.cpp:156] Memory required for data: 964869408
I0403 15:05:51.335649 18238 layer_factory.hpp:77] Creating layer inception_4b/5x5_reduce
I0403 15:05:51.335671 18238 net.cpp:91] Creating Layer inception_4b/5x5_reduce
I0403 15:05:51.335688 18238 net.cpp:425] inception_4b/5x5_reduce <- inception_4a/output_inception_4a/output_0_split_3
I0403 15:05:51.335712 18238 net.cpp:399] inception_4b/5x5_reduce -> inception_4b/5x5_reduce
I0403 15:05:51.336827 18238 net.cpp:141] Setting up inception_4b/5x5_reduce
I0403 15:05:51.336855 18238 net.cpp:148] Top shape: 24 24 14 14 (112896)
I0403 15:05:51.336871 18238 net.cpp:156] Memory required for data: 965320992
I0403 15:05:51.336889 18238 layer_factory.hpp:77] Creating layer inception_4b/relu_5x5_reduce
I0403 15:05:51.336910 18238 net.cpp:91] Creating Layer inception_4b/relu_5x5_reduce
I0403 15:05:51.336942 18238 net.cpp:425] inception_4b/relu_5x5_reduce <- inception_4b/5x5_reduce
I0403 15:05:51.336961 18238 net.cpp:386] inception_4b/relu_5x5_reduce -> inception_4b/5x5_reduce (in-place)
I0403 15:05:51.337154 18238 net.cpp:141] Setting up inception_4b/relu_5x5_reduce
I0403 15:05:51.337180 18238 net.cpp:148] Top shape: 24 24 14 14 (112896)
I0403 15:05:51.337195 18238 net.cpp:156] Memory required for data: 965772576
I0403 15:05:51.337210 18238 layer_factory.hpp:77] Creating layer inception_4b/5x5
I0403 15:05:51.337234 18238 net.cpp:91] Creating Layer inception_4b/5x5
I0403 15:05:51.337251 18238 net.cpp:425] inception_4b/5x5 <- inception_4b/5x5_reduce
I0403 15:05:51.337273 18238 net.cpp:399] inception_4b/5x5 -> inception_4b/5x5
I0403 15:05:51.338526 18238 net.cpp:141] Setting up inception_4b/5x5
I0403 15:05:51.338554 18238 net.cpp:148] Top shape: 24 64 14 14 (301056)
I0403 15:05:51.338570 18238 net.cpp:156] Memory required for data: 966976800
I0403 15:05:51.338589 18238 layer_factory.hpp:77] Creating layer inception_4b/relu_5x5
I0403 15:05:51.338609 18238 net.cpp:91] Creating Layer inception_4b/relu_5x5
I0403 15:05:51.338627 18238 net.cpp:425] inception_4b/relu_5x5 <- inception_4b/5x5
I0403 15:05:51.338644 18238 net.cpp:386] inception_4b/relu_5x5 -> inception_4b/5x5 (in-place)
I0403 15:05:51.338939 18238 net.cpp:141] Setting up inception_4b/relu_5x5
I0403 15:05:51.338965 18238 net.cpp:148] Top shape: 24 64 14 14 (301056)
I0403 15:05:51.338994 18238 net.cpp:156] Memory required for data: 968181024
I0403 15:05:51.339015 18238 layer_factory.hpp:77] Creating layer inception_4b/pool
I0403 15:05:51.339036 18238 net.cpp:91] Creating Layer inception_4b/pool
I0403 15:05:51.339054 18238 net.cpp:425] inception_4b/pool <- inception_4a/output_inception_4a/output_0_split_4
I0403 15:05:51.339073 18238 net.cpp:399] inception_4b/pool -> inception_4b/pool
I0403 15:05:51.339143 18238 net.cpp:141] Setting up inception_4b/pool
I0403 15:05:51.339166 18238 net.cpp:148] Top shape: 24 512 14 14 (2408448)
I0403 15:05:51.339181 18238 net.cpp:156] Memory required for data: 977814816
I0403 15:05:51.339196 18238 layer_factory.hpp:77] Creating layer inception_4b/pool_proj
I0403 15:05:51.339218 18238 net.cpp:91] Creating Layer inception_4b/pool_proj
I0403 15:05:51.339236 18238 net.cpp:425] inception_4b/pool_proj <- inception_4b/pool
I0403 15:05:51.339257 18238 net.cpp:399] inception_4b/pool_proj -> inception_4b/pool_proj
I0403 15:05:51.340490 18238 net.cpp:141] Setting up inception_4b/pool_proj
I0403 15:05:51.340522 18238 net.cpp:148] Top shape: 24 64 14 14 (301056)
I0403 15:05:51.340538 18238 net.cpp:156] Memory required for data: 979019040
I0403 15:05:51.340558 18238 layer_factory.hpp:77] Creating layer inception_4b/relu_pool_proj
I0403 15:05:51.340575 18238 net.cpp:91] Creating Layer inception_4b/relu_pool_proj
I0403 15:05:51.340591 18238 net.cpp:425] inception_4b/relu_pool_proj <- inception_4b/pool_proj
I0403 15:05:51.340608 18238 net.cpp:386] inception_4b/relu_pool_proj -> inception_4b/pool_proj (in-place)
I0403 15:05:51.340795 18238 net.cpp:141] Setting up inception_4b/relu_pool_proj
I0403 15:05:51.340822 18238 net.cpp:148] Top shape: 24 64 14 14 (301056)
I0403 15:05:51.340838 18238 net.cpp:156] Memory required for data: 980223264
I0403 15:05:51.340853 18238 layer_factory.hpp:77] Creating layer inception_4b/output
I0403 15:05:51.340872 18238 net.cpp:91] Creating Layer inception_4b/output
I0403 15:05:51.340888 18238 net.cpp:425] inception_4b/output <- inception_4b/1x1
I0403 15:05:51.340903 18238 net.cpp:425] inception_4b/output <- inception_4b/3x3
I0403 15:05:51.340919 18238 net.cpp:425] inception_4b/output <- inception_4b/5x5
I0403 15:05:51.340935 18238 net.cpp:425] inception_4b/output <- inception_4b/pool_proj
I0403 15:05:51.340955 18238 net.cpp:399] inception_4b/output -> inception_4b/output
I0403 15:05:51.341006 18238 net.cpp:141] Setting up inception_4b/output
I0403 15:05:51.341029 18238 net.cpp:148] Top shape: 24 512 14 14 (2408448)
I0403 15:05:51.341044 18238 net.cpp:156] Memory required for data: 989857056
I0403 15:05:51.341074 18238 layer_factory.hpp:77] Creating layer inception_4b/output_inception_4b/output_0_split
I0403 15:05:51.341095 18238 net.cpp:91] Creating Layer inception_4b/output_inception_4b/output_0_split
I0403 15:05:51.341112 18238 net.cpp:425] inception_4b/output_inception_4b/output_0_split <- inception_4b/output
I0403 15:05:51.341130 18238 net.cpp:399] inception_4b/output_inception_4b/output_0_split -> inception_4b/output_inception_4b/output_0_split_0
I0403 15:05:51.341150 18238 net.cpp:399] inception_4b/output_inception_4b/output_0_split -> inception_4b/output_inception_4b/output_0_split_1
I0403 15:05:51.341174 18238 net.cpp:399] inception_4b/output_inception_4b/output_0_split -> inception_4b/output_inception_4b/output_0_split_2
I0403 15:05:51.341194 18238 net.cpp:399] inception_4b/output_inception_4b/output_0_split -> inception_4b/output_inception_4b/output_0_split_3
I0403 15:05:51.341279 18238 net.cpp:141] Setting up inception_4b/output_inception_4b/output_0_split
I0403 15:05:51.341303 18238 net.cpp:148] Top shape: 24 512 14 14 (2408448)
I0403 15:05:51.341320 18238 net.cpp:148] Top shape: 24 512 14 14 (2408448)
I0403 15:05:51.341336 18238 net.cpp:148] Top shape: 24 512 14 14 (2408448)
I0403 15:05:51.341352 18238 net.cpp:148] Top shape: 24 512 14 14 (2408448)
I0403 15:05:51.341366 18238 net.cpp:156] Memory required for data: 1028392224
I0403 15:05:51.341380 18238 layer_factory.hpp:77] Creating layer inception_4c/1x1
I0403 15:05:51.341403 18238 net.cpp:91] Creating Layer inception_4c/1x1
I0403 15:05:51.341421 18238 net.cpp:425] inception_4c/1x1 <- inception_4b/output_inception_4b/output_0_split_0
I0403 15:05:51.341444 18238 net.cpp:399] inception_4c/1x1 -> inception_4c/1x1
I0403 15:05:51.342927 18238 net.cpp:141] Setting up inception_4c/1x1
I0403 15:05:51.342957 18238 net.cpp:148] Top shape: 24 128 14 14 (602112)
I0403 15:05:51.342972 18238 net.cpp:156] Memory required for data: 1030800672
I0403 15:05:51.343008 18238 layer_factory.hpp:77] Creating layer inception_4c/relu_1x1
I0403 15:05:51.343030 18238 net.cpp:91] Creating Layer inception_4c/relu_1x1
I0403 15:05:51.343046 18238 net.cpp:425] inception_4c/relu_1x1 <- inception_4c/1x1
I0403 15:05:51.343067 18238 net.cpp:386] inception_4c/relu_1x1 -> inception_4c/1x1 (in-place)
I0403 15:05:51.343260 18238 net.cpp:141] Setting up inception_4c/relu_1x1
I0403 15:05:51.343297 18238 net.cpp:148] Top shape: 24 128 14 14 (602112)
I0403 15:05:51.343312 18238 net.cpp:156] Memory required for data: 1033209120
I0403 15:05:51.343327 18238 layer_factory.hpp:77] Creating layer inception_4c/3x3_reduce
I0403 15:05:51.343350 18238 net.cpp:91] Creating Layer inception_4c/3x3_reduce
I0403 15:05:51.343369 18238 net.cpp:425] inception_4c/3x3_reduce <- inception_4b/output_inception_4b/output_0_split_1
I0403 15:05:51.343389 18238 net.cpp:399] inception_4c/3x3_reduce -> inception_4c/3x3_reduce
I0403 15:05:51.345386 18238 net.cpp:141] Setting up inception_4c/3x3_reduce
I0403 15:05:51.345415 18238 net.cpp:148] Top shape: 24 128 14 14 (602112)
I0403 15:05:51.345432 18238 net.cpp:156] Memory required for data: 1035617568
I0403 15:05:51.345450 18238 layer_factory.hpp:77] Creating layer inception_4c/relu_3x3_reduce
I0403 15:05:51.345473 18238 net.cpp:91] Creating Layer inception_4c/relu_3x3_reduce
I0403 15:05:51.345489 18238 net.cpp:425] inception_4c/relu_3x3_reduce <- inception_4c/3x3_reduce
I0403 15:05:51.345507 18238 net.cpp:386] inception_4c/relu_3x3_reduce -> inception_4c/3x3_reduce (in-place)
I0403 15:05:51.345804 18238 net.cpp:141] Setting up inception_4c/relu_3x3_reduce
I0403 15:05:51.345831 18238 net.cpp:148] Top shape: 24 128 14 14 (602112)
I0403 15:05:51.345846 18238 net.cpp:156] Memory required for data: 1038026016
I0403 15:05:51.345861 18238 layer_factory.hpp:77] Creating layer inception_4c/3x3
I0403 15:05:51.345885 18238 net.cpp:91] Creating Layer inception_4c/3x3
I0403 15:05:51.345903 18238 net.cpp:425] inception_4c/3x3 <- inception_4c/3x3_reduce
I0403 15:05:51.345926 18238 net.cpp:399] inception_4c/3x3 -> inception_4c/3x3
I0403 15:05:51.349666 18238 net.cpp:141] Setting up inception_4c/3x3
I0403 15:05:51.349709 18238 net.cpp:148] Top shape: 24 256 14 14 (1204224)
I0403 15:05:51.349728 18238 net.cpp:156] Memory required for data: 1042842912
I0403 15:05:51.349761 18238 layer_factory.hpp:77] Creating layer inception_4c/relu_3x3
I0403 15:05:51.349782 18238 net.cpp:91] Creating Layer inception_4c/relu_3x3
I0403 15:05:51.349799 18238 net.cpp:425] inception_4c/relu_3x3 <- inception_4c/3x3
I0403 15:05:51.349817 18238 net.cpp:386] inception_4c/relu_3x3 -> inception_4c/3x3 (in-place)
I0403 15:05:51.350013 18238 net.cpp:141] Setting up inception_4c/relu_3x3
I0403 15:05:51.350038 18238 net.cpp:148] Top shape: 24 256 14 14 (1204224)
I0403 15:05:51.350054 18238 net.cpp:156] Memory required for data: 1047659808
I0403 15:05:51.350069 18238 layer_factory.hpp:77] Creating layer inception_4c/5x5_reduce
I0403 15:05:51.350093 18238 net.cpp:91] Creating Layer inception_4c/5x5_reduce
I0403 15:05:51.350111 18238 net.cpp:425] inception_4c/5x5_reduce <- inception_4b/output_inception_4b/output_0_split_2
I0403 15:05:51.350131 18238 net.cpp:399] inception_4c/5x5_reduce -> inception_4c/5x5_reduce
I0403 15:05:51.351250 18238 net.cpp:141] Setting up inception_4c/5x5_reduce
I0403 15:05:51.351279 18238 net.cpp:148] Top shape: 24 24 14 14 (112896)
I0403 15:05:51.351295 18238 net.cpp:156] Memory required for data: 1048111392
I0403 15:05:51.351315 18238 layer_factory.hpp:77] Creating layer inception_4c/relu_5x5_reduce
I0403 15:05:51.351336 18238 net.cpp:91] Creating Layer inception_4c/relu_5x5_reduce
I0403 15:05:51.351354 18238 net.cpp:425] inception_4c/relu_5x5_reduce <- inception_4c/5x5_reduce
I0403 15:05:51.351372 18238 net.cpp:386] inception_4c/relu_5x5_reduce -> inception_4c/5x5_reduce (in-place)
I0403 15:05:51.351562 18238 net.cpp:141] Setting up inception_4c/relu_5x5_reduce
I0403 15:05:51.351588 18238 net.cpp:148] Top shape: 24 24 14 14 (112896)
I0403 15:05:51.351603 18238 net.cpp:156] Memory required for data: 1048562976
I0403 15:05:51.351619 18238 layer_factory.hpp:77] Creating layer inception_4c/5x5
I0403 15:05:51.351651 18238 net.cpp:91] Creating Layer inception_4c/5x5
I0403 15:05:51.351670 18238 net.cpp:425] inception_4c/5x5 <- inception_4c/5x5_reduce
I0403 15:05:51.351689 18238 net.cpp:399] inception_4c/5x5 -> inception_4c/5x5
I0403 15:05:51.352963 18238 net.cpp:141] Setting up inception_4c/5x5
I0403 15:05:51.353009 18238 net.cpp:148] Top shape: 24 64 14 14 (301056)
I0403 15:05:51.353030 18238 net.cpp:156] Memory required for data: 1049767200
I0403 15:05:51.353050 18238 layer_factory.hpp:77] Creating layer inception_4c/relu_5x5
I0403 15:05:51.353068 18238 net.cpp:91] Creating Layer inception_4c/relu_5x5
I0403 15:05:51.353085 18238 net.cpp:425] inception_4c/relu_5x5 <- inception_4c/5x5
I0403 15:05:51.353106 18238 net.cpp:386] inception_4c/relu_5x5 -> inception_4c/5x5 (in-place)
I0403 15:05:51.353406 18238 net.cpp:141] Setting up inception_4c/relu_5x5
I0403 15:05:51.353435 18238 net.cpp:148] Top shape: 24 64 14 14 (301056)
I0403 15:05:51.353451 18238 net.cpp:156] Memory required for data: 1050971424
I0403 15:05:51.353466 18238 layer_factory.hpp:77] Creating layer inception_4c/pool
I0403 15:05:51.353482 18238 net.cpp:91] Creating Layer inception_4c/pool
I0403 15:05:51.353499 18238 net.cpp:425] inception_4c/pool <- inception_4b/output_inception_4b/output_0_split_3
I0403 15:05:51.353521 18238 net.cpp:399] inception_4c/pool -> inception_4c/pool
I0403 15:05:51.353586 18238 net.cpp:141] Setting up inception_4c/pool
I0403 15:05:51.353612 18238 net.cpp:148] Top shape: 24 512 14 14 (2408448)
I0403 15:05:51.353627 18238 net.cpp:156] Memory required for data: 1060605216
I0403 15:05:51.353642 18238 layer_factory.hpp:77] Creating layer inception_4c/pool_proj
I0403 15:05:51.353663 18238 net.cpp:91] Creating Layer inception_4c/pool_proj
I0403 15:05:51.353680 18238 net.cpp:425] inception_4c/pool_proj <- inception_4c/pool
I0403 15:05:51.353699 18238 net.cpp:399] inception_4c/pool_proj -> inception_4c/pool_proj
I0403 15:05:51.354971 18238 net.cpp:141] Setting up inception_4c/pool_proj
I0403 15:05:51.355005 18238 net.cpp:148] Top shape: 24 64 14 14 (301056)
I0403 15:05:51.355038 18238 net.cpp:156] Memory required for data: 1061809440
I0403 15:05:51.355058 18238 layer_factory.hpp:77] Creating layer inception_4c/relu_pool_proj
I0403 15:05:51.355077 18238 net.cpp:91] Creating Layer inception_4c/relu_pool_proj
I0403 15:05:51.355093 18238 net.cpp:425] inception_4c/relu_pool_proj <- inception_4c/pool_proj
I0403 15:05:51.355111 18238 net.cpp:386] inception_4c/relu_pool_proj -> inception_4c/pool_proj (in-place)
I0403 15:05:51.355300 18238 net.cpp:141] Setting up inception_4c/relu_pool_proj
I0403 15:05:51.355329 18238 net.cpp:148] Top shape: 24 64 14 14 (301056)
I0403 15:05:51.355343 18238 net.cpp:156] Memory required for data: 1063013664
I0403 15:05:51.355358 18238 layer_factory.hpp:77] Creating layer inception_4c/output
I0403 15:05:51.355376 18238 net.cpp:91] Creating Layer inception_4c/output
I0403 15:05:51.355391 18238 net.cpp:425] inception_4c/output <- inception_4c/1x1
I0403 15:05:51.355409 18238 net.cpp:425] inception_4c/output <- inception_4c/3x3
I0403 15:05:51.355427 18238 net.cpp:425] inception_4c/output <- inception_4c/5x5
I0403 15:05:51.355442 18238 net.cpp:425] inception_4c/output <- inception_4c/pool_proj
I0403 15:05:51.355461 18238 net.cpp:399] inception_4c/output -> inception_4c/output
I0403 15:05:51.355509 18238 net.cpp:141] Setting up inception_4c/output
I0403 15:05:51.355531 18238 net.cpp:148] Top shape: 24 512 14 14 (2408448)
I0403 15:05:51.355546 18238 net.cpp:156] Memory required for data: 1072647456
I0403 15:05:51.355561 18238 layer_factory.hpp:77] Creating layer inception_4c/output_inception_4c/output_0_split
I0403 15:05:51.355581 18238 net.cpp:91] Creating Layer inception_4c/output_inception_4c/output_0_split
I0403 15:05:51.355598 18238 net.cpp:425] inception_4c/output_inception_4c/output_0_split <- inception_4c/output
I0403 15:05:51.355617 18238 net.cpp:399] inception_4c/output_inception_4c/output_0_split -> inception_4c/output_inception_4c/output_0_split_0
I0403 15:05:51.355636 18238 net.cpp:399] inception_4c/output_inception_4c/output_0_split -> inception_4c/output_inception_4c/output_0_split_1
I0403 15:05:51.355659 18238 net.cpp:399] inception_4c/output_inception_4c/output_0_split -> inception_4c/output_inception_4c/output_0_split_2
I0403 15:05:51.355680 18238 net.cpp:399] inception_4c/output_inception_4c/output_0_split -> inception_4c/output_inception_4c/output_0_split_3
I0403 15:05:51.355768 18238 net.cpp:141] Setting up inception_4c/output_inception_4c/output_0_split
I0403 15:05:51.355792 18238 net.cpp:148] Top shape: 24 512 14 14 (2408448)
I0403 15:05:51.355808 18238 net.cpp:148] Top shape: 24 512 14 14 (2408448)
I0403 15:05:51.355824 18238 net.cpp:148] Top shape: 24 512 14 14 (2408448)
I0403 15:05:51.355839 18238 net.cpp:148] Top shape: 24 512 14 14 (2408448)
I0403 15:05:51.355854 18238 net.cpp:156] Memory required for data: 1111182624
I0403 15:05:51.355868 18238 layer_factory.hpp:77] Creating layer inception_4d/1x1
I0403 15:05:51.355890 18238 net.cpp:91] Creating Layer inception_4d/1x1
I0403 15:05:51.355908 18238 net.cpp:425] inception_4d/1x1 <- inception_4c/output_inception_4c/output_0_split_0
I0403 15:05:51.355929 18238 net.cpp:399] inception_4d/1x1 -> inception_4d/1x1
I0403 15:05:51.357395 18238 net.cpp:141] Setting up inception_4d/1x1
I0403 15:05:51.357424 18238 net.cpp:148] Top shape: 24 112 14 14 (526848)
I0403 15:05:51.357439 18238 net.cpp:156] Memory required for data: 1113290016
I0403 15:05:51.357458 18238 layer_factory.hpp:77] Creating layer inception_4d/relu_1x1
I0403 15:05:51.357480 18238 net.cpp:91] Creating Layer inception_4d/relu_1x1
I0403 15:05:51.357496 18238 net.cpp:425] inception_4d/relu_1x1 <- inception_4d/1x1
I0403 15:05:51.357514 18238 net.cpp:386] inception_4d/relu_1x1 -> inception_4d/1x1 (in-place)
I0403 15:05:51.357704 18238 net.cpp:141] Setting up inception_4d/relu_1x1
I0403 15:05:51.357729 18238 net.cpp:148] Top shape: 24 112 14 14 (526848)
I0403 15:05:51.357744 18238 net.cpp:156] Memory required for data: 1115397408
I0403 15:05:51.357760 18238 layer_factory.hpp:77] Creating layer inception_4d/3x3_reduce
I0403 15:05:51.357800 18238 net.cpp:91] Creating Layer inception_4d/3x3_reduce
I0403 15:05:51.357818 18238 net.cpp:425] inception_4d/3x3_reduce <- inception_4c/output_inception_4c/output_0_split_1
I0403 15:05:51.357837 18238 net.cpp:399] inception_4d/3x3_reduce -> inception_4d/3x3_reduce
I0403 15:05:51.359457 18238 net.cpp:141] Setting up inception_4d/3x3_reduce
I0403 15:05:51.359486 18238 net.cpp:148] Top shape: 24 144 14 14 (677376)
I0403 15:05:51.359503 18238 net.cpp:156] Memory required for data: 1118106912
I0403 15:05:51.359521 18238 layer_factory.hpp:77] Creating layer inception_4d/relu_3x3_reduce
I0403 15:05:51.359540 18238 net.cpp:91] Creating Layer inception_4d/relu_3x3_reduce
I0403 15:05:51.359556 18238 net.cpp:425] inception_4d/relu_3x3_reduce <- inception_4d/3x3_reduce
I0403 15:05:51.359576 18238 net.cpp:386] inception_4d/relu_3x3_reduce -> inception_4d/3x3_reduce (in-place)
I0403 15:05:51.359874 18238 net.cpp:141] Setting up inception_4d/relu_3x3_reduce
I0403 15:05:51.359900 18238 net.cpp:148] Top shape: 24 144 14 14 (677376)
I0403 15:05:51.359916 18238 net.cpp:156] Memory required for data: 1120816416
I0403 15:05:51.359931 18238 layer_factory.hpp:77] Creating layer inception_4d/3x3
I0403 15:05:51.359956 18238 net.cpp:91] Creating Layer inception_4d/3x3
I0403 15:05:51.359973 18238 net.cpp:425] inception_4d/3x3 <- inception_4d/3x3_reduce
I0403 15:05:51.360002 18238 net.cpp:399] inception_4d/3x3 -> inception_4d/3x3
I0403 15:05:51.364516 18238 net.cpp:141] Setting up inception_4d/3x3
I0403 15:05:51.364547 18238 net.cpp:148] Top shape: 24 288 14 14 (1354752)
I0403 15:05:51.364563 18238 net.cpp:156] Memory required for data: 1126235424
I0403 15:05:51.364583 18238 layer_factory.hpp:77] Creating layer inception_4d/relu_3x3
I0403 15:05:51.364604 18238 net.cpp:91] Creating Layer inception_4d/relu_3x3
I0403 15:05:51.364621 18238 net.cpp:425] inception_4d/relu_3x3 <- inception_4d/3x3
I0403 15:05:51.364639 18238 net.cpp:386] inception_4d/relu_3x3 -> inception_4d/3x3 (in-place)
I0403 15:05:51.364825 18238 net.cpp:141] Setting up inception_4d/relu_3x3
I0403 15:05:51.364853 18238 net.cpp:148] Top shape: 24 288 14 14 (1354752)
I0403 15:05:51.364869 18238 net.cpp:156] Memory required for data: 1131654432
I0403 15:05:51.364884 18238 layer_factory.hpp:77] Creating layer inception_4d/5x5_reduce
I0403 15:05:51.364907 18238 net.cpp:91] Creating Layer inception_4d/5x5_reduce
I0403 15:05:51.364924 18238 net.cpp:425] inception_4d/5x5_reduce <- inception_4c/output_inception_4c/output_0_split_2
I0403 15:05:51.364944 18238 net.cpp:399] inception_4d/5x5_reduce -> inception_4d/5x5_reduce
I0403 15:05:51.366169 18238 net.cpp:141] Setting up inception_4d/5x5_reduce
I0403 15:05:51.366199 18238 net.cpp:148] Top shape: 24 32 14 14 (150528)
I0403 15:05:51.366216 18238 net.cpp:156] Memory required for data: 1132256544
I0403 15:05:51.366235 18238 layer_factory.hpp:77] Creating layer inception_4d/relu_5x5_reduce
I0403 15:05:51.366256 18238 net.cpp:91] Creating Layer inception_4d/relu_5x5_reduce
I0403 15:05:51.366274 18238 net.cpp:425] inception_4d/relu_5x5_reduce <- inception_4d/5x5_reduce
I0403 15:05:51.366292 18238 net.cpp:386] inception_4d/relu_5x5_reduce -> inception_4d/5x5_reduce (in-place)
I0403 15:05:51.366488 18238 net.cpp:141] Setting up inception_4d/relu_5x5_reduce
I0403 15:05:51.366513 18238 net.cpp:148] Top shape: 24 32 14 14 (150528)
I0403 15:05:51.366528 18238 net.cpp:156] Memory required for data: 1132858656
I0403 15:05:51.366544 18238 layer_factory.hpp:77] Creating layer inception_4d/5x5
I0403 15:05:51.366569 18238 net.cpp:91] Creating Layer inception_4d/5x5
I0403 15:05:51.366586 18238 net.cpp:425] inception_4d/5x5 <- inception_4d/5x5_reduce
I0403 15:05:51.366605 18238 net.cpp:399] inception_4d/5x5 -> inception_4d/5x5
I0403 15:05:51.368177 18238 net.cpp:141] Setting up inception_4d/5x5
I0403 15:05:51.368208 18238 net.cpp:148] Top shape: 24 64 14 14 (301056)
I0403 15:05:51.368226 18238 net.cpp:156] Memory required for data: 1134062880
I0403 15:05:51.368247 18238 layer_factory.hpp:77] Creating layer inception_4d/relu_5x5
I0403 15:05:51.368279 18238 net.cpp:91] Creating Layer inception_4d/relu_5x5
I0403 15:05:51.368297 18238 net.cpp:425] inception_4d/relu_5x5 <- inception_4d/5x5
I0403 15:05:51.368317 18238 net.cpp:386] inception_4d/relu_5x5 -> inception_4d/5x5 (in-place)
I0403 15:05:51.368624 18238 net.cpp:141] Setting up inception_4d/relu_5x5
I0403 15:05:51.368654 18238 net.cpp:148] Top shape: 24 64 14 14 (301056)
I0403 15:05:51.368669 18238 net.cpp:156] Memory required for data: 1135267104
I0403 15:05:51.368685 18238 layer_factory.hpp:77] Creating layer inception_4d/pool
I0403 15:05:51.368703 18238 net.cpp:91] Creating Layer inception_4d/pool
I0403 15:05:51.368719 18238 net.cpp:425] inception_4d/pool <- inception_4c/output_inception_4c/output_0_split_3
I0403 15:05:51.368741 18238 net.cpp:399] inception_4d/pool -> inception_4d/pool
I0403 15:05:51.368810 18238 net.cpp:141] Setting up inception_4d/pool
I0403 15:05:51.368835 18238 net.cpp:148] Top shape: 24 512 14 14 (2408448)
I0403 15:05:51.368850 18238 net.cpp:156] Memory required for data: 1144900896
I0403 15:05:51.368865 18238 layer_factory.hpp:77] Creating layer inception_4d/pool_proj
I0403 15:05:51.368887 18238 net.cpp:91] Creating Layer inception_4d/pool_proj
I0403 15:05:51.368906 18238 net.cpp:425] inception_4d/pool_proj <- inception_4d/pool
I0403 15:05:51.368927 18238 net.cpp:399] inception_4d/pool_proj -> inception_4d/pool_proj
I0403 15:05:51.370847 18238 net.cpp:141] Setting up inception_4d/pool_proj
I0403 15:05:51.370877 18238 net.cpp:148] Top shape: 24 64 14 14 (301056)
I0403 15:05:51.370894 18238 net.cpp:156] Memory required for data: 1146105120
I0403 15:05:51.370914 18238 layer_factory.hpp:77] Creating layer inception_4d/relu_pool_proj
I0403 15:05:51.370936 18238 net.cpp:91] Creating Layer inception_4d/relu_pool_proj
I0403 15:05:51.370954 18238 net.cpp:425] inception_4d/relu_pool_proj <- inception_4d/pool_proj
I0403 15:05:51.370972 18238 net.cpp:386] inception_4d/relu_pool_proj -> inception_4d/pool_proj (in-place)
I0403 15:05:51.371173 18238 net.cpp:141] Setting up inception_4d/relu_pool_proj
I0403 15:05:51.371202 18238 net.cpp:148] Top shape: 24 64 14 14 (301056)
I0403 15:05:51.371219 18238 net.cpp:156] Memory required for data: 1147309344
I0403 15:05:51.371235 18238 layer_factory.hpp:77] Creating layer inception_4d/output
I0403 15:05:51.371254 18238 net.cpp:91] Creating Layer inception_4d/output
I0403 15:05:51.371270 18238 net.cpp:425] inception_4d/output <- inception_4d/1x1
I0403 15:05:51.371289 18238 net.cpp:425] inception_4d/output <- inception_4d/3x3
I0403 15:05:51.371305 18238 net.cpp:425] inception_4d/output <- inception_4d/5x5
I0403 15:05:51.371321 18238 net.cpp:425] inception_4d/output <- inception_4d/pool_proj
I0403 15:05:51.371340 18238 net.cpp:399] inception_4d/output -> inception_4d/output
I0403 15:05:51.371390 18238 net.cpp:141] Setting up inception_4d/output
I0403 15:05:51.371415 18238 net.cpp:148] Top shape: 24 528 14 14 (2483712)
I0403 15:05:51.371431 18238 net.cpp:156] Memory required for data: 1157244192
I0403 15:05:51.371446 18238 layer_factory.hpp:77] Creating layer inception_4d/output_inception_4d/output_0_split
I0403 15:05:51.371467 18238 net.cpp:91] Creating Layer inception_4d/output_inception_4d/output_0_split
I0403 15:05:51.371484 18238 net.cpp:425] inception_4d/output_inception_4d/output_0_split <- inception_4d/output
I0403 15:05:51.371503 18238 net.cpp:399] inception_4d/output_inception_4d/output_0_split -> inception_4d/output_inception_4d/output_0_split_0
I0403 15:05:51.371526 18238 net.cpp:399] inception_4d/output_inception_4d/output_0_split -> inception_4d/output_inception_4d/output_0_split_1
I0403 15:05:51.371546 18238 net.cpp:399] inception_4d/output_inception_4d/output_0_split -> inception_4d/output_inception_4d/output_0_split_2
I0403 15:05:51.371568 18238 net.cpp:399] inception_4d/output_inception_4d/output_0_split -> inception_4d/output_inception_4d/output_0_split_3
I0403 15:05:51.371592 18238 net.cpp:399] inception_4d/output_inception_4d/output_0_split -> inception_4d/output_inception_4d/output_0_split_4
I0403 15:05:51.371706 18238 net.cpp:141] Setting up inception_4d/output_inception_4d/output_0_split
I0403 15:05:51.371744 18238 net.cpp:148] Top shape: 24 528 14 14 (2483712)
I0403 15:05:51.371762 18238 net.cpp:148] Top shape: 24 528 14 14 (2483712)
I0403 15:05:51.371778 18238 net.cpp:148] Top shape: 24 528 14 14 (2483712)
I0403 15:05:51.371794 18238 net.cpp:148] Top shape: 24 528 14 14 (2483712)
I0403 15:05:51.371811 18238 net.cpp:148] Top shape: 24 528 14 14 (2483712)
I0403 15:05:51.371825 18238 net.cpp:156] Memory required for data: 1206918432
I0403 15:05:51.371841 18238 layer_factory.hpp:77] Creating layer loss2/ave_pool
I0403 15:05:51.371860 18238 net.cpp:91] Creating Layer loss2/ave_pool
I0403 15:05:51.371881 18238 net.cpp:425] loss2/ave_pool <- inception_4d/output_inception_4d/output_0_split_0
I0403 15:05:51.371901 18238 net.cpp:399] loss2/ave_pool -> loss2/ave_pool
I0403 15:05:51.372242 18238 net.cpp:141] Setting up loss2/ave_pool
I0403 15:05:51.372272 18238 net.cpp:148] Top shape: 24 528 4 4 (202752)
I0403 15:05:51.372287 18238 net.cpp:156] Memory required for data: 1207729440
I0403 15:05:51.372303 18238 layer_factory.hpp:77] Creating layer loss2/conv
I0403 15:05:51.372326 18238 net.cpp:91] Creating Layer loss2/conv
I0403 15:05:51.372345 18238 net.cpp:425] loss2/conv <- loss2/ave_pool
I0403 15:05:51.372369 18238 net.cpp:399] loss2/conv -> loss2/conv
I0403 15:05:51.374380 18238 net.cpp:141] Setting up loss2/conv
I0403 15:05:51.374413 18238 net.cpp:148] Top shape: 24 128 4 4 (49152)
I0403 15:05:51.374430 18238 net.cpp:156] Memory required for data: 1207926048
I0403 15:05:51.374449 18238 layer_factory.hpp:77] Creating layer loss2/relu_conv
I0403 15:05:51.374469 18238 net.cpp:91] Creating Layer loss2/relu_conv
I0403 15:05:51.374486 18238 net.cpp:425] loss2/relu_conv <- loss2/conv
I0403 15:05:51.374505 18238 net.cpp:386] loss2/relu_conv -> loss2/conv (in-place)
I0403 15:05:51.374819 18238 net.cpp:141] Setting up loss2/relu_conv
I0403 15:05:51.374847 18238 net.cpp:148] Top shape: 24 128 4 4 (49152)
I0403 15:05:51.374864 18238 net.cpp:156] Memory required for data: 1208122656
I0403 15:05:51.374879 18238 layer_factory.hpp:77] Creating layer loss2/fc
I0403 15:05:51.374898 18238 net.cpp:91] Creating Layer loss2/fc
I0403 15:05:51.374914 18238 net.cpp:425] loss2/fc <- loss2/conv
I0403 15:05:51.374936 18238 net.cpp:399] loss2/fc -> loss2/fc
I0403 15:05:51.393036 18238 net.cpp:141] Setting up loss2/fc
I0403 15:05:51.393086 18238 net.cpp:148] Top shape: 24 1024 (24576)
I0403 15:05:51.393105 18238 net.cpp:156] Memory required for data: 1208220960
I0403 15:05:51.393124 18238 layer_factory.hpp:77] Creating layer loss2/relu_fc
I0403 15:05:51.393143 18238 net.cpp:91] Creating Layer loss2/relu_fc
I0403 15:05:51.393162 18238 net.cpp:425] loss2/relu_fc <- loss2/fc
I0403 15:05:51.393182 18238 net.cpp:386] loss2/relu_fc -> loss2/fc (in-place)
I0403 15:05:51.393519 18238 net.cpp:141] Setting up loss2/relu_fc
I0403 15:05:51.393545 18238 net.cpp:148] Top shape: 24 1024 (24576)
I0403 15:05:51.393561 18238 net.cpp:156] Memory required for data: 1208319264
I0403 15:05:51.393578 18238 layer_factory.hpp:77] Creating layer loss2/drop_fc
I0403 15:05:51.393599 18238 net.cpp:91] Creating Layer loss2/drop_fc
I0403 15:05:51.393615 18238 net.cpp:425] loss2/drop_fc <- loss2/fc
I0403 15:05:51.393632 18238 net.cpp:386] loss2/drop_fc -> loss2/fc (in-place)
I0403 15:05:51.393687 18238 net.cpp:141] Setting up loss2/drop_fc
I0403 15:05:51.393710 18238 net.cpp:148] Top shape: 24 1024 (24576)
I0403 15:05:51.393726 18238 net.cpp:156] Memory required for data: 1208417568
I0403 15:05:51.393740 18238 layer_factory.hpp:77] Creating layer loss2/classifier_plantvillage
I0403 15:05:51.393761 18238 net.cpp:91] Creating Layer loss2/classifier_plantvillage
I0403 15:05:51.393779 18238 net.cpp:425] loss2/classifier_plantvillage <- loss2/fc
I0403 15:05:51.393797 18238 net.cpp:399] loss2/classifier_plantvillage -> loss2/classifier_plantvillage
I0403 15:05:51.394227 18238 net.cpp:141] Setting up loss2/classifier_plantvillage
I0403 15:05:51.394254 18238 net.cpp:148] Top shape: 24 38 (912)
I0403 15:05:51.394292 18238 net.cpp:156] Memory required for data: 1208421216
I0403 15:05:51.394311 18238 layer_factory.hpp:77] Creating layer loss2/classifier_plantvillage_loss2/classifier_plantvillage_0_split
I0403 15:05:51.394330 18238 net.cpp:91] Creating Layer loss2/classifier_plantvillage_loss2/classifier_plantvillage_0_split
I0403 15:05:51.394346 18238 net.cpp:425] loss2/classifier_plantvillage_loss2/classifier_plantvillage_0_split <- loss2/classifier_plantvillage
I0403 15:05:51.394367 18238 net.cpp:399] loss2/classifier_plantvillage_loss2/classifier_plantvillage_0_split -> loss2/classifier_plantvillage_loss2/classifier_plantvillage_0_split_0
I0403 15:05:51.394388 18238 net.cpp:399] loss2/classifier_plantvillage_loss2/classifier_plantvillage_0_split -> loss2/classifier_plantvillage_loss2/classifier_plantvillage_0_split_1
I0403 15:05:51.394409 18238 net.cpp:399] loss2/classifier_plantvillage_loss2/classifier_plantvillage_0_split -> loss2/classifier_plantvillage_loss2/classifier_plantvillage_0_split_2
I0403 15:05:51.394490 18238 net.cpp:141] Setting up loss2/classifier_plantvillage_loss2/classifier_plantvillage_0_split
I0403 15:05:51.394516 18238 net.cpp:148] Top shape: 24 38 (912)
I0403 15:05:51.394534 18238 net.cpp:148] Top shape: 24 38 (912)
I0403 15:05:51.394549 18238 net.cpp:148] Top shape: 24 38 (912)
I0403 15:05:51.394564 18238 net.cpp:156] Memory required for data: 1208432160
I0403 15:05:51.394578 18238 layer_factory.hpp:77] Creating layer inception_4e/1x1
I0403 15:05:51.394601 18238 net.cpp:91] Creating Layer inception_4e/1x1
I0403 15:05:51.394619 18238 net.cpp:425] inception_4e/1x1 <- inception_4d/output_inception_4d/output_0_split_1
I0403 15:05:51.394639 18238 net.cpp:399] inception_4e/1x1 -> inception_4e/1x1
I0403 15:05:51.396548 18238 net.cpp:141] Setting up inception_4e/1x1
I0403 15:05:51.396579 18238 net.cpp:148] Top shape: 24 256 14 14 (1204224)
I0403 15:05:51.396595 18238 net.cpp:156] Memory required for data: 1213249056
I0403 15:05:51.396615 18238 layer_factory.hpp:77] Creating layer inception_4e/relu_1x1
I0403 15:05:51.396633 18238 net.cpp:91] Creating Layer inception_4e/relu_1x1
I0403 15:05:51.396649 18238 net.cpp:425] inception_4e/relu_1x1 <- inception_4e/1x1
I0403 15:05:51.396669 18238 net.cpp:386] inception_4e/relu_1x1 -> inception_4e/1x1 (in-place)
I0403 15:05:51.396975 18238 net.cpp:141] Setting up inception_4e/relu_1x1
I0403 15:05:51.397011 18238 net.cpp:148] Top shape: 24 256 14 14 (1204224)
I0403 15:05:51.397027 18238 net.cpp:156] Memory required for data: 1218065952
I0403 15:05:51.397042 18238 layer_factory.hpp:77] Creating layer inception_4e/3x3_reduce
I0403 15:05:51.397064 18238 net.cpp:91] Creating Layer inception_4e/3x3_reduce
I0403 15:05:51.397083 18238 net.cpp:425] inception_4e/3x3_reduce <- inception_4d/output_inception_4d/output_0_split_2
I0403 15:05:51.397102 18238 net.cpp:399] inception_4e/3x3_reduce -> inception_4e/3x3_reduce
I0403 15:05:51.399308 18238 net.cpp:141] Setting up inception_4e/3x3_reduce
I0403 15:05:51.399341 18238 net.cpp:148] Top shape: 24 160 14 14 (752640)
I0403 15:05:51.399358 18238 net.cpp:156] Memory required for data: 1221076512
I0403 15:05:51.399377 18238 layer_factory.hpp:77] Creating layer inception_4e/relu_3x3_reduce
I0403 15:05:51.399396 18238 net.cpp:91] Creating Layer inception_4e/relu_3x3_reduce
I0403 15:05:51.399416 18238 net.cpp:425] inception_4e/relu_3x3_reduce <- inception_4e/3x3_reduce
I0403 15:05:51.399435 18238 net.cpp:386] inception_4e/relu_3x3_reduce -> inception_4e/3x3_reduce (in-place)
I0403 15:05:51.399626 18238 net.cpp:141] Setting up inception_4e/relu_3x3_reduce
I0403 15:05:51.399652 18238 net.cpp:148] Top shape: 24 160 14 14 (752640)
I0403 15:05:51.399667 18238 net.cpp:156] Memory required for data: 1224087072
I0403 15:05:51.399682 18238 layer_factory.hpp:77] Creating layer inception_4e/3x3
I0403 15:05:51.399705 18238 net.cpp:91] Creating Layer inception_4e/3x3
I0403 15:05:51.399724 18238 net.cpp:425] inception_4e/3x3 <- inception_4e/3x3_reduce
I0403 15:05:51.399746 18238 net.cpp:399] inception_4e/3x3 -> inception_4e/3x3
I0403 15:05:51.405055 18238 net.cpp:141] Setting up inception_4e/3x3
I0403 15:05:51.405098 18238 net.cpp:148] Top shape: 24 320 14 14 (1505280)
I0403 15:05:51.405115 18238 net.cpp:156] Memory required for data: 1230108192
I0403 15:05:51.405135 18238 layer_factory.hpp:77] Creating layer inception_4e/relu_3x3
I0403 15:05:51.405154 18238 net.cpp:91] Creating Layer inception_4e/relu_3x3
I0403 15:05:51.405171 18238 net.cpp:425] inception_4e/relu_3x3 <- inception_4e/3x3
I0403 15:05:51.405192 18238 net.cpp:386] inception_4e/relu_3x3 -> inception_4e/3x3 (in-place)
I0403 15:05:51.405509 18238 net.cpp:141] Setting up inception_4e/relu_3x3
I0403 15:05:51.405537 18238 net.cpp:148] Top shape: 24 320 14 14 (1505280)
I0403 15:05:51.405553 18238 net.cpp:156] Memory required for data: 1236129312
I0403 15:05:51.405570 18238 layer_factory.hpp:77] Creating layer inception_4e/5x5_reduce
I0403 15:05:51.405593 18238 net.cpp:91] Creating Layer inception_4e/5x5_reduce
I0403 15:05:51.405611 18238 net.cpp:425] inception_4e/5x5_reduce <- inception_4d/output_inception_4d/output_0_split_3
I0403 15:05:51.405634 18238 net.cpp:399] inception_4e/5x5_reduce -> inception_4e/5x5_reduce
I0403 15:05:51.406782 18238 net.cpp:141] Setting up inception_4e/5x5_reduce
I0403 15:05:51.406815 18238 net.cpp:148] Top shape: 24 32 14 14 (150528)
I0403 15:05:51.406831 18238 net.cpp:156] Memory required for data: 1236731424
I0403 15:05:51.406852 18238 layer_factory.hpp:77] Creating layer inception_4e/relu_5x5_reduce
I0403 15:05:51.406870 18238 net.cpp:91] Creating Layer inception_4e/relu_5x5_reduce
I0403 15:05:51.406886 18238 net.cpp:425] inception_4e/relu_5x5_reduce <- inception_4e/5x5_reduce
I0403 15:05:51.406908 18238 net.cpp:386] inception_4e/relu_5x5_reduce -> inception_4e/5x5_reduce (in-place)
I0403 15:05:51.407224 18238 net.cpp:141] Setting up inception_4e/relu_5x5_reduce
I0403 15:05:51.407258 18238 net.cpp:148] Top shape: 24 32 14 14 (150528)
I0403 15:05:51.407274 18238 net.cpp:156] Memory required for data: 1237333536
I0403 15:05:51.407290 18238 layer_factory.hpp:77] Creating layer inception_4e/5x5
I0403 15:05:51.407331 18238 net.cpp:91] Creating Layer inception_4e/5x5
I0403 15:05:51.407351 18238 net.cpp:425] inception_4e/5x5 <- inception_4e/5x5_reduce
I0403 15:05:51.407372 18238 net.cpp:399] inception_4e/5x5 -> inception_4e/5x5
I0403 15:05:51.409353 18238 net.cpp:141] Setting up inception_4e/5x5
I0403 15:05:51.409384 18238 net.cpp:148] Top shape: 24 128 14 14 (602112)
I0403 15:05:51.409399 18238 net.cpp:156] Memory required for data: 1239741984
I0403 15:05:51.409420 18238 layer_factory.hpp:77] Creating layer inception_4e/relu_5x5
I0403 15:05:51.409441 18238 net.cpp:91] Creating Layer inception_4e/relu_5x5
I0403 15:05:51.409459 18238 net.cpp:425] inception_4e/relu_5x5 <- inception_4e/5x5
I0403 15:05:51.409478 18238 net.cpp:386] inception_4e/relu_5x5 -> inception_4e/5x5 (in-place)
I0403 15:05:51.409685 18238 net.cpp:141] Setting up inception_4e/relu_5x5
I0403 15:05:51.409714 18238 net.cpp:148] Top shape: 24 128 14 14 (602112)
I0403 15:05:51.409730 18238 net.cpp:156] Memory required for data: 1242150432
I0403 15:05:51.409746 18238 layer_factory.hpp:77] Creating layer inception_4e/pool
I0403 15:05:51.409766 18238 net.cpp:91] Creating Layer inception_4e/pool
I0403 15:05:51.409783 18238 net.cpp:425] inception_4e/pool <- inception_4d/output_inception_4d/output_0_split_4
I0403 15:05:51.409804 18238 net.cpp:399] inception_4e/pool -> inception_4e/pool
I0403 15:05:51.409880 18238 net.cpp:141] Setting up inception_4e/pool
I0403 15:05:51.409905 18238 net.cpp:148] Top shape: 24 528 14 14 (2483712)
I0403 15:05:51.409921 18238 net.cpp:156] Memory required for data: 1252085280
I0403 15:05:51.409936 18238 layer_factory.hpp:77] Creating layer inception_4e/pool_proj
I0403 15:05:51.409960 18238 net.cpp:91] Creating Layer inception_4e/pool_proj
I0403 15:05:51.409981 18238 net.cpp:425] inception_4e/pool_proj <- inception_4e/pool
I0403 15:05:51.410006 18238 net.cpp:399] inception_4e/pool_proj -> inception_4e/pool_proj
I0403 15:05:51.411612 18238 net.cpp:141] Setting up inception_4e/pool_proj
I0403 15:05:51.411653 18238 net.cpp:148] Top shape: 24 128 14 14 (602112)
I0403 15:05:51.411670 18238 net.cpp:156] Memory required for data: 1254493728
I0403 15:05:51.411689 18238 layer_factory.hpp:77] Creating layer inception_4e/relu_pool_proj
I0403 15:05:51.411710 18238 net.cpp:91] Creating Layer inception_4e/relu_pool_proj
I0403 15:05:51.411728 18238 net.cpp:425] inception_4e/relu_pool_proj <- inception_4e/pool_proj
I0403 15:05:51.411746 18238 net.cpp:386] inception_4e/relu_pool_proj -> inception_4e/pool_proj (in-place)
I0403 15:05:51.412062 18238 net.cpp:141] Setting up inception_4e/relu_pool_proj
I0403 15:05:51.412091 18238 net.cpp:148] Top shape: 24 128 14 14 (602112)
I0403 15:05:51.412106 18238 net.cpp:156] Memory required for data: 1256902176
I0403 15:05:51.412122 18238 layer_factory.hpp:77] Creating layer inception_4e/output
I0403 15:05:51.412142 18238 net.cpp:91] Creating Layer inception_4e/output
I0403 15:05:51.412158 18238 net.cpp:425] inception_4e/output <- inception_4e/1x1
I0403 15:05:51.412178 18238 net.cpp:425] inception_4e/output <- inception_4e/3x3
I0403 15:05:51.412195 18238 net.cpp:425] inception_4e/output <- inception_4e/5x5
I0403 15:05:51.412214 18238 net.cpp:425] inception_4e/output <- inception_4e/pool_proj
I0403 15:05:51.412231 18238 net.cpp:399] inception_4e/output -> inception_4e/output
I0403 15:05:51.412288 18238 net.cpp:141] Setting up inception_4e/output
I0403 15:05:51.412313 18238 net.cpp:148] Top shape: 24 832 14 14 (3913728)
I0403 15:05:51.412330 18238 net.cpp:156] Memory required for data: 1272557088
I0403 15:05:51.412346 18238 layer_factory.hpp:77] Creating layer pool4/3x3_s2
I0403 15:05:51.412365 18238 net.cpp:91] Creating Layer pool4/3x3_s2
I0403 15:05:51.412381 18238 net.cpp:425] pool4/3x3_s2 <- inception_4e/output
I0403 15:05:51.412403 18238 net.cpp:399] pool4/3x3_s2 -> pool4/3x3_s2
I0403 15:05:51.412474 18238 net.cpp:141] Setting up pool4/3x3_s2
I0403 15:05:51.412499 18238 net.cpp:148] Top shape: 24 832 7 7 (978432)
I0403 15:05:51.412515 18238 net.cpp:156] Memory required for data: 1276470816
I0403 15:05:51.412529 18238 layer_factory.hpp:77] Creating layer pool4/3x3_s2_pool4/3x3_s2_0_split
I0403 15:05:51.412551 18238 net.cpp:91] Creating Layer pool4/3x3_s2_pool4/3x3_s2_0_split
I0403 15:05:51.412569 18238 net.cpp:425] pool4/3x3_s2_pool4/3x3_s2_0_split <- pool4/3x3_s2
I0403 15:05:51.412587 18238 net.cpp:399] pool4/3x3_s2_pool4/3x3_s2_0_split -> pool4/3x3_s2_pool4/3x3_s2_0_split_0
I0403 15:05:51.412612 18238 net.cpp:399] pool4/3x3_s2_pool4/3x3_s2_0_split -> pool4/3x3_s2_pool4/3x3_s2_0_split_1
I0403 15:05:51.412634 18238 net.cpp:399] pool4/3x3_s2_pool4/3x3_s2_0_split -> pool4/3x3_s2_pool4/3x3_s2_0_split_2
I0403 15:05:51.412655 18238 net.cpp:399] pool4/3x3_s2_pool4/3x3_s2_0_split -> pool4/3x3_s2_pool4/3x3_s2_0_split_3
I0403 15:05:51.412751 18238 net.cpp:141] Setting up pool4/3x3_s2_pool4/3x3_s2_0_split
I0403 15:05:51.412776 18238 net.cpp:148] Top shape: 24 832 7 7 (978432)
I0403 15:05:51.412793 18238 net.cpp:148] Top shape: 24 832 7 7 (978432)
I0403 15:05:51.412809 18238 net.cpp:148] Top shape: 24 832 7 7 (978432)
I0403 15:05:51.412825 18238 net.cpp:148] Top shape: 24 832 7 7 (978432)
I0403 15:05:51.412840 18238 net.cpp:156] Memory required for data: 1292125728
I0403 15:05:51.412854 18238 layer_factory.hpp:77] Creating layer inception_5a/1x1
I0403 15:05:51.412878 18238 net.cpp:91] Creating Layer inception_5a/1x1
I0403 15:05:51.412896 18238 net.cpp:425] inception_5a/1x1 <- pool4/3x3_s2_pool4/3x3_s2_0_split_0
I0403 15:05:51.412919 18238 net.cpp:399] inception_5a/1x1 -> inception_5a/1x1
I0403 15:05:51.415963 18238 net.cpp:141] Setting up inception_5a/1x1
I0403 15:05:51.416000 18238 net.cpp:148] Top shape: 24 256 7 7 (301056)
I0403 15:05:51.416019 18238 net.cpp:156] Memory required for data: 1293329952
I0403 15:05:51.416039 18238 layer_factory.hpp:77] Creating layer inception_5a/relu_1x1
I0403 15:05:51.416057 18238 net.cpp:91] Creating Layer inception_5a/relu_1x1
I0403 15:05:51.416074 18238 net.cpp:425] inception_5a/relu_1x1 <- inception_5a/1x1
I0403 15:05:51.416092 18238 net.cpp:386] inception_5a/relu_1x1 -> inception_5a/1x1 (in-place)
I0403 15:05:51.416430 18238 net.cpp:141] Setting up inception_5a/relu_1x1
I0403 15:05:51.416460 18238 net.cpp:148] Top shape: 24 256 7 7 (301056)
I0403 15:05:51.416477 18238 net.cpp:156] Memory required for data: 1294534176
I0403 15:05:51.416493 18238 layer_factory.hpp:77] Creating layer inception_5a/3x3_reduce
I0403 15:05:51.416514 18238 net.cpp:91] Creating Layer inception_5a/3x3_reduce
I0403 15:05:51.416532 18238 net.cpp:425] inception_5a/3x3_reduce <- pool4/3x3_s2_pool4/3x3_s2_0_split_1
I0403 15:05:51.416555 18238 net.cpp:399] inception_5a/3x3_reduce -> inception_5a/3x3_reduce
I0403 15:05:51.419191 18238 net.cpp:141] Setting up inception_5a/3x3_reduce
I0403 15:05:51.419222 18238 net.cpp:148] Top shape: 24 160 7 7 (188160)
I0403 15:05:51.419240 18238 net.cpp:156] Memory required for data: 1295286816
I0403 15:05:51.419260 18238 layer_factory.hpp:77] Creating layer inception_5a/relu_3x3_reduce
I0403 15:05:51.419280 18238 net.cpp:91] Creating Layer inception_5a/relu_3x3_reduce
I0403 15:05:51.419296 18238 net.cpp:425] inception_5a/relu_3x3_reduce <- inception_5a/3x3_reduce
I0403 15:05:51.419317 18238 net.cpp:386] inception_5a/relu_3x3_reduce -> inception_5a/3x3_reduce (in-place)
I0403 15:05:51.419517 18238 net.cpp:141] Setting up inception_5a/relu_3x3_reduce
I0403 15:05:51.419544 18238 net.cpp:148] Top shape: 24 160 7 7 (188160)
I0403 15:05:51.419559 18238 net.cpp:156] Memory required for data: 1296039456
I0403 15:05:51.419575 18238 layer_factory.hpp:77] Creating layer inception_5a/3x3
I0403 15:05:51.419598 18238 net.cpp:91] Creating Layer inception_5a/3x3
I0403 15:05:51.419616 18238 net.cpp:425] inception_5a/3x3 <- inception_5a/3x3_reduce
I0403 15:05:51.419641 18238 net.cpp:399] inception_5a/3x3 -> inception_5a/3x3
I0403 15:05:51.424994 18238 net.cpp:141] Setting up inception_5a/3x3
I0403 15:05:51.425026 18238 net.cpp:148] Top shape: 24 320 7 7 (376320)
I0403 15:05:51.425043 18238 net.cpp:156] Memory required for data: 1297544736
I0403 15:05:51.425063 18238 layer_factory.hpp:77] Creating layer inception_5a/relu_3x3
I0403 15:05:51.425084 18238 net.cpp:91] Creating Layer inception_5a/relu_3x3
I0403 15:05:51.425102 18238 net.cpp:425] inception_5a/relu_3x3 <- inception_5a/3x3
I0403 15:05:51.425122 18238 net.cpp:386] inception_5a/relu_3x3 -> inception_5a/3x3 (in-place)
I0403 15:05:51.425433 18238 net.cpp:141] Setting up inception_5a/relu_3x3
I0403 15:05:51.425462 18238 net.cpp:148] Top shape: 24 320 7 7 (376320)
I0403 15:05:51.425478 18238 net.cpp:156] Memory required for data: 1299050016
I0403 15:05:51.425493 18238 layer_factory.hpp:77] Creating layer inception_5a/5x5_reduce
I0403 15:05:51.425520 18238 net.cpp:91] Creating Layer inception_5a/5x5_reduce
I0403 15:05:51.425539 18238 net.cpp:425] inception_5a/5x5_reduce <- pool4/3x3_s2_pool4/3x3_s2_0_split_2
I0403 15:05:51.425560 18238 net.cpp:399] inception_5a/5x5_reduce -> inception_5a/5x5_reduce
I0403 15:05:51.426817 18238 net.cpp:141] Setting up inception_5a/5x5_reduce
I0403 15:05:51.426849 18238 net.cpp:148] Top shape: 24 32 7 7 (37632)
I0403 15:05:51.426868 18238 net.cpp:156] Memory required for data: 1299200544
I0403 15:05:51.426887 18238 layer_factory.hpp:77] Creating layer inception_5a/relu_5x5_reduce
I0403 15:05:51.426906 18238 net.cpp:91] Creating Layer inception_5a/relu_5x5_reduce
I0403 15:05:51.426923 18238 net.cpp:425] inception_5a/relu_5x5_reduce <- inception_5a/5x5_reduce
I0403 15:05:51.426941 18238 net.cpp:386] inception_5a/relu_5x5_reduce -> inception_5a/5x5_reduce (in-place)
I0403 15:05:51.427268 18238 net.cpp:141] Setting up inception_5a/relu_5x5_reduce
I0403 15:05:51.427297 18238 net.cpp:148] Top shape: 24 32 7 7 (37632)
I0403 15:05:51.427314 18238 net.cpp:156] Memory required for data: 1299351072
I0403 15:05:51.427331 18238 layer_factory.hpp:77] Creating layer inception_5a/5x5
I0403 15:05:51.427355 18238 net.cpp:91] Creating Layer inception_5a/5x5
I0403 15:05:51.427373 18238 net.cpp:425] inception_5a/5x5 <- inception_5a/5x5_reduce
I0403 15:05:51.427393 18238 net.cpp:399] inception_5a/5x5 -> inception_5a/5x5
I0403 15:05:51.429250 18238 net.cpp:141] Setting up inception_5a/5x5
I0403 15:05:51.429293 18238 net.cpp:148] Top shape: 24 128 7 7 (150528)
I0403 15:05:51.429311 18238 net.cpp:156] Memory required for data: 1299953184
I0403 15:05:51.429330 18238 layer_factory.hpp:77] Creating layer inception_5a/relu_5x5
I0403 15:05:51.429352 18238 net.cpp:91] Creating Layer inception_5a/relu_5x5
I0403 15:05:51.429369 18238 net.cpp:425] inception_5a/relu_5x5 <- inception_5a/5x5
I0403 15:05:51.429388 18238 net.cpp:386] inception_5a/relu_5x5 -> inception_5a/5x5 (in-place)
I0403 15:05:51.429590 18238 net.cpp:141] Setting up inception_5a/relu_5x5
I0403 15:05:51.429618 18238 net.cpp:148] Top shape: 24 128 7 7 (150528)
I0403 15:05:51.429633 18238 net.cpp:156] Memory required for data: 1300555296
I0403 15:05:51.429648 18238 layer_factory.hpp:77] Creating layer inception_5a/pool
I0403 15:05:51.429666 18238 net.cpp:91] Creating Layer inception_5a/pool
I0403 15:05:51.429683 18238 net.cpp:425] inception_5a/pool <- pool4/3x3_s2_pool4/3x3_s2_0_split_3
I0403 15:05:51.429704 18238 net.cpp:399] inception_5a/pool -> inception_5a/pool
I0403 15:05:51.429780 18238 net.cpp:141] Setting up inception_5a/pool
I0403 15:05:51.429805 18238 net.cpp:148] Top shape: 24 832 7 7 (978432)
I0403 15:05:51.429821 18238 net.cpp:156] Memory required for data: 1304469024
I0403 15:05:51.429836 18238 layer_factory.hpp:77] Creating layer inception_5a/pool_proj
I0403 15:05:51.429862 18238 net.cpp:91] Creating Layer inception_5a/pool_proj
I0403 15:05:51.429880 18238 net.cpp:425] inception_5a/pool_proj <- inception_5a/pool
I0403 15:05:51.429900 18238 net.cpp:399] inception_5a/pool_proj -> inception_5a/pool_proj
I0403 15:05:51.432351 18238 net.cpp:141] Setting up inception_5a/pool_proj
I0403 15:05:51.432382 18238 net.cpp:148] Top shape: 24 128 7 7 (150528)
I0403 15:05:51.432399 18238 net.cpp:156] Memory required for data: 1305071136
I0403 15:05:51.432418 18238 layer_factory.hpp:77] Creating layer inception_5a/relu_pool_proj
I0403 15:05:51.432440 18238 net.cpp:91] Creating Layer inception_5a/relu_pool_proj
I0403 15:05:51.432458 18238 net.cpp:425] inception_5a/relu_pool_proj <- inception_5a/pool_proj
I0403 15:05:51.432476 18238 net.cpp:386] inception_5a/relu_pool_proj -> inception_5a/pool_proj (in-place)
I0403 15:05:51.432795 18238 net.cpp:141] Setting up inception_5a/relu_pool_proj
I0403 15:05:51.432822 18238 net.cpp:148] Top shape: 24 128 7 7 (150528)
I0403 15:05:51.432838 18238 net.cpp:156] Memory required for data: 1305673248
I0403 15:05:51.432854 18238 layer_factory.hpp:77] Creating layer inception_5a/output
I0403 15:05:51.432875 18238 net.cpp:91] Creating Layer inception_5a/output
I0403 15:05:51.432893 18238 net.cpp:425] inception_5a/output <- inception_5a/1x1
I0403 15:05:51.432911 18238 net.cpp:425] inception_5a/output <- inception_5a/3x3
I0403 15:05:51.432929 18238 net.cpp:425] inception_5a/output <- inception_5a/5x5
I0403 15:05:51.432946 18238 net.cpp:425] inception_5a/output <- inception_5a/pool_proj
I0403 15:05:51.432965 18238 net.cpp:399] inception_5a/output -> inception_5a/output
I0403 15:05:51.433023 18238 net.cpp:141] Setting up inception_5a/output
I0403 15:05:51.433049 18238 net.cpp:148] Top shape: 24 832 7 7 (978432)
I0403 15:05:51.433065 18238 net.cpp:156] Memory required for data: 1309586976
I0403 15:05:51.433081 18238 layer_factory.hpp:77] Creating layer inception_5a/output_inception_5a/output_0_split
I0403 15:05:51.433099 18238 net.cpp:91] Creating Layer inception_5a/output_inception_5a/output_0_split
I0403 15:05:51.433116 18238 net.cpp:425] inception_5a/output_inception_5a/output_0_split <- inception_5a/output
I0403 15:05:51.433137 18238 net.cpp:399] inception_5a/output_inception_5a/output_0_split -> inception_5a/output_inception_5a/output_0_split_0
I0403 15:05:51.433159 18238 net.cpp:399] inception_5a/output_inception_5a/output_0_split -> inception_5a/output_inception_5a/output_0_split_1
I0403 15:05:51.433182 18238 net.cpp:399] inception_5a/output_inception_5a/output_0_split -> inception_5a/output_inception_5a/output_0_split_2
I0403 15:05:51.433202 18238 net.cpp:399] inception_5a/output_inception_5a/output_0_split -> inception_5a/output_inception_5a/output_0_split_3
I0403 15:05:51.433344 18238 net.cpp:141] Setting up inception_5a/output_inception_5a/output_0_split
I0403 15:05:51.433372 18238 net.cpp:148] Top shape: 24 832 7 7 (978432)
I0403 15:05:51.433389 18238 net.cpp:148] Top shape: 24 832 7 7 (978432)
I0403 15:05:51.433406 18238 net.cpp:148] Top shape: 24 832 7 7 (978432)
I0403 15:05:51.433421 18238 net.cpp:148] Top shape: 24 832 7 7 (978432)
I0403 15:05:51.433435 18238 net.cpp:156] Memory required for data: 1325241888
I0403 15:05:51.433450 18238 layer_factory.hpp:77] Creating layer inception_5b/1x1
I0403 15:05:51.433472 18238 net.cpp:91] Creating Layer inception_5b/1x1
I0403 15:05:51.433490 18238 net.cpp:425] inception_5b/1x1 <- inception_5a/output_inception_5a/output_0_split_0
I0403 15:05:51.433511 18238 net.cpp:399] inception_5b/1x1 -> inception_5b/1x1
I0403 15:05:51.437481 18238 net.cpp:141] Setting up inception_5b/1x1
I0403 15:05:51.437512 18238 net.cpp:148] Top shape: 24 384 7 7 (451584)
I0403 15:05:51.437528 18238 net.cpp:156] Memory required for data: 1327048224
I0403 15:05:51.437549 18238 layer_factory.hpp:77] Creating layer inception_5b/relu_1x1
I0403 15:05:51.437572 18238 net.cpp:91] Creating Layer inception_5b/relu_1x1
I0403 15:05:51.437588 18238 net.cpp:425] inception_5b/relu_1x1 <- inception_5b/1x1
I0403 15:05:51.437607 18238 net.cpp:386] inception_5b/relu_1x1 -> inception_5b/1x1 (in-place)
I0403 15:05:51.437923 18238 net.cpp:141] Setting up inception_5b/relu_1x1
I0403 15:05:51.437950 18238 net.cpp:148] Top shape: 24 384 7 7 (451584)
I0403 15:05:51.437966 18238 net.cpp:156] Memory required for data: 1328854560
I0403 15:05:51.437980 18238 layer_factory.hpp:77] Creating layer inception_5b/3x3_reduce
I0403 15:05:51.438009 18238 net.cpp:91] Creating Layer inception_5b/3x3_reduce
I0403 15:05:51.438029 18238 net.cpp:425] inception_5b/3x3_reduce <- inception_5a/output_inception_5a/output_0_split_1
I0403 15:05:51.438051 18238 net.cpp:399] inception_5b/3x3_reduce -> inception_5b/3x3_reduce
I0403 15:05:51.440804 18238 net.cpp:141] Setting up inception_5b/3x3_reduce
I0403 15:05:51.440834 18238 net.cpp:148] Top shape: 24 192 7 7 (225792)
I0403 15:05:51.440851 18238 net.cpp:156] Memory required for data: 1329757728
I0403 15:05:51.440871 18238 layer_factory.hpp:77] Creating layer inception_5b/relu_3x3_reduce
I0403 15:05:51.440891 18238 net.cpp:91] Creating Layer inception_5b/relu_3x3_reduce
I0403 15:05:51.440910 18238 net.cpp:425] inception_5b/relu_3x3_reduce <- inception_5b/3x3_reduce
I0403 15:05:51.440929 18238 net.cpp:386] inception_5b/relu_3x3_reduce -> inception_5b/3x3_reduce (in-place)
I0403 15:05:51.441133 18238 net.cpp:141] Setting up inception_5b/relu_3x3_reduce
I0403 15:05:51.441159 18238 net.cpp:148] Top shape: 24 192 7 7 (225792)
I0403 15:05:51.441174 18238 net.cpp:156] Memory required for data: 1330660896
I0403 15:05:51.441189 18238 layer_factory.hpp:77] Creating layer inception_5b/3x3
I0403 15:05:51.441212 18238 net.cpp:91] Creating Layer inception_5b/3x3
I0403 15:05:51.441231 18238 net.cpp:425] inception_5b/3x3 <- inception_5b/3x3_reduce
I0403 15:05:51.441251 18238 net.cpp:399] inception_5b/3x3 -> inception_5b/3x3
I0403 15:05:51.448256 18238 net.cpp:141] Setting up inception_5b/3x3
I0403 15:05:51.448287 18238 net.cpp:148] Top shape: 24 384 7 7 (451584)
I0403 15:05:51.448302 18238 net.cpp:156] Memory required for data: 1332467232
I0403 15:05:51.448323 18238 layer_factory.hpp:77] Creating layer inception_5b/relu_3x3
I0403 15:05:51.448343 18238 net.cpp:91] Creating Layer inception_5b/relu_3x3
I0403 15:05:51.448360 18238 net.cpp:425] inception_5b/relu_3x3 <- inception_5b/3x3
I0403 15:05:51.448379 18238 net.cpp:386] inception_5b/relu_3x3 -> inception_5b/3x3 (in-place)
I0403 15:05:51.448690 18238 net.cpp:141] Setting up inception_5b/relu_3x3
I0403 15:05:51.448717 18238 net.cpp:148] Top shape: 24 384 7 7 (451584)
I0403 15:05:51.448732 18238 net.cpp:156] Memory required for data: 1334273568
I0403 15:05:51.448747 18238 layer_factory.hpp:77] Creating layer inception_5b/5x5_reduce
I0403 15:05:51.448788 18238 net.cpp:91] Creating Layer inception_5b/5x5_reduce
I0403 15:05:51.448807 18238 net.cpp:425] inception_5b/5x5_reduce <- inception_5a/output_inception_5a/output_0_split_2
I0403 15:05:51.448829 18238 net.cpp:399] inception_5b/5x5_reduce -> inception_5b/5x5_reduce
I0403 15:05:51.450212 18238 net.cpp:141] Setting up inception_5b/5x5_reduce
I0403 15:05:51.450242 18238 net.cpp:148] Top shape: 24 48 7 7 (56448)
I0403 15:05:51.450264 18238 net.cpp:156] Memory required for data: 1334499360
I0403 15:05:51.450284 18238 layer_factory.hpp:77] Creating layer inception_5b/relu_5x5_reduce
I0403 15:05:51.450304 18238 net.cpp:91] Creating Layer inception_5b/relu_5x5_reduce
I0403 15:05:51.450320 18238 net.cpp:425] inception_5b/relu_5x5_reduce <- inception_5b/5x5_reduce
I0403 15:05:51.450338 18238 net.cpp:386] inception_5b/relu_5x5_reduce -> inception_5b/5x5_reduce (in-place)
I0403 15:05:51.450722 18238 net.cpp:141] Setting up inception_5b/relu_5x5_reduce
I0403 15:05:51.450749 18238 net.cpp:148] Top shape: 24 48 7 7 (56448)
I0403 15:05:51.450764 18238 net.cpp:156] Memory required for data: 1334725152
I0403 15:05:51.450779 18238 layer_factory.hpp:77] Creating layer inception_5b/5x5
I0403 15:05:51.450801 18238 net.cpp:91] Creating Layer inception_5b/5x5
I0403 15:05:51.450819 18238 net.cpp:425] inception_5b/5x5 <- inception_5b/5x5_reduce
I0403 15:05:51.450837 18238 net.cpp:399] inception_5b/5x5 -> inception_5b/5x5
I0403 15:05:51.453043 18238 net.cpp:141] Setting up inception_5b/5x5
I0403 15:05:51.453074 18238 net.cpp:148] Top shape: 24 128 7 7 (150528)
I0403 15:05:51.453090 18238 net.cpp:156] Memory required for data: 1335327264
I0403 15:05:51.453109 18238 layer_factory.hpp:77] Creating layer inception_5b/relu_5x5
I0403 15:05:51.453129 18238 net.cpp:91] Creating Layer inception_5b/relu_5x5
I0403 15:05:51.453145 18238 net.cpp:425] inception_5b/relu_5x5 <- inception_5b/5x5
I0403 15:05:51.453161 18238 net.cpp:386] inception_5b/relu_5x5 -> inception_5b/5x5 (in-place)
I0403 15:05:51.453364 18238 net.cpp:141] Setting up inception_5b/relu_5x5
I0403 15:05:51.453392 18238 net.cpp:148] Top shape: 24 128 7 7 (150528)
I0403 15:05:51.453408 18238 net.cpp:156] Memory required for data: 1335929376
I0403 15:05:51.453426 18238 layer_factory.hpp:77] Creating layer inception_5b/pool
I0403 15:05:51.453445 18238 net.cpp:91] Creating Layer inception_5b/pool
I0403 15:05:51.453461 18238 net.cpp:425] inception_5b/pool <- inception_5a/output_inception_5a/output_0_split_3
I0403 15:05:51.453481 18238 net.cpp:399] inception_5b/pool -> inception_5b/pool
I0403 15:05:51.453558 18238 net.cpp:141] Setting up inception_5b/pool
I0403 15:05:51.453585 18238 net.cpp:148] Top shape: 24 832 7 7 (978432)
I0403 15:05:51.453600 18238 net.cpp:156] Memory required for data: 1339843104
I0403 15:05:51.453615 18238 layer_factory.hpp:77] Creating layer inception_5b/pool_proj
I0403 15:05:51.453635 18238 net.cpp:91] Creating Layer inception_5b/pool_proj
I0403 15:05:51.453652 18238 net.cpp:425] inception_5b/pool_proj <- inception_5b/pool
I0403 15:05:51.453675 18238 net.cpp:399] inception_5b/pool_proj -> inception_5b/pool_proj
I0403 15:05:51.456104 18238 net.cpp:141] Setting up inception_5b/pool_proj
I0403 15:05:51.456135 18238 net.cpp:148] Top shape: 24 128 7 7 (150528)
I0403 15:05:51.456151 18238 net.cpp:156] Memory required for data: 1340445216
I0403 15:05:51.456171 18238 layer_factory.hpp:77] Creating layer inception_5b/relu_pool_proj
I0403 15:05:51.456192 18238 net.cpp:91] Creating Layer inception_5b/relu_pool_proj
I0403 15:05:51.456209 18238 net.cpp:425] inception_5b/relu_pool_proj <- inception_5b/pool_proj
I0403 15:05:51.456228 18238 net.cpp:386] inception_5b/relu_pool_proj -> inception_5b/pool_proj (in-place)
I0403 15:05:51.456537 18238 net.cpp:141] Setting up inception_5b/relu_pool_proj
I0403 15:05:51.456564 18238 net.cpp:148] Top shape: 24 128 7 7 (150528)
I0403 15:05:51.456580 18238 net.cpp:156] Memory required for data: 1341047328
I0403 15:05:51.456595 18238 layer_factory.hpp:77] Creating layer inception_5b/output
I0403 15:05:51.456616 18238 net.cpp:91] Creating Layer inception_5b/output
I0403 15:05:51.456647 18238 net.cpp:425] inception_5b/output <- inception_5b/1x1
I0403 15:05:51.456666 18238 net.cpp:425] inception_5b/output <- inception_5b/3x3
I0403 15:05:51.456683 18238 net.cpp:425] inception_5b/output <- inception_5b/5x5
I0403 15:05:51.456699 18238 net.cpp:425] inception_5b/output <- inception_5b/pool_proj
I0403 15:05:51.456717 18238 net.cpp:399] inception_5b/output -> inception_5b/output
I0403 15:05:51.456773 18238 net.cpp:141] Setting up inception_5b/output
I0403 15:05:51.456797 18238 net.cpp:148] Top shape: 24 1024 7 7 (1204224)
I0403 15:05:51.456812 18238 net.cpp:156] Memory required for data: 1345864224
I0403 15:05:51.456827 18238 layer_factory.hpp:77] Creating layer pool5/7x7_s1
I0403 15:05:51.456845 18238 net.cpp:91] Creating Layer pool5/7x7_s1
I0403 15:05:51.456861 18238 net.cpp:425] pool5/7x7_s1 <- inception_5b/output
I0403 15:05:51.456882 18238 net.cpp:399] pool5/7x7_s1 -> pool5/7x7_s1
I0403 15:05:51.457129 18238 net.cpp:141] Setting up pool5/7x7_s1
I0403 15:05:51.457156 18238 net.cpp:148] Top shape: 24 1024 1 1 (24576)
I0403 15:05:51.457172 18238 net.cpp:156] Memory required for data: 1345962528
I0403 15:05:51.457188 18238 layer_factory.hpp:77] Creating layer pool5/drop_7x7_s1
I0403 15:05:51.457209 18238 net.cpp:91] Creating Layer pool5/drop_7x7_s1
I0403 15:05:51.457227 18238 net.cpp:425] pool5/drop_7x7_s1 <- pool5/7x7_s1
I0403 15:05:51.457247 18238 net.cpp:386] pool5/drop_7x7_s1 -> pool5/7x7_s1 (in-place)
I0403 15:05:51.457314 18238 net.cpp:141] Setting up pool5/drop_7x7_s1
I0403 15:05:51.457337 18238 net.cpp:148] Top shape: 24 1024 1 1 (24576)
I0403 15:05:51.457352 18238 net.cpp:156] Memory required for data: 1346060832
I0403 15:05:51.457367 18238 layer_factory.hpp:77] Creating layer loss3/classifier_plantvillage
I0403 15:05:51.457389 18238 net.cpp:91] Creating Layer loss3/classifier_plantvillage
I0403 15:05:51.457406 18238 net.cpp:425] loss3/classifier_plantvillage <- pool5/7x7_s1
I0403 15:05:51.457427 18238 net.cpp:399] loss3/classifier_plantvillage -> loss3/classifier_plantvillage
I0403 15:05:51.457875 18238 net.cpp:141] Setting up loss3/classifier_plantvillage
I0403 15:05:51.457901 18238 net.cpp:148] Top shape: 24 38 (912)
I0403 15:05:51.457914 18238 net.cpp:156] Memory required for data: 1346064480
I0403 15:05:51.457933 18238 layer_factory.hpp:77] Creating layer loss3/classifier_plantvillage_loss3/classifier_plantvillage_0_split
I0403 15:05:51.457952 18238 net.cpp:91] Creating Layer loss3/classifier_plantvillage_loss3/classifier_plantvillage_0_split
I0403 15:05:51.457969 18238 net.cpp:425] loss3/classifier_plantvillage_loss3/classifier_plantvillage_0_split <- loss3/classifier_plantvillage
I0403 15:05:51.457994 18238 net.cpp:399] loss3/classifier_plantvillage_loss3/classifier_plantvillage_0_split -> loss3/classifier_plantvillage_loss3/classifier_plantvillage_0_split_0
I0403 15:05:51.458017 18238 net.cpp:399] loss3/classifier_plantvillage_loss3/classifier_plantvillage_0_split -> loss3/classifier_plantvillage_loss3/classifier_plantvillage_0_split_1
I0403 15:05:51.458037 18238 net.cpp:399] loss3/classifier_plantvillage_loss3/classifier_plantvillage_0_split -> loss3/classifier_plantvillage_loss3/classifier_plantvillage_0_split_2
I0403 15:05:51.458058 18238 net.cpp:399] loss3/classifier_plantvillage_loss3/classifier_plantvillage_0_split -> loss3/classifier_plantvillage_loss3/classifier_plantvillage_0_split_3
I0403 15:05:51.458168 18238 net.cpp:141] Setting up loss3/classifier_plantvillage_loss3/classifier_plantvillage_0_split
I0403 15:05:51.458191 18238 net.cpp:148] Top shape: 24 38 (912)
I0403 15:05:51.458207 18238 net.cpp:148] Top shape: 24 38 (912)
I0403 15:05:51.458223 18238 net.cpp:148] Top shape: 24 38 (912)
I0403 15:05:51.458238 18238 net.cpp:148] Top shape: 24 38 (912)
I0403 15:05:51.458252 18238 net.cpp:156] Memory required for data: 1346079072
I0403 15:05:51.458267 18238 layer_factory.hpp:77] Creating layer loss1/loss
I0403 15:05:51.458289 18238 net.cpp:91] Creating Layer loss1/loss
I0403 15:05:51.458307 18238 net.cpp:425] loss1/loss <- loss1/classifier_plantvillage_loss1/classifier_plantvillage_0_split_0
I0403 15:05:51.458338 18238 net.cpp:425] loss1/loss <- label_data_1_split_0
…
