…
I0403 15:38:46.304738 20112 net.cpp:313] The NetState phase (1) differed from the phase (0) specified by a rule in layer data
I0403 15:38:46.305866 20112 net.cpp:49] Initializing net from parameters: 
state {
  phase: TEST
}
layer {
  name: "data"
  type: "Data"
  top: "data"
  top: "label"
  include {
    phase: TEST
  }
  transform_param {
    mirror: false
    crop_size: 224
    mean_file: "/home/mohanty/data/final_dataset/lmdb/grayscale-40-60/mean.binaryproto"
  }
  data_param {
    source: "/home/mohanty/data/final_dataset/lmdb/grayscale-40-60/test_db"
    batch_size: 24
    backend: LMDB
  }
}
layer {
  name: "conv1/7x7_s2"
  type: "Convolution"
  bottom: "data"
  top: "conv1/7x7_s2"
  param {
    lr_mult: 1
    decay_mult: 1
  }
  param {
    lr_mult: 2
    decay_mult: 0
  }
  convolution_param {
    num_output: 64
    pad: 3
    kernel_size: 7
    stride: 2
    weight_filler {
      type: "xavier"
      std: 0.1
    }
    bias_filler {
      type: "constant"
      value: 0.2
    }
  }
}
layer {
  name: "conv1/relu_7x7"
  type: "ReLU"
  bottom: "conv1/7x7_s2"
  top: "conv1/7x7_s2"
}
layer {
  name: "pool1/3x3_s2"
  type: "Pooling"
  bottom: "conv1/7x7_s2"
  top: "pool1/3x3_s2"
  pooling_param {
    pool: MAX
    kernel_size: 3
    stride: 2
  }
}
layer {
  name: "pool1/norm1"
  type: "LRN"
  bottom: "pool1/3x3_s2"
  top: "pool1/norm1"
  lrn_param {
    local_size: 5
    alpha: 0.0001
    beta: 0.75
  }
}
layer {
  name: "conv2/3x3_reduce"
  type: "Convolution"
  bottom: "pool1/norm1"
  top: "conv2/3x3_reduce"
  param {
    lr_mult: 1
    decay_mult: 1
  }
  param {
    lr_mult: 2
    decay_mult: 0
  }
  convolution_param {
    num_output: 64
    kernel_size: 1
    weight_filler {
      type: "xavier"
      std: 0.1
    }
    bias_filler {
      type: "constant"
      value: 0.2
    }
  }
}
layer {
  name: "conv2/relu_3x3_reduce"
  type: "ReLU"
  bottom: "conv2/3x3_reduce"
  top: "conv2/3x3_reduce"
}
layer {
  name: "conv2/3x3"
  type: "Convolution"
  bottom: "conv2/3x3_reduce"
  top: "conv2/3x3"
  param {
    lr_mult: 1
    decay_mult: 1
  }
  param {
    lr_mult: 2
    decay_mult: 0
  }
  convolution_param {
    num_output: 192
    pad: 1
    kernel_size: 3
    weight_filler {
      type: "xavier"
      std: 0.03
    }
    bias_filler {
      type: "constant"
      value: 0.2
    }
  }
}
layer {
  name: "conv2/relu_3x3"
  type: "ReLU"
  bottom: "conv2/3x3"
  top: "conv2/3x3"
}
layer {
  name: "conv2/norm2"
  type: "LRN"
  bottom: "conv2/3x3"
  top: "conv2/norm2"
  lrn_param {
    local_size: 5
    alpha: 0.0001
    beta: 0.75
  }
}
layer {
  name: "pool2/3x3_s2"
  type: "Pooling"
  bottom: "conv2/norm2"
  top: "pool2/3x3_s2"
  pooling_param {
    pool: MAX
    kernel_size: 3
    stride: 2
  }
}
layer {
  name: "inception_3a/1x1"
  type: "Convolution"
  bottom: "pool2/3x3_s2"
  top: "inception_3a/1x1"
  param {
    lr_mult: 1
    decay_mult: 1
  }
  param {
    lr_mult: 2
    decay_mult: 0
  }
  convolution_param {
    num_output: 64
    kernel_size: 1
    weight_filler {
      type: "xavier"
      std: 0.03
    }
    bias_filler {
      type: "constant"
      value: 0.2
    }
  }
}
layer {
  name: "inception_3a/relu_1x1"
  type: "ReLU"
  bottom: "inception_3a/1x1"
  top: "inception_3a/1x1"
}
layer {
  name: "inception_3a/3x3_reduce"
  type: "Convolution"
  bottom: "pool2/3x3_s2"
  top: "inception_3a/3x3_reduce"
  param {
    lr_mult: 1
    decay_mult: 1
  }
  param {
    lr_mult: 2
    decay_mult: 0
  }
  convolution_param {
    num_output: 96
    kernel_size: 1
    weight_filler {
      type: "xavier"
      std: 0.09
    }
    bias_filler {
      type: "constant"
      value: 0.2
    }
  }
}
layer {
  name: "inception_3a/relu_3x3_reduce"
  type: "ReLU"
  bottom: "inception_3a/3x3_reduce"
  top: "inception_3a/3x3_reduce"
}
layer {
  name: "inception_3a/3x3"
  type: "Convolution"
  bottom: "inception_3a/3x3_reduce"
  top: "inception_3a/3x3"
  param {
    lr_mult: 1
    decay_mult: 1
  }
  param {
    lr_mult: 2
    decay_mult: 0
  }
  convolution_param {
    num_output: 128
    pad: 1
    kernel_size: 3
    weight_filler {
      type: "xavier"
      std: 0.03
    }
    bias_filler {
      type: "constant"
      value: 0.2
    }
  }
}
layer {
  name: "inception_3a/relu_3x3"
  type: "ReLU"
  bottom: "inception_3a/3x3"
  top: "inception_3a/3x3"
}
layer {
  name: "inception_3a/5x5_reduce"
  type: "Convolution"
  bottom: "pool2/3x3_s2"
  top: "inception_3a/5x5_reduce"
  param {
    lr_mult: 1
    decay_mult: 1
  }
  param {
    lr_mult: 2
    decay_mult: 0
  }
  convolution_param {
    num_output: 16
    kernel_size: 1
    weight_filler {
      type: "xavier"
      std: 0.2
    }
    bias_filler {
      type: "constant"
      value: 0.2
    }
  }
}
layer {
  name: "inception_3a/relu_5x5_reduce"
  type: "ReLU"
  bottom: "inception_3a/5x5_reduce"
  top: "inception_3a/5x5_reduce"
}
layer {
  name: "inception_3a/5x5"
  type: "Convolution"
  bottom: "inception_3a/5x5_reduce"
  top: "inception_3a/5x5"
  param {
    lr_mult: 1
    decay_mult: 1
  }
  param {
    lr_mult: 2
    decay_mult: 0
  }
  convolution_param {
    num_output: 32
    pad: 2
    kernel_size: 5
    weight_filler {
      type: "xavier"
      std: 0.03
    }
    bias_filler {
      type: "constant"
      value: 0.2
    }
  }
}
layer {
  name: "inception_3a/relu_5x5"
  type: "ReLU"
  bottom: "inception_3a/5x5"
  top: "inception_3a/5x5"
}
layer {
  name: "inception_3a/pool"
  type: "Pooling"
  bottom: "pool2/3x3_s2"
  top: "inception_3a/pool"
  pooling_param {
    pool: MAX
    kernel_size: 3
    stride: 1
    pad: 1
  }
}
layer {
  name: "inception_3a/pool_proj"
  type: "Convolution"
  bottom: "inception_3a/pool"
  top: "inception_3a/pool_proj"
  param {
    lr_mult: 1
    decay_mult: 1
  }
  param {
    lr_mult: 2
    decay_mult: 0
  }
  convolution_param {
    num_output: 32
    kernel_size: 1
    weight_filler {
      type: "xavier"
      std: 0.1
    }
    bias_filler {
      type: "constant"
      value: 0.2
    }
  }
}
layer {
  name: "inception_3a/relu_pool_proj"
  type: "ReLU"
  bottom: "inception_3a/pool_proj"
  top: "inception_3a/pool_proj"
}
layer {
  name: "inception_3a/output"
  type: "Concat"
  bottom: "inception_3a/1x1"
  bottom: "inception_3a/3x3"
  bottom: "inception_3a/5x5"
  bottom: "inception_3a/pool_proj"
  top: "inception_3a/output"
}
layer {
  name: "inception_3b/1x1"
  type: "Convolution"
  bottom: "inception_3a/output"
  top: "inception_3b/1x1"
  param {
    lr_mult: 1
    decay_mult: 1
  }
  param {
    lr_mult: 2
    decay_mult: 0
  }
  convolution_param {
    num_output: 128
    kernel_size: 1
    weight_filler {
      type: "xavier"
      std: 0.03
    }
    bias_filler {
      type: "constant"
      value: 0.2
    }
  }
}
layer {
  name: "inception_3b/relu_1x1"
  type: "ReLU"
  bottom: "inception_3b/1x1"
  top: "inception_3b/1x1"
}
layer {
  name: "inception_3b/3x3_reduce"
  type: "Convolution"
  bottom: "inception_3a/output"
  top: "inception_3b/3x3_reduce"
  param {
    lr_mult: 1
    decay_mult: 1
  }
  param {
    lr_mult: 2
    decay_mult: 0
  }
  convolution_param {
    num_output: 128
    kernel_size: 1
    weight_filler {
      type: "xavier"
      std: 0.09
    }
    bias_filler {
      type: "constant"
      value: 0.2
    }
  }
}
layer {
  name: "inception_3b/relu_3x3_reduce"
  type: "ReLU"
  bottom: "inception_3b/3x3_reduce"
  top: "inception_3b/3x3_reduce"
}
layer {
  name: "inception_3b/3x3"
  type: "Convolution"
  bottom: "inception_3b/3x3_reduce"
  top: "inception_3b/3x3"
  param {
    lr_mult: 1
    decay_mult: 1
  }
  param {
    lr_mult: 2
    decay_mult: 0
  }
  convolution_param {
    num_output: 192
    pad: 1
    kernel_size: 3
    weight_filler {
      type: "xavier"
      std: 0.03
    }
    bias_filler {
      type: "constant"
      value: 0.2
    }
  }
}
layer {
  name: "inception_3b/relu_3x3"
  type: "ReLU"
  bottom: "inception_3b/3x3"
  top: "inception_3b/3x3"
}
layer {
  name: "inception_3b/5x5_reduce"
  type: "Convolution"
  bottom: "inception_3a/output"
  top: "inception_3b/5x5_reduce"
  param {
    lr_mult: 1
    decay_mult: 1
  }
  param {
    lr_mult: 2
    decay_mult: 0
  }
  convolution_param {
    num_output: 32
    kernel_size: 1
    weight_filler {
      type: "xavier"
      std: 0.2
    }
    bias_filler {
      type: "constant"
      value: 0.2
    }
  }
}
layer {
  name: "inception_3b/relu_5x5_reduce"
  type: "ReLU"
  bottom: "inception_3b/5x5_reduce"
  top: "inception_3b/5x5_reduce"
}
layer {
  name: "inception_3b/5x5"
  type: "Convolution"
  bottom: "inception_3b/5x5_reduce"
  top: "inception_3b/5x5"
  param {
    lr_mult: 1
    decay_mult: 1
  }
  param {
    lr_mult: 2
    decay_mult: 0
  }
  convolution_param {
    num_output: 96
    pad: 2
    kernel_size: 5
    weight_filler {
      type: "xavier"
      std: 0.03
    }
    bias_filler {
      type: "constant"
      value: 0.2
    }
  }
}
layer {
  name: "inception_3b/relu_5x5"
  type: "ReLU"
  bottom: "inception_3b/5x5"
  top: "inception_3b/5x5"
}
layer {
  name: "inception_3b/pool"
  type: "Pooling"
  bottom: "inception_3a/output"
  top: "inception_3b/pool"
  pooling_param {
    pool: MAX
    kernel_size: 3
    stride: 1
    pad: 1
  }
}
layer {
  name: "inception_3b/pool_proj"
  type: "Convolution"
  bottom: "inception_3b/pool"
  top: "inception_3b/pool_proj"
  param {
    lr_mult: 1
    decay_mult: 1
  }
  param {
    lr_mult: 2
    decay_mult: 0
  }
  convolution_param {
    num_output: 64
    kernel_size: 1
    weight_filler {
      type: "xavier"
      std: 0.1
    }
    bias_filler {
      type: "constant"
      value: 0.2
    }
  }
}
layer {
  name: "inception_3b/relu_pool_proj"
  type: "ReLU"
  bottom: "inception_3b/pool_proj"
  top: "inception_3b/pool_proj"
}
layer {
  name: "inception_3b/output"
  type: "Concat"
  bottom: "inception_3b/1x1"
  bottom: "inception_3b/3x3"
  bottom: "inception_3b/5x5"
  bottom: "inception_3b/pool_proj"
  top: "inception_3b/output"
}
layer {
  name: "pool3/3x3_s2"
  type: "Pooling"
  bottom: "inception_3b/output"
  top: "pool3/3x3_s2"
  pooling_param {
    pool: MAX
    kernel_size: 3
    stride: 2
  }
}
layer {
  name: "inception_4a/1x1"
  type: "Convolution"
  bottom: "pool3/3x3_s2"
  top: "inception_4a/1x1"
  param {
    lr_mult: 1
    decay_mult: 1
  }
  param {
    lr_mult: 2
    decay_mult: 0
  }
  convolution_param {
    num_output: 192
    kernel_size: 1
    weight_filler {
      type: "xavier"
      std: 0.03
    }
    bias_filler {
      type: "constant"
      value: 0.2
    }
  }
}
layer {
  name: "inception_4a/relu_1x1"
  type: "ReLU"
  bottom: "inception_4a/1x1"
  top: "inception_4a/1x1"
}
layer {
  name: "inception_4a/3x3_reduce"
  type: "Convolution"
  bottom: "pool3/3x3_s2"
  top: "inception_4a/3x3_reduce"
  param {
    lr_mult: 1
    decay_mult: 1
  }
  param {
    lr_mult: 2
    decay_mult: 0
  }
  convolution_param {
    num_output: 96
    kernel_size: 1
    weight_filler {
      type: "xavier"
      std: 0.09
    }
    bias_filler {
      type: "constant"
      value: 0.2
    }
  }
}
layer {
  name: "inception_4a/relu_3x3_reduce"
  type: "ReLU"
  bottom: "inception_4a/3x3_reduce"
  top: "inception_4a/3x3_reduce"
}
layer {
  name: "inception_4a/3x3"
  type: "Convolution"
  bottom: "inception_4a/3x3_reduce"
  top: "inception_4a/3x3"
  param {
    lr_mult: 1
    decay_mult: 1
  }
  param {
    lr_mult: 2
    decay_mult: 0
  }
  convolution_param {
    num_output: 208
    pad: 1
    kernel_size: 3
    weight_filler {
      type: "xavier"
      std: 0.03
    }
    bias_filler {
      type: "constant"
      value: 0.2
    }
  }
}
layer {
  name: "inception_4a/relu_3x3"
  type: "ReLU"
  bottom: "inception_4a/3x3"
  top: "inception_4a/3x3"
}
layer {
  name: "inception_4a/5x5_reduce"
  type: "Convolution"
  bottom: "pool3/3x3_s2"
  top: "inception_4a/5x5_reduce"
  param {
    lr_mult: 1
    decay_mult: 1
  }
  param {
    lr_mult: 2
    decay_mult: 0
  }
  convolution_param {
    num_output: 16
    kernel_size: 1
    weight_filler {
      type: "xavier"
      std: 0.2
    }
    bias_filler {
      type: "constant"
      value: 0.2
    }
  }
}
layer {
  name: "inception_4a/relu_5x5_reduce"
  type: "ReLU"
  bottom: "inception_4a/5x5_reduce"
  top: "inception_4a/5x5_reduce"
}
layer {
  name: "inception_4a/5x5"
  type: "Convolution"
  bottom: "inception_4a/5x5_reduce"
  top: "inception_4a/5x5"
  param {
    lr_mult: 1
    decay_mult: 1
  }
  param {
    lr_mult: 2
    decay_mult: 0
  }
  convolution_param {
    num_output: 48
    pad: 2
    kernel_size: 5
    weight_filler {
      type: "xavier"
      std: 0.03
    }
    bias_filler {
      type: "constant"
      value: 0.2
    }
  }
}
layer {
  name: "inception_4a/relu_5x5"
  type: "ReLU"
  bottom: "inception_4a/5x5"
  top: "inception_4a/5x5"
}
layer {
  name: "inception_4a/pool"
  type: "Pooling"
  bottom: "pool3/3x3_s2"
  top: "inception_4a/pool"
  pooling_param {
    pool: MAX
    kernel_size: 3
    stride: 1
    pad: 1
  }
}
layer {
  name: "inception_4a/pool_proj"
  type: "Convolution"
  bottom: "inception_4a/pool"
  top: "inception_4a/pool_proj"
  param {
    lr_mult: 1
    decay_mult: 1
  }
  param {
    lr_mult: 2
    decay_mult: 0
  }
  convolution_param {
    num_output: 64
    kernel_size: 1
    weight_filler {
      type: "xavier"
      std: 0.1
    }
    bias_filler {
      type: "constant"
      value: 0.2
    }
  }
}
layer {
  name: "inception_4a/relu_pool_proj"
  type: "ReLU"
  bottom: "inception_4a/pool_proj"
  top: "inception_4a/pool_proj"
}
layer {
  name: "inception_4a/output"
  type: "Concat"
  bottom: "inception_4a/1x1"
  bottom: "inception_4a/3x3"
  bottom: "inception_4a/5x5"
  bottom: "inception_4a/pool_proj"
  top: "inception_4a/output"
}
layer {
  name: "loss1/ave_pool"
  type: "Pooling"
  bottom: "inception_4a/output"
  top: "loss1/ave_pool"
  pooling_param {
    pool: AVE
    kernel_size: 5
    stride: 3
  }
}
layer {
  name: "loss1/conv"
  type: "Convolution"
  bottom: "loss1/ave_pool"
  top: "loss1/conv"
  param {
    lr_mult: 1
    decay_mult: 1
  }
  param {
    lr_mult: 2
    decay_mult: 0
  }
  convolution_param {
    num_output: 128
    kernel_size: 1
    weight_filler {
      type: "xavier"
      std: 0.08
    }
    bias_filler {
      type: "constant"
      value: 0.2
    }
  }
}
layer {
  name: "loss1/relu_conv"
  type: "ReLU"
  bottom: "loss1/conv"
  top: "loss1/conv"
}
layer {
  name: "loss1/fc"
  type: "InnerProduct"
  bottom: "loss1/conv"
  top: "loss1/fc"
  param {
    lr_mult: 1
    decay_mult: 1
  }
  param {
    lr_mult: 2
    decay_mult: 0
  }
  inner_product_param {
    num_output: 1024
    weight_filler {
      type: "xavier"
      std: 0.02
    }
    bias_filler {
      type: "constant"
      value: 0.2
    }
  }
}
layer {
  name: "loss1/relu_fc"
  type: "ReLU"
  bottom: "loss1/fc"
  top: "loss1/fc"
}
layer {
  name: "loss1/drop_fc"
  type: "Dropout"
  bottom: "loss1/fc"
  top: "loss1/fc"
  dropout_param {
    dropout_ratio: 0.7
  }
}
layer {
  name: "loss1/classifier_plantvillage"
  type: "InnerProduct"
  bottom: "loss1/fc"
  top: "loss1/classifier_plantvillage"
  param {
    lr_mult: 1
    decay_mult: 1
  }
  param {
    lr_mult: 2
    decay_mult: 0
  }
  inner_product_param {
    num_output: 38
    weight_filler {
      type: "xavier"
      std: 0.0009765625
    }
    bias_filler {
      type: "constant"
      value: 0
    }
  }
}
layer {
  name: "inception_4b/1x1"
  type: "Convolution"
  bottom: "inception_4a/output"
  top: "inception_4b/1x1"
  param {
    lr_mult: 1
    decay_mult: 1
  }
  param {
    lr_mult: 2
    decay_mult: 0
  }
  convolution_param {
    num_output: 160
    kernel_size: 1
    weight_filler {
      type: "xavier"
      std: 0.03
    }
    bias_filler {
      type: "constant"
      value: 0.2
    }
  }
}
layer {
  name: "inception_4b/relu_1x1"
  type: "ReLU"
  bottom: "inception_4b/1x1"
  top: "inception_4b/1x1"
}
layer {
  name: "inception_4b/3x3_reduce"
  type: "Convolution"
  bottom: "inception_4a/output"
  top: "inception_4b/3x3_reduce"
  param {
    lr_mult: 1
    decay_mult: 1
  }
  param {
    lr_mult: 2
    decay_mult: 0
  }
  convolution_param {
    num_output: 112
    kernel_size: 1
    weight_filler {
      type: "xavier"
      std: 0.09
    }
    bias_filler {
      type: "constant"
      value: 0.2
    }
  }
}
layer {
  name: "inception_4b/relu_3x3_reduce"
  type: "ReLU"
  bottom: "inception_4b/3x3_reduce"
  top: "inception_4b/3x3_reduce"
}
layer {
  name: "inception_4b/3x3"
  type: "Convolution"
  bottom: "inception_4b/3x3_reduce"
  top: "inception_4b/3x3"
  param {
    lr_mult: 1
    decay_mult: 1
  }
  param {
    lr_mult: 2
    decay_mult: 0
  }
  convolution_param {
    num_output: 224
    pad: 1
    kernel_size: 3
    weight_filler {
      type: "xavier"
      std: 0.03
    }
    bias_filler {
      type: "constant"
      value: 0.2
    }
  }
}
layer {
  name: "inception_4b/relu_3x3"
  type: "ReLU"
  bottom: "inception_4b/3x3"
  top: "inception_4b/3x3"
}
layer {
  name: "inception_4b/5x5_reduce"
  type: "Convolution"
  bottom: "inception_4a/output"
  top: "inception_4b/5x5_reduce"
  param {
    lr_mult: 1
    decay_mult: 1
  }
  param {
    lr_mult: 2
    decay_mult: 0
  }
  convolution_param {
    num_output: 24
    kernel_size: 1
    weight_filler {
      type: "xavier"
      std: 0.2
    }
    bias_filler {
      type: "constant"
      value: 0.2
    }
  }
}
layer {
  name: "inception_4b/relu_5x5_reduce"
  type: "ReLU"
  bottom: "inception_4b/5x5_reduce"
  top: "inception_4b/5x5_reduce"
}
layer {
  name: "inception_4b/5x5"
  type: "Convolution"
  bottom: "inception_4b/5x5_reduce"
  top: "inception_4b/5x5"
  param {
    lr_mult: 1
    decay_mult: 1
  }
  param {
    lr_mult: 2
    decay_mult: 0
  }
  convolution_param {
    num_output: 64
    pad: 2
    kernel_size: 5
    weight_filler {
      type: "xavier"
      std: 0.03
    }
    bias_filler {
      type: "constant"
      value: 0.2
    }
  }
}
layer {
  name: "inception_4b/relu_5x5"
  type: "ReLU"
  bottom: "inception_4b/5x5"
  top: "inception_4b/5x5"
}
layer {
  name: "inception_4b/pool"
  type: "Pooling"
  bottom: "inception_4a/output"
  top: "inception_4b/pool"
  pooling_param {
    pool: MAX
    kernel_size: 3
    stride: 1
    pad: 1
  }
}
layer {
  name: "inception_4b/pool_proj"
  type: "Convolution"
  bottom: "inception_4b/pool"
  top: "inception_4b/pool_proj"
  param {
    lr_mult: 1
    decay_mult: 1
  }
  param {
    lr_mult: 2
    decay_mult: 0
  }
  convolution_param {
    num_output: 64
    kernel_size: 1
    weight_filler {
      type: "xavier"
      std: 0.1
    }
    bias_filler {
      type: "constant"
      value: 0.2
    }
  }
}
layer {
  name: "inception_4b/relu_pool_proj"
  type: "ReLU"
  bottom: "inception_4b/pool_proj"
  top: "inception_4b/pool_proj"
}
layer {
  name: "inception_4b/output"
  type: "Concat"
  bottom: "inception_4b/1x1"
  bottom: "inception_4b/3x3"
  bottom: "inception_4b/5x5"
  bottom: "inception_4b/pool_proj"
  top: "inception_4b/output"
}
layer {
  name: "inception_4c/1x1"
  type: "Convolution"
  bottom: "inception_4b/output"
  top: "inception_4c/1x1"
  param {
    lr_mult: 1
    decay_mult: 1
  }
  param {
    lr_mult: 2
    decay_mult: 0
  }
  convolution_param {
    num_output: 128
    kernel_size: 1
    weight_filler {
      type: "xavier"
      std: 0.03
    }
    bias_filler {
      type: "constant"
      value: 0.2
    }
  }
}
layer {
  name: "inception_4c/relu_1x1"
  type: "ReLU"
  bottom: "inception_4c/1x1"
  top: "inception_4c/1x1"
}
layer {
  name: "inception_4c/3x3_reduce"
  type: "Convolution"
  bottom: "inception_4b/output"
  top: "inception_4c/3x3_reduce"
  param {
    lr_mult: 1
    decay_mult: 1
  }
  param {
    lr_mult: 2
    decay_mult: 0
  }
  convolution_param {
    num_output: 128
    kernel_size: 1
    weight_filler {
      type: "xavier"
      std: 0.09
    }
    bias_filler {
      type: "constant"
      value: 0.2
    }
  }
}
layer {
  name: "inception_4c/relu_3x3_reduce"
  type: "ReLU"
  bottom: "inception_4c/3x3_reduce"
  top: "inception_4c/3x3_reduce"
}
layer {
  name: "inception_4c/3x3"
  type: "Convolution"
  bottom: "inception_4c/3x3_reduce"
  top: "inception_4c/3x3"
  param {
    lr_mult: 1
    decay_mult: 1
  }
  param {
    lr_mult: 2
    decay_mult: 0
  }
  convolution_param {
    num_output: 256
    pad: 1
    kernel_size: 3
    weight_filler {
      type: "xavier"
      std: 0.03
    }
    bias_filler {
      type: "constant"
      value: 0.2
    }
  }
}
layer {
  name: "inception_4c/relu_3x3"
  type: "ReLU"
  bottom: "inception_4c/3x3"
  top: "inception_4c/3x3"
}
layer {
  name: "inception_4c/5x5_reduce"
  type: "Convolution"
  bottom: "inception_4b/output"
  top: "inception_4c/5x5_reduce"
  param {
    lr_mult: 1
    decay_mult: 1
  }
  param {
    lr_mult: 2
    decay_mult: 0
  }
  convolution_param {
    num_output: 24
    kernel_size: 1
    weight_filler {
      type: "xavier"
      std: 0.2
    }
    bias_filler {
      type: "constant"
      value: 0.2
    }
  }
}
layer {
  name: "inception_4c/relu_5x5_reduce"
  type: "ReLU"
  bottom: "inception_4c/5x5_reduce"
  top: "inception_4c/5x5_reduce"
}
layer {
  name: "inception_4c/5x5"
  type: "Convolution"
  bottom: "inception_4c/5x5_reduce"
  top: "inception_4c/5x5"
  param {
    lr_mult: 1
    decay_mult: 1
  }
  param {
    lr_mult: 2
    decay_mult: 0
  }
  convolution_param {
    num_output: 64
    pad: 2
    kernel_size: 5
    weight_filler {
      type: "xavier"
      std: 0.03
    }
    bias_filler {
      type: "constant"
      value: 0.2
    }
  }
}
layer {
  name: "inception_4c/relu_5x5"
  type: "ReLU"
  bottom: "inception_4c/5x5"
  top: "inception_4c/5x5"
}
layer {
  name: "inception_4c/pool"
  type: "Pooling"
  bottom: "inception_4b/output"
  top: "inception_4c/pool"
  pooling_param {
    pool: MAX
    kernel_size: 3
    stride: 1
    pad: 1
  }
}
layer {
  name: "inception_4c/pool_proj"
  type: "Convolution"
  bottom: "inception_4c/pool"
  top: "inception_4c/pool_proj"
  param {
    lr_mult: 1
    decay_mult: 1
  }
  param {
    lr_mult: 2
    decay_mult: 0
  }
  convolution_param {
    num_output: 64
    kernel_size: 1
    weight_filler {
      type: "xavier"
      std: 0.1
    }
    bias_filler {
      type: "constant"
      value: 0.2
    }
  }
}
layer {
  name: "inception_4c/relu_pool_proj"
  type: "ReLU"
  bottom: "inception_4c/pool_proj"
  top: "inception_4c/pool_proj"
}
layer {
  name: "inception_4c/output"
  type: "Concat"
  bottom: "inception_4c/1x1"
  bottom: "inception_4c/3x3"
  bottom: "inception_4c/5x5"
  bottom: "inception_4c/pool_proj"
  top: "inception_4c/output"
}
layer {
  name: "inception_4d/1x1"
  type: "Convolution"
  bottom: "inception_4c/output"
  top: "inception_4d/1x1"
  param {
    lr_mult: 1
    decay_mult: 1
  }
  param {
    lr_mult: 2
    decay_mult: 0
  }
  convolution_param {
    num_output: 112
    kernel_size: 1
    weight_filler {
      type: "xavier"
      std: 0.03
    }
    bias_filler {
      type: "constant"
      value: 0.2
    }
  }
}
layer {
  name: "inception_4d/relu_1x1"
  type: "ReLU"
  bottom: "inception_4d/1x1"
  top: "inception_4d/1x1"
}
layer {
  name: "inception_4d/3x3_reduce"
  type: "Convolution"
  bottom: "inception_4c/output"
  top: "inception_4d/3x3_reduce"
  param {
    lr_mult: 1
    decay_mult: 1
  }
  param {
    lr_mult: 2
    decay_mult: 0
  }
  convolution_param {
    num_output: 144
    kernel_size: 1
    weight_filler {
      type: "xavier"
      std: 0.09
    }
    bias_filler {
      type: "constant"
      value: 0.2
    }
  }
}
layer {
  name: "inception_4d/relu_3x3_reduce"
  type: "ReLU"
  bottom: "inception_4d/3x3_reduce"
  top: "inception_4d/3x3_reduce"
}
layer {
  name: "inception_4d/3x3"
  type: "Convolution"
  bottom: "inception_4d/3x3_reduce"
  top: "inception_4d/3x3"
  param {
    lr_mult: 1
    decay_mult: 1
  }
  param {
    lr_mult: 2
    decay_mult: 0
  }
  convolution_param {
    num_output: 288
    pad: 1
    kernel_size: 3
    weight_filler {
      type: "xavier"
      std: 0.03
    }
    bias_filler {
      type: "constant"
      value: 0.2
    }
  }
}
layer {
  name: "inception_4d/relu_3x3"
  type: "ReLU"
  bottom: "inception_4d/3x3"
  top: "inception_4d/3x3"
}
layer {
  name: "inception_4d/5x5_reduce"
  type: "Convolution"
  bottom: "inception_4c/output"
  top: "inception_4d/5x5_reduce"
  param {
    lr_mult: 1
    decay_mult: 1
  }
  param {
    lr_mult: 2
    decay_mult: 0
  }
  convolution_param {
    num_output: 32
    kernel_size: 1
    weight_filler {
      type: "xavier"
      std: 0.2
    }
    bias_filler {
      type: "constant"
      value: 0.2
    }
  }
}
layer {
  name: "inception_4d/relu_5x5_reduce"
  type: "ReLU"
  bottom: "inception_4d/5x5_reduce"
  top: "inception_4d/5x5_reduce"
}
layer {
  name: "inception_4d/5x5"
  type: "Convolution"
  bottom: "inception_4d/5x5_reduce"
  top: "inception_4d/5x5"
  param {
    lr_mult: 1
    decay_mult: 1
  }
  param {
    lr_mult: 2
    decay_mult: 0
  }
  convolution_param {
    num_output: 64
    pad: 2
    kernel_size: 5
    weight_filler {
      type: "xavier"
      std: 0.03
    }
    bias_filler {
      type: "constant"
      value: 0.2
    }
  }
}
layer {
  name: "inception_4d/relu_5x5"
  type: "ReLU"
  bottom: "inception_4d/5x5"
  top: "inception_4d/5x5"
}
layer {
  name: "inception_4d/pool"
  type: "Pooling"
  bottom: "inception_4c/output"
  top: "inception_4d/pool"
  pooling_param {
    pool: MAX
    kernel_size: 3
    stride: 1
    pad: 1
  }
}
layer {
  name: "inception_4d/pool_proj"
  type: "Convolution"
  bottom: "inception_4d/pool"
  top: "inception_4d/pool_proj"
  param {
    lr_mult: 1
    decay_mult: 1
  }
  param {
    lr_mult: 2
    decay_mult: 0
  }
  convolution_param {
    num_output: 64
    kernel_size: 1
    weight_filler {
      type: "xavier"
      std: 0.1
    }
    bias_filler {
      type: "constant"
      value: 0.2
    }
  }
}
layer {
  name: "inception_4d/relu_pool_proj"
  type: "ReLU"
  bottom: "inception_4d/pool_proj"
  top: "inception_4d/pool_proj"
}
layer {
  name: "inception_4d/output"
  type: "Concat"
  bottom: "inception_4d/1x1"
  bottom: "inception_4d/3x3"
  bottom: "inception_4d/5x5"
  bottom: "inception_4d/pool_proj"
  top: "inception_4d/output"
}
layer {
  name: "loss2/ave_pool"
  type: "Pooling"
  bottom: "inception_4d/output"
  top: "loss2/ave_pool"
  pooling_param {
    pool: AVE
    kernel_size: 5
    stride: 3
  }
}
layer {
  name: "loss2/conv"
  type: "Convolution"
  bottom: "loss2/ave_pool"
  top: "loss2/conv"
  param {
    lr_mult: 1
    decay_mult: 1
  }
  param {
    lr_mult: 2
    decay_mult: 0
  }
  convolution_param {
    num_output: 128
    kernel_size: 1
    weight_filler {
      type: "xavier"
      std: 0.08
    }
    bias_filler {
      type: "constant"
      value: 0.2
    }
  }
}
layer {
  name: "loss2/relu_conv"
  type: "ReLU"
  bottom: "loss2/conv"
  top: "loss2/conv"
}
layer {
  name: "loss2/fc"
  type: "InnerProduct"
  bottom: "loss2/conv"
  top: "loss2/fc"
  param {
    lr_mult: 1
    decay_mult: 1
  }
  param {
    lr_mult: 2
    decay_mult: 0
  }
  inner_product_param {
    num_output: 1024
    weight_filler {
      type: "xavier"
      std: 0.02
    }
    bias_filler {
      type: "constant"
      value: 0.2
    }
  }
}
layer {
  name: "loss2/relu_fc"
  type: "ReLU"
  bottom: "loss2/fc"
  top: "loss2/fc"
}
layer {
  name: "loss2/drop_fc"
  type: "Dropout"
  bottom: "loss2/fc"
  top: "loss2/fc"
  dropout_param {
    dropout_ratio: 0.7
  }
}
layer {
  name: "loss2/classifier_plantvillage"
  type: "InnerProduct"
  bottom: "loss2/fc"
  top: "loss2/classifier_plantvillage"
  param {
    lr_mult: 1
    decay_mult: 1
  }
  param {
    lr_mult: 2
    decay_mult: 0
  }
  inner_product_param {
    num_output: 38
    weight_filler {
      type: "xavier"
      std: 0.0009765625
    }
    bias_filler {
      type: "constant"
      value: 0
    }
  }
}
layer {
  name: "inception_4e/1x1"
  type: "Convolution"
  bottom: "inception_4d/output"
  top: "inception_4e/1x1"
  param {
    lr_mult: 1
    decay_mult: 1
  }
  param {
    lr_mult: 2
    decay_mult: 0
  }
  convolution_param {
    num_output: 256
    kernel_size: 1
    weight_filler {
      type: "xavier"
      std: 0.03
    }
    bias_filler {
      type: "constant"
      value: 0.2
    }
  }
}
layer {
  name: "inception_4e/relu_1x1"
  type: "ReLU"
  bottom: "inception_4e/1x1"
  top: "inception_4e/1x1"
}
layer {
  name: "inception_4e/3x3_reduce"
  type: "Convolution"
  bottom: "inception_4d/output"
  top: "inception_4e/3x3_reduce"
  param {
    lr_mult: 1
    decay_mult: 1
  }
  param {
    lr_mult: 2
    decay_mult: 0
  }
  convolution_param {
    num_output: 160
    kernel_size: 1
    weight_filler {
      type: "xavier"
      std: 0.09
    }
    bias_filler {
      type: "constant"
      value: 0.2
    }
  }
}
layer {
  name: "inception_4e/relu_3x3_reduce"
  type: "ReLU"
  bottom: "inception_4e/3x3_reduce"
  top: "inception_4e/3x3_reduce"
}
layer {
  name: "inception_4e/3x3"
  type: "Convolution"
  bottom: "inception_4e/3x3_reduce"
  top: "inception_4e/3x3"
  param {
    lr_mult: 1
    decay_mult: 1
  }
  param {
    lr_mult: 2
    decay_mult: 0
  }
  convolution_param {
    num_output: 320
    pad: 1
    kernel_size: 3
    weight_filler {
      type: "xavier"
      std: 0.03
    }
    bias_filler {
      type: "constant"
      value: 0.2
    }
  }
}
layer {
  name: "inception_4e/relu_3x3"
  type: "ReLU"
  bottom: "inception_4e/3x3"
  top: "inception_4e/3x3"
}
layer {
  name: "inception_4e/5x5_reduce"
  type: "Convolution"
  bottom: "inception_4d/output"
  top: "inception_4e/5x5_reduce"
  param {
    lr_mult: 1
    decay_mult: 1
  }
  param {
    lr_mult: 2
    decay_mult: 0
  }
  convolution_param {
    num_output: 32
    kernel_size: 1
    weight_filler {
      type: "xavier"
      std: 0.2
    }
    bias_filler {
      type: "constant"
      value: 0.2
    }
  }
}
layer {
  name: "inception_4e/relu_5x5_reduce"
  type: "ReLU"
  bottom: "inception_4e/5x5_reduce"
  top: "inception_4e/5x5_reduce"
}
layer {
  name: "inception_4e/5x5"
  type: "Convolution"
  bottom: "inception_4e/5x5_reduce"
  top: "inception_4e/
I0403 15:38:46.307112 20112 layer_factory.hpp:77] Creating layer data
I0403 15:38:46.307687 20112 net.cpp:91] Creating Layer data
I0403 15:38:46.307716 20112 net.cpp:399] data -> data
I0403 15:38:46.307765 20112 net.cpp:399] data -> label
I0403 15:38:46.307801 20112 data_transformer.cpp:25] Loading mean file from: /home/mohanty/data/final_dataset/lmdb/grayscale-40-60/mean.binaryproto
I0403 15:38:46.310601 20115 db_lmdb.cpp:38] Opened lmdb /home/mohanty/data/final_dataset/lmdb/grayscale-40-60/test_db
I0403 15:38:46.321274 20112 data_layer.cpp:41] output data size: 24,3,224,224
I0403 15:38:46.351663 20112 net.cpp:141] Setting up data
I0403 15:38:46.351721 20112 net.cpp:148] Top shape: 24 3 224 224 (3612672)
I0403 15:38:46.351742 20112 net.cpp:148] Top shape: 24 (24)
I0403 15:38:46.351757 20112 net.cpp:156] Memory required for data: 14450784
I0403 15:38:46.351784 20112 layer_factory.hpp:77] Creating layer label_data_1_split
I0403 15:38:46.351810 20112 net.cpp:91] Creating Layer label_data_1_split
I0403 15:38:46.351827 20112 net.cpp:425] label_data_1_split <- label
I0403 15:38:46.351860 20112 net.cpp:399] label_data_1_split -> label_data_1_split_0
I0403 15:38:46.351886 20112 net.cpp:399] label_data_1_split -> label_data_1_split_1
I0403 15:38:46.351907 20112 net.cpp:399] label_data_1_split -> label_data_1_split_2
I0403 15:38:46.351925 20112 net.cpp:399] label_data_1_split -> label_data_1_split_3
I0403 15:38:46.351944 20112 net.cpp:399] label_data_1_split -> label_data_1_split_4
I0403 15:38:46.351969 20112 net.cpp:399] label_data_1_split -> label_data_1_split_5
I0403 15:38:46.351989 20112 net.cpp:399] label_data_1_split -> label_data_1_split_6
I0403 15:38:46.352008 20112 net.cpp:399] label_data_1_split -> label_data_1_split_7
I0403 15:38:46.352027 20112 net.cpp:399] label_data_1_split -> label_data_1_split_8
I0403 15:38:46.352046 20112 net.cpp:399] label_data_1_split -> label_data_1_split_9
I0403 15:38:46.352171 20112 net.cpp:141] Setting up label_data_1_split
I0403 15:38:46.352195 20112 net.cpp:148] Top shape: 24 (24)
I0403 15:38:46.352210 20112 net.cpp:148] Top shape: 24 (24)
I0403 15:38:46.352226 20112 net.cpp:148] Top shape: 24 (24)
I0403 15:38:46.352241 20112 net.cpp:148] Top shape: 24 (24)
I0403 15:38:46.352255 20112 net.cpp:148] Top shape: 24 (24)
I0403 15:38:46.352270 20112 net.cpp:148] Top shape: 24 (24)
I0403 15:38:46.352285 20112 net.cpp:148] Top shape: 24 (24)
I0403 15:38:46.352299 20112 net.cpp:148] Top shape: 24 (24)
I0403 15:38:46.352314 20112 net.cpp:148] Top shape: 24 (24)
I0403 15:38:46.352330 20112 net.cpp:148] Top shape: 24 (24)
I0403 15:38:46.352360 20112 net.cpp:156] Memory required for data: 14451744
I0403 15:38:46.352375 20112 layer_factory.hpp:77] Creating layer conv1/7x7_s2
I0403 15:38:46.352406 20112 net.cpp:91] Creating Layer conv1/7x7_s2
I0403 15:38:46.352423 20112 net.cpp:425] conv1/7x7_s2 <- data
I0403 15:38:46.352442 20112 net.cpp:399] conv1/7x7_s2 -> conv1/7x7_s2
I0403 15:38:46.495091 20112 net.cpp:141] Setting up conv1/7x7_s2
I0403 15:38:46.495177 20112 net.cpp:148] Top shape: 24 64 112 112 (19267584)
I0403 15:38:46.495194 20112 net.cpp:156] Memory required for data: 91522080
I0403 15:38:46.495228 20112 layer_factory.hpp:77] Creating layer conv1/relu_7x7
I0403 15:38:46.495255 20112 net.cpp:91] Creating Layer conv1/relu_7x7
I0403 15:38:46.495275 20112 net.cpp:425] conv1/relu_7x7 <- conv1/7x7_s2
I0403 15:38:46.495296 20112 net.cpp:386] conv1/relu_7x7 -> conv1/7x7_s2 (in-place)
I0403 15:38:46.495569 20112 net.cpp:141] Setting up conv1/relu_7x7
I0403 15:38:46.495599 20112 net.cpp:148] Top shape: 24 64 112 112 (19267584)
I0403 15:38:46.495615 20112 net.cpp:156] Memory required for data: 168592416
I0403 15:38:46.495630 20112 layer_factory.hpp:77] Creating layer pool1/3x3_s2
I0403 15:38:46.495653 20112 net.cpp:91] Creating Layer pool1/3x3_s2
I0403 15:38:46.495671 20112 net.cpp:425] pool1/3x3_s2 <- conv1/7x7_s2
I0403 15:38:46.495697 20112 net.cpp:399] pool1/3x3_s2 -> pool1/3x3_s2
I0403 15:38:46.495774 20112 net.cpp:141] Setting up pool1/3x3_s2
I0403 15:38:46.495800 20112 net.cpp:148] Top shape: 24 64 56 56 (4816896)
I0403 15:38:46.495815 20112 net.cpp:156] Memory required for data: 187860000
I0403 15:38:46.495829 20112 layer_factory.hpp:77] Creating layer pool1/norm1
I0403 15:38:46.495854 20112 net.cpp:91] Creating Layer pool1/norm1
I0403 15:38:46.495872 20112 net.cpp:425] pool1/norm1 <- pool1/3x3_s2
I0403 15:38:46.495892 20112 net.cpp:399] pool1/norm1 -> pool1/norm1
I0403 15:38:46.496224 20112 net.cpp:141] Setting up pool1/norm1
I0403 15:38:46.496253 20112 net.cpp:148] Top shape: 24 64 56 56 (4816896)
I0403 15:38:46.496268 20112 net.cpp:156] Memory required for data: 207127584
I0403 15:38:46.496294 20112 layer_factory.hpp:77] Creating layer conv2/3x3_reduce
I0403 15:38:46.496321 20112 net.cpp:91] Creating Layer conv2/3x3_reduce
I0403 15:38:46.496340 20112 net.cpp:425] conv2/3x3_reduce <- pool1/norm1
I0403 15:38:46.496359 20112 net.cpp:399] conv2/3x3_reduce -> conv2/3x3_reduce
I0403 15:38:46.497786 20112 net.cpp:141] Setting up conv2/3x3_reduce
I0403 15:38:46.497817 20112 net.cpp:148] Top shape: 24 64 56 56 (4816896)
I0403 15:38:46.497833 20112 net.cpp:156] Memory required for data: 226395168
I0403 15:38:46.497854 20112 layer_factory.hpp:77] Creating layer conv2/relu_3x3_reduce
I0403 15:38:46.497874 20112 net.cpp:91] Creating Layer conv2/relu_3x3_reduce
I0403 15:38:46.497890 20112 net.cpp:425] conv2/relu_3x3_reduce <- conv2/3x3_reduce
I0403 15:38:46.497908 20112 net.cpp:386] conv2/relu_3x3_reduce -> conv2/3x3_reduce (in-place)
I0403 15:38:46.498234 20112 net.cpp:141] Setting up conv2/relu_3x3_reduce
I0403 15:38:46.498262 20112 net.cpp:148] Top shape: 24 64 56 56 (4816896)
I0403 15:38:46.498276 20112 net.cpp:156] Memory required for data: 245662752
I0403 15:38:46.498291 20112 layer_factory.hpp:77] Creating layer conv2/3x3
I0403 15:38:46.498317 20112 net.cpp:91] Creating Layer conv2/3x3
I0403 15:38:46.498335 20112 net.cpp:425] conv2/3x3 <- conv2/3x3_reduce
I0403 15:38:46.498354 20112 net.cpp:399] conv2/3x3 -> conv2/3x3
I0403 15:38:46.500815 20112 net.cpp:141] Setting up conv2/3x3
I0403 15:38:46.500846 20112 net.cpp:148] Top shape: 24 192 56 56 (14450688)
I0403 15:38:46.500864 20112 net.cpp:156] Memory required for data: 303465504
I0403 15:38:46.500885 20112 layer_factory.hpp:77] Creating layer conv2/relu_3x3
I0403 15:38:46.500907 20112 net.cpp:91] Creating Layer conv2/relu_3x3
I0403 15:38:46.500924 20112 net.cpp:425] conv2/relu_3x3 <- conv2/3x3
I0403 15:38:46.500942 20112 net.cpp:386] conv2/relu_3x3 -> conv2/3x3 (in-place)
I0403 15:38:46.501133 20112 net.cpp:141] Setting up conv2/relu_3x3
I0403 15:38:46.501159 20112 net.cpp:148] Top shape: 24 192 56 56 (14450688)
I0403 15:38:46.501205 20112 net.cpp:156] Memory required for data: 361268256
I0403 15:38:46.501222 20112 layer_factory.hpp:77] Creating layer conv2/norm2
I0403 15:38:46.501240 20112 net.cpp:91] Creating Layer conv2/norm2
I0403 15:38:46.501257 20112 net.cpp:425] conv2/norm2 <- conv2/3x3
I0403 15:38:46.501278 20112 net.cpp:399] conv2/norm2 -> conv2/norm2
I0403 15:38:46.501595 20112 net.cpp:141] Setting up conv2/norm2
I0403 15:38:46.501660 20112 net.cpp:148] Top shape: 24 192 56 56 (14450688)
I0403 15:38:46.501680 20112 net.cpp:156] Memory required for data: 419071008
I0403 15:38:46.501695 20112 layer_factory.hpp:77] Creating layer pool2/3x3_s2
I0403 15:38:46.501714 20112 net.cpp:91] Creating Layer pool2/3x3_s2
I0403 15:38:46.501729 20112 net.cpp:425] pool2/3x3_s2 <- conv2/norm2
I0403 15:38:46.501750 20112 net.cpp:399] pool2/3x3_s2 -> pool2/3x3_s2
I0403 15:38:46.501806 20112 net.cpp:141] Setting up pool2/3x3_s2
I0403 15:38:46.501830 20112 net.cpp:148] Top shape: 24 192 28 28 (3612672)
I0403 15:38:46.501845 20112 net.cpp:156] Memory required for data: 433521696
I0403 15:38:46.501859 20112 layer_factory.hpp:77] Creating layer pool2/3x3_s2_pool2/3x3_s2_0_split
I0403 15:38:46.501880 20112 net.cpp:91] Creating Layer pool2/3x3_s2_pool2/3x3_s2_0_split
I0403 15:38:46.501896 20112 net.cpp:425] pool2/3x3_s2_pool2/3x3_s2_0_split <- pool2/3x3_s2
I0403 15:38:46.501917 20112 net.cpp:399] pool2/3x3_s2_pool2/3x3_s2_0_split -> pool2/3x3_s2_pool2/3x3_s2_0_split_0
I0403 15:38:46.501937 20112 net.cpp:399] pool2/3x3_s2_pool2/3x3_s2_0_split -> pool2/3x3_s2_pool2/3x3_s2_0_split_1
I0403 15:38:46.501961 20112 net.cpp:399] pool2/3x3_s2_pool2/3x3_s2_0_split -> pool2/3x3_s2_pool2/3x3_s2_0_split_2
I0403 15:38:46.501982 20112 net.cpp:399] pool2/3x3_s2_pool2/3x3_s2_0_split -> pool2/3x3_s2_pool2/3x3_s2_0_split_3
I0403 15:38:46.502056 20112 net.cpp:141] Setting up pool2/3x3_s2_pool2/3x3_s2_0_split
I0403 15:38:46.502082 20112 net.cpp:148] Top shape: 24 192 28 28 (3612672)
I0403 15:38:46.502100 20112 net.cpp:148] Top shape: 24 192 28 28 (3612672)
I0403 15:38:46.502116 20112 net.cpp:148] Top shape: 24 192 28 28 (3612672)
I0403 15:38:46.502132 20112 net.cpp:148] Top shape: 24 192 28 28 (3612672)
I0403 15:38:46.502146 20112 net.cpp:156] Memory required for data: 491324448
I0403 15:38:46.502161 20112 layer_factory.hpp:77] Creating layer inception_3a/1x1
I0403 15:38:46.502183 20112 net.cpp:91] Creating Layer inception_3a/1x1
I0403 15:38:46.502202 20112 net.cpp:425] inception_3a/1x1 <- pool2/3x3_s2_pool2/3x3_s2_0_split_0
I0403 15:38:46.502221 20112 net.cpp:399] inception_3a/1x1 -> inception_3a/1x1
I0403 15:38:46.503826 20112 net.cpp:141] Setting up inception_3a/1x1
I0403 15:38:46.503856 20112 net.cpp:148] Top shape: 24 64 28 28 (1204224)
I0403 15:38:46.503873 20112 net.cpp:156] Memory required for data: 496141344
I0403 15:38:46.503893 20112 layer_factory.hpp:77] Creating layer inception_3a/relu_1x1
I0403 15:38:46.503917 20112 net.cpp:91] Creating Layer inception_3a/relu_1x1
I0403 15:38:46.503936 20112 net.cpp:425] inception_3a/relu_1x1 <- inception_3a/1x1
I0403 15:38:46.503953 20112 net.cpp:386] inception_3a/relu_1x1 -> inception_3a/1x1 (in-place)
I0403 15:38:46.504140 20112 net.cpp:141] Setting up inception_3a/relu_1x1
I0403 15:38:46.504168 20112 net.cpp:148] Top shape: 24 64 28 28 (1204224)
I0403 15:38:46.504184 20112 net.cpp:156] Memory required for data: 500958240
I0403 15:38:46.504199 20112 layer_factory.hpp:77] Creating layer inception_3a/3x3_reduce
I0403 15:38:46.504225 20112 net.cpp:91] Creating Layer inception_3a/3x3_reduce
I0403 15:38:46.504242 20112 net.cpp:425] inception_3a/3x3_reduce <- pool2/3x3_s2_pool2/3x3_s2_0_split_1
I0403 15:38:46.504261 20112 net.cpp:399] inception_3a/3x3_reduce -> inception_3a/3x3_reduce
I0403 15:38:46.506059 20112 net.cpp:141] Setting up inception_3a/3x3_reduce
I0403 15:38:46.506089 20112 net.cpp:148] Top shape: 24 96 28 28 (1806336)
I0403 15:38:46.506106 20112 net.cpp:156] Memory required for data: 508183584
I0403 15:38:46.506129 20112 layer_factory.hpp:77] Creating layer inception_3a/relu_3x3_reduce
I0403 15:38:46.506168 20112 net.cpp:91] Creating Layer inception_3a/relu_3x3_reduce
I0403 15:38:46.506187 20112 net.cpp:425] inception_3a/relu_3x3_reduce <- inception_3a/3x3_reduce
I0403 15:38:46.506211 20112 net.cpp:386] inception_3a/relu_3x3_reduce -> inception_3a/3x3_reduce (in-place)
I0403 15:38:46.506399 20112 net.cpp:141] Setting up inception_3a/relu_3x3_reduce
I0403 15:38:46.506425 20112 net.cpp:148] Top shape: 24 96 28 28 (1806336)
I0403 15:38:46.506440 20112 net.cpp:156] Memory required for data: 515408928
I0403 15:38:46.506454 20112 layer_factory.hpp:77] Creating layer inception_3a/3x3
I0403 15:38:46.506477 20112 net.cpp:91] Creating Layer inception_3a/3x3
I0403 15:38:46.506495 20112 net.cpp:425] inception_3a/3x3 <- inception_3a/3x3_reduce
I0403 15:38:46.506517 20112 net.cpp:399] inception_3a/3x3 -> inception_3a/3x3
I0403 15:38:46.508240 20112 net.cpp:141] Setting up inception_3a/3x3
I0403 15:38:46.508273 20112 net.cpp:148] Top shape: 24 128 28 28 (2408448)
I0403 15:38:46.508290 20112 net.cpp:156] Memory required for data: 525042720
I0403 15:38:46.508308 20112 layer_factory.hpp:77] Creating layer inception_3a/relu_3x3
I0403 15:38:46.508327 20112 net.cpp:91] Creating Layer inception_3a/relu_3x3
I0403 15:38:46.508342 20112 net.cpp:425] inception_3a/relu_3x3 <- inception_3a/3x3
I0403 15:38:46.508359 20112 net.cpp:386] inception_3a/relu_3x3 -> inception_3a/3x3 (in-place)
I0403 15:38:46.508641 20112 net.cpp:141] Setting up inception_3a/relu_3x3
I0403 15:38:46.508671 20112 net.cpp:148] Top shape: 24 128 28 28 (2408448)
I0403 15:38:46.508687 20112 net.cpp:156] Memory required for data: 534676512
I0403 15:38:46.508702 20112 layer_factory.hpp:77] Creating layer inception_3a/5x5_reduce
I0403 15:38:46.508723 20112 net.cpp:91] Creating Layer inception_3a/5x5_reduce
I0403 15:38:46.508739 20112 net.cpp:425] inception_3a/5x5_reduce <- pool2/3x3_s2_pool2/3x3_s2_0_split_2
I0403 15:38:46.508761 20112 net.cpp:399] inception_3a/5x5_reduce -> inception_3a/5x5_reduce
I0403 15:38:46.509762 20112 net.cpp:141] Setting up inception_3a/5x5_reduce
I0403 15:38:46.509793 20112 net.cpp:148] Top shape: 24 16 28 28 (301056)
I0403 15:38:46.509810 20112 net.cpp:156] Memory required for data: 535880736
I0403 15:38:46.509829 20112 layer_factory.hpp:77] Creating layer inception_3a/relu_5x5_reduce
I0403 15:38:46.509847 20112 net.cpp:91] Creating Layer inception_3a/relu_5x5_reduce
I0403 15:38:46.509865 20112 net.cpp:425] inception_3a/relu_5x5_reduce <- inception_3a/5x5_reduce
I0403 15:38:46.509881 20112 net.cpp:386] inception_3a/relu_5x5_reduce -> inception_3a/5x5_reduce (in-place)
I0403 15:38:46.510195 20112 net.cpp:141] Setting up inception_3a/relu_5x5_reduce
I0403 15:38:46.510222 20112 net.cpp:148] Top shape: 24 16 28 28 (301056)
I0403 15:38:46.510237 20112 net.cpp:156] Memory required for data: 537084960
I0403 15:38:46.510253 20112 layer_factory.hpp:77] Creating layer inception_3a/5x5
I0403 15:38:46.510277 20112 net.cpp:91] Creating Layer inception_3a/5x5
I0403 15:38:46.510293 20112 net.cpp:425] inception_3a/5x5 <- inception_3a/5x5_reduce
I0403 15:38:46.510315 20112 net.cpp:399] inception_3a/5x5 -> inception_3a/5x5
I0403 15:38:46.511359 20112 net.cpp:141] Setting up inception_3a/5x5
I0403 15:38:46.511389 20112 net.cpp:148] Top shape: 24 32 28 28 (602112)
I0403 15:38:46.511404 20112 net.cpp:156] Memory required for data: 539493408
I0403 15:38:46.511423 20112 layer_factory.hpp:77] Creating layer inception_3a/relu_5x5
I0403 15:38:46.511443 20112 net.cpp:91] Creating Layer inception_3a/relu_5x5
I0403 15:38:46.511461 20112 net.cpp:425] inception_3a/relu_5x5 <- inception_3a/5x5
I0403 15:38:46.511477 20112 net.cpp:386] inception_3a/relu_5x5 -> inception_3a/5x5 (in-place)
I0403 15:38:46.511656 20112 net.cpp:141] Setting up inception_3a/relu_5x5
I0403 15:38:46.511683 20112 net.cpp:148] Top shape: 24 32 28 28 (602112)
I0403 15:38:46.511698 20112 net.cpp:156] Memory required for data: 541901856
I0403 15:38:46.511713 20112 layer_factory.hpp:77] Creating layer inception_3a/pool
I0403 15:38:46.511732 20112 net.cpp:91] Creating Layer inception_3a/pool
I0403 15:38:46.511762 20112 net.cpp:425] inception_3a/pool <- pool2/3x3_s2_pool2/3x3_s2_0_split_3
I0403 15:38:46.511785 20112 net.cpp:399] inception_3a/pool -> inception_3a/pool
I0403 15:38:46.511843 20112 net.cpp:141] Setting up inception_3a/pool
I0403 15:38:46.511868 20112 net.cpp:148] Top shape: 24 192 28 28 (3612672)
I0403 15:38:46.511883 20112 net.cpp:156] Memory required for data: 556352544
I0403 15:38:46.511898 20112 layer_factory.hpp:77] Creating layer inception_3a/pool_proj
I0403 15:38:46.511920 20112 net.cpp:91] Creating Layer inception_3a/pool_proj
I0403 15:38:46.511939 20112 net.cpp:425] inception_3a/pool_proj <- inception_3a/pool
I0403 15:38:46.511965 20112 net.cpp:399] inception_3a/pool_proj -> inception_3a/pool_proj
I0403 15:38:46.512971 20112 net.cpp:141] Setting up inception_3a/pool_proj
I0403 15:38:46.513000 20112 net.cpp:148] Top shape: 24 32 28 28 (602112)
I0403 15:38:46.513017 20112 net.cpp:156] Memory required for data: 558760992
I0403 15:38:46.513041 20112 layer_factory.hpp:77] Creating layer inception_3a/relu_pool_proj
I0403 15:38:46.513062 20112 net.cpp:91] Creating Layer inception_3a/relu_pool_proj
I0403 15:38:46.513078 20112 net.cpp:425] inception_3a/relu_pool_proj <- inception_3a/pool_proj
I0403 15:38:46.513095 20112 net.cpp:386] inception_3a/relu_pool_proj -> inception_3a/pool_proj (in-place)
I0403 15:38:46.513383 20112 net.cpp:141] Setting up inception_3a/relu_pool_proj
I0403 15:38:46.513413 20112 net.cpp:148] Top shape: 24 32 28 28 (602112)
I0403 15:38:46.513429 20112 net.cpp:156] Memory required for data: 561169440
I0403 15:38:46.513444 20112 layer_factory.hpp:77] Creating layer inception_3a/output
I0403 15:38:46.513461 20112 net.cpp:91] Creating Layer inception_3a/output
I0403 15:38:46.513478 20112 net.cpp:425] inception_3a/output <- inception_3a/1x1
I0403 15:38:46.513494 20112 net.cpp:425] inception_3a/output <- inception_3a/3x3
I0403 15:38:46.513510 20112 net.cpp:425] inception_3a/output <- inception_3a/5x5
I0403 15:38:46.513526 20112 net.cpp:425] inception_3a/output <- inception_3a/pool_proj
I0403 15:38:46.513543 20112 net.cpp:399] inception_3a/output -> inception_3a/output
I0403 15:38:46.513593 20112 net.cpp:141] Setting up inception_3a/output
I0403 15:38:46.513617 20112 net.cpp:148] Top shape: 24 256 28 28 (4816896)
I0403 15:38:46.513630 20112 net.cpp:156] Memory required for data: 580437024
I0403 15:38:46.513645 20112 layer_factory.hpp:77] Creating layer inception_3a/output_inception_3a/output_0_split
I0403 15:38:46.513662 20112 net.cpp:91] Creating Layer inception_3a/output_inception_3a/output_0_split
I0403 15:38:46.513679 20112 net.cpp:425] inception_3a/output_inception_3a/output_0_split <- inception_3a/output
I0403 15:38:46.513698 20112 net.cpp:399] inception_3a/output_inception_3a/output_0_split -> inception_3a/output_inception_3a/output_0_split_0
I0403 15:38:46.513718 20112 net.cpp:399] inception_3a/output_inception_3a/output_0_split -> inception_3a/output_inception_3a/output_0_split_1
I0403 15:38:46.513744 20112 net.cpp:399] inception_3a/output_inception_3a/output_0_split -> inception_3a/output_inception_3a/output_0_split_2
I0403 15:38:46.513767 20112 net.cpp:399] inception_3a/output_inception_3a/output_0_split -> inception_3a/output_inception_3a/output_0_split_3
I0403 15:38:46.513842 20112 net.cpp:141] Setting up inception_3a/output_inception_3a/output_0_split
I0403 15:38:46.513866 20112 net.cpp:148] Top shape: 24 256 28 28 (4816896)
I0403 15:38:46.513883 20112 net.cpp:148] Top shape: 24 256 28 28 (4816896)
I0403 15:38:46.513900 20112 net.cpp:148] Top shape: 24 256 28 28 (4816896)
I0403 15:38:46.513914 20112 net.cpp:148] Top shape: 24 256 28 28 (4816896)
I0403 15:38:46.513928 20112 net.cpp:156] Memory required for data: 657507360
I0403 15:38:46.513943 20112 layer_factory.hpp:77] Creating layer inception_3b/1x1
I0403 15:38:46.513970 20112 net.cpp:91] Creating Layer inception_3b/1x1
I0403 15:38:46.513989 20112 net.cpp:425] inception_3b/1x1 <- inception_3a/output_inception_3a/output_0_split_0
I0403 15:38:46.514011 20112 net.cpp:399] inception_3b/1x1 -> inception_3b/1x1
I0403 15:38:46.515198 20112 net.cpp:141] Setting up inception_3b/1x1
I0403 15:38:46.515247 20112 net.cpp:148] Top shape: 24 128 28 28 (2408448)
I0403 15:38:46.515264 20112 net.cpp:156] Memory required for data: 667141152
I0403 15:38:46.515282 20112 layer_factory.hpp:77] Creating layer inception_3b/relu_1x1
I0403 15:38:46.515303 20112 net.cpp:91] Creating Layer inception_3b/relu_1x1
I0403 15:38:46.515321 20112 net.cpp:425] inception_3b/relu_1x1 <- inception_3b/1x1
I0403 15:38:46.515338 20112 net.cpp:386] inception_3b/relu_1x1 -> inception_3b/1x1 (in-place)
I0403 15:38:46.515518 20112 net.cpp:141] Setting up inception_3b/relu_1x1
I0403 15:38:46.515547 20112 net.cpp:148] Top shape: 24 128 28 28 (2408448)
I0403 15:38:46.515563 20112 net.cpp:156] Memory required for data: 676774944
I0403 15:38:46.515578 20112 layer_factory.hpp:77] Creating layer inception_3b/3x3_reduce
I0403 15:38:46.515600 20112 net.cpp:91] Creating Layer inception_3b/3x3_reduce
I0403 15:38:46.515619 20112 net.cpp:425] inception_3b/3x3_reduce <- inception_3a/output_inception_3a/output_0_split_1
I0403 15:38:46.515640 20112 net.cpp:399] inception_3b/3x3_reduce -> inception_3b/3x3_reduce
I0403 15:38:46.516822 20112 net.cpp:141] Setting up inception_3b/3x3_reduce
I0403 15:38:46.516851 20112 net.cpp:148] Top shape: 24 128 28 28 (2408448)
I0403 15:38:46.516867 20112 net.cpp:156] Memory required for data: 686408736
I0403 15:38:46.516885 20112 layer_factory.hpp:77] Creating layer inception_3b/relu_3x3_reduce
I0403 15:38:46.516906 20112 net.cpp:91] Creating Layer inception_3b/relu_3x3_reduce
I0403 15:38:46.516923 20112 net.cpp:425] inception_3b/relu_3x3_reduce <- inception_3b/3x3_reduce
I0403 15:38:46.516942 20112 net.cpp:386] inception_3b/relu_3x3_reduce -> inception_3b/3x3_reduce (in-place)
I0403 15:38:46.517127 20112 net.cpp:141] Setting up inception_3b/relu_3x3_reduce
I0403 15:38:46.517153 20112 net.cpp:148] Top shape: 24 128 28 28 (2408448)
I0403 15:38:46.517166 20112 net.cpp:156] Memory required for data: 696042528
I0403 15:38:46.517181 20112 layer_factory.hpp:77] Creating layer inception_3b/3x3
I0403 15:38:46.517209 20112 net.cpp:91] Creating Layer inception_3b/3x3
I0403 15:38:46.517226 20112 net.cpp:425] inception_3b/3x3 <- inception_3b/3x3_reduce
I0403 15:38:46.517248 20112 net.cpp:399] inception_3b/3x3 -> inception_3b/3x3
I0403 15:38:46.520267 20112 net.cpp:141] Setting up inception_3b/3x3
I0403 15:38:46.520299 20112 net.cpp:148] Top shape: 24 192 28 28 (3612672)
I0403 15:38:46.520316 20112 net.cpp:156] Memory required for data: 710493216
I0403 15:38:46.520335 20112 layer_factory.hpp:77] Creating layer inception_3b/relu_3x3
I0403 15:38:46.520354 20112 net.cpp:91] Creating Layer inception_3b/relu_3x3
I0403 15:38:46.520369 20112 net.cpp:425] inception_3b/relu_3x3 <- inception_3b/3x3
I0403 15:38:46.520385 20112 net.cpp:386] inception_3b/relu_3x3 -> inception_3b/3x3 (in-place)
I0403 15:38:46.520668 20112 net.cpp:141] Setting up inception_3b/relu_3x3
I0403 15:38:46.520696 20112 net.cpp:148] Top shape: 24 192 28 28 (3612672)
I0403 15:38:46.520712 20112 net.cpp:156] Memory required for data: 724943904
I0403 15:38:46.520727 20112 layer_factory.hpp:77] Creating layer inception_3b/5x5_reduce
I0403 15:38:46.520747 20112 net.cpp:91] Creating Layer inception_3b/5x5_reduce
I0403 15:38:46.520764 20112 net.cpp:425] inception_3b/5x5_reduce <- inception_3a/output_inception_3a/output_0_split_2
I0403 15:38:46.520786 20112 net.cpp:399] inception_3b/5x5_reduce -> inception_3b/5x5_reduce
I0403 15:38:46.521795 20112 net.cpp:141] Setting up inception_3b/5x5_reduce
I0403 15:38:46.521826 20112 net.cpp:148] Top shape: 24 32 28 28 (602112)
I0403 15:38:46.521841 20112 net.cpp:156] Memory required for data: 727352352
I0403 15:38:46.521859 20112 layer_factory.hpp:77] Creating layer inception_3b/relu_5x5_reduce
I0403 15:38:46.521881 20112 net.cpp:91] Creating Layer inception_3b/relu_5x5_reduce
I0403 15:38:46.521898 20112 net.cpp:425] inception_3b/relu_5x5_reduce <- inception_3b/5x5_reduce
I0403 15:38:46.521914 20112 net.cpp:386] inception_3b/relu_5x5_reduce -> inception_3b/5x5_reduce (in-place)
I0403 15:38:46.522130 20112 net.cpp:141] Setting up inception_3b/relu_5x5_reduce
I0403 15:38:46.522158 20112 net.cpp:148] Top shape: 24 32 28 28 (602112)
I0403 15:38:46.522174 20112 net.cpp:156] Memory required for data: 729760800
I0403 15:38:46.522189 20112 layer_factory.hpp:77] Creating layer inception_3b/5x5
I0403 15:38:46.522212 20112 net.cpp:91] Creating Layer inception_3b/5x5
I0403 15:38:46.522229 20112 net.cpp:425] inception_3b/5x5 <- inception_3b/5x5_reduce
I0403 15:38:46.522253 20112 net.cpp:399] inception_3b/5x5 -> inception_3b/5x5
I0403 15:38:46.524330 20112 net.cpp:141] Setting up inception_3b/5x5
I0403 15:38:46.524360 20112 net.cpp:148] Top shape: 24 96 28 28 (1806336)
I0403 15:38:46.524375 20112 net.cpp:156] Memory required for data: 736986144
I0403 15:38:46.524394 20112 layer_factory.hpp:77] Creating layer inception_3b/relu_5x5
I0403 15:38:46.524413 20112 net.cpp:91] Creating Layer inception_3b/relu_5x5
I0403 15:38:46.524430 20112 net.cpp:425] inception_3b/relu_5x5 <- inception_3b/5x5
I0403 15:38:46.524446 20112 net.cpp:386] inception_3b/relu_5x5 -> inception_3b/5x5 (in-place)
I0403 15:38:46.524643 20112 net.cpp:141] Setting up inception_3b/relu_5x5
I0403 15:38:46.524668 20112 net.cpp:148] Top shape: 24 96 28 28 (1806336)
I0403 15:38:46.524682 20112 net.cpp:156] Memory required for data: 744211488
I0403 15:38:46.524696 20112 layer_factory.hpp:77] Creating layer inception_3b/pool
I0403 15:38:46.524714 20112 net.cpp:91] Creating Layer inception_3b/pool
I0403 15:38:46.524729 20112 net.cpp:425] inception_3b/pool <- inception_3a/output_inception_3a/output_0_split_3
I0403 15:38:46.524747 20112 net.cpp:399] inception_3b/pool -> inception_3b/pool
I0403 15:38:46.524803 20112 net.cpp:141] Setting up inception_3b/pool
I0403 15:38:46.524827 20112 net.cpp:148] Top shape: 24 256 28 28 (4816896)
I0403 15:38:46.524840 20112 net.cpp:156] Memory required for data: 763479072
I0403 15:38:46.524853 20112 layer_factory.hpp:77] Creating layer inception_3b/pool_proj
I0403 15:38:46.524875 20112 net.cpp:91] Creating Layer inception_3b/pool_proj
I0403 15:38:46.524893 20112 net.cpp:425] inception_3b/pool_proj <- inception_3b/pool
I0403 15:38:46.524912 20112 net.cpp:399] inception_3b/pool_proj -> inception_3b/pool_proj
I0403 15:38:46.525984 20112 net.cpp:141] Setting up inception_3b/pool_proj
I0403 15:38:46.526012 20112 net.cpp:148] Top shape: 24 64 28 28 (1204224)
I0403 15:38:46.526028 20112 net.cpp:156] Memory required for data: 768295968
I0403 15:38:46.526047 20112 layer_factory.hpp:77] Creating layer inception_3b/relu_pool_proj
I0403 15:38:46.526065 20112 net.cpp:91] Creating Layer inception_3b/relu_pool_proj
I0403 15:38:46.526080 20112 net.cpp:425] inception_3b/relu_pool_proj <- inception_3b/pool_proj
I0403 15:38:46.526100 20112 net.cpp:386] inception_3b/relu_pool_proj -> inception_3b/pool_proj (in-place)
I0403 15:38:46.526497 20112 net.cpp:141] Setting up inception_3b/relu_pool_proj
I0403 15:38:46.526526 20112 net.cpp:148] Top shape: 24 64 28 28 (1204224)
I0403 15:38:46.526542 20112 net.cpp:156] Memory required for data: 773112864
I0403 15:38:46.526556 20112 layer_factory.hpp:77] Creating layer inception_3b/output
I0403 15:38:46.526576 20112 net.cpp:91] Creating Layer inception_3b/output
I0403 15:38:46.526590 20112 net.cpp:425] inception_3b/output <- inception_3b/1x1
I0403 15:38:46.526607 20112 net.cpp:425] inception_3b/output <- inception_3b/3x3
I0403 15:38:46.526621 20112 net.cpp:425] inception_3b/output <- inception_3b/5x5
I0403 15:38:46.526638 20112 net.cpp:425] inception_3b/output <- inception_3b/pool_proj
I0403 15:38:46.526654 20112 net.cpp:399] inception_3b/output -> inception_3b/output
I0403 15:38:46.526698 20112 net.cpp:141] Setting up inception_3b/output
I0403 15:38:46.526722 20112 net.cpp:148] Top shape: 24 480 28 28 (9031680)
I0403 15:38:46.526737 20112 net.cpp:156] Memory required for data: 809239584
I0403 15:38:46.526751 20112 layer_factory.hpp:77] Creating layer pool3/3x3_s2
I0403 15:38:46.526770 20112 net.cpp:91] Creating Layer pool3/3x3_s2
I0403 15:38:46.526787 20112 net.cpp:425] pool3/3x3_s2 <- inception_3b/output
I0403 15:38:46.526819 20112 net.cpp:399] pool3/3x3_s2 -> pool3/3x3_s2
I0403 15:38:46.526880 20112 net.cpp:141] Setting up pool3/3x3_s2
I0403 15:38:46.526902 20112 net.cpp:148] Top shape: 24 480 14 14 (2257920)
I0403 15:38:46.526916 20112 net.cpp:156] Memory required for data: 818271264
I0403 15:38:46.526931 20112 layer_factory.hpp:77] Creating layer pool3/3x3_s2_pool3/3x3_s2_0_split
I0403 15:38:46.526947 20112 net.cpp:91] Creating Layer pool3/3x3_s2_pool3/3x3_s2_0_split
I0403 15:38:46.526968 20112 net.cpp:425] pool3/3x3_s2_pool3/3x3_s2_0_split <- pool3/3x3_s2
I0403 15:38:46.526988 20112 net.cpp:399] pool3/3x3_s2_pool3/3x3_s2_0_split -> pool3/3x3_s2_pool3/3x3_s2_0_split_0
I0403 15:38:46.527007 20112 net.cpp:399] pool3/3x3_s2_pool3/3x3_s2_0_split -> pool3/3x3_s2_pool3/3x3_s2_0_split_1
I0403 15:38:46.527026 20112 net.cpp:399] pool3/3x3_s2_pool3/3x3_s2_0_split -> pool3/3x3_s2_pool3/3x3_s2_0_split_2
I0403 15:38:46.527045 20112 net.cpp:399] pool3/3x3_s2_pool3/3x3_s2_0_split -> pool3/3x3_s2_pool3/3x3_s2_0_split_3
I0403 15:38:46.527122 20112 net.cpp:141] Setting up pool3/3x3_s2_pool3/3x3_s2_0_split
I0403 15:38:46.527148 20112 net.cpp:148] Top shape: 24 480 14 14 (2257920)
I0403 15:38:46.527163 20112 net.cpp:148] Top shape: 24 480 14 14 (2257920)
I0403 15:38:46.527179 20112 net.cpp:148] Top shape: 24 480 14 14 (2257920)
I0403 15:38:46.527194 20112 net.cpp:148] Top shape: 24 480 14 14 (2257920)
I0403 15:38:46.527209 20112 net.cpp:156] Memory required for data: 854397984
I0403 15:38:46.527223 20112 layer_factory.hpp:77] Creating layer inception_4a/1x1
I0403 15:38:46.527248 20112 net.cpp:91] Creating Layer inception_4a/1x1
I0403 15:38:46.527264 20112 net.cpp:425] inception_4a/1x1 <- pool3/3x3_s2_pool3/3x3_s2_0_split_0
I0403 15:38:46.527283 20112 net.cpp:399] inception_4a/1x1 -> inception_4a/1x1
I0403 15:38:46.528873 20112 net.cpp:141] Setting up inception_4a/1x1
I0403 15:38:46.528903 20112 net.cpp:148] Top shape: 24 192 14 14 (903168)
I0403 15:38:46.528918 20112 net.cpp:156] Memory required for data: 858010656
I0403 15:38:46.528936 20112 layer_factory.hpp:77] Creating layer inception_4a/relu_1x1
I0403 15:38:46.528965 20112 net.cpp:91] Creating Layer inception_4a/relu_1x1
I0403 15:38:46.528985 20112 net.cpp:425] inception_4a/relu_1x1 <- inception_4a/1x1
I0403 15:38:46.529006 20112 net.cpp:386] inception_4a/relu_1x1 -> inception_4a/1x1 (in-place)
I0403 15:38:46.529184 20112 net.cpp:141] Setting up inception_4a/relu_1x1
I0403 15:38:46.529209 20112 net.cpp:148] Top shape: 24 192 14 14 (903168)
I0403 15:38:46.529223 20112 net.cpp:156] Memory required for data: 861623328
I0403 15:38:46.529238 20112 layer_factory.hpp:77] Creating layer inception_4a/3x3_reduce
I0403 15:38:46.529260 20112 net.cpp:91] Creating Layer inception_4a/3x3_reduce
I0403 15:38:46.529276 20112 net.cpp:425] inception_4a/3x3_reduce <- pool3/3x3_s2_pool3/3x3_s2_0_split_1
I0403 15:38:46.529299 20112 net.cpp:399] inception_4a/3x3_reduce -> inception_4a/3x3_reduce
I0403 15:38:46.530637 20112 net.cpp:141] Setting up inception_4a/3x3_reduce
I0403 15:38:46.530666 20112 net.cpp:148] Top shape: 24 96 14 14 (451584)
I0403 15:38:46.530681 20112 net.cpp:156] Memory required for data: 863429664
I0403 15:38:46.530706 20112 layer_factory.hpp:77] Creating layer inception_4a/relu_3x3_reduce
I0403 15:38:46.530726 20112 net.cpp:91] Creating Layer inception_4a/relu_3x3_reduce
I0403 15:38:46.530742 20112 net.cpp:425] inception_4a/relu_3x3_reduce <- inception_4a/3x3_reduce
I0403 15:38:46.530762 20112 net.cpp:386] inception_4a/relu_3x3_reduce -> inception_4a/3x3_reduce (in-place)
I0403 15:38:46.530939 20112 net.cpp:141] Setting up inception_4a/relu_3x3_reduce
I0403 15:38:46.530968 20112 net.cpp:148] Top shape: 24 96 14 14 (451584)
I0403 15:38:46.530983 20112 net.cpp:156] Memory required for data: 865236000
I0403 15:38:46.530998 20112 layer_factory.hpp:77] Creating layer inception_4a/3x3
I0403 15:38:46.531020 20112 net.cpp:91] Creating Layer inception_4a/3x3
I0403 15:38:46.531038 20112 net.cpp:425] inception_4a/3x3 <- inception_4a/3x3_reduce
I0403 15:38:46.531059 20112 net.cpp:399] inception_4a/3x3 -> inception_4a/3x3
I0403 15:38:46.533782 20112 net.cpp:141] Setting up inception_4a/3x3
I0403 15:38:46.533809 20112 net.cpp:148] Top shape: 24 208 14 14 (978432)
I0403 15:38:46.533825 20112 net.cpp:156] Memory required for data: 869149728
I0403 15:38:46.533843 20112 layer_factory.hpp:77] Creating layer inception_4a/relu_3x3
I0403 15:38:46.533864 20112 net.cpp:91] Creating Layer inception_4a/relu_3x3
I0403 15:38:46.533880 20112 net.cpp:425] inception_4a/relu_3x3 <- inception_4a/3x3
I0403 15:38:46.533898 20112 net.cpp:386] inception_4a/relu_3x3 -> inception_4a/3x3 (in-place)
I0403 15:38:46.534184 20112 net.cpp:141] Setting up inception_4a/relu_3x3
I0403 15:38:46.534212 20112 net.cpp:148] Top shape: 24 208 14 14 (978432)
I0403 15:38:46.534226 20112 net.cpp:156] Memory required for data: 873063456
I0403 15:38:46.534241 20112 layer_factory.hpp:77] Creating layer inception_4a/5x5_reduce
I0403 15:38:46.534263 20112 net.cpp:91] Creating Layer inception_4a/5x5_reduce
I0403 15:38:46.534281 20112 net.cpp:425] inception_4a/5x5_reduce <- pool3/3x3_s2_pool3/3x3_s2_0_split_2
I0403 15:38:46.534302 20112 net.cpp:399] inception_4a/5x5_reduce -> inception_4a/5x5_reduce
I0403 15:38:46.535336 20112 net.cpp:141] Setting up inception_4a/5x5_reduce
I0403 15:38:46.535363 20112 net.cpp:148] Top shape: 24 16 14 14 (75264)
I0403 15:38:46.535378 20112 net.cpp:156] Memory required for data: 873364512
I0403 15:38:46.535398 20112 layer_factory.hpp:77] Creating layer inception_4a/relu_5x5_reduce
I0403 15:38:46.535416 20112 net.cpp:91] Creating Layer inception_4a/relu_5x5_reduce
I0403 15:38:46.535434 20112 net.cpp:425] inception_4a/relu_5x5_reduce <- inception_4a/5x5_reduce
I0403 15:38:46.535449 20112 net.cpp:386] inception_4a/relu_5x5_reduce -> inception_4a/5x5_reduce (in-place)
I0403 15:38:46.535630 20112 net.cpp:141] Setting up inception_4a/relu_5x5_reduce
I0403 15:38:46.535658 20112 net.cpp:148] Top shape: 24 16 14 14 (75264)
I0403 15:38:46.535673 20112 net.cpp:156] Memory required for data: 873665568
I0403 15:38:46.535688 20112 layer_factory.hpp:77] Creating layer inception_4a/5x5
I0403 15:38:46.535712 20112 net.cpp:91] Creating Layer inception_4a/5x5
I0403 15:38:46.535729 20112 net.cpp:425] inception_4a/5x5 <- inception_4a/5x5_reduce
I0403 15:38:46.535748 20112 net.cpp:399] inception_4a/5x5 -> inception_4a/5x5
I0403 15:38:46.536856 20112 net.cpp:141] Setting up inception_4a/5x5
I0403 15:38:46.536886 20112 net.cpp:148] Top shape: 24 48 14 14 (225792)
I0403 15:38:46.536903 20112 net.cpp:156] Memory required for data: 874568736
I0403 15:38:46.536921 20112 layer_factory.hpp:77] Creating layer inception_4a/relu_5x5
I0403 15:38:46.536939 20112 net.cpp:91] Creating Layer inception_4a/relu_5x5
I0403 15:38:46.536959 20112 net.cpp:425] inception_4a/relu_5x5 <- inception_4a/5x5
I0403 15:38:46.536979 20112 net.cpp:386] inception_4a/relu_5x5 -> inception_4a/5x5 (in-place)
I0403 15:38:46.537161 20112 net.cpp:141] Setting up inception_4a/relu_5x5
I0403 15:38:46.537185 20112 net.cpp:148] Top shape: 24 48 14 14 (225792)
I0403 15:38:46.537199 20112 net.cpp:156] Memory required for data: 875471904
I0403 15:38:46.537215 20112 layer_factory.hpp:77] Creating layer inception_4a/pool
I0403 15:38:46.537233 20112 net.cpp:91] Creating Layer inception_4a/pool
I0403 15:38:46.537251 20112 net.cpp:425] inception_4a/pool <- pool3/3x3_s2_pool3/3x3_s2_0_split_3
I0403 15:38:46.537269 20112 net.cpp:399] inception_4a/pool -> inception_4a/pool
I0403 15:38:46.537333 20112 net.cpp:141] Setting up inception_4a/pool
I0403 15:38:46.537355 20112 net.cpp:148] Top shape: 24 480 14 14 (2257920)
I0403 15:38:46.537369 20112 net.cpp:156] Memory required for data: 884503584
I0403 15:38:46.537384 20112 layer_factory.hpp:77] Creating layer inception_4a/pool_proj
I0403 15:38:46.537405 20112 net.cpp:91] Creating Layer inception_4a/pool_proj
I0403 15:38:46.537421 20112 net.cpp:425] inception_4a/pool_proj <- inception_4a/pool
I0403 15:38:46.537442 20112 net.cpp:399] inception_4a/pool_proj -> inception_4a/pool_proj
I0403 15:38:46.538635 20112 net.cpp:141] Setting up inception_4a/pool_proj
I0403 15:38:46.538663 20112 net.cpp:148] Top shape: 24 64 14 14 (301056)
I0403 15:38:46.538693 20112 net.cpp:156] Memory required for data: 885707808
I0403 15:38:46.538713 20112 layer_factory.hpp:77] Creating layer inception_4a/relu_pool_proj
I0403 15:38:46.538732 20112 net.cpp:91] Creating Layer inception_4a/relu_pool_proj
I0403 15:38:46.538748 20112 net.cpp:425] inception_4a/relu_pool_proj <- inception_4a/pool_proj
I0403 15:38:46.538768 20112 net.cpp:386] inception_4a/relu_pool_proj -> inception_4a/pool_proj (in-place)
I0403 15:38:46.539064 20112 net.cpp:141] Setting up inception_4a/relu_pool_proj
I0403 15:38:46.539091 20112 net.cpp:148] Top shape: 24 64 14 14 (301056)
I0403 15:38:46.539106 20112 net.cpp:156] Memory required for data: 886912032
I0403 15:38:46.539120 20112 layer_factory.hpp:77] Creating layer inception_4a/output
I0403 15:38:46.539137 20112 net.cpp:91] Creating Layer inception_4a/output
I0403 15:38:46.539154 20112 net.cpp:425] inception_4a/output <- inception_4a/1x1
I0403 15:38:46.539170 20112 net.cpp:425] inception_4a/output <- inception_4a/3x3
I0403 15:38:46.539186 20112 net.cpp:425] inception_4a/output <- inception_4a/5x5
I0403 15:38:46.539201 20112 net.cpp:425] inception_4a/output <- inception_4a/pool_proj
I0403 15:38:46.539221 20112 net.cpp:399] inception_4a/output -> inception_4a/output
I0403 15:38:46.539264 20112 net.cpp:141] Setting up inception_4a/output
I0403 15:38:46.539293 20112 net.cpp:148] Top shape: 24 512 14 14 (2408448)
I0403 15:38:46.539309 20112 net.cpp:156] Memory required for data: 896545824
I0403 15:38:46.539322 20112 layer_factory.hpp:77] Creating layer inception_4a/output_inception_4a/output_0_split
I0403 15:38:46.539340 20112 net.cpp:91] Creating Layer inception_4a/output_inception_4a/output_0_split
I0403 15:38:46.539355 20112 net.cpp:425] inception_4a/output_inception_4a/output_0_split <- inception_4a/output
I0403 15:38:46.539371 20112 net.cpp:399] inception_4a/output_inception_4a/output_0_split -> inception_4a/output_inception_4a/output_0_split_0
I0403 15:38:46.539394 20112 net.cpp:399] inception_4a/output_inception_4a/output_0_split -> inception_4a/output_inception_4a/output_0_split_1
I0403 15:38:46.539415 20112 net.cpp:399] inception_4a/output_inception_4a/output_0_split -> inception_4a/output_inception_4a/output_0_split_2
I0403 15:38:46.539435 20112 net.cpp:399] inception_4a/output_inception_4a/output_0_split -> inception_4a/output_inception_4a/output_0_split_3
I0403 15:38:46.539454 20112 net.cpp:399] inception_4a/output_inception_4a/output_0_split -> inception_4a/output_inception_4a/output_0_split_4
I0403 15:38:46.539546 20112 net.cpp:141] Setting up inception_4a/output_inception_4a/output_0_split
I0403 15:38:46.539568 20112 net.cpp:148] Top shape: 24 512 14 14 (2408448)
I0403 15:38:46.539584 20112 net.cpp:148] Top shape: 24 512 14 14 (2408448)
I0403 15:38:46.539600 20112 net.cpp:148] Top shape: 24 512 14 14 (2408448)
I0403 15:38:46.539615 20112 net.cpp:148] Top shape: 24 512 14 14 (2408448)
I0403 15:38:46.539630 20112 net.cpp:148] Top shape: 24 512 14 14 (2408448)
I0403 15:38:46.539644 20112 net.cpp:156] Memory required for data: 944714784
I0403 15:38:46.539659 20112 layer_factory.hpp:77] Creating layer loss1/ave_pool
I0403 15:38:46.539677 20112 net.cpp:91] Creating Layer loss1/ave_pool
I0403 15:38:46.539695 20112 net.cpp:425] loss1/ave_pool <- inception_4a/output_inception_4a/output_0_split_0
I0403 15:38:46.539711 20112 net.cpp:399] loss1/ave_pool -> loss1/ave_pool
I0403 15:38:46.539922 20112 net.cpp:141] Setting up loss1/ave_pool
I0403 15:38:46.539948 20112 net.cpp:148] Top shape: 24 512 4 4 (196608)
I0403 15:38:46.539968 20112 net.cpp:156] Memory required for data: 945501216
I0403 15:38:46.539983 20112 layer_factory.hpp:77] Creating layer loss1/conv
I0403 15:38:46.540006 20112 net.cpp:91] Creating Layer loss1/conv
I0403 15:38:46.540022 20112 net.cpp:425] loss1/conv <- loss1/ave_pool
I0403 15:38:46.540043 20112 net.cpp:399] loss1/conv -> loss1/conv
I0403 15:38:46.541481 20112 net.cpp:141] Setting up loss1/conv
I0403 15:38:46.541510 20112 net.cpp:148] Top shape: 24 128 4 4 (49152)
I0403 15:38:46.541540 20112 net.cpp:156] Memory required for data: 945697824
I0403 15:38:46.541559 20112 layer_factory.hpp:77] Creating layer loss1/relu_conv
I0403 15:38:46.541579 20112 net.cpp:91] Creating Layer loss1/relu_conv
I0403 15:38:46.541595 20112 net.cpp:425] loss1/relu_conv <- loss1/conv
I0403 15:38:46.541611 20112 net.cpp:386] loss1/relu_conv -> loss1/conv (in-place)
I0403 15:38:46.541895 20112 net.cpp:141] Setting up loss1/relu_conv
I0403 15:38:46.541921 20112 net.cpp:148] Top shape: 24 128 4 4 (49152)
I0403 15:38:46.541936 20112 net.cpp:156] Memory required for data: 945894432
I0403 15:38:46.541951 20112 layer_factory.hpp:77] Creating layer loss1/fc
I0403 15:38:46.541982 20112 net.cpp:91] Creating Layer loss1/fc
I0403 15:38:46.542001 20112 net.cpp:425] loss1/fc <- loss1/conv
I0403 15:38:46.542018 20112 net.cpp:399] loss1/fc -> loss1/fc
I0403 15:38:46.559453 20112 net.cpp:141] Setting up loss1/fc
I0403 15:38:46.559484 20112 net.cpp:148] Top shape: 24 1024 (24576)
I0403 15:38:46.559499 20112 net.cpp:156] Memory required for data: 945992736
I0403 15:38:46.559517 20112 layer_factory.hpp:77] Creating layer loss1/relu_fc
I0403 15:38:46.559535 20112 net.cpp:91] Creating Layer loss1/relu_fc
I0403 15:38:46.559548 20112 net.cpp:425] loss1/relu_fc <- loss1/fc
I0403 15:38:46.559567 20112 net.cpp:386] loss1/relu_fc -> loss1/fc (in-place)
I0403 15:38:46.559746 20112 net.cpp:141] Setting up loss1/relu_fc
I0403 15:38:46.559769 20112 net.cpp:148] Top shape: 24 1024 (24576)
I0403 15:38:46.559782 20112 net.cpp:156] Memory required for data: 946091040
I0403 15:38:46.559797 20112 layer_factory.hpp:77] Creating layer loss1/drop_fc
I0403 15:38:46.559823 20112 net.cpp:91] Creating Layer loss1/drop_fc
I0403 15:38:46.559839 20112 net.cpp:425] loss1/drop_fc <- loss1/fc
I0403 15:38:46.559854 20112 net.cpp:386] loss1/drop_fc -> loss1/fc (in-place)
I0403 15:38:46.559902 20112 net.cpp:141] Setting up loss1/drop_fc
I0403 15:38:46.559927 20112 net.cpp:148] Top shape: 24 1024 (24576)
I0403 15:38:46.559942 20112 net.cpp:156] Memory required for data: 946189344
I0403 15:38:46.559960 20112 layer_factory.hpp:77] Creating layer loss1/classifier_plantvillage
I0403 15:38:46.559979 20112 net.cpp:91] Creating Layer loss1/classifier_plantvillage
I0403 15:38:46.559994 20112 net.cpp:425] loss1/classifier_plantvillage <- loss1/fc
I0403 15:38:46.560014 20112 net.cpp:399] loss1/classifier_plantvillage -> loss1/classifier_plantvillage
I0403 15:38:46.562273 20112 net.cpp:141] Setting up loss1/classifier_plantvillage
I0403 15:38:46.562299 20112 net.cpp:148] Top shape: 24 38 (912)
I0403 15:38:46.562312 20112 net.cpp:156] Memory required for data: 946192992
I0403 15:38:46.562330 20112 layer_factory.hpp:77] Creating layer loss1/classifier_plantvillage_loss1/classifier_plantvillage_0_split
I0403 15:38:46.562348 20112 net.cpp:91] Creating Layer loss1/classifier_plantvillage_loss1/classifier_plantvillage_0_split
I0403 15:38:46.562363 20112 net.cpp:425] loss1/classifier_plantvillage_loss1/classifier_plantvillage_0_split <- loss1/classifier_plantvillage
I0403 15:38:46.562381 20112 net.cpp:399] loss1/classifier_plantvillage_loss1/classifier_plantvillage_0_split -> loss1/classifier_plantvillage_loss1/classifier_plantvillage_0_split_0
I0403 15:38:46.562399 20112 net.cpp:399] loss1/classifier_plantvillage_loss1/classifier_plantvillage_0_split -> loss1/classifier_plantvillage_loss1/classifier_plantvillage_0_split_1
I0403 15:38:46.562417 20112 net.cpp:399] loss1/classifier_plantvillage_loss1/classifier_plantvillage_0_split -> loss1/classifier_plantvillage_loss1/classifier_plantvillage_0_split_2
I0403 15:38:46.562479 20112 net.cpp:141] Setting up loss1/classifier_plantvillage_loss1/classifier_plantvillage_0_split
I0403 15:38:46.562502 20112 net.cpp:148] Top shape: 24 38 (912)
I0403 15:38:46.562517 20112 net.cpp:148] Top shape: 24 38 (912)
I0403 15:38:46.562532 20112 net.cpp:148] Top shape: 24 38 (912)
I0403 15:38:46.562546 20112 net.cpp:156] Memory required for data: 946203936
I0403 15:38:46.562559 20112 layer_factory.hpp:77] Creating layer inception_4b/1x1
I0403 15:38:46.562577 20112 net.cpp:91] Creating Layer inception_4b/1x1
I0403 15:38:46.562609 20112 net.cpp:425] inception_4b/1x1 <- inception_4a/output_inception_4a/output_0_split_1
I0403 15:38:46.562629 20112 net.cpp:399] inception_4b/1x1 -> inception_4b/1x1
I0403 15:38:46.564573 20112 net.cpp:141] Setting up inception_4b/1x1
I0403 15:38:46.564600 20112 net.cpp:148] Top shape: 24 160 14 14 (752640)
I0403 15:38:46.564615 20112 net.cpp:156] Memory required for data: 949214496
I0403 15:38:46.564632 20112 layer_factory.hpp:77] Creating layer inception_4b/relu_1x1
I0403 15:38:46.564651 20112 net.cpp:91] Creating Layer inception_4b/relu_1x1
I0403 15:38:46.564667 20112 net.cpp:425] inception_4b/relu_1x1 <- inception_4b/1x1
I0403 15:38:46.564683 20112 net.cpp:386] inception_4b/relu_1x1 -> inception_4b/1x1 (in-place)
I0403 15:38:46.564931 20112 net.cpp:141] Setting up inception_4b/relu_1x1
I0403 15:38:46.564963 20112 net.cpp:148] Top shape: 24 160 14 14 (752640)
I0403 15:38:46.564980 20112 net.cpp:156] Memory required for data: 952225056
I0403 15:38:46.564995 20112 layer_factory.hpp:77] Creating layer inception_4b/3x3_reduce
I0403 15:38:46.565022 20112 net.cpp:91] Creating Layer inception_4b/3x3_reduce
I0403 15:38:46.565039 20112 net.cpp:425] inception_4b/3x3_reduce <- inception_4a/output_inception_4a/output_0_split_2
I0403 15:38:46.565057 20112 net.cpp:399] inception_4b/3x3_reduce -> inception_4b/3x3_reduce
I0403 15:38:46.566381 20112 net.cpp:141] Setting up inception_4b/3x3_reduce
I0403 15:38:46.566411 20112 net.cpp:148] Top shape: 24 112 14 14 (526848)
I0403 15:38:46.566426 20112 net.cpp:156] Memory required for data: 954332448
I0403 15:38:46.566444 20112 layer_factory.hpp:77] Creating layer inception_4b/relu_3x3_reduce
I0403 15:38:46.566462 20112 net.cpp:91] Creating Layer inception_4b/relu_3x3_reduce
I0403 15:38:46.566475 20112 net.cpp:425] inception_4b/relu_3x3_reduce <- inception_4b/3x3_reduce
I0403 15:38:46.566494 20112 net.cpp:386] inception_4b/relu_3x3_reduce -> inception_4b/3x3_reduce (in-place)
I0403 15:38:46.566768 20112 net.cpp:141] Setting up inception_4b/relu_3x3_reduce
I0403 15:38:46.566794 20112 net.cpp:148] Top shape: 24 112 14 14 (526848)
I0403 15:38:46.566809 20112 net.cpp:156] Memory required for data: 956439840
I0403 15:38:46.566823 20112 layer_factory.hpp:77] Creating layer inception_4b/3x3
I0403 15:38:46.566844 20112 net.cpp:91] Creating Layer inception_4b/3x3
I0403 15:38:46.566861 20112 net.cpp:425] inception_4b/3x3 <- inception_4b/3x3_reduce
I0403 15:38:46.566879 20112 net.cpp:399] inception_4b/3x3 -> inception_4b/3x3
I0403 15:38:46.569783 20112 net.cpp:141] Setting up inception_4b/3x3
I0403 15:38:46.569811 20112 net.cpp:148] Top shape: 24 224 14 14 (1053696)
I0403 15:38:46.569826 20112 net.cpp:156] Memory required for data: 960654624
I0403 15:38:46.569844 20112 layer_factory.hpp:77] Creating layer inception_4b/relu_3x3
I0403 15:38:46.569864 20112 net.cpp:91] Creating Layer inception_4b/relu_3x3
I0403 15:38:46.569878 20112 net.cpp:425] inception_4b/relu_3x3 <- inception_4b/3x3
I0403 15:38:46.569895 20112 net.cpp:386] inception_4b/relu_3x3 -> inception_4b/3x3 (in-place)
I0403 15:38:46.570137 20112 net.cpp:141] Setting up inception_4b/relu_3x3
I0403 15:38:46.570161 20112 net.cpp:148] Top shape: 24 224 14 14 (1053696)
I0403 15:38:46.570175 20112 net.cpp:156] Memory required for data: 964869408
I0403 15:38:46.570189 20112 layer_factory.hpp:77] Creating layer inception_4b/5x5_reduce
I0403 15:38:46.570210 20112 net.cpp:91] Creating Layer inception_4b/5x5_reduce
I0403 15:38:46.570227 20112 net.cpp:425] inception_4b/5x5_reduce <- inception_4a/output_inception_4a/output_0_split_3
I0403 15:38:46.570247 20112 net.cpp:399] inception_4b/5x5_reduce -> inception_4b/5x5_reduce
I0403 15:38:46.571286 20112 net.cpp:141] Setting up inception_4b/5x5_reduce
I0403 15:38:46.571312 20112 net.cpp:148] Top shape: 24 24 14 14 (112896)
I0403 15:38:46.571326 20112 net.cpp:156] Memory required for data: 965320992
I0403 15:38:46.571343 20112 layer_factory.hpp:77] Creating layer inception_4b/relu_5x5_reduce
I0403 15:38:46.571362 20112 net.cpp:91] Creating Layer inception_4b/relu_5x5_reduce
I0403 15:38:46.571393 20112 net.cpp:425] inception_4b/relu_5x5_reduce <- inception_4b/5x5_reduce
I0403 15:38:46.571409 20112 net.cpp:386] inception_4b/relu_5x5_reduce -> inception_4b/5x5_reduce (in-place)
I0403 15:38:46.571584 20112 net.cpp:141] Setting up inception_4b/relu_5x5_reduce
I0403 15:38:46.571609 20112 net.cpp:148] Top shape: 24 24 14 14 (112896)
I0403 15:38:46.571622 20112 net.cpp:156] Memory required for data: 965772576
I0403 15:38:46.571635 20112 layer_factory.hpp:77] Creating layer inception_4b/5x5
I0403 15:38:46.571658 20112 net.cpp:91] Creating Layer inception_4b/5x5
I0403 15:38:46.571676 20112 net.cpp:425] inception_4b/5x5 <- inception_4b/5x5_reduce
I0403 15:38:46.571696 20112 net.cpp:399] inception_4b/5x5 -> inception_4b/5x5
I0403 15:38:46.572865 20112 net.cpp:141] Setting up inception_4b/5x5
I0403 15:38:46.572891 20112 net.cpp:148] Top shape: 24 64 14 14 (301056)
I0403 15:38:46.572906 20112 net.cpp:156] Memory required for data: 966976800
I0403 15:38:46.572923 20112 layer_factory.hpp:77] Creating layer inception_4b/relu_5x5
I0403 15:38:46.572942 20112 net.cpp:91] Creating Layer inception_4b/relu_5x5
I0403 15:38:46.572965 20112 net.cpp:425] inception_4b/relu_5x5 <- inception_4b/5x5
I0403 15:38:46.572983 20112 net.cpp:386] inception_4b/relu_5x5 -> inception_4b/5x5 (in-place)
I0403 15:38:46.573256 20112 net.cpp:141] Setting up inception_4b/relu_5x5
I0403 15:38:46.573282 20112 net.cpp:148] Top shape: 24 64 14 14 (301056)
I0403 15:38:46.573295 20112 net.cpp:156] Memory required for data: 968181024
I0403 15:38:46.573309 20112 layer_factory.hpp:77] Creating layer inception_4b/pool
I0403 15:38:46.573328 20112 net.cpp:91] Creating Layer inception_4b/pool
I0403 15:38:46.573343 20112 net.cpp:425] inception_4b/pool <- inception_4a/output_inception_4a/output_0_split_4
I0403 15:38:46.573359 20112 net.cpp:399] inception_4b/pool -> inception_4b/pool
I0403 15:38:46.573421 20112 net.cpp:141] Setting up inception_4b/pool
I0403 15:38:46.573443 20112 net.cpp:148] Top shape: 24 512 14 14 (2408448)
I0403 15:38:46.573457 20112 net.cpp:156] Memory required for data: 977814816
I0403 15:38:46.573469 20112 layer_factory.hpp:77] Creating layer inception_4b/pool_proj
I0403 15:38:46.573490 20112 net.cpp:91] Creating Layer inception_4b/pool_proj
I0403 15:38:46.573506 20112 net.cpp:425] inception_4b/pool_proj <- inception_4b/pool
I0403 15:38:46.573526 20112 net.cpp:399] inception_4b/pool_proj -> inception_4b/pool_proj
I0403 15:38:46.574718 20112 net.cpp:141] Setting up inception_4b/pool_proj
I0403 15:38:46.574745 20112 net.cpp:148] Top shape: 24 64 14 14 (301056)
I0403 15:38:46.574765 20112 net.cpp:156] Memory required for data: 979019040
I0403 15:38:46.574784 20112 layer_factory.hpp:77] Creating layer inception_4b/relu_pool_proj
I0403 15:38:46.574800 20112 net.cpp:91] Creating Layer inception_4b/relu_pool_proj
I0403 15:38:46.574815 20112 net.cpp:425] inception_4b/relu_pool_proj <- inception_4b/pool_proj
I0403 15:38:46.574832 20112 net.cpp:386] inception_4b/relu_pool_proj -> inception_4b/pool_proj (in-place)
I0403 15:38:46.575016 20112 net.cpp:141] Setting up inception_4b/relu_pool_proj
I0403 15:38:46.575043 20112 net.cpp:148] Top shape: 24 64 14 14 (301056)
I0403 15:38:46.575057 20112 net.cpp:156] Memory required for data: 980223264
I0403 15:38:46.575073 20112 layer_factory.hpp:77] Creating layer inception_4b/output
I0403 15:38:46.575088 20112 net.cpp:91] Creating Layer inception_4b/output
I0403 15:38:46.575103 20112 net.cpp:425] inception_4b/output <- inception_4b/1x1
I0403 15:38:46.575119 20112 net.cpp:425] inception_4b/output <- inception_4b/3x3
I0403 15:38:46.575134 20112 net.cpp:425] inception_4b/output <- inception_4b/5x5
I0403 15:38:46.575148 20112 net.cpp:425] inception_4b/output <- inception_4b/pool_proj
I0403 15:38:46.575167 20112 net.cpp:399] inception_4b/output -> inception_4b/output
I0403 15:38:46.575212 20112 net.cpp:141] Setting up inception_4b/output
I0403 15:38:46.575235 20112 net.cpp:148] Top shape: 24 512 14 14 (2408448)
I0403 15:38:46.575249 20112 net.cpp:156] Memory required for data: 989857056
I0403 15:38:46.575279 20112 layer_factory.hpp:77] Creating layer inception_4b/output_inception_4b/output_0_split
I0403 15:38:46.575299 20112 net.cpp:91] Creating Layer inception_4b/output_inception_4b/output_0_split
I0403 15:38:46.575315 20112 net.cpp:425] inception_4b/output_inception_4b/output_0_split <- inception_4b/output
I0403 15:38:46.575332 20112 net.cpp:399] inception_4b/output_inception_4b/output_0_split -> inception_4b/output_inception_4b/output_0_split_0
I0403 15:38:46.575351 20112 net.cpp:399] inception_4b/output_inception_4b/output_0_split -> inception_4b/output_inception_4b/output_0_split_1
I0403 15:38:46.575374 20112 net.cpp:399] inception_4b/output_inception_4b/output_0_split -> inception_4b/output_inception_4b/output_0_split_2
I0403 15:38:46.575393 20112 net.cpp:399] inception_4b/output_inception_4b/output_0_split -> inception_4b/output_inception_4b/output_0_split_3
I0403 15:38:46.575474 20112 net.cpp:141] Setting up inception_4b/output_inception_4b/output_0_split
I0403 15:38:46.575496 20112 net.cpp:148] Top shape: 24 512 14 14 (2408448)
I0403 15:38:46.575512 20112 net.cpp:148] Top shape: 24 512 14 14 (2408448)
I0403 15:38:46.575526 20112 net.cpp:148] Top shape: 24 512 14 14 (2408448)
I0403 15:38:46.575541 20112 net.cpp:148] Top shape: 24 512 14 14 (2408448)
I0403 15:38:46.575554 20112 net.cpp:156] Memory required for data: 1028392224
I0403 15:38:46.575568 20112 layer_factory.hpp:77] Creating layer inception_4c/1x1
I0403 15:38:46.575590 20112 net.cpp:91] Creating Layer inception_4c/1x1
I0403 15:38:46.575606 20112 net.cpp:425] inception_4c/1x1 <- inception_4b/output_inception_4b/output_0_split_0
I0403 15:38:46.575628 20112 net.cpp:399] inception_4c/1x1 -> inception_4c/1x1
I0403 15:38:46.577051 20112 net.cpp:141] Setting up inception_4c/1x1
I0403 15:38:46.577082 20112 net.cpp:148] Top shape: 24 128 14 14 (602112)
I0403 15:38:46.577097 20112 net.cpp:156] Memory required for data: 1030800672
I0403 15:38:46.577116 20112 layer_factory.hpp:77] Creating layer inception_4c/relu_1x1
I0403 15:38:46.577132 20112 net.cpp:91] Creating Layer inception_4c/relu_1x1
I0403 15:38:46.577147 20112 net.cpp:425] inception_4c/relu_1x1 <- inception_4c/1x1
I0403 15:38:46.577167 20112 net.cpp:386] inception_4c/relu_1x1 -> inception_4c/1x1 (in-place)
I0403 15:38:46.577343 20112 net.cpp:141] Setting up inception_4c/relu_1x1
I0403 15:38:46.577368 20112 net.cpp:148] Top shape: 24 128 14 14 (602112)
I0403 15:38:46.577381 20112 net.cpp:156] Memory required for data: 1033209120
I0403 15:38:46.577394 20112 layer_factory.hpp:77] Creating layer inception_4c/3x3_reduce
I0403 15:38:46.577416 20112 net.cpp:91] Creating Layer inception_4c/3x3_reduce
I0403 15:38:46.577432 20112 net.cpp:425] inception_4c/3x3_reduce <- inception_4b/output_inception_4b/output_0_split_1
I0403 15:38:46.577453 20112 net.cpp:399] inception_4c/3x3_reduce -> inception_4c/3x3_reduce
I0403 15:38:46.579380 20112 net.cpp:141] Setting up inception_4c/3x3_reduce
I0403 15:38:46.579408 20112 net.cpp:148] Top shape: 24 128 14 14 (602112)
I0403 15:38:46.579423 20112 net.cpp:156] Memory required for data: 1035617568
I0403 15:38:46.579440 20112 layer_factory.hpp:77] Creating layer inception_4c/relu_3x3_reduce
I0403 15:38:46.579460 20112 net.cpp:91] Creating Layer inception_4c/relu_3x3_reduce
I0403 15:38:46.579476 20112 net.cpp:425] inception_4c/relu_3x3_reduce <- inception_4c/3x3_reduce
I0403 15:38:46.579493 20112 net.cpp:386] inception_4c/relu_3x3_reduce -> inception_4c/3x3_reduce (in-place)
I0403 15:38:46.579777 20112 net.cpp:141] Setting up inception_4c/relu_3x3_reduce
I0403 15:38:46.579802 20112 net.cpp:148] Top shape: 24 128 14 14 (602112)
I0403 15:38:46.579818 20112 net.cpp:156] Memory required for data: 1038026016
I0403 15:38:46.579831 20112 layer_factory.hpp:77] Creating layer inception_4c/3x3
I0403 15:38:46.579854 20112 net.cpp:91] Creating Layer inception_4c/3x3
I0403 15:38:46.579869 20112 net.cpp:425] inception_4c/3x3 <- inception_4c/3x3_reduce
I0403 15:38:46.579891 20112 net.cpp:399] inception_4c/3x3 -> inception_4c/3x3
I0403 15:38:46.583632 20112 net.cpp:141] Setting up inception_4c/3x3
I0403 15:38:46.583674 20112 net.cpp:148] Top shape: 24 256 14 14 (1204224)
I0403 15:38:46.583690 20112 net.cpp:156] Memory required for data: 1042842912
I0403 15:38:46.583725 20112 layer_factory.hpp:77] Creating layer inception_4c/relu_3x3
I0403 15:38:46.583747 20112 net.cpp:91] Creating Layer inception_4c/relu_3x3
I0403 15:38:46.583765 20112 net.cpp:425] inception_4c/relu_3x3 <- inception_4c/3x3
I0403 15:38:46.583781 20112 net.cpp:386] inception_4c/relu_3x3 -> inception_4c/3x3 (in-place)
I0403 15:38:46.583972 20112 net.cpp:141] Setting up inception_4c/relu_3x3
I0403 15:38:46.583997 20112 net.cpp:148] Top shape: 24 256 14 14 (1204224)
I0403 15:38:46.584012 20112 net.cpp:156] Memory required for data: 1047659808
I0403 15:38:46.584025 20112 layer_factory.hpp:77] Creating layer inception_4c/5x5_reduce
I0403 15:38:46.584050 20112 net.cpp:91] Creating Layer inception_4c/5x5_reduce
I0403 15:38:46.584069 20112 net.cpp:425] inception_4c/5x5_reduce <- inception_4b/output_inception_4b/output_0_split_2
I0403 15:38:46.584087 20112 net.cpp:399] inception_4c/5x5_reduce -> inception_4c/5x5_reduce
I0403 15:38:46.585198 20112 net.cpp:141] Setting up inception_4c/5x5_reduce
I0403 15:38:46.585227 20112 net.cpp:148] Top shape: 24 24 14 14 (112896)
I0403 15:38:46.585242 20112 net.cpp:156] Memory required for data: 1048111392
I0403 15:38:46.585260 20112 layer_factory.hpp:77] Creating layer inception_4c/relu_5x5_reduce
I0403 15:38:46.585279 20112 net.cpp:91] Creating Layer inception_4c/relu_5x5_reduce
I0403 15:38:46.585295 20112 net.cpp:425] inception_4c/relu_5x5_reduce <- inception_4c/5x5_reduce
I0403 15:38:46.585312 20112 net.cpp:386] inception_4c/relu_5x5_reduce -> inception_4c/5x5_reduce (in-place)
I0403 15:38:46.585500 20112 net.cpp:141] Setting up inception_4c/relu_5x5_reduce
I0403 15:38:46.585525 20112 net.cpp:148] Top shape: 24 24 14 14 (112896)
I0403 15:38:46.585541 20112 net.cpp:156] Memory required for data: 1048562976
I0403 15:38:46.585554 20112 layer_factory.hpp:77] Creating layer inception_4c/5x5
I0403 15:38:46.585577 20112 net.cpp:91] Creating Layer inception_4c/5x5
I0403 15:38:46.585593 20112 net.cpp:425] inception_4c/5x5 <- inception_4c/5x5_reduce
I0403 15:38:46.585614 20112 net.cpp:399] inception_4c/5x5 -> inception_4c/5x5
I0403 15:38:46.586882 20112 net.cpp:141] Setting up inception_4c/5x5
I0403 15:38:46.586912 20112 net.cpp:148] Top shape: 24 64 14 14 (301056)
I0403 15:38:46.586930 20112 net.cpp:156] Memory required for data: 1049767200
I0403 15:38:46.586948 20112 layer_factory.hpp:77] Creating layer inception_4c/relu_5x5
I0403 15:38:46.586973 20112 net.cpp:91] Creating Layer inception_4c/relu_5x5
I0403 15:38:46.586989 20112 net.cpp:425] inception_4c/relu_5x5 <- inception_4c/5x5
I0403 15:38:46.587009 20112 net.cpp:386] inception_4c/relu_5x5 -> inception_4c/5x5 (in-place)
I0403 15:38:46.587303 20112 net.cpp:141] Setting up inception_4c/relu_5x5
I0403 15:38:46.587332 20112 net.cpp:148] Top shape: 24 64 14 14 (301056)
I0403 15:38:46.587348 20112 net.cpp:156] Memory required for data: 1050971424
I0403 15:38:46.587363 20112 layer_factory.hpp:77] Creating layer inception_4c/pool
I0403 15:38:46.587380 20112 net.cpp:91] Creating Layer inception_4c/pool
I0403 15:38:46.587395 20112 net.cpp:425] inception_4c/pool <- inception_4b/output_inception_4b/output_0_split_3
I0403 15:38:46.587415 20112 net.cpp:399] inception_4c/pool -> inception_4c/pool
I0403 15:38:46.587481 20112 net.cpp:141] Setting up inception_4c/pool
I0403 15:38:46.587507 20112 net.cpp:148] Top shape: 24 512 14 14 (2408448)
I0403 15:38:46.587522 20112 net.cpp:156] Memory required for data: 1060605216
I0403 15:38:46.587535 20112 layer_factory.hpp:77] Creating layer inception_4c/pool_proj
I0403 15:38:46.587555 20112 net.cpp:91] Creating Layer inception_4c/pool_proj
I0403 15:38:46.587573 20112 net.cpp:425] inception_4c/pool_proj <- inception_4c/pool
I0403 15:38:46.587592 20112 net.cpp:399] inception_4c/pool_proj -> inception_4c/pool_proj
I0403 15:38:46.588852 20112 net.cpp:141] Setting up inception_4c/pool_proj
I0403 15:38:46.588881 20112 net.cpp:148] Top shape: 24 64 14 14 (301056)
I0403 15:38:46.588909 20112 net.cpp:156] Memory required for data: 1061809440
I0403 15:38:46.588929 20112 layer_factory.hpp:77] Creating layer inception_4c/relu_pool_proj
I0403 15:38:46.588984 20112 net.cpp:91] Creating Layer inception_4c/relu_pool_proj
I0403 15:38:46.589001 20112 net.cpp:425] inception_4c/relu_pool_proj <- inception_4c/pool_proj
I0403 15:38:46.589020 20112 net.cpp:386] inception_4c/relu_pool_proj -> inception_4c/pool_proj (in-place)
I0403 15:38:46.589212 20112 net.cpp:141] Setting up inception_4c/relu_pool_proj
I0403 15:38:46.589252 20112 net.cpp:148] Top shape: 24 64 14 14 (301056)
I0403 15:38:46.589267 20112 net.cpp:156] Memory required for data: 1063013664
I0403 15:38:46.589282 20112 layer_factory.hpp:77] Creating layer inception_4c/output
I0403 15:38:46.589298 20112 net.cpp:91] Creating Layer inception_4c/output
I0403 15:38:46.589313 20112 net.cpp:425] inception_4c/output <- inception_4c/1x1
I0403 15:38:46.589329 20112 net.cpp:425] inception_4c/output <- inception_4c/3x3
I0403 15:38:46.589346 20112 net.cpp:425] inception_4c/output <- inception_4c/5x5
I0403 15:38:46.589360 20112 net.cpp:425] inception_4c/output <- inception_4c/pool_proj
I0403 15:38:46.589380 20112 net.cpp:399] inception_4c/output -> inception_4c/output
I0403 15:38:46.589426 20112 net.cpp:141] Setting up inception_4c/output
I0403 15:38:46.589449 20112 net.cpp:148] Top shape: 24 512 14 14 (2408448)
I0403 15:38:46.589463 20112 net.cpp:156] Memory required for data: 1072647456
I0403 15:38:46.589478 20112 layer_factory.hpp:77] Creating layer inception_4c/output_inception_4c/output_0_split
I0403 15:38:46.589498 20112 net.cpp:91] Creating Layer inception_4c/output_inception_4c/output_0_split
I0403 15:38:46.589514 20112 net.cpp:425] inception_4c/output_inception_4c/output_0_split <- inception_4c/output
I0403 15:38:46.589531 20112 net.cpp:399] inception_4c/output_inception_4c/output_0_split -> inception_4c/output_inception_4c/output_0_split_0
I0403 15:38:46.589550 20112 net.cpp:399] inception_4c/output_inception_4c/output_0_split -> inception_4c/output_inception_4c/output_0_split_1
I0403 15:38:46.589572 20112 net.cpp:399] inception_4c/output_inception_4c/output_0_split -> inception_4c/output_inception_4c/output_0_split_2
I0403 15:38:46.589593 20112 net.cpp:399] inception_4c/output_inception_4c/output_0_split -> inception_4c/output_inception_4c/output_0_split_3
I0403 15:38:46.589680 20112 net.cpp:141] Setting up inception_4c/output_inception_4c/output_0_split
I0403 15:38:46.589704 20112 net.cpp:148] Top shape: 24 512 14 14 (2408448)
I0403 15:38:46.589720 20112 net.cpp:148] Top shape: 24 512 14 14 (2408448)
I0403 15:38:46.589735 20112 net.cpp:148] Top shape: 24 512 14 14 (2408448)
I0403 15:38:46.589750 20112 net.cpp:148] Top shape: 24 512 14 14 (2408448)
I0403 15:38:46.589762 20112 net.cpp:156] Memory required for data: 1111182624
I0403 15:38:46.589776 20112 layer_factory.hpp:77] Creating layer inception_4d/1x1
I0403 15:38:46.589798 20112 net.cpp:91] Creating Layer inception_4d/1x1
I0403 15:38:46.589815 20112 net.cpp:425] inception_4d/1x1 <- inception_4c/output_inception_4c/output_0_split_0
I0403 15:38:46.589835 20112 net.cpp:399] inception_4d/1x1 -> inception_4d/1x1
I0403 15:38:46.591271 20112 net.cpp:141] Setting up inception_4d/1x1
I0403 15:38:46.591300 20112 net.cpp:148] Top shape: 24 112 14 14 (526848)
I0403 15:38:46.591315 20112 net.cpp:156] Memory required for data: 1113290016
I0403 15:38:46.591333 20112 layer_factory.hpp:77] Creating layer inception_4d/relu_1x1
I0403 15:38:46.591353 20112 net.cpp:91] Creating Layer inception_4d/relu_1x1
I0403 15:38:46.591370 20112 net.cpp:425] inception_4d/relu_1x1 <- inception_4d/1x1
I0403 15:38:46.591387 20112 net.cpp:386] inception_4d/relu_1x1 -> inception_4d/1x1 (in-place)
I0403 15:38:46.591572 20112 net.cpp:141] Setting up inception_4d/relu_1x1
I0403 15:38:46.591596 20112 net.cpp:148] Top shape: 24 112 14 14 (526848)
I0403 15:38:46.591611 20112 net.cpp:156] Memory required for data: 1115397408
I0403 15:38:46.591625 20112 layer_factory.hpp:77] Creating layer inception_4d/3x3_reduce
I0403 15:38:46.591663 20112 net.cpp:91] Creating Layer inception_4d/3x3_reduce
I0403 15:38:46.591681 20112 net.cpp:425] inception_4d/3x3_reduce <- inception_4c/output_inception_4c/output_0_split_1
I0403 15:38:46.591701 20112 net.cpp:399] inception_4d/3x3_reduce -> inception_4d/3x3_reduce
I0403 15:38:46.593255 20112 net.cpp:141] Setting up inception_4d/3x3_reduce
I0403 15:38:46.593282 20112 net.cpp:148] Top shape: 24 144 14 14 (677376)
I0403 15:38:46.593297 20112 net.cpp:156] Memory required for data: 1118106912
I0403 15:38:46.593317 20112 layer_factory.hpp:77] Creating layer inception_4d/relu_3x3_reduce
I0403 15:38:46.593333 20112 net.cpp:91] Creating Layer inception_4d/relu_3x3_reduce
I0403 15:38:46.593349 20112 net.cpp:425] inception_4d/relu_3x3_reduce <- inception_4d/3x3_reduce
I0403 15:38:46.593369 20112 net.cpp:386] inception_4d/relu_3x3_reduce -> inception_4d/3x3_reduce (in-place)
I0403 15:38:46.593660 20112 net.cpp:141] Setting up inception_4d/relu_3x3_reduce
I0403 15:38:46.593688 20112 net.cpp:148] Top shape: 24 144 14 14 (677376)
I0403 15:38:46.593701 20112 net.cpp:156] Memory required for data: 1120816416
I0403 15:38:46.593716 20112 layer_factory.hpp:77] Creating layer inception_4d/3x3
I0403 15:38:46.593739 20112 net.cpp:91] Creating Layer inception_4d/3x3
I0403 15:38:46.593756 20112 net.cpp:425] inception_4d/3x3 <- inception_4d/3x3_reduce
I0403 15:38:46.593777 20112 net.cpp:399] inception_4d/3x3 -> inception_4d/3x3
I0403 15:38:46.598172 20112 net.cpp:141] Setting up inception_4d/3x3
I0403 15:38:46.598202 20112 net.cpp:148] Top shape: 24 288 14 14 (1354752)
I0403 15:38:46.598217 20112 net.cpp:156] Memory required for data: 1126235424
I0403 15:38:46.598235 20112 layer_factory.hpp:77] Creating layer inception_4d/relu_3x3
I0403 15:38:46.598255 20112 net.cpp:91] Creating Layer inception_4d/relu_3x3
I0403 15:38:46.598273 20112 net.cpp:425] inception_4d/relu_3x3 <- inception_4d/3x3
I0403 15:38:46.598289 20112 net.cpp:386] inception_4d/relu_3x3 -> inception_4d/3x3 (in-place)
I0403 15:38:46.598492 20112 net.cpp:141] Setting up inception_4d/relu_3x3
I0403 15:38:46.598521 20112 net.cpp:148] Top shape: 24 288 14 14 (1354752)
I0403 15:38:46.598536 20112 net.cpp:156] Memory required for data: 1131654432
I0403 15:38:46.598551 20112 layer_factory.hpp:77] Creating layer inception_4d/5x5_reduce
I0403 15:38:46.598569 20112 net.cpp:91] Creating Layer inception_4d/5x5_reduce
I0403 15:38:46.598584 20112 net.cpp:425] inception_4d/5x5_reduce <- inception_4c/output_inception_4c/output_0_split_2
I0403 15:38:46.598605 20112 net.cpp:399] inception_4d/5x5_reduce -> inception_4d/5x5_reduce
I0403 15:38:46.599755 20112 net.cpp:141] Setting up inception_4d/5x5_reduce
I0403 15:38:46.599782 20112 net.cpp:148] Top shape: 24 32 14 14 (150528)
I0403 15:38:46.599797 20112 net.cpp:156] Memory required for data: 1132256544
I0403 15:38:46.599815 20112 layer_factory.hpp:77] Creating layer inception_4d/relu_5x5_reduce
I0403 15:38:46.599834 20112 net.cpp:91] Creating Layer inception_4d/relu_5x5_reduce
I0403 15:38:46.599850 20112 net.cpp:425] inception_4d/relu_5x5_reduce <- inception_4d/5x5_reduce
I0403 15:38:46.599866 20112 net.cpp:386] inception_4d/relu_5x5_reduce -> inception_4d/5x5_reduce (in-place)
I0403 15:38:46.600060 20112 net.cpp:141] Setting up inception_4d/relu_5x5_reduce
I0403 15:38:46.600085 20112 net.cpp:148] Top shape: 24 32 14 14 (150528)
I0403 15:38:46.600100 20112 net.cpp:156] Memory required for data: 1132858656
I0403 15:38:46.600113 20112 layer_factory.hpp:77] Creating layer inception_4d/5x5
I0403 15:38:46.600136 20112 net.cpp:91] Creating Layer inception_4d/5x5
I0403 15:38:46.600153 20112 net.cpp:425] inception_4d/5x5 <- inception_4d/5x5_reduce
I0403 15:38:46.600172 20112 net.cpp:399] inception_4d/5x5 -> inception_4d/5x5
I0403 15:38:46.601644 20112 net.cpp:141] Setting up inception_4d/5x5
I0403 15:38:46.601675 20112 net.cpp:148] Top shape: 24 64 14 14 (301056)
I0403 15:38:46.601691 20112 net.cpp:156] Memory required for data: 1134062880
I0403 15:38:46.601708 20112 layer_factory.hpp:77] Creating layer inception_4d/relu_5x5
I0403 15:38:46.601742 20112 net.cpp:91] Creating Layer inception_4d/relu_5x5
I0403 15:38:46.601758 20112 net.cpp:425] inception_4d/relu_5x5 <- inception_4d/5x5
I0403 15:38:46.601778 20112 net.cpp:386] inception_4d/relu_5x5 -> inception_4d/5x5 (in-place)
I0403 15:38:46.602080 20112 net.cpp:141] Setting up inception_4d/relu_5x5
I0403 15:38:46.602109 20112 net.cpp:148] Top shape: 24 64 14 14 (301056)
I0403 15:38:46.602124 20112 net.cpp:156] Memory required for data: 1135267104
I0403 15:38:46.602138 20112 layer_factory.hpp:77] Creating layer inception_4d/pool
I0403 15:38:46.602155 20112 net.cpp:91] Creating Layer inception_4d/pool
I0403 15:38:46.602170 20112 net.cpp:425] inception_4d/pool <- inception_4c/output_inception_4c/output_0_split_3
I0403 15:38:46.602192 20112 net.cpp:399] inception_4d/pool -> inception_4d/pool
I0403 15:38:46.602257 20112 net.cpp:141] Setting up inception_4d/pool
I0403 15:38:46.602282 20112 net.cpp:148] Top shape: 24 512 14 14 (2408448)
I0403 15:38:46.602295 20112 net.cpp:156] Memory required for data: 1144900896
I0403 15:38:46.602309 20112 layer_factory.hpp:77] Creating layer inception_4d/pool_proj
I0403 15:38:46.602330 20112 net.cpp:91] Creating Layer inception_4d/pool_proj
I0403 15:38:46.602347 20112 net.cpp:425] inception_4d/pool_proj <- inception_4d/pool
I0403 15:38:46.602370 20112 net.cpp:399] inception_4d/pool_proj -> inception_4d/pool_proj
I0403 15:38:46.604135 20112 net.cpp:141] Setting up inception_4d/pool_proj
I0403 15:38:46.604162 20112 net.cpp:148] Top shape: 24 64 14 14 (301056)
I0403 15:38:46.604177 20112 net.cpp:156] Memory required for data: 1146105120
I0403 15:38:46.604197 20112 layer_factory.hpp:77] Creating layer inception_4d/relu_pool_proj
I0403 15:38:46.604215 20112 net.cpp:91] Creating Layer inception_4d/relu_pool_proj
I0403 15:38:46.604233 20112 net.cpp:425] inception_4d/relu_pool_proj <- inception_4d/pool_proj
I0403 15:38:46.604249 20112 net.cpp:386] inception_4d/relu_pool_proj -> inception_4d/pool_proj (in-place)
I0403 15:38:46.604430 20112 net.cpp:141] Setting up inception_4d/relu_pool_proj
I0403 15:38:46.604456 20112 net.cpp:148] Top shape: 24 64 14 14 (301056)
I0403 15:38:46.604471 20112 net.cpp:156] Memory required for data: 1147309344
I0403 15:38:46.604486 20112 layer_factory.hpp:77] Creating layer inception_4d/output
I0403 15:38:46.604503 20112 net.cpp:91] Creating Layer inception_4d/output
I0403 15:38:46.604517 20112 net.cpp:425] inception_4d/output <- inception_4d/1x1
I0403 15:38:46.604533 20112 net.cpp:425] inception_4d/output <- inception_4d/3x3
I0403 15:38:46.604549 20112 net.cpp:425] inception_4d/output <- inception_4d/5x5
I0403 15:38:46.604564 20112 net.cpp:425] inception_4d/output <- inception_4d/pool_proj
I0403 15:38:46.604580 20112 net.cpp:399] inception_4d/output -> inception_4d/output
I0403 15:38:46.604629 20112 net.cpp:141] Setting up inception_4d/output
I0403 15:38:46.604650 20112 net.cpp:148] Top shape: 24 528 14 14 (2483712)
I0403 15:38:46.604665 20112 net.cpp:156] Memory required for data: 1157244192
I0403 15:38:46.604678 20112 layer_factory.hpp:77] Creating layer inception_4d/output_inception_4d/output_0_split
I0403 15:38:46.604697 20112 net.cpp:91] Creating Layer inception_4d/output_inception_4d/output_0_split
I0403 15:38:46.604712 20112 net.cpp:425] inception_4d/output_inception_4d/output_0_split <- inception_4d/output
I0403 15:38:46.604730 20112 net.cpp:399] inception_4d/output_inception_4d/output_0_split -> inception_4d/output_inception_4d/output_0_split_0
I0403 15:38:46.604749 20112 net.cpp:399] inception_4d/output_inception_4d/output_0_split -> inception_4d/output_inception_4d/output_0_split_1
I0403 15:38:46.604768 20112 net.cpp:399] inception_4d/output_inception_4d/output_0_split -> inception_4d/output_inception_4d/output_0_split_2
I0403 15:38:46.604789 20112 net.cpp:399] inception_4d/output_inception_4d/output_0_split -> inception_4d/output_inception_4d/output_0_split_3
I0403 15:38:46.604809 20112 net.cpp:399] inception_4d/output_inception_4d/output_0_split -> inception_4d/output_inception_4d/output_0_split_4
I0403 15:38:46.604913 20112 net.cpp:141] Setting up inception_4d/output_inception_4d/output_0_split
I0403 15:38:46.604948 20112 net.cpp:148] Top shape: 24 528 14 14 (2483712)
I0403 15:38:46.604972 20112 net.cpp:148] Top shape: 24 528 14 14 (2483712)
I0403 15:38:46.604987 20112 net.cpp:148] Top shape: 24 528 14 14 (2483712)
I0403 15:38:46.605002 20112 net.cpp:148] Top shape: 24 528 14 14 (2483712)
I0403 15:38:46.605017 20112 net.cpp:148] Top shape: 24 528 14 14 (2483712)
I0403 15:38:46.605031 20112 net.cpp:156] Memory required for data: 1206918432
I0403 15:38:46.605044 20112 layer_factory.hpp:77] Creating layer loss2/ave_pool
I0403 15:38:46.605062 20112 net.cpp:91] Creating Layer loss2/ave_pool
I0403 15:38:46.605077 20112 net.cpp:425] loss2/ave_pool <- inception_4d/output_inception_4d/output_0_split_0
I0403 15:38:46.605098 20112 net.cpp:399] loss2/ave_pool -> loss2/ave_pool
I0403 15:38:46.605406 20112 net.cpp:141] Setting up loss2/ave_pool
I0403 15:38:46.605432 20112 net.cpp:148] Top shape: 24 528 4 4 (202752)
I0403 15:38:46.605448 20112 net.cpp:156] Memory required for data: 1207729440
I0403 15:38:46.605460 20112 layer_factory.hpp:77] Creating layer loss2/conv
I0403 15:38:46.605484 20112 net.cpp:91] Creating Layer loss2/conv
I0403 15:38:46.605500 20112 net.cpp:425] loss2/conv <- loss2/ave_pool
I0403 15:38:46.605520 20112 net.cpp:399] loss2/conv -> loss2/conv
I0403 15:38:46.607415 20112 net.cpp:141] Setting up loss2/conv
I0403 15:38:46.607447 20112 net.cpp:148] Top shape: 24 128 4 4 (49152)
I0403 15:38:46.607463 20112 net.cpp:156] Memory required for data: 1207926048
I0403 15:38:46.607481 20112 layer_factory.hpp:77] Creating layer loss2/relu_conv
I0403 15:38:46.607498 20112 net.cpp:91] Creating Layer loss2/relu_conv
I0403 15:38:46.607514 20112 net.cpp:425] loss2/relu_conv <- loss2/conv
I0403 15:38:46.607530 20112 net.cpp:386] loss2/relu_conv -> loss2/conv (in-place)
I0403 15:38:46.607813 20112 net.cpp:141] Setting up loss2/relu_conv
I0403 15:38:46.607841 20112 net.cpp:148] Top shape: 24 128 4 4 (49152)
I0403 15:38:46.607856 20112 net.cpp:156] Memory required for data: 1208122656
I0403 15:38:46.607872 20112 layer_factory.hpp:77] Creating layer loss2/fc
I0403 15:38:46.607889 20112 net.cpp:91] Creating Layer loss2/fc
I0403 15:38:46.607905 20112 net.cpp:425] loss2/fc <- loss2/conv
I0403 15:38:46.607925 20112 net.cpp:399] loss2/fc -> loss2/fc
I0403 15:38:46.625776 20112 net.cpp:141] Setting up loss2/fc
I0403 15:38:46.625810 20112 net.cpp:148] Top shape: 24 1024 (24576)
I0403 15:38:46.625826 20112 net.cpp:156] Memory required for data: 1208220960
I0403 15:38:46.625845 20112 layer_factory.hpp:77] Creating layer loss2/relu_fc
I0403 15:38:46.625866 20112 net.cpp:91] Creating Layer loss2/relu_fc
I0403 15:38:46.625882 20112 net.cpp:425] loss2/relu_fc <- loss2/fc
I0403 15:38:46.625900 20112 net.cpp:386] loss2/relu_fc -> loss2/fc (in-place)
I0403 15:38:46.626227 20112 net.cpp:141] Setting up loss2/relu_fc
I0403 15:38:46.626253 20112 net.cpp:148] Top shape: 24 1024 (24576)
I0403 15:38:46.626268 20112 net.cpp:156] Memory required for data: 1208319264
I0403 15:38:46.626282 20112 layer_factory.hpp:77] Creating layer loss2/drop_fc
I0403 15:38:46.626302 20112 net.cpp:91] Creating Layer loss2/drop_fc
I0403 15:38:46.626317 20112 net.cpp:425] loss2/drop_fc <- loss2/fc
I0403 15:38:46.626334 20112 net.cpp:386] loss2/drop_fc -> loss2/fc (in-place)
I0403 15:38:46.626386 20112 net.cpp:141] Setting up loss2/drop_fc
I0403 15:38:46.626408 20112 net.cpp:148] Top shape: 24 1024 (24576)
I0403 15:38:46.626422 20112 net.cpp:156] Memory required for data: 1208417568
I0403 15:38:46.626437 20112 layer_factory.hpp:77] Creating layer loss2/classifier_plantvillage
I0403 15:38:46.626454 20112 net.cpp:91] Creating Layer loss2/classifier_plantvillage
I0403 15:38:46.626472 20112 net.cpp:425] loss2/classifier_plantvillage <- loss2/fc
I0403 15:38:46.626490 20112 net.cpp:399] loss2/classifier_plantvillage -> loss2/classifier_plantvillage
I0403 15:38:46.626904 20112 net.cpp:141] Setting up loss2/classifier_plantvillage
I0403 15:38:46.626929 20112 net.cpp:148] Top shape: 24 38 (912)
I0403 15:38:46.626972 20112 net.cpp:156] Memory required for data: 1208421216
I0403 15:38:46.626992 20112 layer_factory.hpp:77] Creating layer loss2/classifier_plantvillage_loss2/classifier_plantvillage_0_split
I0403 15:38:46.627009 20112 net.cpp:91] Creating Layer loss2/classifier_plantvillage_loss2/classifier_plantvillage_0_split
I0403 15:38:46.627025 20112 net.cpp:425] loss2/classifier_plantvillage_loss2/classifier_plantvillage_0_split <- loss2/classifier_plantvillage
I0403 15:38:46.627044 20112 net.cpp:399] loss2/classifier_plantvillage_loss2/classifier_plantvillage_0_split -> loss2/classifier_plantvillage_loss2/classifier_plantvillage_0_split_0
I0403 15:38:46.627065 20112 net.cpp:399] loss2/classifier_plantvillage_loss2/classifier_plantvillage_0_split -> loss2/classifier_plantvillage_loss2/classifier_plantvillage_0_split_1
I0403 15:38:46.627085 20112 net.cpp:399] loss2/classifier_plantvillage_loss2/classifier_plantvillage_0_split -> loss2/classifier_plantvillage_loss2/classifier_plantvillage_0_split_2
I0403 15:38:46.627162 20112 net.cpp:141] Setting up loss2/classifier_plantvillage_loss2/classifier_plantvillage_0_split
I0403 15:38:46.627187 20112 net.cpp:148] Top shape: 24 38 (912)
I0403 15:38:46.627202 20112 net.cpp:148] Top shape: 24 38 (912)
I0403 15:38:46.627218 20112 net.cpp:148] Top shape: 24 38 (912)
I0403 15:38:46.627230 20112 net.cpp:156] Memory required for data: 1208432160
I0403 15:38:46.627244 20112 layer_factory.hpp:77] Creating layer inception_4e/1x1
I0403 15:38:46.627266 20112 net.cpp:91] Creating Layer inception_4e/1x1
I0403 15:38:46.627284 20112 net.cpp:425] inception_4e/1x1 <- inception_4d/output_inception_4d/output_0_split_1
I0403 15:38:46.627301 20112 net.cpp:399] inception_4e/1x1 -> inception_4e/1x1
I0403 15:38:46.629156 20112 net.cpp:141] Setting up inception_4e/1x1
I0403 15:38:46.629186 20112 net.cpp:148] Top shape: 24 256 14 14 (1204224)
I0403 15:38:46.629202 20112 net.cpp:156] Memory required for data: 1213249056
I0403 15:38:46.629220 20112 layer_factory.hpp:77] Creating layer inception_4e/relu_1x1
I0403 15:38:46.629237 20112 net.cpp:91] Creating Layer inception_4e/relu_1x1
I0403 15:38:46.629252 20112 net.cpp:425] inception_4e/relu_1x1 <- inception_4e/1x1
I0403 15:38:46.629271 20112 net.cpp:386] inception_4e/relu_1x1 -> inception_4e/1x1 (in-place)
I0403 15:38:46.629566 20112 net.cpp:141] Setting up inception_4e/relu_1x1
I0403 15:38:46.629595 20112 net.cpp:148] Top shape: 24 256 14 14 (1204224)
I0403 15:38:46.629611 20112 net.cpp:156] Memory required for data: 1218065952
I0403 15:38:46.629626 20112 layer_factory.hpp:77] Creating layer inception_4e/3x3_reduce
I0403 15:38:46.629647 20112 net.cpp:91] Creating Layer inception_4e/3x3_reduce
I0403 15:38:46.629664 20112 net.cpp:425] inception_4e/3x3_reduce <- inception_4d/output_inception_4d/output_0_split_2
I0403 15:38:46.629683 20112 net.cpp:399] inception_4e/3x3_reduce -> inception_4e/3x3_reduce
I0403 15:38:46.631903 20112 net.cpp:141] Setting up inception_4e/3x3_reduce
I0403 15:38:46.631937 20112 net.cpp:148] Top shape: 24 160 14 14 (752640)
I0403 15:38:46.631960 20112 net.cpp:156] Memory required for data: 1221076512
I0403 15:38:46.631980 20112 layer_factory.hpp:77] Creating layer inception_4e/relu_3x3_reduce
I0403 15:38:46.631999 20112 net.cpp:91] Creating Layer inception_4e/relu_3x3_reduce
I0403 15:38:46.632014 20112 net.cpp:425] inception_4e/relu_3x3_reduce <- inception_4e/3x3_reduce
I0403 15:38:46.632031 20112 net.cpp:386] inception_4e/relu_3x3_reduce -> inception_4e/3x3_reduce (in-place)
I0403 15:38:46.632220 20112 net.cpp:141] Setting up inception_4e/relu_3x3_reduce
I0403 15:38:46.632247 20112 net.cpp:148] Top shape: 24 160 14 14 (752640)
I0403 15:38:46.632262 20112 net.cpp:156] Memory required for data: 1224087072
I0403 15:38:46.632277 20112 layer_factory.hpp:77] Creating layer inception_4e/3x3
I0403 15:38:46.632299 20112 net.cpp:91] Creating Layer inception_4e/3x3
I0403 15:38:46.632316 20112 net.cpp:425] inception_4e/3x3 <- inception_4e/3x3_reduce
I0403 15:38:46.632339 20112 net.cpp:399] inception_4e/3x3 -> inception_4e/3x3
I0403 15:38:46.637492 20112 net.cpp:141] Setting up inception_4e/3x3
I0403 15:38:46.637536 20112 net.cpp:148] Top shape: 24 320 14 14 (1505280)
I0403 15:38:46.637552 20112 net.cpp:156] Memory required for data: 1230108192
I0403 15:38:46.637570 20112 layer_factory.hpp:77] Creating layer inception_4e/relu_3x3
I0403 15:38:46.637588 20112 net.cpp:91] Creating Layer inception_4e/relu_3x3
I0403 15:38:46.637604 20112 net.cpp:425] inception_4e/relu_3x3 <- inception_4e/3x3
I0403 15:38:46.637624 20112 net.cpp:386] inception_4e/relu_3x3 -> inception_4e/3x3 (in-place)
I0403 15:38:46.637928 20112 net.cpp:141] Setting up inception_4e/relu_3x3
I0403 15:38:46.637967 20112 net.cpp:148] Top shape: 24 320 14 14 (1505280)
I0403 15:38:46.637985 20112 net.cpp:156] Memory required for data: 1236129312
I0403 15:38:46.638000 20112 layer_factory.hpp:77] Creating layer inception_4e/5x5_reduce
I0403 15:38:46.638025 20112 net.cpp:91] Creating Layer inception_4e/5x5_reduce
I0403 15:38:46.638041 20112 net.cpp:425] inception_4e/5x5_reduce <- inception_4d/output_inception_4d/output_0_split_3
I0403 15:38:46.638064 20112 net.cpp:399] inception_4e/5x5_reduce -> inception_4e/5x5_reduce
I0403 15:38:46.639173 20112 net.cpp:141] Setting up inception_4e/5x5_reduce
I0403 15:38:46.639204 20112 net.cpp:148] Top shape: 24 32 14 14 (150528)
I0403 15:38:46.639220 20112 net.cpp:156] Memory required for data: 1236731424
I0403 15:38:46.639238 20112 layer_factory.hpp:77] Creating layer inception_4e/relu_5x5_reduce
I0403 15:38:46.639256 20112 net.cpp:91] Creating Layer inception_4e/relu_5x5_reduce
I0403 15:38:46.639271 20112 net.cpp:425] inception_4e/relu_5x5_reduce <- inception_4e/5x5_reduce
I0403 15:38:46.639292 20112 net.cpp:386] inception_4e/relu_5x5_reduce -> inception_4e/5x5_reduce (in-place)
I0403 15:38:46.639595 20112 net.cpp:141] Setting up inception_4e/relu_5x5_reduce
I0403 15:38:46.639624 20112 net.cpp:148] Top shape: 24 32 14 14 (150528)
I0403 15:38:46.639642 20112 net.cpp:156] Memory required for data: 1237333536
I0403 15:38:46.639657 20112 layer_factory.hpp:77] Creating layer inception_4e/5x5
I0403 15:38:46.639696 20112 net.cpp:91] Creating Layer inception_4e/5x5
I0403 15:38:46.639715 20112 net.cpp:425] inception_4e/5x5 <- inception_4e/5x5_reduce
I0403 15:38:46.639735 20112 net.cpp:399] inception_4e/5x5 -> inception_4e/5x5
I0403 15:38:46.641649 20112 net.cpp:141] Setting up inception_4e/5x5
I0403 15:38:46.641676 20112 net.cpp:148] Top shape: 24 128 14 14 (602112)
I0403 15:38:46.641692 20112 net.cpp:156] Memory required for data: 1239741984
I0403 15:38:46.641711 20112 layer_factory.hpp:77] Creating layer inception_4e/relu_5x5
I0403 15:38:46.641731 20112 net.cpp:91] Creating Layer inception_4e/relu_5x5
I0403 15:38:46.641747 20112 net.cpp:425] inception_4e/relu_5x5 <- inception_4e/5x5
I0403 15:38:46.641765 20112 net.cpp:386] inception_4e/relu_5x5 -> inception_4e/5x5 (in-place)
I0403 15:38:46.641974 20112 net.cpp:141] Setting up inception_4e/relu_5x5
I0403 15:38:46.642002 20112 net.cpp:148] Top shape: 24 128 14 14 (602112)
I0403 15:38:46.642030 20112 net.cpp:156] Memory required for data: 1242150432
I0403 15:38:46.642045 20112 layer_factory.hpp:77] Creating layer inception_4e/pool
I0403 15:38:46.642065 20112 net.cpp:91] Creating Layer inception_4e/pool
I0403 15:38:46.642081 20112 net.cpp:425] inception_4e/pool <- inception_4d/output_inception_4d/output_0_split_4
I0403 15:38:46.642102 20112 net.cpp:399] inception_4e/pool -> inception_4e/pool
I0403 15:38:46.642176 20112 net.cpp:141] Setting up inception_4e/pool
I0403 15:38:46.642201 20112 net.cpp:148] Top shape: 24 528 14 14 (2483712)
I0403 15:38:46.642215 20112 net.cpp:156] Memory required for data: 1252085280
I0403 15:38:46.642230 20112 layer_factory.hpp:77] Creating layer inception_4e/pool_proj
I0403 15:38:46.642252 20112 net.cpp:91] Creating Layer inception_4e/pool_proj
I0403 15:38:46.642271 20112 net.cpp:425] inception_4e/pool_proj <- inception_4e/pool
I0403 15:38:46.642292 20112 net.cpp:399] inception_4e/pool_proj -> inception_4e/pool_proj
I0403 15:38:46.643865 20112 net.cpp:141] Setting up inception_4e/pool_proj
I0403 15:38:46.643905 20112 net.cpp:148] Top shape: 24 128 14 14 (602112)
I0403 15:38:46.643921 20112 net.cpp:156] Memory required for data: 1254493728
I0403 15:38:46.643939 20112 layer_factory.hpp:77] Creating layer inception_4e/relu_pool_proj
I0403 15:38:46.643972 20112 net.cpp:91] Creating Layer inception_4e/relu_pool_proj
I0403 15:38:46.643992 20112 net.cpp:425] inception_4e/relu_pool_proj <- inception_4e/pool_proj
I0403 15:38:46.644011 20112 net.cpp:386] inception_4e/relu_pool_proj -> inception_4e/pool_proj (in-place)
I0403 15:38:46.644315 20112 net.cpp:141] Setting up inception_4e/relu_pool_proj
I0403 15:38:46.644340 20112 net.cpp:148] Top shape: 24 128 14 14 (602112)
I0403 15:38:46.644356 20112 net.cpp:156] Memory required for data: 1256902176
I0403 15:38:46.644371 20112 layer_factory.hpp:77] Creating layer inception_4e/output
I0403 15:38:46.644387 20112 net.cpp:91] Creating Layer inception_4e/output
I0403 15:38:46.644403 20112 net.cpp:425] inception_4e/output <- inception_4e/1x1
I0403 15:38:46.644419 20112 net.cpp:425] inception_4e/output <- inception_4e/3x3
I0403 15:38:46.644435 20112 net.cpp:425] inception_4e/output <- inception_4e/5x5
I0403 15:38:46.644450 20112 net.cpp:425] inception_4e/output <- inception_4e/pool_proj
I0403 15:38:46.644469 20112 net.cpp:399] inception_4e/output -> inception_4e/output
I0403 15:38:46.644522 20112 net.cpp:141] Setting up inception_4e/output
I0403 15:38:46.644546 20112 net.cpp:148] Top shape: 24 832 14 14 (3913728)
I0403 15:38:46.644559 20112 net.cpp:156] Memory required for data: 1272557088
I0403 15:38:46.644574 20112 layer_factory.hpp:77] Creating layer pool4/3x3_s2
I0403 15:38:46.644590 20112 net.cpp:91] Creating Layer pool4/3x3_s2
I0403 15:38:46.644606 20112 net.cpp:425] pool4/3x3_s2 <- inception_4e/output
I0403 15:38:46.644626 20112 net.cpp:399] pool4/3x3_s2 -> pool4/3x3_s2
I0403 15:38:46.644695 20112 net.cpp:141] Setting up pool4/3x3_s2
I0403 15:38:46.644718 20112 net.cpp:148] Top shape: 24 832 7 7 (978432)
I0403 15:38:46.644731 20112 net.cpp:156] Memory required for data: 1276470816
I0403 15:38:46.644745 20112 layer_factory.hpp:77] Creating layer pool4/3x3_s2_pool4/3x3_s2_0_split
I0403 15:38:46.644767 20112 net.cpp:91] Creating Layer pool4/3x3_s2_pool4/3x3_s2_0_split
I0403 15:38:46.644783 20112 net.cpp:425] pool4/3x3_s2_pool4/3x3_s2_0_split <- pool4/3x3_s2
I0403 15:38:46.644799 20112 net.cpp:399] pool4/3x3_s2_pool4/3x3_s2_0_split -> pool4/3x3_s2_pool4/3x3_s2_0_split_0
I0403 15:38:46.644822 20112 net.cpp:399] pool4/3x3_s2_pool4/3x3_s2_0_split -> pool4/3x3_s2_pool4/3x3_s2_0_split_1
I0403 15:38:46.644842 20112 net.cpp:399] pool4/3x3_s2_pool4/3x3_s2_0_split -> pool4/3x3_s2_pool4/3x3_s2_0_split_2
I0403 15:38:46.644861 20112 net.cpp:399] pool4/3x3_s2_pool4/3x3_s2_0_split -> pool4/3x3_s2_pool4/3x3_s2_0_split_3
I0403 15:38:46.644953 20112 net.cpp:141] Setting up pool4/3x3_s2_pool4/3x3_s2_0_split
I0403 15:38:46.644984 20112 net.cpp:148] Top shape: 24 832 7 7 (978432)
I0403 15:38:46.644999 20112 net.cpp:148] Top shape: 24 832 7 7 (978432)
I0403 15:38:46.645015 20112 net.cpp:148] Top shape: 24 832 7 7 (978432)
I0403 15:38:46.645030 20112 net.cpp:148] Top shape: 24 832 7 7 (978432)
I0403 15:38:46.645045 20112 net.cpp:156] Memory required for data: 1292125728
I0403 15:38:46.645058 20112 layer_factory.hpp:77] Creating layer inception_5a/1x1
I0403 15:38:46.645081 20112 net.cpp:91] Creating Layer inception_5a/1x1
I0403 15:38:46.645097 20112 net.cpp:425] inception_5a/1x1 <- pool4/3x3_s2_pool4/3x3_s2_0_split_0
I0403 15:38:46.645118 20112 net.cpp:399] inception_5a/1x1 -> inception_5a/1x1
I0403 15:38:46.648107 20112 net.cpp:141] Setting up inception_5a/1x1
I0403 15:38:46.648138 20112 net.cpp:148] Top shape: 24 256 7 7 (301056)
I0403 15:38:46.648156 20112 net.cpp:156] Memory required for data: 1293329952
I0403 15:38:46.648175 20112 layer_factory.hpp:77] Creating layer inception_5a/relu_1x1
I0403 15:38:46.648192 20112 net.cpp:91] Creating Layer inception_5a/relu_1x1
I0403 15:38:46.648208 20112 net.cpp:425] inception_5a/relu_1x1 <- inception_5a/1x1
I0403 15:38:46.648226 20112 net.cpp:386] inception_5a/relu_1x1 -> inception_5a/1x1 (in-place)
I0403 15:38:46.648547 20112 net.cpp:141] Setting up inception_5a/relu_1x1
I0403 15:38:46.648574 20112 net.cpp:148] Top shape: 24 256 7 7 (301056)
I0403 15:38:46.648592 20112 net.cpp:156] Memory required for data: 1294534176
I0403 15:38:46.648607 20112 layer_factory.hpp:77] Creating layer inception_5a/3x3_reduce
I0403 15:38:46.648627 20112 net.cpp:91] Creating Layer inception_5a/3x3_reduce
I0403 15:38:46.648645 20112 net.cpp:425] inception_5a/3x3_reduce <- pool4/3x3_s2_pool4/3x3_s2_0_split_1
I0403 15:38:46.648666 20112 net.cpp:399] inception_5a/3x3_reduce -> inception_5a/3x3_reduce
I0403 15:38:46.651166 20112 net.cpp:141] Setting up inception_5a/3x3_reduce
I0403 15:38:46.651196 20112 net.cpp:148] Top shape: 24 160 7 7 (188160)
I0403 15:38:46.651211 20112 net.cpp:156] Memory required for data: 1295286816
I0403 15:38:46.651228 20112 layer_factory.hpp:77] Creating layer inception_5a/relu_3x3_reduce
I0403 15:38:46.651245 20112 net.cpp:91] Creating Layer inception_5a/relu_3x3_reduce
I0403 15:38:46.651262 20112 net.cpp:425] inception_5a/relu_3x3_reduce <- inception_5a/3x3_reduce
I0403 15:38:46.651280 20112 net.cpp:386] inception_5a/relu_3x3_reduce -> inception_5a/3x3_reduce (in-place)
I0403 15:38:46.651466 20112 net.cpp:141] Setting up inception_5a/relu_3x3_reduce
I0403 15:38:46.651490 20112 net.cpp:148] Top shape: 24 160 7 7 (188160)
I0403 15:38:46.651504 20112 net.cpp:156] Memory required for data: 1296039456
I0403 15:38:46.651520 20112 layer_factory.hpp:77] Creating layer inception_5a/3x3
I0403 15:38:46.651540 20112 net.cpp:91] Creating Layer inception_5a/3x3
I0403 15:38:46.651556 20112 net.cpp:425] inception_5a/3x3 <- inception_5a/3x3_reduce
I0403 15:38:46.651577 20112 net.cpp:399] inception_5a/3x3 -> inception_5a/3x3
I0403 15:38:46.656613 20112 net.cpp:141] Setting up inception_5a/3x3
I0403 15:38:46.656643 20112 net.cpp:148] Top shape: 24 320 7 7 (376320)
I0403 15:38:46.656658 20112 net.cpp:156] Memory required for data: 1297544736
I0403 15:38:46.656677 20112 layer_factory.hpp:77] Creating layer inception_5a/relu_3x3
I0403 15:38:46.656695 20112 net.cpp:91] Creating Layer inception_5a/relu_3x3
I0403 15:38:46.656711 20112 net.cpp:425] inception_5a/relu_3x3 <- inception_5a/3x3
I0403 15:38:46.656728 20112 net.cpp:386] inception_5a/relu_3x3 -> inception_5a/3x3 (in-place)
I0403 15:38:46.657032 20112 net.cpp:141] Setting up inception_5a/relu_3x3
I0403 15:38:46.657058 20112 net.cpp:148] Top shape: 24 320 7 7 (376320)
I0403 15:38:46.657073 20112 net.cpp:156] Memory required for data: 1299050016
I0403 15:38:46.657086 20112 layer_factory.hpp:77] Creating layer inception_5a/5x5_reduce
I0403 15:38:46.657109 20112 net.cpp:91] Creating Layer inception_5a/5x5_reduce
I0403 15:38:46.657130 20112 net.cpp:425] inception_5a/5x5_reduce <- pool4/3x3_s2_pool4/3x3_s2_0_split_2
I0403 15:38:46.657147 20112 net.cpp:399] inception_5a/5x5_reduce -> inception_5a/5x5_reduce
I0403 15:38:46.658332 20112 net.cpp:141] Setting up inception_5a/5x5_reduce
I0403 15:38:46.658362 20112 net.cpp:148] Top shape: 24 32 7 7 (37632)
I0403 15:38:46.658380 20112 net.cpp:156] Memory required for data: 1299200544
I0403 15:38:46.658397 20112 layer_factory.hpp:77] Creating layer inception_5a/relu_5x5_reduce
I0403 15:38:46.658414 20112 net.cpp:91] Creating Layer inception_5a/relu_5x5_reduce
I0403 15:38:46.658429 20112 net.cpp:425] inception_5a/relu_5x5_reduce <- inception_5a/5x5_reduce
I0403 15:38:46.658445 20112 net.cpp:386] inception_5a/relu_5x5_reduce -> inception_5a/5x5_reduce (in-place)
I0403 15:38:46.658749 20112 net.cpp:141] Setting up inception_5a/relu_5x5_reduce
I0403 15:38:46.658777 20112 net.cpp:148] Top shape: 24 32 7 7 (37632)
I0403 15:38:46.658792 20112 net.cpp:156] Memory required for data: 1299351072
I0403 15:38:46.658807 20112 layer_factory.hpp:77] Creating layer inception_5a/5x5
I0403 15:38:46.658828 20112 net.cpp:91] Creating Layer inception_5a/5x5
I0403 15:38:46.658846 20112 net.cpp:425] inception_5a/5x5 <- inception_5a/5x5_reduce
I0403 15:38:46.658864 20112 net.cpp:399] inception_5a/5x5 -> inception_5a/5x5
I0403 15:38:46.660599 20112 net.cpp:141] Setting up inception_5a/5x5
I0403 15:38:46.660639 20112 net.cpp:148] Top shape: 24 128 7 7 (150528)
I0403 15:38:46.660655 20112 net.cpp:156] Memory required for data: 1299953184
I0403 15:38:46.660672 20112 layer_factory.hpp:77] Creating layer inception_5a/relu_5x5
I0403 15:38:46.660691 20112 net.cpp:91] Creating Layer inception_5a/relu_5x5
I0403 15:38:46.660708 20112 net.cpp:425] inception_5a/relu_5x5 <- inception_5a/5x5
I0403 15:38:46.660725 20112 net.cpp:386] inception_5a/relu_5x5 -> inception_5a/5x5 (in-place)
I0403 15:38:46.660913 20112 net.cpp:141] Setting up inception_5a/relu_5x5
I0403 15:38:46.660940 20112 net.cpp:148] Top shape: 24 128 7 7 (150528)
I0403 15:38:46.660961 20112 net.cpp:156] Memory required for data: 1300555296
I0403 15:38:46.660977 20112 layer_factory.hpp:77] Creating layer inception_5a/pool
I0403 15:38:46.660995 20112 net.cpp:91] Creating Layer inception_5a/pool
I0403 15:38:46.661010 20112 net.cpp:425] inception_5a/pool <- pool4/3x3_s2_pool4/3x3_s2_0_split_3
I0403 15:38:46.661031 20112 net.cpp:399] inception_5a/pool -> inception_5a/pool
I0403 15:38:46.661101 20112 net.cpp:141] Setting up inception_5a/pool
I0403 15:38:46.661124 20112 net.cpp:148] Top shape: 24 832 7 7 (978432)
I0403 15:38:46.661139 20112 net.cpp:156] Memory required for data: 1304469024
I0403 15:38:46.661151 20112 layer_factory.hpp:77] Creating layer inception_5a/pool_proj
I0403 15:38:46.661173 20112 net.cpp:91] Creating Layer inception_5a/pool_proj
I0403 15:38:46.661191 20112 net.cpp:425] inception_5a/pool_proj <- inception_5a/pool
I0403 15:38:46.661211 20112 net.cpp:399] inception_5a/pool_proj -> inception_5a/pool_proj
I0403 15:38:46.663563 20112 net.cpp:141] Setting up inception_5a/pool_proj
I0403 15:38:46.663594 20112 net.cpp:148] Top shape: 24 128 7 7 (150528)
I0403 15:38:46.663609 20112 net.cpp:156] Memory required for data: 1305071136
I0403 15:38:46.663626 20112 layer_factory.hpp:77] Creating layer inception_5a/relu_pool_proj
I0403 15:38:46.663646 20112 net.cpp:91] Creating Layer inception_5a/relu_pool_proj
I0403 15:38:46.663663 20112 net.cpp:425] inception_5a/relu_pool_proj <- inception_5a/pool_proj
I0403 15:38:46.663681 20112 net.cpp:386] inception_5a/relu_pool_proj -> inception_5a/pool_proj (in-place)
I0403 15:38:46.663990 20112 net.cpp:141] Setting up inception_5a/relu_pool_proj
I0403 15:38:46.664016 20112 net.cpp:148] Top shape: 24 128 7 7 (150528)
I0403 15:38:46.664031 20112 net.cpp:156] Memory required for data: 1305673248
I0403 15:38:46.664046 20112 layer_factory.hpp:77] Creating layer inception_5a/output
I0403 15:38:46.664067 20112 net.cpp:91] Creating Layer inception_5a/output
I0403 15:38:46.664083 20112 net.cpp:425] inception_5a/output <- inception_5a/1x1
I0403 15:38:46.664098 20112 net.cpp:425] inception_5a/output <- inception_5a/3x3
I0403 15:38:46.664114 20112 net.cpp:425] inception_5a/output <- inception_5a/5x5
I0403 15:38:46.664130 20112 net.cpp:425] inception_5a/output <- inception_5a/pool_proj
I0403 15:38:46.664147 20112 net.cpp:399] inception_5a/output -> inception_5a/output
I0403 15:38:46.664197 20112 net.cpp:141] Setting up inception_5a/output
I0403 15:38:46.664223 20112 net.cpp:148] Top shape: 24 832 7 7 (978432)
I0403 15:38:46.664238 20112 net.cpp:156] Memory required for data: 1309586976
I0403 15:38:46.664252 20112 layer_factory.hpp:77] Creating layer inception_5a/output_inception_5a/output_0_split
I0403 15:38:46.664269 20112 net.cpp:91] Creating Layer inception_5a/output_inception_5a/output_0_split
I0403 15:38:46.664284 20112 net.cpp:425] inception_5a/output_inception_5a/output_0_split <- inception_5a/output
I0403 15:38:46.664304 20112 net.cpp:399] inception_5a/output_inception_5a/output_0_split -> inception_5a/output_inception_5a/output_0_split_0
I0403 15:38:46.664325 20112 net.cpp:399] inception_5a/output_inception_5a/output_0_split -> inception_5a/output_inception_5a/output_0_split_1
I0403 15:38:46.664345 20112 net.cpp:399] inception_5a/output_inception_5a/output_0_split -> inception_5a/output_inception_5a/output_0_split_2
I0403 15:38:46.664364 20112 net.cpp:399] inception_5a/output_inception_5a/output_0_split -> inception_5a/output_inception_5a/output_0_split_3
I0403 15:38:46.664479 20112 net.cpp:141] Setting up inception_5a/output_inception_5a/output_0_split
I0403 15:38:46.664506 20112 net.cpp:148] Top shape: 24 832 7 7 (978432)
I0403 15:38:46.664523 20112 net.cpp:148] Top shape: 24 832 7 7 (978432)
I0403 15:38:46.664540 20112 net.cpp:148] Top shape: 24 832 7 7 (978432)
I0403 15:38:46.664554 20112 net.cpp:148] Top shape: 24 832 7 7 (978432)
I0403 15:38:46.664568 20112 net.cpp:156] Memory required for data: 1325241888
I0403 15:38:46.664582 20112 layer_factory.hpp:77] Creating layer inception_5b/1x1
I0403 15:38:46.664605 20112 net.cpp:91] Creating Layer inception_5b/1x1
I0403 15:38:46.664623 20112 net.cpp:425] inception_5b/1x1 <- inception_5a/output_inception_5a/output_0_split_0
I0403 15:38:46.664641 20112 net.cpp:399] inception_5b/1x1 -> inception_5b/1x1
I0403 15:38:46.668553 20112 net.cpp:141] Setting up inception_5b/1x1
I0403 15:38:46.668583 20112 net.cpp:148] Top shape: 24 384 7 7 (451584)
I0403 15:38:46.668599 20112 net.cpp:156] Memory required for data: 1327048224
I0403 15:38:46.668618 20112 layer_factory.hpp:77] Creating layer inception_5b/relu_1x1
I0403 15:38:46.668637 20112 net.cpp:91] Creating Layer inception_5b/relu_1x1
I0403 15:38:46.668653 20112 net.cpp:425] inception_5b/relu_1x1 <- inception_5b/1x1
I0403 15:38:46.668671 20112 net.cpp:386] inception_5b/relu_1x1 -> inception_5b/1x1 (in-place)
I0403 15:38:46.668992 20112 net.cpp:141] Setting up inception_5b/relu_1x1
I0403 15:38:46.669018 20112 net.cpp:148] Top shape: 24 384 7 7 (451584)
I0403 15:38:46.669034 20112 net.cpp:156] Memory required for data: 1328854560
I0403 15:38:46.669049 20112 layer_factory.hpp:77] Creating layer inception_5b/3x3_reduce
I0403 15:38:46.669071 20112 net.cpp:91] Creating Layer inception_5b/3x3_reduce
I0403 15:38:46.669090 20112 net.cpp:425] inception_5b/3x3_reduce <- inception_5a/output_inception_5a/output_0_split_1
I0403 15:38:46.669112 20112 net.cpp:399] inception_5b/3x3_reduce -> inception_5b/3x3_reduce
I0403 15:38:46.671861 20112 net.cpp:141] Setting up inception_5b/3x3_reduce
I0403 15:38:46.671892 20112 net.cpp:148] Top shape: 24 192 7 7 (225792)
I0403 15:38:46.671907 20112 net.cpp:156] Memory required for data: 1329757728
I0403 15:38:46.671926 20112 layer_factory.hpp:77] Creating layer inception_5b/relu_3x3_reduce
I0403 15:38:46.671947 20112 net.cpp:91] Creating Layer inception_5b/relu_3x3_reduce
I0403 15:38:46.671972 20112 net.cpp:425] inception_5b/relu_3x3_reduce <- inception_5b/3x3_reduce
I0403 15:38:46.671989 20112 net.cpp:386] inception_5b/relu_3x3_reduce -> inception_5b/3x3_reduce (in-place)
I0403 15:38:46.672188 20112 net.cpp:141] Setting up inception_5b/relu_3x3_reduce
I0403 15:38:46.672212 20112 net.cpp:148] Top shape: 24 192 7 7 (225792)
I0403 15:38:46.672227 20112 net.cpp:156] Memory required for data: 1330660896
I0403 15:38:46.672241 20112 layer_factory.hpp:77] Creating layer inception_5b/3x3
I0403 15:38:46.672266 20112 net.cpp:91] Creating Layer inception_5b/3x3
I0403 15:38:46.672282 20112 net.cpp:425] inception_5b/3x3 <- inception_5b/3x3_reduce
I0403 15:38:46.672302 20112 net.cpp:399] inception_5b/3x3 -> inception_5b/3x3
I0403 15:38:46.679244 20112 net.cpp:141] Setting up inception_5b/3x3
I0403 15:38:46.679275 20112 net.cpp:148] Top shape: 24 384 7 7 (451584)
I0403 15:38:46.679291 20112 net.cpp:156] Memory required for data: 1332467232
I0403 15:38:46.679309 20112 layer_factory.hpp:77] Creating layer inception_5b/relu_3x3
I0403 15:38:46.679329 20112 net.cpp:91] Creating Layer inception_5b/relu_3x3
I0403 15:38:46.679347 20112 net.cpp:425] inception_5b/relu_3x3 <- inception_5b/3x3
I0403 15:38:46.679364 20112 net.cpp:386] inception_5b/relu_3x3 -> inception_5b/3x3 (in-place)
I0403 15:38:46.679671 20112 net.cpp:141] Setting up inception_5b/relu_3x3
I0403 15:38:46.679697 20112 net.cpp:148] Top shape: 24 384 7 7 (451584)
I0403 15:38:46.679711 20112 net.cpp:156] Memory required for data: 1334273568
I0403 15:38:46.679726 20112 layer_factory.hpp:77] Creating layer inception_5b/5x5_reduce
I0403 15:38:46.679769 20112 net.cpp:91] Creating Layer inception_5b/5x5_reduce
I0403 15:38:46.679787 20112 net.cpp:425] inception_5b/5x5_reduce <- inception_5a/output_inception_5a/output_0_split_2
I0403 15:38:46.679808 20112 net.cpp:399] inception_5b/5x5_reduce -> inception_5b/5x5_reduce
I0403 15:38:46.681141 20112 net.cpp:141] Setting up inception_5b/5x5_reduce
I0403 15:38:46.681169 20112 net.cpp:148] Top shape: 24 48 7 7 (56448)
I0403 15:38:46.681185 20112 net.cpp:156] Memory required for data: 1334499360
I0403 15:38:46.681202 20112 layer_factory.hpp:77] Creating layer inception_5b/relu_5x5_reduce
I0403 15:38:46.681224 20112 net.cpp:91] Creating Layer inception_5b/relu_5x5_reduce
I0403 15:38:46.681241 20112 net.cpp:425] inception_5b/relu_5x5_reduce <- inception_5b/5x5_reduce
I0403 15:38:46.681259 20112 net.cpp:386] inception_5b/relu_5x5_reduce -> inception_5b/5x5_reduce (in-place)
I0403 15:38:46.681638 20112 net.cpp:141] Setting up inception_5b/relu_5x5_reduce
I0403 15:38:46.681665 20112 net.cpp:148] Top shape: 24 48 7 7 (56448)
I0403 15:38:46.681680 20112 net.cpp:156] Memory required for data: 1334725152
I0403 15:38:46.681695 20112 layer_factory.hpp:77] Creating layer inception_5b/5x5
I0403 15:38:46.681715 20112 net.cpp:91] Creating Layer inception_5b/5x5
I0403 15:38:46.681732 20112 net.cpp:425] inception_5b/5x5 <- inception_5b/5x5_reduce
I0403 15:38:46.681751 20112 net.cpp:399] inception_5b/5x5 -> inception_5b/5x5
I0403 15:38:46.683902 20112 net.cpp:141] Setting up inception_5b/5x5
I0403 15:38:46.683930 20112 net.cpp:148] Top shape: 24 128 7 7 (150528)
I0403 15:38:46.683949 20112 net.cpp:156] Memory required for data: 1335327264
I0403 15:38:46.683976 20112 layer_factory.hpp:77] Creating layer inception_5b/relu_5x5
I0403 15:38:46.683995 20112 net.cpp:91] Creating Layer inception_5b/relu_5x5
I0403 15:38:46.684011 20112 net.cpp:425] inception_5b/relu_5x5 <- inception_5b/5x5
I0403 15:38:46.684028 20112 net.cpp:386] inception_5b/relu_5x5 -> inception_5b/5x5 (in-place)
I0403 15:38:46.684227 20112 net.cpp:141] Setting up inception_5b/relu_5x5
I0403 15:38:46.684255 20112 net.cpp:148] Top shape: 24 128 7 7 (150528)
I0403 15:38:46.684270 20112 net.cpp:156] Memory required for data: 1335929376
I0403 15:38:46.684285 20112 layer_factory.hpp:77] Creating layer inception_5b/pool
I0403 15:38:46.684303 20112 net.cpp:91] Creating Layer inception_5b/pool
I0403 15:38:46.684319 20112 net.cpp:425] inception_5b/pool <- inception_5a/output_inception_5a/output_0_split_3
I0403 15:38:46.684339 20112 net.cpp:399] inception_5b/pool -> inception_5b/pool
I0403 15:38:46.684412 20112 net.cpp:141] Setting up inception_5b/pool
I0403 15:38:46.684439 20112 net.cpp:148] Top shape: 24 832 7 7 (978432)
I0403 15:38:46.684454 20112 net.cpp:156] Memory required for data: 1339843104
I0403 15:38:46.684468 20112 layer_factory.hpp:77] Creating layer inception_5b/pool_proj
I0403 15:38:46.684489 20112 net.cpp:91] Creating Layer inception_5b/pool_proj
I0403 15:38:46.684506 20112 net.cpp:425] inception_5b/pool_proj <- inception_5b/pool
I0403 15:38:46.684527 20112 net.cpp:399] inception_5b/pool_proj -> inception_5b/pool_proj
I0403 15:38:46.687023 20112 net.cpp:141] Setting up inception_5b/pool_proj
I0403 15:38:46.687053 20112 net.cpp:148] Top shape: 24 128 7 7 (150528)
I0403 15:38:46.687070 20112 net.cpp:156] Memory required for data: 1340445216
I0403 15:38:46.687089 20112 layer_factory.hpp:77] Creating layer inception_5b/relu_pool_proj
I0403 15:38:46.687110 20112 net.cpp:91] Creating Layer inception_5b/relu_pool_proj
I0403 15:38:46.687129 20112 net.cpp:425] inception_5b/relu_pool_proj <- inception_5b/pool_proj
I0403 15:38:46.687146 20112 net.cpp:386] inception_5b/relu_pool_proj -> inception_5b/pool_proj (in-place)
I0403 15:38:46.687469 20112 net.cpp:141] Setting up inception_5b/relu_pool_proj
I0403 15:38:46.687496 20112 net.cpp:148] Top shape: 24 128 7 7 (150528)
I0403 15:38:46.687511 20112 net.cpp:156] Memory required for data: 1341047328
I0403 15:38:46.687526 20112 layer_factory.hpp:77] Creating layer inception_5b/output
I0403 15:38:46.687546 20112 net.cpp:91] Creating Layer inception_5b/output
I0403 15:38:46.687577 20112 net.cpp:425] inception_5b/output <- inception_5b/1x1
I0403 15:38:46.687598 20112 net.cpp:425] inception_5b/output <- inception_5b/3x3
I0403 15:38:46.687618 20112 net.cpp:425] inception_5b/output <- inception_5b/5x5
I0403 15:38:46.687634 20112 net.cpp:425] inception_5b/output <- inception_5b/pool_proj
I0403 15:38:46.687654 20112 net.cpp:399] inception_5b/output -> inception_5b/output
I0403 15:38:46.687711 20112 net.cpp:141] Setting up inception_5b/output
I0403 15:38:46.687736 20112 net.cpp:148] Top shape: 24 1024 7 7 (1204224)
I0403 15:38:46.687750 20112 net.cpp:156] Memory required for data: 1345864224
I0403 15:38:46.687765 20112 layer_factory.hpp:77] Creating layer pool5/7x7_s1
I0403 15:38:46.687783 20112 net.cpp:91] Creating Layer pool5/7x7_s1
I0403 15:38:46.687799 20112 net.cpp:425] pool5/7x7_s1 <- inception_5b/output
I0403 15:38:46.687820 20112 net.cpp:399] pool5/7x7_s1 -> pool5/7x7_s1
I0403 15:38:46.688065 20112 net.cpp:141] Setting up pool5/7x7_s1
I0403 15:38:46.688091 20112 net.cpp:148] Top shape: 24 1024 1 1 (24576)
I0403 15:38:46.688107 20112 net.cpp:156] Memory required for data: 1345962528
I0403 15:38:46.688122 20112 layer_factory.hpp:77] Creating layer pool5/drop_7x7_s1
I0403 15:38:46.688143 20112 net.cpp:91] Creating Layer pool5/drop_7x7_s1
I0403 15:38:46.688160 20112 net.cpp:425] pool5/drop_7x7_s1 <- pool5/7x7_s1
I0403 15:38:46.688177 20112 net.cpp:386] pool5/drop_7x7_s1 -> pool5/7x7_s1 (in-place)
I0403 15:38:46.688235 20112 net.cpp:141] Setting up pool5/drop_7x7_s1
I0403 15:38:46.688259 20112 net.cpp:148] Top shape: 24 1024 1 1 (24576)
I0403 15:38:46.688274 20112 net.cpp:156] Memory required for data: 1346060832
I0403 15:38:46.688289 20112 layer_factory.hpp:77] Creating layer loss3/classifier_plantvillage
I0403 15:38:46.688308 20112 net.cpp:91] Creating Layer loss3/classifier_plantvillage
I0403 15:38:46.688324 20112 net.cpp:425] loss3/classifier_plantvillage <- pool5/7x7_s1
I0403 15:38:46.688345 20112 net.cpp:399] loss3/classifier_plantvillage -> loss3/classifier_plantvillage
I0403 15:38:46.688807 20112 net.cpp:141] Setting up loss3/classifier_plantvillage
I0403 15:38:46.688832 20112 net.cpp:148] Top shape: 24 38 (912)
I0403 15:38:46.688848 20112 net.cpp:156] Memory required for data: 1346064480
I0403 15:38:46.688865 20112 layer_factory.hpp:77] Creating layer loss3/classifier_plantvillage_loss3/classifier_plantvillage_0_split
I0403 15:38:46.688885 20112 net.cpp:91] Creating Layer loss3/classifier_plantvillage_loss3/classifier_plantvillage_0_split
I0403 15:38:46.688900 20112 net.cpp:425] loss3/classifier_plantvillage_loss3/classifier_plantvillage_0_split <- loss3/classifier_plantvillage
I0403 15:38:46.688921 20112 net.cpp:399] loss3/classifier_plantvillage_loss3/classifier_plantvillage_0_split -> loss3/classifier_plantvillage_loss3/classifier_plantvillage_0_split_0
I0403 15:38:46.688942 20112 net.cpp:399] loss3/classifier_plantvillage_loss3/classifier_plantvillage_0_split -> loss3/classifier_plantvillage_loss3/classifier_plantvillage_0_split_1
I0403 15:38:46.688971 20112 net.cpp:399] loss3/classifier_plantvillage_loss3/classifier_plantvillage_0_split -> loss3/classifier_plantvillage_loss3/classifier_plantvillage_0_split_2
I0403 15:38:46.688992 20112 net.cpp:399] loss3/classifier_plantvillage_loss3/classifier_plantvillage_0_split -> loss3/classifier_plantvillage_loss3/classifier_plantvillage_0_split_3
I0403 15:38:46.689102 20112 net.cpp:141] Setting up loss3/classifier_plantvillage_loss3/classifier_plantvillage_0_split
I0403 15:38:46.689126 20112 net.cpp:148] Top shape: 24 38 (912)
I0403 15:38:46.689142 20112 net.cpp:148] Top shape: 24 38 (912)
I0403 15:38:46.689158 20112 net.cpp:148] Top shape: 24 38 (912)
I0403 15:38:46.689174 20112 net.cpp:148] Top shape: 24 38 (912)
I0403 15:38:46.689188 20112 net.cpp:156] Memory required for data: 1346079072
I0403 15:38:46.689203 20112 layer_factory.hpp:77] Creating layer loss1/loss
I0403 15:38:46.689225 20112 net.cpp:91] Creating Layer loss1/loss
I0403 15:38:46.689244 20112 net.cpp:425] loss1/loss <- loss1/classifier_plantvillage_loss1/classifier_plantvillage_0_split_0
I0403 15:38:46.689275 20112 net.cpp:425] loss1/loss <- label_data_1_split_0
…
