…
I0403 15:28:29.997372 19588 net.cpp:313] The NetState phase (1) differed from the phase (0) specified by a rule in layer data
I0403 15:28:29.999678 19588 net.cpp:49] Initializing net from parameters: 
state {
  phase: TEST
}
layer {
  name: "data"
  type: "Data"
  top: "data"
  top: "label"
  include {
    phase: TEST
  }
  transform_param {
    mirror: false
    crop_size: 224
    mean_file: "/home/mohanty/data/final_dataset/lmdb/grayscale-40-60/mean.binaryproto"
  }
  data_param {
    source: "/home/mohanty/data/final_dataset/lmdb/grayscale-40-60/test_db"
    batch_size: 24
    backend: LMDB
  }
}
layer {
  name: "conv1/7x7_s2"
  type: "Convolution"
  bottom: "data"
  top: "conv1/7x7_s2"
  param {
    lr_mult: 1
    decay_mult: 1
  }
  param {
    lr_mult: 2
    decay_mult: 0
  }
  convolution_param {
    num_output: 64
    pad: 3
    kernel_size: 7
    stride: 2
    weight_filler {
      type: "xavier"
      std: 0.1
    }
    bias_filler {
      type: "constant"
      value: 0.2
    }
  }
}
layer {
  name: "conv1/relu_7x7"
  type: "ReLU"
  bottom: "conv1/7x7_s2"
  top: "conv1/7x7_s2"
}
layer {
  name: "pool1/3x3_s2"
  type: "Pooling"
  bottom: "conv1/7x7_s2"
  top: "pool1/3x3_s2"
  pooling_param {
    pool: MAX
    kernel_size: 3
    stride: 2
  }
}
layer {
  name: "pool1/norm1"
  type: "LRN"
  bottom: "pool1/3x3_s2"
  top: "pool1/norm1"
  lrn_param {
    local_size: 5
    alpha: 0.0001
    beta: 0.75
  }
}
layer {
  name: "conv2/3x3_reduce"
  type: "Convolution"
  bottom: "pool1/norm1"
  top: "conv2/3x3_reduce"
  param {
    lr_mult: 1
    decay_mult: 1
  }
  param {
    lr_mult: 2
    decay_mult: 0
  }
  convolution_param {
    num_output: 64
    kernel_size: 1
    weight_filler {
      type: "xavier"
      std: 0.1
    }
    bias_filler {
      type: "constant"
      value: 0.2
    }
  }
}
layer {
  name: "conv2/relu_3x3_reduce"
  type: "ReLU"
  bottom: "conv2/3x3_reduce"
  top: "conv2/3x3_reduce"
}
layer {
  name: "conv2/3x3"
  type: "Convolution"
  bottom: "conv2/3x3_reduce"
  top: "conv2/3x3"
  param {
    lr_mult: 1
    decay_mult: 1
  }
  param {
    lr_mult: 2
    decay_mult: 0
  }
  convolution_param {
    num_output: 192
    pad: 1
    kernel_size: 3
    weight_filler {
      type: "xavier"
      std: 0.03
    }
    bias_filler {
      type: "constant"
      value: 0.2
    }
  }
}
layer {
  name: "conv2/relu_3x3"
  type: "ReLU"
  bottom: "conv2/3x3"
  top: "conv2/3x3"
}
layer {
  name: "conv2/norm2"
  type: "LRN"
  bottom: "conv2/3x3"
  top: "conv2/norm2"
  lrn_param {
    local_size: 5
    alpha: 0.0001
    beta: 0.75
  }
}
layer {
  name: "pool2/3x3_s2"
  type: "Pooling"
  bottom: "conv2/norm2"
  top: "pool2/3x3_s2"
  pooling_param {
    pool: MAX
    kernel_size: 3
    stride: 2
  }
}
layer {
  name: "inception_3a/1x1"
  type: "Convolution"
  bottom: "pool2/3x3_s2"
  top: "inception_3a/1x1"
  param {
    lr_mult: 1
    decay_mult: 1
  }
  param {
    lr_mult: 2
    decay_mult: 0
  }
  convolution_param {
    num_output: 64
    kernel_size: 1
    weight_filler {
      type: "xavier"
      std: 0.03
    }
    bias_filler {
      type: "constant"
      value: 0.2
    }
  }
}
layer {
  name: "inception_3a/relu_1x1"
  type: "ReLU"
  bottom: "inception_3a/1x1"
  top: "inception_3a/1x1"
}
layer {
  name: "inception_3a/3x3_reduce"
  type: "Convolution"
  bottom: "pool2/3x3_s2"
  top: "inception_3a/3x3_reduce"
  param {
    lr_mult: 1
    decay_mult: 1
  }
  param {
    lr_mult: 2
    decay_mult: 0
  }
  convolution_param {
    num_output: 96
    kernel_size: 1
    weight_filler {
      type: "xavier"
      std: 0.09
    }
    bias_filler {
      type: "constant"
      value: 0.2
    }
  }
}
layer {
  name: "inception_3a/relu_3x3_reduce"
  type: "ReLU"
  bottom: "inception_3a/3x3_reduce"
  top: "inception_3a/3x3_reduce"
}
layer {
  name: "inception_3a/3x3"
  type: "Convolution"
  bottom: "inception_3a/3x3_reduce"
  top: "inception_3a/3x3"
  param {
    lr_mult: 1
    decay_mult: 1
  }
  param {
    lr_mult: 2
    decay_mult: 0
  }
  convolution_param {
    num_output: 128
    pad: 1
    kernel_size: 3
    weight_filler {
      type: "xavier"
      std: 0.03
    }
    bias_filler {
      type: "constant"
      value: 0.2
    }
  }
}
layer {
  name: "inception_3a/relu_3x3"
  type: "ReLU"
  bottom: "inception_3a/3x3"
  top: "inception_3a/3x3"
}
layer {
  name: "inception_3a/5x5_reduce"
  type: "Convolution"
  bottom: "pool2/3x3_s2"
  top: "inception_3a/5x5_reduce"
  param {
    lr_mult: 1
    decay_mult: 1
  }
  param {
    lr_mult: 2
    decay_mult: 0
  }
  convolution_param {
    num_output: 16
    kernel_size: 1
    weight_filler {
      type: "xavier"
      std: 0.2
    }
    bias_filler {
      type: "constant"
      value: 0.2
    }
  }
}
layer {
  name: "inception_3a/relu_5x5_reduce"
  type: "ReLU"
  bottom: "inception_3a/5x5_reduce"
  top: "inception_3a/5x5_reduce"
}
layer {
  name: "inception_3a/5x5"
  type: "Convolution"
  bottom: "inception_3a/5x5_reduce"
  top: "inception_3a/5x5"
  param {
    lr_mult: 1
    decay_mult: 1
  }
  param {
    lr_mult: 2
    decay_mult: 0
  }
  convolution_param {
    num_output: 32
    pad: 2
    kernel_size: 5
    weight_filler {
      type: "xavier"
      std: 0.03
    }
    bias_filler {
      type: "constant"
      value: 0.2
    }
  }
}
layer {
  name: "inception_3a/relu_5x5"
  type: "ReLU"
  bottom: "inception_3a/5x5"
  top: "inception_3a/5x5"
}
layer {
  name: "inception_3a/pool"
  type: "Pooling"
  bottom: "pool2/3x3_s2"
  top: "inception_3a/pool"
  pooling_param {
    pool: MAX
    kernel_size: 3
    stride: 1
    pad: 1
  }
}
layer {
  name: "inception_3a/pool_proj"
  type: "Convolution"
  bottom: "inception_3a/pool"
  top: "inception_3a/pool_proj"
  param {
    lr_mult: 1
    decay_mult: 1
  }
  param {
    lr_mult: 2
    decay_mult: 0
  }
  convolution_param {
    num_output: 32
    kernel_size: 1
    weight_filler {
      type: "xavier"
      std: 0.1
    }
    bias_filler {
      type: "constant"
      value: 0.2
    }
  }
}
layer {
  name: "inception_3a/relu_pool_proj"
  type: "ReLU"
  bottom: "inception_3a/pool_proj"
  top: "inception_3a/pool_proj"
}
layer {
  name: "inception_3a/output"
  type: "Concat"
  bottom: "inception_3a/1x1"
  bottom: "inception_3a/3x3"
  bottom: "inception_3a/5x5"
  bottom: "inception_3a/pool_proj"
  top: "inception_3a/output"
}
layer {
  name: "inception_3b/1x1"
  type: "Convolution"
  bottom: "inception_3a/output"
  top: "inception_3b/1x1"
  param {
    lr_mult: 1
    decay_mult: 1
  }
  param {
    lr_mult: 2
    decay_mult: 0
  }
  convolution_param {
    num_output: 128
    kernel_size: 1
    weight_filler {
      type: "xavier"
      std: 0.03
    }
    bias_filler {
      type: "constant"
      value: 0.2
    }
  }
}
layer {
  name: "inception_3b/relu_1x1"
  type: "ReLU"
  bottom: "inception_3b/1x1"
  top: "inception_3b/1x1"
}
layer {
  name: "inception_3b/3x3_reduce"
  type: "Convolution"
  bottom: "inception_3a/output"
  top: "inception_3b/3x3_reduce"
  param {
    lr_mult: 1
    decay_mult: 1
  }
  param {
    lr_mult: 2
    decay_mult: 0
  }
  convolution_param {
    num_output: 128
    kernel_size: 1
    weight_filler {
      type: "xavier"
      std: 0.09
    }
    bias_filler {
      type: "constant"
      value: 0.2
    }
  }
}
layer {
  name: "inception_3b/relu_3x3_reduce"
  type: "ReLU"
  bottom: "inception_3b/3x3_reduce"
  top: "inception_3b/3x3_reduce"
}
layer {
  name: "inception_3b/3x3"
  type: "Convolution"
  bottom: "inception_3b/3x3_reduce"
  top: "inception_3b/3x3"
  param {
    lr_mult: 1
    decay_mult: 1
  }
  param {
    lr_mult: 2
    decay_mult: 0
  }
  convolution_param {
    num_output: 192
    pad: 1
    kernel_size: 3
    weight_filler {
      type: "xavier"
      std: 0.03
    }
    bias_filler {
      type: "constant"
      value: 0.2
    }
  }
}
layer {
  name: "inception_3b/relu_3x3"
  type: "ReLU"
  bottom: "inception_3b/3x3"
  top: "inception_3b/3x3"
}
layer {
  name: "inception_3b/5x5_reduce"
  type: "Convolution"
  bottom: "inception_3a/output"
  top: "inception_3b/5x5_reduce"
  param {
    lr_mult: 1
    decay_mult: 1
  }
  param {
    lr_mult: 2
    decay_mult: 0
  }
  convolution_param {
    num_output: 32
    kernel_size: 1
    weight_filler {
      type: "xavier"
      std: 0.2
    }
    bias_filler {
      type: "constant"
      value: 0.2
    }
  }
}
layer {
  name: "inception_3b/relu_5x5_reduce"
  type: "ReLU"
  bottom: "inception_3b/5x5_reduce"
  top: "inception_3b/5x5_reduce"
}
layer {
  name: "inception_3b/5x5"
  type: "Convolution"
  bottom: "inception_3b/5x5_reduce"
  top: "inception_3b/5x5"
  param {
    lr_mult: 1
    decay_mult: 1
  }
  param {
    lr_mult: 2
    decay_mult: 0
  }
  convolution_param {
    num_output: 96
    pad: 2
    kernel_size: 5
    weight_filler {
      type: "xavier"
      std: 0.03
    }
    bias_filler {
      type: "constant"
      value: 0.2
    }
  }
}
layer {
  name: "inception_3b/relu_5x5"
  type: "ReLU"
  bottom: "inception_3b/5x5"
  top: "inception_3b/5x5"
}
layer {
  name: "inception_3b/pool"
  type: "Pooling"
  bottom: "inception_3a/output"
  top: "inception_3b/pool"
  pooling_param {
    pool: MAX
    kernel_size: 3
    stride: 1
    pad: 1
  }
}
layer {
  name: "inception_3b/pool_proj"
  type: "Convolution"
  bottom: "inception_3b/pool"
  top: "inception_3b/pool_proj"
  param {
    lr_mult: 1
    decay_mult: 1
  }
  param {
    lr_mult: 2
    decay_mult: 0
  }
  convolution_param {
    num_output: 64
    kernel_size: 1
    weight_filler {
      type: "xavier"
      std: 0.1
    }
    bias_filler {
      type: "constant"
      value: 0.2
    }
  }
}
layer {
  name: "inception_3b/relu_pool_proj"
  type: "ReLU"
  bottom: "inception_3b/pool_proj"
  top: "inception_3b/pool_proj"
}
layer {
  name: "inception_3b/output"
  type: "Concat"
  bottom: "inception_3b/1x1"
  bottom: "inception_3b/3x3"
  bottom: "inception_3b/5x5"
  bottom: "inception_3b/pool_proj"
  top: "inception_3b/output"
}
layer {
  name: "pool3/3x3_s2"
  type: "Pooling"
  bottom: "inception_3b/output"
  top: "pool3/3x3_s2"
  pooling_param {
    pool: MAX
    kernel_size: 3
    stride: 2
  }
}
layer {
  name: "inception_4a/1x1"
  type: "Convolution"
  bottom: "pool3/3x3_s2"
  top: "inception_4a/1x1"
  param {
    lr_mult: 1
    decay_mult: 1
  }
  param {
    lr_mult: 2
    decay_mult: 0
  }
  convolution_param {
    num_output: 192
    kernel_size: 1
    weight_filler {
      type: "xavier"
      std: 0.03
    }
    bias_filler {
      type: "constant"
      value: 0.2
    }
  }
}
layer {
  name: "inception_4a/relu_1x1"
  type: "ReLU"
  bottom: "inception_4a/1x1"
  top: "inception_4a/1x1"
}
layer {
  name: "inception_4a/3x3_reduce"
  type: "Convolution"
  bottom: "pool3/3x3_s2"
  top: "inception_4a/3x3_reduce"
  param {
    lr_mult: 1
    decay_mult: 1
  }
  param {
    lr_mult: 2
    decay_mult: 0
  }
  convolution_param {
    num_output: 96
    kernel_size: 1
    weight_filler {
      type: "xavier"
      std: 0.09
    }
    bias_filler {
      type: "constant"
      value: 0.2
    }
  }
}
layer {
  name: "inception_4a/relu_3x3_reduce"
  type: "ReLU"
  bottom: "inception_4a/3x3_reduce"
  top: "inception_4a/3x3_reduce"
}
layer {
  name: "inception_4a/3x3"
  type: "Convolution"
  bottom: "inception_4a/3x3_reduce"
  top: "inception_4a/3x3"
  param {
    lr_mult: 1
    decay_mult: 1
  }
  param {
    lr_mult: 2
    decay_mult: 0
  }
  convolution_param {
    num_output: 208
    pad: 1
    kernel_size: 3
    weight_filler {
      type: "xavier"
      std: 0.03
    }
    bias_filler {
      type: "constant"
      value: 0.2
    }
  }
}
layer {
  name: "inception_4a/relu_3x3"
  type: "ReLU"
  bottom: "inception_4a/3x3"
  top: "inception_4a/3x3"
}
layer {
  name: "inception_4a/5x5_reduce"
  type: "Convolution"
  bottom: "pool3/3x3_s2"
  top: "inception_4a/5x5_reduce"
  param {
    lr_mult: 1
    decay_mult: 1
  }
  param {
    lr_mult: 2
    decay_mult: 0
  }
  convolution_param {
    num_output: 16
    kernel_size: 1
    weight_filler {
      type: "xavier"
      std: 0.2
    }
    bias_filler {
      type: "constant"
      value: 0.2
    }
  }
}
layer {
  name: "inception_4a/relu_5x5_reduce"
  type: "ReLU"
  bottom: "inception_4a/5x5_reduce"
  top: "inception_4a/5x5_reduce"
}
layer {
  name: "inception_4a/5x5"
  type: "Convolution"
  bottom: "inception_4a/5x5_reduce"
  top: "inception_4a/5x5"
  param {
    lr_mult: 1
    decay_mult: 1
  }
  param {
    lr_mult: 2
    decay_mult: 0
  }
  convolution_param {
    num_output: 48
    pad: 2
    kernel_size: 5
    weight_filler {
      type: "xavier"
      std: 0.03
    }
    bias_filler {
      type: "constant"
      value: 0.2
    }
  }
}
layer {
  name: "inception_4a/relu_5x5"
  type: "ReLU"
  bottom: "inception_4a/5x5"
  top: "inception_4a/5x5"
}
layer {
  name: "inception_4a/pool"
  type: "Pooling"
  bottom: "pool3/3x3_s2"
  top: "inception_4a/pool"
  pooling_param {
    pool: MAX
    kernel_size: 3
    stride: 1
    pad: 1
  }
}
layer {
  name: "inception_4a/pool_proj"
  type: "Convolution"
  bottom: "inception_4a/pool"
  top: "inception_4a/pool_proj"
  param {
    lr_mult: 1
    decay_mult: 1
  }
  param {
    lr_mult: 2
    decay_mult: 0
  }
  convolution_param {
    num_output: 64
    kernel_size: 1
    weight_filler {
      type: "xavier"
      std: 0.1
    }
    bias_filler {
      type: "constant"
      value: 0.2
    }
  }
}
layer {
  name: "inception_4a/relu_pool_proj"
  type: "ReLU"
  bottom: "inception_4a/pool_proj"
  top: "inception_4a/pool_proj"
}
layer {
  name: "inception_4a/output"
  type: "Concat"
  bottom: "inception_4a/1x1"
  bottom: "inception_4a/3x3"
  bottom: "inception_4a/5x5"
  bottom: "inception_4a/pool_proj"
  top: "inception_4a/output"
}
layer {
  name: "loss1/ave_pool"
  type: "Pooling"
  bottom: "inception_4a/output"
  top: "loss1/ave_pool"
  pooling_param {
    pool: AVE
    kernel_size: 5
    stride: 3
  }
}
layer {
  name: "loss1/conv"
  type: "Convolution"
  bottom: "loss1/ave_pool"
  top: "loss1/conv"
  param {
    lr_mult: 1
    decay_mult: 1
  }
  param {
    lr_mult: 2
    decay_mult: 0
  }
  convolution_param {
    num_output: 128
    kernel_size: 1
    weight_filler {
      type: "xavier"
      std: 0.08
    }
    bias_filler {
      type: "constant"
      value: 0.2
    }
  }
}
layer {
  name: "loss1/relu_conv"
  type: "ReLU"
  bottom: "loss1/conv"
  top: "loss1/conv"
}
layer {
  name: "loss1/fc"
  type: "InnerProduct"
  bottom: "loss1/conv"
  top: "loss1/fc"
  param {
    lr_mult: 1
    decay_mult: 1
  }
  param {
    lr_mult: 2
    decay_mult: 0
  }
  inner_product_param {
    num_output: 1024
    weight_filler {
      type: "xavier"
      std: 0.02
    }
    bias_filler {
      type: "constant"
      value: 0.2
    }
  }
}
layer {
  name: "loss1/relu_fc"
  type: "ReLU"
  bottom: "loss1/fc"
  top: "loss1/fc"
}
layer {
  name: "loss1/drop_fc"
  type: "Dropout"
  bottom: "loss1/fc"
  top: "loss1/fc"
  dropout_param {
    dropout_ratio: 0.7
  }
}
layer {
  name: "loss1/classifier_plantvillage"
  type: "InnerProduct"
  bottom: "loss1/fc"
  top: "loss1/classifier_plantvillage"
  param {
    lr_mult: 1
    decay_mult: 1
  }
  param {
    lr_mult: 2
    decay_mult: 0
  }
  inner_product_param {
    num_output: 38
    weight_filler {
      type: "xavier"
      std: 0.0009765625
    }
    bias_filler {
      type: "constant"
      value: 0
    }
  }
}
layer {
  name: "inception_4b/1x1"
  type: "Convolution"
  bottom: "inception_4a/output"
  top: "inception_4b/1x1"
  param {
    lr_mult: 1
    decay_mult: 1
  }
  param {
    lr_mult: 2
    decay_mult: 0
  }
  convolution_param {
    num_output: 160
    kernel_size: 1
    weight_filler {
      type: "xavier"
      std: 0.03
    }
    bias_filler {
      type: "constant"
      value: 0.2
    }
  }
}
layer {
  name: "inception_4b/relu_1x1"
  type: "ReLU"
  bottom: "inception_4b/1x1"
  top: "inception_4b/1x1"
}
layer {
  name: "inception_4b/3x3_reduce"
  type: "Convolution"
  bottom: "inception_4a/output"
  top: "inception_4b/3x3_reduce"
  param {
    lr_mult: 1
    decay_mult: 1
  }
  param {
    lr_mult: 2
    decay_mult: 0
  }
  convolution_param {
    num_output: 112
    kernel_size: 1
    weight_filler {
      type: "xavier"
      std: 0.09
    }
    bias_filler {
      type: "constant"
      value: 0.2
    }
  }
}
layer {
  name: "inception_4b/relu_3x3_reduce"
  type: "ReLU"
  bottom: "inception_4b/3x3_reduce"
  top: "inception_4b/3x3_reduce"
}
layer {
  name: "inception_4b/3x3"
  type: "Convolution"
  bottom: "inception_4b/3x3_reduce"
  top: "inception_4b/3x3"
  param {
    lr_mult: 1
    decay_mult: 1
  }
  param {
    lr_mult: 2
    decay_mult: 0
  }
  convolution_param {
    num_output: 224
    pad: 1
    kernel_size: 3
    weight_filler {
      type: "xavier"
      std: 0.03
    }
    bias_filler {
      type: "constant"
      value: 0.2
    }
  }
}
layer {
  name: "inception_4b/relu_3x3"
  type: "ReLU"
  bottom: "inception_4b/3x3"
  top: "inception_4b/3x3"
}
layer {
  name: "inception_4b/5x5_reduce"
  type: "Convolution"
  bottom: "inception_4a/output"
  top: "inception_4b/5x5_reduce"
  param {
    lr_mult: 1
    decay_mult: 1
  }
  param {
    lr_mult: 2
    decay_mult: 0
  }
  convolution_param {
    num_output: 24
    kernel_size: 1
    weight_filler {
      type: "xavier"
      std: 0.2
    }
    bias_filler {
      type: "constant"
      value: 0.2
    }
  }
}
layer {
  name: "inception_4b/relu_5x5_reduce"
  type: "ReLU"
  bottom: "inception_4b/5x5_reduce"
  top: "inception_4b/5x5_reduce"
}
layer {
  name: "inception_4b/5x5"
  type: "Convolution"
  bottom: "inception_4b/5x5_reduce"
  top: "inception_4b/5x5"
  param {
    lr_mult: 1
    decay_mult: 1
  }
  param {
    lr_mult: 2
    decay_mult: 0
  }
  convolution_param {
    num_output: 64
    pad: 2
    kernel_size: 5
    weight_filler {
      type: "xavier"
      std: 0.03
    }
    bias_filler {
      type: "constant"
      value: 0.2
    }
  }
}
layer {
  name: "inception_4b/relu_5x5"
  type: "ReLU"
  bottom: "inception_4b/5x5"
  top: "inception_4b/5x5"
}
layer {
  name: "inception_4b/pool"
  type: "Pooling"
  bottom: "inception_4a/output"
  top: "inception_4b/pool"
  pooling_param {
    pool: MAX
    kernel_size: 3
    stride: 1
    pad: 1
  }
}
layer {
  name: "inception_4b/pool_proj"
  type: "Convolution"
  bottom: "inception_4b/pool"
  top: "inception_4b/pool_proj"
  param {
    lr_mult: 1
    decay_mult: 1
  }
  param {
    lr_mult: 2
    decay_mult: 0
  }
  convolution_param {
    num_output: 64
    kernel_size: 1
    weight_filler {
      type: "xavier"
      std: 0.1
    }
    bias_filler {
      type: "constant"
      value: 0.2
    }
  }
}
layer {
  name: "inception_4b/relu_pool_proj"
  type: "ReLU"
  bottom: "inception_4b/pool_proj"
  top: "inception_4b/pool_proj"
}
layer {
  name: "inception_4b/output"
  type: "Concat"
  bottom: "inception_4b/1x1"
  bottom: "inception_4b/3x3"
  bottom: "inception_4b/5x5"
  bottom: "inception_4b/pool_proj"
  top: "inception_4b/output"
}
layer {
  name: "inception_4c/1x1"
  type: "Convolution"
  bottom: "inception_4b/output"
  top: "inception_4c/1x1"
  param {
    lr_mult: 1
    decay_mult: 1
  }
  param {
    lr_mult: 2
    decay_mult: 0
  }
  convolution_param {
    num_output: 128
    kernel_size: 1
    weight_filler {
      type: "xavier"
      std: 0.03
    }
    bias_filler {
      type: "constant"
      value: 0.2
    }
  }
}
layer {
  name: "inception_4c/relu_1x1"
  type: "ReLU"
  bottom: "inception_4c/1x1"
  top: "inception_4c/1x1"
}
layer {
  name: "inception_4c/3x3_reduce"
  type: "Convolution"
  bottom: "inception_4b/output"
  top: "inception_4c/3x3_reduce"
  param {
    lr_mult: 1
    decay_mult: 1
  }
  param {
    lr_mult: 2
    decay_mult: 0
  }
  convolution_param {
    num_output: 128
    kernel_size: 1
    weight_filler {
      type: "xavier"
      std: 0.09
    }
    bias_filler {
      type: "constant"
      value: 0.2
    }
  }
}
layer {
  name: "inception_4c/relu_3x3_reduce"
  type: "ReLU"
  bottom: "inception_4c/3x3_reduce"
  top: "inception_4c/3x3_reduce"
}
layer {
  name: "inception_4c/3x3"
  type: "Convolution"
  bottom: "inception_4c/3x3_reduce"
  top: "inception_4c/3x3"
  param {
    lr_mult: 1
    decay_mult: 1
  }
  param {
    lr_mult: 2
    decay_mult: 0
  }
  convolution_param {
    num_output: 256
    pad: 1
    kernel_size: 3
    weight_filler {
      type: "xavier"
      std: 0.03
    }
    bias_filler {
      type: "constant"
      value: 0.2
    }
  }
}
layer {
  name: "inception_4c/relu_3x3"
  type: "ReLU"
  bottom: "inception_4c/3x3"
  top: "inception_4c/3x3"
}
layer {
  name: "inception_4c/5x5_reduce"
  type: "Convolution"
  bottom: "inception_4b/output"
  top: "inception_4c/5x5_reduce"
  param {
    lr_mult: 1
    decay_mult: 1
  }
  param {
    lr_mult: 2
    decay_mult: 0
  }
  convolution_param {
    num_output: 24
    kernel_size: 1
    weight_filler {
      type: "xavier"
      std: 0.2
    }
    bias_filler {
      type: "constant"
      value: 0.2
    }
  }
}
layer {
  name: "inception_4c/relu_5x5_reduce"
  type: "ReLU"
  bottom: "inception_4c/5x5_reduce"
  top: "inception_4c/5x5_reduce"
}
layer {
  name: "inception_4c/5x5"
  type: "Convolution"
  bottom: "inception_4c/5x5_reduce"
  top: "inception_4c/5x5"
  param {
    lr_mult: 1
    decay_mult: 1
  }
  param {
    lr_mult: 2
    decay_mult: 0
  }
  convolution_param {
    num_output: 64
    pad: 2
    kernel_size: 5
    weight_filler {
      type: "xavier"
      std: 0.03
    }
    bias_filler {
      type: "constant"
      value: 0.2
    }
  }
}
layer {
  name: "inception_4c/relu_5x5"
  type: "ReLU"
  bottom: "inception_4c/5x5"
  top: "inception_4c/5x5"
}
layer {
  name: "inception_4c/pool"
  type: "Pooling"
  bottom: "inception_4b/output"
  top: "inception_4c/pool"
  pooling_param {
    pool: MAX
    kernel_size: 3
    stride: 1
    pad: 1
  }
}
layer {
  name: "inception_4c/pool_proj"
  type: "Convolution"
  bottom: "inception_4c/pool"
  top: "inception_4c/pool_proj"
  param {
    lr_mult: 1
    decay_mult: 1
  }
  param {
    lr_mult: 2
    decay_mult: 0
  }
  convolution_param {
    num_output: 64
    kernel_size: 1
    weight_filler {
      type: "xavier"
      std: 0.1
    }
    bias_filler {
      type: "constant"
      value: 0.2
    }
  }
}
layer {
  name: "inception_4c/relu_pool_proj"
  type: "ReLU"
  bottom: "inception_4c/pool_proj"
  top: "inception_4c/pool_proj"
}
layer {
  name: "inception_4c/output"
  type: "Concat"
  bottom: "inception_4c/1x1"
  bottom: "inception_4c/3x3"
  bottom: "inception_4c/5x5"
  bottom: "inception_4c/pool_proj"
  top: "inception_4c/output"
}
layer {
  name: "inception_4d/1x1"
  type: "Convolution"
  bottom: "inception_4c/output"
  top: "inception_4d/1x1"
  param {
    lr_mult: 1
    decay_mult: 1
  }
  param {
    lr_mult: 2
    decay_mult: 0
  }
  convolution_param {
    num_output: 112
    kernel_size: 1
    weight_filler {
      type: "xavier"
      std: 0.03
    }
    bias_filler {
      type: "constant"
      value: 0.2
    }
  }
}
layer {
  name: "inception_4d/relu_1x1"
  type: "ReLU"
  bottom: "inception_4d/1x1"
  top: "inception_4d/1x1"
}
layer {
  name: "inception_4d/3x3_reduce"
  type: "Convolution"
  bottom: "inception_4c/output"
  top: "inception_4d/3x3_reduce"
  param {
    lr_mult: 1
    decay_mult: 1
  }
  param {
    lr_mult: 2
    decay_mult: 0
  }
  convolution_param {
    num_output: 144
    kernel_size: 1
    weight_filler {
      type: "xavier"
      std: 0.09
    }
    bias_filler {
      type: "constant"
      value: 0.2
    }
  }
}
layer {
  name: "inception_4d/relu_3x3_reduce"
  type: "ReLU"
  bottom: "inception_4d/3x3_reduce"
  top: "inception_4d/3x3_reduce"
}
layer {
  name: "inception_4d/3x3"
  type: "Convolution"
  bottom: "inception_4d/3x3_reduce"
  top: "inception_4d/3x3"
  param {
    lr_mult: 1
    decay_mult: 1
  }
  param {
    lr_mult: 2
    decay_mult: 0
  }
  convolution_param {
    num_output: 288
    pad: 1
    kernel_size: 3
    weight_filler {
      type: "xavier"
      std: 0.03
    }
    bias_filler {
      type: "constant"
      value: 0.2
    }
  }
}
layer {
  name: "inception_4d/relu_3x3"
  type: "ReLU"
  bottom: "inception_4d/3x3"
  top: "inception_4d/3x3"
}
layer {
  name: "inception_4d/5x5_reduce"
  type: "Convolution"
  bottom: "inception_4c/output"
  top: "inception_4d/5x5_reduce"
  param {
    lr_mult: 1
    decay_mult: 1
  }
  param {
    lr_mult: 2
    decay_mult: 0
  }
  convolution_param {
    num_output: 32
    kernel_size: 1
    weight_filler {
      type: "xavier"
      std: 0.2
    }
    bias_filler {
      type: "constant"
      value: 0.2
    }
  }
}
layer {
  name: "inception_4d/relu_5x5_reduce"
  type: "ReLU"
  bottom: "inception_4d/5x5_reduce"
  top: "inception_4d/5x5_reduce"
}
layer {
  name: "inception_4d/5x5"
  type: "Convolution"
  bottom: "inception_4d/5x5_reduce"
  top: "inception_4d/5x5"
  param {
    lr_mult: 1
    decay_mult: 1
  }
  param {
    lr_mult: 2
    decay_mult: 0
  }
  convolution_param {
    num_output: 64
    pad: 2
    kernel_size: 5
    weight_filler {
      type: "xavier"
      std: 0.03
    }
    bias_filler {
      type: "constant"
      value: 0.2
    }
  }
}
layer {
  name: "inception_4d/relu_5x5"
  type: "ReLU"
  bottom: "inception_4d/5x5"
  top: "inception_4d/5x5"
}
layer {
  name: "inception_4d/pool"
  type: "Pooling"
  bottom: "inception_4c/output"
  top: "inception_4d/pool"
  pooling_param {
    pool: MAX
    kernel_size: 3
    stride: 1
    pad: 1
  }
}
layer {
  name: "inception_4d/pool_proj"
  type: "Convolution"
  bottom: "inception_4d/pool"
  top: "inception_4d/pool_proj"
  param {
    lr_mult: 1
    decay_mult: 1
  }
  param {
    lr_mult: 2
    decay_mult: 0
  }
  convolution_param {
    num_output: 64
    kernel_size: 1
    weight_filler {
      type: "xavier"
      std: 0.1
    }
    bias_filler {
      type: "constant"
      value: 0.2
    }
  }
}
layer {
  name: "inception_4d/relu_pool_proj"
  type: "ReLU"
  bottom: "inception_4d/pool_proj"
  top: "inception_4d/pool_proj"
}
layer {
  name: "inception_4d/output"
  type: "Concat"
  bottom: "inception_4d/1x1"
  bottom: "inception_4d/3x3"
  bottom: "inception_4d/5x5"
  bottom: "inception_4d/pool_proj"
  top: "inception_4d/output"
}
layer {
  name: "loss2/ave_pool"
  type: "Pooling"
  bottom: "inception_4d/output"
  top: "loss2/ave_pool"
  pooling_param {
    pool: AVE
    kernel_size: 5
    stride: 3
  }
}
layer {
  name: "loss2/conv"
  type: "Convolution"
  bottom: "loss2/ave_pool"
  top: "loss2/conv"
  param {
    lr_mult: 1
    decay_mult: 1
  }
  param {
    lr_mult: 2
    decay_mult: 0
  }
  convolution_param {
    num_output: 128
    kernel_size: 1
    weight_filler {
      type: "xavier"
      std: 0.08
    }
    bias_filler {
      type: "constant"
      value: 0.2
    }
  }
}
layer {
  name: "loss2/relu_conv"
  type: "ReLU"
  bottom: "loss2/conv"
  top: "loss2/conv"
}
layer {
  name: "loss2/fc"
  type: "InnerProduct"
  bottom: "loss2/conv"
  top: "loss2/fc"
  param {
    lr_mult: 1
    decay_mult: 1
  }
  param {
    lr_mult: 2
    decay_mult: 0
  }
  inner_product_param {
    num_output: 1024
    weight_filler {
      type: "xavier"
      std: 0.02
    }
    bias_filler {
      type: "constant"
      value: 0.2
    }
  }
}
layer {
  name: "loss2/relu_fc"
  type: "ReLU"
  bottom: "loss2/fc"
  top: "loss2/fc"
}
layer {
  name: "loss2/drop_fc"
  type: "Dropout"
  bottom: "loss2/fc"
  top: "loss2/fc"
  dropout_param {
    dropout_ratio: 0.7
  }
}
layer {
  name: "loss2/classifier_plantvillage"
  type: "InnerProduct"
  bottom: "loss2/fc"
  top: "loss2/classifier_plantvillage"
  param {
    lr_mult: 1
    decay_mult: 1
  }
  param {
    lr_mult: 2
    decay_mult: 0
  }
  inner_product_param {
    num_output: 38
    weight_filler {
      type: "xavier"
      std: 0.0009765625
    }
    bias_filler {
      type: "constant"
      value: 0
    }
  }
}
layer {
  name: "inception_4e/1x1"
  type: "Convolution"
  bottom: "inception_4d/output"
  top: "inception_4e/1x1"
  param {
    lr_mult: 1
    decay_mult: 1
  }
  param {
    lr_mult: 2
    decay_mult: 0
  }
  convolution_param {
    num_output: 256
    kernel_size: 1
    weight_filler {
      type: "xavier"
      std: 0.03
    }
    bias_filler {
      type: "constant"
      value: 0.2
    }
  }
}
layer {
  name: "inception_4e/relu_1x1"
  type: "ReLU"
  bottom: "inception_4e/1x1"
  top: "inception_4e/1x1"
}
layer {
  name: "inception_4e/3x3_reduce"
  type: "Convolution"
  bottom: "inception_4d/output"
  top: "inception_4e/3x3_reduce"
  param {
    lr_mult: 1
    decay_mult: 1
  }
  param {
    lr_mult: 2
    decay_mult: 0
  }
  convolution_param {
    num_output: 160
    kernel_size: 1
    weight_filler {
      type: "xavier"
      std: 0.09
    }
    bias_filler {
      type: "constant"
      value: 0.2
    }
  }
}
layer {
  name: "inception_4e/relu_3x3_reduce"
  type: "ReLU"
  bottom: "inception_4e/3x3_reduce"
  top: "inception_4e/3x3_reduce"
}
layer {
  name: "inception_4e/3x3"
  type: "Convolution"
  bottom: "inception_4e/3x3_reduce"
  top: "inception_4e/3x3"
  param {
    lr_mult: 1
    decay_mult: 1
  }
  param {
    lr_mult: 2
    decay_mult: 0
  }
  convolution_param {
    num_output: 320
    pad: 1
    kernel_size: 3
    weight_filler {
      type: "xavier"
      std: 0.03
    }
    bias_filler {
      type: "constant"
      value: 0.2
    }
  }
}
layer {
  name: "inception_4e/relu_3x3"
  type: "ReLU"
  bottom: "inception_4e/3x3"
  top: "inception_4e/3x3"
}
layer {
  name: "inception_4e/5x5_reduce"
  type: "Convolution"
  bottom: "inception_4d/output"
  top: "inception_4e/5x5_reduce"
  param {
    lr_mult: 1
    decay_mult: 1
  }
  param {
    lr_mult: 2
    decay_mult: 0
  }
  convolution_param {
    num_output: 32
    kernel_size: 1
    weight_filler {
      type: "xavier"
      std: 0.2
    }
    bias_filler {
      type: "constant"
      value: 0.2
    }
  }
}
layer {
  name: "inception_4e/relu_5x5_reduce"
  type: "ReLU"
  bottom: "inception_4e/5x5_reduce"
  top: "inception_4e/5x5_reduce"
}
layer {
  name: "inception_4e/5x5"
  type: "Convolution"
  bottom: "inception_4e/5x5_reduce"
  top: "inception_4e/
I0403 15:28:30.001085 19588 layer_factory.hpp:77] Creating layer data
I0403 15:28:30.001724 19588 net.cpp:91] Creating Layer data
I0403 15:28:30.001760 19588 net.cpp:399] data -> data
I0403 15:28:30.001812 19588 net.cpp:399] data -> label
I0403 15:28:30.001850 19588 data_transformer.cpp:25] Loading mean file from: /home/mohanty/data/final_dataset/lmdb/grayscale-40-60/mean.binaryproto
I0403 15:28:30.004669 19591 db_lmdb.cpp:38] Opened lmdb /home/mohanty/data/final_dataset/lmdb/grayscale-40-60/test_db
I0403 15:28:30.015946 19588 data_layer.cpp:41] output data size: 24,3,224,224
I0403 15:28:30.047154 19588 net.cpp:141] Setting up data
I0403 15:28:30.047235 19588 net.cpp:148] Top shape: 24 3 224 224 (3612672)
I0403 15:28:30.047257 19588 net.cpp:148] Top shape: 24 (24)
I0403 15:28:30.047272 19588 net.cpp:156] Memory required for data: 14450784
I0403 15:28:30.047299 19588 layer_factory.hpp:77] Creating layer label_data_1_split
I0403 15:28:30.047325 19588 net.cpp:91] Creating Layer label_data_1_split
I0403 15:28:30.047343 19588 net.cpp:425] label_data_1_split <- label
I0403 15:28:30.047375 19588 net.cpp:399] label_data_1_split -> label_data_1_split_0
I0403 15:28:30.047402 19588 net.cpp:399] label_data_1_split -> label_data_1_split_1
I0403 15:28:30.047423 19588 net.cpp:399] label_data_1_split -> label_data_1_split_2
I0403 15:28:30.047444 19588 net.cpp:399] label_data_1_split -> label_data_1_split_3
I0403 15:28:30.047464 19588 net.cpp:399] label_data_1_split -> label_data_1_split_4
I0403 15:28:30.047483 19588 net.cpp:399] label_data_1_split -> label_data_1_split_5
I0403 15:28:30.047502 19588 net.cpp:399] label_data_1_split -> label_data_1_split_6
I0403 15:28:30.047523 19588 net.cpp:399] label_data_1_split -> label_data_1_split_7
I0403 15:28:30.047541 19588 net.cpp:399] label_data_1_split -> label_data_1_split_8
I0403 15:28:30.047561 19588 net.cpp:399] label_data_1_split -> label_data_1_split_9
I0403 15:28:30.047679 19588 net.cpp:141] Setting up label_data_1_split
I0403 15:28:30.047703 19588 net.cpp:148] Top shape: 24 (24)
I0403 15:28:30.047720 19588 net.cpp:148] Top shape: 24 (24)
I0403 15:28:30.047736 19588 net.cpp:148] Top shape: 24 (24)
I0403 15:28:30.047751 19588 net.cpp:148] Top shape: 24 (24)
I0403 15:28:30.047766 19588 net.cpp:148] Top shape: 24 (24)
I0403 15:28:30.047782 19588 net.cpp:148] Top shape: 24 (24)
I0403 15:28:30.047798 19588 net.cpp:148] Top shape: 24 (24)
I0403 15:28:30.047813 19588 net.cpp:148] Top shape: 24 (24)
I0403 15:28:30.047828 19588 net.cpp:148] Top shape: 24 (24)
I0403 15:28:30.047844 19588 net.cpp:148] Top shape: 24 (24)
I0403 15:28:30.047888 19588 net.cpp:156] Memory required for data: 14451744
I0403 15:28:30.047904 19588 layer_factory.hpp:77] Creating layer conv1/7x7_s2
I0403 15:28:30.047936 19588 net.cpp:91] Creating Layer conv1/7x7_s2
I0403 15:28:30.047955 19588 net.cpp:425] conv1/7x7_s2 <- data
I0403 15:28:30.047974 19588 net.cpp:399] conv1/7x7_s2 -> conv1/7x7_s2
I0403 15:28:30.197670 19588 net.cpp:141] Setting up conv1/7x7_s2
I0403 15:28:30.197762 19588 net.cpp:148] Top shape: 24 64 112 112 (19267584)
I0403 15:28:30.197779 19588 net.cpp:156] Memory required for data: 91522080
I0403 15:28:30.197810 19588 layer_factory.hpp:77] Creating layer conv1/relu_7x7
I0403 15:28:30.197839 19588 net.cpp:91] Creating Layer conv1/relu_7x7
I0403 15:28:30.197857 19588 net.cpp:425] conv1/relu_7x7 <- conv1/7x7_s2
I0403 15:28:30.197877 19588 net.cpp:386] conv1/relu_7x7 -> conv1/7x7_s2 (in-place)
I0403 15:28:30.198161 19588 net.cpp:141] Setting up conv1/relu_7x7
I0403 15:28:30.198189 19588 net.cpp:148] Top shape: 24 64 112 112 (19267584)
I0403 15:28:30.198204 19588 net.cpp:156] Memory required for data: 168592416
I0403 15:28:30.198221 19588 layer_factory.hpp:77] Creating layer pool1/3x3_s2
I0403 15:28:30.198287 19588 net.cpp:91] Creating Layer pool1/3x3_s2
I0403 15:28:30.198308 19588 net.cpp:425] pool1/3x3_s2 <- conv1/7x7_s2
I0403 15:28:30.198331 19588 net.cpp:399] pool1/3x3_s2 -> pool1/3x3_s2
I0403 15:28:30.198412 19588 net.cpp:141] Setting up pool1/3x3_s2
I0403 15:28:30.198439 19588 net.cpp:148] Top shape: 24 64 56 56 (4816896)
I0403 15:28:30.198456 19588 net.cpp:156] Memory required for data: 187860000
I0403 15:28:30.198469 19588 layer_factory.hpp:77] Creating layer pool1/norm1
I0403 15:28:30.198493 19588 net.cpp:91] Creating Layer pool1/norm1
I0403 15:28:30.198510 19588 net.cpp:425] pool1/norm1 <- pool1/3x3_s2
I0403 15:28:30.198530 19588 net.cpp:399] pool1/norm1 -> pool1/norm1
I0403 15:28:30.198848 19588 net.cpp:141] Setting up pool1/norm1
I0403 15:28:30.198876 19588 net.cpp:148] Top shape: 24 64 56 56 (4816896)
I0403 15:28:30.198892 19588 net.cpp:156] Memory required for data: 207127584
I0403 15:28:30.198906 19588 layer_factory.hpp:77] Creating layer conv2/3x3_reduce
I0403 15:28:30.198933 19588 net.cpp:91] Creating Layer conv2/3x3_reduce
I0403 15:28:30.198952 19588 net.cpp:425] conv2/3x3_reduce <- pool1/norm1
I0403 15:28:30.198973 19588 net.cpp:399] conv2/3x3_reduce -> conv2/3x3_reduce
I0403 15:28:30.200522 19588 net.cpp:141] Setting up conv2/3x3_reduce
I0403 15:28:30.200552 19588 net.cpp:148] Top shape: 24 64 56 56 (4816896)
I0403 15:28:30.200568 19588 net.cpp:156] Memory required for data: 226395168
I0403 15:28:30.200590 19588 layer_factory.hpp:77] Creating layer conv2/relu_3x3_reduce
I0403 15:28:30.200611 19588 net.cpp:91] Creating Layer conv2/relu_3x3_reduce
I0403 15:28:30.200628 19588 net.cpp:425] conv2/relu_3x3_reduce <- conv2/3x3_reduce
I0403 15:28:30.200645 19588 net.cpp:386] conv2/relu_3x3_reduce -> conv2/3x3_reduce (in-place)
I0403 15:28:30.200937 19588 net.cpp:141] Setting up conv2/relu_3x3_reduce
I0403 15:28:30.200964 19588 net.cpp:148] Top shape: 24 64 56 56 (4816896)
I0403 15:28:30.200979 19588 net.cpp:156] Memory required for data: 245662752
I0403 15:28:30.200999 19588 layer_factory.hpp:77] Creating layer conv2/3x3
I0403 15:28:30.201026 19588 net.cpp:91] Creating Layer conv2/3x3
I0403 15:28:30.201045 19588 net.cpp:425] conv2/3x3 <- conv2/3x3_reduce
I0403 15:28:30.201064 19588 net.cpp:399] conv2/3x3 -> conv2/3x3
I0403 15:28:30.203500 19588 net.cpp:141] Setting up conv2/3x3
I0403 15:28:30.203532 19588 net.cpp:148] Top shape: 24 192 56 56 (14450688)
I0403 15:28:30.203548 19588 net.cpp:156] Memory required for data: 303465504
I0403 15:28:30.203570 19588 layer_factory.hpp:77] Creating layer conv2/relu_3x3
I0403 15:28:30.203593 19588 net.cpp:91] Creating Layer conv2/relu_3x3
I0403 15:28:30.203609 19588 net.cpp:425] conv2/relu_3x3 <- conv2/3x3
I0403 15:28:30.203626 19588 net.cpp:386] conv2/relu_3x3 -> conv2/3x3 (in-place)
I0403 15:28:30.203814 19588 net.cpp:141] Setting up conv2/relu_3x3
I0403 15:28:30.203840 19588 net.cpp:148] Top shape: 24 192 56 56 (14450688)
I0403 15:28:30.203891 19588 net.cpp:156] Memory required for data: 361268256
I0403 15:28:30.203907 19588 layer_factory.hpp:77] Creating layer conv2/norm2
I0403 15:28:30.203927 19588 net.cpp:91] Creating Layer conv2/norm2
I0403 15:28:30.203944 19588 net.cpp:425] conv2/norm2 <- conv2/3x3
I0403 15:28:30.203963 19588 net.cpp:399] conv2/norm2 -> conv2/norm2
I0403 15:28:30.204287 19588 net.cpp:141] Setting up conv2/norm2
I0403 15:28:30.204314 19588 net.cpp:148] Top shape: 24 192 56 56 (14450688)
I0403 15:28:30.204330 19588 net.cpp:156] Memory required for data: 419071008
I0403 15:28:30.204345 19588 layer_factory.hpp:77] Creating layer pool2/3x3_s2
I0403 15:28:30.204368 19588 net.cpp:91] Creating Layer pool2/3x3_s2
I0403 15:28:30.204386 19588 net.cpp:425] pool2/3x3_s2 <- conv2/norm2
I0403 15:28:30.204404 19588 net.cpp:399] pool2/3x3_s2 -> pool2/3x3_s2
I0403 15:28:30.204460 19588 net.cpp:141] Setting up pool2/3x3_s2
I0403 15:28:30.204484 19588 net.cpp:148] Top shape: 24 192 28 28 (3612672)
I0403 15:28:30.204499 19588 net.cpp:156] Memory required for data: 433521696
I0403 15:28:30.204514 19588 layer_factory.hpp:77] Creating layer pool2/3x3_s2_pool2/3x3_s2_0_split
I0403 15:28:30.204531 19588 net.cpp:91] Creating Layer pool2/3x3_s2_pool2/3x3_s2_0_split
I0403 15:28:30.204546 19588 net.cpp:425] pool2/3x3_s2_pool2/3x3_s2_0_split <- pool2/3x3_s2
I0403 15:28:30.204566 19588 net.cpp:399] pool2/3x3_s2_pool2/3x3_s2_0_split -> pool2/3x3_s2_pool2/3x3_s2_0_split_0
I0403 15:28:30.204587 19588 net.cpp:399] pool2/3x3_s2_pool2/3x3_s2_0_split -> pool2/3x3_s2_pool2/3x3_s2_0_split_1
I0403 15:28:30.204607 19588 net.cpp:399] pool2/3x3_s2_pool2/3x3_s2_0_split -> pool2/3x3_s2_pool2/3x3_s2_0_split_2
I0403 15:28:30.204627 19588 net.cpp:399] pool2/3x3_s2_pool2/3x3_s2_0_split -> pool2/3x3_s2_pool2/3x3_s2_0_split_3
I0403 15:28:30.204699 19588 net.cpp:141] Setting up pool2/3x3_s2_pool2/3x3_s2_0_split
I0403 15:28:30.204725 19588 net.cpp:148] Top shape: 24 192 28 28 (3612672)
I0403 15:28:30.204742 19588 net.cpp:148] Top shape: 24 192 28 28 (3612672)
I0403 15:28:30.204758 19588 net.cpp:148] Top shape: 24 192 28 28 (3612672)
I0403 15:28:30.204774 19588 net.cpp:148] Top shape: 24 192 28 28 (3612672)
I0403 15:28:30.204787 19588 net.cpp:156] Memory required for data: 491324448
I0403 15:28:30.204802 19588 layer_factory.hpp:77] Creating layer inception_3a/1x1
I0403 15:28:30.204824 19588 net.cpp:91] Creating Layer inception_3a/1x1
I0403 15:28:30.204843 19588 net.cpp:425] inception_3a/1x1 <- pool2/3x3_s2_pool2/3x3_s2_0_split_0
I0403 15:28:30.204861 19588 net.cpp:399] inception_3a/1x1 -> inception_3a/1x1
I0403 15:28:30.206459 19588 net.cpp:141] Setting up inception_3a/1x1
I0403 15:28:30.206490 19588 net.cpp:148] Top shape: 24 64 28 28 (1204224)
I0403 15:28:30.206506 19588 net.cpp:156] Memory required for data: 496141344
I0403 15:28:30.206523 19588 layer_factory.hpp:77] Creating layer inception_3a/relu_1x1
I0403 15:28:30.206544 19588 net.cpp:91] Creating Layer inception_3a/relu_1x1
I0403 15:28:30.206560 19588 net.cpp:425] inception_3a/relu_1x1 <- inception_3a/1x1
I0403 15:28:30.206578 19588 net.cpp:386] inception_3a/relu_1x1 -> inception_3a/1x1 (in-place)
I0403 15:28:30.206758 19588 net.cpp:141] Setting up inception_3a/relu_1x1
I0403 15:28:30.206785 19588 net.cpp:148] Top shape: 24 64 28 28 (1204224)
I0403 15:28:30.206801 19588 net.cpp:156] Memory required for data: 500958240
I0403 15:28:30.206815 19588 layer_factory.hpp:77] Creating layer inception_3a/3x3_reduce
I0403 15:28:30.206837 19588 net.cpp:91] Creating Layer inception_3a/3x3_reduce
I0403 15:28:30.206854 19588 net.cpp:425] inception_3a/3x3_reduce <- pool2/3x3_s2_pool2/3x3_s2_0_split_1
I0403 15:28:30.206873 19588 net.cpp:399] inception_3a/3x3_reduce -> inception_3a/3x3_reduce
I0403 15:28:30.208611 19588 net.cpp:141] Setting up inception_3a/3x3_reduce
I0403 15:28:30.208641 19588 net.cpp:148] Top shape: 24 96 28 28 (1806336)
I0403 15:28:30.208655 19588 net.cpp:156] Memory required for data: 508183584
I0403 15:28:30.208676 19588 layer_factory.hpp:77] Creating layer inception_3a/relu_3x3_reduce
I0403 15:28:30.208714 19588 net.cpp:91] Creating Layer inception_3a/relu_3x3_reduce
I0403 15:28:30.208732 19588 net.cpp:425] inception_3a/relu_3x3_reduce <- inception_3a/3x3_reduce
I0403 15:28:30.208752 19588 net.cpp:386] inception_3a/relu_3x3_reduce -> inception_3a/3x3_reduce (in-place)
I0403 15:28:30.208935 19588 net.cpp:141] Setting up inception_3a/relu_3x3_reduce
I0403 15:28:30.208961 19588 net.cpp:148] Top shape: 24 96 28 28 (1806336)
I0403 15:28:30.208974 19588 net.cpp:156] Memory required for data: 515408928
I0403 15:28:30.208999 19588 layer_factory.hpp:77] Creating layer inception_3a/3x3
I0403 15:28:30.209028 19588 net.cpp:91] Creating Layer inception_3a/3x3
I0403 15:28:30.209046 19588 net.cpp:425] inception_3a/3x3 <- inception_3a/3x3_reduce
I0403 15:28:30.209069 19588 net.cpp:399] inception_3a/3x3 -> inception_3a/3x3
I0403 15:28:30.210752 19588 net.cpp:141] Setting up inception_3a/3x3
I0403 15:28:30.210782 19588 net.cpp:148] Top shape: 24 128 28 28 (2408448)
I0403 15:28:30.210798 19588 net.cpp:156] Memory required for data: 525042720
I0403 15:28:30.210816 19588 layer_factory.hpp:77] Creating layer inception_3a/relu_3x3
I0403 15:28:30.210834 19588 net.cpp:91] Creating Layer inception_3a/relu_3x3
I0403 15:28:30.210850 19588 net.cpp:425] inception_3a/relu_3x3 <- inception_3a/3x3
I0403 15:28:30.210868 19588 net.cpp:386] inception_3a/relu_3x3 -> inception_3a/3x3 (in-place)
I0403 15:28:30.211154 19588 net.cpp:141] Setting up inception_3a/relu_3x3
I0403 15:28:30.211184 19588 net.cpp:148] Top shape: 24 128 28 28 (2408448)
I0403 15:28:30.211199 19588 net.cpp:156] Memory required for data: 534676512
I0403 15:28:30.211213 19588 layer_factory.hpp:77] Creating layer inception_3a/5x5_reduce
I0403 15:28:30.211235 19588 net.cpp:91] Creating Layer inception_3a/5x5_reduce
I0403 15:28:30.211252 19588 net.cpp:425] inception_3a/5x5_reduce <- pool2/3x3_s2_pool2/3x3_s2_0_split_2
I0403 15:28:30.211272 19588 net.cpp:399] inception_3a/5x5_reduce -> inception_3a/5x5_reduce
I0403 15:28:30.212263 19588 net.cpp:141] Setting up inception_3a/5x5_reduce
I0403 15:28:30.212293 19588 net.cpp:148] Top shape: 24 16 28 28 (301056)
I0403 15:28:30.212308 19588 net.cpp:156] Memory required for data: 535880736
I0403 15:28:30.212327 19588 layer_factory.hpp:77] Creating layer inception_3a/relu_5x5_reduce
I0403 15:28:30.212344 19588 net.cpp:91] Creating Layer inception_3a/relu_5x5_reduce
I0403 15:28:30.212360 19588 net.cpp:425] inception_3a/relu_5x5_reduce <- inception_3a/5x5_reduce
I0403 15:28:30.212379 19588 net.cpp:386] inception_3a/relu_5x5_reduce -> inception_3a/5x5_reduce (in-place)
I0403 15:28:30.212677 19588 net.cpp:141] Setting up inception_3a/relu_5x5_reduce
I0403 15:28:30.212702 19588 net.cpp:148] Top shape: 24 16 28 28 (301056)
I0403 15:28:30.212718 19588 net.cpp:156] Memory required for data: 537084960
I0403 15:28:30.212733 19588 layer_factory.hpp:77] Creating layer inception_3a/5x5
I0403 15:28:30.212757 19588 net.cpp:91] Creating Layer inception_3a/5x5
I0403 15:28:30.212775 19588 net.cpp:425] inception_3a/5x5 <- inception_3a/5x5_reduce
I0403 15:28:30.212796 19588 net.cpp:399] inception_3a/5x5 -> inception_3a/5x5
I0403 15:28:30.213835 19588 net.cpp:141] Setting up inception_3a/5x5
I0403 15:28:30.213865 19588 net.cpp:148] Top shape: 24 32 28 28 (602112)
I0403 15:28:30.213881 19588 net.cpp:156] Memory required for data: 539493408
I0403 15:28:30.213899 19588 layer_factory.hpp:77] Creating layer inception_3a/relu_5x5
I0403 15:28:30.213917 19588 net.cpp:91] Creating Layer inception_3a/relu_5x5
I0403 15:28:30.213933 19588 net.cpp:425] inception_3a/relu_5x5 <- inception_3a/5x5
I0403 15:28:30.213964 19588 net.cpp:386] inception_3a/relu_5x5 -> inception_3a/5x5 (in-place)
I0403 15:28:30.214151 19588 net.cpp:141] Setting up inception_3a/relu_5x5
I0403 15:28:30.214179 19588 net.cpp:148] Top shape: 24 32 28 28 (602112)
I0403 15:28:30.214195 19588 net.cpp:156] Memory required for data: 541901856
I0403 15:28:30.214210 19588 layer_factory.hpp:77] Creating layer inception_3a/pool
I0403 15:28:30.214229 19588 net.cpp:91] Creating Layer inception_3a/pool
I0403 15:28:30.214272 19588 net.cpp:425] inception_3a/pool <- pool2/3x3_s2_pool2/3x3_s2_0_split_3
I0403 15:28:30.214293 19588 net.cpp:399] inception_3a/pool -> inception_3a/pool
I0403 15:28:30.214351 19588 net.cpp:141] Setting up inception_3a/pool
I0403 15:28:30.214377 19588 net.cpp:148] Top shape: 24 192 28 28 (3612672)
I0403 15:28:30.214392 19588 net.cpp:156] Memory required for data: 556352544
I0403 15:28:30.214406 19588 layer_factory.hpp:77] Creating layer inception_3a/pool_proj
I0403 15:28:30.214429 19588 net.cpp:91] Creating Layer inception_3a/pool_proj
I0403 15:28:30.214447 19588 net.cpp:425] inception_3a/pool_proj <- inception_3a/pool
I0403 15:28:30.214465 19588 net.cpp:399] inception_3a/pool_proj -> inception_3a/pool_proj
I0403 15:28:30.215446 19588 net.cpp:141] Setting up inception_3a/pool_proj
I0403 15:28:30.215472 19588 net.cpp:148] Top shape: 24 32 28 28 (602112)
I0403 15:28:30.215489 19588 net.cpp:156] Memory required for data: 558760992
I0403 15:28:30.215513 19588 layer_factory.hpp:77] Creating layer inception_3a/relu_pool_proj
I0403 15:28:30.215531 19588 net.cpp:91] Creating Layer inception_3a/relu_pool_proj
I0403 15:28:30.215546 19588 net.cpp:425] inception_3a/relu_pool_proj <- inception_3a/pool_proj
I0403 15:28:30.215566 19588 net.cpp:386] inception_3a/relu_pool_proj -> inception_3a/pool_proj (in-place)
I0403 15:28:30.215839 19588 net.cpp:141] Setting up inception_3a/relu_pool_proj
I0403 15:28:30.215867 19588 net.cpp:148] Top shape: 24 32 28 28 (602112)
I0403 15:28:30.215883 19588 net.cpp:156] Memory required for data: 561169440
I0403 15:28:30.215898 19588 layer_factory.hpp:77] Creating layer inception_3a/output
I0403 15:28:30.215914 19588 net.cpp:91] Creating Layer inception_3a/output
I0403 15:28:30.215929 19588 net.cpp:425] inception_3a/output <- inception_3a/1x1
I0403 15:28:30.215945 19588 net.cpp:425] inception_3a/output <- inception_3a/3x3
I0403 15:28:30.215961 19588 net.cpp:425] inception_3a/output <- inception_3a/5x5
I0403 15:28:30.215975 19588 net.cpp:425] inception_3a/output <- inception_3a/pool_proj
I0403 15:28:30.215996 19588 net.cpp:399] inception_3a/output -> inception_3a/output
I0403 15:28:30.216049 19588 net.cpp:141] Setting up inception_3a/output
I0403 15:28:30.216073 19588 net.cpp:148] Top shape: 24 256 28 28 (4816896)
I0403 15:28:30.216086 19588 net.cpp:156] Memory required for data: 580437024
I0403 15:28:30.216100 19588 layer_factory.hpp:77] Creating layer inception_3a/output_inception_3a/output_0_split
I0403 15:28:30.216119 19588 net.cpp:91] Creating Layer inception_3a/output_inception_3a/output_0_split
I0403 15:28:30.216133 19588 net.cpp:425] inception_3a/output_inception_3a/output_0_split <- inception_3a/output
I0403 15:28:30.216150 19588 net.cpp:399] inception_3a/output_inception_3a/output_0_split -> inception_3a/output_inception_3a/output_0_split_0
I0403 15:28:30.216168 19588 net.cpp:399] inception_3a/output_inception_3a/output_0_split -> inception_3a/output_inception_3a/output_0_split_1
I0403 15:28:30.216192 19588 net.cpp:399] inception_3a/output_inception_3a/output_0_split -> inception_3a/output_inception_3a/output_0_split_2
I0403 15:28:30.216213 19588 net.cpp:399] inception_3a/output_inception_3a/output_0_split -> inception_3a/output_inception_3a/output_0_split_3
I0403 15:28:30.216295 19588 net.cpp:141] Setting up inception_3a/output_inception_3a/output_0_split
I0403 15:28:30.216316 19588 net.cpp:148] Top shape: 24 256 28 28 (4816896)
I0403 15:28:30.216332 19588 net.cpp:148] Top shape: 24 256 28 28 (4816896)
I0403 15:28:30.216347 19588 net.cpp:148] Top shape: 24 256 28 28 (4816896)
I0403 15:28:30.216362 19588 net.cpp:148] Top shape: 24 256 28 28 (4816896)
I0403 15:28:30.216375 19588 net.cpp:156] Memory required for data: 657507360
I0403 15:28:30.216389 19588 layer_factory.hpp:77] Creating layer inception_3b/1x1
I0403 15:28:30.216411 19588 net.cpp:91] Creating Layer inception_3b/1x1
I0403 15:28:30.216429 19588 net.cpp:425] inception_3b/1x1 <- inception_3a/output_inception_3a/output_0_split_0
I0403 15:28:30.216446 19588 net.cpp:399] inception_3b/1x1 -> inception_3b/1x1
I0403 15:28:30.217571 19588 net.cpp:141] Setting up inception_3b/1x1
I0403 15:28:30.217609 19588 net.cpp:148] Top shape: 24 128 28 28 (2408448)
I0403 15:28:30.217624 19588 net.cpp:156] Memory required for data: 667141152
I0403 15:28:30.217643 19588 layer_factory.hpp:77] Creating layer inception_3b/relu_1x1
I0403 15:28:30.217663 19588 net.cpp:91] Creating Layer inception_3b/relu_1x1
I0403 15:28:30.217677 19588 net.cpp:425] inception_3b/relu_1x1 <- inception_3b/1x1
I0403 15:28:30.217694 19588 net.cpp:386] inception_3b/relu_1x1 -> inception_3b/1x1 (in-place)
I0403 15:28:30.217864 19588 net.cpp:141] Setting up inception_3b/relu_1x1
I0403 15:28:30.217891 19588 net.cpp:148] Top shape: 24 128 28 28 (2408448)
I0403 15:28:30.217905 19588 net.cpp:156] Memory required for data: 676774944
I0403 15:28:30.217919 19588 layer_factory.hpp:77] Creating layer inception_3b/3x3_reduce
I0403 15:28:30.217941 19588 net.cpp:91] Creating Layer inception_3b/3x3_reduce
I0403 15:28:30.217957 19588 net.cpp:425] inception_3b/3x3_reduce <- inception_3a/output_inception_3a/output_0_split_1
I0403 15:28:30.217975 19588 net.cpp:399] inception_3b/3x3_reduce -> inception_3b/3x3_reduce
I0403 15:28:30.219106 19588 net.cpp:141] Setting up inception_3b/3x3_reduce
I0403 15:28:30.219135 19588 net.cpp:148] Top shape: 24 128 28 28 (2408448)
I0403 15:28:30.219149 19588 net.cpp:156] Memory required for data: 686408736
I0403 15:28:30.219166 19588 layer_factory.hpp:77] Creating layer inception_3b/relu_3x3_reduce
I0403 15:28:30.219187 19588 net.cpp:91] Creating Layer inception_3b/relu_3x3_reduce
I0403 15:28:30.219202 19588 net.cpp:425] inception_3b/relu_3x3_reduce <- inception_3b/3x3_reduce
I0403 15:28:30.219218 19588 net.cpp:386] inception_3b/relu_3x3_reduce -> inception_3b/3x3_reduce (in-place)
I0403 15:28:30.219390 19588 net.cpp:141] Setting up inception_3b/relu_3x3_reduce
I0403 15:28:30.219419 19588 net.cpp:148] Top shape: 24 128 28 28 (2408448)
I0403 15:28:30.219434 19588 net.cpp:156] Memory required for data: 696042528
I0403 15:28:30.219449 19588 layer_factory.hpp:77] Creating layer inception_3b/3x3
I0403 15:28:30.219471 19588 net.cpp:91] Creating Layer inception_3b/3x3
I0403 15:28:30.219488 19588 net.cpp:425] inception_3b/3x3 <- inception_3b/3x3_reduce
I0403 15:28:30.219509 19588 net.cpp:399] inception_3b/3x3 -> inception_3b/3x3
I0403 15:28:30.222406 19588 net.cpp:141] Setting up inception_3b/3x3
I0403 15:28:30.222437 19588 net.cpp:148] Top shape: 24 192 28 28 (3612672)
I0403 15:28:30.222452 19588 net.cpp:156] Memory required for data: 710493216
I0403 15:28:30.222470 19588 layer_factory.hpp:77] Creating layer inception_3b/relu_3x3
I0403 15:28:30.222488 19588 net.cpp:91] Creating Layer inception_3b/relu_3x3
I0403 15:28:30.222503 19588 net.cpp:425] inception_3b/relu_3x3 <- inception_3b/3x3
I0403 15:28:30.222520 19588 net.cpp:386] inception_3b/relu_3x3 -> inception_3b/3x3 (in-place)
I0403 15:28:30.222795 19588 net.cpp:141] Setting up inception_3b/relu_3x3
I0403 15:28:30.222823 19588 net.cpp:148] Top shape: 24 192 28 28 (3612672)
I0403 15:28:30.222839 19588 net.cpp:156] Memory required for data: 724943904
I0403 15:28:30.222853 19588 layer_factory.hpp:77] Creating layer inception_3b/5x5_reduce
I0403 15:28:30.222875 19588 net.cpp:91] Creating Layer inception_3b/5x5_reduce
I0403 15:28:30.222893 19588 net.cpp:425] inception_3b/5x5_reduce <- inception_3a/output_inception_3a/output_0_split_2
I0403 15:28:30.222911 19588 net.cpp:399] inception_3b/5x5_reduce -> inception_3b/5x5_reduce
I0403 15:28:30.223888 19588 net.cpp:141] Setting up inception_3b/5x5_reduce
I0403 15:28:30.223917 19588 net.cpp:148] Top shape: 24 32 28 28 (602112)
I0403 15:28:30.223932 19588 net.cpp:156] Memory required for data: 727352352
I0403 15:28:30.223950 19588 layer_factory.hpp:77] Creating layer inception_3b/relu_5x5_reduce
I0403 15:28:30.223968 19588 net.cpp:91] Creating Layer inception_3b/relu_5x5_reduce
I0403 15:28:30.223984 19588 net.cpp:425] inception_3b/relu_5x5_reduce <- inception_3b/5x5_reduce
I0403 15:28:30.224004 19588 net.cpp:386] inception_3b/relu_5x5_reduce -> inception_3b/5x5_reduce (in-place)
I0403 15:28:30.224197 19588 net.cpp:141] Setting up inception_3b/relu_5x5_reduce
I0403 15:28:30.224222 19588 net.cpp:148] Top shape: 24 32 28 28 (602112)
I0403 15:28:30.224236 19588 net.cpp:156] Memory required for data: 729760800
I0403 15:28:30.224251 19588 layer_factory.hpp:77] Creating layer inception_3b/5x5
I0403 15:28:30.224272 19588 net.cpp:91] Creating Layer inception_3b/5x5
I0403 15:28:30.224289 19588 net.cpp:425] inception_3b/5x5 <- inception_3b/5x5_reduce
I0403 15:28:30.224309 19588 net.cpp:399] inception_3b/5x5 -> inception_3b/5x5
I0403 15:28:30.226263 19588 net.cpp:141] Setting up inception_3b/5x5
I0403 15:28:30.226291 19588 net.cpp:148] Top shape: 24 96 28 28 (1806336)
I0403 15:28:30.226306 19588 net.cpp:156] Memory required for data: 736986144
I0403 15:28:30.226323 19588 layer_factory.hpp:77] Creating layer inception_3b/relu_5x5
I0403 15:28:30.226342 19588 net.cpp:91] Creating Layer inception_3b/relu_5x5
I0403 15:28:30.226358 19588 net.cpp:425] inception_3b/relu_5x5 <- inception_3b/5x5
I0403 15:28:30.226373 19588 net.cpp:386] inception_3b/relu_5x5 -> inception_3b/5x5 (in-place)
I0403 15:28:30.226563 19588 net.cpp:141] Setting up inception_3b/relu_5x5
I0403 15:28:30.226588 19588 net.cpp:148] Top shape: 24 96 28 28 (1806336)
I0403 15:28:30.226601 19588 net.cpp:156] Memory required for data: 744211488
I0403 15:28:30.226614 19588 layer_factory.hpp:77] Creating layer inception_3b/pool
I0403 15:28:30.226630 19588 net.cpp:91] Creating Layer inception_3b/pool
I0403 15:28:30.226645 19588 net.cpp:425] inception_3b/pool <- inception_3a/output_inception_3a/output_0_split_3
I0403 15:28:30.226662 19588 net.cpp:399] inception_3b/pool -> inception_3b/pool
I0403 15:28:30.226716 19588 net.cpp:141] Setting up inception_3b/pool
I0403 15:28:30.226737 19588 net.cpp:148] Top shape: 24 256 28 28 (4816896)
I0403 15:28:30.226750 19588 net.cpp:156] Memory required for data: 763479072
I0403 15:28:30.226763 19588 layer_factory.hpp:77] Creating layer inception_3b/pool_proj
I0403 15:28:30.226784 19588 net.cpp:91] Creating Layer inception_3b/pool_proj
I0403 15:28:30.226801 19588 net.cpp:425] inception_3b/pool_proj <- inception_3b/pool
I0403 15:28:30.226820 19588 net.cpp:399] inception_3b/pool_proj -> inception_3b/pool_proj
I0403 15:28:30.227840 19588 net.cpp:141] Setting up inception_3b/pool_proj
I0403 15:28:30.227866 19588 net.cpp:148] Top shape: 24 64 28 28 (1204224)
I0403 15:28:30.227881 19588 net.cpp:156] Memory required for data: 768295968
I0403 15:28:30.227898 19588 layer_factory.hpp:77] Creating layer inception_3b/relu_pool_proj
I0403 15:28:30.227915 19588 net.cpp:91] Creating Layer inception_3b/relu_pool_proj
I0403 15:28:30.227932 19588 net.cpp:425] inception_3b/relu_pool_proj <- inception_3b/pool_proj
I0403 15:28:30.227949 19588 net.cpp:386] inception_3b/relu_pool_proj -> inception_3b/pool_proj (in-place)
I0403 15:28:30.228338 19588 net.cpp:141] Setting up inception_3b/relu_pool_proj
I0403 15:28:30.228363 19588 net.cpp:148] Top shape: 24 64 28 28 (1204224)
I0403 15:28:30.228377 19588 net.cpp:156] Memory required for data: 773112864
I0403 15:28:30.228390 19588 layer_factory.hpp:77] Creating layer inception_3b/output
I0403 15:28:30.228406 19588 net.cpp:91] Creating Layer inception_3b/output
I0403 15:28:30.228421 19588 net.cpp:425] inception_3b/output <- inception_3b/1x1
I0403 15:28:30.228437 19588 net.cpp:425] inception_3b/output <- inception_3b/3x3
I0403 15:28:30.228451 19588 net.cpp:425] inception_3b/output <- inception_3b/5x5
I0403 15:28:30.228466 19588 net.cpp:425] inception_3b/output <- inception_3b/pool_proj
I0403 15:28:30.228483 19588 net.cpp:399] inception_3b/output -> inception_3b/output
I0403 15:28:30.228525 19588 net.cpp:141] Setting up inception_3b/output
I0403 15:28:30.228549 19588 net.cpp:148] Top shape: 24 480 28 28 (9031680)
I0403 15:28:30.228564 19588 net.cpp:156] Memory required for data: 809239584
I0403 15:28:30.228577 19588 layer_factory.hpp:77] Creating layer pool3/3x3_s2
I0403 15:28:30.228593 19588 net.cpp:91] Creating Layer pool3/3x3_s2
I0403 15:28:30.228608 19588 net.cpp:425] pool3/3x3_s2 <- inception_3b/output
I0403 15:28:30.228639 19588 net.cpp:399] pool3/3x3_s2 -> pool3/3x3_s2
I0403 15:28:30.228695 19588 net.cpp:141] Setting up pool3/3x3_s2
I0403 15:28:30.228718 19588 net.cpp:148] Top shape: 24 480 14 14 (2257920)
I0403 15:28:30.228731 19588 net.cpp:156] Memory required for data: 818271264
I0403 15:28:30.228745 19588 layer_factory.hpp:77] Creating layer pool3/3x3_s2_pool3/3x3_s2_0_split
I0403 15:28:30.228760 19588 net.cpp:91] Creating Layer pool3/3x3_s2_pool3/3x3_s2_0_split
I0403 15:28:30.228775 19588 net.cpp:425] pool3/3x3_s2_pool3/3x3_s2_0_split <- pool3/3x3_s2
I0403 15:28:30.228792 19588 net.cpp:399] pool3/3x3_s2_pool3/3x3_s2_0_split -> pool3/3x3_s2_pool3/3x3_s2_0_split_0
I0403 15:28:30.228811 19588 net.cpp:399] pool3/3x3_s2_pool3/3x3_s2_0_split -> pool3/3x3_s2_pool3/3x3_s2_0_split_1
I0403 15:28:30.228829 19588 net.cpp:399] pool3/3x3_s2_pool3/3x3_s2_0_split -> pool3/3x3_s2_pool3/3x3_s2_0_split_2
I0403 15:28:30.228847 19588 net.cpp:399] pool3/3x3_s2_pool3/3x3_s2_0_split -> pool3/3x3_s2_pool3/3x3_s2_0_split_3
I0403 15:28:30.228921 19588 net.cpp:141] Setting up pool3/3x3_s2_pool3/3x3_s2_0_split
I0403 15:28:30.228943 19588 net.cpp:148] Top shape: 24 480 14 14 (2257920)
I0403 15:28:30.228958 19588 net.cpp:148] Top shape: 24 480 14 14 (2257920)
I0403 15:28:30.228972 19588 net.cpp:148] Top shape: 24 480 14 14 (2257920)
I0403 15:28:30.228996 19588 net.cpp:148] Top shape: 24 480 14 14 (2257920)
I0403 15:28:30.229012 19588 net.cpp:156] Memory required for data: 854397984
I0403 15:28:30.229025 19588 layer_factory.hpp:77] Creating layer inception_4a/1x1
I0403 15:28:30.229046 19588 net.cpp:91] Creating Layer inception_4a/1x1
I0403 15:28:30.229063 19588 net.cpp:425] inception_4a/1x1 <- pool3/3x3_s2_pool3/3x3_s2_0_split_0
I0403 15:28:30.229082 19588 net.cpp:399] inception_4a/1x1 -> inception_4a/1x1
I0403 15:28:30.230600 19588 net.cpp:141] Setting up inception_4a/1x1
I0403 15:28:30.230626 19588 net.cpp:148] Top shape: 24 192 14 14 (903168)
I0403 15:28:30.230641 19588 net.cpp:156] Memory required for data: 858010656
I0403 15:28:30.230659 19588 layer_factory.hpp:77] Creating layer inception_4a/relu_1x1
I0403 15:28:30.230677 19588 net.cpp:91] Creating Layer inception_4a/relu_1x1
I0403 15:28:30.230692 19588 net.cpp:425] inception_4a/relu_1x1 <- inception_4a/1x1
I0403 15:28:30.230710 19588 net.cpp:386] inception_4a/relu_1x1 -> inception_4a/1x1 (in-place)
I0403 15:28:30.230878 19588 net.cpp:141] Setting up inception_4a/relu_1x1
I0403 15:28:30.230902 19588 net.cpp:148] Top shape: 24 192 14 14 (903168)
I0403 15:28:30.230916 19588 net.cpp:156] Memory required for data: 861623328
I0403 15:28:30.230928 19588 layer_factory.hpp:77] Creating layer inception_4a/3x3_reduce
I0403 15:28:30.230950 19588 net.cpp:91] Creating Layer inception_4a/3x3_reduce
I0403 15:28:30.230968 19588 net.cpp:425] inception_4a/3x3_reduce <- pool3/3x3_s2_pool3/3x3_s2_0_split_1
I0403 15:28:30.230990 19588 net.cpp:399] inception_4a/3x3_reduce -> inception_4a/3x3_reduce
I0403 15:28:30.232218 19588 net.cpp:141] Setting up inception_4a/3x3_reduce
I0403 15:28:30.232244 19588 net.cpp:148] Top shape: 24 96 14 14 (451584)
I0403 15:28:30.232259 19588 net.cpp:156] Memory required for data: 863429664
I0403 15:28:30.232281 19588 layer_factory.hpp:77] Creating layer inception_4a/relu_3x3_reduce
I0403 15:28:30.232311 19588 net.cpp:91] Creating Layer inception_4a/relu_3x3_reduce
I0403 15:28:30.232324 19588 net.cpp:425] inception_4a/relu_3x3_reduce <- inception_4a/3x3_reduce
I0403 15:28:30.232343 19588 net.cpp:386] inception_4a/relu_3x3_reduce -> inception_4a/3x3_reduce (in-place)
I0403 15:28:30.232516 19588 net.cpp:141] Setting up inception_4a/relu_3x3_reduce
I0403 15:28:30.232538 19588 net.cpp:148] Top shape: 24 96 14 14 (451584)
I0403 15:28:30.232553 19588 net.cpp:156] Memory required for data: 865236000
I0403 15:28:30.232565 19588 layer_factory.hpp:77] Creating layer inception_4a/3x3
I0403 15:28:30.232586 19588 net.cpp:91] Creating Layer inception_4a/3x3
I0403 15:28:30.232602 19588 net.cpp:425] inception_4a/3x3 <- inception_4a/3x3_reduce
I0403 15:28:30.232622 19588 net.cpp:399] inception_4a/3x3 -> inception_4a/3x3
I0403 15:28:30.235299 19588 net.cpp:141] Setting up inception_4a/3x3
I0403 15:28:30.235326 19588 net.cpp:148] Top shape: 24 208 14 14 (978432)
I0403 15:28:30.235339 19588 net.cpp:156] Memory required for data: 869149728
I0403 15:28:30.235357 19588 layer_factory.hpp:77] Creating layer inception_4a/relu_3x3
I0403 15:28:30.235374 19588 net.cpp:91] Creating Layer inception_4a/relu_3x3
I0403 15:28:30.235390 19588 net.cpp:425] inception_4a/relu_3x3 <- inception_4a/3x3
I0403 15:28:30.235406 19588 net.cpp:386] inception_4a/relu_3x3 -> inception_4a/3x3 (in-place)
I0403 15:28:30.235666 19588 net.cpp:141] Setting up inception_4a/relu_3x3
I0403 15:28:30.235689 19588 net.cpp:148] Top shape: 24 208 14 14 (978432)
I0403 15:28:30.235702 19588 net.cpp:156] Memory required for data: 873063456
I0403 15:28:30.235716 19588 layer_factory.hpp:77] Creating layer inception_4a/5x5_reduce
I0403 15:28:30.235736 19588 net.cpp:91] Creating Layer inception_4a/5x5_reduce
I0403 15:28:30.235752 19588 net.cpp:425] inception_4a/5x5_reduce <- pool3/3x3_s2_pool3/3x3_s2_0_split_2
I0403 15:28:30.235771 19588 net.cpp:399] inception_4a/5x5_reduce -> inception_4a/5x5_reduce
I0403 15:28:30.236731 19588 net.cpp:141] Setting up inception_4a/5x5_reduce
I0403 15:28:30.236758 19588 net.cpp:148] Top shape: 24 16 14 14 (75264)
I0403 15:28:30.236773 19588 net.cpp:156] Memory required for data: 873364512
I0403 15:28:30.236789 19588 layer_factory.hpp:77] Creating layer inception_4a/relu_5x5_reduce
I0403 15:28:30.236805 19588 net.cpp:91] Creating Layer inception_4a/relu_5x5_reduce
I0403 15:28:30.236819 19588 net.cpp:425] inception_4a/relu_5x5_reduce <- inception_4a/5x5_reduce
I0403 15:28:30.236835 19588 net.cpp:386] inception_4a/relu_5x5_reduce -> inception_4a/5x5_reduce (in-place)
I0403 15:28:30.237002 19588 net.cpp:141] Setting up inception_4a/relu_5x5_reduce
I0403 15:28:30.237028 19588 net.cpp:148] Top shape: 24 16 14 14 (75264)
I0403 15:28:30.237042 19588 net.cpp:156] Memory required for data: 873665568
I0403 15:28:30.237056 19588 layer_factory.hpp:77] Creating layer inception_4a/5x5
I0403 15:28:30.237076 19588 net.cpp:91] Creating Layer inception_4a/5x5
I0403 15:28:30.237092 19588 net.cpp:425] inception_4a/5x5 <- inception_4a/5x5_reduce
I0403 15:28:30.237110 19588 net.cpp:399] inception_4a/5x5 -> inception_4a/5x5
I0403 15:28:30.238162 19588 net.cpp:141] Setting up inception_4a/5x5
I0403 15:28:30.238188 19588 net.cpp:148] Top shape: 24 48 14 14 (225792)
I0403 15:28:30.238203 19588 net.cpp:156] Memory required for data: 874568736
I0403 15:28:30.238219 19588 layer_factory.hpp:77] Creating layer inception_4a/relu_5x5
I0403 15:28:30.238247 19588 net.cpp:91] Creating Layer inception_4a/relu_5x5
I0403 15:28:30.238261 19588 net.cpp:425] inception_4a/relu_5x5 <- inception_4a/5x5
I0403 15:28:30.238279 19588 net.cpp:386] inception_4a/relu_5x5 -> inception_4a/5x5 (in-place)
I0403 15:28:30.238448 19588 net.cpp:141] Setting up inception_4a/relu_5x5
I0403 15:28:30.238471 19588 net.cpp:148] Top shape: 24 48 14 14 (225792)
I0403 15:28:30.238484 19588 net.cpp:156] Memory required for data: 875471904
I0403 15:28:30.238497 19588 layer_factory.hpp:77] Creating layer inception_4a/pool
I0403 15:28:30.238517 19588 net.cpp:91] Creating Layer inception_4a/pool
I0403 15:28:30.238531 19588 net.cpp:425] inception_4a/pool <- pool3/3x3_s2_pool3/3x3_s2_0_split_3
I0403 15:28:30.238548 19588 net.cpp:399] inception_4a/pool -> inception_4a/pool
I0403 15:28:30.238605 19588 net.cpp:141] Setting up inception_4a/pool
I0403 15:28:30.238626 19588 net.cpp:148] Top shape: 24 480 14 14 (2257920)
I0403 15:28:30.238639 19588 net.cpp:156] Memory required for data: 884503584
I0403 15:28:30.238652 19588 layer_factory.hpp:77] Creating layer inception_4a/pool_proj
I0403 15:28:30.238672 19588 net.cpp:91] Creating Layer inception_4a/pool_proj
I0403 15:28:30.238688 19588 net.cpp:425] inception_4a/pool_proj <- inception_4a/pool
I0403 15:28:30.238706 19588 net.cpp:399] inception_4a/pool_proj -> inception_4a/pool_proj
I0403 15:28:30.239998 19588 net.cpp:141] Setting up inception_4a/pool_proj
I0403 15:28:30.240025 19588 net.cpp:148] Top shape: 24 64 14 14 (301056)
I0403 15:28:30.240052 19588 net.cpp:156] Memory required for data: 885707808
I0403 15:28:30.240070 19588 layer_factory.hpp:77] Creating layer inception_4a/relu_pool_proj
I0403 15:28:30.240087 19588 net.cpp:91] Creating Layer inception_4a/relu_pool_proj
I0403 15:28:30.240102 19588 net.cpp:425] inception_4a/relu_pool_proj <- inception_4a/pool_proj
I0403 15:28:30.240119 19588 net.cpp:386] inception_4a/relu_pool_proj -> inception_4a/pool_proj (in-place)
I0403 15:28:30.240392 19588 net.cpp:141] Setting up inception_4a/relu_pool_proj
I0403 15:28:30.240417 19588 net.cpp:148] Top shape: 24 64 14 14 (301056)
I0403 15:28:30.240430 19588 net.cpp:156] Memory required for data: 886912032
I0403 15:28:30.240443 19588 layer_factory.hpp:77] Creating layer inception_4a/output
I0403 15:28:30.240459 19588 net.cpp:91] Creating Layer inception_4a/output
I0403 15:28:30.240473 19588 net.cpp:425] inception_4a/output <- inception_4a/1x1
I0403 15:28:30.240489 19588 net.cpp:425] inception_4a/output <- inception_4a/3x3
I0403 15:28:30.240502 19588 net.cpp:425] inception_4a/output <- inception_4a/5x5
I0403 15:28:30.240517 19588 net.cpp:425] inception_4a/output <- inception_4a/pool_proj
I0403 15:28:30.240535 19588 net.cpp:399] inception_4a/output -> inception_4a/output
I0403 15:28:30.240576 19588 net.cpp:141] Setting up inception_4a/output
I0403 15:28:30.240600 19588 net.cpp:148] Top shape: 24 512 14 14 (2408448)
I0403 15:28:30.240613 19588 net.cpp:156] Memory required for data: 896545824
I0403 15:28:30.240627 19588 layer_factory.hpp:77] Creating layer inception_4a/output_inception_4a/output_0_split
I0403 15:28:30.240641 19588 net.cpp:91] Creating Layer inception_4a/output_inception_4a/output_0_split
I0403 15:28:30.240655 19588 net.cpp:425] inception_4a/output_inception_4a/output_0_split <- inception_4a/output
I0403 15:28:30.240674 19588 net.cpp:399] inception_4a/output_inception_4a/output_0_split -> inception_4a/output_inception_4a/output_0_split_0
I0403 15:28:30.240694 19588 net.cpp:399] inception_4a/output_inception_4a/output_0_split -> inception_4a/output_inception_4a/output_0_split_1
I0403 15:28:30.240713 19588 net.cpp:399] inception_4a/output_inception_4a/output_0_split -> inception_4a/output_inception_4a/output_0_split_2
I0403 15:28:30.240731 19588 net.cpp:399] inception_4a/output_inception_4a/output_0_split -> inception_4a/output_inception_4a/output_0_split_3
I0403 15:28:30.240748 19588 net.cpp:399] inception_4a/output_inception_4a/output_0_split -> inception_4a/output_inception_4a/output_0_split_4
I0403 15:28:30.240836 19588 net.cpp:141] Setting up inception_4a/output_inception_4a/output_0_split
I0403 15:28:30.240860 19588 net.cpp:148] Top shape: 24 512 14 14 (2408448)
I0403 15:28:30.240875 19588 net.cpp:148] Top shape: 24 512 14 14 (2408448)
I0403 15:28:30.240890 19588 net.cpp:148] Top shape: 24 512 14 14 (2408448)
I0403 15:28:30.240903 19588 net.cpp:148] Top shape: 24 512 14 14 (2408448)
I0403 15:28:30.240917 19588 net.cpp:148] Top shape: 24 512 14 14 (2408448)
I0403 15:28:30.240929 19588 net.cpp:156] Memory required for data: 944714784
I0403 15:28:30.240942 19588 layer_factory.hpp:77] Creating layer loss1/ave_pool
I0403 15:28:30.240958 19588 net.cpp:91] Creating Layer loss1/ave_pool
I0403 15:28:30.240972 19588 net.cpp:425] loss1/ave_pool <- inception_4a/output_inception_4a/output_0_split_0
I0403 15:28:30.240993 19588 net.cpp:399] loss1/ave_pool -> loss1/ave_pool
I0403 15:28:30.241189 19588 net.cpp:141] Setting up loss1/ave_pool
I0403 15:28:30.241212 19588 net.cpp:148] Top shape: 24 512 4 4 (196608)
I0403 15:28:30.241225 19588 net.cpp:156] Memory required for data: 945501216
I0403 15:28:30.241240 19588 layer_factory.hpp:77] Creating layer loss1/conv
I0403 15:28:30.241260 19588 net.cpp:91] Creating Layer loss1/conv
I0403 15:28:30.241276 19588 net.cpp:425] loss1/conv <- loss1/ave_pool
I0403 15:28:30.241294 19588 net.cpp:399] loss1/conv -> loss1/conv
I0403 15:28:30.242651 19588 net.cpp:141] Setting up loss1/conv
I0403 15:28:30.242676 19588 net.cpp:148] Top shape: 24 128 4 4 (49152)
I0403 15:28:30.242703 19588 net.cpp:156] Memory required for data: 945697824
I0403 15:28:30.242722 19588 layer_factory.hpp:77] Creating layer loss1/relu_conv
I0403 15:28:30.242740 19588 net.cpp:91] Creating Layer loss1/relu_conv
I0403 15:28:30.242755 19588 net.cpp:425] loss1/relu_conv <- loss1/conv
I0403 15:28:30.242770 19588 net.cpp:386] loss1/relu_conv -> loss1/conv (in-place)
I0403 15:28:30.243042 19588 net.cpp:141] Setting up loss1/relu_conv
I0403 15:28:30.243067 19588 net.cpp:148] Top shape: 24 128 4 4 (49152)
I0403 15:28:30.243080 19588 net.cpp:156] Memory required for data: 945894432
I0403 15:28:30.243094 19588 layer_factory.hpp:77] Creating layer loss1/fc
I0403 15:28:30.243119 19588 net.cpp:91] Creating Layer loss1/fc
I0403 15:28:30.243135 19588 net.cpp:425] loss1/fc <- loss1/conv
I0403 15:28:30.243154 19588 net.cpp:399] loss1/fc -> loss1/fc
I0403 15:28:30.260038 19588 net.cpp:141] Setting up loss1/fc
I0403 15:28:30.260071 19588 net.cpp:148] Top shape: 24 1024 (24576)
I0403 15:28:30.260084 19588 net.cpp:156] Memory required for data: 945992736
I0403 15:28:30.260102 19588 layer_factory.hpp:77] Creating layer loss1/relu_fc
I0403 15:28:30.260118 19588 net.cpp:91] Creating Layer loss1/relu_fc
I0403 15:28:30.260133 19588 net.cpp:425] loss1/relu_fc <- loss1/fc
I0403 15:28:30.260150 19588 net.cpp:386] loss1/relu_fc -> loss1/fc (in-place)
I0403 15:28:30.260324 19588 net.cpp:141] Setting up loss1/relu_fc
I0403 15:28:30.260346 19588 net.cpp:148] Top shape: 24 1024 (24576)
I0403 15:28:30.260360 19588 net.cpp:156] Memory required for data: 946091040
I0403 15:28:30.260372 19588 layer_factory.hpp:77] Creating layer loss1/drop_fc
I0403 15:28:30.260398 19588 net.cpp:91] Creating Layer loss1/drop_fc
I0403 15:28:30.260416 19588 net.cpp:425] loss1/drop_fc <- loss1/fc
I0403 15:28:30.260439 19588 net.cpp:386] loss1/drop_fc -> loss1/fc (in-place)
I0403 15:28:30.260486 19588 net.cpp:141] Setting up loss1/drop_fc
I0403 15:28:30.260510 19588 net.cpp:148] Top shape: 24 1024 (24576)
I0403 15:28:30.260525 19588 net.cpp:156] Memory required for data: 946189344
I0403 15:28:30.260540 19588 layer_factory.hpp:77] Creating layer loss1/classifier_plantvillage
I0403 15:28:30.260555 19588 net.cpp:91] Creating Layer loss1/classifier_plantvillage
I0403 15:28:30.260571 19588 net.cpp:425] loss1/classifier_plantvillage <- loss1/fc
I0403 15:28:30.260591 19588 net.cpp:399] loss1/classifier_plantvillage -> loss1/classifier_plantvillage
I0403 15:28:30.261487 19588 net.cpp:141] Setting up loss1/classifier_plantvillage
I0403 15:28:30.261513 19588 net.cpp:148] Top shape: 24 38 (912)
I0403 15:28:30.261528 19588 net.cpp:156] Memory required for data: 946192992
I0403 15:28:30.261544 19588 layer_factory.hpp:77] Creating layer loss1/classifier_plantvillage_loss1/classifier_plantvillage_0_split
I0403 15:28:30.261565 19588 net.cpp:91] Creating Layer loss1/classifier_plantvillage_loss1/classifier_plantvillage_0_split
I0403 15:28:30.261580 19588 net.cpp:425] loss1/classifier_plantvillage_loss1/classifier_plantvillage_0_split <- loss1/classifier_plantvillage
I0403 15:28:30.261597 19588 net.cpp:399] loss1/classifier_plantvillage_loss1/classifier_plantvillage_0_split -> loss1/classifier_plantvillage_loss1/classifier_plantvillage_0_split_0
I0403 15:28:30.261616 19588 net.cpp:399] loss1/classifier_plantvillage_loss1/classifier_plantvillage_0_split -> loss1/classifier_plantvillage_loss1/classifier_plantvillage_0_split_1
I0403 15:28:30.261636 19588 net.cpp:399] loss1/classifier_plantvillage_loss1/classifier_plantvillage_0_split -> loss1/classifier_plantvillage_loss1/classifier_plantvillage_0_split_2
I0403 15:28:30.261699 19588 net.cpp:141] Setting up loss1/classifier_plantvillage_loss1/classifier_plantvillage_0_split
I0403 15:28:30.261720 19588 net.cpp:148] Top shape: 24 38 (912)
I0403 15:28:30.261736 19588 net.cpp:148] Top shape: 24 38 (912)
I0403 15:28:30.261750 19588 net.cpp:148] Top shape: 24 38 (912)
I0403 15:28:30.261762 19588 net.cpp:156] Memory required for data: 946203936
I0403 15:28:30.261776 19588 layer_factory.hpp:77] Creating layer inception_4b/1x1
I0403 15:28:30.261795 19588 net.cpp:91] Creating Layer inception_4b/1x1
I0403 15:28:30.261823 19588 net.cpp:425] inception_4b/1x1 <- inception_4a/output_inception_4a/output_0_split_1
I0403 15:28:30.261845 19588 net.cpp:399] inception_4b/1x1 -> inception_4b/1x1
I0403 15:28:30.263448 19588 net.cpp:141] Setting up inception_4b/1x1
I0403 15:28:30.263476 19588 net.cpp:148] Top shape: 24 160 14 14 (752640)
I0403 15:28:30.263496 19588 net.cpp:156] Memory required for data: 949214496
I0403 15:28:30.263514 19588 layer_factory.hpp:77] Creating layer inception_4b/relu_1x1
I0403 15:28:30.263531 19588 net.cpp:91] Creating Layer inception_4b/relu_1x1
I0403 15:28:30.263546 19588 net.cpp:425] inception_4b/relu_1x1 <- inception_4b/1x1
I0403 15:28:30.263562 19588 net.cpp:386] inception_4b/relu_1x1 -> inception_4b/1x1 (in-place)
I0403 15:28:30.263742 19588 net.cpp:141] Setting up inception_4b/relu_1x1
I0403 15:28:30.263770 19588 net.cpp:148] Top shape: 24 160 14 14 (752640)
I0403 15:28:30.263785 19588 net.cpp:156] Memory required for data: 952225056
I0403 15:28:30.263810 19588 layer_factory.hpp:77] Creating layer inception_4b/3x3_reduce
I0403 15:28:30.263833 19588 net.cpp:91] Creating Layer inception_4b/3x3_reduce
I0403 15:28:30.263850 19588 net.cpp:425] inception_4b/3x3_reduce <- inception_4a/output_inception_4a/output_0_split_2
I0403 15:28:30.263870 19588 net.cpp:399] inception_4b/3x3_reduce -> inception_4b/3x3_reduce
I0403 15:28:30.265213 19588 net.cpp:141] Setting up inception_4b/3x3_reduce
I0403 15:28:30.265242 19588 net.cpp:148] Top shape: 24 112 14 14 (526848)
I0403 15:28:30.265259 19588 net.cpp:156] Memory required for data: 954332448
I0403 15:28:30.265276 19588 layer_factory.hpp:77] Creating layer inception_4b/relu_3x3_reduce
I0403 15:28:30.265293 19588 net.cpp:91] Creating Layer inception_4b/relu_3x3_reduce
I0403 15:28:30.265308 19588 net.cpp:425] inception_4b/relu_3x3_reduce <- inception_4b/3x3_reduce
I0403 15:28:30.265327 19588 net.cpp:386] inception_4b/relu_3x3_reduce -> inception_4b/3x3_reduce (in-place)
I0403 15:28:30.265599 19588 net.cpp:141] Setting up inception_4b/relu_3x3_reduce
I0403 15:28:30.265625 19588 net.cpp:148] Top shape: 24 112 14 14 (526848)
I0403 15:28:30.265641 19588 net.cpp:156] Memory required for data: 956439840
I0403 15:28:30.265655 19588 layer_factory.hpp:77] Creating layer inception_4b/3x3
I0403 15:28:30.265676 19588 net.cpp:91] Creating Layer inception_4b/3x3
I0403 15:28:30.265693 19588 net.cpp:425] inception_4b/3x3 <- inception_4b/3x3_reduce
I0403 15:28:30.265712 19588 net.cpp:399] inception_4b/3x3 -> inception_4b/3x3
I0403 15:28:30.269753 19588 net.cpp:141] Setting up inception_4b/3x3
I0403 15:28:30.269783 19588 net.cpp:148] Top shape: 24 224 14 14 (1053696)
I0403 15:28:30.269798 19588 net.cpp:156] Memory required for data: 960654624
I0403 15:28:30.269814 19588 layer_factory.hpp:77] Creating layer inception_4b/relu_3x3
I0403 15:28:30.269834 19588 net.cpp:91] Creating Layer inception_4b/relu_3x3
I0403 15:28:30.269850 19588 net.cpp:425] inception_4b/relu_3x3 <- inception_4b/3x3
I0403 15:28:30.269865 19588 net.cpp:386] inception_4b/relu_3x3 -> inception_4b/3x3 (in-place)
I0403 15:28:30.270042 19588 net.cpp:141] Setting up inception_4b/relu_3x3
I0403 15:28:30.270066 19588 net.cpp:148] Top shape: 24 224 14 14 (1053696)
I0403 15:28:30.270079 19588 net.cpp:156] Memory required for data: 964869408
I0403 15:28:30.270093 19588 layer_factory.hpp:77] Creating layer inception_4b/5x5_reduce
I0403 15:28:30.270117 19588 net.cpp:91] Creating Layer inception_4b/5x5_reduce
I0403 15:28:30.270133 19588 net.cpp:425] inception_4b/5x5_reduce <- inception_4a/output_inception_4a/output_0_split_3
I0403 15:28:30.270150 19588 net.cpp:399] inception_4b/5x5_reduce -> inception_4b/5x5_reduce
I0403 15:28:30.271214 19588 net.cpp:141] Setting up inception_4b/5x5_reduce
I0403 15:28:30.271241 19588 net.cpp:148] Top shape: 24 24 14 14 (112896)
I0403 15:28:30.271256 19588 net.cpp:156] Memory required for data: 965320992
I0403 15:28:30.271275 19588 layer_factory.hpp:77] Creating layer inception_4b/relu_5x5_reduce
I0403 15:28:30.271291 19588 net.cpp:91] Creating Layer inception_4b/relu_5x5_reduce
I0403 15:28:30.271320 19588 net.cpp:425] inception_4b/relu_5x5_reduce <- inception_4b/5x5_reduce
I0403 15:28:30.271340 19588 net.cpp:386] inception_4b/relu_5x5_reduce -> inception_4b/5x5_reduce (in-place)
I0403 15:28:30.271517 19588 net.cpp:141] Setting up inception_4b/relu_5x5_reduce
I0403 15:28:30.271540 19588 net.cpp:148] Top shape: 24 24 14 14 (112896)
I0403 15:28:30.271553 19588 net.cpp:156] Memory required for data: 965772576
I0403 15:28:30.271567 19588 layer_factory.hpp:77] Creating layer inception_4b/5x5
I0403 15:28:30.271589 19588 net.cpp:91] Creating Layer inception_4b/5x5
I0403 15:28:30.271605 19588 net.cpp:425] inception_4b/5x5 <- inception_4b/5x5_reduce
I0403 15:28:30.271625 19588 net.cpp:399] inception_4b/5x5 -> inception_4b/5x5
I0403 15:28:30.272825 19588 net.cpp:141] Setting up inception_4b/5x5
I0403 15:28:30.272852 19588 net.cpp:148] Top shape: 24 64 14 14 (301056)
I0403 15:28:30.272869 19588 net.cpp:156] Memory required for data: 966976800
I0403 15:28:30.272887 19588 layer_factory.hpp:77] Creating layer inception_4b/relu_5x5
I0403 15:28:30.272904 19588 net.cpp:91] Creating Layer inception_4b/relu_5x5
I0403 15:28:30.272919 19588 net.cpp:425] inception_4b/relu_5x5 <- inception_4b/5x5
I0403 15:28:30.272935 19588 net.cpp:386] inception_4b/relu_5x5 -> inception_4b/5x5 (in-place)
I0403 15:28:30.273227 19588 net.cpp:141] Setting up inception_4b/relu_5x5
I0403 15:28:30.273252 19588 net.cpp:148] Top shape: 24 64 14 14 (301056)
I0403 15:28:30.273270 19588 net.cpp:156] Memory required for data: 968181024
I0403 15:28:30.273284 19588 layer_factory.hpp:77] Creating layer inception_4b/pool
I0403 15:28:30.273300 19588 net.cpp:91] Creating Layer inception_4b/pool
I0403 15:28:30.273315 19588 net.cpp:425] inception_4b/pool <- inception_4a/output_inception_4a/output_0_split_4
I0403 15:28:30.273332 19588 net.cpp:399] inception_4b/pool -> inception_4b/pool
I0403 15:28:30.273394 19588 net.cpp:141] Setting up inception_4b/pool
I0403 15:28:30.273417 19588 net.cpp:148] Top shape: 24 512 14 14 (2408448)
I0403 15:28:30.273432 19588 net.cpp:156] Memory required for data: 977814816
I0403 15:28:30.273444 19588 layer_factory.hpp:77] Creating layer inception_4b/pool_proj
I0403 15:28:30.273465 19588 net.cpp:91] Creating Layer inception_4b/pool_proj
I0403 15:28:30.273483 19588 net.cpp:425] inception_4b/pool_proj <- inception_4b/pool
I0403 15:28:30.273502 19588 net.cpp:399] inception_4b/pool_proj -> inception_4b/pool_proj
I0403 15:28:30.274677 19588 net.cpp:141] Setting up inception_4b/pool_proj
I0403 15:28:30.274706 19588 net.cpp:148] Top shape: 24 64 14 14 (301056)
I0403 15:28:30.274723 19588 net.cpp:156] Memory required for data: 979019040
I0403 15:28:30.274739 19588 layer_factory.hpp:77] Creating layer inception_4b/relu_pool_proj
I0403 15:28:30.274756 19588 net.cpp:91] Creating Layer inception_4b/relu_pool_proj
I0403 15:28:30.274771 19588 net.cpp:425] inception_4b/relu_pool_proj <- inception_4b/pool_proj
I0403 15:28:30.274787 19588 net.cpp:386] inception_4b/relu_pool_proj -> inception_4b/pool_proj (in-place)
I0403 15:28:30.274963 19588 net.cpp:141] Setting up inception_4b/relu_pool_proj
I0403 15:28:30.274991 19588 net.cpp:148] Top shape: 24 64 14 14 (301056)
I0403 15:28:30.275005 19588 net.cpp:156] Memory required for data: 980223264
I0403 15:28:30.275019 19588 layer_factory.hpp:77] Creating layer inception_4b/output
I0403 15:28:30.275035 19588 net.cpp:91] Creating Layer inception_4b/output
I0403 15:28:30.275050 19588 net.cpp:425] inception_4b/output <- inception_4b/1x1
I0403 15:28:30.275065 19588 net.cpp:425] inception_4b/output <- inception_4b/3x3
I0403 15:28:30.275080 19588 net.cpp:425] inception_4b/output <- inception_4b/5x5
I0403 15:28:30.275095 19588 net.cpp:425] inception_4b/output <- inception_4b/pool_proj
I0403 15:28:30.275113 19588 net.cpp:399] inception_4b/output -> inception_4b/output
I0403 15:28:30.275157 19588 net.cpp:141] Setting up inception_4b/output
I0403 15:28:30.275182 19588 net.cpp:148] Top shape: 24 512 14 14 (2408448)
I0403 15:28:30.275197 19588 net.cpp:156] Memory required for data: 989857056
I0403 15:28:30.275224 19588 layer_factory.hpp:77] Creating layer inception_4b/output_inception_4b/output_0_split
I0403 15:28:30.275240 19588 net.cpp:91] Creating Layer inception_4b/output_inception_4b/output_0_split
I0403 15:28:30.275254 19588 net.cpp:425] inception_4b/output_inception_4b/output_0_split <- inception_4b/output
I0403 15:28:30.275271 19588 net.cpp:399] inception_4b/output_inception_4b/output_0_split -> inception_4b/output_inception_4b/output_0_split_0
I0403 15:28:30.275296 19588 net.cpp:399] inception_4b/output_inception_4b/output_0_split -> inception_4b/output_inception_4b/output_0_split_1
I0403 15:28:30.275315 19588 net.cpp:399] inception_4b/output_inception_4b/output_0_split -> inception_4b/output_inception_4b/output_0_split_2
I0403 15:28:30.275334 19588 net.cpp:399] inception_4b/output_inception_4b/output_0_split -> inception_4b/output_inception_4b/output_0_split_3
I0403 15:28:30.275414 19588 net.cpp:141] Setting up inception_4b/output_inception_4b/output_0_split
I0403 15:28:30.275436 19588 net.cpp:148] Top shape: 24 512 14 14 (2408448)
I0403 15:28:30.275451 19588 net.cpp:148] Top shape: 24 512 14 14 (2408448)
I0403 15:28:30.275465 19588 net.cpp:148] Top shape: 24 512 14 14 (2408448)
I0403 15:28:30.275480 19588 net.cpp:148] Top shape: 24 512 14 14 (2408448)
I0403 15:28:30.275491 19588 net.cpp:156] Memory required for data: 1028392224
I0403 15:28:30.275506 19588 layer_factory.hpp:77] Creating layer inception_4c/1x1
I0403 15:28:30.275527 19588 net.cpp:91] Creating Layer inception_4c/1x1
I0403 15:28:30.275543 19588 net.cpp:425] inception_4c/1x1 <- inception_4b/output_inception_4b/output_0_split_0
I0403 15:28:30.275563 19588 net.cpp:399] inception_4c/1x1 -> inception_4c/1x1
I0403 15:28:30.276953 19588 net.cpp:141] Setting up inception_4c/1x1
I0403 15:28:30.276980 19588 net.cpp:148] Top shape: 24 128 14 14 (602112)
I0403 15:28:30.276999 19588 net.cpp:156] Memory required for data: 1030800672
I0403 15:28:30.277016 19588 layer_factory.hpp:77] Creating layer inception_4c/relu_1x1
I0403 15:28:30.277035 19588 net.cpp:91] Creating Layer inception_4c/relu_1x1
I0403 15:28:30.277051 19588 net.cpp:425] inception_4c/relu_1x1 <- inception_4c/1x1
I0403 15:28:30.277067 19588 net.cpp:386] inception_4c/relu_1x1 -> inception_4c/1x1 (in-place)
I0403 15:28:30.277245 19588 net.cpp:141] Setting up inception_4c/relu_1x1
I0403 15:28:30.277268 19588 net.cpp:148] Top shape: 24 128 14 14 (602112)
I0403 15:28:30.277281 19588 net.cpp:156] Memory required for data: 1033209120
I0403 15:28:30.277295 19588 layer_factory.hpp:77] Creating layer inception_4c/3x3_reduce
I0403 15:28:30.277317 19588 net.cpp:91] Creating Layer inception_4c/3x3_reduce
I0403 15:28:30.277333 19588 net.cpp:425] inception_4c/3x3_reduce <- inception_4b/output_inception_4b/output_0_split_1
I0403 15:28:30.277353 19588 net.cpp:399] inception_4c/3x3_reduce -> inception_4c/3x3_reduce
I0403 15:28:30.279265 19588 net.cpp:141] Setting up inception_4c/3x3_reduce
I0403 15:28:30.279294 19588 net.cpp:148] Top shape: 24 128 14 14 (602112)
I0403 15:28:30.279307 19588 net.cpp:156] Memory required for data: 1035617568
I0403 15:28:30.279336 19588 layer_factory.hpp:77] Creating layer inception_4c/relu_3x3_reduce
I0403 15:28:30.279356 19588 net.cpp:91] Creating Layer inception_4c/relu_3x3_reduce
I0403 15:28:30.279372 19588 net.cpp:425] inception_4c/relu_3x3_reduce <- inception_4c/3x3_reduce
I0403 15:28:30.279389 19588 net.cpp:386] inception_4c/relu_3x3_reduce -> inception_4c/3x3_reduce (in-place)
I0403 15:28:30.279682 19588 net.cpp:141] Setting up inception_4c/relu_3x3_reduce
I0403 15:28:30.279707 19588 net.cpp:148] Top shape: 24 128 14 14 (602112)
I0403 15:28:30.279721 19588 net.cpp:156] Memory required for data: 1038026016
I0403 15:28:30.279736 19588 layer_factory.hpp:77] Creating layer inception_4c/3x3
I0403 15:28:30.279758 19588 net.cpp:91] Creating Layer inception_4c/3x3
I0403 15:28:30.279775 19588 net.cpp:425] inception_4c/3x3 <- inception_4c/3x3_reduce
I0403 15:28:30.279793 19588 net.cpp:399] inception_4c/3x3 -> inception_4c/3x3
I0403 15:28:30.283224 19588 net.cpp:141] Setting up inception_4c/3x3
I0403 15:28:30.283264 19588 net.cpp:148] Top shape: 24 256 14 14 (1204224)
I0403 15:28:30.283280 19588 net.cpp:156] Memory required for data: 1042842912
I0403 15:28:30.283313 19588 layer_factory.hpp:77] Creating layer inception_4c/relu_3x3
I0403 15:28:30.283332 19588 net.cpp:91] Creating Layer inception_4c/relu_3x3
I0403 15:28:30.283346 19588 net.cpp:425] inception_4c/relu_3x3 <- inception_4c/3x3
I0403 15:28:30.283362 19588 net.cpp:386] inception_4c/relu_3x3 -> inception_4c/3x3 (in-place)
I0403 15:28:30.283535 19588 net.cpp:141] Setting up inception_4c/relu_3x3
I0403 15:28:30.283560 19588 net.cpp:148] Top shape: 24 256 14 14 (1204224)
I0403 15:28:30.283574 19588 net.cpp:156] Memory required for data: 1047659808
I0403 15:28:30.283587 19588 layer_factory.hpp:77] Creating layer inception_4c/5x5_reduce
I0403 15:28:30.283609 19588 net.cpp:91] Creating Layer inception_4c/5x5_reduce
I0403 15:28:30.283625 19588 net.cpp:425] inception_4c/5x5_reduce <- inception_4b/output_inception_4b/output_0_split_2
I0403 15:28:30.283643 19588 net.cpp:399] inception_4c/5x5_reduce -> inception_4c/5x5_reduce
I0403 15:28:30.284672 19588 net.cpp:141] Setting up inception_4c/5x5_reduce
I0403 15:28:30.284698 19588 net.cpp:148] Top shape: 24 24 14 14 (112896)
I0403 15:28:30.284713 19588 net.cpp:156] Memory required for data: 1048111392
I0403 15:28:30.284729 19588 layer_factory.hpp:77] Creating layer inception_4c/relu_5x5_reduce
I0403 15:28:30.284747 19588 net.cpp:91] Creating Layer inception_4c/relu_5x5_reduce
I0403 15:28:30.284764 19588 net.cpp:425] inception_4c/relu_5x5_reduce <- inception_4c/5x5_reduce
I0403 15:28:30.284780 19588 net.cpp:386] inception_4c/relu_5x5_reduce -> inception_4c/5x5_reduce (in-place)
I0403 15:28:30.284955 19588 net.cpp:141] Setting up inception_4c/relu_5x5_reduce
I0403 15:28:30.284977 19588 net.cpp:148] Top shape: 24 24 14 14 (112896)
I0403 15:28:30.284996 19588 net.cpp:156] Memory required for data: 1048562976
I0403 15:28:30.285009 19588 layer_factory.hpp:77] Creating layer inception_4c/5x5
I0403 15:28:30.285030 19588 net.cpp:91] Creating Layer inception_4c/5x5
I0403 15:28:30.285046 19588 net.cpp:425] inception_4c/5x5 <- inception_4c/5x5_reduce
I0403 15:28:30.285065 19588 net.cpp:399] inception_4c/5x5 -> inception_4c/5x5
I0403 15:28:30.286267 19588 net.cpp:141] Setting up inception_4c/5x5
I0403 15:28:30.286291 19588 net.cpp:148] Top shape: 24 64 14 14 (301056)
I0403 15:28:30.286305 19588 net.cpp:156] Memory required for data: 1049767200
I0403 15:28:30.286322 19588 layer_factory.hpp:77] Creating layer inception_4c/relu_5x5
I0403 15:28:30.286339 19588 net.cpp:91] Creating Layer inception_4c/relu_5x5
I0403 15:28:30.286352 19588 net.cpp:425] inception_4c/relu_5x5 <- inception_4c/5x5
I0403 15:28:30.286370 19588 net.cpp:386] inception_4c/relu_5x5 -> inception_4c/5x5 (in-place)
I0403 15:28:30.286651 19588 net.cpp:141] Setting up inception_4c/relu_5x5
I0403 15:28:30.286675 19588 net.cpp:148] Top shape: 24 64 14 14 (301056)
I0403 15:28:30.286689 19588 net.cpp:156] Memory required for data: 1050971424
I0403 15:28:30.286702 19588 layer_factory.hpp:77] Creating layer inception_4c/pool
I0403 15:28:30.286718 19588 net.cpp:91] Creating Layer inception_4c/pool
I0403 15:28:30.286732 19588 net.cpp:425] inception_4c/pool <- inception_4b/output_inception_4b/output_0_split_3
I0403 15:28:30.286751 19588 net.cpp:399] inception_4c/pool -> inception_4c/pool
I0403 15:28:30.286813 19588 net.cpp:141] Setting up inception_4c/pool
I0403 15:28:30.286836 19588 net.cpp:148] Top shape: 24 512 14 14 (2408448)
I0403 15:28:30.286850 19588 net.cpp:156] Memory required for data: 1060605216
I0403 15:28:30.286864 19588 layer_factory.hpp:77] Creating layer inception_4c/pool_proj
I0403 15:28:30.286883 19588 net.cpp:91] Creating Layer inception_4c/pool_proj
I0403 15:28:30.286898 19588 net.cpp:425] inception_4c/pool_proj <- inception_4c/pool
I0403 15:28:30.286916 19588 net.cpp:399] inception_4c/pool_proj -> inception_4c/pool_proj
I0403 15:28:30.288082 19588 net.cpp:141] Setting up inception_4c/pool_proj
I0403 15:28:30.288111 19588 net.cpp:148] Top shape: 24 64 14 14 (301056)
I0403 15:28:30.288138 19588 net.cpp:156] Memory required for data: 1061809440
I0403 15:28:30.288156 19588 layer_factory.hpp:77] Creating layer inception_4c/relu_pool_proj
I0403 15:28:30.288172 19588 net.cpp:91] Creating Layer inception_4c/relu_pool_proj
I0403 15:28:30.288187 19588 net.cpp:425] inception_4c/relu_pool_proj <- inception_4c/pool_proj
I0403 15:28:30.288203 19588 net.cpp:386] inception_4c/relu_pool_proj -> inception_4c/pool_proj (in-place)
I0403 15:28:30.288374 19588 net.cpp:141] Setting up inception_4c/relu_pool_proj
I0403 15:28:30.288399 19588 net.cpp:148] Top shape: 24 64 14 14 (301056)
I0403 15:28:30.288414 19588 net.cpp:156] Memory required for data: 1063013664
I0403 15:28:30.288427 19588 layer_factory.hpp:77] Creating layer inception_4c/output
I0403 15:28:30.288442 19588 net.cpp:91] Creating Layer inception_4c/output
I0403 15:28:30.288456 19588 net.cpp:425] inception_4c/output <- inception_4c/1x1
I0403 15:28:30.288470 19588 net.cpp:425] inception_4c/output <- inception_4c/3x3
I0403 15:28:30.288485 19588 net.cpp:425] inception_4c/output <- inception_4c/5x5
I0403 15:28:30.288498 19588 net.cpp:425] inception_4c/output <- inception_4c/pool_proj
I0403 15:28:30.288516 19588 net.cpp:399] inception_4c/output -> inception_4c/output
I0403 15:28:30.288558 19588 net.cpp:141] Setting up inception_4c/output
I0403 15:28:30.288579 19588 net.cpp:148] Top shape: 24 512 14 14 (2408448)
I0403 15:28:30.288592 19588 net.cpp:156] Memory required for data: 1072647456
I0403 15:28:30.288605 19588 layer_factory.hpp:77] Creating layer inception_4c/output_inception_4c/output_0_split
I0403 15:28:30.288622 19588 net.cpp:91] Creating Layer inception_4c/output_inception_4c/output_0_split
I0403 15:28:30.288637 19588 net.cpp:425] inception_4c/output_inception_4c/output_0_split <- inception_4c/output
I0403 15:28:30.288653 19588 net.cpp:399] inception_4c/output_inception_4c/output_0_split -> inception_4c/output_inception_4c/output_0_split_0
I0403 15:28:30.288674 19588 net.cpp:399] inception_4c/output_inception_4c/output_0_split -> inception_4c/output_inception_4c/output_0_split_1
I0403 15:28:30.288693 19588 net.cpp:399] inception_4c/output_inception_4c/output_0_split -> inception_4c/output_inception_4c/output_0_split_2
I0403 15:28:30.288712 19588 net.cpp:399] inception_4c/output_inception_4c/output_0_split -> inception_4c/output_inception_4c/output_0_split_3
I0403 15:28:30.288790 19588 net.cpp:141] Setting up inception_4c/output_inception_4c/output_0_split
I0403 15:28:30.288811 19588 net.cpp:148] Top shape: 24 512 14 14 (2408448)
I0403 15:28:30.288826 19588 net.cpp:148] Top shape: 24 512 14 14 (2408448)
I0403 15:28:30.288841 19588 net.cpp:148] Top shape: 24 512 14 14 (2408448)
I0403 15:28:30.288854 19588 net.cpp:148] Top shape: 24 512 14 14 (2408448)
I0403 15:28:30.288866 19588 net.cpp:156] Memory required for data: 1111182624
I0403 15:28:30.288879 19588 layer_factory.hpp:77] Creating layer inception_4d/1x1
I0403 15:28:30.288899 19588 net.cpp:91] Creating Layer inception_4d/1x1
I0403 15:28:30.288915 19588 net.cpp:425] inception_4d/1x1 <- inception_4c/output_inception_4c/output_0_split_0
I0403 15:28:30.288934 19588 net.cpp:399] inception_4d/1x1 -> inception_4d/1x1
I0403 15:28:30.290247 19588 net.cpp:141] Setting up inception_4d/1x1
I0403 15:28:30.290274 19588 net.cpp:148] Top shape: 24 112 14 14 (526848)
I0403 15:28:30.290288 19588 net.cpp:156] Memory required for data: 1113290016
I0403 15:28:30.290304 19588 layer_factory.hpp:77] Creating layer inception_4d/relu_1x1
I0403 15:28:30.290323 19588 net.cpp:91] Creating Layer inception_4d/relu_1x1
I0403 15:28:30.290339 19588 net.cpp:425] inception_4d/relu_1x1 <- inception_4d/1x1
I0403 15:28:30.290355 19588 net.cpp:386] inception_4d/relu_1x1 -> inception_4d/1x1 (in-place)
I0403 15:28:30.290531 19588 net.cpp:141] Setting up inception_4d/relu_1x1
I0403 15:28:30.290555 19588 net.cpp:148] Top shape: 24 112 14 14 (526848)
I0403 15:28:30.290567 19588 net.cpp:156] Memory required for data: 1115397408
I0403 15:28:30.290580 19588 layer_factory.hpp:77] Creating layer inception_4d/3x3_reduce
I0403 15:28:30.290616 19588 net.cpp:91] Creating Layer inception_4d/3x3_reduce
I0403 15:28:30.290633 19588 net.cpp:425] inception_4d/3x3_reduce <- inception_4c/output_inception_4c/output_0_split_1
I0403 15:28:30.290652 19588 net.cpp:399] inception_4d/3x3_reduce -> inception_4d/3x3_reduce
I0403 15:28:30.292080 19588 net.cpp:141] Setting up inception_4d/3x3_reduce
I0403 15:28:30.292105 19588 net.cpp:148] Top shape: 24 144 14 14 (677376)
I0403 15:28:30.292119 19588 net.cpp:156] Memory required for data: 1118106912
I0403 15:28:30.292136 19588 layer_factory.hpp:77] Creating layer inception_4d/relu_3x3_reduce
I0403 15:28:30.292152 19588 net.cpp:91] Creating Layer inception_4d/relu_3x3_reduce
I0403 15:28:30.292166 19588 net.cpp:425] inception_4d/relu_3x3_reduce <- inception_4d/3x3_reduce
I0403 15:28:30.292184 19588 net.cpp:386] inception_4d/relu_3x3_reduce -> inception_4d/3x3_reduce (in-place)
I0403 15:28:30.292459 19588 net.cpp:141] Setting up inception_4d/relu_3x3_reduce
I0403 15:28:30.292482 19588 net.cpp:148] Top shape: 24 144 14 14 (677376)
I0403 15:28:30.292495 19588 net.cpp:156] Memory required for data: 1120816416
I0403 15:28:30.292510 19588 layer_factory.hpp:77] Creating layer inception_4d/3x3
I0403 15:28:30.292529 19588 net.cpp:91] Creating Layer inception_4d/3x3
I0403 15:28:30.292546 19588 net.cpp:425] inception_4d/3x3 <- inception_4d/3x3_reduce
I0403 15:28:30.292564 19588 net.cpp:399] inception_4d/3x3 -> inception_4d/3x3
I0403 15:28:30.296603 19588 net.cpp:141] Setting up inception_4d/3x3
I0403 15:28:30.296629 19588 net.cpp:148] Top shape: 24 288 14 14 (1354752)
I0403 15:28:30.296643 19588 net.cpp:156] Memory required for data: 1126235424
I0403 15:28:30.296660 19588 layer_factory.hpp:77] Creating layer inception_4d/relu_3x3
I0403 15:28:30.296679 19588 net.cpp:91] Creating Layer inception_4d/relu_3x3
I0403 15:28:30.296694 19588 net.cpp:425] inception_4d/relu_3x3 <- inception_4d/3x3
I0403 15:28:30.296710 19588 net.cpp:386] inception_4d/relu_3x3 -> inception_4d/3x3 (in-place)
I0403 15:28:30.296881 19588 net.cpp:141] Setting up inception_4d/relu_3x3
I0403 15:28:30.296906 19588 net.cpp:148] Top shape: 24 288 14 14 (1354752)
I0403 15:28:30.296921 19588 net.cpp:156] Memory required for data: 1131654432
I0403 15:28:30.296934 19588 layer_factory.hpp:77] Creating layer inception_4d/5x5_reduce
I0403 15:28:30.296955 19588 net.cpp:91] Creating Layer inception_4d/5x5_reduce
I0403 15:28:30.296972 19588 net.cpp:425] inception_4d/5x5_reduce <- inception_4c/output_inception_4c/output_0_split_2
I0403 15:28:30.296993 19588 net.cpp:399] inception_4d/5x5_reduce -> inception_4d/5x5_reduce
I0403 15:28:30.298082 19588 net.cpp:141] Setting up inception_4d/5x5_reduce
I0403 15:28:30.298108 19588 net.cpp:148] Top shape: 24 32 14 14 (150528)
I0403 15:28:30.298122 19588 net.cpp:156] Memory required for data: 1132256544
I0403 15:28:30.298140 19588 layer_factory.hpp:77] Creating layer inception_4d/relu_5x5_reduce
I0403 15:28:30.298158 19588 net.cpp:91] Creating Layer inception_4d/relu_5x5_reduce
I0403 15:28:30.298173 19588 net.cpp:425] inception_4d/relu_5x5_reduce <- inception_4d/5x5_reduce
I0403 15:28:30.298188 19588 net.cpp:386] inception_4d/relu_5x5_reduce -> inception_4d/5x5_reduce (in-place)
I0403 15:28:30.298365 19588 net.cpp:141] Setting up inception_4d/relu_5x5_reduce
I0403 15:28:30.298390 19588 net.cpp:148] Top shape: 24 32 14 14 (150528)
I0403 15:28:30.298404 19588 net.cpp:156] Memory required for data: 1132858656
I0403 15:28:30.298418 19588 layer_factory.hpp:77] Creating layer inception_4d/5x5
I0403 15:28:30.298439 19588 net.cpp:91] Creating Layer inception_4d/5x5
I0403 15:28:30.298454 19588 net.cpp:425] inception_4d/5x5 <- inception_4d/5x5_reduce
I0403 15:28:30.298471 19588 net.cpp:399] inception_4d/5x5 -> inception_4d/5x5
I0403 15:28:30.299929 19588 net.cpp:141] Setting up inception_4d/5x5
I0403 15:28:30.299958 19588 net.cpp:148] Top shape: 24 64 14 14 (301056)
I0403 15:28:30.299974 19588 net.cpp:156] Memory required for data: 1134062880
I0403 15:28:30.299996 19588 layer_factory.hpp:77] Creating layer inception_4d/relu_5x5
I0403 15:28:30.300029 19588 net.cpp:91] Creating Layer inception_4d/relu_5x5
I0403 15:28:30.300045 19588 net.cpp:425] inception_4d/relu_5x5 <- inception_4d/5x5
I0403 15:28:30.300065 19588 net.cpp:386] inception_4d/relu_5x5 -> inception_4d/5x5 (in-place)
I0403 15:28:30.300354 19588 net.cpp:141] Setting up inception_4d/relu_5x5
I0403 15:28:30.300382 19588 net.cpp:148] Top shape: 24 64 14 14 (301056)
I0403 15:28:30.300397 19588 net.cpp:156] Memory required for data: 1135267104
I0403 15:28:30.300411 19588 layer_factory.hpp:77] Creating layer inception_4d/pool
I0403 15:28:30.300427 19588 net.cpp:91] Creating Layer inception_4d/pool
I0403 15:28:30.300442 19588 net.cpp:425] inception_4d/pool <- inception_4c/output_inception_4c/output_0_split_3
I0403 15:28:30.300462 19588 net.cpp:399] inception_4d/pool -> inception_4d/pool
I0403 15:28:30.300525 19588 net.cpp:141] Setting up inception_4d/pool
I0403 15:28:30.300547 19588 net.cpp:148] Top shape: 24 512 14 14 (2408448)
I0403 15:28:30.300561 19588 net.cpp:156] Memory required for data: 1144900896
I0403 15:28:30.300575 19588 layer_factory.hpp:77] Creating layer inception_4d/pool_proj
I0403 15:28:30.300598 19588 net.cpp:91] Creating Layer inception_4d/pool_proj
I0403 15:28:30.300616 19588 net.cpp:425] inception_4d/pool_proj <- inception_4d/pool
I0403 15:28:30.300634 19588 net.cpp:399] inception_4d/pool_proj -> inception_4d/pool_proj
I0403 15:28:30.302373 19588 net.cpp:141] Setting up inception_4d/pool_proj
I0403 15:28:30.302402 19588 net.cpp:148] Top shape: 24 64 14 14 (301056)
I0403 15:28:30.302417 19588 net.cpp:156] Memory required for data: 1146105120
I0403 15:28:30.302433 19588 layer_factory.hpp:77] Creating layer inception_4d/relu_pool_proj
I0403 15:28:30.302453 19588 net.cpp:91] Creating Layer inception_4d/relu_pool_proj
I0403 15:28:30.302469 19588 net.cpp:425] inception_4d/relu_pool_proj <- inception_4d/pool_proj
I0403 15:28:30.302484 19588 net.cpp:386] inception_4d/relu_pool_proj -> inception_4d/pool_proj (in-place)
I0403 15:28:30.302660 19588 net.cpp:141] Setting up inception_4d/relu_pool_proj
I0403 15:28:30.302686 19588 net.cpp:148] Top shape: 24 64 14 14 (301056)
I0403 15:28:30.302700 19588 net.cpp:156] Memory required for data: 1147309344
I0403 15:28:30.302714 19588 layer_factory.hpp:77] Creating layer inception_4d/output
I0403 15:28:30.302731 19588 net.cpp:91] Creating Layer inception_4d/output
I0403 15:28:30.302745 19588 net.cpp:425] inception_4d/output <- inception_4d/1x1
I0403 15:28:30.302760 19588 net.cpp:425] inception_4d/output <- inception_4d/3x3
I0403 15:28:30.302777 19588 net.cpp:425] inception_4d/output <- inception_4d/5x5
I0403 15:28:30.302791 19588 net.cpp:425] inception_4d/output <- inception_4d/pool_proj
I0403 15:28:30.302806 19588 net.cpp:399] inception_4d/output -> inception_4d/output
I0403 15:28:30.302853 19588 net.cpp:141] Setting up inception_4d/output
I0403 15:28:30.302875 19588 net.cpp:148] Top shape: 24 528 14 14 (2483712)
I0403 15:28:30.302888 19588 net.cpp:156] Memory required for data: 1157244192
I0403 15:28:30.302901 19588 layer_factory.hpp:77] Creating layer inception_4d/output_inception_4d/output_0_split
I0403 15:28:30.302919 19588 net.cpp:91] Creating Layer inception_4d/output_inception_4d/output_0_split
I0403 15:28:30.302935 19588 net.cpp:425] inception_4d/output_inception_4d/output_0_split <- inception_4d/output
I0403 15:28:30.302952 19588 net.cpp:399] inception_4d/output_inception_4d/output_0_split -> inception_4d/output_inception_4d/output_0_split_0
I0403 15:28:30.302970 19588 net.cpp:399] inception_4d/output_inception_4d/output_0_split -> inception_4d/output_inception_4d/output_0_split_1
I0403 15:28:30.302994 19588 net.cpp:399] inception_4d/output_inception_4d/output_0_split -> inception_4d/output_inception_4d/output_0_split_2
I0403 15:28:30.303017 19588 net.cpp:399] inception_4d/output_inception_4d/output_0_split -> inception_4d/output_inception_4d/output_0_split_3
I0403 15:28:30.303036 19588 net.cpp:399] inception_4d/output_inception_4d/output_0_split -> inception_4d/output_inception_4d/output_0_split_4
I0403 15:28:30.303138 19588 net.cpp:141] Setting up inception_4d/output_inception_4d/output_0_split
I0403 15:28:30.303171 19588 net.cpp:148] Top shape: 24 528 14 14 (2483712)
I0403 15:28:30.303186 19588 net.cpp:148] Top shape: 24 528 14 14 (2483712)
I0403 15:28:30.303201 19588 net.cpp:148] Top shape: 24 528 14 14 (2483712)
I0403 15:28:30.303216 19588 net.cpp:148] Top shape: 24 528 14 14 (2483712)
I0403 15:28:30.303231 19588 net.cpp:148] Top shape: 24 528 14 14 (2483712)
I0403 15:28:30.303244 19588 net.cpp:156] Memory required for data: 1206918432
I0403 15:28:30.303257 19588 layer_factory.hpp:77] Creating layer loss2/ave_pool
I0403 15:28:30.303275 19588 net.cpp:91] Creating Layer loss2/ave_pool
I0403 15:28:30.303292 19588 net.cpp:425] loss2/ave_pool <- inception_4d/output_inception_4d/output_0_split_0
I0403 15:28:30.303308 19588 net.cpp:399] loss2/ave_pool -> loss2/ave_pool
I0403 15:28:30.303619 19588 net.cpp:141] Setting up loss2/ave_pool
I0403 15:28:30.303645 19588 net.cpp:148] Top shape: 24 528 4 4 (202752)
I0403 15:28:30.303659 19588 net.cpp:156] Memory required for data: 1207729440
I0403 15:28:30.303673 19588 layer_factory.hpp:77] Creating layer loss2/conv
I0403 15:28:30.303694 19588 net.cpp:91] Creating Layer loss2/conv
I0403 15:28:30.303712 19588 net.cpp:425] loss2/conv <- loss2/ave_pool
I0403 15:28:30.303731 19588 net.cpp:399] loss2/conv -> loss2/conv
I0403 15:28:30.305624 19588 net.cpp:141] Setting up loss2/conv
I0403 15:28:30.305654 19588 net.cpp:148] Top shape: 24 128 4 4 (49152)
I0403 15:28:30.305668 19588 net.cpp:156] Memory required for data: 1207926048
I0403 15:28:30.305685 19588 layer_factory.hpp:77] Creating layer loss2/relu_conv
I0403 15:28:30.305701 19588 net.cpp:91] Creating Layer loss2/relu_conv
I0403 15:28:30.305716 19588 net.cpp:425] loss2/relu_conv <- loss2/conv
I0403 15:28:30.305734 19588 net.cpp:386] loss2/relu_conv -> loss2/conv (in-place)
I0403 15:28:30.306013 19588 net.cpp:141] Setting up loss2/relu_conv
I0403 15:28:30.306041 19588 net.cpp:148] Top shape: 24 128 4 4 (49152)
I0403 15:28:30.306056 19588 net.cpp:156] Memory required for data: 1208122656
I0403 15:28:30.306069 19588 layer_factory.hpp:77] Creating layer loss2/fc
I0403 15:28:30.306087 19588 net.cpp:91] Creating Layer loss2/fc
I0403 15:28:30.306102 19588 net.cpp:425] loss2/fc <- loss2/conv
I0403 15:28:30.306121 19588 net.cpp:399] loss2/fc -> loss2/fc
I0403 15:28:30.323261 19588 net.cpp:141] Setting up loss2/fc
I0403 15:28:30.323298 19588 net.cpp:148] Top shape: 24 1024 (24576)
I0403 15:28:30.323313 19588 net.cpp:156] Memory required for data: 1208220960
I0403 15:28:30.323330 19588 layer_factory.hpp:77] Creating layer loss2/relu_fc
I0403 15:28:30.323346 19588 net.cpp:91] Creating Layer loss2/relu_fc
I0403 15:28:30.323361 19588 net.cpp:425] loss2/relu_fc <- loss2/fc
I0403 15:28:30.323377 19588 net.cpp:386] loss2/relu_fc -> loss2/fc (in-place)
I0403 15:28:30.323660 19588 net.cpp:141] Setting up loss2/relu_fc
I0403 15:28:30.323684 19588 net.cpp:148] Top shape: 24 1024 (24576)
I0403 15:28:30.323700 19588 net.cpp:156] Memory required for data: 1208319264
I0403 15:28:30.323714 19588 layer_factory.hpp:77] Creating layer loss2/drop_fc
I0403 15:28:30.323729 19588 net.cpp:91] Creating Layer loss2/drop_fc
I0403 15:28:30.323745 19588 net.cpp:425] loss2/drop_fc <- loss2/fc
I0403 15:28:30.323760 19588 net.cpp:386] loss2/drop_fc -> loss2/fc (in-place)
I0403 15:28:30.323807 19588 net.cpp:141] Setting up loss2/drop_fc
I0403 15:28:30.323827 19588 net.cpp:148] Top shape: 24 1024 (24576)
I0403 15:28:30.323840 19588 net.cpp:156] Memory required for data: 1208417568
I0403 15:28:30.323853 19588 layer_factory.hpp:77] Creating layer loss2/classifier_plantvillage
I0403 15:28:30.323873 19588 net.cpp:91] Creating Layer loss2/classifier_plantvillage
I0403 15:28:30.323889 19588 net.cpp:425] loss2/classifier_plantvillage <- loss2/fc
I0403 15:28:30.323905 19588 net.cpp:399] loss2/classifier_plantvillage -> loss2/classifier_plantvillage
I0403 15:28:30.324297 19588 net.cpp:141] Setting up loss2/classifier_plantvillage
I0403 15:28:30.324321 19588 net.cpp:148] Top shape: 24 38 (912)
I0403 15:28:30.324348 19588 net.cpp:156] Memory required for data: 1208421216
I0403 15:28:30.324367 19588 layer_factory.hpp:77] Creating layer loss2/classifier_plantvillage_loss2/classifier_plantvillage_0_split
I0403 15:28:30.324383 19588 net.cpp:91] Creating Layer loss2/classifier_plantvillage_loss2/classifier_plantvillage_0_split
I0403 15:28:30.324398 19588 net.cpp:425] loss2/classifier_plantvillage_loss2/classifier_plantvillage_0_split <- loss2/classifier_plantvillage
I0403 15:28:30.324417 19588 net.cpp:399] loss2/classifier_plantvillage_loss2/classifier_plantvillage_0_split -> loss2/classifier_plantvillage_loss2/classifier_plantvillage_0_split_0
I0403 15:28:30.324437 19588 net.cpp:399] loss2/classifier_plantvillage_loss2/classifier_plantvillage_0_split -> loss2/classifier_plantvillage_loss2/classifier_plantvillage_0_split_1
I0403 15:28:30.324456 19588 net.cpp:399] loss2/classifier_plantvillage_loss2/classifier_plantvillage_0_split -> loss2/classifier_plantvillage_loss2/classifier_plantvillage_0_split_2
I0403 15:28:30.324529 19588 net.cpp:141] Setting up loss2/classifier_plantvillage_loss2/classifier_plantvillage_0_split
I0403 15:28:30.324553 19588 net.cpp:148] Top shape: 24 38 (912)
I0403 15:28:30.324568 19588 net.cpp:148] Top shape: 24 38 (912)
I0403 15:28:30.324582 19588 net.cpp:148] Top shape: 24 38 (912)
I0403 15:28:30.324595 19588 net.cpp:156] Memory required for data: 1208432160
I0403 15:28:30.324609 19588 layer_factory.hpp:77] Creating layer inception_4e/1x1
I0403 15:28:30.324628 19588 net.cpp:91] Creating Layer inception_4e/1x1
I0403 15:28:30.324645 19588 net.cpp:425] inception_4e/1x1 <- inception_4d/output_inception_4d/output_0_split_1
I0403 15:28:30.324662 19588 net.cpp:399] inception_4e/1x1 -> inception_4e/1x1
I0403 15:28:30.326386 19588 net.cpp:141] Setting up inception_4e/1x1
I0403 15:28:30.326416 19588 net.cpp:148] Top shape: 24 256 14 14 (1204224)
I0403 15:28:30.326431 19588 net.cpp:156] Memory required for data: 1213249056
I0403 15:28:30.326447 19588 layer_factory.hpp:77] Creating layer inception_4e/relu_1x1
I0403 15:28:30.326463 19588 net.cpp:91] Creating Layer inception_4e/relu_1x1
I0403 15:28:30.326478 19588 net.cpp:425] inception_4e/relu_1x1 <- inception_4e/1x1
I0403 15:28:30.326496 19588 net.cpp:386] inception_4e/relu_1x1 -> inception_4e/1x1 (in-place)
I0403 15:28:30.326776 19588 net.cpp:141] Setting up inception_4e/relu_1x1
I0403 15:28:30.326805 19588 net.cpp:148] Top shape: 24 256 14 14 (1204224)
I0403 15:28:30.326822 19588 net.cpp:156] Memory required for data: 1218065952
I0403 15:28:30.326834 19588 layer_factory.hpp:77] Creating layer inception_4e/3x3_reduce
I0403 15:28:30.326855 19588 net.cpp:91] Creating Layer inception_4e/3x3_reduce
I0403 15:28:30.326871 19588 net.cpp:425] inception_4e/3x3_reduce <- inception_4d/output_inception_4d/output_0_split_2
I0403 15:28:30.326890 19588 net.cpp:399] inception_4e/3x3_reduce -> inception_4e/3x3_reduce
I0403 15:28:30.328929 19588 net.cpp:141] Setting up inception_4e/3x3_reduce
I0403 15:28:30.328961 19588 net.cpp:148] Top shape: 24 160 14 14 (752640)
I0403 15:28:30.328976 19588 net.cpp:156] Memory required for data: 1221076512
I0403 15:28:30.329006 19588 layer_factory.hpp:77] Creating layer inception_4e/relu_3x3_reduce
I0403 15:28:30.329025 19588 net.cpp:91] Creating Layer inception_4e/relu_3x3_reduce
I0403 15:28:30.329040 19588 net.cpp:425] inception_4e/relu_3x3_reduce <- inception_4e/3x3_reduce
I0403 15:28:30.329056 19588 net.cpp:386] inception_4e/relu_3x3_reduce -> inception_4e/3x3_reduce (in-place)
I0403 15:28:30.329232 19588 net.cpp:141] Setting up inception_4e/relu_3x3_reduce
I0403 15:28:30.329255 19588 net.cpp:148] Top shape: 24 160 14 14 (752640)
I0403 15:28:30.329270 19588 net.cpp:156] Memory required for data: 1224087072
I0403 15:28:30.329284 19588 layer_factory.hpp:77] Creating layer inception_4e/3x3
I0403 15:28:30.329304 19588 net.cpp:91] Creating Layer inception_4e/3x3
I0403 15:28:30.329320 19588 net.cpp:425] inception_4e/3x3 <- inception_4e/3x3_reduce
I0403 15:28:30.329339 19588 net.cpp:399] inception_4e/3x3 -> inception_4e/3x3
I0403 15:28:30.334132 19588 net.cpp:141] Setting up inception_4e/3x3
I0403 15:28:30.334172 19588 net.cpp:148] Top shape: 24 320 14 14 (1505280)
I0403 15:28:30.334187 19588 net.cpp:156] Memory required for data: 1230108192
I0403 15:28:30.334203 19588 layer_factory.hpp:77] Creating layer inception_4e/relu_3x3
I0403 15:28:30.334223 19588 net.cpp:91] Creating Layer inception_4e/relu_3x3
I0403 15:28:30.334239 19588 net.cpp:425] inception_4e/relu_3x3 <- inception_4e/3x3
I0403 15:28:30.334254 19588 net.cpp:386] inception_4e/relu_3x3 -> inception_4e/3x3 (in-place)
I0403 15:28:30.334540 19588 net.cpp:141] Setting up inception_4e/relu_3x3
I0403 15:28:30.334564 19588 net.cpp:148] Top shape: 24 320 14 14 (1505280)
I0403 15:28:30.334578 19588 net.cpp:156] Memory required for data: 1236129312
I0403 15:28:30.334592 19588 layer_factory.hpp:77] Creating layer inception_4e/5x5_reduce
I0403 15:28:30.334614 19588 net.cpp:91] Creating Layer inception_4e/5x5_reduce
I0403 15:28:30.334630 19588 net.cpp:425] inception_4e/5x5_reduce <- inception_4d/output_inception_4d/output_0_split_3
I0403 15:28:30.334650 19588 net.cpp:399] inception_4e/5x5_reduce -> inception_4e/5x5_reduce
I0403 15:28:30.335676 19588 net.cpp:141] Setting up inception_4e/5x5_reduce
I0403 15:28:30.335705 19588 net.cpp:148] Top shape: 24 32 14 14 (150528)
I0403 15:28:30.335719 19588 net.cpp:156] Memory required for data: 1236731424
I0403 15:28:30.335736 19588 layer_factory.hpp:77] Creating layer inception_4e/relu_5x5_reduce
I0403 15:28:30.335752 19588 net.cpp:91] Creating Layer inception_4e/relu_5x5_reduce
I0403 15:28:30.335767 19588 net.cpp:425] inception_4e/relu_5x5_reduce <- inception_4e/5x5_reduce
I0403 15:28:30.335785 19588 net.cpp:386] inception_4e/relu_5x5_reduce -> inception_4e/5x5_reduce (in-place)
I0403 15:28:30.336073 19588 net.cpp:141] Setting up inception_4e/relu_5x5_reduce
I0403 15:28:30.336099 19588 net.cpp:148] Top shape: 24 32 14 14 (150528)
I0403 15:28:30.336113 19588 net.cpp:156] Memory required for data: 1237333536
I0403 15:28:30.336127 19588 layer_factory.hpp:77] Creating layer inception_4e/5x5
I0403 15:28:30.336164 19588 net.cpp:91] Creating Layer inception_4e/5x5
I0403 15:28:30.336182 19588 net.cpp:425] inception_4e/5x5 <- inception_4e/5x5_reduce
I0403 15:28:30.336200 19588 net.cpp:399] inception_4e/5x5 -> inception_4e/5x5
I0403 15:28:30.337941 19588 net.cpp:141] Setting up inception_4e/5x5
I0403 15:28:30.337972 19588 net.cpp:148] Top shape: 24 128 14 14 (602112)
I0403 15:28:30.337996 19588 net.cpp:156] Memory required for data: 1239741984
I0403 15:28:30.338026 19588 layer_factory.hpp:77] Creating layer inception_4e/relu_5x5
I0403 15:28:30.338044 19588 net.cpp:91] Creating Layer inception_4e/relu_5x5
I0403 15:28:30.338060 19588 net.cpp:425] inception_4e/relu_5x5 <- inception_4e/5x5
I0403 15:28:30.338076 19588 net.cpp:386] inception_4e/relu_5x5 -> inception_4e/5x5 (in-place)
I0403 15:28:30.338263 19588 net.cpp:141] Setting up inception_4e/relu_5x5
I0403 15:28:30.338286 19588 net.cpp:148] Top shape: 24 128 14 14 (602112)
I0403 15:28:30.338299 19588 net.cpp:156] Memory required for data: 1242150432
I0403 15:28:30.338322 19588 layer_factory.hpp:77] Creating layer inception_4e/pool
I0403 15:28:30.338340 19588 net.cpp:91] Creating Layer inception_4e/pool
I0403 15:28:30.338353 19588 net.cpp:425] inception_4e/pool <- inception_4d/output_inception_4d/output_0_split_4
I0403 15:28:30.338371 19588 net.cpp:399] inception_4e/pool -> inception_4e/pool
I0403 15:28:30.338436 19588 net.cpp:141] Setting up inception_4e/pool
I0403 15:28:30.338459 19588 net.cpp:148] Top shape: 24 528 14 14 (2483712)
I0403 15:28:30.338471 19588 net.cpp:156] Memory required for data: 1252085280
I0403 15:28:30.338485 19588 layer_factory.hpp:77] Creating layer inception_4e/pool_proj
I0403 15:28:30.338505 19588 net.cpp:91] Creating Layer inception_4e/pool_proj
I0403 15:28:30.338521 19588 net.cpp:425] inception_4e/pool_proj <- inception_4e/pool
I0403 15:28:30.338538 19588 net.cpp:399] inception_4e/pool_proj -> inception_4e/pool_proj
I0403 15:28:30.339977 19588 net.cpp:141] Setting up inception_4e/pool_proj
I0403 15:28:30.340016 19588 net.cpp:148] Top shape: 24 128 14 14 (602112)
I0403 15:28:30.340031 19588 net.cpp:156] Memory required for data: 1254493728
I0403 15:28:30.340049 19588 layer_factory.hpp:77] Creating layer inception_4e/relu_pool_proj
I0403 15:28:30.340067 19588 net.cpp:91] Creating Layer inception_4e/relu_pool_proj
I0403 15:28:30.340083 19588 net.cpp:425] inception_4e/relu_pool_proj <- inception_4e/pool_proj
I0403 15:28:30.340098 19588 net.cpp:386] inception_4e/relu_pool_proj -> inception_4e/pool_proj (in-place)
I0403 15:28:30.340380 19588 net.cpp:141] Setting up inception_4e/relu_pool_proj
I0403 15:28:30.340405 19588 net.cpp:148] Top shape: 24 128 14 14 (602112)
I0403 15:28:30.340420 19588 net.cpp:156] Memory required for data: 1256902176
I0403 15:28:30.340432 19588 layer_factory.hpp:77] Creating layer inception_4e/output
I0403 15:28:30.340451 19588 net.cpp:91] Creating Layer inception_4e/output
I0403 15:28:30.340466 19588 net.cpp:425] inception_4e/output <- inception_4e/1x1
I0403 15:28:30.340481 19588 net.cpp:425] inception_4e/output <- inception_4e/3x3
I0403 15:28:30.340495 19588 net.cpp:425] inception_4e/output <- inception_4e/5x5
I0403 15:28:30.340510 19588 net.cpp:425] inception_4e/output <- inception_4e/pool_proj
I0403 15:28:30.340526 19588 net.cpp:399] inception_4e/output -> inception_4e/output
I0403 15:28:30.340574 19588 net.cpp:141] Setting up inception_4e/output
I0403 15:28:30.340595 19588 net.cpp:148] Top shape: 24 832 14 14 (3913728)
I0403 15:28:30.340610 19588 net.cpp:156] Memory required for data: 1272557088
I0403 15:28:30.340623 19588 layer_factory.hpp:77] Creating layer pool4/3x3_s2
I0403 15:28:30.340639 19588 net.cpp:91] Creating Layer pool4/3x3_s2
I0403 15:28:30.340652 19588 net.cpp:425] pool4/3x3_s2 <- inception_4e/output
I0403 15:28:30.340672 19588 net.cpp:399] pool4/3x3_s2 -> pool4/3x3_s2
I0403 15:28:30.340734 19588 net.cpp:141] Setting up pool4/3x3_s2
I0403 15:28:30.340756 19588 net.cpp:148] Top shape: 24 832 7 7 (978432)
I0403 15:28:30.340770 19588 net.cpp:156] Memory required for data: 1276470816
I0403 15:28:30.340782 19588 layer_factory.hpp:77] Creating layer pool4/3x3_s2_pool4/3x3_s2_0_split
I0403 15:28:30.340801 19588 net.cpp:91] Creating Layer pool4/3x3_s2_pool4/3x3_s2_0_split
I0403 15:28:30.340816 19588 net.cpp:425] pool4/3x3_s2_pool4/3x3_s2_0_split <- pool4/3x3_s2
I0403 15:28:30.340834 19588 net.cpp:399] pool4/3x3_s2_pool4/3x3_s2_0_split -> pool4/3x3_s2_pool4/3x3_s2_0_split_0
I0403 15:28:30.340852 19588 net.cpp:399] pool4/3x3_s2_pool4/3x3_s2_0_split -> pool4/3x3_s2_pool4/3x3_s2_0_split_1
I0403 15:28:30.340872 19588 net.cpp:399] pool4/3x3_s2_pool4/3x3_s2_0_split -> pool4/3x3_s2_pool4/3x3_s2_0_split_2
I0403 15:28:30.340888 19588 net.cpp:399] pool4/3x3_s2_pool4/3x3_s2_0_split -> pool4/3x3_s2_pool4/3x3_s2_0_split_3
I0403 15:28:30.340972 19588 net.cpp:141] Setting up pool4/3x3_s2_pool4/3x3_s2_0_split
I0403 15:28:30.340998 19588 net.cpp:148] Top shape: 24 832 7 7 (978432)
I0403 15:28:30.341013 19588 net.cpp:148] Top shape: 24 832 7 7 (978432)
I0403 15:28:30.341027 19588 net.cpp:148] Top shape: 24 832 7 7 (978432)
I0403 15:28:30.341040 19588 net.cpp:148] Top shape: 24 832 7 7 (978432)
I0403 15:28:30.341053 19588 net.cpp:156] Memory required for data: 1292125728
I0403 15:28:30.341066 19588 layer_factory.hpp:77] Creating layer inception_5a/1x1
I0403 15:28:30.341087 19588 net.cpp:91] Creating Layer inception_5a/1x1
I0403 15:28:30.341104 19588 net.cpp:425] inception_5a/1x1 <- pool4/3x3_s2_pool4/3x3_s2_0_split_0
I0403 15:28:30.341123 19588 net.cpp:399] inception_5a/1x1 -> inception_5a/1x1
I0403 15:28:30.343835 19588 net.cpp:141] Setting up inception_5a/1x1
I0403 15:28:30.343865 19588 net.cpp:148] Top shape: 24 256 7 7 (301056)
I0403 15:28:30.343880 19588 net.cpp:156] Memory required for data: 1293329952
I0403 15:28:30.343897 19588 layer_factory.hpp:77] Creating layer inception_5a/relu_1x1
I0403 15:28:30.343914 19588 net.cpp:91] Creating Layer inception_5a/relu_1x1
I0403 15:28:30.343927 19588 net.cpp:425] inception_5a/relu_1x1 <- inception_5a/1x1
I0403 15:28:30.343943 19588 net.cpp:386] inception_5a/relu_1x1 -> inception_5a/1x1 (in-place)
I0403 15:28:30.344256 19588 net.cpp:141] Setting up inception_5a/relu_1x1
I0403 15:28:30.344282 19588 net.cpp:148] Top shape: 24 256 7 7 (301056)
I0403 15:28:30.344302 19588 net.cpp:156] Memory required for data: 1294534176
I0403 15:28:30.344316 19588 layer_factory.hpp:77] Creating layer inception_5a/3x3_reduce
I0403 15:28:30.344336 19588 net.cpp:91] Creating Layer inception_5a/3x3_reduce
I0403 15:28:30.344353 19588 net.cpp:425] inception_5a/3x3_reduce <- pool4/3x3_s2_pool4/3x3_s2_0_split_1
I0403 15:28:30.344370 19588 net.cpp:399] inception_5a/3x3_reduce -> inception_5a/3x3_reduce
I0403 15:28:30.346720 19588 net.cpp:141] Setting up inception_5a/3x3_reduce
I0403 15:28:30.346747 19588 net.cpp:148] Top shape: 24 160 7 7 (188160)
I0403 15:28:30.346762 19588 net.cpp:156] Memory required for data: 1295286816
I0403 15:28:30.346779 19588 layer_factory.hpp:77] Creating layer inception_5a/relu_3x3_reduce
I0403 15:28:30.346798 19588 net.cpp:91] Creating Layer inception_5a/relu_3x3_reduce
I0403 15:28:30.346813 19588 net.cpp:425] inception_5a/relu_3x3_reduce <- inception_5a/3x3_reduce
I0403 15:28:30.346829 19588 net.cpp:386] inception_5a/relu_3x3_reduce -> inception_5a/3x3_reduce (in-place)
I0403 15:28:30.347012 19588 net.cpp:141] Setting up inception_5a/relu_3x3_reduce
I0403 15:28:30.347036 19588 net.cpp:148] Top shape: 24 160 7 7 (188160)
I0403 15:28:30.347050 19588 net.cpp:156] Memory required for data: 1296039456
I0403 15:28:30.347064 19588 layer_factory.hpp:77] Creating layer inception_5a/3x3
I0403 15:28:30.347082 19588 net.cpp:91] Creating Layer inception_5a/3x3
I0403 15:28:30.347097 19588 net.cpp:425] inception_5a/3x3 <- inception_5a/3x3_reduce
I0403 15:28:30.347117 19588 net.cpp:399] inception_5a/3x3 -> inception_5a/3x3
I0403 15:28:30.351914 19588 net.cpp:141] Setting up inception_5a/3x3
I0403 15:28:30.351943 19588 net.cpp:148] Top shape: 24 320 7 7 (376320)
I0403 15:28:30.351958 19588 net.cpp:156] Memory required for data: 1297544736
I0403 15:28:30.351974 19588 layer_factory.hpp:77] Creating layer inception_5a/relu_3x3
I0403 15:28:30.351997 19588 net.cpp:91] Creating Layer inception_5a/relu_3x3
I0403 15:28:30.352015 19588 net.cpp:425] inception_5a/relu_3x3 <- inception_5a/3x3
I0403 15:28:30.352030 19588 net.cpp:386] inception_5a/relu_3x3 -> inception_5a/3x3 (in-place)
I0403 15:28:30.352308 19588 net.cpp:141] Setting up inception_5a/relu_3x3
I0403 15:28:30.352334 19588 net.cpp:148] Top shape: 24 320 7 7 (376320)
I0403 15:28:30.352346 19588 net.cpp:156] Memory required for data: 1299050016
I0403 15:28:30.352360 19588 layer_factory.hpp:77] Creating layer inception_5a/5x5_reduce
I0403 15:28:30.352383 19588 net.cpp:91] Creating Layer inception_5a/5x5_reduce
I0403 15:28:30.352401 19588 net.cpp:425] inception_5a/5x5_reduce <- pool4/3x3_s2_pool4/3x3_s2_0_split_2
I0403 15:28:30.352418 19588 net.cpp:399] inception_5a/5x5_reduce -> inception_5a/5x5_reduce
I0403 15:28:30.353533 19588 net.cpp:141] Setting up inception_5a/5x5_reduce
I0403 15:28:30.353565 19588 net.cpp:148] Top shape: 24 32 7 7 (37632)
I0403 15:28:30.353580 19588 net.cpp:156] Memory required for data: 1299200544
I0403 15:28:30.353597 19588 layer_factory.hpp:77] Creating layer inception_5a/relu_5x5_reduce
I0403 15:28:30.353613 19588 net.cpp:91] Creating Layer inception_5a/relu_5x5_reduce
I0403 15:28:30.353628 19588 net.cpp:425] inception_5a/relu_5x5_reduce <- inception_5a/5x5_reduce
I0403 15:28:30.353646 19588 net.cpp:386] inception_5a/relu_5x5_reduce -> inception_5a/5x5_reduce (in-place)
I0403 15:28:30.353931 19588 net.cpp:141] Setting up inception_5a/relu_5x5_reduce
I0403 15:28:30.353957 19588 net.cpp:148] Top shape: 24 32 7 7 (37632)
I0403 15:28:30.353971 19588 net.cpp:156] Memory required for data: 1299351072
I0403 15:28:30.353984 19588 layer_factory.hpp:77] Creating layer inception_5a/5x5
I0403 15:28:30.354020 19588 net.cpp:91] Creating Layer inception_5a/5x5
I0403 15:28:30.354038 19588 net.cpp:425] inception_5a/5x5 <- inception_5a/5x5_reduce
I0403 15:28:30.354058 19588 net.cpp:399] inception_5a/5x5 -> inception_5a/5x5
I0403 15:28:30.355725 19588 net.cpp:141] Setting up inception_5a/5x5
I0403 15:28:30.355761 19588 net.cpp:148] Top shape: 24 128 7 7 (150528)
I0403 15:28:30.355775 19588 net.cpp:156] Memory required for data: 1299953184
I0403 15:28:30.355792 19588 layer_factory.hpp:77] Creating layer inception_5a/relu_5x5
I0403 15:28:30.355811 19588 net.cpp:91] Creating Layer inception_5a/relu_5x5
I0403 15:28:30.355825 19588 net.cpp:425] inception_5a/relu_5x5 <- inception_5a/5x5
I0403 15:28:30.355841 19588 net.cpp:386] inception_5a/relu_5x5 -> inception_5a/5x5 (in-place)
I0403 15:28:30.356056 19588 net.cpp:141] Setting up inception_5a/relu_5x5
I0403 15:28:30.356081 19588 net.cpp:148] Top shape: 24 128 7 7 (150528)
I0403 15:28:30.356096 19588 net.cpp:156] Memory required for data: 1300555296
I0403 15:28:30.356111 19588 layer_factory.hpp:77] Creating layer inception_5a/pool
I0403 15:28:30.356127 19588 net.cpp:91] Creating Layer inception_5a/pool
I0403 15:28:30.356143 19588 net.cpp:425] inception_5a/pool <- pool4/3x3_s2_pool4/3x3_s2_0_split_3
I0403 15:28:30.356163 19588 net.cpp:399] inception_5a/pool -> inception_5a/pool
I0403 15:28:30.356233 19588 net.cpp:141] Setting up inception_5a/pool
I0403 15:28:30.356257 19588 net.cpp:148] Top shape: 24 832 7 7 (978432)
I0403 15:28:30.356271 19588 net.cpp:156] Memory required for data: 1304469024
I0403 15:28:30.356286 19588 layer_factory.hpp:77] Creating layer inception_5a/pool_proj
I0403 15:28:30.356308 19588 net.cpp:91] Creating Layer inception_5a/pool_proj
I0403 15:28:30.356325 19588 net.cpp:425] inception_5a/pool_proj <- inception_5a/pool
I0403 15:28:30.356343 19588 net.cpp:399] inception_5a/pool_proj -> inception_5a/pool_proj
I0403 15:28:30.358646 19588 net.cpp:141] Setting up inception_5a/pool_proj
I0403 15:28:30.358675 19588 net.cpp:148] Top shape: 24 128 7 7 (150528)
I0403 15:28:30.358690 19588 net.cpp:156] Memory required for data: 1305071136
I0403 15:28:30.358707 19588 layer_factory.hpp:77] Creating layer inception_5a/relu_pool_proj
I0403 15:28:30.358726 19588 net.cpp:91] Creating Layer inception_5a/relu_pool_proj
I0403 15:28:30.358742 19588 net.cpp:425] inception_5a/relu_pool_proj <- inception_5a/pool_proj
I0403 15:28:30.358758 19588 net.cpp:386] inception_5a/relu_pool_proj -> inception_5a/pool_proj (in-place)
I0403 15:28:30.359061 19588 net.cpp:141] Setting up inception_5a/relu_pool_proj
I0403 15:28:30.359086 19588 net.cpp:148] Top shape: 24 128 7 7 (150528)
I0403 15:28:30.359100 19588 net.cpp:156] Memory required for data: 1305673248
I0403 15:28:30.359114 19588 layer_factory.hpp:77] Creating layer inception_5a/output
I0403 15:28:30.359133 19588 net.cpp:91] Creating Layer inception_5a/output
I0403 15:28:30.359148 19588 net.cpp:425] inception_5a/output <- inception_5a/1x1
I0403 15:28:30.359164 19588 net.cpp:425] inception_5a/output <- inception_5a/3x3
I0403 15:28:30.359179 19588 net.cpp:425] inception_5a/output <- inception_5a/5x5
I0403 15:28:30.359194 19588 net.cpp:425] inception_5a/output <- inception_5a/pool_proj
I0403 15:28:30.359210 19588 net.cpp:399] inception_5a/output -> inception_5a/output
I0403 15:28:30.359258 19588 net.cpp:141] Setting up inception_5a/output
I0403 15:28:30.359282 19588 net.cpp:148] Top shape: 24 832 7 7 (978432)
I0403 15:28:30.359300 19588 net.cpp:156] Memory required for data: 1309586976
I0403 15:28:30.359314 19588 layer_factory.hpp:77] Creating layer inception_5a/output_inception_5a/output_0_split
I0403 15:28:30.359330 19588 net.cpp:91] Creating Layer inception_5a/output_inception_5a/output_0_split
I0403 15:28:30.359344 19588 net.cpp:425] inception_5a/output_inception_5a/output_0_split <- inception_5a/output
I0403 15:28:30.359364 19588 net.cpp:399] inception_5a/output_inception_5a/output_0_split -> inception_5a/output_inception_5a/output_0_split_0
I0403 15:28:30.359383 19588 net.cpp:399] inception_5a/output_inception_5a/output_0_split -> inception_5a/output_inception_5a/output_0_split_1
I0403 15:28:30.359402 19588 net.cpp:399] inception_5a/output_inception_5a/output_0_split -> inception_5a/output_inception_5a/output_0_split_2
I0403 15:28:30.359422 19588 net.cpp:399] inception_5a/output_inception_5a/output_0_split -> inception_5a/output_inception_5a/output_0_split_3
I0403 15:28:30.359529 19588 net.cpp:141] Setting up inception_5a/output_inception_5a/output_0_split
I0403 15:28:30.359555 19588 net.cpp:148] Top shape: 24 832 7 7 (978432)
I0403 15:28:30.359570 19588 net.cpp:148] Top shape: 24 832 7 7 (978432)
I0403 15:28:30.359583 19588 net.cpp:148] Top shape: 24 832 7 7 (978432)
I0403 15:28:30.359598 19588 net.cpp:148] Top shape: 24 832 7 7 (978432)
I0403 15:28:30.359611 19588 net.cpp:156] Memory required for data: 1325241888
I0403 15:28:30.359624 19588 layer_factory.hpp:77] Creating layer inception_5b/1x1
I0403 15:28:30.359645 19588 net.cpp:91] Creating Layer inception_5b/1x1
I0403 15:28:30.359663 19588 net.cpp:425] inception_5b/1x1 <- inception_5a/output_inception_5a/output_0_split_0
I0403 15:28:30.359683 19588 net.cpp:399] inception_5b/1x1 -> inception_5b/1x1
I0403 15:28:30.363394 19588 net.cpp:141] Setting up inception_5b/1x1
I0403 15:28:30.363423 19588 net.cpp:148] Top shape: 24 384 7 7 (451584)
I0403 15:28:30.363438 19588 net.cpp:156] Memory required for data: 1327048224
I0403 15:28:30.363456 19588 layer_factory.hpp:77] Creating layer inception_5b/relu_1x1
I0403 15:28:30.363476 19588 net.cpp:91] Creating Layer inception_5b/relu_1x1
I0403 15:28:30.363490 19588 net.cpp:425] inception_5b/relu_1x1 <- inception_5b/1x1
I0403 15:28:30.363507 19588 net.cpp:386] inception_5b/relu_1x1 -> inception_5b/1x1 (in-place)
I0403 15:28:30.363812 19588 net.cpp:141] Setting up inception_5b/relu_1x1
I0403 15:28:30.363837 19588 net.cpp:148] Top shape: 24 384 7 7 (451584)
I0403 15:28:30.363852 19588 net.cpp:156] Memory required for data: 1328854560
I0403 15:28:30.363865 19588 layer_factory.hpp:77] Creating layer inception_5b/3x3_reduce
I0403 15:28:30.363885 19588 net.cpp:91] Creating Layer inception_5b/3x3_reduce
I0403 15:28:30.363903 19588 net.cpp:425] inception_5b/3x3_reduce <- inception_5a/output_inception_5a/output_0_split_1
I0403 15:28:30.363924 19588 net.cpp:399] inception_5b/3x3_reduce -> inception_5b/3x3_reduce
I0403 15:28:30.366600 19588 net.cpp:141] Setting up inception_5b/3x3_reduce
I0403 15:28:30.366628 19588 net.cpp:148] Top shape: 24 192 7 7 (225792)
I0403 15:28:30.366643 19588 net.cpp:156] Memory required for data: 1329757728
I0403 15:28:30.366660 19588 layer_factory.hpp:77] Creating layer inception_5b/relu_3x3_reduce
I0403 15:28:30.366680 19588 net.cpp:91] Creating Layer inception_5b/relu_3x3_reduce
I0403 15:28:30.366696 19588 net.cpp:425] inception_5b/relu_3x3_reduce <- inception_5b/3x3_reduce
I0403 15:28:30.366713 19588 net.cpp:386] inception_5b/relu_3x3_reduce -> inception_5b/3x3_reduce (in-place)
I0403 15:28:30.366899 19588 net.cpp:141] Setting up inception_5b/relu_3x3_reduce
I0403 15:28:30.366925 19588 net.cpp:148] Top shape: 24 192 7 7 (225792)
I0403 15:28:30.366940 19588 net.cpp:156] Memory required for data: 1330660896
I0403 15:28:30.366955 19588 layer_factory.hpp:77] Creating layer inception_5b/3x3
I0403 15:28:30.366978 19588 net.cpp:91] Creating Layer inception_5b/3x3
I0403 15:28:30.367000 19588 net.cpp:425] inception_5b/3x3 <- inception_5b/3x3_reduce
I0403 15:28:30.367019 19588 net.cpp:399] inception_5b/3x3 -> inception_5b/3x3
I0403 15:28:30.373636 19588 net.cpp:141] Setting up inception_5b/3x3
I0403 15:28:30.373662 19588 net.cpp:148] Top shape: 24 384 7 7 (451584)
I0403 15:28:30.373677 19588 net.cpp:156] Memory required for data: 1332467232
I0403 15:28:30.373693 19588 layer_factory.hpp:77] Creating layer inception_5b/relu_3x3
I0403 15:28:30.373713 19588 net.cpp:91] Creating Layer inception_5b/relu_3x3
I0403 15:28:30.373728 19588 net.cpp:425] inception_5b/relu_3x3 <- inception_5b/3x3
I0403 15:28:30.373744 19588 net.cpp:386] inception_5b/relu_3x3 -> inception_5b/3x3 (in-place)
I0403 15:28:30.374043 19588 net.cpp:141] Setting up inception_5b/relu_3x3
I0403 15:28:30.374068 19588 net.cpp:148] Top shape: 24 384 7 7 (451584)
I0403 15:28:30.374080 19588 net.cpp:156] Memory required for data: 1334273568
I0403 15:28:30.374094 19588 layer_factory.hpp:77] Creating layer inception_5b/5x5_reduce
I0403 15:28:30.374130 19588 net.cpp:91] Creating Layer inception_5b/5x5_reduce
I0403 15:28:30.374148 19588 net.cpp:425] inception_5b/5x5_reduce <- inception_5a/output_inception_5a/output_0_split_2
I0403 15:28:30.374167 19588 net.cpp:399] inception_5b/5x5_reduce -> inception_5b/5x5_reduce
I0403 15:28:30.375391 19588 net.cpp:141] Setting up inception_5b/5x5_reduce
I0403 15:28:30.375417 19588 net.cpp:148] Top shape: 24 48 7 7 (56448)
I0403 15:28:30.375432 19588 net.cpp:156] Memory required for data: 1334499360
I0403 15:28:30.375448 19588 layer_factory.hpp:77] Creating layer inception_5b/relu_5x5_reduce
I0403 15:28:30.375468 19588 net.cpp:91] Creating Layer inception_5b/relu_5x5_reduce
I0403 15:28:30.375483 19588 net.cpp:425] inception_5b/relu_5x5_reduce <- inception_5b/5x5_reduce
I0403 15:28:30.375497 19588 net.cpp:386] inception_5b/relu_5x5_reduce -> inception_5b/5x5_reduce (in-place)
I0403 15:28:30.375854 19588 net.cpp:141] Setting up inception_5b/relu_5x5_reduce
I0403 15:28:30.375879 19588 net.cpp:148] Top shape: 24 48 7 7 (56448)
I0403 15:28:30.375891 19588 net.cpp:156] Memory required for data: 1334725152
I0403 15:28:30.375905 19588 layer_factory.hpp:77] Creating layer inception_5b/5x5
I0403 15:28:30.375923 19588 net.cpp:91] Creating Layer inception_5b/5x5
I0403 15:28:30.375938 19588 net.cpp:425] inception_5b/5x5 <- inception_5b/5x5_reduce
I0403 15:28:30.375957 19588 net.cpp:399] inception_5b/5x5 -> inception_5b/5x5
I0403 15:28:30.377913 19588 net.cpp:141] Setting up inception_5b/5x5
I0403 15:28:30.377943 19588 net.cpp:148] Top shape: 24 128 7 7 (150528)
I0403 15:28:30.377957 19588 net.cpp:156] Memory required for data: 1335327264
I0403 15:28:30.377974 19588 layer_factory.hpp:77] Creating layer inception_5b/relu_5x5
I0403 15:28:30.377995 19588 net.cpp:91] Creating Layer inception_5b/relu_5x5
I0403 15:28:30.378011 19588 net.cpp:425] inception_5b/relu_5x5 <- inception_5b/5x5
I0403 15:28:30.378027 19588 net.cpp:386] inception_5b/relu_5x5 -> inception_5b/5x5 (in-place)
I0403 15:28:30.378213 19588 net.cpp:141] Setting up inception_5b/relu_5x5
I0403 15:28:30.378237 19588 net.cpp:148] Top shape: 24 128 7 7 (150528)
I0403 15:28:30.378250 19588 net.cpp:156] Memory required for data: 1335929376
I0403 15:28:30.378263 19588 layer_factory.hpp:77] Creating layer inception_5b/pool
I0403 15:28:30.378280 19588 net.cpp:91] Creating Layer inception_5b/pool
I0403 15:28:30.378295 19588 net.cpp:425] inception_5b/pool <- inception_5a/output_inception_5a/output_0_split_3
I0403 15:28:30.378314 19588 net.cpp:399] inception_5b/pool -> inception_5b/pool
I0403 15:28:30.378382 19588 net.cpp:141] Setting up inception_5b/pool
I0403 15:28:30.378407 19588 net.cpp:148] Top shape: 24 832 7 7 (978432)
I0403 15:28:30.378420 19588 net.cpp:156] Memory required for data: 1339843104
I0403 15:28:30.378433 19588 layer_factory.hpp:77] Creating layer inception_5b/pool_proj
I0403 15:28:30.378454 19588 net.cpp:91] Creating Layer inception_5b/pool_proj
I0403 15:28:30.378470 19588 net.cpp:425] inception_5b/pool_proj <- inception_5b/pool
I0403 15:28:30.378487 19588 net.cpp:399] inception_5b/pool_proj -> inception_5b/pool_proj
I0403 15:28:30.380731 19588 net.cpp:141] Setting up inception_5b/pool_proj
I0403 15:28:30.380759 19588 net.cpp:148] Top shape: 24 128 7 7 (150528)
I0403 15:28:30.380774 19588 net.cpp:156] Memory required for data: 1340445216
I0403 15:28:30.380790 19588 layer_factory.hpp:77] Creating layer inception_5b/relu_pool_proj
I0403 15:28:30.380810 19588 net.cpp:91] Creating Layer inception_5b/relu_pool_proj
I0403 15:28:30.380825 19588 net.cpp:425] inception_5b/relu_pool_proj <- inception_5b/pool_proj
I0403 15:28:30.380841 19588 net.cpp:386] inception_5b/relu_pool_proj -> inception_5b/pool_proj (in-place)
I0403 15:28:30.381129 19588 net.cpp:141] Setting up inception_5b/relu_pool_proj
I0403 15:28:30.381153 19588 net.cpp:148] Top shape: 24 128 7 7 (150528)
I0403 15:28:30.381167 19588 net.cpp:156] Memory required for data: 1341047328
I0403 15:28:30.381181 19588 layer_factory.hpp:77] Creating layer inception_5b/output
I0403 15:28:30.381198 19588 net.cpp:91] Creating Layer inception_5b/output
I0403 15:28:30.381227 19588 net.cpp:425] inception_5b/output <- inception_5b/1x1
I0403 15:28:30.381244 19588 net.cpp:425] inception_5b/output <- inception_5b/3x3
I0403 15:28:30.381258 19588 net.cpp:425] inception_5b/output <- inception_5b/5x5
I0403 15:28:30.381273 19588 net.cpp:425] inception_5b/output <- inception_5b/pool_proj
I0403 15:28:30.381289 19588 net.cpp:399] inception_5b/output -> inception_5b/output
I0403 15:28:30.381338 19588 net.cpp:141] Setting up inception_5b/output
I0403 15:28:30.381361 19588 net.cpp:148] Top shape: 24 1024 7 7 (1204224)
I0403 15:28:30.381373 19588 net.cpp:156] Memory required for data: 1345864224
I0403 15:28:30.381387 19588 layer_factory.hpp:77] Creating layer pool5/7x7_s1
I0403 15:28:30.381403 19588 net.cpp:91] Creating Layer pool5/7x7_s1
I0403 15:28:30.381417 19588 net.cpp:425] pool5/7x7_s1 <- inception_5b/output
I0403 15:28:30.381435 19588 net.cpp:399] pool5/7x7_s1 -> pool5/7x7_s1
I0403 15:28:30.381639 19588 net.cpp:141] Setting up pool5/7x7_s1
I0403 15:28:30.381664 19588 net.cpp:148] Top shape: 24 1024 1 1 (24576)
I0403 15:28:30.381678 19588 net.cpp:156] Memory required for data: 1345962528
I0403 15:28:30.381692 19588 layer_factory.hpp:77] Creating layer pool5/drop_7x7_s1
I0403 15:28:30.381708 19588 net.cpp:91] Creating Layer pool5/drop_7x7_s1
I0403 15:28:30.381722 19588 net.cpp:425] pool5/drop_7x7_s1 <- pool5/7x7_s1
I0403 15:28:30.381738 19588 net.cpp:386] pool5/drop_7x7_s1 -> pool5/7x7_s1 (in-place)
I0403 15:28:30.381786 19588 net.cpp:141] Setting up pool5/drop_7x7_s1
I0403 15:28:30.381808 19588 net.cpp:148] Top shape: 24 1024 1 1 (24576)
I0403 15:28:30.381820 19588 net.cpp:156] Memory required for data: 1346060832
I0403 15:28:30.381834 19588 layer_factory.hpp:77] Creating layer loss3/classifier_plantvillage
I0403 15:28:30.381852 19588 net.cpp:91] Creating Layer loss3/classifier_plantvillage
I0403 15:28:30.381867 19588 net.cpp:425] loss3/classifier_plantvillage <- pool5/7x7_s1
I0403 15:28:30.381886 19588 net.cpp:399] loss3/classifier_plantvillage -> loss3/classifier_plantvillage
I0403 15:28:30.382297 19588 net.cpp:141] Setting up loss3/classifier_plantvillage
I0403 15:28:30.382320 19588 net.cpp:148] Top shape: 24 38 (912)
I0403 15:28:30.382333 19588 net.cpp:156] Memory required for data: 1346064480
I0403 15:28:30.382349 19588 layer_factory.hpp:77] Creating layer loss3/classifier_plantvillage_loss3/classifier_plantvillage_0_split
I0403 15:28:30.382365 19588 net.cpp:91] Creating Layer loss3/classifier_plantvillage_loss3/classifier_plantvillage_0_split
I0403 15:28:30.382380 19588 net.cpp:425] loss3/classifier_plantvillage_loss3/classifier_plantvillage_0_split <- loss3/classifier_plantvillage
I0403 15:28:30.382400 19588 net.cpp:399] loss3/classifier_plantvillage_loss3/classifier_plantvillage_0_split -> loss3/classifier_plantvillage_loss3/classifier_plantvillage_0_split_0
I0403 15:28:30.382418 19588 net.cpp:399] loss3/classifier_plantvillage_loss3/classifier_plantvillage_0_split -> loss3/classifier_plantvillage_loss3/classifier_plantvillage_0_split_1
I0403 15:28:30.382436 19588 net.cpp:399] loss3/classifier_plantvillage_loss3/classifier_plantvillage_0_split -> loss3/classifier_plantvillage_loss3/classifier_plantvillage_0_split_2
I0403 15:28:30.382454 19588 net.cpp:399] loss3/classifier_plantvillage_loss3/classifier_plantvillage_0_split -> loss3/classifier_plantvillage_loss3/classifier_plantvillage_0_split_3
I0403 15:28:30.382549 19588 net.cpp:141] Setting up loss3/classifier_plantvillage_loss3/classifier_plantvillage_0_split
I0403 15:28:30.382570 19588 net.cpp:148] Top shape: 24 38 (912)
I0403 15:28:30.382585 19588 net.cpp:148] Top shape: 24 38 (912)
I0403 15:28:30.382598 19588 net.cpp:148] Top shape: 24 38 (912)
I0403 15:28:30.382612 19588 net.cpp:148] Top shape: 24 38 (912)
I0403 15:28:30.382624 19588 net.cpp:156] Memory required for data: 1346079072
I0403 15:28:30.382637 19588 layer_factory.hpp:77] Creating layer loss1/loss
I0403 15:28:30.382657 19588 net.cpp:91] Creating Layer loss1/loss
I0403 15:28:30.382673 19588 net.cpp:425] loss1/loss <- loss1/classifier_plantvillage_loss1/classifier_plantvillage_0_split_0
I0403 15:28:30.382701 19588 net.cpp:425] loss1/loss <- label_data_1_split_0
…
