…
I0403 15:20:18.521234 18951 net.cpp:313] The NetState phase (1) differed from the phase (0) specified by a rule in layer data
I0403 15:20:18.522436 18951 net.cpp:49] Initializing net from parameters: 
state {
  phase: TEST
}
layer {
  name: "data"
  type: "Data"
  top: "data"
  top: "label"
  include {
    phase: TEST
  }
  transform_param {
    mirror: false
    crop_size: 224
    mean_file: "/home/mohanty/data/final_dataset/lmdb/grayscale-40-60/mean.binaryproto"
  }
  data_param {
    source: "/home/mohanty/data/final_dataset/lmdb/grayscale-40-60/test_db"
    batch_size: 24
    backend: LMDB
  }
}
layer {
  name: "conv1/7x7_s2"
  type: "Convolution"
  bottom: "data"
  top: "conv1/7x7_s2"
  param {
    lr_mult: 1
    decay_mult: 1
  }
  param {
    lr_mult: 2
    decay_mult: 0
  }
  convolution_param {
    num_output: 64
    pad: 3
    kernel_size: 7
    stride: 2
    weight_filler {
      type: "xavier"
      std: 0.1
    }
    bias_filler {
      type: "constant"
      value: 0.2
    }
  }
}
layer {
  name: "conv1/relu_7x7"
  type: "ReLU"
  bottom: "conv1/7x7_s2"
  top: "conv1/7x7_s2"
}
layer {
  name: "pool1/3x3_s2"
  type: "Pooling"
  bottom: "conv1/7x7_s2"
  top: "pool1/3x3_s2"
  pooling_param {
    pool: MAX
    kernel_size: 3
    stride: 2
  }
}
layer {
  name: "pool1/norm1"
  type: "LRN"
  bottom: "pool1/3x3_s2"
  top: "pool1/norm1"
  lrn_param {
    local_size: 5
    alpha: 0.0001
    beta: 0.75
  }
}
layer {
  name: "conv2/3x3_reduce"
  type: "Convolution"
  bottom: "pool1/norm1"
  top: "conv2/3x3_reduce"
  param {
    lr_mult: 1
    decay_mult: 1
  }
  param {
    lr_mult: 2
    decay_mult: 0
  }
  convolution_param {
    num_output: 64
    kernel_size: 1
    weight_filler {
      type: "xavier"
      std: 0.1
    }
    bias_filler {
      type: "constant"
      value: 0.2
    }
  }
}
layer {
  name: "conv2/relu_3x3_reduce"
  type: "ReLU"
  bottom: "conv2/3x3_reduce"
  top: "conv2/3x3_reduce"
}
layer {
  name: "conv2/3x3"
  type: "Convolution"
  bottom: "conv2/3x3_reduce"
  top: "conv2/3x3"
  param {
    lr_mult: 1
    decay_mult: 1
  }
  param {
    lr_mult: 2
    decay_mult: 0
  }
  convolution_param {
    num_output: 192
    pad: 1
    kernel_size: 3
    weight_filler {
      type: "xavier"
      std: 0.03
    }
    bias_filler {
      type: "constant"
      value: 0.2
    }
  }
}
layer {
  name: "conv2/relu_3x3"
  type: "ReLU"
  bottom: "conv2/3x3"
  top: "conv2/3x3"
}
layer {
  name: "conv2/norm2"
  type: "LRN"
  bottom: "conv2/3x3"
  top: "conv2/norm2"
  lrn_param {
    local_size: 5
    alpha: 0.0001
    beta: 0.75
  }
}
layer {
  name: "pool2/3x3_s2"
  type: "Pooling"
  bottom: "conv2/norm2"
  top: "pool2/3x3_s2"
  pooling_param {
    pool: MAX
    kernel_size: 3
    stride: 2
  }
}
layer {
  name: "inception_3a/1x1"
  type: "Convolution"
  bottom: "pool2/3x3_s2"
  top: "inception_3a/1x1"
  param {
    lr_mult: 1
    decay_mult: 1
  }
  param {
    lr_mult: 2
    decay_mult: 0
  }
  convolution_param {
    num_output: 64
    kernel_size: 1
    weight_filler {
      type: "xavier"
      std: 0.03
    }
    bias_filler {
      type: "constant"
      value: 0.2
    }
  }
}
layer {
  name: "inception_3a/relu_1x1"
  type: "ReLU"
  bottom: "inception_3a/1x1"
  top: "inception_3a/1x1"
}
layer {
  name: "inception_3a/3x3_reduce"
  type: "Convolution"
  bottom: "pool2/3x3_s2"
  top: "inception_3a/3x3_reduce"
  param {
    lr_mult: 1
    decay_mult: 1
  }
  param {
    lr_mult: 2
    decay_mult: 0
  }
  convolution_param {
    num_output: 96
    kernel_size: 1
    weight_filler {
      type: "xavier"
      std: 0.09
    }
    bias_filler {
      type: "constant"
      value: 0.2
    }
  }
}
layer {
  name: "inception_3a/relu_3x3_reduce"
  type: "ReLU"
  bottom: "inception_3a/3x3_reduce"
  top: "inception_3a/3x3_reduce"
}
layer {
  name: "inception_3a/3x3"
  type: "Convolution"
  bottom: "inception_3a/3x3_reduce"
  top: "inception_3a/3x3"
  param {
    lr_mult: 1
    decay_mult: 1
  }
  param {
    lr_mult: 2
    decay_mult: 0
  }
  convolution_param {
    num_output: 128
    pad: 1
    kernel_size: 3
    weight_filler {
      type: "xavier"
      std: 0.03
    }
    bias_filler {
      type: "constant"
      value: 0.2
    }
  }
}
layer {
  name: "inception_3a/relu_3x3"
  type: "ReLU"
  bottom: "inception_3a/3x3"
  top: "inception_3a/3x3"
}
layer {
  name: "inception_3a/5x5_reduce"
  type: "Convolution"
  bottom: "pool2/3x3_s2"
  top: "inception_3a/5x5_reduce"
  param {
    lr_mult: 1
    decay_mult: 1
  }
  param {
    lr_mult: 2
    decay_mult: 0
  }
  convolution_param {
    num_output: 16
    kernel_size: 1
    weight_filler {
      type: "xavier"
      std: 0.2
    }
    bias_filler {
      type: "constant"
      value: 0.2
    }
  }
}
layer {
  name: "inception_3a/relu_5x5_reduce"
  type: "ReLU"
  bottom: "inception_3a/5x5_reduce"
  top: "inception_3a/5x5_reduce"
}
layer {
  name: "inception_3a/5x5"
  type: "Convolution"
  bottom: "inception_3a/5x5_reduce"
  top: "inception_3a/5x5"
  param {
    lr_mult: 1
    decay_mult: 1
  }
  param {
    lr_mult: 2
    decay_mult: 0
  }
  convolution_param {
    num_output: 32
    pad: 2
    kernel_size: 5
    weight_filler {
      type: "xavier"
      std: 0.03
    }
    bias_filler {
      type: "constant"
      value: 0.2
    }
  }
}
layer {
  name: "inception_3a/relu_5x5"
  type: "ReLU"
  bottom: "inception_3a/5x5"
  top: "inception_3a/5x5"
}
layer {
  name: "inception_3a/pool"
  type: "Pooling"
  bottom: "pool2/3x3_s2"
  top: "inception_3a/pool"
  pooling_param {
    pool: MAX
    kernel_size: 3
    stride: 1
    pad: 1
  }
}
layer {
  name: "inception_3a/pool_proj"
  type: "Convolution"
  bottom: "inception_3a/pool"
  top: "inception_3a/pool_proj"
  param {
    lr_mult: 1
    decay_mult: 1
  }
  param {
    lr_mult: 2
    decay_mult: 0
  }
  convolution_param {
    num_output: 32
    kernel_size: 1
    weight_filler {
      type: "xavier"
      std: 0.1
    }
    bias_filler {
      type: "constant"
      value: 0.2
    }
  }
}
layer {
  name: "inception_3a/relu_pool_proj"
  type: "ReLU"
  bottom: "inception_3a/pool_proj"
  top: "inception_3a/pool_proj"
}
layer {
  name: "inception_3a/output"
  type: "Concat"
  bottom: "inception_3a/1x1"
  bottom: "inception_3a/3x3"
  bottom: "inception_3a/5x5"
  bottom: "inception_3a/pool_proj"
  top: "inception_3a/output"
}
layer {
  name: "inception_3b/1x1"
  type: "Convolution"
  bottom: "inception_3a/output"
  top: "inception_3b/1x1"
  param {
    lr_mult: 1
    decay_mult: 1
  }
  param {
    lr_mult: 2
    decay_mult: 0
  }
  convolution_param {
    num_output: 128
    kernel_size: 1
    weight_filler {
      type: "xavier"
      std: 0.03
    }
    bias_filler {
      type: "constant"
      value: 0.2
    }
  }
}
layer {
  name: "inception_3b/relu_1x1"
  type: "ReLU"
  bottom: "inception_3b/1x1"
  top: "inception_3b/1x1"
}
layer {
  name: "inception_3b/3x3_reduce"
  type: "Convolution"
  bottom: "inception_3a/output"
  top: "inception_3b/3x3_reduce"
  param {
    lr_mult: 1
    decay_mult: 1
  }
  param {
    lr_mult: 2
    decay_mult: 0
  }
  convolution_param {
    num_output: 128
    kernel_size: 1
    weight_filler {
      type: "xavier"
      std: 0.09
    }
    bias_filler {
      type: "constant"
      value: 0.2
    }
  }
}
layer {
  name: "inception_3b/relu_3x3_reduce"
  type: "ReLU"
  bottom: "inception_3b/3x3_reduce"
  top: "inception_3b/3x3_reduce"
}
layer {
  name: "inception_3b/3x3"
  type: "Convolution"
  bottom: "inception_3b/3x3_reduce"
  top: "inception_3b/3x3"
  param {
    lr_mult: 1
    decay_mult: 1
  }
  param {
    lr_mult: 2
    decay_mult: 0
  }
  convolution_param {
    num_output: 192
    pad: 1
    kernel_size: 3
    weight_filler {
      type: "xavier"
      std: 0.03
    }
    bias_filler {
      type: "constant"
      value: 0.2
    }
  }
}
layer {
  name: "inception_3b/relu_3x3"
  type: "ReLU"
  bottom: "inception_3b/3x3"
  top: "inception_3b/3x3"
}
layer {
  name: "inception_3b/5x5_reduce"
  type: "Convolution"
  bottom: "inception_3a/output"
  top: "inception_3b/5x5_reduce"
  param {
    lr_mult: 1
    decay_mult: 1
  }
  param {
    lr_mult: 2
    decay_mult: 0
  }
  convolution_param {
    num_output: 32
    kernel_size: 1
    weight_filler {
      type: "xavier"
      std: 0.2
    }
    bias_filler {
      type: "constant"
      value: 0.2
    }
  }
}
layer {
  name: "inception_3b/relu_5x5_reduce"
  type: "ReLU"
  bottom: "inception_3b/5x5_reduce"
  top: "inception_3b/5x5_reduce"
}
layer {
  name: "inception_3b/5x5"
  type: "Convolution"
  bottom: "inception_3b/5x5_reduce"
  top: "inception_3b/5x5"
  param {
    lr_mult: 1
    decay_mult: 1
  }
  param {
    lr_mult: 2
    decay_mult: 0
  }
  convolution_param {
    num_output: 96
    pad: 2
    kernel_size: 5
    weight_filler {
      type: "xavier"
      std: 0.03
    }
    bias_filler {
      type: "constant"
      value: 0.2
    }
  }
}
layer {
  name: "inception_3b/relu_5x5"
  type: "ReLU"
  bottom: "inception_3b/5x5"
  top: "inception_3b/5x5"
}
layer {
  name: "inception_3b/pool"
  type: "Pooling"
  bottom: "inception_3a/output"
  top: "inception_3b/pool"
  pooling_param {
    pool: MAX
    kernel_size: 3
    stride: 1
    pad: 1
  }
}
layer {
  name: "inception_3b/pool_proj"
  type: "Convolution"
  bottom: "inception_3b/pool"
  top: "inception_3b/pool_proj"
  param {
    lr_mult: 1
    decay_mult: 1
  }
  param {
    lr_mult: 2
    decay_mult: 0
  }
  convolution_param {
    num_output: 64
    kernel_size: 1
    weight_filler {
      type: "xavier"
      std: 0.1
    }
    bias_filler {
      type: "constant"
      value: 0.2
    }
  }
}
layer {
  name: "inception_3b/relu_pool_proj"
  type: "ReLU"
  bottom: "inception_3b/pool_proj"
  top: "inception_3b/pool_proj"
}
layer {
  name: "inception_3b/output"
  type: "Concat"
  bottom: "inception_3b/1x1"
  bottom: "inception_3b/3x3"
  bottom: "inception_3b/5x5"
  bottom: "inception_3b/pool_proj"
  top: "inception_3b/output"
}
layer {
  name: "pool3/3x3_s2"
  type: "Pooling"
  bottom: "inception_3b/output"
  top: "pool3/3x3_s2"
  pooling_param {
    pool: MAX
    kernel_size: 3
    stride: 2
  }
}
layer {
  name: "inception_4a/1x1"
  type: "Convolution"
  bottom: "pool3/3x3_s2"
  top: "inception_4a/1x1"
  param {
    lr_mult: 1
    decay_mult: 1
  }
  param {
    lr_mult: 2
    decay_mult: 0
  }
  convolution_param {
    num_output: 192
    kernel_size: 1
    weight_filler {
      type: "xavier"
      std: 0.03
    }
    bias_filler {
      type: "constant"
      value: 0.2
    }
  }
}
layer {
  name: "inception_4a/relu_1x1"
  type: "ReLU"
  bottom: "inception_4a/1x1"
  top: "inception_4a/1x1"
}
layer {
  name: "inception_4a/3x3_reduce"
  type: "Convolution"
  bottom: "pool3/3x3_s2"
  top: "inception_4a/3x3_reduce"
  param {
    lr_mult: 1
    decay_mult: 1
  }
  param {
    lr_mult: 2
    decay_mult: 0
  }
  convolution_param {
    num_output: 96
    kernel_size: 1
    weight_filler {
      type: "xavier"
      std: 0.09
    }
    bias_filler {
      type: "constant"
      value: 0.2
    }
  }
}
layer {
  name: "inception_4a/relu_3x3_reduce"
  type: "ReLU"
  bottom: "inception_4a/3x3_reduce"
  top: "inception_4a/3x3_reduce"
}
layer {
  name: "inception_4a/3x3"
  type: "Convolution"
  bottom: "inception_4a/3x3_reduce"
  top: "inception_4a/3x3"
  param {
    lr_mult: 1
    decay_mult: 1
  }
  param {
    lr_mult: 2
    decay_mult: 0
  }
  convolution_param {
    num_output: 208
    pad: 1
    kernel_size: 3
    weight_filler {
      type: "xavier"
      std: 0.03
    }
    bias_filler {
      type: "constant"
      value: 0.2
    }
  }
}
layer {
  name: "inception_4a/relu_3x3"
  type: "ReLU"
  bottom: "inception_4a/3x3"
  top: "inception_4a/3x3"
}
layer {
  name: "inception_4a/5x5_reduce"
  type: "Convolution"
  bottom: "pool3/3x3_s2"
  top: "inception_4a/5x5_reduce"
  param {
    lr_mult: 1
    decay_mult: 1
  }
  param {
    lr_mult: 2
    decay_mult: 0
  }
  convolution_param {
    num_output: 16
    kernel_size: 1
    weight_filler {
      type: "xavier"
      std: 0.2
    }
    bias_filler {
      type: "constant"
      value: 0.2
    }
  }
}
layer {
  name: "inception_4a/relu_5x5_reduce"
  type: "ReLU"
  bottom: "inception_4a/5x5_reduce"
  top: "inception_4a/5x5_reduce"
}
layer {
  name: "inception_4a/5x5"
  type: "Convolution"
  bottom: "inception_4a/5x5_reduce"
  top: "inception_4a/5x5"
  param {
    lr_mult: 1
    decay_mult: 1
  }
  param {
    lr_mult: 2
    decay_mult: 0
  }
  convolution_param {
    num_output: 48
    pad: 2
    kernel_size: 5
    weight_filler {
      type: "xavier"
      std: 0.03
    }
    bias_filler {
      type: "constant"
      value: 0.2
    }
  }
}
layer {
  name: "inception_4a/relu_5x5"
  type: "ReLU"
  bottom: "inception_4a/5x5"
  top: "inception_4a/5x5"
}
layer {
  name: "inception_4a/pool"
  type: "Pooling"
  bottom: "pool3/3x3_s2"
  top: "inception_4a/pool"
  pooling_param {
    pool: MAX
    kernel_size: 3
    stride: 1
    pad: 1
  }
}
layer {
  name: "inception_4a/pool_proj"
  type: "Convolution"
  bottom: "inception_4a/pool"
  top: "inception_4a/pool_proj"
  param {
    lr_mult: 1
    decay_mult: 1
  }
  param {
    lr_mult: 2
    decay_mult: 0
  }
  convolution_param {
    num_output: 64
    kernel_size: 1
    weight_filler {
      type: "xavier"
      std: 0.1
    }
    bias_filler {
      type: "constant"
      value: 0.2
    }
  }
}
layer {
  name: "inception_4a/relu_pool_proj"
  type: "ReLU"
  bottom: "inception_4a/pool_proj"
  top: "inception_4a/pool_proj"
}
layer {
  name: "inception_4a/output"
  type: "Concat"
  bottom: "inception_4a/1x1"
  bottom: "inception_4a/3x3"
  bottom: "inception_4a/5x5"
  bottom: "inception_4a/pool_proj"
  top: "inception_4a/output"
}
layer {
  name: "loss1/ave_pool"
  type: "Pooling"
  bottom: "inception_4a/output"
  top: "loss1/ave_pool"
  pooling_param {
    pool: AVE
    kernel_size: 5
    stride: 3
  }
}
layer {
  name: "loss1/conv"
  type: "Convolution"
  bottom: "loss1/ave_pool"
  top: "loss1/conv"
  param {
    lr_mult: 1
    decay_mult: 1
  }
  param {
    lr_mult: 2
    decay_mult: 0
  }
  convolution_param {
    num_output: 128
    kernel_size: 1
    weight_filler {
      type: "xavier"
      std: 0.08
    }
    bias_filler {
      type: "constant"
      value: 0.2
    }
  }
}
layer {
  name: "loss1/relu_conv"
  type: "ReLU"
  bottom: "loss1/conv"
  top: "loss1/conv"
}
layer {
  name: "loss1/fc"
  type: "InnerProduct"
  bottom: "loss1/conv"
  top: "loss1/fc"
  param {
    lr_mult: 1
    decay_mult: 1
  }
  param {
    lr_mult: 2
    decay_mult: 0
  }
  inner_product_param {
    num_output: 1024
    weight_filler {
      type: "xavier"
      std: 0.02
    }
    bias_filler {
      type: "constant"
      value: 0.2
    }
  }
}
layer {
  name: "loss1/relu_fc"
  type: "ReLU"
  bottom: "loss1/fc"
  top: "loss1/fc"
}
layer {
  name: "loss1/drop_fc"
  type: "Dropout"
  bottom: "loss1/fc"
  top: "loss1/fc"
  dropout_param {
    dropout_ratio: 0.7
  }
}
layer {
  name: "loss1/classifier_plantvillage"
  type: "InnerProduct"
  bottom: "loss1/fc"
  top: "loss1/classifier_plantvillage"
  param {
    lr_mult: 1
    decay_mult: 1
  }
  param {
    lr_mult: 2
    decay_mult: 0
  }
  inner_product_param {
    num_output: 38
    weight_filler {
      type: "xavier"
      std: 0.0009765625
    }
    bias_filler {
      type: "constant"
      value: 0
    }
  }
}
layer {
  name: "inception_4b/1x1"
  type: "Convolution"
  bottom: "inception_4a/output"
  top: "inception_4b/1x1"
  param {
    lr_mult: 1
    decay_mult: 1
  }
  param {
    lr_mult: 2
    decay_mult: 0
  }
  convolution_param {
    num_output: 160
    kernel_size: 1
    weight_filler {
      type: "xavier"
      std: 0.03
    }
    bias_filler {
      type: "constant"
      value: 0.2
    }
  }
}
layer {
  name: "inception_4b/relu_1x1"
  type: "ReLU"
  bottom: "inception_4b/1x1"
  top: "inception_4b/1x1"
}
layer {
  name: "inception_4b/3x3_reduce"
  type: "Convolution"
  bottom: "inception_4a/output"
  top: "inception_4b/3x3_reduce"
  param {
    lr_mult: 1
    decay_mult: 1
  }
  param {
    lr_mult: 2
    decay_mult: 0
  }
  convolution_param {
    num_output: 112
    kernel_size: 1
    weight_filler {
      type: "xavier"
      std: 0.09
    }
    bias_filler {
      type: "constant"
      value: 0.2
    }
  }
}
layer {
  name: "inception_4b/relu_3x3_reduce"
  type: "ReLU"
  bottom: "inception_4b/3x3_reduce"
  top: "inception_4b/3x3_reduce"
}
layer {
  name: "inception_4b/3x3"
  type: "Convolution"
  bottom: "inception_4b/3x3_reduce"
  top: "inception_4b/3x3"
  param {
    lr_mult: 1
    decay_mult: 1
  }
  param {
    lr_mult: 2
    decay_mult: 0
  }
  convolution_param {
    num_output: 224
    pad: 1
    kernel_size: 3
    weight_filler {
      type: "xavier"
      std: 0.03
    }
    bias_filler {
      type: "constant"
      value: 0.2
    }
  }
}
layer {
  name: "inception_4b/relu_3x3"
  type: "ReLU"
  bottom: "inception_4b/3x3"
  top: "inception_4b/3x3"
}
layer {
  name: "inception_4b/5x5_reduce"
  type: "Convolution"
  bottom: "inception_4a/output"
  top: "inception_4b/5x5_reduce"
  param {
    lr_mult: 1
    decay_mult: 1
  }
  param {
    lr_mult: 2
    decay_mult: 0
  }
  convolution_param {
    num_output: 24
    kernel_size: 1
    weight_filler {
      type: "xavier"
      std: 0.2
    }
    bias_filler {
      type: "constant"
      value: 0.2
    }
  }
}
layer {
  name: "inception_4b/relu_5x5_reduce"
  type: "ReLU"
  bottom: "inception_4b/5x5_reduce"
  top: "inception_4b/5x5_reduce"
}
layer {
  name: "inception_4b/5x5"
  type: "Convolution"
  bottom: "inception_4b/5x5_reduce"
  top: "inception_4b/5x5"
  param {
    lr_mult: 1
    decay_mult: 1
  }
  param {
    lr_mult: 2
    decay_mult: 0
  }
  convolution_param {
    num_output: 64
    pad: 2
    kernel_size: 5
    weight_filler {
      type: "xavier"
      std: 0.03
    }
    bias_filler {
      type: "constant"
      value: 0.2
    }
  }
}
layer {
  name: "inception_4b/relu_5x5"
  type: "ReLU"
  bottom: "inception_4b/5x5"
  top: "inception_4b/5x5"
}
layer {
  name: "inception_4b/pool"
  type: "Pooling"
  bottom: "inception_4a/output"
  top: "inception_4b/pool"
  pooling_param {
    pool: MAX
    kernel_size: 3
    stride: 1
    pad: 1
  }
}
layer {
  name: "inception_4b/pool_proj"
  type: "Convolution"
  bottom: "inception_4b/pool"
  top: "inception_4b/pool_proj"
  param {
    lr_mult: 1
    decay_mult: 1
  }
  param {
    lr_mult: 2
    decay_mult: 0
  }
  convolution_param {
    num_output: 64
    kernel_size: 1
    weight_filler {
      type: "xavier"
      std: 0.1
    }
    bias_filler {
      type: "constant"
      value: 0.2
    }
  }
}
layer {
  name: "inception_4b/relu_pool_proj"
  type: "ReLU"
  bottom: "inception_4b/pool_proj"
  top: "inception_4b/pool_proj"
}
layer {
  name: "inception_4b/output"
  type: "Concat"
  bottom: "inception_4b/1x1"
  bottom: "inception_4b/3x3"
  bottom: "inception_4b/5x5"
  bottom: "inception_4b/pool_proj"
  top: "inception_4b/output"
}
layer {
  name: "inception_4c/1x1"
  type: "Convolution"
  bottom: "inception_4b/output"
  top: "inception_4c/1x1"
  param {
    lr_mult: 1
    decay_mult: 1
  }
  param {
    lr_mult: 2
    decay_mult: 0
  }
  convolution_param {
    num_output: 128
    kernel_size: 1
    weight_filler {
      type: "xavier"
      std: 0.03
    }
    bias_filler {
      type: "constant"
      value: 0.2
    }
  }
}
layer {
  name: "inception_4c/relu_1x1"
  type: "ReLU"
  bottom: "inception_4c/1x1"
  top: "inception_4c/1x1"
}
layer {
  name: "inception_4c/3x3_reduce"
  type: "Convolution"
  bottom: "inception_4b/output"
  top: "inception_4c/3x3_reduce"
  param {
    lr_mult: 1
    decay_mult: 1
  }
  param {
    lr_mult: 2
    decay_mult: 0
  }
  convolution_param {
    num_output: 128
    kernel_size: 1
    weight_filler {
      type: "xavier"
      std: 0.09
    }
    bias_filler {
      type: "constant"
      value: 0.2
    }
  }
}
layer {
  name: "inception_4c/relu_3x3_reduce"
  type: "ReLU"
  bottom: "inception_4c/3x3_reduce"
  top: "inception_4c/3x3_reduce"
}
layer {
  name: "inception_4c/3x3"
  type: "Convolution"
  bottom: "inception_4c/3x3_reduce"
  top: "inception_4c/3x3"
  param {
    lr_mult: 1
    decay_mult: 1
  }
  param {
    lr_mult: 2
    decay_mult: 0
  }
  convolution_param {
    num_output: 256
    pad: 1
    kernel_size: 3
    weight_filler {
      type: "xavier"
      std: 0.03
    }
    bias_filler {
      type: "constant"
      value: 0.2
    }
  }
}
layer {
  name: "inception_4c/relu_3x3"
  type: "ReLU"
  bottom: "inception_4c/3x3"
  top: "inception_4c/3x3"
}
layer {
  name: "inception_4c/5x5_reduce"
  type: "Convolution"
  bottom: "inception_4b/output"
  top: "inception_4c/5x5_reduce"
  param {
    lr_mult: 1
    decay_mult: 1
  }
  param {
    lr_mult: 2
    decay_mult: 0
  }
  convolution_param {
    num_output: 24
    kernel_size: 1
    weight_filler {
      type: "xavier"
      std: 0.2
    }
    bias_filler {
      type: "constant"
      value: 0.2
    }
  }
}
layer {
  name: "inception_4c/relu_5x5_reduce"
  type: "ReLU"
  bottom: "inception_4c/5x5_reduce"
  top: "inception_4c/5x5_reduce"
}
layer {
  name: "inception_4c/5x5"
  type: "Convolution"
  bottom: "inception_4c/5x5_reduce"
  top: "inception_4c/5x5"
  param {
    lr_mult: 1
    decay_mult: 1
  }
  param {
    lr_mult: 2
    decay_mult: 0
  }
  convolution_param {
    num_output: 64
    pad: 2
    kernel_size: 5
    weight_filler {
      type: "xavier"
      std: 0.03
    }
    bias_filler {
      type: "constant"
      value: 0.2
    }
  }
}
layer {
  name: "inception_4c/relu_5x5"
  type: "ReLU"
  bottom: "inception_4c/5x5"
  top: "inception_4c/5x5"
}
layer {
  name: "inception_4c/pool"
  type: "Pooling"
  bottom: "inception_4b/output"
  top: "inception_4c/pool"
  pooling_param {
    pool: MAX
    kernel_size: 3
    stride: 1
    pad: 1
  }
}
layer {
  name: "inception_4c/pool_proj"
  type: "Convolution"
  bottom: "inception_4c/pool"
  top: "inception_4c/pool_proj"
  param {
    lr_mult: 1
    decay_mult: 1
  }
  param {
    lr_mult: 2
    decay_mult: 0
  }
  convolution_param {
    num_output: 64
    kernel_size: 1
    weight_filler {
      type: "xavier"
      std: 0.1
    }
    bias_filler {
      type: "constant"
      value: 0.2
    }
  }
}
layer {
  name: "inception_4c/relu_pool_proj"
  type: "ReLU"
  bottom: "inception_4c/pool_proj"
  top: "inception_4c/pool_proj"
}
layer {
  name: "inception_4c/output"
  type: "Concat"
  bottom: "inception_4c/1x1"
  bottom: "inception_4c/3x3"
  bottom: "inception_4c/5x5"
  bottom: "inception_4c/pool_proj"
  top: "inception_4c/output"
}
layer {
  name: "inception_4d/1x1"
  type: "Convolution"
  bottom: "inception_4c/output"
  top: "inception_4d/1x1"
  param {
    lr_mult: 1
    decay_mult: 1
  }
  param {
    lr_mult: 2
    decay_mult: 0
  }
  convolution_param {
    num_output: 112
    kernel_size: 1
    weight_filler {
      type: "xavier"
      std: 0.03
    }
    bias_filler {
      type: "constant"
      value: 0.2
    }
  }
}
layer {
  name: "inception_4d/relu_1x1"
  type: "ReLU"
  bottom: "inception_4d/1x1"
  top: "inception_4d/1x1"
}
layer {
  name: "inception_4d/3x3_reduce"
  type: "Convolution"
  bottom: "inception_4c/output"
  top: "inception_4d/3x3_reduce"
  param {
    lr_mult: 1
    decay_mult: 1
  }
  param {
    lr_mult: 2
    decay_mult: 0
  }
  convolution_param {
    num_output: 144
    kernel_size: 1
    weight_filler {
      type: "xavier"
      std: 0.09
    }
    bias_filler {
      type: "constant"
      value: 0.2
    }
  }
}
layer {
  name: "inception_4d/relu_3x3_reduce"
  type: "ReLU"
  bottom: "inception_4d/3x3_reduce"
  top: "inception_4d/3x3_reduce"
}
layer {
  name: "inception_4d/3x3"
  type: "Convolution"
  bottom: "inception_4d/3x3_reduce"
  top: "inception_4d/3x3"
  param {
    lr_mult: 1
    decay_mult: 1
  }
  param {
    lr_mult: 2
    decay_mult: 0
  }
  convolution_param {
    num_output: 288
    pad: 1
    kernel_size: 3
    weight_filler {
      type: "xavier"
      std: 0.03
    }
    bias_filler {
      type: "constant"
      value: 0.2
    }
  }
}
layer {
  name: "inception_4d/relu_3x3"
  type: "ReLU"
  bottom: "inception_4d/3x3"
  top: "inception_4d/3x3"
}
layer {
  name: "inception_4d/5x5_reduce"
  type: "Convolution"
  bottom: "inception_4c/output"
  top: "inception_4d/5x5_reduce"
  param {
    lr_mult: 1
    decay_mult: 1
  }
  param {
    lr_mult: 2
    decay_mult: 0
  }
  convolution_param {
    num_output: 32
    kernel_size: 1
    weight_filler {
      type: "xavier"
      std: 0.2
    }
    bias_filler {
      type: "constant"
      value: 0.2
    }
  }
}
layer {
  name: "inception_4d/relu_5x5_reduce"
  type: "ReLU"
  bottom: "inception_4d/5x5_reduce"
  top: "inception_4d/5x5_reduce"
}
layer {
  name: "inception_4d/5x5"
  type: "Convolution"
  bottom: "inception_4d/5x5_reduce"
  top: "inception_4d/5x5"
  param {
    lr_mult: 1
    decay_mult: 1
  }
  param {
    lr_mult: 2
    decay_mult: 0
  }
  convolution_param {
    num_output: 64
    pad: 2
    kernel_size: 5
    weight_filler {
      type: "xavier"
      std: 0.03
    }
    bias_filler {
      type: "constant"
      value: 0.2
    }
  }
}
layer {
  name: "inception_4d/relu_5x5"
  type: "ReLU"
  bottom: "inception_4d/5x5"
  top: "inception_4d/5x5"
}
layer {
  name: "inception_4d/pool"
  type: "Pooling"
  bottom: "inception_4c/output"
  top: "inception_4d/pool"
  pooling_param {
    pool: MAX
    kernel_size: 3
    stride: 1
    pad: 1
  }
}
layer {
  name: "inception_4d/pool_proj"
  type: "Convolution"
  bottom: "inception_4d/pool"
  top: "inception_4d/pool_proj"
  param {
    lr_mult: 1
    decay_mult: 1
  }
  param {
    lr_mult: 2
    decay_mult: 0
  }
  convolution_param {
    num_output: 64
    kernel_size: 1
    weight_filler {
      type: "xavier"
      std: 0.1
    }
    bias_filler {
      type: "constant"
      value: 0.2
    }
  }
}
layer {
  name: "inception_4d/relu_pool_proj"
  type: "ReLU"
  bottom: "inception_4d/pool_proj"
  top: "inception_4d/pool_proj"
}
layer {
  name: "inception_4d/output"
  type: "Concat"
  bottom: "inception_4d/1x1"
  bottom: "inception_4d/3x3"
  bottom: "inception_4d/5x5"
  bottom: "inception_4d/pool_proj"
  top: "inception_4d/output"
}
layer {
  name: "loss2/ave_pool"
  type: "Pooling"
  bottom: "inception_4d/output"
  top: "loss2/ave_pool"
  pooling_param {
    pool: AVE
    kernel_size: 5
    stride: 3
  }
}
layer {
  name: "loss2/conv"
  type: "Convolution"
  bottom: "loss2/ave_pool"
  top: "loss2/conv"
  param {
    lr_mult: 1
    decay_mult: 1
  }
  param {
    lr_mult: 2
    decay_mult: 0
  }
  convolution_param {
    num_output: 128
    kernel_size: 1
    weight_filler {
      type: "xavier"
      std: 0.08
    }
    bias_filler {
      type: "constant"
      value: 0.2
    }
  }
}
layer {
  name: "loss2/relu_conv"
  type: "ReLU"
  bottom: "loss2/conv"
  top: "loss2/conv"
}
layer {
  name: "loss2/fc"
  type: "InnerProduct"
  bottom: "loss2/conv"
  top: "loss2/fc"
  param {
    lr_mult: 1
    decay_mult: 1
  }
  param {
    lr_mult: 2
    decay_mult: 0
  }
  inner_product_param {
    num_output: 1024
    weight_filler {
      type: "xavier"
      std: 0.02
    }
    bias_filler {
      type: "constant"
      value: 0.2
    }
  }
}
layer {
  name: "loss2/relu_fc"
  type: "ReLU"
  bottom: "loss2/fc"
  top: "loss2/fc"
}
layer {
  name: "loss2/drop_fc"
  type: "Dropout"
  bottom: "loss2/fc"
  top: "loss2/fc"
  dropout_param {
    dropout_ratio: 0.7
  }
}
layer {
  name: "loss2/classifier_plantvillage"
  type: "InnerProduct"
  bottom: "loss2/fc"
  top: "loss2/classifier_plantvillage"
  param {
    lr_mult: 1
    decay_mult: 1
  }
  param {
    lr_mult: 2
    decay_mult: 0
  }
  inner_product_param {
    num_output: 38
    weight_filler {
      type: "xavier"
      std: 0.0009765625
    }
    bias_filler {
      type: "constant"
      value: 0
    }
  }
}
layer {
  name: "inception_4e/1x1"
  type: "Convolution"
  bottom: "inception_4d/output"
  top: "inception_4e/1x1"
  param {
    lr_mult: 1
    decay_mult: 1
  }
  param {
    lr_mult: 2
    decay_mult: 0
  }
  convolution_param {
    num_output: 256
    kernel_size: 1
    weight_filler {
      type: "xavier"
      std: 0.03
    }
    bias_filler {
      type: "constant"
      value: 0.2
    }
  }
}
layer {
  name: "inception_4e/relu_1x1"
  type: "ReLU"
  bottom: "inception_4e/1x1"
  top: "inception_4e/1x1"
}
layer {
  name: "inception_4e/3x3_reduce"
  type: "Convolution"
  bottom: "inception_4d/output"
  top: "inception_4e/3x3_reduce"
  param {
    lr_mult: 1
    decay_mult: 1
  }
  param {
    lr_mult: 2
    decay_mult: 0
  }
  convolution_param {
    num_output: 160
    kernel_size: 1
    weight_filler {
      type: "xavier"
      std: 0.09
    }
    bias_filler {
      type: "constant"
      value: 0.2
    }
  }
}
layer {
  name: "inception_4e/relu_3x3_reduce"
  type: "ReLU"
  bottom: "inception_4e/3x3_reduce"
  top: "inception_4e/3x3_reduce"
}
layer {
  name: "inception_4e/3x3"
  type: "Convolution"
  bottom: "inception_4e/3x3_reduce"
  top: "inception_4e/3x3"
  param {
    lr_mult: 1
    decay_mult: 1
  }
  param {
    lr_mult: 2
    decay_mult: 0
  }
  convolution_param {
    num_output: 320
    pad: 1
    kernel_size: 3
    weight_filler {
      type: "xavier"
      std: 0.03
    }
    bias_filler {
      type: "constant"
      value: 0.2
    }
  }
}
layer {
  name: "inception_4e/relu_3x3"
  type: "ReLU"
  bottom: "inception_4e/3x3"
  top: "inception_4e/3x3"
}
layer {
  name: "inception_4e/5x5_reduce"
  type: "Convolution"
  bottom: "inception_4d/output"
  top: "inception_4e/5x5_reduce"
  param {
    lr_mult: 1
    decay_mult: 1
  }
  param {
    lr_mult: 2
    decay_mult: 0
  }
  convolution_param {
    num_output: 32
    kernel_size: 1
    weight_filler {
      type: "xavier"
      std: 0.2
    }
    bias_filler {
      type: "constant"
      value: 0.2
    }
  }
}
layer {
  name: "inception_4e/relu_5x5_reduce"
  type: "ReLU"
  bottom: "inception_4e/5x5_reduce"
  top: "inception_4e/5x5_reduce"
}
layer {
  name: "inception_4e/5x5"
  type: "Convolution"
  bottom: "inception_4e/5x5_reduce"
  top: "inception_4e/
I0403 15:20:18.523689 18951 layer_factory.hpp:77] Creating layer data
I0403 15:20:18.524305 18951 net.cpp:91] Creating Layer data
I0403 15:20:18.524336 18951 net.cpp:399] data -> data
I0403 15:20:18.524386 18951 net.cpp:399] data -> label
I0403 15:20:18.524422 18951 data_transformer.cpp:25] Loading mean file from: /home/mohanty/data/final_dataset/lmdb/grayscale-40-60/mean.binaryproto
I0403 15:20:18.526993 18953 db_lmdb.cpp:38] Opened lmdb /home/mohanty/data/final_dataset/lmdb/grayscale-40-60/test_db
I0403 15:20:18.538154 18951 data_layer.cpp:41] output data size: 24,3,224,224
I0403 15:20:18.569227 18951 net.cpp:141] Setting up data
I0403 15:20:18.569321 18951 net.cpp:148] Top shape: 24 3 224 224 (3612672)
I0403 15:20:18.569344 18951 net.cpp:148] Top shape: 24 (24)
I0403 15:20:18.569360 18951 net.cpp:156] Memory required for data: 14450784
I0403 15:20:18.569387 18951 layer_factory.hpp:77] Creating layer label_data_1_split
I0403 15:20:18.569413 18951 net.cpp:91] Creating Layer label_data_1_split
I0403 15:20:18.569432 18951 net.cpp:425] label_data_1_split <- label
I0403 15:20:18.569465 18951 net.cpp:399] label_data_1_split -> label_data_1_split_0
I0403 15:20:18.569494 18951 net.cpp:399] label_data_1_split -> label_data_1_split_1
I0403 15:20:18.569515 18951 net.cpp:399] label_data_1_split -> label_data_1_split_2
I0403 15:20:18.569537 18951 net.cpp:399] label_data_1_split -> label_data_1_split_3
I0403 15:20:18.569557 18951 net.cpp:399] label_data_1_split -> label_data_1_split_4
I0403 15:20:18.569578 18951 net.cpp:399] label_data_1_split -> label_data_1_split_5
I0403 15:20:18.569598 18951 net.cpp:399] label_data_1_split -> label_data_1_split_6
I0403 15:20:18.569619 18951 net.cpp:399] label_data_1_split -> label_data_1_split_7
I0403 15:20:18.569640 18951 net.cpp:399] label_data_1_split -> label_data_1_split_8
I0403 15:20:18.569660 18951 net.cpp:399] label_data_1_split -> label_data_1_split_9
I0403 15:20:18.569779 18951 net.cpp:141] Setting up label_data_1_split
I0403 15:20:18.569803 18951 net.cpp:148] Top shape: 24 (24)
I0403 15:20:18.569820 18951 net.cpp:148] Top shape: 24 (24)
I0403 15:20:18.569836 18951 net.cpp:148] Top shape: 24 (24)
I0403 15:20:18.569852 18951 net.cpp:148] Top shape: 24 (24)
I0403 15:20:18.569869 18951 net.cpp:148] Top shape: 24 (24)
I0403 15:20:18.569885 18951 net.cpp:148] Top shape: 24 (24)
I0403 15:20:18.569900 18951 net.cpp:148] Top shape: 24 (24)
I0403 15:20:18.569916 18951 net.cpp:148] Top shape: 24 (24)
I0403 15:20:18.569931 18951 net.cpp:148] Top shape: 24 (24)
I0403 15:20:18.569947 18951 net.cpp:148] Top shape: 24 (24)
I0403 15:20:18.569995 18951 net.cpp:156] Memory required for data: 14451744
I0403 15:20:18.570013 18951 layer_factory.hpp:77] Creating layer conv1/7x7_s2
I0403 15:20:18.570045 18951 net.cpp:91] Creating Layer conv1/7x7_s2
I0403 15:20:18.570065 18951 net.cpp:425] conv1/7x7_s2 <- data
I0403 15:20:18.570085 18951 net.cpp:399] conv1/7x7_s2 -> conv1/7x7_s2
I0403 15:20:18.719907 18951 net.cpp:141] Setting up conv1/7x7_s2
I0403 15:20:18.720028 18951 net.cpp:148] Top shape: 24 64 112 112 (19267584)
I0403 15:20:18.720047 18951 net.cpp:156] Memory required for data: 91522080
I0403 15:20:18.720078 18951 layer_factory.hpp:77] Creating layer conv1/relu_7x7
I0403 15:20:18.720105 18951 net.cpp:91] Creating Layer conv1/relu_7x7
I0403 15:20:18.720124 18951 net.cpp:425] conv1/relu_7x7 <- conv1/7x7_s2
I0403 15:20:18.720144 18951 net.cpp:386] conv1/relu_7x7 -> conv1/7x7_s2 (in-place)
I0403 15:20:18.720404 18951 net.cpp:141] Setting up conv1/relu_7x7
I0403 15:20:18.720432 18951 net.cpp:148] Top shape: 24 64 112 112 (19267584)
I0403 15:20:18.720448 18951 net.cpp:156] Memory required for data: 168592416
I0403 15:20:18.720463 18951 layer_factory.hpp:77] Creating layer pool1/3x3_s2
I0403 15:20:18.720486 18951 net.cpp:91] Creating Layer pool1/3x3_s2
I0403 15:20:18.720504 18951 net.cpp:425] pool1/3x3_s2 <- conv1/7x7_s2
I0403 15:20:18.720521 18951 net.cpp:399] pool1/3x3_s2 -> pool1/3x3_s2
I0403 15:20:18.720597 18951 net.cpp:141] Setting up pool1/3x3_s2
I0403 15:20:18.720620 18951 net.cpp:148] Top shape: 24 64 56 56 (4816896)
I0403 15:20:18.720635 18951 net.cpp:156] Memory required for data: 187860000
I0403 15:20:18.720649 18951 layer_factory.hpp:77] Creating layer pool1/norm1
I0403 15:20:18.720674 18951 net.cpp:91] Creating Layer pool1/norm1
I0403 15:20:18.720691 18951 net.cpp:425] pool1/norm1 <- pool1/3x3_s2
I0403 15:20:18.720710 18951 net.cpp:399] pool1/norm1 -> pool1/norm1
I0403 15:20:18.721002 18951 net.cpp:141] Setting up pool1/norm1
I0403 15:20:18.721029 18951 net.cpp:148] Top shape: 24 64 56 56 (4816896)
I0403 15:20:18.721045 18951 net.cpp:156] Memory required for data: 207127584
I0403 15:20:18.721061 18951 layer_factory.hpp:77] Creating layer conv2/3x3_reduce
I0403 15:20:18.721086 18951 net.cpp:91] Creating Layer conv2/3x3_reduce
I0403 15:20:18.721102 18951 net.cpp:425] conv2/3x3_reduce <- pool1/norm1
I0403 15:20:18.721120 18951 net.cpp:399] conv2/3x3_reduce -> conv2/3x3_reduce
I0403 15:20:18.722564 18951 net.cpp:141] Setting up conv2/3x3_reduce
I0403 15:20:18.722594 18951 net.cpp:148] Top shape: 24 64 56 56 (4816896)
I0403 15:20:18.722610 18951 net.cpp:156] Memory required for data: 226395168
I0403 15:20:18.722631 18951 layer_factory.hpp:77] Creating layer conv2/relu_3x3_reduce
I0403 15:20:18.722651 18951 net.cpp:91] Creating Layer conv2/relu_3x3_reduce
I0403 15:20:18.722666 18951 net.cpp:425] conv2/relu_3x3_reduce <- conv2/3x3_reduce
I0403 15:20:18.722687 18951 net.cpp:386] conv2/relu_3x3_reduce -> conv2/3x3_reduce (in-place)
I0403 15:20:18.723000 18951 net.cpp:141] Setting up conv2/relu_3x3_reduce
I0403 15:20:18.723026 18951 net.cpp:148] Top shape: 24 64 56 56 (4816896)
I0403 15:20:18.723042 18951 net.cpp:156] Memory required for data: 245662752
I0403 15:20:18.723058 18951 layer_factory.hpp:77] Creating layer conv2/3x3
I0403 15:20:18.723083 18951 net.cpp:91] Creating Layer conv2/3x3
I0403 15:20:18.723101 18951 net.cpp:425] conv2/3x3 <- conv2/3x3_reduce
I0403 15:20:18.723124 18951 net.cpp:399] conv2/3x3 -> conv2/3x3
I0403 15:20:18.725587 18951 net.cpp:141] Setting up conv2/3x3
I0403 15:20:18.725620 18951 net.cpp:148] Top shape: 24 192 56 56 (14450688)
I0403 15:20:18.725636 18951 net.cpp:156] Memory required for data: 303465504
I0403 15:20:18.725658 18951 layer_factory.hpp:77] Creating layer conv2/relu_3x3
I0403 15:20:18.725680 18951 net.cpp:91] Creating Layer conv2/relu_3x3
I0403 15:20:18.725698 18951 net.cpp:425] conv2/relu_3x3 <- conv2/3x3
I0403 15:20:18.725716 18951 net.cpp:386] conv2/relu_3x3 -> conv2/3x3 (in-place)
I0403 15:20:18.725903 18951 net.cpp:141] Setting up conv2/relu_3x3
I0403 15:20:18.725931 18951 net.cpp:148] Top shape: 24 192 56 56 (14450688)
I0403 15:20:18.725977 18951 net.cpp:156] Memory required for data: 361268256
I0403 15:20:18.725999 18951 layer_factory.hpp:77] Creating layer conv2/norm2
I0403 15:20:18.726019 18951 net.cpp:91] Creating Layer conv2/norm2
I0403 15:20:18.726037 18951 net.cpp:425] conv2/norm2 <- conv2/3x3
I0403 15:20:18.726058 18951 net.cpp:399] conv2/norm2 -> conv2/norm2
I0403 15:20:18.726392 18951 net.cpp:141] Setting up conv2/norm2
I0403 15:20:18.726419 18951 net.cpp:148] Top shape: 24 192 56 56 (14450688)
I0403 15:20:18.726435 18951 net.cpp:156] Memory required for data: 419071008
I0403 15:20:18.726450 18951 layer_factory.hpp:77] Creating layer pool2/3x3_s2
I0403 15:20:18.726469 18951 net.cpp:91] Creating Layer pool2/3x3_s2
I0403 15:20:18.726485 18951 net.cpp:425] pool2/3x3_s2 <- conv2/norm2
I0403 15:20:18.726505 18951 net.cpp:399] pool2/3x3_s2 -> pool2/3x3_s2
I0403 15:20:18.726560 18951 net.cpp:141] Setting up pool2/3x3_s2
I0403 15:20:18.726585 18951 net.cpp:148] Top shape: 24 192 28 28 (3612672)
I0403 15:20:18.726600 18951 net.cpp:156] Memory required for data: 433521696
I0403 15:20:18.726615 18951 layer_factory.hpp:77] Creating layer pool2/3x3_s2_pool2/3x3_s2_0_split
I0403 15:20:18.726635 18951 net.cpp:91] Creating Layer pool2/3x3_s2_pool2/3x3_s2_0_split
I0403 15:20:18.726652 18951 net.cpp:425] pool2/3x3_s2_pool2/3x3_s2_0_split <- pool2/3x3_s2
I0403 15:20:18.726670 18951 net.cpp:399] pool2/3x3_s2_pool2/3x3_s2_0_split -> pool2/3x3_s2_pool2/3x3_s2_0_split_0
I0403 15:20:18.726694 18951 net.cpp:399] pool2/3x3_s2_pool2/3x3_s2_0_split -> pool2/3x3_s2_pool2/3x3_s2_0_split_1
I0403 15:20:18.726716 18951 net.cpp:399] pool2/3x3_s2_pool2/3x3_s2_0_split -> pool2/3x3_s2_pool2/3x3_s2_0_split_2
I0403 15:20:18.726737 18951 net.cpp:399] pool2/3x3_s2_pool2/3x3_s2_0_split -> pool2/3x3_s2_pool2/3x3_s2_0_split_3
I0403 15:20:18.726812 18951 net.cpp:141] Setting up pool2/3x3_s2_pool2/3x3_s2_0_split
I0403 15:20:18.726836 18951 net.cpp:148] Top shape: 24 192 28 28 (3612672)
I0403 15:20:18.726853 18951 net.cpp:148] Top shape: 24 192 28 28 (3612672)
I0403 15:20:18.726869 18951 net.cpp:148] Top shape: 24 192 28 28 (3612672)
I0403 15:20:18.726886 18951 net.cpp:148] Top shape: 24 192 28 28 (3612672)
I0403 15:20:18.726899 18951 net.cpp:156] Memory required for data: 491324448
I0403 15:20:18.726914 18951 layer_factory.hpp:77] Creating layer inception_3a/1x1
I0403 15:20:18.726936 18951 net.cpp:91] Creating Layer inception_3a/1x1
I0403 15:20:18.726955 18951 net.cpp:425] inception_3a/1x1 <- pool2/3x3_s2_pool2/3x3_s2_0_split_0
I0403 15:20:18.726976 18951 net.cpp:399] inception_3a/1x1 -> inception_3a/1x1
I0403 15:20:18.728613 18951 net.cpp:141] Setting up inception_3a/1x1
I0403 15:20:18.728643 18951 net.cpp:148] Top shape: 24 64 28 28 (1204224)
I0403 15:20:18.728659 18951 net.cpp:156] Memory required for data: 496141344
I0403 15:20:18.728678 18951 layer_factory.hpp:77] Creating layer inception_3a/relu_1x1
I0403 15:20:18.728700 18951 net.cpp:91] Creating Layer inception_3a/relu_1x1
I0403 15:20:18.728718 18951 net.cpp:425] inception_3a/relu_1x1 <- inception_3a/1x1
I0403 15:20:18.728735 18951 net.cpp:386] inception_3a/relu_1x1 -> inception_3a/1x1 (in-place)
I0403 15:20:18.728920 18951 net.cpp:141] Setting up inception_3a/relu_1x1
I0403 15:20:18.728947 18951 net.cpp:148] Top shape: 24 64 28 28 (1204224)
I0403 15:20:18.728962 18951 net.cpp:156] Memory required for data: 500958240
I0403 15:20:18.728977 18951 layer_factory.hpp:77] Creating layer inception_3a/3x3_reduce
I0403 15:20:18.729013 18951 net.cpp:91] Creating Layer inception_3a/3x3_reduce
I0403 15:20:18.729033 18951 net.cpp:425] inception_3a/3x3_reduce <- pool2/3x3_s2_pool2/3x3_s2_0_split_1
I0403 15:20:18.729058 18951 net.cpp:399] inception_3a/3x3_reduce -> inception_3a/3x3_reduce
I0403 15:20:18.730831 18951 net.cpp:141] Setting up inception_3a/3x3_reduce
I0403 15:20:18.730862 18951 net.cpp:148] Top shape: 24 96 28 28 (1806336)
I0403 15:20:18.730880 18951 net.cpp:156] Memory required for data: 508183584
I0403 15:20:18.730901 18951 layer_factory.hpp:77] Creating layer inception_3a/relu_3x3_reduce
I0403 15:20:18.730942 18951 net.cpp:91] Creating Layer inception_3a/relu_3x3_reduce
I0403 15:20:18.730959 18951 net.cpp:425] inception_3a/relu_3x3_reduce <- inception_3a/3x3_reduce
I0403 15:20:18.730978 18951 net.cpp:386] inception_3a/relu_3x3_reduce -> inception_3a/3x3_reduce (in-place)
I0403 15:20:18.731176 18951 net.cpp:141] Setting up inception_3a/relu_3x3_reduce
I0403 15:20:18.731202 18951 net.cpp:148] Top shape: 24 96 28 28 (1806336)
I0403 15:20:18.731218 18951 net.cpp:156] Memory required for data: 515408928
I0403 15:20:18.731233 18951 layer_factory.hpp:77] Creating layer inception_3a/3x3
I0403 15:20:18.731256 18951 net.cpp:91] Creating Layer inception_3a/3x3
I0403 15:20:18.731274 18951 net.cpp:425] inception_3a/3x3 <- inception_3a/3x3_reduce
I0403 15:20:18.731297 18951 net.cpp:399] inception_3a/3x3 -> inception_3a/3x3
I0403 15:20:18.733042 18951 net.cpp:141] Setting up inception_3a/3x3
I0403 15:20:18.733072 18951 net.cpp:148] Top shape: 24 128 28 28 (2408448)
I0403 15:20:18.733088 18951 net.cpp:156] Memory required for data: 525042720
I0403 15:20:18.733106 18951 layer_factory.hpp:77] Creating layer inception_3a/relu_3x3
I0403 15:20:18.733127 18951 net.cpp:91] Creating Layer inception_3a/relu_3x3
I0403 15:20:18.733144 18951 net.cpp:425] inception_3a/relu_3x3 <- inception_3a/3x3
I0403 15:20:18.733162 18951 net.cpp:386] inception_3a/relu_3x3 -> inception_3a/3x3 (in-place)
I0403 15:20:18.733453 18951 net.cpp:141] Setting up inception_3a/relu_3x3
I0403 15:20:18.733480 18951 net.cpp:148] Top shape: 24 128 28 28 (2408448)
I0403 15:20:18.733495 18951 net.cpp:156] Memory required for data: 534676512
I0403 15:20:18.733510 18951 layer_factory.hpp:77] Creating layer inception_3a/5x5_reduce
I0403 15:20:18.733532 18951 net.cpp:91] Creating Layer inception_3a/5x5_reduce
I0403 15:20:18.733551 18951 net.cpp:425] inception_3a/5x5_reduce <- pool2/3x3_s2_pool2/3x3_s2_0_split_2
I0403 15:20:18.733574 18951 net.cpp:399] inception_3a/5x5_reduce -> inception_3a/5x5_reduce
I0403 15:20:18.734561 18951 net.cpp:141] Setting up inception_3a/5x5_reduce
I0403 15:20:18.734591 18951 net.cpp:148] Top shape: 24 16 28 28 (301056)
I0403 15:20:18.734606 18951 net.cpp:156] Memory required for data: 535880736
I0403 15:20:18.734624 18951 layer_factory.hpp:77] Creating layer inception_3a/relu_5x5_reduce
I0403 15:20:18.734644 18951 net.cpp:91] Creating Layer inception_3a/relu_5x5_reduce
I0403 15:20:18.734660 18951 net.cpp:425] inception_3a/relu_5x5_reduce <- inception_3a/5x5_reduce
I0403 15:20:18.734678 18951 net.cpp:386] inception_3a/relu_5x5_reduce -> inception_3a/5x5_reduce (in-place)
I0403 15:20:18.734975 18951 net.cpp:141] Setting up inception_3a/relu_5x5_reduce
I0403 15:20:18.735009 18951 net.cpp:148] Top shape: 24 16 28 28 (301056)
I0403 15:20:18.735025 18951 net.cpp:156] Memory required for data: 537084960
I0403 15:20:18.735040 18951 layer_factory.hpp:77] Creating layer inception_3a/5x5
I0403 15:20:18.735064 18951 net.cpp:91] Creating Layer inception_3a/5x5
I0403 15:20:18.735082 18951 net.cpp:425] inception_3a/5x5 <- inception_3a/5x5_reduce
I0403 15:20:18.735101 18951 net.cpp:399] inception_3a/5x5 -> inception_3a/5x5
I0403 15:20:18.736140 18951 net.cpp:141] Setting up inception_3a/5x5
I0403 15:20:18.736167 18951 net.cpp:148] Top shape: 24 32 28 28 (602112)
I0403 15:20:18.736183 18951 net.cpp:156] Memory required for data: 539493408
I0403 15:20:18.736202 18951 layer_factory.hpp:77] Creating layer inception_3a/relu_5x5
I0403 15:20:18.736223 18951 net.cpp:91] Creating Layer inception_3a/relu_5x5
I0403 15:20:18.736239 18951 net.cpp:425] inception_3a/relu_5x5 <- inception_3a/5x5
I0403 15:20:18.736256 18951 net.cpp:386] inception_3a/relu_5x5 -> inception_3a/5x5 (in-place)
I0403 15:20:18.736433 18951 net.cpp:141] Setting up inception_3a/relu_5x5
I0403 15:20:18.736457 18951 net.cpp:148] Top shape: 24 32 28 28 (602112)
I0403 15:20:18.736471 18951 net.cpp:156] Memory required for data: 541901856
I0403 15:20:18.736485 18951 layer_factory.hpp:77] Creating layer inception_3a/pool
I0403 15:20:18.736506 18951 net.cpp:91] Creating Layer inception_3a/pool
I0403 15:20:18.736536 18951 net.cpp:425] inception_3a/pool <- pool2/3x3_s2_pool2/3x3_s2_0_split_3
I0403 15:20:18.736555 18951 net.cpp:399] inception_3a/pool -> inception_3a/pool
I0403 15:20:18.736618 18951 net.cpp:141] Setting up inception_3a/pool
I0403 15:20:18.736641 18951 net.cpp:148] Top shape: 24 192 28 28 (3612672)
I0403 15:20:18.736656 18951 net.cpp:156] Memory required for data: 556352544
I0403 15:20:18.736670 18951 layer_factory.hpp:77] Creating layer inception_3a/pool_proj
I0403 15:20:18.736692 18951 net.cpp:91] Creating Layer inception_3a/pool_proj
I0403 15:20:18.736711 18951 net.cpp:425] inception_3a/pool_proj <- inception_3a/pool
I0403 15:20:18.736732 18951 net.cpp:399] inception_3a/pool_proj -> inception_3a/pool_proj
I0403 15:20:18.737728 18951 net.cpp:141] Setting up inception_3a/pool_proj
I0403 15:20:18.737759 18951 net.cpp:148] Top shape: 24 32 28 28 (602112)
I0403 15:20:18.737776 18951 net.cpp:156] Memory required for data: 558760992
I0403 15:20:18.737797 18951 layer_factory.hpp:77] Creating layer inception_3a/relu_pool_proj
I0403 15:20:18.737818 18951 net.cpp:91] Creating Layer inception_3a/relu_pool_proj
I0403 15:20:18.737835 18951 net.cpp:425] inception_3a/relu_pool_proj <- inception_3a/pool_proj
I0403 15:20:18.737853 18951 net.cpp:386] inception_3a/relu_pool_proj -> inception_3a/pool_proj (in-place)
I0403 15:20:18.738134 18951 net.cpp:141] Setting up inception_3a/relu_pool_proj
I0403 15:20:18.738162 18951 net.cpp:148] Top shape: 24 32 28 28 (602112)
I0403 15:20:18.738178 18951 net.cpp:156] Memory required for data: 561169440
I0403 15:20:18.738193 18951 layer_factory.hpp:77] Creating layer inception_3a/output
I0403 15:20:18.738212 18951 net.cpp:91] Creating Layer inception_3a/output
I0403 15:20:18.738229 18951 net.cpp:425] inception_3a/output <- inception_3a/1x1
I0403 15:20:18.738246 18951 net.cpp:425] inception_3a/output <- inception_3a/3x3
I0403 15:20:18.738262 18951 net.cpp:425] inception_3a/output <- inception_3a/5x5
I0403 15:20:18.738277 18951 net.cpp:425] inception_3a/output <- inception_3a/pool_proj
I0403 15:20:18.738294 18951 net.cpp:399] inception_3a/output -> inception_3a/output
I0403 15:20:18.738343 18951 net.cpp:141] Setting up inception_3a/output
I0403 15:20:18.738368 18951 net.cpp:148] Top shape: 24 256 28 28 (4816896)
I0403 15:20:18.738382 18951 net.cpp:156] Memory required for data: 580437024
I0403 15:20:18.738396 18951 layer_factory.hpp:77] Creating layer inception_3a/output_inception_3a/output_0_split
I0403 15:20:18.738415 18951 net.cpp:91] Creating Layer inception_3a/output_inception_3a/output_0_split
I0403 15:20:18.738430 18951 net.cpp:425] inception_3a/output_inception_3a/output_0_split <- inception_3a/output
I0403 15:20:18.738448 18951 net.cpp:399] inception_3a/output_inception_3a/output_0_split -> inception_3a/output_inception_3a/output_0_split_0
I0403 15:20:18.738469 18951 net.cpp:399] inception_3a/output_inception_3a/output_0_split -> inception_3a/output_inception_3a/output_0_split_1
I0403 15:20:18.738492 18951 net.cpp:399] inception_3a/output_inception_3a/output_0_split -> inception_3a/output_inception_3a/output_0_split_2
I0403 15:20:18.738513 18951 net.cpp:399] inception_3a/output_inception_3a/output_0_split -> inception_3a/output_inception_3a/output_0_split_3
I0403 15:20:18.738591 18951 net.cpp:141] Setting up inception_3a/output_inception_3a/output_0_split
I0403 15:20:18.738615 18951 net.cpp:148] Top shape: 24 256 28 28 (4816896)
I0403 15:20:18.738631 18951 net.cpp:148] Top shape: 24 256 28 28 (4816896)
I0403 15:20:18.738646 18951 net.cpp:148] Top shape: 24 256 28 28 (4816896)
I0403 15:20:18.738662 18951 net.cpp:148] Top shape: 24 256 28 28 (4816896)
I0403 15:20:18.738675 18951 net.cpp:156] Memory required for data: 657507360
I0403 15:20:18.738689 18951 layer_factory.hpp:77] Creating layer inception_3b/1x1
I0403 15:20:18.738713 18951 net.cpp:91] Creating Layer inception_3b/1x1
I0403 15:20:18.738730 18951 net.cpp:425] inception_3b/1x1 <- inception_3a/output_inception_3a/output_0_split_0
I0403 15:20:18.738750 18951 net.cpp:399] inception_3b/1x1 -> inception_3b/1x1
I0403 15:20:18.739941 18951 net.cpp:141] Setting up inception_3b/1x1
I0403 15:20:18.739982 18951 net.cpp:148] Top shape: 24 128 28 28 (2408448)
I0403 15:20:18.740005 18951 net.cpp:156] Memory required for data: 667141152
I0403 15:20:18.740023 18951 layer_factory.hpp:77] Creating layer inception_3b/relu_1x1
I0403 15:20:18.740041 18951 net.cpp:91] Creating Layer inception_3b/relu_1x1
I0403 15:20:18.740059 18951 net.cpp:425] inception_3b/relu_1x1 <- inception_3b/1x1
I0403 15:20:18.740079 18951 net.cpp:386] inception_3b/relu_1x1 -> inception_3b/1x1 (in-place)
I0403 15:20:18.740265 18951 net.cpp:141] Setting up inception_3b/relu_1x1
I0403 15:20:18.740290 18951 net.cpp:148] Top shape: 24 128 28 28 (2408448)
I0403 15:20:18.740304 18951 net.cpp:156] Memory required for data: 676774944
I0403 15:20:18.740319 18951 layer_factory.hpp:77] Creating layer inception_3b/3x3_reduce
I0403 15:20:18.740341 18951 net.cpp:91] Creating Layer inception_3b/3x3_reduce
I0403 15:20:18.740360 18951 net.cpp:425] inception_3b/3x3_reduce <- inception_3a/output_inception_3a/output_0_split_1
I0403 15:20:18.740381 18951 net.cpp:399] inception_3b/3x3_reduce -> inception_3b/3x3_reduce
I0403 15:20:18.741557 18951 net.cpp:141] Setting up inception_3b/3x3_reduce
I0403 15:20:18.741585 18951 net.cpp:148] Top shape: 24 128 28 28 (2408448)
I0403 15:20:18.741601 18951 net.cpp:156] Memory required for data: 686408736
I0403 15:20:18.741619 18951 layer_factory.hpp:77] Creating layer inception_3b/relu_3x3_reduce
I0403 15:20:18.741638 18951 net.cpp:91] Creating Layer inception_3b/relu_3x3_reduce
I0403 15:20:18.741654 18951 net.cpp:425] inception_3b/relu_3x3_reduce <- inception_3b/3x3_reduce
I0403 15:20:18.741674 18951 net.cpp:386] inception_3b/relu_3x3_reduce -> inception_3b/3x3_reduce (in-place)
I0403 15:20:18.741852 18951 net.cpp:141] Setting up inception_3b/relu_3x3_reduce
I0403 15:20:18.741878 18951 net.cpp:148] Top shape: 24 128 28 28 (2408448)
I0403 15:20:18.741891 18951 net.cpp:156] Memory required for data: 696042528
I0403 15:20:18.741906 18951 layer_factory.hpp:77] Creating layer inception_3b/3x3
I0403 15:20:18.741932 18951 net.cpp:91] Creating Layer inception_3b/3x3
I0403 15:20:18.741950 18951 net.cpp:425] inception_3b/3x3 <- inception_3b/3x3_reduce
I0403 15:20:18.741971 18951 net.cpp:399] inception_3b/3x3 -> inception_3b/3x3
I0403 15:20:18.744964 18951 net.cpp:141] Setting up inception_3b/3x3
I0403 15:20:18.744995 18951 net.cpp:148] Top shape: 24 192 28 28 (3612672)
I0403 15:20:18.745012 18951 net.cpp:156] Memory required for data: 710493216
I0403 15:20:18.745028 18951 layer_factory.hpp:77] Creating layer inception_3b/relu_3x3
I0403 15:20:18.745048 18951 net.cpp:91] Creating Layer inception_3b/relu_3x3
I0403 15:20:18.745065 18951 net.cpp:425] inception_3b/relu_3x3 <- inception_3b/3x3
I0403 15:20:18.745082 18951 net.cpp:386] inception_3b/relu_3x3 -> inception_3b/3x3 (in-place)
I0403 15:20:18.745352 18951 net.cpp:141] Setting up inception_3b/relu_3x3
I0403 15:20:18.745378 18951 net.cpp:148] Top shape: 24 192 28 28 (3612672)
I0403 15:20:18.745391 18951 net.cpp:156] Memory required for data: 724943904
I0403 15:20:18.745406 18951 layer_factory.hpp:77] Creating layer inception_3b/5x5_reduce
I0403 15:20:18.745427 18951 net.cpp:91] Creating Layer inception_3b/5x5_reduce
I0403 15:20:18.745445 18951 net.cpp:425] inception_3b/5x5_reduce <- inception_3a/output_inception_3a/output_0_split_2
I0403 15:20:18.745465 18951 net.cpp:399] inception_3b/5x5_reduce -> inception_3b/5x5_reduce
I0403 15:20:18.746428 18951 net.cpp:141] Setting up inception_3b/5x5_reduce
I0403 15:20:18.746455 18951 net.cpp:148] Top shape: 24 32 28 28 (602112)
I0403 15:20:18.746469 18951 net.cpp:156] Memory required for data: 727352352
I0403 15:20:18.746487 18951 layer_factory.hpp:77] Creating layer inception_3b/relu_5x5_reduce
I0403 15:20:18.746506 18951 net.cpp:91] Creating Layer inception_3b/relu_5x5_reduce
I0403 15:20:18.746522 18951 net.cpp:425] inception_3b/relu_5x5_reduce <- inception_3b/5x5_reduce
I0403 15:20:18.746538 18951 net.cpp:386] inception_3b/relu_5x5_reduce -> inception_3b/5x5_reduce (in-place)
I0403 15:20:18.746726 18951 net.cpp:141] Setting up inception_3b/relu_5x5_reduce
I0403 15:20:18.746749 18951 net.cpp:148] Top shape: 24 32 28 28 (602112)
I0403 15:20:18.746763 18951 net.cpp:156] Memory required for data: 729760800
I0403 15:20:18.746776 18951 layer_factory.hpp:77] Creating layer inception_3b/5x5
I0403 15:20:18.746799 18951 net.cpp:91] Creating Layer inception_3b/5x5
I0403 15:20:18.746816 18951 net.cpp:425] inception_3b/5x5 <- inception_3b/5x5_reduce
I0403 15:20:18.746834 18951 net.cpp:399] inception_3b/5x5 -> inception_3b/5x5
I0403 15:20:18.748749 18951 net.cpp:141] Setting up inception_3b/5x5
I0403 15:20:18.748778 18951 net.cpp:148] Top shape: 24 96 28 28 (1806336)
I0403 15:20:18.748795 18951 net.cpp:156] Memory required for data: 736986144
I0403 15:20:18.748812 18951 layer_factory.hpp:77] Creating layer inception_3b/relu_5x5
I0403 15:20:18.748829 18951 net.cpp:91] Creating Layer inception_3b/relu_5x5
I0403 15:20:18.748844 18951 net.cpp:425] inception_3b/relu_5x5 <- inception_3b/5x5
I0403 15:20:18.748863 18951 net.cpp:386] inception_3b/relu_5x5 -> inception_3b/5x5 (in-place)
I0403 15:20:18.749059 18951 net.cpp:141] Setting up inception_3b/relu_5x5
I0403 15:20:18.749083 18951 net.cpp:148] Top shape: 24 96 28 28 (1806336)
I0403 15:20:18.749097 18951 net.cpp:156] Memory required for data: 744211488
I0403 15:20:18.749111 18951 layer_factory.hpp:77] Creating layer inception_3b/pool
I0403 15:20:18.749128 18951 net.cpp:91] Creating Layer inception_3b/pool
I0403 15:20:18.749145 18951 net.cpp:425] inception_3b/pool <- inception_3a/output_inception_3a/output_0_split_3
I0403 15:20:18.749162 18951 net.cpp:399] inception_3b/pool -> inception_3b/pool
I0403 15:20:18.749218 18951 net.cpp:141] Setting up inception_3b/pool
I0403 15:20:18.749241 18951 net.cpp:148] Top shape: 24 256 28 28 (4816896)
I0403 15:20:18.749255 18951 net.cpp:156] Memory required for data: 763479072
I0403 15:20:18.749269 18951 layer_factory.hpp:77] Creating layer inception_3b/pool_proj
I0403 15:20:18.749289 18951 net.cpp:91] Creating Layer inception_3b/pool_proj
I0403 15:20:18.749305 18951 net.cpp:425] inception_3b/pool_proj <- inception_3b/pool
I0403 15:20:18.749325 18951 net.cpp:399] inception_3b/pool_proj -> inception_3b/pool_proj
I0403 15:20:18.750350 18951 net.cpp:141] Setting up inception_3b/pool_proj
I0403 15:20:18.750377 18951 net.cpp:148] Top shape: 24 64 28 28 (1204224)
I0403 15:20:18.750391 18951 net.cpp:156] Memory required for data: 768295968
I0403 15:20:18.750411 18951 layer_factory.hpp:77] Creating layer inception_3b/relu_pool_proj
I0403 15:20:18.750428 18951 net.cpp:91] Creating Layer inception_3b/relu_pool_proj
I0403 15:20:18.750443 18951 net.cpp:425] inception_3b/relu_pool_proj <- inception_3b/pool_proj
I0403 15:20:18.750460 18951 net.cpp:386] inception_3b/relu_pool_proj -> inception_3b/pool_proj (in-place)
I0403 15:20:18.750843 18951 net.cpp:141] Setting up inception_3b/relu_pool_proj
I0403 15:20:18.750869 18951 net.cpp:148] Top shape: 24 64 28 28 (1204224)
I0403 15:20:18.750885 18951 net.cpp:156] Memory required for data: 773112864
I0403 15:20:18.750900 18951 layer_factory.hpp:77] Creating layer inception_3b/output
I0403 15:20:18.750916 18951 net.cpp:91] Creating Layer inception_3b/output
I0403 15:20:18.750931 18951 net.cpp:425] inception_3b/output <- inception_3b/1x1
I0403 15:20:18.750946 18951 net.cpp:425] inception_3b/output <- inception_3b/3x3
I0403 15:20:18.750960 18951 net.cpp:425] inception_3b/output <- inception_3b/5x5
I0403 15:20:18.750975 18951 net.cpp:425] inception_3b/output <- inception_3b/pool_proj
I0403 15:20:18.750995 18951 net.cpp:399] inception_3b/output -> inception_3b/output
I0403 15:20:18.751040 18951 net.cpp:141] Setting up inception_3b/output
I0403 15:20:18.751065 18951 net.cpp:148] Top shape: 24 480 28 28 (9031680)
I0403 15:20:18.751078 18951 net.cpp:156] Memory required for data: 809239584
I0403 15:20:18.751091 18951 layer_factory.hpp:77] Creating layer pool3/3x3_s2
I0403 15:20:18.751108 18951 net.cpp:91] Creating Layer pool3/3x3_s2
I0403 15:20:18.751126 18951 net.cpp:425] pool3/3x3_s2 <- inception_3b/output
I0403 15:20:18.751157 18951 net.cpp:399] pool3/3x3_s2 -> pool3/3x3_s2
I0403 15:20:18.751214 18951 net.cpp:141] Setting up pool3/3x3_s2
I0403 15:20:18.751236 18951 net.cpp:148] Top shape: 24 480 14 14 (2257920)
I0403 15:20:18.751250 18951 net.cpp:156] Memory required for data: 818271264
I0403 15:20:18.751263 18951 layer_factory.hpp:77] Creating layer pool3/3x3_s2_pool3/3x3_s2_0_split
I0403 15:20:18.751279 18951 net.cpp:91] Creating Layer pool3/3x3_s2_pool3/3x3_s2_0_split
I0403 15:20:18.751294 18951 net.cpp:425] pool3/3x3_s2_pool3/3x3_s2_0_split <- pool3/3x3_s2
I0403 15:20:18.751312 18951 net.cpp:399] pool3/3x3_s2_pool3/3x3_s2_0_split -> pool3/3x3_s2_pool3/3x3_s2_0_split_0
I0403 15:20:18.751332 18951 net.cpp:399] pool3/3x3_s2_pool3/3x3_s2_0_split -> pool3/3x3_s2_pool3/3x3_s2_0_split_1
I0403 15:20:18.751350 18951 net.cpp:399] pool3/3x3_s2_pool3/3x3_s2_0_split -> pool3/3x3_s2_pool3/3x3_s2_0_split_2
I0403 15:20:18.751368 18951 net.cpp:399] pool3/3x3_s2_pool3/3x3_s2_0_split -> pool3/3x3_s2_pool3/3x3_s2_0_split_3
I0403 15:20:18.751443 18951 net.cpp:141] Setting up pool3/3x3_s2_pool3/3x3_s2_0_split
I0403 15:20:18.751464 18951 net.cpp:148] Top shape: 24 480 14 14 (2257920)
I0403 15:20:18.751479 18951 net.cpp:148] Top shape: 24 480 14 14 (2257920)
I0403 15:20:18.751493 18951 net.cpp:148] Top shape: 24 480 14 14 (2257920)
I0403 15:20:18.751508 18951 net.cpp:148] Top shape: 24 480 14 14 (2257920)
I0403 15:20:18.751521 18951 net.cpp:156] Memory required for data: 854397984
I0403 15:20:18.751535 18951 layer_factory.hpp:77] Creating layer inception_4a/1x1
I0403 15:20:18.751557 18951 net.cpp:91] Creating Layer inception_4a/1x1
I0403 15:20:18.751574 18951 net.cpp:425] inception_4a/1x1 <- pool3/3x3_s2_pool3/3x3_s2_0_split_0
I0403 15:20:18.751592 18951 net.cpp:399] inception_4a/1x1 -> inception_4a/1x1
I0403 15:20:18.753114 18951 net.cpp:141] Setting up inception_4a/1x1
I0403 15:20:18.753142 18951 net.cpp:148] Top shape: 24 192 14 14 (903168)
I0403 15:20:18.753159 18951 net.cpp:156] Memory required for data: 858010656
I0403 15:20:18.753175 18951 layer_factory.hpp:77] Creating layer inception_4a/relu_1x1
I0403 15:20:18.753192 18951 net.cpp:91] Creating Layer inception_4a/relu_1x1
I0403 15:20:18.753207 18951 net.cpp:425] inception_4a/relu_1x1 <- inception_4a/1x1
I0403 15:20:18.753226 18951 net.cpp:386] inception_4a/relu_1x1 -> inception_4a/1x1 (in-place)
I0403 15:20:18.753396 18951 net.cpp:141] Setting up inception_4a/relu_1x1
I0403 15:20:18.753419 18951 net.cpp:148] Top shape: 24 192 14 14 (903168)
I0403 15:20:18.753433 18951 net.cpp:156] Memory required for data: 861623328
I0403 15:20:18.753448 18951 layer_factory.hpp:77] Creating layer inception_4a/3x3_reduce
I0403 15:20:18.753468 18951 net.cpp:91] Creating Layer inception_4a/3x3_reduce
I0403 15:20:18.753484 18951 net.cpp:425] inception_4a/3x3_reduce <- pool3/3x3_s2_pool3/3x3_s2_0_split_1
I0403 15:20:18.753505 18951 net.cpp:399] inception_4a/3x3_reduce -> inception_4a/3x3_reduce
I0403 15:20:18.754745 18951 net.cpp:141] Setting up inception_4a/3x3_reduce
I0403 15:20:18.754773 18951 net.cpp:148] Top shape: 24 96 14 14 (451584)
I0403 15:20:18.754788 18951 net.cpp:156] Memory required for data: 863429664
I0403 15:20:18.754809 18951 layer_factory.hpp:77] Creating layer inception_4a/relu_3x3_reduce
I0403 15:20:18.754830 18951 net.cpp:91] Creating Layer inception_4a/relu_3x3_reduce
I0403 15:20:18.754847 18951 net.cpp:425] inception_4a/relu_3x3_reduce <- inception_4a/3x3_reduce
I0403 15:20:18.754863 18951 net.cpp:386] inception_4a/relu_3x3_reduce -> inception_4a/3x3_reduce (in-place)
I0403 15:20:18.755041 18951 net.cpp:141] Setting up inception_4a/relu_3x3_reduce
I0403 15:20:18.755066 18951 net.cpp:148] Top shape: 24 96 14 14 (451584)
I0403 15:20:18.755080 18951 net.cpp:156] Memory required for data: 865236000
I0403 15:20:18.755095 18951 layer_factory.hpp:77] Creating layer inception_4a/3x3
I0403 15:20:18.755115 18951 net.cpp:91] Creating Layer inception_4a/3x3
I0403 15:20:18.755132 18951 net.cpp:425] inception_4a/3x3 <- inception_4a/3x3_reduce
I0403 15:20:18.755152 18951 net.cpp:399] inception_4a/3x3 -> inception_4a/3x3
I0403 15:20:18.757802 18951 net.cpp:141] Setting up inception_4a/3x3
I0403 15:20:18.757829 18951 net.cpp:148] Top shape: 24 208 14 14 (978432)
I0403 15:20:18.757844 18951 net.cpp:156] Memory required for data: 869149728
I0403 15:20:18.757863 18951 layer_factory.hpp:77] Creating layer inception_4a/relu_3x3
I0403 15:20:18.757879 18951 net.cpp:91] Creating Layer inception_4a/relu_3x3
I0403 15:20:18.757899 18951 net.cpp:425] inception_4a/relu_3x3 <- inception_4a/3x3
I0403 15:20:18.757915 18951 net.cpp:386] inception_4a/relu_3x3 -> inception_4a/3x3 (in-place)
I0403 15:20:18.758198 18951 net.cpp:141] Setting up inception_4a/relu_3x3
I0403 15:20:18.758224 18951 net.cpp:148] Top shape: 24 208 14 14 (978432)
I0403 15:20:18.758239 18951 net.cpp:156] Memory required for data: 873063456
I0403 15:20:18.758254 18951 layer_factory.hpp:77] Creating layer inception_4a/5x5_reduce
I0403 15:20:18.758280 18951 net.cpp:91] Creating Layer inception_4a/5x5_reduce
I0403 15:20:18.758297 18951 net.cpp:425] inception_4a/5x5_reduce <- pool3/3x3_s2_pool3/3x3_s2_0_split_2
I0403 15:20:18.758319 18951 net.cpp:399] inception_4a/5x5_reduce -> inception_4a/5x5_reduce
I0403 15:20:18.759344 18951 net.cpp:141] Setting up inception_4a/5x5_reduce
I0403 15:20:18.759371 18951 net.cpp:148] Top shape: 24 16 14 14 (75264)
I0403 15:20:18.759387 18951 net.cpp:156] Memory required for data: 873364512
I0403 15:20:18.759404 18951 layer_factory.hpp:77] Creating layer inception_4a/relu_5x5_reduce
I0403 15:20:18.759424 18951 net.cpp:91] Creating Layer inception_4a/relu_5x5_reduce
I0403 15:20:18.759441 18951 net.cpp:425] inception_4a/relu_5x5_reduce <- inception_4a/5x5_reduce
I0403 15:20:18.759459 18951 net.cpp:386] inception_4a/relu_5x5_reduce -> inception_4a/5x5_reduce (in-place)
I0403 15:20:18.759634 18951 net.cpp:141] Setting up inception_4a/relu_5x5_reduce
I0403 15:20:18.759659 18951 net.cpp:148] Top shape: 24 16 14 14 (75264)
I0403 15:20:18.759673 18951 net.cpp:156] Memory required for data: 873665568
I0403 15:20:18.759687 18951 layer_factory.hpp:77] Creating layer inception_4a/5x5
I0403 15:20:18.759711 18951 net.cpp:91] Creating Layer inception_4a/5x5
I0403 15:20:18.759728 18951 net.cpp:425] inception_4a/5x5 <- inception_4a/5x5_reduce
I0403 15:20:18.759747 18951 net.cpp:399] inception_4a/5x5 -> inception_4a/5x5
I0403 15:20:18.760829 18951 net.cpp:141] Setting up inception_4a/5x5
I0403 15:20:18.760856 18951 net.cpp:148] Top shape: 24 48 14 14 (225792)
I0403 15:20:18.760874 18951 net.cpp:156] Memory required for data: 874568736
I0403 15:20:18.760892 18951 layer_factory.hpp:77] Creating layer inception_4a/relu_5x5
I0403 15:20:18.760910 18951 net.cpp:91] Creating Layer inception_4a/relu_5x5
I0403 15:20:18.760926 18951 net.cpp:425] inception_4a/relu_5x5 <- inception_4a/5x5
I0403 15:20:18.760941 18951 net.cpp:386] inception_4a/relu_5x5 -> inception_4a/5x5 (in-place)
I0403 15:20:18.761123 18951 net.cpp:141] Setting up inception_4a/relu_5x5
I0403 15:20:18.761149 18951 net.cpp:148] Top shape: 24 48 14 14 (225792)
I0403 15:20:18.761165 18951 net.cpp:156] Memory required for data: 875471904
I0403 15:20:18.761179 18951 layer_factory.hpp:77] Creating layer inception_4a/pool
I0403 15:20:18.761196 18951 net.cpp:91] Creating Layer inception_4a/pool
I0403 15:20:18.761211 18951 net.cpp:425] inception_4a/pool <- pool3/3x3_s2_pool3/3x3_s2_0_split_3
I0403 15:20:18.761231 18951 net.cpp:399] inception_4a/pool -> inception_4a/pool
I0403 15:20:18.761292 18951 net.cpp:141] Setting up inception_4a/pool
I0403 15:20:18.761318 18951 net.cpp:148] Top shape: 24 480 14 14 (2257920)
I0403 15:20:18.761333 18951 net.cpp:156] Memory required for data: 884503584
I0403 15:20:18.761348 18951 layer_factory.hpp:77] Creating layer inception_4a/pool_proj
I0403 15:20:18.761365 18951 net.cpp:91] Creating Layer inception_4a/pool_proj
I0403 15:20:18.761382 18951 net.cpp:425] inception_4a/pool_proj <- inception_4a/pool
I0403 15:20:18.761406 18951 net.cpp:399] inception_4a/pool_proj -> inception_4a/pool_proj
I0403 15:20:18.762569 18951 net.cpp:141] Setting up inception_4a/pool_proj
I0403 15:20:18.762600 18951 net.cpp:148] Top shape: 24 64 14 14 (301056)
I0403 15:20:18.762629 18951 net.cpp:156] Memory required for data: 885707808
I0403 15:20:18.762648 18951 layer_factory.hpp:77] Creating layer inception_4a/relu_pool_proj
I0403 15:20:18.762666 18951 net.cpp:91] Creating Layer inception_4a/relu_pool_proj
I0403 15:20:18.762681 18951 net.cpp:425] inception_4a/relu_pool_proj <- inception_4a/pool_proj
I0403 15:20:18.762698 18951 net.cpp:386] inception_4a/relu_pool_proj -> inception_4a/pool_proj (in-place)
I0403 15:20:18.762981 18951 net.cpp:141] Setting up inception_4a/relu_pool_proj
I0403 15:20:18.763015 18951 net.cpp:148] Top shape: 24 64 14 14 (301056)
I0403 15:20:18.763031 18951 net.cpp:156] Memory required for data: 886912032
I0403 15:20:18.763044 18951 layer_factory.hpp:77] Creating layer inception_4a/output
I0403 15:20:18.763062 18951 net.cpp:91] Creating Layer inception_4a/output
I0403 15:20:18.763078 18951 net.cpp:425] inception_4a/output <- inception_4a/1x1
I0403 15:20:18.763094 18951 net.cpp:425] inception_4a/output <- inception_4a/3x3
I0403 15:20:18.763110 18951 net.cpp:425] inception_4a/output <- inception_4a/5x5
I0403 15:20:18.763125 18951 net.cpp:425] inception_4a/output <- inception_4a/pool_proj
I0403 15:20:18.763141 18951 net.cpp:399] inception_4a/output -> inception_4a/output
I0403 15:20:18.763187 18951 net.cpp:141] Setting up inception_4a/output
I0403 15:20:18.763211 18951 net.cpp:148] Top shape: 24 512 14 14 (2408448)
I0403 15:20:18.763226 18951 net.cpp:156] Memory required for data: 896545824
I0403 15:20:18.763239 18951 layer_factory.hpp:77] Creating layer inception_4a/output_inception_4a/output_0_split
I0403 15:20:18.763259 18951 net.cpp:91] Creating Layer inception_4a/output_inception_4a/output_0_split
I0403 15:20:18.763275 18951 net.cpp:425] inception_4a/output_inception_4a/output_0_split <- inception_4a/output
I0403 15:20:18.763293 18951 net.cpp:399] inception_4a/output_inception_4a/output_0_split -> inception_4a/output_inception_4a/output_0_split_0
I0403 15:20:18.763314 18951 net.cpp:399] inception_4a/output_inception_4a/output_0_split -> inception_4a/output_inception_4a/output_0_split_1
I0403 15:20:18.763334 18951 net.cpp:399] inception_4a/output_inception_4a/output_0_split -> inception_4a/output_inception_4a/output_0_split_2
I0403 15:20:18.763357 18951 net.cpp:399] inception_4a/output_inception_4a/output_0_split -> inception_4a/output_inception_4a/output_0_split_3
I0403 15:20:18.763378 18951 net.cpp:399] inception_4a/output_inception_4a/output_0_split -> inception_4a/output_inception_4a/output_0_split_4
I0403 15:20:18.763470 18951 net.cpp:141] Setting up inception_4a/output_inception_4a/output_0_split
I0403 15:20:18.763494 18951 net.cpp:148] Top shape: 24 512 14 14 (2408448)
I0403 15:20:18.763509 18951 net.cpp:148] Top shape: 24 512 14 14 (2408448)
I0403 15:20:18.763525 18951 net.cpp:148] Top shape: 24 512 14 14 (2408448)
I0403 15:20:18.763540 18951 net.cpp:148] Top shape: 24 512 14 14 (2408448)
I0403 15:20:18.763555 18951 net.cpp:148] Top shape: 24 512 14 14 (2408448)
I0403 15:20:18.763567 18951 net.cpp:156] Memory required for data: 944714784
I0403 15:20:18.763581 18951 layer_factory.hpp:77] Creating layer loss1/ave_pool
I0403 15:20:18.763602 18951 net.cpp:91] Creating Layer loss1/ave_pool
I0403 15:20:18.763617 18951 net.cpp:425] loss1/ave_pool <- inception_4a/output_inception_4a/output_0_split_0
I0403 15:20:18.763634 18951 net.cpp:399] loss1/ave_pool -> loss1/ave_pool
I0403 15:20:18.763838 18951 net.cpp:141] Setting up loss1/ave_pool
I0403 15:20:18.763864 18951 net.cpp:148] Top shape: 24 512 4 4 (196608)
I0403 15:20:18.763880 18951 net.cpp:156] Memory required for data: 945501216
I0403 15:20:18.763893 18951 layer_factory.hpp:77] Creating layer loss1/conv
I0403 15:20:18.763914 18951 net.cpp:91] Creating Layer loss1/conv
I0403 15:20:18.763932 18951 net.cpp:425] loss1/conv <- loss1/ave_pool
I0403 15:20:18.763950 18951 net.cpp:399] loss1/conv -> loss1/conv
I0403 15:20:18.765358 18951 net.cpp:141] Setting up loss1/conv
I0403 15:20:18.765386 18951 net.cpp:148] Top shape: 24 128 4 4 (49152)
I0403 15:20:18.765415 18951 net.cpp:156] Memory required for data: 945697824
I0403 15:20:18.765434 18951 layer_factory.hpp:77] Creating layer loss1/relu_conv
I0403 15:20:18.765455 18951 net.cpp:91] Creating Layer loss1/relu_conv
I0403 15:20:18.765471 18951 net.cpp:425] loss1/relu_conv <- loss1/conv
I0403 15:20:18.765488 18951 net.cpp:386] loss1/relu_conv -> loss1/conv (in-place)
I0403 15:20:18.765766 18951 net.cpp:141] Setting up loss1/relu_conv
I0403 15:20:18.765792 18951 net.cpp:148] Top shape: 24 128 4 4 (49152)
I0403 15:20:18.765807 18951 net.cpp:156] Memory required for data: 945894432
I0403 15:20:18.765822 18951 layer_factory.hpp:77] Creating layer loss1/fc
I0403 15:20:18.765847 18951 net.cpp:91] Creating Layer loss1/fc
I0403 15:20:18.765866 18951 net.cpp:425] loss1/fc <- loss1/conv
I0403 15:20:18.765882 18951 net.cpp:399] loss1/fc -> loss1/fc
I0403 15:20:18.783464 18951 net.cpp:141] Setting up loss1/fc
I0403 15:20:18.783502 18951 net.cpp:148] Top shape: 24 1024 (24576)
I0403 15:20:18.783517 18951 net.cpp:156] Memory required for data: 945992736
I0403 15:20:18.783535 18951 layer_factory.hpp:77] Creating layer loss1/relu_fc
I0403 15:20:18.783555 18951 net.cpp:91] Creating Layer loss1/relu_fc
I0403 15:20:18.783571 18951 net.cpp:425] loss1/relu_fc <- loss1/fc
I0403 15:20:18.783589 18951 net.cpp:386] loss1/relu_fc -> loss1/fc (in-place)
I0403 15:20:18.783772 18951 net.cpp:141] Setting up loss1/relu_fc
I0403 15:20:18.783797 18951 net.cpp:148] Top shape: 24 1024 (24576)
I0403 15:20:18.783809 18951 net.cpp:156] Memory required for data: 946091040
I0403 15:20:18.783823 18951 layer_factory.hpp:77] Creating layer loss1/drop_fc
I0403 15:20:18.783849 18951 net.cpp:91] Creating Layer loss1/drop_fc
I0403 15:20:18.783865 18951 net.cpp:425] loss1/drop_fc <- loss1/fc
I0403 15:20:18.783885 18951 net.cpp:386] loss1/drop_fc -> loss1/fc (in-place)
I0403 15:20:18.783933 18951 net.cpp:141] Setting up loss1/drop_fc
I0403 15:20:18.783956 18951 net.cpp:148] Top shape: 24 1024 (24576)
I0403 15:20:18.783969 18951 net.cpp:156] Memory required for data: 946189344
I0403 15:20:18.783983 18951 layer_factory.hpp:77] Creating layer loss1/classifier_plantvillage
I0403 15:20:18.784008 18951 net.cpp:91] Creating Layer loss1/classifier_plantvillage
I0403 15:20:18.784025 18951 net.cpp:425] loss1/classifier_plantvillage <- loss1/fc
I0403 15:20:18.784044 18951 net.cpp:399] loss1/classifier_plantvillage -> loss1/classifier_plantvillage
I0403 15:20:18.784940 18951 net.cpp:141] Setting up loss1/classifier_plantvillage
I0403 15:20:18.784968 18951 net.cpp:148] Top shape: 24 38 (912)
I0403 15:20:18.784983 18951 net.cpp:156] Memory required for data: 946192992
I0403 15:20:18.785006 18951 layer_factory.hpp:77] Creating layer loss1/classifier_plantvillage_loss1/classifier_plantvillage_0_split
I0403 15:20:18.785023 18951 net.cpp:91] Creating Layer loss1/classifier_plantvillage_loss1/classifier_plantvillage_0_split
I0403 15:20:18.785037 18951 net.cpp:425] loss1/classifier_plantvillage_loss1/classifier_plantvillage_0_split <- loss1/classifier_plantvillage
I0403 15:20:18.785058 18951 net.cpp:399] loss1/classifier_plantvillage_loss1/classifier_plantvillage_0_split -> loss1/classifier_plantvillage_loss1/classifier_plantvillage_0_split_0
I0403 15:20:18.785079 18951 net.cpp:399] loss1/classifier_plantvillage_loss1/classifier_plantvillage_0_split -> loss1/classifier_plantvillage_loss1/classifier_plantvillage_0_split_1
I0403 15:20:18.785099 18951 net.cpp:399] loss1/classifier_plantvillage_loss1/classifier_plantvillage_0_split -> loss1/classifier_plantvillage_loss1/classifier_plantvillage_0_split_2
I0403 15:20:18.785164 18951 net.cpp:141] Setting up loss1/classifier_plantvillage_loss1/classifier_plantvillage_0_split
I0403 15:20:18.785187 18951 net.cpp:148] Top shape: 24 38 (912)
I0403 15:20:18.785202 18951 net.cpp:148] Top shape: 24 38 (912)
I0403 15:20:18.785217 18951 net.cpp:148] Top shape: 24 38 (912)
I0403 15:20:18.785230 18951 net.cpp:156] Memory required for data: 946203936
I0403 15:20:18.785243 18951 layer_factory.hpp:77] Creating layer inception_4b/1x1
I0403 15:20:18.785264 18951 net.cpp:91] Creating Layer inception_4b/1x1
I0403 15:20:18.785296 18951 net.cpp:425] inception_4b/1x1 <- inception_4a/output_inception_4a/output_0_split_1
I0403 15:20:18.785315 18951 net.cpp:399] inception_4b/1x1 -> inception_4b/1x1
I0403 15:20:18.786924 18951 net.cpp:141] Setting up inception_4b/1x1
I0403 15:20:18.786952 18951 net.cpp:148] Top shape: 24 160 14 14 (752640)
I0403 15:20:18.786967 18951 net.cpp:156] Memory required for data: 949214496
I0403 15:20:18.786983 18951 layer_factory.hpp:77] Creating layer inception_4b/relu_1x1
I0403 15:20:18.787009 18951 net.cpp:91] Creating Layer inception_4b/relu_1x1
I0403 15:20:18.787024 18951 net.cpp:425] inception_4b/relu_1x1 <- inception_4b/1x1
I0403 15:20:18.787040 18951 net.cpp:386] inception_4b/relu_1x1 -> inception_4b/1x1 (in-place)
I0403 15:20:18.787217 18951 net.cpp:141] Setting up inception_4b/relu_1x1
I0403 15:20:18.787241 18951 net.cpp:148] Top shape: 24 160 14 14 (752640)
I0403 15:20:18.787256 18951 net.cpp:156] Memory required for data: 952225056
I0403 15:20:18.787269 18951 layer_factory.hpp:77] Creating layer inception_4b/3x3_reduce
I0403 15:20:18.787292 18951 net.cpp:91] Creating Layer inception_4b/3x3_reduce
I0403 15:20:18.787309 18951 net.cpp:425] inception_4b/3x3_reduce <- inception_4a/output_inception_4a/output_0_split_2
I0403 15:20:18.787328 18951 net.cpp:399] inception_4b/3x3_reduce -> inception_4b/3x3_reduce
I0403 15:20:18.788646 18951 net.cpp:141] Setting up inception_4b/3x3_reduce
I0403 15:20:18.788673 18951 net.cpp:148] Top shape: 24 112 14 14 (526848)
I0403 15:20:18.788687 18951 net.cpp:156] Memory required for data: 954332448
I0403 15:20:18.788704 18951 layer_factory.hpp:77] Creating layer inception_4b/relu_3x3_reduce
I0403 15:20:18.788724 18951 net.cpp:91] Creating Layer inception_4b/relu_3x3_reduce
I0403 15:20:18.788740 18951 net.cpp:425] inception_4b/relu_3x3_reduce <- inception_4b/3x3_reduce
I0403 15:20:18.788758 18951 net.cpp:386] inception_4b/relu_3x3_reduce -> inception_4b/3x3_reduce (in-place)
I0403 15:20:18.789048 18951 net.cpp:141] Setting up inception_4b/relu_3x3_reduce
I0403 15:20:18.789073 18951 net.cpp:148] Top shape: 24 112 14 14 (526848)
I0403 15:20:18.789088 18951 net.cpp:156] Memory required for data: 956439840
I0403 15:20:18.789101 18951 layer_factory.hpp:77] Creating layer inception_4b/3x3
I0403 15:20:18.789122 18951 net.cpp:91] Creating Layer inception_4b/3x3
I0403 15:20:18.789139 18951 net.cpp:425] inception_4b/3x3 <- inception_4b/3x3_reduce
I0403 15:20:18.789160 18951 net.cpp:399] inception_4b/3x3 -> inception_4b/3x3
I0403 15:20:18.792054 18951 net.cpp:141] Setting up inception_4b/3x3
I0403 15:20:18.792084 18951 net.cpp:148] Top shape: 24 224 14 14 (1053696)
I0403 15:20:18.792101 18951 net.cpp:156] Memory required for data: 960654624
I0403 15:20:18.792119 18951 layer_factory.hpp:77] Creating layer inception_4b/relu_3x3
I0403 15:20:18.792135 18951 net.cpp:91] Creating Layer inception_4b/relu_3x3
I0403 15:20:18.792151 18951 net.cpp:425] inception_4b/relu_3x3 <- inception_4b/3x3
I0403 15:20:18.792171 18951 net.cpp:386] inception_4b/relu_3x3 -> inception_4b/3x3 (in-place)
I0403 15:20:18.792346 18951 net.cpp:141] Setting up inception_4b/relu_3x3
I0403 15:20:18.792369 18951 net.cpp:148] Top shape: 24 224 14 14 (1053696)
I0403 15:20:18.792383 18951 net.cpp:156] Memory required for data: 964869408
I0403 15:20:18.792397 18951 layer_factory.hpp:77] Creating layer inception_4b/5x5_reduce
I0403 15:20:18.792418 18951 net.cpp:91] Creating Layer inception_4b/5x5_reduce
I0403 15:20:18.792434 18951 net.cpp:425] inception_4b/5x5_reduce <- inception_4a/output_inception_4a/output_0_split_3
I0403 15:20:18.792459 18951 net.cpp:399] inception_4b/5x5_reduce -> inception_4b/5x5_reduce
I0403 15:20:18.793514 18951 net.cpp:141] Setting up inception_4b/5x5_reduce
I0403 15:20:18.793541 18951 net.cpp:148] Top shape: 24 24 14 14 (112896)
I0403 15:20:18.793556 18951 net.cpp:156] Memory required for data: 965320992
I0403 15:20:18.793573 18951 layer_factory.hpp:77] Creating layer inception_4b/relu_5x5_reduce
I0403 15:20:18.793592 18951 net.cpp:91] Creating Layer inception_4b/relu_5x5_reduce
I0403 15:20:18.793622 18951 net.cpp:425] inception_4b/relu_5x5_reduce <- inception_4b/5x5_reduce
I0403 15:20:18.793640 18951 net.cpp:386] inception_4b/relu_5x5_reduce -> inception_4b/5x5_reduce (in-place)
I0403 15:20:18.793815 18951 net.cpp:141] Setting up inception_4b/relu_5x5_reduce
I0403 15:20:18.793843 18951 net.cpp:148] Top shape: 24 24 14 14 (112896)
I0403 15:20:18.793856 18951 net.cpp:156] Memory required for data: 965772576
I0403 15:20:18.793870 18951 layer_factory.hpp:77] Creating layer inception_4b/5x5
I0403 15:20:18.793891 18951 net.cpp:91] Creating Layer inception_4b/5x5
I0403 15:20:18.793908 18951 net.cpp:425] inception_4b/5x5 <- inception_4b/5x5_reduce
I0403 15:20:18.793927 18951 net.cpp:399] inception_4b/5x5 -> inception_4b/5x5
I0403 15:20:18.795125 18951 net.cpp:141] Setting up inception_4b/5x5
I0403 15:20:18.795152 18951 net.cpp:148] Top shape: 24 64 14 14 (301056)
I0403 15:20:18.795167 18951 net.cpp:156] Memory required for data: 966976800
I0403 15:20:18.795184 18951 layer_factory.hpp:77] Creating layer inception_4b/relu_5x5
I0403 15:20:18.795204 18951 net.cpp:91] Creating Layer inception_4b/relu_5x5
I0403 15:20:18.795220 18951 net.cpp:425] inception_4b/relu_5x5 <- inception_4b/5x5
I0403 15:20:18.795236 18951 net.cpp:386] inception_4b/relu_5x5 -> inception_4b/5x5 (in-place)
I0403 15:20:18.795516 18951 net.cpp:141] Setting up inception_4b/relu_5x5
I0403 15:20:18.795541 18951 net.cpp:148] Top shape: 24 64 14 14 (301056)
I0403 15:20:18.795554 18951 net.cpp:156] Memory required for data: 968181024
I0403 15:20:18.795569 18951 layer_factory.hpp:77] Creating layer inception_4b/pool
I0403 15:20:18.795586 18951 net.cpp:91] Creating Layer inception_4b/pool
I0403 15:20:18.795605 18951 net.cpp:425] inception_4b/pool <- inception_4a/output_inception_4a/output_0_split_4
I0403 15:20:18.795622 18951 net.cpp:399] inception_4b/pool -> inception_4b/pool
I0403 15:20:18.795685 18951 net.cpp:141] Setting up inception_4b/pool
I0403 15:20:18.795707 18951 net.cpp:148] Top shape: 24 512 14 14 (2408448)
I0403 15:20:18.795722 18951 net.cpp:156] Memory required for data: 977814816
I0403 15:20:18.795735 18951 layer_factory.hpp:77] Creating layer inception_4b/pool_proj
I0403 15:20:18.795759 18951 net.cpp:91] Creating Layer inception_4b/pool_proj
I0403 15:20:18.795776 18951 net.cpp:425] inception_4b/pool_proj <- inception_4b/pool
I0403 15:20:18.795796 18951 net.cpp:399] inception_4b/pool_proj -> inception_4b/pool_proj
I0403 15:20:18.796957 18951 net.cpp:141] Setting up inception_4b/pool_proj
I0403 15:20:18.796984 18951 net.cpp:148] Top shape: 24 64 14 14 (301056)
I0403 15:20:18.797003 18951 net.cpp:156] Memory required for data: 979019040
I0403 15:20:18.797020 18951 layer_factory.hpp:77] Creating layer inception_4b/relu_pool_proj
I0403 15:20:18.797041 18951 net.cpp:91] Creating Layer inception_4b/relu_pool_proj
I0403 15:20:18.797060 18951 net.cpp:425] inception_4b/relu_pool_proj <- inception_4b/pool_proj
I0403 15:20:18.797075 18951 net.cpp:386] inception_4b/relu_pool_proj -> inception_4b/pool_proj (in-place)
I0403 15:20:18.797251 18951 net.cpp:141] Setting up inception_4b/relu_pool_proj
I0403 15:20:18.797276 18951 net.cpp:148] Top shape: 24 64 14 14 (301056)
I0403 15:20:18.797289 18951 net.cpp:156] Memory required for data: 980223264
I0403 15:20:18.797302 18951 layer_factory.hpp:77] Creating layer inception_4b/output
I0403 15:20:18.797322 18951 net.cpp:91] Creating Layer inception_4b/output
I0403 15:20:18.797338 18951 net.cpp:425] inception_4b/output <- inception_4b/1x1
I0403 15:20:18.797353 18951 net.cpp:425] inception_4b/output <- inception_4b/3x3
I0403 15:20:18.797369 18951 net.cpp:425] inception_4b/output <- inception_4b/5x5
I0403 15:20:18.797384 18951 net.cpp:425] inception_4b/output <- inception_4b/pool_proj
I0403 15:20:18.797399 18951 net.cpp:399] inception_4b/output -> inception_4b/output
I0403 15:20:18.797446 18951 net.cpp:141] Setting up inception_4b/output
I0403 15:20:18.797466 18951 net.cpp:148] Top shape: 24 512 14 14 (2408448)
I0403 15:20:18.797480 18951 net.cpp:156] Memory required for data: 989857056
I0403 15:20:18.797508 18951 layer_factory.hpp:77] Creating layer inception_4b/output_inception_4b/output_0_split
I0403 15:20:18.797525 18951 net.cpp:91] Creating Layer inception_4b/output_inception_4b/output_0_split
I0403 15:20:18.797540 18951 net.cpp:425] inception_4b/output_inception_4b/output_0_split <- inception_4b/output
I0403 15:20:18.797559 18951 net.cpp:399] inception_4b/output_inception_4b/output_0_split -> inception_4b/output_inception_4b/output_0_split_0
I0403 15:20:18.797579 18951 net.cpp:399] inception_4b/output_inception_4b/output_0_split -> inception_4b/output_inception_4b/output_0_split_1
I0403 15:20:18.797598 18951 net.cpp:399] inception_4b/output_inception_4b/output_0_split -> inception_4b/output_inception_4b/output_0_split_2
I0403 15:20:18.797617 18951 net.cpp:399] inception_4b/output_inception_4b/output_0_split -> inception_4b/output_inception_4b/output_0_split_3
I0403 15:20:18.797701 18951 net.cpp:141] Setting up inception_4b/output_inception_4b/output_0_split
I0403 15:20:18.797724 18951 net.cpp:148] Top shape: 24 512 14 14 (2408448)
I0403 15:20:18.797739 18951 net.cpp:148] Top shape: 24 512 14 14 (2408448)
I0403 15:20:18.797754 18951 net.cpp:148] Top shape: 24 512 14 14 (2408448)
I0403 15:20:18.797768 18951 net.cpp:148] Top shape: 24 512 14 14 (2408448)
I0403 15:20:18.797780 18951 net.cpp:156] Memory required for data: 1028392224
I0403 15:20:18.797794 18951 layer_factory.hpp:77] Creating layer inception_4c/1x1
I0403 15:20:18.797814 18951 net.cpp:91] Creating Layer inception_4c/1x1
I0403 15:20:18.797832 18951 net.cpp:425] inception_4c/1x1 <- inception_4b/output_inception_4b/output_0_split_0
I0403 15:20:18.797852 18951 net.cpp:399] inception_4c/1x1 -> inception_4c/1x1
I0403 15:20:18.799252 18951 net.cpp:141] Setting up inception_4c/1x1
I0403 15:20:18.799281 18951 net.cpp:148] Top shape: 24 128 14 14 (602112)
I0403 15:20:18.799298 18951 net.cpp:156] Memory required for data: 1030800672
I0403 15:20:18.799314 18951 layer_factory.hpp:77] Creating layer inception_4c/relu_1x1
I0403 15:20:18.799332 18951 net.cpp:91] Creating Layer inception_4c/relu_1x1
I0403 15:20:18.799347 18951 net.cpp:425] inception_4c/relu_1x1 <- inception_4c/1x1
I0403 15:20:18.799366 18951 net.cpp:386] inception_4c/relu_1x1 -> inception_4c/1x1 (in-place)
I0403 15:20:18.799543 18951 net.cpp:141] Setting up inception_4c/relu_1x1
I0403 15:20:18.799567 18951 net.cpp:148] Top shape: 24 128 14 14 (602112)
I0403 15:20:18.799581 18951 net.cpp:156] Memory required for data: 1033209120
I0403 15:20:18.799594 18951 layer_factory.hpp:77] Creating layer inception_4c/3x3_reduce
I0403 15:20:18.799615 18951 net.cpp:91] Creating Layer inception_4c/3x3_reduce
I0403 15:20:18.799633 18951 net.cpp:425] inception_4c/3x3_reduce <- inception_4b/output_inception_4b/output_0_split_1
I0403 15:20:18.799652 18951 net.cpp:399] inception_4c/3x3_reduce -> inception_4c/3x3_reduce
I0403 15:20:18.801566 18951 net.cpp:141] Setting up inception_4c/3x3_reduce
I0403 15:20:18.801594 18951 net.cpp:148] Top shape: 24 128 14 14 (602112)
I0403 15:20:18.801609 18951 net.cpp:156] Memory required for data: 1035617568
I0403 15:20:18.801625 18951 layer_factory.hpp:77] Creating layer inception_4c/relu_3x3_reduce
I0403 15:20:18.801642 18951 net.cpp:91] Creating Layer inception_4c/relu_3x3_reduce
I0403 15:20:18.801657 18951 net.cpp:425] inception_4c/relu_3x3_reduce <- inception_4c/3x3_reduce
I0403 15:20:18.801676 18951 net.cpp:386] inception_4c/relu_3x3_reduce -> inception_4c/3x3_reduce (in-place)
I0403 15:20:18.801956 18951 net.cpp:141] Setting up inception_4c/relu_3x3_reduce
I0403 15:20:18.801982 18951 net.cpp:148] Top shape: 24 128 14 14 (602112)
I0403 15:20:18.802001 18951 net.cpp:156] Memory required for data: 1038026016
I0403 15:20:18.802016 18951 layer_factory.hpp:77] Creating layer inception_4c/3x3
I0403 15:20:18.802038 18951 net.cpp:91] Creating Layer inception_4c/3x3
I0403 15:20:18.802057 18951 net.cpp:425] inception_4c/3x3 <- inception_4c/3x3_reduce
I0403 15:20:18.802081 18951 net.cpp:399] inception_4c/3x3 -> inception_4c/3x3
I0403 15:20:18.805622 18951 net.cpp:141] Setting up inception_4c/3x3
I0403 15:20:18.805662 18951 net.cpp:148] Top shape: 24 256 14 14 (1204224)
I0403 15:20:18.805678 18951 net.cpp:156] Memory required for data: 1042842912
I0403 15:20:18.805708 18951 layer_factory.hpp:77] Creating layer inception_4c/relu_3x3
I0403 15:20:18.805729 18951 net.cpp:91] Creating Layer inception_4c/relu_3x3
I0403 15:20:18.805747 18951 net.cpp:425] inception_4c/relu_3x3 <- inception_4c/3x3
I0403 15:20:18.805763 18951 net.cpp:386] inception_4c/relu_3x3 -> inception_4c/3x3 (in-place)
I0403 15:20:18.805938 18951 net.cpp:141] Setting up inception_4c/relu_3x3
I0403 15:20:18.805963 18951 net.cpp:148] Top shape: 24 256 14 14 (1204224)
I0403 15:20:18.805976 18951 net.cpp:156] Memory required for data: 1047659808
I0403 15:20:18.805996 18951 layer_factory.hpp:77] Creating layer inception_4c/5x5_reduce
I0403 15:20:18.806020 18951 net.cpp:91] Creating Layer inception_4c/5x5_reduce
I0403 15:20:18.806036 18951 net.cpp:425] inception_4c/5x5_reduce <- inception_4b/output_inception_4b/output_0_split_2
I0403 15:20:18.806057 18951 net.cpp:399] inception_4c/5x5_reduce -> inception_4c/5x5_reduce
I0403 15:20:18.807144 18951 net.cpp:141] Setting up inception_4c/5x5_reduce
I0403 15:20:18.807173 18951 net.cpp:148] Top shape: 24 24 14 14 (112896)
I0403 15:20:18.807188 18951 net.cpp:156] Memory required for data: 1048111392
I0403 15:20:18.807206 18951 layer_factory.hpp:77] Creating layer inception_4c/relu_5x5_reduce
I0403 15:20:18.807225 18951 net.cpp:91] Creating Layer inception_4c/relu_5x5_reduce
I0403 15:20:18.807241 18951 net.cpp:425] inception_4c/relu_5x5_reduce <- inception_4c/5x5_reduce
I0403 15:20:18.807258 18951 net.cpp:386] inception_4c/relu_5x5_reduce -> inception_4c/5x5_reduce (in-place)
I0403 15:20:18.807448 18951 net.cpp:141] Setting up inception_4c/relu_5x5_reduce
I0403 15:20:18.807476 18951 net.cpp:148] Top shape: 24 24 14 14 (112896)
I0403 15:20:18.807490 18951 net.cpp:156] Memory required for data: 1048562976
I0403 15:20:18.807504 18951 layer_factory.hpp:77] Creating layer inception_4c/5x5
I0403 15:20:18.807526 18951 net.cpp:91] Creating Layer inception_4c/5x5
I0403 15:20:18.807543 18951 net.cpp:425] inception_4c/5x5 <- inception_4c/5x5_reduce
I0403 15:20:18.807562 18951 net.cpp:399] inception_4c/5x5 -> inception_4c/5x5
I0403 15:20:18.808830 18951 net.cpp:141] Setting up inception_4c/5x5
I0403 15:20:18.808856 18951 net.cpp:148] Top shape: 24 64 14 14 (301056)
I0403 15:20:18.808872 18951 net.cpp:156] Memory required for data: 1049767200
I0403 15:20:18.808889 18951 layer_factory.hpp:77] Creating layer inception_4c/relu_5x5
I0403 15:20:18.808910 18951 net.cpp:91] Creating Layer inception_4c/relu_5x5
I0403 15:20:18.808926 18951 net.cpp:425] inception_4c/relu_5x5 <- inception_4c/5x5
I0403 15:20:18.808944 18951 net.cpp:386] inception_4c/relu_5x5 -> inception_4c/5x5 (in-place)
I0403 15:20:18.809238 18951 net.cpp:141] Setting up inception_4c/relu_5x5
I0403 15:20:18.809265 18951 net.cpp:148] Top shape: 24 64 14 14 (301056)
I0403 15:20:18.809279 18951 net.cpp:156] Memory required for data: 1050971424
I0403 15:20:18.809293 18951 layer_factory.hpp:77] Creating layer inception_4c/pool
I0403 15:20:18.809312 18951 net.cpp:91] Creating Layer inception_4c/pool
I0403 15:20:18.809329 18951 net.cpp:425] inception_4c/pool <- inception_4b/output_inception_4b/output_0_split_3
I0403 15:20:18.809350 18951 net.cpp:399] inception_4c/pool -> inception_4c/pool
I0403 15:20:18.809415 18951 net.cpp:141] Setting up inception_4c/pool
I0403 15:20:18.809438 18951 net.cpp:148] Top shape: 24 512 14 14 (2408448)
I0403 15:20:18.809453 18951 net.cpp:156] Memory required for data: 1060605216
I0403 15:20:18.809466 18951 layer_factory.hpp:77] Creating layer inception_4c/pool_proj
I0403 15:20:18.809487 18951 net.cpp:91] Creating Layer inception_4c/pool_proj
I0403 15:20:18.809505 18951 net.cpp:425] inception_4c/pool_proj <- inception_4c/pool
I0403 15:20:18.809526 18951 net.cpp:399] inception_4c/pool_proj -> inception_4c/pool_proj
I0403 15:20:18.810755 18951 net.cpp:141] Setting up inception_4c/pool_proj
I0403 15:20:18.810782 18951 net.cpp:148] Top shape: 24 64 14 14 (301056)
I0403 15:20:18.810811 18951 net.cpp:156] Memory required for data: 1061809440
I0403 15:20:18.810830 18951 layer_factory.hpp:77] Creating layer inception_4c/relu_pool_proj
I0403 15:20:18.810852 18951 net.cpp:91] Creating Layer inception_4c/relu_pool_proj
I0403 15:20:18.810868 18951 net.cpp:425] inception_4c/relu_pool_proj <- inception_4c/pool_proj
I0403 15:20:18.810886 18951 net.cpp:386] inception_4c/relu_pool_proj -> inception_4c/pool_proj (in-place)
I0403 15:20:18.811080 18951 net.cpp:141] Setting up inception_4c/relu_pool_proj
I0403 15:20:18.811105 18951 net.cpp:148] Top shape: 24 64 14 14 (301056)
I0403 15:20:18.811120 18951 net.cpp:156] Memory required for data: 1063013664
I0403 15:20:18.811133 18951 layer_factory.hpp:77] Creating layer inception_4c/output
I0403 15:20:18.811152 18951 net.cpp:91] Creating Layer inception_4c/output
I0403 15:20:18.811168 18951 net.cpp:425] inception_4c/output <- inception_4c/1x1
I0403 15:20:18.811185 18951 net.cpp:425] inception_4c/output <- inception_4c/3x3
I0403 15:20:18.811200 18951 net.cpp:425] inception_4c/output <- inception_4c/5x5
I0403 15:20:18.811216 18951 net.cpp:425] inception_4c/output <- inception_4c/pool_proj
I0403 15:20:18.811233 18951 net.cpp:399] inception_4c/output -> inception_4c/output
I0403 15:20:18.811281 18951 net.cpp:141] Setting up inception_4c/output
I0403 15:20:18.811305 18951 net.cpp:148] Top shape: 24 512 14 14 (2408448)
I0403 15:20:18.811317 18951 net.cpp:156] Memory required for data: 1072647456
I0403 15:20:18.811331 18951 layer_factory.hpp:77] Creating layer inception_4c/output_inception_4c/output_0_split
I0403 15:20:18.811347 18951 net.cpp:91] Creating Layer inception_4c/output_inception_4c/output_0_split
I0403 15:20:18.811362 18951 net.cpp:425] inception_4c/output_inception_4c/output_0_split <- inception_4c/output
I0403 15:20:18.811383 18951 net.cpp:399] inception_4c/output_inception_4c/output_0_split -> inception_4c/output_inception_4c/output_0_split_0
I0403 15:20:18.811404 18951 net.cpp:399] inception_4c/output_inception_4c/output_0_split -> inception_4c/output_inception_4c/output_0_split_1
I0403 15:20:18.811424 18951 net.cpp:399] inception_4c/output_inception_4c/output_0_split -> inception_4c/output_inception_4c/output_0_split_2
I0403 15:20:18.811444 18951 net.cpp:399] inception_4c/output_inception_4c/output_0_split -> inception_4c/output_inception_4c/output_0_split_3
I0403 15:20:18.811533 18951 net.cpp:141] Setting up inception_4c/output_inception_4c/output_0_split
I0403 15:20:18.811556 18951 net.cpp:148] Top shape: 24 512 14 14 (2408448)
I0403 15:20:18.811573 18951 net.cpp:148] Top shape: 24 512 14 14 (2408448)
I0403 15:20:18.811588 18951 net.cpp:148] Top shape: 24 512 14 14 (2408448)
I0403 15:20:18.811602 18951 net.cpp:148] Top shape: 24 512 14 14 (2408448)
I0403 15:20:18.811615 18951 net.cpp:156] Memory required for data: 1111182624
I0403 15:20:18.811630 18951 layer_factory.hpp:77] Creating layer inception_4d/1x1
I0403 15:20:18.811650 18951 net.cpp:91] Creating Layer inception_4d/1x1
I0403 15:20:18.811668 18951 net.cpp:425] inception_4d/1x1 <- inception_4c/output_inception_4c/output_0_split_0
I0403 15:20:18.811689 18951 net.cpp:399] inception_4d/1x1 -> inception_4d/1x1
I0403 15:20:18.813102 18951 net.cpp:141] Setting up inception_4d/1x1
I0403 15:20:18.813134 18951 net.cpp:148] Top shape: 24 112 14 14 (526848)
I0403 15:20:18.813150 18951 net.cpp:156] Memory required for data: 1113290016
I0403 15:20:18.813169 18951 layer_factory.hpp:77] Creating layer inception_4d/relu_1x1
I0403 15:20:18.813187 18951 net.cpp:91] Creating Layer inception_4d/relu_1x1
I0403 15:20:18.813204 18951 net.cpp:425] inception_4d/relu_1x1 <- inception_4d/1x1
I0403 15:20:18.813223 18951 net.cpp:386] inception_4d/relu_1x1 -> inception_4d/1x1 (in-place)
I0403 15:20:18.813422 18951 net.cpp:141] Setting up inception_4d/relu_1x1
I0403 15:20:18.813446 18951 net.cpp:148] Top shape: 24 112 14 14 (526848)
I0403 15:20:18.813460 18951 net.cpp:156] Memory required for data: 1115397408
I0403 15:20:18.813475 18951 layer_factory.hpp:77] Creating layer inception_4d/3x3_reduce
I0403 15:20:18.813510 18951 net.cpp:91] Creating Layer inception_4d/3x3_reduce
I0403 15:20:18.813529 18951 net.cpp:425] inception_4d/3x3_reduce <- inception_4c/output_inception_4c/output_0_split_1
I0403 15:20:18.813550 18951 net.cpp:399] inception_4d/3x3_reduce -> inception_4d/3x3_reduce
I0403 15:20:18.815080 18951 net.cpp:141] Setting up inception_4d/3x3_reduce
I0403 15:20:18.815109 18951 net.cpp:148] Top shape: 24 144 14 14 (677376)
I0403 15:20:18.815125 18951 net.cpp:156] Memory required for data: 1118106912
I0403 15:20:18.815143 18951 layer_factory.hpp:77] Creating layer inception_4d/relu_3x3_reduce
I0403 15:20:18.815161 18951 net.cpp:91] Creating Layer inception_4d/relu_3x3_reduce
I0403 15:20:18.815177 18951 net.cpp:425] inception_4d/relu_3x3_reduce <- inception_4d/3x3_reduce
I0403 15:20:18.815194 18951 net.cpp:386] inception_4d/relu_3x3_reduce -> inception_4d/3x3_reduce (in-place)
I0403 15:20:18.815487 18951 net.cpp:141] Setting up inception_4d/relu_3x3_reduce
I0403 15:20:18.815516 18951 net.cpp:148] Top shape: 24 144 14 14 (677376)
I0403 15:20:18.815531 18951 net.cpp:156] Memory required for data: 1120816416
I0403 15:20:18.815546 18951 layer_factory.hpp:77] Creating layer inception_4d/3x3
I0403 15:20:18.815568 18951 net.cpp:91] Creating Layer inception_4d/3x3
I0403 15:20:18.815585 18951 net.cpp:425] inception_4d/3x3 <- inception_4d/3x3_reduce
I0403 15:20:18.815604 18951 net.cpp:399] inception_4d/3x3 -> inception_4d/3x3
I0403 15:20:18.819900 18951 net.cpp:141] Setting up inception_4d/3x3
I0403 15:20:18.819928 18951 net.cpp:148] Top shape: 24 288 14 14 (1354752)
I0403 15:20:18.819946 18951 net.cpp:156] Memory required for data: 1126235424
I0403 15:20:18.819963 18951 layer_factory.hpp:77] Creating layer inception_4d/relu_3x3
I0403 15:20:18.819982 18951 net.cpp:91] Creating Layer inception_4d/relu_3x3
I0403 15:20:18.820003 18951 net.cpp:425] inception_4d/relu_3x3 <- inception_4d/3x3
I0403 15:20:18.820022 18951 net.cpp:386] inception_4d/relu_3x3 -> inception_4d/3x3 (in-place)
I0403 15:20:18.820209 18951 net.cpp:141] Setting up inception_4d/relu_3x3
I0403 15:20:18.820233 18951 net.cpp:148] Top shape: 24 288 14 14 (1354752)
I0403 15:20:18.820247 18951 net.cpp:156] Memory required for data: 1131654432
I0403 15:20:18.820262 18951 layer_factory.hpp:77] Creating layer inception_4d/5x5_reduce
I0403 15:20:18.820284 18951 net.cpp:91] Creating Layer inception_4d/5x5_reduce
I0403 15:20:18.820302 18951 net.cpp:425] inception_4d/5x5_reduce <- inception_4c/output_inception_4c/output_0_split_2
I0403 15:20:18.820323 18951 net.cpp:399] inception_4d/5x5_reduce -> inception_4d/5x5_reduce
I0403 15:20:18.821485 18951 net.cpp:141] Setting up inception_4d/5x5_reduce
I0403 15:20:18.821512 18951 net.cpp:148] Top shape: 24 32 14 14 (150528)
I0403 15:20:18.821527 18951 net.cpp:156] Memory required for data: 1132256544
I0403 15:20:18.821544 18951 layer_factory.hpp:77] Creating layer inception_4d/relu_5x5_reduce
I0403 15:20:18.821563 18951 net.cpp:91] Creating Layer inception_4d/relu_5x5_reduce
I0403 15:20:18.821578 18951 net.cpp:425] inception_4d/relu_5x5_reduce <- inception_4d/5x5_reduce
I0403 15:20:18.821598 18951 net.cpp:386] inception_4d/relu_5x5_reduce -> inception_4d/5x5_reduce (in-place)
I0403 15:20:18.821789 18951 net.cpp:141] Setting up inception_4d/relu_5x5_reduce
I0403 15:20:18.821813 18951 net.cpp:148] Top shape: 24 32 14 14 (150528)
I0403 15:20:18.821827 18951 net.cpp:156] Memory required for data: 1132858656
I0403 15:20:18.821841 18951 layer_factory.hpp:77] Creating layer inception_4d/5x5
I0403 15:20:18.821863 18951 net.cpp:91] Creating Layer inception_4d/5x5
I0403 15:20:18.821880 18951 net.cpp:425] inception_4d/5x5 <- inception_4d/5x5_reduce
I0403 15:20:18.821902 18951 net.cpp:399] inception_4d/5x5 -> inception_4d/5x5
I0403 15:20:18.823387 18951 net.cpp:141] Setting up inception_4d/5x5
I0403 15:20:18.823415 18951 net.cpp:148] Top shape: 24 64 14 14 (301056)
I0403 15:20:18.823429 18951 net.cpp:156] Memory required for data: 1134062880
I0403 15:20:18.823447 18951 layer_factory.hpp:77] Creating layer inception_4d/relu_5x5
I0403 15:20:18.823482 18951 net.cpp:91] Creating Layer inception_4d/relu_5x5
I0403 15:20:18.823499 18951 net.cpp:425] inception_4d/relu_5x5 <- inception_4d/5x5
I0403 15:20:18.823516 18951 net.cpp:386] inception_4d/relu_5x5 -> inception_4d/5x5 (in-place)
I0403 15:20:18.823817 18951 net.cpp:141] Setting up inception_4d/relu_5x5
I0403 15:20:18.823843 18951 net.cpp:148] Top shape: 24 64 14 14 (301056)
I0403 15:20:18.823858 18951 net.cpp:156] Memory required for data: 1135267104
I0403 15:20:18.823873 18951 layer_factory.hpp:77] Creating layer inception_4d/pool
I0403 15:20:18.823891 18951 net.cpp:91] Creating Layer inception_4d/pool
I0403 15:20:18.823909 18951 net.cpp:425] inception_4d/pool <- inception_4c/output_inception_4c/output_0_split_3
I0403 15:20:18.823926 18951 net.cpp:399] inception_4d/pool -> inception_4d/pool
I0403 15:20:18.823998 18951 net.cpp:141] Setting up inception_4d/pool
I0403 15:20:18.824023 18951 net.cpp:148] Top shape: 24 512 14 14 (2408448)
I0403 15:20:18.824036 18951 net.cpp:156] Memory required for data: 1144900896
I0403 15:20:18.824053 18951 layer_factory.hpp:77] Creating layer inception_4d/pool_proj
I0403 15:20:18.824074 18951 net.cpp:91] Creating Layer inception_4d/pool_proj
I0403 15:20:18.824091 18951 net.cpp:425] inception_4d/pool_proj <- inception_4d/pool
I0403 15:20:18.824112 18951 net.cpp:399] inception_4d/pool_proj -> inception_4d/pool_proj
I0403 15:20:18.825929 18951 net.cpp:141] Setting up inception_4d/pool_proj
I0403 15:20:18.825958 18951 net.cpp:148] Top shape: 24 64 14 14 (301056)
I0403 15:20:18.825973 18951 net.cpp:156] Memory required for data: 1146105120
I0403 15:20:18.825994 18951 layer_factory.hpp:77] Creating layer inception_4d/relu_pool_proj
I0403 15:20:18.826012 18951 net.cpp:91] Creating Layer inception_4d/relu_pool_proj
I0403 15:20:18.826027 18951 net.cpp:425] inception_4d/relu_pool_proj <- inception_4d/pool_proj
I0403 15:20:18.826046 18951 net.cpp:386] inception_4d/relu_pool_proj -> inception_4d/pool_proj (in-place)
I0403 15:20:18.826232 18951 net.cpp:141] Setting up inception_4d/relu_pool_proj
I0403 15:20:18.826256 18951 net.cpp:148] Top shape: 24 64 14 14 (301056)
I0403 15:20:18.826270 18951 net.cpp:156] Memory required for data: 1147309344
I0403 15:20:18.826284 18951 layer_factory.hpp:77] Creating layer inception_4d/output
I0403 15:20:18.826303 18951 net.cpp:91] Creating Layer inception_4d/output
I0403 15:20:18.826319 18951 net.cpp:425] inception_4d/output <- inception_4d/1x1
I0403 15:20:18.826335 18951 net.cpp:425] inception_4d/output <- inception_4d/3x3
I0403 15:20:18.826350 18951 net.cpp:425] inception_4d/output <- inception_4d/5x5
I0403 15:20:18.826365 18951 net.cpp:425] inception_4d/output <- inception_4d/pool_proj
I0403 15:20:18.826380 18951 net.cpp:399] inception_4d/output -> inception_4d/output
I0403 15:20:18.826428 18951 net.cpp:141] Setting up inception_4d/output
I0403 15:20:18.826452 18951 net.cpp:148] Top shape: 24 528 14 14 (2483712)
I0403 15:20:18.826464 18951 net.cpp:156] Memory required for data: 1157244192
I0403 15:20:18.826478 18951 layer_factory.hpp:77] Creating layer inception_4d/output_inception_4d/output_0_split
I0403 15:20:18.826494 18951 net.cpp:91] Creating Layer inception_4d/output_inception_4d/output_0_split
I0403 15:20:18.826509 18951 net.cpp:425] inception_4d/output_inception_4d/output_0_split <- inception_4d/output
I0403 15:20:18.826529 18951 net.cpp:399] inception_4d/output_inception_4d/output_0_split -> inception_4d/output_inception_4d/output_0_split_0
I0403 15:20:18.826548 18951 net.cpp:399] inception_4d/output_inception_4d/output_0_split -> inception_4d/output_inception_4d/output_0_split_1
I0403 15:20:18.826568 18951 net.cpp:399] inception_4d/output_inception_4d/output_0_split -> inception_4d/output_inception_4d/output_0_split_2
I0403 15:20:18.826588 18951 net.cpp:399] inception_4d/output_inception_4d/output_0_split -> inception_4d/output_inception_4d/output_0_split_3
I0403 15:20:18.826607 18951 net.cpp:399] inception_4d/output_inception_4d/output_0_split -> inception_4d/output_inception_4d/output_0_split_4
I0403 15:20:18.826709 18951 net.cpp:141] Setting up inception_4d/output_inception_4d/output_0_split
I0403 15:20:18.826743 18951 net.cpp:148] Top shape: 24 528 14 14 (2483712)
I0403 15:20:18.826761 18951 net.cpp:148] Top shape: 24 528 14 14 (2483712)
I0403 15:20:18.826776 18951 net.cpp:148] Top shape: 24 528 14 14 (2483712)
I0403 15:20:18.826792 18951 net.cpp:148] Top shape: 24 528 14 14 (2483712)
I0403 15:20:18.826805 18951 net.cpp:148] Top shape: 24 528 14 14 (2483712)
I0403 15:20:18.826818 18951 net.cpp:156] Memory required for data: 1206918432
I0403 15:20:18.826831 18951 layer_factory.hpp:77] Creating layer loss2/ave_pool
I0403 15:20:18.826848 18951 net.cpp:91] Creating Layer loss2/ave_pool
I0403 15:20:18.826864 18951 net.cpp:425] loss2/ave_pool <- inception_4d/output_inception_4d/output_0_split_0
I0403 15:20:18.826884 18951 net.cpp:399] loss2/ave_pool -> loss2/ave_pool
I0403 15:20:18.827191 18951 net.cpp:141] Setting up loss2/ave_pool
I0403 15:20:18.827217 18951 net.cpp:148] Top shape: 24 528 4 4 (202752)
I0403 15:20:18.827231 18951 net.cpp:156] Memory required for data: 1207729440
I0403 15:20:18.827245 18951 layer_factory.hpp:77] Creating layer loss2/conv
I0403 15:20:18.827266 18951 net.cpp:91] Creating Layer loss2/conv
I0403 15:20:18.827283 18951 net.cpp:425] loss2/conv <- loss2/ave_pool
I0403 15:20:18.827304 18951 net.cpp:399] loss2/conv -> loss2/conv
I0403 15:20:18.829186 18951 net.cpp:141] Setting up loss2/conv
I0403 15:20:18.829215 18951 net.cpp:148] Top shape: 24 128 4 4 (49152)
I0403 15:20:18.829229 18951 net.cpp:156] Memory required for data: 1207926048
I0403 15:20:18.829247 18951 layer_factory.hpp:77] Creating layer loss2/relu_conv
I0403 15:20:18.829267 18951 net.cpp:91] Creating Layer loss2/relu_conv
I0403 15:20:18.829283 18951 net.cpp:425] loss2/relu_conv <- loss2/conv
I0403 15:20:18.829299 18951 net.cpp:386] loss2/relu_conv -> loss2/conv (in-place)
I0403 15:20:18.829579 18951 net.cpp:141] Setting up loss2/relu_conv
I0403 15:20:18.829605 18951 net.cpp:148] Top shape: 24 128 4 4 (49152)
I0403 15:20:18.829619 18951 net.cpp:156] Memory required for data: 1208122656
I0403 15:20:18.829633 18951 layer_factory.hpp:77] Creating layer loss2/fc
I0403 15:20:18.829653 18951 net.cpp:91] Creating Layer loss2/fc
I0403 15:20:18.829670 18951 net.cpp:425] loss2/fc <- loss2/conv
I0403 15:20:18.829691 18951 net.cpp:399] loss2/fc -> loss2/fc
I0403 15:20:18.847100 18951 net.cpp:141] Setting up loss2/fc
I0403 15:20:18.847136 18951 net.cpp:148] Top shape: 24 1024 (24576)
I0403 15:20:18.847151 18951 net.cpp:156] Memory required for data: 1208220960
I0403 15:20:18.847168 18951 layer_factory.hpp:77] Creating layer loss2/relu_fc
I0403 15:20:18.847185 18951 net.cpp:91] Creating Layer loss2/relu_fc
I0403 15:20:18.847201 18951 net.cpp:425] loss2/relu_fc <- loss2/fc
I0403 15:20:18.847220 18951 net.cpp:386] loss2/relu_fc -> loss2/fc (in-place)
I0403 15:20:18.847523 18951 net.cpp:141] Setting up loss2/relu_fc
I0403 15:20:18.847548 18951 net.cpp:148] Top shape: 24 1024 (24576)
I0403 15:20:18.847563 18951 net.cpp:156] Memory required for data: 1208319264
I0403 15:20:18.847578 18951 layer_factory.hpp:77] Creating layer loss2/drop_fc
I0403 15:20:18.847594 18951 net.cpp:91] Creating Layer loss2/drop_fc
I0403 15:20:18.847610 18951 net.cpp:425] loss2/drop_fc <- loss2/fc
I0403 15:20:18.847630 18951 net.cpp:386] loss2/drop_fc -> loss2/fc (in-place)
I0403 15:20:18.847678 18951 net.cpp:141] Setting up loss2/drop_fc
I0403 15:20:18.847703 18951 net.cpp:148] Top shape: 24 1024 (24576)
I0403 15:20:18.847718 18951 net.cpp:156] Memory required for data: 1208417568
I0403 15:20:18.847731 18951 layer_factory.hpp:77] Creating layer loss2/classifier_plantvillage
I0403 15:20:18.847748 18951 net.cpp:91] Creating Layer loss2/classifier_plantvillage
I0403 15:20:18.847764 18951 net.cpp:425] loss2/classifier_plantvillage <- loss2/fc
I0403 15:20:18.847785 18951 net.cpp:399] loss2/classifier_plantvillage -> loss2/classifier_plantvillage
I0403 15:20:18.848187 18951 net.cpp:141] Setting up loss2/classifier_plantvillage
I0403 15:20:18.848214 18951 net.cpp:148] Top shape: 24 38 (912)
I0403 15:20:18.848244 18951 net.cpp:156] Memory required for data: 1208421216
I0403 15:20:18.848263 18951 layer_factory.hpp:77] Creating layer loss2/classifier_plantvillage_loss2/classifier_plantvillage_0_split
I0403 15:20:18.848279 18951 net.cpp:91] Creating Layer loss2/classifier_plantvillage_loss2/classifier_plantvillage_0_split
I0403 15:20:18.848295 18951 net.cpp:425] loss2/classifier_plantvillage_loss2/classifier_plantvillage_0_split <- loss2/classifier_plantvillage
I0403 15:20:18.848312 18951 net.cpp:399] loss2/classifier_plantvillage_loss2/classifier_plantvillage_0_split -> loss2/classifier_plantvillage_loss2/classifier_plantvillage_0_split_0
I0403 15:20:18.848331 18951 net.cpp:399] loss2/classifier_plantvillage_loss2/classifier_plantvillage_0_split -> loss2/classifier_plantvillage_loss2/classifier_plantvillage_0_split_1
I0403 15:20:18.848353 18951 net.cpp:399] loss2/classifier_plantvillage_loss2/classifier_plantvillage_0_split -> loss2/classifier_plantvillage_loss2/classifier_plantvillage_0_split_2
I0403 15:20:18.848430 18951 net.cpp:141] Setting up loss2/classifier_plantvillage_loss2/classifier_plantvillage_0_split
I0403 15:20:18.848453 18951 net.cpp:148] Top shape: 24 38 (912)
I0403 15:20:18.848469 18951 net.cpp:148] Top shape: 24 38 (912)
I0403 15:20:18.848484 18951 net.cpp:148] Top shape: 24 38 (912)
I0403 15:20:18.848495 18951 net.cpp:156] Memory required for data: 1208432160
I0403 15:20:18.848508 18951 layer_factory.hpp:77] Creating layer inception_4e/1x1
I0403 15:20:18.848527 18951 net.cpp:91] Creating Layer inception_4e/1x1
I0403 15:20:18.848543 18951 net.cpp:425] inception_4e/1x1 <- inception_4d/output_inception_4d/output_0_split_1
I0403 15:20:18.848563 18951 net.cpp:399] inception_4e/1x1 -> inception_4e/1x1
I0403 15:20:18.850360 18951 net.cpp:141] Setting up inception_4e/1x1
I0403 15:20:18.850389 18951 net.cpp:148] Top shape: 24 256 14 14 (1204224)
I0403 15:20:18.850402 18951 net.cpp:156] Memory required for data: 1213249056
I0403 15:20:18.850420 18951 layer_factory.hpp:77] Creating layer inception_4e/relu_1x1
I0403 15:20:18.850440 18951 net.cpp:91] Creating Layer inception_4e/relu_1x1
I0403 15:20:18.850456 18951 net.cpp:425] inception_4e/relu_1x1 <- inception_4e/1x1
I0403 15:20:18.850473 18951 net.cpp:386] inception_4e/relu_1x1 -> inception_4e/1x1 (in-place)
I0403 15:20:18.850761 18951 net.cpp:141] Setting up inception_4e/relu_1x1
I0403 15:20:18.850786 18951 net.cpp:148] Top shape: 24 256 14 14 (1204224)
I0403 15:20:18.850800 18951 net.cpp:156] Memory required for data: 1218065952
I0403 15:20:18.850814 18951 layer_factory.hpp:77] Creating layer inception_4e/3x3_reduce
I0403 15:20:18.850836 18951 net.cpp:91] Creating Layer inception_4e/3x3_reduce
I0403 15:20:18.850854 18951 net.cpp:425] inception_4e/3x3_reduce <- inception_4d/output_inception_4d/output_0_split_2
I0403 15:20:18.850872 18951 net.cpp:399] inception_4e/3x3_reduce -> inception_4e/3x3_reduce
I0403 15:20:18.852963 18951 net.cpp:141] Setting up inception_4e/3x3_reduce
I0403 15:20:18.852995 18951 net.cpp:148] Top shape: 24 160 14 14 (752640)
I0403 15:20:18.853011 18951 net.cpp:156] Memory required for data: 1221076512
I0403 15:20:18.853029 18951 layer_factory.hpp:77] Creating layer inception_4e/relu_3x3_reduce
I0403 15:20:18.853049 18951 net.cpp:91] Creating Layer inception_4e/relu_3x3_reduce
I0403 15:20:18.853065 18951 net.cpp:425] inception_4e/relu_3x3_reduce <- inception_4e/3x3_reduce
I0403 15:20:18.853081 18951 net.cpp:386] inception_4e/relu_3x3_reduce -> inception_4e/3x3_reduce (in-place)
I0403 15:20:18.853268 18951 net.cpp:141] Setting up inception_4e/relu_3x3_reduce
I0403 15:20:18.853296 18951 net.cpp:148] Top shape: 24 160 14 14 (752640)
I0403 15:20:18.853309 18951 net.cpp:156] Memory required for data: 1224087072
I0403 15:20:18.853323 18951 layer_factory.hpp:77] Creating layer inception_4e/3x3
I0403 15:20:18.853345 18951 net.cpp:91] Creating Layer inception_4e/3x3
I0403 15:20:18.853361 18951 net.cpp:425] inception_4e/3x3 <- inception_4e/3x3_reduce
I0403 15:20:18.853379 18951 net.cpp:399] inception_4e/3x3 -> inception_4e/3x3
I0403 15:20:18.858256 18951 net.cpp:141] Setting up inception_4e/3x3
I0403 15:20:18.858299 18951 net.cpp:148] Top shape: 24 320 14 14 (1505280)
I0403 15:20:18.858315 18951 net.cpp:156] Memory required for data: 1230108192
I0403 15:20:18.858332 18951 layer_factory.hpp:77] Creating layer inception_4e/relu_3x3
I0403 15:20:18.858350 18951 net.cpp:91] Creating Layer inception_4e/relu_3x3
I0403 15:20:18.858366 18951 net.cpp:425] inception_4e/relu_3x3 <- inception_4e/3x3
I0403 15:20:18.858386 18951 net.cpp:386] inception_4e/relu_3x3 -> inception_4e/3x3 (in-place)
I0403 15:20:18.858678 18951 net.cpp:141] Setting up inception_4e/relu_3x3
I0403 15:20:18.858705 18951 net.cpp:148] Top shape: 24 320 14 14 (1505280)
I0403 15:20:18.858721 18951 net.cpp:156] Memory required for data: 1236129312
I0403 15:20:18.858736 18951 layer_factory.hpp:77] Creating layer inception_4e/5x5_reduce
I0403 15:20:18.858757 18951 net.cpp:91] Creating Layer inception_4e/5x5_reduce
I0403 15:20:18.858775 18951 net.cpp:425] inception_4e/5x5_reduce <- inception_4d/output_inception_4d/output_0_split_3
I0403 15:20:18.858795 18951 net.cpp:399] inception_4e/5x5_reduce -> inception_4e/5x5_reduce
I0403 15:20:18.859858 18951 net.cpp:141] Setting up inception_4e/5x5_reduce
I0403 15:20:18.859884 18951 net.cpp:148] Top shape: 24 32 14 14 (150528)
I0403 15:20:18.859899 18951 net.cpp:156] Memory required for data: 1236731424
I0403 15:20:18.859916 18951 layer_factory.hpp:77] Creating layer inception_4e/relu_5x5_reduce
I0403 15:20:18.859935 18951 net.cpp:91] Creating Layer inception_4e/relu_5x5_reduce
I0403 15:20:18.859952 18951 net.cpp:425] inception_4e/relu_5x5_reduce <- inception_4e/5x5_reduce
I0403 15:20:18.859968 18951 net.cpp:386] inception_4e/relu_5x5_reduce -> inception_4e/5x5_reduce (in-place)
I0403 15:20:18.860267 18951 net.cpp:141] Setting up inception_4e/relu_5x5_reduce
I0403 15:20:18.860292 18951 net.cpp:148] Top shape: 24 32 14 14 (150528)
I0403 15:20:18.860307 18951 net.cpp:156] Memory required for data: 1237333536
I0403 15:20:18.860321 18951 layer_factory.hpp:77] Creating layer inception_4e/5x5
I0403 15:20:18.860358 18951 net.cpp:91] Creating Layer inception_4e/5x5
I0403 15:20:18.860378 18951 net.cpp:425] inception_4e/5x5 <- inception_4e/5x5_reduce
I0403 15:20:18.860397 18951 net.cpp:399] inception_4e/5x5 -> inception_4e/5x5
I0403 15:20:18.862246 18951 net.cpp:141] Setting up inception_4e/5x5
I0403 15:20:18.862273 18951 net.cpp:148] Top shape: 24 128 14 14 (602112)
I0403 15:20:18.862288 18951 net.cpp:156] Memory required for data: 1239741984
I0403 15:20:18.862308 18951 layer_factory.hpp:77] Creating layer inception_4e/relu_5x5
I0403 15:20:18.862335 18951 net.cpp:91] Creating Layer inception_4e/relu_5x5
I0403 15:20:18.862350 18951 net.cpp:425] inception_4e/relu_5x5 <- inception_4e/5x5
I0403 15:20:18.862370 18951 net.cpp:386] inception_4e/relu_5x5 -> inception_4e/5x5 (in-place)
I0403 15:20:18.862571 18951 net.cpp:141] Setting up inception_4e/relu_5x5
I0403 15:20:18.862596 18951 net.cpp:148] Top shape: 24 128 14 14 (602112)
I0403 15:20:18.862610 18951 net.cpp:156] Memory required for data: 1242150432
I0403 15:20:18.862624 18951 layer_factory.hpp:77] Creating layer inception_4e/pool
I0403 15:20:18.862644 18951 net.cpp:91] Creating Layer inception_4e/pool
I0403 15:20:18.862661 18951 net.cpp:425] inception_4e/pool <- inception_4d/output_inception_4d/output_0_split_4
I0403 15:20:18.862679 18951 net.cpp:399] inception_4e/pool -> inception_4e/pool
I0403 15:20:18.862751 18951 net.cpp:141] Setting up inception_4e/pool
I0403 15:20:18.862774 18951 net.cpp:148] Top shape: 24 528 14 14 (2483712)
I0403 15:20:18.862788 18951 net.cpp:156] Memory required for data: 1252085280
I0403 15:20:18.862802 18951 layer_factory.hpp:77] Creating layer inception_4e/pool_proj
I0403 15:20:18.862823 18951 net.cpp:91] Creating Layer inception_4e/pool_proj
I0403 15:20:18.862841 18951 net.cpp:425] inception_4e/pool_proj <- inception_4e/pool
I0403 15:20:18.862861 18951 net.cpp:399] inception_4e/pool_proj -> inception_4e/pool_proj
I0403 15:20:18.864387 18951 net.cpp:141] Setting up inception_4e/pool_proj
I0403 15:20:18.864426 18951 net.cpp:148] Top shape: 24 128 14 14 (602112)
I0403 15:20:18.864441 18951 net.cpp:156] Memory required for data: 1254493728
I0403 15:20:18.864459 18951 layer_factory.hpp:77] Creating layer inception_4e/relu_pool_proj
I0403 15:20:18.864476 18951 net.cpp:91] Creating Layer inception_4e/relu_pool_proj
I0403 15:20:18.864491 18951 net.cpp:425] inception_4e/relu_pool_proj <- inception_4e/pool_proj
I0403 15:20:18.864511 18951 net.cpp:386] inception_4e/relu_pool_proj -> inception_4e/pool_proj (in-place)
I0403 15:20:18.864863 18951 net.cpp:141] Setting up inception_4e/relu_pool_proj
I0403 15:20:18.864892 18951 net.cpp:148] Top shape: 24 128 14 14 (602112)
I0403 15:20:18.864907 18951 net.cpp:156] Memory required for data: 1256902176
I0403 15:20:18.864922 18951 layer_factory.hpp:77] Creating layer inception_4e/output
I0403 15:20:18.864939 18951 net.cpp:91] Creating Layer inception_4e/output
I0403 15:20:18.864955 18951 net.cpp:425] inception_4e/output <- inception_4e/1x1
I0403 15:20:18.864971 18951 net.cpp:425] inception_4e/output <- inception_4e/3x3
I0403 15:20:18.864991 18951 net.cpp:425] inception_4e/output <- inception_4e/5x5
I0403 15:20:18.865020 18951 net.cpp:425] inception_4e/output <- inception_4e/pool_proj
I0403 15:20:18.865039 18951 net.cpp:399] inception_4e/output -> inception_4e/output
I0403 15:20:18.865089 18951 net.cpp:141] Setting up inception_4e/output
I0403 15:20:18.865116 18951 net.cpp:148] Top shape: 24 832 14 14 (3913728)
I0403 15:20:18.865130 18951 net.cpp:156] Memory required for data: 1272557088
I0403 15:20:18.865144 18951 layer_factory.hpp:77] Creating layer pool4/3x3_s2
I0403 15:20:18.865161 18951 net.cpp:91] Creating Layer pool4/3x3_s2
I0403 15:20:18.865176 18951 net.cpp:425] pool4/3x3_s2 <- inception_4e/output
I0403 15:20:18.865195 18951 net.cpp:399] pool4/3x3_s2 -> pool4/3x3_s2
I0403 15:20:18.865262 18951 net.cpp:141] Setting up pool4/3x3_s2
I0403 15:20:18.865285 18951 net.cpp:148] Top shape: 24 832 7 7 (978432)
I0403 15:20:18.865299 18951 net.cpp:156] Memory required for data: 1276470816
I0403 15:20:18.865314 18951 layer_factory.hpp:77] Creating layer pool4/3x3_s2_pool4/3x3_s2_0_split
I0403 15:20:18.865331 18951 net.cpp:91] Creating Layer pool4/3x3_s2_pool4/3x3_s2_0_split
I0403 15:20:18.865347 18951 net.cpp:425] pool4/3x3_s2_pool4/3x3_s2_0_split <- pool4/3x3_s2
I0403 15:20:18.865365 18951 net.cpp:399] pool4/3x3_s2_pool4/3x3_s2_0_split -> pool4/3x3_s2_pool4/3x3_s2_0_split_0
I0403 15:20:18.865384 18951 net.cpp:399] pool4/3x3_s2_pool4/3x3_s2_0_split -> pool4/3x3_s2_pool4/3x3_s2_0_split_1
I0403 15:20:18.865404 18951 net.cpp:399] pool4/3x3_s2_pool4/3x3_s2_0_split -> pool4/3x3_s2_pool4/3x3_s2_0_split_2
I0403 15:20:18.865427 18951 net.cpp:399] pool4/3x3_s2_pool4/3x3_s2_0_split -> pool4/3x3_s2_pool4/3x3_s2_0_split_3
I0403 15:20:18.865520 18951 net.cpp:141] Setting up pool4/3x3_s2_pool4/3x3_s2_0_split
I0403 15:20:18.865545 18951 net.cpp:148] Top shape: 24 832 7 7 (978432)
I0403 15:20:18.865559 18951 net.cpp:148] Top shape: 24 832 7 7 (978432)
I0403 15:20:18.865573 18951 net.cpp:148] Top shape: 24 832 7 7 (978432)
I0403 15:20:18.865588 18951 net.cpp:148] Top shape: 24 832 7 7 (978432)
I0403 15:20:18.865602 18951 net.cpp:156] Memory required for data: 1292125728
I0403 15:20:18.865615 18951 layer_factory.hpp:77] Creating layer inception_5a/1x1
I0403 15:20:18.865636 18951 net.cpp:91] Creating Layer inception_5a/1x1
I0403 15:20:18.865653 18951 net.cpp:425] inception_5a/1x1 <- pool4/3x3_s2_pool4/3x3_s2_0_split_0
I0403 15:20:18.865674 18951 net.cpp:399] inception_5a/1x1 -> inception_5a/1x1
I0403 15:20:18.868569 18951 net.cpp:141] Setting up inception_5a/1x1
I0403 15:20:18.868598 18951 net.cpp:148] Top shape: 24 256 7 7 (301056)
I0403 15:20:18.868613 18951 net.cpp:156] Memory required for data: 1293329952
I0403 15:20:18.868631 18951 layer_factory.hpp:77] Creating layer inception_5a/relu_1x1
I0403 15:20:18.868651 18951 net.cpp:91] Creating Layer inception_5a/relu_1x1
I0403 15:20:18.868667 18951 net.cpp:425] inception_5a/relu_1x1 <- inception_5a/1x1
I0403 15:20:18.868685 18951 net.cpp:386] inception_5a/relu_1x1 -> inception_5a/1x1 (in-place)
I0403 15:20:18.869009 18951 net.cpp:141] Setting up inception_5a/relu_1x1
I0403 15:20:18.869035 18951 net.cpp:148] Top shape: 24 256 7 7 (301056)
I0403 15:20:18.869050 18951 net.cpp:156] Memory required for data: 1294534176
I0403 15:20:18.869063 18951 layer_factory.hpp:77] Creating layer inception_5a/3x3_reduce
I0403 15:20:18.869086 18951 net.cpp:91] Creating Layer inception_5a/3x3_reduce
I0403 15:20:18.869103 18951 net.cpp:425] inception_5a/3x3_reduce <- pool4/3x3_s2_pool4/3x3_s2_0_split_1
I0403 15:20:18.869124 18951 net.cpp:399] inception_5a/3x3_reduce -> inception_5a/3x3_reduce
I0403 15:20:18.871628 18951 net.cpp:141] Setting up inception_5a/3x3_reduce
I0403 15:20:18.871656 18951 net.cpp:148] Top shape: 24 160 7 7 (188160)
I0403 15:20:18.871672 18951 net.cpp:156] Memory required for data: 1295286816
I0403 15:20:18.871690 18951 layer_factory.hpp:77] Creating layer inception_5a/relu_3x3_reduce
I0403 15:20:18.871708 18951 net.cpp:91] Creating Layer inception_5a/relu_3x3_reduce
I0403 15:20:18.871723 18951 net.cpp:425] inception_5a/relu_3x3_reduce <- inception_5a/3x3_reduce
I0403 15:20:18.871742 18951 net.cpp:386] inception_5a/relu_3x3_reduce -> inception_5a/3x3_reduce (in-place)
I0403 15:20:18.871932 18951 net.cpp:141] Setting up inception_5a/relu_3x3_reduce
I0403 15:20:18.871958 18951 net.cpp:148] Top shape: 24 160 7 7 (188160)
I0403 15:20:18.871971 18951 net.cpp:156] Memory required for data: 1296039456
I0403 15:20:18.871990 18951 layer_factory.hpp:77] Creating layer inception_5a/3x3
I0403 15:20:18.872014 18951 net.cpp:91] Creating Layer inception_5a/3x3
I0403 15:20:18.872030 18951 net.cpp:425] inception_5a/3x3 <- inception_5a/3x3_reduce
I0403 15:20:18.872052 18951 net.cpp:399] inception_5a/3x3 -> inception_5a/3x3
I0403 15:20:18.877106 18951 net.cpp:141] Setting up inception_5a/3x3
I0403 15:20:18.877135 18951 net.cpp:148] Top shape: 24 320 7 7 (376320)
I0403 15:20:18.877151 18951 net.cpp:156] Memory required for data: 1297544736
I0403 15:20:18.877168 18951 layer_factory.hpp:77] Creating layer inception_5a/relu_3x3
I0403 15:20:18.877188 18951 net.cpp:91] Creating Layer inception_5a/relu_3x3
I0403 15:20:18.877205 18951 net.cpp:425] inception_5a/relu_3x3 <- inception_5a/3x3
I0403 15:20:18.877223 18951 net.cpp:386] inception_5a/relu_3x3 -> inception_5a/3x3 (in-place)
I0403 15:20:18.877519 18951 net.cpp:141] Setting up inception_5a/relu_3x3
I0403 15:20:18.877545 18951 net.cpp:148] Top shape: 24 320 7 7 (376320)
I0403 15:20:18.877559 18951 net.cpp:156] Memory required for data: 1299050016
I0403 15:20:18.877574 18951 layer_factory.hpp:77] Creating layer inception_5a/5x5_reduce
I0403 15:20:18.877596 18951 net.cpp:91] Creating Layer inception_5a/5x5_reduce
I0403 15:20:18.877614 18951 net.cpp:425] inception_5a/5x5_reduce <- pool4/3x3_s2_pool4/3x3_s2_0_split_2
I0403 15:20:18.877636 18951 net.cpp:399] inception_5a/5x5_reduce -> inception_5a/5x5_reduce
I0403 15:20:18.878820 18951 net.cpp:141] Setting up inception_5a/5x5_reduce
I0403 15:20:18.878851 18951 net.cpp:148] Top shape: 24 32 7 7 (37632)
I0403 15:20:18.878867 18951 net.cpp:156] Memory required for data: 1299200544
I0403 15:20:18.878886 18951 layer_factory.hpp:77] Creating layer inception_5a/relu_5x5_reduce
I0403 15:20:18.878903 18951 net.cpp:91] Creating Layer inception_5a/relu_5x5_reduce
I0403 15:20:18.878919 18951 net.cpp:425] inception_5a/relu_5x5_reduce <- inception_5a/5x5_reduce
I0403 15:20:18.878937 18951 net.cpp:386] inception_5a/relu_5x5_reduce -> inception_5a/5x5_reduce (in-place)
I0403 15:20:18.879253 18951 net.cpp:141] Setting up inception_5a/relu_5x5_reduce
I0403 15:20:18.879279 18951 net.cpp:148] Top shape: 24 32 7 7 (37632)
I0403 15:20:18.879293 18951 net.cpp:156] Memory required for data: 1299351072
I0403 15:20:18.879307 18951 layer_factory.hpp:77] Creating layer inception_5a/5x5
I0403 15:20:18.879329 18951 net.cpp:91] Creating Layer inception_5a/5x5
I0403 15:20:18.879348 18951 net.cpp:425] inception_5a/5x5 <- inception_5a/5x5_reduce
I0403 15:20:18.879369 18951 net.cpp:399] inception_5a/5x5 -> inception_5a/5x5
I0403 15:20:18.881093 18951 net.cpp:141] Setting up inception_5a/5x5
I0403 15:20:18.881134 18951 net.cpp:148] Top shape: 24 128 7 7 (150528)
I0403 15:20:18.881148 18951 net.cpp:156] Memory required for data: 1299953184
I0403 15:20:18.881166 18951 layer_factory.hpp:77] Creating layer inception_5a/relu_5x5
I0403 15:20:18.881186 18951 net.cpp:91] Creating Layer inception_5a/relu_5x5
I0403 15:20:18.881202 18951 net.cpp:425] inception_5a/relu_5x5 <- inception_5a/5x5
I0403 15:20:18.881218 18951 net.cpp:386] inception_5a/relu_5x5 -> inception_5a/5x5 (in-place)
I0403 15:20:18.881404 18951 net.cpp:141] Setting up inception_5a/relu_5x5
I0403 15:20:18.881430 18951 net.cpp:148] Top shape: 24 128 7 7 (150528)
I0403 15:20:18.881444 18951 net.cpp:156] Memory required for data: 1300555296
I0403 15:20:18.881458 18951 layer_factory.hpp:77] Creating layer inception_5a/pool
I0403 15:20:18.881475 18951 net.cpp:91] Creating Layer inception_5a/pool
I0403 15:20:18.881490 18951 net.cpp:425] inception_5a/pool <- pool4/3x3_s2_pool4/3x3_s2_0_split_3
I0403 15:20:18.881507 18951 net.cpp:399] inception_5a/pool -> inception_5a/pool
I0403 15:20:18.881577 18951 net.cpp:141] Setting up inception_5a/pool
I0403 15:20:18.881599 18951 net.cpp:148] Top shape: 24 832 7 7 (978432)
I0403 15:20:18.881613 18951 net.cpp:156] Memory required for data: 1304469024
I0403 15:20:18.881626 18951 layer_factory.hpp:77] Creating layer inception_5a/pool_proj
I0403 15:20:18.881647 18951 net.cpp:91] Creating Layer inception_5a/pool_proj
I0403 15:20:18.881664 18951 net.cpp:425] inception_5a/pool_proj <- inception_5a/pool
I0403 15:20:18.881685 18951 net.cpp:399] inception_5a/pool_proj -> inception_5a/pool_proj
I0403 15:20:18.883918 18951 net.cpp:141] Setting up inception_5a/pool_proj
I0403 15:20:18.883945 18951 net.cpp:148] Top shape: 24 128 7 7 (150528)
I0403 15:20:18.883960 18951 net.cpp:156] Memory required for data: 1305071136
I0403 15:20:18.883977 18951 layer_factory.hpp:77] Creating layer inception_5a/relu_pool_proj
I0403 15:20:18.884001 18951 net.cpp:91] Creating Layer inception_5a/relu_pool_proj
I0403 15:20:18.884018 18951 net.cpp:425] inception_5a/relu_pool_proj <- inception_5a/pool_proj
I0403 15:20:18.884035 18951 net.cpp:386] inception_5a/relu_pool_proj -> inception_5a/pool_proj (in-place)
I0403 15:20:18.884326 18951 net.cpp:141] Setting up inception_5a/relu_pool_proj
I0403 15:20:18.884351 18951 net.cpp:148] Top shape: 24 128 7 7 (150528)
I0403 15:20:18.884366 18951 net.cpp:156] Memory required for data: 1305673248
I0403 15:20:18.884380 18951 layer_factory.hpp:77] Creating layer inception_5a/output
I0403 15:20:18.884397 18951 net.cpp:91] Creating Layer inception_5a/output
I0403 15:20:18.884412 18951 net.cpp:425] inception_5a/output <- inception_5a/1x1
I0403 15:20:18.884426 18951 net.cpp:425] inception_5a/output <- inception_5a/3x3
I0403 15:20:18.884443 18951 net.cpp:425] inception_5a/output <- inception_5a/5x5
I0403 15:20:18.884457 18951 net.cpp:425] inception_5a/output <- inception_5a/pool_proj
I0403 15:20:18.884475 18951 net.cpp:399] inception_5a/output -> inception_5a/output
I0403 15:20:18.884526 18951 net.cpp:141] Setting up inception_5a/output
I0403 15:20:18.884551 18951 net.cpp:148] Top shape: 24 832 7 7 (978432)
I0403 15:20:18.884564 18951 net.cpp:156] Memory required for data: 1309586976
I0403 15:20:18.884578 18951 layer_factory.hpp:77] Creating layer inception_5a/output_inception_5a/output_0_split
I0403 15:20:18.884594 18951 net.cpp:91] Creating Layer inception_5a/output_inception_5a/output_0_split
I0403 15:20:18.884609 18951 net.cpp:425] inception_5a/output_inception_5a/output_0_split <- inception_5a/output
I0403 15:20:18.884626 18951 net.cpp:399] inception_5a/output_inception_5a/output_0_split -> inception_5a/output_inception_5a/output_0_split_0
I0403 15:20:18.884649 18951 net.cpp:399] inception_5a/output_inception_5a/output_0_split -> inception_5a/output_inception_5a/output_0_split_1
I0403 15:20:18.884668 18951 net.cpp:399] inception_5a/output_inception_5a/output_0_split -> inception_5a/output_inception_5a/output_0_split_2
I0403 15:20:18.884688 18951 net.cpp:399] inception_5a/output_inception_5a/output_0_split -> inception_5a/output_inception_5a/output_0_split_3
I0403 15:20:18.884795 18951 net.cpp:141] Setting up inception_5a/output_inception_5a/output_0_split
I0403 15:20:18.884819 18951 net.cpp:148] Top shape: 24 832 7 7 (978432)
I0403 15:20:18.884834 18951 net.cpp:148] Top shape: 24 832 7 7 (978432)
I0403 15:20:18.884847 18951 net.cpp:148] Top shape: 24 832 7 7 (978432)
I0403 15:20:18.884862 18951 net.cpp:148] Top shape: 24 832 7 7 (978432)
I0403 15:20:18.884876 18951 net.cpp:156] Memory required for data: 1325241888
I0403 15:20:18.884889 18951 layer_factory.hpp:77] Creating layer inception_5b/1x1
I0403 15:20:18.884910 18951 net.cpp:91] Creating Layer inception_5b/1x1
I0403 15:20:18.884927 18951 net.cpp:425] inception_5b/1x1 <- inception_5a/output_inception_5a/output_0_split_0
I0403 15:20:18.884948 18951 net.cpp:399] inception_5b/1x1 -> inception_5b/1x1
I0403 15:20:18.888622 18951 net.cpp:141] Setting up inception_5b/1x1
I0403 15:20:18.888649 18951 net.cpp:148] Top shape: 24 384 7 7 (451584)
I0403 15:20:18.888665 18951 net.cpp:156] Memory required for data: 1327048224
I0403 15:20:18.888682 18951 layer_factory.hpp:77] Creating layer inception_5b/relu_1x1
I0403 15:20:18.888700 18951 net.cpp:91] Creating Layer inception_5b/relu_1x1
I0403 15:20:18.888715 18951 net.cpp:425] inception_5b/relu_1x1 <- inception_5b/1x1
I0403 15:20:18.888733 18951 net.cpp:386] inception_5b/relu_1x1 -> inception_5b/1x1 (in-place)
I0403 15:20:18.889046 18951 net.cpp:141] Setting up inception_5b/relu_1x1
I0403 15:20:18.889072 18951 net.cpp:148] Top shape: 24 384 7 7 (451584)
I0403 15:20:18.889086 18951 net.cpp:156] Memory required for data: 1328854560
I0403 15:20:18.889101 18951 layer_factory.hpp:77] Creating layer inception_5b/3x3_reduce
I0403 15:20:18.889122 18951 net.cpp:91] Creating Layer inception_5b/3x3_reduce
I0403 15:20:18.889139 18951 net.cpp:425] inception_5b/3x3_reduce <- inception_5a/output_inception_5a/output_0_split_1
I0403 15:20:18.889161 18951 net.cpp:399] inception_5b/3x3_reduce -> inception_5b/3x3_reduce
I0403 15:20:18.891799 18951 net.cpp:141] Setting up inception_5b/3x3_reduce
I0403 15:20:18.891829 18951 net.cpp:148] Top shape: 24 192 7 7 (225792)
I0403 15:20:18.891844 18951 net.cpp:156] Memory required for data: 1329757728
I0403 15:20:18.891860 18951 layer_factory.hpp:77] Creating layer inception_5b/relu_3x3_reduce
I0403 15:20:18.891877 18951 net.cpp:91] Creating Layer inception_5b/relu_3x3_reduce
I0403 15:20:18.891893 18951 net.cpp:425] inception_5b/relu_3x3_reduce <- inception_5b/3x3_reduce
I0403 15:20:18.891912 18951 net.cpp:386] inception_5b/relu_3x3_reduce -> inception_5b/3x3_reduce (in-place)
I0403 15:20:18.892103 18951 net.cpp:141] Setting up inception_5b/relu_3x3_reduce
I0403 15:20:18.892127 18951 net.cpp:148] Top shape: 24 192 7 7 (225792)
I0403 15:20:18.892140 18951 net.cpp:156] Memory required for data: 1330660896
I0403 15:20:18.892154 18951 layer_factory.hpp:77] Creating layer inception_5b/3x3
I0403 15:20:18.892175 18951 net.cpp:91] Creating Layer inception_5b/3x3
I0403 15:20:18.892192 18951 net.cpp:425] inception_5b/3x3 <- inception_5b/3x3_reduce
I0403 15:20:18.892215 18951 net.cpp:399] inception_5b/3x3 -> inception_5b/3x3
I0403 15:20:18.898805 18951 net.cpp:141] Setting up inception_5b/3x3
I0403 15:20:18.898833 18951 net.cpp:148] Top shape: 24 384 7 7 (451584)
I0403 15:20:18.898849 18951 net.cpp:156] Memory required for data: 1332467232
I0403 15:20:18.898865 18951 layer_factory.hpp:77] Creating layer inception_5b/relu_3x3
I0403 15:20:18.898885 18951 net.cpp:91] Creating Layer inception_5b/relu_3x3
I0403 15:20:18.898901 18951 net.cpp:425] inception_5b/relu_3x3 <- inception_5b/3x3
I0403 15:20:18.898918 18951 net.cpp:386] inception_5b/relu_3x3 -> inception_5b/3x3 (in-place)
I0403 15:20:18.899222 18951 net.cpp:141] Setting up inception_5b/relu_3x3
I0403 15:20:18.899248 18951 net.cpp:148] Top shape: 24 384 7 7 (451584)
I0403 15:20:18.899262 18951 net.cpp:156] Memory required for data: 1334273568
I0403 15:20:18.899276 18951 layer_factory.hpp:77] Creating layer inception_5b/5x5_reduce
I0403 15:20:18.899312 18951 net.cpp:91] Creating Layer inception_5b/5x5_reduce
I0403 15:20:18.899330 18951 net.cpp:425] inception_5b/5x5_reduce <- inception_5a/output_inception_5a/output_0_split_2
I0403 15:20:18.899353 18951 net.cpp:399] inception_5b/5x5_reduce -> inception_5b/5x5_reduce
I0403 15:20:18.900606 18951 net.cpp:141] Setting up inception_5b/5x5_reduce
I0403 15:20:18.900634 18951 net.cpp:148] Top shape: 24 48 7 7 (56448)
I0403 15:20:18.900647 18951 net.cpp:156] Memory required for data: 1334499360
I0403 15:20:18.900665 18951 layer_factory.hpp:77] Creating layer inception_5b/relu_5x5_reduce
I0403 15:20:18.900681 18951 net.cpp:91] Creating Layer inception_5b/relu_5x5_reduce
I0403 15:20:18.900697 18951 net.cpp:425] inception_5b/relu_5x5_reduce <- inception_5b/5x5_reduce
I0403 15:20:18.900715 18951 net.cpp:386] inception_5b/relu_5x5_reduce -> inception_5b/5x5_reduce (in-place)
I0403 15:20:18.901087 18951 net.cpp:141] Setting up inception_5b/relu_5x5_reduce
I0403 15:20:18.901113 18951 net.cpp:148] Top shape: 24 48 7 7 (56448)
I0403 15:20:18.901127 18951 net.cpp:156] Memory required for data: 1334725152
I0403 15:20:18.901141 18951 layer_factory.hpp:77] Creating layer inception_5b/5x5
I0403 15:20:18.901160 18951 net.cpp:91] Creating Layer inception_5b/5x5
I0403 15:20:18.901176 18951 net.cpp:425] inception_5b/5x5 <- inception_5b/5x5_reduce
I0403 15:20:18.901196 18951 net.cpp:399] inception_5b/5x5 -> inception_5b/5x5
I0403 15:20:18.903205 18951 net.cpp:141] Setting up inception_5b/5x5
I0403 15:20:18.903233 18951 net.cpp:148] Top shape: 24 128 7 7 (150528)
I0403 15:20:18.903247 18951 net.cpp:156] Memory required for data: 1335327264
I0403 15:20:18.903264 18951 layer_factory.hpp:77] Creating layer inception_5b/relu_5x5
I0403 15:20:18.903286 18951 net.cpp:91] Creating Layer inception_5b/relu_5x5
I0403 15:20:18.903303 18951 net.cpp:425] inception_5b/relu_5x5 <- inception_5b/5x5
I0403 15:20:18.903319 18951 net.cpp:386] inception_5b/relu_5x5 -> inception_5b/5x5 (in-place)
I0403 15:20:18.903512 18951 net.cpp:141] Setting up inception_5b/relu_5x5
I0403 15:20:18.903537 18951 net.cpp:148] Top shape: 24 128 7 7 (150528)
I0403 15:20:18.903549 18951 net.cpp:156] Memory required for data: 1335929376
I0403 15:20:18.903563 18951 layer_factory.hpp:77] Creating layer inception_5b/pool
I0403 15:20:18.903583 18951 net.cpp:91] Creating Layer inception_5b/pool
I0403 15:20:18.903599 18951 net.cpp:425] inception_5b/pool <- inception_5a/output_inception_5a/output_0_split_3
I0403 15:20:18.903615 18951 net.cpp:399] inception_5b/pool -> inception_5b/pool
I0403 15:20:18.903688 18951 net.cpp:141] Setting up inception_5b/pool
I0403 15:20:18.903712 18951 net.cpp:148] Top shape: 24 832 7 7 (978432)
I0403 15:20:18.903725 18951 net.cpp:156] Memory required for data: 1339843104
I0403 15:20:18.903739 18951 layer_factory.hpp:77] Creating layer inception_5b/pool_proj
I0403 15:20:18.903759 18951 net.cpp:91] Creating Layer inception_5b/pool_proj
I0403 15:20:18.903776 18951 net.cpp:425] inception_5b/pool_proj <- inception_5b/pool
I0403 15:20:18.903796 18951 net.cpp:399] inception_5b/pool_proj -> inception_5b/pool_proj
I0403 15:20:18.906078 18951 net.cpp:141] Setting up inception_5b/pool_proj
I0403 15:20:18.906107 18951 net.cpp:148] Top shape: 24 128 7 7 (150528)
I0403 15:20:18.906122 18951 net.cpp:156] Memory required for data: 1340445216
I0403 15:20:18.906141 18951 layer_factory.hpp:77] Creating layer inception_5b/relu_pool_proj
I0403 15:20:18.906157 18951 net.cpp:91] Creating Layer inception_5b/relu_pool_proj
I0403 15:20:18.906173 18951 net.cpp:425] inception_5b/relu_pool_proj <- inception_5b/pool_proj
I0403 15:20:18.906193 18951 net.cpp:386] inception_5b/relu_pool_proj -> inception_5b/pool_proj (in-place)
I0403 15:20:18.906493 18951 net.cpp:141] Setting up inception_5b/relu_pool_proj
I0403 15:20:18.906519 18951 net.cpp:148] Top shape: 24 128 7 7 (150528)
I0403 15:20:18.906533 18951 net.cpp:156] Memory required for data: 1341047328
I0403 15:20:18.906548 18951 layer_factory.hpp:77] Creating layer inception_5b/output
I0403 15:20:18.906564 18951 net.cpp:91] Creating Layer inception_5b/output
I0403 15:20:18.906594 18951 net.cpp:425] inception_5b/output <- inception_5b/1x1
I0403 15:20:18.906610 18951 net.cpp:425] inception_5b/output <- inception_5b/3x3
I0403 15:20:18.906626 18951 net.cpp:425] inception_5b/output <- inception_5b/5x5
I0403 15:20:18.906641 18951 net.cpp:425] inception_5b/output <- inception_5b/pool_proj
I0403 15:20:18.906659 18951 net.cpp:399] inception_5b/output -> inception_5b/output
I0403 15:20:18.906710 18951 net.cpp:141] Setting up inception_5b/output
I0403 15:20:18.906735 18951 net.cpp:148] Top shape: 24 1024 7 7 (1204224)
I0403 15:20:18.906749 18951 net.cpp:156] Memory required for data: 1345864224
I0403 15:20:18.906764 18951 layer_factory.hpp:77] Creating layer pool5/7x7_s1
I0403 15:20:18.906780 18951 net.cpp:91] Creating Layer pool5/7x7_s1
I0403 15:20:18.906796 18951 net.cpp:425] pool5/7x7_s1 <- inception_5b/output
I0403 15:20:18.906816 18951 net.cpp:399] pool5/7x7_s1 -> pool5/7x7_s1
I0403 15:20:18.907034 18951 net.cpp:141] Setting up pool5/7x7_s1
I0403 15:20:18.907059 18951 net.cpp:148] Top shape: 24 1024 1 1 (24576)
I0403 15:20:18.907073 18951 net.cpp:156] Memory required for data: 1345962528
I0403 15:20:18.907088 18951 layer_factory.hpp:77] Creating layer pool5/drop_7x7_s1
I0403 15:20:18.907104 18951 net.cpp:91] Creating Layer pool5/drop_7x7_s1
I0403 15:20:18.907119 18951 net.cpp:425] pool5/drop_7x7_s1 <- pool5/7x7_s1
I0403 15:20:18.907138 18951 net.cpp:386] pool5/drop_7x7_s1 -> pool5/7x7_s1 (in-place)
I0403 15:20:18.907189 18951 net.cpp:141] Setting up pool5/drop_7x7_s1
I0403 15:20:18.907212 18951 net.cpp:148] Top shape: 24 1024 1 1 (24576)
I0403 15:20:18.907227 18951 net.cpp:156] Memory required for data: 1346060832
I0403 15:20:18.907239 18951 layer_factory.hpp:77] Creating layer loss3/classifier_plantvillage
I0403 15:20:18.907258 18951 net.cpp:91] Creating Layer loss3/classifier_plantvillage
I0403 15:20:18.907272 18951 net.cpp:425] loss3/classifier_plantvillage <- pool5/7x7_s1
I0403 15:20:18.907292 18951 net.cpp:399] loss3/classifier_plantvillage -> loss3/classifier_plantvillage
I0403 15:20:18.907709 18951 net.cpp:141] Setting up loss3/classifier_plantvillage
I0403 15:20:18.907732 18951 net.cpp:148] Top shape: 24 38 (912)
I0403 15:20:18.907747 18951 net.cpp:156] Memory required for data: 1346064480
I0403 15:20:18.907763 18951 layer_factory.hpp:77] Creating layer loss3/classifier_plantvillage_loss3/classifier_plantvillage_0_split
I0403 15:20:18.907783 18951 net.cpp:91] Creating Layer loss3/classifier_plantvillage_loss3/classifier_plantvillage_0_split
I0403 15:20:18.907799 18951 net.cpp:425] loss3/classifier_plantvillage_loss3/classifier_plantvillage_0_split <- loss3/classifier_plantvillage
I0403 15:20:18.907819 18951 net.cpp:399] loss3/classifier_plantvillage_loss3/classifier_plantvillage_0_split -> loss3/classifier_plantvillage_loss3/classifier_plantvillage_0_split_0
I0403 15:20:18.907840 18951 net.cpp:399] loss3/classifier_plantvillage_loss3/classifier_plantvillage_0_split -> loss3/classifier_plantvillage_loss3/classifier_plantvillage_0_split_1
I0403 15:20:18.907858 18951 net.cpp:399] loss3/classifier_plantvillage_loss3/classifier_plantvillage_0_split -> loss3/classifier_plantvillage_loss3/classifier_plantvillage_0_split_2
I0403 15:20:18.907877 18951 net.cpp:399] loss3/classifier_plantvillage_loss3/classifier_plantvillage_0_split -> loss3/classifier_plantvillage_loss3/classifier_plantvillage_0_split_3
I0403 15:20:18.907975 18951 net.cpp:141] Setting up loss3/classifier_plantvillage_loss3/classifier_plantvillage_0_split
I0403 15:20:18.908002 18951 net.cpp:148] Top shape: 24 38 (912)
I0403 15:20:18.908018 18951 net.cpp:148] Top shape: 24 38 (912)
I0403 15:20:18.908032 18951 net.cpp:148] Top shape: 24 38 (912)
I0403 15:20:18.908046 18951 net.cpp:148] Top shape: 24 38 (912)
I0403 15:20:18.908059 18951 net.cpp:156] Memory required for data: 1346079072
I0403 15:20:18.908072 18951 layer_factory.hpp:77] Creating layer loss1/loss
I0403 15:20:18.908093 18951 net.cpp:91] Creating Layer loss1/loss
I0403 15:20:18.908109 18951 net.cpp:425] loss1/loss <- loss1/classifier_plantvillage_loss1/classifier_plantvillage_0_split_0
I0403 15:20:18.908139 18951 net.cpp:425] loss1/loss <- label_data_1_split_0
…
