…
I0403 15:10:02.080296 18366 net.cpp:313] The NetState phase (1) differed from the phase (0) specified by a rule in layer data
I0403 15:10:02.081456 18366 net.cpp:49] Initializing net from parameters: 
state {
  phase: TEST
}
layer {
  name: "data"
  type: "Data"
  top: "data"
  top: "label"
  include {
    phase: TEST
  }
  transform_param {
    mirror: false
    crop_size: 224
    mean_file: "/home/mohanty/data/final_dataset/lmdb/grayscale-40-60/mean.binaryproto"
  }
  data_param {
    source: "/home/mohanty/data/final_dataset/lmdb/grayscale-40-60/test_db"
    batch_size: 24
    backend: LMDB
  }
}
layer {
  name: "conv1/7x7_s2"
  type: "Convolution"
  bottom: "data"
  top: "conv1/7x7_s2"
  param {
    lr_mult: 1
    decay_mult: 1
  }
  param {
    lr_mult: 2
    decay_mult: 0
  }
  convolution_param {
    num_output: 64
    pad: 3
    kernel_size: 7
    stride: 2
    weight_filler {
      type: "xavier"
      std: 0.1
    }
    bias_filler {
      type: "constant"
      value: 0.2
    }
  }
}
layer {
  name: "conv1/relu_7x7"
  type: "ReLU"
  bottom: "conv1/7x7_s2"
  top: "conv1/7x7_s2"
}
layer {
  name: "pool1/3x3_s2"
  type: "Pooling"
  bottom: "conv1/7x7_s2"
  top: "pool1/3x3_s2"
  pooling_param {
    pool: MAX
    kernel_size: 3
    stride: 2
  }
}
layer {
  name: "pool1/norm1"
  type: "LRN"
  bottom: "pool1/3x3_s2"
  top: "pool1/norm1"
  lrn_param {
    local_size: 5
    alpha: 0.0001
    beta: 0.75
  }
}
layer {
  name: "conv2/3x3_reduce"
  type: "Convolution"
  bottom: "pool1/norm1"
  top: "conv2/3x3_reduce"
  param {
    lr_mult: 1
    decay_mult: 1
  }
  param {
    lr_mult: 2
    decay_mult: 0
  }
  convolution_param {
    num_output: 64
    kernel_size: 1
    weight_filler {
      type: "xavier"
      std: 0.1
    }
    bias_filler {
      type: "constant"
      value: 0.2
    }
  }
}
layer {
  name: "conv2/relu_3x3_reduce"
  type: "ReLU"
  bottom: "conv2/3x3_reduce"
  top: "conv2/3x3_reduce"
}
layer {
  name: "conv2/3x3"
  type: "Convolution"
  bottom: "conv2/3x3_reduce"
  top: "conv2/3x3"
  param {
    lr_mult: 1
    decay_mult: 1
  }
  param {
    lr_mult: 2
    decay_mult: 0
  }
  convolution_param {
    num_output: 192
    pad: 1
    kernel_size: 3
    weight_filler {
      type: "xavier"
      std: 0.03
    }
    bias_filler {
      type: "constant"
      value: 0.2
    }
  }
}
layer {
  name: "conv2/relu_3x3"
  type: "ReLU"
  bottom: "conv2/3x3"
  top: "conv2/3x3"
}
layer {
  name: "conv2/norm2"
  type: "LRN"
  bottom: "conv2/3x3"
  top: "conv2/norm2"
  lrn_param {
    local_size: 5
    alpha: 0.0001
    beta: 0.75
  }
}
layer {
  name: "pool2/3x3_s2"
  type: "Pooling"
  bottom: "conv2/norm2"
  top: "pool2/3x3_s2"
  pooling_param {
    pool: MAX
    kernel_size: 3
    stride: 2
  }
}
layer {
  name: "inception_3a/1x1"
  type: "Convolution"
  bottom: "pool2/3x3_s2"
  top: "inception_3a/1x1"
  param {
    lr_mult: 1
    decay_mult: 1
  }
  param {
    lr_mult: 2
    decay_mult: 0
  }
  convolution_param {
    num_output: 64
    kernel_size: 1
    weight_filler {
      type: "xavier"
      std: 0.03
    }
    bias_filler {
      type: "constant"
      value: 0.2
    }
  }
}
layer {
  name: "inception_3a/relu_1x1"
  type: "ReLU"
  bottom: "inception_3a/1x1"
  top: "inception_3a/1x1"
}
layer {
  name: "inception_3a/3x3_reduce"
  type: "Convolution"
  bottom: "pool2/3x3_s2"
  top: "inception_3a/3x3_reduce"
  param {
    lr_mult: 1
    decay_mult: 1
  }
  param {
    lr_mult: 2
    decay_mult: 0
  }
  convolution_param {
    num_output: 96
    kernel_size: 1
    weight_filler {
      type: "xavier"
      std: 0.09
    }
    bias_filler {
      type: "constant"
      value: 0.2
    }
  }
}
layer {
  name: "inception_3a/relu_3x3_reduce"
  type: "ReLU"
  bottom: "inception_3a/3x3_reduce"
  top: "inception_3a/3x3_reduce"
}
layer {
  name: "inception_3a/3x3"
  type: "Convolution"
  bottom: "inception_3a/3x3_reduce"
  top: "inception_3a/3x3"
  param {
    lr_mult: 1
    decay_mult: 1
  }
  param {
    lr_mult: 2
    decay_mult: 0
  }
  convolution_param {
    num_output: 128
    pad: 1
    kernel_size: 3
    weight_filler {
      type: "xavier"
      std: 0.03
    }
    bias_filler {
      type: "constant"
      value: 0.2
    }
  }
}
layer {
  name: "inception_3a/relu_3x3"
  type: "ReLU"
  bottom: "inception_3a/3x3"
  top: "inception_3a/3x3"
}
layer {
  name: "inception_3a/5x5_reduce"
  type: "Convolution"
  bottom: "pool2/3x3_s2"
  top: "inception_3a/5x5_reduce"
  param {
    lr_mult: 1
    decay_mult: 1
  }
  param {
    lr_mult: 2
    decay_mult: 0
  }
  convolution_param {
    num_output: 16
    kernel_size: 1
    weight_filler {
      type: "xavier"
      std: 0.2
    }
    bias_filler {
      type: "constant"
      value: 0.2
    }
  }
}
layer {
  name: "inception_3a/relu_5x5_reduce"
  type: "ReLU"
  bottom: "inception_3a/5x5_reduce"
  top: "inception_3a/5x5_reduce"
}
layer {
  name: "inception_3a/5x5"
  type: "Convolution"
  bottom: "inception_3a/5x5_reduce"
  top: "inception_3a/5x5"
  param {
    lr_mult: 1
    decay_mult: 1
  }
  param {
    lr_mult: 2
    decay_mult: 0
  }
  convolution_param {
    num_output: 32
    pad: 2
    kernel_size: 5
    weight_filler {
      type: "xavier"
      std: 0.03
    }
    bias_filler {
      type: "constant"
      value: 0.2
    }
  }
}
layer {
  name: "inception_3a/relu_5x5"
  type: "ReLU"
  bottom: "inception_3a/5x5"
  top: "inception_3a/5x5"
}
layer {
  name: "inception_3a/pool"
  type: "Pooling"
  bottom: "pool2/3x3_s2"
  top: "inception_3a/pool"
  pooling_param {
    pool: MAX
    kernel_size: 3
    stride: 1
    pad: 1
  }
}
layer {
  name: "inception_3a/pool_proj"
  type: "Convolution"
  bottom: "inception_3a/pool"
  top: "inception_3a/pool_proj"
  param {
    lr_mult: 1
    decay_mult: 1
  }
  param {
    lr_mult: 2
    decay_mult: 0
  }
  convolution_param {
    num_output: 32
    kernel_size: 1
    weight_filler {
      type: "xavier"
      std: 0.1
    }
    bias_filler {
      type: "constant"
      value: 0.2
    }
  }
}
layer {
  name: "inception_3a/relu_pool_proj"
  type: "ReLU"
  bottom: "inception_3a/pool_proj"
  top: "inception_3a/pool_proj"
}
layer {
  name: "inception_3a/output"
  type: "Concat"
  bottom: "inception_3a/1x1"
  bottom: "inception_3a/3x3"
  bottom: "inception_3a/5x5"
  bottom: "inception_3a/pool_proj"
  top: "inception_3a/output"
}
layer {
  name: "inception_3b/1x1"
  type: "Convolution"
  bottom: "inception_3a/output"
  top: "inception_3b/1x1"
  param {
    lr_mult: 1
    decay_mult: 1
  }
  param {
    lr_mult: 2
    decay_mult: 0
  }
  convolution_param {
    num_output: 128
    kernel_size: 1
    weight_filler {
      type: "xavier"
      std: 0.03
    }
    bias_filler {
      type: "constant"
      value: 0.2
    }
  }
}
layer {
  name: "inception_3b/relu_1x1"
  type: "ReLU"
  bottom: "inception_3b/1x1"
  top: "inception_3b/1x1"
}
layer {
  name: "inception_3b/3x3_reduce"
  type: "Convolution"
  bottom: "inception_3a/output"
  top: "inception_3b/3x3_reduce"
  param {
    lr_mult: 1
    decay_mult: 1
  }
  param {
    lr_mult: 2
    decay_mult: 0
  }
  convolution_param {
    num_output: 128
    kernel_size: 1
    weight_filler {
      type: "xavier"
      std: 0.09
    }
    bias_filler {
      type: "constant"
      value: 0.2
    }
  }
}
layer {
  name: "inception_3b/relu_3x3_reduce"
  type: "ReLU"
  bottom: "inception_3b/3x3_reduce"
  top: "inception_3b/3x3_reduce"
}
layer {
  name: "inception_3b/3x3"
  type: "Convolution"
  bottom: "inception_3b/3x3_reduce"
  top: "inception_3b/3x3"
  param {
    lr_mult: 1
    decay_mult: 1
  }
  param {
    lr_mult: 2
    decay_mult: 0
  }
  convolution_param {
    num_output: 192
    pad: 1
    kernel_size: 3
    weight_filler {
      type: "xavier"
      std: 0.03
    }
    bias_filler {
      type: "constant"
      value: 0.2
    }
  }
}
layer {
  name: "inception_3b/relu_3x3"
  type: "ReLU"
  bottom: "inception_3b/3x3"
  top: "inception_3b/3x3"
}
layer {
  name: "inception_3b/5x5_reduce"
  type: "Convolution"
  bottom: "inception_3a/output"
  top: "inception_3b/5x5_reduce"
  param {
    lr_mult: 1
    decay_mult: 1
  }
  param {
    lr_mult: 2
    decay_mult: 0
  }
  convolution_param {
    num_output: 32
    kernel_size: 1
    weight_filler {
      type: "xavier"
      std: 0.2
    }
    bias_filler {
      type: "constant"
      value: 0.2
    }
  }
}
layer {
  name: "inception_3b/relu_5x5_reduce"
  type: "ReLU"
  bottom: "inception_3b/5x5_reduce"
  top: "inception_3b/5x5_reduce"
}
layer {
  name: "inception_3b/5x5"
  type: "Convolution"
  bottom: "inception_3b/5x5_reduce"
  top: "inception_3b/5x5"
  param {
    lr_mult: 1
    decay_mult: 1
  }
  param {
    lr_mult: 2
    decay_mult: 0
  }
  convolution_param {
    num_output: 96
    pad: 2
    kernel_size: 5
    weight_filler {
      type: "xavier"
      std: 0.03
    }
    bias_filler {
      type: "constant"
      value: 0.2
    }
  }
}
layer {
  name: "inception_3b/relu_5x5"
  type: "ReLU"
  bottom: "inception_3b/5x5"
  top: "inception_3b/5x5"
}
layer {
  name: "inception_3b/pool"
  type: "Pooling"
  bottom: "inception_3a/output"
  top: "inception_3b/pool"
  pooling_param {
    pool: MAX
    kernel_size: 3
    stride: 1
    pad: 1
  }
}
layer {
  name: "inception_3b/pool_proj"
  type: "Convolution"
  bottom: "inception_3b/pool"
  top: "inception_3b/pool_proj"
  param {
    lr_mult: 1
    decay_mult: 1
  }
  param {
    lr_mult: 2
    decay_mult: 0
  }
  convolution_param {
    num_output: 64
    kernel_size: 1
    weight_filler {
      type: "xavier"
      std: 0.1
    }
    bias_filler {
      type: "constant"
      value: 0.2
    }
  }
}
layer {
  name: "inception_3b/relu_pool_proj"
  type: "ReLU"
  bottom: "inception_3b/pool_proj"
  top: "inception_3b/pool_proj"
}
layer {
  name: "inception_3b/output"
  type: "Concat"
  bottom: "inception_3b/1x1"
  bottom: "inception_3b/3x3"
  bottom: "inception_3b/5x5"
  bottom: "inception_3b/pool_proj"
  top: "inception_3b/output"
}
layer {
  name: "pool3/3x3_s2"
  type: "Pooling"
  bottom: "inception_3b/output"
  top: "pool3/3x3_s2"
  pooling_param {
    pool: MAX
    kernel_size: 3
    stride: 2
  }
}
layer {
  name: "inception_4a/1x1"
  type: "Convolution"
  bottom: "pool3/3x3_s2"
  top: "inception_4a/1x1"
  param {
    lr_mult: 1
    decay_mult: 1
  }
  param {
    lr_mult: 2
    decay_mult: 0
  }
  convolution_param {
    num_output: 192
    kernel_size: 1
    weight_filler {
      type: "xavier"
      std: 0.03
    }
    bias_filler {
      type: "constant"
      value: 0.2
    }
  }
}
layer {
  name: "inception_4a/relu_1x1"
  type: "ReLU"
  bottom: "inception_4a/1x1"
  top: "inception_4a/1x1"
}
layer {
  name: "inception_4a/3x3_reduce"
  type: "Convolution"
  bottom: "pool3/3x3_s2"
  top: "inception_4a/3x3_reduce"
  param {
    lr_mult: 1
    decay_mult: 1
  }
  param {
    lr_mult: 2
    decay_mult: 0
  }
  convolution_param {
    num_output: 96
    kernel_size: 1
    weight_filler {
      type: "xavier"
      std: 0.09
    }
    bias_filler {
      type: "constant"
      value: 0.2
    }
  }
}
layer {
  name: "inception_4a/relu_3x3_reduce"
  type: "ReLU"
  bottom: "inception_4a/3x3_reduce"
  top: "inception_4a/3x3_reduce"
}
layer {
  name: "inception_4a/3x3"
  type: "Convolution"
  bottom: "inception_4a/3x3_reduce"
  top: "inception_4a/3x3"
  param {
    lr_mult: 1
    decay_mult: 1
  }
  param {
    lr_mult: 2
    decay_mult: 0
  }
  convolution_param {
    num_output: 208
    pad: 1
    kernel_size: 3
    weight_filler {
      type: "xavier"
      std: 0.03
    }
    bias_filler {
      type: "constant"
      value: 0.2
    }
  }
}
layer {
  name: "inception_4a/relu_3x3"
  type: "ReLU"
  bottom: "inception_4a/3x3"
  top: "inception_4a/3x3"
}
layer {
  name: "inception_4a/5x5_reduce"
  type: "Convolution"
  bottom: "pool3/3x3_s2"
  top: "inception_4a/5x5_reduce"
  param {
    lr_mult: 1
    decay_mult: 1
  }
  param {
    lr_mult: 2
    decay_mult: 0
  }
  convolution_param {
    num_output: 16
    kernel_size: 1
    weight_filler {
      type: "xavier"
      std: 0.2
    }
    bias_filler {
      type: "constant"
      value: 0.2
    }
  }
}
layer {
  name: "inception_4a/relu_5x5_reduce"
  type: "ReLU"
  bottom: "inception_4a/5x5_reduce"
  top: "inception_4a/5x5_reduce"
}
layer {
  name: "inception_4a/5x5"
  type: "Convolution"
  bottom: "inception_4a/5x5_reduce"
  top: "inception_4a/5x5"
  param {
    lr_mult: 1
    decay_mult: 1
  }
  param {
    lr_mult: 2
    decay_mult: 0
  }
  convolution_param {
    num_output: 48
    pad: 2
    kernel_size: 5
    weight_filler {
      type: "xavier"
      std: 0.03
    }
    bias_filler {
      type: "constant"
      value: 0.2
    }
  }
}
layer {
  name: "inception_4a/relu_5x5"
  type: "ReLU"
  bottom: "inception_4a/5x5"
  top: "inception_4a/5x5"
}
layer {
  name: "inception_4a/pool"
  type: "Pooling"
  bottom: "pool3/3x3_s2"
  top: "inception_4a/pool"
  pooling_param {
    pool: MAX
    kernel_size: 3
    stride: 1
    pad: 1
  }
}
layer {
  name: "inception_4a/pool_proj"
  type: "Convolution"
  bottom: "inception_4a/pool"
  top: "inception_4a/pool_proj"
  param {
    lr_mult: 1
    decay_mult: 1
  }
  param {
    lr_mult: 2
    decay_mult: 0
  }
  convolution_param {
    num_output: 64
    kernel_size: 1
    weight_filler {
      type: "xavier"
      std: 0.1
    }
    bias_filler {
      type: "constant"
      value: 0.2
    }
  }
}
layer {
  name: "inception_4a/relu_pool_proj"
  type: "ReLU"
  bottom: "inception_4a/pool_proj"
  top: "inception_4a/pool_proj"
}
layer {
  name: "inception_4a/output"
  type: "Concat"
  bottom: "inception_4a/1x1"
  bottom: "inception_4a/3x3"
  bottom: "inception_4a/5x5"
  bottom: "inception_4a/pool_proj"
  top: "inception_4a/output"
}
layer {
  name: "loss1/ave_pool"
  type: "Pooling"
  bottom: "inception_4a/output"
  top: "loss1/ave_pool"
  pooling_param {
    pool: AVE
    kernel_size: 5
    stride: 3
  }
}
layer {
  name: "loss1/conv"
  type: "Convolution"
  bottom: "loss1/ave_pool"
  top: "loss1/conv"
  param {
    lr_mult: 1
    decay_mult: 1
  }
  param {
    lr_mult: 2
    decay_mult: 0
  }
  convolution_param {
    num_output: 128
    kernel_size: 1
    weight_filler {
      type: "xavier"
      std: 0.08
    }
    bias_filler {
      type: "constant"
      value: 0.2
    }
  }
}
layer {
  name: "loss1/relu_conv"
  type: "ReLU"
  bottom: "loss1/conv"
  top: "loss1/conv"
}
layer {
  name: "loss1/fc"
  type: "InnerProduct"
  bottom: "loss1/conv"
  top: "loss1/fc"
  param {
    lr_mult: 1
    decay_mult: 1
  }
  param {
    lr_mult: 2
    decay_mult: 0
  }
  inner_product_param {
    num_output: 1024
    weight_filler {
      type: "xavier"
      std: 0.02
    }
    bias_filler {
      type: "constant"
      value: 0.2
    }
  }
}
layer {
  name: "loss1/relu_fc"
  type: "ReLU"
  bottom: "loss1/fc"
  top: "loss1/fc"
}
layer {
  name: "loss1/drop_fc"
  type: "Dropout"
  bottom: "loss1/fc"
  top: "loss1/fc"
  dropout_param {
    dropout_ratio: 0.7
  }
}
layer {
  name: "loss1/classifier_plantvillage"
  type: "InnerProduct"
  bottom: "loss1/fc"
  top: "loss1/classifier_plantvillage"
  param {
    lr_mult: 1
    decay_mult: 1
  }
  param {
    lr_mult: 2
    decay_mult: 0
  }
  inner_product_param {
    num_output: 38
    weight_filler {
      type: "xavier"
      std: 0.0009765625
    }
    bias_filler {
      type: "constant"
      value: 0
    }
  }
}
layer {
  name: "inception_4b/1x1"
  type: "Convolution"
  bottom: "inception_4a/output"
  top: "inception_4b/1x1"
  param {
    lr_mult: 1
    decay_mult: 1
  }
  param {
    lr_mult: 2
    decay_mult: 0
  }
  convolution_param {
    num_output: 160
    kernel_size: 1
    weight_filler {
      type: "xavier"
      std: 0.03
    }
    bias_filler {
      type: "constant"
      value: 0.2
    }
  }
}
layer {
  name: "inception_4b/relu_1x1"
  type: "ReLU"
  bottom: "inception_4b/1x1"
  top: "inception_4b/1x1"
}
layer {
  name: "inception_4b/3x3_reduce"
  type: "Convolution"
  bottom: "inception_4a/output"
  top: "inception_4b/3x3_reduce"
  param {
    lr_mult: 1
    decay_mult: 1
  }
  param {
    lr_mult: 2
    decay_mult: 0
  }
  convolution_param {
    num_output: 112
    kernel_size: 1
    weight_filler {
      type: "xavier"
      std: 0.09
    }
    bias_filler {
      type: "constant"
      value: 0.2
    }
  }
}
layer {
  name: "inception_4b/relu_3x3_reduce"
  type: "ReLU"
  bottom: "inception_4b/3x3_reduce"
  top: "inception_4b/3x3_reduce"
}
layer {
  name: "inception_4b/3x3"
  type: "Convolution"
  bottom: "inception_4b/3x3_reduce"
  top: "inception_4b/3x3"
  param {
    lr_mult: 1
    decay_mult: 1
  }
  param {
    lr_mult: 2
    decay_mult: 0
  }
  convolution_param {
    num_output: 224
    pad: 1
    kernel_size: 3
    weight_filler {
      type: "xavier"
      std: 0.03
    }
    bias_filler {
      type: "constant"
      value: 0.2
    }
  }
}
layer {
  name: "inception_4b/relu_3x3"
  type: "ReLU"
  bottom: "inception_4b/3x3"
  top: "inception_4b/3x3"
}
layer {
  name: "inception_4b/5x5_reduce"
  type: "Convolution"
  bottom: "inception_4a/output"
  top: "inception_4b/5x5_reduce"
  param {
    lr_mult: 1
    decay_mult: 1
  }
  param {
    lr_mult: 2
    decay_mult: 0
  }
  convolution_param {
    num_output: 24
    kernel_size: 1
    weight_filler {
      type: "xavier"
      std: 0.2
    }
    bias_filler {
      type: "constant"
      value: 0.2
    }
  }
}
layer {
  name: "inception_4b/relu_5x5_reduce"
  type: "ReLU"
  bottom: "inception_4b/5x5_reduce"
  top: "inception_4b/5x5_reduce"
}
layer {
  name: "inception_4b/5x5"
  type: "Convolution"
  bottom: "inception_4b/5x5_reduce"
  top: "inception_4b/5x5"
  param {
    lr_mult: 1
    decay_mult: 1
  }
  param {
    lr_mult: 2
    decay_mult: 0
  }
  convolution_param {
    num_output: 64
    pad: 2
    kernel_size: 5
    weight_filler {
      type: "xavier"
      std: 0.03
    }
    bias_filler {
      type: "constant"
      value: 0.2
    }
  }
}
layer {
  name: "inception_4b/relu_5x5"
  type: "ReLU"
  bottom: "inception_4b/5x5"
  top: "inception_4b/5x5"
}
layer {
  name: "inception_4b/pool"
  type: "Pooling"
  bottom: "inception_4a/output"
  top: "inception_4b/pool"
  pooling_param {
    pool: MAX
    kernel_size: 3
    stride: 1
    pad: 1
  }
}
layer {
  name: "inception_4b/pool_proj"
  type: "Convolution"
  bottom: "inception_4b/pool"
  top: "inception_4b/pool_proj"
  param {
    lr_mult: 1
    decay_mult: 1
  }
  param {
    lr_mult: 2
    decay_mult: 0
  }
  convolution_param {
    num_output: 64
    kernel_size: 1
    weight_filler {
      type: "xavier"
      std: 0.1
    }
    bias_filler {
      type: "constant"
      value: 0.2
    }
  }
}
layer {
  name: "inception_4b/relu_pool_proj"
  type: "ReLU"
  bottom: "inception_4b/pool_proj"
  top: "inception_4b/pool_proj"
}
layer {
  name: "inception_4b/output"
  type: "Concat"
  bottom: "inception_4b/1x1"
  bottom: "inception_4b/3x3"
  bottom: "inception_4b/5x5"
  bottom: "inception_4b/pool_proj"
  top: "inception_4b/output"
}
layer {
  name: "inception_4c/1x1"
  type: "Convolution"
  bottom: "inception_4b/output"
  top: "inception_4c/1x1"
  param {
    lr_mult: 1
    decay_mult: 1
  }
  param {
    lr_mult: 2
    decay_mult: 0
  }
  convolution_param {
    num_output: 128
    kernel_size: 1
    weight_filler {
      type: "xavier"
      std: 0.03
    }
    bias_filler {
      type: "constant"
      value: 0.2
    }
  }
}
layer {
  name: "inception_4c/relu_1x1"
  type: "ReLU"
  bottom: "inception_4c/1x1"
  top: "inception_4c/1x1"
}
layer {
  name: "inception_4c/3x3_reduce"
  type: "Convolution"
  bottom: "inception_4b/output"
  top: "inception_4c/3x3_reduce"
  param {
    lr_mult: 1
    decay_mult: 1
  }
  param {
    lr_mult: 2
    decay_mult: 0
  }
  convolution_param {
    num_output: 128
    kernel_size: 1
    weight_filler {
      type: "xavier"
      std: 0.09
    }
    bias_filler {
      type: "constant"
      value: 0.2
    }
  }
}
layer {
  name: "inception_4c/relu_3x3_reduce"
  type: "ReLU"
  bottom: "inception_4c/3x3_reduce"
  top: "inception_4c/3x3_reduce"
}
layer {
  name: "inception_4c/3x3"
  type: "Convolution"
  bottom: "inception_4c/3x3_reduce"
  top: "inception_4c/3x3"
  param {
    lr_mult: 1
    decay_mult: 1
  }
  param {
    lr_mult: 2
    decay_mult: 0
  }
  convolution_param {
    num_output: 256
    pad: 1
    kernel_size: 3
    weight_filler {
      type: "xavier"
      std: 0.03
    }
    bias_filler {
      type: "constant"
      value: 0.2
    }
  }
}
layer {
  name: "inception_4c/relu_3x3"
  type: "ReLU"
  bottom: "inception_4c/3x3"
  top: "inception_4c/3x3"
}
layer {
  name: "inception_4c/5x5_reduce"
  type: "Convolution"
  bottom: "inception_4b/output"
  top: "inception_4c/5x5_reduce"
  param {
    lr_mult: 1
    decay_mult: 1
  }
  param {
    lr_mult: 2
    decay_mult: 0
  }
  convolution_param {
    num_output: 24
    kernel_size: 1
    weight_filler {
      type: "xavier"
      std: 0.2
    }
    bias_filler {
      type: "constant"
      value: 0.2
    }
  }
}
layer {
  name: "inception_4c/relu_5x5_reduce"
  type: "ReLU"
  bottom: "inception_4c/5x5_reduce"
  top: "inception_4c/5x5_reduce"
}
layer {
  name: "inception_4c/5x5"
  type: "Convolution"
  bottom: "inception_4c/5x5_reduce"
  top: "inception_4c/5x5"
  param {
    lr_mult: 1
    decay_mult: 1
  }
  param {
    lr_mult: 2
    decay_mult: 0
  }
  convolution_param {
    num_output: 64
    pad: 2
    kernel_size: 5
    weight_filler {
      type: "xavier"
      std: 0.03
    }
    bias_filler {
      type: "constant"
      value: 0.2
    }
  }
}
layer {
  name: "inception_4c/relu_5x5"
  type: "ReLU"
  bottom: "inception_4c/5x5"
  top: "inception_4c/5x5"
}
layer {
  name: "inception_4c/pool"
  type: "Pooling"
  bottom: "inception_4b/output"
  top: "inception_4c/pool"
  pooling_param {
    pool: MAX
    kernel_size: 3
    stride: 1
    pad: 1
  }
}
layer {
  name: "inception_4c/pool_proj"
  type: "Convolution"
  bottom: "inception_4c/pool"
  top: "inception_4c/pool_proj"
  param {
    lr_mult: 1
    decay_mult: 1
  }
  param {
    lr_mult: 2
    decay_mult: 0
  }
  convolution_param {
    num_output: 64
    kernel_size: 1
    weight_filler {
      type: "xavier"
      std: 0.1
    }
    bias_filler {
      type: "constant"
      value: 0.2
    }
  }
}
layer {
  name: "inception_4c/relu_pool_proj"
  type: "ReLU"
  bottom: "inception_4c/pool_proj"
  top: "inception_4c/pool_proj"
}
layer {
  name: "inception_4c/output"
  type: "Concat"
  bottom: "inception_4c/1x1"
  bottom: "inception_4c/3x3"
  bottom: "inception_4c/5x5"
  bottom: "inception_4c/pool_proj"
  top: "inception_4c/output"
}
layer {
  name: "inception_4d/1x1"
  type: "Convolution"
  bottom: "inception_4c/output"
  top: "inception_4d/1x1"
  param {
    lr_mult: 1
    decay_mult: 1
  }
  param {
    lr_mult: 2
    decay_mult: 0
  }
  convolution_param {
    num_output: 112
    kernel_size: 1
    weight_filler {
      type: "xavier"
      std: 0.03
    }
    bias_filler {
      type: "constant"
      value: 0.2
    }
  }
}
layer {
  name: "inception_4d/relu_1x1"
  type: "ReLU"
  bottom: "inception_4d/1x1"
  top: "inception_4d/1x1"
}
layer {
  name: "inception_4d/3x3_reduce"
  type: "Convolution"
  bottom: "inception_4c/output"
  top: "inception_4d/3x3_reduce"
  param {
    lr_mult: 1
    decay_mult: 1
  }
  param {
    lr_mult: 2
    decay_mult: 0
  }
  convolution_param {
    num_output: 144
    kernel_size: 1
    weight_filler {
      type: "xavier"
      std: 0.09
    }
    bias_filler {
      type: "constant"
      value: 0.2
    }
  }
}
layer {
  name: "inception_4d/relu_3x3_reduce"
  type: "ReLU"
  bottom: "inception_4d/3x3_reduce"
  top: "inception_4d/3x3_reduce"
}
layer {
  name: "inception_4d/3x3"
  type: "Convolution"
  bottom: "inception_4d/3x3_reduce"
  top: "inception_4d/3x3"
  param {
    lr_mult: 1
    decay_mult: 1
  }
  param {
    lr_mult: 2
    decay_mult: 0
  }
  convolution_param {
    num_output: 288
    pad: 1
    kernel_size: 3
    weight_filler {
      type: "xavier"
      std: 0.03
    }
    bias_filler {
      type: "constant"
      value: 0.2
    }
  }
}
layer {
  name: "inception_4d/relu_3x3"
  type: "ReLU"
  bottom: "inception_4d/3x3"
  top: "inception_4d/3x3"
}
layer {
  name: "inception_4d/5x5_reduce"
  type: "Convolution"
  bottom: "inception_4c/output"
  top: "inception_4d/5x5_reduce"
  param {
    lr_mult: 1
    decay_mult: 1
  }
  param {
    lr_mult: 2
    decay_mult: 0
  }
  convolution_param {
    num_output: 32
    kernel_size: 1
    weight_filler {
      type: "xavier"
      std: 0.2
    }
    bias_filler {
      type: "constant"
      value: 0.2
    }
  }
}
layer {
  name: "inception_4d/relu_5x5_reduce"
  type: "ReLU"
  bottom: "inception_4d/5x5_reduce"
  top: "inception_4d/5x5_reduce"
}
layer {
  name: "inception_4d/5x5"
  type: "Convolution"
  bottom: "inception_4d/5x5_reduce"
  top: "inception_4d/5x5"
  param {
    lr_mult: 1
    decay_mult: 1
  }
  param {
    lr_mult: 2
    decay_mult: 0
  }
  convolution_param {
    num_output: 64
    pad: 2
    kernel_size: 5
    weight_filler {
      type: "xavier"
      std: 0.03
    }
    bias_filler {
      type: "constant"
      value: 0.2
    }
  }
}
layer {
  name: "inception_4d/relu_5x5"
  type: "ReLU"
  bottom: "inception_4d/5x5"
  top: "inception_4d/5x5"
}
layer {
  name: "inception_4d/pool"
  type: "Pooling"
  bottom: "inception_4c/output"
  top: "inception_4d/pool"
  pooling_param {
    pool: MAX
    kernel_size: 3
    stride: 1
    pad: 1
  }
}
layer {
  name: "inception_4d/pool_proj"
  type: "Convolution"
  bottom: "inception_4d/pool"
  top: "inception_4d/pool_proj"
  param {
    lr_mult: 1
    decay_mult: 1
  }
  param {
    lr_mult: 2
    decay_mult: 0
  }
  convolution_param {
    num_output: 64
    kernel_size: 1
    weight_filler {
      type: "xavier"
      std: 0.1
    }
    bias_filler {
      type: "constant"
      value: 0.2
    }
  }
}
layer {
  name: "inception_4d/relu_pool_proj"
  type: "ReLU"
  bottom: "inception_4d/pool_proj"
  top: "inception_4d/pool_proj"
}
layer {
  name: "inception_4d/output"
  type: "Concat"
  bottom: "inception_4d/1x1"
  bottom: "inception_4d/3x3"
  bottom: "inception_4d/5x5"
  bottom: "inception_4d/pool_proj"
  top: "inception_4d/output"
}
layer {
  name: "loss2/ave_pool"
  type: "Pooling"
  bottom: "inception_4d/output"
  top: "loss2/ave_pool"
  pooling_param {
    pool: AVE
    kernel_size: 5
    stride: 3
  }
}
layer {
  name: "loss2/conv"
  type: "Convolution"
  bottom: "loss2/ave_pool"
  top: "loss2/conv"
  param {
    lr_mult: 1
    decay_mult: 1
  }
  param {
    lr_mult: 2
    decay_mult: 0
  }
  convolution_param {
    num_output: 128
    kernel_size: 1
    weight_filler {
      type: "xavier"
      std: 0.08
    }
    bias_filler {
      type: "constant"
      value: 0.2
    }
  }
}
layer {
  name: "loss2/relu_conv"
  type: "ReLU"
  bottom: "loss2/conv"
  top: "loss2/conv"
}
layer {
  name: "loss2/fc"
  type: "InnerProduct"
  bottom: "loss2/conv"
  top: "loss2/fc"
  param {
    lr_mult: 1
    decay_mult: 1
  }
  param {
    lr_mult: 2
    decay_mult: 0
  }
  inner_product_param {
    num_output: 1024
    weight_filler {
      type: "xavier"
      std: 0.02
    }
    bias_filler {
      type: "constant"
      value: 0.2
    }
  }
}
layer {
  name: "loss2/relu_fc"
  type: "ReLU"
  bottom: "loss2/fc"
  top: "loss2/fc"
}
layer {
  name: "loss2/drop_fc"
  type: "Dropout"
  bottom: "loss2/fc"
  top: "loss2/fc"
  dropout_param {
    dropout_ratio: 0.7
  }
}
layer {
  name: "loss2/classifier_plantvillage"
  type: "InnerProduct"
  bottom: "loss2/fc"
  top: "loss2/classifier_plantvillage"
  param {
    lr_mult: 1
    decay_mult: 1
  }
  param {
    lr_mult: 2
    decay_mult: 0
  }
  inner_product_param {
    num_output: 38
    weight_filler {
      type: "xavier"
      std: 0.0009765625
    }
    bias_filler {
      type: "constant"
      value: 0
    }
  }
}
layer {
  name: "inception_4e/1x1"
  type: "Convolution"
  bottom: "inception_4d/output"
  top: "inception_4e/1x1"
  param {
    lr_mult: 1
    decay_mult: 1
  }
  param {
    lr_mult: 2
    decay_mult: 0
  }
  convolution_param {
    num_output: 256
    kernel_size: 1
    weight_filler {
      type: "xavier"
      std: 0.03
    }
    bias_filler {
      type: "constant"
      value: 0.2
    }
  }
}
layer {
  name: "inception_4e/relu_1x1"
  type: "ReLU"
  bottom: "inception_4e/1x1"
  top: "inception_4e/1x1"
}
layer {
  name: "inception_4e/3x3_reduce"
  type: "Convolution"
  bottom: "inception_4d/output"
  top: "inception_4e/3x3_reduce"
  param {
    lr_mult: 1
    decay_mult: 1
  }
  param {
    lr_mult: 2
    decay_mult: 0
  }
  convolution_param {
    num_output: 160
    kernel_size: 1
    weight_filler {
      type: "xavier"
      std: 0.09
    }
    bias_filler {
      type: "constant"
      value: 0.2
    }
  }
}
layer {
  name: "inception_4e/relu_3x3_reduce"
  type: "ReLU"
  bottom: "inception_4e/3x3_reduce"
  top: "inception_4e/3x3_reduce"
}
layer {
  name: "inception_4e/3x3"
  type: "Convolution"
  bottom: "inception_4e/3x3_reduce"
  top: "inception_4e/3x3"
  param {
    lr_mult: 1
    decay_mult: 1
  }
  param {
    lr_mult: 2
    decay_mult: 0
  }
  convolution_param {
    num_output: 320
    pad: 1
    kernel_size: 3
    weight_filler {
      type: "xavier"
      std: 0.03
    }
    bias_filler {
      type: "constant"
      value: 0.2
    }
  }
}
layer {
  name: "inception_4e/relu_3x3"
  type: "ReLU"
  bottom: "inception_4e/3x3"
  top: "inception_4e/3x3"
}
layer {
  name: "inception_4e/5x5_reduce"
  type: "Convolution"
  bottom: "inception_4d/output"
  top: "inception_4e/5x5_reduce"
  param {
    lr_mult: 1
    decay_mult: 1
  }
  param {
    lr_mult: 2
    decay_mult: 0
  }
  convolution_param {
    num_output: 32
    kernel_size: 1
    weight_filler {
      type: "xavier"
      std: 0.2
    }
    bias_filler {
      type: "constant"
      value: 0.2
    }
  }
}
layer {
  name: "inception_4e/relu_5x5_reduce"
  type: "ReLU"
  bottom: "inception_4e/5x5_reduce"
  top: "inception_4e/5x5_reduce"
}
layer {
  name: "inception_4e/5x5"
  type: "Convolution"
  bottom: "inception_4e/5x5_reduce"
  top: "inception_4e/
I0403 15:10:02.082666 18366 layer_factory.hpp:77] Creating layer data
I0403 15:10:02.083276 18366 net.cpp:91] Creating Layer data
I0403 15:10:02.083307 18366 net.cpp:399] data -> data
I0403 15:10:02.083358 18366 net.cpp:399] data -> label
I0403 15:10:02.083392 18366 data_transformer.cpp:25] Loading mean file from: /home/mohanty/data/final_dataset/lmdb/grayscale-40-60/mean.binaryproto
I0403 15:10:02.086164 18375 db_lmdb.cpp:38] Opened lmdb /home/mohanty/data/final_dataset/lmdb/grayscale-40-60/test_db
I0403 15:10:02.096808 18366 data_layer.cpp:41] output data size: 24,3,224,224
I0403 15:10:02.126935 18366 net.cpp:141] Setting up data
I0403 15:10:02.127055 18366 net.cpp:148] Top shape: 24 3 224 224 (3612672)
I0403 15:10:02.127079 18366 net.cpp:148] Top shape: 24 (24)
I0403 15:10:02.127094 18366 net.cpp:156] Memory required for data: 14450784
I0403 15:10:02.127122 18366 layer_factory.hpp:77] Creating layer label_data_1_split
I0403 15:10:02.127151 18366 net.cpp:91] Creating Layer label_data_1_split
I0403 15:10:02.127168 18366 net.cpp:425] label_data_1_split <- label
I0403 15:10:02.127202 18366 net.cpp:399] label_data_1_split -> label_data_1_split_0
I0403 15:10:02.127230 18366 net.cpp:399] label_data_1_split -> label_data_1_split_1
I0403 15:10:02.127251 18366 net.cpp:399] label_data_1_split -> label_data_1_split_2
I0403 15:10:02.127274 18366 net.cpp:399] label_data_1_split -> label_data_1_split_3
I0403 15:10:02.127293 18366 net.cpp:399] label_data_1_split -> label_data_1_split_4
I0403 15:10:02.127315 18366 net.cpp:399] label_data_1_split -> label_data_1_split_5
I0403 15:10:02.127334 18366 net.cpp:399] label_data_1_split -> label_data_1_split_6
I0403 15:10:02.127356 18366 net.cpp:399] label_data_1_split -> label_data_1_split_7
I0403 15:10:02.127375 18366 net.cpp:399] label_data_1_split -> label_data_1_split_8
I0403 15:10:02.127395 18366 net.cpp:399] label_data_1_split -> label_data_1_split_9
I0403 15:10:02.127516 18366 net.cpp:141] Setting up label_data_1_split
I0403 15:10:02.127540 18366 net.cpp:148] Top shape: 24 (24)
I0403 15:10:02.127558 18366 net.cpp:148] Top shape: 24 (24)
I0403 15:10:02.127574 18366 net.cpp:148] Top shape: 24 (24)
I0403 15:10:02.127590 18366 net.cpp:148] Top shape: 24 (24)
I0403 15:10:02.127606 18366 net.cpp:148] Top shape: 24 (24)
I0403 15:10:02.127621 18366 net.cpp:148] Top shape: 24 (24)
I0403 15:10:02.127637 18366 net.cpp:148] Top shape: 24 (24)
I0403 15:10:02.127653 18366 net.cpp:148] Top shape: 24 (24)
I0403 15:10:02.127670 18366 net.cpp:148] Top shape: 24 (24)
I0403 15:10:02.127686 18366 net.cpp:148] Top shape: 24 (24)
I0403 15:10:02.127733 18366 net.cpp:156] Memory required for data: 14451744
I0403 15:10:02.127750 18366 layer_factory.hpp:77] Creating layer conv1/7x7_s2
I0403 15:10:02.127782 18366 net.cpp:91] Creating Layer conv1/7x7_s2
I0403 15:10:02.127801 18366 net.cpp:425] conv1/7x7_s2 <- data
I0403 15:10:02.127821 18366 net.cpp:399] conv1/7x7_s2 -> conv1/7x7_s2
I0403 15:10:02.274482 18366 net.cpp:141] Setting up conv1/7x7_s2
I0403 15:10:02.274570 18366 net.cpp:148] Top shape: 24 64 112 112 (19267584)
I0403 15:10:02.274587 18366 net.cpp:156] Memory required for data: 91522080
I0403 15:10:02.274618 18366 layer_factory.hpp:77] Creating layer conv1/relu_7x7
I0403 15:10:02.274646 18366 net.cpp:91] Creating Layer conv1/relu_7x7
I0403 15:10:02.274663 18366 net.cpp:425] conv1/relu_7x7 <- conv1/7x7_s2
I0403 15:10:02.274682 18366 net.cpp:386] conv1/relu_7x7 -> conv1/7x7_s2 (in-place)
I0403 15:10:02.274933 18366 net.cpp:141] Setting up conv1/relu_7x7
I0403 15:10:02.274960 18366 net.cpp:148] Top shape: 24 64 112 112 (19267584)
I0403 15:10:02.274976 18366 net.cpp:156] Memory required for data: 168592416
I0403 15:10:02.274996 18366 layer_factory.hpp:77] Creating layer pool1/3x3_s2
I0403 15:10:02.275020 18366 net.cpp:91] Creating Layer pool1/3x3_s2
I0403 15:10:02.275038 18366 net.cpp:425] pool1/3x3_s2 <- conv1/7x7_s2
I0403 15:10:02.275056 18366 net.cpp:399] pool1/3x3_s2 -> pool1/3x3_s2
I0403 15:10:02.275130 18366 net.cpp:141] Setting up pool1/3x3_s2
I0403 15:10:02.275153 18366 net.cpp:148] Top shape: 24 64 56 56 (4816896)
I0403 15:10:02.275168 18366 net.cpp:156] Memory required for data: 187860000
I0403 15:10:02.275183 18366 layer_factory.hpp:77] Creating layer pool1/norm1
I0403 15:10:02.275207 18366 net.cpp:91] Creating Layer pool1/norm1
I0403 15:10:02.275224 18366 net.cpp:425] pool1/norm1 <- pool1/3x3_s2
I0403 15:10:02.275241 18366 net.cpp:399] pool1/norm1 -> pool1/norm1
I0403 15:10:02.275584 18366 net.cpp:141] Setting up pool1/norm1
I0403 15:10:02.275612 18366 net.cpp:148] Top shape: 24 64 56 56 (4816896)
I0403 15:10:02.275627 18366 net.cpp:156] Memory required for data: 207127584
I0403 15:10:02.275643 18366 layer_factory.hpp:77] Creating layer conv2/3x3_reduce
I0403 15:10:02.275667 18366 net.cpp:91] Creating Layer conv2/3x3_reduce
I0403 15:10:02.275684 18366 net.cpp:425] conv2/3x3_reduce <- pool1/norm1
I0403 15:10:02.275702 18366 net.cpp:399] conv2/3x3_reduce -> conv2/3x3_reduce
I0403 15:10:02.277025 18366 net.cpp:141] Setting up conv2/3x3_reduce
I0403 15:10:02.277055 18366 net.cpp:148] Top shape: 24 64 56 56 (4816896)
I0403 15:10:02.277070 18366 net.cpp:156] Memory required for data: 226395168
I0403 15:10:02.277091 18366 layer_factory.hpp:77] Creating layer conv2/relu_3x3_reduce
I0403 15:10:02.277110 18366 net.cpp:91] Creating Layer conv2/relu_3x3_reduce
I0403 15:10:02.277127 18366 net.cpp:425] conv2/relu_3x3_reduce <- conv2/3x3_reduce
I0403 15:10:02.277144 18366 net.cpp:386] conv2/relu_3x3_reduce -> conv2/3x3_reduce (in-place)
I0403 15:10:02.277443 18366 net.cpp:141] Setting up conv2/relu_3x3_reduce
I0403 15:10:02.277470 18366 net.cpp:148] Top shape: 24 64 56 56 (4816896)
I0403 15:10:02.277485 18366 net.cpp:156] Memory required for data: 245662752
I0403 15:10:02.277500 18366 layer_factory.hpp:77] Creating layer conv2/3x3
I0403 15:10:02.277523 18366 net.cpp:91] Creating Layer conv2/3x3
I0403 15:10:02.277540 18366 net.cpp:425] conv2/3x3 <- conv2/3x3_reduce
I0403 15:10:02.277559 18366 net.cpp:399] conv2/3x3 -> conv2/3x3
I0403 15:10:02.279860 18366 net.cpp:141] Setting up conv2/3x3
I0403 15:10:02.279891 18366 net.cpp:148] Top shape: 24 192 56 56 (14450688)
I0403 15:10:02.279907 18366 net.cpp:156] Memory required for data: 303465504
I0403 15:10:02.279929 18366 layer_factory.hpp:77] Creating layer conv2/relu_3x3
I0403 15:10:02.279948 18366 net.cpp:91] Creating Layer conv2/relu_3x3
I0403 15:10:02.279964 18366 net.cpp:425] conv2/relu_3x3 <- conv2/3x3
I0403 15:10:02.279983 18366 net.cpp:386] conv2/relu_3x3 -> conv2/3x3 (in-place)
I0403 15:10:02.280151 18366 net.cpp:141] Setting up conv2/relu_3x3
I0403 15:10:02.280177 18366 net.cpp:148] Top shape: 24 192 56 56 (14450688)
I0403 15:10:02.280225 18366 net.cpp:156] Memory required for data: 361268256
I0403 15:10:02.280241 18366 layer_factory.hpp:77] Creating layer conv2/norm2
I0403 15:10:02.280261 18366 net.cpp:91] Creating Layer conv2/norm2
I0403 15:10:02.280277 18366 net.cpp:425] conv2/norm2 <- conv2/3x3
I0403 15:10:02.280294 18366 net.cpp:399] conv2/norm2 -> conv2/norm2
I0403 15:10:02.280586 18366 net.cpp:141] Setting up conv2/norm2
I0403 15:10:02.280668 18366 net.cpp:148] Top shape: 24 192 56 56 (14450688)
I0403 15:10:02.280688 18366 net.cpp:156] Memory required for data: 419071008
I0403 15:10:02.280702 18366 layer_factory.hpp:77] Creating layer pool2/3x3_s2
I0403 15:10:02.280720 18366 net.cpp:91] Creating Layer pool2/3x3_s2
I0403 15:10:02.280735 18366 net.cpp:425] pool2/3x3_s2 <- conv2/norm2
I0403 15:10:02.280753 18366 net.cpp:399] pool2/3x3_s2 -> pool2/3x3_s2
I0403 15:10:02.280804 18366 net.cpp:141] Setting up pool2/3x3_s2
I0403 15:10:02.280827 18366 net.cpp:148] Top shape: 24 192 28 28 (3612672)
I0403 15:10:02.280840 18366 net.cpp:156] Memory required for data: 433521696
I0403 15:10:02.280854 18366 layer_factory.hpp:77] Creating layer pool2/3x3_s2_pool2/3x3_s2_0_split
I0403 15:10:02.280871 18366 net.cpp:91] Creating Layer pool2/3x3_s2_pool2/3x3_s2_0_split
I0403 15:10:02.280886 18366 net.cpp:425] pool2/3x3_s2_pool2/3x3_s2_0_split <- pool2/3x3_s2
I0403 15:10:02.280903 18366 net.cpp:399] pool2/3x3_s2_pool2/3x3_s2_0_split -> pool2/3x3_s2_pool2/3x3_s2_0_split_0
I0403 15:10:02.280923 18366 net.cpp:399] pool2/3x3_s2_pool2/3x3_s2_0_split -> pool2/3x3_s2_pool2/3x3_s2_0_split_1
I0403 15:10:02.280941 18366 net.cpp:399] pool2/3x3_s2_pool2/3x3_s2_0_split -> pool2/3x3_s2_pool2/3x3_s2_0_split_2
I0403 15:10:02.280961 18366 net.cpp:399] pool2/3x3_s2_pool2/3x3_s2_0_split -> pool2/3x3_s2_pool2/3x3_s2_0_split_3
I0403 15:10:02.281039 18366 net.cpp:141] Setting up pool2/3x3_s2_pool2/3x3_s2_0_split
I0403 15:10:02.281064 18366 net.cpp:148] Top shape: 24 192 28 28 (3612672)
I0403 15:10:02.281081 18366 net.cpp:148] Top shape: 24 192 28 28 (3612672)
I0403 15:10:02.281098 18366 net.cpp:148] Top shape: 24 192 28 28 (3612672)
I0403 15:10:02.281114 18366 net.cpp:148] Top shape: 24 192 28 28 (3612672)
I0403 15:10:02.281129 18366 net.cpp:156] Memory required for data: 491324448
I0403 15:10:02.281143 18366 layer_factory.hpp:77] Creating layer inception_3a/1x1
I0403 15:10:02.281164 18366 net.cpp:91] Creating Layer inception_3a/1x1
I0403 15:10:02.281180 18366 net.cpp:425] inception_3a/1x1 <- pool2/3x3_s2_pool2/3x3_s2_0_split_0
I0403 15:10:02.281198 18366 net.cpp:399] inception_3a/1x1 -> inception_3a/1x1
I0403 15:10:02.282743 18366 net.cpp:141] Setting up inception_3a/1x1
I0403 15:10:02.282773 18366 net.cpp:148] Top shape: 24 64 28 28 (1204224)
I0403 15:10:02.282793 18366 net.cpp:156] Memory required for data: 496141344
I0403 15:10:02.282814 18366 layer_factory.hpp:77] Creating layer inception_3a/relu_1x1
I0403 15:10:02.282832 18366 net.cpp:91] Creating Layer inception_3a/relu_1x1
I0403 15:10:02.282848 18366 net.cpp:425] inception_3a/relu_1x1 <- inception_3a/1x1
I0403 15:10:02.282866 18366 net.cpp:386] inception_3a/relu_1x1 -> inception_3a/1x1 (in-place)
I0403 15:10:02.283054 18366 net.cpp:141] Setting up inception_3a/relu_1x1
I0403 15:10:02.283082 18366 net.cpp:148] Top shape: 24 64 28 28 (1204224)
I0403 15:10:02.283097 18366 net.cpp:156] Memory required for data: 500958240
I0403 15:10:02.283112 18366 layer_factory.hpp:77] Creating layer inception_3a/3x3_reduce
I0403 15:10:02.283134 18366 net.cpp:91] Creating Layer inception_3a/3x3_reduce
I0403 15:10:02.283151 18366 net.cpp:425] inception_3a/3x3_reduce <- pool2/3x3_s2_pool2/3x3_s2_0_split_1
I0403 15:10:02.283169 18366 net.cpp:399] inception_3a/3x3_reduce -> inception_3a/3x3_reduce
I0403 15:10:02.284955 18366 net.cpp:141] Setting up inception_3a/3x3_reduce
I0403 15:10:02.284989 18366 net.cpp:148] Top shape: 24 96 28 28 (1806336)
I0403 15:10:02.285007 18366 net.cpp:156] Memory required for data: 508183584
I0403 15:10:02.285028 18366 layer_factory.hpp:77] Creating layer inception_3a/relu_3x3_reduce
I0403 15:10:02.285068 18366 net.cpp:91] Creating Layer inception_3a/relu_3x3_reduce
I0403 15:10:02.285084 18366 net.cpp:425] inception_3a/relu_3x3_reduce <- inception_3a/3x3_reduce
I0403 15:10:02.285104 18366 net.cpp:386] inception_3a/relu_3x3_reduce -> inception_3a/3x3_reduce (in-place)
I0403 15:10:02.285286 18366 net.cpp:141] Setting up inception_3a/relu_3x3_reduce
I0403 15:10:02.285311 18366 net.cpp:148] Top shape: 24 96 28 28 (1806336)
I0403 15:10:02.285326 18366 net.cpp:156] Memory required for data: 515408928
I0403 15:10:02.285339 18366 layer_factory.hpp:77] Creating layer inception_3a/3x3
I0403 15:10:02.285362 18366 net.cpp:91] Creating Layer inception_3a/3x3
I0403 15:10:02.285378 18366 net.cpp:425] inception_3a/3x3 <- inception_3a/3x3_reduce
I0403 15:10:02.285400 18366 net.cpp:399] inception_3a/3x3 -> inception_3a/3x3
I0403 15:10:02.287052 18366 net.cpp:141] Setting up inception_3a/3x3
I0403 15:10:02.287083 18366 net.cpp:148] Top shape: 24 128 28 28 (2408448)
I0403 15:10:02.287099 18366 net.cpp:156] Memory required for data: 525042720
I0403 15:10:02.287118 18366 layer_factory.hpp:77] Creating layer inception_3a/relu_3x3
I0403 15:10:02.287137 18366 net.cpp:91] Creating Layer inception_3a/relu_3x3
I0403 15:10:02.287153 18366 net.cpp:425] inception_3a/relu_3x3 <- inception_3a/3x3
I0403 15:10:02.287168 18366 net.cpp:386] inception_3a/relu_3x3 -> inception_3a/3x3 (in-place)
I0403 15:10:02.287441 18366 net.cpp:141] Setting up inception_3a/relu_3x3
I0403 15:10:02.287469 18366 net.cpp:148] Top shape: 24 128 28 28 (2408448)
I0403 15:10:02.287485 18366 net.cpp:156] Memory required for data: 534676512
I0403 15:10:02.287500 18366 layer_factory.hpp:77] Creating layer inception_3a/5x5_reduce
I0403 15:10:02.287523 18366 net.cpp:91] Creating Layer inception_3a/5x5_reduce
I0403 15:10:02.287539 18366 net.cpp:425] inception_3a/5x5_reduce <- pool2/3x3_s2_pool2/3x3_s2_0_split_2
I0403 15:10:02.287557 18366 net.cpp:399] inception_3a/5x5_reduce -> inception_3a/5x5_reduce
I0403 15:10:02.288508 18366 net.cpp:141] Setting up inception_3a/5x5_reduce
I0403 15:10:02.288535 18366 net.cpp:148] Top shape: 24 16 28 28 (301056)
I0403 15:10:02.288563 18366 net.cpp:156] Memory required for data: 535880736
I0403 15:10:02.288581 18366 layer_factory.hpp:77] Creating layer inception_3a/relu_5x5_reduce
I0403 15:10:02.288600 18366 net.cpp:91] Creating Layer inception_3a/relu_5x5_reduce
I0403 15:10:02.288615 18366 net.cpp:425] inception_3a/relu_5x5_reduce <- inception_3a/5x5_reduce
I0403 15:10:02.288635 18366 net.cpp:386] inception_3a/relu_5x5_reduce -> inception_3a/5x5_reduce (in-place)
I0403 15:10:02.288939 18366 net.cpp:141] Setting up inception_3a/relu_5x5_reduce
I0403 15:10:02.288965 18366 net.cpp:148] Top shape: 24 16 28 28 (301056)
I0403 15:10:02.288981 18366 net.cpp:156] Memory required for data: 537084960
I0403 15:10:02.289010 18366 layer_factory.hpp:77] Creating layer inception_3a/5x5
I0403 15:10:02.289034 18366 net.cpp:91] Creating Layer inception_3a/5x5
I0403 15:10:02.289052 18366 net.cpp:425] inception_3a/5x5 <- inception_3a/5x5_reduce
I0403 15:10:02.289073 18366 net.cpp:399] inception_3a/5x5 -> inception_3a/5x5
I0403 15:10:02.290094 18366 net.cpp:141] Setting up inception_3a/5x5
I0403 15:10:02.290125 18366 net.cpp:148] Top shape: 24 32 28 28 (602112)
I0403 15:10:02.290143 18366 net.cpp:156] Memory required for data: 539493408
I0403 15:10:02.290161 18366 layer_factory.hpp:77] Creating layer inception_3a/relu_5x5
I0403 15:10:02.290180 18366 net.cpp:91] Creating Layer inception_3a/relu_5x5
I0403 15:10:02.290196 18366 net.cpp:425] inception_3a/relu_5x5 <- inception_3a/5x5
I0403 15:10:02.290215 18366 net.cpp:386] inception_3a/relu_5x5 -> inception_3a/5x5 (in-place)
I0403 15:10:02.290388 18366 net.cpp:141] Setting up inception_3a/relu_5x5
I0403 15:10:02.290416 18366 net.cpp:148] Top shape: 24 32 28 28 (602112)
I0403 15:10:02.290431 18366 net.cpp:156] Memory required for data: 541901856
I0403 15:10:02.290446 18366 layer_factory.hpp:77] Creating layer inception_3a/pool
I0403 15:10:02.290464 18366 net.cpp:91] Creating Layer inception_3a/pool
I0403 15:10:02.290495 18366 net.cpp:425] inception_3a/pool <- pool2/3x3_s2_pool2/3x3_s2_0_split_3
I0403 15:10:02.290518 18366 net.cpp:399] inception_3a/pool -> inception_3a/pool
I0403 15:10:02.290575 18366 net.cpp:141] Setting up inception_3a/pool
I0403 15:10:02.290601 18366 net.cpp:148] Top shape: 24 192 28 28 (3612672)
I0403 15:10:02.290617 18366 net.cpp:156] Memory required for data: 556352544
I0403 15:10:02.290632 18366 layer_factory.hpp:77] Creating layer inception_3a/pool_proj
I0403 15:10:02.290654 18366 net.cpp:91] Creating Layer inception_3a/pool_proj
I0403 15:10:02.290671 18366 net.cpp:425] inception_3a/pool_proj <- inception_3a/pool
I0403 15:10:02.290690 18366 net.cpp:399] inception_3a/pool_proj -> inception_3a/pool_proj
I0403 15:10:02.291708 18366 net.cpp:141] Setting up inception_3a/pool_proj
I0403 15:10:02.291749 18366 net.cpp:148] Top shape: 24 32 28 28 (602112)
I0403 15:10:02.291766 18366 net.cpp:156] Memory required for data: 558760992
I0403 15:10:02.291792 18366 layer_factory.hpp:77] Creating layer inception_3a/relu_pool_proj
I0403 15:10:02.291813 18366 net.cpp:91] Creating Layer inception_3a/relu_pool_proj
I0403 15:10:02.291829 18366 net.cpp:425] inception_3a/relu_pool_proj <- inception_3a/pool_proj
I0403 15:10:02.291849 18366 net.cpp:386] inception_3a/relu_pool_proj -> inception_3a/pool_proj (in-place)
I0403 15:10:02.292160 18366 net.cpp:141] Setting up inception_3a/relu_pool_proj
I0403 15:10:02.292187 18366 net.cpp:148] Top shape: 24 32 28 28 (602112)
I0403 15:10:02.292204 18366 net.cpp:156] Memory required for data: 561169440
I0403 15:10:02.292219 18366 layer_factory.hpp:77] Creating layer inception_3a/output
I0403 15:10:02.292237 18366 net.cpp:91] Creating Layer inception_3a/output
I0403 15:10:02.292264 18366 net.cpp:425] inception_3a/output <- inception_3a/1x1
I0403 15:10:02.292281 18366 net.cpp:425] inception_3a/output <- inception_3a/3x3
I0403 15:10:02.292299 18366 net.cpp:425] inception_3a/output <- inception_3a/5x5
I0403 15:10:02.292315 18366 net.cpp:425] inception_3a/output <- inception_3a/pool_proj
I0403 15:10:02.292331 18366 net.cpp:399] inception_3a/output -> inception_3a/output
I0403 15:10:02.292382 18366 net.cpp:141] Setting up inception_3a/output
I0403 15:10:02.292407 18366 net.cpp:148] Top shape: 24 256 28 28 (4816896)
I0403 15:10:02.292421 18366 net.cpp:156] Memory required for data: 580437024
I0403 15:10:02.292436 18366 layer_factory.hpp:77] Creating layer inception_3a/output_inception_3a/output_0_split
I0403 15:10:02.292457 18366 net.cpp:91] Creating Layer inception_3a/output_inception_3a/output_0_split
I0403 15:10:02.292474 18366 net.cpp:425] inception_3a/output_inception_3a/output_0_split <- inception_3a/output
I0403 15:10:02.292491 18366 net.cpp:399] inception_3a/output_inception_3a/output_0_split -> inception_3a/output_inception_3a/output_0_split_0
I0403 15:10:02.292511 18366 net.cpp:399] inception_3a/output_inception_3a/output_0_split -> inception_3a/output_inception_3a/output_0_split_1
I0403 15:10:02.292549 18366 net.cpp:399] inception_3a/output_inception_3a/output_0_split -> inception_3a/output_inception_3a/output_0_split_2
I0403 15:10:02.292572 18366 net.cpp:399] inception_3a/output_inception_3a/output_0_split -> inception_3a/output_inception_3a/output_0_split_3
I0403 15:10:02.292646 18366 net.cpp:141] Setting up inception_3a/output_inception_3a/output_0_split
I0403 15:10:02.292670 18366 net.cpp:148] Top shape: 24 256 28 28 (4816896)
I0403 15:10:02.292686 18366 net.cpp:148] Top shape: 24 256 28 28 (4816896)
I0403 15:10:02.292702 18366 net.cpp:148] Top shape: 24 256 28 28 (4816896)
I0403 15:10:02.292717 18366 net.cpp:148] Top shape: 24 256 28 28 (4816896)
I0403 15:10:02.292731 18366 net.cpp:156] Memory required for data: 657507360
I0403 15:10:02.292745 18366 layer_factory.hpp:77] Creating layer inception_3b/1x1
I0403 15:10:02.292769 18366 net.cpp:91] Creating Layer inception_3b/1x1
I0403 15:10:02.292788 18366 net.cpp:425] inception_3b/1x1 <- inception_3a/output_inception_3a/output_0_split_0
I0403 15:10:02.292806 18366 net.cpp:399] inception_3b/1x1 -> inception_3b/1x1
I0403 15:10:02.293973 18366 net.cpp:141] Setting up inception_3b/1x1
I0403 15:10:02.294019 18366 net.cpp:148] Top shape: 24 128 28 28 (2408448)
I0403 15:10:02.294035 18366 net.cpp:156] Memory required for data: 667141152
I0403 15:10:02.294054 18366 layer_factory.hpp:77] Creating layer inception_3b/relu_1x1
I0403 15:10:02.294075 18366 net.cpp:91] Creating Layer inception_3b/relu_1x1
I0403 15:10:02.294091 18366 net.cpp:425] inception_3b/relu_1x1 <- inception_3b/1x1
I0403 15:10:02.294109 18366 net.cpp:386] inception_3b/relu_1x1 -> inception_3b/1x1 (in-place)
I0403 15:10:02.294284 18366 net.cpp:141] Setting up inception_3b/relu_1x1
I0403 15:10:02.294312 18366 net.cpp:148] Top shape: 24 128 28 28 (2408448)
I0403 15:10:02.294328 18366 net.cpp:156] Memory required for data: 676774944
I0403 15:10:02.294343 18366 layer_factory.hpp:77] Creating layer inception_3b/3x3_reduce
I0403 15:10:02.294366 18366 net.cpp:91] Creating Layer inception_3b/3x3_reduce
I0403 15:10:02.294384 18366 net.cpp:425] inception_3b/3x3_reduce <- inception_3a/output_inception_3a/output_0_split_1
I0403 15:10:02.294405 18366 net.cpp:399] inception_3b/3x3_reduce -> inception_3b/3x3_reduce
I0403 15:10:02.295600 18366 net.cpp:141] Setting up inception_3b/3x3_reduce
I0403 15:10:02.295630 18366 net.cpp:148] Top shape: 24 128 28 28 (2408448)
I0403 15:10:02.295647 18366 net.cpp:156] Memory required for data: 686408736
I0403 15:10:02.295667 18366 layer_factory.hpp:77] Creating layer inception_3b/relu_3x3_reduce
I0403 15:10:02.295688 18366 net.cpp:91] Creating Layer inception_3b/relu_3x3_reduce
I0403 15:10:02.295706 18366 net.cpp:425] inception_3b/relu_3x3_reduce <- inception_3b/3x3_reduce
I0403 15:10:02.295724 18366 net.cpp:386] inception_3b/relu_3x3_reduce -> inception_3b/3x3_reduce (in-place)
I0403 15:10:02.295908 18366 net.cpp:141] Setting up inception_3b/relu_3x3_reduce
I0403 15:10:02.295938 18366 net.cpp:148] Top shape: 24 128 28 28 (2408448)
I0403 15:10:02.295954 18366 net.cpp:156] Memory required for data: 696042528
I0403 15:10:02.295970 18366 layer_factory.hpp:77] Creating layer inception_3b/3x3
I0403 15:10:02.296000 18366 net.cpp:91] Creating Layer inception_3b/3x3
I0403 15:10:02.296020 18366 net.cpp:425] inception_3b/3x3 <- inception_3b/3x3_reduce
I0403 15:10:02.296042 18366 net.cpp:399] inception_3b/3x3 -> inception_3b/3x3
I0403 15:10:02.299108 18366 net.cpp:141] Setting up inception_3b/3x3
I0403 15:10:02.299141 18366 net.cpp:148] Top shape: 24 192 28 28 (3612672)
I0403 15:10:02.299159 18366 net.cpp:156] Memory required for data: 710493216
I0403 15:10:02.299178 18366 layer_factory.hpp:77] Creating layer inception_3b/relu_3x3
I0403 15:10:02.299197 18366 net.cpp:91] Creating Layer inception_3b/relu_3x3
I0403 15:10:02.299216 18366 net.cpp:425] inception_3b/relu_3x3 <- inception_3b/3x3
I0403 15:10:02.299233 18366 net.cpp:386] inception_3b/relu_3x3 -> inception_3b/3x3 (in-place)
I0403 15:10:02.299522 18366 net.cpp:141] Setting up inception_3b/relu_3x3
I0403 15:10:02.299552 18366 net.cpp:148] Top shape: 24 192 28 28 (3612672)
I0403 15:10:02.299568 18366 net.cpp:156] Memory required for data: 724943904
I0403 15:10:02.299584 18366 layer_factory.hpp:77] Creating layer inception_3b/5x5_reduce
I0403 15:10:02.299607 18366 net.cpp:91] Creating Layer inception_3b/5x5_reduce
I0403 15:10:02.299626 18366 net.cpp:425] inception_3b/5x5_reduce <- inception_3a/output_inception_3a/output_0_split_2
I0403 15:10:02.299646 18366 net.cpp:399] inception_3b/5x5_reduce -> inception_3b/5x5_reduce
I0403 15:10:02.300693 18366 net.cpp:141] Setting up inception_3b/5x5_reduce
I0403 15:10:02.300726 18366 net.cpp:148] Top shape: 24 32 28 28 (602112)
I0403 15:10:02.300745 18366 net.cpp:156] Memory required for data: 727352352
I0403 15:10:02.300765 18366 layer_factory.hpp:77] Creating layer inception_3b/relu_5x5_reduce
I0403 15:10:02.300784 18366 net.cpp:91] Creating Layer inception_3b/relu_5x5_reduce
I0403 15:10:02.300801 18366 net.cpp:425] inception_3b/relu_5x5_reduce <- inception_3b/5x5_reduce
I0403 15:10:02.300820 18366 net.cpp:386] inception_3b/relu_5x5_reduce -> inception_3b/5x5_reduce (in-place)
I0403 15:10:02.301031 18366 net.cpp:141] Setting up inception_3b/relu_5x5_reduce
I0403 15:10:02.301059 18366 net.cpp:148] Top shape: 24 32 28 28 (602112)
I0403 15:10:02.301074 18366 net.cpp:156] Memory required for data: 729760800
I0403 15:10:02.301090 18366 layer_factory.hpp:77] Creating layer inception_3b/5x5
I0403 15:10:02.301115 18366 net.cpp:91] Creating Layer inception_3b/5x5
I0403 15:10:02.301132 18366 net.cpp:425] inception_3b/5x5 <- inception_3b/5x5_reduce
I0403 15:10:02.301154 18366 net.cpp:399] inception_3b/5x5 -> inception_3b/5x5
I0403 15:10:02.303227 18366 net.cpp:141] Setting up inception_3b/5x5
I0403 15:10:02.303258 18366 net.cpp:148] Top shape: 24 96 28 28 (1806336)
I0403 15:10:02.303275 18366 net.cpp:156] Memory required for data: 736986144
I0403 15:10:02.303294 18366 layer_factory.hpp:77] Creating layer inception_3b/relu_5x5
I0403 15:10:02.303315 18366 net.cpp:91] Creating Layer inception_3b/relu_5x5
I0403 15:10:02.303333 18366 net.cpp:425] inception_3b/relu_5x5 <- inception_3b/5x5
I0403 15:10:02.303351 18366 net.cpp:386] inception_3b/relu_5x5 -> inception_3b/5x5 (in-place)
I0403 15:10:02.303555 18366 net.cpp:141] Setting up inception_3b/relu_5x5
I0403 15:10:02.303582 18366 net.cpp:148] Top shape: 24 96 28 28 (1806336)
I0403 15:10:02.303598 18366 net.cpp:156] Memory required for data: 744211488
I0403 15:10:02.303616 18366 layer_factory.hpp:77] Creating layer inception_3b/pool
I0403 15:10:02.303633 18366 net.cpp:91] Creating Layer inception_3b/pool
I0403 15:10:02.303650 18366 net.cpp:425] inception_3b/pool <- inception_3a/output_inception_3a/output_0_split_3
I0403 15:10:02.303669 18366 net.cpp:399] inception_3b/pool -> inception_3b/pool
I0403 15:10:02.303727 18366 net.cpp:141] Setting up inception_3b/pool
I0403 15:10:02.303751 18366 net.cpp:148] Top shape: 24 256 28 28 (4816896)
I0403 15:10:02.303766 18366 net.cpp:156] Memory required for data: 763479072
I0403 15:10:02.303782 18366 layer_factory.hpp:77] Creating layer inception_3b/pool_proj
I0403 15:10:02.303807 18366 net.cpp:91] Creating Layer inception_3b/pool_proj
I0403 15:10:02.303823 18366 net.cpp:425] inception_3b/pool_proj <- inception_3b/pool
I0403 15:10:02.303845 18366 net.cpp:399] inception_3b/pool_proj -> inception_3b/pool_proj
I0403 15:10:02.304963 18366 net.cpp:141] Setting up inception_3b/pool_proj
I0403 15:10:02.304996 18366 net.cpp:148] Top shape: 24 64 28 28 (1204224)
I0403 15:10:02.305014 18366 net.cpp:156] Memory required for data: 768295968
I0403 15:10:02.305034 18366 layer_factory.hpp:77] Creating layer inception_3b/relu_pool_proj
I0403 15:10:02.305055 18366 net.cpp:91] Creating Layer inception_3b/relu_pool_proj
I0403 15:10:02.305073 18366 net.cpp:425] inception_3b/relu_pool_proj <- inception_3b/pool_proj
I0403 15:10:02.305091 18366 net.cpp:386] inception_3b/relu_pool_proj -> inception_3b/pool_proj (in-place)
I0403 15:10:02.305512 18366 net.cpp:141] Setting up inception_3b/relu_pool_proj
I0403 15:10:02.305541 18366 net.cpp:148] Top shape: 24 64 28 28 (1204224)
I0403 15:10:02.305555 18366 net.cpp:156] Memory required for data: 773112864
I0403 15:10:02.305572 18366 layer_factory.hpp:77] Creating layer inception_3b/output
I0403 15:10:02.305589 18366 net.cpp:91] Creating Layer inception_3b/output
I0403 15:10:02.305605 18366 net.cpp:425] inception_3b/output <- inception_3b/1x1
I0403 15:10:02.305622 18366 net.cpp:425] inception_3b/output <- inception_3b/3x3
I0403 15:10:02.305639 18366 net.cpp:425] inception_3b/output <- inception_3b/5x5
I0403 15:10:02.305656 18366 net.cpp:425] inception_3b/output <- inception_3b/pool_proj
I0403 15:10:02.305676 18366 net.cpp:399] inception_3b/output -> inception_3b/output
I0403 15:10:02.305722 18366 net.cpp:141] Setting up inception_3b/output
I0403 15:10:02.305750 18366 net.cpp:148] Top shape: 24 480 28 28 (9031680)
I0403 15:10:02.305766 18366 net.cpp:156] Memory required for data: 809239584
I0403 15:10:02.305783 18366 layer_factory.hpp:77] Creating layer pool3/3x3_s2
I0403 15:10:02.305800 18366 net.cpp:91] Creating Layer pool3/3x3_s2
I0403 15:10:02.305816 18366 net.cpp:425] pool3/3x3_s2 <- inception_3b/output
I0403 15:10:02.305851 18366 net.cpp:399] pool3/3x3_s2 -> pool3/3x3_s2
I0403 15:10:02.305915 18366 net.cpp:141] Setting up pool3/3x3_s2
I0403 15:10:02.305939 18366 net.cpp:148] Top shape: 24 480 14 14 (2257920)
I0403 15:10:02.305955 18366 net.cpp:156] Memory required for data: 818271264
I0403 15:10:02.305970 18366 layer_factory.hpp:77] Creating layer pool3/3x3_s2_pool3/3x3_s2_0_split
I0403 15:10:02.305992 18366 net.cpp:91] Creating Layer pool3/3x3_s2_pool3/3x3_s2_0_split
I0403 15:10:02.306010 18366 net.cpp:425] pool3/3x3_s2_pool3/3x3_s2_0_split <- pool3/3x3_s2
I0403 15:10:02.306030 18366 net.cpp:399] pool3/3x3_s2_pool3/3x3_s2_0_split -> pool3/3x3_s2_pool3/3x3_s2_0_split_0
I0403 15:10:02.306051 18366 net.cpp:399] pool3/3x3_s2_pool3/3x3_s2_0_split -> pool3/3x3_s2_pool3/3x3_s2_0_split_1
I0403 15:10:02.306071 18366 net.cpp:399] pool3/3x3_s2_pool3/3x3_s2_0_split -> pool3/3x3_s2_pool3/3x3_s2_0_split_2
I0403 15:10:02.306092 18366 net.cpp:399] pool3/3x3_s2_pool3/3x3_s2_0_split -> pool3/3x3_s2_pool3/3x3_s2_0_split_3
I0403 15:10:02.306177 18366 net.cpp:141] Setting up pool3/3x3_s2_pool3/3x3_s2_0_split
I0403 15:10:02.306201 18366 net.cpp:148] Top shape: 24 480 14 14 (2257920)
I0403 15:10:02.306219 18366 net.cpp:148] Top shape: 24 480 14 14 (2257920)
I0403 15:10:02.306236 18366 net.cpp:148] Top shape: 24 480 14 14 (2257920)
I0403 15:10:02.306252 18366 net.cpp:148] Top shape: 24 480 14 14 (2257920)
I0403 15:10:02.306267 18366 net.cpp:156] Memory required for data: 854397984
I0403 15:10:02.306282 18366 layer_factory.hpp:77] Creating layer inception_4a/1x1
I0403 15:10:02.306305 18366 net.cpp:91] Creating Layer inception_4a/1x1
I0403 15:10:02.306324 18366 net.cpp:425] inception_4a/1x1 <- pool3/3x3_s2_pool3/3x3_s2_0_split_0
I0403 15:10:02.306345 18366 net.cpp:399] inception_4a/1x1 -> inception_4a/1x1
I0403 15:10:02.308013 18366 net.cpp:141] Setting up inception_4a/1x1
I0403 15:10:02.308043 18366 net.cpp:148] Top shape: 24 192 14 14 (903168)
I0403 15:10:02.308059 18366 net.cpp:156] Memory required for data: 858010656
I0403 15:10:02.308079 18366 layer_factory.hpp:77] Creating layer inception_4a/relu_1x1
I0403 15:10:02.308101 18366 net.cpp:91] Creating Layer inception_4a/relu_1x1
I0403 15:10:02.308118 18366 net.cpp:425] inception_4a/relu_1x1 <- inception_4a/1x1
I0403 15:10:02.308136 18366 net.cpp:386] inception_4a/relu_1x1 -> inception_4a/1x1 (in-place)
I0403 15:10:02.308320 18366 net.cpp:141] Setting up inception_4a/relu_1x1
I0403 15:10:02.308347 18366 net.cpp:148] Top shape: 24 192 14 14 (903168)
I0403 15:10:02.308362 18366 net.cpp:156] Memory required for data: 861623328
I0403 15:10:02.308377 18366 layer_factory.hpp:77] Creating layer inception_4a/3x3_reduce
I0403 15:10:02.308403 18366 net.cpp:91] Creating Layer inception_4a/3x3_reduce
I0403 15:10:02.308423 18366 net.cpp:425] inception_4a/3x3_reduce <- pool3/3x3_s2_pool3/3x3_s2_0_split_1
I0403 15:10:02.308442 18366 net.cpp:399] inception_4a/3x3_reduce -> inception_4a/3x3_reduce
I0403 15:10:02.309810 18366 net.cpp:141] Setting up inception_4a/3x3_reduce
I0403 15:10:02.309841 18366 net.cpp:148] Top shape: 24 96 14 14 (451584)
I0403 15:10:02.309857 18366 net.cpp:156] Memory required for data: 863429664
I0403 15:10:02.309886 18366 layer_factory.hpp:77] Creating layer inception_4a/relu_3x3_reduce
I0403 15:10:02.309907 18366 net.cpp:91] Creating Layer inception_4a/relu_3x3_reduce
I0403 15:10:02.309924 18366 net.cpp:425] inception_4a/relu_3x3_reduce <- inception_4a/3x3_reduce
I0403 15:10:02.309944 18366 net.cpp:386] inception_4a/relu_3x3_reduce -> inception_4a/3x3_reduce (in-place)
I0403 15:10:02.310134 18366 net.cpp:141] Setting up inception_4a/relu_3x3_reduce
I0403 15:10:02.310161 18366 net.cpp:148] Top shape: 24 96 14 14 (451584)
I0403 15:10:02.310176 18366 net.cpp:156] Memory required for data: 865236000
I0403 15:10:02.310192 18366 layer_factory.hpp:77] Creating layer inception_4a/3x3
I0403 15:10:02.310217 18366 net.cpp:91] Creating Layer inception_4a/3x3
I0403 15:10:02.310235 18366 net.cpp:425] inception_4a/3x3 <- inception_4a/3x3_reduce
I0403 15:10:02.310257 18366 net.cpp:399] inception_4a/3x3 -> inception_4a/3x3
I0403 15:10:02.313102 18366 net.cpp:141] Setting up inception_4a/3x3
I0403 15:10:02.313132 18366 net.cpp:148] Top shape: 24 208 14 14 (978432)
I0403 15:10:02.313148 18366 net.cpp:156] Memory required for data: 869149728
I0403 15:10:02.313168 18366 layer_factory.hpp:77] Creating layer inception_4a/relu_3x3
I0403 15:10:02.313189 18366 net.cpp:91] Creating Layer inception_4a/relu_3x3
I0403 15:10:02.313206 18366 net.cpp:425] inception_4a/relu_3x3 <- inception_4a/3x3
I0403 15:10:02.313225 18366 net.cpp:386] inception_4a/relu_3x3 -> inception_4a/3x3 (in-place)
I0403 15:10:02.313519 18366 net.cpp:141] Setting up inception_4a/relu_3x3
I0403 15:10:02.313547 18366 net.cpp:148] Top shape: 24 208 14 14 (978432)
I0403 15:10:02.313562 18366 net.cpp:156] Memory required for data: 873063456
I0403 15:10:02.313580 18366 layer_factory.hpp:77] Creating layer inception_4a/5x5_reduce
I0403 15:10:02.313603 18366 net.cpp:91] Creating Layer inception_4a/5x5_reduce
I0403 15:10:02.313621 18366 net.cpp:425] inception_4a/5x5_reduce <- pool3/3x3_s2_pool3/3x3_s2_0_split_2
I0403 15:10:02.313643 18366 net.cpp:399] inception_4a/5x5_reduce -> inception_4a/5x5_reduce
I0403 15:10:02.314728 18366 net.cpp:141] Setting up inception_4a/5x5_reduce
I0403 15:10:02.314760 18366 net.cpp:148] Top shape: 24 16 14 14 (75264)
I0403 15:10:02.314790 18366 net.cpp:156] Memory required for data: 873364512
I0403 15:10:02.314810 18366 layer_factory.hpp:77] Creating layer inception_4a/relu_5x5_reduce
I0403 15:10:02.314828 18366 net.cpp:91] Creating Layer inception_4a/relu_5x5_reduce
I0403 15:10:02.314844 18366 net.cpp:425] inception_4a/relu_5x5_reduce <- inception_4a/5x5_reduce
I0403 15:10:02.314862 18366 net.cpp:386] inception_4a/relu_5x5_reduce -> inception_4a/5x5_reduce (in-place)
I0403 15:10:02.315054 18366 net.cpp:141] Setting up inception_4a/relu_5x5_reduce
I0403 15:10:02.315093 18366 net.cpp:148] Top shape: 24 16 14 14 (75264)
I0403 15:10:02.315109 18366 net.cpp:156] Memory required for data: 873665568
I0403 15:10:02.315124 18366 layer_factory.hpp:77] Creating layer inception_4a/5x5
I0403 15:10:02.315145 18366 net.cpp:91] Creating Layer inception_4a/5x5
I0403 15:10:02.315162 18366 net.cpp:425] inception_4a/5x5 <- inception_4a/5x5_reduce
I0403 15:10:02.315183 18366 net.cpp:399] inception_4a/5x5 -> inception_4a/5x5
I0403 15:10:02.316282 18366 net.cpp:141] Setting up inception_4a/5x5
I0403 15:10:02.316309 18366 net.cpp:148] Top shape: 24 48 14 14 (225792)
I0403 15:10:02.316324 18366 net.cpp:156] Memory required for data: 874568736
I0403 15:10:02.316344 18366 layer_factory.hpp:77] Creating layer inception_4a/relu_5x5
I0403 15:10:02.316361 18366 net.cpp:91] Creating Layer inception_4a/relu_5x5
I0403 15:10:02.316377 18366 net.cpp:425] inception_4a/relu_5x5 <- inception_4a/5x5
I0403 15:10:02.316397 18366 net.cpp:386] inception_4a/relu_5x5 -> inception_4a/5x5 (in-place)
I0403 15:10:02.316592 18366 net.cpp:141] Setting up inception_4a/relu_5x5
I0403 15:10:02.316617 18366 net.cpp:148] Top shape: 24 48 14 14 (225792)
I0403 15:10:02.316630 18366 net.cpp:156] Memory required for data: 875471904
I0403 15:10:02.316645 18366 layer_factory.hpp:77] Creating layer inception_4a/pool
I0403 15:10:02.316664 18366 net.cpp:91] Creating Layer inception_4a/pool
I0403 15:10:02.316680 18366 net.cpp:425] inception_4a/pool <- pool3/3x3_s2_pool3/3x3_s2_0_split_3
I0403 15:10:02.316697 18366 net.cpp:399] inception_4a/pool -> inception_4a/pool
I0403 15:10:02.316758 18366 net.cpp:141] Setting up inception_4a/pool
I0403 15:10:02.316781 18366 net.cpp:148] Top shape: 24 480 14 14 (2257920)
I0403 15:10:02.316797 18366 net.cpp:156] Memory required for data: 884503584
I0403 15:10:02.316810 18366 layer_factory.hpp:77] Creating layer inception_4a/pool_proj
I0403 15:10:02.316833 18366 net.cpp:91] Creating Layer inception_4a/pool_proj
I0403 15:10:02.316849 18366 net.cpp:425] inception_4a/pool_proj <- inception_4a/pool
I0403 15:10:02.316870 18366 net.cpp:399] inception_4a/pool_proj -> inception_4a/pool_proj
I0403 15:10:02.318048 18366 net.cpp:141] Setting up inception_4a/pool_proj
I0403 15:10:02.318076 18366 net.cpp:148] Top shape: 24 64 14 14 (301056)
I0403 15:10:02.318105 18366 net.cpp:156] Memory required for data: 885707808
I0403 15:10:02.318125 18366 layer_factory.hpp:77] Creating layer inception_4a/relu_pool_proj
I0403 15:10:02.318142 18366 net.cpp:91] Creating Layer inception_4a/relu_pool_proj
I0403 15:10:02.318157 18366 net.cpp:425] inception_4a/relu_pool_proj <- inception_4a/pool_proj
I0403 15:10:02.318177 18366 net.cpp:386] inception_4a/relu_pool_proj -> inception_4a/pool_proj (in-place)
I0403 15:10:02.318462 18366 net.cpp:141] Setting up inception_4a/relu_pool_proj
I0403 15:10:02.318488 18366 net.cpp:148] Top shape: 24 64 14 14 (301056)
I0403 15:10:02.318503 18366 net.cpp:156] Memory required for data: 886912032
I0403 15:10:02.318518 18366 layer_factory.hpp:77] Creating layer inception_4a/output
I0403 15:10:02.318534 18366 net.cpp:91] Creating Layer inception_4a/output
I0403 15:10:02.318549 18366 net.cpp:425] inception_4a/output <- inception_4a/1x1
I0403 15:10:02.318565 18366 net.cpp:425] inception_4a/output <- inception_4a/3x3
I0403 15:10:02.318581 18366 net.cpp:425] inception_4a/output <- inception_4a/5x5
I0403 15:10:02.318596 18366 net.cpp:425] inception_4a/output <- inception_4a/pool_proj
I0403 15:10:02.318614 18366 net.cpp:399] inception_4a/output -> inception_4a/output
I0403 15:10:02.318658 18366 net.cpp:141] Setting up inception_4a/output
I0403 15:10:02.318683 18366 net.cpp:148] Top shape: 24 512 14 14 (2408448)
I0403 15:10:02.318698 18366 net.cpp:156] Memory required for data: 896545824
I0403 15:10:02.318714 18366 layer_factory.hpp:77] Creating layer inception_4a/output_inception_4a/output_0_split
I0403 15:10:02.318732 18366 net.cpp:91] Creating Layer inception_4a/output_inception_4a/output_0_split
I0403 15:10:02.318747 18366 net.cpp:425] inception_4a/output_inception_4a/output_0_split <- inception_4a/output
I0403 15:10:02.318765 18366 net.cpp:399] inception_4a/output_inception_4a/output_0_split -> inception_4a/output_inception_4a/output_0_split_0
I0403 15:10:02.318786 18366 net.cpp:399] inception_4a/output_inception_4a/output_0_split -> inception_4a/output_inception_4a/output_0_split_1
I0403 15:10:02.318805 18366 net.cpp:399] inception_4a/output_inception_4a/output_0_split -> inception_4a/output_inception_4a/output_0_split_2
I0403 15:10:02.318825 18366 net.cpp:399] inception_4a/output_inception_4a/output_0_split -> inception_4a/output_inception_4a/output_0_split_3
I0403 15:10:02.318843 18366 net.cpp:399] inception_4a/output_inception_4a/output_0_split -> inception_4a/output_inception_4a/output_0_split_4
I0403 15:10:02.318934 18366 net.cpp:141] Setting up inception_4a/output_inception_4a/output_0_split
I0403 15:10:02.318959 18366 net.cpp:148] Top shape: 24 512 14 14 (2408448)
I0403 15:10:02.318976 18366 net.cpp:148] Top shape: 24 512 14 14 (2408448)
I0403 15:10:02.319005 18366 net.cpp:148] Top shape: 24 512 14 14 (2408448)
I0403 15:10:02.319022 18366 net.cpp:148] Top shape: 24 512 14 14 (2408448)
I0403 15:10:02.319037 18366 net.cpp:148] Top shape: 24 512 14 14 (2408448)
I0403 15:10:02.319051 18366 net.cpp:156] Memory required for data: 944714784
I0403 15:10:02.319066 18366 layer_factory.hpp:77] Creating layer loss1/ave_pool
I0403 15:10:02.319082 18366 net.cpp:91] Creating Layer loss1/ave_pool
I0403 15:10:02.319097 18366 net.cpp:425] loss1/ave_pool <- inception_4a/output_inception_4a/output_0_split_0
I0403 15:10:02.319114 18366 net.cpp:399] loss1/ave_pool -> loss1/ave_pool
I0403 15:10:02.319324 18366 net.cpp:141] Setting up loss1/ave_pool
I0403 15:10:02.319350 18366 net.cpp:148] Top shape: 24 512 4 4 (196608)
I0403 15:10:02.319365 18366 net.cpp:156] Memory required for data: 945501216
I0403 15:10:02.319380 18366 layer_factory.hpp:77] Creating layer loss1/conv
I0403 15:10:02.319401 18366 net.cpp:91] Creating Layer loss1/conv
I0403 15:10:02.319417 18366 net.cpp:425] loss1/conv <- loss1/ave_pool
I0403 15:10:02.319437 18366 net.cpp:399] loss1/conv -> loss1/conv
I0403 15:10:02.320888 18366 net.cpp:141] Setting up loss1/conv
I0403 15:10:02.320915 18366 net.cpp:148] Top shape: 24 128 4 4 (49152)
I0403 15:10:02.320946 18366 net.cpp:156] Memory required for data: 945697824
I0403 15:10:02.320966 18366 layer_factory.hpp:77] Creating layer loss1/relu_conv
I0403 15:10:02.320987 18366 net.cpp:91] Creating Layer loss1/relu_conv
I0403 15:10:02.321004 18366 net.cpp:425] loss1/relu_conv <- loss1/conv
I0403 15:10:02.321022 18366 net.cpp:386] loss1/relu_conv -> loss1/conv (in-place)
I0403 15:10:02.321305 18366 net.cpp:141] Setting up loss1/relu_conv
I0403 15:10:02.321331 18366 net.cpp:148] Top shape: 24 128 4 4 (49152)
I0403 15:10:02.321349 18366 net.cpp:156] Memory required for data: 945894432
I0403 15:10:02.321364 18366 layer_factory.hpp:77] Creating layer loss1/fc
I0403 15:10:02.321388 18366 net.cpp:91] Creating Layer loss1/fc
I0403 15:10:02.321405 18366 net.cpp:425] loss1/fc <- loss1/conv
I0403 15:10:02.321429 18366 net.cpp:399] loss1/fc -> loss1/fc
I0403 15:10:02.339316 18366 net.cpp:141] Setting up loss1/fc
I0403 15:10:02.339377 18366 net.cpp:148] Top shape: 24 1024 (24576)
I0403 15:10:02.339393 18366 net.cpp:156] Memory required for data: 945992736
I0403 15:10:02.339412 18366 layer_factory.hpp:77] Creating layer loss1/relu_fc
I0403 15:10:02.339435 18366 net.cpp:91] Creating Layer loss1/relu_fc
I0403 15:10:02.339453 18366 net.cpp:425] loss1/relu_fc <- loss1/fc
I0403 15:10:02.339471 18366 net.cpp:386] loss1/relu_fc -> loss1/fc (in-place)
I0403 15:10:02.339675 18366 net.cpp:141] Setting up loss1/relu_fc
I0403 15:10:02.339699 18366 net.cpp:148] Top shape: 24 1024 (24576)
I0403 15:10:02.339715 18366 net.cpp:156] Memory required for data: 946091040
I0403 15:10:02.339728 18366 layer_factory.hpp:77] Creating layer loss1/drop_fc
I0403 15:10:02.339758 18366 net.cpp:91] Creating Layer loss1/drop_fc
I0403 15:10:02.339776 18366 net.cpp:425] loss1/drop_fc <- loss1/fc
I0403 15:10:02.339792 18366 net.cpp:386] loss1/drop_fc -> loss1/fc (in-place)
I0403 15:10:02.339843 18366 net.cpp:141] Setting up loss1/drop_fc
I0403 15:10:02.339869 18366 net.cpp:148] Top shape: 24 1024 (24576)
I0403 15:10:02.339884 18366 net.cpp:156] Memory required for data: 946189344
I0403 15:10:02.339898 18366 layer_factory.hpp:77] Creating layer loss1/classifier_plantvillage
I0403 15:10:02.339917 18366 net.cpp:91] Creating Layer loss1/classifier_plantvillage
I0403 15:10:02.339932 18366 net.cpp:425] loss1/classifier_plantvillage <- loss1/fc
I0403 15:10:02.339954 18366 net.cpp:399] loss1/classifier_plantvillage -> loss1/classifier_plantvillage
I0403 15:10:02.340904 18366 net.cpp:141] Setting up loss1/classifier_plantvillage
I0403 15:10:02.340934 18366 net.cpp:148] Top shape: 24 38 (912)
I0403 15:10:02.340950 18366 net.cpp:156] Memory required for data: 946192992
I0403 15:10:02.340967 18366 layer_factory.hpp:77] Creating layer loss1/classifier_plantvillage_loss1/classifier_plantvillage_0_split
I0403 15:10:02.340989 18366 net.cpp:91] Creating Layer loss1/classifier_plantvillage_loss1/classifier_plantvillage_0_split
I0403 15:10:02.341008 18366 net.cpp:425] loss1/classifier_plantvillage_loss1/classifier_plantvillage_0_split <- loss1/classifier_plantvillage
I0403 15:10:02.341025 18366 net.cpp:399] loss1/classifier_plantvillage_loss1/classifier_plantvillage_0_split -> loss1/classifier_plantvillage_loss1/classifier_plantvillage_0_split_0
I0403 15:10:02.341044 18366 net.cpp:399] loss1/classifier_plantvillage_loss1/classifier_plantvillage_0_split -> loss1/classifier_plantvillage_loss1/classifier_plantvillage_0_split_1
I0403 15:10:02.341063 18366 net.cpp:399] loss1/classifier_plantvillage_loss1/classifier_plantvillage_0_split -> loss1/classifier_plantvillage_loss1/classifier_plantvillage_0_split_2
I0403 15:10:02.341133 18366 net.cpp:141] Setting up loss1/classifier_plantvillage_loss1/classifier_plantvillage_0_split
I0403 15:10:02.341156 18366 net.cpp:148] Top shape: 24 38 (912)
I0403 15:10:02.341172 18366 net.cpp:148] Top shape: 24 38 (912)
I0403 15:10:02.341187 18366 net.cpp:148] Top shape: 24 38 (912)
I0403 15:10:02.341202 18366 net.cpp:156] Memory required for data: 946203936
I0403 15:10:02.341217 18366 layer_factory.hpp:77] Creating layer inception_4b/1x1
I0403 15:10:02.341238 18366 net.cpp:91] Creating Layer inception_4b/1x1
I0403 15:10:02.341276 18366 net.cpp:425] inception_4b/1x1 <- inception_4a/output_inception_4a/output_0_split_1
I0403 15:10:02.341298 18366 net.cpp:399] inception_4b/1x1 -> inception_4b/1x1
I0403 15:10:02.342978 18366 net.cpp:141] Setting up inception_4b/1x1
I0403 15:10:02.343029 18366 net.cpp:148] Top shape: 24 160 14 14 (752640)
I0403 15:10:02.343047 18366 net.cpp:156] Memory required for data: 949214496
I0403 15:10:02.343066 18366 layer_factory.hpp:77] Creating layer inception_4b/relu_1x1
I0403 15:10:02.343085 18366 net.cpp:91] Creating Layer inception_4b/relu_1x1
I0403 15:10:02.343101 18366 net.cpp:425] inception_4b/relu_1x1 <- inception_4b/1x1
I0403 15:10:02.343118 18366 net.cpp:386] inception_4b/relu_1x1 -> inception_4b/1x1 (in-place)
I0403 15:10:02.343302 18366 net.cpp:141] Setting up inception_4b/relu_1x1
I0403 15:10:02.343330 18366 net.cpp:148] Top shape: 24 160 14 14 (752640)
I0403 15:10:02.343348 18366 net.cpp:156] Memory required for data: 952225056
I0403 15:10:02.343363 18366 layer_factory.hpp:77] Creating layer inception_4b/3x3_reduce
I0403 15:10:02.343385 18366 net.cpp:91] Creating Layer inception_4b/3x3_reduce
I0403 15:10:02.343402 18366 net.cpp:425] inception_4b/3x3_reduce <- inception_4a/output_inception_4a/output_0_split_2
I0403 15:10:02.343426 18366 net.cpp:399] inception_4b/3x3_reduce -> inception_4b/3x3_reduce
I0403 15:10:02.348332 18366 net.cpp:141] Setting up inception_4b/3x3_reduce
I0403 15:10:02.348364 18366 net.cpp:148] Top shape: 24 112 14 14 (526848)
I0403 15:10:02.348382 18366 net.cpp:156] Memory required for data: 954332448
I0403 15:10:02.348402 18366 layer_factory.hpp:77] Creating layer inception_4b/relu_3x3_reduce
I0403 15:10:02.348423 18366 net.cpp:91] Creating Layer inception_4b/relu_3x3_reduce
I0403 15:10:02.348438 18366 net.cpp:425] inception_4b/relu_3x3_reduce <- inception_4b/3x3_reduce
I0403 15:10:02.348459 18366 net.cpp:386] inception_4b/relu_3x3_reduce -> inception_4b/3x3_reduce (in-place)
I0403 15:10:02.348778 18366 net.cpp:141] Setting up inception_4b/relu_3x3_reduce
I0403 15:10:02.348808 18366 net.cpp:148] Top shape: 24 112 14 14 (526848)
I0403 15:10:02.348824 18366 net.cpp:156] Memory required for data: 956439840
I0403 15:10:02.348840 18366 layer_factory.hpp:77] Creating layer inception_4b/3x3
I0403 15:10:02.348865 18366 net.cpp:91] Creating Layer inception_4b/3x3
I0403 15:10:02.348882 18366 net.cpp:425] inception_4b/3x3 <- inception_4b/3x3_reduce
I0403 15:10:02.348902 18366 net.cpp:399] inception_4b/3x3 -> inception_4b/3x3
I0403 15:10:02.352017 18366 net.cpp:141] Setting up inception_4b/3x3
I0403 15:10:02.352047 18366 net.cpp:148] Top shape: 24 224 14 14 (1053696)
I0403 15:10:02.352063 18366 net.cpp:156] Memory required for data: 960654624
I0403 15:10:02.352082 18366 layer_factory.hpp:77] Creating layer inception_4b/relu_3x3
I0403 15:10:02.352102 18366 net.cpp:91] Creating Layer inception_4b/relu_3x3
I0403 15:10:02.352120 18366 net.cpp:425] inception_4b/relu_3x3 <- inception_4b/3x3
I0403 15:10:02.352138 18366 net.cpp:386] inception_4b/relu_3x3 -> inception_4b/3x3 (in-place)
I0403 15:10:02.352336 18366 net.cpp:141] Setting up inception_4b/relu_3x3
I0403 15:10:02.352362 18366 net.cpp:148] Top shape: 24 224 14 14 (1053696)
I0403 15:10:02.352377 18366 net.cpp:156] Memory required for data: 964869408
I0403 15:10:02.352393 18366 layer_factory.hpp:77] Creating layer inception_4b/5x5_reduce
I0403 15:10:02.352418 18366 net.cpp:91] Creating Layer inception_4b/5x5_reduce
I0403 15:10:02.352437 18366 net.cpp:425] inception_4b/5x5_reduce <- inception_4a/output_inception_4a/output_0_split_3
I0403 15:10:02.352458 18366 net.cpp:399] inception_4b/5x5_reduce -> inception_4b/5x5_reduce
I0403 15:10:02.353590 18366 net.cpp:141] Setting up inception_4b/5x5_reduce
I0403 15:10:02.353620 18366 net.cpp:148] Top shape: 24 24 14 14 (112896)
I0403 15:10:02.353636 18366 net.cpp:156] Memory required for data: 965320992
I0403 15:10:02.353655 18366 layer_factory.hpp:77] Creating layer inception_4b/relu_5x5_reduce
I0403 15:10:02.353674 18366 net.cpp:91] Creating Layer inception_4b/relu_5x5_reduce
I0403 15:10:02.353705 18366 net.cpp:425] inception_4b/relu_5x5_reduce <- inception_4b/5x5_reduce
I0403 15:10:02.353726 18366 net.cpp:386] inception_4b/relu_5x5_reduce -> inception_4b/5x5_reduce (in-place)
I0403 15:10:02.353917 18366 net.cpp:141] Setting up inception_4b/relu_5x5_reduce
I0403 15:10:02.353942 18366 net.cpp:148] Top shape: 24 24 14 14 (112896)
I0403 15:10:02.353958 18366 net.cpp:156] Memory required for data: 965772576
I0403 15:10:02.353972 18366 layer_factory.hpp:77] Creating layer inception_4b/5x5
I0403 15:10:02.353999 18366 net.cpp:91] Creating Layer inception_4b/5x5
I0403 15:10:02.354018 18366 net.cpp:425] inception_4b/5x5 <- inception_4b/5x5_reduce
I0403 15:10:02.354040 18366 net.cpp:399] inception_4b/5x5 -> inception_4b/5x5
I0403 15:10:02.355321 18366 net.cpp:141] Setting up inception_4b/5x5
I0403 15:10:02.355351 18366 net.cpp:148] Top shape: 24 64 14 14 (301056)
I0403 15:10:02.355367 18366 net.cpp:156] Memory required for data: 966976800
I0403 15:10:02.355386 18366 layer_factory.hpp:77] Creating layer inception_4b/relu_5x5
I0403 15:10:02.355404 18366 net.cpp:91] Creating Layer inception_4b/relu_5x5
I0403 15:10:02.355420 18366 net.cpp:425] inception_4b/relu_5x5 <- inception_4b/5x5
I0403 15:10:02.355438 18366 net.cpp:386] inception_4b/relu_5x5 -> inception_4b/5x5 (in-place)
I0403 15:10:02.355731 18366 net.cpp:141] Setting up inception_4b/relu_5x5
I0403 15:10:02.355759 18366 net.cpp:148] Top shape: 24 64 14 14 (301056)
I0403 15:10:02.355775 18366 net.cpp:156] Memory required for data: 968181024
I0403 15:10:02.355790 18366 layer_factory.hpp:77] Creating layer inception_4b/pool
I0403 15:10:02.355810 18366 net.cpp:91] Creating Layer inception_4b/pool
I0403 15:10:02.355826 18366 net.cpp:425] inception_4b/pool <- inception_4a/output_inception_4a/output_0_split_4
I0403 15:10:02.355844 18366 net.cpp:399] inception_4b/pool -> inception_4b/pool
I0403 15:10:02.355912 18366 net.cpp:141] Setting up inception_4b/pool
I0403 15:10:02.355937 18366 net.cpp:148] Top shape: 24 512 14 14 (2408448)
I0403 15:10:02.355952 18366 net.cpp:156] Memory required for data: 977814816
I0403 15:10:02.355967 18366 layer_factory.hpp:77] Creating layer inception_4b/pool_proj
I0403 15:10:02.355993 18366 net.cpp:91] Creating Layer inception_4b/pool_proj
I0403 15:10:02.356011 18366 net.cpp:425] inception_4b/pool_proj <- inception_4b/pool
I0403 15:10:02.356032 18366 net.cpp:399] inception_4b/pool_proj -> inception_4b/pool_proj
I0403 15:10:02.357307 18366 net.cpp:141] Setting up inception_4b/pool_proj
I0403 15:10:02.357339 18366 net.cpp:148] Top shape: 24 64 14 14 (301056)
I0403 15:10:02.357357 18366 net.cpp:156] Memory required for data: 979019040
I0403 15:10:02.357374 18366 layer_factory.hpp:77] Creating layer inception_4b/relu_pool_proj
I0403 15:10:02.357393 18366 net.cpp:91] Creating Layer inception_4b/relu_pool_proj
I0403 15:10:02.357409 18366 net.cpp:425] inception_4b/relu_pool_proj <- inception_4b/pool_proj
I0403 15:10:02.357426 18366 net.cpp:386] inception_4b/relu_pool_proj -> inception_4b/pool_proj (in-place)
I0403 15:10:02.357614 18366 net.cpp:141] Setting up inception_4b/relu_pool_proj
I0403 15:10:02.357640 18366 net.cpp:148] Top shape: 24 64 14 14 (301056)
I0403 15:10:02.357655 18366 net.cpp:156] Memory required for data: 980223264
I0403 15:10:02.357669 18366 layer_factory.hpp:77] Creating layer inception_4b/output
I0403 15:10:02.357687 18366 net.cpp:91] Creating Layer inception_4b/output
I0403 15:10:02.357703 18366 net.cpp:425] inception_4b/output <- inception_4b/1x1
I0403 15:10:02.357719 18366 net.cpp:425] inception_4b/output <- inception_4b/3x3
I0403 15:10:02.357735 18366 net.cpp:425] inception_4b/output <- inception_4b/5x5
I0403 15:10:02.357751 18366 net.cpp:425] inception_4b/output <- inception_4b/pool_proj
I0403 15:10:02.357771 18366 net.cpp:399] inception_4b/output -> inception_4b/output
I0403 15:10:02.357817 18366 net.cpp:141] Setting up inception_4b/output
I0403 15:10:02.357843 18366 net.cpp:148] Top shape: 24 512 14 14 (2408448)
I0403 15:10:02.357859 18366 net.cpp:156] Memory required for data: 989857056
I0403 15:10:02.357888 18366 layer_factory.hpp:77] Creating layer inception_4b/output_inception_4b/output_0_split
I0403 15:10:02.357908 18366 net.cpp:91] Creating Layer inception_4b/output_inception_4b/output_0_split
I0403 15:10:02.357923 18366 net.cpp:425] inception_4b/output_inception_4b/output_0_split <- inception_4b/output
I0403 15:10:02.357939 18366 net.cpp:399] inception_4b/output_inception_4b/output_0_split -> inception_4b/output_inception_4b/output_0_split_0
I0403 15:10:02.357964 18366 net.cpp:399] inception_4b/output_inception_4b/output_0_split -> inception_4b/output_inception_4b/output_0_split_1
I0403 15:10:02.357983 18366 net.cpp:399] inception_4b/output_inception_4b/output_0_split -> inception_4b/output_inception_4b/output_0_split_2
I0403 15:10:02.358011 18366 net.cpp:399] inception_4b/output_inception_4b/output_0_split -> inception_4b/output_inception_4b/output_0_split_3
I0403 15:10:02.358096 18366 net.cpp:141] Setting up inception_4b/output_inception_4b/output_0_split
I0403 15:10:02.358119 18366 net.cpp:148] Top shape: 24 512 14 14 (2408448)
I0403 15:10:02.358135 18366 net.cpp:148] Top shape: 24 512 14 14 (2408448)
I0403 15:10:02.358151 18366 net.cpp:148] Top shape: 24 512 14 14 (2408448)
I0403 15:10:02.358167 18366 net.cpp:148] Top shape: 24 512 14 14 (2408448)
I0403 15:10:02.358181 18366 net.cpp:156] Memory required for data: 1028392224
I0403 15:10:02.358196 18366 layer_factory.hpp:77] Creating layer inception_4c/1x1
I0403 15:10:02.358219 18366 net.cpp:91] Creating Layer inception_4c/1x1
I0403 15:10:02.358237 18366 net.cpp:425] inception_4c/1x1 <- inception_4b/output_inception_4b/output_0_split_0
I0403 15:10:02.358258 18366 net.cpp:399] inception_4c/1x1 -> inception_4c/1x1
I0403 15:10:02.359756 18366 net.cpp:141] Setting up inception_4c/1x1
I0403 15:10:02.359786 18366 net.cpp:148] Top shape: 24 128 14 14 (602112)
I0403 15:10:02.359802 18366 net.cpp:156] Memory required for data: 1030800672
I0403 15:10:02.359820 18366 layer_factory.hpp:77] Creating layer inception_4c/relu_1x1
I0403 15:10:02.359841 18366 net.cpp:91] Creating Layer inception_4c/relu_1x1
I0403 15:10:02.359858 18366 net.cpp:425] inception_4c/relu_1x1 <- inception_4c/1x1
I0403 15:10:02.359876 18366 net.cpp:386] inception_4c/relu_1x1 -> inception_4c/1x1 (in-place)
I0403 15:10:02.360066 18366 net.cpp:141] Setting up inception_4c/relu_1x1
I0403 15:10:02.360092 18366 net.cpp:148] Top shape: 24 128 14 14 (602112)
I0403 15:10:02.360107 18366 net.cpp:156] Memory required for data: 1033209120
I0403 15:10:02.360122 18366 layer_factory.hpp:77] Creating layer inception_4c/3x3_reduce
I0403 15:10:02.360144 18366 net.cpp:91] Creating Layer inception_4c/3x3_reduce
I0403 15:10:02.360162 18366 net.cpp:425] inception_4c/3x3_reduce <- inception_4b/output_inception_4b/output_0_split_1
I0403 15:10:02.360183 18366 net.cpp:399] inception_4c/3x3_reduce -> inception_4c/3x3_reduce
I0403 15:10:02.362247 18366 net.cpp:141] Setting up inception_4c/3x3_reduce
I0403 15:10:02.362277 18366 net.cpp:148] Top shape: 24 128 14 14 (602112)
I0403 15:10:02.362293 18366 net.cpp:156] Memory required for data: 1035617568
I0403 15:10:02.362313 18366 layer_factory.hpp:77] Creating layer inception_4c/relu_3x3_reduce
I0403 15:10:02.362334 18366 net.cpp:91] Creating Layer inception_4c/relu_3x3_reduce
I0403 15:10:02.362351 18366 net.cpp:425] inception_4c/relu_3x3_reduce <- inception_4c/3x3_reduce
I0403 15:10:02.362380 18366 net.cpp:386] inception_4c/relu_3x3_reduce -> inception_4c/3x3_reduce (in-place)
I0403 15:10:02.362668 18366 net.cpp:141] Setting up inception_4c/relu_3x3_reduce
I0403 15:10:02.362694 18366 net.cpp:148] Top shape: 24 128 14 14 (602112)
I0403 15:10:02.362709 18366 net.cpp:156] Memory required for data: 1038026016
I0403 15:10:02.362723 18366 layer_factory.hpp:77] Creating layer inception_4c/3x3
I0403 15:10:02.362747 18366 net.cpp:91] Creating Layer inception_4c/3x3
I0403 15:10:02.362766 18366 net.cpp:425] inception_4c/3x3 <- inception_4c/3x3_reduce
I0403 15:10:02.362783 18366 net.cpp:399] inception_4c/3x3 -> inception_4c/3x3
I0403 15:10:02.366430 18366 net.cpp:141] Setting up inception_4c/3x3
I0403 15:10:02.366473 18366 net.cpp:148] Top shape: 24 256 14 14 (1204224)
I0403 15:10:02.366489 18366 net.cpp:156] Memory required for data: 1042842912
I0403 15:10:02.366523 18366 layer_factory.hpp:77] Creating layer inception_4c/relu_3x3
I0403 15:10:02.366542 18366 net.cpp:91] Creating Layer inception_4c/relu_3x3
I0403 15:10:02.366559 18366 net.cpp:425] inception_4c/relu_3x3 <- inception_4c/3x3
I0403 15:10:02.366575 18366 net.cpp:386] inception_4c/relu_3x3 -> inception_4c/3x3 (in-place)
I0403 15:10:02.366756 18366 net.cpp:141] Setting up inception_4c/relu_3x3
I0403 15:10:02.366783 18366 net.cpp:148] Top shape: 24 256 14 14 (1204224)
I0403 15:10:02.366798 18366 net.cpp:156] Memory required for data: 1047659808
I0403 15:10:02.366813 18366 layer_factory.hpp:77] Creating layer inception_4c/5x5_reduce
I0403 15:10:02.366837 18366 net.cpp:91] Creating Layer inception_4c/5x5_reduce
I0403 15:10:02.366854 18366 net.cpp:425] inception_4c/5x5_reduce <- inception_4b/output_inception_4b/output_0_split_2
I0403 15:10:02.366873 18366 net.cpp:399] inception_4c/5x5_reduce -> inception_4c/5x5_reduce
I0403 15:10:02.367971 18366 net.cpp:141] Setting up inception_4c/5x5_reduce
I0403 15:10:02.368006 18366 net.cpp:148] Top shape: 24 24 14 14 (112896)
I0403 15:10:02.368023 18366 net.cpp:156] Memory required for data: 1048111392
I0403 15:10:02.368041 18366 layer_factory.hpp:77] Creating layer inception_4c/relu_5x5_reduce
I0403 15:10:02.368060 18366 net.cpp:91] Creating Layer inception_4c/relu_5x5_reduce
I0403 15:10:02.368077 18366 net.cpp:425] inception_4c/relu_5x5_reduce <- inception_4c/5x5_reduce
I0403 15:10:02.368095 18366 net.cpp:386] inception_4c/relu_5x5_reduce -> inception_4c/5x5_reduce (in-place)
I0403 15:10:02.368288 18366 net.cpp:141] Setting up inception_4c/relu_5x5_reduce
I0403 15:10:02.368314 18366 net.cpp:148] Top shape: 24 24 14 14 (112896)
I0403 15:10:02.368329 18366 net.cpp:156] Memory required for data: 1048562976
I0403 15:10:02.368343 18366 layer_factory.hpp:77] Creating layer inception_4c/5x5
I0403 15:10:02.368366 18366 net.cpp:91] Creating Layer inception_4c/5x5
I0403 15:10:02.368383 18366 net.cpp:425] inception_4c/5x5 <- inception_4c/5x5_reduce
I0403 15:10:02.368405 18366 net.cpp:399] inception_4c/5x5 -> inception_4c/5x5
I0403 15:10:02.369683 18366 net.cpp:141] Setting up inception_4c/5x5
I0403 15:10:02.369710 18366 net.cpp:148] Top shape: 24 64 14 14 (301056)
I0403 15:10:02.369725 18366 net.cpp:156] Memory required for data: 1049767200
I0403 15:10:02.369743 18366 layer_factory.hpp:77] Creating layer inception_4c/relu_5x5
I0403 15:10:02.369761 18366 net.cpp:91] Creating Layer inception_4c/relu_5x5
I0403 15:10:02.369782 18366 net.cpp:425] inception_4c/relu_5x5 <- inception_4c/5x5
I0403 15:10:02.369801 18366 net.cpp:386] inception_4c/relu_5x5 -> inception_4c/5x5 (in-place)
I0403 15:10:02.370095 18366 net.cpp:141] Setting up inception_4c/relu_5x5
I0403 15:10:02.370121 18366 net.cpp:148] Top shape: 24 64 14 14 (301056)
I0403 15:10:02.370136 18366 net.cpp:156] Memory required for data: 1050971424
I0403 15:10:02.370151 18366 layer_factory.hpp:77] Creating layer inception_4c/pool
I0403 15:10:02.370168 18366 net.cpp:91] Creating Layer inception_4c/pool
I0403 15:10:02.370183 18366 net.cpp:425] inception_4c/pool <- inception_4b/output_inception_4b/output_0_split_3
I0403 15:10:02.370203 18366 net.cpp:399] inception_4c/pool -> inception_4c/pool
I0403 15:10:02.370268 18366 net.cpp:141] Setting up inception_4c/pool
I0403 15:10:02.370295 18366 net.cpp:148] Top shape: 24 512 14 14 (2408448)
I0403 15:10:02.370309 18366 net.cpp:156] Memory required for data: 1060605216
I0403 15:10:02.370324 18366 layer_factory.hpp:77] Creating layer inception_4c/pool_proj
I0403 15:10:02.370345 18366 net.cpp:91] Creating Layer inception_4c/pool_proj
I0403 15:10:02.370362 18366 net.cpp:425] inception_4c/pool_proj <- inception_4c/pool
I0403 15:10:02.370381 18366 net.cpp:399] inception_4c/pool_proj -> inception_4c/pool_proj
I0403 15:10:02.371598 18366 net.cpp:141] Setting up inception_4c/pool_proj
I0403 15:10:02.371628 18366 net.cpp:148] Top shape: 24 64 14 14 (301056)
I0403 15:10:02.371656 18366 net.cpp:156] Memory required for data: 1061809440
I0403 15:10:02.371676 18366 layer_factory.hpp:77] Creating layer inception_4c/relu_pool_proj
I0403 15:10:02.371695 18366 net.cpp:91] Creating Layer inception_4c/relu_pool_proj
I0403 15:10:02.371711 18366 net.cpp:425] inception_4c/relu_pool_proj <- inception_4c/pool_proj
I0403 15:10:02.371726 18366 net.cpp:386] inception_4c/relu_pool_proj -> inception_4c/pool_proj (in-place)
I0403 15:10:02.371909 18366 net.cpp:141] Setting up inception_4c/relu_pool_proj
I0403 15:10:02.371934 18366 net.cpp:148] Top shape: 24 64 14 14 (301056)
I0403 15:10:02.371948 18366 net.cpp:156] Memory required for data: 1063013664
I0403 15:10:02.371963 18366 layer_factory.hpp:77] Creating layer inception_4c/output
I0403 15:10:02.371980 18366 net.cpp:91] Creating Layer inception_4c/output
I0403 15:10:02.372000 18366 net.cpp:425] inception_4c/output <- inception_4c/1x1
I0403 15:10:02.372016 18366 net.cpp:425] inception_4c/output <- inception_4c/3x3
I0403 15:10:02.372032 18366 net.cpp:425] inception_4c/output <- inception_4c/5x5
I0403 15:10:02.372047 18366 net.cpp:425] inception_4c/output <- inception_4c/pool_proj
I0403 15:10:02.372066 18366 net.cpp:399] inception_4c/output -> inception_4c/output
I0403 15:10:02.372112 18366 net.cpp:141] Setting up inception_4c/output
I0403 15:10:02.372134 18366 net.cpp:148] Top shape: 24 512 14 14 (2408448)
I0403 15:10:02.372148 18366 net.cpp:156] Memory required for data: 1072647456
I0403 15:10:02.372162 18366 layer_factory.hpp:77] Creating layer inception_4c/output_inception_4c/output_0_split
I0403 15:10:02.372182 18366 net.cpp:91] Creating Layer inception_4c/output_inception_4c/output_0_split
I0403 15:10:02.372197 18366 net.cpp:425] inception_4c/output_inception_4c/output_0_split <- inception_4c/output
I0403 15:10:02.372216 18366 net.cpp:399] inception_4c/output_inception_4c/output_0_split -> inception_4c/output_inception_4c/output_0_split_0
I0403 15:10:02.372237 18366 net.cpp:399] inception_4c/output_inception_4c/output_0_split -> inception_4c/output_inception_4c/output_0_split_1
I0403 15:10:02.372269 18366 net.cpp:399] inception_4c/output_inception_4c/output_0_split -> inception_4c/output_inception_4c/output_0_split_2
I0403 15:10:02.372289 18366 net.cpp:399] inception_4c/output_inception_4c/output_0_split -> inception_4c/output_inception_4c/output_0_split_3
I0403 15:10:02.372377 18366 net.cpp:141] Setting up inception_4c/output_inception_4c/output_0_split
I0403 15:10:02.372401 18366 net.cpp:148] Top shape: 24 512 14 14 (2408448)
I0403 15:10:02.372417 18366 net.cpp:148] Top shape: 24 512 14 14 (2408448)
I0403 15:10:02.372433 18366 net.cpp:148] Top shape: 24 512 14 14 (2408448)
I0403 15:10:02.372448 18366 net.cpp:148] Top shape: 24 512 14 14 (2408448)
I0403 15:10:02.372462 18366 net.cpp:156] Memory required for data: 1111182624
I0403 15:10:02.372478 18366 layer_factory.hpp:77] Creating layer inception_4d/1x1
I0403 15:10:02.372499 18366 net.cpp:91] Creating Layer inception_4d/1x1
I0403 15:10:02.372516 18366 net.cpp:425] inception_4d/1x1 <- inception_4c/output_inception_4c/output_0_split_0
I0403 15:10:02.372550 18366 net.cpp:399] inception_4d/1x1 -> inception_4d/1x1
I0403 15:10:02.373935 18366 net.cpp:141] Setting up inception_4d/1x1
I0403 15:10:02.373963 18366 net.cpp:148] Top shape: 24 112 14 14 (526848)
I0403 15:10:02.373978 18366 net.cpp:156] Memory required for data: 1113290016
I0403 15:10:02.374001 18366 layer_factory.hpp:77] Creating layer inception_4d/relu_1x1
I0403 15:10:02.374022 18366 net.cpp:91] Creating Layer inception_4d/relu_1x1
I0403 15:10:02.374038 18366 net.cpp:425] inception_4d/relu_1x1 <- inception_4d/1x1
I0403 15:10:02.374055 18366 net.cpp:386] inception_4d/relu_1x1 -> inception_4d/1x1 (in-place)
I0403 15:10:02.374240 18366 net.cpp:141] Setting up inception_4d/relu_1x1
I0403 15:10:02.374264 18366 net.cpp:148] Top shape: 24 112 14 14 (526848)
I0403 15:10:02.374279 18366 net.cpp:156] Memory required for data: 1115397408
I0403 15:10:02.374294 18366 layer_factory.hpp:77] Creating layer inception_4d/3x3_reduce
I0403 15:10:02.374330 18366 net.cpp:91] Creating Layer inception_4d/3x3_reduce
I0403 15:10:02.374348 18366 net.cpp:425] inception_4d/3x3_reduce <- inception_4c/output_inception_4c/output_0_split_1
I0403 15:10:02.374367 18366 net.cpp:399] inception_4d/3x3_reduce -> inception_4d/3x3_reduce
I0403 15:10:02.375880 18366 net.cpp:141] Setting up inception_4d/3x3_reduce
I0403 15:10:02.375908 18366 net.cpp:148] Top shape: 24 144 14 14 (677376)
I0403 15:10:02.375922 18366 net.cpp:156] Memory required for data: 1118106912
I0403 15:10:02.375941 18366 layer_factory.hpp:77] Creating layer inception_4d/relu_3x3_reduce
I0403 15:10:02.375958 18366 net.cpp:91] Creating Layer inception_4d/relu_3x3_reduce
I0403 15:10:02.375974 18366 net.cpp:425] inception_4d/relu_3x3_reduce <- inception_4d/3x3_reduce
I0403 15:10:02.375998 18366 net.cpp:386] inception_4d/relu_3x3_reduce -> inception_4d/3x3_reduce (in-place)
I0403 15:10:02.376302 18366 net.cpp:141] Setting up inception_4d/relu_3x3_reduce
I0403 15:10:02.376327 18366 net.cpp:148] Top shape: 24 144 14 14 (677376)
I0403 15:10:02.376343 18366 net.cpp:156] Memory required for data: 1120816416
I0403 15:10:02.376356 18366 layer_factory.hpp:77] Creating layer inception_4d/3x3
I0403 15:10:02.376379 18366 net.cpp:91] Creating Layer inception_4d/3x3
I0403 15:10:02.376397 18366 net.cpp:425] inception_4d/3x3 <- inception_4d/3x3_reduce
I0403 15:10:02.376418 18366 net.cpp:399] inception_4d/3x3 -> inception_4d/3x3
I0403 15:10:02.380831 18366 net.cpp:141] Setting up inception_4d/3x3
I0403 15:10:02.380859 18366 net.cpp:148] Top shape: 24 288 14 14 (1354752)
I0403 15:10:02.380875 18366 net.cpp:156] Memory required for data: 1126235424
I0403 15:10:02.380894 18366 layer_factory.hpp:77] Creating layer inception_4d/relu_3x3
I0403 15:10:02.380914 18366 net.cpp:91] Creating Layer inception_4d/relu_3x3
I0403 15:10:02.380933 18366 net.cpp:425] inception_4d/relu_3x3 <- inception_4d/3x3
I0403 15:10:02.380949 18366 net.cpp:386] inception_4d/relu_3x3 -> inception_4d/3x3 (in-place)
I0403 15:10:02.381144 18366 net.cpp:141] Setting up inception_4d/relu_3x3
I0403 15:10:02.381171 18366 net.cpp:148] Top shape: 24 288 14 14 (1354752)
I0403 15:10:02.381187 18366 net.cpp:156] Memory required for data: 1131654432
I0403 15:10:02.381202 18366 layer_factory.hpp:77] Creating layer inception_4d/5x5_reduce
I0403 15:10:02.381224 18366 net.cpp:91] Creating Layer inception_4d/5x5_reduce
I0403 15:10:02.381242 18366 net.cpp:425] inception_4d/5x5_reduce <- inception_4c/output_inception_4c/output_0_split_2
I0403 15:10:02.381261 18366 net.cpp:399] inception_4d/5x5_reduce -> inception_4d/5x5_reduce
I0403 15:10:02.382458 18366 net.cpp:141] Setting up inception_4d/5x5_reduce
I0403 15:10:02.382488 18366 net.cpp:148] Top shape: 24 32 14 14 (150528)
I0403 15:10:02.382503 18366 net.cpp:156] Memory required for data: 1132256544
I0403 15:10:02.382521 18366 layer_factory.hpp:77] Creating layer inception_4d/relu_5x5_reduce
I0403 15:10:02.382542 18366 net.cpp:91] Creating Layer inception_4d/relu_5x5_reduce
I0403 15:10:02.382560 18366 net.cpp:425] inception_4d/relu_5x5_reduce <- inception_4d/5x5_reduce
I0403 15:10:02.382576 18366 net.cpp:386] inception_4d/relu_5x5_reduce -> inception_4d/5x5_reduce (in-place)
I0403 15:10:02.382771 18366 net.cpp:141] Setting up inception_4d/relu_5x5_reduce
I0403 15:10:02.382797 18366 net.cpp:148] Top shape: 24 32 14 14 (150528)
I0403 15:10:02.382812 18366 net.cpp:156] Memory required for data: 1132858656
I0403 15:10:02.382828 18366 layer_factory.hpp:77] Creating layer inception_4d/5x5
I0403 15:10:02.382850 18366 net.cpp:91] Creating Layer inception_4d/5x5
I0403 15:10:02.382869 18366 net.cpp:425] inception_4d/5x5 <- inception_4d/5x5_reduce
I0403 15:10:02.382887 18366 net.cpp:399] inception_4d/5x5 -> inception_4d/5x5
I0403 15:10:02.384448 18366 net.cpp:141] Setting up inception_4d/5x5
I0403 15:10:02.384479 18366 net.cpp:148] Top shape: 24 64 14 14 (301056)
I0403 15:10:02.384495 18366 net.cpp:156] Memory required for data: 1134062880
I0403 15:10:02.384516 18366 layer_factory.hpp:77] Creating layer inception_4d/relu_5x5
I0403 15:10:02.384549 18366 net.cpp:91] Creating Layer inception_4d/relu_5x5
I0403 15:10:02.384567 18366 net.cpp:425] inception_4d/relu_5x5 <- inception_4d/5x5
I0403 15:10:02.384588 18366 net.cpp:386] inception_4d/relu_5x5 -> inception_4d/5x5 (in-place)
I0403 15:10:02.384948 18366 net.cpp:141] Setting up inception_4d/relu_5x5
I0403 15:10:02.384977 18366 net.cpp:148] Top shape: 24 64 14 14 (301056)
I0403 15:10:02.385012 18366 net.cpp:156] Memory required for data: 1135267104
I0403 15:10:02.385028 18366 layer_factory.hpp:77] Creating layer inception_4d/pool
I0403 15:10:02.385046 18366 net.cpp:91] Creating Layer inception_4d/pool
I0403 15:10:02.385063 18366 net.cpp:425] inception_4d/pool <- inception_4c/output_inception_4c/output_0_split_3
I0403 15:10:02.385084 18366 net.cpp:399] inception_4d/pool -> inception_4d/pool
I0403 15:10:02.385154 18366 net.cpp:141] Setting up inception_4d/pool
I0403 15:10:02.385179 18366 net.cpp:148] Top shape: 24 512 14 14 (2408448)
I0403 15:10:02.385193 18366 net.cpp:156] Memory required for data: 1144900896
I0403 15:10:02.385210 18366 layer_factory.hpp:77] Creating layer inception_4d/pool_proj
I0403 15:10:02.385233 18366 net.cpp:91] Creating Layer inception_4d/pool_proj
I0403 15:10:02.385252 18366 net.cpp:425] inception_4d/pool_proj <- inception_4d/pool
I0403 15:10:02.385273 18366 net.cpp:399] inception_4d/pool_proj -> inception_4d/pool_proj
I0403 15:10:02.387133 18366 net.cpp:141] Setting up inception_4d/pool_proj
I0403 15:10:02.387164 18366 net.cpp:148] Top shape: 24 64 14 14 (301056)
I0403 15:10:02.387181 18366 net.cpp:156] Memory required for data: 1146105120
I0403 15:10:02.387199 18366 layer_factory.hpp:77] Creating layer inception_4d/relu_pool_proj
I0403 15:10:02.387223 18366 net.cpp:91] Creating Layer inception_4d/relu_pool_proj
I0403 15:10:02.387240 18366 net.cpp:425] inception_4d/relu_pool_proj <- inception_4d/pool_proj
I0403 15:10:02.387259 18366 net.cpp:386] inception_4d/relu_pool_proj -> inception_4d/pool_proj (in-place)
I0403 15:10:02.387454 18366 net.cpp:141] Setting up inception_4d/relu_pool_proj
I0403 15:10:02.387483 18366 net.cpp:148] Top shape: 24 64 14 14 (301056)
I0403 15:10:02.387500 18366 net.cpp:156] Memory required for data: 1147309344
I0403 15:10:02.387514 18366 layer_factory.hpp:77] Creating layer inception_4d/output
I0403 15:10:02.387533 18366 net.cpp:91] Creating Layer inception_4d/output
I0403 15:10:02.387548 18366 net.cpp:425] inception_4d/output <- inception_4d/1x1
I0403 15:10:02.387565 18366 net.cpp:425] inception_4d/output <- inception_4d/3x3
I0403 15:10:02.387583 18366 net.cpp:425] inception_4d/output <- inception_4d/5x5
I0403 15:10:02.387599 18366 net.cpp:425] inception_4d/output <- inception_4d/pool_proj
I0403 15:10:02.387616 18366 net.cpp:399] inception_4d/output -> inception_4d/output
I0403 15:10:02.387668 18366 net.cpp:141] Setting up inception_4d/output
I0403 15:10:02.387692 18366 net.cpp:148] Top shape: 24 528 14 14 (2483712)
I0403 15:10:02.387707 18366 net.cpp:156] Memory required for data: 1157244192
I0403 15:10:02.387723 18366 layer_factory.hpp:77] Creating layer inception_4d/output_inception_4d/output_0_split
I0403 15:10:02.387744 18366 net.cpp:91] Creating Layer inception_4d/output_inception_4d/output_0_split
I0403 15:10:02.387761 18366 net.cpp:425] inception_4d/output_inception_4d/output_0_split <- inception_4d/output
I0403 15:10:02.387780 18366 net.cpp:399] inception_4d/output_inception_4d/output_0_split -> inception_4d/output_inception_4d/output_0_split_0
I0403 15:10:02.387801 18366 net.cpp:399] inception_4d/output_inception_4d/output_0_split -> inception_4d/output_inception_4d/output_0_split_1
I0403 15:10:02.387822 18366 net.cpp:399] inception_4d/output_inception_4d/output_0_split -> inception_4d/output_inception_4d/output_0_split_2
I0403 15:10:02.387845 18366 net.cpp:399] inception_4d/output_inception_4d/output_0_split -> inception_4d/output_inception_4d/output_0_split_3
I0403 15:10:02.387866 18366 net.cpp:399] inception_4d/output_inception_4d/output_0_split -> inception_4d/output_inception_4d/output_0_split_4
I0403 15:10:02.387977 18366 net.cpp:141] Setting up inception_4d/output_inception_4d/output_0_split
I0403 15:10:02.388020 18366 net.cpp:148] Top shape: 24 528 14 14 (2483712)
I0403 15:10:02.388038 18366 net.cpp:148] Top shape: 24 528 14 14 (2483712)
I0403 15:10:02.388054 18366 net.cpp:148] Top shape: 24 528 14 14 (2483712)
I0403 15:10:02.388072 18366 net.cpp:148] Top shape: 24 528 14 14 (2483712)
I0403 15:10:02.388087 18366 net.cpp:148] Top shape: 24 528 14 14 (2483712)
I0403 15:10:02.388101 18366 net.cpp:156] Memory required for data: 1206918432
I0403 15:10:02.388116 18366 layer_factory.hpp:77] Creating layer loss2/ave_pool
I0403 15:10:02.388137 18366 net.cpp:91] Creating Layer loss2/ave_pool
I0403 15:10:02.388154 18366 net.cpp:425] loss2/ave_pool <- inception_4d/output_inception_4d/output_0_split_0
I0403 15:10:02.388175 18366 net.cpp:399] loss2/ave_pool -> loss2/ave_pool
I0403 15:10:02.388507 18366 net.cpp:141] Setting up loss2/ave_pool
I0403 15:10:02.388535 18366 net.cpp:148] Top shape: 24 528 4 4 (202752)
I0403 15:10:02.388551 18366 net.cpp:156] Memory required for data: 1207729440
I0403 15:10:02.388567 18366 layer_factory.hpp:77] Creating layer loss2/conv
I0403 15:10:02.388591 18366 net.cpp:91] Creating Layer loss2/conv
I0403 15:10:02.388608 18366 net.cpp:425] loss2/conv <- loss2/ave_pool
I0403 15:10:02.388630 18366 net.cpp:399] loss2/conv -> loss2/conv
I0403 15:10:02.390645 18366 net.cpp:141] Setting up loss2/conv
I0403 15:10:02.390676 18366 net.cpp:148] Top shape: 24 128 4 4 (49152)
I0403 15:10:02.390691 18366 net.cpp:156] Memory required for data: 1207926048
I0403 15:10:02.390712 18366 layer_factory.hpp:77] Creating layer loss2/relu_conv
I0403 15:10:02.390730 18366 net.cpp:91] Creating Layer loss2/relu_conv
I0403 15:10:02.390746 18366 net.cpp:425] loss2/relu_conv <- loss2/conv
I0403 15:10:02.390768 18366 net.cpp:386] loss2/relu_conv -> loss2/conv (in-place)
I0403 15:10:02.391077 18366 net.cpp:141] Setting up loss2/relu_conv
I0403 15:10:02.391105 18366 net.cpp:148] Top shape: 24 128 4 4 (49152)
I0403 15:10:02.391121 18366 net.cpp:156] Memory required for data: 1208122656
I0403 15:10:02.391137 18366 layer_factory.hpp:77] Creating layer loss2/fc
I0403 15:10:02.391157 18366 net.cpp:91] Creating Layer loss2/fc
I0403 15:10:02.391175 18366 net.cpp:425] loss2/fc <- loss2/conv
I0403 15:10:02.391196 18366 net.cpp:399] loss2/fc -> loss2/fc
I0403 15:10:02.409782 18366 net.cpp:141] Setting up loss2/fc
I0403 15:10:02.409827 18366 net.cpp:148] Top shape: 24 1024 (24576)
I0403 15:10:02.409843 18366 net.cpp:156] Memory required for data: 1208220960
I0403 15:10:02.409863 18366 layer_factory.hpp:77] Creating layer loss2/relu_fc
I0403 15:10:02.409883 18366 net.cpp:91] Creating Layer loss2/relu_fc
I0403 15:10:02.409899 18366 net.cpp:425] loss2/relu_fc <- loss2/fc
I0403 15:10:02.409917 18366 net.cpp:386] loss2/relu_fc -> loss2/fc (in-place)
I0403 15:10:02.410269 18366 net.cpp:141] Setting up loss2/relu_fc
I0403 15:10:02.410298 18366 net.cpp:148] Top shape: 24 1024 (24576)
I0403 15:10:02.410315 18366 net.cpp:156] Memory required for data: 1208319264
I0403 15:10:02.410331 18366 layer_factory.hpp:77] Creating layer loss2/drop_fc
I0403 15:10:02.410349 18366 net.cpp:91] Creating Layer loss2/drop_fc
I0403 15:10:02.410365 18366 net.cpp:425] loss2/drop_fc <- loss2/fc
I0403 15:10:02.410383 18366 net.cpp:386] loss2/drop_fc -> loss2/fc (in-place)
I0403 15:10:02.410434 18366 net.cpp:141] Setting up loss2/drop_fc
I0403 15:10:02.410457 18366 net.cpp:148] Top shape: 24 1024 (24576)
I0403 15:10:02.410471 18366 net.cpp:156] Memory required for data: 1208417568
I0403 15:10:02.410485 18366 layer_factory.hpp:77] Creating layer loss2/classifier_plantvillage
I0403 15:10:02.410507 18366 net.cpp:91] Creating Layer loss2/classifier_plantvillage
I0403 15:10:02.410523 18366 net.cpp:425] loss2/classifier_plantvillage <- loss2/fc
I0403 15:10:02.410542 18366 net.cpp:399] loss2/classifier_plantvillage -> loss2/classifier_plantvillage
I0403 15:10:02.410967 18366 net.cpp:141] Setting up loss2/classifier_plantvillage
I0403 15:10:02.410997 18366 net.cpp:148] Top shape: 24 38 (912)
I0403 15:10:02.411032 18366 net.cpp:156] Memory required for data: 1208421216
I0403 15:10:02.411052 18366 layer_factory.hpp:77] Creating layer loss2/classifier_plantvillage_loss2/classifier_plantvillage_0_split
I0403 15:10:02.411072 18366 net.cpp:91] Creating Layer loss2/classifier_plantvillage_loss2/classifier_plantvillage_0_split
I0403 15:10:02.411087 18366 net.cpp:425] loss2/classifier_plantvillage_loss2/classifier_plantvillage_0_split <- loss2/classifier_plantvillage
I0403 15:10:02.411108 18366 net.cpp:399] loss2/classifier_plantvillage_loss2/classifier_plantvillage_0_split -> loss2/classifier_plantvillage_loss2/classifier_plantvillage_0_split_0
I0403 15:10:02.411128 18366 net.cpp:399] loss2/classifier_plantvillage_loss2/classifier_plantvillage_0_split -> loss2/classifier_plantvillage_loss2/classifier_plantvillage_0_split_1
I0403 15:10:02.411150 18366 net.cpp:399] loss2/classifier_plantvillage_loss2/classifier_plantvillage_0_split -> loss2/classifier_plantvillage_loss2/classifier_plantvillage_0_split_2
I0403 15:10:02.411229 18366 net.cpp:141] Setting up loss2/classifier_plantvillage_loss2/classifier_plantvillage_0_split
I0403 15:10:02.411267 18366 net.cpp:148] Top shape: 24 38 (912)
I0403 15:10:02.411284 18366 net.cpp:148] Top shape: 24 38 (912)
I0403 15:10:02.411299 18366 net.cpp:148] Top shape: 24 38 (912)
I0403 15:10:02.411314 18366 net.cpp:156] Memory required for data: 1208432160
I0403 15:10:02.411327 18366 layer_factory.hpp:77] Creating layer inception_4e/1x1
I0403 15:10:02.411350 18366 net.cpp:91] Creating Layer inception_4e/1x1
I0403 15:10:02.411368 18366 net.cpp:425] inception_4e/1x1 <- inception_4d/output_inception_4d/output_0_split_1
I0403 15:10:02.411387 18366 net.cpp:399] inception_4e/1x1 -> inception_4e/1x1
I0403 15:10:02.413288 18366 net.cpp:141] Setting up inception_4e/1x1
I0403 15:10:02.413319 18366 net.cpp:148] Top shape: 24 256 14 14 (1204224)
I0403 15:10:02.413336 18366 net.cpp:156] Memory required for data: 1213249056
I0403 15:10:02.413353 18366 layer_factory.hpp:77] Creating layer inception_4e/relu_1x1
I0403 15:10:02.413370 18366 net.cpp:91] Creating Layer inception_4e/relu_1x1
I0403 15:10:02.413386 18366 net.cpp:425] inception_4e/relu_1x1 <- inception_4e/1x1
I0403 15:10:02.413405 18366 net.cpp:386] inception_4e/relu_1x1 -> inception_4e/1x1 (in-place)
I0403 15:10:02.413703 18366 net.cpp:141] Setting up inception_4e/relu_1x1
I0403 15:10:02.413732 18366 net.cpp:148] Top shape: 24 256 14 14 (1204224)
I0403 15:10:02.413746 18366 net.cpp:156] Memory required for data: 1218065952
I0403 15:10:02.413761 18366 layer_factory.hpp:77] Creating layer inception_4e/3x3_reduce
I0403 15:10:02.413784 18366 net.cpp:91] Creating Layer inception_4e/3x3_reduce
I0403 15:10:02.413801 18366 net.cpp:425] inception_4e/3x3_reduce <- inception_4d/output_inception_4d/output_0_split_2
I0403 15:10:02.413821 18366 net.cpp:399] inception_4e/3x3_reduce -> inception_4e/3x3_reduce
I0403 15:10:02.416007 18366 net.cpp:141] Setting up inception_4e/3x3_reduce
I0403 15:10:02.416038 18366 net.cpp:148] Top shape: 24 160 14 14 (752640)
I0403 15:10:02.416054 18366 net.cpp:156] Memory required for data: 1221076512
I0403 15:10:02.416072 18366 layer_factory.hpp:77] Creating layer inception_4e/relu_3x3_reduce
I0403 15:10:02.416090 18366 net.cpp:91] Creating Layer inception_4e/relu_3x3_reduce
I0403 15:10:02.416106 18366 net.cpp:425] inception_4e/relu_3x3_reduce <- inception_4e/3x3_reduce
I0403 15:10:02.416123 18366 net.cpp:386] inception_4e/relu_3x3_reduce -> inception_4e/3x3_reduce (in-place)
I0403 15:10:02.416326 18366 net.cpp:141] Setting up inception_4e/relu_3x3_reduce
I0403 15:10:02.416352 18366 net.cpp:148] Top shape: 24 160 14 14 (752640)
I0403 15:10:02.416365 18366 net.cpp:156] Memory required for data: 1224087072
I0403 15:10:02.416380 18366 layer_factory.hpp:77] Creating layer inception_4e/3x3
I0403 15:10:02.416402 18366 net.cpp:91] Creating Layer inception_4e/3x3
I0403 15:10:02.416420 18366 net.cpp:425] inception_4e/3x3 <- inception_4e/3x3_reduce
I0403 15:10:02.416441 18366 net.cpp:399] inception_4e/3x3 -> inception_4e/3x3
I0403 15:10:02.421589 18366 net.cpp:141] Setting up inception_4e/3x3
I0403 15:10:02.421633 18366 net.cpp:148] Top shape: 24 320 14 14 (1505280)
I0403 15:10:02.421648 18366 net.cpp:156] Memory required for data: 1230108192
I0403 15:10:02.421668 18366 layer_factory.hpp:77] Creating layer inception_4e/relu_3x3
I0403 15:10:02.421689 18366 net.cpp:91] Creating Layer inception_4e/relu_3x3
I0403 15:10:02.421706 18366 net.cpp:425] inception_4e/relu_3x3 <- inception_4e/3x3
I0403 15:10:02.421725 18366 net.cpp:386] inception_4e/relu_3x3 -> inception_4e/3x3 (in-place)
I0403 15:10:02.422044 18366 net.cpp:141] Setting up inception_4e/relu_3x3
I0403 15:10:02.422070 18366 net.cpp:148] Top shape: 24 320 14 14 (1505280)
I0403 15:10:02.422086 18366 net.cpp:156] Memory required for data: 1236129312
I0403 15:10:02.422101 18366 layer_factory.hpp:77] Creating layer inception_4e/5x5_reduce
I0403 15:10:02.422122 18366 net.cpp:91] Creating Layer inception_4e/5x5_reduce
I0403 15:10:02.422140 18366 net.cpp:425] inception_4e/5x5_reduce <- inception_4d/output_inception_4d/output_0_split_3
I0403 15:10:02.422160 18366 net.cpp:399] inception_4e/5x5_reduce -> inception_4e/5x5_reduce
I0403 15:10:02.423243 18366 net.cpp:141] Setting up inception_4e/5x5_reduce
I0403 15:10:02.423271 18366 net.cpp:148] Top shape: 24 32 14 14 (150528)
I0403 15:10:02.423288 18366 net.cpp:156] Memory required for data: 1236731424
I0403 15:10:02.423307 18366 layer_factory.hpp:77] Creating layer inception_4e/relu_5x5_reduce
I0403 15:10:02.423324 18366 net.cpp:91] Creating Layer inception_4e/relu_5x5_reduce
I0403 15:10:02.423341 18366 net.cpp:425] inception_4e/relu_5x5_reduce <- inception_4e/5x5_reduce
I0403 15:10:02.423359 18366 net.cpp:386] inception_4e/relu_5x5_reduce -> inception_4e/5x5_reduce (in-place)
I0403 15:10:02.423686 18366 net.cpp:141] Setting up inception_4e/relu_5x5_reduce
I0403 15:10:02.423714 18366 net.cpp:148] Top shape: 24 32 14 14 (150528)
I0403 15:10:02.423729 18366 net.cpp:156] Memory required for data: 1237333536
I0403 15:10:02.423745 18366 layer_factory.hpp:77] Creating layer inception_4e/5x5
I0403 15:10:02.423784 18366 net.cpp:91] Creating Layer inception_4e/5x5
I0403 15:10:02.423804 18366 net.cpp:425] inception_4e/5x5 <- inception_4e/5x5_reduce
I0403 15:10:02.423823 18366 net.cpp:399] inception_4e/5x5 -> inception_4e/5x5
I0403 15:10:02.425705 18366 net.cpp:141] Setting up inception_4e/5x5
I0403 15:10:02.425734 18366 net.cpp:148] Top shape: 24 128 14 14 (602112)
I0403 15:10:02.425750 18366 net.cpp:156] Memory required for data: 1239741984
I0403 15:10:02.425770 18366 layer_factory.hpp:77] Creating layer inception_4e/relu_5x5
I0403 15:10:02.425791 18366 net.cpp:91] Creating Layer inception_4e/relu_5x5
I0403 15:10:02.425807 18366 net.cpp:425] inception_4e/relu_5x5 <- inception_4e/5x5
I0403 15:10:02.425825 18366 net.cpp:386] inception_4e/relu_5x5 -> inception_4e/5x5 (in-place)
I0403 15:10:02.426033 18366 net.cpp:141] Setting up inception_4e/relu_5x5
I0403 15:10:02.426059 18366 net.cpp:148] Top shape: 24 128 14 14 (602112)
I0403 15:10:02.426074 18366 net.cpp:156] Memory required for data: 1242150432
I0403 15:10:02.426090 18366 layer_factory.hpp:77] Creating layer inception_4e/pool
I0403 15:10:02.426108 18366 net.cpp:91] Creating Layer inception_4e/pool
I0403 15:10:02.426126 18366 net.cpp:425] inception_4e/pool <- inception_4d/output_inception_4d/output_0_split_4
I0403 15:10:02.426146 18366 net.cpp:399] inception_4e/pool -> inception_4e/pool
I0403 15:10:02.426218 18366 net.cpp:141] Setting up inception_4e/pool
I0403 15:10:02.426242 18366 net.cpp:148] Top shape: 24 528 14 14 (2483712)
I0403 15:10:02.426257 18366 net.cpp:156] Memory required for data: 1252085280
I0403 15:10:02.426272 18366 layer_factory.hpp:77] Creating layer inception_4e/pool_proj
I0403 15:10:02.426295 18366 net.cpp:91] Creating Layer inception_4e/pool_proj
I0403 15:10:02.426313 18366 net.cpp:425] inception_4e/pool_proj <- inception_4e/pool
I0403 15:10:02.426332 18366 net.cpp:399] inception_4e/pool_proj -> inception_4e/pool_proj
I0403 15:10:02.427929 18366 net.cpp:141] Setting up inception_4e/pool_proj
I0403 15:10:02.427969 18366 net.cpp:148] Top shape: 24 128 14 14 (602112)
I0403 15:10:02.427990 18366 net.cpp:156] Memory required for data: 1254493728
I0403 15:10:02.428011 18366 layer_factory.hpp:77] Creating layer inception_4e/relu_pool_proj
I0403 15:10:02.428032 18366 net.cpp:91] Creating Layer inception_4e/relu_pool_proj
I0403 15:10:02.428050 18366 net.cpp:425] inception_4e/relu_pool_proj <- inception_4e/pool_proj
I0403 15:10:02.428067 18366 net.cpp:386] inception_4e/relu_pool_proj -> inception_4e/pool_proj (in-place)
I0403 15:10:02.428369 18366 net.cpp:141] Setting up inception_4e/relu_pool_proj
I0403 15:10:02.428396 18366 net.cpp:148] Top shape: 24 128 14 14 (602112)
I0403 15:10:02.428411 18366 net.cpp:156] Memory required for data: 1256902176
I0403 15:10:02.428427 18366 layer_factory.hpp:77] Creating layer inception_4e/output
I0403 15:10:02.428448 18366 net.cpp:91] Creating Layer inception_4e/output
I0403 15:10:02.428465 18366 net.cpp:425] inception_4e/output <- inception_4e/1x1
I0403 15:10:02.428483 18366 net.cpp:425] inception_4e/output <- inception_4e/3x3
I0403 15:10:02.428498 18366 net.cpp:425] inception_4e/output <- inception_4e/5x5
I0403 15:10:02.428514 18366 net.cpp:425] inception_4e/output <- inception_4e/pool_proj
I0403 15:10:02.428531 18366 net.cpp:399] inception_4e/output -> inception_4e/output
I0403 15:10:02.428585 18366 net.cpp:141] Setting up inception_4e/output
I0403 15:10:02.428608 18366 net.cpp:148] Top shape: 24 832 14 14 (3913728)
I0403 15:10:02.428623 18366 net.cpp:156] Memory required for data: 1272557088
I0403 15:10:02.428637 18366 layer_factory.hpp:77] Creating layer pool4/3x3_s2
I0403 15:10:02.428655 18366 net.cpp:91] Creating Layer pool4/3x3_s2
I0403 15:10:02.428671 18366 net.cpp:425] pool4/3x3_s2 <- inception_4e/output
I0403 15:10:02.428692 18366 net.cpp:399] pool4/3x3_s2 -> pool4/3x3_s2
I0403 15:10:02.428762 18366 net.cpp:141] Setting up pool4/3x3_s2
I0403 15:10:02.428787 18366 net.cpp:148] Top shape: 24 832 7 7 (978432)
I0403 15:10:02.428802 18366 net.cpp:156] Memory required for data: 1276470816
I0403 15:10:02.428817 18366 layer_factory.hpp:77] Creating layer pool4/3x3_s2_pool4/3x3_s2_0_split
I0403 15:10:02.428838 18366 net.cpp:91] Creating Layer pool4/3x3_s2_pool4/3x3_s2_0_split
I0403 15:10:02.428853 18366 net.cpp:425] pool4/3x3_s2_pool4/3x3_s2_0_split <- pool4/3x3_s2
I0403 15:10:02.428874 18366 net.cpp:399] pool4/3x3_s2_pool4/3x3_s2_0_split -> pool4/3x3_s2_pool4/3x3_s2_0_split_0
I0403 15:10:02.428894 18366 net.cpp:399] pool4/3x3_s2_pool4/3x3_s2_0_split -> pool4/3x3_s2_pool4/3x3_s2_0_split_1
I0403 15:10:02.428915 18366 net.cpp:399] pool4/3x3_s2_pool4/3x3_s2_0_split -> pool4/3x3_s2_pool4/3x3_s2_0_split_2
I0403 15:10:02.428933 18366 net.cpp:399] pool4/3x3_s2_pool4/3x3_s2_0_split -> pool4/3x3_s2_pool4/3x3_s2_0_split_3
I0403 15:10:02.429051 18366 net.cpp:141] Setting up pool4/3x3_s2_pool4/3x3_s2_0_split
I0403 15:10:02.429078 18366 net.cpp:148] Top shape: 24 832 7 7 (978432)
I0403 15:10:02.429095 18366 net.cpp:148] Top shape: 24 832 7 7 (978432)
I0403 15:10:02.429111 18366 net.cpp:148] Top shape: 24 832 7 7 (978432)
I0403 15:10:02.429126 18366 net.cpp:148] Top shape: 24 832 7 7 (978432)
I0403 15:10:02.429138 18366 net.cpp:156] Memory required for data: 1292125728
I0403 15:10:02.429152 18366 layer_factory.hpp:77] Creating layer inception_5a/1x1
I0403 15:10:02.429172 18366 net.cpp:91] Creating Layer inception_5a/1x1
I0403 15:10:02.429188 18366 net.cpp:425] inception_5a/1x1 <- pool4/3x3_s2_pool4/3x3_s2_0_split_0
I0403 15:10:02.429209 18366 net.cpp:399] inception_5a/1x1 -> inception_5a/1x1
I0403 15:10:02.432174 18366 net.cpp:141] Setting up inception_5a/1x1
I0403 15:10:02.432206 18366 net.cpp:148] Top shape: 24 256 7 7 (301056)
I0403 15:10:02.432224 18366 net.cpp:156] Memory required for data: 1293329952
I0403 15:10:02.432242 18366 layer_factory.hpp:77] Creating layer inception_5a/relu_1x1
I0403 15:10:02.432260 18366 net.cpp:91] Creating Layer inception_5a/relu_1x1
I0403 15:10:02.432276 18366 net.cpp:425] inception_5a/relu_1x1 <- inception_5a/1x1
I0403 15:10:02.432293 18366 net.cpp:386] inception_5a/relu_1x1 -> inception_5a/1x1 (in-place)
I0403 15:10:02.432620 18366 net.cpp:141] Setting up inception_5a/relu_1x1
I0403 15:10:02.432648 18366 net.cpp:148] Top shape: 24 256 7 7 (301056)
I0403 15:10:02.432665 18366 net.cpp:156] Memory required for data: 1294534176
I0403 15:10:02.432680 18366 layer_factory.hpp:77] Creating layer inception_5a/3x3_reduce
I0403 15:10:02.432703 18366 net.cpp:91] Creating Layer inception_5a/3x3_reduce
I0403 15:10:02.432723 18366 net.cpp:425] inception_5a/3x3_reduce <- pool4/3x3_s2_pool4/3x3_s2_0_split_1
I0403 15:10:02.432741 18366 net.cpp:399] inception_5a/3x3_reduce -> inception_5a/3x3_reduce
I0403 15:10:02.435317 18366 net.cpp:141] Setting up inception_5a/3x3_reduce
I0403 15:10:02.435348 18366 net.cpp:148] Top shape: 24 160 7 7 (188160)
I0403 15:10:02.435364 18366 net.cpp:156] Memory required for data: 1295286816
I0403 15:10:02.435382 18366 layer_factory.hpp:77] Creating layer inception_5a/relu_3x3_reduce
I0403 15:10:02.435403 18366 net.cpp:91] Creating Layer inception_5a/relu_3x3_reduce
I0403 15:10:02.435420 18366 net.cpp:425] inception_5a/relu_3x3_reduce <- inception_5a/3x3_reduce
I0403 15:10:02.435438 18366 net.cpp:386] inception_5a/relu_3x3_reduce -> inception_5a/3x3_reduce (in-place)
I0403 15:10:02.435631 18366 net.cpp:141] Setting up inception_5a/relu_3x3_reduce
I0403 15:10:02.435662 18366 net.cpp:148] Top shape: 24 160 7 7 (188160)
I0403 15:10:02.435678 18366 net.cpp:156] Memory required for data: 1296039456
I0403 15:10:02.435693 18366 layer_factory.hpp:77] Creating layer inception_5a/3x3
I0403 15:10:02.435716 18366 net.cpp:91] Creating Layer inception_5a/3x3
I0403 15:10:02.435734 18366 net.cpp:425] inception_5a/3x3 <- inception_5a/3x3_reduce
I0403 15:10:02.435753 18366 net.cpp:399] inception_5a/3x3 -> inception_5a/3x3
I0403 15:10:02.440974 18366 net.cpp:141] Setting up inception_5a/3x3
I0403 15:10:02.441009 18366 net.cpp:148] Top shape: 24 320 7 7 (376320)
I0403 15:10:02.441026 18366 net.cpp:156] Memory required for data: 1297544736
I0403 15:10:02.441045 18366 layer_factory.hpp:77] Creating layer inception_5a/relu_3x3
I0403 15:10:02.441071 18366 net.cpp:91] Creating Layer inception_5a/relu_3x3
I0403 15:10:02.441088 18366 net.cpp:425] inception_5a/relu_3x3 <- inception_5a/3x3
I0403 15:10:02.441107 18366 net.cpp:386] inception_5a/relu_3x3 -> inception_5a/3x3 (in-place)
I0403 15:10:02.441422 18366 net.cpp:141] Setting up inception_5a/relu_3x3
I0403 15:10:02.441448 18366 net.cpp:148] Top shape: 24 320 7 7 (376320)
I0403 15:10:02.441464 18366 net.cpp:156] Memory required for data: 1299050016
I0403 15:10:02.441478 18366 layer_factory.hpp:77] Creating layer inception_5a/5x5_reduce
I0403 15:10:02.441505 18366 net.cpp:91] Creating Layer inception_5a/5x5_reduce
I0403 15:10:02.441522 18366 net.cpp:425] inception_5a/5x5_reduce <- pool4/3x3_s2_pool4/3x3_s2_0_split_2
I0403 15:10:02.441542 18366 net.cpp:399] inception_5a/5x5_reduce -> inception_5a/5x5_reduce
I0403 15:10:02.442746 18366 net.cpp:141] Setting up inception_5a/5x5_reduce
I0403 15:10:02.442778 18366 net.cpp:148] Top shape: 24 32 7 7 (37632)
I0403 15:10:02.442795 18366 net.cpp:156] Memory required for data: 1299200544
I0403 15:10:02.442813 18366 layer_factory.hpp:77] Creating layer inception_5a/relu_5x5_reduce
I0403 15:10:02.442831 18366 net.cpp:91] Creating Layer inception_5a/relu_5x5_reduce
I0403 15:10:02.442848 18366 net.cpp:425] inception_5a/relu_5x5_reduce <- inception_5a/5x5_reduce
I0403 15:10:02.442867 18366 net.cpp:386] inception_5a/relu_5x5_reduce -> inception_5a/5x5_reduce (in-place)
I0403 15:10:02.443192 18366 net.cpp:141] Setting up inception_5a/relu_5x5_reduce
I0403 15:10:02.443219 18366 net.cpp:148] Top shape: 24 32 7 7 (37632)
I0403 15:10:02.443234 18366 net.cpp:156] Memory required for data: 1299351072
I0403 15:10:02.443249 18366 layer_factory.hpp:77] Creating layer inception_5a/5x5
I0403 15:10:02.443271 18366 net.cpp:91] Creating Layer inception_5a/5x5
I0403 15:10:02.443289 18366 net.cpp:425] inception_5a/5x5 <- inception_5a/5x5_reduce
I0403 15:10:02.443310 18366 net.cpp:399] inception_5a/5x5 -> inception_5a/5x5
I0403 15:10:02.445091 18366 net.cpp:141] Setting up inception_5a/5x5
I0403 15:10:02.445130 18366 net.cpp:148] Top shape: 24 128 7 7 (150528)
I0403 15:10:02.445147 18366 net.cpp:156] Memory required for data: 1299953184
I0403 15:10:02.445164 18366 layer_factory.hpp:77] Creating layer inception_5a/relu_5x5
I0403 15:10:02.445185 18366 net.cpp:91] Creating Layer inception_5a/relu_5x5
I0403 15:10:02.445204 18366 net.cpp:425] inception_5a/relu_5x5 <- inception_5a/5x5
I0403 15:10:02.445221 18366 net.cpp:386] inception_5a/relu_5x5 -> inception_5a/5x5 (in-place)
I0403 15:10:02.445413 18366 net.cpp:141] Setting up inception_5a/relu_5x5
I0403 15:10:02.445438 18366 net.cpp:148] Top shape: 24 128 7 7 (150528)
I0403 15:10:02.445453 18366 net.cpp:156] Memory required for data: 1300555296
I0403 15:10:02.445468 18366 layer_factory.hpp:77] Creating layer inception_5a/pool
I0403 15:10:02.445485 18366 net.cpp:91] Creating Layer inception_5a/pool
I0403 15:10:02.445502 18366 net.cpp:425] inception_5a/pool <- pool4/3x3_s2_pool4/3x3_s2_0_split_3
I0403 15:10:02.445521 18366 net.cpp:399] inception_5a/pool -> inception_5a/pool
I0403 15:10:02.445595 18366 net.cpp:141] Setting up inception_5a/pool
I0403 15:10:02.445618 18366 net.cpp:148] Top shape: 24 832 7 7 (978432)
I0403 15:10:02.445633 18366 net.cpp:156] Memory required for data: 1304469024
I0403 15:10:02.445647 18366 layer_factory.hpp:77] Creating layer inception_5a/pool_proj
I0403 15:10:02.445670 18366 net.cpp:91] Creating Layer inception_5a/pool_proj
I0403 15:10:02.445688 18366 net.cpp:425] inception_5a/pool_proj <- inception_5a/pool
I0403 15:10:02.445706 18366 net.cpp:399] inception_5a/pool_proj -> inception_5a/pool_proj
I0403 15:10:02.448163 18366 net.cpp:141] Setting up inception_5a/pool_proj
I0403 15:10:02.448195 18366 net.cpp:148] Top shape: 24 128 7 7 (150528)
I0403 15:10:02.448211 18366 net.cpp:156] Memory required for data: 1305071136
I0403 15:10:02.448231 18366 layer_factory.hpp:77] Creating layer inception_5a/relu_pool_proj
I0403 15:10:02.448252 18366 net.cpp:91] Creating Layer inception_5a/relu_pool_proj
I0403 15:10:02.448269 18366 net.cpp:425] inception_5a/relu_pool_proj <- inception_5a/pool_proj
I0403 15:10:02.448288 18366 net.cpp:386] inception_5a/relu_pool_proj -> inception_5a/pool_proj (in-place)
I0403 15:10:02.448602 18366 net.cpp:141] Setting up inception_5a/relu_pool_proj
I0403 15:10:02.448631 18366 net.cpp:148] Top shape: 24 128 7 7 (150528)
I0403 15:10:02.448645 18366 net.cpp:156] Memory required for data: 1305673248
I0403 15:10:02.448662 18366 layer_factory.hpp:77] Creating layer inception_5a/output
I0403 15:10:02.448683 18366 net.cpp:91] Creating Layer inception_5a/output
I0403 15:10:02.448699 18366 net.cpp:425] inception_5a/output <- inception_5a/1x1
I0403 15:10:02.448719 18366 net.cpp:425] inception_5a/output <- inception_5a/3x3
I0403 15:10:02.448735 18366 net.cpp:425] inception_5a/output <- inception_5a/5x5
I0403 15:10:02.448751 18366 net.cpp:425] inception_5a/output <- inception_5a/pool_proj
I0403 15:10:02.448770 18366 net.cpp:399] inception_5a/output -> inception_5a/output
I0403 15:10:02.448823 18366 net.cpp:141] Setting up inception_5a/output
I0403 15:10:02.448848 18366 net.cpp:148] Top shape: 24 832 7 7 (978432)
I0403 15:10:02.448864 18366 net.cpp:156] Memory required for data: 1309586976
I0403 15:10:02.448880 18366 layer_factory.hpp:77] Creating layer inception_5a/output_inception_5a/output_0_split
I0403 15:10:02.448899 18366 net.cpp:91] Creating Layer inception_5a/output_inception_5a/output_0_split
I0403 15:10:02.448915 18366 net.cpp:425] inception_5a/output_inception_5a/output_0_split <- inception_5a/output
I0403 15:10:02.448935 18366 net.cpp:399] inception_5a/output_inception_5a/output_0_split -> inception_5a/output_inception_5a/output_0_split_0
I0403 15:10:02.448957 18366 net.cpp:399] inception_5a/output_inception_5a/output_0_split -> inception_5a/output_inception_5a/output_0_split_1
I0403 15:10:02.448978 18366 net.cpp:399] inception_5a/output_inception_5a/output_0_split -> inception_5a/output_inception_5a/output_0_split_2
I0403 15:10:02.449007 18366 net.cpp:399] inception_5a/output_inception_5a/output_0_split -> inception_5a/output_inception_5a/output_0_split_3
I0403 15:10:02.449131 18366 net.cpp:141] Setting up inception_5a/output_inception_5a/output_0_split
I0403 15:10:02.449154 18366 net.cpp:148] Top shape: 24 832 7 7 (978432)
I0403 15:10:02.449172 18366 net.cpp:148] Top shape: 24 832 7 7 (978432)
I0403 15:10:02.449188 18366 net.cpp:148] Top shape: 24 832 7 7 (978432)
I0403 15:10:02.449205 18366 net.cpp:148] Top shape: 24 832 7 7 (978432)
I0403 15:10:02.449220 18366 net.cpp:156] Memory required for data: 1325241888
I0403 15:10:02.449235 18366 layer_factory.hpp:77] Creating layer inception_5b/1x1
I0403 15:10:02.449259 18366 net.cpp:91] Creating Layer inception_5b/1x1
I0403 15:10:02.449276 18366 net.cpp:425] inception_5b/1x1 <- inception_5a/output_inception_5a/output_0_split_0
I0403 15:10:02.449298 18366 net.cpp:399] inception_5b/1x1 -> inception_5b/1x1
I0403 15:10:02.453304 18366 net.cpp:141] Setting up inception_5b/1x1
I0403 15:10:02.453338 18366 net.cpp:148] Top shape: 24 384 7 7 (451584)
I0403 15:10:02.453356 18366 net.cpp:156] Memory required for data: 1327048224
I0403 15:10:02.453375 18366 layer_factory.hpp:77] Creating layer inception_5b/relu_1x1
I0403 15:10:02.453397 18366 net.cpp:91] Creating Layer inception_5b/relu_1x1
I0403 15:10:02.453415 18366 net.cpp:425] inception_5b/relu_1x1 <- inception_5b/1x1
I0403 15:10:02.453433 18366 net.cpp:386] inception_5b/relu_1x1 -> inception_5b/1x1 (in-place)
I0403 15:10:02.453760 18366 net.cpp:141] Setting up inception_5b/relu_1x1
I0403 15:10:02.453788 18366 net.cpp:148] Top shape: 24 384 7 7 (451584)
I0403 15:10:02.453804 18366 net.cpp:156] Memory required for data: 1328854560
I0403 15:10:02.453819 18366 layer_factory.hpp:77] Creating layer inception_5b/3x3_reduce
I0403 15:10:02.453843 18366 net.cpp:91] Creating Layer inception_5b/3x3_reduce
I0403 15:10:02.453861 18366 net.cpp:425] inception_5b/3x3_reduce <- inception_5a/output_inception_5a/output_0_split_1
I0403 15:10:02.453886 18366 net.cpp:399] inception_5b/3x3_reduce -> inception_5b/3x3_reduce
I0403 15:10:02.456713 18366 net.cpp:141] Setting up inception_5b/3x3_reduce
I0403 15:10:02.456744 18366 net.cpp:148] Top shape: 24 192 7 7 (225792)
I0403 15:10:02.456760 18366 net.cpp:156] Memory required for data: 1329757728
I0403 15:10:02.456779 18366 layer_factory.hpp:77] Creating layer inception_5b/relu_3x3_reduce
I0403 15:10:02.456801 18366 net.cpp:91] Creating Layer inception_5b/relu_3x3_reduce
I0403 15:10:02.456818 18366 net.cpp:425] inception_5b/relu_3x3_reduce <- inception_5b/3x3_reduce
I0403 15:10:02.456836 18366 net.cpp:386] inception_5b/relu_3x3_reduce -> inception_5b/3x3_reduce (in-place)
I0403 15:10:02.457061 18366 net.cpp:141] Setting up inception_5b/relu_3x3_reduce
I0403 15:10:02.457089 18366 net.cpp:148] Top shape: 24 192 7 7 (225792)
I0403 15:10:02.457106 18366 net.cpp:156] Memory required for data: 1330660896
I0403 15:10:02.457121 18366 layer_factory.hpp:77] Creating layer inception_5b/3x3
I0403 15:10:02.457144 18366 net.cpp:91] Creating Layer inception_5b/3x3
I0403 15:10:02.457164 18366 net.cpp:425] inception_5b/3x3 <- inception_5b/3x3_reduce
I0403 15:10:02.457183 18366 net.cpp:399] inception_5b/3x3 -> inception_5b/3x3
I0403 15:10:02.464323 18366 net.cpp:141] Setting up inception_5b/3x3
I0403 15:10:02.464365 18366 net.cpp:148] Top shape: 24 384 7 7 (451584)
I0403 15:10:02.464385 18366 net.cpp:156] Memory required for data: 1332467232
I0403 15:10:02.464404 18366 layer_factory.hpp:77] Creating layer inception_5b/relu_3x3
I0403 15:10:02.464426 18366 net.cpp:91] Creating Layer inception_5b/relu_3x3
I0403 15:10:02.464444 18366 net.cpp:425] inception_5b/relu_3x3 <- inception_5b/3x3
I0403 15:10:02.464463 18366 net.cpp:386] inception_5b/relu_3x3 -> inception_5b/3x3 (in-place)
I0403 15:10:02.464782 18366 net.cpp:141] Setting up inception_5b/relu_3x3
I0403 15:10:02.464809 18366 net.cpp:148] Top shape: 24 384 7 7 (451584)
I0403 15:10:02.464825 18366 net.cpp:156] Memory required for data: 1334273568
I0403 15:10:02.464841 18366 layer_factory.hpp:77] Creating layer inception_5b/5x5_reduce
I0403 15:10:02.464882 18366 net.cpp:91] Creating Layer inception_5b/5x5_reduce
I0403 15:10:02.464902 18366 net.cpp:425] inception_5b/5x5_reduce <- inception_5a/output_inception_5a/output_0_split_2
I0403 15:10:02.464938 18366 net.cpp:399] inception_5b/5x5_reduce -> inception_5b/5x5_reduce
I0403 15:10:02.466279 18366 net.cpp:141] Setting up inception_5b/5x5_reduce
I0403 15:10:02.466306 18366 net.cpp:148] Top shape: 24 48 7 7 (56448)
I0403 15:10:02.466322 18366 net.cpp:156] Memory required for data: 1334499360
I0403 15:10:02.466341 18366 layer_factory.hpp:77] Creating layer inception_5b/relu_5x5_reduce
I0403 15:10:02.466374 18366 net.cpp:91] Creating Layer inception_5b/relu_5x5_reduce
I0403 15:10:02.466392 18366 net.cpp:425] inception_5b/relu_5x5_reduce <- inception_5b/5x5_reduce
I0403 15:10:02.466409 18366 net.cpp:386] inception_5b/relu_5x5_reduce -> inception_5b/5x5_reduce (in-place)
I0403 15:10:02.466784 18366 net.cpp:141] Setting up inception_5b/relu_5x5_reduce
I0403 15:10:02.466809 18366 net.cpp:148] Top shape: 24 48 7 7 (56448)
I0403 15:10:02.466825 18366 net.cpp:156] Memory required for data: 1334725152
I0403 15:10:02.466840 18366 layer_factory.hpp:77] Creating layer inception_5b/5x5
I0403 15:10:02.466861 18366 net.cpp:91] Creating Layer inception_5b/5x5
I0403 15:10:02.466877 18366 net.cpp:425] inception_5b/5x5 <- inception_5b/5x5_reduce
I0403 15:10:02.466895 18366 net.cpp:399] inception_5b/5x5 -> inception_5b/5x5
I0403 15:10:02.469054 18366 net.cpp:141] Setting up inception_5b/5x5
I0403 15:10:02.469084 18366 net.cpp:148] Top shape: 24 128 7 7 (150528)
I0403 15:10:02.469101 18366 net.cpp:156] Memory required for data: 1335327264
I0403 15:10:02.469120 18366 layer_factory.hpp:77] Creating layer inception_5b/relu_5x5
I0403 15:10:02.469137 18366 net.cpp:91] Creating Layer inception_5b/relu_5x5
I0403 15:10:02.469153 18366 net.cpp:425] inception_5b/relu_5x5 <- inception_5b/5x5
I0403 15:10:02.469172 18366 net.cpp:386] inception_5b/relu_5x5 -> inception_5b/5x5 (in-place)
I0403 15:10:02.469368 18366 net.cpp:141] Setting up inception_5b/relu_5x5
I0403 15:10:02.469393 18366 net.cpp:148] Top shape: 24 128 7 7 (150528)
I0403 15:10:02.469408 18366 net.cpp:156] Memory required for data: 1335929376
I0403 15:10:02.469421 18366 layer_factory.hpp:77] Creating layer inception_5b/pool
I0403 15:10:02.469440 18366 net.cpp:91] Creating Layer inception_5b/pool
I0403 15:10:02.469456 18366 net.cpp:425] inception_5b/pool <- inception_5a/output_inception_5a/output_0_split_3
I0403 15:10:02.469476 18366 net.cpp:399] inception_5b/pool -> inception_5b/pool
I0403 15:10:02.469552 18366 net.cpp:141] Setting up inception_5b/pool
I0403 15:10:02.469578 18366 net.cpp:148] Top shape: 24 832 7 7 (978432)
I0403 15:10:02.469594 18366 net.cpp:156] Memory required for data: 1339843104
I0403 15:10:02.469607 18366 layer_factory.hpp:77] Creating layer inception_5b/pool_proj
I0403 15:10:02.469629 18366 net.cpp:91] Creating Layer inception_5b/pool_proj
I0403 15:10:02.469646 18366 net.cpp:425] inception_5b/pool_proj <- inception_5b/pool
I0403 15:10:02.469666 18366 net.cpp:399] inception_5b/pool_proj -> inception_5b/pool_proj
I0403 15:10:02.472018 18366 net.cpp:141] Setting up inception_5b/pool_proj
I0403 15:10:02.472048 18366 net.cpp:148] Top shape: 24 128 7 7 (150528)
I0403 15:10:02.472064 18366 net.cpp:156] Memory required for data: 1340445216
I0403 15:10:02.472084 18366 layer_factory.hpp:77] Creating layer inception_5b/relu_pool_proj
I0403 15:10:02.472105 18366 net.cpp:91] Creating Layer inception_5b/relu_pool_proj
I0403 15:10:02.472122 18366 net.cpp:425] inception_5b/relu_pool_proj <- inception_5b/pool_proj
I0403 15:10:02.472139 18366 net.cpp:386] inception_5b/relu_pool_proj -> inception_5b/pool_proj (in-place)
I0403 15:10:02.472452 18366 net.cpp:141] Setting up inception_5b/relu_pool_proj
I0403 15:10:02.472479 18366 net.cpp:148] Top shape: 24 128 7 7 (150528)
I0403 15:10:02.472494 18366 net.cpp:156] Memory required for data: 1341047328
I0403 15:10:02.472511 18366 layer_factory.hpp:77] Creating layer inception_5b/output
I0403 15:10:02.472532 18366 net.cpp:91] Creating Layer inception_5b/output
I0403 15:10:02.472563 18366 net.cpp:425] inception_5b/output <- inception_5b/1x1
I0403 15:10:02.472581 18366 net.cpp:425] inception_5b/output <- inception_5b/3x3
I0403 15:10:02.472597 18366 net.cpp:425] inception_5b/output <- inception_5b/5x5
I0403 15:10:02.472615 18366 net.cpp:425] inception_5b/output <- inception_5b/pool_proj
I0403 15:10:02.472631 18366 net.cpp:399] inception_5b/output -> inception_5b/output
I0403 15:10:02.472688 18366 net.cpp:141] Setting up inception_5b/output
I0403 15:10:02.472712 18366 net.cpp:148] Top shape: 24 1024 7 7 (1204224)
I0403 15:10:02.472728 18366 net.cpp:156] Memory required for data: 1345864224
I0403 15:10:02.472743 18366 layer_factory.hpp:77] Creating layer pool5/7x7_s1
I0403 15:10:02.472759 18366 net.cpp:91] Creating Layer pool5/7x7_s1
I0403 15:10:02.472775 18366 net.cpp:425] pool5/7x7_s1 <- inception_5b/output
I0403 15:10:02.472797 18366 net.cpp:399] pool5/7x7_s1 -> pool5/7x7_s1
I0403 15:10:02.473029 18366 net.cpp:141] Setting up pool5/7x7_s1
I0403 15:10:02.473058 18366 net.cpp:148] Top shape: 24 1024 1 1 (24576)
I0403 15:10:02.473074 18366 net.cpp:156] Memory required for data: 1345962528
I0403 15:10:02.473089 18366 layer_factory.hpp:77] Creating layer pool5/drop_7x7_s1
I0403 15:10:02.473109 18366 net.cpp:91] Creating Layer pool5/drop_7x7_s1
I0403 15:10:02.473124 18366 net.cpp:425] pool5/drop_7x7_s1 <- pool5/7x7_s1
I0403 15:10:02.473141 18366 net.cpp:386] pool5/drop_7x7_s1 -> pool5/7x7_s1 (in-place)
I0403 15:10:02.473194 18366 net.cpp:141] Setting up pool5/drop_7x7_s1
I0403 15:10:02.473218 18366 net.cpp:148] Top shape: 24 1024 1 1 (24576)
I0403 15:10:02.473233 18366 net.cpp:156] Memory required for data: 1346060832
I0403 15:10:02.473248 18366 layer_factory.hpp:77] Creating layer loss3/classifier_plantvillage
I0403 15:10:02.473269 18366 net.cpp:91] Creating Layer loss3/classifier_plantvillage
I0403 15:10:02.473286 18366 net.cpp:425] loss3/classifier_plantvillage <- pool5/7x7_s1
I0403 15:10:02.473305 18366 net.cpp:399] loss3/classifier_plantvillage -> loss3/classifier_plantvillage
I0403 15:10:02.473750 18366 net.cpp:141] Setting up loss3/classifier_plantvillage
I0403 15:10:02.473776 18366 net.cpp:148] Top shape: 24 38 (912)
I0403 15:10:02.473790 18366 net.cpp:156] Memory required for data: 1346064480
I0403 15:10:02.473809 18366 layer_factory.hpp:77] Creating layer loss3/classifier_plantvillage_loss3/classifier_plantvillage_0_split
I0403 15:10:02.473829 18366 net.cpp:91] Creating Layer loss3/classifier_plantvillage_loss3/classifier_plantvillage_0_split
I0403 15:10:02.473844 18366 net.cpp:425] loss3/classifier_plantvillage_loss3/classifier_plantvillage_0_split <- loss3/classifier_plantvillage
I0403 15:10:02.473865 18366 net.cpp:399] loss3/classifier_plantvillage_loss3/classifier_plantvillage_0_split -> loss3/classifier_plantvillage_loss3/classifier_plantvillage_0_split_0
I0403 15:10:02.473886 18366 net.cpp:399] loss3/classifier_plantvillage_loss3/classifier_plantvillage_0_split -> loss3/classifier_plantvillage_loss3/classifier_plantvillage_0_split_1
I0403 15:10:02.473906 18366 net.cpp:399] loss3/classifier_plantvillage_loss3/classifier_plantvillage_0_split -> loss3/classifier_plantvillage_loss3/classifier_plantvillage_0_split_2
I0403 15:10:02.473927 18366 net.cpp:399] loss3/classifier_plantvillage_loss3/classifier_plantvillage_0_split -> loss3/classifier_plantvillage_loss3/classifier_plantvillage_0_split_3
I0403 15:10:02.474041 18366 net.cpp:141] Setting up loss3/classifier_plantvillage_loss3/classifier_plantvillage_0_split
I0403 15:10:02.474066 18366 net.cpp:148] Top shape: 24 38 (912)
I0403 15:10:02.474082 18366 net.cpp:148] Top shape: 24 38 (912)
I0403 15:10:02.474098 18366 net.cpp:148] Top shape: 24 38 (912)
I0403 15:10:02.474113 18366 net.cpp:148] Top shape: 24 38 (912)
I0403 15:10:02.474128 18366 net.cpp:156] Memory required for data: 1346079072
I0403 15:10:02.474143 18366 layer_factory.hpp:77] Creating layer loss1/loss
I0403 15:10:02.474164 18366 net.cpp:91] Creating Layer loss1/loss
I0403 15:10:02.474184 18366 net.cpp:425] loss1/loss <- loss1/classifier_plantvillage_loss1/classifier_plantvillage_0_split_0
I0403 15:10:02.474215 18366 net.cpp:425] loss1/loss <- label_data_1_split_0
…
