…
I0403 15:44:56.013550 20233 net.cpp:313] The NetState phase (1) differed from the phase (0) specified by a rule in layer data
I0403 15:44:56.014747 20233 net.cpp:49] Initializing net from parameters: 
state {
  phase: TEST
}
layer {
  name: "data"
  type: "Data"
  top: "data"
  top: "label"
  include {
    phase: TEST
  }
  transform_param {
    mirror: false
    crop_size: 224
    mean_file: "/home/mohanty/data/final_dataset/lmdb/grayscale-40-60/mean.binaryproto"
  }
  data_param {
    source: "/home/mohanty/data/final_dataset/lmdb/grayscale-40-60/test_db"
    batch_size: 24
    backend: LMDB
  }
}
layer {
  name: "conv1/7x7_s2"
  type: "Convolution"
  bottom: "data"
  top: "conv1/7x7_s2"
  param {
    lr_mult: 1
    decay_mult: 1
  }
  param {
    lr_mult: 2
    decay_mult: 0
  }
  convolution_param {
    num_output: 64
    pad: 3
    kernel_size: 7
    stride: 2
    weight_filler {
      type: "xavier"
      std: 0.1
    }
    bias_filler {
      type: "constant"
      value: 0.2
    }
  }
}
layer {
  name: "conv1/relu_7x7"
  type: "ReLU"
  bottom: "conv1/7x7_s2"
  top: "conv1/7x7_s2"
}
layer {
  name: "pool1/3x3_s2"
  type: "Pooling"
  bottom: "conv1/7x7_s2"
  top: "pool1/3x3_s2"
  pooling_param {
    pool: MAX
    kernel_size: 3
    stride: 2
  }
}
layer {
  name: "pool1/norm1"
  type: "LRN"
  bottom: "pool1/3x3_s2"
  top: "pool1/norm1"
  lrn_param {
    local_size: 5
    alpha: 0.0001
    beta: 0.75
  }
}
layer {
  name: "conv2/3x3_reduce"
  type: "Convolution"
  bottom: "pool1/norm1"
  top: "conv2/3x3_reduce"
  param {
    lr_mult: 1
    decay_mult: 1
  }
  param {
    lr_mult: 2
    decay_mult: 0
  }
  convolution_param {
    num_output: 64
    kernel_size: 1
    weight_filler {
      type: "xavier"
      std: 0.1
    }
    bias_filler {
      type: "constant"
      value: 0.2
    }
  }
}
layer {
  name: "conv2/relu_3x3_reduce"
  type: "ReLU"
  bottom: "conv2/3x3_reduce"
  top: "conv2/3x3_reduce"
}
layer {
  name: "conv2/3x3"
  type: "Convolution"
  bottom: "conv2/3x3_reduce"
  top: "conv2/3x3"
  param {
    lr_mult: 1
    decay_mult: 1
  }
  param {
    lr_mult: 2
    decay_mult: 0
  }
  convolution_param {
    num_output: 192
    pad: 1
    kernel_size: 3
    weight_filler {
      type: "xavier"
      std: 0.03
    }
    bias_filler {
      type: "constant"
      value: 0.2
    }
  }
}
layer {
  name: "conv2/relu_3x3"
  type: "ReLU"
  bottom: "conv2/3x3"
  top: "conv2/3x3"
}
layer {
  name: "conv2/norm2"
  type: "LRN"
  bottom: "conv2/3x3"
  top: "conv2/norm2"
  lrn_param {
    local_size: 5
    alpha: 0.0001
    beta: 0.75
  }
}
layer {
  name: "pool2/3x3_s2"
  type: "Pooling"
  bottom: "conv2/norm2"
  top: "pool2/3x3_s2"
  pooling_param {
    pool: MAX
    kernel_size: 3
    stride: 2
  }
}
layer {
  name: "inception_3a/1x1"
  type: "Convolution"
  bottom: "pool2/3x3_s2"
  top: "inception_3a/1x1"
  param {
    lr_mult: 1
    decay_mult: 1
  }
  param {
    lr_mult: 2
    decay_mult: 0
  }
  convolution_param {
    num_output: 64
    kernel_size: 1
    weight_filler {
      type: "xavier"
      std: 0.03
    }
    bias_filler {
      type: "constant"
      value: 0.2
    }
  }
}
layer {
  name: "inception_3a/relu_1x1"
  type: "ReLU"
  bottom: "inception_3a/1x1"
  top: "inception_3a/1x1"
}
layer {
  name: "inception_3a/3x3_reduce"
  type: "Convolution"
  bottom: "pool2/3x3_s2"
  top: "inception_3a/3x3_reduce"
  param {
    lr_mult: 1
    decay_mult: 1
  }
  param {
    lr_mult: 2
    decay_mult: 0
  }
  convolution_param {
    num_output: 96
    kernel_size: 1
    weight_filler {
      type: "xavier"
      std: 0.09
    }
    bias_filler {
      type: "constant"
      value: 0.2
    }
  }
}
layer {
  name: "inception_3a/relu_3x3_reduce"
  type: "ReLU"
  bottom: "inception_3a/3x3_reduce"
  top: "inception_3a/3x3_reduce"
}
layer {
  name: "inception_3a/3x3"
  type: "Convolution"
  bottom: "inception_3a/3x3_reduce"
  top: "inception_3a/3x3"
  param {
    lr_mult: 1
    decay_mult: 1
  }
  param {
    lr_mult: 2
    decay_mult: 0
  }
  convolution_param {
    num_output: 128
    pad: 1
    kernel_size: 3
    weight_filler {
      type: "xavier"
      std: 0.03
    }
    bias_filler {
      type: "constant"
      value: 0.2
    }
  }
}
layer {
  name: "inception_3a/relu_3x3"
  type: "ReLU"
  bottom: "inception_3a/3x3"
  top: "inception_3a/3x3"
}
layer {
  name: "inception_3a/5x5_reduce"
  type: "Convolution"
  bottom: "pool2/3x3_s2"
  top: "inception_3a/5x5_reduce"
  param {
    lr_mult: 1
    decay_mult: 1
  }
  param {
    lr_mult: 2
    decay_mult: 0
  }
  convolution_param {
    num_output: 16
    kernel_size: 1
    weight_filler {
      type: "xavier"
      std: 0.2
    }
    bias_filler {
      type: "constant"
      value: 0.2
    }
  }
}
layer {
  name: "inception_3a/relu_5x5_reduce"
  type: "ReLU"
  bottom: "inception_3a/5x5_reduce"
  top: "inception_3a/5x5_reduce"
}
layer {
  name: "inception_3a/5x5"
  type: "Convolution"
  bottom: "inception_3a/5x5_reduce"
  top: "inception_3a/5x5"
  param {
    lr_mult: 1
    decay_mult: 1
  }
  param {
    lr_mult: 2
    decay_mult: 0
  }
  convolution_param {
    num_output: 32
    pad: 2
    kernel_size: 5
    weight_filler {
      type: "xavier"
      std: 0.03
    }
    bias_filler {
      type: "constant"
      value: 0.2
    }
  }
}
layer {
  name: "inception_3a/relu_5x5"
  type: "ReLU"
  bottom: "inception_3a/5x5"
  top: "inception_3a/5x5"
}
layer {
  name: "inception_3a/pool"
  type: "Pooling"
  bottom: "pool2/3x3_s2"
  top: "inception_3a/pool"
  pooling_param {
    pool: MAX
    kernel_size: 3
    stride: 1
    pad: 1
  }
}
layer {
  name: "inception_3a/pool_proj"
  type: "Convolution"
  bottom: "inception_3a/pool"
  top: "inception_3a/pool_proj"
  param {
    lr_mult: 1
    decay_mult: 1
  }
  param {
    lr_mult: 2
    decay_mult: 0
  }
  convolution_param {
    num_output: 32
    kernel_size: 1
    weight_filler {
      type: "xavier"
      std: 0.1
    }
    bias_filler {
      type: "constant"
      value: 0.2
    }
  }
}
layer {
  name: "inception_3a/relu_pool_proj"
  type: "ReLU"
  bottom: "inception_3a/pool_proj"
  top: "inception_3a/pool_proj"
}
layer {
  name: "inception_3a/output"
  type: "Concat"
  bottom: "inception_3a/1x1"
  bottom: "inception_3a/3x3"
  bottom: "inception_3a/5x5"
  bottom: "inception_3a/pool_proj"
  top: "inception_3a/output"
}
layer {
  name: "inception_3b/1x1"
  type: "Convolution"
  bottom: "inception_3a/output"
  top: "inception_3b/1x1"
  param {
    lr_mult: 1
    decay_mult: 1
  }
  param {
    lr_mult: 2
    decay_mult: 0
  }
  convolution_param {
    num_output: 128
    kernel_size: 1
    weight_filler {
      type: "xavier"
      std: 0.03
    }
    bias_filler {
      type: "constant"
      value: 0.2
    }
  }
}
layer {
  name: "inception_3b/relu_1x1"
  type: "ReLU"
  bottom: "inception_3b/1x1"
  top: "inception_3b/1x1"
}
layer {
  name: "inception_3b/3x3_reduce"
  type: "Convolution"
  bottom: "inception_3a/output"
  top: "inception_3b/3x3_reduce"
  param {
    lr_mult: 1
    decay_mult: 1
  }
  param {
    lr_mult: 2
    decay_mult: 0
  }
  convolution_param {
    num_output: 128
    kernel_size: 1
    weight_filler {
      type: "xavier"
      std: 0.09
    }
    bias_filler {
      type: "constant"
      value: 0.2
    }
  }
}
layer {
  name: "inception_3b/relu_3x3_reduce"
  type: "ReLU"
  bottom: "inception_3b/3x3_reduce"
  top: "inception_3b/3x3_reduce"
}
layer {
  name: "inception_3b/3x3"
  type: "Convolution"
  bottom: "inception_3b/3x3_reduce"
  top: "inception_3b/3x3"
  param {
    lr_mult: 1
    decay_mult: 1
  }
  param {
    lr_mult: 2
    decay_mult: 0
  }
  convolution_param {
    num_output: 192
    pad: 1
    kernel_size: 3
    weight_filler {
      type: "xavier"
      std: 0.03
    }
    bias_filler {
      type: "constant"
      value: 0.2
    }
  }
}
layer {
  name: "inception_3b/relu_3x3"
  type: "ReLU"
  bottom: "inception_3b/3x3"
  top: "inception_3b/3x3"
}
layer {
  name: "inception_3b/5x5_reduce"
  type: "Convolution"
  bottom: "inception_3a/output"
  top: "inception_3b/5x5_reduce"
  param {
    lr_mult: 1
    decay_mult: 1
  }
  param {
    lr_mult: 2
    decay_mult: 0
  }
  convolution_param {
    num_output: 32
    kernel_size: 1
    weight_filler {
      type: "xavier"
      std: 0.2
    }
    bias_filler {
      type: "constant"
      value: 0.2
    }
  }
}
layer {
  name: "inception_3b/relu_5x5_reduce"
  type: "ReLU"
  bottom: "inception_3b/5x5_reduce"
  top: "inception_3b/5x5_reduce"
}
layer {
  name: "inception_3b/5x5"
  type: "Convolution"
  bottom: "inception_3b/5x5_reduce"
  top: "inception_3b/5x5"
  param {
    lr_mult: 1
    decay_mult: 1
  }
  param {
    lr_mult: 2
    decay_mult: 0
  }
  convolution_param {
    num_output: 96
    pad: 2
    kernel_size: 5
    weight_filler {
      type: "xavier"
      std: 0.03
    }
    bias_filler {
      type: "constant"
      value: 0.2
    }
  }
}
layer {
  name: "inception_3b/relu_5x5"
  type: "ReLU"
  bottom: "inception_3b/5x5"
  top: "inception_3b/5x5"
}
layer {
  name: "inception_3b/pool"
  type: "Pooling"
  bottom: "inception_3a/output"
  top: "inception_3b/pool"
  pooling_param {
    pool: MAX
    kernel_size: 3
    stride: 1
    pad: 1
  }
}
layer {
  name: "inception_3b/pool_proj"
  type: "Convolution"
  bottom: "inception_3b/pool"
  top: "inception_3b/pool_proj"
  param {
    lr_mult: 1
    decay_mult: 1
  }
  param {
    lr_mult: 2
    decay_mult: 0
  }
  convolution_param {
    num_output: 64
    kernel_size: 1
    weight_filler {
      type: "xavier"
      std: 0.1
    }
    bias_filler {
      type: "constant"
      value: 0.2
    }
  }
}
layer {
  name: "inception_3b/relu_pool_proj"
  type: "ReLU"
  bottom: "inception_3b/pool_proj"
  top: "inception_3b/pool_proj"
}
layer {
  name: "inception_3b/output"
  type: "Concat"
  bottom: "inception_3b/1x1"
  bottom: "inception_3b/3x3"
  bottom: "inception_3b/5x5"
  bottom: "inception_3b/pool_proj"
  top: "inception_3b/output"
}
layer {
  name: "pool3/3x3_s2"
  type: "Pooling"
  bottom: "inception_3b/output"
  top: "pool3/3x3_s2"
  pooling_param {
    pool: MAX
    kernel_size: 3
    stride: 2
  }
}
layer {
  name: "inception_4a/1x1"
  type: "Convolution"
  bottom: "pool3/3x3_s2"
  top: "inception_4a/1x1"
  param {
    lr_mult: 1
    decay_mult: 1
  }
  param {
    lr_mult: 2
    decay_mult: 0
  }
  convolution_param {
    num_output: 192
    kernel_size: 1
    weight_filler {
      type: "xavier"
      std: 0.03
    }
    bias_filler {
      type: "constant"
      value: 0.2
    }
  }
}
layer {
  name: "inception_4a/relu_1x1"
  type: "ReLU"
  bottom: "inception_4a/1x1"
  top: "inception_4a/1x1"
}
layer {
  name: "inception_4a/3x3_reduce"
  type: "Convolution"
  bottom: "pool3/3x3_s2"
  top: "inception_4a/3x3_reduce"
  param {
    lr_mult: 1
    decay_mult: 1
  }
  param {
    lr_mult: 2
    decay_mult: 0
  }
  convolution_param {
    num_output: 96
    kernel_size: 1
    weight_filler {
      type: "xavier"
      std: 0.09
    }
    bias_filler {
      type: "constant"
      value: 0.2
    }
  }
}
layer {
  name: "inception_4a/relu_3x3_reduce"
  type: "ReLU"
  bottom: "inception_4a/3x3_reduce"
  top: "inception_4a/3x3_reduce"
}
layer {
  name: "inception_4a/3x3"
  type: "Convolution"
  bottom: "inception_4a/3x3_reduce"
  top: "inception_4a/3x3"
  param {
    lr_mult: 1
    decay_mult: 1
  }
  param {
    lr_mult: 2
    decay_mult: 0
  }
  convolution_param {
    num_output: 208
    pad: 1
    kernel_size: 3
    weight_filler {
      type: "xavier"
      std: 0.03
    }
    bias_filler {
      type: "constant"
      value: 0.2
    }
  }
}
layer {
  name: "inception_4a/relu_3x3"
  type: "ReLU"
  bottom: "inception_4a/3x3"
  top: "inception_4a/3x3"
}
layer {
  name: "inception_4a/5x5_reduce"
  type: "Convolution"
  bottom: "pool3/3x3_s2"
  top: "inception_4a/5x5_reduce"
  param {
    lr_mult: 1
    decay_mult: 1
  }
  param {
    lr_mult: 2
    decay_mult: 0
  }
  convolution_param {
    num_output: 16
    kernel_size: 1
    weight_filler {
      type: "xavier"
      std: 0.2
    }
    bias_filler {
      type: "constant"
      value: 0.2
    }
  }
}
layer {
  name: "inception_4a/relu_5x5_reduce"
  type: "ReLU"
  bottom: "inception_4a/5x5_reduce"
  top: "inception_4a/5x5_reduce"
}
layer {
  name: "inception_4a/5x5"
  type: "Convolution"
  bottom: "inception_4a/5x5_reduce"
  top: "inception_4a/5x5"
  param {
    lr_mult: 1
    decay_mult: 1
  }
  param {
    lr_mult: 2
    decay_mult: 0
  }
  convolution_param {
    num_output: 48
    pad: 2
    kernel_size: 5
    weight_filler {
      type: "xavier"
      std: 0.03
    }
    bias_filler {
      type: "constant"
      value: 0.2
    }
  }
}
layer {
  name: "inception_4a/relu_5x5"
  type: "ReLU"
  bottom: "inception_4a/5x5"
  top: "inception_4a/5x5"
}
layer {
  name: "inception_4a/pool"
  type: "Pooling"
  bottom: "pool3/3x3_s2"
  top: "inception_4a/pool"
  pooling_param {
    pool: MAX
    kernel_size: 3
    stride: 1
    pad: 1
  }
}
layer {
  name: "inception_4a/pool_proj"
  type: "Convolution"
  bottom: "inception_4a/pool"
  top: "inception_4a/pool_proj"
  param {
    lr_mult: 1
    decay_mult: 1
  }
  param {
    lr_mult: 2
    decay_mult: 0
  }
  convolution_param {
    num_output: 64
    kernel_size: 1
    weight_filler {
      type: "xavier"
      std: 0.1
    }
    bias_filler {
      type: "constant"
      value: 0.2
    }
  }
}
layer {
  name: "inception_4a/relu_pool_proj"
  type: "ReLU"
  bottom: "inception_4a/pool_proj"
  top: "inception_4a/pool_proj"
}
layer {
  name: "inception_4a/output"
  type: "Concat"
  bottom: "inception_4a/1x1"
  bottom: "inception_4a/3x3"
  bottom: "inception_4a/5x5"
  bottom: "inception_4a/pool_proj"
  top: "inception_4a/output"
}
layer {
  name: "loss1/ave_pool"
  type: "Pooling"
  bottom: "inception_4a/output"
  top: "loss1/ave_pool"
  pooling_param {
    pool: AVE
    kernel_size: 5
    stride: 3
  }
}
layer {
  name: "loss1/conv"
  type: "Convolution"
  bottom: "loss1/ave_pool"
  top: "loss1/conv"
  param {
    lr_mult: 1
    decay_mult: 1
  }
  param {
    lr_mult: 2
    decay_mult: 0
  }
  convolution_param {
    num_output: 128
    kernel_size: 1
    weight_filler {
      type: "xavier"
      std: 0.08
    }
    bias_filler {
      type: "constant"
      value: 0.2
    }
  }
}
layer {
  name: "loss1/relu_conv"
  type: "ReLU"
  bottom: "loss1/conv"
  top: "loss1/conv"
}
layer {
  name: "loss1/fc"
  type: "InnerProduct"
  bottom: "loss1/conv"
  top: "loss1/fc"
  param {
    lr_mult: 1
    decay_mult: 1
  }
  param {
    lr_mult: 2
    decay_mult: 0
  }
  inner_product_param {
    num_output: 1024
    weight_filler {
      type: "xavier"
      std: 0.02
    }
    bias_filler {
      type: "constant"
      value: 0.2
    }
  }
}
layer {
  name: "loss1/relu_fc"
  type: "ReLU"
  bottom: "loss1/fc"
  top: "loss1/fc"
}
layer {
  name: "loss1/drop_fc"
  type: "Dropout"
  bottom: "loss1/fc"
  top: "loss1/fc"
  dropout_param {
    dropout_ratio: 0.7
  }
}
layer {
  name: "loss1/classifier_plantvillage"
  type: "InnerProduct"
  bottom: "loss1/fc"
  top: "loss1/classifier_plantvillage"
  param {
    lr_mult: 1
    decay_mult: 1
  }
  param {
    lr_mult: 2
    decay_mult: 0
  }
  inner_product_param {
    num_output: 38
    weight_filler {
      type: "xavier"
      std: 0.0009765625
    }
    bias_filler {
      type: "constant"
      value: 0
    }
  }
}
layer {
  name: "inception_4b/1x1"
  type: "Convolution"
  bottom: "inception_4a/output"
  top: "inception_4b/1x1"
  param {
    lr_mult: 1
    decay_mult: 1
  }
  param {
    lr_mult: 2
    decay_mult: 0
  }
  convolution_param {
    num_output: 160
    kernel_size: 1
    weight_filler {
      type: "xavier"
      std: 0.03
    }
    bias_filler {
      type: "constant"
      value: 0.2
    }
  }
}
layer {
  name: "inception_4b/relu_1x1"
  type: "ReLU"
  bottom: "inception_4b/1x1"
  top: "inception_4b/1x1"
}
layer {
  name: "inception_4b/3x3_reduce"
  type: "Convolution"
  bottom: "inception_4a/output"
  top: "inception_4b/3x3_reduce"
  param {
    lr_mult: 1
    decay_mult: 1
  }
  param {
    lr_mult: 2
    decay_mult: 0
  }
  convolution_param {
    num_output: 112
    kernel_size: 1
    weight_filler {
      type: "xavier"
      std: 0.09
    }
    bias_filler {
      type: "constant"
      value: 0.2
    }
  }
}
layer {
  name: "inception_4b/relu_3x3_reduce"
  type: "ReLU"
  bottom: "inception_4b/3x3_reduce"
  top: "inception_4b/3x3_reduce"
}
layer {
  name: "inception_4b/3x3"
  type: "Convolution"
  bottom: "inception_4b/3x3_reduce"
  top: "inception_4b/3x3"
  param {
    lr_mult: 1
    decay_mult: 1
  }
  param {
    lr_mult: 2
    decay_mult: 0
  }
  convolution_param {
    num_output: 224
    pad: 1
    kernel_size: 3
    weight_filler {
      type: "xavier"
      std: 0.03
    }
    bias_filler {
      type: "constant"
      value: 0.2
    }
  }
}
layer {
  name: "inception_4b/relu_3x3"
  type: "ReLU"
  bottom: "inception_4b/3x3"
  top: "inception_4b/3x3"
}
layer {
  name: "inception_4b/5x5_reduce"
  type: "Convolution"
  bottom: "inception_4a/output"
  top: "inception_4b/5x5_reduce"
  param {
    lr_mult: 1
    decay_mult: 1
  }
  param {
    lr_mult: 2
    decay_mult: 0
  }
  convolution_param {
    num_output: 24
    kernel_size: 1
    weight_filler {
      type: "xavier"
      std: 0.2
    }
    bias_filler {
      type: "constant"
      value: 0.2
    }
  }
}
layer {
  name: "inception_4b/relu_5x5_reduce"
  type: "ReLU"
  bottom: "inception_4b/5x5_reduce"
  top: "inception_4b/5x5_reduce"
}
layer {
  name: "inception_4b/5x5"
  type: "Convolution"
  bottom: "inception_4b/5x5_reduce"
  top: "inception_4b/5x5"
  param {
    lr_mult: 1
    decay_mult: 1
  }
  param {
    lr_mult: 2
    decay_mult: 0
  }
  convolution_param {
    num_output: 64
    pad: 2
    kernel_size: 5
    weight_filler {
      type: "xavier"
      std: 0.03
    }
    bias_filler {
      type: "constant"
      value: 0.2
    }
  }
}
layer {
  name: "inception_4b/relu_5x5"
  type: "ReLU"
  bottom: "inception_4b/5x5"
  top: "inception_4b/5x5"
}
layer {
  name: "inception_4b/pool"
  type: "Pooling"
  bottom: "inception_4a/output"
  top: "inception_4b/pool"
  pooling_param {
    pool: MAX
    kernel_size: 3
    stride: 1
    pad: 1
  }
}
layer {
  name: "inception_4b/pool_proj"
  type: "Convolution"
  bottom: "inception_4b/pool"
  top: "inception_4b/pool_proj"
  param {
    lr_mult: 1
    decay_mult: 1
  }
  param {
    lr_mult: 2
    decay_mult: 0
  }
  convolution_param {
    num_output: 64
    kernel_size: 1
    weight_filler {
      type: "xavier"
      std: 0.1
    }
    bias_filler {
      type: "constant"
      value: 0.2
    }
  }
}
layer {
  name: "inception_4b/relu_pool_proj"
  type: "ReLU"
  bottom: "inception_4b/pool_proj"
  top: "inception_4b/pool_proj"
}
layer {
  name: "inception_4b/output"
  type: "Concat"
  bottom: "inception_4b/1x1"
  bottom: "inception_4b/3x3"
  bottom: "inception_4b/5x5"
  bottom: "inception_4b/pool_proj"
  top: "inception_4b/output"
}
layer {
  name: "inception_4c/1x1"
  type: "Convolution"
  bottom: "inception_4b/output"
  top: "inception_4c/1x1"
  param {
    lr_mult: 1
    decay_mult: 1
  }
  param {
    lr_mult: 2
    decay_mult: 0
  }
  convolution_param {
    num_output: 128
    kernel_size: 1
    weight_filler {
      type: "xavier"
      std: 0.03
    }
    bias_filler {
      type: "constant"
      value: 0.2
    }
  }
}
layer {
  name: "inception_4c/relu_1x1"
  type: "ReLU"
  bottom: "inception_4c/1x1"
  top: "inception_4c/1x1"
}
layer {
  name: "inception_4c/3x3_reduce"
  type: "Convolution"
  bottom: "inception_4b/output"
  top: "inception_4c/3x3_reduce"
  param {
    lr_mult: 1
    decay_mult: 1
  }
  param {
    lr_mult: 2
    decay_mult: 0
  }
  convolution_param {
    num_output: 128
    kernel_size: 1
    weight_filler {
      type: "xavier"
      std: 0.09
    }
    bias_filler {
      type: "constant"
      value: 0.2
    }
  }
}
layer {
  name: "inception_4c/relu_3x3_reduce"
  type: "ReLU"
  bottom: "inception_4c/3x3_reduce"
  top: "inception_4c/3x3_reduce"
}
layer {
  name: "inception_4c/3x3"
  type: "Convolution"
  bottom: "inception_4c/3x3_reduce"
  top: "inception_4c/3x3"
  param {
    lr_mult: 1
    decay_mult: 1
  }
  param {
    lr_mult: 2
    decay_mult: 0
  }
  convolution_param {
    num_output: 256
    pad: 1
    kernel_size: 3
    weight_filler {
      type: "xavier"
      std: 0.03
    }
    bias_filler {
      type: "constant"
      value: 0.2
    }
  }
}
layer {
  name: "inception_4c/relu_3x3"
  type: "ReLU"
  bottom: "inception_4c/3x3"
  top: "inception_4c/3x3"
}
layer {
  name: "inception_4c/5x5_reduce"
  type: "Convolution"
  bottom: "inception_4b/output"
  top: "inception_4c/5x5_reduce"
  param {
    lr_mult: 1
    decay_mult: 1
  }
  param {
    lr_mult: 2
    decay_mult: 0
  }
  convolution_param {
    num_output: 24
    kernel_size: 1
    weight_filler {
      type: "xavier"
      std: 0.2
    }
    bias_filler {
      type: "constant"
      value: 0.2
    }
  }
}
layer {
  name: "inception_4c/relu_5x5_reduce"
  type: "ReLU"
  bottom: "inception_4c/5x5_reduce"
  top: "inception_4c/5x5_reduce"
}
layer {
  name: "inception_4c/5x5"
  type: "Convolution"
  bottom: "inception_4c/5x5_reduce"
  top: "inception_4c/5x5"
  param {
    lr_mult: 1
    decay_mult: 1
  }
  param {
    lr_mult: 2
    decay_mult: 0
  }
  convolution_param {
    num_output: 64
    pad: 2
    kernel_size: 5
    weight_filler {
      type: "xavier"
      std: 0.03
    }
    bias_filler {
      type: "constant"
      value: 0.2
    }
  }
}
layer {
  name: "inception_4c/relu_5x5"
  type: "ReLU"
  bottom: "inception_4c/5x5"
  top: "inception_4c/5x5"
}
layer {
  name: "inception_4c/pool"
  type: "Pooling"
  bottom: "inception_4b/output"
  top: "inception_4c/pool"
  pooling_param {
    pool: MAX
    kernel_size: 3
    stride: 1
    pad: 1
  }
}
layer {
  name: "inception_4c/pool_proj"
  type: "Convolution"
  bottom: "inception_4c/pool"
  top: "inception_4c/pool_proj"
  param {
    lr_mult: 1
    decay_mult: 1
  }
  param {
    lr_mult: 2
    decay_mult: 0
  }
  convolution_param {
    num_output: 64
    kernel_size: 1
    weight_filler {
      type: "xavier"
      std: 0.1
    }
    bias_filler {
      type: "constant"
      value: 0.2
    }
  }
}
layer {
  name: "inception_4c/relu_pool_proj"
  type: "ReLU"
  bottom: "inception_4c/pool_proj"
  top: "inception_4c/pool_proj"
}
layer {
  name: "inception_4c/output"
  type: "Concat"
  bottom: "inception_4c/1x1"
  bottom: "inception_4c/3x3"
  bottom: "inception_4c/5x5"
  bottom: "inception_4c/pool_proj"
  top: "inception_4c/output"
}
layer {
  name: "inception_4d/1x1"
  type: "Convolution"
  bottom: "inception_4c/output"
  top: "inception_4d/1x1"
  param {
    lr_mult: 1
    decay_mult: 1
  }
  param {
    lr_mult: 2
    decay_mult: 0
  }
  convolution_param {
    num_output: 112
    kernel_size: 1
    weight_filler {
      type: "xavier"
      std: 0.03
    }
    bias_filler {
      type: "constant"
      value: 0.2
    }
  }
}
layer {
  name: "inception_4d/relu_1x1"
  type: "ReLU"
  bottom: "inception_4d/1x1"
  top: "inception_4d/1x1"
}
layer {
  name: "inception_4d/3x3_reduce"
  type: "Convolution"
  bottom: "inception_4c/output"
  top: "inception_4d/3x3_reduce"
  param {
    lr_mult: 1
    decay_mult: 1
  }
  param {
    lr_mult: 2
    decay_mult: 0
  }
  convolution_param {
    num_output: 144
    kernel_size: 1
    weight_filler {
      type: "xavier"
      std: 0.09
    }
    bias_filler {
      type: "constant"
      value: 0.2
    }
  }
}
layer {
  name: "inception_4d/relu_3x3_reduce"
  type: "ReLU"
  bottom: "inception_4d/3x3_reduce"
  top: "inception_4d/3x3_reduce"
}
layer {
  name: "inception_4d/3x3"
  type: "Convolution"
  bottom: "inception_4d/3x3_reduce"
  top: "inception_4d/3x3"
  param {
    lr_mult: 1
    decay_mult: 1
  }
  param {
    lr_mult: 2
    decay_mult: 0
  }
  convolution_param {
    num_output: 288
    pad: 1
    kernel_size: 3
    weight_filler {
      type: "xavier"
      std: 0.03
    }
    bias_filler {
      type: "constant"
      value: 0.2
    }
  }
}
layer {
  name: "inception_4d/relu_3x3"
  type: "ReLU"
  bottom: "inception_4d/3x3"
  top: "inception_4d/3x3"
}
layer {
  name: "inception_4d/5x5_reduce"
  type: "Convolution"
  bottom: "inception_4c/output"
  top: "inception_4d/5x5_reduce"
  param {
    lr_mult: 1
    decay_mult: 1
  }
  param {
    lr_mult: 2
    decay_mult: 0
  }
  convolution_param {
    num_output: 32
    kernel_size: 1
    weight_filler {
      type: "xavier"
      std: 0.2
    }
    bias_filler {
      type: "constant"
      value: 0.2
    }
  }
}
layer {
  name: "inception_4d/relu_5x5_reduce"
  type: "ReLU"
  bottom: "inception_4d/5x5_reduce"
  top: "inception_4d/5x5_reduce"
}
layer {
  name: "inception_4d/5x5"
  type: "Convolution"
  bottom: "inception_4d/5x5_reduce"
  top: "inception_4d/5x5"
  param {
    lr_mult: 1
    decay_mult: 1
  }
  param {
    lr_mult: 2
    decay_mult: 0
  }
  convolution_param {
    num_output: 64
    pad: 2
    kernel_size: 5
    weight_filler {
      type: "xavier"
      std: 0.03
    }
    bias_filler {
      type: "constant"
      value: 0.2
    }
  }
}
layer {
  name: "inception_4d/relu_5x5"
  type: "ReLU"
  bottom: "inception_4d/5x5"
  top: "inception_4d/5x5"
}
layer {
  name: "inception_4d/pool"
  type: "Pooling"
  bottom: "inception_4c/output"
  top: "inception_4d/pool"
  pooling_param {
    pool: MAX
    kernel_size: 3
    stride: 1
    pad: 1
  }
}
layer {
  name: "inception_4d/pool_proj"
  type: "Convolution"
  bottom: "inception_4d/pool"
  top: "inception_4d/pool_proj"
  param {
    lr_mult: 1
    decay_mult: 1
  }
  param {
    lr_mult: 2
    decay_mult: 0
  }
  convolution_param {
    num_output: 64
    kernel_size: 1
    weight_filler {
      type: "xavier"
      std: 0.1
    }
    bias_filler {
      type: "constant"
      value: 0.2
    }
  }
}
layer {
  name: "inception_4d/relu_pool_proj"
  type: "ReLU"
  bottom: "inception_4d/pool_proj"
  top: "inception_4d/pool_proj"
}
layer {
  name: "inception_4d/output"
  type: "Concat"
  bottom: "inception_4d/1x1"
  bottom: "inception_4d/3x3"
  bottom: "inception_4d/5x5"
  bottom: "inception_4d/pool_proj"
  top: "inception_4d/output"
}
layer {
  name: "loss2/ave_pool"
  type: "Pooling"
  bottom: "inception_4d/output"
  top: "loss2/ave_pool"
  pooling_param {
    pool: AVE
    kernel_size: 5
    stride: 3
  }
}
layer {
  name: "loss2/conv"
  type: "Convolution"
  bottom: "loss2/ave_pool"
  top: "loss2/conv"
  param {
    lr_mult: 1
    decay_mult: 1
  }
  param {
    lr_mult: 2
    decay_mult: 0
  }
  convolution_param {
    num_output: 128
    kernel_size: 1
    weight_filler {
      type: "xavier"
      std: 0.08
    }
    bias_filler {
      type: "constant"
      value: 0.2
    }
  }
}
layer {
  name: "loss2/relu_conv"
  type: "ReLU"
  bottom: "loss2/conv"
  top: "loss2/conv"
}
layer {
  name: "loss2/fc"
  type: "InnerProduct"
  bottom: "loss2/conv"
  top: "loss2/fc"
  param {
    lr_mult: 1
    decay_mult: 1
  }
  param {
    lr_mult: 2
    decay_mult: 0
  }
  inner_product_param {
    num_output: 1024
    weight_filler {
      type: "xavier"
      std: 0.02
    }
    bias_filler {
      type: "constant"
      value: 0.2
    }
  }
}
layer {
  name: "loss2/relu_fc"
  type: "ReLU"
  bottom: "loss2/fc"
  top: "loss2/fc"
}
layer {
  name: "loss2/drop_fc"
  type: "Dropout"
  bottom: "loss2/fc"
  top: "loss2/fc"
  dropout_param {
    dropout_ratio: 0.7
  }
}
layer {
  name: "loss2/classifier_plantvillage"
  type: "InnerProduct"
  bottom: "loss2/fc"
  top: "loss2/classifier_plantvillage"
  param {
    lr_mult: 1
    decay_mult: 1
  }
  param {
    lr_mult: 2
    decay_mult: 0
  }
  inner_product_param {
    num_output: 38
    weight_filler {
      type: "xavier"
      std: 0.0009765625
    }
    bias_filler {
      type: "constant"
      value: 0
    }
  }
}
layer {
  name: "inception_4e/1x1"
  type: "Convolution"
  bottom: "inception_4d/output"
  top: "inception_4e/1x1"
  param {
    lr_mult: 1
    decay_mult: 1
  }
  param {
    lr_mult: 2
    decay_mult: 0
  }
  convolution_param {
    num_output: 256
    kernel_size: 1
    weight_filler {
      type: "xavier"
      std: 0.03
    }
    bias_filler {
      type: "constant"
      value: 0.2
    }
  }
}
layer {
  name: "inception_4e/relu_1x1"
  type: "ReLU"
  bottom: "inception_4e/1x1"
  top: "inception_4e/1x1"
}
layer {
  name: "inception_4e/3x3_reduce"
  type: "Convolution"
  bottom: "inception_4d/output"
  top: "inception_4e/3x3_reduce"
  param {
    lr_mult: 1
    decay_mult: 1
  }
  param {
    lr_mult: 2
    decay_mult: 0
  }
  convolution_param {
    num_output: 160
    kernel_size: 1
    weight_filler {
      type: "xavier"
      std: 0.09
    }
    bias_filler {
      type: "constant"
      value: 0.2
    }
  }
}
layer {
  name: "inception_4e/relu_3x3_reduce"
  type: "ReLU"
  bottom: "inception_4e/3x3_reduce"
  top: "inception_4e/3x3_reduce"
}
layer {
  name: "inception_4e/3x3"
  type: "Convolution"
  bottom: "inception_4e/3x3_reduce"
  top: "inception_4e/3x3"
  param {
    lr_mult: 1
    decay_mult: 1
  }
  param {
    lr_mult: 2
    decay_mult: 0
  }
  convolution_param {
    num_output: 320
    pad: 1
    kernel_size: 3
    weight_filler {
      type: "xavier"
      std: 0.03
    }
    bias_filler {
      type: "constant"
      value: 0.2
    }
  }
}
layer {
  name: "inception_4e/relu_3x3"
  type: "ReLU"
  bottom: "inception_4e/3x3"
  top: "inception_4e/3x3"
}
layer {
  name: "inception_4e/5x5_reduce"
  type: "Convolution"
  bottom: "inception_4d/output"
  top: "inception_4e/5x5_reduce"
  param {
    lr_mult: 1
    decay_mult: 1
  }
  param {
    lr_mult: 2
    decay_mult: 0
  }
  convolution_param {
    num_output: 32
    kernel_size: 1
    weight_filler {
      type: "xavier"
      std: 0.2
    }
    bias_filler {
      type: "constant"
      value: 0.2
    }
  }
}
layer {
  name: "inception_4e/relu_5x5_reduce"
  type: "ReLU"
  bottom: "inception_4e/5x5_reduce"
  top: "inception_4e/5x5_reduce"
}
layer {
  name: "inception_4e/5x5"
  type: "Convolution"
  bottom: "inception_4e/5x5_reduce"
  top: "inception_4e/
I0403 15:44:56.015957 20233 layer_factory.hpp:77] Creating layer data
I0403 15:44:56.016587 20233 net.cpp:91] Creating Layer data
I0403 15:44:56.016616 20233 net.cpp:399] data -> data
I0403 15:44:56.016666 20233 net.cpp:399] data -> label
I0403 15:44:56.016701 20233 data_transformer.cpp:25] Loading mean file from: /home/mohanty/data/final_dataset/lmdb/grayscale-40-60/mean.binaryproto
I0403 15:44:56.019764 20236 db_lmdb.cpp:38] Opened lmdb /home/mohanty/data/final_dataset/lmdb/grayscale-40-60/test_db
I0403 15:44:56.030016 20233 data_layer.cpp:41] output data size: 24,3,224,224
I0403 15:44:56.059718 20233 net.cpp:141] Setting up data
I0403 15:44:56.059801 20233 net.cpp:148] Top shape: 24 3 224 224 (3612672)
I0403 15:44:56.059825 20233 net.cpp:148] Top shape: 24 (24)
I0403 15:44:56.059840 20233 net.cpp:156] Memory required for data: 14450784
I0403 15:44:56.059869 20233 layer_factory.hpp:77] Creating layer label_data_1_split
I0403 15:44:56.059895 20233 net.cpp:91] Creating Layer label_data_1_split
I0403 15:44:56.059913 20233 net.cpp:425] label_data_1_split <- label
I0403 15:44:56.059944 20233 net.cpp:399] label_data_1_split -> label_data_1_split_0
I0403 15:44:56.059974 20233 net.cpp:399] label_data_1_split -> label_data_1_split_1
I0403 15:44:56.060001 20233 net.cpp:399] label_data_1_split -> label_data_1_split_2
I0403 15:44:56.060024 20233 net.cpp:399] label_data_1_split -> label_data_1_split_3
I0403 15:44:56.060045 20233 net.cpp:399] label_data_1_split -> label_data_1_split_4
I0403 15:44:56.060066 20233 net.cpp:399] label_data_1_split -> label_data_1_split_5
I0403 15:44:56.060084 20233 net.cpp:399] label_data_1_split -> label_data_1_split_6
I0403 15:44:56.060106 20233 net.cpp:399] label_data_1_split -> label_data_1_split_7
I0403 15:44:56.060124 20233 net.cpp:399] label_data_1_split -> label_data_1_split_8
I0403 15:44:56.060145 20233 net.cpp:399] label_data_1_split -> label_data_1_split_9
I0403 15:44:56.060261 20233 net.cpp:141] Setting up label_data_1_split
I0403 15:44:56.060287 20233 net.cpp:148] Top shape: 24 (24)
I0403 15:44:56.060305 20233 net.cpp:148] Top shape: 24 (24)
I0403 15:44:56.060322 20233 net.cpp:148] Top shape: 24 (24)
I0403 15:44:56.060338 20233 net.cpp:148] Top shape: 24 (24)
I0403 15:44:56.060353 20233 net.cpp:148] Top shape: 24 (24)
I0403 15:44:56.060369 20233 net.cpp:148] Top shape: 24 (24)
I0403 15:44:56.060385 20233 net.cpp:148] Top shape: 24 (24)
I0403 15:44:56.060403 20233 net.cpp:148] Top shape: 24 (24)
I0403 15:44:56.060420 20233 net.cpp:148] Top shape: 24 (24)
I0403 15:44:56.060436 20233 net.cpp:148] Top shape: 24 (24)
I0403 15:44:56.060482 20233 net.cpp:156] Memory required for data: 14451744
I0403 15:44:56.060499 20233 layer_factory.hpp:77] Creating layer conv1/7x7_s2
I0403 15:44:56.060531 20233 net.cpp:91] Creating Layer conv1/7x7_s2
I0403 15:44:56.060550 20233 net.cpp:425] conv1/7x7_s2 <- data
I0403 15:44:56.060570 20233 net.cpp:399] conv1/7x7_s2 -> conv1/7x7_s2
I0403 15:44:56.208792 20233 net.cpp:141] Setting up conv1/7x7_s2
I0403 15:44:56.208881 20233 net.cpp:148] Top shape: 24 64 112 112 (19267584)
I0403 15:44:56.208899 20233 net.cpp:156] Memory required for data: 91522080
I0403 15:44:56.208927 20233 layer_factory.hpp:77] Creating layer conv1/relu_7x7
I0403 15:44:56.208953 20233 net.cpp:91] Creating Layer conv1/relu_7x7
I0403 15:44:56.208971 20233 net.cpp:425] conv1/relu_7x7 <- conv1/7x7_s2
I0403 15:44:56.208999 20233 net.cpp:386] conv1/relu_7x7 -> conv1/7x7_s2 (in-place)
I0403 15:44:56.209270 20233 net.cpp:141] Setting up conv1/relu_7x7
I0403 15:44:56.209298 20233 net.cpp:148] Top shape: 24 64 112 112 (19267584)
I0403 15:44:56.209313 20233 net.cpp:156] Memory required for data: 168592416
I0403 15:44:56.209328 20233 layer_factory.hpp:77] Creating layer pool1/3x3_s2
I0403 15:44:56.209353 20233 net.cpp:91] Creating Layer pool1/3x3_s2
I0403 15:44:56.209372 20233 net.cpp:425] pool1/3x3_s2 <- conv1/7x7_s2
I0403 15:44:56.209389 20233 net.cpp:399] pool1/3x3_s2 -> pool1/3x3_s2
I0403 15:44:56.209462 20233 net.cpp:141] Setting up pool1/3x3_s2
I0403 15:44:56.209486 20233 net.cpp:148] Top shape: 24 64 56 56 (4816896)
I0403 15:44:56.209512 20233 net.cpp:156] Memory required for data: 187860000
I0403 15:44:56.209527 20233 layer_factory.hpp:77] Creating layer pool1/norm1
I0403 15:44:56.209550 20233 net.cpp:91] Creating Layer pool1/norm1
I0403 15:44:56.209568 20233 net.cpp:425] pool1/norm1 <- pool1/3x3_s2
I0403 15:44:56.209584 20233 net.cpp:399] pool1/norm1 -> pool1/norm1
I0403 15:44:56.209908 20233 net.cpp:141] Setting up pool1/norm1
I0403 15:44:56.209935 20233 net.cpp:148] Top shape: 24 64 56 56 (4816896)
I0403 15:44:56.209950 20233 net.cpp:156] Memory required for data: 207127584
I0403 15:44:56.209964 20233 layer_factory.hpp:77] Creating layer conv2/3x3_reduce
I0403 15:44:56.209993 20233 net.cpp:91] Creating Layer conv2/3x3_reduce
I0403 15:44:56.210011 20233 net.cpp:425] conv2/3x3_reduce <- pool1/norm1
I0403 15:44:56.210031 20233 net.cpp:399] conv2/3x3_reduce -> conv2/3x3_reduce
I0403 15:44:56.211340 20233 net.cpp:141] Setting up conv2/3x3_reduce
I0403 15:44:56.211370 20233 net.cpp:148] Top shape: 24 64 56 56 (4816896)
I0403 15:44:56.211386 20233 net.cpp:156] Memory required for data: 226395168
I0403 15:44:56.211407 20233 layer_factory.hpp:77] Creating layer conv2/relu_3x3_reduce
I0403 15:44:56.211426 20233 net.cpp:91] Creating Layer conv2/relu_3x3_reduce
I0403 15:44:56.211443 20233 net.cpp:425] conv2/relu_3x3_reduce <- conv2/3x3_reduce
I0403 15:44:56.211462 20233 net.cpp:386] conv2/relu_3x3_reduce -> conv2/3x3_reduce (in-place)
I0403 15:44:56.211716 20233 net.cpp:141] Setting up conv2/relu_3x3_reduce
I0403 15:44:56.211747 20233 net.cpp:148] Top shape: 24 64 56 56 (4816896)
I0403 15:44:56.211763 20233 net.cpp:156] Memory required for data: 245662752
I0403 15:44:56.211779 20233 layer_factory.hpp:77] Creating layer conv2/3x3
I0403 15:44:56.211802 20233 net.cpp:91] Creating Layer conv2/3x3
I0403 15:44:56.211818 20233 net.cpp:425] conv2/3x3 <- conv2/3x3_reduce
I0403 15:44:56.211838 20233 net.cpp:399] conv2/3x3 -> conv2/3x3
I0403 15:44:56.214148 20233 net.cpp:141] Setting up conv2/3x3
I0403 15:44:56.214179 20233 net.cpp:148] Top shape: 24 192 56 56 (14450688)
I0403 15:44:56.214198 20233 net.cpp:156] Memory required for data: 303465504
I0403 15:44:56.214221 20233 layer_factory.hpp:77] Creating layer conv2/relu_3x3
I0403 15:44:56.214241 20233 net.cpp:91] Creating Layer conv2/relu_3x3
I0403 15:44:56.214257 20233 net.cpp:425] conv2/relu_3x3 <- conv2/3x3
I0403 15:44:56.214274 20233 net.cpp:386] conv2/relu_3x3 -> conv2/3x3 (in-place)
I0403 15:44:56.214452 20233 net.cpp:141] Setting up conv2/relu_3x3
I0403 15:44:56.214478 20233 net.cpp:148] Top shape: 24 192 56 56 (14450688)
I0403 15:44:56.214524 20233 net.cpp:156] Memory required for data: 361268256
I0403 15:44:56.214540 20233 layer_factory.hpp:77] Creating layer conv2/norm2
I0403 15:44:56.214560 20233 net.cpp:91] Creating Layer conv2/norm2
I0403 15:44:56.214577 20233 net.cpp:425] conv2/norm2 <- conv2/3x3
I0403 15:44:56.214594 20233 net.cpp:399] conv2/norm2 -> conv2/norm2
I0403 15:44:56.214893 20233 net.cpp:141] Setting up conv2/norm2
I0403 15:44:56.214920 20233 net.cpp:148] Top shape: 24 192 56 56 (14450688)
I0403 15:44:56.214936 20233 net.cpp:156] Memory required for data: 419071008
I0403 15:44:56.214958 20233 layer_factory.hpp:77] Creating layer pool2/3x3_s2
I0403 15:44:56.214979 20233 net.cpp:91] Creating Layer pool2/3x3_s2
I0403 15:44:56.215000 20233 net.cpp:425] pool2/3x3_s2 <- conv2/norm2
I0403 15:44:56.215018 20233 net.cpp:399] pool2/3x3_s2 -> pool2/3x3_s2
I0403 15:44:56.215070 20233 net.cpp:141] Setting up pool2/3x3_s2
I0403 15:44:56.215093 20233 net.cpp:148] Top shape: 24 192 28 28 (3612672)
I0403 15:44:56.215107 20233 net.cpp:156] Memory required for data: 433521696
I0403 15:44:56.215121 20233 layer_factory.hpp:77] Creating layer pool2/3x3_s2_pool2/3x3_s2_0_split
I0403 15:44:56.215138 20233 net.cpp:91] Creating Layer pool2/3x3_s2_pool2/3x3_s2_0_split
I0403 15:44:56.215153 20233 net.cpp:425] pool2/3x3_s2_pool2/3x3_s2_0_split <- pool2/3x3_s2
I0403 15:44:56.215173 20233 net.cpp:399] pool2/3x3_s2_pool2/3x3_s2_0_split -> pool2/3x3_s2_pool2/3x3_s2_0_split_0
I0403 15:44:56.215191 20233 net.cpp:399] pool2/3x3_s2_pool2/3x3_s2_0_split -> pool2/3x3_s2_pool2/3x3_s2_0_split_1
I0403 15:44:56.215210 20233 net.cpp:399] pool2/3x3_s2_pool2/3x3_s2_0_split -> pool2/3x3_s2_pool2/3x3_s2_0_split_2
I0403 15:44:56.215229 20233 net.cpp:399] pool2/3x3_s2_pool2/3x3_s2_0_split -> pool2/3x3_s2_pool2/3x3_s2_0_split_3
I0403 15:44:56.215306 20233 net.cpp:141] Setting up pool2/3x3_s2_pool2/3x3_s2_0_split
I0403 15:44:56.215332 20233 net.cpp:148] Top shape: 24 192 28 28 (3612672)
I0403 15:44:56.215349 20233 net.cpp:148] Top shape: 24 192 28 28 (3612672)
I0403 15:44:56.215364 20233 net.cpp:148] Top shape: 24 192 28 28 (3612672)
I0403 15:44:56.215379 20233 net.cpp:148] Top shape: 24 192 28 28 (3612672)
I0403 15:44:56.215392 20233 net.cpp:156] Memory required for data: 491324448
I0403 15:44:56.215406 20233 layer_factory.hpp:77] Creating layer inception_3a/1x1
I0403 15:44:56.215428 20233 net.cpp:91] Creating Layer inception_3a/1x1
I0403 15:44:56.215445 20233 net.cpp:425] inception_3a/1x1 <- pool2/3x3_s2_pool2/3x3_s2_0_split_0
I0403 15:44:56.215462 20233 net.cpp:399] inception_3a/1x1 -> inception_3a/1x1
I0403 15:44:56.216959 20233 net.cpp:141] Setting up inception_3a/1x1
I0403 15:44:56.216994 20233 net.cpp:148] Top shape: 24 64 28 28 (1204224)
I0403 15:44:56.217011 20233 net.cpp:156] Memory required for data: 496141344
I0403 15:44:56.217033 20233 layer_factory.hpp:77] Creating layer inception_3a/relu_1x1
I0403 15:44:56.217054 20233 net.cpp:91] Creating Layer inception_3a/relu_1x1
I0403 15:44:56.217070 20233 net.cpp:425] inception_3a/relu_1x1 <- inception_3a/1x1
I0403 15:44:56.217087 20233 net.cpp:386] inception_3a/relu_1x1 -> inception_3a/1x1 (in-place)
I0403 15:44:56.217268 20233 net.cpp:141] Setting up inception_3a/relu_1x1
I0403 15:44:56.217296 20233 net.cpp:148] Top shape: 24 64 28 28 (1204224)
I0403 15:44:56.217311 20233 net.cpp:156] Memory required for data: 500958240
I0403 15:44:56.217326 20233 layer_factory.hpp:77] Creating layer inception_3a/3x3_reduce
I0403 15:44:56.217350 20233 net.cpp:91] Creating Layer inception_3a/3x3_reduce
I0403 15:44:56.217366 20233 net.cpp:425] inception_3a/3x3_reduce <- pool2/3x3_s2_pool2/3x3_s2_0_split_1
I0403 15:44:56.217387 20233 net.cpp:399] inception_3a/3x3_reduce -> inception_3a/3x3_reduce
I0403 15:44:56.219076 20233 net.cpp:141] Setting up inception_3a/3x3_reduce
I0403 15:44:56.219107 20233 net.cpp:148] Top shape: 24 96 28 28 (1806336)
I0403 15:44:56.219125 20233 net.cpp:156] Memory required for data: 508183584
I0403 15:44:56.219148 20233 layer_factory.hpp:77] Creating layer inception_3a/relu_3x3_reduce
I0403 15:44:56.219182 20233 net.cpp:91] Creating Layer inception_3a/relu_3x3_reduce
I0403 15:44:56.219200 20233 net.cpp:425] inception_3a/relu_3x3_reduce <- inception_3a/3x3_reduce
I0403 15:44:56.219219 20233 net.cpp:386] inception_3a/relu_3x3_reduce -> inception_3a/3x3_reduce (in-place)
I0403 15:44:56.219408 20233 net.cpp:141] Setting up inception_3a/relu_3x3_reduce
I0403 15:44:56.219432 20233 net.cpp:148] Top shape: 24 96 28 28 (1806336)
I0403 15:44:56.219446 20233 net.cpp:156] Memory required for data: 515408928
I0403 15:44:56.219461 20233 layer_factory.hpp:77] Creating layer inception_3a/3x3
I0403 15:44:56.219483 20233 net.cpp:91] Creating Layer inception_3a/3x3
I0403 15:44:56.219501 20233 net.cpp:425] inception_3a/3x3 <- inception_3a/3x3_reduce
I0403 15:44:56.219522 20233 net.cpp:399] inception_3a/3x3 -> inception_3a/3x3
I0403 15:44:56.221144 20233 net.cpp:141] Setting up inception_3a/3x3
I0403 15:44:56.221174 20233 net.cpp:148] Top shape: 24 128 28 28 (2408448)
I0403 15:44:56.221190 20233 net.cpp:156] Memory required for data: 525042720
I0403 15:44:56.221209 20233 layer_factory.hpp:77] Creating layer inception_3a/relu_3x3
I0403 15:44:56.221240 20233 net.cpp:91] Creating Layer inception_3a/relu_3x3
I0403 15:44:56.221256 20233 net.cpp:425] inception_3a/relu_3x3 <- inception_3a/3x3
I0403 15:44:56.221274 20233 net.cpp:386] inception_3a/relu_3x3 -> inception_3a/3x3 (in-place)
I0403 15:44:56.221565 20233 net.cpp:141] Setting up inception_3a/relu_3x3
I0403 15:44:56.221590 20233 net.cpp:148] Top shape: 24 128 28 28 (2408448)
I0403 15:44:56.221606 20233 net.cpp:156] Memory required for data: 534676512
I0403 15:44:56.221619 20233 layer_factory.hpp:77] Creating layer inception_3a/5x5_reduce
I0403 15:44:56.221643 20233 net.cpp:91] Creating Layer inception_3a/5x5_reduce
I0403 15:44:56.221662 20233 net.cpp:425] inception_3a/5x5_reduce <- pool2/3x3_s2_pool2/3x3_s2_0_split_2
I0403 15:44:56.221679 20233 net.cpp:399] inception_3a/5x5_reduce -> inception_3a/5x5_reduce
I0403 15:44:56.222621 20233 net.cpp:141] Setting up inception_3a/5x5_reduce
I0403 15:44:56.222651 20233 net.cpp:148] Top shape: 24 16 28 28 (301056)
I0403 15:44:56.222668 20233 net.cpp:156] Memory required for data: 535880736
I0403 15:44:56.222687 20233 layer_factory.hpp:77] Creating layer inception_3a/relu_5x5_reduce
I0403 15:44:56.222704 20233 net.cpp:91] Creating Layer inception_3a/relu_5x5_reduce
I0403 15:44:56.222719 20233 net.cpp:425] inception_3a/relu_5x5_reduce <- inception_3a/5x5_reduce
I0403 15:44:56.222740 20233 net.cpp:386] inception_3a/relu_5x5_reduce -> inception_3a/5x5_reduce (in-place)
I0403 15:44:56.223047 20233 net.cpp:141] Setting up inception_3a/relu_5x5_reduce
I0403 15:44:56.223073 20233 net.cpp:148] Top shape: 24 16 28 28 (301056)
I0403 15:44:56.223088 20233 net.cpp:156] Memory required for data: 537084960
I0403 15:44:56.223104 20233 layer_factory.hpp:77] Creating layer inception_3a/5x5
I0403 15:44:56.223125 20233 net.cpp:91] Creating Layer inception_3a/5x5
I0403 15:44:56.223142 20233 net.cpp:425] inception_3a/5x5 <- inception_3a/5x5_reduce
I0403 15:44:56.223163 20233 net.cpp:399] inception_3a/5x5 -> inception_3a/5x5
I0403 15:44:56.224159 20233 net.cpp:141] Setting up inception_3a/5x5
I0403 15:44:56.224189 20233 net.cpp:148] Top shape: 24 32 28 28 (602112)
I0403 15:44:56.224203 20233 net.cpp:156] Memory required for data: 539493408
I0403 15:44:56.224223 20233 layer_factory.hpp:77] Creating layer inception_3a/relu_5x5
I0403 15:44:56.224244 20233 net.cpp:91] Creating Layer inception_3a/relu_5x5
I0403 15:44:56.224261 20233 net.cpp:425] inception_3a/relu_5x5 <- inception_3a/5x5
I0403 15:44:56.224279 20233 net.cpp:386] inception_3a/relu_5x5 -> inception_3a/5x5 (in-place)
I0403 15:44:56.224449 20233 net.cpp:141] Setting up inception_3a/relu_5x5
I0403 15:44:56.224473 20233 net.cpp:148] Top shape: 24 32 28 28 (602112)
I0403 15:44:56.224486 20233 net.cpp:156] Memory required for data: 541901856
I0403 15:44:56.224501 20233 layer_factory.hpp:77] Creating layer inception_3a/pool
I0403 15:44:56.224517 20233 net.cpp:91] Creating Layer inception_3a/pool
I0403 15:44:56.224546 20233 net.cpp:425] inception_3a/pool <- pool2/3x3_s2_pool2/3x3_s2_0_split_3
I0403 15:44:56.224567 20233 net.cpp:399] inception_3a/pool -> inception_3a/pool
I0403 15:44:56.224624 20233 net.cpp:141] Setting up inception_3a/pool
I0403 15:44:56.224647 20233 net.cpp:148] Top shape: 24 192 28 28 (3612672)
I0403 15:44:56.224660 20233 net.cpp:156] Memory required for data: 556352544
I0403 15:44:56.224674 20233 layer_factory.hpp:77] Creating layer inception_3a/pool_proj
I0403 15:44:56.224699 20233 net.cpp:91] Creating Layer inception_3a/pool_proj
I0403 15:44:56.224714 20233 net.cpp:425] inception_3a/pool_proj <- inception_3a/pool
I0403 15:44:56.224732 20233 net.cpp:399] inception_3a/pool_proj -> inception_3a/pool_proj
I0403 15:44:56.225731 20233 net.cpp:141] Setting up inception_3a/pool_proj
I0403 15:44:56.225761 20233 net.cpp:148] Top shape: 24 32 28 28 (602112)
I0403 15:44:56.225777 20233 net.cpp:156] Memory required for data: 558760992
I0403 15:44:56.225803 20233 layer_factory.hpp:77] Creating layer inception_3a/relu_pool_proj
I0403 15:44:56.225823 20233 net.cpp:91] Creating Layer inception_3a/relu_pool_proj
I0403 15:44:56.225841 20233 net.cpp:425] inception_3a/relu_pool_proj <- inception_3a/pool_proj
I0403 15:44:56.225859 20233 net.cpp:386] inception_3a/relu_pool_proj -> inception_3a/pool_proj (in-place)
I0403 15:44:56.226150 20233 net.cpp:141] Setting up inception_3a/relu_pool_proj
I0403 15:44:56.226177 20233 net.cpp:148] Top shape: 24 32 28 28 (602112)
I0403 15:44:56.226193 20233 net.cpp:156] Memory required for data: 561169440
I0403 15:44:56.226209 20233 layer_factory.hpp:77] Creating layer inception_3a/output
I0403 15:44:56.226230 20233 net.cpp:91] Creating Layer inception_3a/output
I0403 15:44:56.226248 20233 net.cpp:425] inception_3a/output <- inception_3a/1x1
I0403 15:44:56.226264 20233 net.cpp:425] inception_3a/output <- inception_3a/3x3
I0403 15:44:56.226280 20233 net.cpp:425] inception_3a/output <- inception_3a/5x5
I0403 15:44:56.226297 20233 net.cpp:425] inception_3a/output <- inception_3a/pool_proj
I0403 15:44:56.226315 20233 net.cpp:399] inception_3a/output -> inception_3a/output
I0403 15:44:56.226362 20233 net.cpp:141] Setting up inception_3a/output
I0403 15:44:56.226388 20233 net.cpp:148] Top shape: 24 256 28 28 (4816896)
I0403 15:44:56.226403 20233 net.cpp:156] Memory required for data: 580437024
I0403 15:44:56.226418 20233 layer_factory.hpp:77] Creating layer inception_3a/output_inception_3a/output_0_split
I0403 15:44:56.226435 20233 net.cpp:91] Creating Layer inception_3a/output_inception_3a/output_0_split
I0403 15:44:56.226451 20233 net.cpp:425] inception_3a/output_inception_3a/output_0_split <- inception_3a/output
I0403 15:44:56.226472 20233 net.cpp:399] inception_3a/output_inception_3a/output_0_split -> inception_3a/output_inception_3a/output_0_split_0
I0403 15:44:56.226495 20233 net.cpp:399] inception_3a/output_inception_3a/output_0_split -> inception_3a/output_inception_3a/output_0_split_1
I0403 15:44:56.226521 20233 net.cpp:399] inception_3a/output_inception_3a/output_0_split -> inception_3a/output_inception_3a/output_0_split_2
I0403 15:44:56.226542 20233 net.cpp:399] inception_3a/output_inception_3a/output_0_split -> inception_3a/output_inception_3a/output_0_split_3
I0403 15:44:56.226616 20233 net.cpp:141] Setting up inception_3a/output_inception_3a/output_0_split
I0403 15:44:56.226641 20233 net.cpp:148] Top shape: 24 256 28 28 (4816896)
I0403 15:44:56.226661 20233 net.cpp:148] Top shape: 24 256 28 28 (4816896)
I0403 15:44:56.226677 20233 net.cpp:148] Top shape: 24 256 28 28 (4816896)
I0403 15:44:56.226693 20233 net.cpp:148] Top shape: 24 256 28 28 (4816896)
I0403 15:44:56.226707 20233 net.cpp:156] Memory required for data: 657507360
I0403 15:44:56.226722 20233 layer_factory.hpp:77] Creating layer inception_3b/1x1
I0403 15:44:56.226743 20233 net.cpp:91] Creating Layer inception_3b/1x1
I0403 15:44:56.226759 20233 net.cpp:425] inception_3b/1x1 <- inception_3a/output_inception_3a/output_0_split_0
I0403 15:44:56.226781 20233 net.cpp:399] inception_3b/1x1 -> inception_3b/1x1
I0403 15:44:56.227938 20233 net.cpp:141] Setting up inception_3b/1x1
I0403 15:44:56.227980 20233 net.cpp:148] Top shape: 24 128 28 28 (2408448)
I0403 15:44:56.228013 20233 net.cpp:156] Memory required for data: 667141152
I0403 15:44:56.228034 20233 layer_factory.hpp:77] Creating layer inception_3b/relu_1x1
I0403 15:44:56.228055 20233 net.cpp:91] Creating Layer inception_3b/relu_1x1
I0403 15:44:56.228070 20233 net.cpp:425] inception_3b/relu_1x1 <- inception_3b/1x1
I0403 15:44:56.228087 20233 net.cpp:386] inception_3b/relu_1x1 -> inception_3b/1x1 (in-place)
I0403 15:44:56.228266 20233 net.cpp:141] Setting up inception_3b/relu_1x1
I0403 15:44:56.228293 20233 net.cpp:148] Top shape: 24 128 28 28 (2408448)
I0403 15:44:56.228308 20233 net.cpp:156] Memory required for data: 676774944
I0403 15:44:56.228323 20233 layer_factory.hpp:77] Creating layer inception_3b/3x3_reduce
I0403 15:44:56.228345 20233 net.cpp:91] Creating Layer inception_3b/3x3_reduce
I0403 15:44:56.228363 20233 net.cpp:425] inception_3b/3x3_reduce <- inception_3a/output_inception_3a/output_0_split_1
I0403 15:44:56.228381 20233 net.cpp:399] inception_3b/3x3_reduce -> inception_3b/3x3_reduce
I0403 15:44:56.229571 20233 net.cpp:141] Setting up inception_3b/3x3_reduce
I0403 15:44:56.229600 20233 net.cpp:148] Top shape: 24 128 28 28 (2408448)
I0403 15:44:56.229619 20233 net.cpp:156] Memory required for data: 686408736
I0403 15:44:56.229637 20233 layer_factory.hpp:77] Creating layer inception_3b/relu_3x3_reduce
I0403 15:44:56.229660 20233 net.cpp:91] Creating Layer inception_3b/relu_3x3_reduce
I0403 15:44:56.229676 20233 net.cpp:425] inception_3b/relu_3x3_reduce <- inception_3b/3x3_reduce
I0403 15:44:56.229696 20233 net.cpp:386] inception_3b/relu_3x3_reduce -> inception_3b/3x3_reduce (in-place)
I0403 15:44:56.229871 20233 net.cpp:141] Setting up inception_3b/relu_3x3_reduce
I0403 15:44:56.229898 20233 net.cpp:148] Top shape: 24 128 28 28 (2408448)
I0403 15:44:56.229914 20233 net.cpp:156] Memory required for data: 696042528
I0403 15:44:56.229930 20233 layer_factory.hpp:77] Creating layer inception_3b/3x3
I0403 15:44:56.229955 20233 net.cpp:91] Creating Layer inception_3b/3x3
I0403 15:44:56.229974 20233 net.cpp:425] inception_3b/3x3 <- inception_3b/3x3_reduce
I0403 15:44:56.230005 20233 net.cpp:399] inception_3b/3x3 -> inception_3b/3x3
I0403 15:44:56.232964 20233 net.cpp:141] Setting up inception_3b/3x3
I0403 15:44:56.233001 20233 net.cpp:148] Top shape: 24 192 28 28 (3612672)
I0403 15:44:56.233021 20233 net.cpp:156] Memory required for data: 710493216
I0403 15:44:56.233039 20233 layer_factory.hpp:77] Creating layer inception_3b/relu_3x3
I0403 15:44:56.233060 20233 net.cpp:91] Creating Layer inception_3b/relu_3x3
I0403 15:44:56.233078 20233 net.cpp:425] inception_3b/relu_3x3 <- inception_3b/3x3
I0403 15:44:56.233098 20233 net.cpp:386] inception_3b/relu_3x3 -> inception_3b/3x3 (in-place)
I0403 15:44:56.233397 20233 net.cpp:141] Setting up inception_3b/relu_3x3
I0403 15:44:56.233425 20233 net.cpp:148] Top shape: 24 192 28 28 (3612672)
I0403 15:44:56.233440 20233 net.cpp:156] Memory required for data: 724943904
I0403 15:44:56.233455 20233 layer_factory.hpp:77] Creating layer inception_3b/5x5_reduce
I0403 15:44:56.233484 20233 net.cpp:91] Creating Layer inception_3b/5x5_reduce
I0403 15:44:56.233515 20233 net.cpp:425] inception_3b/5x5_reduce <- inception_3a/output_inception_3a/output_0_split_2
I0403 15:44:56.233533 20233 net.cpp:399] inception_3b/5x5_reduce -> inception_3b/5x5_reduce
I0403 15:44:56.234539 20233 net.cpp:141] Setting up inception_3b/5x5_reduce
I0403 15:44:56.234567 20233 net.cpp:148] Top shape: 24 32 28 28 (602112)
I0403 15:44:56.234583 20233 net.cpp:156] Memory required for data: 727352352
I0403 15:44:56.234601 20233 layer_factory.hpp:77] Creating layer inception_3b/relu_5x5_reduce
I0403 15:44:56.234622 20233 net.cpp:91] Creating Layer inception_3b/relu_5x5_reduce
I0403 15:44:56.234638 20233 net.cpp:425] inception_3b/relu_5x5_reduce <- inception_3b/5x5_reduce
I0403 15:44:56.234657 20233 net.cpp:386] inception_3b/relu_5x5_reduce -> inception_3b/5x5_reduce (in-place)
I0403 15:44:56.234849 20233 net.cpp:141] Setting up inception_3b/relu_5x5_reduce
I0403 15:44:56.234876 20233 net.cpp:148] Top shape: 24 32 28 28 (602112)
I0403 15:44:56.234891 20233 net.cpp:156] Memory required for data: 729760800
I0403 15:44:56.234906 20233 layer_factory.hpp:77] Creating layer inception_3b/5x5
I0403 15:44:56.234930 20233 net.cpp:91] Creating Layer inception_3b/5x5
I0403 15:44:56.234946 20233 net.cpp:425] inception_3b/5x5 <- inception_3b/5x5_reduce
I0403 15:44:56.234967 20233 net.cpp:399] inception_3b/5x5 -> inception_3b/5x5
I0403 15:44:56.236976 20233 net.cpp:141] Setting up inception_3b/5x5
I0403 15:44:56.237015 20233 net.cpp:148] Top shape: 24 96 28 28 (1806336)
I0403 15:44:56.237041 20233 net.cpp:156] Memory required for data: 736986144
I0403 15:44:56.237059 20233 layer_factory.hpp:77] Creating layer inception_3b/relu_5x5
I0403 15:44:56.237082 20233 net.cpp:91] Creating Layer inception_3b/relu_5x5
I0403 15:44:56.237098 20233 net.cpp:425] inception_3b/relu_5x5 <- inception_3b/5x5
I0403 15:44:56.237118 20233 net.cpp:386] inception_3b/relu_5x5 -> inception_3b/5x5 (in-place)
I0403 15:44:56.237329 20233 net.cpp:141] Setting up inception_3b/relu_5x5
I0403 15:44:56.237355 20233 net.cpp:148] Top shape: 24 96 28 28 (1806336)
I0403 15:44:56.237370 20233 net.cpp:156] Memory required for data: 744211488
I0403 15:44:56.237386 20233 layer_factory.hpp:77] Creating layer inception_3b/pool
I0403 15:44:56.237403 20233 net.cpp:91] Creating Layer inception_3b/pool
I0403 15:44:56.237421 20233 net.cpp:425] inception_3b/pool <- inception_3a/output_inception_3a/output_0_split_3
I0403 15:44:56.237438 20233 net.cpp:399] inception_3b/pool -> inception_3b/pool
I0403 15:44:56.237496 20233 net.cpp:141] Setting up inception_3b/pool
I0403 15:44:56.237531 20233 net.cpp:148] Top shape: 24 256 28 28 (4816896)
I0403 15:44:56.237546 20233 net.cpp:156] Memory required for data: 763479072
I0403 15:44:56.237560 20233 layer_factory.hpp:77] Creating layer inception_3b/pool_proj
I0403 15:44:56.237581 20233 net.cpp:91] Creating Layer inception_3b/pool_proj
I0403 15:44:56.237610 20233 net.cpp:425] inception_3b/pool_proj <- inception_3b/pool
I0403 15:44:56.237632 20233 net.cpp:399] inception_3b/pool_proj -> inception_3b/pool_proj
I0403 15:44:56.238718 20233 net.cpp:141] Setting up inception_3b/pool_proj
I0403 15:44:56.238747 20233 net.cpp:148] Top shape: 24 64 28 28 (1204224)
I0403 15:44:56.238764 20233 net.cpp:156] Memory required for data: 768295968
I0403 15:44:56.238781 20233 layer_factory.hpp:77] Creating layer inception_3b/relu_pool_proj
I0403 15:44:56.238800 20233 net.cpp:91] Creating Layer inception_3b/relu_pool_proj
I0403 15:44:56.238814 20233 net.cpp:425] inception_3b/relu_pool_proj <- inception_3b/pool_proj
I0403 15:44:56.238833 20233 net.cpp:386] inception_3b/relu_pool_proj -> inception_3b/pool_proj (in-place)
I0403 15:44:56.239234 20233 net.cpp:141] Setting up inception_3b/relu_pool_proj
I0403 15:44:56.239262 20233 net.cpp:148] Top shape: 24 64 28 28 (1204224)
I0403 15:44:56.239279 20233 net.cpp:156] Memory required for data: 773112864
I0403 15:44:56.239292 20233 layer_factory.hpp:77] Creating layer inception_3b/output
I0403 15:44:56.239310 20233 net.cpp:91] Creating Layer inception_3b/output
I0403 15:44:56.239325 20233 net.cpp:425] inception_3b/output <- inception_3b/1x1
I0403 15:44:56.239341 20233 net.cpp:425] inception_3b/output <- inception_3b/3x3
I0403 15:44:56.239356 20233 net.cpp:425] inception_3b/output <- inception_3b/5x5
I0403 15:44:56.239372 20233 net.cpp:425] inception_3b/output <- inception_3b/pool_proj
I0403 15:44:56.239389 20233 net.cpp:399] inception_3b/output -> inception_3b/output
I0403 15:44:56.239433 20233 net.cpp:141] Setting up inception_3b/output
I0403 15:44:56.239454 20233 net.cpp:148] Top shape: 24 480 28 28 (9031680)
I0403 15:44:56.239469 20233 net.cpp:156] Memory required for data: 809239584
I0403 15:44:56.239482 20233 layer_factory.hpp:77] Creating layer pool3/3x3_s2
I0403 15:44:56.239501 20233 net.cpp:91] Creating Layer pool3/3x3_s2
I0403 15:44:56.239518 20233 net.cpp:425] pool3/3x3_s2 <- inception_3b/output
I0403 15:44:56.239550 20233 net.cpp:399] pool3/3x3_s2 -> pool3/3x3_s2
I0403 15:44:56.239610 20233 net.cpp:141] Setting up pool3/3x3_s2
I0403 15:44:56.239634 20233 net.cpp:148] Top shape: 24 480 14 14 (2257920)
I0403 15:44:56.239646 20233 net.cpp:156] Memory required for data: 818271264
I0403 15:44:56.239660 20233 layer_factory.hpp:77] Creating layer pool3/3x3_s2_pool3/3x3_s2_0_split
I0403 15:44:56.239676 20233 net.cpp:91] Creating Layer pool3/3x3_s2_pool3/3x3_s2_0_split
I0403 15:44:56.239691 20233 net.cpp:425] pool3/3x3_s2_pool3/3x3_s2_0_split <- pool3/3x3_s2
I0403 15:44:56.239711 20233 net.cpp:399] pool3/3x3_s2_pool3/3x3_s2_0_split -> pool3/3x3_s2_pool3/3x3_s2_0_split_0
I0403 15:44:56.239732 20233 net.cpp:399] pool3/3x3_s2_pool3/3x3_s2_0_split -> pool3/3x3_s2_pool3/3x3_s2_0_split_1
I0403 15:44:56.239750 20233 net.cpp:399] pool3/3x3_s2_pool3/3x3_s2_0_split -> pool3/3x3_s2_pool3/3x3_s2_0_split_2
I0403 15:44:56.239768 20233 net.cpp:399] pool3/3x3_s2_pool3/3x3_s2_0_split -> pool3/3x3_s2_pool3/3x3_s2_0_split_3
I0403 15:44:56.239842 20233 net.cpp:141] Setting up pool3/3x3_s2_pool3/3x3_s2_0_split
I0403 15:44:56.239866 20233 net.cpp:148] Top shape: 24 480 14 14 (2257920)
I0403 15:44:56.239881 20233 net.cpp:148] Top shape: 24 480 14 14 (2257920)
I0403 15:44:56.239895 20233 net.cpp:148] Top shape: 24 480 14 14 (2257920)
I0403 15:44:56.239910 20233 net.cpp:148] Top shape: 24 480 14 14 (2257920)
I0403 15:44:56.239923 20233 net.cpp:156] Memory required for data: 854397984
I0403 15:44:56.239938 20233 layer_factory.hpp:77] Creating layer inception_4a/1x1
I0403 15:44:56.239959 20233 net.cpp:91] Creating Layer inception_4a/1x1
I0403 15:44:56.239976 20233 net.cpp:425] inception_4a/1x1 <- pool3/3x3_s2_pool3/3x3_s2_0_split_0
I0403 15:44:56.240007 20233 net.cpp:399] inception_4a/1x1 -> inception_4a/1x1
I0403 15:44:56.241598 20233 net.cpp:141] Setting up inception_4a/1x1
I0403 15:44:56.241629 20233 net.cpp:148] Top shape: 24 192 14 14 (903168)
I0403 15:44:56.241646 20233 net.cpp:156] Memory required for data: 858010656
I0403 15:44:56.241664 20233 layer_factory.hpp:77] Creating layer inception_4a/relu_1x1
I0403 15:44:56.241683 20233 net.cpp:91] Creating Layer inception_4a/relu_1x1
I0403 15:44:56.241698 20233 net.cpp:425] inception_4a/relu_1x1 <- inception_4a/1x1
I0403 15:44:56.241717 20233 net.cpp:386] inception_4a/relu_1x1 -> inception_4a/1x1 (in-place)
I0403 15:44:56.241894 20233 net.cpp:141] Setting up inception_4a/relu_1x1
I0403 15:44:56.241920 20233 net.cpp:148] Top shape: 24 192 14 14 (903168)
I0403 15:44:56.241935 20233 net.cpp:156] Memory required for data: 861623328
I0403 15:44:56.241950 20233 layer_factory.hpp:77] Creating layer inception_4a/3x3_reduce
I0403 15:44:56.241972 20233 net.cpp:91] Creating Layer inception_4a/3x3_reduce
I0403 15:44:56.241997 20233 net.cpp:425] inception_4a/3x3_reduce <- pool3/3x3_s2_pool3/3x3_s2_0_split_1
I0403 15:44:56.242018 20233 net.cpp:399] inception_4a/3x3_reduce -> inception_4a/3x3_reduce
I0403 15:44:56.243304 20233 net.cpp:141] Setting up inception_4a/3x3_reduce
I0403 15:44:56.243332 20233 net.cpp:148] Top shape: 24 96 14 14 (451584)
I0403 15:44:56.243350 20233 net.cpp:156] Memory required for data: 863429664
I0403 15:44:56.243376 20233 layer_factory.hpp:77] Creating layer inception_4a/relu_3x3_reduce
I0403 15:44:56.243397 20233 net.cpp:91] Creating Layer inception_4a/relu_3x3_reduce
I0403 15:44:56.243412 20233 net.cpp:425] inception_4a/relu_3x3_reduce <- inception_4a/3x3_reduce
I0403 15:44:56.243433 20233 net.cpp:386] inception_4a/relu_3x3_reduce -> inception_4a/3x3_reduce (in-place)
I0403 15:44:56.243609 20233 net.cpp:141] Setting up inception_4a/relu_3x3_reduce
I0403 15:44:56.243635 20233 net.cpp:148] Top shape: 24 96 14 14 (451584)
I0403 15:44:56.243650 20233 net.cpp:156] Memory required for data: 865236000
I0403 15:44:56.243666 20233 layer_factory.hpp:77] Creating layer inception_4a/3x3
I0403 15:44:56.243690 20233 net.cpp:91] Creating Layer inception_4a/3x3
I0403 15:44:56.243707 20233 net.cpp:425] inception_4a/3x3 <- inception_4a/3x3_reduce
I0403 15:44:56.243727 20233 net.cpp:399] inception_4a/3x3 -> inception_4a/3x3
I0403 15:44:56.246429 20233 net.cpp:141] Setting up inception_4a/3x3
I0403 15:44:56.246459 20233 net.cpp:148] Top shape: 24 208 14 14 (978432)
I0403 15:44:56.246475 20233 net.cpp:156] Memory required for data: 869149728
I0403 15:44:56.246495 20233 layer_factory.hpp:77] Creating layer inception_4a/relu_3x3
I0403 15:44:56.246515 20233 net.cpp:91] Creating Layer inception_4a/relu_3x3
I0403 15:44:56.246532 20233 net.cpp:425] inception_4a/relu_3x3 <- inception_4a/3x3
I0403 15:44:56.246551 20233 net.cpp:386] inception_4a/relu_3x3 -> inception_4a/3x3 (in-place)
I0403 15:44:56.246825 20233 net.cpp:141] Setting up inception_4a/relu_3x3
I0403 15:44:56.246853 20233 net.cpp:148] Top shape: 24 208 14 14 (978432)
I0403 15:44:56.246868 20233 net.cpp:156] Memory required for data: 873063456
I0403 15:44:56.246883 20233 layer_factory.hpp:77] Creating layer inception_4a/5x5_reduce
I0403 15:44:56.246906 20233 net.cpp:91] Creating Layer inception_4a/5x5_reduce
I0403 15:44:56.246922 20233 net.cpp:425] inception_4a/5x5_reduce <- pool3/3x3_s2_pool3/3x3_s2_0_split_2
I0403 15:44:56.246944 20233 net.cpp:399] inception_4a/5x5_reduce -> inception_4a/5x5_reduce
I0403 15:44:56.247959 20233 net.cpp:141] Setting up inception_4a/5x5_reduce
I0403 15:44:56.248000 20233 net.cpp:148] Top shape: 24 16 14 14 (75264)
I0403 15:44:56.248020 20233 net.cpp:156] Memory required for data: 873364512
I0403 15:44:56.248039 20233 layer_factory.hpp:77] Creating layer inception_4a/relu_5x5_reduce
I0403 15:44:56.248059 20233 net.cpp:91] Creating Layer inception_4a/relu_5x5_reduce
I0403 15:44:56.248075 20233 net.cpp:425] inception_4a/relu_5x5_reduce <- inception_4a/5x5_reduce
I0403 15:44:56.248092 20233 net.cpp:386] inception_4a/relu_5x5_reduce -> inception_4a/5x5_reduce (in-place)
I0403 15:44:56.248286 20233 net.cpp:141] Setting up inception_4a/relu_5x5_reduce
I0403 15:44:56.248311 20233 net.cpp:148] Top shape: 24 16 14 14 (75264)
I0403 15:44:56.248325 20233 net.cpp:156] Memory required for data: 873665568
I0403 15:44:56.248340 20233 layer_factory.hpp:77] Creating layer inception_4a/5x5
I0403 15:44:56.248363 20233 net.cpp:91] Creating Layer inception_4a/5x5
I0403 15:44:56.248381 20233 net.cpp:425] inception_4a/5x5 <- inception_4a/5x5_reduce
I0403 15:44:56.248402 20233 net.cpp:399] inception_4a/5x5 -> inception_4a/5x5
I0403 15:44:56.249524 20233 net.cpp:141] Setting up inception_4a/5x5
I0403 15:44:56.249554 20233 net.cpp:148] Top shape: 24 48 14 14 (225792)
I0403 15:44:56.249572 20233 net.cpp:156] Memory required for data: 874568736
I0403 15:44:56.249590 20233 layer_factory.hpp:77] Creating layer inception_4a/relu_5x5
I0403 15:44:56.249608 20233 net.cpp:91] Creating Layer inception_4a/relu_5x5
I0403 15:44:56.249624 20233 net.cpp:425] inception_4a/relu_5x5 <- inception_4a/5x5
I0403 15:44:56.249642 20233 net.cpp:386] inception_4a/relu_5x5 -> inception_4a/5x5 (in-place)
I0403 15:44:56.249819 20233 net.cpp:141] Setting up inception_4a/relu_5x5
I0403 15:44:56.249843 20233 net.cpp:148] Top shape: 24 48 14 14 (225792)
I0403 15:44:56.249857 20233 net.cpp:156] Memory required for data: 875471904
I0403 15:44:56.249871 20233 layer_factory.hpp:77] Creating layer inception_4a/pool
I0403 15:44:56.249888 20233 net.cpp:91] Creating Layer inception_4a/pool
I0403 15:44:56.249903 20233 net.cpp:425] inception_4a/pool <- pool3/3x3_s2_pool3/3x3_s2_0_split_3
I0403 15:44:56.249922 20233 net.cpp:399] inception_4a/pool -> inception_4a/pool
I0403 15:44:56.249984 20233 net.cpp:141] Setting up inception_4a/pool
I0403 15:44:56.250013 20233 net.cpp:148] Top shape: 24 480 14 14 (2257920)
I0403 15:44:56.250027 20233 net.cpp:156] Memory required for data: 884503584
I0403 15:44:56.250042 20233 layer_factory.hpp:77] Creating layer inception_4a/pool_proj
I0403 15:44:56.250066 20233 net.cpp:91] Creating Layer inception_4a/pool_proj
I0403 15:44:56.250082 20233 net.cpp:425] inception_4a/pool_proj <- inception_4a/pool
I0403 15:44:56.250102 20233 net.cpp:399] inception_4a/pool_proj -> inception_4a/pool_proj
I0403 15:44:56.251260 20233 net.cpp:141] Setting up inception_4a/pool_proj
I0403 15:44:56.251291 20233 net.cpp:148] Top shape: 24 64 14 14 (301056)
I0403 15:44:56.251322 20233 net.cpp:156] Memory required for data: 885707808
I0403 15:44:56.251341 20233 layer_factory.hpp:77] Creating layer inception_4a/relu_pool_proj
I0403 15:44:56.251359 20233 net.cpp:91] Creating Layer inception_4a/relu_pool_proj
I0403 15:44:56.251379 20233 net.cpp:425] inception_4a/relu_pool_proj <- inception_4a/pool_proj
I0403 15:44:56.251396 20233 net.cpp:386] inception_4a/relu_pool_proj -> inception_4a/pool_proj (in-place)
I0403 15:44:56.251678 20233 net.cpp:141] Setting up inception_4a/relu_pool_proj
I0403 15:44:56.251706 20233 net.cpp:148] Top shape: 24 64 14 14 (301056)
I0403 15:44:56.251723 20233 net.cpp:156] Memory required for data: 886912032
I0403 15:44:56.251737 20233 layer_factory.hpp:77] Creating layer inception_4a/output
I0403 15:44:56.251755 20233 net.cpp:91] Creating Layer inception_4a/output
I0403 15:44:56.251771 20233 net.cpp:425] inception_4a/output <- inception_4a/1x1
I0403 15:44:56.251787 20233 net.cpp:425] inception_4a/output <- inception_4a/3x3
I0403 15:44:56.251804 20233 net.cpp:425] inception_4a/output <- inception_4a/5x5
I0403 15:44:56.251819 20233 net.cpp:425] inception_4a/output <- inception_4a/pool_proj
I0403 15:44:56.251839 20233 net.cpp:399] inception_4a/output -> inception_4a/output
I0403 15:44:56.251883 20233 net.cpp:141] Setting up inception_4a/output
I0403 15:44:56.251909 20233 net.cpp:148] Top shape: 24 512 14 14 (2408448)
I0403 15:44:56.251924 20233 net.cpp:156] Memory required for data: 896545824
I0403 15:44:56.251937 20233 layer_factory.hpp:77] Creating layer inception_4a/output_inception_4a/output_0_split
I0403 15:44:56.251953 20233 net.cpp:91] Creating Layer inception_4a/output_inception_4a/output_0_split
I0403 15:44:56.251968 20233 net.cpp:425] inception_4a/output_inception_4a/output_0_split <- inception_4a/output
I0403 15:44:56.251996 20233 net.cpp:399] inception_4a/output_inception_4a/output_0_split -> inception_4a/output_inception_4a/output_0_split_0
I0403 15:44:56.252028 20233 net.cpp:399] inception_4a/output_inception_4a/output_0_split -> inception_4a/output_inception_4a/output_0_split_1
I0403 15:44:56.252048 20233 net.cpp:399] inception_4a/output_inception_4a/output_0_split -> inception_4a/output_inception_4a/output_0_split_2
I0403 15:44:56.252077 20233 net.cpp:399] inception_4a/output_inception_4a/output_0_split -> inception_4a/output_inception_4a/output_0_split_3
I0403 15:44:56.252096 20233 net.cpp:399] inception_4a/output_inception_4a/output_0_split -> inception_4a/output_inception_4a/output_0_split_4
I0403 15:44:56.252187 20233 net.cpp:141] Setting up inception_4a/output_inception_4a/output_0_split
I0403 15:44:56.252209 20233 net.cpp:148] Top shape: 24 512 14 14 (2408448)
I0403 15:44:56.252225 20233 net.cpp:148] Top shape: 24 512 14 14 (2408448)
I0403 15:44:56.252240 20233 net.cpp:148] Top shape: 24 512 14 14 (2408448)
I0403 15:44:56.252254 20233 net.cpp:148] Top shape: 24 512 14 14 (2408448)
I0403 15:44:56.252269 20233 net.cpp:148] Top shape: 24 512 14 14 (2408448)
I0403 15:44:56.252284 20233 net.cpp:156] Memory required for data: 944714784
I0403 15:44:56.252297 20233 layer_factory.hpp:77] Creating layer loss1/ave_pool
I0403 15:44:56.252316 20233 net.cpp:91] Creating Layer loss1/ave_pool
I0403 15:44:56.252332 20233 net.cpp:425] loss1/ave_pool <- inception_4a/output_inception_4a/output_0_split_0
I0403 15:44:56.252357 20233 net.cpp:399] loss1/ave_pool -> loss1/ave_pool
I0403 15:44:56.252562 20233 net.cpp:141] Setting up loss1/ave_pool
I0403 15:44:56.252588 20233 net.cpp:148] Top shape: 24 512 4 4 (196608)
I0403 15:44:56.252601 20233 net.cpp:156] Memory required for data: 945501216
I0403 15:44:56.252615 20233 layer_factory.hpp:77] Creating layer loss1/conv
I0403 15:44:56.252636 20233 net.cpp:91] Creating Layer loss1/conv
I0403 15:44:56.252653 20233 net.cpp:425] loss1/conv <- loss1/ave_pool
I0403 15:44:56.252673 20233 net.cpp:399] loss1/conv -> loss1/conv
I0403 15:44:56.254112 20233 net.cpp:141] Setting up loss1/conv
I0403 15:44:56.254140 20233 net.cpp:148] Top shape: 24 128 4 4 (49152)
I0403 15:44:56.254170 20233 net.cpp:156] Memory required for data: 945697824
I0403 15:44:56.254190 20233 layer_factory.hpp:77] Creating layer loss1/relu_conv
I0403 15:44:56.254211 20233 net.cpp:91] Creating Layer loss1/relu_conv
I0403 15:44:56.254228 20233 net.cpp:425] loss1/relu_conv <- loss1/conv
I0403 15:44:56.254245 20233 net.cpp:386] loss1/relu_conv -> loss1/conv (in-place)
I0403 15:44:56.254526 20233 net.cpp:141] Setting up loss1/relu_conv
I0403 15:44:56.254552 20233 net.cpp:148] Top shape: 24 128 4 4 (49152)
I0403 15:44:56.254567 20233 net.cpp:156] Memory required for data: 945894432
I0403 15:44:56.254582 20233 layer_factory.hpp:77] Creating layer loss1/fc
I0403 15:44:56.254607 20233 net.cpp:91] Creating Layer loss1/fc
I0403 15:44:56.254624 20233 net.cpp:425] loss1/fc <- loss1/conv
I0403 15:44:56.254644 20233 net.cpp:399] loss1/fc -> loss1/fc
I0403 15:44:56.272613 20233 net.cpp:141] Setting up loss1/fc
I0403 15:44:56.272650 20233 net.cpp:148] Top shape: 24 1024 (24576)
I0403 15:44:56.272665 20233 net.cpp:156] Memory required for data: 945992736
I0403 15:44:56.272686 20233 layer_factory.hpp:77] Creating layer loss1/relu_fc
I0403 15:44:56.272706 20233 net.cpp:91] Creating Layer loss1/relu_fc
I0403 15:44:56.272723 20233 net.cpp:425] loss1/relu_fc <- loss1/fc
I0403 15:44:56.272744 20233 net.cpp:386] loss1/relu_fc -> loss1/fc (in-place)
I0403 15:44:56.272948 20233 net.cpp:141] Setting up loss1/relu_fc
I0403 15:44:56.272974 20233 net.cpp:148] Top shape: 24 1024 (24576)
I0403 15:44:56.272994 20233 net.cpp:156] Memory required for data: 946091040
I0403 15:44:56.273010 20233 layer_factory.hpp:77] Creating layer loss1/drop_fc
I0403 15:44:56.273039 20233 net.cpp:91] Creating Layer loss1/drop_fc
I0403 15:44:56.273056 20233 net.cpp:425] loss1/drop_fc <- loss1/fc
I0403 15:44:56.273073 20233 net.cpp:386] loss1/drop_fc -> loss1/fc (in-place)
I0403 15:44:56.273123 20233 net.cpp:141] Setting up loss1/drop_fc
I0403 15:44:56.273149 20233 net.cpp:148] Top shape: 24 1024 (24576)
I0403 15:44:56.273164 20233 net.cpp:156] Memory required for data: 946189344
I0403 15:44:56.273180 20233 layer_factory.hpp:77] Creating layer loss1/classifier_plantvillage
I0403 15:44:56.273197 20233 net.cpp:91] Creating Layer loss1/classifier_plantvillage
I0403 15:44:56.273226 20233 net.cpp:425] loss1/classifier_plantvillage <- loss1/fc
I0403 15:44:56.273247 20233 net.cpp:399] loss1/classifier_plantvillage -> loss1/classifier_plantvillage
I0403 15:44:56.274210 20233 net.cpp:141] Setting up loss1/classifier_plantvillage
I0403 15:44:56.274236 20233 net.cpp:148] Top shape: 24 38 (912)
I0403 15:44:56.274251 20233 net.cpp:156] Memory required for data: 946192992
I0403 15:44:56.274267 20233 layer_factory.hpp:77] Creating layer loss1/classifier_plantvillage_loss1/classifier_plantvillage_0_split
I0403 15:44:56.274284 20233 net.cpp:91] Creating Layer loss1/classifier_plantvillage_loss1/classifier_plantvillage_0_split
I0403 15:44:56.274299 20233 net.cpp:425] loss1/classifier_plantvillage_loss1/classifier_plantvillage_0_split <- loss1/classifier_plantvillage
I0403 15:44:56.274318 20233 net.cpp:399] loss1/classifier_plantvillage_loss1/classifier_plantvillage_0_split -> loss1/classifier_plantvillage_loss1/classifier_plantvillage_0_split_0
I0403 15:44:56.274338 20233 net.cpp:399] loss1/classifier_plantvillage_loss1/classifier_plantvillage_0_split -> loss1/classifier_plantvillage_loss1/classifier_plantvillage_0_split_1
I0403 15:44:56.274365 20233 net.cpp:399] loss1/classifier_plantvillage_loss1/classifier_plantvillage_0_split -> loss1/classifier_plantvillage_loss1/classifier_plantvillage_0_split_2
I0403 15:44:56.274435 20233 net.cpp:141] Setting up loss1/classifier_plantvillage_loss1/classifier_plantvillage_0_split
I0403 15:44:56.274457 20233 net.cpp:148] Top shape: 24 38 (912)
I0403 15:44:56.274473 20233 net.cpp:148] Top shape: 24 38 (912)
I0403 15:44:56.274487 20233 net.cpp:148] Top shape: 24 38 (912)
I0403 15:44:56.274502 20233 net.cpp:156] Memory required for data: 946203936
I0403 15:44:56.274514 20233 layer_factory.hpp:77] Creating layer inception_4b/1x1
I0403 15:44:56.274536 20233 net.cpp:91] Creating Layer inception_4b/1x1
I0403 15:44:56.274569 20233 net.cpp:425] inception_4b/1x1 <- inception_4a/output_inception_4a/output_0_split_1
I0403 15:44:56.274590 20233 net.cpp:399] inception_4b/1x1 -> inception_4b/1x1
I0403 15:44:56.276219 20233 net.cpp:141] Setting up inception_4b/1x1
I0403 15:44:56.276248 20233 net.cpp:148] Top shape: 24 160 14 14 (752640)
I0403 15:44:56.276264 20233 net.cpp:156] Memory required for data: 949214496
I0403 15:44:56.276283 20233 layer_factory.hpp:77] Creating layer inception_4b/relu_1x1
I0403 15:44:56.276304 20233 net.cpp:91] Creating Layer inception_4b/relu_1x1
I0403 15:44:56.276319 20233 net.cpp:425] inception_4b/relu_1x1 <- inception_4b/1x1
I0403 15:44:56.276337 20233 net.cpp:386] inception_4b/relu_1x1 -> inception_4b/1x1 (in-place)
I0403 15:44:56.276509 20233 net.cpp:141] Setting up inception_4b/relu_1x1
I0403 15:44:56.276536 20233 net.cpp:148] Top shape: 24 160 14 14 (752640)
I0403 15:44:56.276551 20233 net.cpp:156] Memory required for data: 952225056
I0403 15:44:56.276566 20233 layer_factory.hpp:77] Creating layer inception_4b/3x3_reduce
I0403 15:44:56.276592 20233 net.cpp:91] Creating Layer inception_4b/3x3_reduce
I0403 15:44:56.276609 20233 net.cpp:425] inception_4b/3x3_reduce <- inception_4a/output_inception_4a/output_0_split_2
I0403 15:44:56.276630 20233 net.cpp:399] inception_4b/3x3_reduce -> inception_4b/3x3_reduce
I0403 15:44:56.277969 20233 net.cpp:141] Setting up inception_4b/3x3_reduce
I0403 15:44:56.278014 20233 net.cpp:148] Top shape: 24 112 14 14 (526848)
I0403 15:44:56.278035 20233 net.cpp:156] Memory required for data: 954332448
I0403 15:44:56.278054 20233 layer_factory.hpp:77] Creating layer inception_4b/relu_3x3_reduce
I0403 15:44:56.278072 20233 net.cpp:91] Creating Layer inception_4b/relu_3x3_reduce
I0403 15:44:56.278090 20233 net.cpp:425] inception_4b/relu_3x3_reduce <- inception_4b/3x3_reduce
I0403 15:44:56.278106 20233 net.cpp:386] inception_4b/relu_3x3_reduce -> inception_4b/3x3_reduce (in-place)
I0403 15:44:56.278381 20233 net.cpp:141] Setting up inception_4b/relu_3x3_reduce
I0403 15:44:56.278409 20233 net.cpp:148] Top shape: 24 112 14 14 (526848)
I0403 15:44:56.278424 20233 net.cpp:156] Memory required for data: 956439840
I0403 15:44:56.278439 20233 layer_factory.hpp:77] Creating layer inception_4b/3x3
I0403 15:44:56.278460 20233 net.cpp:91] Creating Layer inception_4b/3x3
I0403 15:44:56.278475 20233 net.cpp:425] inception_4b/3x3 <- inception_4b/3x3_reduce
I0403 15:44:56.278493 20233 net.cpp:399] inception_4b/3x3 -> inception_4b/3x3
I0403 15:44:56.282657 20233 net.cpp:141] Setting up inception_4b/3x3
I0403 15:44:56.282687 20233 net.cpp:148] Top shape: 24 224 14 14 (1053696)
I0403 15:44:56.282702 20233 net.cpp:156] Memory required for data: 960654624
I0403 15:44:56.282721 20233 layer_factory.hpp:77] Creating layer inception_4b/relu_3x3
I0403 15:44:56.282739 20233 net.cpp:91] Creating Layer inception_4b/relu_3x3
I0403 15:44:56.282755 20233 net.cpp:425] inception_4b/relu_3x3 <- inception_4b/3x3
I0403 15:44:56.282775 20233 net.cpp:386] inception_4b/relu_3x3 -> inception_4b/3x3 (in-place)
I0403 15:44:56.282954 20233 net.cpp:141] Setting up inception_4b/relu_3x3
I0403 15:44:56.282980 20233 net.cpp:148] Top shape: 24 224 14 14 (1053696)
I0403 15:44:56.283000 20233 net.cpp:156] Memory required for data: 964869408
I0403 15:44:56.283016 20233 layer_factory.hpp:77] Creating layer inception_4b/5x5_reduce
I0403 15:44:56.283038 20233 net.cpp:91] Creating Layer inception_4b/5x5_reduce
I0403 15:44:56.283056 20233 net.cpp:425] inception_4b/5x5_reduce <- inception_4a/output_inception_4a/output_0_split_3
I0403 15:44:56.283077 20233 net.cpp:399] inception_4b/5x5_reduce -> inception_4b/5x5_reduce
I0403 15:44:56.284143 20233 net.cpp:141] Setting up inception_4b/5x5_reduce
I0403 15:44:56.284174 20233 net.cpp:148] Top shape: 24 24 14 14 (112896)
I0403 15:44:56.284190 20233 net.cpp:156] Memory required for data: 965320992
I0403 15:44:56.284209 20233 layer_factory.hpp:77] Creating layer inception_4b/relu_5x5_reduce
I0403 15:44:56.284226 20233 net.cpp:91] Creating Layer inception_4b/relu_5x5_reduce
I0403 15:44:56.284256 20233 net.cpp:425] inception_4b/relu_5x5_reduce <- inception_4b/5x5_reduce
I0403 15:44:56.284276 20233 net.cpp:386] inception_4b/relu_5x5_reduce -> inception_4b/5x5_reduce (in-place)
I0403 15:44:56.284457 20233 net.cpp:141] Setting up inception_4b/relu_5x5_reduce
I0403 15:44:56.284483 20233 net.cpp:148] Top shape: 24 24 14 14 (112896)
I0403 15:44:56.284498 20233 net.cpp:156] Memory required for data: 965772576
I0403 15:44:56.284512 20233 layer_factory.hpp:77] Creating layer inception_4b/5x5
I0403 15:44:56.284534 20233 net.cpp:91] Creating Layer inception_4b/5x5
I0403 15:44:56.284551 20233 net.cpp:425] inception_4b/5x5 <- inception_4b/5x5_reduce
I0403 15:44:56.284572 20233 net.cpp:399] inception_4b/5x5 -> inception_4b/5x5
I0403 15:44:56.285781 20233 net.cpp:141] Setting up inception_4b/5x5
I0403 15:44:56.285810 20233 net.cpp:148] Top shape: 24 64 14 14 (301056)
I0403 15:44:56.285826 20233 net.cpp:156] Memory required for data: 966976800
I0403 15:44:56.285845 20233 layer_factory.hpp:77] Creating layer inception_4b/relu_5x5
I0403 15:44:56.285864 20233 net.cpp:91] Creating Layer inception_4b/relu_5x5
I0403 15:44:56.285881 20233 net.cpp:425] inception_4b/relu_5x5 <- inception_4b/5x5
I0403 15:44:56.285898 20233 net.cpp:386] inception_4b/relu_5x5 -> inception_4b/5x5 (in-place)
I0403 15:44:56.286201 20233 net.cpp:141] Setting up inception_4b/relu_5x5
I0403 15:44:56.286228 20233 net.cpp:148] Top shape: 24 64 14 14 (301056)
I0403 15:44:56.286243 20233 net.cpp:156] Memory required for data: 968181024
I0403 15:44:56.286268 20233 layer_factory.hpp:77] Creating layer inception_4b/pool
I0403 15:44:56.286288 20233 net.cpp:91] Creating Layer inception_4b/pool
I0403 15:44:56.286305 20233 net.cpp:425] inception_4b/pool <- inception_4a/output_inception_4a/output_0_split_4
I0403 15:44:56.286334 20233 net.cpp:399] inception_4b/pool -> inception_4b/pool
I0403 15:44:56.286397 20233 net.cpp:141] Setting up inception_4b/pool
I0403 15:44:56.286420 20233 net.cpp:148] Top shape: 24 512 14 14 (2408448)
I0403 15:44:56.286434 20233 net.cpp:156] Memory required for data: 977814816
I0403 15:44:56.286448 20233 layer_factory.hpp:77] Creating layer inception_4b/pool_proj
I0403 15:44:56.286470 20233 net.cpp:91] Creating Layer inception_4b/pool_proj
I0403 15:44:56.286486 20233 net.cpp:425] inception_4b/pool_proj <- inception_4b/pool
I0403 15:44:56.286506 20233 net.cpp:399] inception_4b/pool_proj -> inception_4b/pool_proj
I0403 15:44:56.287703 20233 net.cpp:141] Setting up inception_4b/pool_proj
I0403 15:44:56.287732 20233 net.cpp:148] Top shape: 24 64 14 14 (301056)
I0403 15:44:56.287749 20233 net.cpp:156] Memory required for data: 979019040
I0403 15:44:56.287767 20233 layer_factory.hpp:77] Creating layer inception_4b/relu_pool_proj
I0403 15:44:56.287788 20233 net.cpp:91] Creating Layer inception_4b/relu_pool_proj
I0403 15:44:56.287806 20233 net.cpp:425] inception_4b/relu_pool_proj <- inception_4b/pool_proj
I0403 15:44:56.287824 20233 net.cpp:386] inception_4b/relu_pool_proj -> inception_4b/pool_proj (in-place)
I0403 15:44:56.288009 20233 net.cpp:141] Setting up inception_4b/relu_pool_proj
I0403 15:44:56.288035 20233 net.cpp:148] Top shape: 24 64 14 14 (301056)
I0403 15:44:56.288050 20233 net.cpp:156] Memory required for data: 980223264
I0403 15:44:56.288064 20233 layer_factory.hpp:77] Creating layer inception_4b/output
I0403 15:44:56.288081 20233 net.cpp:91] Creating Layer inception_4b/output
I0403 15:44:56.288096 20233 net.cpp:425] inception_4b/output <- inception_4b/1x1
I0403 15:44:56.288112 20233 net.cpp:425] inception_4b/output <- inception_4b/3x3
I0403 15:44:56.288127 20233 net.cpp:425] inception_4b/output <- inception_4b/5x5
I0403 15:44:56.288142 20233 net.cpp:425] inception_4b/output <- inception_4b/pool_proj
I0403 15:44:56.288161 20233 net.cpp:399] inception_4b/output -> inception_4b/output
I0403 15:44:56.288205 20233 net.cpp:141] Setting up inception_4b/output
I0403 15:44:56.288230 20233 net.cpp:148] Top shape: 24 512 14 14 (2408448)
I0403 15:44:56.288246 20233 net.cpp:156] Memory required for data: 989857056
I0403 15:44:56.288275 20233 layer_factory.hpp:77] Creating layer inception_4b/output_inception_4b/output_0_split
I0403 15:44:56.288292 20233 net.cpp:91] Creating Layer inception_4b/output_inception_4b/output_0_split
I0403 15:44:56.288307 20233 net.cpp:425] inception_4b/output_inception_4b/output_0_split <- inception_4b/output
I0403 15:44:56.288324 20233 net.cpp:399] inception_4b/output_inception_4b/output_0_split -> inception_4b/output_inception_4b/output_0_split_0
I0403 15:44:56.288343 20233 net.cpp:399] inception_4b/output_inception_4b/output_0_split -> inception_4b/output_inception_4b/output_0_split_1
I0403 15:44:56.288364 20233 net.cpp:399] inception_4b/output_inception_4b/output_0_split -> inception_4b/output_inception_4b/output_0_split_2
I0403 15:44:56.288384 20233 net.cpp:399] inception_4b/output_inception_4b/output_0_split -> inception_4b/output_inception_4b/output_0_split_3
I0403 15:44:56.288467 20233 net.cpp:141] Setting up inception_4b/output_inception_4b/output_0_split
I0403 15:44:56.288491 20233 net.cpp:148] Top shape: 24 512 14 14 (2408448)
I0403 15:44:56.288506 20233 net.cpp:148] Top shape: 24 512 14 14 (2408448)
I0403 15:44:56.288521 20233 net.cpp:148] Top shape: 24 512 14 14 (2408448)
I0403 15:44:56.288535 20233 net.cpp:148] Top shape: 24 512 14 14 (2408448)
I0403 15:44:56.288548 20233 net.cpp:156] Memory required for data: 1028392224
I0403 15:44:56.288563 20233 layer_factory.hpp:77] Creating layer inception_4c/1x1
I0403 15:44:56.288583 20233 net.cpp:91] Creating Layer inception_4c/1x1
I0403 15:44:56.288599 20233 net.cpp:425] inception_4c/1x1 <- inception_4b/output_inception_4b/output_0_split_0
I0403 15:44:56.288620 20233 net.cpp:399] inception_4c/1x1 -> inception_4c/1x1
I0403 15:44:56.290063 20233 net.cpp:141] Setting up inception_4c/1x1
I0403 15:44:56.290092 20233 net.cpp:148] Top shape: 24 128 14 14 (602112)
I0403 15:44:56.290109 20233 net.cpp:156] Memory required for data: 1030800672
I0403 15:44:56.290128 20233 layer_factory.hpp:77] Creating layer inception_4c/relu_1x1
I0403 15:44:56.290146 20233 net.cpp:91] Creating Layer inception_4c/relu_1x1
I0403 15:44:56.290163 20233 net.cpp:425] inception_4c/relu_1x1 <- inception_4c/1x1
I0403 15:44:56.290182 20233 net.cpp:386] inception_4c/relu_1x1 -> inception_4c/1x1 (in-place)
I0403 15:44:56.290361 20233 net.cpp:141] Setting up inception_4c/relu_1x1
I0403 15:44:56.290386 20233 net.cpp:148] Top shape: 24 128 14 14 (602112)
I0403 15:44:56.290400 20233 net.cpp:156] Memory required for data: 1033209120
I0403 15:44:56.290415 20233 layer_factory.hpp:77] Creating layer inception_4c/3x3_reduce
I0403 15:44:56.290436 20233 net.cpp:91] Creating Layer inception_4c/3x3_reduce
I0403 15:44:56.290453 20233 net.cpp:425] inception_4c/3x3_reduce <- inception_4b/output_inception_4b/output_0_split_1
I0403 15:44:56.290473 20233 net.cpp:399] inception_4c/3x3_reduce -> inception_4c/3x3_reduce
I0403 15:44:56.292400 20233 net.cpp:141] Setting up inception_4c/3x3_reduce
I0403 15:44:56.292430 20233 net.cpp:148] Top shape: 24 128 14 14 (602112)
I0403 15:44:56.292445 20233 net.cpp:156] Memory required for data: 1035617568
I0403 15:44:56.292464 20233 layer_factory.hpp:77] Creating layer inception_4c/relu_3x3_reduce
I0403 15:44:56.292484 20233 net.cpp:91] Creating Layer inception_4c/relu_3x3_reduce
I0403 15:44:56.292501 20233 net.cpp:425] inception_4c/relu_3x3_reduce <- inception_4c/3x3_reduce
I0403 15:44:56.292520 20233 net.cpp:386] inception_4c/relu_3x3_reduce -> inception_4c/3x3_reduce (in-place)
I0403 15:44:56.292804 20233 net.cpp:141] Setting up inception_4c/relu_3x3_reduce
I0403 15:44:56.292831 20233 net.cpp:148] Top shape: 24 128 14 14 (602112)
I0403 15:44:56.292845 20233 net.cpp:156] Memory required for data: 1038026016
I0403 15:44:56.292860 20233 layer_factory.hpp:77] Creating layer inception_4c/3x3
I0403 15:44:56.292881 20233 net.cpp:91] Creating Layer inception_4c/3x3
I0403 15:44:56.292898 20233 net.cpp:425] inception_4c/3x3 <- inception_4c/3x3_reduce
I0403 15:44:56.292919 20233 net.cpp:399] inception_4c/3x3 -> inception_4c/3x3
I0403 15:44:56.296524 20233 net.cpp:141] Setting up inception_4c/3x3
I0403 15:44:56.296566 20233 net.cpp:148] Top shape: 24 256 14 14 (1204224)
I0403 15:44:56.296582 20233 net.cpp:156] Memory required for data: 1042842912
I0403 15:44:56.296613 20233 layer_factory.hpp:77] Creating layer inception_4c/relu_3x3
I0403 15:44:56.296635 20233 net.cpp:91] Creating Layer inception_4c/relu_3x3
I0403 15:44:56.296653 20233 net.cpp:425] inception_4c/relu_3x3 <- inception_4c/3x3
I0403 15:44:56.296670 20233 net.cpp:386] inception_4c/relu_3x3 -> inception_4c/3x3 (in-place)
I0403 15:44:56.296850 20233 net.cpp:141] Setting up inception_4c/relu_3x3
I0403 15:44:56.296877 20233 net.cpp:148] Top shape: 24 256 14 14 (1204224)
I0403 15:44:56.296892 20233 net.cpp:156] Memory required for data: 1047659808
I0403 15:44:56.296907 20233 layer_factory.hpp:77] Creating layer inception_4c/5x5_reduce
I0403 15:44:56.296929 20233 net.cpp:91] Creating Layer inception_4c/5x5_reduce
I0403 15:44:56.296959 20233 net.cpp:425] inception_4c/5x5_reduce <- inception_4b/output_inception_4b/output_0_split_2
I0403 15:44:56.296980 20233 net.cpp:399] inception_4c/5x5_reduce -> inception_4c/5x5_reduce
I0403 15:44:56.298115 20233 net.cpp:141] Setting up inception_4c/5x5_reduce
I0403 15:44:56.298146 20233 net.cpp:148] Top shape: 24 24 14 14 (112896)
I0403 15:44:56.298163 20233 net.cpp:156] Memory required for data: 1048111392
I0403 15:44:56.298182 20233 layer_factory.hpp:77] Creating layer inception_4c/relu_5x5_reduce
I0403 15:44:56.298200 20233 net.cpp:91] Creating Layer inception_4c/relu_5x5_reduce
I0403 15:44:56.298216 20233 net.cpp:425] inception_4c/relu_5x5_reduce <- inception_4c/5x5_reduce
I0403 15:44:56.298233 20233 net.cpp:386] inception_4c/relu_5x5_reduce -> inception_4c/5x5_reduce (in-place)
I0403 15:44:56.298415 20233 net.cpp:141] Setting up inception_4c/relu_5x5_reduce
I0403 15:44:56.298441 20233 net.cpp:148] Top shape: 24 24 14 14 (112896)
I0403 15:44:56.298457 20233 net.cpp:156] Memory required for data: 1048562976
I0403 15:44:56.298472 20233 layer_factory.hpp:77] Creating layer inception_4c/5x5
I0403 15:44:56.298493 20233 net.cpp:91] Creating Layer inception_4c/5x5
I0403 15:44:56.298511 20233 net.cpp:425] inception_4c/5x5 <- inception_4c/5x5_reduce
I0403 15:44:56.298528 20233 net.cpp:399] inception_4c/5x5 -> inception_4c/5x5
I0403 15:44:56.299769 20233 net.cpp:141] Setting up inception_4c/5x5
I0403 15:44:56.299798 20233 net.cpp:148] Top shape: 24 64 14 14 (301056)
I0403 15:44:56.299814 20233 net.cpp:156] Memory required for data: 1049767200
I0403 15:44:56.299834 20233 layer_factory.hpp:77] Creating layer inception_4c/relu_5x5
I0403 15:44:56.299851 20233 net.cpp:91] Creating Layer inception_4c/relu_5x5
I0403 15:44:56.299866 20233 net.cpp:425] inception_4c/relu_5x5 <- inception_4c/5x5
I0403 15:44:56.299885 20233 net.cpp:386] inception_4c/relu_5x5 -> inception_4c/5x5 (in-place)
I0403 15:44:56.300180 20233 net.cpp:141] Setting up inception_4c/relu_5x5
I0403 15:44:56.300207 20233 net.cpp:148] Top shape: 24 64 14 14 (301056)
I0403 15:44:56.300223 20233 net.cpp:156] Memory required for data: 1050971424
I0403 15:44:56.300240 20233 layer_factory.hpp:77] Creating layer inception_4c/pool
I0403 15:44:56.300259 20233 net.cpp:91] Creating Layer inception_4c/pool
I0403 15:44:56.300276 20233 net.cpp:425] inception_4c/pool <- inception_4b/output_inception_4b/output_0_split_3
I0403 15:44:56.300297 20233 net.cpp:399] inception_4c/pool -> inception_4c/pool
I0403 15:44:56.300364 20233 net.cpp:141] Setting up inception_4c/pool
I0403 15:44:56.300390 20233 net.cpp:148] Top shape: 24 512 14 14 (2408448)
I0403 15:44:56.300403 20233 net.cpp:156] Memory required for data: 1060605216
I0403 15:44:56.300417 20233 layer_factory.hpp:77] Creating layer inception_4c/pool_proj
I0403 15:44:56.300441 20233 net.cpp:91] Creating Layer inception_4c/pool_proj
I0403 15:44:56.300459 20233 net.cpp:425] inception_4c/pool_proj <- inception_4c/pool
I0403 15:44:56.300479 20233 net.cpp:399] inception_4c/pool_proj -> inception_4c/pool_proj
I0403 15:44:56.301687 20233 net.cpp:141] Setting up inception_4c/pool_proj
I0403 15:44:56.301714 20233 net.cpp:148] Top shape: 24 64 14 14 (301056)
I0403 15:44:56.301743 20233 net.cpp:156] Memory required for data: 1061809440
I0403 15:44:56.301761 20233 layer_factory.hpp:77] Creating layer inception_4c/relu_pool_proj
I0403 15:44:56.301781 20233 net.cpp:91] Creating Layer inception_4c/relu_pool_proj
I0403 15:44:56.301798 20233 net.cpp:425] inception_4c/relu_pool_proj <- inception_4c/pool_proj
I0403 15:44:56.301815 20233 net.cpp:386] inception_4c/relu_pool_proj -> inception_4c/pool_proj (in-place)
I0403 15:44:56.302011 20233 net.cpp:141] Setting up inception_4c/relu_pool_proj
I0403 15:44:56.302050 20233 net.cpp:148] Top shape: 24 64 14 14 (301056)
I0403 15:44:56.302075 20233 net.cpp:156] Memory required for data: 1063013664
I0403 15:44:56.302090 20233 layer_factory.hpp:77] Creating layer inception_4c/output
I0403 15:44:56.302108 20233 net.cpp:91] Creating Layer inception_4c/output
I0403 15:44:56.302124 20233 net.cpp:425] inception_4c/output <- inception_4c/1x1
I0403 15:44:56.302139 20233 net.cpp:425] inception_4c/output <- inception_4c/3x3
I0403 15:44:56.302156 20233 net.cpp:425] inception_4c/output <- inception_4c/5x5
I0403 15:44:56.302171 20233 net.cpp:425] inception_4c/output <- inception_4c/pool_proj
I0403 15:44:56.302189 20233 net.cpp:399] inception_4c/output -> inception_4c/output
I0403 15:44:56.302237 20233 net.cpp:141] Setting up inception_4c/output
I0403 15:44:56.302263 20233 net.cpp:148] Top shape: 24 512 14 14 (2408448)
I0403 15:44:56.302279 20233 net.cpp:156] Memory required for data: 1072647456
I0403 15:44:56.302294 20233 layer_factory.hpp:77] Creating layer inception_4c/output_inception_4c/output_0_split
I0403 15:44:56.302322 20233 net.cpp:91] Creating Layer inception_4c/output_inception_4c/output_0_split
I0403 15:44:56.302338 20233 net.cpp:425] inception_4c/output_inception_4c/output_0_split <- inception_4c/output
I0403 15:44:56.302363 20233 net.cpp:399] inception_4c/output_inception_4c/output_0_split -> inception_4c/output_inception_4c/output_0_split_0
I0403 15:44:56.302382 20233 net.cpp:399] inception_4c/output_inception_4c/output_0_split -> inception_4c/output_inception_4c/output_0_split_1
I0403 15:44:56.302402 20233 net.cpp:399] inception_4c/output_inception_4c/output_0_split -> inception_4c/output_inception_4c/output_0_split_2
I0403 15:44:56.302423 20233 net.cpp:399] inception_4c/output_inception_4c/output_0_split -> inception_4c/output_inception_4c/output_0_split_3
I0403 15:44:56.302510 20233 net.cpp:141] Setting up inception_4c/output_inception_4c/output_0_split
I0403 15:44:56.302534 20233 net.cpp:148] Top shape: 24 512 14 14 (2408448)
I0403 15:44:56.302549 20233 net.cpp:148] Top shape: 24 512 14 14 (2408448)
I0403 15:44:56.302564 20233 net.cpp:148] Top shape: 24 512 14 14 (2408448)
I0403 15:44:56.302579 20233 net.cpp:148] Top shape: 24 512 14 14 (2408448)
I0403 15:44:56.302593 20233 net.cpp:156] Memory required for data: 1111182624
I0403 15:44:56.302608 20233 layer_factory.hpp:77] Creating layer inception_4d/1x1
I0403 15:44:56.302628 20233 net.cpp:91] Creating Layer inception_4d/1x1
I0403 15:44:56.302645 20233 net.cpp:425] inception_4d/1x1 <- inception_4c/output_inception_4c/output_0_split_0
I0403 15:44:56.302666 20233 net.cpp:399] inception_4d/1x1 -> inception_4d/1x1
I0403 15:44:56.304078 20233 net.cpp:141] Setting up inception_4d/1x1
I0403 15:44:56.304108 20233 net.cpp:148] Top shape: 24 112 14 14 (526848)
I0403 15:44:56.304124 20233 net.cpp:156] Memory required for data: 1113290016
I0403 15:44:56.304141 20233 layer_factory.hpp:77] Creating layer inception_4d/relu_1x1
I0403 15:44:56.304162 20233 net.cpp:91] Creating Layer inception_4d/relu_1x1
I0403 15:44:56.304179 20233 net.cpp:425] inception_4d/relu_1x1 <- inception_4d/1x1
I0403 15:44:56.304198 20233 net.cpp:386] inception_4d/relu_1x1 -> inception_4d/1x1 (in-place)
I0403 15:44:56.304378 20233 net.cpp:141] Setting up inception_4d/relu_1x1
I0403 15:44:56.304405 20233 net.cpp:148] Top shape: 24 112 14 14 (526848)
I0403 15:44:56.304421 20233 net.cpp:156] Memory required for data: 1115397408
I0403 15:44:56.304437 20233 layer_factory.hpp:77] Creating layer inception_4d/3x3_reduce
I0403 15:44:56.304471 20233 net.cpp:91] Creating Layer inception_4d/3x3_reduce
I0403 15:44:56.304489 20233 net.cpp:425] inception_4d/3x3_reduce <- inception_4c/output_inception_4c/output_0_split_1
I0403 15:44:56.304510 20233 net.cpp:399] inception_4d/3x3_reduce -> inception_4d/3x3_reduce
I0403 15:44:56.306047 20233 net.cpp:141] Setting up inception_4d/3x3_reduce
I0403 15:44:56.306077 20233 net.cpp:148] Top shape: 24 144 14 14 (677376)
I0403 15:44:56.306092 20233 net.cpp:156] Memory required for data: 1118106912
I0403 15:44:56.306109 20233 layer_factory.hpp:77] Creating layer inception_4d/relu_3x3_reduce
I0403 15:44:56.306128 20233 net.cpp:91] Creating Layer inception_4d/relu_3x3_reduce
I0403 15:44:56.306145 20233 net.cpp:425] inception_4d/relu_3x3_reduce <- inception_4d/3x3_reduce
I0403 15:44:56.306164 20233 net.cpp:386] inception_4d/relu_3x3_reduce -> inception_4d/3x3_reduce (in-place)
I0403 15:44:56.306452 20233 net.cpp:141] Setting up inception_4d/relu_3x3_reduce
I0403 15:44:56.306478 20233 net.cpp:148] Top shape: 24 144 14 14 (677376)
I0403 15:44:56.306493 20233 net.cpp:156] Memory required for data: 1120816416
I0403 15:44:56.306506 20233 layer_factory.hpp:77] Creating layer inception_4d/3x3
I0403 15:44:56.306527 20233 net.cpp:91] Creating Layer inception_4d/3x3
I0403 15:44:56.306545 20233 net.cpp:425] inception_4d/3x3 <- inception_4d/3x3_reduce
I0403 15:44:56.306567 20233 net.cpp:399] inception_4d/3x3 -> inception_4d/3x3
I0403 15:44:56.310868 20233 net.cpp:141] Setting up inception_4d/3x3
I0403 15:44:56.310899 20233 net.cpp:148] Top shape: 24 288 14 14 (1354752)
I0403 15:44:56.310915 20233 net.cpp:156] Memory required for data: 1126235424
I0403 15:44:56.310935 20233 layer_factory.hpp:77] Creating layer inception_4d/relu_3x3
I0403 15:44:56.310955 20233 net.cpp:91] Creating Layer inception_4d/relu_3x3
I0403 15:44:56.310972 20233 net.cpp:425] inception_4d/relu_3x3 <- inception_4d/3x3
I0403 15:44:56.310995 20233 net.cpp:386] inception_4d/relu_3x3 -> inception_4d/3x3 (in-place)
I0403 15:44:56.311182 20233 net.cpp:141] Setting up inception_4d/relu_3x3
I0403 15:44:56.311208 20233 net.cpp:148] Top shape: 24 288 14 14 (1354752)
I0403 15:44:56.311221 20233 net.cpp:156] Memory required for data: 1131654432
I0403 15:44:56.311236 20233 layer_factory.hpp:77] Creating layer inception_4d/5x5_reduce
I0403 15:44:56.311271 20233 net.cpp:91] Creating Layer inception_4d/5x5_reduce
I0403 15:44:56.311290 20233 net.cpp:425] inception_4d/5x5_reduce <- inception_4c/output_inception_4c/output_0_split_2
I0403 15:44:56.311308 20233 net.cpp:399] inception_4d/5x5_reduce -> inception_4d/5x5_reduce
I0403 15:44:56.312460 20233 net.cpp:141] Setting up inception_4d/5x5_reduce
I0403 15:44:56.312490 20233 net.cpp:148] Top shape: 24 32 14 14 (150528)
I0403 15:44:56.312506 20233 net.cpp:156] Memory required for data: 1132256544
I0403 15:44:56.312523 20233 layer_factory.hpp:77] Creating layer inception_4d/relu_5x5_reduce
I0403 15:44:56.312543 20233 net.cpp:91] Creating Layer inception_4d/relu_5x5_reduce
I0403 15:44:56.312559 20233 net.cpp:425] inception_4d/relu_5x5_reduce <- inception_4d/5x5_reduce
I0403 15:44:56.312577 20233 net.cpp:386] inception_4d/relu_5x5_reduce -> inception_4d/5x5_reduce (in-place)
I0403 15:44:56.312762 20233 net.cpp:141] Setting up inception_4d/relu_5x5_reduce
I0403 15:44:56.312790 20233 net.cpp:148] Top shape: 24 32 14 14 (150528)
I0403 15:44:56.312805 20233 net.cpp:156] Memory required for data: 1132858656
I0403 15:44:56.312821 20233 layer_factory.hpp:77] Creating layer inception_4d/5x5
I0403 15:44:56.312842 20233 net.cpp:91] Creating Layer inception_4d/5x5
I0403 15:44:56.312860 20233 net.cpp:425] inception_4d/5x5 <- inception_4d/5x5_reduce
I0403 15:44:56.312877 20233 net.cpp:399] inception_4d/5x5 -> inception_4d/5x5
I0403 15:44:56.314411 20233 net.cpp:141] Setting up inception_4d/5x5
I0403 15:44:56.314445 20233 net.cpp:148] Top shape: 24 64 14 14 (301056)
I0403 15:44:56.314462 20233 net.cpp:156] Memory required for data: 1134062880
I0403 15:44:56.314483 20233 layer_factory.hpp:77] Creating layer inception_4d/relu_5x5
I0403 15:44:56.314519 20233 net.cpp:91] Creating Layer inception_4d/relu_5x5
I0403 15:44:56.314538 20233 net.cpp:425] inception_4d/relu_5x5 <- inception_4d/5x5
I0403 15:44:56.314569 20233 net.cpp:386] inception_4d/relu_5x5 -> inception_4d/5x5 (in-place)
I0403 15:44:56.314882 20233 net.cpp:141] Setting up inception_4d/relu_5x5
I0403 15:44:56.314911 20233 net.cpp:148] Top shape: 24 64 14 14 (301056)
I0403 15:44:56.314929 20233 net.cpp:156] Memory required for data: 1135267104
I0403 15:44:56.314944 20233 layer_factory.hpp:77] Creating layer inception_4d/pool
I0403 15:44:56.314962 20233 net.cpp:91] Creating Layer inception_4d/pool
I0403 15:44:56.314978 20233 net.cpp:425] inception_4d/pool <- inception_4c/output_inception_4c/output_0_split_3
I0403 15:44:56.315006 20233 net.cpp:399] inception_4d/pool -> inception_4d/pool
I0403 15:44:56.315078 20233 net.cpp:141] Setting up inception_4d/pool
I0403 15:44:56.315104 20233 net.cpp:148] Top shape: 24 512 14 14 (2408448)
I0403 15:44:56.315119 20233 net.cpp:156] Memory required for data: 1144900896
I0403 15:44:56.315135 20233 layer_factory.hpp:77] Creating layer inception_4d/pool_proj
I0403 15:44:56.315155 20233 net.cpp:91] Creating Layer inception_4d/pool_proj
I0403 15:44:56.315173 20233 net.cpp:425] inception_4d/pool_proj <- inception_4d/pool
I0403 15:44:56.315194 20233 net.cpp:399] inception_4d/pool_proj -> inception_4d/pool_proj
I0403 15:44:56.316992 20233 net.cpp:141] Setting up inception_4d/pool_proj
I0403 15:44:56.317024 20233 net.cpp:148] Top shape: 24 64 14 14 (301056)
I0403 15:44:56.317041 20233 net.cpp:156] Memory required for data: 1146105120
I0403 15:44:56.317060 20233 layer_factory.hpp:77] Creating layer inception_4d/relu_pool_proj
I0403 15:44:56.317081 20233 net.cpp:91] Creating Layer inception_4d/relu_pool_proj
I0403 15:44:56.317101 20233 net.cpp:425] inception_4d/relu_pool_proj <- inception_4d/pool_proj
I0403 15:44:56.317117 20233 net.cpp:386] inception_4d/relu_pool_proj -> inception_4d/pool_proj (in-place)
I0403 15:44:56.317306 20233 net.cpp:141] Setting up inception_4d/relu_pool_proj
I0403 15:44:56.317332 20233 net.cpp:148] Top shape: 24 64 14 14 (301056)
I0403 15:44:56.317345 20233 net.cpp:156] Memory required for data: 1147309344
I0403 15:44:56.317360 20233 layer_factory.hpp:77] Creating layer inception_4d/output
I0403 15:44:56.317379 20233 net.cpp:91] Creating Layer inception_4d/output
I0403 15:44:56.317396 20233 net.cpp:425] inception_4d/output <- inception_4d/1x1
I0403 15:44:56.317412 20233 net.cpp:425] inception_4d/output <- inception_4d/3x3
I0403 15:44:56.317428 20233 net.cpp:425] inception_4d/output <- inception_4d/5x5
I0403 15:44:56.317443 20233 net.cpp:425] inception_4d/output <- inception_4d/pool_proj
I0403 15:44:56.317461 20233 net.cpp:399] inception_4d/output -> inception_4d/output
I0403 15:44:56.317510 20233 net.cpp:141] Setting up inception_4d/output
I0403 15:44:56.317533 20233 net.cpp:148] Top shape: 24 528 14 14 (2483712)
I0403 15:44:56.317548 20233 net.cpp:156] Memory required for data: 1157244192
I0403 15:44:56.317561 20233 layer_factory.hpp:77] Creating layer inception_4d/output_inception_4d/output_0_split
I0403 15:44:56.317579 20233 net.cpp:91] Creating Layer inception_4d/output_inception_4d/output_0_split
I0403 15:44:56.317594 20233 net.cpp:425] inception_4d/output_inception_4d/output_0_split <- inception_4d/output
I0403 15:44:56.317615 20233 net.cpp:399] inception_4d/output_inception_4d/output_0_split -> inception_4d/output_inception_4d/output_0_split_0
I0403 15:44:56.317636 20233 net.cpp:399] inception_4d/output_inception_4d/output_0_split -> inception_4d/output_inception_4d/output_0_split_1
I0403 15:44:56.317656 20233 net.cpp:399] inception_4d/output_inception_4d/output_0_split -> inception_4d/output_inception_4d/output_0_split_2
I0403 15:44:56.317679 20233 net.cpp:399] inception_4d/output_inception_4d/output_0_split -> inception_4d/output_inception_4d/output_0_split_3
I0403 15:44:56.317699 20233 net.cpp:399] inception_4d/output_inception_4d/output_0_split -> inception_4d/output_inception_4d/output_0_split_4
I0403 15:44:56.317805 20233 net.cpp:141] Setting up inception_4d/output_inception_4d/output_0_split
I0403 15:44:56.317841 20233 net.cpp:148] Top shape: 24 528 14 14 (2483712)
I0403 15:44:56.317857 20233 net.cpp:148] Top shape: 24 528 14 14 (2483712)
I0403 15:44:56.317872 20233 net.cpp:148] Top shape: 24 528 14 14 (2483712)
I0403 15:44:56.317888 20233 net.cpp:148] Top shape: 24 528 14 14 (2483712)
I0403 15:44:56.317903 20233 net.cpp:148] Top shape: 24 528 14 14 (2483712)
I0403 15:44:56.317915 20233 net.cpp:156] Memory required for data: 1206918432
I0403 15:44:56.317929 20233 layer_factory.hpp:77] Creating layer loss2/ave_pool
I0403 15:44:56.317947 20233 net.cpp:91] Creating Layer loss2/ave_pool
I0403 15:44:56.317962 20233 net.cpp:425] loss2/ave_pool <- inception_4d/output_inception_4d/output_0_split_0
I0403 15:44:56.317983 20233 net.cpp:399] loss2/ave_pool -> loss2/ave_pool
I0403 15:44:56.318310 20233 net.cpp:141] Setting up loss2/ave_pool
I0403 15:44:56.318336 20233 net.cpp:148] Top shape: 24 528 4 4 (202752)
I0403 15:44:56.318351 20233 net.cpp:156] Memory required for data: 1207729440
I0403 15:44:56.318367 20233 layer_factory.hpp:77] Creating layer loss2/conv
I0403 15:44:56.318388 20233 net.cpp:91] Creating Layer loss2/conv
I0403 15:44:56.318406 20233 net.cpp:425] loss2/conv <- loss2/ave_pool
I0403 15:44:56.318428 20233 net.cpp:399] loss2/conv -> loss2/conv
I0403 15:44:56.320437 20233 net.cpp:141] Setting up loss2/conv
I0403 15:44:56.320469 20233 net.cpp:148] Top shape: 24 128 4 4 (49152)
I0403 15:44:56.320487 20233 net.cpp:156] Memory required for data: 1207926048
I0403 15:44:56.320504 20233 layer_factory.hpp:77] Creating layer loss2/relu_conv
I0403 15:44:56.320523 20233 net.cpp:91] Creating Layer loss2/relu_conv
I0403 15:44:56.320538 20233 net.cpp:425] loss2/relu_conv <- loss2/conv
I0403 15:44:56.320559 20233 net.cpp:386] loss2/relu_conv -> loss2/conv (in-place)
I0403 15:44:56.320855 20233 net.cpp:141] Setting up loss2/relu_conv
I0403 15:44:56.320884 20233 net.cpp:148] Top shape: 24 128 4 4 (49152)
I0403 15:44:56.320901 20233 net.cpp:156] Memory required for data: 1208122656
I0403 15:44:56.320915 20233 layer_factory.hpp:77] Creating layer loss2/fc
I0403 15:44:56.320935 20233 net.cpp:91] Creating Layer loss2/fc
I0403 15:44:56.320951 20233 net.cpp:425] loss2/fc <- loss2/conv
I0403 15:44:56.320973 20233 net.cpp:399] loss2/fc -> loss2/fc
I0403 15:44:56.339222 20233 net.cpp:141] Setting up loss2/fc
I0403 15:44:56.339279 20233 net.cpp:148] Top shape: 24 1024 (24576)
I0403 15:44:56.339296 20233 net.cpp:156] Memory required for data: 1208220960
I0403 15:44:56.339316 20233 layer_factory.hpp:77] Creating layer loss2/relu_fc
I0403 15:44:56.339339 20233 net.cpp:91] Creating Layer loss2/relu_fc
I0403 15:44:56.339359 20233 net.cpp:425] loss2/relu_fc <- loss2/fc
I0403 15:44:56.339377 20233 net.cpp:386] loss2/relu_fc -> loss2/fc (in-place)
I0403 15:44:56.339722 20233 net.cpp:141] Setting up loss2/relu_fc
I0403 15:44:56.339751 20233 net.cpp:148] Top shape: 24 1024 (24576)
I0403 15:44:56.339766 20233 net.cpp:156] Memory required for data: 1208319264
I0403 15:44:56.339781 20233 layer_factory.hpp:77] Creating layer loss2/drop_fc
I0403 15:44:56.339802 20233 net.cpp:91] Creating Layer loss2/drop_fc
I0403 15:44:56.339818 20233 net.cpp:425] loss2/drop_fc <- loss2/fc
I0403 15:44:56.339836 20233 net.cpp:386] loss2/drop_fc -> loss2/fc (in-place)
I0403 15:44:56.339889 20233 net.cpp:141] Setting up loss2/drop_fc
I0403 15:44:56.339911 20233 net.cpp:148] Top shape: 24 1024 (24576)
I0403 15:44:56.339926 20233 net.cpp:156] Memory required for data: 1208417568
I0403 15:44:56.339941 20233 layer_factory.hpp:77] Creating layer loss2/classifier_plantvillage
I0403 15:44:56.339961 20233 net.cpp:91] Creating Layer loss2/classifier_plantvillage
I0403 15:44:56.339977 20233 net.cpp:425] loss2/classifier_plantvillage <- loss2/fc
I0403 15:44:56.340003 20233 net.cpp:399] loss2/classifier_plantvillage -> loss2/classifier_plantvillage
I0403 15:44:56.340428 20233 net.cpp:141] Setting up loss2/classifier_plantvillage
I0403 15:44:56.340453 20233 net.cpp:148] Top shape: 24 38 (912)
I0403 15:44:56.340492 20233 net.cpp:156] Memory required for data: 1208421216
I0403 15:44:56.340512 20233 layer_factory.hpp:77] Creating layer loss2/classifier_plantvillage_loss2/classifier_plantvillage_0_split
I0403 15:44:56.340529 20233 net.cpp:91] Creating Layer loss2/classifier_plantvillage_loss2/classifier_plantvillage_0_split
I0403 15:44:56.340545 20233 net.cpp:425] loss2/classifier_plantvillage_loss2/classifier_plantvillage_0_split <- loss2/classifier_plantvillage
I0403 15:44:56.340565 20233 net.cpp:399] loss2/classifier_plantvillage_loss2/classifier_plantvillage_0_split -> loss2/classifier_plantvillage_loss2/classifier_plantvillage_0_split_0
I0403 15:44:56.340586 20233 net.cpp:399] loss2/classifier_plantvillage_loss2/classifier_plantvillage_0_split -> loss2/classifier_plantvillage_loss2/classifier_plantvillage_0_split_1
I0403 15:44:56.340606 20233 net.cpp:399] loss2/classifier_plantvillage_loss2/classifier_plantvillage_0_split -> loss2/classifier_plantvillage_loss2/classifier_plantvillage_0_split_2
I0403 15:44:56.340683 20233 net.cpp:141] Setting up loss2/classifier_plantvillage_loss2/classifier_plantvillage_0_split
I0403 15:44:56.340708 20233 net.cpp:148] Top shape: 24 38 (912)
I0403 15:44:56.340723 20233 net.cpp:148] Top shape: 24 38 (912)
I0403 15:44:56.340739 20233 net.cpp:148] Top shape: 24 38 (912)
I0403 15:44:56.340751 20233 net.cpp:156] Memory required for data: 1208432160
I0403 15:44:56.340766 20233 layer_factory.hpp:77] Creating layer inception_4e/1x1
I0403 15:44:56.340790 20233 net.cpp:91] Creating Layer inception_4e/1x1
I0403 15:44:56.340808 20233 net.cpp:425] inception_4e/1x1 <- inception_4d/output_inception_4d/output_0_split_1
I0403 15:44:56.340826 20233 net.cpp:399] inception_4e/1x1 -> inception_4e/1x1
I0403 15:44:56.342717 20233 net.cpp:141] Setting up inception_4e/1x1
I0403 15:44:56.342747 20233 net.cpp:148] Top shape: 24 256 14 14 (1204224)
I0403 15:44:56.342763 20233 net.cpp:156] Memory required for data: 1213249056
I0403 15:44:56.342782 20233 layer_factory.hpp:77] Creating layer inception_4e/relu_1x1
I0403 15:44:56.342800 20233 net.cpp:91] Creating Layer inception_4e/relu_1x1
I0403 15:44:56.342818 20233 net.cpp:425] inception_4e/relu_1x1 <- inception_4e/1x1
I0403 15:44:56.342839 20233 net.cpp:386] inception_4e/relu_1x1 -> inception_4e/1x1 (in-place)
I0403 15:44:56.343152 20233 net.cpp:141] Setting up inception_4e/relu_1x1
I0403 15:44:56.343180 20233 net.cpp:148] Top shape: 24 256 14 14 (1204224)
I0403 15:44:56.343197 20233 net.cpp:156] Memory required for data: 1218065952
I0403 15:44:56.343212 20233 layer_factory.hpp:77] Creating layer inception_4e/3x3_reduce
I0403 15:44:56.343237 20233 net.cpp:91] Creating Layer inception_4e/3x3_reduce
I0403 15:44:56.343257 20233 net.cpp:425] inception_4e/3x3_reduce <- inception_4d/output_inception_4d/output_0_split_2
I0403 15:44:56.343278 20233 net.cpp:399] inception_4e/3x3_reduce -> inception_4e/3x3_reduce
I0403 15:44:56.345468 20233 net.cpp:141] Setting up inception_4e/3x3_reduce
I0403 15:44:56.345502 20233 net.cpp:148] Top shape: 24 160 14 14 (752640)
I0403 15:44:56.345521 20233 net.cpp:156] Memory required for data: 1221076512
I0403 15:44:56.345540 20233 layer_factory.hpp:77] Creating layer inception_4e/relu_3x3_reduce
I0403 15:44:56.345559 20233 net.cpp:91] Creating Layer inception_4e/relu_3x3_reduce
I0403 15:44:56.345577 20233 net.cpp:425] inception_4e/relu_3x3_reduce <- inception_4e/3x3_reduce
I0403 15:44:56.345597 20233 net.cpp:386] inception_4e/relu_3x3_reduce -> inception_4e/3x3_reduce (in-place)
I0403 15:44:56.345788 20233 net.cpp:141] Setting up inception_4e/relu_3x3_reduce
I0403 15:44:56.345813 20233 net.cpp:148] Top shape: 24 160 14 14 (752640)
I0403 15:44:56.345829 20233 net.cpp:156] Memory required for data: 1224087072
I0403 15:44:56.345844 20233 layer_factory.hpp:77] Creating layer inception_4e/3x3
I0403 15:44:56.345865 20233 net.cpp:91] Creating Layer inception_4e/3x3
I0403 15:44:56.345882 20233 net.cpp:425] inception_4e/3x3 <- inception_4e/3x3_reduce
I0403 15:44:56.345904 20233 net.cpp:399] inception_4e/3x3 -> inception_4e/3x3
I0403 15:44:56.351124 20233 net.cpp:141] Setting up inception_4e/3x3
I0403 15:44:56.351171 20233 net.cpp:148] Top shape: 24 320 14 14 (1505280)
I0403 15:44:56.351188 20233 net.cpp:156] Memory required for data: 1230108192
I0403 15:44:56.351207 20233 layer_factory.hpp:77] Creating layer inception_4e/relu_3x3
I0403 15:44:56.351227 20233 net.cpp:91] Creating Layer inception_4e/relu_3x3
I0403 15:44:56.351243 20233 net.cpp:425] inception_4e/relu_3x3 <- inception_4e/3x3
I0403 15:44:56.351264 20233 net.cpp:386] inception_4e/relu_3x3 -> inception_4e/3x3 (in-place)
I0403 15:44:56.351573 20233 net.cpp:141] Setting up inception_4e/relu_3x3
I0403 15:44:56.351603 20233 net.cpp:148] Top shape: 24 320 14 14 (1505280)
I0403 15:44:56.351619 20233 net.cpp:156] Memory required for data: 1236129312
I0403 15:44:56.351634 20233 layer_factory.hpp:77] Creating layer inception_4e/5x5_reduce
I0403 15:44:56.351660 20233 net.cpp:91] Creating Layer inception_4e/5x5_reduce
I0403 15:44:56.351680 20233 net.cpp:425] inception_4e/5x5_reduce <- inception_4d/output_inception_4d/output_0_split_3
I0403 15:44:56.351703 20233 net.cpp:399] inception_4e/5x5_reduce -> inception_4e/5x5_reduce
I0403 15:44:56.352800 20233 net.cpp:141] Setting up inception_4e/5x5_reduce
I0403 15:44:56.352833 20233 net.cpp:148] Top shape: 24 32 14 14 (150528)
I0403 15:44:56.352850 20233 net.cpp:156] Memory required for data: 1236731424
I0403 15:44:56.352870 20233 layer_factory.hpp:77] Creating layer inception_4e/relu_5x5_reduce
I0403 15:44:56.352888 20233 net.cpp:91] Creating Layer inception_4e/relu_5x5_reduce
I0403 15:44:56.352905 20233 net.cpp:425] inception_4e/relu_5x5_reduce <- inception_4e/5x5_reduce
I0403 15:44:56.352923 20233 net.cpp:386] inception_4e/relu_5x5_reduce -> inception_4e/5x5_reduce (in-place)
I0403 15:44:56.353235 20233 net.cpp:141] Setting up inception_4e/relu_5x5_reduce
I0403 15:44:56.353265 20233 net.cpp:148] Top shape: 24 32 14 14 (150528)
I0403 15:44:56.353281 20233 net.cpp:156] Memory required for data: 1237333536
I0403 15:44:56.353296 20233 layer_factory.hpp:77] Creating layer inception_4e/5x5
I0403 15:44:56.353337 20233 net.cpp:91] Creating Layer inception_4e/5x5
I0403 15:44:56.353356 20233 net.cpp:425] inception_4e/5x5 <- inception_4e/5x5_reduce
I0403 15:44:56.353376 20233 net.cpp:399] inception_4e/5x5 -> inception_4e/5x5
I0403 15:44:56.355278 20233 net.cpp:141] Setting up inception_4e/5x5
I0403 15:44:56.355309 20233 net.cpp:148] Top shape: 24 128 14 14 (602112)
I0403 15:44:56.355325 20233 net.cpp:156] Memory required for data: 1239741984
I0403 15:44:56.355345 20233 layer_factory.hpp:77] Creating layer inception_4e/relu_5x5
I0403 15:44:56.355366 20233 net.cpp:91] Creating Layer inception_4e/relu_5x5
I0403 15:44:56.355384 20233 net.cpp:425] inception_4e/relu_5x5 <- inception_4e/5x5
I0403 15:44:56.355402 20233 net.cpp:386] inception_4e/relu_5x5 -> inception_4e/5x5 (in-place)
I0403 15:44:56.355607 20233 net.cpp:141] Setting up inception_4e/relu_5x5
I0403 15:44:56.355636 20233 net.cpp:148] Top shape: 24 128 14 14 (602112)
I0403 15:44:56.355653 20233 net.cpp:156] Memory required for data: 1242150432
I0403 15:44:56.355669 20233 layer_factory.hpp:77] Creating layer inception_4e/pool
I0403 15:44:56.355687 20233 net.cpp:91] Creating Layer inception_4e/pool
I0403 15:44:56.355705 20233 net.cpp:425] inception_4e/pool <- inception_4d/output_inception_4d/output_0_split_4
I0403 15:44:56.355726 20233 net.cpp:399] inception_4e/pool -> inception_4e/pool
I0403 15:44:56.355799 20233 net.cpp:141] Setting up inception_4e/pool
I0403 15:44:56.355825 20233 net.cpp:148] Top shape: 24 528 14 14 (2483712)
I0403 15:44:56.355840 20233 net.cpp:156] Memory required for data: 1252085280
I0403 15:44:56.355855 20233 layer_factory.hpp:77] Creating layer inception_4e/pool_proj
I0403 15:44:56.355880 20233 net.cpp:91] Creating Layer inception_4e/pool_proj
I0403 15:44:56.355897 20233 net.cpp:425] inception_4e/pool_proj <- inception_4e/pool
I0403 15:44:56.355917 20233 net.cpp:399] inception_4e/pool_proj -> inception_4e/pool_proj
I0403 15:44:56.357484 20233 net.cpp:141] Setting up inception_4e/pool_proj
I0403 15:44:56.357525 20233 net.cpp:148] Top shape: 24 128 14 14 (602112)
I0403 15:44:56.357543 20233 net.cpp:156] Memory required for data: 1254493728
I0403 15:44:56.357563 20233 layer_factory.hpp:77] Creating layer inception_4e/relu_pool_proj
I0403 15:44:56.357583 20233 net.cpp:91] Creating Layer inception_4e/relu_pool_proj
I0403 15:44:56.357601 20233 net.cpp:425] inception_4e/relu_pool_proj <- inception_4e/pool_proj
I0403 15:44:56.357619 20233 net.cpp:386] inception_4e/relu_pool_proj -> inception_4e/pool_proj (in-place)
I0403 15:44:56.357919 20233 net.cpp:141] Setting up inception_4e/relu_pool_proj
I0403 15:44:56.357946 20233 net.cpp:148] Top shape: 24 128 14 14 (602112)
I0403 15:44:56.357961 20233 net.cpp:156] Memory required for data: 1256902176
I0403 15:44:56.357976 20233 layer_factory.hpp:77] Creating layer inception_4e/output
I0403 15:44:56.358002 20233 net.cpp:91] Creating Layer inception_4e/output
I0403 15:44:56.358021 20233 net.cpp:425] inception_4e/output <- inception_4e/1x1
I0403 15:44:56.358037 20233 net.cpp:425] inception_4e/output <- inception_4e/3x3
I0403 15:44:56.358053 20233 net.cpp:425] inception_4e/output <- inception_4e/5x5
I0403 15:44:56.358069 20233 net.cpp:425] inception_4e/output <- inception_4e/pool_proj
I0403 15:44:56.358086 20233 net.cpp:399] inception_4e/output -> inception_4e/output
I0403 15:44:56.358139 20233 net.cpp:141] Setting up inception_4e/output
I0403 15:44:56.358162 20233 net.cpp:148] Top shape: 24 832 14 14 (3913728)
I0403 15:44:56.358176 20233 net.cpp:156] Memory required for data: 1272557088
I0403 15:44:56.358191 20233 layer_factory.hpp:77] Creating layer pool4/3x3_s2
I0403 15:44:56.358208 20233 net.cpp:91] Creating Layer pool4/3x3_s2
I0403 15:44:56.358223 20233 net.cpp:425] pool4/3x3_s2 <- inception_4e/output
I0403 15:44:56.358244 20233 net.cpp:399] pool4/3x3_s2 -> pool4/3x3_s2
I0403 15:44:56.358314 20233 net.cpp:141] Setting up pool4/3x3_s2
I0403 15:44:56.358340 20233 net.cpp:148] Top shape: 24 832 7 7 (978432)
I0403 15:44:56.358355 20233 net.cpp:156] Memory required for data: 1276470816
I0403 15:44:56.358369 20233 layer_factory.hpp:77] Creating layer pool4/3x3_s2_pool4/3x3_s2_0_split
I0403 15:44:56.358386 20233 net.cpp:91] Creating Layer pool4/3x3_s2_pool4/3x3_s2_0_split
I0403 15:44:56.358402 20233 net.cpp:425] pool4/3x3_s2_pool4/3x3_s2_0_split <- pool4/3x3_s2
I0403 15:44:56.358419 20233 net.cpp:399] pool4/3x3_s2_pool4/3x3_s2_0_split -> pool4/3x3_s2_pool4/3x3_s2_0_split_0
I0403 15:44:56.358440 20233 net.cpp:399] pool4/3x3_s2_pool4/3x3_s2_0_split -> pool4/3x3_s2_pool4/3x3_s2_0_split_1
I0403 15:44:56.358461 20233 net.cpp:399] pool4/3x3_s2_pool4/3x3_s2_0_split -> pool4/3x3_s2_pool4/3x3_s2_0_split_2
I0403 15:44:56.358481 20233 net.cpp:399] pool4/3x3_s2_pool4/3x3_s2_0_split -> pool4/3x3_s2_pool4/3x3_s2_0_split_3
I0403 15:44:56.358574 20233 net.cpp:141] Setting up pool4/3x3_s2_pool4/3x3_s2_0_split
I0403 15:44:56.358597 20233 net.cpp:148] Top shape: 24 832 7 7 (978432)
I0403 15:44:56.358613 20233 net.cpp:148] Top shape: 24 832 7 7 (978432)
I0403 15:44:56.358628 20233 net.cpp:148] Top shape: 24 832 7 7 (978432)
I0403 15:44:56.358644 20233 net.cpp:148] Top shape: 24 832 7 7 (978432)
I0403 15:44:56.358657 20233 net.cpp:156] Memory required for data: 1292125728
I0403 15:44:56.358671 20233 layer_factory.hpp:77] Creating layer inception_5a/1x1
I0403 15:44:56.358693 20233 net.cpp:91] Creating Layer inception_5a/1x1
I0403 15:44:56.358711 20233 net.cpp:425] inception_5a/1x1 <- pool4/3x3_s2_pool4/3x3_s2_0_split_0
I0403 15:44:56.358733 20233 net.cpp:399] inception_5a/1x1 -> inception_5a/1x1
I0403 15:44:56.361618 20233 net.cpp:141] Setting up inception_5a/1x1
I0403 15:44:56.361649 20233 net.cpp:148] Top shape: 24 256 7 7 (301056)
I0403 15:44:56.361663 20233 net.cpp:156] Memory required for data: 1293329952
I0403 15:44:56.361682 20233 layer_factory.hpp:77] Creating layer inception_5a/relu_1x1
I0403 15:44:56.361704 20233 net.cpp:91] Creating Layer inception_5a/relu_1x1
I0403 15:44:56.361721 20233 net.cpp:425] inception_5a/relu_1x1 <- inception_5a/1x1
I0403 15:44:56.361737 20233 net.cpp:386] inception_5a/relu_1x1 -> inception_5a/1x1 (in-place)
I0403 15:44:56.362066 20233 net.cpp:141] Setting up inception_5a/relu_1x1
I0403 15:44:56.362094 20233 net.cpp:148] Top shape: 24 256 7 7 (301056)
I0403 15:44:56.362109 20233 net.cpp:156] Memory required for data: 1294534176
I0403 15:44:56.362124 20233 layer_factory.hpp:77] Creating layer inception_5a/3x3_reduce
I0403 15:44:56.362148 20233 net.cpp:91] Creating Layer inception_5a/3x3_reduce
I0403 15:44:56.362164 20233 net.cpp:425] inception_5a/3x3_reduce <- pool4/3x3_s2_pool4/3x3_s2_0_split_1
I0403 15:44:56.362185 20233 net.cpp:399] inception_5a/3x3_reduce -> inception_5a/3x3_reduce
I0403 15:44:56.364661 20233 net.cpp:141] Setting up inception_5a/3x3_reduce
I0403 15:44:56.364692 20233 net.cpp:148] Top shape: 24 160 7 7 (188160)
I0403 15:44:56.364709 20233 net.cpp:156] Memory required for data: 1295286816
I0403 15:44:56.364728 20233 layer_factory.hpp:77] Creating layer inception_5a/relu_3x3_reduce
I0403 15:44:56.364749 20233 net.cpp:91] Creating Layer inception_5a/relu_3x3_reduce
I0403 15:44:56.364766 20233 net.cpp:425] inception_5a/relu_3x3_reduce <- inception_5a/3x3_reduce
I0403 15:44:56.364784 20233 net.cpp:386] inception_5a/relu_3x3_reduce -> inception_5a/3x3_reduce (in-place)
I0403 15:44:56.364972 20233 net.cpp:141] Setting up inception_5a/relu_3x3_reduce
I0403 15:44:56.365002 20233 net.cpp:148] Top shape: 24 160 7 7 (188160)
I0403 15:44:56.365018 20233 net.cpp:156] Memory required for data: 1296039456
I0403 15:44:56.365034 20233 layer_factory.hpp:77] Creating layer inception_5a/3x3
I0403 15:44:56.365058 20233 net.cpp:91] Creating Layer inception_5a/3x3
I0403 15:44:56.365077 20233 net.cpp:425] inception_5a/3x3 <- inception_5a/3x3_reduce
I0403 15:44:56.365097 20233 net.cpp:399] inception_5a/3x3 -> inception_5a/3x3
I0403 15:44:56.370170 20233 net.cpp:141] Setting up inception_5a/3x3
I0403 15:44:56.370203 20233 net.cpp:148] Top shape: 24 320 7 7 (376320)
I0403 15:44:56.370223 20233 net.cpp:156] Memory required for data: 1297544736
I0403 15:44:56.370241 20233 layer_factory.hpp:77] Creating layer inception_5a/relu_3x3
I0403 15:44:56.370260 20233 net.cpp:91] Creating Layer inception_5a/relu_3x3
I0403 15:44:56.370277 20233 net.cpp:425] inception_5a/relu_3x3 <- inception_5a/3x3
I0403 15:44:56.370307 20233 net.cpp:386] inception_5a/relu_3x3 -> inception_5a/3x3 (in-place)
I0403 15:44:56.370605 20233 net.cpp:141] Setting up inception_5a/relu_3x3
I0403 15:44:56.370633 20233 net.cpp:148] Top shape: 24 320 7 7 (376320)
I0403 15:44:56.370648 20233 net.cpp:156] Memory required for data: 1299050016
I0403 15:44:56.370663 20233 layer_factory.hpp:77] Creating layer inception_5a/5x5_reduce
I0403 15:44:56.370683 20233 net.cpp:91] Creating Layer inception_5a/5x5_reduce
I0403 15:44:56.370700 20233 net.cpp:425] inception_5a/5x5_reduce <- pool4/3x3_s2_pool4/3x3_s2_0_split_2
I0403 15:44:56.370720 20233 net.cpp:399] inception_5a/5x5_reduce -> inception_5a/5x5_reduce
I0403 15:44:56.371887 20233 net.cpp:141] Setting up inception_5a/5x5_reduce
I0403 15:44:56.371918 20233 net.cpp:148] Top shape: 24 32 7 7 (37632)
I0403 15:44:56.371935 20233 net.cpp:156] Memory required for data: 1299200544
I0403 15:44:56.371953 20233 layer_factory.hpp:77] Creating layer inception_5a/relu_5x5_reduce
I0403 15:44:56.371970 20233 net.cpp:91] Creating Layer inception_5a/relu_5x5_reduce
I0403 15:44:56.371990 20233 net.cpp:425] inception_5a/relu_5x5_reduce <- inception_5a/5x5_reduce
I0403 15:44:56.372011 20233 net.cpp:386] inception_5a/relu_5x5_reduce -> inception_5a/5x5_reduce (in-place)
I0403 15:44:56.372309 20233 net.cpp:141] Setting up inception_5a/relu_5x5_reduce
I0403 15:44:56.372337 20233 net.cpp:148] Top shape: 24 32 7 7 (37632)
I0403 15:44:56.372352 20233 net.cpp:156] Memory required for data: 1299351072
I0403 15:44:56.372367 20233 layer_factory.hpp:77] Creating layer inception_5a/5x5
I0403 15:44:56.372388 20233 net.cpp:91] Creating Layer inception_5a/5x5
I0403 15:44:56.372406 20233 net.cpp:425] inception_5a/5x5 <- inception_5a/5x5_reduce
I0403 15:44:56.372424 20233 net.cpp:399] inception_5a/5x5 -> inception_5a/5x5
I0403 15:44:56.374169 20233 net.cpp:141] Setting up inception_5a/5x5
I0403 15:44:56.374210 20233 net.cpp:148] Top shape: 24 128 7 7 (150528)
I0403 15:44:56.374230 20233 net.cpp:156] Memory required for data: 1299953184
I0403 15:44:56.374250 20233 layer_factory.hpp:77] Creating layer inception_5a/relu_5x5
I0403 15:44:56.374269 20233 net.cpp:91] Creating Layer inception_5a/relu_5x5
I0403 15:44:56.374285 20233 net.cpp:425] inception_5a/relu_5x5 <- inception_5a/5x5
I0403 15:44:56.374302 20233 net.cpp:386] inception_5a/relu_5x5 -> inception_5a/5x5 (in-place)
I0403 15:44:56.374495 20233 net.cpp:141] Setting up inception_5a/relu_5x5
I0403 15:44:56.374524 20233 net.cpp:148] Top shape: 24 128 7 7 (150528)
I0403 15:44:56.374539 20233 net.cpp:156] Memory required for data: 1300555296
I0403 15:44:56.374554 20233 layer_factory.hpp:77] Creating layer inception_5a/pool
I0403 15:44:56.374572 20233 net.cpp:91] Creating Layer inception_5a/pool
I0403 15:44:56.374588 20233 net.cpp:425] inception_5a/pool <- pool4/3x3_s2_pool4/3x3_s2_0_split_3
I0403 15:44:56.374608 20233 net.cpp:399] inception_5a/pool -> inception_5a/pool
I0403 15:44:56.374681 20233 net.cpp:141] Setting up inception_5a/pool
I0403 15:44:56.374708 20233 net.cpp:148] Top shape: 24 832 7 7 (978432)
I0403 15:44:56.374722 20233 net.cpp:156] Memory required for data: 1304469024
I0403 15:44:56.374737 20233 layer_factory.hpp:77] Creating layer inception_5a/pool_proj
I0403 15:44:56.374757 20233 net.cpp:91] Creating Layer inception_5a/pool_proj
I0403 15:44:56.374773 20233 net.cpp:425] inception_5a/pool_proj <- inception_5a/pool
I0403 15:44:56.374794 20233 net.cpp:399] inception_5a/pool_proj -> inception_5a/pool_proj
I0403 15:44:56.377115 20233 net.cpp:141] Setting up inception_5a/pool_proj
I0403 15:44:56.377146 20233 net.cpp:148] Top shape: 24 128 7 7 (150528)
I0403 15:44:56.377161 20233 net.cpp:156] Memory required for data: 1305071136
I0403 15:44:56.377180 20233 layer_factory.hpp:77] Creating layer inception_5a/relu_pool_proj
I0403 15:44:56.377200 20233 net.cpp:91] Creating Layer inception_5a/relu_pool_proj
I0403 15:44:56.377218 20233 net.cpp:425] inception_5a/relu_pool_proj <- inception_5a/pool_proj
I0403 15:44:56.377234 20233 net.cpp:386] inception_5a/relu_pool_proj -> inception_5a/pool_proj (in-place)
I0403 15:44:56.377533 20233 net.cpp:141] Setting up inception_5a/relu_pool_proj
I0403 15:44:56.377560 20233 net.cpp:148] Top shape: 24 128 7 7 (150528)
I0403 15:44:56.377575 20233 net.cpp:156] Memory required for data: 1305673248
I0403 15:44:56.377590 20233 layer_factory.hpp:77] Creating layer inception_5a/output
I0403 15:44:56.377609 20233 net.cpp:91] Creating Layer inception_5a/output
I0403 15:44:56.377626 20233 net.cpp:425] inception_5a/output <- inception_5a/1x1
I0403 15:44:56.377642 20233 net.cpp:425] inception_5a/output <- inception_5a/3x3
I0403 15:44:56.377658 20233 net.cpp:425] inception_5a/output <- inception_5a/5x5
I0403 15:44:56.377672 20233 net.cpp:425] inception_5a/output <- inception_5a/pool_proj
I0403 15:44:56.377689 20233 net.cpp:399] inception_5a/output -> inception_5a/output
I0403 15:44:56.377740 20233 net.cpp:141] Setting up inception_5a/output
I0403 15:44:56.377763 20233 net.cpp:148] Top shape: 24 832 7 7 (978432)
I0403 15:44:56.377777 20233 net.cpp:156] Memory required for data: 1309586976
I0403 15:44:56.377791 20233 layer_factory.hpp:77] Creating layer inception_5a/output_inception_5a/output_0_split
I0403 15:44:56.377809 20233 net.cpp:91] Creating Layer inception_5a/output_inception_5a/output_0_split
I0403 15:44:56.377823 20233 net.cpp:425] inception_5a/output_inception_5a/output_0_split <- inception_5a/output
I0403 15:44:56.377842 20233 net.cpp:399] inception_5a/output_inception_5a/output_0_split -> inception_5a/output_inception_5a/output_0_split_0
I0403 15:44:56.377863 20233 net.cpp:399] inception_5a/output_inception_5a/output_0_split -> inception_5a/output_inception_5a/output_0_split_1
I0403 15:44:56.377882 20233 net.cpp:399] inception_5a/output_inception_5a/output_0_split -> inception_5a/output_inception_5a/output_0_split_2
I0403 15:44:56.377902 20233 net.cpp:399] inception_5a/output_inception_5a/output_0_split -> inception_5a/output_inception_5a/output_0_split_3
I0403 15:44:56.378020 20233 net.cpp:141] Setting up inception_5a/output_inception_5a/output_0_split
I0403 15:44:56.378048 20233 net.cpp:148] Top shape: 24 832 7 7 (978432)
I0403 15:44:56.378065 20233 net.cpp:148] Top shape: 24 832 7 7 (978432)
I0403 15:44:56.378079 20233 net.cpp:148] Top shape: 24 832 7 7 (978432)
I0403 15:44:56.378094 20233 net.cpp:148] Top shape: 24 832 7 7 (978432)
I0403 15:44:56.378108 20233 net.cpp:156] Memory required for data: 1325241888
I0403 15:44:56.378121 20233 layer_factory.hpp:77] Creating layer inception_5b/1x1
I0403 15:44:56.378144 20233 net.cpp:91] Creating Layer inception_5b/1x1
I0403 15:44:56.378160 20233 net.cpp:425] inception_5b/1x1 <- inception_5a/output_inception_5a/output_0_split_0
I0403 15:44:56.378180 20233 net.cpp:399] inception_5b/1x1 -> inception_5b/1x1
I0403 15:44:56.381955 20233 net.cpp:141] Setting up inception_5b/1x1
I0403 15:44:56.381989 20233 net.cpp:148] Top shape: 24 384 7 7 (451584)
I0403 15:44:56.382007 20233 net.cpp:156] Memory required for data: 1327048224
I0403 15:44:56.382026 20233 layer_factory.hpp:77] Creating layer inception_5b/relu_1x1
I0403 15:44:56.382047 20233 net.cpp:91] Creating Layer inception_5b/relu_1x1
I0403 15:44:56.382064 20233 net.cpp:425] inception_5b/relu_1x1 <- inception_5b/1x1
I0403 15:44:56.382082 20233 net.cpp:386] inception_5b/relu_1x1 -> inception_5b/1x1 (in-place)
I0403 15:44:56.382387 20233 net.cpp:141] Setting up inception_5b/relu_1x1
I0403 15:44:56.382414 20233 net.cpp:148] Top shape: 24 384 7 7 (451584)
I0403 15:44:56.382428 20233 net.cpp:156] Memory required for data: 1328854560
I0403 15:44:56.382443 20233 layer_factory.hpp:77] Creating layer inception_5b/3x3_reduce
I0403 15:44:56.382465 20233 net.cpp:91] Creating Layer inception_5b/3x3_reduce
I0403 15:44:56.382483 20233 net.cpp:425] inception_5b/3x3_reduce <- inception_5a/output_inception_5a/output_0_split_1
I0403 15:44:56.382503 20233 net.cpp:399] inception_5b/3x3_reduce -> inception_5b/3x3_reduce
I0403 15:44:56.385164 20233 net.cpp:141] Setting up inception_5b/3x3_reduce
I0403 15:44:56.385195 20233 net.cpp:148] Top shape: 24 192 7 7 (225792)
I0403 15:44:56.385210 20233 net.cpp:156] Memory required for data: 1329757728
I0403 15:44:56.385227 20233 layer_factory.hpp:77] Creating layer inception_5b/relu_3x3_reduce
I0403 15:44:56.385251 20233 net.cpp:91] Creating Layer inception_5b/relu_3x3_reduce
I0403 15:44:56.385268 20233 net.cpp:425] inception_5b/relu_3x3_reduce <- inception_5b/3x3_reduce
I0403 15:44:56.385287 20233 net.cpp:386] inception_5b/relu_3x3_reduce -> inception_5b/3x3_reduce (in-place)
I0403 15:44:56.385480 20233 net.cpp:141] Setting up inception_5b/relu_3x3_reduce
I0403 15:44:56.385509 20233 net.cpp:148] Top shape: 24 192 7 7 (225792)
I0403 15:44:56.385524 20233 net.cpp:156] Memory required for data: 1330660896
I0403 15:44:56.385538 20233 layer_factory.hpp:77] Creating layer inception_5b/3x3
I0403 15:44:56.385560 20233 net.cpp:91] Creating Layer inception_5b/3x3
I0403 15:44:56.385577 20233 net.cpp:425] inception_5b/3x3 <- inception_5b/3x3_reduce
I0403 15:44:56.385596 20233 net.cpp:399] inception_5b/3x3 -> inception_5b/3x3
I0403 15:44:56.392307 20233 net.cpp:141] Setting up inception_5b/3x3
I0403 15:44:56.392336 20233 net.cpp:148] Top shape: 24 384 7 7 (451584)
I0403 15:44:56.392352 20233 net.cpp:156] Memory required for data: 1332467232
I0403 15:44:56.392372 20233 layer_factory.hpp:77] Creating layer inception_5b/relu_3x3
I0403 15:44:56.392393 20233 net.cpp:91] Creating Layer inception_5b/relu_3x3
I0403 15:44:56.392411 20233 net.cpp:425] inception_5b/relu_3x3 <- inception_5b/3x3
I0403 15:44:56.392431 20233 net.cpp:386] inception_5b/relu_3x3 -> inception_5b/3x3 (in-place)
I0403 15:44:56.392735 20233 net.cpp:141] Setting up inception_5b/relu_3x3
I0403 15:44:56.392760 20233 net.cpp:148] Top shape: 24 384 7 7 (451584)
I0403 15:44:56.392774 20233 net.cpp:156] Memory required for data: 1334273568
I0403 15:44:56.392789 20233 layer_factory.hpp:77] Creating layer inception_5b/5x5_reduce
I0403 15:44:56.392827 20233 net.cpp:91] Creating Layer inception_5b/5x5_reduce
I0403 15:44:56.392846 20233 net.cpp:425] inception_5b/5x5_reduce <- inception_5a/output_inception_5a/output_0_split_2
I0403 15:44:56.392868 20233 net.cpp:399] inception_5b/5x5_reduce -> inception_5b/5x5_reduce
I0403 15:44:56.394148 20233 net.cpp:141] Setting up inception_5b/5x5_reduce
I0403 15:44:56.394177 20233 net.cpp:148] Top shape: 24 48 7 7 (56448)
I0403 15:44:56.394192 20233 net.cpp:156] Memory required for data: 1334499360
I0403 15:44:56.394212 20233 layer_factory.hpp:77] Creating layer inception_5b/relu_5x5_reduce
I0403 15:44:56.394232 20233 net.cpp:91] Creating Layer inception_5b/relu_5x5_reduce
I0403 15:44:56.394249 20233 net.cpp:425] inception_5b/relu_5x5_reduce <- inception_5b/5x5_reduce
I0403 15:44:56.394266 20233 net.cpp:386] inception_5b/relu_5x5_reduce -> inception_5b/5x5_reduce (in-place)
I0403 15:44:56.394644 20233 net.cpp:141] Setting up inception_5b/relu_5x5_reduce
I0403 15:44:56.394670 20233 net.cpp:148] Top shape: 24 48 7 7 (56448)
I0403 15:44:56.394685 20233 net.cpp:156] Memory required for data: 1334725152
I0403 15:44:56.394701 20233 layer_factory.hpp:77] Creating layer inception_5b/5x5
I0403 15:44:56.394721 20233 net.cpp:91] Creating Layer inception_5b/5x5
I0403 15:44:56.394737 20233 net.cpp:425] inception_5b/5x5 <- inception_5b/5x5_reduce
I0403 15:44:56.394755 20233 net.cpp:399] inception_5b/5x5 -> inception_5b/5x5
I0403 15:44:56.396844 20233 net.cpp:141] Setting up inception_5b/5x5
I0403 15:44:56.396873 20233 net.cpp:148] Top shape: 24 128 7 7 (150528)
I0403 15:44:56.396889 20233 net.cpp:156] Memory required for data: 1335327264
I0403 15:44:56.396908 20233 layer_factory.hpp:77] Creating layer inception_5b/relu_5x5
I0403 15:44:56.396929 20233 net.cpp:91] Creating Layer inception_5b/relu_5x5
I0403 15:44:56.396945 20233 net.cpp:425] inception_5b/relu_5x5 <- inception_5b/5x5
I0403 15:44:56.396962 20233 net.cpp:386] inception_5b/relu_5x5 -> inception_5b/5x5 (in-place)
I0403 15:44:56.397159 20233 net.cpp:141] Setting up inception_5b/relu_5x5
I0403 15:44:56.397186 20233 net.cpp:148] Top shape: 24 128 7 7 (150528)
I0403 15:44:56.397199 20233 net.cpp:156] Memory required for data: 1335929376
I0403 15:44:56.397213 20233 layer_factory.hpp:77] Creating layer inception_5b/pool
I0403 15:44:56.397231 20233 net.cpp:91] Creating Layer inception_5b/pool
I0403 15:44:56.397248 20233 net.cpp:425] inception_5b/pool <- inception_5a/output_inception_5a/output_0_split_3
I0403 15:44:56.397269 20233 net.cpp:399] inception_5b/pool -> inception_5b/pool
I0403 15:44:56.397343 20233 net.cpp:141] Setting up inception_5b/pool
I0403 15:44:56.397367 20233 net.cpp:148] Top shape: 24 832 7 7 (978432)
I0403 15:44:56.397380 20233 net.cpp:156] Memory required for data: 1339843104
I0403 15:44:56.397394 20233 layer_factory.hpp:77] Creating layer inception_5b/pool_proj
I0403 15:44:56.397418 20233 net.cpp:91] Creating Layer inception_5b/pool_proj
I0403 15:44:56.397434 20233 net.cpp:425] inception_5b/pool_proj <- inception_5b/pool
I0403 15:44:56.397452 20233 net.cpp:399] inception_5b/pool_proj -> inception_5b/pool_proj
I0403 15:44:56.399761 20233 net.cpp:141] Setting up inception_5b/pool_proj
I0403 15:44:56.399792 20233 net.cpp:148] Top shape: 24 128 7 7 (150528)
I0403 15:44:56.399808 20233 net.cpp:156] Memory required for data: 1340445216
I0403 15:44:56.399827 20233 layer_factory.hpp:77] Creating layer inception_5b/relu_pool_proj
I0403 15:44:56.399847 20233 net.cpp:91] Creating Layer inception_5b/relu_pool_proj
I0403 15:44:56.399865 20233 net.cpp:425] inception_5b/relu_pool_proj <- inception_5b/pool_proj
I0403 15:44:56.399884 20233 net.cpp:386] inception_5b/relu_pool_proj -> inception_5b/pool_proj (in-place)
I0403 15:44:56.400207 20233 net.cpp:141] Setting up inception_5b/relu_pool_proj
I0403 15:44:56.400234 20233 net.cpp:148] Top shape: 24 128 7 7 (150528)
I0403 15:44:56.400250 20233 net.cpp:156] Memory required for data: 1341047328
I0403 15:44:56.400265 20233 layer_factory.hpp:77] Creating layer inception_5b/output
I0403 15:44:56.400297 20233 net.cpp:91] Creating Layer inception_5b/output
I0403 15:44:56.400327 20233 net.cpp:425] inception_5b/output <- inception_5b/1x1
I0403 15:44:56.400346 20233 net.cpp:425] inception_5b/output <- inception_5b/3x3
I0403 15:44:56.400360 20233 net.cpp:425] inception_5b/output <- inception_5b/5x5
I0403 15:44:56.400377 20233 net.cpp:425] inception_5b/output <- inception_5b/pool_proj
I0403 15:44:56.400393 20233 net.cpp:399] inception_5b/output -> inception_5b/output
I0403 15:44:56.400445 20233 net.cpp:141] Setting up inception_5b/output
I0403 15:44:56.400470 20233 net.cpp:148] Top shape: 24 1024 7 7 (1204224)
I0403 15:44:56.400483 20233 net.cpp:156] Memory required for data: 1345864224
I0403 15:44:56.400498 20233 layer_factory.hpp:77] Creating layer pool5/7x7_s1
I0403 15:44:56.400514 20233 net.cpp:91] Creating Layer pool5/7x7_s1
I0403 15:44:56.400530 20233 net.cpp:425] pool5/7x7_s1 <- inception_5b/output
I0403 15:44:56.400550 20233 net.cpp:399] pool5/7x7_s1 -> pool5/7x7_s1
I0403 15:44:56.400794 20233 net.cpp:141] Setting up pool5/7x7_s1
I0403 15:44:56.400820 20233 net.cpp:148] Top shape: 24 1024 1 1 (24576)
I0403 15:44:56.400836 20233 net.cpp:156] Memory required for data: 1345962528
I0403 15:44:56.400851 20233 layer_factory.hpp:77] Creating layer pool5/drop_7x7_s1
I0403 15:44:56.400868 20233 net.cpp:91] Creating Layer pool5/drop_7x7_s1
I0403 15:44:56.400883 20233 net.cpp:425] pool5/drop_7x7_s1 <- pool5/7x7_s1
I0403 15:44:56.400900 20233 net.cpp:386] pool5/drop_7x7_s1 -> pool5/7x7_s1 (in-place)
I0403 15:44:56.400951 20233 net.cpp:141] Setting up pool5/drop_7x7_s1
I0403 15:44:56.400974 20233 net.cpp:148] Top shape: 24 1024 1 1 (24576)
I0403 15:44:56.400992 20233 net.cpp:156] Memory required for data: 1346060832
I0403 15:44:56.401008 20233 layer_factory.hpp:77] Creating layer loss3/classifier_plantvillage
I0403 15:44:56.401029 20233 net.cpp:91] Creating Layer loss3/classifier_plantvillage
I0403 15:44:56.401046 20233 net.cpp:425] loss3/classifier_plantvillage <- pool5/7x7_s1
I0403 15:44:56.401063 20233 net.cpp:399] loss3/classifier_plantvillage -> loss3/classifier_plantvillage
I0403 15:44:56.401487 20233 net.cpp:141] Setting up loss3/classifier_plantvillage
I0403 15:44:56.401525 20233 net.cpp:148] Top shape: 24 38 (912)
I0403 15:44:56.401540 20233 net.cpp:156] Memory required for data: 1346064480
I0403 15:44:56.401558 20233 layer_factory.hpp:77] Creating layer loss3/classifier_plantvillage_loss3/classifier_plantvillage_0_split
I0403 15:44:56.401576 20233 net.cpp:91] Creating Layer loss3/classifier_plantvillage_loss3/classifier_plantvillage_0_split
I0403 15:44:56.401592 20233 net.cpp:425] loss3/classifier_plantvillage_loss3/classifier_plantvillage_0_split <- loss3/classifier_plantvillage
I0403 15:44:56.401613 20233 net.cpp:399] loss3/classifier_plantvillage_loss3/classifier_plantvillage_0_split -> loss3/classifier_plantvillage_loss3/classifier_plantvillage_0_split_0
I0403 15:44:56.401634 20233 net.cpp:399] loss3/classifier_plantvillage_loss3/classifier_plantvillage_0_split -> loss3/classifier_plantvillage_loss3/classifier_plantvillage_0_split_1
I0403 15:44:56.401654 20233 net.cpp:399] loss3/classifier_plantvillage_loss3/classifier_plantvillage_0_split -> loss3/classifier_plantvillage_loss3/classifier_plantvillage_0_split_2
I0403 15:44:56.401674 20233 net.cpp:399] loss3/classifier_plantvillage_loss3/classifier_plantvillage_0_split -> loss3/classifier_plantvillage_loss3/classifier_plantvillage_0_split_3
I0403 15:44:56.401778 20233 net.cpp:141] Setting up loss3/classifier_plantvillage_loss3/classifier_plantvillage_0_split
I0403 15:44:56.401805 20233 net.cpp:148] Top shape: 24 38 (912)
I0403 15:44:56.401823 20233 net.cpp:148] Top shape: 24 38 (912)
I0403 15:44:56.401839 20233 net.cpp:148] Top shape: 24 38 (912)
I0403 15:44:56.401854 20233 net.cpp:148] Top shape: 24 38 (912)
I0403 15:44:56.401867 20233 net.cpp:156] Memory required for data: 1346079072
I0403 15:44:56.401881 20233 layer_factory.hpp:77] Creating layer loss1/loss
I0403 15:44:56.401904 20233 net.cpp:91] Creating Layer loss1/loss
I0403 15:44:56.401921 20233 net.cpp:425] loss1/loss <- loss1/classifier_plantvillage_loss1/classifier_plantvillage_0_split_0
I0403 15:44:56.401953 20233 net.cpp:425] loss1/loss <- label_data_1_split_0
…
