…
I0403 15:12:07.035928 18431 net.cpp:313] The NetState phase (1) differed from the phase (0) specified by a rule in layer data
I0403 15:12:07.037086 18431 net.cpp:49] Initializing net from parameters: 
state {
  phase: TEST
}
layer {
  name: "data"
  type: "Data"
  top: "data"
  top: "label"
  include {
    phase: TEST
  }
  transform_param {
    mirror: false
    crop_size: 224
    mean_file: "/home/mohanty/data/final_dataset/lmdb/grayscale-40-60/mean.binaryproto"
  }
  data_param {
    source: "/home/mohanty/data/final_dataset/lmdb/grayscale-40-60/test_db"
    batch_size: 24
    backend: LMDB
  }
}
layer {
  name: "conv1/7x7_s2"
  type: "Convolution"
  bottom: "data"
  top: "conv1/7x7_s2"
  param {
    lr_mult: 1
    decay_mult: 1
  }
  param {
    lr_mult: 2
    decay_mult: 0
  }
  convolution_param {
    num_output: 64
    pad: 3
    kernel_size: 7
    stride: 2
    weight_filler {
      type: "xavier"
      std: 0.1
    }
    bias_filler {
      type: "constant"
      value: 0.2
    }
  }
}
layer {
  name: "conv1/relu_7x7"
  type: "ReLU"
  bottom: "conv1/7x7_s2"
  top: "conv1/7x7_s2"
}
layer {
  name: "pool1/3x3_s2"
  type: "Pooling"
  bottom: "conv1/7x7_s2"
  top: "pool1/3x3_s2"
  pooling_param {
    pool: MAX
    kernel_size: 3
    stride: 2
  }
}
layer {
  name: "pool1/norm1"
  type: "LRN"
  bottom: "pool1/3x3_s2"
  top: "pool1/norm1"
  lrn_param {
    local_size: 5
    alpha: 0.0001
    beta: 0.75
  }
}
layer {
  name: "conv2/3x3_reduce"
  type: "Convolution"
  bottom: "pool1/norm1"
  top: "conv2/3x3_reduce"
  param {
    lr_mult: 1
    decay_mult: 1
  }
  param {
    lr_mult: 2
    decay_mult: 0
  }
  convolution_param {
    num_output: 64
    kernel_size: 1
    weight_filler {
      type: "xavier"
      std: 0.1
    }
    bias_filler {
      type: "constant"
      value: 0.2
    }
  }
}
layer {
  name: "conv2/relu_3x3_reduce"
  type: "ReLU"
  bottom: "conv2/3x3_reduce"
  top: "conv2/3x3_reduce"
}
layer {
  name: "conv2/3x3"
  type: "Convolution"
  bottom: "conv2/3x3_reduce"
  top: "conv2/3x3"
  param {
    lr_mult: 1
    decay_mult: 1
  }
  param {
    lr_mult: 2
    decay_mult: 0
  }
  convolution_param {
    num_output: 192
    pad: 1
    kernel_size: 3
    weight_filler {
      type: "xavier"
      std: 0.03
    }
    bias_filler {
      type: "constant"
      value: 0.2
    }
  }
}
layer {
  name: "conv2/relu_3x3"
  type: "ReLU"
  bottom: "conv2/3x3"
  top: "conv2/3x3"
}
layer {
  name: "conv2/norm2"
  type: "LRN"
  bottom: "conv2/3x3"
  top: "conv2/norm2"
  lrn_param {
    local_size: 5
    alpha: 0.0001
    beta: 0.75
  }
}
layer {
  name: "pool2/3x3_s2"
  type: "Pooling"
  bottom: "conv2/norm2"
  top: "pool2/3x3_s2"
  pooling_param {
    pool: MAX
    kernel_size: 3
    stride: 2
  }
}
layer {
  name: "inception_3a/1x1"
  type: "Convolution"
  bottom: "pool2/3x3_s2"
  top: "inception_3a/1x1"
  param {
    lr_mult: 1
    decay_mult: 1
  }
  param {
    lr_mult: 2
    decay_mult: 0
  }
  convolution_param {
    num_output: 64
    kernel_size: 1
    weight_filler {
      type: "xavier"
      std: 0.03
    }
    bias_filler {
      type: "constant"
      value: 0.2
    }
  }
}
layer {
  name: "inception_3a/relu_1x1"
  type: "ReLU"
  bottom: "inception_3a/1x1"
  top: "inception_3a/1x1"
}
layer {
  name: "inception_3a/3x3_reduce"
  type: "Convolution"
  bottom: "pool2/3x3_s2"
  top: "inception_3a/3x3_reduce"
  param {
    lr_mult: 1
    decay_mult: 1
  }
  param {
    lr_mult: 2
    decay_mult: 0
  }
  convolution_param {
    num_output: 96
    kernel_size: 1
    weight_filler {
      type: "xavier"
      std: 0.09
    }
    bias_filler {
      type: "constant"
      value: 0.2
    }
  }
}
layer {
  name: "inception_3a/relu_3x3_reduce"
  type: "ReLU"
  bottom: "inception_3a/3x3_reduce"
  top: "inception_3a/3x3_reduce"
}
layer {
  name: "inception_3a/3x3"
  type: "Convolution"
  bottom: "inception_3a/3x3_reduce"
  top: "inception_3a/3x3"
  param {
    lr_mult: 1
    decay_mult: 1
  }
  param {
    lr_mult: 2
    decay_mult: 0
  }
  convolution_param {
    num_output: 128
    pad: 1
    kernel_size: 3
    weight_filler {
      type: "xavier"
      std: 0.03
    }
    bias_filler {
      type: "constant"
      value: 0.2
    }
  }
}
layer {
  name: "inception_3a/relu_3x3"
  type: "ReLU"
  bottom: "inception_3a/3x3"
  top: "inception_3a/3x3"
}
layer {
  name: "inception_3a/5x5_reduce"
  type: "Convolution"
  bottom: "pool2/3x3_s2"
  top: "inception_3a/5x5_reduce"
  param {
    lr_mult: 1
    decay_mult: 1
  }
  param {
    lr_mult: 2
    decay_mult: 0
  }
  convolution_param {
    num_output: 16
    kernel_size: 1
    weight_filler {
      type: "xavier"
      std: 0.2
    }
    bias_filler {
      type: "constant"
      value: 0.2
    }
  }
}
layer {
  name: "inception_3a/relu_5x5_reduce"
  type: "ReLU"
  bottom: "inception_3a/5x5_reduce"
  top: "inception_3a/5x5_reduce"
}
layer {
  name: "inception_3a/5x5"
  type: "Convolution"
  bottom: "inception_3a/5x5_reduce"
  top: "inception_3a/5x5"
  param {
    lr_mult: 1
    decay_mult: 1
  }
  param {
    lr_mult: 2
    decay_mult: 0
  }
  convolution_param {
    num_output: 32
    pad: 2
    kernel_size: 5
    weight_filler {
      type: "xavier"
      std: 0.03
    }
    bias_filler {
      type: "constant"
      value: 0.2
    }
  }
}
layer {
  name: "inception_3a/relu_5x5"
  type: "ReLU"
  bottom: "inception_3a/5x5"
  top: "inception_3a/5x5"
}
layer {
  name: "inception_3a/pool"
  type: "Pooling"
  bottom: "pool2/3x3_s2"
  top: "inception_3a/pool"
  pooling_param {
    pool: MAX
    kernel_size: 3
    stride: 1
    pad: 1
  }
}
layer {
  name: "inception_3a/pool_proj"
  type: "Convolution"
  bottom: "inception_3a/pool"
  top: "inception_3a/pool_proj"
  param {
    lr_mult: 1
    decay_mult: 1
  }
  param {
    lr_mult: 2
    decay_mult: 0
  }
  convolution_param {
    num_output: 32
    kernel_size: 1
    weight_filler {
      type: "xavier"
      std: 0.1
    }
    bias_filler {
      type: "constant"
      value: 0.2
    }
  }
}
layer {
  name: "inception_3a/relu_pool_proj"
  type: "ReLU"
  bottom: "inception_3a/pool_proj"
  top: "inception_3a/pool_proj"
}
layer {
  name: "inception_3a/output"
  type: "Concat"
  bottom: "inception_3a/1x1"
  bottom: "inception_3a/3x3"
  bottom: "inception_3a/5x5"
  bottom: "inception_3a/pool_proj"
  top: "inception_3a/output"
}
layer {
  name: "inception_3b/1x1"
  type: "Convolution"
  bottom: "inception_3a/output"
  top: "inception_3b/1x1"
  param {
    lr_mult: 1
    decay_mult: 1
  }
  param {
    lr_mult: 2
    decay_mult: 0
  }
  convolution_param {
    num_output: 128
    kernel_size: 1
    weight_filler {
      type: "xavier"
      std: 0.03
    }
    bias_filler {
      type: "constant"
      value: 0.2
    }
  }
}
layer {
  name: "inception_3b/relu_1x1"
  type: "ReLU"
  bottom: "inception_3b/1x1"
  top: "inception_3b/1x1"
}
layer {
  name: "inception_3b/3x3_reduce"
  type: "Convolution"
  bottom: "inception_3a/output"
  top: "inception_3b/3x3_reduce"
  param {
    lr_mult: 1
    decay_mult: 1
  }
  param {
    lr_mult: 2
    decay_mult: 0
  }
  convolution_param {
    num_output: 128
    kernel_size: 1
    weight_filler {
      type: "xavier"
      std: 0.09
    }
    bias_filler {
      type: "constant"
      value: 0.2
    }
  }
}
layer {
  name: "inception_3b/relu_3x3_reduce"
  type: "ReLU"
  bottom: "inception_3b/3x3_reduce"
  top: "inception_3b/3x3_reduce"
}
layer {
  name: "inception_3b/3x3"
  type: "Convolution"
  bottom: "inception_3b/3x3_reduce"
  top: "inception_3b/3x3"
  param {
    lr_mult: 1
    decay_mult: 1
  }
  param {
    lr_mult: 2
    decay_mult: 0
  }
  convolution_param {
    num_output: 192
    pad: 1
    kernel_size: 3
    weight_filler {
      type: "xavier"
      std: 0.03
    }
    bias_filler {
      type: "constant"
      value: 0.2
    }
  }
}
layer {
  name: "inception_3b/relu_3x3"
  type: "ReLU"
  bottom: "inception_3b/3x3"
  top: "inception_3b/3x3"
}
layer {
  name: "inception_3b/5x5_reduce"
  type: "Convolution"
  bottom: "inception_3a/output"
  top: "inception_3b/5x5_reduce"
  param {
    lr_mult: 1
    decay_mult: 1
  }
  param {
    lr_mult: 2
    decay_mult: 0
  }
  convolution_param {
    num_output: 32
    kernel_size: 1
    weight_filler {
      type: "xavier"
      std: 0.2
    }
    bias_filler {
      type: "constant"
      value: 0.2
    }
  }
}
layer {
  name: "inception_3b/relu_5x5_reduce"
  type: "ReLU"
  bottom: "inception_3b/5x5_reduce"
  top: "inception_3b/5x5_reduce"
}
layer {
  name: "inception_3b/5x5"
  type: "Convolution"
  bottom: "inception_3b/5x5_reduce"
  top: "inception_3b/5x5"
  param {
    lr_mult: 1
    decay_mult: 1
  }
  param {
    lr_mult: 2
    decay_mult: 0
  }
  convolution_param {
    num_output: 96
    pad: 2
    kernel_size: 5
    weight_filler {
      type: "xavier"
      std: 0.03
    }
    bias_filler {
      type: "constant"
      value: 0.2
    }
  }
}
layer {
  name: "inception_3b/relu_5x5"
  type: "ReLU"
  bottom: "inception_3b/5x5"
  top: "inception_3b/5x5"
}
layer {
  name: "inception_3b/pool"
  type: "Pooling"
  bottom: "inception_3a/output"
  top: "inception_3b/pool"
  pooling_param {
    pool: MAX
    kernel_size: 3
    stride: 1
    pad: 1
  }
}
layer {
  name: "inception_3b/pool_proj"
  type: "Convolution"
  bottom: "inception_3b/pool"
  top: "inception_3b/pool_proj"
  param {
    lr_mult: 1
    decay_mult: 1
  }
  param {
    lr_mult: 2
    decay_mult: 0
  }
  convolution_param {
    num_output: 64
    kernel_size: 1
    weight_filler {
      type: "xavier"
      std: 0.1
    }
    bias_filler {
      type: "constant"
      value: 0.2
    }
  }
}
layer {
  name: "inception_3b/relu_pool_proj"
  type: "ReLU"
  bottom: "inception_3b/pool_proj"
  top: "inception_3b/pool_proj"
}
layer {
  name: "inception_3b/output"
  type: "Concat"
  bottom: "inception_3b/1x1"
  bottom: "inception_3b/3x3"
  bottom: "inception_3b/5x5"
  bottom: "inception_3b/pool_proj"
  top: "inception_3b/output"
}
layer {
  name: "pool3/3x3_s2"
  type: "Pooling"
  bottom: "inception_3b/output"
  top: "pool3/3x3_s2"
  pooling_param {
    pool: MAX
    kernel_size: 3
    stride: 2
  }
}
layer {
  name: "inception_4a/1x1"
  type: "Convolution"
  bottom: "pool3/3x3_s2"
  top: "inception_4a/1x1"
  param {
    lr_mult: 1
    decay_mult: 1
  }
  param {
    lr_mult: 2
    decay_mult: 0
  }
  convolution_param {
    num_output: 192
    kernel_size: 1
    weight_filler {
      type: "xavier"
      std: 0.03
    }
    bias_filler {
      type: "constant"
      value: 0.2
    }
  }
}
layer {
  name: "inception_4a/relu_1x1"
  type: "ReLU"
  bottom: "inception_4a/1x1"
  top: "inception_4a/1x1"
}
layer {
  name: "inception_4a/3x3_reduce"
  type: "Convolution"
  bottom: "pool3/3x3_s2"
  top: "inception_4a/3x3_reduce"
  param {
    lr_mult: 1
    decay_mult: 1
  }
  param {
    lr_mult: 2
    decay_mult: 0
  }
  convolution_param {
    num_output: 96
    kernel_size: 1
    weight_filler {
      type: "xavier"
      std: 0.09
    }
    bias_filler {
      type: "constant"
      value: 0.2
    }
  }
}
layer {
  name: "inception_4a/relu_3x3_reduce"
  type: "ReLU"
  bottom: "inception_4a/3x3_reduce"
  top: "inception_4a/3x3_reduce"
}
layer {
  name: "inception_4a/3x3"
  type: "Convolution"
  bottom: "inception_4a/3x3_reduce"
  top: "inception_4a/3x3"
  param {
    lr_mult: 1
    decay_mult: 1
  }
  param {
    lr_mult: 2
    decay_mult: 0
  }
  convolution_param {
    num_output: 208
    pad: 1
    kernel_size: 3
    weight_filler {
      type: "xavier"
      std: 0.03
    }
    bias_filler {
      type: "constant"
      value: 0.2
    }
  }
}
layer {
  name: "inception_4a/relu_3x3"
  type: "ReLU"
  bottom: "inception_4a/3x3"
  top: "inception_4a/3x3"
}
layer {
  name: "inception_4a/5x5_reduce"
  type: "Convolution"
  bottom: "pool3/3x3_s2"
  top: "inception_4a/5x5_reduce"
  param {
    lr_mult: 1
    decay_mult: 1
  }
  param {
    lr_mult: 2
    decay_mult: 0
  }
  convolution_param {
    num_output: 16
    kernel_size: 1
    weight_filler {
      type: "xavier"
      std: 0.2
    }
    bias_filler {
      type: "constant"
      value: 0.2
    }
  }
}
layer {
  name: "inception_4a/relu_5x5_reduce"
  type: "ReLU"
  bottom: "inception_4a/5x5_reduce"
  top: "inception_4a/5x5_reduce"
}
layer {
  name: "inception_4a/5x5"
  type: "Convolution"
  bottom: "inception_4a/5x5_reduce"
  top: "inception_4a/5x5"
  param {
    lr_mult: 1
    decay_mult: 1
  }
  param {
    lr_mult: 2
    decay_mult: 0
  }
  convolution_param {
    num_output: 48
    pad: 2
    kernel_size: 5
    weight_filler {
      type: "xavier"
      std: 0.03
    }
    bias_filler {
      type: "constant"
      value: 0.2
    }
  }
}
layer {
  name: "inception_4a/relu_5x5"
  type: "ReLU"
  bottom: "inception_4a/5x5"
  top: "inception_4a/5x5"
}
layer {
  name: "inception_4a/pool"
  type: "Pooling"
  bottom: "pool3/3x3_s2"
  top: "inception_4a/pool"
  pooling_param {
    pool: MAX
    kernel_size: 3
    stride: 1
    pad: 1
  }
}
layer {
  name: "inception_4a/pool_proj"
  type: "Convolution"
  bottom: "inception_4a/pool"
  top: "inception_4a/pool_proj"
  param {
    lr_mult: 1
    decay_mult: 1
  }
  param {
    lr_mult: 2
    decay_mult: 0
  }
  convolution_param {
    num_output: 64
    kernel_size: 1
    weight_filler {
      type: "xavier"
      std: 0.1
    }
    bias_filler {
      type: "constant"
      value: 0.2
    }
  }
}
layer {
  name: "inception_4a/relu_pool_proj"
  type: "ReLU"
  bottom: "inception_4a/pool_proj"
  top: "inception_4a/pool_proj"
}
layer {
  name: "inception_4a/output"
  type: "Concat"
  bottom: "inception_4a/1x1"
  bottom: "inception_4a/3x3"
  bottom: "inception_4a/5x5"
  bottom: "inception_4a/pool_proj"
  top: "inception_4a/output"
}
layer {
  name: "loss1/ave_pool"
  type: "Pooling"
  bottom: "inception_4a/output"
  top: "loss1/ave_pool"
  pooling_param {
    pool: AVE
    kernel_size: 5
    stride: 3
  }
}
layer {
  name: "loss1/conv"
  type: "Convolution"
  bottom: "loss1/ave_pool"
  top: "loss1/conv"
  param {
    lr_mult: 1
    decay_mult: 1
  }
  param {
    lr_mult: 2
    decay_mult: 0
  }
  convolution_param {
    num_output: 128
    kernel_size: 1
    weight_filler {
      type: "xavier"
      std: 0.08
    }
    bias_filler {
      type: "constant"
      value: 0.2
    }
  }
}
layer {
  name: "loss1/relu_conv"
  type: "ReLU"
  bottom: "loss1/conv"
  top: "loss1/conv"
}
layer {
  name: "loss1/fc"
  type: "InnerProduct"
  bottom: "loss1/conv"
  top: "loss1/fc"
  param {
    lr_mult: 1
    decay_mult: 1
  }
  param {
    lr_mult: 2
    decay_mult: 0
  }
  inner_product_param {
    num_output: 1024
    weight_filler {
      type: "xavier"
      std: 0.02
    }
    bias_filler {
      type: "constant"
      value: 0.2
    }
  }
}
layer {
  name: "loss1/relu_fc"
  type: "ReLU"
  bottom: "loss1/fc"
  top: "loss1/fc"
}
layer {
  name: "loss1/drop_fc"
  type: "Dropout"
  bottom: "loss1/fc"
  top: "loss1/fc"
  dropout_param {
    dropout_ratio: 0.7
  }
}
layer {
  name: "loss1/classifier_plantvillage"
  type: "InnerProduct"
  bottom: "loss1/fc"
  top: "loss1/classifier_plantvillage"
  param {
    lr_mult: 1
    decay_mult: 1
  }
  param {
    lr_mult: 2
    decay_mult: 0
  }
  inner_product_param {
    num_output: 38
    weight_filler {
      type: "xavier"
      std: 0.0009765625
    }
    bias_filler {
      type: "constant"
      value: 0
    }
  }
}
layer {
  name: "inception_4b/1x1"
  type: "Convolution"
  bottom: "inception_4a/output"
  top: "inception_4b/1x1"
  param {
    lr_mult: 1
    decay_mult: 1
  }
  param {
    lr_mult: 2
    decay_mult: 0
  }
  convolution_param {
    num_output: 160
    kernel_size: 1
    weight_filler {
      type: "xavier"
      std: 0.03
    }
    bias_filler {
      type: "constant"
      value: 0.2
    }
  }
}
layer {
  name: "inception_4b/relu_1x1"
  type: "ReLU"
  bottom: "inception_4b/1x1"
  top: "inception_4b/1x1"
}
layer {
  name: "inception_4b/3x3_reduce"
  type: "Convolution"
  bottom: "inception_4a/output"
  top: "inception_4b/3x3_reduce"
  param {
    lr_mult: 1
    decay_mult: 1
  }
  param {
    lr_mult: 2
    decay_mult: 0
  }
  convolution_param {
    num_output: 112
    kernel_size: 1
    weight_filler {
      type: "xavier"
      std: 0.09
    }
    bias_filler {
      type: "constant"
      value: 0.2
    }
  }
}
layer {
  name: "inception_4b/relu_3x3_reduce"
  type: "ReLU"
  bottom: "inception_4b/3x3_reduce"
  top: "inception_4b/3x3_reduce"
}
layer {
  name: "inception_4b/3x3"
  type: "Convolution"
  bottom: "inception_4b/3x3_reduce"
  top: "inception_4b/3x3"
  param {
    lr_mult: 1
    decay_mult: 1
  }
  param {
    lr_mult: 2
    decay_mult: 0
  }
  convolution_param {
    num_output: 224
    pad: 1
    kernel_size: 3
    weight_filler {
      type: "xavier"
      std: 0.03
    }
    bias_filler {
      type: "constant"
      value: 0.2
    }
  }
}
layer {
  name: "inception_4b/relu_3x3"
  type: "ReLU"
  bottom: "inception_4b/3x3"
  top: "inception_4b/3x3"
}
layer {
  name: "inception_4b/5x5_reduce"
  type: "Convolution"
  bottom: "inception_4a/output"
  top: "inception_4b/5x5_reduce"
  param {
    lr_mult: 1
    decay_mult: 1
  }
  param {
    lr_mult: 2
    decay_mult: 0
  }
  convolution_param {
    num_output: 24
    kernel_size: 1
    weight_filler {
      type: "xavier"
      std: 0.2
    }
    bias_filler {
      type: "constant"
      value: 0.2
    }
  }
}
layer {
  name: "inception_4b/relu_5x5_reduce"
  type: "ReLU"
  bottom: "inception_4b/5x5_reduce"
  top: "inception_4b/5x5_reduce"
}
layer {
  name: "inception_4b/5x5"
  type: "Convolution"
  bottom: "inception_4b/5x5_reduce"
  top: "inception_4b/5x5"
  param {
    lr_mult: 1
    decay_mult: 1
  }
  param {
    lr_mult: 2
    decay_mult: 0
  }
  convolution_param {
    num_output: 64
    pad: 2
    kernel_size: 5
    weight_filler {
      type: "xavier"
      std: 0.03
    }
    bias_filler {
      type: "constant"
      value: 0.2
    }
  }
}
layer {
  name: "inception_4b/relu_5x5"
  type: "ReLU"
  bottom: "inception_4b/5x5"
  top: "inception_4b/5x5"
}
layer {
  name: "inception_4b/pool"
  type: "Pooling"
  bottom: "inception_4a/output"
  top: "inception_4b/pool"
  pooling_param {
    pool: MAX
    kernel_size: 3
    stride: 1
    pad: 1
  }
}
layer {
  name: "inception_4b/pool_proj"
  type: "Convolution"
  bottom: "inception_4b/pool"
  top: "inception_4b/pool_proj"
  param {
    lr_mult: 1
    decay_mult: 1
  }
  param {
    lr_mult: 2
    decay_mult: 0
  }
  convolution_param {
    num_output: 64
    kernel_size: 1
    weight_filler {
      type: "xavier"
      std: 0.1
    }
    bias_filler {
      type: "constant"
      value: 0.2
    }
  }
}
layer {
  name: "inception_4b/relu_pool_proj"
  type: "ReLU"
  bottom: "inception_4b/pool_proj"
  top: "inception_4b/pool_proj"
}
layer {
  name: "inception_4b/output"
  type: "Concat"
  bottom: "inception_4b/1x1"
  bottom: "inception_4b/3x3"
  bottom: "inception_4b/5x5"
  bottom: "inception_4b/pool_proj"
  top: "inception_4b/output"
}
layer {
  name: "inception_4c/1x1"
  type: "Convolution"
  bottom: "inception_4b/output"
  top: "inception_4c/1x1"
  param {
    lr_mult: 1
    decay_mult: 1
  }
  param {
    lr_mult: 2
    decay_mult: 0
  }
  convolution_param {
    num_output: 128
    kernel_size: 1
    weight_filler {
      type: "xavier"
      std: 0.03
    }
    bias_filler {
      type: "constant"
      value: 0.2
    }
  }
}
layer {
  name: "inception_4c/relu_1x1"
  type: "ReLU"
  bottom: "inception_4c/1x1"
  top: "inception_4c/1x1"
}
layer {
  name: "inception_4c/3x3_reduce"
  type: "Convolution"
  bottom: "inception_4b/output"
  top: "inception_4c/3x3_reduce"
  param {
    lr_mult: 1
    decay_mult: 1
  }
  param {
    lr_mult: 2
    decay_mult: 0
  }
  convolution_param {
    num_output: 128
    kernel_size: 1
    weight_filler {
      type: "xavier"
      std: 0.09
    }
    bias_filler {
      type: "constant"
      value: 0.2
    }
  }
}
layer {
  name: "inception_4c/relu_3x3_reduce"
  type: "ReLU"
  bottom: "inception_4c/3x3_reduce"
  top: "inception_4c/3x3_reduce"
}
layer {
  name: "inception_4c/3x3"
  type: "Convolution"
  bottom: "inception_4c/3x3_reduce"
  top: "inception_4c/3x3"
  param {
    lr_mult: 1
    decay_mult: 1
  }
  param {
    lr_mult: 2
    decay_mult: 0
  }
  convolution_param {
    num_output: 256
    pad: 1
    kernel_size: 3
    weight_filler {
      type: "xavier"
      std: 0.03
    }
    bias_filler {
      type: "constant"
      value: 0.2
    }
  }
}
layer {
  name: "inception_4c/relu_3x3"
  type: "ReLU"
  bottom: "inception_4c/3x3"
  top: "inception_4c/3x3"
}
layer {
  name: "inception_4c/5x5_reduce"
  type: "Convolution"
  bottom: "inception_4b/output"
  top: "inception_4c/5x5_reduce"
  param {
    lr_mult: 1
    decay_mult: 1
  }
  param {
    lr_mult: 2
    decay_mult: 0
  }
  convolution_param {
    num_output: 24
    kernel_size: 1
    weight_filler {
      type: "xavier"
      std: 0.2
    }
    bias_filler {
      type: "constant"
      value: 0.2
    }
  }
}
layer {
  name: "inception_4c/relu_5x5_reduce"
  type: "ReLU"
  bottom: "inception_4c/5x5_reduce"
  top: "inception_4c/5x5_reduce"
}
layer {
  name: "inception_4c/5x5"
  type: "Convolution"
  bottom: "inception_4c/5x5_reduce"
  top: "inception_4c/5x5"
  param {
    lr_mult: 1
    decay_mult: 1
  }
  param {
    lr_mult: 2
    decay_mult: 0
  }
  convolution_param {
    num_output: 64
    pad: 2
    kernel_size: 5
    weight_filler {
      type: "xavier"
      std: 0.03
    }
    bias_filler {
      type: "constant"
      value: 0.2
    }
  }
}
layer {
  name: "inception_4c/relu_5x5"
  type: "ReLU"
  bottom: "inception_4c/5x5"
  top: "inception_4c/5x5"
}
layer {
  name: "inception_4c/pool"
  type: "Pooling"
  bottom: "inception_4b/output"
  top: "inception_4c/pool"
  pooling_param {
    pool: MAX
    kernel_size: 3
    stride: 1
    pad: 1
  }
}
layer {
  name: "inception_4c/pool_proj"
  type: "Convolution"
  bottom: "inception_4c/pool"
  top: "inception_4c/pool_proj"
  param {
    lr_mult: 1
    decay_mult: 1
  }
  param {
    lr_mult: 2
    decay_mult: 0
  }
  convolution_param {
    num_output: 64
    kernel_size: 1
    weight_filler {
      type: "xavier"
      std: 0.1
    }
    bias_filler {
      type: "constant"
      value: 0.2
    }
  }
}
layer {
  name: "inception_4c/relu_pool_proj"
  type: "ReLU"
  bottom: "inception_4c/pool_proj"
  top: "inception_4c/pool_proj"
}
layer {
  name: "inception_4c/output"
  type: "Concat"
  bottom: "inception_4c/1x1"
  bottom: "inception_4c/3x3"
  bottom: "inception_4c/5x5"
  bottom: "inception_4c/pool_proj"
  top: "inception_4c/output"
}
layer {
  name: "inception_4d/1x1"
  type: "Convolution"
  bottom: "inception_4c/output"
  top: "inception_4d/1x1"
  param {
    lr_mult: 1
    decay_mult: 1
  }
  param {
    lr_mult: 2
    decay_mult: 0
  }
  convolution_param {
    num_output: 112
    kernel_size: 1
    weight_filler {
      type: "xavier"
      std: 0.03
    }
    bias_filler {
      type: "constant"
      value: 0.2
    }
  }
}
layer {
  name: "inception_4d/relu_1x1"
  type: "ReLU"
  bottom: "inception_4d/1x1"
  top: "inception_4d/1x1"
}
layer {
  name: "inception_4d/3x3_reduce"
  type: "Convolution"
  bottom: "inception_4c/output"
  top: "inception_4d/3x3_reduce"
  param {
    lr_mult: 1
    decay_mult: 1
  }
  param {
    lr_mult: 2
    decay_mult: 0
  }
  convolution_param {
    num_output: 144
    kernel_size: 1
    weight_filler {
      type: "xavier"
      std: 0.09
    }
    bias_filler {
      type: "constant"
      value: 0.2
    }
  }
}
layer {
  name: "inception_4d/relu_3x3_reduce"
  type: "ReLU"
  bottom: "inception_4d/3x3_reduce"
  top: "inception_4d/3x3_reduce"
}
layer {
  name: "inception_4d/3x3"
  type: "Convolution"
  bottom: "inception_4d/3x3_reduce"
  top: "inception_4d/3x3"
  param {
    lr_mult: 1
    decay_mult: 1
  }
  param {
    lr_mult: 2
    decay_mult: 0
  }
  convolution_param {
    num_output: 288
    pad: 1
    kernel_size: 3
    weight_filler {
      type: "xavier"
      std: 0.03
    }
    bias_filler {
      type: "constant"
      value: 0.2
    }
  }
}
layer {
  name: "inception_4d/relu_3x3"
  type: "ReLU"
  bottom: "inception_4d/3x3"
  top: "inception_4d/3x3"
}
layer {
  name: "inception_4d/5x5_reduce"
  type: "Convolution"
  bottom: "inception_4c/output"
  top: "inception_4d/5x5_reduce"
  param {
    lr_mult: 1
    decay_mult: 1
  }
  param {
    lr_mult: 2
    decay_mult: 0
  }
  convolution_param {
    num_output: 32
    kernel_size: 1
    weight_filler {
      type: "xavier"
      std: 0.2
    }
    bias_filler {
      type: "constant"
      value: 0.2
    }
  }
}
layer {
  name: "inception_4d/relu_5x5_reduce"
  type: "ReLU"
  bottom: "inception_4d/5x5_reduce"
  top: "inception_4d/5x5_reduce"
}
layer {
  name: "inception_4d/5x5"
  type: "Convolution"
  bottom: "inception_4d/5x5_reduce"
  top: "inception_4d/5x5"
  param {
    lr_mult: 1
    decay_mult: 1
  }
  param {
    lr_mult: 2
    decay_mult: 0
  }
  convolution_param {
    num_output: 64
    pad: 2
    kernel_size: 5
    weight_filler {
      type: "xavier"
      std: 0.03
    }
    bias_filler {
      type: "constant"
      value: 0.2
    }
  }
}
layer {
  name: "inception_4d/relu_5x5"
  type: "ReLU"
  bottom: "inception_4d/5x5"
  top: "inception_4d/5x5"
}
layer {
  name: "inception_4d/pool"
  type: "Pooling"
  bottom: "inception_4c/output"
  top: "inception_4d/pool"
  pooling_param {
    pool: MAX
    kernel_size: 3
    stride: 1
    pad: 1
  }
}
layer {
  name: "inception_4d/pool_proj"
  type: "Convolution"
  bottom: "inception_4d/pool"
  top: "inception_4d/pool_proj"
  param {
    lr_mult: 1
    decay_mult: 1
  }
  param {
    lr_mult: 2
    decay_mult: 0
  }
  convolution_param {
    num_output: 64
    kernel_size: 1
    weight_filler {
      type: "xavier"
      std: 0.1
    }
    bias_filler {
      type: "constant"
      value: 0.2
    }
  }
}
layer {
  name: "inception_4d/relu_pool_proj"
  type: "ReLU"
  bottom: "inception_4d/pool_proj"
  top: "inception_4d/pool_proj"
}
layer {
  name: "inception_4d/output"
  type: "Concat"
  bottom: "inception_4d/1x1"
  bottom: "inception_4d/3x3"
  bottom: "inception_4d/5x5"
  bottom: "inception_4d/pool_proj"
  top: "inception_4d/output"
}
layer {
  name: "loss2/ave_pool"
  type: "Pooling"
  bottom: "inception_4d/output"
  top: "loss2/ave_pool"
  pooling_param {
    pool: AVE
    kernel_size: 5
    stride: 3
  }
}
layer {
  name: "loss2/conv"
  type: "Convolution"
  bottom: "loss2/ave_pool"
  top: "loss2/conv"
  param {
    lr_mult: 1
    decay_mult: 1
  }
  param {
    lr_mult: 2
    decay_mult: 0
  }
  convolution_param {
    num_output: 128
    kernel_size: 1
    weight_filler {
      type: "xavier"
      std: 0.08
    }
    bias_filler {
      type: "constant"
      value: 0.2
    }
  }
}
layer {
  name: "loss2/relu_conv"
  type: "ReLU"
  bottom: "loss2/conv"
  top: "loss2/conv"
}
layer {
  name: "loss2/fc"
  type: "InnerProduct"
  bottom: "loss2/conv"
  top: "loss2/fc"
  param {
    lr_mult: 1
    decay_mult: 1
  }
  param {
    lr_mult: 2
    decay_mult: 0
  }
  inner_product_param {
    num_output: 1024
    weight_filler {
      type: "xavier"
      std: 0.02
    }
    bias_filler {
      type: "constant"
      value: 0.2
    }
  }
}
layer {
  name: "loss2/relu_fc"
  type: "ReLU"
  bottom: "loss2/fc"
  top: "loss2/fc"
}
layer {
  name: "loss2/drop_fc"
  type: "Dropout"
  bottom: "loss2/fc"
  top: "loss2/fc"
  dropout_param {
    dropout_ratio: 0.7
  }
}
layer {
  name: "loss2/classifier_plantvillage"
  type: "InnerProduct"
  bottom: "loss2/fc"
  top: "loss2/classifier_plantvillage"
  param {
    lr_mult: 1
    decay_mult: 1
  }
  param {
    lr_mult: 2
    decay_mult: 0
  }
  inner_product_param {
    num_output: 38
    weight_filler {
      type: "xavier"
      std: 0.0009765625
    }
    bias_filler {
      type: "constant"
      value: 0
    }
  }
}
layer {
  name: "inception_4e/1x1"
  type: "Convolution"
  bottom: "inception_4d/output"
  top: "inception_4e/1x1"
  param {
    lr_mult: 1
    decay_mult: 1
  }
  param {
    lr_mult: 2
    decay_mult: 0
  }
  convolution_param {
    num_output: 256
    kernel_size: 1
    weight_filler {
      type: "xavier"
      std: 0.03
    }
    bias_filler {
      type: "constant"
      value: 0.2
    }
  }
}
layer {
  name: "inception_4e/relu_1x1"
  type: "ReLU"
  bottom: "inception_4e/1x1"
  top: "inception_4e/1x1"
}
layer {
  name: "inception_4e/3x3_reduce"
  type: "Convolution"
  bottom: "inception_4d/output"
  top: "inception_4e/3x3_reduce"
  param {
    lr_mult: 1
    decay_mult: 1
  }
  param {
    lr_mult: 2
    decay_mult: 0
  }
  convolution_param {
    num_output: 160
    kernel_size: 1
    weight_filler {
      type: "xavier"
      std: 0.09
    }
    bias_filler {
      type: "constant"
      value: 0.2
    }
  }
}
layer {
  name: "inception_4e/relu_3x3_reduce"
  type: "ReLU"
  bottom: "inception_4e/3x3_reduce"
  top: "inception_4e/3x3_reduce"
}
layer {
  name: "inception_4e/3x3"
  type: "Convolution"
  bottom: "inception_4e/3x3_reduce"
  top: "inception_4e/3x3"
  param {
    lr_mult: 1
    decay_mult: 1
  }
  param {
    lr_mult: 2
    decay_mult: 0
  }
  convolution_param {
    num_output: 320
    pad: 1
    kernel_size: 3
    weight_filler {
      type: "xavier"
      std: 0.03
    }
    bias_filler {
      type: "constant"
      value: 0.2
    }
  }
}
layer {
  name: "inception_4e/relu_3x3"
  type: "ReLU"
  bottom: "inception_4e/3x3"
  top: "inception_4e/3x3"
}
layer {
  name: "inception_4e/5x5_reduce"
  type: "Convolution"
  bottom: "inception_4d/output"
  top: "inception_4e/5x5_reduce"
  param {
    lr_mult: 1
    decay_mult: 1
  }
  param {
    lr_mult: 2
    decay_mult: 0
  }
  convolution_param {
    num_output: 32
    kernel_size: 1
    weight_filler {
      type: "xavier"
      std: 0.2
    }
    bias_filler {
      type: "constant"
      value: 0.2
    }
  }
}
layer {
  name: "inception_4e/relu_5x5_reduce"
  type: "ReLU"
  bottom: "inception_4e/5x5_reduce"
  top: "inception_4e/5x5_reduce"
}
layer {
  name: "inception_4e/5x5"
  type: "Convolution"
  bottom: "inception_4e/5x5_reduce"
  top: "inception_4e/
I0403 15:12:07.038416 18431 layer_factory.hpp:77] Creating layer data
I0403 15:12:07.039079 18431 net.cpp:91] Creating Layer data
I0403 15:12:07.039113 18431 net.cpp:399] data -> data
I0403 15:12:07.039175 18431 net.cpp:399] data -> label
I0403 15:12:07.039213 18431 data_transformer.cpp:25] Loading mean file from: /home/mohanty/data/final_dataset/lmdb/grayscale-40-60/mean.binaryproto
I0403 15:12:07.041826 18433 db_lmdb.cpp:38] Opened lmdb /home/mohanty/data/final_dataset/lmdb/grayscale-40-60/test_db
I0403 15:12:07.052922 18431 data_layer.cpp:41] output data size: 24,3,224,224
I0403 15:12:07.083829 18431 net.cpp:141] Setting up data
I0403 15:12:07.083932 18431 net.cpp:148] Top shape: 24 3 224 224 (3612672)
I0403 15:12:07.083959 18431 net.cpp:148] Top shape: 24 (24)
I0403 15:12:07.083978 18431 net.cpp:156] Memory required for data: 14450784
I0403 15:12:07.084007 18431 layer_factory.hpp:77] Creating layer label_data_1_split
I0403 15:12:07.084035 18431 net.cpp:91] Creating Layer label_data_1_split
I0403 15:12:07.084053 18431 net.cpp:425] label_data_1_split <- label
I0403 15:12:07.084087 18431 net.cpp:399] label_data_1_split -> label_data_1_split_0
I0403 15:12:07.084116 18431 net.cpp:399] label_data_1_split -> label_data_1_split_1
I0403 15:12:07.084137 18431 net.cpp:399] label_data_1_split -> label_data_1_split_2
I0403 15:12:07.084159 18431 net.cpp:399] label_data_1_split -> label_data_1_split_3
I0403 15:12:07.084179 18431 net.cpp:399] label_data_1_split -> label_data_1_split_4
I0403 15:12:07.084198 18431 net.cpp:399] label_data_1_split -> label_data_1_split_5
I0403 15:12:07.084219 18431 net.cpp:399] label_data_1_split -> label_data_1_split_6
I0403 15:12:07.084239 18431 net.cpp:399] label_data_1_split -> label_data_1_split_7
I0403 15:12:07.084259 18431 net.cpp:399] label_data_1_split -> label_data_1_split_8
I0403 15:12:07.084278 18431 net.cpp:399] label_data_1_split -> label_data_1_split_9
I0403 15:12:07.084398 18431 net.cpp:141] Setting up label_data_1_split
I0403 15:12:07.084424 18431 net.cpp:148] Top shape: 24 (24)
I0403 15:12:07.084440 18431 net.cpp:148] Top shape: 24 (24)
I0403 15:12:07.084456 18431 net.cpp:148] Top shape: 24 (24)
I0403 15:12:07.084472 18431 net.cpp:148] Top shape: 24 (24)
I0403 15:12:07.084488 18431 net.cpp:148] Top shape: 24 (24)
I0403 15:12:07.084503 18431 net.cpp:148] Top shape: 24 (24)
I0403 15:12:07.084519 18431 net.cpp:148] Top shape: 24 (24)
I0403 15:12:07.084535 18431 net.cpp:148] Top shape: 24 (24)
I0403 15:12:07.084552 18431 net.cpp:148] Top shape: 24 (24)
I0403 15:12:07.084568 18431 net.cpp:148] Top shape: 24 (24)
I0403 15:12:07.084614 18431 net.cpp:156] Memory required for data: 14451744
I0403 15:12:07.084630 18431 layer_factory.hpp:77] Creating layer conv1/7x7_s2
I0403 15:12:07.084662 18431 net.cpp:91] Creating Layer conv1/7x7_s2
I0403 15:12:07.084681 18431 net.cpp:425] conv1/7x7_s2 <- data
I0403 15:12:07.084700 18431 net.cpp:399] conv1/7x7_s2 -> conv1/7x7_s2
I0403 15:12:07.233186 18431 net.cpp:141] Setting up conv1/7x7_s2
I0403 15:12:07.233302 18431 net.cpp:148] Top shape: 24 64 112 112 (19267584)
I0403 15:12:07.233325 18431 net.cpp:156] Memory required for data: 91522080
I0403 15:12:07.233357 18431 layer_factory.hpp:77] Creating layer conv1/relu_7x7
I0403 15:12:07.233386 18431 net.cpp:91] Creating Layer conv1/relu_7x7
I0403 15:12:07.233404 18431 net.cpp:425] conv1/relu_7x7 <- conv1/7x7_s2
I0403 15:12:07.233424 18431 net.cpp:386] conv1/relu_7x7 -> conv1/7x7_s2 (in-place)
I0403 15:12:07.233690 18431 net.cpp:141] Setting up conv1/relu_7x7
I0403 15:12:07.233717 18431 net.cpp:148] Top shape: 24 64 112 112 (19267584)
I0403 15:12:07.233733 18431 net.cpp:156] Memory required for data: 168592416
I0403 15:12:07.233748 18431 layer_factory.hpp:77] Creating layer pool1/3x3_s2
I0403 15:12:07.233773 18431 net.cpp:91] Creating Layer pool1/3x3_s2
I0403 15:12:07.233791 18431 net.cpp:425] pool1/3x3_s2 <- conv1/7x7_s2
I0403 15:12:07.233810 18431 net.cpp:399] pool1/3x3_s2 -> pool1/3x3_s2
I0403 15:12:07.233886 18431 net.cpp:141] Setting up pool1/3x3_s2
I0403 15:12:07.233911 18431 net.cpp:148] Top shape: 24 64 56 56 (4816896)
I0403 15:12:07.233927 18431 net.cpp:156] Memory required for data: 187860000
I0403 15:12:07.233942 18431 layer_factory.hpp:77] Creating layer pool1/norm1
I0403 15:12:07.233971 18431 net.cpp:91] Creating Layer pool1/norm1
I0403 15:12:07.233990 18431 net.cpp:425] pool1/norm1 <- pool1/3x3_s2
I0403 15:12:07.234009 18431 net.cpp:399] pool1/norm1 -> pool1/norm1
I0403 15:12:07.234300 18431 net.cpp:141] Setting up pool1/norm1
I0403 15:12:07.234328 18431 net.cpp:148] Top shape: 24 64 56 56 (4816896)
I0403 15:12:07.234344 18431 net.cpp:156] Memory required for data: 207127584
I0403 15:12:07.234359 18431 layer_factory.hpp:77] Creating layer conv2/3x3_reduce
I0403 15:12:07.234383 18431 net.cpp:91] Creating Layer conv2/3x3_reduce
I0403 15:12:07.234400 18431 net.cpp:425] conv2/3x3_reduce <- pool1/norm1
I0403 15:12:07.234419 18431 net.cpp:399] conv2/3x3_reduce -> conv2/3x3_reduce
I0403 15:12:07.235878 18431 net.cpp:141] Setting up conv2/3x3_reduce
I0403 15:12:07.235909 18431 net.cpp:148] Top shape: 24 64 56 56 (4816896)
I0403 15:12:07.235925 18431 net.cpp:156] Memory required for data: 226395168
I0403 15:12:07.235947 18431 layer_factory.hpp:77] Creating layer conv2/relu_3x3_reduce
I0403 15:12:07.235977 18431 net.cpp:91] Creating Layer conv2/relu_3x3_reduce
I0403 15:12:07.235996 18431 net.cpp:425] conv2/relu_3x3_reduce <- conv2/3x3_reduce
I0403 15:12:07.236014 18431 net.cpp:386] conv2/relu_3x3_reduce -> conv2/3x3_reduce (in-place)
I0403 15:12:07.236297 18431 net.cpp:141] Setting up conv2/relu_3x3_reduce
I0403 15:12:07.236325 18431 net.cpp:148] Top shape: 24 64 56 56 (4816896)
I0403 15:12:07.236341 18431 net.cpp:156] Memory required for data: 245662752
I0403 15:12:07.236356 18431 layer_factory.hpp:77] Creating layer conv2/3x3
I0403 15:12:07.236382 18431 net.cpp:91] Creating Layer conv2/3x3
I0403 15:12:07.236400 18431 net.cpp:425] conv2/3x3 <- conv2/3x3_reduce
I0403 15:12:07.236420 18431 net.cpp:399] conv2/3x3 -> conv2/3x3
I0403 15:12:07.238924 18431 net.cpp:141] Setting up conv2/3x3
I0403 15:12:07.238970 18431 net.cpp:148] Top shape: 24 192 56 56 (14450688)
I0403 15:12:07.238991 18431 net.cpp:156] Memory required for data: 303465504
I0403 15:12:07.239014 18431 layer_factory.hpp:77] Creating layer conv2/relu_3x3
I0403 15:12:07.239045 18431 net.cpp:91] Creating Layer conv2/relu_3x3
I0403 15:12:07.239061 18431 net.cpp:425] conv2/relu_3x3 <- conv2/3x3
I0403 15:12:07.239081 18431 net.cpp:386] conv2/relu_3x3 -> conv2/3x3 (in-place)
I0403 15:12:07.239260 18431 net.cpp:141] Setting up conv2/relu_3x3
I0403 15:12:07.239286 18431 net.cpp:148] Top shape: 24 192 56 56 (14450688)
I0403 15:12:07.239331 18431 net.cpp:156] Memory required for data: 361268256
I0403 15:12:07.239346 18431 layer_factory.hpp:77] Creating layer conv2/norm2
I0403 15:12:07.239367 18431 net.cpp:91] Creating Layer conv2/norm2
I0403 15:12:07.239385 18431 net.cpp:425] conv2/norm2 <- conv2/3x3
I0403 15:12:07.239404 18431 net.cpp:399] conv2/norm2 -> conv2/norm2
I0403 15:12:07.239724 18431 net.cpp:141] Setting up conv2/norm2
I0403 15:12:07.239751 18431 net.cpp:148] Top shape: 24 192 56 56 (14450688)
I0403 15:12:07.239766 18431 net.cpp:156] Memory required for data: 419071008
I0403 15:12:07.239780 18431 layer_factory.hpp:77] Creating layer pool2/3x3_s2
I0403 15:12:07.239801 18431 net.cpp:91] Creating Layer pool2/3x3_s2
I0403 15:12:07.239819 18431 net.cpp:425] pool2/3x3_s2 <- conv2/norm2
I0403 15:12:07.239835 18431 net.cpp:399] pool2/3x3_s2 -> pool2/3x3_s2
I0403 15:12:07.239892 18431 net.cpp:141] Setting up pool2/3x3_s2
I0403 15:12:07.239915 18431 net.cpp:148] Top shape: 24 192 28 28 (3612672)
I0403 15:12:07.239929 18431 net.cpp:156] Memory required for data: 433521696
I0403 15:12:07.239943 18431 layer_factory.hpp:77] Creating layer pool2/3x3_s2_pool2/3x3_s2_0_split
I0403 15:12:07.239966 18431 net.cpp:91] Creating Layer pool2/3x3_s2_pool2/3x3_s2_0_split
I0403 15:12:07.239982 18431 net.cpp:425] pool2/3x3_s2_pool2/3x3_s2_0_split <- pool2/3x3_s2
I0403 15:12:07.240002 18431 net.cpp:399] pool2/3x3_s2_pool2/3x3_s2_0_split -> pool2/3x3_s2_pool2/3x3_s2_0_split_0
I0403 15:12:07.240022 18431 net.cpp:399] pool2/3x3_s2_pool2/3x3_s2_0_split -> pool2/3x3_s2_pool2/3x3_s2_0_split_1
I0403 15:12:07.240042 18431 net.cpp:399] pool2/3x3_s2_pool2/3x3_s2_0_split -> pool2/3x3_s2_pool2/3x3_s2_0_split_2
I0403 15:12:07.240061 18431 net.cpp:399] pool2/3x3_s2_pool2/3x3_s2_0_split -> pool2/3x3_s2_pool2/3x3_s2_0_split_3
I0403 15:12:07.240133 18431 net.cpp:141] Setting up pool2/3x3_s2_pool2/3x3_s2_0_split
I0403 15:12:07.240155 18431 net.cpp:148] Top shape: 24 192 28 28 (3612672)
I0403 15:12:07.240171 18431 net.cpp:148] Top shape: 24 192 28 28 (3612672)
I0403 15:12:07.240187 18431 net.cpp:148] Top shape: 24 192 28 28 (3612672)
I0403 15:12:07.240202 18431 net.cpp:148] Top shape: 24 192 28 28 (3612672)
I0403 15:12:07.240216 18431 net.cpp:156] Memory required for data: 491324448
I0403 15:12:07.240231 18431 layer_factory.hpp:77] Creating layer inception_3a/1x1
I0403 15:12:07.240255 18431 net.cpp:91] Creating Layer inception_3a/1x1
I0403 15:12:07.240273 18431 net.cpp:425] inception_3a/1x1 <- pool2/3x3_s2_pool2/3x3_s2_0_split_0
I0403 15:12:07.240298 18431 net.cpp:399] inception_3a/1x1 -> inception_3a/1x1
I0403 15:12:07.241950 18431 net.cpp:141] Setting up inception_3a/1x1
I0403 15:12:07.241986 18431 net.cpp:148] Top shape: 24 64 28 28 (1204224)
I0403 15:12:07.242005 18431 net.cpp:156] Memory required for data: 496141344
I0403 15:12:07.242024 18431 layer_factory.hpp:77] Creating layer inception_3a/relu_1x1
I0403 15:12:07.242043 18431 net.cpp:91] Creating Layer inception_3a/relu_1x1
I0403 15:12:07.242060 18431 net.cpp:425] inception_3a/relu_1x1 <- inception_3a/1x1
I0403 15:12:07.242079 18431 net.cpp:386] inception_3a/relu_1x1 -> inception_3a/1x1 (in-place)
I0403 15:12:07.242254 18431 net.cpp:141] Setting up inception_3a/relu_1x1
I0403 15:12:07.242281 18431 net.cpp:148] Top shape: 24 64 28 28 (1204224)
I0403 15:12:07.242298 18431 net.cpp:156] Memory required for data: 500958240
I0403 15:12:07.242313 18431 layer_factory.hpp:77] Creating layer inception_3a/3x3_reduce
I0403 15:12:07.242336 18431 net.cpp:91] Creating Layer inception_3a/3x3_reduce
I0403 15:12:07.242353 18431 net.cpp:425] inception_3a/3x3_reduce <- pool2/3x3_s2_pool2/3x3_s2_0_split_1
I0403 15:12:07.242372 18431 net.cpp:399] inception_3a/3x3_reduce -> inception_3a/3x3_reduce
I0403 15:12:07.244112 18431 net.cpp:141] Setting up inception_3a/3x3_reduce
I0403 15:12:07.244143 18431 net.cpp:148] Top shape: 24 96 28 28 (1806336)
I0403 15:12:07.244159 18431 net.cpp:156] Memory required for data: 508183584
I0403 15:12:07.244184 18431 layer_factory.hpp:77] Creating layer inception_3a/relu_3x3_reduce
I0403 15:12:07.244221 18431 net.cpp:91] Creating Layer inception_3a/relu_3x3_reduce
I0403 15:12:07.244241 18431 net.cpp:425] inception_3a/relu_3x3_reduce <- inception_3a/3x3_reduce
I0403 15:12:07.244263 18431 net.cpp:386] inception_3a/relu_3x3_reduce -> inception_3a/3x3_reduce (in-place)
I0403 15:12:07.244460 18431 net.cpp:141] Setting up inception_3a/relu_3x3_reduce
I0403 15:12:07.244487 18431 net.cpp:148] Top shape: 24 96 28 28 (1806336)
I0403 15:12:07.244503 18431 net.cpp:156] Memory required for data: 515408928
I0403 15:12:07.244518 18431 layer_factory.hpp:77] Creating layer inception_3a/3x3
I0403 15:12:07.244540 18431 net.cpp:91] Creating Layer inception_3a/3x3
I0403 15:12:07.244559 18431 net.cpp:425] inception_3a/3x3 <- inception_3a/3x3_reduce
I0403 15:12:07.244581 18431 net.cpp:399] inception_3a/3x3 -> inception_3a/3x3
I0403 15:12:07.246304 18431 net.cpp:141] Setting up inception_3a/3x3
I0403 15:12:07.246336 18431 net.cpp:148] Top shape: 24 128 28 28 (2408448)
I0403 15:12:07.246353 18431 net.cpp:156] Memory required for data: 525042720
I0403 15:12:07.246373 18431 layer_factory.hpp:77] Creating layer inception_3a/relu_3x3
I0403 15:12:07.246392 18431 net.cpp:91] Creating Layer inception_3a/relu_3x3
I0403 15:12:07.246407 18431 net.cpp:425] inception_3a/relu_3x3 <- inception_3a/3x3
I0403 15:12:07.246428 18431 net.cpp:386] inception_3a/relu_3x3 -> inception_3a/3x3 (in-place)
I0403 15:12:07.246712 18431 net.cpp:141] Setting up inception_3a/relu_3x3
I0403 15:12:07.246742 18431 net.cpp:148] Top shape: 24 128 28 28 (2408448)
I0403 15:12:07.246758 18431 net.cpp:156] Memory required for data: 534676512
I0403 15:12:07.246773 18431 layer_factory.hpp:77] Creating layer inception_3a/5x5_reduce
I0403 15:12:07.246796 18431 net.cpp:91] Creating Layer inception_3a/5x5_reduce
I0403 15:12:07.246814 18431 net.cpp:425] inception_3a/5x5_reduce <- pool2/3x3_s2_pool2/3x3_s2_0_split_2
I0403 15:12:07.246834 18431 net.cpp:399] inception_3a/5x5_reduce -> inception_3a/5x5_reduce
I0403 15:12:07.247833 18431 net.cpp:141] Setting up inception_3a/5x5_reduce
I0403 15:12:07.247860 18431 net.cpp:148] Top shape: 24 16 28 28 (301056)
I0403 15:12:07.247876 18431 net.cpp:156] Memory required for data: 535880736
I0403 15:12:07.247895 18431 layer_factory.hpp:77] Creating layer inception_3a/relu_5x5_reduce
I0403 15:12:07.247912 18431 net.cpp:91] Creating Layer inception_3a/relu_5x5_reduce
I0403 15:12:07.247928 18431 net.cpp:425] inception_3a/relu_5x5_reduce <- inception_3a/5x5_reduce
I0403 15:12:07.247948 18431 net.cpp:386] inception_3a/relu_5x5_reduce -> inception_3a/5x5_reduce (in-place)
I0403 15:12:07.248272 18431 net.cpp:141] Setting up inception_3a/relu_5x5_reduce
I0403 15:12:07.248301 18431 net.cpp:148] Top shape: 24 16 28 28 (301056)
I0403 15:12:07.248317 18431 net.cpp:156] Memory required for data: 537084960
I0403 15:12:07.248332 18431 layer_factory.hpp:77] Creating layer inception_3a/5x5
I0403 15:12:07.248354 18431 net.cpp:91] Creating Layer inception_3a/5x5
I0403 15:12:07.248373 18431 net.cpp:425] inception_3a/5x5 <- inception_3a/5x5_reduce
I0403 15:12:07.248405 18431 net.cpp:399] inception_3a/5x5 -> inception_3a/5x5
I0403 15:12:07.249429 18431 net.cpp:141] Setting up inception_3a/5x5
I0403 15:12:07.249459 18431 net.cpp:148] Top shape: 24 32 28 28 (602112)
I0403 15:12:07.249476 18431 net.cpp:156] Memory required for data: 539493408
I0403 15:12:07.249495 18431 layer_factory.hpp:77] Creating layer inception_3a/relu_5x5
I0403 15:12:07.249513 18431 net.cpp:91] Creating Layer inception_3a/relu_5x5
I0403 15:12:07.249529 18431 net.cpp:425] inception_3a/relu_5x5 <- inception_3a/5x5
I0403 15:12:07.249547 18431 net.cpp:386] inception_3a/relu_5x5 -> inception_3a/5x5 (in-place)
I0403 15:12:07.249724 18431 net.cpp:141] Setting up inception_3a/relu_5x5
I0403 15:12:07.249749 18431 net.cpp:148] Top shape: 24 32 28 28 (602112)
I0403 15:12:07.249765 18431 net.cpp:156] Memory required for data: 541901856
I0403 15:12:07.249780 18431 layer_factory.hpp:77] Creating layer inception_3a/pool
I0403 15:12:07.249799 18431 net.cpp:91] Creating Layer inception_3a/pool
I0403 15:12:07.249830 18431 net.cpp:425] inception_3a/pool <- pool2/3x3_s2_pool2/3x3_s2_0_split_3
I0403 15:12:07.249851 18431 net.cpp:399] inception_3a/pool -> inception_3a/pool
I0403 15:12:07.249922 18431 net.cpp:141] Setting up inception_3a/pool
I0403 15:12:07.249950 18431 net.cpp:148] Top shape: 24 192 28 28 (3612672)
I0403 15:12:07.249975 18431 net.cpp:156] Memory required for data: 556352544
I0403 15:12:07.249991 18431 layer_factory.hpp:77] Creating layer inception_3a/pool_proj
I0403 15:12:07.250017 18431 net.cpp:91] Creating Layer inception_3a/pool_proj
I0403 15:12:07.250036 18431 net.cpp:425] inception_3a/pool_proj <- inception_3a/pool
I0403 15:12:07.250054 18431 net.cpp:399] inception_3a/pool_proj -> inception_3a/pool_proj
I0403 15:12:07.251055 18431 net.cpp:141] Setting up inception_3a/pool_proj
I0403 15:12:07.251083 18431 net.cpp:148] Top shape: 24 32 28 28 (602112)
I0403 15:12:07.251098 18431 net.cpp:156] Memory required for data: 558760992
I0403 15:12:07.251123 18431 layer_factory.hpp:77] Creating layer inception_3a/relu_pool_proj
I0403 15:12:07.251144 18431 net.cpp:91] Creating Layer inception_3a/relu_pool_proj
I0403 15:12:07.251160 18431 net.cpp:425] inception_3a/relu_pool_proj <- inception_3a/pool_proj
I0403 15:12:07.251179 18431 net.cpp:386] inception_3a/relu_pool_proj -> inception_3a/pool_proj (in-place)
I0403 15:12:07.251459 18431 net.cpp:141] Setting up inception_3a/relu_pool_proj
I0403 15:12:07.251489 18431 net.cpp:148] Top shape: 24 32 28 28 (602112)
I0403 15:12:07.251505 18431 net.cpp:156] Memory required for data: 561169440
I0403 15:12:07.251520 18431 layer_factory.hpp:77] Creating layer inception_3a/output
I0403 15:12:07.251538 18431 net.cpp:91] Creating Layer inception_3a/output
I0403 15:12:07.251554 18431 net.cpp:425] inception_3a/output <- inception_3a/1x1
I0403 15:12:07.251570 18431 net.cpp:425] inception_3a/output <- inception_3a/3x3
I0403 15:12:07.251586 18431 net.cpp:425] inception_3a/output <- inception_3a/5x5
I0403 15:12:07.251602 18431 net.cpp:425] inception_3a/output <- inception_3a/pool_proj
I0403 15:12:07.251618 18431 net.cpp:399] inception_3a/output -> inception_3a/output
I0403 15:12:07.251667 18431 net.cpp:141] Setting up inception_3a/output
I0403 15:12:07.251691 18431 net.cpp:148] Top shape: 24 256 28 28 (4816896)
I0403 15:12:07.251705 18431 net.cpp:156] Memory required for data: 580437024
I0403 15:12:07.251720 18431 layer_factory.hpp:77] Creating layer inception_3a/output_inception_3a/output_0_split
I0403 15:12:07.251741 18431 net.cpp:91] Creating Layer inception_3a/output_inception_3a/output_0_split
I0403 15:12:07.251757 18431 net.cpp:425] inception_3a/output_inception_3a/output_0_split <- inception_3a/output
I0403 15:12:07.251775 18431 net.cpp:399] inception_3a/output_inception_3a/output_0_split -> inception_3a/output_inception_3a/output_0_split_0
I0403 15:12:07.251794 18431 net.cpp:399] inception_3a/output_inception_3a/output_0_split -> inception_3a/output_inception_3a/output_0_split_1
I0403 15:12:07.251832 18431 net.cpp:399] inception_3a/output_inception_3a/output_0_split -> inception_3a/output_inception_3a/output_0_split_2
I0403 15:12:07.251855 18431 net.cpp:399] inception_3a/output_inception_3a/output_0_split -> inception_3a/output_inception_3a/output_0_split_3
I0403 15:12:07.251935 18431 net.cpp:141] Setting up inception_3a/output_inception_3a/output_0_split
I0403 15:12:07.251963 18431 net.cpp:148] Top shape: 24 256 28 28 (4816896)
I0403 15:12:07.251982 18431 net.cpp:148] Top shape: 24 256 28 28 (4816896)
I0403 15:12:07.251999 18431 net.cpp:148] Top shape: 24 256 28 28 (4816896)
I0403 15:12:07.252014 18431 net.cpp:148] Top shape: 24 256 28 28 (4816896)
I0403 15:12:07.252028 18431 net.cpp:156] Memory required for data: 657507360
I0403 15:12:07.252043 18431 layer_factory.hpp:77] Creating layer inception_3b/1x1
I0403 15:12:07.252068 18431 net.cpp:91] Creating Layer inception_3b/1x1
I0403 15:12:07.252086 18431 net.cpp:425] inception_3b/1x1 <- inception_3a/output_inception_3a/output_0_split_0
I0403 15:12:07.252106 18431 net.cpp:399] inception_3b/1x1 -> inception_3b/1x1
I0403 15:12:07.253291 18431 net.cpp:141] Setting up inception_3b/1x1
I0403 15:12:07.253343 18431 net.cpp:148] Top shape: 24 128 28 28 (2408448)
I0403 15:12:07.253360 18431 net.cpp:156] Memory required for data: 667141152
I0403 15:12:07.253379 18431 layer_factory.hpp:77] Creating layer inception_3b/relu_1x1
I0403 15:12:07.253399 18431 net.cpp:91] Creating Layer inception_3b/relu_1x1
I0403 15:12:07.253415 18431 net.cpp:425] inception_3b/relu_1x1 <- inception_3b/1x1
I0403 15:12:07.253432 18431 net.cpp:386] inception_3b/relu_1x1 -> inception_3b/1x1 (in-place)
I0403 15:12:07.253608 18431 net.cpp:141] Setting up inception_3b/relu_1x1
I0403 15:12:07.253635 18431 net.cpp:148] Top shape: 24 128 28 28 (2408448)
I0403 15:12:07.253650 18431 net.cpp:156] Memory required for data: 676774944
I0403 15:12:07.253665 18431 layer_factory.hpp:77] Creating layer inception_3b/3x3_reduce
I0403 15:12:07.253687 18431 net.cpp:91] Creating Layer inception_3b/3x3_reduce
I0403 15:12:07.253705 18431 net.cpp:425] inception_3b/3x3_reduce <- inception_3a/output_inception_3a/output_0_split_1
I0403 15:12:07.253729 18431 net.cpp:399] inception_3b/3x3_reduce -> inception_3b/3x3_reduce
I0403 15:12:07.254927 18431 net.cpp:141] Setting up inception_3b/3x3_reduce
I0403 15:12:07.254959 18431 net.cpp:148] Top shape: 24 128 28 28 (2408448)
I0403 15:12:07.254976 18431 net.cpp:156] Memory required for data: 686408736
I0403 15:12:07.254995 18431 layer_factory.hpp:77] Creating layer inception_3b/relu_3x3_reduce
I0403 15:12:07.255017 18431 net.cpp:91] Creating Layer inception_3b/relu_3x3_reduce
I0403 15:12:07.255033 18431 net.cpp:425] inception_3b/relu_3x3_reduce <- inception_3b/3x3_reduce
I0403 15:12:07.255049 18431 net.cpp:386] inception_3b/relu_3x3_reduce -> inception_3b/3x3_reduce (in-place)
I0403 15:12:07.255224 18431 net.cpp:141] Setting up inception_3b/relu_3x3_reduce
I0403 15:12:07.255254 18431 net.cpp:148] Top shape: 24 128 28 28 (2408448)
I0403 15:12:07.255269 18431 net.cpp:156] Memory required for data: 696042528
I0403 15:12:07.255285 18431 layer_factory.hpp:77] Creating layer inception_3b/3x3
I0403 15:12:07.255308 18431 net.cpp:91] Creating Layer inception_3b/3x3
I0403 15:12:07.255327 18431 net.cpp:425] inception_3b/3x3 <- inception_3b/3x3_reduce
I0403 15:12:07.255348 18431 net.cpp:399] inception_3b/3x3 -> inception_3b/3x3
I0403 15:12:07.258445 18431 net.cpp:141] Setting up inception_3b/3x3
I0403 15:12:07.258478 18431 net.cpp:148] Top shape: 24 192 28 28 (3612672)
I0403 15:12:07.258496 18431 net.cpp:156] Memory required for data: 710493216
I0403 15:12:07.258514 18431 layer_factory.hpp:77] Creating layer inception_3b/relu_3x3
I0403 15:12:07.258533 18431 net.cpp:91] Creating Layer inception_3b/relu_3x3
I0403 15:12:07.258549 18431 net.cpp:425] inception_3b/relu_3x3 <- inception_3b/3x3
I0403 15:12:07.258570 18431 net.cpp:386] inception_3b/relu_3x3 -> inception_3b/3x3 (in-place)
I0403 15:12:07.258858 18431 net.cpp:141] Setting up inception_3b/relu_3x3
I0403 15:12:07.258888 18431 net.cpp:148] Top shape: 24 192 28 28 (3612672)
I0403 15:12:07.258905 18431 net.cpp:156] Memory required for data: 724943904
I0403 15:12:07.258920 18431 layer_factory.hpp:77] Creating layer inception_3b/5x5_reduce
I0403 15:12:07.258944 18431 net.cpp:91] Creating Layer inception_3b/5x5_reduce
I0403 15:12:07.258975 18431 net.cpp:425] inception_3b/5x5_reduce <- inception_3a/output_inception_3a/output_0_split_2
I0403 15:12:07.258996 18431 net.cpp:399] inception_3b/5x5_reduce -> inception_3b/5x5_reduce
I0403 15:12:07.260031 18431 net.cpp:141] Setting up inception_3b/5x5_reduce
I0403 15:12:07.260062 18431 net.cpp:148] Top shape: 24 32 28 28 (602112)
I0403 15:12:07.260081 18431 net.cpp:156] Memory required for data: 727352352
I0403 15:12:07.260098 18431 layer_factory.hpp:77] Creating layer inception_3b/relu_5x5_reduce
I0403 15:12:07.260118 18431 net.cpp:91] Creating Layer inception_3b/relu_5x5_reduce
I0403 15:12:07.260134 18431 net.cpp:425] inception_3b/relu_5x5_reduce <- inception_3b/5x5_reduce
I0403 15:12:07.260152 18431 net.cpp:386] inception_3b/relu_5x5_reduce -> inception_3b/5x5_reduce (in-place)
I0403 15:12:07.260354 18431 net.cpp:141] Setting up inception_3b/relu_5x5_reduce
I0403 15:12:07.260381 18431 net.cpp:148] Top shape: 24 32 28 28 (602112)
I0403 15:12:07.260396 18431 net.cpp:156] Memory required for data: 729760800
I0403 15:12:07.260411 18431 layer_factory.hpp:77] Creating layer inception_3b/5x5
I0403 15:12:07.260434 18431 net.cpp:91] Creating Layer inception_3b/5x5
I0403 15:12:07.260452 18431 net.cpp:425] inception_3b/5x5 <- inception_3b/5x5_reduce
I0403 15:12:07.260474 18431 net.cpp:399] inception_3b/5x5 -> inception_3b/5x5
I0403 15:12:07.262536 18431 net.cpp:141] Setting up inception_3b/5x5
I0403 15:12:07.262567 18431 net.cpp:148] Top shape: 24 96 28 28 (1806336)
I0403 15:12:07.262583 18431 net.cpp:156] Memory required for data: 736986144
I0403 15:12:07.262603 18431 layer_factory.hpp:77] Creating layer inception_3b/relu_5x5
I0403 15:12:07.262625 18431 net.cpp:91] Creating Layer inception_3b/relu_5x5
I0403 15:12:07.262644 18431 net.cpp:425] inception_3b/relu_5x5 <- inception_3b/5x5
I0403 15:12:07.262661 18431 net.cpp:386] inception_3b/relu_5x5 -> inception_3b/5x5 (in-place)
I0403 15:12:07.262861 18431 net.cpp:141] Setting up inception_3b/relu_5x5
I0403 15:12:07.262887 18431 net.cpp:148] Top shape: 24 96 28 28 (1806336)
I0403 15:12:07.262902 18431 net.cpp:156] Memory required for data: 744211488
I0403 15:12:07.262917 18431 layer_factory.hpp:77] Creating layer inception_3b/pool
I0403 15:12:07.262936 18431 net.cpp:91] Creating Layer inception_3b/pool
I0403 15:12:07.262953 18431 net.cpp:425] inception_3b/pool <- inception_3a/output_inception_3a/output_0_split_3
I0403 15:12:07.262977 18431 net.cpp:399] inception_3b/pool -> inception_3b/pool
I0403 15:12:07.263037 18431 net.cpp:141] Setting up inception_3b/pool
I0403 15:12:07.263062 18431 net.cpp:148] Top shape: 24 256 28 28 (4816896)
I0403 15:12:07.263077 18431 net.cpp:156] Memory required for data: 763479072
I0403 15:12:07.263092 18431 layer_factory.hpp:77] Creating layer inception_3b/pool_proj
I0403 15:12:07.263115 18431 net.cpp:91] Creating Layer inception_3b/pool_proj
I0403 15:12:07.263134 18431 net.cpp:425] inception_3b/pool_proj <- inception_3b/pool
I0403 15:12:07.263154 18431 net.cpp:399] inception_3b/pool_proj -> inception_3b/pool_proj
I0403 15:12:07.264264 18431 net.cpp:141] Setting up inception_3b/pool_proj
I0403 15:12:07.264293 18431 net.cpp:148] Top shape: 24 64 28 28 (1204224)
I0403 15:12:07.264309 18431 net.cpp:156] Memory required for data: 768295968
I0403 15:12:07.264328 18431 layer_factory.hpp:77] Creating layer inception_3b/relu_pool_proj
I0403 15:12:07.264349 18431 net.cpp:91] Creating Layer inception_3b/relu_pool_proj
I0403 15:12:07.264366 18431 net.cpp:425] inception_3b/relu_pool_proj <- inception_3b/pool_proj
I0403 15:12:07.264385 18431 net.cpp:386] inception_3b/relu_pool_proj -> inception_3b/pool_proj (in-place)
I0403 15:12:07.264796 18431 net.cpp:141] Setting up inception_3b/relu_pool_proj
I0403 15:12:07.264823 18431 net.cpp:148] Top shape: 24 64 28 28 (1204224)
I0403 15:12:07.264839 18431 net.cpp:156] Memory required for data: 773112864
I0403 15:12:07.264855 18431 layer_factory.hpp:77] Creating layer inception_3b/output
I0403 15:12:07.264873 18431 net.cpp:91] Creating Layer inception_3b/output
I0403 15:12:07.264889 18431 net.cpp:425] inception_3b/output <- inception_3b/1x1
I0403 15:12:07.264907 18431 net.cpp:425] inception_3b/output <- inception_3b/3x3
I0403 15:12:07.264925 18431 net.cpp:425] inception_3b/output <- inception_3b/5x5
I0403 15:12:07.264940 18431 net.cpp:425] inception_3b/output <- inception_3b/pool_proj
I0403 15:12:07.264966 18431 net.cpp:399] inception_3b/output -> inception_3b/output
I0403 15:12:07.265015 18431 net.cpp:141] Setting up inception_3b/output
I0403 15:12:07.265043 18431 net.cpp:148] Top shape: 24 480 28 28 (9031680)
I0403 15:12:07.265058 18431 net.cpp:156] Memory required for data: 809239584
I0403 15:12:07.265074 18431 layer_factory.hpp:77] Creating layer pool3/3x3_s2
I0403 15:12:07.265091 18431 net.cpp:91] Creating Layer pool3/3x3_s2
I0403 15:12:07.265107 18431 net.cpp:425] pool3/3x3_s2 <- inception_3b/output
I0403 15:12:07.265142 18431 net.cpp:399] pool3/3x3_s2 -> pool3/3x3_s2
I0403 15:12:07.265205 18431 net.cpp:141] Setting up pool3/3x3_s2
I0403 15:12:07.265231 18431 net.cpp:148] Top shape: 24 480 14 14 (2257920)
I0403 15:12:07.265246 18431 net.cpp:156] Memory required for data: 818271264
I0403 15:12:07.265261 18431 layer_factory.hpp:77] Creating layer pool3/3x3_s2_pool3/3x3_s2_0_split
I0403 15:12:07.265278 18431 net.cpp:91] Creating Layer pool3/3x3_s2_pool3/3x3_s2_0_split
I0403 15:12:07.265295 18431 net.cpp:425] pool3/3x3_s2_pool3/3x3_s2_0_split <- pool3/3x3_s2
I0403 15:12:07.265316 18431 net.cpp:399] pool3/3x3_s2_pool3/3x3_s2_0_split -> pool3/3x3_s2_pool3/3x3_s2_0_split_0
I0403 15:12:07.265337 18431 net.cpp:399] pool3/3x3_s2_pool3/3x3_s2_0_split -> pool3/3x3_s2_pool3/3x3_s2_0_split_1
I0403 15:12:07.265358 18431 net.cpp:399] pool3/3x3_s2_pool3/3x3_s2_0_split -> pool3/3x3_s2_pool3/3x3_s2_0_split_2
I0403 15:12:07.265380 18431 net.cpp:399] pool3/3x3_s2_pool3/3x3_s2_0_split -> pool3/3x3_s2_pool3/3x3_s2_0_split_3
I0403 15:12:07.265461 18431 net.cpp:141] Setting up pool3/3x3_s2_pool3/3x3_s2_0_split
I0403 15:12:07.265486 18431 net.cpp:148] Top shape: 24 480 14 14 (2257920)
I0403 15:12:07.265502 18431 net.cpp:148] Top shape: 24 480 14 14 (2257920)
I0403 15:12:07.265518 18431 net.cpp:148] Top shape: 24 480 14 14 (2257920)
I0403 15:12:07.265534 18431 net.cpp:148] Top shape: 24 480 14 14 (2257920)
I0403 15:12:07.265548 18431 net.cpp:156] Memory required for data: 854397984
I0403 15:12:07.265563 18431 layer_factory.hpp:77] Creating layer inception_4a/1x1
I0403 15:12:07.265586 18431 net.cpp:91] Creating Layer inception_4a/1x1
I0403 15:12:07.265604 18431 net.cpp:425] inception_4a/1x1 <- pool3/3x3_s2_pool3/3x3_s2_0_split_0
I0403 15:12:07.265625 18431 net.cpp:399] inception_4a/1x1 -> inception_4a/1x1
I0403 15:12:07.267285 18431 net.cpp:141] Setting up inception_4a/1x1
I0403 15:12:07.267315 18431 net.cpp:148] Top shape: 24 192 14 14 (903168)
I0403 15:12:07.267331 18431 net.cpp:156] Memory required for data: 858010656
I0403 15:12:07.267349 18431 layer_factory.hpp:77] Creating layer inception_4a/relu_1x1
I0403 15:12:07.267371 18431 net.cpp:91] Creating Layer inception_4a/relu_1x1
I0403 15:12:07.267388 18431 net.cpp:425] inception_4a/relu_1x1 <- inception_4a/1x1
I0403 15:12:07.267405 18431 net.cpp:386] inception_4a/relu_1x1 -> inception_4a/1x1 (in-place)
I0403 15:12:07.267591 18431 net.cpp:141] Setting up inception_4a/relu_1x1
I0403 15:12:07.267616 18431 net.cpp:148] Top shape: 24 192 14 14 (903168)
I0403 15:12:07.267632 18431 net.cpp:156] Memory required for data: 861623328
I0403 15:12:07.267647 18431 layer_factory.hpp:77] Creating layer inception_4a/3x3_reduce
I0403 15:12:07.267673 18431 net.cpp:91] Creating Layer inception_4a/3x3_reduce
I0403 15:12:07.267691 18431 net.cpp:425] inception_4a/3x3_reduce <- pool3/3x3_s2_pool3/3x3_s2_0_split_1
I0403 15:12:07.267711 18431 net.cpp:399] inception_4a/3x3_reduce -> inception_4a/3x3_reduce
I0403 15:12:07.269073 18431 net.cpp:141] Setting up inception_4a/3x3_reduce
I0403 15:12:07.269103 18431 net.cpp:148] Top shape: 24 96 14 14 (451584)
I0403 15:12:07.269119 18431 net.cpp:156] Memory required for data: 863429664
I0403 15:12:07.269145 18431 layer_factory.hpp:77] Creating layer inception_4a/relu_3x3_reduce
I0403 15:12:07.269166 18431 net.cpp:91] Creating Layer inception_4a/relu_3x3_reduce
I0403 15:12:07.269183 18431 net.cpp:425] inception_4a/relu_3x3_reduce <- inception_4a/3x3_reduce
I0403 15:12:07.269203 18431 net.cpp:386] inception_4a/relu_3x3_reduce -> inception_4a/3x3_reduce (in-place)
I0403 15:12:07.269389 18431 net.cpp:141] Setting up inception_4a/relu_3x3_reduce
I0403 15:12:07.269417 18431 net.cpp:148] Top shape: 24 96 14 14 (451584)
I0403 15:12:07.269433 18431 net.cpp:156] Memory required for data: 865236000
I0403 15:12:07.269446 18431 layer_factory.hpp:77] Creating layer inception_4a/3x3
I0403 15:12:07.269469 18431 net.cpp:91] Creating Layer inception_4a/3x3
I0403 15:12:07.269489 18431 net.cpp:425] inception_4a/3x3 <- inception_4a/3x3_reduce
I0403 15:12:07.269510 18431 net.cpp:399] inception_4a/3x3 -> inception_4a/3x3
I0403 15:12:07.272321 18431 net.cpp:141] Setting up inception_4a/3x3
I0403 15:12:07.272351 18431 net.cpp:148] Top shape: 24 208 14 14 (978432)
I0403 15:12:07.272367 18431 net.cpp:156] Memory required for data: 869149728
I0403 15:12:07.272387 18431 layer_factory.hpp:77] Creating layer inception_4a/relu_3x3
I0403 15:12:07.272409 18431 net.cpp:91] Creating Layer inception_4a/relu_3x3
I0403 15:12:07.272425 18431 net.cpp:425] inception_4a/relu_3x3 <- inception_4a/3x3
I0403 15:12:07.272444 18431 net.cpp:386] inception_4a/relu_3x3 -> inception_4a/3x3 (in-place)
I0403 15:12:07.272734 18431 net.cpp:141] Setting up inception_4a/relu_3x3
I0403 15:12:07.272763 18431 net.cpp:148] Top shape: 24 208 14 14 (978432)
I0403 15:12:07.272781 18431 net.cpp:156] Memory required for data: 873063456
I0403 15:12:07.272799 18431 layer_factory.hpp:77] Creating layer inception_4a/5x5_reduce
I0403 15:12:07.272819 18431 net.cpp:91] Creating Layer inception_4a/5x5_reduce
I0403 15:12:07.272836 18431 net.cpp:425] inception_4a/5x5_reduce <- pool3/3x3_s2_pool3/3x3_s2_0_split_2
I0403 15:12:07.272858 18431 net.cpp:399] inception_4a/5x5_reduce -> inception_4a/5x5_reduce
I0403 15:12:07.273928 18431 net.cpp:141] Setting up inception_4a/5x5_reduce
I0403 15:12:07.273967 18431 net.cpp:148] Top shape: 24 16 14 14 (75264)
I0403 15:12:07.273988 18431 net.cpp:156] Memory required for data: 873364512
I0403 15:12:07.274006 18431 layer_factory.hpp:77] Creating layer inception_4a/relu_5x5_reduce
I0403 15:12:07.274025 18431 net.cpp:91] Creating Layer inception_4a/relu_5x5_reduce
I0403 15:12:07.274041 18431 net.cpp:425] inception_4a/relu_5x5_reduce <- inception_4a/5x5_reduce
I0403 15:12:07.274060 18431 net.cpp:386] inception_4a/relu_5x5_reduce -> inception_4a/5x5_reduce (in-place)
I0403 15:12:07.274246 18431 net.cpp:141] Setting up inception_4a/relu_5x5_reduce
I0403 15:12:07.274272 18431 net.cpp:148] Top shape: 24 16 14 14 (75264)
I0403 15:12:07.274287 18431 net.cpp:156] Memory required for data: 873665568
I0403 15:12:07.274303 18431 layer_factory.hpp:77] Creating layer inception_4a/5x5
I0403 15:12:07.274327 18431 net.cpp:91] Creating Layer inception_4a/5x5
I0403 15:12:07.274344 18431 net.cpp:425] inception_4a/5x5 <- inception_4a/5x5_reduce
I0403 15:12:07.274365 18431 net.cpp:399] inception_4a/5x5 -> inception_4a/5x5
I0403 15:12:07.275507 18431 net.cpp:141] Setting up inception_4a/5x5
I0403 15:12:07.275537 18431 net.cpp:148] Top shape: 24 48 14 14 (225792)
I0403 15:12:07.275552 18431 net.cpp:156] Memory required for data: 874568736
I0403 15:12:07.275571 18431 layer_factory.hpp:77] Creating layer inception_4a/relu_5x5
I0403 15:12:07.275589 18431 net.cpp:91] Creating Layer inception_4a/relu_5x5
I0403 15:12:07.275605 18431 net.cpp:425] inception_4a/relu_5x5 <- inception_4a/5x5
I0403 15:12:07.275625 18431 net.cpp:386] inception_4a/relu_5x5 -> inception_4a/5x5 (in-place)
I0403 15:12:07.275813 18431 net.cpp:141] Setting up inception_4a/relu_5x5
I0403 15:12:07.275838 18431 net.cpp:148] Top shape: 24 48 14 14 (225792)
I0403 15:12:07.275854 18431 net.cpp:156] Memory required for data: 875471904
I0403 15:12:07.275871 18431 layer_factory.hpp:77] Creating layer inception_4a/pool
I0403 15:12:07.275892 18431 net.cpp:91] Creating Layer inception_4a/pool
I0403 15:12:07.275908 18431 net.cpp:425] inception_4a/pool <- pool3/3x3_s2_pool3/3x3_s2_0_split_3
I0403 15:12:07.275928 18431 net.cpp:399] inception_4a/pool -> inception_4a/pool
I0403 15:12:07.275997 18431 net.cpp:141] Setting up inception_4a/pool
I0403 15:12:07.276022 18431 net.cpp:148] Top shape: 24 480 14 14 (2257920)
I0403 15:12:07.276037 18431 net.cpp:156] Memory required for data: 884503584
I0403 15:12:07.276052 18431 layer_factory.hpp:77] Creating layer inception_4a/pool_proj
I0403 15:12:07.276075 18431 net.cpp:91] Creating Layer inception_4a/pool_proj
I0403 15:12:07.276093 18431 net.cpp:425] inception_4a/pool_proj <- inception_4a/pool
I0403 15:12:07.276114 18431 net.cpp:399] inception_4a/pool_proj -> inception_4a/pool_proj
I0403 15:12:07.277359 18431 net.cpp:141] Setting up inception_4a/pool_proj
I0403 15:12:07.277389 18431 net.cpp:148] Top shape: 24 64 14 14 (301056)
I0403 15:12:07.277418 18431 net.cpp:156] Memory required for data: 885707808
I0403 15:12:07.277439 18431 layer_factory.hpp:77] Creating layer inception_4a/relu_pool_proj
I0403 15:12:07.277462 18431 net.cpp:91] Creating Layer inception_4a/relu_pool_proj
I0403 15:12:07.277480 18431 net.cpp:425] inception_4a/relu_pool_proj <- inception_4a/pool_proj
I0403 15:12:07.277498 18431 net.cpp:386] inception_4a/relu_pool_proj -> inception_4a/pool_proj (in-place)
I0403 15:12:07.277783 18431 net.cpp:141] Setting up inception_4a/relu_pool_proj
I0403 15:12:07.277809 18431 net.cpp:148] Top shape: 24 64 14 14 (301056)
I0403 15:12:07.277824 18431 net.cpp:156] Memory required for data: 886912032
I0403 15:12:07.277839 18431 layer_factory.hpp:77] Creating layer inception_4a/output
I0403 15:12:07.277858 18431 net.cpp:91] Creating Layer inception_4a/output
I0403 15:12:07.277873 18431 net.cpp:425] inception_4a/output <- inception_4a/1x1
I0403 15:12:07.277889 18431 net.cpp:425] inception_4a/output <- inception_4a/3x3
I0403 15:12:07.277905 18431 net.cpp:425] inception_4a/output <- inception_4a/5x5
I0403 15:12:07.277921 18431 net.cpp:425] inception_4a/output <- inception_4a/pool_proj
I0403 15:12:07.277940 18431 net.cpp:399] inception_4a/output -> inception_4a/output
I0403 15:12:07.277993 18431 net.cpp:141] Setting up inception_4a/output
I0403 15:12:07.278017 18431 net.cpp:148] Top shape: 24 512 14 14 (2408448)
I0403 15:12:07.278033 18431 net.cpp:156] Memory required for data: 896545824
I0403 15:12:07.278048 18431 layer_factory.hpp:77] Creating layer inception_4a/output_inception_4a/output_0_split
I0403 15:12:07.278065 18431 net.cpp:91] Creating Layer inception_4a/output_inception_4a/output_0_split
I0403 15:12:07.278080 18431 net.cpp:425] inception_4a/output_inception_4a/output_0_split <- inception_4a/output
I0403 15:12:07.278100 18431 net.cpp:399] inception_4a/output_inception_4a/output_0_split -> inception_4a/output_inception_4a/output_0_split_0
I0403 15:12:07.278120 18431 net.cpp:399] inception_4a/output_inception_4a/output_0_split -> inception_4a/output_inception_4a/output_0_split_1
I0403 15:12:07.278141 18431 net.cpp:399] inception_4a/output_inception_4a/output_0_split -> inception_4a/output_inception_4a/output_0_split_2
I0403 15:12:07.278162 18431 net.cpp:399] inception_4a/output_inception_4a/output_0_split -> inception_4a/output_inception_4a/output_0_split_3
I0403 15:12:07.278180 18431 net.cpp:399] inception_4a/output_inception_4a/output_0_split -> inception_4a/output_inception_4a/output_0_split_4
I0403 15:12:07.278275 18431 net.cpp:141] Setting up inception_4a/output_inception_4a/output_0_split
I0403 15:12:07.278300 18431 net.cpp:148] Top shape: 24 512 14 14 (2408448)
I0403 15:12:07.278316 18431 net.cpp:148] Top shape: 24 512 14 14 (2408448)
I0403 15:12:07.278332 18431 net.cpp:148] Top shape: 24 512 14 14 (2408448)
I0403 15:12:07.278347 18431 net.cpp:148] Top shape: 24 512 14 14 (2408448)
I0403 15:12:07.278362 18431 net.cpp:148] Top shape: 24 512 14 14 (2408448)
I0403 15:12:07.278376 18431 net.cpp:156] Memory required for data: 944714784
I0403 15:12:07.278390 18431 layer_factory.hpp:77] Creating layer loss1/ave_pool
I0403 15:12:07.278409 18431 net.cpp:91] Creating Layer loss1/ave_pool
I0403 15:12:07.278424 18431 net.cpp:425] loss1/ave_pool <- inception_4a/output_inception_4a/output_0_split_0
I0403 15:12:07.278441 18431 net.cpp:399] loss1/ave_pool -> loss1/ave_pool
I0403 15:12:07.278669 18431 net.cpp:141] Setting up loss1/ave_pool
I0403 15:12:07.278697 18431 net.cpp:148] Top shape: 24 512 4 4 (196608)
I0403 15:12:07.278712 18431 net.cpp:156] Memory required for data: 945501216
I0403 15:12:07.278728 18431 layer_factory.hpp:77] Creating layer loss1/conv
I0403 15:12:07.278751 18431 net.cpp:91] Creating Layer loss1/conv
I0403 15:12:07.278769 18431 net.cpp:425] loss1/conv <- loss1/ave_pool
I0403 15:12:07.278791 18431 net.cpp:399] loss1/conv -> loss1/conv
I0403 15:12:07.280267 18431 net.cpp:141] Setting up loss1/conv
I0403 15:12:07.280297 18431 net.cpp:148] Top shape: 24 128 4 4 (49152)
I0403 15:12:07.280328 18431 net.cpp:156] Memory required for data: 945697824
I0403 15:12:07.280347 18431 layer_factory.hpp:77] Creating layer loss1/relu_conv
I0403 15:12:07.280364 18431 net.cpp:91] Creating Layer loss1/relu_conv
I0403 15:12:07.280380 18431 net.cpp:425] loss1/relu_conv <- loss1/conv
I0403 15:12:07.280397 18431 net.cpp:386] loss1/relu_conv -> loss1/conv (in-place)
I0403 15:12:07.280694 18431 net.cpp:141] Setting up loss1/relu_conv
I0403 15:12:07.280724 18431 net.cpp:148] Top shape: 24 128 4 4 (49152)
I0403 15:12:07.280740 18431 net.cpp:156] Memory required for data: 945894432
I0403 15:12:07.280755 18431 layer_factory.hpp:77] Creating layer loss1/fc
I0403 15:12:07.280778 18431 net.cpp:91] Creating Layer loss1/fc
I0403 15:12:07.280797 18431 net.cpp:425] loss1/fc <- loss1/conv
I0403 15:12:07.280817 18431 net.cpp:399] loss1/fc -> loss1/fc
I0403 15:12:07.298820 18431 net.cpp:141] Setting up loss1/fc
I0403 15:12:07.298866 18431 net.cpp:148] Top shape: 24 1024 (24576)
I0403 15:12:07.298882 18431 net.cpp:156] Memory required for data: 945992736
I0403 15:12:07.298902 18431 layer_factory.hpp:77] Creating layer loss1/relu_fc
I0403 15:12:07.298921 18431 net.cpp:91] Creating Layer loss1/relu_fc
I0403 15:12:07.298938 18431 net.cpp:425] loss1/relu_fc <- loss1/fc
I0403 15:12:07.298964 18431 net.cpp:386] loss1/relu_fc -> loss1/fc (in-place)
I0403 15:12:07.299168 18431 net.cpp:141] Setting up loss1/relu_fc
I0403 15:12:07.299193 18431 net.cpp:148] Top shape: 24 1024 (24576)
I0403 15:12:07.299208 18431 net.cpp:156] Memory required for data: 946091040
I0403 15:12:07.299223 18431 layer_factory.hpp:77] Creating layer loss1/drop_fc
I0403 15:12:07.299252 18431 net.cpp:91] Creating Layer loss1/drop_fc
I0403 15:12:07.299270 18431 net.cpp:425] loss1/drop_fc <- loss1/fc
I0403 15:12:07.299288 18431 net.cpp:386] loss1/drop_fc -> loss1/fc (in-place)
I0403 15:12:07.299340 18431 net.cpp:141] Setting up loss1/drop_fc
I0403 15:12:07.299363 18431 net.cpp:148] Top shape: 24 1024 (24576)
I0403 15:12:07.299378 18431 net.cpp:156] Memory required for data: 946189344
I0403 15:12:07.299394 18431 layer_factory.hpp:77] Creating layer loss1/classifier_plantvillage
I0403 15:12:07.299413 18431 net.cpp:91] Creating Layer loss1/classifier_plantvillage
I0403 15:12:07.299429 18431 net.cpp:425] loss1/classifier_plantvillage <- loss1/fc
I0403 15:12:07.299450 18431 net.cpp:399] loss1/classifier_plantvillage -> loss1/classifier_plantvillage
I0403 15:12:07.300380 18431 net.cpp:141] Setting up loss1/classifier_plantvillage
I0403 15:12:07.300411 18431 net.cpp:148] Top shape: 24 38 (912)
I0403 15:12:07.300427 18431 net.cpp:156] Memory required for data: 946192992
I0403 15:12:07.300446 18431 layer_factory.hpp:77] Creating layer loss1/classifier_plantvillage_loss1/classifier_plantvillage_0_split
I0403 15:12:07.300464 18431 net.cpp:91] Creating Layer loss1/classifier_plantvillage_loss1/classifier_plantvillage_0_split
I0403 15:12:07.300480 18431 net.cpp:425] loss1/classifier_plantvillage_loss1/classifier_plantvillage_0_split <- loss1/classifier_plantvillage
I0403 15:12:07.300498 18431 net.cpp:399] loss1/classifier_plantvillage_loss1/classifier_plantvillage_0_split -> loss1/classifier_plantvillage_loss1/classifier_plantvillage_0_split_0
I0403 15:12:07.300518 18431 net.cpp:399] loss1/classifier_plantvillage_loss1/classifier_plantvillage_0_split -> loss1/classifier_plantvillage_loss1/classifier_plantvillage_0_split_1
I0403 15:12:07.300539 18431 net.cpp:399] loss1/classifier_plantvillage_loss1/classifier_plantvillage_0_split -> loss1/classifier_plantvillage_loss1/classifier_plantvillage_0_split_2
I0403 15:12:07.300606 18431 net.cpp:141] Setting up loss1/classifier_plantvillage_loss1/classifier_plantvillage_0_split
I0403 15:12:07.300631 18431 net.cpp:148] Top shape: 24 38 (912)
I0403 15:12:07.300645 18431 net.cpp:148] Top shape: 24 38 (912)
I0403 15:12:07.300662 18431 net.cpp:148] Top shape: 24 38 (912)
I0403 15:12:07.300674 18431 net.cpp:156] Memory required for data: 946203936
I0403 15:12:07.300689 18431 layer_factory.hpp:77] Creating layer inception_4b/1x1
I0403 15:12:07.300710 18431 net.cpp:91] Creating Layer inception_4b/1x1
I0403 15:12:07.300750 18431 net.cpp:425] inception_4b/1x1 <- inception_4a/output_inception_4a/output_0_split_1
I0403 15:12:07.300773 18431 net.cpp:399] inception_4b/1x1 -> inception_4b/1x1
I0403 15:12:07.302487 18431 net.cpp:141] Setting up inception_4b/1x1
I0403 15:12:07.302520 18431 net.cpp:148] Top shape: 24 160 14 14 (752640)
I0403 15:12:07.302536 18431 net.cpp:156] Memory required for data: 949214496
I0403 15:12:07.302554 18431 layer_factory.hpp:77] Creating layer inception_4b/relu_1x1
I0403 15:12:07.302572 18431 net.cpp:91] Creating Layer inception_4b/relu_1x1
I0403 15:12:07.302588 18431 net.cpp:425] inception_4b/relu_1x1 <- inception_4b/1x1
I0403 15:12:07.302605 18431 net.cpp:386] inception_4b/relu_1x1 -> inception_4b/1x1 (in-place)
I0403 15:12:07.302790 18431 net.cpp:141] Setting up inception_4b/relu_1x1
I0403 15:12:07.302819 18431 net.cpp:148] Top shape: 24 160 14 14 (752640)
I0403 15:12:07.302835 18431 net.cpp:156] Memory required for data: 952225056
I0403 15:12:07.302850 18431 layer_factory.hpp:77] Creating layer inception_4b/3x3_reduce
I0403 15:12:07.302872 18431 net.cpp:91] Creating Layer inception_4b/3x3_reduce
I0403 15:12:07.302891 18431 net.cpp:425] inception_4b/3x3_reduce <- inception_4a/output_inception_4a/output_0_split_2
I0403 15:12:07.302913 18431 net.cpp:399] inception_4b/3x3_reduce -> inception_4b/3x3_reduce
I0403 15:12:07.304302 18431 net.cpp:141] Setting up inception_4b/3x3_reduce
I0403 15:12:07.304334 18431 net.cpp:148] Top shape: 24 112 14 14 (526848)
I0403 15:12:07.304352 18431 net.cpp:156] Memory required for data: 954332448
I0403 15:12:07.304373 18431 layer_factory.hpp:77] Creating layer inception_4b/relu_3x3_reduce
I0403 15:12:07.304393 18431 net.cpp:91] Creating Layer inception_4b/relu_3x3_reduce
I0403 15:12:07.304409 18431 net.cpp:425] inception_4b/relu_3x3_reduce <- inception_4b/3x3_reduce
I0403 15:12:07.304428 18431 net.cpp:386] inception_4b/relu_3x3_reduce -> inception_4b/3x3_reduce (in-place)
I0403 15:12:07.304719 18431 net.cpp:141] Setting up inception_4b/relu_3x3_reduce
I0403 15:12:07.304749 18431 net.cpp:148] Top shape: 24 112 14 14 (526848)
I0403 15:12:07.304766 18431 net.cpp:156] Memory required for data: 956439840
I0403 15:12:07.304781 18431 layer_factory.hpp:77] Creating layer inception_4b/3x3
I0403 15:12:07.304803 18431 net.cpp:91] Creating Layer inception_4b/3x3
I0403 15:12:07.304822 18431 net.cpp:425] inception_4b/3x3 <- inception_4b/3x3_reduce
I0403 15:12:07.304843 18431 net.cpp:399] inception_4b/3x3 -> inception_4b/3x3
I0403 15:12:07.307991 18431 net.cpp:141] Setting up inception_4b/3x3
I0403 15:12:07.308023 18431 net.cpp:148] Top shape: 24 224 14 14 (1053696)
I0403 15:12:07.308040 18431 net.cpp:156] Memory required for data: 960654624
I0403 15:12:07.308061 18431 layer_factory.hpp:77] Creating layer inception_4b/relu_3x3
I0403 15:12:07.308082 18431 net.cpp:91] Creating Layer inception_4b/relu_3x3
I0403 15:12:07.308101 18431 net.cpp:425] inception_4b/relu_3x3 <- inception_4b/3x3
I0403 15:12:07.308120 18431 net.cpp:386] inception_4b/relu_3x3 -> inception_4b/3x3 (in-place)
I0403 15:12:07.308310 18431 net.cpp:141] Setting up inception_4b/relu_3x3
I0403 15:12:07.308338 18431 net.cpp:148] Top shape: 24 224 14 14 (1053696)
I0403 15:12:07.308354 18431 net.cpp:156] Memory required for data: 964869408
I0403 15:12:07.308369 18431 layer_factory.hpp:77] Creating layer inception_4b/5x5_reduce
I0403 15:12:07.308394 18431 net.cpp:91] Creating Layer inception_4b/5x5_reduce
I0403 15:12:07.308413 18431 net.cpp:425] inception_4b/5x5_reduce <- inception_4a/output_inception_4a/output_0_split_3
I0403 15:12:07.308434 18431 net.cpp:399] inception_4b/5x5_reduce -> inception_4b/5x5_reduce
I0403 15:12:07.309593 18431 net.cpp:141] Setting up inception_4b/5x5_reduce
I0403 15:12:07.309628 18431 net.cpp:148] Top shape: 24 24 14 14 (112896)
I0403 15:12:07.309648 18431 net.cpp:156] Memory required for data: 965320992
I0403 15:12:07.309667 18431 layer_factory.hpp:77] Creating layer inception_4b/relu_5x5_reduce
I0403 15:12:07.309685 18431 net.cpp:91] Creating Layer inception_4b/relu_5x5_reduce
I0403 15:12:07.309718 18431 net.cpp:425] inception_4b/relu_5x5_reduce <- inception_4b/5x5_reduce
I0403 15:12:07.309741 18431 net.cpp:386] inception_4b/relu_5x5_reduce -> inception_4b/5x5_reduce (in-place)
I0403 15:12:07.309937 18431 net.cpp:141] Setting up inception_4b/relu_5x5_reduce
I0403 15:12:07.309967 18431 net.cpp:148] Top shape: 24 24 14 14 (112896)
I0403 15:12:07.309983 18431 net.cpp:156] Memory required for data: 965772576
I0403 15:12:07.309999 18431 layer_factory.hpp:77] Creating layer inception_4b/5x5
I0403 15:12:07.310022 18431 net.cpp:91] Creating Layer inception_4b/5x5
I0403 15:12:07.310040 18431 net.cpp:425] inception_4b/5x5 <- inception_4b/5x5_reduce
I0403 15:12:07.310062 18431 net.cpp:399] inception_4b/5x5 -> inception_4b/5x5
I0403 15:12:07.311362 18431 net.cpp:141] Setting up inception_4b/5x5
I0403 15:12:07.311393 18431 net.cpp:148] Top shape: 24 64 14 14 (301056)
I0403 15:12:07.311411 18431 net.cpp:156] Memory required for data: 966976800
I0403 15:12:07.311430 18431 layer_factory.hpp:77] Creating layer inception_4b/relu_5x5
I0403 15:12:07.311450 18431 net.cpp:91] Creating Layer inception_4b/relu_5x5
I0403 15:12:07.311466 18431 net.cpp:425] inception_4b/relu_5x5 <- inception_4b/5x5
I0403 15:12:07.311485 18431 net.cpp:386] inception_4b/relu_5x5 -> inception_4b/5x5 (in-place)
I0403 15:12:07.311786 18431 net.cpp:141] Setting up inception_4b/relu_5x5
I0403 15:12:07.311816 18431 net.cpp:148] Top shape: 24 64 14 14 (301056)
I0403 15:12:07.311833 18431 net.cpp:156] Memory required for data: 968181024
I0403 15:12:07.311848 18431 layer_factory.hpp:77] Creating layer inception_4b/pool
I0403 15:12:07.311868 18431 net.cpp:91] Creating Layer inception_4b/pool
I0403 15:12:07.311885 18431 net.cpp:425] inception_4b/pool <- inception_4a/output_inception_4a/output_0_split_4
I0403 15:12:07.311904 18431 net.cpp:399] inception_4b/pool -> inception_4b/pool
I0403 15:12:07.311981 18431 net.cpp:141] Setting up inception_4b/pool
I0403 15:12:07.312006 18431 net.cpp:148] Top shape: 24 512 14 14 (2408448)
I0403 15:12:07.312021 18431 net.cpp:156] Memory required for data: 977814816
I0403 15:12:07.312037 18431 layer_factory.hpp:77] Creating layer inception_4b/pool_proj
I0403 15:12:07.312059 18431 net.cpp:91] Creating Layer inception_4b/pool_proj
I0403 15:12:07.312077 18431 net.cpp:425] inception_4b/pool_proj <- inception_4b/pool
I0403 15:12:07.312099 18431 net.cpp:399] inception_4b/pool_proj -> inception_4b/pool_proj
I0403 15:12:07.313386 18431 net.cpp:141] Setting up inception_4b/pool_proj
I0403 15:12:07.313419 18431 net.cpp:148] Top shape: 24 64 14 14 (301056)
I0403 15:12:07.313437 18431 net.cpp:156] Memory required for data: 979019040
I0403 15:12:07.313457 18431 layer_factory.hpp:77] Creating layer inception_4b/relu_pool_proj
I0403 15:12:07.313477 18431 net.cpp:91] Creating Layer inception_4b/relu_pool_proj
I0403 15:12:07.313493 18431 net.cpp:425] inception_4b/relu_pool_proj <- inception_4b/pool_proj
I0403 15:12:07.313510 18431 net.cpp:386] inception_4b/relu_pool_proj -> inception_4b/pool_proj (in-place)
I0403 15:12:07.313709 18431 net.cpp:141] Setting up inception_4b/relu_pool_proj
I0403 15:12:07.313735 18431 net.cpp:148] Top shape: 24 64 14 14 (301056)
I0403 15:12:07.313750 18431 net.cpp:156] Memory required for data: 980223264
I0403 15:12:07.313766 18431 layer_factory.hpp:77] Creating layer inception_4b/output
I0403 15:12:07.313783 18431 net.cpp:91] Creating Layer inception_4b/output
I0403 15:12:07.313799 18431 net.cpp:425] inception_4b/output <- inception_4b/1x1
I0403 15:12:07.313817 18431 net.cpp:425] inception_4b/output <- inception_4b/3x3
I0403 15:12:07.313833 18431 net.cpp:425] inception_4b/output <- inception_4b/5x5
I0403 15:12:07.313849 18431 net.cpp:425] inception_4b/output <- inception_4b/pool_proj
I0403 15:12:07.313869 18431 net.cpp:399] inception_4b/output -> inception_4b/output
I0403 15:12:07.313917 18431 net.cpp:141] Setting up inception_4b/output
I0403 15:12:07.313944 18431 net.cpp:148] Top shape: 24 512 14 14 (2408448)
I0403 15:12:07.313966 18431 net.cpp:156] Memory required for data: 989857056
I0403 15:12:07.313997 18431 layer_factory.hpp:77] Creating layer inception_4b/output_inception_4b/output_0_split
I0403 15:12:07.314016 18431 net.cpp:91] Creating Layer inception_4b/output_inception_4b/output_0_split
I0403 15:12:07.314033 18431 net.cpp:425] inception_4b/output_inception_4b/output_0_split <- inception_4b/output
I0403 15:12:07.314052 18431 net.cpp:399] inception_4b/output_inception_4b/output_0_split -> inception_4b/output_inception_4b/output_0_split_0
I0403 15:12:07.314075 18431 net.cpp:399] inception_4b/output_inception_4b/output_0_split -> inception_4b/output_inception_4b/output_0_split_1
I0403 15:12:07.314096 18431 net.cpp:399] inception_4b/output_inception_4b/output_0_split -> inception_4b/output_inception_4b/output_0_split_2
I0403 15:12:07.314117 18431 net.cpp:399] inception_4b/output_inception_4b/output_0_split -> inception_4b/output_inception_4b/output_0_split_3
I0403 15:12:07.314204 18431 net.cpp:141] Setting up inception_4b/output_inception_4b/output_0_split
I0403 15:12:07.314229 18431 net.cpp:148] Top shape: 24 512 14 14 (2408448)
I0403 15:12:07.314247 18431 net.cpp:148] Top shape: 24 512 14 14 (2408448)
I0403 15:12:07.314263 18431 net.cpp:148] Top shape: 24 512 14 14 (2408448)
I0403 15:12:07.314278 18431 net.cpp:148] Top shape: 24 512 14 14 (2408448)
I0403 15:12:07.314292 18431 net.cpp:156] Memory required for data: 1028392224
I0403 15:12:07.314309 18431 layer_factory.hpp:77] Creating layer inception_4c/1x1
I0403 15:12:07.314332 18431 net.cpp:91] Creating Layer inception_4c/1x1
I0403 15:12:07.314350 18431 net.cpp:425] inception_4c/1x1 <- inception_4b/output_inception_4b/output_0_split_0
I0403 15:12:07.314373 18431 net.cpp:399] inception_4c/1x1 -> inception_4c/1x1
I0403 15:12:07.315906 18431 net.cpp:141] Setting up inception_4c/1x1
I0403 15:12:07.315935 18431 net.cpp:148] Top shape: 24 128 14 14 (602112)
I0403 15:12:07.315953 18431 net.cpp:156] Memory required for data: 1030800672
I0403 15:12:07.315979 18431 layer_factory.hpp:77] Creating layer inception_4c/relu_1x1
I0403 15:12:07.316000 18431 net.cpp:91] Creating Layer inception_4c/relu_1x1
I0403 15:12:07.316017 18431 net.cpp:425] inception_4c/relu_1x1 <- inception_4c/1x1
I0403 15:12:07.316035 18431 net.cpp:386] inception_4c/relu_1x1 -> inception_4c/1x1 (in-place)
I0403 15:12:07.316229 18431 net.cpp:141] Setting up inception_4c/relu_1x1
I0403 15:12:07.316256 18431 net.cpp:148] Top shape: 24 128 14 14 (602112)
I0403 15:12:07.316270 18431 net.cpp:156] Memory required for data: 1033209120
I0403 15:12:07.316285 18431 layer_factory.hpp:77] Creating layer inception_4c/3x3_reduce
I0403 15:12:07.316308 18431 net.cpp:91] Creating Layer inception_4c/3x3_reduce
I0403 15:12:07.316328 18431 net.cpp:425] inception_4c/3x3_reduce <- inception_4b/output_inception_4b/output_0_split_1
I0403 15:12:07.316347 18431 net.cpp:399] inception_4c/3x3_reduce -> inception_4c/3x3_reduce
I0403 15:12:07.318398 18431 net.cpp:141] Setting up inception_4c/3x3_reduce
I0403 15:12:07.318429 18431 net.cpp:148] Top shape: 24 128 14 14 (602112)
I0403 15:12:07.318445 18431 net.cpp:156] Memory required for data: 1035617568
I0403 15:12:07.318465 18431 layer_factory.hpp:77] Creating layer inception_4c/relu_3x3_reduce
I0403 15:12:07.318487 18431 net.cpp:91] Creating Layer inception_4c/relu_3x3_reduce
I0403 15:12:07.318506 18431 net.cpp:425] inception_4c/relu_3x3_reduce <- inception_4c/3x3_reduce
I0403 15:12:07.318523 18431 net.cpp:386] inception_4c/relu_3x3_reduce -> inception_4c/3x3_reduce (in-place)
I0403 15:12:07.318827 18431 net.cpp:141] Setting up inception_4c/relu_3x3_reduce
I0403 15:12:07.318856 18431 net.cpp:148] Top shape: 24 128 14 14 (602112)
I0403 15:12:07.318871 18431 net.cpp:156] Memory required for data: 1038026016
I0403 15:12:07.318886 18431 layer_factory.hpp:77] Creating layer inception_4c/3x3
I0403 15:12:07.318913 18431 net.cpp:91] Creating Layer inception_4c/3x3
I0403 15:12:07.318933 18431 net.cpp:425] inception_4c/3x3 <- inception_4c/3x3_reduce
I0403 15:12:07.318951 18431 net.cpp:399] inception_4c/3x3 -> inception_4c/3x3
I0403 15:12:07.322788 18431 net.cpp:141] Setting up inception_4c/3x3
I0403 15:12:07.322836 18431 net.cpp:148] Top shape: 24 256 14 14 (1204224)
I0403 15:12:07.322855 18431 net.cpp:156] Memory required for data: 1042842912
I0403 15:12:07.322890 18431 layer_factory.hpp:77] Creating layer inception_4c/relu_3x3
I0403 15:12:07.322912 18431 net.cpp:91] Creating Layer inception_4c/relu_3x3
I0403 15:12:07.322931 18431 net.cpp:425] inception_4c/relu_3x3 <- inception_4c/3x3
I0403 15:12:07.322949 18431 net.cpp:386] inception_4c/relu_3x3 -> inception_4c/3x3 (in-place)
I0403 15:12:07.323146 18431 net.cpp:141] Setting up inception_4c/relu_3x3
I0403 15:12:07.323174 18431 net.cpp:148] Top shape: 24 256 14 14 (1204224)
I0403 15:12:07.323191 18431 net.cpp:156] Memory required for data: 1047659808
I0403 15:12:07.323207 18431 layer_factory.hpp:77] Creating layer inception_4c/5x5_reduce
I0403 15:12:07.323232 18431 net.cpp:91] Creating Layer inception_4c/5x5_reduce
I0403 15:12:07.323252 18431 net.cpp:425] inception_4c/5x5_reduce <- inception_4b/output_inception_4b/output_0_split_2
I0403 15:12:07.323272 18431 net.cpp:399] inception_4c/5x5_reduce -> inception_4c/5x5_reduce
I0403 15:12:07.324439 18431 net.cpp:141] Setting up inception_4c/5x5_reduce
I0403 15:12:07.324470 18431 net.cpp:148] Top shape: 24 24 14 14 (112896)
I0403 15:12:07.324488 18431 net.cpp:156] Memory required for data: 1048111392
I0403 15:12:07.324508 18431 layer_factory.hpp:77] Creating layer inception_4c/relu_5x5_reduce
I0403 15:12:07.324527 18431 net.cpp:91] Creating Layer inception_4c/relu_5x5_reduce
I0403 15:12:07.324543 18431 net.cpp:425] inception_4c/relu_5x5_reduce <- inception_4c/5x5_reduce
I0403 15:12:07.324564 18431 net.cpp:386] inception_4c/relu_5x5_reduce -> inception_4c/5x5_reduce (in-place)
I0403 15:12:07.324762 18431 net.cpp:141] Setting up inception_4c/relu_5x5_reduce
I0403 15:12:07.324790 18431 net.cpp:148] Top shape: 24 24 14 14 (112896)
I0403 15:12:07.324805 18431 net.cpp:156] Memory required for data: 1048562976
I0403 15:12:07.324820 18431 layer_factory.hpp:77] Creating layer inception_4c/5x5
I0403 15:12:07.324843 18431 net.cpp:91] Creating Layer inception_4c/5x5
I0403 15:12:07.324863 18431 net.cpp:425] inception_4c/5x5 <- inception_4c/5x5_reduce
I0403 15:12:07.324885 18431 net.cpp:399] inception_4c/5x5 -> inception_4c/5x5
I0403 15:12:07.326236 18431 net.cpp:141] Setting up inception_4c/5x5
I0403 15:12:07.326266 18431 net.cpp:148] Top shape: 24 64 14 14 (301056)
I0403 15:12:07.326282 18431 net.cpp:156] Memory required for data: 1049767200
I0403 15:12:07.326302 18431 layer_factory.hpp:77] Creating layer inception_4c/relu_5x5
I0403 15:12:07.326319 18431 net.cpp:91] Creating Layer inception_4c/relu_5x5
I0403 15:12:07.326339 18431 net.cpp:425] inception_4c/relu_5x5 <- inception_4c/5x5
I0403 15:12:07.326357 18431 net.cpp:386] inception_4c/relu_5x5 -> inception_4c/5x5 (in-place)
I0403 15:12:07.326668 18431 net.cpp:141] Setting up inception_4c/relu_5x5
I0403 15:12:07.326695 18431 net.cpp:148] Top shape: 24 64 14 14 (301056)
I0403 15:12:07.326711 18431 net.cpp:156] Memory required for data: 1050971424
I0403 15:12:07.326726 18431 layer_factory.hpp:77] Creating layer inception_4c/pool
I0403 15:12:07.326745 18431 net.cpp:91] Creating Layer inception_4c/pool
I0403 15:12:07.326761 18431 net.cpp:425] inception_4c/pool <- inception_4b/output_inception_4b/output_0_split_3
I0403 15:12:07.326781 18431 net.cpp:399] inception_4c/pool -> inception_4c/pool
I0403 15:12:07.326850 18431 net.cpp:141] Setting up inception_4c/pool
I0403 15:12:07.326877 18431 net.cpp:148] Top shape: 24 512 14 14 (2408448)
I0403 15:12:07.326894 18431 net.cpp:156] Memory required for data: 1060605216
I0403 15:12:07.326907 18431 layer_factory.hpp:77] Creating layer inception_4c/pool_proj
I0403 15:12:07.326930 18431 net.cpp:91] Creating Layer inception_4c/pool_proj
I0403 15:12:07.326948 18431 net.cpp:425] inception_4c/pool_proj <- inception_4c/pool
I0403 15:12:07.326973 18431 net.cpp:399] inception_4c/pool_proj -> inception_4c/pool_proj
I0403 15:12:07.328265 18431 net.cpp:141] Setting up inception_4c/pool_proj
I0403 15:12:07.328299 18431 net.cpp:148] Top shape: 24 64 14 14 (301056)
I0403 15:12:07.328330 18431 net.cpp:156] Memory required for data: 1061809440
I0403 15:12:07.328349 18431 layer_factory.hpp:77] Creating layer inception_4c/relu_pool_proj
I0403 15:12:07.328368 18431 net.cpp:91] Creating Layer inception_4c/relu_pool_proj
I0403 15:12:07.328385 18431 net.cpp:425] inception_4c/relu_pool_proj <- inception_4c/pool_proj
I0403 15:12:07.328403 18431 net.cpp:386] inception_4c/relu_pool_proj -> inception_4c/pool_proj (in-place)
I0403 15:12:07.328594 18431 net.cpp:141] Setting up inception_4c/relu_pool_proj
I0403 15:12:07.328619 18431 net.cpp:148] Top shape: 24 64 14 14 (301056)
I0403 15:12:07.328635 18431 net.cpp:156] Memory required for data: 1063013664
I0403 15:12:07.328650 18431 layer_factory.hpp:77] Creating layer inception_4c/output
I0403 15:12:07.328667 18431 net.cpp:91] Creating Layer inception_4c/output
I0403 15:12:07.328683 18431 net.cpp:425] inception_4c/output <- inception_4c/1x1
I0403 15:12:07.328701 18431 net.cpp:425] inception_4c/output <- inception_4c/3x3
I0403 15:12:07.328716 18431 net.cpp:425] inception_4c/output <- inception_4c/5x5
I0403 15:12:07.328732 18431 net.cpp:425] inception_4c/output <- inception_4c/pool_proj
I0403 15:12:07.328752 18431 net.cpp:399] inception_4c/output -> inception_4c/output
I0403 15:12:07.328799 18431 net.cpp:141] Setting up inception_4c/output
I0403 15:12:07.328825 18431 net.cpp:148] Top shape: 24 512 14 14 (2408448)
I0403 15:12:07.328840 18431 net.cpp:156] Memory required for data: 1072647456
I0403 15:12:07.328855 18431 layer_factory.hpp:77] Creating layer inception_4c/output_inception_4c/output_0_split
I0403 15:12:07.328872 18431 net.cpp:91] Creating Layer inception_4c/output_inception_4c/output_0_split
I0403 15:12:07.328888 18431 net.cpp:425] inception_4c/output_inception_4c/output_0_split <- inception_4c/output
I0403 15:12:07.328905 18431 net.cpp:399] inception_4c/output_inception_4c/output_0_split -> inception_4c/output_inception_4c/output_0_split_0
I0403 15:12:07.328928 18431 net.cpp:399] inception_4c/output_inception_4c/output_0_split -> inception_4c/output_inception_4c/output_0_split_1
I0403 15:12:07.328949 18431 net.cpp:399] inception_4c/output_inception_4c/output_0_split -> inception_4c/output_inception_4c/output_0_split_2
I0403 15:12:07.328984 18431 net.cpp:399] inception_4c/output_inception_4c/output_0_split -> inception_4c/output_inception_4c/output_0_split_3
I0403 15:12:07.329072 18431 net.cpp:141] Setting up inception_4c/output_inception_4c/output_0_split
I0403 15:12:07.329097 18431 net.cpp:148] Top shape: 24 512 14 14 (2408448)
I0403 15:12:07.329115 18431 net.cpp:148] Top shape: 24 512 14 14 (2408448)
I0403 15:12:07.329130 18431 net.cpp:148] Top shape: 24 512 14 14 (2408448)
I0403 15:12:07.329146 18431 net.cpp:148] Top shape: 24 512 14 14 (2408448)
I0403 15:12:07.329159 18431 net.cpp:156] Memory required for data: 1111182624
I0403 15:12:07.329174 18431 layer_factory.hpp:77] Creating layer inception_4d/1x1
I0403 15:12:07.329196 18431 net.cpp:91] Creating Layer inception_4d/1x1
I0403 15:12:07.329215 18431 net.cpp:425] inception_4d/1x1 <- inception_4c/output_inception_4c/output_0_split_0
I0403 15:12:07.329234 18431 net.cpp:399] inception_4d/1x1 -> inception_4d/1x1
I0403 15:12:07.330667 18431 net.cpp:141] Setting up inception_4d/1x1
I0403 15:12:07.330695 18431 net.cpp:148] Top shape: 24 112 14 14 (526848)
I0403 15:12:07.330711 18431 net.cpp:156] Memory required for data: 1113290016
I0403 15:12:07.330730 18431 layer_factory.hpp:77] Creating layer inception_4d/relu_1x1
I0403 15:12:07.330751 18431 net.cpp:91] Creating Layer inception_4d/relu_1x1
I0403 15:12:07.330767 18431 net.cpp:425] inception_4d/relu_1x1 <- inception_4d/1x1
I0403 15:12:07.330785 18431 net.cpp:386] inception_4d/relu_1x1 -> inception_4d/1x1 (in-place)
I0403 15:12:07.330981 18431 net.cpp:141] Setting up inception_4d/relu_1x1
I0403 15:12:07.331009 18431 net.cpp:148] Top shape: 24 112 14 14 (526848)
I0403 15:12:07.331024 18431 net.cpp:156] Memory required for data: 1115397408
I0403 15:12:07.331038 18431 layer_factory.hpp:77] Creating layer inception_4d/3x3_reduce
I0403 15:12:07.331074 18431 net.cpp:91] Creating Layer inception_4d/3x3_reduce
I0403 15:12:07.331094 18431 net.cpp:425] inception_4d/3x3_reduce <- inception_4c/output_inception_4c/output_0_split_1
I0403 15:12:07.331112 18431 net.cpp:399] inception_4d/3x3_reduce -> inception_4d/3x3_reduce
I0403 15:12:07.332661 18431 net.cpp:141] Setting up inception_4d/3x3_reduce
I0403 15:12:07.332689 18431 net.cpp:148] Top shape: 24 144 14 14 (677376)
I0403 15:12:07.332705 18431 net.cpp:156] Memory required for data: 1118106912
I0403 15:12:07.332723 18431 layer_factory.hpp:77] Creating layer inception_4d/relu_3x3_reduce
I0403 15:12:07.332741 18431 net.cpp:91] Creating Layer inception_4d/relu_3x3_reduce
I0403 15:12:07.332756 18431 net.cpp:425] inception_4d/relu_3x3_reduce <- inception_4d/3x3_reduce
I0403 15:12:07.332778 18431 net.cpp:386] inception_4d/relu_3x3_reduce -> inception_4d/3x3_reduce (in-place)
I0403 15:12:07.333081 18431 net.cpp:141] Setting up inception_4d/relu_3x3_reduce
I0403 15:12:07.333108 18431 net.cpp:148] Top shape: 24 144 14 14 (677376)
I0403 15:12:07.333122 18431 net.cpp:156] Memory required for data: 1120816416
I0403 15:12:07.333138 18431 layer_factory.hpp:77] Creating layer inception_4d/3x3
I0403 15:12:07.333160 18431 net.cpp:91] Creating Layer inception_4d/3x3
I0403 15:12:07.333178 18431 net.cpp:425] inception_4d/3x3 <- inception_4d/3x3_reduce
I0403 15:12:07.333199 18431 net.cpp:399] inception_4d/3x3 -> inception_4d/3x3
I0403 15:12:07.337594 18431 net.cpp:141] Setting up inception_4d/3x3
I0403 15:12:07.337623 18431 net.cpp:148] Top shape: 24 288 14 14 (1354752)
I0403 15:12:07.337640 18431 net.cpp:156] Memory required for data: 1126235424
I0403 15:12:07.337657 18431 layer_factory.hpp:77] Creating layer inception_4d/relu_3x3
I0403 15:12:07.337678 18431 net.cpp:91] Creating Layer inception_4d/relu_3x3
I0403 15:12:07.337695 18431 net.cpp:425] inception_4d/relu_3x3 <- inception_4d/3x3
I0403 15:12:07.337713 18431 net.cpp:386] inception_4d/relu_3x3 -> inception_4d/3x3 (in-place)
I0403 15:12:07.337898 18431 net.cpp:141] Setting up inception_4d/relu_3x3
I0403 15:12:07.337925 18431 net.cpp:148] Top shape: 24 288 14 14 (1354752)
I0403 15:12:07.337940 18431 net.cpp:156] Memory required for data: 1131654432
I0403 15:12:07.337960 18431 layer_factory.hpp:77] Creating layer inception_4d/5x5_reduce
I0403 15:12:07.337986 18431 net.cpp:91] Creating Layer inception_4d/5x5_reduce
I0403 15:12:07.338004 18431 net.cpp:425] inception_4d/5x5_reduce <- inception_4c/output_inception_4c/output_0_split_2
I0403 15:12:07.338023 18431 net.cpp:399] inception_4d/5x5_reduce -> inception_4d/5x5_reduce
I0403 15:12:07.339218 18431 net.cpp:141] Setting up inception_4d/5x5_reduce
I0403 15:12:07.339248 18431 net.cpp:148] Top shape: 24 32 14 14 (150528)
I0403 15:12:07.339264 18431 net.cpp:156] Memory required for data: 1132256544
I0403 15:12:07.339282 18431 layer_factory.hpp:77] Creating layer inception_4d/relu_5x5_reduce
I0403 15:12:07.339303 18431 net.cpp:91] Creating Layer inception_4d/relu_5x5_reduce
I0403 15:12:07.339319 18431 net.cpp:425] inception_4d/relu_5x5_reduce <- inception_4d/5x5_reduce
I0403 15:12:07.339337 18431 net.cpp:386] inception_4d/relu_5x5_reduce -> inception_4d/5x5_reduce (in-place)
I0403 15:12:07.339532 18431 net.cpp:141] Setting up inception_4d/relu_5x5_reduce
I0403 15:12:07.339560 18431 net.cpp:148] Top shape: 24 32 14 14 (150528)
I0403 15:12:07.339576 18431 net.cpp:156] Memory required for data: 1132858656
I0403 15:12:07.339591 18431 layer_factory.hpp:77] Creating layer inception_4d/5x5
I0403 15:12:07.339612 18431 net.cpp:91] Creating Layer inception_4d/5x5
I0403 15:12:07.339633 18431 net.cpp:425] inception_4d/5x5 <- inception_4d/5x5_reduce
I0403 15:12:07.339653 18431 net.cpp:399] inception_4d/5x5 -> inception_4d/5x5
I0403 15:12:07.341187 18431 net.cpp:141] Setting up inception_4d/5x5
I0403 15:12:07.341217 18431 net.cpp:148] Top shape: 24 64 14 14 (301056)
I0403 15:12:07.341233 18431 net.cpp:156] Memory required for data: 1134062880
I0403 15:12:07.341253 18431 layer_factory.hpp:77] Creating layer inception_4d/relu_5x5
I0403 15:12:07.341289 18431 net.cpp:91] Creating Layer inception_4d/relu_5x5
I0403 15:12:07.341305 18431 net.cpp:425] inception_4d/relu_5x5 <- inception_4d/5x5
I0403 15:12:07.341325 18431 net.cpp:386] inception_4d/relu_5x5 -> inception_4d/5x5 (in-place)
I0403 15:12:07.341636 18431 net.cpp:141] Setting up inception_4d/relu_5x5
I0403 15:12:07.341665 18431 net.cpp:148] Top shape: 24 64 14 14 (301056)
I0403 15:12:07.341681 18431 net.cpp:156] Memory required for data: 1135267104
I0403 15:12:07.341696 18431 layer_factory.hpp:77] Creating layer inception_4d/pool
I0403 15:12:07.341713 18431 net.cpp:91] Creating Layer inception_4d/pool
I0403 15:12:07.341730 18431 net.cpp:425] inception_4d/pool <- inception_4c/output_inception_4c/output_0_split_3
I0403 15:12:07.341750 18431 net.cpp:399] inception_4d/pool -> inception_4d/pool
I0403 15:12:07.341820 18431 net.cpp:141] Setting up inception_4d/pool
I0403 15:12:07.341845 18431 net.cpp:148] Top shape: 24 512 14 14 (2408448)
I0403 15:12:07.341861 18431 net.cpp:156] Memory required for data: 1144900896
I0403 15:12:07.341876 18431 layer_factory.hpp:77] Creating layer inception_4d/pool_proj
I0403 15:12:07.341897 18431 net.cpp:91] Creating Layer inception_4d/pool_proj
I0403 15:12:07.341912 18431 net.cpp:425] inception_4d/pool_proj <- inception_4d/pool
I0403 15:12:07.341933 18431 net.cpp:399] inception_4d/pool_proj -> inception_4d/pool_proj
I0403 15:12:07.343765 18431 net.cpp:141] Setting up inception_4d/pool_proj
I0403 15:12:07.343796 18431 net.cpp:148] Top shape: 24 64 14 14 (301056)
I0403 15:12:07.343811 18431 net.cpp:156] Memory required for data: 1146105120
I0403 15:12:07.343829 18431 layer_factory.hpp:77] Creating layer inception_4d/relu_pool_proj
I0403 15:12:07.343849 18431 net.cpp:91] Creating Layer inception_4d/relu_pool_proj
I0403 15:12:07.343866 18431 net.cpp:425] inception_4d/relu_pool_proj <- inception_4d/pool_proj
I0403 15:12:07.343884 18431 net.cpp:386] inception_4d/relu_pool_proj -> inception_4d/pool_proj (in-place)
I0403 15:12:07.344094 18431 net.cpp:141] Setting up inception_4d/relu_pool_proj
I0403 15:12:07.344125 18431 net.cpp:148] Top shape: 24 64 14 14 (301056)
I0403 15:12:07.344141 18431 net.cpp:156] Memory required for data: 1147309344
I0403 15:12:07.344156 18431 layer_factory.hpp:77] Creating layer inception_4d/output
I0403 15:12:07.344174 18431 net.cpp:91] Creating Layer inception_4d/output
I0403 15:12:07.344190 18431 net.cpp:425] inception_4d/output <- inception_4d/1x1
I0403 15:12:07.344208 18431 net.cpp:425] inception_4d/output <- inception_4d/3x3
I0403 15:12:07.344223 18431 net.cpp:425] inception_4d/output <- inception_4d/5x5
I0403 15:12:07.344239 18431 net.cpp:425] inception_4d/output <- inception_4d/pool_proj
I0403 15:12:07.344256 18431 net.cpp:399] inception_4d/output -> inception_4d/output
I0403 15:12:07.344307 18431 net.cpp:141] Setting up inception_4d/output
I0403 15:12:07.344332 18431 net.cpp:148] Top shape: 24 528 14 14 (2483712)
I0403 15:12:07.344347 18431 net.cpp:156] Memory required for data: 1157244192
I0403 15:12:07.344362 18431 layer_factory.hpp:77] Creating layer inception_4d/output_inception_4d/output_0_split
I0403 15:12:07.344396 18431 net.cpp:91] Creating Layer inception_4d/output_inception_4d/output_0_split
I0403 15:12:07.344413 18431 net.cpp:425] inception_4d/output_inception_4d/output_0_split <- inception_4d/output
I0403 15:12:07.344430 18431 net.cpp:399] inception_4d/output_inception_4d/output_0_split -> inception_4d/output_inception_4d/output_0_split_0
I0403 15:12:07.344450 18431 net.cpp:399] inception_4d/output_inception_4d/output_0_split -> inception_4d/output_inception_4d/output_0_split_1
I0403 15:12:07.344471 18431 net.cpp:399] inception_4d/output_inception_4d/output_0_split -> inception_4d/output_inception_4d/output_0_split_2
I0403 15:12:07.344494 18431 net.cpp:399] inception_4d/output_inception_4d/output_0_split -> inception_4d/output_inception_4d/output_0_split_3
I0403 15:12:07.344516 18431 net.cpp:399] inception_4d/output_inception_4d/output_0_split -> inception_4d/output_inception_4d/output_0_split_4
I0403 15:12:07.344621 18431 net.cpp:141] Setting up inception_4d/output_inception_4d/output_0_split
I0403 15:12:07.344657 18431 net.cpp:148] Top shape: 24 528 14 14 (2483712)
I0403 15:12:07.344674 18431 net.cpp:148] Top shape: 24 528 14 14 (2483712)
I0403 15:12:07.344689 18431 net.cpp:148] Top shape: 24 528 14 14 (2483712)
I0403 15:12:07.344705 18431 net.cpp:148] Top shape: 24 528 14 14 (2483712)
I0403 15:12:07.344720 18431 net.cpp:148] Top shape: 24 528 14 14 (2483712)
I0403 15:12:07.344735 18431 net.cpp:156] Memory required for data: 1206918432
I0403 15:12:07.344749 18431 layer_factory.hpp:77] Creating layer loss2/ave_pool
I0403 15:12:07.344770 18431 net.cpp:91] Creating Layer loss2/ave_pool
I0403 15:12:07.344787 18431 net.cpp:425] loss2/ave_pool <- inception_4d/output_inception_4d/output_0_split_0
I0403 15:12:07.344806 18431 net.cpp:399] loss2/ave_pool -> loss2/ave_pool
I0403 15:12:07.345142 18431 net.cpp:141] Setting up loss2/ave_pool
I0403 15:12:07.345170 18431 net.cpp:148] Top shape: 24 528 4 4 (202752)
I0403 15:12:07.345185 18431 net.cpp:156] Memory required for data: 1207729440
I0403 15:12:07.345199 18431 layer_factory.hpp:77] Creating layer loss2/conv
I0403 15:12:07.345221 18431 net.cpp:91] Creating Layer loss2/conv
I0403 15:12:07.345242 18431 net.cpp:425] loss2/conv <- loss2/ave_pool
I0403 15:12:07.345262 18431 net.cpp:399] loss2/conv -> loss2/conv
I0403 15:12:07.347277 18431 net.cpp:141] Setting up loss2/conv
I0403 15:12:07.347307 18431 net.cpp:148] Top shape: 24 128 4 4 (49152)
I0403 15:12:07.347324 18431 net.cpp:156] Memory required for data: 1207926048
I0403 15:12:07.347343 18431 layer_factory.hpp:77] Creating layer loss2/relu_conv
I0403 15:12:07.347362 18431 net.cpp:91] Creating Layer loss2/relu_conv
I0403 15:12:07.347378 18431 net.cpp:425] loss2/relu_conv <- loss2/conv
I0403 15:12:07.347398 18431 net.cpp:386] loss2/relu_conv -> loss2/conv (in-place)
I0403 15:12:07.347703 18431 net.cpp:141] Setting up loss2/relu_conv
I0403 15:12:07.347730 18431 net.cpp:148] Top shape: 24 128 4 4 (49152)
I0403 15:12:07.347745 18431 net.cpp:156] Memory required for data: 1208122656
I0403 15:12:07.347761 18431 layer_factory.hpp:77] Creating layer loss2/fc
I0403 15:12:07.347781 18431 net.cpp:91] Creating Layer loss2/fc
I0403 15:12:07.347798 18431 net.cpp:425] loss2/fc <- loss2/conv
I0403 15:12:07.347820 18431 net.cpp:399] loss2/fc -> loss2/fc
I0403 15:12:07.366698 18431 net.cpp:141] Setting up loss2/fc
I0403 15:12:07.366758 18431 net.cpp:148] Top shape: 24 1024 (24576)
I0403 15:12:07.366775 18431 net.cpp:156] Memory required for data: 1208220960
I0403 15:12:07.366796 18431 layer_factory.hpp:77] Creating layer loss2/relu_fc
I0403 15:12:07.366814 18431 net.cpp:91] Creating Layer loss2/relu_fc
I0403 15:12:07.366832 18431 net.cpp:425] loss2/relu_fc <- loss2/fc
I0403 15:12:07.366850 18431 net.cpp:386] loss2/relu_fc -> loss2/fc (in-place)
I0403 15:12:07.367211 18431 net.cpp:141] Setting up loss2/relu_fc
I0403 15:12:07.367240 18431 net.cpp:148] Top shape: 24 1024 (24576)
I0403 15:12:07.367256 18431 net.cpp:156] Memory required for data: 1208319264
I0403 15:12:07.367270 18431 layer_factory.hpp:77] Creating layer loss2/drop_fc
I0403 15:12:07.367290 18431 net.cpp:91] Creating Layer loss2/drop_fc
I0403 15:12:07.367305 18431 net.cpp:425] loss2/drop_fc <- loss2/fc
I0403 15:12:07.367322 18431 net.cpp:386] loss2/drop_fc -> loss2/fc (in-place)
I0403 15:12:07.367375 18431 net.cpp:141] Setting up loss2/drop_fc
I0403 15:12:07.367399 18431 net.cpp:148] Top shape: 24 1024 (24576)
I0403 15:12:07.367414 18431 net.cpp:156] Memory required for data: 1208417568
I0403 15:12:07.367429 18431 layer_factory.hpp:77] Creating layer loss2/classifier_plantvillage
I0403 15:12:07.367451 18431 net.cpp:91] Creating Layer loss2/classifier_plantvillage
I0403 15:12:07.367468 18431 net.cpp:425] loss2/classifier_plantvillage <- loss2/fc
I0403 15:12:07.367487 18431 net.cpp:399] loss2/classifier_plantvillage -> loss2/classifier_plantvillage
I0403 15:12:07.367914 18431 net.cpp:141] Setting up loss2/classifier_plantvillage
I0403 15:12:07.367939 18431 net.cpp:148] Top shape: 24 38 (912)
I0403 15:12:07.367995 18431 net.cpp:156] Memory required for data: 1208421216
I0403 15:12:07.368016 18431 layer_factory.hpp:77] Creating layer loss2/classifier_plantvillage_loss2/classifier_plantvillage_0_split
I0403 15:12:07.368034 18431 net.cpp:91] Creating Layer loss2/classifier_plantvillage_loss2/classifier_plantvillage_0_split
I0403 15:12:07.368052 18431 net.cpp:425] loss2/classifier_plantvillage_loss2/classifier_plantvillage_0_split <- loss2/classifier_plantvillage
I0403 15:12:07.368072 18431 net.cpp:399] loss2/classifier_plantvillage_loss2/classifier_plantvillage_0_split -> loss2/classifier_plantvillage_loss2/classifier_plantvillage_0_split_0
I0403 15:12:07.368093 18431 net.cpp:399] loss2/classifier_plantvillage_loss2/classifier_plantvillage_0_split -> loss2/classifier_plantvillage_loss2/classifier_plantvillage_0_split_1
I0403 15:12:07.368113 18431 net.cpp:399] loss2/classifier_plantvillage_loss2/classifier_plantvillage_0_split -> loss2/classifier_plantvillage_loss2/classifier_plantvillage_0_split_2
I0403 15:12:07.368194 18431 net.cpp:141] Setting up loss2/classifier_plantvillage_loss2/classifier_plantvillage_0_split
I0403 15:12:07.368221 18431 net.cpp:148] Top shape: 24 38 (912)
I0403 15:12:07.368237 18431 net.cpp:148] Top shape: 24 38 (912)
I0403 15:12:07.368252 18431 net.cpp:148] Top shape: 24 38 (912)
I0403 15:12:07.368266 18431 net.cpp:156] Memory required for data: 1208432160
I0403 15:12:07.368280 18431 layer_factory.hpp:77] Creating layer inception_4e/1x1
I0403 15:12:07.368304 18431 net.cpp:91] Creating Layer inception_4e/1x1
I0403 15:12:07.368322 18431 net.cpp:425] inception_4e/1x1 <- inception_4d/output_inception_4d/output_0_split_1
I0403 15:12:07.368342 18431 net.cpp:399] inception_4e/1x1 -> inception_4e/1x1
I0403 15:12:07.370304 18431 net.cpp:141] Setting up inception_4e/1x1
I0403 15:12:07.370333 18431 net.cpp:148] Top shape: 24 256 14 14 (1204224)
I0403 15:12:07.370349 18431 net.cpp:156] Memory required for data: 1213249056
I0403 15:12:07.370368 18431 layer_factory.hpp:77] Creating layer inception_4e/relu_1x1
I0403 15:12:07.370386 18431 net.cpp:91] Creating Layer inception_4e/relu_1x1
I0403 15:12:07.370403 18431 net.cpp:425] inception_4e/relu_1x1 <- inception_4e/1x1
I0403 15:12:07.370422 18431 net.cpp:386] inception_4e/relu_1x1 -> inception_4e/1x1 (in-place)
I0403 15:12:07.370728 18431 net.cpp:141] Setting up inception_4e/relu_1x1
I0403 15:12:07.370754 18431 net.cpp:148] Top shape: 24 256 14 14 (1204224)
I0403 15:12:07.370769 18431 net.cpp:156] Memory required for data: 1218065952
I0403 15:12:07.370784 18431 layer_factory.hpp:77] Creating layer inception_4e/3x3_reduce
I0403 15:12:07.370806 18431 net.cpp:91] Creating Layer inception_4e/3x3_reduce
I0403 15:12:07.370823 18431 net.cpp:425] inception_4e/3x3_reduce <- inception_4d/output_inception_4d/output_0_split_2
I0403 15:12:07.370846 18431 net.cpp:399] inception_4e/3x3_reduce -> inception_4e/3x3_reduce
I0403 15:12:07.373102 18431 net.cpp:141] Setting up inception_4e/3x3_reduce
I0403 15:12:07.373134 18431 net.cpp:148] Top shape: 24 160 14 14 (752640)
I0403 15:12:07.373152 18431 net.cpp:156] Memory required for data: 1221076512
I0403 15:12:07.373170 18431 layer_factory.hpp:77] Creating layer inception_4e/relu_3x3_reduce
I0403 15:12:07.373189 18431 net.cpp:91] Creating Layer inception_4e/relu_3x3_reduce
I0403 15:12:07.373205 18431 net.cpp:425] inception_4e/relu_3x3_reduce <- inception_4e/3x3_reduce
I0403 15:12:07.373225 18431 net.cpp:386] inception_4e/relu_3x3_reduce -> inception_4e/3x3_reduce (in-place)
I0403 15:12:07.373421 18431 net.cpp:141] Setting up inception_4e/relu_3x3_reduce
I0403 15:12:07.373447 18431 net.cpp:148] Top shape: 24 160 14 14 (752640)
I0403 15:12:07.373461 18431 net.cpp:156] Memory required for data: 1224087072
I0403 15:12:07.373476 18431 layer_factory.hpp:77] Creating layer inception_4e/3x3
I0403 15:12:07.373499 18431 net.cpp:91] Creating Layer inception_4e/3x3
I0403 15:12:07.373517 18431 net.cpp:425] inception_4e/3x3 <- inception_4e/3x3_reduce
I0403 15:12:07.373538 18431 net.cpp:399] inception_4e/3x3 -> inception_4e/3x3
I0403 15:12:07.378757 18431 net.cpp:141] Setting up inception_4e/3x3
I0403 15:12:07.378799 18431 net.cpp:148] Top shape: 24 320 14 14 (1505280)
I0403 15:12:07.378816 18431 net.cpp:156] Memory required for data: 1230108192
I0403 15:12:07.378834 18431 layer_factory.hpp:77] Creating layer inception_4e/relu_3x3
I0403 15:12:07.378855 18431 net.cpp:91] Creating Layer inception_4e/relu_3x3
I0403 15:12:07.378872 18431 net.cpp:425] inception_4e/relu_3x3 <- inception_4e/3x3
I0403 15:12:07.378890 18431 net.cpp:386] inception_4e/relu_3x3 -> inception_4e/3x3 (in-place)
I0403 15:12:07.379206 18431 net.cpp:141] Setting up inception_4e/relu_3x3
I0403 15:12:07.379232 18431 net.cpp:148] Top shape: 24 320 14 14 (1505280)
I0403 15:12:07.379247 18431 net.cpp:156] Memory required for data: 1236129312
I0403 15:12:07.379262 18431 layer_factory.hpp:77] Creating layer inception_4e/5x5_reduce
I0403 15:12:07.379286 18431 net.cpp:91] Creating Layer inception_4e/5x5_reduce
I0403 15:12:07.379303 18431 net.cpp:425] inception_4e/5x5_reduce <- inception_4d/output_inception_4d/output_0_split_3
I0403 15:12:07.379324 18431 net.cpp:399] inception_4e/5x5_reduce -> inception_4e/5x5_reduce
I0403 15:12:07.380465 18431 net.cpp:141] Setting up inception_4e/5x5_reduce
I0403 15:12:07.380496 18431 net.cpp:148] Top shape: 24 32 14 14 (150528)
I0403 15:12:07.380512 18431 net.cpp:156] Memory required for data: 1236731424
I0403 15:12:07.380532 18431 layer_factory.hpp:77] Creating layer inception_4e/relu_5x5_reduce
I0403 15:12:07.380550 18431 net.cpp:91] Creating Layer inception_4e/relu_5x5_reduce
I0403 15:12:07.380568 18431 net.cpp:425] inception_4e/relu_5x5_reduce <- inception_4e/5x5_reduce
I0403 15:12:07.380587 18431 net.cpp:386] inception_4e/relu_5x5_reduce -> inception_4e/5x5_reduce (in-place)
I0403 15:12:07.380902 18431 net.cpp:141] Setting up inception_4e/relu_5x5_reduce
I0403 15:12:07.380930 18431 net.cpp:148] Top shape: 24 32 14 14 (150528)
I0403 15:12:07.380946 18431 net.cpp:156] Memory required for data: 1237333536
I0403 15:12:07.380970 18431 layer_factory.hpp:77] Creating layer inception_4e/5x5
I0403 15:12:07.381012 18431 net.cpp:91] Creating Layer inception_4e/5x5
I0403 15:12:07.381033 18431 net.cpp:425] inception_4e/5x5 <- inception_4e/5x5_reduce
I0403 15:12:07.381053 18431 net.cpp:399] inception_4e/5x5 -> inception_4e/5x5
I0403 15:12:07.383019 18431 net.cpp:141] Setting up inception_4e/5x5
I0403 15:12:07.383049 18431 net.cpp:148] Top shape: 24 128 14 14 (602112)
I0403 15:12:07.383065 18431 net.cpp:156] Memory required for data: 1239741984
I0403 15:12:07.383085 18431 layer_factory.hpp:77] Creating layer inception_4e/relu_5x5
I0403 15:12:07.383105 18431 net.cpp:91] Creating Layer inception_4e/relu_5x5
I0403 15:12:07.383123 18431 net.cpp:425] inception_4e/relu_5x5 <- inception_4e/5x5
I0403 15:12:07.383141 18431 net.cpp:386] inception_4e/relu_5x5 -> inception_4e/5x5 (in-place)
I0403 15:12:07.383352 18431 net.cpp:141] Setting up inception_4e/relu_5x5
I0403 15:12:07.383378 18431 net.cpp:148] Top shape: 24 128 14 14 (602112)
I0403 15:12:07.383394 18431 net.cpp:156] Memory required for data: 1242150432
I0403 15:12:07.383409 18431 layer_factory.hpp:77] Creating layer inception_4e/pool
I0403 15:12:07.383427 18431 net.cpp:91] Creating Layer inception_4e/pool
I0403 15:12:07.383445 18431 net.cpp:425] inception_4e/pool <- inception_4d/output_inception_4d/output_0_split_4
I0403 15:12:07.383466 18431 net.cpp:399] inception_4e/pool -> inception_4e/pool
I0403 15:12:07.383540 18431 net.cpp:141] Setting up inception_4e/pool
I0403 15:12:07.383565 18431 net.cpp:148] Top shape: 24 528 14 14 (2483712)
I0403 15:12:07.383580 18431 net.cpp:156] Memory required for data: 1252085280
I0403 15:12:07.383595 18431 layer_factory.hpp:77] Creating layer inception_4e/pool_proj
I0403 15:12:07.383620 18431 net.cpp:91] Creating Layer inception_4e/pool_proj
I0403 15:12:07.383638 18431 net.cpp:425] inception_4e/pool_proj <- inception_4e/pool
I0403 15:12:07.383657 18431 net.cpp:399] inception_4e/pool_proj -> inception_4e/pool_proj
I0403 15:12:07.385254 18431 net.cpp:141] Setting up inception_4e/pool_proj
I0403 15:12:07.385296 18431 net.cpp:148] Top shape: 24 128 14 14 (602112)
I0403 15:12:07.385313 18431 net.cpp:156] Memory required for data: 1254493728
I0403 15:12:07.385331 18431 layer_factory.hpp:77] Creating layer inception_4e/relu_pool_proj
I0403 15:12:07.385354 18431 net.cpp:91] Creating Layer inception_4e/relu_pool_proj
I0403 15:12:07.385371 18431 net.cpp:425] inception_4e/relu_pool_proj <- inception_4e/pool_proj
I0403 15:12:07.385390 18431 net.cpp:386] inception_4e/relu_pool_proj -> inception_4e/pool_proj (in-place)
I0403 15:12:07.385699 18431 net.cpp:141] Setting up inception_4e/relu_pool_proj
I0403 15:12:07.385726 18431 net.cpp:148] Top shape: 24 128 14 14 (602112)
I0403 15:12:07.385741 18431 net.cpp:156] Memory required for data: 1256902176
I0403 15:12:07.385757 18431 layer_factory.hpp:77] Creating layer inception_4e/output
I0403 15:12:07.385778 18431 net.cpp:91] Creating Layer inception_4e/output
I0403 15:12:07.385795 18431 net.cpp:425] inception_4e/output <- inception_4e/1x1
I0403 15:12:07.385812 18431 net.cpp:425] inception_4e/output <- inception_4e/3x3
I0403 15:12:07.385829 18431 net.cpp:425] inception_4e/output <- inception_4e/5x5
I0403 15:12:07.385846 18431 net.cpp:425] inception_4e/output <- inception_4e/pool_proj
I0403 15:12:07.385864 18431 net.cpp:399] inception_4e/output -> inception_4e/output
I0403 15:12:07.385920 18431 net.cpp:141] Setting up inception_4e/output
I0403 15:12:07.385943 18431 net.cpp:148] Top shape: 24 832 14 14 (3913728)
I0403 15:12:07.385967 18431 net.cpp:156] Memory required for data: 1272557088
I0403 15:12:07.385982 18431 layer_factory.hpp:77] Creating layer pool4/3x3_s2
I0403 15:12:07.386000 18431 net.cpp:91] Creating Layer pool4/3x3_s2
I0403 15:12:07.386018 18431 net.cpp:425] pool4/3x3_s2 <- inception_4e/output
I0403 15:12:07.386039 18431 net.cpp:399] pool4/3x3_s2 -> pool4/3x3_s2
I0403 15:12:07.386111 18431 net.cpp:141] Setting up pool4/3x3_s2
I0403 15:12:07.386135 18431 net.cpp:148] Top shape: 24 832 7 7 (978432)
I0403 15:12:07.386150 18431 net.cpp:156] Memory required for data: 1276470816
I0403 15:12:07.386167 18431 layer_factory.hpp:77] Creating layer pool4/3x3_s2_pool4/3x3_s2_0_split
I0403 15:12:07.386188 18431 net.cpp:91] Creating Layer pool4/3x3_s2_pool4/3x3_s2_0_split
I0403 15:12:07.386204 18431 net.cpp:425] pool4/3x3_s2_pool4/3x3_s2_0_split <- pool4/3x3_s2
I0403 15:12:07.386225 18431 net.cpp:399] pool4/3x3_s2_pool4/3x3_s2_0_split -> pool4/3x3_s2_pool4/3x3_s2_0_split_0
I0403 15:12:07.386247 18431 net.cpp:399] pool4/3x3_s2_pool4/3x3_s2_0_split -> pool4/3x3_s2_pool4/3x3_s2_0_split_1
I0403 15:12:07.386268 18431 net.cpp:399] pool4/3x3_s2_pool4/3x3_s2_0_split -> pool4/3x3_s2_pool4/3x3_s2_0_split_2
I0403 15:12:07.386289 18431 net.cpp:399] pool4/3x3_s2_pool4/3x3_s2_0_split -> pool4/3x3_s2_pool4/3x3_s2_0_split_3
I0403 15:12:07.386384 18431 net.cpp:141] Setting up pool4/3x3_s2_pool4/3x3_s2_0_split
I0403 15:12:07.386409 18431 net.cpp:148] Top shape: 24 832 7 7 (978432)
I0403 15:12:07.386428 18431 net.cpp:148] Top shape: 24 832 7 7 (978432)
I0403 15:12:07.386445 18431 net.cpp:148] Top shape: 24 832 7 7 (978432)
I0403 15:12:07.386461 18431 net.cpp:148] Top shape: 24 832 7 7 (978432)
I0403 15:12:07.386476 18431 net.cpp:156] Memory required for data: 1292125728
I0403 15:12:07.386490 18431 layer_factory.hpp:77] Creating layer inception_5a/1x1
I0403 15:12:07.386510 18431 net.cpp:91] Creating Layer inception_5a/1x1
I0403 15:12:07.386528 18431 net.cpp:425] inception_5a/1x1 <- pool4/3x3_s2_pool4/3x3_s2_0_split_0
I0403 15:12:07.386550 18431 net.cpp:399] inception_5a/1x1 -> inception_5a/1x1
I0403 15:12:07.389577 18431 net.cpp:141] Setting up inception_5a/1x1
I0403 15:12:07.389610 18431 net.cpp:148] Top shape: 24 256 7 7 (301056)
I0403 15:12:07.389626 18431 net.cpp:156] Memory required for data: 1293329952
I0403 15:12:07.389644 18431 layer_factory.hpp:77] Creating layer inception_5a/relu_1x1
I0403 15:12:07.389662 18431 net.cpp:91] Creating Layer inception_5a/relu_1x1
I0403 15:12:07.389679 18431 net.cpp:425] inception_5a/relu_1x1 <- inception_5a/1x1
I0403 15:12:07.389696 18431 net.cpp:386] inception_5a/relu_1x1 -> inception_5a/1x1 (in-place)
I0403 15:12:07.390027 18431 net.cpp:141] Setting up inception_5a/relu_1x1
I0403 15:12:07.390056 18431 net.cpp:148] Top shape: 24 256 7 7 (301056)
I0403 15:12:07.390072 18431 net.cpp:156] Memory required for data: 1294534176
I0403 15:12:07.390087 18431 layer_factory.hpp:77] Creating layer inception_5a/3x3_reduce
I0403 15:12:07.390110 18431 net.cpp:91] Creating Layer inception_5a/3x3_reduce
I0403 15:12:07.390127 18431 net.cpp:425] inception_5a/3x3_reduce <- pool4/3x3_s2_pool4/3x3_s2_0_split_1
I0403 15:12:07.390147 18431 net.cpp:399] inception_5a/3x3_reduce -> inception_5a/3x3_reduce
I0403 15:12:07.392738 18431 net.cpp:141] Setting up inception_5a/3x3_reduce
I0403 15:12:07.392768 18431 net.cpp:148] Top shape: 24 160 7 7 (188160)
I0403 15:12:07.392784 18431 net.cpp:156] Memory required for data: 1295286816
I0403 15:12:07.392802 18431 layer_factory.hpp:77] Creating layer inception_5a/relu_3x3_reduce
I0403 15:12:07.392823 18431 net.cpp:91] Creating Layer inception_5a/relu_3x3_reduce
I0403 15:12:07.392840 18431 net.cpp:425] inception_5a/relu_3x3_reduce <- inception_5a/3x3_reduce
I0403 15:12:07.392858 18431 net.cpp:386] inception_5a/relu_3x3_reduce -> inception_5a/3x3_reduce (in-place)
I0403 15:12:07.393061 18431 net.cpp:141] Setting up inception_5a/relu_3x3_reduce
I0403 15:12:07.393090 18431 net.cpp:148] Top shape: 24 160 7 7 (188160)
I0403 15:12:07.393105 18431 net.cpp:156] Memory required for data: 1296039456
I0403 15:12:07.393120 18431 layer_factory.hpp:77] Creating layer inception_5a/3x3
I0403 15:12:07.393142 18431 net.cpp:91] Creating Layer inception_5a/3x3
I0403 15:12:07.393159 18431 net.cpp:425] inception_5a/3x3 <- inception_5a/3x3_reduce
I0403 15:12:07.393178 18431 net.cpp:399] inception_5a/3x3 -> inception_5a/3x3
I0403 15:12:07.398386 18431 net.cpp:141] Setting up inception_5a/3x3
I0403 15:12:07.398418 18431 net.cpp:148] Top shape: 24 320 7 7 (376320)
I0403 15:12:07.398435 18431 net.cpp:156] Memory required for data: 1297544736
I0403 15:12:07.398453 18431 layer_factory.hpp:77] Creating layer inception_5a/relu_3x3
I0403 15:12:07.398471 18431 net.cpp:91] Creating Layer inception_5a/relu_3x3
I0403 15:12:07.398488 18431 net.cpp:425] inception_5a/relu_3x3 <- inception_5a/3x3
I0403 15:12:07.398507 18431 net.cpp:386] inception_5a/relu_3x3 -> inception_5a/3x3 (in-place)
I0403 15:12:07.398813 18431 net.cpp:141] Setting up inception_5a/relu_3x3
I0403 15:12:07.398841 18431 net.cpp:148] Top shape: 24 320 7 7 (376320)
I0403 15:12:07.398857 18431 net.cpp:156] Memory required for data: 1299050016
I0403 15:12:07.398874 18431 layer_factory.hpp:77] Creating layer inception_5a/5x5_reduce
I0403 15:12:07.398896 18431 net.cpp:91] Creating Layer inception_5a/5x5_reduce
I0403 15:12:07.398915 18431 net.cpp:425] inception_5a/5x5_reduce <- pool4/3x3_s2_pool4/3x3_s2_0_split_2
I0403 15:12:07.398934 18431 net.cpp:399] inception_5a/5x5_reduce -> inception_5a/5x5_reduce
I0403 15:12:07.400156 18431 net.cpp:141] Setting up inception_5a/5x5_reduce
I0403 15:12:07.400187 18431 net.cpp:148] Top shape: 24 32 7 7 (37632)
I0403 15:12:07.400202 18431 net.cpp:156] Memory required for data: 1299200544
I0403 15:12:07.400221 18431 layer_factory.hpp:77] Creating layer inception_5a/relu_5x5_reduce
I0403 15:12:07.400239 18431 net.cpp:91] Creating Layer inception_5a/relu_5x5_reduce
I0403 15:12:07.400255 18431 net.cpp:425] inception_5a/relu_5x5_reduce <- inception_5a/5x5_reduce
I0403 15:12:07.400275 18431 net.cpp:386] inception_5a/relu_5x5_reduce -> inception_5a/5x5_reduce (in-place)
I0403 15:12:07.400586 18431 net.cpp:141] Setting up inception_5a/relu_5x5_reduce
I0403 15:12:07.400614 18431 net.cpp:148] Top shape: 24 32 7 7 (37632)
I0403 15:12:07.400629 18431 net.cpp:156] Memory required for data: 1299351072
I0403 15:12:07.400643 18431 layer_factory.hpp:77] Creating layer inception_5a/5x5
I0403 15:12:07.400665 18431 net.cpp:91] Creating Layer inception_5a/5x5
I0403 15:12:07.400683 18431 net.cpp:425] inception_5a/5x5 <- inception_5a/5x5_reduce
I0403 15:12:07.400704 18431 net.cpp:399] inception_5a/5x5 -> inception_5a/5x5
I0403 15:12:07.402528 18431 net.cpp:141] Setting up inception_5a/5x5
I0403 15:12:07.402568 18431 net.cpp:148] Top shape: 24 128 7 7 (150528)
I0403 15:12:07.402585 18431 net.cpp:156] Memory required for data: 1299953184
I0403 15:12:07.402606 18431 layer_factory.hpp:77] Creating layer inception_5a/relu_5x5
I0403 15:12:07.402624 18431 net.cpp:91] Creating Layer inception_5a/relu_5x5
I0403 15:12:07.402640 18431 net.cpp:425] inception_5a/relu_5x5 <- inception_5a/5x5
I0403 15:12:07.402657 18431 net.cpp:386] inception_5a/relu_5x5 -> inception_5a/5x5 (in-place)
I0403 15:12:07.402859 18431 net.cpp:141] Setting up inception_5a/relu_5x5
I0403 15:12:07.402885 18431 net.cpp:148] Top shape: 24 128 7 7 (150528)
I0403 15:12:07.402900 18431 net.cpp:156] Memory required for data: 1300555296
I0403 15:12:07.402915 18431 layer_factory.hpp:77] Creating layer inception_5a/pool
I0403 15:12:07.402933 18431 net.cpp:91] Creating Layer inception_5a/pool
I0403 15:12:07.402950 18431 net.cpp:425] inception_5a/pool <- pool4/3x3_s2_pool4/3x3_s2_0_split_3
I0403 15:12:07.402978 18431 net.cpp:399] inception_5a/pool -> inception_5a/pool
I0403 15:12:07.403053 18431 net.cpp:141] Setting up inception_5a/pool
I0403 15:12:07.403079 18431 net.cpp:148] Top shape: 24 832 7 7 (978432)
I0403 15:12:07.403093 18431 net.cpp:156] Memory required for data: 1304469024
I0403 15:12:07.403107 18431 layer_factory.hpp:77] Creating layer inception_5a/pool_proj
I0403 15:12:07.403131 18431 net.cpp:91] Creating Layer inception_5a/pool_proj
I0403 15:12:07.403151 18431 net.cpp:425] inception_5a/pool_proj <- inception_5a/pool
I0403 15:12:07.403168 18431 net.cpp:399] inception_5a/pool_proj -> inception_5a/pool_proj
I0403 15:12:07.405570 18431 net.cpp:141] Setting up inception_5a/pool_proj
I0403 15:12:07.405601 18431 net.cpp:148] Top shape: 24 128 7 7 (150528)
I0403 15:12:07.405616 18431 net.cpp:156] Memory required for data: 1305071136
I0403 15:12:07.405635 18431 layer_factory.hpp:77] Creating layer inception_5a/relu_pool_proj
I0403 15:12:07.405688 18431 net.cpp:91] Creating Layer inception_5a/relu_pool_proj
I0403 15:12:07.405704 18431 net.cpp:425] inception_5a/relu_pool_proj <- inception_5a/pool_proj
I0403 15:12:07.405722 18431 net.cpp:386] inception_5a/relu_pool_proj -> inception_5a/pool_proj (in-place)
I0403 15:12:07.406056 18431 net.cpp:141] Setting up inception_5a/relu_pool_proj
I0403 15:12:07.406082 18431 net.cpp:148] Top shape: 24 128 7 7 (150528)
I0403 15:12:07.406097 18431 net.cpp:156] Memory required for data: 1305673248
I0403 15:12:07.406112 18431 layer_factory.hpp:77] Creating layer inception_5a/output
I0403 15:12:07.406132 18431 net.cpp:91] Creating Layer inception_5a/output
I0403 15:12:07.406148 18431 net.cpp:425] inception_5a/output <- inception_5a/1x1
I0403 15:12:07.406164 18431 net.cpp:425] inception_5a/output <- inception_5a/3x3
I0403 15:12:07.406180 18431 net.cpp:425] inception_5a/output <- inception_5a/5x5
I0403 15:12:07.406196 18431 net.cpp:425] inception_5a/output <- inception_5a/pool_proj
I0403 15:12:07.406213 18431 net.cpp:399] inception_5a/output -> inception_5a/output
I0403 15:12:07.406266 18431 net.cpp:141] Setting up inception_5a/output
I0403 15:12:07.406291 18431 net.cpp:148] Top shape: 24 832 7 7 (978432)
I0403 15:12:07.406306 18431 net.cpp:156] Memory required for data: 1309586976
I0403 15:12:07.406321 18431 layer_factory.hpp:77] Creating layer inception_5a/output_inception_5a/output_0_split
I0403 15:12:07.406338 18431 net.cpp:91] Creating Layer inception_5a/output_inception_5a/output_0_split
I0403 15:12:07.406353 18431 net.cpp:425] inception_5a/output_inception_5a/output_0_split <- inception_5a/output
I0403 15:12:07.406375 18431 net.cpp:399] inception_5a/output_inception_5a/output_0_split -> inception_5a/output_inception_5a/output_0_split_0
I0403 15:12:07.406397 18431 net.cpp:399] inception_5a/output_inception_5a/output_0_split -> inception_5a/output_inception_5a/output_0_split_1
I0403 15:12:07.406417 18431 net.cpp:399] inception_5a/output_inception_5a/output_0_split -> inception_5a/output_inception_5a/output_0_split_2
I0403 15:12:07.406438 18431 net.cpp:399] inception_5a/output_inception_5a/output_0_split -> inception_5a/output_inception_5a/output_0_split_3
I0403 15:12:07.406553 18431 net.cpp:141] Setting up inception_5a/output_inception_5a/output_0_split
I0403 15:12:07.406577 18431 net.cpp:148] Top shape: 24 832 7 7 (978432)
I0403 15:12:07.406594 18431 net.cpp:148] Top shape: 24 832 7 7 (978432)
I0403 15:12:07.406610 18431 net.cpp:148] Top shape: 24 832 7 7 (978432)
I0403 15:12:07.406625 18431 net.cpp:148] Top shape: 24 832 7 7 (978432)
I0403 15:12:07.406638 18431 net.cpp:156] Memory required for data: 1325241888
I0403 15:12:07.406653 18431 layer_factory.hpp:77] Creating layer inception_5b/1x1
I0403 15:12:07.406675 18431 net.cpp:91] Creating Layer inception_5b/1x1
I0403 15:12:07.406693 18431 net.cpp:425] inception_5b/1x1 <- inception_5a/output_inception_5a/output_0_split_0
I0403 15:12:07.406715 18431 net.cpp:399] inception_5b/1x1 -> inception_5b/1x1
I0403 15:12:07.410771 18431 net.cpp:141] Setting up inception_5b/1x1
I0403 15:12:07.410804 18431 net.cpp:148] Top shape: 24 384 7 7 (451584)
I0403 15:12:07.410820 18431 net.cpp:156] Memory required for data: 1327048224
I0403 15:12:07.410838 18431 layer_factory.hpp:77] Creating layer inception_5b/relu_1x1
I0403 15:12:07.410859 18431 net.cpp:91] Creating Layer inception_5b/relu_1x1
I0403 15:12:07.410877 18431 net.cpp:425] inception_5b/relu_1x1 <- inception_5b/1x1
I0403 15:12:07.410894 18431 net.cpp:386] inception_5b/relu_1x1 -> inception_5b/1x1 (in-place)
I0403 15:12:07.411224 18431 net.cpp:141] Setting up inception_5b/relu_1x1
I0403 15:12:07.411252 18431 net.cpp:148] Top shape: 24 384 7 7 (451584)
I0403 15:12:07.411267 18431 net.cpp:156] Memory required for data: 1328854560
I0403 15:12:07.411283 18431 layer_factory.hpp:77] Creating layer inception_5b/3x3_reduce
I0403 15:12:07.411306 18431 net.cpp:91] Creating Layer inception_5b/3x3_reduce
I0403 15:12:07.411325 18431 net.cpp:425] inception_5b/3x3_reduce <- inception_5a/output_inception_5a/output_0_split_1
I0403 15:12:07.411348 18431 net.cpp:399] inception_5b/3x3_reduce -> inception_5b/3x3_reduce
I0403 15:12:07.414156 18431 net.cpp:141] Setting up inception_5b/3x3_reduce
I0403 15:12:07.414186 18431 net.cpp:148] Top shape: 24 192 7 7 (225792)
I0403 15:12:07.414202 18431 net.cpp:156] Memory required for data: 1329757728
I0403 15:12:07.414222 18431 layer_factory.hpp:77] Creating layer inception_5b/relu_3x3_reduce
I0403 15:12:07.414255 18431 net.cpp:91] Creating Layer inception_5b/relu_3x3_reduce
I0403 15:12:07.414273 18431 net.cpp:425] inception_5b/relu_3x3_reduce <- inception_5b/3x3_reduce
I0403 15:12:07.414291 18431 net.cpp:386] inception_5b/relu_3x3_reduce -> inception_5b/3x3_reduce (in-place)
I0403 15:12:07.414496 18431 net.cpp:141] Setting up inception_5b/relu_3x3_reduce
I0403 15:12:07.414525 18431 net.cpp:148] Top shape: 24 192 7 7 (225792)
I0403 15:12:07.414541 18431 net.cpp:156] Memory required for data: 1330660896
I0403 15:12:07.414556 18431 layer_factory.hpp:77] Creating layer inception_5b/3x3
I0403 15:12:07.414579 18431 net.cpp:91] Creating Layer inception_5b/3x3
I0403 15:12:07.414609 18431 net.cpp:425] inception_5b/3x3 <- inception_5b/3x3_reduce
I0403 15:12:07.414628 18431 net.cpp:399] inception_5b/3x3 -> inception_5b/3x3
I0403 15:12:07.421749 18431 net.cpp:141] Setting up inception_5b/3x3
I0403 15:12:07.421782 18431 net.cpp:148] Top shape: 24 384 7 7 (451584)
I0403 15:12:07.421797 18431 net.cpp:156] Memory required for data: 1332467232
I0403 15:12:07.421816 18431 layer_factory.hpp:77] Creating layer inception_5b/relu_3x3
I0403 15:12:07.421839 18431 net.cpp:91] Creating Layer inception_5b/relu_3x3
I0403 15:12:07.421857 18431 net.cpp:425] inception_5b/relu_3x3 <- inception_5b/3x3
I0403 15:12:07.421875 18431 net.cpp:386] inception_5b/relu_3x3 -> inception_5b/3x3 (in-place)
I0403 15:12:07.422205 18431 net.cpp:141] Setting up inception_5b/relu_3x3
I0403 15:12:07.422232 18431 net.cpp:148] Top shape: 24 384 7 7 (451584)
I0403 15:12:07.422247 18431 net.cpp:156] Memory required for data: 1334273568
I0403 15:12:07.422262 18431 layer_factory.hpp:77] Creating layer inception_5b/5x5_reduce
I0403 15:12:07.422305 18431 net.cpp:91] Creating Layer inception_5b/5x5_reduce
I0403 15:12:07.422324 18431 net.cpp:425] inception_5b/5x5_reduce <- inception_5a/output_inception_5a/output_0_split_2
I0403 15:12:07.422348 18431 net.cpp:399] inception_5b/5x5_reduce -> inception_5b/5x5_reduce
I0403 15:12:07.423691 18431 net.cpp:141] Setting up inception_5b/5x5_reduce
I0403 15:12:07.423719 18431 net.cpp:148] Top shape: 24 48 7 7 (56448)
I0403 15:12:07.423735 18431 net.cpp:156] Memory required for data: 1334499360
I0403 15:12:07.423766 18431 layer_factory.hpp:77] Creating layer inception_5b/relu_5x5_reduce
I0403 15:12:07.423787 18431 net.cpp:91] Creating Layer inception_5b/relu_5x5_reduce
I0403 15:12:07.423805 18431 net.cpp:425] inception_5b/relu_5x5_reduce <- inception_5b/5x5_reduce
I0403 15:12:07.423823 18431 net.cpp:386] inception_5b/relu_5x5_reduce -> inception_5b/5x5_reduce (in-place)
I0403 15:12:07.424216 18431 net.cpp:141] Setting up inception_5b/relu_5x5_reduce
I0403 15:12:07.424243 18431 net.cpp:148] Top shape: 24 48 7 7 (56448)
I0403 15:12:07.424258 18431 net.cpp:156] Memory required for data: 1334725152
I0403 15:12:07.424274 18431 layer_factory.hpp:77] Creating layer inception_5b/5x5
I0403 15:12:07.424294 18431 net.cpp:91] Creating Layer inception_5b/5x5
I0403 15:12:07.424311 18431 net.cpp:425] inception_5b/5x5 <- inception_5b/5x5_reduce
I0403 15:12:07.424330 18431 net.cpp:399] inception_5b/5x5 -> inception_5b/5x5
I0403 15:12:07.426524 18431 net.cpp:141] Setting up inception_5b/5x5
I0403 15:12:07.426554 18431 net.cpp:148] Top shape: 24 128 7 7 (150528)
I0403 15:12:07.426570 18431 net.cpp:156] Memory required for data: 1335327264
I0403 15:12:07.426589 18431 layer_factory.hpp:77] Creating layer inception_5b/relu_5x5
I0403 15:12:07.426606 18431 net.cpp:91] Creating Layer inception_5b/relu_5x5
I0403 15:12:07.426623 18431 net.cpp:425] inception_5b/relu_5x5 <- inception_5b/5x5
I0403 15:12:07.426640 18431 net.cpp:386] inception_5b/relu_5x5 -> inception_5b/5x5 (in-place)
I0403 15:12:07.426838 18431 net.cpp:141] Setting up inception_5b/relu_5x5
I0403 15:12:07.426862 18431 net.cpp:148] Top shape: 24 128 7 7 (150528)
I0403 15:12:07.426877 18431 net.cpp:156] Memory required for data: 1335929376
I0403 15:12:07.426890 18431 layer_factory.hpp:77] Creating layer inception_5b/pool
I0403 15:12:07.426909 18431 net.cpp:91] Creating Layer inception_5b/pool
I0403 15:12:07.426925 18431 net.cpp:425] inception_5b/pool <- inception_5a/output_inception_5a/output_0_split_3
I0403 15:12:07.426944 18431 net.cpp:399] inception_5b/pool -> inception_5b/pool
I0403 15:12:07.427039 18431 net.cpp:141] Setting up inception_5b/pool
I0403 15:12:07.427067 18431 net.cpp:148] Top shape: 24 832 7 7 (978432)
I0403 15:12:07.427083 18431 net.cpp:156] Memory required for data: 1339843104
I0403 15:12:07.427098 18431 layer_factory.hpp:77] Creating layer inception_5b/pool_proj
I0403 15:12:07.427132 18431 net.cpp:91] Creating Layer inception_5b/pool_proj
I0403 15:12:07.427150 18431 net.cpp:425] inception_5b/pool_proj <- inception_5b/pool
I0403 15:12:07.427170 18431 net.cpp:399] inception_5b/pool_proj -> inception_5b/pool_proj
I0403 15:12:07.429565 18431 net.cpp:141] Setting up inception_5b/pool_proj
I0403 15:12:07.429594 18431 net.cpp:148] Top shape: 24 128 7 7 (150528)
I0403 15:12:07.429610 18431 net.cpp:156] Memory required for data: 1340445216
I0403 15:12:07.429628 18431 layer_factory.hpp:77] Creating layer inception_5b/relu_pool_proj
I0403 15:12:07.429648 18431 net.cpp:91] Creating Layer inception_5b/relu_pool_proj
I0403 15:12:07.429666 18431 net.cpp:425] inception_5b/relu_pool_proj <- inception_5b/pool_proj
I0403 15:12:07.429683 18431 net.cpp:386] inception_5b/relu_pool_proj -> inception_5b/pool_proj (in-place)
I0403 15:12:07.429987 18431 net.cpp:141] Setting up inception_5b/relu_pool_proj
I0403 15:12:07.430012 18431 net.cpp:148] Top shape: 24 128 7 7 (150528)
I0403 15:12:07.430027 18431 net.cpp:156] Memory required for data: 1341047328
I0403 15:12:07.430042 18431 layer_factory.hpp:77] Creating layer inception_5b/output
I0403 15:12:07.430061 18431 net.cpp:91] Creating Layer inception_5b/output
I0403 15:12:07.430091 18431 net.cpp:425] inception_5b/output <- inception_5b/1x1
I0403 15:12:07.430109 18431 net.cpp:425] inception_5b/output <- inception_5b/3x3
I0403 15:12:07.430125 18431 net.cpp:425] inception_5b/output <- inception_5b/5x5
I0403 15:12:07.430140 18431 net.cpp:425] inception_5b/output <- inception_5b/pool_proj
I0403 15:12:07.430156 18431 net.cpp:399] inception_5b/output -> inception_5b/output
I0403 15:12:07.430212 18431 net.cpp:141] Setting up inception_5b/output
I0403 15:12:07.430236 18431 net.cpp:148] Top shape: 24 1024 7 7 (1204224)
I0403 15:12:07.430250 18431 net.cpp:156] Memory required for data: 1345864224
I0403 15:12:07.430264 18431 layer_factory.hpp:77] Creating layer pool5/7x7_s1
I0403 15:12:07.430282 18431 net.cpp:91] Creating Layer pool5/7x7_s1
I0403 15:12:07.430299 18431 net.cpp:425] pool5/7x7_s1 <- inception_5b/output
I0403 15:12:07.430320 18431 net.cpp:399] pool5/7x7_s1 -> pool5/7x7_s1
I0403 15:12:07.430536 18431 net.cpp:141] Setting up pool5/7x7_s1
I0403 15:12:07.430562 18431 net.cpp:148] Top shape: 24 1024 1 1 (24576)
I0403 15:12:07.430578 18431 net.cpp:156] Memory required for data: 1345962528
I0403 15:12:07.430593 18431 layer_factory.hpp:77] Creating layer pool5/drop_7x7_s1
I0403 15:12:07.430610 18431 net.cpp:91] Creating Layer pool5/drop_7x7_s1
I0403 15:12:07.430625 18431 net.cpp:425] pool5/drop_7x7_s1 <- pool5/7x7_s1
I0403 15:12:07.430642 18431 net.cpp:386] pool5/drop_7x7_s1 -> pool5/7x7_s1 (in-place)
I0403 15:12:07.430696 18431 net.cpp:141] Setting up pool5/drop_7x7_s1
I0403 15:12:07.430730 18431 net.cpp:148] Top shape: 24 1024 1 1 (24576)
I0403 15:12:07.430745 18431 net.cpp:156] Memory required for data: 1346060832
I0403 15:12:07.430762 18431 layer_factory.hpp:77] Creating layer loss3/classifier_plantvillage
I0403 15:12:07.430783 18431 net.cpp:91] Creating Layer loss3/classifier_plantvillage
I0403 15:12:07.430801 18431 net.cpp:425] loss3/classifier_plantvillage <- pool5/7x7_s1
I0403 15:12:07.430820 18431 net.cpp:399] loss3/classifier_plantvillage -> loss3/classifier_plantvillage
I0403 15:12:07.431275 18431 net.cpp:141] Setting up loss3/classifier_plantvillage
I0403 15:12:07.431300 18431 net.cpp:148] Top shape: 24 38 (912)
I0403 15:12:07.431314 18431 net.cpp:156] Memory required for data: 1346064480
I0403 15:12:07.431331 18431 layer_factory.hpp:77] Creating layer loss3/classifier_plantvillage_loss3/classifier_plantvillage_0_split
I0403 15:12:07.431349 18431 net.cpp:91] Creating Layer loss3/classifier_plantvillage_loss3/classifier_plantvillage_0_split
I0403 15:12:07.431365 18431 net.cpp:425] loss3/classifier_plantvillage_loss3/classifier_plantvillage_0_split <- loss3/classifier_plantvillage
I0403 15:12:07.431385 18431 net.cpp:399] loss3/classifier_plantvillage_loss3/classifier_plantvillage_0_split -> loss3/classifier_plantvillage_loss3/classifier_plantvillage_0_split_0
I0403 15:12:07.431407 18431 net.cpp:399] loss3/classifier_plantvillage_loss3/classifier_plantvillage_0_split -> loss3/classifier_plantvillage_loss3/classifier_plantvillage_0_split_1
I0403 15:12:07.431427 18431 net.cpp:399] loss3/classifier_plantvillage_loss3/classifier_plantvillage_0_split -> loss3/classifier_plantvillage_loss3/classifier_plantvillage_0_split_2
I0403 15:12:07.431447 18431 net.cpp:399] loss3/classifier_plantvillage_loss3/classifier_plantvillage_0_split -> loss3/classifier_plantvillage_loss3/classifier_plantvillage_0_split_3
I0403 15:12:07.431546 18431 net.cpp:141] Setting up loss3/classifier_plantvillage_loss3/classifier_plantvillage_0_split
I0403 15:12:07.431570 18431 net.cpp:148] Top shape: 24 38 (912)
I0403 15:12:07.431584 18431 net.cpp:148] Top shape: 24 38 (912)
I0403 15:12:07.431599 18431 net.cpp:148] Top shape: 24 38 (912)
I0403 15:12:07.431614 18431 net.cpp:148] Top shape: 24 38 (912)
I0403 15:12:07.431627 18431 net.cpp:156] Memory required for data: 1346079072
I0403 15:12:07.431641 18431 layer_factory.hpp:77] Creating layer loss1/loss
I0403 15:12:07.431663 18431 net.cpp:91] Creating Layer loss1/loss
I0403 15:12:07.431679 18431 net.cpp:425] loss1/loss <- loss1/classifier_plantvillage_loss1/classifier_plantvillage_0_split_0
I0403 15:12:07.431710 18431 net.cpp:425] loss1/loss <- label_data_1_split_0
…
