…
I0403 14:49:19.233490 17720 net.cpp:313] The NetState phase (1) differed from the phase (0) specified by a rule in layer data
I0403 14:49:19.234603 17720 net.cpp:49] Initializing net from parameters: 
state {
  phase: TEST
}
layer {
  name: "data"
  type: "Data"
  top: "data"
  top: "label"
  include {
    phase: TEST
  }
  transform_param {
    mirror: false
    crop_size: 224
    mean_file: "/home/mohanty/data/final_dataset/lmdb/grayscale-40-60/mean.binaryproto"
  }
  data_param {
    source: "/home/mohanty/data/final_dataset/lmdb/grayscale-40-60/test_db"
    batch_size: 24
    backend: LMDB
  }
}
layer {
  name: "conv1/7x7_s2"
  type: "Convolution"
  bottom: "data"
  top: "conv1/7x7_s2"
  param {
    lr_mult: 1
    decay_mult: 1
  }
  param {
    lr_mult: 2
    decay_mult: 0
  }
  convolution_param {
    num_output: 64
    pad: 3
    kernel_size: 7
    stride: 2
    weight_filler {
      type: "xavier"
      std: 0.1
    }
    bias_filler {
      type: "constant"
      value: 0.2
    }
  }
}
layer {
  name: "conv1/relu_7x7"
  type: "ReLU"
  bottom: "conv1/7x7_s2"
  top: "conv1/7x7_s2"
}
layer {
  name: "pool1/3x3_s2"
  type: "Pooling"
  bottom: "conv1/7x7_s2"
  top: "pool1/3x3_s2"
  pooling_param {
    pool: MAX
    kernel_size: 3
    stride: 2
  }
}
layer {
  name: "pool1/norm1"
  type: "LRN"
  bottom: "pool1/3x3_s2"
  top: "pool1/norm1"
  lrn_param {
    local_size: 5
    alpha: 0.0001
    beta: 0.75
  }
}
layer {
  name: "conv2/3x3_reduce"
  type: "Convolution"
  bottom: "pool1/norm1"
  top: "conv2/3x3_reduce"
  param {
    lr_mult: 1
    decay_mult: 1
  }
  param {
    lr_mult: 2
    decay_mult: 0
  }
  convolution_param {
    num_output: 64
    kernel_size: 1
    weight_filler {
      type: "xavier"
      std: 0.1
    }
    bias_filler {
      type: "constant"
      value: 0.2
    }
  }
}
layer {
  name: "conv2/relu_3x3_reduce"
  type: "ReLU"
  bottom: "conv2/3x3_reduce"
  top: "conv2/3x3_reduce"
}
layer {
  name: "conv2/3x3"
  type: "Convolution"
  bottom: "conv2/3x3_reduce"
  top: "conv2/3x3"
  param {
    lr_mult: 1
    decay_mult: 1
  }
  param {
    lr_mult: 2
    decay_mult: 0
  }
  convolution_param {
    num_output: 192
    pad: 1
    kernel_size: 3
    weight_filler {
      type: "xavier"
      std: 0.03
    }
    bias_filler {
      type: "constant"
      value: 0.2
    }
  }
}
layer {
  name: "conv2/relu_3x3"
  type: "ReLU"
  bottom: "conv2/3x3"
  top: "conv2/3x3"
}
layer {
  name: "conv2/norm2"
  type: "LRN"
  bottom: "conv2/3x3"
  top: "conv2/norm2"
  lrn_param {
    local_size: 5
    alpha: 0.0001
    beta: 0.75
  }
}
layer {
  name: "pool2/3x3_s2"
  type: "Pooling"
  bottom: "conv2/norm2"
  top: "pool2/3x3_s2"
  pooling_param {
    pool: MAX
    kernel_size: 3
    stride: 2
  }
}
layer {
  name: "inception_3a/1x1"
  type: "Convolution"
  bottom: "pool2/3x3_s2"
  top: "inception_3a/1x1"
  param {
    lr_mult: 1
    decay_mult: 1
  }
  param {
    lr_mult: 2
    decay_mult: 0
  }
  convolution_param {
    num_output: 64
    kernel_size: 1
    weight_filler {
      type: "xavier"
      std: 0.03
    }
    bias_filler {
      type: "constant"
      value: 0.2
    }
  }
}
layer {
  name: "inception_3a/relu_1x1"
  type: "ReLU"
  bottom: "inception_3a/1x1"
  top: "inception_3a/1x1"
}
layer {
  name: "inception_3a/3x3_reduce"
  type: "Convolution"
  bottom: "pool2/3x3_s2"
  top: "inception_3a/3x3_reduce"
  param {
    lr_mult: 1
    decay_mult: 1
  }
  param {
    lr_mult: 2
    decay_mult: 0
  }
  convolution_param {
    num_output: 96
    kernel_size: 1
    weight_filler {
      type: "xavier"
      std: 0.09
    }
    bias_filler {
      type: "constant"
      value: 0.2
    }
  }
}
layer {
  name: "inception_3a/relu_3x3_reduce"
  type: "ReLU"
  bottom: "inception_3a/3x3_reduce"
  top: "inception_3a/3x3_reduce"
}
layer {
  name: "inception_3a/3x3"
  type: "Convolution"
  bottom: "inception_3a/3x3_reduce"
  top: "inception_3a/3x3"
  param {
    lr_mult: 1
    decay_mult: 1
  }
  param {
    lr_mult: 2
    decay_mult: 0
  }
  convolution_param {
    num_output: 128
    pad: 1
    kernel_size: 3
    weight_filler {
      type: "xavier"
      std: 0.03
    }
    bias_filler {
      type: "constant"
      value: 0.2
    }
  }
}
layer {
  name: "inception_3a/relu_3x3"
  type: "ReLU"
  bottom: "inception_3a/3x3"
  top: "inception_3a/3x3"
}
layer {
  name: "inception_3a/5x5_reduce"
  type: "Convolution"
  bottom: "pool2/3x3_s2"
  top: "inception_3a/5x5_reduce"
  param {
    lr_mult: 1
    decay_mult: 1
  }
  param {
    lr_mult: 2
    decay_mult: 0
  }
  convolution_param {
    num_output: 16
    kernel_size: 1
    weight_filler {
      type: "xavier"
      std: 0.2
    }
    bias_filler {
      type: "constant"
      value: 0.2
    }
  }
}
layer {
  name: "inception_3a/relu_5x5_reduce"
  type: "ReLU"
  bottom: "inception_3a/5x5_reduce"
  top: "inception_3a/5x5_reduce"
}
layer {
  name: "inception_3a/5x5"
  type: "Convolution"
  bottom: "inception_3a/5x5_reduce"
  top: "inception_3a/5x5"
  param {
    lr_mult: 1
    decay_mult: 1
  }
  param {
    lr_mult: 2
    decay_mult: 0
  }
  convolution_param {
    num_output: 32
    pad: 2
    kernel_size: 5
    weight_filler {
      type: "xavier"
      std: 0.03
    }
    bias_filler {
      type: "constant"
      value: 0.2
    }
  }
}
layer {
  name: "inception_3a/relu_5x5"
  type: "ReLU"
  bottom: "inception_3a/5x5"
  top: "inception_3a/5x5"
}
layer {
  name: "inception_3a/pool"
  type: "Pooling"
  bottom: "pool2/3x3_s2"
  top: "inception_3a/pool"
  pooling_param {
    pool: MAX
    kernel_size: 3
    stride: 1
    pad: 1
  }
}
layer {
  name: "inception_3a/pool_proj"
  type: "Convolution"
  bottom: "inception_3a/pool"
  top: "inception_3a/pool_proj"
  param {
    lr_mult: 1
    decay_mult: 1
  }
  param {
    lr_mult: 2
    decay_mult: 0
  }
  convolution_param {
    num_output: 32
    kernel_size: 1
    weight_filler {
      type: "xavier"
      std: 0.1
    }
    bias_filler {
      type: "constant"
      value: 0.2
    }
  }
}
layer {
  name: "inception_3a/relu_pool_proj"
  type: "ReLU"
  bottom: "inception_3a/pool_proj"
  top: "inception_3a/pool_proj"
}
layer {
  name: "inception_3a/output"
  type: "Concat"
  bottom: "inception_3a/1x1"
  bottom: "inception_3a/3x3"
  bottom: "inception_3a/5x5"
  bottom: "inception_3a/pool_proj"
  top: "inception_3a/output"
}
layer {
  name: "inception_3b/1x1"
  type: "Convolution"
  bottom: "inception_3a/output"
  top: "inception_3b/1x1"
  param {
    lr_mult: 1
    decay_mult: 1
  }
  param {
    lr_mult: 2
    decay_mult: 0
  }
  convolution_param {
    num_output: 128
    kernel_size: 1
    weight_filler {
      type: "xavier"
      std: 0.03
    }
    bias_filler {
      type: "constant"
      value: 0.2
    }
  }
}
layer {
  name: "inception_3b/relu_1x1"
  type: "ReLU"
  bottom: "inception_3b/1x1"
  top: "inception_3b/1x1"
}
layer {
  name: "inception_3b/3x3_reduce"
  type: "Convolution"
  bottom: "inception_3a/output"
  top: "inception_3b/3x3_reduce"
  param {
    lr_mult: 1
    decay_mult: 1
  }
  param {
    lr_mult: 2
    decay_mult: 0
  }
  convolution_param {
    num_output: 128
    kernel_size: 1
    weight_filler {
      type: "xavier"
      std: 0.09
    }
    bias_filler {
      type: "constant"
      value: 0.2
    }
  }
}
layer {
  name: "inception_3b/relu_3x3_reduce"
  type: "ReLU"
  bottom: "inception_3b/3x3_reduce"
  top: "inception_3b/3x3_reduce"
}
layer {
  name: "inception_3b/3x3"
  type: "Convolution"
  bottom: "inception_3b/3x3_reduce"
  top: "inception_3b/3x3"
  param {
    lr_mult: 1
    decay_mult: 1
  }
  param {
    lr_mult: 2
    decay_mult: 0
  }
  convolution_param {
    num_output: 192
    pad: 1
    kernel_size: 3
    weight_filler {
      type: "xavier"
      std: 0.03
    }
    bias_filler {
      type: "constant"
      value: 0.2
    }
  }
}
layer {
  name: "inception_3b/relu_3x3"
  type: "ReLU"
  bottom: "inception_3b/3x3"
  top: "inception_3b/3x3"
}
layer {
  name: "inception_3b/5x5_reduce"
  type: "Convolution"
  bottom: "inception_3a/output"
  top: "inception_3b/5x5_reduce"
  param {
    lr_mult: 1
    decay_mult: 1
  }
  param {
    lr_mult: 2
    decay_mult: 0
  }
  convolution_param {
    num_output: 32
    kernel_size: 1
    weight_filler {
      type: "xavier"
      std: 0.2
    }
    bias_filler {
      type: "constant"
      value: 0.2
    }
  }
}
layer {
  name: "inception_3b/relu_5x5_reduce"
  type: "ReLU"
  bottom: "inception_3b/5x5_reduce"
  top: "inception_3b/5x5_reduce"
}
layer {
  name: "inception_3b/5x5"
  type: "Convolution"
  bottom: "inception_3b/5x5_reduce"
  top: "inception_3b/5x5"
  param {
    lr_mult: 1
    decay_mult: 1
  }
  param {
    lr_mult: 2
    decay_mult: 0
  }
  convolution_param {
    num_output: 96
    pad: 2
    kernel_size: 5
    weight_filler {
      type: "xavier"
      std: 0.03
    }
    bias_filler {
      type: "constant"
      value: 0.2
    }
  }
}
layer {
  name: "inception_3b/relu_5x5"
  type: "ReLU"
  bottom: "inception_3b/5x5"
  top: "inception_3b/5x5"
}
layer {
  name: "inception_3b/pool"
  type: "Pooling"
  bottom: "inception_3a/output"
  top: "inception_3b/pool"
  pooling_param {
    pool: MAX
    kernel_size: 3
    stride: 1
    pad: 1
  }
}
layer {
  name: "inception_3b/pool_proj"
  type: "Convolution"
  bottom: "inception_3b/pool"
  top: "inception_3b/pool_proj"
  param {
    lr_mult: 1
    decay_mult: 1
  }
  param {
    lr_mult: 2
    decay_mult: 0
  }
  convolution_param {
    num_output: 64
    kernel_size: 1
    weight_filler {
      type: "xavier"
      std: 0.1
    }
    bias_filler {
      type: "constant"
      value: 0.2
    }
  }
}
layer {
  name: "inception_3b/relu_pool_proj"
  type: "ReLU"
  bottom: "inception_3b/pool_proj"
  top: "inception_3b/pool_proj"
}
layer {
  name: "inception_3b/output"
  type: "Concat"
  bottom: "inception_3b/1x1"
  bottom: "inception_3b/3x3"
  bottom: "inception_3b/5x5"
  bottom: "inception_3b/pool_proj"
  top: "inception_3b/output"
}
layer {
  name: "pool3/3x3_s2"
  type: "Pooling"
  bottom: "inception_3b/output"
  top: "pool3/3x3_s2"
  pooling_param {
    pool: MAX
    kernel_size: 3
    stride: 2
  }
}
layer {
  name: "inception_4a/1x1"
  type: "Convolution"
  bottom: "pool3/3x3_s2"
  top: "inception_4a/1x1"
  param {
    lr_mult: 1
    decay_mult: 1
  }
  param {
    lr_mult: 2
    decay_mult: 0
  }
  convolution_param {
    num_output: 192
    kernel_size: 1
    weight_filler {
      type: "xavier"
      std: 0.03
    }
    bias_filler {
      type: "constant"
      value: 0.2
    }
  }
}
layer {
  name: "inception_4a/relu_1x1"
  type: "ReLU"
  bottom: "inception_4a/1x1"
  top: "inception_4a/1x1"
}
layer {
  name: "inception_4a/3x3_reduce"
  type: "Convolution"
  bottom: "pool3/3x3_s2"
  top: "inception_4a/3x3_reduce"
  param {
    lr_mult: 1
    decay_mult: 1
  }
  param {
    lr_mult: 2
    decay_mult: 0
  }
  convolution_param {
    num_output: 96
    kernel_size: 1
    weight_filler {
      type: "xavier"
      std: 0.09
    }
    bias_filler {
      type: "constant"
      value: 0.2
    }
  }
}
layer {
  name: "inception_4a/relu_3x3_reduce"
  type: "ReLU"
  bottom: "inception_4a/3x3_reduce"
  top: "inception_4a/3x3_reduce"
}
layer {
  name: "inception_4a/3x3"
  type: "Convolution"
  bottom: "inception_4a/3x3_reduce"
  top: "inception_4a/3x3"
  param {
    lr_mult: 1
    decay_mult: 1
  }
  param {
    lr_mult: 2
    decay_mult: 0
  }
  convolution_param {
    num_output: 208
    pad: 1
    kernel_size: 3
    weight_filler {
      type: "xavier"
      std: 0.03
    }
    bias_filler {
      type: "constant"
      value: 0.2
    }
  }
}
layer {
  name: "inception_4a/relu_3x3"
  type: "ReLU"
  bottom: "inception_4a/3x3"
  top: "inception_4a/3x3"
}
layer {
  name: "inception_4a/5x5_reduce"
  type: "Convolution"
  bottom: "pool3/3x3_s2"
  top: "inception_4a/5x5_reduce"
  param {
    lr_mult: 1
    decay_mult: 1
  }
  param {
    lr_mult: 2
    decay_mult: 0
  }
  convolution_param {
    num_output: 16
    kernel_size: 1
    weight_filler {
      type: "xavier"
      std: 0.2
    }
    bias_filler {
      type: "constant"
      value: 0.2
    }
  }
}
layer {
  name: "inception_4a/relu_5x5_reduce"
  type: "ReLU"
  bottom: "inception_4a/5x5_reduce"
  top: "inception_4a/5x5_reduce"
}
layer {
  name: "inception_4a/5x5"
  type: "Convolution"
  bottom: "inception_4a/5x5_reduce"
  top: "inception_4a/5x5"
  param {
    lr_mult: 1
    decay_mult: 1
  }
  param {
    lr_mult: 2
    decay_mult: 0
  }
  convolution_param {
    num_output: 48
    pad: 2
    kernel_size: 5
    weight_filler {
      type: "xavier"
      std: 0.03
    }
    bias_filler {
      type: "constant"
      value: 0.2
    }
  }
}
layer {
  name: "inception_4a/relu_5x5"
  type: "ReLU"
  bottom: "inception_4a/5x5"
  top: "inception_4a/5x5"
}
layer {
  name: "inception_4a/pool"
  type: "Pooling"
  bottom: "pool3/3x3_s2"
  top: "inception_4a/pool"
  pooling_param {
    pool: MAX
    kernel_size: 3
    stride: 1
    pad: 1
  }
}
layer {
  name: "inception_4a/pool_proj"
  type: "Convolution"
  bottom: "inception_4a/pool"
  top: "inception_4a/pool_proj"
  param {
    lr_mult: 1
    decay_mult: 1
  }
  param {
    lr_mult: 2
    decay_mult: 0
  }
  convolution_param {
    num_output: 64
    kernel_size: 1
    weight_filler {
      type: "xavier"
      std: 0.1
    }
    bias_filler {
      type: "constant"
      value: 0.2
    }
  }
}
layer {
  name: "inception_4a/relu_pool_proj"
  type: "ReLU"
  bottom: "inception_4a/pool_proj"
  top: "inception_4a/pool_proj"
}
layer {
  name: "inception_4a/output"
  type: "Concat"
  bottom: "inception_4a/1x1"
  bottom: "inception_4a/3x3"
  bottom: "inception_4a/5x5"
  bottom: "inception_4a/pool_proj"
  top: "inception_4a/output"
}
layer {
  name: "loss1/ave_pool"
  type: "Pooling"
  bottom: "inception_4a/output"
  top: "loss1/ave_pool"
  pooling_param {
    pool: AVE
    kernel_size: 5
    stride: 3
  }
}
layer {
  name: "loss1/conv"
  type: "Convolution"
  bottom: "loss1/ave_pool"
  top: "loss1/conv"
  param {
    lr_mult: 1
    decay_mult: 1
  }
  param {
    lr_mult: 2
    decay_mult: 0
  }
  convolution_param {
    num_output: 128
    kernel_size: 1
    weight_filler {
      type: "xavier"
      std: 0.08
    }
    bias_filler {
      type: "constant"
      value: 0.2
    }
  }
}
layer {
  name: "loss1/relu_conv"
  type: "ReLU"
  bottom: "loss1/conv"
  top: "loss1/conv"
}
layer {
  name: "loss1/fc"
  type: "InnerProduct"
  bottom: "loss1/conv"
  top: "loss1/fc"
  param {
    lr_mult: 1
    decay_mult: 1
  }
  param {
    lr_mult: 2
    decay_mult: 0
  }
  inner_product_param {
    num_output: 1024
    weight_filler {
      type: "xavier"
      std: 0.02
    }
    bias_filler {
      type: "constant"
      value: 0.2
    }
  }
}
layer {
  name: "loss1/relu_fc"
  type: "ReLU"
  bottom: "loss1/fc"
  top: "loss1/fc"
}
layer {
  name: "loss1/drop_fc"
  type: "Dropout"
  bottom: "loss1/fc"
  top: "loss1/fc"
  dropout_param {
    dropout_ratio: 0.7
  }
}
layer {
  name: "loss1/classifier_plantvillage"
  type: "InnerProduct"
  bottom: "loss1/fc"
  top: "loss1/classifier_plantvillage"
  param {
    lr_mult: 1
    decay_mult: 1
  }
  param {
    lr_mult: 2
    decay_mult: 0
  }
  inner_product_param {
    num_output: 38
    weight_filler {
      type: "xavier"
      std: 0.0009765625
    }
    bias_filler {
      type: "constant"
      value: 0
    }
  }
}
layer {
  name: "inception_4b/1x1"
  type: "Convolution"
  bottom: "inception_4a/output"
  top: "inception_4b/1x1"
  param {
    lr_mult: 1
    decay_mult: 1
  }
  param {
    lr_mult: 2
    decay_mult: 0
  }
  convolution_param {
    num_output: 160
    kernel_size: 1
    weight_filler {
      type: "xavier"
      std: 0.03
    }
    bias_filler {
      type: "constant"
      value: 0.2
    }
  }
}
layer {
  name: "inception_4b/relu_1x1"
  type: "ReLU"
  bottom: "inception_4b/1x1"
  top: "inception_4b/1x1"
}
layer {
  name: "inception_4b/3x3_reduce"
  type: "Convolution"
  bottom: "inception_4a/output"
  top: "inception_4b/3x3_reduce"
  param {
    lr_mult: 1
    decay_mult: 1
  }
  param {
    lr_mult: 2
    decay_mult: 0
  }
  convolution_param {
    num_output: 112
    kernel_size: 1
    weight_filler {
      type: "xavier"
      std: 0.09
    }
    bias_filler {
      type: "constant"
      value: 0.2
    }
  }
}
layer {
  name: "inception_4b/relu_3x3_reduce"
  type: "ReLU"
  bottom: "inception_4b/3x3_reduce"
  top: "inception_4b/3x3_reduce"
}
layer {
  name: "inception_4b/3x3"
  type: "Convolution"
  bottom: "inception_4b/3x3_reduce"
  top: "inception_4b/3x3"
  param {
    lr_mult: 1
    decay_mult: 1
  }
  param {
    lr_mult: 2
    decay_mult: 0
  }
  convolution_param {
    num_output: 224
    pad: 1
    kernel_size: 3
    weight_filler {
      type: "xavier"
      std: 0.03
    }
    bias_filler {
      type: "constant"
      value: 0.2
    }
  }
}
layer {
  name: "inception_4b/relu_3x3"
  type: "ReLU"
  bottom: "inception_4b/3x3"
  top: "inception_4b/3x3"
}
layer {
  name: "inception_4b/5x5_reduce"
  type: "Convolution"
  bottom: "inception_4a/output"
  top: "inception_4b/5x5_reduce"
  param {
    lr_mult: 1
    decay_mult: 1
  }
  param {
    lr_mult: 2
    decay_mult: 0
  }
  convolution_param {
    num_output: 24
    kernel_size: 1
    weight_filler {
      type: "xavier"
      std: 0.2
    }
    bias_filler {
      type: "constant"
      value: 0.2
    }
  }
}
layer {
  name: "inception_4b/relu_5x5_reduce"
  type: "ReLU"
  bottom: "inception_4b/5x5_reduce"
  top: "inception_4b/5x5_reduce"
}
layer {
  name: "inception_4b/5x5"
  type: "Convolution"
  bottom: "inception_4b/5x5_reduce"
  top: "inception_4b/5x5"
  param {
    lr_mult: 1
    decay_mult: 1
  }
  param {
    lr_mult: 2
    decay_mult: 0
  }
  convolution_param {
    num_output: 64
    pad: 2
    kernel_size: 5
    weight_filler {
      type: "xavier"
      std: 0.03
    }
    bias_filler {
      type: "constant"
      value: 0.2
    }
  }
}
layer {
  name: "inception_4b/relu_5x5"
  type: "ReLU"
  bottom: "inception_4b/5x5"
  top: "inception_4b/5x5"
}
layer {
  name: "inception_4b/pool"
  type: "Pooling"
  bottom: "inception_4a/output"
  top: "inception_4b/pool"
  pooling_param {
    pool: MAX
    kernel_size: 3
    stride: 1
    pad: 1
  }
}
layer {
  name: "inception_4b/pool_proj"
  type: "Convolution"
  bottom: "inception_4b/pool"
  top: "inception_4b/pool_proj"
  param {
    lr_mult: 1
    decay_mult: 1
  }
  param {
    lr_mult: 2
    decay_mult: 0
  }
  convolution_param {
    num_output: 64
    kernel_size: 1
    weight_filler {
      type: "xavier"
      std: 0.1
    }
    bias_filler {
      type: "constant"
      value: 0.2
    }
  }
}
layer {
  name: "inception_4b/relu_pool_proj"
  type: "ReLU"
  bottom: "inception_4b/pool_proj"
  top: "inception_4b/pool_proj"
}
layer {
  name: "inception_4b/output"
  type: "Concat"
  bottom: "inception_4b/1x1"
  bottom: "inception_4b/3x3"
  bottom: "inception_4b/5x5"
  bottom: "inception_4b/pool_proj"
  top: "inception_4b/output"
}
layer {
  name: "inception_4c/1x1"
  type: "Convolution"
  bottom: "inception_4b/output"
  top: "inception_4c/1x1"
  param {
    lr_mult: 1
    decay_mult: 1
  }
  param {
    lr_mult: 2
    decay_mult: 0
  }
  convolution_param {
    num_output: 128
    kernel_size: 1
    weight_filler {
      type: "xavier"
      std: 0.03
    }
    bias_filler {
      type: "constant"
      value: 0.2
    }
  }
}
layer {
  name: "inception_4c/relu_1x1"
  type: "ReLU"
  bottom: "inception_4c/1x1"
  top: "inception_4c/1x1"
}
layer {
  name: "inception_4c/3x3_reduce"
  type: "Convolution"
  bottom: "inception_4b/output"
  top: "inception_4c/3x3_reduce"
  param {
    lr_mult: 1
    decay_mult: 1
  }
  param {
    lr_mult: 2
    decay_mult: 0
  }
  convolution_param {
    num_output: 128
    kernel_size: 1
    weight_filler {
      type: "xavier"
      std: 0.09
    }
    bias_filler {
      type: "constant"
      value: 0.2
    }
  }
}
layer {
  name: "inception_4c/relu_3x3_reduce"
  type: "ReLU"
  bottom: "inception_4c/3x3_reduce"
  top: "inception_4c/3x3_reduce"
}
layer {
  name: "inception_4c/3x3"
  type: "Convolution"
  bottom: "inception_4c/3x3_reduce"
  top: "inception_4c/3x3"
  param {
    lr_mult: 1
    decay_mult: 1
  }
  param {
    lr_mult: 2
    decay_mult: 0
  }
  convolution_param {
    num_output: 256
    pad: 1
    kernel_size: 3
    weight_filler {
      type: "xavier"
      std: 0.03
    }
    bias_filler {
      type: "constant"
      value: 0.2
    }
  }
}
layer {
  name: "inception_4c/relu_3x3"
  type: "ReLU"
  bottom: "inception_4c/3x3"
  top: "inception_4c/3x3"
}
layer {
  name: "inception_4c/5x5_reduce"
  type: "Convolution"
  bottom: "inception_4b/output"
  top: "inception_4c/5x5_reduce"
  param {
    lr_mult: 1
    decay_mult: 1
  }
  param {
    lr_mult: 2
    decay_mult: 0
  }
  convolution_param {
    num_output: 24
    kernel_size: 1
    weight_filler {
      type: "xavier"
      std: 0.2
    }
    bias_filler {
      type: "constant"
      value: 0.2
    }
  }
}
layer {
  name: "inception_4c/relu_5x5_reduce"
  type: "ReLU"
  bottom: "inception_4c/5x5_reduce"
  top: "inception_4c/5x5_reduce"
}
layer {
  name: "inception_4c/5x5"
  type: "Convolution"
  bottom: "inception_4c/5x5_reduce"
  top: "inception_4c/5x5"
  param {
    lr_mult: 1
    decay_mult: 1
  }
  param {
    lr_mult: 2
    decay_mult: 0
  }
  convolution_param {
    num_output: 64
    pad: 2
    kernel_size: 5
    weight_filler {
      type: "xavier"
      std: 0.03
    }
    bias_filler {
      type: "constant"
      value: 0.2
    }
  }
}
layer {
  name: "inception_4c/relu_5x5"
  type: "ReLU"
  bottom: "inception_4c/5x5"
  top: "inception_4c/5x5"
}
layer {
  name: "inception_4c/pool"
  type: "Pooling"
  bottom: "inception_4b/output"
  top: "inception_4c/pool"
  pooling_param {
    pool: MAX
    kernel_size: 3
    stride: 1
    pad: 1
  }
}
layer {
  name: "inception_4c/pool_proj"
  type: "Convolution"
  bottom: "inception_4c/pool"
  top: "inception_4c/pool_proj"
  param {
    lr_mult: 1
    decay_mult: 1
  }
  param {
    lr_mult: 2
    decay_mult: 0
  }
  convolution_param {
    num_output: 64
    kernel_size: 1
    weight_filler {
      type: "xavier"
      std: 0.1
    }
    bias_filler {
      type: "constant"
      value: 0.2
    }
  }
}
layer {
  name: "inception_4c/relu_pool_proj"
  type: "ReLU"
  bottom: "inception_4c/pool_proj"
  top: "inception_4c/pool_proj"
}
layer {
  name: "inception_4c/output"
  type: "Concat"
  bottom: "inception_4c/1x1"
  bottom: "inception_4c/3x3"
  bottom: "inception_4c/5x5"
  bottom: "inception_4c/pool_proj"
  top: "inception_4c/output"
}
layer {
  name: "inception_4d/1x1"
  type: "Convolution"
  bottom: "inception_4c/output"
  top: "inception_4d/1x1"
  param {
    lr_mult: 1
    decay_mult: 1
  }
  param {
    lr_mult: 2
    decay_mult: 0
  }
  convolution_param {
    num_output: 112
    kernel_size: 1
    weight_filler {
      type: "xavier"
      std: 0.03
    }
    bias_filler {
      type: "constant"
      value: 0.2
    }
  }
}
layer {
  name: "inception_4d/relu_1x1"
  type: "ReLU"
  bottom: "inception_4d/1x1"
  top: "inception_4d/1x1"
}
layer {
  name: "inception_4d/3x3_reduce"
  type: "Convolution"
  bottom: "inception_4c/output"
  top: "inception_4d/3x3_reduce"
  param {
    lr_mult: 1
    decay_mult: 1
  }
  param {
    lr_mult: 2
    decay_mult: 0
  }
  convolution_param {
    num_output: 144
    kernel_size: 1
    weight_filler {
      type: "xavier"
      std: 0.09
    }
    bias_filler {
      type: "constant"
      value: 0.2
    }
  }
}
layer {
  name: "inception_4d/relu_3x3_reduce"
  type: "ReLU"
  bottom: "inception_4d/3x3_reduce"
  top: "inception_4d/3x3_reduce"
}
layer {
  name: "inception_4d/3x3"
  type: "Convolution"
  bottom: "inception_4d/3x3_reduce"
  top: "inception_4d/3x3"
  param {
    lr_mult: 1
    decay_mult: 1
  }
  param {
    lr_mult: 2
    decay_mult: 0
  }
  convolution_param {
    num_output: 288
    pad: 1
    kernel_size: 3
    weight_filler {
      type: "xavier"
      std: 0.03
    }
    bias_filler {
      type: "constant"
      value: 0.2
    }
  }
}
layer {
  name: "inception_4d/relu_3x3"
  type: "ReLU"
  bottom: "inception_4d/3x3"
  top: "inception_4d/3x3"
}
layer {
  name: "inception_4d/5x5_reduce"
  type: "Convolution"
  bottom: "inception_4c/output"
  top: "inception_4d/5x5_reduce"
  param {
    lr_mult: 1
    decay_mult: 1
  }
  param {
    lr_mult: 2
    decay_mult: 0
  }
  convolution_param {
    num_output: 32
    kernel_size: 1
    weight_filler {
      type: "xavier"
      std: 0.2
    }
    bias_filler {
      type: "constant"
      value: 0.2
    }
  }
}
layer {
  name: "inception_4d/relu_5x5_reduce"
  type: "ReLU"
  bottom: "inception_4d/5x5_reduce"
  top: "inception_4d/5x5_reduce"
}
layer {
  name: "inception_4d/5x5"
  type: "Convolution"
  bottom: "inception_4d/5x5_reduce"
  top: "inception_4d/5x5"
  param {
    lr_mult: 1
    decay_mult: 1
  }
  param {
    lr_mult: 2
    decay_mult: 0
  }
  convolution_param {
    num_output: 64
    pad: 2
    kernel_size: 5
    weight_filler {
      type: "xavier"
      std: 0.03
    }
    bias_filler {
      type: "constant"
      value: 0.2
    }
  }
}
layer {
  name: "inception_4d/relu_5x5"
  type: "ReLU"
  bottom: "inception_4d/5x5"
  top: "inception_4d/5x5"
}
layer {
  name: "inception_4d/pool"
  type: "Pooling"
  bottom: "inception_4c/output"
  top: "inception_4d/pool"
  pooling_param {
    pool: MAX
    kernel_size: 3
    stride: 1
    pad: 1
  }
}
layer {
  name: "inception_4d/pool_proj"
  type: "Convolution"
  bottom: "inception_4d/pool"
  top: "inception_4d/pool_proj"
  param {
    lr_mult: 1
    decay_mult: 1
  }
  param {
    lr_mult: 2
    decay_mult: 0
  }
  convolution_param {
    num_output: 64
    kernel_size: 1
    weight_filler {
      type: "xavier"
      std: 0.1
    }
    bias_filler {
      type: "constant"
      value: 0.2
    }
  }
}
layer {
  name: "inception_4d/relu_pool_proj"
  type: "ReLU"
  bottom: "inception_4d/pool_proj"
  top: "inception_4d/pool_proj"
}
layer {
  name: "inception_4d/output"
  type: "Concat"
  bottom: "inception_4d/1x1"
  bottom: "inception_4d/3x3"
  bottom: "inception_4d/5x5"
  bottom: "inception_4d/pool_proj"
  top: "inception_4d/output"
}
layer {
  name: "loss2/ave_pool"
  type: "Pooling"
  bottom: "inception_4d/output"
  top: "loss2/ave_pool"
  pooling_param {
    pool: AVE
    kernel_size: 5
    stride: 3
  }
}
layer {
  name: "loss2/conv"
  type: "Convolution"
  bottom: "loss2/ave_pool"
  top: "loss2/conv"
  param {
    lr_mult: 1
    decay_mult: 1
  }
  param {
    lr_mult: 2
    decay_mult: 0
  }
  convolution_param {
    num_output: 128
    kernel_size: 1
    weight_filler {
      type: "xavier"
      std: 0.08
    }
    bias_filler {
      type: "constant"
      value: 0.2
    }
  }
}
layer {
  name: "loss2/relu_conv"
  type: "ReLU"
  bottom: "loss2/conv"
  top: "loss2/conv"
}
layer {
  name: "loss2/fc"
  type: "InnerProduct"
  bottom: "loss2/conv"
  top: "loss2/fc"
  param {
    lr_mult: 1
    decay_mult: 1
  }
  param {
    lr_mult: 2
    decay_mult: 0
  }
  inner_product_param {
    num_output: 1024
    weight_filler {
      type: "xavier"
      std: 0.02
    }
    bias_filler {
      type: "constant"
      value: 0.2
    }
  }
}
layer {
  name: "loss2/relu_fc"
  type: "ReLU"
  bottom: "loss2/fc"
  top: "loss2/fc"
}
layer {
  name: "loss2/drop_fc"
  type: "Dropout"
  bottom: "loss2/fc"
  top: "loss2/fc"
  dropout_param {
    dropout_ratio: 0.7
  }
}
layer {
  name: "loss2/classifier_plantvillage"
  type: "InnerProduct"
  bottom: "loss2/fc"
  top: "loss2/classifier_plantvillage"
  param {
    lr_mult: 1
    decay_mult: 1
  }
  param {
    lr_mult: 2
    decay_mult: 0
  }
  inner_product_param {
    num_output: 38
    weight_filler {
      type: "xavier"
      std: 0.0009765625
    }
    bias_filler {
      type: "constant"
      value: 0
    }
  }
}
layer {
  name: "inception_4e/1x1"
  type: "Convolution"
  bottom: "inception_4d/output"
  top: "inception_4e/1x1"
  param {
    lr_mult: 1
    decay_mult: 1
  }
  param {
    lr_mult: 2
    decay_mult: 0
  }
  convolution_param {
    num_output: 256
    kernel_size: 1
    weight_filler {
      type: "xavier"
      std: 0.03
    }
    bias_filler {
      type: "constant"
      value: 0.2
    }
  }
}
layer {
  name: "inception_4e/relu_1x1"
  type: "ReLU"
  bottom: "inception_4e/1x1"
  top: "inception_4e/1x1"
}
layer {
  name: "inception_4e/3x3_reduce"
  type: "Convolution"
  bottom: "inception_4d/output"
  top: "inception_4e/3x3_reduce"
  param {
    lr_mult: 1
    decay_mult: 1
  }
  param {
    lr_mult: 2
    decay_mult: 0
  }
  convolution_param {
    num_output: 160
    kernel_size: 1
    weight_filler {
      type: "xavier"
      std: 0.09
    }
    bias_filler {
      type: "constant"
      value: 0.2
    }
  }
}
layer {
  name: "inception_4e/relu_3x3_reduce"
  type: "ReLU"
  bottom: "inception_4e/3x3_reduce"
  top: "inception_4e/3x3_reduce"
}
layer {
  name: "inception_4e/3x3"
  type: "Convolution"
  bottom: "inception_4e/3x3_reduce"
  top: "inception_4e/3x3"
  param {
    lr_mult: 1
    decay_mult: 1
  }
  param {
    lr_mult: 2
    decay_mult: 0
  }
  convolution_param {
    num_output: 320
    pad: 1
    kernel_size: 3
    weight_filler {
      type: "xavier"
      std: 0.03
    }
    bias_filler {
      type: "constant"
      value: 0.2
    }
  }
}
layer {
  name: "inception_4e/relu_3x3"
  type: "ReLU"
  bottom: "inception_4e/3x3"
  top: "inception_4e/3x3"
}
layer {
  name: "inception_4e/5x5_reduce"
  type: "Convolution"
  bottom: "inception_4d/output"
  top: "inception_4e/5x5_reduce"
  param {
    lr_mult: 1
    decay_mult: 1
  }
  param {
    lr_mult: 2
    decay_mult: 0
  }
  convolution_param {
    num_output: 32
    kernel_size: 1
    weight_filler {
      type: "xavier"
      std: 0.2
    }
    bias_filler {
      type: "constant"
      value: 0.2
    }
  }
}
layer {
  name: "inception_4e/relu_5x5_reduce"
  type: "ReLU"
  bottom: "inception_4e/5x5_reduce"
  top: "inception_4e/5x5_reduce"
}
layer {
  name: "inception_4e/5x5"
  type: "Convolution"
  bottom: "inception_4e/5x5_reduce"
  top: "inception_4e/
I0403 14:49:19.235805 17720 layer_factory.hpp:77] Creating layer data
I0403 14:49:19.236376 17720 net.cpp:91] Creating Layer data
I0403 14:49:19.236404 17720 net.cpp:399] data -> data
I0403 14:49:19.236454 17720 net.cpp:399] data -> label
I0403 14:49:19.236488 17720 data_transformer.cpp:25] Loading mean file from: /home/mohanty/data/final_dataset/lmdb/grayscale-40-60/mean.binaryproto
I0403 14:49:19.238976 17723 db_lmdb.cpp:38] Opened lmdb /home/mohanty/data/final_dataset/lmdb/grayscale-40-60/test_db
I0403 14:49:19.249297 17720 data_layer.cpp:41] output data size: 24,3,224,224
I0403 14:49:19.278187 17720 net.cpp:141] Setting up data
I0403 14:49:19.278275 17720 net.cpp:148] Top shape: 24 3 224 224 (3612672)
I0403 14:49:19.278296 17720 net.cpp:148] Top shape: 24 (24)
I0403 14:49:19.278311 17720 net.cpp:156] Memory required for data: 14450784
I0403 14:49:19.278337 17720 layer_factory.hpp:77] Creating layer label_data_1_split
I0403 14:49:19.278362 17720 net.cpp:91] Creating Layer label_data_1_split
I0403 14:49:19.278391 17720 net.cpp:425] label_data_1_split <- label
I0403 14:49:19.278422 17720 net.cpp:399] label_data_1_split -> label_data_1_split_0
I0403 14:49:19.278450 17720 net.cpp:399] label_data_1_split -> label_data_1_split_1
I0403 14:49:19.278472 17720 net.cpp:399] label_data_1_split -> label_data_1_split_2
I0403 14:49:19.278493 17720 net.cpp:399] label_data_1_split -> label_data_1_split_3
I0403 14:49:19.278512 17720 net.cpp:399] label_data_1_split -> label_data_1_split_4
I0403 14:49:19.278532 17720 net.cpp:399] label_data_1_split -> label_data_1_split_5
I0403 14:49:19.278551 17720 net.cpp:399] label_data_1_split -> label_data_1_split_6
I0403 14:49:19.278571 17720 net.cpp:399] label_data_1_split -> label_data_1_split_7
I0403 14:49:19.278591 17720 net.cpp:399] label_data_1_split -> label_data_1_split_8
I0403 14:49:19.278611 17720 net.cpp:399] label_data_1_split -> label_data_1_split_9
I0403 14:49:19.278738 17720 net.cpp:141] Setting up label_data_1_split
I0403 14:49:19.278761 17720 net.cpp:148] Top shape: 24 (24)
I0403 14:49:19.278777 17720 net.cpp:148] Top shape: 24 (24)
I0403 14:49:19.278792 17720 net.cpp:148] Top shape: 24 (24)
I0403 14:49:19.278807 17720 net.cpp:148] Top shape: 24 (24)
I0403 14:49:19.278822 17720 net.cpp:148] Top shape: 24 (24)
I0403 14:49:19.278837 17720 net.cpp:148] Top shape: 24 (24)
I0403 14:49:19.278853 17720 net.cpp:148] Top shape: 24 (24)
I0403 14:49:19.278868 17720 net.cpp:148] Top shape: 24 (24)
I0403 14:49:19.278883 17720 net.cpp:148] Top shape: 24 (24)
I0403 14:49:19.278899 17720 net.cpp:148] Top shape: 24 (24)
I0403 14:49:19.278941 17720 net.cpp:156] Memory required for data: 14451744
I0403 14:49:19.278957 17720 layer_factory.hpp:77] Creating layer conv1/7x7_s2
I0403 14:49:19.278996 17720 net.cpp:91] Creating Layer conv1/7x7_s2
I0403 14:49:19.279017 17720 net.cpp:425] conv1/7x7_s2 <- data
I0403 14:49:19.279036 17720 net.cpp:399] conv1/7x7_s2 -> conv1/7x7_s2
I0403 14:49:19.422842 17720 net.cpp:141] Setting up conv1/7x7_s2
I0403 14:49:19.422912 17720 net.cpp:148] Top shape: 24 64 112 112 (19267584)
I0403 14:49:19.422930 17720 net.cpp:156] Memory required for data: 91522080
I0403 14:49:19.422962 17720 layer_factory.hpp:77] Creating layer conv1/relu_7x7
I0403 14:49:19.422994 17720 net.cpp:91] Creating Layer conv1/relu_7x7
I0403 14:49:19.423014 17720 net.cpp:425] conv1/relu_7x7 <- conv1/7x7_s2
I0403 14:49:19.423034 17720 net.cpp:386] conv1/relu_7x7 -> conv1/7x7_s2 (in-place)
I0403 14:49:19.423313 17720 net.cpp:141] Setting up conv1/relu_7x7
I0403 14:49:19.423341 17720 net.cpp:148] Top shape: 24 64 112 112 (19267584)
I0403 14:49:19.423357 17720 net.cpp:156] Memory required for data: 168592416
I0403 14:49:19.423372 17720 layer_factory.hpp:77] Creating layer pool1/3x3_s2
I0403 14:49:19.423396 17720 net.cpp:91] Creating Layer pool1/3x3_s2
I0403 14:49:19.423413 17720 net.cpp:425] pool1/3x3_s2 <- conv1/7x7_s2
I0403 14:49:19.423431 17720 net.cpp:399] pool1/3x3_s2 -> pool1/3x3_s2
I0403 14:49:19.423506 17720 net.cpp:141] Setting up pool1/3x3_s2
I0403 14:49:19.423529 17720 net.cpp:148] Top shape: 24 64 56 56 (4816896)
I0403 14:49:19.423544 17720 net.cpp:156] Memory required for data: 187860000
I0403 14:49:19.423559 17720 layer_factory.hpp:77] Creating layer pool1/norm1
I0403 14:49:19.423583 17720 net.cpp:91] Creating Layer pool1/norm1
I0403 14:49:19.423601 17720 net.cpp:425] pool1/norm1 <- pool1/3x3_s2
I0403 14:49:19.423619 17720 net.cpp:399] pool1/norm1 -> pool1/norm1
I0403 14:49:19.423959 17720 net.cpp:141] Setting up pool1/norm1
I0403 14:49:19.423990 17720 net.cpp:148] Top shape: 24 64 56 56 (4816896)
I0403 14:49:19.424008 17720 net.cpp:156] Memory required for data: 207127584
I0403 14:49:19.424024 17720 layer_factory.hpp:77] Creating layer conv2/3x3_reduce
I0403 14:49:19.424048 17720 net.cpp:91] Creating Layer conv2/3x3_reduce
I0403 14:49:19.424067 17720 net.cpp:425] conv2/3x3_reduce <- pool1/norm1
I0403 14:49:19.424085 17720 net.cpp:399] conv2/3x3_reduce -> conv2/3x3_reduce
I0403 14:49:19.425539 17720 net.cpp:141] Setting up conv2/3x3_reduce
I0403 14:49:19.425601 17720 net.cpp:148] Top shape: 24 64 56 56 (4816896)
I0403 14:49:19.425621 17720 net.cpp:156] Memory required for data: 226395168
I0403 14:49:19.425643 17720 layer_factory.hpp:77] Creating layer conv2/relu_3x3_reduce
I0403 14:49:19.425663 17720 net.cpp:91] Creating Layer conv2/relu_3x3_reduce
I0403 14:49:19.425679 17720 net.cpp:425] conv2/relu_3x3_reduce <- conv2/3x3_reduce
I0403 14:49:19.425698 17720 net.cpp:386] conv2/relu_3x3_reduce -> conv2/3x3_reduce (in-place)
I0403 14:49:19.425971 17720 net.cpp:141] Setting up conv2/relu_3x3_reduce
I0403 14:49:19.426005 17720 net.cpp:148] Top shape: 24 64 56 56 (4816896)
I0403 14:49:19.426023 17720 net.cpp:156] Memory required for data: 245662752
I0403 14:49:19.426038 17720 layer_factory.hpp:77] Creating layer conv2/3x3
I0403 14:49:19.426064 17720 net.cpp:91] Creating Layer conv2/3x3
I0403 14:49:19.426082 17720 net.cpp:425] conv2/3x3 <- conv2/3x3_reduce
I0403 14:49:19.426100 17720 net.cpp:399] conv2/3x3 -> conv2/3x3
I0403 14:49:19.428506 17720 net.cpp:141] Setting up conv2/3x3
I0403 14:49:19.428539 17720 net.cpp:148] Top shape: 24 192 56 56 (14450688)
I0403 14:49:19.428555 17720 net.cpp:156] Memory required for data: 303465504
I0403 14:49:19.428577 17720 layer_factory.hpp:77] Creating layer conv2/relu_3x3
I0403 14:49:19.428597 17720 net.cpp:91] Creating Layer conv2/relu_3x3
I0403 14:49:19.428613 17720 net.cpp:425] conv2/relu_3x3 <- conv2/3x3
I0403 14:49:19.428630 17720 net.cpp:386] conv2/relu_3x3 -> conv2/3x3 (in-place)
I0403 14:49:19.428813 17720 net.cpp:141] Setting up conv2/relu_3x3
I0403 14:49:19.428839 17720 net.cpp:148] Top shape: 24 192 56 56 (14450688)
I0403 14:49:19.428885 17720 net.cpp:156] Memory required for data: 361268256
I0403 14:49:19.428902 17720 layer_factory.hpp:77] Creating layer conv2/norm2
I0403 14:49:19.429004 17720 net.cpp:91] Creating Layer conv2/norm2
I0403 14:49:19.429028 17720 net.cpp:425] conv2/norm2 <- conv2/3x3
I0403 14:49:19.429046 17720 net.cpp:399] conv2/norm2 -> conv2/norm2
I0403 14:49:19.429358 17720 net.cpp:141] Setting up conv2/norm2
I0403 14:49:19.429385 17720 net.cpp:148] Top shape: 24 192 56 56 (14450688)
I0403 14:49:19.429400 17720 net.cpp:156] Memory required for data: 419071008
I0403 14:49:19.429416 17720 layer_factory.hpp:77] Creating layer pool2/3x3_s2
I0403 14:49:19.429436 17720 net.cpp:91] Creating Layer pool2/3x3_s2
I0403 14:49:19.429452 17720 net.cpp:425] pool2/3x3_s2 <- conv2/norm2
I0403 14:49:19.429471 17720 net.cpp:399] pool2/3x3_s2 -> pool2/3x3_s2
I0403 14:49:19.429524 17720 net.cpp:141] Setting up pool2/3x3_s2
I0403 14:49:19.429548 17720 net.cpp:148] Top shape: 24 192 28 28 (3612672)
I0403 14:49:19.429563 17720 net.cpp:156] Memory required for data: 433521696
I0403 14:49:19.429579 17720 layer_factory.hpp:77] Creating layer pool2/3x3_s2_pool2/3x3_s2_0_split
I0403 14:49:19.429596 17720 net.cpp:91] Creating Layer pool2/3x3_s2_pool2/3x3_s2_0_split
I0403 14:49:19.429612 17720 net.cpp:425] pool2/3x3_s2_pool2/3x3_s2_0_split <- pool2/3x3_s2
I0403 14:49:19.429632 17720 net.cpp:399] pool2/3x3_s2_pool2/3x3_s2_0_split -> pool2/3x3_s2_pool2/3x3_s2_0_split_0
I0403 14:49:19.429653 17720 net.cpp:399] pool2/3x3_s2_pool2/3x3_s2_0_split -> pool2/3x3_s2_pool2/3x3_s2_0_split_1
I0403 14:49:19.429674 17720 net.cpp:399] pool2/3x3_s2_pool2/3x3_s2_0_split -> pool2/3x3_s2_pool2/3x3_s2_0_split_2
I0403 14:49:19.429694 17720 net.cpp:399] pool2/3x3_s2_pool2/3x3_s2_0_split -> pool2/3x3_s2_pool2/3x3_s2_0_split_3
I0403 14:49:19.429769 17720 net.cpp:141] Setting up pool2/3x3_s2_pool2/3x3_s2_0_split
I0403 14:49:19.429793 17720 net.cpp:148] Top shape: 24 192 28 28 (3612672)
I0403 14:49:19.429811 17720 net.cpp:148] Top shape: 24 192 28 28 (3612672)
I0403 14:49:19.429826 17720 net.cpp:148] Top shape: 24 192 28 28 (3612672)
I0403 14:49:19.429842 17720 net.cpp:148] Top shape: 24 192 28 28 (3612672)
I0403 14:49:19.429857 17720 net.cpp:156] Memory required for data: 491324448
I0403 14:49:19.429870 17720 layer_factory.hpp:77] Creating layer inception_3a/1x1
I0403 14:49:19.429894 17720 net.cpp:91] Creating Layer inception_3a/1x1
I0403 14:49:19.429911 17720 net.cpp:425] inception_3a/1x1 <- pool2/3x3_s2_pool2/3x3_s2_0_split_0
I0403 14:49:19.429929 17720 net.cpp:399] inception_3a/1x1 -> inception_3a/1x1
I0403 14:49:19.431571 17720 net.cpp:141] Setting up inception_3a/1x1
I0403 14:49:19.431599 17720 net.cpp:148] Top shape: 24 64 28 28 (1204224)
I0403 14:49:19.431615 17720 net.cpp:156] Memory required for data: 496141344
I0403 14:49:19.431634 17720 layer_factory.hpp:77] Creating layer inception_3a/relu_1x1
I0403 14:49:19.431655 17720 net.cpp:91] Creating Layer inception_3a/relu_1x1
I0403 14:49:19.431673 17720 net.cpp:425] inception_3a/relu_1x1 <- inception_3a/1x1
I0403 14:49:19.431690 17720 net.cpp:386] inception_3a/relu_1x1 -> inception_3a/1x1 (in-place)
I0403 14:49:19.431874 17720 net.cpp:141] Setting up inception_3a/relu_1x1
I0403 14:49:19.431900 17720 net.cpp:148] Top shape: 24 64 28 28 (1204224)
I0403 14:49:19.431915 17720 net.cpp:156] Memory required for data: 500958240
I0403 14:49:19.431929 17720 layer_factory.hpp:77] Creating layer inception_3a/3x3_reduce
I0403 14:49:19.431952 17720 net.cpp:91] Creating Layer inception_3a/3x3_reduce
I0403 14:49:19.431970 17720 net.cpp:425] inception_3a/3x3_reduce <- pool2/3x3_s2_pool2/3x3_s2_0_split_1
I0403 14:49:19.431995 17720 net.cpp:399] inception_3a/3x3_reduce -> inception_3a/3x3_reduce
I0403 14:49:19.433883 17720 net.cpp:141] Setting up inception_3a/3x3_reduce
I0403 14:49:19.433915 17720 net.cpp:148] Top shape: 24 96 28 28 (1806336)
I0403 14:49:19.433933 17720 net.cpp:156] Memory required for data: 508183584
I0403 14:49:19.433955 17720 layer_factory.hpp:77] Creating layer inception_3a/relu_3x3_reduce
I0403 14:49:19.433995 17720 net.cpp:91] Creating Layer inception_3a/relu_3x3_reduce
I0403 14:49:19.434015 17720 net.cpp:425] inception_3a/relu_3x3_reduce <- inception_3a/3x3_reduce
I0403 14:49:19.434036 17720 net.cpp:386] inception_3a/relu_3x3_reduce -> inception_3a/3x3_reduce (in-place)
I0403 14:49:19.434239 17720 net.cpp:141] Setting up inception_3a/relu_3x3_reduce
I0403 14:49:19.434267 17720 net.cpp:148] Top shape: 24 96 28 28 (1806336)
I0403 14:49:19.434283 17720 net.cpp:156] Memory required for data: 515408928
I0403 14:49:19.434298 17720 layer_factory.hpp:77] Creating layer inception_3a/3x3
I0403 14:49:19.434321 17720 net.cpp:91] Creating Layer inception_3a/3x3
I0403 14:49:19.434340 17720 net.cpp:425] inception_3a/3x3 <- inception_3a/3x3_reduce
I0403 14:49:19.434376 17720 net.cpp:399] inception_3a/3x3 -> inception_3a/3x3
I0403 14:49:19.436100 17720 net.cpp:141] Setting up inception_3a/3x3
I0403 14:49:19.436130 17720 net.cpp:148] Top shape: 24 128 28 28 (2408448)
I0403 14:49:19.436146 17720 net.cpp:156] Memory required for data: 525042720
I0403 14:49:19.436166 17720 layer_factory.hpp:77] Creating layer inception_3a/relu_3x3
I0403 14:49:19.436183 17720 net.cpp:91] Creating Layer inception_3a/relu_3x3
I0403 14:49:19.436199 17720 net.cpp:425] inception_3a/relu_3x3 <- inception_3a/3x3
I0403 14:49:19.436218 17720 net.cpp:386] inception_3a/relu_3x3 -> inception_3a/3x3 (in-place)
I0403 14:49:19.436493 17720 net.cpp:141] Setting up inception_3a/relu_3x3
I0403 14:49:19.436522 17720 net.cpp:148] Top shape: 24 128 28 28 (2408448)
I0403 14:49:19.436538 17720 net.cpp:156] Memory required for data: 534676512
I0403 14:49:19.436553 17720 layer_factory.hpp:77] Creating layer inception_3a/5x5_reduce
I0403 14:49:19.436575 17720 net.cpp:91] Creating Layer inception_3a/5x5_reduce
I0403 14:49:19.436594 17720 net.cpp:425] inception_3a/5x5_reduce <- pool2/3x3_s2_pool2/3x3_s2_0_split_2
I0403 14:49:19.436612 17720 net.cpp:399] inception_3a/5x5_reduce -> inception_3a/5x5_reduce
I0403 14:49:19.437580 17720 net.cpp:141] Setting up inception_3a/5x5_reduce
I0403 14:49:19.437610 17720 net.cpp:148] Top shape: 24 16 28 28 (301056)
I0403 14:49:19.437626 17720 net.cpp:156] Memory required for data: 535880736
I0403 14:49:19.437644 17720 layer_factory.hpp:77] Creating layer inception_3a/relu_5x5_reduce
I0403 14:49:19.437661 17720 net.cpp:91] Creating Layer inception_3a/relu_5x5_reduce
I0403 14:49:19.437677 17720 net.cpp:425] inception_3a/relu_5x5_reduce <- inception_3a/5x5_reduce
I0403 14:49:19.437697 17720 net.cpp:386] inception_3a/relu_5x5_reduce -> inception_3a/5x5_reduce (in-place)
I0403 14:49:19.438001 17720 net.cpp:141] Setting up inception_3a/relu_5x5_reduce
I0403 14:49:19.438027 17720 net.cpp:148] Top shape: 24 16 28 28 (301056)
I0403 14:49:19.438042 17720 net.cpp:156] Memory required for data: 537084960
I0403 14:49:19.438057 17720 layer_factory.hpp:77] Creating layer inception_3a/5x5
I0403 14:49:19.438079 17720 net.cpp:91] Creating Layer inception_3a/5x5
I0403 14:49:19.438097 17720 net.cpp:425] inception_3a/5x5 <- inception_3a/5x5_reduce
I0403 14:49:19.438117 17720 net.cpp:399] inception_3a/5x5 -> inception_3a/5x5
I0403 14:49:19.439157 17720 net.cpp:141] Setting up inception_3a/5x5
I0403 14:49:19.439183 17720 net.cpp:148] Top shape: 24 32 28 28 (602112)
I0403 14:49:19.439198 17720 net.cpp:156] Memory required for data: 539493408
I0403 14:49:19.439216 17720 layer_factory.hpp:77] Creating layer inception_3a/relu_5x5
I0403 14:49:19.439236 17720 net.cpp:91] Creating Layer inception_3a/relu_5x5
I0403 14:49:19.439252 17720 net.cpp:425] inception_3a/relu_5x5 <- inception_3a/5x5
I0403 14:49:19.439270 17720 net.cpp:386] inception_3a/relu_5x5 -> inception_3a/5x5 (in-place)
I0403 14:49:19.439445 17720 net.cpp:141] Setting up inception_3a/relu_5x5
I0403 14:49:19.439471 17720 net.cpp:148] Top shape: 24 32 28 28 (602112)
I0403 14:49:19.439486 17720 net.cpp:156] Memory required for data: 541901856
I0403 14:49:19.439501 17720 layer_factory.hpp:77] Creating layer inception_3a/pool
I0403 14:49:19.439518 17720 net.cpp:91] Creating Layer inception_3a/pool
I0403 14:49:19.439549 17720 net.cpp:425] inception_3a/pool <- pool2/3x3_s2_pool2/3x3_s2_0_split_3
I0403 14:49:19.439570 17720 net.cpp:399] inception_3a/pool -> inception_3a/pool
I0403 14:49:19.439627 17720 net.cpp:141] Setting up inception_3a/pool
I0403 14:49:19.439651 17720 net.cpp:148] Top shape: 24 192 28 28 (3612672)
I0403 14:49:19.439666 17720 net.cpp:156] Memory required for data: 556352544
I0403 14:49:19.439680 17720 layer_factory.hpp:77] Creating layer inception_3a/pool_proj
I0403 14:49:19.439705 17720 net.cpp:91] Creating Layer inception_3a/pool_proj
I0403 14:49:19.439723 17720 net.cpp:425] inception_3a/pool_proj <- inception_3a/pool
I0403 14:49:19.439740 17720 net.cpp:399] inception_3a/pool_proj -> inception_3a/pool_proj
I0403 14:49:19.440708 17720 net.cpp:141] Setting up inception_3a/pool_proj
I0403 14:49:19.440735 17720 net.cpp:148] Top shape: 24 32 28 28 (602112)
I0403 14:49:19.440752 17720 net.cpp:156] Memory required for data: 558760992
I0403 14:49:19.440775 17720 layer_factory.hpp:77] Creating layer inception_3a/relu_pool_proj
I0403 14:49:19.440796 17720 net.cpp:91] Creating Layer inception_3a/relu_pool_proj
I0403 14:49:19.440811 17720 net.cpp:425] inception_3a/relu_pool_proj <- inception_3a/pool_proj
I0403 14:49:19.440831 17720 net.cpp:386] inception_3a/relu_pool_proj -> inception_3a/pool_proj (in-place)
I0403 14:49:19.441104 17720 net.cpp:141] Setting up inception_3a/relu_pool_proj
I0403 14:49:19.441133 17720 net.cpp:148] Top shape: 24 32 28 28 (602112)
I0403 14:49:19.441148 17720 net.cpp:156] Memory required for data: 561169440
I0403 14:49:19.441164 17720 layer_factory.hpp:77] Creating layer inception_3a/output
I0403 14:49:19.441180 17720 net.cpp:91] Creating Layer inception_3a/output
I0403 14:49:19.441196 17720 net.cpp:425] inception_3a/output <- inception_3a/1x1
I0403 14:49:19.441212 17720 net.cpp:425] inception_3a/output <- inception_3a/3x3
I0403 14:49:19.441228 17720 net.cpp:425] inception_3a/output <- inception_3a/5x5
I0403 14:49:19.441246 17720 net.cpp:425] inception_3a/output <- inception_3a/pool_proj
I0403 14:49:19.441262 17720 net.cpp:399] inception_3a/output -> inception_3a/output
I0403 14:49:19.441329 17720 net.cpp:141] Setting up inception_3a/output
I0403 14:49:19.441352 17720 net.cpp:148] Top shape: 24 256 28 28 (4816896)
I0403 14:49:19.441366 17720 net.cpp:156] Memory required for data: 580437024
I0403 14:49:19.441380 17720 layer_factory.hpp:77] Creating layer inception_3a/output_inception_3a/output_0_split
I0403 14:49:19.441401 17720 net.cpp:91] Creating Layer inception_3a/output_inception_3a/output_0_split
I0403 14:49:19.441417 17720 net.cpp:425] inception_3a/output_inception_3a/output_0_split <- inception_3a/output
I0403 14:49:19.441434 17720 net.cpp:399] inception_3a/output_inception_3a/output_0_split -> inception_3a/output_inception_3a/output_0_split_0
I0403 14:49:19.441454 17720 net.cpp:399] inception_3a/output_inception_3a/output_0_split -> inception_3a/output_inception_3a/output_0_split_1
I0403 14:49:19.441478 17720 net.cpp:399] inception_3a/output_inception_3a/output_0_split -> inception_3a/output_inception_3a/output_0_split_2
I0403 14:49:19.441499 17720 net.cpp:399] inception_3a/output_inception_3a/output_0_split -> inception_3a/output_inception_3a/output_0_split_3
I0403 14:49:19.441571 17720 net.cpp:141] Setting up inception_3a/output_inception_3a/output_0_split
I0403 14:49:19.441594 17720 net.cpp:148] Top shape: 24 256 28 28 (4816896)
I0403 14:49:19.441612 17720 net.cpp:148] Top shape: 24 256 28 28 (4816896)
I0403 14:49:19.441629 17720 net.cpp:148] Top shape: 24 256 28 28 (4816896)
I0403 14:49:19.441644 17720 net.cpp:148] Top shape: 24 256 28 28 (4816896)
I0403 14:49:19.441658 17720 net.cpp:156] Memory required for data: 657507360
I0403 14:49:19.441673 17720 layer_factory.hpp:77] Creating layer inception_3b/1x1
I0403 14:49:19.441692 17720 net.cpp:91] Creating Layer inception_3b/1x1
I0403 14:49:19.441709 17720 net.cpp:425] inception_3b/1x1 <- inception_3a/output_inception_3a/output_0_split_0
I0403 14:49:19.441730 17720 net.cpp:399] inception_3b/1x1 -> inception_3b/1x1
I0403 14:49:19.442850 17720 net.cpp:141] Setting up inception_3b/1x1
I0403 14:49:19.442893 17720 net.cpp:148] Top shape: 24 128 28 28 (2408448)
I0403 14:49:19.442909 17720 net.cpp:156] Memory required for data: 667141152
I0403 14:49:19.442926 17720 layer_factory.hpp:77] Creating layer inception_3b/relu_1x1
I0403 14:49:19.442960 17720 net.cpp:91] Creating Layer inception_3b/relu_1x1
I0403 14:49:19.442978 17720 net.cpp:425] inception_3b/relu_1x1 <- inception_3b/1x1
I0403 14:49:19.443001 17720 net.cpp:386] inception_3b/relu_1x1 -> inception_3b/1x1 (in-place)
I0403 14:49:19.443182 17720 net.cpp:141] Setting up inception_3b/relu_1x1
I0403 14:49:19.443209 17720 net.cpp:148] Top shape: 24 128 28 28 (2408448)
I0403 14:49:19.443225 17720 net.cpp:156] Memory required for data: 676774944
I0403 14:49:19.443253 17720 layer_factory.hpp:77] Creating layer inception_3b/3x3_reduce
I0403 14:49:19.443275 17720 net.cpp:91] Creating Layer inception_3b/3x3_reduce
I0403 14:49:19.443292 17720 net.cpp:425] inception_3b/3x3_reduce <- inception_3a/output_inception_3a/output_0_split_1
I0403 14:49:19.443310 17720 net.cpp:399] inception_3b/3x3_reduce -> inception_3b/3x3_reduce
I0403 14:49:19.444434 17720 net.cpp:141] Setting up inception_3b/3x3_reduce
I0403 14:49:19.444463 17720 net.cpp:148] Top shape: 24 128 28 28 (2408448)
I0403 14:49:19.444478 17720 net.cpp:156] Memory required for data: 686408736
I0403 14:49:19.444496 17720 layer_factory.hpp:77] Creating layer inception_3b/relu_3x3_reduce
I0403 14:49:19.444515 17720 net.cpp:91] Creating Layer inception_3b/relu_3x3_reduce
I0403 14:49:19.444532 17720 net.cpp:425] inception_3b/relu_3x3_reduce <- inception_3b/3x3_reduce
I0403 14:49:19.444548 17720 net.cpp:386] inception_3b/relu_3x3_reduce -> inception_3b/3x3_reduce (in-place)
I0403 14:49:19.444718 17720 net.cpp:141] Setting up inception_3b/relu_3x3_reduce
I0403 14:49:19.444746 17720 net.cpp:148] Top shape: 24 128 28 28 (2408448)
I0403 14:49:19.444761 17720 net.cpp:156] Memory required for data: 696042528
I0403 14:49:19.444775 17720 layer_factory.hpp:77] Creating layer inception_3b/3x3
I0403 14:49:19.444799 17720 net.cpp:91] Creating Layer inception_3b/3x3
I0403 14:49:19.444818 17720 net.cpp:425] inception_3b/3x3 <- inception_3b/3x3_reduce
I0403 14:49:19.444839 17720 net.cpp:399] inception_3b/3x3 -> inception_3b/3x3
I0403 14:49:19.447721 17720 net.cpp:141] Setting up inception_3b/3x3
I0403 14:49:19.447751 17720 net.cpp:148] Top shape: 24 192 28 28 (3612672)
I0403 14:49:19.447768 17720 net.cpp:156] Memory required for data: 710493216
I0403 14:49:19.447787 17720 layer_factory.hpp:77] Creating layer inception_3b/relu_3x3
I0403 14:49:19.447804 17720 net.cpp:91] Creating Layer inception_3b/relu_3x3
I0403 14:49:19.447820 17720 net.cpp:425] inception_3b/relu_3x3 <- inception_3b/3x3
I0403 14:49:19.447839 17720 net.cpp:386] inception_3b/relu_3x3 -> inception_3b/3x3 (in-place)
I0403 14:49:19.448118 17720 net.cpp:141] Setting up inception_3b/relu_3x3
I0403 14:49:19.448146 17720 net.cpp:148] Top shape: 24 192 28 28 (3612672)
I0403 14:49:19.448163 17720 net.cpp:156] Memory required for data: 724943904
I0403 14:49:19.448178 17720 layer_factory.hpp:77] Creating layer inception_3b/5x5_reduce
I0403 14:49:19.448201 17720 net.cpp:91] Creating Layer inception_3b/5x5_reduce
I0403 14:49:19.448218 17720 net.cpp:425] inception_3b/5x5_reduce <- inception_3a/output_inception_3a/output_0_split_2
I0403 14:49:19.448238 17720 net.cpp:399] inception_3b/5x5_reduce -> inception_3b/5x5_reduce
I0403 14:49:19.449223 17720 net.cpp:141] Setting up inception_3b/5x5_reduce
I0403 14:49:19.449254 17720 net.cpp:148] Top shape: 24 32 28 28 (602112)
I0403 14:49:19.449270 17720 net.cpp:156] Memory required for data: 727352352
I0403 14:49:19.449290 17720 layer_factory.hpp:77] Creating layer inception_3b/relu_5x5_reduce
I0403 14:49:19.449307 17720 net.cpp:91] Creating Layer inception_3b/relu_5x5_reduce
I0403 14:49:19.449323 17720 net.cpp:425] inception_3b/relu_5x5_reduce <- inception_3b/5x5_reduce
I0403 14:49:19.449342 17720 net.cpp:386] inception_3b/relu_5x5_reduce -> inception_3b/5x5_reduce (in-place)
I0403 14:49:19.449532 17720 net.cpp:141] Setting up inception_3b/relu_5x5_reduce
I0403 14:49:19.449556 17720 net.cpp:148] Top shape: 24 32 28 28 (602112)
I0403 14:49:19.449570 17720 net.cpp:156] Memory required for data: 729760800
I0403 14:49:19.449585 17720 layer_factory.hpp:77] Creating layer inception_3b/5x5
I0403 14:49:19.449609 17720 net.cpp:91] Creating Layer inception_3b/5x5
I0403 14:49:19.449626 17720 net.cpp:425] inception_3b/5x5 <- inception_3b/5x5_reduce
I0403 14:49:19.449647 17720 net.cpp:399] inception_3b/5x5 -> inception_3b/5x5
I0403 14:49:19.451588 17720 net.cpp:141] Setting up inception_3b/5x5
I0403 14:49:19.451617 17720 net.cpp:148] Top shape: 24 96 28 28 (1806336)
I0403 14:49:19.451632 17720 net.cpp:156] Memory required for data: 736986144
I0403 14:49:19.451650 17720 layer_factory.hpp:77] Creating layer inception_3b/relu_5x5
I0403 14:49:19.451670 17720 net.cpp:91] Creating Layer inception_3b/relu_5x5
I0403 14:49:19.451688 17720 net.cpp:425] inception_3b/relu_5x5 <- inception_3b/5x5
I0403 14:49:19.451704 17720 net.cpp:386] inception_3b/relu_5x5 -> inception_3b/5x5 (in-place)
I0403 14:49:19.451895 17720 net.cpp:141] Setting up inception_3b/relu_5x5
I0403 14:49:19.451920 17720 net.cpp:148] Top shape: 24 96 28 28 (1806336)
I0403 14:49:19.451935 17720 net.cpp:156] Memory required for data: 744211488
I0403 14:49:19.451961 17720 layer_factory.hpp:77] Creating layer inception_3b/pool
I0403 14:49:19.451979 17720 net.cpp:91] Creating Layer inception_3b/pool
I0403 14:49:19.452002 17720 net.cpp:425] inception_3b/pool <- inception_3a/output_inception_3a/output_0_split_3
I0403 14:49:19.452020 17720 net.cpp:399] inception_3b/pool -> inception_3b/pool
I0403 14:49:19.452077 17720 net.cpp:141] Setting up inception_3b/pool
I0403 14:49:19.452101 17720 net.cpp:148] Top shape: 24 256 28 28 (4816896)
I0403 14:49:19.452116 17720 net.cpp:156] Memory required for data: 763479072
I0403 14:49:19.452131 17720 layer_factory.hpp:77] Creating layer inception_3b/pool_proj
I0403 14:49:19.452153 17720 net.cpp:91] Creating Layer inception_3b/pool_proj
I0403 14:49:19.452172 17720 net.cpp:425] inception_3b/pool_proj <- inception_3b/pool
I0403 14:49:19.452193 17720 net.cpp:399] inception_3b/pool_proj -> inception_3b/pool_proj
I0403 14:49:19.453289 17720 net.cpp:141] Setting up inception_3b/pool_proj
I0403 14:49:19.453315 17720 net.cpp:148] Top shape: 24 64 28 28 (1204224)
I0403 14:49:19.453330 17720 net.cpp:156] Memory required for data: 768295968
I0403 14:49:19.453348 17720 layer_factory.hpp:77] Creating layer inception_3b/relu_pool_proj
I0403 14:49:19.453366 17720 net.cpp:91] Creating Layer inception_3b/relu_pool_proj
I0403 14:49:19.453382 17720 net.cpp:425] inception_3b/relu_pool_proj <- inception_3b/pool_proj
I0403 14:49:19.453402 17720 net.cpp:386] inception_3b/relu_pool_proj -> inception_3b/pool_proj (in-place)
I0403 14:49:19.453797 17720 net.cpp:141] Setting up inception_3b/relu_pool_proj
I0403 14:49:19.453826 17720 net.cpp:148] Top shape: 24 64 28 28 (1204224)
I0403 14:49:19.453842 17720 net.cpp:156] Memory required for data: 773112864
I0403 14:49:19.453856 17720 layer_factory.hpp:77] Creating layer inception_3b/output
I0403 14:49:19.453873 17720 net.cpp:91] Creating Layer inception_3b/output
I0403 14:49:19.453889 17720 net.cpp:425] inception_3b/output <- inception_3b/1x1
I0403 14:49:19.453905 17720 net.cpp:425] inception_3b/output <- inception_3b/3x3
I0403 14:49:19.453922 17720 net.cpp:425] inception_3b/output <- inception_3b/5x5
I0403 14:49:19.453938 17720 net.cpp:425] inception_3b/output <- inception_3b/pool_proj
I0403 14:49:19.453956 17720 net.cpp:399] inception_3b/output -> inception_3b/output
I0403 14:49:19.454004 17720 net.cpp:141] Setting up inception_3b/output
I0403 14:49:19.454026 17720 net.cpp:148] Top shape: 24 480 28 28 (9031680)
I0403 14:49:19.454041 17720 net.cpp:156] Memory required for data: 809239584
I0403 14:49:19.454056 17720 layer_factory.hpp:77] Creating layer pool3/3x3_s2
I0403 14:49:19.454076 17720 net.cpp:91] Creating Layer pool3/3x3_s2
I0403 14:49:19.454092 17720 net.cpp:425] pool3/3x3_s2 <- inception_3b/output
I0403 14:49:19.454124 17720 net.cpp:399] pool3/3x3_s2 -> pool3/3x3_s2
I0403 14:49:19.454197 17720 net.cpp:141] Setting up pool3/3x3_s2
I0403 14:49:19.454221 17720 net.cpp:148] Top shape: 24 480 14 14 (2257920)
I0403 14:49:19.454236 17720 net.cpp:156] Memory required for data: 818271264
I0403 14:49:19.454252 17720 layer_factory.hpp:77] Creating layer pool3/3x3_s2_pool3/3x3_s2_0_split
I0403 14:49:19.454270 17720 net.cpp:91] Creating Layer pool3/3x3_s2_pool3/3x3_s2_0_split
I0403 14:49:19.454288 17720 net.cpp:425] pool3/3x3_s2_pool3/3x3_s2_0_split <- pool3/3x3_s2
I0403 14:49:19.454304 17720 net.cpp:399] pool3/3x3_s2_pool3/3x3_s2_0_split -> pool3/3x3_s2_pool3/3x3_s2_0_split_0
I0403 14:49:19.454324 17720 net.cpp:399] pool3/3x3_s2_pool3/3x3_s2_0_split -> pool3/3x3_s2_pool3/3x3_s2_0_split_1
I0403 14:49:19.454344 17720 net.cpp:399] pool3/3x3_s2_pool3/3x3_s2_0_split -> pool3/3x3_s2_pool3/3x3_s2_0_split_2
I0403 14:49:19.454365 17720 net.cpp:399] pool3/3x3_s2_pool3/3x3_s2_0_split -> pool3/3x3_s2_pool3/3x3_s2_0_split_3
I0403 14:49:19.454453 17720 net.cpp:141] Setting up pool3/3x3_s2_pool3/3x3_s2_0_split
I0403 14:49:19.454475 17720 net.cpp:148] Top shape: 24 480 14 14 (2257920)
I0403 14:49:19.454493 17720 net.cpp:148] Top shape: 24 480 14 14 (2257920)
I0403 14:49:19.454507 17720 net.cpp:148] Top shape: 24 480 14 14 (2257920)
I0403 14:49:19.454524 17720 net.cpp:148] Top shape: 24 480 14 14 (2257920)
I0403 14:49:19.454537 17720 net.cpp:156] Memory required for data: 854397984
I0403 14:49:19.454552 17720 layer_factory.hpp:77] Creating layer inception_4a/1x1
I0403 14:49:19.454574 17720 net.cpp:91] Creating Layer inception_4a/1x1
I0403 14:49:19.454591 17720 net.cpp:425] inception_4a/1x1 <- pool3/3x3_s2_pool3/3x3_s2_0_split_0
I0403 14:49:19.454613 17720 net.cpp:399] inception_4a/1x1 -> inception_4a/1x1
I0403 14:49:19.456259 17720 net.cpp:141] Setting up inception_4a/1x1
I0403 14:49:19.456285 17720 net.cpp:148] Top shape: 24 192 14 14 (903168)
I0403 14:49:19.456301 17720 net.cpp:156] Memory required for data: 858010656
I0403 14:49:19.456321 17720 layer_factory.hpp:77] Creating layer inception_4a/relu_1x1
I0403 14:49:19.456341 17720 net.cpp:91] Creating Layer inception_4a/relu_1x1
I0403 14:49:19.456357 17720 net.cpp:425] inception_4a/relu_1x1 <- inception_4a/1x1
I0403 14:49:19.456375 17720 net.cpp:386] inception_4a/relu_1x1 -> inception_4a/1x1 (in-place)
I0403 14:49:19.456555 17720 net.cpp:141] Setting up inception_4a/relu_1x1
I0403 14:49:19.456580 17720 net.cpp:148] Top shape: 24 192 14 14 (903168)
I0403 14:49:19.456599 17720 net.cpp:156] Memory required for data: 861623328
I0403 14:49:19.456614 17720 layer_factory.hpp:77] Creating layer inception_4a/3x3_reduce
I0403 14:49:19.456635 17720 net.cpp:91] Creating Layer inception_4a/3x3_reduce
I0403 14:49:19.456651 17720 net.cpp:425] inception_4a/3x3_reduce <- pool3/3x3_s2_pool3/3x3_s2_0_split_1
I0403 14:49:19.456673 17720 net.cpp:399] inception_4a/3x3_reduce -> inception_4a/3x3_reduce
I0403 14:49:19.457991 17720 net.cpp:141] Setting up inception_4a/3x3_reduce
I0403 14:49:19.458019 17720 net.cpp:148] Top shape: 24 96 14 14 (451584)
I0403 14:49:19.458034 17720 net.cpp:156] Memory required for data: 863429664
I0403 14:49:19.458060 17720 layer_factory.hpp:77] Creating layer inception_4a/relu_3x3_reduce
I0403 14:49:19.458081 17720 net.cpp:91] Creating Layer inception_4a/relu_3x3_reduce
I0403 14:49:19.458097 17720 net.cpp:425] inception_4a/relu_3x3_reduce <- inception_4a/3x3_reduce
I0403 14:49:19.458117 17720 net.cpp:386] inception_4a/relu_3x3_reduce -> inception_4a/3x3_reduce (in-place)
I0403 14:49:19.458293 17720 net.cpp:141] Setting up inception_4a/relu_3x3_reduce
I0403 14:49:19.458319 17720 net.cpp:148] Top shape: 24 96 14 14 (451584)
I0403 14:49:19.458334 17720 net.cpp:156] Memory required for data: 865236000
I0403 14:49:19.458349 17720 layer_factory.hpp:77] Creating layer inception_4a/3x3
I0403 14:49:19.458371 17720 net.cpp:91] Creating Layer inception_4a/3x3
I0403 14:49:19.458389 17720 net.cpp:425] inception_4a/3x3 <- inception_4a/3x3_reduce
I0403 14:49:19.458411 17720 net.cpp:399] inception_4a/3x3 -> inception_4a/3x3
I0403 14:49:19.461139 17720 net.cpp:141] Setting up inception_4a/3x3
I0403 14:49:19.461166 17720 net.cpp:148] Top shape: 24 208 14 14 (978432)
I0403 14:49:19.461182 17720 net.cpp:156] Memory required for data: 869149728
I0403 14:49:19.461200 17720 layer_factory.hpp:77] Creating layer inception_4a/relu_3x3
I0403 14:49:19.461221 17720 net.cpp:91] Creating Layer inception_4a/relu_3x3
I0403 14:49:19.461238 17720 net.cpp:425] inception_4a/relu_3x3 <- inception_4a/3x3
I0403 14:49:19.461254 17720 net.cpp:386] inception_4a/relu_3x3 -> inception_4a/3x3 (in-place)
I0403 14:49:19.461529 17720 net.cpp:141] Setting up inception_4a/relu_3x3
I0403 14:49:19.461555 17720 net.cpp:148] Top shape: 24 208 14 14 (978432)
I0403 14:49:19.461570 17720 net.cpp:156] Memory required for data: 873063456
I0403 14:49:19.461585 17720 layer_factory.hpp:77] Creating layer inception_4a/5x5_reduce
I0403 14:49:19.461606 17720 net.cpp:91] Creating Layer inception_4a/5x5_reduce
I0403 14:49:19.461627 17720 net.cpp:425] inception_4a/5x5_reduce <- pool3/3x3_s2_pool3/3x3_s2_0_split_2
I0403 14:49:19.461645 17720 net.cpp:399] inception_4a/5x5_reduce -> inception_4a/5x5_reduce
I0403 14:49:19.462671 17720 net.cpp:141] Setting up inception_4a/5x5_reduce
I0403 14:49:19.462698 17720 net.cpp:148] Top shape: 24 16 14 14 (75264)
I0403 14:49:19.462714 17720 net.cpp:156] Memory required for data: 873364512
I0403 14:49:19.462733 17720 layer_factory.hpp:77] Creating layer inception_4a/relu_5x5_reduce
I0403 14:49:19.462752 17720 net.cpp:91] Creating Layer inception_4a/relu_5x5_reduce
I0403 14:49:19.462769 17720 net.cpp:425] inception_4a/relu_5x5_reduce <- inception_4a/5x5_reduce
I0403 14:49:19.462786 17720 net.cpp:386] inception_4a/relu_5x5_reduce -> inception_4a/5x5_reduce (in-place)
I0403 14:49:19.462961 17720 net.cpp:141] Setting up inception_4a/relu_5x5_reduce
I0403 14:49:19.462990 17720 net.cpp:148] Top shape: 24 16 14 14 (75264)
I0403 14:49:19.463006 17720 net.cpp:156] Memory required for data: 873665568
I0403 14:49:19.463021 17720 layer_factory.hpp:77] Creating layer inception_4a/5x5
I0403 14:49:19.463042 17720 net.cpp:91] Creating Layer inception_4a/5x5
I0403 14:49:19.463059 17720 net.cpp:425] inception_4a/5x5 <- inception_4a/5x5_reduce
I0403 14:49:19.463080 17720 net.cpp:399] inception_4a/5x5 -> inception_4a/5x5
I0403 14:49:19.464162 17720 net.cpp:141] Setting up inception_4a/5x5
I0403 14:49:19.464187 17720 net.cpp:148] Top shape: 24 48 14 14 (225792)
I0403 14:49:19.464203 17720 net.cpp:156] Memory required for data: 874568736
I0403 14:49:19.464221 17720 layer_factory.hpp:77] Creating layer inception_4a/relu_5x5
I0403 14:49:19.464239 17720 net.cpp:91] Creating Layer inception_4a/relu_5x5
I0403 14:49:19.464256 17720 net.cpp:425] inception_4a/relu_5x5 <- inception_4a/5x5
I0403 14:49:19.464274 17720 net.cpp:386] inception_4a/relu_5x5 -> inception_4a/5x5 (in-place)
I0403 14:49:19.464447 17720 net.cpp:141] Setting up inception_4a/relu_5x5
I0403 14:49:19.464473 17720 net.cpp:148] Top shape: 24 48 14 14 (225792)
I0403 14:49:19.464486 17720 net.cpp:156] Memory required for data: 875471904
I0403 14:49:19.464500 17720 layer_factory.hpp:77] Creating layer inception_4a/pool
I0403 14:49:19.464520 17720 net.cpp:91] Creating Layer inception_4a/pool
I0403 14:49:19.464537 17720 net.cpp:425] inception_4a/pool <- pool3/3x3_s2_pool3/3x3_s2_0_split_3
I0403 14:49:19.464555 17720 net.cpp:399] inception_4a/pool -> inception_4a/pool
I0403 14:49:19.464617 17720 net.cpp:141] Setting up inception_4a/pool
I0403 14:49:19.464639 17720 net.cpp:148] Top shape: 24 480 14 14 (2257920)
I0403 14:49:19.464654 17720 net.cpp:156] Memory required for data: 884503584
I0403 14:49:19.464680 17720 layer_factory.hpp:77] Creating layer inception_4a/pool_proj
I0403 14:49:19.464704 17720 net.cpp:91] Creating Layer inception_4a/pool_proj
I0403 14:49:19.464720 17720 net.cpp:425] inception_4a/pool_proj <- inception_4a/pool
I0403 14:49:19.464741 17720 net.cpp:399] inception_4a/pool_proj -> inception_4a/pool_proj
I0403 14:49:19.465910 17720 net.cpp:141] Setting up inception_4a/pool_proj
I0403 14:49:19.465939 17720 net.cpp:148] Top shape: 24 64 14 14 (301056)
I0403 14:49:19.465968 17720 net.cpp:156] Memory required for data: 885707808
I0403 14:49:19.465991 17720 layer_factory.hpp:77] Creating layer inception_4a/relu_pool_proj
I0403 14:49:19.466012 17720 net.cpp:91] Creating Layer inception_4a/relu_pool_proj
I0403 14:49:19.466029 17720 net.cpp:425] inception_4a/relu_pool_proj <- inception_4a/pool_proj
I0403 14:49:19.466047 17720 net.cpp:386] inception_4a/relu_pool_proj -> inception_4a/pool_proj (in-place)
I0403 14:49:19.466325 17720 net.cpp:141] Setting up inception_4a/relu_pool_proj
I0403 14:49:19.466351 17720 net.cpp:148] Top shape: 24 64 14 14 (301056)
I0403 14:49:19.466366 17720 net.cpp:156] Memory required for data: 886912032
I0403 14:49:19.466380 17720 layer_factory.hpp:77] Creating layer inception_4a/output
I0403 14:49:19.466398 17720 net.cpp:91] Creating Layer inception_4a/output
I0403 14:49:19.466413 17720 net.cpp:425] inception_4a/output <- inception_4a/1x1
I0403 14:49:19.466428 17720 net.cpp:425] inception_4a/output <- inception_4a/3x3
I0403 14:49:19.466444 17720 net.cpp:425] inception_4a/output <- inception_4a/5x5
I0403 14:49:19.466460 17720 net.cpp:425] inception_4a/output <- inception_4a/pool_proj
I0403 14:49:19.466480 17720 net.cpp:399] inception_4a/output -> inception_4a/output
I0403 14:49:19.466522 17720 net.cpp:141] Setting up inception_4a/output
I0403 14:49:19.466550 17720 net.cpp:148] Top shape: 24 512 14 14 (2408448)
I0403 14:49:19.466567 17720 net.cpp:156] Memory required for data: 896545824
I0403 14:49:19.466580 17720 layer_factory.hpp:77] Creating layer inception_4a/output_inception_4a/output_0_split
I0403 14:49:19.466598 17720 net.cpp:91] Creating Layer inception_4a/output_inception_4a/output_0_split
I0403 14:49:19.466614 17720 net.cpp:425] inception_4a/output_inception_4a/output_0_split <- inception_4a/output
I0403 14:49:19.466634 17720 net.cpp:399] inception_4a/output_inception_4a/output_0_split -> inception_4a/output_inception_4a/output_0_split_0
I0403 14:49:19.466653 17720 net.cpp:399] inception_4a/output_inception_4a/output_0_split -> inception_4a/output_inception_4a/output_0_split_1
I0403 14:49:19.466673 17720 net.cpp:399] inception_4a/output_inception_4a/output_0_split -> inception_4a/output_inception_4a/output_0_split_2
I0403 14:49:19.466693 17720 net.cpp:399] inception_4a/output_inception_4a/output_0_split -> inception_4a/output_inception_4a/output_0_split_3
I0403 14:49:19.466712 17720 net.cpp:399] inception_4a/output_inception_4a/output_0_split -> inception_4a/output_inception_4a/output_0_split_4
I0403 14:49:19.466802 17720 net.cpp:141] Setting up inception_4a/output_inception_4a/output_0_split
I0403 14:49:19.466825 17720 net.cpp:148] Top shape: 24 512 14 14 (2408448)
I0403 14:49:19.466845 17720 net.cpp:148] Top shape: 24 512 14 14 (2408448)
I0403 14:49:19.466861 17720 net.cpp:148] Top shape: 24 512 14 14 (2408448)
I0403 14:49:19.466876 17720 net.cpp:148] Top shape: 24 512 14 14 (2408448)
I0403 14:49:19.466892 17720 net.cpp:148] Top shape: 24 512 14 14 (2408448)
I0403 14:49:19.466905 17720 net.cpp:156] Memory required for data: 944714784
I0403 14:49:19.466919 17720 layer_factory.hpp:77] Creating layer loss1/ave_pool
I0403 14:49:19.466938 17720 net.cpp:91] Creating Layer loss1/ave_pool
I0403 14:49:19.466953 17720 net.cpp:425] loss1/ave_pool <- inception_4a/output_inception_4a/output_0_split_0
I0403 14:49:19.466972 17720 net.cpp:399] loss1/ave_pool -> loss1/ave_pool
I0403 14:49:19.467192 17720 net.cpp:141] Setting up loss1/ave_pool
I0403 14:49:19.467218 17720 net.cpp:148] Top shape: 24 512 4 4 (196608)
I0403 14:49:19.467233 17720 net.cpp:156] Memory required for data: 945501216
I0403 14:49:19.467248 17720 layer_factory.hpp:77] Creating layer loss1/conv
I0403 14:49:19.467272 17720 net.cpp:91] Creating Layer loss1/conv
I0403 14:49:19.467288 17720 net.cpp:425] loss1/conv <- loss1/ave_pool
I0403 14:49:19.467309 17720 net.cpp:399] loss1/conv -> loss1/conv
I0403 14:49:19.468705 17720 net.cpp:141] Setting up loss1/conv
I0403 14:49:19.468734 17720 net.cpp:148] Top shape: 24 128 4 4 (49152)
I0403 14:49:19.468762 17720 net.cpp:156] Memory required for data: 945697824
I0403 14:49:19.468781 17720 layer_factory.hpp:77] Creating layer loss1/relu_conv
I0403 14:49:19.468802 17720 net.cpp:91] Creating Layer loss1/relu_conv
I0403 14:49:19.468819 17720 net.cpp:425] loss1/relu_conv <- loss1/conv
I0403 14:49:19.468837 17720 net.cpp:386] loss1/relu_conv -> loss1/conv (in-place)
I0403 14:49:19.469128 17720 net.cpp:141] Setting up loss1/relu_conv
I0403 14:49:19.469154 17720 net.cpp:148] Top shape: 24 128 4 4 (49152)
I0403 14:49:19.469171 17720 net.cpp:156] Memory required for data: 945894432
I0403 14:49:19.469185 17720 layer_factory.hpp:77] Creating layer loss1/fc
I0403 14:49:19.469210 17720 net.cpp:91] Creating Layer loss1/fc
I0403 14:49:19.469228 17720 net.cpp:425] loss1/fc <- loss1/conv
I0403 14:49:19.469250 17720 net.cpp:399] loss1/fc -> loss1/fc
I0403 14:49:19.486587 17720 net.cpp:141] Setting up loss1/fc
I0403 14:49:19.486624 17720 net.cpp:148] Top shape: 24 1024 (24576)
I0403 14:49:19.486639 17720 net.cpp:156] Memory required for data: 945992736
I0403 14:49:19.486656 17720 layer_factory.hpp:77] Creating layer loss1/relu_fc
I0403 14:49:19.486675 17720 net.cpp:91] Creating Layer loss1/relu_fc
I0403 14:49:19.486690 17720 net.cpp:425] loss1/relu_fc <- loss1/fc
I0403 14:49:19.486708 17720 net.cpp:386] loss1/relu_fc -> loss1/fc (in-place)
I0403 14:49:19.486888 17720 net.cpp:141] Setting up loss1/relu_fc
I0403 14:49:19.486915 17720 net.cpp:148] Top shape: 24 1024 (24576)
I0403 14:49:19.486930 17720 net.cpp:156] Memory required for data: 946091040
I0403 14:49:19.486945 17720 layer_factory.hpp:77] Creating layer loss1/drop_fc
I0403 14:49:19.486970 17720 net.cpp:91] Creating Layer loss1/drop_fc
I0403 14:49:19.486991 17720 net.cpp:425] loss1/drop_fc <- loss1/fc
I0403 14:49:19.487010 17720 net.cpp:386] loss1/drop_fc -> loss1/fc (in-place)
I0403 14:49:19.487061 17720 net.cpp:141] Setting up loss1/drop_fc
I0403 14:49:19.487082 17720 net.cpp:148] Top shape: 24 1024 (24576)
I0403 14:49:19.487097 17720 net.cpp:156] Memory required for data: 946189344
I0403 14:49:19.487112 17720 layer_factory.hpp:77] Creating layer loss1/classifier_plantvillage
I0403 14:49:19.487128 17720 net.cpp:91] Creating Layer loss1/classifier_plantvillage
I0403 14:49:19.487144 17720 net.cpp:425] loss1/classifier_plantvillage <- loss1/fc
I0403 14:49:19.487164 17720 net.cpp:399] loss1/classifier_plantvillage -> loss1/classifier_plantvillage
I0403 14:49:19.488047 17720 net.cpp:141] Setting up loss1/classifier_plantvillage
I0403 14:49:19.488075 17720 net.cpp:148] Top shape: 24 38 (912)
I0403 14:49:19.488090 17720 net.cpp:156] Memory required for data: 946192992
I0403 14:49:19.488106 17720 layer_factory.hpp:77] Creating layer loss1/classifier_plantvillage_loss1/classifier_plantvillage_0_split
I0403 14:49:19.488126 17720 net.cpp:91] Creating Layer loss1/classifier_plantvillage_loss1/classifier_plantvillage_0_split
I0403 14:49:19.488142 17720 net.cpp:425] loss1/classifier_plantvillage_loss1/classifier_plantvillage_0_split <- loss1/classifier_plantvillage
I0403 14:49:19.488159 17720 net.cpp:399] loss1/classifier_plantvillage_loss1/classifier_plantvillage_0_split -> loss1/classifier_plantvillage_loss1/classifier_plantvillage_0_split_0
I0403 14:49:19.488178 17720 net.cpp:399] loss1/classifier_plantvillage_loss1/classifier_plantvillage_0_split -> loss1/classifier_plantvillage_loss1/classifier_plantvillage_0_split_1
I0403 14:49:19.488198 17720 net.cpp:399] loss1/classifier_plantvillage_loss1/classifier_plantvillage_0_split -> loss1/classifier_plantvillage_loss1/classifier_plantvillage_0_split_2
I0403 14:49:19.488262 17720 net.cpp:141] Setting up loss1/classifier_plantvillage_loss1/classifier_plantvillage_0_split
I0403 14:49:19.488284 17720 net.cpp:148] Top shape: 24 38 (912)
I0403 14:49:19.488301 17720 net.cpp:148] Top shape: 24 38 (912)
I0403 14:49:19.488315 17720 net.cpp:148] Top shape: 24 38 (912)
I0403 14:49:19.488328 17720 net.cpp:156] Memory required for data: 946203936
I0403 14:49:19.488343 17720 layer_factory.hpp:77] Creating layer inception_4b/1x1
I0403 14:49:19.488366 17720 net.cpp:91] Creating Layer inception_4b/1x1
I0403 14:49:19.488396 17720 net.cpp:425] inception_4b/1x1 <- inception_4a/output_inception_4a/output_0_split_1
I0403 14:49:19.488416 17720 net.cpp:399] inception_4b/1x1 -> inception_4b/1x1
I0403 14:49:19.490018 17720 net.cpp:141] Setting up inception_4b/1x1
I0403 14:49:19.490046 17720 net.cpp:148] Top shape: 24 160 14 14 (752640)
I0403 14:49:19.490061 17720 net.cpp:156] Memory required for data: 949214496
I0403 14:49:19.490077 17720 layer_factory.hpp:77] Creating layer inception_4b/relu_1x1
I0403 14:49:19.490097 17720 net.cpp:91] Creating Layer inception_4b/relu_1x1
I0403 14:49:19.490113 17720 net.cpp:425] inception_4b/relu_1x1 <- inception_4b/1x1
I0403 14:49:19.490130 17720 net.cpp:386] inception_4b/relu_1x1 -> inception_4b/1x1 (in-place)
I0403 14:49:19.490300 17720 net.cpp:141] Setting up inception_4b/relu_1x1
I0403 14:49:19.490325 17720 net.cpp:148] Top shape: 24 160 14 14 (752640)
I0403 14:49:19.490339 17720 net.cpp:156] Memory required for data: 952225056
I0403 14:49:19.490353 17720 layer_factory.hpp:77] Creating layer inception_4b/3x3_reduce
I0403 14:49:19.490375 17720 net.cpp:91] Creating Layer inception_4b/3x3_reduce
I0403 14:49:19.490392 17720 net.cpp:425] inception_4b/3x3_reduce <- inception_4a/output_inception_4a/output_0_split_2
I0403 14:49:19.490412 17720 net.cpp:399] inception_4b/3x3_reduce -> inception_4b/3x3_reduce
I0403 14:49:19.491736 17720 net.cpp:141] Setting up inception_4b/3x3_reduce
I0403 14:49:19.491762 17720 net.cpp:148] Top shape: 24 112 14 14 (526848)
I0403 14:49:19.491777 17720 net.cpp:156] Memory required for data: 954332448
I0403 14:49:19.491794 17720 layer_factory.hpp:77] Creating layer inception_4b/relu_3x3_reduce
I0403 14:49:19.491812 17720 net.cpp:91] Creating Layer inception_4b/relu_3x3_reduce
I0403 14:49:19.491827 17720 net.cpp:425] inception_4b/relu_3x3_reduce <- inception_4b/3x3_reduce
I0403 14:49:19.491847 17720 net.cpp:386] inception_4b/relu_3x3_reduce -> inception_4b/3x3_reduce (in-place)
I0403 14:49:19.492121 17720 net.cpp:141] Setting up inception_4b/relu_3x3_reduce
I0403 14:49:19.492147 17720 net.cpp:148] Top shape: 24 112 14 14 (526848)
I0403 14:49:19.492161 17720 net.cpp:156] Memory required for data: 956439840
I0403 14:49:19.492175 17720 layer_factory.hpp:77] Creating layer inception_4b/3x3
I0403 14:49:19.492197 17720 net.cpp:91] Creating Layer inception_4b/3x3
I0403 14:49:19.492214 17720 net.cpp:425] inception_4b/3x3 <- inception_4b/3x3_reduce
I0403 14:49:19.492235 17720 net.cpp:399] inception_4b/3x3 -> inception_4b/3x3
I0403 14:49:19.495128 17720 net.cpp:141] Setting up inception_4b/3x3
I0403 14:49:19.495157 17720 net.cpp:148] Top shape: 24 224 14 14 (1053696)
I0403 14:49:19.495173 17720 net.cpp:156] Memory required for data: 960654624
I0403 14:49:19.495192 17720 layer_factory.hpp:77] Creating layer inception_4b/relu_3x3
I0403 14:49:19.495211 17720 net.cpp:91] Creating Layer inception_4b/relu_3x3
I0403 14:49:19.495229 17720 net.cpp:425] inception_4b/relu_3x3 <- inception_4b/3x3
I0403 14:49:19.495246 17720 net.cpp:386] inception_4b/relu_3x3 -> inception_4b/3x3 (in-place)
I0403 14:49:19.495429 17720 net.cpp:141] Setting up inception_4b/relu_3x3
I0403 14:49:19.495455 17720 net.cpp:148] Top shape: 24 224 14 14 (1053696)
I0403 14:49:19.495471 17720 net.cpp:156] Memory required for data: 964869408
I0403 14:49:19.495484 17720 layer_factory.hpp:77] Creating layer inception_4b/5x5_reduce
I0403 14:49:19.495503 17720 net.cpp:91] Creating Layer inception_4b/5x5_reduce
I0403 14:49:19.495520 17720 net.cpp:425] inception_4b/5x5_reduce <- inception_4a/output_inception_4a/output_0_split_3
I0403 14:49:19.495542 17720 net.cpp:399] inception_4b/5x5_reduce -> inception_4b/5x5_reduce
I0403 14:49:19.496670 17720 net.cpp:141] Setting up inception_4b/5x5_reduce
I0403 14:49:19.496697 17720 net.cpp:148] Top shape: 24 24 14 14 (112896)
I0403 14:49:19.496713 17720 net.cpp:156] Memory required for data: 965320992
I0403 14:49:19.496731 17720 layer_factory.hpp:77] Creating layer inception_4b/relu_5x5_reduce
I0403 14:49:19.496748 17720 net.cpp:91] Creating Layer inception_4b/relu_5x5_reduce
I0403 14:49:19.496778 17720 net.cpp:425] inception_4b/relu_5x5_reduce <- inception_4b/5x5_reduce
I0403 14:49:19.496796 17720 net.cpp:386] inception_4b/relu_5x5_reduce -> inception_4b/5x5_reduce (in-place)
I0403 14:49:19.496973 17720 net.cpp:141] Setting up inception_4b/relu_5x5_reduce
I0403 14:49:19.497000 17720 net.cpp:148] Top shape: 24 24 14 14 (112896)
I0403 14:49:19.497015 17720 net.cpp:156] Memory required for data: 965772576
I0403 14:49:19.497030 17720 layer_factory.hpp:77] Creating layer inception_4b/5x5
I0403 14:49:19.497051 17720 net.cpp:91] Creating Layer inception_4b/5x5
I0403 14:49:19.497068 17720 net.cpp:425] inception_4b/5x5 <- inception_4b/5x5_reduce
I0403 14:49:19.497089 17720 net.cpp:399] inception_4b/5x5 -> inception_4b/5x5
I0403 14:49:19.498275 17720 net.cpp:141] Setting up inception_4b/5x5
I0403 14:49:19.498301 17720 net.cpp:148] Top shape: 24 64 14 14 (301056)
I0403 14:49:19.498316 17720 net.cpp:156] Memory required for data: 966976800
I0403 14:49:19.498333 17720 layer_factory.hpp:77] Creating layer inception_4b/relu_5x5
I0403 14:49:19.498353 17720 net.cpp:91] Creating Layer inception_4b/relu_5x5
I0403 14:49:19.498368 17720 net.cpp:425] inception_4b/relu_5x5 <- inception_4b/5x5
I0403 14:49:19.498385 17720 net.cpp:386] inception_4b/relu_5x5 -> inception_4b/5x5 (in-place)
I0403 14:49:19.498662 17720 net.cpp:141] Setting up inception_4b/relu_5x5
I0403 14:49:19.498687 17720 net.cpp:148] Top shape: 24 64 14 14 (301056)
I0403 14:49:19.498702 17720 net.cpp:156] Memory required for data: 968181024
I0403 14:49:19.498716 17720 layer_factory.hpp:77] Creating layer inception_4b/pool
I0403 14:49:19.498738 17720 net.cpp:91] Creating Layer inception_4b/pool
I0403 14:49:19.498754 17720 net.cpp:425] inception_4b/pool <- inception_4a/output_inception_4a/output_0_split_4
I0403 14:49:19.498772 17720 net.cpp:399] inception_4b/pool -> inception_4b/pool
I0403 14:49:19.498836 17720 net.cpp:141] Setting up inception_4b/pool
I0403 14:49:19.498858 17720 net.cpp:148] Top shape: 24 512 14 14 (2408448)
I0403 14:49:19.498872 17720 net.cpp:156] Memory required for data: 977814816
I0403 14:49:19.498886 17720 layer_factory.hpp:77] Creating layer inception_4b/pool_proj
I0403 14:49:19.498909 17720 net.cpp:91] Creating Layer inception_4b/pool_proj
I0403 14:49:19.498926 17720 net.cpp:425] inception_4b/pool_proj <- inception_4b/pool
I0403 14:49:19.498946 17720 net.cpp:399] inception_4b/pool_proj -> inception_4b/pool_proj
I0403 14:49:19.500160 17720 net.cpp:141] Setting up inception_4b/pool_proj
I0403 14:49:19.500191 17720 net.cpp:148] Top shape: 24 64 14 14 (301056)
I0403 14:49:19.500208 17720 net.cpp:156] Memory required for data: 979019040
I0403 14:49:19.500227 17720 layer_factory.hpp:77] Creating layer inception_4b/relu_pool_proj
I0403 14:49:19.500246 17720 net.cpp:91] Creating Layer inception_4b/relu_pool_proj
I0403 14:49:19.500262 17720 net.cpp:425] inception_4b/relu_pool_proj <- inception_4b/pool_proj
I0403 14:49:19.500282 17720 net.cpp:386] inception_4b/relu_pool_proj -> inception_4b/pool_proj (in-place)
I0403 14:49:19.500474 17720 net.cpp:141] Setting up inception_4b/relu_pool_proj
I0403 14:49:19.500499 17720 net.cpp:148] Top shape: 24 64 14 14 (301056)
I0403 14:49:19.500514 17720 net.cpp:156] Memory required for data: 980223264
I0403 14:49:19.500530 17720 layer_factory.hpp:77] Creating layer inception_4b/output
I0403 14:49:19.500546 17720 net.cpp:91] Creating Layer inception_4b/output
I0403 14:49:19.500561 17720 net.cpp:425] inception_4b/output <- inception_4b/1x1
I0403 14:49:19.500577 17720 net.cpp:425] inception_4b/output <- inception_4b/3x3
I0403 14:49:19.500593 17720 net.cpp:425] inception_4b/output <- inception_4b/5x5
I0403 14:49:19.500609 17720 net.cpp:425] inception_4b/output <- inception_4b/pool_proj
I0403 14:49:19.500628 17720 net.cpp:399] inception_4b/output -> inception_4b/output
I0403 14:49:19.500674 17720 net.cpp:141] Setting up inception_4b/output
I0403 14:49:19.500699 17720 net.cpp:148] Top shape: 24 512 14 14 (2408448)
I0403 14:49:19.500715 17720 net.cpp:156] Memory required for data: 989857056
I0403 14:49:19.500743 17720 layer_factory.hpp:77] Creating layer inception_4b/output_inception_4b/output_0_split
I0403 14:49:19.500761 17720 net.cpp:91] Creating Layer inception_4b/output_inception_4b/output_0_split
I0403 14:49:19.500777 17720 net.cpp:425] inception_4b/output_inception_4b/output_0_split <- inception_4b/output
I0403 14:49:19.500794 17720 net.cpp:399] inception_4b/output_inception_4b/output_0_split -> inception_4b/output_inception_4b/output_0_split_0
I0403 14:49:19.500816 17720 net.cpp:399] inception_4b/output_inception_4b/output_0_split -> inception_4b/output_inception_4b/output_0_split_1
I0403 14:49:19.500838 17720 net.cpp:399] inception_4b/output_inception_4b/output_0_split -> inception_4b/output_inception_4b/output_0_split_2
I0403 14:49:19.500857 17720 net.cpp:399] inception_4b/output_inception_4b/output_0_split -> inception_4b/output_inception_4b/output_0_split_3
I0403 14:49:19.500941 17720 net.cpp:141] Setting up inception_4b/output_inception_4b/output_0_split
I0403 14:49:19.500964 17720 net.cpp:148] Top shape: 24 512 14 14 (2408448)
I0403 14:49:19.500980 17720 net.cpp:148] Top shape: 24 512 14 14 (2408448)
I0403 14:49:19.501000 17720 net.cpp:148] Top shape: 24 512 14 14 (2408448)
I0403 14:49:19.501016 17720 net.cpp:148] Top shape: 24 512 14 14 (2408448)
I0403 14:49:19.501030 17720 net.cpp:156] Memory required for data: 1028392224
I0403 14:49:19.501044 17720 layer_factory.hpp:77] Creating layer inception_4c/1x1
I0403 14:49:19.501066 17720 net.cpp:91] Creating Layer inception_4c/1x1
I0403 14:49:19.501085 17720 net.cpp:425] inception_4c/1x1 <- inception_4b/output_inception_4b/output_0_split_0
I0403 14:49:19.501104 17720 net.cpp:399] inception_4c/1x1 -> inception_4c/1x1
I0403 14:49:19.502542 17720 net.cpp:141] Setting up inception_4c/1x1
I0403 14:49:19.502570 17720 net.cpp:148] Top shape: 24 128 14 14 (602112)
I0403 14:49:19.502586 17720 net.cpp:156] Memory required for data: 1030800672
I0403 14:49:19.502604 17720 layer_factory.hpp:77] Creating layer inception_4c/relu_1x1
I0403 14:49:19.502622 17720 net.cpp:91] Creating Layer inception_4c/relu_1x1
I0403 14:49:19.502638 17720 net.cpp:425] inception_4c/relu_1x1 <- inception_4c/1x1
I0403 14:49:19.502657 17720 net.cpp:386] inception_4c/relu_1x1 -> inception_4c/1x1 (in-place)
I0403 14:49:19.502836 17720 net.cpp:141] Setting up inception_4c/relu_1x1
I0403 14:49:19.502861 17720 net.cpp:148] Top shape: 24 128 14 14 (602112)
I0403 14:49:19.502876 17720 net.cpp:156] Memory required for data: 1033209120
I0403 14:49:19.502890 17720 layer_factory.hpp:77] Creating layer inception_4c/3x3_reduce
I0403 14:49:19.502912 17720 net.cpp:91] Creating Layer inception_4c/3x3_reduce
I0403 14:49:19.502929 17720 net.cpp:425] inception_4c/3x3_reduce <- inception_4b/output_inception_4b/output_0_split_1
I0403 14:49:19.502953 17720 net.cpp:399] inception_4c/3x3_reduce -> inception_4c/3x3_reduce
I0403 14:49:19.504889 17720 net.cpp:141] Setting up inception_4c/3x3_reduce
I0403 14:49:19.504920 17720 net.cpp:148] Top shape: 24 128 14 14 (602112)
I0403 14:49:19.504937 17720 net.cpp:156] Memory required for data: 1035617568
I0403 14:49:19.504956 17720 layer_factory.hpp:77] Creating layer inception_4c/relu_3x3_reduce
I0403 14:49:19.504973 17720 net.cpp:91] Creating Layer inception_4c/relu_3x3_reduce
I0403 14:49:19.504993 17720 net.cpp:425] inception_4c/relu_3x3_reduce <- inception_4c/3x3_reduce
I0403 14:49:19.505012 17720 net.cpp:386] inception_4c/relu_3x3_reduce -> inception_4c/3x3_reduce (in-place)
I0403 14:49:19.505295 17720 net.cpp:141] Setting up inception_4c/relu_3x3_reduce
I0403 14:49:19.505323 17720 net.cpp:148] Top shape: 24 128 14 14 (602112)
I0403 14:49:19.505339 17720 net.cpp:156] Memory required for data: 1038026016
I0403 14:49:19.505353 17720 layer_factory.hpp:77] Creating layer inception_4c/3x3
I0403 14:49:19.505373 17720 net.cpp:91] Creating Layer inception_4c/3x3
I0403 14:49:19.505389 17720 net.cpp:425] inception_4c/3x3 <- inception_4c/3x3_reduce
I0403 14:49:19.505411 17720 net.cpp:399] inception_4c/3x3 -> inception_4c/3x3
I0403 14:49:19.509009 17720 net.cpp:141] Setting up inception_4c/3x3
I0403 14:49:19.509053 17720 net.cpp:148] Top shape: 24 256 14 14 (1204224)
I0403 14:49:19.509070 17720 net.cpp:156] Memory required for data: 1042842912
I0403 14:49:19.509101 17720 layer_factory.hpp:77] Creating layer inception_4c/relu_3x3
I0403 14:49:19.509122 17720 net.cpp:91] Creating Layer inception_4c/relu_3x3
I0403 14:49:19.509138 17720 net.cpp:425] inception_4c/relu_3x3 <- inception_4c/3x3
I0403 14:49:19.509157 17720 net.cpp:386] inception_4c/relu_3x3 -> inception_4c/3x3 (in-place)
I0403 14:49:19.509338 17720 net.cpp:141] Setting up inception_4c/relu_3x3
I0403 14:49:19.509366 17720 net.cpp:148] Top shape: 24 256 14 14 (1204224)
I0403 14:49:19.509380 17720 net.cpp:156] Memory required for data: 1047659808
I0403 14:49:19.509395 17720 layer_factory.hpp:77] Creating layer inception_4c/5x5_reduce
I0403 14:49:19.509418 17720 net.cpp:91] Creating Layer inception_4c/5x5_reduce
I0403 14:49:19.509436 17720 net.cpp:425] inception_4c/5x5_reduce <- inception_4b/output_inception_4b/output_0_split_2
I0403 14:49:19.509455 17720 net.cpp:399] inception_4c/5x5_reduce -> inception_4c/5x5_reduce
I0403 14:49:19.510555 17720 net.cpp:141] Setting up inception_4c/5x5_reduce
I0403 14:49:19.510584 17720 net.cpp:148] Top shape: 24 24 14 14 (112896)
I0403 14:49:19.510601 17720 net.cpp:156] Memory required for data: 1048111392
I0403 14:49:19.510619 17720 layer_factory.hpp:77] Creating layer inception_4c/relu_5x5_reduce
I0403 14:49:19.510638 17720 net.cpp:91] Creating Layer inception_4c/relu_5x5_reduce
I0403 14:49:19.510654 17720 net.cpp:425] inception_4c/relu_5x5_reduce <- inception_4c/5x5_reduce
I0403 14:49:19.510671 17720 net.cpp:386] inception_4c/relu_5x5_reduce -> inception_4c/5x5_reduce (in-place)
I0403 14:49:19.510856 17720 net.cpp:141] Setting up inception_4c/relu_5x5_reduce
I0403 14:49:19.510881 17720 net.cpp:148] Top shape: 24 24 14 14 (112896)
I0403 14:49:19.510895 17720 net.cpp:156] Memory required for data: 1048562976
I0403 14:49:19.510910 17720 layer_factory.hpp:77] Creating layer inception_4c/5x5
I0403 14:49:19.510931 17720 net.cpp:91] Creating Layer inception_4c/5x5
I0403 14:49:19.510949 17720 net.cpp:425] inception_4c/5x5 <- inception_4c/5x5_reduce
I0403 14:49:19.510970 17720 net.cpp:399] inception_4c/5x5 -> inception_4c/5x5
I0403 14:49:19.512212 17720 net.cpp:141] Setting up inception_4c/5x5
I0403 14:49:19.512240 17720 net.cpp:148] Top shape: 24 64 14 14 (301056)
I0403 14:49:19.512264 17720 net.cpp:156] Memory required for data: 1049767200
I0403 14:49:19.512282 17720 layer_factory.hpp:77] Creating layer inception_4c/relu_5x5
I0403 14:49:19.512300 17720 net.cpp:91] Creating Layer inception_4c/relu_5x5
I0403 14:49:19.512316 17720 net.cpp:425] inception_4c/relu_5x5 <- inception_4c/5x5
I0403 14:49:19.512336 17720 net.cpp:386] inception_4c/relu_5x5 -> inception_4c/5x5 (in-place)
I0403 14:49:19.512636 17720 net.cpp:141] Setting up inception_4c/relu_5x5
I0403 14:49:19.512662 17720 net.cpp:148] Top shape: 24 64 14 14 (301056)
I0403 14:49:19.512677 17720 net.cpp:156] Memory required for data: 1050971424
I0403 14:49:19.512692 17720 layer_factory.hpp:77] Creating layer inception_4c/pool
I0403 14:49:19.512709 17720 net.cpp:91] Creating Layer inception_4c/pool
I0403 14:49:19.512725 17720 net.cpp:425] inception_4c/pool <- inception_4b/output_inception_4b/output_0_split_3
I0403 14:49:19.512747 17720 net.cpp:399] inception_4c/pool -> inception_4c/pool
I0403 14:49:19.512811 17720 net.cpp:141] Setting up inception_4c/pool
I0403 14:49:19.512835 17720 net.cpp:148] Top shape: 24 512 14 14 (2408448)
I0403 14:49:19.512848 17720 net.cpp:156] Memory required for data: 1060605216
I0403 14:49:19.512863 17720 layer_factory.hpp:77] Creating layer inception_4c/pool_proj
I0403 14:49:19.512887 17720 net.cpp:91] Creating Layer inception_4c/pool_proj
I0403 14:49:19.512905 17720 net.cpp:425] inception_4c/pool_proj <- inception_4c/pool
I0403 14:49:19.512923 17720 net.cpp:399] inception_4c/pool_proj -> inception_4c/pool_proj
I0403 14:49:19.514158 17720 net.cpp:141] Setting up inception_4c/pool_proj
I0403 14:49:19.514189 17720 net.cpp:148] Top shape: 24 64 14 14 (301056)
I0403 14:49:19.514217 17720 net.cpp:156] Memory required for data: 1061809440
I0403 14:49:19.514236 17720 layer_factory.hpp:77] Creating layer inception_4c/relu_pool_proj
I0403 14:49:19.514264 17720 net.cpp:91] Creating Layer inception_4c/relu_pool_proj
I0403 14:49:19.514281 17720 net.cpp:425] inception_4c/relu_pool_proj <- inception_4c/pool_proj
I0403 14:49:19.514299 17720 net.cpp:386] inception_4c/relu_pool_proj -> inception_4c/pool_proj (in-place)
I0403 14:49:19.514482 17720 net.cpp:141] Setting up inception_4c/relu_pool_proj
I0403 14:49:19.514506 17720 net.cpp:148] Top shape: 24 64 14 14 (301056)
I0403 14:49:19.514521 17720 net.cpp:156] Memory required for data: 1063013664
I0403 14:49:19.514544 17720 layer_factory.hpp:77] Creating layer inception_4c/output
I0403 14:49:19.514560 17720 net.cpp:91] Creating Layer inception_4c/output
I0403 14:49:19.514576 17720 net.cpp:425] inception_4c/output <- inception_4c/1x1
I0403 14:49:19.514592 17720 net.cpp:425] inception_4c/output <- inception_4c/3x3
I0403 14:49:19.514608 17720 net.cpp:425] inception_4c/output <- inception_4c/5x5
I0403 14:49:19.514623 17720 net.cpp:425] inception_4c/output <- inception_4c/pool_proj
I0403 14:49:19.514642 17720 net.cpp:399] inception_4c/output -> inception_4c/output
I0403 14:49:19.514688 17720 net.cpp:141] Setting up inception_4c/output
I0403 14:49:19.514714 17720 net.cpp:148] Top shape: 24 512 14 14 (2408448)
I0403 14:49:19.514729 17720 net.cpp:156] Memory required for data: 1072647456
I0403 14:49:19.514744 17720 layer_factory.hpp:77] Creating layer inception_4c/output_inception_4c/output_0_split
I0403 14:49:19.514760 17720 net.cpp:91] Creating Layer inception_4c/output_inception_4c/output_0_split
I0403 14:49:19.514775 17720 net.cpp:425] inception_4c/output_inception_4c/output_0_split <- inception_4c/output
I0403 14:49:19.514791 17720 net.cpp:399] inception_4c/output_inception_4c/output_0_split -> inception_4c/output_inception_4c/output_0_split_0
I0403 14:49:19.514811 17720 net.cpp:399] inception_4c/output_inception_4c/output_0_split -> inception_4c/output_inception_4c/output_0_split_1
I0403 14:49:19.514833 17720 net.cpp:399] inception_4c/output_inception_4c/output_0_split -> inception_4c/output_inception_4c/output_0_split_2
I0403 14:49:19.514853 17720 net.cpp:399] inception_4c/output_inception_4c/output_0_split -> inception_4c/output_inception_4c/output_0_split_3
I0403 14:49:19.514943 17720 net.cpp:141] Setting up inception_4c/output_inception_4c/output_0_split
I0403 14:49:19.514966 17720 net.cpp:148] Top shape: 24 512 14 14 (2408448)
I0403 14:49:19.514981 17720 net.cpp:148] Top shape: 24 512 14 14 (2408448)
I0403 14:49:19.515002 17720 net.cpp:148] Top shape: 24 512 14 14 (2408448)
I0403 14:49:19.515018 17720 net.cpp:148] Top shape: 24 512 14 14 (2408448)
I0403 14:49:19.515033 17720 net.cpp:156] Memory required for data: 1111182624
I0403 14:49:19.515046 17720 layer_factory.hpp:77] Creating layer inception_4d/1x1
I0403 14:49:19.515069 17720 net.cpp:91] Creating Layer inception_4d/1x1
I0403 14:49:19.515085 17720 net.cpp:425] inception_4d/1x1 <- inception_4c/output_inception_4c/output_0_split_0
I0403 14:49:19.515106 17720 net.cpp:399] inception_4d/1x1 -> inception_4d/1x1
I0403 14:49:19.516499 17720 net.cpp:141] Setting up inception_4d/1x1
I0403 14:49:19.516526 17720 net.cpp:148] Top shape: 24 112 14 14 (526848)
I0403 14:49:19.516541 17720 net.cpp:156] Memory required for data: 1113290016
I0403 14:49:19.516559 17720 layer_factory.hpp:77] Creating layer inception_4d/relu_1x1
I0403 14:49:19.516580 17720 net.cpp:91] Creating Layer inception_4d/relu_1x1
I0403 14:49:19.516597 17720 net.cpp:425] inception_4d/relu_1x1 <- inception_4d/1x1
I0403 14:49:19.516614 17720 net.cpp:386] inception_4d/relu_1x1 -> inception_4d/1x1 (in-place)
I0403 14:49:19.516798 17720 net.cpp:141] Setting up inception_4d/relu_1x1
I0403 14:49:19.516824 17720 net.cpp:148] Top shape: 24 112 14 14 (526848)
I0403 14:49:19.516840 17720 net.cpp:156] Memory required for data: 1115397408
I0403 14:49:19.516855 17720 layer_factory.hpp:77] Creating layer inception_4d/3x3_reduce
I0403 14:49:19.516891 17720 net.cpp:91] Creating Layer inception_4d/3x3_reduce
I0403 14:49:19.516909 17720 net.cpp:425] inception_4d/3x3_reduce <- inception_4c/output_inception_4c/output_0_split_1
I0403 14:49:19.516928 17720 net.cpp:399] inception_4d/3x3_reduce -> inception_4d/3x3_reduce
I0403 14:49:19.518468 17720 net.cpp:141] Setting up inception_4d/3x3_reduce
I0403 14:49:19.518496 17720 net.cpp:148] Top shape: 24 144 14 14 (677376)
I0403 14:49:19.518524 17720 net.cpp:156] Memory required for data: 1118106912
I0403 14:49:19.518543 17720 layer_factory.hpp:77] Creating layer inception_4d/relu_3x3_reduce
I0403 14:49:19.518563 17720 net.cpp:91] Creating Layer inception_4d/relu_3x3_reduce
I0403 14:49:19.518579 17720 net.cpp:425] inception_4d/relu_3x3_reduce <- inception_4d/3x3_reduce
I0403 14:49:19.518597 17720 net.cpp:386] inception_4d/relu_3x3_reduce -> inception_4d/3x3_reduce (in-place)
I0403 14:49:19.518894 17720 net.cpp:141] Setting up inception_4d/relu_3x3_reduce
I0403 14:49:19.518918 17720 net.cpp:148] Top shape: 24 144 14 14 (677376)
I0403 14:49:19.518934 17720 net.cpp:156] Memory required for data: 1120816416
I0403 14:49:19.518947 17720 layer_factory.hpp:77] Creating layer inception_4d/3x3
I0403 14:49:19.518970 17720 net.cpp:91] Creating Layer inception_4d/3x3
I0403 14:49:19.518996 17720 net.cpp:425] inception_4d/3x3 <- inception_4d/3x3_reduce
I0403 14:49:19.519019 17720 net.cpp:399] inception_4d/3x3 -> inception_4d/3x3
I0403 14:49:19.523185 17720 net.cpp:141] Setting up inception_4d/3x3
I0403 14:49:19.523212 17720 net.cpp:148] Top shape: 24 288 14 14 (1354752)
I0403 14:49:19.523227 17720 net.cpp:156] Memory required for data: 1126235424
I0403 14:49:19.523247 17720 layer_factory.hpp:77] Creating layer inception_4d/relu_3x3
I0403 14:49:19.523267 17720 net.cpp:91] Creating Layer inception_4d/relu_3x3
I0403 14:49:19.523283 17720 net.cpp:425] inception_4d/relu_3x3 <- inception_4d/3x3
I0403 14:49:19.523298 17720 net.cpp:386] inception_4d/relu_3x3 -> inception_4d/3x3 (in-place)
I0403 14:49:19.523478 17720 net.cpp:141] Setting up inception_4d/relu_3x3
I0403 14:49:19.523504 17720 net.cpp:148] Top shape: 24 288 14 14 (1354752)
I0403 14:49:19.523519 17720 net.cpp:156] Memory required for data: 1131654432
I0403 14:49:19.523533 17720 layer_factory.hpp:77] Creating layer inception_4d/5x5_reduce
I0403 14:49:19.523553 17720 net.cpp:91] Creating Layer inception_4d/5x5_reduce
I0403 14:49:19.523571 17720 net.cpp:425] inception_4d/5x5_reduce <- inception_4c/output_inception_4c/output_0_split_2
I0403 14:49:19.523588 17720 net.cpp:399] inception_4d/5x5_reduce -> inception_4d/5x5_reduce
I0403 14:49:19.524703 17720 net.cpp:141] Setting up inception_4d/5x5_reduce
I0403 14:49:19.524730 17720 net.cpp:148] Top shape: 24 32 14 14 (150528)
I0403 14:49:19.524745 17720 net.cpp:156] Memory required for data: 1132256544
I0403 14:49:19.524762 17720 layer_factory.hpp:77] Creating layer inception_4d/relu_5x5_reduce
I0403 14:49:19.524781 17720 net.cpp:91] Creating Layer inception_4d/relu_5x5_reduce
I0403 14:49:19.524798 17720 net.cpp:425] inception_4d/relu_5x5_reduce <- inception_4d/5x5_reduce
I0403 14:49:19.524816 17720 net.cpp:386] inception_4d/relu_5x5_reduce -> inception_4d/5x5_reduce (in-place)
I0403 14:49:19.524996 17720 net.cpp:141] Setting up inception_4d/relu_5x5_reduce
I0403 14:49:19.525024 17720 net.cpp:148] Top shape: 24 32 14 14 (150528)
I0403 14:49:19.525040 17720 net.cpp:156] Memory required for data: 1132858656
I0403 14:49:19.525054 17720 layer_factory.hpp:77] Creating layer inception_4d/5x5
I0403 14:49:19.525075 17720 net.cpp:91] Creating Layer inception_4d/5x5
I0403 14:49:19.525092 17720 net.cpp:425] inception_4d/5x5 <- inception_4d/5x5_reduce
I0403 14:49:19.525110 17720 net.cpp:399] inception_4d/5x5 -> inception_4d/5x5
I0403 14:49:19.526549 17720 net.cpp:141] Setting up inception_4d/5x5
I0403 14:49:19.526576 17720 net.cpp:148] Top shape: 24 64 14 14 (301056)
I0403 14:49:19.526590 17720 net.cpp:156] Memory required for data: 1134062880
I0403 14:49:19.526608 17720 layer_factory.hpp:77] Creating layer inception_4d/relu_5x5
I0403 14:49:19.526640 17720 net.cpp:91] Creating Layer inception_4d/relu_5x5
I0403 14:49:19.526657 17720 net.cpp:425] inception_4d/relu_5x5 <- inception_4d/5x5
I0403 14:49:19.526676 17720 net.cpp:386] inception_4d/relu_5x5 -> inception_4d/5x5 (in-place)
I0403 14:49:19.526968 17720 net.cpp:141] Setting up inception_4d/relu_5x5
I0403 14:49:19.526998 17720 net.cpp:148] Top shape: 24 64 14 14 (301056)
I0403 14:49:19.527012 17720 net.cpp:156] Memory required for data: 1135267104
I0403 14:49:19.527026 17720 layer_factory.hpp:77] Creating layer inception_4d/pool
I0403 14:49:19.527043 17720 net.cpp:91] Creating Layer inception_4d/pool
I0403 14:49:19.527058 17720 net.cpp:425] inception_4d/pool <- inception_4c/output_inception_4c/output_0_split_3
I0403 14:49:19.527078 17720 net.cpp:399] inception_4d/pool -> inception_4d/pool
I0403 14:49:19.527143 17720 net.cpp:141] Setting up inception_4d/pool
I0403 14:49:19.527166 17720 net.cpp:148] Top shape: 24 512 14 14 (2408448)
I0403 14:49:19.527179 17720 net.cpp:156] Memory required for data: 1144900896
I0403 14:49:19.527194 17720 layer_factory.hpp:77] Creating layer inception_4d/pool_proj
I0403 14:49:19.527216 17720 net.cpp:91] Creating Layer inception_4d/pool_proj
I0403 14:49:19.527233 17720 net.cpp:425] inception_4d/pool_proj <- inception_4d/pool
I0403 14:49:19.527252 17720 net.cpp:399] inception_4d/pool_proj -> inception_4d/pool_proj
I0403 14:49:19.529062 17720 net.cpp:141] Setting up inception_4d/pool_proj
I0403 14:49:19.529089 17720 net.cpp:148] Top shape: 24 64 14 14 (301056)
I0403 14:49:19.529105 17720 net.cpp:156] Memory required for data: 1146105120
I0403 14:49:19.529122 17720 layer_factory.hpp:77] Creating layer inception_4d/relu_pool_proj
I0403 14:49:19.529142 17720 net.cpp:91] Creating Layer inception_4d/relu_pool_proj
I0403 14:49:19.529160 17720 net.cpp:425] inception_4d/relu_pool_proj <- inception_4d/pool_proj
I0403 14:49:19.529175 17720 net.cpp:386] inception_4d/relu_pool_proj -> inception_4d/pool_proj (in-place)
I0403 14:49:19.529356 17720 net.cpp:141] Setting up inception_4d/relu_pool_proj
I0403 14:49:19.529383 17720 net.cpp:148] Top shape: 24 64 14 14 (301056)
I0403 14:49:19.529398 17720 net.cpp:156] Memory required for data: 1147309344
I0403 14:49:19.529412 17720 layer_factory.hpp:77] Creating layer inception_4d/output
I0403 14:49:19.529429 17720 net.cpp:91] Creating Layer inception_4d/output
I0403 14:49:19.529443 17720 net.cpp:425] inception_4d/output <- inception_4d/1x1
I0403 14:49:19.529459 17720 net.cpp:425] inception_4d/output <- inception_4d/3x3
I0403 14:49:19.529474 17720 net.cpp:425] inception_4d/output <- inception_4d/5x5
I0403 14:49:19.529490 17720 net.cpp:425] inception_4d/output <- inception_4d/pool_proj
I0403 14:49:19.529508 17720 net.cpp:399] inception_4d/output -> inception_4d/output
I0403 14:49:19.529554 17720 net.cpp:141] Setting up inception_4d/output
I0403 14:49:19.529577 17720 net.cpp:148] Top shape: 24 528 14 14 (2483712)
I0403 14:49:19.529590 17720 net.cpp:156] Memory required for data: 1157244192
I0403 14:49:19.529604 17720 layer_factory.hpp:77] Creating layer inception_4d/output_inception_4d/output_0_split
I0403 14:49:19.529623 17720 net.cpp:91] Creating Layer inception_4d/output_inception_4d/output_0_split
I0403 14:49:19.529639 17720 net.cpp:425] inception_4d/output_inception_4d/output_0_split <- inception_4d/output
I0403 14:49:19.529656 17720 net.cpp:399] inception_4d/output_inception_4d/output_0_split -> inception_4d/output_inception_4d/output_0_split_0
I0403 14:49:19.529676 17720 net.cpp:399] inception_4d/output_inception_4d/output_0_split -> inception_4d/output_inception_4d/output_0_split_1
I0403 14:49:19.529702 17720 net.cpp:399] inception_4d/output_inception_4d/output_0_split -> inception_4d/output_inception_4d/output_0_split_2
I0403 14:49:19.529722 17720 net.cpp:399] inception_4d/output_inception_4d/output_0_split -> inception_4d/output_inception_4d/output_0_split_3
I0403 14:49:19.529741 17720 net.cpp:399] inception_4d/output_inception_4d/output_0_split -> inception_4d/output_inception_4d/output_0_split_4
I0403 14:49:19.529839 17720 net.cpp:141] Setting up inception_4d/output_inception_4d/output_0_split
I0403 14:49:19.529873 17720 net.cpp:148] Top shape: 24 528 14 14 (2483712)
I0403 14:49:19.529891 17720 net.cpp:148] Top shape: 24 528 14 14 (2483712)
I0403 14:49:19.529906 17720 net.cpp:148] Top shape: 24 528 14 14 (2483712)
I0403 14:49:19.529920 17720 net.cpp:148] Top shape: 24 528 14 14 (2483712)
I0403 14:49:19.529935 17720 net.cpp:148] Top shape: 24 528 14 14 (2483712)
I0403 14:49:19.529948 17720 net.cpp:156] Memory required for data: 1206918432
I0403 14:49:19.529963 17720 layer_factory.hpp:77] Creating layer loss2/ave_pool
I0403 14:49:19.529983 17720 net.cpp:91] Creating Layer loss2/ave_pool
I0403 14:49:19.530002 17720 net.cpp:425] loss2/ave_pool <- inception_4d/output_inception_4d/output_0_split_0
I0403 14:49:19.530020 17720 net.cpp:399] loss2/ave_pool -> loss2/ave_pool
I0403 14:49:19.530325 17720 net.cpp:141] Setting up loss2/ave_pool
I0403 14:49:19.530351 17720 net.cpp:148] Top shape: 24 528 4 4 (202752)
I0403 14:49:19.530366 17720 net.cpp:156] Memory required for data: 1207729440
I0403 14:49:19.530380 17720 layer_factory.hpp:77] Creating layer loss2/conv
I0403 14:49:19.530402 17720 net.cpp:91] Creating Layer loss2/conv
I0403 14:49:19.530419 17720 net.cpp:425] loss2/conv <- loss2/ave_pool
I0403 14:49:19.530439 17720 net.cpp:399] loss2/conv -> loss2/conv
I0403 14:49:19.532315 17720 net.cpp:141] Setting up loss2/conv
I0403 14:49:19.532342 17720 net.cpp:148] Top shape: 24 128 4 4 (49152)
I0403 14:49:19.532358 17720 net.cpp:156] Memory required for data: 1207926048
I0403 14:49:19.532377 17720 layer_factory.hpp:77] Creating layer loss2/relu_conv
I0403 14:49:19.532394 17720 net.cpp:91] Creating Layer loss2/relu_conv
I0403 14:49:19.532410 17720 net.cpp:425] loss2/relu_conv <- loss2/conv
I0403 14:49:19.532429 17720 net.cpp:386] loss2/relu_conv -> loss2/conv (in-place)
I0403 14:49:19.532707 17720 net.cpp:141] Setting up loss2/relu_conv
I0403 14:49:19.532735 17720 net.cpp:148] Top shape: 24 128 4 4 (49152)
I0403 14:49:19.532750 17720 net.cpp:156] Memory required for data: 1208122656
I0403 14:49:19.532765 17720 layer_factory.hpp:77] Creating layer loss2/fc
I0403 14:49:19.532784 17720 net.cpp:91] Creating Layer loss2/fc
I0403 14:49:19.532799 17720 net.cpp:425] loss2/fc <- loss2/conv
I0403 14:49:19.532820 17720 net.cpp:399] loss2/fc -> loss2/fc
I0403 14:49:19.550096 17720 net.cpp:141] Setting up loss2/fc
I0403 14:49:19.550128 17720 net.cpp:148] Top shape: 24 1024 (24576)
I0403 14:49:19.550143 17720 net.cpp:156] Memory required for data: 1208220960
I0403 14:49:19.550161 17720 layer_factory.hpp:77] Creating layer loss2/relu_fc
I0403 14:49:19.550181 17720 net.cpp:91] Creating Layer loss2/relu_fc
I0403 14:49:19.550199 17720 net.cpp:425] loss2/relu_fc <- loss2/fc
I0403 14:49:19.550216 17720 net.cpp:386] loss2/relu_fc -> loss2/fc (in-place)
I0403 14:49:19.550509 17720 net.cpp:141] Setting up loss2/relu_fc
I0403 14:49:19.550534 17720 net.cpp:148] Top shape: 24 1024 (24576)
I0403 14:49:19.550549 17720 net.cpp:156] Memory required for data: 1208319264
I0403 14:49:19.550564 17720 layer_factory.hpp:77] Creating layer loss2/drop_fc
I0403 14:49:19.550583 17720 net.cpp:91] Creating Layer loss2/drop_fc
I0403 14:49:19.550601 17720 net.cpp:425] loss2/drop_fc <- loss2/fc
I0403 14:49:19.550616 17720 net.cpp:386] loss2/drop_fc -> loss2/fc (in-place)
I0403 14:49:19.550667 17720 net.cpp:141] Setting up loss2/drop_fc
I0403 14:49:19.550688 17720 net.cpp:148] Top shape: 24 1024 (24576)
I0403 14:49:19.550703 17720 net.cpp:156] Memory required for data: 1208417568
I0403 14:49:19.550716 17720 layer_factory.hpp:77] Creating layer loss2/classifier_plantvillage
I0403 14:49:19.550736 17720 net.cpp:91] Creating Layer loss2/classifier_plantvillage
I0403 14:49:19.550753 17720 net.cpp:425] loss2/classifier_plantvillage <- loss2/fc
I0403 14:49:19.550771 17720 net.cpp:399] loss2/classifier_plantvillage -> loss2/classifier_plantvillage
I0403 14:49:19.551169 17720 net.cpp:141] Setting up loss2/classifier_plantvillage
I0403 14:49:19.551193 17720 net.cpp:148] Top shape: 24 38 (912)
I0403 14:49:19.551223 17720 net.cpp:156] Memory required for data: 1208421216
I0403 14:49:19.551244 17720 layer_factory.hpp:77] Creating layer loss2/classifier_plantvillage_loss2/classifier_plantvillage_0_split
I0403 14:49:19.551261 17720 net.cpp:91] Creating Layer loss2/classifier_plantvillage_loss2/classifier_plantvillage_0_split
I0403 14:49:19.551275 17720 net.cpp:425] loss2/classifier_plantvillage_loss2/classifier_plantvillage_0_split <- loss2/classifier_plantvillage
I0403 14:49:19.551295 17720 net.cpp:399] loss2/classifier_plantvillage_loss2/classifier_plantvillage_0_split -> loss2/classifier_plantvillage_loss2/classifier_plantvillage_0_split_0
I0403 14:49:19.551316 17720 net.cpp:399] loss2/classifier_plantvillage_loss2/classifier_plantvillage_0_split -> loss2/classifier_plantvillage_loss2/classifier_plantvillage_0_split_1
I0403 14:49:19.551336 17720 net.cpp:399] loss2/classifier_plantvillage_loss2/classifier_plantvillage_0_split -> loss2/classifier_plantvillage_loss2/classifier_plantvillage_0_split_2
I0403 14:49:19.551409 17720 net.cpp:141] Setting up loss2/classifier_plantvillage_loss2/classifier_plantvillage_0_split
I0403 14:49:19.551437 17720 net.cpp:148] Top shape: 24 38 (912)
I0403 14:49:19.551455 17720 net.cpp:148] Top shape: 24 38 (912)
I0403 14:49:19.551470 17720 net.cpp:148] Top shape: 24 38 (912)
I0403 14:49:19.551482 17720 net.cpp:156] Memory required for data: 1208432160
I0403 14:49:19.551496 17720 layer_factory.hpp:77] Creating layer inception_4e/1x1
I0403 14:49:19.551515 17720 net.cpp:91] Creating Layer inception_4e/1x1
I0403 14:49:19.551532 17720 net.cpp:425] inception_4e/1x1 <- inception_4d/output_inception_4d/output_0_split_1
I0403 14:49:19.551548 17720 net.cpp:399] inception_4e/1x1 -> inception_4e/1x1
I0403 14:49:19.553444 17720 net.cpp:141] Setting up inception_4e/1x1
I0403 14:49:19.553472 17720 net.cpp:148] Top shape: 24 256 14 14 (1204224)
I0403 14:49:19.553488 17720 net.cpp:156] Memory required for data: 1213249056
I0403 14:49:19.553506 17720 layer_factory.hpp:77] Creating layer inception_4e/relu_1x1
I0403 14:49:19.553524 17720 net.cpp:91] Creating Layer inception_4e/relu_1x1
I0403 14:49:19.553539 17720 net.cpp:425] inception_4e/relu_1x1 <- inception_4e/1x1
I0403 14:49:19.553560 17720 net.cpp:386] inception_4e/relu_1x1 -> inception_4e/1x1 (in-place)
I0403 14:49:19.553855 17720 net.cpp:141] Setting up inception_4e/relu_1x1
I0403 14:49:19.553881 17720 net.cpp:148] Top shape: 24 256 14 14 (1204224)
I0403 14:49:19.553896 17720 net.cpp:156] Memory required for data: 1218065952
I0403 14:49:19.553910 17720 layer_factory.hpp:77] Creating layer inception_4e/3x3_reduce
I0403 14:49:19.553932 17720 net.cpp:91] Creating Layer inception_4e/3x3_reduce
I0403 14:49:19.553951 17720 net.cpp:425] inception_4e/3x3_reduce <- inception_4d/output_inception_4d/output_0_split_2
I0403 14:49:19.553972 17720 net.cpp:399] inception_4e/3x3_reduce -> inception_4e/3x3_reduce
I0403 14:49:19.556098 17720 net.cpp:141] Setting up inception_4e/3x3_reduce
I0403 14:49:19.556130 17720 net.cpp:148] Top shape: 24 160 14 14 (752640)
I0403 14:49:19.556146 17720 net.cpp:156] Memory required for data: 1221076512
I0403 14:49:19.556164 17720 layer_factory.hpp:77] Creating layer inception_4e/relu_3x3_reduce
I0403 14:49:19.556182 17720 net.cpp:91] Creating Layer inception_4e/relu_3x3_reduce
I0403 14:49:19.556198 17720 net.cpp:425] inception_4e/relu_3x3_reduce <- inception_4e/3x3_reduce
I0403 14:49:19.556218 17720 net.cpp:386] inception_4e/relu_3x3_reduce -> inception_4e/3x3_reduce (in-place)
I0403 14:49:19.556403 17720 net.cpp:141] Setting up inception_4e/relu_3x3_reduce
I0403 14:49:19.556428 17720 net.cpp:148] Top shape: 24 160 14 14 (752640)
I0403 14:49:19.556443 17720 net.cpp:156] Memory required for data: 1224087072
I0403 14:49:19.556457 17720 layer_factory.hpp:77] Creating layer inception_4e/3x3
I0403 14:49:19.556483 17720 net.cpp:91] Creating Layer inception_4e/3x3
I0403 14:49:19.556500 17720 net.cpp:425] inception_4e/3x3 <- inception_4e/3x3_reduce
I0403 14:49:19.556522 17720 net.cpp:399] inception_4e/3x3 -> inception_4e/3x3
I0403 14:49:19.561671 17720 net.cpp:141] Setting up inception_4e/3x3
I0403 14:49:19.561712 17720 net.cpp:148] Top shape: 24 320 14 14 (1505280)
I0403 14:49:19.561728 17720 net.cpp:156] Memory required for data: 1230108192
I0403 14:49:19.561746 17720 layer_factory.hpp:77] Creating layer inception_4e/relu_3x3
I0403 14:49:19.561764 17720 net.cpp:91] Creating Layer inception_4e/relu_3x3
I0403 14:49:19.561781 17720 net.cpp:425] inception_4e/relu_3x3 <- inception_4e/3x3
I0403 14:49:19.561801 17720 net.cpp:386] inception_4e/relu_3x3 -> inception_4e/3x3 (in-place)
I0403 14:49:19.562110 17720 net.cpp:141] Setting up inception_4e/relu_3x3
I0403 14:49:19.562136 17720 net.cpp:148] Top shape: 24 320 14 14 (1505280)
I0403 14:49:19.562151 17720 net.cpp:156] Memory required for data: 1236129312
I0403 14:49:19.562166 17720 layer_factory.hpp:77] Creating layer inception_4e/5x5_reduce
I0403 14:49:19.562191 17720 net.cpp:91] Creating Layer inception_4e/5x5_reduce
I0403 14:49:19.562209 17720 net.cpp:425] inception_4e/5x5_reduce <- inception_4d/output_inception_4d/output_0_split_3
I0403 14:49:19.562232 17720 net.cpp:399] inception_4e/5x5_reduce -> inception_4e/5x5_reduce
I0403 14:49:19.563351 17720 net.cpp:141] Setting up inception_4e/5x5_reduce
I0403 14:49:19.563380 17720 net.cpp:148] Top shape: 24 32 14 14 (150528)
I0403 14:49:19.563395 17720 net.cpp:156] Memory required for data: 1236731424
I0403 14:49:19.563413 17720 layer_factory.hpp:77] Creating layer inception_4e/relu_5x5_reduce
I0403 14:49:19.563431 17720 net.cpp:91] Creating Layer inception_4e/relu_5x5_reduce
I0403 14:49:19.563446 17720 net.cpp:425] inception_4e/relu_5x5_reduce <- inception_4e/5x5_reduce
I0403 14:49:19.563465 17720 net.cpp:386] inception_4e/relu_5x5_reduce -> inception_4e/5x5_reduce (in-place)
I0403 14:49:19.563763 17720 net.cpp:141] Setting up inception_4e/relu_5x5_reduce
I0403 14:49:19.563789 17720 net.cpp:148] Top shape: 24 32 14 14 (150528)
I0403 14:49:19.563804 17720 net.cpp:156] Memory required for data: 1237333536
I0403 14:49:19.563819 17720 layer_factory.hpp:77] Creating layer inception_4e/5x5
I0403 14:49:19.563858 17720 net.cpp:91] Creating Layer inception_4e/5x5
I0403 14:49:19.563876 17720 net.cpp:425] inception_4e/5x5 <- inception_4e/5x5_reduce
I0403 14:49:19.563896 17720 net.cpp:399] inception_4e/5x5 -> inception_4e/5x5
I0403 14:49:19.566062 17720 net.cpp:141] Setting up inception_4e/5x5
I0403 14:49:19.566092 17720 net.cpp:148] Top shape: 24 128 14 14 (602112)
I0403 14:49:19.566109 17720 net.cpp:156] Memory required for data: 1239741984
I0403 14:49:19.566129 17720 layer_factory.hpp:77] Creating layer inception_4e/relu_5x5
I0403 14:49:19.566148 17720 net.cpp:91] Creating Layer inception_4e/relu_5x5
I0403 14:49:19.566164 17720 net.cpp:425] inception_4e/relu_5x5 <- inception_4e/5x5
I0403 14:49:19.566181 17720 net.cpp:386] inception_4e/relu_5x5 -> inception_4e/5x5 (in-place)
I0403 14:49:19.566393 17720 net.cpp:141] Setting up inception_4e/relu_5x5
I0403 14:49:19.566422 17720 net.cpp:148] Top shape: 24 128 14 14 (602112)
I0403 14:49:19.566438 17720 net.cpp:156] Memory required for data: 1242150432
I0403 14:49:19.566453 17720 layer_factory.hpp:77] Creating layer inception_4e/pool
I0403 14:49:19.566471 17720 net.cpp:91] Creating Layer inception_4e/pool
I0403 14:49:19.566488 17720 net.cpp:425] inception_4e/pool <- inception_4d/output_inception_4d/output_0_split_4
I0403 14:49:19.566507 17720 net.cpp:399] inception_4e/pool -> inception_4e/pool
I0403 14:49:19.566577 17720 net.cpp:141] Setting up inception_4e/pool
I0403 14:49:19.566603 17720 net.cpp:148] Top shape: 24 528 14 14 (2483712)
I0403 14:49:19.566619 17720 net.cpp:156] Memory required for data: 1252085280
I0403 14:49:19.566633 17720 layer_factory.hpp:77] Creating layer inception_4e/pool_proj
I0403 14:49:19.566655 17720 net.cpp:91] Creating Layer inception_4e/pool_proj
I0403 14:49:19.566673 17720 net.cpp:425] inception_4e/pool_proj <- inception_4e/pool
I0403 14:49:19.566690 17720 net.cpp:399] inception_4e/pool_proj -> inception_4e/pool_proj
I0403 14:49:19.568219 17720 net.cpp:141] Setting up inception_4e/pool_proj
I0403 14:49:19.568259 17720 net.cpp:148] Top shape: 24 128 14 14 (602112)
I0403 14:49:19.568275 17720 net.cpp:156] Memory required for data: 1254493728
I0403 14:49:19.568306 17720 layer_factory.hpp:77] Creating layer inception_4e/relu_pool_proj
I0403 14:49:19.568383 17720 net.cpp:91] Creating Layer inception_4e/relu_pool_proj
I0403 14:49:19.568400 17720 net.cpp:425] inception_4e/relu_pool_proj <- inception_4e/pool_proj
I0403 14:49:19.568418 17720 net.cpp:386] inception_4e/relu_pool_proj -> inception_4e/pool_proj (in-place)
I0403 14:49:19.568732 17720 net.cpp:141] Setting up inception_4e/relu_pool_proj
I0403 14:49:19.568758 17720 net.cpp:148] Top shape: 24 128 14 14 (602112)
I0403 14:49:19.568773 17720 net.cpp:156] Memory required for data: 1256902176
I0403 14:49:19.568789 17720 layer_factory.hpp:77] Creating layer inception_4e/output
I0403 14:49:19.568809 17720 net.cpp:91] Creating Layer inception_4e/output
I0403 14:49:19.568825 17720 net.cpp:425] inception_4e/output <- inception_4e/1x1
I0403 14:49:19.568842 17720 net.cpp:425] inception_4e/output <- inception_4e/3x3
I0403 14:49:19.568857 17720 net.cpp:425] inception_4e/output <- inception_4e/5x5
I0403 14:49:19.568873 17720 net.cpp:425] inception_4e/output <- inception_4e/pool_proj
I0403 14:49:19.568889 17720 net.cpp:399] inception_4e/output -> inception_4e/output
I0403 14:49:19.568940 17720 net.cpp:141] Setting up inception_4e/output
I0403 14:49:19.568964 17720 net.cpp:148] Top shape: 24 832 14 14 (3913728)
I0403 14:49:19.568979 17720 net.cpp:156] Memory required for data: 1272557088
I0403 14:49:19.569005 17720 layer_factory.hpp:77] Creating layer pool4/3x3_s2
I0403 14:49:19.569025 17720 net.cpp:91] Creating Layer pool4/3x3_s2
I0403 14:49:19.569041 17720 net.cpp:425] pool4/3x3_s2 <- inception_4e/output
I0403 14:49:19.569062 17720 net.cpp:399] pool4/3x3_s2 -> pool4/3x3_s2
I0403 14:49:19.569130 17720 net.cpp:141] Setting up pool4/3x3_s2
I0403 14:49:19.569154 17720 net.cpp:148] Top shape: 24 832 7 7 (978432)
I0403 14:49:19.569169 17720 net.cpp:156] Memory required for data: 1276470816
I0403 14:49:19.569182 17720 layer_factory.hpp:77] Creating layer pool4/3x3_s2_pool4/3x3_s2_0_split
I0403 14:49:19.569200 17720 net.cpp:91] Creating Layer pool4/3x3_s2_pool4/3x3_s2_0_split
I0403 14:49:19.569214 17720 net.cpp:425] pool4/3x3_s2_pool4/3x3_s2_0_split <- pool4/3x3_s2
I0403 14:49:19.569234 17720 net.cpp:399] pool4/3x3_s2_pool4/3x3_s2_0_split -> pool4/3x3_s2_pool4/3x3_s2_0_split_0
I0403 14:49:19.569255 17720 net.cpp:399] pool4/3x3_s2_pool4/3x3_s2_0_split -> pool4/3x3_s2_pool4/3x3_s2_0_split_1
I0403 14:49:19.569275 17720 net.cpp:399] pool4/3x3_s2_pool4/3x3_s2_0_split -> pool4/3x3_s2_pool4/3x3_s2_0_split_2
I0403 14:49:19.569293 17720 net.cpp:399] pool4/3x3_s2_pool4/3x3_s2_0_split -> pool4/3x3_s2_pool4/3x3_s2_0_split_3
I0403 14:49:19.569383 17720 net.cpp:141] Setting up pool4/3x3_s2_pool4/3x3_s2_0_split
I0403 14:49:19.569407 17720 net.cpp:148] Top shape: 24 832 7 7 (978432)
I0403 14:49:19.569423 17720 net.cpp:148] Top shape: 24 832 7 7 (978432)
I0403 14:49:19.569439 17720 net.cpp:148] Top shape: 24 832 7 7 (978432)
I0403 14:49:19.569454 17720 net.cpp:148] Top shape: 24 832 7 7 (978432)
I0403 14:49:19.569479 17720 net.cpp:156] Memory required for data: 1292125728
I0403 14:49:19.569494 17720 layer_factory.hpp:77] Creating layer inception_5a/1x1
I0403 14:49:19.569517 17720 net.cpp:91] Creating Layer inception_5a/1x1
I0403 14:49:19.569535 17720 net.cpp:425] inception_5a/1x1 <- pool4/3x3_s2_pool4/3x3_s2_0_split_0
I0403 14:49:19.569555 17720 net.cpp:399] inception_5a/1x1 -> inception_5a/1x1
I0403 14:49:19.572481 17720 net.cpp:141] Setting up inception_5a/1x1
I0403 14:49:19.572510 17720 net.cpp:148] Top shape: 24 256 7 7 (301056)
I0403 14:49:19.572526 17720 net.cpp:156] Memory required for data: 1293329952
I0403 14:49:19.572556 17720 layer_factory.hpp:77] Creating layer inception_5a/relu_1x1
I0403 14:49:19.572573 17720 net.cpp:91] Creating Layer inception_5a/relu_1x1
I0403 14:49:19.572588 17720 net.cpp:425] inception_5a/relu_1x1 <- inception_5a/1x1
I0403 14:49:19.572607 17720 net.cpp:386] inception_5a/relu_1x1 -> inception_5a/1x1 (in-place)
I0403 14:49:19.572911 17720 net.cpp:141] Setting up inception_5a/relu_1x1
I0403 14:49:19.572939 17720 net.cpp:148] Top shape: 24 256 7 7 (301056)
I0403 14:49:19.572954 17720 net.cpp:156] Memory required for data: 1294534176
I0403 14:49:19.572969 17720 layer_factory.hpp:77] Creating layer inception_5a/3x3_reduce
I0403 14:49:19.572994 17720 net.cpp:91] Creating Layer inception_5a/3x3_reduce
I0403 14:49:19.573014 17720 net.cpp:425] inception_5a/3x3_reduce <- pool4/3x3_s2_pool4/3x3_s2_0_split_1
I0403 14:49:19.573031 17720 net.cpp:399] inception_5a/3x3_reduce -> inception_5a/3x3_reduce
I0403 14:49:19.575497 17720 net.cpp:141] Setting up inception_5a/3x3_reduce
I0403 14:49:19.575526 17720 net.cpp:148] Top shape: 24 160 7 7 (188160)
I0403 14:49:19.575541 17720 net.cpp:156] Memory required for data: 1295286816
I0403 14:49:19.575559 17720 layer_factory.hpp:77] Creating layer inception_5a/relu_3x3_reduce
I0403 14:49:19.575578 17720 net.cpp:91] Creating Layer inception_5a/relu_3x3_reduce
I0403 14:49:19.575595 17720 net.cpp:425] inception_5a/relu_3x3_reduce <- inception_5a/3x3_reduce
I0403 14:49:19.575613 17720 net.cpp:386] inception_5a/relu_3x3_reduce -> inception_5a/3x3_reduce (in-place)
I0403 14:49:19.575798 17720 net.cpp:141] Setting up inception_5a/relu_3x3_reduce
I0403 14:49:19.575821 17720 net.cpp:148] Top shape: 24 160 7 7 (188160)
I0403 14:49:19.575835 17720 net.cpp:156] Memory required for data: 1296039456
I0403 14:49:19.575850 17720 layer_factory.hpp:77] Creating layer inception_5a/3x3
I0403 14:49:19.575873 17720 net.cpp:91] Creating Layer inception_5a/3x3
I0403 14:49:19.575891 17720 net.cpp:425] inception_5a/3x3 <- inception_5a/3x3_reduce
I0403 14:49:19.575908 17720 net.cpp:399] inception_5a/3x3 -> inception_5a/3x3
I0403 14:49:19.580873 17720 net.cpp:141] Setting up inception_5a/3x3
I0403 14:49:19.580902 17720 net.cpp:148] Top shape: 24 320 7 7 (376320)
I0403 14:49:19.580919 17720 net.cpp:156] Memory required for data: 1297544736
I0403 14:49:19.580937 17720 layer_factory.hpp:77] Creating layer inception_5a/relu_3x3
I0403 14:49:19.580955 17720 net.cpp:91] Creating Layer inception_5a/relu_3x3
I0403 14:49:19.580971 17720 net.cpp:425] inception_5a/relu_3x3 <- inception_5a/3x3
I0403 14:49:19.580991 17720 net.cpp:386] inception_5a/relu_3x3 -> inception_5a/3x3 (in-place)
I0403 14:49:19.581284 17720 net.cpp:141] Setting up inception_5a/relu_3x3
I0403 14:49:19.581310 17720 net.cpp:148] Top shape: 24 320 7 7 (376320)
I0403 14:49:19.581326 17720 net.cpp:156] Memory required for data: 1299050016
I0403 14:49:19.581341 17720 layer_factory.hpp:77] Creating layer inception_5a/5x5_reduce
I0403 14:49:19.581362 17720 net.cpp:91] Creating Layer inception_5a/5x5_reduce
I0403 14:49:19.581379 17720 net.cpp:425] inception_5a/5x5_reduce <- pool4/3x3_s2_pool4/3x3_s2_0_split_2
I0403 14:49:19.581398 17720 net.cpp:399] inception_5a/5x5_reduce -> inception_5a/5x5_reduce
I0403 14:49:19.582571 17720 net.cpp:141] Setting up inception_5a/5x5_reduce
I0403 14:49:19.582602 17720 net.cpp:148] Top shape: 24 32 7 7 (37632)
I0403 14:49:19.582617 17720 net.cpp:156] Memory required for data: 1299200544
I0403 14:49:19.582635 17720 layer_factory.hpp:77] Creating layer inception_5a/relu_5x5_reduce
I0403 14:49:19.582653 17720 net.cpp:91] Creating Layer inception_5a/relu_5x5_reduce
I0403 14:49:19.582669 17720 net.cpp:425] inception_5a/relu_5x5_reduce <- inception_5a/5x5_reduce
I0403 14:49:19.582686 17720 net.cpp:386] inception_5a/relu_5x5_reduce -> inception_5a/5x5_reduce (in-place)
I0403 14:49:19.582978 17720 net.cpp:141] Setting up inception_5a/relu_5x5_reduce
I0403 14:49:19.583009 17720 net.cpp:148] Top shape: 24 32 7 7 (37632)
I0403 14:49:19.583024 17720 net.cpp:156] Memory required for data: 1299351072
I0403 14:49:19.583039 17720 layer_factory.hpp:77] Creating layer inception_5a/5x5
I0403 14:49:19.583060 17720 net.cpp:91] Creating Layer inception_5a/5x5
I0403 14:49:19.583076 17720 net.cpp:425] inception_5a/5x5 <- inception_5a/5x5_reduce
I0403 14:49:19.583097 17720 net.cpp:399] inception_5a/5x5 -> inception_5a/5x5
I0403 14:49:19.584774 17720 net.cpp:141] Setting up inception_5a/5x5
I0403 14:49:19.584815 17720 net.cpp:148] Top shape: 24 128 7 7 (150528)
I0403 14:49:19.584831 17720 net.cpp:156] Memory required for data: 1299953184
I0403 14:49:19.584849 17720 layer_factory.hpp:77] Creating layer inception_5a/relu_5x5
I0403 14:49:19.584867 17720 net.cpp:91] Creating Layer inception_5a/relu_5x5
I0403 14:49:19.584882 17720 net.cpp:425] inception_5a/relu_5x5 <- inception_5a/5x5
I0403 14:49:19.584897 17720 net.cpp:386] inception_5a/relu_5x5 -> inception_5a/5x5 (in-place)
I0403 14:49:19.585111 17720 net.cpp:141] Setting up inception_5a/relu_5x5
I0403 14:49:19.585136 17720 net.cpp:148] Top shape: 24 128 7 7 (150528)
I0403 14:49:19.585150 17720 net.cpp:156] Memory required for data: 1300555296
I0403 14:49:19.585165 17720 layer_factory.hpp:77] Creating layer inception_5a/pool
I0403 14:49:19.585182 17720 net.cpp:91] Creating Layer inception_5a/pool
I0403 14:49:19.585198 17720 net.cpp:425] inception_5a/pool <- pool4/3x3_s2_pool4/3x3_s2_0_split_3
I0403 14:49:19.585218 17720 net.cpp:399] inception_5a/pool -> inception_5a/pool
I0403 14:49:19.585299 17720 net.cpp:141] Setting up inception_5a/pool
I0403 14:49:19.585325 17720 net.cpp:148] Top shape: 24 832 7 7 (978432)
I0403 14:49:19.585340 17720 net.cpp:156] Memory required for data: 1304469024
I0403 14:49:19.585353 17720 layer_factory.hpp:77] Creating layer inception_5a/pool_proj
I0403 14:49:19.585374 17720 net.cpp:91] Creating Layer inception_5a/pool_proj
I0403 14:49:19.585392 17720 net.cpp:425] inception_5a/pool_proj <- inception_5a/pool
I0403 14:49:19.585409 17720 net.cpp:399] inception_5a/pool_proj -> inception_5a/pool_proj
I0403 14:49:19.587667 17720 net.cpp:141] Setting up inception_5a/pool_proj
I0403 14:49:19.587695 17720 net.cpp:148] Top shape: 24 128 7 7 (150528)
I0403 14:49:19.587710 17720 net.cpp:156] Memory required for data: 1305071136
I0403 14:49:19.587729 17720 layer_factory.hpp:77] Creating layer inception_5a/relu_pool_proj
I0403 14:49:19.587749 17720 net.cpp:91] Creating Layer inception_5a/relu_pool_proj
I0403 14:49:19.587765 17720 net.cpp:425] inception_5a/relu_pool_proj <- inception_5a/pool_proj
I0403 14:49:19.587782 17720 net.cpp:386] inception_5a/relu_pool_proj -> inception_5a/pool_proj (in-place)
I0403 14:49:19.588083 17720 net.cpp:141] Setting up inception_5a/relu_pool_proj
I0403 14:49:19.588109 17720 net.cpp:148] Top shape: 24 128 7 7 (150528)
I0403 14:49:19.588124 17720 net.cpp:156] Memory required for data: 1305673248
I0403 14:49:19.588137 17720 layer_factory.hpp:77] Creating layer inception_5a/output
I0403 14:49:19.588155 17720 net.cpp:91] Creating Layer inception_5a/output
I0403 14:49:19.588171 17720 net.cpp:425] inception_5a/output <- inception_5a/1x1
I0403 14:49:19.588188 17720 net.cpp:425] inception_5a/output <- inception_5a/3x3
I0403 14:49:19.588203 17720 net.cpp:425] inception_5a/output <- inception_5a/5x5
I0403 14:49:19.588218 17720 net.cpp:425] inception_5a/output <- inception_5a/pool_proj
I0403 14:49:19.588235 17720 net.cpp:399] inception_5a/output -> inception_5a/output
I0403 14:49:19.588284 17720 net.cpp:141] Setting up inception_5a/output
I0403 14:49:19.588307 17720 net.cpp:148] Top shape: 24 832 7 7 (978432)
I0403 14:49:19.588321 17720 net.cpp:156] Memory required for data: 1309586976
I0403 14:49:19.588335 17720 layer_factory.hpp:77] Creating layer inception_5a/output_inception_5a/output_0_split
I0403 14:49:19.588351 17720 net.cpp:91] Creating Layer inception_5a/output_inception_5a/output_0_split
I0403 14:49:19.588366 17720 net.cpp:425] inception_5a/output_inception_5a/output_0_split <- inception_5a/output
I0403 14:49:19.588387 17720 net.cpp:399] inception_5a/output_inception_5a/output_0_split -> inception_5a/output_inception_5a/output_0_split_0
I0403 14:49:19.588407 17720 net.cpp:399] inception_5a/output_inception_5a/output_0_split -> inception_5a/output_inception_5a/output_0_split_1
I0403 14:49:19.588426 17720 net.cpp:399] inception_5a/output_inception_5a/output_0_split -> inception_5a/output_inception_5a/output_0_split_2
I0403 14:49:19.588445 17720 net.cpp:399] inception_5a/output_inception_5a/output_0_split -> inception_5a/output_inception_5a/output_0_split_3
I0403 14:49:19.588556 17720 net.cpp:141] Setting up inception_5a/output_inception_5a/output_0_split
I0403 14:49:19.588582 17720 net.cpp:148] Top shape: 24 832 7 7 (978432)
I0403 14:49:19.588598 17720 net.cpp:148] Top shape: 24 832 7 7 (978432)
I0403 14:49:19.588613 17720 net.cpp:148] Top shape: 24 832 7 7 (978432)
I0403 14:49:19.588627 17720 net.cpp:148] Top shape: 24 832 7 7 (978432)
I0403 14:49:19.588640 17720 net.cpp:156] Memory required for data: 1325241888
I0403 14:49:19.588654 17720 layer_factory.hpp:77] Creating layer inception_5b/1x1
I0403 14:49:19.588675 17720 net.cpp:91] Creating Layer inception_5b/1x1
I0403 14:49:19.588692 17720 net.cpp:425] inception_5b/1x1 <- inception_5a/output_inception_5a/output_0_split_0
I0403 14:49:19.588711 17720 net.cpp:399] inception_5b/1x1 -> inception_5b/1x1
I0403 14:49:19.592452 17720 net.cpp:141] Setting up inception_5b/1x1
I0403 14:49:19.592480 17720 net.cpp:148] Top shape: 24 384 7 7 (451584)
I0403 14:49:19.592496 17720 net.cpp:156] Memory required for data: 1327048224
I0403 14:49:19.592516 17720 layer_factory.hpp:77] Creating layer inception_5b/relu_1x1
I0403 14:49:19.592548 17720 net.cpp:91] Creating Layer inception_5b/relu_1x1
I0403 14:49:19.592566 17720 net.cpp:425] inception_5b/relu_1x1 <- inception_5b/1x1
I0403 14:49:19.592582 17720 net.cpp:386] inception_5b/relu_1x1 -> inception_5b/1x1 (in-place)
I0403 14:49:19.592880 17720 net.cpp:141] Setting up inception_5b/relu_1x1
I0403 14:49:19.592905 17720 net.cpp:148] Top shape: 24 384 7 7 (451584)
I0403 14:49:19.592919 17720 net.cpp:156] Memory required for data: 1328854560
I0403 14:49:19.592933 17720 layer_factory.hpp:77] Creating layer inception_5b/3x3_reduce
I0403 14:49:19.592955 17720 net.cpp:91] Creating Layer inception_5b/3x3_reduce
I0403 14:49:19.592972 17720 net.cpp:425] inception_5b/3x3_reduce <- inception_5a/output_inception_5a/output_0_split_1
I0403 14:49:19.592996 17720 net.cpp:399] inception_5b/3x3_reduce -> inception_5b/3x3_reduce
I0403 14:49:19.595698 17720 net.cpp:141] Setting up inception_5b/3x3_reduce
I0403 14:49:19.595727 17720 net.cpp:148] Top shape: 24 192 7 7 (225792)
I0403 14:49:19.595742 17720 net.cpp:156] Memory required for data: 1329757728
I0403 14:49:19.595760 17720 layer_factory.hpp:77] Creating layer inception_5b/relu_3x3_reduce
I0403 14:49:19.595780 17720 net.cpp:91] Creating Layer inception_5b/relu_3x3_reduce
I0403 14:49:19.595798 17720 net.cpp:425] inception_5b/relu_3x3_reduce <- inception_5b/3x3_reduce
I0403 14:49:19.595814 17720 net.cpp:386] inception_5b/relu_3x3_reduce -> inception_5b/3x3_reduce (in-place)
I0403 14:49:19.596004 17720 net.cpp:141] Setting up inception_5b/relu_3x3_reduce
I0403 14:49:19.596031 17720 net.cpp:148] Top shape: 24 192 7 7 (225792)
I0403 14:49:19.596047 17720 net.cpp:156] Memory required for data: 1330660896
I0403 14:49:19.596061 17720 layer_factory.hpp:77] Creating layer inception_5b/3x3
I0403 14:49:19.596082 17720 net.cpp:91] Creating Layer inception_5b/3x3
I0403 14:49:19.596101 17720 net.cpp:425] inception_5b/3x3 <- inception_5b/3x3_reduce
I0403 14:49:19.596118 17720 net.cpp:399] inception_5b/3x3 -> inception_5b/3x3
I0403 14:49:19.602723 17720 net.cpp:141] Setting up inception_5b/3x3
I0403 14:49:19.602751 17720 net.cpp:148] Top shape: 24 384 7 7 (451584)
I0403 14:49:19.602766 17720 net.cpp:156] Memory required for data: 1332467232
I0403 14:49:19.602784 17720 layer_factory.hpp:77] Creating layer inception_5b/relu_3x3
I0403 14:49:19.602803 17720 net.cpp:91] Creating Layer inception_5b/relu_3x3
I0403 14:49:19.602821 17720 net.cpp:425] inception_5b/relu_3x3 <- inception_5b/3x3
I0403 14:49:19.602838 17720 net.cpp:386] inception_5b/relu_3x3 -> inception_5b/3x3 (in-place)
I0403 14:49:19.603137 17720 net.cpp:141] Setting up inception_5b/relu_3x3
I0403 14:49:19.603162 17720 net.cpp:148] Top shape: 24 384 7 7 (451584)
I0403 14:49:19.603176 17720 net.cpp:156] Memory required for data: 1334273568
I0403 14:49:19.603191 17720 layer_factory.hpp:77] Creating layer inception_5b/5x5_reduce
I0403 14:49:19.603230 17720 net.cpp:91] Creating Layer inception_5b/5x5_reduce
I0403 14:49:19.603263 17720 net.cpp:425] inception_5b/5x5_reduce <- inception_5a/output_inception_5a/output_0_split_2
I0403 14:49:19.603282 17720 net.cpp:399] inception_5b/5x5_reduce -> inception_5b/5x5_reduce
I0403 14:49:19.604614 17720 net.cpp:141] Setting up inception_5b/5x5_reduce
I0403 14:49:19.604640 17720 net.cpp:148] Top shape: 24 48 7 7 (56448)
I0403 14:49:19.604656 17720 net.cpp:156] Memory required for data: 1334499360
I0403 14:49:19.604676 17720 layer_factory.hpp:77] Creating layer inception_5b/relu_5x5_reduce
I0403 14:49:19.604696 17720 net.cpp:91] Creating Layer inception_5b/relu_5x5_reduce
I0403 14:49:19.604712 17720 net.cpp:425] inception_5b/relu_5x5_reduce <- inception_5b/5x5_reduce
I0403 14:49:19.604729 17720 net.cpp:386] inception_5b/relu_5x5_reduce -> inception_5b/5x5_reduce (in-place)
I0403 14:49:19.605118 17720 net.cpp:141] Setting up inception_5b/relu_5x5_reduce
I0403 14:49:19.605144 17720 net.cpp:148] Top shape: 24 48 7 7 (56448)
I0403 14:49:19.605159 17720 net.cpp:156] Memory required for data: 1334725152
I0403 14:49:19.605175 17720 layer_factory.hpp:77] Creating layer inception_5b/5x5
I0403 14:49:19.605195 17720 net.cpp:91] Creating Layer inception_5b/5x5
I0403 14:49:19.605213 17720 net.cpp:425] inception_5b/5x5 <- inception_5b/5x5_reduce
I0403 14:49:19.605232 17720 net.cpp:399] inception_5b/5x5 -> inception_5b/5x5
I0403 14:49:19.607319 17720 net.cpp:141] Setting up inception_5b/5x5
I0403 14:49:19.607350 17720 net.cpp:148] Top shape: 24 128 7 7 (150528)
I0403 14:49:19.607367 17720 net.cpp:156] Memory required for data: 1335327264
I0403 14:49:19.607386 17720 layer_factory.hpp:77] Creating layer inception_5b/relu_5x5
I0403 14:49:19.607404 17720 net.cpp:91] Creating Layer inception_5b/relu_5x5
I0403 14:49:19.607421 17720 net.cpp:425] inception_5b/relu_5x5 <- inception_5b/5x5
I0403 14:49:19.607441 17720 net.cpp:386] inception_5b/relu_5x5 -> inception_5b/5x5 (in-place)
I0403 14:49:19.607655 17720 net.cpp:141] Setting up inception_5b/relu_5x5
I0403 14:49:19.607679 17720 net.cpp:148] Top shape: 24 128 7 7 (150528)
I0403 14:49:19.607694 17720 net.cpp:156] Memory required for data: 1335929376
I0403 14:49:19.607708 17720 layer_factory.hpp:77] Creating layer inception_5b/pool
I0403 14:49:19.607727 17720 net.cpp:91] Creating Layer inception_5b/pool
I0403 14:49:19.607743 17720 net.cpp:425] inception_5b/pool <- inception_5a/output_inception_5a/output_0_split_3
I0403 14:49:19.607764 17720 net.cpp:399] inception_5b/pool -> inception_5b/pool
I0403 14:49:19.607836 17720 net.cpp:141] Setting up inception_5b/pool
I0403 14:49:19.607861 17720 net.cpp:148] Top shape: 24 832 7 7 (978432)
I0403 14:49:19.607874 17720 net.cpp:156] Memory required for data: 1339843104
I0403 14:49:19.607888 17720 layer_factory.hpp:77] Creating layer inception_5b/pool_proj
I0403 14:49:19.607913 17720 net.cpp:91] Creating Layer inception_5b/pool_proj
I0403 14:49:19.607930 17720 net.cpp:425] inception_5b/pool_proj <- inception_5b/pool
I0403 14:49:19.607949 17720 net.cpp:399] inception_5b/pool_proj -> inception_5b/pool_proj
I0403 14:49:19.610280 17720 net.cpp:141] Setting up inception_5b/pool_proj
I0403 14:49:19.610311 17720 net.cpp:148] Top shape: 24 128 7 7 (150528)
I0403 14:49:19.610328 17720 net.cpp:156] Memory required for data: 1340445216
I0403 14:49:19.610347 17720 layer_factory.hpp:77] Creating layer inception_5b/relu_pool_proj
I0403 14:49:19.610365 17720 net.cpp:91] Creating Layer inception_5b/relu_pool_proj
I0403 14:49:19.610381 17720 net.cpp:425] inception_5b/relu_pool_proj <- inception_5b/pool_proj
I0403 14:49:19.610399 17720 net.cpp:386] inception_5b/relu_pool_proj -> inception_5b/pool_proj (in-place)
I0403 14:49:19.610699 17720 net.cpp:141] Setting up inception_5b/relu_pool_proj
I0403 14:49:19.610728 17720 net.cpp:148] Top shape: 24 128 7 7 (150528)
I0403 14:49:19.610744 17720 net.cpp:156] Memory required for data: 1341047328
I0403 14:49:19.610759 17720 layer_factory.hpp:77] Creating layer inception_5b/output
I0403 14:49:19.610777 17720 net.cpp:91] Creating Layer inception_5b/output
I0403 14:49:19.610807 17720 net.cpp:425] inception_5b/output <- inception_5b/1x1
I0403 14:49:19.610826 17720 net.cpp:425] inception_5b/output <- inception_5b/3x3
I0403 14:49:19.610841 17720 net.cpp:425] inception_5b/output <- inception_5b/5x5
I0403 14:49:19.610857 17720 net.cpp:425] inception_5b/output <- inception_5b/pool_proj
I0403 14:49:19.610874 17720 net.cpp:399] inception_5b/output -> inception_5b/output
I0403 14:49:19.610929 17720 net.cpp:141] Setting up inception_5b/output
I0403 14:49:19.610951 17720 net.cpp:148] Top shape: 24 1024 7 7 (1204224)
I0403 14:49:19.610966 17720 net.cpp:156] Memory required for data: 1345864224
I0403 14:49:19.610981 17720 layer_factory.hpp:77] Creating layer pool5/7x7_s1
I0403 14:49:19.611008 17720 net.cpp:91] Creating Layer pool5/7x7_s1
I0403 14:49:19.611026 17720 net.cpp:425] pool5/7x7_s1 <- inception_5b/output
I0403 14:49:19.611043 17720 net.cpp:399] pool5/7x7_s1 -> pool5/7x7_s1
I0403 14:49:19.611274 17720 net.cpp:141] Setting up pool5/7x7_s1
I0403 14:49:19.611302 17720 net.cpp:148] Top shape: 24 1024 1 1 (24576)
I0403 14:49:19.611320 17720 net.cpp:156] Memory required for data: 1345962528
I0403 14:49:19.611333 17720 layer_factory.hpp:77] Creating layer pool5/drop_7x7_s1
I0403 14:49:19.611352 17720 net.cpp:91] Creating Layer pool5/drop_7x7_s1
I0403 14:49:19.611368 17720 net.cpp:425] pool5/drop_7x7_s1 <- pool5/7x7_s1
I0403 14:49:19.611385 17720 net.cpp:386] pool5/drop_7x7_s1 -> pool5/7x7_s1 (in-place)
I0403 14:49:19.611438 17720 net.cpp:141] Setting up pool5/drop_7x7_s1
I0403 14:49:19.611461 17720 net.cpp:148] Top shape: 24 1024 1 1 (24576)
I0403 14:49:19.611476 17720 net.cpp:156] Memory required for data: 1346060832
I0403 14:49:19.611490 17720 layer_factory.hpp:77] Creating layer loss3/classifier_plantvillage
I0403 14:49:19.611512 17720 net.cpp:91] Creating Layer loss3/classifier_plantvillage
I0403 14:49:19.611529 17720 net.cpp:425] loss3/classifier_plantvillage <- pool5/7x7_s1
I0403 14:49:19.611559 17720 net.cpp:399] loss3/classifier_plantvillage -> loss3/classifier_plantvillage
I0403 14:49:19.611990 17720 net.cpp:141] Setting up loss3/classifier_plantvillage
I0403 14:49:19.612015 17720 net.cpp:148] Top shape: 24 38 (912)
I0403 14:49:19.612030 17720 net.cpp:156] Memory required for data: 1346064480
I0403 14:49:19.612047 17720 layer_factory.hpp:77] Creating layer loss3/classifier_plantvillage_loss3/classifier_plantvillage_0_split
I0403 14:49:19.612066 17720 net.cpp:91] Creating Layer loss3/classifier_plantvillage_loss3/classifier_plantvillage_0_split
I0403 14:49:19.612081 17720 net.cpp:425] loss3/classifier_plantvillage_loss3/classifier_plantvillage_0_split <- loss3/classifier_plantvillage
I0403 14:49:19.612102 17720 net.cpp:399] loss3/classifier_plantvillage_loss3/classifier_plantvillage_0_split -> loss3/classifier_plantvillage_loss3/classifier_plantvillage_0_split_0
I0403 14:49:19.612123 17720 net.cpp:399] loss3/classifier_plantvillage_loss3/classifier_plantvillage_0_split -> loss3/classifier_plantvillage_loss3/classifier_plantvillage_0_split_1
I0403 14:49:19.612143 17720 net.cpp:399] loss3/classifier_plantvillage_loss3/classifier_plantvillage_0_split -> loss3/classifier_plantvillage_loss3/classifier_plantvillage_0_split_2
I0403 14:49:19.612162 17720 net.cpp:399] loss3/classifier_plantvillage_loss3/classifier_plantvillage_0_split -> loss3/classifier_plantvillage_loss3/classifier_plantvillage_0_split_3
I0403 14:49:19.612265 17720 net.cpp:141] Setting up loss3/classifier_plantvillage_loss3/classifier_plantvillage_0_split
I0403 14:49:19.612292 17720 net.cpp:148] Top shape: 24 38 (912)
I0403 14:49:19.612309 17720 net.cpp:148] Top shape: 24 38 (912)
I0403 14:49:19.612324 17720 net.cpp:148] Top shape: 24 38 (912)
I0403 14:49:19.612340 17720 net.cpp:148] Top shape: 24 38 (912)
I0403 14:49:19.612354 17720 net.cpp:156] Memory required for data: 1346079072
I0403 14:49:19.612367 17720 layer_factory.hpp:77] Creating layer loss1/loss
I0403 14:49:19.612390 17720 net.cpp:91] Creating Layer loss1/loss
I0403 14:49:19.612406 17720 net.cpp:425] loss1/loss <- loss1/classifier_plantvillage_loss1/classifier_plantvillage_0_split_0
I0403 14:49:19.612437 17720 net.cpp:425] loss1/loss <- label_data_1_split_0
…
