…
I0403 15:03:46.678933 18163 net.cpp:313] The NetState phase (1) differed from the phase (0) specified by a rule in layer data
I0403 15:03:46.680107 18163 net.cpp:49] Initializing net from parameters: 
state {
  phase: TEST
}
layer {
  name: "data"
  type: "Data"
  top: "data"
  top: "label"
  include {
    phase: TEST
  }
  transform_param {
    mirror: false
    crop_size: 224
    mean_file: "/home/mohanty/data/final_dataset/lmdb/grayscale-40-60/mean.binaryproto"
  }
  data_param {
    source: "/home/mohanty/data/final_dataset/lmdb/grayscale-40-60/test_db"
    batch_size: 24
    backend: LMDB
  }
}
layer {
  name: "conv1/7x7_s2"
  type: "Convolution"
  bottom: "data"
  top: "conv1/7x7_s2"
  param {
    lr_mult: 1
    decay_mult: 1
  }
  param {
    lr_mult: 2
    decay_mult: 0
  }
  convolution_param {
    num_output: 64
    pad: 3
    kernel_size: 7
    stride: 2
    weight_filler {
      type: "xavier"
      std: 0.1
    }
    bias_filler {
      type: "constant"
      value: 0.2
    }
  }
}
layer {
  name: "conv1/relu_7x7"
  type: "ReLU"
  bottom: "conv1/7x7_s2"
  top: "conv1/7x7_s2"
}
layer {
  name: "pool1/3x3_s2"
  type: "Pooling"
  bottom: "conv1/7x7_s2"
  top: "pool1/3x3_s2"
  pooling_param {
    pool: MAX
    kernel_size: 3
    stride: 2
  }
}
layer {
  name: "pool1/norm1"
  type: "LRN"
  bottom: "pool1/3x3_s2"
  top: "pool1/norm1"
  lrn_param {
    local_size: 5
    alpha: 0.0001
    beta: 0.75
  }
}
layer {
  name: "conv2/3x3_reduce"
  type: "Convolution"
  bottom: "pool1/norm1"
  top: "conv2/3x3_reduce"
  param {
    lr_mult: 1
    decay_mult: 1
  }
  param {
    lr_mult: 2
    decay_mult: 0
  }
  convolution_param {
    num_output: 64
    kernel_size: 1
    weight_filler {
      type: "xavier"
      std: 0.1
    }
    bias_filler {
      type: "constant"
      value: 0.2
    }
  }
}
layer {
  name: "conv2/relu_3x3_reduce"
  type: "ReLU"
  bottom: "conv2/3x3_reduce"
  top: "conv2/3x3_reduce"
}
layer {
  name: "conv2/3x3"
  type: "Convolution"
  bottom: "conv2/3x3_reduce"
  top: "conv2/3x3"
  param {
    lr_mult: 1
    decay_mult: 1
  }
  param {
    lr_mult: 2
    decay_mult: 0
  }
  convolution_param {
    num_output: 192
    pad: 1
    kernel_size: 3
    weight_filler {
      type: "xavier"
      std: 0.03
    }
    bias_filler {
      type: "constant"
      value: 0.2
    }
  }
}
layer {
  name: "conv2/relu_3x3"
  type: "ReLU"
  bottom: "conv2/3x3"
  top: "conv2/3x3"
}
layer {
  name: "conv2/norm2"
  type: "LRN"
  bottom: "conv2/3x3"
  top: "conv2/norm2"
  lrn_param {
    local_size: 5
    alpha: 0.0001
    beta: 0.75
  }
}
layer {
  name: "pool2/3x3_s2"
  type: "Pooling"
  bottom: "conv2/norm2"
  top: "pool2/3x3_s2"
  pooling_param {
    pool: MAX
    kernel_size: 3
    stride: 2
  }
}
layer {
  name: "inception_3a/1x1"
  type: "Convolution"
  bottom: "pool2/3x3_s2"
  top: "inception_3a/1x1"
  param {
    lr_mult: 1
    decay_mult: 1
  }
  param {
    lr_mult: 2
    decay_mult: 0
  }
  convolution_param {
    num_output: 64
    kernel_size: 1
    weight_filler {
      type: "xavier"
      std: 0.03
    }
    bias_filler {
      type: "constant"
      value: 0.2
    }
  }
}
layer {
  name: "inception_3a/relu_1x1"
  type: "ReLU"
  bottom: "inception_3a/1x1"
  top: "inception_3a/1x1"
}
layer {
  name: "inception_3a/3x3_reduce"
  type: "Convolution"
  bottom: "pool2/3x3_s2"
  top: "inception_3a/3x3_reduce"
  param {
    lr_mult: 1
    decay_mult: 1
  }
  param {
    lr_mult: 2
    decay_mult: 0
  }
  convolution_param {
    num_output: 96
    kernel_size: 1
    weight_filler {
      type: "xavier"
      std: 0.09
    }
    bias_filler {
      type: "constant"
      value: 0.2
    }
  }
}
layer {
  name: "inception_3a/relu_3x3_reduce"
  type: "ReLU"
  bottom: "inception_3a/3x3_reduce"
  top: "inception_3a/3x3_reduce"
}
layer {
  name: "inception_3a/3x3"
  type: "Convolution"
  bottom: "inception_3a/3x3_reduce"
  top: "inception_3a/3x3"
  param {
    lr_mult: 1
    decay_mult: 1
  }
  param {
    lr_mult: 2
    decay_mult: 0
  }
  convolution_param {
    num_output: 128
    pad: 1
    kernel_size: 3
    weight_filler {
      type: "xavier"
      std: 0.03
    }
    bias_filler {
      type: "constant"
      value: 0.2
    }
  }
}
layer {
  name: "inception_3a/relu_3x3"
  type: "ReLU"
  bottom: "inception_3a/3x3"
  top: "inception_3a/3x3"
}
layer {
  name: "inception_3a/5x5_reduce"
  type: "Convolution"
  bottom: "pool2/3x3_s2"
  top: "inception_3a/5x5_reduce"
  param {
    lr_mult: 1
    decay_mult: 1
  }
  param {
    lr_mult: 2
    decay_mult: 0
  }
  convolution_param {
    num_output: 16
    kernel_size: 1
    weight_filler {
      type: "xavier"
      std: 0.2
    }
    bias_filler {
      type: "constant"
      value: 0.2
    }
  }
}
layer {
  name: "inception_3a/relu_5x5_reduce"
  type: "ReLU"
  bottom: "inception_3a/5x5_reduce"
  top: "inception_3a/5x5_reduce"
}
layer {
  name: "inception_3a/5x5"
  type: "Convolution"
  bottom: "inception_3a/5x5_reduce"
  top: "inception_3a/5x5"
  param {
    lr_mult: 1
    decay_mult: 1
  }
  param {
    lr_mult: 2
    decay_mult: 0
  }
  convolution_param {
    num_output: 32
    pad: 2
    kernel_size: 5
    weight_filler {
      type: "xavier"
      std: 0.03
    }
    bias_filler {
      type: "constant"
      value: 0.2
    }
  }
}
layer {
  name: "inception_3a/relu_5x5"
  type: "ReLU"
  bottom: "inception_3a/5x5"
  top: "inception_3a/5x5"
}
layer {
  name: "inception_3a/pool"
  type: "Pooling"
  bottom: "pool2/3x3_s2"
  top: "inception_3a/pool"
  pooling_param {
    pool: MAX
    kernel_size: 3
    stride: 1
    pad: 1
  }
}
layer {
  name: "inception_3a/pool_proj"
  type: "Convolution"
  bottom: "inception_3a/pool"
  top: "inception_3a/pool_proj"
  param {
    lr_mult: 1
    decay_mult: 1
  }
  param {
    lr_mult: 2
    decay_mult: 0
  }
  convolution_param {
    num_output: 32
    kernel_size: 1
    weight_filler {
      type: "xavier"
      std: 0.1
    }
    bias_filler {
      type: "constant"
      value: 0.2
    }
  }
}
layer {
  name: "inception_3a/relu_pool_proj"
  type: "ReLU"
  bottom: "inception_3a/pool_proj"
  top: "inception_3a/pool_proj"
}
layer {
  name: "inception_3a/output"
  type: "Concat"
  bottom: "inception_3a/1x1"
  bottom: "inception_3a/3x3"
  bottom: "inception_3a/5x5"
  bottom: "inception_3a/pool_proj"
  top: "inception_3a/output"
}
layer {
  name: "inception_3b/1x1"
  type: "Convolution"
  bottom: "inception_3a/output"
  top: "inception_3b/1x1"
  param {
    lr_mult: 1
    decay_mult: 1
  }
  param {
    lr_mult: 2
    decay_mult: 0
  }
  convolution_param {
    num_output: 128
    kernel_size: 1
    weight_filler {
      type: "xavier"
      std: 0.03
    }
    bias_filler {
      type: "constant"
      value: 0.2
    }
  }
}
layer {
  name: "inception_3b/relu_1x1"
  type: "ReLU"
  bottom: "inception_3b/1x1"
  top: "inception_3b/1x1"
}
layer {
  name: "inception_3b/3x3_reduce"
  type: "Convolution"
  bottom: "inception_3a/output"
  top: "inception_3b/3x3_reduce"
  param {
    lr_mult: 1
    decay_mult: 1
  }
  param {
    lr_mult: 2
    decay_mult: 0
  }
  convolution_param {
    num_output: 128
    kernel_size: 1
    weight_filler {
      type: "xavier"
      std: 0.09
    }
    bias_filler {
      type: "constant"
      value: 0.2
    }
  }
}
layer {
  name: "inception_3b/relu_3x3_reduce"
  type: "ReLU"
  bottom: "inception_3b/3x3_reduce"
  top: "inception_3b/3x3_reduce"
}
layer {
  name: "inception_3b/3x3"
  type: "Convolution"
  bottom: "inception_3b/3x3_reduce"
  top: "inception_3b/3x3"
  param {
    lr_mult: 1
    decay_mult: 1
  }
  param {
    lr_mult: 2
    decay_mult: 0
  }
  convolution_param {
    num_output: 192
    pad: 1
    kernel_size: 3
    weight_filler {
      type: "xavier"
      std: 0.03
    }
    bias_filler {
      type: "constant"
      value: 0.2
    }
  }
}
layer {
  name: "inception_3b/relu_3x3"
  type: "ReLU"
  bottom: "inception_3b/3x3"
  top: "inception_3b/3x3"
}
layer {
  name: "inception_3b/5x5_reduce"
  type: "Convolution"
  bottom: "inception_3a/output"
  top: "inception_3b/5x5_reduce"
  param {
    lr_mult: 1
    decay_mult: 1
  }
  param {
    lr_mult: 2
    decay_mult: 0
  }
  convolution_param {
    num_output: 32
    kernel_size: 1
    weight_filler {
      type: "xavier"
      std: 0.2
    }
    bias_filler {
      type: "constant"
      value: 0.2
    }
  }
}
layer {
  name: "inception_3b/relu_5x5_reduce"
  type: "ReLU"
  bottom: "inception_3b/5x5_reduce"
  top: "inception_3b/5x5_reduce"
}
layer {
  name: "inception_3b/5x5"
  type: "Convolution"
  bottom: "inception_3b/5x5_reduce"
  top: "inception_3b/5x5"
  param {
    lr_mult: 1
    decay_mult: 1
  }
  param {
    lr_mult: 2
    decay_mult: 0
  }
  convolution_param {
    num_output: 96
    pad: 2
    kernel_size: 5
    weight_filler {
      type: "xavier"
      std: 0.03
    }
    bias_filler {
      type: "constant"
      value: 0.2
    }
  }
}
layer {
  name: "inception_3b/relu_5x5"
  type: "ReLU"
  bottom: "inception_3b/5x5"
  top: "inception_3b/5x5"
}
layer {
  name: "inception_3b/pool"
  type: "Pooling"
  bottom: "inception_3a/output"
  top: "inception_3b/pool"
  pooling_param {
    pool: MAX
    kernel_size: 3
    stride: 1
    pad: 1
  }
}
layer {
  name: "inception_3b/pool_proj"
  type: "Convolution"
  bottom: "inception_3b/pool"
  top: "inception_3b/pool_proj"
  param {
    lr_mult: 1
    decay_mult: 1
  }
  param {
    lr_mult: 2
    decay_mult: 0
  }
  convolution_param {
    num_output: 64
    kernel_size: 1
    weight_filler {
      type: "xavier"
      std: 0.1
    }
    bias_filler {
      type: "constant"
      value: 0.2
    }
  }
}
layer {
  name: "inception_3b/relu_pool_proj"
  type: "ReLU"
  bottom: "inception_3b/pool_proj"
  top: "inception_3b/pool_proj"
}
layer {
  name: "inception_3b/output"
  type: "Concat"
  bottom: "inception_3b/1x1"
  bottom: "inception_3b/3x3"
  bottom: "inception_3b/5x5"
  bottom: "inception_3b/pool_proj"
  top: "inception_3b/output"
}
layer {
  name: "pool3/3x3_s2"
  type: "Pooling"
  bottom: "inception_3b/output"
  top: "pool3/3x3_s2"
  pooling_param {
    pool: MAX
    kernel_size: 3
    stride: 2
  }
}
layer {
  name: "inception_4a/1x1"
  type: "Convolution"
  bottom: "pool3/3x3_s2"
  top: "inception_4a/1x1"
  param {
    lr_mult: 1
    decay_mult: 1
  }
  param {
    lr_mult: 2
    decay_mult: 0
  }
  convolution_param {
    num_output: 192
    kernel_size: 1
    weight_filler {
      type: "xavier"
      std: 0.03
    }
    bias_filler {
      type: "constant"
      value: 0.2
    }
  }
}
layer {
  name: "inception_4a/relu_1x1"
  type: "ReLU"
  bottom: "inception_4a/1x1"
  top: "inception_4a/1x1"
}
layer {
  name: "inception_4a/3x3_reduce"
  type: "Convolution"
  bottom: "pool3/3x3_s2"
  top: "inception_4a/3x3_reduce"
  param {
    lr_mult: 1
    decay_mult: 1
  }
  param {
    lr_mult: 2
    decay_mult: 0
  }
  convolution_param {
    num_output: 96
    kernel_size: 1
    weight_filler {
      type: "xavier"
      std: 0.09
    }
    bias_filler {
      type: "constant"
      value: 0.2
    }
  }
}
layer {
  name: "inception_4a/relu_3x3_reduce"
  type: "ReLU"
  bottom: "inception_4a/3x3_reduce"
  top: "inception_4a/3x3_reduce"
}
layer {
  name: "inception_4a/3x3"
  type: "Convolution"
  bottom: "inception_4a/3x3_reduce"
  top: "inception_4a/3x3"
  param {
    lr_mult: 1
    decay_mult: 1
  }
  param {
    lr_mult: 2
    decay_mult: 0
  }
  convolution_param {
    num_output: 208
    pad: 1
    kernel_size: 3
    weight_filler {
      type: "xavier"
      std: 0.03
    }
    bias_filler {
      type: "constant"
      value: 0.2
    }
  }
}
layer {
  name: "inception_4a/relu_3x3"
  type: "ReLU"
  bottom: "inception_4a/3x3"
  top: "inception_4a/3x3"
}
layer {
  name: "inception_4a/5x5_reduce"
  type: "Convolution"
  bottom: "pool3/3x3_s2"
  top: "inception_4a/5x5_reduce"
  param {
    lr_mult: 1
    decay_mult: 1
  }
  param {
    lr_mult: 2
    decay_mult: 0
  }
  convolution_param {
    num_output: 16
    kernel_size: 1
    weight_filler {
      type: "xavier"
      std: 0.2
    }
    bias_filler {
      type: "constant"
      value: 0.2
    }
  }
}
layer {
  name: "inception_4a/relu_5x5_reduce"
  type: "ReLU"
  bottom: "inception_4a/5x5_reduce"
  top: "inception_4a/5x5_reduce"
}
layer {
  name: "inception_4a/5x5"
  type: "Convolution"
  bottom: "inception_4a/5x5_reduce"
  top: "inception_4a/5x5"
  param {
    lr_mult: 1
    decay_mult: 1
  }
  param {
    lr_mult: 2
    decay_mult: 0
  }
  convolution_param {
    num_output: 48
    pad: 2
    kernel_size: 5
    weight_filler {
      type: "xavier"
      std: 0.03
    }
    bias_filler {
      type: "constant"
      value: 0.2
    }
  }
}
layer {
  name: "inception_4a/relu_5x5"
  type: "ReLU"
  bottom: "inception_4a/5x5"
  top: "inception_4a/5x5"
}
layer {
  name: "inception_4a/pool"
  type: "Pooling"
  bottom: "pool3/3x3_s2"
  top: "inception_4a/pool"
  pooling_param {
    pool: MAX
    kernel_size: 3
    stride: 1
    pad: 1
  }
}
layer {
  name: "inception_4a/pool_proj"
  type: "Convolution"
  bottom: "inception_4a/pool"
  top: "inception_4a/pool_proj"
  param {
    lr_mult: 1
    decay_mult: 1
  }
  param {
    lr_mult: 2
    decay_mult: 0
  }
  convolution_param {
    num_output: 64
    kernel_size: 1
    weight_filler {
      type: "xavier"
      std: 0.1
    }
    bias_filler {
      type: "constant"
      value: 0.2
    }
  }
}
layer {
  name: "inception_4a/relu_pool_proj"
  type: "ReLU"
  bottom: "inception_4a/pool_proj"
  top: "inception_4a/pool_proj"
}
layer {
  name: "inception_4a/output"
  type: "Concat"
  bottom: "inception_4a/1x1"
  bottom: "inception_4a/3x3"
  bottom: "inception_4a/5x5"
  bottom: "inception_4a/pool_proj"
  top: "inception_4a/output"
}
layer {
  name: "loss1/ave_pool"
  type: "Pooling"
  bottom: "inception_4a/output"
  top: "loss1/ave_pool"
  pooling_param {
    pool: AVE
    kernel_size: 5
    stride: 3
  }
}
layer {
  name: "loss1/conv"
  type: "Convolution"
  bottom: "loss1/ave_pool"
  top: "loss1/conv"
  param {
    lr_mult: 1
    decay_mult: 1
  }
  param {
    lr_mult: 2
    decay_mult: 0
  }
  convolution_param {
    num_output: 128
    kernel_size: 1
    weight_filler {
      type: "xavier"
      std: 0.08
    }
    bias_filler {
      type: "constant"
      value: 0.2
    }
  }
}
layer {
  name: "loss1/relu_conv"
  type: "ReLU"
  bottom: "loss1/conv"
  top: "loss1/conv"
}
layer {
  name: "loss1/fc"
  type: "InnerProduct"
  bottom: "loss1/conv"
  top: "loss1/fc"
  param {
    lr_mult: 1
    decay_mult: 1
  }
  param {
    lr_mult: 2
    decay_mult: 0
  }
  inner_product_param {
    num_output: 1024
    weight_filler {
      type: "xavier"
      std: 0.02
    }
    bias_filler {
      type: "constant"
      value: 0.2
    }
  }
}
layer {
  name: "loss1/relu_fc"
  type: "ReLU"
  bottom: "loss1/fc"
  top: "loss1/fc"
}
layer {
  name: "loss1/drop_fc"
  type: "Dropout"
  bottom: "loss1/fc"
  top: "loss1/fc"
  dropout_param {
    dropout_ratio: 0.7
  }
}
layer {
  name: "loss1/classifier_plantvillage"
  type: "InnerProduct"
  bottom: "loss1/fc"
  top: "loss1/classifier_plantvillage"
  param {
    lr_mult: 1
    decay_mult: 1
  }
  param {
    lr_mult: 2
    decay_mult: 0
  }
  inner_product_param {
    num_output: 38
    weight_filler {
      type: "xavier"
      std: 0.0009765625
    }
    bias_filler {
      type: "constant"
      value: 0
    }
  }
}
layer {
  name: "inception_4b/1x1"
  type: "Convolution"
  bottom: "inception_4a/output"
  top: "inception_4b/1x1"
  param {
    lr_mult: 1
    decay_mult: 1
  }
  param {
    lr_mult: 2
    decay_mult: 0
  }
  convolution_param {
    num_output: 160
    kernel_size: 1
    weight_filler {
      type: "xavier"
      std: 0.03
    }
    bias_filler {
      type: "constant"
      value: 0.2
    }
  }
}
layer {
  name: "inception_4b/relu_1x1"
  type: "ReLU"
  bottom: "inception_4b/1x1"
  top: "inception_4b/1x1"
}
layer {
  name: "inception_4b/3x3_reduce"
  type: "Convolution"
  bottom: "inception_4a/output"
  top: "inception_4b/3x3_reduce"
  param {
    lr_mult: 1
    decay_mult: 1
  }
  param {
    lr_mult: 2
    decay_mult: 0
  }
  convolution_param {
    num_output: 112
    kernel_size: 1
    weight_filler {
      type: "xavier"
      std: 0.09
    }
    bias_filler {
      type: "constant"
      value: 0.2
    }
  }
}
layer {
  name: "inception_4b/relu_3x3_reduce"
  type: "ReLU"
  bottom: "inception_4b/3x3_reduce"
  top: "inception_4b/3x3_reduce"
}
layer {
  name: "inception_4b/3x3"
  type: "Convolution"
  bottom: "inception_4b/3x3_reduce"
  top: "inception_4b/3x3"
  param {
    lr_mult: 1
    decay_mult: 1
  }
  param {
    lr_mult: 2
    decay_mult: 0
  }
  convolution_param {
    num_output: 224
    pad: 1
    kernel_size: 3
    weight_filler {
      type: "xavier"
      std: 0.03
    }
    bias_filler {
      type: "constant"
      value: 0.2
    }
  }
}
layer {
  name: "inception_4b/relu_3x3"
  type: "ReLU"
  bottom: "inception_4b/3x3"
  top: "inception_4b/3x3"
}
layer {
  name: "inception_4b/5x5_reduce"
  type: "Convolution"
  bottom: "inception_4a/output"
  top: "inception_4b/5x5_reduce"
  param {
    lr_mult: 1
    decay_mult: 1
  }
  param {
    lr_mult: 2
    decay_mult: 0
  }
  convolution_param {
    num_output: 24
    kernel_size: 1
    weight_filler {
      type: "xavier"
      std: 0.2
    }
    bias_filler {
      type: "constant"
      value: 0.2
    }
  }
}
layer {
  name: "inception_4b/relu_5x5_reduce"
  type: "ReLU"
  bottom: "inception_4b/5x5_reduce"
  top: "inception_4b/5x5_reduce"
}
layer {
  name: "inception_4b/5x5"
  type: "Convolution"
  bottom: "inception_4b/5x5_reduce"
  top: "inception_4b/5x5"
  param {
    lr_mult: 1
    decay_mult: 1
  }
  param {
    lr_mult: 2
    decay_mult: 0
  }
  convolution_param {
    num_output: 64
    pad: 2
    kernel_size: 5
    weight_filler {
      type: "xavier"
      std: 0.03
    }
    bias_filler {
      type: "constant"
      value: 0.2
    }
  }
}
layer {
  name: "inception_4b/relu_5x5"
  type: "ReLU"
  bottom: "inception_4b/5x5"
  top: "inception_4b/5x5"
}
layer {
  name: "inception_4b/pool"
  type: "Pooling"
  bottom: "inception_4a/output"
  top: "inception_4b/pool"
  pooling_param {
    pool: MAX
    kernel_size: 3
    stride: 1
    pad: 1
  }
}
layer {
  name: "inception_4b/pool_proj"
  type: "Convolution"
  bottom: "inception_4b/pool"
  top: "inception_4b/pool_proj"
  param {
    lr_mult: 1
    decay_mult: 1
  }
  param {
    lr_mult: 2
    decay_mult: 0
  }
  convolution_param {
    num_output: 64
    kernel_size: 1
    weight_filler {
      type: "xavier"
      std: 0.1
    }
    bias_filler {
      type: "constant"
      value: 0.2
    }
  }
}
layer {
  name: "inception_4b/relu_pool_proj"
  type: "ReLU"
  bottom: "inception_4b/pool_proj"
  top: "inception_4b/pool_proj"
}
layer {
  name: "inception_4b/output"
  type: "Concat"
  bottom: "inception_4b/1x1"
  bottom: "inception_4b/3x3"
  bottom: "inception_4b/5x5"
  bottom: "inception_4b/pool_proj"
  top: "inception_4b/output"
}
layer {
  name: "inception_4c/1x1"
  type: "Convolution"
  bottom: "inception_4b/output"
  top: "inception_4c/1x1"
  param {
    lr_mult: 1
    decay_mult: 1
  }
  param {
    lr_mult: 2
    decay_mult: 0
  }
  convolution_param {
    num_output: 128
    kernel_size: 1
    weight_filler {
      type: "xavier"
      std: 0.03
    }
    bias_filler {
      type: "constant"
      value: 0.2
    }
  }
}
layer {
  name: "inception_4c/relu_1x1"
  type: "ReLU"
  bottom: "inception_4c/1x1"
  top: "inception_4c/1x1"
}
layer {
  name: "inception_4c/3x3_reduce"
  type: "Convolution"
  bottom: "inception_4b/output"
  top: "inception_4c/3x3_reduce"
  param {
    lr_mult: 1
    decay_mult: 1
  }
  param {
    lr_mult: 2
    decay_mult: 0
  }
  convolution_param {
    num_output: 128
    kernel_size: 1
    weight_filler {
      type: "xavier"
      std: 0.09
    }
    bias_filler {
      type: "constant"
      value: 0.2
    }
  }
}
layer {
  name: "inception_4c/relu_3x3_reduce"
  type: "ReLU"
  bottom: "inception_4c/3x3_reduce"
  top: "inception_4c/3x3_reduce"
}
layer {
  name: "inception_4c/3x3"
  type: "Convolution"
  bottom: "inception_4c/3x3_reduce"
  top: "inception_4c/3x3"
  param {
    lr_mult: 1
    decay_mult: 1
  }
  param {
    lr_mult: 2
    decay_mult: 0
  }
  convolution_param {
    num_output: 256
    pad: 1
    kernel_size: 3
    weight_filler {
      type: "xavier"
      std: 0.03
    }
    bias_filler {
      type: "constant"
      value: 0.2
    }
  }
}
layer {
  name: "inception_4c/relu_3x3"
  type: "ReLU"
  bottom: "inception_4c/3x3"
  top: "inception_4c/3x3"
}
layer {
  name: "inception_4c/5x5_reduce"
  type: "Convolution"
  bottom: "inception_4b/output"
  top: "inception_4c/5x5_reduce"
  param {
    lr_mult: 1
    decay_mult: 1
  }
  param {
    lr_mult: 2
    decay_mult: 0
  }
  convolution_param {
    num_output: 24
    kernel_size: 1
    weight_filler {
      type: "xavier"
      std: 0.2
    }
    bias_filler {
      type: "constant"
      value: 0.2
    }
  }
}
layer {
  name: "inception_4c/relu_5x5_reduce"
  type: "ReLU"
  bottom: "inception_4c/5x5_reduce"
  top: "inception_4c/5x5_reduce"
}
layer {
  name: "inception_4c/5x5"
  type: "Convolution"
  bottom: "inception_4c/5x5_reduce"
  top: "inception_4c/5x5"
  param {
    lr_mult: 1
    decay_mult: 1
  }
  param {
    lr_mult: 2
    decay_mult: 0
  }
  convolution_param {
    num_output: 64
    pad: 2
    kernel_size: 5
    weight_filler {
      type: "xavier"
      std: 0.03
    }
    bias_filler {
      type: "constant"
      value: 0.2
    }
  }
}
layer {
  name: "inception_4c/relu_5x5"
  type: "ReLU"
  bottom: "inception_4c/5x5"
  top: "inception_4c/5x5"
}
layer {
  name: "inception_4c/pool"
  type: "Pooling"
  bottom: "inception_4b/output"
  top: "inception_4c/pool"
  pooling_param {
    pool: MAX
    kernel_size: 3
    stride: 1
    pad: 1
  }
}
layer {
  name: "inception_4c/pool_proj"
  type: "Convolution"
  bottom: "inception_4c/pool"
  top: "inception_4c/pool_proj"
  param {
    lr_mult: 1
    decay_mult: 1
  }
  param {
    lr_mult: 2
    decay_mult: 0
  }
  convolution_param {
    num_output: 64
    kernel_size: 1
    weight_filler {
      type: "xavier"
      std: 0.1
    }
    bias_filler {
      type: "constant"
      value: 0.2
    }
  }
}
layer {
  name: "inception_4c/relu_pool_proj"
  type: "ReLU"
  bottom: "inception_4c/pool_proj"
  top: "inception_4c/pool_proj"
}
layer {
  name: "inception_4c/output"
  type: "Concat"
  bottom: "inception_4c/1x1"
  bottom: "inception_4c/3x3"
  bottom: "inception_4c/5x5"
  bottom: "inception_4c/pool_proj"
  top: "inception_4c/output"
}
layer {
  name: "inception_4d/1x1"
  type: "Convolution"
  bottom: "inception_4c/output"
  top: "inception_4d/1x1"
  param {
    lr_mult: 1
    decay_mult: 1
  }
  param {
    lr_mult: 2
    decay_mult: 0
  }
  convolution_param {
    num_output: 112
    kernel_size: 1
    weight_filler {
      type: "xavier"
      std: 0.03
    }
    bias_filler {
      type: "constant"
      value: 0.2
    }
  }
}
layer {
  name: "inception_4d/relu_1x1"
  type: "ReLU"
  bottom: "inception_4d/1x1"
  top: "inception_4d/1x1"
}
layer {
  name: "inception_4d/3x3_reduce"
  type: "Convolution"
  bottom: "inception_4c/output"
  top: "inception_4d/3x3_reduce"
  param {
    lr_mult: 1
    decay_mult: 1
  }
  param {
    lr_mult: 2
    decay_mult: 0
  }
  convolution_param {
    num_output: 144
    kernel_size: 1
    weight_filler {
      type: "xavier"
      std: 0.09
    }
    bias_filler {
      type: "constant"
      value: 0.2
    }
  }
}
layer {
  name: "inception_4d/relu_3x3_reduce"
  type: "ReLU"
  bottom: "inception_4d/3x3_reduce"
  top: "inception_4d/3x3_reduce"
}
layer {
  name: "inception_4d/3x3"
  type: "Convolution"
  bottom: "inception_4d/3x3_reduce"
  top: "inception_4d/3x3"
  param {
    lr_mult: 1
    decay_mult: 1
  }
  param {
    lr_mult: 2
    decay_mult: 0
  }
  convolution_param {
    num_output: 288
    pad: 1
    kernel_size: 3
    weight_filler {
      type: "xavier"
      std: 0.03
    }
    bias_filler {
      type: "constant"
      value: 0.2
    }
  }
}
layer {
  name: "inception_4d/relu_3x3"
  type: "ReLU"
  bottom: "inception_4d/3x3"
  top: "inception_4d/3x3"
}
layer {
  name: "inception_4d/5x5_reduce"
  type: "Convolution"
  bottom: "inception_4c/output"
  top: "inception_4d/5x5_reduce"
  param {
    lr_mult: 1
    decay_mult: 1
  }
  param {
    lr_mult: 2
    decay_mult: 0
  }
  convolution_param {
    num_output: 32
    kernel_size: 1
    weight_filler {
      type: "xavier"
      std: 0.2
    }
    bias_filler {
      type: "constant"
      value: 0.2
    }
  }
}
layer {
  name: "inception_4d/relu_5x5_reduce"
  type: "ReLU"
  bottom: "inception_4d/5x5_reduce"
  top: "inception_4d/5x5_reduce"
}
layer {
  name: "inception_4d/5x5"
  type: "Convolution"
  bottom: "inception_4d/5x5_reduce"
  top: "inception_4d/5x5"
  param {
    lr_mult: 1
    decay_mult: 1
  }
  param {
    lr_mult: 2
    decay_mult: 0
  }
  convolution_param {
    num_output: 64
    pad: 2
    kernel_size: 5
    weight_filler {
      type: "xavier"
      std: 0.03
    }
    bias_filler {
      type: "constant"
      value: 0.2
    }
  }
}
layer {
  name: "inception_4d/relu_5x5"
  type: "ReLU"
  bottom: "inception_4d/5x5"
  top: "inception_4d/5x5"
}
layer {
  name: "inception_4d/pool"
  type: "Pooling"
  bottom: "inception_4c/output"
  top: "inception_4d/pool"
  pooling_param {
    pool: MAX
    kernel_size: 3
    stride: 1
    pad: 1
  }
}
layer {
  name: "inception_4d/pool_proj"
  type: "Convolution"
  bottom: "inception_4d/pool"
  top: "inception_4d/pool_proj"
  param {
    lr_mult: 1
    decay_mult: 1
  }
  param {
    lr_mult: 2
    decay_mult: 0
  }
  convolution_param {
    num_output: 64
    kernel_size: 1
    weight_filler {
      type: "xavier"
      std: 0.1
    }
    bias_filler {
      type: "constant"
      value: 0.2
    }
  }
}
layer {
  name: "inception_4d/relu_pool_proj"
  type: "ReLU"
  bottom: "inception_4d/pool_proj"
  top: "inception_4d/pool_proj"
}
layer {
  name: "inception_4d/output"
  type: "Concat"
  bottom: "inception_4d/1x1"
  bottom: "inception_4d/3x3"
  bottom: "inception_4d/5x5"
  bottom: "inception_4d/pool_proj"
  top: "inception_4d/output"
}
layer {
  name: "loss2/ave_pool"
  type: "Pooling"
  bottom: "inception_4d/output"
  top: "loss2/ave_pool"
  pooling_param {
    pool: AVE
    kernel_size: 5
    stride: 3
  }
}
layer {
  name: "loss2/conv"
  type: "Convolution"
  bottom: "loss2/ave_pool"
  top: "loss2/conv"
  param {
    lr_mult: 1
    decay_mult: 1
  }
  param {
    lr_mult: 2
    decay_mult: 0
  }
  convolution_param {
    num_output: 128
    kernel_size: 1
    weight_filler {
      type: "xavier"
      std: 0.08
    }
    bias_filler {
      type: "constant"
      value: 0.2
    }
  }
}
layer {
  name: "loss2/relu_conv"
  type: "ReLU"
  bottom: "loss2/conv"
  top: "loss2/conv"
}
layer {
  name: "loss2/fc"
  type: "InnerProduct"
  bottom: "loss2/conv"
  top: "loss2/fc"
  param {
    lr_mult: 1
    decay_mult: 1
  }
  param {
    lr_mult: 2
    decay_mult: 0
  }
  inner_product_param {
    num_output: 1024
    weight_filler {
      type: "xavier"
      std: 0.02
    }
    bias_filler {
      type: "constant"
      value: 0.2
    }
  }
}
layer {
  name: "loss2/relu_fc"
  type: "ReLU"
  bottom: "loss2/fc"
  top: "loss2/fc"
}
layer {
  name: "loss2/drop_fc"
  type: "Dropout"
  bottom: "loss2/fc"
  top: "loss2/fc"
  dropout_param {
    dropout_ratio: 0.7
  }
}
layer {
  name: "loss2/classifier_plantvillage"
  type: "InnerProduct"
  bottom: "loss2/fc"
  top: "loss2/classifier_plantvillage"
  param {
    lr_mult: 1
    decay_mult: 1
  }
  param {
    lr_mult: 2
    decay_mult: 0
  }
  inner_product_param {
    num_output: 38
    weight_filler {
      type: "xavier"
      std: 0.0009765625
    }
    bias_filler {
      type: "constant"
      value: 0
    }
  }
}
layer {
  name: "inception_4e/1x1"
  type: "Convolution"
  bottom: "inception_4d/output"
  top: "inception_4e/1x1"
  param {
    lr_mult: 1
    decay_mult: 1
  }
  param {
    lr_mult: 2
    decay_mult: 0
  }
  convolution_param {
    num_output: 256
    kernel_size: 1
    weight_filler {
      type: "xavier"
      std: 0.03
    }
    bias_filler {
      type: "constant"
      value: 0.2
    }
  }
}
layer {
  name: "inception_4e/relu_1x1"
  type: "ReLU"
  bottom: "inception_4e/1x1"
  top: "inception_4e/1x1"
}
layer {
  name: "inception_4e/3x3_reduce"
  type: "Convolution"
  bottom: "inception_4d/output"
  top: "inception_4e/3x3_reduce"
  param {
    lr_mult: 1
    decay_mult: 1
  }
  param {
    lr_mult: 2
    decay_mult: 0
  }
  convolution_param {
    num_output: 160
    kernel_size: 1
    weight_filler {
      type: "xavier"
      std: 0.09
    }
    bias_filler {
      type: "constant"
      value: 0.2
    }
  }
}
layer {
  name: "inception_4e/relu_3x3_reduce"
  type: "ReLU"
  bottom: "inception_4e/3x3_reduce"
  top: "inception_4e/3x3_reduce"
}
layer {
  name: "inception_4e/3x3"
  type: "Convolution"
  bottom: "inception_4e/3x3_reduce"
  top: "inception_4e/3x3"
  param {
    lr_mult: 1
    decay_mult: 1
  }
  param {
    lr_mult: 2
    decay_mult: 0
  }
  convolution_param {
    num_output: 320
    pad: 1
    kernel_size: 3
    weight_filler {
      type: "xavier"
      std: 0.03
    }
    bias_filler {
      type: "constant"
      value: 0.2
    }
  }
}
layer {
  name: "inception_4e/relu_3x3"
  type: "ReLU"
  bottom: "inception_4e/3x3"
  top: "inception_4e/3x3"
}
layer {
  name: "inception_4e/5x5_reduce"
  type: "Convolution"
  bottom: "inception_4d/output"
  top: "inception_4e/5x5_reduce"
  param {
    lr_mult: 1
    decay_mult: 1
  }
  param {
    lr_mult: 2
    decay_mult: 0
  }
  convolution_param {
    num_output: 32
    kernel_size: 1
    weight_filler {
      type: "xavier"
      std: 0.2
    }
    bias_filler {
      type: "constant"
      value: 0.2
    }
  }
}
layer {
  name: "inception_4e/relu_5x5_reduce"
  type: "ReLU"
  bottom: "inception_4e/5x5_reduce"
  top: "inception_4e/5x5_reduce"
}
layer {
  name: "inception_4e/5x5"
  type: "Convolution"
  bottom: "inception_4e/5x5_reduce"
  top: "inception_4e/
I0403 15:03:46.681370 18163 layer_factory.hpp:77] Creating layer data
I0403 15:03:46.681982 18163 net.cpp:91] Creating Layer data
I0403 15:03:46.682010 18163 net.cpp:399] data -> data
I0403 15:03:46.682086 18163 net.cpp:399] data -> label
I0403 15:03:46.682123 18163 data_transformer.cpp:25] Loading mean file from: /home/mohanty/data/final_dataset/lmdb/grayscale-40-60/mean.binaryproto
I0403 15:03:46.685442 18168 db_lmdb.cpp:38] Opened lmdb /home/mohanty/data/final_dataset/lmdb/grayscale-40-60/test_db
I0403 15:03:46.695835 18163 data_layer.cpp:41] output data size: 24,3,224,224
I0403 15:03:46.725975 18163 net.cpp:141] Setting up data
I0403 15:03:46.726094 18163 net.cpp:148] Top shape: 24 3 224 224 (3612672)
I0403 15:03:46.726116 18163 net.cpp:148] Top shape: 24 (24)
I0403 15:03:46.726132 18163 net.cpp:156] Memory required for data: 14450784
I0403 15:03:46.726161 18163 layer_factory.hpp:77] Creating layer label_data_1_split
I0403 15:03:46.726187 18163 net.cpp:91] Creating Layer label_data_1_split
I0403 15:03:46.726207 18163 net.cpp:425] label_data_1_split <- label
I0403 15:03:46.726239 18163 net.cpp:399] label_data_1_split -> label_data_1_split_0
I0403 15:03:46.726269 18163 net.cpp:399] label_data_1_split -> label_data_1_split_1
I0403 15:03:46.726290 18163 net.cpp:399] label_data_1_split -> label_data_1_split_2
I0403 15:03:46.726311 18163 net.cpp:399] label_data_1_split -> label_data_1_split_3
I0403 15:03:46.726343 18163 net.cpp:399] label_data_1_split -> label_data_1_split_4
I0403 15:03:46.726363 18163 net.cpp:399] label_data_1_split -> label_data_1_split_5
I0403 15:03:46.726382 18163 net.cpp:399] label_data_1_split -> label_data_1_split_6
I0403 15:03:46.726402 18163 net.cpp:399] label_data_1_split -> label_data_1_split_7
I0403 15:03:46.726421 18163 net.cpp:399] label_data_1_split -> label_data_1_split_8
I0403 15:03:46.726441 18163 net.cpp:399] label_data_1_split -> label_data_1_split_9
I0403 15:03:46.726559 18163 net.cpp:141] Setting up label_data_1_split
I0403 15:03:46.726583 18163 net.cpp:148] Top shape: 24 (24)
I0403 15:03:46.726600 18163 net.cpp:148] Top shape: 24 (24)
I0403 15:03:46.726616 18163 net.cpp:148] Top shape: 24 (24)
I0403 15:03:46.726632 18163 net.cpp:148] Top shape: 24 (24)
I0403 15:03:46.726647 18163 net.cpp:148] Top shape: 24 (24)
I0403 15:03:46.726662 18163 net.cpp:148] Top shape: 24 (24)
I0403 15:03:46.726678 18163 net.cpp:148] Top shape: 24 (24)
I0403 15:03:46.726694 18163 net.cpp:148] Top shape: 24 (24)
I0403 15:03:46.726709 18163 net.cpp:148] Top shape: 24 (24)
I0403 15:03:46.726725 18163 net.cpp:148] Top shape: 24 (24)
I0403 15:03:46.726768 18163 net.cpp:156] Memory required for data: 14451744
I0403 15:03:46.726784 18163 layer_factory.hpp:77] Creating layer conv1/7x7_s2
I0403 15:03:46.726815 18163 net.cpp:91] Creating Layer conv1/7x7_s2
I0403 15:03:46.726833 18163 net.cpp:425] conv1/7x7_s2 <- data
I0403 15:03:46.726853 18163 net.cpp:399] conv1/7x7_s2 -> conv1/7x7_s2
I0403 15:03:46.871685 18163 net.cpp:141] Setting up conv1/7x7_s2
I0403 15:03:46.871772 18163 net.cpp:148] Top shape: 24 64 112 112 (19267584)
I0403 15:03:46.871790 18163 net.cpp:156] Memory required for data: 91522080
I0403 15:03:46.871822 18163 layer_factory.hpp:77] Creating layer conv1/relu_7x7
I0403 15:03:46.871850 18163 net.cpp:91] Creating Layer conv1/relu_7x7
I0403 15:03:46.871868 18163 net.cpp:425] conv1/relu_7x7 <- conv1/7x7_s2
I0403 15:03:46.871888 18163 net.cpp:386] conv1/relu_7x7 -> conv1/7x7_s2 (in-place)
I0403 15:03:46.872239 18163 net.cpp:141] Setting up conv1/relu_7x7
I0403 15:03:46.872270 18163 net.cpp:148] Top shape: 24 64 112 112 (19267584)
I0403 15:03:46.872287 18163 net.cpp:156] Memory required for data: 168592416
I0403 15:03:46.872303 18163 layer_factory.hpp:77] Creating layer pool1/3x3_s2
I0403 15:03:46.872328 18163 net.cpp:91] Creating Layer pool1/3x3_s2
I0403 15:03:46.872346 18163 net.cpp:425] pool1/3x3_s2 <- conv1/7x7_s2
I0403 15:03:46.872369 18163 net.cpp:399] pool1/3x3_s2 -> pool1/3x3_s2
I0403 15:03:46.872453 18163 net.cpp:141] Setting up pool1/3x3_s2
I0403 15:03:46.872479 18163 net.cpp:148] Top shape: 24 64 56 56 (4816896)
I0403 15:03:46.872494 18163 net.cpp:156] Memory required for data: 187860000
I0403 15:03:46.872510 18163 layer_factory.hpp:77] Creating layer pool1/norm1
I0403 15:03:46.872537 18163 net.cpp:91] Creating Layer pool1/norm1
I0403 15:03:46.872558 18163 net.cpp:425] pool1/norm1 <- pool1/3x3_s2
I0403 15:03:46.872577 18163 net.cpp:399] pool1/norm1 -> pool1/norm1
I0403 15:03:46.872895 18163 net.cpp:141] Setting up pool1/norm1
I0403 15:03:46.872926 18163 net.cpp:148] Top shape: 24 64 56 56 (4816896)
I0403 15:03:46.872943 18163 net.cpp:156] Memory required for data: 207127584
I0403 15:03:46.872964 18163 layer_factory.hpp:77] Creating layer conv2/3x3_reduce
I0403 15:03:46.872993 18163 net.cpp:91] Creating Layer conv2/3x3_reduce
I0403 15:03:46.873013 18163 net.cpp:425] conv2/3x3_reduce <- pool1/norm1
I0403 15:03:46.873034 18163 net.cpp:399] conv2/3x3_reduce -> conv2/3x3_reduce
I0403 15:03:46.874570 18163 net.cpp:141] Setting up conv2/3x3_reduce
I0403 15:03:46.874600 18163 net.cpp:148] Top shape: 24 64 56 56 (4816896)
I0403 15:03:46.874617 18163 net.cpp:156] Memory required for data: 226395168
I0403 15:03:46.874639 18163 layer_factory.hpp:77] Creating layer conv2/relu_3x3_reduce
I0403 15:03:46.874661 18163 net.cpp:91] Creating Layer conv2/relu_3x3_reduce
I0403 15:03:46.874680 18163 net.cpp:425] conv2/relu_3x3_reduce <- conv2/3x3_reduce
I0403 15:03:46.874698 18163 net.cpp:386] conv2/relu_3x3_reduce -> conv2/3x3_reduce (in-place)
I0403 15:03:46.874984 18163 net.cpp:141] Setting up conv2/relu_3x3_reduce
I0403 15:03:46.875010 18163 net.cpp:148] Top shape: 24 64 56 56 (4816896)
I0403 15:03:46.875026 18163 net.cpp:156] Memory required for data: 245662752
I0403 15:03:46.875042 18163 layer_factory.hpp:77] Creating layer conv2/3x3
I0403 15:03:46.875067 18163 net.cpp:91] Creating Layer conv2/3x3
I0403 15:03:46.875085 18163 net.cpp:425] conv2/3x3 <- conv2/3x3_reduce
I0403 15:03:46.875108 18163 net.cpp:399] conv2/3x3 -> conv2/3x3
I0403 15:03:46.877563 18163 net.cpp:141] Setting up conv2/3x3
I0403 15:03:46.877595 18163 net.cpp:148] Top shape: 24 192 56 56 (14450688)
I0403 15:03:46.877614 18163 net.cpp:156] Memory required for data: 303465504
I0403 15:03:46.877635 18163 layer_factory.hpp:77] Creating layer conv2/relu_3x3
I0403 15:03:46.877658 18163 net.cpp:91] Creating Layer conv2/relu_3x3
I0403 15:03:46.877676 18163 net.cpp:425] conv2/relu_3x3 <- conv2/3x3
I0403 15:03:46.877694 18163 net.cpp:386] conv2/relu_3x3 -> conv2/3x3 (in-place)
I0403 15:03:46.877885 18163 net.cpp:141] Setting up conv2/relu_3x3
I0403 15:03:46.877914 18163 net.cpp:148] Top shape: 24 192 56 56 (14450688)
I0403 15:03:46.877966 18163 net.cpp:156] Memory required for data: 361268256
I0403 15:03:46.877984 18163 layer_factory.hpp:77] Creating layer conv2/norm2
I0403 15:03:46.878003 18163 net.cpp:91] Creating Layer conv2/norm2
I0403 15:03:46.878021 18163 net.cpp:425] conv2/norm2 <- conv2/3x3
I0403 15:03:46.878042 18163 net.cpp:399] conv2/norm2 -> conv2/norm2
I0403 15:03:46.878377 18163 net.cpp:141] Setting up conv2/norm2
I0403 15:03:46.878406 18163 net.cpp:148] Top shape: 24 192 56 56 (14450688)
I0403 15:03:46.878422 18163 net.cpp:156] Memory required for data: 419071008
I0403 15:03:46.878437 18163 layer_factory.hpp:77] Creating layer pool2/3x3_s2
I0403 15:03:46.878456 18163 net.cpp:91] Creating Layer pool2/3x3_s2
I0403 15:03:46.878473 18163 net.cpp:425] pool2/3x3_s2 <- conv2/norm2
I0403 15:03:46.878506 18163 net.cpp:399] pool2/3x3_s2 -> pool2/3x3_s2
I0403 15:03:46.878566 18163 net.cpp:141] Setting up pool2/3x3_s2
I0403 15:03:46.878589 18163 net.cpp:148] Top shape: 24 192 28 28 (3612672)
I0403 15:03:46.878604 18163 net.cpp:156] Memory required for data: 433521696
I0403 15:03:46.878619 18163 layer_factory.hpp:77] Creating layer pool2/3x3_s2_pool2/3x3_s2_0_split
I0403 15:03:46.878640 18163 net.cpp:91] Creating Layer pool2/3x3_s2_pool2/3x3_s2_0_split
I0403 15:03:46.878657 18163 net.cpp:425] pool2/3x3_s2_pool2/3x3_s2_0_split <- pool2/3x3_s2
I0403 15:03:46.878679 18163 net.cpp:399] pool2/3x3_s2_pool2/3x3_s2_0_split -> pool2/3x3_s2_pool2/3x3_s2_0_split_0
I0403 15:03:46.878701 18163 net.cpp:399] pool2/3x3_s2_pool2/3x3_s2_0_split -> pool2/3x3_s2_pool2/3x3_s2_0_split_1
I0403 15:03:46.878722 18163 net.cpp:399] pool2/3x3_s2_pool2/3x3_s2_0_split -> pool2/3x3_s2_pool2/3x3_s2_0_split_2
I0403 15:03:46.878742 18163 net.cpp:399] pool2/3x3_s2_pool2/3x3_s2_0_split -> pool2/3x3_s2_pool2/3x3_s2_0_split_3
I0403 15:03:46.878818 18163 net.cpp:141] Setting up pool2/3x3_s2_pool2/3x3_s2_0_split
I0403 15:03:46.878842 18163 net.cpp:148] Top shape: 24 192 28 28 (3612672)
I0403 15:03:46.878859 18163 net.cpp:148] Top shape: 24 192 28 28 (3612672)
I0403 15:03:46.878876 18163 net.cpp:148] Top shape: 24 192 28 28 (3612672)
I0403 15:03:46.878892 18163 net.cpp:148] Top shape: 24 192 28 28 (3612672)
I0403 15:03:46.878906 18163 net.cpp:156] Memory required for data: 491324448
I0403 15:03:46.878922 18163 layer_factory.hpp:77] Creating layer inception_3a/1x1
I0403 15:03:46.878945 18163 net.cpp:91] Creating Layer inception_3a/1x1
I0403 15:03:46.878978 18163 net.cpp:425] inception_3a/1x1 <- pool2/3x3_s2_pool2/3x3_s2_0_split_0
I0403 15:03:46.879001 18163 net.cpp:399] inception_3a/1x1 -> inception_3a/1x1
I0403 15:03:46.880611 18163 net.cpp:141] Setting up inception_3a/1x1
I0403 15:03:46.880641 18163 net.cpp:148] Top shape: 24 64 28 28 (1204224)
I0403 15:03:46.880658 18163 net.cpp:156] Memory required for data: 496141344
I0403 15:03:46.880678 18163 layer_factory.hpp:77] Creating layer inception_3a/relu_1x1
I0403 15:03:46.880700 18163 net.cpp:91] Creating Layer inception_3a/relu_1x1
I0403 15:03:46.880718 18163 net.cpp:425] inception_3a/relu_1x1 <- inception_3a/1x1
I0403 15:03:46.880736 18163 net.cpp:386] inception_3a/relu_1x1 -> inception_3a/1x1 (in-place)
I0403 15:03:46.880918 18163 net.cpp:141] Setting up inception_3a/relu_1x1
I0403 15:03:46.880944 18163 net.cpp:148] Top shape: 24 64 28 28 (1204224)
I0403 15:03:46.880965 18163 net.cpp:156] Memory required for data: 500958240
I0403 15:03:46.880980 18163 layer_factory.hpp:77] Creating layer inception_3a/3x3_reduce
I0403 15:03:46.881006 18163 net.cpp:91] Creating Layer inception_3a/3x3_reduce
I0403 15:03:46.881024 18163 net.cpp:425] inception_3a/3x3_reduce <- pool2/3x3_s2_pool2/3x3_s2_0_split_1
I0403 15:03:46.881044 18163 net.cpp:399] inception_3a/3x3_reduce -> inception_3a/3x3_reduce
I0403 15:03:46.882807 18163 net.cpp:141] Setting up inception_3a/3x3_reduce
I0403 15:03:46.882838 18163 net.cpp:148] Top shape: 24 96 28 28 (1806336)
I0403 15:03:46.882855 18163 net.cpp:156] Memory required for data: 508183584
I0403 15:03:46.882877 18163 layer_factory.hpp:77] Creating layer inception_3a/relu_3x3_reduce
I0403 15:03:46.882917 18163 net.cpp:91] Creating Layer inception_3a/relu_3x3_reduce
I0403 15:03:46.882937 18163 net.cpp:425] inception_3a/relu_3x3_reduce <- inception_3a/3x3_reduce
I0403 15:03:46.882961 18163 net.cpp:386] inception_3a/relu_3x3_reduce -> inception_3a/3x3_reduce (in-place)
I0403 15:03:46.883160 18163 net.cpp:141] Setting up inception_3a/relu_3x3_reduce
I0403 15:03:46.883188 18163 net.cpp:148] Top shape: 24 96 28 28 (1806336)
I0403 15:03:46.883203 18163 net.cpp:156] Memory required for data: 515408928
I0403 15:03:46.883220 18163 layer_factory.hpp:77] Creating layer inception_3a/3x3
I0403 15:03:46.883244 18163 net.cpp:91] Creating Layer inception_3a/3x3
I0403 15:03:46.883263 18163 net.cpp:425] inception_3a/3x3 <- inception_3a/3x3_reduce
I0403 15:03:46.883287 18163 net.cpp:399] inception_3a/3x3 -> inception_3a/3x3
I0403 15:03:46.885025 18163 net.cpp:141] Setting up inception_3a/3x3
I0403 15:03:46.885054 18163 net.cpp:148] Top shape: 24 128 28 28 (2408448)
I0403 15:03:46.885071 18163 net.cpp:156] Memory required for data: 525042720
I0403 15:03:46.885092 18163 layer_factory.hpp:77] Creating layer inception_3a/relu_3x3
I0403 15:03:46.885113 18163 net.cpp:91] Creating Layer inception_3a/relu_3x3
I0403 15:03:46.885130 18163 net.cpp:425] inception_3a/relu_3x3 <- inception_3a/3x3
I0403 15:03:46.885149 18163 net.cpp:386] inception_3a/relu_3x3 -> inception_3a/3x3 (in-place)
I0403 15:03:46.885434 18163 net.cpp:141] Setting up inception_3a/relu_3x3
I0403 15:03:46.885462 18163 net.cpp:148] Top shape: 24 128 28 28 (2408448)
I0403 15:03:46.885478 18163 net.cpp:156] Memory required for data: 534676512
I0403 15:03:46.885494 18163 layer_factory.hpp:77] Creating layer inception_3a/5x5_reduce
I0403 15:03:46.885519 18163 net.cpp:91] Creating Layer inception_3a/5x5_reduce
I0403 15:03:46.885537 18163 net.cpp:425] inception_3a/5x5_reduce <- pool2/3x3_s2_pool2/3x3_s2_0_split_2
I0403 15:03:46.885560 18163 net.cpp:399] inception_3a/5x5_reduce -> inception_3a/5x5_reduce
I0403 15:03:46.886562 18163 net.cpp:141] Setting up inception_3a/5x5_reduce
I0403 15:03:46.886595 18163 net.cpp:148] Top shape: 24 16 28 28 (301056)
I0403 15:03:46.886612 18163 net.cpp:156] Memory required for data: 535880736
I0403 15:03:46.886632 18163 layer_factory.hpp:77] Creating layer inception_3a/relu_5x5_reduce
I0403 15:03:46.886651 18163 net.cpp:91] Creating Layer inception_3a/relu_5x5_reduce
I0403 15:03:46.886667 18163 net.cpp:425] inception_3a/relu_5x5_reduce <- inception_3a/5x5_reduce
I0403 15:03:46.886685 18163 net.cpp:386] inception_3a/relu_5x5_reduce -> inception_3a/5x5_reduce (in-place)
I0403 15:03:46.887003 18163 net.cpp:141] Setting up inception_3a/relu_5x5_reduce
I0403 15:03:46.887033 18163 net.cpp:148] Top shape: 24 16 28 28 (301056)
I0403 15:03:46.887050 18163 net.cpp:156] Memory required for data: 537084960
I0403 15:03:46.887066 18163 layer_factory.hpp:77] Creating layer inception_3a/5x5
I0403 15:03:46.887090 18163 net.cpp:91] Creating Layer inception_3a/5x5
I0403 15:03:46.887109 18163 net.cpp:425] inception_3a/5x5 <- inception_3a/5x5_reduce
I0403 15:03:46.887130 18163 net.cpp:399] inception_3a/5x5 -> inception_3a/5x5
I0403 15:03:46.888229 18163 net.cpp:141] Setting up inception_3a/5x5
I0403 15:03:46.888257 18163 net.cpp:148] Top shape: 24 32 28 28 (602112)
I0403 15:03:46.888273 18163 net.cpp:156] Memory required for data: 539493408
I0403 15:03:46.888291 18163 layer_factory.hpp:77] Creating layer inception_3a/relu_5x5
I0403 15:03:46.888312 18163 net.cpp:91] Creating Layer inception_3a/relu_5x5
I0403 15:03:46.888329 18163 net.cpp:425] inception_3a/relu_5x5 <- inception_3a/5x5
I0403 15:03:46.888346 18163 net.cpp:386] inception_3a/relu_5x5 -> inception_3a/5x5 (in-place)
I0403 15:03:46.888521 18163 net.cpp:141] Setting up inception_3a/relu_5x5
I0403 15:03:46.888547 18163 net.cpp:148] Top shape: 24 32 28 28 (602112)
I0403 15:03:46.888562 18163 net.cpp:156] Memory required for data: 541901856
I0403 15:03:46.888577 18163 layer_factory.hpp:77] Creating layer inception_3a/pool
I0403 15:03:46.888598 18163 net.cpp:91] Creating Layer inception_3a/pool
I0403 15:03:46.888629 18163 net.cpp:425] inception_3a/pool <- pool2/3x3_s2_pool2/3x3_s2_0_split_3
I0403 15:03:46.888650 18163 net.cpp:399] inception_3a/pool -> inception_3a/pool
I0403 15:03:46.888710 18163 net.cpp:141] Setting up inception_3a/pool
I0403 15:03:46.888734 18163 net.cpp:148] Top shape: 24 192 28 28 (3612672)
I0403 15:03:46.888749 18163 net.cpp:156] Memory required for data: 556352544
I0403 15:03:46.888764 18163 layer_factory.hpp:77] Creating layer inception_3a/pool_proj
I0403 15:03:46.888787 18163 net.cpp:91] Creating Layer inception_3a/pool_proj
I0403 15:03:46.888804 18163 net.cpp:425] inception_3a/pool_proj <- inception_3a/pool
I0403 15:03:46.888825 18163 net.cpp:399] inception_3a/pool_proj -> inception_3a/pool_proj
I0403 15:03:46.889814 18163 net.cpp:141] Setting up inception_3a/pool_proj
I0403 15:03:46.889843 18163 net.cpp:148] Top shape: 24 32 28 28 (602112)
I0403 15:03:46.889859 18163 net.cpp:156] Memory required for data: 558760992
I0403 15:03:46.889885 18163 layer_factory.hpp:77] Creating layer inception_3a/relu_pool_proj
I0403 15:03:46.889905 18163 net.cpp:91] Creating Layer inception_3a/relu_pool_proj
I0403 15:03:46.889921 18163 net.cpp:425] inception_3a/relu_pool_proj <- inception_3a/pool_proj
I0403 15:03:46.889940 18163 net.cpp:386] inception_3a/relu_pool_proj -> inception_3a/pool_proj (in-place)
I0403 15:03:46.890223 18163 net.cpp:141] Setting up inception_3a/relu_pool_proj
I0403 15:03:46.890249 18163 net.cpp:148] Top shape: 24 32 28 28 (602112)
I0403 15:03:46.890265 18163 net.cpp:156] Memory required for data: 561169440
I0403 15:03:46.890280 18163 layer_factory.hpp:77] Creating layer inception_3a/output
I0403 15:03:46.890301 18163 net.cpp:91] Creating Layer inception_3a/output
I0403 15:03:46.890318 18163 net.cpp:425] inception_3a/output <- inception_3a/1x1
I0403 15:03:46.890334 18163 net.cpp:425] inception_3a/output <- inception_3a/3x3
I0403 15:03:46.890352 18163 net.cpp:425] inception_3a/output <- inception_3a/5x5
I0403 15:03:46.890367 18163 net.cpp:425] inception_3a/output <- inception_3a/pool_proj
I0403 15:03:46.890384 18163 net.cpp:399] inception_3a/output -> inception_3a/output
I0403 15:03:46.890434 18163 net.cpp:141] Setting up inception_3a/output
I0403 15:03:46.890458 18163 net.cpp:148] Top shape: 24 256 28 28 (4816896)
I0403 15:03:46.890473 18163 net.cpp:156] Memory required for data: 580437024
I0403 15:03:46.890487 18163 layer_factory.hpp:77] Creating layer inception_3a/output_inception_3a/output_0_split
I0403 15:03:46.890506 18163 net.cpp:91] Creating Layer inception_3a/output_inception_3a/output_0_split
I0403 15:03:46.890522 18163 net.cpp:425] inception_3a/output_inception_3a/output_0_split <- inception_3a/output
I0403 15:03:46.890542 18163 net.cpp:399] inception_3a/output_inception_3a/output_0_split -> inception_3a/output_inception_3a/output_0_split_0
I0403 15:03:46.890563 18163 net.cpp:399] inception_3a/output_inception_3a/output_0_split -> inception_3a/output_inception_3a/output_0_split_1
I0403 15:03:46.890585 18163 net.cpp:399] inception_3a/output_inception_3a/output_0_split -> inception_3a/output_inception_3a/output_0_split_2
I0403 15:03:46.890607 18163 net.cpp:399] inception_3a/output_inception_3a/output_0_split -> inception_3a/output_inception_3a/output_0_split_3
I0403 15:03:46.890686 18163 net.cpp:141] Setting up inception_3a/output_inception_3a/output_0_split
I0403 15:03:46.890708 18163 net.cpp:148] Top shape: 24 256 28 28 (4816896)
I0403 15:03:46.890725 18163 net.cpp:148] Top shape: 24 256 28 28 (4816896)
I0403 15:03:46.890741 18163 net.cpp:148] Top shape: 24 256 28 28 (4816896)
I0403 15:03:46.890756 18163 net.cpp:148] Top shape: 24 256 28 28 (4816896)
I0403 15:03:46.890770 18163 net.cpp:156] Memory required for data: 657507360
I0403 15:03:46.890784 18163 layer_factory.hpp:77] Creating layer inception_3b/1x1
I0403 15:03:46.890807 18163 net.cpp:91] Creating Layer inception_3b/1x1
I0403 15:03:46.890825 18163 net.cpp:425] inception_3b/1x1 <- inception_3a/output_inception_3a/output_0_split_0
I0403 15:03:46.890846 18163 net.cpp:399] inception_3b/1x1 -> inception_3b/1x1
I0403 15:03:46.892010 18163 net.cpp:141] Setting up inception_3b/1x1
I0403 15:03:46.892050 18163 net.cpp:148] Top shape: 24 128 28 28 (2408448)
I0403 15:03:46.892067 18163 net.cpp:156] Memory required for data: 667141152
I0403 15:03:46.892086 18163 layer_factory.hpp:77] Creating layer inception_3b/relu_1x1
I0403 15:03:46.892104 18163 net.cpp:91] Creating Layer inception_3b/relu_1x1
I0403 15:03:46.892122 18163 net.cpp:425] inception_3b/relu_1x1 <- inception_3b/1x1
I0403 15:03:46.892143 18163 net.cpp:386] inception_3b/relu_1x1 -> inception_3b/1x1 (in-place)
I0403 15:03:46.892321 18163 net.cpp:141] Setting up inception_3b/relu_1x1
I0403 15:03:46.892346 18163 net.cpp:148] Top shape: 24 128 28 28 (2408448)
I0403 15:03:46.892360 18163 net.cpp:156] Memory required for data: 676774944
I0403 15:03:46.892375 18163 layer_factory.hpp:77] Creating layer inception_3b/3x3_reduce
I0403 15:03:46.892398 18163 net.cpp:91] Creating Layer inception_3b/3x3_reduce
I0403 15:03:46.892416 18163 net.cpp:425] inception_3b/3x3_reduce <- inception_3a/output_inception_3a/output_0_split_1
I0403 15:03:46.892438 18163 net.cpp:399] inception_3b/3x3_reduce -> inception_3b/3x3_reduce
I0403 15:03:46.893606 18163 net.cpp:141] Setting up inception_3b/3x3_reduce
I0403 15:03:46.893635 18163 net.cpp:148] Top shape: 24 128 28 28 (2408448)
I0403 15:03:46.893651 18163 net.cpp:156] Memory required for data: 686408736
I0403 15:03:46.893669 18163 layer_factory.hpp:77] Creating layer inception_3b/relu_3x3_reduce
I0403 15:03:46.893692 18163 net.cpp:91] Creating Layer inception_3b/relu_3x3_reduce
I0403 15:03:46.893708 18163 net.cpp:425] inception_3b/relu_3x3_reduce <- inception_3b/3x3_reduce
I0403 15:03:46.893726 18163 net.cpp:386] inception_3b/relu_3x3_reduce -> inception_3b/3x3_reduce (in-place)
I0403 15:03:46.893919 18163 net.cpp:141] Setting up inception_3b/relu_3x3_reduce
I0403 15:03:46.893945 18163 net.cpp:148] Top shape: 24 128 28 28 (2408448)
I0403 15:03:46.893965 18163 net.cpp:156] Memory required for data: 696042528
I0403 15:03:46.893981 18163 layer_factory.hpp:77] Creating layer inception_3b/3x3
I0403 15:03:46.894009 18163 net.cpp:91] Creating Layer inception_3b/3x3
I0403 15:03:46.894029 18163 net.cpp:425] inception_3b/3x3 <- inception_3b/3x3_reduce
I0403 15:03:46.894060 18163 net.cpp:399] inception_3b/3x3 -> inception_3b/3x3
I0403 15:03:46.897200 18163 net.cpp:141] Setting up inception_3b/3x3
I0403 15:03:46.897231 18163 net.cpp:148] Top shape: 24 192 28 28 (3612672)
I0403 15:03:46.897248 18163 net.cpp:156] Memory required for data: 710493216
I0403 15:03:46.897266 18163 layer_factory.hpp:77] Creating layer inception_3b/relu_3x3
I0403 15:03:46.897289 18163 net.cpp:91] Creating Layer inception_3b/relu_3x3
I0403 15:03:46.897305 18163 net.cpp:425] inception_3b/relu_3x3 <- inception_3b/3x3
I0403 15:03:46.897325 18163 net.cpp:386] inception_3b/relu_3x3 -> inception_3b/3x3 (in-place)
I0403 15:03:46.897644 18163 net.cpp:141] Setting up inception_3b/relu_3x3
I0403 15:03:46.897672 18163 net.cpp:148] Top shape: 24 192 28 28 (3612672)
I0403 15:03:46.897691 18163 net.cpp:156] Memory required for data: 724943904
I0403 15:03:46.897706 18163 layer_factory.hpp:77] Creating layer inception_3b/5x5_reduce
I0403 15:03:46.897730 18163 net.cpp:91] Creating Layer inception_3b/5x5_reduce
I0403 15:03:46.897748 18163 net.cpp:425] inception_3b/5x5_reduce <- inception_3a/output_inception_3a/output_0_split_2
I0403 15:03:46.897774 18163 net.cpp:399] inception_3b/5x5_reduce -> inception_3b/5x5_reduce
I0403 15:03:46.898843 18163 net.cpp:141] Setting up inception_3b/5x5_reduce
I0403 15:03:46.898871 18163 net.cpp:148] Top shape: 24 32 28 28 (602112)
I0403 15:03:46.898886 18163 net.cpp:156] Memory required for data: 727352352
I0403 15:03:46.898905 18163 layer_factory.hpp:77] Creating layer inception_3b/relu_5x5_reduce
I0403 15:03:46.898926 18163 net.cpp:91] Creating Layer inception_3b/relu_5x5_reduce
I0403 15:03:46.898943 18163 net.cpp:425] inception_3b/relu_5x5_reduce <- inception_3b/5x5_reduce
I0403 15:03:46.898972 18163 net.cpp:386] inception_3b/relu_5x5_reduce -> inception_3b/5x5_reduce (in-place)
I0403 15:03:46.899183 18163 net.cpp:141] Setting up inception_3b/relu_5x5_reduce
I0403 15:03:46.899212 18163 net.cpp:148] Top shape: 24 32 28 28 (602112)
I0403 15:03:46.899229 18163 net.cpp:156] Memory required for data: 729760800
I0403 15:03:46.899245 18163 layer_factory.hpp:77] Creating layer inception_3b/5x5
I0403 15:03:46.899267 18163 net.cpp:91] Creating Layer inception_3b/5x5
I0403 15:03:46.899286 18163 net.cpp:425] inception_3b/5x5 <- inception_3b/5x5_reduce
I0403 15:03:46.899304 18163 net.cpp:399] inception_3b/5x5 -> inception_3b/5x5
I0403 15:03:46.901376 18163 net.cpp:141] Setting up inception_3b/5x5
I0403 15:03:46.901406 18163 net.cpp:148] Top shape: 24 96 28 28 (1806336)
I0403 15:03:46.901422 18163 net.cpp:156] Memory required for data: 736986144
I0403 15:03:46.901440 18163 layer_factory.hpp:77] Creating layer inception_3b/relu_5x5
I0403 15:03:46.901475 18163 net.cpp:91] Creating Layer inception_3b/relu_5x5
I0403 15:03:46.901494 18163 net.cpp:425] inception_3b/relu_5x5 <- inception_3b/5x5
I0403 15:03:46.901510 18163 net.cpp:386] inception_3b/relu_5x5 -> inception_3b/5x5 (in-place)
I0403 15:03:46.901705 18163 net.cpp:141] Setting up inception_3b/relu_5x5
I0403 15:03:46.901742 18163 net.cpp:148] Top shape: 24 96 28 28 (1806336)
I0403 15:03:46.901757 18163 net.cpp:156] Memory required for data: 744211488
I0403 15:03:46.901772 18163 layer_factory.hpp:77] Creating layer inception_3b/pool
I0403 15:03:46.901792 18163 net.cpp:91] Creating Layer inception_3b/pool
I0403 15:03:46.901808 18163 net.cpp:425] inception_3b/pool <- inception_3a/output_inception_3a/output_0_split_3
I0403 15:03:46.901826 18163 net.cpp:399] inception_3b/pool -> inception_3b/pool
I0403 15:03:46.901888 18163 net.cpp:141] Setting up inception_3b/pool
I0403 15:03:46.901913 18163 net.cpp:148] Top shape: 24 256 28 28 (4816896)
I0403 15:03:46.901928 18163 net.cpp:156] Memory required for data: 763479072
I0403 15:03:46.901942 18163 layer_factory.hpp:77] Creating layer inception_3b/pool_proj
I0403 15:03:46.901971 18163 net.cpp:91] Creating Layer inception_3b/pool_proj
I0403 15:03:46.901990 18163 net.cpp:425] inception_3b/pool_proj <- inception_3b/pool
I0403 15:03:46.902011 18163 net.cpp:399] inception_3b/pool_proj -> inception_3b/pool_proj
I0403 15:03:46.903136 18163 net.cpp:141] Setting up inception_3b/pool_proj
I0403 15:03:46.903167 18163 net.cpp:148] Top shape: 24 64 28 28 (1204224)
I0403 15:03:46.903185 18163 net.cpp:156] Memory required for data: 768295968
I0403 15:03:46.903204 18163 layer_factory.hpp:77] Creating layer inception_3b/relu_pool_proj
I0403 15:03:46.903226 18163 net.cpp:91] Creating Layer inception_3b/relu_pool_proj
I0403 15:03:46.903242 18163 net.cpp:425] inception_3b/relu_pool_proj <- inception_3b/pool_proj
I0403 15:03:46.903264 18163 net.cpp:386] inception_3b/relu_pool_proj -> inception_3b/pool_proj (in-place)
I0403 15:03:46.903673 18163 net.cpp:141] Setting up inception_3b/relu_pool_proj
I0403 15:03:46.903703 18163 net.cpp:148] Top shape: 24 64 28 28 (1204224)
I0403 15:03:46.903720 18163 net.cpp:156] Memory required for data: 773112864
I0403 15:03:46.903736 18163 layer_factory.hpp:77] Creating layer inception_3b/output
I0403 15:03:46.903754 18163 net.cpp:91] Creating Layer inception_3b/output
I0403 15:03:46.903769 18163 net.cpp:425] inception_3b/output <- inception_3b/1x1
I0403 15:03:46.903787 18163 net.cpp:425] inception_3b/output <- inception_3b/3x3
I0403 15:03:46.903805 18163 net.cpp:425] inception_3b/output <- inception_3b/5x5
I0403 15:03:46.903821 18163 net.cpp:425] inception_3b/output <- inception_3b/pool_proj
I0403 15:03:46.903838 18163 net.cpp:399] inception_3b/output -> inception_3b/output
I0403 15:03:46.903885 18163 net.cpp:141] Setting up inception_3b/output
I0403 15:03:46.903910 18163 net.cpp:148] Top shape: 24 480 28 28 (9031680)
I0403 15:03:46.903924 18163 net.cpp:156] Memory required for data: 809239584
I0403 15:03:46.903940 18163 layer_factory.hpp:77] Creating layer pool3/3x3_s2
I0403 15:03:46.903965 18163 net.cpp:91] Creating Layer pool3/3x3_s2
I0403 15:03:46.903983 18163 net.cpp:425] pool3/3x3_s2 <- inception_3b/output
I0403 15:03:46.904018 18163 net.cpp:399] pool3/3x3_s2 -> pool3/3x3_s2
I0403 15:03:46.904083 18163 net.cpp:141] Setting up pool3/3x3_s2
I0403 15:03:46.904108 18163 net.cpp:148] Top shape: 24 480 14 14 (2257920)
I0403 15:03:46.904122 18163 net.cpp:156] Memory required for data: 818271264
I0403 15:03:46.904139 18163 layer_factory.hpp:77] Creating layer pool3/3x3_s2_pool3/3x3_s2_0_split
I0403 15:03:46.904156 18163 net.cpp:91] Creating Layer pool3/3x3_s2_pool3/3x3_s2_0_split
I0403 15:03:46.904172 18163 net.cpp:425] pool3/3x3_s2_pool3/3x3_s2_0_split <- pool3/3x3_s2
I0403 15:03:46.904196 18163 net.cpp:399] pool3/3x3_s2_pool3/3x3_s2_0_split -> pool3/3x3_s2_pool3/3x3_s2_0_split_0
I0403 15:03:46.904219 18163 net.cpp:399] pool3/3x3_s2_pool3/3x3_s2_0_split -> pool3/3x3_s2_pool3/3x3_s2_0_split_1
I0403 15:03:46.904240 18163 net.cpp:399] pool3/3x3_s2_pool3/3x3_s2_0_split -> pool3/3x3_s2_pool3/3x3_s2_0_split_2
I0403 15:03:46.904261 18163 net.cpp:399] pool3/3x3_s2_pool3/3x3_s2_0_split -> pool3/3x3_s2_pool3/3x3_s2_0_split_3
I0403 15:03:46.904342 18163 net.cpp:141] Setting up pool3/3x3_s2_pool3/3x3_s2_0_split
I0403 15:03:46.904368 18163 net.cpp:148] Top shape: 24 480 14 14 (2257920)
I0403 15:03:46.904386 18163 net.cpp:148] Top shape: 24 480 14 14 (2257920)
I0403 15:03:46.904403 18163 net.cpp:148] Top shape: 24 480 14 14 (2257920)
I0403 15:03:46.904419 18163 net.cpp:148] Top shape: 24 480 14 14 (2257920)
I0403 15:03:46.904433 18163 net.cpp:156] Memory required for data: 854397984
I0403 15:03:46.904448 18163 layer_factory.hpp:77] Creating layer inception_4a/1x1
I0403 15:03:46.904472 18163 net.cpp:91] Creating Layer inception_4a/1x1
I0403 15:03:46.904490 18163 net.cpp:425] inception_4a/1x1 <- pool3/3x3_s2_pool3/3x3_s2_0_split_0
I0403 15:03:46.904510 18163 net.cpp:399] inception_4a/1x1 -> inception_4a/1x1
I0403 15:03:46.906167 18163 net.cpp:141] Setting up inception_4a/1x1
I0403 15:03:46.906199 18163 net.cpp:148] Top shape: 24 192 14 14 (903168)
I0403 15:03:46.906218 18163 net.cpp:156] Memory required for data: 858010656
I0403 15:03:46.906236 18163 layer_factory.hpp:77] Creating layer inception_4a/relu_1x1
I0403 15:03:46.906256 18163 net.cpp:91] Creating Layer inception_4a/relu_1x1
I0403 15:03:46.906273 18163 net.cpp:425] inception_4a/relu_1x1 <- inception_4a/1x1
I0403 15:03:46.906293 18163 net.cpp:386] inception_4a/relu_1x1 -> inception_4a/1x1 (in-place)
I0403 15:03:46.906477 18163 net.cpp:141] Setting up inception_4a/relu_1x1
I0403 15:03:46.906503 18163 net.cpp:148] Top shape: 24 192 14 14 (903168)
I0403 15:03:46.906518 18163 net.cpp:156] Memory required for data: 861623328
I0403 15:03:46.906533 18163 layer_factory.hpp:77] Creating layer inception_4a/3x3_reduce
I0403 15:03:46.906556 18163 net.cpp:91] Creating Layer inception_4a/3x3_reduce
I0403 15:03:46.906574 18163 net.cpp:425] inception_4a/3x3_reduce <- pool3/3x3_s2_pool3/3x3_s2_0_split_1
I0403 15:03:46.906596 18163 net.cpp:399] inception_4a/3x3_reduce -> inception_4a/3x3_reduce
I0403 15:03:46.907932 18163 net.cpp:141] Setting up inception_4a/3x3_reduce
I0403 15:03:46.907968 18163 net.cpp:148] Top shape: 24 96 14 14 (451584)
I0403 15:03:46.907985 18163 net.cpp:156] Memory required for data: 863429664
I0403 15:03:46.908010 18163 layer_factory.hpp:77] Creating layer inception_4a/relu_3x3_reduce
I0403 15:03:46.908032 18163 net.cpp:91] Creating Layer inception_4a/relu_3x3_reduce
I0403 15:03:46.908051 18163 net.cpp:425] inception_4a/relu_3x3_reduce <- inception_4a/3x3_reduce
I0403 15:03:46.908069 18163 net.cpp:386] inception_4a/relu_3x3_reduce -> inception_4a/3x3_reduce (in-place)
I0403 15:03:46.908252 18163 net.cpp:141] Setting up inception_4a/relu_3x3_reduce
I0403 15:03:46.908279 18163 net.cpp:148] Top shape: 24 96 14 14 (451584)
I0403 15:03:46.908294 18163 net.cpp:156] Memory required for data: 865236000
I0403 15:03:46.908310 18163 layer_factory.hpp:77] Creating layer inception_4a/3x3
I0403 15:03:46.908334 18163 net.cpp:91] Creating Layer inception_4a/3x3
I0403 15:03:46.908351 18163 net.cpp:425] inception_4a/3x3 <- inception_4a/3x3_reduce
I0403 15:03:46.908373 18163 net.cpp:399] inception_4a/3x3 -> inception_4a/3x3
I0403 15:03:46.911201 18163 net.cpp:141] Setting up inception_4a/3x3
I0403 15:03:46.911231 18163 net.cpp:148] Top shape: 24 208 14 14 (978432)
I0403 15:03:46.911247 18163 net.cpp:156] Memory required for data: 869149728
I0403 15:03:46.911265 18163 layer_factory.hpp:77] Creating layer inception_4a/relu_3x3
I0403 15:03:46.911288 18163 net.cpp:91] Creating Layer inception_4a/relu_3x3
I0403 15:03:46.911304 18163 net.cpp:425] inception_4a/relu_3x3 <- inception_4a/3x3
I0403 15:03:46.911322 18163 net.cpp:386] inception_4a/relu_3x3 -> inception_4a/3x3 (in-place)
I0403 15:03:46.911612 18163 net.cpp:141] Setting up inception_4a/relu_3x3
I0403 15:03:46.911640 18163 net.cpp:148] Top shape: 24 208 14 14 (978432)
I0403 15:03:46.911655 18163 net.cpp:156] Memory required for data: 873063456
I0403 15:03:46.911671 18163 layer_factory.hpp:77] Creating layer inception_4a/5x5_reduce
I0403 15:03:46.911695 18163 net.cpp:91] Creating Layer inception_4a/5x5_reduce
I0403 15:03:46.911715 18163 net.cpp:425] inception_4a/5x5_reduce <- pool3/3x3_s2_pool3/3x3_s2_0_split_2
I0403 15:03:46.911737 18163 net.cpp:399] inception_4a/5x5_reduce -> inception_4a/5x5_reduce
I0403 15:03:46.912806 18163 net.cpp:141] Setting up inception_4a/5x5_reduce
I0403 15:03:46.912835 18163 net.cpp:148] Top shape: 24 16 14 14 (75264)
I0403 15:03:46.912853 18163 net.cpp:156] Memory required for data: 873364512
I0403 15:03:46.912871 18163 layer_factory.hpp:77] Creating layer inception_4a/relu_5x5_reduce
I0403 15:03:46.912892 18163 net.cpp:91] Creating Layer inception_4a/relu_5x5_reduce
I0403 15:03:46.912910 18163 net.cpp:425] inception_4a/relu_5x5_reduce <- inception_4a/5x5_reduce
I0403 15:03:46.912928 18163 net.cpp:386] inception_4a/relu_5x5_reduce -> inception_4a/5x5_reduce (in-place)
I0403 15:03:46.913125 18163 net.cpp:141] Setting up inception_4a/relu_5x5_reduce
I0403 15:03:46.913151 18163 net.cpp:148] Top shape: 24 16 14 14 (75264)
I0403 15:03:46.913166 18163 net.cpp:156] Memory required for data: 873665568
I0403 15:03:46.913182 18163 layer_factory.hpp:77] Creating layer inception_4a/5x5
I0403 15:03:46.913205 18163 net.cpp:91] Creating Layer inception_4a/5x5
I0403 15:03:46.913223 18163 net.cpp:425] inception_4a/5x5 <- inception_4a/5x5_reduce
I0403 15:03:46.913244 18163 net.cpp:399] inception_4a/5x5 -> inception_4a/5x5
I0403 15:03:46.914588 18163 net.cpp:141] Setting up inception_4a/5x5
I0403 15:03:46.914621 18163 net.cpp:148] Top shape: 24 48 14 14 (225792)
I0403 15:03:46.914638 18163 net.cpp:156] Memory required for data: 874568736
I0403 15:03:46.914659 18163 layer_factory.hpp:77] Creating layer inception_4a/relu_5x5
I0403 15:03:46.914677 18163 net.cpp:91] Creating Layer inception_4a/relu_5x5
I0403 15:03:46.914695 18163 net.cpp:425] inception_4a/relu_5x5 <- inception_4a/5x5
I0403 15:03:46.914712 18163 net.cpp:386] inception_4a/relu_5x5 -> inception_4a/5x5 (in-place)
I0403 15:03:46.914902 18163 net.cpp:141] Setting up inception_4a/relu_5x5
I0403 15:03:46.914928 18163 net.cpp:148] Top shape: 24 48 14 14 (225792)
I0403 15:03:46.914943 18163 net.cpp:156] Memory required for data: 875471904
I0403 15:03:46.914963 18163 layer_factory.hpp:77] Creating layer inception_4a/pool
I0403 15:03:46.914983 18163 net.cpp:91] Creating Layer inception_4a/pool
I0403 15:03:46.915000 18163 net.cpp:425] inception_4a/pool <- pool3/3x3_s2_pool3/3x3_s2_0_split_3
I0403 15:03:46.915022 18163 net.cpp:399] inception_4a/pool -> inception_4a/pool
I0403 15:03:46.915087 18163 net.cpp:141] Setting up inception_4a/pool
I0403 15:03:46.915114 18163 net.cpp:148] Top shape: 24 480 14 14 (2257920)
I0403 15:03:46.915130 18163 net.cpp:156] Memory required for data: 884503584
I0403 15:03:46.915145 18163 layer_factory.hpp:77] Creating layer inception_4a/pool_proj
I0403 15:03:46.915169 18163 net.cpp:91] Creating Layer inception_4a/pool_proj
I0403 15:03:46.915187 18163 net.cpp:425] inception_4a/pool_proj <- inception_4a/pool
I0403 15:03:46.915207 18163 net.cpp:399] inception_4a/pool_proj -> inception_4a/pool_proj
I0403 15:03:46.916442 18163 net.cpp:141] Setting up inception_4a/pool_proj
I0403 15:03:46.916476 18163 net.cpp:148] Top shape: 24 64 14 14 (301056)
I0403 15:03:46.916507 18163 net.cpp:156] Memory required for data: 885707808
I0403 15:03:46.916528 18163 layer_factory.hpp:77] Creating layer inception_4a/relu_pool_proj
I0403 15:03:46.916548 18163 net.cpp:91] Creating Layer inception_4a/relu_pool_proj
I0403 15:03:46.916564 18163 net.cpp:425] inception_4a/relu_pool_proj <- inception_4a/pool_proj
I0403 15:03:46.916584 18163 net.cpp:386] inception_4a/relu_pool_proj -> inception_4a/pool_proj (in-place)
I0403 15:03:46.916885 18163 net.cpp:141] Setting up inception_4a/relu_pool_proj
I0403 15:03:46.916914 18163 net.cpp:148] Top shape: 24 64 14 14 (301056)
I0403 15:03:46.916930 18163 net.cpp:156] Memory required for data: 886912032
I0403 15:03:46.916946 18163 layer_factory.hpp:77] Creating layer inception_4a/output
I0403 15:03:46.916970 18163 net.cpp:91] Creating Layer inception_4a/output
I0403 15:03:46.916986 18163 net.cpp:425] inception_4a/output <- inception_4a/1x1
I0403 15:03:46.917004 18163 net.cpp:425] inception_4a/output <- inception_4a/3x3
I0403 15:03:46.917021 18163 net.cpp:425] inception_4a/output <- inception_4a/5x5
I0403 15:03:46.917038 18163 net.cpp:425] inception_4a/output <- inception_4a/pool_proj
I0403 15:03:46.917055 18163 net.cpp:399] inception_4a/output -> inception_4a/output
I0403 15:03:46.917104 18163 net.cpp:141] Setting up inception_4a/output
I0403 15:03:46.917129 18163 net.cpp:148] Top shape: 24 512 14 14 (2408448)
I0403 15:03:46.917146 18163 net.cpp:156] Memory required for data: 896545824
I0403 15:03:46.917161 18163 layer_factory.hpp:77] Creating layer inception_4a/output_inception_4a/output_0_split
I0403 15:03:46.917182 18163 net.cpp:91] Creating Layer inception_4a/output_inception_4a/output_0_split
I0403 15:03:46.917199 18163 net.cpp:425] inception_4a/output_inception_4a/output_0_split <- inception_4a/output
I0403 15:03:46.917218 18163 net.cpp:399] inception_4a/output_inception_4a/output_0_split -> inception_4a/output_inception_4a/output_0_split_0
I0403 15:03:46.917239 18163 net.cpp:399] inception_4a/output_inception_4a/output_0_split -> inception_4a/output_inception_4a/output_0_split_1
I0403 15:03:46.917264 18163 net.cpp:399] inception_4a/output_inception_4a/output_0_split -> inception_4a/output_inception_4a/output_0_split_2
I0403 15:03:46.917287 18163 net.cpp:399] inception_4a/output_inception_4a/output_0_split -> inception_4a/output_inception_4a/output_0_split_3
I0403 15:03:46.917309 18163 net.cpp:399] inception_4a/output_inception_4a/output_0_split -> inception_4a/output_inception_4a/output_0_split_4
I0403 15:03:46.917407 18163 net.cpp:141] Setting up inception_4a/output_inception_4a/output_0_split
I0403 15:03:46.917431 18163 net.cpp:148] Top shape: 24 512 14 14 (2408448)
I0403 15:03:46.917449 18163 net.cpp:148] Top shape: 24 512 14 14 (2408448)
I0403 15:03:46.917465 18163 net.cpp:148] Top shape: 24 512 14 14 (2408448)
I0403 15:03:46.917481 18163 net.cpp:148] Top shape: 24 512 14 14 (2408448)
I0403 15:03:46.917497 18163 net.cpp:148] Top shape: 24 512 14 14 (2408448)
I0403 15:03:46.917512 18163 net.cpp:156] Memory required for data: 944714784
I0403 15:03:46.917527 18163 layer_factory.hpp:77] Creating layer loss1/ave_pool
I0403 15:03:46.917553 18163 net.cpp:91] Creating Layer loss1/ave_pool
I0403 15:03:46.917570 18163 net.cpp:425] loss1/ave_pool <- inception_4a/output_inception_4a/output_0_split_0
I0403 15:03:46.917588 18163 net.cpp:399] loss1/ave_pool -> loss1/ave_pool
I0403 15:03:46.917807 18163 net.cpp:141] Setting up loss1/ave_pool
I0403 15:03:46.917837 18163 net.cpp:148] Top shape: 24 512 4 4 (196608)
I0403 15:03:46.917852 18163 net.cpp:156] Memory required for data: 945501216
I0403 15:03:46.917867 18163 layer_factory.hpp:77] Creating layer loss1/conv
I0403 15:03:46.917891 18163 net.cpp:91] Creating Layer loss1/conv
I0403 15:03:46.917911 18163 net.cpp:425] loss1/conv <- loss1/ave_pool
I0403 15:03:46.917932 18163 net.cpp:399] loss1/conv -> loss1/conv
I0403 15:03:46.919445 18163 net.cpp:141] Setting up loss1/conv
I0403 15:03:46.919476 18163 net.cpp:148] Top shape: 24 128 4 4 (49152)
I0403 15:03:46.919505 18163 net.cpp:156] Memory required for data: 945697824
I0403 15:03:46.919526 18163 layer_factory.hpp:77] Creating layer loss1/relu_conv
I0403 15:03:46.919548 18163 net.cpp:91] Creating Layer loss1/relu_conv
I0403 15:03:46.919564 18163 net.cpp:425] loss1/relu_conv <- loss1/conv
I0403 15:03:46.919584 18163 net.cpp:386] loss1/relu_conv -> loss1/conv (in-place)
I0403 15:03:46.919883 18163 net.cpp:141] Setting up loss1/relu_conv
I0403 15:03:46.919911 18163 net.cpp:148] Top shape: 24 128 4 4 (49152)
I0403 15:03:46.919926 18163 net.cpp:156] Memory required for data: 945894432
I0403 15:03:46.919941 18163 layer_factory.hpp:77] Creating layer loss1/fc
I0403 15:03:46.919975 18163 net.cpp:91] Creating Layer loss1/fc
I0403 15:03:46.919994 18163 net.cpp:425] loss1/fc <- loss1/conv
I0403 15:03:46.920013 18163 net.cpp:399] loss1/fc -> loss1/fc
I0403 15:03:46.938736 18163 net.cpp:141] Setting up loss1/fc
I0403 15:03:46.938771 18163 net.cpp:148] Top shape: 24 1024 (24576)
I0403 15:03:46.938786 18163 net.cpp:156] Memory required for data: 945992736
I0403 15:03:46.938807 18163 layer_factory.hpp:77] Creating layer loss1/relu_fc
I0403 15:03:46.938825 18163 net.cpp:91] Creating Layer loss1/relu_fc
I0403 15:03:46.938841 18163 net.cpp:425] loss1/relu_fc <- loss1/fc
I0403 15:03:46.938863 18163 net.cpp:386] loss1/relu_fc -> loss1/fc (in-place)
I0403 15:03:46.939074 18163 net.cpp:141] Setting up loss1/relu_fc
I0403 15:03:46.939100 18163 net.cpp:148] Top shape: 24 1024 (24576)
I0403 15:03:46.939113 18163 net.cpp:156] Memory required for data: 946091040
I0403 15:03:46.939128 18163 layer_factory.hpp:77] Creating layer loss1/drop_fc
I0403 15:03:46.939157 18163 net.cpp:91] Creating Layer loss1/drop_fc
I0403 15:03:46.939175 18163 net.cpp:425] loss1/drop_fc <- loss1/fc
I0403 15:03:46.939193 18163 net.cpp:386] loss1/drop_fc -> loss1/fc (in-place)
I0403 15:03:46.939245 18163 net.cpp:141] Setting up loss1/drop_fc
I0403 15:03:46.939267 18163 net.cpp:148] Top shape: 24 1024 (24576)
I0403 15:03:46.939282 18163 net.cpp:156] Memory required for data: 946189344
I0403 15:03:46.939297 18163 layer_factory.hpp:77] Creating layer loss1/classifier_plantvillage
I0403 15:03:46.939319 18163 net.cpp:91] Creating Layer loss1/classifier_plantvillage
I0403 15:03:46.939349 18163 net.cpp:425] loss1/classifier_plantvillage <- loss1/fc
I0403 15:03:46.939370 18163 net.cpp:399] loss1/classifier_plantvillage -> loss1/classifier_plantvillage
I0403 15:03:46.940325 18163 net.cpp:141] Setting up loss1/classifier_plantvillage
I0403 15:03:46.940353 18163 net.cpp:148] Top shape: 24 38 (912)
I0403 15:03:46.940368 18163 net.cpp:156] Memory required for data: 946192992
I0403 15:03:46.940387 18163 layer_factory.hpp:77] Creating layer loss1/classifier_plantvillage_loss1/classifier_plantvillage_0_split
I0403 15:03:46.940404 18163 net.cpp:91] Creating Layer loss1/classifier_plantvillage_loss1/classifier_plantvillage_0_split
I0403 15:03:46.940419 18163 net.cpp:425] loss1/classifier_plantvillage_loss1/classifier_plantvillage_0_split <- loss1/classifier_plantvillage
I0403 15:03:46.940439 18163 net.cpp:399] loss1/classifier_plantvillage_loss1/classifier_plantvillage_0_split -> loss1/classifier_plantvillage_loss1/classifier_plantvillage_0_split_0
I0403 15:03:46.940461 18163 net.cpp:399] loss1/classifier_plantvillage_loss1/classifier_plantvillage_0_split -> loss1/classifier_plantvillage_loss1/classifier_plantvillage_0_split_1
I0403 15:03:46.940482 18163 net.cpp:399] loss1/classifier_plantvillage_loss1/classifier_plantvillage_0_split -> loss1/classifier_plantvillage_loss1/classifier_plantvillage_0_split_2
I0403 15:03:46.940549 18163 net.cpp:141] Setting up loss1/classifier_plantvillage_loss1/classifier_plantvillage_0_split
I0403 15:03:46.940574 18163 net.cpp:148] Top shape: 24 38 (912)
I0403 15:03:46.940590 18163 net.cpp:148] Top shape: 24 38 (912)
I0403 15:03:46.940605 18163 net.cpp:148] Top shape: 24 38 (912)
I0403 15:03:46.940619 18163 net.cpp:156] Memory required for data: 946203936
I0403 15:03:46.940646 18163 layer_factory.hpp:77] Creating layer inception_4b/1x1
I0403 15:03:46.940668 18163 net.cpp:91] Creating Layer inception_4b/1x1
I0403 15:03:46.940711 18163 net.cpp:425] inception_4b/1x1 <- inception_4a/output_inception_4a/output_0_split_1
I0403 15:03:46.940732 18163 net.cpp:399] inception_4b/1x1 -> inception_4b/1x1
I0403 15:03:46.942524 18163 net.cpp:141] Setting up inception_4b/1x1
I0403 15:03:46.942553 18163 net.cpp:148] Top shape: 24 160 14 14 (752640)
I0403 15:03:46.942569 18163 net.cpp:156] Memory required for data: 949214496
I0403 15:03:46.942587 18163 layer_factory.hpp:77] Creating layer inception_4b/relu_1x1
I0403 15:03:46.942608 18163 net.cpp:91] Creating Layer inception_4b/relu_1x1
I0403 15:03:46.942626 18163 net.cpp:425] inception_4b/relu_1x1 <- inception_4b/1x1
I0403 15:03:46.942643 18163 net.cpp:386] inception_4b/relu_1x1 -> inception_4b/1x1 (in-place)
I0403 15:03:46.942831 18163 net.cpp:141] Setting up inception_4b/relu_1x1
I0403 15:03:46.942857 18163 net.cpp:148] Top shape: 24 160 14 14 (752640)
I0403 15:03:46.942872 18163 net.cpp:156] Memory required for data: 952225056
I0403 15:03:46.942886 18163 layer_factory.hpp:77] Creating layer inception_4b/3x3_reduce
I0403 15:03:46.942909 18163 net.cpp:91] Creating Layer inception_4b/3x3_reduce
I0403 15:03:46.942927 18163 net.cpp:425] inception_4b/3x3_reduce <- inception_4a/output_inception_4a/output_0_split_2
I0403 15:03:46.942946 18163 net.cpp:399] inception_4b/3x3_reduce -> inception_4b/3x3_reduce
I0403 15:03:46.944344 18163 net.cpp:141] Setting up inception_4b/3x3_reduce
I0403 15:03:46.944371 18163 net.cpp:148] Top shape: 24 112 14 14 (526848)
I0403 15:03:46.944386 18163 net.cpp:156] Memory required for data: 954332448
I0403 15:03:46.944404 18163 layer_factory.hpp:77] Creating layer inception_4b/relu_3x3_reduce
I0403 15:03:46.944425 18163 net.cpp:91] Creating Layer inception_4b/relu_3x3_reduce
I0403 15:03:46.944443 18163 net.cpp:425] inception_4b/relu_3x3_reduce <- inception_4b/3x3_reduce
I0403 15:03:46.944460 18163 net.cpp:386] inception_4b/relu_3x3_reduce -> inception_4b/3x3_reduce (in-place)
I0403 15:03:46.944754 18163 net.cpp:141] Setting up inception_4b/relu_3x3_reduce
I0403 15:03:46.944780 18163 net.cpp:148] Top shape: 24 112 14 14 (526848)
I0403 15:03:46.944797 18163 net.cpp:156] Memory required for data: 956439840
I0403 15:03:46.944811 18163 layer_factory.hpp:77] Creating layer inception_4b/3x3
I0403 15:03:46.944835 18163 net.cpp:91] Creating Layer inception_4b/3x3
I0403 15:03:46.944854 18163 net.cpp:425] inception_4b/3x3 <- inception_4b/3x3_reduce
I0403 15:03:46.944872 18163 net.cpp:399] inception_4b/3x3 -> inception_4b/3x3
I0403 15:03:46.947976 18163 net.cpp:141] Setting up inception_4b/3x3
I0403 15:03:46.948009 18163 net.cpp:148] Top shape: 24 224 14 14 (1053696)
I0403 15:03:46.948025 18163 net.cpp:156] Memory required for data: 960654624
I0403 15:03:46.948045 18163 layer_factory.hpp:77] Creating layer inception_4b/relu_3x3
I0403 15:03:46.948065 18163 net.cpp:91] Creating Layer inception_4b/relu_3x3
I0403 15:03:46.948081 18163 net.cpp:425] inception_4b/relu_3x3 <- inception_4b/3x3
I0403 15:03:46.948101 18163 net.cpp:386] inception_4b/relu_3x3 -> inception_4b/3x3 (in-place)
I0403 15:03:46.948287 18163 net.cpp:141] Setting up inception_4b/relu_3x3
I0403 15:03:46.948313 18163 net.cpp:148] Top shape: 24 224 14 14 (1053696)
I0403 15:03:46.948339 18163 net.cpp:156] Memory required for data: 964869408
I0403 15:03:46.948354 18163 layer_factory.hpp:77] Creating layer inception_4b/5x5_reduce
I0403 15:03:46.948375 18163 net.cpp:91] Creating Layer inception_4b/5x5_reduce
I0403 15:03:46.948392 18163 net.cpp:425] inception_4b/5x5_reduce <- inception_4a/output_inception_4a/output_0_split_3
I0403 15:03:46.948415 18163 net.cpp:399] inception_4b/5x5_reduce -> inception_4b/5x5_reduce
I0403 15:03:46.949574 18163 net.cpp:141] Setting up inception_4b/5x5_reduce
I0403 15:03:46.949604 18163 net.cpp:148] Top shape: 24 24 14 14 (112896)
I0403 15:03:46.949620 18163 net.cpp:156] Memory required for data: 965320992
I0403 15:03:46.949638 18163 layer_factory.hpp:77] Creating layer inception_4b/relu_5x5_reduce
I0403 15:03:46.949666 18163 net.cpp:91] Creating Layer inception_4b/relu_5x5_reduce
I0403 15:03:46.949697 18163 net.cpp:425] inception_4b/relu_5x5_reduce <- inception_4b/5x5_reduce
I0403 15:03:46.949715 18163 net.cpp:386] inception_4b/relu_5x5_reduce -> inception_4b/5x5_reduce (in-place)
I0403 15:03:46.949928 18163 net.cpp:141] Setting up inception_4b/relu_5x5_reduce
I0403 15:03:46.949961 18163 net.cpp:148] Top shape: 24 24 14 14 (112896)
I0403 15:03:46.949980 18163 net.cpp:156] Memory required for data: 965772576
I0403 15:03:46.949995 18163 layer_factory.hpp:77] Creating layer inception_4b/5x5
I0403 15:03:46.950017 18163 net.cpp:91] Creating Layer inception_4b/5x5
I0403 15:03:46.950036 18163 net.cpp:425] inception_4b/5x5 <- inception_4b/5x5_reduce
I0403 15:03:46.950054 18163 net.cpp:399] inception_4b/5x5 -> inception_4b/5x5
I0403 15:03:46.951297 18163 net.cpp:141] Setting up inception_4b/5x5
I0403 15:03:46.951324 18163 net.cpp:148] Top shape: 24 64 14 14 (301056)
I0403 15:03:46.951339 18163 net.cpp:156] Memory required for data: 966976800
I0403 15:03:46.951357 18163 layer_factory.hpp:77] Creating layer inception_4b/relu_5x5
I0403 15:03:46.951377 18163 net.cpp:91] Creating Layer inception_4b/relu_5x5
I0403 15:03:46.951395 18163 net.cpp:425] inception_4b/relu_5x5 <- inception_4b/5x5
I0403 15:03:46.951411 18163 net.cpp:386] inception_4b/relu_5x5 -> inception_4b/5x5 (in-place)
I0403 15:03:46.951730 18163 net.cpp:141] Setting up inception_4b/relu_5x5
I0403 15:03:46.951756 18163 net.cpp:148] Top shape: 24 64 14 14 (301056)
I0403 15:03:46.951772 18163 net.cpp:156] Memory required for data: 968181024
I0403 15:03:46.951802 18163 layer_factory.hpp:77] Creating layer inception_4b/pool
I0403 15:03:46.951828 18163 net.cpp:91] Creating Layer inception_4b/pool
I0403 15:03:46.951845 18163 net.cpp:425] inception_4b/pool <- inception_4a/output_inception_4a/output_0_split_4
I0403 15:03:46.951864 18163 net.cpp:399] inception_4b/pool -> inception_4b/pool
I0403 15:03:46.951946 18163 net.cpp:141] Setting up inception_4b/pool
I0403 15:03:46.951978 18163 net.cpp:148] Top shape: 24 512 14 14 (2408448)
I0403 15:03:46.951999 18163 net.cpp:156] Memory required for data: 977814816
I0403 15:03:46.952014 18163 layer_factory.hpp:77] Creating layer inception_4b/pool_proj
I0403 15:03:46.952038 18163 net.cpp:91] Creating Layer inception_4b/pool_proj
I0403 15:03:46.952055 18163 net.cpp:425] inception_4b/pool_proj <- inception_4b/pool
I0403 15:03:46.952077 18163 net.cpp:399] inception_4b/pool_proj -> inception_4b/pool_proj
I0403 15:03:46.953332 18163 net.cpp:141] Setting up inception_4b/pool_proj
I0403 15:03:46.953372 18163 net.cpp:148] Top shape: 24 64 14 14 (301056)
I0403 15:03:46.953389 18163 net.cpp:156] Memory required for data: 979019040
I0403 15:03:46.953408 18163 layer_factory.hpp:77] Creating layer inception_4b/relu_pool_proj
I0403 15:03:46.953433 18163 net.cpp:91] Creating Layer inception_4b/relu_pool_proj
I0403 15:03:46.953450 18163 net.cpp:425] inception_4b/relu_pool_proj <- inception_4b/pool_proj
I0403 15:03:46.953469 18163 net.cpp:386] inception_4b/relu_pool_proj -> inception_4b/pool_proj (in-place)
I0403 15:03:46.953670 18163 net.cpp:141] Setting up inception_4b/relu_pool_proj
I0403 15:03:46.953697 18163 net.cpp:148] Top shape: 24 64 14 14 (301056)
I0403 15:03:46.953714 18163 net.cpp:156] Memory required for data: 980223264
I0403 15:03:46.953729 18163 layer_factory.hpp:77] Creating layer inception_4b/output
I0403 15:03:46.953747 18163 net.cpp:91] Creating Layer inception_4b/output
I0403 15:03:46.953764 18163 net.cpp:425] inception_4b/output <- inception_4b/1x1
I0403 15:03:46.953781 18163 net.cpp:425] inception_4b/output <- inception_4b/3x3
I0403 15:03:46.953799 18163 net.cpp:425] inception_4b/output <- inception_4b/5x5
I0403 15:03:46.953814 18163 net.cpp:425] inception_4b/output <- inception_4b/pool_proj
I0403 15:03:46.953832 18163 net.cpp:399] inception_4b/output -> inception_4b/output
I0403 15:03:46.953883 18163 net.cpp:141] Setting up inception_4b/output
I0403 15:03:46.953908 18163 net.cpp:148] Top shape: 24 512 14 14 (2408448)
I0403 15:03:46.953923 18163 net.cpp:156] Memory required for data: 989857056
I0403 15:03:46.953959 18163 layer_factory.hpp:77] Creating layer inception_4b/output_inception_4b/output_0_split
I0403 15:03:46.953980 18163 net.cpp:91] Creating Layer inception_4b/output_inception_4b/output_0_split
I0403 15:03:46.953997 18163 net.cpp:425] inception_4b/output_inception_4b/output_0_split <- inception_4b/output
I0403 15:03:46.954017 18163 net.cpp:399] inception_4b/output_inception_4b/output_0_split -> inception_4b/output_inception_4b/output_0_split_0
I0403 15:03:46.954041 18163 net.cpp:399] inception_4b/output_inception_4b/output_0_split -> inception_4b/output_inception_4b/output_0_split_1
I0403 15:03:46.954062 18163 net.cpp:399] inception_4b/output_inception_4b/output_0_split -> inception_4b/output_inception_4b/output_0_split_2
I0403 15:03:46.954085 18163 net.cpp:399] inception_4b/output_inception_4b/output_0_split -> inception_4b/output_inception_4b/output_0_split_3
I0403 15:03:46.954176 18163 net.cpp:141] Setting up inception_4b/output_inception_4b/output_0_split
I0403 15:03:46.954200 18163 net.cpp:148] Top shape: 24 512 14 14 (2408448)
I0403 15:03:46.954217 18163 net.cpp:148] Top shape: 24 512 14 14 (2408448)
I0403 15:03:46.954232 18163 net.cpp:148] Top shape: 24 512 14 14 (2408448)
I0403 15:03:46.954249 18163 net.cpp:148] Top shape: 24 512 14 14 (2408448)
I0403 15:03:46.954263 18163 net.cpp:156] Memory required for data: 1028392224
I0403 15:03:46.954278 18163 layer_factory.hpp:77] Creating layer inception_4c/1x1
I0403 15:03:46.954301 18163 net.cpp:91] Creating Layer inception_4c/1x1
I0403 15:03:46.954319 18163 net.cpp:425] inception_4c/1x1 <- inception_4b/output_inception_4b/output_0_split_0
I0403 15:03:46.954341 18163 net.cpp:399] inception_4c/1x1 -> inception_4c/1x1
I0403 15:03:46.955889 18163 net.cpp:141] Setting up inception_4c/1x1
I0403 15:03:46.955922 18163 net.cpp:148] Top shape: 24 128 14 14 (602112)
I0403 15:03:46.955940 18163 net.cpp:156] Memory required for data: 1030800672
I0403 15:03:46.955965 18163 layer_factory.hpp:77] Creating layer inception_4c/relu_1x1
I0403 15:03:46.955986 18163 net.cpp:91] Creating Layer inception_4c/relu_1x1
I0403 15:03:46.956002 18163 net.cpp:425] inception_4c/relu_1x1 <- inception_4c/1x1
I0403 15:03:46.956023 18163 net.cpp:386] inception_4c/relu_1x1 -> inception_4c/1x1 (in-place)
I0403 15:03:46.956213 18163 net.cpp:141] Setting up inception_4c/relu_1x1
I0403 15:03:46.956240 18163 net.cpp:148] Top shape: 24 128 14 14 (602112)
I0403 15:03:46.956254 18163 net.cpp:156] Memory required for data: 1033209120
I0403 15:03:46.956270 18163 layer_factory.hpp:77] Creating layer inception_4c/3x3_reduce
I0403 15:03:46.956295 18163 net.cpp:91] Creating Layer inception_4c/3x3_reduce
I0403 15:03:46.956312 18163 net.cpp:425] inception_4c/3x3_reduce <- inception_4b/output_inception_4b/output_0_split_1
I0403 15:03:46.956334 18163 net.cpp:399] inception_4c/3x3_reduce -> inception_4c/3x3_reduce
I0403 15:03:46.958425 18163 net.cpp:141] Setting up inception_4c/3x3_reduce
I0403 15:03:46.958456 18163 net.cpp:148] Top shape: 24 128 14 14 (602112)
I0403 15:03:46.958470 18163 net.cpp:156] Memory required for data: 1035617568
I0403 15:03:46.958489 18163 layer_factory.hpp:77] Creating layer inception_4c/relu_3x3_reduce
I0403 15:03:46.958511 18163 net.cpp:91] Creating Layer inception_4c/relu_3x3_reduce
I0403 15:03:46.958528 18163 net.cpp:425] inception_4c/relu_3x3_reduce <- inception_4c/3x3_reduce
I0403 15:03:46.958546 18163 net.cpp:386] inception_4c/relu_3x3_reduce -> inception_4c/3x3_reduce (in-place)
I0403 15:03:46.958871 18163 net.cpp:141] Setting up inception_4c/relu_3x3_reduce
I0403 15:03:46.958899 18163 net.cpp:148] Top shape: 24 128 14 14 (602112)
I0403 15:03:46.958915 18163 net.cpp:156] Memory required for data: 1038026016
I0403 15:03:46.958930 18163 layer_factory.hpp:77] Creating layer inception_4c/3x3
I0403 15:03:46.958958 18163 net.cpp:91] Creating Layer inception_4c/3x3
I0403 15:03:46.958979 18163 net.cpp:425] inception_4c/3x3 <- inception_4c/3x3_reduce
I0403 15:03:46.959003 18163 net.cpp:399] inception_4c/3x3 -> inception_4c/3x3
I0403 15:03:46.962837 18163 net.cpp:141] Setting up inception_4c/3x3
I0403 15:03:46.962880 18163 net.cpp:148] Top shape: 24 256 14 14 (1204224)
I0403 15:03:46.962896 18163 net.cpp:156] Memory required for data: 1042842912
I0403 15:03:46.962929 18163 layer_factory.hpp:77] Creating layer inception_4c/relu_3x3
I0403 15:03:46.962957 18163 net.cpp:91] Creating Layer inception_4c/relu_3x3
I0403 15:03:46.962976 18163 net.cpp:425] inception_4c/relu_3x3 <- inception_4c/3x3
I0403 15:03:46.962995 18163 net.cpp:386] inception_4c/relu_3x3 -> inception_4c/3x3 (in-place)
I0403 15:03:46.963183 18163 net.cpp:141] Setting up inception_4c/relu_3x3
I0403 15:03:46.963209 18163 net.cpp:148] Top shape: 24 256 14 14 (1204224)
I0403 15:03:46.963223 18163 net.cpp:156] Memory required for data: 1047659808
I0403 15:03:46.963239 18163 layer_factory.hpp:77] Creating layer inception_4c/5x5_reduce
I0403 15:03:46.963261 18163 net.cpp:91] Creating Layer inception_4c/5x5_reduce
I0403 15:03:46.963279 18163 net.cpp:425] inception_4c/5x5_reduce <- inception_4b/output_inception_4b/output_0_split_2
I0403 15:03:46.963302 18163 net.cpp:399] inception_4c/5x5_reduce -> inception_4c/5x5_reduce
I0403 15:03:46.964448 18163 net.cpp:141] Setting up inception_4c/5x5_reduce
I0403 15:03:46.964478 18163 net.cpp:148] Top shape: 24 24 14 14 (112896)
I0403 15:03:46.964494 18163 net.cpp:156] Memory required for data: 1048111392
I0403 15:03:46.964514 18163 layer_factory.hpp:77] Creating layer inception_4c/relu_5x5_reduce
I0403 15:03:46.964546 18163 net.cpp:91] Creating Layer inception_4c/relu_5x5_reduce
I0403 15:03:46.964563 18163 net.cpp:425] inception_4c/relu_5x5_reduce <- inception_4c/5x5_reduce
I0403 15:03:46.964581 18163 net.cpp:386] inception_4c/relu_5x5_reduce -> inception_4c/5x5_reduce (in-place)
I0403 15:03:46.964771 18163 net.cpp:141] Setting up inception_4c/relu_5x5_reduce
I0403 15:03:46.964797 18163 net.cpp:148] Top shape: 24 24 14 14 (112896)
I0403 15:03:46.964813 18163 net.cpp:156] Memory required for data: 1048562976
I0403 15:03:46.964828 18163 layer_factory.hpp:77] Creating layer inception_4c/5x5
I0403 15:03:46.964850 18163 net.cpp:91] Creating Layer inception_4c/5x5
I0403 15:03:46.964869 18163 net.cpp:425] inception_4c/5x5 <- inception_4c/5x5_reduce
I0403 15:03:46.964887 18163 net.cpp:399] inception_4c/5x5 -> inception_4c/5x5
I0403 15:03:46.966246 18163 net.cpp:141] Setting up inception_4c/5x5
I0403 15:03:46.966277 18163 net.cpp:148] Top shape: 24 64 14 14 (301056)
I0403 15:03:46.966295 18163 net.cpp:156] Memory required for data: 1049767200
I0403 15:03:46.966313 18163 layer_factory.hpp:77] Creating layer inception_4c/relu_5x5
I0403 15:03:46.966332 18163 net.cpp:91] Creating Layer inception_4c/relu_5x5
I0403 15:03:46.966349 18163 net.cpp:425] inception_4c/relu_5x5 <- inception_4c/5x5
I0403 15:03:46.966369 18163 net.cpp:386] inception_4c/relu_5x5 -> inception_4c/5x5 (in-place)
I0403 15:03:46.966678 18163 net.cpp:141] Setting up inception_4c/relu_5x5
I0403 15:03:46.966708 18163 net.cpp:148] Top shape: 24 64 14 14 (301056)
I0403 15:03:46.966724 18163 net.cpp:156] Memory required for data: 1050971424
I0403 15:03:46.966739 18163 layer_factory.hpp:77] Creating layer inception_4c/pool
I0403 15:03:46.966758 18163 net.cpp:91] Creating Layer inception_4c/pool
I0403 15:03:46.966774 18163 net.cpp:425] inception_4c/pool <- inception_4b/output_inception_4b/output_0_split_3
I0403 15:03:46.966795 18163 net.cpp:399] inception_4c/pool -> inception_4c/pool
I0403 15:03:46.966863 18163 net.cpp:141] Setting up inception_4c/pool
I0403 15:03:46.966888 18163 net.cpp:148] Top shape: 24 512 14 14 (2408448)
I0403 15:03:46.966902 18163 net.cpp:156] Memory required for data: 1060605216
I0403 15:03:46.966917 18163 layer_factory.hpp:77] Creating layer inception_4c/pool_proj
I0403 15:03:46.966951 18163 net.cpp:91] Creating Layer inception_4c/pool_proj
I0403 15:03:46.966977 18163 net.cpp:425] inception_4c/pool_proj <- inception_4c/pool
I0403 15:03:46.967000 18163 net.cpp:399] inception_4c/pool_proj -> inception_4c/pool_proj
I0403 15:03:46.968353 18163 net.cpp:141] Setting up inception_4c/pool_proj
I0403 15:03:46.968382 18163 net.cpp:148] Top shape: 24 64 14 14 (301056)
I0403 15:03:46.968413 18163 net.cpp:156] Memory required for data: 1061809440
I0403 15:03:46.968433 18163 layer_factory.hpp:77] Creating layer inception_4c/relu_pool_proj
I0403 15:03:46.968456 18163 net.cpp:91] Creating Layer inception_4c/relu_pool_proj
I0403 15:03:46.968472 18163 net.cpp:425] inception_4c/relu_pool_proj <- inception_4c/pool_proj
I0403 15:03:46.968490 18163 net.cpp:386] inception_4c/relu_pool_proj -> inception_4c/pool_proj (in-place)
I0403 15:03:46.968680 18163 net.cpp:141] Setting up inception_4c/relu_pool_proj
I0403 15:03:46.968708 18163 net.cpp:148] Top shape: 24 64 14 14 (301056)
I0403 15:03:46.968724 18163 net.cpp:156] Memory required for data: 1063013664
I0403 15:03:46.968739 18163 layer_factory.hpp:77] Creating layer inception_4c/output
I0403 15:03:46.968756 18163 net.cpp:91] Creating Layer inception_4c/output
I0403 15:03:46.968771 18163 net.cpp:425] inception_4c/output <- inception_4c/1x1
I0403 15:03:46.968788 18163 net.cpp:425] inception_4c/output <- inception_4c/3x3
I0403 15:03:46.968804 18163 net.cpp:425] inception_4c/output <- inception_4c/5x5
I0403 15:03:46.968821 18163 net.cpp:425] inception_4c/output <- inception_4c/pool_proj
I0403 15:03:46.968837 18163 net.cpp:399] inception_4c/output -> inception_4c/output
I0403 15:03:46.968888 18163 net.cpp:141] Setting up inception_4c/output
I0403 15:03:46.968924 18163 net.cpp:148] Top shape: 24 512 14 14 (2408448)
I0403 15:03:46.968940 18163 net.cpp:156] Memory required for data: 1072647456
I0403 15:03:46.968961 18163 layer_factory.hpp:77] Creating layer inception_4c/output_inception_4c/output_0_split
I0403 15:03:46.968981 18163 net.cpp:91] Creating Layer inception_4c/output_inception_4c/output_0_split
I0403 15:03:46.968997 18163 net.cpp:425] inception_4c/output_inception_4c/output_0_split <- inception_4c/output
I0403 15:03:46.969018 18163 net.cpp:399] inception_4c/output_inception_4c/output_0_split -> inception_4c/output_inception_4c/output_0_split_0
I0403 15:03:46.969041 18163 net.cpp:399] inception_4c/output_inception_4c/output_0_split -> inception_4c/output_inception_4c/output_0_split_1
I0403 15:03:46.969063 18163 net.cpp:399] inception_4c/output_inception_4c/output_0_split -> inception_4c/output_inception_4c/output_0_split_2
I0403 15:03:46.969089 18163 net.cpp:399] inception_4c/output_inception_4c/output_0_split -> inception_4c/output_inception_4c/output_0_split_3
I0403 15:03:46.969185 18163 net.cpp:141] Setting up inception_4c/output_inception_4c/output_0_split
I0403 15:03:46.969221 18163 net.cpp:148] Top shape: 24 512 14 14 (2408448)
I0403 15:03:46.969238 18163 net.cpp:148] Top shape: 24 512 14 14 (2408448)
I0403 15:03:46.969262 18163 net.cpp:148] Top shape: 24 512 14 14 (2408448)
I0403 15:03:46.969279 18163 net.cpp:148] Top shape: 24 512 14 14 (2408448)
I0403 15:03:46.969292 18163 net.cpp:156] Memory required for data: 1111182624
I0403 15:03:46.969307 18163 layer_factory.hpp:77] Creating layer inception_4d/1x1
I0403 15:03:46.969329 18163 net.cpp:91] Creating Layer inception_4d/1x1
I0403 15:03:46.969347 18163 net.cpp:425] inception_4d/1x1 <- inception_4c/output_inception_4c/output_0_split_0
I0403 15:03:46.969368 18163 net.cpp:399] inception_4d/1x1 -> inception_4d/1x1
I0403 15:03:46.970846 18163 net.cpp:141] Setting up inception_4d/1x1
I0403 15:03:46.970875 18163 net.cpp:148] Top shape: 24 112 14 14 (526848)
I0403 15:03:46.970890 18163 net.cpp:156] Memory required for data: 1113290016
I0403 15:03:46.970908 18163 layer_factory.hpp:77] Creating layer inception_4d/relu_1x1
I0403 15:03:46.970927 18163 net.cpp:91] Creating Layer inception_4d/relu_1x1
I0403 15:03:46.970943 18163 net.cpp:425] inception_4d/relu_1x1 <- inception_4d/1x1
I0403 15:03:46.970968 18163 net.cpp:386] inception_4d/relu_1x1 -> inception_4d/1x1 (in-place)
I0403 15:03:46.971160 18163 net.cpp:141] Setting up inception_4d/relu_1x1
I0403 15:03:46.971185 18163 net.cpp:148] Top shape: 24 112 14 14 (526848)
I0403 15:03:46.971200 18163 net.cpp:156] Memory required for data: 1115397408
I0403 15:03:46.971215 18163 layer_factory.hpp:77] Creating layer inception_4d/3x3_reduce
I0403 15:03:46.971252 18163 net.cpp:91] Creating Layer inception_4d/3x3_reduce
I0403 15:03:46.971302 18163 net.cpp:425] inception_4d/3x3_reduce <- inception_4c/output_inception_4c/output_0_split_1
I0403 15:03:46.971324 18163 net.cpp:399] inception_4d/3x3_reduce -> inception_4d/3x3_reduce
I0403 15:03:46.972906 18163 net.cpp:141] Setting up inception_4d/3x3_reduce
I0403 15:03:46.972935 18163 net.cpp:148] Top shape: 24 144 14 14 (677376)
I0403 15:03:46.972951 18163 net.cpp:156] Memory required for data: 1118106912
I0403 15:03:46.972976 18163 layer_factory.hpp:77] Creating layer inception_4d/relu_3x3_reduce
I0403 15:03:46.972995 18163 net.cpp:91] Creating Layer inception_4d/relu_3x3_reduce
I0403 15:03:46.973011 18163 net.cpp:425] inception_4d/relu_3x3_reduce <- inception_4d/3x3_reduce
I0403 15:03:46.973031 18163 net.cpp:386] inception_4d/relu_3x3_reduce -> inception_4d/3x3_reduce (in-place)
I0403 15:03:46.973333 18163 net.cpp:141] Setting up inception_4d/relu_3x3_reduce
I0403 15:03:46.973362 18163 net.cpp:148] Top shape: 24 144 14 14 (677376)
I0403 15:03:46.973379 18163 net.cpp:156] Memory required for data: 1120816416
I0403 15:03:46.973394 18163 layer_factory.hpp:77] Creating layer inception_4d/3x3
I0403 15:03:46.973417 18163 net.cpp:91] Creating Layer inception_4d/3x3
I0403 15:03:46.973448 18163 net.cpp:425] inception_4d/3x3 <- inception_4d/3x3_reduce
I0403 15:03:46.973469 18163 net.cpp:399] inception_4d/3x3 -> inception_4d/3x3
I0403 15:03:46.977946 18163 net.cpp:141] Setting up inception_4d/3x3
I0403 15:03:46.977988 18163 net.cpp:148] Top shape: 24 288 14 14 (1354752)
I0403 15:03:46.978018 18163 net.cpp:156] Memory required for data: 1126235424
I0403 15:03:46.978036 18163 layer_factory.hpp:77] Creating layer inception_4d/relu_3x3
I0403 15:03:46.978055 18163 net.cpp:91] Creating Layer inception_4d/relu_3x3
I0403 15:03:46.978070 18163 net.cpp:425] inception_4d/relu_3x3 <- inception_4d/3x3
I0403 15:03:46.978090 18163 net.cpp:386] inception_4d/relu_3x3 -> inception_4d/3x3 (in-place)
I0403 15:03:46.978277 18163 net.cpp:141] Setting up inception_4d/relu_3x3
I0403 15:03:46.978302 18163 net.cpp:148] Top shape: 24 288 14 14 (1354752)
I0403 15:03:46.978317 18163 net.cpp:156] Memory required for data: 1131654432
I0403 15:03:46.978332 18163 layer_factory.hpp:77] Creating layer inception_4d/5x5_reduce
I0403 15:03:46.978353 18163 net.cpp:91] Creating Layer inception_4d/5x5_reduce
I0403 15:03:46.978370 18163 net.cpp:425] inception_4d/5x5_reduce <- inception_4c/output_inception_4c/output_0_split_2
I0403 15:03:46.978391 18163 net.cpp:399] inception_4d/5x5_reduce -> inception_4d/5x5_reduce
I0403 15:03:46.979604 18163 net.cpp:141] Setting up inception_4d/5x5_reduce
I0403 15:03:46.979632 18163 net.cpp:148] Top shape: 24 32 14 14 (150528)
I0403 15:03:46.979650 18163 net.cpp:156] Memory required for data: 1132256544
I0403 15:03:46.979667 18163 layer_factory.hpp:77] Creating layer inception_4d/relu_5x5_reduce
I0403 15:03:46.979689 18163 net.cpp:91] Creating Layer inception_4d/relu_5x5_reduce
I0403 15:03:46.979707 18163 net.cpp:425] inception_4d/relu_5x5_reduce <- inception_4d/5x5_reduce
I0403 15:03:46.979723 18163 net.cpp:386] inception_4d/relu_5x5_reduce -> inception_4d/5x5_reduce (in-place)
I0403 15:03:46.979923 18163 net.cpp:141] Setting up inception_4d/relu_5x5_reduce
I0403 15:03:46.979948 18163 net.cpp:148] Top shape: 24 32 14 14 (150528)
I0403 15:03:46.979969 18163 net.cpp:156] Memory required for data: 1132858656
I0403 15:03:46.979984 18163 layer_factory.hpp:77] Creating layer inception_4d/5x5
I0403 15:03:46.980006 18163 net.cpp:91] Creating Layer inception_4d/5x5
I0403 15:03:46.980025 18163 net.cpp:425] inception_4d/5x5 <- inception_4d/5x5_reduce
I0403 15:03:46.980046 18163 net.cpp:399] inception_4d/5x5 -> inception_4d/5x5
I0403 15:03:46.981600 18163 net.cpp:141] Setting up inception_4d/5x5
I0403 15:03:46.981628 18163 net.cpp:148] Top shape: 24 64 14 14 (301056)
I0403 15:03:46.981644 18163 net.cpp:156] Memory required for data: 1134062880
I0403 15:03:46.981663 18163 layer_factory.hpp:77] Creating layer inception_4d/relu_5x5
I0403 15:03:46.981700 18163 net.cpp:91] Creating Layer inception_4d/relu_5x5
I0403 15:03:46.981719 18163 net.cpp:425] inception_4d/relu_5x5 <- inception_4d/5x5
I0403 15:03:46.981737 18163 net.cpp:386] inception_4d/relu_5x5 -> inception_4d/5x5 (in-place)
I0403 15:03:46.982059 18163 net.cpp:141] Setting up inception_4d/relu_5x5
I0403 15:03:46.982085 18163 net.cpp:148] Top shape: 24 64 14 14 (301056)
I0403 15:03:46.982101 18163 net.cpp:156] Memory required for data: 1135267104
I0403 15:03:46.982116 18163 layer_factory.hpp:77] Creating layer inception_4d/pool
I0403 15:03:46.982136 18163 net.cpp:91] Creating Layer inception_4d/pool
I0403 15:03:46.982152 18163 net.cpp:425] inception_4d/pool <- inception_4c/output_inception_4c/output_0_split_3
I0403 15:03:46.982170 18163 net.cpp:399] inception_4d/pool -> inception_4d/pool
I0403 15:03:46.982239 18163 net.cpp:141] Setting up inception_4d/pool
I0403 15:03:46.982262 18163 net.cpp:148] Top shape: 24 512 14 14 (2408448)
I0403 15:03:46.982277 18163 net.cpp:156] Memory required for data: 1144900896
I0403 15:03:46.982291 18163 layer_factory.hpp:77] Creating layer inception_4d/pool_proj
I0403 15:03:46.982313 18163 net.cpp:91] Creating Layer inception_4d/pool_proj
I0403 15:03:46.982331 18163 net.cpp:425] inception_4d/pool_proj <- inception_4d/pool
I0403 15:03:46.982352 18163 net.cpp:399] inception_4d/pool_proj -> inception_4d/pool_proj
I0403 15:03:46.984200 18163 net.cpp:141] Setting up inception_4d/pool_proj
I0403 15:03:46.984230 18163 net.cpp:148] Top shape: 24 64 14 14 (301056)
I0403 15:03:46.984248 18163 net.cpp:156] Memory required for data: 1146105120
I0403 15:03:46.984266 18163 layer_factory.hpp:77] Creating layer inception_4d/relu_pool_proj
I0403 15:03:46.984285 18163 net.cpp:91] Creating Layer inception_4d/relu_pool_proj
I0403 15:03:46.984302 18163 net.cpp:425] inception_4d/relu_pool_proj <- inception_4d/pool_proj
I0403 15:03:46.984321 18163 net.cpp:386] inception_4d/relu_pool_proj -> inception_4d/pool_proj (in-place)
I0403 15:03:46.984514 18163 net.cpp:141] Setting up inception_4d/relu_pool_proj
I0403 15:03:46.984552 18163 net.cpp:148] Top shape: 24 64 14 14 (301056)
I0403 15:03:46.984566 18163 net.cpp:156] Memory required for data: 1147309344
I0403 15:03:46.984581 18163 layer_factory.hpp:77] Creating layer inception_4d/output
I0403 15:03:46.984601 18163 net.cpp:91] Creating Layer inception_4d/output
I0403 15:03:46.984616 18163 net.cpp:425] inception_4d/output <- inception_4d/1x1
I0403 15:03:46.984633 18163 net.cpp:425] inception_4d/output <- inception_4d/3x3
I0403 15:03:46.984648 18163 net.cpp:425] inception_4d/output <- inception_4d/5x5
I0403 15:03:46.984664 18163 net.cpp:425] inception_4d/output <- inception_4d/pool_proj
I0403 15:03:46.984680 18163 net.cpp:399] inception_4d/output -> inception_4d/output
I0403 15:03:46.984730 18163 net.cpp:141] Setting up inception_4d/output
I0403 15:03:46.984753 18163 net.cpp:148] Top shape: 24 528 14 14 (2483712)
I0403 15:03:46.984767 18163 net.cpp:156] Memory required for data: 1157244192
I0403 15:03:46.984782 18163 layer_factory.hpp:77] Creating layer inception_4d/output_inception_4d/output_0_split
I0403 15:03:46.984799 18163 net.cpp:91] Creating Layer inception_4d/output_inception_4d/output_0_split
I0403 15:03:46.984813 18163 net.cpp:425] inception_4d/output_inception_4d/output_0_split <- inception_4d/output
I0403 15:03:46.984833 18163 net.cpp:399] inception_4d/output_inception_4d/output_0_split -> inception_4d/output_inception_4d/output_0_split_0
I0403 15:03:46.984868 18163 net.cpp:399] inception_4d/output_inception_4d/output_0_split -> inception_4d/output_inception_4d/output_0_split_1
I0403 15:03:46.984887 18163 net.cpp:399] inception_4d/output_inception_4d/output_0_split -> inception_4d/output_inception_4d/output_0_split_2
I0403 15:03:46.984910 18163 net.cpp:399] inception_4d/output_inception_4d/output_0_split -> inception_4d/output_inception_4d/output_0_split_3
I0403 15:03:46.984930 18163 net.cpp:399] inception_4d/output_inception_4d/output_0_split -> inception_4d/output_inception_4d/output_0_split_4
I0403 15:03:46.985050 18163 net.cpp:141] Setting up inception_4d/output_inception_4d/output_0_split
I0403 15:03:46.985087 18163 net.cpp:148] Top shape: 24 528 14 14 (2483712)
I0403 15:03:46.985105 18163 net.cpp:148] Top shape: 24 528 14 14 (2483712)
I0403 15:03:46.985121 18163 net.cpp:148] Top shape: 24 528 14 14 (2483712)
I0403 15:03:46.985148 18163 net.cpp:148] Top shape: 24 528 14 14 (2483712)
I0403 15:03:46.985163 18163 net.cpp:148] Top shape: 24 528 14 14 (2483712)
I0403 15:03:46.985177 18163 net.cpp:156] Memory required for data: 1206918432
I0403 15:03:46.985191 18163 layer_factory.hpp:77] Creating layer loss2/ave_pool
I0403 15:03:46.985208 18163 net.cpp:91] Creating Layer loss2/ave_pool
I0403 15:03:46.985224 18163 net.cpp:425] loss2/ave_pool <- inception_4d/output_inception_4d/output_0_split_0
I0403 15:03:46.985245 18163 net.cpp:399] loss2/ave_pool -> loss2/ave_pool
I0403 15:03:46.985576 18163 net.cpp:141] Setting up loss2/ave_pool
I0403 15:03:46.985615 18163 net.cpp:148] Top shape: 24 528 4 4 (202752)
I0403 15:03:46.985630 18163 net.cpp:156] Memory required for data: 1207729440
I0403 15:03:46.985646 18163 layer_factory.hpp:77] Creating layer loss2/conv
I0403 15:03:46.985668 18163 net.cpp:91] Creating Layer loss2/conv
I0403 15:03:46.985687 18163 net.cpp:425] loss2/conv <- loss2/ave_pool
I0403 15:03:46.985708 18163 net.cpp:399] loss2/conv -> loss2/conv
I0403 15:03:46.987694 18163 net.cpp:141] Setting up loss2/conv
I0403 15:03:46.987723 18163 net.cpp:148] Top shape: 24 128 4 4 (49152)
I0403 15:03:46.987740 18163 net.cpp:156] Memory required for data: 1207926048
I0403 15:03:46.987757 18163 layer_factory.hpp:77] Creating layer loss2/relu_conv
I0403 15:03:46.987787 18163 net.cpp:91] Creating Layer loss2/relu_conv
I0403 15:03:46.987803 18163 net.cpp:425] loss2/relu_conv <- loss2/conv
I0403 15:03:46.987820 18163 net.cpp:386] loss2/relu_conv -> loss2/conv (in-place)
I0403 15:03:46.988159 18163 net.cpp:141] Setting up loss2/relu_conv
I0403 15:03:46.988189 18163 net.cpp:148] Top shape: 24 128 4 4 (49152)
I0403 15:03:46.988206 18163 net.cpp:156] Memory required for data: 1208122656
I0403 15:03:46.988221 18163 layer_factory.hpp:77] Creating layer loss2/fc
I0403 15:03:46.988242 18163 net.cpp:91] Creating Layer loss2/fc
I0403 15:03:46.988270 18163 net.cpp:425] loss2/fc <- loss2/conv
I0403 15:03:46.988291 18163 net.cpp:399] loss2/fc -> loss2/fc
I0403 15:03:47.006948 18163 net.cpp:141] Setting up loss2/fc
I0403 15:03:47.007024 18163 net.cpp:148] Top shape: 24 1024 (24576)
I0403 15:03:47.007040 18163 net.cpp:156] Memory required for data: 1208220960
I0403 15:03:47.007061 18163 layer_factory.hpp:77] Creating layer loss2/relu_fc
I0403 15:03:47.007082 18163 net.cpp:91] Creating Layer loss2/relu_fc
I0403 15:03:47.007102 18163 net.cpp:425] loss2/relu_fc <- loss2/fc
I0403 15:03:47.007120 18163 net.cpp:386] loss2/relu_fc -> loss2/fc (in-place)
I0403 15:03:47.007486 18163 net.cpp:141] Setting up loss2/relu_fc
I0403 15:03:47.007513 18163 net.cpp:148] Top shape: 24 1024 (24576)
I0403 15:03:47.007529 18163 net.cpp:156] Memory required for data: 1208319264
I0403 15:03:47.007544 18163 layer_factory.hpp:77] Creating layer loss2/drop_fc
I0403 15:03:47.007565 18163 net.cpp:91] Creating Layer loss2/drop_fc
I0403 15:03:47.007582 18163 net.cpp:425] loss2/drop_fc <- loss2/fc
I0403 15:03:47.007612 18163 net.cpp:386] loss2/drop_fc -> loss2/fc (in-place)
I0403 15:03:47.007673 18163 net.cpp:141] Setting up loss2/drop_fc
I0403 15:03:47.007700 18163 net.cpp:148] Top shape: 24 1024 (24576)
I0403 15:03:47.007719 18163 net.cpp:156] Memory required for data: 1208417568
I0403 15:03:47.007735 18163 layer_factory.hpp:77] Creating layer loss2/classifier_plantvillage
I0403 15:03:47.007753 18163 net.cpp:91] Creating Layer loss2/classifier_plantvillage
I0403 15:03:47.007771 18163 net.cpp:425] loss2/classifier_plantvillage <- loss2/fc
I0403 15:03:47.007791 18163 net.cpp:399] loss2/classifier_plantvillage -> loss2/classifier_plantvillage
I0403 15:03:47.008285 18163 net.cpp:141] Setting up loss2/classifier_plantvillage
I0403 15:03:47.008319 18163 net.cpp:148] Top shape: 24 38 (912)
I0403 15:03:47.008359 18163 net.cpp:156] Memory required for data: 1208421216
I0403 15:03:47.008380 18163 layer_factory.hpp:77] Creating layer loss2/classifier_plantvillage_loss2/classifier_plantvillage_0_split
I0403 15:03:47.008400 18163 net.cpp:91] Creating Layer loss2/classifier_plantvillage_loss2/classifier_plantvillage_0_split
I0403 15:03:47.008417 18163 net.cpp:425] loss2/classifier_plantvillage_loss2/classifier_plantvillage_0_split <- loss2/classifier_plantvillage
I0403 15:03:47.008435 18163 net.cpp:399] loss2/classifier_plantvillage_loss2/classifier_plantvillage_0_split -> loss2/classifier_plantvillage_loss2/classifier_plantvillage_0_split_0
I0403 15:03:47.008458 18163 net.cpp:399] loss2/classifier_plantvillage_loss2/classifier_plantvillage_0_split -> loss2/classifier_plantvillage_loss2/classifier_plantvillage_0_split_1
I0403 15:03:47.008482 18163 net.cpp:399] loss2/classifier_plantvillage_loss2/classifier_plantvillage_0_split -> loss2/classifier_plantvillage_loss2/classifier_plantvillage_0_split_2
I0403 15:03:47.008576 18163 net.cpp:141] Setting up loss2/classifier_plantvillage_loss2/classifier_plantvillage_0_split
I0403 15:03:47.008610 18163 net.cpp:148] Top shape: 24 38 (912)
I0403 15:03:47.008626 18163 net.cpp:148] Top shape: 24 38 (912)
I0403 15:03:47.008642 18163 net.cpp:148] Top shape: 24 38 (912)
I0403 15:03:47.008656 18163 net.cpp:156] Memory required for data: 1208432160
I0403 15:03:47.008671 18163 layer_factory.hpp:77] Creating layer inception_4e/1x1
I0403 15:03:47.008695 18163 net.cpp:91] Creating Layer inception_4e/1x1
I0403 15:03:47.008713 18163 net.cpp:425] inception_4e/1x1 <- inception_4d/output_inception_4d/output_0_split_1
I0403 15:03:47.008734 18163 net.cpp:399] inception_4e/1x1 -> inception_4e/1x1
I0403 15:03:47.010701 18163 net.cpp:141] Setting up inception_4e/1x1
I0403 15:03:47.010730 18163 net.cpp:148] Top shape: 24 256 14 14 (1204224)
I0403 15:03:47.010746 18163 net.cpp:156] Memory required for data: 1213249056
I0403 15:03:47.010768 18163 layer_factory.hpp:77] Creating layer inception_4e/relu_1x1
I0403 15:03:47.010787 18163 net.cpp:91] Creating Layer inception_4e/relu_1x1
I0403 15:03:47.010804 18163 net.cpp:425] inception_4e/relu_1x1 <- inception_4e/1x1
I0403 15:03:47.010823 18163 net.cpp:386] inception_4e/relu_1x1 -> inception_4e/1x1 (in-place)
I0403 15:03:47.011170 18163 net.cpp:141] Setting up inception_4e/relu_1x1
I0403 15:03:47.011198 18163 net.cpp:148] Top shape: 24 256 14 14 (1204224)
I0403 15:03:47.011212 18163 net.cpp:156] Memory required for data: 1218065952
I0403 15:03:47.011227 18163 layer_factory.hpp:77] Creating layer inception_4e/3x3_reduce
I0403 15:03:47.011260 18163 net.cpp:91] Creating Layer inception_4e/3x3_reduce
I0403 15:03:47.011278 18163 net.cpp:425] inception_4e/3x3_reduce <- inception_4d/output_inception_4d/output_0_split_2
I0403 15:03:47.011297 18163 net.cpp:399] inception_4e/3x3_reduce -> inception_4e/3x3_reduce
I0403 15:03:47.013597 18163 net.cpp:141] Setting up inception_4e/3x3_reduce
I0403 15:03:47.013625 18163 net.cpp:148] Top shape: 24 160 14 14 (752640)
I0403 15:03:47.013641 18163 net.cpp:156] Memory required for data: 1221076512
I0403 15:03:47.013660 18163 layer_factory.hpp:77] Creating layer inception_4e/relu_3x3_reduce
I0403 15:03:47.013681 18163 net.cpp:91] Creating Layer inception_4e/relu_3x3_reduce
I0403 15:03:47.013700 18163 net.cpp:425] inception_4e/relu_3x3_reduce <- inception_4e/3x3_reduce
I0403 15:03:47.013716 18163 net.cpp:386] inception_4e/relu_3x3_reduce -> inception_4e/3x3_reduce (in-place)
I0403 15:03:47.013926 18163 net.cpp:141] Setting up inception_4e/relu_3x3_reduce
I0403 15:03:47.013962 18163 net.cpp:148] Top shape: 24 160 14 14 (752640)
I0403 15:03:47.013980 18163 net.cpp:156] Memory required for data: 1224087072
I0403 15:03:47.013996 18163 layer_factory.hpp:77] Creating layer inception_4e/3x3
I0403 15:03:47.014020 18163 net.cpp:91] Creating Layer inception_4e/3x3
I0403 15:03:47.014039 18163 net.cpp:425] inception_4e/3x3 <- inception_4e/3x3_reduce
I0403 15:03:47.014057 18163 net.cpp:399] inception_4e/3x3 -> inception_4e/3x3
I0403 15:03:47.019407 18163 net.cpp:141] Setting up inception_4e/3x3
I0403 15:03:47.019451 18163 net.cpp:148] Top shape: 24 320 14 14 (1505280)
I0403 15:03:47.019469 18163 net.cpp:156] Memory required for data: 1230108192
I0403 15:03:47.019487 18163 layer_factory.hpp:77] Creating layer inception_4e/relu_3x3
I0403 15:03:47.019506 18163 net.cpp:91] Creating Layer inception_4e/relu_3x3
I0403 15:03:47.019523 18163 net.cpp:425] inception_4e/relu_3x3 <- inception_4e/3x3
I0403 15:03:47.019549 18163 net.cpp:386] inception_4e/relu_3x3 -> inception_4e/3x3 (in-place)
I0403 15:03:47.019860 18163 net.cpp:141] Setting up inception_4e/relu_3x3
I0403 15:03:47.019886 18163 net.cpp:148] Top shape: 24 320 14 14 (1505280)
I0403 15:03:47.019901 18163 net.cpp:156] Memory required for data: 1236129312
I0403 15:03:47.019917 18163 layer_factory.hpp:77] Creating layer inception_4e/5x5_reduce
I0403 15:03:47.019943 18163 net.cpp:91] Creating Layer inception_4e/5x5_reduce
I0403 15:03:47.019969 18163 net.cpp:425] inception_4e/5x5_reduce <- inception_4d/output_inception_4d/output_0_split_3
I0403 15:03:47.019992 18163 net.cpp:399] inception_4e/5x5_reduce -> inception_4e/5x5_reduce
I0403 15:03:47.021109 18163 net.cpp:141] Setting up inception_4e/5x5_reduce
I0403 15:03:47.021137 18163 net.cpp:148] Top shape: 24 32 14 14 (150528)
I0403 15:03:47.021152 18163 net.cpp:156] Memory required for data: 1236731424
I0403 15:03:47.021172 18163 layer_factory.hpp:77] Creating layer inception_4e/relu_5x5_reduce
I0403 15:03:47.021193 18163 net.cpp:91] Creating Layer inception_4e/relu_5x5_reduce
I0403 15:03:47.021210 18163 net.cpp:425] inception_4e/relu_5x5_reduce <- inception_4e/5x5_reduce
I0403 15:03:47.021227 18163 net.cpp:386] inception_4e/relu_5x5_reduce -> inception_4e/5x5_reduce (in-place)
I0403 15:03:47.021555 18163 net.cpp:141] Setting up inception_4e/relu_5x5_reduce
I0403 15:03:47.021582 18163 net.cpp:148] Top shape: 24 32 14 14 (150528)
I0403 15:03:47.021598 18163 net.cpp:156] Memory required for data: 1237333536
I0403 15:03:47.021625 18163 layer_factory.hpp:77] Creating layer inception_4e/5x5
I0403 15:03:47.021666 18163 net.cpp:91] Creating Layer inception_4e/5x5
I0403 15:03:47.021685 18163 net.cpp:425] inception_4e/5x5 <- inception_4e/5x5_reduce
I0403 15:03:47.021704 18163 net.cpp:399] inception_4e/5x5 -> inception_4e/5x5
I0403 15:03:47.023706 18163 net.cpp:141] Setting up inception_4e/5x5
I0403 15:03:47.023736 18163 net.cpp:148] Top shape: 24 128 14 14 (602112)
I0403 15:03:47.023751 18163 net.cpp:156] Memory required for data: 1239741984
I0403 15:03:47.023771 18163 layer_factory.hpp:77] Creating layer inception_4e/relu_5x5
I0403 15:03:47.023792 18163 net.cpp:91] Creating Layer inception_4e/relu_5x5
I0403 15:03:47.023809 18163 net.cpp:425] inception_4e/relu_5x5 <- inception_4e/5x5
I0403 15:03:47.023826 18163 net.cpp:386] inception_4e/relu_5x5 -> inception_4e/5x5 (in-place)
I0403 15:03:47.024037 18163 net.cpp:141] Setting up inception_4e/relu_5x5
I0403 15:03:47.024066 18163 net.cpp:148] Top shape: 24 128 14 14 (602112)
I0403 15:03:47.024082 18163 net.cpp:156] Memory required for data: 1242150432
I0403 15:03:47.024097 18163 layer_factory.hpp:77] Creating layer inception_4e/pool
I0403 15:03:47.024116 18163 net.cpp:91] Creating Layer inception_4e/pool
I0403 15:03:47.024133 18163 net.cpp:425] inception_4e/pool <- inception_4d/output_inception_4d/output_0_split_4
I0403 15:03:47.024152 18163 net.cpp:399] inception_4e/pool -> inception_4e/pool
I0403 15:03:47.024225 18163 net.cpp:141] Setting up inception_4e/pool
I0403 15:03:47.024250 18163 net.cpp:148] Top shape: 24 528 14 14 (2483712)
I0403 15:03:47.024265 18163 net.cpp:156] Memory required for data: 1252085280
I0403 15:03:47.024279 18163 layer_factory.hpp:77] Creating layer inception_4e/pool_proj
I0403 15:03:47.024303 18163 net.cpp:91] Creating Layer inception_4e/pool_proj
I0403 15:03:47.024322 18163 net.cpp:425] inception_4e/pool_proj <- inception_4e/pool
I0403 15:03:47.024343 18163 net.cpp:399] inception_4e/pool_proj -> inception_4e/pool_proj
I0403 15:03:47.025936 18163 net.cpp:141] Setting up inception_4e/pool_proj
I0403 15:03:47.025982 18163 net.cpp:148] Top shape: 24 128 14 14 (602112)
I0403 15:03:47.026000 18163 net.cpp:156] Memory required for data: 1254493728
I0403 15:03:47.026018 18163 layer_factory.hpp:77] Creating layer inception_4e/relu_pool_proj
I0403 15:03:47.026036 18163 net.cpp:91] Creating Layer inception_4e/relu_pool_proj
I0403 15:03:47.026052 18163 net.cpp:425] inception_4e/relu_pool_proj <- inception_4e/pool_proj
I0403 15:03:47.026072 18163 net.cpp:386] inception_4e/relu_pool_proj -> inception_4e/pool_proj (in-place)
I0403 15:03:47.026376 18163 net.cpp:141] Setting up inception_4e/relu_pool_proj
I0403 15:03:47.026403 18163 net.cpp:148] Top shape: 24 128 14 14 (602112)
I0403 15:03:47.026418 18163 net.cpp:156] Memory required for data: 1256902176
I0403 15:03:47.026433 18163 layer_factory.hpp:77] Creating layer inception_4e/output
I0403 15:03:47.026453 18163 net.cpp:91] Creating Layer inception_4e/output
I0403 15:03:47.026480 18163 net.cpp:425] inception_4e/output <- inception_4e/1x1
I0403 15:03:47.026504 18163 net.cpp:425] inception_4e/output <- inception_4e/3x3
I0403 15:03:47.026521 18163 net.cpp:425] inception_4e/output <- inception_4e/5x5
I0403 15:03:47.026538 18163 net.cpp:425] inception_4e/output <- inception_4e/pool_proj
I0403 15:03:47.026558 18163 net.cpp:399] inception_4e/output -> inception_4e/output
I0403 15:03:47.026612 18163 net.cpp:141] Setting up inception_4e/output
I0403 15:03:47.026639 18163 net.cpp:148] Top shape: 24 832 14 14 (3913728)
I0403 15:03:47.026655 18163 net.cpp:156] Memory required for data: 1272557088
I0403 15:03:47.026670 18163 layer_factory.hpp:77] Creating layer pool4/3x3_s2
I0403 15:03:47.026689 18163 net.cpp:91] Creating Layer pool4/3x3_s2
I0403 15:03:47.026705 18163 net.cpp:425] pool4/3x3_s2 <- inception_4e/output
I0403 15:03:47.026726 18163 net.cpp:399] pool4/3x3_s2 -> pool4/3x3_s2
I0403 15:03:47.026818 18163 net.cpp:141] Setting up pool4/3x3_s2
I0403 15:03:47.026842 18163 net.cpp:148] Top shape: 24 832 7 7 (978432)
I0403 15:03:47.026856 18163 net.cpp:156] Memory required for data: 1276470816
I0403 15:03:47.026870 18163 layer_factory.hpp:77] Creating layer pool4/3x3_s2_pool4/3x3_s2_0_split
I0403 15:03:47.026890 18163 net.cpp:91] Creating Layer pool4/3x3_s2_pool4/3x3_s2_0_split
I0403 15:03:47.026906 18163 net.cpp:425] pool4/3x3_s2_pool4/3x3_s2_0_split <- pool4/3x3_s2
I0403 15:03:47.026923 18163 net.cpp:399] pool4/3x3_s2_pool4/3x3_s2_0_split -> pool4/3x3_s2_pool4/3x3_s2_0_split_0
I0403 15:03:47.026943 18163 net.cpp:399] pool4/3x3_s2_pool4/3x3_s2_0_split -> pool4/3x3_s2_pool4/3x3_s2_0_split_1
I0403 15:03:47.026974 18163 net.cpp:399] pool4/3x3_s2_pool4/3x3_s2_0_split -> pool4/3x3_s2_pool4/3x3_s2_0_split_2
I0403 15:03:47.026996 18163 net.cpp:399] pool4/3x3_s2_pool4/3x3_s2_0_split -> pool4/3x3_s2_pool4/3x3_s2_0_split_3
I0403 15:03:47.027087 18163 net.cpp:141] Setting up pool4/3x3_s2_pool4/3x3_s2_0_split
I0403 15:03:47.027109 18163 net.cpp:148] Top shape: 24 832 7 7 (978432)
I0403 15:03:47.027125 18163 net.cpp:148] Top shape: 24 832 7 7 (978432)
I0403 15:03:47.027142 18163 net.cpp:148] Top shape: 24 832 7 7 (978432)
I0403 15:03:47.027156 18163 net.cpp:148] Top shape: 24 832 7 7 (978432)
I0403 15:03:47.027170 18163 net.cpp:156] Memory required for data: 1292125728
I0403 15:03:47.027184 18163 layer_factory.hpp:77] Creating layer inception_5a/1x1
I0403 15:03:47.027206 18163 net.cpp:91] Creating Layer inception_5a/1x1
I0403 15:03:47.027223 18163 net.cpp:425] inception_5a/1x1 <- pool4/3x3_s2_pool4/3x3_s2_0_split_0
I0403 15:03:47.027243 18163 net.cpp:399] inception_5a/1x1 -> inception_5a/1x1
I0403 15:03:47.030194 18163 net.cpp:141] Setting up inception_5a/1x1
I0403 15:03:47.030222 18163 net.cpp:148] Top shape: 24 256 7 7 (301056)
I0403 15:03:47.030238 18163 net.cpp:156] Memory required for data: 1293329952
I0403 15:03:47.030256 18163 layer_factory.hpp:77] Creating layer inception_5a/relu_1x1
I0403 15:03:47.030279 18163 net.cpp:91] Creating Layer inception_5a/relu_1x1
I0403 15:03:47.030297 18163 net.cpp:425] inception_5a/relu_1x1 <- inception_5a/1x1
I0403 15:03:47.030313 18163 net.cpp:386] inception_5a/relu_1x1 -> inception_5a/1x1 (in-place)
I0403 15:03:47.030644 18163 net.cpp:141] Setting up inception_5a/relu_1x1
I0403 15:03:47.030671 18163 net.cpp:148] Top shape: 24 256 7 7 (301056)
I0403 15:03:47.030688 18163 net.cpp:156] Memory required for data: 1294534176
I0403 15:03:47.030702 18163 layer_factory.hpp:77] Creating layer inception_5a/3x3_reduce
I0403 15:03:47.030726 18163 net.cpp:91] Creating Layer inception_5a/3x3_reduce
I0403 15:03:47.030745 18163 net.cpp:425] inception_5a/3x3_reduce <- pool4/3x3_s2_pool4/3x3_s2_0_split_1
I0403 15:03:47.030766 18163 net.cpp:399] inception_5a/3x3_reduce -> inception_5a/3x3_reduce
I0403 15:03:47.033422 18163 net.cpp:141] Setting up inception_5a/3x3_reduce
I0403 15:03:47.033464 18163 net.cpp:148] Top shape: 24 160 7 7 (188160)
I0403 15:03:47.033480 18163 net.cpp:156] Memory required for data: 1295286816
I0403 15:03:47.033499 18163 layer_factory.hpp:77] Creating layer inception_5a/relu_3x3_reduce
I0403 15:03:47.033515 18163 net.cpp:91] Creating Layer inception_5a/relu_3x3_reduce
I0403 15:03:47.033532 18163 net.cpp:425] inception_5a/relu_3x3_reduce <- inception_5a/3x3_reduce
I0403 15:03:47.033551 18163 net.cpp:386] inception_5a/relu_3x3_reduce -> inception_5a/3x3_reduce (in-place)
I0403 15:03:47.033743 18163 net.cpp:141] Setting up inception_5a/relu_3x3_reduce
I0403 15:03:47.033768 18163 net.cpp:148] Top shape: 24 160 7 7 (188160)
I0403 15:03:47.033783 18163 net.cpp:156] Memory required for data: 1296039456
I0403 15:03:47.033797 18163 layer_factory.hpp:77] Creating layer inception_5a/3x3
I0403 15:03:47.033819 18163 net.cpp:91] Creating Layer inception_5a/3x3
I0403 15:03:47.033838 18163 net.cpp:425] inception_5a/3x3 <- inception_5a/3x3_reduce
I0403 15:03:47.033859 18163 net.cpp:399] inception_5a/3x3 -> inception_5a/3x3
I0403 15:03:47.039019 18163 net.cpp:141] Setting up inception_5a/3x3
I0403 15:03:47.039050 18163 net.cpp:148] Top shape: 24 320 7 7 (376320)
I0403 15:03:47.039067 18163 net.cpp:156] Memory required for data: 1297544736
I0403 15:03:47.039084 18163 layer_factory.hpp:77] Creating layer inception_5a/relu_3x3
I0403 15:03:47.039104 18163 net.cpp:91] Creating Layer inception_5a/relu_3x3
I0403 15:03:47.039122 18163 net.cpp:425] inception_5a/relu_3x3 <- inception_5a/3x3
I0403 15:03:47.039139 18163 net.cpp:386] inception_5a/relu_3x3 -> inception_5a/3x3 (in-place)
I0403 15:03:47.039471 18163 net.cpp:141] Setting up inception_5a/relu_3x3
I0403 15:03:47.039497 18163 net.cpp:148] Top shape: 24 320 7 7 (376320)
I0403 15:03:47.039513 18163 net.cpp:156] Memory required for data: 1299050016
I0403 15:03:47.039528 18163 layer_factory.hpp:77] Creating layer inception_5a/5x5_reduce
I0403 15:03:47.039551 18163 net.cpp:91] Creating Layer inception_5a/5x5_reduce
I0403 15:03:47.039568 18163 net.cpp:425] inception_5a/5x5_reduce <- pool4/3x3_s2_pool4/3x3_s2_0_split_2
I0403 15:03:47.039592 18163 net.cpp:399] inception_5a/5x5_reduce -> inception_5a/5x5_reduce
I0403 15:03:47.040804 18163 net.cpp:141] Setting up inception_5a/5x5_reduce
I0403 15:03:47.040835 18163 net.cpp:148] Top shape: 24 32 7 7 (37632)
I0403 15:03:47.040851 18163 net.cpp:156] Memory required for data: 1299200544
I0403 15:03:47.040869 18163 layer_factory.hpp:77] Creating layer inception_5a/relu_5x5_reduce
I0403 15:03:47.040887 18163 net.cpp:91] Creating Layer inception_5a/relu_5x5_reduce
I0403 15:03:47.040904 18163 net.cpp:425] inception_5a/relu_5x5_reduce <- inception_5a/5x5_reduce
I0403 15:03:47.040920 18163 net.cpp:386] inception_5a/relu_5x5_reduce -> inception_5a/5x5_reduce (in-place)
I0403 15:03:47.041229 18163 net.cpp:141] Setting up inception_5a/relu_5x5_reduce
I0403 15:03:47.041256 18163 net.cpp:148] Top shape: 24 32 7 7 (37632)
I0403 15:03:47.041272 18163 net.cpp:156] Memory required for data: 1299351072
I0403 15:03:47.041286 18163 layer_factory.hpp:77] Creating layer inception_5a/5x5
I0403 15:03:47.041306 18163 net.cpp:91] Creating Layer inception_5a/5x5
I0403 15:03:47.041323 18163 net.cpp:425] inception_5a/5x5 <- inception_5a/5x5_reduce
I0403 15:03:47.041345 18163 net.cpp:399] inception_5a/5x5 -> inception_5a/5x5
I0403 15:03:47.043094 18163 net.cpp:141] Setting up inception_5a/5x5
I0403 15:03:47.043135 18163 net.cpp:148] Top shape: 24 128 7 7 (150528)
I0403 15:03:47.043151 18163 net.cpp:156] Memory required for data: 1299953184
I0403 15:03:47.043169 18163 layer_factory.hpp:77] Creating layer inception_5a/relu_5x5
I0403 15:03:47.043190 18163 net.cpp:91] Creating Layer inception_5a/relu_5x5
I0403 15:03:47.043207 18163 net.cpp:425] inception_5a/relu_5x5 <- inception_5a/5x5
I0403 15:03:47.043225 18163 net.cpp:386] inception_5a/relu_5x5 -> inception_5a/5x5 (in-place)
I0403 15:03:47.043416 18163 net.cpp:141] Setting up inception_5a/relu_5x5
I0403 15:03:47.043447 18163 net.cpp:148] Top shape: 24 128 7 7 (150528)
I0403 15:03:47.043463 18163 net.cpp:156] Memory required for data: 1300555296
I0403 15:03:47.043478 18163 layer_factory.hpp:77] Creating layer inception_5a/pool
I0403 15:03:47.043496 18163 net.cpp:91] Creating Layer inception_5a/pool
I0403 15:03:47.043512 18163 net.cpp:425] inception_5a/pool <- pool4/3x3_s2_pool4/3x3_s2_0_split_3
I0403 15:03:47.043530 18163 net.cpp:399] inception_5a/pool -> inception_5a/pool
I0403 15:03:47.043603 18163 net.cpp:141] Setting up inception_5a/pool
I0403 15:03:47.043627 18163 net.cpp:148] Top shape: 24 832 7 7 (978432)
I0403 15:03:47.043640 18163 net.cpp:156] Memory required for data: 1304469024
I0403 15:03:47.043655 18163 layer_factory.hpp:77] Creating layer inception_5a/pool_proj
I0403 15:03:47.043678 18163 net.cpp:91] Creating Layer inception_5a/pool_proj
I0403 15:03:47.043695 18163 net.cpp:425] inception_5a/pool_proj <- inception_5a/pool
I0403 15:03:47.043716 18163 net.cpp:399] inception_5a/pool_proj -> inception_5a/pool_proj
I0403 15:03:47.046099 18163 net.cpp:141] Setting up inception_5a/pool_proj
I0403 15:03:47.046129 18163 net.cpp:148] Top shape: 24 128 7 7 (150528)
I0403 15:03:47.046144 18163 net.cpp:156] Memory required for data: 1305071136
I0403 15:03:47.046164 18163 layer_factory.hpp:77] Creating layer inception_5a/relu_pool_proj
I0403 15:03:47.046183 18163 net.cpp:91] Creating Layer inception_5a/relu_pool_proj
I0403 15:03:47.046201 18163 net.cpp:425] inception_5a/relu_pool_proj <- inception_5a/pool_proj
I0403 15:03:47.046218 18163 net.cpp:386] inception_5a/relu_pool_proj -> inception_5a/pool_proj (in-place)
I0403 15:03:47.046514 18163 net.cpp:141] Setting up inception_5a/relu_pool_proj
I0403 15:03:47.046540 18163 net.cpp:148] Top shape: 24 128 7 7 (150528)
I0403 15:03:47.046555 18163 net.cpp:156] Memory required for data: 1305673248
I0403 15:03:47.046571 18163 layer_factory.hpp:77] Creating layer inception_5a/output
I0403 15:03:47.046588 18163 net.cpp:91] Creating Layer inception_5a/output
I0403 15:03:47.046604 18163 net.cpp:425] inception_5a/output <- inception_5a/1x1
I0403 15:03:47.046620 18163 net.cpp:425] inception_5a/output <- inception_5a/3x3
I0403 15:03:47.046638 18163 net.cpp:425] inception_5a/output <- inception_5a/5x5
I0403 15:03:47.046653 18163 net.cpp:425] inception_5a/output <- inception_5a/pool_proj
I0403 15:03:47.046671 18163 net.cpp:399] inception_5a/output -> inception_5a/output
I0403 15:03:47.046722 18163 net.cpp:141] Setting up inception_5a/output
I0403 15:03:47.046748 18163 net.cpp:148] Top shape: 24 832 7 7 (978432)
I0403 15:03:47.046766 18163 net.cpp:156] Memory required for data: 1309586976
I0403 15:03:47.046780 18163 layer_factory.hpp:77] Creating layer inception_5a/output_inception_5a/output_0_split
I0403 15:03:47.046797 18163 net.cpp:91] Creating Layer inception_5a/output_inception_5a/output_0_split
I0403 15:03:47.046813 18163 net.cpp:425] inception_5a/output_inception_5a/output_0_split <- inception_5a/output
I0403 15:03:47.046833 18163 net.cpp:399] inception_5a/output_inception_5a/output_0_split -> inception_5a/output_inception_5a/output_0_split_0
I0403 15:03:47.046854 18163 net.cpp:399] inception_5a/output_inception_5a/output_0_split -> inception_5a/output_inception_5a/output_0_split_1
I0403 15:03:47.046875 18163 net.cpp:399] inception_5a/output_inception_5a/output_0_split -> inception_5a/output_inception_5a/output_0_split_2
I0403 15:03:47.046895 18163 net.cpp:399] inception_5a/output_inception_5a/output_0_split -> inception_5a/output_inception_5a/output_0_split_3
I0403 15:03:47.047016 18163 net.cpp:141] Setting up inception_5a/output_inception_5a/output_0_split
I0403 15:03:47.047040 18163 net.cpp:148] Top shape: 24 832 7 7 (978432)
I0403 15:03:47.047065 18163 net.cpp:148] Top shape: 24 832 7 7 (978432)
I0403 15:03:47.047080 18163 net.cpp:148] Top shape: 24 832 7 7 (978432)
I0403 15:03:47.047094 18163 net.cpp:148] Top shape: 24 832 7 7 (978432)
I0403 15:03:47.047108 18163 net.cpp:156] Memory required for data: 1325241888
I0403 15:03:47.047123 18163 layer_factory.hpp:77] Creating layer inception_5b/1x1
I0403 15:03:47.047143 18163 net.cpp:91] Creating Layer inception_5b/1x1
I0403 15:03:47.047160 18163 net.cpp:425] inception_5b/1x1 <- inception_5a/output_inception_5a/output_0_split_0
I0403 15:03:47.047181 18163 net.cpp:399] inception_5b/1x1 -> inception_5b/1x1
I0403 15:03:47.051076 18163 net.cpp:141] Setting up inception_5b/1x1
I0403 15:03:47.051105 18163 net.cpp:148] Top shape: 24 384 7 7 (451584)
I0403 15:03:47.051121 18163 net.cpp:156] Memory required for data: 1327048224
I0403 15:03:47.051139 18163 layer_factory.hpp:77] Creating layer inception_5b/relu_1x1
I0403 15:03:47.051157 18163 net.cpp:91] Creating Layer inception_5b/relu_1x1
I0403 15:03:47.051174 18163 net.cpp:425] inception_5b/relu_1x1 <- inception_5b/1x1
I0403 15:03:47.051193 18163 net.cpp:386] inception_5b/relu_1x1 -> inception_5b/1x1 (in-place)
I0403 15:03:47.051503 18163 net.cpp:141] Setting up inception_5b/relu_1x1
I0403 15:03:47.051529 18163 net.cpp:148] Top shape: 24 384 7 7 (451584)
I0403 15:03:47.051544 18163 net.cpp:156] Memory required for data: 1328854560
I0403 15:03:47.051559 18163 layer_factory.hpp:77] Creating layer inception_5b/3x3_reduce
I0403 15:03:47.051581 18163 net.cpp:91] Creating Layer inception_5b/3x3_reduce
I0403 15:03:47.051599 18163 net.cpp:425] inception_5b/3x3_reduce <- inception_5a/output_inception_5a/output_0_split_1
I0403 15:03:47.051620 18163 net.cpp:399] inception_5b/3x3_reduce -> inception_5b/3x3_reduce
I0403 15:03:47.054368 18163 net.cpp:141] Setting up inception_5b/3x3_reduce
I0403 15:03:47.054397 18163 net.cpp:148] Top shape: 24 192 7 7 (225792)
I0403 15:03:47.054414 18163 net.cpp:156] Memory required for data: 1329757728
I0403 15:03:47.054431 18163 layer_factory.hpp:77] Creating layer inception_5b/relu_3x3_reduce
I0403 15:03:47.054451 18163 net.cpp:91] Creating Layer inception_5b/relu_3x3_reduce
I0403 15:03:47.054468 18163 net.cpp:425] inception_5b/relu_3x3_reduce <- inception_5b/3x3_reduce
I0403 15:03:47.054486 18163 net.cpp:386] inception_5b/relu_3x3_reduce -> inception_5b/3x3_reduce (in-place)
I0403 15:03:47.054677 18163 net.cpp:141] Setting up inception_5b/relu_3x3_reduce
I0403 15:03:47.054702 18163 net.cpp:148] Top shape: 24 192 7 7 (225792)
I0403 15:03:47.054715 18163 net.cpp:156] Memory required for data: 1330660896
I0403 15:03:47.054729 18163 layer_factory.hpp:77] Creating layer inception_5b/3x3
I0403 15:03:47.054754 18163 net.cpp:91] Creating Layer inception_5b/3x3
I0403 15:03:47.054771 18163 net.cpp:425] inception_5b/3x3 <- inception_5b/3x3_reduce
I0403 15:03:47.054793 18163 net.cpp:399] inception_5b/3x3 -> inception_5b/3x3
I0403 15:03:47.062093 18163 net.cpp:141] Setting up inception_5b/3x3
I0403 15:03:47.062124 18163 net.cpp:148] Top shape: 24 384 7 7 (451584)
I0403 15:03:47.062140 18163 net.cpp:156] Memory required for data: 1332467232
I0403 15:03:47.062158 18163 layer_factory.hpp:77] Creating layer inception_5b/relu_3x3
I0403 15:03:47.062180 18163 net.cpp:91] Creating Layer inception_5b/relu_3x3
I0403 15:03:47.062197 18163 net.cpp:425] inception_5b/relu_3x3 <- inception_5b/3x3
I0403 15:03:47.062216 18163 net.cpp:386] inception_5b/relu_3x3 -> inception_5b/3x3 (in-place)
I0403 15:03:47.062537 18163 net.cpp:141] Setting up inception_5b/relu_3x3
I0403 15:03:47.062566 18163 net.cpp:148] Top shape: 24 384 7 7 (451584)
I0403 15:03:47.062582 18163 net.cpp:156] Memory required for data: 1334273568
I0403 15:03:47.062597 18163 layer_factory.hpp:77] Creating layer inception_5b/5x5_reduce
I0403 15:03:47.062638 18163 net.cpp:91] Creating Layer inception_5b/5x5_reduce
I0403 15:03:47.062659 18163 net.cpp:425] inception_5b/5x5_reduce <- inception_5a/output_inception_5a/output_0_split_2
I0403 15:03:47.062682 18163 net.cpp:399] inception_5b/5x5_reduce -> inception_5b/5x5_reduce
I0403 15:03:47.064085 18163 net.cpp:141] Setting up inception_5b/5x5_reduce
I0403 15:03:47.064113 18163 net.cpp:148] Top shape: 24 48 7 7 (56448)
I0403 15:03:47.064128 18163 net.cpp:156] Memory required for data: 1334499360
I0403 15:03:47.064147 18163 layer_factory.hpp:77] Creating layer inception_5b/relu_5x5_reduce
I0403 15:03:47.064165 18163 net.cpp:91] Creating Layer inception_5b/relu_5x5_reduce
I0403 15:03:47.064182 18163 net.cpp:425] inception_5b/relu_5x5_reduce <- inception_5b/5x5_reduce
I0403 15:03:47.064203 18163 net.cpp:386] inception_5b/relu_5x5_reduce -> inception_5b/5x5_reduce (in-place)
I0403 15:03:47.064609 18163 net.cpp:141] Setting up inception_5b/relu_5x5_reduce
I0403 15:03:47.064648 18163 net.cpp:148] Top shape: 24 48 7 7 (56448)
I0403 15:03:47.064663 18163 net.cpp:156] Memory required for data: 1334725152
I0403 15:03:47.064678 18163 layer_factory.hpp:77] Creating layer inception_5b/5x5
I0403 15:03:47.064699 18163 net.cpp:91] Creating Layer inception_5b/5x5
I0403 15:03:47.064728 18163 net.cpp:425] inception_5b/5x5 <- inception_5b/5x5_reduce
I0403 15:03:47.064749 18163 net.cpp:399] inception_5b/5x5 -> inception_5b/5x5
I0403 15:03:47.067023 18163 net.cpp:141] Setting up inception_5b/5x5
I0403 15:03:47.067054 18163 net.cpp:148] Top shape: 24 128 7 7 (150528)
I0403 15:03:47.067070 18163 net.cpp:156] Memory required for data: 1335327264
I0403 15:03:47.067088 18163 layer_factory.hpp:77] Creating layer inception_5b/relu_5x5
I0403 15:03:47.067109 18163 net.cpp:91] Creating Layer inception_5b/relu_5x5
I0403 15:03:47.067127 18163 net.cpp:425] inception_5b/relu_5x5 <- inception_5b/5x5
I0403 15:03:47.067144 18163 net.cpp:386] inception_5b/relu_5x5 -> inception_5b/5x5 (in-place)
I0403 15:03:47.067347 18163 net.cpp:141] Setting up inception_5b/relu_5x5
I0403 15:03:47.067375 18163 net.cpp:148] Top shape: 24 128 7 7 (150528)
I0403 15:03:47.067391 18163 net.cpp:156] Memory required for data: 1335929376
I0403 15:03:47.067406 18163 layer_factory.hpp:77] Creating layer inception_5b/pool
I0403 15:03:47.067425 18163 net.cpp:91] Creating Layer inception_5b/pool
I0403 15:03:47.067440 18163 net.cpp:425] inception_5b/pool <- inception_5a/output_inception_5a/output_0_split_3
I0403 15:03:47.067461 18163 net.cpp:399] inception_5b/pool -> inception_5b/pool
I0403 15:03:47.067538 18163 net.cpp:141] Setting up inception_5b/pool
I0403 15:03:47.067561 18163 net.cpp:148] Top shape: 24 832 7 7 (978432)
I0403 15:03:47.067576 18163 net.cpp:156] Memory required for data: 1339843104
I0403 15:03:47.067591 18163 layer_factory.hpp:77] Creating layer inception_5b/pool_proj
I0403 15:03:47.067613 18163 net.cpp:91] Creating Layer inception_5b/pool_proj
I0403 15:03:47.067631 18163 net.cpp:425] inception_5b/pool_proj <- inception_5b/pool
I0403 15:03:47.067652 18163 net.cpp:399] inception_5b/pool_proj -> inception_5b/pool_proj
I0403 15:03:47.070087 18163 net.cpp:141] Setting up inception_5b/pool_proj
I0403 15:03:47.070117 18163 net.cpp:148] Top shape: 24 128 7 7 (150528)
I0403 15:03:47.070134 18163 net.cpp:156] Memory required for data: 1340445216
I0403 15:03:47.070153 18163 layer_factory.hpp:77] Creating layer inception_5b/relu_pool_proj
I0403 15:03:47.070174 18163 net.cpp:91] Creating Layer inception_5b/relu_pool_proj
I0403 15:03:47.070193 18163 net.cpp:425] inception_5b/relu_pool_proj <- inception_5b/pool_proj
I0403 15:03:47.070210 18163 net.cpp:386] inception_5b/relu_pool_proj -> inception_5b/pool_proj (in-place)
I0403 15:03:47.070538 18163 net.cpp:141] Setting up inception_5b/relu_pool_proj
I0403 15:03:47.070565 18163 net.cpp:148] Top shape: 24 128 7 7 (150528)
I0403 15:03:47.070592 18163 net.cpp:156] Memory required for data: 1341047328
I0403 15:03:47.070608 18163 layer_factory.hpp:77] Creating layer inception_5b/output
I0403 15:03:47.070627 18163 net.cpp:91] Creating Layer inception_5b/output
I0403 15:03:47.070658 18163 net.cpp:425] inception_5b/output <- inception_5b/1x1
I0403 15:03:47.070677 18163 net.cpp:425] inception_5b/output <- inception_5b/3x3
I0403 15:03:47.070694 18163 net.cpp:425] inception_5b/output <- inception_5b/5x5
I0403 15:03:47.070710 18163 net.cpp:425] inception_5b/output <- inception_5b/pool_proj
I0403 15:03:47.070730 18163 net.cpp:399] inception_5b/output -> inception_5b/output
I0403 15:03:47.070787 18163 net.cpp:141] Setting up inception_5b/output
I0403 15:03:47.070811 18163 net.cpp:148] Top shape: 24 1024 7 7 (1204224)
I0403 15:03:47.070827 18163 net.cpp:156] Memory required for data: 1345864224
I0403 15:03:47.070842 18163 layer_factory.hpp:77] Creating layer pool5/7x7_s1
I0403 15:03:47.070858 18163 net.cpp:91] Creating Layer pool5/7x7_s1
I0403 15:03:47.070875 18163 net.cpp:425] pool5/7x7_s1 <- inception_5b/output
I0403 15:03:47.070897 18163 net.cpp:399] pool5/7x7_s1 -> pool5/7x7_s1
I0403 15:03:47.071132 18163 net.cpp:141] Setting up pool5/7x7_s1
I0403 15:03:47.071158 18163 net.cpp:148] Top shape: 24 1024 1 1 (24576)
I0403 15:03:47.071173 18163 net.cpp:156] Memory required for data: 1345962528
I0403 15:03:47.071188 18163 layer_factory.hpp:77] Creating layer pool5/drop_7x7_s1
I0403 15:03:47.071208 18163 net.cpp:91] Creating Layer pool5/drop_7x7_s1
I0403 15:03:47.071225 18163 net.cpp:425] pool5/drop_7x7_s1 <- pool5/7x7_s1
I0403 15:03:47.071244 18163 net.cpp:386] pool5/drop_7x7_s1 -> pool5/7x7_s1 (in-place)
I0403 15:03:47.071297 18163 net.cpp:141] Setting up pool5/drop_7x7_s1
I0403 15:03:47.071321 18163 net.cpp:148] Top shape: 24 1024 1 1 (24576)
I0403 15:03:47.071336 18163 net.cpp:156] Memory required for data: 1346060832
I0403 15:03:47.071351 18163 layer_factory.hpp:77] Creating layer loss3/classifier_plantvillage
I0403 15:03:47.071369 18163 net.cpp:91] Creating Layer loss3/classifier_plantvillage
I0403 15:03:47.071387 18163 net.cpp:425] loss3/classifier_plantvillage <- pool5/7x7_s1
I0403 15:03:47.071408 18163 net.cpp:399] loss3/classifier_plantvillage -> loss3/classifier_plantvillage
I0403 15:03:47.071856 18163 net.cpp:141] Setting up loss3/classifier_plantvillage
I0403 15:03:47.071880 18163 net.cpp:148] Top shape: 24 38 (912)
I0403 15:03:47.071895 18163 net.cpp:156] Memory required for data: 1346064480
I0403 15:03:47.071913 18163 layer_factory.hpp:77] Creating layer loss3/classifier_plantvillage_loss3/classifier_plantvillage_0_split
I0403 15:03:47.071933 18163 net.cpp:91] Creating Layer loss3/classifier_plantvillage_loss3/classifier_plantvillage_0_split
I0403 15:03:47.071949 18163 net.cpp:425] loss3/classifier_plantvillage_loss3/classifier_plantvillage_0_split <- loss3/classifier_plantvillage
I0403 15:03:47.071976 18163 net.cpp:399] loss3/classifier_plantvillage_loss3/classifier_plantvillage_0_split -> loss3/classifier_plantvillage_loss3/classifier_plantvillage_0_split_0
I0403 15:03:47.071998 18163 net.cpp:399] loss3/classifier_plantvillage_loss3/classifier_plantvillage_0_split -> loss3/classifier_plantvillage_loss3/classifier_plantvillage_0_split_1
I0403 15:03:47.072019 18163 net.cpp:399] loss3/classifier_plantvillage_loss3/classifier_plantvillage_0_split -> loss3/classifier_plantvillage_loss3/classifier_plantvillage_0_split_2
I0403 15:03:47.072039 18163 net.cpp:399] loss3/classifier_plantvillage_loss3/classifier_plantvillage_0_split -> loss3/classifier_plantvillage_loss3/classifier_plantvillage_0_split_3
I0403 15:03:47.072144 18163 net.cpp:141] Setting up loss3/classifier_plantvillage_loss3/classifier_plantvillage_0_split
I0403 15:03:47.072168 18163 net.cpp:148] Top shape: 24 38 (912)
I0403 15:03:47.072185 18163 net.cpp:148] Top shape: 24 38 (912)
I0403 15:03:47.072201 18163 net.cpp:148] Top shape: 24 38 (912)
I0403 15:03:47.072216 18163 net.cpp:148] Top shape: 24 38 (912)
I0403 15:03:47.072230 18163 net.cpp:156] Memory required for data: 1346079072
I0403 15:03:47.072245 18163 layer_factory.hpp:77] Creating layer loss1/loss
I0403 15:03:47.072268 18163 net.cpp:91] Creating Layer loss1/loss
I0403 15:03:47.072284 18163 net.cpp:425] loss1/loss <- loss1/classifier_plantvillage_loss1/classifier_plantvillage_0_split_0
I0403 15:03:47.072316 18163 net.cpp:425] loss1/loss <- label_data_1_split_0
…
