…
I0403 15:46:58.793989 20264 net.cpp:313] The NetState phase (1) differed from the phase (0) specified by a rule in layer data
I0403 15:46:58.795189 20264 net.cpp:49] Initializing net from parameters: 
state {
  phase: TEST
}
layer {
  name: "data"
  type: "Data"
  top: "data"
  top: "label"
  include {
    phase: TEST
  }
  transform_param {
    mirror: false
    crop_size: 224
    mean_file: "/home/mohanty/data/final_dataset/lmdb/grayscale-40-60/mean.binaryproto"
  }
  data_param {
    source: "/home/mohanty/data/final_dataset/lmdb/grayscale-40-60/test_db"
    batch_size: 24
    backend: LMDB
  }
}
layer {
  name: "conv1/7x7_s2"
  type: "Convolution"
  bottom: "data"
  top: "conv1/7x7_s2"
  param {
    lr_mult: 1
    decay_mult: 1
  }
  param {
    lr_mult: 2
    decay_mult: 0
  }
  convolution_param {
    num_output: 64
    pad: 3
    kernel_size: 7
    stride: 2
    weight_filler {
      type: "xavier"
      std: 0.1
    }
    bias_filler {
      type: "constant"
      value: 0.2
    }
  }
}
layer {
  name: "conv1/relu_7x7"
  type: "ReLU"
  bottom: "conv1/7x7_s2"
  top: "conv1/7x7_s2"
}
layer {
  name: "pool1/3x3_s2"
  type: "Pooling"
  bottom: "conv1/7x7_s2"
  top: "pool1/3x3_s2"
  pooling_param {
    pool: MAX
    kernel_size: 3
    stride: 2
  }
}
layer {
  name: "pool1/norm1"
  type: "LRN"
  bottom: "pool1/3x3_s2"
  top: "pool1/norm1"
  lrn_param {
    local_size: 5
    alpha: 0.0001
    beta: 0.75
  }
}
layer {
  name: "conv2/3x3_reduce"
  type: "Convolution"
  bottom: "pool1/norm1"
  top: "conv2/3x3_reduce"
  param {
    lr_mult: 1
    decay_mult: 1
  }
  param {
    lr_mult: 2
    decay_mult: 0
  }
  convolution_param {
    num_output: 64
    kernel_size: 1
    weight_filler {
      type: "xavier"
      std: 0.1
    }
    bias_filler {
      type: "constant"
      value: 0.2
    }
  }
}
layer {
  name: "conv2/relu_3x3_reduce"
  type: "ReLU"
  bottom: "conv2/3x3_reduce"
  top: "conv2/3x3_reduce"
}
layer {
  name: "conv2/3x3"
  type: "Convolution"
  bottom: "conv2/3x3_reduce"
  top: "conv2/3x3"
  param {
    lr_mult: 1
    decay_mult: 1
  }
  param {
    lr_mult: 2
    decay_mult: 0
  }
  convolution_param {
    num_output: 192
    pad: 1
    kernel_size: 3
    weight_filler {
      type: "xavier"
      std: 0.03
    }
    bias_filler {
      type: "constant"
      value: 0.2
    }
  }
}
layer {
  name: "conv2/relu_3x3"
  type: "ReLU"
  bottom: "conv2/3x3"
  top: "conv2/3x3"
}
layer {
  name: "conv2/norm2"
  type: "LRN"
  bottom: "conv2/3x3"
  top: "conv2/norm2"
  lrn_param {
    local_size: 5
    alpha: 0.0001
    beta: 0.75
  }
}
layer {
  name: "pool2/3x3_s2"
  type: "Pooling"
  bottom: "conv2/norm2"
  top: "pool2/3x3_s2"
  pooling_param {
    pool: MAX
    kernel_size: 3
    stride: 2
  }
}
layer {
  name: "inception_3a/1x1"
  type: "Convolution"
  bottom: "pool2/3x3_s2"
  top: "inception_3a/1x1"
  param {
    lr_mult: 1
    decay_mult: 1
  }
  param {
    lr_mult: 2
    decay_mult: 0
  }
  convolution_param {
    num_output: 64
    kernel_size: 1
    weight_filler {
      type: "xavier"
      std: 0.03
    }
    bias_filler {
      type: "constant"
      value: 0.2
    }
  }
}
layer {
  name: "inception_3a/relu_1x1"
  type: "ReLU"
  bottom: "inception_3a/1x1"
  top: "inception_3a/1x1"
}
layer {
  name: "inception_3a/3x3_reduce"
  type: "Convolution"
  bottom: "pool2/3x3_s2"
  top: "inception_3a/3x3_reduce"
  param {
    lr_mult: 1
    decay_mult: 1
  }
  param {
    lr_mult: 2
    decay_mult: 0
  }
  convolution_param {
    num_output: 96
    kernel_size: 1
    weight_filler {
      type: "xavier"
      std: 0.09
    }
    bias_filler {
      type: "constant"
      value: 0.2
    }
  }
}
layer {
  name: "inception_3a/relu_3x3_reduce"
  type: "ReLU"
  bottom: "inception_3a/3x3_reduce"
  top: "inception_3a/3x3_reduce"
}
layer {
  name: "inception_3a/3x3"
  type: "Convolution"
  bottom: "inception_3a/3x3_reduce"
  top: "inception_3a/3x3"
  param {
    lr_mult: 1
    decay_mult: 1
  }
  param {
    lr_mult: 2
    decay_mult: 0
  }
  convolution_param {
    num_output: 128
    pad: 1
    kernel_size: 3
    weight_filler {
      type: "xavier"
      std: 0.03
    }
    bias_filler {
      type: "constant"
      value: 0.2
    }
  }
}
layer {
  name: "inception_3a/relu_3x3"
  type: "ReLU"
  bottom: "inception_3a/3x3"
  top: "inception_3a/3x3"
}
layer {
  name: "inception_3a/5x5_reduce"
  type: "Convolution"
  bottom: "pool2/3x3_s2"
  top: "inception_3a/5x5_reduce"
  param {
    lr_mult: 1
    decay_mult: 1
  }
  param {
    lr_mult: 2
    decay_mult: 0
  }
  convolution_param {
    num_output: 16
    kernel_size: 1
    weight_filler {
      type: "xavier"
      std: 0.2
    }
    bias_filler {
      type: "constant"
      value: 0.2
    }
  }
}
layer {
  name: "inception_3a/relu_5x5_reduce"
  type: "ReLU"
  bottom: "inception_3a/5x5_reduce"
  top: "inception_3a/5x5_reduce"
}
layer {
  name: "inception_3a/5x5"
  type: "Convolution"
  bottom: "inception_3a/5x5_reduce"
  top: "inception_3a/5x5"
  param {
    lr_mult: 1
    decay_mult: 1
  }
  param {
    lr_mult: 2
    decay_mult: 0
  }
  convolution_param {
    num_output: 32
    pad: 2
    kernel_size: 5
    weight_filler {
      type: "xavier"
      std: 0.03
    }
    bias_filler {
      type: "constant"
      value: 0.2
    }
  }
}
layer {
  name: "inception_3a/relu_5x5"
  type: "ReLU"
  bottom: "inception_3a/5x5"
  top: "inception_3a/5x5"
}
layer {
  name: "inception_3a/pool"
  type: "Pooling"
  bottom: "pool2/3x3_s2"
  top: "inception_3a/pool"
  pooling_param {
    pool: MAX
    kernel_size: 3
    stride: 1
    pad: 1
  }
}
layer {
  name: "inception_3a/pool_proj"
  type: "Convolution"
  bottom: "inception_3a/pool"
  top: "inception_3a/pool_proj"
  param {
    lr_mult: 1
    decay_mult: 1
  }
  param {
    lr_mult: 2
    decay_mult: 0
  }
  convolution_param {
    num_output: 32
    kernel_size: 1
    weight_filler {
      type: "xavier"
      std: 0.1
    }
    bias_filler {
      type: "constant"
      value: 0.2
    }
  }
}
layer {
  name: "inception_3a/relu_pool_proj"
  type: "ReLU"
  bottom: "inception_3a/pool_proj"
  top: "inception_3a/pool_proj"
}
layer {
  name: "inception_3a/output"
  type: "Concat"
  bottom: "inception_3a/1x1"
  bottom: "inception_3a/3x3"
  bottom: "inception_3a/5x5"
  bottom: "inception_3a/pool_proj"
  top: "inception_3a/output"
}
layer {
  name: "inception_3b/1x1"
  type: "Convolution"
  bottom: "inception_3a/output"
  top: "inception_3b/1x1"
  param {
    lr_mult: 1
    decay_mult: 1
  }
  param {
    lr_mult: 2
    decay_mult: 0
  }
  convolution_param {
    num_output: 128
    kernel_size: 1
    weight_filler {
      type: "xavier"
      std: 0.03
    }
    bias_filler {
      type: "constant"
      value: 0.2
    }
  }
}
layer {
  name: "inception_3b/relu_1x1"
  type: "ReLU"
  bottom: "inception_3b/1x1"
  top: "inception_3b/1x1"
}
layer {
  name: "inception_3b/3x3_reduce"
  type: "Convolution"
  bottom: "inception_3a/output"
  top: "inception_3b/3x3_reduce"
  param {
    lr_mult: 1
    decay_mult: 1
  }
  param {
    lr_mult: 2
    decay_mult: 0
  }
  convolution_param {
    num_output: 128
    kernel_size: 1
    weight_filler {
      type: "xavier"
      std: 0.09
    }
    bias_filler {
      type: "constant"
      value: 0.2
    }
  }
}
layer {
  name: "inception_3b/relu_3x3_reduce"
  type: "ReLU"
  bottom: "inception_3b/3x3_reduce"
  top: "inception_3b/3x3_reduce"
}
layer {
  name: "inception_3b/3x3"
  type: "Convolution"
  bottom: "inception_3b/3x3_reduce"
  top: "inception_3b/3x3"
  param {
    lr_mult: 1
    decay_mult: 1
  }
  param {
    lr_mult: 2
    decay_mult: 0
  }
  convolution_param {
    num_output: 192
    pad: 1
    kernel_size: 3
    weight_filler {
      type: "xavier"
      std: 0.03
    }
    bias_filler {
      type: "constant"
      value: 0.2
    }
  }
}
layer {
  name: "inception_3b/relu_3x3"
  type: "ReLU"
  bottom: "inception_3b/3x3"
  top: "inception_3b/3x3"
}
layer {
  name: "inception_3b/5x5_reduce"
  type: "Convolution"
  bottom: "inception_3a/output"
  top: "inception_3b/5x5_reduce"
  param {
    lr_mult: 1
    decay_mult: 1
  }
  param {
    lr_mult: 2
    decay_mult: 0
  }
  convolution_param {
    num_output: 32
    kernel_size: 1
    weight_filler {
      type: "xavier"
      std: 0.2
    }
    bias_filler {
      type: "constant"
      value: 0.2
    }
  }
}
layer {
  name: "inception_3b/relu_5x5_reduce"
  type: "ReLU"
  bottom: "inception_3b/5x5_reduce"
  top: "inception_3b/5x5_reduce"
}
layer {
  name: "inception_3b/5x5"
  type: "Convolution"
  bottom: "inception_3b/5x5_reduce"
  top: "inception_3b/5x5"
  param {
    lr_mult: 1
    decay_mult: 1
  }
  param {
    lr_mult: 2
    decay_mult: 0
  }
  convolution_param {
    num_output: 96
    pad: 2
    kernel_size: 5
    weight_filler {
      type: "xavier"
      std: 0.03
    }
    bias_filler {
      type: "constant"
      value: 0.2
    }
  }
}
layer {
  name: "inception_3b/relu_5x5"
  type: "ReLU"
  bottom: "inception_3b/5x5"
  top: "inception_3b/5x5"
}
layer {
  name: "inception_3b/pool"
  type: "Pooling"
  bottom: "inception_3a/output"
  top: "inception_3b/pool"
  pooling_param {
    pool: MAX
    kernel_size: 3
    stride: 1
    pad: 1
  }
}
layer {
  name: "inception_3b/pool_proj"
  type: "Convolution"
  bottom: "inception_3b/pool"
  top: "inception_3b/pool_proj"
  param {
    lr_mult: 1
    decay_mult: 1
  }
  param {
    lr_mult: 2
    decay_mult: 0
  }
  convolution_param {
    num_output: 64
    kernel_size: 1
    weight_filler {
      type: "xavier"
      std: 0.1
    }
    bias_filler {
      type: "constant"
      value: 0.2
    }
  }
}
layer {
  name: "inception_3b/relu_pool_proj"
  type: "ReLU"
  bottom: "inception_3b/pool_proj"
  top: "inception_3b/pool_proj"
}
layer {
  name: "inception_3b/output"
  type: "Concat"
  bottom: "inception_3b/1x1"
  bottom: "inception_3b/3x3"
  bottom: "inception_3b/5x5"
  bottom: "inception_3b/pool_proj"
  top: "inception_3b/output"
}
layer {
  name: "pool3/3x3_s2"
  type: "Pooling"
  bottom: "inception_3b/output"
  top: "pool3/3x3_s2"
  pooling_param {
    pool: MAX
    kernel_size: 3
    stride: 2
  }
}
layer {
  name: "inception_4a/1x1"
  type: "Convolution"
  bottom: "pool3/3x3_s2"
  top: "inception_4a/1x1"
  param {
    lr_mult: 1
    decay_mult: 1
  }
  param {
    lr_mult: 2
    decay_mult: 0
  }
  convolution_param {
    num_output: 192
    kernel_size: 1
    weight_filler {
      type: "xavier"
      std: 0.03
    }
    bias_filler {
      type: "constant"
      value: 0.2
    }
  }
}
layer {
  name: "inception_4a/relu_1x1"
  type: "ReLU"
  bottom: "inception_4a/1x1"
  top: "inception_4a/1x1"
}
layer {
  name: "inception_4a/3x3_reduce"
  type: "Convolution"
  bottom: "pool3/3x3_s2"
  top: "inception_4a/3x3_reduce"
  param {
    lr_mult: 1
    decay_mult: 1
  }
  param {
    lr_mult: 2
    decay_mult: 0
  }
  convolution_param {
    num_output: 96
    kernel_size: 1
    weight_filler {
      type: "xavier"
      std: 0.09
    }
    bias_filler {
      type: "constant"
      value: 0.2
    }
  }
}
layer {
  name: "inception_4a/relu_3x3_reduce"
  type: "ReLU"
  bottom: "inception_4a/3x3_reduce"
  top: "inception_4a/3x3_reduce"
}
layer {
  name: "inception_4a/3x3"
  type: "Convolution"
  bottom: "inception_4a/3x3_reduce"
  top: "inception_4a/3x3"
  param {
    lr_mult: 1
    decay_mult: 1
  }
  param {
    lr_mult: 2
    decay_mult: 0
  }
  convolution_param {
    num_output: 208
    pad: 1
    kernel_size: 3
    weight_filler {
      type: "xavier"
      std: 0.03
    }
    bias_filler {
      type: "constant"
      value: 0.2
    }
  }
}
layer {
  name: "inception_4a/relu_3x3"
  type: "ReLU"
  bottom: "inception_4a/3x3"
  top: "inception_4a/3x3"
}
layer {
  name: "inception_4a/5x5_reduce"
  type: "Convolution"
  bottom: "pool3/3x3_s2"
  top: "inception_4a/5x5_reduce"
  param {
    lr_mult: 1
    decay_mult: 1
  }
  param {
    lr_mult: 2
    decay_mult: 0
  }
  convolution_param {
    num_output: 16
    kernel_size: 1
    weight_filler {
      type: "xavier"
      std: 0.2
    }
    bias_filler {
      type: "constant"
      value: 0.2
    }
  }
}
layer {
  name: "inception_4a/relu_5x5_reduce"
  type: "ReLU"
  bottom: "inception_4a/5x5_reduce"
  top: "inception_4a/5x5_reduce"
}
layer {
  name: "inception_4a/5x5"
  type: "Convolution"
  bottom: "inception_4a/5x5_reduce"
  top: "inception_4a/5x5"
  param {
    lr_mult: 1
    decay_mult: 1
  }
  param {
    lr_mult: 2
    decay_mult: 0
  }
  convolution_param {
    num_output: 48
    pad: 2
    kernel_size: 5
    weight_filler {
      type: "xavier"
      std: 0.03
    }
    bias_filler {
      type: "constant"
      value: 0.2
    }
  }
}
layer {
  name: "inception_4a/relu_5x5"
  type: "ReLU"
  bottom: "inception_4a/5x5"
  top: "inception_4a/5x5"
}
layer {
  name: "inception_4a/pool"
  type: "Pooling"
  bottom: "pool3/3x3_s2"
  top: "inception_4a/pool"
  pooling_param {
    pool: MAX
    kernel_size: 3
    stride: 1
    pad: 1
  }
}
layer {
  name: "inception_4a/pool_proj"
  type: "Convolution"
  bottom: "inception_4a/pool"
  top: "inception_4a/pool_proj"
  param {
    lr_mult: 1
    decay_mult: 1
  }
  param {
    lr_mult: 2
    decay_mult: 0
  }
  convolution_param {
    num_output: 64
    kernel_size: 1
    weight_filler {
      type: "xavier"
      std: 0.1
    }
    bias_filler {
      type: "constant"
      value: 0.2
    }
  }
}
layer {
  name: "inception_4a/relu_pool_proj"
  type: "ReLU"
  bottom: "inception_4a/pool_proj"
  top: "inception_4a/pool_proj"
}
layer {
  name: "inception_4a/output"
  type: "Concat"
  bottom: "inception_4a/1x1"
  bottom: "inception_4a/3x3"
  bottom: "inception_4a/5x5"
  bottom: "inception_4a/pool_proj"
  top: "inception_4a/output"
}
layer {
  name: "loss1/ave_pool"
  type: "Pooling"
  bottom: "inception_4a/output"
  top: "loss1/ave_pool"
  pooling_param {
    pool: AVE
    kernel_size: 5
    stride: 3
  }
}
layer {
  name: "loss1/conv"
  type: "Convolution"
  bottom: "loss1/ave_pool"
  top: "loss1/conv"
  param {
    lr_mult: 1
    decay_mult: 1
  }
  param {
    lr_mult: 2
    decay_mult: 0
  }
  convolution_param {
    num_output: 128
    kernel_size: 1
    weight_filler {
      type: "xavier"
      std: 0.08
    }
    bias_filler {
      type: "constant"
      value: 0.2
    }
  }
}
layer {
  name: "loss1/relu_conv"
  type: "ReLU"
  bottom: "loss1/conv"
  top: "loss1/conv"
}
layer {
  name: "loss1/fc"
  type: "InnerProduct"
  bottom: "loss1/conv"
  top: "loss1/fc"
  param {
    lr_mult: 1
    decay_mult: 1
  }
  param {
    lr_mult: 2
    decay_mult: 0
  }
  inner_product_param {
    num_output: 1024
    weight_filler {
      type: "xavier"
      std: 0.02
    }
    bias_filler {
      type: "constant"
      value: 0.2
    }
  }
}
layer {
  name: "loss1/relu_fc"
  type: "ReLU"
  bottom: "loss1/fc"
  top: "loss1/fc"
}
layer {
  name: "loss1/drop_fc"
  type: "Dropout"
  bottom: "loss1/fc"
  top: "loss1/fc"
  dropout_param {
    dropout_ratio: 0.7
  }
}
layer {
  name: "loss1/classifier_plantvillage"
  type: "InnerProduct"
  bottom: "loss1/fc"
  top: "loss1/classifier_plantvillage"
  param {
    lr_mult: 1
    decay_mult: 1
  }
  param {
    lr_mult: 2
    decay_mult: 0
  }
  inner_product_param {
    num_output: 38
    weight_filler {
      type: "xavier"
      std: 0.0009765625
    }
    bias_filler {
      type: "constant"
      value: 0
    }
  }
}
layer {
  name: "inception_4b/1x1"
  type: "Convolution"
  bottom: "inception_4a/output"
  top: "inception_4b/1x1"
  param {
    lr_mult: 1
    decay_mult: 1
  }
  param {
    lr_mult: 2
    decay_mult: 0
  }
  convolution_param {
    num_output: 160
    kernel_size: 1
    weight_filler {
      type: "xavier"
      std: 0.03
    }
    bias_filler {
      type: "constant"
      value: 0.2
    }
  }
}
layer {
  name: "inception_4b/relu_1x1"
  type: "ReLU"
  bottom: "inception_4b/1x1"
  top: "inception_4b/1x1"
}
layer {
  name: "inception_4b/3x3_reduce"
  type: "Convolution"
  bottom: "inception_4a/output"
  top: "inception_4b/3x3_reduce"
  param {
    lr_mult: 1
    decay_mult: 1
  }
  param {
    lr_mult: 2
    decay_mult: 0
  }
  convolution_param {
    num_output: 112
    kernel_size: 1
    weight_filler {
      type: "xavier"
      std: 0.09
    }
    bias_filler {
      type: "constant"
      value: 0.2
    }
  }
}
layer {
  name: "inception_4b/relu_3x3_reduce"
  type: "ReLU"
  bottom: "inception_4b/3x3_reduce"
  top: "inception_4b/3x3_reduce"
}
layer {
  name: "inception_4b/3x3"
  type: "Convolution"
  bottom: "inception_4b/3x3_reduce"
  top: "inception_4b/3x3"
  param {
    lr_mult: 1
    decay_mult: 1
  }
  param {
    lr_mult: 2
    decay_mult: 0
  }
  convolution_param {
    num_output: 224
    pad: 1
    kernel_size: 3
    weight_filler {
      type: "xavier"
      std: 0.03
    }
    bias_filler {
      type: "constant"
      value: 0.2
    }
  }
}
layer {
  name: "inception_4b/relu_3x3"
  type: "ReLU"
  bottom: "inception_4b/3x3"
  top: "inception_4b/3x3"
}
layer {
  name: "inception_4b/5x5_reduce"
  type: "Convolution"
  bottom: "inception_4a/output"
  top: "inception_4b/5x5_reduce"
  param {
    lr_mult: 1
    decay_mult: 1
  }
  param {
    lr_mult: 2
    decay_mult: 0
  }
  convolution_param {
    num_output: 24
    kernel_size: 1
    weight_filler {
      type: "xavier"
      std: 0.2
    }
    bias_filler {
      type: "constant"
      value: 0.2
    }
  }
}
layer {
  name: "inception_4b/relu_5x5_reduce"
  type: "ReLU"
  bottom: "inception_4b/5x5_reduce"
  top: "inception_4b/5x5_reduce"
}
layer {
  name: "inception_4b/5x5"
  type: "Convolution"
  bottom: "inception_4b/5x5_reduce"
  top: "inception_4b/5x5"
  param {
    lr_mult: 1
    decay_mult: 1
  }
  param {
    lr_mult: 2
    decay_mult: 0
  }
  convolution_param {
    num_output: 64
    pad: 2
    kernel_size: 5
    weight_filler {
      type: "xavier"
      std: 0.03
    }
    bias_filler {
      type: "constant"
      value: 0.2
    }
  }
}
layer {
  name: "inception_4b/relu_5x5"
  type: "ReLU"
  bottom: "inception_4b/5x5"
  top: "inception_4b/5x5"
}
layer {
  name: "inception_4b/pool"
  type: "Pooling"
  bottom: "inception_4a/output"
  top: "inception_4b/pool"
  pooling_param {
    pool: MAX
    kernel_size: 3
    stride: 1
    pad: 1
  }
}
layer {
  name: "inception_4b/pool_proj"
  type: "Convolution"
  bottom: "inception_4b/pool"
  top: "inception_4b/pool_proj"
  param {
    lr_mult: 1
    decay_mult: 1
  }
  param {
    lr_mult: 2
    decay_mult: 0
  }
  convolution_param {
    num_output: 64
    kernel_size: 1
    weight_filler {
      type: "xavier"
      std: 0.1
    }
    bias_filler {
      type: "constant"
      value: 0.2
    }
  }
}
layer {
  name: "inception_4b/relu_pool_proj"
  type: "ReLU"
  bottom: "inception_4b/pool_proj"
  top: "inception_4b/pool_proj"
}
layer {
  name: "inception_4b/output"
  type: "Concat"
  bottom: "inception_4b/1x1"
  bottom: "inception_4b/3x3"
  bottom: "inception_4b/5x5"
  bottom: "inception_4b/pool_proj"
  top: "inception_4b/output"
}
layer {
  name: "inception_4c/1x1"
  type: "Convolution"
  bottom: "inception_4b/output"
  top: "inception_4c/1x1"
  param {
    lr_mult: 1
    decay_mult: 1
  }
  param {
    lr_mult: 2
    decay_mult: 0
  }
  convolution_param {
    num_output: 128
    kernel_size: 1
    weight_filler {
      type: "xavier"
      std: 0.03
    }
    bias_filler {
      type: "constant"
      value: 0.2
    }
  }
}
layer {
  name: "inception_4c/relu_1x1"
  type: "ReLU"
  bottom: "inception_4c/1x1"
  top: "inception_4c/1x1"
}
layer {
  name: "inception_4c/3x3_reduce"
  type: "Convolution"
  bottom: "inception_4b/output"
  top: "inception_4c/3x3_reduce"
  param {
    lr_mult: 1
    decay_mult: 1
  }
  param {
    lr_mult: 2
    decay_mult: 0
  }
  convolution_param {
    num_output: 128
    kernel_size: 1
    weight_filler {
      type: "xavier"
      std: 0.09
    }
    bias_filler {
      type: "constant"
      value: 0.2
    }
  }
}
layer {
  name: "inception_4c/relu_3x3_reduce"
  type: "ReLU"
  bottom: "inception_4c/3x3_reduce"
  top: "inception_4c/3x3_reduce"
}
layer {
  name: "inception_4c/3x3"
  type: "Convolution"
  bottom: "inception_4c/3x3_reduce"
  top: "inception_4c/3x3"
  param {
    lr_mult: 1
    decay_mult: 1
  }
  param {
    lr_mult: 2
    decay_mult: 0
  }
  convolution_param {
    num_output: 256
    pad: 1
    kernel_size: 3
    weight_filler {
      type: "xavier"
      std: 0.03
    }
    bias_filler {
      type: "constant"
      value: 0.2
    }
  }
}
layer {
  name: "inception_4c/relu_3x3"
  type: "ReLU"
  bottom: "inception_4c/3x3"
  top: "inception_4c/3x3"
}
layer {
  name: "inception_4c/5x5_reduce"
  type: "Convolution"
  bottom: "inception_4b/output"
  top: "inception_4c/5x5_reduce"
  param {
    lr_mult: 1
    decay_mult: 1
  }
  param {
    lr_mult: 2
    decay_mult: 0
  }
  convolution_param {
    num_output: 24
    kernel_size: 1
    weight_filler {
      type: "xavier"
      std: 0.2
    }
    bias_filler {
      type: "constant"
      value: 0.2
    }
  }
}
layer {
  name: "inception_4c/relu_5x5_reduce"
  type: "ReLU"
  bottom: "inception_4c/5x5_reduce"
  top: "inception_4c/5x5_reduce"
}
layer {
  name: "inception_4c/5x5"
  type: "Convolution"
  bottom: "inception_4c/5x5_reduce"
  top: "inception_4c/5x5"
  param {
    lr_mult: 1
    decay_mult: 1
  }
  param {
    lr_mult: 2
    decay_mult: 0
  }
  convolution_param {
    num_output: 64
    pad: 2
    kernel_size: 5
    weight_filler {
      type: "xavier"
      std: 0.03
    }
    bias_filler {
      type: "constant"
      value: 0.2
    }
  }
}
layer {
  name: "inception_4c/relu_5x5"
  type: "ReLU"
  bottom: "inception_4c/5x5"
  top: "inception_4c/5x5"
}
layer {
  name: "inception_4c/pool"
  type: "Pooling"
  bottom: "inception_4b/output"
  top: "inception_4c/pool"
  pooling_param {
    pool: MAX
    kernel_size: 3
    stride: 1
    pad: 1
  }
}
layer {
  name: "inception_4c/pool_proj"
  type: "Convolution"
  bottom: "inception_4c/pool"
  top: "inception_4c/pool_proj"
  param {
    lr_mult: 1
    decay_mult: 1
  }
  param {
    lr_mult: 2
    decay_mult: 0
  }
  convolution_param {
    num_output: 64
    kernel_size: 1
    weight_filler {
      type: "xavier"
      std: 0.1
    }
    bias_filler {
      type: "constant"
      value: 0.2
    }
  }
}
layer {
  name: "inception_4c/relu_pool_proj"
  type: "ReLU"
  bottom: "inception_4c/pool_proj"
  top: "inception_4c/pool_proj"
}
layer {
  name: "inception_4c/output"
  type: "Concat"
  bottom: "inception_4c/1x1"
  bottom: "inception_4c/3x3"
  bottom: "inception_4c/5x5"
  bottom: "inception_4c/pool_proj"
  top: "inception_4c/output"
}
layer {
  name: "inception_4d/1x1"
  type: "Convolution"
  bottom: "inception_4c/output"
  top: "inception_4d/1x1"
  param {
    lr_mult: 1
    decay_mult: 1
  }
  param {
    lr_mult: 2
    decay_mult: 0
  }
  convolution_param {
    num_output: 112
    kernel_size: 1
    weight_filler {
      type: "xavier"
      std: 0.03
    }
    bias_filler {
      type: "constant"
      value: 0.2
    }
  }
}
layer {
  name: "inception_4d/relu_1x1"
  type: "ReLU"
  bottom: "inception_4d/1x1"
  top: "inception_4d/1x1"
}
layer {
  name: "inception_4d/3x3_reduce"
  type: "Convolution"
  bottom: "inception_4c/output"
  top: "inception_4d/3x3_reduce"
  param {
    lr_mult: 1
    decay_mult: 1
  }
  param {
    lr_mult: 2
    decay_mult: 0
  }
  convolution_param {
    num_output: 144
    kernel_size: 1
    weight_filler {
      type: "xavier"
      std: 0.09
    }
    bias_filler {
      type: "constant"
      value: 0.2
    }
  }
}
layer {
  name: "inception_4d/relu_3x3_reduce"
  type: "ReLU"
  bottom: "inception_4d/3x3_reduce"
  top: "inception_4d/3x3_reduce"
}
layer {
  name: "inception_4d/3x3"
  type: "Convolution"
  bottom: "inception_4d/3x3_reduce"
  top: "inception_4d/3x3"
  param {
    lr_mult: 1
    decay_mult: 1
  }
  param {
    lr_mult: 2
    decay_mult: 0
  }
  convolution_param {
    num_output: 288
    pad: 1
    kernel_size: 3
    weight_filler {
      type: "xavier"
      std: 0.03
    }
    bias_filler {
      type: "constant"
      value: 0.2
    }
  }
}
layer {
  name: "inception_4d/relu_3x3"
  type: "ReLU"
  bottom: "inception_4d/3x3"
  top: "inception_4d/3x3"
}
layer {
  name: "inception_4d/5x5_reduce"
  type: "Convolution"
  bottom: "inception_4c/output"
  top: "inception_4d/5x5_reduce"
  param {
    lr_mult: 1
    decay_mult: 1
  }
  param {
    lr_mult: 2
    decay_mult: 0
  }
  convolution_param {
    num_output: 32
    kernel_size: 1
    weight_filler {
      type: "xavier"
      std: 0.2
    }
    bias_filler {
      type: "constant"
      value: 0.2
    }
  }
}
layer {
  name: "inception_4d/relu_5x5_reduce"
  type: "ReLU"
  bottom: "inception_4d/5x5_reduce"
  top: "inception_4d/5x5_reduce"
}
layer {
  name: "inception_4d/5x5"
  type: "Convolution"
  bottom: "inception_4d/5x5_reduce"
  top: "inception_4d/5x5"
  param {
    lr_mult: 1
    decay_mult: 1
  }
  param {
    lr_mult: 2
    decay_mult: 0
  }
  convolution_param {
    num_output: 64
    pad: 2
    kernel_size: 5
    weight_filler {
      type: "xavier"
      std: 0.03
    }
    bias_filler {
      type: "constant"
      value: 0.2
    }
  }
}
layer {
  name: "inception_4d/relu_5x5"
  type: "ReLU"
  bottom: "inception_4d/5x5"
  top: "inception_4d/5x5"
}
layer {
  name: "inception_4d/pool"
  type: "Pooling"
  bottom: "inception_4c/output"
  top: "inception_4d/pool"
  pooling_param {
    pool: MAX
    kernel_size: 3
    stride: 1
    pad: 1
  }
}
layer {
  name: "inception_4d/pool_proj"
  type: "Convolution"
  bottom: "inception_4d/pool"
  top: "inception_4d/pool_proj"
  param {
    lr_mult: 1
    decay_mult: 1
  }
  param {
    lr_mult: 2
    decay_mult: 0
  }
  convolution_param {
    num_output: 64
    kernel_size: 1
    weight_filler {
      type: "xavier"
      std: 0.1
    }
    bias_filler {
      type: "constant"
      value: 0.2
    }
  }
}
layer {
  name: "inception_4d/relu_pool_proj"
  type: "ReLU"
  bottom: "inception_4d/pool_proj"
  top: "inception_4d/pool_proj"
}
layer {
  name: "inception_4d/output"
  type: "Concat"
  bottom: "inception_4d/1x1"
  bottom: "inception_4d/3x3"
  bottom: "inception_4d/5x5"
  bottom: "inception_4d/pool_proj"
  top: "inception_4d/output"
}
layer {
  name: "loss2/ave_pool"
  type: "Pooling"
  bottom: "inception_4d/output"
  top: "loss2/ave_pool"
  pooling_param {
    pool: AVE
    kernel_size: 5
    stride: 3
  }
}
layer {
  name: "loss2/conv"
  type: "Convolution"
  bottom: "loss2/ave_pool"
  top: "loss2/conv"
  param {
    lr_mult: 1
    decay_mult: 1
  }
  param {
    lr_mult: 2
    decay_mult: 0
  }
  convolution_param {
    num_output: 128
    kernel_size: 1
    weight_filler {
      type: "xavier"
      std: 0.08
    }
    bias_filler {
      type: "constant"
      value: 0.2
    }
  }
}
layer {
  name: "loss2/relu_conv"
  type: "ReLU"
  bottom: "loss2/conv"
  top: "loss2/conv"
}
layer {
  name: "loss2/fc"
  type: "InnerProduct"
  bottom: "loss2/conv"
  top: "loss2/fc"
  param {
    lr_mult: 1
    decay_mult: 1
  }
  param {
    lr_mult: 2
    decay_mult: 0
  }
  inner_product_param {
    num_output: 1024
    weight_filler {
      type: "xavier"
      std: 0.02
    }
    bias_filler {
      type: "constant"
      value: 0.2
    }
  }
}
layer {
  name: "loss2/relu_fc"
  type: "ReLU"
  bottom: "loss2/fc"
  top: "loss2/fc"
}
layer {
  name: "loss2/drop_fc"
  type: "Dropout"
  bottom: "loss2/fc"
  top: "loss2/fc"
  dropout_param {
    dropout_ratio: 0.7
  }
}
layer {
  name: "loss2/classifier_plantvillage"
  type: "InnerProduct"
  bottom: "loss2/fc"
  top: "loss2/classifier_plantvillage"
  param {
    lr_mult: 1
    decay_mult: 1
  }
  param {
    lr_mult: 2
    decay_mult: 0
  }
  inner_product_param {
    num_output: 38
    weight_filler {
      type: "xavier"
      std: 0.0009765625
    }
    bias_filler {
      type: "constant"
      value: 0
    }
  }
}
layer {
  name: "inception_4e/1x1"
  type: "Convolution"
  bottom: "inception_4d/output"
  top: "inception_4e/1x1"
  param {
    lr_mult: 1
    decay_mult: 1
  }
  param {
    lr_mult: 2
    decay_mult: 0
  }
  convolution_param {
    num_output: 256
    kernel_size: 1
    weight_filler {
      type: "xavier"
      std: 0.03
    }
    bias_filler {
      type: "constant"
      value: 0.2
    }
  }
}
layer {
  name: "inception_4e/relu_1x1"
  type: "ReLU"
  bottom: "inception_4e/1x1"
  top: "inception_4e/1x1"
}
layer {
  name: "inception_4e/3x3_reduce"
  type: "Convolution"
  bottom: "inception_4d/output"
  top: "inception_4e/3x3_reduce"
  param {
    lr_mult: 1
    decay_mult: 1
  }
  param {
    lr_mult: 2
    decay_mult: 0
  }
  convolution_param {
    num_output: 160
    kernel_size: 1
    weight_filler {
      type: "xavier"
      std: 0.09
    }
    bias_filler {
      type: "constant"
      value: 0.2
    }
  }
}
layer {
  name: "inception_4e/relu_3x3_reduce"
  type: "ReLU"
  bottom: "inception_4e/3x3_reduce"
  top: "inception_4e/3x3_reduce"
}
layer {
  name: "inception_4e/3x3"
  type: "Convolution"
  bottom: "inception_4e/3x3_reduce"
  top: "inception_4e/3x3"
  param {
    lr_mult: 1
    decay_mult: 1
  }
  param {
    lr_mult: 2
    decay_mult: 0
  }
  convolution_param {
    num_output: 320
    pad: 1
    kernel_size: 3
    weight_filler {
      type: "xavier"
      std: 0.03
    }
    bias_filler {
      type: "constant"
      value: 0.2
    }
  }
}
layer {
  name: "inception_4e/relu_3x3"
  type: "ReLU"
  bottom: "inception_4e/3x3"
  top: "inception_4e/3x3"
}
layer {
  name: "inception_4e/5x5_reduce"
  type: "Convolution"
  bottom: "inception_4d/output"
  top: "inception_4e/5x5_reduce"
  param {
    lr_mult: 1
    decay_mult: 1
  }
  param {
    lr_mult: 2
    decay_mult: 0
  }
  convolution_param {
    num_output: 32
    kernel_size: 1
    weight_filler {
      type: "xavier"
      std: 0.2
    }
    bias_filler {
      type: "constant"
      value: 0.2
    }
  }
}
layer {
  name: "inception_4e/relu_5x5_reduce"
  type: "ReLU"
  bottom: "inception_4e/5x5_reduce"
  top: "inception_4e/5x5_reduce"
}
layer {
  name: "inception_4e/5x5"
  type: "Convolution"
  bottom: "inception_4e/5x5_reduce"
  top: "inception_4e/
I0403 15:46:58.796458 20264 layer_factory.hpp:77] Creating layer data
I0403 15:46:58.797076 20264 net.cpp:91] Creating Layer data
I0403 15:46:58.797117 20264 net.cpp:399] data -> data
I0403 15:46:58.797169 20264 net.cpp:399] data -> label
I0403 15:46:58.797206 20264 data_transformer.cpp:25] Loading mean file from: /home/mohanty/data/final_dataset/lmdb/grayscale-40-60/mean.binaryproto
I0403 15:46:58.801659 20267 db_lmdb.cpp:38] Opened lmdb /home/mohanty/data/final_dataset/lmdb/grayscale-40-60/test_db
I0403 15:46:58.811033 20264 data_layer.cpp:41] output data size: 24,3,224,224
I0403 15:46:58.842118 20264 net.cpp:141] Setting up data
I0403 15:46:58.842195 20264 net.cpp:148] Top shape: 24 3 224 224 (3612672)
I0403 15:46:58.842218 20264 net.cpp:148] Top shape: 24 (24)
I0403 15:46:58.842233 20264 net.cpp:156] Memory required for data: 14450784
I0403 15:46:58.842262 20264 layer_factory.hpp:77] Creating layer label_data_1_split
I0403 15:46:58.842288 20264 net.cpp:91] Creating Layer label_data_1_split
I0403 15:46:58.842306 20264 net.cpp:425] label_data_1_split <- label
I0403 15:46:58.842339 20264 net.cpp:399] label_data_1_split -> label_data_1_split_0
I0403 15:46:58.842367 20264 net.cpp:399] label_data_1_split -> label_data_1_split_1
I0403 15:46:58.842388 20264 net.cpp:399] label_data_1_split -> label_data_1_split_2
I0403 15:46:58.842409 20264 net.cpp:399] label_data_1_split -> label_data_1_split_3
I0403 15:46:58.842429 20264 net.cpp:399] label_data_1_split -> label_data_1_split_4
I0403 15:46:58.842449 20264 net.cpp:399] label_data_1_split -> label_data_1_split_5
I0403 15:46:58.842469 20264 net.cpp:399] label_data_1_split -> label_data_1_split_6
I0403 15:46:58.842490 20264 net.cpp:399] label_data_1_split -> label_data_1_split_7
I0403 15:46:58.842510 20264 net.cpp:399] label_data_1_split -> label_data_1_split_8
I0403 15:46:58.842530 20264 net.cpp:399] label_data_1_split -> label_data_1_split_9
I0403 15:46:58.842653 20264 net.cpp:141] Setting up label_data_1_split
I0403 15:46:58.842676 20264 net.cpp:148] Top shape: 24 (24)
I0403 15:46:58.842694 20264 net.cpp:148] Top shape: 24 (24)
I0403 15:46:58.842711 20264 net.cpp:148] Top shape: 24 (24)
I0403 15:46:58.842726 20264 net.cpp:148] Top shape: 24 (24)
I0403 15:46:58.842742 20264 net.cpp:148] Top shape: 24 (24)
I0403 15:46:58.842757 20264 net.cpp:148] Top shape: 24 (24)
I0403 15:46:58.842774 20264 net.cpp:148] Top shape: 24 (24)
I0403 15:46:58.842789 20264 net.cpp:148] Top shape: 24 (24)
I0403 15:46:58.842805 20264 net.cpp:148] Top shape: 24 (24)
I0403 15:46:58.842821 20264 net.cpp:148] Top shape: 24 (24)
I0403 15:46:58.842864 20264 net.cpp:156] Memory required for data: 14451744
I0403 15:46:58.842880 20264 layer_factory.hpp:77] Creating layer conv1/7x7_s2
I0403 15:46:58.842912 20264 net.cpp:91] Creating Layer conv1/7x7_s2
I0403 15:46:58.842931 20264 net.cpp:425] conv1/7x7_s2 <- data
I0403 15:46:58.842952 20264 net.cpp:399] conv1/7x7_s2 -> conv1/7x7_s2
I0403 15:46:58.994058 20264 net.cpp:141] Setting up conv1/7x7_s2
I0403 15:46:58.994145 20264 net.cpp:148] Top shape: 24 64 112 112 (19267584)
I0403 15:46:58.994163 20264 net.cpp:156] Memory required for data: 91522080
I0403 15:46:58.994195 20264 layer_factory.hpp:77] Creating layer conv1/relu_7x7
I0403 15:46:58.994222 20264 net.cpp:91] Creating Layer conv1/relu_7x7
I0403 15:46:58.994243 20264 net.cpp:425] conv1/relu_7x7 <- conv1/7x7_s2
I0403 15:46:58.994262 20264 net.cpp:386] conv1/relu_7x7 -> conv1/7x7_s2 (in-place)
I0403 15:46:58.994529 20264 net.cpp:141] Setting up conv1/relu_7x7
I0403 15:46:58.994560 20264 net.cpp:148] Top shape: 24 64 112 112 (19267584)
I0403 15:46:58.994575 20264 net.cpp:156] Memory required for data: 168592416
I0403 15:46:58.994591 20264 layer_factory.hpp:77] Creating layer pool1/3x3_s2
I0403 15:46:58.994617 20264 net.cpp:91] Creating Layer pool1/3x3_s2
I0403 15:46:58.994637 20264 net.cpp:425] pool1/3x3_s2 <- conv1/7x7_s2
I0403 15:46:58.994655 20264 net.cpp:399] pool1/3x3_s2 -> pool1/3x3_s2
I0403 15:46:58.994730 20264 net.cpp:141] Setting up pool1/3x3_s2
I0403 15:46:58.994756 20264 net.cpp:148] Top shape: 24 64 56 56 (4816896)
I0403 15:46:58.994771 20264 net.cpp:156] Memory required for data: 187860000
I0403 15:46:58.994786 20264 layer_factory.hpp:77] Creating layer pool1/norm1
I0403 15:46:58.994813 20264 net.cpp:91] Creating Layer pool1/norm1
I0403 15:46:58.994832 20264 net.cpp:425] pool1/norm1 <- pool1/3x3_s2
I0403 15:46:58.994849 20264 net.cpp:399] pool1/norm1 -> pool1/norm1
I0403 15:46:58.995156 20264 net.cpp:141] Setting up pool1/norm1
I0403 15:46:58.995185 20264 net.cpp:148] Top shape: 24 64 56 56 (4816896)
I0403 15:46:58.995201 20264 net.cpp:156] Memory required for data: 207127584
I0403 15:46:58.995216 20264 layer_factory.hpp:77] Creating layer conv2/3x3_reduce
I0403 15:46:58.995244 20264 net.cpp:91] Creating Layer conv2/3x3_reduce
I0403 15:46:58.995263 20264 net.cpp:425] conv2/3x3_reduce <- pool1/norm1
I0403 15:46:58.995286 20264 net.cpp:399] conv2/3x3_reduce -> conv2/3x3_reduce
I0403 15:46:58.996770 20264 net.cpp:141] Setting up conv2/3x3_reduce
I0403 15:46:58.996801 20264 net.cpp:148] Top shape: 24 64 56 56 (4816896)
I0403 15:46:58.996819 20264 net.cpp:156] Memory required for data: 226395168
I0403 15:46:58.996840 20264 layer_factory.hpp:77] Creating layer conv2/relu_3x3_reduce
I0403 15:46:58.996862 20264 net.cpp:91] Creating Layer conv2/relu_3x3_reduce
I0403 15:46:58.996879 20264 net.cpp:425] conv2/relu_3x3_reduce <- conv2/3x3_reduce
I0403 15:46:58.996898 20264 net.cpp:386] conv2/relu_3x3_reduce -> conv2/3x3_reduce (in-place)
I0403 15:46:58.997185 20264 net.cpp:141] Setting up conv2/relu_3x3_reduce
I0403 15:46:58.997213 20264 net.cpp:148] Top shape: 24 64 56 56 (4816896)
I0403 15:46:58.997228 20264 net.cpp:156] Memory required for data: 245662752
I0403 15:46:58.997246 20264 layer_factory.hpp:77] Creating layer conv2/3x3
I0403 15:46:58.997277 20264 net.cpp:91] Creating Layer conv2/3x3
I0403 15:46:58.997294 20264 net.cpp:425] conv2/3x3 <- conv2/3x3_reduce
I0403 15:46:58.997314 20264 net.cpp:399] conv2/3x3 -> conv2/3x3
I0403 15:46:58.999828 20264 net.cpp:141] Setting up conv2/3x3
I0403 15:46:58.999860 20264 net.cpp:148] Top shape: 24 192 56 56 (14450688)
I0403 15:46:58.999876 20264 net.cpp:156] Memory required for data: 303465504
I0403 15:46:58.999897 20264 layer_factory.hpp:77] Creating layer conv2/relu_3x3
I0403 15:46:58.999918 20264 net.cpp:91] Creating Layer conv2/relu_3x3
I0403 15:46:58.999935 20264 net.cpp:425] conv2/relu_3x3 <- conv2/3x3
I0403 15:46:58.999953 20264 net.cpp:386] conv2/relu_3x3 -> conv2/3x3 (in-place)
I0403 15:46:59.000143 20264 net.cpp:141] Setting up conv2/relu_3x3
I0403 15:46:59.000169 20264 net.cpp:148] Top shape: 24 192 56 56 (14450688)
I0403 15:46:59.000205 20264 net.cpp:156] Memory required for data: 361268256
I0403 15:46:59.000221 20264 layer_factory.hpp:77] Creating layer conv2/norm2
I0403 15:46:59.000241 20264 net.cpp:91] Creating Layer conv2/norm2
I0403 15:46:59.000257 20264 net.cpp:425] conv2/norm2 <- conv2/3x3
I0403 15:46:59.000279 20264 net.cpp:399] conv2/norm2 -> conv2/norm2
I0403 15:46:59.000596 20264 net.cpp:141] Setting up conv2/norm2
I0403 15:46:59.000623 20264 net.cpp:148] Top shape: 24 192 56 56 (14450688)
I0403 15:46:59.000638 20264 net.cpp:156] Memory required for data: 419071008
I0403 15:46:59.000653 20264 layer_factory.hpp:77] Creating layer pool2/3x3_s2
I0403 15:46:59.000671 20264 net.cpp:91] Creating Layer pool2/3x3_s2
I0403 15:46:59.000687 20264 net.cpp:425] pool2/3x3_s2 <- conv2/norm2
I0403 15:46:59.000710 20264 net.cpp:399] pool2/3x3_s2 -> pool2/3x3_s2
I0403 15:46:59.000764 20264 net.cpp:141] Setting up pool2/3x3_s2
I0403 15:46:59.000788 20264 net.cpp:148] Top shape: 24 192 28 28 (3612672)
I0403 15:46:59.000803 20264 net.cpp:156] Memory required for data: 433521696
I0403 15:46:59.000818 20264 layer_factory.hpp:77] Creating layer pool2/3x3_s2_pool2/3x3_s2_0_split
I0403 15:46:59.000838 20264 net.cpp:91] Creating Layer pool2/3x3_s2_pool2/3x3_s2_0_split
I0403 15:46:59.000854 20264 net.cpp:425] pool2/3x3_s2_pool2/3x3_s2_0_split <- pool2/3x3_s2
I0403 15:46:59.000874 20264 net.cpp:399] pool2/3x3_s2_pool2/3x3_s2_0_split -> pool2/3x3_s2_pool2/3x3_s2_0_split_0
I0403 15:46:59.000893 20264 net.cpp:399] pool2/3x3_s2_pool2/3x3_s2_0_split -> pool2/3x3_s2_pool2/3x3_s2_0_split_1
I0403 15:46:59.000913 20264 net.cpp:399] pool2/3x3_s2_pool2/3x3_s2_0_split -> pool2/3x3_s2_pool2/3x3_s2_0_split_2
I0403 15:46:59.000932 20264 net.cpp:399] pool2/3x3_s2_pool2/3x3_s2_0_split -> pool2/3x3_s2_pool2/3x3_s2_0_split_3
I0403 15:46:59.001008 20264 net.cpp:141] Setting up pool2/3x3_s2_pool2/3x3_s2_0_split
I0403 15:46:59.001034 20264 net.cpp:148] Top shape: 24 192 28 28 (3612672)
I0403 15:46:59.001051 20264 net.cpp:148] Top shape: 24 192 28 28 (3612672)
I0403 15:46:59.001066 20264 net.cpp:148] Top shape: 24 192 28 28 (3612672)
I0403 15:46:59.001082 20264 net.cpp:148] Top shape: 24 192 28 28 (3612672)
I0403 15:46:59.001096 20264 net.cpp:156] Memory required for data: 491324448
I0403 15:46:59.001111 20264 layer_factory.hpp:77] Creating layer inception_3a/1x1
I0403 15:46:59.001134 20264 net.cpp:91] Creating Layer inception_3a/1x1
I0403 15:46:59.001152 20264 net.cpp:425] inception_3a/1x1 <- pool2/3x3_s2_pool2/3x3_s2_0_split_0
I0403 15:46:59.001170 20264 net.cpp:399] inception_3a/1x1 -> inception_3a/1x1
I0403 15:46:59.002763 20264 net.cpp:141] Setting up inception_3a/1x1
I0403 15:46:59.002792 20264 net.cpp:148] Top shape: 24 64 28 28 (1204224)
I0403 15:46:59.002809 20264 net.cpp:156] Memory required for data: 496141344
I0403 15:46:59.002827 20264 layer_factory.hpp:77] Creating layer inception_3a/relu_1x1
I0403 15:46:59.002849 20264 net.cpp:91] Creating Layer inception_3a/relu_1x1
I0403 15:46:59.002866 20264 net.cpp:425] inception_3a/relu_1x1 <- inception_3a/1x1
I0403 15:46:59.002884 20264 net.cpp:386] inception_3a/relu_1x1 -> inception_3a/1x1 (in-place)
I0403 15:46:59.003067 20264 net.cpp:141] Setting up inception_3a/relu_1x1
I0403 15:46:59.003095 20264 net.cpp:148] Top shape: 24 64 28 28 (1204224)
I0403 15:46:59.003113 20264 net.cpp:156] Memory required for data: 500958240
I0403 15:46:59.003128 20264 layer_factory.hpp:77] Creating layer inception_3a/3x3_reduce
I0403 15:46:59.003150 20264 net.cpp:91] Creating Layer inception_3a/3x3_reduce
I0403 15:46:59.003167 20264 net.cpp:425] inception_3a/3x3_reduce <- pool2/3x3_s2_pool2/3x3_s2_0_split_1
I0403 15:46:59.003186 20264 net.cpp:399] inception_3a/3x3_reduce -> inception_3a/3x3_reduce
I0403 15:46:59.004990 20264 net.cpp:141] Setting up inception_3a/3x3_reduce
I0403 15:46:59.005020 20264 net.cpp:148] Top shape: 24 96 28 28 (1806336)
I0403 15:46:59.005036 20264 net.cpp:156] Memory required for data: 508183584
I0403 15:46:59.005059 20264 layer_factory.hpp:77] Creating layer inception_3a/relu_3x3_reduce
I0403 15:46:59.005097 20264 net.cpp:91] Creating Layer inception_3a/relu_3x3_reduce
I0403 15:46:59.005116 20264 net.cpp:425] inception_3a/relu_3x3_reduce <- inception_3a/3x3_reduce
I0403 15:46:59.005136 20264 net.cpp:386] inception_3a/relu_3x3_reduce -> inception_3a/3x3_reduce (in-place)
I0403 15:46:59.005323 20264 net.cpp:141] Setting up inception_3a/relu_3x3_reduce
I0403 15:46:59.005348 20264 net.cpp:148] Top shape: 24 96 28 28 (1806336)
I0403 15:46:59.005363 20264 net.cpp:156] Memory required for data: 515408928
I0403 15:46:59.005378 20264 layer_factory.hpp:77] Creating layer inception_3a/3x3
I0403 15:46:59.005401 20264 net.cpp:91] Creating Layer inception_3a/3x3
I0403 15:46:59.005419 20264 net.cpp:425] inception_3a/3x3 <- inception_3a/3x3_reduce
I0403 15:46:59.005444 20264 net.cpp:399] inception_3a/3x3 -> inception_3a/3x3
I0403 15:46:59.007166 20264 net.cpp:141] Setting up inception_3a/3x3
I0403 15:46:59.007197 20264 net.cpp:148] Top shape: 24 128 28 28 (2408448)
I0403 15:46:59.007215 20264 net.cpp:156] Memory required for data: 525042720
I0403 15:46:59.007233 20264 layer_factory.hpp:77] Creating layer inception_3a/relu_3x3
I0403 15:46:59.007252 20264 net.cpp:91] Creating Layer inception_3a/relu_3x3
I0403 15:46:59.007268 20264 net.cpp:425] inception_3a/relu_3x3 <- inception_3a/3x3
I0403 15:46:59.007285 20264 net.cpp:386] inception_3a/relu_3x3 -> inception_3a/3x3 (in-place)
I0403 15:46:59.007563 20264 net.cpp:141] Setting up inception_3a/relu_3x3
I0403 15:46:59.007592 20264 net.cpp:148] Top shape: 24 128 28 28 (2408448)
I0403 15:46:59.007608 20264 net.cpp:156] Memory required for data: 534676512
I0403 15:46:59.007623 20264 layer_factory.hpp:77] Creating layer inception_3a/5x5_reduce
I0403 15:46:59.007644 20264 net.cpp:91] Creating Layer inception_3a/5x5_reduce
I0403 15:46:59.007661 20264 net.cpp:425] inception_3a/5x5_reduce <- pool2/3x3_s2_pool2/3x3_s2_0_split_2
I0403 15:46:59.007683 20264 net.cpp:399] inception_3a/5x5_reduce -> inception_3a/5x5_reduce
I0403 15:46:59.008661 20264 net.cpp:141] Setting up inception_3a/5x5_reduce
I0403 15:46:59.008692 20264 net.cpp:148] Top shape: 24 16 28 28 (301056)
I0403 15:46:59.008708 20264 net.cpp:156] Memory required for data: 535880736
I0403 15:46:59.008726 20264 layer_factory.hpp:77] Creating layer inception_3a/relu_5x5_reduce
I0403 15:46:59.008744 20264 net.cpp:91] Creating Layer inception_3a/relu_5x5_reduce
I0403 15:46:59.008760 20264 net.cpp:425] inception_3a/relu_5x5_reduce <- inception_3a/5x5_reduce
I0403 15:46:59.008780 20264 net.cpp:386] inception_3a/relu_5x5_reduce -> inception_3a/5x5_reduce (in-place)
I0403 15:46:59.009105 20264 net.cpp:141] Setting up inception_3a/relu_5x5_reduce
I0403 15:46:59.009131 20264 net.cpp:148] Top shape: 24 16 28 28 (301056)
I0403 15:46:59.009147 20264 net.cpp:156] Memory required for data: 537084960
I0403 15:46:59.009162 20264 layer_factory.hpp:77] Creating layer inception_3a/5x5
I0403 15:46:59.009183 20264 net.cpp:91] Creating Layer inception_3a/5x5
I0403 15:46:59.009202 20264 net.cpp:425] inception_3a/5x5 <- inception_3a/5x5_reduce
I0403 15:46:59.009224 20264 net.cpp:399] inception_3a/5x5 -> inception_3a/5x5
I0403 15:46:59.010222 20264 net.cpp:141] Setting up inception_3a/5x5
I0403 15:46:59.010251 20264 net.cpp:148] Top shape: 24 32 28 28 (602112)
I0403 15:46:59.010267 20264 net.cpp:156] Memory required for data: 539493408
I0403 15:46:59.010284 20264 layer_factory.hpp:77] Creating layer inception_3a/relu_5x5
I0403 15:46:59.010305 20264 net.cpp:91] Creating Layer inception_3a/relu_5x5
I0403 15:46:59.010321 20264 net.cpp:425] inception_3a/relu_5x5 <- inception_3a/5x5
I0403 15:46:59.010339 20264 net.cpp:386] inception_3a/relu_5x5 -> inception_3a/5x5 (in-place)
I0403 15:46:59.010506 20264 net.cpp:141] Setting up inception_3a/relu_5x5
I0403 15:46:59.010534 20264 net.cpp:148] Top shape: 24 32 28 28 (602112)
I0403 15:46:59.010548 20264 net.cpp:156] Memory required for data: 541901856
I0403 15:46:59.010563 20264 layer_factory.hpp:77] Creating layer inception_3a/pool
I0403 15:46:59.010581 20264 net.cpp:91] Creating Layer inception_3a/pool
I0403 15:46:59.010609 20264 net.cpp:425] inception_3a/pool <- pool2/3x3_s2_pool2/3x3_s2_0_split_3
I0403 15:46:59.010630 20264 net.cpp:399] inception_3a/pool -> inception_3a/pool
I0403 15:46:59.010686 20264 net.cpp:141] Setting up inception_3a/pool
I0403 15:46:59.010710 20264 net.cpp:148] Top shape: 24 192 28 28 (3612672)
I0403 15:46:59.010723 20264 net.cpp:156] Memory required for data: 556352544
I0403 15:46:59.010738 20264 layer_factory.hpp:77] Creating layer inception_3a/pool_proj
I0403 15:46:59.010761 20264 net.cpp:91] Creating Layer inception_3a/pool_proj
I0403 15:46:59.010776 20264 net.cpp:425] inception_3a/pool_proj <- inception_3a/pool
I0403 15:46:59.010797 20264 net.cpp:399] inception_3a/pool_proj -> inception_3a/pool_proj
I0403 15:46:59.011749 20264 net.cpp:141] Setting up inception_3a/pool_proj
I0403 15:46:59.011776 20264 net.cpp:148] Top shape: 24 32 28 28 (602112)
I0403 15:46:59.011791 20264 net.cpp:156] Memory required for data: 558760992
I0403 15:46:59.011816 20264 layer_factory.hpp:77] Creating layer inception_3a/relu_pool_proj
I0403 15:46:59.011834 20264 net.cpp:91] Creating Layer inception_3a/relu_pool_proj
I0403 15:46:59.011850 20264 net.cpp:425] inception_3a/relu_pool_proj <- inception_3a/pool_proj
I0403 15:46:59.011868 20264 net.cpp:386] inception_3a/relu_pool_proj -> inception_3a/pool_proj (in-place)
I0403 15:46:59.012164 20264 net.cpp:141] Setting up inception_3a/relu_pool_proj
I0403 15:46:59.012194 20264 net.cpp:148] Top shape: 24 32 28 28 (602112)
I0403 15:46:59.012210 20264 net.cpp:156] Memory required for data: 561169440
I0403 15:46:59.012226 20264 layer_factory.hpp:77] Creating layer inception_3a/output
I0403 15:46:59.012255 20264 net.cpp:91] Creating Layer inception_3a/output
I0403 15:46:59.012271 20264 net.cpp:425] inception_3a/output <- inception_3a/1x1
I0403 15:46:59.012287 20264 net.cpp:425] inception_3a/output <- inception_3a/3x3
I0403 15:46:59.012303 20264 net.cpp:425] inception_3a/output <- inception_3a/5x5
I0403 15:46:59.012318 20264 net.cpp:425] inception_3a/output <- inception_3a/pool_proj
I0403 15:46:59.012334 20264 net.cpp:399] inception_3a/output -> inception_3a/output
I0403 15:46:59.012382 20264 net.cpp:141] Setting up inception_3a/output
I0403 15:46:59.012404 20264 net.cpp:148] Top shape: 24 256 28 28 (4816896)
I0403 15:46:59.012418 20264 net.cpp:156] Memory required for data: 580437024
I0403 15:46:59.012433 20264 layer_factory.hpp:77] Creating layer inception_3a/output_inception_3a/output_0_split
I0403 15:46:59.012449 20264 net.cpp:91] Creating Layer inception_3a/output_inception_3a/output_0_split
I0403 15:46:59.012464 20264 net.cpp:425] inception_3a/output_inception_3a/output_0_split <- inception_3a/output
I0403 15:46:59.012485 20264 net.cpp:399] inception_3a/output_inception_3a/output_0_split -> inception_3a/output_inception_3a/output_0_split_0
I0403 15:46:59.012506 20264 net.cpp:399] inception_3a/output_inception_3a/output_0_split -> inception_3a/output_inception_3a/output_0_split_1
I0403 15:46:59.012529 20264 net.cpp:399] inception_3a/output_inception_3a/output_0_split -> inception_3a/output_inception_3a/output_0_split_2
I0403 15:46:59.012550 20264 net.cpp:399] inception_3a/output_inception_3a/output_0_split -> inception_3a/output_inception_3a/output_0_split_3
I0403 15:46:59.012626 20264 net.cpp:141] Setting up inception_3a/output_inception_3a/output_0_split
I0403 15:46:59.012648 20264 net.cpp:148] Top shape: 24 256 28 28 (4816896)
I0403 15:46:59.012665 20264 net.cpp:148] Top shape: 24 256 28 28 (4816896)
I0403 15:46:59.012679 20264 net.cpp:148] Top shape: 24 256 28 28 (4816896)
I0403 15:46:59.012696 20264 net.cpp:148] Top shape: 24 256 28 28 (4816896)
I0403 15:46:59.012708 20264 net.cpp:156] Memory required for data: 657507360
I0403 15:46:59.012723 20264 layer_factory.hpp:77] Creating layer inception_3b/1x1
I0403 15:46:59.012745 20264 net.cpp:91] Creating Layer inception_3b/1x1
I0403 15:46:59.012763 20264 net.cpp:425] inception_3b/1x1 <- inception_3a/output_inception_3a/output_0_split_0
I0403 15:46:59.012783 20264 net.cpp:399] inception_3b/1x1 -> inception_3b/1x1
I0403 15:46:59.013917 20264 net.cpp:141] Setting up inception_3b/1x1
I0403 15:46:59.013957 20264 net.cpp:148] Top shape: 24 128 28 28 (2408448)
I0403 15:46:59.013972 20264 net.cpp:156] Memory required for data: 667141152
I0403 15:46:59.013994 20264 layer_factory.hpp:77] Creating layer inception_3b/relu_1x1
I0403 15:46:59.014016 20264 net.cpp:91] Creating Layer inception_3b/relu_1x1
I0403 15:46:59.014034 20264 net.cpp:425] inception_3b/relu_1x1 <- inception_3b/1x1
I0403 15:46:59.014050 20264 net.cpp:386] inception_3b/relu_1x1 -> inception_3b/1x1 (in-place)
I0403 15:46:59.014222 20264 net.cpp:141] Setting up inception_3b/relu_1x1
I0403 15:46:59.014250 20264 net.cpp:148] Top shape: 24 128 28 28 (2408448)
I0403 15:46:59.014266 20264 net.cpp:156] Memory required for data: 676774944
I0403 15:46:59.014281 20264 layer_factory.hpp:77] Creating layer inception_3b/3x3_reduce
I0403 15:46:59.014300 20264 net.cpp:91] Creating Layer inception_3b/3x3_reduce
I0403 15:46:59.014317 20264 net.cpp:425] inception_3b/3x3_reduce <- inception_3a/output_inception_3a/output_0_split_1
I0403 15:46:59.014338 20264 net.cpp:399] inception_3b/3x3_reduce -> inception_3b/3x3_reduce
I0403 15:46:59.015458 20264 net.cpp:141] Setting up inception_3b/3x3_reduce
I0403 15:46:59.015486 20264 net.cpp:148] Top shape: 24 128 28 28 (2408448)
I0403 15:46:59.015501 20264 net.cpp:156] Memory required for data: 686408736
I0403 15:46:59.015521 20264 layer_factory.hpp:77] Creating layer inception_3b/relu_3x3_reduce
I0403 15:46:59.015539 20264 net.cpp:91] Creating Layer inception_3b/relu_3x3_reduce
I0403 15:46:59.015555 20264 net.cpp:425] inception_3b/relu_3x3_reduce <- inception_3b/3x3_reduce
I0403 15:46:59.015573 20264 net.cpp:386] inception_3b/relu_3x3_reduce -> inception_3b/3x3_reduce (in-place)
I0403 15:46:59.015741 20264 net.cpp:141] Setting up inception_3b/relu_3x3_reduce
I0403 15:46:59.015765 20264 net.cpp:148] Top shape: 24 128 28 28 (2408448)
I0403 15:46:59.015780 20264 net.cpp:156] Memory required for data: 696042528
I0403 15:46:59.015794 20264 layer_factory.hpp:77] Creating layer inception_3b/3x3
I0403 15:46:59.015822 20264 net.cpp:91] Creating Layer inception_3b/3x3
I0403 15:46:59.015841 20264 net.cpp:425] inception_3b/3x3 <- inception_3b/3x3_reduce
I0403 15:46:59.015861 20264 net.cpp:399] inception_3b/3x3 -> inception_3b/3x3
I0403 15:46:59.018741 20264 net.cpp:141] Setting up inception_3b/3x3
I0403 15:46:59.018771 20264 net.cpp:148] Top shape: 24 192 28 28 (3612672)
I0403 15:46:59.018786 20264 net.cpp:156] Memory required for data: 710493216
I0403 15:46:59.018805 20264 layer_factory.hpp:77] Creating layer inception_3b/relu_3x3
I0403 15:46:59.018823 20264 net.cpp:91] Creating Layer inception_3b/relu_3x3
I0403 15:46:59.018839 20264 net.cpp:425] inception_3b/relu_3x3 <- inception_3b/3x3
I0403 15:46:59.018856 20264 net.cpp:386] inception_3b/relu_3x3 -> inception_3b/3x3 (in-place)
I0403 15:46:59.019140 20264 net.cpp:141] Setting up inception_3b/relu_3x3
I0403 15:46:59.019168 20264 net.cpp:148] Top shape: 24 192 28 28 (3612672)
I0403 15:46:59.019184 20264 net.cpp:156] Memory required for data: 724943904
I0403 15:46:59.019199 20264 layer_factory.hpp:77] Creating layer inception_3b/5x5_reduce
I0403 15:46:59.019219 20264 net.cpp:91] Creating Layer inception_3b/5x5_reduce
I0403 15:46:59.019235 20264 net.cpp:425] inception_3b/5x5_reduce <- inception_3a/output_inception_3a/output_0_split_2
I0403 15:46:59.019256 20264 net.cpp:399] inception_3b/5x5_reduce -> inception_3b/5x5_reduce
I0403 15:46:59.020236 20264 net.cpp:141] Setting up inception_3b/5x5_reduce
I0403 15:46:59.020264 20264 net.cpp:148] Top shape: 24 32 28 28 (602112)
I0403 15:46:59.020279 20264 net.cpp:156] Memory required for data: 727352352
I0403 15:46:59.020298 20264 layer_factory.hpp:77] Creating layer inception_3b/relu_5x5_reduce
I0403 15:46:59.020318 20264 net.cpp:91] Creating Layer inception_3b/relu_5x5_reduce
I0403 15:46:59.020334 20264 net.cpp:425] inception_3b/relu_5x5_reduce <- inception_3b/5x5_reduce
I0403 15:46:59.020351 20264 net.cpp:386] inception_3b/relu_5x5_reduce -> inception_3b/5x5_reduce (in-place)
I0403 15:46:59.020545 20264 net.cpp:141] Setting up inception_3b/relu_5x5_reduce
I0403 15:46:59.020570 20264 net.cpp:148] Top shape: 24 32 28 28 (602112)
I0403 15:46:59.020586 20264 net.cpp:156] Memory required for data: 729760800
I0403 15:46:59.020599 20264 layer_factory.hpp:77] Creating layer inception_3b/5x5
I0403 15:46:59.020622 20264 net.cpp:91] Creating Layer inception_3b/5x5
I0403 15:46:59.020638 20264 net.cpp:425] inception_3b/5x5 <- inception_3b/5x5_reduce
I0403 15:46:59.020656 20264 net.cpp:399] inception_3b/5x5 -> inception_3b/5x5
I0403 15:46:59.022599 20264 net.cpp:141] Setting up inception_3b/5x5
I0403 15:46:59.022627 20264 net.cpp:148] Top shape: 24 96 28 28 (1806336)
I0403 15:46:59.022642 20264 net.cpp:156] Memory required for data: 736986144
I0403 15:46:59.022660 20264 layer_factory.hpp:77] Creating layer inception_3b/relu_5x5
I0403 15:46:59.022680 20264 net.cpp:91] Creating Layer inception_3b/relu_5x5
I0403 15:46:59.022697 20264 net.cpp:425] inception_3b/relu_5x5 <- inception_3b/5x5
I0403 15:46:59.022714 20264 net.cpp:386] inception_3b/relu_5x5 -> inception_3b/5x5 (in-place)
I0403 15:46:59.022904 20264 net.cpp:141] Setting up inception_3b/relu_5x5
I0403 15:46:59.022929 20264 net.cpp:148] Top shape: 24 96 28 28 (1806336)
I0403 15:46:59.022943 20264 net.cpp:156] Memory required for data: 744211488
I0403 15:46:59.022958 20264 layer_factory.hpp:77] Creating layer inception_3b/pool
I0403 15:46:59.022975 20264 net.cpp:91] Creating Layer inception_3b/pool
I0403 15:46:59.022996 20264 net.cpp:425] inception_3b/pool <- inception_3a/output_inception_3a/output_0_split_3
I0403 15:46:59.023015 20264 net.cpp:399] inception_3b/pool -> inception_3b/pool
I0403 15:46:59.023069 20264 net.cpp:141] Setting up inception_3b/pool
I0403 15:46:59.023094 20264 net.cpp:148] Top shape: 24 256 28 28 (4816896)
I0403 15:46:59.023108 20264 net.cpp:156] Memory required for data: 763479072
I0403 15:46:59.023123 20264 layer_factory.hpp:77] Creating layer inception_3b/pool_proj
I0403 15:46:59.023145 20264 net.cpp:91] Creating Layer inception_3b/pool_proj
I0403 15:46:59.023162 20264 net.cpp:425] inception_3b/pool_proj <- inception_3b/pool
I0403 15:46:59.023182 20264 net.cpp:399] inception_3b/pool_proj -> inception_3b/pool_proj
I0403 15:46:59.024262 20264 net.cpp:141] Setting up inception_3b/pool_proj
I0403 15:46:59.024294 20264 net.cpp:148] Top shape: 24 64 28 28 (1204224)
I0403 15:46:59.024310 20264 net.cpp:156] Memory required for data: 768295968
I0403 15:46:59.024330 20264 layer_factory.hpp:77] Creating layer inception_3b/relu_pool_proj
I0403 15:46:59.024360 20264 net.cpp:91] Creating Layer inception_3b/relu_pool_proj
I0403 15:46:59.024376 20264 net.cpp:425] inception_3b/relu_pool_proj <- inception_3b/pool_proj
I0403 15:46:59.024396 20264 net.cpp:386] inception_3b/relu_pool_proj -> inception_3b/pool_proj (in-place)
I0403 15:46:59.024794 20264 net.cpp:141] Setting up inception_3b/relu_pool_proj
I0403 15:46:59.024824 20264 net.cpp:148] Top shape: 24 64 28 28 (1204224)
I0403 15:46:59.024840 20264 net.cpp:156] Memory required for data: 773112864
I0403 15:46:59.024857 20264 layer_factory.hpp:77] Creating layer inception_3b/output
I0403 15:46:59.024873 20264 net.cpp:91] Creating Layer inception_3b/output
I0403 15:46:59.024889 20264 net.cpp:425] inception_3b/output <- inception_3b/1x1
I0403 15:46:59.024905 20264 net.cpp:425] inception_3b/output <- inception_3b/3x3
I0403 15:46:59.024921 20264 net.cpp:425] inception_3b/output <- inception_3b/5x5
I0403 15:46:59.024937 20264 net.cpp:425] inception_3b/output <- inception_3b/pool_proj
I0403 15:46:59.024953 20264 net.cpp:399] inception_3b/output -> inception_3b/output
I0403 15:46:59.025004 20264 net.cpp:141] Setting up inception_3b/output
I0403 15:46:59.025028 20264 net.cpp:148] Top shape: 24 480 28 28 (9031680)
I0403 15:46:59.025043 20264 net.cpp:156] Memory required for data: 809239584
I0403 15:46:59.025058 20264 layer_factory.hpp:77] Creating layer pool3/3x3_s2
I0403 15:46:59.025077 20264 net.cpp:91] Creating Layer pool3/3x3_s2
I0403 15:46:59.025094 20264 net.cpp:425] pool3/3x3_s2 <- inception_3b/output
I0403 15:46:59.025127 20264 net.cpp:399] pool3/3x3_s2 -> pool3/3x3_s2
I0403 15:46:59.025188 20264 net.cpp:141] Setting up pool3/3x3_s2
I0403 15:46:59.025212 20264 net.cpp:148] Top shape: 24 480 14 14 (2257920)
I0403 15:46:59.025226 20264 net.cpp:156] Memory required for data: 818271264
I0403 15:46:59.025241 20264 layer_factory.hpp:77] Creating layer pool3/3x3_s2_pool3/3x3_s2_0_split
I0403 15:46:59.025259 20264 net.cpp:91] Creating Layer pool3/3x3_s2_pool3/3x3_s2_0_split
I0403 15:46:59.025274 20264 net.cpp:425] pool3/3x3_s2_pool3/3x3_s2_0_split <- pool3/3x3_s2
I0403 15:46:59.025292 20264 net.cpp:399] pool3/3x3_s2_pool3/3x3_s2_0_split -> pool3/3x3_s2_pool3/3x3_s2_0_split_0
I0403 15:46:59.025312 20264 net.cpp:399] pool3/3x3_s2_pool3/3x3_s2_0_split -> pool3/3x3_s2_pool3/3x3_s2_0_split_1
I0403 15:46:59.025332 20264 net.cpp:399] pool3/3x3_s2_pool3/3x3_s2_0_split -> pool3/3x3_s2_pool3/3x3_s2_0_split_2
I0403 15:46:59.025352 20264 net.cpp:399] pool3/3x3_s2_pool3/3x3_s2_0_split -> pool3/3x3_s2_pool3/3x3_s2_0_split_3
I0403 15:46:59.025429 20264 net.cpp:141] Setting up pool3/3x3_s2_pool3/3x3_s2_0_split
I0403 15:46:59.025454 20264 net.cpp:148] Top shape: 24 480 14 14 (2257920)
I0403 15:46:59.025471 20264 net.cpp:148] Top shape: 24 480 14 14 (2257920)
I0403 15:46:59.025486 20264 net.cpp:148] Top shape: 24 480 14 14 (2257920)
I0403 15:46:59.025501 20264 net.cpp:148] Top shape: 24 480 14 14 (2257920)
I0403 15:46:59.025516 20264 net.cpp:156] Memory required for data: 854397984
I0403 15:46:59.025530 20264 layer_factory.hpp:77] Creating layer inception_4a/1x1
I0403 15:46:59.025552 20264 net.cpp:91] Creating Layer inception_4a/1x1
I0403 15:46:59.025569 20264 net.cpp:425] inception_4a/1x1 <- pool3/3x3_s2_pool3/3x3_s2_0_split_0
I0403 15:46:59.025588 20264 net.cpp:399] inception_4a/1x1 -> inception_4a/1x1
I0403 15:46:59.027194 20264 net.cpp:141] Setting up inception_4a/1x1
I0403 15:46:59.027222 20264 net.cpp:148] Top shape: 24 192 14 14 (903168)
I0403 15:46:59.027237 20264 net.cpp:156] Memory required for data: 858010656
I0403 15:46:59.027256 20264 layer_factory.hpp:77] Creating layer inception_4a/relu_1x1
I0403 15:46:59.027274 20264 net.cpp:91] Creating Layer inception_4a/relu_1x1
I0403 15:46:59.027289 20264 net.cpp:425] inception_4a/relu_1x1 <- inception_4a/1x1
I0403 15:46:59.027309 20264 net.cpp:386] inception_4a/relu_1x1 -> inception_4a/1x1 (in-place)
I0403 15:46:59.027493 20264 net.cpp:141] Setting up inception_4a/relu_1x1
I0403 15:46:59.027518 20264 net.cpp:148] Top shape: 24 192 14 14 (903168)
I0403 15:46:59.027534 20264 net.cpp:156] Memory required for data: 861623328
I0403 15:46:59.027549 20264 layer_factory.hpp:77] Creating layer inception_4a/3x3_reduce
I0403 15:46:59.027570 20264 net.cpp:91] Creating Layer inception_4a/3x3_reduce
I0403 15:46:59.027588 20264 net.cpp:425] inception_4a/3x3_reduce <- pool3/3x3_s2_pool3/3x3_s2_0_split_1
I0403 15:46:59.027609 20264 net.cpp:399] inception_4a/3x3_reduce -> inception_4a/3x3_reduce
I0403 15:46:59.028903 20264 net.cpp:141] Setting up inception_4a/3x3_reduce
I0403 15:46:59.028930 20264 net.cpp:148] Top shape: 24 96 14 14 (451584)
I0403 15:46:59.028945 20264 net.cpp:156] Memory required for data: 863429664
I0403 15:46:59.028970 20264 layer_factory.hpp:77] Creating layer inception_4a/relu_3x3_reduce
I0403 15:46:59.029000 20264 net.cpp:91] Creating Layer inception_4a/relu_3x3_reduce
I0403 15:46:59.029019 20264 net.cpp:425] inception_4a/relu_3x3_reduce <- inception_4a/3x3_reduce
I0403 15:46:59.029039 20264 net.cpp:386] inception_4a/relu_3x3_reduce -> inception_4a/3x3_reduce (in-place)
I0403 15:46:59.029216 20264 net.cpp:141] Setting up inception_4a/relu_3x3_reduce
I0403 15:46:59.029239 20264 net.cpp:148] Top shape: 24 96 14 14 (451584)
I0403 15:46:59.029253 20264 net.cpp:156] Memory required for data: 865236000
I0403 15:46:59.029268 20264 layer_factory.hpp:77] Creating layer inception_4a/3x3
I0403 15:46:59.029289 20264 net.cpp:91] Creating Layer inception_4a/3x3
I0403 15:46:59.029306 20264 net.cpp:425] inception_4a/3x3 <- inception_4a/3x3_reduce
I0403 15:46:59.029327 20264 net.cpp:399] inception_4a/3x3 -> inception_4a/3x3
I0403 15:46:59.031987 20264 net.cpp:141] Setting up inception_4a/3x3
I0403 15:46:59.032016 20264 net.cpp:148] Top shape: 24 208 14 14 (978432)
I0403 15:46:59.032032 20264 net.cpp:156] Memory required for data: 869149728
I0403 15:46:59.032050 20264 layer_factory.hpp:77] Creating layer inception_4a/relu_3x3
I0403 15:46:59.032070 20264 net.cpp:91] Creating Layer inception_4a/relu_3x3
I0403 15:46:59.032088 20264 net.cpp:425] inception_4a/relu_3x3 <- inception_4a/3x3
I0403 15:46:59.032104 20264 net.cpp:386] inception_4a/relu_3x3 -> inception_4a/3x3 (in-place)
I0403 15:46:59.032383 20264 net.cpp:141] Setting up inception_4a/relu_3x3
I0403 15:46:59.032408 20264 net.cpp:148] Top shape: 24 208 14 14 (978432)
I0403 15:46:59.032423 20264 net.cpp:156] Memory required for data: 873063456
I0403 15:46:59.032438 20264 layer_factory.hpp:77] Creating layer inception_4a/5x5_reduce
I0403 15:46:59.032460 20264 net.cpp:91] Creating Layer inception_4a/5x5_reduce
I0403 15:46:59.032477 20264 net.cpp:425] inception_4a/5x5_reduce <- pool3/3x3_s2_pool3/3x3_s2_0_split_2
I0403 15:46:59.032498 20264 net.cpp:399] inception_4a/5x5_reduce -> inception_4a/5x5_reduce
I0403 15:46:59.033511 20264 net.cpp:141] Setting up inception_4a/5x5_reduce
I0403 15:46:59.033540 20264 net.cpp:148] Top shape: 24 16 14 14 (75264)
I0403 15:46:59.033555 20264 net.cpp:156] Memory required for data: 873364512
I0403 15:46:59.033572 20264 layer_factory.hpp:77] Creating layer inception_4a/relu_5x5_reduce
I0403 15:46:59.033591 20264 net.cpp:91] Creating Layer inception_4a/relu_5x5_reduce
I0403 15:46:59.033608 20264 net.cpp:425] inception_4a/relu_5x5_reduce <- inception_4a/5x5_reduce
I0403 15:46:59.033625 20264 net.cpp:386] inception_4a/relu_5x5_reduce -> inception_4a/5x5_reduce (in-place)
I0403 15:46:59.033803 20264 net.cpp:141] Setting up inception_4a/relu_5x5_reduce
I0403 15:46:59.033830 20264 net.cpp:148] Top shape: 24 16 14 14 (75264)
I0403 15:46:59.033845 20264 net.cpp:156] Memory required for data: 873665568
I0403 15:46:59.033859 20264 layer_factory.hpp:77] Creating layer inception_4a/5x5
I0403 15:46:59.033881 20264 net.cpp:91] Creating Layer inception_4a/5x5
I0403 15:46:59.033898 20264 net.cpp:425] inception_4a/5x5 <- inception_4a/5x5_reduce
I0403 15:46:59.033916 20264 net.cpp:399] inception_4a/5x5 -> inception_4a/5x5
I0403 15:46:59.034998 20264 net.cpp:141] Setting up inception_4a/5x5
I0403 15:46:59.035028 20264 net.cpp:148] Top shape: 24 48 14 14 (225792)
I0403 15:46:59.035044 20264 net.cpp:156] Memory required for data: 874568736
I0403 15:46:59.035063 20264 layer_factory.hpp:77] Creating layer inception_4a/relu_5x5
I0403 15:46:59.035081 20264 net.cpp:91] Creating Layer inception_4a/relu_5x5
I0403 15:46:59.035096 20264 net.cpp:425] inception_4a/relu_5x5 <- inception_4a/5x5
I0403 15:46:59.035115 20264 net.cpp:386] inception_4a/relu_5x5 -> inception_4a/5x5 (in-place)
I0403 15:46:59.035296 20264 net.cpp:141] Setting up inception_4a/relu_5x5
I0403 15:46:59.035321 20264 net.cpp:148] Top shape: 24 48 14 14 (225792)
I0403 15:46:59.035336 20264 net.cpp:156] Memory required for data: 875471904
I0403 15:46:59.035351 20264 layer_factory.hpp:77] Creating layer inception_4a/pool
I0403 15:46:59.035367 20264 net.cpp:91] Creating Layer inception_4a/pool
I0403 15:46:59.035383 20264 net.cpp:425] inception_4a/pool <- pool3/3x3_s2_pool3/3x3_s2_0_split_3
I0403 15:46:59.035403 20264 net.cpp:399] inception_4a/pool -> inception_4a/pool
I0403 15:46:59.035465 20264 net.cpp:141] Setting up inception_4a/pool
I0403 15:46:59.035487 20264 net.cpp:148] Top shape: 24 480 14 14 (2257920)
I0403 15:46:59.035502 20264 net.cpp:156] Memory required for data: 884503584
I0403 15:46:59.035516 20264 layer_factory.hpp:77] Creating layer inception_4a/pool_proj
I0403 15:46:59.035538 20264 net.cpp:91] Creating Layer inception_4a/pool_proj
I0403 15:46:59.035555 20264 net.cpp:425] inception_4a/pool_proj <- inception_4a/pool
I0403 15:46:59.035576 20264 net.cpp:399] inception_4a/pool_proj -> inception_4a/pool_proj
I0403 15:46:59.036730 20264 net.cpp:141] Setting up inception_4a/pool_proj
I0403 15:46:59.036758 20264 net.cpp:148] Top shape: 24 64 14 14 (301056)
I0403 15:46:59.036787 20264 net.cpp:156] Memory required for data: 885707808
I0403 15:46:59.036806 20264 layer_factory.hpp:77] Creating layer inception_4a/relu_pool_proj
I0403 15:46:59.036824 20264 net.cpp:91] Creating Layer inception_4a/relu_pool_proj
I0403 15:46:59.036839 20264 net.cpp:425] inception_4a/relu_pool_proj <- inception_4a/pool_proj
I0403 15:46:59.036860 20264 net.cpp:386] inception_4a/relu_pool_proj -> inception_4a/pool_proj (in-place)
I0403 15:46:59.037148 20264 net.cpp:141] Setting up inception_4a/relu_pool_proj
I0403 15:46:59.037174 20264 net.cpp:148] Top shape: 24 64 14 14 (301056)
I0403 15:46:59.037189 20264 net.cpp:156] Memory required for data: 886912032
I0403 15:46:59.037204 20264 layer_factory.hpp:77] Creating layer inception_4a/output
I0403 15:46:59.037220 20264 net.cpp:91] Creating Layer inception_4a/output
I0403 15:46:59.037235 20264 net.cpp:425] inception_4a/output <- inception_4a/1x1
I0403 15:46:59.037250 20264 net.cpp:425] inception_4a/output <- inception_4a/3x3
I0403 15:46:59.037266 20264 net.cpp:425] inception_4a/output <- inception_4a/5x5
I0403 15:46:59.037281 20264 net.cpp:425] inception_4a/output <- inception_4a/pool_proj
I0403 15:46:59.037299 20264 net.cpp:399] inception_4a/output -> inception_4a/output
I0403 15:46:59.037343 20264 net.cpp:141] Setting up inception_4a/output
I0403 15:46:59.037369 20264 net.cpp:148] Top shape: 24 512 14 14 (2408448)
I0403 15:46:59.037384 20264 net.cpp:156] Memory required for data: 896545824
I0403 15:46:59.037398 20264 layer_factory.hpp:77] Creating layer inception_4a/output_inception_4a/output_0_split
I0403 15:46:59.037415 20264 net.cpp:91] Creating Layer inception_4a/output_inception_4a/output_0_split
I0403 15:46:59.037431 20264 net.cpp:425] inception_4a/output_inception_4a/output_0_split <- inception_4a/output
I0403 15:46:59.037448 20264 net.cpp:399] inception_4a/output_inception_4a/output_0_split -> inception_4a/output_inception_4a/output_0_split_0
I0403 15:46:59.037470 20264 net.cpp:399] inception_4a/output_inception_4a/output_0_split -> inception_4a/output_inception_4a/output_0_split_1
I0403 15:46:59.037492 20264 net.cpp:399] inception_4a/output_inception_4a/output_0_split -> inception_4a/output_inception_4a/output_0_split_2
I0403 15:46:59.037511 20264 net.cpp:399] inception_4a/output_inception_4a/output_0_split -> inception_4a/output_inception_4a/output_0_split_3
I0403 15:46:59.037530 20264 net.cpp:399] inception_4a/output_inception_4a/output_0_split -> inception_4a/output_inception_4a/output_0_split_4
I0403 15:46:59.037623 20264 net.cpp:141] Setting up inception_4a/output_inception_4a/output_0_split
I0403 15:46:59.037647 20264 net.cpp:148] Top shape: 24 512 14 14 (2408448)
I0403 15:46:59.037662 20264 net.cpp:148] Top shape: 24 512 14 14 (2408448)
I0403 15:46:59.037678 20264 net.cpp:148] Top shape: 24 512 14 14 (2408448)
I0403 15:46:59.037693 20264 net.cpp:148] Top shape: 24 512 14 14 (2408448)
I0403 15:46:59.037708 20264 net.cpp:148] Top shape: 24 512 14 14 (2408448)
I0403 15:46:59.037720 20264 net.cpp:156] Memory required for data: 944714784
I0403 15:46:59.037734 20264 layer_factory.hpp:77] Creating layer loss1/ave_pool
I0403 15:46:59.037755 20264 net.cpp:91] Creating Layer loss1/ave_pool
I0403 15:46:59.037770 20264 net.cpp:425] loss1/ave_pool <- inception_4a/output_inception_4a/output_0_split_0
I0403 15:46:59.037787 20264 net.cpp:399] loss1/ave_pool -> loss1/ave_pool
I0403 15:46:59.037998 20264 net.cpp:141] Setting up loss1/ave_pool
I0403 15:46:59.038023 20264 net.cpp:148] Top shape: 24 512 4 4 (196608)
I0403 15:46:59.038038 20264 net.cpp:156] Memory required for data: 945501216
I0403 15:46:59.038053 20264 layer_factory.hpp:77] Creating layer loss1/conv
I0403 15:46:59.038074 20264 net.cpp:91] Creating Layer loss1/conv
I0403 15:46:59.038091 20264 net.cpp:425] loss1/conv <- loss1/ave_pool
I0403 15:46:59.038112 20264 net.cpp:399] loss1/conv -> loss1/conv
I0403 15:46:59.039521 20264 net.cpp:141] Setting up loss1/conv
I0403 15:46:59.039549 20264 net.cpp:148] Top shape: 24 128 4 4 (49152)
I0403 15:46:59.039578 20264 net.cpp:156] Memory required for data: 945697824
I0403 15:46:59.039597 20264 layer_factory.hpp:77] Creating layer loss1/relu_conv
I0403 15:46:59.039618 20264 net.cpp:91] Creating Layer loss1/relu_conv
I0403 15:46:59.039634 20264 net.cpp:425] loss1/relu_conv <- loss1/conv
I0403 15:46:59.039650 20264 net.cpp:386] loss1/relu_conv -> loss1/conv (in-place)
I0403 15:46:59.039930 20264 net.cpp:141] Setting up loss1/relu_conv
I0403 15:46:59.039957 20264 net.cpp:148] Top shape: 24 128 4 4 (49152)
I0403 15:46:59.039970 20264 net.cpp:156] Memory required for data: 945894432
I0403 15:46:59.039989 20264 layer_factory.hpp:77] Creating layer loss1/fc
I0403 15:46:59.040016 20264 net.cpp:91] Creating Layer loss1/fc
I0403 15:46:59.040035 20264 net.cpp:425] loss1/fc <- loss1/conv
I0403 15:46:59.040052 20264 net.cpp:399] loss1/fc -> loss1/fc
I0403 15:46:59.057576 20264 net.cpp:141] Setting up loss1/fc
I0403 15:46:59.057622 20264 net.cpp:148] Top shape: 24 1024 (24576)
I0403 15:46:59.057637 20264 net.cpp:156] Memory required for data: 945992736
I0403 15:46:59.057657 20264 layer_factory.hpp:77] Creating layer loss1/relu_fc
I0403 15:46:59.057675 20264 net.cpp:91] Creating Layer loss1/relu_fc
I0403 15:46:59.057693 20264 net.cpp:425] loss1/relu_fc <- loss1/fc
I0403 15:46:59.057711 20264 net.cpp:386] loss1/relu_fc -> loss1/fc (in-place)
I0403 15:46:59.057905 20264 net.cpp:141] Setting up loss1/relu_fc
I0403 15:46:59.057929 20264 net.cpp:148] Top shape: 24 1024 (24576)
I0403 15:46:59.057943 20264 net.cpp:156] Memory required for data: 946091040
I0403 15:46:59.057958 20264 layer_factory.hpp:77] Creating layer loss1/drop_fc
I0403 15:46:59.057996 20264 net.cpp:91] Creating Layer loss1/drop_fc
I0403 15:46:59.058017 20264 net.cpp:425] loss1/drop_fc <- loss1/fc
I0403 15:46:59.058035 20264 net.cpp:386] loss1/drop_fc -> loss1/fc (in-place)
I0403 15:46:59.058086 20264 net.cpp:141] Setting up loss1/drop_fc
I0403 15:46:59.058114 20264 net.cpp:148] Top shape: 24 1024 (24576)
I0403 15:46:59.058128 20264 net.cpp:156] Memory required for data: 946189344
I0403 15:46:59.058143 20264 layer_factory.hpp:77] Creating layer loss1/classifier_plantvillage
I0403 15:46:59.058161 20264 net.cpp:91] Creating Layer loss1/classifier_plantvillage
I0403 15:46:59.058176 20264 net.cpp:425] loss1/classifier_plantvillage <- loss1/fc
I0403 15:46:59.058197 20264 net.cpp:399] loss1/classifier_plantvillage -> loss1/classifier_plantvillage
I0403 15:46:59.059113 20264 net.cpp:141] Setting up loss1/classifier_plantvillage
I0403 15:46:59.059140 20264 net.cpp:148] Top shape: 24 38 (912)
I0403 15:46:59.059156 20264 net.cpp:156] Memory required for data: 946192992
I0403 15:46:59.059173 20264 layer_factory.hpp:77] Creating layer loss1/classifier_plantvillage_loss1/classifier_plantvillage_0_split
I0403 15:46:59.059193 20264 net.cpp:91] Creating Layer loss1/classifier_plantvillage_loss1/classifier_plantvillage_0_split
I0403 15:46:59.059211 20264 net.cpp:425] loss1/classifier_plantvillage_loss1/classifier_plantvillage_0_split <- loss1/classifier_plantvillage
I0403 15:46:59.059227 20264 net.cpp:399] loss1/classifier_plantvillage_loss1/classifier_plantvillage_0_split -> loss1/classifier_plantvillage_loss1/classifier_plantvillage_0_split_0
I0403 15:46:59.059247 20264 net.cpp:399] loss1/classifier_plantvillage_loss1/classifier_plantvillage_0_split -> loss1/classifier_plantvillage_loss1/classifier_plantvillage_0_split_1
I0403 15:46:59.059267 20264 net.cpp:399] loss1/classifier_plantvillage_loss1/classifier_plantvillage_0_split -> loss1/classifier_plantvillage_loss1/classifier_plantvillage_0_split_2
I0403 15:46:59.059330 20264 net.cpp:141] Setting up loss1/classifier_plantvillage_loss1/classifier_plantvillage_0_split
I0403 15:46:59.059356 20264 net.cpp:148] Top shape: 24 38 (912)
I0403 15:46:59.059372 20264 net.cpp:148] Top shape: 24 38 (912)
I0403 15:46:59.059387 20264 net.cpp:148] Top shape: 24 38 (912)
I0403 15:46:59.059401 20264 net.cpp:156] Memory required for data: 946203936
I0403 15:46:59.059415 20264 layer_factory.hpp:77] Creating layer inception_4b/1x1
I0403 15:46:59.059435 20264 net.cpp:91] Creating Layer inception_4b/1x1
I0403 15:46:59.059469 20264 net.cpp:425] inception_4b/1x1 <- inception_4a/output_inception_4a/output_0_split_1
I0403 15:46:59.059489 20264 net.cpp:399] inception_4b/1x1 -> inception_4b/1x1
I0403 15:46:59.061177 20264 net.cpp:141] Setting up inception_4b/1x1
I0403 15:46:59.061204 20264 net.cpp:148] Top shape: 24 160 14 14 (752640)
I0403 15:46:59.061219 20264 net.cpp:156] Memory required for data: 949214496
I0403 15:46:59.061239 20264 layer_factory.hpp:77] Creating layer inception_4b/relu_1x1
I0403 15:46:59.061259 20264 net.cpp:91] Creating Layer inception_4b/relu_1x1
I0403 15:46:59.061275 20264 net.cpp:425] inception_4b/relu_1x1 <- inception_4b/1x1
I0403 15:46:59.061291 20264 net.cpp:386] inception_4b/relu_1x1 -> inception_4b/1x1 (in-place)
I0403 15:46:59.061475 20264 net.cpp:141] Setting up inception_4b/relu_1x1
I0403 15:46:59.061502 20264 net.cpp:148] Top shape: 24 160 14 14 (752640)
I0403 15:46:59.061517 20264 net.cpp:156] Memory required for data: 952225056
I0403 15:46:59.061532 20264 layer_factory.hpp:77] Creating layer inception_4b/3x3_reduce
I0403 15:46:59.061553 20264 net.cpp:91] Creating Layer inception_4b/3x3_reduce
I0403 15:46:59.061571 20264 net.cpp:425] inception_4b/3x3_reduce <- inception_4a/output_inception_4a/output_0_split_2
I0403 15:46:59.061589 20264 net.cpp:399] inception_4b/3x3_reduce -> inception_4b/3x3_reduce
I0403 15:46:59.062943 20264 net.cpp:141] Setting up inception_4b/3x3_reduce
I0403 15:46:59.062973 20264 net.cpp:148] Top shape: 24 112 14 14 (526848)
I0403 15:46:59.062997 20264 net.cpp:156] Memory required for data: 954332448
I0403 15:46:59.063017 20264 layer_factory.hpp:77] Creating layer inception_4b/relu_3x3_reduce
I0403 15:46:59.063035 20264 net.cpp:91] Creating Layer inception_4b/relu_3x3_reduce
I0403 15:46:59.063050 20264 net.cpp:425] inception_4b/relu_3x3_reduce <- inception_4b/3x3_reduce
I0403 15:46:59.063069 20264 net.cpp:386] inception_4b/relu_3x3_reduce -> inception_4b/3x3_reduce (in-place)
I0403 15:46:59.063352 20264 net.cpp:141] Setting up inception_4b/relu_3x3_reduce
I0403 15:46:59.063380 20264 net.cpp:148] Top shape: 24 112 14 14 (526848)
I0403 15:46:59.063396 20264 net.cpp:156] Memory required for data: 956439840
I0403 15:46:59.063411 20264 layer_factory.hpp:77] Creating layer inception_4b/3x3
I0403 15:46:59.063433 20264 net.cpp:91] Creating Layer inception_4b/3x3
I0403 15:46:59.063451 20264 net.cpp:425] inception_4b/3x3 <- inception_4b/3x3_reduce
I0403 15:46:59.063469 20264 net.cpp:399] inception_4b/3x3 -> inception_4b/3x3
I0403 15:46:59.066454 20264 net.cpp:141] Setting up inception_4b/3x3
I0403 15:46:59.066483 20264 net.cpp:148] Top shape: 24 224 14 14 (1053696)
I0403 15:46:59.066498 20264 net.cpp:156] Memory required for data: 960654624
I0403 15:46:59.066516 20264 layer_factory.hpp:77] Creating layer inception_4b/relu_3x3
I0403 15:46:59.066534 20264 net.cpp:91] Creating Layer inception_4b/relu_3x3
I0403 15:46:59.066553 20264 net.cpp:425] inception_4b/relu_3x3 <- inception_4b/3x3
I0403 15:46:59.066570 20264 net.cpp:386] inception_4b/relu_3x3 -> inception_4b/3x3 (in-place)
I0403 15:46:59.066750 20264 net.cpp:141] Setting up inception_4b/relu_3x3
I0403 15:46:59.066774 20264 net.cpp:148] Top shape: 24 224 14 14 (1053696)
I0403 15:46:59.066788 20264 net.cpp:156] Memory required for data: 964869408
I0403 15:46:59.066802 20264 layer_factory.hpp:77] Creating layer inception_4b/5x5_reduce
I0403 15:46:59.066824 20264 net.cpp:91] Creating Layer inception_4b/5x5_reduce
I0403 15:46:59.066841 20264 net.cpp:425] inception_4b/5x5_reduce <- inception_4a/output_inception_4a/output_0_split_3
I0403 15:46:59.066862 20264 net.cpp:399] inception_4b/5x5_reduce -> inception_4b/5x5_reduce
I0403 15:46:59.067945 20264 net.cpp:141] Setting up inception_4b/5x5_reduce
I0403 15:46:59.067972 20264 net.cpp:148] Top shape: 24 24 14 14 (112896)
I0403 15:46:59.068001 20264 net.cpp:156] Memory required for data: 965320992
I0403 15:46:59.068022 20264 layer_factory.hpp:77] Creating layer inception_4b/relu_5x5_reduce
I0403 15:46:59.068043 20264 net.cpp:91] Creating Layer inception_4b/relu_5x5_reduce
I0403 15:46:59.068074 20264 net.cpp:425] inception_4b/relu_5x5_reduce <- inception_4b/5x5_reduce
I0403 15:46:59.068092 20264 net.cpp:386] inception_4b/relu_5x5_reduce -> inception_4b/5x5_reduce (in-place)
I0403 15:46:59.068274 20264 net.cpp:141] Setting up inception_4b/relu_5x5_reduce
I0403 15:46:59.068297 20264 net.cpp:148] Top shape: 24 24 14 14 (112896)
I0403 15:46:59.068312 20264 net.cpp:156] Memory required for data: 965772576
I0403 15:46:59.068326 20264 layer_factory.hpp:77] Creating layer inception_4b/5x5
I0403 15:46:59.068348 20264 net.cpp:91] Creating Layer inception_4b/5x5
I0403 15:46:59.068366 20264 net.cpp:425] inception_4b/5x5 <- inception_4b/5x5_reduce
I0403 15:46:59.068387 20264 net.cpp:399] inception_4b/5x5 -> inception_4b/5x5
I0403 15:46:59.069613 20264 net.cpp:141] Setting up inception_4b/5x5
I0403 15:46:59.069640 20264 net.cpp:148] Top shape: 24 64 14 14 (301056)
I0403 15:46:59.069655 20264 net.cpp:156] Memory required for data: 966976800
I0403 15:46:59.069674 20264 layer_factory.hpp:77] Creating layer inception_4b/relu_5x5
I0403 15:46:59.069694 20264 net.cpp:91] Creating Layer inception_4b/relu_5x5
I0403 15:46:59.069710 20264 net.cpp:425] inception_4b/relu_5x5 <- inception_4b/5x5
I0403 15:46:59.069726 20264 net.cpp:386] inception_4b/relu_5x5 -> inception_4b/5x5 (in-place)
I0403 15:46:59.070016 20264 net.cpp:141] Setting up inception_4b/relu_5x5
I0403 15:46:59.070042 20264 net.cpp:148] Top shape: 24 64 14 14 (301056)
I0403 15:46:59.070056 20264 net.cpp:156] Memory required for data: 968181024
I0403 15:46:59.070071 20264 layer_factory.hpp:77] Creating layer inception_4b/pool
I0403 15:46:59.070092 20264 net.cpp:91] Creating Layer inception_4b/pool
I0403 15:46:59.070109 20264 net.cpp:425] inception_4b/pool <- inception_4a/output_inception_4a/output_0_split_4
I0403 15:46:59.070127 20264 net.cpp:399] inception_4b/pool -> inception_4b/pool
I0403 15:46:59.070195 20264 net.cpp:141] Setting up inception_4b/pool
I0403 15:46:59.070219 20264 net.cpp:148] Top shape: 24 512 14 14 (2408448)
I0403 15:46:59.070233 20264 net.cpp:156] Memory required for data: 977814816
I0403 15:46:59.070248 20264 layer_factory.hpp:77] Creating layer inception_4b/pool_proj
I0403 15:46:59.070271 20264 net.cpp:91] Creating Layer inception_4b/pool_proj
I0403 15:46:59.070288 20264 net.cpp:425] inception_4b/pool_proj <- inception_4b/pool
I0403 15:46:59.070309 20264 net.cpp:399] inception_4b/pool_proj -> inception_4b/pool_proj
I0403 15:46:59.071571 20264 net.cpp:141] Setting up inception_4b/pool_proj
I0403 15:46:59.071599 20264 net.cpp:148] Top shape: 24 64 14 14 (301056)
I0403 15:46:59.071619 20264 net.cpp:156] Memory required for data: 979019040
I0403 15:46:59.071637 20264 layer_factory.hpp:77] Creating layer inception_4b/relu_pool_proj
I0403 15:46:59.071655 20264 net.cpp:91] Creating Layer inception_4b/relu_pool_proj
I0403 15:46:59.071672 20264 net.cpp:425] inception_4b/relu_pool_proj <- inception_4b/pool_proj
I0403 15:46:59.071689 20264 net.cpp:386] inception_4b/relu_pool_proj -> inception_4b/pool_proj (in-place)
I0403 15:46:59.071873 20264 net.cpp:141] Setting up inception_4b/relu_pool_proj
I0403 15:46:59.071902 20264 net.cpp:148] Top shape: 24 64 14 14 (301056)
I0403 15:46:59.071916 20264 net.cpp:156] Memory required for data: 980223264
I0403 15:46:59.071931 20264 layer_factory.hpp:77] Creating layer inception_4b/output
I0403 15:46:59.071949 20264 net.cpp:91] Creating Layer inception_4b/output
I0403 15:46:59.071965 20264 net.cpp:425] inception_4b/output <- inception_4b/1x1
I0403 15:46:59.071981 20264 net.cpp:425] inception_4b/output <- inception_4b/3x3
I0403 15:46:59.072005 20264 net.cpp:425] inception_4b/output <- inception_4b/5x5
I0403 15:46:59.072023 20264 net.cpp:425] inception_4b/output <- inception_4b/pool_proj
I0403 15:46:59.072043 20264 net.cpp:399] inception_4b/output -> inception_4b/output
I0403 15:46:59.072089 20264 net.cpp:141] Setting up inception_4b/output
I0403 15:46:59.072113 20264 net.cpp:148] Top shape: 24 512 14 14 (2408448)
I0403 15:46:59.072127 20264 net.cpp:156] Memory required for data: 989857056
I0403 15:46:59.072156 20264 layer_factory.hpp:77] Creating layer inception_4b/output_inception_4b/output_0_split
I0403 15:46:59.072177 20264 net.cpp:91] Creating Layer inception_4b/output_inception_4b/output_0_split
I0403 15:46:59.072193 20264 net.cpp:425] inception_4b/output_inception_4b/output_0_split <- inception_4b/output
I0403 15:46:59.072211 20264 net.cpp:399] inception_4b/output_inception_4b/output_0_split -> inception_4b/output_inception_4b/output_0_split_0
I0403 15:46:59.072230 20264 net.cpp:399] inception_4b/output_inception_4b/output_0_split -> inception_4b/output_inception_4b/output_0_split_1
I0403 15:46:59.072254 20264 net.cpp:399] inception_4b/output_inception_4b/output_0_split -> inception_4b/output_inception_4b/output_0_split_2
I0403 15:46:59.072275 20264 net.cpp:399] inception_4b/output_inception_4b/output_0_split -> inception_4b/output_inception_4b/output_0_split_3
I0403 15:46:59.072362 20264 net.cpp:141] Setting up inception_4b/output_inception_4b/output_0_split
I0403 15:46:59.072386 20264 net.cpp:148] Top shape: 24 512 14 14 (2408448)
I0403 15:46:59.072403 20264 net.cpp:148] Top shape: 24 512 14 14 (2408448)
I0403 15:46:59.072418 20264 net.cpp:148] Top shape: 24 512 14 14 (2408448)
I0403 15:46:59.072433 20264 net.cpp:148] Top shape: 24 512 14 14 (2408448)
I0403 15:46:59.072450 20264 net.cpp:156] Memory required for data: 1028392224
I0403 15:46:59.072465 20264 layer_factory.hpp:77] Creating layer inception_4c/1x1
I0403 15:46:59.072489 20264 net.cpp:91] Creating Layer inception_4c/1x1
I0403 15:46:59.072505 20264 net.cpp:425] inception_4c/1x1 <- inception_4b/output_inception_4b/output_0_split_0
I0403 15:46:59.072526 20264 net.cpp:399] inception_4c/1x1 -> inception_4c/1x1
I0403 15:46:59.074025 20264 net.cpp:141] Setting up inception_4c/1x1
I0403 15:46:59.074059 20264 net.cpp:148] Top shape: 24 128 14 14 (602112)
I0403 15:46:59.074075 20264 net.cpp:156] Memory required for data: 1030800672
I0403 15:46:59.074095 20264 layer_factory.hpp:77] Creating layer inception_4c/relu_1x1
I0403 15:46:59.074112 20264 net.cpp:91] Creating Layer inception_4c/relu_1x1
I0403 15:46:59.074128 20264 net.cpp:425] inception_4c/relu_1x1 <- inception_4c/1x1
I0403 15:46:59.074147 20264 net.cpp:386] inception_4c/relu_1x1 -> inception_4c/1x1 (in-place)
I0403 15:46:59.074336 20264 net.cpp:141] Setting up inception_4c/relu_1x1
I0403 15:46:59.074362 20264 net.cpp:148] Top shape: 24 128 14 14 (602112)
I0403 15:46:59.074375 20264 net.cpp:156] Memory required for data: 1033209120
I0403 15:46:59.074390 20264 layer_factory.hpp:77] Creating layer inception_4c/3x3_reduce
I0403 15:46:59.074414 20264 net.cpp:91] Creating Layer inception_4c/3x3_reduce
I0403 15:46:59.074431 20264 net.cpp:425] inception_4c/3x3_reduce <- inception_4b/output_inception_4b/output_0_split_1
I0403 15:46:59.074452 20264 net.cpp:399] inception_4c/3x3_reduce -> inception_4c/3x3_reduce
I0403 15:46:59.076469 20264 net.cpp:141] Setting up inception_4c/3x3_reduce
I0403 15:46:59.076498 20264 net.cpp:148] Top shape: 24 128 14 14 (602112)
I0403 15:46:59.076514 20264 net.cpp:156] Memory required for data: 1035617568
I0403 15:46:59.076532 20264 layer_factory.hpp:77] Creating layer inception_4c/relu_3x3_reduce
I0403 15:46:59.076553 20264 net.cpp:91] Creating Layer inception_4c/relu_3x3_reduce
I0403 15:46:59.076570 20264 net.cpp:425] inception_4c/relu_3x3_reduce <- inception_4c/3x3_reduce
I0403 15:46:59.076587 20264 net.cpp:386] inception_4c/relu_3x3_reduce -> inception_4c/3x3_reduce (in-place)
I0403 15:46:59.076884 20264 net.cpp:141] Setting up inception_4c/relu_3x3_reduce
I0403 15:46:59.076910 20264 net.cpp:148] Top shape: 24 128 14 14 (602112)
I0403 15:46:59.076926 20264 net.cpp:156] Memory required for data: 1038026016
I0403 15:46:59.076941 20264 layer_factory.hpp:77] Creating layer inception_4c/3x3
I0403 15:46:59.076964 20264 net.cpp:91] Creating Layer inception_4c/3x3
I0403 15:46:59.076982 20264 net.cpp:425] inception_4c/3x3 <- inception_4c/3x3_reduce
I0403 15:46:59.077014 20264 net.cpp:399] inception_4c/3x3 -> inception_4c/3x3
I0403 15:46:59.080727 20264 net.cpp:141] Setting up inception_4c/3x3
I0403 15:46:59.080770 20264 net.cpp:148] Top shape: 24 256 14 14 (1204224)
I0403 15:46:59.080786 20264 net.cpp:156] Memory required for data: 1042842912
I0403 15:46:59.080821 20264 layer_factory.hpp:77] Creating layer inception_4c/relu_3x3
I0403 15:46:59.080843 20264 net.cpp:91] Creating Layer inception_4c/relu_3x3
I0403 15:46:59.080860 20264 net.cpp:425] inception_4c/relu_3x3 <- inception_4c/3x3
I0403 15:46:59.080878 20264 net.cpp:386] inception_4c/relu_3x3 -> inception_4c/3x3 (in-place)
I0403 15:46:59.081078 20264 net.cpp:141] Setting up inception_4c/relu_3x3
I0403 15:46:59.081104 20264 net.cpp:148] Top shape: 24 256 14 14 (1204224)
I0403 15:46:59.081117 20264 net.cpp:156] Memory required for data: 1047659808
I0403 15:46:59.081133 20264 layer_factory.hpp:77] Creating layer inception_4c/5x5_reduce
I0403 15:46:59.081157 20264 net.cpp:91] Creating Layer inception_4c/5x5_reduce
I0403 15:46:59.081176 20264 net.cpp:425] inception_4c/5x5_reduce <- inception_4b/output_inception_4b/output_0_split_2
I0403 15:46:59.081194 20264 net.cpp:399] inception_4c/5x5_reduce -> inception_4c/5x5_reduce
I0403 15:46:59.082316 20264 net.cpp:141] Setting up inception_4c/5x5_reduce
I0403 15:46:59.082345 20264 net.cpp:148] Top shape: 24 24 14 14 (112896)
I0403 15:46:59.082360 20264 net.cpp:156] Memory required for data: 1048111392
I0403 15:46:59.082378 20264 layer_factory.hpp:77] Creating layer inception_4c/relu_5x5_reduce
I0403 15:46:59.082398 20264 net.cpp:91] Creating Layer inception_4c/relu_5x5_reduce
I0403 15:46:59.082415 20264 net.cpp:425] inception_4c/relu_5x5_reduce <- inception_4c/5x5_reduce
I0403 15:46:59.082432 20264 net.cpp:386] inception_4c/relu_5x5_reduce -> inception_4c/5x5_reduce (in-place)
I0403 15:46:59.082622 20264 net.cpp:141] Setting up inception_4c/relu_5x5_reduce
I0403 15:46:59.082648 20264 net.cpp:148] Top shape: 24 24 14 14 (112896)
I0403 15:46:59.082664 20264 net.cpp:156] Memory required for data: 1048562976
I0403 15:46:59.082680 20264 layer_factory.hpp:77] Creating layer inception_4c/5x5
I0403 15:46:59.082702 20264 net.cpp:91] Creating Layer inception_4c/5x5
I0403 15:46:59.082720 20264 net.cpp:425] inception_4c/5x5 <- inception_4c/5x5_reduce
I0403 15:46:59.082741 20264 net.cpp:399] inception_4c/5x5 -> inception_4c/5x5
I0403 15:46:59.084030 20264 net.cpp:141] Setting up inception_4c/5x5
I0403 15:46:59.084063 20264 net.cpp:148] Top shape: 24 64 14 14 (301056)
I0403 15:46:59.084080 20264 net.cpp:156] Memory required for data: 1049767200
I0403 15:46:59.084100 20264 layer_factory.hpp:77] Creating layer inception_4c/relu_5x5
I0403 15:46:59.084117 20264 net.cpp:91] Creating Layer inception_4c/relu_5x5
I0403 15:46:59.084133 20264 net.cpp:425] inception_4c/relu_5x5 <- inception_4c/5x5
I0403 15:46:59.084153 20264 net.cpp:386] inception_4c/relu_5x5 -> inception_4c/5x5 (in-place)
I0403 15:46:59.084450 20264 net.cpp:141] Setting up inception_4c/relu_5x5
I0403 15:46:59.084481 20264 net.cpp:148] Top shape: 24 64 14 14 (301056)
I0403 15:46:59.084496 20264 net.cpp:156] Memory required for data: 1050971424
I0403 15:46:59.084511 20264 layer_factory.hpp:77] Creating layer inception_4c/pool
I0403 15:46:59.084529 20264 net.cpp:91] Creating Layer inception_4c/pool
I0403 15:46:59.084545 20264 net.cpp:425] inception_4c/pool <- inception_4b/output_inception_4b/output_0_split_3
I0403 15:46:59.084566 20264 net.cpp:399] inception_4c/pool -> inception_4c/pool
I0403 15:46:59.084632 20264 net.cpp:141] Setting up inception_4c/pool
I0403 15:46:59.084659 20264 net.cpp:148] Top shape: 24 512 14 14 (2408448)
I0403 15:46:59.084674 20264 net.cpp:156] Memory required for data: 1060605216
I0403 15:46:59.084689 20264 layer_factory.hpp:77] Creating layer inception_4c/pool_proj
I0403 15:46:59.084710 20264 net.cpp:91] Creating Layer inception_4c/pool_proj
I0403 15:46:59.084728 20264 net.cpp:425] inception_4c/pool_proj <- inception_4c/pool
I0403 15:46:59.084748 20264 net.cpp:399] inception_4c/pool_proj -> inception_4c/pool_proj
I0403 15:46:59.086019 20264 net.cpp:141] Setting up inception_4c/pool_proj
I0403 15:46:59.086046 20264 net.cpp:148] Top shape: 24 64 14 14 (301056)
I0403 15:46:59.086076 20264 net.cpp:156] Memory required for data: 1061809440
I0403 15:46:59.086097 20264 layer_factory.hpp:77] Creating layer inception_4c/relu_pool_proj
I0403 15:46:59.086122 20264 net.cpp:91] Creating Layer inception_4c/relu_pool_proj
I0403 15:46:59.086138 20264 net.cpp:425] inception_4c/relu_pool_proj <- inception_4c/pool_proj
I0403 15:46:59.086155 20264 net.cpp:386] inception_4c/relu_pool_proj -> inception_4c/pool_proj (in-place)
I0403 15:46:59.086343 20264 net.cpp:141] Setting up inception_4c/relu_pool_proj
I0403 15:46:59.086370 20264 net.cpp:148] Top shape: 24 64 14 14 (301056)
I0403 15:46:59.086386 20264 net.cpp:156] Memory required for data: 1063013664
I0403 15:46:59.086401 20264 layer_factory.hpp:77] Creating layer inception_4c/output
I0403 15:46:59.086418 20264 net.cpp:91] Creating Layer inception_4c/output
I0403 15:46:59.086434 20264 net.cpp:425] inception_4c/output <- inception_4c/1x1
I0403 15:46:59.086452 20264 net.cpp:425] inception_4c/output <- inception_4c/3x3
I0403 15:46:59.086467 20264 net.cpp:425] inception_4c/output <- inception_4c/5x5
I0403 15:46:59.086483 20264 net.cpp:425] inception_4c/output <- inception_4c/pool_proj
I0403 15:46:59.086503 20264 net.cpp:399] inception_4c/output -> inception_4c/output
I0403 15:46:59.086550 20264 net.cpp:141] Setting up inception_4c/output
I0403 15:46:59.086573 20264 net.cpp:148] Top shape: 24 512 14 14 (2408448)
I0403 15:46:59.086588 20264 net.cpp:156] Memory required for data: 1072647456
I0403 15:46:59.086602 20264 layer_factory.hpp:77] Creating layer inception_4c/output_inception_4c/output_0_split
I0403 15:46:59.086622 20264 net.cpp:91] Creating Layer inception_4c/output_inception_4c/output_0_split
I0403 15:46:59.086638 20264 net.cpp:425] inception_4c/output_inception_4c/output_0_split <- inception_4c/output
I0403 15:46:59.086657 20264 net.cpp:399] inception_4c/output_inception_4c/output_0_split -> inception_4c/output_inception_4c/output_0_split_0
I0403 15:46:59.086676 20264 net.cpp:399] inception_4c/output_inception_4c/output_0_split -> inception_4c/output_inception_4c/output_0_split_1
I0403 15:46:59.086699 20264 net.cpp:399] inception_4c/output_inception_4c/output_0_split -> inception_4c/output_inception_4c/output_0_split_2
I0403 15:46:59.086720 20264 net.cpp:399] inception_4c/output_inception_4c/output_0_split -> inception_4c/output_inception_4c/output_0_split_3
I0403 15:46:59.086812 20264 net.cpp:141] Setting up inception_4c/output_inception_4c/output_0_split
I0403 15:46:59.086835 20264 net.cpp:148] Top shape: 24 512 14 14 (2408448)
I0403 15:46:59.086851 20264 net.cpp:148] Top shape: 24 512 14 14 (2408448)
I0403 15:46:59.086874 20264 net.cpp:148] Top shape: 24 512 14 14 (2408448)
I0403 15:46:59.086889 20264 net.cpp:148] Top shape: 24 512 14 14 (2408448)
I0403 15:46:59.086904 20264 net.cpp:156] Memory required for data: 1111182624
I0403 15:46:59.086917 20264 layer_factory.hpp:77] Creating layer inception_4d/1x1
I0403 15:46:59.086948 20264 net.cpp:91] Creating Layer inception_4d/1x1
I0403 15:46:59.086972 20264 net.cpp:425] inception_4d/1x1 <- inception_4c/output_inception_4c/output_0_split_0
I0403 15:46:59.086999 20264 net.cpp:399] inception_4d/1x1 -> inception_4d/1x1
I0403 15:46:59.088448 20264 net.cpp:141] Setting up inception_4d/1x1
I0403 15:46:59.088476 20264 net.cpp:148] Top shape: 24 112 14 14 (526848)
I0403 15:46:59.088491 20264 net.cpp:156] Memory required for data: 1113290016
I0403 15:46:59.088510 20264 layer_factory.hpp:77] Creating layer inception_4d/relu_1x1
I0403 15:46:59.088531 20264 net.cpp:91] Creating Layer inception_4d/relu_1x1
I0403 15:46:59.088548 20264 net.cpp:425] inception_4d/relu_1x1 <- inception_4d/1x1
I0403 15:46:59.088565 20264 net.cpp:386] inception_4d/relu_1x1 -> inception_4d/1x1 (in-place)
I0403 15:46:59.088757 20264 net.cpp:141] Setting up inception_4d/relu_1x1
I0403 15:46:59.088781 20264 net.cpp:148] Top shape: 24 112 14 14 (526848)
I0403 15:46:59.088796 20264 net.cpp:156] Memory required for data: 1115397408
I0403 15:46:59.088811 20264 layer_factory.hpp:77] Creating layer inception_4d/3x3_reduce
I0403 15:46:59.088850 20264 net.cpp:91] Creating Layer inception_4d/3x3_reduce
I0403 15:46:59.088870 20264 net.cpp:425] inception_4d/3x3_reduce <- inception_4c/output_inception_4c/output_0_split_1
I0403 15:46:59.088888 20264 net.cpp:399] inception_4d/3x3_reduce -> inception_4d/3x3_reduce
I0403 15:46:59.090499 20264 net.cpp:141] Setting up inception_4d/3x3_reduce
I0403 15:46:59.090528 20264 net.cpp:148] Top shape: 24 144 14 14 (677376)
I0403 15:46:59.090543 20264 net.cpp:156] Memory required for data: 1118106912
I0403 15:46:59.090560 20264 layer_factory.hpp:77] Creating layer inception_4d/relu_3x3_reduce
I0403 15:46:59.090579 20264 net.cpp:91] Creating Layer inception_4d/relu_3x3_reduce
I0403 15:46:59.090595 20264 net.cpp:425] inception_4d/relu_3x3_reduce <- inception_4d/3x3_reduce
I0403 15:46:59.090613 20264 net.cpp:386] inception_4d/relu_3x3_reduce -> inception_4d/3x3_reduce (in-place)
I0403 15:46:59.090903 20264 net.cpp:141] Setting up inception_4d/relu_3x3_reduce
I0403 15:46:59.090929 20264 net.cpp:148] Top shape: 24 144 14 14 (677376)
I0403 15:46:59.090945 20264 net.cpp:156] Memory required for data: 1120816416
I0403 15:46:59.090960 20264 layer_factory.hpp:77] Creating layer inception_4d/3x3
I0403 15:46:59.090981 20264 net.cpp:91] Creating Layer inception_4d/3x3
I0403 15:46:59.091006 20264 net.cpp:425] inception_4d/3x3 <- inception_4d/3x3_reduce
I0403 15:46:59.091027 20264 net.cpp:399] inception_4d/3x3 -> inception_4d/3x3
I0403 15:46:59.095316 20264 net.cpp:141] Setting up inception_4d/3x3
I0403 15:46:59.095345 20264 net.cpp:148] Top shape: 24 288 14 14 (1354752)
I0403 15:46:59.095360 20264 net.cpp:156] Memory required for data: 1126235424
I0403 15:46:59.095377 20264 layer_factory.hpp:77] Creating layer inception_4d/relu_3x3
I0403 15:46:59.095396 20264 net.cpp:91] Creating Layer inception_4d/relu_3x3
I0403 15:46:59.095412 20264 net.cpp:425] inception_4d/relu_3x3 <- inception_4d/3x3
I0403 15:46:59.095429 20264 net.cpp:386] inception_4d/relu_3x3 -> inception_4d/3x3 (in-place)
I0403 15:46:59.095604 20264 net.cpp:141] Setting up inception_4d/relu_3x3
I0403 15:46:59.095630 20264 net.cpp:148] Top shape: 24 288 14 14 (1354752)
I0403 15:46:59.095645 20264 net.cpp:156] Memory required for data: 1131654432
I0403 15:46:59.095659 20264 layer_factory.hpp:77] Creating layer inception_4d/5x5_reduce
I0403 15:46:59.095679 20264 net.cpp:91] Creating Layer inception_4d/5x5_reduce
I0403 15:46:59.095695 20264 net.cpp:425] inception_4d/5x5_reduce <- inception_4c/output_inception_4c/output_0_split_2
I0403 15:46:59.095715 20264 net.cpp:399] inception_4d/5x5_reduce -> inception_4d/5x5_reduce
I0403 15:46:59.096834 20264 net.cpp:141] Setting up inception_4d/5x5_reduce
I0403 15:46:59.096861 20264 net.cpp:148] Top shape: 24 32 14 14 (150528)
I0403 15:46:59.096876 20264 net.cpp:156] Memory required for data: 1132256544
I0403 15:46:59.096894 20264 layer_factory.hpp:77] Creating layer inception_4d/relu_5x5_reduce
I0403 15:46:59.096912 20264 net.cpp:91] Creating Layer inception_4d/relu_5x5_reduce
I0403 15:46:59.096928 20264 net.cpp:425] inception_4d/relu_5x5_reduce <- inception_4d/5x5_reduce
I0403 15:46:59.096946 20264 net.cpp:386] inception_4d/relu_5x5_reduce -> inception_4d/5x5_reduce (in-place)
I0403 15:46:59.097132 20264 net.cpp:141] Setting up inception_4d/relu_5x5_reduce
I0403 15:46:59.097157 20264 net.cpp:148] Top shape: 24 32 14 14 (150528)
I0403 15:46:59.097172 20264 net.cpp:156] Memory required for data: 1132858656
I0403 15:46:59.097184 20264 layer_factory.hpp:77] Creating layer inception_4d/5x5
I0403 15:46:59.097208 20264 net.cpp:91] Creating Layer inception_4d/5x5
I0403 15:46:59.097224 20264 net.cpp:425] inception_4d/5x5 <- inception_4d/5x5_reduce
I0403 15:46:59.097242 20264 net.cpp:399] inception_4d/5x5 -> inception_4d/5x5
I0403 15:46:59.098686 20264 net.cpp:141] Setting up inception_4d/5x5
I0403 15:46:59.098716 20264 net.cpp:148] Top shape: 24 64 14 14 (301056)
I0403 15:46:59.098731 20264 net.cpp:156] Memory required for data: 1134062880
I0403 15:46:59.098749 20264 layer_factory.hpp:77] Creating layer inception_4d/relu_5x5
I0403 15:46:59.098781 20264 net.cpp:91] Creating Layer inception_4d/relu_5x5
I0403 15:46:59.098798 20264 net.cpp:425] inception_4d/relu_5x5 <- inception_4d/5x5
I0403 15:46:59.098817 20264 net.cpp:386] inception_4d/relu_5x5 -> inception_4d/5x5 (in-place)
I0403 15:46:59.099115 20264 net.cpp:141] Setting up inception_4d/relu_5x5
I0403 15:46:59.099143 20264 net.cpp:148] Top shape: 24 64 14 14 (301056)
I0403 15:46:59.099159 20264 net.cpp:156] Memory required for data: 1135267104
I0403 15:46:59.099172 20264 layer_factory.hpp:77] Creating layer inception_4d/pool
I0403 15:46:59.099189 20264 net.cpp:91] Creating Layer inception_4d/pool
I0403 15:46:59.099205 20264 net.cpp:425] inception_4d/pool <- inception_4c/output_inception_4c/output_0_split_3
I0403 15:46:59.099225 20264 net.cpp:399] inception_4d/pool -> inception_4d/pool
I0403 15:46:59.099287 20264 net.cpp:141] Setting up inception_4d/pool
I0403 15:46:59.099310 20264 net.cpp:148] Top shape: 24 512 14 14 (2408448)
I0403 15:46:59.099324 20264 net.cpp:156] Memory required for data: 1144900896
I0403 15:46:59.099339 20264 layer_factory.hpp:77] Creating layer inception_4d/pool_proj
I0403 15:46:59.099359 20264 net.cpp:91] Creating Layer inception_4d/pool_proj
I0403 15:46:59.099376 20264 net.cpp:425] inception_4d/pool_proj <- inception_4d/pool
I0403 15:46:59.099397 20264 net.cpp:399] inception_4d/pool_proj -> inception_4d/pool_proj
I0403 15:46:59.101115 20264 net.cpp:141] Setting up inception_4d/pool_proj
I0403 15:46:59.101143 20264 net.cpp:148] Top shape: 24 64 14 14 (301056)
I0403 15:46:59.101158 20264 net.cpp:156] Memory required for data: 1146105120
I0403 15:46:59.101176 20264 layer_factory.hpp:77] Creating layer inception_4d/relu_pool_proj
I0403 15:46:59.101196 20264 net.cpp:91] Creating Layer inception_4d/relu_pool_proj
I0403 15:46:59.101210 20264 net.cpp:425] inception_4d/relu_pool_proj <- inception_4d/pool_proj
I0403 15:46:59.101227 20264 net.cpp:386] inception_4d/relu_pool_proj -> inception_4d/pool_proj (in-place)
I0403 15:46:59.101403 20264 net.cpp:141] Setting up inception_4d/relu_pool_proj
I0403 15:46:59.101429 20264 net.cpp:148] Top shape: 24 64 14 14 (301056)
I0403 15:46:59.101444 20264 net.cpp:156] Memory required for data: 1147309344
I0403 15:46:59.101459 20264 layer_factory.hpp:77] Creating layer inception_4d/output
I0403 15:46:59.101475 20264 net.cpp:91] Creating Layer inception_4d/output
I0403 15:46:59.101490 20264 net.cpp:425] inception_4d/output <- inception_4d/1x1
I0403 15:46:59.101506 20264 net.cpp:425] inception_4d/output <- inception_4d/3x3
I0403 15:46:59.101521 20264 net.cpp:425] inception_4d/output <- inception_4d/5x5
I0403 15:46:59.101536 20264 net.cpp:425] inception_4d/output <- inception_4d/pool_proj
I0403 15:46:59.101552 20264 net.cpp:399] inception_4d/output -> inception_4d/output
I0403 15:46:59.101599 20264 net.cpp:141] Setting up inception_4d/output
I0403 15:46:59.101621 20264 net.cpp:148] Top shape: 24 528 14 14 (2483712)
I0403 15:46:59.101635 20264 net.cpp:156] Memory required for data: 1157244192
I0403 15:46:59.101649 20264 layer_factory.hpp:77] Creating layer inception_4d/output_inception_4d/output_0_split
I0403 15:46:59.101667 20264 net.cpp:91] Creating Layer inception_4d/output_inception_4d/output_0_split
I0403 15:46:59.101683 20264 net.cpp:425] inception_4d/output_inception_4d/output_0_split <- inception_4d/output
I0403 15:46:59.101701 20264 net.cpp:399] inception_4d/output_inception_4d/output_0_split -> inception_4d/output_inception_4d/output_0_split_0
I0403 15:46:59.101719 20264 net.cpp:399] inception_4d/output_inception_4d/output_0_split -> inception_4d/output_inception_4d/output_0_split_1
I0403 15:46:59.101739 20264 net.cpp:399] inception_4d/output_inception_4d/output_0_split -> inception_4d/output_inception_4d/output_0_split_2
I0403 15:46:59.101759 20264 net.cpp:399] inception_4d/output_inception_4d/output_0_split -> inception_4d/output_inception_4d/output_0_split_3
I0403 15:46:59.101780 20264 net.cpp:399] inception_4d/output_inception_4d/output_0_split -> inception_4d/output_inception_4d/output_0_split_4
I0403 15:46:59.101883 20264 net.cpp:141] Setting up inception_4d/output_inception_4d/output_0_split
I0403 15:46:59.101917 20264 net.cpp:148] Top shape: 24 528 14 14 (2483712)
I0403 15:46:59.101934 20264 net.cpp:148] Top shape: 24 528 14 14 (2483712)
I0403 15:46:59.101958 20264 net.cpp:148] Top shape: 24 528 14 14 (2483712)
I0403 15:46:59.101974 20264 net.cpp:148] Top shape: 24 528 14 14 (2483712)
I0403 15:46:59.101994 20264 net.cpp:148] Top shape: 24 528 14 14 (2483712)
I0403 15:46:59.102008 20264 net.cpp:156] Memory required for data: 1206918432
I0403 15:46:59.102022 20264 layer_factory.hpp:77] Creating layer loss2/ave_pool
I0403 15:46:59.102040 20264 net.cpp:91] Creating Layer loss2/ave_pool
I0403 15:46:59.102054 20264 net.cpp:425] loss2/ave_pool <- inception_4d/output_inception_4d/output_0_split_0
I0403 15:46:59.102074 20264 net.cpp:399] loss2/ave_pool -> loss2/ave_pool
I0403 15:46:59.102380 20264 net.cpp:141] Setting up loss2/ave_pool
I0403 15:46:59.102406 20264 net.cpp:148] Top shape: 24 528 4 4 (202752)
I0403 15:46:59.102421 20264 net.cpp:156] Memory required for data: 1207729440
I0403 15:46:59.102435 20264 layer_factory.hpp:77] Creating layer loss2/conv
I0403 15:46:59.102457 20264 net.cpp:91] Creating Layer loss2/conv
I0403 15:46:59.102473 20264 net.cpp:425] loss2/conv <- loss2/ave_pool
I0403 15:46:59.102494 20264 net.cpp:399] loss2/conv -> loss2/conv
I0403 15:46:59.104339 20264 net.cpp:141] Setting up loss2/conv
I0403 15:46:59.104369 20264 net.cpp:148] Top shape: 24 128 4 4 (49152)
I0403 15:46:59.104385 20264 net.cpp:156] Memory required for data: 1207926048
I0403 15:46:59.104403 20264 layer_factory.hpp:77] Creating layer loss2/relu_conv
I0403 15:46:59.104420 20264 net.cpp:91] Creating Layer loss2/relu_conv
I0403 15:46:59.104436 20264 net.cpp:425] loss2/relu_conv <- loss2/conv
I0403 15:46:59.104452 20264 net.cpp:386] loss2/relu_conv -> loss2/conv (in-place)
I0403 15:46:59.104730 20264 net.cpp:141] Setting up loss2/relu_conv
I0403 15:46:59.104758 20264 net.cpp:148] Top shape: 24 128 4 4 (49152)
I0403 15:46:59.104773 20264 net.cpp:156] Memory required for data: 1208122656
I0403 15:46:59.104787 20264 layer_factory.hpp:77] Creating layer loss2/fc
I0403 15:46:59.104805 20264 net.cpp:91] Creating Layer loss2/fc
I0403 15:46:59.104822 20264 net.cpp:425] loss2/fc <- loss2/conv
I0403 15:46:59.104842 20264 net.cpp:399] loss2/fc -> loss2/fc
I0403 15:46:59.122525 20264 net.cpp:141] Setting up loss2/fc
I0403 15:46:59.122558 20264 net.cpp:148] Top shape: 24 1024 (24576)
I0403 15:46:59.122573 20264 net.cpp:156] Memory required for data: 1208220960
I0403 15:46:59.122591 20264 layer_factory.hpp:77] Creating layer loss2/relu_fc
I0403 15:46:59.122611 20264 net.cpp:91] Creating Layer loss2/relu_fc
I0403 15:46:59.122628 20264 net.cpp:425] loss2/relu_fc <- loss2/fc
I0403 15:46:59.122645 20264 net.cpp:386] loss2/relu_fc -> loss2/fc (in-place)
I0403 15:46:59.122939 20264 net.cpp:141] Setting up loss2/relu_fc
I0403 15:46:59.122966 20264 net.cpp:148] Top shape: 24 1024 (24576)
I0403 15:46:59.122982 20264 net.cpp:156] Memory required for data: 1208319264
I0403 15:46:59.123003 20264 layer_factory.hpp:77] Creating layer loss2/drop_fc
I0403 15:46:59.123024 20264 net.cpp:91] Creating Layer loss2/drop_fc
I0403 15:46:59.123042 20264 net.cpp:425] loss2/drop_fc <- loss2/fc
I0403 15:46:59.123059 20264 net.cpp:386] loss2/drop_fc -> loss2/fc (in-place)
I0403 15:46:59.123109 20264 net.cpp:141] Setting up loss2/drop_fc
I0403 15:46:59.123132 20264 net.cpp:148] Top shape: 24 1024 (24576)
I0403 15:46:59.123147 20264 net.cpp:156] Memory required for data: 1208417568
I0403 15:46:59.123160 20264 layer_factory.hpp:77] Creating layer loss2/classifier_plantvillage
I0403 15:46:59.123178 20264 net.cpp:91] Creating Layer loss2/classifier_plantvillage
I0403 15:46:59.123196 20264 net.cpp:425] loss2/classifier_plantvillage <- loss2/fc
I0403 15:46:59.123214 20264 net.cpp:399] loss2/classifier_plantvillage -> loss2/classifier_plantvillage
I0403 15:46:59.123638 20264 net.cpp:141] Setting up loss2/classifier_plantvillage
I0403 15:46:59.123663 20264 net.cpp:148] Top shape: 24 38 (912)
I0403 15:46:59.123694 20264 net.cpp:156] Memory required for data: 1208421216
I0403 15:46:59.123713 20264 layer_factory.hpp:77] Creating layer loss2/classifier_plantvillage_loss2/classifier_plantvillage_0_split
I0403 15:46:59.123733 20264 net.cpp:91] Creating Layer loss2/classifier_plantvillage_loss2/classifier_plantvillage_0_split
I0403 15:46:59.123749 20264 net.cpp:425] loss2/classifier_plantvillage_loss2/classifier_plantvillage_0_split <- loss2/classifier_plantvillage
I0403 15:46:59.123780 20264 net.cpp:399] loss2/classifier_plantvillage_loss2/classifier_plantvillage_0_split -> loss2/classifier_plantvillage_loss2/classifier_plantvillage_0_split_0
I0403 15:46:59.123801 20264 net.cpp:399] loss2/classifier_plantvillage_loss2/classifier_plantvillage_0_split -> loss2/classifier_plantvillage_loss2/classifier_plantvillage_0_split_1
I0403 15:46:59.123821 20264 net.cpp:399] loss2/classifier_plantvillage_loss2/classifier_plantvillage_0_split -> loss2/classifier_plantvillage_loss2/classifier_plantvillage_0_split_2
I0403 15:46:59.123898 20264 net.cpp:141] Setting up loss2/classifier_plantvillage_loss2/classifier_plantvillage_0_split
I0403 15:46:59.123924 20264 net.cpp:148] Top shape: 24 38 (912)
I0403 15:46:59.123940 20264 net.cpp:148] Top shape: 24 38 (912)
I0403 15:46:59.123955 20264 net.cpp:148] Top shape: 24 38 (912)
I0403 15:46:59.123968 20264 net.cpp:156] Memory required for data: 1208432160
I0403 15:46:59.123982 20264 layer_factory.hpp:77] Creating layer inception_4e/1x1
I0403 15:46:59.124011 20264 net.cpp:91] Creating Layer inception_4e/1x1
I0403 15:46:59.124030 20264 net.cpp:425] inception_4e/1x1 <- inception_4d/output_inception_4d/output_0_split_1
I0403 15:46:59.124048 20264 net.cpp:399] inception_4e/1x1 -> inception_4e/1x1
I0403 15:46:59.125830 20264 net.cpp:141] Setting up inception_4e/1x1
I0403 15:46:59.125859 20264 net.cpp:148] Top shape: 24 256 14 14 (1204224)
I0403 15:46:59.125875 20264 net.cpp:156] Memory required for data: 1213249056
I0403 15:46:59.125895 20264 layer_factory.hpp:77] Creating layer inception_4e/relu_1x1
I0403 15:46:59.125911 20264 net.cpp:91] Creating Layer inception_4e/relu_1x1
I0403 15:46:59.125927 20264 net.cpp:425] inception_4e/relu_1x1 <- inception_4e/1x1
I0403 15:46:59.125946 20264 net.cpp:386] inception_4e/relu_1x1 -> inception_4e/1x1 (in-place)
I0403 15:46:59.126242 20264 net.cpp:141] Setting up inception_4e/relu_1x1
I0403 15:46:59.126269 20264 net.cpp:148] Top shape: 24 256 14 14 (1204224)
I0403 15:46:59.126284 20264 net.cpp:156] Memory required for data: 1218065952
I0403 15:46:59.126307 20264 layer_factory.hpp:77] Creating layer inception_4e/3x3_reduce
I0403 15:46:59.126330 20264 net.cpp:91] Creating Layer inception_4e/3x3_reduce
I0403 15:46:59.126348 20264 net.cpp:425] inception_4e/3x3_reduce <- inception_4d/output_inception_4d/output_0_split_2
I0403 15:46:59.126365 20264 net.cpp:399] inception_4e/3x3_reduce -> inception_4e/3x3_reduce
I0403 15:46:59.128463 20264 net.cpp:141] Setting up inception_4e/3x3_reduce
I0403 15:46:59.128494 20264 net.cpp:148] Top shape: 24 160 14 14 (752640)
I0403 15:46:59.128509 20264 net.cpp:156] Memory required for data: 1221076512
I0403 15:46:59.128527 20264 layer_factory.hpp:77] Creating layer inception_4e/relu_3x3_reduce
I0403 15:46:59.128545 20264 net.cpp:91] Creating Layer inception_4e/relu_3x3_reduce
I0403 15:46:59.128559 20264 net.cpp:425] inception_4e/relu_3x3_reduce <- inception_4e/3x3_reduce
I0403 15:46:59.128576 20264 net.cpp:386] inception_4e/relu_3x3_reduce -> inception_4e/3x3_reduce (in-place)
I0403 15:46:59.128756 20264 net.cpp:141] Setting up inception_4e/relu_3x3_reduce
I0403 15:46:59.128782 20264 net.cpp:148] Top shape: 24 160 14 14 (752640)
I0403 15:46:59.128795 20264 net.cpp:156] Memory required for data: 1224087072
I0403 15:46:59.128810 20264 layer_factory.hpp:77] Creating layer inception_4e/3x3
I0403 15:46:59.128831 20264 net.cpp:91] Creating Layer inception_4e/3x3
I0403 15:46:59.128849 20264 net.cpp:425] inception_4e/3x3 <- inception_4e/3x3_reduce
I0403 15:46:59.128870 20264 net.cpp:399] inception_4e/3x3 -> inception_4e/3x3
I0403 15:46:59.133743 20264 net.cpp:141] Setting up inception_4e/3x3
I0403 15:46:59.133782 20264 net.cpp:148] Top shape: 24 320 14 14 (1505280)
I0403 15:46:59.133797 20264 net.cpp:156] Memory required for data: 1230108192
I0403 15:46:59.133816 20264 layer_factory.hpp:77] Creating layer inception_4e/relu_3x3
I0403 15:46:59.133832 20264 net.cpp:91] Creating Layer inception_4e/relu_3x3
I0403 15:46:59.133847 20264 net.cpp:425] inception_4e/relu_3x3 <- inception_4e/3x3
I0403 15:46:59.133865 20264 net.cpp:386] inception_4e/relu_3x3 -> inception_4e/3x3 (in-place)
I0403 15:46:59.134169 20264 net.cpp:141] Setting up inception_4e/relu_3x3
I0403 15:46:59.134196 20264 net.cpp:148] Top shape: 24 320 14 14 (1505280)
I0403 15:46:59.134209 20264 net.cpp:156] Memory required for data: 1236129312
I0403 15:46:59.134224 20264 layer_factory.hpp:77] Creating layer inception_4e/5x5_reduce
I0403 15:46:59.134245 20264 net.cpp:91] Creating Layer inception_4e/5x5_reduce
I0403 15:46:59.134263 20264 net.cpp:425] inception_4e/5x5_reduce <- inception_4d/output_inception_4d/output_0_split_3
I0403 15:46:59.134284 20264 net.cpp:399] inception_4e/5x5_reduce -> inception_4e/5x5_reduce
I0403 15:46:59.135325 20264 net.cpp:141] Setting up inception_4e/5x5_reduce
I0403 15:46:59.135354 20264 net.cpp:148] Top shape: 24 32 14 14 (150528)
I0403 15:46:59.135368 20264 net.cpp:156] Memory required for data: 1236731424
I0403 15:46:59.135386 20264 layer_factory.hpp:77] Creating layer inception_4e/relu_5x5_reduce
I0403 15:46:59.135403 20264 net.cpp:91] Creating Layer inception_4e/relu_5x5_reduce
I0403 15:46:59.135418 20264 net.cpp:425] inception_4e/relu_5x5_reduce <- inception_4e/5x5_reduce
I0403 15:46:59.135437 20264 net.cpp:386] inception_4e/relu_5x5_reduce -> inception_4e/5x5_reduce (in-place)
I0403 15:46:59.135728 20264 net.cpp:141] Setting up inception_4e/relu_5x5_reduce
I0403 15:46:59.135756 20264 net.cpp:148] Top shape: 24 32 14 14 (150528)
I0403 15:46:59.135771 20264 net.cpp:156] Memory required for data: 1237333536
I0403 15:46:59.135785 20264 layer_factory.hpp:77] Creating layer inception_4e/5x5
I0403 15:46:59.135824 20264 net.cpp:91] Creating Layer inception_4e/5x5
I0403 15:46:59.135843 20264 net.cpp:425] inception_4e/5x5 <- inception_4e/5x5_reduce
I0403 15:46:59.135860 20264 net.cpp:399] inception_4e/5x5 -> inception_4e/5x5
I0403 15:46:59.137663 20264 net.cpp:141] Setting up inception_4e/5x5
I0403 15:46:59.137691 20264 net.cpp:148] Top shape: 24 128 14 14 (602112)
I0403 15:46:59.137706 20264 net.cpp:156] Memory required for data: 1239741984
I0403 15:46:59.137722 20264 layer_factory.hpp:77] Creating layer inception_4e/relu_5x5
I0403 15:46:59.137742 20264 net.cpp:91] Creating Layer inception_4e/relu_5x5
I0403 15:46:59.137759 20264 net.cpp:425] inception_4e/relu_5x5 <- inception_4e/5x5
I0403 15:46:59.137775 20264 net.cpp:386] inception_4e/relu_5x5 -> inception_4e/5x5 (in-place)
I0403 15:46:59.137965 20264 net.cpp:141] Setting up inception_4e/relu_5x5
I0403 15:46:59.138005 20264 net.cpp:148] Top shape: 24 128 14 14 (602112)
I0403 15:46:59.138022 20264 net.cpp:156] Memory required for data: 1242150432
I0403 15:46:59.138037 20264 layer_factory.hpp:77] Creating layer inception_4e/pool
I0403 15:46:59.138054 20264 net.cpp:91] Creating Layer inception_4e/pool
I0403 15:46:59.138069 20264 net.cpp:425] inception_4e/pool <- inception_4d/output_inception_4d/output_0_split_4
I0403 15:46:59.138088 20264 net.cpp:399] inception_4e/pool -> inception_4e/pool
I0403 15:46:59.138155 20264 net.cpp:141] Setting up inception_4e/pool
I0403 15:46:59.138178 20264 net.cpp:148] Top shape: 24 528 14 14 (2483712)
I0403 15:46:59.138192 20264 net.cpp:156] Memory required for data: 1252085280
I0403 15:46:59.138206 20264 layer_factory.hpp:77] Creating layer inception_4e/pool_proj
I0403 15:46:59.138227 20264 net.cpp:91] Creating Layer inception_4e/pool_proj
I0403 15:46:59.138243 20264 net.cpp:425] inception_4e/pool_proj <- inception_4e/pool
I0403 15:46:59.138263 20264 net.cpp:399] inception_4e/pool_proj -> inception_4e/pool_proj
I0403 15:46:59.139751 20264 net.cpp:141] Setting up inception_4e/pool_proj
I0403 15:46:59.139791 20264 net.cpp:148] Top shape: 24 128 14 14 (602112)
I0403 15:46:59.139806 20264 net.cpp:156] Memory required for data: 1254493728
I0403 15:46:59.139824 20264 layer_factory.hpp:77] Creating layer inception_4e/relu_pool_proj
I0403 15:46:59.139844 20264 net.cpp:91] Creating Layer inception_4e/relu_pool_proj
I0403 15:46:59.139860 20264 net.cpp:425] inception_4e/relu_pool_proj <- inception_4e/pool_proj
I0403 15:46:59.139878 20264 net.cpp:386] inception_4e/relu_pool_proj -> inception_4e/pool_proj (in-place)
I0403 15:46:59.140178 20264 net.cpp:141] Setting up inception_4e/relu_pool_proj
I0403 15:46:59.140204 20264 net.cpp:148] Top shape: 24 128 14 14 (602112)
I0403 15:46:59.140219 20264 net.cpp:156] Memory required for data: 1256902176
I0403 15:46:59.140234 20264 layer_factory.hpp:77] Creating layer inception_4e/output
I0403 15:46:59.140251 20264 net.cpp:91] Creating Layer inception_4e/output
I0403 15:46:59.140266 20264 net.cpp:425] inception_4e/output <- inception_4e/1x1
I0403 15:46:59.140283 20264 net.cpp:425] inception_4e/output <- inception_4e/3x3
I0403 15:46:59.140300 20264 net.cpp:425] inception_4e/output <- inception_4e/5x5
I0403 15:46:59.140314 20264 net.cpp:425] inception_4e/output <- inception_4e/pool_proj
I0403 15:46:59.140333 20264 net.cpp:399] inception_4e/output -> inception_4e/output
I0403 15:46:59.140385 20264 net.cpp:141] Setting up inception_4e/output
I0403 15:46:59.140408 20264 net.cpp:148] Top shape: 24 832 14 14 (3913728)
I0403 15:46:59.140424 20264 net.cpp:156] Memory required for data: 1272557088
I0403 15:46:59.140439 20264 layer_factory.hpp:77] Creating layer pool4/3x3_s2
I0403 15:46:59.140455 20264 net.cpp:91] Creating Layer pool4/3x3_s2
I0403 15:46:59.140470 20264 net.cpp:425] pool4/3x3_s2 <- inception_4e/output
I0403 15:46:59.140491 20264 net.cpp:399] pool4/3x3_s2 -> pool4/3x3_s2
I0403 15:46:59.140558 20264 net.cpp:141] Setting up pool4/3x3_s2
I0403 15:46:59.140580 20264 net.cpp:148] Top shape: 24 832 7 7 (978432)
I0403 15:46:59.140594 20264 net.cpp:156] Memory required for data: 1276470816
I0403 15:46:59.140609 20264 layer_factory.hpp:77] Creating layer pool4/3x3_s2_pool4/3x3_s2_0_split
I0403 15:46:59.140630 20264 net.cpp:91] Creating Layer pool4/3x3_s2_pool4/3x3_s2_0_split
I0403 15:46:59.140645 20264 net.cpp:425] pool4/3x3_s2_pool4/3x3_s2_0_split <- pool4/3x3_s2
I0403 15:46:59.140661 20264 net.cpp:399] pool4/3x3_s2_pool4/3x3_s2_0_split -> pool4/3x3_s2_pool4/3x3_s2_0_split_0
I0403 15:46:59.140683 20264 net.cpp:399] pool4/3x3_s2_pool4/3x3_s2_0_split -> pool4/3x3_s2_pool4/3x3_s2_0_split_1
I0403 15:46:59.140704 20264 net.cpp:399] pool4/3x3_s2_pool4/3x3_s2_0_split -> pool4/3x3_s2_pool4/3x3_s2_0_split_2
I0403 15:46:59.140724 20264 net.cpp:399] pool4/3x3_s2_pool4/3x3_s2_0_split -> pool4/3x3_s2_pool4/3x3_s2_0_split_3
I0403 15:46:59.140813 20264 net.cpp:141] Setting up pool4/3x3_s2_pool4/3x3_s2_0_split
I0403 15:46:59.140836 20264 net.cpp:148] Top shape: 24 832 7 7 (978432)
I0403 15:46:59.140852 20264 net.cpp:148] Top shape: 24 832 7 7 (978432)
I0403 15:46:59.140867 20264 net.cpp:148] Top shape: 24 832 7 7 (978432)
I0403 15:46:59.140882 20264 net.cpp:148] Top shape: 24 832 7 7 (978432)
I0403 15:46:59.140897 20264 net.cpp:156] Memory required for data: 1292125728
I0403 15:46:59.140911 20264 layer_factory.hpp:77] Creating layer inception_5a/1x1
I0403 15:46:59.140933 20264 net.cpp:91] Creating Layer inception_5a/1x1
I0403 15:46:59.140950 20264 net.cpp:425] inception_5a/1x1 <- pool4/3x3_s2_pool4/3x3_s2_0_split_0
I0403 15:46:59.140971 20264 net.cpp:399] inception_5a/1x1 -> inception_5a/1x1
I0403 15:46:59.143843 20264 net.cpp:141] Setting up inception_5a/1x1
I0403 15:46:59.143870 20264 net.cpp:148] Top shape: 24 256 7 7 (301056)
I0403 15:46:59.143888 20264 net.cpp:156] Memory required for data: 1293329952
I0403 15:46:59.143908 20264 layer_factory.hpp:77] Creating layer inception_5a/relu_1x1
I0403 15:46:59.143924 20264 net.cpp:91] Creating Layer inception_5a/relu_1x1
I0403 15:46:59.143940 20264 net.cpp:425] inception_5a/relu_1x1 <- inception_5a/1x1
I0403 15:46:59.143956 20264 net.cpp:386] inception_5a/relu_1x1 -> inception_5a/1x1 (in-place)
I0403 15:46:59.144279 20264 net.cpp:141] Setting up inception_5a/relu_1x1
I0403 15:46:59.144304 20264 net.cpp:148] Top shape: 24 256 7 7 (301056)
I0403 15:46:59.144322 20264 net.cpp:156] Memory required for data: 1294534176
I0403 15:46:59.144337 20264 layer_factory.hpp:77] Creating layer inception_5a/3x3_reduce
I0403 15:46:59.144357 20264 net.cpp:91] Creating Layer inception_5a/3x3_reduce
I0403 15:46:59.144374 20264 net.cpp:425] inception_5a/3x3_reduce <- pool4/3x3_s2_pool4/3x3_s2_0_split_1
I0403 15:46:59.144395 20264 net.cpp:399] inception_5a/3x3_reduce -> inception_5a/3x3_reduce
I0403 15:46:59.146857 20264 net.cpp:141] Setting up inception_5a/3x3_reduce
I0403 15:46:59.146884 20264 net.cpp:148] Top shape: 24 160 7 7 (188160)
I0403 15:46:59.146900 20264 net.cpp:156] Memory required for data: 1295286816
I0403 15:46:59.146919 20264 layer_factory.hpp:77] Creating layer inception_5a/relu_3x3_reduce
I0403 15:46:59.146939 20264 net.cpp:91] Creating Layer inception_5a/relu_3x3_reduce
I0403 15:46:59.146955 20264 net.cpp:425] inception_5a/relu_3x3_reduce <- inception_5a/3x3_reduce
I0403 15:46:59.146973 20264 net.cpp:386] inception_5a/relu_3x3_reduce -> inception_5a/3x3_reduce (in-place)
I0403 15:46:59.147166 20264 net.cpp:141] Setting up inception_5a/relu_3x3_reduce
I0403 15:46:59.147192 20264 net.cpp:148] Top shape: 24 160 7 7 (188160)
I0403 15:46:59.147207 20264 net.cpp:156] Memory required for data: 1296039456
I0403 15:46:59.147220 20264 layer_factory.hpp:77] Creating layer inception_5a/3x3
I0403 15:46:59.147243 20264 net.cpp:91] Creating Layer inception_5a/3x3
I0403 15:46:59.147259 20264 net.cpp:425] inception_5a/3x3 <- inception_5a/3x3_reduce
I0403 15:46:59.147280 20264 net.cpp:399] inception_5a/3x3 -> inception_5a/3x3
I0403 15:46:59.152341 20264 net.cpp:141] Setting up inception_5a/3x3
I0403 15:46:59.152370 20264 net.cpp:148] Top shape: 24 320 7 7 (376320)
I0403 15:46:59.152386 20264 net.cpp:156] Memory required for data: 1297544736
I0403 15:46:59.152405 20264 layer_factory.hpp:77] Creating layer inception_5a/relu_3x3
I0403 15:46:59.152425 20264 net.cpp:91] Creating Layer inception_5a/relu_3x3
I0403 15:46:59.152441 20264 net.cpp:425] inception_5a/relu_3x3 <- inception_5a/3x3
I0403 15:46:59.152457 20264 net.cpp:386] inception_5a/relu_3x3 -> inception_5a/3x3 (in-place)
I0403 15:46:59.152751 20264 net.cpp:141] Setting up inception_5a/relu_3x3
I0403 15:46:59.152778 20264 net.cpp:148] Top shape: 24 320 7 7 (376320)
I0403 15:46:59.152793 20264 net.cpp:156] Memory required for data: 1299050016
I0403 15:46:59.152808 20264 layer_factory.hpp:77] Creating layer inception_5a/5x5_reduce
I0403 15:46:59.152830 20264 net.cpp:91] Creating Layer inception_5a/5x5_reduce
I0403 15:46:59.152851 20264 net.cpp:425] inception_5a/5x5_reduce <- pool4/3x3_s2_pool4/3x3_s2_0_split_2
I0403 15:46:59.152870 20264 net.cpp:399] inception_5a/5x5_reduce -> inception_5a/5x5_reduce
I0403 15:46:59.154057 20264 net.cpp:141] Setting up inception_5a/5x5_reduce
I0403 15:46:59.154088 20264 net.cpp:148] Top shape: 24 32 7 7 (37632)
I0403 15:46:59.154103 20264 net.cpp:156] Memory required for data: 1299200544
I0403 15:46:59.154121 20264 layer_factory.hpp:77] Creating layer inception_5a/relu_5x5_reduce
I0403 15:46:59.154139 20264 net.cpp:91] Creating Layer inception_5a/relu_5x5_reduce
I0403 15:46:59.154155 20264 net.cpp:425] inception_5a/relu_5x5_reduce <- inception_5a/5x5_reduce
I0403 15:46:59.154171 20264 net.cpp:386] inception_5a/relu_5x5_reduce -> inception_5a/5x5_reduce (in-place)
I0403 15:46:59.154474 20264 net.cpp:141] Setting up inception_5a/relu_5x5_reduce
I0403 15:46:59.154502 20264 net.cpp:148] Top shape: 24 32 7 7 (37632)
I0403 15:46:59.154518 20264 net.cpp:156] Memory required for data: 1299351072
I0403 15:46:59.154533 20264 layer_factory.hpp:77] Creating layer inception_5a/5x5
I0403 15:46:59.154556 20264 net.cpp:91] Creating Layer inception_5a/5x5
I0403 15:46:59.154573 20264 net.cpp:425] inception_5a/5x5 <- inception_5a/5x5_reduce
I0403 15:46:59.154592 20264 net.cpp:399] inception_5a/5x5 -> inception_5a/5x5
I0403 15:46:59.156327 20264 net.cpp:141] Setting up inception_5a/5x5
I0403 15:46:59.156368 20264 net.cpp:148] Top shape: 24 128 7 7 (150528)
I0403 15:46:59.156383 20264 net.cpp:156] Memory required for data: 1299953184
I0403 15:46:59.156401 20264 layer_factory.hpp:77] Creating layer inception_5a/relu_5x5
I0403 15:46:59.156422 20264 net.cpp:91] Creating Layer inception_5a/relu_5x5
I0403 15:46:59.156438 20264 net.cpp:425] inception_5a/relu_5x5 <- inception_5a/5x5
I0403 15:46:59.156455 20264 net.cpp:386] inception_5a/relu_5x5 -> inception_5a/5x5 (in-place)
I0403 15:46:59.156643 20264 net.cpp:141] Setting up inception_5a/relu_5x5
I0403 15:46:59.156672 20264 net.cpp:148] Top shape: 24 128 7 7 (150528)
I0403 15:46:59.156687 20264 net.cpp:156] Memory required for data: 1300555296
I0403 15:46:59.156702 20264 layer_factory.hpp:77] Creating layer inception_5a/pool
I0403 15:46:59.156718 20264 net.cpp:91] Creating Layer inception_5a/pool
I0403 15:46:59.156733 20264 net.cpp:425] inception_5a/pool <- pool4/3x3_s2_pool4/3x3_s2_0_split_3
I0403 15:46:59.156754 20264 net.cpp:399] inception_5a/pool -> inception_5a/pool
I0403 15:46:59.156824 20264 net.cpp:141] Setting up inception_5a/pool
I0403 15:46:59.156847 20264 net.cpp:148] Top shape: 24 832 7 7 (978432)
I0403 15:46:59.156862 20264 net.cpp:156] Memory required for data: 1304469024
I0403 15:46:59.156877 20264 layer_factory.hpp:77] Creating layer inception_5a/pool_proj
I0403 15:46:59.156898 20264 net.cpp:91] Creating Layer inception_5a/pool_proj
I0403 15:46:59.156916 20264 net.cpp:425] inception_5a/pool_proj <- inception_5a/pool
I0403 15:46:59.156935 20264 net.cpp:399] inception_5a/pool_proj -> inception_5a/pool_proj
I0403 15:46:59.159242 20264 net.cpp:141] Setting up inception_5a/pool_proj
I0403 15:46:59.159271 20264 net.cpp:148] Top shape: 24 128 7 7 (150528)
I0403 15:46:59.159287 20264 net.cpp:156] Memory required for data: 1305071136
I0403 15:46:59.159304 20264 layer_factory.hpp:77] Creating layer inception_5a/relu_pool_proj
I0403 15:46:59.159324 20264 net.cpp:91] Creating Layer inception_5a/relu_pool_proj
I0403 15:46:59.159342 20264 net.cpp:425] inception_5a/relu_pool_proj <- inception_5a/pool_proj
I0403 15:46:59.159358 20264 net.cpp:386] inception_5a/relu_pool_proj -> inception_5a/pool_proj (in-place)
I0403 15:46:59.159656 20264 net.cpp:141] Setting up inception_5a/relu_pool_proj
I0403 15:46:59.159682 20264 net.cpp:148] Top shape: 24 128 7 7 (150528)
I0403 15:46:59.159696 20264 net.cpp:156] Memory required for data: 1305673248
I0403 15:46:59.159711 20264 layer_factory.hpp:77] Creating layer inception_5a/output
I0403 15:46:59.159730 20264 net.cpp:91] Creating Layer inception_5a/output
I0403 15:46:59.159746 20264 net.cpp:425] inception_5a/output <- inception_5a/1x1
I0403 15:46:59.159764 20264 net.cpp:425] inception_5a/output <- inception_5a/3x3
I0403 15:46:59.159780 20264 net.cpp:425] inception_5a/output <- inception_5a/5x5
I0403 15:46:59.159795 20264 net.cpp:425] inception_5a/output <- inception_5a/pool_proj
I0403 15:46:59.159811 20264 net.cpp:399] inception_5a/output -> inception_5a/output
I0403 15:46:59.159860 20264 net.cpp:141] Setting up inception_5a/output
I0403 15:46:59.159885 20264 net.cpp:148] Top shape: 24 832 7 7 (978432)
I0403 15:46:59.159900 20264 net.cpp:156] Memory required for data: 1309586976
I0403 15:46:59.159915 20264 layer_factory.hpp:77] Creating layer inception_5a/output_inception_5a/output_0_split
I0403 15:46:59.159932 20264 net.cpp:91] Creating Layer inception_5a/output_inception_5a/output_0_split
I0403 15:46:59.159947 20264 net.cpp:425] inception_5a/output_inception_5a/output_0_split <- inception_5a/output
I0403 15:46:59.159966 20264 net.cpp:399] inception_5a/output_inception_5a/output_0_split -> inception_5a/output_inception_5a/output_0_split_0
I0403 15:46:59.159992 20264 net.cpp:399] inception_5a/output_inception_5a/output_0_split -> inception_5a/output_inception_5a/output_0_split_1
I0403 15:46:59.160015 20264 net.cpp:399] inception_5a/output_inception_5a/output_0_split -> inception_5a/output_inception_5a/output_0_split_2
I0403 15:46:59.160035 20264 net.cpp:399] inception_5a/output_inception_5a/output_0_split -> inception_5a/output_inception_5a/output_0_split_3
I0403 15:46:59.160146 20264 net.cpp:141] Setting up inception_5a/output_inception_5a/output_0_split
I0403 15:46:59.160173 20264 net.cpp:148] Top shape: 24 832 7 7 (978432)
I0403 15:46:59.160189 20264 net.cpp:148] Top shape: 24 832 7 7 (978432)
I0403 15:46:59.160205 20264 net.cpp:148] Top shape: 24 832 7 7 (978432)
I0403 15:46:59.160220 20264 net.cpp:148] Top shape: 24 832 7 7 (978432)
I0403 15:46:59.160234 20264 net.cpp:156] Memory required for data: 1325241888
I0403 15:46:59.160248 20264 layer_factory.hpp:77] Creating layer inception_5b/1x1
I0403 15:46:59.160270 20264 net.cpp:91] Creating Layer inception_5b/1x1
I0403 15:46:59.160287 20264 net.cpp:425] inception_5b/1x1 <- inception_5a/output_inception_5a/output_0_split_0
I0403 15:46:59.160306 20264 net.cpp:399] inception_5b/1x1 -> inception_5b/1x1
I0403 15:46:59.164129 20264 net.cpp:141] Setting up inception_5b/1x1
I0403 15:46:59.164158 20264 net.cpp:148] Top shape: 24 384 7 7 (451584)
I0403 15:46:59.164175 20264 net.cpp:156] Memory required for data: 1327048224
I0403 15:46:59.164192 20264 layer_factory.hpp:77] Creating layer inception_5b/relu_1x1
I0403 15:46:59.164211 20264 net.cpp:91] Creating Layer inception_5b/relu_1x1
I0403 15:46:59.164225 20264 net.cpp:425] inception_5b/relu_1x1 <- inception_5b/1x1
I0403 15:46:59.164245 20264 net.cpp:386] inception_5b/relu_1x1 -> inception_5b/1x1 (in-place)
I0403 15:46:59.164556 20264 net.cpp:141] Setting up inception_5b/relu_1x1
I0403 15:46:59.164582 20264 net.cpp:148] Top shape: 24 384 7 7 (451584)
I0403 15:46:59.164597 20264 net.cpp:156] Memory required for data: 1328854560
I0403 15:46:59.164611 20264 layer_factory.hpp:77] Creating layer inception_5b/3x3_reduce
I0403 15:46:59.164634 20264 net.cpp:91] Creating Layer inception_5b/3x3_reduce
I0403 15:46:59.164651 20264 net.cpp:425] inception_5b/3x3_reduce <- inception_5a/output_inception_5a/output_0_split_1
I0403 15:46:59.164674 20264 net.cpp:399] inception_5b/3x3_reduce -> inception_5b/3x3_reduce
I0403 15:46:59.167368 20264 net.cpp:141] Setting up inception_5b/3x3_reduce
I0403 15:46:59.167397 20264 net.cpp:148] Top shape: 24 192 7 7 (225792)
I0403 15:46:59.167412 20264 net.cpp:156] Memory required for data: 1329757728
I0403 15:46:59.167431 20264 layer_factory.hpp:77] Creating layer inception_5b/relu_3x3_reduce
I0403 15:46:59.167451 20264 net.cpp:91] Creating Layer inception_5b/relu_3x3_reduce
I0403 15:46:59.167469 20264 net.cpp:425] inception_5b/relu_3x3_reduce <- inception_5b/3x3_reduce
I0403 15:46:59.167485 20264 net.cpp:386] inception_5b/relu_3x3_reduce -> inception_5b/3x3_reduce (in-place)
I0403 15:46:59.167677 20264 net.cpp:141] Setting up inception_5b/relu_3x3_reduce
I0403 15:46:59.167702 20264 net.cpp:148] Top shape: 24 192 7 7 (225792)
I0403 15:46:59.167717 20264 net.cpp:156] Memory required for data: 1330660896
I0403 15:46:59.167733 20264 layer_factory.hpp:77] Creating layer inception_5b/3x3
I0403 15:46:59.167757 20264 net.cpp:91] Creating Layer inception_5b/3x3
I0403 15:46:59.167778 20264 net.cpp:425] inception_5b/3x3 <- inception_5b/3x3_reduce
I0403 15:46:59.167796 20264 net.cpp:399] inception_5b/3x3 -> inception_5b/3x3
I0403 15:46:59.174772 20264 net.cpp:141] Setting up inception_5b/3x3
I0403 15:46:59.174803 20264 net.cpp:148] Top shape: 24 384 7 7 (451584)
I0403 15:46:59.174819 20264 net.cpp:156] Memory required for data: 1332467232
I0403 15:46:59.174839 20264 layer_factory.hpp:77] Creating layer inception_5b/relu_3x3
I0403 15:46:59.174861 20264 net.cpp:91] Creating Layer inception_5b/relu_3x3
I0403 15:46:59.174882 20264 net.cpp:425] inception_5b/relu_3x3 <- inception_5b/3x3
I0403 15:46:59.174899 20264 net.cpp:386] inception_5b/relu_3x3 -> inception_5b/3x3 (in-place)
I0403 15:46:59.175215 20264 net.cpp:141] Setting up inception_5b/relu_3x3
I0403 15:46:59.175242 20264 net.cpp:148] Top shape: 24 384 7 7 (451584)
I0403 15:46:59.175258 20264 net.cpp:156] Memory required for data: 1334273568
I0403 15:46:59.175274 20264 layer_factory.hpp:77] Creating layer inception_5b/5x5_reduce
I0403 15:46:59.175314 20264 net.cpp:91] Creating Layer inception_5b/5x5_reduce
I0403 15:46:59.175334 20264 net.cpp:425] inception_5b/5x5_reduce <- inception_5a/output_inception_5a/output_0_split_2
I0403 15:46:59.175355 20264 net.cpp:399] inception_5b/5x5_reduce -> inception_5b/5x5_reduce
I0403 15:46:59.176707 20264 net.cpp:141] Setting up inception_5b/5x5_reduce
I0403 15:46:59.176736 20264 net.cpp:148] Top shape: 24 48 7 7 (56448)
I0403 15:46:59.176753 20264 net.cpp:156] Memory required for data: 1334499360
I0403 15:46:59.176771 20264 layer_factory.hpp:77] Creating layer inception_5b/relu_5x5_reduce
I0403 15:46:59.176792 20264 net.cpp:91] Creating Layer inception_5b/relu_5x5_reduce
I0403 15:46:59.176810 20264 net.cpp:425] inception_5b/relu_5x5_reduce <- inception_5b/5x5_reduce
I0403 15:46:59.176826 20264 net.cpp:386] inception_5b/relu_5x5_reduce -> inception_5b/5x5_reduce (in-place)
I0403 15:46:59.177237 20264 net.cpp:141] Setting up inception_5b/relu_5x5_reduce
I0403 15:46:59.177264 20264 net.cpp:148] Top shape: 24 48 7 7 (56448)
I0403 15:46:59.177280 20264 net.cpp:156] Memory required for data: 1334725152
I0403 15:46:59.177309 20264 layer_factory.hpp:77] Creating layer inception_5b/5x5
I0403 15:46:59.177330 20264 net.cpp:91] Creating Layer inception_5b/5x5
I0403 15:46:59.177347 20264 net.cpp:425] inception_5b/5x5 <- inception_5b/5x5_reduce
I0403 15:46:59.177366 20264 net.cpp:399] inception_5b/5x5 -> inception_5b/5x5
I0403 15:46:59.179546 20264 net.cpp:141] Setting up inception_5b/5x5
I0403 15:46:59.179574 20264 net.cpp:148] Top shape: 24 128 7 7 (150528)
I0403 15:46:59.179594 20264 net.cpp:156] Memory required for data: 1335327264
I0403 15:46:59.179612 20264 layer_factory.hpp:77] Creating layer inception_5b/relu_5x5
I0403 15:46:59.179630 20264 net.cpp:91] Creating Layer inception_5b/relu_5x5
I0403 15:46:59.179647 20264 net.cpp:425] inception_5b/relu_5x5 <- inception_5b/5x5
I0403 15:46:59.179664 20264 net.cpp:386] inception_5b/relu_5x5 -> inception_5b/5x5 (in-place)
I0403 15:46:59.179865 20264 net.cpp:141] Setting up inception_5b/relu_5x5
I0403 15:46:59.179893 20264 net.cpp:148] Top shape: 24 128 7 7 (150528)
I0403 15:46:59.179910 20264 net.cpp:156] Memory required for data: 1335929376
I0403 15:46:59.179925 20264 layer_factory.hpp:77] Creating layer inception_5b/pool
I0403 15:46:59.179944 20264 net.cpp:91] Creating Layer inception_5b/pool
I0403 15:46:59.179961 20264 net.cpp:425] inception_5b/pool <- inception_5a/output_inception_5a/output_0_split_3
I0403 15:46:59.179981 20264 net.cpp:399] inception_5b/pool -> inception_5b/pool
I0403 15:46:59.180065 20264 net.cpp:141] Setting up inception_5b/pool
I0403 15:46:59.180093 20264 net.cpp:148] Top shape: 24 832 7 7 (978432)
I0403 15:46:59.180109 20264 net.cpp:156] Memory required for data: 1339843104
I0403 15:46:59.180124 20264 layer_factory.hpp:77] Creating layer inception_5b/pool_proj
I0403 15:46:59.180143 20264 net.cpp:91] Creating Layer inception_5b/pool_proj
I0403 15:46:59.180160 20264 net.cpp:425] inception_5b/pool_proj <- inception_5b/pool
I0403 15:46:59.180182 20264 net.cpp:399] inception_5b/pool_proj -> inception_5b/pool_proj
I0403 15:46:59.182595 20264 net.cpp:141] Setting up inception_5b/pool_proj
I0403 15:46:59.182622 20264 net.cpp:148] Top shape: 24 128 7 7 (150528)
I0403 15:46:59.182638 20264 net.cpp:156] Memory required for data: 1340445216
I0403 15:46:59.182657 20264 layer_factory.hpp:77] Creating layer inception_5b/relu_pool_proj
I0403 15:46:59.182678 20264 net.cpp:91] Creating Layer inception_5b/relu_pool_proj
I0403 15:46:59.182695 20264 net.cpp:425] inception_5b/relu_pool_proj <- inception_5b/pool_proj
I0403 15:46:59.182713 20264 net.cpp:386] inception_5b/relu_pool_proj -> inception_5b/pool_proj (in-place)
I0403 15:46:59.183027 20264 net.cpp:141] Setting up inception_5b/relu_pool_proj
I0403 15:46:59.183053 20264 net.cpp:148] Top shape: 24 128 7 7 (150528)
I0403 15:46:59.183069 20264 net.cpp:156] Memory required for data: 1341047328
I0403 15:46:59.183085 20264 layer_factory.hpp:77] Creating layer inception_5b/output
I0403 15:46:59.183104 20264 net.cpp:91] Creating Layer inception_5b/output
I0403 15:46:59.183135 20264 net.cpp:425] inception_5b/output <- inception_5b/1x1
I0403 15:46:59.183156 20264 net.cpp:425] inception_5b/output <- inception_5b/3x3
I0403 15:46:59.183172 20264 net.cpp:425] inception_5b/output <- inception_5b/5x5
I0403 15:46:59.183189 20264 net.cpp:425] inception_5b/output <- inception_5b/pool_proj
I0403 15:46:59.183207 20264 net.cpp:399] inception_5b/output -> inception_5b/output
I0403 15:46:59.183262 20264 net.cpp:141] Setting up inception_5b/output
I0403 15:46:59.183286 20264 net.cpp:148] Top shape: 24 1024 7 7 (1204224)
I0403 15:46:59.183301 20264 net.cpp:156] Memory required for data: 1345864224
I0403 15:46:59.183316 20264 layer_factory.hpp:77] Creating layer pool5/7x7_s1
I0403 15:46:59.183334 20264 net.cpp:91] Creating Layer pool5/7x7_s1
I0403 15:46:59.183351 20264 net.cpp:425] pool5/7x7_s1 <- inception_5b/output
I0403 15:46:59.183372 20264 net.cpp:399] pool5/7x7_s1 -> pool5/7x7_s1
I0403 15:46:59.183593 20264 net.cpp:141] Setting up pool5/7x7_s1
I0403 15:46:59.183619 20264 net.cpp:148] Top shape: 24 1024 1 1 (24576)
I0403 15:46:59.183634 20264 net.cpp:156] Memory required for data: 1345962528
I0403 15:46:59.183648 20264 layer_factory.hpp:77] Creating layer pool5/drop_7x7_s1
I0403 15:46:59.183670 20264 net.cpp:91] Creating Layer pool5/drop_7x7_s1
I0403 15:46:59.183686 20264 net.cpp:425] pool5/drop_7x7_s1 <- pool5/7x7_s1
I0403 15:46:59.183703 20264 net.cpp:386] pool5/drop_7x7_s1 -> pool5/7x7_s1 (in-place)
I0403 15:46:59.183755 20264 net.cpp:141] Setting up pool5/drop_7x7_s1
I0403 15:46:59.183779 20264 net.cpp:148] Top shape: 24 1024 1 1 (24576)
I0403 15:46:59.183794 20264 net.cpp:156] Memory required for data: 1346060832
I0403 15:46:59.183809 20264 layer_factory.hpp:77] Creating layer loss3/classifier_plantvillage
I0403 15:46:59.183828 20264 net.cpp:91] Creating Layer loss3/classifier_plantvillage
I0403 15:46:59.183845 20264 net.cpp:425] loss3/classifier_plantvillage <- pool5/7x7_s1
I0403 15:46:59.183866 20264 net.cpp:399] loss3/classifier_plantvillage -> loss3/classifier_plantvillage
I0403 15:46:59.184322 20264 net.cpp:141] Setting up loss3/classifier_plantvillage
I0403 15:46:59.184348 20264 net.cpp:148] Top shape: 24 38 (912)
I0403 15:46:59.184365 20264 net.cpp:156] Memory required for data: 1346064480
I0403 15:46:59.184382 20264 layer_factory.hpp:77] Creating layer loss3/classifier_plantvillage_loss3/classifier_plantvillage_0_split
I0403 15:46:59.184401 20264 net.cpp:91] Creating Layer loss3/classifier_plantvillage_loss3/classifier_plantvillage_0_split
I0403 15:46:59.184417 20264 net.cpp:425] loss3/classifier_plantvillage_loss3/classifier_plantvillage_0_split <- loss3/classifier_plantvillage
I0403 15:46:59.184437 20264 net.cpp:399] loss3/classifier_plantvillage_loss3/classifier_plantvillage_0_split -> loss3/classifier_plantvillage_loss3/classifier_plantvillage_0_split_0
I0403 15:46:59.184458 20264 net.cpp:399] loss3/classifier_plantvillage_loss3/classifier_plantvillage_0_split -> loss3/classifier_plantvillage_loss3/classifier_plantvillage_0_split_1
I0403 15:46:59.184478 20264 net.cpp:399] loss3/classifier_plantvillage_loss3/classifier_plantvillage_0_split -> loss3/classifier_plantvillage_loss3/classifier_plantvillage_0_split_2
I0403 15:46:59.184499 20264 net.cpp:399] loss3/classifier_plantvillage_loss3/classifier_plantvillage_0_split -> loss3/classifier_plantvillage_loss3/classifier_plantvillage_0_split_3
I0403 15:46:59.184612 20264 net.cpp:141] Setting up loss3/classifier_plantvillage_loss3/classifier_plantvillage_0_split
I0403 15:46:59.184636 20264 net.cpp:148] Top shape: 24 38 (912)
I0403 15:46:59.184653 20264 net.cpp:148] Top shape: 24 38 (912)
I0403 15:46:59.184667 20264 net.cpp:148] Top shape: 24 38 (912)
I0403 15:46:59.184681 20264 net.cpp:148] Top shape: 24 38 (912)
I0403 15:46:59.184695 20264 net.cpp:156] Memory required for data: 1346079072
I0403 15:46:59.184710 20264 layer_factory.hpp:77] Creating layer loss1/loss
I0403 15:46:59.184731 20264 net.cpp:91] Creating Layer loss1/loss
I0403 15:46:59.184748 20264 net.cpp:425] loss1/loss <- loss1/classifier_plantvillage_loss1/classifier_plantvillage_0_split_0
I0403 15:46:59.184779 20264 net.cpp:425] loss1/loss <- label_data_1_split_0
…
