…
I0403 15:32:36.687449 19846 net.cpp:313] The NetState phase (1) differed from the phase (0) specified by a rule in layer data
I0403 15:32:36.688674 19846 net.cpp:49] Initializing net from parameters: 
state {
  phase: TEST
}
layer {
  name: "data"
  type: "Data"
  top: "data"
  top: "label"
  include {
    phase: TEST
  }
  transform_param {
    mirror: false
    crop_size: 224
    mean_file: "/home/mohanty/data/final_dataset/lmdb/grayscale-40-60/mean.binaryproto"
  }
  data_param {
    source: "/home/mohanty/data/final_dataset/lmdb/grayscale-40-60/test_db"
    batch_size: 24
    backend: LMDB
  }
}
layer {
  name: "conv1/7x7_s2"
  type: "Convolution"
  bottom: "data"
  top: "conv1/7x7_s2"
  param {
    lr_mult: 1
    decay_mult: 1
  }
  param {
    lr_mult: 2
    decay_mult: 0
  }
  convolution_param {
    num_output: 64
    pad: 3
    kernel_size: 7
    stride: 2
    weight_filler {
      type: "xavier"
      std: 0.1
    }
    bias_filler {
      type: "constant"
      value: 0.2
    }
  }
}
layer {
  name: "conv1/relu_7x7"
  type: "ReLU"
  bottom: "conv1/7x7_s2"
  top: "conv1/7x7_s2"
}
layer {
  name: "pool1/3x3_s2"
  type: "Pooling"
  bottom: "conv1/7x7_s2"
  top: "pool1/3x3_s2"
  pooling_param {
    pool: MAX
    kernel_size: 3
    stride: 2
  }
}
layer {
  name: "pool1/norm1"
  type: "LRN"
  bottom: "pool1/3x3_s2"
  top: "pool1/norm1"
  lrn_param {
    local_size: 5
    alpha: 0.0001
    beta: 0.75
  }
}
layer {
  name: "conv2/3x3_reduce"
  type: "Convolution"
  bottom: "pool1/norm1"
  top: "conv2/3x3_reduce"
  param {
    lr_mult: 1
    decay_mult: 1
  }
  param {
    lr_mult: 2
    decay_mult: 0
  }
  convolution_param {
    num_output: 64
    kernel_size: 1
    weight_filler {
      type: "xavier"
      std: 0.1
    }
    bias_filler {
      type: "constant"
      value: 0.2
    }
  }
}
layer {
  name: "conv2/relu_3x3_reduce"
  type: "ReLU"
  bottom: "conv2/3x3_reduce"
  top: "conv2/3x3_reduce"
}
layer {
  name: "conv2/3x3"
  type: "Convolution"
  bottom: "conv2/3x3_reduce"
  top: "conv2/3x3"
  param {
    lr_mult: 1
    decay_mult: 1
  }
  param {
    lr_mult: 2
    decay_mult: 0
  }
  convolution_param {
    num_output: 192
    pad: 1
    kernel_size: 3
    weight_filler {
      type: "xavier"
      std: 0.03
    }
    bias_filler {
      type: "constant"
      value: 0.2
    }
  }
}
layer {
  name: "conv2/relu_3x3"
  type: "ReLU"
  bottom: "conv2/3x3"
  top: "conv2/3x3"
}
layer {
  name: "conv2/norm2"
  type: "LRN"
  bottom: "conv2/3x3"
  top: "conv2/norm2"
  lrn_param {
    local_size: 5
    alpha: 0.0001
    beta: 0.75
  }
}
layer {
  name: "pool2/3x3_s2"
  type: "Pooling"
  bottom: "conv2/norm2"
  top: "pool2/3x3_s2"
  pooling_param {
    pool: MAX
    kernel_size: 3
    stride: 2
  }
}
layer {
  name: "inception_3a/1x1"
  type: "Convolution"
  bottom: "pool2/3x3_s2"
  top: "inception_3a/1x1"
  param {
    lr_mult: 1
    decay_mult: 1
  }
  param {
    lr_mult: 2
    decay_mult: 0
  }
  convolution_param {
    num_output: 64
    kernel_size: 1
    weight_filler {
      type: "xavier"
      std: 0.03
    }
    bias_filler {
      type: "constant"
      value: 0.2
    }
  }
}
layer {
  name: "inception_3a/relu_1x1"
  type: "ReLU"
  bottom: "inception_3a/1x1"
  top: "inception_3a/1x1"
}
layer {
  name: "inception_3a/3x3_reduce"
  type: "Convolution"
  bottom: "pool2/3x3_s2"
  top: "inception_3a/3x3_reduce"
  param {
    lr_mult: 1
    decay_mult: 1
  }
  param {
    lr_mult: 2
    decay_mult: 0
  }
  convolution_param {
    num_output: 96
    kernel_size: 1
    weight_filler {
      type: "xavier"
      std: 0.09
    }
    bias_filler {
      type: "constant"
      value: 0.2
    }
  }
}
layer {
  name: "inception_3a/relu_3x3_reduce"
  type: "ReLU"
  bottom: "inception_3a/3x3_reduce"
  top: "inception_3a/3x3_reduce"
}
layer {
  name: "inception_3a/3x3"
  type: "Convolution"
  bottom: "inception_3a/3x3_reduce"
  top: "inception_3a/3x3"
  param {
    lr_mult: 1
    decay_mult: 1
  }
  param {
    lr_mult: 2
    decay_mult: 0
  }
  convolution_param {
    num_output: 128
    pad: 1
    kernel_size: 3
    weight_filler {
      type: "xavier"
      std: 0.03
    }
    bias_filler {
      type: "constant"
      value: 0.2
    }
  }
}
layer {
  name: "inception_3a/relu_3x3"
  type: "ReLU"
  bottom: "inception_3a/3x3"
  top: "inception_3a/3x3"
}
layer {
  name: "inception_3a/5x5_reduce"
  type: "Convolution"
  bottom: "pool2/3x3_s2"
  top: "inception_3a/5x5_reduce"
  param {
    lr_mult: 1
    decay_mult: 1
  }
  param {
    lr_mult: 2
    decay_mult: 0
  }
  convolution_param {
    num_output: 16
    kernel_size: 1
    weight_filler {
      type: "xavier"
      std: 0.2
    }
    bias_filler {
      type: "constant"
      value: 0.2
    }
  }
}
layer {
  name: "inception_3a/relu_5x5_reduce"
  type: "ReLU"
  bottom: "inception_3a/5x5_reduce"
  top: "inception_3a/5x5_reduce"
}
layer {
  name: "inception_3a/5x5"
  type: "Convolution"
  bottom: "inception_3a/5x5_reduce"
  top: "inception_3a/5x5"
  param {
    lr_mult: 1
    decay_mult: 1
  }
  param {
    lr_mult: 2
    decay_mult: 0
  }
  convolution_param {
    num_output: 32
    pad: 2
    kernel_size: 5
    weight_filler {
      type: "xavier"
      std: 0.03
    }
    bias_filler {
      type: "constant"
      value: 0.2
    }
  }
}
layer {
  name: "inception_3a/relu_5x5"
  type: "ReLU"
  bottom: "inception_3a/5x5"
  top: "inception_3a/5x5"
}
layer {
  name: "inception_3a/pool"
  type: "Pooling"
  bottom: "pool2/3x3_s2"
  top: "inception_3a/pool"
  pooling_param {
    pool: MAX
    kernel_size: 3
    stride: 1
    pad: 1
  }
}
layer {
  name: "inception_3a/pool_proj"
  type: "Convolution"
  bottom: "inception_3a/pool"
  top: "inception_3a/pool_proj"
  param {
    lr_mult: 1
    decay_mult: 1
  }
  param {
    lr_mult: 2
    decay_mult: 0
  }
  convolution_param {
    num_output: 32
    kernel_size: 1
    weight_filler {
      type: "xavier"
      std: 0.1
    }
    bias_filler {
      type: "constant"
      value: 0.2
    }
  }
}
layer {
  name: "inception_3a/relu_pool_proj"
  type: "ReLU"
  bottom: "inception_3a/pool_proj"
  top: "inception_3a/pool_proj"
}
layer {
  name: "inception_3a/output"
  type: "Concat"
  bottom: "inception_3a/1x1"
  bottom: "inception_3a/3x3"
  bottom: "inception_3a/5x5"
  bottom: "inception_3a/pool_proj"
  top: "inception_3a/output"
}
layer {
  name: "inception_3b/1x1"
  type: "Convolution"
  bottom: "inception_3a/output"
  top: "inception_3b/1x1"
  param {
    lr_mult: 1
    decay_mult: 1
  }
  param {
    lr_mult: 2
    decay_mult: 0
  }
  convolution_param {
    num_output: 128
    kernel_size: 1
    weight_filler {
      type: "xavier"
      std: 0.03
    }
    bias_filler {
      type: "constant"
      value: 0.2
    }
  }
}
layer {
  name: "inception_3b/relu_1x1"
  type: "ReLU"
  bottom: "inception_3b/1x1"
  top: "inception_3b/1x1"
}
layer {
  name: "inception_3b/3x3_reduce"
  type: "Convolution"
  bottom: "inception_3a/output"
  top: "inception_3b/3x3_reduce"
  param {
    lr_mult: 1
    decay_mult: 1
  }
  param {
    lr_mult: 2
    decay_mult: 0
  }
  convolution_param {
    num_output: 128
    kernel_size: 1
    weight_filler {
      type: "xavier"
      std: 0.09
    }
    bias_filler {
      type: "constant"
      value: 0.2
    }
  }
}
layer {
  name: "inception_3b/relu_3x3_reduce"
  type: "ReLU"
  bottom: "inception_3b/3x3_reduce"
  top: "inception_3b/3x3_reduce"
}
layer {
  name: "inception_3b/3x3"
  type: "Convolution"
  bottom: "inception_3b/3x3_reduce"
  top: "inception_3b/3x3"
  param {
    lr_mult: 1
    decay_mult: 1
  }
  param {
    lr_mult: 2
    decay_mult: 0
  }
  convolution_param {
    num_output: 192
    pad: 1
    kernel_size: 3
    weight_filler {
      type: "xavier"
      std: 0.03
    }
    bias_filler {
      type: "constant"
      value: 0.2
    }
  }
}
layer {
  name: "inception_3b/relu_3x3"
  type: "ReLU"
  bottom: "inception_3b/3x3"
  top: "inception_3b/3x3"
}
layer {
  name: "inception_3b/5x5_reduce"
  type: "Convolution"
  bottom: "inception_3a/output"
  top: "inception_3b/5x5_reduce"
  param {
    lr_mult: 1
    decay_mult: 1
  }
  param {
    lr_mult: 2
    decay_mult: 0
  }
  convolution_param {
    num_output: 32
    kernel_size: 1
    weight_filler {
      type: "xavier"
      std: 0.2
    }
    bias_filler {
      type: "constant"
      value: 0.2
    }
  }
}
layer {
  name: "inception_3b/relu_5x5_reduce"
  type: "ReLU"
  bottom: "inception_3b/5x5_reduce"
  top: "inception_3b/5x5_reduce"
}
layer {
  name: "inception_3b/5x5"
  type: "Convolution"
  bottom: "inception_3b/5x5_reduce"
  top: "inception_3b/5x5"
  param {
    lr_mult: 1
    decay_mult: 1
  }
  param {
    lr_mult: 2
    decay_mult: 0
  }
  convolution_param {
    num_output: 96
    pad: 2
    kernel_size: 5
    weight_filler {
      type: "xavier"
      std: 0.03
    }
    bias_filler {
      type: "constant"
      value: 0.2
    }
  }
}
layer {
  name: "inception_3b/relu_5x5"
  type: "ReLU"
  bottom: "inception_3b/5x5"
  top: "inception_3b/5x5"
}
layer {
  name: "inception_3b/pool"
  type: "Pooling"
  bottom: "inception_3a/output"
  top: "inception_3b/pool"
  pooling_param {
    pool: MAX
    kernel_size: 3
    stride: 1
    pad: 1
  }
}
layer {
  name: "inception_3b/pool_proj"
  type: "Convolution"
  bottom: "inception_3b/pool"
  top: "inception_3b/pool_proj"
  param {
    lr_mult: 1
    decay_mult: 1
  }
  param {
    lr_mult: 2
    decay_mult: 0
  }
  convolution_param {
    num_output: 64
    kernel_size: 1
    weight_filler {
      type: "xavier"
      std: 0.1
    }
    bias_filler {
      type: "constant"
      value: 0.2
    }
  }
}
layer {
  name: "inception_3b/relu_pool_proj"
  type: "ReLU"
  bottom: "inception_3b/pool_proj"
  top: "inception_3b/pool_proj"
}
layer {
  name: "inception_3b/output"
  type: "Concat"
  bottom: "inception_3b/1x1"
  bottom: "inception_3b/3x3"
  bottom: "inception_3b/5x5"
  bottom: "inception_3b/pool_proj"
  top: "inception_3b/output"
}
layer {
  name: "pool3/3x3_s2"
  type: "Pooling"
  bottom: "inception_3b/output"
  top: "pool3/3x3_s2"
  pooling_param {
    pool: MAX
    kernel_size: 3
    stride: 2
  }
}
layer {
  name: "inception_4a/1x1"
  type: "Convolution"
  bottom: "pool3/3x3_s2"
  top: "inception_4a/1x1"
  param {
    lr_mult: 1
    decay_mult: 1
  }
  param {
    lr_mult: 2
    decay_mult: 0
  }
  convolution_param {
    num_output: 192
    kernel_size: 1
    weight_filler {
      type: "xavier"
      std: 0.03
    }
    bias_filler {
      type: "constant"
      value: 0.2
    }
  }
}
layer {
  name: "inception_4a/relu_1x1"
  type: "ReLU"
  bottom: "inception_4a/1x1"
  top: "inception_4a/1x1"
}
layer {
  name: "inception_4a/3x3_reduce"
  type: "Convolution"
  bottom: "pool3/3x3_s2"
  top: "inception_4a/3x3_reduce"
  param {
    lr_mult: 1
    decay_mult: 1
  }
  param {
    lr_mult: 2
    decay_mult: 0
  }
  convolution_param {
    num_output: 96
    kernel_size: 1
    weight_filler {
      type: "xavier"
      std: 0.09
    }
    bias_filler {
      type: "constant"
      value: 0.2
    }
  }
}
layer {
  name: "inception_4a/relu_3x3_reduce"
  type: "ReLU"
  bottom: "inception_4a/3x3_reduce"
  top: "inception_4a/3x3_reduce"
}
layer {
  name: "inception_4a/3x3"
  type: "Convolution"
  bottom: "inception_4a/3x3_reduce"
  top: "inception_4a/3x3"
  param {
    lr_mult: 1
    decay_mult: 1
  }
  param {
    lr_mult: 2
    decay_mult: 0
  }
  convolution_param {
    num_output: 208
    pad: 1
    kernel_size: 3
    weight_filler {
      type: "xavier"
      std: 0.03
    }
    bias_filler {
      type: "constant"
      value: 0.2
    }
  }
}
layer {
  name: "inception_4a/relu_3x3"
  type: "ReLU"
  bottom: "inception_4a/3x3"
  top: "inception_4a/3x3"
}
layer {
  name: "inception_4a/5x5_reduce"
  type: "Convolution"
  bottom: "pool3/3x3_s2"
  top: "inception_4a/5x5_reduce"
  param {
    lr_mult: 1
    decay_mult: 1
  }
  param {
    lr_mult: 2
    decay_mult: 0
  }
  convolution_param {
    num_output: 16
    kernel_size: 1
    weight_filler {
      type: "xavier"
      std: 0.2
    }
    bias_filler {
      type: "constant"
      value: 0.2
    }
  }
}
layer {
  name: "inception_4a/relu_5x5_reduce"
  type: "ReLU"
  bottom: "inception_4a/5x5_reduce"
  top: "inception_4a/5x5_reduce"
}
layer {
  name: "inception_4a/5x5"
  type: "Convolution"
  bottom: "inception_4a/5x5_reduce"
  top: "inception_4a/5x5"
  param {
    lr_mult: 1
    decay_mult: 1
  }
  param {
    lr_mult: 2
    decay_mult: 0
  }
  convolution_param {
    num_output: 48
    pad: 2
    kernel_size: 5
    weight_filler {
      type: "xavier"
      std: 0.03
    }
    bias_filler {
      type: "constant"
      value: 0.2
    }
  }
}
layer {
  name: "inception_4a/relu_5x5"
  type: "ReLU"
  bottom: "inception_4a/5x5"
  top: "inception_4a/5x5"
}
layer {
  name: "inception_4a/pool"
  type: "Pooling"
  bottom: "pool3/3x3_s2"
  top: "inception_4a/pool"
  pooling_param {
    pool: MAX
    kernel_size: 3
    stride: 1
    pad: 1
  }
}
layer {
  name: "inception_4a/pool_proj"
  type: "Convolution"
  bottom: "inception_4a/pool"
  top: "inception_4a/pool_proj"
  param {
    lr_mult: 1
    decay_mult: 1
  }
  param {
    lr_mult: 2
    decay_mult: 0
  }
  convolution_param {
    num_output: 64
    kernel_size: 1
    weight_filler {
      type: "xavier"
      std: 0.1
    }
    bias_filler {
      type: "constant"
      value: 0.2
    }
  }
}
layer {
  name: "inception_4a/relu_pool_proj"
  type: "ReLU"
  bottom: "inception_4a/pool_proj"
  top: "inception_4a/pool_proj"
}
layer {
  name: "inception_4a/output"
  type: "Concat"
  bottom: "inception_4a/1x1"
  bottom: "inception_4a/3x3"
  bottom: "inception_4a/5x5"
  bottom: "inception_4a/pool_proj"
  top: "inception_4a/output"
}
layer {
  name: "loss1/ave_pool"
  type: "Pooling"
  bottom: "inception_4a/output"
  top: "loss1/ave_pool"
  pooling_param {
    pool: AVE
    kernel_size: 5
    stride: 3
  }
}
layer {
  name: "loss1/conv"
  type: "Convolution"
  bottom: "loss1/ave_pool"
  top: "loss1/conv"
  param {
    lr_mult: 1
    decay_mult: 1
  }
  param {
    lr_mult: 2
    decay_mult: 0
  }
  convolution_param {
    num_output: 128
    kernel_size: 1
    weight_filler {
      type: "xavier"
      std: 0.08
    }
    bias_filler {
      type: "constant"
      value: 0.2
    }
  }
}
layer {
  name: "loss1/relu_conv"
  type: "ReLU"
  bottom: "loss1/conv"
  top: "loss1/conv"
}
layer {
  name: "loss1/fc"
  type: "InnerProduct"
  bottom: "loss1/conv"
  top: "loss1/fc"
  param {
    lr_mult: 1
    decay_mult: 1
  }
  param {
    lr_mult: 2
    decay_mult: 0
  }
  inner_product_param {
    num_output: 1024
    weight_filler {
      type: "xavier"
      std: 0.02
    }
    bias_filler {
      type: "constant"
      value: 0.2
    }
  }
}
layer {
  name: "loss1/relu_fc"
  type: "ReLU"
  bottom: "loss1/fc"
  top: "loss1/fc"
}
layer {
  name: "loss1/drop_fc"
  type: "Dropout"
  bottom: "loss1/fc"
  top: "loss1/fc"
  dropout_param {
    dropout_ratio: 0.7
  }
}
layer {
  name: "loss1/classifier_plantvillage"
  type: "InnerProduct"
  bottom: "loss1/fc"
  top: "loss1/classifier_plantvillage"
  param {
    lr_mult: 1
    decay_mult: 1
  }
  param {
    lr_mult: 2
    decay_mult: 0
  }
  inner_product_param {
    num_output: 38
    weight_filler {
      type: "xavier"
      std: 0.0009765625
    }
    bias_filler {
      type: "constant"
      value: 0
    }
  }
}
layer {
  name: "inception_4b/1x1"
  type: "Convolution"
  bottom: "inception_4a/output"
  top: "inception_4b/1x1"
  param {
    lr_mult: 1
    decay_mult: 1
  }
  param {
    lr_mult: 2
    decay_mult: 0
  }
  convolution_param {
    num_output: 160
    kernel_size: 1
    weight_filler {
      type: "xavier"
      std: 0.03
    }
    bias_filler {
      type: "constant"
      value: 0.2
    }
  }
}
layer {
  name: "inception_4b/relu_1x1"
  type: "ReLU"
  bottom: "inception_4b/1x1"
  top: "inception_4b/1x1"
}
layer {
  name: "inception_4b/3x3_reduce"
  type: "Convolution"
  bottom: "inception_4a/output"
  top: "inception_4b/3x3_reduce"
  param {
    lr_mult: 1
    decay_mult: 1
  }
  param {
    lr_mult: 2
    decay_mult: 0
  }
  convolution_param {
    num_output: 112
    kernel_size: 1
    weight_filler {
      type: "xavier"
      std: 0.09
    }
    bias_filler {
      type: "constant"
      value: 0.2
    }
  }
}
layer {
  name: "inception_4b/relu_3x3_reduce"
  type: "ReLU"
  bottom: "inception_4b/3x3_reduce"
  top: "inception_4b/3x3_reduce"
}
layer {
  name: "inception_4b/3x3"
  type: "Convolution"
  bottom: "inception_4b/3x3_reduce"
  top: "inception_4b/3x3"
  param {
    lr_mult: 1
    decay_mult: 1
  }
  param {
    lr_mult: 2
    decay_mult: 0
  }
  convolution_param {
    num_output: 224
    pad: 1
    kernel_size: 3
    weight_filler {
      type: "xavier"
      std: 0.03
    }
    bias_filler {
      type: "constant"
      value: 0.2
    }
  }
}
layer {
  name: "inception_4b/relu_3x3"
  type: "ReLU"
  bottom: "inception_4b/3x3"
  top: "inception_4b/3x3"
}
layer {
  name: "inception_4b/5x5_reduce"
  type: "Convolution"
  bottom: "inception_4a/output"
  top: "inception_4b/5x5_reduce"
  param {
    lr_mult: 1
    decay_mult: 1
  }
  param {
    lr_mult: 2
    decay_mult: 0
  }
  convolution_param {
    num_output: 24
    kernel_size: 1
    weight_filler {
      type: "xavier"
      std: 0.2
    }
    bias_filler {
      type: "constant"
      value: 0.2
    }
  }
}
layer {
  name: "inception_4b/relu_5x5_reduce"
  type: "ReLU"
  bottom: "inception_4b/5x5_reduce"
  top: "inception_4b/5x5_reduce"
}
layer {
  name: "inception_4b/5x5"
  type: "Convolution"
  bottom: "inception_4b/5x5_reduce"
  top: "inception_4b/5x5"
  param {
    lr_mult: 1
    decay_mult: 1
  }
  param {
    lr_mult: 2
    decay_mult: 0
  }
  convolution_param {
    num_output: 64
    pad: 2
    kernel_size: 5
    weight_filler {
      type: "xavier"
      std: 0.03
    }
    bias_filler {
      type: "constant"
      value: 0.2
    }
  }
}
layer {
  name: "inception_4b/relu_5x5"
  type: "ReLU"
  bottom: "inception_4b/5x5"
  top: "inception_4b/5x5"
}
layer {
  name: "inception_4b/pool"
  type: "Pooling"
  bottom: "inception_4a/output"
  top: "inception_4b/pool"
  pooling_param {
    pool: MAX
    kernel_size: 3
    stride: 1
    pad: 1
  }
}
layer {
  name: "inception_4b/pool_proj"
  type: "Convolution"
  bottom: "inception_4b/pool"
  top: "inception_4b/pool_proj"
  param {
    lr_mult: 1
    decay_mult: 1
  }
  param {
    lr_mult: 2
    decay_mult: 0
  }
  convolution_param {
    num_output: 64
    kernel_size: 1
    weight_filler {
      type: "xavier"
      std: 0.1
    }
    bias_filler {
      type: "constant"
      value: 0.2
    }
  }
}
layer {
  name: "inception_4b/relu_pool_proj"
  type: "ReLU"
  bottom: "inception_4b/pool_proj"
  top: "inception_4b/pool_proj"
}
layer {
  name: "inception_4b/output"
  type: "Concat"
  bottom: "inception_4b/1x1"
  bottom: "inception_4b/3x3"
  bottom: "inception_4b/5x5"
  bottom: "inception_4b/pool_proj"
  top: "inception_4b/output"
}
layer {
  name: "inception_4c/1x1"
  type: "Convolution"
  bottom: "inception_4b/output"
  top: "inception_4c/1x1"
  param {
    lr_mult: 1
    decay_mult: 1
  }
  param {
    lr_mult: 2
    decay_mult: 0
  }
  convolution_param {
    num_output: 128
    kernel_size: 1
    weight_filler {
      type: "xavier"
      std: 0.03
    }
    bias_filler {
      type: "constant"
      value: 0.2
    }
  }
}
layer {
  name: "inception_4c/relu_1x1"
  type: "ReLU"
  bottom: "inception_4c/1x1"
  top: "inception_4c/1x1"
}
layer {
  name: "inception_4c/3x3_reduce"
  type: "Convolution"
  bottom: "inception_4b/output"
  top: "inception_4c/3x3_reduce"
  param {
    lr_mult: 1
    decay_mult: 1
  }
  param {
    lr_mult: 2
    decay_mult: 0
  }
  convolution_param {
    num_output: 128
    kernel_size: 1
    weight_filler {
      type: "xavier"
      std: 0.09
    }
    bias_filler {
      type: "constant"
      value: 0.2
    }
  }
}
layer {
  name: "inception_4c/relu_3x3_reduce"
  type: "ReLU"
  bottom: "inception_4c/3x3_reduce"
  top: "inception_4c/3x3_reduce"
}
layer {
  name: "inception_4c/3x3"
  type: "Convolution"
  bottom: "inception_4c/3x3_reduce"
  top: "inception_4c/3x3"
  param {
    lr_mult: 1
    decay_mult: 1
  }
  param {
    lr_mult: 2
    decay_mult: 0
  }
  convolution_param {
    num_output: 256
    pad: 1
    kernel_size: 3
    weight_filler {
      type: "xavier"
      std: 0.03
    }
    bias_filler {
      type: "constant"
      value: 0.2
    }
  }
}
layer {
  name: "inception_4c/relu_3x3"
  type: "ReLU"
  bottom: "inception_4c/3x3"
  top: "inception_4c/3x3"
}
layer {
  name: "inception_4c/5x5_reduce"
  type: "Convolution"
  bottom: "inception_4b/output"
  top: "inception_4c/5x5_reduce"
  param {
    lr_mult: 1
    decay_mult: 1
  }
  param {
    lr_mult: 2
    decay_mult: 0
  }
  convolution_param {
    num_output: 24
    kernel_size: 1
    weight_filler {
      type: "xavier"
      std: 0.2
    }
    bias_filler {
      type: "constant"
      value: 0.2
    }
  }
}
layer {
  name: "inception_4c/relu_5x5_reduce"
  type: "ReLU"
  bottom: "inception_4c/5x5_reduce"
  top: "inception_4c/5x5_reduce"
}
layer {
  name: "inception_4c/5x5"
  type: "Convolution"
  bottom: "inception_4c/5x5_reduce"
  top: "inception_4c/5x5"
  param {
    lr_mult: 1
    decay_mult: 1
  }
  param {
    lr_mult: 2
    decay_mult: 0
  }
  convolution_param {
    num_output: 64
    pad: 2
    kernel_size: 5
    weight_filler {
      type: "xavier"
      std: 0.03
    }
    bias_filler {
      type: "constant"
      value: 0.2
    }
  }
}
layer {
  name: "inception_4c/relu_5x5"
  type: "ReLU"
  bottom: "inception_4c/5x5"
  top: "inception_4c/5x5"
}
layer {
  name: "inception_4c/pool"
  type: "Pooling"
  bottom: "inception_4b/output"
  top: "inception_4c/pool"
  pooling_param {
    pool: MAX
    kernel_size: 3
    stride: 1
    pad: 1
  }
}
layer {
  name: "inception_4c/pool_proj"
  type: "Convolution"
  bottom: "inception_4c/pool"
  top: "inception_4c/pool_proj"
  param {
    lr_mult: 1
    decay_mult: 1
  }
  param {
    lr_mult: 2
    decay_mult: 0
  }
  convolution_param {
    num_output: 64
    kernel_size: 1
    weight_filler {
      type: "xavier"
      std: 0.1
    }
    bias_filler {
      type: "constant"
      value: 0.2
    }
  }
}
layer {
  name: "inception_4c/relu_pool_proj"
  type: "ReLU"
  bottom: "inception_4c/pool_proj"
  top: "inception_4c/pool_proj"
}
layer {
  name: "inception_4c/output"
  type: "Concat"
  bottom: "inception_4c/1x1"
  bottom: "inception_4c/3x3"
  bottom: "inception_4c/5x5"
  bottom: "inception_4c/pool_proj"
  top: "inception_4c/output"
}
layer {
  name: "inception_4d/1x1"
  type: "Convolution"
  bottom: "inception_4c/output"
  top: "inception_4d/1x1"
  param {
    lr_mult: 1
    decay_mult: 1
  }
  param {
    lr_mult: 2
    decay_mult: 0
  }
  convolution_param {
    num_output: 112
    kernel_size: 1
    weight_filler {
      type: "xavier"
      std: 0.03
    }
    bias_filler {
      type: "constant"
      value: 0.2
    }
  }
}
layer {
  name: "inception_4d/relu_1x1"
  type: "ReLU"
  bottom: "inception_4d/1x1"
  top: "inception_4d/1x1"
}
layer {
  name: "inception_4d/3x3_reduce"
  type: "Convolution"
  bottom: "inception_4c/output"
  top: "inception_4d/3x3_reduce"
  param {
    lr_mult: 1
    decay_mult: 1
  }
  param {
    lr_mult: 2
    decay_mult: 0
  }
  convolution_param {
    num_output: 144
    kernel_size: 1
    weight_filler {
      type: "xavier"
      std: 0.09
    }
    bias_filler {
      type: "constant"
      value: 0.2
    }
  }
}
layer {
  name: "inception_4d/relu_3x3_reduce"
  type: "ReLU"
  bottom: "inception_4d/3x3_reduce"
  top: "inception_4d/3x3_reduce"
}
layer {
  name: "inception_4d/3x3"
  type: "Convolution"
  bottom: "inception_4d/3x3_reduce"
  top: "inception_4d/3x3"
  param {
    lr_mult: 1
    decay_mult: 1
  }
  param {
    lr_mult: 2
    decay_mult: 0
  }
  convolution_param {
    num_output: 288
    pad: 1
    kernel_size: 3
    weight_filler {
      type: "xavier"
      std: 0.03
    }
    bias_filler {
      type: "constant"
      value: 0.2
    }
  }
}
layer {
  name: "inception_4d/relu_3x3"
  type: "ReLU"
  bottom: "inception_4d/3x3"
  top: "inception_4d/3x3"
}
layer {
  name: "inception_4d/5x5_reduce"
  type: "Convolution"
  bottom: "inception_4c/output"
  top: "inception_4d/5x5_reduce"
  param {
    lr_mult: 1
    decay_mult: 1
  }
  param {
    lr_mult: 2
    decay_mult: 0
  }
  convolution_param {
    num_output: 32
    kernel_size: 1
    weight_filler {
      type: "xavier"
      std: 0.2
    }
    bias_filler {
      type: "constant"
      value: 0.2
    }
  }
}
layer {
  name: "inception_4d/relu_5x5_reduce"
  type: "ReLU"
  bottom: "inception_4d/5x5_reduce"
  top: "inception_4d/5x5_reduce"
}
layer {
  name: "inception_4d/5x5"
  type: "Convolution"
  bottom: "inception_4d/5x5_reduce"
  top: "inception_4d/5x5"
  param {
    lr_mult: 1
    decay_mult: 1
  }
  param {
    lr_mult: 2
    decay_mult: 0
  }
  convolution_param {
    num_output: 64
    pad: 2
    kernel_size: 5
    weight_filler {
      type: "xavier"
      std: 0.03
    }
    bias_filler {
      type: "constant"
      value: 0.2
    }
  }
}
layer {
  name: "inception_4d/relu_5x5"
  type: "ReLU"
  bottom: "inception_4d/5x5"
  top: "inception_4d/5x5"
}
layer {
  name: "inception_4d/pool"
  type: "Pooling"
  bottom: "inception_4c/output"
  top: "inception_4d/pool"
  pooling_param {
    pool: MAX
    kernel_size: 3
    stride: 1
    pad: 1
  }
}
layer {
  name: "inception_4d/pool_proj"
  type: "Convolution"
  bottom: "inception_4d/pool"
  top: "inception_4d/pool_proj"
  param {
    lr_mult: 1
    decay_mult: 1
  }
  param {
    lr_mult: 2
    decay_mult: 0
  }
  convolution_param {
    num_output: 64
    kernel_size: 1
    weight_filler {
      type: "xavier"
      std: 0.1
    }
    bias_filler {
      type: "constant"
      value: 0.2
    }
  }
}
layer {
  name: "inception_4d/relu_pool_proj"
  type: "ReLU"
  bottom: "inception_4d/pool_proj"
  top: "inception_4d/pool_proj"
}
layer {
  name: "inception_4d/output"
  type: "Concat"
  bottom: "inception_4d/1x1"
  bottom: "inception_4d/3x3"
  bottom: "inception_4d/5x5"
  bottom: "inception_4d/pool_proj"
  top: "inception_4d/output"
}
layer {
  name: "loss2/ave_pool"
  type: "Pooling"
  bottom: "inception_4d/output"
  top: "loss2/ave_pool"
  pooling_param {
    pool: AVE
    kernel_size: 5
    stride: 3
  }
}
layer {
  name: "loss2/conv"
  type: "Convolution"
  bottom: "loss2/ave_pool"
  top: "loss2/conv"
  param {
    lr_mult: 1
    decay_mult: 1
  }
  param {
    lr_mult: 2
    decay_mult: 0
  }
  convolution_param {
    num_output: 128
    kernel_size: 1
    weight_filler {
      type: "xavier"
      std: 0.08
    }
    bias_filler {
      type: "constant"
      value: 0.2
    }
  }
}
layer {
  name: "loss2/relu_conv"
  type: "ReLU"
  bottom: "loss2/conv"
  top: "loss2/conv"
}
layer {
  name: "loss2/fc"
  type: "InnerProduct"
  bottom: "loss2/conv"
  top: "loss2/fc"
  param {
    lr_mult: 1
    decay_mult: 1
  }
  param {
    lr_mult: 2
    decay_mult: 0
  }
  inner_product_param {
    num_output: 1024
    weight_filler {
      type: "xavier"
      std: 0.02
    }
    bias_filler {
      type: "constant"
      value: 0.2
    }
  }
}
layer {
  name: "loss2/relu_fc"
  type: "ReLU"
  bottom: "loss2/fc"
  top: "loss2/fc"
}
layer {
  name: "loss2/drop_fc"
  type: "Dropout"
  bottom: "loss2/fc"
  top: "loss2/fc"
  dropout_param {
    dropout_ratio: 0.7
  }
}
layer {
  name: "loss2/classifier_plantvillage"
  type: "InnerProduct"
  bottom: "loss2/fc"
  top: "loss2/classifier_plantvillage"
  param {
    lr_mult: 1
    decay_mult: 1
  }
  param {
    lr_mult: 2
    decay_mult: 0
  }
  inner_product_param {
    num_output: 38
    weight_filler {
      type: "xavier"
      std: 0.0009765625
    }
    bias_filler {
      type: "constant"
      value: 0
    }
  }
}
layer {
  name: "inception_4e/1x1"
  type: "Convolution"
  bottom: "inception_4d/output"
  top: "inception_4e/1x1"
  param {
    lr_mult: 1
    decay_mult: 1
  }
  param {
    lr_mult: 2
    decay_mult: 0
  }
  convolution_param {
    num_output: 256
    kernel_size: 1
    weight_filler {
      type: "xavier"
      std: 0.03
    }
    bias_filler {
      type: "constant"
      value: 0.2
    }
  }
}
layer {
  name: "inception_4e/relu_1x1"
  type: "ReLU"
  bottom: "inception_4e/1x1"
  top: "inception_4e/1x1"
}
layer {
  name: "inception_4e/3x3_reduce"
  type: "Convolution"
  bottom: "inception_4d/output"
  top: "inception_4e/3x3_reduce"
  param {
    lr_mult: 1
    decay_mult: 1
  }
  param {
    lr_mult: 2
    decay_mult: 0
  }
  convolution_param {
    num_output: 160
    kernel_size: 1
    weight_filler {
      type: "xavier"
      std: 0.09
    }
    bias_filler {
      type: "constant"
      value: 0.2
    }
  }
}
layer {
  name: "inception_4e/relu_3x3_reduce"
  type: "ReLU"
  bottom: "inception_4e/3x3_reduce"
  top: "inception_4e/3x3_reduce"
}
layer {
  name: "inception_4e/3x3"
  type: "Convolution"
  bottom: "inception_4e/3x3_reduce"
  top: "inception_4e/3x3"
  param {
    lr_mult: 1
    decay_mult: 1
  }
  param {
    lr_mult: 2
    decay_mult: 0
  }
  convolution_param {
    num_output: 320
    pad: 1
    kernel_size: 3
    weight_filler {
      type: "xavier"
      std: 0.03
    }
    bias_filler {
      type: "constant"
      value: 0.2
    }
  }
}
layer {
  name: "inception_4e/relu_3x3"
  type: "ReLU"
  bottom: "inception_4e/3x3"
  top: "inception_4e/3x3"
}
layer {
  name: "inception_4e/5x5_reduce"
  type: "Convolution"
  bottom: "inception_4d/output"
  top: "inception_4e/5x5_reduce"
  param {
    lr_mult: 1
    decay_mult: 1
  }
  param {
    lr_mult: 2
    decay_mult: 0
  }
  convolution_param {
    num_output: 32
    kernel_size: 1
    weight_filler {
      type: "xavier"
      std: 0.2
    }
    bias_filler {
      type: "constant"
      value: 0.2
    }
  }
}
layer {
  name: "inception_4e/relu_5x5_reduce"
  type: "ReLU"
  bottom: "inception_4e/5x5_reduce"
  top: "inception_4e/5x5_reduce"
}
layer {
  name: "inception_4e/5x5"
  type: "Convolution"
  bottom: "inception_4e/5x5_reduce"
  top: "inception_4e/
I0403 15:32:36.689889 19846 layer_factory.hpp:77] Creating layer data
I0403 15:32:36.690523 19846 net.cpp:91] Creating Layer data
I0403 15:32:36.690556 19846 net.cpp:399] data -> data
I0403 15:32:36.690608 19846 net.cpp:399] data -> label
I0403 15:32:36.690644 19846 data_transformer.cpp:25] Loading mean file from: /home/mohanty/data/final_dataset/lmdb/grayscale-40-60/mean.binaryproto
I0403 15:32:36.699177 19849 db_lmdb.cpp:38] Opened lmdb /home/mohanty/data/final_dataset/lmdb/grayscale-40-60/test_db
I0403 15:32:36.706230 19846 data_layer.cpp:41] output data size: 24,3,224,224
I0403 15:32:36.736977 19846 net.cpp:141] Setting up data
I0403 15:32:36.737061 19846 net.cpp:148] Top shape: 24 3 224 224 (3612672)
I0403 15:32:36.737084 19846 net.cpp:148] Top shape: 24 (24)
I0403 15:32:36.737100 19846 net.cpp:156] Memory required for data: 14450784
I0403 15:32:36.737128 19846 layer_factory.hpp:77] Creating layer label_data_1_split
I0403 15:32:36.737155 19846 net.cpp:91] Creating Layer label_data_1_split
I0403 15:32:36.737174 19846 net.cpp:425] label_data_1_split <- label
I0403 15:32:36.737206 19846 net.cpp:399] label_data_1_split -> label_data_1_split_0
I0403 15:32:36.737234 19846 net.cpp:399] label_data_1_split -> label_data_1_split_1
I0403 15:32:36.737268 19846 net.cpp:399] label_data_1_split -> label_data_1_split_2
I0403 15:32:36.737289 19846 net.cpp:399] label_data_1_split -> label_data_1_split_3
I0403 15:32:36.737308 19846 net.cpp:399] label_data_1_split -> label_data_1_split_4
I0403 15:32:36.737329 19846 net.cpp:399] label_data_1_split -> label_data_1_split_5
I0403 15:32:36.737349 19846 net.cpp:399] label_data_1_split -> label_data_1_split_6
I0403 15:32:36.737370 19846 net.cpp:399] label_data_1_split -> label_data_1_split_7
I0403 15:32:36.737391 19846 net.cpp:399] label_data_1_split -> label_data_1_split_8
I0403 15:32:36.737411 19846 net.cpp:399] label_data_1_split -> label_data_1_split_9
I0403 15:32:36.737542 19846 net.cpp:141] Setting up label_data_1_split
I0403 15:32:36.737565 19846 net.cpp:148] Top shape: 24 (24)
I0403 15:32:36.737582 19846 net.cpp:148] Top shape: 24 (24)
I0403 15:32:36.737599 19846 net.cpp:148] Top shape: 24 (24)
I0403 15:32:36.737615 19846 net.cpp:148] Top shape: 24 (24)
I0403 15:32:36.737632 19846 net.cpp:148] Top shape: 24 (24)
I0403 15:32:36.737646 19846 net.cpp:148] Top shape: 24 (24)
I0403 15:32:36.737663 19846 net.cpp:148] Top shape: 24 (24)
I0403 15:32:36.737679 19846 net.cpp:148] Top shape: 24 (24)
I0403 15:32:36.737694 19846 net.cpp:148] Top shape: 24 (24)
I0403 15:32:36.737711 19846 net.cpp:148] Top shape: 24 (24)
I0403 15:32:36.737757 19846 net.cpp:156] Memory required for data: 14451744
I0403 15:32:36.737773 19846 layer_factory.hpp:77] Creating layer conv1/7x7_s2
I0403 15:32:36.737805 19846 net.cpp:91] Creating Layer conv1/7x7_s2
I0403 15:32:36.737823 19846 net.cpp:425] conv1/7x7_s2 <- data
I0403 15:32:36.737843 19846 net.cpp:399] conv1/7x7_s2 -> conv1/7x7_s2
I0403 15:32:36.883388 19846 net.cpp:141] Setting up conv1/7x7_s2
I0403 15:32:36.883463 19846 net.cpp:148] Top shape: 24 64 112 112 (19267584)
I0403 15:32:36.883481 19846 net.cpp:156] Memory required for data: 91522080
I0403 15:32:36.883513 19846 layer_factory.hpp:77] Creating layer conv1/relu_7x7
I0403 15:32:36.883541 19846 net.cpp:91] Creating Layer conv1/relu_7x7
I0403 15:32:36.883561 19846 net.cpp:425] conv1/relu_7x7 <- conv1/7x7_s2
I0403 15:32:36.883581 19846 net.cpp:386] conv1/relu_7x7 -> conv1/7x7_s2 (in-place)
I0403 15:32:36.883868 19846 net.cpp:141] Setting up conv1/relu_7x7
I0403 15:32:36.883899 19846 net.cpp:148] Top shape: 24 64 112 112 (19267584)
I0403 15:32:36.883916 19846 net.cpp:156] Memory required for data: 168592416
I0403 15:32:36.883934 19846 layer_factory.hpp:77] Creating layer pool1/3x3_s2
I0403 15:32:36.883960 19846 net.cpp:91] Creating Layer pool1/3x3_s2
I0403 15:32:36.883977 19846 net.cpp:425] pool1/3x3_s2 <- conv1/7x7_s2
I0403 15:32:36.884002 19846 net.cpp:399] pool1/3x3_s2 -> pool1/3x3_s2
I0403 15:32:36.884088 19846 net.cpp:141] Setting up pool1/3x3_s2
I0403 15:32:36.884114 19846 net.cpp:148] Top shape: 24 64 56 56 (4816896)
I0403 15:32:36.884130 19846 net.cpp:156] Memory required for data: 187860000
I0403 15:32:36.884145 19846 layer_factory.hpp:77] Creating layer pool1/norm1
I0403 15:32:36.884173 19846 net.cpp:91] Creating Layer pool1/norm1
I0403 15:32:36.884192 19846 net.cpp:425] pool1/norm1 <- pool1/3x3_s2
I0403 15:32:36.884212 19846 net.cpp:399] pool1/norm1 -> pool1/norm1
I0403 15:32:36.884567 19846 net.cpp:141] Setting up pool1/norm1
I0403 15:32:36.884598 19846 net.cpp:148] Top shape: 24 64 56 56 (4816896)
I0403 15:32:36.884615 19846 net.cpp:156] Memory required for data: 207127584
I0403 15:32:36.884631 19846 layer_factory.hpp:77] Creating layer conv2/3x3_reduce
I0403 15:32:36.884660 19846 net.cpp:91] Creating Layer conv2/3x3_reduce
I0403 15:32:36.884677 19846 net.cpp:425] conv2/3x3_reduce <- pool1/norm1
I0403 15:32:36.884698 19846 net.cpp:399] conv2/3x3_reduce -> conv2/3x3_reduce
I0403 15:32:36.886173 19846 net.cpp:141] Setting up conv2/3x3_reduce
I0403 15:32:36.886205 19846 net.cpp:148] Top shape: 24 64 56 56 (4816896)
I0403 15:32:36.886222 19846 net.cpp:156] Memory required for data: 226395168
I0403 15:32:36.886245 19846 layer_factory.hpp:77] Creating layer conv2/relu_3x3_reduce
I0403 15:32:36.886270 19846 net.cpp:91] Creating Layer conv2/relu_3x3_reduce
I0403 15:32:36.886289 19846 net.cpp:425] conv2/relu_3x3_reduce <- conv2/3x3_reduce
I0403 15:32:36.886307 19846 net.cpp:386] conv2/relu_3x3_reduce -> conv2/3x3_reduce (in-place)
I0403 15:32:36.886631 19846 net.cpp:141] Setting up conv2/relu_3x3_reduce
I0403 15:32:36.886658 19846 net.cpp:148] Top shape: 24 64 56 56 (4816896)
I0403 15:32:36.886693 19846 net.cpp:156] Memory required for data: 245662752
I0403 15:32:36.886713 19846 layer_factory.hpp:77] Creating layer conv2/3x3
I0403 15:32:36.886739 19846 net.cpp:91] Creating Layer conv2/3x3
I0403 15:32:36.886756 19846 net.cpp:425] conv2/3x3 <- conv2/3x3_reduce
I0403 15:32:36.886778 19846 net.cpp:399] conv2/3x3 -> conv2/3x3
I0403 15:32:36.889246 19846 net.cpp:141] Setting up conv2/3x3
I0403 15:32:36.889281 19846 net.cpp:148] Top shape: 24 192 56 56 (14450688)
I0403 15:32:36.889297 19846 net.cpp:156] Memory required for data: 303465504
I0403 15:32:36.889324 19846 layer_factory.hpp:77] Creating layer conv2/relu_3x3
I0403 15:32:36.889346 19846 net.cpp:91] Creating Layer conv2/relu_3x3
I0403 15:32:36.889364 19846 net.cpp:425] conv2/relu_3x3 <- conv2/3x3
I0403 15:32:36.889381 19846 net.cpp:386] conv2/relu_3x3 -> conv2/3x3 (in-place)
I0403 15:32:36.889569 19846 net.cpp:141] Setting up conv2/relu_3x3
I0403 15:32:36.889601 19846 net.cpp:148] Top shape: 24 192 56 56 (14450688)
I0403 15:32:36.889649 19846 net.cpp:156] Memory required for data: 361268256
I0403 15:32:36.889667 19846 layer_factory.hpp:77] Creating layer conv2/norm2
I0403 15:32:36.889686 19846 net.cpp:91] Creating Layer conv2/norm2
I0403 15:32:36.889703 19846 net.cpp:425] conv2/norm2 <- conv2/3x3
I0403 15:32:36.889726 19846 net.cpp:399] conv2/norm2 -> conv2/norm2
I0403 15:32:36.890110 19846 net.cpp:141] Setting up conv2/norm2
I0403 15:32:36.890137 19846 net.cpp:148] Top shape: 24 192 56 56 (14450688)
I0403 15:32:36.890153 19846 net.cpp:156] Memory required for data: 419071008
I0403 15:32:36.890171 19846 layer_factory.hpp:77] Creating layer pool2/3x3_s2
I0403 15:32:36.890189 19846 net.cpp:91] Creating Layer pool2/3x3_s2
I0403 15:32:36.890207 19846 net.cpp:425] pool2/3x3_s2 <- conv2/norm2
I0403 15:32:36.890228 19846 net.cpp:399] pool2/3x3_s2 -> pool2/3x3_s2
I0403 15:32:36.890285 19846 net.cpp:141] Setting up pool2/3x3_s2
I0403 15:32:36.890311 19846 net.cpp:148] Top shape: 24 192 28 28 (3612672)
I0403 15:32:36.890327 19846 net.cpp:156] Memory required for data: 433521696
I0403 15:32:36.890343 19846 layer_factory.hpp:77] Creating layer pool2/3x3_s2_pool2/3x3_s2_0_split
I0403 15:32:36.890362 19846 net.cpp:91] Creating Layer pool2/3x3_s2_pool2/3x3_s2_0_split
I0403 15:32:36.890378 19846 net.cpp:425] pool2/3x3_s2_pool2/3x3_s2_0_split <- pool2/3x3_s2
I0403 15:32:36.890396 19846 net.cpp:399] pool2/3x3_s2_pool2/3x3_s2_0_split -> pool2/3x3_s2_pool2/3x3_s2_0_split_0
I0403 15:32:36.890419 19846 net.cpp:399] pool2/3x3_s2_pool2/3x3_s2_0_split -> pool2/3x3_s2_pool2/3x3_s2_0_split_1
I0403 15:32:36.890441 19846 net.cpp:399] pool2/3x3_s2_pool2/3x3_s2_0_split -> pool2/3x3_s2_pool2/3x3_s2_0_split_2
I0403 15:32:36.890462 19846 net.cpp:399] pool2/3x3_s2_pool2/3x3_s2_0_split -> pool2/3x3_s2_pool2/3x3_s2_0_split_3
I0403 15:32:36.890537 19846 net.cpp:141] Setting up pool2/3x3_s2_pool2/3x3_s2_0_split
I0403 15:32:36.890561 19846 net.cpp:148] Top shape: 24 192 28 28 (3612672)
I0403 15:32:36.890579 19846 net.cpp:148] Top shape: 24 192 28 28 (3612672)
I0403 15:32:36.890596 19846 net.cpp:148] Top shape: 24 192 28 28 (3612672)
I0403 15:32:36.890612 19846 net.cpp:148] Top shape: 24 192 28 28 (3612672)
I0403 15:32:36.890627 19846 net.cpp:156] Memory required for data: 491324448
I0403 15:32:36.890643 19846 layer_factory.hpp:77] Creating layer inception_3a/1x1
I0403 15:32:36.890668 19846 net.cpp:91] Creating Layer inception_3a/1x1
I0403 15:32:36.890688 19846 net.cpp:425] inception_3a/1x1 <- pool2/3x3_s2_pool2/3x3_s2_0_split_0
I0403 15:32:36.890708 19846 net.cpp:399] inception_3a/1x1 -> inception_3a/1x1
I0403 15:32:36.892376 19846 net.cpp:141] Setting up inception_3a/1x1
I0403 15:32:36.892407 19846 net.cpp:148] Top shape: 24 64 28 28 (1204224)
I0403 15:32:36.892424 19846 net.cpp:156] Memory required for data: 496141344
I0403 15:32:36.892446 19846 layer_factory.hpp:77] Creating layer inception_3a/relu_1x1
I0403 15:32:36.892465 19846 net.cpp:91] Creating Layer inception_3a/relu_1x1
I0403 15:32:36.892482 19846 net.cpp:425] inception_3a/relu_1x1 <- inception_3a/1x1
I0403 15:32:36.892503 19846 net.cpp:386] inception_3a/relu_1x1 -> inception_3a/1x1 (in-place)
I0403 15:32:36.892689 19846 net.cpp:141] Setting up inception_3a/relu_1x1
I0403 15:32:36.892716 19846 net.cpp:148] Top shape: 24 64 28 28 (1204224)
I0403 15:32:36.892734 19846 net.cpp:156] Memory required for data: 500958240
I0403 15:32:36.892750 19846 layer_factory.hpp:77] Creating layer inception_3a/3x3_reduce
I0403 15:32:36.892773 19846 net.cpp:91] Creating Layer inception_3a/3x3_reduce
I0403 15:32:36.892792 19846 net.cpp:425] inception_3a/3x3_reduce <- pool2/3x3_s2_pool2/3x3_s2_0_split_1
I0403 15:32:36.892814 19846 net.cpp:399] inception_3a/3x3_reduce -> inception_3a/3x3_reduce
I0403 15:32:36.894642 19846 net.cpp:141] Setting up inception_3a/3x3_reduce
I0403 15:32:36.894672 19846 net.cpp:148] Top shape: 24 96 28 28 (1806336)
I0403 15:32:36.894688 19846 net.cpp:156] Memory required for data: 508183584
I0403 15:32:36.894711 19846 layer_factory.hpp:77] Creating layer inception_3a/relu_3x3_reduce
I0403 15:32:36.894750 19846 net.cpp:91] Creating Layer inception_3a/relu_3x3_reduce
I0403 15:32:36.894769 19846 net.cpp:425] inception_3a/relu_3x3_reduce <- inception_3a/3x3_reduce
I0403 15:32:36.894788 19846 net.cpp:386] inception_3a/relu_3x3_reduce -> inception_3a/3x3_reduce (in-place)
I0403 15:32:36.894981 19846 net.cpp:141] Setting up inception_3a/relu_3x3_reduce
I0403 15:32:36.895011 19846 net.cpp:148] Top shape: 24 96 28 28 (1806336)
I0403 15:32:36.895027 19846 net.cpp:156] Memory required for data: 515408928
I0403 15:32:36.895043 19846 layer_factory.hpp:77] Creating layer inception_3a/3x3
I0403 15:32:36.895068 19846 net.cpp:91] Creating Layer inception_3a/3x3
I0403 15:32:36.895087 19846 net.cpp:425] inception_3a/3x3 <- inception_3a/3x3_reduce
I0403 15:32:36.895108 19846 net.cpp:399] inception_3a/3x3 -> inception_3a/3x3
I0403 15:32:36.896900 19846 net.cpp:141] Setting up inception_3a/3x3
I0403 15:32:36.896929 19846 net.cpp:148] Top shape: 24 128 28 28 (2408448)
I0403 15:32:36.896945 19846 net.cpp:156] Memory required for data: 525042720
I0403 15:32:36.896965 19846 layer_factory.hpp:77] Creating layer inception_3a/relu_3x3
I0403 15:32:36.896989 19846 net.cpp:91] Creating Layer inception_3a/relu_3x3
I0403 15:32:36.897011 19846 net.cpp:425] inception_3a/relu_3x3 <- inception_3a/3x3
I0403 15:32:36.897029 19846 net.cpp:386] inception_3a/relu_3x3 -> inception_3a/3x3 (in-place)
I0403 15:32:36.897361 19846 net.cpp:141] Setting up inception_3a/relu_3x3
I0403 15:32:36.897389 19846 net.cpp:148] Top shape: 24 128 28 28 (2408448)
I0403 15:32:36.897405 19846 net.cpp:156] Memory required for data: 534676512
I0403 15:32:36.897421 19846 layer_factory.hpp:77] Creating layer inception_3a/5x5_reduce
I0403 15:32:36.897444 19846 net.cpp:91] Creating Layer inception_3a/5x5_reduce
I0403 15:32:36.897464 19846 net.cpp:425] inception_3a/5x5_reduce <- pool2/3x3_s2_pool2/3x3_s2_0_split_2
I0403 15:32:36.897485 19846 net.cpp:399] inception_3a/5x5_reduce -> inception_3a/5x5_reduce
I0403 15:32:36.898488 19846 net.cpp:141] Setting up inception_3a/5x5_reduce
I0403 15:32:36.898516 19846 net.cpp:148] Top shape: 24 16 28 28 (301056)
I0403 15:32:36.898532 19846 net.cpp:156] Memory required for data: 535880736
I0403 15:32:36.898551 19846 layer_factory.hpp:77] Creating layer inception_3a/relu_5x5_reduce
I0403 15:32:36.898573 19846 net.cpp:91] Creating Layer inception_3a/relu_5x5_reduce
I0403 15:32:36.898591 19846 net.cpp:425] inception_3a/relu_5x5_reduce <- inception_3a/5x5_reduce
I0403 15:32:36.898609 19846 net.cpp:386] inception_3a/relu_5x5_reduce -> inception_3a/5x5_reduce (in-place)
I0403 15:32:36.898916 19846 net.cpp:141] Setting up inception_3a/relu_5x5_reduce
I0403 15:32:36.898958 19846 net.cpp:148] Top shape: 24 16 28 28 (301056)
I0403 15:32:36.898975 19846 net.cpp:156] Memory required for data: 537084960
I0403 15:32:36.899003 19846 layer_factory.hpp:77] Creating layer inception_3a/5x5
I0403 15:32:36.899030 19846 net.cpp:91] Creating Layer inception_3a/5x5
I0403 15:32:36.899049 19846 net.cpp:425] inception_3a/5x5 <- inception_3a/5x5_reduce
I0403 15:32:36.899070 19846 net.cpp:399] inception_3a/5x5 -> inception_3a/5x5
I0403 15:32:36.900120 19846 net.cpp:141] Setting up inception_3a/5x5
I0403 15:32:36.900148 19846 net.cpp:148] Top shape: 24 32 28 28 (602112)
I0403 15:32:36.900164 19846 net.cpp:156] Memory required for data: 539493408
I0403 15:32:36.900183 19846 layer_factory.hpp:77] Creating layer inception_3a/relu_5x5
I0403 15:32:36.900204 19846 net.cpp:91] Creating Layer inception_3a/relu_5x5
I0403 15:32:36.900223 19846 net.cpp:425] inception_3a/relu_5x5 <- inception_3a/5x5
I0403 15:32:36.900240 19846 net.cpp:386] inception_3a/relu_5x5 -> inception_3a/5x5 (in-place)
I0403 15:32:36.900431 19846 net.cpp:141] Setting up inception_3a/relu_5x5
I0403 15:32:36.900460 19846 net.cpp:148] Top shape: 24 32 28 28 (602112)
I0403 15:32:36.900476 19846 net.cpp:156] Memory required for data: 541901856
I0403 15:32:36.900492 19846 layer_factory.hpp:77] Creating layer inception_3a/pool
I0403 15:32:36.900511 19846 net.cpp:91] Creating Layer inception_3a/pool
I0403 15:32:36.900543 19846 net.cpp:425] inception_3a/pool <- pool2/3x3_s2_pool2/3x3_s2_0_split_3
I0403 15:32:36.900563 19846 net.cpp:399] inception_3a/pool -> inception_3a/pool
I0403 15:32:36.900625 19846 net.cpp:141] Setting up inception_3a/pool
I0403 15:32:36.900661 19846 net.cpp:148] Top shape: 24 192 28 28 (3612672)
I0403 15:32:36.900677 19846 net.cpp:156] Memory required for data: 556352544
I0403 15:32:36.900692 19846 layer_factory.hpp:77] Creating layer inception_3a/pool_proj
I0403 15:32:36.900715 19846 net.cpp:91] Creating Layer inception_3a/pool_proj
I0403 15:32:36.900733 19846 net.cpp:425] inception_3a/pool_proj <- inception_3a/pool
I0403 15:32:36.900755 19846 net.cpp:399] inception_3a/pool_proj -> inception_3a/pool_proj
I0403 15:32:36.901737 19846 net.cpp:141] Setting up inception_3a/pool_proj
I0403 15:32:36.901767 19846 net.cpp:148] Top shape: 24 32 28 28 (602112)
I0403 15:32:36.901782 19846 net.cpp:156] Memory required for data: 558760992
I0403 15:32:36.901805 19846 layer_factory.hpp:77] Creating layer inception_3a/relu_pool_proj
I0403 15:32:36.901828 19846 net.cpp:91] Creating Layer inception_3a/relu_pool_proj
I0403 15:32:36.901857 19846 net.cpp:425] inception_3a/relu_pool_proj <- inception_3a/pool_proj
I0403 15:32:36.901876 19846 net.cpp:386] inception_3a/relu_pool_proj -> inception_3a/pool_proj (in-place)
I0403 15:32:36.902179 19846 net.cpp:141] Setting up inception_3a/relu_pool_proj
I0403 15:32:36.902207 19846 net.cpp:148] Top shape: 24 32 28 28 (602112)
I0403 15:32:36.902235 19846 net.cpp:156] Memory required for data: 561169440
I0403 15:32:36.902250 19846 layer_factory.hpp:77] Creating layer inception_3a/output
I0403 15:32:36.902269 19846 net.cpp:91] Creating Layer inception_3a/output
I0403 15:32:36.902286 19846 net.cpp:425] inception_3a/output <- inception_3a/1x1
I0403 15:32:36.902302 19846 net.cpp:425] inception_3a/output <- inception_3a/3x3
I0403 15:32:36.902318 19846 net.cpp:425] inception_3a/output <- inception_3a/5x5
I0403 15:32:36.902334 19846 net.cpp:425] inception_3a/output <- inception_3a/pool_proj
I0403 15:32:36.902353 19846 net.cpp:399] inception_3a/output -> inception_3a/output
I0403 15:32:36.902400 19846 net.cpp:141] Setting up inception_3a/output
I0403 15:32:36.902423 19846 net.cpp:148] Top shape: 24 256 28 28 (4816896)
I0403 15:32:36.902438 19846 net.cpp:156] Memory required for data: 580437024
I0403 15:32:36.902453 19846 layer_factory.hpp:77] Creating layer inception_3a/output_inception_3a/output_0_split
I0403 15:32:36.902470 19846 net.cpp:91] Creating Layer inception_3a/output_inception_3a/output_0_split
I0403 15:32:36.902485 19846 net.cpp:425] inception_3a/output_inception_3a/output_0_split <- inception_3a/output
I0403 15:32:36.902505 19846 net.cpp:399] inception_3a/output_inception_3a/output_0_split -> inception_3a/output_inception_3a/output_0_split_0
I0403 15:32:36.902526 19846 net.cpp:399] inception_3a/output_inception_3a/output_0_split -> inception_3a/output_inception_3a/output_0_split_1
I0403 15:32:36.902551 19846 net.cpp:399] inception_3a/output_inception_3a/output_0_split -> inception_3a/output_inception_3a/output_0_split_2
I0403 15:32:36.902582 19846 net.cpp:399] inception_3a/output_inception_3a/output_0_split -> inception_3a/output_inception_3a/output_0_split_3
I0403 15:32:36.902657 19846 net.cpp:141] Setting up inception_3a/output_inception_3a/output_0_split
I0403 15:32:36.902679 19846 net.cpp:148] Top shape: 24 256 28 28 (4816896)
I0403 15:32:36.902696 19846 net.cpp:148] Top shape: 24 256 28 28 (4816896)
I0403 15:32:36.902712 19846 net.cpp:148] Top shape: 24 256 28 28 (4816896)
I0403 15:32:36.902727 19846 net.cpp:148] Top shape: 24 256 28 28 (4816896)
I0403 15:32:36.902742 19846 net.cpp:156] Memory required for data: 657507360
I0403 15:32:36.902756 19846 layer_factory.hpp:77] Creating layer inception_3b/1x1
I0403 15:32:36.902779 19846 net.cpp:91] Creating Layer inception_3b/1x1
I0403 15:32:36.902796 19846 net.cpp:425] inception_3b/1x1 <- inception_3a/output_inception_3a/output_0_split_0
I0403 15:32:36.902817 19846 net.cpp:399] inception_3b/1x1 -> inception_3b/1x1
I0403 15:32:36.904006 19846 net.cpp:141] Setting up inception_3b/1x1
I0403 15:32:36.904057 19846 net.cpp:148] Top shape: 24 128 28 28 (2408448)
I0403 15:32:36.904074 19846 net.cpp:156] Memory required for data: 667141152
I0403 15:32:36.904093 19846 layer_factory.hpp:77] Creating layer inception_3b/relu_1x1
I0403 15:32:36.904114 19846 net.cpp:91] Creating Layer inception_3b/relu_1x1
I0403 15:32:36.904132 19846 net.cpp:425] inception_3b/relu_1x1 <- inception_3b/1x1
I0403 15:32:36.904150 19846 net.cpp:386] inception_3b/relu_1x1 -> inception_3b/1x1 (in-place)
I0403 15:32:36.904328 19846 net.cpp:141] Setting up inception_3b/relu_1x1
I0403 15:32:36.904366 19846 net.cpp:148] Top shape: 24 128 28 28 (2408448)
I0403 15:32:36.904381 19846 net.cpp:156] Memory required for data: 676774944
I0403 15:32:36.904394 19846 layer_factory.hpp:77] Creating layer inception_3b/3x3_reduce
I0403 15:32:36.904417 19846 net.cpp:91] Creating Layer inception_3b/3x3_reduce
I0403 15:32:36.904434 19846 net.cpp:425] inception_3b/3x3_reduce <- inception_3a/output_inception_3a/output_0_split_1
I0403 15:32:36.904456 19846 net.cpp:399] inception_3b/3x3_reduce -> inception_3b/3x3_reduce
I0403 15:32:36.905616 19846 net.cpp:141] Setting up inception_3b/3x3_reduce
I0403 15:32:36.905643 19846 net.cpp:148] Top shape: 24 128 28 28 (2408448)
I0403 15:32:36.905659 19846 net.cpp:156] Memory required for data: 686408736
I0403 15:32:36.905678 19846 layer_factory.hpp:77] Creating layer inception_3b/relu_3x3_reduce
I0403 15:32:36.905695 19846 net.cpp:91] Creating Layer inception_3b/relu_3x3_reduce
I0403 15:32:36.905711 19846 net.cpp:425] inception_3b/relu_3x3_reduce <- inception_3b/3x3_reduce
I0403 15:32:36.905735 19846 net.cpp:386] inception_3b/relu_3x3_reduce -> inception_3b/3x3_reduce (in-place)
I0403 15:32:36.905905 19846 net.cpp:141] Setting up inception_3b/relu_3x3_reduce
I0403 15:32:36.905930 19846 net.cpp:148] Top shape: 24 128 28 28 (2408448)
I0403 15:32:36.905946 19846 net.cpp:156] Memory required for data: 696042528
I0403 15:32:36.905961 19846 layer_factory.hpp:77] Creating layer inception_3b/3x3
I0403 15:32:36.905990 19846 net.cpp:91] Creating Layer inception_3b/3x3
I0403 15:32:36.906011 19846 net.cpp:425] inception_3b/3x3 <- inception_3b/3x3_reduce
I0403 15:32:36.906030 19846 net.cpp:399] inception_3b/3x3 -> inception_3b/3x3
I0403 15:32:36.909001 19846 net.cpp:141] Setting up inception_3b/3x3
I0403 15:32:36.909030 19846 net.cpp:148] Top shape: 24 192 28 28 (3612672)
I0403 15:32:36.909046 19846 net.cpp:156] Memory required for data: 710493216
I0403 15:32:36.909065 19846 layer_factory.hpp:77] Creating layer inception_3b/relu_3x3
I0403 15:32:36.909085 19846 net.cpp:91] Creating Layer inception_3b/relu_3x3
I0403 15:32:36.909102 19846 net.cpp:425] inception_3b/relu_3x3 <- inception_3b/3x3
I0403 15:32:36.909119 19846 net.cpp:386] inception_3b/relu_3x3 -> inception_3b/3x3 (in-place)
I0403 15:32:36.909412 19846 net.cpp:141] Setting up inception_3b/relu_3x3
I0403 15:32:36.909451 19846 net.cpp:148] Top shape: 24 192 28 28 (3612672)
I0403 15:32:36.909468 19846 net.cpp:156] Memory required for data: 724943904
I0403 15:32:36.909484 19846 layer_factory.hpp:77] Creating layer inception_3b/5x5_reduce
I0403 15:32:36.909520 19846 net.cpp:91] Creating Layer inception_3b/5x5_reduce
I0403 15:32:36.909539 19846 net.cpp:425] inception_3b/5x5_reduce <- inception_3a/output_inception_3a/output_0_split_2
I0403 15:32:36.909560 19846 net.cpp:399] inception_3b/5x5_reduce -> inception_3b/5x5_reduce
I0403 15:32:36.910614 19846 net.cpp:141] Setting up inception_3b/5x5_reduce
I0403 15:32:36.910642 19846 net.cpp:148] Top shape: 24 32 28 28 (602112)
I0403 15:32:36.910660 19846 net.cpp:156] Memory required for data: 727352352
I0403 15:32:36.910678 19846 layer_factory.hpp:77] Creating layer inception_3b/relu_5x5_reduce
I0403 15:32:36.910698 19846 net.cpp:91] Creating Layer inception_3b/relu_5x5_reduce
I0403 15:32:36.910715 19846 net.cpp:425] inception_3b/relu_5x5_reduce <- inception_3b/5x5_reduce
I0403 15:32:36.910733 19846 net.cpp:386] inception_3b/relu_5x5_reduce -> inception_3b/5x5_reduce (in-place)
I0403 15:32:36.910923 19846 net.cpp:141] Setting up inception_3b/relu_5x5_reduce
I0403 15:32:36.910949 19846 net.cpp:148] Top shape: 24 32 28 28 (602112)
I0403 15:32:36.910964 19846 net.cpp:156] Memory required for data: 729760800
I0403 15:32:36.910979 19846 layer_factory.hpp:77] Creating layer inception_3b/5x5
I0403 15:32:36.911007 19846 net.cpp:91] Creating Layer inception_3b/5x5
I0403 15:32:36.911026 19846 net.cpp:425] inception_3b/5x5 <- inception_3b/5x5_reduce
I0403 15:32:36.911046 19846 net.cpp:399] inception_3b/5x5 -> inception_3b/5x5
I0403 15:32:36.913069 19846 net.cpp:141] Setting up inception_3b/5x5
I0403 15:32:36.913100 19846 net.cpp:148] Top shape: 24 96 28 28 (1806336)
I0403 15:32:36.913115 19846 net.cpp:156] Memory required for data: 736986144
I0403 15:32:36.913135 19846 layer_factory.hpp:77] Creating layer inception_3b/relu_5x5
I0403 15:32:36.913153 19846 net.cpp:91] Creating Layer inception_3b/relu_5x5
I0403 15:32:36.913171 19846 net.cpp:425] inception_3b/relu_5x5 <- inception_3b/5x5
I0403 15:32:36.913190 19846 net.cpp:386] inception_3b/relu_5x5 -> inception_3b/5x5 (in-place)
I0403 15:32:36.913398 19846 net.cpp:141] Setting up inception_3b/relu_5x5
I0403 15:32:36.913422 19846 net.cpp:148] Top shape: 24 96 28 28 (1806336)
I0403 15:32:36.913437 19846 net.cpp:156] Memory required for data: 744211488
I0403 15:32:36.913455 19846 layer_factory.hpp:77] Creating layer inception_3b/pool
I0403 15:32:36.913472 19846 net.cpp:91] Creating Layer inception_3b/pool
I0403 15:32:36.913488 19846 net.cpp:425] inception_3b/pool <- inception_3a/output_inception_3a/output_0_split_3
I0403 15:32:36.913507 19846 net.cpp:399] inception_3b/pool -> inception_3b/pool
I0403 15:32:36.913563 19846 net.cpp:141] Setting up inception_3b/pool
I0403 15:32:36.913586 19846 net.cpp:148] Top shape: 24 256 28 28 (4816896)
I0403 15:32:36.913600 19846 net.cpp:156] Memory required for data: 763479072
I0403 15:32:36.913615 19846 layer_factory.hpp:77] Creating layer inception_3b/pool_proj
I0403 15:32:36.913637 19846 net.cpp:91] Creating Layer inception_3b/pool_proj
I0403 15:32:36.913655 19846 net.cpp:425] inception_3b/pool_proj <- inception_3b/pool
I0403 15:32:36.913677 19846 net.cpp:399] inception_3b/pool_proj -> inception_3b/pool_proj
I0403 15:32:36.914722 19846 net.cpp:141] Setting up inception_3b/pool_proj
I0403 15:32:36.914752 19846 net.cpp:148] Top shape: 24 64 28 28 (1204224)
I0403 15:32:36.914769 19846 net.cpp:156] Memory required for data: 768295968
I0403 15:32:36.914788 19846 layer_factory.hpp:77] Creating layer inception_3b/relu_pool_proj
I0403 15:32:36.914805 19846 net.cpp:91] Creating Layer inception_3b/relu_pool_proj
I0403 15:32:36.914822 19846 net.cpp:425] inception_3b/relu_pool_proj <- inception_3b/pool_proj
I0403 15:32:36.914839 19846 net.cpp:386] inception_3b/relu_pool_proj -> inception_3b/pool_proj (in-place)
I0403 15:32:36.915231 19846 net.cpp:141] Setting up inception_3b/relu_pool_proj
I0403 15:32:36.915257 19846 net.cpp:148] Top shape: 24 64 28 28 (1204224)
I0403 15:32:36.915272 19846 net.cpp:156] Memory required for data: 773112864
I0403 15:32:36.915287 19846 layer_factory.hpp:77] Creating layer inception_3b/output
I0403 15:32:36.915307 19846 net.cpp:91] Creating Layer inception_3b/output
I0403 15:32:36.915323 19846 net.cpp:425] inception_3b/output <- inception_3b/1x1
I0403 15:32:36.915340 19846 net.cpp:425] inception_3b/output <- inception_3b/3x3
I0403 15:32:36.915356 19846 net.cpp:425] inception_3b/output <- inception_3b/5x5
I0403 15:32:36.915372 19846 net.cpp:425] inception_3b/output <- inception_3b/pool_proj
I0403 15:32:36.915390 19846 net.cpp:399] inception_3b/output -> inception_3b/output
I0403 15:32:36.915436 19846 net.cpp:141] Setting up inception_3b/output
I0403 15:32:36.915458 19846 net.cpp:148] Top shape: 24 480 28 28 (9031680)
I0403 15:32:36.915473 19846 net.cpp:156] Memory required for data: 809239584
I0403 15:32:36.915488 19846 layer_factory.hpp:77] Creating layer pool3/3x3_s2
I0403 15:32:36.915506 19846 net.cpp:91] Creating Layer pool3/3x3_s2
I0403 15:32:36.915523 19846 net.cpp:425] pool3/3x3_s2 <- inception_3b/output
I0403 15:32:36.915557 19846 net.cpp:399] pool3/3x3_s2 -> pool3/3x3_s2
I0403 15:32:36.915623 19846 net.cpp:141] Setting up pool3/3x3_s2
I0403 15:32:36.915647 19846 net.cpp:148] Top shape: 24 480 14 14 (2257920)
I0403 15:32:36.915663 19846 net.cpp:156] Memory required for data: 818271264
I0403 15:32:36.915678 19846 layer_factory.hpp:77] Creating layer pool3/3x3_s2_pool3/3x3_s2_0_split
I0403 15:32:36.915694 19846 net.cpp:91] Creating Layer pool3/3x3_s2_pool3/3x3_s2_0_split
I0403 15:32:36.915710 19846 net.cpp:425] pool3/3x3_s2_pool3/3x3_s2_0_split <- pool3/3x3_s2
I0403 15:32:36.915730 19846 net.cpp:399] pool3/3x3_s2_pool3/3x3_s2_0_split -> pool3/3x3_s2_pool3/3x3_s2_0_split_0
I0403 15:32:36.915750 19846 net.cpp:399] pool3/3x3_s2_pool3/3x3_s2_0_split -> pool3/3x3_s2_pool3/3x3_s2_0_split_1
I0403 15:32:36.915769 19846 net.cpp:399] pool3/3x3_s2_pool3/3x3_s2_0_split -> pool3/3x3_s2_pool3/3x3_s2_0_split_2
I0403 15:32:36.915788 19846 net.cpp:399] pool3/3x3_s2_pool3/3x3_s2_0_split -> pool3/3x3_s2_pool3/3x3_s2_0_split_3
I0403 15:32:36.915861 19846 net.cpp:141] Setting up pool3/3x3_s2_pool3/3x3_s2_0_split
I0403 15:32:36.915887 19846 net.cpp:148] Top shape: 24 480 14 14 (2257920)
I0403 15:32:36.915904 19846 net.cpp:148] Top shape: 24 480 14 14 (2257920)
I0403 15:32:36.915920 19846 net.cpp:148] Top shape: 24 480 14 14 (2257920)
I0403 15:32:36.915935 19846 net.cpp:148] Top shape: 24 480 14 14 (2257920)
I0403 15:32:36.915949 19846 net.cpp:156] Memory required for data: 854397984
I0403 15:32:36.915964 19846 layer_factory.hpp:77] Creating layer inception_4a/1x1
I0403 15:32:36.915990 19846 net.cpp:91] Creating Layer inception_4a/1x1
I0403 15:32:36.916024 19846 net.cpp:425] inception_4a/1x1 <- pool3/3x3_s2_pool3/3x3_s2_0_split_0
I0403 15:32:36.916044 19846 net.cpp:399] inception_4a/1x1 -> inception_4a/1x1
I0403 15:32:36.917647 19846 net.cpp:141] Setting up inception_4a/1x1
I0403 15:32:36.917680 19846 net.cpp:148] Top shape: 24 192 14 14 (903168)
I0403 15:32:36.917695 19846 net.cpp:156] Memory required for data: 858010656
I0403 15:32:36.917716 19846 layer_factory.hpp:77] Creating layer inception_4a/relu_1x1
I0403 15:32:36.917734 19846 net.cpp:91] Creating Layer inception_4a/relu_1x1
I0403 15:32:36.917749 19846 net.cpp:425] inception_4a/relu_1x1 <- inception_4a/1x1
I0403 15:32:36.917770 19846 net.cpp:386] inception_4a/relu_1x1 -> inception_4a/1x1 (in-place)
I0403 15:32:36.917951 19846 net.cpp:141] Setting up inception_4a/relu_1x1
I0403 15:32:36.917978 19846 net.cpp:148] Top shape: 24 192 14 14 (903168)
I0403 15:32:36.918010 19846 net.cpp:156] Memory required for data: 861623328
I0403 15:32:36.918028 19846 layer_factory.hpp:77] Creating layer inception_4a/3x3_reduce
I0403 15:32:36.918052 19846 net.cpp:91] Creating Layer inception_4a/3x3_reduce
I0403 15:32:36.918071 19846 net.cpp:425] inception_4a/3x3_reduce <- pool3/3x3_s2_pool3/3x3_s2_0_split_1
I0403 15:32:36.918094 19846 net.cpp:399] inception_4a/3x3_reduce -> inception_4a/3x3_reduce
I0403 15:32:36.919420 19846 net.cpp:141] Setting up inception_4a/3x3_reduce
I0403 15:32:36.919451 19846 net.cpp:148] Top shape: 24 96 14 14 (451584)
I0403 15:32:36.919468 19846 net.cpp:156] Memory required for data: 863429664
I0403 15:32:36.919494 19846 layer_factory.hpp:77] Creating layer inception_4a/relu_3x3_reduce
I0403 15:32:36.919515 19846 net.cpp:91] Creating Layer inception_4a/relu_3x3_reduce
I0403 15:32:36.919531 19846 net.cpp:425] inception_4a/relu_3x3_reduce <- inception_4a/3x3_reduce
I0403 15:32:36.919550 19846 net.cpp:386] inception_4a/relu_3x3_reduce -> inception_4a/3x3_reduce (in-place)
I0403 15:32:36.919728 19846 net.cpp:141] Setting up inception_4a/relu_3x3_reduce
I0403 15:32:36.919754 19846 net.cpp:148] Top shape: 24 96 14 14 (451584)
I0403 15:32:36.919770 19846 net.cpp:156] Memory required for data: 865236000
I0403 15:32:36.919785 19846 layer_factory.hpp:77] Creating layer inception_4a/3x3
I0403 15:32:36.919811 19846 net.cpp:91] Creating Layer inception_4a/3x3
I0403 15:32:36.919829 19846 net.cpp:425] inception_4a/3x3 <- inception_4a/3x3_reduce
I0403 15:32:36.919852 19846 net.cpp:399] inception_4a/3x3 -> inception_4a/3x3
I0403 15:32:36.922674 19846 net.cpp:141] Setting up inception_4a/3x3
I0403 15:32:36.922704 19846 net.cpp:148] Top shape: 24 208 14 14 (978432)
I0403 15:32:36.922720 19846 net.cpp:156] Memory required for data: 869149728
I0403 15:32:36.922739 19846 layer_factory.hpp:77] Creating layer inception_4a/relu_3x3
I0403 15:32:36.922758 19846 net.cpp:91] Creating Layer inception_4a/relu_3x3
I0403 15:32:36.922775 19846 net.cpp:425] inception_4a/relu_3x3 <- inception_4a/3x3
I0403 15:32:36.922796 19846 net.cpp:386] inception_4a/relu_3x3 -> inception_4a/3x3 (in-place)
I0403 15:32:36.923108 19846 net.cpp:141] Setting up inception_4a/relu_3x3
I0403 15:32:36.923136 19846 net.cpp:148] Top shape: 24 208 14 14 (978432)
I0403 15:32:36.923152 19846 net.cpp:156] Memory required for data: 873063456
I0403 15:32:36.923168 19846 layer_factory.hpp:77] Creating layer inception_4a/5x5_reduce
I0403 15:32:36.923192 19846 net.cpp:91] Creating Layer inception_4a/5x5_reduce
I0403 15:32:36.923212 19846 net.cpp:425] inception_4a/5x5_reduce <- pool3/3x3_s2_pool3/3x3_s2_0_split_2
I0403 15:32:36.923234 19846 net.cpp:399] inception_4a/5x5_reduce -> inception_4a/5x5_reduce
I0403 15:32:36.924299 19846 net.cpp:141] Setting up inception_4a/5x5_reduce
I0403 15:32:36.924329 19846 net.cpp:148] Top shape: 24 16 14 14 (75264)
I0403 15:32:36.924343 19846 net.cpp:156] Memory required for data: 873364512
I0403 15:32:36.924363 19846 layer_factory.hpp:77] Creating layer inception_4a/relu_5x5_reduce
I0403 15:32:36.924396 19846 net.cpp:91] Creating Layer inception_4a/relu_5x5_reduce
I0403 15:32:36.924414 19846 net.cpp:425] inception_4a/relu_5x5_reduce <- inception_4a/5x5_reduce
I0403 15:32:36.924433 19846 net.cpp:386] inception_4a/relu_5x5_reduce -> inception_4a/5x5_reduce (in-place)
I0403 15:32:36.924624 19846 net.cpp:141] Setting up inception_4a/relu_5x5_reduce
I0403 15:32:36.924654 19846 net.cpp:148] Top shape: 24 16 14 14 (75264)
I0403 15:32:36.924671 19846 net.cpp:156] Memory required for data: 873665568
I0403 15:32:36.924700 19846 layer_factory.hpp:77] Creating layer inception_4a/5x5
I0403 15:32:36.924721 19846 net.cpp:91] Creating Layer inception_4a/5x5
I0403 15:32:36.924737 19846 net.cpp:425] inception_4a/5x5 <- inception_4a/5x5_reduce
I0403 15:32:36.924759 19846 net.cpp:399] inception_4a/5x5 -> inception_4a/5x5
I0403 15:32:36.925891 19846 net.cpp:141] Setting up inception_4a/5x5
I0403 15:32:36.925920 19846 net.cpp:148] Top shape: 24 48 14 14 (225792)
I0403 15:32:36.925937 19846 net.cpp:156] Memory required for data: 874568736
I0403 15:32:36.925958 19846 layer_factory.hpp:77] Creating layer inception_4a/relu_5x5
I0403 15:32:36.925981 19846 net.cpp:91] Creating Layer inception_4a/relu_5x5
I0403 15:32:36.926003 19846 net.cpp:425] inception_4a/relu_5x5 <- inception_4a/5x5
I0403 15:32:36.926023 19846 net.cpp:386] inception_4a/relu_5x5 -> inception_4a/5x5 (in-place)
I0403 15:32:36.926220 19846 net.cpp:141] Setting up inception_4a/relu_5x5
I0403 15:32:36.926246 19846 net.cpp:148] Top shape: 24 48 14 14 (225792)
I0403 15:32:36.926261 19846 net.cpp:156] Memory required for data: 875471904
I0403 15:32:36.926277 19846 layer_factory.hpp:77] Creating layer inception_4a/pool
I0403 15:32:36.926295 19846 net.cpp:91] Creating Layer inception_4a/pool
I0403 15:32:36.926312 19846 net.cpp:425] inception_4a/pool <- pool3/3x3_s2_pool3/3x3_s2_0_split_3
I0403 15:32:36.926333 19846 net.cpp:399] inception_4a/pool -> inception_4a/pool
I0403 15:32:36.926398 19846 net.cpp:141] Setting up inception_4a/pool
I0403 15:32:36.926421 19846 net.cpp:148] Top shape: 24 480 14 14 (2257920)
I0403 15:32:36.926437 19846 net.cpp:156] Memory required for data: 884503584
I0403 15:32:36.926452 19846 layer_factory.hpp:77] Creating layer inception_4a/pool_proj
I0403 15:32:36.926477 19846 net.cpp:91] Creating Layer inception_4a/pool_proj
I0403 15:32:36.926496 19846 net.cpp:425] inception_4a/pool_proj <- inception_4a/pool
I0403 15:32:36.926514 19846 net.cpp:399] inception_4a/pool_proj -> inception_4a/pool_proj
I0403 15:32:36.927739 19846 net.cpp:141] Setting up inception_4a/pool_proj
I0403 15:32:36.927772 19846 net.cpp:148] Top shape: 24 64 14 14 (301056)
I0403 15:32:36.927803 19846 net.cpp:156] Memory required for data: 885707808
I0403 15:32:36.927824 19846 layer_factory.hpp:77] Creating layer inception_4a/relu_pool_proj
I0403 15:32:36.927842 19846 net.cpp:91] Creating Layer inception_4a/relu_pool_proj
I0403 15:32:36.927858 19846 net.cpp:425] inception_4a/relu_pool_proj <- inception_4a/pool_proj
I0403 15:32:36.927881 19846 net.cpp:386] inception_4a/relu_pool_proj -> inception_4a/pool_proj (in-place)
I0403 15:32:36.928176 19846 net.cpp:141] Setting up inception_4a/relu_pool_proj
I0403 15:32:36.928205 19846 net.cpp:148] Top shape: 24 64 14 14 (301056)
I0403 15:32:36.928223 19846 net.cpp:156] Memory required for data: 886912032
I0403 15:32:36.928238 19846 layer_factory.hpp:77] Creating layer inception_4a/output
I0403 15:32:36.928256 19846 net.cpp:91] Creating Layer inception_4a/output
I0403 15:32:36.928273 19846 net.cpp:425] inception_4a/output <- inception_4a/1x1
I0403 15:32:36.928290 19846 net.cpp:425] inception_4a/output <- inception_4a/3x3
I0403 15:32:36.928308 19846 net.cpp:425] inception_4a/output <- inception_4a/5x5
I0403 15:32:36.928324 19846 net.cpp:425] inception_4a/output <- inception_4a/pool_proj
I0403 15:32:36.928344 19846 net.cpp:399] inception_4a/output -> inception_4a/output
I0403 15:32:36.928390 19846 net.cpp:141] Setting up inception_4a/output
I0403 15:32:36.928413 19846 net.cpp:148] Top shape: 24 512 14 14 (2408448)
I0403 15:32:36.928429 19846 net.cpp:156] Memory required for data: 896545824
I0403 15:32:36.928444 19846 layer_factory.hpp:77] Creating layer inception_4a/output_inception_4a/output_0_split
I0403 15:32:36.928465 19846 net.cpp:91] Creating Layer inception_4a/output_inception_4a/output_0_split
I0403 15:32:36.928483 19846 net.cpp:425] inception_4a/output_inception_4a/output_0_split <- inception_4a/output
I0403 15:32:36.928500 19846 net.cpp:399] inception_4a/output_inception_4a/output_0_split -> inception_4a/output_inception_4a/output_0_split_0
I0403 15:32:36.928521 19846 net.cpp:399] inception_4a/output_inception_4a/output_0_split -> inception_4a/output_inception_4a/output_0_split_1
I0403 15:32:36.928545 19846 net.cpp:399] inception_4a/output_inception_4a/output_0_split -> inception_4a/output_inception_4a/output_0_split_2
I0403 15:32:36.928567 19846 net.cpp:399] inception_4a/output_inception_4a/output_0_split -> inception_4a/output_inception_4a/output_0_split_3
I0403 15:32:36.928601 19846 net.cpp:399] inception_4a/output_inception_4a/output_0_split -> inception_4a/output_inception_4a/output_0_split_4
I0403 15:32:36.928696 19846 net.cpp:141] Setting up inception_4a/output_inception_4a/output_0_split
I0403 15:32:36.928721 19846 net.cpp:148] Top shape: 24 512 14 14 (2408448)
I0403 15:32:36.928738 19846 net.cpp:148] Top shape: 24 512 14 14 (2408448)
I0403 15:32:36.928755 19846 net.cpp:148] Top shape: 24 512 14 14 (2408448)
I0403 15:32:36.928772 19846 net.cpp:148] Top shape: 24 512 14 14 (2408448)
I0403 15:32:36.928789 19846 net.cpp:148] Top shape: 24 512 14 14 (2408448)
I0403 15:32:36.928803 19846 net.cpp:156] Memory required for data: 944714784
I0403 15:32:36.928819 19846 layer_factory.hpp:77] Creating layer loss1/ave_pool
I0403 15:32:36.928841 19846 net.cpp:91] Creating Layer loss1/ave_pool
I0403 15:32:36.928859 19846 net.cpp:425] loss1/ave_pool <- inception_4a/output_inception_4a/output_0_split_0
I0403 15:32:36.928891 19846 net.cpp:399] loss1/ave_pool -> loss1/ave_pool
I0403 15:32:36.929113 19846 net.cpp:141] Setting up loss1/ave_pool
I0403 15:32:36.929142 19846 net.cpp:148] Top shape: 24 512 4 4 (196608)
I0403 15:32:36.929159 19846 net.cpp:156] Memory required for data: 945501216
I0403 15:32:36.929175 19846 layer_factory.hpp:77] Creating layer loss1/conv
I0403 15:32:36.929198 19846 net.cpp:91] Creating Layer loss1/conv
I0403 15:32:36.929216 19846 net.cpp:425] loss1/conv <- loss1/ave_pool
I0403 15:32:36.929235 19846 net.cpp:399] loss1/conv -> loss1/conv
I0403 15:32:36.930676 19846 net.cpp:141] Setting up loss1/conv
I0403 15:32:36.930706 19846 net.cpp:148] Top shape: 24 128 4 4 (49152)
I0403 15:32:36.930735 19846 net.cpp:156] Memory required for data: 945697824
I0403 15:32:36.930757 19846 layer_factory.hpp:77] Creating layer loss1/relu_conv
I0403 15:32:36.930775 19846 net.cpp:91] Creating Layer loss1/relu_conv
I0403 15:32:36.930791 19846 net.cpp:425] loss1/relu_conv <- loss1/conv
I0403 15:32:36.930812 19846 net.cpp:386] loss1/relu_conv -> loss1/conv (in-place)
I0403 15:32:36.931109 19846 net.cpp:141] Setting up loss1/relu_conv
I0403 15:32:36.931138 19846 net.cpp:148] Top shape: 24 128 4 4 (49152)
I0403 15:32:36.931152 19846 net.cpp:156] Memory required for data: 945894432
I0403 15:32:36.931169 19846 layer_factory.hpp:77] Creating layer loss1/fc
I0403 15:32:36.931192 19846 net.cpp:91] Creating Layer loss1/fc
I0403 15:32:36.931211 19846 net.cpp:425] loss1/fc <- loss1/conv
I0403 15:32:36.931233 19846 net.cpp:399] loss1/fc -> loss1/fc
I0403 15:32:36.949144 19846 net.cpp:141] Setting up loss1/fc
I0403 15:32:36.949178 19846 net.cpp:148] Top shape: 24 1024 (24576)
I0403 15:32:36.949193 19846 net.cpp:156] Memory required for data: 945992736
I0403 15:32:36.949213 19846 layer_factory.hpp:77] Creating layer loss1/relu_fc
I0403 15:32:36.949230 19846 net.cpp:91] Creating Layer loss1/relu_fc
I0403 15:32:36.949246 19846 net.cpp:425] loss1/relu_fc <- loss1/fc
I0403 15:32:36.949265 19846 net.cpp:386] loss1/relu_fc -> loss1/fc (in-place)
I0403 15:32:36.949450 19846 net.cpp:141] Setting up loss1/relu_fc
I0403 15:32:36.949473 19846 net.cpp:148] Top shape: 24 1024 (24576)
I0403 15:32:36.949487 19846 net.cpp:156] Memory required for data: 946091040
I0403 15:32:36.949502 19846 layer_factory.hpp:77] Creating layer loss1/drop_fc
I0403 15:32:36.949527 19846 net.cpp:91] Creating Layer loss1/drop_fc
I0403 15:32:36.949545 19846 net.cpp:425] loss1/drop_fc <- loss1/fc
I0403 15:32:36.949564 19846 net.cpp:386] loss1/drop_fc -> loss1/fc (in-place)
I0403 15:32:36.949615 19846 net.cpp:141] Setting up loss1/drop_fc
I0403 15:32:36.949640 19846 net.cpp:148] Top shape: 24 1024 (24576)
I0403 15:32:36.949654 19846 net.cpp:156] Memory required for data: 946189344
I0403 15:32:36.949669 19846 layer_factory.hpp:77] Creating layer loss1/classifier_plantvillage
I0403 15:32:36.949687 19846 net.cpp:91] Creating Layer loss1/classifier_plantvillage
I0403 15:32:36.949703 19846 net.cpp:425] loss1/classifier_plantvillage <- loss1/fc
I0403 15:32:36.949724 19846 net.cpp:399] loss1/classifier_plantvillage -> loss1/classifier_plantvillage
I0403 15:32:36.950649 19846 net.cpp:141] Setting up loss1/classifier_plantvillage
I0403 15:32:36.950675 19846 net.cpp:148] Top shape: 24 38 (912)
I0403 15:32:36.950690 19846 net.cpp:156] Memory required for data: 946192992
I0403 15:32:36.950708 19846 layer_factory.hpp:77] Creating layer loss1/classifier_plantvillage_loss1/classifier_plantvillage_0_split
I0403 15:32:36.950726 19846 net.cpp:91] Creating Layer loss1/classifier_plantvillage_loss1/classifier_plantvillage_0_split
I0403 15:32:36.950742 19846 net.cpp:425] loss1/classifier_plantvillage_loss1/classifier_plantvillage_0_split <- loss1/classifier_plantvillage
I0403 15:32:36.950762 19846 net.cpp:399] loss1/classifier_plantvillage_loss1/classifier_plantvillage_0_split -> loss1/classifier_plantvillage_loss1/classifier_plantvillage_0_split_0
I0403 15:32:36.950783 19846 net.cpp:399] loss1/classifier_plantvillage_loss1/classifier_plantvillage_0_split -> loss1/classifier_plantvillage_loss1/classifier_plantvillage_0_split_1
I0403 15:32:36.950803 19846 net.cpp:399] loss1/classifier_plantvillage_loss1/classifier_plantvillage_0_split -> loss1/classifier_plantvillage_loss1/classifier_plantvillage_0_split_2
I0403 15:32:36.950870 19846 net.cpp:141] Setting up loss1/classifier_plantvillage_loss1/classifier_plantvillage_0_split
I0403 15:32:36.950891 19846 net.cpp:148] Top shape: 24 38 (912)
I0403 15:32:36.950907 19846 net.cpp:148] Top shape: 24 38 (912)
I0403 15:32:36.950923 19846 net.cpp:148] Top shape: 24 38 (912)
I0403 15:32:36.950937 19846 net.cpp:156] Memory required for data: 946203936
I0403 15:32:36.950952 19846 layer_factory.hpp:77] Creating layer inception_4b/1x1
I0403 15:32:36.950973 19846 net.cpp:91] Creating Layer inception_4b/1x1
I0403 15:32:36.951025 19846 net.cpp:425] inception_4b/1x1 <- inception_4a/output_inception_4a/output_0_split_1
I0403 15:32:36.951047 19846 net.cpp:399] inception_4b/1x1 -> inception_4b/1x1
I0403 15:32:36.952769 19846 net.cpp:141] Setting up inception_4b/1x1
I0403 15:32:36.952797 19846 net.cpp:148] Top shape: 24 160 14 14 (752640)
I0403 15:32:36.952813 19846 net.cpp:156] Memory required for data: 949214496
I0403 15:32:36.952831 19846 layer_factory.hpp:77] Creating layer inception_4b/relu_1x1
I0403 15:32:36.952852 19846 net.cpp:91] Creating Layer inception_4b/relu_1x1
I0403 15:32:36.952868 19846 net.cpp:425] inception_4b/relu_1x1 <- inception_4b/1x1
I0403 15:32:36.952885 19846 net.cpp:386] inception_4b/relu_1x1 -> inception_4b/1x1 (in-place)
I0403 15:32:36.953064 19846 net.cpp:141] Setting up inception_4b/relu_1x1
I0403 15:32:36.953091 19846 net.cpp:148] Top shape: 24 160 14 14 (752640)
I0403 15:32:36.953106 19846 net.cpp:156] Memory required for data: 952225056
I0403 15:32:36.953121 19846 layer_factory.hpp:77] Creating layer inception_4b/3x3_reduce
I0403 15:32:36.953141 19846 net.cpp:91] Creating Layer inception_4b/3x3_reduce
I0403 15:32:36.953158 19846 net.cpp:425] inception_4b/3x3_reduce <- inception_4a/output_inception_4a/output_0_split_2
I0403 15:32:36.953179 19846 net.cpp:399] inception_4b/3x3_reduce -> inception_4b/3x3_reduce
I0403 15:32:36.954536 19846 net.cpp:141] Setting up inception_4b/3x3_reduce
I0403 15:32:36.954566 19846 net.cpp:148] Top shape: 24 112 14 14 (526848)
I0403 15:32:36.954581 19846 net.cpp:156] Memory required for data: 954332448
I0403 15:32:36.954612 19846 layer_factory.hpp:77] Creating layer inception_4b/relu_3x3_reduce
I0403 15:32:36.954634 19846 net.cpp:91] Creating Layer inception_4b/relu_3x3_reduce
I0403 15:32:36.954650 19846 net.cpp:425] inception_4b/relu_3x3_reduce <- inception_4b/3x3_reduce
I0403 15:32:36.954668 19846 net.cpp:386] inception_4b/relu_3x3_reduce -> inception_4b/3x3_reduce (in-place)
I0403 15:32:36.954958 19846 net.cpp:141] Setting up inception_4b/relu_3x3_reduce
I0403 15:32:36.954988 19846 net.cpp:148] Top shape: 24 112 14 14 (526848)
I0403 15:32:36.955005 19846 net.cpp:156] Memory required for data: 956439840
I0403 15:32:36.955021 19846 layer_factory.hpp:77] Creating layer inception_4b/3x3
I0403 15:32:36.955044 19846 net.cpp:91] Creating Layer inception_4b/3x3
I0403 15:32:36.955065 19846 net.cpp:425] inception_4b/3x3 <- inception_4b/3x3_reduce
I0403 15:32:36.955090 19846 net.cpp:399] inception_4b/3x3 -> inception_4b/3x3
I0403 15:32:36.958075 19846 net.cpp:141] Setting up inception_4b/3x3
I0403 15:32:36.958106 19846 net.cpp:148] Top shape: 24 224 14 14 (1053696)
I0403 15:32:36.958122 19846 net.cpp:156] Memory required for data: 960654624
I0403 15:32:36.958139 19846 layer_factory.hpp:77] Creating layer inception_4b/relu_3x3
I0403 15:32:36.958158 19846 net.cpp:91] Creating Layer inception_4b/relu_3x3
I0403 15:32:36.958173 19846 net.cpp:425] inception_4b/relu_3x3 <- inception_4b/3x3
I0403 15:32:36.958194 19846 net.cpp:386] inception_4b/relu_3x3 -> inception_4b/3x3 (in-place)
I0403 15:32:36.958380 19846 net.cpp:141] Setting up inception_4b/relu_3x3
I0403 15:32:36.958405 19846 net.cpp:148] Top shape: 24 224 14 14 (1053696)
I0403 15:32:36.958420 19846 net.cpp:156] Memory required for data: 964869408
I0403 15:32:36.958436 19846 layer_factory.hpp:77] Creating layer inception_4b/5x5_reduce
I0403 15:32:36.958457 19846 net.cpp:91] Creating Layer inception_4b/5x5_reduce
I0403 15:32:36.958475 19846 net.cpp:425] inception_4b/5x5_reduce <- inception_4a/output_inception_4a/output_0_split_3
I0403 15:32:36.958498 19846 net.cpp:399] inception_4b/5x5_reduce -> inception_4b/5x5_reduce
I0403 15:32:36.959594 19846 net.cpp:141] Setting up inception_4b/5x5_reduce
I0403 15:32:36.959620 19846 net.cpp:148] Top shape: 24 24 14 14 (112896)
I0403 15:32:36.959636 19846 net.cpp:156] Memory required for data: 965320992
I0403 15:32:36.959655 19846 layer_factory.hpp:77] Creating layer inception_4b/relu_5x5_reduce
I0403 15:32:36.959676 19846 net.cpp:91] Creating Layer inception_4b/relu_5x5_reduce
I0403 15:32:36.959705 19846 net.cpp:425] inception_4b/relu_5x5_reduce <- inception_4b/5x5_reduce
I0403 15:32:36.959724 19846 net.cpp:386] inception_4b/relu_5x5_reduce -> inception_4b/5x5_reduce (in-place)
I0403 15:32:36.959905 19846 net.cpp:141] Setting up inception_4b/relu_5x5_reduce
I0403 15:32:36.959931 19846 net.cpp:148] Top shape: 24 24 14 14 (112896)
I0403 15:32:36.959947 19846 net.cpp:156] Memory required for data: 965772576
I0403 15:32:36.959962 19846 layer_factory.hpp:77] Creating layer inception_4b/5x5
I0403 15:32:36.959983 19846 net.cpp:91] Creating Layer inception_4b/5x5
I0403 15:32:36.960021 19846 net.cpp:425] inception_4b/5x5 <- inception_4b/5x5_reduce
I0403 15:32:36.960041 19846 net.cpp:399] inception_4b/5x5 -> inception_4b/5x5
I0403 15:32:36.961267 19846 net.cpp:141] Setting up inception_4b/5x5
I0403 15:32:36.961295 19846 net.cpp:148] Top shape: 24 64 14 14 (301056)
I0403 15:32:36.961311 19846 net.cpp:156] Memory required for data: 966976800
I0403 15:32:36.961329 19846 layer_factory.hpp:77] Creating layer inception_4b/relu_5x5
I0403 15:32:36.961362 19846 net.cpp:91] Creating Layer inception_4b/relu_5x5
I0403 15:32:36.961380 19846 net.cpp:425] inception_4b/relu_5x5 <- inception_4b/5x5
I0403 15:32:36.961397 19846 net.cpp:386] inception_4b/relu_5x5 -> inception_4b/5x5 (in-place)
I0403 15:32:36.961673 19846 net.cpp:141] Setting up inception_4b/relu_5x5
I0403 15:32:36.961699 19846 net.cpp:148] Top shape: 24 64 14 14 (301056)
I0403 15:32:36.961714 19846 net.cpp:156] Memory required for data: 968181024
I0403 15:32:36.961729 19846 layer_factory.hpp:77] Creating layer inception_4b/pool
I0403 15:32:36.961746 19846 net.cpp:91] Creating Layer inception_4b/pool
I0403 15:32:36.961762 19846 net.cpp:425] inception_4b/pool <- inception_4a/output_inception_4a/output_0_split_4
I0403 15:32:36.961784 19846 net.cpp:399] inception_4b/pool -> inception_4b/pool
I0403 15:32:36.961850 19846 net.cpp:141] Setting up inception_4b/pool
I0403 15:32:36.961874 19846 net.cpp:148] Top shape: 24 512 14 14 (2408448)
I0403 15:32:36.961887 19846 net.cpp:156] Memory required for data: 977814816
I0403 15:32:36.961902 19846 layer_factory.hpp:77] Creating layer inception_4b/pool_proj
I0403 15:32:36.961925 19846 net.cpp:91] Creating Layer inception_4b/pool_proj
I0403 15:32:36.961941 19846 net.cpp:425] inception_4b/pool_proj <- inception_4b/pool
I0403 15:32:36.961962 19846 net.cpp:399] inception_4b/pool_proj -> inception_4b/pool_proj
I0403 15:32:36.963210 19846 net.cpp:141] Setting up inception_4b/pool_proj
I0403 15:32:36.963238 19846 net.cpp:148] Top shape: 24 64 14 14 (301056)
I0403 15:32:36.963253 19846 net.cpp:156] Memory required for data: 979019040
I0403 15:32:36.963273 19846 layer_factory.hpp:77] Creating layer inception_4b/relu_pool_proj
I0403 15:32:36.963292 19846 net.cpp:91] Creating Layer inception_4b/relu_pool_proj
I0403 15:32:36.963310 19846 net.cpp:425] inception_4b/relu_pool_proj <- inception_4b/pool_proj
I0403 15:32:36.963327 19846 net.cpp:386] inception_4b/relu_pool_proj -> inception_4b/pool_proj (in-place)
I0403 15:32:36.963503 19846 net.cpp:141] Setting up inception_4b/relu_pool_proj
I0403 15:32:36.963531 19846 net.cpp:148] Top shape: 24 64 14 14 (301056)
I0403 15:32:36.963546 19846 net.cpp:156] Memory required for data: 980223264
I0403 15:32:36.963562 19846 layer_factory.hpp:77] Creating layer inception_4b/output
I0403 15:32:36.963579 19846 net.cpp:91] Creating Layer inception_4b/output
I0403 15:32:36.963594 19846 net.cpp:425] inception_4b/output <- inception_4b/1x1
I0403 15:32:36.963610 19846 net.cpp:425] inception_4b/output <- inception_4b/3x3
I0403 15:32:36.963626 19846 net.cpp:425] inception_4b/output <- inception_4b/5x5
I0403 15:32:36.963641 19846 net.cpp:425] inception_4b/output <- inception_4b/pool_proj
I0403 15:32:36.963659 19846 net.cpp:399] inception_4b/output -> inception_4b/output
I0403 15:32:36.963704 19846 net.cpp:141] Setting up inception_4b/output
I0403 15:32:36.963728 19846 net.cpp:148] Top shape: 24 512 14 14 (2408448)
I0403 15:32:36.963743 19846 net.cpp:156] Memory required for data: 989857056
I0403 15:32:36.963771 19846 layer_factory.hpp:77] Creating layer inception_4b/output_inception_4b/output_0_split
I0403 15:32:36.963791 19846 net.cpp:91] Creating Layer inception_4b/output_inception_4b/output_0_split
I0403 15:32:36.963809 19846 net.cpp:425] inception_4b/output_inception_4b/output_0_split <- inception_4b/output
I0403 15:32:36.963825 19846 net.cpp:399] inception_4b/output_inception_4b/output_0_split -> inception_4b/output_inception_4b/output_0_split_0
I0403 15:32:36.963845 19846 net.cpp:399] inception_4b/output_inception_4b/output_0_split -> inception_4b/output_inception_4b/output_0_split_1
I0403 15:32:36.963865 19846 net.cpp:399] inception_4b/output_inception_4b/output_0_split -> inception_4b/output_inception_4b/output_0_split_2
I0403 15:32:36.963886 19846 net.cpp:399] inception_4b/output_inception_4b/output_0_split -> inception_4b/output_inception_4b/output_0_split_3
I0403 15:32:36.963968 19846 net.cpp:141] Setting up inception_4b/output_inception_4b/output_0_split
I0403 15:32:36.963994 19846 net.cpp:148] Top shape: 24 512 14 14 (2408448)
I0403 15:32:36.964013 19846 net.cpp:148] Top shape: 24 512 14 14 (2408448)
I0403 15:32:36.964028 19846 net.cpp:148] Top shape: 24 512 14 14 (2408448)
I0403 15:32:36.964045 19846 net.cpp:148] Top shape: 24 512 14 14 (2408448)
I0403 15:32:36.964058 19846 net.cpp:156] Memory required for data: 1028392224
I0403 15:32:36.964073 19846 layer_factory.hpp:77] Creating layer inception_4c/1x1
I0403 15:32:36.964095 19846 net.cpp:91] Creating Layer inception_4c/1x1
I0403 15:32:36.964112 19846 net.cpp:425] inception_4c/1x1 <- inception_4b/output_inception_4b/output_0_split_0
I0403 15:32:36.964133 19846 net.cpp:399] inception_4c/1x1 -> inception_4c/1x1
I0403 15:32:36.965589 19846 net.cpp:141] Setting up inception_4c/1x1
I0403 15:32:36.965620 19846 net.cpp:148] Top shape: 24 128 14 14 (602112)
I0403 15:32:36.965638 19846 net.cpp:156] Memory required for data: 1030800672
I0403 15:32:36.965657 19846 layer_factory.hpp:77] Creating layer inception_4c/relu_1x1
I0403 15:32:36.965675 19846 net.cpp:91] Creating Layer inception_4c/relu_1x1
I0403 15:32:36.965692 19846 net.cpp:425] inception_4c/relu_1x1 <- inception_4c/1x1
I0403 15:32:36.965709 19846 net.cpp:386] inception_4c/relu_1x1 -> inception_4c/1x1 (in-place)
I0403 15:32:36.965908 19846 net.cpp:141] Setting up inception_4c/relu_1x1
I0403 15:32:36.965932 19846 net.cpp:148] Top shape: 24 128 14 14 (602112)
I0403 15:32:36.965948 19846 net.cpp:156] Memory required for data: 1033209120
I0403 15:32:36.965963 19846 layer_factory.hpp:77] Creating layer inception_4c/3x3_reduce
I0403 15:32:36.965994 19846 net.cpp:91] Creating Layer inception_4c/3x3_reduce
I0403 15:32:36.966014 19846 net.cpp:425] inception_4c/3x3_reduce <- inception_4b/output_inception_4b/output_0_split_1
I0403 15:32:36.966039 19846 net.cpp:399] inception_4c/3x3_reduce -> inception_4c/3x3_reduce
I0403 15:32:36.968154 19846 net.cpp:141] Setting up inception_4c/3x3_reduce
I0403 15:32:36.968184 19846 net.cpp:148] Top shape: 24 128 14 14 (602112)
I0403 15:32:36.968202 19846 net.cpp:156] Memory required for data: 1035617568
I0403 15:32:36.968222 19846 layer_factory.hpp:77] Creating layer inception_4c/relu_3x3_reduce
I0403 15:32:36.968255 19846 net.cpp:91] Creating Layer inception_4c/relu_3x3_reduce
I0403 15:32:36.968274 19846 net.cpp:425] inception_4c/relu_3x3_reduce <- inception_4c/3x3_reduce
I0403 15:32:36.968292 19846 net.cpp:386] inception_4c/relu_3x3_reduce -> inception_4c/3x3_reduce (in-place)
I0403 15:32:36.968600 19846 net.cpp:141] Setting up inception_4c/relu_3x3_reduce
I0403 15:32:36.968626 19846 net.cpp:148] Top shape: 24 128 14 14 (602112)
I0403 15:32:36.968641 19846 net.cpp:156] Memory required for data: 1038026016
I0403 15:32:36.968655 19846 layer_factory.hpp:77] Creating layer inception_4c/3x3
I0403 15:32:36.968678 19846 net.cpp:91] Creating Layer inception_4c/3x3
I0403 15:32:36.968696 19846 net.cpp:425] inception_4c/3x3 <- inception_4c/3x3_reduce
I0403 15:32:36.968719 19846 net.cpp:399] inception_4c/3x3 -> inception_4c/3x3
I0403 15:32:36.972400 19846 net.cpp:141] Setting up inception_4c/3x3
I0403 15:32:36.972441 19846 net.cpp:148] Top shape: 24 256 14 14 (1204224)
I0403 15:32:36.972458 19846 net.cpp:156] Memory required for data: 1042842912
I0403 15:32:36.972491 19846 layer_factory.hpp:77] Creating layer inception_4c/relu_3x3
I0403 15:32:36.972513 19846 net.cpp:91] Creating Layer inception_4c/relu_3x3
I0403 15:32:36.972530 19846 net.cpp:425] inception_4c/relu_3x3 <- inception_4c/3x3
I0403 15:32:36.972548 19846 net.cpp:386] inception_4c/relu_3x3 -> inception_4c/3x3 (in-place)
I0403 15:32:36.972731 19846 net.cpp:141] Setting up inception_4c/relu_3x3
I0403 15:32:36.972756 19846 net.cpp:148] Top shape: 24 256 14 14 (1204224)
I0403 15:32:36.972771 19846 net.cpp:156] Memory required for data: 1047659808
I0403 15:32:36.972786 19846 layer_factory.hpp:77] Creating layer inception_4c/5x5_reduce
I0403 15:32:36.972808 19846 net.cpp:91] Creating Layer inception_4c/5x5_reduce
I0403 15:32:36.972826 19846 net.cpp:425] inception_4c/5x5_reduce <- inception_4b/output_inception_4b/output_0_split_2
I0403 15:32:36.972848 19846 net.cpp:399] inception_4c/5x5_reduce -> inception_4c/5x5_reduce
I0403 15:32:36.973947 19846 net.cpp:141] Setting up inception_4c/5x5_reduce
I0403 15:32:36.973974 19846 net.cpp:148] Top shape: 24 24 14 14 (112896)
I0403 15:32:36.973994 19846 net.cpp:156] Memory required for data: 1048111392
I0403 15:32:36.974014 19846 layer_factory.hpp:77] Creating layer inception_4c/relu_5x5_reduce
I0403 15:32:36.974035 19846 net.cpp:91] Creating Layer inception_4c/relu_5x5_reduce
I0403 15:32:36.974056 19846 net.cpp:425] inception_4c/relu_5x5_reduce <- inception_4c/5x5_reduce
I0403 15:32:36.974073 19846 net.cpp:386] inception_4c/relu_5x5_reduce -> inception_4c/5x5_reduce (in-place)
I0403 15:32:36.974261 19846 net.cpp:141] Setting up inception_4c/relu_5x5_reduce
I0403 15:32:36.974287 19846 net.cpp:148] Top shape: 24 24 14 14 (112896)
I0403 15:32:36.974303 19846 net.cpp:156] Memory required for data: 1048562976
I0403 15:32:36.974318 19846 layer_factory.hpp:77] Creating layer inception_4c/5x5
I0403 15:32:36.974344 19846 net.cpp:91] Creating Layer inception_4c/5x5
I0403 15:32:36.974361 19846 net.cpp:425] inception_4c/5x5 <- inception_4c/5x5_reduce
I0403 15:32:36.974381 19846 net.cpp:399] inception_4c/5x5 -> inception_4c/5x5
I0403 15:32:36.975692 19846 net.cpp:141] Setting up inception_4c/5x5
I0403 15:32:36.975723 19846 net.cpp:148] Top shape: 24 64 14 14 (301056)
I0403 15:32:36.975740 19846 net.cpp:156] Memory required for data: 1049767200
I0403 15:32:36.975759 19846 layer_factory.hpp:77] Creating layer inception_4c/relu_5x5
I0403 15:32:36.975777 19846 net.cpp:91] Creating Layer inception_4c/relu_5x5
I0403 15:32:36.975793 19846 net.cpp:425] inception_4c/relu_5x5 <- inception_4c/5x5
I0403 15:32:36.975811 19846 net.cpp:386] inception_4c/relu_5x5 -> inception_4c/5x5 (in-place)
I0403 15:32:36.976104 19846 net.cpp:141] Setting up inception_4c/relu_5x5
I0403 15:32:36.976131 19846 net.cpp:148] Top shape: 24 64 14 14 (301056)
I0403 15:32:36.976148 19846 net.cpp:156] Memory required for data: 1050971424
I0403 15:32:36.976164 19846 layer_factory.hpp:77] Creating layer inception_4c/pool
I0403 15:32:36.976182 19846 net.cpp:91] Creating Layer inception_4c/pool
I0403 15:32:36.976198 19846 net.cpp:425] inception_4c/pool <- inception_4b/output_inception_4b/output_0_split_3
I0403 15:32:36.976217 19846 net.cpp:399] inception_4c/pool -> inception_4c/pool
I0403 15:32:36.976284 19846 net.cpp:141] Setting up inception_4c/pool
I0403 15:32:36.976308 19846 net.cpp:148] Top shape: 24 512 14 14 (2408448)
I0403 15:32:36.976323 19846 net.cpp:156] Memory required for data: 1060605216
I0403 15:32:36.976338 19846 layer_factory.hpp:77] Creating layer inception_4c/pool_proj
I0403 15:32:36.976361 19846 net.cpp:91] Creating Layer inception_4c/pool_proj
I0403 15:32:36.976378 19846 net.cpp:425] inception_4c/pool_proj <- inception_4c/pool
I0403 15:32:36.976399 19846 net.cpp:399] inception_4c/pool_proj -> inception_4c/pool_proj
I0403 15:32:36.977658 19846 net.cpp:141] Setting up inception_4c/pool_proj
I0403 15:32:36.977686 19846 net.cpp:148] Top shape: 24 64 14 14 (301056)
I0403 15:32:36.977716 19846 net.cpp:156] Memory required for data: 1061809440
I0403 15:32:36.977735 19846 layer_factory.hpp:77] Creating layer inception_4c/relu_pool_proj
I0403 15:32:36.977757 19846 net.cpp:91] Creating Layer inception_4c/relu_pool_proj
I0403 15:32:36.977776 19846 net.cpp:425] inception_4c/relu_pool_proj <- inception_4c/pool_proj
I0403 15:32:36.977793 19846 net.cpp:386] inception_4c/relu_pool_proj -> inception_4c/pool_proj (in-place)
I0403 15:32:36.977977 19846 net.cpp:141] Setting up inception_4c/relu_pool_proj
I0403 15:32:36.978014 19846 net.cpp:148] Top shape: 24 64 14 14 (301056)
I0403 15:32:36.978032 19846 net.cpp:156] Memory required for data: 1063013664
I0403 15:32:36.978047 19846 layer_factory.hpp:77] Creating layer inception_4c/output
I0403 15:32:36.978065 19846 net.cpp:91] Creating Layer inception_4c/output
I0403 15:32:36.978081 19846 net.cpp:425] inception_4c/output <- inception_4c/1x1
I0403 15:32:36.978097 19846 net.cpp:425] inception_4c/output <- inception_4c/3x3
I0403 15:32:36.978113 19846 net.cpp:425] inception_4c/output <- inception_4c/5x5
I0403 15:32:36.978129 19846 net.cpp:425] inception_4c/output <- inception_4c/pool_proj
I0403 15:32:36.978147 19846 net.cpp:399] inception_4c/output -> inception_4c/output
I0403 15:32:36.978196 19846 net.cpp:141] Setting up inception_4c/output
I0403 15:32:36.978220 19846 net.cpp:148] Top shape: 24 512 14 14 (2408448)
I0403 15:32:36.978235 19846 net.cpp:156] Memory required for data: 1072647456
I0403 15:32:36.978260 19846 layer_factory.hpp:77] Creating layer inception_4c/output_inception_4c/output_0_split
I0403 15:32:36.978282 19846 net.cpp:91] Creating Layer inception_4c/output_inception_4c/output_0_split
I0403 15:32:36.978299 19846 net.cpp:425] inception_4c/output_inception_4c/output_0_split <- inception_4c/output
I0403 15:32:36.978317 19846 net.cpp:399] inception_4c/output_inception_4c/output_0_split -> inception_4c/output_inception_4c/output_0_split_0
I0403 15:32:36.978338 19846 net.cpp:399] inception_4c/output_inception_4c/output_0_split -> inception_4c/output_inception_4c/output_0_split_1
I0403 15:32:36.978356 19846 net.cpp:399] inception_4c/output_inception_4c/output_0_split -> inception_4c/output_inception_4c/output_0_split_2
I0403 15:32:36.978376 19846 net.cpp:399] inception_4c/output_inception_4c/output_0_split -> inception_4c/output_inception_4c/output_0_split_3
I0403 15:32:36.978462 19846 net.cpp:141] Setting up inception_4c/output_inception_4c/output_0_split
I0403 15:32:36.978485 19846 net.cpp:148] Top shape: 24 512 14 14 (2408448)
I0403 15:32:36.978502 19846 net.cpp:148] Top shape: 24 512 14 14 (2408448)
I0403 15:32:36.978518 19846 net.cpp:148] Top shape: 24 512 14 14 (2408448)
I0403 15:32:36.978533 19846 net.cpp:148] Top shape: 24 512 14 14 (2408448)
I0403 15:32:36.978548 19846 net.cpp:156] Memory required for data: 1111182624
I0403 15:32:36.978561 19846 layer_factory.hpp:77] Creating layer inception_4d/1x1
I0403 15:32:36.978585 19846 net.cpp:91] Creating Layer inception_4d/1x1
I0403 15:32:36.978605 19846 net.cpp:425] inception_4d/1x1 <- inception_4c/output_inception_4c/output_0_split_0
I0403 15:32:36.978626 19846 net.cpp:399] inception_4d/1x1 -> inception_4d/1x1
I0403 15:32:36.980031 19846 net.cpp:141] Setting up inception_4d/1x1
I0403 15:32:36.980060 19846 net.cpp:148] Top shape: 24 112 14 14 (526848)
I0403 15:32:36.980077 19846 net.cpp:156] Memory required for data: 1113290016
I0403 15:32:36.980096 19846 layer_factory.hpp:77] Creating layer inception_4d/relu_1x1
I0403 15:32:36.980114 19846 net.cpp:91] Creating Layer inception_4d/relu_1x1
I0403 15:32:36.980130 19846 net.cpp:425] inception_4d/relu_1x1 <- inception_4d/1x1
I0403 15:32:36.980151 19846 net.cpp:386] inception_4d/relu_1x1 -> inception_4d/1x1 (in-place)
I0403 15:32:36.980353 19846 net.cpp:141] Setting up inception_4d/relu_1x1
I0403 15:32:36.980378 19846 net.cpp:148] Top shape: 24 112 14 14 (526848)
I0403 15:32:36.980393 19846 net.cpp:156] Memory required for data: 1115397408
I0403 15:32:36.980408 19846 layer_factory.hpp:77] Creating layer inception_4d/3x3_reduce
I0403 15:32:36.980459 19846 net.cpp:91] Creating Layer inception_4d/3x3_reduce
I0403 15:32:36.980479 19846 net.cpp:425] inception_4d/3x3_reduce <- inception_4c/output_inception_4c/output_0_split_1
I0403 15:32:36.980501 19846 net.cpp:399] inception_4d/3x3_reduce -> inception_4d/3x3_reduce
I0403 15:32:36.982051 19846 net.cpp:141] Setting up inception_4d/3x3_reduce
I0403 15:32:36.982080 19846 net.cpp:148] Top shape: 24 144 14 14 (677376)
I0403 15:32:36.982098 19846 net.cpp:156] Memory required for data: 1118106912
I0403 15:32:36.982116 19846 layer_factory.hpp:77] Creating layer inception_4d/relu_3x3_reduce
I0403 15:32:36.982134 19846 net.cpp:91] Creating Layer inception_4d/relu_3x3_reduce
I0403 15:32:36.982151 19846 net.cpp:425] inception_4d/relu_3x3_reduce <- inception_4d/3x3_reduce
I0403 15:32:36.982172 19846 net.cpp:386] inception_4d/relu_3x3_reduce -> inception_4d/3x3_reduce (in-place)
I0403 15:32:36.982461 19846 net.cpp:141] Setting up inception_4d/relu_3x3_reduce
I0403 15:32:36.982493 19846 net.cpp:148] Top shape: 24 144 14 14 (677376)
I0403 15:32:36.982511 19846 net.cpp:156] Memory required for data: 1120816416
I0403 15:32:36.982525 19846 layer_factory.hpp:77] Creating layer inception_4d/3x3
I0403 15:32:36.982548 19846 net.cpp:91] Creating Layer inception_4d/3x3
I0403 15:32:36.982566 19846 net.cpp:425] inception_4d/3x3 <- inception_4d/3x3_reduce
I0403 15:32:36.982586 19846 net.cpp:399] inception_4d/3x3 -> inception_4d/3x3
I0403 15:32:36.986902 19846 net.cpp:141] Setting up inception_4d/3x3
I0403 15:32:36.986932 19846 net.cpp:148] Top shape: 24 288 14 14 (1354752)
I0403 15:32:36.986948 19846 net.cpp:156] Memory required for data: 1126235424
I0403 15:32:36.986966 19846 layer_factory.hpp:77] Creating layer inception_4d/relu_3x3
I0403 15:32:36.986990 19846 net.cpp:91] Creating Layer inception_4d/relu_3x3
I0403 15:32:36.987010 19846 net.cpp:425] inception_4d/relu_3x3 <- inception_4d/3x3
I0403 15:32:36.987028 19846 net.cpp:386] inception_4d/relu_3x3 -> inception_4d/3x3 (in-place)
I0403 15:32:36.987210 19846 net.cpp:141] Setting up inception_4d/relu_3x3
I0403 15:32:36.987233 19846 net.cpp:148] Top shape: 24 288 14 14 (1354752)
I0403 15:32:36.987247 19846 net.cpp:156] Memory required for data: 1131654432
I0403 15:32:36.987262 19846 layer_factory.hpp:77] Creating layer inception_4d/5x5_reduce
I0403 15:32:36.987284 19846 net.cpp:91] Creating Layer inception_4d/5x5_reduce
I0403 15:32:36.987301 19846 net.cpp:425] inception_4d/5x5_reduce <- inception_4c/output_inception_4c/output_0_split_2
I0403 15:32:36.987323 19846 net.cpp:399] inception_4d/5x5_reduce -> inception_4d/5x5_reduce
I0403 15:32:36.988441 19846 net.cpp:141] Setting up inception_4d/5x5_reduce
I0403 15:32:36.988468 19846 net.cpp:148] Top shape: 24 32 14 14 (150528)
I0403 15:32:36.988484 19846 net.cpp:156] Memory required for data: 1132256544
I0403 15:32:36.988502 19846 layer_factory.hpp:77] Creating layer inception_4d/relu_5x5_reduce
I0403 15:32:36.988520 19846 net.cpp:91] Creating Layer inception_4d/relu_5x5_reduce
I0403 15:32:36.988536 19846 net.cpp:425] inception_4d/relu_5x5_reduce <- inception_4d/5x5_reduce
I0403 15:32:36.988555 19846 net.cpp:386] inception_4d/relu_5x5_reduce -> inception_4d/5x5_reduce (in-place)
I0403 15:32:36.988735 19846 net.cpp:141] Setting up inception_4d/relu_5x5_reduce
I0403 15:32:36.988759 19846 net.cpp:148] Top shape: 24 32 14 14 (150528)
I0403 15:32:36.988775 19846 net.cpp:156] Memory required for data: 1132858656
I0403 15:32:36.988790 19846 layer_factory.hpp:77] Creating layer inception_4d/5x5
I0403 15:32:36.988811 19846 net.cpp:91] Creating Layer inception_4d/5x5
I0403 15:32:36.988828 19846 net.cpp:425] inception_4d/5x5 <- inception_4d/5x5_reduce
I0403 15:32:36.988848 19846 net.cpp:399] inception_4d/5x5 -> inception_4d/5x5
I0403 15:32:36.990545 19846 net.cpp:141] Setting up inception_4d/5x5
I0403 15:32:36.990577 19846 net.cpp:148] Top shape: 24 64 14 14 (301056)
I0403 15:32:36.990594 19846 net.cpp:156] Memory required for data: 1134062880
I0403 15:32:36.990614 19846 layer_factory.hpp:77] Creating layer inception_4d/relu_5x5
I0403 15:32:36.990651 19846 net.cpp:91] Creating Layer inception_4d/relu_5x5
I0403 15:32:36.990669 19846 net.cpp:425] inception_4d/relu_5x5 <- inception_4d/5x5
I0403 15:32:36.990686 19846 net.cpp:386] inception_4d/relu_5x5 -> inception_4d/5x5 (in-place)
I0403 15:32:36.990988 19846 net.cpp:141] Setting up inception_4d/relu_5x5
I0403 15:32:36.991014 19846 net.cpp:148] Top shape: 24 64 14 14 (301056)
I0403 15:32:36.991030 19846 net.cpp:156] Memory required for data: 1135267104
I0403 15:32:36.991044 19846 layer_factory.hpp:77] Creating layer inception_4d/pool
I0403 15:32:36.991066 19846 net.cpp:91] Creating Layer inception_4d/pool
I0403 15:32:36.991083 19846 net.cpp:425] inception_4d/pool <- inception_4c/output_inception_4c/output_0_split_3
I0403 15:32:36.991101 19846 net.cpp:399] inception_4d/pool -> inception_4d/pool
I0403 15:32:36.991169 19846 net.cpp:141] Setting up inception_4d/pool
I0403 15:32:36.991192 19846 net.cpp:148] Top shape: 24 512 14 14 (2408448)
I0403 15:32:36.991207 19846 net.cpp:156] Memory required for data: 1144900896
I0403 15:32:36.991221 19846 layer_factory.hpp:77] Creating layer inception_4d/pool_proj
I0403 15:32:36.991243 19846 net.cpp:91] Creating Layer inception_4d/pool_proj
I0403 15:32:36.991261 19846 net.cpp:425] inception_4d/pool_proj <- inception_4d/pool
I0403 15:32:36.991281 19846 net.cpp:399] inception_4d/pool_proj -> inception_4d/pool_proj
I0403 15:32:36.993051 19846 net.cpp:141] Setting up inception_4d/pool_proj
I0403 15:32:36.993079 19846 net.cpp:148] Top shape: 24 64 14 14 (301056)
I0403 15:32:36.993095 19846 net.cpp:156] Memory required for data: 1146105120
I0403 15:32:36.993113 19846 layer_factory.hpp:77] Creating layer inception_4d/relu_pool_proj
I0403 15:32:36.993134 19846 net.cpp:91] Creating Layer inception_4d/relu_pool_proj
I0403 15:32:36.993150 19846 net.cpp:425] inception_4d/relu_pool_proj <- inception_4d/pool_proj
I0403 15:32:36.993168 19846 net.cpp:386] inception_4d/relu_pool_proj -> inception_4d/pool_proj (in-place)
I0403 15:32:36.993381 19846 net.cpp:141] Setting up inception_4d/relu_pool_proj
I0403 15:32:36.993407 19846 net.cpp:148] Top shape: 24 64 14 14 (301056)
I0403 15:32:36.993422 19846 net.cpp:156] Memory required for data: 1147309344
I0403 15:32:36.993438 19846 layer_factory.hpp:77] Creating layer inception_4d/output
I0403 15:32:36.993458 19846 net.cpp:91] Creating Layer inception_4d/output
I0403 15:32:36.993487 19846 net.cpp:425] inception_4d/output <- inception_4d/1x1
I0403 15:32:36.993505 19846 net.cpp:425] inception_4d/output <- inception_4d/3x3
I0403 15:32:36.993521 19846 net.cpp:425] inception_4d/output <- inception_4d/5x5
I0403 15:32:36.993549 19846 net.cpp:425] inception_4d/output <- inception_4d/pool_proj
I0403 15:32:36.993566 19846 net.cpp:399] inception_4d/output -> inception_4d/output
I0403 15:32:36.993614 19846 net.cpp:141] Setting up inception_4d/output
I0403 15:32:36.993638 19846 net.cpp:148] Top shape: 24 528 14 14 (2483712)
I0403 15:32:36.993652 19846 net.cpp:156] Memory required for data: 1157244192
I0403 15:32:36.993667 19846 layer_factory.hpp:77] Creating layer inception_4d/output_inception_4d/output_0_split
I0403 15:32:36.993685 19846 net.cpp:91] Creating Layer inception_4d/output_inception_4d/output_0_split
I0403 15:32:36.993700 19846 net.cpp:425] inception_4d/output_inception_4d/output_0_split <- inception_4d/output
I0403 15:32:36.993721 19846 net.cpp:399] inception_4d/output_inception_4d/output_0_split -> inception_4d/output_inception_4d/output_0_split_0
I0403 15:32:36.993741 19846 net.cpp:399] inception_4d/output_inception_4d/output_0_split -> inception_4d/output_inception_4d/output_0_split_1
I0403 15:32:36.993762 19846 net.cpp:399] inception_4d/output_inception_4d/output_0_split -> inception_4d/output_inception_4d/output_0_split_2
I0403 15:32:36.993782 19846 net.cpp:399] inception_4d/output_inception_4d/output_0_split -> inception_4d/output_inception_4d/output_0_split_3
I0403 15:32:36.993801 19846 net.cpp:399] inception_4d/output_inception_4d/output_0_split -> inception_4d/output_inception_4d/output_0_split_4
I0403 15:32:36.993904 19846 net.cpp:141] Setting up inception_4d/output_inception_4d/output_0_split
I0403 15:32:36.993939 19846 net.cpp:148] Top shape: 24 528 14 14 (2483712)
I0403 15:32:36.993962 19846 net.cpp:148] Top shape: 24 528 14 14 (2483712)
I0403 15:32:36.993978 19846 net.cpp:148] Top shape: 24 528 14 14 (2483712)
I0403 15:32:36.993994 19846 net.cpp:148] Top shape: 24 528 14 14 (2483712)
I0403 15:32:36.994009 19846 net.cpp:148] Top shape: 24 528 14 14 (2483712)
I0403 15:32:36.994024 19846 net.cpp:156] Memory required for data: 1206918432
I0403 15:32:36.994037 19846 layer_factory.hpp:77] Creating layer loss2/ave_pool
I0403 15:32:36.994057 19846 net.cpp:91] Creating Layer loss2/ave_pool
I0403 15:32:36.994073 19846 net.cpp:425] loss2/ave_pool <- inception_4d/output_inception_4d/output_0_split_0
I0403 15:32:36.994094 19846 net.cpp:399] loss2/ave_pool -> loss2/ave_pool
I0403 15:32:36.994418 19846 net.cpp:141] Setting up loss2/ave_pool
I0403 15:32:36.994444 19846 net.cpp:148] Top shape: 24 528 4 4 (202752)
I0403 15:32:36.994460 19846 net.cpp:156] Memory required for data: 1207729440
I0403 15:32:36.994475 19846 layer_factory.hpp:77] Creating layer loss2/conv
I0403 15:32:36.994498 19846 net.cpp:91] Creating Layer loss2/conv
I0403 15:32:36.994516 19846 net.cpp:425] loss2/conv <- loss2/ave_pool
I0403 15:32:36.994539 19846 net.cpp:399] loss2/conv -> loss2/conv
I0403 15:32:36.996515 19846 net.cpp:141] Setting up loss2/conv
I0403 15:32:36.996543 19846 net.cpp:148] Top shape: 24 128 4 4 (49152)
I0403 15:32:36.996559 19846 net.cpp:156] Memory required for data: 1207926048
I0403 15:32:36.996578 19846 layer_factory.hpp:77] Creating layer loss2/relu_conv
I0403 15:32:36.996598 19846 net.cpp:91] Creating Layer loss2/relu_conv
I0403 15:32:36.996615 19846 net.cpp:425] loss2/relu_conv <- loss2/conv
I0403 15:32:36.996634 19846 net.cpp:386] loss2/relu_conv -> loss2/conv (in-place)
I0403 15:32:36.996923 19846 net.cpp:141] Setting up loss2/relu_conv
I0403 15:32:36.996950 19846 net.cpp:148] Top shape: 24 128 4 4 (49152)
I0403 15:32:36.996970 19846 net.cpp:156] Memory required for data: 1208122656
I0403 15:32:36.996986 19846 layer_factory.hpp:77] Creating layer loss2/fc
I0403 15:32:36.997007 19846 net.cpp:91] Creating Layer loss2/fc
I0403 15:32:36.997026 19846 net.cpp:425] loss2/fc <- loss2/conv
I0403 15:32:36.997047 19846 net.cpp:399] loss2/fc -> loss2/fc
I0403 15:32:37.014952 19846 net.cpp:141] Setting up loss2/fc
I0403 15:32:37.014987 19846 net.cpp:148] Top shape: 24 1024 (24576)
I0403 15:32:37.015002 19846 net.cpp:156] Memory required for data: 1208220960
I0403 15:32:37.015020 19846 layer_factory.hpp:77] Creating layer loss2/relu_fc
I0403 15:32:37.015038 19846 net.cpp:91] Creating Layer loss2/relu_fc
I0403 15:32:37.015056 19846 net.cpp:425] loss2/relu_fc <- loss2/fc
I0403 15:32:37.015076 19846 net.cpp:386] loss2/relu_fc -> loss2/fc (in-place)
I0403 15:32:37.015372 19846 net.cpp:141] Setting up loss2/relu_fc
I0403 15:32:37.015398 19846 net.cpp:148] Top shape: 24 1024 (24576)
I0403 15:32:37.015413 19846 net.cpp:156] Memory required for data: 1208319264
I0403 15:32:37.015427 19846 layer_factory.hpp:77] Creating layer loss2/drop_fc
I0403 15:32:37.015445 19846 net.cpp:91] Creating Layer loss2/drop_fc
I0403 15:32:37.015461 19846 net.cpp:425] loss2/drop_fc <- loss2/fc
I0403 15:32:37.015481 19846 net.cpp:386] loss2/drop_fc -> loss2/fc (in-place)
I0403 15:32:37.015529 19846 net.cpp:141] Setting up loss2/drop_fc
I0403 15:32:37.015558 19846 net.cpp:148] Top shape: 24 1024 (24576)
I0403 15:32:37.015573 19846 net.cpp:156] Memory required for data: 1208417568
I0403 15:32:37.015588 19846 layer_factory.hpp:77] Creating layer loss2/classifier_plantvillage
I0403 15:32:37.015604 19846 net.cpp:91] Creating Layer loss2/classifier_plantvillage
I0403 15:32:37.015620 19846 net.cpp:425] loss2/classifier_plantvillage <- loss2/fc
I0403 15:32:37.015642 19846 net.cpp:399] loss2/classifier_plantvillage -> loss2/classifier_plantvillage
I0403 15:32:37.016041 19846 net.cpp:141] Setting up loss2/classifier_plantvillage
I0403 15:32:37.016067 19846 net.cpp:148] Top shape: 24 38 (912)
I0403 15:32:37.016098 19846 net.cpp:156] Memory required for data: 1208421216
I0403 15:32:37.016118 19846 layer_factory.hpp:77] Creating layer loss2/classifier_plantvillage_loss2/classifier_plantvillage_0_split
I0403 15:32:37.016137 19846 net.cpp:91] Creating Layer loss2/classifier_plantvillage_loss2/classifier_plantvillage_0_split
I0403 15:32:37.016155 19846 net.cpp:425] loss2/classifier_plantvillage_loss2/classifier_plantvillage_0_split <- loss2/classifier_plantvillage
I0403 15:32:37.016172 19846 net.cpp:399] loss2/classifier_plantvillage_loss2/classifier_plantvillage_0_split -> loss2/classifier_plantvillage_loss2/classifier_plantvillage_0_split_0
I0403 15:32:37.016196 19846 net.cpp:399] loss2/classifier_plantvillage_loss2/classifier_plantvillage_0_split -> loss2/classifier_plantvillage_loss2/classifier_plantvillage_0_split_1
I0403 15:32:37.016216 19846 net.cpp:399] loss2/classifier_plantvillage_loss2/classifier_plantvillage_0_split -> loss2/classifier_plantvillage_loss2/classifier_plantvillage_0_split_2
I0403 15:32:37.016290 19846 net.cpp:141] Setting up loss2/classifier_plantvillage_loss2/classifier_plantvillage_0_split
I0403 15:32:37.016314 19846 net.cpp:148] Top shape: 24 38 (912)
I0403 15:32:37.016330 19846 net.cpp:148] Top shape: 24 38 (912)
I0403 15:32:37.016345 19846 net.cpp:148] Top shape: 24 38 (912)
I0403 15:32:37.016358 19846 net.cpp:156] Memory required for data: 1208432160
I0403 15:32:37.016372 19846 layer_factory.hpp:77] Creating layer inception_4e/1x1
I0403 15:32:37.016396 19846 net.cpp:91] Creating Layer inception_4e/1x1
I0403 15:32:37.016413 19846 net.cpp:425] inception_4e/1x1 <- inception_4d/output_inception_4d/output_0_split_1
I0403 15:32:37.016433 19846 net.cpp:399] inception_4e/1x1 -> inception_4e/1x1
I0403 15:32:37.018265 19846 net.cpp:141] Setting up inception_4e/1x1
I0403 15:32:37.018295 19846 net.cpp:148] Top shape: 24 256 14 14 (1204224)
I0403 15:32:37.018311 19846 net.cpp:156] Memory required for data: 1213249056
I0403 15:32:37.018331 19846 layer_factory.hpp:77] Creating layer inception_4e/relu_1x1
I0403 15:32:37.018350 19846 net.cpp:91] Creating Layer inception_4e/relu_1x1
I0403 15:32:37.018368 19846 net.cpp:425] inception_4e/relu_1x1 <- inception_4e/1x1
I0403 15:32:37.018385 19846 net.cpp:386] inception_4e/relu_1x1 -> inception_4e/1x1 (in-place)
I0403 15:32:37.018690 19846 net.cpp:141] Setting up inception_4e/relu_1x1
I0403 15:32:37.018718 19846 net.cpp:148] Top shape: 24 256 14 14 (1204224)
I0403 15:32:37.018733 19846 net.cpp:156] Memory required for data: 1218065952
I0403 15:32:37.018748 19846 layer_factory.hpp:77] Creating layer inception_4e/3x3_reduce
I0403 15:32:37.018770 19846 net.cpp:91] Creating Layer inception_4e/3x3_reduce
I0403 15:32:37.018800 19846 net.cpp:425] inception_4e/3x3_reduce <- inception_4d/output_inception_4d/output_0_split_2
I0403 15:32:37.018820 19846 net.cpp:399] inception_4e/3x3_reduce -> inception_4e/3x3_reduce
I0403 15:32:37.021047 19846 net.cpp:141] Setting up inception_4e/3x3_reduce
I0403 15:32:37.021077 19846 net.cpp:148] Top shape: 24 160 14 14 (752640)
I0403 15:32:37.021095 19846 net.cpp:156] Memory required for data: 1221076512
I0403 15:32:37.021113 19846 layer_factory.hpp:77] Creating layer inception_4e/relu_3x3_reduce
I0403 15:32:37.021133 19846 net.cpp:91] Creating Layer inception_4e/relu_3x3_reduce
I0403 15:32:37.021152 19846 net.cpp:425] inception_4e/relu_3x3_reduce <- inception_4e/3x3_reduce
I0403 15:32:37.021169 19846 net.cpp:386] inception_4e/relu_3x3_reduce -> inception_4e/3x3_reduce (in-place)
I0403 15:32:37.021353 19846 net.cpp:141] Setting up inception_4e/relu_3x3_reduce
I0403 15:32:37.021381 19846 net.cpp:148] Top shape: 24 160 14 14 (752640)
I0403 15:32:37.021397 19846 net.cpp:156] Memory required for data: 1224087072
I0403 15:32:37.021414 19846 layer_factory.hpp:77] Creating layer inception_4e/3x3
I0403 15:32:37.021435 19846 net.cpp:91] Creating Layer inception_4e/3x3
I0403 15:32:37.021455 19846 net.cpp:425] inception_4e/3x3 <- inception_4e/3x3_reduce
I0403 15:32:37.021473 19846 net.cpp:399] inception_4e/3x3 -> inception_4e/3x3
I0403 15:32:37.026690 19846 net.cpp:141] Setting up inception_4e/3x3
I0403 15:32:37.026736 19846 net.cpp:148] Top shape: 24 320 14 14 (1505280)
I0403 15:32:37.026752 19846 net.cpp:156] Memory required for data: 1230108192
I0403 15:32:37.026772 19846 layer_factory.hpp:77] Creating layer inception_4e/relu_3x3
I0403 15:32:37.026789 19846 net.cpp:91] Creating Layer inception_4e/relu_3x3
I0403 15:32:37.026806 19846 net.cpp:425] inception_4e/relu_3x3 <- inception_4e/3x3
I0403 15:32:37.026826 19846 net.cpp:386] inception_4e/relu_3x3 -> inception_4e/3x3 (in-place)
I0403 15:32:37.027165 19846 net.cpp:141] Setting up inception_4e/relu_3x3
I0403 15:32:37.027192 19846 net.cpp:148] Top shape: 24 320 14 14 (1505280)
I0403 15:32:37.027209 19846 net.cpp:156] Memory required for data: 1236129312
I0403 15:32:37.027223 19846 layer_factory.hpp:77] Creating layer inception_4e/5x5_reduce
I0403 15:32:37.027247 19846 net.cpp:91] Creating Layer inception_4e/5x5_reduce
I0403 15:32:37.027266 19846 net.cpp:425] inception_4e/5x5_reduce <- inception_4d/output_inception_4d/output_0_split_3
I0403 15:32:37.027287 19846 net.cpp:399] inception_4e/5x5_reduce -> inception_4e/5x5_reduce
I0403 15:32:37.028363 19846 net.cpp:141] Setting up inception_4e/5x5_reduce
I0403 15:32:37.028391 19846 net.cpp:148] Top shape: 24 32 14 14 (150528)
I0403 15:32:37.028408 19846 net.cpp:156] Memory required for data: 1236731424
I0403 15:32:37.028426 19846 layer_factory.hpp:77] Creating layer inception_4e/relu_5x5_reduce
I0403 15:32:37.028447 19846 net.cpp:91] Creating Layer inception_4e/relu_5x5_reduce
I0403 15:32:37.028465 19846 net.cpp:425] inception_4e/relu_5x5_reduce <- inception_4e/5x5_reduce
I0403 15:32:37.028481 19846 net.cpp:386] inception_4e/relu_5x5_reduce -> inception_4e/5x5_reduce (in-place)
I0403 15:32:37.028787 19846 net.cpp:141] Setting up inception_4e/relu_5x5_reduce
I0403 15:32:37.028815 19846 net.cpp:148] Top shape: 24 32 14 14 (150528)
I0403 15:32:37.028830 19846 net.cpp:156] Memory required for data: 1237333536
I0403 15:32:37.028844 19846 layer_factory.hpp:77] Creating layer inception_4e/5x5
I0403 15:32:37.028883 19846 net.cpp:91] Creating Layer inception_4e/5x5
I0403 15:32:37.028903 19846 net.cpp:425] inception_4e/5x5 <- inception_4e/5x5_reduce
I0403 15:32:37.028925 19846 net.cpp:399] inception_4e/5x5 -> inception_4e/5x5
I0403 15:32:37.030866 19846 net.cpp:141] Setting up inception_4e/5x5
I0403 15:32:37.030895 19846 net.cpp:148] Top shape: 24 128 14 14 (602112)
I0403 15:32:37.030911 19846 net.cpp:156] Memory required for data: 1239741984
I0403 15:32:37.030932 19846 layer_factory.hpp:77] Creating layer inception_4e/relu_5x5
I0403 15:32:37.030957 19846 net.cpp:91] Creating Layer inception_4e/relu_5x5
I0403 15:32:37.030977 19846 net.cpp:425] inception_4e/relu_5x5 <- inception_4e/5x5
I0403 15:32:37.030995 19846 net.cpp:386] inception_4e/relu_5x5 -> inception_4e/5x5 (in-place)
I0403 15:32:37.031200 19846 net.cpp:141] Setting up inception_4e/relu_5x5
I0403 15:32:37.031226 19846 net.cpp:148] Top shape: 24 128 14 14 (602112)
I0403 15:32:37.031242 19846 net.cpp:156] Memory required for data: 1242150432
I0403 15:32:37.031257 19846 layer_factory.hpp:77] Creating layer inception_4e/pool
I0403 15:32:37.031278 19846 net.cpp:91] Creating Layer inception_4e/pool
I0403 15:32:37.031308 19846 net.cpp:425] inception_4e/pool <- inception_4d/output_inception_4d/output_0_split_4
I0403 15:32:37.031327 19846 net.cpp:399] inception_4e/pool -> inception_4e/pool
I0403 15:32:37.031399 19846 net.cpp:141] Setting up inception_4e/pool
I0403 15:32:37.031422 19846 net.cpp:148] Top shape: 24 528 14 14 (2483712)
I0403 15:32:37.031437 19846 net.cpp:156] Memory required for data: 1252085280
I0403 15:32:37.031452 19846 layer_factory.hpp:77] Creating layer inception_4e/pool_proj
I0403 15:32:37.031474 19846 net.cpp:91] Creating Layer inception_4e/pool_proj
I0403 15:32:37.031491 19846 net.cpp:425] inception_4e/pool_proj <- inception_4e/pool
I0403 15:32:37.031512 19846 net.cpp:399] inception_4e/pool_proj -> inception_4e/pool_proj
I0403 15:32:37.033067 19846 net.cpp:141] Setting up inception_4e/pool_proj
I0403 15:32:37.033107 19846 net.cpp:148] Top shape: 24 128 14 14 (602112)
I0403 15:32:37.033123 19846 net.cpp:156] Memory required for data: 1254493728
I0403 15:32:37.033141 19846 layer_factory.hpp:77] Creating layer inception_4e/relu_pool_proj
I0403 15:32:37.033162 19846 net.cpp:91] Creating Layer inception_4e/relu_pool_proj
I0403 15:32:37.033179 19846 net.cpp:425] inception_4e/relu_pool_proj <- inception_4e/pool_proj
I0403 15:32:37.033197 19846 net.cpp:386] inception_4e/relu_pool_proj -> inception_4e/pool_proj (in-place)
I0403 15:32:37.033510 19846 net.cpp:141] Setting up inception_4e/relu_pool_proj
I0403 15:32:37.033548 19846 net.cpp:148] Top shape: 24 128 14 14 (602112)
I0403 15:32:37.033565 19846 net.cpp:156] Memory required for data: 1256902176
I0403 15:32:37.033579 19846 layer_factory.hpp:77] Creating layer inception_4e/output
I0403 15:32:37.033597 19846 net.cpp:91] Creating Layer inception_4e/output
I0403 15:32:37.033613 19846 net.cpp:425] inception_4e/output <- inception_4e/1x1
I0403 15:32:37.033630 19846 net.cpp:425] inception_4e/output <- inception_4e/3x3
I0403 15:32:37.033648 19846 net.cpp:425] inception_4e/output <- inception_4e/5x5
I0403 15:32:37.033663 19846 net.cpp:425] inception_4e/output <- inception_4e/pool_proj
I0403 15:32:37.033684 19846 net.cpp:399] inception_4e/output -> inception_4e/output
I0403 15:32:37.033732 19846 net.cpp:141] Setting up inception_4e/output
I0403 15:32:37.033758 19846 net.cpp:148] Top shape: 24 832 14 14 (3913728)
I0403 15:32:37.033774 19846 net.cpp:156] Memory required for data: 1272557088
I0403 15:32:37.033789 19846 layer_factory.hpp:77] Creating layer pool4/3x3_s2
I0403 15:32:37.033807 19846 net.cpp:91] Creating Layer pool4/3x3_s2
I0403 15:32:37.033823 19846 net.cpp:425] pool4/3x3_s2 <- inception_4e/output
I0403 15:32:37.033845 19846 net.cpp:399] pool4/3x3_s2 -> pool4/3x3_s2
I0403 15:32:37.033926 19846 net.cpp:141] Setting up pool4/3x3_s2
I0403 15:32:37.033951 19846 net.cpp:148] Top shape: 24 832 7 7 (978432)
I0403 15:32:37.033972 19846 net.cpp:156] Memory required for data: 1276470816
I0403 15:32:37.033987 19846 layer_factory.hpp:77] Creating layer pool4/3x3_s2_pool4/3x3_s2_0_split
I0403 15:32:37.034010 19846 net.cpp:91] Creating Layer pool4/3x3_s2_pool4/3x3_s2_0_split
I0403 15:32:37.034029 19846 net.cpp:425] pool4/3x3_s2_pool4/3x3_s2_0_split <- pool4/3x3_s2
I0403 15:32:37.034046 19846 net.cpp:399] pool4/3x3_s2_pool4/3x3_s2_0_split -> pool4/3x3_s2_pool4/3x3_s2_0_split_0
I0403 15:32:37.034067 19846 net.cpp:399] pool4/3x3_s2_pool4/3x3_s2_0_split -> pool4/3x3_s2_pool4/3x3_s2_0_split_1
I0403 15:32:37.034088 19846 net.cpp:399] pool4/3x3_s2_pool4/3x3_s2_0_split -> pool4/3x3_s2_pool4/3x3_s2_0_split_2
I0403 15:32:37.034111 19846 net.cpp:399] pool4/3x3_s2_pool4/3x3_s2_0_split -> pool4/3x3_s2_pool4/3x3_s2_0_split_3
I0403 15:32:37.034215 19846 net.cpp:141] Setting up pool4/3x3_s2_pool4/3x3_s2_0_split
I0403 15:32:37.034240 19846 net.cpp:148] Top shape: 24 832 7 7 (978432)
I0403 15:32:37.034268 19846 net.cpp:148] Top shape: 24 832 7 7 (978432)
I0403 15:32:37.034284 19846 net.cpp:148] Top shape: 24 832 7 7 (978432)
I0403 15:32:37.034301 19846 net.cpp:148] Top shape: 24 832 7 7 (978432)
I0403 15:32:37.034314 19846 net.cpp:156] Memory required for data: 1292125728
I0403 15:32:37.034330 19846 layer_factory.hpp:77] Creating layer inception_5a/1x1
I0403 15:32:37.034353 19846 net.cpp:91] Creating Layer inception_5a/1x1
I0403 15:32:37.034371 19846 net.cpp:425] inception_5a/1x1 <- pool4/3x3_s2_pool4/3x3_s2_0_split_0
I0403 15:32:37.034394 19846 net.cpp:399] inception_5a/1x1 -> inception_5a/1x1
I0403 15:32:37.037364 19846 net.cpp:141] Setting up inception_5a/1x1
I0403 15:32:37.037394 19846 net.cpp:148] Top shape: 24 256 7 7 (301056)
I0403 15:32:37.037410 19846 net.cpp:156] Memory required for data: 1293329952
I0403 15:32:37.037430 19846 layer_factory.hpp:77] Creating layer inception_5a/relu_1x1
I0403 15:32:37.037451 19846 net.cpp:91] Creating Layer inception_5a/relu_1x1
I0403 15:32:37.037468 19846 net.cpp:425] inception_5a/relu_1x1 <- inception_5a/1x1
I0403 15:32:37.037487 19846 net.cpp:386] inception_5a/relu_1x1 -> inception_5a/1x1 (in-place)
I0403 15:32:37.037809 19846 net.cpp:141] Setting up inception_5a/relu_1x1
I0403 15:32:37.037837 19846 net.cpp:148] Top shape: 24 256 7 7 (301056)
I0403 15:32:37.037853 19846 net.cpp:156] Memory required for data: 1294534176
I0403 15:32:37.037878 19846 layer_factory.hpp:77] Creating layer inception_5a/3x3_reduce
I0403 15:32:37.037901 19846 net.cpp:91] Creating Layer inception_5a/3x3_reduce
I0403 15:32:37.037920 19846 net.cpp:425] inception_5a/3x3_reduce <- pool4/3x3_s2_pool4/3x3_s2_0_split_1
I0403 15:32:37.037942 19846 net.cpp:399] inception_5a/3x3_reduce -> inception_5a/3x3_reduce
I0403 15:32:37.040489 19846 net.cpp:141] Setting up inception_5a/3x3_reduce
I0403 15:32:37.040520 19846 net.cpp:148] Top shape: 24 160 7 7 (188160)
I0403 15:32:37.040537 19846 net.cpp:156] Memory required for data: 1295286816
I0403 15:32:37.040557 19846 layer_factory.hpp:77] Creating layer inception_5a/relu_3x3_reduce
I0403 15:32:37.040575 19846 net.cpp:91] Creating Layer inception_5a/relu_3x3_reduce
I0403 15:32:37.040591 19846 net.cpp:425] inception_5a/relu_3x3_reduce <- inception_5a/3x3_reduce
I0403 15:32:37.040611 19846 net.cpp:386] inception_5a/relu_3x3_reduce -> inception_5a/3x3_reduce (in-place)
I0403 15:32:37.040799 19846 net.cpp:141] Setting up inception_5a/relu_3x3_reduce
I0403 15:32:37.040824 19846 net.cpp:148] Top shape: 24 160 7 7 (188160)
I0403 15:32:37.040839 19846 net.cpp:156] Memory required for data: 1296039456
I0403 15:32:37.040855 19846 layer_factory.hpp:77] Creating layer inception_5a/3x3
I0403 15:32:37.040877 19846 net.cpp:91] Creating Layer inception_5a/3x3
I0403 15:32:37.040895 19846 net.cpp:425] inception_5a/3x3 <- inception_5a/3x3_reduce
I0403 15:32:37.040917 19846 net.cpp:399] inception_5a/3x3 -> inception_5a/3x3
I0403 15:32:37.046125 19846 net.cpp:141] Setting up inception_5a/3x3
I0403 15:32:37.046155 19846 net.cpp:148] Top shape: 24 320 7 7 (376320)
I0403 15:32:37.046171 19846 net.cpp:156] Memory required for data: 1297544736
I0403 15:32:37.046190 19846 layer_factory.hpp:77] Creating layer inception_5a/relu_3x3
I0403 15:32:37.046211 19846 net.cpp:91] Creating Layer inception_5a/relu_3x3
I0403 15:32:37.046228 19846 net.cpp:425] inception_5a/relu_3x3 <- inception_5a/3x3
I0403 15:32:37.046257 19846 net.cpp:386] inception_5a/relu_3x3 -> inception_5a/3x3 (in-place)
I0403 15:32:37.046579 19846 net.cpp:141] Setting up inception_5a/relu_3x3
I0403 15:32:37.046604 19846 net.cpp:148] Top shape: 24 320 7 7 (376320)
I0403 15:32:37.046619 19846 net.cpp:156] Memory required for data: 1299050016
I0403 15:32:37.046634 19846 layer_factory.hpp:77] Creating layer inception_5a/5x5_reduce
I0403 15:32:37.046658 19846 net.cpp:91] Creating Layer inception_5a/5x5_reduce
I0403 15:32:37.046674 19846 net.cpp:425] inception_5a/5x5_reduce <- pool4/3x3_s2_pool4/3x3_s2_0_split_2
I0403 15:32:37.046695 19846 net.cpp:399] inception_5a/5x5_reduce -> inception_5a/5x5_reduce
I0403 15:32:37.047842 19846 net.cpp:141] Setting up inception_5a/5x5_reduce
I0403 15:32:37.047868 19846 net.cpp:148] Top shape: 24 32 7 7 (37632)
I0403 15:32:37.047884 19846 net.cpp:156] Memory required for data: 1299200544
I0403 15:32:37.047902 19846 layer_factory.hpp:77] Creating layer inception_5a/relu_5x5_reduce
I0403 15:32:37.047922 19846 net.cpp:91] Creating Layer inception_5a/relu_5x5_reduce
I0403 15:32:37.047940 19846 net.cpp:425] inception_5a/relu_5x5_reduce <- inception_5a/5x5_reduce
I0403 15:32:37.047972 19846 net.cpp:386] inception_5a/relu_5x5_reduce -> inception_5a/5x5_reduce (in-place)
I0403 15:32:37.048306 19846 net.cpp:141] Setting up inception_5a/relu_5x5_reduce
I0403 15:32:37.048333 19846 net.cpp:148] Top shape: 24 32 7 7 (37632)
I0403 15:32:37.048349 19846 net.cpp:156] Memory required for data: 1299351072
I0403 15:32:37.048375 19846 layer_factory.hpp:77] Creating layer inception_5a/5x5
I0403 15:32:37.048399 19846 net.cpp:91] Creating Layer inception_5a/5x5
I0403 15:32:37.048418 19846 net.cpp:425] inception_5a/5x5 <- inception_5a/5x5_reduce
I0403 15:32:37.048437 19846 net.cpp:399] inception_5a/5x5 -> inception_5a/5x5
I0403 15:32:37.050161 19846 net.cpp:141] Setting up inception_5a/5x5
I0403 15:32:37.050200 19846 net.cpp:148] Top shape: 24 128 7 7 (150528)
I0403 15:32:37.050216 19846 net.cpp:156] Memory required for data: 1299953184
I0403 15:32:37.050235 19846 layer_factory.hpp:77] Creating layer inception_5a/relu_5x5
I0403 15:32:37.050254 19846 net.cpp:91] Creating Layer inception_5a/relu_5x5
I0403 15:32:37.050271 19846 net.cpp:425] inception_5a/relu_5x5 <- inception_5a/5x5
I0403 15:32:37.050288 19846 net.cpp:386] inception_5a/relu_5x5 -> inception_5a/5x5 (in-place)
I0403 15:32:37.050475 19846 net.cpp:141] Setting up inception_5a/relu_5x5
I0403 15:32:37.050499 19846 net.cpp:148] Top shape: 24 128 7 7 (150528)
I0403 15:32:37.050514 19846 net.cpp:156] Memory required for data: 1300555296
I0403 15:32:37.050529 19846 layer_factory.hpp:77] Creating layer inception_5a/pool
I0403 15:32:37.050549 19846 net.cpp:91] Creating Layer inception_5a/pool
I0403 15:32:37.050565 19846 net.cpp:425] inception_5a/pool <- pool4/3x3_s2_pool4/3x3_s2_0_split_3
I0403 15:32:37.050583 19846 net.cpp:399] inception_5a/pool -> inception_5a/pool
I0403 15:32:37.050655 19846 net.cpp:141] Setting up inception_5a/pool
I0403 15:32:37.050678 19846 net.cpp:148] Top shape: 24 832 7 7 (978432)
I0403 15:32:37.050693 19846 net.cpp:156] Memory required for data: 1304469024
I0403 15:32:37.050706 19846 layer_factory.hpp:77] Creating layer inception_5a/pool_proj
I0403 15:32:37.050729 19846 net.cpp:91] Creating Layer inception_5a/pool_proj
I0403 15:32:37.050745 19846 net.cpp:425] inception_5a/pool_proj <- inception_5a/pool
I0403 15:32:37.050766 19846 net.cpp:399] inception_5a/pool_proj -> inception_5a/pool_proj
I0403 15:32:37.053014 19846 net.cpp:141] Setting up inception_5a/pool_proj
I0403 15:32:37.053045 19846 net.cpp:148] Top shape: 24 128 7 7 (150528)
I0403 15:32:37.053061 19846 net.cpp:156] Memory required for data: 1305071136
I0403 15:32:37.053079 19846 layer_factory.hpp:77] Creating layer inception_5a/relu_pool_proj
I0403 15:32:37.053097 19846 net.cpp:91] Creating Layer inception_5a/relu_pool_proj
I0403 15:32:37.053113 19846 net.cpp:425] inception_5a/relu_pool_proj <- inception_5a/pool_proj
I0403 15:32:37.053133 19846 net.cpp:386] inception_5a/relu_pool_proj -> inception_5a/pool_proj (in-place)
I0403 15:32:37.053424 19846 net.cpp:141] Setting up inception_5a/relu_pool_proj
I0403 15:32:37.053449 19846 net.cpp:148] Top shape: 24 128 7 7 (150528)
I0403 15:32:37.053478 19846 net.cpp:156] Memory required for data: 1305673248
I0403 15:32:37.053493 19846 layer_factory.hpp:77] Creating layer inception_5a/output
I0403 15:32:37.053509 19846 net.cpp:91] Creating Layer inception_5a/output
I0403 15:32:37.053525 19846 net.cpp:425] inception_5a/output <- inception_5a/1x1
I0403 15:32:37.053542 19846 net.cpp:425] inception_5a/output <- inception_5a/3x3
I0403 15:32:37.053560 19846 net.cpp:425] inception_5a/output <- inception_5a/5x5
I0403 15:32:37.053575 19846 net.cpp:425] inception_5a/output <- inception_5a/pool_proj
I0403 15:32:37.053596 19846 net.cpp:399] inception_5a/output -> inception_5a/output
I0403 15:32:37.053645 19846 net.cpp:141] Setting up inception_5a/output
I0403 15:32:37.053673 19846 net.cpp:148] Top shape: 24 832 7 7 (978432)
I0403 15:32:37.053689 19846 net.cpp:156] Memory required for data: 1309586976
I0403 15:32:37.053704 19846 layer_factory.hpp:77] Creating layer inception_5a/output_inception_5a/output_0_split
I0403 15:32:37.053720 19846 net.cpp:91] Creating Layer inception_5a/output_inception_5a/output_0_split
I0403 15:32:37.053736 19846 net.cpp:425] inception_5a/output_inception_5a/output_0_split <- inception_5a/output
I0403 15:32:37.053766 19846 net.cpp:399] inception_5a/output_inception_5a/output_0_split -> inception_5a/output_inception_5a/output_0_split_0
I0403 15:32:37.053788 19846 net.cpp:399] inception_5a/output_inception_5a/output_0_split -> inception_5a/output_inception_5a/output_0_split_1
I0403 15:32:37.053810 19846 net.cpp:399] inception_5a/output_inception_5a/output_0_split -> inception_5a/output_inception_5a/output_0_split_2
I0403 15:32:37.053830 19846 net.cpp:399] inception_5a/output_inception_5a/output_0_split -> inception_5a/output_inception_5a/output_0_split_3
I0403 15:32:37.053941 19846 net.cpp:141] Setting up inception_5a/output_inception_5a/output_0_split
I0403 15:32:37.053969 19846 net.cpp:148] Top shape: 24 832 7 7 (978432)
I0403 15:32:37.053987 19846 net.cpp:148] Top shape: 24 832 7 7 (978432)
I0403 15:32:37.054003 19846 net.cpp:148] Top shape: 24 832 7 7 (978432)
I0403 15:32:37.054018 19846 net.cpp:148] Top shape: 24 832 7 7 (978432)
I0403 15:32:37.054030 19846 net.cpp:156] Memory required for data: 1325241888
I0403 15:32:37.054045 19846 layer_factory.hpp:77] Creating layer inception_5b/1x1
I0403 15:32:37.054070 19846 net.cpp:91] Creating Layer inception_5b/1x1
I0403 15:32:37.054087 19846 net.cpp:425] inception_5b/1x1 <- inception_5a/output_inception_5a/output_0_split_0
I0403 15:32:37.054106 19846 net.cpp:399] inception_5b/1x1 -> inception_5b/1x1
I0403 15:32:37.057827 19846 net.cpp:141] Setting up inception_5b/1x1
I0403 15:32:37.057857 19846 net.cpp:148] Top shape: 24 384 7 7 (451584)
I0403 15:32:37.057874 19846 net.cpp:156] Memory required for data: 1327048224
I0403 15:32:37.057893 19846 layer_factory.hpp:77] Creating layer inception_5b/relu_1x1
I0403 15:32:37.057910 19846 net.cpp:91] Creating Layer inception_5b/relu_1x1
I0403 15:32:37.057926 19846 net.cpp:425] inception_5b/relu_1x1 <- inception_5b/1x1
I0403 15:32:37.057947 19846 net.cpp:386] inception_5b/relu_1x1 -> inception_5b/1x1 (in-place)
I0403 15:32:37.058265 19846 net.cpp:141] Setting up inception_5b/relu_1x1
I0403 15:32:37.058293 19846 net.cpp:148] Top shape: 24 384 7 7 (451584)
I0403 15:32:37.058310 19846 net.cpp:156] Memory required for data: 1328854560
I0403 15:32:37.058326 19846 layer_factory.hpp:77] Creating layer inception_5b/3x3_reduce
I0403 15:32:37.058348 19846 net.cpp:91] Creating Layer inception_5b/3x3_reduce
I0403 15:32:37.058367 19846 net.cpp:425] inception_5b/3x3_reduce <- inception_5a/output_inception_5a/output_0_split_1
I0403 15:32:37.058389 19846 net.cpp:399] inception_5b/3x3_reduce -> inception_5b/3x3_reduce
I0403 15:32:37.061071 19846 net.cpp:141] Setting up inception_5b/3x3_reduce
I0403 15:32:37.061100 19846 net.cpp:148] Top shape: 24 192 7 7 (225792)
I0403 15:32:37.061115 19846 net.cpp:156] Memory required for data: 1329757728
I0403 15:32:37.061133 19846 layer_factory.hpp:77] Creating layer inception_5b/relu_3x3_reduce
I0403 15:32:37.061151 19846 net.cpp:91] Creating Layer inception_5b/relu_3x3_reduce
I0403 15:32:37.061167 19846 net.cpp:425] inception_5b/relu_3x3_reduce <- inception_5b/3x3_reduce
I0403 15:32:37.061187 19846 net.cpp:386] inception_5b/relu_3x3_reduce -> inception_5b/3x3_reduce (in-place)
I0403 15:32:37.061374 19846 net.cpp:141] Setting up inception_5b/relu_3x3_reduce
I0403 15:32:37.061398 19846 net.cpp:148] Top shape: 24 192 7 7 (225792)
I0403 15:32:37.061413 19846 net.cpp:156] Memory required for data: 1330660896
I0403 15:32:37.061427 19846 layer_factory.hpp:77] Creating layer inception_5b/3x3
I0403 15:32:37.061450 19846 net.cpp:91] Creating Layer inception_5b/3x3
I0403 15:32:37.061467 19846 net.cpp:425] inception_5b/3x3 <- inception_5b/3x3_reduce
I0403 15:32:37.061487 19846 net.cpp:399] inception_5b/3x3 -> inception_5b/3x3
I0403 15:32:37.068552 19846 net.cpp:141] Setting up inception_5b/3x3
I0403 15:32:37.068580 19846 net.cpp:148] Top shape: 24 384 7 7 (451584)
I0403 15:32:37.068596 19846 net.cpp:156] Memory required for data: 1332467232
I0403 15:32:37.068614 19846 layer_factory.hpp:77] Creating layer inception_5b/relu_3x3
I0403 15:32:37.068632 19846 net.cpp:91] Creating Layer inception_5b/relu_3x3
I0403 15:32:37.068648 19846 net.cpp:425] inception_5b/relu_3x3 <- inception_5b/3x3
I0403 15:32:37.068668 19846 net.cpp:386] inception_5b/relu_3x3 -> inception_5b/3x3 (in-place)
I0403 15:32:37.068970 19846 net.cpp:141] Setting up inception_5b/relu_3x3
I0403 15:32:37.068996 19846 net.cpp:148] Top shape: 24 384 7 7 (451584)
I0403 15:32:37.069011 19846 net.cpp:156] Memory required for data: 1334273568
I0403 15:32:37.069026 19846 layer_factory.hpp:77] Creating layer inception_5b/5x5_reduce
I0403 15:32:37.069067 19846 net.cpp:91] Creating Layer inception_5b/5x5_reduce
I0403 15:32:37.069087 19846 net.cpp:425] inception_5b/5x5_reduce <- inception_5a/output_inception_5a/output_0_split_2
I0403 15:32:37.069109 19846 net.cpp:399] inception_5b/5x5_reduce -> inception_5b/5x5_reduce
I0403 15:32:37.070359 19846 net.cpp:141] Setting up inception_5b/5x5_reduce
I0403 15:32:37.070387 19846 net.cpp:148] Top shape: 24 48 7 7 (56448)
I0403 15:32:37.070402 19846 net.cpp:156] Memory required for data: 1334499360
I0403 15:32:37.070421 19846 layer_factory.hpp:77] Creating layer inception_5b/relu_5x5_reduce
I0403 15:32:37.070441 19846 net.cpp:91] Creating Layer inception_5b/relu_5x5_reduce
I0403 15:32:37.070458 19846 net.cpp:425] inception_5b/relu_5x5_reduce <- inception_5b/5x5_reduce
I0403 15:32:37.070475 19846 net.cpp:386] inception_5b/relu_5x5_reduce -> inception_5b/5x5_reduce (in-place)
I0403 15:32:37.070868 19846 net.cpp:141] Setting up inception_5b/relu_5x5_reduce
I0403 15:32:37.070907 19846 net.cpp:148] Top shape: 24 48 7 7 (56448)
I0403 15:32:37.070921 19846 net.cpp:156] Memory required for data: 1334725152
I0403 15:32:37.070936 19846 layer_factory.hpp:77] Creating layer inception_5b/5x5
I0403 15:32:37.070961 19846 net.cpp:91] Creating Layer inception_5b/5x5
I0403 15:32:37.070979 19846 net.cpp:425] inception_5b/5x5 <- inception_5b/5x5_reduce
I0403 15:32:37.070998 19846 net.cpp:399] inception_5b/5x5 -> inception_5b/5x5
I0403 15:32:37.073017 19846 net.cpp:141] Setting up inception_5b/5x5
I0403 15:32:37.073045 19846 net.cpp:148] Top shape: 24 128 7 7 (150528)
I0403 15:32:37.073061 19846 net.cpp:156] Memory required for data: 1335327264
I0403 15:32:37.073079 19846 layer_factory.hpp:77] Creating layer inception_5b/relu_5x5
I0403 15:32:37.073099 19846 net.cpp:91] Creating Layer inception_5b/relu_5x5
I0403 15:32:37.073115 19846 net.cpp:425] inception_5b/relu_5x5 <- inception_5b/5x5
I0403 15:32:37.073132 19846 net.cpp:386] inception_5b/relu_5x5 -> inception_5b/5x5 (in-place)
I0403 15:32:37.073320 19846 net.cpp:141] Setting up inception_5b/relu_5x5
I0403 15:32:37.073346 19846 net.cpp:148] Top shape: 24 128 7 7 (150528)
I0403 15:32:37.073362 19846 net.cpp:156] Memory required for data: 1335929376
I0403 15:32:37.073377 19846 layer_factory.hpp:77] Creating layer inception_5b/pool
I0403 15:32:37.073395 19846 net.cpp:91] Creating Layer inception_5b/pool
I0403 15:32:37.073411 19846 net.cpp:425] inception_5b/pool <- inception_5a/output_inception_5a/output_0_split_3
I0403 15:32:37.073429 19846 net.cpp:399] inception_5b/pool -> inception_5b/pool
I0403 15:32:37.073501 19846 net.cpp:141] Setting up inception_5b/pool
I0403 15:32:37.073525 19846 net.cpp:148] Top shape: 24 832 7 7 (978432)
I0403 15:32:37.073541 19846 net.cpp:156] Memory required for data: 1339843104
I0403 15:32:37.073556 19846 layer_factory.hpp:77] Creating layer inception_5b/pool_proj
I0403 15:32:37.073577 19846 net.cpp:91] Creating Layer inception_5b/pool_proj
I0403 15:32:37.073596 19846 net.cpp:425] inception_5b/pool_proj <- inception_5b/pool
I0403 15:32:37.073616 19846 net.cpp:399] inception_5b/pool_proj -> inception_5b/pool_proj
I0403 15:32:37.076035 19846 net.cpp:141] Setting up inception_5b/pool_proj
I0403 15:32:37.076066 19846 net.cpp:148] Top shape: 24 128 7 7 (150528)
I0403 15:32:37.076081 19846 net.cpp:156] Memory required for data: 1340445216
I0403 15:32:37.076100 19846 layer_factory.hpp:77] Creating layer inception_5b/relu_pool_proj
I0403 15:32:37.076122 19846 net.cpp:91] Creating Layer inception_5b/relu_pool_proj
I0403 15:32:37.076139 19846 net.cpp:425] inception_5b/relu_pool_proj <- inception_5b/pool_proj
I0403 15:32:37.076158 19846 net.cpp:386] inception_5b/relu_pool_proj -> inception_5b/pool_proj (in-place)
I0403 15:32:37.076462 19846 net.cpp:141] Setting up inception_5b/relu_pool_proj
I0403 15:32:37.076489 19846 net.cpp:148] Top shape: 24 128 7 7 (150528)
I0403 15:32:37.076504 19846 net.cpp:156] Memory required for data: 1341047328
I0403 15:32:37.076520 19846 layer_factory.hpp:77] Creating layer inception_5b/output
I0403 15:32:37.076537 19846 net.cpp:91] Creating Layer inception_5b/output
I0403 15:32:37.076568 19846 net.cpp:425] inception_5b/output <- inception_5b/1x1
I0403 15:32:37.076586 19846 net.cpp:425] inception_5b/output <- inception_5b/3x3
I0403 15:32:37.076607 19846 net.cpp:425] inception_5b/output <- inception_5b/5x5
I0403 15:32:37.076624 19846 net.cpp:425] inception_5b/output <- inception_5b/pool_proj
I0403 15:32:37.076642 19846 net.cpp:399] inception_5b/output -> inception_5b/output
I0403 15:32:37.076694 19846 net.cpp:141] Setting up inception_5b/output
I0403 15:32:37.076720 19846 net.cpp:148] Top shape: 24 1024 7 7 (1204224)
I0403 15:32:37.076736 19846 net.cpp:156] Memory required for data: 1345864224
I0403 15:32:37.076751 19846 layer_factory.hpp:77] Creating layer pool5/7x7_s1
I0403 15:32:37.076769 19846 net.cpp:91] Creating Layer pool5/7x7_s1
I0403 15:32:37.076786 19846 net.cpp:425] pool5/7x7_s1 <- inception_5b/output
I0403 15:32:37.076807 19846 net.cpp:399] pool5/7x7_s1 -> pool5/7x7_s1
I0403 15:32:37.077029 19846 net.cpp:141] Setting up pool5/7x7_s1
I0403 15:32:37.077057 19846 net.cpp:148] Top shape: 24 1024 1 1 (24576)
I0403 15:32:37.077072 19846 net.cpp:156] Memory required for data: 1345962528
I0403 15:32:37.077087 19846 layer_factory.hpp:77] Creating layer pool5/drop_7x7_s1
I0403 15:32:37.077107 19846 net.cpp:91] Creating Layer pool5/drop_7x7_s1
I0403 15:32:37.077124 19846 net.cpp:425] pool5/drop_7x7_s1 <- pool5/7x7_s1
I0403 15:32:37.077142 19846 net.cpp:386] pool5/drop_7x7_s1 -> pool5/7x7_s1 (in-place)
I0403 15:32:37.077191 19846 net.cpp:141] Setting up pool5/drop_7x7_s1
I0403 15:32:37.077217 19846 net.cpp:148] Top shape: 24 1024 1 1 (24576)
I0403 15:32:37.077234 19846 net.cpp:156] Memory required for data: 1346060832
I0403 15:32:37.077249 19846 layer_factory.hpp:77] Creating layer loss3/classifier_plantvillage
I0403 15:32:37.077267 19846 net.cpp:91] Creating Layer loss3/classifier_plantvillage
I0403 15:32:37.077285 19846 net.cpp:425] loss3/classifier_plantvillage <- pool5/7x7_s1
I0403 15:32:37.077306 19846 net.cpp:399] loss3/classifier_plantvillage -> loss3/classifier_plantvillage
I0403 15:32:37.077734 19846 net.cpp:141] Setting up loss3/classifier_plantvillage
I0403 15:32:37.077759 19846 net.cpp:148] Top shape: 24 38 (912)
I0403 15:32:37.077775 19846 net.cpp:156] Memory required for data: 1346064480
I0403 15:32:37.077793 19846 layer_factory.hpp:77] Creating layer loss3/classifier_plantvillage_loss3/classifier_plantvillage_0_split
I0403 15:32:37.077811 19846 net.cpp:91] Creating Layer loss3/classifier_plantvillage_loss3/classifier_plantvillage_0_split
I0403 15:32:37.077827 19846 net.cpp:425] loss3/classifier_plantvillage_loss3/classifier_plantvillage_0_split <- loss3/classifier_plantvillage
I0403 15:32:37.077857 19846 net.cpp:399] loss3/classifier_plantvillage_loss3/classifier_plantvillage_0_split -> loss3/classifier_plantvillage_loss3/classifier_plantvillage_0_split_0
I0403 15:32:37.077882 19846 net.cpp:399] loss3/classifier_plantvillage_loss3/classifier_plantvillage_0_split -> loss3/classifier_plantvillage_loss3/classifier_plantvillage_0_split_1
I0403 15:32:37.077904 19846 net.cpp:399] loss3/classifier_plantvillage_loss3/classifier_plantvillage_0_split -> loss3/classifier_plantvillage_loss3/classifier_plantvillage_0_split_2
I0403 15:32:37.077925 19846 net.cpp:399] loss3/classifier_plantvillage_loss3/classifier_plantvillage_0_split -> loss3/classifier_plantvillage_loss3/classifier_plantvillage_0_split_3
I0403 15:32:37.078038 19846 net.cpp:141] Setting up loss3/classifier_plantvillage_loss3/classifier_plantvillage_0_split
I0403 15:32:37.078063 19846 net.cpp:148] Top shape: 24 38 (912)
I0403 15:32:37.078079 19846 net.cpp:148] Top shape: 24 38 (912)
I0403 15:32:37.078095 19846 net.cpp:148] Top shape: 24 38 (912)
I0403 15:32:37.078111 19846 net.cpp:148] Top shape: 24 38 (912)
I0403 15:32:37.078126 19846 net.cpp:156] Memory required for data: 1346079072
I0403 15:32:37.078141 19846 layer_factory.hpp:77] Creating layer loss1/loss
I0403 15:32:37.078178 19846 net.cpp:91] Creating Layer loss1/loss
I0403 15:32:37.078197 19846 net.cpp:425] loss1/loss <- loss1/classifier_plantvillage_loss1/classifier_plantvillage_0_split_0
I0403 15:32:37.078227 19846 net.cpp:425] loss1/loss <- label_data_1_split_0
…
