…
I0403 15:24:24.998637 19312 net.cpp:313] The NetState phase (1) differed from the phase (0) specified by a rule in layer data
I0403 15:24:24.999786 19312 net.cpp:49] Initializing net from parameters: 
state {
  phase: TEST
}
layer {
  name: "data"
  type: "Data"
  top: "data"
  top: "label"
  include {
    phase: TEST
  }
  transform_param {
    mirror: false
    crop_size: 224
    mean_file: "/home/mohanty/data/final_dataset/lmdb/grayscale-40-60/mean.binaryproto"
  }
  data_param {
    source: "/home/mohanty/data/final_dataset/lmdb/grayscale-40-60/test_db"
    batch_size: 24
    backend: LMDB
  }
}
layer {
  name: "conv1/7x7_s2"
  type: "Convolution"
  bottom: "data"
  top: "conv1/7x7_s2"
  param {
    lr_mult: 1
    decay_mult: 1
  }
  param {
    lr_mult: 2
    decay_mult: 0
  }
  convolution_param {
    num_output: 64
    pad: 3
    kernel_size: 7
    stride: 2
    weight_filler {
      type: "xavier"
      std: 0.1
    }
    bias_filler {
      type: "constant"
      value: 0.2
    }
  }
}
layer {
  name: "conv1/relu_7x7"
  type: "ReLU"
  bottom: "conv1/7x7_s2"
  top: "conv1/7x7_s2"
}
layer {
  name: "pool1/3x3_s2"
  type: "Pooling"
  bottom: "conv1/7x7_s2"
  top: "pool1/3x3_s2"
  pooling_param {
    pool: MAX
    kernel_size: 3
    stride: 2
  }
}
layer {
  name: "pool1/norm1"
  type: "LRN"
  bottom: "pool1/3x3_s2"
  top: "pool1/norm1"
  lrn_param {
    local_size: 5
    alpha: 0.0001
    beta: 0.75
  }
}
layer {
  name: "conv2/3x3_reduce"
  type: "Convolution"
  bottom: "pool1/norm1"
  top: "conv2/3x3_reduce"
  param {
    lr_mult: 1
    decay_mult: 1
  }
  param {
    lr_mult: 2
    decay_mult: 0
  }
  convolution_param {
    num_output: 64
    kernel_size: 1
    weight_filler {
      type: "xavier"
      std: 0.1
    }
    bias_filler {
      type: "constant"
      value: 0.2
    }
  }
}
layer {
  name: "conv2/relu_3x3_reduce"
  type: "ReLU"
  bottom: "conv2/3x3_reduce"
  top: "conv2/3x3_reduce"
}
layer {
  name: "conv2/3x3"
  type: "Convolution"
  bottom: "conv2/3x3_reduce"
  top: "conv2/3x3"
  param {
    lr_mult: 1
    decay_mult: 1
  }
  param {
    lr_mult: 2
    decay_mult: 0
  }
  convolution_param {
    num_output: 192
    pad: 1
    kernel_size: 3
    weight_filler {
      type: "xavier"
      std: 0.03
    }
    bias_filler {
      type: "constant"
      value: 0.2
    }
  }
}
layer {
  name: "conv2/relu_3x3"
  type: "ReLU"
  bottom: "conv2/3x3"
  top: "conv2/3x3"
}
layer {
  name: "conv2/norm2"
  type: "LRN"
  bottom: "conv2/3x3"
  top: "conv2/norm2"
  lrn_param {
    local_size: 5
    alpha: 0.0001
    beta: 0.75
  }
}
layer {
  name: "pool2/3x3_s2"
  type: "Pooling"
  bottom: "conv2/norm2"
  top: "pool2/3x3_s2"
  pooling_param {
    pool: MAX
    kernel_size: 3
    stride: 2
  }
}
layer {
  name: "inception_3a/1x1"
  type: "Convolution"
  bottom: "pool2/3x3_s2"
  top: "inception_3a/1x1"
  param {
    lr_mult: 1
    decay_mult: 1
  }
  param {
    lr_mult: 2
    decay_mult: 0
  }
  convolution_param {
    num_output: 64
    kernel_size: 1
    weight_filler {
      type: "xavier"
      std: 0.03
    }
    bias_filler {
      type: "constant"
      value: 0.2
    }
  }
}
layer {
  name: "inception_3a/relu_1x1"
  type: "ReLU"
  bottom: "inception_3a/1x1"
  top: "inception_3a/1x1"
}
layer {
  name: "inception_3a/3x3_reduce"
  type: "Convolution"
  bottom: "pool2/3x3_s2"
  top: "inception_3a/3x3_reduce"
  param {
    lr_mult: 1
    decay_mult: 1
  }
  param {
    lr_mult: 2
    decay_mult: 0
  }
  convolution_param {
    num_output: 96
    kernel_size: 1
    weight_filler {
      type: "xavier"
      std: 0.09
    }
    bias_filler {
      type: "constant"
      value: 0.2
    }
  }
}
layer {
  name: "inception_3a/relu_3x3_reduce"
  type: "ReLU"
  bottom: "inception_3a/3x3_reduce"
  top: "inception_3a/3x3_reduce"
}
layer {
  name: "inception_3a/3x3"
  type: "Convolution"
  bottom: "inception_3a/3x3_reduce"
  top: "inception_3a/3x3"
  param {
    lr_mult: 1
    decay_mult: 1
  }
  param {
    lr_mult: 2
    decay_mult: 0
  }
  convolution_param {
    num_output: 128
    pad: 1
    kernel_size: 3
    weight_filler {
      type: "xavier"
      std: 0.03
    }
    bias_filler {
      type: "constant"
      value: 0.2
    }
  }
}
layer {
  name: "inception_3a/relu_3x3"
  type: "ReLU"
  bottom: "inception_3a/3x3"
  top: "inception_3a/3x3"
}
layer {
  name: "inception_3a/5x5_reduce"
  type: "Convolution"
  bottom: "pool2/3x3_s2"
  top: "inception_3a/5x5_reduce"
  param {
    lr_mult: 1
    decay_mult: 1
  }
  param {
    lr_mult: 2
    decay_mult: 0
  }
  convolution_param {
    num_output: 16
    kernel_size: 1
    weight_filler {
      type: "xavier"
      std: 0.2
    }
    bias_filler {
      type: "constant"
      value: 0.2
    }
  }
}
layer {
  name: "inception_3a/relu_5x5_reduce"
  type: "ReLU"
  bottom: "inception_3a/5x5_reduce"
  top: "inception_3a/5x5_reduce"
}
layer {
  name: "inception_3a/5x5"
  type: "Convolution"
  bottom: "inception_3a/5x5_reduce"
  top: "inception_3a/5x5"
  param {
    lr_mult: 1
    decay_mult: 1
  }
  param {
    lr_mult: 2
    decay_mult: 0
  }
  convolution_param {
    num_output: 32
    pad: 2
    kernel_size: 5
    weight_filler {
      type: "xavier"
      std: 0.03
    }
    bias_filler {
      type: "constant"
      value: 0.2
    }
  }
}
layer {
  name: "inception_3a/relu_5x5"
  type: "ReLU"
  bottom: "inception_3a/5x5"
  top: "inception_3a/5x5"
}
layer {
  name: "inception_3a/pool"
  type: "Pooling"
  bottom: "pool2/3x3_s2"
  top: "inception_3a/pool"
  pooling_param {
    pool: MAX
    kernel_size: 3
    stride: 1
    pad: 1
  }
}
layer {
  name: "inception_3a/pool_proj"
  type: "Convolution"
  bottom: "inception_3a/pool"
  top: "inception_3a/pool_proj"
  param {
    lr_mult: 1
    decay_mult: 1
  }
  param {
    lr_mult: 2
    decay_mult: 0
  }
  convolution_param {
    num_output: 32
    kernel_size: 1
    weight_filler {
      type: "xavier"
      std: 0.1
    }
    bias_filler {
      type: "constant"
      value: 0.2
    }
  }
}
layer {
  name: "inception_3a/relu_pool_proj"
  type: "ReLU"
  bottom: "inception_3a/pool_proj"
  top: "inception_3a/pool_proj"
}
layer {
  name: "inception_3a/output"
  type: "Concat"
  bottom: "inception_3a/1x1"
  bottom: "inception_3a/3x3"
  bottom: "inception_3a/5x5"
  bottom: "inception_3a/pool_proj"
  top: "inception_3a/output"
}
layer {
  name: "inception_3b/1x1"
  type: "Convolution"
  bottom: "inception_3a/output"
  top: "inception_3b/1x1"
  param {
    lr_mult: 1
    decay_mult: 1
  }
  param {
    lr_mult: 2
    decay_mult: 0
  }
  convolution_param {
    num_output: 128
    kernel_size: 1
    weight_filler {
      type: "xavier"
      std: 0.03
    }
    bias_filler {
      type: "constant"
      value: 0.2
    }
  }
}
layer {
  name: "inception_3b/relu_1x1"
  type: "ReLU"
  bottom: "inception_3b/1x1"
  top: "inception_3b/1x1"
}
layer {
  name: "inception_3b/3x3_reduce"
  type: "Convolution"
  bottom: "inception_3a/output"
  top: "inception_3b/3x3_reduce"
  param {
    lr_mult: 1
    decay_mult: 1
  }
  param {
    lr_mult: 2
    decay_mult: 0
  }
  convolution_param {
    num_output: 128
    kernel_size: 1
    weight_filler {
      type: "xavier"
      std: 0.09
    }
    bias_filler {
      type: "constant"
      value: 0.2
    }
  }
}
layer {
  name: "inception_3b/relu_3x3_reduce"
  type: "ReLU"
  bottom: "inception_3b/3x3_reduce"
  top: "inception_3b/3x3_reduce"
}
layer {
  name: "inception_3b/3x3"
  type: "Convolution"
  bottom: "inception_3b/3x3_reduce"
  top: "inception_3b/3x3"
  param {
    lr_mult: 1
    decay_mult: 1
  }
  param {
    lr_mult: 2
    decay_mult: 0
  }
  convolution_param {
    num_output: 192
    pad: 1
    kernel_size: 3
    weight_filler {
      type: "xavier"
      std: 0.03
    }
    bias_filler {
      type: "constant"
      value: 0.2
    }
  }
}
layer {
  name: "inception_3b/relu_3x3"
  type: "ReLU"
  bottom: "inception_3b/3x3"
  top: "inception_3b/3x3"
}
layer {
  name: "inception_3b/5x5_reduce"
  type: "Convolution"
  bottom: "inception_3a/output"
  top: "inception_3b/5x5_reduce"
  param {
    lr_mult: 1
    decay_mult: 1
  }
  param {
    lr_mult: 2
    decay_mult: 0
  }
  convolution_param {
    num_output: 32
    kernel_size: 1
    weight_filler {
      type: "xavier"
      std: 0.2
    }
    bias_filler {
      type: "constant"
      value: 0.2
    }
  }
}
layer {
  name: "inception_3b/relu_5x5_reduce"
  type: "ReLU"
  bottom: "inception_3b/5x5_reduce"
  top: "inception_3b/5x5_reduce"
}
layer {
  name: "inception_3b/5x5"
  type: "Convolution"
  bottom: "inception_3b/5x5_reduce"
  top: "inception_3b/5x5"
  param {
    lr_mult: 1
    decay_mult: 1
  }
  param {
    lr_mult: 2
    decay_mult: 0
  }
  convolution_param {
    num_output: 96
    pad: 2
    kernel_size: 5
    weight_filler {
      type: "xavier"
      std: 0.03
    }
    bias_filler {
      type: "constant"
      value: 0.2
    }
  }
}
layer {
  name: "inception_3b/relu_5x5"
  type: "ReLU"
  bottom: "inception_3b/5x5"
  top: "inception_3b/5x5"
}
layer {
  name: "inception_3b/pool"
  type: "Pooling"
  bottom: "inception_3a/output"
  top: "inception_3b/pool"
  pooling_param {
    pool: MAX
    kernel_size: 3
    stride: 1
    pad: 1
  }
}
layer {
  name: "inception_3b/pool_proj"
  type: "Convolution"
  bottom: "inception_3b/pool"
  top: "inception_3b/pool_proj"
  param {
    lr_mult: 1
    decay_mult: 1
  }
  param {
    lr_mult: 2
    decay_mult: 0
  }
  convolution_param {
    num_output: 64
    kernel_size: 1
    weight_filler {
      type: "xavier"
      std: 0.1
    }
    bias_filler {
      type: "constant"
      value: 0.2
    }
  }
}
layer {
  name: "inception_3b/relu_pool_proj"
  type: "ReLU"
  bottom: "inception_3b/pool_proj"
  top: "inception_3b/pool_proj"
}
layer {
  name: "inception_3b/output"
  type: "Concat"
  bottom: "inception_3b/1x1"
  bottom: "inception_3b/3x3"
  bottom: "inception_3b/5x5"
  bottom: "inception_3b/pool_proj"
  top: "inception_3b/output"
}
layer {
  name: "pool3/3x3_s2"
  type: "Pooling"
  bottom: "inception_3b/output"
  top: "pool3/3x3_s2"
  pooling_param {
    pool: MAX
    kernel_size: 3
    stride: 2
  }
}
layer {
  name: "inception_4a/1x1"
  type: "Convolution"
  bottom: "pool3/3x3_s2"
  top: "inception_4a/1x1"
  param {
    lr_mult: 1
    decay_mult: 1
  }
  param {
    lr_mult: 2
    decay_mult: 0
  }
  convolution_param {
    num_output: 192
    kernel_size: 1
    weight_filler {
      type: "xavier"
      std: 0.03
    }
    bias_filler {
      type: "constant"
      value: 0.2
    }
  }
}
layer {
  name: "inception_4a/relu_1x1"
  type: "ReLU"
  bottom: "inception_4a/1x1"
  top: "inception_4a/1x1"
}
layer {
  name: "inception_4a/3x3_reduce"
  type: "Convolution"
  bottom: "pool3/3x3_s2"
  top: "inception_4a/3x3_reduce"
  param {
    lr_mult: 1
    decay_mult: 1
  }
  param {
    lr_mult: 2
    decay_mult: 0
  }
  convolution_param {
    num_output: 96
    kernel_size: 1
    weight_filler {
      type: "xavier"
      std: 0.09
    }
    bias_filler {
      type: "constant"
      value: 0.2
    }
  }
}
layer {
  name: "inception_4a/relu_3x3_reduce"
  type: "ReLU"
  bottom: "inception_4a/3x3_reduce"
  top: "inception_4a/3x3_reduce"
}
layer {
  name: "inception_4a/3x3"
  type: "Convolution"
  bottom: "inception_4a/3x3_reduce"
  top: "inception_4a/3x3"
  param {
    lr_mult: 1
    decay_mult: 1
  }
  param {
    lr_mult: 2
    decay_mult: 0
  }
  convolution_param {
    num_output: 208
    pad: 1
    kernel_size: 3
    weight_filler {
      type: "xavier"
      std: 0.03
    }
    bias_filler {
      type: "constant"
      value: 0.2
    }
  }
}
layer {
  name: "inception_4a/relu_3x3"
  type: "ReLU"
  bottom: "inception_4a/3x3"
  top: "inception_4a/3x3"
}
layer {
  name: "inception_4a/5x5_reduce"
  type: "Convolution"
  bottom: "pool3/3x3_s2"
  top: "inception_4a/5x5_reduce"
  param {
    lr_mult: 1
    decay_mult: 1
  }
  param {
    lr_mult: 2
    decay_mult: 0
  }
  convolution_param {
    num_output: 16
    kernel_size: 1
    weight_filler {
      type: "xavier"
      std: 0.2
    }
    bias_filler {
      type: "constant"
      value: 0.2
    }
  }
}
layer {
  name: "inception_4a/relu_5x5_reduce"
  type: "ReLU"
  bottom: "inception_4a/5x5_reduce"
  top: "inception_4a/5x5_reduce"
}
layer {
  name: "inception_4a/5x5"
  type: "Convolution"
  bottom: "inception_4a/5x5_reduce"
  top: "inception_4a/5x5"
  param {
    lr_mult: 1
    decay_mult: 1
  }
  param {
    lr_mult: 2
    decay_mult: 0
  }
  convolution_param {
    num_output: 48
    pad: 2
    kernel_size: 5
    weight_filler {
      type: "xavier"
      std: 0.03
    }
    bias_filler {
      type: "constant"
      value: 0.2
    }
  }
}
layer {
  name: "inception_4a/relu_5x5"
  type: "ReLU"
  bottom: "inception_4a/5x5"
  top: "inception_4a/5x5"
}
layer {
  name: "inception_4a/pool"
  type: "Pooling"
  bottom: "pool3/3x3_s2"
  top: "inception_4a/pool"
  pooling_param {
    pool: MAX
    kernel_size: 3
    stride: 1
    pad: 1
  }
}
layer {
  name: "inception_4a/pool_proj"
  type: "Convolution"
  bottom: "inception_4a/pool"
  top: "inception_4a/pool_proj"
  param {
    lr_mult: 1
    decay_mult: 1
  }
  param {
    lr_mult: 2
    decay_mult: 0
  }
  convolution_param {
    num_output: 64
    kernel_size: 1
    weight_filler {
      type: "xavier"
      std: 0.1
    }
    bias_filler {
      type: "constant"
      value: 0.2
    }
  }
}
layer {
  name: "inception_4a/relu_pool_proj"
  type: "ReLU"
  bottom: "inception_4a/pool_proj"
  top: "inception_4a/pool_proj"
}
layer {
  name: "inception_4a/output"
  type: "Concat"
  bottom: "inception_4a/1x1"
  bottom: "inception_4a/3x3"
  bottom: "inception_4a/5x5"
  bottom: "inception_4a/pool_proj"
  top: "inception_4a/output"
}
layer {
  name: "loss1/ave_pool"
  type: "Pooling"
  bottom: "inception_4a/output"
  top: "loss1/ave_pool"
  pooling_param {
    pool: AVE
    kernel_size: 5
    stride: 3
  }
}
layer {
  name: "loss1/conv"
  type: "Convolution"
  bottom: "loss1/ave_pool"
  top: "loss1/conv"
  param {
    lr_mult: 1
    decay_mult: 1
  }
  param {
    lr_mult: 2
    decay_mult: 0
  }
  convolution_param {
    num_output: 128
    kernel_size: 1
    weight_filler {
      type: "xavier"
      std: 0.08
    }
    bias_filler {
      type: "constant"
      value: 0.2
    }
  }
}
layer {
  name: "loss1/relu_conv"
  type: "ReLU"
  bottom: "loss1/conv"
  top: "loss1/conv"
}
layer {
  name: "loss1/fc"
  type: "InnerProduct"
  bottom: "loss1/conv"
  top: "loss1/fc"
  param {
    lr_mult: 1
    decay_mult: 1
  }
  param {
    lr_mult: 2
    decay_mult: 0
  }
  inner_product_param {
    num_output: 1024
    weight_filler {
      type: "xavier"
      std: 0.02
    }
    bias_filler {
      type: "constant"
      value: 0.2
    }
  }
}
layer {
  name: "loss1/relu_fc"
  type: "ReLU"
  bottom: "loss1/fc"
  top: "loss1/fc"
}
layer {
  name: "loss1/drop_fc"
  type: "Dropout"
  bottom: "loss1/fc"
  top: "loss1/fc"
  dropout_param {
    dropout_ratio: 0.7
  }
}
layer {
  name: "loss1/classifier_plantvillage"
  type: "InnerProduct"
  bottom: "loss1/fc"
  top: "loss1/classifier_plantvillage"
  param {
    lr_mult: 1
    decay_mult: 1
  }
  param {
    lr_mult: 2
    decay_mult: 0
  }
  inner_product_param {
    num_output: 38
    weight_filler {
      type: "xavier"
      std: 0.0009765625
    }
    bias_filler {
      type: "constant"
      value: 0
    }
  }
}
layer {
  name: "inception_4b/1x1"
  type: "Convolution"
  bottom: "inception_4a/output"
  top: "inception_4b/1x1"
  param {
    lr_mult: 1
    decay_mult: 1
  }
  param {
    lr_mult: 2
    decay_mult: 0
  }
  convolution_param {
    num_output: 160
    kernel_size: 1
    weight_filler {
      type: "xavier"
      std: 0.03
    }
    bias_filler {
      type: "constant"
      value: 0.2
    }
  }
}
layer {
  name: "inception_4b/relu_1x1"
  type: "ReLU"
  bottom: "inception_4b/1x1"
  top: "inception_4b/1x1"
}
layer {
  name: "inception_4b/3x3_reduce"
  type: "Convolution"
  bottom: "inception_4a/output"
  top: "inception_4b/3x3_reduce"
  param {
    lr_mult: 1
    decay_mult: 1
  }
  param {
    lr_mult: 2
    decay_mult: 0
  }
  convolution_param {
    num_output: 112
    kernel_size: 1
    weight_filler {
      type: "xavier"
      std: 0.09
    }
    bias_filler {
      type: "constant"
      value: 0.2
    }
  }
}
layer {
  name: "inception_4b/relu_3x3_reduce"
  type: "ReLU"
  bottom: "inception_4b/3x3_reduce"
  top: "inception_4b/3x3_reduce"
}
layer {
  name: "inception_4b/3x3"
  type: "Convolution"
  bottom: "inception_4b/3x3_reduce"
  top: "inception_4b/3x3"
  param {
    lr_mult: 1
    decay_mult: 1
  }
  param {
    lr_mult: 2
    decay_mult: 0
  }
  convolution_param {
    num_output: 224
    pad: 1
    kernel_size: 3
    weight_filler {
      type: "xavier"
      std: 0.03
    }
    bias_filler {
      type: "constant"
      value: 0.2
    }
  }
}
layer {
  name: "inception_4b/relu_3x3"
  type: "ReLU"
  bottom: "inception_4b/3x3"
  top: "inception_4b/3x3"
}
layer {
  name: "inception_4b/5x5_reduce"
  type: "Convolution"
  bottom: "inception_4a/output"
  top: "inception_4b/5x5_reduce"
  param {
    lr_mult: 1
    decay_mult: 1
  }
  param {
    lr_mult: 2
    decay_mult: 0
  }
  convolution_param {
    num_output: 24
    kernel_size: 1
    weight_filler {
      type: "xavier"
      std: 0.2
    }
    bias_filler {
      type: "constant"
      value: 0.2
    }
  }
}
layer {
  name: "inception_4b/relu_5x5_reduce"
  type: "ReLU"
  bottom: "inception_4b/5x5_reduce"
  top: "inception_4b/5x5_reduce"
}
layer {
  name: "inception_4b/5x5"
  type: "Convolution"
  bottom: "inception_4b/5x5_reduce"
  top: "inception_4b/5x5"
  param {
    lr_mult: 1
    decay_mult: 1
  }
  param {
    lr_mult: 2
    decay_mult: 0
  }
  convolution_param {
    num_output: 64
    pad: 2
    kernel_size: 5
    weight_filler {
      type: "xavier"
      std: 0.03
    }
    bias_filler {
      type: "constant"
      value: 0.2
    }
  }
}
layer {
  name: "inception_4b/relu_5x5"
  type: "ReLU"
  bottom: "inception_4b/5x5"
  top: "inception_4b/5x5"
}
layer {
  name: "inception_4b/pool"
  type: "Pooling"
  bottom: "inception_4a/output"
  top: "inception_4b/pool"
  pooling_param {
    pool: MAX
    kernel_size: 3
    stride: 1
    pad: 1
  }
}
layer {
  name: "inception_4b/pool_proj"
  type: "Convolution"
  bottom: "inception_4b/pool"
  top: "inception_4b/pool_proj"
  param {
    lr_mult: 1
    decay_mult: 1
  }
  param {
    lr_mult: 2
    decay_mult: 0
  }
  convolution_param {
    num_output: 64
    kernel_size: 1
    weight_filler {
      type: "xavier"
      std: 0.1
    }
    bias_filler {
      type: "constant"
      value: 0.2
    }
  }
}
layer {
  name: "inception_4b/relu_pool_proj"
  type: "ReLU"
  bottom: "inception_4b/pool_proj"
  top: "inception_4b/pool_proj"
}
layer {
  name: "inception_4b/output"
  type: "Concat"
  bottom: "inception_4b/1x1"
  bottom: "inception_4b/3x3"
  bottom: "inception_4b/5x5"
  bottom: "inception_4b/pool_proj"
  top: "inception_4b/output"
}
layer {
  name: "inception_4c/1x1"
  type: "Convolution"
  bottom: "inception_4b/output"
  top: "inception_4c/1x1"
  param {
    lr_mult: 1
    decay_mult: 1
  }
  param {
    lr_mult: 2
    decay_mult: 0
  }
  convolution_param {
    num_output: 128
    kernel_size: 1
    weight_filler {
      type: "xavier"
      std: 0.03
    }
    bias_filler {
      type: "constant"
      value: 0.2
    }
  }
}
layer {
  name: "inception_4c/relu_1x1"
  type: "ReLU"
  bottom: "inception_4c/1x1"
  top: "inception_4c/1x1"
}
layer {
  name: "inception_4c/3x3_reduce"
  type: "Convolution"
  bottom: "inception_4b/output"
  top: "inception_4c/3x3_reduce"
  param {
    lr_mult: 1
    decay_mult: 1
  }
  param {
    lr_mult: 2
    decay_mult: 0
  }
  convolution_param {
    num_output: 128
    kernel_size: 1
    weight_filler {
      type: "xavier"
      std: 0.09
    }
    bias_filler {
      type: "constant"
      value: 0.2
    }
  }
}
layer {
  name: "inception_4c/relu_3x3_reduce"
  type: "ReLU"
  bottom: "inception_4c/3x3_reduce"
  top: "inception_4c/3x3_reduce"
}
layer {
  name: "inception_4c/3x3"
  type: "Convolution"
  bottom: "inception_4c/3x3_reduce"
  top: "inception_4c/3x3"
  param {
    lr_mult: 1
    decay_mult: 1
  }
  param {
    lr_mult: 2
    decay_mult: 0
  }
  convolution_param {
    num_output: 256
    pad: 1
    kernel_size: 3
    weight_filler {
      type: "xavier"
      std: 0.03
    }
    bias_filler {
      type: "constant"
      value: 0.2
    }
  }
}
layer {
  name: "inception_4c/relu_3x3"
  type: "ReLU"
  bottom: "inception_4c/3x3"
  top: "inception_4c/3x3"
}
layer {
  name: "inception_4c/5x5_reduce"
  type: "Convolution"
  bottom: "inception_4b/output"
  top: "inception_4c/5x5_reduce"
  param {
    lr_mult: 1
    decay_mult: 1
  }
  param {
    lr_mult: 2
    decay_mult: 0
  }
  convolution_param {
    num_output: 24
    kernel_size: 1
    weight_filler {
      type: "xavier"
      std: 0.2
    }
    bias_filler {
      type: "constant"
      value: 0.2
    }
  }
}
layer {
  name: "inception_4c/relu_5x5_reduce"
  type: "ReLU"
  bottom: "inception_4c/5x5_reduce"
  top: "inception_4c/5x5_reduce"
}
layer {
  name: "inception_4c/5x5"
  type: "Convolution"
  bottom: "inception_4c/5x5_reduce"
  top: "inception_4c/5x5"
  param {
    lr_mult: 1
    decay_mult: 1
  }
  param {
    lr_mult: 2
    decay_mult: 0
  }
  convolution_param {
    num_output: 64
    pad: 2
    kernel_size: 5
    weight_filler {
      type: "xavier"
      std: 0.03
    }
    bias_filler {
      type: "constant"
      value: 0.2
    }
  }
}
layer {
  name: "inception_4c/relu_5x5"
  type: "ReLU"
  bottom: "inception_4c/5x5"
  top: "inception_4c/5x5"
}
layer {
  name: "inception_4c/pool"
  type: "Pooling"
  bottom: "inception_4b/output"
  top: "inception_4c/pool"
  pooling_param {
    pool: MAX
    kernel_size: 3
    stride: 1
    pad: 1
  }
}
layer {
  name: "inception_4c/pool_proj"
  type: "Convolution"
  bottom: "inception_4c/pool"
  top: "inception_4c/pool_proj"
  param {
    lr_mult: 1
    decay_mult: 1
  }
  param {
    lr_mult: 2
    decay_mult: 0
  }
  convolution_param {
    num_output: 64
    kernel_size: 1
    weight_filler {
      type: "xavier"
      std: 0.1
    }
    bias_filler {
      type: "constant"
      value: 0.2
    }
  }
}
layer {
  name: "inception_4c/relu_pool_proj"
  type: "ReLU"
  bottom: "inception_4c/pool_proj"
  top: "inception_4c/pool_proj"
}
layer {
  name: "inception_4c/output"
  type: "Concat"
  bottom: "inception_4c/1x1"
  bottom: "inception_4c/3x3"
  bottom: "inception_4c/5x5"
  bottom: "inception_4c/pool_proj"
  top: "inception_4c/output"
}
layer {
  name: "inception_4d/1x1"
  type: "Convolution"
  bottom: "inception_4c/output"
  top: "inception_4d/1x1"
  param {
    lr_mult: 1
    decay_mult: 1
  }
  param {
    lr_mult: 2
    decay_mult: 0
  }
  convolution_param {
    num_output: 112
    kernel_size: 1
    weight_filler {
      type: "xavier"
      std: 0.03
    }
    bias_filler {
      type: "constant"
      value: 0.2
    }
  }
}
layer {
  name: "inception_4d/relu_1x1"
  type: "ReLU"
  bottom: "inception_4d/1x1"
  top: "inception_4d/1x1"
}
layer {
  name: "inception_4d/3x3_reduce"
  type: "Convolution"
  bottom: "inception_4c/output"
  top: "inception_4d/3x3_reduce"
  param {
    lr_mult: 1
    decay_mult: 1
  }
  param {
    lr_mult: 2
    decay_mult: 0
  }
  convolution_param {
    num_output: 144
    kernel_size: 1
    weight_filler {
      type: "xavier"
      std: 0.09
    }
    bias_filler {
      type: "constant"
      value: 0.2
    }
  }
}
layer {
  name: "inception_4d/relu_3x3_reduce"
  type: "ReLU"
  bottom: "inception_4d/3x3_reduce"
  top: "inception_4d/3x3_reduce"
}
layer {
  name: "inception_4d/3x3"
  type: "Convolution"
  bottom: "inception_4d/3x3_reduce"
  top: "inception_4d/3x3"
  param {
    lr_mult: 1
    decay_mult: 1
  }
  param {
    lr_mult: 2
    decay_mult: 0
  }
  convolution_param {
    num_output: 288
    pad: 1
    kernel_size: 3
    weight_filler {
      type: "xavier"
      std: 0.03
    }
    bias_filler {
      type: "constant"
      value: 0.2
    }
  }
}
layer {
  name: "inception_4d/relu_3x3"
  type: "ReLU"
  bottom: "inception_4d/3x3"
  top: "inception_4d/3x3"
}
layer {
  name: "inception_4d/5x5_reduce"
  type: "Convolution"
  bottom: "inception_4c/output"
  top: "inception_4d/5x5_reduce"
  param {
    lr_mult: 1
    decay_mult: 1
  }
  param {
    lr_mult: 2
    decay_mult: 0
  }
  convolution_param {
    num_output: 32
    kernel_size: 1
    weight_filler {
      type: "xavier"
      std: 0.2
    }
    bias_filler {
      type: "constant"
      value: 0.2
    }
  }
}
layer {
  name: "inception_4d/relu_5x5_reduce"
  type: "ReLU"
  bottom: "inception_4d/5x5_reduce"
  top: "inception_4d/5x5_reduce"
}
layer {
  name: "inception_4d/5x5"
  type: "Convolution"
  bottom: "inception_4d/5x5_reduce"
  top: "inception_4d/5x5"
  param {
    lr_mult: 1
    decay_mult: 1
  }
  param {
    lr_mult: 2
    decay_mult: 0
  }
  convolution_param {
    num_output: 64
    pad: 2
    kernel_size: 5
    weight_filler {
      type: "xavier"
      std: 0.03
    }
    bias_filler {
      type: "constant"
      value: 0.2
    }
  }
}
layer {
  name: "inception_4d/relu_5x5"
  type: "ReLU"
  bottom: "inception_4d/5x5"
  top: "inception_4d/5x5"
}
layer {
  name: "inception_4d/pool"
  type: "Pooling"
  bottom: "inception_4c/output"
  top: "inception_4d/pool"
  pooling_param {
    pool: MAX
    kernel_size: 3
    stride: 1
    pad: 1
  }
}
layer {
  name: "inception_4d/pool_proj"
  type: "Convolution"
  bottom: "inception_4d/pool"
  top: "inception_4d/pool_proj"
  param {
    lr_mult: 1
    decay_mult: 1
  }
  param {
    lr_mult: 2
    decay_mult: 0
  }
  convolution_param {
    num_output: 64
    kernel_size: 1
    weight_filler {
      type: "xavier"
      std: 0.1
    }
    bias_filler {
      type: "constant"
      value: 0.2
    }
  }
}
layer {
  name: "inception_4d/relu_pool_proj"
  type: "ReLU"
  bottom: "inception_4d/pool_proj"
  top: "inception_4d/pool_proj"
}
layer {
  name: "inception_4d/output"
  type: "Concat"
  bottom: "inception_4d/1x1"
  bottom: "inception_4d/3x3"
  bottom: "inception_4d/5x5"
  bottom: "inception_4d/pool_proj"
  top: "inception_4d/output"
}
layer {
  name: "loss2/ave_pool"
  type: "Pooling"
  bottom: "inception_4d/output"
  top: "loss2/ave_pool"
  pooling_param {
    pool: AVE
    kernel_size: 5
    stride: 3
  }
}
layer {
  name: "loss2/conv"
  type: "Convolution"
  bottom: "loss2/ave_pool"
  top: "loss2/conv"
  param {
    lr_mult: 1
    decay_mult: 1
  }
  param {
    lr_mult: 2
    decay_mult: 0
  }
  convolution_param {
    num_output: 128
    kernel_size: 1
    weight_filler {
      type: "xavier"
      std: 0.08
    }
    bias_filler {
      type: "constant"
      value: 0.2
    }
  }
}
layer {
  name: "loss2/relu_conv"
  type: "ReLU"
  bottom: "loss2/conv"
  top: "loss2/conv"
}
layer {
  name: "loss2/fc"
  type: "InnerProduct"
  bottom: "loss2/conv"
  top: "loss2/fc"
  param {
    lr_mult: 1
    decay_mult: 1
  }
  param {
    lr_mult: 2
    decay_mult: 0
  }
  inner_product_param {
    num_output: 1024
    weight_filler {
      type: "xavier"
      std: 0.02
    }
    bias_filler {
      type: "constant"
      value: 0.2
    }
  }
}
layer {
  name: "loss2/relu_fc"
  type: "ReLU"
  bottom: "loss2/fc"
  top: "loss2/fc"
}
layer {
  name: "loss2/drop_fc"
  type: "Dropout"
  bottom: "loss2/fc"
  top: "loss2/fc"
  dropout_param {
    dropout_ratio: 0.7
  }
}
layer {
  name: "loss2/classifier_plantvillage"
  type: "InnerProduct"
  bottom: "loss2/fc"
  top: "loss2/classifier_plantvillage"
  param {
    lr_mult: 1
    decay_mult: 1
  }
  param {
    lr_mult: 2
    decay_mult: 0
  }
  inner_product_param {
    num_output: 38
    weight_filler {
      type: "xavier"
      std: 0.0009765625
    }
    bias_filler {
      type: "constant"
      value: 0
    }
  }
}
layer {
  name: "inception_4e/1x1"
  type: "Convolution"
  bottom: "inception_4d/output"
  top: "inception_4e/1x1"
  param {
    lr_mult: 1
    decay_mult: 1
  }
  param {
    lr_mult: 2
    decay_mult: 0
  }
  convolution_param {
    num_output: 256
    kernel_size: 1
    weight_filler {
      type: "xavier"
      std: 0.03
    }
    bias_filler {
      type: "constant"
      value: 0.2
    }
  }
}
layer {
  name: "inception_4e/relu_1x1"
  type: "ReLU"
  bottom: "inception_4e/1x1"
  top: "inception_4e/1x1"
}
layer {
  name: "inception_4e/3x3_reduce"
  type: "Convolution"
  bottom: "inception_4d/output"
  top: "inception_4e/3x3_reduce"
  param {
    lr_mult: 1
    decay_mult: 1
  }
  param {
    lr_mult: 2
    decay_mult: 0
  }
  convolution_param {
    num_output: 160
    kernel_size: 1
    weight_filler {
      type: "xavier"
      std: 0.09
    }
    bias_filler {
      type: "constant"
      value: 0.2
    }
  }
}
layer {
  name: "inception_4e/relu_3x3_reduce"
  type: "ReLU"
  bottom: "inception_4e/3x3_reduce"
  top: "inception_4e/3x3_reduce"
}
layer {
  name: "inception_4e/3x3"
  type: "Convolution"
  bottom: "inception_4e/3x3_reduce"
  top: "inception_4e/3x3"
  param {
    lr_mult: 1
    decay_mult: 1
  }
  param {
    lr_mult: 2
    decay_mult: 0
  }
  convolution_param {
    num_output: 320
    pad: 1
    kernel_size: 3
    weight_filler {
      type: "xavier"
      std: 0.03
    }
    bias_filler {
      type: "constant"
      value: 0.2
    }
  }
}
layer {
  name: "inception_4e/relu_3x3"
  type: "ReLU"
  bottom: "inception_4e/3x3"
  top: "inception_4e/3x3"
}
layer {
  name: "inception_4e/5x5_reduce"
  type: "Convolution"
  bottom: "inception_4d/output"
  top: "inception_4e/5x5_reduce"
  param {
    lr_mult: 1
    decay_mult: 1
  }
  param {
    lr_mult: 2
    decay_mult: 0
  }
  convolution_param {
    num_output: 32
    kernel_size: 1
    weight_filler {
      type: "xavier"
      std: 0.2
    }
    bias_filler {
      type: "constant"
      value: 0.2
    }
  }
}
layer {
  name: "inception_4e/relu_5x5_reduce"
  type: "ReLU"
  bottom: "inception_4e/5x5_reduce"
  top: "inception_4e/5x5_reduce"
}
layer {
  name: "inception_4e/5x5"
  type: "Convolution"
  bottom: "inception_4e/5x5_reduce"
  top: "inception_4e/
I0403 15:24:25.001039 19312 layer_factory.hpp:77] Creating layer data
I0403 15:24:25.001622 19312 net.cpp:91] Creating Layer data
I0403 15:24:25.001652 19312 net.cpp:399] data -> data
I0403 15:24:25.001701 19312 net.cpp:399] data -> label
I0403 15:24:25.001736 19312 data_transformer.cpp:25] Loading mean file from: /home/mohanty/data/final_dataset/lmdb/grayscale-40-60/mean.binaryproto
I0403 15:24:25.004861 19315 db_lmdb.cpp:38] Opened lmdb /home/mohanty/data/final_dataset/lmdb/grayscale-40-60/test_db
I0403 15:24:25.015138 19312 data_layer.cpp:41] output data size: 24,3,224,224
I0403 15:24:25.045224 19312 net.cpp:141] Setting up data
I0403 15:24:25.045305 19312 net.cpp:148] Top shape: 24 3 224 224 (3612672)
I0403 15:24:25.045326 19312 net.cpp:148] Top shape: 24 (24)
I0403 15:24:25.045341 19312 net.cpp:156] Memory required for data: 14450784
I0403 15:24:25.045367 19312 layer_factory.hpp:77] Creating layer label_data_1_split
I0403 15:24:25.045393 19312 net.cpp:91] Creating Layer label_data_1_split
I0403 15:24:25.045410 19312 net.cpp:425] label_data_1_split <- label
I0403 15:24:25.045441 19312 net.cpp:399] label_data_1_split -> label_data_1_split_0
I0403 15:24:25.045469 19312 net.cpp:399] label_data_1_split -> label_data_1_split_1
I0403 15:24:25.045488 19312 net.cpp:399] label_data_1_split -> label_data_1_split_2
I0403 15:24:25.045508 19312 net.cpp:399] label_data_1_split -> label_data_1_split_3
I0403 15:24:25.045526 19312 net.cpp:399] label_data_1_split -> label_data_1_split_4
I0403 15:24:25.045545 19312 net.cpp:399] label_data_1_split -> label_data_1_split_5
I0403 15:24:25.045564 19312 net.cpp:399] label_data_1_split -> label_data_1_split_6
I0403 15:24:25.045584 19312 net.cpp:399] label_data_1_split -> label_data_1_split_7
I0403 15:24:25.045603 19312 net.cpp:399] label_data_1_split -> label_data_1_split_8
I0403 15:24:25.045622 19312 net.cpp:399] label_data_1_split -> label_data_1_split_9
I0403 15:24:25.045737 19312 net.cpp:141] Setting up label_data_1_split
I0403 15:24:25.045760 19312 net.cpp:148] Top shape: 24 (24)
I0403 15:24:25.045776 19312 net.cpp:148] Top shape: 24 (24)
I0403 15:24:25.045792 19312 net.cpp:148] Top shape: 24 (24)
I0403 15:24:25.045807 19312 net.cpp:148] Top shape: 24 (24)
I0403 15:24:25.045822 19312 net.cpp:148] Top shape: 24 (24)
I0403 15:24:25.045837 19312 net.cpp:148] Top shape: 24 (24)
I0403 15:24:25.045852 19312 net.cpp:148] Top shape: 24 (24)
I0403 15:24:25.045866 19312 net.cpp:148] Top shape: 24 (24)
I0403 15:24:25.045882 19312 net.cpp:148] Top shape: 24 (24)
I0403 15:24:25.045897 19312 net.cpp:148] Top shape: 24 (24)
I0403 15:24:25.045939 19312 net.cpp:156] Memory required for data: 14451744
I0403 15:24:25.045965 19312 layer_factory.hpp:77] Creating layer conv1/7x7_s2
I0403 15:24:25.046015 19312 net.cpp:91] Creating Layer conv1/7x7_s2
I0403 15:24:25.046033 19312 net.cpp:425] conv1/7x7_s2 <- data
I0403 15:24:25.046052 19312 net.cpp:399] conv1/7x7_s2 -> conv1/7x7_s2
I0403 15:24:25.195376 19312 net.cpp:141] Setting up conv1/7x7_s2
I0403 15:24:25.195451 19312 net.cpp:148] Top shape: 24 64 112 112 (19267584)
I0403 15:24:25.195469 19312 net.cpp:156] Memory required for data: 91522080
I0403 15:24:25.195511 19312 layer_factory.hpp:77] Creating layer conv1/relu_7x7
I0403 15:24:25.195538 19312 net.cpp:91] Creating Layer conv1/relu_7x7
I0403 15:24:25.195557 19312 net.cpp:425] conv1/relu_7x7 <- conv1/7x7_s2
I0403 15:24:25.195575 19312 net.cpp:386] conv1/relu_7x7 -> conv1/7x7_s2 (in-place)
I0403 15:24:25.195833 19312 net.cpp:141] Setting up conv1/relu_7x7
I0403 15:24:25.195860 19312 net.cpp:148] Top shape: 24 64 112 112 (19267584)
I0403 15:24:25.195876 19312 net.cpp:156] Memory required for data: 168592416
I0403 15:24:25.195891 19312 layer_factory.hpp:77] Creating layer pool1/3x3_s2
I0403 15:24:25.195916 19312 net.cpp:91] Creating Layer pool1/3x3_s2
I0403 15:24:25.195935 19312 net.cpp:425] pool1/3x3_s2 <- conv1/7x7_s2
I0403 15:24:25.195952 19312 net.cpp:399] pool1/3x3_s2 -> pool1/3x3_s2
I0403 15:24:25.196039 19312 net.cpp:141] Setting up pool1/3x3_s2
I0403 15:24:25.196064 19312 net.cpp:148] Top shape: 24 64 56 56 (4816896)
I0403 15:24:25.196079 19312 net.cpp:156] Memory required for data: 187860000
I0403 15:24:25.196094 19312 layer_factory.hpp:77] Creating layer pool1/norm1
I0403 15:24:25.196118 19312 net.cpp:91] Creating Layer pool1/norm1
I0403 15:24:25.196136 19312 net.cpp:425] pool1/norm1 <- pool1/3x3_s2
I0403 15:24:25.196153 19312 net.cpp:399] pool1/norm1 -> pool1/norm1
I0403 15:24:25.196439 19312 net.cpp:141] Setting up pool1/norm1
I0403 15:24:25.196466 19312 net.cpp:148] Top shape: 24 64 56 56 (4816896)
I0403 15:24:25.196482 19312 net.cpp:156] Memory required for data: 207127584
I0403 15:24:25.196498 19312 layer_factory.hpp:77] Creating layer conv2/3x3_reduce
I0403 15:24:25.196522 19312 net.cpp:91] Creating Layer conv2/3x3_reduce
I0403 15:24:25.196539 19312 net.cpp:425] conv2/3x3_reduce <- pool1/norm1
I0403 15:24:25.196557 19312 net.cpp:399] conv2/3x3_reduce -> conv2/3x3_reduce
I0403 15:24:25.197981 19312 net.cpp:141] Setting up conv2/3x3_reduce
I0403 15:24:25.198015 19312 net.cpp:148] Top shape: 24 64 56 56 (4816896)
I0403 15:24:25.198031 19312 net.cpp:156] Memory required for data: 226395168
I0403 15:24:25.198052 19312 layer_factory.hpp:77] Creating layer conv2/relu_3x3_reduce
I0403 15:24:25.198073 19312 net.cpp:91] Creating Layer conv2/relu_3x3_reduce
I0403 15:24:25.198091 19312 net.cpp:425] conv2/relu_3x3_reduce <- conv2/3x3_reduce
I0403 15:24:25.198108 19312 net.cpp:386] conv2/relu_3x3_reduce -> conv2/3x3_reduce (in-place)
I0403 15:24:25.198381 19312 net.cpp:141] Setting up conv2/relu_3x3_reduce
I0403 15:24:25.198408 19312 net.cpp:148] Top shape: 24 64 56 56 (4816896)
I0403 15:24:25.198423 19312 net.cpp:156] Memory required for data: 245662752
I0403 15:24:25.198438 19312 layer_factory.hpp:77] Creating layer conv2/3x3
I0403 15:24:25.198463 19312 net.cpp:91] Creating Layer conv2/3x3
I0403 15:24:25.198482 19312 net.cpp:425] conv2/3x3 <- conv2/3x3_reduce
I0403 15:24:25.198500 19312 net.cpp:399] conv2/3x3 -> conv2/3x3
I0403 15:24:25.200865 19312 net.cpp:141] Setting up conv2/3x3
I0403 15:24:25.200894 19312 net.cpp:148] Top shape: 24 192 56 56 (14450688)
I0403 15:24:25.200911 19312 net.cpp:156] Memory required for data: 303465504
I0403 15:24:25.200933 19312 layer_factory.hpp:77] Creating layer conv2/relu_3x3
I0403 15:24:25.200954 19312 net.cpp:91] Creating Layer conv2/relu_3x3
I0403 15:24:25.200971 19312 net.cpp:425] conv2/relu_3x3 <- conv2/3x3
I0403 15:24:25.200992 19312 net.cpp:386] conv2/relu_3x3 -> conv2/3x3 (in-place)
I0403 15:24:25.201174 19312 net.cpp:141] Setting up conv2/relu_3x3
I0403 15:24:25.201201 19312 net.cpp:148] Top shape: 24 192 56 56 (14450688)
I0403 15:24:25.201248 19312 net.cpp:156] Memory required for data: 361268256
I0403 15:24:25.201266 19312 layer_factory.hpp:77] Creating layer conv2/norm2
I0403 15:24:25.201283 19312 net.cpp:91] Creating Layer conv2/norm2
I0403 15:24:25.201299 19312 net.cpp:425] conv2/norm2 <- conv2/3x3
I0403 15:24:25.201319 19312 net.cpp:399] conv2/norm2 -> conv2/norm2
I0403 15:24:25.201632 19312 net.cpp:141] Setting up conv2/norm2
I0403 15:24:25.201658 19312 net.cpp:148] Top shape: 24 192 56 56 (14450688)
I0403 15:24:25.201673 19312 net.cpp:156] Memory required for data: 419071008
I0403 15:24:25.201689 19312 layer_factory.hpp:77] Creating layer pool2/3x3_s2
I0403 15:24:25.201706 19312 net.cpp:91] Creating Layer pool2/3x3_s2
I0403 15:24:25.201721 19312 net.cpp:425] pool2/3x3_s2 <- conv2/norm2
I0403 15:24:25.201741 19312 net.cpp:399] pool2/3x3_s2 -> pool2/3x3_s2
I0403 15:24:25.201795 19312 net.cpp:141] Setting up pool2/3x3_s2
I0403 15:24:25.201818 19312 net.cpp:148] Top shape: 24 192 28 28 (3612672)
I0403 15:24:25.201833 19312 net.cpp:156] Memory required for data: 433521696
I0403 15:24:25.201848 19312 layer_factory.hpp:77] Creating layer pool2/3x3_s2_pool2/3x3_s2_0_split
I0403 15:24:25.201869 19312 net.cpp:91] Creating Layer pool2/3x3_s2_pool2/3x3_s2_0_split
I0403 15:24:25.201885 19312 net.cpp:425] pool2/3x3_s2_pool2/3x3_s2_0_split <- pool2/3x3_s2
I0403 15:24:25.201905 19312 net.cpp:399] pool2/3x3_s2_pool2/3x3_s2_0_split -> pool2/3x3_s2_pool2/3x3_s2_0_split_0
I0403 15:24:25.201925 19312 net.cpp:399] pool2/3x3_s2_pool2/3x3_s2_0_split -> pool2/3x3_s2_pool2/3x3_s2_0_split_1
I0403 15:24:25.201946 19312 net.cpp:399] pool2/3x3_s2_pool2/3x3_s2_0_split -> pool2/3x3_s2_pool2/3x3_s2_0_split_2
I0403 15:24:25.201966 19312 net.cpp:399] pool2/3x3_s2_pool2/3x3_s2_0_split -> pool2/3x3_s2_pool2/3x3_s2_0_split_3
I0403 15:24:25.202039 19312 net.cpp:141] Setting up pool2/3x3_s2_pool2/3x3_s2_0_split
I0403 15:24:25.202066 19312 net.cpp:148] Top shape: 24 192 28 28 (3612672)
I0403 15:24:25.202085 19312 net.cpp:148] Top shape: 24 192 28 28 (3612672)
I0403 15:24:25.202100 19312 net.cpp:148] Top shape: 24 192 28 28 (3612672)
I0403 15:24:25.202116 19312 net.cpp:148] Top shape: 24 192 28 28 (3612672)
I0403 15:24:25.202131 19312 net.cpp:156] Memory required for data: 491324448
I0403 15:24:25.202145 19312 layer_factory.hpp:77] Creating layer inception_3a/1x1
I0403 15:24:25.202172 19312 net.cpp:91] Creating Layer inception_3a/1x1
I0403 15:24:25.202189 19312 net.cpp:425] inception_3a/1x1 <- pool2/3x3_s2_pool2/3x3_s2_0_split_0
I0403 15:24:25.202208 19312 net.cpp:399] inception_3a/1x1 -> inception_3a/1x1
I0403 15:24:25.203822 19312 net.cpp:141] Setting up inception_3a/1x1
I0403 15:24:25.203853 19312 net.cpp:148] Top shape: 24 64 28 28 (1204224)
I0403 15:24:25.203869 19312 net.cpp:156] Memory required for data: 496141344
I0403 15:24:25.203888 19312 layer_factory.hpp:77] Creating layer inception_3a/relu_1x1
I0403 15:24:25.203912 19312 net.cpp:91] Creating Layer inception_3a/relu_1x1
I0403 15:24:25.203929 19312 net.cpp:425] inception_3a/relu_1x1 <- inception_3a/1x1
I0403 15:24:25.203946 19312 net.cpp:386] inception_3a/relu_1x1 -> inception_3a/1x1 (in-place)
I0403 15:24:25.204128 19312 net.cpp:141] Setting up inception_3a/relu_1x1
I0403 15:24:25.204156 19312 net.cpp:148] Top shape: 24 64 28 28 (1204224)
I0403 15:24:25.204171 19312 net.cpp:156] Memory required for data: 500958240
I0403 15:24:25.204186 19312 layer_factory.hpp:77] Creating layer inception_3a/3x3_reduce
I0403 15:24:25.204212 19312 net.cpp:91] Creating Layer inception_3a/3x3_reduce
I0403 15:24:25.204231 19312 net.cpp:425] inception_3a/3x3_reduce <- pool2/3x3_s2_pool2/3x3_s2_0_split_1
I0403 15:24:25.204249 19312 net.cpp:399] inception_3a/3x3_reduce -> inception_3a/3x3_reduce
I0403 15:24:25.206038 19312 net.cpp:141] Setting up inception_3a/3x3_reduce
I0403 15:24:25.206070 19312 net.cpp:148] Top shape: 24 96 28 28 (1806336)
I0403 15:24:25.206087 19312 net.cpp:156] Memory required for data: 508183584
I0403 15:24:25.206110 19312 layer_factory.hpp:77] Creating layer inception_3a/relu_3x3_reduce
I0403 15:24:25.206148 19312 net.cpp:91] Creating Layer inception_3a/relu_3x3_reduce
I0403 15:24:25.206168 19312 net.cpp:425] inception_3a/relu_3x3_reduce <- inception_3a/3x3_reduce
I0403 15:24:25.206189 19312 net.cpp:386] inception_3a/relu_3x3_reduce -> inception_3a/3x3_reduce (in-place)
I0403 15:24:25.206379 19312 net.cpp:141] Setting up inception_3a/relu_3x3_reduce
I0403 15:24:25.206405 19312 net.cpp:148] Top shape: 24 96 28 28 (1806336)
I0403 15:24:25.206421 19312 net.cpp:156] Memory required for data: 515408928
I0403 15:24:25.206436 19312 layer_factory.hpp:77] Creating layer inception_3a/3x3
I0403 15:24:25.206460 19312 net.cpp:91] Creating Layer inception_3a/3x3
I0403 15:24:25.206478 19312 net.cpp:425] inception_3a/3x3 <- inception_3a/3x3_reduce
I0403 15:24:25.206501 19312 net.cpp:399] inception_3a/3x3 -> inception_3a/3x3
I0403 15:24:25.208248 19312 net.cpp:141] Setting up inception_3a/3x3
I0403 15:24:25.208281 19312 net.cpp:148] Top shape: 24 128 28 28 (2408448)
I0403 15:24:25.208297 19312 net.cpp:156] Memory required for data: 525042720
I0403 15:24:25.208317 19312 layer_factory.hpp:77] Creating layer inception_3a/relu_3x3
I0403 15:24:25.208335 19312 net.cpp:91] Creating Layer inception_3a/relu_3x3
I0403 15:24:25.208353 19312 net.cpp:425] inception_3a/relu_3x3 <- inception_3a/3x3
I0403 15:24:25.208370 19312 net.cpp:386] inception_3a/relu_3x3 -> inception_3a/3x3 (in-place)
I0403 15:24:25.208660 19312 net.cpp:141] Setting up inception_3a/relu_3x3
I0403 15:24:25.208691 19312 net.cpp:148] Top shape: 24 128 28 28 (2408448)
I0403 15:24:25.208708 19312 net.cpp:156] Memory required for data: 534676512
I0403 15:24:25.208724 19312 layer_factory.hpp:77] Creating layer inception_3a/5x5_reduce
I0403 15:24:25.208745 19312 net.cpp:91] Creating Layer inception_3a/5x5_reduce
I0403 15:24:25.208761 19312 net.cpp:425] inception_3a/5x5_reduce <- pool2/3x3_s2_pool2/3x3_s2_0_split_2
I0403 15:24:25.208782 19312 net.cpp:399] inception_3a/5x5_reduce -> inception_3a/5x5_reduce
I0403 15:24:25.209813 19312 net.cpp:141] Setting up inception_3a/5x5_reduce
I0403 15:24:25.209846 19312 net.cpp:148] Top shape: 24 16 28 28 (301056)
I0403 15:24:25.209863 19312 net.cpp:156] Memory required for data: 535880736
I0403 15:24:25.209882 19312 layer_factory.hpp:77] Creating layer inception_3a/relu_5x5_reduce
I0403 15:24:25.209902 19312 net.cpp:91] Creating Layer inception_3a/relu_5x5_reduce
I0403 15:24:25.209918 19312 net.cpp:425] inception_3a/relu_5x5_reduce <- inception_3a/5x5_reduce
I0403 15:24:25.209935 19312 net.cpp:386] inception_3a/relu_5x5_reduce -> inception_3a/5x5_reduce (in-place)
I0403 15:24:25.210245 19312 net.cpp:141] Setting up inception_3a/relu_5x5_reduce
I0403 15:24:25.210273 19312 net.cpp:148] Top shape: 24 16 28 28 (301056)
I0403 15:24:25.210289 19312 net.cpp:156] Memory required for data: 537084960
I0403 15:24:25.210305 19312 layer_factory.hpp:77] Creating layer inception_3a/5x5
I0403 15:24:25.210328 19312 net.cpp:91] Creating Layer inception_3a/5x5
I0403 15:24:25.210347 19312 net.cpp:425] inception_3a/5x5 <- inception_3a/5x5_reduce
I0403 15:24:25.210368 19312 net.cpp:399] inception_3a/5x5 -> inception_3a/5x5
I0403 15:24:25.211444 19312 net.cpp:141] Setting up inception_3a/5x5
I0403 15:24:25.211473 19312 net.cpp:148] Top shape: 24 32 28 28 (602112)
I0403 15:24:25.211490 19312 net.cpp:156] Memory required for data: 539493408
I0403 15:24:25.211514 19312 layer_factory.hpp:77] Creating layer inception_3a/relu_5x5
I0403 15:24:25.211535 19312 net.cpp:91] Creating Layer inception_3a/relu_5x5
I0403 15:24:25.211552 19312 net.cpp:425] inception_3a/relu_5x5 <- inception_3a/5x5
I0403 15:24:25.211570 19312 net.cpp:386] inception_3a/relu_5x5 -> inception_3a/5x5 (in-place)
I0403 15:24:25.211752 19312 net.cpp:141] Setting up inception_3a/relu_5x5
I0403 15:24:25.211781 19312 net.cpp:148] Top shape: 24 32 28 28 (602112)
I0403 15:24:25.211796 19312 net.cpp:156] Memory required for data: 541901856
I0403 15:24:25.211812 19312 layer_factory.hpp:77] Creating layer inception_3a/pool
I0403 15:24:25.211830 19312 net.cpp:91] Creating Layer inception_3a/pool
I0403 15:24:25.211861 19312 net.cpp:425] inception_3a/pool <- pool2/3x3_s2_pool2/3x3_s2_0_split_3
I0403 15:24:25.211884 19312 net.cpp:399] inception_3a/pool -> inception_3a/pool
I0403 15:24:25.211946 19312 net.cpp:141] Setting up inception_3a/pool
I0403 15:24:25.211969 19312 net.cpp:148] Top shape: 24 192 28 28 (3612672)
I0403 15:24:25.211989 19312 net.cpp:156] Memory required for data: 556352544
I0403 15:24:25.212007 19312 layer_factory.hpp:77] Creating layer inception_3a/pool_proj
I0403 15:24:25.212030 19312 net.cpp:91] Creating Layer inception_3a/pool_proj
I0403 15:24:25.212049 19312 net.cpp:425] inception_3a/pool_proj <- inception_3a/pool
I0403 15:24:25.212075 19312 net.cpp:399] inception_3a/pool_proj -> inception_3a/pool_proj
I0403 15:24:25.213084 19312 net.cpp:141] Setting up inception_3a/pool_proj
I0403 15:24:25.213114 19312 net.cpp:148] Top shape: 24 32 28 28 (602112)
I0403 15:24:25.213130 19312 net.cpp:156] Memory required for data: 558760992
I0403 15:24:25.213156 19312 layer_factory.hpp:77] Creating layer inception_3a/relu_pool_proj
I0403 15:24:25.213177 19312 net.cpp:91] Creating Layer inception_3a/relu_pool_proj
I0403 15:24:25.213193 19312 net.cpp:425] inception_3a/relu_pool_proj <- inception_3a/pool_proj
I0403 15:24:25.213212 19312 net.cpp:386] inception_3a/relu_pool_proj -> inception_3a/pool_proj (in-place)
I0403 15:24:25.213496 19312 net.cpp:141] Setting up inception_3a/relu_pool_proj
I0403 15:24:25.213526 19312 net.cpp:148] Top shape: 24 32 28 28 (602112)
I0403 15:24:25.213543 19312 net.cpp:156] Memory required for data: 561169440
I0403 15:24:25.213559 19312 layer_factory.hpp:77] Creating layer inception_3a/output
I0403 15:24:25.213577 19312 net.cpp:91] Creating Layer inception_3a/output
I0403 15:24:25.213594 19312 net.cpp:425] inception_3a/output <- inception_3a/1x1
I0403 15:24:25.213610 19312 net.cpp:425] inception_3a/output <- inception_3a/3x3
I0403 15:24:25.213627 19312 net.cpp:425] inception_3a/output <- inception_3a/5x5
I0403 15:24:25.213644 19312 net.cpp:425] inception_3a/output <- inception_3a/pool_proj
I0403 15:24:25.213661 19312 net.cpp:399] inception_3a/output -> inception_3a/output
I0403 15:24:25.213711 19312 net.cpp:141] Setting up inception_3a/output
I0403 15:24:25.213737 19312 net.cpp:148] Top shape: 24 256 28 28 (4816896)
I0403 15:24:25.213752 19312 net.cpp:156] Memory required for data: 580437024
I0403 15:24:25.213768 19312 layer_factory.hpp:77] Creating layer inception_3a/output_inception_3a/output_0_split
I0403 15:24:25.213785 19312 net.cpp:91] Creating Layer inception_3a/output_inception_3a/output_0_split
I0403 15:24:25.213801 19312 net.cpp:425] inception_3a/output_inception_3a/output_0_split <- inception_3a/output
I0403 15:24:25.213822 19312 net.cpp:399] inception_3a/output_inception_3a/output_0_split -> inception_3a/output_inception_3a/output_0_split_0
I0403 15:24:25.213843 19312 net.cpp:399] inception_3a/output_inception_3a/output_0_split -> inception_3a/output_inception_3a/output_0_split_1
I0403 15:24:25.213870 19312 net.cpp:399] inception_3a/output_inception_3a/output_0_split -> inception_3a/output_inception_3a/output_0_split_2
I0403 15:24:25.213891 19312 net.cpp:399] inception_3a/output_inception_3a/output_0_split -> inception_3a/output_inception_3a/output_0_split_3
I0403 15:24:25.213970 19312 net.cpp:141] Setting up inception_3a/output_inception_3a/output_0_split
I0403 15:24:25.213999 19312 net.cpp:148] Top shape: 24 256 28 28 (4816896)
I0403 15:24:25.214018 19312 net.cpp:148] Top shape: 24 256 28 28 (4816896)
I0403 15:24:25.214035 19312 net.cpp:148] Top shape: 24 256 28 28 (4816896)
I0403 15:24:25.214051 19312 net.cpp:148] Top shape: 24 256 28 28 (4816896)
I0403 15:24:25.214066 19312 net.cpp:156] Memory required for data: 657507360
I0403 15:24:25.214082 19312 layer_factory.hpp:77] Creating layer inception_3b/1x1
I0403 15:24:25.214104 19312 net.cpp:91] Creating Layer inception_3b/1x1
I0403 15:24:25.214123 19312 net.cpp:425] inception_3b/1x1 <- inception_3a/output_inception_3a/output_0_split_0
I0403 15:24:25.214145 19312 net.cpp:399] inception_3b/1x1 -> inception_3b/1x1
I0403 15:24:25.215350 19312 net.cpp:141] Setting up inception_3b/1x1
I0403 15:24:25.215391 19312 net.cpp:148] Top shape: 24 128 28 28 (2408448)
I0403 15:24:25.215409 19312 net.cpp:156] Memory required for data: 667141152
I0403 15:24:25.215428 19312 layer_factory.hpp:77] Creating layer inception_3b/relu_1x1
I0403 15:24:25.215450 19312 net.cpp:91] Creating Layer inception_3b/relu_1x1
I0403 15:24:25.215467 19312 net.cpp:425] inception_3b/relu_1x1 <- inception_3b/1x1
I0403 15:24:25.215486 19312 net.cpp:386] inception_3b/relu_1x1 -> inception_3b/1x1 (in-place)
I0403 15:24:25.215668 19312 net.cpp:141] Setting up inception_3b/relu_1x1
I0403 15:24:25.215697 19312 net.cpp:148] Top shape: 24 128 28 28 (2408448)
I0403 15:24:25.215713 19312 net.cpp:156] Memory required for data: 676774944
I0403 15:24:25.215729 19312 layer_factory.hpp:77] Creating layer inception_3b/3x3_reduce
I0403 15:24:25.215756 19312 net.cpp:91] Creating Layer inception_3b/3x3_reduce
I0403 15:24:25.215775 19312 net.cpp:425] inception_3b/3x3_reduce <- inception_3a/output_inception_3a/output_0_split_1
I0403 15:24:25.215795 19312 net.cpp:399] inception_3b/3x3_reduce -> inception_3b/3x3_reduce
I0403 15:24:25.216995 19312 net.cpp:141] Setting up inception_3b/3x3_reduce
I0403 15:24:25.217025 19312 net.cpp:148] Top shape: 24 128 28 28 (2408448)
I0403 15:24:25.217041 19312 net.cpp:156] Memory required for data: 686408736
I0403 15:24:25.217061 19312 layer_factory.hpp:77] Creating layer inception_3b/relu_3x3_reduce
I0403 15:24:25.217082 19312 net.cpp:91] Creating Layer inception_3b/relu_3x3_reduce
I0403 15:24:25.217099 19312 net.cpp:425] inception_3b/relu_3x3_reduce <- inception_3b/3x3_reduce
I0403 15:24:25.217118 19312 net.cpp:386] inception_3b/relu_3x3_reduce -> inception_3b/3x3_reduce (in-place)
I0403 15:24:25.217298 19312 net.cpp:141] Setting up inception_3b/relu_3x3_reduce
I0403 15:24:25.217324 19312 net.cpp:148] Top shape: 24 128 28 28 (2408448)
I0403 15:24:25.217339 19312 net.cpp:156] Memory required for data: 696042528
I0403 15:24:25.217355 19312 layer_factory.hpp:77] Creating layer inception_3b/3x3
I0403 15:24:25.217381 19312 net.cpp:91] Creating Layer inception_3b/3x3
I0403 15:24:25.217401 19312 net.cpp:425] inception_3b/3x3 <- inception_3b/3x3_reduce
I0403 15:24:25.217422 19312 net.cpp:399] inception_3b/3x3 -> inception_3b/3x3
I0403 15:24:25.220512 19312 net.cpp:141] Setting up inception_3b/3x3
I0403 15:24:25.220546 19312 net.cpp:148] Top shape: 24 192 28 28 (3612672)
I0403 15:24:25.220562 19312 net.cpp:156] Memory required for data: 710493216
I0403 15:24:25.220582 19312 layer_factory.hpp:77] Creating layer inception_3b/relu_3x3
I0403 15:24:25.220600 19312 net.cpp:91] Creating Layer inception_3b/relu_3x3
I0403 15:24:25.220618 19312 net.cpp:425] inception_3b/relu_3x3 <- inception_3b/3x3
I0403 15:24:25.220635 19312 net.cpp:386] inception_3b/relu_3x3 -> inception_3b/3x3 (in-place)
I0403 15:24:25.220932 19312 net.cpp:141] Setting up inception_3b/relu_3x3
I0403 15:24:25.220963 19312 net.cpp:148] Top shape: 24 192 28 28 (3612672)
I0403 15:24:25.220979 19312 net.cpp:156] Memory required for data: 724943904
I0403 15:24:25.221001 19312 layer_factory.hpp:77] Creating layer inception_3b/5x5_reduce
I0403 15:24:25.221024 19312 net.cpp:91] Creating Layer inception_3b/5x5_reduce
I0403 15:24:25.221040 19312 net.cpp:425] inception_3b/5x5_reduce <- inception_3a/output_inception_3a/output_0_split_2
I0403 15:24:25.221063 19312 net.cpp:399] inception_3b/5x5_reduce -> inception_3b/5x5_reduce
I0403 15:24:25.222110 19312 net.cpp:141] Setting up inception_3b/5x5_reduce
I0403 15:24:25.222139 19312 net.cpp:148] Top shape: 24 32 28 28 (602112)
I0403 15:24:25.222156 19312 net.cpp:156] Memory required for data: 727352352
I0403 15:24:25.222174 19312 layer_factory.hpp:77] Creating layer inception_3b/relu_5x5_reduce
I0403 15:24:25.222198 19312 net.cpp:91] Creating Layer inception_3b/relu_5x5_reduce
I0403 15:24:25.222226 19312 net.cpp:425] inception_3b/relu_5x5_reduce <- inception_3b/5x5_reduce
I0403 15:24:25.222244 19312 net.cpp:386] inception_3b/relu_5x5_reduce -> inception_3b/5x5_reduce (in-place)
I0403 15:24:25.222443 19312 net.cpp:141] Setting up inception_3b/relu_5x5_reduce
I0403 15:24:25.222472 19312 net.cpp:148] Top shape: 24 32 28 28 (602112)
I0403 15:24:25.222488 19312 net.cpp:156] Memory required for data: 729760800
I0403 15:24:25.222513 19312 layer_factory.hpp:77] Creating layer inception_3b/5x5
I0403 15:24:25.222537 19312 net.cpp:91] Creating Layer inception_3b/5x5
I0403 15:24:25.222554 19312 net.cpp:425] inception_3b/5x5 <- inception_3b/5x5_reduce
I0403 15:24:25.222575 19312 net.cpp:399] inception_3b/5x5 -> inception_3b/5x5
I0403 15:24:25.224674 19312 net.cpp:141] Setting up inception_3b/5x5
I0403 15:24:25.224704 19312 net.cpp:148] Top shape: 24 96 28 28 (1806336)
I0403 15:24:25.224721 19312 net.cpp:156] Memory required for data: 736986144
I0403 15:24:25.224740 19312 layer_factory.hpp:77] Creating layer inception_3b/relu_5x5
I0403 15:24:25.224761 19312 net.cpp:91] Creating Layer inception_3b/relu_5x5
I0403 15:24:25.224779 19312 net.cpp:425] inception_3b/relu_5x5 <- inception_3b/5x5
I0403 15:24:25.224797 19312 net.cpp:386] inception_3b/relu_5x5 -> inception_3b/5x5 (in-place)
I0403 15:24:25.225013 19312 net.cpp:141] Setting up inception_3b/relu_5x5
I0403 15:24:25.225039 19312 net.cpp:148] Top shape: 24 96 28 28 (1806336)
I0403 15:24:25.225054 19312 net.cpp:156] Memory required for data: 744211488
I0403 15:24:25.225069 19312 layer_factory.hpp:77] Creating layer inception_3b/pool
I0403 15:24:25.225087 19312 net.cpp:91] Creating Layer inception_3b/pool
I0403 15:24:25.225103 19312 net.cpp:425] inception_3b/pool <- inception_3a/output_inception_3a/output_0_split_3
I0403 15:24:25.225121 19312 net.cpp:399] inception_3b/pool -> inception_3b/pool
I0403 15:24:25.225179 19312 net.cpp:141] Setting up inception_3b/pool
I0403 15:24:25.225224 19312 net.cpp:148] Top shape: 24 256 28 28 (4816896)
I0403 15:24:25.225239 19312 net.cpp:156] Memory required for data: 763479072
I0403 15:24:25.225253 19312 layer_factory.hpp:77] Creating layer inception_3b/pool_proj
I0403 15:24:25.225275 19312 net.cpp:91] Creating Layer inception_3b/pool_proj
I0403 15:24:25.225292 19312 net.cpp:425] inception_3b/pool_proj <- inception_3b/pool
I0403 15:24:25.225312 19312 net.cpp:399] inception_3b/pool_proj -> inception_3b/pool_proj
I0403 15:24:25.226363 19312 net.cpp:141] Setting up inception_3b/pool_proj
I0403 15:24:25.226393 19312 net.cpp:148] Top shape: 24 64 28 28 (1204224)
I0403 15:24:25.226410 19312 net.cpp:156] Memory required for data: 768295968
I0403 15:24:25.226428 19312 layer_factory.hpp:77] Creating layer inception_3b/relu_pool_proj
I0403 15:24:25.226447 19312 net.cpp:91] Creating Layer inception_3b/relu_pool_proj
I0403 15:24:25.226464 19312 net.cpp:425] inception_3b/relu_pool_proj <- inception_3b/pool_proj
I0403 15:24:25.226483 19312 net.cpp:386] inception_3b/relu_pool_proj -> inception_3b/pool_proj (in-place)
I0403 15:24:25.226883 19312 net.cpp:141] Setting up inception_3b/relu_pool_proj
I0403 15:24:25.226915 19312 net.cpp:148] Top shape: 24 64 28 28 (1204224)
I0403 15:24:25.226932 19312 net.cpp:156] Memory required for data: 773112864
I0403 15:24:25.226946 19312 layer_factory.hpp:77] Creating layer inception_3b/output
I0403 15:24:25.226963 19312 net.cpp:91] Creating Layer inception_3b/output
I0403 15:24:25.226979 19312 net.cpp:425] inception_3b/output <- inception_3b/1x1
I0403 15:24:25.226999 19312 net.cpp:425] inception_3b/output <- inception_3b/3x3
I0403 15:24:25.227015 19312 net.cpp:425] inception_3b/output <- inception_3b/5x5
I0403 15:24:25.227031 19312 net.cpp:425] inception_3b/output <- inception_3b/pool_proj
I0403 15:24:25.227048 19312 net.cpp:399] inception_3b/output -> inception_3b/output
I0403 15:24:25.227092 19312 net.cpp:141] Setting up inception_3b/output
I0403 15:24:25.227115 19312 net.cpp:148] Top shape: 24 480 28 28 (9031680)
I0403 15:24:25.227129 19312 net.cpp:156] Memory required for data: 809239584
I0403 15:24:25.227144 19312 layer_factory.hpp:77] Creating layer pool3/3x3_s2
I0403 15:24:25.227164 19312 net.cpp:91] Creating Layer pool3/3x3_s2
I0403 15:24:25.227180 19312 net.cpp:425] pool3/3x3_s2 <- inception_3b/output
I0403 15:24:25.227212 19312 net.cpp:399] pool3/3x3_s2 -> pool3/3x3_s2
I0403 15:24:25.227272 19312 net.cpp:141] Setting up pool3/3x3_s2
I0403 15:24:25.227294 19312 net.cpp:148] Top shape: 24 480 14 14 (2257920)
I0403 15:24:25.227308 19312 net.cpp:156] Memory required for data: 818271264
I0403 15:24:25.227324 19312 layer_factory.hpp:77] Creating layer pool3/3x3_s2_pool3/3x3_s2_0_split
I0403 15:24:25.227340 19312 net.cpp:91] Creating Layer pool3/3x3_s2_pool3/3x3_s2_0_split
I0403 15:24:25.227355 19312 net.cpp:425] pool3/3x3_s2_pool3/3x3_s2_0_split <- pool3/3x3_s2
I0403 15:24:25.227375 19312 net.cpp:399] pool3/3x3_s2_pool3/3x3_s2_0_split -> pool3/3x3_s2_pool3/3x3_s2_0_split_0
I0403 15:24:25.227394 19312 net.cpp:399] pool3/3x3_s2_pool3/3x3_s2_0_split -> pool3/3x3_s2_pool3/3x3_s2_0_split_1
I0403 15:24:25.227413 19312 net.cpp:399] pool3/3x3_s2_pool3/3x3_s2_0_split -> pool3/3x3_s2_pool3/3x3_s2_0_split_2
I0403 15:24:25.227433 19312 net.cpp:399] pool3/3x3_s2_pool3/3x3_s2_0_split -> pool3/3x3_s2_pool3/3x3_s2_0_split_3
I0403 15:24:25.227510 19312 net.cpp:141] Setting up pool3/3x3_s2_pool3/3x3_s2_0_split
I0403 15:24:25.227535 19312 net.cpp:148] Top shape: 24 480 14 14 (2257920)
I0403 15:24:25.227551 19312 net.cpp:148] Top shape: 24 480 14 14 (2257920)
I0403 15:24:25.227566 19312 net.cpp:148] Top shape: 24 480 14 14 (2257920)
I0403 15:24:25.227582 19312 net.cpp:148] Top shape: 24 480 14 14 (2257920)
I0403 15:24:25.227596 19312 net.cpp:156] Memory required for data: 854397984
I0403 15:24:25.227610 19312 layer_factory.hpp:77] Creating layer inception_4a/1x1
I0403 15:24:25.227632 19312 net.cpp:91] Creating Layer inception_4a/1x1
I0403 15:24:25.227648 19312 net.cpp:425] inception_4a/1x1 <- pool3/3x3_s2_pool3/3x3_s2_0_split_0
I0403 15:24:25.227668 19312 net.cpp:399] inception_4a/1x1 -> inception_4a/1x1
I0403 15:24:25.229229 19312 net.cpp:141] Setting up inception_4a/1x1
I0403 15:24:25.229259 19312 net.cpp:148] Top shape: 24 192 14 14 (903168)
I0403 15:24:25.229274 19312 net.cpp:156] Memory required for data: 858010656
I0403 15:24:25.229292 19312 layer_factory.hpp:77] Creating layer inception_4a/relu_1x1
I0403 15:24:25.229310 19312 net.cpp:91] Creating Layer inception_4a/relu_1x1
I0403 15:24:25.229326 19312 net.cpp:425] inception_4a/relu_1x1 <- inception_4a/1x1
I0403 15:24:25.229344 19312 net.cpp:386] inception_4a/relu_1x1 -> inception_4a/1x1 (in-place)
I0403 15:24:25.229517 19312 net.cpp:141] Setting up inception_4a/relu_1x1
I0403 15:24:25.229542 19312 net.cpp:148] Top shape: 24 192 14 14 (903168)
I0403 15:24:25.229557 19312 net.cpp:156] Memory required for data: 861623328
I0403 15:24:25.229570 19312 layer_factory.hpp:77] Creating layer inception_4a/3x3_reduce
I0403 15:24:25.229593 19312 net.cpp:91] Creating Layer inception_4a/3x3_reduce
I0403 15:24:25.229610 19312 net.cpp:425] inception_4a/3x3_reduce <- pool3/3x3_s2_pool3/3x3_s2_0_split_1
I0403 15:24:25.229630 19312 net.cpp:399] inception_4a/3x3_reduce -> inception_4a/3x3_reduce
I0403 15:24:25.230900 19312 net.cpp:141] Setting up inception_4a/3x3_reduce
I0403 15:24:25.230926 19312 net.cpp:148] Top shape: 24 96 14 14 (451584)
I0403 15:24:25.230942 19312 net.cpp:156] Memory required for data: 863429664
I0403 15:24:25.230967 19312 layer_factory.hpp:77] Creating layer inception_4a/relu_3x3_reduce
I0403 15:24:25.230989 19312 net.cpp:91] Creating Layer inception_4a/relu_3x3_reduce
I0403 15:24:25.231008 19312 net.cpp:425] inception_4a/relu_3x3_reduce <- inception_4a/3x3_reduce
I0403 15:24:25.231027 19312 net.cpp:386] inception_4a/relu_3x3_reduce -> inception_4a/3x3_reduce (in-place)
I0403 15:24:25.231207 19312 net.cpp:141] Setting up inception_4a/relu_3x3_reduce
I0403 15:24:25.231232 19312 net.cpp:148] Top shape: 24 96 14 14 (451584)
I0403 15:24:25.231246 19312 net.cpp:156] Memory required for data: 865236000
I0403 15:24:25.231261 19312 layer_factory.hpp:77] Creating layer inception_4a/3x3
I0403 15:24:25.231283 19312 net.cpp:91] Creating Layer inception_4a/3x3
I0403 15:24:25.231300 19312 net.cpp:425] inception_4a/3x3 <- inception_4a/3x3_reduce
I0403 15:24:25.231322 19312 net.cpp:399] inception_4a/3x3 -> inception_4a/3x3
I0403 15:24:25.233992 19312 net.cpp:141] Setting up inception_4a/3x3
I0403 15:24:25.234021 19312 net.cpp:148] Top shape: 24 208 14 14 (978432)
I0403 15:24:25.234036 19312 net.cpp:156] Memory required for data: 869149728
I0403 15:24:25.234055 19312 layer_factory.hpp:77] Creating layer inception_4a/relu_3x3
I0403 15:24:25.234074 19312 net.cpp:91] Creating Layer inception_4a/relu_3x3
I0403 15:24:25.234091 19312 net.cpp:425] inception_4a/relu_3x3 <- inception_4a/3x3
I0403 15:24:25.234108 19312 net.cpp:386] inception_4a/relu_3x3 -> inception_4a/3x3 (in-place)
I0403 15:24:25.234387 19312 net.cpp:141] Setting up inception_4a/relu_3x3
I0403 15:24:25.234412 19312 net.cpp:148] Top shape: 24 208 14 14 (978432)
I0403 15:24:25.234427 19312 net.cpp:156] Memory required for data: 873063456
I0403 15:24:25.234442 19312 layer_factory.hpp:77] Creating layer inception_4a/5x5_reduce
I0403 15:24:25.234464 19312 net.cpp:91] Creating Layer inception_4a/5x5_reduce
I0403 15:24:25.234482 19312 net.cpp:425] inception_4a/5x5_reduce <- pool3/3x3_s2_pool3/3x3_s2_0_split_2
I0403 15:24:25.234503 19312 net.cpp:399] inception_4a/5x5_reduce -> inception_4a/5x5_reduce
I0403 15:24:25.235527 19312 net.cpp:141] Setting up inception_4a/5x5_reduce
I0403 15:24:25.235555 19312 net.cpp:148] Top shape: 24 16 14 14 (75264)
I0403 15:24:25.235570 19312 net.cpp:156] Memory required for data: 873364512
I0403 15:24:25.235589 19312 layer_factory.hpp:77] Creating layer inception_4a/relu_5x5_reduce
I0403 15:24:25.235608 19312 net.cpp:91] Creating Layer inception_4a/relu_5x5_reduce
I0403 15:24:25.235625 19312 net.cpp:425] inception_4a/relu_5x5_reduce <- inception_4a/5x5_reduce
I0403 15:24:25.235642 19312 net.cpp:386] inception_4a/relu_5x5_reduce -> inception_4a/5x5_reduce (in-place)
I0403 15:24:25.235821 19312 net.cpp:141] Setting up inception_4a/relu_5x5_reduce
I0403 15:24:25.235848 19312 net.cpp:148] Top shape: 24 16 14 14 (75264)
I0403 15:24:25.235863 19312 net.cpp:156] Memory required for data: 873665568
I0403 15:24:25.235878 19312 layer_factory.hpp:77] Creating layer inception_4a/5x5
I0403 15:24:25.235901 19312 net.cpp:91] Creating Layer inception_4a/5x5
I0403 15:24:25.235918 19312 net.cpp:425] inception_4a/5x5 <- inception_4a/5x5_reduce
I0403 15:24:25.235935 19312 net.cpp:399] inception_4a/5x5 -> inception_4a/5x5
I0403 15:24:25.237038 19312 net.cpp:141] Setting up inception_4a/5x5
I0403 15:24:25.237067 19312 net.cpp:148] Top shape: 24 48 14 14 (225792)
I0403 15:24:25.237083 19312 net.cpp:156] Memory required for data: 874568736
I0403 15:24:25.237102 19312 layer_factory.hpp:77] Creating layer inception_4a/relu_5x5
I0403 15:24:25.237119 19312 net.cpp:91] Creating Layer inception_4a/relu_5x5
I0403 15:24:25.237134 19312 net.cpp:425] inception_4a/relu_5x5 <- inception_4a/5x5
I0403 15:24:25.237154 19312 net.cpp:386] inception_4a/relu_5x5 -> inception_4a/5x5 (in-place)
I0403 15:24:25.237342 19312 net.cpp:141] Setting up inception_4a/relu_5x5
I0403 15:24:25.237367 19312 net.cpp:148] Top shape: 24 48 14 14 (225792)
I0403 15:24:25.237381 19312 net.cpp:156] Memory required for data: 875471904
I0403 15:24:25.237396 19312 layer_factory.hpp:77] Creating layer inception_4a/pool
I0403 15:24:25.237413 19312 net.cpp:91] Creating Layer inception_4a/pool
I0403 15:24:25.237432 19312 net.cpp:425] inception_4a/pool <- pool3/3x3_s2_pool3/3x3_s2_0_split_3
I0403 15:24:25.237449 19312 net.cpp:399] inception_4a/pool -> inception_4a/pool
I0403 15:24:25.237510 19312 net.cpp:141] Setting up inception_4a/pool
I0403 15:24:25.237534 19312 net.cpp:148] Top shape: 24 480 14 14 (2257920)
I0403 15:24:25.237548 19312 net.cpp:156] Memory required for data: 884503584
I0403 15:24:25.237563 19312 layer_factory.hpp:77] Creating layer inception_4a/pool_proj
I0403 15:24:25.237586 19312 net.cpp:91] Creating Layer inception_4a/pool_proj
I0403 15:24:25.237602 19312 net.cpp:425] inception_4a/pool_proj <- inception_4a/pool
I0403 15:24:25.237622 19312 net.cpp:399] inception_4a/pool_proj -> inception_4a/pool_proj
I0403 15:24:25.238853 19312 net.cpp:141] Setting up inception_4a/pool_proj
I0403 15:24:25.238883 19312 net.cpp:148] Top shape: 24 64 14 14 (301056)
I0403 15:24:25.238916 19312 net.cpp:156] Memory required for data: 885707808
I0403 15:24:25.238936 19312 layer_factory.hpp:77] Creating layer inception_4a/relu_pool_proj
I0403 15:24:25.238955 19312 net.cpp:91] Creating Layer inception_4a/relu_pool_proj
I0403 15:24:25.238970 19312 net.cpp:425] inception_4a/relu_pool_proj <- inception_4a/pool_proj
I0403 15:24:25.238996 19312 net.cpp:386] inception_4a/relu_pool_proj -> inception_4a/pool_proj (in-place)
I0403 15:24:25.239291 19312 net.cpp:141] Setting up inception_4a/relu_pool_proj
I0403 15:24:25.239318 19312 net.cpp:148] Top shape: 24 64 14 14 (301056)
I0403 15:24:25.239333 19312 net.cpp:156] Memory required for data: 886912032
I0403 15:24:25.239348 19312 layer_factory.hpp:77] Creating layer inception_4a/output
I0403 15:24:25.239367 19312 net.cpp:91] Creating Layer inception_4a/output
I0403 15:24:25.239382 19312 net.cpp:425] inception_4a/output <- inception_4a/1x1
I0403 15:24:25.239398 19312 net.cpp:425] inception_4a/output <- inception_4a/3x3
I0403 15:24:25.239414 19312 net.cpp:425] inception_4a/output <- inception_4a/5x5
I0403 15:24:25.239430 19312 net.cpp:425] inception_4a/output <- inception_4a/pool_proj
I0403 15:24:25.239450 19312 net.cpp:399] inception_4a/output -> inception_4a/output
I0403 15:24:25.239496 19312 net.cpp:141] Setting up inception_4a/output
I0403 15:24:25.239522 19312 net.cpp:148] Top shape: 24 512 14 14 (2408448)
I0403 15:24:25.239538 19312 net.cpp:156] Memory required for data: 896545824
I0403 15:24:25.239552 19312 layer_factory.hpp:77] Creating layer inception_4a/output_inception_4a/output_0_split
I0403 15:24:25.239570 19312 net.cpp:91] Creating Layer inception_4a/output_inception_4a/output_0_split
I0403 15:24:25.239585 19312 net.cpp:425] inception_4a/output_inception_4a/output_0_split <- inception_4a/output
I0403 15:24:25.239603 19312 net.cpp:399] inception_4a/output_inception_4a/output_0_split -> inception_4a/output_inception_4a/output_0_split_0
I0403 15:24:25.239626 19312 net.cpp:399] inception_4a/output_inception_4a/output_0_split -> inception_4a/output_inception_4a/output_0_split_1
I0403 15:24:25.239648 19312 net.cpp:399] inception_4a/output_inception_4a/output_0_split -> inception_4a/output_inception_4a/output_0_split_2
I0403 15:24:25.239668 19312 net.cpp:399] inception_4a/output_inception_4a/output_0_split -> inception_4a/output_inception_4a/output_0_split_3
I0403 15:24:25.239688 19312 net.cpp:399] inception_4a/output_inception_4a/output_0_split -> inception_4a/output_inception_4a/output_0_split_4
I0403 15:24:25.239784 19312 net.cpp:141] Setting up inception_4a/output_inception_4a/output_0_split
I0403 15:24:25.239807 19312 net.cpp:148] Top shape: 24 512 14 14 (2408448)
I0403 15:24:25.239825 19312 net.cpp:148] Top shape: 24 512 14 14 (2408448)
I0403 15:24:25.239840 19312 net.cpp:148] Top shape: 24 512 14 14 (2408448)
I0403 15:24:25.239856 19312 net.cpp:148] Top shape: 24 512 14 14 (2408448)
I0403 15:24:25.239871 19312 net.cpp:148] Top shape: 24 512 14 14 (2408448)
I0403 15:24:25.239884 19312 net.cpp:156] Memory required for data: 944714784
I0403 15:24:25.239899 19312 layer_factory.hpp:77] Creating layer loss1/ave_pool
I0403 15:24:25.239919 19312 net.cpp:91] Creating Layer loss1/ave_pool
I0403 15:24:25.239936 19312 net.cpp:425] loss1/ave_pool <- inception_4a/output_inception_4a/output_0_split_0
I0403 15:24:25.239954 19312 net.cpp:399] loss1/ave_pool -> loss1/ave_pool
I0403 15:24:25.240170 19312 net.cpp:141] Setting up loss1/ave_pool
I0403 15:24:25.240196 19312 net.cpp:148] Top shape: 24 512 4 4 (196608)
I0403 15:24:25.240211 19312 net.cpp:156] Memory required for data: 945501216
I0403 15:24:25.240226 19312 layer_factory.hpp:77] Creating layer loss1/conv
I0403 15:24:25.240249 19312 net.cpp:91] Creating Layer loss1/conv
I0403 15:24:25.240267 19312 net.cpp:425] loss1/conv <- loss1/ave_pool
I0403 15:24:25.240288 19312 net.cpp:399] loss1/conv -> loss1/conv
I0403 15:24:25.241744 19312 net.cpp:141] Setting up loss1/conv
I0403 15:24:25.241772 19312 net.cpp:148] Top shape: 24 128 4 4 (49152)
I0403 15:24:25.241802 19312 net.cpp:156] Memory required for data: 945697824
I0403 15:24:25.241822 19312 layer_factory.hpp:77] Creating layer loss1/relu_conv
I0403 15:24:25.241842 19312 net.cpp:91] Creating Layer loss1/relu_conv
I0403 15:24:25.241858 19312 net.cpp:425] loss1/relu_conv <- loss1/conv
I0403 15:24:25.241876 19312 net.cpp:386] loss1/relu_conv -> loss1/conv (in-place)
I0403 15:24:25.242174 19312 net.cpp:141] Setting up loss1/relu_conv
I0403 15:24:25.242202 19312 net.cpp:148] Top shape: 24 128 4 4 (49152)
I0403 15:24:25.242216 19312 net.cpp:156] Memory required for data: 945894432
I0403 15:24:25.242231 19312 layer_factory.hpp:77] Creating layer loss1/fc
I0403 15:24:25.242259 19312 net.cpp:91] Creating Layer loss1/fc
I0403 15:24:25.242276 19312 net.cpp:425] loss1/fc <- loss1/conv
I0403 15:24:25.242295 19312 net.cpp:399] loss1/fc -> loss1/fc
I0403 15:24:25.260679 19312 net.cpp:141] Setting up loss1/fc
I0403 15:24:25.260715 19312 net.cpp:148] Top shape: 24 1024 (24576)
I0403 15:24:25.260731 19312 net.cpp:156] Memory required for data: 945992736
I0403 15:24:25.260748 19312 layer_factory.hpp:77] Creating layer loss1/relu_fc
I0403 15:24:25.260766 19312 net.cpp:91] Creating Layer loss1/relu_fc
I0403 15:24:25.260782 19312 net.cpp:425] loss1/relu_fc <- loss1/fc
I0403 15:24:25.260802 19312 net.cpp:386] loss1/relu_fc -> loss1/fc (in-place)
I0403 15:24:25.260998 19312 net.cpp:141] Setting up loss1/relu_fc
I0403 15:24:25.261023 19312 net.cpp:148] Top shape: 24 1024 (24576)
I0403 15:24:25.261036 19312 net.cpp:156] Memory required for data: 946091040
I0403 15:24:25.261050 19312 layer_factory.hpp:77] Creating layer loss1/drop_fc
I0403 15:24:25.261078 19312 net.cpp:91] Creating Layer loss1/drop_fc
I0403 15:24:25.261096 19312 net.cpp:425] loss1/drop_fc <- loss1/fc
I0403 15:24:25.261113 19312 net.cpp:386] loss1/drop_fc -> loss1/fc (in-place)
I0403 15:24:25.261164 19312 net.cpp:141] Setting up loss1/drop_fc
I0403 15:24:25.261190 19312 net.cpp:148] Top shape: 24 1024 (24576)
I0403 15:24:25.261206 19312 net.cpp:156] Memory required for data: 946189344
I0403 15:24:25.261221 19312 layer_factory.hpp:77] Creating layer loss1/classifier_plantvillage
I0403 15:24:25.261240 19312 net.cpp:91] Creating Layer loss1/classifier_plantvillage
I0403 15:24:25.261255 19312 net.cpp:425] loss1/classifier_plantvillage <- loss1/fc
I0403 15:24:25.261276 19312 net.cpp:399] loss1/classifier_plantvillage -> loss1/classifier_plantvillage
I0403 15:24:25.262193 19312 net.cpp:141] Setting up loss1/classifier_plantvillage
I0403 15:24:25.262222 19312 net.cpp:148] Top shape: 24 38 (912)
I0403 15:24:25.262236 19312 net.cpp:156] Memory required for data: 946192992
I0403 15:24:25.262253 19312 layer_factory.hpp:77] Creating layer loss1/classifier_plantvillage_loss1/classifier_plantvillage_0_split
I0403 15:24:25.262274 19312 net.cpp:91] Creating Layer loss1/classifier_plantvillage_loss1/classifier_plantvillage_0_split
I0403 15:24:25.262290 19312 net.cpp:425] loss1/classifier_plantvillage_loss1/classifier_plantvillage_0_split <- loss1/classifier_plantvillage
I0403 15:24:25.262306 19312 net.cpp:399] loss1/classifier_plantvillage_loss1/classifier_plantvillage_0_split -> loss1/classifier_plantvillage_loss1/classifier_plantvillage_0_split_0
I0403 15:24:25.262326 19312 net.cpp:399] loss1/classifier_plantvillage_loss1/classifier_plantvillage_0_split -> loss1/classifier_plantvillage_loss1/classifier_plantvillage_0_split_1
I0403 15:24:25.262346 19312 net.cpp:399] loss1/classifier_plantvillage_loss1/classifier_plantvillage_0_split -> loss1/classifier_plantvillage_loss1/classifier_plantvillage_0_split_2
I0403 15:24:25.262411 19312 net.cpp:141] Setting up loss1/classifier_plantvillage_loss1/classifier_plantvillage_0_split
I0403 15:24:25.262436 19312 net.cpp:148] Top shape: 24 38 (912)
I0403 15:24:25.262454 19312 net.cpp:148] Top shape: 24 38 (912)
I0403 15:24:25.262470 19312 net.cpp:148] Top shape: 24 38 (912)
I0403 15:24:25.262482 19312 net.cpp:156] Memory required for data: 946203936
I0403 15:24:25.262496 19312 layer_factory.hpp:77] Creating layer inception_4b/1x1
I0403 15:24:25.262516 19312 net.cpp:91] Creating Layer inception_4b/1x1
I0403 15:24:25.262548 19312 net.cpp:425] inception_4b/1x1 <- inception_4a/output_inception_4a/output_0_split_1
I0403 15:24:25.262568 19312 net.cpp:399] inception_4b/1x1 -> inception_4b/1x1
I0403 15:24:25.264231 19312 net.cpp:141] Setting up inception_4b/1x1
I0403 15:24:25.264261 19312 net.cpp:148] Top shape: 24 160 14 14 (752640)
I0403 15:24:25.264276 19312 net.cpp:156] Memory required for data: 949214496
I0403 15:24:25.264294 19312 layer_factory.hpp:77] Creating layer inception_4b/relu_1x1
I0403 15:24:25.264314 19312 net.cpp:91] Creating Layer inception_4b/relu_1x1
I0403 15:24:25.264330 19312 net.cpp:425] inception_4b/relu_1x1 <- inception_4b/1x1
I0403 15:24:25.264348 19312 net.cpp:386] inception_4b/relu_1x1 -> inception_4b/1x1 (in-place)
I0403 15:24:25.264526 19312 net.cpp:141] Setting up inception_4b/relu_1x1
I0403 15:24:25.264554 19312 net.cpp:148] Top shape: 24 160 14 14 (752640)
I0403 15:24:25.264569 19312 net.cpp:156] Memory required for data: 952225056
I0403 15:24:25.264583 19312 layer_factory.hpp:77] Creating layer inception_4b/3x3_reduce
I0403 15:24:25.264605 19312 net.cpp:91] Creating Layer inception_4b/3x3_reduce
I0403 15:24:25.264623 19312 net.cpp:425] inception_4b/3x3_reduce <- inception_4a/output_inception_4a/output_0_split_2
I0403 15:24:25.264642 19312 net.cpp:399] inception_4b/3x3_reduce -> inception_4b/3x3_reduce
I0403 15:24:25.265997 19312 net.cpp:141] Setting up inception_4b/3x3_reduce
I0403 15:24:25.266027 19312 net.cpp:148] Top shape: 24 112 14 14 (526848)
I0403 15:24:25.266044 19312 net.cpp:156] Memory required for data: 954332448
I0403 15:24:25.266063 19312 layer_factory.hpp:77] Creating layer inception_4b/relu_3x3_reduce
I0403 15:24:25.266082 19312 net.cpp:91] Creating Layer inception_4b/relu_3x3_reduce
I0403 15:24:25.266098 19312 net.cpp:425] inception_4b/relu_3x3_reduce <- inception_4b/3x3_reduce
I0403 15:24:25.266115 19312 net.cpp:386] inception_4b/relu_3x3_reduce -> inception_4b/3x3_reduce (in-place)
I0403 15:24:25.266402 19312 net.cpp:141] Setting up inception_4b/relu_3x3_reduce
I0403 15:24:25.266432 19312 net.cpp:148] Top shape: 24 112 14 14 (526848)
I0403 15:24:25.266446 19312 net.cpp:156] Memory required for data: 956439840
I0403 15:24:25.266461 19312 layer_factory.hpp:77] Creating layer inception_4b/3x3
I0403 15:24:25.266484 19312 net.cpp:91] Creating Layer inception_4b/3x3
I0403 15:24:25.266501 19312 net.cpp:425] inception_4b/3x3 <- inception_4b/3x3_reduce
I0403 15:24:25.266520 19312 net.cpp:399] inception_4b/3x3 -> inception_4b/3x3
I0403 15:24:25.269511 19312 net.cpp:141] Setting up inception_4b/3x3
I0403 15:24:25.269541 19312 net.cpp:148] Top shape: 24 224 14 14 (1053696)
I0403 15:24:25.269557 19312 net.cpp:156] Memory required for data: 960654624
I0403 15:24:25.269575 19312 layer_factory.hpp:77] Creating layer inception_4b/relu_3x3
I0403 15:24:25.269595 19312 net.cpp:91] Creating Layer inception_4b/relu_3x3
I0403 15:24:25.269613 19312 net.cpp:425] inception_4b/relu_3x3 <- inception_4b/3x3
I0403 15:24:25.269629 19312 net.cpp:386] inception_4b/relu_3x3 -> inception_4b/3x3 (in-place)
I0403 15:24:25.269809 19312 net.cpp:141] Setting up inception_4b/relu_3x3
I0403 15:24:25.269834 19312 net.cpp:148] Top shape: 24 224 14 14 (1053696)
I0403 15:24:25.269847 19312 net.cpp:156] Memory required for data: 964869408
I0403 15:24:25.269861 19312 layer_factory.hpp:77] Creating layer inception_4b/5x5_reduce
I0403 15:24:25.269884 19312 net.cpp:91] Creating Layer inception_4b/5x5_reduce
I0403 15:24:25.269901 19312 net.cpp:425] inception_4b/5x5_reduce <- inception_4a/output_inception_4a/output_0_split_3
I0403 15:24:25.269923 19312 net.cpp:399] inception_4b/5x5_reduce -> inception_4b/5x5_reduce
I0403 15:24:25.271025 19312 net.cpp:141] Setting up inception_4b/5x5_reduce
I0403 15:24:25.271052 19312 net.cpp:148] Top shape: 24 24 14 14 (112896)
I0403 15:24:25.271067 19312 net.cpp:156] Memory required for data: 965320992
I0403 15:24:25.271085 19312 layer_factory.hpp:77] Creating layer inception_4b/relu_5x5_reduce
I0403 15:24:25.271106 19312 net.cpp:91] Creating Layer inception_4b/relu_5x5_reduce
I0403 15:24:25.271136 19312 net.cpp:425] inception_4b/relu_5x5_reduce <- inception_4b/5x5_reduce
I0403 15:24:25.271154 19312 net.cpp:386] inception_4b/relu_5x5_reduce -> inception_4b/5x5_reduce (in-place)
I0403 15:24:25.271338 19312 net.cpp:141] Setting up inception_4b/relu_5x5_reduce
I0403 15:24:25.271363 19312 net.cpp:148] Top shape: 24 24 14 14 (112896)
I0403 15:24:25.271376 19312 net.cpp:156] Memory required for data: 965772576
I0403 15:24:25.271391 19312 layer_factory.hpp:77] Creating layer inception_4b/5x5
I0403 15:24:25.271414 19312 net.cpp:91] Creating Layer inception_4b/5x5
I0403 15:24:25.271430 19312 net.cpp:425] inception_4b/5x5 <- inception_4b/5x5_reduce
I0403 15:24:25.271451 19312 net.cpp:399] inception_4b/5x5 -> inception_4b/5x5
I0403 15:24:25.272680 19312 net.cpp:141] Setting up inception_4b/5x5
I0403 15:24:25.272706 19312 net.cpp:148] Top shape: 24 64 14 14 (301056)
I0403 15:24:25.272722 19312 net.cpp:156] Memory required for data: 966976800
I0403 15:24:25.272739 19312 layer_factory.hpp:77] Creating layer inception_4b/relu_5x5
I0403 15:24:25.272759 19312 net.cpp:91] Creating Layer inception_4b/relu_5x5
I0403 15:24:25.272775 19312 net.cpp:425] inception_4b/relu_5x5 <- inception_4b/5x5
I0403 15:24:25.272792 19312 net.cpp:386] inception_4b/relu_5x5 -> inception_4b/5x5 (in-place)
I0403 15:24:25.273079 19312 net.cpp:141] Setting up inception_4b/relu_5x5
I0403 15:24:25.273107 19312 net.cpp:148] Top shape: 24 64 14 14 (301056)
I0403 15:24:25.273123 19312 net.cpp:156] Memory required for data: 968181024
I0403 15:24:25.273138 19312 layer_factory.hpp:77] Creating layer inception_4b/pool
I0403 15:24:25.273159 19312 net.cpp:91] Creating Layer inception_4b/pool
I0403 15:24:25.273175 19312 net.cpp:425] inception_4b/pool <- inception_4a/output_inception_4a/output_0_split_4
I0403 15:24:25.273191 19312 net.cpp:399] inception_4b/pool -> inception_4b/pool
I0403 15:24:25.273257 19312 net.cpp:141] Setting up inception_4b/pool
I0403 15:24:25.273280 19312 net.cpp:148] Top shape: 24 512 14 14 (2408448)
I0403 15:24:25.273294 19312 net.cpp:156] Memory required for data: 977814816
I0403 15:24:25.273309 19312 layer_factory.hpp:77] Creating layer inception_4b/pool_proj
I0403 15:24:25.273330 19312 net.cpp:91] Creating Layer inception_4b/pool_proj
I0403 15:24:25.273349 19312 net.cpp:425] inception_4b/pool_proj <- inception_4b/pool
I0403 15:24:25.273368 19312 net.cpp:399] inception_4b/pool_proj -> inception_4b/pool_proj
I0403 15:24:25.274576 19312 net.cpp:141] Setting up inception_4b/pool_proj
I0403 15:24:25.274605 19312 net.cpp:148] Top shape: 24 64 14 14 (301056)
I0403 15:24:25.274626 19312 net.cpp:156] Memory required for data: 979019040
I0403 15:24:25.274646 19312 layer_factory.hpp:77] Creating layer inception_4b/relu_pool_proj
I0403 15:24:25.274662 19312 net.cpp:91] Creating Layer inception_4b/relu_pool_proj
I0403 15:24:25.274678 19312 net.cpp:425] inception_4b/relu_pool_proj <- inception_4b/pool_proj
I0403 15:24:25.274695 19312 net.cpp:386] inception_4b/relu_pool_proj -> inception_4b/pool_proj (in-place)
I0403 15:24:25.274876 19312 net.cpp:141] Setting up inception_4b/relu_pool_proj
I0403 15:24:25.274904 19312 net.cpp:148] Top shape: 24 64 14 14 (301056)
I0403 15:24:25.274919 19312 net.cpp:156] Memory required for data: 980223264
I0403 15:24:25.274933 19312 layer_factory.hpp:77] Creating layer inception_4b/output
I0403 15:24:25.274950 19312 net.cpp:91] Creating Layer inception_4b/output
I0403 15:24:25.274966 19312 net.cpp:425] inception_4b/output <- inception_4b/1x1
I0403 15:24:25.274981 19312 net.cpp:425] inception_4b/output <- inception_4b/3x3
I0403 15:24:25.275002 19312 net.cpp:425] inception_4b/output <- inception_4b/5x5
I0403 15:24:25.275017 19312 net.cpp:425] inception_4b/output <- inception_4b/pool_proj
I0403 15:24:25.275037 19312 net.cpp:399] inception_4b/output -> inception_4b/output
I0403 15:24:25.275084 19312 net.cpp:141] Setting up inception_4b/output
I0403 15:24:25.275106 19312 net.cpp:148] Top shape: 24 512 14 14 (2408448)
I0403 15:24:25.275120 19312 net.cpp:156] Memory required for data: 989857056
I0403 15:24:25.275148 19312 layer_factory.hpp:77] Creating layer inception_4b/output_inception_4b/output_0_split
I0403 15:24:25.275169 19312 net.cpp:91] Creating Layer inception_4b/output_inception_4b/output_0_split
I0403 15:24:25.275185 19312 net.cpp:425] inception_4b/output_inception_4b/output_0_split <- inception_4b/output
I0403 15:24:25.275202 19312 net.cpp:399] inception_4b/output_inception_4b/output_0_split -> inception_4b/output_inception_4b/output_0_split_0
I0403 15:24:25.275231 19312 net.cpp:399] inception_4b/output_inception_4b/output_0_split -> inception_4b/output_inception_4b/output_0_split_1
I0403 15:24:25.275255 19312 net.cpp:399] inception_4b/output_inception_4b/output_0_split -> inception_4b/output_inception_4b/output_0_split_2
I0403 15:24:25.275274 19312 net.cpp:399] inception_4b/output_inception_4b/output_0_split -> inception_4b/output_inception_4b/output_0_split_3
I0403 15:24:25.275357 19312 net.cpp:141] Setting up inception_4b/output_inception_4b/output_0_split
I0403 15:24:25.275380 19312 net.cpp:148] Top shape: 24 512 14 14 (2408448)
I0403 15:24:25.275396 19312 net.cpp:148] Top shape: 24 512 14 14 (2408448)
I0403 15:24:25.275411 19312 net.cpp:148] Top shape: 24 512 14 14 (2408448)
I0403 15:24:25.275426 19312 net.cpp:148] Top shape: 24 512 14 14 (2408448)
I0403 15:24:25.275440 19312 net.cpp:156] Memory required for data: 1028392224
I0403 15:24:25.275455 19312 layer_factory.hpp:77] Creating layer inception_4c/1x1
I0403 15:24:25.275477 19312 net.cpp:91] Creating Layer inception_4c/1x1
I0403 15:24:25.275495 19312 net.cpp:425] inception_4c/1x1 <- inception_4b/output_inception_4b/output_0_split_0
I0403 15:24:25.275523 19312 net.cpp:399] inception_4c/1x1 -> inception_4c/1x1
I0403 15:24:25.276959 19312 net.cpp:141] Setting up inception_4c/1x1
I0403 15:24:25.276994 19312 net.cpp:148] Top shape: 24 128 14 14 (602112)
I0403 15:24:25.277012 19312 net.cpp:156] Memory required for data: 1030800672
I0403 15:24:25.277030 19312 layer_factory.hpp:77] Creating layer inception_4c/relu_1x1
I0403 15:24:25.277048 19312 net.cpp:91] Creating Layer inception_4c/relu_1x1
I0403 15:24:25.277065 19312 net.cpp:425] inception_4c/relu_1x1 <- inception_4c/1x1
I0403 15:24:25.277084 19312 net.cpp:386] inception_4c/relu_1x1 -> inception_4c/1x1 (in-place)
I0403 15:24:25.277269 19312 net.cpp:141] Setting up inception_4c/relu_1x1
I0403 15:24:25.277294 19312 net.cpp:148] Top shape: 24 128 14 14 (602112)
I0403 15:24:25.277309 19312 net.cpp:156] Memory required for data: 1033209120
I0403 15:24:25.277323 19312 layer_factory.hpp:77] Creating layer inception_4c/3x3_reduce
I0403 15:24:25.277344 19312 net.cpp:91] Creating Layer inception_4c/3x3_reduce
I0403 15:24:25.277361 19312 net.cpp:425] inception_4c/3x3_reduce <- inception_4b/output_inception_4b/output_0_split_1
I0403 15:24:25.277384 19312 net.cpp:399] inception_4c/3x3_reduce -> inception_4c/3x3_reduce
I0403 15:24:25.279338 19312 net.cpp:141] Setting up inception_4c/3x3_reduce
I0403 15:24:25.279366 19312 net.cpp:148] Top shape: 24 128 14 14 (602112)
I0403 15:24:25.279381 19312 net.cpp:156] Memory required for data: 1035617568
I0403 15:24:25.279400 19312 layer_factory.hpp:77] Creating layer inception_4c/relu_3x3_reduce
I0403 15:24:25.279422 19312 net.cpp:91] Creating Layer inception_4c/relu_3x3_reduce
I0403 15:24:25.279438 19312 net.cpp:425] inception_4c/relu_3x3_reduce <- inception_4c/3x3_reduce
I0403 15:24:25.279455 19312 net.cpp:386] inception_4c/relu_3x3_reduce -> inception_4c/3x3_reduce (in-place)
I0403 15:24:25.279742 19312 net.cpp:141] Setting up inception_4c/relu_3x3_reduce
I0403 15:24:25.279767 19312 net.cpp:148] Top shape: 24 128 14 14 (602112)
I0403 15:24:25.279783 19312 net.cpp:156] Memory required for data: 1038026016
I0403 15:24:25.279798 19312 layer_factory.hpp:77] Creating layer inception_4c/3x3
I0403 15:24:25.279819 19312 net.cpp:91] Creating Layer inception_4c/3x3
I0403 15:24:25.279837 19312 net.cpp:425] inception_4c/3x3 <- inception_4c/3x3_reduce
I0403 15:24:25.279860 19312 net.cpp:399] inception_4c/3x3 -> inception_4c/3x3
I0403 15:24:25.283526 19312 net.cpp:141] Setting up inception_4c/3x3
I0403 15:24:25.283567 19312 net.cpp:148] Top shape: 24 256 14 14 (1204224)
I0403 15:24:25.283582 19312 net.cpp:156] Memory required for data: 1042842912
I0403 15:24:25.283614 19312 layer_factory.hpp:77] Creating layer inception_4c/relu_3x3
I0403 15:24:25.283635 19312 net.cpp:91] Creating Layer inception_4c/relu_3x3
I0403 15:24:25.283653 19312 net.cpp:425] inception_4c/relu_3x3 <- inception_4c/3x3
I0403 15:24:25.283669 19312 net.cpp:386] inception_4c/relu_3x3 -> inception_4c/3x3 (in-place)
I0403 15:24:25.283852 19312 net.cpp:141] Setting up inception_4c/relu_3x3
I0403 15:24:25.283877 19312 net.cpp:148] Top shape: 24 256 14 14 (1204224)
I0403 15:24:25.283892 19312 net.cpp:156] Memory required for data: 1047659808
I0403 15:24:25.283907 19312 layer_factory.hpp:77] Creating layer inception_4c/5x5_reduce
I0403 15:24:25.283931 19312 net.cpp:91] Creating Layer inception_4c/5x5_reduce
I0403 15:24:25.283948 19312 net.cpp:425] inception_4c/5x5_reduce <- inception_4b/output_inception_4b/output_0_split_2
I0403 15:24:25.283967 19312 net.cpp:399] inception_4c/5x5_reduce -> inception_4c/5x5_reduce
I0403 15:24:25.285069 19312 net.cpp:141] Setting up inception_4c/5x5_reduce
I0403 15:24:25.285097 19312 net.cpp:148] Top shape: 24 24 14 14 (112896)
I0403 15:24:25.285112 19312 net.cpp:156] Memory required for data: 1048111392
I0403 15:24:25.285130 19312 layer_factory.hpp:77] Creating layer inception_4c/relu_5x5_reduce
I0403 15:24:25.285151 19312 net.cpp:91] Creating Layer inception_4c/relu_5x5_reduce
I0403 15:24:25.285166 19312 net.cpp:425] inception_4c/relu_5x5_reduce <- inception_4c/5x5_reduce
I0403 15:24:25.285183 19312 net.cpp:386] inception_4c/relu_5x5_reduce -> inception_4c/5x5_reduce (in-place)
I0403 15:24:25.285369 19312 net.cpp:141] Setting up inception_4c/relu_5x5_reduce
I0403 15:24:25.285397 19312 net.cpp:148] Top shape: 24 24 14 14 (112896)
I0403 15:24:25.285411 19312 net.cpp:156] Memory required for data: 1048562976
I0403 15:24:25.285426 19312 layer_factory.hpp:77] Creating layer inception_4c/5x5
I0403 15:24:25.285447 19312 net.cpp:91] Creating Layer inception_4c/5x5
I0403 15:24:25.285465 19312 net.cpp:425] inception_4c/5x5 <- inception_4c/5x5_reduce
I0403 15:24:25.285485 19312 net.cpp:399] inception_4c/5x5 -> inception_4c/5x5
I0403 15:24:25.286736 19312 net.cpp:141] Setting up inception_4c/5x5
I0403 15:24:25.286766 19312 net.cpp:148] Top shape: 24 64 14 14 (301056)
I0403 15:24:25.286782 19312 net.cpp:156] Memory required for data: 1049767200
I0403 15:24:25.286799 19312 layer_factory.hpp:77] Creating layer inception_4c/relu_5x5
I0403 15:24:25.286818 19312 net.cpp:91] Creating Layer inception_4c/relu_5x5
I0403 15:24:25.286833 19312 net.cpp:425] inception_4c/relu_5x5 <- inception_4c/5x5
I0403 15:24:25.286852 19312 net.cpp:386] inception_4c/relu_5x5 -> inception_4c/5x5 (in-place)
I0403 15:24:25.287147 19312 net.cpp:141] Setting up inception_4c/relu_5x5
I0403 15:24:25.287174 19312 net.cpp:148] Top shape: 24 64 14 14 (301056)
I0403 15:24:25.287190 19312 net.cpp:156] Memory required for data: 1050971424
I0403 15:24:25.287204 19312 layer_factory.hpp:77] Creating layer inception_4c/pool
I0403 15:24:25.287232 19312 net.cpp:91] Creating Layer inception_4c/pool
I0403 15:24:25.287248 19312 net.cpp:425] inception_4c/pool <- inception_4b/output_inception_4b/output_0_split_3
I0403 15:24:25.287269 19312 net.cpp:399] inception_4c/pool -> inception_4c/pool
I0403 15:24:25.287335 19312 net.cpp:141] Setting up inception_4c/pool
I0403 15:24:25.287361 19312 net.cpp:148] Top shape: 24 512 14 14 (2408448)
I0403 15:24:25.287376 19312 net.cpp:156] Memory required for data: 1060605216
I0403 15:24:25.287391 19312 layer_factory.hpp:77] Creating layer inception_4c/pool_proj
I0403 15:24:25.287410 19312 net.cpp:91] Creating Layer inception_4c/pool_proj
I0403 15:24:25.287426 19312 net.cpp:425] inception_4c/pool_proj <- inception_4c/pool
I0403 15:24:25.287447 19312 net.cpp:399] inception_4c/pool_proj -> inception_4c/pool_proj
I0403 15:24:25.288676 19312 net.cpp:141] Setting up inception_4c/pool_proj
I0403 15:24:25.288704 19312 net.cpp:148] Top shape: 24 64 14 14 (301056)
I0403 15:24:25.288733 19312 net.cpp:156] Memory required for data: 1061809440
I0403 15:24:25.288753 19312 layer_factory.hpp:77] Creating layer inception_4c/relu_pool_proj
I0403 15:24:25.288803 19312 net.cpp:91] Creating Layer inception_4c/relu_pool_proj
I0403 15:24:25.288820 19312 net.cpp:425] inception_4c/relu_pool_proj <- inception_4c/pool_proj
I0403 15:24:25.288837 19312 net.cpp:386] inception_4c/relu_pool_proj -> inception_4c/pool_proj (in-place)
I0403 15:24:25.289043 19312 net.cpp:141] Setting up inception_4c/relu_pool_proj
I0403 15:24:25.289083 19312 net.cpp:148] Top shape: 24 64 14 14 (301056)
I0403 15:24:25.289099 19312 net.cpp:156] Memory required for data: 1063013664
I0403 15:24:25.289113 19312 layer_factory.hpp:77] Creating layer inception_4c/output
I0403 15:24:25.289131 19312 net.cpp:91] Creating Layer inception_4c/output
I0403 15:24:25.289146 19312 net.cpp:425] inception_4c/output <- inception_4c/1x1
I0403 15:24:25.289162 19312 net.cpp:425] inception_4c/output <- inception_4c/3x3
I0403 15:24:25.289177 19312 net.cpp:425] inception_4c/output <- inception_4c/5x5
I0403 15:24:25.289193 19312 net.cpp:425] inception_4c/output <- inception_4c/pool_proj
I0403 15:24:25.289211 19312 net.cpp:399] inception_4c/output -> inception_4c/output
I0403 15:24:25.289259 19312 net.cpp:141] Setting up inception_4c/output
I0403 15:24:25.289283 19312 net.cpp:148] Top shape: 24 512 14 14 (2408448)
I0403 15:24:25.289296 19312 net.cpp:156] Memory required for data: 1072647456
I0403 15:24:25.289310 19312 layer_factory.hpp:77] Creating layer inception_4c/output_inception_4c/output_0_split
I0403 15:24:25.289330 19312 net.cpp:91] Creating Layer inception_4c/output_inception_4c/output_0_split
I0403 15:24:25.289346 19312 net.cpp:425] inception_4c/output_inception_4c/output_0_split <- inception_4c/output
I0403 15:24:25.289363 19312 net.cpp:399] inception_4c/output_inception_4c/output_0_split -> inception_4c/output_inception_4c/output_0_split_0
I0403 15:24:25.289382 19312 net.cpp:399] inception_4c/output_inception_4c/output_0_split -> inception_4c/output_inception_4c/output_0_split_1
I0403 15:24:25.289404 19312 net.cpp:399] inception_4c/output_inception_4c/output_0_split -> inception_4c/output_inception_4c/output_0_split_2
I0403 15:24:25.289425 19312 net.cpp:399] inception_4c/output_inception_4c/output_0_split -> inception_4c/output_inception_4c/output_0_split_3
I0403 15:24:25.289510 19312 net.cpp:141] Setting up inception_4c/output_inception_4c/output_0_split
I0403 15:24:25.289533 19312 net.cpp:148] Top shape: 24 512 14 14 (2408448)
I0403 15:24:25.289551 19312 net.cpp:148] Top shape: 24 512 14 14 (2408448)
I0403 15:24:25.289566 19312 net.cpp:148] Top shape: 24 512 14 14 (2408448)
I0403 15:24:25.289583 19312 net.cpp:148] Top shape: 24 512 14 14 (2408448)
I0403 15:24:25.289597 19312 net.cpp:156] Memory required for data: 1111182624
I0403 15:24:25.289611 19312 layer_factory.hpp:77] Creating layer inception_4d/1x1
I0403 15:24:25.289633 19312 net.cpp:91] Creating Layer inception_4d/1x1
I0403 15:24:25.289650 19312 net.cpp:425] inception_4d/1x1 <- inception_4c/output_inception_4c/output_0_split_0
I0403 15:24:25.289671 19312 net.cpp:399] inception_4d/1x1 -> inception_4d/1x1
I0403 15:24:25.291126 19312 net.cpp:141] Setting up inception_4d/1x1
I0403 15:24:25.291155 19312 net.cpp:148] Top shape: 24 112 14 14 (526848)
I0403 15:24:25.291170 19312 net.cpp:156] Memory required for data: 1113290016
I0403 15:24:25.291188 19312 layer_factory.hpp:77] Creating layer inception_4d/relu_1x1
I0403 15:24:25.291209 19312 net.cpp:91] Creating Layer inception_4d/relu_1x1
I0403 15:24:25.291236 19312 net.cpp:425] inception_4d/relu_1x1 <- inception_4d/1x1
I0403 15:24:25.291254 19312 net.cpp:386] inception_4d/relu_1x1 -> inception_4d/1x1 (in-place)
I0403 15:24:25.291450 19312 net.cpp:141] Setting up inception_4d/relu_1x1
I0403 15:24:25.291476 19312 net.cpp:148] Top shape: 24 112 14 14 (526848)
I0403 15:24:25.291491 19312 net.cpp:156] Memory required for data: 1115397408
I0403 15:24:25.291513 19312 layer_factory.hpp:77] Creating layer inception_4d/3x3_reduce
I0403 15:24:25.291551 19312 net.cpp:91] Creating Layer inception_4d/3x3_reduce
I0403 15:24:25.291570 19312 net.cpp:425] inception_4d/3x3_reduce <- inception_4c/output_inception_4c/output_0_split_1
I0403 15:24:25.291590 19312 net.cpp:399] inception_4d/3x3_reduce -> inception_4d/3x3_reduce
I0403 15:24:25.293166 19312 net.cpp:141] Setting up inception_4d/3x3_reduce
I0403 15:24:25.293195 19312 net.cpp:148] Top shape: 24 144 14 14 (677376)
I0403 15:24:25.293210 19312 net.cpp:156] Memory required for data: 1118106912
I0403 15:24:25.293227 19312 layer_factory.hpp:77] Creating layer inception_4d/relu_3x3_reduce
I0403 15:24:25.293246 19312 net.cpp:91] Creating Layer inception_4d/relu_3x3_reduce
I0403 15:24:25.293262 19312 net.cpp:425] inception_4d/relu_3x3_reduce <- inception_4d/3x3_reduce
I0403 15:24:25.293282 19312 net.cpp:386] inception_4d/relu_3x3_reduce -> inception_4d/3x3_reduce (in-place)
I0403 15:24:25.293584 19312 net.cpp:141] Setting up inception_4d/relu_3x3_reduce
I0403 15:24:25.293611 19312 net.cpp:148] Top shape: 24 144 14 14 (677376)
I0403 15:24:25.293627 19312 net.cpp:156] Memory required for data: 1120816416
I0403 15:24:25.293640 19312 layer_factory.hpp:77] Creating layer inception_4d/3x3
I0403 15:24:25.293663 19312 net.cpp:91] Creating Layer inception_4d/3x3
I0403 15:24:25.293681 19312 net.cpp:425] inception_4d/3x3 <- inception_4d/3x3_reduce
I0403 15:24:25.293704 19312 net.cpp:399] inception_4d/3x3 -> inception_4d/3x3
I0403 15:24:25.298130 19312 net.cpp:141] Setting up inception_4d/3x3
I0403 15:24:25.298157 19312 net.cpp:148] Top shape: 24 288 14 14 (1354752)
I0403 15:24:25.298173 19312 net.cpp:156] Memory required for data: 1126235424
I0403 15:24:25.298190 19312 layer_factory.hpp:77] Creating layer inception_4d/relu_3x3
I0403 15:24:25.298212 19312 net.cpp:91] Creating Layer inception_4d/relu_3x3
I0403 15:24:25.298228 19312 net.cpp:425] inception_4d/relu_3x3 <- inception_4d/3x3
I0403 15:24:25.298246 19312 net.cpp:386] inception_4d/relu_3x3 -> inception_4d/3x3 (in-place)
I0403 15:24:25.298429 19312 net.cpp:141] Setting up inception_4d/relu_3x3
I0403 15:24:25.298455 19312 net.cpp:148] Top shape: 24 288 14 14 (1354752)
I0403 15:24:25.298470 19312 net.cpp:156] Memory required for data: 1131654432
I0403 15:24:25.298485 19312 layer_factory.hpp:77] Creating layer inception_4d/5x5_reduce
I0403 15:24:25.298504 19312 net.cpp:91] Creating Layer inception_4d/5x5_reduce
I0403 15:24:25.298521 19312 net.cpp:425] inception_4d/5x5_reduce <- inception_4c/output_inception_4c/output_0_split_2
I0403 15:24:25.298542 19312 net.cpp:399] inception_4d/5x5_reduce -> inception_4d/5x5_reduce
I0403 15:24:25.299718 19312 net.cpp:141] Setting up inception_4d/5x5_reduce
I0403 15:24:25.299746 19312 net.cpp:148] Top shape: 24 32 14 14 (150528)
I0403 15:24:25.299762 19312 net.cpp:156] Memory required for data: 1132256544
I0403 15:24:25.299779 19312 layer_factory.hpp:77] Creating layer inception_4d/relu_5x5_reduce
I0403 15:24:25.299799 19312 net.cpp:91] Creating Layer inception_4d/relu_5x5_reduce
I0403 15:24:25.299818 19312 net.cpp:425] inception_4d/relu_5x5_reduce <- inception_4d/5x5_reduce
I0403 15:24:25.299834 19312 net.cpp:386] inception_4d/relu_5x5_reduce -> inception_4d/5x5_reduce (in-place)
I0403 15:24:25.300026 19312 net.cpp:141] Setting up inception_4d/relu_5x5_reduce
I0403 15:24:25.300051 19312 net.cpp:148] Top shape: 24 32 14 14 (150528)
I0403 15:24:25.300065 19312 net.cpp:156] Memory required for data: 1132858656
I0403 15:24:25.300079 19312 layer_factory.hpp:77] Creating layer inception_4d/5x5
I0403 15:24:25.300102 19312 net.cpp:91] Creating Layer inception_4d/5x5
I0403 15:24:25.300120 19312 net.cpp:425] inception_4d/5x5 <- inception_4d/5x5_reduce
I0403 15:24:25.300138 19312 net.cpp:399] inception_4d/5x5 -> inception_4d/5x5
I0403 15:24:25.301614 19312 net.cpp:141] Setting up inception_4d/5x5
I0403 15:24:25.301646 19312 net.cpp:148] Top shape: 24 64 14 14 (301056)
I0403 15:24:25.301662 19312 net.cpp:156] Memory required for data: 1134062880
I0403 15:24:25.301681 19312 layer_factory.hpp:77] Creating layer inception_4d/relu_5x5
I0403 15:24:25.301713 19312 net.cpp:91] Creating Layer inception_4d/relu_5x5
I0403 15:24:25.301730 19312 net.cpp:425] inception_4d/relu_5x5 <- inception_4d/5x5
I0403 15:24:25.301749 19312 net.cpp:386] inception_4d/relu_5x5 -> inception_4d/5x5 (in-place)
I0403 15:24:25.302053 19312 net.cpp:141] Setting up inception_4d/relu_5x5
I0403 15:24:25.302081 19312 net.cpp:148] Top shape: 24 64 14 14 (301056)
I0403 15:24:25.302098 19312 net.cpp:156] Memory required for data: 1135267104
I0403 15:24:25.302112 19312 layer_factory.hpp:77] Creating layer inception_4d/pool
I0403 15:24:25.302129 19312 net.cpp:91] Creating Layer inception_4d/pool
I0403 15:24:25.302145 19312 net.cpp:425] inception_4d/pool <- inception_4c/output_inception_4c/output_0_split_3
I0403 15:24:25.302165 19312 net.cpp:399] inception_4d/pool -> inception_4d/pool
I0403 15:24:25.302233 19312 net.cpp:141] Setting up inception_4d/pool
I0403 15:24:25.302258 19312 net.cpp:148] Top shape: 24 512 14 14 (2408448)
I0403 15:24:25.302271 19312 net.cpp:156] Memory required for data: 1144900896
I0403 15:24:25.302286 19312 layer_factory.hpp:77] Creating layer inception_4d/pool_proj
I0403 15:24:25.302309 19312 net.cpp:91] Creating Layer inception_4d/pool_proj
I0403 15:24:25.302325 19312 net.cpp:425] inception_4d/pool_proj <- inception_4d/pool
I0403 15:24:25.302346 19312 net.cpp:399] inception_4d/pool_proj -> inception_4d/pool_proj
I0403 15:24:25.304133 19312 net.cpp:141] Setting up inception_4d/pool_proj
I0403 15:24:25.304162 19312 net.cpp:148] Top shape: 24 64 14 14 (301056)
I0403 15:24:25.304178 19312 net.cpp:156] Memory required for data: 1146105120
I0403 15:24:25.304195 19312 layer_factory.hpp:77] Creating layer inception_4d/relu_pool_proj
I0403 15:24:25.304216 19312 net.cpp:91] Creating Layer inception_4d/relu_pool_proj
I0403 15:24:25.304234 19312 net.cpp:425] inception_4d/relu_pool_proj <- inception_4d/pool_proj
I0403 15:24:25.304250 19312 net.cpp:386] inception_4d/relu_pool_proj -> inception_4d/pool_proj (in-place)
I0403 15:24:25.304438 19312 net.cpp:141] Setting up inception_4d/relu_pool_proj
I0403 15:24:25.304464 19312 net.cpp:148] Top shape: 24 64 14 14 (301056)
I0403 15:24:25.304481 19312 net.cpp:156] Memory required for data: 1147309344
I0403 15:24:25.304494 19312 layer_factory.hpp:77] Creating layer inception_4d/output
I0403 15:24:25.304512 19312 net.cpp:91] Creating Layer inception_4d/output
I0403 15:24:25.304527 19312 net.cpp:425] inception_4d/output <- inception_4d/1x1
I0403 15:24:25.304543 19312 net.cpp:425] inception_4d/output <- inception_4d/3x3
I0403 15:24:25.304558 19312 net.cpp:425] inception_4d/output <- inception_4d/5x5
I0403 15:24:25.304574 19312 net.cpp:425] inception_4d/output <- inception_4d/pool_proj
I0403 15:24:25.304589 19312 net.cpp:399] inception_4d/output -> inception_4d/output
I0403 15:24:25.304639 19312 net.cpp:141] Setting up inception_4d/output
I0403 15:24:25.304663 19312 net.cpp:148] Top shape: 24 528 14 14 (2483712)
I0403 15:24:25.304677 19312 net.cpp:156] Memory required for data: 1157244192
I0403 15:24:25.304692 19312 layer_factory.hpp:77] Creating layer inception_4d/output_inception_4d/output_0_split
I0403 15:24:25.304713 19312 net.cpp:91] Creating Layer inception_4d/output_inception_4d/output_0_split
I0403 15:24:25.304728 19312 net.cpp:425] inception_4d/output_inception_4d/output_0_split <- inception_4d/output
I0403 15:24:25.304746 19312 net.cpp:399] inception_4d/output_inception_4d/output_0_split -> inception_4d/output_inception_4d/output_0_split_0
I0403 15:24:25.304766 19312 net.cpp:399] inception_4d/output_inception_4d/output_0_split -> inception_4d/output_inception_4d/output_0_split_1
I0403 15:24:25.304786 19312 net.cpp:399] inception_4d/output_inception_4d/output_0_split -> inception_4d/output_inception_4d/output_0_split_2
I0403 15:24:25.304807 19312 net.cpp:399] inception_4d/output_inception_4d/output_0_split -> inception_4d/output_inception_4d/output_0_split_3
I0403 15:24:25.304829 19312 net.cpp:399] inception_4d/output_inception_4d/output_0_split -> inception_4d/output_inception_4d/output_0_split_4
I0403 15:24:25.304936 19312 net.cpp:141] Setting up inception_4d/output_inception_4d/output_0_split
I0403 15:24:25.304972 19312 net.cpp:148] Top shape: 24 528 14 14 (2483712)
I0403 15:24:25.304992 19312 net.cpp:148] Top shape: 24 528 14 14 (2483712)
I0403 15:24:25.305009 19312 net.cpp:148] Top shape: 24 528 14 14 (2483712)
I0403 15:24:25.305025 19312 net.cpp:148] Top shape: 24 528 14 14 (2483712)
I0403 15:24:25.305040 19312 net.cpp:148] Top shape: 24 528 14 14 (2483712)
I0403 15:24:25.305055 19312 net.cpp:156] Memory required for data: 1206918432
I0403 15:24:25.305069 19312 layer_factory.hpp:77] Creating layer loss2/ave_pool
I0403 15:24:25.305088 19312 net.cpp:91] Creating Layer loss2/ave_pool
I0403 15:24:25.305104 19312 net.cpp:425] loss2/ave_pool <- inception_4d/output_inception_4d/output_0_split_0
I0403 15:24:25.305124 19312 net.cpp:399] loss2/ave_pool -> loss2/ave_pool
I0403 15:24:25.305436 19312 net.cpp:141] Setting up loss2/ave_pool
I0403 15:24:25.305464 19312 net.cpp:148] Top shape: 24 528 4 4 (202752)
I0403 15:24:25.305479 19312 net.cpp:156] Memory required for data: 1207729440
I0403 15:24:25.305492 19312 layer_factory.hpp:77] Creating layer loss2/conv
I0403 15:24:25.305515 19312 net.cpp:91] Creating Layer loss2/conv
I0403 15:24:25.305532 19312 net.cpp:425] loss2/conv <- loss2/ave_pool
I0403 15:24:25.305553 19312 net.cpp:399] loss2/conv -> loss2/conv
I0403 15:24:25.307458 19312 net.cpp:141] Setting up loss2/conv
I0403 15:24:25.307490 19312 net.cpp:148] Top shape: 24 128 4 4 (49152)
I0403 15:24:25.307515 19312 net.cpp:156] Memory required for data: 1207926048
I0403 15:24:25.307533 19312 layer_factory.hpp:77] Creating layer loss2/relu_conv
I0403 15:24:25.307551 19312 net.cpp:91] Creating Layer loss2/relu_conv
I0403 15:24:25.307566 19312 net.cpp:425] loss2/relu_conv <- loss2/conv
I0403 15:24:25.307584 19312 net.cpp:386] loss2/relu_conv -> loss2/conv (in-place)
I0403 15:24:25.307875 19312 net.cpp:141] Setting up loss2/relu_conv
I0403 15:24:25.307916 19312 net.cpp:148] Top shape: 24 128 4 4 (49152)
I0403 15:24:25.307932 19312 net.cpp:156] Memory required for data: 1208122656
I0403 15:24:25.307948 19312 layer_factory.hpp:77] Creating layer loss2/fc
I0403 15:24:25.307998 19312 net.cpp:91] Creating Layer loss2/fc
I0403 15:24:25.308018 19312 net.cpp:425] loss2/fc <- loss2/conv
I0403 15:24:25.308043 19312 net.cpp:399] loss2/fc -> loss2/fc
I0403 15:24:25.325296 19312 net.cpp:141] Setting up loss2/fc
I0403 15:24:25.325328 19312 net.cpp:148] Top shape: 24 1024 (24576)
I0403 15:24:25.325342 19312 net.cpp:156] Memory required for data: 1208220960
I0403 15:24:25.325359 19312 layer_factory.hpp:77] Creating layer loss2/relu_fc
I0403 15:24:25.325379 19312 net.cpp:91] Creating Layer loss2/relu_fc
I0403 15:24:25.325397 19312 net.cpp:425] loss2/relu_fc <- loss2/fc
I0403 15:24:25.325413 19312 net.cpp:386] loss2/relu_fc -> loss2/fc (in-place)
I0403 15:24:25.325705 19312 net.cpp:141] Setting up loss2/relu_fc
I0403 15:24:25.325731 19312 net.cpp:148] Top shape: 24 1024 (24576)
I0403 15:24:25.325744 19312 net.cpp:156] Memory required for data: 1208319264
I0403 15:24:25.325758 19312 layer_factory.hpp:77] Creating layer loss2/drop_fc
I0403 15:24:25.325778 19312 net.cpp:91] Creating Layer loss2/drop_fc
I0403 15:24:25.325794 19312 net.cpp:425] loss2/drop_fc <- loss2/fc
I0403 15:24:25.325811 19312 net.cpp:386] loss2/drop_fc -> loss2/fc (in-place)
I0403 15:24:25.325860 19312 net.cpp:141] Setting up loss2/drop_fc
I0403 15:24:25.325881 19312 net.cpp:148] Top shape: 24 1024 (24576)
I0403 15:24:25.325896 19312 net.cpp:156] Memory required for data: 1208417568
I0403 15:24:25.325909 19312 layer_factory.hpp:77] Creating layer loss2/classifier_plantvillage
I0403 15:24:25.325927 19312 net.cpp:91] Creating Layer loss2/classifier_plantvillage
I0403 15:24:25.325945 19312 net.cpp:425] loss2/classifier_plantvillage <- loss2/fc
I0403 15:24:25.325963 19312 net.cpp:399] loss2/classifier_plantvillage -> loss2/classifier_plantvillage
I0403 15:24:25.326359 19312 net.cpp:141] Setting up loss2/classifier_plantvillage
I0403 15:24:25.326382 19312 net.cpp:148] Top shape: 24 38 (912)
I0403 15:24:25.326412 19312 net.cpp:156] Memory required for data: 1208421216
I0403 15:24:25.326431 19312 layer_factory.hpp:77] Creating layer loss2/classifier_plantvillage_loss2/classifier_plantvillage_0_split
I0403 15:24:25.326447 19312 net.cpp:91] Creating Layer loss2/classifier_plantvillage_loss2/classifier_plantvillage_0_split
I0403 15:24:25.326462 19312 net.cpp:425] loss2/classifier_plantvillage_loss2/classifier_plantvillage_0_split <- loss2/classifier_plantvillage
I0403 15:24:25.326485 19312 net.cpp:399] loss2/classifier_plantvillage_loss2/classifier_plantvillage_0_split -> loss2/classifier_plantvillage_loss2/classifier_plantvillage_0_split_0
I0403 15:24:25.326505 19312 net.cpp:399] loss2/classifier_plantvillage_loss2/classifier_plantvillage_0_split -> loss2/classifier_plantvillage_loss2/classifier_plantvillage_0_split_1
I0403 15:24:25.326526 19312 net.cpp:399] loss2/classifier_plantvillage_loss2/classifier_plantvillage_0_split -> loss2/classifier_plantvillage_loss2/classifier_plantvillage_0_split_2
I0403 15:24:25.326601 19312 net.cpp:141] Setting up loss2/classifier_plantvillage_loss2/classifier_plantvillage_0_split
I0403 15:24:25.326627 19312 net.cpp:148] Top shape: 24 38 (912)
I0403 15:24:25.326643 19312 net.cpp:148] Top shape: 24 38 (912)
I0403 15:24:25.326658 19312 net.cpp:148] Top shape: 24 38 (912)
I0403 15:24:25.326671 19312 net.cpp:156] Memory required for data: 1208432160
I0403 15:24:25.326685 19312 layer_factory.hpp:77] Creating layer inception_4e/1x1
I0403 15:24:25.326706 19312 net.cpp:91] Creating Layer inception_4e/1x1
I0403 15:24:25.326724 19312 net.cpp:425] inception_4e/1x1 <- inception_4d/output_inception_4d/output_0_split_1
I0403 15:24:25.326741 19312 net.cpp:399] inception_4e/1x1 -> inception_4e/1x1
I0403 15:24:25.328531 19312 net.cpp:141] Setting up inception_4e/1x1
I0403 15:24:25.328560 19312 net.cpp:148] Top shape: 24 256 14 14 (1204224)
I0403 15:24:25.328577 19312 net.cpp:156] Memory required for data: 1213249056
I0403 15:24:25.328594 19312 layer_factory.hpp:77] Creating layer inception_4e/relu_1x1
I0403 15:24:25.328613 19312 net.cpp:91] Creating Layer inception_4e/relu_1x1
I0403 15:24:25.328627 19312 net.cpp:425] inception_4e/relu_1x1 <- inception_4e/1x1
I0403 15:24:25.328645 19312 net.cpp:386] inception_4e/relu_1x1 -> inception_4e/1x1 (in-place)
I0403 15:24:25.328948 19312 net.cpp:141] Setting up inception_4e/relu_1x1
I0403 15:24:25.328979 19312 net.cpp:148] Top shape: 24 256 14 14 (1204224)
I0403 15:24:25.329006 19312 net.cpp:156] Memory required for data: 1218065952
I0403 15:24:25.329023 19312 layer_factory.hpp:77] Creating layer inception_4e/3x3_reduce
I0403 15:24:25.329046 19312 net.cpp:91] Creating Layer inception_4e/3x3_reduce
I0403 15:24:25.329064 19312 net.cpp:425] inception_4e/3x3_reduce <- inception_4d/output_inception_4d/output_0_split_2
I0403 15:24:25.329082 19312 net.cpp:399] inception_4e/3x3_reduce -> inception_4e/3x3_reduce
I0403 15:24:25.331187 19312 net.cpp:141] Setting up inception_4e/3x3_reduce
I0403 15:24:25.331225 19312 net.cpp:148] Top shape: 24 160 14 14 (752640)
I0403 15:24:25.331241 19312 net.cpp:156] Memory required for data: 1221076512
I0403 15:24:25.331259 19312 layer_factory.hpp:77] Creating layer inception_4e/relu_3x3_reduce
I0403 15:24:25.331276 19312 net.cpp:91] Creating Layer inception_4e/relu_3x3_reduce
I0403 15:24:25.331291 19312 net.cpp:425] inception_4e/relu_3x3_reduce <- inception_4e/3x3_reduce
I0403 15:24:25.331308 19312 net.cpp:386] inception_4e/relu_3x3_reduce -> inception_4e/3x3_reduce (in-place)
I0403 15:24:25.331490 19312 net.cpp:141] Setting up inception_4e/relu_3x3_reduce
I0403 15:24:25.331521 19312 net.cpp:148] Top shape: 24 160 14 14 (752640)
I0403 15:24:25.331537 19312 net.cpp:156] Memory required for data: 1224087072
I0403 15:24:25.331550 19312 layer_factory.hpp:77] Creating layer inception_4e/3x3
I0403 15:24:25.331571 19312 net.cpp:91] Creating Layer inception_4e/3x3
I0403 15:24:25.331588 19312 net.cpp:425] inception_4e/3x3 <- inception_4e/3x3_reduce
I0403 15:24:25.331609 19312 net.cpp:399] inception_4e/3x3 -> inception_4e/3x3
I0403 15:24:25.336565 19312 net.cpp:141] Setting up inception_4e/3x3
I0403 15:24:25.336604 19312 net.cpp:148] Top shape: 24 320 14 14 (1505280)
I0403 15:24:25.336619 19312 net.cpp:156] Memory required for data: 1230108192
I0403 15:24:25.336637 19312 layer_factory.hpp:77] Creating layer inception_4e/relu_3x3
I0403 15:24:25.336655 19312 net.cpp:91] Creating Layer inception_4e/relu_3x3
I0403 15:24:25.336669 19312 net.cpp:425] inception_4e/relu_3x3 <- inception_4e/3x3
I0403 15:24:25.336688 19312 net.cpp:386] inception_4e/relu_3x3 -> inception_4e/3x3 (in-place)
I0403 15:24:25.336990 19312 net.cpp:141] Setting up inception_4e/relu_3x3
I0403 15:24:25.337016 19312 net.cpp:148] Top shape: 24 320 14 14 (1505280)
I0403 15:24:25.337031 19312 net.cpp:156] Memory required for data: 1236129312
I0403 15:24:25.337045 19312 layer_factory.hpp:77] Creating layer inception_4e/5x5_reduce
I0403 15:24:25.337069 19312 net.cpp:91] Creating Layer inception_4e/5x5_reduce
I0403 15:24:25.337086 19312 net.cpp:425] inception_4e/5x5_reduce <- inception_4d/output_inception_4d/output_0_split_3
I0403 15:24:25.337107 19312 net.cpp:399] inception_4e/5x5_reduce -> inception_4e/5x5_reduce
I0403 15:24:25.338193 19312 net.cpp:141] Setting up inception_4e/5x5_reduce
I0403 15:24:25.338224 19312 net.cpp:148] Top shape: 24 32 14 14 (150528)
I0403 15:24:25.338240 19312 net.cpp:156] Memory required for data: 1236731424
I0403 15:24:25.338269 19312 layer_factory.hpp:77] Creating layer inception_4e/relu_5x5_reduce
I0403 15:24:25.338287 19312 net.cpp:91] Creating Layer inception_4e/relu_5x5_reduce
I0403 15:24:25.338302 19312 net.cpp:425] inception_4e/relu_5x5_reduce <- inception_4e/5x5_reduce
I0403 15:24:25.338333 19312 net.cpp:386] inception_4e/relu_5x5_reduce -> inception_4e/5x5_reduce (in-place)
I0403 15:24:25.338632 19312 net.cpp:141] Setting up inception_4e/relu_5x5_reduce
I0403 15:24:25.338660 19312 net.cpp:148] Top shape: 24 32 14 14 (150528)
I0403 15:24:25.338676 19312 net.cpp:156] Memory required for data: 1237333536
I0403 15:24:25.338691 19312 layer_factory.hpp:77] Creating layer inception_4e/5x5
I0403 15:24:25.338731 19312 net.cpp:91] Creating Layer inception_4e/5x5
I0403 15:24:25.338749 19312 net.cpp:425] inception_4e/5x5 <- inception_4e/5x5_reduce
I0403 15:24:25.338769 19312 net.cpp:399] inception_4e/5x5 -> inception_4e/5x5
I0403 15:24:25.340590 19312 net.cpp:141] Setting up inception_4e/5x5
I0403 15:24:25.340617 19312 net.cpp:148] Top shape: 24 128 14 14 (602112)
I0403 15:24:25.340632 19312 net.cpp:156] Memory required for data: 1239741984
I0403 15:24:25.340651 19312 layer_factory.hpp:77] Creating layer inception_4e/relu_5x5
I0403 15:24:25.340670 19312 net.cpp:91] Creating Layer inception_4e/relu_5x5
I0403 15:24:25.340687 19312 net.cpp:425] inception_4e/relu_5x5 <- inception_4e/5x5
I0403 15:24:25.340703 19312 net.cpp:386] inception_4e/relu_5x5 -> inception_4e/5x5 (in-place)
I0403 15:24:25.340899 19312 net.cpp:141] Setting up inception_4e/relu_5x5
I0403 15:24:25.340925 19312 net.cpp:148] Top shape: 24 128 14 14 (602112)
I0403 15:24:25.340940 19312 net.cpp:156] Memory required for data: 1242150432
I0403 15:24:25.340955 19312 layer_factory.hpp:77] Creating layer inception_4e/pool
I0403 15:24:25.340971 19312 net.cpp:91] Creating Layer inception_4e/pool
I0403 15:24:25.340991 19312 net.cpp:425] inception_4e/pool <- inception_4d/output_inception_4d/output_0_split_4
I0403 15:24:25.341012 19312 net.cpp:399] inception_4e/pool -> inception_4e/pool
I0403 15:24:25.341083 19312 net.cpp:141] Setting up inception_4e/pool
I0403 15:24:25.341105 19312 net.cpp:148] Top shape: 24 528 14 14 (2483712)
I0403 15:24:25.341120 19312 net.cpp:156] Memory required for data: 1252085280
I0403 15:24:25.341133 19312 layer_factory.hpp:77] Creating layer inception_4e/pool_proj
I0403 15:24:25.341155 19312 net.cpp:91] Creating Layer inception_4e/pool_proj
I0403 15:24:25.341171 19312 net.cpp:425] inception_4e/pool_proj <- inception_4e/pool
I0403 15:24:25.341190 19312 net.cpp:399] inception_4e/pool_proj -> inception_4e/pool_proj
I0403 15:24:25.342674 19312 net.cpp:141] Setting up inception_4e/pool_proj
I0403 15:24:25.342711 19312 net.cpp:148] Top shape: 24 128 14 14 (602112)
I0403 15:24:25.342727 19312 net.cpp:156] Memory required for data: 1254493728
I0403 15:24:25.342744 19312 layer_factory.hpp:77] Creating layer inception_4e/relu_pool_proj
I0403 15:24:25.342764 19312 net.cpp:91] Creating Layer inception_4e/relu_pool_proj
I0403 15:24:25.342780 19312 net.cpp:425] inception_4e/relu_pool_proj <- inception_4e/pool_proj
I0403 15:24:25.342797 19312 net.cpp:386] inception_4e/relu_pool_proj -> inception_4e/pool_proj (in-place)
I0403 15:24:25.343093 19312 net.cpp:141] Setting up inception_4e/relu_pool_proj
I0403 15:24:25.343119 19312 net.cpp:148] Top shape: 24 128 14 14 (602112)
I0403 15:24:25.343133 19312 net.cpp:156] Memory required for data: 1256902176
I0403 15:24:25.343147 19312 layer_factory.hpp:77] Creating layer inception_4e/output
I0403 15:24:25.343164 19312 net.cpp:91] Creating Layer inception_4e/output
I0403 15:24:25.343180 19312 net.cpp:425] inception_4e/output <- inception_4e/1x1
I0403 15:24:25.343196 19312 net.cpp:425] inception_4e/output <- inception_4e/3x3
I0403 15:24:25.343211 19312 net.cpp:425] inception_4e/output <- inception_4e/5x5
I0403 15:24:25.343230 19312 net.cpp:425] inception_4e/output <- inception_4e/pool_proj
I0403 15:24:25.343250 19312 net.cpp:399] inception_4e/output -> inception_4e/output
I0403 15:24:25.343302 19312 net.cpp:141] Setting up inception_4e/output
I0403 15:24:25.343323 19312 net.cpp:148] Top shape: 24 832 14 14 (3913728)
I0403 15:24:25.343338 19312 net.cpp:156] Memory required for data: 1272557088
I0403 15:24:25.343353 19312 layer_factory.hpp:77] Creating layer pool4/3x3_s2
I0403 15:24:25.343369 19312 net.cpp:91] Creating Layer pool4/3x3_s2
I0403 15:24:25.343384 19312 net.cpp:425] pool4/3x3_s2 <- inception_4e/output
I0403 15:24:25.343405 19312 net.cpp:399] pool4/3x3_s2 -> pool4/3x3_s2
I0403 15:24:25.343471 19312 net.cpp:141] Setting up pool4/3x3_s2
I0403 15:24:25.343493 19312 net.cpp:148] Top shape: 24 832 7 7 (978432)
I0403 15:24:25.343516 19312 net.cpp:156] Memory required for data: 1276470816
I0403 15:24:25.343530 19312 layer_factory.hpp:77] Creating layer pool4/3x3_s2_pool4/3x3_s2_0_split
I0403 15:24:25.343550 19312 net.cpp:91] Creating Layer pool4/3x3_s2_pool4/3x3_s2_0_split
I0403 15:24:25.343566 19312 net.cpp:425] pool4/3x3_s2_pool4/3x3_s2_0_split <- pool4/3x3_s2
I0403 15:24:25.343583 19312 net.cpp:399] pool4/3x3_s2_pool4/3x3_s2_0_split -> pool4/3x3_s2_pool4/3x3_s2_0_split_0
I0403 15:24:25.343605 19312 net.cpp:399] pool4/3x3_s2_pool4/3x3_s2_0_split -> pool4/3x3_s2_pool4/3x3_s2_0_split_1
I0403 15:24:25.343626 19312 net.cpp:399] pool4/3x3_s2_pool4/3x3_s2_0_split -> pool4/3x3_s2_pool4/3x3_s2_0_split_2
I0403 15:24:25.343647 19312 net.cpp:399] pool4/3x3_s2_pool4/3x3_s2_0_split -> pool4/3x3_s2_pool4/3x3_s2_0_split_3
I0403 15:24:25.343734 19312 net.cpp:141] Setting up pool4/3x3_s2_pool4/3x3_s2_0_split
I0403 15:24:25.343756 19312 net.cpp:148] Top shape: 24 832 7 7 (978432)
I0403 15:24:25.343772 19312 net.cpp:148] Top shape: 24 832 7 7 (978432)
I0403 15:24:25.343787 19312 net.cpp:148] Top shape: 24 832 7 7 (978432)
I0403 15:24:25.343802 19312 net.cpp:148] Top shape: 24 832 7 7 (978432)
I0403 15:24:25.343816 19312 net.cpp:156] Memory required for data: 1292125728
I0403 15:24:25.343829 19312 layer_factory.hpp:77] Creating layer inception_5a/1x1
I0403 15:24:25.343850 19312 net.cpp:91] Creating Layer inception_5a/1x1
I0403 15:24:25.343868 19312 net.cpp:425] inception_5a/1x1 <- pool4/3x3_s2_pool4/3x3_s2_0_split_0
I0403 15:24:25.343888 19312 net.cpp:399] inception_5a/1x1 -> inception_5a/1x1
I0403 15:24:25.346771 19312 net.cpp:141] Setting up inception_5a/1x1
I0403 15:24:25.346799 19312 net.cpp:148] Top shape: 24 256 7 7 (301056)
I0403 15:24:25.346818 19312 net.cpp:156] Memory required for data: 1293329952
I0403 15:24:25.346837 19312 layer_factory.hpp:77] Creating layer inception_5a/relu_1x1
I0403 15:24:25.346854 19312 net.cpp:91] Creating Layer inception_5a/relu_1x1
I0403 15:24:25.346870 19312 net.cpp:425] inception_5a/relu_1x1 <- inception_5a/1x1
I0403 15:24:25.346887 19312 net.cpp:386] inception_5a/relu_1x1 -> inception_5a/1x1 (in-place)
I0403 15:24:25.347208 19312 net.cpp:141] Setting up inception_5a/relu_1x1
I0403 15:24:25.347240 19312 net.cpp:148] Top shape: 24 256 7 7 (301056)
I0403 15:24:25.347259 19312 net.cpp:156] Memory required for data: 1294534176
I0403 15:24:25.347273 19312 layer_factory.hpp:77] Creating layer inception_5a/3x3_reduce
I0403 15:24:25.347293 19312 net.cpp:91] Creating Layer inception_5a/3x3_reduce
I0403 15:24:25.347311 19312 net.cpp:425] inception_5a/3x3_reduce <- pool4/3x3_s2_pool4/3x3_s2_0_split_1
I0403 15:24:25.347332 19312 net.cpp:399] inception_5a/3x3_reduce -> inception_5a/3x3_reduce
I0403 15:24:25.349823 19312 net.cpp:141] Setting up inception_5a/3x3_reduce
I0403 15:24:25.349853 19312 net.cpp:148] Top shape: 24 160 7 7 (188160)
I0403 15:24:25.349867 19312 net.cpp:156] Memory required for data: 1295286816
I0403 15:24:25.349886 19312 layer_factory.hpp:77] Creating layer inception_5a/relu_3x3_reduce
I0403 15:24:25.349903 19312 net.cpp:91] Creating Layer inception_5a/relu_3x3_reduce
I0403 15:24:25.349920 19312 net.cpp:425] inception_5a/relu_3x3_reduce <- inception_5a/3x3_reduce
I0403 15:24:25.349942 19312 net.cpp:386] inception_5a/relu_3x3_reduce -> inception_5a/3x3_reduce (in-place)
I0403 15:24:25.350136 19312 net.cpp:141] Setting up inception_5a/relu_3x3_reduce
I0403 15:24:25.350162 19312 net.cpp:148] Top shape: 24 160 7 7 (188160)
I0403 15:24:25.350177 19312 net.cpp:156] Memory required for data: 1296039456
I0403 15:24:25.350191 19312 layer_factory.hpp:77] Creating layer inception_5a/3x3
I0403 15:24:25.350214 19312 net.cpp:91] Creating Layer inception_5a/3x3
I0403 15:24:25.350232 19312 net.cpp:425] inception_5a/3x3 <- inception_5a/3x3_reduce
I0403 15:24:25.350253 19312 net.cpp:399] inception_5a/3x3 -> inception_5a/3x3
I0403 15:24:25.355343 19312 net.cpp:141] Setting up inception_5a/3x3
I0403 15:24:25.355373 19312 net.cpp:148] Top shape: 24 320 7 7 (376320)
I0403 15:24:25.355389 19312 net.cpp:156] Memory required for data: 1297544736
I0403 15:24:25.355406 19312 layer_factory.hpp:77] Creating layer inception_5a/relu_3x3
I0403 15:24:25.355427 19312 net.cpp:91] Creating Layer inception_5a/relu_3x3
I0403 15:24:25.355443 19312 net.cpp:425] inception_5a/relu_3x3 <- inception_5a/3x3
I0403 15:24:25.355460 19312 net.cpp:386] inception_5a/relu_3x3 -> inception_5a/3x3 (in-place)
I0403 15:24:25.355762 19312 net.cpp:141] Setting up inception_5a/relu_3x3
I0403 15:24:25.355788 19312 net.cpp:148] Top shape: 24 320 7 7 (376320)
I0403 15:24:25.355803 19312 net.cpp:156] Memory required for data: 1299050016
I0403 15:24:25.355818 19312 layer_factory.hpp:77] Creating layer inception_5a/5x5_reduce
I0403 15:24:25.355839 19312 net.cpp:91] Creating Layer inception_5a/5x5_reduce
I0403 15:24:25.355860 19312 net.cpp:425] inception_5a/5x5_reduce <- pool4/3x3_s2_pool4/3x3_s2_0_split_2
I0403 15:24:25.355878 19312 net.cpp:399] inception_5a/5x5_reduce -> inception_5a/5x5_reduce
I0403 15:24:25.357077 19312 net.cpp:141] Setting up inception_5a/5x5_reduce
I0403 15:24:25.357108 19312 net.cpp:148] Top shape: 24 32 7 7 (37632)
I0403 15:24:25.357125 19312 net.cpp:156] Memory required for data: 1299200544
I0403 15:24:25.357142 19312 layer_factory.hpp:77] Creating layer inception_5a/relu_5x5_reduce
I0403 15:24:25.357161 19312 net.cpp:91] Creating Layer inception_5a/relu_5x5_reduce
I0403 15:24:25.357177 19312 net.cpp:425] inception_5a/relu_5x5_reduce <- inception_5a/5x5_reduce
I0403 15:24:25.357192 19312 net.cpp:386] inception_5a/relu_5x5_reduce -> inception_5a/5x5_reduce (in-place)
I0403 15:24:25.357499 19312 net.cpp:141] Setting up inception_5a/relu_5x5_reduce
I0403 15:24:25.357527 19312 net.cpp:148] Top shape: 24 32 7 7 (37632)
I0403 15:24:25.357542 19312 net.cpp:156] Memory required for data: 1299351072
I0403 15:24:25.357558 19312 layer_factory.hpp:77] Creating layer inception_5a/5x5
I0403 15:24:25.357579 19312 net.cpp:91] Creating Layer inception_5a/5x5
I0403 15:24:25.357597 19312 net.cpp:425] inception_5a/5x5 <- inception_5a/5x5_reduce
I0403 15:24:25.357616 19312 net.cpp:399] inception_5a/5x5 -> inception_5a/5x5
I0403 15:24:25.359375 19312 net.cpp:141] Setting up inception_5a/5x5
I0403 15:24:25.359414 19312 net.cpp:148] Top shape: 24 128 7 7 (150528)
I0403 15:24:25.359431 19312 net.cpp:156] Memory required for data: 1299953184
I0403 15:24:25.359448 19312 layer_factory.hpp:77] Creating layer inception_5a/relu_5x5
I0403 15:24:25.359469 19312 net.cpp:91] Creating Layer inception_5a/relu_5x5
I0403 15:24:25.359486 19312 net.cpp:425] inception_5a/relu_5x5 <- inception_5a/5x5
I0403 15:24:25.359513 19312 net.cpp:386] inception_5a/relu_5x5 -> inception_5a/5x5 (in-place)
I0403 15:24:25.359706 19312 net.cpp:141] Setting up inception_5a/relu_5x5
I0403 15:24:25.359735 19312 net.cpp:148] Top shape: 24 128 7 7 (150528)
I0403 15:24:25.359750 19312 net.cpp:156] Memory required for data: 1300555296
I0403 15:24:25.359765 19312 layer_factory.hpp:77] Creating layer inception_5a/pool
I0403 15:24:25.359781 19312 net.cpp:91] Creating Layer inception_5a/pool
I0403 15:24:25.359797 19312 net.cpp:425] inception_5a/pool <- pool4/3x3_s2_pool4/3x3_s2_0_split_3
I0403 15:24:25.359817 19312 net.cpp:399] inception_5a/pool -> inception_5a/pool
I0403 15:24:25.359889 19312 net.cpp:141] Setting up inception_5a/pool
I0403 15:24:25.359912 19312 net.cpp:148] Top shape: 24 832 7 7 (978432)
I0403 15:24:25.359926 19312 net.cpp:156] Memory required for data: 1304469024
I0403 15:24:25.359941 19312 layer_factory.hpp:77] Creating layer inception_5a/pool_proj
I0403 15:24:25.359962 19312 net.cpp:91] Creating Layer inception_5a/pool_proj
I0403 15:24:25.359982 19312 net.cpp:425] inception_5a/pool_proj <- inception_5a/pool
I0403 15:24:25.360005 19312 net.cpp:399] inception_5a/pool_proj -> inception_5a/pool_proj
I0403 15:24:25.362323 19312 net.cpp:141] Setting up inception_5a/pool_proj
I0403 15:24:25.362352 19312 net.cpp:148] Top shape: 24 128 7 7 (150528)
I0403 15:24:25.362367 19312 net.cpp:156] Memory required for data: 1305071136
I0403 15:24:25.362385 19312 layer_factory.hpp:77] Creating layer inception_5a/relu_pool_proj
I0403 15:24:25.362406 19312 net.cpp:91] Creating Layer inception_5a/relu_pool_proj
I0403 15:24:25.362422 19312 net.cpp:425] inception_5a/relu_pool_proj <- inception_5a/pool_proj
I0403 15:24:25.362439 19312 net.cpp:386] inception_5a/relu_pool_proj -> inception_5a/pool_proj (in-place)
I0403 15:24:25.362745 19312 net.cpp:141] Setting up inception_5a/relu_pool_proj
I0403 15:24:25.362771 19312 net.cpp:148] Top shape: 24 128 7 7 (150528)
I0403 15:24:25.362785 19312 net.cpp:156] Memory required for data: 1305673248
I0403 15:24:25.362800 19312 layer_factory.hpp:77] Creating layer inception_5a/output
I0403 15:24:25.362820 19312 net.cpp:91] Creating Layer inception_5a/output
I0403 15:24:25.362836 19312 net.cpp:425] inception_5a/output <- inception_5a/1x1
I0403 15:24:25.362854 19312 net.cpp:425] inception_5a/output <- inception_5a/3x3
I0403 15:24:25.362869 19312 net.cpp:425] inception_5a/output <- inception_5a/5x5
I0403 15:24:25.362885 19312 net.cpp:425] inception_5a/output <- inception_5a/pool_proj
I0403 15:24:25.362902 19312 net.cpp:399] inception_5a/output -> inception_5a/output
I0403 15:24:25.362951 19312 net.cpp:141] Setting up inception_5a/output
I0403 15:24:25.362979 19312 net.cpp:148] Top shape: 24 832 7 7 (978432)
I0403 15:24:25.362999 19312 net.cpp:156] Memory required for data: 1309586976
I0403 15:24:25.363015 19312 layer_factory.hpp:77] Creating layer inception_5a/output_inception_5a/output_0_split
I0403 15:24:25.363032 19312 net.cpp:91] Creating Layer inception_5a/output_inception_5a/output_0_split
I0403 15:24:25.363047 19312 net.cpp:425] inception_5a/output_inception_5a/output_0_split <- inception_5a/output
I0403 15:24:25.363068 19312 net.cpp:399] inception_5a/output_inception_5a/output_0_split -> inception_5a/output_inception_5a/output_0_split_0
I0403 15:24:25.363088 19312 net.cpp:399] inception_5a/output_inception_5a/output_0_split -> inception_5a/output_inception_5a/output_0_split_1
I0403 15:24:25.363121 19312 net.cpp:399] inception_5a/output_inception_5a/output_0_split -> inception_5a/output_inception_5a/output_0_split_2
I0403 15:24:25.363139 19312 net.cpp:399] inception_5a/output_inception_5a/output_0_split -> inception_5a/output_inception_5a/output_0_split_3
I0403 15:24:25.363257 19312 net.cpp:141] Setting up inception_5a/output_inception_5a/output_0_split
I0403 15:24:25.363282 19312 net.cpp:148] Top shape: 24 832 7 7 (978432)
I0403 15:24:25.363299 19312 net.cpp:148] Top shape: 24 832 7 7 (978432)
I0403 15:24:25.363314 19312 net.cpp:148] Top shape: 24 832 7 7 (978432)
I0403 15:24:25.363328 19312 net.cpp:148] Top shape: 24 832 7 7 (978432)
I0403 15:24:25.363342 19312 net.cpp:156] Memory required for data: 1325241888
I0403 15:24:25.363356 19312 layer_factory.hpp:77] Creating layer inception_5b/1x1
I0403 15:24:25.363378 19312 net.cpp:91] Creating Layer inception_5b/1x1
I0403 15:24:25.363395 19312 net.cpp:425] inception_5b/1x1 <- inception_5a/output_inception_5a/output_0_split_0
I0403 15:24:25.363414 19312 net.cpp:399] inception_5b/1x1 -> inception_5b/1x1
I0403 15:24:25.367100 19312 net.cpp:141] Setting up inception_5b/1x1
I0403 15:24:25.367128 19312 net.cpp:148] Top shape: 24 384 7 7 (451584)
I0403 15:24:25.367143 19312 net.cpp:156] Memory required for data: 1327048224
I0403 15:24:25.367161 19312 layer_factory.hpp:77] Creating layer inception_5b/relu_1x1
I0403 15:24:25.367179 19312 net.cpp:91] Creating Layer inception_5b/relu_1x1
I0403 15:24:25.367194 19312 net.cpp:425] inception_5b/relu_1x1 <- inception_5b/1x1
I0403 15:24:25.367221 19312 net.cpp:386] inception_5b/relu_1x1 -> inception_5b/1x1 (in-place)
I0403 15:24:25.367533 19312 net.cpp:141] Setting up inception_5b/relu_1x1
I0403 15:24:25.367559 19312 net.cpp:148] Top shape: 24 384 7 7 (451584)
I0403 15:24:25.367573 19312 net.cpp:156] Memory required for data: 1328854560
I0403 15:24:25.367588 19312 layer_factory.hpp:77] Creating layer inception_5b/3x3_reduce
I0403 15:24:25.367609 19312 net.cpp:91] Creating Layer inception_5b/3x3_reduce
I0403 15:24:25.367626 19312 net.cpp:425] inception_5b/3x3_reduce <- inception_5a/output_inception_5a/output_0_split_1
I0403 15:24:25.367648 19312 net.cpp:399] inception_5b/3x3_reduce -> inception_5b/3x3_reduce
I0403 15:24:25.370270 19312 net.cpp:141] Setting up inception_5b/3x3_reduce
I0403 15:24:25.370301 19312 net.cpp:148] Top shape: 24 192 7 7 (225792)
I0403 15:24:25.370316 19312 net.cpp:156] Memory required for data: 1329757728
I0403 15:24:25.370333 19312 layer_factory.hpp:77] Creating layer inception_5b/relu_3x3_reduce
I0403 15:24:25.370353 19312 net.cpp:91] Creating Layer inception_5b/relu_3x3_reduce
I0403 15:24:25.370369 19312 net.cpp:425] inception_5b/relu_3x3_reduce <- inception_5b/3x3_reduce
I0403 15:24:25.370386 19312 net.cpp:386] inception_5b/relu_3x3_reduce -> inception_5b/3x3_reduce (in-place)
I0403 15:24:25.370573 19312 net.cpp:141] Setting up inception_5b/relu_3x3_reduce
I0403 15:24:25.370596 19312 net.cpp:148] Top shape: 24 192 7 7 (225792)
I0403 15:24:25.370611 19312 net.cpp:156] Memory required for data: 1330660896
I0403 15:24:25.370625 19312 layer_factory.hpp:77] Creating layer inception_5b/3x3
I0403 15:24:25.370647 19312 net.cpp:91] Creating Layer inception_5b/3x3
I0403 15:24:25.370664 19312 net.cpp:425] inception_5b/3x3 <- inception_5b/3x3_reduce
I0403 15:24:25.370682 19312 net.cpp:399] inception_5b/3x3 -> inception_5b/3x3
I0403 15:24:25.377251 19312 net.cpp:141] Setting up inception_5b/3x3
I0403 15:24:25.377279 19312 net.cpp:148] Top shape: 24 384 7 7 (451584)
I0403 15:24:25.377295 19312 net.cpp:156] Memory required for data: 1332467232
I0403 15:24:25.377312 19312 layer_factory.hpp:77] Creating layer inception_5b/relu_3x3
I0403 15:24:25.377332 19312 net.cpp:91] Creating Layer inception_5b/relu_3x3
I0403 15:24:25.377348 19312 net.cpp:425] inception_5b/relu_3x3 <- inception_5b/3x3
I0403 15:24:25.377365 19312 net.cpp:386] inception_5b/relu_3x3 -> inception_5b/3x3 (in-place)
I0403 15:24:25.377656 19312 net.cpp:141] Setting up inception_5b/relu_3x3
I0403 15:24:25.377681 19312 net.cpp:148] Top shape: 24 384 7 7 (451584)
I0403 15:24:25.377696 19312 net.cpp:156] Memory required for data: 1334273568
I0403 15:24:25.377710 19312 layer_factory.hpp:77] Creating layer inception_5b/5x5_reduce
I0403 15:24:25.377748 19312 net.cpp:91] Creating Layer inception_5b/5x5_reduce
I0403 15:24:25.377766 19312 net.cpp:425] inception_5b/5x5_reduce <- inception_5a/output_inception_5a/output_0_split_2
I0403 15:24:25.377786 19312 net.cpp:399] inception_5b/5x5_reduce -> inception_5b/5x5_reduce
I0403 15:24:25.379062 19312 net.cpp:141] Setting up inception_5b/5x5_reduce
I0403 15:24:25.379089 19312 net.cpp:148] Top shape: 24 48 7 7 (56448)
I0403 15:24:25.379104 19312 net.cpp:156] Memory required for data: 1334499360
I0403 15:24:25.379122 19312 layer_factory.hpp:77] Creating layer inception_5b/relu_5x5_reduce
I0403 15:24:25.379142 19312 net.cpp:91] Creating Layer inception_5b/relu_5x5_reduce
I0403 15:24:25.379158 19312 net.cpp:425] inception_5b/relu_5x5_reduce <- inception_5b/5x5_reduce
I0403 15:24:25.379174 19312 net.cpp:386] inception_5b/relu_5x5_reduce -> inception_5b/5x5_reduce (in-place)
I0403 15:24:25.379551 19312 net.cpp:141] Setting up inception_5b/relu_5x5_reduce
I0403 15:24:25.379577 19312 net.cpp:148] Top shape: 24 48 7 7 (56448)
I0403 15:24:25.379591 19312 net.cpp:156] Memory required for data: 1334725152
I0403 15:24:25.379606 19312 layer_factory.hpp:77] Creating layer inception_5b/5x5
I0403 15:24:25.379626 19312 net.cpp:91] Creating Layer inception_5b/5x5
I0403 15:24:25.379642 19312 net.cpp:425] inception_5b/5x5 <- inception_5b/5x5_reduce
I0403 15:24:25.379660 19312 net.cpp:399] inception_5b/5x5 -> inception_5b/5x5
I0403 15:24:25.381676 19312 net.cpp:141] Setting up inception_5b/5x5
I0403 15:24:25.381703 19312 net.cpp:148] Top shape: 24 128 7 7 (150528)
I0403 15:24:25.381721 19312 net.cpp:156] Memory required for data: 1335327264
I0403 15:24:25.381739 19312 layer_factory.hpp:77] Creating layer inception_5b/relu_5x5
I0403 15:24:25.381757 19312 net.cpp:91] Creating Layer inception_5b/relu_5x5
I0403 15:24:25.381772 19312 net.cpp:425] inception_5b/relu_5x5 <- inception_5b/5x5
I0403 15:24:25.381788 19312 net.cpp:386] inception_5b/relu_5x5 -> inception_5b/5x5 (in-place)
I0403 15:24:25.381981 19312 net.cpp:141] Setting up inception_5b/relu_5x5
I0403 15:24:25.382011 19312 net.cpp:148] Top shape: 24 128 7 7 (150528)
I0403 15:24:25.382027 19312 net.cpp:156] Memory required for data: 1335929376
I0403 15:24:25.382041 19312 layer_factory.hpp:77] Creating layer inception_5b/pool
I0403 15:24:25.382061 19312 net.cpp:91] Creating Layer inception_5b/pool
I0403 15:24:25.382077 19312 net.cpp:425] inception_5b/pool <- inception_5a/output_inception_5a/output_0_split_3
I0403 15:24:25.382097 19312 net.cpp:399] inception_5b/pool -> inception_5b/pool
I0403 15:24:25.382169 19312 net.cpp:141] Setting up inception_5b/pool
I0403 15:24:25.382194 19312 net.cpp:148] Top shape: 24 832 7 7 (978432)
I0403 15:24:25.382210 19312 net.cpp:156] Memory required for data: 1339843104
I0403 15:24:25.382223 19312 layer_factory.hpp:77] Creating layer inception_5b/pool_proj
I0403 15:24:25.382242 19312 net.cpp:91] Creating Layer inception_5b/pool_proj
I0403 15:24:25.382258 19312 net.cpp:425] inception_5b/pool_proj <- inception_5b/pool
I0403 15:24:25.382278 19312 net.cpp:399] inception_5b/pool_proj -> inception_5b/pool_proj
I0403 15:24:25.384553 19312 net.cpp:141] Setting up inception_5b/pool_proj
I0403 15:24:25.384582 19312 net.cpp:148] Top shape: 24 128 7 7 (150528)
I0403 15:24:25.384598 19312 net.cpp:156] Memory required for data: 1340445216
I0403 15:24:25.384615 19312 layer_factory.hpp:77] Creating layer inception_5b/relu_pool_proj
I0403 15:24:25.384635 19312 net.cpp:91] Creating Layer inception_5b/relu_pool_proj
I0403 15:24:25.384652 19312 net.cpp:425] inception_5b/relu_pool_proj <- inception_5b/pool_proj
I0403 15:24:25.384670 19312 net.cpp:386] inception_5b/relu_pool_proj -> inception_5b/pool_proj (in-place)
I0403 15:24:25.384963 19312 net.cpp:141] Setting up inception_5b/relu_pool_proj
I0403 15:24:25.384990 19312 net.cpp:148] Top shape: 24 128 7 7 (150528)
I0403 15:24:25.385006 19312 net.cpp:156] Memory required for data: 1341047328
I0403 15:24:25.385021 19312 layer_factory.hpp:77] Creating layer inception_5b/output
I0403 15:24:25.385037 19312 net.cpp:91] Creating Layer inception_5b/output
I0403 15:24:25.385066 19312 net.cpp:425] inception_5b/output <- inception_5b/1x1
I0403 15:24:25.385088 19312 net.cpp:425] inception_5b/output <- inception_5b/3x3
I0403 15:24:25.385107 19312 net.cpp:425] inception_5b/output <- inception_5b/5x5
I0403 15:24:25.385123 19312 net.cpp:425] inception_5b/output <- inception_5b/pool_proj
I0403 15:24:25.385138 19312 net.cpp:399] inception_5b/output -> inception_5b/output
I0403 15:24:25.385191 19312 net.cpp:141] Setting up inception_5b/output
I0403 15:24:25.385213 19312 net.cpp:148] Top shape: 24 1024 7 7 (1204224)
I0403 15:24:25.385228 19312 net.cpp:156] Memory required for data: 1345864224
I0403 15:24:25.385241 19312 layer_factory.hpp:77] Creating layer pool5/7x7_s1
I0403 15:24:25.385258 19312 net.cpp:91] Creating Layer pool5/7x7_s1
I0403 15:24:25.385273 19312 net.cpp:425] pool5/7x7_s1 <- inception_5b/output
I0403 15:24:25.385293 19312 net.cpp:399] pool5/7x7_s1 -> pool5/7x7_s1
I0403 15:24:25.385507 19312 net.cpp:141] Setting up pool5/7x7_s1
I0403 15:24:25.385531 19312 net.cpp:148] Top shape: 24 1024 1 1 (24576)
I0403 15:24:25.385545 19312 net.cpp:156] Memory required for data: 1345962528
I0403 15:24:25.385560 19312 layer_factory.hpp:77] Creating layer pool5/drop_7x7_s1
I0403 15:24:25.385578 19312 net.cpp:91] Creating Layer pool5/drop_7x7_s1
I0403 15:24:25.385594 19312 net.cpp:425] pool5/drop_7x7_s1 <- pool5/7x7_s1
I0403 15:24:25.385612 19312 net.cpp:386] pool5/drop_7x7_s1 -> pool5/7x7_s1 (in-place)
I0403 15:24:25.385663 19312 net.cpp:141] Setting up pool5/drop_7x7_s1
I0403 15:24:25.385685 19312 net.cpp:148] Top shape: 24 1024 1 1 (24576)
I0403 15:24:25.385699 19312 net.cpp:156] Memory required for data: 1346060832
I0403 15:24:25.385713 19312 layer_factory.hpp:77] Creating layer loss3/classifier_plantvillage
I0403 15:24:25.385731 19312 net.cpp:91] Creating Layer loss3/classifier_plantvillage
I0403 15:24:25.385746 19312 net.cpp:425] loss3/classifier_plantvillage <- pool5/7x7_s1
I0403 15:24:25.385766 19312 net.cpp:399] loss3/classifier_plantvillage -> loss3/classifier_plantvillage
I0403 15:24:25.386193 19312 net.cpp:141] Setting up loss3/classifier_plantvillage
I0403 15:24:25.386216 19312 net.cpp:148] Top shape: 24 38 (912)
I0403 15:24:25.386231 19312 net.cpp:156] Memory required for data: 1346064480
I0403 15:24:25.386248 19312 layer_factory.hpp:77] Creating layer loss3/classifier_plantvillage_loss3/classifier_plantvillage_0_split
I0403 15:24:25.386265 19312 net.cpp:91] Creating Layer loss3/classifier_plantvillage_loss3/classifier_plantvillage_0_split
I0403 15:24:25.386279 19312 net.cpp:425] loss3/classifier_plantvillage_loss3/classifier_plantvillage_0_split <- loss3/classifier_plantvillage
I0403 15:24:25.386299 19312 net.cpp:399] loss3/classifier_plantvillage_loss3/classifier_plantvillage_0_split -> loss3/classifier_plantvillage_loss3/classifier_plantvillage_0_split_0
I0403 15:24:25.386319 19312 net.cpp:399] loss3/classifier_plantvillage_loss3/classifier_plantvillage_0_split -> loss3/classifier_plantvillage_loss3/classifier_plantvillage_0_split_1
I0403 15:24:25.386338 19312 net.cpp:399] loss3/classifier_plantvillage_loss3/classifier_plantvillage_0_split -> loss3/classifier_plantvillage_loss3/classifier_plantvillage_0_split_2
I0403 15:24:25.386358 19312 net.cpp:399] loss3/classifier_plantvillage_loss3/classifier_plantvillage_0_split -> loss3/classifier_plantvillage_loss3/classifier_plantvillage_0_split_3
I0403 15:24:25.386457 19312 net.cpp:141] Setting up loss3/classifier_plantvillage_loss3/classifier_plantvillage_0_split
I0403 15:24:25.386481 19312 net.cpp:148] Top shape: 24 38 (912)
I0403 15:24:25.386495 19312 net.cpp:148] Top shape: 24 38 (912)
I0403 15:24:25.386509 19312 net.cpp:148] Top shape: 24 38 (912)
I0403 15:24:25.386524 19312 net.cpp:148] Top shape: 24 38 (912)
I0403 15:24:25.386538 19312 net.cpp:156] Memory required for data: 1346079072
I0403 15:24:25.386551 19312 layer_factory.hpp:77] Creating layer loss1/loss
I0403 15:24:25.386571 19312 net.cpp:91] Creating Layer loss1/loss
I0403 15:24:25.386587 19312 net.cpp:425] loss1/loss <- loss1/classifier_plantvillage_loss1/classifier_plantvillage_0_split_0
I0403 15:24:25.386617 19312 net.cpp:425] loss1/loss <- label_data_1_split_0
…
