…
I0403 14:57:34.575678 17885 net.cpp:313] The NetState phase (1) differed from the phase (0) specified by a rule in layer data
I0403 14:57:34.576853 17885 net.cpp:49] Initializing net from parameters: 
state {
  phase: TEST
}
layer {
  name: "data"
  type: "Data"
  top: "data"
  top: "label"
  include {
    phase: TEST
  }
  transform_param {
    mirror: false
    crop_size: 224
    mean_file: "/home/mohanty/data/final_dataset/lmdb/grayscale-40-60/mean.binaryproto"
  }
  data_param {
    source: "/home/mohanty/data/final_dataset/lmdb/grayscale-40-60/test_db"
    batch_size: 24
    backend: LMDB
  }
}
layer {
  name: "conv1/7x7_s2"
  type: "Convolution"
  bottom: "data"
  top: "conv1/7x7_s2"
  param {
    lr_mult: 1
    decay_mult: 1
  }
  param {
    lr_mult: 2
    decay_mult: 0
  }
  convolution_param {
    num_output: 64
    pad: 3
    kernel_size: 7
    stride: 2
    weight_filler {
      type: "xavier"
      std: 0.1
    }
    bias_filler {
      type: "constant"
      value: 0.2
    }
  }
}
layer {
  name: "conv1/relu_7x7"
  type: "ReLU"
  bottom: "conv1/7x7_s2"
  top: "conv1/7x7_s2"
}
layer {
  name: "pool1/3x3_s2"
  type: "Pooling"
  bottom: "conv1/7x7_s2"
  top: "pool1/3x3_s2"
  pooling_param {
    pool: MAX
    kernel_size: 3
    stride: 2
  }
}
layer {
  name: "pool1/norm1"
  type: "LRN"
  bottom: "pool1/3x3_s2"
  top: "pool1/norm1"
  lrn_param {
    local_size: 5
    alpha: 0.0001
    beta: 0.75
  }
}
layer {
  name: "conv2/3x3_reduce"
  type: "Convolution"
  bottom: "pool1/norm1"
  top: "conv2/3x3_reduce"
  param {
    lr_mult: 1
    decay_mult: 1
  }
  param {
    lr_mult: 2
    decay_mult: 0
  }
  convolution_param {
    num_output: 64
    kernel_size: 1
    weight_filler {
      type: "xavier"
      std: 0.1
    }
    bias_filler {
      type: "constant"
      value: 0.2
    }
  }
}
layer {
  name: "conv2/relu_3x3_reduce"
  type: "ReLU"
  bottom: "conv2/3x3_reduce"
  top: "conv2/3x3_reduce"
}
layer {
  name: "conv2/3x3"
  type: "Convolution"
  bottom: "conv2/3x3_reduce"
  top: "conv2/3x3"
  param {
    lr_mult: 1
    decay_mult: 1
  }
  param {
    lr_mult: 2
    decay_mult: 0
  }
  convolution_param {
    num_output: 192
    pad: 1
    kernel_size: 3
    weight_filler {
      type: "xavier"
      std: 0.03
    }
    bias_filler {
      type: "constant"
      value: 0.2
    }
  }
}
layer {
  name: "conv2/relu_3x3"
  type: "ReLU"
  bottom: "conv2/3x3"
  top: "conv2/3x3"
}
layer {
  name: "conv2/norm2"
  type: "LRN"
  bottom: "conv2/3x3"
  top: "conv2/norm2"
  lrn_param {
    local_size: 5
    alpha: 0.0001
    beta: 0.75
  }
}
layer {
  name: "pool2/3x3_s2"
  type: "Pooling"
  bottom: "conv2/norm2"
  top: "pool2/3x3_s2"
  pooling_param {
    pool: MAX
    kernel_size: 3
    stride: 2
  }
}
layer {
  name: "inception_3a/1x1"
  type: "Convolution"
  bottom: "pool2/3x3_s2"
  top: "inception_3a/1x1"
  param {
    lr_mult: 1
    decay_mult: 1
  }
  param {
    lr_mult: 2
    decay_mult: 0
  }
  convolution_param {
    num_output: 64
    kernel_size: 1
    weight_filler {
      type: "xavier"
      std: 0.03
    }
    bias_filler {
      type: "constant"
      value: 0.2
    }
  }
}
layer {
  name: "inception_3a/relu_1x1"
  type: "ReLU"
  bottom: "inception_3a/1x1"
  top: "inception_3a/1x1"
}
layer {
  name: "inception_3a/3x3_reduce"
  type: "Convolution"
  bottom: "pool2/3x3_s2"
  top: "inception_3a/3x3_reduce"
  param {
    lr_mult: 1
    decay_mult: 1
  }
  param {
    lr_mult: 2
    decay_mult: 0
  }
  convolution_param {
    num_output: 96
    kernel_size: 1
    weight_filler {
      type: "xavier"
      std: 0.09
    }
    bias_filler {
      type: "constant"
      value: 0.2
    }
  }
}
layer {
  name: "inception_3a/relu_3x3_reduce"
  type: "ReLU"
  bottom: "inception_3a/3x3_reduce"
  top: "inception_3a/3x3_reduce"
}
layer {
  name: "inception_3a/3x3"
  type: "Convolution"
  bottom: "inception_3a/3x3_reduce"
  top: "inception_3a/3x3"
  param {
    lr_mult: 1
    decay_mult: 1
  }
  param {
    lr_mult: 2
    decay_mult: 0
  }
  convolution_param {
    num_output: 128
    pad: 1
    kernel_size: 3
    weight_filler {
      type: "xavier"
      std: 0.03
    }
    bias_filler {
      type: "constant"
      value: 0.2
    }
  }
}
layer {
  name: "inception_3a/relu_3x3"
  type: "ReLU"
  bottom: "inception_3a/3x3"
  top: "inception_3a/3x3"
}
layer {
  name: "inception_3a/5x5_reduce"
  type: "Convolution"
  bottom: "pool2/3x3_s2"
  top: "inception_3a/5x5_reduce"
  param {
    lr_mult: 1
    decay_mult: 1
  }
  param {
    lr_mult: 2
    decay_mult: 0
  }
  convolution_param {
    num_output: 16
    kernel_size: 1
    weight_filler {
      type: "xavier"
      std: 0.2
    }
    bias_filler {
      type: "constant"
      value: 0.2
    }
  }
}
layer {
  name: "inception_3a/relu_5x5_reduce"
  type: "ReLU"
  bottom: "inception_3a/5x5_reduce"
  top: "inception_3a/5x5_reduce"
}
layer {
  name: "inception_3a/5x5"
  type: "Convolution"
  bottom: "inception_3a/5x5_reduce"
  top: "inception_3a/5x5"
  param {
    lr_mult: 1
    decay_mult: 1
  }
  param {
    lr_mult: 2
    decay_mult: 0
  }
  convolution_param {
    num_output: 32
    pad: 2
    kernel_size: 5
    weight_filler {
      type: "xavier"
      std: 0.03
    }
    bias_filler {
      type: "constant"
      value: 0.2
    }
  }
}
layer {
  name: "inception_3a/relu_5x5"
  type: "ReLU"
  bottom: "inception_3a/5x5"
  top: "inception_3a/5x5"
}
layer {
  name: "inception_3a/pool"
  type: "Pooling"
  bottom: "pool2/3x3_s2"
  top: "inception_3a/pool"
  pooling_param {
    pool: MAX
    kernel_size: 3
    stride: 1
    pad: 1
  }
}
layer {
  name: "inception_3a/pool_proj"
  type: "Convolution"
  bottom: "inception_3a/pool"
  top: "inception_3a/pool_proj"
  param {
    lr_mult: 1
    decay_mult: 1
  }
  param {
    lr_mult: 2
    decay_mult: 0
  }
  convolution_param {
    num_output: 32
    kernel_size: 1
    weight_filler {
      type: "xavier"
      std: 0.1
    }
    bias_filler {
      type: "constant"
      value: 0.2
    }
  }
}
layer {
  name: "inception_3a/relu_pool_proj"
  type: "ReLU"
  bottom: "inception_3a/pool_proj"
  top: "inception_3a/pool_proj"
}
layer {
  name: "inception_3a/output"
  type: "Concat"
  bottom: "inception_3a/1x1"
  bottom: "inception_3a/3x3"
  bottom: "inception_3a/5x5"
  bottom: "inception_3a/pool_proj"
  top: "inception_3a/output"
}
layer {
  name: "inception_3b/1x1"
  type: "Convolution"
  bottom: "inception_3a/output"
  top: "inception_3b/1x1"
  param {
    lr_mult: 1
    decay_mult: 1
  }
  param {
    lr_mult: 2
    decay_mult: 0
  }
  convolution_param {
    num_output: 128
    kernel_size: 1
    weight_filler {
      type: "xavier"
      std: 0.03
    }
    bias_filler {
      type: "constant"
      value: 0.2
    }
  }
}
layer {
  name: "inception_3b/relu_1x1"
  type: "ReLU"
  bottom: "inception_3b/1x1"
  top: "inception_3b/1x1"
}
layer {
  name: "inception_3b/3x3_reduce"
  type: "Convolution"
  bottom: "inception_3a/output"
  top: "inception_3b/3x3_reduce"
  param {
    lr_mult: 1
    decay_mult: 1
  }
  param {
    lr_mult: 2
    decay_mult: 0
  }
  convolution_param {
    num_output: 128
    kernel_size: 1
    weight_filler {
      type: "xavier"
      std: 0.09
    }
    bias_filler {
      type: "constant"
      value: 0.2
    }
  }
}
layer {
  name: "inception_3b/relu_3x3_reduce"
  type: "ReLU"
  bottom: "inception_3b/3x3_reduce"
  top: "inception_3b/3x3_reduce"
}
layer {
  name: "inception_3b/3x3"
  type: "Convolution"
  bottom: "inception_3b/3x3_reduce"
  top: "inception_3b/3x3"
  param {
    lr_mult: 1
    decay_mult: 1
  }
  param {
    lr_mult: 2
    decay_mult: 0
  }
  convolution_param {
    num_output: 192
    pad: 1
    kernel_size: 3
    weight_filler {
      type: "xavier"
      std: 0.03
    }
    bias_filler {
      type: "constant"
      value: 0.2
    }
  }
}
layer {
  name: "inception_3b/relu_3x3"
  type: "ReLU"
  bottom: "inception_3b/3x3"
  top: "inception_3b/3x3"
}
layer {
  name: "inception_3b/5x5_reduce"
  type: "Convolution"
  bottom: "inception_3a/output"
  top: "inception_3b/5x5_reduce"
  param {
    lr_mult: 1
    decay_mult: 1
  }
  param {
    lr_mult: 2
    decay_mult: 0
  }
  convolution_param {
    num_output: 32
    kernel_size: 1
    weight_filler {
      type: "xavier"
      std: 0.2
    }
    bias_filler {
      type: "constant"
      value: 0.2
    }
  }
}
layer {
  name: "inception_3b/relu_5x5_reduce"
  type: "ReLU"
  bottom: "inception_3b/5x5_reduce"
  top: "inception_3b/5x5_reduce"
}
layer {
  name: "inception_3b/5x5"
  type: "Convolution"
  bottom: "inception_3b/5x5_reduce"
  top: "inception_3b/5x5"
  param {
    lr_mult: 1
    decay_mult: 1
  }
  param {
    lr_mult: 2
    decay_mult: 0
  }
  convolution_param {
    num_output: 96
    pad: 2
    kernel_size: 5
    weight_filler {
      type: "xavier"
      std: 0.03
    }
    bias_filler {
      type: "constant"
      value: 0.2
    }
  }
}
layer {
  name: "inception_3b/relu_5x5"
  type: "ReLU"
  bottom: "inception_3b/5x5"
  top: "inception_3b/5x5"
}
layer {
  name: "inception_3b/pool"
  type: "Pooling"
  bottom: "inception_3a/output"
  top: "inception_3b/pool"
  pooling_param {
    pool: MAX
    kernel_size: 3
    stride: 1
    pad: 1
  }
}
layer {
  name: "inception_3b/pool_proj"
  type: "Convolution"
  bottom: "inception_3b/pool"
  top: "inception_3b/pool_proj"
  param {
    lr_mult: 1
    decay_mult: 1
  }
  param {
    lr_mult: 2
    decay_mult: 0
  }
  convolution_param {
    num_output: 64
    kernel_size: 1
    weight_filler {
      type: "xavier"
      std: 0.1
    }
    bias_filler {
      type: "constant"
      value: 0.2
    }
  }
}
layer {
  name: "inception_3b/relu_pool_proj"
  type: "ReLU"
  bottom: "inception_3b/pool_proj"
  top: "inception_3b/pool_proj"
}
layer {
  name: "inception_3b/output"
  type: "Concat"
  bottom: "inception_3b/1x1"
  bottom: "inception_3b/3x3"
  bottom: "inception_3b/5x5"
  bottom: "inception_3b/pool_proj"
  top: "inception_3b/output"
}
layer {
  name: "pool3/3x3_s2"
  type: "Pooling"
  bottom: "inception_3b/output"
  top: "pool3/3x3_s2"
  pooling_param {
    pool: MAX
    kernel_size: 3
    stride: 2
  }
}
layer {
  name: "inception_4a/1x1"
  type: "Convolution"
  bottom: "pool3/3x3_s2"
  top: "inception_4a/1x1"
  param {
    lr_mult: 1
    decay_mult: 1
  }
  param {
    lr_mult: 2
    decay_mult: 0
  }
  convolution_param {
    num_output: 192
    kernel_size: 1
    weight_filler {
      type: "xavier"
      std: 0.03
    }
    bias_filler {
      type: "constant"
      value: 0.2
    }
  }
}
layer {
  name: "inception_4a/relu_1x1"
  type: "ReLU"
  bottom: "inception_4a/1x1"
  top: "inception_4a/1x1"
}
layer {
  name: "inception_4a/3x3_reduce"
  type: "Convolution"
  bottom: "pool3/3x3_s2"
  top: "inception_4a/3x3_reduce"
  param {
    lr_mult: 1
    decay_mult: 1
  }
  param {
    lr_mult: 2
    decay_mult: 0
  }
  convolution_param {
    num_output: 96
    kernel_size: 1
    weight_filler {
      type: "xavier"
      std: 0.09
    }
    bias_filler {
      type: "constant"
      value: 0.2
    }
  }
}
layer {
  name: "inception_4a/relu_3x3_reduce"
  type: "ReLU"
  bottom: "inception_4a/3x3_reduce"
  top: "inception_4a/3x3_reduce"
}
layer {
  name: "inception_4a/3x3"
  type: "Convolution"
  bottom: "inception_4a/3x3_reduce"
  top: "inception_4a/3x3"
  param {
    lr_mult: 1
    decay_mult: 1
  }
  param {
    lr_mult: 2
    decay_mult: 0
  }
  convolution_param {
    num_output: 208
    pad: 1
    kernel_size: 3
    weight_filler {
      type: "xavier"
      std: 0.03
    }
    bias_filler {
      type: "constant"
      value: 0.2
    }
  }
}
layer {
  name: "inception_4a/relu_3x3"
  type: "ReLU"
  bottom: "inception_4a/3x3"
  top: "inception_4a/3x3"
}
layer {
  name: "inception_4a/5x5_reduce"
  type: "Convolution"
  bottom: "pool3/3x3_s2"
  top: "inception_4a/5x5_reduce"
  param {
    lr_mult: 1
    decay_mult: 1
  }
  param {
    lr_mult: 2
    decay_mult: 0
  }
  convolution_param {
    num_output: 16
    kernel_size: 1
    weight_filler {
      type: "xavier"
      std: 0.2
    }
    bias_filler {
      type: "constant"
      value: 0.2
    }
  }
}
layer {
  name: "inception_4a/relu_5x5_reduce"
  type: "ReLU"
  bottom: "inception_4a/5x5_reduce"
  top: "inception_4a/5x5_reduce"
}
layer {
  name: "inception_4a/5x5"
  type: "Convolution"
  bottom: "inception_4a/5x5_reduce"
  top: "inception_4a/5x5"
  param {
    lr_mult: 1
    decay_mult: 1
  }
  param {
    lr_mult: 2
    decay_mult: 0
  }
  convolution_param {
    num_output: 48
    pad: 2
    kernel_size: 5
    weight_filler {
      type: "xavier"
      std: 0.03
    }
    bias_filler {
      type: "constant"
      value: 0.2
    }
  }
}
layer {
  name: "inception_4a/relu_5x5"
  type: "ReLU"
  bottom: "inception_4a/5x5"
  top: "inception_4a/5x5"
}
layer {
  name: "inception_4a/pool"
  type: "Pooling"
  bottom: "pool3/3x3_s2"
  top: "inception_4a/pool"
  pooling_param {
    pool: MAX
    kernel_size: 3
    stride: 1
    pad: 1
  }
}
layer {
  name: "inception_4a/pool_proj"
  type: "Convolution"
  bottom: "inception_4a/pool"
  top: "inception_4a/pool_proj"
  param {
    lr_mult: 1
    decay_mult: 1
  }
  param {
    lr_mult: 2
    decay_mult: 0
  }
  convolution_param {
    num_output: 64
    kernel_size: 1
    weight_filler {
      type: "xavier"
      std: 0.1
    }
    bias_filler {
      type: "constant"
      value: 0.2
    }
  }
}
layer {
  name: "inception_4a/relu_pool_proj"
  type: "ReLU"
  bottom: "inception_4a/pool_proj"
  top: "inception_4a/pool_proj"
}
layer {
  name: "inception_4a/output"
  type: "Concat"
  bottom: "inception_4a/1x1"
  bottom: "inception_4a/3x3"
  bottom: "inception_4a/5x5"
  bottom: "inception_4a/pool_proj"
  top: "inception_4a/output"
}
layer {
  name: "loss1/ave_pool"
  type: "Pooling"
  bottom: "inception_4a/output"
  top: "loss1/ave_pool"
  pooling_param {
    pool: AVE
    kernel_size: 5
    stride: 3
  }
}
layer {
  name: "loss1/conv"
  type: "Convolution"
  bottom: "loss1/ave_pool"
  top: "loss1/conv"
  param {
    lr_mult: 1
    decay_mult: 1
  }
  param {
    lr_mult: 2
    decay_mult: 0
  }
  convolution_param {
    num_output: 128
    kernel_size: 1
    weight_filler {
      type: "xavier"
      std: 0.08
    }
    bias_filler {
      type: "constant"
      value: 0.2
    }
  }
}
layer {
  name: "loss1/relu_conv"
  type: "ReLU"
  bottom: "loss1/conv"
  top: "loss1/conv"
}
layer {
  name: "loss1/fc"
  type: "InnerProduct"
  bottom: "loss1/conv"
  top: "loss1/fc"
  param {
    lr_mult: 1
    decay_mult: 1
  }
  param {
    lr_mult: 2
    decay_mult: 0
  }
  inner_product_param {
    num_output: 1024
    weight_filler {
      type: "xavier"
      std: 0.02
    }
    bias_filler {
      type: "constant"
      value: 0.2
    }
  }
}
layer {
  name: "loss1/relu_fc"
  type: "ReLU"
  bottom: "loss1/fc"
  top: "loss1/fc"
}
layer {
  name: "loss1/drop_fc"
  type: "Dropout"
  bottom: "loss1/fc"
  top: "loss1/fc"
  dropout_param {
    dropout_ratio: 0.7
  }
}
layer {
  name: "loss1/classifier_plantvillage"
  type: "InnerProduct"
  bottom: "loss1/fc"
  top: "loss1/classifier_plantvillage"
  param {
    lr_mult: 1
    decay_mult: 1
  }
  param {
    lr_mult: 2
    decay_mult: 0
  }
  inner_product_param {
    num_output: 38
    weight_filler {
      type: "xavier"
      std: 0.0009765625
    }
    bias_filler {
      type: "constant"
      value: 0
    }
  }
}
layer {
  name: "inception_4b/1x1"
  type: "Convolution"
  bottom: "inception_4a/output"
  top: "inception_4b/1x1"
  param {
    lr_mult: 1
    decay_mult: 1
  }
  param {
    lr_mult: 2
    decay_mult: 0
  }
  convolution_param {
    num_output: 160
    kernel_size: 1
    weight_filler {
      type: "xavier"
      std: 0.03
    }
    bias_filler {
      type: "constant"
      value: 0.2
    }
  }
}
layer {
  name: "inception_4b/relu_1x1"
  type: "ReLU"
  bottom: "inception_4b/1x1"
  top: "inception_4b/1x1"
}
layer {
  name: "inception_4b/3x3_reduce"
  type: "Convolution"
  bottom: "inception_4a/output"
  top: "inception_4b/3x3_reduce"
  param {
    lr_mult: 1
    decay_mult: 1
  }
  param {
    lr_mult: 2
    decay_mult: 0
  }
  convolution_param {
    num_output: 112
    kernel_size: 1
    weight_filler {
      type: "xavier"
      std: 0.09
    }
    bias_filler {
      type: "constant"
      value: 0.2
    }
  }
}
layer {
  name: "inception_4b/relu_3x3_reduce"
  type: "ReLU"
  bottom: "inception_4b/3x3_reduce"
  top: "inception_4b/3x3_reduce"
}
layer {
  name: "inception_4b/3x3"
  type: "Convolution"
  bottom: "inception_4b/3x3_reduce"
  top: "inception_4b/3x3"
  param {
    lr_mult: 1
    decay_mult: 1
  }
  param {
    lr_mult: 2
    decay_mult: 0
  }
  convolution_param {
    num_output: 224
    pad: 1
    kernel_size: 3
    weight_filler {
      type: "xavier"
      std: 0.03
    }
    bias_filler {
      type: "constant"
      value: 0.2
    }
  }
}
layer {
  name: "inception_4b/relu_3x3"
  type: "ReLU"
  bottom: "inception_4b/3x3"
  top: "inception_4b/3x3"
}
layer {
  name: "inception_4b/5x5_reduce"
  type: "Convolution"
  bottom: "inception_4a/output"
  top: "inception_4b/5x5_reduce"
  param {
    lr_mult: 1
    decay_mult: 1
  }
  param {
    lr_mult: 2
    decay_mult: 0
  }
  convolution_param {
    num_output: 24
    kernel_size: 1
    weight_filler {
      type: "xavier"
      std: 0.2
    }
    bias_filler {
      type: "constant"
      value: 0.2
    }
  }
}
layer {
  name: "inception_4b/relu_5x5_reduce"
  type: "ReLU"
  bottom: "inception_4b/5x5_reduce"
  top: "inception_4b/5x5_reduce"
}
layer {
  name: "inception_4b/5x5"
  type: "Convolution"
  bottom: "inception_4b/5x5_reduce"
  top: "inception_4b/5x5"
  param {
    lr_mult: 1
    decay_mult: 1
  }
  param {
    lr_mult: 2
    decay_mult: 0
  }
  convolution_param {
    num_output: 64
    pad: 2
    kernel_size: 5
    weight_filler {
      type: "xavier"
      std: 0.03
    }
    bias_filler {
      type: "constant"
      value: 0.2
    }
  }
}
layer {
  name: "inception_4b/relu_5x5"
  type: "ReLU"
  bottom: "inception_4b/5x5"
  top: "inception_4b/5x5"
}
layer {
  name: "inception_4b/pool"
  type: "Pooling"
  bottom: "inception_4a/output"
  top: "inception_4b/pool"
  pooling_param {
    pool: MAX
    kernel_size: 3
    stride: 1
    pad: 1
  }
}
layer {
  name: "inception_4b/pool_proj"
  type: "Convolution"
  bottom: "inception_4b/pool"
  top: "inception_4b/pool_proj"
  param {
    lr_mult: 1
    decay_mult: 1
  }
  param {
    lr_mult: 2
    decay_mult: 0
  }
  convolution_param {
    num_output: 64
    kernel_size: 1
    weight_filler {
      type: "xavier"
      std: 0.1
    }
    bias_filler {
      type: "constant"
      value: 0.2
    }
  }
}
layer {
  name: "inception_4b/relu_pool_proj"
  type: "ReLU"
  bottom: "inception_4b/pool_proj"
  top: "inception_4b/pool_proj"
}
layer {
  name: "inception_4b/output"
  type: "Concat"
  bottom: "inception_4b/1x1"
  bottom: "inception_4b/3x3"
  bottom: "inception_4b/5x5"
  bottom: "inception_4b/pool_proj"
  top: "inception_4b/output"
}
layer {
  name: "inception_4c/1x1"
  type: "Convolution"
  bottom: "inception_4b/output"
  top: "inception_4c/1x1"
  param {
    lr_mult: 1
    decay_mult: 1
  }
  param {
    lr_mult: 2
    decay_mult: 0
  }
  convolution_param {
    num_output: 128
    kernel_size: 1
    weight_filler {
      type: "xavier"
      std: 0.03
    }
    bias_filler {
      type: "constant"
      value: 0.2
    }
  }
}
layer {
  name: "inception_4c/relu_1x1"
  type: "ReLU"
  bottom: "inception_4c/1x1"
  top: "inception_4c/1x1"
}
layer {
  name: "inception_4c/3x3_reduce"
  type: "Convolution"
  bottom: "inception_4b/output"
  top: "inception_4c/3x3_reduce"
  param {
    lr_mult: 1
    decay_mult: 1
  }
  param {
    lr_mult: 2
    decay_mult: 0
  }
  convolution_param {
    num_output: 128
    kernel_size: 1
    weight_filler {
      type: "xavier"
      std: 0.09
    }
    bias_filler {
      type: "constant"
      value: 0.2
    }
  }
}
layer {
  name: "inception_4c/relu_3x3_reduce"
  type: "ReLU"
  bottom: "inception_4c/3x3_reduce"
  top: "inception_4c/3x3_reduce"
}
layer {
  name: "inception_4c/3x3"
  type: "Convolution"
  bottom: "inception_4c/3x3_reduce"
  top: "inception_4c/3x3"
  param {
    lr_mult: 1
    decay_mult: 1
  }
  param {
    lr_mult: 2
    decay_mult: 0
  }
  convolution_param {
    num_output: 256
    pad: 1
    kernel_size: 3
    weight_filler {
      type: "xavier"
      std: 0.03
    }
    bias_filler {
      type: "constant"
      value: 0.2
    }
  }
}
layer {
  name: "inception_4c/relu_3x3"
  type: "ReLU"
  bottom: "inception_4c/3x3"
  top: "inception_4c/3x3"
}
layer {
  name: "inception_4c/5x5_reduce"
  type: "Convolution"
  bottom: "inception_4b/output"
  top: "inception_4c/5x5_reduce"
  param {
    lr_mult: 1
    decay_mult: 1
  }
  param {
    lr_mult: 2
    decay_mult: 0
  }
  convolution_param {
    num_output: 24
    kernel_size: 1
    weight_filler {
      type: "xavier"
      std: 0.2
    }
    bias_filler {
      type: "constant"
      value: 0.2
    }
  }
}
layer {
  name: "inception_4c/relu_5x5_reduce"
  type: "ReLU"
  bottom: "inception_4c/5x5_reduce"
  top: "inception_4c/5x5_reduce"
}
layer {
  name: "inception_4c/5x5"
  type: "Convolution"
  bottom: "inception_4c/5x5_reduce"
  top: "inception_4c/5x5"
  param {
    lr_mult: 1
    decay_mult: 1
  }
  param {
    lr_mult: 2
    decay_mult: 0
  }
  convolution_param {
    num_output: 64
    pad: 2
    kernel_size: 5
    weight_filler {
      type: "xavier"
      std: 0.03
    }
    bias_filler {
      type: "constant"
      value: 0.2
    }
  }
}
layer {
  name: "inception_4c/relu_5x5"
  type: "ReLU"
  bottom: "inception_4c/5x5"
  top: "inception_4c/5x5"
}
layer {
  name: "inception_4c/pool"
  type: "Pooling"
  bottom: "inception_4b/output"
  top: "inception_4c/pool"
  pooling_param {
    pool: MAX
    kernel_size: 3
    stride: 1
    pad: 1
  }
}
layer {
  name: "inception_4c/pool_proj"
  type: "Convolution"
  bottom: "inception_4c/pool"
  top: "inception_4c/pool_proj"
  param {
    lr_mult: 1
    decay_mult: 1
  }
  param {
    lr_mult: 2
    decay_mult: 0
  }
  convolution_param {
    num_output: 64
    kernel_size: 1
    weight_filler {
      type: "xavier"
      std: 0.1
    }
    bias_filler {
      type: "constant"
      value: 0.2
    }
  }
}
layer {
  name: "inception_4c/relu_pool_proj"
  type: "ReLU"
  bottom: "inception_4c/pool_proj"
  top: "inception_4c/pool_proj"
}
layer {
  name: "inception_4c/output"
  type: "Concat"
  bottom: "inception_4c/1x1"
  bottom: "inception_4c/3x3"
  bottom: "inception_4c/5x5"
  bottom: "inception_4c/pool_proj"
  top: "inception_4c/output"
}
layer {
  name: "inception_4d/1x1"
  type: "Convolution"
  bottom: "inception_4c/output"
  top: "inception_4d/1x1"
  param {
    lr_mult: 1
    decay_mult: 1
  }
  param {
    lr_mult: 2
    decay_mult: 0
  }
  convolution_param {
    num_output: 112
    kernel_size: 1
    weight_filler {
      type: "xavier"
      std: 0.03
    }
    bias_filler {
      type: "constant"
      value: 0.2
    }
  }
}
layer {
  name: "inception_4d/relu_1x1"
  type: "ReLU"
  bottom: "inception_4d/1x1"
  top: "inception_4d/1x1"
}
layer {
  name: "inception_4d/3x3_reduce"
  type: "Convolution"
  bottom: "inception_4c/output"
  top: "inception_4d/3x3_reduce"
  param {
    lr_mult: 1
    decay_mult: 1
  }
  param {
    lr_mult: 2
    decay_mult: 0
  }
  convolution_param {
    num_output: 144
    kernel_size: 1
    weight_filler {
      type: "xavier"
      std: 0.09
    }
    bias_filler {
      type: "constant"
      value: 0.2
    }
  }
}
layer {
  name: "inception_4d/relu_3x3_reduce"
  type: "ReLU"
  bottom: "inception_4d/3x3_reduce"
  top: "inception_4d/3x3_reduce"
}
layer {
  name: "inception_4d/3x3"
  type: "Convolution"
  bottom: "inception_4d/3x3_reduce"
  top: "inception_4d/3x3"
  param {
    lr_mult: 1
    decay_mult: 1
  }
  param {
    lr_mult: 2
    decay_mult: 0
  }
  convolution_param {
    num_output: 288
    pad: 1
    kernel_size: 3
    weight_filler {
      type: "xavier"
      std: 0.03
    }
    bias_filler {
      type: "constant"
      value: 0.2
    }
  }
}
layer {
  name: "inception_4d/relu_3x3"
  type: "ReLU"
  bottom: "inception_4d/3x3"
  top: "inception_4d/3x3"
}
layer {
  name: "inception_4d/5x5_reduce"
  type: "Convolution"
  bottom: "inception_4c/output"
  top: "inception_4d/5x5_reduce"
  param {
    lr_mult: 1
    decay_mult: 1
  }
  param {
    lr_mult: 2
    decay_mult: 0
  }
  convolution_param {
    num_output: 32
    kernel_size: 1
    weight_filler {
      type: "xavier"
      std: 0.2
    }
    bias_filler {
      type: "constant"
      value: 0.2
    }
  }
}
layer {
  name: "inception_4d/relu_5x5_reduce"
  type: "ReLU"
  bottom: "inception_4d/5x5_reduce"
  top: "inception_4d/5x5_reduce"
}
layer {
  name: "inception_4d/5x5"
  type: "Convolution"
  bottom: "inception_4d/5x5_reduce"
  top: "inception_4d/5x5"
  param {
    lr_mult: 1
    decay_mult: 1
  }
  param {
    lr_mult: 2
    decay_mult: 0
  }
  convolution_param {
    num_output: 64
    pad: 2
    kernel_size: 5
    weight_filler {
      type: "xavier"
      std: 0.03
    }
    bias_filler {
      type: "constant"
      value: 0.2
    }
  }
}
layer {
  name: "inception_4d/relu_5x5"
  type: "ReLU"
  bottom: "inception_4d/5x5"
  top: "inception_4d/5x5"
}
layer {
  name: "inception_4d/pool"
  type: "Pooling"
  bottom: "inception_4c/output"
  top: "inception_4d/pool"
  pooling_param {
    pool: MAX
    kernel_size: 3
    stride: 1
    pad: 1
  }
}
layer {
  name: "inception_4d/pool_proj"
  type: "Convolution"
  bottom: "inception_4d/pool"
  top: "inception_4d/pool_proj"
  param {
    lr_mult: 1
    decay_mult: 1
  }
  param {
    lr_mult: 2
    decay_mult: 0
  }
  convolution_param {
    num_output: 64
    kernel_size: 1
    weight_filler {
      type: "xavier"
      std: 0.1
    }
    bias_filler {
      type: "constant"
      value: 0.2
    }
  }
}
layer {
  name: "inception_4d/relu_pool_proj"
  type: "ReLU"
  bottom: "inception_4d/pool_proj"
  top: "inception_4d/pool_proj"
}
layer {
  name: "inception_4d/output"
  type: "Concat"
  bottom: "inception_4d/1x1"
  bottom: "inception_4d/3x3"
  bottom: "inception_4d/5x5"
  bottom: "inception_4d/pool_proj"
  top: "inception_4d/output"
}
layer {
  name: "loss2/ave_pool"
  type: "Pooling"
  bottom: "inception_4d/output"
  top: "loss2/ave_pool"
  pooling_param {
    pool: AVE
    kernel_size: 5
    stride: 3
  }
}
layer {
  name: "loss2/conv"
  type: "Convolution"
  bottom: "loss2/ave_pool"
  top: "loss2/conv"
  param {
    lr_mult: 1
    decay_mult: 1
  }
  param {
    lr_mult: 2
    decay_mult: 0
  }
  convolution_param {
    num_output: 128
    kernel_size: 1
    weight_filler {
      type: "xavier"
      std: 0.08
    }
    bias_filler {
      type: "constant"
      value: 0.2
    }
  }
}
layer {
  name: "loss2/relu_conv"
  type: "ReLU"
  bottom: "loss2/conv"
  top: "loss2/conv"
}
layer {
  name: "loss2/fc"
  type: "InnerProduct"
  bottom: "loss2/conv"
  top: "loss2/fc"
  param {
    lr_mult: 1
    decay_mult: 1
  }
  param {
    lr_mult: 2
    decay_mult: 0
  }
  inner_product_param {
    num_output: 1024
    weight_filler {
      type: "xavier"
      std: 0.02
    }
    bias_filler {
      type: "constant"
      value: 0.2
    }
  }
}
layer {
  name: "loss2/relu_fc"
  type: "ReLU"
  bottom: "loss2/fc"
  top: "loss2/fc"
}
layer {
  name: "loss2/drop_fc"
  type: "Dropout"
  bottom: "loss2/fc"
  top: "loss2/fc"
  dropout_param {
    dropout_ratio: 0.7
  }
}
layer {
  name: "loss2/classifier_plantvillage"
  type: "InnerProduct"
  bottom: "loss2/fc"
  top: "loss2/classifier_plantvillage"
  param {
    lr_mult: 1
    decay_mult: 1
  }
  param {
    lr_mult: 2
    decay_mult: 0
  }
  inner_product_param {
    num_output: 38
    weight_filler {
      type: "xavier"
      std: 0.0009765625
    }
    bias_filler {
      type: "constant"
      value: 0
    }
  }
}
layer {
  name: "inception_4e/1x1"
  type: "Convolution"
  bottom: "inception_4d/output"
  top: "inception_4e/1x1"
  param {
    lr_mult: 1
    decay_mult: 1
  }
  param {
    lr_mult: 2
    decay_mult: 0
  }
  convolution_param {
    num_output: 256
    kernel_size: 1
    weight_filler {
      type: "xavier"
      std: 0.03
    }
    bias_filler {
      type: "constant"
      value: 0.2
    }
  }
}
layer {
  name: "inception_4e/relu_1x1"
  type: "ReLU"
  bottom: "inception_4e/1x1"
  top: "inception_4e/1x1"
}
layer {
  name: "inception_4e/3x3_reduce"
  type: "Convolution"
  bottom: "inception_4d/output"
  top: "inception_4e/3x3_reduce"
  param {
    lr_mult: 1
    decay_mult: 1
  }
  param {
    lr_mult: 2
    decay_mult: 0
  }
  convolution_param {
    num_output: 160
    kernel_size: 1
    weight_filler {
      type: "xavier"
      std: 0.09
    }
    bias_filler {
      type: "constant"
      value: 0.2
    }
  }
}
layer {
  name: "inception_4e/relu_3x3_reduce"
  type: "ReLU"
  bottom: "inception_4e/3x3_reduce"
  top: "inception_4e/3x3_reduce"
}
layer {
  name: "inception_4e/3x3"
  type: "Convolution"
  bottom: "inception_4e/3x3_reduce"
  top: "inception_4e/3x3"
  param {
    lr_mult: 1
    decay_mult: 1
  }
  param {
    lr_mult: 2
    decay_mult: 0
  }
  convolution_param {
    num_output: 320
    pad: 1
    kernel_size: 3
    weight_filler {
      type: "xavier"
      std: 0.03
    }
    bias_filler {
      type: "constant"
      value: 0.2
    }
  }
}
layer {
  name: "inception_4e/relu_3x3"
  type: "ReLU"
  bottom: "inception_4e/3x3"
  top: "inception_4e/3x3"
}
layer {
  name: "inception_4e/5x5_reduce"
  type: "Convolution"
  bottom: "inception_4d/output"
  top: "inception_4e/5x5_reduce"
  param {
    lr_mult: 1
    decay_mult: 1
  }
  param {
    lr_mult: 2
    decay_mult: 0
  }
  convolution_param {
    num_output: 32
    kernel_size: 1
    weight_filler {
      type: "xavier"
      std: 0.2
    }
    bias_filler {
      type: "constant"
      value: 0.2
    }
  }
}
layer {
  name: "inception_4e/relu_5x5_reduce"
  type: "ReLU"
  bottom: "inception_4e/5x5_reduce"
  top: "inception_4e/5x5_reduce"
}
layer {
  name: "inception_4e/5x5"
  type: "Convolution"
  bottom: "inception_4e/5x5_reduce"
  top: "inception_4e/
I0403 14:57:34.578112 17885 layer_factory.hpp:77] Creating layer data
I0403 14:57:34.578711 17885 net.cpp:91] Creating Layer data
I0403 14:57:34.578740 17885 net.cpp:399] data -> data
I0403 14:57:34.578791 17885 net.cpp:399] data -> label
I0403 14:57:34.578826 17885 data_transformer.cpp:25] Loading mean file from: /home/mohanty/data/final_dataset/lmdb/grayscale-40-60/mean.binaryproto
I0403 14:57:34.581526 17888 db_lmdb.cpp:38] Opened lmdb /home/mohanty/data/final_dataset/lmdb/grayscale-40-60/test_db
I0403 14:57:34.592044 17885 data_layer.cpp:41] output data size: 24,3,224,224
I0403 14:57:34.621912 17885 net.cpp:141] Setting up data
I0403 14:57:34.622041 17885 net.cpp:148] Top shape: 24 3 224 224 (3612672)
I0403 14:57:34.622066 17885 net.cpp:148] Top shape: 24 (24)
I0403 14:57:34.622081 17885 net.cpp:156] Memory required for data: 14450784
I0403 14:57:34.622108 17885 layer_factory.hpp:77] Creating layer label_data_1_split
I0403 14:57:34.622135 17885 net.cpp:91] Creating Layer label_data_1_split
I0403 14:57:34.622153 17885 net.cpp:425] label_data_1_split <- label
I0403 14:57:34.622186 17885 net.cpp:399] label_data_1_split -> label_data_1_split_0
I0403 14:57:34.622215 17885 net.cpp:399] label_data_1_split -> label_data_1_split_1
I0403 14:57:34.622236 17885 net.cpp:399] label_data_1_split -> label_data_1_split_2
I0403 14:57:34.622257 17885 net.cpp:399] label_data_1_split -> label_data_1_split_3
I0403 14:57:34.622277 17885 net.cpp:399] label_data_1_split -> label_data_1_split_4
I0403 14:57:34.622298 17885 net.cpp:399] label_data_1_split -> label_data_1_split_5
I0403 14:57:34.622328 17885 net.cpp:399] label_data_1_split -> label_data_1_split_6
I0403 14:57:34.622347 17885 net.cpp:399] label_data_1_split -> label_data_1_split_7
I0403 14:57:34.622365 17885 net.cpp:399] label_data_1_split -> label_data_1_split_8
I0403 14:57:34.622385 17885 net.cpp:399] label_data_1_split -> label_data_1_split_9
I0403 14:57:34.622501 17885 net.cpp:141] Setting up label_data_1_split
I0403 14:57:34.622524 17885 net.cpp:148] Top shape: 24 (24)
I0403 14:57:34.622540 17885 net.cpp:148] Top shape: 24 (24)
I0403 14:57:34.622556 17885 net.cpp:148] Top shape: 24 (24)
I0403 14:57:34.622571 17885 net.cpp:148] Top shape: 24 (24)
I0403 14:57:34.622586 17885 net.cpp:148] Top shape: 24 (24)
I0403 14:57:34.622601 17885 net.cpp:148] Top shape: 24 (24)
I0403 14:57:34.622617 17885 net.cpp:148] Top shape: 24 (24)
I0403 14:57:34.622632 17885 net.cpp:148] Top shape: 24 (24)
I0403 14:57:34.622647 17885 net.cpp:148] Top shape: 24 (24)
I0403 14:57:34.622661 17885 net.cpp:148] Top shape: 24 (24)
I0403 14:57:34.622705 17885 net.cpp:156] Memory required for data: 14451744
I0403 14:57:34.622721 17885 layer_factory.hpp:77] Creating layer conv1/7x7_s2
I0403 14:57:34.622752 17885 net.cpp:91] Creating Layer conv1/7x7_s2
I0403 14:57:34.622771 17885 net.cpp:425] conv1/7x7_s2 <- data
I0403 14:57:34.622789 17885 net.cpp:399] conv1/7x7_s2 -> conv1/7x7_s2
I0403 14:57:34.768740 17885 net.cpp:141] Setting up conv1/7x7_s2
I0403 14:57:34.768831 17885 net.cpp:148] Top shape: 24 64 112 112 (19267584)
I0403 14:57:34.768848 17885 net.cpp:156] Memory required for data: 91522080
I0403 14:57:34.768879 17885 layer_factory.hpp:77] Creating layer conv1/relu_7x7
I0403 14:57:34.768906 17885 net.cpp:91] Creating Layer conv1/relu_7x7
I0403 14:57:34.768924 17885 net.cpp:425] conv1/relu_7x7 <- conv1/7x7_s2
I0403 14:57:34.768945 17885 net.cpp:386] conv1/relu_7x7 -> conv1/7x7_s2 (in-place)
I0403 14:57:34.769248 17885 net.cpp:141] Setting up conv1/relu_7x7
I0403 14:57:34.769276 17885 net.cpp:148] Top shape: 24 64 112 112 (19267584)
I0403 14:57:34.769291 17885 net.cpp:156] Memory required for data: 168592416
I0403 14:57:34.769305 17885 layer_factory.hpp:77] Creating layer pool1/3x3_s2
I0403 14:57:34.769330 17885 net.cpp:91] Creating Layer pool1/3x3_s2
I0403 14:57:34.769348 17885 net.cpp:425] pool1/3x3_s2 <- conv1/7x7_s2
I0403 14:57:34.769369 17885 net.cpp:399] pool1/3x3_s2 -> pool1/3x3_s2
I0403 14:57:34.769446 17885 net.cpp:141] Setting up pool1/3x3_s2
I0403 14:57:34.769470 17885 net.cpp:148] Top shape: 24 64 56 56 (4816896)
I0403 14:57:34.769484 17885 net.cpp:156] Memory required for data: 187860000
I0403 14:57:34.769500 17885 layer_factory.hpp:77] Creating layer pool1/norm1
I0403 14:57:34.769525 17885 net.cpp:91] Creating Layer pool1/norm1
I0403 14:57:34.769543 17885 net.cpp:425] pool1/norm1 <- pool1/3x3_s2
I0403 14:57:34.769561 17885 net.cpp:399] pool1/norm1 -> pool1/norm1
I0403 14:57:34.769865 17885 net.cpp:141] Setting up pool1/norm1
I0403 14:57:34.769891 17885 net.cpp:148] Top shape: 24 64 56 56 (4816896)
I0403 14:57:34.769907 17885 net.cpp:156] Memory required for data: 207127584
I0403 14:57:34.769922 17885 layer_factory.hpp:77] Creating layer conv2/3x3_reduce
I0403 14:57:34.769948 17885 net.cpp:91] Creating Layer conv2/3x3_reduce
I0403 14:57:34.769970 17885 net.cpp:425] conv2/3x3_reduce <- pool1/norm1
I0403 14:57:34.769991 17885 net.cpp:399] conv2/3x3_reduce -> conv2/3x3_reduce
I0403 14:57:34.771282 17885 net.cpp:141] Setting up conv2/3x3_reduce
I0403 14:57:34.771314 17885 net.cpp:148] Top shape: 24 64 56 56 (4816896)
I0403 14:57:34.771332 17885 net.cpp:156] Memory required for data: 226395168
I0403 14:57:34.771353 17885 layer_factory.hpp:77] Creating layer conv2/relu_3x3_reduce
I0403 14:57:34.771370 17885 net.cpp:91] Creating Layer conv2/relu_3x3_reduce
I0403 14:57:34.771386 17885 net.cpp:425] conv2/relu_3x3_reduce <- conv2/3x3_reduce
I0403 14:57:34.771404 17885 net.cpp:386] conv2/relu_3x3_reduce -> conv2/3x3_reduce (in-place)
I0403 14:57:34.771683 17885 net.cpp:141] Setting up conv2/relu_3x3_reduce
I0403 14:57:34.771711 17885 net.cpp:148] Top shape: 24 64 56 56 (4816896)
I0403 14:57:34.771728 17885 net.cpp:156] Memory required for data: 245662752
I0403 14:57:34.771744 17885 layer_factory.hpp:77] Creating layer conv2/3x3
I0403 14:57:34.771767 17885 net.cpp:91] Creating Layer conv2/3x3
I0403 14:57:34.771785 17885 net.cpp:425] conv2/3x3 <- conv2/3x3_reduce
I0403 14:57:34.771806 17885 net.cpp:399] conv2/3x3 -> conv2/3x3
I0403 14:57:34.774163 17885 net.cpp:141] Setting up conv2/3x3
I0403 14:57:34.774195 17885 net.cpp:148] Top shape: 24 192 56 56 (14450688)
I0403 14:57:34.774216 17885 net.cpp:156] Memory required for data: 303465504
I0403 14:57:34.774238 17885 layer_factory.hpp:77] Creating layer conv2/relu_3x3
I0403 14:57:34.774257 17885 net.cpp:91] Creating Layer conv2/relu_3x3
I0403 14:57:34.774273 17885 net.cpp:425] conv2/relu_3x3 <- conv2/3x3
I0403 14:57:34.774291 17885 net.cpp:386] conv2/relu_3x3 -> conv2/3x3 (in-place)
I0403 14:57:34.774477 17885 net.cpp:141] Setting up conv2/relu_3x3
I0403 14:57:34.774503 17885 net.cpp:148] Top shape: 24 192 56 56 (14450688)
I0403 14:57:34.774549 17885 net.cpp:156] Memory required for data: 361268256
I0403 14:57:34.774564 17885 layer_factory.hpp:77] Creating layer conv2/norm2
I0403 14:57:34.774587 17885 net.cpp:91] Creating Layer conv2/norm2
I0403 14:57:34.774603 17885 net.cpp:425] conv2/norm2 <- conv2/3x3
I0403 14:57:34.774622 17885 net.cpp:399] conv2/norm2 -> conv2/norm2
I0403 14:57:34.774931 17885 net.cpp:141] Setting up conv2/norm2
I0403 14:57:34.774962 17885 net.cpp:148] Top shape: 24 192 56 56 (14450688)
I0403 14:57:34.774978 17885 net.cpp:156] Memory required for data: 419071008
I0403 14:57:34.774994 17885 layer_factory.hpp:77] Creating layer pool2/3x3_s2
I0403 14:57:34.775014 17885 net.cpp:91] Creating Layer pool2/3x3_s2
I0403 14:57:34.775030 17885 net.cpp:425] pool2/3x3_s2 <- conv2/norm2
I0403 14:57:34.775048 17885 net.cpp:399] pool2/3x3_s2 -> pool2/3x3_s2
I0403 14:57:34.775104 17885 net.cpp:141] Setting up pool2/3x3_s2
I0403 14:57:34.775126 17885 net.cpp:148] Top shape: 24 192 28 28 (3612672)
I0403 14:57:34.775141 17885 net.cpp:156] Memory required for data: 433521696
I0403 14:57:34.775156 17885 layer_factory.hpp:77] Creating layer pool2/3x3_s2_pool2/3x3_s2_0_split
I0403 14:57:34.775174 17885 net.cpp:91] Creating Layer pool2/3x3_s2_pool2/3x3_s2_0_split
I0403 14:57:34.775189 17885 net.cpp:425] pool2/3x3_s2_pool2/3x3_s2_0_split <- pool2/3x3_s2
I0403 14:57:34.775208 17885 net.cpp:399] pool2/3x3_s2_pool2/3x3_s2_0_split -> pool2/3x3_s2_pool2/3x3_s2_0_split_0
I0403 14:57:34.775228 17885 net.cpp:399] pool2/3x3_s2_pool2/3x3_s2_0_split -> pool2/3x3_s2_pool2/3x3_s2_0_split_1
I0403 14:57:34.775248 17885 net.cpp:399] pool2/3x3_s2_pool2/3x3_s2_0_split -> pool2/3x3_s2_pool2/3x3_s2_0_split_2
I0403 14:57:34.775267 17885 net.cpp:399] pool2/3x3_s2_pool2/3x3_s2_0_split -> pool2/3x3_s2_pool2/3x3_s2_0_split_3
I0403 14:57:34.775341 17885 net.cpp:141] Setting up pool2/3x3_s2_pool2/3x3_s2_0_split
I0403 14:57:34.775367 17885 net.cpp:148] Top shape: 24 192 28 28 (3612672)
I0403 14:57:34.775383 17885 net.cpp:148] Top shape: 24 192 28 28 (3612672)
I0403 14:57:34.775398 17885 net.cpp:148] Top shape: 24 192 28 28 (3612672)
I0403 14:57:34.775414 17885 net.cpp:148] Top shape: 24 192 28 28 (3612672)
I0403 14:57:34.775427 17885 net.cpp:156] Memory required for data: 491324448
I0403 14:57:34.775442 17885 layer_factory.hpp:77] Creating layer inception_3a/1x1
I0403 14:57:34.775465 17885 net.cpp:91] Creating Layer inception_3a/1x1
I0403 14:57:34.775482 17885 net.cpp:425] inception_3a/1x1 <- pool2/3x3_s2_pool2/3x3_s2_0_split_0
I0403 14:57:34.775501 17885 net.cpp:399] inception_3a/1x1 -> inception_3a/1x1
I0403 14:57:34.777096 17885 net.cpp:141] Setting up inception_3a/1x1
I0403 14:57:34.777127 17885 net.cpp:148] Top shape: 24 64 28 28 (1204224)
I0403 14:57:34.777143 17885 net.cpp:156] Memory required for data: 496141344
I0403 14:57:34.777163 17885 layer_factory.hpp:77] Creating layer inception_3a/relu_1x1
I0403 14:57:34.777184 17885 net.cpp:91] Creating Layer inception_3a/relu_1x1
I0403 14:57:34.777201 17885 net.cpp:425] inception_3a/relu_1x1 <- inception_3a/1x1
I0403 14:57:34.777220 17885 net.cpp:386] inception_3a/relu_1x1 -> inception_3a/1x1 (in-place)
I0403 14:57:34.777410 17885 net.cpp:141] Setting up inception_3a/relu_1x1
I0403 14:57:34.777439 17885 net.cpp:148] Top shape: 24 64 28 28 (1204224)
I0403 14:57:34.777456 17885 net.cpp:156] Memory required for data: 500958240
I0403 14:57:34.777472 17885 layer_factory.hpp:77] Creating layer inception_3a/3x3_reduce
I0403 14:57:34.777495 17885 net.cpp:91] Creating Layer inception_3a/3x3_reduce
I0403 14:57:34.777513 17885 net.cpp:425] inception_3a/3x3_reduce <- pool2/3x3_s2_pool2/3x3_s2_0_split_1
I0403 14:57:34.777534 17885 net.cpp:399] inception_3a/3x3_reduce -> inception_3a/3x3_reduce
I0403 14:57:34.779335 17885 net.cpp:141] Setting up inception_3a/3x3_reduce
I0403 14:57:34.779367 17885 net.cpp:148] Top shape: 24 96 28 28 (1806336)
I0403 14:57:34.779384 17885 net.cpp:156] Memory required for data: 508183584
I0403 14:57:34.779410 17885 layer_factory.hpp:77] Creating layer inception_3a/relu_3x3_reduce
I0403 14:57:34.779446 17885 net.cpp:91] Creating Layer inception_3a/relu_3x3_reduce
I0403 14:57:34.779465 17885 net.cpp:425] inception_3a/relu_3x3_reduce <- inception_3a/3x3_reduce
I0403 14:57:34.779486 17885 net.cpp:386] inception_3a/relu_3x3_reduce -> inception_3a/3x3_reduce (in-place)
I0403 14:57:34.779676 17885 net.cpp:141] Setting up inception_3a/relu_3x3_reduce
I0403 14:57:34.779703 17885 net.cpp:148] Top shape: 24 96 28 28 (1806336)
I0403 14:57:34.779718 17885 net.cpp:156] Memory required for data: 515408928
I0403 14:57:34.779733 17885 layer_factory.hpp:77] Creating layer inception_3a/3x3
I0403 14:57:34.779760 17885 net.cpp:91] Creating Layer inception_3a/3x3
I0403 14:57:34.779778 17885 net.cpp:425] inception_3a/3x3 <- inception_3a/3x3_reduce
I0403 14:57:34.779801 17885 net.cpp:399] inception_3a/3x3 -> inception_3a/3x3
I0403 14:57:34.781565 17885 net.cpp:141] Setting up inception_3a/3x3
I0403 14:57:34.781595 17885 net.cpp:148] Top shape: 24 128 28 28 (2408448)
I0403 14:57:34.781611 17885 net.cpp:156] Memory required for data: 525042720
I0403 14:57:34.781630 17885 layer_factory.hpp:77] Creating layer inception_3a/relu_3x3
I0403 14:57:34.781651 17885 net.cpp:91] Creating Layer inception_3a/relu_3x3
I0403 14:57:34.781668 17885 net.cpp:425] inception_3a/relu_3x3 <- inception_3a/3x3
I0403 14:57:34.781687 17885 net.cpp:386] inception_3a/relu_3x3 -> inception_3a/3x3 (in-place)
I0403 14:57:34.781982 17885 net.cpp:141] Setting up inception_3a/relu_3x3
I0403 14:57:34.782009 17885 net.cpp:148] Top shape: 24 128 28 28 (2408448)
I0403 14:57:34.782026 17885 net.cpp:156] Memory required for data: 534676512
I0403 14:57:34.782040 17885 layer_factory.hpp:77] Creating layer inception_3a/5x5_reduce
I0403 14:57:34.782065 17885 net.cpp:91] Creating Layer inception_3a/5x5_reduce
I0403 14:57:34.782084 17885 net.cpp:425] inception_3a/5x5_reduce <- pool2/3x3_s2_pool2/3x3_s2_0_split_2
I0403 14:57:34.782104 17885 net.cpp:399] inception_3a/5x5_reduce -> inception_3a/5x5_reduce
I0403 14:57:34.783118 17885 net.cpp:141] Setting up inception_3a/5x5_reduce
I0403 14:57:34.783149 17885 net.cpp:148] Top shape: 24 16 28 28 (301056)
I0403 14:57:34.783165 17885 net.cpp:156] Memory required for data: 535880736
I0403 14:57:34.783185 17885 layer_factory.hpp:77] Creating layer inception_3a/relu_5x5_reduce
I0403 14:57:34.783203 17885 net.cpp:91] Creating Layer inception_3a/relu_5x5_reduce
I0403 14:57:34.783221 17885 net.cpp:425] inception_3a/relu_5x5_reduce <- inception_3a/5x5_reduce
I0403 14:57:34.783242 17885 net.cpp:386] inception_3a/relu_5x5_reduce -> inception_3a/5x5_reduce (in-place)
I0403 14:57:34.783560 17885 net.cpp:141] Setting up inception_3a/relu_5x5_reduce
I0403 14:57:34.783589 17885 net.cpp:148] Top shape: 24 16 28 28 (301056)
I0403 14:57:34.783607 17885 net.cpp:156] Memory required for data: 537084960
I0403 14:57:34.783622 17885 layer_factory.hpp:77] Creating layer inception_3a/5x5
I0403 14:57:34.783644 17885 net.cpp:91] Creating Layer inception_3a/5x5
I0403 14:57:34.783663 17885 net.cpp:425] inception_3a/5x5 <- inception_3a/5x5_reduce
I0403 14:57:34.783684 17885 net.cpp:399] inception_3a/5x5 -> inception_3a/5x5
I0403 14:57:34.784757 17885 net.cpp:141] Setting up inception_3a/5x5
I0403 14:57:34.784785 17885 net.cpp:148] Top shape: 24 32 28 28 (602112)
I0403 14:57:34.784801 17885 net.cpp:156] Memory required for data: 539493408
I0403 14:57:34.784821 17885 layer_factory.hpp:77] Creating layer inception_3a/relu_5x5
I0403 14:57:34.784842 17885 net.cpp:91] Creating Layer inception_3a/relu_5x5
I0403 14:57:34.784859 17885 net.cpp:425] inception_3a/relu_5x5 <- inception_3a/5x5
I0403 14:57:34.784878 17885 net.cpp:386] inception_3a/relu_5x5 -> inception_3a/5x5 (in-place)
I0403 14:57:34.785064 17885 net.cpp:141] Setting up inception_3a/relu_5x5
I0403 14:57:34.785092 17885 net.cpp:148] Top shape: 24 32 28 28 (602112)
I0403 14:57:34.785107 17885 net.cpp:156] Memory required for data: 541901856
I0403 14:57:34.785122 17885 layer_factory.hpp:77] Creating layer inception_3a/pool
I0403 14:57:34.785141 17885 net.cpp:91] Creating Layer inception_3a/pool
I0403 14:57:34.785172 17885 net.cpp:425] inception_3a/pool <- pool2/3x3_s2_pool2/3x3_s2_0_split_3
I0403 14:57:34.785194 17885 net.cpp:399] inception_3a/pool -> inception_3a/pool
I0403 14:57:34.785257 17885 net.cpp:141] Setting up inception_3a/pool
I0403 14:57:34.785281 17885 net.cpp:148] Top shape: 24 192 28 28 (3612672)
I0403 14:57:34.785297 17885 net.cpp:156] Memory required for data: 556352544
I0403 14:57:34.785312 17885 layer_factory.hpp:77] Creating layer inception_3a/pool_proj
I0403 14:57:34.785352 17885 net.cpp:91] Creating Layer inception_3a/pool_proj
I0403 14:57:34.785377 17885 net.cpp:425] inception_3a/pool_proj <- inception_3a/pool
I0403 14:57:34.785398 17885 net.cpp:399] inception_3a/pool_proj -> inception_3a/pool_proj
I0403 14:57:34.786440 17885 net.cpp:141] Setting up inception_3a/pool_proj
I0403 14:57:34.786469 17885 net.cpp:148] Top shape: 24 32 28 28 (602112)
I0403 14:57:34.786485 17885 net.cpp:156] Memory required for data: 558760992
I0403 14:57:34.786511 17885 layer_factory.hpp:77] Creating layer inception_3a/relu_pool_proj
I0403 14:57:34.786531 17885 net.cpp:91] Creating Layer inception_3a/relu_pool_proj
I0403 14:57:34.786548 17885 net.cpp:425] inception_3a/relu_pool_proj <- inception_3a/pool_proj
I0403 14:57:34.786568 17885 net.cpp:386] inception_3a/relu_pool_proj -> inception_3a/pool_proj (in-place)
I0403 14:57:34.786859 17885 net.cpp:141] Setting up inception_3a/relu_pool_proj
I0403 14:57:34.786887 17885 net.cpp:148] Top shape: 24 32 28 28 (602112)
I0403 14:57:34.786902 17885 net.cpp:156] Memory required for data: 561169440
I0403 14:57:34.786918 17885 layer_factory.hpp:77] Creating layer inception_3a/output
I0403 14:57:34.786942 17885 net.cpp:91] Creating Layer inception_3a/output
I0403 14:57:34.786964 17885 net.cpp:425] inception_3a/output <- inception_3a/1x1
I0403 14:57:34.786985 17885 net.cpp:425] inception_3a/output <- inception_3a/3x3
I0403 14:57:34.787003 17885 net.cpp:425] inception_3a/output <- inception_3a/5x5
I0403 14:57:34.787020 17885 net.cpp:425] inception_3a/output <- inception_3a/pool_proj
I0403 14:57:34.787039 17885 net.cpp:399] inception_3a/output -> inception_3a/output
I0403 14:57:34.787089 17885 net.cpp:141] Setting up inception_3a/output
I0403 14:57:34.787113 17885 net.cpp:148] Top shape: 24 256 28 28 (4816896)
I0403 14:57:34.787128 17885 net.cpp:156] Memory required for data: 580437024
I0403 14:57:34.787142 17885 layer_factory.hpp:77] Creating layer inception_3a/output_inception_3a/output_0_split
I0403 14:57:34.787161 17885 net.cpp:91] Creating Layer inception_3a/output_inception_3a/output_0_split
I0403 14:57:34.787178 17885 net.cpp:425] inception_3a/output_inception_3a/output_0_split <- inception_3a/output
I0403 14:57:34.787197 17885 net.cpp:399] inception_3a/output_inception_3a/output_0_split -> inception_3a/output_inception_3a/output_0_split_0
I0403 14:57:34.787221 17885 net.cpp:399] inception_3a/output_inception_3a/output_0_split -> inception_3a/output_inception_3a/output_0_split_1
I0403 14:57:34.787252 17885 net.cpp:399] inception_3a/output_inception_3a/output_0_split -> inception_3a/output_inception_3a/output_0_split_2
I0403 14:57:34.787281 17885 net.cpp:399] inception_3a/output_inception_3a/output_0_split -> inception_3a/output_inception_3a/output_0_split_3
I0403 14:57:34.787358 17885 net.cpp:141] Setting up inception_3a/output_inception_3a/output_0_split
I0403 14:57:34.787382 17885 net.cpp:148] Top shape: 24 256 28 28 (4816896)
I0403 14:57:34.787402 17885 net.cpp:148] Top shape: 24 256 28 28 (4816896)
I0403 14:57:34.787420 17885 net.cpp:148] Top shape: 24 256 28 28 (4816896)
I0403 14:57:34.787436 17885 net.cpp:148] Top shape: 24 256 28 28 (4816896)
I0403 14:57:34.787451 17885 net.cpp:156] Memory required for data: 657507360
I0403 14:57:34.787466 17885 layer_factory.hpp:77] Creating layer inception_3b/1x1
I0403 14:57:34.787487 17885 net.cpp:91] Creating Layer inception_3b/1x1
I0403 14:57:34.787503 17885 net.cpp:425] inception_3b/1x1 <- inception_3a/output_inception_3a/output_0_split_0
I0403 14:57:34.787524 17885 net.cpp:399] inception_3b/1x1 -> inception_3b/1x1
I0403 14:57:34.788732 17885 net.cpp:141] Setting up inception_3b/1x1
I0403 14:57:34.788774 17885 net.cpp:148] Top shape: 24 128 28 28 (2408448)
I0403 14:57:34.788791 17885 net.cpp:156] Memory required for data: 667141152
I0403 14:57:34.788810 17885 layer_factory.hpp:77] Creating layer inception_3b/relu_1x1
I0403 14:57:34.788831 17885 net.cpp:91] Creating Layer inception_3b/relu_1x1
I0403 14:57:34.788849 17885 net.cpp:425] inception_3b/relu_1x1 <- inception_3b/1x1
I0403 14:57:34.788867 17885 net.cpp:386] inception_3b/relu_1x1 -> inception_3b/1x1 (in-place)
I0403 14:57:34.789084 17885 net.cpp:141] Setting up inception_3b/relu_1x1
I0403 14:57:34.789111 17885 net.cpp:148] Top shape: 24 128 28 28 (2408448)
I0403 14:57:34.789127 17885 net.cpp:156] Memory required for data: 676774944
I0403 14:57:34.789144 17885 layer_factory.hpp:77] Creating layer inception_3b/3x3_reduce
I0403 14:57:34.789167 17885 net.cpp:91] Creating Layer inception_3b/3x3_reduce
I0403 14:57:34.789186 17885 net.cpp:425] inception_3b/3x3_reduce <- inception_3a/output_inception_3a/output_0_split_1
I0403 14:57:34.789206 17885 net.cpp:399] inception_3b/3x3_reduce -> inception_3b/3x3_reduce
I0403 14:57:34.790426 17885 net.cpp:141] Setting up inception_3b/3x3_reduce
I0403 14:57:34.790454 17885 net.cpp:148] Top shape: 24 128 28 28 (2408448)
I0403 14:57:34.790470 17885 net.cpp:156] Memory required for data: 686408736
I0403 14:57:34.790488 17885 layer_factory.hpp:77] Creating layer inception_3b/relu_3x3_reduce
I0403 14:57:34.790510 17885 net.cpp:91] Creating Layer inception_3b/relu_3x3_reduce
I0403 14:57:34.790527 17885 net.cpp:425] inception_3b/relu_3x3_reduce <- inception_3b/3x3_reduce
I0403 14:57:34.790545 17885 net.cpp:386] inception_3b/relu_3x3_reduce -> inception_3b/3x3_reduce (in-place)
I0403 14:57:34.790729 17885 net.cpp:141] Setting up inception_3b/relu_3x3_reduce
I0403 14:57:34.790760 17885 net.cpp:148] Top shape: 24 128 28 28 (2408448)
I0403 14:57:34.790776 17885 net.cpp:156] Memory required for data: 696042528
I0403 14:57:34.790791 17885 layer_factory.hpp:77] Creating layer inception_3b/3x3
I0403 14:57:34.790817 17885 net.cpp:91] Creating Layer inception_3b/3x3
I0403 14:57:34.790835 17885 net.cpp:425] inception_3b/3x3 <- inception_3b/3x3_reduce
I0403 14:57:34.790858 17885 net.cpp:399] inception_3b/3x3 -> inception_3b/3x3
I0403 14:57:34.793884 17885 net.cpp:141] Setting up inception_3b/3x3
I0403 14:57:34.793913 17885 net.cpp:148] Top shape: 24 192 28 28 (3612672)
I0403 14:57:34.793928 17885 net.cpp:156] Memory required for data: 710493216
I0403 14:57:34.793947 17885 layer_factory.hpp:77] Creating layer inception_3b/relu_3x3
I0403 14:57:34.793973 17885 net.cpp:91] Creating Layer inception_3b/relu_3x3
I0403 14:57:34.793990 17885 net.cpp:425] inception_3b/relu_3x3 <- inception_3b/3x3
I0403 14:57:34.794008 17885 net.cpp:386] inception_3b/relu_3x3 -> inception_3b/3x3 (in-place)
I0403 14:57:34.794301 17885 net.cpp:141] Setting up inception_3b/relu_3x3
I0403 14:57:34.794327 17885 net.cpp:148] Top shape: 24 192 28 28 (3612672)
I0403 14:57:34.794342 17885 net.cpp:156] Memory required for data: 724943904
I0403 14:57:34.794358 17885 layer_factory.hpp:77] Creating layer inception_3b/5x5_reduce
I0403 14:57:34.794383 17885 net.cpp:91] Creating Layer inception_3b/5x5_reduce
I0403 14:57:34.794400 17885 net.cpp:425] inception_3b/5x5_reduce <- inception_3a/output_inception_3a/output_0_split_2
I0403 14:57:34.794420 17885 net.cpp:399] inception_3b/5x5_reduce -> inception_3b/5x5_reduce
I0403 14:57:34.795444 17885 net.cpp:141] Setting up inception_3b/5x5_reduce
I0403 14:57:34.795472 17885 net.cpp:148] Top shape: 24 32 28 28 (602112)
I0403 14:57:34.795487 17885 net.cpp:156] Memory required for data: 727352352
I0403 14:57:34.795506 17885 layer_factory.hpp:77] Creating layer inception_3b/relu_5x5_reduce
I0403 14:57:34.795526 17885 net.cpp:91] Creating Layer inception_3b/relu_5x5_reduce
I0403 14:57:34.795543 17885 net.cpp:425] inception_3b/relu_5x5_reduce <- inception_3b/5x5_reduce
I0403 14:57:34.795560 17885 net.cpp:386] inception_3b/relu_5x5_reduce -> inception_3b/5x5_reduce (in-place)
I0403 14:57:34.795761 17885 net.cpp:141] Setting up inception_3b/relu_5x5_reduce
I0403 14:57:34.795786 17885 net.cpp:148] Top shape: 24 32 28 28 (602112)
I0403 14:57:34.795801 17885 net.cpp:156] Memory required for data: 729760800
I0403 14:57:34.795816 17885 layer_factory.hpp:77] Creating layer inception_3b/5x5
I0403 14:57:34.795840 17885 net.cpp:91] Creating Layer inception_3b/5x5
I0403 14:57:34.795857 17885 net.cpp:425] inception_3b/5x5 <- inception_3b/5x5_reduce
I0403 14:57:34.795878 17885 net.cpp:399] inception_3b/5x5 -> inception_3b/5x5
I0403 14:57:34.797878 17885 net.cpp:141] Setting up inception_3b/5x5
I0403 14:57:34.797907 17885 net.cpp:148] Top shape: 24 96 28 28 (1806336)
I0403 14:57:34.797922 17885 net.cpp:156] Memory required for data: 736986144
I0403 14:57:34.797940 17885 layer_factory.hpp:77] Creating layer inception_3b/relu_5x5
I0403 14:57:34.797963 17885 net.cpp:91] Creating Layer inception_3b/relu_5x5
I0403 14:57:34.797981 17885 net.cpp:425] inception_3b/relu_5x5 <- inception_3b/5x5
I0403 14:57:34.797997 17885 net.cpp:386] inception_3b/relu_5x5 -> inception_3b/5x5 (in-place)
I0403 14:57:34.798188 17885 net.cpp:141] Setting up inception_3b/relu_5x5
I0403 14:57:34.798213 17885 net.cpp:148] Top shape: 24 96 28 28 (1806336)
I0403 14:57:34.798228 17885 net.cpp:156] Memory required for data: 744211488
I0403 14:57:34.798243 17885 layer_factory.hpp:77] Creating layer inception_3b/pool
I0403 14:57:34.798260 17885 net.cpp:91] Creating Layer inception_3b/pool
I0403 14:57:34.798275 17885 net.cpp:425] inception_3b/pool <- inception_3a/output_inception_3a/output_0_split_3
I0403 14:57:34.798293 17885 net.cpp:399] inception_3b/pool -> inception_3b/pool
I0403 14:57:34.798348 17885 net.cpp:141] Setting up inception_3b/pool
I0403 14:57:34.798370 17885 net.cpp:148] Top shape: 24 256 28 28 (4816896)
I0403 14:57:34.798384 17885 net.cpp:156] Memory required for data: 763479072
I0403 14:57:34.798398 17885 layer_factory.hpp:77] Creating layer inception_3b/pool_proj
I0403 14:57:34.798419 17885 net.cpp:91] Creating Layer inception_3b/pool_proj
I0403 14:57:34.798437 17885 net.cpp:425] inception_3b/pool_proj <- inception_3b/pool
I0403 14:57:34.798459 17885 net.cpp:399] inception_3b/pool_proj -> inception_3b/pool_proj
I0403 14:57:34.799520 17885 net.cpp:141] Setting up inception_3b/pool_proj
I0403 14:57:34.799548 17885 net.cpp:148] Top shape: 24 64 28 28 (1204224)
I0403 14:57:34.799562 17885 net.cpp:156] Memory required for data: 768295968
I0403 14:57:34.799582 17885 layer_factory.hpp:77] Creating layer inception_3b/relu_pool_proj
I0403 14:57:34.799598 17885 net.cpp:91] Creating Layer inception_3b/relu_pool_proj
I0403 14:57:34.799613 17885 net.cpp:425] inception_3b/relu_pool_proj <- inception_3b/pool_proj
I0403 14:57:34.799633 17885 net.cpp:386] inception_3b/relu_pool_proj -> inception_3b/pool_proj (in-place)
I0403 14:57:34.800032 17885 net.cpp:141] Setting up inception_3b/relu_pool_proj
I0403 14:57:34.800060 17885 net.cpp:148] Top shape: 24 64 28 28 (1204224)
I0403 14:57:34.800076 17885 net.cpp:156] Memory required for data: 773112864
I0403 14:57:34.800091 17885 layer_factory.hpp:77] Creating layer inception_3b/output
I0403 14:57:34.800108 17885 net.cpp:91] Creating Layer inception_3b/output
I0403 14:57:34.800123 17885 net.cpp:425] inception_3b/output <- inception_3b/1x1
I0403 14:57:34.800139 17885 net.cpp:425] inception_3b/output <- inception_3b/3x3
I0403 14:57:34.800155 17885 net.cpp:425] inception_3b/output <- inception_3b/5x5
I0403 14:57:34.800171 17885 net.cpp:425] inception_3b/output <- inception_3b/pool_proj
I0403 14:57:34.800194 17885 net.cpp:399] inception_3b/output -> inception_3b/output
I0403 14:57:34.800237 17885 net.cpp:141] Setting up inception_3b/output
I0403 14:57:34.800261 17885 net.cpp:148] Top shape: 24 480 28 28 (9031680)
I0403 14:57:34.800274 17885 net.cpp:156] Memory required for data: 809239584
I0403 14:57:34.800288 17885 layer_factory.hpp:77] Creating layer pool3/3x3_s2
I0403 14:57:34.800307 17885 net.cpp:91] Creating Layer pool3/3x3_s2
I0403 14:57:34.800323 17885 net.cpp:425] pool3/3x3_s2 <- inception_3b/output
I0403 14:57:34.800356 17885 net.cpp:399] pool3/3x3_s2 -> pool3/3x3_s2
I0403 14:57:34.800415 17885 net.cpp:141] Setting up pool3/3x3_s2
I0403 14:57:34.800437 17885 net.cpp:148] Top shape: 24 480 14 14 (2257920)
I0403 14:57:34.800451 17885 net.cpp:156] Memory required for data: 818271264
I0403 14:57:34.800465 17885 layer_factory.hpp:77] Creating layer pool3/3x3_s2_pool3/3x3_s2_0_split
I0403 14:57:34.800482 17885 net.cpp:91] Creating Layer pool3/3x3_s2_pool3/3x3_s2_0_split
I0403 14:57:34.800498 17885 net.cpp:425] pool3/3x3_s2_pool3/3x3_s2_0_split <- pool3/3x3_s2
I0403 14:57:34.800516 17885 net.cpp:399] pool3/3x3_s2_pool3/3x3_s2_0_split -> pool3/3x3_s2_pool3/3x3_s2_0_split_0
I0403 14:57:34.800536 17885 net.cpp:399] pool3/3x3_s2_pool3/3x3_s2_0_split -> pool3/3x3_s2_pool3/3x3_s2_0_split_1
I0403 14:57:34.800555 17885 net.cpp:399] pool3/3x3_s2_pool3/3x3_s2_0_split -> pool3/3x3_s2_pool3/3x3_s2_0_split_2
I0403 14:57:34.800573 17885 net.cpp:399] pool3/3x3_s2_pool3/3x3_s2_0_split -> pool3/3x3_s2_pool3/3x3_s2_0_split_3
I0403 14:57:34.800647 17885 net.cpp:141] Setting up pool3/3x3_s2_pool3/3x3_s2_0_split
I0403 14:57:34.800669 17885 net.cpp:148] Top shape: 24 480 14 14 (2257920)
I0403 14:57:34.800685 17885 net.cpp:148] Top shape: 24 480 14 14 (2257920)
I0403 14:57:34.800699 17885 net.cpp:148] Top shape: 24 480 14 14 (2257920)
I0403 14:57:34.800714 17885 net.cpp:148] Top shape: 24 480 14 14 (2257920)
I0403 14:57:34.800727 17885 net.cpp:156] Memory required for data: 854397984
I0403 14:57:34.800741 17885 layer_factory.hpp:77] Creating layer inception_4a/1x1
I0403 14:57:34.800762 17885 net.cpp:91] Creating Layer inception_4a/1x1
I0403 14:57:34.800779 17885 net.cpp:425] inception_4a/1x1 <- pool3/3x3_s2_pool3/3x3_s2_0_split_0
I0403 14:57:34.800799 17885 net.cpp:399] inception_4a/1x1 -> inception_4a/1x1
I0403 14:57:34.802372 17885 net.cpp:141] Setting up inception_4a/1x1
I0403 14:57:34.802399 17885 net.cpp:148] Top shape: 24 192 14 14 (903168)
I0403 14:57:34.802415 17885 net.cpp:156] Memory required for data: 858010656
I0403 14:57:34.802433 17885 layer_factory.hpp:77] Creating layer inception_4a/relu_1x1
I0403 14:57:34.802450 17885 net.cpp:91] Creating Layer inception_4a/relu_1x1
I0403 14:57:34.802465 17885 net.cpp:425] inception_4a/relu_1x1 <- inception_4a/1x1
I0403 14:57:34.802484 17885 net.cpp:386] inception_4a/relu_1x1 -> inception_4a/1x1 (in-place)
I0403 14:57:34.802664 17885 net.cpp:141] Setting up inception_4a/relu_1x1
I0403 14:57:34.802690 17885 net.cpp:148] Top shape: 24 192 14 14 (903168)
I0403 14:57:34.802703 17885 net.cpp:156] Memory required for data: 861623328
I0403 14:57:34.802717 17885 layer_factory.hpp:77] Creating layer inception_4a/3x3_reduce
I0403 14:57:34.802739 17885 net.cpp:91] Creating Layer inception_4a/3x3_reduce
I0403 14:57:34.802757 17885 net.cpp:425] inception_4a/3x3_reduce <- pool3/3x3_s2_pool3/3x3_s2_0_split_1
I0403 14:57:34.802778 17885 net.cpp:399] inception_4a/3x3_reduce -> inception_4a/3x3_reduce
I0403 14:57:34.804056 17885 net.cpp:141] Setting up inception_4a/3x3_reduce
I0403 14:57:34.804083 17885 net.cpp:148] Top shape: 24 96 14 14 (451584)
I0403 14:57:34.804098 17885 net.cpp:156] Memory required for data: 863429664
I0403 14:57:34.804124 17885 layer_factory.hpp:77] Creating layer inception_4a/relu_3x3_reduce
I0403 14:57:34.804143 17885 net.cpp:91] Creating Layer inception_4a/relu_3x3_reduce
I0403 14:57:34.804159 17885 net.cpp:425] inception_4a/relu_3x3_reduce <- inception_4a/3x3_reduce
I0403 14:57:34.804177 17885 net.cpp:386] inception_4a/relu_3x3_reduce -> inception_4a/3x3_reduce (in-place)
I0403 14:57:34.804350 17885 net.cpp:141] Setting up inception_4a/relu_3x3_reduce
I0403 14:57:34.804375 17885 net.cpp:148] Top shape: 24 96 14 14 (451584)
I0403 14:57:34.804388 17885 net.cpp:156] Memory required for data: 865236000
I0403 14:57:34.804404 17885 layer_factory.hpp:77] Creating layer inception_4a/3x3
I0403 14:57:34.804425 17885 net.cpp:91] Creating Layer inception_4a/3x3
I0403 14:57:34.804441 17885 net.cpp:425] inception_4a/3x3 <- inception_4a/3x3_reduce
I0403 14:57:34.804461 17885 net.cpp:399] inception_4a/3x3 -> inception_4a/3x3
I0403 14:57:34.807143 17885 net.cpp:141] Setting up inception_4a/3x3
I0403 14:57:34.807171 17885 net.cpp:148] Top shape: 24 208 14 14 (978432)
I0403 14:57:34.807188 17885 net.cpp:156] Memory required for data: 869149728
I0403 14:57:34.807205 17885 layer_factory.hpp:77] Creating layer inception_4a/relu_3x3
I0403 14:57:34.807224 17885 net.cpp:91] Creating Layer inception_4a/relu_3x3
I0403 14:57:34.807241 17885 net.cpp:425] inception_4a/relu_3x3 <- inception_4a/3x3
I0403 14:57:34.807258 17885 net.cpp:386] inception_4a/relu_3x3 -> inception_4a/3x3 (in-place)
I0403 14:57:34.807543 17885 net.cpp:141] Setting up inception_4a/relu_3x3
I0403 14:57:34.807569 17885 net.cpp:148] Top shape: 24 208 14 14 (978432)
I0403 14:57:34.807584 17885 net.cpp:156] Memory required for data: 873063456
I0403 14:57:34.807597 17885 layer_factory.hpp:77] Creating layer inception_4a/5x5_reduce
I0403 14:57:34.807620 17885 net.cpp:91] Creating Layer inception_4a/5x5_reduce
I0403 14:57:34.807636 17885 net.cpp:425] inception_4a/5x5_reduce <- pool3/3x3_s2_pool3/3x3_s2_0_split_2
I0403 14:57:34.807657 17885 net.cpp:399] inception_4a/5x5_reduce -> inception_4a/5x5_reduce
I0403 14:57:34.808698 17885 net.cpp:141] Setting up inception_4a/5x5_reduce
I0403 14:57:34.808724 17885 net.cpp:148] Top shape: 24 16 14 14 (75264)
I0403 14:57:34.808738 17885 net.cpp:156] Memory required for data: 873364512
I0403 14:57:34.808768 17885 layer_factory.hpp:77] Creating layer inception_4a/relu_5x5_reduce
I0403 14:57:34.808789 17885 net.cpp:91] Creating Layer inception_4a/relu_5x5_reduce
I0403 14:57:34.808805 17885 net.cpp:425] inception_4a/relu_5x5_reduce <- inception_4a/5x5_reduce
I0403 14:57:34.808821 17885 net.cpp:386] inception_4a/relu_5x5_reduce -> inception_4a/5x5_reduce (in-place)
I0403 14:57:34.809010 17885 net.cpp:141] Setting up inception_4a/relu_5x5_reduce
I0403 14:57:34.809037 17885 net.cpp:148] Top shape: 24 16 14 14 (75264)
I0403 14:57:34.809051 17885 net.cpp:156] Memory required for data: 873665568
I0403 14:57:34.809065 17885 layer_factory.hpp:77] Creating layer inception_4a/5x5
I0403 14:57:34.809100 17885 net.cpp:91] Creating Layer inception_4a/5x5
I0403 14:57:34.809118 17885 net.cpp:425] inception_4a/5x5 <- inception_4a/5x5_reduce
I0403 14:57:34.809139 17885 net.cpp:399] inception_4a/5x5 -> inception_4a/5x5
I0403 14:57:34.810222 17885 net.cpp:141] Setting up inception_4a/5x5
I0403 14:57:34.810251 17885 net.cpp:148] Top shape: 24 48 14 14 (225792)
I0403 14:57:34.810268 17885 net.cpp:156] Memory required for data: 874568736
I0403 14:57:34.810294 17885 layer_factory.hpp:77] Creating layer inception_4a/relu_5x5
I0403 14:57:34.810312 17885 net.cpp:91] Creating Layer inception_4a/relu_5x5
I0403 14:57:34.810328 17885 net.cpp:425] inception_4a/relu_5x5 <- inception_4a/5x5
I0403 14:57:34.810346 17885 net.cpp:386] inception_4a/relu_5x5 -> inception_4a/5x5 (in-place)
I0403 14:57:34.810535 17885 net.cpp:141] Setting up inception_4a/relu_5x5
I0403 14:57:34.810560 17885 net.cpp:148] Top shape: 24 48 14 14 (225792)
I0403 14:57:34.810575 17885 net.cpp:156] Memory required for data: 875471904
I0403 14:57:34.810591 17885 layer_factory.hpp:77] Creating layer inception_4a/pool
I0403 14:57:34.810608 17885 net.cpp:91] Creating Layer inception_4a/pool
I0403 14:57:34.810624 17885 net.cpp:425] inception_4a/pool <- pool3/3x3_s2_pool3/3x3_s2_0_split_3
I0403 14:57:34.810644 17885 net.cpp:399] inception_4a/pool -> inception_4a/pool
I0403 14:57:34.810708 17885 net.cpp:141] Setting up inception_4a/pool
I0403 14:57:34.810730 17885 net.cpp:148] Top shape: 24 480 14 14 (2257920)
I0403 14:57:34.810745 17885 net.cpp:156] Memory required for data: 884503584
I0403 14:57:34.810760 17885 layer_factory.hpp:77] Creating layer inception_4a/pool_proj
I0403 14:57:34.810783 17885 net.cpp:91] Creating Layer inception_4a/pool_proj
I0403 14:57:34.810801 17885 net.cpp:425] inception_4a/pool_proj <- inception_4a/pool
I0403 14:57:34.810819 17885 net.cpp:399] inception_4a/pool_proj -> inception_4a/pool_proj
I0403 14:57:34.812007 17885 net.cpp:141] Setting up inception_4a/pool_proj
I0403 14:57:34.812036 17885 net.cpp:148] Top shape: 24 64 14 14 (301056)
I0403 14:57:34.812064 17885 net.cpp:156] Memory required for data: 885707808
I0403 14:57:34.812084 17885 layer_factory.hpp:77] Creating layer inception_4a/relu_pool_proj
I0403 14:57:34.812101 17885 net.cpp:91] Creating Layer inception_4a/relu_pool_proj
I0403 14:57:34.812120 17885 net.cpp:425] inception_4a/relu_pool_proj <- inception_4a/pool_proj
I0403 14:57:34.812137 17885 net.cpp:386] inception_4a/relu_pool_proj -> inception_4a/pool_proj (in-place)
I0403 14:57:34.812436 17885 net.cpp:141] Setting up inception_4a/relu_pool_proj
I0403 14:57:34.812463 17885 net.cpp:148] Top shape: 24 64 14 14 (301056)
I0403 14:57:34.812477 17885 net.cpp:156] Memory required for data: 886912032
I0403 14:57:34.812492 17885 layer_factory.hpp:77] Creating layer inception_4a/output
I0403 14:57:34.812510 17885 net.cpp:91] Creating Layer inception_4a/output
I0403 14:57:34.812525 17885 net.cpp:425] inception_4a/output <- inception_4a/1x1
I0403 14:57:34.812542 17885 net.cpp:425] inception_4a/output <- inception_4a/3x3
I0403 14:57:34.812558 17885 net.cpp:425] inception_4a/output <- inception_4a/5x5
I0403 14:57:34.812574 17885 net.cpp:425] inception_4a/output <- inception_4a/pool_proj
I0403 14:57:34.812593 17885 net.cpp:399] inception_4a/output -> inception_4a/output
I0403 14:57:34.812639 17885 net.cpp:141] Setting up inception_4a/output
I0403 14:57:34.812665 17885 net.cpp:148] Top shape: 24 512 14 14 (2408448)
I0403 14:57:34.812691 17885 net.cpp:156] Memory required for data: 896545824
I0403 14:57:34.812705 17885 layer_factory.hpp:77] Creating layer inception_4a/output_inception_4a/output_0_split
I0403 14:57:34.812722 17885 net.cpp:91] Creating Layer inception_4a/output_inception_4a/output_0_split
I0403 14:57:34.812737 17885 net.cpp:425] inception_4a/output_inception_4a/output_0_split <- inception_4a/output
I0403 14:57:34.812759 17885 net.cpp:399] inception_4a/output_inception_4a/output_0_split -> inception_4a/output_inception_4a/output_0_split_0
I0403 14:57:34.812780 17885 net.cpp:399] inception_4a/output_inception_4a/output_0_split -> inception_4a/output_inception_4a/output_0_split_1
I0403 14:57:34.812799 17885 net.cpp:399] inception_4a/output_inception_4a/output_0_split -> inception_4a/output_inception_4a/output_0_split_2
I0403 14:57:34.812819 17885 net.cpp:399] inception_4a/output_inception_4a/output_0_split -> inception_4a/output_inception_4a/output_0_split_3
I0403 14:57:34.812839 17885 net.cpp:399] inception_4a/output_inception_4a/output_0_split -> inception_4a/output_inception_4a/output_0_split_4
I0403 14:57:34.812929 17885 net.cpp:141] Setting up inception_4a/output_inception_4a/output_0_split
I0403 14:57:34.812952 17885 net.cpp:148] Top shape: 24 512 14 14 (2408448)
I0403 14:57:34.812973 17885 net.cpp:148] Top shape: 24 512 14 14 (2408448)
I0403 14:57:34.812988 17885 net.cpp:148] Top shape: 24 512 14 14 (2408448)
I0403 14:57:34.813004 17885 net.cpp:148] Top shape: 24 512 14 14 (2408448)
I0403 14:57:34.813019 17885 net.cpp:148] Top shape: 24 512 14 14 (2408448)
I0403 14:57:34.813032 17885 net.cpp:156] Memory required for data: 944714784
I0403 14:57:34.813046 17885 layer_factory.hpp:77] Creating layer loss1/ave_pool
I0403 14:57:34.813066 17885 net.cpp:91] Creating Layer loss1/ave_pool
I0403 14:57:34.813081 17885 net.cpp:425] loss1/ave_pool <- inception_4a/output_inception_4a/output_0_split_0
I0403 14:57:34.813098 17885 net.cpp:399] loss1/ave_pool -> loss1/ave_pool
I0403 14:57:34.813307 17885 net.cpp:141] Setting up loss1/ave_pool
I0403 14:57:34.813331 17885 net.cpp:148] Top shape: 24 512 4 4 (196608)
I0403 14:57:34.813345 17885 net.cpp:156] Memory required for data: 945501216
I0403 14:57:34.813359 17885 layer_factory.hpp:77] Creating layer loss1/conv
I0403 14:57:34.813381 17885 net.cpp:91] Creating Layer loss1/conv
I0403 14:57:34.813397 17885 net.cpp:425] loss1/conv <- loss1/ave_pool
I0403 14:57:34.813418 17885 net.cpp:399] loss1/conv -> loss1/conv
I0403 14:57:34.814858 17885 net.cpp:141] Setting up loss1/conv
I0403 14:57:34.814887 17885 net.cpp:148] Top shape: 24 128 4 4 (49152)
I0403 14:57:34.814914 17885 net.cpp:156] Memory required for data: 945697824
I0403 14:57:34.814934 17885 layer_factory.hpp:77] Creating layer loss1/relu_conv
I0403 14:57:34.814957 17885 net.cpp:91] Creating Layer loss1/relu_conv
I0403 14:57:34.814975 17885 net.cpp:425] loss1/relu_conv <- loss1/conv
I0403 14:57:34.814992 17885 net.cpp:386] loss1/relu_conv -> loss1/conv (in-place)
I0403 14:57:34.815273 17885 net.cpp:141] Setting up loss1/relu_conv
I0403 14:57:34.815299 17885 net.cpp:148] Top shape: 24 128 4 4 (49152)
I0403 14:57:34.815312 17885 net.cpp:156] Memory required for data: 945894432
I0403 14:57:34.815327 17885 layer_factory.hpp:77] Creating layer loss1/fc
I0403 14:57:34.815352 17885 net.cpp:91] Creating Layer loss1/fc
I0403 14:57:34.815371 17885 net.cpp:425] loss1/fc <- loss1/conv
I0403 14:57:34.815390 17885 net.cpp:399] loss1/fc -> loss1/fc
I0403 14:57:34.833529 17885 net.cpp:141] Setting up loss1/fc
I0403 14:57:34.833595 17885 net.cpp:148] Top shape: 24 1024 (24576)
I0403 14:57:34.833609 17885 net.cpp:156] Memory required for data: 945992736
I0403 14:57:34.833629 17885 layer_factory.hpp:77] Creating layer loss1/relu_fc
I0403 14:57:34.833648 17885 net.cpp:91] Creating Layer loss1/relu_fc
I0403 14:57:34.833664 17885 net.cpp:425] loss1/relu_fc <- loss1/fc
I0403 14:57:34.833685 17885 net.cpp:386] loss1/relu_fc -> loss1/fc (in-place)
I0403 14:57:34.833909 17885 net.cpp:141] Setting up loss1/relu_fc
I0403 14:57:34.833932 17885 net.cpp:148] Top shape: 24 1024 (24576)
I0403 14:57:34.833946 17885 net.cpp:156] Memory required for data: 946091040
I0403 14:57:34.833966 17885 layer_factory.hpp:77] Creating layer loss1/drop_fc
I0403 14:57:34.833997 17885 net.cpp:91] Creating Layer loss1/drop_fc
I0403 14:57:34.834014 17885 net.cpp:425] loss1/drop_fc <- loss1/fc
I0403 14:57:34.834031 17885 net.cpp:386] loss1/drop_fc -> loss1/fc (in-place)
I0403 14:57:34.834084 17885 net.cpp:141] Setting up loss1/drop_fc
I0403 14:57:34.834110 17885 net.cpp:148] Top shape: 24 1024 (24576)
I0403 14:57:34.834125 17885 net.cpp:156] Memory required for data: 946189344
I0403 14:57:34.834139 17885 layer_factory.hpp:77] Creating layer loss1/classifier_plantvillage
I0403 14:57:34.834158 17885 net.cpp:91] Creating Layer loss1/classifier_plantvillage
I0403 14:57:34.834173 17885 net.cpp:425] loss1/classifier_plantvillage <- loss1/fc
I0403 14:57:34.834194 17885 net.cpp:399] loss1/classifier_plantvillage -> loss1/classifier_plantvillage
I0403 14:57:34.835141 17885 net.cpp:141] Setting up loss1/classifier_plantvillage
I0403 14:57:34.835170 17885 net.cpp:148] Top shape: 24 38 (912)
I0403 14:57:34.835186 17885 net.cpp:156] Memory required for data: 946192992
I0403 14:57:34.835203 17885 layer_factory.hpp:77] Creating layer loss1/classifier_plantvillage_loss1/classifier_plantvillage_0_split
I0403 14:57:34.835222 17885 net.cpp:91] Creating Layer loss1/classifier_plantvillage_loss1/classifier_plantvillage_0_split
I0403 14:57:34.835239 17885 net.cpp:425] loss1/classifier_plantvillage_loss1/classifier_plantvillage_0_split <- loss1/classifier_plantvillage
I0403 14:57:34.835260 17885 net.cpp:399] loss1/classifier_plantvillage_loss1/classifier_plantvillage_0_split -> loss1/classifier_plantvillage_loss1/classifier_plantvillage_0_split_0
I0403 14:57:34.835294 17885 net.cpp:399] loss1/classifier_plantvillage_loss1/classifier_plantvillage_0_split -> loss1/classifier_plantvillage_loss1/classifier_plantvillage_0_split_1
I0403 14:57:34.835314 17885 net.cpp:399] loss1/classifier_plantvillage_loss1/classifier_plantvillage_0_split -> loss1/classifier_plantvillage_loss1/classifier_plantvillage_0_split_2
I0403 14:57:34.835381 17885 net.cpp:141] Setting up loss1/classifier_plantvillage_loss1/classifier_plantvillage_0_split
I0403 14:57:34.835402 17885 net.cpp:148] Top shape: 24 38 (912)
I0403 14:57:34.835417 17885 net.cpp:148] Top shape: 24 38 (912)
I0403 14:57:34.835433 17885 net.cpp:148] Top shape: 24 38 (912)
I0403 14:57:34.835446 17885 net.cpp:156] Memory required for data: 946203936
I0403 14:57:34.835460 17885 layer_factory.hpp:77] Creating layer inception_4b/1x1
I0403 14:57:34.835484 17885 net.cpp:91] Creating Layer inception_4b/1x1
I0403 14:57:34.835523 17885 net.cpp:425] inception_4b/1x1 <- inception_4a/output_inception_4a/output_0_split_1
I0403 14:57:34.835543 17885 net.cpp:399] inception_4b/1x1 -> inception_4b/1x1
I0403 14:57:34.837209 17885 net.cpp:141] Setting up inception_4b/1x1
I0403 14:57:34.837237 17885 net.cpp:148] Top shape: 24 160 14 14 (752640)
I0403 14:57:34.837254 17885 net.cpp:156] Memory required for data: 949214496
I0403 14:57:34.837270 17885 layer_factory.hpp:77] Creating layer inception_4b/relu_1x1
I0403 14:57:34.837292 17885 net.cpp:91] Creating Layer inception_4b/relu_1x1
I0403 14:57:34.837309 17885 net.cpp:425] inception_4b/relu_1x1 <- inception_4b/1x1
I0403 14:57:34.837327 17885 net.cpp:386] inception_4b/relu_1x1 -> inception_4b/1x1 (in-place)
I0403 14:57:34.837515 17885 net.cpp:141] Setting up inception_4b/relu_1x1
I0403 14:57:34.837540 17885 net.cpp:148] Top shape: 24 160 14 14 (752640)
I0403 14:57:34.837554 17885 net.cpp:156] Memory required for data: 952225056
I0403 14:57:34.837569 17885 layer_factory.hpp:77] Creating layer inception_4b/3x3_reduce
I0403 14:57:34.837590 17885 net.cpp:91] Creating Layer inception_4b/3x3_reduce
I0403 14:57:34.837606 17885 net.cpp:425] inception_4b/3x3_reduce <- inception_4a/output_inception_4a/output_0_split_2
I0403 14:57:34.837625 17885 net.cpp:399] inception_4b/3x3_reduce -> inception_4b/3x3_reduce
I0403 14:57:34.838979 17885 net.cpp:141] Setting up inception_4b/3x3_reduce
I0403 14:57:34.839010 17885 net.cpp:148] Top shape: 24 112 14 14 (526848)
I0403 14:57:34.839026 17885 net.cpp:156] Memory required for data: 954332448
I0403 14:57:34.839046 17885 layer_factory.hpp:77] Creating layer inception_4b/relu_3x3_reduce
I0403 14:57:34.839063 17885 net.cpp:91] Creating Layer inception_4b/relu_3x3_reduce
I0403 14:57:34.839079 17885 net.cpp:425] inception_4b/relu_3x3_reduce <- inception_4b/3x3_reduce
I0403 14:57:34.839095 17885 net.cpp:386] inception_4b/relu_3x3_reduce -> inception_4b/3x3_reduce (in-place)
I0403 14:57:34.839383 17885 net.cpp:141] Setting up inception_4b/relu_3x3_reduce
I0403 14:57:34.839411 17885 net.cpp:148] Top shape: 24 112 14 14 (526848)
I0403 14:57:34.839427 17885 net.cpp:156] Memory required for data: 956439840
I0403 14:57:34.839442 17885 layer_factory.hpp:77] Creating layer inception_4b/3x3
I0403 14:57:34.839463 17885 net.cpp:91] Creating Layer inception_4b/3x3
I0403 14:57:34.839481 17885 net.cpp:425] inception_4b/3x3 <- inception_4b/3x3_reduce
I0403 14:57:34.839499 17885 net.cpp:399] inception_4b/3x3 -> inception_4b/3x3
I0403 14:57:34.842669 17885 net.cpp:141] Setting up inception_4b/3x3
I0403 14:57:34.842696 17885 net.cpp:148] Top shape: 24 224 14 14 (1053696)
I0403 14:57:34.842711 17885 net.cpp:156] Memory required for data: 960654624
I0403 14:57:34.842730 17885 layer_factory.hpp:77] Creating layer inception_4b/relu_3x3
I0403 14:57:34.842746 17885 net.cpp:91] Creating Layer inception_4b/relu_3x3
I0403 14:57:34.842762 17885 net.cpp:425] inception_4b/relu_3x3 <- inception_4b/3x3
I0403 14:57:34.842780 17885 net.cpp:386] inception_4b/relu_3x3 -> inception_4b/3x3 (in-place)
I0403 14:57:34.842962 17885 net.cpp:141] Setting up inception_4b/relu_3x3
I0403 14:57:34.842985 17885 net.cpp:148] Top shape: 24 224 14 14 (1053696)
I0403 14:57:34.842999 17885 net.cpp:156] Memory required for data: 964869408
I0403 14:57:34.843014 17885 layer_factory.hpp:77] Creating layer inception_4b/5x5_reduce
I0403 14:57:34.843035 17885 net.cpp:91] Creating Layer inception_4b/5x5_reduce
I0403 14:57:34.843051 17885 net.cpp:425] inception_4b/5x5_reduce <- inception_4a/output_inception_4a/output_0_split_3
I0403 14:57:34.843072 17885 net.cpp:399] inception_4b/5x5_reduce -> inception_4b/5x5_reduce
I0403 14:57:34.844141 17885 net.cpp:141] Setting up inception_4b/5x5_reduce
I0403 14:57:34.844171 17885 net.cpp:148] Top shape: 24 24 14 14 (112896)
I0403 14:57:34.844187 17885 net.cpp:156] Memory required for data: 965320992
I0403 14:57:34.844204 17885 layer_factory.hpp:77] Creating layer inception_4b/relu_5x5_reduce
I0403 14:57:34.844221 17885 net.cpp:91] Creating Layer inception_4b/relu_5x5_reduce
I0403 14:57:34.844252 17885 net.cpp:425] inception_4b/relu_5x5_reduce <- inception_4b/5x5_reduce
I0403 14:57:34.844270 17885 net.cpp:386] inception_4b/relu_5x5_reduce -> inception_4b/5x5_reduce (in-place)
I0403 14:57:34.844465 17885 net.cpp:141] Setting up inception_4b/relu_5x5_reduce
I0403 14:57:34.844491 17885 net.cpp:148] Top shape: 24 24 14 14 (112896)
I0403 14:57:34.844504 17885 net.cpp:156] Memory required for data: 965772576
I0403 14:57:34.844519 17885 layer_factory.hpp:77] Creating layer inception_4b/5x5
I0403 14:57:34.844540 17885 net.cpp:91] Creating Layer inception_4b/5x5
I0403 14:57:34.844558 17885 net.cpp:425] inception_4b/5x5 <- inception_4b/5x5_reduce
I0403 14:57:34.844578 17885 net.cpp:399] inception_4b/5x5 -> inception_4b/5x5
I0403 14:57:34.845779 17885 net.cpp:141] Setting up inception_4b/5x5
I0403 14:57:34.845819 17885 net.cpp:148] Top shape: 24 64 14 14 (301056)
I0403 14:57:34.845835 17885 net.cpp:156] Memory required for data: 966976800
I0403 14:57:34.845854 17885 layer_factory.hpp:77] Creating layer inception_4b/relu_5x5
I0403 14:57:34.845873 17885 net.cpp:91] Creating Layer inception_4b/relu_5x5
I0403 14:57:34.845890 17885 net.cpp:425] inception_4b/relu_5x5 <- inception_4b/5x5
I0403 14:57:34.845907 17885 net.cpp:386] inception_4b/relu_5x5 -> inception_4b/5x5 (in-place)
I0403 14:57:34.846209 17885 net.cpp:141] Setting up inception_4b/relu_5x5
I0403 14:57:34.846232 17885 net.cpp:148] Top shape: 24 64 14 14 (301056)
I0403 14:57:34.846246 17885 net.cpp:156] Memory required for data: 968181024
I0403 14:57:34.846261 17885 layer_factory.hpp:77] Creating layer inception_4b/pool
I0403 14:57:34.846282 17885 net.cpp:91] Creating Layer inception_4b/pool
I0403 14:57:34.846298 17885 net.cpp:425] inception_4b/pool <- inception_4a/output_inception_4a/output_0_split_4
I0403 14:57:34.846315 17885 net.cpp:399] inception_4b/pool -> inception_4b/pool
I0403 14:57:34.846379 17885 net.cpp:141] Setting up inception_4b/pool
I0403 14:57:34.846401 17885 net.cpp:148] Top shape: 24 512 14 14 (2408448)
I0403 14:57:34.846415 17885 net.cpp:156] Memory required for data: 977814816
I0403 14:57:34.846428 17885 layer_factory.hpp:77] Creating layer inception_4b/pool_proj
I0403 14:57:34.846448 17885 net.cpp:91] Creating Layer inception_4b/pool_proj
I0403 14:57:34.846464 17885 net.cpp:425] inception_4b/pool_proj <- inception_4b/pool
I0403 14:57:34.846484 17885 net.cpp:399] inception_4b/pool_proj -> inception_4b/pool_proj
I0403 14:57:34.847676 17885 net.cpp:141] Setting up inception_4b/pool_proj
I0403 14:57:34.847702 17885 net.cpp:148] Top shape: 24 64 14 14 (301056)
I0403 14:57:34.847718 17885 net.cpp:156] Memory required for data: 979019040
I0403 14:57:34.847735 17885 layer_factory.hpp:77] Creating layer inception_4b/relu_pool_proj
I0403 14:57:34.847755 17885 net.cpp:91] Creating Layer inception_4b/relu_pool_proj
I0403 14:57:34.847772 17885 net.cpp:425] inception_4b/relu_pool_proj <- inception_4b/pool_proj
I0403 14:57:34.847789 17885 net.cpp:386] inception_4b/relu_pool_proj -> inception_4b/pool_proj (in-place)
I0403 14:57:34.847975 17885 net.cpp:141] Setting up inception_4b/relu_pool_proj
I0403 14:57:34.848000 17885 net.cpp:148] Top shape: 24 64 14 14 (301056)
I0403 14:57:34.848014 17885 net.cpp:156] Memory required for data: 980223264
I0403 14:57:34.848028 17885 layer_factory.hpp:77] Creating layer inception_4b/output
I0403 14:57:34.848045 17885 net.cpp:91] Creating Layer inception_4b/output
I0403 14:57:34.848060 17885 net.cpp:425] inception_4b/output <- inception_4b/1x1
I0403 14:57:34.848076 17885 net.cpp:425] inception_4b/output <- inception_4b/3x3
I0403 14:57:34.848093 17885 net.cpp:425] inception_4b/output <- inception_4b/5x5
I0403 14:57:34.848107 17885 net.cpp:425] inception_4b/output <- inception_4b/pool_proj
I0403 14:57:34.848125 17885 net.cpp:399] inception_4b/output -> inception_4b/output
I0403 14:57:34.848171 17885 net.cpp:141] Setting up inception_4b/output
I0403 14:57:34.848196 17885 net.cpp:148] Top shape: 24 512 14 14 (2408448)
I0403 14:57:34.848213 17885 net.cpp:156] Memory required for data: 989857056
I0403 14:57:34.848240 17885 layer_factory.hpp:77] Creating layer inception_4b/output_inception_4b/output_0_split
I0403 14:57:34.848258 17885 net.cpp:91] Creating Layer inception_4b/output_inception_4b/output_0_split
I0403 14:57:34.848273 17885 net.cpp:425] inception_4b/output_inception_4b/output_0_split <- inception_4b/output
I0403 14:57:34.848290 17885 net.cpp:399] inception_4b/output_inception_4b/output_0_split -> inception_4b/output_inception_4b/output_0_split_0
I0403 14:57:34.848310 17885 net.cpp:399] inception_4b/output_inception_4b/output_0_split -> inception_4b/output_inception_4b/output_0_split_1
I0403 14:57:34.848335 17885 net.cpp:399] inception_4b/output_inception_4b/output_0_split -> inception_4b/output_inception_4b/output_0_split_2
I0403 14:57:34.848356 17885 net.cpp:399] inception_4b/output_inception_4b/output_0_split -> inception_4b/output_inception_4b/output_0_split_3
I0403 14:57:34.848440 17885 net.cpp:141] Setting up inception_4b/output_inception_4b/output_0_split
I0403 14:57:34.848464 17885 net.cpp:148] Top shape: 24 512 14 14 (2408448)
I0403 14:57:34.848480 17885 net.cpp:148] Top shape: 24 512 14 14 (2408448)
I0403 14:57:34.848495 17885 net.cpp:148] Top shape: 24 512 14 14 (2408448)
I0403 14:57:34.848510 17885 net.cpp:148] Top shape: 24 512 14 14 (2408448)
I0403 14:57:34.848523 17885 net.cpp:156] Memory required for data: 1028392224
I0403 14:57:34.848536 17885 layer_factory.hpp:77] Creating layer inception_4c/1x1
I0403 14:57:34.848558 17885 net.cpp:91] Creating Layer inception_4c/1x1
I0403 14:57:34.848575 17885 net.cpp:425] inception_4c/1x1 <- inception_4b/output_inception_4b/output_0_split_0
I0403 14:57:34.848594 17885 net.cpp:399] inception_4c/1x1 -> inception_4c/1x1
I0403 14:57:34.850047 17885 net.cpp:141] Setting up inception_4c/1x1
I0403 14:57:34.850075 17885 net.cpp:148] Top shape: 24 128 14 14 (602112)
I0403 14:57:34.850090 17885 net.cpp:156] Memory required for data: 1030800672
I0403 14:57:34.850107 17885 layer_factory.hpp:77] Creating layer inception_4c/relu_1x1
I0403 14:57:34.850126 17885 net.cpp:91] Creating Layer inception_4c/relu_1x1
I0403 14:57:34.850142 17885 net.cpp:425] inception_4c/relu_1x1 <- inception_4c/1x1
I0403 14:57:34.850160 17885 net.cpp:386] inception_4c/relu_1x1 -> inception_4c/1x1 (in-place)
I0403 14:57:34.850342 17885 net.cpp:141] Setting up inception_4c/relu_1x1
I0403 14:57:34.850366 17885 net.cpp:148] Top shape: 24 128 14 14 (602112)
I0403 14:57:34.850380 17885 net.cpp:156] Memory required for data: 1033209120
I0403 14:57:34.850394 17885 layer_factory.hpp:77] Creating layer inception_4c/3x3_reduce
I0403 14:57:34.850415 17885 net.cpp:91] Creating Layer inception_4c/3x3_reduce
I0403 14:57:34.850433 17885 net.cpp:425] inception_4c/3x3_reduce <- inception_4b/output_inception_4b/output_0_split_1
I0403 14:57:34.850455 17885 net.cpp:399] inception_4c/3x3_reduce -> inception_4c/3x3_reduce
I0403 14:57:34.852393 17885 net.cpp:141] Setting up inception_4c/3x3_reduce
I0403 14:57:34.852421 17885 net.cpp:148] Top shape: 24 128 14 14 (602112)
I0403 14:57:34.852437 17885 net.cpp:156] Memory required for data: 1035617568
I0403 14:57:34.852455 17885 layer_factory.hpp:77] Creating layer inception_4c/relu_3x3_reduce
I0403 14:57:34.852475 17885 net.cpp:91] Creating Layer inception_4c/relu_3x3_reduce
I0403 14:57:34.852491 17885 net.cpp:425] inception_4c/relu_3x3_reduce <- inception_4c/3x3_reduce
I0403 14:57:34.852520 17885 net.cpp:386] inception_4c/relu_3x3_reduce -> inception_4c/3x3_reduce (in-place)
I0403 14:57:34.852807 17885 net.cpp:141] Setting up inception_4c/relu_3x3_reduce
I0403 14:57:34.852833 17885 net.cpp:148] Top shape: 24 128 14 14 (602112)
I0403 14:57:34.852846 17885 net.cpp:156] Memory required for data: 1038026016
I0403 14:57:34.852860 17885 layer_factory.hpp:77] Creating layer inception_4c/3x3
I0403 14:57:34.852882 17885 net.cpp:91] Creating Layer inception_4c/3x3
I0403 14:57:34.852898 17885 net.cpp:425] inception_4c/3x3 <- inception_4c/3x3_reduce
I0403 14:57:34.852919 17885 net.cpp:399] inception_4c/3x3 -> inception_4c/3x3
I0403 14:57:34.856524 17885 net.cpp:141] Setting up inception_4c/3x3
I0403 14:57:34.856564 17885 net.cpp:148] Top shape: 24 256 14 14 (1204224)
I0403 14:57:34.856578 17885 net.cpp:156] Memory required for data: 1042842912
I0403 14:57:34.856612 17885 layer_factory.hpp:77] Creating layer inception_4c/relu_3x3
I0403 14:57:34.856634 17885 net.cpp:91] Creating Layer inception_4c/relu_3x3
I0403 14:57:34.856650 17885 net.cpp:425] inception_4c/relu_3x3 <- inception_4c/3x3
I0403 14:57:34.856667 17885 net.cpp:386] inception_4c/relu_3x3 -> inception_4c/3x3 (in-place)
I0403 14:57:34.856844 17885 net.cpp:141] Setting up inception_4c/relu_3x3
I0403 14:57:34.856870 17885 net.cpp:148] Top shape: 24 256 14 14 (1204224)
I0403 14:57:34.856897 17885 net.cpp:156] Memory required for data: 1047659808
I0403 14:57:34.856914 17885 layer_factory.hpp:77] Creating layer inception_4c/5x5_reduce
I0403 14:57:34.856936 17885 net.cpp:91] Creating Layer inception_4c/5x5_reduce
I0403 14:57:34.856957 17885 net.cpp:425] inception_4c/5x5_reduce <- inception_4b/output_inception_4b/output_0_split_2
I0403 14:57:34.856978 17885 net.cpp:399] inception_4c/5x5_reduce -> inception_4c/5x5_reduce
I0403 14:57:34.858064 17885 net.cpp:141] Setting up inception_4c/5x5_reduce
I0403 14:57:34.858093 17885 net.cpp:148] Top shape: 24 24 14 14 (112896)
I0403 14:57:34.858108 17885 net.cpp:156] Memory required for data: 1048111392
I0403 14:57:34.858125 17885 layer_factory.hpp:77] Creating layer inception_4c/relu_5x5_reduce
I0403 14:57:34.858142 17885 net.cpp:91] Creating Layer inception_4c/relu_5x5_reduce
I0403 14:57:34.858157 17885 net.cpp:425] inception_4c/relu_5x5_reduce <- inception_4c/5x5_reduce
I0403 14:57:34.858173 17885 net.cpp:386] inception_4c/relu_5x5_reduce -> inception_4c/5x5_reduce (in-place)
I0403 14:57:34.858357 17885 net.cpp:141] Setting up inception_4c/relu_5x5_reduce
I0403 14:57:34.858382 17885 net.cpp:148] Top shape: 24 24 14 14 (112896)
I0403 14:57:34.858397 17885 net.cpp:156] Memory required for data: 1048562976
I0403 14:57:34.858412 17885 layer_factory.hpp:77] Creating layer inception_4c/5x5
I0403 14:57:34.858433 17885 net.cpp:91] Creating Layer inception_4c/5x5
I0403 14:57:34.858449 17885 net.cpp:425] inception_4c/5x5 <- inception_4c/5x5_reduce
I0403 14:57:34.858466 17885 net.cpp:399] inception_4c/5x5 -> inception_4c/5x5
I0403 14:57:34.859726 17885 net.cpp:141] Setting up inception_4c/5x5
I0403 14:57:34.859752 17885 net.cpp:148] Top shape: 24 64 14 14 (301056)
I0403 14:57:34.859767 17885 net.cpp:156] Memory required for data: 1049767200
I0403 14:57:34.859786 17885 layer_factory.hpp:77] Creating layer inception_4c/relu_5x5
I0403 14:57:34.859803 17885 net.cpp:91] Creating Layer inception_4c/relu_5x5
I0403 14:57:34.859819 17885 net.cpp:425] inception_4c/relu_5x5 <- inception_4c/5x5
I0403 14:57:34.859838 17885 net.cpp:386] inception_4c/relu_5x5 -> inception_4c/5x5 (in-place)
I0403 14:57:34.860129 17885 net.cpp:141] Setting up inception_4c/relu_5x5
I0403 14:57:34.860154 17885 net.cpp:148] Top shape: 24 64 14 14 (301056)
I0403 14:57:34.860169 17885 net.cpp:156] Memory required for data: 1050971424
I0403 14:57:34.860183 17885 layer_factory.hpp:77] Creating layer inception_4c/pool
I0403 14:57:34.860200 17885 net.cpp:91] Creating Layer inception_4c/pool
I0403 14:57:34.860216 17885 net.cpp:425] inception_4c/pool <- inception_4b/output_inception_4b/output_0_split_3
I0403 14:57:34.860235 17885 net.cpp:399] inception_4c/pool -> inception_4c/pool
I0403 14:57:34.860311 17885 net.cpp:141] Setting up inception_4c/pool
I0403 14:57:34.860335 17885 net.cpp:148] Top shape: 24 512 14 14 (2408448)
I0403 14:57:34.860349 17885 net.cpp:156] Memory required for data: 1060605216
I0403 14:57:34.860363 17885 layer_factory.hpp:77] Creating layer inception_4c/pool_proj
I0403 14:57:34.860386 17885 net.cpp:91] Creating Layer inception_4c/pool_proj
I0403 14:57:34.860404 17885 net.cpp:425] inception_4c/pool_proj <- inception_4c/pool
I0403 14:57:34.860421 17885 net.cpp:399] inception_4c/pool_proj -> inception_4c/pool_proj
I0403 14:57:34.861690 17885 net.cpp:141] Setting up inception_4c/pool_proj
I0403 14:57:34.861717 17885 net.cpp:148] Top shape: 24 64 14 14 (301056)
I0403 14:57:34.861747 17885 net.cpp:156] Memory required for data: 1061809440
I0403 14:57:34.861766 17885 layer_factory.hpp:77] Creating layer inception_4c/relu_pool_proj
I0403 14:57:34.861786 17885 net.cpp:91] Creating Layer inception_4c/relu_pool_proj
I0403 14:57:34.861804 17885 net.cpp:425] inception_4c/relu_pool_proj <- inception_4c/pool_proj
I0403 14:57:34.861821 17885 net.cpp:386] inception_4c/relu_pool_proj -> inception_4c/pool_proj (in-place)
I0403 14:57:34.862020 17885 net.cpp:141] Setting up inception_4c/relu_pool_proj
I0403 14:57:34.862046 17885 net.cpp:148] Top shape: 24 64 14 14 (301056)
I0403 14:57:34.862061 17885 net.cpp:156] Memory required for data: 1063013664
I0403 14:57:34.862076 17885 layer_factory.hpp:77] Creating layer inception_4c/output
I0403 14:57:34.862093 17885 net.cpp:91] Creating Layer inception_4c/output
I0403 14:57:34.862109 17885 net.cpp:425] inception_4c/output <- inception_4c/1x1
I0403 14:57:34.862125 17885 net.cpp:425] inception_4c/output <- inception_4c/3x3
I0403 14:57:34.862141 17885 net.cpp:425] inception_4c/output <- inception_4c/5x5
I0403 14:57:34.862157 17885 net.cpp:425] inception_4c/output <- inception_4c/pool_proj
I0403 14:57:34.862175 17885 net.cpp:399] inception_4c/output -> inception_4c/output
I0403 14:57:34.862223 17885 net.cpp:141] Setting up inception_4c/output
I0403 14:57:34.862249 17885 net.cpp:148] Top shape: 24 512 14 14 (2408448)
I0403 14:57:34.862264 17885 net.cpp:156] Memory required for data: 1072647456
I0403 14:57:34.862279 17885 layer_factory.hpp:77] Creating layer inception_4c/output_inception_4c/output_0_split
I0403 14:57:34.862296 17885 net.cpp:91] Creating Layer inception_4c/output_inception_4c/output_0_split
I0403 14:57:34.862311 17885 net.cpp:425] inception_4c/output_inception_4c/output_0_split <- inception_4c/output
I0403 14:57:34.862329 17885 net.cpp:399] inception_4c/output_inception_4c/output_0_split -> inception_4c/output_inception_4c/output_0_split_0
I0403 14:57:34.862349 17885 net.cpp:399] inception_4c/output_inception_4c/output_0_split -> inception_4c/output_inception_4c/output_0_split_1
I0403 14:57:34.862368 17885 net.cpp:399] inception_4c/output_inception_4c/output_0_split -> inception_4c/output_inception_4c/output_0_split_2
I0403 14:57:34.862390 17885 net.cpp:399] inception_4c/output_inception_4c/output_0_split -> inception_4c/output_inception_4c/output_0_split_3
I0403 14:57:34.862481 17885 net.cpp:141] Setting up inception_4c/output_inception_4c/output_0_split
I0403 14:57:34.862505 17885 net.cpp:148] Top shape: 24 512 14 14 (2408448)
I0403 14:57:34.862521 17885 net.cpp:148] Top shape: 24 512 14 14 (2408448)
I0403 14:57:34.862536 17885 net.cpp:148] Top shape: 24 512 14 14 (2408448)
I0403 14:57:34.862552 17885 net.cpp:148] Top shape: 24 512 14 14 (2408448)
I0403 14:57:34.862565 17885 net.cpp:156] Memory required for data: 1111182624
I0403 14:57:34.862581 17885 layer_factory.hpp:77] Creating layer inception_4d/1x1
I0403 14:57:34.862602 17885 net.cpp:91] Creating Layer inception_4d/1x1
I0403 14:57:34.862619 17885 net.cpp:425] inception_4d/1x1 <- inception_4c/output_inception_4c/output_0_split_0
I0403 14:57:34.862640 17885 net.cpp:399] inception_4d/1x1 -> inception_4d/1x1
I0403 14:57:34.864080 17885 net.cpp:141] Setting up inception_4d/1x1
I0403 14:57:34.864109 17885 net.cpp:148] Top shape: 24 112 14 14 (526848)
I0403 14:57:34.864125 17885 net.cpp:156] Memory required for data: 1113290016
I0403 14:57:34.864142 17885 layer_factory.hpp:77] Creating layer inception_4d/relu_1x1
I0403 14:57:34.864162 17885 net.cpp:91] Creating Layer inception_4d/relu_1x1
I0403 14:57:34.864179 17885 net.cpp:425] inception_4d/relu_1x1 <- inception_4d/1x1
I0403 14:57:34.864197 17885 net.cpp:386] inception_4d/relu_1x1 -> inception_4d/1x1 (in-place)
I0403 14:57:34.864392 17885 net.cpp:141] Setting up inception_4d/relu_1x1
I0403 14:57:34.864419 17885 net.cpp:148] Top shape: 24 112 14 14 (526848)
I0403 14:57:34.864434 17885 net.cpp:156] Memory required for data: 1115397408
I0403 14:57:34.864449 17885 layer_factory.hpp:77] Creating layer inception_4d/3x3_reduce
I0403 14:57:34.864483 17885 net.cpp:91] Creating Layer inception_4d/3x3_reduce
I0403 14:57:34.864501 17885 net.cpp:425] inception_4d/3x3_reduce <- inception_4c/output_inception_4c/output_0_split_1
I0403 14:57:34.864522 17885 net.cpp:399] inception_4d/3x3_reduce -> inception_4d/3x3_reduce
I0403 14:57:34.866101 17885 net.cpp:141] Setting up inception_4d/3x3_reduce
I0403 14:57:34.866127 17885 net.cpp:148] Top shape: 24 144 14 14 (677376)
I0403 14:57:34.866142 17885 net.cpp:156] Memory required for data: 1118106912
I0403 14:57:34.866160 17885 layer_factory.hpp:77] Creating layer inception_4d/relu_3x3_reduce
I0403 14:57:34.866178 17885 net.cpp:91] Creating Layer inception_4d/relu_3x3_reduce
I0403 14:57:34.866194 17885 net.cpp:425] inception_4d/relu_3x3_reduce <- inception_4d/3x3_reduce
I0403 14:57:34.866215 17885 net.cpp:386] inception_4d/relu_3x3_reduce -> inception_4d/3x3_reduce (in-place)
I0403 14:57:34.866508 17885 net.cpp:141] Setting up inception_4d/relu_3x3_reduce
I0403 14:57:34.866534 17885 net.cpp:148] Top shape: 24 144 14 14 (677376)
I0403 14:57:34.866549 17885 net.cpp:156] Memory required for data: 1120816416
I0403 14:57:34.866564 17885 layer_factory.hpp:77] Creating layer inception_4d/3x3
I0403 14:57:34.866585 17885 net.cpp:91] Creating Layer inception_4d/3x3
I0403 14:57:34.866602 17885 net.cpp:425] inception_4d/3x3 <- inception_4d/3x3_reduce
I0403 14:57:34.866623 17885 net.cpp:399] inception_4d/3x3 -> inception_4d/3x3
I0403 14:57:34.871033 17885 net.cpp:141] Setting up inception_4d/3x3
I0403 14:57:34.871062 17885 net.cpp:148] Top shape: 24 288 14 14 (1354752)
I0403 14:57:34.871078 17885 net.cpp:156] Memory required for data: 1126235424
I0403 14:57:34.871098 17885 layer_factory.hpp:77] Creating layer inception_4d/relu_3x3
I0403 14:57:34.871117 17885 net.cpp:91] Creating Layer inception_4d/relu_3x3
I0403 14:57:34.871135 17885 net.cpp:425] inception_4d/relu_3x3 <- inception_4d/3x3
I0403 14:57:34.871153 17885 net.cpp:386] inception_4d/relu_3x3 -> inception_4d/3x3 (in-place)
I0403 14:57:34.871347 17885 net.cpp:141] Setting up inception_4d/relu_3x3
I0403 14:57:34.871372 17885 net.cpp:148] Top shape: 24 288 14 14 (1354752)
I0403 14:57:34.871387 17885 net.cpp:156] Memory required for data: 1131654432
I0403 14:57:34.871402 17885 layer_factory.hpp:77] Creating layer inception_4d/5x5_reduce
I0403 14:57:34.871428 17885 net.cpp:91] Creating Layer inception_4d/5x5_reduce
I0403 14:57:34.871444 17885 net.cpp:425] inception_4d/5x5_reduce <- inception_4c/output_inception_4c/output_0_split_2
I0403 14:57:34.871464 17885 net.cpp:399] inception_4d/5x5_reduce -> inception_4d/5x5_reduce
I0403 14:57:34.872661 17885 net.cpp:141] Setting up inception_4d/5x5_reduce
I0403 14:57:34.872689 17885 net.cpp:148] Top shape: 24 32 14 14 (150528)
I0403 14:57:34.872704 17885 net.cpp:156] Memory required for data: 1132256544
I0403 14:57:34.872722 17885 layer_factory.hpp:77] Creating layer inception_4d/relu_5x5_reduce
I0403 14:57:34.872741 17885 net.cpp:91] Creating Layer inception_4d/relu_5x5_reduce
I0403 14:57:34.872758 17885 net.cpp:425] inception_4d/relu_5x5_reduce <- inception_4d/5x5_reduce
I0403 14:57:34.872776 17885 net.cpp:386] inception_4d/relu_5x5_reduce -> inception_4d/5x5_reduce (in-place)
I0403 14:57:34.872967 17885 net.cpp:141] Setting up inception_4d/relu_5x5_reduce
I0403 14:57:34.872994 17885 net.cpp:148] Top shape: 24 32 14 14 (150528)
I0403 14:57:34.873009 17885 net.cpp:156] Memory required for data: 1132858656
I0403 14:57:34.873024 17885 layer_factory.hpp:77] Creating layer inception_4d/5x5
I0403 14:57:34.873046 17885 net.cpp:91] Creating Layer inception_4d/5x5
I0403 14:57:34.873064 17885 net.cpp:425] inception_4d/5x5 <- inception_4d/5x5_reduce
I0403 14:57:34.873081 17885 net.cpp:399] inception_4d/5x5 -> inception_4d/5x5
I0403 14:57:34.874611 17885 net.cpp:141] Setting up inception_4d/5x5
I0403 14:57:34.874640 17885 net.cpp:148] Top shape: 24 64 14 14 (301056)
I0403 14:57:34.874656 17885 net.cpp:156] Memory required for data: 1134062880
I0403 14:57:34.874675 17885 layer_factory.hpp:77] Creating layer inception_4d/relu_5x5
I0403 14:57:34.874707 17885 net.cpp:91] Creating Layer inception_4d/relu_5x5
I0403 14:57:34.874723 17885 net.cpp:425] inception_4d/relu_5x5 <- inception_4d/5x5
I0403 14:57:34.874740 17885 net.cpp:386] inception_4d/relu_5x5 -> inception_4d/5x5 (in-place)
I0403 14:57:34.875048 17885 net.cpp:141] Setting up inception_4d/relu_5x5
I0403 14:57:34.875077 17885 net.cpp:148] Top shape: 24 64 14 14 (301056)
I0403 14:57:34.875093 17885 net.cpp:156] Memory required for data: 1135267104
I0403 14:57:34.875108 17885 layer_factory.hpp:77] Creating layer inception_4d/pool
I0403 14:57:34.875125 17885 net.cpp:91] Creating Layer inception_4d/pool
I0403 14:57:34.875141 17885 net.cpp:425] inception_4d/pool <- inception_4c/output_inception_4c/output_0_split_3
I0403 14:57:34.875160 17885 net.cpp:399] inception_4d/pool -> inception_4d/pool
I0403 14:57:34.875227 17885 net.cpp:141] Setting up inception_4d/pool
I0403 14:57:34.875252 17885 net.cpp:148] Top shape: 24 512 14 14 (2408448)
I0403 14:57:34.875265 17885 net.cpp:156] Memory required for data: 1144900896
I0403 14:57:34.875279 17885 layer_factory.hpp:77] Creating layer inception_4d/pool_proj
I0403 14:57:34.875304 17885 net.cpp:91] Creating Layer inception_4d/pool_proj
I0403 14:57:34.875321 17885 net.cpp:425] inception_4d/pool_proj <- inception_4d/pool
I0403 14:57:34.875342 17885 net.cpp:399] inception_4d/pool_proj -> inception_4d/pool_proj
I0403 14:57:34.877118 17885 net.cpp:141] Setting up inception_4d/pool_proj
I0403 14:57:34.877147 17885 net.cpp:148] Top shape: 24 64 14 14 (301056)
I0403 14:57:34.877162 17885 net.cpp:156] Memory required for data: 1146105120
I0403 14:57:34.877182 17885 layer_factory.hpp:77] Creating layer inception_4d/relu_pool_proj
I0403 14:57:34.877202 17885 net.cpp:91] Creating Layer inception_4d/relu_pool_proj
I0403 14:57:34.877219 17885 net.cpp:425] inception_4d/relu_pool_proj <- inception_4d/pool_proj
I0403 14:57:34.877236 17885 net.cpp:386] inception_4d/relu_pool_proj -> inception_4d/pool_proj (in-place)
I0403 14:57:34.877424 17885 net.cpp:141] Setting up inception_4d/relu_pool_proj
I0403 14:57:34.877449 17885 net.cpp:148] Top shape: 24 64 14 14 (301056)
I0403 14:57:34.877462 17885 net.cpp:156] Memory required for data: 1147309344
I0403 14:57:34.877476 17885 layer_factory.hpp:77] Creating layer inception_4d/output
I0403 14:57:34.877496 17885 net.cpp:91] Creating Layer inception_4d/output
I0403 14:57:34.877511 17885 net.cpp:425] inception_4d/output <- inception_4d/1x1
I0403 14:57:34.877527 17885 net.cpp:425] inception_4d/output <- inception_4d/3x3
I0403 14:57:34.877543 17885 net.cpp:425] inception_4d/output <- inception_4d/5x5
I0403 14:57:34.877558 17885 net.cpp:425] inception_4d/output <- inception_4d/pool_proj
I0403 14:57:34.877575 17885 net.cpp:399] inception_4d/output -> inception_4d/output
I0403 14:57:34.877624 17885 net.cpp:141] Setting up inception_4d/output
I0403 14:57:34.877646 17885 net.cpp:148] Top shape: 24 528 14 14 (2483712)
I0403 14:57:34.877660 17885 net.cpp:156] Memory required for data: 1157244192
I0403 14:57:34.877674 17885 layer_factory.hpp:77] Creating layer inception_4d/output_inception_4d/output_0_split
I0403 14:57:34.877691 17885 net.cpp:91] Creating Layer inception_4d/output_inception_4d/output_0_split
I0403 14:57:34.877707 17885 net.cpp:425] inception_4d/output_inception_4d/output_0_split <- inception_4d/output
I0403 14:57:34.877727 17885 net.cpp:399] inception_4d/output_inception_4d/output_0_split -> inception_4d/output_inception_4d/output_0_split_0
I0403 14:57:34.877748 17885 net.cpp:399] inception_4d/output_inception_4d/output_0_split -> inception_4d/output_inception_4d/output_0_split_1
I0403 14:57:34.877768 17885 net.cpp:399] inception_4d/output_inception_4d/output_0_split -> inception_4d/output_inception_4d/output_0_split_2
I0403 14:57:34.877791 17885 net.cpp:399] inception_4d/output_inception_4d/output_0_split -> inception_4d/output_inception_4d/output_0_split_3
I0403 14:57:34.877810 17885 net.cpp:399] inception_4d/output_inception_4d/output_0_split -> inception_4d/output_inception_4d/output_0_split_4
I0403 14:57:34.877910 17885 net.cpp:141] Setting up inception_4d/output_inception_4d/output_0_split
I0403 14:57:34.877945 17885 net.cpp:148] Top shape: 24 528 14 14 (2483712)
I0403 14:57:34.877967 17885 net.cpp:148] Top shape: 24 528 14 14 (2483712)
I0403 14:57:34.877982 17885 net.cpp:148] Top shape: 24 528 14 14 (2483712)
I0403 14:57:34.877997 17885 net.cpp:148] Top shape: 24 528 14 14 (2483712)
I0403 14:57:34.878012 17885 net.cpp:148] Top shape: 24 528 14 14 (2483712)
I0403 14:57:34.878026 17885 net.cpp:156] Memory required for data: 1206918432
I0403 14:57:34.878039 17885 layer_factory.hpp:77] Creating layer loss2/ave_pool
I0403 14:57:34.878057 17885 net.cpp:91] Creating Layer loss2/ave_pool
I0403 14:57:34.878072 17885 net.cpp:425] loss2/ave_pool <- inception_4d/output_inception_4d/output_0_split_0
I0403 14:57:34.878093 17885 net.cpp:399] loss2/ave_pool -> loss2/ave_pool
I0403 14:57:34.878410 17885 net.cpp:141] Setting up loss2/ave_pool
I0403 14:57:34.878437 17885 net.cpp:148] Top shape: 24 528 4 4 (202752)
I0403 14:57:34.878451 17885 net.cpp:156] Memory required for data: 1207729440
I0403 14:57:34.878465 17885 layer_factory.hpp:77] Creating layer loss2/conv
I0403 14:57:34.878486 17885 net.cpp:91] Creating Layer loss2/conv
I0403 14:57:34.878504 17885 net.cpp:425] loss2/conv <- loss2/ave_pool
I0403 14:57:34.878525 17885 net.cpp:399] loss2/conv -> loss2/conv
I0403 14:57:34.880466 17885 net.cpp:141] Setting up loss2/conv
I0403 14:57:34.880496 17885 net.cpp:148] Top shape: 24 128 4 4 (49152)
I0403 14:57:34.880512 17885 net.cpp:156] Memory required for data: 1207926048
I0403 14:57:34.880532 17885 layer_factory.hpp:77] Creating layer loss2/relu_conv
I0403 14:57:34.880548 17885 net.cpp:91] Creating Layer loss2/relu_conv
I0403 14:57:34.880564 17885 net.cpp:425] loss2/relu_conv <- loss2/conv
I0403 14:57:34.880584 17885 net.cpp:386] loss2/relu_conv -> loss2/conv (in-place)
I0403 14:57:34.880872 17885 net.cpp:141] Setting up loss2/relu_conv
I0403 14:57:34.880899 17885 net.cpp:148] Top shape: 24 128 4 4 (49152)
I0403 14:57:34.880915 17885 net.cpp:156] Memory required for data: 1208122656
I0403 14:57:34.880930 17885 layer_factory.hpp:77] Creating layer loss2/fc
I0403 14:57:34.880949 17885 net.cpp:91] Creating Layer loss2/fc
I0403 14:57:34.880970 17885 net.cpp:425] loss2/fc <- loss2/conv
I0403 14:57:34.880992 17885 net.cpp:399] loss2/fc -> loss2/fc
I0403 14:57:34.898648 17885 net.cpp:141] Setting up loss2/fc
I0403 14:57:34.898705 17885 net.cpp:148] Top shape: 24 1024 (24576)
I0403 14:57:34.898720 17885 net.cpp:156] Memory required for data: 1208220960
I0403 14:57:34.898739 17885 layer_factory.hpp:77] Creating layer loss2/relu_fc
I0403 14:57:34.898761 17885 net.cpp:91] Creating Layer loss2/relu_fc
I0403 14:57:34.898778 17885 net.cpp:425] loss2/relu_fc <- loss2/fc
I0403 14:57:34.898797 17885 net.cpp:386] loss2/relu_fc -> loss2/fc (in-place)
I0403 14:57:34.899147 17885 net.cpp:141] Setting up loss2/relu_fc
I0403 14:57:34.899173 17885 net.cpp:148] Top shape: 24 1024 (24576)
I0403 14:57:34.899188 17885 net.cpp:156] Memory required for data: 1208319264
I0403 14:57:34.899202 17885 layer_factory.hpp:77] Creating layer loss2/drop_fc
I0403 14:57:34.899224 17885 net.cpp:91] Creating Layer loss2/drop_fc
I0403 14:57:34.899240 17885 net.cpp:425] loss2/drop_fc <- loss2/fc
I0403 14:57:34.899256 17885 net.cpp:386] loss2/drop_fc -> loss2/fc (in-place)
I0403 14:57:34.899308 17885 net.cpp:141] Setting up loss2/drop_fc
I0403 14:57:34.899330 17885 net.cpp:148] Top shape: 24 1024 (24576)
I0403 14:57:34.899343 17885 net.cpp:156] Memory required for data: 1208417568
I0403 14:57:34.899358 17885 layer_factory.hpp:77] Creating layer loss2/classifier_plantvillage
I0403 14:57:34.899377 17885 net.cpp:91] Creating Layer loss2/classifier_plantvillage
I0403 14:57:34.899392 17885 net.cpp:425] loss2/classifier_plantvillage <- loss2/fc
I0403 14:57:34.899415 17885 net.cpp:399] loss2/classifier_plantvillage -> loss2/classifier_plantvillage
I0403 14:57:34.899827 17885 net.cpp:141] Setting up loss2/classifier_plantvillage
I0403 14:57:34.899852 17885 net.cpp:148] Top shape: 24 38 (912)
I0403 14:57:34.899890 17885 net.cpp:156] Memory required for data: 1208421216
I0403 14:57:34.899909 17885 layer_factory.hpp:77] Creating layer loss2/classifier_plantvillage_loss2/classifier_plantvillage_0_split
I0403 14:57:34.899926 17885 net.cpp:91] Creating Layer loss2/classifier_plantvillage_loss2/classifier_plantvillage_0_split
I0403 14:57:34.899942 17885 net.cpp:425] loss2/classifier_plantvillage_loss2/classifier_plantvillage_0_split <- loss2/classifier_plantvillage
I0403 14:57:34.899966 17885 net.cpp:399] loss2/classifier_plantvillage_loss2/classifier_plantvillage_0_split -> loss2/classifier_plantvillage_loss2/classifier_plantvillage_0_split_0
I0403 14:57:34.899988 17885 net.cpp:399] loss2/classifier_plantvillage_loss2/classifier_plantvillage_0_split -> loss2/classifier_plantvillage_loss2/classifier_plantvillage_0_split_1
I0403 14:57:34.900008 17885 net.cpp:399] loss2/classifier_plantvillage_loss2/classifier_plantvillage_0_split -> loss2/classifier_plantvillage_loss2/classifier_plantvillage_0_split_2
I0403 14:57:34.900084 17885 net.cpp:141] Setting up loss2/classifier_plantvillage_loss2/classifier_plantvillage_0_split
I0403 14:57:34.900107 17885 net.cpp:148] Top shape: 24 38 (912)
I0403 14:57:34.900123 17885 net.cpp:148] Top shape: 24 38 (912)
I0403 14:57:34.900138 17885 net.cpp:148] Top shape: 24 38 (912)
I0403 14:57:34.900151 17885 net.cpp:156] Memory required for data: 1208432160
I0403 14:57:34.900166 17885 layer_factory.hpp:77] Creating layer inception_4e/1x1
I0403 14:57:34.900188 17885 net.cpp:91] Creating Layer inception_4e/1x1
I0403 14:57:34.900207 17885 net.cpp:425] inception_4e/1x1 <- inception_4d/output_inception_4d/output_0_split_1
I0403 14:57:34.900224 17885 net.cpp:399] inception_4e/1x1 -> inception_4e/1x1
I0403 14:57:34.902089 17885 net.cpp:141] Setting up inception_4e/1x1
I0403 14:57:34.902117 17885 net.cpp:148] Top shape: 24 256 14 14 (1204224)
I0403 14:57:34.902132 17885 net.cpp:156] Memory required for data: 1213249056
I0403 14:57:34.902150 17885 layer_factory.hpp:77] Creating layer inception_4e/relu_1x1
I0403 14:57:34.902168 17885 net.cpp:91] Creating Layer inception_4e/relu_1x1
I0403 14:57:34.902184 17885 net.cpp:425] inception_4e/relu_1x1 <- inception_4e/1x1
I0403 14:57:34.902204 17885 net.cpp:386] inception_4e/relu_1x1 -> inception_4e/1x1 (in-place)
I0403 14:57:34.902508 17885 net.cpp:141] Setting up inception_4e/relu_1x1
I0403 14:57:34.902534 17885 net.cpp:148] Top shape: 24 256 14 14 (1204224)
I0403 14:57:34.902549 17885 net.cpp:156] Memory required for data: 1218065952
I0403 14:57:34.902562 17885 layer_factory.hpp:77] Creating layer inception_4e/3x3_reduce
I0403 14:57:34.902585 17885 net.cpp:91] Creating Layer inception_4e/3x3_reduce
I0403 14:57:34.902601 17885 net.cpp:425] inception_4e/3x3_reduce <- inception_4d/output_inception_4d/output_0_split_2
I0403 14:57:34.902622 17885 net.cpp:399] inception_4e/3x3_reduce -> inception_4e/3x3_reduce
I0403 14:57:34.904852 17885 net.cpp:141] Setting up inception_4e/3x3_reduce
I0403 14:57:34.904883 17885 net.cpp:148] Top shape: 24 160 14 14 (752640)
I0403 14:57:34.904899 17885 net.cpp:156] Memory required for data: 1221076512
I0403 14:57:34.904991 17885 layer_factory.hpp:77] Creating layer inception_4e/relu_3x3_reduce
I0403 14:57:34.905012 17885 net.cpp:91] Creating Layer inception_4e/relu_3x3_reduce
I0403 14:57:34.905028 17885 net.cpp:425] inception_4e/relu_3x3_reduce <- inception_4e/3x3_reduce
I0403 14:57:34.905047 17885 net.cpp:386] inception_4e/relu_3x3_reduce -> inception_4e/3x3_reduce (in-place)
I0403 14:57:34.905236 17885 net.cpp:141] Setting up inception_4e/relu_3x3_reduce
I0403 14:57:34.905261 17885 net.cpp:148] Top shape: 24 160 14 14 (752640)
I0403 14:57:34.905274 17885 net.cpp:156] Memory required for data: 1224087072
I0403 14:57:34.905289 17885 layer_factory.hpp:77] Creating layer inception_4e/3x3
I0403 14:57:34.905311 17885 net.cpp:91] Creating Layer inception_4e/3x3
I0403 14:57:34.905328 17885 net.cpp:425] inception_4e/3x3 <- inception_4e/3x3_reduce
I0403 14:57:34.905349 17885 net.cpp:399] inception_4e/3x3 -> inception_4e/3x3
I0403 14:57:34.910409 17885 net.cpp:141] Setting up inception_4e/3x3
I0403 14:57:34.910450 17885 net.cpp:148] Top shape: 24 320 14 14 (1505280)
I0403 14:57:34.910466 17885 net.cpp:156] Memory required for data: 1230108192
I0403 14:57:34.910485 17885 layer_factory.hpp:77] Creating layer inception_4e/relu_3x3
I0403 14:57:34.910502 17885 net.cpp:91] Creating Layer inception_4e/relu_3x3
I0403 14:57:34.910518 17885 net.cpp:425] inception_4e/relu_3x3 <- inception_4e/3x3
I0403 14:57:34.910537 17885 net.cpp:386] inception_4e/relu_3x3 -> inception_4e/3x3 (in-place)
I0403 14:57:34.910845 17885 net.cpp:141] Setting up inception_4e/relu_3x3
I0403 14:57:34.910871 17885 net.cpp:148] Top shape: 24 320 14 14 (1505280)
I0403 14:57:34.910886 17885 net.cpp:156] Memory required for data: 1236129312
I0403 14:57:34.910900 17885 layer_factory.hpp:77] Creating layer inception_4e/5x5_reduce
I0403 14:57:34.910925 17885 net.cpp:91] Creating Layer inception_4e/5x5_reduce
I0403 14:57:34.910943 17885 net.cpp:425] inception_4e/5x5_reduce <- inception_4d/output_inception_4d/output_0_split_3
I0403 14:57:34.910969 17885 net.cpp:399] inception_4e/5x5_reduce -> inception_4e/5x5_reduce
I0403 14:57:34.912057 17885 net.cpp:141] Setting up inception_4e/5x5_reduce
I0403 14:57:34.912086 17885 net.cpp:148] Top shape: 24 32 14 14 (150528)
I0403 14:57:34.912102 17885 net.cpp:156] Memory required for data: 1236731424
I0403 14:57:34.912120 17885 layer_factory.hpp:77] Creating layer inception_4e/relu_5x5_reduce
I0403 14:57:34.912138 17885 net.cpp:91] Creating Layer inception_4e/relu_5x5_reduce
I0403 14:57:34.912154 17885 net.cpp:425] inception_4e/relu_5x5_reduce <- inception_4e/5x5_reduce
I0403 14:57:34.912171 17885 net.cpp:386] inception_4e/relu_5x5_reduce -> inception_4e/5x5_reduce (in-place)
I0403 14:57:34.912473 17885 net.cpp:141] Setting up inception_4e/relu_5x5_reduce
I0403 14:57:34.912503 17885 net.cpp:148] Top shape: 24 32 14 14 (150528)
I0403 14:57:34.912518 17885 net.cpp:156] Memory required for data: 1237333536
I0403 14:57:34.912531 17885 layer_factory.hpp:77] Creating layer inception_4e/5x5
I0403 14:57:34.912571 17885 net.cpp:91] Creating Layer inception_4e/5x5
I0403 14:57:34.912590 17885 net.cpp:425] inception_4e/5x5 <- inception_4e/5x5_reduce
I0403 14:57:34.912609 17885 net.cpp:399] inception_4e/5x5 -> inception_4e/5x5
I0403 14:57:34.914480 17885 net.cpp:141] Setting up inception_4e/5x5
I0403 14:57:34.914507 17885 net.cpp:148] Top shape: 24 128 14 14 (602112)
I0403 14:57:34.914522 17885 net.cpp:156] Memory required for data: 1239741984
I0403 14:57:34.914541 17885 layer_factory.hpp:77] Creating layer inception_4e/relu_5x5
I0403 14:57:34.914562 17885 net.cpp:91] Creating Layer inception_4e/relu_5x5
I0403 14:57:34.914578 17885 net.cpp:425] inception_4e/relu_5x5 <- inception_4e/5x5
I0403 14:57:34.914595 17885 net.cpp:386] inception_4e/relu_5x5 -> inception_4e/5x5 (in-place)
I0403 14:57:34.914794 17885 net.cpp:141] Setting up inception_4e/relu_5x5
I0403 14:57:34.914821 17885 net.cpp:148] Top shape: 24 128 14 14 (602112)
I0403 14:57:34.914835 17885 net.cpp:156] Memory required for data: 1242150432
I0403 14:57:34.914849 17885 layer_factory.hpp:77] Creating layer inception_4e/pool
I0403 14:57:34.914870 17885 net.cpp:91] Creating Layer inception_4e/pool
I0403 14:57:34.914885 17885 net.cpp:425] inception_4e/pool <- inception_4d/output_inception_4d/output_0_split_4
I0403 14:57:34.914904 17885 net.cpp:399] inception_4e/pool -> inception_4e/pool
I0403 14:57:34.914979 17885 net.cpp:141] Setting up inception_4e/pool
I0403 14:57:34.915002 17885 net.cpp:148] Top shape: 24 528 14 14 (2483712)
I0403 14:57:34.915016 17885 net.cpp:156] Memory required for data: 1252085280
I0403 14:57:34.915030 17885 layer_factory.hpp:77] Creating layer inception_4e/pool_proj
I0403 14:57:34.915052 17885 net.cpp:91] Creating Layer inception_4e/pool_proj
I0403 14:57:34.915068 17885 net.cpp:425] inception_4e/pool_proj <- inception_4e/pool
I0403 14:57:34.915088 17885 net.cpp:399] inception_4e/pool_proj -> inception_4e/pool_proj
I0403 14:57:34.916654 17885 net.cpp:141] Setting up inception_4e/pool_proj
I0403 14:57:34.916694 17885 net.cpp:148] Top shape: 24 128 14 14 (602112)
I0403 14:57:34.916712 17885 net.cpp:156] Memory required for data: 1254493728
I0403 14:57:34.916729 17885 layer_factory.hpp:77] Creating layer inception_4e/relu_pool_proj
I0403 14:57:34.916750 17885 net.cpp:91] Creating Layer inception_4e/relu_pool_proj
I0403 14:57:34.916767 17885 net.cpp:425] inception_4e/relu_pool_proj <- inception_4e/pool_proj
I0403 14:57:34.916785 17885 net.cpp:386] inception_4e/relu_pool_proj -> inception_4e/pool_proj (in-place)
I0403 14:57:34.917100 17885 net.cpp:141] Setting up inception_4e/relu_pool_proj
I0403 14:57:34.917127 17885 net.cpp:148] Top shape: 24 128 14 14 (602112)
I0403 14:57:34.917142 17885 net.cpp:156] Memory required for data: 1256902176
I0403 14:57:34.917157 17885 layer_factory.hpp:77] Creating layer inception_4e/output
I0403 14:57:34.917178 17885 net.cpp:91] Creating Layer inception_4e/output
I0403 14:57:34.917196 17885 net.cpp:425] inception_4e/output <- inception_4e/1x1
I0403 14:57:34.917213 17885 net.cpp:425] inception_4e/output <- inception_4e/3x3
I0403 14:57:34.917229 17885 net.cpp:425] inception_4e/output <- inception_4e/5x5
I0403 14:57:34.917244 17885 net.cpp:425] inception_4e/output <- inception_4e/pool_proj
I0403 14:57:34.917261 17885 net.cpp:399] inception_4e/output -> inception_4e/output
I0403 14:57:34.917315 17885 net.cpp:141] Setting up inception_4e/output
I0403 14:57:34.917338 17885 net.cpp:148] Top shape: 24 832 14 14 (3913728)
I0403 14:57:34.917352 17885 net.cpp:156] Memory required for data: 1272557088
I0403 14:57:34.917367 17885 layer_factory.hpp:77] Creating layer pool4/3x3_s2
I0403 14:57:34.917384 17885 net.cpp:91] Creating Layer pool4/3x3_s2
I0403 14:57:34.917400 17885 net.cpp:425] pool4/3x3_s2 <- inception_4e/output
I0403 14:57:34.917421 17885 net.cpp:399] pool4/3x3_s2 -> pool4/3x3_s2
I0403 14:57:34.917490 17885 net.cpp:141] Setting up pool4/3x3_s2
I0403 14:57:34.917520 17885 net.cpp:148] Top shape: 24 832 7 7 (978432)
I0403 14:57:34.917536 17885 net.cpp:156] Memory required for data: 1276470816
I0403 14:57:34.917549 17885 layer_factory.hpp:77] Creating layer pool4/3x3_s2_pool4/3x3_s2_0_split
I0403 14:57:34.917567 17885 net.cpp:91] Creating Layer pool4/3x3_s2_pool4/3x3_s2_0_split
I0403 14:57:34.917582 17885 net.cpp:425] pool4/3x3_s2_pool4/3x3_s2_0_split <- pool4/3x3_s2
I0403 14:57:34.917599 17885 net.cpp:399] pool4/3x3_s2_pool4/3x3_s2_0_split -> pool4/3x3_s2_pool4/3x3_s2_0_split_0
I0403 14:57:34.917621 17885 net.cpp:399] pool4/3x3_s2_pool4/3x3_s2_0_split -> pool4/3x3_s2_pool4/3x3_s2_0_split_1
I0403 14:57:34.917644 17885 net.cpp:399] pool4/3x3_s2_pool4/3x3_s2_0_split -> pool4/3x3_s2_pool4/3x3_s2_0_split_2
I0403 14:57:34.917664 17885 net.cpp:399] pool4/3x3_s2_pool4/3x3_s2_0_split -> pool4/3x3_s2_pool4/3x3_s2_0_split_3
I0403 14:57:34.917757 17885 net.cpp:141] Setting up pool4/3x3_s2_pool4/3x3_s2_0_split
I0403 14:57:34.917779 17885 net.cpp:148] Top shape: 24 832 7 7 (978432)
I0403 14:57:34.917795 17885 net.cpp:148] Top shape: 24 832 7 7 (978432)
I0403 14:57:34.917810 17885 net.cpp:148] Top shape: 24 832 7 7 (978432)
I0403 14:57:34.917826 17885 net.cpp:148] Top shape: 24 832 7 7 (978432)
I0403 14:57:34.917840 17885 net.cpp:156] Memory required for data: 1292125728
I0403 14:57:34.917855 17885 layer_factory.hpp:77] Creating layer inception_5a/1x1
I0403 14:57:34.917876 17885 net.cpp:91] Creating Layer inception_5a/1x1
I0403 14:57:34.917893 17885 net.cpp:425] inception_5a/1x1 <- pool4/3x3_s2_pool4/3x3_s2_0_split_0
I0403 14:57:34.917915 17885 net.cpp:399] inception_5a/1x1 -> inception_5a/1x1
I0403 14:57:34.920873 17885 net.cpp:141] Setting up inception_5a/1x1
I0403 14:57:34.920902 17885 net.cpp:148] Top shape: 24 256 7 7 (301056)
I0403 14:57:34.920917 17885 net.cpp:156] Memory required for data: 1293329952
I0403 14:57:34.920936 17885 layer_factory.hpp:77] Creating layer inception_5a/relu_1x1
I0403 14:57:34.920960 17885 net.cpp:91] Creating Layer inception_5a/relu_1x1
I0403 14:57:34.920979 17885 net.cpp:425] inception_5a/relu_1x1 <- inception_5a/1x1
I0403 14:57:34.920996 17885 net.cpp:386] inception_5a/relu_1x1 -> inception_5a/1x1 (in-place)
I0403 14:57:34.921321 17885 net.cpp:141] Setting up inception_5a/relu_1x1
I0403 14:57:34.921349 17885 net.cpp:148] Top shape: 24 256 7 7 (301056)
I0403 14:57:34.921363 17885 net.cpp:156] Memory required for data: 1294534176
I0403 14:57:34.921378 17885 layer_factory.hpp:77] Creating layer inception_5a/3x3_reduce
I0403 14:57:34.921402 17885 net.cpp:91] Creating Layer inception_5a/3x3_reduce
I0403 14:57:34.921421 17885 net.cpp:425] inception_5a/3x3_reduce <- pool4/3x3_s2_pool4/3x3_s2_0_split_1
I0403 14:57:34.921439 17885 net.cpp:399] inception_5a/3x3_reduce -> inception_5a/3x3_reduce
I0403 14:57:34.923987 17885 net.cpp:141] Setting up inception_5a/3x3_reduce
I0403 14:57:34.924016 17885 net.cpp:148] Top shape: 24 160 7 7 (188160)
I0403 14:57:34.924032 17885 net.cpp:156] Memory required for data: 1295286816
I0403 14:57:34.924052 17885 layer_factory.hpp:77] Creating layer inception_5a/relu_3x3_reduce
I0403 14:57:34.924073 17885 net.cpp:91] Creating Layer inception_5a/relu_3x3_reduce
I0403 14:57:34.924090 17885 net.cpp:425] inception_5a/relu_3x3_reduce <- inception_5a/3x3_reduce
I0403 14:57:34.924108 17885 net.cpp:386] inception_5a/relu_3x3_reduce -> inception_5a/3x3_reduce (in-place)
I0403 14:57:34.924302 17885 net.cpp:141] Setting up inception_5a/relu_3x3_reduce
I0403 14:57:34.924329 17885 net.cpp:148] Top shape: 24 160 7 7 (188160)
I0403 14:57:34.924342 17885 net.cpp:156] Memory required for data: 1296039456
I0403 14:57:34.924357 17885 layer_factory.hpp:77] Creating layer inception_5a/3x3
I0403 14:57:34.924382 17885 net.cpp:91] Creating Layer inception_5a/3x3
I0403 14:57:34.924401 17885 net.cpp:425] inception_5a/3x3 <- inception_5a/3x3_reduce
I0403 14:57:34.924418 17885 net.cpp:399] inception_5a/3x3 -> inception_5a/3x3
I0403 14:57:34.929638 17885 net.cpp:141] Setting up inception_5a/3x3
I0403 14:57:34.929669 17885 net.cpp:148] Top shape: 24 320 7 7 (376320)
I0403 14:57:34.929688 17885 net.cpp:156] Memory required for data: 1297544736
I0403 14:57:34.929708 17885 layer_factory.hpp:77] Creating layer inception_5a/relu_3x3
I0403 14:57:34.929725 17885 net.cpp:91] Creating Layer inception_5a/relu_3x3
I0403 14:57:34.929744 17885 net.cpp:425] inception_5a/relu_3x3 <- inception_5a/3x3
I0403 14:57:34.929761 17885 net.cpp:386] inception_5a/relu_3x3 -> inception_5a/3x3 (in-place)
I0403 14:57:34.930084 17885 net.cpp:141] Setting up inception_5a/relu_3x3
I0403 14:57:34.930114 17885 net.cpp:148] Top shape: 24 320 7 7 (376320)
I0403 14:57:34.930130 17885 net.cpp:156] Memory required for data: 1299050016
I0403 14:57:34.930145 17885 layer_factory.hpp:77] Creating layer inception_5a/5x5_reduce
I0403 14:57:34.930166 17885 net.cpp:91] Creating Layer inception_5a/5x5_reduce
I0403 14:57:34.930182 17885 net.cpp:425] inception_5a/5x5_reduce <- pool4/3x3_s2_pool4/3x3_s2_0_split_2
I0403 14:57:34.930204 17885 net.cpp:399] inception_5a/5x5_reduce -> inception_5a/5x5_reduce
I0403 14:57:34.931434 17885 net.cpp:141] Setting up inception_5a/5x5_reduce
I0403 14:57:34.931465 17885 net.cpp:148] Top shape: 24 32 7 7 (37632)
I0403 14:57:34.931483 17885 net.cpp:156] Memory required for data: 1299200544
I0403 14:57:34.931514 17885 layer_factory.hpp:77] Creating layer inception_5a/relu_5x5_reduce
I0403 14:57:34.931535 17885 net.cpp:91] Creating Layer inception_5a/relu_5x5_reduce
I0403 14:57:34.931551 17885 net.cpp:425] inception_5a/relu_5x5_reduce <- inception_5a/5x5_reduce
I0403 14:57:34.931572 17885 net.cpp:386] inception_5a/relu_5x5_reduce -> inception_5a/5x5_reduce (in-place)
I0403 14:57:34.931897 17885 net.cpp:141] Setting up inception_5a/relu_5x5_reduce
I0403 14:57:34.931927 17885 net.cpp:148] Top shape: 24 32 7 7 (37632)
I0403 14:57:34.931944 17885 net.cpp:156] Memory required for data: 1299351072
I0403 14:57:34.931964 17885 layer_factory.hpp:77] Creating layer inception_5a/5x5
I0403 14:57:34.931988 17885 net.cpp:91] Creating Layer inception_5a/5x5
I0403 14:57:34.932008 17885 net.cpp:425] inception_5a/5x5 <- inception_5a/5x5_reduce
I0403 14:57:34.932027 17885 net.cpp:399] inception_5a/5x5 -> inception_5a/5x5
I0403 14:57:34.933877 17885 net.cpp:141] Setting up inception_5a/5x5
I0403 14:57:34.933920 17885 net.cpp:148] Top shape: 24 128 7 7 (150528)
I0403 14:57:34.933941 17885 net.cpp:156] Memory required for data: 1299953184
I0403 14:57:34.933965 17885 layer_factory.hpp:77] Creating layer inception_5a/relu_5x5
I0403 14:57:34.933986 17885 net.cpp:91] Creating Layer inception_5a/relu_5x5
I0403 14:57:34.934002 17885 net.cpp:425] inception_5a/relu_5x5 <- inception_5a/5x5
I0403 14:57:34.934021 17885 net.cpp:386] inception_5a/relu_5x5 -> inception_5a/5x5 (in-place)
I0403 14:57:34.934253 17885 net.cpp:141] Setting up inception_5a/relu_5x5
I0403 14:57:34.934281 17885 net.cpp:148] Top shape: 24 128 7 7 (150528)
I0403 14:57:34.934298 17885 net.cpp:156] Memory required for data: 1300555296
I0403 14:57:34.934314 17885 layer_factory.hpp:77] Creating layer inception_5a/pool
I0403 14:57:34.934331 17885 net.cpp:91] Creating Layer inception_5a/pool
I0403 14:57:34.934346 17885 net.cpp:425] inception_5a/pool <- pool4/3x3_s2_pool4/3x3_s2_0_split_3
I0403 14:57:34.934367 17885 net.cpp:399] inception_5a/pool -> inception_5a/pool
I0403 14:57:34.934440 17885 net.cpp:141] Setting up inception_5a/pool
I0403 14:57:34.934468 17885 net.cpp:148] Top shape: 24 832 7 7 (978432)
I0403 14:57:34.934483 17885 net.cpp:156] Memory required for data: 1304469024
I0403 14:57:34.934497 17885 layer_factory.hpp:77] Creating layer inception_5a/pool_proj
I0403 14:57:34.934517 17885 net.cpp:91] Creating Layer inception_5a/pool_proj
I0403 14:57:34.934538 17885 net.cpp:425] inception_5a/pool_proj <- inception_5a/pool
I0403 14:57:34.934559 17885 net.cpp:399] inception_5a/pool_proj -> inception_5a/pool_proj
I0403 14:57:34.936935 17885 net.cpp:141] Setting up inception_5a/pool_proj
I0403 14:57:34.936969 17885 net.cpp:148] Top shape: 24 128 7 7 (150528)
I0403 14:57:34.936986 17885 net.cpp:156] Memory required for data: 1305071136
I0403 14:57:34.937005 17885 layer_factory.hpp:77] Creating layer inception_5a/relu_pool_proj
I0403 14:57:34.937024 17885 net.cpp:91] Creating Layer inception_5a/relu_pool_proj
I0403 14:57:34.937041 17885 net.cpp:425] inception_5a/relu_pool_proj <- inception_5a/pool_proj
I0403 14:57:34.937058 17885 net.cpp:386] inception_5a/relu_pool_proj -> inception_5a/pool_proj (in-place)
I0403 14:57:34.937366 17885 net.cpp:141] Setting up inception_5a/relu_pool_proj
I0403 14:57:34.937392 17885 net.cpp:148] Top shape: 24 128 7 7 (150528)
I0403 14:57:34.937407 17885 net.cpp:156] Memory required for data: 1305673248
I0403 14:57:34.937422 17885 layer_factory.hpp:77] Creating layer inception_5a/output
I0403 14:57:34.937441 17885 net.cpp:91] Creating Layer inception_5a/output
I0403 14:57:34.937458 17885 net.cpp:425] inception_5a/output <- inception_5a/1x1
I0403 14:57:34.937475 17885 net.cpp:425] inception_5a/output <- inception_5a/3x3
I0403 14:57:34.937491 17885 net.cpp:425] inception_5a/output <- inception_5a/5x5
I0403 14:57:34.937508 17885 net.cpp:425] inception_5a/output <- inception_5a/pool_proj
I0403 14:57:34.937525 17885 net.cpp:399] inception_5a/output -> inception_5a/output
I0403 14:57:34.937579 17885 net.cpp:141] Setting up inception_5a/output
I0403 14:57:34.937602 17885 net.cpp:148] Top shape: 24 832 7 7 (978432)
I0403 14:57:34.937616 17885 net.cpp:156] Memory required for data: 1309586976
I0403 14:57:34.937631 17885 layer_factory.hpp:77] Creating layer inception_5a/output_inception_5a/output_0_split
I0403 14:57:34.937649 17885 net.cpp:91] Creating Layer inception_5a/output_inception_5a/output_0_split
I0403 14:57:34.937664 17885 net.cpp:425] inception_5a/output_inception_5a/output_0_split <- inception_5a/output
I0403 14:57:34.937683 17885 net.cpp:399] inception_5a/output_inception_5a/output_0_split -> inception_5a/output_inception_5a/output_0_split_0
I0403 14:57:34.937705 17885 net.cpp:399] inception_5a/output_inception_5a/output_0_split -> inception_5a/output_inception_5a/output_0_split_1
I0403 14:57:34.937726 17885 net.cpp:399] inception_5a/output_inception_5a/output_0_split -> inception_5a/output_inception_5a/output_0_split_2
I0403 14:57:34.937747 17885 net.cpp:399] inception_5a/output_inception_5a/output_0_split -> inception_5a/output_inception_5a/output_0_split_3
I0403 14:57:34.937863 17885 net.cpp:141] Setting up inception_5a/output_inception_5a/output_0_split
I0403 14:57:34.937890 17885 net.cpp:148] Top shape: 24 832 7 7 (978432)
I0403 14:57:34.937907 17885 net.cpp:148] Top shape: 24 832 7 7 (978432)
I0403 14:57:34.937922 17885 net.cpp:148] Top shape: 24 832 7 7 (978432)
I0403 14:57:34.937937 17885 net.cpp:148] Top shape: 24 832 7 7 (978432)
I0403 14:57:34.937950 17885 net.cpp:156] Memory required for data: 1325241888
I0403 14:57:34.937970 17885 layer_factory.hpp:77] Creating layer inception_5b/1x1
I0403 14:57:34.937993 17885 net.cpp:91] Creating Layer inception_5b/1x1
I0403 14:57:34.938010 17885 net.cpp:425] inception_5b/1x1 <- inception_5a/output_inception_5a/output_0_split_0
I0403 14:57:34.938030 17885 net.cpp:399] inception_5b/1x1 -> inception_5b/1x1
I0403 14:57:34.941941 17885 net.cpp:141] Setting up inception_5b/1x1
I0403 14:57:34.941977 17885 net.cpp:148] Top shape: 24 384 7 7 (451584)
I0403 14:57:34.941992 17885 net.cpp:156] Memory required for data: 1327048224
I0403 14:57:34.942014 17885 layer_factory.hpp:77] Creating layer inception_5b/relu_1x1
I0403 14:57:34.942035 17885 net.cpp:91] Creating Layer inception_5b/relu_1x1
I0403 14:57:34.942052 17885 net.cpp:425] inception_5b/relu_1x1 <- inception_5b/1x1
I0403 14:57:34.942070 17885 net.cpp:386] inception_5b/relu_1x1 -> inception_5b/1x1 (in-place)
I0403 14:57:34.942390 17885 net.cpp:141] Setting up inception_5b/relu_1x1
I0403 14:57:34.942417 17885 net.cpp:148] Top shape: 24 384 7 7 (451584)
I0403 14:57:34.942432 17885 net.cpp:156] Memory required for data: 1328854560
I0403 14:57:34.942447 17885 layer_factory.hpp:77] Creating layer inception_5b/3x3_reduce
I0403 14:57:34.942471 17885 net.cpp:91] Creating Layer inception_5b/3x3_reduce
I0403 14:57:34.942488 17885 net.cpp:425] inception_5b/3x3_reduce <- inception_5a/output_inception_5a/output_0_split_1
I0403 14:57:34.942509 17885 net.cpp:399] inception_5b/3x3_reduce -> inception_5b/3x3_reduce
I0403 14:57:34.945282 17885 net.cpp:141] Setting up inception_5b/3x3_reduce
I0403 14:57:34.945313 17885 net.cpp:148] Top shape: 24 192 7 7 (225792)
I0403 14:57:34.945329 17885 net.cpp:156] Memory required for data: 1329757728
I0403 14:57:34.945348 17885 layer_factory.hpp:77] Creating layer inception_5b/relu_3x3_reduce
I0403 14:57:34.945370 17885 net.cpp:91] Creating Layer inception_5b/relu_3x3_reduce
I0403 14:57:34.945389 17885 net.cpp:425] inception_5b/relu_3x3_reduce <- inception_5b/3x3_reduce
I0403 14:57:34.945407 17885 net.cpp:386] inception_5b/relu_3x3_reduce -> inception_5b/3x3_reduce (in-place)
I0403 14:57:34.945612 17885 net.cpp:141] Setting up inception_5b/relu_3x3_reduce
I0403 14:57:34.945639 17885 net.cpp:148] Top shape: 24 192 7 7 (225792)
I0403 14:57:34.945654 17885 net.cpp:156] Memory required for data: 1330660896
I0403 14:57:34.945669 17885 layer_factory.hpp:77] Creating layer inception_5b/3x3
I0403 14:57:34.945693 17885 net.cpp:91] Creating Layer inception_5b/3x3
I0403 14:57:34.945713 17885 net.cpp:425] inception_5b/3x3 <- inception_5b/3x3_reduce
I0403 14:57:34.945731 17885 net.cpp:399] inception_5b/3x3 -> inception_5b/3x3
I0403 14:57:34.952677 17885 net.cpp:141] Setting up inception_5b/3x3
I0403 14:57:34.952708 17885 net.cpp:148] Top shape: 24 384 7 7 (451584)
I0403 14:57:34.952723 17885 net.cpp:156] Memory required for data: 1332467232
I0403 14:57:34.952742 17885 layer_factory.hpp:77] Creating layer inception_5b/relu_3x3
I0403 14:57:34.952764 17885 net.cpp:91] Creating Layer inception_5b/relu_3x3
I0403 14:57:34.952781 17885 net.cpp:425] inception_5b/relu_3x3 <- inception_5b/3x3
I0403 14:57:34.952800 17885 net.cpp:386] inception_5b/relu_3x3 -> inception_5b/3x3 (in-place)
I0403 14:57:34.953117 17885 net.cpp:141] Setting up inception_5b/relu_3x3
I0403 14:57:34.953143 17885 net.cpp:148] Top shape: 24 384 7 7 (451584)
I0403 14:57:34.953158 17885 net.cpp:156] Memory required for data: 1334273568
I0403 14:57:34.953173 17885 layer_factory.hpp:77] Creating layer inception_5b/5x5_reduce
I0403 14:57:34.953214 17885 net.cpp:91] Creating Layer inception_5b/5x5_reduce
I0403 14:57:34.953233 17885 net.cpp:425] inception_5b/5x5_reduce <- inception_5a/output_inception_5a/output_0_split_2
I0403 14:57:34.953256 17885 net.cpp:399] inception_5b/5x5_reduce -> inception_5b/5x5_reduce
I0403 14:57:34.954587 17885 net.cpp:141] Setting up inception_5b/5x5_reduce
I0403 14:57:34.954617 17885 net.cpp:148] Top shape: 24 48 7 7 (56448)
I0403 14:57:34.954632 17885 net.cpp:156] Memory required for data: 1334499360
I0403 14:57:34.954651 17885 layer_factory.hpp:77] Creating layer inception_5b/relu_5x5_reduce
I0403 14:57:34.954671 17885 net.cpp:91] Creating Layer inception_5b/relu_5x5_reduce
I0403 14:57:34.954689 17885 net.cpp:425] inception_5b/relu_5x5_reduce <- inception_5b/5x5_reduce
I0403 14:57:34.954706 17885 net.cpp:386] inception_5b/relu_5x5_reduce -> inception_5b/5x5_reduce (in-place)
I0403 14:57:34.955103 17885 net.cpp:141] Setting up inception_5b/relu_5x5_reduce
I0403 14:57:34.955130 17885 net.cpp:148] Top shape: 24 48 7 7 (56448)
I0403 14:57:34.955145 17885 net.cpp:156] Memory required for data: 1334725152
I0403 14:57:34.955159 17885 layer_factory.hpp:77] Creating layer inception_5b/5x5
I0403 14:57:34.955179 17885 net.cpp:91] Creating Layer inception_5b/5x5
I0403 14:57:34.955198 17885 net.cpp:425] inception_5b/5x5 <- inception_5b/5x5_reduce
I0403 14:57:34.955217 17885 net.cpp:399] inception_5b/5x5 -> inception_5b/5x5
I0403 14:57:34.957376 17885 net.cpp:141] Setting up inception_5b/5x5
I0403 14:57:34.957403 17885 net.cpp:148] Top shape: 24 128 7 7 (150528)
I0403 14:57:34.957419 17885 net.cpp:156] Memory required for data: 1335327264
I0403 14:57:34.957438 17885 layer_factory.hpp:77] Creating layer inception_5b/relu_5x5
I0403 14:57:34.957458 17885 net.cpp:91] Creating Layer inception_5b/relu_5x5
I0403 14:57:34.957475 17885 net.cpp:425] inception_5b/relu_5x5 <- inception_5b/5x5
I0403 14:57:34.957492 17885 net.cpp:386] inception_5b/relu_5x5 -> inception_5b/5x5 (in-place)
I0403 14:57:34.957697 17885 net.cpp:141] Setting up inception_5b/relu_5x5
I0403 14:57:34.957722 17885 net.cpp:148] Top shape: 24 128 7 7 (150528)
I0403 14:57:34.957737 17885 net.cpp:156] Memory required for data: 1335929376
I0403 14:57:34.957751 17885 layer_factory.hpp:77] Creating layer inception_5b/pool
I0403 14:57:34.957769 17885 net.cpp:91] Creating Layer inception_5b/pool
I0403 14:57:34.957785 17885 net.cpp:425] inception_5b/pool <- inception_5a/output_inception_5a/output_0_split_3
I0403 14:57:34.957805 17885 net.cpp:399] inception_5b/pool -> inception_5b/pool
I0403 14:57:34.957881 17885 net.cpp:141] Setting up inception_5b/pool
I0403 14:57:34.957906 17885 net.cpp:148] Top shape: 24 832 7 7 (978432)
I0403 14:57:34.957919 17885 net.cpp:156] Memory required for data: 1339843104
I0403 14:57:34.957933 17885 layer_factory.hpp:77] Creating layer inception_5b/pool_proj
I0403 14:57:34.957962 17885 net.cpp:91] Creating Layer inception_5b/pool_proj
I0403 14:57:34.957980 17885 net.cpp:425] inception_5b/pool_proj <- inception_5b/pool
I0403 14:57:34.958001 17885 net.cpp:399] inception_5b/pool_proj -> inception_5b/pool_proj
I0403 14:57:34.960420 17885 net.cpp:141] Setting up inception_5b/pool_proj
I0403 14:57:34.960450 17885 net.cpp:148] Top shape: 24 128 7 7 (150528)
I0403 14:57:34.960466 17885 net.cpp:156] Memory required for data: 1340445216
I0403 14:57:34.960485 17885 layer_factory.hpp:77] Creating layer inception_5b/relu_pool_proj
I0403 14:57:34.960506 17885 net.cpp:91] Creating Layer inception_5b/relu_pool_proj
I0403 14:57:34.960523 17885 net.cpp:425] inception_5b/relu_pool_proj <- inception_5b/pool_proj
I0403 14:57:34.960541 17885 net.cpp:386] inception_5b/relu_pool_proj -> inception_5b/pool_proj (in-place)
I0403 14:57:34.960857 17885 net.cpp:141] Setting up inception_5b/relu_pool_proj
I0403 14:57:34.960883 17885 net.cpp:148] Top shape: 24 128 7 7 (150528)
I0403 14:57:34.960899 17885 net.cpp:156] Memory required for data: 1341047328
I0403 14:57:34.960916 17885 layer_factory.hpp:77] Creating layer inception_5b/output
I0403 14:57:34.960935 17885 net.cpp:91] Creating Layer inception_5b/output
I0403 14:57:34.960970 17885 net.cpp:425] inception_5b/output <- inception_5b/1x1
I0403 14:57:34.960988 17885 net.cpp:425] inception_5b/output <- inception_5b/3x3
I0403 14:57:34.961005 17885 net.cpp:425] inception_5b/output <- inception_5b/5x5
I0403 14:57:34.961021 17885 net.cpp:425] inception_5b/output <- inception_5b/pool_proj
I0403 14:57:34.961040 17885 net.cpp:399] inception_5b/output -> inception_5b/output
I0403 14:57:34.961093 17885 net.cpp:141] Setting up inception_5b/output
I0403 14:57:34.961117 17885 net.cpp:148] Top shape: 24 1024 7 7 (1204224)
I0403 14:57:34.961133 17885 net.cpp:156] Memory required for data: 1345864224
I0403 14:57:34.961148 17885 layer_factory.hpp:77] Creating layer pool5/7x7_s1
I0403 14:57:34.961164 17885 net.cpp:91] Creating Layer pool5/7x7_s1
I0403 14:57:34.961180 17885 net.cpp:425] pool5/7x7_s1 <- inception_5b/output
I0403 14:57:34.961200 17885 net.cpp:399] pool5/7x7_s1 -> pool5/7x7_s1
I0403 14:57:34.961428 17885 net.cpp:141] Setting up pool5/7x7_s1
I0403 14:57:34.961457 17885 net.cpp:148] Top shape: 24 1024 1 1 (24576)
I0403 14:57:34.961472 17885 net.cpp:156] Memory required for data: 1345962528
I0403 14:57:34.961488 17885 layer_factory.hpp:77] Creating layer pool5/drop_7x7_s1
I0403 14:57:34.961506 17885 net.cpp:91] Creating Layer pool5/drop_7x7_s1
I0403 14:57:34.961524 17885 net.cpp:425] pool5/drop_7x7_s1 <- pool5/7x7_s1
I0403 14:57:34.961542 17885 net.cpp:386] pool5/drop_7x7_s1 -> pool5/7x7_s1 (in-place)
I0403 14:57:34.961594 17885 net.cpp:141] Setting up pool5/drop_7x7_s1
I0403 14:57:34.961617 17885 net.cpp:148] Top shape: 24 1024 1 1 (24576)
I0403 14:57:34.961632 17885 net.cpp:156] Memory required for data: 1346060832
I0403 14:57:34.961647 17885 layer_factory.hpp:77] Creating layer loss3/classifier_plantvillage
I0403 14:57:34.961668 17885 net.cpp:91] Creating Layer loss3/classifier_plantvillage
I0403 14:57:34.961684 17885 net.cpp:425] loss3/classifier_plantvillage <- pool5/7x7_s1
I0403 14:57:34.961704 17885 net.cpp:399] loss3/classifier_plantvillage -> loss3/classifier_plantvillage
I0403 14:57:34.962154 17885 net.cpp:141] Setting up loss3/classifier_plantvillage
I0403 14:57:34.962179 17885 net.cpp:148] Top shape: 24 38 (912)
I0403 14:57:34.962193 17885 net.cpp:156] Memory required for data: 1346064480
I0403 14:57:34.962213 17885 layer_factory.hpp:77] Creating layer loss3/classifier_plantvillage_loss3/classifier_plantvillage_0_split
I0403 14:57:34.962231 17885 net.cpp:91] Creating Layer loss3/classifier_plantvillage_loss3/classifier_plantvillage_0_split
I0403 14:57:34.962247 17885 net.cpp:425] loss3/classifier_plantvillage_loss3/classifier_plantvillage_0_split <- loss3/classifier_plantvillage
I0403 14:57:34.962268 17885 net.cpp:399] loss3/classifier_plantvillage_loss3/classifier_plantvillage_0_split -> loss3/classifier_plantvillage_loss3/classifier_plantvillage_0_split_0
I0403 14:57:34.962291 17885 net.cpp:399] loss3/classifier_plantvillage_loss3/classifier_plantvillage_0_split -> loss3/classifier_plantvillage_loss3/classifier_plantvillage_0_split_1
I0403 14:57:34.962311 17885 net.cpp:399] loss3/classifier_plantvillage_loss3/classifier_plantvillage_0_split -> loss3/classifier_plantvillage_loss3/classifier_plantvillage_0_split_2
I0403 14:57:34.962330 17885 net.cpp:399] loss3/classifier_plantvillage_loss3/classifier_plantvillage_0_split -> loss3/classifier_plantvillage_loss3/classifier_plantvillage_0_split_3
I0403 14:57:34.962436 17885 net.cpp:141] Setting up loss3/classifier_plantvillage_loss3/classifier_plantvillage_0_split
I0403 14:57:34.962461 17885 net.cpp:148] Top shape: 24 38 (912)
I0403 14:57:34.962478 17885 net.cpp:148] Top shape: 24 38 (912)
I0403 14:57:34.962494 17885 net.cpp:148] Top shape: 24 38 (912)
I0403 14:57:34.962512 17885 net.cpp:148] Top shape: 24 38 (912)
I0403 14:57:34.962525 17885 net.cpp:156] Memory required for data: 1346079072
I0403 14:57:34.962539 17885 layer_factory.hpp:77] Creating layer loss1/loss
I0403 14:57:34.962561 17885 net.cpp:91] Creating Layer loss1/loss
I0403 14:57:34.962579 17885 net.cpp:425] loss1/loss <- loss1/classifier_plantvillage_loss1/classifier_plantvillage_0_split_0
I0403 14:57:34.962610 17885 net.cpp:425] loss1/loss <- label_data_1_split_0
…
