…
I0403 15:18:16.335845 18843 net.cpp:313] The NetState phase (1) differed from the phase (0) specified by a rule in layer data
I0403 15:18:16.336974 18843 net.cpp:49] Initializing net from parameters: 
state {
  phase: TEST
}
layer {
  name: "data"
  type: "Data"
  top: "data"
  top: "label"
  include {
    phase: TEST
  }
  transform_param {
    mirror: false
    crop_size: 224
    mean_file: "/home/mohanty/data/final_dataset/lmdb/grayscale-40-60/mean.binaryproto"
  }
  data_param {
    source: "/home/mohanty/data/final_dataset/lmdb/grayscale-40-60/test_db"
    batch_size: 24
    backend: LMDB
  }
}
layer {
  name: "conv1/7x7_s2"
  type: "Convolution"
  bottom: "data"
  top: "conv1/7x7_s2"
  param {
    lr_mult: 1
    decay_mult: 1
  }
  param {
    lr_mult: 2
    decay_mult: 0
  }
  convolution_param {
    num_output: 64
    pad: 3
    kernel_size: 7
    stride: 2
    weight_filler {
      type: "xavier"
      std: 0.1
    }
    bias_filler {
      type: "constant"
      value: 0.2
    }
  }
}
layer {
  name: "conv1/relu_7x7"
  type: "ReLU"
  bottom: "conv1/7x7_s2"
  top: "conv1/7x7_s2"
}
layer {
  name: "pool1/3x3_s2"
  type: "Pooling"
  bottom: "conv1/7x7_s2"
  top: "pool1/3x3_s2"
  pooling_param {
    pool: MAX
    kernel_size: 3
    stride: 2
  }
}
layer {
  name: "pool1/norm1"
  type: "LRN"
  bottom: "pool1/3x3_s2"
  top: "pool1/norm1"
  lrn_param {
    local_size: 5
    alpha: 0.0001
    beta: 0.75
  }
}
layer {
  name: "conv2/3x3_reduce"
  type: "Convolution"
  bottom: "pool1/norm1"
  top: "conv2/3x3_reduce"
  param {
    lr_mult: 1
    decay_mult: 1
  }
  param {
    lr_mult: 2
    decay_mult: 0
  }
  convolution_param {
    num_output: 64
    kernel_size: 1
    weight_filler {
      type: "xavier"
      std: 0.1
    }
    bias_filler {
      type: "constant"
      value: 0.2
    }
  }
}
layer {
  name: "conv2/relu_3x3_reduce"
  type: "ReLU"
  bottom: "conv2/3x3_reduce"
  top: "conv2/3x3_reduce"
}
layer {
  name: "conv2/3x3"
  type: "Convolution"
  bottom: "conv2/3x3_reduce"
  top: "conv2/3x3"
  param {
    lr_mult: 1
    decay_mult: 1
  }
  param {
    lr_mult: 2
    decay_mult: 0
  }
  convolution_param {
    num_output: 192
    pad: 1
    kernel_size: 3
    weight_filler {
      type: "xavier"
      std: 0.03
    }
    bias_filler {
      type: "constant"
      value: 0.2
    }
  }
}
layer {
  name: "conv2/relu_3x3"
  type: "ReLU"
  bottom: "conv2/3x3"
  top: "conv2/3x3"
}
layer {
  name: "conv2/norm2"
  type: "LRN"
  bottom: "conv2/3x3"
  top: "conv2/norm2"
  lrn_param {
    local_size: 5
    alpha: 0.0001
    beta: 0.75
  }
}
layer {
  name: "pool2/3x3_s2"
  type: "Pooling"
  bottom: "conv2/norm2"
  top: "pool2/3x3_s2"
  pooling_param {
    pool: MAX
    kernel_size: 3
    stride: 2
  }
}
layer {
  name: "inception_3a/1x1"
  type: "Convolution"
  bottom: "pool2/3x3_s2"
  top: "inception_3a/1x1"
  param {
    lr_mult: 1
    decay_mult: 1
  }
  param {
    lr_mult: 2
    decay_mult: 0
  }
  convolution_param {
    num_output: 64
    kernel_size: 1
    weight_filler {
      type: "xavier"
      std: 0.03
    }
    bias_filler {
      type: "constant"
      value: 0.2
    }
  }
}
layer {
  name: "inception_3a/relu_1x1"
  type: "ReLU"
  bottom: "inception_3a/1x1"
  top: "inception_3a/1x1"
}
layer {
  name: "inception_3a/3x3_reduce"
  type: "Convolution"
  bottom: "pool2/3x3_s2"
  top: "inception_3a/3x3_reduce"
  param {
    lr_mult: 1
    decay_mult: 1
  }
  param {
    lr_mult: 2
    decay_mult: 0
  }
  convolution_param {
    num_output: 96
    kernel_size: 1
    weight_filler {
      type: "xavier"
      std: 0.09
    }
    bias_filler {
      type: "constant"
      value: 0.2
    }
  }
}
layer {
  name: "inception_3a/relu_3x3_reduce"
  type: "ReLU"
  bottom: "inception_3a/3x3_reduce"
  top: "inception_3a/3x3_reduce"
}
layer {
  name: "inception_3a/3x3"
  type: "Convolution"
  bottom: "inception_3a/3x3_reduce"
  top: "inception_3a/3x3"
  param {
    lr_mult: 1
    decay_mult: 1
  }
  param {
    lr_mult: 2
    decay_mult: 0
  }
  convolution_param {
    num_output: 128
    pad: 1
    kernel_size: 3
    weight_filler {
      type: "xavier"
      std: 0.03
    }
    bias_filler {
      type: "constant"
      value: 0.2
    }
  }
}
layer {
  name: "inception_3a/relu_3x3"
  type: "ReLU"
  bottom: "inception_3a/3x3"
  top: "inception_3a/3x3"
}
layer {
  name: "inception_3a/5x5_reduce"
  type: "Convolution"
  bottom: "pool2/3x3_s2"
  top: "inception_3a/5x5_reduce"
  param {
    lr_mult: 1
    decay_mult: 1
  }
  param {
    lr_mult: 2
    decay_mult: 0
  }
  convolution_param {
    num_output: 16
    kernel_size: 1
    weight_filler {
      type: "xavier"
      std: 0.2
    }
    bias_filler {
      type: "constant"
      value: 0.2
    }
  }
}
layer {
  name: "inception_3a/relu_5x5_reduce"
  type: "ReLU"
  bottom: "inception_3a/5x5_reduce"
  top: "inception_3a/5x5_reduce"
}
layer {
  name: "inception_3a/5x5"
  type: "Convolution"
  bottom: "inception_3a/5x5_reduce"
  top: "inception_3a/5x5"
  param {
    lr_mult: 1
    decay_mult: 1
  }
  param {
    lr_mult: 2
    decay_mult: 0
  }
  convolution_param {
    num_output: 32
    pad: 2
    kernel_size: 5
    weight_filler {
      type: "xavier"
      std: 0.03
    }
    bias_filler {
      type: "constant"
      value: 0.2
    }
  }
}
layer {
  name: "inception_3a/relu_5x5"
  type: "ReLU"
  bottom: "inception_3a/5x5"
  top: "inception_3a/5x5"
}
layer {
  name: "inception_3a/pool"
  type: "Pooling"
  bottom: "pool2/3x3_s2"
  top: "inception_3a/pool"
  pooling_param {
    pool: MAX
    kernel_size: 3
    stride: 1
    pad: 1
  }
}
layer {
  name: "inception_3a/pool_proj"
  type: "Convolution"
  bottom: "inception_3a/pool"
  top: "inception_3a/pool_proj"
  param {
    lr_mult: 1
    decay_mult: 1
  }
  param {
    lr_mult: 2
    decay_mult: 0
  }
  convolution_param {
    num_output: 32
    kernel_size: 1
    weight_filler {
      type: "xavier"
      std: 0.1
    }
    bias_filler {
      type: "constant"
      value: 0.2
    }
  }
}
layer {
  name: "inception_3a/relu_pool_proj"
  type: "ReLU"
  bottom: "inception_3a/pool_proj"
  top: "inception_3a/pool_proj"
}
layer {
  name: "inception_3a/output"
  type: "Concat"
  bottom: "inception_3a/1x1"
  bottom: "inception_3a/3x3"
  bottom: "inception_3a/5x5"
  bottom: "inception_3a/pool_proj"
  top: "inception_3a/output"
}
layer {
  name: "inception_3b/1x1"
  type: "Convolution"
  bottom: "inception_3a/output"
  top: "inception_3b/1x1"
  param {
    lr_mult: 1
    decay_mult: 1
  }
  param {
    lr_mult: 2
    decay_mult: 0
  }
  convolution_param {
    num_output: 128
    kernel_size: 1
    weight_filler {
      type: "xavier"
      std: 0.03
    }
    bias_filler {
      type: "constant"
      value: 0.2
    }
  }
}
layer {
  name: "inception_3b/relu_1x1"
  type: "ReLU"
  bottom: "inception_3b/1x1"
  top: "inception_3b/1x1"
}
layer {
  name: "inception_3b/3x3_reduce"
  type: "Convolution"
  bottom: "inception_3a/output"
  top: "inception_3b/3x3_reduce"
  param {
    lr_mult: 1
    decay_mult: 1
  }
  param {
    lr_mult: 2
    decay_mult: 0
  }
  convolution_param {
    num_output: 128
    kernel_size: 1
    weight_filler {
      type: "xavier"
      std: 0.09
    }
    bias_filler {
      type: "constant"
      value: 0.2
    }
  }
}
layer {
  name: "inception_3b/relu_3x3_reduce"
  type: "ReLU"
  bottom: "inception_3b/3x3_reduce"
  top: "inception_3b/3x3_reduce"
}
layer {
  name: "inception_3b/3x3"
  type: "Convolution"
  bottom: "inception_3b/3x3_reduce"
  top: "inception_3b/3x3"
  param {
    lr_mult: 1
    decay_mult: 1
  }
  param {
    lr_mult: 2
    decay_mult: 0
  }
  convolution_param {
    num_output: 192
    pad: 1
    kernel_size: 3
    weight_filler {
      type: "xavier"
      std: 0.03
    }
    bias_filler {
      type: "constant"
      value: 0.2
    }
  }
}
layer {
  name: "inception_3b/relu_3x3"
  type: "ReLU"
  bottom: "inception_3b/3x3"
  top: "inception_3b/3x3"
}
layer {
  name: "inception_3b/5x5_reduce"
  type: "Convolution"
  bottom: "inception_3a/output"
  top: "inception_3b/5x5_reduce"
  param {
    lr_mult: 1
    decay_mult: 1
  }
  param {
    lr_mult: 2
    decay_mult: 0
  }
  convolution_param {
    num_output: 32
    kernel_size: 1
    weight_filler {
      type: "xavier"
      std: 0.2
    }
    bias_filler {
      type: "constant"
      value: 0.2
    }
  }
}
layer {
  name: "inception_3b/relu_5x5_reduce"
  type: "ReLU"
  bottom: "inception_3b/5x5_reduce"
  top: "inception_3b/5x5_reduce"
}
layer {
  name: "inception_3b/5x5"
  type: "Convolution"
  bottom: "inception_3b/5x5_reduce"
  top: "inception_3b/5x5"
  param {
    lr_mult: 1
    decay_mult: 1
  }
  param {
    lr_mult: 2
    decay_mult: 0
  }
  convolution_param {
    num_output: 96
    pad: 2
    kernel_size: 5
    weight_filler {
      type: "xavier"
      std: 0.03
    }
    bias_filler {
      type: "constant"
      value: 0.2
    }
  }
}
layer {
  name: "inception_3b/relu_5x5"
  type: "ReLU"
  bottom: "inception_3b/5x5"
  top: "inception_3b/5x5"
}
layer {
  name: "inception_3b/pool"
  type: "Pooling"
  bottom: "inception_3a/output"
  top: "inception_3b/pool"
  pooling_param {
    pool: MAX
    kernel_size: 3
    stride: 1
    pad: 1
  }
}
layer {
  name: "inception_3b/pool_proj"
  type: "Convolution"
  bottom: "inception_3b/pool"
  top: "inception_3b/pool_proj"
  param {
    lr_mult: 1
    decay_mult: 1
  }
  param {
    lr_mult: 2
    decay_mult: 0
  }
  convolution_param {
    num_output: 64
    kernel_size: 1
    weight_filler {
      type: "xavier"
      std: 0.1
    }
    bias_filler {
      type: "constant"
      value: 0.2
    }
  }
}
layer {
  name: "inception_3b/relu_pool_proj"
  type: "ReLU"
  bottom: "inception_3b/pool_proj"
  top: "inception_3b/pool_proj"
}
layer {
  name: "inception_3b/output"
  type: "Concat"
  bottom: "inception_3b/1x1"
  bottom: "inception_3b/3x3"
  bottom: "inception_3b/5x5"
  bottom: "inception_3b/pool_proj"
  top: "inception_3b/output"
}
layer {
  name: "pool3/3x3_s2"
  type: "Pooling"
  bottom: "inception_3b/output"
  top: "pool3/3x3_s2"
  pooling_param {
    pool: MAX
    kernel_size: 3
    stride: 2
  }
}
layer {
  name: "inception_4a/1x1"
  type: "Convolution"
  bottom: "pool3/3x3_s2"
  top: "inception_4a/1x1"
  param {
    lr_mult: 1
    decay_mult: 1
  }
  param {
    lr_mult: 2
    decay_mult: 0
  }
  convolution_param {
    num_output: 192
    kernel_size: 1
    weight_filler {
      type: "xavier"
      std: 0.03
    }
    bias_filler {
      type: "constant"
      value: 0.2
    }
  }
}
layer {
  name: "inception_4a/relu_1x1"
  type: "ReLU"
  bottom: "inception_4a/1x1"
  top: "inception_4a/1x1"
}
layer {
  name: "inception_4a/3x3_reduce"
  type: "Convolution"
  bottom: "pool3/3x3_s2"
  top: "inception_4a/3x3_reduce"
  param {
    lr_mult: 1
    decay_mult: 1
  }
  param {
    lr_mult: 2
    decay_mult: 0
  }
  convolution_param {
    num_output: 96
    kernel_size: 1
    weight_filler {
      type: "xavier"
      std: 0.09
    }
    bias_filler {
      type: "constant"
      value: 0.2
    }
  }
}
layer {
  name: "inception_4a/relu_3x3_reduce"
  type: "ReLU"
  bottom: "inception_4a/3x3_reduce"
  top: "inception_4a/3x3_reduce"
}
layer {
  name: "inception_4a/3x3"
  type: "Convolution"
  bottom: "inception_4a/3x3_reduce"
  top: "inception_4a/3x3"
  param {
    lr_mult: 1
    decay_mult: 1
  }
  param {
    lr_mult: 2
    decay_mult: 0
  }
  convolution_param {
    num_output: 208
    pad: 1
    kernel_size: 3
    weight_filler {
      type: "xavier"
      std: 0.03
    }
    bias_filler {
      type: "constant"
      value: 0.2
    }
  }
}
layer {
  name: "inception_4a/relu_3x3"
  type: "ReLU"
  bottom: "inception_4a/3x3"
  top: "inception_4a/3x3"
}
layer {
  name: "inception_4a/5x5_reduce"
  type: "Convolution"
  bottom: "pool3/3x3_s2"
  top: "inception_4a/5x5_reduce"
  param {
    lr_mult: 1
    decay_mult: 1
  }
  param {
    lr_mult: 2
    decay_mult: 0
  }
  convolution_param {
    num_output: 16
    kernel_size: 1
    weight_filler {
      type: "xavier"
      std: 0.2
    }
    bias_filler {
      type: "constant"
      value: 0.2
    }
  }
}
layer {
  name: "inception_4a/relu_5x5_reduce"
  type: "ReLU"
  bottom: "inception_4a/5x5_reduce"
  top: "inception_4a/5x5_reduce"
}
layer {
  name: "inception_4a/5x5"
  type: "Convolution"
  bottom: "inception_4a/5x5_reduce"
  top: "inception_4a/5x5"
  param {
    lr_mult: 1
    decay_mult: 1
  }
  param {
    lr_mult: 2
    decay_mult: 0
  }
  convolution_param {
    num_output: 48
    pad: 2
    kernel_size: 5
    weight_filler {
      type: "xavier"
      std: 0.03
    }
    bias_filler {
      type: "constant"
      value: 0.2
    }
  }
}
layer {
  name: "inception_4a/relu_5x5"
  type: "ReLU"
  bottom: "inception_4a/5x5"
  top: "inception_4a/5x5"
}
layer {
  name: "inception_4a/pool"
  type: "Pooling"
  bottom: "pool3/3x3_s2"
  top: "inception_4a/pool"
  pooling_param {
    pool: MAX
    kernel_size: 3
    stride: 1
    pad: 1
  }
}
layer {
  name: "inception_4a/pool_proj"
  type: "Convolution"
  bottom: "inception_4a/pool"
  top: "inception_4a/pool_proj"
  param {
    lr_mult: 1
    decay_mult: 1
  }
  param {
    lr_mult: 2
    decay_mult: 0
  }
  convolution_param {
    num_output: 64
    kernel_size: 1
    weight_filler {
      type: "xavier"
      std: 0.1
    }
    bias_filler {
      type: "constant"
      value: 0.2
    }
  }
}
layer {
  name: "inception_4a/relu_pool_proj"
  type: "ReLU"
  bottom: "inception_4a/pool_proj"
  top: "inception_4a/pool_proj"
}
layer {
  name: "inception_4a/output"
  type: "Concat"
  bottom: "inception_4a/1x1"
  bottom: "inception_4a/3x3"
  bottom: "inception_4a/5x5"
  bottom: "inception_4a/pool_proj"
  top: "inception_4a/output"
}
layer {
  name: "loss1/ave_pool"
  type: "Pooling"
  bottom: "inception_4a/output"
  top: "loss1/ave_pool"
  pooling_param {
    pool: AVE
    kernel_size: 5
    stride: 3
  }
}
layer {
  name: "loss1/conv"
  type: "Convolution"
  bottom: "loss1/ave_pool"
  top: "loss1/conv"
  param {
    lr_mult: 1
    decay_mult: 1
  }
  param {
    lr_mult: 2
    decay_mult: 0
  }
  convolution_param {
    num_output: 128
    kernel_size: 1
    weight_filler {
      type: "xavier"
      std: 0.08
    }
    bias_filler {
      type: "constant"
      value: 0.2
    }
  }
}
layer {
  name: "loss1/relu_conv"
  type: "ReLU"
  bottom: "loss1/conv"
  top: "loss1/conv"
}
layer {
  name: "loss1/fc"
  type: "InnerProduct"
  bottom: "loss1/conv"
  top: "loss1/fc"
  param {
    lr_mult: 1
    decay_mult: 1
  }
  param {
    lr_mult: 2
    decay_mult: 0
  }
  inner_product_param {
    num_output: 1024
    weight_filler {
      type: "xavier"
      std: 0.02
    }
    bias_filler {
      type: "constant"
      value: 0.2
    }
  }
}
layer {
  name: "loss1/relu_fc"
  type: "ReLU"
  bottom: "loss1/fc"
  top: "loss1/fc"
}
layer {
  name: "loss1/drop_fc"
  type: "Dropout"
  bottom: "loss1/fc"
  top: "loss1/fc"
  dropout_param {
    dropout_ratio: 0.7
  }
}
layer {
  name: "loss1/classifier_plantvillage"
  type: "InnerProduct"
  bottom: "loss1/fc"
  top: "loss1/classifier_plantvillage"
  param {
    lr_mult: 1
    decay_mult: 1
  }
  param {
    lr_mult: 2
    decay_mult: 0
  }
  inner_product_param {
    num_output: 38
    weight_filler {
      type: "xavier"
      std: 0.0009765625
    }
    bias_filler {
      type: "constant"
      value: 0
    }
  }
}
layer {
  name: "inception_4b/1x1"
  type: "Convolution"
  bottom: "inception_4a/output"
  top: "inception_4b/1x1"
  param {
    lr_mult: 1
    decay_mult: 1
  }
  param {
    lr_mult: 2
    decay_mult: 0
  }
  convolution_param {
    num_output: 160
    kernel_size: 1
    weight_filler {
      type: "xavier"
      std: 0.03
    }
    bias_filler {
      type: "constant"
      value: 0.2
    }
  }
}
layer {
  name: "inception_4b/relu_1x1"
  type: "ReLU"
  bottom: "inception_4b/1x1"
  top: "inception_4b/1x1"
}
layer {
  name: "inception_4b/3x3_reduce"
  type: "Convolution"
  bottom: "inception_4a/output"
  top: "inception_4b/3x3_reduce"
  param {
    lr_mult: 1
    decay_mult: 1
  }
  param {
    lr_mult: 2
    decay_mult: 0
  }
  convolution_param {
    num_output: 112
    kernel_size: 1
    weight_filler {
      type: "xavier"
      std: 0.09
    }
    bias_filler {
      type: "constant"
      value: 0.2
    }
  }
}
layer {
  name: "inception_4b/relu_3x3_reduce"
  type: "ReLU"
  bottom: "inception_4b/3x3_reduce"
  top: "inception_4b/3x3_reduce"
}
layer {
  name: "inception_4b/3x3"
  type: "Convolution"
  bottom: "inception_4b/3x3_reduce"
  top: "inception_4b/3x3"
  param {
    lr_mult: 1
    decay_mult: 1
  }
  param {
    lr_mult: 2
    decay_mult: 0
  }
  convolution_param {
    num_output: 224
    pad: 1
    kernel_size: 3
    weight_filler {
      type: "xavier"
      std: 0.03
    }
    bias_filler {
      type: "constant"
      value: 0.2
    }
  }
}
layer {
  name: "inception_4b/relu_3x3"
  type: "ReLU"
  bottom: "inception_4b/3x3"
  top: "inception_4b/3x3"
}
layer {
  name: "inception_4b/5x5_reduce"
  type: "Convolution"
  bottom: "inception_4a/output"
  top: "inception_4b/5x5_reduce"
  param {
    lr_mult: 1
    decay_mult: 1
  }
  param {
    lr_mult: 2
    decay_mult: 0
  }
  convolution_param {
    num_output: 24
    kernel_size: 1
    weight_filler {
      type: "xavier"
      std: 0.2
    }
    bias_filler {
      type: "constant"
      value: 0.2
    }
  }
}
layer {
  name: "inception_4b/relu_5x5_reduce"
  type: "ReLU"
  bottom: "inception_4b/5x5_reduce"
  top: "inception_4b/5x5_reduce"
}
layer {
  name: "inception_4b/5x5"
  type: "Convolution"
  bottom: "inception_4b/5x5_reduce"
  top: "inception_4b/5x5"
  param {
    lr_mult: 1
    decay_mult: 1
  }
  param {
    lr_mult: 2
    decay_mult: 0
  }
  convolution_param {
    num_output: 64
    pad: 2
    kernel_size: 5
    weight_filler {
      type: "xavier"
      std: 0.03
    }
    bias_filler {
      type: "constant"
      value: 0.2
    }
  }
}
layer {
  name: "inception_4b/relu_5x5"
  type: "ReLU"
  bottom: "inception_4b/5x5"
  top: "inception_4b/5x5"
}
layer {
  name: "inception_4b/pool"
  type: "Pooling"
  bottom: "inception_4a/output"
  top: "inception_4b/pool"
  pooling_param {
    pool: MAX
    kernel_size: 3
    stride: 1
    pad: 1
  }
}
layer {
  name: "inception_4b/pool_proj"
  type: "Convolution"
  bottom: "inception_4b/pool"
  top: "inception_4b/pool_proj"
  param {
    lr_mult: 1
    decay_mult: 1
  }
  param {
    lr_mult: 2
    decay_mult: 0
  }
  convolution_param {
    num_output: 64
    kernel_size: 1
    weight_filler {
      type: "xavier"
      std: 0.1
    }
    bias_filler {
      type: "constant"
      value: 0.2
    }
  }
}
layer {
  name: "inception_4b/relu_pool_proj"
  type: "ReLU"
  bottom: "inception_4b/pool_proj"
  top: "inception_4b/pool_proj"
}
layer {
  name: "inception_4b/output"
  type: "Concat"
  bottom: "inception_4b/1x1"
  bottom: "inception_4b/3x3"
  bottom: "inception_4b/5x5"
  bottom: "inception_4b/pool_proj"
  top: "inception_4b/output"
}
layer {
  name: "inception_4c/1x1"
  type: "Convolution"
  bottom: "inception_4b/output"
  top: "inception_4c/1x1"
  param {
    lr_mult: 1
    decay_mult: 1
  }
  param {
    lr_mult: 2
    decay_mult: 0
  }
  convolution_param {
    num_output: 128
    kernel_size: 1
    weight_filler {
      type: "xavier"
      std: 0.03
    }
    bias_filler {
      type: "constant"
      value: 0.2
    }
  }
}
layer {
  name: "inception_4c/relu_1x1"
  type: "ReLU"
  bottom: "inception_4c/1x1"
  top: "inception_4c/1x1"
}
layer {
  name: "inception_4c/3x3_reduce"
  type: "Convolution"
  bottom: "inception_4b/output"
  top: "inception_4c/3x3_reduce"
  param {
    lr_mult: 1
    decay_mult: 1
  }
  param {
    lr_mult: 2
    decay_mult: 0
  }
  convolution_param {
    num_output: 128
    kernel_size: 1
    weight_filler {
      type: "xavier"
      std: 0.09
    }
    bias_filler {
      type: "constant"
      value: 0.2
    }
  }
}
layer {
  name: "inception_4c/relu_3x3_reduce"
  type: "ReLU"
  bottom: "inception_4c/3x3_reduce"
  top: "inception_4c/3x3_reduce"
}
layer {
  name: "inception_4c/3x3"
  type: "Convolution"
  bottom: "inception_4c/3x3_reduce"
  top: "inception_4c/3x3"
  param {
    lr_mult: 1
    decay_mult: 1
  }
  param {
    lr_mult: 2
    decay_mult: 0
  }
  convolution_param {
    num_output: 256
    pad: 1
    kernel_size: 3
    weight_filler {
      type: "xavier"
      std: 0.03
    }
    bias_filler {
      type: "constant"
      value: 0.2
    }
  }
}
layer {
  name: "inception_4c/relu_3x3"
  type: "ReLU"
  bottom: "inception_4c/3x3"
  top: "inception_4c/3x3"
}
layer {
  name: "inception_4c/5x5_reduce"
  type: "Convolution"
  bottom: "inception_4b/output"
  top: "inception_4c/5x5_reduce"
  param {
    lr_mult: 1
    decay_mult: 1
  }
  param {
    lr_mult: 2
    decay_mult: 0
  }
  convolution_param {
    num_output: 24
    kernel_size: 1
    weight_filler {
      type: "xavier"
      std: 0.2
    }
    bias_filler {
      type: "constant"
      value: 0.2
    }
  }
}
layer {
  name: "inception_4c/relu_5x5_reduce"
  type: "ReLU"
  bottom: "inception_4c/5x5_reduce"
  top: "inception_4c/5x5_reduce"
}
layer {
  name: "inception_4c/5x5"
  type: "Convolution"
  bottom: "inception_4c/5x5_reduce"
  top: "inception_4c/5x5"
  param {
    lr_mult: 1
    decay_mult: 1
  }
  param {
    lr_mult: 2
    decay_mult: 0
  }
  convolution_param {
    num_output: 64
    pad: 2
    kernel_size: 5
    weight_filler {
      type: "xavier"
      std: 0.03
    }
    bias_filler {
      type: "constant"
      value: 0.2
    }
  }
}
layer {
  name: "inception_4c/relu_5x5"
  type: "ReLU"
  bottom: "inception_4c/5x5"
  top: "inception_4c/5x5"
}
layer {
  name: "inception_4c/pool"
  type: "Pooling"
  bottom: "inception_4b/output"
  top: "inception_4c/pool"
  pooling_param {
    pool: MAX
    kernel_size: 3
    stride: 1
    pad: 1
  }
}
layer {
  name: "inception_4c/pool_proj"
  type: "Convolution"
  bottom: "inception_4c/pool"
  top: "inception_4c/pool_proj"
  param {
    lr_mult: 1
    decay_mult: 1
  }
  param {
    lr_mult: 2
    decay_mult: 0
  }
  convolution_param {
    num_output: 64
    kernel_size: 1
    weight_filler {
      type: "xavier"
      std: 0.1
    }
    bias_filler {
      type: "constant"
      value: 0.2
    }
  }
}
layer {
  name: "inception_4c/relu_pool_proj"
  type: "ReLU"
  bottom: "inception_4c/pool_proj"
  top: "inception_4c/pool_proj"
}
layer {
  name: "inception_4c/output"
  type: "Concat"
  bottom: "inception_4c/1x1"
  bottom: "inception_4c/3x3"
  bottom: "inception_4c/5x5"
  bottom: "inception_4c/pool_proj"
  top: "inception_4c/output"
}
layer {
  name: "inception_4d/1x1"
  type: "Convolution"
  bottom: "inception_4c/output"
  top: "inception_4d/1x1"
  param {
    lr_mult: 1
    decay_mult: 1
  }
  param {
    lr_mult: 2
    decay_mult: 0
  }
  convolution_param {
    num_output: 112
    kernel_size: 1
    weight_filler {
      type: "xavier"
      std: 0.03
    }
    bias_filler {
      type: "constant"
      value: 0.2
    }
  }
}
layer {
  name: "inception_4d/relu_1x1"
  type: "ReLU"
  bottom: "inception_4d/1x1"
  top: "inception_4d/1x1"
}
layer {
  name: "inception_4d/3x3_reduce"
  type: "Convolution"
  bottom: "inception_4c/output"
  top: "inception_4d/3x3_reduce"
  param {
    lr_mult: 1
    decay_mult: 1
  }
  param {
    lr_mult: 2
    decay_mult: 0
  }
  convolution_param {
    num_output: 144
    kernel_size: 1
    weight_filler {
      type: "xavier"
      std: 0.09
    }
    bias_filler {
      type: "constant"
      value: 0.2
    }
  }
}
layer {
  name: "inception_4d/relu_3x3_reduce"
  type: "ReLU"
  bottom: "inception_4d/3x3_reduce"
  top: "inception_4d/3x3_reduce"
}
layer {
  name: "inception_4d/3x3"
  type: "Convolution"
  bottom: "inception_4d/3x3_reduce"
  top: "inception_4d/3x3"
  param {
    lr_mult: 1
    decay_mult: 1
  }
  param {
    lr_mult: 2
    decay_mult: 0
  }
  convolution_param {
    num_output: 288
    pad: 1
    kernel_size: 3
    weight_filler {
      type: "xavier"
      std: 0.03
    }
    bias_filler {
      type: "constant"
      value: 0.2
    }
  }
}
layer {
  name: "inception_4d/relu_3x3"
  type: "ReLU"
  bottom: "inception_4d/3x3"
  top: "inception_4d/3x3"
}
layer {
  name: "inception_4d/5x5_reduce"
  type: "Convolution"
  bottom: "inception_4c/output"
  top: "inception_4d/5x5_reduce"
  param {
    lr_mult: 1
    decay_mult: 1
  }
  param {
    lr_mult: 2
    decay_mult: 0
  }
  convolution_param {
    num_output: 32
    kernel_size: 1
    weight_filler {
      type: "xavier"
      std: 0.2
    }
    bias_filler {
      type: "constant"
      value: 0.2
    }
  }
}
layer {
  name: "inception_4d/relu_5x5_reduce"
  type: "ReLU"
  bottom: "inception_4d/5x5_reduce"
  top: "inception_4d/5x5_reduce"
}
layer {
  name: "inception_4d/5x5"
  type: "Convolution"
  bottom: "inception_4d/5x5_reduce"
  top: "inception_4d/5x5"
  param {
    lr_mult: 1
    decay_mult: 1
  }
  param {
    lr_mult: 2
    decay_mult: 0
  }
  convolution_param {
    num_output: 64
    pad: 2
    kernel_size: 5
    weight_filler {
      type: "xavier"
      std: 0.03
    }
    bias_filler {
      type: "constant"
      value: 0.2
    }
  }
}
layer {
  name: "inception_4d/relu_5x5"
  type: "ReLU"
  bottom: "inception_4d/5x5"
  top: "inception_4d/5x5"
}
layer {
  name: "inception_4d/pool"
  type: "Pooling"
  bottom: "inception_4c/output"
  top: "inception_4d/pool"
  pooling_param {
    pool: MAX
    kernel_size: 3
    stride: 1
    pad: 1
  }
}
layer {
  name: "inception_4d/pool_proj"
  type: "Convolution"
  bottom: "inception_4d/pool"
  top: "inception_4d/pool_proj"
  param {
    lr_mult: 1
    decay_mult: 1
  }
  param {
    lr_mult: 2
    decay_mult: 0
  }
  convolution_param {
    num_output: 64
    kernel_size: 1
    weight_filler {
      type: "xavier"
      std: 0.1
    }
    bias_filler {
      type: "constant"
      value: 0.2
    }
  }
}
layer {
  name: "inception_4d/relu_pool_proj"
  type: "ReLU"
  bottom: "inception_4d/pool_proj"
  top: "inception_4d/pool_proj"
}
layer {
  name: "inception_4d/output"
  type: "Concat"
  bottom: "inception_4d/1x1"
  bottom: "inception_4d/3x3"
  bottom: "inception_4d/5x5"
  bottom: "inception_4d/pool_proj"
  top: "inception_4d/output"
}
layer {
  name: "loss2/ave_pool"
  type: "Pooling"
  bottom: "inception_4d/output"
  top: "loss2/ave_pool"
  pooling_param {
    pool: AVE
    kernel_size: 5
    stride: 3
  }
}
layer {
  name: "loss2/conv"
  type: "Convolution"
  bottom: "loss2/ave_pool"
  top: "loss2/conv"
  param {
    lr_mult: 1
    decay_mult: 1
  }
  param {
    lr_mult: 2
    decay_mult: 0
  }
  convolution_param {
    num_output: 128
    kernel_size: 1
    weight_filler {
      type: "xavier"
      std: 0.08
    }
    bias_filler {
      type: "constant"
      value: 0.2
    }
  }
}
layer {
  name: "loss2/relu_conv"
  type: "ReLU"
  bottom: "loss2/conv"
  top: "loss2/conv"
}
layer {
  name: "loss2/fc"
  type: "InnerProduct"
  bottom: "loss2/conv"
  top: "loss2/fc"
  param {
    lr_mult: 1
    decay_mult: 1
  }
  param {
    lr_mult: 2
    decay_mult: 0
  }
  inner_product_param {
    num_output: 1024
    weight_filler {
      type: "xavier"
      std: 0.02
    }
    bias_filler {
      type: "constant"
      value: 0.2
    }
  }
}
layer {
  name: "loss2/relu_fc"
  type: "ReLU"
  bottom: "loss2/fc"
  top: "loss2/fc"
}
layer {
  name: "loss2/drop_fc"
  type: "Dropout"
  bottom: "loss2/fc"
  top: "loss2/fc"
  dropout_param {
    dropout_ratio: 0.7
  }
}
layer {
  name: "loss2/classifier_plantvillage"
  type: "InnerProduct"
  bottom: "loss2/fc"
  top: "loss2/classifier_plantvillage"
  param {
    lr_mult: 1
    decay_mult: 1
  }
  param {
    lr_mult: 2
    decay_mult: 0
  }
  inner_product_param {
    num_output: 38
    weight_filler {
      type: "xavier"
      std: 0.0009765625
    }
    bias_filler {
      type: "constant"
      value: 0
    }
  }
}
layer {
  name: "inception_4e/1x1"
  type: "Convolution"
  bottom: "inception_4d/output"
  top: "inception_4e/1x1"
  param {
    lr_mult: 1
    decay_mult: 1
  }
  param {
    lr_mult: 2
    decay_mult: 0
  }
  convolution_param {
    num_output: 256
    kernel_size: 1
    weight_filler {
      type: "xavier"
      std: 0.03
    }
    bias_filler {
      type: "constant"
      value: 0.2
    }
  }
}
layer {
  name: "inception_4e/relu_1x1"
  type: "ReLU"
  bottom: "inception_4e/1x1"
  top: "inception_4e/1x1"
}
layer {
  name: "inception_4e/3x3_reduce"
  type: "Convolution"
  bottom: "inception_4d/output"
  top: "inception_4e/3x3_reduce"
  param {
    lr_mult: 1
    decay_mult: 1
  }
  param {
    lr_mult: 2
    decay_mult: 0
  }
  convolution_param {
    num_output: 160
    kernel_size: 1
    weight_filler {
      type: "xavier"
      std: 0.09
    }
    bias_filler {
      type: "constant"
      value: 0.2
    }
  }
}
layer {
  name: "inception_4e/relu_3x3_reduce"
  type: "ReLU"
  bottom: "inception_4e/3x3_reduce"
  top: "inception_4e/3x3_reduce"
}
layer {
  name: "inception_4e/3x3"
  type: "Convolution"
  bottom: "inception_4e/3x3_reduce"
  top: "inception_4e/3x3"
  param {
    lr_mult: 1
    decay_mult: 1
  }
  param {
    lr_mult: 2
    decay_mult: 0
  }
  convolution_param {
    num_output: 320
    pad: 1
    kernel_size: 3
    weight_filler {
      type: "xavier"
      std: 0.03
    }
    bias_filler {
      type: "constant"
      value: 0.2
    }
  }
}
layer {
  name: "inception_4e/relu_3x3"
  type: "ReLU"
  bottom: "inception_4e/3x3"
  top: "inception_4e/3x3"
}
layer {
  name: "inception_4e/5x5_reduce"
  type: "Convolution"
  bottom: "inception_4d/output"
  top: "inception_4e/5x5_reduce"
  param {
    lr_mult: 1
    decay_mult: 1
  }
  param {
    lr_mult: 2
    decay_mult: 0
  }
  convolution_param {
    num_output: 32
    kernel_size: 1
    weight_filler {
      type: "xavier"
      std: 0.2
    }
    bias_filler {
      type: "constant"
      value: 0.2
    }
  }
}
layer {
  name: "inception_4e/relu_5x5_reduce"
  type: "ReLU"
  bottom: "inception_4e/5x5_reduce"
  top: "inception_4e/5x5_reduce"
}
layer {
  name: "inception_4e/5x5"
  type: "Convolution"
  bottom: "inception_4e/5x5_reduce"
  top: "inception_4e/
I0403 15:18:16.338188 18843 layer_factory.hpp:77] Creating layer data
I0403 15:18:16.338760 18843 net.cpp:91] Creating Layer data
I0403 15:18:16.338789 18843 net.cpp:399] data -> data
I0403 15:18:16.338838 18843 net.cpp:399] data -> label
I0403 15:18:16.338874 18843 data_transformer.cpp:25] Loading mean file from: /home/mohanty/data/final_dataset/lmdb/grayscale-40-60/mean.binaryproto
I0403 15:18:16.341488 18848 db_lmdb.cpp:38] Opened lmdb /home/mohanty/data/final_dataset/lmdb/grayscale-40-60/test_db
I0403 15:18:16.352329 18843 data_layer.cpp:41] output data size: 24,3,224,224
I0403 15:18:16.382397 18843 net.cpp:141] Setting up data
I0403 15:18:16.382474 18843 net.cpp:148] Top shape: 24 3 224 224 (3612672)
I0403 15:18:16.382498 18843 net.cpp:148] Top shape: 24 (24)
I0403 15:18:16.382513 18843 net.cpp:156] Memory required for data: 14450784
I0403 15:18:16.382539 18843 layer_factory.hpp:77] Creating layer label_data_1_split
I0403 15:18:16.382565 18843 net.cpp:91] Creating Layer label_data_1_split
I0403 15:18:16.382583 18843 net.cpp:425] label_data_1_split <- label
I0403 15:18:16.382614 18843 net.cpp:399] label_data_1_split -> label_data_1_split_0
I0403 15:18:16.382642 18843 net.cpp:399] label_data_1_split -> label_data_1_split_1
I0403 15:18:16.382663 18843 net.cpp:399] label_data_1_split -> label_data_1_split_2
I0403 15:18:16.382683 18843 net.cpp:399] label_data_1_split -> label_data_1_split_3
I0403 15:18:16.382702 18843 net.cpp:399] label_data_1_split -> label_data_1_split_4
I0403 15:18:16.382722 18843 net.cpp:399] label_data_1_split -> label_data_1_split_5
I0403 15:18:16.382740 18843 net.cpp:399] label_data_1_split -> label_data_1_split_6
I0403 15:18:16.382760 18843 net.cpp:399] label_data_1_split -> label_data_1_split_7
I0403 15:18:16.382778 18843 net.cpp:399] label_data_1_split -> label_data_1_split_8
I0403 15:18:16.382798 18843 net.cpp:399] label_data_1_split -> label_data_1_split_9
I0403 15:18:16.382913 18843 net.cpp:141] Setting up label_data_1_split
I0403 15:18:16.382937 18843 net.cpp:148] Top shape: 24 (24)
I0403 15:18:16.382953 18843 net.cpp:148] Top shape: 24 (24)
I0403 15:18:16.382969 18843 net.cpp:148] Top shape: 24 (24)
I0403 15:18:16.382988 18843 net.cpp:148] Top shape: 24 (24)
I0403 15:18:16.383005 18843 net.cpp:148] Top shape: 24 (24)
I0403 15:18:16.383020 18843 net.cpp:148] Top shape: 24 (24)
I0403 15:18:16.383035 18843 net.cpp:148] Top shape: 24 (24)
I0403 15:18:16.383050 18843 net.cpp:148] Top shape: 24 (24)
I0403 15:18:16.383065 18843 net.cpp:148] Top shape: 24 (24)
I0403 15:18:16.383081 18843 net.cpp:148] Top shape: 24 (24)
I0403 15:18:16.383126 18843 net.cpp:156] Memory required for data: 14451744
I0403 15:18:16.383141 18843 layer_factory.hpp:77] Creating layer conv1/7x7_s2
I0403 15:18:16.383172 18843 net.cpp:91] Creating Layer conv1/7x7_s2
I0403 15:18:16.383191 18843 net.cpp:425] conv1/7x7_s2 <- data
I0403 15:18:16.383210 18843 net.cpp:399] conv1/7x7_s2 -> conv1/7x7_s2
I0403 15:18:16.530220 18843 net.cpp:141] Setting up conv1/7x7_s2
I0403 15:18:16.530303 18843 net.cpp:148] Top shape: 24 64 112 112 (19267584)
I0403 15:18:16.530319 18843 net.cpp:156] Memory required for data: 91522080
I0403 15:18:16.530350 18843 layer_factory.hpp:77] Creating layer conv1/relu_7x7
I0403 15:18:16.530377 18843 net.cpp:91] Creating Layer conv1/relu_7x7
I0403 15:18:16.530396 18843 net.cpp:425] conv1/relu_7x7 <- conv1/7x7_s2
I0403 15:18:16.530414 18843 net.cpp:386] conv1/relu_7x7 -> conv1/7x7_s2 (in-place)
I0403 15:18:16.530681 18843 net.cpp:141] Setting up conv1/relu_7x7
I0403 15:18:16.530709 18843 net.cpp:148] Top shape: 24 64 112 112 (19267584)
I0403 15:18:16.530724 18843 net.cpp:156] Memory required for data: 168592416
I0403 15:18:16.530740 18843 layer_factory.hpp:77] Creating layer pool1/3x3_s2
I0403 15:18:16.530763 18843 net.cpp:91] Creating Layer pool1/3x3_s2
I0403 15:18:16.530781 18843 net.cpp:425] pool1/3x3_s2 <- conv1/7x7_s2
I0403 15:18:16.530800 18843 net.cpp:399] pool1/3x3_s2 -> pool1/3x3_s2
I0403 15:18:16.530874 18843 net.cpp:141] Setting up pool1/3x3_s2
I0403 15:18:16.530900 18843 net.cpp:148] Top shape: 24 64 56 56 (4816896)
I0403 15:18:16.530913 18843 net.cpp:156] Memory required for data: 187860000
I0403 15:18:16.530928 18843 layer_factory.hpp:77] Creating layer pool1/norm1
I0403 15:18:16.530966 18843 net.cpp:91] Creating Layer pool1/norm1
I0403 15:18:16.530983 18843 net.cpp:425] pool1/norm1 <- pool1/3x3_s2
I0403 15:18:16.531008 18843 net.cpp:399] pool1/norm1 -> pool1/norm1
I0403 15:18:16.531321 18843 net.cpp:141] Setting up pool1/norm1
I0403 15:18:16.531347 18843 net.cpp:148] Top shape: 24 64 56 56 (4816896)
I0403 15:18:16.531363 18843 net.cpp:156] Memory required for data: 207127584
I0403 15:18:16.531378 18843 layer_factory.hpp:77] Creating layer conv2/3x3_reduce
I0403 15:18:16.531402 18843 net.cpp:91] Creating Layer conv2/3x3_reduce
I0403 15:18:16.531419 18843 net.cpp:425] conv2/3x3_reduce <- pool1/norm1
I0403 15:18:16.531438 18843 net.cpp:399] conv2/3x3_reduce -> conv2/3x3_reduce
I0403 15:18:16.532867 18843 net.cpp:141] Setting up conv2/3x3_reduce
I0403 15:18:16.532896 18843 net.cpp:148] Top shape: 24 64 56 56 (4816896)
I0403 15:18:16.532913 18843 net.cpp:156] Memory required for data: 226395168
I0403 15:18:16.532933 18843 layer_factory.hpp:77] Creating layer conv2/relu_3x3_reduce
I0403 15:18:16.532953 18843 net.cpp:91] Creating Layer conv2/relu_3x3_reduce
I0403 15:18:16.532968 18843 net.cpp:425] conv2/relu_3x3_reduce <- conv2/3x3_reduce
I0403 15:18:16.532989 18843 net.cpp:386] conv2/relu_3x3_reduce -> conv2/3x3_reduce (in-place)
I0403 15:18:16.533257 18843 net.cpp:141] Setting up conv2/relu_3x3_reduce
I0403 15:18:16.533284 18843 net.cpp:148] Top shape: 24 64 56 56 (4816896)
I0403 15:18:16.533300 18843 net.cpp:156] Memory required for data: 245662752
I0403 15:18:16.533315 18843 layer_factory.hpp:77] Creating layer conv2/3x3
I0403 15:18:16.533336 18843 net.cpp:91] Creating Layer conv2/3x3
I0403 15:18:16.533354 18843 net.cpp:425] conv2/3x3 <- conv2/3x3_reduce
I0403 15:18:16.533371 18843 net.cpp:399] conv2/3x3 -> conv2/3x3
I0403 15:18:16.535666 18843 net.cpp:141] Setting up conv2/3x3
I0403 15:18:16.535697 18843 net.cpp:148] Top shape: 24 192 56 56 (14450688)
I0403 15:18:16.535713 18843 net.cpp:156] Memory required for data: 303465504
I0403 15:18:16.535734 18843 layer_factory.hpp:77] Creating layer conv2/relu_3x3
I0403 15:18:16.535756 18843 net.cpp:91] Creating Layer conv2/relu_3x3
I0403 15:18:16.535773 18843 net.cpp:425] conv2/relu_3x3 <- conv2/3x3
I0403 15:18:16.535790 18843 net.cpp:386] conv2/relu_3x3 -> conv2/3x3 (in-place)
I0403 15:18:16.535977 18843 net.cpp:141] Setting up conv2/relu_3x3
I0403 15:18:16.536006 18843 net.cpp:148] Top shape: 24 192 56 56 (14450688)
I0403 15:18:16.536052 18843 net.cpp:156] Memory required for data: 361268256
I0403 15:18:16.536067 18843 layer_factory.hpp:77] Creating layer conv2/norm2
I0403 15:18:16.536084 18843 net.cpp:91] Creating Layer conv2/norm2
I0403 15:18:16.536100 18843 net.cpp:425] conv2/norm2 <- conv2/3x3
I0403 15:18:16.536120 18843 net.cpp:399] conv2/norm2 -> conv2/norm2
I0403 15:18:16.536459 18843 net.cpp:141] Setting up conv2/norm2
I0403 15:18:16.536486 18843 net.cpp:148] Top shape: 24 192 56 56 (14450688)
I0403 15:18:16.536514 18843 net.cpp:156] Memory required for data: 419071008
I0403 15:18:16.536530 18843 layer_factory.hpp:77] Creating layer pool2/3x3_s2
I0403 15:18:16.536546 18843 net.cpp:91] Creating Layer pool2/3x3_s2
I0403 15:18:16.536563 18843 net.cpp:425] pool2/3x3_s2 <- conv2/norm2
I0403 15:18:16.536582 18843 net.cpp:399] pool2/3x3_s2 -> pool2/3x3_s2
I0403 15:18:16.536636 18843 net.cpp:141] Setting up pool2/3x3_s2
I0403 15:18:16.536659 18843 net.cpp:148] Top shape: 24 192 28 28 (3612672)
I0403 15:18:16.536674 18843 net.cpp:156] Memory required for data: 433521696
I0403 15:18:16.536687 18843 layer_factory.hpp:77] Creating layer pool2/3x3_s2_pool2/3x3_s2_0_split
I0403 15:18:16.536707 18843 net.cpp:91] Creating Layer pool2/3x3_s2_pool2/3x3_s2_0_split
I0403 15:18:16.536725 18843 net.cpp:425] pool2/3x3_s2_pool2/3x3_s2_0_split <- pool2/3x3_s2
I0403 15:18:16.536744 18843 net.cpp:399] pool2/3x3_s2_pool2/3x3_s2_0_split -> pool2/3x3_s2_pool2/3x3_s2_0_split_0
I0403 15:18:16.536764 18843 net.cpp:399] pool2/3x3_s2_pool2/3x3_s2_0_split -> pool2/3x3_s2_pool2/3x3_s2_0_split_1
I0403 15:18:16.536784 18843 net.cpp:399] pool2/3x3_s2_pool2/3x3_s2_0_split -> pool2/3x3_s2_pool2/3x3_s2_0_split_2
I0403 15:18:16.536803 18843 net.cpp:399] pool2/3x3_s2_pool2/3x3_s2_0_split -> pool2/3x3_s2_pool2/3x3_s2_0_split_3
I0403 15:18:16.536873 18843 net.cpp:141] Setting up pool2/3x3_s2_pool2/3x3_s2_0_split
I0403 15:18:16.536900 18843 net.cpp:148] Top shape: 24 192 28 28 (3612672)
I0403 15:18:16.536917 18843 net.cpp:148] Top shape: 24 192 28 28 (3612672)
I0403 15:18:16.536932 18843 net.cpp:148] Top shape: 24 192 28 28 (3612672)
I0403 15:18:16.536948 18843 net.cpp:148] Top shape: 24 192 28 28 (3612672)
I0403 15:18:16.536962 18843 net.cpp:156] Memory required for data: 491324448
I0403 15:18:16.536975 18843 layer_factory.hpp:77] Creating layer inception_3a/1x1
I0403 15:18:16.537003 18843 net.cpp:91] Creating Layer inception_3a/1x1
I0403 15:18:16.537022 18843 net.cpp:425] inception_3a/1x1 <- pool2/3x3_s2_pool2/3x3_s2_0_split_0
I0403 15:18:16.537041 18843 net.cpp:399] inception_3a/1x1 -> inception_3a/1x1
I0403 15:18:16.538617 18843 net.cpp:141] Setting up inception_3a/1x1
I0403 15:18:16.538646 18843 net.cpp:148] Top shape: 24 64 28 28 (1204224)
I0403 15:18:16.538662 18843 net.cpp:156] Memory required for data: 496141344
I0403 15:18:16.538681 18843 layer_factory.hpp:77] Creating layer inception_3a/relu_1x1
I0403 15:18:16.538702 18843 net.cpp:91] Creating Layer inception_3a/relu_1x1
I0403 15:18:16.538719 18843 net.cpp:425] inception_3a/relu_1x1 <- inception_3a/1x1
I0403 15:18:16.538736 18843 net.cpp:386] inception_3a/relu_1x1 -> inception_3a/1x1 (in-place)
I0403 15:18:16.538915 18843 net.cpp:141] Setting up inception_3a/relu_1x1
I0403 15:18:16.538944 18843 net.cpp:148] Top shape: 24 64 28 28 (1204224)
I0403 15:18:16.538959 18843 net.cpp:156] Memory required for data: 500958240
I0403 15:18:16.538974 18843 layer_factory.hpp:77] Creating layer inception_3a/3x3_reduce
I0403 15:18:16.539007 18843 net.cpp:91] Creating Layer inception_3a/3x3_reduce
I0403 15:18:16.539029 18843 net.cpp:425] inception_3a/3x3_reduce <- pool2/3x3_s2_pool2/3x3_s2_0_split_1
I0403 15:18:16.539047 18843 net.cpp:399] inception_3a/3x3_reduce -> inception_3a/3x3_reduce
I0403 15:18:16.540808 18843 net.cpp:141] Setting up inception_3a/3x3_reduce
I0403 15:18:16.540838 18843 net.cpp:148] Top shape: 24 96 28 28 (1806336)
I0403 15:18:16.540854 18843 net.cpp:156] Memory required for data: 508183584
I0403 15:18:16.540875 18843 layer_factory.hpp:77] Creating layer inception_3a/relu_3x3_reduce
I0403 15:18:16.540913 18843 net.cpp:91] Creating Layer inception_3a/relu_3x3_reduce
I0403 15:18:16.540931 18843 net.cpp:425] inception_3a/relu_3x3_reduce <- inception_3a/3x3_reduce
I0403 15:18:16.540956 18843 net.cpp:386] inception_3a/relu_3x3_reduce -> inception_3a/3x3_reduce (in-place)
I0403 15:18:16.541147 18843 net.cpp:141] Setting up inception_3a/relu_3x3_reduce
I0403 15:18:16.541173 18843 net.cpp:148] Top shape: 24 96 28 28 (1806336)
I0403 15:18:16.541188 18843 net.cpp:156] Memory required for data: 515408928
I0403 15:18:16.541203 18843 layer_factory.hpp:77] Creating layer inception_3a/3x3
I0403 15:18:16.541224 18843 net.cpp:91] Creating Layer inception_3a/3x3
I0403 15:18:16.541241 18843 net.cpp:425] inception_3a/3x3 <- inception_3a/3x3_reduce
I0403 15:18:16.541263 18843 net.cpp:399] inception_3a/3x3 -> inception_3a/3x3
I0403 15:18:16.542951 18843 net.cpp:141] Setting up inception_3a/3x3
I0403 15:18:16.542981 18843 net.cpp:148] Top shape: 24 128 28 28 (2408448)
I0403 15:18:16.543004 18843 net.cpp:156] Memory required for data: 525042720
I0403 15:18:16.543023 18843 layer_factory.hpp:77] Creating layer inception_3a/relu_3x3
I0403 15:18:16.543041 18843 net.cpp:91] Creating Layer inception_3a/relu_3x3
I0403 15:18:16.543057 18843 net.cpp:425] inception_3a/relu_3x3 <- inception_3a/3x3
I0403 15:18:16.543076 18843 net.cpp:386] inception_3a/relu_3x3 -> inception_3a/3x3 (in-place)
I0403 15:18:16.543359 18843 net.cpp:141] Setting up inception_3a/relu_3x3
I0403 15:18:16.543387 18843 net.cpp:148] Top shape: 24 128 28 28 (2408448)
I0403 15:18:16.543403 18843 net.cpp:156] Memory required for data: 534676512
I0403 15:18:16.543418 18843 layer_factory.hpp:77] Creating layer inception_3a/5x5_reduce
I0403 15:18:16.543438 18843 net.cpp:91] Creating Layer inception_3a/5x5_reduce
I0403 15:18:16.543455 18843 net.cpp:425] inception_3a/5x5_reduce <- pool2/3x3_s2_pool2/3x3_s2_0_split_2
I0403 15:18:16.543476 18843 net.cpp:399] inception_3a/5x5_reduce -> inception_3a/5x5_reduce
I0403 15:18:16.544494 18843 net.cpp:141] Setting up inception_3a/5x5_reduce
I0403 15:18:16.544538 18843 net.cpp:148] Top shape: 24 16 28 28 (301056)
I0403 15:18:16.544553 18843 net.cpp:156] Memory required for data: 535880736
I0403 15:18:16.544571 18843 layer_factory.hpp:77] Creating layer inception_3a/relu_5x5_reduce
I0403 15:18:16.544589 18843 net.cpp:91] Creating Layer inception_3a/relu_5x5_reduce
I0403 15:18:16.544605 18843 net.cpp:425] inception_3a/relu_5x5_reduce <- inception_3a/5x5_reduce
I0403 15:18:16.544621 18843 net.cpp:386] inception_3a/relu_5x5_reduce -> inception_3a/5x5_reduce (in-place)
I0403 15:18:16.544924 18843 net.cpp:141] Setting up inception_3a/relu_5x5_reduce
I0403 15:18:16.544951 18843 net.cpp:148] Top shape: 24 16 28 28 (301056)
I0403 15:18:16.544966 18843 net.cpp:156] Memory required for data: 537084960
I0403 15:18:16.544981 18843 layer_factory.hpp:77] Creating layer inception_3a/5x5
I0403 15:18:16.545009 18843 net.cpp:91] Creating Layer inception_3a/5x5
I0403 15:18:16.545029 18843 net.cpp:425] inception_3a/5x5 <- inception_3a/5x5_reduce
I0403 15:18:16.545052 18843 net.cpp:399] inception_3a/5x5 -> inception_3a/5x5
I0403 15:18:16.546113 18843 net.cpp:141] Setting up inception_3a/5x5
I0403 15:18:16.546141 18843 net.cpp:148] Top shape: 24 32 28 28 (602112)
I0403 15:18:16.546157 18843 net.cpp:156] Memory required for data: 539493408
I0403 15:18:16.546176 18843 layer_factory.hpp:77] Creating layer inception_3a/relu_5x5
I0403 15:18:16.546197 18843 net.cpp:91] Creating Layer inception_3a/relu_5x5
I0403 15:18:16.546216 18843 net.cpp:425] inception_3a/relu_5x5 <- inception_3a/5x5
I0403 15:18:16.546233 18843 net.cpp:386] inception_3a/relu_5x5 -> inception_3a/5x5 (in-place)
I0403 15:18:16.546428 18843 net.cpp:141] Setting up inception_3a/relu_5x5
I0403 15:18:16.546455 18843 net.cpp:148] Top shape: 24 32 28 28 (602112)
I0403 15:18:16.546471 18843 net.cpp:156] Memory required for data: 541901856
I0403 15:18:16.546485 18843 layer_factory.hpp:77] Creating layer inception_3a/pool
I0403 15:18:16.546504 18843 net.cpp:91] Creating Layer inception_3a/pool
I0403 15:18:16.546533 18843 net.cpp:425] inception_3a/pool <- pool2/3x3_s2_pool2/3x3_s2_0_split_3
I0403 15:18:16.546555 18843 net.cpp:399] inception_3a/pool -> inception_3a/pool
I0403 15:18:16.546613 18843 net.cpp:141] Setting up inception_3a/pool
I0403 15:18:16.546636 18843 net.cpp:148] Top shape: 24 192 28 28 (3612672)
I0403 15:18:16.546651 18843 net.cpp:156] Memory required for data: 556352544
I0403 15:18:16.546665 18843 layer_factory.hpp:77] Creating layer inception_3a/pool_proj
I0403 15:18:16.546687 18843 net.cpp:91] Creating Layer inception_3a/pool_proj
I0403 15:18:16.546705 18843 net.cpp:425] inception_3a/pool_proj <- inception_3a/pool
I0403 15:18:16.546725 18843 net.cpp:399] inception_3a/pool_proj -> inception_3a/pool_proj
I0403 15:18:16.547721 18843 net.cpp:141] Setting up inception_3a/pool_proj
I0403 15:18:16.547750 18843 net.cpp:148] Top shape: 24 32 28 28 (602112)
I0403 15:18:16.547766 18843 net.cpp:156] Memory required for data: 558760992
I0403 15:18:16.547791 18843 layer_factory.hpp:77] Creating layer inception_3a/relu_pool_proj
I0403 15:18:16.547811 18843 net.cpp:91] Creating Layer inception_3a/relu_pool_proj
I0403 15:18:16.547827 18843 net.cpp:425] inception_3a/relu_pool_proj <- inception_3a/pool_proj
I0403 15:18:16.547844 18843 net.cpp:386] inception_3a/relu_pool_proj -> inception_3a/pool_proj (in-place)
I0403 15:18:16.548141 18843 net.cpp:141] Setting up inception_3a/relu_pool_proj
I0403 15:18:16.548171 18843 net.cpp:148] Top shape: 24 32 28 28 (602112)
I0403 15:18:16.548187 18843 net.cpp:156] Memory required for data: 561169440
I0403 15:18:16.548200 18843 layer_factory.hpp:77] Creating layer inception_3a/output
I0403 15:18:16.548230 18843 net.cpp:91] Creating Layer inception_3a/output
I0403 15:18:16.548246 18843 net.cpp:425] inception_3a/output <- inception_3a/1x1
I0403 15:18:16.548264 18843 net.cpp:425] inception_3a/output <- inception_3a/3x3
I0403 15:18:16.548280 18843 net.cpp:425] inception_3a/output <- inception_3a/5x5
I0403 15:18:16.548295 18843 net.cpp:425] inception_3a/output <- inception_3a/pool_proj
I0403 15:18:16.548313 18843 net.cpp:399] inception_3a/output -> inception_3a/output
I0403 15:18:16.548363 18843 net.cpp:141] Setting up inception_3a/output
I0403 15:18:16.548388 18843 net.cpp:148] Top shape: 24 256 28 28 (4816896)
I0403 15:18:16.548401 18843 net.cpp:156] Memory required for data: 580437024
I0403 15:18:16.548416 18843 layer_factory.hpp:77] Creating layer inception_3a/output_inception_3a/output_0_split
I0403 15:18:16.548434 18843 net.cpp:91] Creating Layer inception_3a/output_inception_3a/output_0_split
I0403 15:18:16.548449 18843 net.cpp:425] inception_3a/output_inception_3a/output_0_split <- inception_3a/output
I0403 15:18:16.548470 18843 net.cpp:399] inception_3a/output_inception_3a/output_0_split -> inception_3a/output_inception_3a/output_0_split_0
I0403 15:18:16.548491 18843 net.cpp:399] inception_3a/output_inception_3a/output_0_split -> inception_3a/output_inception_3a/output_0_split_1
I0403 15:18:16.548527 18843 net.cpp:399] inception_3a/output_inception_3a/output_0_split -> inception_3a/output_inception_3a/output_0_split_2
I0403 15:18:16.548548 18843 net.cpp:399] inception_3a/output_inception_3a/output_0_split -> inception_3a/output_inception_3a/output_0_split_3
I0403 15:18:16.548625 18843 net.cpp:141] Setting up inception_3a/output_inception_3a/output_0_split
I0403 15:18:16.548650 18843 net.cpp:148] Top shape: 24 256 28 28 (4816896)
I0403 15:18:16.548666 18843 net.cpp:148] Top shape: 24 256 28 28 (4816896)
I0403 15:18:16.548681 18843 net.cpp:148] Top shape: 24 256 28 28 (4816896)
I0403 15:18:16.548697 18843 net.cpp:148] Top shape: 24 256 28 28 (4816896)
I0403 15:18:16.548710 18843 net.cpp:156] Memory required for data: 657507360
I0403 15:18:16.548724 18843 layer_factory.hpp:77] Creating layer inception_3b/1x1
I0403 15:18:16.548746 18843 net.cpp:91] Creating Layer inception_3b/1x1
I0403 15:18:16.548763 18843 net.cpp:425] inception_3b/1x1 <- inception_3a/output_inception_3a/output_0_split_0
I0403 15:18:16.548784 18843 net.cpp:399] inception_3b/1x1 -> inception_3b/1x1
I0403 15:18:16.549989 18843 net.cpp:141] Setting up inception_3b/1x1
I0403 15:18:16.550030 18843 net.cpp:148] Top shape: 24 128 28 28 (2408448)
I0403 15:18:16.550047 18843 net.cpp:156] Memory required for data: 667141152
I0403 15:18:16.550065 18843 layer_factory.hpp:77] Creating layer inception_3b/relu_1x1
I0403 15:18:16.550086 18843 net.cpp:91] Creating Layer inception_3b/relu_1x1
I0403 15:18:16.550103 18843 net.cpp:425] inception_3b/relu_1x1 <- inception_3b/1x1
I0403 15:18:16.550122 18843 net.cpp:386] inception_3b/relu_1x1 -> inception_3b/1x1 (in-place)
I0403 15:18:16.550305 18843 net.cpp:141] Setting up inception_3b/relu_1x1
I0403 15:18:16.550333 18843 net.cpp:148] Top shape: 24 128 28 28 (2408448)
I0403 15:18:16.550348 18843 net.cpp:156] Memory required for data: 676774944
I0403 15:18:16.550364 18843 layer_factory.hpp:77] Creating layer inception_3b/3x3_reduce
I0403 15:18:16.550386 18843 net.cpp:91] Creating Layer inception_3b/3x3_reduce
I0403 15:18:16.550403 18843 net.cpp:425] inception_3b/3x3_reduce <- inception_3a/output_inception_3a/output_0_split_1
I0403 15:18:16.550422 18843 net.cpp:399] inception_3b/3x3_reduce -> inception_3b/3x3_reduce
I0403 15:18:16.551606 18843 net.cpp:141] Setting up inception_3b/3x3_reduce
I0403 15:18:16.551635 18843 net.cpp:148] Top shape: 24 128 28 28 (2408448)
I0403 15:18:16.551651 18843 net.cpp:156] Memory required for data: 686408736
I0403 15:18:16.551668 18843 layer_factory.hpp:77] Creating layer inception_3b/relu_3x3_reduce
I0403 15:18:16.551688 18843 net.cpp:91] Creating Layer inception_3b/relu_3x3_reduce
I0403 15:18:16.551705 18843 net.cpp:425] inception_3b/relu_3x3_reduce <- inception_3b/3x3_reduce
I0403 15:18:16.551723 18843 net.cpp:386] inception_3b/relu_3x3_reduce -> inception_3b/3x3_reduce (in-place)
I0403 15:18:16.551911 18843 net.cpp:141] Setting up inception_3b/relu_3x3_reduce
I0403 15:18:16.551937 18843 net.cpp:148] Top shape: 24 128 28 28 (2408448)
I0403 15:18:16.551951 18843 net.cpp:156] Memory required for data: 696042528
I0403 15:18:16.551966 18843 layer_factory.hpp:77] Creating layer inception_3b/3x3
I0403 15:18:16.551996 18843 net.cpp:91] Creating Layer inception_3b/3x3
I0403 15:18:16.552016 18843 net.cpp:425] inception_3b/3x3 <- inception_3b/3x3_reduce
I0403 15:18:16.552039 18843 net.cpp:399] inception_3b/3x3 -> inception_3b/3x3
I0403 15:18:16.555057 18843 net.cpp:141] Setting up inception_3b/3x3
I0403 15:18:16.555088 18843 net.cpp:148] Top shape: 24 192 28 28 (3612672)
I0403 15:18:16.555104 18843 net.cpp:156] Memory required for data: 710493216
I0403 15:18:16.555124 18843 layer_factory.hpp:77] Creating layer inception_3b/relu_3x3
I0403 15:18:16.555141 18843 net.cpp:91] Creating Layer inception_3b/relu_3x3
I0403 15:18:16.555157 18843 net.cpp:425] inception_3b/relu_3x3 <- inception_3b/3x3
I0403 15:18:16.555176 18843 net.cpp:386] inception_3b/relu_3x3 -> inception_3b/3x3 (in-place)
I0403 15:18:16.555460 18843 net.cpp:141] Setting up inception_3b/relu_3x3
I0403 15:18:16.555495 18843 net.cpp:148] Top shape: 24 192 28 28 (3612672)
I0403 15:18:16.555510 18843 net.cpp:156] Memory required for data: 724943904
I0403 15:18:16.555526 18843 layer_factory.hpp:77] Creating layer inception_3b/5x5_reduce
I0403 15:18:16.555547 18843 net.cpp:91] Creating Layer inception_3b/5x5_reduce
I0403 15:18:16.555564 18843 net.cpp:425] inception_3b/5x5_reduce <- inception_3a/output_inception_3a/output_0_split_2
I0403 15:18:16.555585 18843 net.cpp:399] inception_3b/5x5_reduce -> inception_3b/5x5_reduce
I0403 15:18:16.556648 18843 net.cpp:141] Setting up inception_3b/5x5_reduce
I0403 15:18:16.556676 18843 net.cpp:148] Top shape: 24 32 28 28 (602112)
I0403 15:18:16.556691 18843 net.cpp:156] Memory required for data: 727352352
I0403 15:18:16.556710 18843 layer_factory.hpp:77] Creating layer inception_3b/relu_5x5_reduce
I0403 15:18:16.556731 18843 net.cpp:91] Creating Layer inception_3b/relu_5x5_reduce
I0403 15:18:16.556747 18843 net.cpp:425] inception_3b/relu_5x5_reduce <- inception_3b/5x5_reduce
I0403 15:18:16.556766 18843 net.cpp:386] inception_3b/relu_5x5_reduce -> inception_3b/5x5_reduce (in-place)
I0403 15:18:16.556964 18843 net.cpp:141] Setting up inception_3b/relu_5x5_reduce
I0403 15:18:16.557009 18843 net.cpp:148] Top shape: 24 32 28 28 (602112)
I0403 15:18:16.557030 18843 net.cpp:156] Memory required for data: 729760800
I0403 15:18:16.557054 18843 layer_factory.hpp:77] Creating layer inception_3b/5x5
I0403 15:18:16.557076 18843 net.cpp:91] Creating Layer inception_3b/5x5
I0403 15:18:16.557096 18843 net.cpp:425] inception_3b/5x5 <- inception_3b/5x5_reduce
I0403 15:18:16.557116 18843 net.cpp:399] inception_3b/5x5 -> inception_3b/5x5
I0403 15:18:16.559218 18843 net.cpp:141] Setting up inception_3b/5x5
I0403 15:18:16.559249 18843 net.cpp:148] Top shape: 24 96 28 28 (1806336)
I0403 15:18:16.559267 18843 net.cpp:156] Memory required for data: 736986144
I0403 15:18:16.559285 18843 layer_factory.hpp:77] Creating layer inception_3b/relu_5x5
I0403 15:18:16.559306 18843 net.cpp:91] Creating Layer inception_3b/relu_5x5
I0403 15:18:16.559324 18843 net.cpp:425] inception_3b/relu_5x5 <- inception_3b/5x5
I0403 15:18:16.559343 18843 net.cpp:386] inception_3b/relu_5x5 -> inception_3b/5x5 (in-place)
I0403 15:18:16.559554 18843 net.cpp:141] Setting up inception_3b/relu_5x5
I0403 15:18:16.559581 18843 net.cpp:148] Top shape: 24 96 28 28 (1806336)
I0403 15:18:16.559595 18843 net.cpp:156] Memory required for data: 744211488
I0403 15:18:16.559610 18843 layer_factory.hpp:77] Creating layer inception_3b/pool
I0403 15:18:16.559628 18843 net.cpp:91] Creating Layer inception_3b/pool
I0403 15:18:16.559645 18843 net.cpp:425] inception_3b/pool <- inception_3a/output_inception_3a/output_0_split_3
I0403 15:18:16.559664 18843 net.cpp:399] inception_3b/pool -> inception_3b/pool
I0403 15:18:16.559722 18843 net.cpp:141] Setting up inception_3b/pool
I0403 15:18:16.559747 18843 net.cpp:148] Top shape: 24 256 28 28 (4816896)
I0403 15:18:16.559762 18843 net.cpp:156] Memory required for data: 763479072
I0403 15:18:16.559777 18843 layer_factory.hpp:77] Creating layer inception_3b/pool_proj
I0403 15:18:16.559799 18843 net.cpp:91] Creating Layer inception_3b/pool_proj
I0403 15:18:16.559818 18843 net.cpp:425] inception_3b/pool_proj <- inception_3b/pool
I0403 15:18:16.559839 18843 net.cpp:399] inception_3b/pool_proj -> inception_3b/pool_proj
I0403 15:18:16.560966 18843 net.cpp:141] Setting up inception_3b/pool_proj
I0403 15:18:16.561002 18843 net.cpp:148] Top shape: 24 64 28 28 (1204224)
I0403 15:18:16.561019 18843 net.cpp:156] Memory required for data: 768295968
I0403 15:18:16.561038 18843 layer_factory.hpp:77] Creating layer inception_3b/relu_pool_proj
I0403 15:18:16.561058 18843 net.cpp:91] Creating Layer inception_3b/relu_pool_proj
I0403 15:18:16.561074 18843 net.cpp:425] inception_3b/relu_pool_proj <- inception_3b/pool_proj
I0403 15:18:16.561094 18843 net.cpp:386] inception_3b/relu_pool_proj -> inception_3b/pool_proj (in-place)
I0403 15:18:16.561499 18843 net.cpp:141] Setting up inception_3b/relu_pool_proj
I0403 15:18:16.561529 18843 net.cpp:148] Top shape: 24 64 28 28 (1204224)
I0403 15:18:16.561547 18843 net.cpp:156] Memory required for data: 773112864
I0403 15:18:16.561561 18843 layer_factory.hpp:77] Creating layer inception_3b/output
I0403 15:18:16.561579 18843 net.cpp:91] Creating Layer inception_3b/output
I0403 15:18:16.561595 18843 net.cpp:425] inception_3b/output <- inception_3b/1x1
I0403 15:18:16.561612 18843 net.cpp:425] inception_3b/output <- inception_3b/3x3
I0403 15:18:16.561630 18843 net.cpp:425] inception_3b/output <- inception_3b/5x5
I0403 15:18:16.561646 18843 net.cpp:425] inception_3b/output <- inception_3b/pool_proj
I0403 15:18:16.561663 18843 net.cpp:399] inception_3b/output -> inception_3b/output
I0403 15:18:16.561712 18843 net.cpp:141] Setting up inception_3b/output
I0403 15:18:16.561735 18843 net.cpp:148] Top shape: 24 480 28 28 (9031680)
I0403 15:18:16.561750 18843 net.cpp:156] Memory required for data: 809239584
I0403 15:18:16.561765 18843 layer_factory.hpp:77] Creating layer pool3/3x3_s2
I0403 15:18:16.561786 18843 net.cpp:91] Creating Layer pool3/3x3_s2
I0403 15:18:16.561803 18843 net.cpp:425] pool3/3x3_s2 <- inception_3b/output
I0403 15:18:16.561841 18843 net.cpp:399] pool3/3x3_s2 -> pool3/3x3_s2
I0403 15:18:16.561907 18843 net.cpp:141] Setting up pool3/3x3_s2
I0403 15:18:16.561931 18843 net.cpp:148] Top shape: 24 480 14 14 (2257920)
I0403 15:18:16.561946 18843 net.cpp:156] Memory required for data: 818271264
I0403 15:18:16.561960 18843 layer_factory.hpp:77] Creating layer pool3/3x3_s2_pool3/3x3_s2_0_split
I0403 15:18:16.561978 18843 net.cpp:91] Creating Layer pool3/3x3_s2_pool3/3x3_s2_0_split
I0403 15:18:16.562000 18843 net.cpp:425] pool3/3x3_s2_pool3/3x3_s2_0_split <- pool3/3x3_s2
I0403 15:18:16.562021 18843 net.cpp:399] pool3/3x3_s2_pool3/3x3_s2_0_split -> pool3/3x3_s2_pool3/3x3_s2_0_split_0
I0403 15:18:16.562041 18843 net.cpp:399] pool3/3x3_s2_pool3/3x3_s2_0_split -> pool3/3x3_s2_pool3/3x3_s2_0_split_1
I0403 15:18:16.562062 18843 net.cpp:399] pool3/3x3_s2_pool3/3x3_s2_0_split -> pool3/3x3_s2_pool3/3x3_s2_0_split_2
I0403 15:18:16.562080 18843 net.cpp:399] pool3/3x3_s2_pool3/3x3_s2_0_split -> pool3/3x3_s2_pool3/3x3_s2_0_split_3
I0403 15:18:16.562163 18843 net.cpp:141] Setting up pool3/3x3_s2_pool3/3x3_s2_0_split
I0403 15:18:16.562191 18843 net.cpp:148] Top shape: 24 480 14 14 (2257920)
I0403 15:18:16.562209 18843 net.cpp:148] Top shape: 24 480 14 14 (2257920)
I0403 15:18:16.562225 18843 net.cpp:148] Top shape: 24 480 14 14 (2257920)
I0403 15:18:16.562242 18843 net.cpp:148] Top shape: 24 480 14 14 (2257920)
I0403 15:18:16.562254 18843 net.cpp:156] Memory required for data: 854397984
I0403 15:18:16.562269 18843 layer_factory.hpp:77] Creating layer inception_4a/1x1
I0403 15:18:16.562293 18843 net.cpp:91] Creating Layer inception_4a/1x1
I0403 15:18:16.562310 18843 net.cpp:425] inception_4a/1x1 <- pool3/3x3_s2_pool3/3x3_s2_0_split_0
I0403 15:18:16.562330 18843 net.cpp:399] inception_4a/1x1 -> inception_4a/1x1
I0403 15:18:16.564012 18843 net.cpp:141] Setting up inception_4a/1x1
I0403 15:18:16.564043 18843 net.cpp:148] Top shape: 24 192 14 14 (903168)
I0403 15:18:16.564059 18843 net.cpp:156] Memory required for data: 858010656
I0403 15:18:16.564077 18843 layer_factory.hpp:77] Creating layer inception_4a/relu_1x1
I0403 15:18:16.564096 18843 net.cpp:91] Creating Layer inception_4a/relu_1x1
I0403 15:18:16.564112 18843 net.cpp:425] inception_4a/relu_1x1 <- inception_4a/1x1
I0403 15:18:16.564132 18843 net.cpp:386] inception_4a/relu_1x1 -> inception_4a/1x1 (in-place)
I0403 15:18:16.564323 18843 net.cpp:141] Setting up inception_4a/relu_1x1
I0403 15:18:16.564349 18843 net.cpp:148] Top shape: 24 192 14 14 (903168)
I0403 15:18:16.564365 18843 net.cpp:156] Memory required for data: 861623328
I0403 15:18:16.564380 18843 layer_factory.hpp:77] Creating layer inception_4a/3x3_reduce
I0403 15:18:16.564404 18843 net.cpp:91] Creating Layer inception_4a/3x3_reduce
I0403 15:18:16.564422 18843 net.cpp:425] inception_4a/3x3_reduce <- pool3/3x3_s2_pool3/3x3_s2_0_split_1
I0403 15:18:16.564445 18843 net.cpp:399] inception_4a/3x3_reduce -> inception_4a/3x3_reduce
I0403 15:18:16.565819 18843 net.cpp:141] Setting up inception_4a/3x3_reduce
I0403 15:18:16.565847 18843 net.cpp:148] Top shape: 24 96 14 14 (451584)
I0403 15:18:16.565865 18843 net.cpp:156] Memory required for data: 863429664
I0403 15:18:16.565891 18843 layer_factory.hpp:77] Creating layer inception_4a/relu_3x3_reduce
I0403 15:18:16.565912 18843 net.cpp:91] Creating Layer inception_4a/relu_3x3_reduce
I0403 15:18:16.565928 18843 net.cpp:425] inception_4a/relu_3x3_reduce <- inception_4a/3x3_reduce
I0403 15:18:16.565949 18843 net.cpp:386] inception_4a/relu_3x3_reduce -> inception_4a/3x3_reduce (in-place)
I0403 15:18:16.566156 18843 net.cpp:141] Setting up inception_4a/relu_3x3_reduce
I0403 15:18:16.566182 18843 net.cpp:148] Top shape: 24 96 14 14 (451584)
I0403 15:18:16.566197 18843 net.cpp:156] Memory required for data: 865236000
I0403 15:18:16.566211 18843 layer_factory.hpp:77] Creating layer inception_4a/3x3
I0403 15:18:16.566233 18843 net.cpp:91] Creating Layer inception_4a/3x3
I0403 15:18:16.566251 18843 net.cpp:425] inception_4a/3x3 <- inception_4a/3x3_reduce
I0403 15:18:16.566277 18843 net.cpp:399] inception_4a/3x3 -> inception_4a/3x3
I0403 15:18:16.569082 18843 net.cpp:141] Setting up inception_4a/3x3
I0403 15:18:16.569111 18843 net.cpp:148] Top shape: 24 208 14 14 (978432)
I0403 15:18:16.569128 18843 net.cpp:156] Memory required for data: 869149728
I0403 15:18:16.569145 18843 layer_factory.hpp:77] Creating layer inception_4a/relu_3x3
I0403 15:18:16.569166 18843 net.cpp:91] Creating Layer inception_4a/relu_3x3
I0403 15:18:16.569183 18843 net.cpp:425] inception_4a/relu_3x3 <- inception_4a/3x3
I0403 15:18:16.569201 18843 net.cpp:386] inception_4a/relu_3x3 -> inception_4a/3x3 (in-place)
I0403 15:18:16.569490 18843 net.cpp:141] Setting up inception_4a/relu_3x3
I0403 15:18:16.569517 18843 net.cpp:148] Top shape: 24 208 14 14 (978432)
I0403 15:18:16.569545 18843 net.cpp:156] Memory required for data: 873063456
I0403 15:18:16.569560 18843 layer_factory.hpp:77] Creating layer inception_4a/5x5_reduce
I0403 15:18:16.569582 18843 net.cpp:91] Creating Layer inception_4a/5x5_reduce
I0403 15:18:16.569600 18843 net.cpp:425] inception_4a/5x5_reduce <- pool3/3x3_s2_pool3/3x3_s2_0_split_2
I0403 15:18:16.569622 18843 net.cpp:399] inception_4a/5x5_reduce -> inception_4a/5x5_reduce
I0403 15:18:16.570709 18843 net.cpp:141] Setting up inception_4a/5x5_reduce
I0403 15:18:16.570737 18843 net.cpp:148] Top shape: 24 16 14 14 (75264)
I0403 15:18:16.570754 18843 net.cpp:156] Memory required for data: 873364512
I0403 15:18:16.570772 18843 layer_factory.hpp:77] Creating layer inception_4a/relu_5x5_reduce
I0403 15:18:16.570792 18843 net.cpp:91] Creating Layer inception_4a/relu_5x5_reduce
I0403 15:18:16.570809 18843 net.cpp:425] inception_4a/relu_5x5_reduce <- inception_4a/5x5_reduce
I0403 15:18:16.570825 18843 net.cpp:386] inception_4a/relu_5x5_reduce -> inception_4a/5x5_reduce (in-place)
I0403 15:18:16.571019 18843 net.cpp:141] Setting up inception_4a/relu_5x5_reduce
I0403 15:18:16.571048 18843 net.cpp:148] Top shape: 24 16 14 14 (75264)
I0403 15:18:16.571063 18843 net.cpp:156] Memory required for data: 873665568
I0403 15:18:16.571079 18843 layer_factory.hpp:77] Creating layer inception_4a/5x5
I0403 15:18:16.571100 18843 net.cpp:91] Creating Layer inception_4a/5x5
I0403 15:18:16.571118 18843 net.cpp:425] inception_4a/5x5 <- inception_4a/5x5_reduce
I0403 15:18:16.571136 18843 net.cpp:399] inception_4a/5x5 -> inception_4a/5x5
I0403 15:18:16.572273 18843 net.cpp:141] Setting up inception_4a/5x5
I0403 15:18:16.572304 18843 net.cpp:148] Top shape: 24 48 14 14 (225792)
I0403 15:18:16.572321 18843 net.cpp:156] Memory required for data: 874568736
I0403 15:18:16.572340 18843 layer_factory.hpp:77] Creating layer inception_4a/relu_5x5
I0403 15:18:16.572358 18843 net.cpp:91] Creating Layer inception_4a/relu_5x5
I0403 15:18:16.572374 18843 net.cpp:425] inception_4a/relu_5x5 <- inception_4a/5x5
I0403 15:18:16.572394 18843 net.cpp:386] inception_4a/relu_5x5 -> inception_4a/5x5 (in-place)
I0403 15:18:16.572600 18843 net.cpp:141] Setting up inception_4a/relu_5x5
I0403 15:18:16.572625 18843 net.cpp:148] Top shape: 24 48 14 14 (225792)
I0403 15:18:16.572640 18843 net.cpp:156] Memory required for data: 875471904
I0403 15:18:16.572655 18843 layer_factory.hpp:77] Creating layer inception_4a/pool
I0403 15:18:16.572674 18843 net.cpp:91] Creating Layer inception_4a/pool
I0403 15:18:16.572688 18843 net.cpp:425] inception_4a/pool <- pool3/3x3_s2_pool3/3x3_s2_0_split_3
I0403 15:18:16.572710 18843 net.cpp:399] inception_4a/pool -> inception_4a/pool
I0403 15:18:16.572774 18843 net.cpp:141] Setting up inception_4a/pool
I0403 15:18:16.572798 18843 net.cpp:148] Top shape: 24 480 14 14 (2257920)
I0403 15:18:16.572813 18843 net.cpp:156] Memory required for data: 884503584
I0403 15:18:16.572826 18843 layer_factory.hpp:77] Creating layer inception_4a/pool_proj
I0403 15:18:16.572849 18843 net.cpp:91] Creating Layer inception_4a/pool_proj
I0403 15:18:16.572866 18843 net.cpp:425] inception_4a/pool_proj <- inception_4a/pool
I0403 15:18:16.572887 18843 net.cpp:399] inception_4a/pool_proj -> inception_4a/pool_proj
I0403 15:18:16.574102 18843 net.cpp:141] Setting up inception_4a/pool_proj
I0403 15:18:16.574131 18843 net.cpp:148] Top shape: 24 64 14 14 (301056)
I0403 15:18:16.574162 18843 net.cpp:156] Memory required for data: 885707808
I0403 15:18:16.574182 18843 layer_factory.hpp:77] Creating layer inception_4a/relu_pool_proj
I0403 15:18:16.574199 18843 net.cpp:91] Creating Layer inception_4a/relu_pool_proj
I0403 15:18:16.574215 18843 net.cpp:425] inception_4a/relu_pool_proj <- inception_4a/pool_proj
I0403 15:18:16.574236 18843 net.cpp:386] inception_4a/relu_pool_proj -> inception_4a/pool_proj (in-place)
I0403 15:18:16.574534 18843 net.cpp:141] Setting up inception_4a/relu_pool_proj
I0403 15:18:16.574560 18843 net.cpp:148] Top shape: 24 64 14 14 (301056)
I0403 15:18:16.574576 18843 net.cpp:156] Memory required for data: 886912032
I0403 15:18:16.574590 18843 layer_factory.hpp:77] Creating layer inception_4a/output
I0403 15:18:16.574609 18843 net.cpp:91] Creating Layer inception_4a/output
I0403 15:18:16.574625 18843 net.cpp:425] inception_4a/output <- inception_4a/1x1
I0403 15:18:16.574640 18843 net.cpp:425] inception_4a/output <- inception_4a/3x3
I0403 15:18:16.574657 18843 net.cpp:425] inception_4a/output <- inception_4a/5x5
I0403 15:18:16.574673 18843 net.cpp:425] inception_4a/output <- inception_4a/pool_proj
I0403 15:18:16.574692 18843 net.cpp:399] inception_4a/output -> inception_4a/output
I0403 15:18:16.574738 18843 net.cpp:141] Setting up inception_4a/output
I0403 15:18:16.574765 18843 net.cpp:148] Top shape: 24 512 14 14 (2408448)
I0403 15:18:16.574780 18843 net.cpp:156] Memory required for data: 896545824
I0403 15:18:16.574795 18843 layer_factory.hpp:77] Creating layer inception_4a/output_inception_4a/output_0_split
I0403 15:18:16.574812 18843 net.cpp:91] Creating Layer inception_4a/output_inception_4a/output_0_split
I0403 15:18:16.574827 18843 net.cpp:425] inception_4a/output_inception_4a/output_0_split <- inception_4a/output
I0403 15:18:16.574846 18843 net.cpp:399] inception_4a/output_inception_4a/output_0_split -> inception_4a/output_inception_4a/output_0_split_0
I0403 15:18:16.574867 18843 net.cpp:399] inception_4a/output_inception_4a/output_0_split -> inception_4a/output_inception_4a/output_0_split_1
I0403 15:18:16.574889 18843 net.cpp:399] inception_4a/output_inception_4a/output_0_split -> inception_4a/output_inception_4a/output_0_split_2
I0403 15:18:16.574910 18843 net.cpp:399] inception_4a/output_inception_4a/output_0_split -> inception_4a/output_inception_4a/output_0_split_3
I0403 15:18:16.574929 18843 net.cpp:399] inception_4a/output_inception_4a/output_0_split -> inception_4a/output_inception_4a/output_0_split_4
I0403 15:18:16.575029 18843 net.cpp:141] Setting up inception_4a/output_inception_4a/output_0_split
I0403 15:18:16.575053 18843 net.cpp:148] Top shape: 24 512 14 14 (2408448)
I0403 15:18:16.575070 18843 net.cpp:148] Top shape: 24 512 14 14 (2408448)
I0403 15:18:16.575086 18843 net.cpp:148] Top shape: 24 512 14 14 (2408448)
I0403 15:18:16.575101 18843 net.cpp:148] Top shape: 24 512 14 14 (2408448)
I0403 15:18:16.575117 18843 net.cpp:148] Top shape: 24 512 14 14 (2408448)
I0403 15:18:16.575131 18843 net.cpp:156] Memory required for data: 944714784
I0403 15:18:16.575145 18843 layer_factory.hpp:77] Creating layer loss1/ave_pool
I0403 15:18:16.575165 18843 net.cpp:91] Creating Layer loss1/ave_pool
I0403 15:18:16.575181 18843 net.cpp:425] loss1/ave_pool <- inception_4a/output_inception_4a/output_0_split_0
I0403 15:18:16.575199 18843 net.cpp:399] loss1/ave_pool -> loss1/ave_pool
I0403 15:18:16.575433 18843 net.cpp:141] Setting up loss1/ave_pool
I0403 15:18:16.575460 18843 net.cpp:148] Top shape: 24 512 4 4 (196608)
I0403 15:18:16.575476 18843 net.cpp:156] Memory required for data: 945501216
I0403 15:18:16.575491 18843 layer_factory.hpp:77] Creating layer loss1/conv
I0403 15:18:16.575526 18843 net.cpp:91] Creating Layer loss1/conv
I0403 15:18:16.575544 18843 net.cpp:425] loss1/conv <- loss1/ave_pool
I0403 15:18:16.575565 18843 net.cpp:399] loss1/conv -> loss1/conv
I0403 15:18:16.577100 18843 net.cpp:141] Setting up loss1/conv
I0403 15:18:16.577128 18843 net.cpp:148] Top shape: 24 128 4 4 (49152)
I0403 15:18:16.577159 18843 net.cpp:156] Memory required for data: 945697824
I0403 15:18:16.577179 18843 layer_factory.hpp:77] Creating layer loss1/relu_conv
I0403 15:18:16.577200 18843 net.cpp:91] Creating Layer loss1/relu_conv
I0403 15:18:16.577217 18843 net.cpp:425] loss1/relu_conv <- loss1/conv
I0403 15:18:16.577235 18843 net.cpp:386] loss1/relu_conv -> loss1/conv (in-place)
I0403 15:18:16.577534 18843 net.cpp:141] Setting up loss1/relu_conv
I0403 15:18:16.577561 18843 net.cpp:148] Top shape: 24 128 4 4 (49152)
I0403 15:18:16.577575 18843 net.cpp:156] Memory required for data: 945894432
I0403 15:18:16.577589 18843 layer_factory.hpp:77] Creating layer loss1/fc
I0403 15:18:16.577615 18843 net.cpp:91] Creating Layer loss1/fc
I0403 15:18:16.577632 18843 net.cpp:425] loss1/fc <- loss1/conv
I0403 15:18:16.577649 18843 net.cpp:399] loss1/fc -> loss1/fc
I0403 15:18:16.595551 18843 net.cpp:141] Setting up loss1/fc
I0403 15:18:16.595584 18843 net.cpp:148] Top shape: 24 1024 (24576)
I0403 15:18:16.595600 18843 net.cpp:156] Memory required for data: 945992736
I0403 15:18:16.595618 18843 layer_factory.hpp:77] Creating layer loss1/relu_fc
I0403 15:18:16.595636 18843 net.cpp:91] Creating Layer loss1/relu_fc
I0403 15:18:16.595651 18843 net.cpp:425] loss1/relu_fc <- loss1/fc
I0403 15:18:16.595670 18843 net.cpp:386] loss1/relu_fc -> loss1/fc (in-place)
I0403 15:18:16.595863 18843 net.cpp:141] Setting up loss1/relu_fc
I0403 15:18:16.595887 18843 net.cpp:148] Top shape: 24 1024 (24576)
I0403 15:18:16.595901 18843 net.cpp:156] Memory required for data: 946091040
I0403 15:18:16.595916 18843 layer_factory.hpp:77] Creating layer loss1/drop_fc
I0403 15:18:16.595954 18843 net.cpp:91] Creating Layer loss1/drop_fc
I0403 15:18:16.595973 18843 net.cpp:425] loss1/drop_fc <- loss1/fc
I0403 15:18:16.595995 18843 net.cpp:386] loss1/drop_fc -> loss1/fc (in-place)
I0403 15:18:16.596050 18843 net.cpp:141] Setting up loss1/drop_fc
I0403 15:18:16.596078 18843 net.cpp:148] Top shape: 24 1024 (24576)
I0403 15:18:16.596096 18843 net.cpp:156] Memory required for data: 946189344
I0403 15:18:16.596110 18843 layer_factory.hpp:77] Creating layer loss1/classifier_plantvillage
I0403 15:18:16.596128 18843 net.cpp:91] Creating Layer loss1/classifier_plantvillage
I0403 15:18:16.596144 18843 net.cpp:425] loss1/classifier_plantvillage <- loss1/fc
I0403 15:18:16.596165 18843 net.cpp:399] loss1/classifier_plantvillage -> loss1/classifier_plantvillage
I0403 15:18:16.598345 18843 net.cpp:141] Setting up loss1/classifier_plantvillage
I0403 15:18:16.598372 18843 net.cpp:148] Top shape: 24 38 (912)
I0403 15:18:16.598387 18843 net.cpp:156] Memory required for data: 946192992
I0403 15:18:16.598405 18843 layer_factory.hpp:77] Creating layer loss1/classifier_plantvillage_loss1/classifier_plantvillage_0_split
I0403 15:18:16.598425 18843 net.cpp:91] Creating Layer loss1/classifier_plantvillage_loss1/classifier_plantvillage_0_split
I0403 15:18:16.598441 18843 net.cpp:425] loss1/classifier_plantvillage_loss1/classifier_plantvillage_0_split <- loss1/classifier_plantvillage
I0403 15:18:16.598459 18843 net.cpp:399] loss1/classifier_plantvillage_loss1/classifier_plantvillage_0_split -> loss1/classifier_plantvillage_loss1/classifier_plantvillage_0_split_0
I0403 15:18:16.598481 18843 net.cpp:399] loss1/classifier_plantvillage_loss1/classifier_plantvillage_0_split -> loss1/classifier_plantvillage_loss1/classifier_plantvillage_0_split_1
I0403 15:18:16.598500 18843 net.cpp:399] loss1/classifier_plantvillage_loss1/classifier_plantvillage_0_split -> loss1/classifier_plantvillage_loss1/classifier_plantvillage_0_split_2
I0403 15:18:16.598567 18843 net.cpp:141] Setting up loss1/classifier_plantvillage_loss1/classifier_plantvillage_0_split
I0403 15:18:16.598593 18843 net.cpp:148] Top shape: 24 38 (912)
I0403 15:18:16.598609 18843 net.cpp:148] Top shape: 24 38 (912)
I0403 15:18:16.598624 18843 net.cpp:148] Top shape: 24 38 (912)
I0403 15:18:16.598639 18843 net.cpp:156] Memory required for data: 946203936
I0403 15:18:16.598652 18843 layer_factory.hpp:77] Creating layer inception_4b/1x1
I0403 15:18:16.598672 18843 net.cpp:91] Creating Layer inception_4b/1x1
I0403 15:18:16.598706 18843 net.cpp:425] inception_4b/1x1 <- inception_4a/output_inception_4a/output_0_split_1
I0403 15:18:16.598726 18843 net.cpp:399] inception_4b/1x1 -> inception_4b/1x1
I0403 15:18:16.600389 18843 net.cpp:141] Setting up inception_4b/1x1
I0403 15:18:16.600416 18843 net.cpp:148] Top shape: 24 160 14 14 (752640)
I0403 15:18:16.600432 18843 net.cpp:156] Memory required for data: 949214496
I0403 15:18:16.600450 18843 layer_factory.hpp:77] Creating layer inception_4b/relu_1x1
I0403 15:18:16.600471 18843 net.cpp:91] Creating Layer inception_4b/relu_1x1
I0403 15:18:16.600487 18843 net.cpp:425] inception_4b/relu_1x1 <- inception_4b/1x1
I0403 15:18:16.600504 18843 net.cpp:386] inception_4b/relu_1x1 -> inception_4b/1x1 (in-place)
I0403 15:18:16.600688 18843 net.cpp:141] Setting up inception_4b/relu_1x1
I0403 15:18:16.600715 18843 net.cpp:148] Top shape: 24 160 14 14 (752640)
I0403 15:18:16.600729 18843 net.cpp:156] Memory required for data: 952225056
I0403 15:18:16.600744 18843 layer_factory.hpp:77] Creating layer inception_4b/3x3_reduce
I0403 15:18:16.600766 18843 net.cpp:91] Creating Layer inception_4b/3x3_reduce
I0403 15:18:16.600783 18843 net.cpp:425] inception_4b/3x3_reduce <- inception_4a/output_inception_4a/output_0_split_2
I0403 15:18:16.600801 18843 net.cpp:399] inception_4b/3x3_reduce -> inception_4b/3x3_reduce
I0403 15:18:16.602206 18843 net.cpp:141] Setting up inception_4b/3x3_reduce
I0403 15:18:16.602237 18843 net.cpp:148] Top shape: 24 112 14 14 (526848)
I0403 15:18:16.602254 18843 net.cpp:156] Memory required for data: 954332448
I0403 15:18:16.602272 18843 layer_factory.hpp:77] Creating layer inception_4b/relu_3x3_reduce
I0403 15:18:16.602290 18843 net.cpp:91] Creating Layer inception_4b/relu_3x3_reduce
I0403 15:18:16.602306 18843 net.cpp:425] inception_4b/relu_3x3_reduce <- inception_4b/3x3_reduce
I0403 15:18:16.602325 18843 net.cpp:386] inception_4b/relu_3x3_reduce -> inception_4b/3x3_reduce (in-place)
I0403 15:18:16.602610 18843 net.cpp:141] Setting up inception_4b/relu_3x3_reduce
I0403 15:18:16.602638 18843 net.cpp:148] Top shape: 24 112 14 14 (526848)
I0403 15:18:16.602654 18843 net.cpp:156] Memory required for data: 956439840
I0403 15:18:16.602669 18843 layer_factory.hpp:77] Creating layer inception_4b/3x3
I0403 15:18:16.602694 18843 net.cpp:91] Creating Layer inception_4b/3x3
I0403 15:18:16.602711 18843 net.cpp:425] inception_4b/3x3 <- inception_4b/3x3_reduce
I0403 15:18:16.602730 18843 net.cpp:399] inception_4b/3x3 -> inception_4b/3x3
I0403 15:18:16.605720 18843 net.cpp:141] Setting up inception_4b/3x3
I0403 15:18:16.605749 18843 net.cpp:148] Top shape: 24 224 14 14 (1053696)
I0403 15:18:16.605764 18843 net.cpp:156] Memory required for data: 960654624
I0403 15:18:16.605782 18843 layer_factory.hpp:77] Creating layer inception_4b/relu_3x3
I0403 15:18:16.605803 18843 net.cpp:91] Creating Layer inception_4b/relu_3x3
I0403 15:18:16.605819 18843 net.cpp:425] inception_4b/relu_3x3 <- inception_4b/3x3
I0403 15:18:16.605836 18843 net.cpp:386] inception_4b/relu_3x3 -> inception_4b/3x3 (in-place)
I0403 15:18:16.606025 18843 net.cpp:141] Setting up inception_4b/relu_3x3
I0403 15:18:16.606050 18843 net.cpp:148] Top shape: 24 224 14 14 (1053696)
I0403 15:18:16.606063 18843 net.cpp:156] Memory required for data: 964869408
I0403 15:18:16.606077 18843 layer_factory.hpp:77] Creating layer inception_4b/5x5_reduce
I0403 15:18:16.606099 18843 net.cpp:91] Creating Layer inception_4b/5x5_reduce
I0403 15:18:16.606117 18843 net.cpp:425] inception_4b/5x5_reduce <- inception_4a/output_inception_4a/output_0_split_3
I0403 15:18:16.606139 18843 net.cpp:399] inception_4b/5x5_reduce -> inception_4b/5x5_reduce
I0403 15:18:16.607254 18843 net.cpp:141] Setting up inception_4b/5x5_reduce
I0403 15:18:16.607281 18843 net.cpp:148] Top shape: 24 24 14 14 (112896)
I0403 15:18:16.607297 18843 net.cpp:156] Memory required for data: 965320992
I0403 15:18:16.607316 18843 layer_factory.hpp:77] Creating layer inception_4b/relu_5x5_reduce
I0403 15:18:16.607336 18843 net.cpp:91] Creating Layer inception_4b/relu_5x5_reduce
I0403 15:18:16.607367 18843 net.cpp:425] inception_4b/relu_5x5_reduce <- inception_4b/5x5_reduce
I0403 15:18:16.607385 18843 net.cpp:386] inception_4b/relu_5x5_reduce -> inception_4b/5x5_reduce (in-place)
I0403 15:18:16.607578 18843 net.cpp:141] Setting up inception_4b/relu_5x5_reduce
I0403 15:18:16.607602 18843 net.cpp:148] Top shape: 24 24 14 14 (112896)
I0403 15:18:16.607616 18843 net.cpp:156] Memory required for data: 965772576
I0403 15:18:16.607631 18843 layer_factory.hpp:77] Creating layer inception_4b/5x5
I0403 15:18:16.607652 18843 net.cpp:91] Creating Layer inception_4b/5x5
I0403 15:18:16.607669 18843 net.cpp:425] inception_4b/5x5 <- inception_4b/5x5_reduce
I0403 15:18:16.607691 18843 net.cpp:399] inception_4b/5x5 -> inception_4b/5x5
I0403 15:18:16.608937 18843 net.cpp:141] Setting up inception_4b/5x5
I0403 15:18:16.608964 18843 net.cpp:148] Top shape: 24 64 14 14 (301056)
I0403 15:18:16.608979 18843 net.cpp:156] Memory required for data: 966976800
I0403 15:18:16.609024 18843 layer_factory.hpp:77] Creating layer inception_4b/relu_5x5
I0403 15:18:16.609052 18843 net.cpp:91] Creating Layer inception_4b/relu_5x5
I0403 15:18:16.609069 18843 net.cpp:425] inception_4b/relu_5x5 <- inception_4b/5x5
I0403 15:18:16.609086 18843 net.cpp:386] inception_4b/relu_5x5 -> inception_4b/5x5 (in-place)
I0403 15:18:16.609393 18843 net.cpp:141] Setting up inception_4b/relu_5x5
I0403 15:18:16.609419 18843 net.cpp:148] Top shape: 24 64 14 14 (301056)
I0403 15:18:16.609434 18843 net.cpp:156] Memory required for data: 968181024
I0403 15:18:16.609449 18843 layer_factory.hpp:77] Creating layer inception_4b/pool
I0403 15:18:16.609470 18843 net.cpp:91] Creating Layer inception_4b/pool
I0403 15:18:16.609488 18843 net.cpp:425] inception_4b/pool <- inception_4a/output_inception_4a/output_0_split_4
I0403 15:18:16.609505 18843 net.cpp:399] inception_4b/pool -> inception_4b/pool
I0403 15:18:16.609572 18843 net.cpp:141] Setting up inception_4b/pool
I0403 15:18:16.609596 18843 net.cpp:148] Top shape: 24 512 14 14 (2408448)
I0403 15:18:16.609611 18843 net.cpp:156] Memory required for data: 977814816
I0403 15:18:16.609624 18843 layer_factory.hpp:77] Creating layer inception_4b/pool_proj
I0403 15:18:16.609647 18843 net.cpp:91] Creating Layer inception_4b/pool_proj
I0403 15:18:16.609664 18843 net.cpp:425] inception_4b/pool_proj <- inception_4b/pool
I0403 15:18:16.609685 18843 net.cpp:399] inception_4b/pool_proj -> inception_4b/pool_proj
I0403 15:18:16.610990 18843 net.cpp:141] Setting up inception_4b/pool_proj
I0403 15:18:16.611017 18843 net.cpp:148] Top shape: 24 64 14 14 (301056)
I0403 15:18:16.611039 18843 net.cpp:156] Memory required for data: 979019040
I0403 15:18:16.611058 18843 layer_factory.hpp:77] Creating layer inception_4b/relu_pool_proj
I0403 15:18:16.611076 18843 net.cpp:91] Creating Layer inception_4b/relu_pool_proj
I0403 15:18:16.611093 18843 net.cpp:425] inception_4b/relu_pool_proj <- inception_4b/pool_proj
I0403 15:18:16.611109 18843 net.cpp:386] inception_4b/relu_pool_proj -> inception_4b/pool_proj (in-place)
I0403 15:18:16.611307 18843 net.cpp:141] Setting up inception_4b/relu_pool_proj
I0403 15:18:16.611335 18843 net.cpp:148] Top shape: 24 64 14 14 (301056)
I0403 15:18:16.611351 18843 net.cpp:156] Memory required for data: 980223264
I0403 15:18:16.611366 18843 layer_factory.hpp:77] Creating layer inception_4b/output
I0403 15:18:16.611382 18843 net.cpp:91] Creating Layer inception_4b/output
I0403 15:18:16.611398 18843 net.cpp:425] inception_4b/output <- inception_4b/1x1
I0403 15:18:16.611414 18843 net.cpp:425] inception_4b/output <- inception_4b/3x3
I0403 15:18:16.611430 18843 net.cpp:425] inception_4b/output <- inception_4b/5x5
I0403 15:18:16.611448 18843 net.cpp:425] inception_4b/output <- inception_4b/pool_proj
I0403 15:18:16.611466 18843 net.cpp:399] inception_4b/output -> inception_4b/output
I0403 15:18:16.611513 18843 net.cpp:141] Setting up inception_4b/output
I0403 15:18:16.611536 18843 net.cpp:148] Top shape: 24 512 14 14 (2408448)
I0403 15:18:16.611551 18843 net.cpp:156] Memory required for data: 989857056
I0403 15:18:16.611580 18843 layer_factory.hpp:77] Creating layer inception_4b/output_inception_4b/output_0_split
I0403 15:18:16.611601 18843 net.cpp:91] Creating Layer inception_4b/output_inception_4b/output_0_split
I0403 15:18:16.611618 18843 net.cpp:425] inception_4b/output_inception_4b/output_0_split <- inception_4b/output
I0403 15:18:16.611635 18843 net.cpp:399] inception_4b/output_inception_4b/output_0_split -> inception_4b/output_inception_4b/output_0_split_0
I0403 15:18:16.611656 18843 net.cpp:399] inception_4b/output_inception_4b/output_0_split -> inception_4b/output_inception_4b/output_0_split_1
I0403 15:18:16.611680 18843 net.cpp:399] inception_4b/output_inception_4b/output_0_split -> inception_4b/output_inception_4b/output_0_split_2
I0403 15:18:16.611701 18843 net.cpp:399] inception_4b/output_inception_4b/output_0_split -> inception_4b/output_inception_4b/output_0_split_3
I0403 15:18:16.611786 18843 net.cpp:141] Setting up inception_4b/output_inception_4b/output_0_split
I0403 15:18:16.611810 18843 net.cpp:148] Top shape: 24 512 14 14 (2408448)
I0403 15:18:16.611827 18843 net.cpp:148] Top shape: 24 512 14 14 (2408448)
I0403 15:18:16.611842 18843 net.cpp:148] Top shape: 24 512 14 14 (2408448)
I0403 15:18:16.611858 18843 net.cpp:148] Top shape: 24 512 14 14 (2408448)
I0403 15:18:16.611872 18843 net.cpp:156] Memory required for data: 1028392224
I0403 15:18:16.611886 18843 layer_factory.hpp:77] Creating layer inception_4c/1x1
I0403 15:18:16.611909 18843 net.cpp:91] Creating Layer inception_4c/1x1
I0403 15:18:16.611927 18843 net.cpp:425] inception_4c/1x1 <- inception_4b/output_inception_4b/output_0_split_0
I0403 15:18:16.611948 18843 net.cpp:399] inception_4c/1x1 -> inception_4c/1x1
I0403 15:18:16.613441 18843 net.cpp:141] Setting up inception_4c/1x1
I0403 15:18:16.613474 18843 net.cpp:148] Top shape: 24 128 14 14 (602112)
I0403 15:18:16.613492 18843 net.cpp:156] Memory required for data: 1030800672
I0403 15:18:16.613510 18843 layer_factory.hpp:77] Creating layer inception_4c/relu_1x1
I0403 15:18:16.613528 18843 net.cpp:91] Creating Layer inception_4c/relu_1x1
I0403 15:18:16.613544 18843 net.cpp:425] inception_4c/relu_1x1 <- inception_4c/1x1
I0403 15:18:16.613576 18843 net.cpp:386] inception_4c/relu_1x1 -> inception_4c/1x1 (in-place)
I0403 15:18:16.613775 18843 net.cpp:141] Setting up inception_4c/relu_1x1
I0403 15:18:16.613801 18843 net.cpp:148] Top shape: 24 128 14 14 (602112)
I0403 15:18:16.613816 18843 net.cpp:156] Memory required for data: 1033209120
I0403 15:18:16.613832 18843 layer_factory.hpp:77] Creating layer inception_4c/3x3_reduce
I0403 15:18:16.613854 18843 net.cpp:91] Creating Layer inception_4c/3x3_reduce
I0403 15:18:16.613873 18843 net.cpp:425] inception_4c/3x3_reduce <- inception_4b/output_inception_4b/output_0_split_1
I0403 15:18:16.613898 18843 net.cpp:399] inception_4c/3x3_reduce -> inception_4c/3x3_reduce
I0403 15:18:16.615932 18843 net.cpp:141] Setting up inception_4c/3x3_reduce
I0403 15:18:16.615962 18843 net.cpp:148] Top shape: 24 128 14 14 (602112)
I0403 15:18:16.615978 18843 net.cpp:156] Memory required for data: 1035617568
I0403 15:18:16.616000 18843 layer_factory.hpp:77] Creating layer inception_4c/relu_3x3_reduce
I0403 15:18:16.616022 18843 net.cpp:91] Creating Layer inception_4c/relu_3x3_reduce
I0403 15:18:16.616040 18843 net.cpp:425] inception_4c/relu_3x3_reduce <- inception_4c/3x3_reduce
I0403 15:18:16.616057 18843 net.cpp:386] inception_4c/relu_3x3_reduce -> inception_4c/3x3_reduce (in-place)
I0403 15:18:16.616353 18843 net.cpp:141] Setting up inception_4c/relu_3x3_reduce
I0403 15:18:16.616380 18843 net.cpp:148] Top shape: 24 128 14 14 (602112)
I0403 15:18:16.616395 18843 net.cpp:156] Memory required for data: 1038026016
I0403 15:18:16.616410 18843 layer_factory.hpp:77] Creating layer inception_4c/3x3
I0403 15:18:16.616433 18843 net.cpp:91] Creating Layer inception_4c/3x3
I0403 15:18:16.616451 18843 net.cpp:425] inception_4c/3x3 <- inception_4c/3x3_reduce
I0403 15:18:16.616473 18843 net.cpp:399] inception_4c/3x3 -> inception_4c/3x3
I0403 15:18:16.620244 18843 net.cpp:141] Setting up inception_4c/3x3
I0403 15:18:16.620287 18843 net.cpp:148] Top shape: 24 256 14 14 (1204224)
I0403 15:18:16.620304 18843 net.cpp:156] Memory required for data: 1042842912
I0403 15:18:16.620337 18843 layer_factory.hpp:77] Creating layer inception_4c/relu_3x3
I0403 15:18:16.620360 18843 net.cpp:91] Creating Layer inception_4c/relu_3x3
I0403 15:18:16.620378 18843 net.cpp:425] inception_4c/relu_3x3 <- inception_4c/3x3
I0403 15:18:16.620394 18843 net.cpp:386] inception_4c/relu_3x3 -> inception_4c/3x3 (in-place)
I0403 15:18:16.620589 18843 net.cpp:141] Setting up inception_4c/relu_3x3
I0403 15:18:16.620614 18843 net.cpp:148] Top shape: 24 256 14 14 (1204224)
I0403 15:18:16.620628 18843 net.cpp:156] Memory required for data: 1047659808
I0403 15:18:16.620645 18843 layer_factory.hpp:77] Creating layer inception_4c/5x5_reduce
I0403 15:18:16.620669 18843 net.cpp:91] Creating Layer inception_4c/5x5_reduce
I0403 15:18:16.620687 18843 net.cpp:425] inception_4c/5x5_reduce <- inception_4b/output_inception_4b/output_0_split_2
I0403 15:18:16.620707 18843 net.cpp:399] inception_4c/5x5_reduce -> inception_4c/5x5_reduce
I0403 15:18:16.621845 18843 net.cpp:141] Setting up inception_4c/5x5_reduce
I0403 15:18:16.621875 18843 net.cpp:148] Top shape: 24 24 14 14 (112896)
I0403 15:18:16.621889 18843 net.cpp:156] Memory required for data: 1048111392
I0403 15:18:16.621908 18843 layer_factory.hpp:77] Creating layer inception_4c/relu_5x5_reduce
I0403 15:18:16.621929 18843 net.cpp:91] Creating Layer inception_4c/relu_5x5_reduce
I0403 15:18:16.621947 18843 net.cpp:425] inception_4c/relu_5x5_reduce <- inception_4c/5x5_reduce
I0403 15:18:16.621963 18843 net.cpp:386] inception_4c/relu_5x5_reduce -> inception_4c/5x5_reduce (in-place)
I0403 15:18:16.622179 18843 net.cpp:141] Setting up inception_4c/relu_5x5_reduce
I0403 15:18:16.622207 18843 net.cpp:148] Top shape: 24 24 14 14 (112896)
I0403 15:18:16.622222 18843 net.cpp:156] Memory required for data: 1048562976
I0403 15:18:16.622237 18843 layer_factory.hpp:77] Creating layer inception_4c/5x5
I0403 15:18:16.622261 18843 net.cpp:91] Creating Layer inception_4c/5x5
I0403 15:18:16.622279 18843 net.cpp:425] inception_4c/5x5 <- inception_4c/5x5_reduce
I0403 15:18:16.622315 18843 net.cpp:399] inception_4c/5x5 -> inception_4c/5x5
I0403 15:18:16.623626 18843 net.cpp:141] Setting up inception_4c/5x5
I0403 15:18:16.623656 18843 net.cpp:148] Top shape: 24 64 14 14 (301056)
I0403 15:18:16.623673 18843 net.cpp:156] Memory required for data: 1049767200
I0403 15:18:16.623692 18843 layer_factory.hpp:77] Creating layer inception_4c/relu_5x5
I0403 15:18:16.623709 18843 net.cpp:91] Creating Layer inception_4c/relu_5x5
I0403 15:18:16.623725 18843 net.cpp:425] inception_4c/relu_5x5 <- inception_4c/5x5
I0403 15:18:16.623745 18843 net.cpp:386] inception_4c/relu_5x5 -> inception_4c/5x5 (in-place)
I0403 15:18:16.624053 18843 net.cpp:141] Setting up inception_4c/relu_5x5
I0403 15:18:16.624083 18843 net.cpp:148] Top shape: 24 64 14 14 (301056)
I0403 15:18:16.624099 18843 net.cpp:156] Memory required for data: 1050971424
I0403 15:18:16.624114 18843 layer_factory.hpp:77] Creating layer inception_4c/pool
I0403 15:18:16.624131 18843 net.cpp:91] Creating Layer inception_4c/pool
I0403 15:18:16.624147 18843 net.cpp:425] inception_4c/pool <- inception_4b/output_inception_4b/output_0_split_3
I0403 15:18:16.624168 18843 net.cpp:399] inception_4c/pool -> inception_4c/pool
I0403 15:18:16.624235 18843 net.cpp:141] Setting up inception_4c/pool
I0403 15:18:16.624263 18843 net.cpp:148] Top shape: 24 512 14 14 (2408448)
I0403 15:18:16.624277 18843 net.cpp:156] Memory required for data: 1060605216
I0403 15:18:16.624292 18843 layer_factory.hpp:77] Creating layer inception_4c/pool_proj
I0403 15:18:16.624312 18843 net.cpp:91] Creating Layer inception_4c/pool_proj
I0403 15:18:16.624328 18843 net.cpp:425] inception_4c/pool_proj <- inception_4c/pool
I0403 15:18:16.624349 18843 net.cpp:399] inception_4c/pool_proj -> inception_4c/pool_proj
I0403 15:18:16.625638 18843 net.cpp:141] Setting up inception_4c/pool_proj
I0403 15:18:16.625666 18843 net.cpp:148] Top shape: 24 64 14 14 (301056)
I0403 15:18:16.625696 18843 net.cpp:156] Memory required for data: 1061809440
I0403 15:18:16.625716 18843 layer_factory.hpp:77] Creating layer inception_4c/relu_pool_proj
I0403 15:18:16.625738 18843 net.cpp:91] Creating Layer inception_4c/relu_pool_proj
I0403 15:18:16.625756 18843 net.cpp:425] inception_4c/relu_pool_proj <- inception_4c/pool_proj
I0403 15:18:16.625773 18843 net.cpp:386] inception_4c/relu_pool_proj -> inception_4c/pool_proj (in-place)
I0403 15:18:16.625967 18843 net.cpp:141] Setting up inception_4c/relu_pool_proj
I0403 15:18:16.625998 18843 net.cpp:148] Top shape: 24 64 14 14 (301056)
I0403 15:18:16.626015 18843 net.cpp:156] Memory required for data: 1063013664
I0403 15:18:16.626030 18843 layer_factory.hpp:77] Creating layer inception_4c/output
I0403 15:18:16.626049 18843 net.cpp:91] Creating Layer inception_4c/output
I0403 15:18:16.626063 18843 net.cpp:425] inception_4c/output <- inception_4c/1x1
I0403 15:18:16.626080 18843 net.cpp:425] inception_4c/output <- inception_4c/3x3
I0403 15:18:16.626096 18843 net.cpp:425] inception_4c/output <- inception_4c/5x5
I0403 15:18:16.626111 18843 net.cpp:425] inception_4c/output <- inception_4c/pool_proj
I0403 15:18:16.626129 18843 net.cpp:399] inception_4c/output -> inception_4c/output
I0403 15:18:16.626178 18843 net.cpp:141] Setting up inception_4c/output
I0403 15:18:16.626201 18843 net.cpp:148] Top shape: 24 512 14 14 (2408448)
I0403 15:18:16.626215 18843 net.cpp:156] Memory required for data: 1072647456
I0403 15:18:16.626230 18843 layer_factory.hpp:77] Creating layer inception_4c/output_inception_4c/output_0_split
I0403 15:18:16.626252 18843 net.cpp:91] Creating Layer inception_4c/output_inception_4c/output_0_split
I0403 15:18:16.626269 18843 net.cpp:425] inception_4c/output_inception_4c/output_0_split <- inception_4c/output
I0403 15:18:16.626286 18843 net.cpp:399] inception_4c/output_inception_4c/output_0_split -> inception_4c/output_inception_4c/output_0_split_0
I0403 15:18:16.626307 18843 net.cpp:399] inception_4c/output_inception_4c/output_0_split -> inception_4c/output_inception_4c/output_0_split_1
I0403 15:18:16.626328 18843 net.cpp:399] inception_4c/output_inception_4c/output_0_split -> inception_4c/output_inception_4c/output_0_split_2
I0403 15:18:16.626349 18843 net.cpp:399] inception_4c/output_inception_4c/output_0_split -> inception_4c/output_inception_4c/output_0_split_3
I0403 15:18:16.626438 18843 net.cpp:141] Setting up inception_4c/output_inception_4c/output_0_split
I0403 15:18:16.626462 18843 net.cpp:148] Top shape: 24 512 14 14 (2408448)
I0403 15:18:16.626478 18843 net.cpp:148] Top shape: 24 512 14 14 (2408448)
I0403 15:18:16.626494 18843 net.cpp:148] Top shape: 24 512 14 14 (2408448)
I0403 15:18:16.626509 18843 net.cpp:148] Top shape: 24 512 14 14 (2408448)
I0403 15:18:16.626523 18843 net.cpp:156] Memory required for data: 1111182624
I0403 15:18:16.626538 18843 layer_factory.hpp:77] Creating layer inception_4d/1x1
I0403 15:18:16.626559 18843 net.cpp:91] Creating Layer inception_4d/1x1
I0403 15:18:16.626577 18843 net.cpp:425] inception_4d/1x1 <- inception_4c/output_inception_4c/output_0_split_0
I0403 15:18:16.626598 18843 net.cpp:399] inception_4d/1x1 -> inception_4d/1x1
I0403 15:18:16.628073 18843 net.cpp:141] Setting up inception_4d/1x1
I0403 15:18:16.628103 18843 net.cpp:148] Top shape: 24 112 14 14 (526848)
I0403 15:18:16.628119 18843 net.cpp:156] Memory required for data: 1113290016
I0403 15:18:16.628139 18843 layer_factory.hpp:77] Creating layer inception_4d/relu_1x1
I0403 15:18:16.628165 18843 net.cpp:91] Creating Layer inception_4d/relu_1x1
I0403 15:18:16.628183 18843 net.cpp:425] inception_4d/relu_1x1 <- inception_4d/1x1
I0403 15:18:16.628201 18843 net.cpp:386] inception_4d/relu_1x1 -> inception_4d/1x1 (in-place)
I0403 15:18:16.628417 18843 net.cpp:141] Setting up inception_4d/relu_1x1
I0403 15:18:16.628442 18843 net.cpp:148] Top shape: 24 112 14 14 (526848)
I0403 15:18:16.628455 18843 net.cpp:156] Memory required for data: 1115397408
I0403 15:18:16.628470 18843 layer_factory.hpp:77] Creating layer inception_4d/3x3_reduce
I0403 15:18:16.628507 18843 net.cpp:91] Creating Layer inception_4d/3x3_reduce
I0403 15:18:16.628527 18843 net.cpp:425] inception_4d/3x3_reduce <- inception_4c/output_inception_4c/output_0_split_1
I0403 15:18:16.628546 18843 net.cpp:399] inception_4d/3x3_reduce -> inception_4d/3x3_reduce
I0403 15:18:16.630079 18843 net.cpp:141] Setting up inception_4d/3x3_reduce
I0403 15:18:16.630105 18843 net.cpp:148] Top shape: 24 144 14 14 (677376)
I0403 15:18:16.630121 18843 net.cpp:156] Memory required for data: 1118106912
I0403 15:18:16.630139 18843 layer_factory.hpp:77] Creating layer inception_4d/relu_3x3_reduce
I0403 15:18:16.630157 18843 net.cpp:91] Creating Layer inception_4d/relu_3x3_reduce
I0403 15:18:16.630173 18843 net.cpp:425] inception_4d/relu_3x3_reduce <- inception_4d/3x3_reduce
I0403 15:18:16.630192 18843 net.cpp:386] inception_4d/relu_3x3_reduce -> inception_4d/3x3_reduce (in-place)
I0403 15:18:16.630483 18843 net.cpp:141] Setting up inception_4d/relu_3x3_reduce
I0403 15:18:16.630509 18843 net.cpp:148] Top shape: 24 144 14 14 (677376)
I0403 15:18:16.630524 18843 net.cpp:156] Memory required for data: 1120816416
I0403 15:18:16.630538 18843 layer_factory.hpp:77] Creating layer inception_4d/3x3
I0403 15:18:16.630564 18843 net.cpp:91] Creating Layer inception_4d/3x3
I0403 15:18:16.630581 18843 net.cpp:425] inception_4d/3x3 <- inception_4d/3x3_reduce
I0403 15:18:16.630602 18843 net.cpp:399] inception_4d/3x3 -> inception_4d/3x3
I0403 15:18:16.634877 18843 net.cpp:141] Setting up inception_4d/3x3
I0403 15:18:16.634907 18843 net.cpp:148] Top shape: 24 288 14 14 (1354752)
I0403 15:18:16.634922 18843 net.cpp:156] Memory required for data: 1126235424
I0403 15:18:16.634939 18843 layer_factory.hpp:77] Creating layer inception_4d/relu_3x3
I0403 15:18:16.634959 18843 net.cpp:91] Creating Layer inception_4d/relu_3x3
I0403 15:18:16.634976 18843 net.cpp:425] inception_4d/relu_3x3 <- inception_4d/3x3
I0403 15:18:16.634999 18843 net.cpp:386] inception_4d/relu_3x3 -> inception_4d/3x3 (in-place)
I0403 15:18:16.635187 18843 net.cpp:141] Setting up inception_4d/relu_3x3
I0403 15:18:16.635215 18843 net.cpp:148] Top shape: 24 288 14 14 (1354752)
I0403 15:18:16.635229 18843 net.cpp:156] Memory required for data: 1131654432
I0403 15:18:16.635244 18843 layer_factory.hpp:77] Creating layer inception_4d/5x5_reduce
I0403 15:18:16.635263 18843 net.cpp:91] Creating Layer inception_4d/5x5_reduce
I0403 15:18:16.635279 18843 net.cpp:425] inception_4d/5x5_reduce <- inception_4c/output_inception_4c/output_0_split_2
I0403 15:18:16.635300 18843 net.cpp:399] inception_4d/5x5_reduce -> inception_4d/5x5_reduce
I0403 15:18:16.636471 18843 net.cpp:141] Setting up inception_4d/5x5_reduce
I0403 15:18:16.636499 18843 net.cpp:148] Top shape: 24 32 14 14 (150528)
I0403 15:18:16.636514 18843 net.cpp:156] Memory required for data: 1132256544
I0403 15:18:16.636533 18843 layer_factory.hpp:77] Creating layer inception_4d/relu_5x5_reduce
I0403 15:18:16.636554 18843 net.cpp:91] Creating Layer inception_4d/relu_5x5_reduce
I0403 15:18:16.636570 18843 net.cpp:425] inception_4d/relu_5x5_reduce <- inception_4d/5x5_reduce
I0403 15:18:16.636587 18843 net.cpp:386] inception_4d/relu_5x5_reduce -> inception_4d/5x5_reduce (in-place)
I0403 15:18:16.636780 18843 net.cpp:141] Setting up inception_4d/relu_5x5_reduce
I0403 15:18:16.636803 18843 net.cpp:148] Top shape: 24 32 14 14 (150528)
I0403 15:18:16.636817 18843 net.cpp:156] Memory required for data: 1132858656
I0403 15:18:16.636831 18843 layer_factory.hpp:77] Creating layer inception_4d/5x5
I0403 15:18:16.636855 18843 net.cpp:91] Creating Layer inception_4d/5x5
I0403 15:18:16.636873 18843 net.cpp:425] inception_4d/5x5 <- inception_4d/5x5_reduce
I0403 15:18:16.636891 18843 net.cpp:399] inception_4d/5x5 -> inception_4d/5x5
I0403 15:18:16.638407 18843 net.cpp:141] Setting up inception_4d/5x5
I0403 15:18:16.638437 18843 net.cpp:148] Top shape: 24 64 14 14 (301056)
I0403 15:18:16.638454 18843 net.cpp:156] Memory required for data: 1134062880
I0403 15:18:16.638473 18843 layer_factory.hpp:77] Creating layer inception_4d/relu_5x5
I0403 15:18:16.638505 18843 net.cpp:91] Creating Layer inception_4d/relu_5x5
I0403 15:18:16.638522 18843 net.cpp:425] inception_4d/relu_5x5 <- inception_4d/5x5
I0403 15:18:16.638541 18843 net.cpp:386] inception_4d/relu_5x5 -> inception_4d/5x5 (in-place)
I0403 15:18:16.638849 18843 net.cpp:141] Setting up inception_4d/relu_5x5
I0403 15:18:16.638877 18843 net.cpp:148] Top shape: 24 64 14 14 (301056)
I0403 15:18:16.638893 18843 net.cpp:156] Memory required for data: 1135267104
I0403 15:18:16.638907 18843 layer_factory.hpp:77] Creating layer inception_4d/pool
I0403 15:18:16.638924 18843 net.cpp:91] Creating Layer inception_4d/pool
I0403 15:18:16.638941 18843 net.cpp:425] inception_4d/pool <- inception_4c/output_inception_4c/output_0_split_3
I0403 15:18:16.638962 18843 net.cpp:399] inception_4d/pool -> inception_4d/pool
I0403 15:18:16.639039 18843 net.cpp:141] Setting up inception_4d/pool
I0403 15:18:16.639063 18843 net.cpp:148] Top shape: 24 512 14 14 (2408448)
I0403 15:18:16.639077 18843 net.cpp:156] Memory required for data: 1144900896
I0403 15:18:16.639091 18843 layer_factory.hpp:77] Creating layer inception_4d/pool_proj
I0403 15:18:16.639112 18843 net.cpp:91] Creating Layer inception_4d/pool_proj
I0403 15:18:16.639129 18843 net.cpp:425] inception_4d/pool_proj <- inception_4d/pool
I0403 15:18:16.639149 18843 net.cpp:399] inception_4d/pool_proj -> inception_4d/pool_proj
I0403 15:18:16.640950 18843 net.cpp:141] Setting up inception_4d/pool_proj
I0403 15:18:16.640980 18843 net.cpp:148] Top shape: 24 64 14 14 (301056)
I0403 15:18:16.641000 18843 net.cpp:156] Memory required for data: 1146105120
I0403 15:18:16.641018 18843 layer_factory.hpp:77] Creating layer inception_4d/relu_pool_proj
I0403 15:18:16.641038 18843 net.cpp:91] Creating Layer inception_4d/relu_pool_proj
I0403 15:18:16.641057 18843 net.cpp:425] inception_4d/relu_pool_proj <- inception_4d/pool_proj
I0403 15:18:16.641074 18843 net.cpp:386] inception_4d/relu_pool_proj -> inception_4d/pool_proj (in-place)
I0403 15:18:16.641261 18843 net.cpp:141] Setting up inception_4d/relu_pool_proj
I0403 15:18:16.641288 18843 net.cpp:148] Top shape: 24 64 14 14 (301056)
I0403 15:18:16.641302 18843 net.cpp:156] Memory required for data: 1147309344
I0403 15:18:16.641317 18843 layer_factory.hpp:77] Creating layer inception_4d/output
I0403 15:18:16.641335 18843 net.cpp:91] Creating Layer inception_4d/output
I0403 15:18:16.641350 18843 net.cpp:425] inception_4d/output <- inception_4d/1x1
I0403 15:18:16.641366 18843 net.cpp:425] inception_4d/output <- inception_4d/3x3
I0403 15:18:16.641381 18843 net.cpp:425] inception_4d/output <- inception_4d/5x5
I0403 15:18:16.641396 18843 net.cpp:425] inception_4d/output <- inception_4d/pool_proj
I0403 15:18:16.641412 18843 net.cpp:399] inception_4d/output -> inception_4d/output
I0403 15:18:16.641461 18843 net.cpp:141] Setting up inception_4d/output
I0403 15:18:16.641484 18843 net.cpp:148] Top shape: 24 528 14 14 (2483712)
I0403 15:18:16.641499 18843 net.cpp:156] Memory required for data: 1157244192
I0403 15:18:16.641513 18843 layer_factory.hpp:77] Creating layer inception_4d/output_inception_4d/output_0_split
I0403 15:18:16.641532 18843 net.cpp:91] Creating Layer inception_4d/output_inception_4d/output_0_split
I0403 15:18:16.641548 18843 net.cpp:425] inception_4d/output_inception_4d/output_0_split <- inception_4d/output
I0403 15:18:16.641566 18843 net.cpp:399] inception_4d/output_inception_4d/output_0_split -> inception_4d/output_inception_4d/output_0_split_0
I0403 15:18:16.641585 18843 net.cpp:399] inception_4d/output_inception_4d/output_0_split -> inception_4d/output_inception_4d/output_0_split_1
I0403 15:18:16.641605 18843 net.cpp:399] inception_4d/output_inception_4d/output_0_split -> inception_4d/output_inception_4d/output_0_split_2
I0403 15:18:16.641625 18843 net.cpp:399] inception_4d/output_inception_4d/output_0_split -> inception_4d/output_inception_4d/output_0_split_3
I0403 15:18:16.641649 18843 net.cpp:399] inception_4d/output_inception_4d/output_0_split -> inception_4d/output_inception_4d/output_0_split_4
I0403 15:18:16.641757 18843 net.cpp:141] Setting up inception_4d/output_inception_4d/output_0_split
I0403 15:18:16.641793 18843 net.cpp:148] Top shape: 24 528 14 14 (2483712)
I0403 15:18:16.641809 18843 net.cpp:148] Top shape: 24 528 14 14 (2483712)
I0403 15:18:16.641824 18843 net.cpp:148] Top shape: 24 528 14 14 (2483712)
I0403 15:18:16.641840 18843 net.cpp:148] Top shape: 24 528 14 14 (2483712)
I0403 15:18:16.641855 18843 net.cpp:148] Top shape: 24 528 14 14 (2483712)
I0403 15:18:16.641868 18843 net.cpp:156] Memory required for data: 1206918432
I0403 15:18:16.641882 18843 layer_factory.hpp:77] Creating layer loss2/ave_pool
I0403 15:18:16.641899 18843 net.cpp:91] Creating Layer loss2/ave_pool
I0403 15:18:16.641914 18843 net.cpp:425] loss2/ave_pool <- inception_4d/output_inception_4d/output_0_split_0
I0403 15:18:16.641934 18843 net.cpp:399] loss2/ave_pool -> loss2/ave_pool
I0403 15:18:16.642259 18843 net.cpp:141] Setting up loss2/ave_pool
I0403 15:18:16.642287 18843 net.cpp:148] Top shape: 24 528 4 4 (202752)
I0403 15:18:16.642300 18843 net.cpp:156] Memory required for data: 1207729440
I0403 15:18:16.642315 18843 layer_factory.hpp:77] Creating layer loss2/conv
I0403 15:18:16.642338 18843 net.cpp:91] Creating Layer loss2/conv
I0403 15:18:16.642356 18843 net.cpp:425] loss2/conv <- loss2/ave_pool
I0403 15:18:16.642376 18843 net.cpp:399] loss2/conv -> loss2/conv
I0403 15:18:16.644340 18843 net.cpp:141] Setting up loss2/conv
I0403 15:18:16.644371 18843 net.cpp:148] Top shape: 24 128 4 4 (49152)
I0403 15:18:16.644387 18843 net.cpp:156] Memory required for data: 1207926048
I0403 15:18:16.644405 18843 layer_factory.hpp:77] Creating layer loss2/relu_conv
I0403 15:18:16.644424 18843 net.cpp:91] Creating Layer loss2/relu_conv
I0403 15:18:16.644441 18843 net.cpp:425] loss2/relu_conv <- loss2/conv
I0403 15:18:16.644459 18843 net.cpp:386] loss2/relu_conv -> loss2/conv (in-place)
I0403 15:18:16.644762 18843 net.cpp:141] Setting up loss2/relu_conv
I0403 15:18:16.644790 18843 net.cpp:148] Top shape: 24 128 4 4 (49152)
I0403 15:18:16.644806 18843 net.cpp:156] Memory required for data: 1208122656
I0403 15:18:16.644821 18843 layer_factory.hpp:77] Creating layer loss2/fc
I0403 15:18:16.644840 18843 net.cpp:91] Creating Layer loss2/fc
I0403 15:18:16.644855 18843 net.cpp:425] loss2/fc <- loss2/conv
I0403 15:18:16.644876 18843 net.cpp:399] loss2/fc -> loss2/fc
I0403 15:18:16.663198 18843 net.cpp:141] Setting up loss2/fc
I0403 15:18:16.663234 18843 net.cpp:148] Top shape: 24 1024 (24576)
I0403 15:18:16.663249 18843 net.cpp:156] Memory required for data: 1208220960
I0403 15:18:16.663266 18843 layer_factory.hpp:77] Creating layer loss2/relu_fc
I0403 15:18:16.663287 18843 net.cpp:91] Creating Layer loss2/relu_fc
I0403 15:18:16.663305 18843 net.cpp:425] loss2/relu_fc <- loss2/fc
I0403 15:18:16.663322 18843 net.cpp:386] loss2/relu_fc -> loss2/fc (in-place)
I0403 15:18:16.663627 18843 net.cpp:141] Setting up loss2/relu_fc
I0403 15:18:16.663653 18843 net.cpp:148] Top shape: 24 1024 (24576)
I0403 15:18:16.663668 18843 net.cpp:156] Memory required for data: 1208319264
I0403 15:18:16.663682 18843 layer_factory.hpp:77] Creating layer loss2/drop_fc
I0403 15:18:16.663702 18843 net.cpp:91] Creating Layer loss2/drop_fc
I0403 15:18:16.663718 18843 net.cpp:425] loss2/drop_fc <- loss2/fc
I0403 15:18:16.663734 18843 net.cpp:386] loss2/drop_fc -> loss2/fc (in-place)
I0403 15:18:16.663785 18843 net.cpp:141] Setting up loss2/drop_fc
I0403 15:18:16.663808 18843 net.cpp:148] Top shape: 24 1024 (24576)
I0403 15:18:16.663823 18843 net.cpp:156] Memory required for data: 1208417568
I0403 15:18:16.663837 18843 layer_factory.hpp:77] Creating layer loss2/classifier_plantvillage
I0403 15:18:16.663854 18843 net.cpp:91] Creating Layer loss2/classifier_plantvillage
I0403 15:18:16.663871 18843 net.cpp:425] loss2/classifier_plantvillage <- loss2/fc
I0403 15:18:16.663890 18843 net.cpp:399] loss2/classifier_plantvillage -> loss2/classifier_plantvillage
I0403 15:18:16.664337 18843 net.cpp:141] Setting up loss2/classifier_plantvillage
I0403 15:18:16.664362 18843 net.cpp:148] Top shape: 24 38 (912)
I0403 15:18:16.664393 18843 net.cpp:156] Memory required for data: 1208421216
I0403 15:18:16.664412 18843 layer_factory.hpp:77] Creating layer loss2/classifier_plantvillage_loss2/classifier_plantvillage_0_split
I0403 15:18:16.664429 18843 net.cpp:91] Creating Layer loss2/classifier_plantvillage_loss2/classifier_plantvillage_0_split
I0403 15:18:16.664445 18843 net.cpp:425] loss2/classifier_plantvillage_loss2/classifier_plantvillage_0_split <- loss2/classifier_plantvillage
I0403 15:18:16.664464 18843 net.cpp:399] loss2/classifier_plantvillage_loss2/classifier_plantvillage_0_split -> loss2/classifier_plantvillage_loss2/classifier_plantvillage_0_split_0
I0403 15:18:16.664486 18843 net.cpp:399] loss2/classifier_plantvillage_loss2/classifier_plantvillage_0_split -> loss2/classifier_plantvillage_loss2/classifier_plantvillage_0_split_1
I0403 15:18:16.664506 18843 net.cpp:399] loss2/classifier_plantvillage_loss2/classifier_plantvillage_0_split -> loss2/classifier_plantvillage_loss2/classifier_plantvillage_0_split_2
I0403 15:18:16.664584 18843 net.cpp:141] Setting up loss2/classifier_plantvillage_loss2/classifier_plantvillage_0_split
I0403 15:18:16.664609 18843 net.cpp:148] Top shape: 24 38 (912)
I0403 15:18:16.664626 18843 net.cpp:148] Top shape: 24 38 (912)
I0403 15:18:16.664641 18843 net.cpp:148] Top shape: 24 38 (912)
I0403 15:18:16.664654 18843 net.cpp:156] Memory required for data: 1208432160
I0403 15:18:16.664669 18843 layer_factory.hpp:77] Creating layer inception_4e/1x1
I0403 15:18:16.664688 18843 net.cpp:91] Creating Layer inception_4e/1x1
I0403 15:18:16.664705 18843 net.cpp:425] inception_4e/1x1 <- inception_4d/output_inception_4d/output_0_split_1
I0403 15:18:16.664726 18843 net.cpp:399] inception_4e/1x1 -> inception_4e/1x1
I0403 15:18:16.666582 18843 net.cpp:141] Setting up inception_4e/1x1
I0403 15:18:16.666613 18843 net.cpp:148] Top shape: 24 256 14 14 (1204224)
I0403 15:18:16.666630 18843 net.cpp:156] Memory required for data: 1213249056
I0403 15:18:16.666648 18843 layer_factory.hpp:77] Creating layer inception_4e/relu_1x1
I0403 15:18:16.666666 18843 net.cpp:91] Creating Layer inception_4e/relu_1x1
I0403 15:18:16.666682 18843 net.cpp:425] inception_4e/relu_1x1 <- inception_4e/1x1
I0403 15:18:16.666704 18843 net.cpp:386] inception_4e/relu_1x1 -> inception_4e/1x1 (in-place)
I0403 15:18:16.667008 18843 net.cpp:141] Setting up inception_4e/relu_1x1
I0403 15:18:16.667037 18843 net.cpp:148] Top shape: 24 256 14 14 (1204224)
I0403 15:18:16.667053 18843 net.cpp:156] Memory required for data: 1218065952
I0403 15:18:16.667068 18843 layer_factory.hpp:77] Creating layer inception_4e/3x3_reduce
I0403 15:18:16.667089 18843 net.cpp:91] Creating Layer inception_4e/3x3_reduce
I0403 15:18:16.667107 18843 net.cpp:425] inception_4e/3x3_reduce <- inception_4d/output_inception_4d/output_0_split_2
I0403 15:18:16.667126 18843 net.cpp:399] inception_4e/3x3_reduce -> inception_4e/3x3_reduce
I0403 15:18:16.669296 18843 net.cpp:141] Setting up inception_4e/3x3_reduce
I0403 15:18:16.669325 18843 net.cpp:148] Top shape: 24 160 14 14 (752640)
I0403 15:18:16.669342 18843 net.cpp:156] Memory required for data: 1221076512
I0403 15:18:16.669360 18843 layer_factory.hpp:77] Creating layer inception_4e/relu_3x3_reduce
I0403 15:18:16.669378 18843 net.cpp:91] Creating Layer inception_4e/relu_3x3_reduce
I0403 15:18:16.669394 18843 net.cpp:425] inception_4e/relu_3x3_reduce <- inception_4e/3x3_reduce
I0403 15:18:16.669411 18843 net.cpp:386] inception_4e/relu_3x3_reduce -> inception_4e/3x3_reduce (in-place)
I0403 15:18:16.669602 18843 net.cpp:141] Setting up inception_4e/relu_3x3_reduce
I0403 15:18:16.669630 18843 net.cpp:148] Top shape: 24 160 14 14 (752640)
I0403 15:18:16.669644 18843 net.cpp:156] Memory required for data: 1224087072
I0403 15:18:16.669658 18843 layer_factory.hpp:77] Creating layer inception_4e/3x3
I0403 15:18:16.669683 18843 net.cpp:91] Creating Layer inception_4e/3x3
I0403 15:18:16.669700 18843 net.cpp:425] inception_4e/3x3 <- inception_4e/3x3_reduce
I0403 15:18:16.669723 18843 net.cpp:399] inception_4e/3x3 -> inception_4e/3x3
I0403 15:18:16.674829 18843 net.cpp:141] Setting up inception_4e/3x3
I0403 15:18:16.674872 18843 net.cpp:148] Top shape: 24 320 14 14 (1505280)
I0403 15:18:16.674890 18843 net.cpp:156] Memory required for data: 1230108192
I0403 15:18:16.674907 18843 layer_factory.hpp:77] Creating layer inception_4e/relu_3x3
I0403 15:18:16.674926 18843 net.cpp:91] Creating Layer inception_4e/relu_3x3
I0403 15:18:16.674942 18843 net.cpp:425] inception_4e/relu_3x3 <- inception_4e/3x3
I0403 15:18:16.674962 18843 net.cpp:386] inception_4e/relu_3x3 -> inception_4e/3x3 (in-place)
I0403 15:18:16.675272 18843 net.cpp:141] Setting up inception_4e/relu_3x3
I0403 15:18:16.675298 18843 net.cpp:148] Top shape: 24 320 14 14 (1505280)
I0403 15:18:16.675313 18843 net.cpp:156] Memory required for data: 1236129312
I0403 15:18:16.675328 18843 layer_factory.hpp:77] Creating layer inception_4e/5x5_reduce
I0403 15:18:16.675349 18843 net.cpp:91] Creating Layer inception_4e/5x5_reduce
I0403 15:18:16.675366 18843 net.cpp:425] inception_4e/5x5_reduce <- inception_4d/output_inception_4d/output_0_split_3
I0403 15:18:16.675390 18843 net.cpp:399] inception_4e/5x5_reduce -> inception_4e/5x5_reduce
I0403 15:18:16.676481 18843 net.cpp:141] Setting up inception_4e/5x5_reduce
I0403 15:18:16.676509 18843 net.cpp:148] Top shape: 24 32 14 14 (150528)
I0403 15:18:16.676525 18843 net.cpp:156] Memory required for data: 1236731424
I0403 15:18:16.676544 18843 layer_factory.hpp:77] Creating layer inception_4e/relu_5x5_reduce
I0403 15:18:16.676564 18843 net.cpp:91] Creating Layer inception_4e/relu_5x5_reduce
I0403 15:18:16.676581 18843 net.cpp:425] inception_4e/relu_5x5_reduce <- inception_4e/5x5_reduce
I0403 15:18:16.676597 18843 net.cpp:386] inception_4e/relu_5x5_reduce -> inception_4e/5x5_reduce (in-place)
I0403 15:18:16.676903 18843 net.cpp:141] Setting up inception_4e/relu_5x5_reduce
I0403 15:18:16.676929 18843 net.cpp:148] Top shape: 24 32 14 14 (150528)
I0403 15:18:16.676944 18843 net.cpp:156] Memory required for data: 1237333536
I0403 15:18:16.676959 18843 layer_factory.hpp:77] Creating layer inception_4e/5x5
I0403 15:18:16.677002 18843 net.cpp:91] Creating Layer inception_4e/5x5
I0403 15:18:16.677024 18843 net.cpp:425] inception_4e/5x5 <- inception_4e/5x5_reduce
I0403 15:18:16.677043 18843 net.cpp:399] inception_4e/5x5 -> inception_4e/5x5
I0403 15:18:16.678910 18843 net.cpp:141] Setting up inception_4e/5x5
I0403 15:18:16.678936 18843 net.cpp:148] Top shape: 24 128 14 14 (602112)
I0403 15:18:16.678952 18843 net.cpp:156] Memory required for data: 1239741984
I0403 15:18:16.678972 18843 layer_factory.hpp:77] Creating layer inception_4e/relu_5x5
I0403 15:18:16.679000 18843 net.cpp:91] Creating Layer inception_4e/relu_5x5
I0403 15:18:16.679020 18843 net.cpp:425] inception_4e/relu_5x5 <- inception_4e/5x5
I0403 15:18:16.679039 18843 net.cpp:386] inception_4e/relu_5x5 -> inception_4e/5x5 (in-place)
I0403 15:18:16.679239 18843 net.cpp:141] Setting up inception_4e/relu_5x5
I0403 15:18:16.679266 18843 net.cpp:148] Top shape: 24 128 14 14 (602112)
I0403 15:18:16.679282 18843 net.cpp:156] Memory required for data: 1242150432
I0403 15:18:16.679297 18843 layer_factory.hpp:77] Creating layer inception_4e/pool
I0403 15:18:16.679314 18843 net.cpp:91] Creating Layer inception_4e/pool
I0403 15:18:16.679330 18843 net.cpp:425] inception_4e/pool <- inception_4d/output_inception_4d/output_0_split_4
I0403 15:18:16.679347 18843 net.cpp:399] inception_4e/pool -> inception_4e/pool
I0403 15:18:16.679421 18843 net.cpp:141] Setting up inception_4e/pool
I0403 15:18:16.679445 18843 net.cpp:148] Top shape: 24 528 14 14 (2483712)
I0403 15:18:16.679458 18843 net.cpp:156] Memory required for data: 1252085280
I0403 15:18:16.679472 18843 layer_factory.hpp:77] Creating layer inception_4e/pool_proj
I0403 15:18:16.679497 18843 net.cpp:91] Creating Layer inception_4e/pool_proj
I0403 15:18:16.679513 18843 net.cpp:425] inception_4e/pool_proj <- inception_4e/pool
I0403 15:18:16.679534 18843 net.cpp:399] inception_4e/pool_proj -> inception_4e/pool_proj
I0403 15:18:16.681063 18843 net.cpp:141] Setting up inception_4e/pool_proj
I0403 15:18:16.681102 18843 net.cpp:148] Top shape: 24 128 14 14 (602112)
I0403 15:18:16.681118 18843 net.cpp:156] Memory required for data: 1254493728
I0403 15:18:16.681136 18843 layer_factory.hpp:77] Creating layer inception_4e/relu_pool_proj
I0403 15:18:16.681156 18843 net.cpp:91] Creating Layer inception_4e/relu_pool_proj
I0403 15:18:16.681174 18843 net.cpp:425] inception_4e/relu_pool_proj <- inception_4e/pool_proj
I0403 15:18:16.681190 18843 net.cpp:386] inception_4e/relu_pool_proj -> inception_4e/pool_proj (in-place)
I0403 15:18:16.681489 18843 net.cpp:141] Setting up inception_4e/relu_pool_proj
I0403 15:18:16.681515 18843 net.cpp:148] Top shape: 24 128 14 14 (602112)
I0403 15:18:16.681529 18843 net.cpp:156] Memory required for data: 1256902176
I0403 15:18:16.681545 18843 layer_factory.hpp:77] Creating layer inception_4e/output
I0403 15:18:16.681561 18843 net.cpp:91] Creating Layer inception_4e/output
I0403 15:18:16.681576 18843 net.cpp:425] inception_4e/output <- inception_4e/1x1
I0403 15:18:16.681592 18843 net.cpp:425] inception_4e/output <- inception_4e/3x3
I0403 15:18:16.681608 18843 net.cpp:425] inception_4e/output <- inception_4e/5x5
I0403 15:18:16.681624 18843 net.cpp:425] inception_4e/output <- inception_4e/pool_proj
I0403 15:18:16.681643 18843 net.cpp:399] inception_4e/output -> inception_4e/output
I0403 15:18:16.681695 18843 net.cpp:141] Setting up inception_4e/output
I0403 15:18:16.681720 18843 net.cpp:148] Top shape: 24 832 14 14 (3913728)
I0403 15:18:16.681733 18843 net.cpp:156] Memory required for data: 1272557088
I0403 15:18:16.681747 18843 layer_factory.hpp:77] Creating layer pool4/3x3_s2
I0403 15:18:16.681764 18843 net.cpp:91] Creating Layer pool4/3x3_s2
I0403 15:18:16.681780 18843 net.cpp:425] pool4/3x3_s2 <- inception_4e/output
I0403 15:18:16.681800 18843 net.cpp:399] pool4/3x3_s2 -> pool4/3x3_s2
I0403 15:18:16.681867 18843 net.cpp:141] Setting up pool4/3x3_s2
I0403 15:18:16.681891 18843 net.cpp:148] Top shape: 24 832 7 7 (978432)
I0403 15:18:16.681905 18843 net.cpp:156] Memory required for data: 1276470816
I0403 15:18:16.681920 18843 layer_factory.hpp:77] Creating layer pool4/3x3_s2_pool4/3x3_s2_0_split
I0403 15:18:16.681938 18843 net.cpp:91] Creating Layer pool4/3x3_s2_pool4/3x3_s2_0_split
I0403 15:18:16.681954 18843 net.cpp:425] pool4/3x3_s2_pool4/3x3_s2_0_split <- pool4/3x3_s2
I0403 15:18:16.681972 18843 net.cpp:399] pool4/3x3_s2_pool4/3x3_s2_0_split -> pool4/3x3_s2_pool4/3x3_s2_0_split_0
I0403 15:18:16.682011 18843 net.cpp:399] pool4/3x3_s2_pool4/3x3_s2_0_split -> pool4/3x3_s2_pool4/3x3_s2_0_split_1
I0403 15:18:16.682036 18843 net.cpp:399] pool4/3x3_s2_pool4/3x3_s2_0_split -> pool4/3x3_s2_pool4/3x3_s2_0_split_2
I0403 15:18:16.682056 18843 net.cpp:399] pool4/3x3_s2_pool4/3x3_s2_0_split -> pool4/3x3_s2_pool4/3x3_s2_0_split_3
I0403 15:18:16.682150 18843 net.cpp:141] Setting up pool4/3x3_s2_pool4/3x3_s2_0_split
I0403 15:18:16.682173 18843 net.cpp:148] Top shape: 24 832 7 7 (978432)
I0403 15:18:16.682190 18843 net.cpp:148] Top shape: 24 832 7 7 (978432)
I0403 15:18:16.682205 18843 net.cpp:148] Top shape: 24 832 7 7 (978432)
I0403 15:18:16.682221 18843 net.cpp:148] Top shape: 24 832 7 7 (978432)
I0403 15:18:16.682235 18843 net.cpp:156] Memory required for data: 1292125728
I0403 15:18:16.682250 18843 layer_factory.hpp:77] Creating layer inception_5a/1x1
I0403 15:18:16.682271 18843 net.cpp:91] Creating Layer inception_5a/1x1
I0403 15:18:16.682301 18843 net.cpp:425] inception_5a/1x1 <- pool4/3x3_s2_pool4/3x3_s2_0_split_0
I0403 15:18:16.682322 18843 net.cpp:399] inception_5a/1x1 -> inception_5a/1x1
I0403 15:18:16.685205 18843 net.cpp:141] Setting up inception_5a/1x1
I0403 15:18:16.685235 18843 net.cpp:148] Top shape: 24 256 7 7 (301056)
I0403 15:18:16.685253 18843 net.cpp:156] Memory required for data: 1293329952
I0403 15:18:16.685271 18843 layer_factory.hpp:77] Creating layer inception_5a/relu_1x1
I0403 15:18:16.685289 18843 net.cpp:91] Creating Layer inception_5a/relu_1x1
I0403 15:18:16.685305 18843 net.cpp:425] inception_5a/relu_1x1 <- inception_5a/1x1
I0403 15:18:16.685322 18843 net.cpp:386] inception_5a/relu_1x1 -> inception_5a/1x1 (in-place)
I0403 15:18:16.685647 18843 net.cpp:141] Setting up inception_5a/relu_1x1
I0403 15:18:16.685673 18843 net.cpp:148] Top shape: 24 256 7 7 (301056)
I0403 15:18:16.685693 18843 net.cpp:156] Memory required for data: 1294534176
I0403 15:18:16.685708 18843 layer_factory.hpp:77] Creating layer inception_5a/3x3_reduce
I0403 15:18:16.685726 18843 net.cpp:91] Creating Layer inception_5a/3x3_reduce
I0403 15:18:16.685744 18843 net.cpp:425] inception_5a/3x3_reduce <- pool4/3x3_s2_pool4/3x3_s2_0_split_1
I0403 15:18:16.685765 18843 net.cpp:399] inception_5a/3x3_reduce -> inception_5a/3x3_reduce
I0403 15:18:16.688279 18843 net.cpp:141] Setting up inception_5a/3x3_reduce
I0403 15:18:16.688321 18843 net.cpp:148] Top shape: 24 160 7 7 (188160)
I0403 15:18:16.688336 18843 net.cpp:156] Memory required for data: 1295286816
I0403 15:18:16.688355 18843 layer_factory.hpp:77] Creating layer inception_5a/relu_3x3_reduce
I0403 15:18:16.688372 18843 net.cpp:91] Creating Layer inception_5a/relu_3x3_reduce
I0403 15:18:16.688388 18843 net.cpp:425] inception_5a/relu_3x3_reduce <- inception_5a/3x3_reduce
I0403 15:18:16.688407 18843 net.cpp:386] inception_5a/relu_3x3_reduce -> inception_5a/3x3_reduce (in-place)
I0403 15:18:16.688604 18843 net.cpp:141] Setting up inception_5a/relu_3x3_reduce
I0403 15:18:16.688629 18843 net.cpp:148] Top shape: 24 160 7 7 (188160)
I0403 15:18:16.688644 18843 net.cpp:156] Memory required for data: 1296039456
I0403 15:18:16.688658 18843 layer_factory.hpp:77] Creating layer inception_5a/3x3
I0403 15:18:16.688680 18843 net.cpp:91] Creating Layer inception_5a/3x3
I0403 15:18:16.688697 18843 net.cpp:425] inception_5a/3x3 <- inception_5a/3x3_reduce
I0403 15:18:16.688719 18843 net.cpp:399] inception_5a/3x3 -> inception_5a/3x3
I0403 15:18:16.693804 18843 net.cpp:141] Setting up inception_5a/3x3
I0403 15:18:16.693833 18843 net.cpp:148] Top shape: 24 320 7 7 (376320)
I0403 15:18:16.693848 18843 net.cpp:156] Memory required for data: 1297544736
I0403 15:18:16.693866 18843 layer_factory.hpp:77] Creating layer inception_5a/relu_3x3
I0403 15:18:16.693886 18843 net.cpp:91] Creating Layer inception_5a/relu_3x3
I0403 15:18:16.693902 18843 net.cpp:425] inception_5a/relu_3x3 <- inception_5a/3x3
I0403 15:18:16.693919 18843 net.cpp:386] inception_5a/relu_3x3 -> inception_5a/3x3 (in-place)
I0403 15:18:16.694217 18843 net.cpp:141] Setting up inception_5a/relu_3x3
I0403 15:18:16.694243 18843 net.cpp:148] Top shape: 24 320 7 7 (376320)
I0403 15:18:16.694257 18843 net.cpp:156] Memory required for data: 1299050016
I0403 15:18:16.694270 18843 layer_factory.hpp:77] Creating layer inception_5a/5x5_reduce
I0403 15:18:16.694291 18843 net.cpp:91] Creating Layer inception_5a/5x5_reduce
I0403 15:18:16.694313 18843 net.cpp:425] inception_5a/5x5_reduce <- pool4/3x3_s2_pool4/3x3_s2_0_split_2
I0403 15:18:16.694331 18843 net.cpp:399] inception_5a/5x5_reduce -> inception_5a/5x5_reduce
I0403 15:18:16.695484 18843 net.cpp:141] Setting up inception_5a/5x5_reduce
I0403 15:18:16.695514 18843 net.cpp:148] Top shape: 24 32 7 7 (37632)
I0403 15:18:16.695530 18843 net.cpp:156] Memory required for data: 1299200544
I0403 15:18:16.695547 18843 layer_factory.hpp:77] Creating layer inception_5a/relu_5x5_reduce
I0403 15:18:16.695564 18843 net.cpp:91] Creating Layer inception_5a/relu_5x5_reduce
I0403 15:18:16.695580 18843 net.cpp:425] inception_5a/relu_5x5_reduce <- inception_5a/5x5_reduce
I0403 15:18:16.695596 18843 net.cpp:386] inception_5a/relu_5x5_reduce -> inception_5a/5x5_reduce (in-place)
I0403 15:18:16.695893 18843 net.cpp:141] Setting up inception_5a/relu_5x5_reduce
I0403 15:18:16.695920 18843 net.cpp:148] Top shape: 24 32 7 7 (37632)
I0403 15:18:16.695935 18843 net.cpp:156] Memory required for data: 1299351072
I0403 15:18:16.695950 18843 layer_factory.hpp:77] Creating layer inception_5a/5x5
I0403 15:18:16.695971 18843 net.cpp:91] Creating Layer inception_5a/5x5
I0403 15:18:16.695991 18843 net.cpp:425] inception_5a/5x5 <- inception_5a/5x5_reduce
I0403 15:18:16.696012 18843 net.cpp:399] inception_5a/5x5 -> inception_5a/5x5
I0403 15:18:16.697703 18843 net.cpp:141] Setting up inception_5a/5x5
I0403 15:18:16.697741 18843 net.cpp:148] Top shape: 24 128 7 7 (150528)
I0403 15:18:16.697757 18843 net.cpp:156] Memory required for data: 1299953184
I0403 15:18:16.697773 18843 layer_factory.hpp:77] Creating layer inception_5a/relu_5x5
I0403 15:18:16.697793 18843 net.cpp:91] Creating Layer inception_5a/relu_5x5
I0403 15:18:16.697809 18843 net.cpp:425] inception_5a/relu_5x5 <- inception_5a/5x5
I0403 15:18:16.697826 18843 net.cpp:386] inception_5a/relu_5x5 -> inception_5a/5x5 (in-place)
I0403 15:18:16.698025 18843 net.cpp:141] Setting up inception_5a/relu_5x5
I0403 15:18:16.698051 18843 net.cpp:148] Top shape: 24 128 7 7 (150528)
I0403 15:18:16.698067 18843 net.cpp:156] Memory required for data: 1300555296
I0403 15:18:16.698081 18843 layer_factory.hpp:77] Creating layer inception_5a/pool
I0403 15:18:16.698097 18843 net.cpp:91] Creating Layer inception_5a/pool
I0403 15:18:16.698112 18843 net.cpp:425] inception_5a/pool <- pool4/3x3_s2_pool4/3x3_s2_0_split_3
I0403 15:18:16.698132 18843 net.cpp:399] inception_5a/pool -> inception_5a/pool
I0403 15:18:16.698202 18843 net.cpp:141] Setting up inception_5a/pool
I0403 15:18:16.698225 18843 net.cpp:148] Top shape: 24 832 7 7 (978432)
I0403 15:18:16.698240 18843 net.cpp:156] Memory required for data: 1304469024
I0403 15:18:16.698252 18843 layer_factory.hpp:77] Creating layer inception_5a/pool_proj
I0403 15:18:16.698273 18843 net.cpp:91] Creating Layer inception_5a/pool_proj
I0403 15:18:16.698292 18843 net.cpp:425] inception_5a/pool_proj <- inception_5a/pool
I0403 15:18:16.698310 18843 net.cpp:399] inception_5a/pool_proj -> inception_5a/pool_proj
I0403 15:18:16.700589 18843 net.cpp:141] Setting up inception_5a/pool_proj
I0403 15:18:16.700618 18843 net.cpp:148] Top shape: 24 128 7 7 (150528)
I0403 15:18:16.700634 18843 net.cpp:156] Memory required for data: 1305071136
I0403 15:18:16.700650 18843 layer_factory.hpp:77] Creating layer inception_5a/relu_pool_proj
I0403 15:18:16.700670 18843 net.cpp:91] Creating Layer inception_5a/relu_pool_proj
I0403 15:18:16.700687 18843 net.cpp:425] inception_5a/relu_pool_proj <- inception_5a/pool_proj
I0403 15:18:16.700705 18843 net.cpp:386] inception_5a/relu_pool_proj -> inception_5a/pool_proj (in-place)
I0403 15:18:16.701005 18843 net.cpp:141] Setting up inception_5a/relu_pool_proj
I0403 15:18:16.701032 18843 net.cpp:148] Top shape: 24 128 7 7 (150528)
I0403 15:18:16.701046 18843 net.cpp:156] Memory required for data: 1305673248
I0403 15:18:16.701061 18843 layer_factory.hpp:77] Creating layer inception_5a/output
I0403 15:18:16.701079 18843 net.cpp:91] Creating Layer inception_5a/output
I0403 15:18:16.701094 18843 net.cpp:425] inception_5a/output <- inception_5a/1x1
I0403 15:18:16.701110 18843 net.cpp:425] inception_5a/output <- inception_5a/3x3
I0403 15:18:16.701125 18843 net.cpp:425] inception_5a/output <- inception_5a/5x5
I0403 15:18:16.701141 18843 net.cpp:425] inception_5a/output <- inception_5a/pool_proj
I0403 15:18:16.701156 18843 net.cpp:399] inception_5a/output -> inception_5a/output
I0403 15:18:16.701205 18843 net.cpp:141] Setting up inception_5a/output
I0403 15:18:16.701230 18843 net.cpp:148] Top shape: 24 832 7 7 (978432)
I0403 15:18:16.701244 18843 net.cpp:156] Memory required for data: 1309586976
I0403 15:18:16.701257 18843 layer_factory.hpp:77] Creating layer inception_5a/output_inception_5a/output_0_split
I0403 15:18:16.701274 18843 net.cpp:91] Creating Layer inception_5a/output_inception_5a/output_0_split
I0403 15:18:16.701289 18843 net.cpp:425] inception_5a/output_inception_5a/output_0_split <- inception_5a/output
I0403 15:18:16.701308 18843 net.cpp:399] inception_5a/output_inception_5a/output_0_split -> inception_5a/output_inception_5a/output_0_split_0
I0403 15:18:16.701329 18843 net.cpp:399] inception_5a/output_inception_5a/output_0_split -> inception_5a/output_inception_5a/output_0_split_1
I0403 15:18:16.701349 18843 net.cpp:399] inception_5a/output_inception_5a/output_0_split -> inception_5a/output_inception_5a/output_0_split_2
I0403 15:18:16.701367 18843 net.cpp:399] inception_5a/output_inception_5a/output_0_split -> inception_5a/output_inception_5a/output_0_split_3
I0403 15:18:16.701477 18843 net.cpp:141] Setting up inception_5a/output_inception_5a/output_0_split
I0403 15:18:16.701503 18843 net.cpp:148] Top shape: 24 832 7 7 (978432)
I0403 15:18:16.701520 18843 net.cpp:148] Top shape: 24 832 7 7 (978432)
I0403 15:18:16.701536 18843 net.cpp:148] Top shape: 24 832 7 7 (978432)
I0403 15:18:16.701550 18843 net.cpp:148] Top shape: 24 832 7 7 (978432)
I0403 15:18:16.701563 18843 net.cpp:156] Memory required for data: 1325241888
I0403 15:18:16.701576 18843 layer_factory.hpp:77] Creating layer inception_5b/1x1
I0403 15:18:16.701597 18843 net.cpp:91] Creating Layer inception_5b/1x1
I0403 15:18:16.701614 18843 net.cpp:425] inception_5b/1x1 <- inception_5a/output_inception_5a/output_0_split_0
I0403 15:18:16.701632 18843 net.cpp:399] inception_5b/1x1 -> inception_5b/1x1
I0403 15:18:16.705351 18843 net.cpp:141] Setting up inception_5b/1x1
I0403 15:18:16.705380 18843 net.cpp:148] Top shape: 24 384 7 7 (451584)
I0403 15:18:16.705396 18843 net.cpp:156] Memory required for data: 1327048224
I0403 15:18:16.705413 18843 layer_factory.hpp:77] Creating layer inception_5b/relu_1x1
I0403 15:18:16.705430 18843 net.cpp:91] Creating Layer inception_5b/relu_1x1
I0403 15:18:16.705447 18843 net.cpp:425] inception_5b/relu_1x1 <- inception_5b/1x1
I0403 15:18:16.705466 18843 net.cpp:386] inception_5b/relu_1x1 -> inception_5b/1x1 (in-place)
I0403 15:18:16.705767 18843 net.cpp:141] Setting up inception_5b/relu_1x1
I0403 15:18:16.705793 18843 net.cpp:148] Top shape: 24 384 7 7 (451584)
I0403 15:18:16.705807 18843 net.cpp:156] Memory required for data: 1328854560
I0403 15:18:16.705821 18843 layer_factory.hpp:77] Creating layer inception_5b/3x3_reduce
I0403 15:18:16.705844 18843 net.cpp:91] Creating Layer inception_5b/3x3_reduce
I0403 15:18:16.705862 18843 net.cpp:425] inception_5b/3x3_reduce <- inception_5a/output_inception_5a/output_0_split_1
I0403 15:18:16.705883 18843 net.cpp:399] inception_5b/3x3_reduce -> inception_5b/3x3_reduce
I0403 15:18:16.708559 18843 net.cpp:141] Setting up inception_5b/3x3_reduce
I0403 15:18:16.708591 18843 net.cpp:148] Top shape: 24 192 7 7 (225792)
I0403 15:18:16.708607 18843 net.cpp:156] Memory required for data: 1329757728
I0403 15:18:16.708626 18843 layer_factory.hpp:77] Creating layer inception_5b/relu_3x3_reduce
I0403 15:18:16.708647 18843 net.cpp:91] Creating Layer inception_5b/relu_3x3_reduce
I0403 15:18:16.708664 18843 net.cpp:425] inception_5b/relu_3x3_reduce <- inception_5b/3x3_reduce
I0403 15:18:16.708681 18843 net.cpp:386] inception_5b/relu_3x3_reduce -> inception_5b/3x3_reduce (in-place)
I0403 15:18:16.708881 18843 net.cpp:141] Setting up inception_5b/relu_3x3_reduce
I0403 15:18:16.708906 18843 net.cpp:148] Top shape: 24 192 7 7 (225792)
I0403 15:18:16.708920 18843 net.cpp:156] Memory required for data: 1330660896
I0403 15:18:16.708935 18843 layer_factory.hpp:77] Creating layer inception_5b/3x3
I0403 15:18:16.708958 18843 net.cpp:91] Creating Layer inception_5b/3x3
I0403 15:18:16.708976 18843 net.cpp:425] inception_5b/3x3 <- inception_5b/3x3_reduce
I0403 15:18:16.709019 18843 net.cpp:399] inception_5b/3x3 -> inception_5b/3x3
I0403 15:18:16.715776 18843 net.cpp:141] Setting up inception_5b/3x3
I0403 15:18:16.715804 18843 net.cpp:148] Top shape: 24 384 7 7 (451584)
I0403 15:18:16.715821 18843 net.cpp:156] Memory required for data: 1332467232
I0403 15:18:16.715837 18843 layer_factory.hpp:77] Creating layer inception_5b/relu_3x3
I0403 15:18:16.715858 18843 net.cpp:91] Creating Layer inception_5b/relu_3x3
I0403 15:18:16.715875 18843 net.cpp:425] inception_5b/relu_3x3 <- inception_5b/3x3
I0403 15:18:16.715893 18843 net.cpp:386] inception_5b/relu_3x3 -> inception_5b/3x3 (in-place)
I0403 15:18:16.716209 18843 net.cpp:141] Setting up inception_5b/relu_3x3
I0403 15:18:16.716234 18843 net.cpp:148] Top shape: 24 384 7 7 (451584)
I0403 15:18:16.716249 18843 net.cpp:156] Memory required for data: 1334273568
I0403 15:18:16.716264 18843 layer_factory.hpp:77] Creating layer inception_5b/5x5_reduce
I0403 15:18:16.716301 18843 net.cpp:91] Creating Layer inception_5b/5x5_reduce
I0403 15:18:16.716320 18843 net.cpp:425] inception_5b/5x5_reduce <- inception_5a/output_inception_5a/output_0_split_2
I0403 15:18:16.716342 18843 net.cpp:399] inception_5b/5x5_reduce -> inception_5b/5x5_reduce
I0403 15:18:16.717643 18843 net.cpp:141] Setting up inception_5b/5x5_reduce
I0403 15:18:16.717671 18843 net.cpp:148] Top shape: 24 48 7 7 (56448)
I0403 15:18:16.717686 18843 net.cpp:156] Memory required for data: 1334499360
I0403 15:18:16.717705 18843 layer_factory.hpp:77] Creating layer inception_5b/relu_5x5_reduce
I0403 15:18:16.717725 18843 net.cpp:91] Creating Layer inception_5b/relu_5x5_reduce
I0403 15:18:16.717741 18843 net.cpp:425] inception_5b/relu_5x5_reduce <- inception_5b/5x5_reduce
I0403 15:18:16.717759 18843 net.cpp:386] inception_5b/relu_5x5_reduce -> inception_5b/5x5_reduce (in-place)
I0403 15:18:16.718163 18843 net.cpp:141] Setting up inception_5b/relu_5x5_reduce
I0403 15:18:16.718190 18843 net.cpp:148] Top shape: 24 48 7 7 (56448)
I0403 15:18:16.718205 18843 net.cpp:156] Memory required for data: 1334725152
I0403 15:18:16.718220 18843 layer_factory.hpp:77] Creating layer inception_5b/5x5
I0403 15:18:16.718241 18843 net.cpp:91] Creating Layer inception_5b/5x5
I0403 15:18:16.718258 18843 net.cpp:425] inception_5b/5x5 <- inception_5b/5x5_reduce
I0403 15:18:16.718277 18843 net.cpp:399] inception_5b/5x5 -> inception_5b/5x5
I0403 15:18:16.720379 18843 net.cpp:141] Setting up inception_5b/5x5
I0403 15:18:16.720407 18843 net.cpp:148] Top shape: 24 128 7 7 (150528)
I0403 15:18:16.720422 18843 net.cpp:156] Memory required for data: 1335327264
I0403 15:18:16.720440 18843 layer_factory.hpp:77] Creating layer inception_5b/relu_5x5
I0403 15:18:16.720461 18843 net.cpp:91] Creating Layer inception_5b/relu_5x5
I0403 15:18:16.720477 18843 net.cpp:425] inception_5b/relu_5x5 <- inception_5b/5x5
I0403 15:18:16.720494 18843 net.cpp:386] inception_5b/relu_5x5 -> inception_5b/5x5 (in-place)
I0403 15:18:16.720698 18843 net.cpp:141] Setting up inception_5b/relu_5x5
I0403 15:18:16.720726 18843 net.cpp:148] Top shape: 24 128 7 7 (150528)
I0403 15:18:16.720739 18843 net.cpp:156] Memory required for data: 1335929376
I0403 15:18:16.720754 18843 layer_factory.hpp:77] Creating layer inception_5b/pool
I0403 15:18:16.720772 18843 net.cpp:91] Creating Layer inception_5b/pool
I0403 15:18:16.720788 18843 net.cpp:425] inception_5b/pool <- inception_5a/output_inception_5a/output_0_split_3
I0403 15:18:16.720808 18843 net.cpp:399] inception_5b/pool -> inception_5b/pool
I0403 15:18:16.720880 18843 net.cpp:141] Setting up inception_5b/pool
I0403 15:18:16.720906 18843 net.cpp:148] Top shape: 24 832 7 7 (978432)
I0403 15:18:16.720921 18843 net.cpp:156] Memory required for data: 1339843104
I0403 15:18:16.720935 18843 layer_factory.hpp:77] Creating layer inception_5b/pool_proj
I0403 15:18:16.720954 18843 net.cpp:91] Creating Layer inception_5b/pool_proj
I0403 15:18:16.720971 18843 net.cpp:425] inception_5b/pool_proj <- inception_5b/pool
I0403 15:18:16.721009 18843 net.cpp:399] inception_5b/pool_proj -> inception_5b/pool_proj
I0403 15:18:16.723361 18843 net.cpp:141] Setting up inception_5b/pool_proj
I0403 15:18:16.723389 18843 net.cpp:148] Top shape: 24 128 7 7 (150528)
I0403 15:18:16.723404 18843 net.cpp:156] Memory required for data: 1340445216
I0403 15:18:16.723423 18843 layer_factory.hpp:77] Creating layer inception_5b/relu_pool_proj
I0403 15:18:16.723443 18843 net.cpp:91] Creating Layer inception_5b/relu_pool_proj
I0403 15:18:16.723460 18843 net.cpp:425] inception_5b/relu_pool_proj <- inception_5b/pool_proj
I0403 15:18:16.723477 18843 net.cpp:386] inception_5b/relu_pool_proj -> inception_5b/pool_proj (in-place)
I0403 15:18:16.723780 18843 net.cpp:141] Setting up inception_5b/relu_pool_proj
I0403 15:18:16.723806 18843 net.cpp:148] Top shape: 24 128 7 7 (150528)
I0403 15:18:16.723820 18843 net.cpp:156] Memory required for data: 1341047328
I0403 15:18:16.723835 18843 layer_factory.hpp:77] Creating layer inception_5b/output
I0403 15:18:16.723851 18843 net.cpp:91] Creating Layer inception_5b/output
I0403 15:18:16.723882 18843 net.cpp:425] inception_5b/output <- inception_5b/1x1
I0403 15:18:16.723903 18843 net.cpp:425] inception_5b/output <- inception_5b/3x3
I0403 15:18:16.723922 18843 net.cpp:425] inception_5b/output <- inception_5b/5x5
I0403 15:18:16.723937 18843 net.cpp:425] inception_5b/output <- inception_5b/pool_proj
I0403 15:18:16.723953 18843 net.cpp:399] inception_5b/output -> inception_5b/output
I0403 15:18:16.724011 18843 net.cpp:141] Setting up inception_5b/output
I0403 15:18:16.724035 18843 net.cpp:148] Top shape: 24 1024 7 7 (1204224)
I0403 15:18:16.724050 18843 net.cpp:156] Memory required for data: 1345864224
I0403 15:18:16.724064 18843 layer_factory.hpp:77] Creating layer pool5/7x7_s1
I0403 15:18:16.724081 18843 net.cpp:91] Creating Layer pool5/7x7_s1
I0403 15:18:16.724097 18843 net.cpp:425] pool5/7x7_s1 <- inception_5b/output
I0403 15:18:16.724117 18843 net.cpp:399] pool5/7x7_s1 -> pool5/7x7_s1
I0403 15:18:16.724349 18843 net.cpp:141] Setting up pool5/7x7_s1
I0403 15:18:16.724375 18843 net.cpp:148] Top shape: 24 1024 1 1 (24576)
I0403 15:18:16.724390 18843 net.cpp:156] Memory required for data: 1345962528
I0403 15:18:16.724403 18843 layer_factory.hpp:77] Creating layer pool5/drop_7x7_s1
I0403 15:18:16.724423 18843 net.cpp:91] Creating Layer pool5/drop_7x7_s1
I0403 15:18:16.724439 18843 net.cpp:425] pool5/drop_7x7_s1 <- pool5/7x7_s1
I0403 15:18:16.724457 18843 net.cpp:386] pool5/drop_7x7_s1 -> pool5/7x7_s1 (in-place)
I0403 15:18:16.724509 18843 net.cpp:141] Setting up pool5/drop_7x7_s1
I0403 15:18:16.724532 18843 net.cpp:148] Top shape: 24 1024 1 1 (24576)
I0403 15:18:16.724546 18843 net.cpp:156] Memory required for data: 1346060832
I0403 15:18:16.724572 18843 layer_factory.hpp:77] Creating layer loss3/classifier_plantvillage
I0403 15:18:16.724591 18843 net.cpp:91] Creating Layer loss3/classifier_plantvillage
I0403 15:18:16.724607 18843 net.cpp:425] loss3/classifier_plantvillage <- pool5/7x7_s1
I0403 15:18:16.724640 18843 net.cpp:399] loss3/classifier_plantvillage -> loss3/classifier_plantvillage
I0403 15:18:16.725085 18843 net.cpp:141] Setting up loss3/classifier_plantvillage
I0403 15:18:16.725109 18843 net.cpp:148] Top shape: 24 38 (912)
I0403 15:18:16.725122 18843 net.cpp:156] Memory required for data: 1346064480
I0403 15:18:16.725139 18843 layer_factory.hpp:77] Creating layer loss3/classifier_plantvillage_loss3/classifier_plantvillage_0_split
I0403 15:18:16.725157 18843 net.cpp:91] Creating Layer loss3/classifier_plantvillage_loss3/classifier_plantvillage_0_split
I0403 15:18:16.725172 18843 net.cpp:425] loss3/classifier_plantvillage_loss3/classifier_plantvillage_0_split <- loss3/classifier_plantvillage
I0403 15:18:16.725191 18843 net.cpp:399] loss3/classifier_plantvillage_loss3/classifier_plantvillage_0_split -> loss3/classifier_plantvillage_loss3/classifier_plantvillage_0_split_0
I0403 15:18:16.725211 18843 net.cpp:399] loss3/classifier_plantvillage_loss3/classifier_plantvillage_0_split -> loss3/classifier_plantvillage_loss3/classifier_plantvillage_0_split_1
I0403 15:18:16.725231 18843 net.cpp:399] loss3/classifier_plantvillage_loss3/classifier_plantvillage_0_split -> loss3/classifier_plantvillage_loss3/classifier_plantvillage_0_split_2
I0403 15:18:16.725250 18843 net.cpp:399] loss3/classifier_plantvillage_loss3/classifier_plantvillage_0_split -> loss3/classifier_plantvillage_loss3/classifier_plantvillage_0_split_3
I0403 15:18:16.725347 18843 net.cpp:141] Setting up loss3/classifier_plantvillage_loss3/classifier_plantvillage_0_split
I0403 15:18:16.725370 18843 net.cpp:148] Top shape: 24 38 (912)
I0403 15:18:16.725385 18843 net.cpp:148] Top shape: 24 38 (912)
I0403 15:18:16.725400 18843 net.cpp:148] Top shape: 24 38 (912)
I0403 15:18:16.725414 18843 net.cpp:148] Top shape: 24 38 (912)
I0403 15:18:16.725427 18843 net.cpp:156] Memory required for data: 1346079072
I0403 15:18:16.725440 18843 layer_factory.hpp:77] Creating layer loss1/loss
I0403 15:18:16.725461 18843 net.cpp:91] Creating Layer loss1/loss
I0403 15:18:16.725478 18843 net.cpp:425] loss1/loss <- loss1/classifier_plantvillage_loss1/classifier_plantvillage_0_split_0
I0403 15:18:16.725508 18843 net.cpp:425] loss1/loss <- label_data_1_split_0
…
